…
I0403 13:09:25.474725 10396 net.cpp:313] The NetState phase (1) differed from the phase (0) specified by a rule in layer data
I0403 13:09:25.475033 10396 net.cpp:49] Initializing net from parameters: 
state {
  phase: TEST
}
layer {
  name: "data"
  type: "Data"
  top: "data"
  top: "label"
  include {
    phase: TEST
  }
  transform_param {
    crop_size: 227
    mean_file: "/home/mohanty/data/final_dataset/lmdb/color-80-20/mean.binaryproto"
  }
  data_param {
    source: "/home/mohanty/data/final_dataset/lmdb/color-80-20/test_db"
    batch_size: 100
    backend: LMDB
  }
}
layer {
  name: "conv1"
  type: "Convolution"
  bottom: "data"
  top: "conv1"
  param {
    lr_mult: 1
    decay_mult: 1
  }
  param {
    lr_mult: 2
    decay_mult: 0
  }
  convolution_param {
    num_output: 96
    kernel_size: 11
    stride: 4
    weight_filler {
      type: "gaussian"
      std: 0.01
    }
    bias_filler {
      type: "constant"
      value: 0
    }
  }
}
layer {
  name: "relu1"
  type: "ReLU"
  bottom: "conv1"
  top: "conv1"
}
layer {
  name: "norm1"
  type: "LRN"
  bottom: "conv1"
  top: "norm1"
  lrn_param {
    local_size: 5
    alpha: 0.0001
    beta: 0.75
  }
}
layer {
  name: "pool1"
  type: "Pooling"
  bottom: "norm1"
  top: "pool1"
  pooling_param {
    pool: MAX
    kernel_size: 3
    stride: 2
  }
}
layer {
  name: "conv2"
  type: "Convolution"
  bottom: "pool1"
  top: "conv2"
  param {
    lr_mult: 1
    decay_mult: 1
  }
  param {
    lr_mult: 2
    decay_mult: 0
  }
  convolution_param {
    num_output: 256
    pad: 2
    kernel_size: 5
    group: 2
    weight_filler {
      type: "gaussian"
      std: 0.01
    }
    bias_filler {
      type: "constant"
      value: 0.1
    }
  }
}
layer {
  name: "relu2"
  type: "ReLU"
  bottom: "conv2"
  top: "conv2"
}
layer {
  name: "norm2"
  type: "LRN"
  bottom: "conv2"
  top: "norm2"
  lrn_param {
    local_size: 5
    alpha: 0.0001
    beta: 0.75
  }
}
layer {
  name: "pool2"
  type: "Pooling"
  bottom: "norm2"
  top: "pool2"
  pooling_param {
    pool: MAX
    kernel_size: 3
    stride: 2
  }
}
layer {
  name: "conv3"
  type: "Convolution"
  bottom: "pool2"
  top: "conv3"
  param {
    lr_mult: 1
    decay_mult: 1
  }
  param {
    lr_mult: 2
    decay_mult: 0
  }
  convolution_param {
    num_output: 384
    pad: 1
    kernel_size: 3
    weight_filler {
      type: "gaussian"
      std: 0.01
    }
    bias_filler {
      type: "constant"
      value: 0
    }
  }
}
layer {
  name: "relu3"
  type: "ReLU"
  bottom: "conv3"
  top: "conv3"
}
layer {
  name: "conv4"
  type: "Convolution"
  bottom: "conv3"
  top: "conv4"
  param {
    lr_mult: 1
    decay_mult: 1
  }
  param {
    lr_mult: 2
    decay_mult: 0
  }
  convolution_param {
    num_output: 384
    pad: 1
    kernel_size: 3
    group: 2
    weight_filler {
      type: "gaussian"
      std: 0.01
    }
    bias_filler {
      type: "constant"
      value: 0.1
    }
  }
}
layer {
  name: "relu4"
  type: "ReLU"
  bottom: "conv4"
  top: "conv4"
}
layer {
  name: "conv5"
  type: "Convolution"
  bottom: "conv4"
  top: "conv5"
  param {
    lr_mult: 1
    decay_mult: 1
  }
  param {
    lr_mult: 2
    decay_mult: 0
  }
  convolution_param {
    num_output: 256
    pad: 1
    kernel_size: 3
    group: 2
    weight_filler {
      type: "gaussian"
      std: 0.01
    }
    bias_filler {
      type: "constant"
      value: 0.1
    }
  }
}
layer {
  name: "relu5"
  type: "ReLU"
  bottom: "conv5"
  top: "conv5"
}
layer {
  name: "pool5"
  type: "Pooling"
  bottom: "conv5"
  top: "pool5"
  pooling_param {
    pool: MAX
    kernel_size: 3
    stride: 2
  }
}
layer {
  name: "fc6"
  type: "InnerProduct"
  bottom: "pool5"
  top: "fc6"
  param {
    lr_mult: 1
    decay_mult: 1
  }
  param {
    lr_mult: 2
    decay_mult: 0
  }
  inner_product_param {
    num_output: 4096
    weight_filler {
      type: "gaussian"
      std: 0.005
    }
    bias_filler {
      type: "constant"
      value: 0.1
    }
  }
}
layer {
  name: "relu6"
  type: "ReLU"
  bottom: "fc6"
  top: "fc6"
}
layer {
  name: "drop6"
  type: "Dropout"
  bottom: "fc6"
  top: "fc6"
  dropout_param {
    dropout_ratio: 0.5
  }
}
layer {
  name: "fc7"
  type: "InnerProduct"
  bottom: "fc6"
  top: "fc7"
  param {
    lr_mult: 1
    decay_mult: 1
  }
  param {
    lr_mult: 2
    decay_mult: 0
  }
  inner_product_param {
    num_output: 4096
    weight_filler {
      type: "gaussian"
      std: 0.005
    }
    bias_filler {
      type: "constant"
      value: 0.1
    }
  }
}
layer {
  name: "relu7"
  type: "ReLU"
  bottom: "fc7"
  top: "fc7"
}
layer {
  name: "drop7"
  type: "Dropout"
  bottom: "fc7"
  top: "fc7"
  dropout_param {
    dropout_ratio: 0.5
  }
}
layer {
  name: "fc8_plantvillage"
  type: "InnerProduct"
  bottom: "fc7"
  top: "fc8_plantvillage"
  param {
    lr_mult: 1
    decay_mult: 1
  }
  param {
    lr_mult: 2
    decay_mult: 0
  }
  inner_product_param {
    num_output: 38
    weight_filler {
      type: "gaussian"
      std: 0.01
    }
    bias_filler {
      type: "constant"
      value: 0
    }
  }
}
layer {
  name: "prob"
  type: "Softmax"
  bottom: "fc8_plantvillage"
  top: "prob"
  include {
    phase: TEST
  }
}
layer {
  name: "hdf5out"
  type: "HDF5Output"
  bottom: "prob"
  bottom: "label"
  include {
    phase: TEST
  }
  hdf5_output_param {
    file_name: "hdf5_dumps/iter_437.h5"
  }
}
layer {
  name: "loss"
  type: "SoftmaxWithLoss"
  bottom: "fc8_plantvillage"
  bottom: "label"
  top: "loss"
}
layer {
  name: "accuracy"
  type: "Accuracy"
  bottom: "fc8_plantvillage"
  bottom: "label"
  top: "accuracy"
  include {
    phase: TEST
  }
}
I0403 13:09:25.475610 10396 layer_factory.hpp:77] Creating layer data
I0403 13:09:25.476260 10396 net.cpp:91] Creating Layer data
I0403 13:09:25.476294 10396 net.cpp:399] data -> data
I0403 13:09:25.476344 10396 net.cpp:399] data -> label
I0403 13:09:25.476382 10396 data_transformer.cpp:25] Loading mean file from: /home/mohanty/data/final_dataset/lmdb/color-80-20/mean.binaryproto
I0403 13:09:25.499511 10399 db_lmdb.cpp:38] Opened lmdb /home/mohanty/data/final_dataset/lmdb/color-80-20/test_db
I0403 13:09:25.524343 10396 data_layer.cpp:41] output data size: 100,3,227,227
I0403 13:09:25.643261 10396 net.cpp:141] Setting up data
I0403 13:09:25.643367 10396 net.cpp:148] Top shape: 100 3 227 227 (15458700)
I0403 13:09:25.643390 10396 net.cpp:148] Top shape: 100 (100)
I0403 13:09:25.643405 10396 net.cpp:156] Memory required for data: 61835200
I0403 13:09:25.643434 10396 layer_factory.hpp:77] Creating layer label_data_1_split
I0403 13:09:25.643460 10396 net.cpp:91] Creating Layer label_data_1_split
I0403 13:09:25.643477 10396 net.cpp:425] label_data_1_split <- label
I0403 13:09:25.643510 10396 net.cpp:399] label_data_1_split -> label_data_1_split_0
I0403 13:09:25.643537 10396 net.cpp:399] label_data_1_split -> label_data_1_split_1
I0403 13:09:25.643558 10396 net.cpp:399] label_data_1_split -> label_data_1_split_2
I0403 13:09:25.643630 10396 net.cpp:141] Setting up label_data_1_split
I0403 13:09:25.643664 10396 net.cpp:148] Top shape: 100 (100)
I0403 13:09:25.643681 10396 net.cpp:148] Top shape: 100 (100)
I0403 13:09:25.643697 10396 net.cpp:148] Top shape: 100 (100)
I0403 13:09:25.643710 10396 net.cpp:156] Memory required for data: 61836400
I0403 13:09:25.643724 10396 layer_factory.hpp:77] Creating layer conv1
I0403 13:09:25.643756 10396 net.cpp:91] Creating Layer conv1
I0403 13:09:25.643774 10396 net.cpp:425] conv1 <- data
I0403 13:09:25.643793 10396 net.cpp:399] conv1 -> conv1
I0403 13:09:25.786049 10396 net.cpp:141] Setting up conv1
I0403 13:09:25.786128 10396 net.cpp:148] Top shape: 100 96 55 55 (29040000)
I0403 13:09:25.786144 10396 net.cpp:156] Memory required for data: 177996400
I0403 13:09:25.786173 10396 layer_factory.hpp:77] Creating layer relu1
I0403 13:09:25.786202 10396 net.cpp:91] Creating Layer relu1
I0403 13:09:25.786221 10396 net.cpp:425] relu1 <- conv1
I0403 13:09:25.786239 10396 net.cpp:386] relu1 -> conv1 (in-place)
I0403 13:09:25.786507 10396 net.cpp:141] Setting up relu1
I0403 13:09:25.786535 10396 net.cpp:148] Top shape: 100 96 55 55 (29040000)
I0403 13:09:25.786550 10396 net.cpp:156] Memory required for data: 294156400
I0403 13:09:25.786604 10396 layer_factory.hpp:77] Creating layer norm1
I0403 13:09:25.786636 10396 net.cpp:91] Creating Layer norm1
I0403 13:09:25.786654 10396 net.cpp:425] norm1 <- conv1
I0403 13:09:25.786672 10396 net.cpp:399] norm1 -> norm1
I0403 13:09:25.786993 10396 net.cpp:141] Setting up norm1
I0403 13:09:25.787024 10396 net.cpp:148] Top shape: 100 96 55 55 (29040000)
I0403 13:09:25.787039 10396 net.cpp:156] Memory required for data: 410316400
I0403 13:09:25.787055 10396 layer_factory.hpp:77] Creating layer pool1
I0403 13:09:25.787077 10396 net.cpp:91] Creating Layer pool1
I0403 13:09:25.787093 10396 net.cpp:425] pool1 <- norm1
I0403 13:09:25.787111 10396 net.cpp:399] pool1 -> pool1
I0403 13:09:25.787194 10396 net.cpp:141] Setting up pool1
I0403 13:09:25.787220 10396 net.cpp:148] Top shape: 100 96 27 27 (6998400)
I0403 13:09:25.787235 10396 net.cpp:156] Memory required for data: 438310000
I0403 13:09:25.787250 10396 layer_factory.hpp:77] Creating layer conv2
I0403 13:09:25.787277 10396 net.cpp:91] Creating Layer conv2
I0403 13:09:25.787293 10396 net.cpp:425] conv2 <- pool1
I0403 13:09:25.787313 10396 net.cpp:399] conv2 -> conv2
I0403 13:09:25.802340 10396 net.cpp:141] Setting up conv2
I0403 13:09:25.802388 10396 net.cpp:148] Top shape: 100 256 27 27 (18662400)
I0403 13:09:25.802405 10396 net.cpp:156] Memory required for data: 512959600
I0403 13:09:25.802428 10396 layer_factory.hpp:77] Creating layer relu2
I0403 13:09:25.802451 10396 net.cpp:91] Creating Layer relu2
I0403 13:09:25.802469 10396 net.cpp:425] relu2 <- conv2
I0403 13:09:25.802487 10396 net.cpp:386] relu2 -> conv2 (in-place)
I0403 13:09:25.802769 10396 net.cpp:141] Setting up relu2
I0403 13:09:25.802798 10396 net.cpp:148] Top shape: 100 256 27 27 (18662400)
I0403 13:09:25.802814 10396 net.cpp:156] Memory required for data: 587609200
I0403 13:09:25.802829 10396 layer_factory.hpp:77] Creating layer norm2
I0403 13:09:25.802853 10396 net.cpp:91] Creating Layer norm2
I0403 13:09:25.802870 10396 net.cpp:425] norm2 <- conv2
I0403 13:09:25.802887 10396 net.cpp:399] norm2 -> norm2
I0403 13:09:25.803092 10396 net.cpp:141] Setting up norm2
I0403 13:09:25.803117 10396 net.cpp:148] Top shape: 100 256 27 27 (18662400)
I0403 13:09:25.803131 10396 net.cpp:156] Memory required for data: 662258800
I0403 13:09:25.803146 10396 layer_factory.hpp:77] Creating layer pool2
I0403 13:09:25.803167 10396 net.cpp:91] Creating Layer pool2
I0403 13:09:25.803184 10396 net.cpp:425] pool2 <- norm2
I0403 13:09:25.803201 10396 net.cpp:399] pool2 -> pool2
I0403 13:09:25.803256 10396 net.cpp:141] Setting up pool2
I0403 13:09:25.803278 10396 net.cpp:148] Top shape: 100 256 13 13 (4326400)
I0403 13:09:25.803292 10396 net.cpp:156] Memory required for data: 679564400
I0403 13:09:25.803306 10396 layer_factory.hpp:77] Creating layer conv3
I0403 13:09:25.803329 10396 net.cpp:91] Creating Layer conv3
I0403 13:09:25.803346 10396 net.cpp:425] conv3 <- pool2
I0403 13:09:25.803366 10396 net.cpp:399] conv3 -> conv3
I0403 13:09:25.848642 10396 net.cpp:141] Setting up conv3
I0403 13:09:25.848723 10396 net.cpp:148] Top shape: 100 384 13 13 (6489600)
I0403 13:09:25.848742 10396 net.cpp:156] Memory required for data: 705522800
I0403 13:09:25.848768 10396 layer_factory.hpp:77] Creating layer relu3
I0403 13:09:25.848791 10396 net.cpp:91] Creating Layer relu3
I0403 13:09:25.848809 10396 net.cpp:425] relu3 <- conv3
I0403 13:09:25.848827 10396 net.cpp:386] relu3 -> conv3 (in-place)
I0403 13:09:25.849104 10396 net.cpp:141] Setting up relu3
I0403 13:09:25.849134 10396 net.cpp:148] Top shape: 100 384 13 13 (6489600)
I0403 13:09:25.849151 10396 net.cpp:156] Memory required for data: 731481200
I0403 13:09:25.849166 10396 layer_factory.hpp:77] Creating layer conv4
I0403 13:09:25.849192 10396 net.cpp:91] Creating Layer conv4
I0403 13:09:25.849210 10396 net.cpp:425] conv4 <- conv3
I0403 13:09:25.849227 10396 net.cpp:399] conv4 -> conv4
I0403 13:09:25.879673 10396 net.cpp:141] Setting up conv4
I0403 13:09:25.879740 10396 net.cpp:148] Top shape: 100 384 13 13 (6489600)
I0403 13:09:25.879791 10396 net.cpp:156] Memory required for data: 757439600
I0403 13:09:25.879813 10396 layer_factory.hpp:77] Creating layer relu4
I0403 13:09:25.879839 10396 net.cpp:91] Creating Layer relu4
I0403 13:09:25.879856 10396 net.cpp:425] relu4 <- conv4
I0403 13:09:25.879875 10396 net.cpp:386] relu4 -> conv4 (in-place)
I0403 13:09:25.880157 10396 net.cpp:141] Setting up relu4
I0403 13:09:25.880184 10396 net.cpp:148] Top shape: 100 384 13 13 (6489600)
I0403 13:09:25.880199 10396 net.cpp:156] Memory required for data: 783398000
I0403 13:09:25.880214 10396 layer_factory.hpp:77] Creating layer conv5
I0403 13:09:25.880240 10396 net.cpp:91] Creating Layer conv5
I0403 13:09:25.880257 10396 net.cpp:425] conv5 <- conv4
I0403 13:09:25.880278 10396 net.cpp:399] conv5 -> conv5
I0403 13:09:25.901257 10396 net.cpp:141] Setting up conv5
I0403 13:09:25.901309 10396 net.cpp:148] Top shape: 100 256 13 13 (4326400)
I0403 13:09:25.901325 10396 net.cpp:156] Memory required for data: 800703600
I0403 13:09:25.901350 10396 layer_factory.hpp:77] Creating layer relu5
I0403 13:09:25.901374 10396 net.cpp:91] Creating Layer relu5
I0403 13:09:25.901392 10396 net.cpp:425] relu5 <- conv5
I0403 13:09:25.901412 10396 net.cpp:386] relu5 -> conv5 (in-place)
I0403 13:09:25.901695 10396 net.cpp:141] Setting up relu5
I0403 13:09:25.901724 10396 net.cpp:148] Top shape: 100 256 13 13 (4326400)
I0403 13:09:25.901741 10396 net.cpp:156] Memory required for data: 818009200
I0403 13:09:25.901757 10396 layer_factory.hpp:77] Creating layer pool5
I0403 13:09:25.901778 10396 net.cpp:91] Creating Layer pool5
I0403 13:09:25.901794 10396 net.cpp:425] pool5 <- conv5
I0403 13:09:25.901814 10396 net.cpp:399] pool5 -> pool5
I0403 13:09:25.901877 10396 net.cpp:141] Setting up pool5
I0403 13:09:25.901903 10396 net.cpp:148] Top shape: 100 256 6 6 (921600)
I0403 13:09:25.901918 10396 net.cpp:156] Memory required for data: 821695600
I0403 13:09:25.901933 10396 layer_factory.hpp:77] Creating layer fc6
I0403 13:09:25.901958 10396 net.cpp:91] Creating Layer fc6
I0403 13:09:25.901976 10396 net.cpp:425] fc6 <- pool5
I0403 13:09:25.901996 10396 net.cpp:399] fc6 -> fc6
I0403 13:09:27.479949 10396 net.cpp:141] Setting up fc6
I0403 13:09:27.480027 10396 net.cpp:148] Top shape: 100 4096 (409600)
I0403 13:09:27.480043 10396 net.cpp:156] Memory required for data: 823334000
I0403 13:09:27.480064 10396 layer_factory.hpp:77] Creating layer relu6
I0403 13:09:27.480088 10396 net.cpp:91] Creating Layer relu6
I0403 13:09:27.480106 10396 net.cpp:425] relu6 <- fc6
I0403 13:09:27.480125 10396 net.cpp:386] relu6 -> fc6 (in-place)
I0403 13:09:27.480352 10396 net.cpp:141] Setting up relu6
I0403 13:09:27.480378 10396 net.cpp:148] Top shape: 100 4096 (409600)
I0403 13:09:27.480392 10396 net.cpp:156] Memory required for data: 824972400
I0403 13:09:27.480406 10396 layer_factory.hpp:77] Creating layer drop6
I0403 13:09:27.480428 10396 net.cpp:91] Creating Layer drop6
I0403 13:09:27.480444 10396 net.cpp:425] drop6 <- fc6
I0403 13:09:27.480460 10396 net.cpp:386] drop6 -> fc6 (in-place)
I0403 13:09:27.480515 10396 net.cpp:141] Setting up drop6
I0403 13:09:27.480535 10396 net.cpp:148] Top shape: 100 4096 (409600)
I0403 13:09:27.480551 10396 net.cpp:156] Memory required for data: 826610800
I0403 13:09:27.480569 10396 layer_factory.hpp:77] Creating layer fc7
I0403 13:09:27.480595 10396 net.cpp:91] Creating Layer fc7
I0403 13:09:27.480617 10396 net.cpp:425] fc7 <- fc6
I0403 13:09:27.480634 10396 net.cpp:399] fc7 -> fc7
I0403 13:09:28.173835 10396 net.cpp:141] Setting up fc7
I0403 13:09:28.173902 10396 net.cpp:148] Top shape: 100 4096 (409600)
I0403 13:09:28.173918 10396 net.cpp:156] Memory required for data: 828249200
I0403 13:09:28.173938 10396 layer_factory.hpp:77] Creating layer relu7
I0403 13:09:28.173959 10396 net.cpp:91] Creating Layer relu7
I0403 13:09:28.173976 10396 net.cpp:425] relu7 <- fc7
I0403 13:09:28.173995 10396 net.cpp:386] relu7 -> fc7 (in-place)
I0403 13:09:28.174388 10396 net.cpp:141] Setting up relu7
I0403 13:09:28.174417 10396 net.cpp:148] Top shape: 100 4096 (409600)
I0403 13:09:28.174464 10396 net.cpp:156] Memory required for data: 829887600
I0403 13:09:28.174480 10396 layer_factory.hpp:77] Creating layer drop7
I0403 13:09:28.174499 10396 net.cpp:91] Creating Layer drop7
I0403 13:09:28.174512 10396 net.cpp:425] drop7 <- fc7
I0403 13:09:28.174530 10396 net.cpp:386] drop7 -> fc7 (in-place)
I0403 13:09:28.174576 10396 net.cpp:141] Setting up drop7
I0403 13:09:28.174597 10396 net.cpp:148] Top shape: 100 4096 (409600)
I0403 13:09:28.174626 10396 net.cpp:156] Memory required for data: 831526000
I0403 13:09:28.174640 10396 layer_factory.hpp:77] Creating layer fc8_plantvillage
I0403 13:09:28.174664 10396 net.cpp:91] Creating Layer fc8_plantvillage
I0403 13:09:28.174679 10396 net.cpp:425] fc8_plantvillage <- fc7
I0403 13:09:28.174697 10396 net.cpp:399] fc8_plantvillage -> fc8_plantvillage
I0403 13:09:28.181494 10396 net.cpp:141] Setting up fc8_plantvillage
I0403 13:09:28.181524 10396 net.cpp:148] Top shape: 100 38 (3800)
I0403 13:09:28.181538 10396 net.cpp:156] Memory required for data: 831541200
I0403 13:09:28.181556 10396 layer_factory.hpp:77] Creating layer fc8_plantvillage_fc8_plantvillage_0_split
I0403 13:09:28.181581 10396 net.cpp:91] Creating Layer fc8_plantvillage_fc8_plantvillage_0_split
I0403 13:09:28.181596 10396 net.cpp:425] fc8_plantvillage_fc8_plantvillage_0_split <- fc8_plantvillage
I0403 13:09:28.181617 10396 net.cpp:399] fc8_plantvillage_fc8_plantvillage_0_split -> fc8_plantvillage_fc8_plantvillage_0_split_0
I0403 13:09:28.181640 10396 net.cpp:399] fc8_plantvillage_fc8_plantvillage_0_split -> fc8_plantvillage_fc8_plantvillage_0_split_1
I0403 13:09:28.181659 10396 net.cpp:399] fc8_plantvillage_fc8_plantvillage_0_split -> fc8_plantvillage_fc8_plantvillage_0_split_2
I0403 13:09:28.181735 10396 net.cpp:141] Setting up fc8_plantvillage_fc8_plantvillage_0_split
I0403 13:09:28.181758 10396 net.cpp:148] Top shape: 100 38 (3800)
I0403 13:09:28.181774 10396 net.cpp:148] Top shape: 100 38 (3800)
I0403 13:09:28.181788 10396 net.cpp:148] Top shape: 100 38 (3800)
I0403 13:09:28.181802 10396 net.cpp:156] Memory required for data: 831586800
I0403 13:09:28.181816 10396 layer_factory.hpp:77] Creating layer prob
I0403 13:09:28.181836 10396 net.cpp:91] Creating Layer prob
I0403 13:09:28.181852 10396 net.cpp:425] prob <- fc8_plantvillage_fc8_plantvillage_0_split_0
I0403 13:09:28.181869 10396 net.cpp:399] prob -> prob
I0403 13:09:28.182093 10396 net.cpp:141] Setting up prob
I0403 13:09:28.182118 10396 net.cpp:148] Top shape: 100 38 (3800)
I0403 13:09:28.182137 10396 net.cpp:156] Memory required for data: 831602000
I0403 13:09:28.182150 10396 layer_factory.hpp:77] Creating layer hdf5out
I0403 13:09:28.182168 10396 net.cpp:91] Creating Layer hdf5out
I0403 13:09:28.182183 10396 net.cpp:425] hdf5out <- prob
I0403 13:09:28.182199 10396 net.cpp:425] hdf5out <- label_data_1_split_0
I0403 13:09:28.195343 10396 net.cpp:141] Setting up hdf5out
…
