…
I0403 13:21:14.644392 10944 net.cpp:313] The NetState phase (1) differed from the phase (0) specified by a rule in layer data
I0403 13:21:14.644692 10944 net.cpp:49] Initializing net from parameters: 
state {
  phase: TEST
}
layer {
  name: "data"
  type: "Data"
  top: "data"
  top: "label"
  include {
    phase: TEST
  }
  transform_param {
    crop_size: 227
    mean_file: "/home/mohanty/data/final_dataset/lmdb/color-80-20/mean.binaryproto"
  }
  data_param {
    source: "/home/mohanty/data/final_dataset/lmdb/color-80-20/test_db"
    batch_size: 100
    backend: LMDB
  }
}
layer {
  name: "conv1"
  type: "Convolution"
  bottom: "data"
  top: "conv1"
  param {
    lr_mult: 1
    decay_mult: 1
  }
  param {
    lr_mult: 2
    decay_mult: 0
  }
  convolution_param {
    num_output: 96
    kernel_size: 11
    stride: 4
    weight_filler {
      type: "gaussian"
      std: 0.01
    }
    bias_filler {
      type: "constant"
      value: 0
    }
  }
}
layer {
  name: "relu1"
  type: "ReLU"
  bottom: "conv1"
  top: "conv1"
}
layer {
  name: "norm1"
  type: "LRN"
  bottom: "conv1"
  top: "norm1"
  lrn_param {
    local_size: 5
    alpha: 0.0001
    beta: 0.75
  }
}
layer {
  name: "pool1"
  type: "Pooling"
  bottom: "norm1"
  top: "pool1"
  pooling_param {
    pool: MAX
    kernel_size: 3
    stride: 2
  }
}
layer {
  name: "conv2"
  type: "Convolution"
  bottom: "pool1"
  top: "conv2"
  param {
    lr_mult: 1
    decay_mult: 1
  }
  param {
    lr_mult: 2
    decay_mult: 0
  }
  convolution_param {
    num_output: 256
    pad: 2
    kernel_size: 5
    group: 2
    weight_filler {
      type: "gaussian"
      std: 0.01
    }
    bias_filler {
      type: "constant"
      value: 0.1
    }
  }
}
layer {
  name: "relu2"
  type: "ReLU"
  bottom: "conv2"
  top: "conv2"
}
layer {
  name: "norm2"
  type: "LRN"
  bottom: "conv2"
  top: "norm2"
  lrn_param {
    local_size: 5
    alpha: 0.0001
    beta: 0.75
  }
}
layer {
  name: "pool2"
  type: "Pooling"
  bottom: "norm2"
  top: "pool2"
  pooling_param {
    pool: MAX
    kernel_size: 3
    stride: 2
  }
}
layer {
  name: "conv3"
  type: "Convolution"
  bottom: "pool2"
  top: "conv3"
  param {
    lr_mult: 1
    decay_mult: 1
  }
  param {
    lr_mult: 2
    decay_mult: 0
  }
  convolution_param {
    num_output: 384
    pad: 1
    kernel_size: 3
    weight_filler {
      type: "gaussian"
      std: 0.01
    }
    bias_filler {
      type: "constant"
      value: 0
    }
  }
}
layer {
  name: "relu3"
  type: "ReLU"
  bottom: "conv3"
  top: "conv3"
}
layer {
  name: "conv4"
  type: "Convolution"
  bottom: "conv3"
  top: "conv4"
  param {
    lr_mult: 1
    decay_mult: 1
  }
  param {
    lr_mult: 2
    decay_mult: 0
  }
  convolution_param {
    num_output: 384
    pad: 1
    kernel_size: 3
    group: 2
    weight_filler {
      type: "gaussian"
      std: 0.01
    }
    bias_filler {
      type: "constant"
      value: 0.1
    }
  }
}
layer {
  name: "relu4"
  type: "ReLU"
  bottom: "conv4"
  top: "conv4"
}
layer {
  name: "conv5"
  type: "Convolution"
  bottom: "conv4"
  top: "conv5"
  param {
    lr_mult: 1
    decay_mult: 1
  }
  param {
    lr_mult: 2
    decay_mult: 0
  }
  convolution_param {
    num_output: 256
    pad: 1
    kernel_size: 3
    group: 2
    weight_filler {
      type: "gaussian"
      std: 0.01
    }
    bias_filler {
      type: "constant"
      value: 0.1
    }
  }
}
layer {
  name: "relu5"
  type: "ReLU"
  bottom: "conv5"
  top: "conv5"
}
layer {
  name: "pool5"
  type: "Pooling"
  bottom: "conv5"
  top: "pool5"
  pooling_param {
    pool: MAX
    kernel_size: 3
    stride: 2
  }
}
layer {
  name: "fc6"
  type: "InnerProduct"
  bottom: "pool5"
  top: "fc6"
  param {
    lr_mult: 1
    decay_mult: 1
  }
  param {
    lr_mult: 2
    decay_mult: 0
  }
  inner_product_param {
    num_output: 4096
    weight_filler {
      type: "gaussian"
      std: 0.005
    }
    bias_filler {
      type: "constant"
      value: 0.1
    }
  }
}
layer {
  name: "relu6"
  type: "ReLU"
  bottom: "fc6"
  top: "fc6"
}
layer {
  name: "drop6"
  type: "Dropout"
  bottom: "fc6"
  top: "fc6"
  dropout_param {
    dropout_ratio: 0.5
  }
}
layer {
  name: "fc7"
  type: "InnerProduct"
  bottom: "fc6"
  top: "fc7"
  param {
    lr_mult: 1
    decay_mult: 1
  }
  param {
    lr_mult: 2
    decay_mult: 0
  }
  inner_product_param {
    num_output: 4096
    weight_filler {
      type: "gaussian"
      std: 0.005
    }
    bias_filler {
      type: "constant"
      value: 0.1
    }
  }
}
layer {
  name: "relu7"
  type: "ReLU"
  bottom: "fc7"
  top: "fc7"
}
layer {
  name: "drop7"
  type: "Dropout"
  bottom: "fc7"
  top: "fc7"
  dropout_param {
    dropout_ratio: 0.5
  }
}
layer {
  name: "fc8_plantvillage"
  type: "InnerProduct"
  bottom: "fc7"
  top: "fc8_plantvillage"
  param {
    lr_mult: 1
    decay_mult: 1
  }
  param {
    lr_mult: 2
    decay_mult: 0
  }
  inner_product_param {
    num_output: 38
    weight_filler {
      type: "gaussian"
      std: 0.01
    }
    bias_filler {
      type: "constant"
      value: 0
    }
  }
}
layer {
  name: "prob"
  type: "Softmax"
  bottom: "fc8_plantvillage"
  top: "prob"
  include {
    phase: TEST
  }
}
layer {
  name: "hdf5out"
  type: "HDF5Output"
  bottom: "prob"
  bottom: "label"
  include {
    phase: TEST
  }
  hdf5_output_param {
    file_name: "hdf5_dumps/iter_12673.h5"
  }
}
layer {
  name: "loss"
  type: "SoftmaxWithLoss"
  bottom: "fc8_plantvillage"
  bottom: "label"
  top: "loss"
}
layer {
  name: "accuracy"
  type: "Accuracy"
  bottom: "fc8_plantvillage"
  bottom: "label"
  top: "accuracy"
  include {
    phase: TEST
  }
}
I0403 13:21:14.645337 10944 layer_factory.hpp:77] Creating layer data
I0403 13:21:14.646020 10944 net.cpp:91] Creating Layer data
I0403 13:21:14.646054 10944 net.cpp:399] data -> data
I0403 13:21:14.646103 10944 net.cpp:399] data -> label
I0403 13:21:14.646139 10944 data_transformer.cpp:25] Loading mean file from: /home/mohanty/data/final_dataset/lmdb/color-80-20/mean.binaryproto
I0403 13:21:14.648818 10948 db_lmdb.cpp:38] Opened lmdb /home/mohanty/data/final_dataset/lmdb/color-80-20/test_db
I0403 13:21:14.660573 10944 data_layer.cpp:41] output data size: 100,3,227,227
I0403 13:21:14.781705 10944 net.cpp:141] Setting up data
I0403 13:21:14.781800 10944 net.cpp:148] Top shape: 100 3 227 227 (15458700)
I0403 13:21:14.781822 10944 net.cpp:148] Top shape: 100 (100)
I0403 13:21:14.781838 10944 net.cpp:156] Memory required for data: 61835200
I0403 13:21:14.781867 10944 layer_factory.hpp:77] Creating layer label_data_1_split
I0403 13:21:14.781893 10944 net.cpp:91] Creating Layer label_data_1_split
I0403 13:21:14.781911 10944 net.cpp:425] label_data_1_split <- label
I0403 13:21:14.781945 10944 net.cpp:399] label_data_1_split -> label_data_1_split_0
I0403 13:21:14.781973 10944 net.cpp:399] label_data_1_split -> label_data_1_split_1
I0403 13:21:14.781994 10944 net.cpp:399] label_data_1_split -> label_data_1_split_2
I0403 13:21:14.782058 10944 net.cpp:141] Setting up label_data_1_split
I0403 13:21:14.782083 10944 net.cpp:148] Top shape: 100 (100)
I0403 13:21:14.782100 10944 net.cpp:148] Top shape: 100 (100)
I0403 13:21:14.782116 10944 net.cpp:148] Top shape: 100 (100)
I0403 13:21:14.782131 10944 net.cpp:156] Memory required for data: 61836400
I0403 13:21:14.782146 10944 layer_factory.hpp:77] Creating layer conv1
I0403 13:21:14.782178 10944 net.cpp:91] Creating Layer conv1
I0403 13:21:14.782197 10944 net.cpp:425] conv1 <- data
I0403 13:21:14.782217 10944 net.cpp:399] conv1 -> conv1
I0403 13:21:14.926681 10944 net.cpp:141] Setting up conv1
I0403 13:21:14.926759 10944 net.cpp:148] Top shape: 100 96 55 55 (29040000)
I0403 13:21:14.926776 10944 net.cpp:156] Memory required for data: 177996400
I0403 13:21:14.926808 10944 layer_factory.hpp:77] Creating layer relu1
I0403 13:21:14.926836 10944 net.cpp:91] Creating Layer relu1
I0403 13:21:14.926853 10944 net.cpp:425] relu1 <- conv1
I0403 13:21:14.926874 10944 net.cpp:386] relu1 -> conv1 (in-place)
I0403 13:21:14.927172 10944 net.cpp:141] Setting up relu1
I0403 13:21:14.927201 10944 net.cpp:148] Top shape: 100 96 55 55 (29040000)
I0403 13:21:14.927216 10944 net.cpp:156] Memory required for data: 294156400
I0403 13:21:14.927273 10944 layer_factory.hpp:77] Creating layer norm1
I0403 13:21:14.927301 10944 net.cpp:91] Creating Layer norm1
I0403 13:21:14.927319 10944 net.cpp:425] norm1 <- conv1
I0403 13:21:14.927336 10944 net.cpp:399] norm1 -> norm1
I0403 13:21:14.927659 10944 net.cpp:141] Setting up norm1
I0403 13:21:14.927687 10944 net.cpp:148] Top shape: 100 96 55 55 (29040000)
I0403 13:21:14.927702 10944 net.cpp:156] Memory required for data: 410316400
I0403 13:21:14.927717 10944 layer_factory.hpp:77] Creating layer pool1
I0403 13:21:14.927739 10944 net.cpp:91] Creating Layer pool1
I0403 13:21:14.927757 10944 net.cpp:425] pool1 <- norm1
I0403 13:21:14.927774 10944 net.cpp:399] pool1 -> pool1
I0403 13:21:14.927841 10944 net.cpp:141] Setting up pool1
I0403 13:21:14.927865 10944 net.cpp:148] Top shape: 100 96 27 27 (6998400)
I0403 13:21:14.927880 10944 net.cpp:156] Memory required for data: 438310000
I0403 13:21:14.927894 10944 layer_factory.hpp:77] Creating layer conv2
I0403 13:21:14.927918 10944 net.cpp:91] Creating Layer conv2
I0403 13:21:14.927933 10944 net.cpp:425] conv2 <- pool1
I0403 13:21:14.927953 10944 net.cpp:399] conv2 -> conv2
I0403 13:21:14.943262 10944 net.cpp:141] Setting up conv2
I0403 13:21:14.943313 10944 net.cpp:148] Top shape: 100 256 27 27 (18662400)
I0403 13:21:14.943331 10944 net.cpp:156] Memory required for data: 512959600
I0403 13:21:14.943354 10944 layer_factory.hpp:77] Creating layer relu2
I0403 13:21:14.943378 10944 net.cpp:91] Creating Layer relu2
I0403 13:21:14.943397 10944 net.cpp:425] relu2 <- conv2
I0403 13:21:14.943414 10944 net.cpp:386] relu2 -> conv2 (in-place)
I0403 13:21:14.943701 10944 net.cpp:141] Setting up relu2
I0403 13:21:14.943728 10944 net.cpp:148] Top shape: 100 256 27 27 (18662400)
I0403 13:21:14.943743 10944 net.cpp:156] Memory required for data: 587609200
I0403 13:21:14.943758 10944 layer_factory.hpp:77] Creating layer norm2
I0403 13:21:14.943781 10944 net.cpp:91] Creating Layer norm2
I0403 13:21:14.943799 10944 net.cpp:425] norm2 <- conv2
I0403 13:21:14.943819 10944 net.cpp:399] norm2 -> norm2
I0403 13:21:14.944021 10944 net.cpp:141] Setting up norm2
I0403 13:21:14.944047 10944 net.cpp:148] Top shape: 100 256 27 27 (18662400)
I0403 13:21:14.944062 10944 net.cpp:156] Memory required for data: 662258800
I0403 13:21:14.944077 10944 layer_factory.hpp:77] Creating layer pool2
I0403 13:21:14.944095 10944 net.cpp:91] Creating Layer pool2
I0403 13:21:14.944110 10944 net.cpp:425] pool2 <- norm2
I0403 13:21:14.944129 10944 net.cpp:399] pool2 -> pool2
I0403 13:21:14.944185 10944 net.cpp:141] Setting up pool2
I0403 13:21:14.944210 10944 net.cpp:148] Top shape: 100 256 13 13 (4326400)
I0403 13:21:14.944224 10944 net.cpp:156] Memory required for data: 679564400
I0403 13:21:14.944239 10944 layer_factory.hpp:77] Creating layer conv3
I0403 13:21:14.944265 10944 net.cpp:91] Creating Layer conv3
I0403 13:21:14.944283 10944 net.cpp:425] conv3 <- pool2
I0403 13:21:14.944303 10944 net.cpp:399] conv3 -> conv3
I0403 13:21:14.987879 10944 net.cpp:141] Setting up conv3
I0403 13:21:14.987953 10944 net.cpp:148] Top shape: 100 384 13 13 (6489600)
I0403 13:21:14.987968 10944 net.cpp:156] Memory required for data: 705522800
I0403 13:21:14.987996 10944 layer_factory.hpp:77] Creating layer relu3
I0403 13:21:14.988020 10944 net.cpp:91] Creating Layer relu3
I0403 13:21:14.988037 10944 net.cpp:425] relu3 <- conv3
I0403 13:21:14.988055 10944 net.cpp:386] relu3 -> conv3 (in-place)
I0403 13:21:14.988329 10944 net.cpp:141] Setting up relu3
I0403 13:21:14.988368 10944 net.cpp:148] Top shape: 100 384 13 13 (6489600)
I0403 13:21:14.988384 10944 net.cpp:156] Memory required for data: 731481200
I0403 13:21:14.988399 10944 layer_factory.hpp:77] Creating layer conv4
I0403 13:21:14.988425 10944 net.cpp:91] Creating Layer conv4
I0403 13:21:14.988441 10944 net.cpp:425] conv4 <- conv3
I0403 13:21:14.988462 10944 net.cpp:399] conv4 -> conv4
I0403 13:21:15.018728 10944 net.cpp:141] Setting up conv4
I0403 13:21:15.018796 10944 net.cpp:148] Top shape: 100 384 13 13 (6489600)
I0403 13:21:15.018852 10944 net.cpp:156] Memory required for data: 757439600
I0403 13:21:15.018875 10944 layer_factory.hpp:77] Creating layer relu4
I0403 13:21:15.018898 10944 net.cpp:91] Creating Layer relu4
I0403 13:21:15.018916 10944 net.cpp:425] relu4 <- conv4
I0403 13:21:15.018935 10944 net.cpp:386] relu4 -> conv4 (in-place)
I0403 13:21:15.019222 10944 net.cpp:141] Setting up relu4
I0403 13:21:15.019250 10944 net.cpp:148] Top shape: 100 384 13 13 (6489600)
I0403 13:21:15.019266 10944 net.cpp:156] Memory required for data: 783398000
I0403 13:21:15.019281 10944 layer_factory.hpp:77] Creating layer conv5
I0403 13:21:15.019307 10944 net.cpp:91] Creating Layer conv5
I0403 13:21:15.019325 10944 net.cpp:425] conv5 <- conv4
I0403 13:21:15.019345 10944 net.cpp:399] conv5 -> conv5
I0403 13:21:15.040400 10944 net.cpp:141] Setting up conv5
I0403 13:21:15.040457 10944 net.cpp:148] Top shape: 100 256 13 13 (4326400)
I0403 13:21:15.040473 10944 net.cpp:156] Memory required for data: 800703600
I0403 13:21:15.040498 10944 layer_factory.hpp:77] Creating layer relu5
I0403 13:21:15.040523 10944 net.cpp:91] Creating Layer relu5
I0403 13:21:15.040541 10944 net.cpp:425] relu5 <- conv5
I0403 13:21:15.040560 10944 net.cpp:386] relu5 -> conv5 (in-place)
I0403 13:21:15.040851 10944 net.cpp:141] Setting up relu5
I0403 13:21:15.040879 10944 net.cpp:148] Top shape: 100 256 13 13 (4326400)
I0403 13:21:15.040894 10944 net.cpp:156] Memory required for data: 818009200
I0403 13:21:15.040909 10944 layer_factory.hpp:77] Creating layer pool5
I0403 13:21:15.040933 10944 net.cpp:91] Creating Layer pool5
I0403 13:21:15.040951 10944 net.cpp:425] pool5 <- conv5
I0403 13:21:15.040968 10944 net.cpp:399] pool5 -> pool5
I0403 13:21:15.041033 10944 net.cpp:141] Setting up pool5
I0403 13:21:15.041056 10944 net.cpp:148] Top shape: 100 256 6 6 (921600)
I0403 13:21:15.041070 10944 net.cpp:156] Memory required for data: 821695600
I0403 13:21:15.041085 10944 layer_factory.hpp:77] Creating layer fc6
I0403 13:21:15.041113 10944 net.cpp:91] Creating Layer fc6
I0403 13:21:15.041131 10944 net.cpp:425] fc6 <- pool5
I0403 13:21:15.041149 10944 net.cpp:399] fc6 -> fc6
I0403 13:21:16.597443 10944 net.cpp:141] Setting up fc6
I0403 13:21:16.597499 10944 net.cpp:148] Top shape: 100 4096 (409600)
I0403 13:21:16.597514 10944 net.cpp:156] Memory required for data: 823334000
I0403 13:21:16.597534 10944 layer_factory.hpp:77] Creating layer relu6
I0403 13:21:16.597555 10944 net.cpp:91] Creating Layer relu6
I0403 13:21:16.597571 10944 net.cpp:425] relu6 <- fc6
I0403 13:21:16.597592 10944 net.cpp:386] relu6 -> fc6 (in-place)
I0403 13:21:16.597817 10944 net.cpp:141] Setting up relu6
I0403 13:21:16.597841 10944 net.cpp:148] Top shape: 100 4096 (409600)
I0403 13:21:16.597856 10944 net.cpp:156] Memory required for data: 824972400
I0403 13:21:16.597869 10944 layer_factory.hpp:77] Creating layer drop6
I0403 13:21:16.597887 10944 net.cpp:91] Creating Layer drop6
I0403 13:21:16.597900 10944 net.cpp:425] drop6 <- fc6
I0403 13:21:16.597919 10944 net.cpp:386] drop6 -> fc6 (in-place)
I0403 13:21:16.597972 10944 net.cpp:141] Setting up drop6
I0403 13:21:16.597995 10944 net.cpp:148] Top shape: 100 4096 (409600)
I0403 13:21:16.598008 10944 net.cpp:156] Memory required for data: 826610800
I0403 13:21:16.598021 10944 layer_factory.hpp:77] Creating layer fc7
I0403 13:21:16.598040 10944 net.cpp:91] Creating Layer fc7
I0403 13:21:16.598053 10944 net.cpp:425] fc7 <- fc6
I0403 13:21:16.598073 10944 net.cpp:399] fc7 -> fc7
I0403 13:21:17.285615 10944 net.cpp:141] Setting up fc7
I0403 13:21:17.285696 10944 net.cpp:148] Top shape: 100 4096 (409600)
I0403 13:21:17.285711 10944 net.cpp:156] Memory required for data: 828249200
I0403 13:21:17.285730 10944 layer_factory.hpp:77] Creating layer relu7
I0403 13:21:17.285758 10944 net.cpp:91] Creating Layer relu7
I0403 13:21:17.285775 10944 net.cpp:425] relu7 <- fc7
I0403 13:21:17.285794 10944 net.cpp:386] relu7 -> fc7 (in-place)
I0403 13:21:17.286196 10944 net.cpp:141] Setting up relu7
I0403 13:21:17.286222 10944 net.cpp:148] Top shape: 100 4096 (409600)
I0403 13:21:17.286278 10944 net.cpp:156] Memory required for data: 829887600
I0403 13:21:17.286294 10944 layer_factory.hpp:77] Creating layer drop7
I0403 13:21:17.286315 10944 net.cpp:91] Creating Layer drop7
I0403 13:21:17.286331 10944 net.cpp:425] drop7 <- fc7
I0403 13:21:17.286348 10944 net.cpp:386] drop7 -> fc7 (in-place)
I0403 13:21:17.286391 10944 net.cpp:141] Setting up drop7
I0403 13:21:17.286417 10944 net.cpp:148] Top shape: 100 4096 (409600)
I0403 13:21:17.286432 10944 net.cpp:156] Memory required for data: 831526000
I0403 13:21:17.286445 10944 layer_factory.hpp:77] Creating layer fc8_plantvillage
I0403 13:21:17.286465 10944 net.cpp:91] Creating Layer fc8_plantvillage
I0403 13:21:17.286480 10944 net.cpp:425] fc8_plantvillage <- fc7
I0403 13:21:17.286499 10944 net.cpp:399] fc8_plantvillage -> fc8_plantvillage
I0403 13:21:17.293234 10944 net.cpp:141] Setting up fc8_plantvillage
I0403 13:21:17.293267 10944 net.cpp:148] Top shape: 100 38 (3800)
I0403 13:21:17.293282 10944 net.cpp:156] Memory required for data: 831541200
I0403 13:21:17.293301 10944 layer_factory.hpp:77] Creating layer fc8_plantvillage_fc8_plantvillage_0_split
I0403 13:21:17.293323 10944 net.cpp:91] Creating Layer fc8_plantvillage_fc8_plantvillage_0_split
I0403 13:21:17.293340 10944 net.cpp:425] fc8_plantvillage_fc8_plantvillage_0_split <- fc8_plantvillage
I0403 13:21:17.293359 10944 net.cpp:399] fc8_plantvillage_fc8_plantvillage_0_split -> fc8_plantvillage_fc8_plantvillage_0_split_0
I0403 13:21:17.293378 10944 net.cpp:399] fc8_plantvillage_fc8_plantvillage_0_split -> fc8_plantvillage_fc8_plantvillage_0_split_1
I0403 13:21:17.293400 10944 net.cpp:399] fc8_plantvillage_fc8_plantvillage_0_split -> fc8_plantvillage_fc8_plantvillage_0_split_2
I0403 13:21:17.293478 10944 net.cpp:141] Setting up fc8_plantvillage_fc8_plantvillage_0_split
I0403 13:21:17.293503 10944 net.cpp:148] Top shape: 100 38 (3800)
I0403 13:21:17.293519 10944 net.cpp:148] Top shape: 100 38 (3800)
I0403 13:21:17.293535 10944 net.cpp:148] Top shape: 100 38 (3800)
I0403 13:21:17.293550 10944 net.cpp:156] Memory required for data: 831586800
I0403 13:21:17.293563 10944 layer_factory.hpp:77] Creating layer prob
I0403 13:21:17.293581 10944 net.cpp:91] Creating Layer prob
I0403 13:21:17.293596 10944 net.cpp:425] prob <- fc8_plantvillage_fc8_plantvillage_0_split_0
I0403 13:21:17.293618 10944 net.cpp:399] prob -> prob
I0403 13:21:17.293845 10944 net.cpp:141] Setting up prob
I0403 13:21:17.293870 10944 net.cpp:148] Top shape: 100 38 (3800)
I0403 13:21:17.293885 10944 net.cpp:156] Memory required for data: 831602000
I0403 13:21:17.293900 10944 layer_factory.hpp:77] Creating layer hdf5out
I0403 13:21:17.293921 10944 net.cpp:91] Creating Layer hdf5out
I0403 13:21:17.293936 10944 net.cpp:425] hdf5out <- prob
I0403 13:21:17.293952 10944 net.cpp:425] hdf5out <- label_data_1_split_0
I0403 13:21:17.296694 10944 net.cpp:141] Setting up hdf5out
…
