…
I0403 13:17:53.811772 10765 net.cpp:313] The NetState phase (1) differed from the phase (0) specified by a rule in layer data
I0403 13:17:53.812512 10765 net.cpp:49] Initializing net from parameters: 
state {
  phase: TEST
}
layer {
  name: "data"
  type: "Data"
  top: "data"
  top: "label"
  include {
    phase: TEST
  }
  transform_param {
    crop_size: 227
    mean_file: "/home/mohanty/data/final_dataset/lmdb/color-80-20/mean.binaryproto"
  }
  data_param {
    source: "/home/mohanty/data/final_dataset/lmdb/color-80-20/test_db"
    batch_size: 100
    backend: LMDB
  }
}
layer {
  name: "conv1"
  type: "Convolution"
  bottom: "data"
  top: "conv1"
  param {
    lr_mult: 1
    decay_mult: 1
  }
  param {
    lr_mult: 2
    decay_mult: 0
  }
  convolution_param {
    num_output: 96
    kernel_size: 11
    stride: 4
    weight_filler {
      type: "gaussian"
      std: 0.01
    }
    bias_filler {
      type: "constant"
      value: 0
    }
  }
}
layer {
  name: "relu1"
  type: "ReLU"
  bottom: "conv1"
  top: "conv1"
}
layer {
  name: "norm1"
  type: "LRN"
  bottom: "conv1"
  top: "norm1"
  lrn_param {
    local_size: 5
    alpha: 0.0001
    beta: 0.75
  }
}
layer {
  name: "pool1"
  type: "Pooling"
  bottom: "norm1"
  top: "pool1"
  pooling_param {
    pool: MAX
    kernel_size: 3
    stride: 2
  }
}
layer {
  name: "conv2"
  type: "Convolution"
  bottom: "pool1"
  top: "conv2"
  param {
    lr_mult: 1
    decay_mult: 1
  }
  param {
    lr_mult: 2
    decay_mult: 0
  }
  convolution_param {
    num_output: 256
    pad: 2
    kernel_size: 5
    group: 2
    weight_filler {
      type: "gaussian"
      std: 0.01
    }
    bias_filler {
      type: "constant"
      value: 0.1
    }
  }
}
layer {
  name: "relu2"
  type: "ReLU"
  bottom: "conv2"
  top: "conv2"
}
layer {
  name: "norm2"
  type: "LRN"
  bottom: "conv2"
  top: "norm2"
  lrn_param {
    local_size: 5
    alpha: 0.0001
    beta: 0.75
  }
}
layer {
  name: "pool2"
  type: "Pooling"
  bottom: "norm2"
  top: "pool2"
  pooling_param {
    pool: MAX
    kernel_size: 3
    stride: 2
  }
}
layer {
  name: "conv3"
  type: "Convolution"
  bottom: "pool2"
  top: "conv3"
  param {
    lr_mult: 1
    decay_mult: 1
  }
  param {
    lr_mult: 2
    decay_mult: 0
  }
  convolution_param {
    num_output: 384
    pad: 1
    kernel_size: 3
    weight_filler {
      type: "gaussian"
      std: 0.01
    }
    bias_filler {
      type: "constant"
      value: 0
    }
  }
}
layer {
  name: "relu3"
  type: "ReLU"
  bottom: "conv3"
  top: "conv3"
}
layer {
  name: "conv4"
  type: "Convolution"
  bottom: "conv3"
  top: "conv4"
  param {
    lr_mult: 1
    decay_mult: 1
  }
  param {
    lr_mult: 2
    decay_mult: 0
  }
  convolution_param {
    num_output: 384
    pad: 1
    kernel_size: 3
    group: 2
    weight_filler {
      type: "gaussian"
      std: 0.01
    }
    bias_filler {
      type: "constant"
      value: 0.1
    }
  }
}
layer {
  name: "relu4"
  type: "ReLU"
  bottom: "conv4"
  top: "conv4"
}
layer {
  name: "conv5"
  type: "Convolution"
  bottom: "conv4"
  top: "conv5"
  param {
    lr_mult: 1
    decay_mult: 1
  }
  param {
    lr_mult: 2
    decay_mult: 0
  }
  convolution_param {
    num_output: 256
    pad: 1
    kernel_size: 3
    group: 2
    weight_filler {
      type: "gaussian"
      std: 0.01
    }
    bias_filler {
      type: "constant"
      value: 0.1
    }
  }
}
layer {
  name: "relu5"
  type: "ReLU"
  bottom: "conv5"
  top: "conv5"
}
layer {
  name: "pool5"
  type: "Pooling"
  bottom: "conv5"
  top: "pool5"
  pooling_param {
    pool: MAX
    kernel_size: 3
    stride: 2
  }
}
layer {
  name: "fc6"
  type: "InnerProduct"
  bottom: "pool5"
  top: "fc6"
  param {
    lr_mult: 1
    decay_mult: 1
  }
  param {
    lr_mult: 2
    decay_mult: 0
  }
  inner_product_param {
    num_output: 4096
    weight_filler {
      type: "gaussian"
      std: 0.005
    }
    bias_filler {
      type: "constant"
      value: 0.1
    }
  }
}
layer {
  name: "relu6"
  type: "ReLU"
  bottom: "fc6"
  top: "fc6"
}
layer {
  name: "drop6"
  type: "Dropout"
  bottom: "fc6"
  top: "fc6"
  dropout_param {
    dropout_ratio: 0.5
  }
}
layer {
  name: "fc7"
  type: "InnerProduct"
  bottom: "fc6"
  top: "fc7"
  param {
    lr_mult: 1
    decay_mult: 1
  }
  param {
    lr_mult: 2
    decay_mult: 0
  }
  inner_product_param {
    num_output: 4096
    weight_filler {
      type: "gaussian"
      std: 0.005
    }
    bias_filler {
      type: "constant"
      value: 0.1
    }
  }
}
layer {
  name: "relu7"
  type: "ReLU"
  bottom: "fc7"
  top: "fc7"
}
layer {
  name: "drop7"
  type: "Dropout"
  bottom: "fc7"
  top: "fc7"
  dropout_param {
    dropout_ratio: 0.5
  }
}
layer {
  name: "fc8_plantvillage"
  type: "InnerProduct"
  bottom: "fc7"
  top: "fc8_plantvillage"
  param {
    lr_mult: 1
    decay_mult: 1
  }
  param {
    lr_mult: 2
    decay_mult: 0
  }
  inner_product_param {
    num_output: 38
    weight_filler {
      type: "gaussian"
      std: 0.01
    }
    bias_filler {
      type: "constant"
      value: 0
    }
  }
}
layer {
  name: "prob"
  type: "Softmax"
  bottom: "fc8_plantvillage"
  top: "prob"
  include {
    phase: TEST
  }
}
layer {
  name: "hdf5out"
  type: "HDF5Output"
  bottom: "prob"
  bottom: "label"
  include {
    phase: TEST
  }
  hdf5_output_param {
    file_name: "hdf5_dumps/iter_9177.h5"
  }
}
layer {
  name: "loss"
  type: "SoftmaxWithLoss"
  bottom: "fc8_plantvillage"
  bottom: "label"
  top: "loss"
}
layer {
  name: "accuracy"
  type: "Accuracy"
  bottom: "fc8_plantvillage"
  bottom: "label"
  top: "accuracy"
  include {
    phase: TEST
  }
}
I0403 13:17:53.813760 10765 layer_factory.hpp:77] Creating layer data
I0403 13:17:53.815390 10765 net.cpp:91] Creating Layer data
I0403 13:17:53.815472 10765 net.cpp:399] data -> data
I0403 13:17:53.815603 10765 net.cpp:399] data -> label
I0403 13:17:53.815692 10765 data_transformer.cpp:25] Loading mean file from: /home/mohanty/data/final_dataset/lmdb/color-80-20/mean.binaryproto
I0403 13:17:53.820124 10768 db_lmdb.cpp:38] Opened lmdb /home/mohanty/data/final_dataset/lmdb/color-80-20/test_db
I0403 13:17:53.837097 10765 data_layer.cpp:41] output data size: 100,3,227,227
I0403 13:17:53.972836 10765 net.cpp:141] Setting up data
I0403 13:17:53.972944 10765 net.cpp:148] Top shape: 100 3 227 227 (15458700)
I0403 13:17:53.972970 10765 net.cpp:148] Top shape: 100 (100)
I0403 13:17:53.972988 10765 net.cpp:156] Memory required for data: 61835200
I0403 13:17:53.973021 10765 layer_factory.hpp:77] Creating layer label_data_1_split
I0403 13:17:53.973052 10765 net.cpp:91] Creating Layer label_data_1_split
I0403 13:17:53.973072 10765 net.cpp:425] label_data_1_split <- label
I0403 13:17:53.973110 10765 net.cpp:399] label_data_1_split -> label_data_1_split_0
I0403 13:17:53.973143 10765 net.cpp:399] label_data_1_split -> label_data_1_split_1
I0403 13:17:53.973167 10765 net.cpp:399] label_data_1_split -> label_data_1_split_2
I0403 13:17:53.973244 10765 net.cpp:141] Setting up label_data_1_split
I0403 13:17:53.973274 10765 net.cpp:148] Top shape: 100 (100)
I0403 13:17:53.973295 10765 net.cpp:148] Top shape: 100 (100)
I0403 13:17:53.973315 10765 net.cpp:148] Top shape: 100 (100)
I0403 13:17:53.973330 10765 net.cpp:156] Memory required for data: 61836400
I0403 13:17:53.973347 10765 layer_factory.hpp:77] Creating layer conv1
I0403 13:17:53.973384 10765 net.cpp:91] Creating Layer conv1
I0403 13:17:53.973407 10765 net.cpp:425] conv1 <- data
I0403 13:17:53.973429 10765 net.cpp:399] conv1 -> conv1
I0403 13:17:54.138345 10765 net.cpp:141] Setting up conv1
I0403 13:17:54.138432 10765 net.cpp:148] Top shape: 100 96 55 55 (29040000)
I0403 13:17:54.138452 10765 net.cpp:156] Memory required for data: 177996400
I0403 13:17:54.138489 10765 layer_factory.hpp:77] Creating layer relu1
I0403 13:17:54.138527 10765 net.cpp:91] Creating Layer relu1
I0403 13:17:54.138550 10765 net.cpp:425] relu1 <- conv1
I0403 13:17:54.138581 10765 net.cpp:386] relu1 -> conv1 (in-place)
I0403 13:17:54.138906 10765 net.cpp:141] Setting up relu1
I0403 13:17:54.138942 10765 net.cpp:148] Top shape: 100 96 55 55 (29040000)
I0403 13:17:54.138962 10765 net.cpp:156] Memory required for data: 294156400
I0403 13:17:54.139019 10765 layer_factory.hpp:77] Creating layer norm1
I0403 13:17:54.139053 10765 net.cpp:91] Creating Layer norm1
I0403 13:17:54.139075 10765 net.cpp:425] norm1 <- conv1
I0403 13:17:54.139101 10765 net.cpp:399] norm1 -> norm1
I0403 13:17:54.139490 10765 net.cpp:141] Setting up norm1
I0403 13:17:54.139523 10765 net.cpp:148] Top shape: 100 96 55 55 (29040000)
I0403 13:17:54.139542 10765 net.cpp:156] Memory required for data: 410316400
I0403 13:17:54.139560 10765 layer_factory.hpp:77] Creating layer pool1
I0403 13:17:54.139588 10765 net.cpp:91] Creating Layer pool1
I0403 13:17:54.139616 10765 net.cpp:425] pool1 <- norm1
I0403 13:17:54.139642 10765 net.cpp:399] pool1 -> pool1
I0403 13:17:54.139727 10765 net.cpp:141] Setting up pool1
I0403 13:17:54.139756 10765 net.cpp:148] Top shape: 100 96 27 27 (6998400)
I0403 13:17:54.139775 10765 net.cpp:156] Memory required for data: 438310000
I0403 13:17:54.139791 10765 layer_factory.hpp:77] Creating layer conv2
I0403 13:17:54.139827 10765 net.cpp:91] Creating Layer conv2
I0403 13:17:54.139848 10765 net.cpp:425] conv2 <- pool1
I0403 13:17:54.139871 10765 net.cpp:399] conv2 -> conv2
I0403 13:17:54.157632 10765 net.cpp:141] Setting up conv2
I0403 13:17:54.157673 10765 net.cpp:148] Top shape: 100 256 27 27 (18662400)
I0403 13:17:54.157694 10765 net.cpp:156] Memory required for data: 512959600
I0403 13:17:54.157721 10765 layer_factory.hpp:77] Creating layer relu2
I0403 13:17:54.157742 10765 net.cpp:91] Creating Layer relu2
I0403 13:17:54.157762 10765 net.cpp:425] relu2 <- conv2
I0403 13:17:54.157783 10765 net.cpp:386] relu2 -> conv2 (in-place)
I0403 13:17:54.158118 10765 net.cpp:141] Setting up relu2
I0403 13:17:54.158151 10765 net.cpp:148] Top shape: 100 256 27 27 (18662400)
I0403 13:17:54.158169 10765 net.cpp:156] Memory required for data: 587609200
I0403 13:17:54.158187 10765 layer_factory.hpp:77] Creating layer norm2
I0403 13:17:54.158215 10765 net.cpp:91] Creating Layer norm2
I0403 13:17:54.158236 10765 net.cpp:425] norm2 <- conv2
I0403 13:17:54.158257 10765 net.cpp:399] norm2 -> norm2
I0403 13:17:54.158491 10765 net.cpp:141] Setting up norm2
I0403 13:17:54.158525 10765 net.cpp:148] Top shape: 100 256 27 27 (18662400)
I0403 13:17:54.158545 10765 net.cpp:156] Memory required for data: 662258800
I0403 13:17:54.158562 10765 layer_factory.hpp:77] Creating layer pool2
I0403 13:17:54.158583 10765 net.cpp:91] Creating Layer pool2
I0403 13:17:54.158608 10765 net.cpp:425] pool2 <- norm2
I0403 13:17:54.158634 10765 net.cpp:399] pool2 -> pool2
I0403 13:17:54.158699 10765 net.cpp:141] Setting up pool2
I0403 13:17:54.158730 10765 net.cpp:148] Top shape: 100 256 13 13 (4326400)
I0403 13:17:54.158748 10765 net.cpp:156] Memory required for data: 679564400
I0403 13:17:54.158767 10765 layer_factory.hpp:77] Creating layer conv3
I0403 13:17:54.158792 10765 net.cpp:91] Creating Layer conv3
I0403 13:17:54.158810 10765 net.cpp:425] conv3 <- pool2
I0403 13:17:54.158835 10765 net.cpp:399] conv3 -> conv3
I0403 13:17:54.204533 10765 net.cpp:141] Setting up conv3
I0403 13:17:54.204594 10765 net.cpp:148] Top shape: 100 384 13 13 (6489600)
I0403 13:17:54.204629 10765 net.cpp:156] Memory required for data: 705522800
I0403 13:17:54.204658 10765 layer_factory.hpp:77] Creating layer relu3
I0403 13:17:54.204681 10765 net.cpp:91] Creating Layer relu3
I0403 13:17:54.204701 10765 net.cpp:425] relu3 <- conv3
I0403 13:17:54.204725 10765 net.cpp:386] relu3 -> conv3 (in-place)
I0403 13:17:54.205047 10765 net.cpp:141] Setting up relu3
I0403 13:17:54.205080 10765 net.cpp:148] Top shape: 100 384 13 13 (6489600)
I0403 13:17:54.205097 10765 net.cpp:156] Memory required for data: 731481200
I0403 13:17:54.205116 10765 layer_factory.hpp:77] Creating layer conv4
I0403 13:17:54.205144 10765 net.cpp:91] Creating Layer conv4
I0403 13:17:54.205166 10765 net.cpp:425] conv4 <- conv3
I0403 13:17:54.205191 10765 net.cpp:399] conv4 -> conv4
I0403 13:17:54.240494 10765 net.cpp:141] Setting up conv4
I0403 13:17:54.240545 10765 net.cpp:148] Top shape: 100 384 13 13 (6489600)
I0403 13:17:54.240607 10765 net.cpp:156] Memory required for data: 757439600
I0403 13:17:54.240635 10765 layer_factory.hpp:77] Creating layer relu4
I0403 13:17:54.240658 10765 net.cpp:91] Creating Layer relu4
I0403 13:17:54.240677 10765 net.cpp:425] relu4 <- conv4
I0403 13:17:54.240699 10765 net.cpp:386] relu4 -> conv4 (in-place)
I0403 13:17:54.241019 10765 net.cpp:141] Setting up relu4
I0403 13:17:54.241055 10765 net.cpp:148] Top shape: 100 384 13 13 (6489600)
I0403 13:17:54.241075 10765 net.cpp:156] Memory required for data: 783398000
I0403 13:17:54.241093 10765 layer_factory.hpp:77] Creating layer conv5
I0403 13:17:54.241123 10765 net.cpp:91] Creating Layer conv5
I0403 13:17:54.241144 10765 net.cpp:425] conv5 <- conv4
I0403 13:17:54.241166 10765 net.cpp:399] conv5 -> conv5
I0403 13:17:54.265440 10765 net.cpp:141] Setting up conv5
I0403 13:17:54.265486 10765 net.cpp:148] Top shape: 100 256 13 13 (4326400)
I0403 13:17:54.265506 10765 net.cpp:156] Memory required for data: 800703600
I0403 13:17:54.265533 10765 layer_factory.hpp:77] Creating layer relu5
I0403 13:17:54.265565 10765 net.cpp:91] Creating Layer relu5
I0403 13:17:54.265584 10765 net.cpp:425] relu5 <- conv5
I0403 13:17:54.265611 10765 net.cpp:386] relu5 -> conv5 (in-place)
I0403 13:17:54.265939 10765 net.cpp:141] Setting up relu5
I0403 13:17:54.265974 10765 net.cpp:148] Top shape: 100 256 13 13 (4326400)
I0403 13:17:54.265991 10765 net.cpp:156] Memory required for data: 818009200
I0403 13:17:54.266010 10765 layer_factory.hpp:77] Creating layer pool5
I0403 13:17:54.266041 10765 net.cpp:91] Creating Layer pool5
I0403 13:17:54.266063 10765 net.cpp:425] pool5 <- conv5
I0403 13:17:54.266086 10765 net.cpp:399] pool5 -> pool5
I0403 13:17:54.266162 10765 net.cpp:141] Setting up pool5
I0403 13:17:54.266191 10765 net.cpp:148] Top shape: 100 256 6 6 (921600)
I0403 13:17:54.266208 10765 net.cpp:156] Memory required for data: 821695600
I0403 13:17:54.266225 10765 layer_factory.hpp:77] Creating layer fc6
I0403 13:17:54.266257 10765 net.cpp:91] Creating Layer fc6
I0403 13:17:54.266278 10765 net.cpp:425] fc6 <- pool5
I0403 13:17:54.266304 10765 net.cpp:399] fc6 -> fc6
I0403 13:17:55.783100 10765 net.cpp:141] Setting up fc6
I0403 13:17:55.783180 10765 net.cpp:148] Top shape: 100 4096 (409600)
I0403 13:17:55.783196 10765 net.cpp:156] Memory required for data: 823334000
I0403 13:17:55.783216 10765 layer_factory.hpp:77] Creating layer relu6
I0403 13:17:55.783238 10765 net.cpp:91] Creating Layer relu6
I0403 13:17:55.783253 10765 net.cpp:425] relu6 <- fc6
I0403 13:17:55.783272 10765 net.cpp:386] relu6 -> fc6 (in-place)
I0403 13:17:55.783483 10765 net.cpp:141] Setting up relu6
I0403 13:17:55.783506 10765 net.cpp:148] Top shape: 100 4096 (409600)
I0403 13:17:55.783520 10765 net.cpp:156] Memory required for data: 824972400
I0403 13:17:55.783534 10765 layer_factory.hpp:77] Creating layer drop6
I0403 13:17:55.783550 10765 net.cpp:91] Creating Layer drop6
I0403 13:17:55.783565 10765 net.cpp:425] drop6 <- fc6
I0403 13:17:55.783582 10765 net.cpp:386] drop6 -> fc6 (in-place)
I0403 13:17:55.783635 10765 net.cpp:141] Setting up drop6
I0403 13:17:55.783656 10765 net.cpp:148] Top shape: 100 4096 (409600)
I0403 13:17:55.783670 10765 net.cpp:156] Memory required for data: 826610800
I0403 13:17:55.783684 10765 layer_factory.hpp:77] Creating layer fc7
I0403 13:17:55.783704 10765 net.cpp:91] Creating Layer fc7
I0403 13:17:55.783720 10765 net.cpp:425] fc7 <- fc6
I0403 13:17:55.783740 10765 net.cpp:399] fc7 -> fc7
I0403 13:17:56.429869 10765 net.cpp:141] Setting up fc7
I0403 13:17:56.429944 10765 net.cpp:148] Top shape: 100 4096 (409600)
I0403 13:17:56.429958 10765 net.cpp:156] Memory required for data: 828249200
I0403 13:17:56.429978 10765 layer_factory.hpp:77] Creating layer relu7
I0403 13:17:56.429998 10765 net.cpp:91] Creating Layer relu7
I0403 13:17:56.430016 10765 net.cpp:425] relu7 <- fc7
I0403 13:17:56.430034 10765 net.cpp:386] relu7 -> fc7 (in-place)
I0403 13:17:56.430409 10765 net.cpp:141] Setting up relu7
I0403 13:17:56.430433 10765 net.cpp:148] Top shape: 100 4096 (409600)
I0403 13:17:56.430488 10765 net.cpp:156] Memory required for data: 829887600
I0403 13:17:56.430503 10765 layer_factory.hpp:77] Creating layer drop7
I0403 13:17:56.430521 10765 net.cpp:91] Creating Layer drop7
I0403 13:17:56.430536 10765 net.cpp:425] drop7 <- fc7
I0403 13:17:56.430552 10765 net.cpp:386] drop7 -> fc7 (in-place)
I0403 13:17:56.430593 10765 net.cpp:141] Setting up drop7
I0403 13:17:56.430620 10765 net.cpp:148] Top shape: 100 4096 (409600)
I0403 13:17:56.430635 10765 net.cpp:156] Memory required for data: 831526000
I0403 13:17:56.430649 10765 layer_factory.hpp:77] Creating layer fc8_plantvillage
I0403 13:17:56.430667 10765 net.cpp:91] Creating Layer fc8_plantvillage
I0403 13:17:56.430681 10765 net.cpp:425] fc8_plantvillage <- fc7
I0403 13:17:56.430699 10765 net.cpp:399] fc8_plantvillage -> fc8_plantvillage
I0403 13:17:56.437026 10765 net.cpp:141] Setting up fc8_plantvillage
I0403 13:17:56.437052 10765 net.cpp:148] Top shape: 100 38 (3800)
I0403 13:17:56.437065 10765 net.cpp:156] Memory required for data: 831541200
I0403 13:17:56.437082 10765 layer_factory.hpp:77] Creating layer fc8_plantvillage_fc8_plantvillage_0_split
I0403 13:17:56.437098 10765 net.cpp:91] Creating Layer fc8_plantvillage_fc8_plantvillage_0_split
I0403 13:17:56.437113 10765 net.cpp:425] fc8_plantvillage_fc8_plantvillage_0_split <- fc8_plantvillage
I0403 13:17:56.437130 10765 net.cpp:399] fc8_plantvillage_fc8_plantvillage_0_split -> fc8_plantvillage_fc8_plantvillage_0_split_0
I0403 13:17:56.437150 10765 net.cpp:399] fc8_plantvillage_fc8_plantvillage_0_split -> fc8_plantvillage_fc8_plantvillage_0_split_1
I0403 13:17:56.437168 10765 net.cpp:399] fc8_plantvillage_fc8_plantvillage_0_split -> fc8_plantvillage_fc8_plantvillage_0_split_2
I0403 13:17:56.437240 10765 net.cpp:141] Setting up fc8_plantvillage_fc8_plantvillage_0_split
I0403 13:17:56.437264 10765 net.cpp:148] Top shape: 100 38 (3800)
I0403 13:17:56.437279 10765 net.cpp:148] Top shape: 100 38 (3800)
I0403 13:17:56.437294 10765 net.cpp:148] Top shape: 100 38 (3800)
I0403 13:17:56.437305 10765 net.cpp:156] Memory required for data: 831586800
I0403 13:17:56.437319 10765 layer_factory.hpp:77] Creating layer prob
I0403 13:17:56.437335 10765 net.cpp:91] Creating Layer prob
I0403 13:17:56.437350 10765 net.cpp:425] prob <- fc8_plantvillage_fc8_plantvillage_0_split_0
I0403 13:17:56.437364 10765 net.cpp:399] prob -> prob
I0403 13:17:56.437571 10765 net.cpp:141] Setting up prob
I0403 13:17:56.437593 10765 net.cpp:148] Top shape: 100 38 (3800)
I0403 13:17:56.437613 10765 net.cpp:156] Memory required for data: 831602000
I0403 13:17:56.437628 10765 layer_factory.hpp:77] Creating layer hdf5out
I0403 13:17:56.437644 10765 net.cpp:91] Creating Layer hdf5out
I0403 13:17:56.437659 10765 net.cpp:425] hdf5out <- prob
I0403 13:17:56.437674 10765 net.cpp:425] hdf5out <- label_data_1_split_0
I0403 13:17:56.440284 10765 net.cpp:141] Setting up hdf5out
…
