…
I0403 13:19:08.217372 10853 net.cpp:313] The NetState phase (1) differed from the phase (0) specified by a rule in layer data
I0403 13:19:08.217700 10853 net.cpp:49] Initializing net from parameters: 
state {
  phase: TEST
}
layer {
  name: "data"
  type: "Data"
  top: "data"
  top: "label"
  include {
    phase: TEST
  }
  transform_param {
    crop_size: 227
    mean_file: "/home/mohanty/data/final_dataset/lmdb/color-80-20/mean.binaryproto"
  }
  data_param {
    source: "/home/mohanty/data/final_dataset/lmdb/color-80-20/test_db"
    batch_size: 100
    backend: LMDB
  }
}
layer {
  name: "conv1"
  type: "Convolution"
  bottom: "data"
  top: "conv1"
  param {
    lr_mult: 1
    decay_mult: 1
  }
  param {
    lr_mult: 2
    decay_mult: 0
  }
  convolution_param {
    num_output: 96
    kernel_size: 11
    stride: 4
    weight_filler {
      type: "gaussian"
      std: 0.01
    }
    bias_filler {
      type: "constant"
      value: 0
    }
  }
}
layer {
  name: "relu1"
  type: "ReLU"
  bottom: "conv1"
  top: "conv1"
}
layer {
  name: "norm1"
  type: "LRN"
  bottom: "conv1"
  top: "norm1"
  lrn_param {
    local_size: 5
    alpha: 0.0001
    beta: 0.75
  }
}
layer {
  name: "pool1"
  type: "Pooling"
  bottom: "norm1"
  top: "pool1"
  pooling_param {
    pool: MAX
    kernel_size: 3
    stride: 2
  }
}
layer {
  name: "conv2"
  type: "Convolution"
  bottom: "pool1"
  top: "conv2"
  param {
    lr_mult: 1
    decay_mult: 1
  }
  param {
    lr_mult: 2
    decay_mult: 0
  }
  convolution_param {
    num_output: 256
    pad: 2
    kernel_size: 5
    group: 2
    weight_filler {
      type: "gaussian"
      std: 0.01
    }
    bias_filler {
      type: "constant"
      value: 0.1
    }
  }
}
layer {
  name: "relu2"
  type: "ReLU"
  bottom: "conv2"
  top: "conv2"
}
layer {
  name: "norm2"
  type: "LRN"
  bottom: "conv2"
  top: "norm2"
  lrn_param {
    local_size: 5
    alpha: 0.0001
    beta: 0.75
  }
}
layer {
  name: "pool2"
  type: "Pooling"
  bottom: "norm2"
  top: "pool2"
  pooling_param {
    pool: MAX
    kernel_size: 3
    stride: 2
  }
}
layer {
  name: "conv3"
  type: "Convolution"
  bottom: "pool2"
  top: "conv3"
  param {
    lr_mult: 1
    decay_mult: 1
  }
  param {
    lr_mult: 2
    decay_mult: 0
  }
  convolution_param {
    num_output: 384
    pad: 1
    kernel_size: 3
    weight_filler {
      type: "gaussian"
      std: 0.01
    }
    bias_filler {
      type: "constant"
      value: 0
    }
  }
}
layer {
  name: "relu3"
  type: "ReLU"
  bottom: "conv3"
  top: "conv3"
}
layer {
  name: "conv4"
  type: "Convolution"
  bottom: "conv3"
  top: "conv4"
  param {
    lr_mult: 1
    decay_mult: 1
  }
  param {
    lr_mult: 2
    decay_mult: 0
  }
  convolution_param {
    num_output: 384
    pad: 1
    kernel_size: 3
    group: 2
    weight_filler {
      type: "gaussian"
      std: 0.01
    }
    bias_filler {
      type: "constant"
      value: 0.1
    }
  }
}
layer {
  name: "relu4"
  type: "ReLU"
  bottom: "conv4"
  top: "conv4"
}
layer {
  name: "conv5"
  type: "Convolution"
  bottom: "conv4"
  top: "conv5"
  param {
    lr_mult: 1
    decay_mult: 1
  }
  param {
    lr_mult: 2
    decay_mult: 0
  }
  convolution_param {
    num_output: 256
    pad: 1
    kernel_size: 3
    group: 2
    weight_filler {
      type: "gaussian"
      std: 0.01
    }
    bias_filler {
      type: "constant"
      value: 0.1
    }
  }
}
layer {
  name: "relu5"
  type: "ReLU"
  bottom: "conv5"
  top: "conv5"
}
layer {
  name: "pool5"
  type: "Pooling"
  bottom: "conv5"
  top: "pool5"
  pooling_param {
    pool: MAX
    kernel_size: 3
    stride: 2
  }
}
layer {
  name: "fc6"
  type: "InnerProduct"
  bottom: "pool5"
  top: "fc6"
  param {
    lr_mult: 1
    decay_mult: 1
  }
  param {
    lr_mult: 2
    decay_mult: 0
  }
  inner_product_param {
    num_output: 4096
    weight_filler {
      type: "gaussian"
      std: 0.005
    }
    bias_filler {
      type: "constant"
      value: 0.1
    }
  }
}
layer {
  name: "relu6"
  type: "ReLU"
  bottom: "fc6"
  top: "fc6"
}
layer {
  name: "drop6"
  type: "Dropout"
  bottom: "fc6"
  top: "fc6"
  dropout_param {
    dropout_ratio: 0.5
  }
}
layer {
  name: "fc7"
  type: "InnerProduct"
  bottom: "fc6"
  top: "fc7"
  param {
    lr_mult: 1
    decay_mult: 1
  }
  param {
    lr_mult: 2
    decay_mult: 0
  }
  inner_product_param {
    num_output: 4096
    weight_filler {
      type: "gaussian"
      std: 0.005
    }
    bias_filler {
      type: "constant"
      value: 0.1
    }
  }
}
layer {
  name: "relu7"
  type: "ReLU"
  bottom: "fc7"
  top: "fc7"
}
layer {
  name: "drop7"
  type: "Dropout"
  bottom: "fc7"
  top: "fc7"
  dropout_param {
    dropout_ratio: 0.5
  }
}
layer {
  name: "fc8_plantvillage"
  type: "InnerProduct"
  bottom: "fc7"
  top: "fc8_plantvillage"
  param {
    lr_mult: 1
    decay_mult: 1
  }
  param {
    lr_mult: 2
    decay_mult: 0
  }
  inner_product_param {
    num_output: 38
    weight_filler {
      type: "gaussian"
      std: 0.01
    }
    bias_filler {
      type: "constant"
      value: 0
    }
  }
}
layer {
  name: "prob"
  type: "Softmax"
  bottom: "fc8_plantvillage"
  top: "prob"
  include {
    phase: TEST
  }
}
layer {
  name: "hdf5out"
  type: "HDF5Output"
  bottom: "prob"
  bottom: "label"
  include {
    phase: TEST
  }
  hdf5_output_param {
    file_name: "hdf5_dumps/iter_10488.h5"
  }
}
layer {
  name: "loss"
  type: "SoftmaxWithLoss"
  bottom: "fc8_plantvillage"
  bottom: "label"
  top: "loss"
}
layer {
  name: "accuracy"
  type: "Accuracy"
  bottom: "fc8_plantvillage"
  bottom: "label"
  top: "accuracy"
  include {
    phase: TEST
  }
}
I0403 13:19:08.218293 10853 layer_factory.hpp:77] Creating layer data
I0403 13:19:08.218947 10853 net.cpp:91] Creating Layer data
I0403 13:19:08.218987 10853 net.cpp:399] data -> data
I0403 13:19:08.219040 10853 net.cpp:399] data -> label
I0403 13:19:08.219076 10853 data_transformer.cpp:25] Loading mean file from: /home/mohanty/data/final_dataset/lmdb/color-80-20/mean.binaryproto
I0403 13:19:08.222337 10856 db_lmdb.cpp:38] Opened lmdb /home/mohanty/data/final_dataset/lmdb/color-80-20/test_db
I0403 13:19:08.233403 10853 data_layer.cpp:41] output data size: 100,3,227,227
I0403 13:19:08.352802 10853 net.cpp:141] Setting up data
I0403 13:19:08.352893 10853 net.cpp:148] Top shape: 100 3 227 227 (15458700)
I0403 13:19:08.352916 10853 net.cpp:148] Top shape: 100 (100)
I0403 13:19:08.352931 10853 net.cpp:156] Memory required for data: 61835200
I0403 13:19:08.352957 10853 layer_factory.hpp:77] Creating layer label_data_1_split
I0403 13:19:08.352982 10853 net.cpp:91] Creating Layer label_data_1_split
I0403 13:19:08.352999 10853 net.cpp:425] label_data_1_split <- label
I0403 13:19:08.353031 10853 net.cpp:399] label_data_1_split -> label_data_1_split_0
I0403 13:19:08.353057 10853 net.cpp:399] label_data_1_split -> label_data_1_split_1
I0403 13:19:08.353078 10853 net.cpp:399] label_data_1_split -> label_data_1_split_2
I0403 13:19:08.353142 10853 net.cpp:141] Setting up label_data_1_split
I0403 13:19:08.353165 10853 net.cpp:148] Top shape: 100 (100)
I0403 13:19:08.353181 10853 net.cpp:148] Top shape: 100 (100)
I0403 13:19:08.353198 10853 net.cpp:148] Top shape: 100 (100)
I0403 13:19:08.353211 10853 net.cpp:156] Memory required for data: 61836400
I0403 13:19:08.353225 10853 layer_factory.hpp:77] Creating layer conv1
I0403 13:19:08.353256 10853 net.cpp:91] Creating Layer conv1
I0403 13:19:08.353273 10853 net.cpp:425] conv1 <- data
I0403 13:19:08.353292 10853 net.cpp:399] conv1 -> conv1
I0403 13:19:08.492976 10853 net.cpp:141] Setting up conv1
I0403 13:19:08.493058 10853 net.cpp:148] Top shape: 100 96 55 55 (29040000)
I0403 13:19:08.493077 10853 net.cpp:156] Memory required for data: 177996400
I0403 13:19:08.493108 10853 layer_factory.hpp:77] Creating layer relu1
I0403 13:19:08.493134 10853 net.cpp:91] Creating Layer relu1
I0403 13:19:08.493152 10853 net.cpp:425] relu1 <- conv1
I0403 13:19:08.493172 10853 net.cpp:386] relu1 -> conv1 (in-place)
I0403 13:19:08.493428 10853 net.cpp:141] Setting up relu1
I0403 13:19:08.493456 10853 net.cpp:148] Top shape: 100 96 55 55 (29040000)
I0403 13:19:08.493473 10853 net.cpp:156] Memory required for data: 294156400
I0403 13:19:08.493521 10853 layer_factory.hpp:77] Creating layer norm1
I0403 13:19:08.493551 10853 net.cpp:91] Creating Layer norm1
I0403 13:19:08.493568 10853 net.cpp:425] norm1 <- conv1
I0403 13:19:08.493587 10853 net.cpp:399] norm1 -> norm1
I0403 13:19:08.493896 10853 net.cpp:141] Setting up norm1
I0403 13:19:08.493924 10853 net.cpp:148] Top shape: 100 96 55 55 (29040000)
I0403 13:19:08.493940 10853 net.cpp:156] Memory required for data: 410316400
I0403 13:19:08.493955 10853 layer_factory.hpp:77] Creating layer pool1
I0403 13:19:08.493978 10853 net.cpp:91] Creating Layer pool1
I0403 13:19:08.493995 10853 net.cpp:425] pool1 <- norm1
I0403 13:19:08.494012 10853 net.cpp:399] pool1 -> pool1
I0403 13:19:08.494081 10853 net.cpp:141] Setting up pool1
I0403 13:19:08.494105 10853 net.cpp:148] Top shape: 100 96 27 27 (6998400)
I0403 13:19:08.494120 10853 net.cpp:156] Memory required for data: 438310000
I0403 13:19:08.494135 10853 layer_factory.hpp:77] Creating layer conv2
I0403 13:19:08.494158 10853 net.cpp:91] Creating Layer conv2
I0403 13:19:08.494174 10853 net.cpp:425] conv2 <- pool1
I0403 13:19:08.494192 10853 net.cpp:399] conv2 -> conv2
I0403 13:19:08.509353 10853 net.cpp:141] Setting up conv2
I0403 13:19:08.509404 10853 net.cpp:148] Top shape: 100 256 27 27 (18662400)
I0403 13:19:08.509421 10853 net.cpp:156] Memory required for data: 512959600
I0403 13:19:08.509443 10853 layer_factory.hpp:77] Creating layer relu2
I0403 13:19:08.509465 10853 net.cpp:91] Creating Layer relu2
I0403 13:19:08.509481 10853 net.cpp:425] relu2 <- conv2
I0403 13:19:08.509500 10853 net.cpp:386] relu2 -> conv2 (in-place)
I0403 13:19:08.509770 10853 net.cpp:141] Setting up relu2
I0403 13:19:08.509799 10853 net.cpp:148] Top shape: 100 256 27 27 (18662400)
I0403 13:19:08.509814 10853 net.cpp:156] Memory required for data: 587609200
I0403 13:19:08.509829 10853 layer_factory.hpp:77] Creating layer norm2
I0403 13:19:08.509848 10853 net.cpp:91] Creating Layer norm2
I0403 13:19:08.509865 10853 net.cpp:425] norm2 <- conv2
I0403 13:19:08.509883 10853 net.cpp:399] norm2 -> norm2
I0403 13:19:08.510068 10853 net.cpp:141] Setting up norm2
I0403 13:19:08.510094 10853 net.cpp:148] Top shape: 100 256 27 27 (18662400)
I0403 13:19:08.510109 10853 net.cpp:156] Memory required for data: 662258800
I0403 13:19:08.510124 10853 layer_factory.hpp:77] Creating layer pool2
I0403 13:19:08.510143 10853 net.cpp:91] Creating Layer pool2
I0403 13:19:08.510159 10853 net.cpp:425] pool2 <- norm2
I0403 13:19:08.510175 10853 net.cpp:399] pool2 -> pool2
I0403 13:19:08.510226 10853 net.cpp:141] Setting up pool2
I0403 13:19:08.510249 10853 net.cpp:148] Top shape: 100 256 13 13 (4326400)
I0403 13:19:08.510265 10853 net.cpp:156] Memory required for data: 679564400
I0403 13:19:08.510280 10853 layer_factory.hpp:77] Creating layer conv3
I0403 13:19:08.510301 10853 net.cpp:91] Creating Layer conv3
I0403 13:19:08.510318 10853 net.cpp:425] conv3 <- pool2
I0403 13:19:08.510335 10853 net.cpp:399] conv3 -> conv3
I0403 13:19:08.549552 10853 net.cpp:141] Setting up conv3
I0403 13:19:08.549628 10853 net.cpp:148] Top shape: 100 384 13 13 (6489600)
I0403 13:19:08.549648 10853 net.cpp:156] Memory required for data: 705522800
I0403 13:19:08.549677 10853 layer_factory.hpp:77] Creating layer relu3
I0403 13:19:08.549701 10853 net.cpp:91] Creating Layer relu3
I0403 13:19:08.549718 10853 net.cpp:425] relu3 <- conv3
I0403 13:19:08.549738 10853 net.cpp:386] relu3 -> conv3 (in-place)
I0403 13:19:08.550016 10853 net.cpp:141] Setting up relu3
I0403 13:19:08.550042 10853 net.cpp:148] Top shape: 100 384 13 13 (6489600)
I0403 13:19:08.550058 10853 net.cpp:156] Memory required for data: 731481200
I0403 13:19:08.550073 10853 layer_factory.hpp:77] Creating layer conv4
I0403 13:19:08.550096 10853 net.cpp:91] Creating Layer conv4
I0403 13:19:08.550113 10853 net.cpp:425] conv4 <- conv3
I0403 13:19:08.550132 10853 net.cpp:399] conv4 -> conv4
I0403 13:19:08.580449 10853 net.cpp:141] Setting up conv4
I0403 13:19:08.580497 10853 net.cpp:148] Top shape: 100 384 13 13 (6489600)
I0403 13:19:08.580548 10853 net.cpp:156] Memory required for data: 757439600
I0403 13:19:08.580582 10853 layer_factory.hpp:77] Creating layer relu4
I0403 13:19:08.580612 10853 net.cpp:91] Creating Layer relu4
I0403 13:19:08.580632 10853 net.cpp:425] relu4 <- conv4
I0403 13:19:08.580651 10853 net.cpp:386] relu4 -> conv4 (in-place)
I0403 13:19:08.580950 10853 net.cpp:141] Setting up relu4
I0403 13:19:08.580976 10853 net.cpp:148] Top shape: 100 384 13 13 (6489600)
I0403 13:19:08.580992 10853 net.cpp:156] Memory required for data: 783398000
I0403 13:19:08.581007 10853 layer_factory.hpp:77] Creating layer conv5
I0403 13:19:08.581032 10853 net.cpp:91] Creating Layer conv5
I0403 13:19:08.581049 10853 net.cpp:425] conv5 <- conv4
I0403 13:19:08.581070 10853 net.cpp:399] conv5 -> conv5
I0403 13:19:08.601820 10853 net.cpp:141] Setting up conv5
I0403 13:19:08.601873 10853 net.cpp:148] Top shape: 100 256 13 13 (4326400)
I0403 13:19:08.601889 10853 net.cpp:156] Memory required for data: 800703600
I0403 13:19:08.601914 10853 layer_factory.hpp:77] Creating layer relu5
I0403 13:19:08.601938 10853 net.cpp:91] Creating Layer relu5
I0403 13:19:08.601956 10853 net.cpp:425] relu5 <- conv5
I0403 13:19:08.601974 10853 net.cpp:386] relu5 -> conv5 (in-place)
I0403 13:19:08.602258 10853 net.cpp:141] Setting up relu5
I0403 13:19:08.602285 10853 net.cpp:148] Top shape: 100 256 13 13 (4326400)
I0403 13:19:08.602300 10853 net.cpp:156] Memory required for data: 818009200
I0403 13:19:08.602314 10853 layer_factory.hpp:77] Creating layer pool5
I0403 13:19:08.602339 10853 net.cpp:91] Creating Layer pool5
I0403 13:19:08.602356 10853 net.cpp:425] pool5 <- conv5
I0403 13:19:08.602377 10853 net.cpp:399] pool5 -> pool5
I0403 13:19:08.602437 10853 net.cpp:141] Setting up pool5
I0403 13:19:08.602459 10853 net.cpp:148] Top shape: 100 256 6 6 (921600)
I0403 13:19:08.602474 10853 net.cpp:156] Memory required for data: 821695600
I0403 13:19:08.602488 10853 layer_factory.hpp:77] Creating layer fc6
I0403 13:19:08.602516 10853 net.cpp:91] Creating Layer fc6
I0403 13:19:08.602533 10853 net.cpp:425] fc6 <- pool5
I0403 13:19:08.602566 10853 net.cpp:399] fc6 -> fc6
I0403 13:19:10.151921 10853 net.cpp:141] Setting up fc6
I0403 13:19:10.151999 10853 net.cpp:148] Top shape: 100 4096 (409600)
I0403 13:19:10.152015 10853 net.cpp:156] Memory required for data: 823334000
I0403 13:19:10.152037 10853 layer_factory.hpp:77] Creating layer relu6
I0403 13:19:10.152061 10853 net.cpp:91] Creating Layer relu6
I0403 13:19:10.152078 10853 net.cpp:425] relu6 <- fc6
I0403 13:19:10.152098 10853 net.cpp:386] relu6 -> fc6 (in-place)
I0403 13:19:10.152328 10853 net.cpp:141] Setting up relu6
I0403 13:19:10.152353 10853 net.cpp:148] Top shape: 100 4096 (409600)
I0403 13:19:10.152367 10853 net.cpp:156] Memory required for data: 824972400
I0403 13:19:10.152381 10853 layer_factory.hpp:77] Creating layer drop6
I0403 13:19:10.152401 10853 net.cpp:91] Creating Layer drop6
I0403 13:19:10.152416 10853 net.cpp:425] drop6 <- fc6
I0403 13:19:10.152432 10853 net.cpp:386] drop6 -> fc6 (in-place)
I0403 13:19:10.152485 10853 net.cpp:141] Setting up drop6
I0403 13:19:10.152508 10853 net.cpp:148] Top shape: 100 4096 (409600)
I0403 13:19:10.152523 10853 net.cpp:156] Memory required for data: 826610800
I0403 13:19:10.152536 10853 layer_factory.hpp:77] Creating layer fc7
I0403 13:19:10.152557 10853 net.cpp:91] Creating Layer fc7
I0403 13:19:10.152573 10853 net.cpp:425] fc7 <- fc6
I0403 13:19:10.152590 10853 net.cpp:399] fc7 -> fc7
I0403 13:19:10.837055 10853 net.cpp:141] Setting up fc7
I0403 13:19:10.837106 10853 net.cpp:148] Top shape: 100 4096 (409600)
I0403 13:19:10.837122 10853 net.cpp:156] Memory required for data: 828249200
I0403 13:19:10.837143 10853 layer_factory.hpp:77] Creating layer relu7
I0403 13:19:10.837164 10853 net.cpp:91] Creating Layer relu7
I0403 13:19:10.837182 10853 net.cpp:425] relu7 <- fc7
I0403 13:19:10.837199 10853 net.cpp:386] relu7 -> fc7 (in-place)
I0403 13:19:10.837626 10853 net.cpp:141] Setting up relu7
I0403 13:19:10.837664 10853 net.cpp:148] Top shape: 100 4096 (409600)
I0403 13:19:10.837721 10853 net.cpp:156] Memory required for data: 829887600
I0403 13:19:10.837736 10853 layer_factory.hpp:77] Creating layer drop7
I0403 13:19:10.837764 10853 net.cpp:91] Creating Layer drop7
I0403 13:19:10.837779 10853 net.cpp:425] drop7 <- fc7
I0403 13:19:10.837795 10853 net.cpp:386] drop7 -> fc7 (in-place)
I0403 13:19:10.837839 10853 net.cpp:141] Setting up drop7
I0403 13:19:10.837862 10853 net.cpp:148] Top shape: 100 4096 (409600)
I0403 13:19:10.837875 10853 net.cpp:156] Memory required for data: 831526000
I0403 13:19:10.837888 10853 layer_factory.hpp:77] Creating layer fc8_plantvillage
I0403 13:19:10.837909 10853 net.cpp:91] Creating Layer fc8_plantvillage
I0403 13:19:10.837924 10853 net.cpp:425] fc8_plantvillage <- fc7
I0403 13:19:10.837941 10853 net.cpp:399] fc8_plantvillage -> fc8_plantvillage
I0403 13:19:10.844614 10853 net.cpp:141] Setting up fc8_plantvillage
I0403 13:19:10.844641 10853 net.cpp:148] Top shape: 100 38 (3800)
I0403 13:19:10.844656 10853 net.cpp:156] Memory required for data: 831541200
I0403 13:19:10.844673 10853 layer_factory.hpp:77] Creating layer fc8_plantvillage_fc8_plantvillage_0_split
I0403 13:19:10.844692 10853 net.cpp:91] Creating Layer fc8_plantvillage_fc8_plantvillage_0_split
I0403 13:19:10.844708 10853 net.cpp:425] fc8_plantvillage_fc8_plantvillage_0_split <- fc8_plantvillage
I0403 13:19:10.844724 10853 net.cpp:399] fc8_plantvillage_fc8_plantvillage_0_split -> fc8_plantvillage_fc8_plantvillage_0_split_0
I0403 13:19:10.844745 10853 net.cpp:399] fc8_plantvillage_fc8_plantvillage_0_split -> fc8_plantvillage_fc8_plantvillage_0_split_1
I0403 13:19:10.844764 10853 net.cpp:399] fc8_plantvillage_fc8_plantvillage_0_split -> fc8_plantvillage_fc8_plantvillage_0_split_2
I0403 13:19:10.844838 10853 net.cpp:141] Setting up fc8_plantvillage_fc8_plantvillage_0_split
I0403 13:19:10.844862 10853 net.cpp:148] Top shape: 100 38 (3800)
I0403 13:19:10.844877 10853 net.cpp:148] Top shape: 100 38 (3800)
I0403 13:19:10.844892 10853 net.cpp:148] Top shape: 100 38 (3800)
I0403 13:19:10.844918 10853 net.cpp:156] Memory required for data: 831586800
I0403 13:19:10.844931 10853 layer_factory.hpp:77] Creating layer prob
I0403 13:19:10.844951 10853 net.cpp:91] Creating Layer prob
I0403 13:19:10.844967 10853 net.cpp:425] prob <- fc8_plantvillage_fc8_plantvillage_0_split_0
I0403 13:19:10.844985 10853 net.cpp:399] prob -> prob
I0403 13:19:10.845208 10853 net.cpp:141] Setting up prob
I0403 13:19:10.845245 10853 net.cpp:148] Top shape: 100 38 (3800)
I0403 13:19:10.845259 10853 net.cpp:156] Memory required for data: 831602000
I0403 13:19:10.845278 10853 layer_factory.hpp:77] Creating layer hdf5out
I0403 13:19:10.845299 10853 net.cpp:91] Creating Layer hdf5out
I0403 13:19:10.845314 10853 net.cpp:425] hdf5out <- prob
I0403 13:19:10.845329 10853 net.cpp:425] hdf5out <- label_data_1_split_0
I0403 13:19:10.847441 10853 net.cpp:141] Setting up hdf5out
…
