…
I0403 13:19:33.493264 10870 net.cpp:313] The NetState phase (1) differed from the phase (0) specified by a rule in layer data
I0403 13:19:33.493567 10870 net.cpp:49] Initializing net from parameters: 
state {
  phase: TEST
}
layer {
  name: "data"
  type: "Data"
  top: "data"
  top: "label"
  include {
    phase: TEST
  }
  transform_param {
    crop_size: 227
    mean_file: "/home/mohanty/data/final_dataset/lmdb/color-80-20/mean.binaryproto"
  }
  data_param {
    source: "/home/mohanty/data/final_dataset/lmdb/color-80-20/test_db"
    batch_size: 100
    backend: LMDB
  }
}
layer {
  name: "conv1"
  type: "Convolution"
  bottom: "data"
  top: "conv1"
  param {
    lr_mult: 1
    decay_mult: 1
  }
  param {
    lr_mult: 2
    decay_mult: 0
  }
  convolution_param {
    num_output: 96
    kernel_size: 11
    stride: 4
    weight_filler {
      type: "gaussian"
      std: 0.01
    }
    bias_filler {
      type: "constant"
      value: 0
    }
  }
}
layer {
  name: "relu1"
  type: "ReLU"
  bottom: "conv1"
  top: "conv1"
}
layer {
  name: "norm1"
  type: "LRN"
  bottom: "conv1"
  top: "norm1"
  lrn_param {
    local_size: 5
    alpha: 0.0001
    beta: 0.75
  }
}
layer {
  name: "pool1"
  type: "Pooling"
  bottom: "norm1"
  top: "pool1"
  pooling_param {
    pool: MAX
    kernel_size: 3
    stride: 2
  }
}
layer {
  name: "conv2"
  type: "Convolution"
  bottom: "pool1"
  top: "conv2"
  param {
    lr_mult: 1
    decay_mult: 1
  }
  param {
    lr_mult: 2
    decay_mult: 0
  }
  convolution_param {
    num_output: 256
    pad: 2
    kernel_size: 5
    group: 2
    weight_filler {
      type: "gaussian"
      std: 0.01
    }
    bias_filler {
      type: "constant"
      value: 0.1
    }
  }
}
layer {
  name: "relu2"
  type: "ReLU"
  bottom: "conv2"
  top: "conv2"
}
layer {
  name: "norm2"
  type: "LRN"
  bottom: "conv2"
  top: "norm2"
  lrn_param {
    local_size: 5
    alpha: 0.0001
    beta: 0.75
  }
}
layer {
  name: "pool2"
  type: "Pooling"
  bottom: "norm2"
  top: "pool2"
  pooling_param {
    pool: MAX
    kernel_size: 3
    stride: 2
  }
}
layer {
  name: "conv3"
  type: "Convolution"
  bottom: "pool2"
  top: "conv3"
  param {
    lr_mult: 1
    decay_mult: 1
  }
  param {
    lr_mult: 2
    decay_mult: 0
  }
  convolution_param {
    num_output: 384
    pad: 1
    kernel_size: 3
    weight_filler {
      type: "gaussian"
      std: 0.01
    }
    bias_filler {
      type: "constant"
      value: 0
    }
  }
}
layer {
  name: "relu3"
  type: "ReLU"
  bottom: "conv3"
  top: "conv3"
}
layer {
  name: "conv4"
  type: "Convolution"
  bottom: "conv3"
  top: "conv4"
  param {
    lr_mult: 1
    decay_mult: 1
  }
  param {
    lr_mult: 2
    decay_mult: 0
  }
  convolution_param {
    num_output: 384
    pad: 1
    kernel_size: 3
    group: 2
    weight_filler {
      type: "gaussian"
      std: 0.01
    }
    bias_filler {
      type: "constant"
      value: 0.1
    }
  }
}
layer {
  name: "relu4"
  type: "ReLU"
  bottom: "conv4"
  top: "conv4"
}
layer {
  name: "conv5"
  type: "Convolution"
  bottom: "conv4"
  top: "conv5"
  param {
    lr_mult: 1
    decay_mult: 1
  }
  param {
    lr_mult: 2
    decay_mult: 0
  }
  convolution_param {
    num_output: 256
    pad: 1
    kernel_size: 3
    group: 2
    weight_filler {
      type: "gaussian"
      std: 0.01
    }
    bias_filler {
      type: "constant"
      value: 0.1
    }
  }
}
layer {
  name: "relu5"
  type: "ReLU"
  bottom: "conv5"
  top: "conv5"
}
layer {
  name: "pool5"
  type: "Pooling"
  bottom: "conv5"
  top: "pool5"
  pooling_param {
    pool: MAX
    kernel_size: 3
    stride: 2
  }
}
layer {
  name: "fc6"
  type: "InnerProduct"
  bottom: "pool5"
  top: "fc6"
  param {
    lr_mult: 1
    decay_mult: 1
  }
  param {
    lr_mult: 2
    decay_mult: 0
  }
  inner_product_param {
    num_output: 4096
    weight_filler {
      type: "gaussian"
      std: 0.005
    }
    bias_filler {
      type: "constant"
      value: 0.1
    }
  }
}
layer {
  name: "relu6"
  type: "ReLU"
  bottom: "fc6"
  top: "fc6"
}
layer {
  name: "drop6"
  type: "Dropout"
  bottom: "fc6"
  top: "fc6"
  dropout_param {
    dropout_ratio: 0.5
  }
}
layer {
  name: "fc7"
  type: "InnerProduct"
  bottom: "fc6"
  top: "fc7"
  param {
    lr_mult: 1
    decay_mult: 1
  }
  param {
    lr_mult: 2
    decay_mult: 0
  }
  inner_product_param {
    num_output: 4096
    weight_filler {
      type: "gaussian"
      std: 0.005
    }
    bias_filler {
      type: "constant"
      value: 0.1
    }
  }
}
layer {
  name: "relu7"
  type: "ReLU"
  bottom: "fc7"
  top: "fc7"
}
layer {
  name: "drop7"
  type: "Dropout"
  bottom: "fc7"
  top: "fc7"
  dropout_param {
    dropout_ratio: 0.5
  }
}
layer {
  name: "fc8_plantvillage"
  type: "InnerProduct"
  bottom: "fc7"
  top: "fc8_plantvillage"
  param {
    lr_mult: 1
    decay_mult: 1
  }
  param {
    lr_mult: 2
    decay_mult: 0
  }
  inner_product_param {
    num_output: 38
    weight_filler {
      type: "gaussian"
      std: 0.01
    }
    bias_filler {
      type: "constant"
      value: 0
    }
  }
}
layer {
  name: "prob"
  type: "Softmax"
  bottom: "fc8_plantvillage"
  top: "prob"
  include {
    phase: TEST
  }
}
layer {
  name: "hdf5out"
  type: "HDF5Output"
  bottom: "prob"
  bottom: "label"
  include {
    phase: TEST
  }
  hdf5_output_param {
    file_name: "hdf5_dumps/iter_10925.h5"
  }
}
layer {
  name: "loss"
  type: "SoftmaxWithLoss"
  bottom: "fc8_plantvillage"
  bottom: "label"
  top: "loss"
}
layer {
  name: "accuracy"
  type: "Accuracy"
  bottom: "fc8_plantvillage"
  bottom: "label"
  top: "accuracy"
  include {
    phase: TEST
  }
}
I0403 13:19:33.494158 10870 layer_factory.hpp:77] Creating layer data
I0403 13:19:33.494825 10870 net.cpp:91] Creating Layer data
I0403 13:19:33.494855 10870 net.cpp:399] data -> data
I0403 13:19:33.494902 10870 net.cpp:399] data -> label
I0403 13:19:33.494942 10870 data_transformer.cpp:25] Loading mean file from: /home/mohanty/data/final_dataset/lmdb/color-80-20/mean.binaryproto
I0403 13:19:33.498236 10874 db_lmdb.cpp:38] Opened lmdb /home/mohanty/data/final_dataset/lmdb/color-80-20/test_db
I0403 13:19:33.509202 10870 data_layer.cpp:41] output data size: 100,3,227,227
I0403 13:19:33.630194 10870 net.cpp:141] Setting up data
I0403 13:19:33.630254 10870 net.cpp:148] Top shape: 100 3 227 227 (15458700)
I0403 13:19:33.630276 10870 net.cpp:148] Top shape: 100 (100)
I0403 13:19:33.630291 10870 net.cpp:156] Memory required for data: 61835200
I0403 13:19:33.630321 10870 layer_factory.hpp:77] Creating layer label_data_1_split
I0403 13:19:33.630347 10870 net.cpp:91] Creating Layer label_data_1_split
I0403 13:19:33.630364 10870 net.cpp:425] label_data_1_split <- label
I0403 13:19:33.630396 10870 net.cpp:399] label_data_1_split -> label_data_1_split_0
I0403 13:19:33.630422 10870 net.cpp:399] label_data_1_split -> label_data_1_split_1
I0403 13:19:33.630442 10870 net.cpp:399] label_data_1_split -> label_data_1_split_2
I0403 13:19:33.630504 10870 net.cpp:141] Setting up label_data_1_split
I0403 13:19:33.630527 10870 net.cpp:148] Top shape: 100 (100)
I0403 13:19:33.630543 10870 net.cpp:148] Top shape: 100 (100)
I0403 13:19:33.630558 10870 net.cpp:148] Top shape: 100 (100)
I0403 13:19:33.630573 10870 net.cpp:156] Memory required for data: 61836400
I0403 13:19:33.630587 10870 layer_factory.hpp:77] Creating layer conv1
I0403 13:19:33.630622 10870 net.cpp:91] Creating Layer conv1
I0403 13:19:33.630641 10870 net.cpp:425] conv1 <- data
I0403 13:19:33.630661 10870 net.cpp:399] conv1 -> conv1
I0403 13:19:33.773932 10870 net.cpp:141] Setting up conv1
I0403 13:19:33.774013 10870 net.cpp:148] Top shape: 100 96 55 55 (29040000)
I0403 13:19:33.774030 10870 net.cpp:156] Memory required for data: 177996400
I0403 13:19:33.774067 10870 layer_factory.hpp:77] Creating layer relu1
I0403 13:19:33.774096 10870 net.cpp:91] Creating Layer relu1
I0403 13:19:33.774114 10870 net.cpp:425] relu1 <- conv1
I0403 13:19:33.774133 10870 net.cpp:386] relu1 -> conv1 (in-place)
I0403 13:19:33.774395 10870 net.cpp:141] Setting up relu1
I0403 13:19:33.774422 10870 net.cpp:148] Top shape: 100 96 55 55 (29040000)
I0403 13:19:33.774438 10870 net.cpp:156] Memory required for data: 294156400
I0403 13:19:33.774489 10870 layer_factory.hpp:77] Creating layer norm1
I0403 13:19:33.774518 10870 net.cpp:91] Creating Layer norm1
I0403 13:19:33.774536 10870 net.cpp:425] norm1 <- conv1
I0403 13:19:33.774554 10870 net.cpp:399] norm1 -> norm1
I0403 13:19:33.774878 10870 net.cpp:141] Setting up norm1
I0403 13:19:33.774906 10870 net.cpp:148] Top shape: 100 96 55 55 (29040000)
I0403 13:19:33.774921 10870 net.cpp:156] Memory required for data: 410316400
I0403 13:19:33.774936 10870 layer_factory.hpp:77] Creating layer pool1
I0403 13:19:33.774960 10870 net.cpp:91] Creating Layer pool1
I0403 13:19:33.774977 10870 net.cpp:425] pool1 <- norm1
I0403 13:19:33.774996 10870 net.cpp:399] pool1 -> pool1
I0403 13:19:33.775063 10870 net.cpp:141] Setting up pool1
I0403 13:19:33.775086 10870 net.cpp:148] Top shape: 100 96 27 27 (6998400)
I0403 13:19:33.775100 10870 net.cpp:156] Memory required for data: 438310000
I0403 13:19:33.775115 10870 layer_factory.hpp:77] Creating layer conv2
I0403 13:19:33.775140 10870 net.cpp:91] Creating Layer conv2
I0403 13:19:33.775156 10870 net.cpp:425] conv2 <- pool1
I0403 13:19:33.775174 10870 net.cpp:399] conv2 -> conv2
I0403 13:19:33.790164 10870 net.cpp:141] Setting up conv2
I0403 13:19:33.790205 10870 net.cpp:148] Top shape: 100 256 27 27 (18662400)
I0403 13:19:33.790221 10870 net.cpp:156] Memory required for data: 512959600
I0403 13:19:33.790247 10870 layer_factory.hpp:77] Creating layer relu2
I0403 13:19:33.790271 10870 net.cpp:91] Creating Layer relu2
I0403 13:19:33.790287 10870 net.cpp:425] relu2 <- conv2
I0403 13:19:33.790303 10870 net.cpp:386] relu2 -> conv2 (in-place)
I0403 13:19:33.790606 10870 net.cpp:141] Setting up relu2
I0403 13:19:33.790634 10870 net.cpp:148] Top shape: 100 256 27 27 (18662400)
I0403 13:19:33.790650 10870 net.cpp:156] Memory required for data: 587609200
I0403 13:19:33.790665 10870 layer_factory.hpp:77] Creating layer norm2
I0403 13:19:33.790686 10870 net.cpp:91] Creating Layer norm2
I0403 13:19:33.790701 10870 net.cpp:425] norm2 <- conv2
I0403 13:19:33.790720 10870 net.cpp:399] norm2 -> norm2
I0403 13:19:33.790918 10870 net.cpp:141] Setting up norm2
I0403 13:19:33.790945 10870 net.cpp:148] Top shape: 100 256 27 27 (18662400)
I0403 13:19:33.790959 10870 net.cpp:156] Memory required for data: 662258800
I0403 13:19:33.790974 10870 layer_factory.hpp:77] Creating layer pool2
I0403 13:19:33.790994 10870 net.cpp:91] Creating Layer pool2
I0403 13:19:33.791010 10870 net.cpp:425] pool2 <- norm2
I0403 13:19:33.791026 10870 net.cpp:399] pool2 -> pool2
I0403 13:19:33.791079 10870 net.cpp:141] Setting up pool2
I0403 13:19:33.791102 10870 net.cpp:148] Top shape: 100 256 13 13 (4326400)
I0403 13:19:33.791117 10870 net.cpp:156] Memory required for data: 679564400
I0403 13:19:33.791131 10870 layer_factory.hpp:77] Creating layer conv3
I0403 13:19:33.791153 10870 net.cpp:91] Creating Layer conv3
I0403 13:19:33.791172 10870 net.cpp:425] conv3 <- pool2
I0403 13:19:33.791191 10870 net.cpp:399] conv3 -> conv3
I0403 13:19:33.834985 10870 net.cpp:141] Setting up conv3
I0403 13:19:33.835062 10870 net.cpp:148] Top shape: 100 384 13 13 (6489600)
I0403 13:19:33.835078 10870 net.cpp:156] Memory required for data: 705522800
I0403 13:19:33.835103 10870 layer_factory.hpp:77] Creating layer relu3
I0403 13:19:33.835127 10870 net.cpp:91] Creating Layer relu3
I0403 13:19:33.835145 10870 net.cpp:425] relu3 <- conv3
I0403 13:19:33.835163 10870 net.cpp:386] relu3 -> conv3 (in-place)
I0403 13:19:33.835436 10870 net.cpp:141] Setting up relu3
I0403 13:19:33.835463 10870 net.cpp:148] Top shape: 100 384 13 13 (6489600)
I0403 13:19:33.835476 10870 net.cpp:156] Memory required for data: 731481200
I0403 13:19:33.835490 10870 layer_factory.hpp:77] Creating layer conv4
I0403 13:19:33.835516 10870 net.cpp:91] Creating Layer conv4
I0403 13:19:33.835533 10870 net.cpp:425] conv4 <- conv3
I0403 13:19:33.835554 10870 net.cpp:399] conv4 -> conv4
I0403 13:19:33.865474 10870 net.cpp:141] Setting up conv4
I0403 13:19:33.865545 10870 net.cpp:148] Top shape: 100 384 13 13 (6489600)
I0403 13:19:33.865597 10870 net.cpp:156] Memory required for data: 757439600
I0403 13:19:33.865627 10870 layer_factory.hpp:77] Creating layer relu4
I0403 13:19:33.865648 10870 net.cpp:91] Creating Layer relu4
I0403 13:19:33.865667 10870 net.cpp:425] relu4 <- conv4
I0403 13:19:33.865689 10870 net.cpp:386] relu4 -> conv4 (in-place)
I0403 13:19:33.865972 10870 net.cpp:141] Setting up relu4
I0403 13:19:33.865998 10870 net.cpp:148] Top shape: 100 384 13 13 (6489600)
I0403 13:19:33.866014 10870 net.cpp:156] Memory required for data: 783398000
I0403 13:19:33.866029 10870 layer_factory.hpp:77] Creating layer conv5
I0403 13:19:33.866056 10870 net.cpp:91] Creating Layer conv5
I0403 13:19:33.866075 10870 net.cpp:425] conv5 <- conv4
I0403 13:19:33.866096 10870 net.cpp:399] conv5 -> conv5
I0403 13:19:33.887285 10870 net.cpp:141] Setting up conv5
I0403 13:19:33.887348 10870 net.cpp:148] Top shape: 100 256 13 13 (4326400)
I0403 13:19:33.887364 10870 net.cpp:156] Memory required for data: 800703600
I0403 13:19:33.887392 10870 layer_factory.hpp:77] Creating layer relu5
I0403 13:19:33.887413 10870 net.cpp:91] Creating Layer relu5
I0403 13:19:33.887429 10870 net.cpp:425] relu5 <- conv5
I0403 13:19:33.887447 10870 net.cpp:386] relu5 -> conv5 (in-place)
I0403 13:19:33.887740 10870 net.cpp:141] Setting up relu5
I0403 13:19:33.887768 10870 net.cpp:148] Top shape: 100 256 13 13 (4326400)
I0403 13:19:33.887784 10870 net.cpp:156] Memory required for data: 818009200
I0403 13:19:33.887799 10870 layer_factory.hpp:77] Creating layer pool5
I0403 13:19:33.887826 10870 net.cpp:91] Creating Layer pool5
I0403 13:19:33.887846 10870 net.cpp:425] pool5 <- conv5
I0403 13:19:33.887864 10870 net.cpp:399] pool5 -> pool5
I0403 13:19:33.887929 10870 net.cpp:141] Setting up pool5
I0403 13:19:33.887953 10870 net.cpp:148] Top shape: 100 256 6 6 (921600)
I0403 13:19:33.887969 10870 net.cpp:156] Memory required for data: 821695600
I0403 13:19:33.887984 10870 layer_factory.hpp:77] Creating layer fc6
I0403 13:19:33.888012 10870 net.cpp:91] Creating Layer fc6
I0403 13:19:33.888031 10870 net.cpp:425] fc6 <- pool5
I0403 13:19:33.888051 10870 net.cpp:399] fc6 -> fc6
I0403 13:19:35.444828 10870 net.cpp:141] Setting up fc6
I0403 13:19:35.444892 10870 net.cpp:148] Top shape: 100 4096 (409600)
I0403 13:19:35.444908 10870 net.cpp:156] Memory required for data: 823334000
I0403 13:19:35.444928 10870 layer_factory.hpp:77] Creating layer relu6
I0403 13:19:35.444950 10870 net.cpp:91] Creating Layer relu6
I0403 13:19:35.444967 10870 net.cpp:425] relu6 <- fc6
I0403 13:19:35.444988 10870 net.cpp:386] relu6 -> fc6 (in-place)
I0403 13:19:35.445204 10870 net.cpp:141] Setting up relu6
I0403 13:19:35.445228 10870 net.cpp:148] Top shape: 100 4096 (409600)
I0403 13:19:35.445242 10870 net.cpp:156] Memory required for data: 824972400
I0403 13:19:35.445257 10870 layer_factory.hpp:77] Creating layer drop6
I0403 13:19:35.445277 10870 net.cpp:91] Creating Layer drop6
I0403 13:19:35.445293 10870 net.cpp:425] drop6 <- fc6
I0403 13:19:35.445310 10870 net.cpp:386] drop6 -> fc6 (in-place)
I0403 13:19:35.445363 10870 net.cpp:141] Setting up drop6
I0403 13:19:35.445385 10870 net.cpp:148] Top shape: 100 4096 (409600)
I0403 13:19:35.445399 10870 net.cpp:156] Memory required for data: 826610800
I0403 13:19:35.445415 10870 layer_factory.hpp:77] Creating layer fc7
I0403 13:19:35.445435 10870 net.cpp:91] Creating Layer fc7
I0403 13:19:35.445449 10870 net.cpp:425] fc7 <- fc6
I0403 13:19:35.445468 10870 net.cpp:399] fc7 -> fc7
I0403 13:19:36.129498 10870 net.cpp:141] Setting up fc7
I0403 13:19:36.129572 10870 net.cpp:148] Top shape: 100 4096 (409600)
I0403 13:19:36.129588 10870 net.cpp:156] Memory required for data: 828249200
I0403 13:19:36.129616 10870 layer_factory.hpp:77] Creating layer relu7
I0403 13:19:36.129642 10870 net.cpp:91] Creating Layer relu7
I0403 13:19:36.129660 10870 net.cpp:425] relu7 <- fc7
I0403 13:19:36.129679 10870 net.cpp:386] relu7 -> fc7 (in-place)
I0403 13:19:36.130101 10870 net.cpp:141] Setting up relu7
I0403 13:19:36.130127 10870 net.cpp:148] Top shape: 100 4096 (409600)
I0403 13:19:36.130183 10870 net.cpp:156] Memory required for data: 829887600
I0403 13:19:36.130199 10870 layer_factory.hpp:77] Creating layer drop7
I0403 13:19:36.130220 10870 net.cpp:91] Creating Layer drop7
I0403 13:19:36.130237 10870 net.cpp:425] drop7 <- fc7
I0403 13:19:36.130254 10870 net.cpp:386] drop7 -> fc7 (in-place)
I0403 13:19:36.130298 10870 net.cpp:141] Setting up drop7
I0403 13:19:36.130321 10870 net.cpp:148] Top shape: 100 4096 (409600)
I0403 13:19:36.130334 10870 net.cpp:156] Memory required for data: 831526000
I0403 13:19:36.130348 10870 layer_factory.hpp:77] Creating layer fc8_plantvillage
I0403 13:19:36.130367 10870 net.cpp:91] Creating Layer fc8_plantvillage
I0403 13:19:36.130383 10870 net.cpp:425] fc8_plantvillage <- fc7
I0403 13:19:36.130403 10870 net.cpp:399] fc8_plantvillage -> fc8_plantvillage
I0403 13:19:36.137136 10870 net.cpp:141] Setting up fc8_plantvillage
I0403 13:19:36.137166 10870 net.cpp:148] Top shape: 100 38 (3800)
I0403 13:19:36.137181 10870 net.cpp:156] Memory required for data: 831541200
I0403 13:19:36.137199 10870 layer_factory.hpp:77] Creating layer fc8_plantvillage_fc8_plantvillage_0_split
I0403 13:19:36.137218 10870 net.cpp:91] Creating Layer fc8_plantvillage_fc8_plantvillage_0_split
I0403 13:19:36.137233 10870 net.cpp:425] fc8_plantvillage_fc8_plantvillage_0_split <- fc8_plantvillage
I0403 13:19:36.137249 10870 net.cpp:399] fc8_plantvillage_fc8_plantvillage_0_split -> fc8_plantvillage_fc8_plantvillage_0_split_0
I0403 13:19:36.137269 10870 net.cpp:399] fc8_plantvillage_fc8_plantvillage_0_split -> fc8_plantvillage_fc8_plantvillage_0_split_1
I0403 13:19:36.137289 10870 net.cpp:399] fc8_plantvillage_fc8_plantvillage_0_split -> fc8_plantvillage_fc8_plantvillage_0_split_2
I0403 13:19:36.137367 10870 net.cpp:141] Setting up fc8_plantvillage_fc8_plantvillage_0_split
I0403 13:19:36.137389 10870 net.cpp:148] Top shape: 100 38 (3800)
I0403 13:19:36.137405 10870 net.cpp:148] Top shape: 100 38 (3800)
I0403 13:19:36.137421 10870 net.cpp:148] Top shape: 100 38 (3800)
I0403 13:19:36.137434 10870 net.cpp:156] Memory required for data: 831586800
I0403 13:19:36.137449 10870 layer_factory.hpp:77] Creating layer prob
I0403 13:19:36.137465 10870 net.cpp:91] Creating Layer prob
I0403 13:19:36.137480 10870 net.cpp:425] prob <- fc8_plantvillage_fc8_plantvillage_0_split_0
I0403 13:19:36.137498 10870 net.cpp:399] prob -> prob
I0403 13:19:36.137735 10870 net.cpp:141] Setting up prob
I0403 13:19:36.137760 10870 net.cpp:148] Top shape: 100 38 (3800)
I0403 13:19:36.137775 10870 net.cpp:156] Memory required for data: 831602000
I0403 13:19:36.137790 10870 layer_factory.hpp:77] Creating layer hdf5out
I0403 13:19:36.137811 10870 net.cpp:91] Creating Layer hdf5out
I0403 13:19:36.137828 10870 net.cpp:425] hdf5out <- prob
I0403 13:19:36.137845 10870 net.cpp:425] hdf5out <- label_data_1_split_0
I0403 13:19:36.140275 10870 net.cpp:141] Setting up hdf5out
…
