…
I0403 13:11:32.324610 10467 net.cpp:313] The NetState phase (1) differed from the phase (0) specified by a rule in layer data
I0403 13:11:32.324916 10467 net.cpp:49] Initializing net from parameters: 
state {
  phase: TEST
}
layer {
  name: "data"
  type: "Data"
  top: "data"
  top: "label"
  include {
    phase: TEST
  }
  transform_param {
    crop_size: 227
    mean_file: "/home/mohanty/data/final_dataset/lmdb/color-80-20/mean.binaryproto"
  }
  data_param {
    source: "/home/mohanty/data/final_dataset/lmdb/color-80-20/test_db"
    batch_size: 100
    backend: LMDB
  }
}
layer {
  name: "conv1"
  type: "Convolution"
  bottom: "data"
  top: "conv1"
  param {
    lr_mult: 1
    decay_mult: 1
  }
  param {
    lr_mult: 2
    decay_mult: 0
  }
  convolution_param {
    num_output: 96
    kernel_size: 11
    stride: 4
    weight_filler {
      type: "gaussian"
      std: 0.01
    }
    bias_filler {
      type: "constant"
      value: 0
    }
  }
}
layer {
  name: "relu1"
  type: "ReLU"
  bottom: "conv1"
  top: "conv1"
}
layer {
  name: "norm1"
  type: "LRN"
  bottom: "conv1"
  top: "norm1"
  lrn_param {
    local_size: 5
    alpha: 0.0001
    beta: 0.75
  }
}
layer {
  name: "pool1"
  type: "Pooling"
  bottom: "norm1"
  top: "pool1"
  pooling_param {
    pool: MAX
    kernel_size: 3
    stride: 2
  }
}
layer {
  name: "conv2"
  type: "Convolution"
  bottom: "pool1"
  top: "conv2"
  param {
    lr_mult: 1
    decay_mult: 1
  }
  param {
    lr_mult: 2
    decay_mult: 0
  }
  convolution_param {
    num_output: 256
    pad: 2
    kernel_size: 5
    group: 2
    weight_filler {
      type: "gaussian"
      std: 0.01
    }
    bias_filler {
      type: "constant"
      value: 0.1
    }
  }
}
layer {
  name: "relu2"
  type: "ReLU"
  bottom: "conv2"
  top: "conv2"
}
layer {
  name: "norm2"
  type: "LRN"
  bottom: "conv2"
  top: "norm2"
  lrn_param {
    local_size: 5
    alpha: 0.0001
    beta: 0.75
  }
}
layer {
  name: "pool2"
  type: "Pooling"
  bottom: "norm2"
  top: "pool2"
  pooling_param {
    pool: MAX
    kernel_size: 3
    stride: 2
  }
}
layer {
  name: "conv3"
  type: "Convolution"
  bottom: "pool2"
  top: "conv3"
  param {
    lr_mult: 1
    decay_mult: 1
  }
  param {
    lr_mult: 2
    decay_mult: 0
  }
  convolution_param {
    num_output: 384
    pad: 1
    kernel_size: 3
    weight_filler {
      type: "gaussian"
      std: 0.01
    }
    bias_filler {
      type: "constant"
      value: 0
    }
  }
}
layer {
  name: "relu3"
  type: "ReLU"
  bottom: "conv3"
  top: "conv3"
}
layer {
  name: "conv4"
  type: "Convolution"
  bottom: "conv3"
  top: "conv4"
  param {
    lr_mult: 1
    decay_mult: 1
  }
  param {
    lr_mult: 2
    decay_mult: 0
  }
  convolution_param {
    num_output: 384
    pad: 1
    kernel_size: 3
    group: 2
    weight_filler {
      type: "gaussian"
      std: 0.01
    }
    bias_filler {
      type: "constant"
      value: 0.1
    }
  }
}
layer {
  name: "relu4"
  type: "ReLU"
  bottom: "conv4"
  top: "conv4"
}
layer {
  name: "conv5"
  type: "Convolution"
  bottom: "conv4"
  top: "conv5"
  param {
    lr_mult: 1
    decay_mult: 1
  }
  param {
    lr_mult: 2
    decay_mult: 0
  }
  convolution_param {
    num_output: 256
    pad: 1
    kernel_size: 3
    group: 2
    weight_filler {
      type: "gaussian"
      std: 0.01
    }
    bias_filler {
      type: "constant"
      value: 0.1
    }
  }
}
layer {
  name: "relu5"
  type: "ReLU"
  bottom: "conv5"
  top: "conv5"
}
layer {
  name: "pool5"
  type: "Pooling"
  bottom: "conv5"
  top: "pool5"
  pooling_param {
    pool: MAX
    kernel_size: 3
    stride: 2
  }
}
layer {
  name: "fc6"
  type: "InnerProduct"
  bottom: "pool5"
  top: "fc6"
  param {
    lr_mult: 1
    decay_mult: 1
  }
  param {
    lr_mult: 2
    decay_mult: 0
  }
  inner_product_param {
    num_output: 4096
    weight_filler {
      type: "gaussian"
      std: 0.005
    }
    bias_filler {
      type: "constant"
      value: 0.1
    }
  }
}
layer {
  name: "relu6"
  type: "ReLU"
  bottom: "fc6"
  top: "fc6"
}
layer {
  name: "drop6"
  type: "Dropout"
  bottom: "fc6"
  top: "fc6"
  dropout_param {
    dropout_ratio: 0.5
  }
}
layer {
  name: "fc7"
  type: "InnerProduct"
  bottom: "fc6"
  top: "fc7"
  param {
    lr_mult: 1
    decay_mult: 1
  }
  param {
    lr_mult: 2
    decay_mult: 0
  }
  inner_product_param {
    num_output: 4096
    weight_filler {
      type: "gaussian"
      std: 0.005
    }
    bias_filler {
      type: "constant"
      value: 0.1
    }
  }
}
layer {
  name: "relu7"
  type: "ReLU"
  bottom: "fc7"
  top: "fc7"
}
layer {
  name: "drop7"
  type: "Dropout"
  bottom: "fc7"
  top: "fc7"
  dropout_param {
    dropout_ratio: 0.5
  }
}
layer {
  name: "fc8_plantvillage"
  type: "InnerProduct"
  bottom: "fc7"
  top: "fc8_plantvillage"
  param {
    lr_mult: 1
    decay_mult: 1
  }
  param {
    lr_mult: 2
    decay_mult: 0
  }
  inner_product_param {
    num_output: 38
    weight_filler {
      type: "gaussian"
      std: 0.01
    }
    bias_filler {
      type: "constant"
      value: 0
    }
  }
}
layer {
  name: "prob"
  type: "Softmax"
  bottom: "fc8_plantvillage"
  top: "prob"
  include {
    phase: TEST
  }
}
layer {
  name: "hdf5out"
  type: "HDF5Output"
  bottom: "prob"
  bottom: "label"
  include {
    phase: TEST
  }
  hdf5_output_param {
    file_name: "hdf5_dumps/iter_2622.h5"
  }
}
layer {
  name: "loss"
  type: "SoftmaxWithLoss"
  bottom: "fc8_plantvillage"
  bottom: "label"
  top: "loss"
}
layer {
  name: "accuracy"
  type: "Accuracy"
  bottom: "fc8_plantvillage"
  bottom: "label"
  top: "accuracy"
  include {
    phase: TEST
  }
}
I0403 13:11:32.325484 10467 layer_factory.hpp:77] Creating layer data
I0403 13:11:32.326127 10467 net.cpp:91] Creating Layer data
I0403 13:11:32.326156 10467 net.cpp:399] data -> data
I0403 13:11:32.326206 10467 net.cpp:399] data -> label
I0403 13:11:32.326246 10467 data_transformer.cpp:25] Loading mean file from: /home/mohanty/data/final_dataset/lmdb/color-80-20/mean.binaryproto
I0403 13:11:32.329283 10470 db_lmdb.cpp:38] Opened lmdb /home/mohanty/data/final_dataset/lmdb/color-80-20/test_db
I0403 13:11:32.340528 10467 data_layer.cpp:41] output data size: 100,3,227,227
I0403 13:11:32.459153 10467 net.cpp:141] Setting up data
I0403 13:11:32.459244 10467 net.cpp:148] Top shape: 100 3 227 227 (15458700)
I0403 13:11:32.459269 10467 net.cpp:148] Top shape: 100 (100)
I0403 13:11:32.459282 10467 net.cpp:156] Memory required for data: 61835200
I0403 13:11:32.459311 10467 layer_factory.hpp:77] Creating layer label_data_1_split
I0403 13:11:32.459333 10467 net.cpp:91] Creating Layer label_data_1_split
I0403 13:11:32.459350 10467 net.cpp:425] label_data_1_split <- label
I0403 13:11:32.459383 10467 net.cpp:399] label_data_1_split -> label_data_1_split_0
I0403 13:11:32.459408 10467 net.cpp:399] label_data_1_split -> label_data_1_split_1
I0403 13:11:32.459429 10467 net.cpp:399] label_data_1_split -> label_data_1_split_2
I0403 13:11:32.459491 10467 net.cpp:141] Setting up label_data_1_split
I0403 13:11:32.459513 10467 net.cpp:148] Top shape: 100 (100)
I0403 13:11:32.459529 10467 net.cpp:148] Top shape: 100 (100)
I0403 13:11:32.459544 10467 net.cpp:148] Top shape: 100 (100)
I0403 13:11:32.459558 10467 net.cpp:156] Memory required for data: 61836400
I0403 13:11:32.459578 10467 layer_factory.hpp:77] Creating layer conv1
I0403 13:11:32.459611 10467 net.cpp:91] Creating Layer conv1
I0403 13:11:32.459628 10467 net.cpp:425] conv1 <- data
I0403 13:11:32.459647 10467 net.cpp:399] conv1 -> conv1
I0403 13:11:32.601151 10467 net.cpp:141] Setting up conv1
I0403 13:11:32.601222 10467 net.cpp:148] Top shape: 100 96 55 55 (29040000)
I0403 13:11:32.601239 10467 net.cpp:156] Memory required for data: 177996400
I0403 13:11:32.601271 10467 layer_factory.hpp:77] Creating layer relu1
I0403 13:11:32.601300 10467 net.cpp:91] Creating Layer relu1
I0403 13:11:32.601317 10467 net.cpp:425] relu1 <- conv1
I0403 13:11:32.601375 10467 net.cpp:386] relu1 -> conv1 (in-place)
I0403 13:11:32.601646 10467 net.cpp:141] Setting up relu1
I0403 13:11:32.601673 10467 net.cpp:148] Top shape: 100 96 55 55 (29040000)
I0403 13:11:32.601689 10467 net.cpp:156] Memory required for data: 294156400
I0403 13:11:32.601739 10467 layer_factory.hpp:77] Creating layer norm1
I0403 13:11:32.601769 10467 net.cpp:91] Creating Layer norm1
I0403 13:11:32.601786 10467 net.cpp:425] norm1 <- conv1
I0403 13:11:32.601804 10467 net.cpp:399] norm1 -> norm1
I0403 13:11:32.602113 10467 net.cpp:141] Setting up norm1
I0403 13:11:32.602143 10467 net.cpp:148] Top shape: 100 96 55 55 (29040000)
I0403 13:11:32.602157 10467 net.cpp:156] Memory required for data: 410316400
I0403 13:11:32.602172 10467 layer_factory.hpp:77] Creating layer pool1
I0403 13:11:32.602195 10467 net.cpp:91] Creating Layer pool1
I0403 13:11:32.602211 10467 net.cpp:425] pool1 <- norm1
I0403 13:11:32.602228 10467 net.cpp:399] pool1 -> pool1
I0403 13:11:32.602295 10467 net.cpp:141] Setting up pool1
I0403 13:11:32.602319 10467 net.cpp:148] Top shape: 100 96 27 27 (6998400)
I0403 13:11:32.602334 10467 net.cpp:156] Memory required for data: 438310000
I0403 13:11:32.602349 10467 layer_factory.hpp:77] Creating layer conv2
I0403 13:11:32.602373 10467 net.cpp:91] Creating Layer conv2
I0403 13:11:32.602388 10467 net.cpp:425] conv2 <- pool1
I0403 13:11:32.602407 10467 net.cpp:399] conv2 -> conv2
I0403 13:11:32.617580 10467 net.cpp:141] Setting up conv2
I0403 13:11:32.617630 10467 net.cpp:148] Top shape: 100 256 27 27 (18662400)
I0403 13:11:32.617645 10467 net.cpp:156] Memory required for data: 512959600
I0403 13:11:32.617671 10467 layer_factory.hpp:77] Creating layer relu2
I0403 13:11:32.617691 10467 net.cpp:91] Creating Layer relu2
I0403 13:11:32.617707 10467 net.cpp:425] relu2 <- conv2
I0403 13:11:32.617724 10467 net.cpp:386] relu2 -> conv2 (in-place)
I0403 13:11:32.618002 10467 net.cpp:141] Setting up relu2
I0403 13:11:32.618031 10467 net.cpp:148] Top shape: 100 256 27 27 (18662400)
I0403 13:11:32.618047 10467 net.cpp:156] Memory required for data: 587609200
I0403 13:11:32.618062 10467 layer_factory.hpp:77] Creating layer norm2
I0403 13:11:32.618082 10467 net.cpp:91] Creating Layer norm2
I0403 13:11:32.618098 10467 net.cpp:425] norm2 <- conv2
I0403 13:11:32.618118 10467 net.cpp:399] norm2 -> norm2
I0403 13:11:32.618330 10467 net.cpp:141] Setting up norm2
I0403 13:11:32.618355 10467 net.cpp:148] Top shape: 100 256 27 27 (18662400)
I0403 13:11:32.618371 10467 net.cpp:156] Memory required for data: 662258800
I0403 13:11:32.618386 10467 layer_factory.hpp:77] Creating layer pool2
I0403 13:11:32.618405 10467 net.cpp:91] Creating Layer pool2
I0403 13:11:32.618422 10467 net.cpp:425] pool2 <- norm2
I0403 13:11:32.618438 10467 net.cpp:399] pool2 -> pool2
I0403 13:11:32.618491 10467 net.cpp:141] Setting up pool2
I0403 13:11:32.618515 10467 net.cpp:148] Top shape: 100 256 13 13 (4326400)
I0403 13:11:32.618530 10467 net.cpp:156] Memory required for data: 679564400
I0403 13:11:32.618543 10467 layer_factory.hpp:77] Creating layer conv3
I0403 13:11:32.618571 10467 net.cpp:91] Creating Layer conv3
I0403 13:11:32.618588 10467 net.cpp:425] conv3 <- pool2
I0403 13:11:32.618610 10467 net.cpp:399] conv3 -> conv3
I0403 13:11:32.663595 10467 net.cpp:141] Setting up conv3
I0403 13:11:32.663671 10467 net.cpp:148] Top shape: 100 384 13 13 (6489600)
I0403 13:11:32.663687 10467 net.cpp:156] Memory required for data: 705522800
I0403 13:11:32.663713 10467 layer_factory.hpp:77] Creating layer relu3
I0403 13:11:32.663739 10467 net.cpp:91] Creating Layer relu3
I0403 13:11:32.663758 10467 net.cpp:425] relu3 <- conv3
I0403 13:11:32.663776 10467 net.cpp:386] relu3 -> conv3 (in-place)
I0403 13:11:32.664062 10467 net.cpp:141] Setting up relu3
I0403 13:11:32.664089 10467 net.cpp:148] Top shape: 100 384 13 13 (6489600)
I0403 13:11:32.664104 10467 net.cpp:156] Memory required for data: 731481200
I0403 13:11:32.664119 10467 layer_factory.hpp:77] Creating layer conv4
I0403 13:11:32.664146 10467 net.cpp:91] Creating Layer conv4
I0403 13:11:32.664163 10467 net.cpp:425] conv4 <- conv3
I0403 13:11:32.664182 10467 net.cpp:399] conv4 -> conv4
I0403 13:11:32.694712 10467 net.cpp:141] Setting up conv4
I0403 13:11:32.694780 10467 net.cpp:148] Top shape: 100 384 13 13 (6489600)
I0403 13:11:32.694830 10467 net.cpp:156] Memory required for data: 757439600
I0403 13:11:32.694854 10467 layer_factory.hpp:77] Creating layer relu4
I0403 13:11:32.694878 10467 net.cpp:91] Creating Layer relu4
I0403 13:11:32.694897 10467 net.cpp:425] relu4 <- conv4
I0403 13:11:32.694916 10467 net.cpp:386] relu4 -> conv4 (in-place)
I0403 13:11:32.695204 10467 net.cpp:141] Setting up relu4
I0403 13:11:32.695231 10467 net.cpp:148] Top shape: 100 384 13 13 (6489600)
I0403 13:11:32.695246 10467 net.cpp:156] Memory required for data: 783398000
I0403 13:11:32.695262 10467 layer_factory.hpp:77] Creating layer conv5
I0403 13:11:32.695287 10467 net.cpp:91] Creating Layer conv5
I0403 13:11:32.695305 10467 net.cpp:425] conv5 <- conv4
I0403 13:11:32.695327 10467 net.cpp:399] conv5 -> conv5
I0403 13:11:32.716269 10467 net.cpp:141] Setting up conv5
I0403 13:11:32.716323 10467 net.cpp:148] Top shape: 100 256 13 13 (4326400)
I0403 13:11:32.716341 10467 net.cpp:156] Memory required for data: 800703600
I0403 13:11:32.716368 10467 layer_factory.hpp:77] Creating layer relu5
I0403 13:11:32.716390 10467 net.cpp:91] Creating Layer relu5
I0403 13:11:32.716406 10467 net.cpp:425] relu5 <- conv5
I0403 13:11:32.716424 10467 net.cpp:386] relu5 -> conv5 (in-place)
I0403 13:11:32.716759 10467 net.cpp:141] Setting up relu5
I0403 13:11:32.716787 10467 net.cpp:148] Top shape: 100 256 13 13 (4326400)
I0403 13:11:32.716806 10467 net.cpp:156] Memory required for data: 818009200
I0403 13:11:32.716822 10467 layer_factory.hpp:77] Creating layer pool5
I0403 13:11:32.716845 10467 net.cpp:91] Creating Layer pool5
I0403 13:11:32.716861 10467 net.cpp:425] pool5 <- conv5
I0403 13:11:32.716878 10467 net.cpp:399] pool5 -> pool5
I0403 13:11:32.716941 10467 net.cpp:141] Setting up pool5
I0403 13:11:32.716964 10467 net.cpp:148] Top shape: 100 256 6 6 (921600)
I0403 13:11:32.716979 10467 net.cpp:156] Memory required for data: 821695600
I0403 13:11:32.716992 10467 layer_factory.hpp:77] Creating layer fc6
I0403 13:11:32.717021 10467 net.cpp:91] Creating Layer fc6
I0403 13:11:32.717039 10467 net.cpp:425] fc6 <- pool5
I0403 13:11:32.717059 10467 net.cpp:399] fc6 -> fc6
I0403 13:11:34.270475 10467 net.cpp:141] Setting up fc6
I0403 13:11:34.270552 10467 net.cpp:148] Top shape: 100 4096 (409600)
I0403 13:11:34.270571 10467 net.cpp:156] Memory required for data: 823334000
I0403 13:11:34.270593 10467 layer_factory.hpp:77] Creating layer relu6
I0403 13:11:34.270617 10467 net.cpp:91] Creating Layer relu6
I0403 13:11:34.270633 10467 net.cpp:425] relu6 <- fc6
I0403 13:11:34.270653 10467 net.cpp:386] relu6 -> fc6 (in-place)
I0403 13:11:34.270869 10467 net.cpp:141] Setting up relu6
I0403 13:11:34.270895 10467 net.cpp:148] Top shape: 100 4096 (409600)
I0403 13:11:34.270910 10467 net.cpp:156] Memory required for data: 824972400
I0403 13:11:34.270923 10467 layer_factory.hpp:77] Creating layer drop6
I0403 13:11:34.270944 10467 net.cpp:91] Creating Layer drop6
I0403 13:11:34.270961 10467 net.cpp:425] drop6 <- fc6
I0403 13:11:34.270977 10467 net.cpp:386] drop6 -> fc6 (in-place)
I0403 13:11:34.271028 10467 net.cpp:141] Setting up drop6
I0403 13:11:34.271049 10467 net.cpp:148] Top shape: 100 4096 (409600)
I0403 13:11:34.271064 10467 net.cpp:156] Memory required for data: 826610800
I0403 13:11:34.271077 10467 layer_factory.hpp:77] Creating layer fc7
I0403 13:11:34.271100 10467 net.cpp:91] Creating Layer fc7
I0403 13:11:34.271116 10467 net.cpp:425] fc7 <- fc6
I0403 13:11:34.271133 10467 net.cpp:399] fc7 -> fc7
I0403 13:11:34.955590 10467 net.cpp:141] Setting up fc7
I0403 13:11:34.955662 10467 net.cpp:148] Top shape: 100 4096 (409600)
I0403 13:11:34.955677 10467 net.cpp:156] Memory required for data: 828249200
I0403 13:11:34.955698 10467 layer_factory.hpp:77] Creating layer relu7
I0403 13:11:34.955724 10467 net.cpp:91] Creating Layer relu7
I0403 13:11:34.955740 10467 net.cpp:425] relu7 <- fc7
I0403 13:11:34.955759 10467 net.cpp:386] relu7 -> fc7 (in-place)
I0403 13:11:34.956162 10467 net.cpp:141] Setting up relu7
I0403 13:11:34.956187 10467 net.cpp:148] Top shape: 100 4096 (409600)
I0403 13:11:34.956254 10467 net.cpp:156] Memory required for data: 829887600
I0403 13:11:34.956270 10467 layer_factory.hpp:77] Creating layer drop7
I0403 13:11:34.956291 10467 net.cpp:91] Creating Layer drop7
I0403 13:11:34.956308 10467 net.cpp:425] drop7 <- fc7
I0403 13:11:34.956324 10467 net.cpp:386] drop7 -> fc7 (in-place)
I0403 13:11:34.956369 10467 net.cpp:141] Setting up drop7
I0403 13:11:34.956392 10467 net.cpp:148] Top shape: 100 4096 (409600)
I0403 13:11:34.956405 10467 net.cpp:156] Memory required for data: 831526000
I0403 13:11:34.956420 10467 layer_factory.hpp:77] Creating layer fc8_plantvillage
I0403 13:11:34.956439 10467 net.cpp:91] Creating Layer fc8_plantvillage
I0403 13:11:34.956454 10467 net.cpp:425] fc8_plantvillage <- fc7
I0403 13:11:34.956473 10467 net.cpp:399] fc8_plantvillage -> fc8_plantvillage
I0403 13:11:34.963227 10467 net.cpp:141] Setting up fc8_plantvillage
I0403 13:11:34.963258 10467 net.cpp:148] Top shape: 100 38 (3800)
I0403 13:11:34.963274 10467 net.cpp:156] Memory required for data: 831541200
I0403 13:11:34.963291 10467 layer_factory.hpp:77] Creating layer fc8_plantvillage_fc8_plantvillage_0_split
I0403 13:11:34.963310 10467 net.cpp:91] Creating Layer fc8_plantvillage_fc8_plantvillage_0_split
I0403 13:11:34.963325 10467 net.cpp:425] fc8_plantvillage_fc8_plantvillage_0_split <- fc8_plantvillage
I0403 13:11:34.963340 10467 net.cpp:399] fc8_plantvillage_fc8_plantvillage_0_split -> fc8_plantvillage_fc8_plantvillage_0_split_0
I0403 13:11:34.963359 10467 net.cpp:399] fc8_plantvillage_fc8_plantvillage_0_split -> fc8_plantvillage_fc8_plantvillage_0_split_1
I0403 13:11:34.963378 10467 net.cpp:399] fc8_plantvillage_fc8_plantvillage_0_split -> fc8_plantvillage_fc8_plantvillage_0_split_2
I0403 13:11:34.963455 10467 net.cpp:141] Setting up fc8_plantvillage_fc8_plantvillage_0_split
I0403 13:11:34.963479 10467 net.cpp:148] Top shape: 100 38 (3800)
I0403 13:11:34.963495 10467 net.cpp:148] Top shape: 100 38 (3800)
I0403 13:11:34.963510 10467 net.cpp:148] Top shape: 100 38 (3800)
I0403 13:11:34.963523 10467 net.cpp:156] Memory required for data: 831586800
I0403 13:11:34.963536 10467 layer_factory.hpp:77] Creating layer prob
I0403 13:11:34.963554 10467 net.cpp:91] Creating Layer prob
I0403 13:11:34.963573 10467 net.cpp:425] prob <- fc8_plantvillage_fc8_plantvillage_0_split_0
I0403 13:11:34.963593 10467 net.cpp:399] prob -> prob
I0403 13:11:34.963819 10467 net.cpp:141] Setting up prob
I0403 13:11:34.963845 10467 net.cpp:148] Top shape: 100 38 (3800)
I0403 13:11:34.963858 10467 net.cpp:156] Memory required for data: 831602000
I0403 13:11:34.963874 10467 layer_factory.hpp:77] Creating layer hdf5out
I0403 13:11:34.963896 10467 net.cpp:91] Creating Layer hdf5out
I0403 13:11:34.963912 10467 net.cpp:425] hdf5out <- prob
I0403 13:11:34.963928 10467 net.cpp:425] hdf5out <- label_data_1_split_0
I0403 13:11:34.966297 10467 net.cpp:141] Setting up hdf5out
…
