…
I0403 13:15:20.750277 10604 net.cpp:313] The NetState phase (1) differed from the phase (0) specified by a rule in layer data
I0403 13:15:20.750550 10604 net.cpp:49] Initializing net from parameters: 
state {
  phase: TEST
}
layer {
  name: "data"
  type: "Data"
  top: "data"
  top: "label"
  include {
    phase: TEST
  }
  transform_param {
    crop_size: 227
    mean_file: "/home/mohanty/data/final_dataset/lmdb/color-80-20/mean.binaryproto"
  }
  data_param {
    source: "/home/mohanty/data/final_dataset/lmdb/color-80-20/test_db"
    batch_size: 100
    backend: LMDB
  }
}
layer {
  name: "conv1"
  type: "Convolution"
  bottom: "data"
  top: "conv1"
  param {
    lr_mult: 1
    decay_mult: 1
  }
  param {
    lr_mult: 2
    decay_mult: 0
  }
  convolution_param {
    num_output: 96
    kernel_size: 11
    stride: 4
    weight_filler {
      type: "gaussian"
      std: 0.01
    }
    bias_filler {
      type: "constant"
      value: 0
    }
  }
}
layer {
  name: "relu1"
  type: "ReLU"
  bottom: "conv1"
  top: "conv1"
}
layer {
  name: "norm1"
  type: "LRN"
  bottom: "conv1"
  top: "norm1"
  lrn_param {
    local_size: 5
    alpha: 0.0001
    beta: 0.75
  }
}
layer {
  name: "pool1"
  type: "Pooling"
  bottom: "norm1"
  top: "pool1"
  pooling_param {
    pool: MAX
    kernel_size: 3
    stride: 2
  }
}
layer {
  name: "conv2"
  type: "Convolution"
  bottom: "pool1"
  top: "conv2"
  param {
    lr_mult: 1
    decay_mult: 1
  }
  param {
    lr_mult: 2
    decay_mult: 0
  }
  convolution_param {
    num_output: 256
    pad: 2
    kernel_size: 5
    group: 2
    weight_filler {
      type: "gaussian"
      std: 0.01
    }
    bias_filler {
      type: "constant"
      value: 0.1
    }
  }
}
layer {
  name: "relu2"
  type: "ReLU"
  bottom: "conv2"
  top: "conv2"
}
layer {
  name: "norm2"
  type: "LRN"
  bottom: "conv2"
  top: "norm2"
  lrn_param {
    local_size: 5
    alpha: 0.0001
    beta: 0.75
  }
}
layer {
  name: "pool2"
  type: "Pooling"
  bottom: "norm2"
  top: "pool2"
  pooling_param {
    pool: MAX
    kernel_size: 3
    stride: 2
  }
}
layer {
  name: "conv3"
  type: "Convolution"
  bottom: "pool2"
  top: "conv3"
  param {
    lr_mult: 1
    decay_mult: 1
  }
  param {
    lr_mult: 2
    decay_mult: 0
  }
  convolution_param {
    num_output: 384
    pad: 1
    kernel_size: 3
    weight_filler {
      type: "gaussian"
      std: 0.01
    }
    bias_filler {
      type: "constant"
      value: 0
    }
  }
}
layer {
  name: "relu3"
  type: "ReLU"
  bottom: "conv3"
  top: "conv3"
}
layer {
  name: "conv4"
  type: "Convolution"
  bottom: "conv3"
  top: "conv4"
  param {
    lr_mult: 1
    decay_mult: 1
  }
  param {
    lr_mult: 2
    decay_mult: 0
  }
  convolution_param {
    num_output: 384
    pad: 1
    kernel_size: 3
    group: 2
    weight_filler {
      type: "gaussian"
      std: 0.01
    }
    bias_filler {
      type: "constant"
      value: 0.1
    }
  }
}
layer {
  name: "relu4"
  type: "ReLU"
  bottom: "conv4"
  top: "conv4"
}
layer {
  name: "conv5"
  type: "Convolution"
  bottom: "conv4"
  top: "conv5"
  param {
    lr_mult: 1
    decay_mult: 1
  }
  param {
    lr_mult: 2
    decay_mult: 0
  }
  convolution_param {
    num_output: 256
    pad: 1
    kernel_size: 3
    group: 2
    weight_filler {
      type: "gaussian"
      std: 0.01
    }
    bias_filler {
      type: "constant"
      value: 0.1
    }
  }
}
layer {
  name: "relu5"
  type: "ReLU"
  bottom: "conv5"
  top: "conv5"
}
layer {
  name: "pool5"
  type: "Pooling"
  bottom: "conv5"
  top: "pool5"
  pooling_param {
    pool: MAX
    kernel_size: 3
    stride: 2
  }
}
layer {
  name: "fc6"
  type: "InnerProduct"
  bottom: "pool5"
  top: "fc6"
  param {
    lr_mult: 1
    decay_mult: 1
  }
  param {
    lr_mult: 2
    decay_mult: 0
  }
  inner_product_param {
    num_output: 4096
    weight_filler {
      type: "gaussian"
      std: 0.005
    }
    bias_filler {
      type: "constant"
      value: 0.1
    }
  }
}
layer {
  name: "relu6"
  type: "ReLU"
  bottom: "fc6"
  top: "fc6"
}
layer {
  name: "drop6"
  type: "Dropout"
  bottom: "fc6"
  top: "fc6"
  dropout_param {
    dropout_ratio: 0.5
  }
}
layer {
  name: "fc7"
  type: "InnerProduct"
  bottom: "fc6"
  top: "fc7"
  param {
    lr_mult: 1
    decay_mult: 1
  }
  param {
    lr_mult: 2
    decay_mult: 0
  }
  inner_product_param {
    num_output: 4096
    weight_filler {
      type: "gaussian"
      std: 0.005
    }
    bias_filler {
      type: "constant"
      value: 0.1
    }
  }
}
layer {
  name: "relu7"
  type: "ReLU"
  bottom: "fc7"
  top: "fc7"
}
layer {
  name: "drop7"
  type: "Dropout"
  bottom: "fc7"
  top: "fc7"
  dropout_param {
    dropout_ratio: 0.5
  }
}
layer {
  name: "fc8_plantvillage"
  type: "InnerProduct"
  bottom: "fc7"
  top: "fc8_plantvillage"
  param {
    lr_mult: 1
    decay_mult: 1
  }
  param {
    lr_mult: 2
    decay_mult: 0
  }
  inner_product_param {
    num_output: 38
    weight_filler {
      type: "gaussian"
      std: 0.01
    }
    bias_filler {
      type: "constant"
      value: 0
    }
  }
}
layer {
  name: "prob"
  type: "Softmax"
  bottom: "fc8_plantvillage"
  top: "prob"
  include {
    phase: TEST
  }
}
layer {
  name: "hdf5out"
  type: "HDF5Output"
  bottom: "prob"
  bottom: "label"
  include {
    phase: TEST
  }
  hdf5_output_param {
    file_name: "hdf5_dumps/iter_6555.h5"
  }
}
layer {
  name: "loss"
  type: "SoftmaxWithLoss"
  bottom: "fc8_plantvillage"
  bottom: "label"
  top: "loss"
}
layer {
  name: "accuracy"
  type: "Accuracy"
  bottom: "fc8_plantvillage"
  bottom: "label"
  top: "accuracy"
  include {
    phase: TEST
  }
}
I0403 13:15:20.751157 10604 layer_factory.hpp:77] Creating layer data
I0403 13:15:20.751786 10604 net.cpp:91] Creating Layer data
I0403 13:15:20.751834 10604 net.cpp:399] data -> data
I0403 13:15:20.751886 10604 net.cpp:399] data -> label
I0403 13:15:20.751924 10604 data_transformer.cpp:25] Loading mean file from: /home/mohanty/data/final_dataset/lmdb/color-80-20/mean.binaryproto
I0403 13:15:20.755012 10608 db_lmdb.cpp:38] Opened lmdb /home/mohanty/data/final_dataset/lmdb/color-80-20/test_db
I0403 13:15:20.766264 10604 data_layer.cpp:41] output data size: 100,3,227,227
I0403 13:15:20.885318 10604 net.cpp:141] Setting up data
I0403 13:15:20.885412 10604 net.cpp:148] Top shape: 100 3 227 227 (15458700)
I0403 13:15:20.885434 10604 net.cpp:148] Top shape: 100 (100)
I0403 13:15:20.885449 10604 net.cpp:156] Memory required for data: 61835200
I0403 13:15:20.885478 10604 layer_factory.hpp:77] Creating layer label_data_1_split
I0403 13:15:20.885504 10604 net.cpp:91] Creating Layer label_data_1_split
I0403 13:15:20.885521 10604 net.cpp:425] label_data_1_split <- label
I0403 13:15:20.885553 10604 net.cpp:399] label_data_1_split -> label_data_1_split_0
I0403 13:15:20.885584 10604 net.cpp:399] label_data_1_split -> label_data_1_split_1
I0403 13:15:20.885607 10604 net.cpp:399] label_data_1_split -> label_data_1_split_2
I0403 13:15:20.885671 10604 net.cpp:141] Setting up label_data_1_split
I0403 13:15:20.885695 10604 net.cpp:148] Top shape: 100 (100)
I0403 13:15:20.885712 10604 net.cpp:148] Top shape: 100 (100)
I0403 13:15:20.885727 10604 net.cpp:148] Top shape: 100 (100)
I0403 13:15:20.885742 10604 net.cpp:156] Memory required for data: 61836400
I0403 13:15:20.885757 10604 layer_factory.hpp:77] Creating layer conv1
I0403 13:15:20.885788 10604 net.cpp:91] Creating Layer conv1
I0403 13:15:20.885807 10604 net.cpp:425] conv1 <- data
I0403 13:15:20.885825 10604 net.cpp:399] conv1 -> conv1
I0403 13:15:21.030537 10604 net.cpp:141] Setting up conv1
I0403 13:15:21.030618 10604 net.cpp:148] Top shape: 100 96 55 55 (29040000)
I0403 13:15:21.030637 10604 net.cpp:156] Memory required for data: 177996400
I0403 13:15:21.030669 10604 layer_factory.hpp:77] Creating layer relu1
I0403 13:15:21.030696 10604 net.cpp:91] Creating Layer relu1
I0403 13:15:21.030714 10604 net.cpp:425] relu1 <- conv1
I0403 13:15:21.030733 10604 net.cpp:386] relu1 -> conv1 (in-place)
I0403 13:15:21.030993 10604 net.cpp:141] Setting up relu1
I0403 13:15:21.031020 10604 net.cpp:148] Top shape: 100 96 55 55 (29040000)
I0403 13:15:21.031038 10604 net.cpp:156] Memory required for data: 294156400
I0403 13:15:21.031088 10604 layer_factory.hpp:77] Creating layer norm1
I0403 13:15:21.031117 10604 net.cpp:91] Creating Layer norm1
I0403 13:15:21.031136 10604 net.cpp:425] norm1 <- conv1
I0403 13:15:21.031154 10604 net.cpp:399] norm1 -> norm1
I0403 13:15:21.031510 10604 net.cpp:141] Setting up norm1
I0403 13:15:21.031539 10604 net.cpp:148] Top shape: 100 96 55 55 (29040000)
I0403 13:15:21.031555 10604 net.cpp:156] Memory required for data: 410316400
I0403 13:15:21.031571 10604 layer_factory.hpp:77] Creating layer pool1
I0403 13:15:21.031594 10604 net.cpp:91] Creating Layer pool1
I0403 13:15:21.031616 10604 net.cpp:425] pool1 <- norm1
I0403 13:15:21.031635 10604 net.cpp:399] pool1 -> pool1
I0403 13:15:21.031703 10604 net.cpp:141] Setting up pool1
I0403 13:15:21.031728 10604 net.cpp:148] Top shape: 100 96 27 27 (6998400)
I0403 13:15:21.031744 10604 net.cpp:156] Memory required for data: 438310000
I0403 13:15:21.031759 10604 layer_factory.hpp:77] Creating layer conv2
I0403 13:15:21.031782 10604 net.cpp:91] Creating Layer conv2
I0403 13:15:21.031800 10604 net.cpp:425] conv2 <- pool1
I0403 13:15:21.031817 10604 net.cpp:399] conv2 -> conv2
I0403 13:15:21.047016 10604 net.cpp:141] Setting up conv2
I0403 13:15:21.047065 10604 net.cpp:148] Top shape: 100 256 27 27 (18662400)
I0403 13:15:21.047081 10604 net.cpp:156] Memory required for data: 512959600
I0403 13:15:21.047104 10604 layer_factory.hpp:77] Creating layer relu2
I0403 13:15:21.047127 10604 net.cpp:91] Creating Layer relu2
I0403 13:15:21.047144 10604 net.cpp:425] relu2 <- conv2
I0403 13:15:21.047163 10604 net.cpp:386] relu2 -> conv2 (in-place)
I0403 13:15:21.047448 10604 net.cpp:141] Setting up relu2
I0403 13:15:21.047475 10604 net.cpp:148] Top shape: 100 256 27 27 (18662400)
I0403 13:15:21.047492 10604 net.cpp:156] Memory required for data: 587609200
I0403 13:15:21.047508 10604 layer_factory.hpp:77] Creating layer norm2
I0403 13:15:21.047530 10604 net.cpp:91] Creating Layer norm2
I0403 13:15:21.047547 10604 net.cpp:425] norm2 <- conv2
I0403 13:15:21.047569 10604 net.cpp:399] norm2 -> norm2
I0403 13:15:21.047775 10604 net.cpp:141] Setting up norm2
I0403 13:15:21.047802 10604 net.cpp:148] Top shape: 100 256 27 27 (18662400)
I0403 13:15:21.047818 10604 net.cpp:156] Memory required for data: 662258800
I0403 13:15:21.047834 10604 layer_factory.hpp:77] Creating layer pool2
I0403 13:15:21.047855 10604 net.cpp:91] Creating Layer pool2
I0403 13:15:21.047873 10604 net.cpp:425] pool2 <- norm2
I0403 13:15:21.047890 10604 net.cpp:399] pool2 -> pool2
I0403 13:15:21.047943 10604 net.cpp:141] Setting up pool2
I0403 13:15:21.047967 10604 net.cpp:148] Top shape: 100 256 13 13 (4326400)
I0403 13:15:21.047982 10604 net.cpp:156] Memory required for data: 679564400
I0403 13:15:21.047997 10604 layer_factory.hpp:77] Creating layer conv3
I0403 13:15:21.048022 10604 net.cpp:91] Creating Layer conv3
I0403 13:15:21.048039 10604 net.cpp:425] conv3 <- pool2
I0403 13:15:21.048060 10604 net.cpp:399] conv3 -> conv3
I0403 13:15:21.090078 10604 net.cpp:141] Setting up conv3
I0403 13:15:21.090152 10604 net.cpp:148] Top shape: 100 384 13 13 (6489600)
I0403 13:15:21.090168 10604 net.cpp:156] Memory required for data: 705522800
I0403 13:15:21.090194 10604 layer_factory.hpp:77] Creating layer relu3
I0403 13:15:21.090220 10604 net.cpp:91] Creating Layer relu3
I0403 13:15:21.090239 10604 net.cpp:425] relu3 <- conv3
I0403 13:15:21.090257 10604 net.cpp:386] relu3 -> conv3 (in-place)
I0403 13:15:21.090540 10604 net.cpp:141] Setting up relu3
I0403 13:15:21.090569 10604 net.cpp:148] Top shape: 100 384 13 13 (6489600)
I0403 13:15:21.090584 10604 net.cpp:156] Memory required for data: 731481200
I0403 13:15:21.090602 10604 layer_factory.hpp:77] Creating layer conv4
I0403 13:15:21.090631 10604 net.cpp:91] Creating Layer conv4
I0403 13:15:21.090648 10604 net.cpp:425] conv4 <- conv3
I0403 13:15:21.090669 10604 net.cpp:399] conv4 -> conv4
I0403 13:15:21.120949 10604 net.cpp:141] Setting up conv4
I0403 13:15:21.121000 10604 net.cpp:148] Top shape: 100 384 13 13 (6489600)
I0403 13:15:21.121054 10604 net.cpp:156] Memory required for data: 757439600
I0403 13:15:21.121078 10604 layer_factory.hpp:77] Creating layer relu4
I0403 13:15:21.121099 10604 net.cpp:91] Creating Layer relu4
I0403 13:15:21.121115 10604 net.cpp:425] relu4 <- conv4
I0403 13:15:21.121137 10604 net.cpp:386] relu4 -> conv4 (in-place)
I0403 13:15:21.121431 10604 net.cpp:141] Setting up relu4
I0403 13:15:21.121459 10604 net.cpp:148] Top shape: 100 384 13 13 (6489600)
I0403 13:15:21.121475 10604 net.cpp:156] Memory required for data: 783398000
I0403 13:15:21.121490 10604 layer_factory.hpp:77] Creating layer conv5
I0403 13:15:21.121518 10604 net.cpp:91] Creating Layer conv5
I0403 13:15:21.121537 10604 net.cpp:425] conv5 <- conv4
I0403 13:15:21.121558 10604 net.cpp:399] conv5 -> conv5
I0403 13:15:21.142279 10604 net.cpp:141] Setting up conv5
I0403 13:15:21.142333 10604 net.cpp:148] Top shape: 100 256 13 13 (4326400)
I0403 13:15:21.142349 10604 net.cpp:156] Memory required for data: 800703600
I0403 13:15:21.142374 10604 layer_factory.hpp:77] Creating layer relu5
I0403 13:15:21.142398 10604 net.cpp:91] Creating Layer relu5
I0403 13:15:21.142416 10604 net.cpp:425] relu5 <- conv5
I0403 13:15:21.142434 10604 net.cpp:386] relu5 -> conv5 (in-place)
I0403 13:15:21.142732 10604 net.cpp:141] Setting up relu5
I0403 13:15:21.142760 10604 net.cpp:148] Top shape: 100 256 13 13 (4326400)
I0403 13:15:21.142776 10604 net.cpp:156] Memory required for data: 818009200
I0403 13:15:21.142791 10604 layer_factory.hpp:77] Creating layer pool5
I0403 13:15:21.142815 10604 net.cpp:91] Creating Layer pool5
I0403 13:15:21.142833 10604 net.cpp:425] pool5 <- conv5
I0403 13:15:21.142851 10604 net.cpp:399] pool5 -> pool5
I0403 13:15:21.142925 10604 net.cpp:141] Setting up pool5
I0403 13:15:21.142947 10604 net.cpp:148] Top shape: 100 256 6 6 (921600)
I0403 13:15:21.142962 10604 net.cpp:156] Memory required for data: 821695600
I0403 13:15:21.142976 10604 layer_factory.hpp:77] Creating layer fc6
I0403 13:15:21.143005 10604 net.cpp:91] Creating Layer fc6
I0403 13:15:21.143023 10604 net.cpp:425] fc6 <- pool5
I0403 13:15:21.143041 10604 net.cpp:399] fc6 -> fc6
I0403 13:15:22.699897 10604 net.cpp:141] Setting up fc6
I0403 13:15:22.699973 10604 net.cpp:148] Top shape: 100 4096 (409600)
I0403 13:15:22.699990 10604 net.cpp:156] Memory required for data: 823334000
I0403 13:15:22.700012 10604 layer_factory.hpp:77] Creating layer relu6
I0403 13:15:22.700036 10604 net.cpp:91] Creating Layer relu6
I0403 13:15:22.700052 10604 net.cpp:425] relu6 <- fc6
I0403 13:15:22.700073 10604 net.cpp:386] relu6 -> fc6 (in-place)
I0403 13:15:22.700300 10604 net.cpp:141] Setting up relu6
I0403 13:15:22.700325 10604 net.cpp:148] Top shape: 100 4096 (409600)
I0403 13:15:22.700340 10604 net.cpp:156] Memory required for data: 824972400
I0403 13:15:22.700355 10604 layer_factory.hpp:77] Creating layer drop6
I0403 13:15:22.700374 10604 net.cpp:91] Creating Layer drop6
I0403 13:15:22.700390 10604 net.cpp:425] drop6 <- fc6
I0403 13:15:22.700407 10604 net.cpp:386] drop6 -> fc6 (in-place)
I0403 13:15:22.700458 10604 net.cpp:141] Setting up drop6
I0403 13:15:22.700484 10604 net.cpp:148] Top shape: 100 4096 (409600)
I0403 13:15:22.700500 10604 net.cpp:156] Memory required for data: 826610800
I0403 13:15:22.700515 10604 layer_factory.hpp:77] Creating layer fc7
I0403 13:15:22.700533 10604 net.cpp:91] Creating Layer fc7
I0403 13:15:22.700549 10604 net.cpp:425] fc7 <- fc6
I0403 13:15:22.700568 10604 net.cpp:399] fc7 -> fc7
I0403 13:15:23.385291 10604 net.cpp:141] Setting up fc7
I0403 13:15:23.385370 10604 net.cpp:148] Top shape: 100 4096 (409600)
I0403 13:15:23.385386 10604 net.cpp:156] Memory required for data: 828249200
I0403 13:15:23.385407 10604 layer_factory.hpp:77] Creating layer relu7
I0403 13:15:23.385429 10604 net.cpp:91] Creating Layer relu7
I0403 13:15:23.385445 10604 net.cpp:425] relu7 <- fc7
I0403 13:15:23.385468 10604 net.cpp:386] relu7 -> fc7 (in-place)
I0403 13:15:23.385895 10604 net.cpp:141] Setting up relu7
I0403 13:15:23.385923 10604 net.cpp:148] Top shape: 100 4096 (409600)
I0403 13:15:23.385978 10604 net.cpp:156] Memory required for data: 829887600
I0403 13:15:23.385995 10604 layer_factory.hpp:77] Creating layer drop7
I0403 13:15:23.386014 10604 net.cpp:91] Creating Layer drop7
I0403 13:15:23.386029 10604 net.cpp:425] drop7 <- fc7
I0403 13:15:23.386049 10604 net.cpp:386] drop7 -> fc7 (in-place)
I0403 13:15:23.386093 10604 net.cpp:141] Setting up drop7
I0403 13:15:23.386119 10604 net.cpp:148] Top shape: 100 4096 (409600)
I0403 13:15:23.386133 10604 net.cpp:156] Memory required for data: 831526000
I0403 13:15:23.386147 10604 layer_factory.hpp:77] Creating layer fc8_plantvillage
I0403 13:15:23.386167 10604 net.cpp:91] Creating Layer fc8_plantvillage
I0403 13:15:23.386183 10604 net.cpp:425] fc8_plantvillage <- fc7
I0403 13:15:23.386201 10604 net.cpp:399] fc8_plantvillage -> fc8_plantvillage
I0403 13:15:23.392933 10604 net.cpp:141] Setting up fc8_plantvillage
I0403 13:15:23.392961 10604 net.cpp:148] Top shape: 100 38 (3800)
I0403 13:15:23.392976 10604 net.cpp:156] Memory required for data: 831541200
I0403 13:15:23.392994 10604 layer_factory.hpp:77] Creating layer fc8_plantvillage_fc8_plantvillage_0_split
I0403 13:15:23.393015 10604 net.cpp:91] Creating Layer fc8_plantvillage_fc8_plantvillage_0_split
I0403 13:15:23.393031 10604 net.cpp:425] fc8_plantvillage_fc8_plantvillage_0_split <- fc8_plantvillage
I0403 13:15:23.393049 10604 net.cpp:399] fc8_plantvillage_fc8_plantvillage_0_split -> fc8_plantvillage_fc8_plantvillage_0_split_0
I0403 13:15:23.393069 10604 net.cpp:399] fc8_plantvillage_fc8_plantvillage_0_split -> fc8_plantvillage_fc8_plantvillage_0_split_1
I0403 13:15:23.393087 10604 net.cpp:399] fc8_plantvillage_fc8_plantvillage_0_split -> fc8_plantvillage_fc8_plantvillage_0_split_2
I0403 13:15:23.393167 10604 net.cpp:141] Setting up fc8_plantvillage_fc8_plantvillage_0_split
I0403 13:15:23.393190 10604 net.cpp:148] Top shape: 100 38 (3800)
I0403 13:15:23.393206 10604 net.cpp:148] Top shape: 100 38 (3800)
I0403 13:15:23.393221 10604 net.cpp:148] Top shape: 100 38 (3800)
I0403 13:15:23.393234 10604 net.cpp:156] Memory required for data: 831586800
I0403 13:15:23.393249 10604 layer_factory.hpp:77] Creating layer prob
I0403 13:15:23.393267 10604 net.cpp:91] Creating Layer prob
I0403 13:15:23.393282 10604 net.cpp:425] prob <- fc8_plantvillage_fc8_plantvillage_0_split_0
I0403 13:15:23.393301 10604 net.cpp:399] prob -> prob
I0403 13:15:23.393524 10604 net.cpp:141] Setting up prob
I0403 13:15:23.393550 10604 net.cpp:148] Top shape: 100 38 (3800)
I0403 13:15:23.393565 10604 net.cpp:156] Memory required for data: 831602000
I0403 13:15:23.393579 10604 layer_factory.hpp:77] Creating layer hdf5out
I0403 13:15:23.393602 10604 net.cpp:91] Creating Layer hdf5out
I0403 13:15:23.393620 10604 net.cpp:425] hdf5out <- prob
I0403 13:15:23.393636 10604 net.cpp:425] hdf5out <- label_data_1_split_0
I0403 13:15:23.395840 10604 net.cpp:141] Setting up hdf5out
…
