…
I0403 13:20:24.134029 10910 net.cpp:313] The NetState phase (1) differed from the phase (0) specified by a rule in layer data
I0403 13:20:24.134326 10910 net.cpp:49] Initializing net from parameters: 
state {
  phase: TEST
}
layer {
  name: "data"
  type: "Data"
  top: "data"
  top: "label"
  include {
    phase: TEST
  }
  transform_param {
    crop_size: 227
    mean_file: "/home/mohanty/data/final_dataset/lmdb/color-80-20/mean.binaryproto"
  }
  data_param {
    source: "/home/mohanty/data/final_dataset/lmdb/color-80-20/test_db"
    batch_size: 100
    backend: LMDB
  }
}
layer {
  name: "conv1"
  type: "Convolution"
  bottom: "data"
  top: "conv1"
  param {
    lr_mult: 1
    decay_mult: 1
  }
  param {
    lr_mult: 2
    decay_mult: 0
  }
  convolution_param {
    num_output: 96
    kernel_size: 11
    stride: 4
    weight_filler {
      type: "gaussian"
      std: 0.01
    }
    bias_filler {
      type: "constant"
      value: 0
    }
  }
}
layer {
  name: "relu1"
  type: "ReLU"
  bottom: "conv1"
  top: "conv1"
}
layer {
  name: "norm1"
  type: "LRN"
  bottom: "conv1"
  top: "norm1"
  lrn_param {
    local_size: 5
    alpha: 0.0001
    beta: 0.75
  }
}
layer {
  name: "pool1"
  type: "Pooling"
  bottom: "norm1"
  top: "pool1"
  pooling_param {
    pool: MAX
    kernel_size: 3
    stride: 2
  }
}
layer {
  name: "conv2"
  type: "Convolution"
  bottom: "pool1"
  top: "conv2"
  param {
    lr_mult: 1
    decay_mult: 1
  }
  param {
    lr_mult: 2
    decay_mult: 0
  }
  convolution_param {
    num_output: 256
    pad: 2
    kernel_size: 5
    group: 2
    weight_filler {
      type: "gaussian"
      std: 0.01
    }
    bias_filler {
      type: "constant"
      value: 0.1
    }
  }
}
layer {
  name: "relu2"
  type: "ReLU"
  bottom: "conv2"
  top: "conv2"
}
layer {
  name: "norm2"
  type: "LRN"
  bottom: "conv2"
  top: "norm2"
  lrn_param {
    local_size: 5
    alpha: 0.0001
    beta: 0.75
  }
}
layer {
  name: "pool2"
  type: "Pooling"
  bottom: "norm2"
  top: "pool2"
  pooling_param {
    pool: MAX
    kernel_size: 3
    stride: 2
  }
}
layer {
  name: "conv3"
  type: "Convolution"
  bottom: "pool2"
  top: "conv3"
  param {
    lr_mult: 1
    decay_mult: 1
  }
  param {
    lr_mult: 2
    decay_mult: 0
  }
  convolution_param {
    num_output: 384
    pad: 1
    kernel_size: 3
    weight_filler {
      type: "gaussian"
      std: 0.01
    }
    bias_filler {
      type: "constant"
      value: 0
    }
  }
}
layer {
  name: "relu3"
  type: "ReLU"
  bottom: "conv3"
  top: "conv3"
}
layer {
  name: "conv4"
  type: "Convolution"
  bottom: "conv3"
  top: "conv4"
  param {
    lr_mult: 1
    decay_mult: 1
  }
  param {
    lr_mult: 2
    decay_mult: 0
  }
  convolution_param {
    num_output: 384
    pad: 1
    kernel_size: 3
    group: 2
    weight_filler {
      type: "gaussian"
      std: 0.01
    }
    bias_filler {
      type: "constant"
      value: 0.1
    }
  }
}
layer {
  name: "relu4"
  type: "ReLU"
  bottom: "conv4"
  top: "conv4"
}
layer {
  name: "conv5"
  type: "Convolution"
  bottom: "conv4"
  top: "conv5"
  param {
    lr_mult: 1
    decay_mult: 1
  }
  param {
    lr_mult: 2
    decay_mult: 0
  }
  convolution_param {
    num_output: 256
    pad: 1
    kernel_size: 3
    group: 2
    weight_filler {
      type: "gaussian"
      std: 0.01
    }
    bias_filler {
      type: "constant"
      value: 0.1
    }
  }
}
layer {
  name: "relu5"
  type: "ReLU"
  bottom: "conv5"
  top: "conv5"
}
layer {
  name: "pool5"
  type: "Pooling"
  bottom: "conv5"
  top: "pool5"
  pooling_param {
    pool: MAX
    kernel_size: 3
    stride: 2
  }
}
layer {
  name: "fc6"
  type: "InnerProduct"
  bottom: "pool5"
  top: "fc6"
  param {
    lr_mult: 1
    decay_mult: 1
  }
  param {
    lr_mult: 2
    decay_mult: 0
  }
  inner_product_param {
    num_output: 4096
    weight_filler {
      type: "gaussian"
      std: 0.005
    }
    bias_filler {
      type: "constant"
      value: 0.1
    }
  }
}
layer {
  name: "relu6"
  type: "ReLU"
  bottom: "fc6"
  top: "fc6"
}
layer {
  name: "drop6"
  type: "Dropout"
  bottom: "fc6"
  top: "fc6"
  dropout_param {
    dropout_ratio: 0.5
  }
}
layer {
  name: "fc7"
  type: "InnerProduct"
  bottom: "fc6"
  top: "fc7"
  param {
    lr_mult: 1
    decay_mult: 1
  }
  param {
    lr_mult: 2
    decay_mult: 0
  }
  inner_product_param {
    num_output: 4096
    weight_filler {
      type: "gaussian"
      std: 0.005
    }
    bias_filler {
      type: "constant"
      value: 0.1
    }
  }
}
layer {
  name: "relu7"
  type: "ReLU"
  bottom: "fc7"
  top: "fc7"
}
layer {
  name: "drop7"
  type: "Dropout"
  bottom: "fc7"
  top: "fc7"
  dropout_param {
    dropout_ratio: 0.5
  }
}
layer {
  name: "fc8_plantvillage"
  type: "InnerProduct"
  bottom: "fc7"
  top: "fc8_plantvillage"
  param {
    lr_mult: 1
    decay_mult: 1
  }
  param {
    lr_mult: 2
    decay_mult: 0
  }
  inner_product_param {
    num_output: 38
    weight_filler {
      type: "gaussian"
      std: 0.01
    }
    bias_filler {
      type: "constant"
      value: 0
    }
  }
}
layer {
  name: "prob"
  type: "Softmax"
  bottom: "fc8_plantvillage"
  top: "prob"
  include {
    phase: TEST
  }
}
layer {
  name: "hdf5out"
  type: "HDF5Output"
  bottom: "prob"
  bottom: "label"
  include {
    phase: TEST
  }
  hdf5_output_param {
    file_name: "hdf5_dumps/iter_11799.h5"
  }
}
layer {
  name: "loss"
  type: "SoftmaxWithLoss"
  bottom: "fc8_plantvillage"
  bottom: "label"
  top: "loss"
}
layer {
  name: "accuracy"
  type: "Accuracy"
  bottom: "fc8_plantvillage"
  bottom: "label"
  top: "accuracy"
  include {
    phase: TEST
  }
}
I0403 13:20:24.134938 10910 layer_factory.hpp:77] Creating layer data
I0403 13:20:24.135596 10910 net.cpp:91] Creating Layer data
I0403 13:20:24.135630 10910 net.cpp:399] data -> data
I0403 13:20:24.135682 10910 net.cpp:399] data -> label
I0403 13:20:24.135720 10910 data_transformer.cpp:25] Loading mean file from: /home/mohanty/data/final_dataset/lmdb/color-80-20/mean.binaryproto
I0403 13:20:24.139230 10912 db_lmdb.cpp:38] Opened lmdb /home/mohanty/data/final_dataset/lmdb/color-80-20/test_db
I0403 13:20:24.150212 10910 data_layer.cpp:41] output data size: 100,3,227,227
I0403 13:20:24.269209 10910 net.cpp:141] Setting up data
I0403 13:20:24.269304 10910 net.cpp:148] Top shape: 100 3 227 227 (15458700)
I0403 13:20:24.269326 10910 net.cpp:148] Top shape: 100 (100)
I0403 13:20:24.269340 10910 net.cpp:156] Memory required for data: 61835200
I0403 13:20:24.269367 10910 layer_factory.hpp:77] Creating layer label_data_1_split
I0403 13:20:24.269392 10910 net.cpp:91] Creating Layer label_data_1_split
I0403 13:20:24.269410 10910 net.cpp:425] label_data_1_split <- label
I0403 13:20:24.269443 10910 net.cpp:399] label_data_1_split -> label_data_1_split_0
I0403 13:20:24.269469 10910 net.cpp:399] label_data_1_split -> label_data_1_split_1
I0403 13:20:24.269489 10910 net.cpp:399] label_data_1_split -> label_data_1_split_2
I0403 13:20:24.269551 10910 net.cpp:141] Setting up label_data_1_split
I0403 13:20:24.269577 10910 net.cpp:148] Top shape: 100 (100)
I0403 13:20:24.269594 10910 net.cpp:148] Top shape: 100 (100)
I0403 13:20:24.269610 10910 net.cpp:148] Top shape: 100 (100)
I0403 13:20:24.269623 10910 net.cpp:156] Memory required for data: 61836400
I0403 13:20:24.269637 10910 layer_factory.hpp:77] Creating layer conv1
I0403 13:20:24.269670 10910 net.cpp:91] Creating Layer conv1
I0403 13:20:24.269687 10910 net.cpp:425] conv1 <- data
I0403 13:20:24.269706 10910 net.cpp:399] conv1 -> conv1
I0403 13:20:24.413139 10910 net.cpp:141] Setting up conv1
I0403 13:20:24.413219 10910 net.cpp:148] Top shape: 100 96 55 55 (29040000)
I0403 13:20:24.413238 10910 net.cpp:156] Memory required for data: 177996400
I0403 13:20:24.413269 10910 layer_factory.hpp:77] Creating layer relu1
I0403 13:20:24.413298 10910 net.cpp:91] Creating Layer relu1
I0403 13:20:24.413317 10910 net.cpp:425] relu1 <- conv1
I0403 13:20:24.413339 10910 net.cpp:386] relu1 -> conv1 (in-place)
I0403 13:20:24.413632 10910 net.cpp:141] Setting up relu1
I0403 13:20:24.413661 10910 net.cpp:148] Top shape: 100 96 55 55 (29040000)
I0403 13:20:24.413677 10910 net.cpp:156] Memory required for data: 294156400
I0403 13:20:24.413727 10910 layer_factory.hpp:77] Creating layer norm1
I0403 13:20:24.413759 10910 net.cpp:91] Creating Layer norm1
I0403 13:20:24.413779 10910 net.cpp:425] norm1 <- conv1
I0403 13:20:24.413799 10910 net.cpp:399] norm1 -> norm1
I0403 13:20:24.414160 10910 net.cpp:141] Setting up norm1
I0403 13:20:24.414189 10910 net.cpp:148] Top shape: 100 96 55 55 (29040000)
I0403 13:20:24.414204 10910 net.cpp:156] Memory required for data: 410316400
I0403 13:20:24.414219 10910 layer_factory.hpp:77] Creating layer pool1
I0403 13:20:24.414244 10910 net.cpp:91] Creating Layer pool1
I0403 13:20:24.414263 10910 net.cpp:425] pool1 <- norm1
I0403 13:20:24.414283 10910 net.cpp:399] pool1 -> pool1
I0403 13:20:24.414356 10910 net.cpp:141] Setting up pool1
I0403 13:20:24.414381 10910 net.cpp:148] Top shape: 100 96 27 27 (6998400)
I0403 13:20:24.414396 10910 net.cpp:156] Memory required for data: 438310000
I0403 13:20:24.414410 10910 layer_factory.hpp:77] Creating layer conv2
I0403 13:20:24.414436 10910 net.cpp:91] Creating Layer conv2
I0403 13:20:24.414454 10910 net.cpp:425] conv2 <- pool1
I0403 13:20:24.414474 10910 net.cpp:399] conv2 -> conv2
I0403 13:20:24.430019 10910 net.cpp:141] Setting up conv2
I0403 13:20:24.430074 10910 net.cpp:148] Top shape: 100 256 27 27 (18662400)
I0403 13:20:24.430091 10910 net.cpp:156] Memory required for data: 512959600
I0403 13:20:24.430119 10910 layer_factory.hpp:77] Creating layer relu2
I0403 13:20:24.430140 10910 net.cpp:91] Creating Layer relu2
I0403 13:20:24.430157 10910 net.cpp:425] relu2 <- conv2
I0403 13:20:24.430176 10910 net.cpp:386] relu2 -> conv2 (in-place)
I0403 13:20:24.430481 10910 net.cpp:141] Setting up relu2
I0403 13:20:24.430511 10910 net.cpp:148] Top shape: 100 256 27 27 (18662400)
I0403 13:20:24.430536 10910 net.cpp:156] Memory required for data: 587609200
I0403 13:20:24.430552 10910 layer_factory.hpp:77] Creating layer norm2
I0403 13:20:24.430577 10910 net.cpp:91] Creating Layer norm2
I0403 13:20:24.430594 10910 net.cpp:425] norm2 <- conv2
I0403 13:20:24.430615 10910 net.cpp:399] norm2 -> norm2
I0403 13:20:24.430829 10910 net.cpp:141] Setting up norm2
I0403 13:20:24.430855 10910 net.cpp:148] Top shape: 100 256 27 27 (18662400)
I0403 13:20:24.430871 10910 net.cpp:156] Memory required for data: 662258800
I0403 13:20:24.430884 10910 layer_factory.hpp:77] Creating layer pool2
I0403 13:20:24.430904 10910 net.cpp:91] Creating Layer pool2
I0403 13:20:24.430922 10910 net.cpp:425] pool2 <- norm2
I0403 13:20:24.430938 10910 net.cpp:399] pool2 -> pool2
I0403 13:20:24.430995 10910 net.cpp:141] Setting up pool2
I0403 13:20:24.431020 10910 net.cpp:148] Top shape: 100 256 13 13 (4326400)
I0403 13:20:24.431035 10910 net.cpp:156] Memory required for data: 679564400
I0403 13:20:24.431049 10910 layer_factory.hpp:77] Creating layer conv3
I0403 13:20:24.431073 10910 net.cpp:91] Creating Layer conv3
I0403 13:20:24.431090 10910 net.cpp:425] conv3 <- pool2
I0403 13:20:24.431113 10910 net.cpp:399] conv3 -> conv3
I0403 13:20:24.476156 10910 net.cpp:141] Setting up conv3
I0403 13:20:24.476245 10910 net.cpp:148] Top shape: 100 384 13 13 (6489600)
I0403 13:20:24.476264 10910 net.cpp:156] Memory required for data: 705522800
I0403 13:20:24.476291 10910 layer_factory.hpp:77] Creating layer relu3
I0403 13:20:24.476317 10910 net.cpp:91] Creating Layer relu3
I0403 13:20:24.476337 10910 net.cpp:425] relu3 <- conv3
I0403 13:20:24.476356 10910 net.cpp:386] relu3 -> conv3 (in-place)
I0403 13:20:24.476660 10910 net.cpp:141] Setting up relu3
I0403 13:20:24.476687 10910 net.cpp:148] Top shape: 100 384 13 13 (6489600)
I0403 13:20:24.476702 10910 net.cpp:156] Memory required for data: 731481200
I0403 13:20:24.476717 10910 layer_factory.hpp:77] Creating layer conv4
I0403 13:20:24.476743 10910 net.cpp:91] Creating Layer conv4
I0403 13:20:24.476766 10910 net.cpp:425] conv4 <- conv3
I0403 13:20:24.476784 10910 net.cpp:399] conv4 -> conv4
I0403 13:20:24.507222 10910 net.cpp:141] Setting up conv4
I0403 13:20:24.507294 10910 net.cpp:148] Top shape: 100 384 13 13 (6489600)
I0403 13:20:24.507349 10910 net.cpp:156] Memory required for data: 757439600
I0403 13:20:24.507370 10910 layer_factory.hpp:77] Creating layer relu4
I0403 13:20:24.507395 10910 net.cpp:91] Creating Layer relu4
I0403 13:20:24.507411 10910 net.cpp:425] relu4 <- conv4
I0403 13:20:24.507433 10910 net.cpp:386] relu4 -> conv4 (in-place)
I0403 13:20:24.507728 10910 net.cpp:141] Setting up relu4
I0403 13:20:24.507756 10910 net.cpp:148] Top shape: 100 384 13 13 (6489600)
I0403 13:20:24.507771 10910 net.cpp:156] Memory required for data: 783398000
I0403 13:20:24.507786 10910 layer_factory.hpp:77] Creating layer conv5
I0403 13:20:24.507812 10910 net.cpp:91] Creating Layer conv5
I0403 13:20:24.507828 10910 net.cpp:425] conv5 <- conv4
I0403 13:20:24.507850 10910 net.cpp:399] conv5 -> conv5
I0403 13:20:24.528422 10910 net.cpp:141] Setting up conv5
I0403 13:20:24.528478 10910 net.cpp:148] Top shape: 100 256 13 13 (4326400)
I0403 13:20:24.528496 10910 net.cpp:156] Memory required for data: 800703600
I0403 13:20:24.528523 10910 layer_factory.hpp:77] Creating layer relu5
I0403 13:20:24.528545 10910 net.cpp:91] Creating Layer relu5
I0403 13:20:24.528563 10910 net.cpp:425] relu5 <- conv5
I0403 13:20:24.528585 10910 net.cpp:386] relu5 -> conv5 (in-place)
I0403 13:20:24.528872 10910 net.cpp:141] Setting up relu5
I0403 13:20:24.528898 10910 net.cpp:148] Top shape: 100 256 13 13 (4326400)
I0403 13:20:24.528913 10910 net.cpp:156] Memory required for data: 818009200
I0403 13:20:24.528928 10910 layer_factory.hpp:77] Creating layer pool5
I0403 13:20:24.528954 10910 net.cpp:91] Creating Layer pool5
I0403 13:20:24.528970 10910 net.cpp:425] pool5 <- conv5
I0403 13:20:24.528987 10910 net.cpp:399] pool5 -> pool5
I0403 13:20:24.529050 10910 net.cpp:141] Setting up pool5
I0403 13:20:24.529075 10910 net.cpp:148] Top shape: 100 256 6 6 (921600)
I0403 13:20:24.529091 10910 net.cpp:156] Memory required for data: 821695600
I0403 13:20:24.529106 10910 layer_factory.hpp:77] Creating layer fc6
I0403 13:20:24.529137 10910 net.cpp:91] Creating Layer fc6
I0403 13:20:24.529156 10910 net.cpp:425] fc6 <- pool5
I0403 13:20:24.529176 10910 net.cpp:399] fc6 -> fc6
I0403 13:20:26.099377 10910 net.cpp:141] Setting up fc6
I0403 13:20:26.099438 10910 net.cpp:148] Top shape: 100 4096 (409600)
I0403 13:20:26.099454 10910 net.cpp:156] Memory required for data: 823334000
I0403 13:20:26.099475 10910 layer_factory.hpp:77] Creating layer relu6
I0403 13:20:26.099496 10910 net.cpp:91] Creating Layer relu6
I0403 13:20:26.099512 10910 net.cpp:425] relu6 <- fc6
I0403 13:20:26.099534 10910 net.cpp:386] relu6 -> fc6 (in-place)
I0403 13:20:26.099762 10910 net.cpp:141] Setting up relu6
I0403 13:20:26.099786 10910 net.cpp:148] Top shape: 100 4096 (409600)
I0403 13:20:26.099800 10910 net.cpp:156] Memory required for data: 824972400
I0403 13:20:26.099814 10910 layer_factory.hpp:77] Creating layer drop6
I0403 13:20:26.099833 10910 net.cpp:91] Creating Layer drop6
I0403 13:20:26.099848 10910 net.cpp:425] drop6 <- fc6
I0403 13:20:26.099864 10910 net.cpp:386] drop6 -> fc6 (in-place)
I0403 13:20:26.099915 10910 net.cpp:141] Setting up drop6
I0403 13:20:26.099948 10910 net.cpp:148] Top shape: 100 4096 (409600)
I0403 13:20:26.099962 10910 net.cpp:156] Memory required for data: 826610800
I0403 13:20:26.099975 10910 layer_factory.hpp:77] Creating layer fc7
I0403 13:20:26.099994 10910 net.cpp:91] Creating Layer fc7
I0403 13:20:26.100009 10910 net.cpp:425] fc7 <- fc6
I0403 13:20:26.100028 10910 net.cpp:399] fc7 -> fc7
I0403 13:20:26.785019 10910 net.cpp:141] Setting up fc7
I0403 13:20:26.785096 10910 net.cpp:148] Top shape: 100 4096 (409600)
I0403 13:20:26.785112 10910 net.cpp:156] Memory required for data: 828249200
I0403 13:20:26.785133 10910 layer_factory.hpp:77] Creating layer relu7
I0403 13:20:26.785157 10910 net.cpp:91] Creating Layer relu7
I0403 13:20:26.785174 10910 net.cpp:425] relu7 <- fc7
I0403 13:20:26.785193 10910 net.cpp:386] relu7 -> fc7 (in-place)
I0403 13:20:26.785603 10910 net.cpp:141] Setting up relu7
I0403 13:20:26.785629 10910 net.cpp:148] Top shape: 100 4096 (409600)
I0403 13:20:26.785681 10910 net.cpp:156] Memory required for data: 829887600
I0403 13:20:26.785696 10910 layer_factory.hpp:77] Creating layer drop7
I0403 13:20:26.785717 10910 net.cpp:91] Creating Layer drop7
I0403 13:20:26.785733 10910 net.cpp:425] drop7 <- fc7
I0403 13:20:26.785749 10910 net.cpp:386] drop7 -> fc7 (in-place)
I0403 13:20:26.785794 10910 net.cpp:141] Setting up drop7
I0403 13:20:26.785815 10910 net.cpp:148] Top shape: 100 4096 (409600)
I0403 13:20:26.785830 10910 net.cpp:156] Memory required for data: 831526000
I0403 13:20:26.785842 10910 layer_factory.hpp:77] Creating layer fc8_plantvillage
I0403 13:20:26.785861 10910 net.cpp:91] Creating Layer fc8_plantvillage
I0403 13:20:26.785876 10910 net.cpp:425] fc8_plantvillage <- fc7
I0403 13:20:26.785897 10910 net.cpp:399] fc8_plantvillage -> fc8_plantvillage
I0403 13:20:26.792599 10910 net.cpp:141] Setting up fc8_plantvillage
I0403 13:20:26.792629 10910 net.cpp:148] Top shape: 100 38 (3800)
I0403 13:20:26.792644 10910 net.cpp:156] Memory required for data: 831541200
I0403 13:20:26.792662 10910 layer_factory.hpp:77] Creating layer fc8_plantvillage_fc8_plantvillage_0_split
I0403 13:20:26.792680 10910 net.cpp:91] Creating Layer fc8_plantvillage_fc8_plantvillage_0_split
I0403 13:20:26.792695 10910 net.cpp:425] fc8_plantvillage_fc8_plantvillage_0_split <- fc8_plantvillage
I0403 13:20:26.792711 10910 net.cpp:399] fc8_plantvillage_fc8_plantvillage_0_split -> fc8_plantvillage_fc8_plantvillage_0_split_0
I0403 13:20:26.792729 10910 net.cpp:399] fc8_plantvillage_fc8_plantvillage_0_split -> fc8_plantvillage_fc8_plantvillage_0_split_1
I0403 13:20:26.792748 10910 net.cpp:399] fc8_plantvillage_fc8_plantvillage_0_split -> fc8_plantvillage_fc8_plantvillage_0_split_2
I0403 13:20:26.792825 10910 net.cpp:141] Setting up fc8_plantvillage_fc8_plantvillage_0_split
I0403 13:20:26.792848 10910 net.cpp:148] Top shape: 100 38 (3800)
I0403 13:20:26.792863 10910 net.cpp:148] Top shape: 100 38 (3800)
I0403 13:20:26.792878 10910 net.cpp:148] Top shape: 100 38 (3800)
I0403 13:20:26.792891 10910 net.cpp:156] Memory required for data: 831586800
I0403 13:20:26.792904 10910 layer_factory.hpp:77] Creating layer prob
I0403 13:20:26.792922 10910 net.cpp:91] Creating Layer prob
I0403 13:20:26.792937 10910 net.cpp:425] prob <- fc8_plantvillage_fc8_plantvillage_0_split_0
I0403 13:20:26.792953 10910 net.cpp:399] prob -> prob
I0403 13:20:26.793179 10910 net.cpp:141] Setting up prob
I0403 13:20:26.793203 10910 net.cpp:148] Top shape: 100 38 (3800)
I0403 13:20:26.793217 10910 net.cpp:156] Memory required for data: 831602000
I0403 13:20:26.793231 10910 layer_factory.hpp:77] Creating layer hdf5out
I0403 13:20:26.793252 10910 net.cpp:91] Creating Layer hdf5out
I0403 13:20:26.793269 10910 net.cpp:425] hdf5out <- prob
I0403 13:20:26.793284 10910 net.cpp:425] hdf5out <- label_data_1_split_0
I0403 13:20:26.795722 10910 net.cpp:141] Setting up hdf5out
…
