…
I0403 13:22:06.744494 10978 net.cpp:313] The NetState phase (1) differed from the phase (0) specified by a rule in layer data
I0403 13:22:06.744931 10978 net.cpp:49] Initializing net from parameters: 
state {
  phase: TEST
}
layer {
  name: "data"
  type: "Data"
  top: "data"
  top: "label"
  include {
    phase: TEST
  }
  transform_param {
    crop_size: 227
    mean_file: "/home/mohanty/data/final_dataset/lmdb/color-80-20/mean.binaryproto"
  }
  data_param {
    source: "/home/mohanty/data/final_dataset/lmdb/color-80-20/test_db"
    batch_size: 100
    backend: LMDB
  }
}
layer {
  name: "conv1"
  type: "Convolution"
  bottom: "data"
  top: "conv1"
  param {
    lr_mult: 1
    decay_mult: 1
  }
  param {
    lr_mult: 2
    decay_mult: 0
  }
  convolution_param {
    num_output: 96
    kernel_size: 11
    stride: 4
    weight_filler {
      type: "gaussian"
      std: 0.01
    }
    bias_filler {
      type: "constant"
      value: 0
    }
  }
}
layer {
  name: "relu1"
  type: "ReLU"
  bottom: "conv1"
  top: "conv1"
}
layer {
  name: "norm1"
  type: "LRN"
  bottom: "conv1"
  top: "norm1"
  lrn_param {
    local_size: 5
    alpha: 0.0001
    beta: 0.75
  }
}
layer {
  name: "pool1"
  type: "Pooling"
  bottom: "norm1"
  top: "pool1"
  pooling_param {
    pool: MAX
    kernel_size: 3
    stride: 2
  }
}
layer {
  name: "conv2"
  type: "Convolution"
  bottom: "pool1"
  top: "conv2"
  param {
    lr_mult: 1
    decay_mult: 1
  }
  param {
    lr_mult: 2
    decay_mult: 0
  }
  convolution_param {
    num_output: 256
    pad: 2
    kernel_size: 5
    group: 2
    weight_filler {
      type: "gaussian"
      std: 0.01
    }
    bias_filler {
      type: "constant"
      value: 0.1
    }
  }
}
layer {
  name: "relu2"
  type: "ReLU"
  bottom: "conv2"
  top: "conv2"
}
layer {
  name: "norm2"
  type: "LRN"
  bottom: "conv2"
  top: "norm2"
  lrn_param {
    local_size: 5
    alpha: 0.0001
    beta: 0.75
  }
}
layer {
  name: "pool2"
  type: "Pooling"
  bottom: "norm2"
  top: "pool2"
  pooling_param {
    pool: MAX
    kernel_size: 3
    stride: 2
  }
}
layer {
  name: "conv3"
  type: "Convolution"
  bottom: "pool2"
  top: "conv3"
  param {
    lr_mult: 1
    decay_mult: 1
  }
  param {
    lr_mult: 2
    decay_mult: 0
  }
  convolution_param {
    num_output: 384
    pad: 1
    kernel_size: 3
    weight_filler {
      type: "gaussian"
      std: 0.01
    }
    bias_filler {
      type: "constant"
      value: 0
    }
  }
}
layer {
  name: "relu3"
  type: "ReLU"
  bottom: "conv3"
  top: "conv3"
}
layer {
  name: "conv4"
  type: "Convolution"
  bottom: "conv3"
  top: "conv4"
  param {
    lr_mult: 1
    decay_mult: 1
  }
  param {
    lr_mult: 2
    decay_mult: 0
  }
  convolution_param {
    num_output: 384
    pad: 1
    kernel_size: 3
    group: 2
    weight_filler {
      type: "gaussian"
      std: 0.01
    }
    bias_filler {
      type: "constant"
      value: 0.1
    }
  }
}
layer {
  name: "relu4"
  type: "ReLU"
  bottom: "conv4"
  top: "conv4"
}
layer {
  name: "conv5"
  type: "Convolution"
  bottom: "conv4"
  top: "conv5"
  param {
    lr_mult: 1
    decay_mult: 1
  }
  param {
    lr_mult: 2
    decay_mult: 0
  }
  convolution_param {
    num_output: 256
    pad: 1
    kernel_size: 3
    group: 2
    weight_filler {
      type: "gaussian"
      std: 0.01
    }
    bias_filler {
      type: "constant"
      value: 0.1
    }
  }
}
layer {
  name: "relu5"
  type: "ReLU"
  bottom: "conv5"
  top: "conv5"
}
layer {
  name: "pool5"
  type: "Pooling"
  bottom: "conv5"
  top: "pool5"
  pooling_param {
    pool: MAX
    kernel_size: 3
    stride: 2
  }
}
layer {
  name: "fc6"
  type: "InnerProduct"
  bottom: "pool5"
  top: "fc6"
  param {
    lr_mult: 1
    decay_mult: 1
  }
  param {
    lr_mult: 2
    decay_mult: 0
  }
  inner_product_param {
    num_output: 4096
    weight_filler {
      type: "gaussian"
      std: 0.005
    }
    bias_filler {
      type: "constant"
      value: 0.1
    }
  }
}
layer {
  name: "relu6"
  type: "ReLU"
  bottom: "fc6"
  top: "fc6"
}
layer {
  name: "drop6"
  type: "Dropout"
  bottom: "fc6"
  top: "fc6"
  dropout_param {
    dropout_ratio: 0.5
  }
}
layer {
  name: "fc7"
  type: "InnerProduct"
  bottom: "fc6"
  top: "fc7"
  param {
    lr_mult: 1
    decay_mult: 1
  }
  param {
    lr_mult: 2
    decay_mult: 0
  }
  inner_product_param {
    num_output: 4096
    weight_filler {
      type: "gaussian"
      std: 0.005
    }
    bias_filler {
      type: "constant"
      value: 0.1
    }
  }
}
layer {
  name: "relu7"
  type: "ReLU"
  bottom: "fc7"
  top: "fc7"
}
layer {
  name: "drop7"
  type: "Dropout"
  bottom: "fc7"
  top: "fc7"
  dropout_param {
    dropout_ratio: 0.5
  }
}
layer {
  name: "fc8_plantvillage"
  type: "InnerProduct"
  bottom: "fc7"
  top: "fc8_plantvillage"
  param {
    lr_mult: 1
    decay_mult: 1
  }
  param {
    lr_mult: 2
    decay_mult: 0
  }
  inner_product_param {
    num_output: 38
    weight_filler {
      type: "gaussian"
      std: 0.01
    }
    bias_filler {
      type: "constant"
      value: 0
    }
  }
}
layer {
  name: "prob"
  type: "Softmax"
  bottom: "fc8_plantvillage"
  top: "prob"
  include {
    phase: TEST
  }
}
layer {
  name: "hdf5out"
  type: "HDF5Output"
  bottom: "prob"
  bottom: "label"
  include {
    phase: TEST
  }
  hdf5_output_param {
    file_name: "hdf5_dumps/iter_13127.h5"
  }
}
layer {
  name: "loss"
  type: "SoftmaxWithLoss"
  bottom: "fc8_plantvillage"
  bottom: "label"
  top: "loss"
}
layer {
  name: "accuracy"
  type: "Accuracy"
  bottom: "fc8_plantvillage"
  bottom: "label"
  top: "accuracy"
  include {
    phase: TEST
  }
}
I0403 13:22:06.745461 10978 layer_factory.hpp:77] Creating layer data
I0403 13:22:06.746110 10978 net.cpp:91] Creating Layer data
I0403 13:22:06.746142 10978 net.cpp:399] data -> data
I0403 13:22:06.746192 10978 net.cpp:399] data -> label
I0403 13:22:06.746227 10978 data_transformer.cpp:25] Loading mean file from: /home/mohanty/data/final_dataset/lmdb/color-80-20/mean.binaryproto
I0403 13:22:06.749527 10984 db_lmdb.cpp:38] Opened lmdb /home/mohanty/data/final_dataset/lmdb/color-80-20/test_db
I0403 13:22:06.762591 10978 data_layer.cpp:41] output data size: 100,3,227,227
I0403 13:22:08.918332 10978 net.cpp:141] Setting up data
I0403 13:22:08.918468 10978 net.cpp:148] Top shape: 100 3 227 227 (15458700)
I0403 13:22:08.918495 10978 net.cpp:148] Top shape: 100 (100)
I0403 13:22:08.918515 10978 net.cpp:156] Memory required for data: 61835200
I0403 13:22:08.918548 10978 layer_factory.hpp:77] Creating layer label_data_1_split
I0403 13:22:08.918581 10978 net.cpp:91] Creating Layer label_data_1_split
I0403 13:22:08.918608 10978 net.cpp:425] label_data_1_split <- label
I0403 13:22:08.918651 10978 net.cpp:399] label_data_1_split -> label_data_1_split_0
I0403 13:22:08.918707 10978 net.cpp:399] label_data_1_split -> label_data_1_split_1
I0403 13:22:08.918799 10978 net.cpp:399] label_data_1_split -> label_data_1_split_2
I0403 13:22:08.918921 10978 net.cpp:141] Setting up label_data_1_split
I0403 13:22:08.918956 10978 net.cpp:148] Top shape: 100 (100)
I0403 13:22:08.918975 10978 net.cpp:148] Top shape: 100 (100)
I0403 13:22:08.918994 10978 net.cpp:148] Top shape: 100 (100)
I0403 13:22:08.919011 10978 net.cpp:156] Memory required for data: 61836400
I0403 13:22:08.919029 10978 layer_factory.hpp:77] Creating layer conv1
I0403 13:22:08.919075 10978 net.cpp:91] Creating Layer conv1
I0403 13:22:08.919095 10978 net.cpp:425] conv1 <- data
I0403 13:22:08.919119 10978 net.cpp:399] conv1 -> conv1
I0403 13:22:09.104801 10978 net.cpp:141] Setting up conv1
I0403 13:22:09.104871 10978 net.cpp:148] Top shape: 100 96 55 55 (29040000)
I0403 13:22:09.104890 10978 net.cpp:156] Memory required for data: 177996400
I0403 13:22:09.104970 10978 layer_factory.hpp:77] Creating layer relu1
I0403 13:22:09.105007 10978 net.cpp:91] Creating Layer relu1
I0403 13:22:09.105029 10978 net.cpp:425] relu1 <- conv1
I0403 13:22:09.105051 10978 net.cpp:386] relu1 -> conv1 (in-place)
I0403 13:22:09.105355 10978 net.cpp:141] Setting up relu1
I0403 13:22:09.105387 10978 net.cpp:148] Top shape: 100 96 55 55 (29040000)
I0403 13:22:09.105406 10978 net.cpp:156] Memory required for data: 294156400
I0403 13:22:09.105468 10978 layer_factory.hpp:77] Creating layer norm1
I0403 13:22:09.105501 10978 net.cpp:91] Creating Layer norm1
I0403 13:22:09.105523 10978 net.cpp:425] norm1 <- conv1
I0403 13:22:09.105543 10978 net.cpp:399] norm1 -> norm1
I0403 13:22:09.105911 10978 net.cpp:141] Setting up norm1
I0403 13:22:09.105943 10978 net.cpp:148] Top shape: 100 96 55 55 (29040000)
I0403 13:22:09.105962 10978 net.cpp:156] Memory required for data: 410316400
I0403 13:22:09.105980 10978 layer_factory.hpp:77] Creating layer pool1
I0403 13:22:09.106009 10978 net.cpp:91] Creating Layer pool1
I0403 13:22:09.106029 10978 net.cpp:425] pool1 <- norm1
I0403 13:22:09.106050 10978 net.cpp:399] pool1 -> pool1
I0403 13:22:09.106128 10978 net.cpp:141] Setting up pool1
I0403 13:22:09.106156 10978 net.cpp:148] Top shape: 100 96 27 27 (6998400)
I0403 13:22:09.106174 10978 net.cpp:156] Memory required for data: 438310000
I0403 13:22:09.106191 10978 layer_factory.hpp:77] Creating layer conv2
I0403 13:22:09.106220 10978 net.cpp:91] Creating Layer conv2
I0403 13:22:09.106240 10978 net.cpp:425] conv2 <- pool1
I0403 13:22:09.106261 10978 net.cpp:399] conv2 -> conv2
I0403 13:22:09.124459 10978 net.cpp:141] Setting up conv2
I0403 13:22:09.124506 10978 net.cpp:148] Top shape: 100 256 27 27 (18662400)
I0403 13:22:09.124526 10978 net.cpp:156] Memory required for data: 512959600
I0403 13:22:09.124555 10978 layer_factory.hpp:77] Creating layer relu2
I0403 13:22:09.124599 10978 net.cpp:91] Creating Layer relu2
I0403 13:22:09.124625 10978 net.cpp:425] relu2 <- conv2
I0403 13:22:09.124650 10978 net.cpp:386] relu2 -> conv2 (in-place)
I0403 13:22:09.124982 10978 net.cpp:141] Setting up relu2
I0403 13:22:09.125017 10978 net.cpp:148] Top shape: 100 256 27 27 (18662400)
I0403 13:22:09.125036 10978 net.cpp:156] Memory required for data: 587609200
I0403 13:22:09.125056 10978 layer_factory.hpp:77] Creating layer norm2
I0403 13:22:09.125087 10978 net.cpp:91] Creating Layer norm2
I0403 13:22:09.125108 10978 net.cpp:425] norm2 <- conv2
I0403 13:22:09.125131 10978 net.cpp:399] norm2 -> norm2
I0403 13:22:09.125375 10978 net.cpp:141] Setting up norm2
I0403 13:22:09.125408 10978 net.cpp:148] Top shape: 100 256 27 27 (18662400)
I0403 13:22:09.125427 10978 net.cpp:156] Memory required for data: 662258800
I0403 13:22:09.125447 10978 layer_factory.hpp:77] Creating layer pool2
I0403 13:22:09.125468 10978 net.cpp:91] Creating Layer pool2
I0403 13:22:09.125486 10978 net.cpp:425] pool2 <- norm2
I0403 13:22:09.125509 10978 net.cpp:399] pool2 -> pool2
I0403 13:22:09.125578 10978 net.cpp:141] Setting up pool2
I0403 13:22:09.125608 10978 net.cpp:148] Top shape: 100 256 13 13 (4326400)
I0403 13:22:09.125625 10978 net.cpp:156] Memory required for data: 679564400
I0403 13:22:09.125643 10978 layer_factory.hpp:77] Creating layer conv3
I0403 13:22:09.125674 10978 net.cpp:91] Creating Layer conv3
I0403 13:22:09.125694 10978 net.cpp:425] conv3 <- pool2
I0403 13:22:09.125715 10978 net.cpp:399] conv3 -> conv3
I0403 13:22:09.172380 10978 net.cpp:141] Setting up conv3
I0403 13:22:09.172463 10978 net.cpp:148] Top shape: 100 384 13 13 (6489600)
I0403 13:22:09.172483 10978 net.cpp:156] Memory required for data: 705522800
I0403 13:22:09.172513 10978 layer_factory.hpp:77] Creating layer relu3
I0403 13:22:09.172540 10978 net.cpp:91] Creating Layer relu3
I0403 13:22:09.172561 10978 net.cpp:425] relu3 <- conv3
I0403 13:22:09.172592 10978 net.cpp:386] relu3 -> conv3 (in-place)
I0403 13:22:09.172924 10978 net.cpp:141] Setting up relu3
I0403 13:22:09.172956 10978 net.cpp:148] Top shape: 100 384 13 13 (6489600)
I0403 13:22:09.172974 10978 net.cpp:156] Memory required for data: 731481200
I0403 13:22:09.172991 10978 layer_factory.hpp:77] Creating layer conv4
I0403 13:22:09.173022 10978 net.cpp:91] Creating Layer conv4
I0403 13:22:09.173043 10978 net.cpp:425] conv4 <- conv3
I0403 13:22:09.173068 10978 net.cpp:399] conv4 -> conv4
I0403 13:22:09.209257 10978 net.cpp:141] Setting up conv4
I0403 13:22:09.209344 10978 net.cpp:148] Top shape: 100 384 13 13 (6489600)
I0403 13:22:09.209403 10978 net.cpp:156] Memory required for data: 757439600
I0403 13:22:09.209429 10978 layer_factory.hpp:77] Creating layer relu4
I0403 13:22:09.209455 10978 net.cpp:91] Creating Layer relu4
I0403 13:22:09.209475 10978 net.cpp:425] relu4 <- conv4
I0403 13:22:09.209501 10978 net.cpp:386] relu4 -> conv4 (in-place)
I0403 13:22:09.209836 10978 net.cpp:141] Setting up relu4
I0403 13:22:09.209869 10978 net.cpp:148] Top shape: 100 384 13 13 (6489600)
I0403 13:22:09.209887 10978 net.cpp:156] Memory required for data: 783398000
I0403 13:22:09.209904 10978 layer_factory.hpp:77] Creating layer conv5
I0403 13:22:09.209934 10978 net.cpp:91] Creating Layer conv5
I0403 13:22:09.209955 10978 net.cpp:425] conv5 <- conv4
I0403 13:22:09.209980 10978 net.cpp:399] conv5 -> conv5
I0403 13:22:09.235049 10978 net.cpp:141] Setting up conv5
I0403 13:22:09.235132 10978 net.cpp:148] Top shape: 100 256 13 13 (4326400)
I0403 13:22:09.235152 10978 net.cpp:156] Memory required for data: 800703600
I0403 13:22:09.235182 10978 layer_factory.hpp:77] Creating layer relu5
I0403 13:22:09.235208 10978 net.cpp:91] Creating Layer relu5
I0403 13:22:09.235232 10978 net.cpp:425] relu5 <- conv5
I0403 13:22:09.235255 10978 net.cpp:386] relu5 -> conv5 (in-place)
I0403 13:22:09.235595 10978 net.cpp:141] Setting up relu5
I0403 13:22:09.235627 10978 net.cpp:148] Top shape: 100 256 13 13 (4326400)
I0403 13:22:09.235646 10978 net.cpp:156] Memory required for data: 818009200
I0403 13:22:09.235663 10978 layer_factory.hpp:77] Creating layer pool5
I0403 13:22:09.235692 10978 net.cpp:91] Creating Layer pool5
I0403 13:22:09.235712 10978 net.cpp:425] pool5 <- conv5
I0403 13:22:09.235733 10978 net.cpp:399] pool5 -> pool5
I0403 13:22:09.235808 10978 net.cpp:141] Setting up pool5
I0403 13:22:09.235836 10978 net.cpp:148] Top shape: 100 256 6 6 (921600)
I0403 13:22:09.235853 10978 net.cpp:156] Memory required for data: 821695600
I0403 13:22:09.235870 10978 layer_factory.hpp:77] Creating layer fc6
I0403 13:22:09.235901 10978 net.cpp:91] Creating Layer fc6
I0403 13:22:09.235923 10978 net.cpp:425] fc6 <- pool5
I0403 13:22:09.235946 10978 net.cpp:399] fc6 -> fc6
I0403 13:22:10.811739 10978 net.cpp:141] Setting up fc6
I0403 13:22:10.811818 10978 net.cpp:148] Top shape: 100 4096 (409600)
I0403 13:22:10.811833 10978 net.cpp:156] Memory required for data: 823334000
I0403 13:22:10.811853 10978 layer_factory.hpp:77] Creating layer relu6
I0403 13:22:10.811875 10978 net.cpp:91] Creating Layer relu6
I0403 13:22:10.811892 10978 net.cpp:425] relu6 <- fc6
I0403 13:22:10.811909 10978 net.cpp:386] relu6 -> fc6 (in-place)
I0403 13:22:10.812131 10978 net.cpp:141] Setting up relu6
I0403 13:22:10.812155 10978 net.cpp:148] Top shape: 100 4096 (409600)
I0403 13:22:10.812170 10978 net.cpp:156] Memory required for data: 824972400
I0403 13:22:10.812183 10978 layer_factory.hpp:77] Creating layer drop6
I0403 13:22:10.812201 10978 net.cpp:91] Creating Layer drop6
I0403 13:22:10.812214 10978 net.cpp:425] drop6 <- fc6
I0403 13:22:10.812232 10978 net.cpp:386] drop6 -> fc6 (in-place)
I0403 13:22:10.812283 10978 net.cpp:141] Setting up drop6
I0403 13:22:10.812306 10978 net.cpp:148] Top shape: 100 4096 (409600)
I0403 13:22:10.812321 10978 net.cpp:156] Memory required for data: 826610800
I0403 13:22:10.812335 10978 layer_factory.hpp:77] Creating layer fc7
I0403 13:22:10.812353 10978 net.cpp:91] Creating Layer fc7
I0403 13:22:10.812367 10978 net.cpp:425] fc7 <- fc6
I0403 13:22:10.812386 10978 net.cpp:399] fc7 -> fc7
I0403 13:22:11.481573 10978 net.cpp:141] Setting up fc7
I0403 13:22:11.481652 10978 net.cpp:148] Top shape: 100 4096 (409600)
I0403 13:22:11.481667 10978 net.cpp:156] Memory required for data: 828249200
I0403 13:22:11.481688 10978 layer_factory.hpp:77] Creating layer relu7
I0403 13:22:11.481709 10978 net.cpp:91] Creating Layer relu7
I0403 13:22:11.481725 10978 net.cpp:425] relu7 <- fc7
I0403 13:22:11.481746 10978 net.cpp:386] relu7 -> fc7 (in-place)
I0403 13:22:11.482139 10978 net.cpp:141] Setting up relu7
I0403 13:22:11.482166 10978 net.cpp:148] Top shape: 100 4096 (409600)
I0403 13:22:11.482221 10978 net.cpp:156] Memory required for data: 829887600
I0403 13:22:11.482235 10978 layer_factory.hpp:77] Creating layer drop7
I0403 13:22:11.482254 10978 net.cpp:91] Creating Layer drop7
I0403 13:22:11.482270 10978 net.cpp:425] drop7 <- fc7
I0403 13:22:11.482290 10978 net.cpp:386] drop7 -> fc7 (in-place)
I0403 13:22:11.482331 10978 net.cpp:141] Setting up drop7
I0403 13:22:11.482354 10978 net.cpp:148] Top shape: 100 4096 (409600)
I0403 13:22:11.482369 10978 net.cpp:156] Memory required for data: 831526000
I0403 13:22:11.482383 10978 layer_factory.hpp:77] Creating layer fc8_plantvillage
I0403 13:22:11.482401 10978 net.cpp:91] Creating Layer fc8_plantvillage
I0403 13:22:11.482415 10978 net.cpp:425] fc8_plantvillage <- fc7
I0403 13:22:11.482434 10978 net.cpp:399] fc8_plantvillage -> fc8_plantvillage
I0403 13:22:11.488957 10978 net.cpp:141] Setting up fc8_plantvillage
I0403 13:22:11.488986 10978 net.cpp:148] Top shape: 100 38 (3800)
I0403 13:22:11.488999 10978 net.cpp:156] Memory required for data: 831541200
I0403 13:22:11.489017 10978 layer_factory.hpp:77] Creating layer fc8_plantvillage_fc8_plantvillage_0_split
I0403 13:22:11.489037 10978 net.cpp:91] Creating Layer fc8_plantvillage_fc8_plantvillage_0_split
I0403 13:22:11.489053 10978 net.cpp:425] fc8_plantvillage_fc8_plantvillage_0_split <- fc8_plantvillage
I0403 13:22:11.489068 10978 net.cpp:399] fc8_plantvillage_fc8_plantvillage_0_split -> fc8_plantvillage_fc8_plantvillage_0_split_0
I0403 13:22:11.489086 10978 net.cpp:399] fc8_plantvillage_fc8_plantvillage_0_split -> fc8_plantvillage_fc8_plantvillage_0_split_1
I0403 13:22:11.489104 10978 net.cpp:399] fc8_plantvillage_fc8_plantvillage_0_split -> fc8_plantvillage_fc8_plantvillage_0_split_2
I0403 13:22:11.489184 10978 net.cpp:141] Setting up fc8_plantvillage_fc8_plantvillage_0_split
I0403 13:22:11.489207 10978 net.cpp:148] Top shape: 100 38 (3800)
I0403 13:22:11.489223 10978 net.cpp:148] Top shape: 100 38 (3800)
I0403 13:22:11.489236 10978 net.cpp:148] Top shape: 100 38 (3800)
I0403 13:22:11.489249 10978 net.cpp:156] Memory required for data: 831586800
I0403 13:22:11.489262 10978 layer_factory.hpp:77] Creating layer prob
I0403 13:22:11.489279 10978 net.cpp:91] Creating Layer prob
I0403 13:22:11.489294 10978 net.cpp:425] prob <- fc8_plantvillage_fc8_plantvillage_0_split_0
I0403 13:22:11.489310 10978 net.cpp:399] prob -> prob
I0403 13:22:11.489526 10978 net.cpp:141] Setting up prob
I0403 13:22:11.489552 10978 net.cpp:148] Top shape: 100 38 (3800)
I0403 13:22:11.489573 10978 net.cpp:156] Memory required for data: 831602000
I0403 13:22:11.489600 10978 layer_factory.hpp:77] Creating layer hdf5out
I0403 13:22:11.489619 10978 net.cpp:91] Creating Layer hdf5out
I0403 13:22:11.489634 10978 net.cpp:425] hdf5out <- prob
I0403 13:22:11.489650 10978 net.cpp:425] hdf5out <- label_data_1_split_0
I0403 13:22:11.492103 10978 net.cpp:141] Setting up hdf5out
…
