…
I0403 13:12:48.000514 10505 net.cpp:313] The NetState phase (1) differed from the phase (0) specified by a rule in layer data
I0403 13:12:48.000838 10505 net.cpp:49] Initializing net from parameters: 
state {
  phase: TEST
}
layer {
  name: "data"
  type: "Data"
  top: "data"
  top: "label"
  include {
    phase: TEST
  }
  transform_param {
    crop_size: 227
    mean_file: "/home/mohanty/data/final_dataset/lmdb/color-80-20/mean.binaryproto"
  }
  data_param {
    source: "/home/mohanty/data/final_dataset/lmdb/color-80-20/test_db"
    batch_size: 100
    backend: LMDB
  }
}
layer {
  name: "conv1"
  type: "Convolution"
  bottom: "data"
  top: "conv1"
  param {
    lr_mult: 1
    decay_mult: 1
  }
  param {
    lr_mult: 2
    decay_mult: 0
  }
  convolution_param {
    num_output: 96
    kernel_size: 11
    stride: 4
    weight_filler {
      type: "gaussian"
      std: 0.01
    }
    bias_filler {
      type: "constant"
      value: 0
    }
  }
}
layer {
  name: "relu1"
  type: "ReLU"
  bottom: "conv1"
  top: "conv1"
}
layer {
  name: "norm1"
  type: "LRN"
  bottom: "conv1"
  top: "norm1"
  lrn_param {
    local_size: 5
    alpha: 0.0001
    beta: 0.75
  }
}
layer {
  name: "pool1"
  type: "Pooling"
  bottom: "norm1"
  top: "pool1"
  pooling_param {
    pool: MAX
    kernel_size: 3
    stride: 2
  }
}
layer {
  name: "conv2"
  type: "Convolution"
  bottom: "pool1"
  top: "conv2"
  param {
    lr_mult: 1
    decay_mult: 1
  }
  param {
    lr_mult: 2
    decay_mult: 0
  }
  convolution_param {
    num_output: 256
    pad: 2
    kernel_size: 5
    group: 2
    weight_filler {
      type: "gaussian"
      std: 0.01
    }
    bias_filler {
      type: "constant"
      value: 0.1
    }
  }
}
layer {
  name: "relu2"
  type: "ReLU"
  bottom: "conv2"
  top: "conv2"
}
layer {
  name: "norm2"
  type: "LRN"
  bottom: "conv2"
  top: "norm2"
  lrn_param {
    local_size: 5
    alpha: 0.0001
    beta: 0.75
  }
}
layer {
  name: "pool2"
  type: "Pooling"
  bottom: "norm2"
  top: "pool2"
  pooling_param {
    pool: MAX
    kernel_size: 3
    stride: 2
  }
}
layer {
  name: "conv3"
  type: "Convolution"
  bottom: "pool2"
  top: "conv3"
  param {
    lr_mult: 1
    decay_mult: 1
  }
  param {
    lr_mult: 2
    decay_mult: 0
  }
  convolution_param {
    num_output: 384
    pad: 1
    kernel_size: 3
    weight_filler {
      type: "gaussian"
      std: 0.01
    }
    bias_filler {
      type: "constant"
      value: 0
    }
  }
}
layer {
  name: "relu3"
  type: "ReLU"
  bottom: "conv3"
  top: "conv3"
}
layer {
  name: "conv4"
  type: "Convolution"
  bottom: "conv3"
  top: "conv4"
  param {
    lr_mult: 1
    decay_mult: 1
  }
  param {
    lr_mult: 2
    decay_mult: 0
  }
  convolution_param {
    num_output: 384
    pad: 1
    kernel_size: 3
    group: 2
    weight_filler {
      type: "gaussian"
      std: 0.01
    }
    bias_filler {
      type: "constant"
      value: 0.1
    }
  }
}
layer {
  name: "relu4"
  type: "ReLU"
  bottom: "conv4"
  top: "conv4"
}
layer {
  name: "conv5"
  type: "Convolution"
  bottom: "conv4"
  top: "conv5"
  param {
    lr_mult: 1
    decay_mult: 1
  }
  param {
    lr_mult: 2
    decay_mult: 0
  }
  convolution_param {
    num_output: 256
    pad: 1
    kernel_size: 3
    group: 2
    weight_filler {
      type: "gaussian"
      std: 0.01
    }
    bias_filler {
      type: "constant"
      value: 0.1
    }
  }
}
layer {
  name: "relu5"
  type: "ReLU"
  bottom: "conv5"
  top: "conv5"
}
layer {
  name: "pool5"
  type: "Pooling"
  bottom: "conv5"
  top: "pool5"
  pooling_param {
    pool: MAX
    kernel_size: 3
    stride: 2
  }
}
layer {
  name: "fc6"
  type: "InnerProduct"
  bottom: "pool5"
  top: "fc6"
  param {
    lr_mult: 1
    decay_mult: 1
  }
  param {
    lr_mult: 2
    decay_mult: 0
  }
  inner_product_param {
    num_output: 4096
    weight_filler {
      type: "gaussian"
      std: 0.005
    }
    bias_filler {
      type: "constant"
      value: 0.1
    }
  }
}
layer {
  name: "relu6"
  type: "ReLU"
  bottom: "fc6"
  top: "fc6"
}
layer {
  name: "drop6"
  type: "Dropout"
  bottom: "fc6"
  top: "fc6"
  dropout_param {
    dropout_ratio: 0.5
  }
}
layer {
  name: "fc7"
  type: "InnerProduct"
  bottom: "fc6"
  top: "fc7"
  param {
    lr_mult: 1
    decay_mult: 1
  }
  param {
    lr_mult: 2
    decay_mult: 0
  }
  inner_product_param {
    num_output: 4096
    weight_filler {
      type: "gaussian"
      std: 0.005
    }
    bias_filler {
      type: "constant"
      value: 0.1
    }
  }
}
layer {
  name: "relu7"
  type: "ReLU"
  bottom: "fc7"
  top: "fc7"
}
layer {
  name: "drop7"
  type: "Dropout"
  bottom: "fc7"
  top: "fc7"
  dropout_param {
    dropout_ratio: 0.5
  }
}
layer {
  name: "fc8_plantvillage"
  type: "InnerProduct"
  bottom: "fc7"
  top: "fc8_plantvillage"
  param {
    lr_mult: 1
    decay_mult: 1
  }
  param {
    lr_mult: 2
    decay_mult: 0
  }
  inner_product_param {
    num_output: 38
    weight_filler {
      type: "gaussian"
      std: 0.01
    }
    bias_filler {
      type: "constant"
      value: 0
    }
  }
}
layer {
  name: "prob"
  type: "Softmax"
  bottom: "fc8_plantvillage"
  top: "prob"
  include {
    phase: TEST
  }
}
layer {
  name: "hdf5out"
  type: "HDF5Output"
  bottom: "prob"
  bottom: "label"
  include {
    phase: TEST
  }
  hdf5_output_param {
    file_name: "hdf5_dumps/iter_3933.h5"
  }
}
layer {
  name: "loss"
  type: "SoftmaxWithLoss"
  bottom: "fc8_plantvillage"
  bottom: "label"
  top: "loss"
}
layer {
  name: "accuracy"
  type: "Accuracy"
  bottom: "fc8_plantvillage"
  bottom: "label"
  top: "accuracy"
  include {
    phase: TEST
  }
}
I0403 13:12:48.001397 10505 layer_factory.hpp:77] Creating layer data
I0403 13:12:48.002046 10505 net.cpp:91] Creating Layer data
I0403 13:12:48.002080 10505 net.cpp:399] data -> data
I0403 13:12:48.002133 10505 net.cpp:399] data -> label
I0403 13:12:48.002168 10505 data_transformer.cpp:25] Loading mean file from: /home/mohanty/data/final_dataset/lmdb/color-80-20/mean.binaryproto
I0403 13:12:48.005177 10508 db_lmdb.cpp:38] Opened lmdb /home/mohanty/data/final_dataset/lmdb/color-80-20/test_db
I0403 13:12:48.016486 10505 data_layer.cpp:41] output data size: 100,3,227,227
I0403 13:12:48.135787 10505 net.cpp:141] Setting up data
I0403 13:12:48.135880 10505 net.cpp:148] Top shape: 100 3 227 227 (15458700)
I0403 13:12:48.135903 10505 net.cpp:148] Top shape: 100 (100)
I0403 13:12:48.135918 10505 net.cpp:156] Memory required for data: 61835200
I0403 13:12:48.135947 10505 layer_factory.hpp:77] Creating layer label_data_1_split
I0403 13:12:48.135972 10505 net.cpp:91] Creating Layer label_data_1_split
I0403 13:12:48.135989 10505 net.cpp:425] label_data_1_split <- label
I0403 13:12:48.136021 10505 net.cpp:399] label_data_1_split -> label_data_1_split_0
I0403 13:12:48.136047 10505 net.cpp:399] label_data_1_split -> label_data_1_split_1
I0403 13:12:48.136067 10505 net.cpp:399] label_data_1_split -> label_data_1_split_2
I0403 13:12:48.136129 10505 net.cpp:141] Setting up label_data_1_split
I0403 13:12:48.136152 10505 net.cpp:148] Top shape: 100 (100)
I0403 13:12:48.136168 10505 net.cpp:148] Top shape: 100 (100)
I0403 13:12:48.136184 10505 net.cpp:148] Top shape: 100 (100)
I0403 13:12:48.136198 10505 net.cpp:156] Memory required for data: 61836400
I0403 13:12:48.136214 10505 layer_factory.hpp:77] Creating layer conv1
I0403 13:12:48.136245 10505 net.cpp:91] Creating Layer conv1
I0403 13:12:48.136265 10505 net.cpp:425] conv1 <- data
I0403 13:12:48.136284 10505 net.cpp:399] conv1 -> conv1
I0403 13:12:48.280381 10505 net.cpp:141] Setting up conv1
I0403 13:12:48.280460 10505 net.cpp:148] Top shape: 100 96 55 55 (29040000)
I0403 13:12:48.280478 10505 net.cpp:156] Memory required for data: 177996400
I0403 13:12:48.280508 10505 layer_factory.hpp:77] Creating layer relu1
I0403 13:12:48.280535 10505 net.cpp:91] Creating Layer relu1
I0403 13:12:48.280553 10505 net.cpp:425] relu1 <- conv1
I0403 13:12:48.280573 10505 net.cpp:386] relu1 -> conv1 (in-place)
I0403 13:12:48.280853 10505 net.cpp:141] Setting up relu1
I0403 13:12:48.280881 10505 net.cpp:148] Top shape: 100 96 55 55 (29040000)
I0403 13:12:48.280897 10505 net.cpp:156] Memory required for data: 294156400
I0403 13:12:48.280948 10505 layer_factory.hpp:77] Creating layer norm1
I0403 13:12:48.280978 10505 net.cpp:91] Creating Layer norm1
I0403 13:12:48.280997 10505 net.cpp:425] norm1 <- conv1
I0403 13:12:48.281015 10505 net.cpp:399] norm1 -> norm1
I0403 13:12:48.281381 10505 net.cpp:141] Setting up norm1
I0403 13:12:48.281409 10505 net.cpp:148] Top shape: 100 96 55 55 (29040000)
I0403 13:12:48.281424 10505 net.cpp:156] Memory required for data: 410316400
I0403 13:12:48.281440 10505 layer_factory.hpp:77] Creating layer pool1
I0403 13:12:48.281462 10505 net.cpp:91] Creating Layer pool1
I0403 13:12:48.281479 10505 net.cpp:425] pool1 <- norm1
I0403 13:12:48.281497 10505 net.cpp:399] pool1 -> pool1
I0403 13:12:48.281570 10505 net.cpp:141] Setting up pool1
I0403 13:12:48.281594 10505 net.cpp:148] Top shape: 100 96 27 27 (6998400)
I0403 13:12:48.281615 10505 net.cpp:156] Memory required for data: 438310000
I0403 13:12:48.281630 10505 layer_factory.hpp:77] Creating layer conv2
I0403 13:12:48.281653 10505 net.cpp:91] Creating Layer conv2
I0403 13:12:48.281671 10505 net.cpp:425] conv2 <- pool1
I0403 13:12:48.281688 10505 net.cpp:399] conv2 -> conv2
I0403 13:12:48.297153 10505 net.cpp:141] Setting up conv2
I0403 13:12:48.297209 10505 net.cpp:148] Top shape: 100 256 27 27 (18662400)
I0403 13:12:48.297225 10505 net.cpp:156] Memory required for data: 512959600
I0403 13:12:48.297247 10505 layer_factory.hpp:77] Creating layer relu2
I0403 13:12:48.297269 10505 net.cpp:91] Creating Layer relu2
I0403 13:12:48.297291 10505 net.cpp:425] relu2 <- conv2
I0403 13:12:48.297309 10505 net.cpp:386] relu2 -> conv2 (in-place)
I0403 13:12:48.297639 10505 net.cpp:141] Setting up relu2
I0403 13:12:48.297667 10505 net.cpp:148] Top shape: 100 256 27 27 (18662400)
I0403 13:12:48.297683 10505 net.cpp:156] Memory required for data: 587609200
I0403 13:12:48.297698 10505 layer_factory.hpp:77] Creating layer norm2
I0403 13:12:48.297719 10505 net.cpp:91] Creating Layer norm2
I0403 13:12:48.297736 10505 net.cpp:425] norm2 <- conv2
I0403 13:12:48.297754 10505 net.cpp:399] norm2 -> norm2
I0403 13:12:48.297946 10505 net.cpp:141] Setting up norm2
I0403 13:12:48.297972 10505 net.cpp:148] Top shape: 100 256 27 27 (18662400)
I0403 13:12:48.297987 10505 net.cpp:156] Memory required for data: 662258800
I0403 13:12:48.298002 10505 layer_factory.hpp:77] Creating layer pool2
I0403 13:12:48.298022 10505 net.cpp:91] Creating Layer pool2
I0403 13:12:48.298037 10505 net.cpp:425] pool2 <- norm2
I0403 13:12:48.298053 10505 net.cpp:399] pool2 -> pool2
I0403 13:12:48.298105 10505 net.cpp:141] Setting up pool2
I0403 13:12:48.298127 10505 net.cpp:148] Top shape: 100 256 13 13 (4326400)
I0403 13:12:48.298142 10505 net.cpp:156] Memory required for data: 679564400
I0403 13:12:48.298157 10505 layer_factory.hpp:77] Creating layer conv3
I0403 13:12:48.298178 10505 net.cpp:91] Creating Layer conv3
I0403 13:12:48.298194 10505 net.cpp:425] conv3 <- pool2
I0403 13:12:48.298213 10505 net.cpp:399] conv3 -> conv3
I0403 13:12:48.342226 10505 net.cpp:141] Setting up conv3
I0403 13:12:48.342300 10505 net.cpp:148] Top shape: 100 384 13 13 (6489600)
I0403 13:12:48.342317 10505 net.cpp:156] Memory required for data: 705522800
I0403 13:12:48.342342 10505 layer_factory.hpp:77] Creating layer relu3
I0403 13:12:48.342368 10505 net.cpp:91] Creating Layer relu3
I0403 13:12:48.342387 10505 net.cpp:425] relu3 <- conv3
I0403 13:12:48.342406 10505 net.cpp:386] relu3 -> conv3 (in-place)
I0403 13:12:48.342689 10505 net.cpp:141] Setting up relu3
I0403 13:12:48.342716 10505 net.cpp:148] Top shape: 100 384 13 13 (6489600)
I0403 13:12:48.342731 10505 net.cpp:156] Memory required for data: 731481200
I0403 13:12:48.342746 10505 layer_factory.hpp:77] Creating layer conv4
I0403 13:12:48.342772 10505 net.cpp:91] Creating Layer conv4
I0403 13:12:48.342788 10505 net.cpp:425] conv4 <- conv3
I0403 13:12:48.342809 10505 net.cpp:399] conv4 -> conv4
I0403 13:12:48.373298 10505 net.cpp:141] Setting up conv4
I0403 13:12:48.373368 10505 net.cpp:148] Top shape: 100 384 13 13 (6489600)
I0403 13:12:48.373420 10505 net.cpp:156] Memory required for data: 757439600
I0403 13:12:48.373441 10505 layer_factory.hpp:77] Creating layer relu4
I0403 13:12:48.373463 10505 net.cpp:91] Creating Layer relu4
I0403 13:12:48.373481 10505 net.cpp:425] relu4 <- conv4
I0403 13:12:48.373502 10505 net.cpp:386] relu4 -> conv4 (in-place)
I0403 13:12:48.373791 10505 net.cpp:141] Setting up relu4
I0403 13:12:48.373821 10505 net.cpp:148] Top shape: 100 384 13 13 (6489600)
I0403 13:12:48.373836 10505 net.cpp:156] Memory required for data: 783398000
I0403 13:12:48.373852 10505 layer_factory.hpp:77] Creating layer conv5
I0403 13:12:48.373878 10505 net.cpp:91] Creating Layer conv5
I0403 13:12:48.373894 10505 net.cpp:425] conv5 <- conv4
I0403 13:12:48.373914 10505 net.cpp:399] conv5 -> conv5
I0403 13:12:48.395220 10505 net.cpp:141] Setting up conv5
I0403 13:12:48.395278 10505 net.cpp:148] Top shape: 100 256 13 13 (4326400)
I0403 13:12:48.395298 10505 net.cpp:156] Memory required for data: 800703600
I0403 13:12:48.395323 10505 layer_factory.hpp:77] Creating layer relu5
I0403 13:12:48.395344 10505 net.cpp:91] Creating Layer relu5
I0403 13:12:48.395361 10505 net.cpp:425] relu5 <- conv5
I0403 13:12:48.395383 10505 net.cpp:386] relu5 -> conv5 (in-place)
I0403 13:12:48.395683 10505 net.cpp:141] Setting up relu5
I0403 13:12:48.395710 10505 net.cpp:148] Top shape: 100 256 13 13 (4326400)
I0403 13:12:48.395726 10505 net.cpp:156] Memory required for data: 818009200
I0403 13:12:48.395741 10505 layer_factory.hpp:77] Creating layer pool5
I0403 13:12:48.395766 10505 net.cpp:91] Creating Layer pool5
I0403 13:12:48.395786 10505 net.cpp:425] pool5 <- conv5
I0403 13:12:48.395804 10505 net.cpp:399] pool5 -> pool5
I0403 13:12:48.395869 10505 net.cpp:141] Setting up pool5
I0403 13:12:48.395894 10505 net.cpp:148] Top shape: 100 256 6 6 (921600)
I0403 13:12:48.395908 10505 net.cpp:156] Memory required for data: 821695600
I0403 13:12:48.395923 10505 layer_factory.hpp:77] Creating layer fc6
I0403 13:12:48.395951 10505 net.cpp:91] Creating Layer fc6
I0403 13:12:48.395972 10505 net.cpp:425] fc6 <- pool5
I0403 13:12:48.395992 10505 net.cpp:399] fc6 -> fc6
I0403 13:12:50.002518 10505 net.cpp:141] Setting up fc6
I0403 13:12:50.002573 10505 net.cpp:148] Top shape: 100 4096 (409600)
I0403 13:12:50.002591 10505 net.cpp:156] Memory required for data: 823334000
I0403 13:12:50.002619 10505 layer_factory.hpp:77] Creating layer relu6
I0403 13:12:50.002646 10505 net.cpp:91] Creating Layer relu6
I0403 13:12:50.002665 10505 net.cpp:425] relu6 <- fc6
I0403 13:12:50.002686 10505 net.cpp:386] relu6 -> fc6 (in-place)
I0403 13:12:50.002931 10505 net.cpp:141] Setting up relu6
I0403 13:12:50.002960 10505 net.cpp:148] Top shape: 100 4096 (409600)
I0403 13:12:50.002976 10505 net.cpp:156] Memory required for data: 824972400
I0403 13:12:50.002993 10505 layer_factory.hpp:77] Creating layer drop6
I0403 13:12:50.003013 10505 net.cpp:91] Creating Layer drop6
I0403 13:12:50.003031 10505 net.cpp:425] drop6 <- fc6
I0403 13:12:50.003052 10505 net.cpp:386] drop6 -> fc6 (in-place)
I0403 13:12:50.003106 10505 net.cpp:141] Setting up drop6
I0403 13:12:50.003134 10505 net.cpp:148] Top shape: 100 4096 (409600)
I0403 13:12:50.003150 10505 net.cpp:156] Memory required for data: 826610800
I0403 13:12:50.003165 10505 layer_factory.hpp:77] Creating layer fc7
I0403 13:12:50.003186 10505 net.cpp:91] Creating Layer fc7
I0403 13:12:50.003203 10505 net.cpp:425] fc7 <- fc6
I0403 13:12:50.003224 10505 net.cpp:399] fc7 -> fc7
I0403 13:12:50.696570 10505 net.cpp:141] Setting up fc7
I0403 13:12:50.696651 10505 net.cpp:148] Top shape: 100 4096 (409600)
I0403 13:12:50.696667 10505 net.cpp:156] Memory required for data: 828249200
I0403 13:12:50.696688 10505 layer_factory.hpp:77] Creating layer relu7
I0403 13:12:50.696710 10505 net.cpp:91] Creating Layer relu7
I0403 13:12:50.696727 10505 net.cpp:425] relu7 <- fc7
I0403 13:12:50.696749 10505 net.cpp:386] relu7 -> fc7 (in-place)
I0403 13:12:52.141921 10505 net.cpp:141] Setting up relu7
I0403 13:12:52.142015 10505 net.cpp:148] Top shape: 100 4096 (409600)
I0403 13:12:52.142098 10505 net.cpp:156] Memory required for data: 829887600
I0403 13:12:52.142150 10505 layer_factory.hpp:77] Creating layer drop7
I0403 13:12:52.142174 10505 net.cpp:91] Creating Layer drop7
I0403 13:12:52.142190 10505 net.cpp:425] drop7 <- fc7
I0403 13:12:52.142213 10505 net.cpp:386] drop7 -> fc7 (in-place)
I0403 13:12:52.142285 10505 net.cpp:141] Setting up drop7
I0403 13:12:52.142321 10505 net.cpp:148] Top shape: 100 4096 (409600)
I0403 13:12:52.142338 10505 net.cpp:156] Memory required for data: 831526000
I0403 13:12:52.142351 10505 layer_factory.hpp:77] Creating layer fc8_plantvillage
I0403 13:12:52.142371 10505 net.cpp:91] Creating Layer fc8_plantvillage
I0403 13:12:52.142386 10505 net.cpp:425] fc8_plantvillage <- fc7
I0403 13:12:52.142406 10505 net.cpp:399] fc8_plantvillage -> fc8_plantvillage
I0403 13:12:52.149442 10505 net.cpp:141] Setting up fc8_plantvillage
I0403 13:12:52.149471 10505 net.cpp:148] Top shape: 100 38 (3800)
I0403 13:12:52.149485 10505 net.cpp:156] Memory required for data: 831541200
I0403 13:12:52.149503 10505 layer_factory.hpp:77] Creating layer fc8_plantvillage_fc8_plantvillage_0_split
I0403 13:12:52.149521 10505 net.cpp:91] Creating Layer fc8_plantvillage_fc8_plantvillage_0_split
I0403 13:12:52.149536 10505 net.cpp:425] fc8_plantvillage_fc8_plantvillage_0_split <- fc8_plantvillage
I0403 13:12:52.149554 10505 net.cpp:399] fc8_plantvillage_fc8_plantvillage_0_split -> fc8_plantvillage_fc8_plantvillage_0_split_0
I0403 13:12:52.149574 10505 net.cpp:399] fc8_plantvillage_fc8_plantvillage_0_split -> fc8_plantvillage_fc8_plantvillage_0_split_1
I0403 13:12:52.149593 10505 net.cpp:399] fc8_plantvillage_fc8_plantvillage_0_split -> fc8_plantvillage_fc8_plantvillage_0_split_2
I0403 13:12:52.149670 10505 net.cpp:141] Setting up fc8_plantvillage_fc8_plantvillage_0_split
I0403 13:12:52.149693 10505 net.cpp:148] Top shape: 100 38 (3800)
I0403 13:12:52.149708 10505 net.cpp:148] Top shape: 100 38 (3800)
I0403 13:12:52.149723 10505 net.cpp:148] Top shape: 100 38 (3800)
I0403 13:12:52.149735 10505 net.cpp:156] Memory required for data: 831586800
I0403 13:12:52.149749 10505 layer_factory.hpp:77] Creating layer prob
I0403 13:12:52.149766 10505 net.cpp:91] Creating Layer prob
I0403 13:12:52.149781 10505 net.cpp:425] prob <- fc8_plantvillage_fc8_plantvillage_0_split_0
I0403 13:12:52.149802 10505 net.cpp:399] prob -> prob
I0403 13:12:52.150023 10505 net.cpp:141] Setting up prob
I0403 13:12:52.150048 10505 net.cpp:148] Top shape: 100 38 (3800)
I0403 13:12:52.150063 10505 net.cpp:156] Memory required for data: 831602000
I0403 13:12:52.150075 10505 layer_factory.hpp:77] Creating layer hdf5out
I0403 13:12:52.150094 10505 net.cpp:91] Creating Layer hdf5out
I0403 13:12:52.150109 10505 net.cpp:425] hdf5out <- prob
I0403 13:12:52.150125 10505 net.cpp:425] hdf5out <- label_data_1_split_0
I0403 13:12:52.155288 10505 net.cpp:141] Setting up hdf5out
…
