…
I0403 13:10:16.021342 10427 net.cpp:313] The NetState phase (1) differed from the phase (0) specified by a rule in layer data
I0403 13:10:16.021682 10427 net.cpp:49] Initializing net from parameters: 
state {
  phase: TEST
}
layer {
  name: "data"
  type: "Data"
  top: "data"
  top: "label"
  include {
    phase: TEST
  }
  transform_param {
    crop_size: 227
    mean_file: "/home/mohanty/data/final_dataset/lmdb/color-80-20/mean.binaryproto"
  }
  data_param {
    source: "/home/mohanty/data/final_dataset/lmdb/color-80-20/test_db"
    batch_size: 100
    backend: LMDB
  }
}
layer {
  name: "conv1"
  type: "Convolution"
  bottom: "data"
  top: "conv1"
  param {
    lr_mult: 1
    decay_mult: 1
  }
  param {
    lr_mult: 2
    decay_mult: 0
  }
  convolution_param {
    num_output: 96
    kernel_size: 11
    stride: 4
    weight_filler {
      type: "gaussian"
      std: 0.01
    }
    bias_filler {
      type: "constant"
      value: 0
    }
  }
}
layer {
  name: "relu1"
  type: "ReLU"
  bottom: "conv1"
  top: "conv1"
}
layer {
  name: "norm1"
  type: "LRN"
  bottom: "conv1"
  top: "norm1"
  lrn_param {
    local_size: 5
    alpha: 0.0001
    beta: 0.75
  }
}
layer {
  name: "pool1"
  type: "Pooling"
  bottom: "norm1"
  top: "pool1"
  pooling_param {
    pool: MAX
    kernel_size: 3
    stride: 2
  }
}
layer {
  name: "conv2"
  type: "Convolution"
  bottom: "pool1"
  top: "conv2"
  param {
    lr_mult: 1
    decay_mult: 1
  }
  param {
    lr_mult: 2
    decay_mult: 0
  }
  convolution_param {
    num_output: 256
    pad: 2
    kernel_size: 5
    group: 2
    weight_filler {
      type: "gaussian"
      std: 0.01
    }
    bias_filler {
      type: "constant"
      value: 0.1
    }
  }
}
layer {
  name: "relu2"
  type: "ReLU"
  bottom: "conv2"
  top: "conv2"
}
layer {
  name: "norm2"
  type: "LRN"
  bottom: "conv2"
  top: "norm2"
  lrn_param {
    local_size: 5
    alpha: 0.0001
    beta: 0.75
  }
}
layer {
  name: "pool2"
  type: "Pooling"
  bottom: "norm2"
  top: "pool2"
  pooling_param {
    pool: MAX
    kernel_size: 3
    stride: 2
  }
}
layer {
  name: "conv3"
  type: "Convolution"
  bottom: "pool2"
  top: "conv3"
  param {
    lr_mult: 1
    decay_mult: 1
  }
  param {
    lr_mult: 2
    decay_mult: 0
  }
  convolution_param {
    num_output: 384
    pad: 1
    kernel_size: 3
    weight_filler {
      type: "gaussian"
      std: 0.01
    }
    bias_filler {
      type: "constant"
      value: 0
    }
  }
}
layer {
  name: "relu3"
  type: "ReLU"
  bottom: "conv3"
  top: "conv3"
}
layer {
  name: "conv4"
  type: "Convolution"
  bottom: "conv3"
  top: "conv4"
  param {
    lr_mult: 1
    decay_mult: 1
  }
  param {
    lr_mult: 2
    decay_mult: 0
  }
  convolution_param {
    num_output: 384
    pad: 1
    kernel_size: 3
    group: 2
    weight_filler {
      type: "gaussian"
      std: 0.01
    }
    bias_filler {
      type: "constant"
      value: 0.1
    }
  }
}
layer {
  name: "relu4"
  type: "ReLU"
  bottom: "conv4"
  top: "conv4"
}
layer {
  name: "conv5"
  type: "Convolution"
  bottom: "conv4"
  top: "conv5"
  param {
    lr_mult: 1
    decay_mult: 1
  }
  param {
    lr_mult: 2
    decay_mult: 0
  }
  convolution_param {
    num_output: 256
    pad: 1
    kernel_size: 3
    group: 2
    weight_filler {
      type: "gaussian"
      std: 0.01
    }
    bias_filler {
      type: "constant"
      value: 0.1
    }
  }
}
layer {
  name: "relu5"
  type: "ReLU"
  bottom: "conv5"
  top: "conv5"
}
layer {
  name: "pool5"
  type: "Pooling"
  bottom: "conv5"
  top: "pool5"
  pooling_param {
    pool: MAX
    kernel_size: 3
    stride: 2
  }
}
layer {
  name: "fc6"
  type: "InnerProduct"
  bottom: "pool5"
  top: "fc6"
  param {
    lr_mult: 1
    decay_mult: 1
  }
  param {
    lr_mult: 2
    decay_mult: 0
  }
  inner_product_param {
    num_output: 4096
    weight_filler {
      type: "gaussian"
      std: 0.005
    }
    bias_filler {
      type: "constant"
      value: 0.1
    }
  }
}
layer {
  name: "relu6"
  type: "ReLU"
  bottom: "fc6"
  top: "fc6"
}
layer {
  name: "drop6"
  type: "Dropout"
  bottom: "fc6"
  top: "fc6"
  dropout_param {
    dropout_ratio: 0.5
  }
}
layer {
  name: "fc7"
  type: "InnerProduct"
  bottom: "fc6"
  top: "fc7"
  param {
    lr_mult: 1
    decay_mult: 1
  }
  param {
    lr_mult: 2
    decay_mult: 0
  }
  inner_product_param {
    num_output: 4096
    weight_filler {
      type: "gaussian"
      std: 0.005
    }
    bias_filler {
      type: "constant"
      value: 0.1
    }
  }
}
layer {
  name: "relu7"
  type: "ReLU"
  bottom: "fc7"
  top: "fc7"
}
layer {
  name: "drop7"
  type: "Dropout"
  bottom: "fc7"
  top: "fc7"
  dropout_param {
    dropout_ratio: 0.5
  }
}
layer {
  name: "fc8_plantvillage"
  type: "InnerProduct"
  bottom: "fc7"
  top: "fc8_plantvillage"
  param {
    lr_mult: 1
    decay_mult: 1
  }
  param {
    lr_mult: 2
    decay_mult: 0
  }
  inner_product_param {
    num_output: 38
    weight_filler {
      type: "gaussian"
      std: 0.01
    }
    bias_filler {
      type: "constant"
      value: 0
    }
  }
}
layer {
  name: "prob"
  type: "Softmax"
  bottom: "fc8_plantvillage"
  top: "prob"
  include {
    phase: TEST
  }
}
layer {
  name: "hdf5out"
  type: "HDF5Output"
  bottom: "prob"
  bottom: "label"
  include {
    phase: TEST
  }
  hdf5_output_param {
    file_name: "hdf5_dumps/iter_1311.h5"
  }
}
layer {
  name: "loss"
  type: "SoftmaxWithLoss"
  bottom: "fc8_plantvillage"
  bottom: "label"
  top: "loss"
}
layer {
  name: "accuracy"
  type: "Accuracy"
  bottom: "fc8_plantvillage"
  bottom: "label"
  top: "accuracy"
  include {
    phase: TEST
  }
}
I0403 13:10:16.022274 10427 layer_factory.hpp:77] Creating layer data
I0403 13:10:16.022951 10427 net.cpp:91] Creating Layer data
I0403 13:10:16.022984 10427 net.cpp:399] data -> data
I0403 13:10:16.023036 10427 net.cpp:399] data -> label
I0403 13:10:16.023073 10427 data_transformer.cpp:25] Loading mean file from: /home/mohanty/data/final_dataset/lmdb/color-80-20/mean.binaryproto
I0403 13:10:16.025668 10430 db_lmdb.cpp:38] Opened lmdb /home/mohanty/data/final_dataset/lmdb/color-80-20/test_db
I0403 13:10:16.058835 10427 data_layer.cpp:41] output data size: 100,3,227,227
I0403 13:10:16.180228 10427 net.cpp:141] Setting up data
I0403 13:10:16.180330 10427 net.cpp:148] Top shape: 100 3 227 227 (15458700)
I0403 13:10:16.180356 10427 net.cpp:148] Top shape: 100 (100)
I0403 13:10:16.180372 10427 net.cpp:156] Memory required for data: 61835200
I0403 13:10:16.180402 10427 layer_factory.hpp:77] Creating layer label_data_1_split
I0403 13:10:16.180428 10427 net.cpp:91] Creating Layer label_data_1_split
I0403 13:10:16.180447 10427 net.cpp:425] label_data_1_split <- label
I0403 13:10:16.180480 10427 net.cpp:399] label_data_1_split -> label_data_1_split_0
I0403 13:10:16.180510 10427 net.cpp:399] label_data_1_split -> label_data_1_split_1
I0403 13:10:16.180531 10427 net.cpp:399] label_data_1_split -> label_data_1_split_2
I0403 13:10:16.180603 10427 net.cpp:141] Setting up label_data_1_split
I0403 13:10:16.180629 10427 net.cpp:148] Top shape: 100 (100)
I0403 13:10:16.180645 10427 net.cpp:148] Top shape: 100 (100)
I0403 13:10:16.180662 10427 net.cpp:148] Top shape: 100 (100)
I0403 13:10:16.180676 10427 net.cpp:156] Memory required for data: 61836400
I0403 13:10:16.180691 10427 layer_factory.hpp:77] Creating layer conv1
I0403 13:10:16.180723 10427 net.cpp:91] Creating Layer conv1
I0403 13:10:16.180742 10427 net.cpp:425] conv1 <- data
I0403 13:10:16.180763 10427 net.cpp:399] conv1 -> conv1
I0403 13:10:16.325634 10427 net.cpp:141] Setting up conv1
I0403 13:10:16.325712 10427 net.cpp:148] Top shape: 100 96 55 55 (29040000)
I0403 13:10:16.325729 10427 net.cpp:156] Memory required for data: 177996400
I0403 13:10:16.325760 10427 layer_factory.hpp:77] Creating layer relu1
I0403 13:10:16.325788 10427 net.cpp:91] Creating Layer relu1
I0403 13:10:16.325806 10427 net.cpp:425] relu1 <- conv1
I0403 13:10:16.325825 10427 net.cpp:386] relu1 -> conv1 (in-place)
I0403 13:10:16.326081 10427 net.cpp:141] Setting up relu1
I0403 13:10:16.326107 10427 net.cpp:148] Top shape: 100 96 55 55 (29040000)
I0403 13:10:16.326122 10427 net.cpp:156] Memory required for data: 294156400
I0403 13:10:16.326171 10427 layer_factory.hpp:77] Creating layer norm1
I0403 13:10:16.326200 10427 net.cpp:91] Creating Layer norm1
I0403 13:10:16.326230 10427 net.cpp:425] norm1 <- conv1
I0403 13:10:16.326249 10427 net.cpp:399] norm1 -> norm1
I0403 13:10:16.326582 10427 net.cpp:141] Setting up norm1
I0403 13:10:16.326609 10427 net.cpp:148] Top shape: 100 96 55 55 (29040000)
I0403 13:10:16.326624 10427 net.cpp:156] Memory required for data: 410316400
I0403 13:10:16.326639 10427 layer_factory.hpp:77] Creating layer pool1
I0403 13:10:16.326661 10427 net.cpp:91] Creating Layer pool1
I0403 13:10:16.326678 10427 net.cpp:425] pool1 <- norm1
I0403 13:10:16.326696 10427 net.cpp:399] pool1 -> pool1
I0403 13:10:16.326771 10427 net.cpp:141] Setting up pool1
I0403 13:10:16.326794 10427 net.cpp:148] Top shape: 100 96 27 27 (6998400)
I0403 13:10:16.326813 10427 net.cpp:156] Memory required for data: 438310000
I0403 13:10:16.326828 10427 layer_factory.hpp:77] Creating layer conv2
I0403 13:10:16.326853 10427 net.cpp:91] Creating Layer conv2
I0403 13:10:16.326869 10427 net.cpp:425] conv2 <- pool1
I0403 13:10:16.326886 10427 net.cpp:399] conv2 -> conv2
I0403 13:10:16.343540 10427 net.cpp:141] Setting up conv2
I0403 13:10:16.343595 10427 net.cpp:148] Top shape: 100 256 27 27 (18662400)
I0403 13:10:16.343614 10427 net.cpp:156] Memory required for data: 512959600
I0403 13:10:16.343639 10427 layer_factory.hpp:77] Creating layer relu2
I0403 13:10:16.343660 10427 net.cpp:91] Creating Layer relu2
I0403 13:10:16.343677 10427 net.cpp:425] relu2 <- conv2
I0403 13:10:16.343695 10427 net.cpp:386] relu2 -> conv2 (in-place)
I0403 13:10:16.343981 10427 net.cpp:141] Setting up relu2
I0403 13:10:16.344012 10427 net.cpp:148] Top shape: 100 256 27 27 (18662400)
I0403 13:10:16.344027 10427 net.cpp:156] Memory required for data: 587609200
I0403 13:10:16.344043 10427 layer_factory.hpp:77] Creating layer norm2
I0403 13:10:16.344063 10427 net.cpp:91] Creating Layer norm2
I0403 13:10:16.344080 10427 net.cpp:425] norm2 <- conv2
I0403 13:10:16.344100 10427 net.cpp:399] norm2 -> norm2
I0403 13:10:16.344301 10427 net.cpp:141] Setting up norm2
I0403 13:10:16.344327 10427 net.cpp:148] Top shape: 100 256 27 27 (18662400)
I0403 13:10:16.344343 10427 net.cpp:156] Memory required for data: 662258800
I0403 13:10:16.344358 10427 layer_factory.hpp:77] Creating layer pool2
I0403 13:10:16.344379 10427 net.cpp:91] Creating Layer pool2
I0403 13:10:16.344396 10427 net.cpp:425] pool2 <- norm2
I0403 13:10:16.344413 10427 net.cpp:399] pool2 -> pool2
I0403 13:10:16.344466 10427 net.cpp:141] Setting up pool2
I0403 13:10:16.344491 10427 net.cpp:148] Top shape: 100 256 13 13 (4326400)
I0403 13:10:16.344506 10427 net.cpp:156] Memory required for data: 679564400
I0403 13:10:16.344521 10427 layer_factory.hpp:77] Creating layer conv3
I0403 13:10:16.344543 10427 net.cpp:91] Creating Layer conv3
I0403 13:10:16.344561 10427 net.cpp:425] conv3 <- pool2
I0403 13:10:16.344597 10427 net.cpp:399] conv3 -> conv3
I0403 13:10:16.389963 10427 net.cpp:141] Setting up conv3
I0403 13:10:16.390040 10427 net.cpp:148] Top shape: 100 384 13 13 (6489600)
I0403 13:10:16.390058 10427 net.cpp:156] Memory required for data: 705522800
I0403 13:10:16.390084 10427 layer_factory.hpp:77] Creating layer relu3
I0403 13:10:16.390110 10427 net.cpp:91] Creating Layer relu3
I0403 13:10:16.390127 10427 net.cpp:425] relu3 <- conv3
I0403 13:10:16.390147 10427 net.cpp:386] relu3 -> conv3 (in-place)
I0403 13:10:16.390431 10427 net.cpp:141] Setting up relu3
I0403 13:10:16.390457 10427 net.cpp:148] Top shape: 100 384 13 13 (6489600)
I0403 13:10:16.390473 10427 net.cpp:156] Memory required for data: 731481200
I0403 13:10:16.390488 10427 layer_factory.hpp:77] Creating layer conv4
I0403 13:10:16.390516 10427 net.cpp:91] Creating Layer conv4
I0403 13:10:16.390535 10427 net.cpp:425] conv4 <- conv3
I0403 13:10:16.390554 10427 net.cpp:399] conv4 -> conv4
I0403 13:10:16.423943 10427 net.cpp:141] Setting up conv4
I0403 13:10:16.424017 10427 net.cpp:148] Top shape: 100 384 13 13 (6489600)
I0403 13:10:16.424072 10427 net.cpp:156] Memory required for data: 757439600
I0403 13:10:16.424098 10427 layer_factory.hpp:77] Creating layer relu4
I0403 13:10:16.424126 10427 net.cpp:91] Creating Layer relu4
I0403 13:10:16.424147 10427 net.cpp:425] relu4 <- conv4
I0403 13:10:16.424166 10427 net.cpp:386] relu4 -> conv4 (in-place)
I0403 13:10:16.424450 10427 net.cpp:141] Setting up relu4
I0403 13:10:16.424477 10427 net.cpp:148] Top shape: 100 384 13 13 (6489600)
I0403 13:10:16.424492 10427 net.cpp:156] Memory required for data: 783398000
I0403 13:10:16.424507 10427 layer_factory.hpp:77] Creating layer conv5
I0403 13:10:16.424531 10427 net.cpp:91] Creating Layer conv5
I0403 13:10:16.424549 10427 net.cpp:425] conv5 <- conv4
I0403 13:10:16.424582 10427 net.cpp:399] conv5 -> conv5
I0403 13:10:16.447655 10427 net.cpp:141] Setting up conv5
I0403 13:10:16.447710 10427 net.cpp:148] Top shape: 100 256 13 13 (4326400)
I0403 13:10:16.447728 10427 net.cpp:156] Memory required for data: 800703600
I0403 13:10:16.447756 10427 layer_factory.hpp:77] Creating layer relu5
I0403 13:10:16.447778 10427 net.cpp:91] Creating Layer relu5
I0403 13:10:16.447795 10427 net.cpp:425] relu5 <- conv5
I0403 13:10:16.447813 10427 net.cpp:386] relu5 -> conv5 (in-place)
I0403 13:10:16.448104 10427 net.cpp:141] Setting up relu5
I0403 13:10:16.448133 10427 net.cpp:148] Top shape: 100 256 13 13 (4326400)
I0403 13:10:16.448156 10427 net.cpp:156] Memory required for data: 818009200
I0403 13:10:16.448171 10427 layer_factory.hpp:77] Creating layer pool5
I0403 13:10:16.448202 10427 net.cpp:91] Creating Layer pool5
I0403 13:10:16.448220 10427 net.cpp:425] pool5 <- conv5
I0403 13:10:16.448241 10427 net.cpp:399] pool5 -> pool5
I0403 13:10:16.448304 10427 net.cpp:141] Setting up pool5
I0403 13:10:16.448328 10427 net.cpp:148] Top shape: 100 256 6 6 (921600)
I0403 13:10:16.448343 10427 net.cpp:156] Memory required for data: 821695600
I0403 13:10:16.448357 10427 layer_factory.hpp:77] Creating layer fc6
I0403 13:10:16.448386 10427 net.cpp:91] Creating Layer fc6
I0403 13:10:16.448405 10427 net.cpp:425] fc6 <- pool5
I0403 13:10:16.448426 10427 net.cpp:399] fc6 -> fc6
I0403 13:10:18.201145 10427 net.cpp:141] Setting up fc6
I0403 13:10:18.201220 10427 net.cpp:148] Top shape: 100 4096 (409600)
I0403 13:10:18.201236 10427 net.cpp:156] Memory required for data: 823334000
I0403 13:10:18.201258 10427 layer_factory.hpp:77] Creating layer relu6
I0403 13:10:18.201280 10427 net.cpp:91] Creating Layer relu6
I0403 13:10:18.201299 10427 net.cpp:425] relu6 <- fc6
I0403 13:10:18.201321 10427 net.cpp:386] relu6 -> fc6 (in-place)
I0403 13:10:18.201555 10427 net.cpp:141] Setting up relu6
I0403 13:10:18.201586 10427 net.cpp:148] Top shape: 100 4096 (409600)
I0403 13:10:18.201601 10427 net.cpp:156] Memory required for data: 824972400
I0403 13:10:18.201617 10427 layer_factory.hpp:77] Creating layer drop6
I0403 13:10:18.201638 10427 net.cpp:91] Creating Layer drop6
I0403 13:10:18.201655 10427 net.cpp:425] drop6 <- fc6
I0403 13:10:18.201673 10427 net.cpp:386] drop6 -> fc6 (in-place)
I0403 13:10:18.201725 10427 net.cpp:141] Setting up drop6
I0403 13:10:18.201748 10427 net.cpp:148] Top shape: 100 4096 (409600)
I0403 13:10:18.201763 10427 net.cpp:156] Memory required for data: 826610800
I0403 13:10:18.201779 10427 layer_factory.hpp:77] Creating layer fc7
I0403 13:10:18.201802 10427 net.cpp:91] Creating Layer fc7
I0403 13:10:18.201818 10427 net.cpp:425] fc7 <- fc6
I0403 13:10:18.201836 10427 net.cpp:399] fc7 -> fc7
I0403 13:10:18.982758 10427 net.cpp:141] Setting up fc7
I0403 13:10:18.982800 10427 net.cpp:148] Top shape: 100 4096 (409600)
I0403 13:10:18.982816 10427 net.cpp:156] Memory required for data: 828249200
I0403 13:10:18.982836 10427 layer_factory.hpp:77] Creating layer relu7
I0403 13:10:18.982861 10427 net.cpp:91] Creating Layer relu7
I0403 13:10:18.982879 10427 net.cpp:425] relu7 <- fc7
I0403 13:10:18.982898 10427 net.cpp:386] relu7 -> fc7 (in-place)
I0403 13:10:18.983306 10427 net.cpp:141] Setting up relu7
I0403 13:10:18.983332 10427 net.cpp:148] Top shape: 100 4096 (409600)
I0403 13:10:18.983382 10427 net.cpp:156] Memory required for data: 829887600
I0403 13:10:18.983399 10427 layer_factory.hpp:77] Creating layer drop7
I0403 13:10:18.983420 10427 net.cpp:91] Creating Layer drop7
I0403 13:10:18.983438 10427 net.cpp:425] drop7 <- fc7
I0403 13:10:18.983453 10427 net.cpp:386] drop7 -> fc7 (in-place)
I0403 13:10:18.983499 10427 net.cpp:141] Setting up drop7
I0403 13:10:18.983523 10427 net.cpp:148] Top shape: 100 4096 (409600)
I0403 13:10:18.983537 10427 net.cpp:156] Memory required for data: 831526000
I0403 13:10:18.983551 10427 layer_factory.hpp:77] Creating layer fc8_plantvillage
I0403 13:10:18.983575 10427 net.cpp:91] Creating Layer fc8_plantvillage
I0403 13:10:18.983592 10427 net.cpp:425] fc8_plantvillage <- fc7
I0403 13:10:18.983613 10427 net.cpp:399] fc8_plantvillage -> fc8_plantvillage
I0403 13:10:18.991089 10427 net.cpp:141] Setting up fc8_plantvillage
I0403 13:10:18.991120 10427 net.cpp:148] Top shape: 100 38 (3800)
I0403 13:10:18.991137 10427 net.cpp:156] Memory required for data: 831541200
I0403 13:10:18.991154 10427 layer_factory.hpp:77] Creating layer fc8_plantvillage_fc8_plantvillage_0_split
I0403 13:10:18.991173 10427 net.cpp:91] Creating Layer fc8_plantvillage_fc8_plantvillage_0_split
I0403 13:10:18.991188 10427 net.cpp:425] fc8_plantvillage_fc8_plantvillage_0_split <- fc8_plantvillage
I0403 13:10:18.991204 10427 net.cpp:399] fc8_plantvillage_fc8_plantvillage_0_split -> fc8_plantvillage_fc8_plantvillage_0_split_0
I0403 13:10:18.991224 10427 net.cpp:399] fc8_plantvillage_fc8_plantvillage_0_split -> fc8_plantvillage_fc8_plantvillage_0_split_1
I0403 13:10:18.991245 10427 net.cpp:399] fc8_plantvillage_fc8_plantvillage_0_split -> fc8_plantvillage_fc8_plantvillage_0_split_2
I0403 13:10:18.991324 10427 net.cpp:141] Setting up fc8_plantvillage_fc8_plantvillage_0_split
I0403 13:10:18.991348 10427 net.cpp:148] Top shape: 100 38 (3800)
I0403 13:10:18.991364 10427 net.cpp:148] Top shape: 100 38 (3800)
I0403 13:10:18.991379 10427 net.cpp:148] Top shape: 100 38 (3800)
I0403 13:10:18.991394 10427 net.cpp:156] Memory required for data: 831586800
I0403 13:10:18.991407 10427 layer_factory.hpp:77] Creating layer prob
I0403 13:10:18.991425 10427 net.cpp:91] Creating Layer prob
I0403 13:10:18.991441 10427 net.cpp:425] prob <- fc8_plantvillage_fc8_plantvillage_0_split_0
I0403 13:10:18.991457 10427 net.cpp:399] prob -> prob
I0403 13:10:18.991686 10427 net.cpp:141] Setting up prob
I0403 13:10:18.991713 10427 net.cpp:148] Top shape: 100 38 (3800)
I0403 13:10:18.991726 10427 net.cpp:156] Memory required for data: 831602000
I0403 13:10:18.991740 10427 layer_factory.hpp:77] Creating layer hdf5out
I0403 13:10:18.991762 10427 net.cpp:91] Creating Layer hdf5out
I0403 13:10:18.991778 10427 net.cpp:425] hdf5out <- prob
I0403 13:10:18.991796 10427 net.cpp:425] hdf5out <- label_data_1_split_0
I0403 13:10:18.994369 10427 net.cpp:141] Setting up hdf5out
…
