…
I0403 13:10:41.556162 10438 net.cpp:313] The NetState phase (1) differed from the phase (0) specified by a rule in layer data
I0403 13:10:41.556453 10438 net.cpp:49] Initializing net from parameters: 
state {
  phase: TEST
}
layer {
  name: "data"
  type: "Data"
  top: "data"
  top: "label"
  include {
    phase: TEST
  }
  transform_param {
    crop_size: 227
    mean_file: "/home/mohanty/data/final_dataset/lmdb/color-80-20/mean.binaryproto"
  }
  data_param {
    source: "/home/mohanty/data/final_dataset/lmdb/color-80-20/test_db"
    batch_size: 100
    backend: LMDB
  }
}
layer {
  name: "conv1"
  type: "Convolution"
  bottom: "data"
  top: "conv1"
  param {
    lr_mult: 1
    decay_mult: 1
  }
  param {
    lr_mult: 2
    decay_mult: 0
  }
  convolution_param {
    num_output: 96
    kernel_size: 11
    stride: 4
    weight_filler {
      type: "gaussian"
      std: 0.01
    }
    bias_filler {
      type: "constant"
      value: 0
    }
  }
}
layer {
  name: "relu1"
  type: "ReLU"
  bottom: "conv1"
  top: "conv1"
}
layer {
  name: "norm1"
  type: "LRN"
  bottom: "conv1"
  top: "norm1"
  lrn_param {
    local_size: 5
    alpha: 0.0001
    beta: 0.75
  }
}
layer {
  name: "pool1"
  type: "Pooling"
  bottom: "norm1"
  top: "pool1"
  pooling_param {
    pool: MAX
    kernel_size: 3
    stride: 2
  }
}
layer {
  name: "conv2"
  type: "Convolution"
  bottom: "pool1"
  top: "conv2"
  param {
    lr_mult: 1
    decay_mult: 1
  }
  param {
    lr_mult: 2
    decay_mult: 0
  }
  convolution_param {
    num_output: 256
    pad: 2
    kernel_size: 5
    group: 2
    weight_filler {
      type: "gaussian"
      std: 0.01
    }
    bias_filler {
      type: "constant"
      value: 0.1
    }
  }
}
layer {
  name: "relu2"
  type: "ReLU"
  bottom: "conv2"
  top: "conv2"
}
layer {
  name: "norm2"
  type: "LRN"
  bottom: "conv2"
  top: "norm2"
  lrn_param {
    local_size: 5
    alpha: 0.0001
    beta: 0.75
  }
}
layer {
  name: "pool2"
  type: "Pooling"
  bottom: "norm2"
  top: "pool2"
  pooling_param {
    pool: MAX
    kernel_size: 3
    stride: 2
  }
}
layer {
  name: "conv3"
  type: "Convolution"
  bottom: "pool2"
  top: "conv3"
  param {
    lr_mult: 1
    decay_mult: 1
  }
  param {
    lr_mult: 2
    decay_mult: 0
  }
  convolution_param {
    num_output: 384
    pad: 1
    kernel_size: 3
    weight_filler {
      type: "gaussian"
      std: 0.01
    }
    bias_filler {
      type: "constant"
      value: 0
    }
  }
}
layer {
  name: "relu3"
  type: "ReLU"
  bottom: "conv3"
  top: "conv3"
}
layer {
  name: "conv4"
  type: "Convolution"
  bottom: "conv3"
  top: "conv4"
  param {
    lr_mult: 1
    decay_mult: 1
  }
  param {
    lr_mult: 2
    decay_mult: 0
  }
  convolution_param {
    num_output: 384
    pad: 1
    kernel_size: 3
    group: 2
    weight_filler {
      type: "gaussian"
      std: 0.01
    }
    bias_filler {
      type: "constant"
      value: 0.1
    }
  }
}
layer {
  name: "relu4"
  type: "ReLU"
  bottom: "conv4"
  top: "conv4"
}
layer {
  name: "conv5"
  type: "Convolution"
  bottom: "conv4"
  top: "conv5"
  param {
    lr_mult: 1
    decay_mult: 1
  }
  param {
    lr_mult: 2
    decay_mult: 0
  }
  convolution_param {
    num_output: 256
    pad: 1
    kernel_size: 3
    group: 2
    weight_filler {
      type: "gaussian"
      std: 0.01
    }
    bias_filler {
      type: "constant"
      value: 0.1
    }
  }
}
layer {
  name: "relu5"
  type: "ReLU"
  bottom: "conv5"
  top: "conv5"
}
layer {
  name: "pool5"
  type: "Pooling"
  bottom: "conv5"
  top: "pool5"
  pooling_param {
    pool: MAX
    kernel_size: 3
    stride: 2
  }
}
layer {
  name: "fc6"
  type: "InnerProduct"
  bottom: "pool5"
  top: "fc6"
  param {
    lr_mult: 1
    decay_mult: 1
  }
  param {
    lr_mult: 2
    decay_mult: 0
  }
  inner_product_param {
    num_output: 4096
    weight_filler {
      type: "gaussian"
      std: 0.005
    }
    bias_filler {
      type: "constant"
      value: 0.1
    }
  }
}
layer {
  name: "relu6"
  type: "ReLU"
  bottom: "fc6"
  top: "fc6"
}
layer {
  name: "drop6"
  type: "Dropout"
  bottom: "fc6"
  top: "fc6"
  dropout_param {
    dropout_ratio: 0.5
  }
}
layer {
  name: "fc7"
  type: "InnerProduct"
  bottom: "fc6"
  top: "fc7"
  param {
    lr_mult: 1
    decay_mult: 1
  }
  param {
    lr_mult: 2
    decay_mult: 0
  }
  inner_product_param {
    num_output: 4096
    weight_filler {
      type: "gaussian"
      std: 0.005
    }
    bias_filler {
      type: "constant"
      value: 0.1
    }
  }
}
layer {
  name: "relu7"
  type: "ReLU"
  bottom: "fc7"
  top: "fc7"
}
layer {
  name: "drop7"
  type: "Dropout"
  bottom: "fc7"
  top: "fc7"
  dropout_param {
    dropout_ratio: 0.5
  }
}
layer {
  name: "fc8_plantvillage"
  type: "InnerProduct"
  bottom: "fc7"
  top: "fc8_plantvillage"
  param {
    lr_mult: 1
    decay_mult: 1
  }
  param {
    lr_mult: 2
    decay_mult: 0
  }
  inner_product_param {
    num_output: 38
    weight_filler {
      type: "gaussian"
      std: 0.01
    }
    bias_filler {
      type: "constant"
      value: 0
    }
  }
}
layer {
  name: "prob"
  type: "Softmax"
  bottom: "fc8_plantvillage"
  top: "prob"
  include {
    phase: TEST
  }
}
layer {
  name: "hdf5out"
  type: "HDF5Output"
  bottom: "prob"
  bottom: "label"
  include {
    phase: TEST
  }
  hdf5_output_param {
    file_name: "hdf5_dumps/iter_1748.h5"
  }
}
layer {
  name: "loss"
  type: "SoftmaxWithLoss"
  bottom: "fc8_plantvillage"
  bottom: "label"
  top: "loss"
}
layer {
  name: "accuracy"
  type: "Accuracy"
  bottom: "fc8_plantvillage"
  bottom: "label"
  top: "accuracy"
  include {
    phase: TEST
  }
}
I0403 13:10:41.557104 10438 layer_factory.hpp:77] Creating layer data
I0403 13:10:41.557781 10438 net.cpp:91] Creating Layer data
I0403 13:10:41.557814 10438 net.cpp:399] data -> data
I0403 13:10:41.557864 10438 net.cpp:399] data -> label
I0403 13:10:41.557899 10438 data_transformer.cpp:25] Loading mean file from: /home/mohanty/data/final_dataset/lmdb/color-80-20/mean.binaryproto
I0403 13:10:41.560904 10441 db_lmdb.cpp:38] Opened lmdb /home/mohanty/data/final_dataset/lmdb/color-80-20/test_db
I0403 13:10:41.572650 10438 data_layer.cpp:41] output data size: 100,3,227,227
I0403 13:10:41.691397 10438 net.cpp:141] Setting up data
I0403 13:10:41.691455 10438 net.cpp:148] Top shape: 100 3 227 227 (15458700)
I0403 13:10:41.691476 10438 net.cpp:148] Top shape: 100 (100)
I0403 13:10:41.691491 10438 net.cpp:156] Memory required for data: 61835200
I0403 13:10:41.691519 10438 layer_factory.hpp:77] Creating layer label_data_1_split
I0403 13:10:41.691543 10438 net.cpp:91] Creating Layer label_data_1_split
I0403 13:10:41.691561 10438 net.cpp:425] label_data_1_split <- label
I0403 13:10:41.691598 10438 net.cpp:399] label_data_1_split -> label_data_1_split_0
I0403 13:10:41.691625 10438 net.cpp:399] label_data_1_split -> label_data_1_split_1
I0403 13:10:41.691645 10438 net.cpp:399] label_data_1_split -> label_data_1_split_2
I0403 13:10:41.691718 10438 net.cpp:141] Setting up label_data_1_split
I0403 13:10:41.691740 10438 net.cpp:148] Top shape: 100 (100)
I0403 13:10:41.691756 10438 net.cpp:148] Top shape: 100 (100)
I0403 13:10:41.691771 10438 net.cpp:148] Top shape: 100 (100)
I0403 13:10:41.691784 10438 net.cpp:156] Memory required for data: 61836400
I0403 13:10:41.691807 10438 layer_factory.hpp:77] Creating layer conv1
I0403 13:10:41.691838 10438 net.cpp:91] Creating Layer conv1
I0403 13:10:41.691856 10438 net.cpp:425] conv1 <- data
I0403 13:10:41.691884 10438 net.cpp:399] conv1 -> conv1
I0403 13:10:41.837069 10438 net.cpp:141] Setting up conv1
I0403 13:10:41.837146 10438 net.cpp:148] Top shape: 100 96 55 55 (29040000)
I0403 13:10:41.837163 10438 net.cpp:156] Memory required for data: 177996400
I0403 13:10:41.837194 10438 layer_factory.hpp:77] Creating layer relu1
I0403 13:10:41.837221 10438 net.cpp:91] Creating Layer relu1
I0403 13:10:41.837240 10438 net.cpp:425] relu1 <- conv1
I0403 13:10:41.837258 10438 net.cpp:386] relu1 -> conv1 (in-place)
I0403 13:10:41.837522 10438 net.cpp:141] Setting up relu1
I0403 13:10:41.837549 10438 net.cpp:148] Top shape: 100 96 55 55 (29040000)
I0403 13:10:41.837565 10438 net.cpp:156] Memory required for data: 294156400
I0403 13:10:41.837625 10438 layer_factory.hpp:77] Creating layer norm1
I0403 13:10:41.837653 10438 net.cpp:91] Creating Layer norm1
I0403 13:10:41.837672 10438 net.cpp:425] norm1 <- conv1
I0403 13:10:41.837689 10438 net.cpp:399] norm1 -> norm1
I0403 13:10:41.838006 10438 net.cpp:141] Setting up norm1
I0403 13:10:41.838033 10438 net.cpp:148] Top shape: 100 96 55 55 (29040000)
I0403 13:10:41.838049 10438 net.cpp:156] Memory required for data: 410316400
I0403 13:10:41.838064 10438 layer_factory.hpp:77] Creating layer pool1
I0403 13:10:41.838088 10438 net.cpp:91] Creating Layer pool1
I0403 13:10:41.838104 10438 net.cpp:425] pool1 <- norm1
I0403 13:10:41.838121 10438 net.cpp:399] pool1 -> pool1
I0403 13:10:41.838189 10438 net.cpp:141] Setting up pool1
I0403 13:10:41.838213 10438 net.cpp:148] Top shape: 100 96 27 27 (6998400)
I0403 13:10:41.838228 10438 net.cpp:156] Memory required for data: 438310000
I0403 13:10:41.838243 10438 layer_factory.hpp:77] Creating layer conv2
I0403 13:10:41.838266 10438 net.cpp:91] Creating Layer conv2
I0403 13:10:41.838282 10438 net.cpp:425] conv2 <- pool1
I0403 13:10:41.838300 10438 net.cpp:399] conv2 -> conv2
I0403 13:10:41.853462 10438 net.cpp:141] Setting up conv2
I0403 13:10:41.853516 10438 net.cpp:148] Top shape: 100 256 27 27 (18662400)
I0403 13:10:41.853533 10438 net.cpp:156] Memory required for data: 512959600
I0403 13:10:41.853565 10438 layer_factory.hpp:77] Creating layer relu2
I0403 13:10:41.853591 10438 net.cpp:91] Creating Layer relu2
I0403 13:10:41.853608 10438 net.cpp:425] relu2 <- conv2
I0403 13:10:41.853626 10438 net.cpp:386] relu2 -> conv2 (in-place)
I0403 13:10:41.853911 10438 net.cpp:141] Setting up relu2
I0403 13:10:41.853938 10438 net.cpp:148] Top shape: 100 256 27 27 (18662400)
I0403 13:10:41.853955 10438 net.cpp:156] Memory required for data: 587609200
I0403 13:10:41.853970 10438 layer_factory.hpp:77] Creating layer norm2
I0403 13:10:41.853991 10438 net.cpp:91] Creating Layer norm2
I0403 13:10:41.854007 10438 net.cpp:425] norm2 <- conv2
I0403 13:10:41.854025 10438 net.cpp:399] norm2 -> norm2
I0403 13:10:41.854213 10438 net.cpp:141] Setting up norm2
I0403 13:10:41.854238 10438 net.cpp:148] Top shape: 100 256 27 27 (18662400)
I0403 13:10:41.854254 10438 net.cpp:156] Memory required for data: 662258800
I0403 13:10:41.854269 10438 layer_factory.hpp:77] Creating layer pool2
I0403 13:10:41.854290 10438 net.cpp:91] Creating Layer pool2
I0403 13:10:41.854305 10438 net.cpp:425] pool2 <- norm2
I0403 13:10:41.854322 10438 net.cpp:399] pool2 -> pool2
I0403 13:10:41.854372 10438 net.cpp:141] Setting up pool2
I0403 13:10:41.854395 10438 net.cpp:148] Top shape: 100 256 13 13 (4326400)
I0403 13:10:41.854409 10438 net.cpp:156] Memory required for data: 679564400
I0403 13:10:41.854423 10438 layer_factory.hpp:77] Creating layer conv3
I0403 13:10:41.854451 10438 net.cpp:91] Creating Layer conv3
I0403 13:10:41.854468 10438 net.cpp:425] conv3 <- pool2
I0403 13:10:41.854487 10438 net.cpp:399] conv3 -> conv3
I0403 13:10:41.893795 10438 net.cpp:141] Setting up conv3
I0403 13:10:41.893862 10438 net.cpp:148] Top shape: 100 384 13 13 (6489600)
I0403 13:10:41.893878 10438 net.cpp:156] Memory required for data: 705522800
I0403 13:10:41.893903 10438 layer_factory.hpp:77] Creating layer relu3
I0403 13:10:41.893925 10438 net.cpp:91] Creating Layer relu3
I0403 13:10:41.893942 10438 net.cpp:425] relu3 <- conv3
I0403 13:10:41.893965 10438 net.cpp:386] relu3 -> conv3 (in-place)
I0403 13:10:41.894238 10438 net.cpp:141] Setting up relu3
I0403 13:10:41.894265 10438 net.cpp:148] Top shape: 100 384 13 13 (6489600)
I0403 13:10:41.894280 10438 net.cpp:156] Memory required for data: 731481200
I0403 13:10:41.894294 10438 layer_factory.hpp:77] Creating layer conv4
I0403 13:10:41.894320 10438 net.cpp:91] Creating Layer conv4
I0403 13:10:41.894336 10438 net.cpp:425] conv4 <- conv3
I0403 13:10:41.894357 10438 net.cpp:399] conv4 -> conv4
I0403 13:10:41.924531 10438 net.cpp:141] Setting up conv4
I0403 13:10:41.924613 10438 net.cpp:148] Top shape: 100 384 13 13 (6489600)
I0403 13:10:41.924662 10438 net.cpp:156] Memory required for data: 757439600
I0403 13:10:41.924685 10438 layer_factory.hpp:77] Creating layer relu4
I0403 13:10:41.924706 10438 net.cpp:91] Creating Layer relu4
I0403 13:10:41.924722 10438 net.cpp:425] relu4 <- conv4
I0403 13:10:41.924744 10438 net.cpp:386] relu4 -> conv4 (in-place)
I0403 13:10:41.925017 10438 net.cpp:141] Setting up relu4
I0403 13:10:41.925046 10438 net.cpp:148] Top shape: 100 384 13 13 (6489600)
I0403 13:10:41.925061 10438 net.cpp:156] Memory required for data: 783398000
I0403 13:10:41.925076 10438 layer_factory.hpp:77] Creating layer conv5
I0403 13:10:41.925101 10438 net.cpp:91] Creating Layer conv5
I0403 13:10:41.925117 10438 net.cpp:425] conv5 <- conv4
I0403 13:10:41.925137 10438 net.cpp:399] conv5 -> conv5
I0403 13:10:41.945919 10438 net.cpp:141] Setting up conv5
I0403 13:10:41.945969 10438 net.cpp:148] Top shape: 100 256 13 13 (4326400)
I0403 13:10:41.945986 10438 net.cpp:156] Memory required for data: 800703600
I0403 13:10:41.946010 10438 layer_factory.hpp:77] Creating layer relu5
I0403 13:10:41.946030 10438 net.cpp:91] Creating Layer relu5
I0403 13:10:41.946048 10438 net.cpp:425] relu5 <- conv5
I0403 13:10:41.946069 10438 net.cpp:386] relu5 -> conv5 (in-place)
I0403 13:10:41.946352 10438 net.cpp:141] Setting up relu5
I0403 13:10:41.946379 10438 net.cpp:148] Top shape: 100 256 13 13 (4326400)
I0403 13:10:41.946394 10438 net.cpp:156] Memory required for data: 818009200
I0403 13:10:41.946409 10438 layer_factory.hpp:77] Creating layer pool5
I0403 13:10:41.946434 10438 net.cpp:91] Creating Layer pool5
I0403 13:10:41.946450 10438 net.cpp:425] pool5 <- conv5
I0403 13:10:41.946468 10438 net.cpp:399] pool5 -> pool5
I0403 13:10:41.946538 10438 net.cpp:141] Setting up pool5
I0403 13:10:41.946562 10438 net.cpp:148] Top shape: 100 256 6 6 (921600)
I0403 13:10:41.946581 10438 net.cpp:156] Memory required for data: 821695600
I0403 13:10:41.946598 10438 layer_factory.hpp:77] Creating layer fc6
I0403 13:10:41.946624 10438 net.cpp:91] Creating Layer fc6
I0403 13:10:41.946641 10438 net.cpp:425] fc6 <- pool5
I0403 13:10:41.946661 10438 net.cpp:399] fc6 -> fc6
I0403 13:10:43.544313 10438 net.cpp:141] Setting up fc6
I0403 13:10:43.544375 10438 net.cpp:148] Top shape: 100 4096 (409600)
I0403 13:10:43.544390 10438 net.cpp:156] Memory required for data: 823334000
I0403 13:10:43.544410 10438 layer_factory.hpp:77] Creating layer relu6
I0403 13:10:43.544435 10438 net.cpp:91] Creating Layer relu6
I0403 13:10:43.544451 10438 net.cpp:425] relu6 <- fc6
I0403 13:10:43.544471 10438 net.cpp:386] relu6 -> fc6 (in-place)
I0403 13:10:43.544705 10438 net.cpp:141] Setting up relu6
I0403 13:10:43.544729 10438 net.cpp:148] Top shape: 100 4096 (409600)
I0403 13:10:43.544744 10438 net.cpp:156] Memory required for data: 824972400
I0403 13:10:43.544757 10438 layer_factory.hpp:77] Creating layer drop6
I0403 13:10:43.544775 10438 net.cpp:91] Creating Layer drop6
I0403 13:10:43.544790 10438 net.cpp:425] drop6 <- fc6
I0403 13:10:43.544807 10438 net.cpp:386] drop6 -> fc6 (in-place)
I0403 13:10:43.544858 10438 net.cpp:141] Setting up drop6
I0403 13:10:43.544883 10438 net.cpp:148] Top shape: 100 4096 (409600)
I0403 13:10:43.544898 10438 net.cpp:156] Memory required for data: 826610800
I0403 13:10:43.544912 10438 layer_factory.hpp:77] Creating layer fc7
I0403 13:10:43.544931 10438 net.cpp:91] Creating Layer fc7
I0403 13:10:43.544946 10438 net.cpp:425] fc7 <- fc6
I0403 13:10:43.544965 10438 net.cpp:399] fc7 -> fc7
I0403 13:10:44.237596 10438 net.cpp:141] Setting up fc7
I0403 13:10:44.237639 10438 net.cpp:148] Top shape: 100 4096 (409600)
I0403 13:10:44.237654 10438 net.cpp:156] Memory required for data: 828249200
I0403 13:10:44.237674 10438 layer_factory.hpp:77] Creating layer relu7
I0403 13:10:44.237695 10438 net.cpp:91] Creating Layer relu7
I0403 13:10:44.237712 10438 net.cpp:425] relu7 <- fc7
I0403 13:10:44.237733 10438 net.cpp:386] relu7 -> fc7 (in-place)
I0403 13:10:44.238148 10438 net.cpp:141] Setting up relu7
I0403 13:10:44.238174 10438 net.cpp:148] Top shape: 100 4096 (409600)
I0403 13:10:44.238229 10438 net.cpp:156] Memory required for data: 829887600
I0403 13:10:44.238243 10438 layer_factory.hpp:77] Creating layer drop7
I0403 13:10:44.238262 10438 net.cpp:91] Creating Layer drop7
I0403 13:10:44.238278 10438 net.cpp:425] drop7 <- fc7
I0403 13:10:44.238297 10438 net.cpp:386] drop7 -> fc7 (in-place)
I0403 13:10:44.238339 10438 net.cpp:141] Setting up drop7
I0403 13:10:44.238360 10438 net.cpp:148] Top shape: 100 4096 (409600)
I0403 13:10:44.238374 10438 net.cpp:156] Memory required for data: 831526000
I0403 13:10:44.238389 10438 layer_factory.hpp:77] Creating layer fc8_plantvillage
I0403 13:10:44.238409 10438 net.cpp:91] Creating Layer fc8_plantvillage
I0403 13:10:44.238425 10438 net.cpp:425] fc8_plantvillage <- fc7
I0403 13:10:44.238445 10438 net.cpp:399] fc8_plantvillage -> fc8_plantvillage
I0403 13:10:44.245242 10438 net.cpp:141] Setting up fc8_plantvillage
I0403 13:10:44.245270 10438 net.cpp:148] Top shape: 100 38 (3800)
I0403 13:10:44.245285 10438 net.cpp:156] Memory required for data: 831541200
I0403 13:10:44.245302 10438 layer_factory.hpp:77] Creating layer fc8_plantvillage_fc8_plantvillage_0_split
I0403 13:10:44.245321 10438 net.cpp:91] Creating Layer fc8_plantvillage_fc8_plantvillage_0_split
I0403 13:10:44.245334 10438 net.cpp:425] fc8_plantvillage_fc8_plantvillage_0_split <- fc8_plantvillage
I0403 13:10:44.245353 10438 net.cpp:399] fc8_plantvillage_fc8_plantvillage_0_split -> fc8_plantvillage_fc8_plantvillage_0_split_0
I0403 13:10:44.245373 10438 net.cpp:399] fc8_plantvillage_fc8_plantvillage_0_split -> fc8_plantvillage_fc8_plantvillage_0_split_1
I0403 13:10:44.245393 10438 net.cpp:399] fc8_plantvillage_fc8_plantvillage_0_split -> fc8_plantvillage_fc8_plantvillage_0_split_2
I0403 13:10:44.245466 10438 net.cpp:141] Setting up fc8_plantvillage_fc8_plantvillage_0_split
I0403 13:10:44.245489 10438 net.cpp:148] Top shape: 100 38 (3800)
I0403 13:10:44.245504 10438 net.cpp:148] Top shape: 100 38 (3800)
I0403 13:10:44.245519 10438 net.cpp:148] Top shape: 100 38 (3800)
I0403 13:10:44.245532 10438 net.cpp:156] Memory required for data: 831586800
I0403 13:10:44.245545 10438 layer_factory.hpp:77] Creating layer prob
I0403 13:10:44.245563 10438 net.cpp:91] Creating Layer prob
I0403 13:10:44.245584 10438 net.cpp:425] prob <- fc8_plantvillage_fc8_plantvillage_0_split_0
I0403 13:10:44.245604 10438 net.cpp:399] prob -> prob
I0403 13:10:44.245820 10438 net.cpp:141] Setting up prob
I0403 13:10:44.245848 10438 net.cpp:148] Top shape: 100 38 (3800)
I0403 13:10:44.245862 10438 net.cpp:156] Memory required for data: 831602000
I0403 13:10:44.245877 10438 layer_factory.hpp:77] Creating layer hdf5out
I0403 13:10:44.245895 10438 net.cpp:91] Creating Layer hdf5out
I0403 13:10:44.245909 10438 net.cpp:425] hdf5out <- prob
I0403 13:10:44.245925 10438 net.cpp:425] hdf5out <- label_data_1_split_0
I0403 13:10:44.526110 10438 net.cpp:141] Setting up hdf5out
…
