…
I0403 13:18:42.999423 10824 net.cpp:313] The NetState phase (1) differed from the phase (0) specified by a rule in layer data
I0403 13:18:42.999758 10824 net.cpp:49] Initializing net from parameters: 
state {
  phase: TEST
}
layer {
  name: "data"
  type: "Data"
  top: "data"
  top: "label"
  include {
    phase: TEST
  }
  transform_param {
    crop_size: 227
    mean_file: "/home/mohanty/data/final_dataset/lmdb/color-80-20/mean.binaryproto"
  }
  data_param {
    source: "/home/mohanty/data/final_dataset/lmdb/color-80-20/test_db"
    batch_size: 100
    backend: LMDB
  }
}
layer {
  name: "conv1"
  type: "Convolution"
  bottom: "data"
  top: "conv1"
  param {
    lr_mult: 1
    decay_mult: 1
  }
  param {
    lr_mult: 2
    decay_mult: 0
  }
  convolution_param {
    num_output: 96
    kernel_size: 11
    stride: 4
    weight_filler {
      type: "gaussian"
      std: 0.01
    }
    bias_filler {
      type: "constant"
      value: 0
    }
  }
}
layer {
  name: "relu1"
  type: "ReLU"
  bottom: "conv1"
  top: "conv1"
}
layer {
  name: "norm1"
  type: "LRN"
  bottom: "conv1"
  top: "norm1"
  lrn_param {
    local_size: 5
    alpha: 0.0001
    beta: 0.75
  }
}
layer {
  name: "pool1"
  type: "Pooling"
  bottom: "norm1"
  top: "pool1"
  pooling_param {
    pool: MAX
    kernel_size: 3
    stride: 2
  }
}
layer {
  name: "conv2"
  type: "Convolution"
  bottom: "pool1"
  top: "conv2"
  param {
    lr_mult: 1
    decay_mult: 1
  }
  param {
    lr_mult: 2
    decay_mult: 0
  }
  convolution_param {
    num_output: 256
    pad: 2
    kernel_size: 5
    group: 2
    weight_filler {
      type: "gaussian"
      std: 0.01
    }
    bias_filler {
      type: "constant"
      value: 0.1
    }
  }
}
layer {
  name: "relu2"
  type: "ReLU"
  bottom: "conv2"
  top: "conv2"
}
layer {
  name: "norm2"
  type: "LRN"
  bottom: "conv2"
  top: "norm2"
  lrn_param {
    local_size: 5
    alpha: 0.0001
    beta: 0.75
  }
}
layer {
  name: "pool2"
  type: "Pooling"
  bottom: "norm2"
  top: "pool2"
  pooling_param {
    pool: MAX
    kernel_size: 3
    stride: 2
  }
}
layer {
  name: "conv3"
  type: "Convolution"
  bottom: "pool2"
  top: "conv3"
  param {
    lr_mult: 1
    decay_mult: 1
  }
  param {
    lr_mult: 2
    decay_mult: 0
  }
  convolution_param {
    num_output: 384
    pad: 1
    kernel_size: 3
    weight_filler {
      type: "gaussian"
      std: 0.01
    }
    bias_filler {
      type: "constant"
      value: 0
    }
  }
}
layer {
  name: "relu3"
  type: "ReLU"
  bottom: "conv3"
  top: "conv3"
}
layer {
  name: "conv4"
  type: "Convolution"
  bottom: "conv3"
  top: "conv4"
  param {
    lr_mult: 1
    decay_mult: 1
  }
  param {
    lr_mult: 2
    decay_mult: 0
  }
  convolution_param {
    num_output: 384
    pad: 1
    kernel_size: 3
    group: 2
    weight_filler {
      type: "gaussian"
      std: 0.01
    }
    bias_filler {
      type: "constant"
      value: 0.1
    }
  }
}
layer {
  name: "relu4"
  type: "ReLU"
  bottom: "conv4"
  top: "conv4"
}
layer {
  name: "conv5"
  type: "Convolution"
  bottom: "conv4"
  top: "conv5"
  param {
    lr_mult: 1
    decay_mult: 1
  }
  param {
    lr_mult: 2
    decay_mult: 0
  }
  convolution_param {
    num_output: 256
    pad: 1
    kernel_size: 3
    group: 2
    weight_filler {
      type: "gaussian"
      std: 0.01
    }
    bias_filler {
      type: "constant"
      value: 0.1
    }
  }
}
layer {
  name: "relu5"
  type: "ReLU"
  bottom: "conv5"
  top: "conv5"
}
layer {
  name: "pool5"
  type: "Pooling"
  bottom: "conv5"
  top: "pool5"
  pooling_param {
    pool: MAX
    kernel_size: 3
    stride: 2
  }
}
layer {
  name: "fc6"
  type: "InnerProduct"
  bottom: "pool5"
  top: "fc6"
  param {
    lr_mult: 1
    decay_mult: 1
  }
  param {
    lr_mult: 2
    decay_mult: 0
  }
  inner_product_param {
    num_output: 4096
    weight_filler {
      type: "gaussian"
      std: 0.005
    }
    bias_filler {
      type: "constant"
      value: 0.1
    }
  }
}
layer {
  name: "relu6"
  type: "ReLU"
  bottom: "fc6"
  top: "fc6"
}
layer {
  name: "drop6"
  type: "Dropout"
  bottom: "fc6"
  top: "fc6"
  dropout_param {
    dropout_ratio: 0.5
  }
}
layer {
  name: "fc7"
  type: "InnerProduct"
  bottom: "fc6"
  top: "fc7"
  param {
    lr_mult: 1
    decay_mult: 1
  }
  param {
    lr_mult: 2
    decay_mult: 0
  }
  inner_product_param {
    num_output: 4096
    weight_filler {
      type: "gaussian"
      std: 0.005
    }
    bias_filler {
      type: "constant"
      value: 0.1
    }
  }
}
layer {
  name: "relu7"
  type: "ReLU"
  bottom: "fc7"
  top: "fc7"
}
layer {
  name: "drop7"
  type: "Dropout"
  bottom: "fc7"
  top: "fc7"
  dropout_param {
    dropout_ratio: 0.5
  }
}
layer {
  name: "fc8_plantvillage"
  type: "InnerProduct"
  bottom: "fc7"
  top: "fc8_plantvillage"
  param {
    lr_mult: 1
    decay_mult: 1
  }
  param {
    lr_mult: 2
    decay_mult: 0
  }
  inner_product_param {
    num_output: 38
    weight_filler {
      type: "gaussian"
      std: 0.01
    }
    bias_filler {
      type: "constant"
      value: 0
    }
  }
}
layer {
  name: "prob"
  type: "Softmax"
  bottom: "fc8_plantvillage"
  top: "prob"
  include {
    phase: TEST
  }
}
layer {
  name: "hdf5out"
  type: "HDF5Output"
  bottom: "prob"
  bottom: "label"
  include {
    phase: TEST
  }
  hdf5_output_param {
    file_name: "hdf5_dumps/iter_10051.h5"
  }
}
layer {
  name: "loss"
  type: "SoftmaxWithLoss"
  bottom: "fc8_plantvillage"
  bottom: "label"
  top: "loss"
}
layer {
  name: "accuracy"
  type: "Accuracy"
  bottom: "fc8_plantvillage"
  bottom: "label"
  top: "accuracy"
  include {
    phase: TEST
  }
}
I0403 13:18:43.000363 10824 layer_factory.hpp:77] Creating layer data
I0403 13:18:43.001019 10824 net.cpp:91] Creating Layer data
I0403 13:18:43.001055 10824 net.cpp:399] data -> data
I0403 13:18:43.001107 10824 net.cpp:399] data -> label
I0403 13:18:43.001144 10824 data_transformer.cpp:25] Loading mean file from: /home/mohanty/data/final_dataset/lmdb/color-80-20/mean.binaryproto
I0403 13:18:43.003918 10828 db_lmdb.cpp:38] Opened lmdb /home/mohanty/data/final_dataset/lmdb/color-80-20/test_db
I0403 13:18:43.015990 10824 data_layer.cpp:41] output data size: 100,3,227,227
I0403 13:18:43.136765 10824 net.cpp:141] Setting up data
I0403 13:18:43.136840 10824 net.cpp:148] Top shape: 100 3 227 227 (15458700)
I0403 13:18:43.136864 10824 net.cpp:148] Top shape: 100 (100)
I0403 13:18:43.136880 10824 net.cpp:156] Memory required for data: 61835200
I0403 13:18:43.136907 10824 layer_factory.hpp:77] Creating layer label_data_1_split
I0403 13:18:43.136934 10824 net.cpp:91] Creating Layer label_data_1_split
I0403 13:18:43.136953 10824 net.cpp:425] label_data_1_split <- label
I0403 13:18:43.136987 10824 net.cpp:399] label_data_1_split -> label_data_1_split_0
I0403 13:18:43.137015 10824 net.cpp:399] label_data_1_split -> label_data_1_split_1
I0403 13:18:43.137035 10824 net.cpp:399] label_data_1_split -> label_data_1_split_2
I0403 13:18:43.137110 10824 net.cpp:141] Setting up label_data_1_split
I0403 13:18:43.137133 10824 net.cpp:148] Top shape: 100 (100)
I0403 13:18:43.137150 10824 net.cpp:148] Top shape: 100 (100)
I0403 13:18:43.137164 10824 net.cpp:148] Top shape: 100 (100)
I0403 13:18:43.137178 10824 net.cpp:156] Memory required for data: 61836400
I0403 13:18:43.137192 10824 layer_factory.hpp:77] Creating layer conv1
I0403 13:18:43.137223 10824 net.cpp:91] Creating Layer conv1
I0403 13:18:43.137240 10824 net.cpp:425] conv1 <- data
I0403 13:18:43.137259 10824 net.cpp:399] conv1 -> conv1
I0403 13:18:43.277523 10824 net.cpp:141] Setting up conv1
I0403 13:18:43.277606 10824 net.cpp:148] Top shape: 100 96 55 55 (29040000)
I0403 13:18:43.277624 10824 net.cpp:156] Memory required for data: 177996400
I0403 13:18:43.277657 10824 layer_factory.hpp:77] Creating layer relu1
I0403 13:18:43.277684 10824 net.cpp:91] Creating Layer relu1
I0403 13:18:43.277703 10824 net.cpp:425] relu1 <- conv1
I0403 13:18:43.277721 10824 net.cpp:386] relu1 -> conv1 (in-place)
I0403 13:18:43.277978 10824 net.cpp:141] Setting up relu1
I0403 13:18:43.278005 10824 net.cpp:148] Top shape: 100 96 55 55 (29040000)
I0403 13:18:43.278022 10824 net.cpp:156] Memory required for data: 294156400
I0403 13:18:43.278076 10824 layer_factory.hpp:77] Creating layer norm1
I0403 13:18:43.278107 10824 net.cpp:91] Creating Layer norm1
I0403 13:18:43.278126 10824 net.cpp:425] norm1 <- conv1
I0403 13:18:43.278144 10824 net.cpp:399] norm1 -> norm1
I0403 13:18:43.278451 10824 net.cpp:141] Setting up norm1
I0403 13:18:43.278480 10824 net.cpp:148] Top shape: 100 96 55 55 (29040000)
I0403 13:18:43.278496 10824 net.cpp:156] Memory required for data: 410316400
I0403 13:18:43.278512 10824 layer_factory.hpp:77] Creating layer pool1
I0403 13:18:43.278534 10824 net.cpp:91] Creating Layer pool1
I0403 13:18:43.278553 10824 net.cpp:425] pool1 <- norm1
I0403 13:18:43.278570 10824 net.cpp:399] pool1 -> pool1
I0403 13:18:43.278642 10824 net.cpp:141] Setting up pool1
I0403 13:18:43.278667 10824 net.cpp:148] Top shape: 100 96 27 27 (6998400)
I0403 13:18:43.278682 10824 net.cpp:156] Memory required for data: 438310000
I0403 13:18:43.278697 10824 layer_factory.hpp:77] Creating layer conv2
I0403 13:18:43.278723 10824 net.cpp:91] Creating Layer conv2
I0403 13:18:43.278739 10824 net.cpp:425] conv2 <- pool1
I0403 13:18:43.278758 10824 net.cpp:399] conv2 -> conv2
I0403 13:18:43.293541 10824 net.cpp:141] Setting up conv2
I0403 13:18:43.293592 10824 net.cpp:148] Top shape: 100 256 27 27 (18662400)
I0403 13:18:43.293613 10824 net.cpp:156] Memory required for data: 512959600
I0403 13:18:43.293637 10824 layer_factory.hpp:77] Creating layer relu2
I0403 13:18:43.293658 10824 net.cpp:91] Creating Layer relu2
I0403 13:18:43.293674 10824 net.cpp:425] relu2 <- conv2
I0403 13:18:43.293692 10824 net.cpp:386] relu2 -> conv2 (in-place)
I0403 13:18:43.293975 10824 net.cpp:141] Setting up relu2
I0403 13:18:43.294003 10824 net.cpp:148] Top shape: 100 256 27 27 (18662400)
I0403 13:18:43.294018 10824 net.cpp:156] Memory required for data: 587609200
I0403 13:18:43.294033 10824 layer_factory.hpp:77] Creating layer norm2
I0403 13:18:43.294055 10824 net.cpp:91] Creating Layer norm2
I0403 13:18:43.294071 10824 net.cpp:425] norm2 <- conv2
I0403 13:18:43.294090 10824 net.cpp:399] norm2 -> norm2
I0403 13:18:43.294278 10824 net.cpp:141] Setting up norm2
I0403 13:18:43.294306 10824 net.cpp:148] Top shape: 100 256 27 27 (18662400)
I0403 13:18:43.294320 10824 net.cpp:156] Memory required for data: 662258800
I0403 13:18:43.294335 10824 layer_factory.hpp:77] Creating layer pool2
I0403 13:18:43.294354 10824 net.cpp:91] Creating Layer pool2
I0403 13:18:43.294370 10824 net.cpp:425] pool2 <- norm2
I0403 13:18:43.294389 10824 net.cpp:399] pool2 -> pool2
I0403 13:18:43.294440 10824 net.cpp:141] Setting up pool2
I0403 13:18:43.294463 10824 net.cpp:148] Top shape: 100 256 13 13 (4326400)
I0403 13:18:43.294478 10824 net.cpp:156] Memory required for data: 679564400
I0403 13:18:43.294492 10824 layer_factory.hpp:77] Creating layer conv3
I0403 13:18:43.294514 10824 net.cpp:91] Creating Layer conv3
I0403 13:18:43.294530 10824 net.cpp:425] conv3 <- pool2
I0403 13:18:43.294549 10824 net.cpp:399] conv3 -> conv3
I0403 13:18:43.332773 10824 net.cpp:141] Setting up conv3
I0403 13:18:43.332850 10824 net.cpp:148] Top shape: 100 384 13 13 (6489600)
I0403 13:18:43.332865 10824 net.cpp:156] Memory required for data: 705522800
I0403 13:18:43.332890 10824 layer_factory.hpp:77] Creating layer relu3
I0403 13:18:43.332916 10824 net.cpp:91] Creating Layer relu3
I0403 13:18:43.332934 10824 net.cpp:425] relu3 <- conv3
I0403 13:18:43.332953 10824 net.cpp:386] relu3 -> conv3 (in-place)
I0403 13:18:43.333223 10824 net.cpp:141] Setting up relu3
I0403 13:18:43.333250 10824 net.cpp:148] Top shape: 100 384 13 13 (6489600)
I0403 13:18:43.333266 10824 net.cpp:156] Memory required for data: 731481200
I0403 13:18:43.333279 10824 layer_factory.hpp:77] Creating layer conv4
I0403 13:18:43.333307 10824 net.cpp:91] Creating Layer conv4
I0403 13:18:43.333326 10824 net.cpp:425] conv4 <- conv3
I0403 13:18:43.333348 10824 net.cpp:399] conv4 -> conv4
I0403 13:18:43.362941 10824 net.cpp:141] Setting up conv4
I0403 13:18:43.363005 10824 net.cpp:148] Top shape: 100 384 13 13 (6489600)
I0403 13:18:43.363062 10824 net.cpp:156] Memory required for data: 757439600
I0403 13:18:43.363085 10824 layer_factory.hpp:77] Creating layer relu4
I0403 13:18:43.363106 10824 net.cpp:91] Creating Layer relu4
I0403 13:18:43.363124 10824 net.cpp:425] relu4 <- conv4
I0403 13:18:43.363147 10824 net.cpp:386] relu4 -> conv4 (in-place)
I0403 13:18:43.363438 10824 net.cpp:141] Setting up relu4
I0403 13:18:43.363466 10824 net.cpp:148] Top shape: 100 384 13 13 (6489600)
I0403 13:18:43.363481 10824 net.cpp:156] Memory required for data: 783398000
I0403 13:18:43.363497 10824 layer_factory.hpp:77] Creating layer conv5
I0403 13:18:43.363524 10824 net.cpp:91] Creating Layer conv5
I0403 13:18:43.363541 10824 net.cpp:425] conv5 <- conv4
I0403 13:18:43.363564 10824 net.cpp:399] conv5 -> conv5
I0403 13:18:43.384028 10824 net.cpp:141] Setting up conv5
I0403 13:18:43.384084 10824 net.cpp:148] Top shape: 100 256 13 13 (4326400)
I0403 13:18:43.384101 10824 net.cpp:156] Memory required for data: 800703600
I0403 13:18:43.384126 10824 layer_factory.hpp:77] Creating layer relu5
I0403 13:18:43.384151 10824 net.cpp:91] Creating Layer relu5
I0403 13:18:43.384169 10824 net.cpp:425] relu5 <- conv5
I0403 13:18:43.384187 10824 net.cpp:386] relu5 -> conv5 (in-place)
I0403 13:18:43.384467 10824 net.cpp:141] Setting up relu5
I0403 13:18:43.384495 10824 net.cpp:148] Top shape: 100 256 13 13 (4326400)
I0403 13:18:43.384510 10824 net.cpp:156] Memory required for data: 818009200
I0403 13:18:43.384526 10824 layer_factory.hpp:77] Creating layer pool5
I0403 13:18:43.384552 10824 net.cpp:91] Creating Layer pool5
I0403 13:18:43.384570 10824 net.cpp:425] pool5 <- conv5
I0403 13:18:43.384588 10824 net.cpp:399] pool5 -> pool5
I0403 13:18:43.384663 10824 net.cpp:141] Setting up pool5
I0403 13:18:43.384688 10824 net.cpp:148] Top shape: 100 256 6 6 (921600)
I0403 13:18:43.384703 10824 net.cpp:156] Memory required for data: 821695600
I0403 13:18:43.384721 10824 layer_factory.hpp:77] Creating layer fc6
I0403 13:18:43.384754 10824 net.cpp:91] Creating Layer fc6
I0403 13:18:43.384774 10824 net.cpp:425] fc6 <- pool5
I0403 13:18:43.384793 10824 net.cpp:399] fc6 -> fc6
I0403 13:18:44.933622 10824 net.cpp:141] Setting up fc6
I0403 13:18:44.933691 10824 net.cpp:148] Top shape: 100 4096 (409600)
I0403 13:18:44.933708 10824 net.cpp:156] Memory required for data: 823334000
I0403 13:18:44.933729 10824 layer_factory.hpp:77] Creating layer relu6
I0403 13:18:44.933753 10824 net.cpp:91] Creating Layer relu6
I0403 13:18:44.933770 10824 net.cpp:425] relu6 <- fc6
I0403 13:18:44.933791 10824 net.cpp:386] relu6 -> fc6 (in-place)
I0403 13:18:44.934008 10824 net.cpp:141] Setting up relu6
I0403 13:18:44.934034 10824 net.cpp:148] Top shape: 100 4096 (409600)
I0403 13:18:44.934048 10824 net.cpp:156] Memory required for data: 824972400
I0403 13:18:44.934063 10824 layer_factory.hpp:77] Creating layer drop6
I0403 13:18:44.934082 10824 net.cpp:91] Creating Layer drop6
I0403 13:18:44.934100 10824 net.cpp:425] drop6 <- fc6
I0403 13:18:44.934116 10824 net.cpp:386] drop6 -> fc6 (in-place)
I0403 13:18:44.934166 10824 net.cpp:141] Setting up drop6
I0403 13:18:44.934192 10824 net.cpp:148] Top shape: 100 4096 (409600)
I0403 13:18:44.934209 10824 net.cpp:156] Memory required for data: 826610800
I0403 13:18:44.934224 10824 layer_factory.hpp:77] Creating layer fc7
I0403 13:18:44.934243 10824 net.cpp:91] Creating Layer fc7
I0403 13:18:44.934258 10824 net.cpp:425] fc7 <- fc6
I0403 13:18:44.934278 10824 net.cpp:399] fc7 -> fc7
I0403 13:18:45.624547 10824 net.cpp:141] Setting up fc7
I0403 13:18:45.624634 10824 net.cpp:148] Top shape: 100 4096 (409600)
I0403 13:18:45.624652 10824 net.cpp:156] Memory required for data: 828249200
I0403 13:18:45.624672 10824 layer_factory.hpp:77] Creating layer relu7
I0403 13:18:45.624694 10824 net.cpp:91] Creating Layer relu7
I0403 13:18:45.624712 10824 net.cpp:425] relu7 <- fc7
I0403 13:18:45.624733 10824 net.cpp:386] relu7 -> fc7 (in-place)
I0403 13:18:45.625144 10824 net.cpp:141] Setting up relu7
I0403 13:18:45.625170 10824 net.cpp:148] Top shape: 100 4096 (409600)
I0403 13:18:45.625226 10824 net.cpp:156] Memory required for data: 829887600
I0403 13:18:45.625243 10824 layer_factory.hpp:77] Creating layer drop7
I0403 13:18:45.625262 10824 net.cpp:91] Creating Layer drop7
I0403 13:18:45.625277 10824 net.cpp:425] drop7 <- fc7
I0403 13:18:45.625296 10824 net.cpp:386] drop7 -> fc7 (in-place)
I0403 13:18:45.625340 10824 net.cpp:141] Setting up drop7
I0403 13:18:45.625365 10824 net.cpp:148] Top shape: 100 4096 (409600)
I0403 13:18:45.625380 10824 net.cpp:156] Memory required for data: 831526000
I0403 13:18:45.625396 10824 layer_factory.hpp:77] Creating layer fc8_plantvillage
I0403 13:18:45.625416 10824 net.cpp:91] Creating Layer fc8_plantvillage
I0403 13:18:45.625430 10824 net.cpp:425] fc8_plantvillage <- fc7
I0403 13:18:45.625452 10824 net.cpp:399] fc8_plantvillage -> fc8_plantvillage
I0403 13:18:45.632176 10824 net.cpp:141] Setting up fc8_plantvillage
I0403 13:18:45.632205 10824 net.cpp:148] Top shape: 100 38 (3800)
I0403 13:18:45.632221 10824 net.cpp:156] Memory required for data: 831541200
I0403 13:18:45.632239 10824 layer_factory.hpp:77] Creating layer fc8_plantvillage_fc8_plantvillage_0_split
I0403 13:18:45.632261 10824 net.cpp:91] Creating Layer fc8_plantvillage_fc8_plantvillage_0_split
I0403 13:18:45.632278 10824 net.cpp:425] fc8_plantvillage_fc8_plantvillage_0_split <- fc8_plantvillage
I0403 13:18:45.632297 10824 net.cpp:399] fc8_plantvillage_fc8_plantvillage_0_split -> fc8_plantvillage_fc8_plantvillage_0_split_0
I0403 13:18:45.632318 10824 net.cpp:399] fc8_plantvillage_fc8_plantvillage_0_split -> fc8_plantvillage_fc8_plantvillage_0_split_1
I0403 13:18:45.632339 10824 net.cpp:399] fc8_plantvillage_fc8_plantvillage_0_split -> fc8_plantvillage_fc8_plantvillage_0_split_2
I0403 13:18:45.632416 10824 net.cpp:141] Setting up fc8_plantvillage_fc8_plantvillage_0_split
I0403 13:18:45.632439 10824 net.cpp:148] Top shape: 100 38 (3800)
I0403 13:18:45.632455 10824 net.cpp:148] Top shape: 100 38 (3800)
I0403 13:18:45.632472 10824 net.cpp:148] Top shape: 100 38 (3800)
I0403 13:18:45.632486 10824 net.cpp:156] Memory required for data: 831586800
I0403 13:18:45.632500 10824 layer_factory.hpp:77] Creating layer prob
I0403 13:18:45.632519 10824 net.cpp:91] Creating Layer prob
I0403 13:18:45.632534 10824 net.cpp:425] prob <- fc8_plantvillage_fc8_plantvillage_0_split_0
I0403 13:18:45.632551 10824 net.cpp:399] prob -> prob
I0403 13:18:45.632781 10824 net.cpp:141] Setting up prob
I0403 13:18:45.632807 10824 net.cpp:148] Top shape: 100 38 (3800)
I0403 13:18:45.632820 10824 net.cpp:156] Memory required for data: 831602000
I0403 13:18:45.632834 10824 layer_factory.hpp:77] Creating layer hdf5out
I0403 13:18:45.632853 10824 net.cpp:91] Creating Layer hdf5out
I0403 13:18:45.632869 10824 net.cpp:425] hdf5out <- prob
I0403 13:18:45.632884 10824 net.cpp:425] hdf5out <- label_data_1_split_0
I0403 13:18:45.635026 10824 net.cpp:141] Setting up hdf5out
…
