…
I0403 13:18:18.215556 10784 net.cpp:313] The NetState phase (1) differed from the phase (0) specified by a rule in layer data
I0403 13:18:18.216315 10784 net.cpp:49] Initializing net from parameters: 
state {
  phase: TEST
}
layer {
  name: "data"
  type: "Data"
  top: "data"
  top: "label"
  include {
    phase: TEST
  }
  transform_param {
    crop_size: 227
    mean_file: "/home/mohanty/data/final_dataset/lmdb/color-80-20/mean.binaryproto"
  }
  data_param {
    source: "/home/mohanty/data/final_dataset/lmdb/color-80-20/test_db"
    batch_size: 100
    backend: LMDB
  }
}
layer {
  name: "conv1"
  type: "Convolution"
  bottom: "data"
  top: "conv1"
  param {
    lr_mult: 1
    decay_mult: 1
  }
  param {
    lr_mult: 2
    decay_mult: 0
  }
  convolution_param {
    num_output: 96
    kernel_size: 11
    stride: 4
    weight_filler {
      type: "gaussian"
      std: 0.01
    }
    bias_filler {
      type: "constant"
      value: 0
    }
  }
}
layer {
  name: "relu1"
  type: "ReLU"
  bottom: "conv1"
  top: "conv1"
}
layer {
  name: "norm1"
  type: "LRN"
  bottom: "conv1"
  top: "norm1"
  lrn_param {
    local_size: 5
    alpha: 0.0001
    beta: 0.75
  }
}
layer {
  name: "pool1"
  type: "Pooling"
  bottom: "norm1"
  top: "pool1"
  pooling_param {
    pool: MAX
    kernel_size: 3
    stride: 2
  }
}
layer {
  name: "conv2"
  type: "Convolution"
  bottom: "pool1"
  top: "conv2"
  param {
    lr_mult: 1
    decay_mult: 1
  }
  param {
    lr_mult: 2
    decay_mult: 0
  }
  convolution_param {
    num_output: 256
    pad: 2
    kernel_size: 5
    group: 2
    weight_filler {
      type: "gaussian"
      std: 0.01
    }
    bias_filler {
      type: "constant"
      value: 0.1
    }
  }
}
layer {
  name: "relu2"
  type: "ReLU"
  bottom: "conv2"
  top: "conv2"
}
layer {
  name: "norm2"
  type: "LRN"
  bottom: "conv2"
  top: "norm2"
  lrn_param {
    local_size: 5
    alpha: 0.0001
    beta: 0.75
  }
}
layer {
  name: "pool2"
  type: "Pooling"
  bottom: "norm2"
  top: "pool2"
  pooling_param {
    pool: MAX
    kernel_size: 3
    stride: 2
  }
}
layer {
  name: "conv3"
  type: "Convolution"
  bottom: "pool2"
  top: "conv3"
  param {
    lr_mult: 1
    decay_mult: 1
  }
  param {
    lr_mult: 2
    decay_mult: 0
  }
  convolution_param {
    num_output: 384
    pad: 1
    kernel_size: 3
    weight_filler {
      type: "gaussian"
      std: 0.01
    }
    bias_filler {
      type: "constant"
      value: 0
    }
  }
}
layer {
  name: "relu3"
  type: "ReLU"
  bottom: "conv3"
  top: "conv3"
}
layer {
  name: "conv4"
  type: "Convolution"
  bottom: "conv3"
  top: "conv4"
  param {
    lr_mult: 1
    decay_mult: 1
  }
  param {
    lr_mult: 2
    decay_mult: 0
  }
  convolution_param {
    num_output: 384
    pad: 1
    kernel_size: 3
    group: 2
    weight_filler {
      type: "gaussian"
      std: 0.01
    }
    bias_filler {
      type: "constant"
      value: 0.1
    }
  }
}
layer {
  name: "relu4"
  type: "ReLU"
  bottom: "conv4"
  top: "conv4"
}
layer {
  name: "conv5"
  type: "Convolution"
  bottom: "conv4"
  top: "conv5"
  param {
    lr_mult: 1
    decay_mult: 1
  }
  param {
    lr_mult: 2
    decay_mult: 0
  }
  convolution_param {
    num_output: 256
    pad: 1
    kernel_size: 3
    group: 2
    weight_filler {
      type: "gaussian"
      std: 0.01
    }
    bias_filler {
      type: "constant"
      value: 0.1
    }
  }
}
layer {
  name: "relu5"
  type: "ReLU"
  bottom: "conv5"
  top: "conv5"
}
layer {
  name: "pool5"
  type: "Pooling"
  bottom: "conv5"
  top: "pool5"
  pooling_param {
    pool: MAX
    kernel_size: 3
    stride: 2
  }
}
layer {
  name: "fc6"
  type: "InnerProduct"
  bottom: "pool5"
  top: "fc6"
  param {
    lr_mult: 1
    decay_mult: 1
  }
  param {
    lr_mult: 2
    decay_mult: 0
  }
  inner_product_param {
    num_output: 4096
    weight_filler {
      type: "gaussian"
      std: 0.005
    }
    bias_filler {
      type: "constant"
      value: 0.1
    }
  }
}
layer {
  name: "relu6"
  type: "ReLU"
  bottom: "fc6"
  top: "fc6"
}
layer {
  name: "drop6"
  type: "Dropout"
  bottom: "fc6"
  top: "fc6"
  dropout_param {
    dropout_ratio: 0.5
  }
}
layer {
  name: "fc7"
  type: "InnerProduct"
  bottom: "fc6"
  top: "fc7"
  param {
    lr_mult: 1
    decay_mult: 1
  }
  param {
    lr_mult: 2
    decay_mult: 0
  }
  inner_product_param {
    num_output: 4096
    weight_filler {
      type: "gaussian"
      std: 0.005
    }
    bias_filler {
      type: "constant"
      value: 0.1
    }
  }
}
layer {
  name: "relu7"
  type: "ReLU"
  bottom: "fc7"
  top: "fc7"
}
layer {
  name: "drop7"
  type: "Dropout"
  bottom: "fc7"
  top: "fc7"
  dropout_param {
    dropout_ratio: 0.5
  }
}
layer {
  name: "fc8_plantvillage"
  type: "InnerProduct"
  bottom: "fc7"
  top: "fc8_plantvillage"
  param {
    lr_mult: 1
    decay_mult: 1
  }
  param {
    lr_mult: 2
    decay_mult: 0
  }
  inner_product_param {
    num_output: 38
    weight_filler {
      type: "gaussian"
      std: 0.01
    }
    bias_filler {
      type: "constant"
      value: 0
    }
  }
}
layer {
  name: "prob"
  type: "Softmax"
  bottom: "fc8_plantvillage"
  top: "prob"
  include {
    phase: TEST
  }
}
layer {
  name: "hdf5out"
  type: "HDF5Output"
  bottom: "prob"
  bottom: "label"
  include {
    phase: TEST
  }
  hdf5_output_param {
    file_name: "hdf5_dumps/iter_9614.h5"
  }
}
layer {
  name: "loss"
  type: "SoftmaxWithLoss"
  bottom: "fc8_plantvillage"
  bottom: "label"
  top: "loss"
}
layer {
  name: "accuracy"
  type: "Accuracy"
  bottom: "fc8_plantvillage"
  bottom: "label"
  top: "accuracy"
  include {
    phase: TEST
  }
}
I0403 13:18:18.217329 10784 layer_factory.hpp:77] Creating layer data
I0403 13:18:18.218945 10784 net.cpp:91] Creating Layer data
I0403 13:18:18.219020 10784 net.cpp:399] data -> data
I0403 13:18:18.219136 10784 net.cpp:399] data -> label
I0403 13:18:18.219223 10784 data_transformer.cpp:25] Loading mean file from: /home/mohanty/data/final_dataset/lmdb/color-80-20/mean.binaryproto
I0403 13:18:18.223719 10788 db_lmdb.cpp:38] Opened lmdb /home/mohanty/data/final_dataset/lmdb/color-80-20/test_db
I0403 13:18:18.243882 10784 data_layer.cpp:41] output data size: 100,3,227,227
I0403 13:18:18.380324 10784 net.cpp:141] Setting up data
I0403 13:18:18.380431 10784 net.cpp:148] Top shape: 100 3 227 227 (15458700)
I0403 13:18:18.380460 10784 net.cpp:148] Top shape: 100 (100)
I0403 13:18:18.380477 10784 net.cpp:156] Memory required for data: 61835200
I0403 13:18:18.380511 10784 layer_factory.hpp:77] Creating layer label_data_1_split
I0403 13:18:18.380542 10784 net.cpp:91] Creating Layer label_data_1_split
I0403 13:18:18.380563 10784 net.cpp:425] label_data_1_split <- label
I0403 13:18:18.380607 10784 net.cpp:399] label_data_1_split -> label_data_1_split_0
I0403 13:18:18.380640 10784 net.cpp:399] label_data_1_split -> label_data_1_split_1
I0403 13:18:18.380664 10784 net.cpp:399] label_data_1_split -> label_data_1_split_2
I0403 13:18:18.380739 10784 net.cpp:141] Setting up label_data_1_split
I0403 13:18:18.380767 10784 net.cpp:148] Top shape: 100 (100)
I0403 13:18:18.380787 10784 net.cpp:148] Top shape: 100 (100)
I0403 13:18:18.380806 10784 net.cpp:148] Top shape: 100 (100)
I0403 13:18:18.380825 10784 net.cpp:156] Memory required for data: 61836400
I0403 13:18:18.380841 10784 layer_factory.hpp:77] Creating layer conv1
I0403 13:18:18.380879 10784 net.cpp:91] Creating Layer conv1
I0403 13:18:18.380902 10784 net.cpp:425] conv1 <- data
I0403 13:18:18.380924 10784 net.cpp:399] conv1 -> conv1
I0403 13:18:18.547839 10784 net.cpp:141] Setting up conv1
I0403 13:18:18.547925 10784 net.cpp:148] Top shape: 100 96 55 55 (29040000)
I0403 13:18:18.547946 10784 net.cpp:156] Memory required for data: 177996400
I0403 13:18:18.547983 10784 layer_factory.hpp:77] Creating layer relu1
I0403 13:18:18.548015 10784 net.cpp:91] Creating Layer relu1
I0403 13:18:18.548038 10784 net.cpp:425] relu1 <- conv1
I0403 13:18:18.548060 10784 net.cpp:386] relu1 -> conv1 (in-place)
I0403 13:18:18.548357 10784 net.cpp:141] Setting up relu1
I0403 13:18:18.548389 10784 net.cpp:148] Top shape: 100 96 55 55 (29040000)
I0403 13:18:18.548409 10784 net.cpp:156] Memory required for data: 294156400
I0403 13:18:18.548473 10784 layer_factory.hpp:77] Creating layer norm1
I0403 13:18:18.548508 10784 net.cpp:91] Creating Layer norm1
I0403 13:18:18.548532 10784 net.cpp:425] norm1 <- conv1
I0403 13:18:18.548552 10784 net.cpp:399] norm1 -> norm1
I0403 13:18:18.548915 10784 net.cpp:141] Setting up norm1
I0403 13:18:18.548949 10784 net.cpp:148] Top shape: 100 96 55 55 (29040000)
I0403 13:18:18.548969 10784 net.cpp:156] Memory required for data: 410316400
I0403 13:18:18.548988 10784 layer_factory.hpp:77] Creating layer pool1
I0403 13:18:18.549016 10784 net.cpp:91] Creating Layer pool1
I0403 13:18:18.549037 10784 net.cpp:425] pool1 <- norm1
I0403 13:18:18.549058 10784 net.cpp:399] pool1 -> pool1
I0403 13:18:18.549137 10784 net.cpp:141] Setting up pool1
I0403 13:18:18.549166 10784 net.cpp:148] Top shape: 100 96 27 27 (6998400)
I0403 13:18:18.549185 10784 net.cpp:156] Memory required for data: 438310000
I0403 13:18:18.549202 10784 layer_factory.hpp:77] Creating layer conv2
I0403 13:18:18.549231 10784 net.cpp:91] Creating Layer conv2
I0403 13:18:18.549249 10784 net.cpp:425] conv2 <- pool1
I0403 13:18:18.549270 10784 net.cpp:399] conv2 -> conv2
I0403 13:18:18.567191 10784 net.cpp:141] Setting up conv2
I0403 13:18:18.567234 10784 net.cpp:148] Top shape: 100 256 27 27 (18662400)
I0403 13:18:18.567253 10784 net.cpp:156] Memory required for data: 512959600
I0403 13:18:18.567279 10784 layer_factory.hpp:77] Creating layer relu2
I0403 13:18:18.567303 10784 net.cpp:91] Creating Layer relu2
I0403 13:18:18.567322 10784 net.cpp:425] relu2 <- conv2
I0403 13:18:18.567343 10784 net.cpp:386] relu2 -> conv2 (in-place)
I0403 13:18:18.567663 10784 net.cpp:141] Setting up relu2
I0403 13:18:18.567695 10784 net.cpp:148] Top shape: 100 256 27 27 (18662400)
I0403 13:18:18.567714 10784 net.cpp:156] Memory required for data: 587609200
I0403 13:18:18.567734 10784 layer_factory.hpp:77] Creating layer norm2
I0403 13:18:18.567759 10784 net.cpp:91] Creating Layer norm2
I0403 13:18:18.567777 10784 net.cpp:425] norm2 <- conv2
I0403 13:18:18.567800 10784 net.cpp:399] norm2 -> norm2
I0403 13:18:18.568016 10784 net.cpp:141] Setting up norm2
I0403 13:18:18.568047 10784 net.cpp:148] Top shape: 100 256 27 27 (18662400)
I0403 13:18:18.568064 10784 net.cpp:156] Memory required for data: 662258800
I0403 13:18:18.568083 10784 layer_factory.hpp:77] Creating layer pool2
I0403 13:18:18.568104 10784 net.cpp:91] Creating Layer pool2
I0403 13:18:18.568123 10784 net.cpp:425] pool2 <- norm2
I0403 13:18:18.568145 10784 net.cpp:399] pool2 -> pool2
I0403 13:18:18.568203 10784 net.cpp:141] Setting up pool2
I0403 13:18:18.568231 10784 net.cpp:148] Top shape: 100 256 13 13 (4326400)
I0403 13:18:18.568249 10784 net.cpp:156] Memory required for data: 679564400
I0403 13:18:18.568267 10784 layer_factory.hpp:77] Creating layer conv3
I0403 13:18:18.568292 10784 net.cpp:91] Creating Layer conv3
I0403 13:18:18.568311 10784 net.cpp:425] conv3 <- pool2
I0403 13:18:18.568332 10784 net.cpp:399] conv3 -> conv3
I0403 13:18:18.619889 10784 net.cpp:141] Setting up conv3
I0403 13:18:18.619956 10784 net.cpp:148] Top shape: 100 384 13 13 (6489600)
I0403 13:18:18.619977 10784 net.cpp:156] Memory required for data: 705522800
I0403 13:18:18.620008 10784 layer_factory.hpp:77] Creating layer relu3
I0403 13:18:18.620033 10784 net.cpp:91] Creating Layer relu3
I0403 13:18:18.620054 10784 net.cpp:425] relu3 <- conv3
I0403 13:18:18.620077 10784 net.cpp:386] relu3 -> conv3 (in-place)
I0403 13:18:18.620396 10784 net.cpp:141] Setting up relu3
I0403 13:18:18.620429 10784 net.cpp:148] Top shape: 100 384 13 13 (6489600)
I0403 13:18:18.620447 10784 net.cpp:156] Memory required for data: 731481200
I0403 13:18:18.620472 10784 layer_factory.hpp:77] Creating layer conv4
I0403 13:18:18.620499 10784 net.cpp:91] Creating Layer conv4
I0403 13:18:18.620518 10784 net.cpp:425] conv4 <- conv3
I0403 13:18:18.620540 10784 net.cpp:399] conv4 -> conv4
I0403 13:18:18.656095 10784 net.cpp:141] Setting up conv4
I0403 13:18:18.656146 10784 net.cpp:148] Top shape: 100 384 13 13 (6489600)
I0403 13:18:18.656206 10784 net.cpp:156] Memory required for data: 757439600
I0403 13:18:18.656231 10784 layer_factory.hpp:77] Creating layer relu4
I0403 13:18:18.656257 10784 net.cpp:91] Creating Layer relu4
I0403 13:18:18.656278 10784 net.cpp:425] relu4 <- conv4
I0403 13:18:18.656302 10784 net.cpp:386] relu4 -> conv4 (in-place)
I0403 13:18:18.656649 10784 net.cpp:141] Setting up relu4
I0403 13:18:18.656682 10784 net.cpp:148] Top shape: 100 384 13 13 (6489600)
I0403 13:18:18.656702 10784 net.cpp:156] Memory required for data: 783398000
I0403 13:18:18.656720 10784 layer_factory.hpp:77] Creating layer conv5
I0403 13:18:18.656749 10784 net.cpp:91] Creating Layer conv5
I0403 13:18:18.656770 10784 net.cpp:425] conv5 <- conv4
I0403 13:18:18.656795 10784 net.cpp:399] conv5 -> conv5
I0403 13:18:18.681097 10784 net.cpp:141] Setting up conv5
I0403 13:18:18.681139 10784 net.cpp:148] Top shape: 100 256 13 13 (4326400)
I0403 13:18:18.681159 10784 net.cpp:156] Memory required for data: 800703600
I0403 13:18:18.681191 10784 layer_factory.hpp:77] Creating layer relu5
I0403 13:18:18.681216 10784 net.cpp:91] Creating Layer relu5
I0403 13:18:18.681236 10784 net.cpp:425] relu5 <- conv5
I0403 13:18:18.681258 10784 net.cpp:386] relu5 -> conv5 (in-place)
I0403 13:18:18.681597 10784 net.cpp:141] Setting up relu5
I0403 13:18:18.681632 10784 net.cpp:148] Top shape: 100 256 13 13 (4326400)
I0403 13:18:18.681651 10784 net.cpp:156] Memory required for data: 818009200
I0403 13:18:18.681670 10784 layer_factory.hpp:77] Creating layer pool5
I0403 13:18:18.681695 10784 net.cpp:91] Creating Layer pool5
I0403 13:18:18.681715 10784 net.cpp:425] pool5 <- conv5
I0403 13:18:18.681740 10784 net.cpp:399] pool5 -> pool5
I0403 13:18:18.681813 10784 net.cpp:141] Setting up pool5
I0403 13:18:18.681841 10784 net.cpp:148] Top shape: 100 256 6 6 (921600)
I0403 13:18:18.681859 10784 net.cpp:156] Memory required for data: 821695600
I0403 13:18:18.681875 10784 layer_factory.hpp:77] Creating layer fc6
I0403 13:18:18.681908 10784 net.cpp:91] Creating Layer fc6
I0403 13:18:18.681929 10784 net.cpp:425] fc6 <- pool5
I0403 13:18:18.681954 10784 net.cpp:399] fc6 -> fc6
I0403 13:18:20.208729 10784 net.cpp:141] Setting up fc6
I0403 13:18:20.208808 10784 net.cpp:148] Top shape: 100 4096 (409600)
I0403 13:18:20.208823 10784 net.cpp:156] Memory required for data: 823334000
I0403 13:18:20.208843 10784 layer_factory.hpp:77] Creating layer relu6
I0403 13:18:20.208864 10784 net.cpp:91] Creating Layer relu6
I0403 13:18:20.208879 10784 net.cpp:425] relu6 <- fc6
I0403 13:18:20.208900 10784 net.cpp:386] relu6 -> fc6 (in-place)
I0403 13:18:20.209115 10784 net.cpp:141] Setting up relu6
I0403 13:18:20.209138 10784 net.cpp:148] Top shape: 100 4096 (409600)
I0403 13:18:20.209152 10784 net.cpp:156] Memory required for data: 824972400
I0403 13:18:20.209167 10784 layer_factory.hpp:77] Creating layer drop6
I0403 13:18:20.209185 10784 net.cpp:91] Creating Layer drop6
I0403 13:18:20.209200 10784 net.cpp:425] drop6 <- fc6
I0403 13:18:20.209216 10784 net.cpp:386] drop6 -> fc6 (in-place)
I0403 13:18:20.209267 10784 net.cpp:141] Setting up drop6
I0403 13:18:20.209290 10784 net.cpp:148] Top shape: 100 4096 (409600)
I0403 13:18:20.209303 10784 net.cpp:156] Memory required for data: 826610800
I0403 13:18:20.209316 10784 layer_factory.hpp:77] Creating layer fc7
I0403 13:18:20.209337 10784 net.cpp:91] Creating Layer fc7
I0403 13:18:20.209352 10784 net.cpp:425] fc7 <- fc6
I0403 13:18:20.209369 10784 net.cpp:399] fc7 -> fc7
I0403 13:18:20.854650 10784 net.cpp:141] Setting up fc7
I0403 13:18:20.854727 10784 net.cpp:148] Top shape: 100 4096 (409600)
I0403 13:18:20.854743 10784 net.cpp:156] Memory required for data: 828249200
I0403 13:18:20.854763 10784 layer_factory.hpp:77] Creating layer relu7
I0403 13:18:20.854786 10784 net.cpp:91] Creating Layer relu7
I0403 13:18:20.854804 10784 net.cpp:425] relu7 <- fc7
I0403 13:18:20.854821 10784 net.cpp:386] relu7 -> fc7 (in-place)
I0403 13:18:20.855211 10784 net.cpp:141] Setting up relu7
I0403 13:18:20.855234 10784 net.cpp:148] Top shape: 100 4096 (409600)
I0403 13:18:20.855293 10784 net.cpp:156] Memory required for data: 829887600
I0403 13:18:20.855307 10784 layer_factory.hpp:77] Creating layer drop7
I0403 13:18:20.855327 10784 net.cpp:91] Creating Layer drop7
I0403 13:18:20.855342 10784 net.cpp:425] drop7 <- fc7
I0403 13:18:20.855358 10784 net.cpp:386] drop7 -> fc7 (in-place)
I0403 13:18:20.855401 10784 net.cpp:141] Setting up drop7
I0403 13:18:20.855422 10784 net.cpp:148] Top shape: 100 4096 (409600)
I0403 13:18:20.855435 10784 net.cpp:156] Memory required for data: 831526000
I0403 13:18:20.855448 10784 layer_factory.hpp:77] Creating layer fc8_plantvillage
I0403 13:18:20.855466 10784 net.cpp:91] Creating Layer fc8_plantvillage
I0403 13:18:20.855481 10784 net.cpp:425] fc8_plantvillage <- fc7
I0403 13:18:20.855500 10784 net.cpp:399] fc8_plantvillage -> fc8_plantvillage
I0403 13:18:20.862543 10784 net.cpp:141] Setting up fc8_plantvillage
I0403 13:18:20.862578 10784 net.cpp:148] Top shape: 100 38 (3800)
I0403 13:18:20.862596 10784 net.cpp:156] Memory required for data: 831541200
I0403 13:18:20.862612 10784 layer_factory.hpp:77] Creating layer fc8_plantvillage_fc8_plantvillage_0_split
I0403 13:18:20.862629 10784 net.cpp:91] Creating Layer fc8_plantvillage_fc8_plantvillage_0_split
I0403 13:18:20.862644 10784 net.cpp:425] fc8_plantvillage_fc8_plantvillage_0_split <- fc8_plantvillage
I0403 13:18:20.862661 10784 net.cpp:399] fc8_plantvillage_fc8_plantvillage_0_split -> fc8_plantvillage_fc8_plantvillage_0_split_0
I0403 13:18:20.862679 10784 net.cpp:399] fc8_plantvillage_fc8_plantvillage_0_split -> fc8_plantvillage_fc8_plantvillage_0_split_1
I0403 13:18:20.862700 10784 net.cpp:399] fc8_plantvillage_fc8_plantvillage_0_split -> fc8_plantvillage_fc8_plantvillage_0_split_2
I0403 13:18:20.862776 10784 net.cpp:141] Setting up fc8_plantvillage_fc8_plantvillage_0_split
I0403 13:18:20.862799 10784 net.cpp:148] Top shape: 100 38 (3800)
I0403 13:18:20.862814 10784 net.cpp:148] Top shape: 100 38 (3800)
I0403 13:18:20.862829 10784 net.cpp:148] Top shape: 100 38 (3800)
I0403 13:18:20.862843 10784 net.cpp:156] Memory required for data: 831586800
I0403 13:18:20.862855 10784 layer_factory.hpp:77] Creating layer prob
I0403 13:18:20.862874 10784 net.cpp:91] Creating Layer prob
I0403 13:18:20.862887 10784 net.cpp:425] prob <- fc8_plantvillage_fc8_plantvillage_0_split_0
I0403 13:18:20.862905 10784 net.cpp:399] prob -> prob
I0403 13:18:20.863117 10784 net.cpp:141] Setting up prob
I0403 13:18:20.863142 10784 net.cpp:148] Top shape: 100 38 (3800)
I0403 13:18:20.863155 10784 net.cpp:156] Memory required for data: 831602000
I0403 13:18:20.863169 10784 layer_factory.hpp:77] Creating layer hdf5out
I0403 13:18:20.863190 10784 net.cpp:91] Creating Layer hdf5out
I0403 13:18:20.863206 10784 net.cpp:425] hdf5out <- prob
I0403 13:18:20.863224 10784 net.cpp:425] hdf5out <- label_data_1_split_0
I0403 13:18:20.865918 10784 net.cpp:141] Setting up hdf5out
…
