…
I0403 13:14:05.138505 10564 net.cpp:313] The NetState phase (1) differed from the phase (0) specified by a rule in layer data
I0403 13:14:05.138821 10564 net.cpp:49] Initializing net from parameters: 
state {
  phase: TEST
}
layer {
  name: "data"
  type: "Data"
  top: "data"
  top: "label"
  include {
    phase: TEST
  }
  transform_param {
    crop_size: 227
    mean_file: "/home/mohanty/data/final_dataset/lmdb/color-80-20/mean.binaryproto"
  }
  data_param {
    source: "/home/mohanty/data/final_dataset/lmdb/color-80-20/test_db"
    batch_size: 100
    backend: LMDB
  }
}
layer {
  name: "conv1"
  type: "Convolution"
  bottom: "data"
  top: "conv1"
  param {
    lr_mult: 1
    decay_mult: 1
  }
  param {
    lr_mult: 2
    decay_mult: 0
  }
  convolution_param {
    num_output: 96
    kernel_size: 11
    stride: 4
    weight_filler {
      type: "gaussian"
      std: 0.01
    }
    bias_filler {
      type: "constant"
      value: 0
    }
  }
}
layer {
  name: "relu1"
  type: "ReLU"
  bottom: "conv1"
  top: "conv1"
}
layer {
  name: "norm1"
  type: "LRN"
  bottom: "conv1"
  top: "norm1"
  lrn_param {
    local_size: 5
    alpha: 0.0001
    beta: 0.75
  }
}
layer {
  name: "pool1"
  type: "Pooling"
  bottom: "norm1"
  top: "pool1"
  pooling_param {
    pool: MAX
    kernel_size: 3
    stride: 2
  }
}
layer {
  name: "conv2"
  type: "Convolution"
  bottom: "pool1"
  top: "conv2"
  param {
    lr_mult: 1
    decay_mult: 1
  }
  param {
    lr_mult: 2
    decay_mult: 0
  }
  convolution_param {
    num_output: 256
    pad: 2
    kernel_size: 5
    group: 2
    weight_filler {
      type: "gaussian"
      std: 0.01
    }
    bias_filler {
      type: "constant"
      value: 0.1
    }
  }
}
layer {
  name: "relu2"
  type: "ReLU"
  bottom: "conv2"
  top: "conv2"
}
layer {
  name: "norm2"
  type: "LRN"
  bottom: "conv2"
  top: "norm2"
  lrn_param {
    local_size: 5
    alpha: 0.0001
    beta: 0.75
  }
}
layer {
  name: "pool2"
  type: "Pooling"
  bottom: "norm2"
  top: "pool2"
  pooling_param {
    pool: MAX
    kernel_size: 3
    stride: 2
  }
}
layer {
  name: "conv3"
  type: "Convolution"
  bottom: "pool2"
  top: "conv3"
  param {
    lr_mult: 1
    decay_mult: 1
  }
  param {
    lr_mult: 2
    decay_mult: 0
  }
  convolution_param {
    num_output: 384
    pad: 1
    kernel_size: 3
    weight_filler {
      type: "gaussian"
      std: 0.01
    }
    bias_filler {
      type: "constant"
      value: 0
    }
  }
}
layer {
  name: "relu3"
  type: "ReLU"
  bottom: "conv3"
  top: "conv3"
}
layer {
  name: "conv4"
  type: "Convolution"
  bottom: "conv3"
  top: "conv4"
  param {
    lr_mult: 1
    decay_mult: 1
  }
  param {
    lr_mult: 2
    decay_mult: 0
  }
  convolution_param {
    num_output: 384
    pad: 1
    kernel_size: 3
    group: 2
    weight_filler {
      type: "gaussian"
      std: 0.01
    }
    bias_filler {
      type: "constant"
      value: 0.1
    }
  }
}
layer {
  name: "relu4"
  type: "ReLU"
  bottom: "conv4"
  top: "conv4"
}
layer {
  name: "conv5"
  type: "Convolution"
  bottom: "conv4"
  top: "conv5"
  param {
    lr_mult: 1
    decay_mult: 1
  }
  param {
    lr_mult: 2
    decay_mult: 0
  }
  convolution_param {
    num_output: 256
    pad: 1
    kernel_size: 3
    group: 2
    weight_filler {
      type: "gaussian"
      std: 0.01
    }
    bias_filler {
      type: "constant"
      value: 0.1
    }
  }
}
layer {
  name: "relu5"
  type: "ReLU"
  bottom: "conv5"
  top: "conv5"
}
layer {
  name: "pool5"
  type: "Pooling"
  bottom: "conv5"
  top: "pool5"
  pooling_param {
    pool: MAX
    kernel_size: 3
    stride: 2
  }
}
layer {
  name: "fc6"
  type: "InnerProduct"
  bottom: "pool5"
  top: "fc6"
  param {
    lr_mult: 1
    decay_mult: 1
  }
  param {
    lr_mult: 2
    decay_mult: 0
  }
  inner_product_param {
    num_output: 4096
    weight_filler {
      type: "gaussian"
      std: 0.005
    }
    bias_filler {
      type: "constant"
      value: 0.1
    }
  }
}
layer {
  name: "relu6"
  type: "ReLU"
  bottom: "fc6"
  top: "fc6"
}
layer {
  name: "drop6"
  type: "Dropout"
  bottom: "fc6"
  top: "fc6"
  dropout_param {
    dropout_ratio: 0.5
  }
}
layer {
  name: "fc7"
  type: "InnerProduct"
  bottom: "fc6"
  top: "fc7"
  param {
    lr_mult: 1
    decay_mult: 1
  }
  param {
    lr_mult: 2
    decay_mult: 0
  }
  inner_product_param {
    num_output: 4096
    weight_filler {
      type: "gaussian"
      std: 0.005
    }
    bias_filler {
      type: "constant"
      value: 0.1
    }
  }
}
layer {
  name: "relu7"
  type: "ReLU"
  bottom: "fc7"
  top: "fc7"
}
layer {
  name: "drop7"
  type: "Dropout"
  bottom: "fc7"
  top: "fc7"
  dropout_param {
    dropout_ratio: 0.5
  }
}
layer {
  name: "fc8_plantvillage"
  type: "InnerProduct"
  bottom: "fc7"
  top: "fc8_plantvillage"
  param {
    lr_mult: 1
    decay_mult: 1
  }
  param {
    lr_mult: 2
    decay_mult: 0
  }
  inner_product_param {
    num_output: 38
    weight_filler {
      type: "gaussian"
      std: 0.01
    }
    bias_filler {
      type: "constant"
      value: 0
    }
  }
}
layer {
  name: "prob"
  type: "Softmax"
  bottom: "fc8_plantvillage"
  top: "prob"
  include {
    phase: TEST
  }
}
layer {
  name: "hdf5out"
  type: "HDF5Output"
  bottom: "prob"
  bottom: "label"
  include {
    phase: TEST
  }
  hdf5_output_param {
    file_name: "hdf5_dumps/iter_5244.h5"
  }
}
layer {
  name: "loss"
  type: "SoftmaxWithLoss"
  bottom: "fc8_plantvillage"
  bottom: "label"
  top: "loss"
}
layer {
  name: "accuracy"
  type: "Accuracy"
  bottom: "fc8_plantvillage"
  bottom: "label"
  top: "accuracy"
  include {
    phase: TEST
  }
}
I0403 13:14:05.139377 10564 layer_factory.hpp:77] Creating layer data
I0403 13:14:05.139996 10564 net.cpp:91] Creating Layer data
I0403 13:14:05.140024 10564 net.cpp:399] data -> data
I0403 13:14:05.140076 10564 net.cpp:399] data -> label
I0403 13:14:05.140112 10564 data_transformer.cpp:25] Loading mean file from: /home/mohanty/data/final_dataset/lmdb/color-80-20/mean.binaryproto
I0403 13:14:05.143093 10569 db_lmdb.cpp:38] Opened lmdb /home/mohanty/data/final_dataset/lmdb/color-80-20/test_db
I0403 13:14:05.154330 10564 data_layer.cpp:41] output data size: 100,3,227,227
I0403 13:14:05.272778 10564 net.cpp:141] Setting up data
I0403 13:14:05.272869 10564 net.cpp:148] Top shape: 100 3 227 227 (15458700)
I0403 13:14:05.272892 10564 net.cpp:148] Top shape: 100 (100)
I0403 13:14:05.272907 10564 net.cpp:156] Memory required for data: 61835200
I0403 13:14:05.272935 10564 layer_factory.hpp:77] Creating layer label_data_1_split
I0403 13:14:05.272960 10564 net.cpp:91] Creating Layer label_data_1_split
I0403 13:14:05.272979 10564 net.cpp:425] label_data_1_split <- label
I0403 13:14:05.273010 10564 net.cpp:399] label_data_1_split -> label_data_1_split_0
I0403 13:14:05.273037 10564 net.cpp:399] label_data_1_split -> label_data_1_split_1
I0403 13:14:05.273057 10564 net.cpp:399] label_data_1_split -> label_data_1_split_2
I0403 13:14:05.273120 10564 net.cpp:141] Setting up label_data_1_split
I0403 13:14:05.273144 10564 net.cpp:148] Top shape: 100 (100)
I0403 13:14:05.273159 10564 net.cpp:148] Top shape: 100 (100)
I0403 13:14:05.273175 10564 net.cpp:148] Top shape: 100 (100)
I0403 13:14:05.273188 10564 net.cpp:156] Memory required for data: 61836400
I0403 13:14:05.273202 10564 layer_factory.hpp:77] Creating layer conv1
I0403 13:14:05.273233 10564 net.cpp:91] Creating Layer conv1
I0403 13:14:05.273260 10564 net.cpp:425] conv1 <- data
I0403 13:14:05.273282 10564 net.cpp:399] conv1 -> conv1
I0403 13:14:05.414629 10564 net.cpp:141] Setting up conv1
I0403 13:14:05.414708 10564 net.cpp:148] Top shape: 100 96 55 55 (29040000)
I0403 13:14:05.414726 10564 net.cpp:156] Memory required for data: 177996400
I0403 13:14:05.414757 10564 layer_factory.hpp:77] Creating layer relu1
I0403 13:14:05.414784 10564 net.cpp:91] Creating Layer relu1
I0403 13:14:05.414803 10564 net.cpp:425] relu1 <- conv1
I0403 13:14:05.414824 10564 net.cpp:386] relu1 -> conv1 (in-place)
I0403 13:14:05.415097 10564 net.cpp:141] Setting up relu1
I0403 13:14:05.415125 10564 net.cpp:148] Top shape: 100 96 55 55 (29040000)
I0403 13:14:05.415141 10564 net.cpp:156] Memory required for data: 294156400
I0403 13:14:05.415196 10564 layer_factory.hpp:77] Creating layer norm1
I0403 13:14:05.415227 10564 net.cpp:91] Creating Layer norm1
I0403 13:14:05.415246 10564 net.cpp:425] norm1 <- conv1
I0403 13:14:05.415266 10564 net.cpp:399] norm1 -> norm1
I0403 13:14:05.415606 10564 net.cpp:141] Setting up norm1
I0403 13:14:05.415634 10564 net.cpp:148] Top shape: 100 96 55 55 (29040000)
I0403 13:14:05.415650 10564 net.cpp:156] Memory required for data: 410316400
I0403 13:14:05.415665 10564 layer_factory.hpp:77] Creating layer pool1
I0403 13:14:05.415688 10564 net.cpp:91] Creating Layer pool1
I0403 13:14:05.415706 10564 net.cpp:425] pool1 <- norm1
I0403 13:14:05.415727 10564 net.cpp:399] pool1 -> pool1
I0403 13:14:05.415801 10564 net.cpp:141] Setting up pool1
I0403 13:14:05.415827 10564 net.cpp:148] Top shape: 100 96 27 27 (6998400)
I0403 13:14:05.415844 10564 net.cpp:156] Memory required for data: 438310000
I0403 13:14:05.415858 10564 layer_factory.hpp:77] Creating layer conv2
I0403 13:14:05.415886 10564 net.cpp:91] Creating Layer conv2
I0403 13:14:05.415904 10564 net.cpp:425] conv2 <- pool1
I0403 13:14:05.415922 10564 net.cpp:399] conv2 -> conv2
I0403 13:14:05.430948 10564 net.cpp:141] Setting up conv2
I0403 13:14:05.430996 10564 net.cpp:148] Top shape: 100 256 27 27 (18662400)
I0403 13:14:05.431015 10564 net.cpp:156] Memory required for data: 512959600
I0403 13:14:05.431036 10564 layer_factory.hpp:77] Creating layer relu2
I0403 13:14:05.431057 10564 net.cpp:91] Creating Layer relu2
I0403 13:14:05.431073 10564 net.cpp:425] relu2 <- conv2
I0403 13:14:05.431092 10564 net.cpp:386] relu2 -> conv2 (in-place)
I0403 13:14:05.431378 10564 net.cpp:141] Setting up relu2
I0403 13:14:05.431406 10564 net.cpp:148] Top shape: 100 256 27 27 (18662400)
I0403 13:14:05.431421 10564 net.cpp:156] Memory required for data: 587609200
I0403 13:14:05.431437 10564 layer_factory.hpp:77] Creating layer norm2
I0403 13:14:05.431458 10564 net.cpp:91] Creating Layer norm2
I0403 13:14:05.431476 10564 net.cpp:425] norm2 <- conv2
I0403 13:14:05.431493 10564 net.cpp:399] norm2 -> norm2
I0403 13:14:05.431704 10564 net.cpp:141] Setting up norm2
I0403 13:14:05.431730 10564 net.cpp:148] Top shape: 100 256 27 27 (18662400)
I0403 13:14:05.431745 10564 net.cpp:156] Memory required for data: 662258800
I0403 13:14:05.431759 10564 layer_factory.hpp:77] Creating layer pool2
I0403 13:14:05.431777 10564 net.cpp:91] Creating Layer pool2
I0403 13:14:05.431792 10564 net.cpp:425] pool2 <- norm2
I0403 13:14:05.431812 10564 net.cpp:399] pool2 -> pool2
I0403 13:14:05.431865 10564 net.cpp:141] Setting up pool2
I0403 13:14:05.431890 10564 net.cpp:148] Top shape: 100 256 13 13 (4326400)
I0403 13:14:05.431903 10564 net.cpp:156] Memory required for data: 679564400
I0403 13:14:05.431917 10564 layer_factory.hpp:77] Creating layer conv3
I0403 13:14:05.431943 10564 net.cpp:91] Creating Layer conv3
I0403 13:14:05.431962 10564 net.cpp:425] conv3 <- pool2
I0403 13:14:05.431978 10564 net.cpp:399] conv3 -> conv3
I0403 13:14:05.470425 10564 net.cpp:141] Setting up conv3
I0403 13:14:05.470500 10564 net.cpp:148] Top shape: 100 384 13 13 (6489600)
I0403 13:14:05.470518 10564 net.cpp:156] Memory required for data: 705522800
I0403 13:14:05.470544 10564 layer_factory.hpp:77] Creating layer relu3
I0403 13:14:05.470567 10564 net.cpp:91] Creating Layer relu3
I0403 13:14:05.470584 10564 net.cpp:425] relu3 <- conv3
I0403 13:14:05.470609 10564 net.cpp:386] relu3 -> conv3 (in-place)
I0403 13:14:05.470892 10564 net.cpp:141] Setting up relu3
I0403 13:14:05.470921 10564 net.cpp:148] Top shape: 100 384 13 13 (6489600)
I0403 13:14:05.470935 10564 net.cpp:156] Memory required for data: 731481200
I0403 13:14:05.470950 10564 layer_factory.hpp:77] Creating layer conv4
I0403 13:14:05.470979 10564 net.cpp:91] Creating Layer conv4
I0403 13:14:05.470999 10564 net.cpp:425] conv4 <- conv3
I0403 13:14:05.471019 10564 net.cpp:399] conv4 -> conv4
I0403 13:14:05.507078 10564 net.cpp:141] Setting up conv4
I0403 13:14:05.507155 10564 net.cpp:148] Top shape: 100 384 13 13 (6489600)
I0403 13:14:05.507211 10564 net.cpp:156] Memory required for data: 757439600
I0403 13:14:05.507236 10564 layer_factory.hpp:77] Creating layer relu4
I0403 13:14:05.507269 10564 net.cpp:91] Creating Layer relu4
I0403 13:14:05.507287 10564 net.cpp:425] relu4 <- conv4
I0403 13:14:05.507308 10564 net.cpp:386] relu4 -> conv4 (in-place)
I0403 13:14:05.507583 10564 net.cpp:141] Setting up relu4
I0403 13:14:05.507618 10564 net.cpp:148] Top shape: 100 384 13 13 (6489600)
I0403 13:14:05.507635 10564 net.cpp:156] Memory required for data: 783398000
I0403 13:14:05.507652 10564 layer_factory.hpp:77] Creating layer conv5
I0403 13:14:05.507678 10564 net.cpp:91] Creating Layer conv5
I0403 13:14:05.507696 10564 net.cpp:425] conv5 <- conv4
I0403 13:14:05.507715 10564 net.cpp:399] conv5 -> conv5
I0403 13:14:05.528076 10564 net.cpp:141] Setting up conv5
I0403 13:14:05.528144 10564 net.cpp:148] Top shape: 100 256 13 13 (4326400)
I0403 13:14:05.528162 10564 net.cpp:156] Memory required for data: 800703600
I0403 13:14:05.528185 10564 layer_factory.hpp:77] Creating layer relu5
I0403 13:14:05.528208 10564 net.cpp:91] Creating Layer relu5
I0403 13:14:05.528223 10564 net.cpp:425] relu5 <- conv5
I0403 13:14:05.528242 10564 net.cpp:386] relu5 -> conv5 (in-place)
I0403 13:14:05.528522 10564 net.cpp:141] Setting up relu5
I0403 13:14:05.528548 10564 net.cpp:148] Top shape: 100 256 13 13 (4326400)
I0403 13:14:05.528566 10564 net.cpp:156] Memory required for data: 818009200
I0403 13:14:05.528581 10564 layer_factory.hpp:77] Creating layer pool5
I0403 13:14:05.528610 10564 net.cpp:91] Creating Layer pool5
I0403 13:14:05.528630 10564 net.cpp:425] pool5 <- conv5
I0403 13:14:05.528647 10564 net.cpp:399] pool5 -> pool5
I0403 13:14:05.528708 10564 net.cpp:141] Setting up pool5
I0403 13:14:05.528733 10564 net.cpp:148] Top shape: 100 256 6 6 (921600)
I0403 13:14:05.528746 10564 net.cpp:156] Memory required for data: 821695600
I0403 13:14:05.528760 10564 layer_factory.hpp:77] Creating layer fc6
I0403 13:14:05.528785 10564 net.cpp:91] Creating Layer fc6
I0403 13:14:05.528802 10564 net.cpp:425] fc6 <- pool5
I0403 13:14:05.528822 10564 net.cpp:399] fc6 -> fc6
I0403 13:14:07.082626 10564 net.cpp:141] Setting up fc6
I0403 13:14:07.082712 10564 net.cpp:148] Top shape: 100 4096 (409600)
I0403 13:14:07.082728 10564 net.cpp:156] Memory required for data: 823334000
I0403 13:14:07.082751 10564 layer_factory.hpp:77] Creating layer relu6
I0403 13:14:07.082774 10564 net.cpp:91] Creating Layer relu6
I0403 13:14:07.082792 10564 net.cpp:425] relu6 <- fc6
I0403 13:14:07.082810 10564 net.cpp:386] relu6 -> fc6 (in-place)
I0403 13:14:07.083042 10564 net.cpp:141] Setting up relu6
I0403 13:14:07.083067 10564 net.cpp:148] Top shape: 100 4096 (409600)
I0403 13:14:07.083082 10564 net.cpp:156] Memory required for data: 824972400
I0403 13:14:07.083096 10564 layer_factory.hpp:77] Creating layer drop6
I0403 13:14:07.083114 10564 net.cpp:91] Creating Layer drop6
I0403 13:14:07.083129 10564 net.cpp:425] drop6 <- fc6
I0403 13:14:07.083148 10564 net.cpp:386] drop6 -> fc6 (in-place)
I0403 13:14:07.083204 10564 net.cpp:141] Setting up drop6
I0403 13:14:07.083230 10564 net.cpp:148] Top shape: 100 4096 (409600)
I0403 13:14:07.083245 10564 net.cpp:156] Memory required for data: 826610800
I0403 13:14:07.083259 10564 layer_factory.hpp:77] Creating layer fc7
I0403 13:14:07.083277 10564 net.cpp:91] Creating Layer fc7
I0403 13:14:07.083294 10564 net.cpp:425] fc7 <- fc6
I0403 13:14:07.083313 10564 net.cpp:399] fc7 -> fc7
I0403 13:14:07.766297 10564 net.cpp:141] Setting up fc7
I0403 13:14:07.766376 10564 net.cpp:148] Top shape: 100 4096 (409600)
I0403 13:14:07.766391 10564 net.cpp:156] Memory required for data: 828249200
I0403 13:14:07.766413 10564 layer_factory.hpp:77] Creating layer relu7
I0403 13:14:07.766434 10564 net.cpp:91] Creating Layer relu7
I0403 13:14:07.766451 10564 net.cpp:425] relu7 <- fc7
I0403 13:14:07.766472 10564 net.cpp:386] relu7 -> fc7 (in-place)
I0403 13:14:07.766880 10564 net.cpp:141] Setting up relu7
I0403 13:14:07.766908 10564 net.cpp:148] Top shape: 100 4096 (409600)
I0403 13:14:07.766960 10564 net.cpp:156] Memory required for data: 829887600
I0403 13:14:07.766976 10564 layer_factory.hpp:77] Creating layer drop7
I0403 13:14:07.766994 10564 net.cpp:91] Creating Layer drop7
I0403 13:14:07.767009 10564 net.cpp:425] drop7 <- fc7
I0403 13:14:07.767029 10564 net.cpp:386] drop7 -> fc7 (in-place)
I0403 13:14:07.767071 10564 net.cpp:141] Setting up drop7
I0403 13:14:07.767094 10564 net.cpp:148] Top shape: 100 4096 (409600)
I0403 13:14:07.767108 10564 net.cpp:156] Memory required for data: 831526000
I0403 13:14:07.767122 10564 layer_factory.hpp:77] Creating layer fc8_plantvillage
I0403 13:14:07.767144 10564 net.cpp:91] Creating Layer fc8_plantvillage
I0403 13:14:07.767160 10564 net.cpp:425] fc8_plantvillage <- fc7
I0403 13:14:07.767179 10564 net.cpp:399] fc8_plantvillage -> fc8_plantvillage
I0403 13:14:07.773908 10564 net.cpp:141] Setting up fc8_plantvillage
I0403 13:14:07.773937 10564 net.cpp:148] Top shape: 100 38 (3800)
I0403 13:14:07.773952 10564 net.cpp:156] Memory required for data: 831541200
I0403 13:14:07.773969 10564 layer_factory.hpp:77] Creating layer fc8_plantvillage_fc8_plantvillage_0_split
I0403 13:14:07.773988 10564 net.cpp:91] Creating Layer fc8_plantvillage_fc8_plantvillage_0_split
I0403 13:14:07.774003 10564 net.cpp:425] fc8_plantvillage_fc8_plantvillage_0_split <- fc8_plantvillage
I0403 13:14:07.774022 10564 net.cpp:399] fc8_plantvillage_fc8_plantvillage_0_split -> fc8_plantvillage_fc8_plantvillage_0_split_0
I0403 13:14:07.774044 10564 net.cpp:399] fc8_plantvillage_fc8_plantvillage_0_split -> fc8_plantvillage_fc8_plantvillage_0_split_1
I0403 13:14:07.774062 10564 net.cpp:399] fc8_plantvillage_fc8_plantvillage_0_split -> fc8_plantvillage_fc8_plantvillage_0_split_2
I0403 13:14:07.774139 10564 net.cpp:141] Setting up fc8_plantvillage_fc8_plantvillage_0_split
I0403 13:14:07.774163 10564 net.cpp:148] Top shape: 100 38 (3800)
I0403 13:14:07.774179 10564 net.cpp:148] Top shape: 100 38 (3800)
I0403 13:14:07.774194 10564 net.cpp:148] Top shape: 100 38 (3800)
I0403 13:14:07.774207 10564 net.cpp:156] Memory required for data: 831586800
I0403 13:14:07.774221 10564 layer_factory.hpp:77] Creating layer prob
I0403 13:14:07.774238 10564 net.cpp:91] Creating Layer prob
I0403 13:14:07.774253 10564 net.cpp:425] prob <- fc8_plantvillage_fc8_plantvillage_0_split_0
I0403 13:14:07.774272 10564 net.cpp:399] prob -> prob
I0403 13:14:07.774494 10564 net.cpp:141] Setting up prob
I0403 13:14:07.774523 10564 net.cpp:148] Top shape: 100 38 (3800)
I0403 13:14:07.774539 10564 net.cpp:156] Memory required for data: 831602000
I0403 13:14:07.774554 10564 layer_factory.hpp:77] Creating layer hdf5out
I0403 13:14:07.774571 10564 net.cpp:91] Creating Layer hdf5out
I0403 13:14:07.774586 10564 net.cpp:425] hdf5out <- prob
I0403 13:14:07.774612 10564 net.cpp:425] hdf5out <- label_data_1_split_0
I0403 13:14:07.777119 10564 net.cpp:141] Setting up hdf5out
…
