…
I0403 13:14:55.557382 10595 net.cpp:313] The NetState phase (1) differed from the phase (0) specified by a rule in layer data
I0403 13:14:55.557714 10595 net.cpp:49] Initializing net from parameters: 
state {
  phase: TEST
}
layer {
  name: "data"
  type: "Data"
  top: "data"
  top: "label"
  include {
    phase: TEST
  }
  transform_param {
    crop_size: 227
    mean_file: "/home/mohanty/data/final_dataset/lmdb/color-80-20/mean.binaryproto"
  }
  data_param {
    source: "/home/mohanty/data/final_dataset/lmdb/color-80-20/test_db"
    batch_size: 100
    backend: LMDB
  }
}
layer {
  name: "conv1"
  type: "Convolution"
  bottom: "data"
  top: "conv1"
  param {
    lr_mult: 1
    decay_mult: 1
  }
  param {
    lr_mult: 2
    decay_mult: 0
  }
  convolution_param {
    num_output: 96
    kernel_size: 11
    stride: 4
    weight_filler {
      type: "gaussian"
      std: 0.01
    }
    bias_filler {
      type: "constant"
      value: 0
    }
  }
}
layer {
  name: "relu1"
  type: "ReLU"
  bottom: "conv1"
  top: "conv1"
}
layer {
  name: "norm1"
  type: "LRN"
  bottom: "conv1"
  top: "norm1"
  lrn_param {
    local_size: 5
    alpha: 0.0001
    beta: 0.75
  }
}
layer {
  name: "pool1"
  type: "Pooling"
  bottom: "norm1"
  top: "pool1"
  pooling_param {
    pool: MAX
    kernel_size: 3
    stride: 2
  }
}
layer {
  name: "conv2"
  type: "Convolution"
  bottom: "pool1"
  top: "conv2"
  param {
    lr_mult: 1
    decay_mult: 1
  }
  param {
    lr_mult: 2
    decay_mult: 0
  }
  convolution_param {
    num_output: 256
    pad: 2
    kernel_size: 5
    group: 2
    weight_filler {
      type: "gaussian"
      std: 0.01
    }
    bias_filler {
      type: "constant"
      value: 0.1
    }
  }
}
layer {
  name: "relu2"
  type: "ReLU"
  bottom: "conv2"
  top: "conv2"
}
layer {
  name: "norm2"
  type: "LRN"
  bottom: "conv2"
  top: "norm2"
  lrn_param {
    local_size: 5
    alpha: 0.0001
    beta: 0.75
  }
}
layer {
  name: "pool2"
  type: "Pooling"
  bottom: "norm2"
  top: "pool2"
  pooling_param {
    pool: MAX
    kernel_size: 3
    stride: 2
  }
}
layer {
  name: "conv3"
  type: "Convolution"
  bottom: "pool2"
  top: "conv3"
  param {
    lr_mult: 1
    decay_mult: 1
  }
  param {
    lr_mult: 2
    decay_mult: 0
  }
  convolution_param {
    num_output: 384
    pad: 1
    kernel_size: 3
    weight_filler {
      type: "gaussian"
      std: 0.01
    }
    bias_filler {
      type: "constant"
      value: 0
    }
  }
}
layer {
  name: "relu3"
  type: "ReLU"
  bottom: "conv3"
  top: "conv3"
}
layer {
  name: "conv4"
  type: "Convolution"
  bottom: "conv3"
  top: "conv4"
  param {
    lr_mult: 1
    decay_mult: 1
  }
  param {
    lr_mult: 2
    decay_mult: 0
  }
  convolution_param {
    num_output: 384
    pad: 1
    kernel_size: 3
    group: 2
    weight_filler {
      type: "gaussian"
      std: 0.01
    }
    bias_filler {
      type: "constant"
      value: 0.1
    }
  }
}
layer {
  name: "relu4"
  type: "ReLU"
  bottom: "conv4"
  top: "conv4"
}
layer {
  name: "conv5"
  type: "Convolution"
  bottom: "conv4"
  top: "conv5"
  param {
    lr_mult: 1
    decay_mult: 1
  }
  param {
    lr_mult: 2
    decay_mult: 0
  }
  convolution_param {
    num_output: 256
    pad: 1
    kernel_size: 3
    group: 2
    weight_filler {
      type: "gaussian"
      std: 0.01
    }
    bias_filler {
      type: "constant"
      value: 0.1
    }
  }
}
layer {
  name: "relu5"
  type: "ReLU"
  bottom: "conv5"
  top: "conv5"
}
layer {
  name: "pool5"
  type: "Pooling"
  bottom: "conv5"
  top: "pool5"
  pooling_param {
    pool: MAX
    kernel_size: 3
    stride: 2
  }
}
layer {
  name: "fc6"
  type: "InnerProduct"
  bottom: "pool5"
  top: "fc6"
  param {
    lr_mult: 1
    decay_mult: 1
  }
  param {
    lr_mult: 2
    decay_mult: 0
  }
  inner_product_param {
    num_output: 4096
    weight_filler {
      type: "gaussian"
      std: 0.005
    }
    bias_filler {
      type: "constant"
      value: 0.1
    }
  }
}
layer {
  name: "relu6"
  type: "ReLU"
  bottom: "fc6"
  top: "fc6"
}
layer {
  name: "drop6"
  type: "Dropout"
  bottom: "fc6"
  top: "fc6"
  dropout_param {
    dropout_ratio: 0.5
  }
}
layer {
  name: "fc7"
  type: "InnerProduct"
  bottom: "fc6"
  top: "fc7"
  param {
    lr_mult: 1
    decay_mult: 1
  }
  param {
    lr_mult: 2
    decay_mult: 0
  }
  inner_product_param {
    num_output: 4096
    weight_filler {
      type: "gaussian"
      std: 0.005
    }
    bias_filler {
      type: "constant"
      value: 0.1
    }
  }
}
layer {
  name: "relu7"
  type: "ReLU"
  bottom: "fc7"
  top: "fc7"
}
layer {
  name: "drop7"
  type: "Dropout"
  bottom: "fc7"
  top: "fc7"
  dropout_param {
    dropout_ratio: 0.5
  }
}
layer {
  name: "fc8_plantvillage"
  type: "InnerProduct"
  bottom: "fc7"
  top: "fc8_plantvillage"
  param {
    lr_mult: 1
    decay_mult: 1
  }
  param {
    lr_mult: 2
    decay_mult: 0
  }
  inner_product_param {
    num_output: 38
    weight_filler {
      type: "gaussian"
      std: 0.01
    }
    bias_filler {
      type: "constant"
      value: 0
    }
  }
}
layer {
  name: "prob"
  type: "Softmax"
  bottom: "fc8_plantvillage"
  top: "prob"
  include {
    phase: TEST
  }
}
layer {
  name: "hdf5out"
  type: "HDF5Output"
  bottom: "prob"
  bottom: "label"
  include {
    phase: TEST
  }
  hdf5_output_param {
    file_name: "hdf5_dumps/iter_6118.h5"
  }
}
layer {
  name: "loss"
  type: "SoftmaxWithLoss"
  bottom: "fc8_plantvillage"
  bottom: "label"
  top: "loss"
}
layer {
  name: "accuracy"
  type: "Accuracy"
  bottom: "fc8_plantvillage"
  bottom: "label"
  top: "accuracy"
  include {
    phase: TEST
  }
}
I0403 13:14:55.558317 10595 layer_factory.hpp:77] Creating layer data
I0403 13:14:55.558979 10595 net.cpp:91] Creating Layer data
I0403 13:14:55.559012 10595 net.cpp:399] data -> data
I0403 13:14:55.559062 10595 net.cpp:399] data -> label
I0403 13:14:55.559099 10595 data_transformer.cpp:25] Loading mean file from: /home/mohanty/data/final_dataset/lmdb/color-80-20/mean.binaryproto
I0403 13:14:55.561693 10598 db_lmdb.cpp:38] Opened lmdb /home/mohanty/data/final_dataset/lmdb/color-80-20/test_db
I0403 13:14:55.573737 10595 data_layer.cpp:41] output data size: 100,3,227,227
I0403 13:14:55.695785 10595 net.cpp:141] Setting up data
I0403 13:14:55.695878 10595 net.cpp:148] Top shape: 100 3 227 227 (15458700)
I0403 13:14:55.695899 10595 net.cpp:148] Top shape: 100 (100)
I0403 13:14:55.695914 10595 net.cpp:156] Memory required for data: 61835200
I0403 13:14:55.695943 10595 layer_factory.hpp:77] Creating layer label_data_1_split
I0403 13:14:55.695981 10595 net.cpp:91] Creating Layer label_data_1_split
I0403 13:14:55.695997 10595 net.cpp:425] label_data_1_split <- label
I0403 13:14:55.696029 10595 net.cpp:399] label_data_1_split -> label_data_1_split_0
I0403 13:14:55.696055 10595 net.cpp:399] label_data_1_split -> label_data_1_split_1
I0403 13:14:55.696075 10595 net.cpp:399] label_data_1_split -> label_data_1_split_2
I0403 13:14:55.696141 10595 net.cpp:141] Setting up label_data_1_split
I0403 13:14:55.696163 10595 net.cpp:148] Top shape: 100 (100)
I0403 13:14:55.696179 10595 net.cpp:148] Top shape: 100 (100)
I0403 13:14:55.696194 10595 net.cpp:148] Top shape: 100 (100)
I0403 13:14:55.696208 10595 net.cpp:156] Memory required for data: 61836400
I0403 13:14:55.696221 10595 layer_factory.hpp:77] Creating layer conv1
I0403 13:14:55.696251 10595 net.cpp:91] Creating Layer conv1
I0403 13:14:55.696269 10595 net.cpp:425] conv1 <- data
I0403 13:14:55.696288 10595 net.cpp:399] conv1 -> conv1
I0403 13:14:55.840755 10595 net.cpp:141] Setting up conv1
I0403 13:14:55.840796 10595 net.cpp:148] Top shape: 100 96 55 55 (29040000)
I0403 13:14:55.840812 10595 net.cpp:156] Memory required for data: 177996400
I0403 13:14:55.840842 10595 layer_factory.hpp:77] Creating layer relu1
I0403 13:14:55.840869 10595 net.cpp:91] Creating Layer relu1
I0403 13:14:55.840885 10595 net.cpp:425] relu1 <- conv1
I0403 13:14:55.840908 10595 net.cpp:386] relu1 -> conv1 (in-place)
I0403 13:14:55.841166 10595 net.cpp:141] Setting up relu1
I0403 13:14:55.841195 10595 net.cpp:148] Top shape: 100 96 55 55 (29040000)
I0403 13:14:55.841209 10595 net.cpp:156] Memory required for data: 294156400
I0403 13:14:55.841259 10595 layer_factory.hpp:77] Creating layer norm1
I0403 13:14:55.841286 10595 net.cpp:91] Creating Layer norm1
I0403 13:14:55.841315 10595 net.cpp:425] norm1 <- conv1
I0403 13:14:55.841334 10595 net.cpp:399] norm1 -> norm1
I0403 13:14:55.841737 10595 net.cpp:141] Setting up norm1
I0403 13:14:55.841764 10595 net.cpp:148] Top shape: 100 96 55 55 (29040000)
I0403 13:14:55.841779 10595 net.cpp:156] Memory required for data: 410316400
I0403 13:14:55.841794 10595 layer_factory.hpp:77] Creating layer pool1
I0403 13:14:55.841814 10595 net.cpp:91] Creating Layer pool1
I0403 13:14:55.841830 10595 net.cpp:425] pool1 <- norm1
I0403 13:14:55.841850 10595 net.cpp:399] pool1 -> pool1
I0403 13:14:55.841922 10595 net.cpp:141] Setting up pool1
I0403 13:14:55.841944 10595 net.cpp:148] Top shape: 100 96 27 27 (6998400)
I0403 13:14:55.841958 10595 net.cpp:156] Memory required for data: 438310000
I0403 13:14:55.841972 10595 layer_factory.hpp:77] Creating layer conv2
I0403 13:14:55.842000 10595 net.cpp:91] Creating Layer conv2
I0403 13:14:55.842015 10595 net.cpp:425] conv2 <- pool1
I0403 13:14:55.842032 10595 net.cpp:399] conv2 -> conv2
I0403 13:14:55.857318 10595 net.cpp:141] Setting up conv2
I0403 13:14:55.857367 10595 net.cpp:148] Top shape: 100 256 27 27 (18662400)
I0403 13:14:55.857383 10595 net.cpp:156] Memory required for data: 512959600
I0403 13:14:55.857404 10595 layer_factory.hpp:77] Creating layer relu2
I0403 13:14:55.857426 10595 net.cpp:91] Creating Layer relu2
I0403 13:14:55.857444 10595 net.cpp:425] relu2 <- conv2
I0403 13:14:55.857460 10595 net.cpp:386] relu2 -> conv2 (in-place)
I0403 13:14:55.857746 10595 net.cpp:141] Setting up relu2
I0403 13:14:55.857774 10595 net.cpp:148] Top shape: 100 256 27 27 (18662400)
I0403 13:14:55.857787 10595 net.cpp:156] Memory required for data: 587609200
I0403 13:14:55.857802 10595 layer_factory.hpp:77] Creating layer norm2
I0403 13:14:55.857825 10595 net.cpp:91] Creating Layer norm2
I0403 13:14:55.857842 10595 net.cpp:425] norm2 <- conv2
I0403 13:14:55.857862 10595 net.cpp:399] norm2 -> norm2
I0403 13:14:55.858064 10595 net.cpp:141] Setting up norm2
I0403 13:14:55.858090 10595 net.cpp:148] Top shape: 100 256 27 27 (18662400)
I0403 13:14:55.858105 10595 net.cpp:156] Memory required for data: 662258800
I0403 13:14:55.858119 10595 layer_factory.hpp:77] Creating layer pool2
I0403 13:14:55.858137 10595 net.cpp:91] Creating Layer pool2
I0403 13:14:55.858151 10595 net.cpp:425] pool2 <- norm2
I0403 13:14:55.858170 10595 net.cpp:399] pool2 -> pool2
I0403 13:14:55.858224 10595 net.cpp:141] Setting up pool2
I0403 13:14:55.858247 10595 net.cpp:148] Top shape: 100 256 13 13 (4326400)
I0403 13:14:55.858263 10595 net.cpp:156] Memory required for data: 679564400
I0403 13:14:55.858276 10595 layer_factory.hpp:77] Creating layer conv3
I0403 13:14:55.858300 10595 net.cpp:91] Creating Layer conv3
I0403 13:14:55.858316 10595 net.cpp:425] conv3 <- pool2
I0403 13:14:55.858336 10595 net.cpp:399] conv3 -> conv3
I0403 13:14:55.901932 10595 net.cpp:141] Setting up conv3
I0403 13:14:55.902004 10595 net.cpp:148] Top shape: 100 384 13 13 (6489600)
I0403 13:14:55.902020 10595 net.cpp:156] Memory required for data: 705522800
I0403 13:14:55.902045 10595 layer_factory.hpp:77] Creating layer relu3
I0403 13:14:55.902066 10595 net.cpp:91] Creating Layer relu3
I0403 13:14:55.902083 10595 net.cpp:425] relu3 <- conv3
I0403 13:14:55.902103 10595 net.cpp:386] relu3 -> conv3 (in-place)
I0403 13:14:55.902374 10595 net.cpp:141] Setting up relu3
I0403 13:14:55.902401 10595 net.cpp:148] Top shape: 100 384 13 13 (6489600)
I0403 13:14:55.902415 10595 net.cpp:156] Memory required for data: 731481200
I0403 13:14:55.902429 10595 layer_factory.hpp:77] Creating layer conv4
I0403 13:14:55.902456 10595 net.cpp:91] Creating Layer conv4
I0403 13:14:55.902473 10595 net.cpp:425] conv4 <- conv3
I0403 13:14:55.902493 10595 net.cpp:399] conv4 -> conv4
I0403 13:14:55.932696 10595 net.cpp:141] Setting up conv4
I0403 13:14:55.932762 10595 net.cpp:148] Top shape: 100 384 13 13 (6489600)
I0403 13:14:55.932813 10595 net.cpp:156] Memory required for data: 757439600
I0403 13:14:55.932835 10595 layer_factory.hpp:77] Creating layer relu4
I0403 13:14:55.932857 10595 net.cpp:91] Creating Layer relu4
I0403 13:14:55.932874 10595 net.cpp:425] relu4 <- conv4
I0403 13:14:55.932898 10595 net.cpp:386] relu4 -> conv4 (in-place)
I0403 13:14:55.933177 10595 net.cpp:141] Setting up relu4
I0403 13:14:55.933204 10595 net.cpp:148] Top shape: 100 384 13 13 (6489600)
I0403 13:14:55.933219 10595 net.cpp:156] Memory required for data: 783398000
I0403 13:14:55.933235 10595 layer_factory.hpp:77] Creating layer conv5
I0403 13:14:55.933262 10595 net.cpp:91] Creating Layer conv5
I0403 13:14:55.933279 10595 net.cpp:425] conv5 <- conv4
I0403 13:14:55.933302 10595 net.cpp:399] conv5 -> conv5
I0403 13:14:55.954186 10595 net.cpp:141] Setting up conv5
I0403 13:14:55.954241 10595 net.cpp:148] Top shape: 100 256 13 13 (4326400)
I0403 13:14:55.954257 10595 net.cpp:156] Memory required for data: 800703600
I0403 13:14:55.954280 10595 layer_factory.hpp:77] Creating layer relu5
I0403 13:14:55.954305 10595 net.cpp:91] Creating Layer relu5
I0403 13:14:55.954322 10595 net.cpp:425] relu5 <- conv5
I0403 13:14:55.954339 10595 net.cpp:386] relu5 -> conv5 (in-place)
I0403 13:14:55.954635 10595 net.cpp:141] Setting up relu5
I0403 13:14:55.954661 10595 net.cpp:148] Top shape: 100 256 13 13 (4326400)
I0403 13:14:55.954677 10595 net.cpp:156] Memory required for data: 818009200
I0403 13:14:55.954691 10595 layer_factory.hpp:77] Creating layer pool5
I0403 13:14:55.954715 10595 net.cpp:91] Creating Layer pool5
I0403 13:14:55.954732 10595 net.cpp:425] pool5 <- conv5
I0403 13:14:55.954751 10595 net.cpp:399] pool5 -> pool5
I0403 13:14:55.954812 10595 net.cpp:141] Setting up pool5
I0403 13:14:55.954835 10595 net.cpp:148] Top shape: 100 256 6 6 (921600)
I0403 13:14:55.954850 10595 net.cpp:156] Memory required for data: 821695600
I0403 13:14:55.954864 10595 layer_factory.hpp:77] Creating layer fc6
I0403 13:14:55.954890 10595 net.cpp:91] Creating Layer fc6
I0403 13:14:55.954907 10595 net.cpp:425] fc6 <- pool5
I0403 13:14:55.954927 10595 net.cpp:399] fc6 -> fc6
I0403 13:14:57.510076 10595 net.cpp:141] Setting up fc6
I0403 13:14:57.510138 10595 net.cpp:148] Top shape: 100 4096 (409600)
I0403 13:14:57.510152 10595 net.cpp:156] Memory required for data: 823334000
I0403 13:14:57.510172 10595 layer_factory.hpp:77] Creating layer relu6
I0403 13:14:57.510193 10595 net.cpp:91] Creating Layer relu6
I0403 13:14:57.510221 10595 net.cpp:425] relu6 <- fc6
I0403 13:14:57.510241 10595 net.cpp:386] relu6 -> fc6 (in-place)
I0403 13:14:57.510468 10595 net.cpp:141] Setting up relu6
I0403 13:14:57.510493 10595 net.cpp:148] Top shape: 100 4096 (409600)
I0403 13:14:57.510509 10595 net.cpp:156] Memory required for data: 824972400
I0403 13:14:57.510522 10595 layer_factory.hpp:77] Creating layer drop6
I0403 13:14:57.510552 10595 net.cpp:91] Creating Layer drop6
I0403 13:14:57.510565 10595 net.cpp:425] drop6 <- fc6
I0403 13:14:57.510589 10595 net.cpp:386] drop6 -> fc6 (in-place)
I0403 13:14:57.510651 10595 net.cpp:141] Setting up drop6
I0403 13:14:57.510676 10595 net.cpp:148] Top shape: 100 4096 (409600)
I0403 13:14:57.510691 10595 net.cpp:156] Memory required for data: 826610800
I0403 13:14:57.510705 10595 layer_factory.hpp:77] Creating layer fc7
I0403 13:14:57.510723 10595 net.cpp:91] Creating Layer fc7
I0403 13:14:57.510738 10595 net.cpp:425] fc7 <- fc6
I0403 13:14:57.510757 10595 net.cpp:399] fc7 -> fc7
I0403 13:14:58.194066 10595 net.cpp:141] Setting up fc7
I0403 13:14:58.194105 10595 net.cpp:148] Top shape: 100 4096 (409600)
I0403 13:14:58.194121 10595 net.cpp:156] Memory required for data: 828249200
I0403 13:14:58.194140 10595 layer_factory.hpp:77] Creating layer relu7
I0403 13:14:58.194160 10595 net.cpp:91] Creating Layer relu7
I0403 13:14:58.194176 10595 net.cpp:425] relu7 <- fc7
I0403 13:14:58.194196 10595 net.cpp:386] relu7 -> fc7 (in-place)
I0403 13:14:58.194607 10595 net.cpp:141] Setting up relu7
I0403 13:14:58.194633 10595 net.cpp:148] Top shape: 100 4096 (409600)
I0403 13:14:58.194685 10595 net.cpp:156] Memory required for data: 829887600
I0403 13:14:58.194700 10595 layer_factory.hpp:77] Creating layer drop7
I0403 13:14:58.194718 10595 net.cpp:91] Creating Layer drop7
I0403 13:14:58.194733 10595 net.cpp:425] drop7 <- fc7
I0403 13:14:58.194751 10595 net.cpp:386] drop7 -> fc7 (in-place)
I0403 13:14:58.194793 10595 net.cpp:141] Setting up drop7
I0403 13:14:58.194818 10595 net.cpp:148] Top shape: 100 4096 (409600)
I0403 13:14:58.194831 10595 net.cpp:156] Memory required for data: 831526000
I0403 13:14:58.194845 10595 layer_factory.hpp:77] Creating layer fc8_plantvillage
I0403 13:14:58.194864 10595 net.cpp:91] Creating Layer fc8_plantvillage
I0403 13:14:58.194880 10595 net.cpp:425] fc8_plantvillage <- fc7
I0403 13:14:58.194897 10595 net.cpp:399] fc8_plantvillage -> fc8_plantvillage
I0403 13:14:58.201548 10595 net.cpp:141] Setting up fc8_plantvillage
I0403 13:14:58.201578 10595 net.cpp:148] Top shape: 100 38 (3800)
I0403 13:14:58.201601 10595 net.cpp:156] Memory required for data: 831541200
I0403 13:14:58.201617 10595 layer_factory.hpp:77] Creating layer fc8_plantvillage_fc8_plantvillage_0_split
I0403 13:14:58.201637 10595 net.cpp:91] Creating Layer fc8_plantvillage_fc8_plantvillage_0_split
I0403 13:14:58.201652 10595 net.cpp:425] fc8_plantvillage_fc8_plantvillage_0_split <- fc8_plantvillage
I0403 13:14:58.201668 10595 net.cpp:399] fc8_plantvillage_fc8_plantvillage_0_split -> fc8_plantvillage_fc8_plantvillage_0_split_0
I0403 13:14:58.201686 10595 net.cpp:399] fc8_plantvillage_fc8_plantvillage_0_split -> fc8_plantvillage_fc8_plantvillage_0_split_1
I0403 13:14:58.201704 10595 net.cpp:399] fc8_plantvillage_fc8_plantvillage_0_split -> fc8_plantvillage_fc8_plantvillage_0_split_2
I0403 13:14:58.201781 10595 net.cpp:141] Setting up fc8_plantvillage_fc8_plantvillage_0_split
I0403 13:14:58.201804 10595 net.cpp:148] Top shape: 100 38 (3800)
I0403 13:14:58.201819 10595 net.cpp:148] Top shape: 100 38 (3800)
I0403 13:14:58.201833 10595 net.cpp:148] Top shape: 100 38 (3800)
I0403 13:14:58.201845 10595 net.cpp:156] Memory required for data: 831586800
I0403 13:14:58.201858 10595 layer_factory.hpp:77] Creating layer prob
I0403 13:14:58.201875 10595 net.cpp:91] Creating Layer prob
I0403 13:14:58.201889 10595 net.cpp:425] prob <- fc8_plantvillage_fc8_plantvillage_0_split_0
I0403 13:14:58.201905 10595 net.cpp:399] prob -> prob
I0403 13:14:58.202136 10595 net.cpp:141] Setting up prob
I0403 13:14:58.202162 10595 net.cpp:148] Top shape: 100 38 (3800)
I0403 13:14:58.202177 10595 net.cpp:156] Memory required for data: 831602000
I0403 13:14:58.202190 10595 layer_factory.hpp:77] Creating layer hdf5out
I0403 13:14:58.202208 10595 net.cpp:91] Creating Layer hdf5out
I0403 13:14:58.202222 10595 net.cpp:425] hdf5out <- prob
I0403 13:14:58.202237 10595 net.cpp:425] hdf5out <- label_data_1_split_0
I0403 13:14:58.204442 10595 net.cpp:141] Setting up hdf5out
…
