…
I0403 13:11:07.173718 10457 net.cpp:313] The NetState phase (1) differed from the phase (0) specified by a rule in layer data
I0403 13:11:07.174041 10457 net.cpp:49] Initializing net from parameters: 
state {
  phase: TEST
}
layer {
  name: "data"
  type: "Data"
  top: "data"
  top: "label"
  include {
    phase: TEST
  }
  transform_param {
    crop_size: 227
    mean_file: "/home/mohanty/data/final_dataset/lmdb/color-80-20/mean.binaryproto"
  }
  data_param {
    source: "/home/mohanty/data/final_dataset/lmdb/color-80-20/test_db"
    batch_size: 100
    backend: LMDB
  }
}
layer {
  name: "conv1"
  type: "Convolution"
  bottom: "data"
  top: "conv1"
  param {
    lr_mult: 1
    decay_mult: 1
  }
  param {
    lr_mult: 2
    decay_mult: 0
  }
  convolution_param {
    num_output: 96
    kernel_size: 11
    stride: 4
    weight_filler {
      type: "gaussian"
      std: 0.01
    }
    bias_filler {
      type: "constant"
      value: 0
    }
  }
}
layer {
  name: "relu1"
  type: "ReLU"
  bottom: "conv1"
  top: "conv1"
}
layer {
  name: "norm1"
  type: "LRN"
  bottom: "conv1"
  top: "norm1"
  lrn_param {
    local_size: 5
    alpha: 0.0001
    beta: 0.75
  }
}
layer {
  name: "pool1"
  type: "Pooling"
  bottom: "norm1"
  top: "pool1"
  pooling_param {
    pool: MAX
    kernel_size: 3
    stride: 2
  }
}
layer {
  name: "conv2"
  type: "Convolution"
  bottom: "pool1"
  top: "conv2"
  param {
    lr_mult: 1
    decay_mult: 1
  }
  param {
    lr_mult: 2
    decay_mult: 0
  }
  convolution_param {
    num_output: 256
    pad: 2
    kernel_size: 5
    group: 2
    weight_filler {
      type: "gaussian"
      std: 0.01
    }
    bias_filler {
      type: "constant"
      value: 0.1
    }
  }
}
layer {
  name: "relu2"
  type: "ReLU"
  bottom: "conv2"
  top: "conv2"
}
layer {
  name: "norm2"
  type: "LRN"
  bottom: "conv2"
  top: "norm2"
  lrn_param {
    local_size: 5
    alpha: 0.0001
    beta: 0.75
  }
}
layer {
  name: "pool2"
  type: "Pooling"
  bottom: "norm2"
  top: "pool2"
  pooling_param {
    pool: MAX
    kernel_size: 3
    stride: 2
  }
}
layer {
  name: "conv3"
  type: "Convolution"
  bottom: "pool2"
  top: "conv3"
  param {
    lr_mult: 1
    decay_mult: 1
  }
  param {
    lr_mult: 2
    decay_mult: 0
  }
  convolution_param {
    num_output: 384
    pad: 1
    kernel_size: 3
    weight_filler {
      type: "gaussian"
      std: 0.01
    }
    bias_filler {
      type: "constant"
      value: 0
    }
  }
}
layer {
  name: "relu3"
  type: "ReLU"
  bottom: "conv3"
  top: "conv3"
}
layer {
  name: "conv4"
  type: "Convolution"
  bottom: "conv3"
  top: "conv4"
  param {
    lr_mult: 1
    decay_mult: 1
  }
  param {
    lr_mult: 2
    decay_mult: 0
  }
  convolution_param {
    num_output: 384
    pad: 1
    kernel_size: 3
    group: 2
    weight_filler {
      type: "gaussian"
      std: 0.01
    }
    bias_filler {
      type: "constant"
      value: 0.1
    }
  }
}
layer {
  name: "relu4"
  type: "ReLU"
  bottom: "conv4"
  top: "conv4"
}
layer {
  name: "conv5"
  type: "Convolution"
  bottom: "conv4"
  top: "conv5"
  param {
    lr_mult: 1
    decay_mult: 1
  }
  param {
    lr_mult: 2
    decay_mult: 0
  }
  convolution_param {
    num_output: 256
    pad: 1
    kernel_size: 3
    group: 2
    weight_filler {
      type: "gaussian"
      std: 0.01
    }
    bias_filler {
      type: "constant"
      value: 0.1
    }
  }
}
layer {
  name: "relu5"
  type: "ReLU"
  bottom: "conv5"
  top: "conv5"
}
layer {
  name: "pool5"
  type: "Pooling"
  bottom: "conv5"
  top: "pool5"
  pooling_param {
    pool: MAX
    kernel_size: 3
    stride: 2
  }
}
layer {
  name: "fc6"
  type: "InnerProduct"
  bottom: "pool5"
  top: "fc6"
  param {
    lr_mult: 1
    decay_mult: 1
  }
  param {
    lr_mult: 2
    decay_mult: 0
  }
  inner_product_param {
    num_output: 4096
    weight_filler {
      type: "gaussian"
      std: 0.005
    }
    bias_filler {
      type: "constant"
      value: 0.1
    }
  }
}
layer {
  name: "relu6"
  type: "ReLU"
  bottom: "fc6"
  top: "fc6"
}
layer {
  name: "drop6"
  type: "Dropout"
  bottom: "fc6"
  top: "fc6"
  dropout_param {
    dropout_ratio: 0.5
  }
}
layer {
  name: "fc7"
  type: "InnerProduct"
  bottom: "fc6"
  top: "fc7"
  param {
    lr_mult: 1
    decay_mult: 1
  }
  param {
    lr_mult: 2
    decay_mult: 0
  }
  inner_product_param {
    num_output: 4096
    weight_filler {
      type: "gaussian"
      std: 0.005
    }
    bias_filler {
      type: "constant"
      value: 0.1
    }
  }
}
layer {
  name: "relu7"
  type: "ReLU"
  bottom: "fc7"
  top: "fc7"
}
layer {
  name: "drop7"
  type: "Dropout"
  bottom: "fc7"
  top: "fc7"
  dropout_param {
    dropout_ratio: 0.5
  }
}
layer {
  name: "fc8_plantvillage"
  type: "InnerProduct"
  bottom: "fc7"
  top: "fc8_plantvillage"
  param {
    lr_mult: 1
    decay_mult: 1
  }
  param {
    lr_mult: 2
    decay_mult: 0
  }
  inner_product_param {
    num_output: 38
    weight_filler {
      type: "gaussian"
      std: 0.01
    }
    bias_filler {
      type: "constant"
      value: 0
    }
  }
}
layer {
  name: "prob"
  type: "Softmax"
  bottom: "fc8_plantvillage"
  top: "prob"
  include {
    phase: TEST
  }
}
layer {
  name: "hdf5out"
  type: "HDF5Output"
  bottom: "prob"
  bottom: "label"
  include {
    phase: TEST
  }
  hdf5_output_param {
    file_name: "hdf5_dumps/iter_2185.h5"
  }
}
layer {
  name: "loss"
  type: "SoftmaxWithLoss"
  bottom: "fc8_plantvillage"
  bottom: "label"
  top: "loss"
}
layer {
  name: "accuracy"
  type: "Accuracy"
  bottom: "fc8_plantvillage"
  bottom: "label"
  top: "accuracy"
  include {
    phase: TEST
  }
}
I0403 13:11:07.174628 10457 layer_factory.hpp:77] Creating layer data
I0403 13:11:07.175284 10457 net.cpp:91] Creating Layer data
I0403 13:11:07.175320 10457 net.cpp:399] data -> data
I0403 13:11:07.175374 10457 net.cpp:399] data -> label
I0403 13:11:07.175410 10457 data_transformer.cpp:25] Loading mean file from: /home/mohanty/data/final_dataset/lmdb/color-80-20/mean.binaryproto
I0403 13:11:07.178220 10460 db_lmdb.cpp:38] Opened lmdb /home/mohanty/data/final_dataset/lmdb/color-80-20/test_db
I0403 13:11:07.190299 10457 data_layer.cpp:41] output data size: 100,3,227,227
I0403 13:11:07.311848 10457 net.cpp:141] Setting up data
I0403 13:11:07.311941 10457 net.cpp:148] Top shape: 100 3 227 227 (15458700)
I0403 13:11:07.311964 10457 net.cpp:148] Top shape: 100 (100)
I0403 13:11:07.311988 10457 net.cpp:156] Memory required for data: 61835200
I0403 13:11:07.312016 10457 layer_factory.hpp:77] Creating layer label_data_1_split
I0403 13:11:07.312042 10457 net.cpp:91] Creating Layer label_data_1_split
I0403 13:11:07.312060 10457 net.cpp:425] label_data_1_split <- label
I0403 13:11:07.312093 10457 net.cpp:399] label_data_1_split -> label_data_1_split_0
I0403 13:11:07.312120 10457 net.cpp:399] label_data_1_split -> label_data_1_split_1
I0403 13:11:07.312141 10457 net.cpp:399] label_data_1_split -> label_data_1_split_2
I0403 13:11:07.312206 10457 net.cpp:141] Setting up label_data_1_split
I0403 13:11:07.312229 10457 net.cpp:148] Top shape: 100 (100)
I0403 13:11:07.312247 10457 net.cpp:148] Top shape: 100 (100)
I0403 13:11:07.312270 10457 net.cpp:148] Top shape: 100 (100)
I0403 13:11:07.312285 10457 net.cpp:156] Memory required for data: 61836400
I0403 13:11:07.312299 10457 layer_factory.hpp:77] Creating layer conv1
I0403 13:11:07.312330 10457 net.cpp:91] Creating Layer conv1
I0403 13:11:07.312350 10457 net.cpp:425] conv1 <- data
I0403 13:11:07.312368 10457 net.cpp:399] conv1 -> conv1
I0403 13:11:07.455373 10457 net.cpp:141] Setting up conv1
I0403 13:11:07.455451 10457 net.cpp:148] Top shape: 100 96 55 55 (29040000)
I0403 13:11:07.455468 10457 net.cpp:156] Memory required for data: 177996400
I0403 13:11:07.455500 10457 layer_factory.hpp:77] Creating layer relu1
I0403 13:11:07.455538 10457 net.cpp:91] Creating Layer relu1
I0403 13:11:07.455555 10457 net.cpp:425] relu1 <- conv1
I0403 13:11:07.455579 10457 net.cpp:386] relu1 -> conv1 (in-place)
I0403 13:11:07.455843 10457 net.cpp:141] Setting up relu1
I0403 13:11:07.455870 10457 net.cpp:148] Top shape: 100 96 55 55 (29040000)
I0403 13:11:07.455886 10457 net.cpp:156] Memory required for data: 294156400
I0403 13:11:07.455937 10457 layer_factory.hpp:77] Creating layer norm1
I0403 13:11:07.455965 10457 net.cpp:91] Creating Layer norm1
I0403 13:11:07.455984 10457 net.cpp:425] norm1 <- conv1
I0403 13:11:07.456006 10457 net.cpp:399] norm1 -> norm1
I0403 13:11:07.456321 10457 net.cpp:141] Setting up norm1
I0403 13:11:07.456348 10457 net.cpp:148] Top shape: 100 96 55 55 (29040000)
I0403 13:11:07.456364 10457 net.cpp:156] Memory required for data: 410316400
I0403 13:11:07.456379 10457 layer_factory.hpp:77] Creating layer pool1
I0403 13:11:07.456403 10457 net.cpp:91] Creating Layer pool1
I0403 13:11:07.456420 10457 net.cpp:425] pool1 <- norm1
I0403 13:11:07.456437 10457 net.cpp:399] pool1 -> pool1
I0403 13:11:07.456506 10457 net.cpp:141] Setting up pool1
I0403 13:11:07.456529 10457 net.cpp:148] Top shape: 100 96 27 27 (6998400)
I0403 13:11:07.456544 10457 net.cpp:156] Memory required for data: 438310000
I0403 13:11:07.456558 10457 layer_factory.hpp:77] Creating layer conv2
I0403 13:11:07.456589 10457 net.cpp:91] Creating Layer conv2
I0403 13:11:07.456607 10457 net.cpp:425] conv2 <- pool1
I0403 13:11:07.456624 10457 net.cpp:399] conv2 -> conv2
I0403 13:11:07.472111 10457 net.cpp:141] Setting up conv2
I0403 13:11:07.472164 10457 net.cpp:148] Top shape: 100 256 27 27 (18662400)
I0403 13:11:07.472182 10457 net.cpp:156] Memory required for data: 512959600
I0403 13:11:07.472204 10457 layer_factory.hpp:77] Creating layer relu2
I0403 13:11:07.472226 10457 net.cpp:91] Creating Layer relu2
I0403 13:11:07.472242 10457 net.cpp:425] relu2 <- conv2
I0403 13:11:07.472261 10457 net.cpp:386] relu2 -> conv2 (in-place)
I0403 13:11:07.472537 10457 net.cpp:141] Setting up relu2
I0403 13:11:07.472564 10457 net.cpp:148] Top shape: 100 256 27 27 (18662400)
I0403 13:11:07.472585 10457 net.cpp:156] Memory required for data: 587609200
I0403 13:11:07.472601 10457 layer_factory.hpp:77] Creating layer norm2
I0403 13:11:07.472622 10457 net.cpp:91] Creating Layer norm2
I0403 13:11:07.472638 10457 net.cpp:425] norm2 <- conv2
I0403 13:11:07.472656 10457 net.cpp:399] norm2 -> norm2
I0403 13:11:07.472861 10457 net.cpp:141] Setting up norm2
I0403 13:11:07.472889 10457 net.cpp:148] Top shape: 100 256 27 27 (18662400)
I0403 13:11:07.472906 10457 net.cpp:156] Memory required for data: 662258800
I0403 13:11:07.472921 10457 layer_factory.hpp:77] Creating layer pool2
I0403 13:11:07.472939 10457 net.cpp:91] Creating Layer pool2
I0403 13:11:07.472955 10457 net.cpp:425] pool2 <- norm2
I0403 13:11:07.472975 10457 net.cpp:399] pool2 -> pool2
I0403 13:11:07.473029 10457 net.cpp:141] Setting up pool2
I0403 13:11:07.473062 10457 net.cpp:148] Top shape: 100 256 13 13 (4326400)
I0403 13:11:07.473078 10457 net.cpp:156] Memory required for data: 679564400
I0403 13:11:07.473093 10457 layer_factory.hpp:77] Creating layer conv3
I0403 13:11:07.473116 10457 net.cpp:91] Creating Layer conv3
I0403 13:11:07.473134 10457 net.cpp:425] conv3 <- pool2
I0403 13:11:07.473155 10457 net.cpp:399] conv3 -> conv3
I0403 13:11:07.517629 10457 net.cpp:141] Setting up conv3
I0403 13:11:07.517707 10457 net.cpp:148] Top shape: 100 384 13 13 (6489600)
I0403 13:11:07.517725 10457 net.cpp:156] Memory required for data: 705522800
I0403 13:11:07.517752 10457 layer_factory.hpp:77] Creating layer relu3
I0403 13:11:07.517776 10457 net.cpp:91] Creating Layer relu3
I0403 13:11:07.517792 10457 net.cpp:425] relu3 <- conv3
I0403 13:11:07.517815 10457 net.cpp:386] relu3 -> conv3 (in-place)
I0403 13:11:07.518100 10457 net.cpp:141] Setting up relu3
I0403 13:11:07.518126 10457 net.cpp:148] Top shape: 100 384 13 13 (6489600)
I0403 13:11:07.518141 10457 net.cpp:156] Memory required for data: 731481200
I0403 13:11:07.518157 10457 layer_factory.hpp:77] Creating layer conv4
I0403 13:11:07.518182 10457 net.cpp:91] Creating Layer conv4
I0403 13:11:07.518200 10457 net.cpp:425] conv4 <- conv3
I0403 13:11:07.518221 10457 net.cpp:399] conv4 -> conv4
I0403 13:11:07.548646 10457 net.cpp:141] Setting up conv4
I0403 13:11:07.548686 10457 net.cpp:148] Top shape: 100 384 13 13 (6489600)
I0403 13:11:07.548735 10457 net.cpp:156] Memory required for data: 757439600
I0403 13:11:07.548758 10457 layer_factory.hpp:77] Creating layer relu4
I0403 13:11:07.548779 10457 net.cpp:91] Creating Layer relu4
I0403 13:11:07.548796 10457 net.cpp:425] relu4 <- conv4
I0403 13:11:07.548815 10457 net.cpp:386] relu4 -> conv4 (in-place)
I0403 13:11:07.549116 10457 net.cpp:141] Setting up relu4
I0403 13:11:07.549145 10457 net.cpp:148] Top shape: 100 384 13 13 (6489600)
I0403 13:11:07.549162 10457 net.cpp:156] Memory required for data: 783398000
I0403 13:11:07.549177 10457 layer_factory.hpp:77] Creating layer conv5
I0403 13:11:07.549201 10457 net.cpp:91] Creating Layer conv5
I0403 13:11:07.549217 10457 net.cpp:425] conv5 <- conv4
I0403 13:11:07.549239 10457 net.cpp:399] conv5 -> conv5
I0403 13:11:07.569970 10457 net.cpp:141] Setting up conv5
I0403 13:11:07.570029 10457 net.cpp:148] Top shape: 100 256 13 13 (4326400)
I0403 13:11:07.570047 10457 net.cpp:156] Memory required for data: 800703600
I0403 13:11:07.570073 10457 layer_factory.hpp:77] Creating layer relu5
I0403 13:11:07.570094 10457 net.cpp:91] Creating Layer relu5
I0403 13:11:07.570111 10457 net.cpp:425] relu5 <- conv5
I0403 13:11:07.570132 10457 net.cpp:386] relu5 -> conv5 (in-place)
I0403 13:11:07.570416 10457 net.cpp:141] Setting up relu5
I0403 13:11:07.570446 10457 net.cpp:148] Top shape: 100 256 13 13 (4326400)
I0403 13:11:07.570463 10457 net.cpp:156] Memory required for data: 818009200
I0403 13:11:07.570478 10457 layer_factory.hpp:77] Creating layer pool5
I0403 13:11:07.570500 10457 net.cpp:91] Creating Layer pool5
I0403 13:11:07.570520 10457 net.cpp:425] pool5 <- conv5
I0403 13:11:07.570539 10457 net.cpp:399] pool5 -> pool5
I0403 13:11:07.570605 10457 net.cpp:141] Setting up pool5
I0403 13:11:07.570631 10457 net.cpp:148] Top shape: 100 256 6 6 (921600)
I0403 13:11:07.570646 10457 net.cpp:156] Memory required for data: 821695600
I0403 13:11:07.570659 10457 layer_factory.hpp:77] Creating layer fc6
I0403 13:11:07.570686 10457 net.cpp:91] Creating Layer fc6
I0403 13:11:07.570703 10457 net.cpp:425] fc6 <- pool5
I0403 13:11:07.570724 10457 net.cpp:399] fc6 -> fc6
I0403 13:11:09.126317 10457 net.cpp:141] Setting up fc6
I0403 13:11:09.126396 10457 net.cpp:148] Top shape: 100 4096 (409600)
I0403 13:11:09.126413 10457 net.cpp:156] Memory required for data: 823334000
I0403 13:11:09.126435 10457 layer_factory.hpp:77] Creating layer relu6
I0403 13:11:09.126457 10457 net.cpp:91] Creating Layer relu6
I0403 13:11:09.126474 10457 net.cpp:425] relu6 <- fc6
I0403 13:11:09.126493 10457 net.cpp:386] relu6 -> fc6 (in-place)
I0403 13:11:09.126726 10457 net.cpp:141] Setting up relu6
I0403 13:11:09.126754 10457 net.cpp:148] Top shape: 100 4096 (409600)
I0403 13:11:09.126770 10457 net.cpp:156] Memory required for data: 824972400
I0403 13:11:09.126785 10457 layer_factory.hpp:77] Creating layer drop6
I0403 13:11:09.126803 10457 net.cpp:91] Creating Layer drop6
I0403 13:11:09.126818 10457 net.cpp:425] drop6 <- fc6
I0403 13:11:09.126837 10457 net.cpp:386] drop6 -> fc6 (in-place)
I0403 13:11:09.126888 10457 net.cpp:141] Setting up drop6
I0403 13:11:09.126911 10457 net.cpp:148] Top shape: 100 4096 (409600)
I0403 13:11:09.126926 10457 net.cpp:156] Memory required for data: 826610800
I0403 13:11:09.126940 10457 layer_factory.hpp:77] Creating layer fc7
I0403 13:11:09.126965 10457 net.cpp:91] Creating Layer fc7
I0403 13:11:09.126981 10457 net.cpp:425] fc7 <- fc6
I0403 13:11:09.127002 10457 net.cpp:399] fc7 -> fc7
I0403 13:11:09.809221 10457 net.cpp:141] Setting up fc7
I0403 13:11:09.809296 10457 net.cpp:148] Top shape: 100 4096 (409600)
I0403 13:11:09.809311 10457 net.cpp:156] Memory required for data: 828249200
I0403 13:11:09.809332 10457 layer_factory.hpp:77] Creating layer relu7
I0403 13:11:09.809355 10457 net.cpp:91] Creating Layer relu7
I0403 13:11:09.809370 10457 net.cpp:425] relu7 <- fc7
I0403 13:11:09.809389 10457 net.cpp:386] relu7 -> fc7 (in-place)
I0403 13:11:09.809803 10457 net.cpp:141] Setting up relu7
I0403 13:11:09.809831 10457 net.cpp:148] Top shape: 100 4096 (409600)
I0403 13:11:09.809886 10457 net.cpp:156] Memory required for data: 829887600
I0403 13:11:09.809902 10457 layer_factory.hpp:77] Creating layer drop7
I0403 13:11:09.809921 10457 net.cpp:91] Creating Layer drop7
I0403 13:11:09.809936 10457 net.cpp:425] drop7 <- fc7
I0403 13:11:09.809952 10457 net.cpp:386] drop7 -> fc7 (in-place)
I0403 13:11:09.809998 10457 net.cpp:141] Setting up drop7
I0403 13:11:09.810019 10457 net.cpp:148] Top shape: 100 4096 (409600)
I0403 13:11:09.810034 10457 net.cpp:156] Memory required for data: 831526000
I0403 13:11:09.810047 10457 layer_factory.hpp:77] Creating layer fc8_plantvillage
I0403 13:11:09.810070 10457 net.cpp:91] Creating Layer fc8_plantvillage
I0403 13:11:09.810089 10457 net.cpp:425] fc8_plantvillage <- fc7
I0403 13:11:09.810106 10457 net.cpp:399] fc8_plantvillage -> fc8_plantvillage
I0403 13:11:09.817051 10457 net.cpp:141] Setting up fc8_plantvillage
I0403 13:11:09.817080 10457 net.cpp:148] Top shape: 100 38 (3800)
I0403 13:11:09.817096 10457 net.cpp:156] Memory required for data: 831541200
I0403 13:11:09.817113 10457 layer_factory.hpp:77] Creating layer fc8_plantvillage_fc8_plantvillage_0_split
I0403 13:11:09.817132 10457 net.cpp:91] Creating Layer fc8_plantvillage_fc8_plantvillage_0_split
I0403 13:11:09.817148 10457 net.cpp:425] fc8_plantvillage_fc8_plantvillage_0_split <- fc8_plantvillage
I0403 13:11:09.817167 10457 net.cpp:399] fc8_plantvillage_fc8_plantvillage_0_split -> fc8_plantvillage_fc8_plantvillage_0_split_0
I0403 13:11:09.817188 10457 net.cpp:399] fc8_plantvillage_fc8_plantvillage_0_split -> fc8_plantvillage_fc8_plantvillage_0_split_1
I0403 13:11:09.817209 10457 net.cpp:399] fc8_plantvillage_fc8_plantvillage_0_split -> fc8_plantvillage_fc8_plantvillage_0_split_2
I0403 13:11:09.817288 10457 net.cpp:141] Setting up fc8_plantvillage_fc8_plantvillage_0_split
I0403 13:11:09.817312 10457 net.cpp:148] Top shape: 100 38 (3800)
I0403 13:11:09.817328 10457 net.cpp:148] Top shape: 100 38 (3800)
I0403 13:11:09.817344 10457 net.cpp:148] Top shape: 100 38 (3800)
I0403 13:11:09.817358 10457 net.cpp:156] Memory required for data: 831586800
I0403 13:11:09.817373 10457 layer_factory.hpp:77] Creating layer prob
I0403 13:11:09.817394 10457 net.cpp:91] Creating Layer prob
I0403 13:11:09.817410 10457 net.cpp:425] prob <- fc8_plantvillage_fc8_plantvillage_0_split_0
I0403 13:11:09.817430 10457 net.cpp:399] prob -> prob
I0403 13:11:09.817667 10457 net.cpp:141] Setting up prob
I0403 13:11:09.817698 10457 net.cpp:148] Top shape: 100 38 (3800)
I0403 13:11:09.817713 10457 net.cpp:156] Memory required for data: 831602000
I0403 13:11:09.817729 10457 layer_factory.hpp:77] Creating layer hdf5out
I0403 13:11:09.817747 10457 net.cpp:91] Creating Layer hdf5out
I0403 13:11:09.817764 10457 net.cpp:425] hdf5out <- prob
I0403 13:11:09.817780 10457 net.cpp:425] hdf5out <- label_data_1_split_0
I0403 13:11:09.820410 10457 net.cpp:141] Setting up hdf5out
…
