…
I0403 13:13:39.902740 10534 net.cpp:313] The NetState phase (1) differed from the phase (0) specified by a rule in layer data
I0403 13:13:39.903048 10534 net.cpp:49] Initializing net from parameters: 
state {
  phase: TEST
}
layer {
  name: "data"
  type: "Data"
  top: "data"
  top: "label"
  include {
    phase: TEST
  }
  transform_param {
    crop_size: 227
    mean_file: "/home/mohanty/data/final_dataset/lmdb/color-80-20/mean.binaryproto"
  }
  data_param {
    source: "/home/mohanty/data/final_dataset/lmdb/color-80-20/test_db"
    batch_size: 100
    backend: LMDB
  }
}
layer {
  name: "conv1"
  type: "Convolution"
  bottom: "data"
  top: "conv1"
  param {
    lr_mult: 1
    decay_mult: 1
  }
  param {
    lr_mult: 2
    decay_mult: 0
  }
  convolution_param {
    num_output: 96
    kernel_size: 11
    stride: 4
    weight_filler {
      type: "gaussian"
      std: 0.01
    }
    bias_filler {
      type: "constant"
      value: 0
    }
  }
}
layer {
  name: "relu1"
  type: "ReLU"
  bottom: "conv1"
  top: "conv1"
}
layer {
  name: "norm1"
  type: "LRN"
  bottom: "conv1"
  top: "norm1"
  lrn_param {
    local_size: 5
    alpha: 0.0001
    beta: 0.75
  }
}
layer {
  name: "pool1"
  type: "Pooling"
  bottom: "norm1"
  top: "pool1"
  pooling_param {
    pool: MAX
    kernel_size: 3
    stride: 2
  }
}
layer {
  name: "conv2"
  type: "Convolution"
  bottom: "pool1"
  top: "conv2"
  param {
    lr_mult: 1
    decay_mult: 1
  }
  param {
    lr_mult: 2
    decay_mult: 0
  }
  convolution_param {
    num_output: 256
    pad: 2
    kernel_size: 5
    group: 2
    weight_filler {
      type: "gaussian"
      std: 0.01
    }
    bias_filler {
      type: "constant"
      value: 0.1
    }
  }
}
layer {
  name: "relu2"
  type: "ReLU"
  bottom: "conv2"
  top: "conv2"
}
layer {
  name: "norm2"
  type: "LRN"
  bottom: "conv2"
  top: "norm2"
  lrn_param {
    local_size: 5
    alpha: 0.0001
    beta: 0.75
  }
}
layer {
  name: "pool2"
  type: "Pooling"
  bottom: "norm2"
  top: "pool2"
  pooling_param {
    pool: MAX
    kernel_size: 3
    stride: 2
  }
}
layer {
  name: "conv3"
  type: "Convolution"
  bottom: "pool2"
  top: "conv3"
  param {
    lr_mult: 1
    decay_mult: 1
  }
  param {
    lr_mult: 2
    decay_mult: 0
  }
  convolution_param {
    num_output: 384
    pad: 1
    kernel_size: 3
    weight_filler {
      type: "gaussian"
      std: 0.01
    }
    bias_filler {
      type: "constant"
      value: 0
    }
  }
}
layer {
  name: "relu3"
  type: "ReLU"
  bottom: "conv3"
  top: "conv3"
}
layer {
  name: "conv4"
  type: "Convolution"
  bottom: "conv3"
  top: "conv4"
  param {
    lr_mult: 1
    decay_mult: 1
  }
  param {
    lr_mult: 2
    decay_mult: 0
  }
  convolution_param {
    num_output: 384
    pad: 1
    kernel_size: 3
    group: 2
    weight_filler {
      type: "gaussian"
      std: 0.01
    }
    bias_filler {
      type: "constant"
      value: 0.1
    }
  }
}
layer {
  name: "relu4"
  type: "ReLU"
  bottom: "conv4"
  top: "conv4"
}
layer {
  name: "conv5"
  type: "Convolution"
  bottom: "conv4"
  top: "conv5"
  param {
    lr_mult: 1
    decay_mult: 1
  }
  param {
    lr_mult: 2
    decay_mult: 0
  }
  convolution_param {
    num_output: 256
    pad: 1
    kernel_size: 3
    group: 2
    weight_filler {
      type: "gaussian"
      std: 0.01
    }
    bias_filler {
      type: "constant"
      value: 0.1
    }
  }
}
layer {
  name: "relu5"
  type: "ReLU"
  bottom: "conv5"
  top: "conv5"
}
layer {
  name: "pool5"
  type: "Pooling"
  bottom: "conv5"
  top: "pool5"
  pooling_param {
    pool: MAX
    kernel_size: 3
    stride: 2
  }
}
layer {
  name: "fc6"
  type: "InnerProduct"
  bottom: "pool5"
  top: "fc6"
  param {
    lr_mult: 1
    decay_mult: 1
  }
  param {
    lr_mult: 2
    decay_mult: 0
  }
  inner_product_param {
    num_output: 4096
    weight_filler {
      type: "gaussian"
      std: 0.005
    }
    bias_filler {
      type: "constant"
      value: 0.1
    }
  }
}
layer {
  name: "relu6"
  type: "ReLU"
  bottom: "fc6"
  top: "fc6"
}
layer {
  name: "drop6"
  type: "Dropout"
  bottom: "fc6"
  top: "fc6"
  dropout_param {
    dropout_ratio: 0.5
  }
}
layer {
  name: "fc7"
  type: "InnerProduct"
  bottom: "fc6"
  top: "fc7"
  param {
    lr_mult: 1
    decay_mult: 1
  }
  param {
    lr_mult: 2
    decay_mult: 0
  }
  inner_product_param {
    num_output: 4096
    weight_filler {
      type: "gaussian"
      std: 0.005
    }
    bias_filler {
      type: "constant"
      value: 0.1
    }
  }
}
layer {
  name: "relu7"
  type: "ReLU"
  bottom: "fc7"
  top: "fc7"
}
layer {
  name: "drop7"
  type: "Dropout"
  bottom: "fc7"
  top: "fc7"
  dropout_param {
    dropout_ratio: 0.5
  }
}
layer {
  name: "fc8_plantvillage"
  type: "InnerProduct"
  bottom: "fc7"
  top: "fc8_plantvillage"
  param {
    lr_mult: 1
    decay_mult: 1
  }
  param {
    lr_mult: 2
    decay_mult: 0
  }
  inner_product_param {
    num_output: 38
    weight_filler {
      type: "gaussian"
      std: 0.01
    }
    bias_filler {
      type: "constant"
      value: 0
    }
  }
}
layer {
  name: "prob"
  type: "Softmax"
  bottom: "fc8_plantvillage"
  top: "prob"
  include {
    phase: TEST
  }
}
layer {
  name: "hdf5out"
  type: "HDF5Output"
  bottom: "prob"
  bottom: "label"
  include {
    phase: TEST
  }
  hdf5_output_param {
    file_name: "hdf5_dumps/iter_4807.h5"
  }
}
layer {
  name: "loss"
  type: "SoftmaxWithLoss"
  bottom: "fc8_plantvillage"
  bottom: "label"
  top: "loss"
}
layer {
  name: "accuracy"
  type: "Accuracy"
  bottom: "fc8_plantvillage"
  bottom: "label"
  top: "accuracy"
  include {
    phase: TEST
  }
}
I0403 13:13:39.903620 10534 layer_factory.hpp:77] Creating layer data
I0403 13:13:39.904276 10534 net.cpp:91] Creating Layer data
I0403 13:13:39.904307 10534 net.cpp:399] data -> data
I0403 13:13:39.904359 10534 net.cpp:399] data -> label
I0403 13:13:39.904397 10534 data_transformer.cpp:25] Loading mean file from: /home/mohanty/data/final_dataset/lmdb/color-80-20/mean.binaryproto
I0403 13:13:39.907359 10537 db_lmdb.cpp:38] Opened lmdb /home/mohanty/data/final_dataset/lmdb/color-80-20/test_db
I0403 13:13:39.919140 10534 data_layer.cpp:41] output data size: 100,3,227,227
I0403 13:13:40.038318 10534 net.cpp:141] Setting up data
I0403 13:13:40.038413 10534 net.cpp:148] Top shape: 100 3 227 227 (15458700)
I0403 13:13:40.038436 10534 net.cpp:148] Top shape: 100 (100)
I0403 13:13:40.038452 10534 net.cpp:156] Memory required for data: 61835200
I0403 13:13:40.038480 10534 layer_factory.hpp:77] Creating layer label_data_1_split
I0403 13:13:40.038506 10534 net.cpp:91] Creating Layer label_data_1_split
I0403 13:13:40.038523 10534 net.cpp:425] label_data_1_split <- label
I0403 13:13:40.038555 10534 net.cpp:399] label_data_1_split -> label_data_1_split_0
I0403 13:13:40.038583 10534 net.cpp:399] label_data_1_split -> label_data_1_split_1
I0403 13:13:40.038607 10534 net.cpp:399] label_data_1_split -> label_data_1_split_2
I0403 13:13:40.038683 10534 net.cpp:141] Setting up label_data_1_split
I0403 13:13:40.038707 10534 net.cpp:148] Top shape: 100 (100)
I0403 13:13:40.038722 10534 net.cpp:148] Top shape: 100 (100)
I0403 13:13:40.038736 10534 net.cpp:148] Top shape: 100 (100)
I0403 13:13:40.038749 10534 net.cpp:156] Memory required for data: 61836400
I0403 13:13:40.038763 10534 layer_factory.hpp:77] Creating layer conv1
I0403 13:13:40.038794 10534 net.cpp:91] Creating Layer conv1
I0403 13:13:40.038811 10534 net.cpp:425] conv1 <- data
I0403 13:13:40.038830 10534 net.cpp:399] conv1 -> conv1
I0403 13:13:40.180888 10534 net.cpp:141] Setting up conv1
I0403 13:13:40.180965 10534 net.cpp:148] Top shape: 100 96 55 55 (29040000)
I0403 13:13:40.180981 10534 net.cpp:156] Memory required for data: 177996400
I0403 13:13:40.181012 10534 layer_factory.hpp:77] Creating layer relu1
I0403 13:13:40.181038 10534 net.cpp:91] Creating Layer relu1
I0403 13:13:40.181056 10534 net.cpp:425] relu1 <- conv1
I0403 13:13:40.181076 10534 net.cpp:386] relu1 -> conv1 (in-place)
I0403 13:13:40.181346 10534 net.cpp:141] Setting up relu1
I0403 13:13:40.181375 10534 net.cpp:148] Top shape: 100 96 55 55 (29040000)
I0403 13:13:40.181391 10534 net.cpp:156] Memory required for data: 294156400
I0403 13:13:40.181447 10534 layer_factory.hpp:77] Creating layer norm1
I0403 13:13:40.181488 10534 net.cpp:91] Creating Layer norm1
I0403 13:13:40.181505 10534 net.cpp:425] norm1 <- conv1
I0403 13:13:40.181525 10534 net.cpp:399] norm1 -> norm1
I0403 13:13:40.181845 10534 net.cpp:141] Setting up norm1
I0403 13:13:40.181872 10534 net.cpp:148] Top shape: 100 96 55 55 (29040000)
I0403 13:13:40.181887 10534 net.cpp:156] Memory required for data: 410316400
I0403 13:13:40.181902 10534 layer_factory.hpp:77] Creating layer pool1
I0403 13:13:40.181924 10534 net.cpp:91] Creating Layer pool1
I0403 13:13:40.181941 10534 net.cpp:425] pool1 <- norm1
I0403 13:13:40.181958 10534 net.cpp:399] pool1 -> pool1
I0403 13:13:40.182024 10534 net.cpp:141] Setting up pool1
I0403 13:13:40.182046 10534 net.cpp:148] Top shape: 100 96 27 27 (6998400)
I0403 13:13:40.182060 10534 net.cpp:156] Memory required for data: 438310000
I0403 13:13:40.182075 10534 layer_factory.hpp:77] Creating layer conv2
I0403 13:13:40.182098 10534 net.cpp:91] Creating Layer conv2
I0403 13:13:40.182113 10534 net.cpp:425] conv2 <- pool1
I0403 13:13:40.182131 10534 net.cpp:399] conv2 -> conv2
I0403 13:13:40.197064 10534 net.cpp:141] Setting up conv2
I0403 13:13:40.197111 10534 net.cpp:148] Top shape: 100 256 27 27 (18662400)
I0403 13:13:40.197129 10534 net.cpp:156] Memory required for data: 512959600
I0403 13:13:40.197152 10534 layer_factory.hpp:77] Creating layer relu2
I0403 13:13:40.197173 10534 net.cpp:91] Creating Layer relu2
I0403 13:13:40.197190 10534 net.cpp:425] relu2 <- conv2
I0403 13:13:40.197206 10534 net.cpp:386] relu2 -> conv2 (in-place)
I0403 13:13:40.197492 10534 net.cpp:141] Setting up relu2
I0403 13:13:40.197518 10534 net.cpp:148] Top shape: 100 256 27 27 (18662400)
I0403 13:13:40.197533 10534 net.cpp:156] Memory required for data: 587609200
I0403 13:13:40.197547 10534 layer_factory.hpp:77] Creating layer norm2
I0403 13:13:40.197573 10534 net.cpp:91] Creating Layer norm2
I0403 13:13:40.197590 10534 net.cpp:425] norm2 <- conv2
I0403 13:13:40.197610 10534 net.cpp:399] norm2 -> norm2
I0403 13:13:40.197805 10534 net.cpp:141] Setting up norm2
I0403 13:13:40.197830 10534 net.cpp:148] Top shape: 100 256 27 27 (18662400)
I0403 13:13:40.197845 10534 net.cpp:156] Memory required for data: 662258800
I0403 13:13:40.197860 10534 layer_factory.hpp:77] Creating layer pool2
I0403 13:13:40.197876 10534 net.cpp:91] Creating Layer pool2
I0403 13:13:40.197891 10534 net.cpp:425] pool2 <- norm2
I0403 13:13:40.197909 10534 net.cpp:399] pool2 -> pool2
I0403 13:13:40.197974 10534 net.cpp:141] Setting up pool2
I0403 13:13:40.197999 10534 net.cpp:148] Top shape: 100 256 13 13 (4326400)
I0403 13:13:40.198012 10534 net.cpp:156] Memory required for data: 679564400
I0403 13:13:40.198026 10534 layer_factory.hpp:77] Creating layer conv3
I0403 13:13:40.198051 10534 net.cpp:91] Creating Layer conv3
I0403 13:13:40.198068 10534 net.cpp:425] conv3 <- pool2
I0403 13:13:40.198086 10534 net.cpp:399] conv3 -> conv3
I0403 13:13:40.241654 10534 net.cpp:141] Setting up conv3
I0403 13:13:40.241729 10534 net.cpp:148] Top shape: 100 384 13 13 (6489600)
I0403 13:13:40.241744 10534 net.cpp:156] Memory required for data: 705522800
I0403 13:13:40.241770 10534 layer_factory.hpp:77] Creating layer relu3
I0403 13:13:40.241794 10534 net.cpp:91] Creating Layer relu3
I0403 13:13:40.241812 10534 net.cpp:425] relu3 <- conv3
I0403 13:13:40.241832 10534 net.cpp:386] relu3 -> conv3 (in-place)
I0403 13:13:40.242115 10534 net.cpp:141] Setting up relu3
I0403 13:13:40.242141 10534 net.cpp:148] Top shape: 100 384 13 13 (6489600)
I0403 13:13:40.242157 10534 net.cpp:156] Memory required for data: 731481200
I0403 13:13:40.242172 10534 layer_factory.hpp:77] Creating layer conv4
I0403 13:13:40.242197 10534 net.cpp:91] Creating Layer conv4
I0403 13:13:40.242214 10534 net.cpp:425] conv4 <- conv3
I0403 13:13:40.242236 10534 net.cpp:399] conv4 -> conv4
I0403 13:13:40.272510 10534 net.cpp:141] Setting up conv4
I0403 13:13:40.272583 10534 net.cpp:148] Top shape: 100 384 13 13 (6489600)
I0403 13:13:40.272626 10534 net.cpp:156] Memory required for data: 757439600
I0403 13:13:40.272649 10534 layer_factory.hpp:77] Creating layer relu4
I0403 13:13:40.272670 10534 net.cpp:91] Creating Layer relu4
I0403 13:13:40.272687 10534 net.cpp:425] relu4 <- conv4
I0403 13:13:40.272709 10534 net.cpp:386] relu4 -> conv4 (in-place)
I0403 13:13:40.272999 10534 net.cpp:141] Setting up relu4
I0403 13:13:40.273025 10534 net.cpp:148] Top shape: 100 384 13 13 (6489600)
I0403 13:13:40.273041 10534 net.cpp:156] Memory required for data: 783398000
I0403 13:13:40.273056 10534 layer_factory.hpp:77] Creating layer conv5
I0403 13:13:40.273080 10534 net.cpp:91] Creating Layer conv5
I0403 13:13:40.273097 10534 net.cpp:425] conv5 <- conv4
I0403 13:13:40.273119 10534 net.cpp:399] conv5 -> conv5
I0403 13:13:40.293906 10534 net.cpp:141] Setting up conv5
I0403 13:13:40.293961 10534 net.cpp:148] Top shape: 100 256 13 13 (4326400)
I0403 13:13:40.293977 10534 net.cpp:156] Memory required for data: 800703600
I0403 13:13:40.294003 10534 layer_factory.hpp:77] Creating layer relu5
I0403 13:13:40.294023 10534 net.cpp:91] Creating Layer relu5
I0403 13:13:40.294039 10534 net.cpp:425] relu5 <- conv5
I0403 13:13:40.294061 10534 net.cpp:386] relu5 -> conv5 (in-place)
I0403 13:13:40.294353 10534 net.cpp:141] Setting up relu5
I0403 13:13:40.294380 10534 net.cpp:148] Top shape: 100 256 13 13 (4326400)
I0403 13:13:40.294395 10534 net.cpp:156] Memory required for data: 818009200
I0403 13:13:40.294410 10534 layer_factory.hpp:77] Creating layer pool5
I0403 13:13:40.294433 10534 net.cpp:91] Creating Layer pool5
I0403 13:13:40.294450 10534 net.cpp:425] pool5 <- conv5
I0403 13:13:40.294468 10534 net.cpp:399] pool5 -> pool5
I0403 13:13:40.294533 10534 net.cpp:141] Setting up pool5
I0403 13:13:40.294558 10534 net.cpp:148] Top shape: 100 256 6 6 (921600)
I0403 13:13:40.294582 10534 net.cpp:156] Memory required for data: 821695600
I0403 13:13:40.294600 10534 layer_factory.hpp:77] Creating layer fc6
I0403 13:13:40.294631 10534 net.cpp:91] Creating Layer fc6
I0403 13:13:40.294649 10534 net.cpp:425] fc6 <- pool5
I0403 13:13:40.294667 10534 net.cpp:399] fc6 -> fc6
I0403 13:13:41.839730 10534 net.cpp:141] Setting up fc6
I0403 13:13:41.839805 10534 net.cpp:148] Top shape: 100 4096 (409600)
I0403 13:13:41.839823 10534 net.cpp:156] Memory required for data: 823334000
I0403 13:13:41.839843 10534 layer_factory.hpp:77] Creating layer relu6
I0403 13:13:41.839864 10534 net.cpp:91] Creating Layer relu6
I0403 13:13:41.839882 10534 net.cpp:425] relu6 <- fc6
I0403 13:13:41.839903 10534 net.cpp:386] relu6 -> fc6 (in-place)
I0403 13:13:41.840121 10534 net.cpp:141] Setting up relu6
I0403 13:13:41.840147 10534 net.cpp:148] Top shape: 100 4096 (409600)
I0403 13:13:41.840162 10534 net.cpp:156] Memory required for data: 824972400
I0403 13:13:41.840175 10534 layer_factory.hpp:77] Creating layer drop6
I0403 13:13:41.840193 10534 net.cpp:91] Creating Layer drop6
I0403 13:13:41.840207 10534 net.cpp:425] drop6 <- fc6
I0403 13:13:41.840226 10534 net.cpp:386] drop6 -> fc6 (in-place)
I0403 13:13:41.840278 10534 net.cpp:141] Setting up drop6
I0403 13:13:41.840302 10534 net.cpp:148] Top shape: 100 4096 (409600)
I0403 13:13:41.840317 10534 net.cpp:156] Memory required for data: 826610800
I0403 13:13:41.840329 10534 layer_factory.hpp:77] Creating layer fc7
I0403 13:13:41.840348 10534 net.cpp:91] Creating Layer fc7
I0403 13:13:41.840363 10534 net.cpp:425] fc7 <- fc6
I0403 13:13:41.840383 10534 net.cpp:399] fc7 -> fc7
I0403 13:13:42.524293 10534 net.cpp:141] Setting up fc7
I0403 13:13:42.524363 10534 net.cpp:148] Top shape: 100 4096 (409600)
I0403 13:13:42.524379 10534 net.cpp:156] Memory required for data: 828249200
I0403 13:13:42.524400 10534 layer_factory.hpp:77] Creating layer relu7
I0403 13:13:42.524425 10534 net.cpp:91] Creating Layer relu7
I0403 13:13:42.524444 10534 net.cpp:425] relu7 <- fc7
I0403 13:13:42.524463 10534 net.cpp:386] relu7 -> fc7 (in-place)
I0403 13:13:42.524890 10534 net.cpp:141] Setting up relu7
I0403 13:13:42.524917 10534 net.cpp:148] Top shape: 100 4096 (409600)
I0403 13:13:42.524972 10534 net.cpp:156] Memory required for data: 829887600
I0403 13:13:42.524988 10534 layer_factory.hpp:77] Creating layer drop7
I0403 13:13:42.525007 10534 net.cpp:91] Creating Layer drop7
I0403 13:13:42.525025 10534 net.cpp:425] drop7 <- fc7
I0403 13:13:42.525043 10534 net.cpp:386] drop7 -> fc7 (in-place)
I0403 13:13:42.525087 10534 net.cpp:141] Setting up drop7
I0403 13:13:42.525113 10534 net.cpp:148] Top shape: 100 4096 (409600)
I0403 13:13:42.525130 10534 net.cpp:156] Memory required for data: 831526000
I0403 13:13:42.525143 10534 layer_factory.hpp:77] Creating layer fc8_plantvillage
I0403 13:13:42.525162 10534 net.cpp:91] Creating Layer fc8_plantvillage
I0403 13:13:42.525178 10534 net.cpp:425] fc8_plantvillage <- fc7
I0403 13:13:42.525198 10534 net.cpp:399] fc8_plantvillage -> fc8_plantvillage
I0403 13:13:42.532135 10534 net.cpp:141] Setting up fc8_plantvillage
I0403 13:13:42.532163 10534 net.cpp:148] Top shape: 100 38 (3800)
I0403 13:13:42.532179 10534 net.cpp:156] Memory required for data: 831541200
I0403 13:13:42.532197 10534 layer_factory.hpp:77] Creating layer fc8_plantvillage_fc8_plantvillage_0_split
I0403 13:13:42.532217 10534 net.cpp:91] Creating Layer fc8_plantvillage_fc8_plantvillage_0_split
I0403 13:13:42.532233 10534 net.cpp:425] fc8_plantvillage_fc8_plantvillage_0_split <- fc8_plantvillage
I0403 13:13:42.532250 10534 net.cpp:399] fc8_plantvillage_fc8_plantvillage_0_split -> fc8_plantvillage_fc8_plantvillage_0_split_0
I0403 13:13:42.532272 10534 net.cpp:399] fc8_plantvillage_fc8_plantvillage_0_split -> fc8_plantvillage_fc8_plantvillage_0_split_1
I0403 13:13:42.532292 10534 net.cpp:399] fc8_plantvillage_fc8_plantvillage_0_split -> fc8_plantvillage_fc8_plantvillage_0_split_2
I0403 13:13:42.532372 10534 net.cpp:141] Setting up fc8_plantvillage_fc8_plantvillage_0_split
I0403 13:13:42.532397 10534 net.cpp:148] Top shape: 100 38 (3800)
I0403 13:13:42.532413 10534 net.cpp:148] Top shape: 100 38 (3800)
I0403 13:13:42.532428 10534 net.cpp:148] Top shape: 100 38 (3800)
I0403 13:13:42.532443 10534 net.cpp:156] Memory required for data: 831586800
I0403 13:13:42.532457 10534 layer_factory.hpp:77] Creating layer prob
I0403 13:13:42.532475 10534 net.cpp:91] Creating Layer prob
I0403 13:13:42.532490 10534 net.cpp:425] prob <- fc8_plantvillage_fc8_plantvillage_0_split_0
I0403 13:13:42.532510 10534 net.cpp:399] prob -> prob
I0403 13:13:42.532742 10534 net.cpp:141] Setting up prob
I0403 13:13:42.532770 10534 net.cpp:148] Top shape: 100 38 (3800)
I0403 13:13:42.532785 10534 net.cpp:156] Memory required for data: 831602000
I0403 13:13:42.532800 10534 layer_factory.hpp:77] Creating layer hdf5out
I0403 13:13:42.532821 10534 net.cpp:91] Creating Layer hdf5out
I0403 13:13:42.532840 10534 net.cpp:425] hdf5out <- prob
I0403 13:13:42.532856 10534 net.cpp:425] hdf5out <- label_data_1_split_0
I0403 13:13:42.535473 10534 net.cpp:141] Setting up hdf5out
…
