…
I0403 13:09:50.720305 10406 net.cpp:313] The NetState phase (1) differed from the phase (0) specified by a rule in layer data
I0403 13:09:50.720623 10406 net.cpp:49] Initializing net from parameters: 
state {
  phase: TEST
}
layer {
  name: "data"
  type: "Data"
  top: "data"
  top: "label"
  include {
    phase: TEST
  }
  transform_param {
    crop_size: 227
    mean_file: "/home/mohanty/data/final_dataset/lmdb/color-80-20/mean.binaryproto"
  }
  data_param {
    source: "/home/mohanty/data/final_dataset/lmdb/color-80-20/test_db"
    batch_size: 100
    backend: LMDB
  }
}
layer {
  name: "conv1"
  type: "Convolution"
  bottom: "data"
  top: "conv1"
  param {
    lr_mult: 1
    decay_mult: 1
  }
  param {
    lr_mult: 2
    decay_mult: 0
  }
  convolution_param {
    num_output: 96
    kernel_size: 11
    stride: 4
    weight_filler {
      type: "gaussian"
      std: 0.01
    }
    bias_filler {
      type: "constant"
      value: 0
    }
  }
}
layer {
  name: "relu1"
  type: "ReLU"
  bottom: "conv1"
  top: "conv1"
}
layer {
  name: "norm1"
  type: "LRN"
  bottom: "conv1"
  top: "norm1"
  lrn_param {
    local_size: 5
    alpha: 0.0001
    beta: 0.75
  }
}
layer {
  name: "pool1"
  type: "Pooling"
  bottom: "norm1"
  top: "pool1"
  pooling_param {
    pool: MAX
    kernel_size: 3
    stride: 2
  }
}
layer {
  name: "conv2"
  type: "Convolution"
  bottom: "pool1"
  top: "conv2"
  param {
    lr_mult: 1
    decay_mult: 1
  }
  param {
    lr_mult: 2
    decay_mult: 0
  }
  convolution_param {
    num_output: 256
    pad: 2
    kernel_size: 5
    group: 2
    weight_filler {
      type: "gaussian"
      std: 0.01
    }
    bias_filler {
      type: "constant"
      value: 0.1
    }
  }
}
layer {
  name: "relu2"
  type: "ReLU"
  bottom: "conv2"
  top: "conv2"
}
layer {
  name: "norm2"
  type: "LRN"
  bottom: "conv2"
  top: "norm2"
  lrn_param {
    local_size: 5
    alpha: 0.0001
    beta: 0.75
  }
}
layer {
  name: "pool2"
  type: "Pooling"
  bottom: "norm2"
  top: "pool2"
  pooling_param {
    pool: MAX
    kernel_size: 3
    stride: 2
  }
}
layer {
  name: "conv3"
  type: "Convolution"
  bottom: "pool2"
  top: "conv3"
  param {
    lr_mult: 1
    decay_mult: 1
  }
  param {
    lr_mult: 2
    decay_mult: 0
  }
  convolution_param {
    num_output: 384
    pad: 1
    kernel_size: 3
    weight_filler {
      type: "gaussian"
      std: 0.01
    }
    bias_filler {
      type: "constant"
      value: 0
    }
  }
}
layer {
  name: "relu3"
  type: "ReLU"
  bottom: "conv3"
  top: "conv3"
}
layer {
  name: "conv4"
  type: "Convolution"
  bottom: "conv3"
  top: "conv4"
  param {
    lr_mult: 1
    decay_mult: 1
  }
  param {
    lr_mult: 2
    decay_mult: 0
  }
  convolution_param {
    num_output: 384
    pad: 1
    kernel_size: 3
    group: 2
    weight_filler {
      type: "gaussian"
      std: 0.01
    }
    bias_filler {
      type: "constant"
      value: 0.1
    }
  }
}
layer {
  name: "relu4"
  type: "ReLU"
  bottom: "conv4"
  top: "conv4"
}
layer {
  name: "conv5"
  type: "Convolution"
  bottom: "conv4"
  top: "conv5"
  param {
    lr_mult: 1
    decay_mult: 1
  }
  param {
    lr_mult: 2
    decay_mult: 0
  }
  convolution_param {
    num_output: 256
    pad: 1
    kernel_size: 3
    group: 2
    weight_filler {
      type: "gaussian"
      std: 0.01
    }
    bias_filler {
      type: "constant"
      value: 0.1
    }
  }
}
layer {
  name: "relu5"
  type: "ReLU"
  bottom: "conv5"
  top: "conv5"
}
layer {
  name: "pool5"
  type: "Pooling"
  bottom: "conv5"
  top: "pool5"
  pooling_param {
    pool: MAX
    kernel_size: 3
    stride: 2
  }
}
layer {
  name: "fc6"
  type: "InnerProduct"
  bottom: "pool5"
  top: "fc6"
  param {
    lr_mult: 1
    decay_mult: 1
  }
  param {
    lr_mult: 2
    decay_mult: 0
  }
  inner_product_param {
    num_output: 4096
    weight_filler {
      type: "gaussian"
      std: 0.005
    }
    bias_filler {
      type: "constant"
      value: 0.1
    }
  }
}
layer {
  name: "relu6"
  type: "ReLU"
  bottom: "fc6"
  top: "fc6"
}
layer {
  name: "drop6"
  type: "Dropout"
  bottom: "fc6"
  top: "fc6"
  dropout_param {
    dropout_ratio: 0.5
  }
}
layer {
  name: "fc7"
  type: "InnerProduct"
  bottom: "fc6"
  top: "fc7"
  param {
    lr_mult: 1
    decay_mult: 1
  }
  param {
    lr_mult: 2
    decay_mult: 0
  }
  inner_product_param {
    num_output: 4096
    weight_filler {
      type: "gaussian"
      std: 0.005
    }
    bias_filler {
      type: "constant"
      value: 0.1
    }
  }
}
layer {
  name: "relu7"
  type: "ReLU"
  bottom: "fc7"
  top: "fc7"
}
layer {
  name: "drop7"
  type: "Dropout"
  bottom: "fc7"
  top: "fc7"
  dropout_param {
    dropout_ratio: 0.5
  }
}
layer {
  name: "fc8_plantvillage"
  type: "InnerProduct"
  bottom: "fc7"
  top: "fc8_plantvillage"
  param {
    lr_mult: 1
    decay_mult: 1
  }
  param {
    lr_mult: 2
    decay_mult: 0
  }
  inner_product_param {
    num_output: 38
    weight_filler {
      type: "gaussian"
      std: 0.01
    }
    bias_filler {
      type: "constant"
      value: 0
    }
  }
}
layer {
  name: "prob"
  type: "Softmax"
  bottom: "fc8_plantvillage"
  top: "prob"
  include {
    phase: TEST
  }
}
layer {
  name: "hdf5out"
  type: "HDF5Output"
  bottom: "prob"
  bottom: "label"
  include {
    phase: TEST
  }
  hdf5_output_param {
    file_name: "hdf5_dumps/iter_874.h5"
  }
}
layer {
  name: "loss"
  type: "SoftmaxWithLoss"
  bottom: "fc8_plantvillage"
  bottom: "label"
  top: "loss"
}
layer {
  name: "accuracy"
  type: "Accuracy"
  bottom: "fc8_plantvillage"
  bottom: "label"
  top: "accuracy"
  include {
    phase: TEST
  }
}
I0403 13:09:50.721240 10406 layer_factory.hpp:77] Creating layer data
I0403 13:09:50.721920 10406 net.cpp:91] Creating Layer data
I0403 13:09:50.721953 10406 net.cpp:399] data -> data
I0403 13:09:50.722004 10406 net.cpp:399] data -> label
I0403 13:09:50.722040 10406 data_transformer.cpp:25] Loading mean file from: /home/mohanty/data/final_dataset/lmdb/color-80-20/mean.binaryproto
I0403 13:09:50.724674 10410 db_lmdb.cpp:38] Opened lmdb /home/mohanty/data/final_dataset/lmdb/color-80-20/test_db
I0403 13:09:50.736577 10406 data_layer.cpp:41] output data size: 100,3,227,227
I0403 13:09:50.856576 10406 net.cpp:141] Setting up data
I0403 13:09:50.856643 10406 net.cpp:148] Top shape: 100 3 227 227 (15458700)
I0403 13:09:50.856667 10406 net.cpp:148] Top shape: 100 (100)
I0403 13:09:50.856683 10406 net.cpp:156] Memory required for data: 61835200
I0403 13:09:50.856709 10406 layer_factory.hpp:77] Creating layer label_data_1_split
I0403 13:09:50.856735 10406 net.cpp:91] Creating Layer label_data_1_split
I0403 13:09:50.856752 10406 net.cpp:425] label_data_1_split <- label
I0403 13:09:50.856784 10406 net.cpp:399] label_data_1_split -> label_data_1_split_0
I0403 13:09:50.856812 10406 net.cpp:399] label_data_1_split -> label_data_1_split_1
I0403 13:09:50.856832 10406 net.cpp:399] label_data_1_split -> label_data_1_split_2
I0403 13:09:50.856896 10406 net.cpp:141] Setting up label_data_1_split
I0403 13:09:50.856920 10406 net.cpp:148] Top shape: 100 (100)
I0403 13:09:50.856937 10406 net.cpp:148] Top shape: 100 (100)
I0403 13:09:50.856955 10406 net.cpp:148] Top shape: 100 (100)
I0403 13:09:50.856968 10406 net.cpp:156] Memory required for data: 61836400
I0403 13:09:50.856983 10406 layer_factory.hpp:77] Creating layer conv1
I0403 13:09:50.857017 10406 net.cpp:91] Creating Layer conv1
I0403 13:09:50.857035 10406 net.cpp:425] conv1 <- data
I0403 13:09:50.857054 10406 net.cpp:399] conv1 -> conv1
I0403 13:09:50.997412 10406 net.cpp:141] Setting up conv1
I0403 13:09:50.997488 10406 net.cpp:148] Top shape: 100 96 55 55 (29040000)
I0403 13:09:50.997504 10406 net.cpp:156] Memory required for data: 177996400
I0403 13:09:50.997535 10406 layer_factory.hpp:77] Creating layer relu1
I0403 13:09:50.997563 10406 net.cpp:91] Creating Layer relu1
I0403 13:09:50.997581 10406 net.cpp:425] relu1 <- conv1
I0403 13:09:50.997603 10406 net.cpp:386] relu1 -> conv1 (in-place)
I0403 13:09:50.997861 10406 net.cpp:141] Setting up relu1
I0403 13:09:50.997889 10406 net.cpp:148] Top shape: 100 96 55 55 (29040000)
I0403 13:09:50.997905 10406 net.cpp:156] Memory required for data: 294156400
I0403 13:09:50.997952 10406 layer_factory.hpp:77] Creating layer norm1
I0403 13:09:50.997980 10406 net.cpp:91] Creating Layer norm1
I0403 13:09:50.997998 10406 net.cpp:425] norm1 <- conv1
I0403 13:09:50.998016 10406 net.cpp:399] norm1 -> norm1
I0403 13:09:50.998322 10406 net.cpp:141] Setting up norm1
I0403 13:09:50.998350 10406 net.cpp:148] Top shape: 100 96 55 55 (29040000)
I0403 13:09:50.998365 10406 net.cpp:156] Memory required for data: 410316400
I0403 13:09:50.998381 10406 layer_factory.hpp:77] Creating layer pool1
I0403 13:09:50.998404 10406 net.cpp:91] Creating Layer pool1
I0403 13:09:50.998420 10406 net.cpp:425] pool1 <- norm1
I0403 13:09:50.998438 10406 net.cpp:399] pool1 -> pool1
I0403 13:09:50.998505 10406 net.cpp:141] Setting up pool1
I0403 13:09:50.998528 10406 net.cpp:148] Top shape: 100 96 27 27 (6998400)
I0403 13:09:50.998543 10406 net.cpp:156] Memory required for data: 438310000
I0403 13:09:50.998558 10406 layer_factory.hpp:77] Creating layer conv2
I0403 13:09:50.998582 10406 net.cpp:91] Creating Layer conv2
I0403 13:09:50.998602 10406 net.cpp:425] conv2 <- pool1
I0403 13:09:50.998623 10406 net.cpp:399] conv2 -> conv2
I0403 13:09:51.013464 10406 net.cpp:141] Setting up conv2
I0403 13:09:51.013497 10406 net.cpp:148] Top shape: 100 256 27 27 (18662400)
I0403 13:09:51.013514 10406 net.cpp:156] Memory required for data: 512959600
I0403 13:09:51.013536 10406 layer_factory.hpp:77] Creating layer relu2
I0403 13:09:51.013559 10406 net.cpp:91] Creating Layer relu2
I0403 13:09:51.013576 10406 net.cpp:425] relu2 <- conv2
I0403 13:09:51.013593 10406 net.cpp:386] relu2 -> conv2 (in-place)
I0403 13:09:51.013897 10406 net.cpp:141] Setting up relu2
I0403 13:09:51.013923 10406 net.cpp:148] Top shape: 100 256 27 27 (18662400)
I0403 13:09:51.013938 10406 net.cpp:156] Memory required for data: 587609200
I0403 13:09:51.013953 10406 layer_factory.hpp:77] Creating layer norm2
I0403 13:09:51.013975 10406 net.cpp:91] Creating Layer norm2
I0403 13:09:51.013993 10406 net.cpp:425] norm2 <- conv2
I0403 13:09:51.014013 10406 net.cpp:399] norm2 -> norm2
I0403 13:09:51.014212 10406 net.cpp:141] Setting up norm2
I0403 13:09:51.014237 10406 net.cpp:148] Top shape: 100 256 27 27 (18662400)
I0403 13:09:51.014253 10406 net.cpp:156] Memory required for data: 662258800
I0403 13:09:51.014268 10406 layer_factory.hpp:77] Creating layer pool2
I0403 13:09:51.014288 10406 net.cpp:91] Creating Layer pool2
I0403 13:09:51.014304 10406 net.cpp:425] pool2 <- norm2
I0403 13:09:51.014320 10406 net.cpp:399] pool2 -> pool2
I0403 13:09:51.014374 10406 net.cpp:141] Setting up pool2
I0403 13:09:51.014396 10406 net.cpp:148] Top shape: 100 256 13 13 (4326400)
I0403 13:09:51.014410 10406 net.cpp:156] Memory required for data: 679564400
I0403 13:09:51.014425 10406 layer_factory.hpp:77] Creating layer conv3
I0403 13:09:51.014447 10406 net.cpp:91] Creating Layer conv3
I0403 13:09:51.014464 10406 net.cpp:425] conv3 <- pool2
I0403 13:09:51.014484 10406 net.cpp:399] conv3 -> conv3
I0403 13:09:51.052613 10406 net.cpp:141] Setting up conv3
I0403 13:09:51.052686 10406 net.cpp:148] Top shape: 100 384 13 13 (6489600)
I0403 13:09:51.052702 10406 net.cpp:156] Memory required for data: 705522800
I0403 13:09:51.052731 10406 layer_factory.hpp:77] Creating layer relu3
I0403 13:09:51.052754 10406 net.cpp:91] Creating Layer relu3
I0403 13:09:51.052772 10406 net.cpp:425] relu3 <- conv3
I0403 13:09:51.052790 10406 net.cpp:386] relu3 -> conv3 (in-place)
I0403 13:09:51.053078 10406 net.cpp:141] Setting up relu3
I0403 13:09:51.053105 10406 net.cpp:148] Top shape: 100 384 13 13 (6489600)
I0403 13:09:51.053120 10406 net.cpp:156] Memory required for data: 731481200
I0403 13:09:51.053135 10406 layer_factory.hpp:77] Creating layer conv4
I0403 13:09:51.053161 10406 net.cpp:91] Creating Layer conv4
I0403 13:09:51.053179 10406 net.cpp:425] conv4 <- conv3
I0403 13:09:51.053199 10406 net.cpp:399] conv4 -> conv4
I0403 13:09:51.082720 10406 net.cpp:141] Setting up conv4
I0403 13:09:51.082779 10406 net.cpp:148] Top shape: 100 384 13 13 (6489600)
I0403 13:09:51.082829 10406 net.cpp:156] Memory required for data: 757439600
I0403 13:09:51.082850 10406 layer_factory.hpp:77] Creating layer relu4
I0403 13:09:51.082875 10406 net.cpp:91] Creating Layer relu4
I0403 13:09:51.082893 10406 net.cpp:425] relu4 <- conv4
I0403 13:09:51.082911 10406 net.cpp:386] relu4 -> conv4 (in-place)
I0403 13:09:51.083185 10406 net.cpp:141] Setting up relu4
I0403 13:09:51.083211 10406 net.cpp:148] Top shape: 100 384 13 13 (6489600)
I0403 13:09:51.083227 10406 net.cpp:156] Memory required for data: 783398000
I0403 13:09:51.083242 10406 layer_factory.hpp:77] Creating layer conv5
I0403 13:09:51.083267 10406 net.cpp:91] Creating Layer conv5
I0403 13:09:51.083283 10406 net.cpp:425] conv5 <- conv4
I0403 13:09:51.083304 10406 net.cpp:399] conv5 -> conv5
I0403 13:09:51.103693 10406 net.cpp:141] Setting up conv5
I0403 13:09:51.103744 10406 net.cpp:148] Top shape: 100 256 13 13 (4326400)
I0403 13:09:51.103760 10406 net.cpp:156] Memory required for data: 800703600
I0403 13:09:51.103785 10406 layer_factory.hpp:77] Creating layer relu5
I0403 13:09:51.103807 10406 net.cpp:91] Creating Layer relu5
I0403 13:09:51.103824 10406 net.cpp:425] relu5 <- conv5
I0403 13:09:51.103842 10406 net.cpp:386] relu5 -> conv5 (in-place)
I0403 13:09:51.104130 10406 net.cpp:141] Setting up relu5
I0403 13:09:51.104157 10406 net.cpp:148] Top shape: 100 256 13 13 (4326400)
I0403 13:09:51.104172 10406 net.cpp:156] Memory required for data: 818009200
I0403 13:09:51.104187 10406 layer_factory.hpp:77] Creating layer pool5
I0403 13:09:51.104212 10406 net.cpp:91] Creating Layer pool5
I0403 13:09:51.104229 10406 net.cpp:425] pool5 <- conv5
I0403 13:09:51.104251 10406 net.cpp:399] pool5 -> pool5
I0403 13:09:51.104313 10406 net.cpp:141] Setting up pool5
I0403 13:09:51.104337 10406 net.cpp:148] Top shape: 100 256 6 6 (921600)
I0403 13:09:51.104351 10406 net.cpp:156] Memory required for data: 821695600
I0403 13:09:51.104367 10406 layer_factory.hpp:77] Creating layer fc6
I0403 13:09:51.104394 10406 net.cpp:91] Creating Layer fc6
I0403 13:09:51.104413 10406 net.cpp:425] fc6 <- pool5
I0403 13:09:51.104430 10406 net.cpp:399] fc6 -> fc6
I0403 13:09:52.652657 10406 net.cpp:141] Setting up fc6
I0403 13:09:52.652698 10406 net.cpp:148] Top shape: 100 4096 (409600)
I0403 13:09:52.652715 10406 net.cpp:156] Memory required for data: 823334000
I0403 13:09:52.652736 10406 layer_factory.hpp:77] Creating layer relu6
I0403 13:09:52.652757 10406 net.cpp:91] Creating Layer relu6
I0403 13:09:52.652773 10406 net.cpp:425] relu6 <- fc6
I0403 13:09:52.652794 10406 net.cpp:386] relu6 -> fc6 (in-place)
I0403 13:09:52.653014 10406 net.cpp:141] Setting up relu6
I0403 13:09:52.653039 10406 net.cpp:148] Top shape: 100 4096 (409600)
I0403 13:09:52.653053 10406 net.cpp:156] Memory required for data: 824972400
I0403 13:09:52.653069 10406 layer_factory.hpp:77] Creating layer drop6
I0403 13:09:52.653090 10406 net.cpp:91] Creating Layer drop6
I0403 13:09:52.653105 10406 net.cpp:425] drop6 <- fc6
I0403 13:09:52.653122 10406 net.cpp:386] drop6 -> fc6 (in-place)
I0403 13:09:52.653173 10406 net.cpp:141] Setting up drop6
I0403 13:09:52.653197 10406 net.cpp:148] Top shape: 100 4096 (409600)
I0403 13:09:52.653210 10406 net.cpp:156] Memory required for data: 826610800
I0403 13:09:52.653225 10406 layer_factory.hpp:77] Creating layer fc7
I0403 13:09:52.653244 10406 net.cpp:91] Creating Layer fc7
I0403 13:09:52.653259 10406 net.cpp:425] fc7 <- fc6
I0403 13:09:52.653280 10406 net.cpp:399] fc7 -> fc7
I0403 13:09:53.338311 10406 net.cpp:141] Setting up fc7
I0403 13:09:53.338392 10406 net.cpp:148] Top shape: 100 4096 (409600)
I0403 13:09:53.338408 10406 net.cpp:156] Memory required for data: 828249200
I0403 13:09:53.338429 10406 layer_factory.hpp:77] Creating layer relu7
I0403 13:09:53.338451 10406 net.cpp:91] Creating Layer relu7
I0403 13:09:53.338469 10406 net.cpp:425] relu7 <- fc7
I0403 13:09:53.338488 10406 net.cpp:386] relu7 -> fc7 (in-place)
I0403 13:09:53.338918 10406 net.cpp:141] Setting up relu7
I0403 13:09:53.338944 10406 net.cpp:148] Top shape: 100 4096 (409600)
I0403 13:09:53.338999 10406 net.cpp:156] Memory required for data: 829887600
I0403 13:09:53.339015 10406 layer_factory.hpp:77] Creating layer drop7
I0403 13:09:53.339036 10406 net.cpp:91] Creating Layer drop7
I0403 13:09:53.339052 10406 net.cpp:425] drop7 <- fc7
I0403 13:09:53.339069 10406 net.cpp:386] drop7 -> fc7 (in-place)
I0403 13:09:53.339112 10406 net.cpp:141] Setting up drop7
I0403 13:09:53.339135 10406 net.cpp:148] Top shape: 100 4096 (409600)
I0403 13:09:53.339153 10406 net.cpp:156] Memory required for data: 831526000
I0403 13:09:53.339165 10406 layer_factory.hpp:77] Creating layer fc8_plantvillage
I0403 13:09:53.339185 10406 net.cpp:91] Creating Layer fc8_plantvillage
I0403 13:09:53.339200 10406 net.cpp:425] fc8_plantvillage <- fc7
I0403 13:09:53.339221 10406 net.cpp:399] fc8_plantvillage -> fc8_plantvillage
I0403 13:09:53.345944 10406 net.cpp:141] Setting up fc8_plantvillage
I0403 13:09:53.345973 10406 net.cpp:148] Top shape: 100 38 (3800)
I0403 13:09:53.345988 10406 net.cpp:156] Memory required for data: 831541200
I0403 13:09:53.346006 10406 layer_factory.hpp:77] Creating layer fc8_plantvillage_fc8_plantvillage_0_split
I0403 13:09:53.346027 10406 net.cpp:91] Creating Layer fc8_plantvillage_fc8_plantvillage_0_split
I0403 13:09:53.346043 10406 net.cpp:425] fc8_plantvillage_fc8_plantvillage_0_split <- fc8_plantvillage
I0403 13:09:53.346060 10406 net.cpp:399] fc8_plantvillage_fc8_plantvillage_0_split -> fc8_plantvillage_fc8_plantvillage_0_split_0
I0403 13:09:53.346091 10406 net.cpp:399] fc8_plantvillage_fc8_plantvillage_0_split -> fc8_plantvillage_fc8_plantvillage_0_split_1
I0403 13:09:53.346113 10406 net.cpp:399] fc8_plantvillage_fc8_plantvillage_0_split -> fc8_plantvillage_fc8_plantvillage_0_split_2
I0403 13:09:53.346187 10406 net.cpp:141] Setting up fc8_plantvillage_fc8_plantvillage_0_split
I0403 13:09:53.346210 10406 net.cpp:148] Top shape: 100 38 (3800)
I0403 13:09:53.346225 10406 net.cpp:148] Top shape: 100 38 (3800)
I0403 13:09:53.346240 10406 net.cpp:148] Top shape: 100 38 (3800)
I0403 13:09:53.346253 10406 net.cpp:156] Memory required for data: 831586800
I0403 13:09:53.346266 10406 layer_factory.hpp:77] Creating layer prob
I0403 13:09:53.346287 10406 net.cpp:91] Creating Layer prob
I0403 13:09:53.346302 10406 net.cpp:425] prob <- fc8_plantvillage_fc8_plantvillage_0_split_0
I0403 13:09:53.346318 10406 net.cpp:399] prob -> prob
I0403 13:09:53.346539 10406 net.cpp:141] Setting up prob
I0403 13:09:53.346563 10406 net.cpp:148] Top shape: 100 38 (3800)
I0403 13:09:53.346577 10406 net.cpp:156] Memory required for data: 831602000
I0403 13:09:53.346591 10406 layer_factory.hpp:77] Creating layer hdf5out
I0403 13:09:53.346618 10406 net.cpp:91] Creating Layer hdf5out
I0403 13:09:53.346634 10406 net.cpp:425] hdf5out <- prob
I0403 13:09:53.346649 10406 net.cpp:425] hdf5out <- label_data_1_split_0
I0403 13:09:53.349048 10406 net.cpp:141] Setting up hdf5out
…
