…
I0403 13:16:38.574918 10642 net.cpp:313] The NetState phase (1) differed from the phase (0) specified by a rule in layer data
I0403 13:16:38.575239 10642 net.cpp:49] Initializing net from parameters: 
state {
  phase: TEST
}
layer {
  name: "data"
  type: "Data"
  top: "data"
  top: "label"
  include {
    phase: TEST
  }
  transform_param {
    crop_size: 227
    mean_file: "/home/mohanty/data/final_dataset/lmdb/color-80-20/mean.binaryproto"
  }
  data_param {
    source: "/home/mohanty/data/final_dataset/lmdb/color-80-20/test_db"
    batch_size: 100
    backend: LMDB
  }
}
layer {
  name: "conv1"
  type: "Convolution"
  bottom: "data"
  top: "conv1"
  param {
    lr_mult: 1
    decay_mult: 1
  }
  param {
    lr_mult: 2
    decay_mult: 0
  }
  convolution_param {
    num_output: 96
    kernel_size: 11
    stride: 4
    weight_filler {
      type: "gaussian"
      std: 0.01
    }
    bias_filler {
      type: "constant"
      value: 0
    }
  }
}
layer {
  name: "relu1"
  type: "ReLU"
  bottom: "conv1"
  top: "conv1"
}
layer {
  name: "norm1"
  type: "LRN"
  bottom: "conv1"
  top: "norm1"
  lrn_param {
    local_size: 5
    alpha: 0.0001
    beta: 0.75
  }
}
layer {
  name: "pool1"
  type: "Pooling"
  bottom: "norm1"
  top: "pool1"
  pooling_param {
    pool: MAX
    kernel_size: 3
    stride: 2
  }
}
layer {
  name: "conv2"
  type: "Convolution"
  bottom: "pool1"
  top: "conv2"
  param {
    lr_mult: 1
    decay_mult: 1
  }
  param {
    lr_mult: 2
    decay_mult: 0
  }
  convolution_param {
    num_output: 256
    pad: 2
    kernel_size: 5
    group: 2
    weight_filler {
      type: "gaussian"
      std: 0.01
    }
    bias_filler {
      type: "constant"
      value: 0.1
    }
  }
}
layer {
  name: "relu2"
  type: "ReLU"
  bottom: "conv2"
  top: "conv2"
}
layer {
  name: "norm2"
  type: "LRN"
  bottom: "conv2"
  top: "norm2"
  lrn_param {
    local_size: 5
    alpha: 0.0001
    beta: 0.75
  }
}
layer {
  name: "pool2"
  type: "Pooling"
  bottom: "norm2"
  top: "pool2"
  pooling_param {
    pool: MAX
    kernel_size: 3
    stride: 2
  }
}
layer {
  name: "conv3"
  type: "Convolution"
  bottom: "pool2"
  top: "conv3"
  param {
    lr_mult: 1
    decay_mult: 1
  }
  param {
    lr_mult: 2
    decay_mult: 0
  }
  convolution_param {
    num_output: 384
    pad: 1
    kernel_size: 3
    weight_filler {
      type: "gaussian"
      std: 0.01
    }
    bias_filler {
      type: "constant"
      value: 0
    }
  }
}
layer {
  name: "relu3"
  type: "ReLU"
  bottom: "conv3"
  top: "conv3"
}
layer {
  name: "conv4"
  type: "Convolution"
  bottom: "conv3"
  top: "conv4"
  param {
    lr_mult: 1
    decay_mult: 1
  }
  param {
    lr_mult: 2
    decay_mult: 0
  }
  convolution_param {
    num_output: 384
    pad: 1
    kernel_size: 3
    group: 2
    weight_filler {
      type: "gaussian"
      std: 0.01
    }
    bias_filler {
      type: "constant"
      value: 0.1
    }
  }
}
layer {
  name: "relu4"
  type: "ReLU"
  bottom: "conv4"
  top: "conv4"
}
layer {
  name: "conv5"
  type: "Convolution"
  bottom: "conv4"
  top: "conv5"
  param {
    lr_mult: 1
    decay_mult: 1
  }
  param {
    lr_mult: 2
    decay_mult: 0
  }
  convolution_param {
    num_output: 256
    pad: 1
    kernel_size: 3
    group: 2
    weight_filler {
      type: "gaussian"
      std: 0.01
    }
    bias_filler {
      type: "constant"
      value: 0.1
    }
  }
}
layer {
  name: "relu5"
  type: "ReLU"
  bottom: "conv5"
  top: "conv5"
}
layer {
  name: "pool5"
  type: "Pooling"
  bottom: "conv5"
  top: "pool5"
  pooling_param {
    pool: MAX
    kernel_size: 3
    stride: 2
  }
}
layer {
  name: "fc6"
  type: "InnerProduct"
  bottom: "pool5"
  top: "fc6"
  param {
    lr_mult: 1
    decay_mult: 1
  }
  param {
    lr_mult: 2
    decay_mult: 0
  }
  inner_product_param {
    num_output: 4096
    weight_filler {
      type: "gaussian"
      std: 0.005
    }
    bias_filler {
      type: "constant"
      value: 0.1
    }
  }
}
layer {
  name: "relu6"
  type: "ReLU"
  bottom: "fc6"
  top: "fc6"
}
layer {
  name: "drop6"
  type: "Dropout"
  bottom: "fc6"
  top: "fc6"
  dropout_param {
    dropout_ratio: 0.5
  }
}
layer {
  name: "fc7"
  type: "InnerProduct"
  bottom: "fc6"
  top: "fc7"
  param {
    lr_mult: 1
    decay_mult: 1
  }
  param {
    lr_mult: 2
    decay_mult: 0
  }
  inner_product_param {
    num_output: 4096
    weight_filler {
      type: "gaussian"
      std: 0.005
    }
    bias_filler {
      type: "constant"
      value: 0.1
    }
  }
}
layer {
  name: "relu7"
  type: "ReLU"
  bottom: "fc7"
  top: "fc7"
}
layer {
  name: "drop7"
  type: "Dropout"
  bottom: "fc7"
  top: "fc7"
  dropout_param {
    dropout_ratio: 0.5
  }
}
layer {
  name: "fc8_plantvillage"
  type: "InnerProduct"
  bottom: "fc7"
  top: "fc8_plantvillage"
  param {
    lr_mult: 1
    decay_mult: 1
  }
  param {
    lr_mult: 2
    decay_mult: 0
  }
  inner_product_param {
    num_output: 38
    weight_filler {
      type: "gaussian"
      std: 0.01
    }
    bias_filler {
      type: "constant"
      value: 0
    }
  }
}
layer {
  name: "prob"
  type: "Softmax"
  bottom: "fc8_plantvillage"
  top: "prob"
  include {
    phase: TEST
  }
}
layer {
  name: "hdf5out"
  type: "HDF5Output"
  bottom: "prob"
  bottom: "label"
  include {
    phase: TEST
  }
  hdf5_output_param {
    file_name: "hdf5_dumps/iter_7866.h5"
  }
}
layer {
  name: "loss"
  type: "SoftmaxWithLoss"
  bottom: "fc8_plantvillage"
  bottom: "label"
  top: "loss"
}
layer {
  name: "accuracy"
  type: "Accuracy"
  bottom: "fc8_plantvillage"
  bottom: "label"
  top: "accuracy"
  include {
    phase: TEST
  }
}
I0403 13:16:38.575827 10642 layer_factory.hpp:77] Creating layer data
I0403 13:16:38.576496 10642 net.cpp:91] Creating Layer data
I0403 13:16:38.576539 10642 net.cpp:399] data -> data
I0403 13:16:38.576591 10642 net.cpp:399] data -> label
I0403 13:16:38.576634 10642 data_transformer.cpp:25] Loading mean file from: /home/mohanty/data/final_dataset/lmdb/color-80-20/mean.binaryproto
I0403 13:16:38.579732 10645 db_lmdb.cpp:38] Opened lmdb /home/mohanty/data/final_dataset/lmdb/color-80-20/test_db
I0403 13:16:38.593837 10642 data_layer.cpp:41] output data size: 100,3,227,227
I0403 13:16:38.714741 10642 net.cpp:141] Setting up data
I0403 13:16:38.714833 10642 net.cpp:148] Top shape: 100 3 227 227 (15458700)
I0403 13:16:38.714855 10642 net.cpp:148] Top shape: 100 (100)
I0403 13:16:38.714870 10642 net.cpp:156] Memory required for data: 61835200
I0403 13:16:38.714898 10642 layer_factory.hpp:77] Creating layer label_data_1_split
I0403 13:16:38.714922 10642 net.cpp:91] Creating Layer label_data_1_split
I0403 13:16:38.714939 10642 net.cpp:425] label_data_1_split <- label
I0403 13:16:38.714970 10642 net.cpp:399] label_data_1_split -> label_data_1_split_0
I0403 13:16:38.714998 10642 net.cpp:399] label_data_1_split -> label_data_1_split_1
I0403 13:16:38.715018 10642 net.cpp:399] label_data_1_split -> label_data_1_split_2
I0403 13:16:38.715078 10642 net.cpp:141] Setting up label_data_1_split
I0403 13:16:38.715100 10642 net.cpp:148] Top shape: 100 (100)
I0403 13:16:38.715116 10642 net.cpp:148] Top shape: 100 (100)
I0403 13:16:38.715131 10642 net.cpp:148] Top shape: 100 (100)
I0403 13:16:38.715144 10642 net.cpp:156] Memory required for data: 61836400
I0403 13:16:38.715159 10642 layer_factory.hpp:77] Creating layer conv1
I0403 13:16:38.715189 10642 net.cpp:91] Creating Layer conv1
I0403 13:16:38.715206 10642 net.cpp:425] conv1 <- data
I0403 13:16:38.715225 10642 net.cpp:399] conv1 -> conv1
I0403 13:16:38.856261 10642 net.cpp:141] Setting up conv1
I0403 13:16:38.856340 10642 net.cpp:148] Top shape: 100 96 55 55 (29040000)
I0403 13:16:38.856358 10642 net.cpp:156] Memory required for data: 177996400
I0403 13:16:38.856389 10642 layer_factory.hpp:77] Creating layer relu1
I0403 13:16:38.856417 10642 net.cpp:91] Creating Layer relu1
I0403 13:16:38.856436 10642 net.cpp:425] relu1 <- conv1
I0403 13:16:38.856453 10642 net.cpp:386] relu1 -> conv1 (in-place)
I0403 13:16:38.856714 10642 net.cpp:141] Setting up relu1
I0403 13:16:38.856740 10642 net.cpp:148] Top shape: 100 96 55 55 (29040000)
I0403 13:16:38.856755 10642 net.cpp:156] Memory required for data: 294156400
I0403 13:16:38.856815 10642 layer_factory.hpp:77] Creating layer norm1
I0403 13:16:38.856843 10642 net.cpp:91] Creating Layer norm1
I0403 13:16:38.856861 10642 net.cpp:425] norm1 <- conv1
I0403 13:16:38.856879 10642 net.cpp:399] norm1 -> norm1
I0403 13:16:38.857188 10642 net.cpp:141] Setting up norm1
I0403 13:16:38.857215 10642 net.cpp:148] Top shape: 100 96 55 55 (29040000)
I0403 13:16:38.857231 10642 net.cpp:156] Memory required for data: 410316400
I0403 13:16:38.857245 10642 layer_factory.hpp:77] Creating layer pool1
I0403 13:16:38.857269 10642 net.cpp:91] Creating Layer pool1
I0403 13:16:38.857285 10642 net.cpp:425] pool1 <- norm1
I0403 13:16:38.857306 10642 net.cpp:399] pool1 -> pool1
I0403 13:16:38.857372 10642 net.cpp:141] Setting up pool1
I0403 13:16:38.857396 10642 net.cpp:148] Top shape: 100 96 27 27 (6998400)
I0403 13:16:38.857411 10642 net.cpp:156] Memory required for data: 438310000
I0403 13:16:38.857426 10642 layer_factory.hpp:77] Creating layer conv2
I0403 13:16:38.857450 10642 net.cpp:91] Creating Layer conv2
I0403 13:16:38.857466 10642 net.cpp:425] conv2 <- pool1
I0403 13:16:38.857484 10642 net.cpp:399] conv2 -> conv2
I0403 13:16:38.872463 10642 net.cpp:141] Setting up conv2
I0403 13:16:38.872512 10642 net.cpp:148] Top shape: 100 256 27 27 (18662400)
I0403 13:16:38.872529 10642 net.cpp:156] Memory required for data: 512959600
I0403 13:16:38.872552 10642 layer_factory.hpp:77] Creating layer relu2
I0403 13:16:38.872577 10642 net.cpp:91] Creating Layer relu2
I0403 13:16:38.872596 10642 net.cpp:425] relu2 <- conv2
I0403 13:16:38.872613 10642 net.cpp:386] relu2 -> conv2 (in-place)
I0403 13:16:38.872894 10642 net.cpp:141] Setting up relu2
I0403 13:16:38.872922 10642 net.cpp:148] Top shape: 100 256 27 27 (18662400)
I0403 13:16:38.872938 10642 net.cpp:156] Memory required for data: 587609200
I0403 13:16:38.872952 10642 layer_factory.hpp:77] Creating layer norm2
I0403 13:16:38.872973 10642 net.cpp:91] Creating Layer norm2
I0403 13:16:38.872990 10642 net.cpp:425] norm2 <- conv2
I0403 13:16:38.873008 10642 net.cpp:399] norm2 -> norm2
I0403 13:16:38.873189 10642 net.cpp:141] Setting up norm2
I0403 13:16:38.873215 10642 net.cpp:148] Top shape: 100 256 27 27 (18662400)
I0403 13:16:38.873230 10642 net.cpp:156] Memory required for data: 662258800
I0403 13:16:38.873245 10642 layer_factory.hpp:77] Creating layer pool2
I0403 13:16:38.873263 10642 net.cpp:91] Creating Layer pool2
I0403 13:16:38.873278 10642 net.cpp:425] pool2 <- norm2
I0403 13:16:38.873298 10642 net.cpp:399] pool2 -> pool2
I0403 13:16:38.873347 10642 net.cpp:141] Setting up pool2
I0403 13:16:38.873369 10642 net.cpp:148] Top shape: 100 256 13 13 (4326400)
I0403 13:16:38.873384 10642 net.cpp:156] Memory required for data: 679564400
I0403 13:16:38.873399 10642 layer_factory.hpp:77] Creating layer conv3
I0403 13:16:38.873420 10642 net.cpp:91] Creating Layer conv3
I0403 13:16:38.873435 10642 net.cpp:425] conv3 <- pool2
I0403 13:16:38.873455 10642 net.cpp:399] conv3 -> conv3
I0403 13:16:38.911638 10642 net.cpp:141] Setting up conv3
I0403 13:16:38.911712 10642 net.cpp:148] Top shape: 100 384 13 13 (6489600)
I0403 13:16:38.911731 10642 net.cpp:156] Memory required for data: 705522800
I0403 13:16:38.911756 10642 layer_factory.hpp:77] Creating layer relu3
I0403 13:16:38.911778 10642 net.cpp:91] Creating Layer relu3
I0403 13:16:38.911797 10642 net.cpp:425] relu3 <- conv3
I0403 13:16:38.911814 10642 net.cpp:386] relu3 -> conv3 (in-place)
I0403 13:16:38.912097 10642 net.cpp:141] Setting up relu3
I0403 13:16:38.912127 10642 net.cpp:148] Top shape: 100 384 13 13 (6489600)
I0403 13:16:38.912142 10642 net.cpp:156] Memory required for data: 731481200
I0403 13:16:38.912158 10642 layer_factory.hpp:77] Creating layer conv4
I0403 13:16:38.912184 10642 net.cpp:91] Creating Layer conv4
I0403 13:16:38.912201 10642 net.cpp:425] conv4 <- conv3
I0403 13:16:38.912222 10642 net.cpp:399] conv4 -> conv4
I0403 13:16:38.941989 10642 net.cpp:141] Setting up conv4
I0403 13:16:38.942050 10642 net.cpp:148] Top shape: 100 384 13 13 (6489600)
I0403 13:16:38.942106 10642 net.cpp:156] Memory required for data: 757439600
I0403 13:16:38.942128 10642 layer_factory.hpp:77] Creating layer relu4
I0403 13:16:38.942150 10642 net.cpp:91] Creating Layer relu4
I0403 13:16:38.942167 10642 net.cpp:425] relu4 <- conv4
I0403 13:16:38.942186 10642 net.cpp:386] relu4 -> conv4 (in-place)
I0403 13:16:38.942476 10642 net.cpp:141] Setting up relu4
I0403 13:16:38.942502 10642 net.cpp:148] Top shape: 100 384 13 13 (6489600)
I0403 13:16:38.942519 10642 net.cpp:156] Memory required for data: 783398000
I0403 13:16:38.942535 10642 layer_factory.hpp:77] Creating layer conv5
I0403 13:16:38.942558 10642 net.cpp:91] Creating Layer conv5
I0403 13:16:38.942579 10642 net.cpp:425] conv5 <- conv4
I0403 13:16:38.942601 10642 net.cpp:399] conv5 -> conv5
I0403 13:16:38.963045 10642 net.cpp:141] Setting up conv5
I0403 13:16:38.963098 10642 net.cpp:148] Top shape: 100 256 13 13 (4326400)
I0403 13:16:38.963114 10642 net.cpp:156] Memory required for data: 800703600
I0403 13:16:38.963143 10642 layer_factory.hpp:77] Creating layer relu5
I0403 13:16:38.963165 10642 net.cpp:91] Creating Layer relu5
I0403 13:16:38.963182 10642 net.cpp:425] relu5 <- conv5
I0403 13:16:38.963203 10642 net.cpp:386] relu5 -> conv5 (in-place)
I0403 13:16:38.963485 10642 net.cpp:141] Setting up relu5
I0403 13:16:38.963515 10642 net.cpp:148] Top shape: 100 256 13 13 (4326400)
I0403 13:16:38.963531 10642 net.cpp:156] Memory required for data: 818009200
I0403 13:16:38.963546 10642 layer_factory.hpp:77] Creating layer pool5
I0403 13:16:38.963570 10642 net.cpp:91] Creating Layer pool5
I0403 13:16:38.963588 10642 net.cpp:425] pool5 <- conv5
I0403 13:16:38.963611 10642 net.cpp:399] pool5 -> pool5
I0403 13:16:38.963672 10642 net.cpp:141] Setting up pool5
I0403 13:16:38.963698 10642 net.cpp:148] Top shape: 100 256 6 6 (921600)
I0403 13:16:38.963713 10642 net.cpp:156] Memory required for data: 821695600
I0403 13:16:38.963728 10642 layer_factory.hpp:77] Creating layer fc6
I0403 13:16:38.963753 10642 net.cpp:91] Creating Layer fc6
I0403 13:16:38.963770 10642 net.cpp:425] fc6 <- pool5
I0403 13:16:38.963791 10642 net.cpp:399] fc6 -> fc6
I0403 13:16:40.515964 10642 net.cpp:141] Setting up fc6
I0403 13:16:40.516034 10642 net.cpp:148] Top shape: 100 4096 (409600)
I0403 13:16:40.516052 10642 net.cpp:156] Memory required for data: 823334000
I0403 13:16:40.516072 10642 layer_factory.hpp:77] Creating layer relu6
I0403 13:16:40.516094 10642 net.cpp:91] Creating Layer relu6
I0403 13:16:40.516110 10642 net.cpp:425] relu6 <- fc6
I0403 13:16:40.516129 10642 net.cpp:386] relu6 -> fc6 (in-place)
I0403 13:16:40.516348 10642 net.cpp:141] Setting up relu6
I0403 13:16:40.516376 10642 net.cpp:148] Top shape: 100 4096 (409600)
I0403 13:16:40.516389 10642 net.cpp:156] Memory required for data: 824972400
I0403 13:16:40.516403 10642 layer_factory.hpp:77] Creating layer drop6
I0403 13:16:40.516420 10642 net.cpp:91] Creating Layer drop6
I0403 13:16:40.516435 10642 net.cpp:425] drop6 <- fc6
I0403 13:16:40.516453 10642 net.cpp:386] drop6 -> fc6 (in-place)
I0403 13:16:40.516502 10642 net.cpp:141] Setting up drop6
I0403 13:16:40.516525 10642 net.cpp:148] Top shape: 100 4096 (409600)
I0403 13:16:40.516537 10642 net.cpp:156] Memory required for data: 826610800
I0403 13:16:40.516551 10642 layer_factory.hpp:77] Creating layer fc7
I0403 13:16:40.516589 10642 net.cpp:91] Creating Layer fc7
I0403 13:16:40.516608 10642 net.cpp:425] fc7 <- fc6
I0403 13:16:40.516628 10642 net.cpp:399] fc7 -> fc7
I0403 13:16:41.204068 10642 net.cpp:141] Setting up fc7
I0403 13:16:41.204113 10642 net.cpp:148] Top shape: 100 4096 (409600)
I0403 13:16:41.204129 10642 net.cpp:156] Memory required for data: 828249200
I0403 13:16:41.204149 10642 layer_factory.hpp:77] Creating layer relu7
I0403 13:16:41.204170 10642 net.cpp:91] Creating Layer relu7
I0403 13:16:41.204186 10642 net.cpp:425] relu7 <- fc7
I0403 13:16:41.204205 10642 net.cpp:386] relu7 -> fc7 (in-place)
I0403 13:16:41.204625 10642 net.cpp:141] Setting up relu7
I0403 13:16:41.204653 10642 net.cpp:148] Top shape: 100 4096 (409600)
I0403 13:16:41.204705 10642 net.cpp:156] Memory required for data: 829887600
I0403 13:16:41.204721 10642 layer_factory.hpp:77] Creating layer drop7
I0403 13:16:41.204740 10642 net.cpp:91] Creating Layer drop7
I0403 13:16:41.204754 10642 net.cpp:425] drop7 <- fc7
I0403 13:16:41.204771 10642 net.cpp:386] drop7 -> fc7 (in-place)
I0403 13:16:41.204813 10642 net.cpp:141] Setting up drop7
I0403 13:16:41.204835 10642 net.cpp:148] Top shape: 100 4096 (409600)
I0403 13:16:41.204849 10642 net.cpp:156] Memory required for data: 831526000
I0403 13:16:41.204864 10642 layer_factory.hpp:77] Creating layer fc8_plantvillage
I0403 13:16:41.204885 10642 net.cpp:91] Creating Layer fc8_plantvillage
I0403 13:16:41.204901 10642 net.cpp:425] fc8_plantvillage <- fc7
I0403 13:16:41.204918 10642 net.cpp:399] fc8_plantvillage -> fc8_plantvillage
I0403 13:16:41.211658 10642 net.cpp:141] Setting up fc8_plantvillage
I0403 13:16:41.211684 10642 net.cpp:148] Top shape: 100 38 (3800)
I0403 13:16:41.211699 10642 net.cpp:156] Memory required for data: 831541200
I0403 13:16:41.211716 10642 layer_factory.hpp:77] Creating layer fc8_plantvillage_fc8_plantvillage_0_split
I0403 13:16:41.211735 10642 net.cpp:91] Creating Layer fc8_plantvillage_fc8_plantvillage_0_split
I0403 13:16:41.211751 10642 net.cpp:425] fc8_plantvillage_fc8_plantvillage_0_split <- fc8_plantvillage
I0403 13:16:41.211771 10642 net.cpp:399] fc8_plantvillage_fc8_plantvillage_0_split -> fc8_plantvillage_fc8_plantvillage_0_split_0
I0403 13:16:41.211791 10642 net.cpp:399] fc8_plantvillage_fc8_plantvillage_0_split -> fc8_plantvillage_fc8_plantvillage_0_split_1
I0403 13:16:41.211809 10642 net.cpp:399] fc8_plantvillage_fc8_plantvillage_0_split -> fc8_plantvillage_fc8_plantvillage_0_split_2
I0403 13:16:41.211884 10642 net.cpp:141] Setting up fc8_plantvillage_fc8_plantvillage_0_split
I0403 13:16:41.211907 10642 net.cpp:148] Top shape: 100 38 (3800)
I0403 13:16:41.211925 10642 net.cpp:148] Top shape: 100 38 (3800)
I0403 13:16:41.211940 10642 net.cpp:148] Top shape: 100 38 (3800)
I0403 13:16:41.211952 10642 net.cpp:156] Memory required for data: 831586800
I0403 13:16:41.211966 10642 layer_factory.hpp:77] Creating layer prob
I0403 13:16:41.211987 10642 net.cpp:91] Creating Layer prob
I0403 13:16:41.212002 10642 net.cpp:425] prob <- fc8_plantvillage_fc8_plantvillage_0_split_0
I0403 13:16:41.212019 10642 net.cpp:399] prob -> prob
I0403 13:16:41.212239 10642 net.cpp:141] Setting up prob
I0403 13:16:41.212267 10642 net.cpp:148] Top shape: 100 38 (3800)
I0403 13:16:41.212283 10642 net.cpp:156] Memory required for data: 831602000
I0403 13:16:41.212297 10642 layer_factory.hpp:77] Creating layer hdf5out
I0403 13:16:41.212316 10642 net.cpp:91] Creating Layer hdf5out
I0403 13:16:41.212332 10642 net.cpp:425] hdf5out <- prob
I0403 13:16:41.212347 10642 net.cpp:425] hdf5out <- label_data_1_split_0
I0403 13:16:41.214550 10642 net.cpp:141] Setting up hdf5out
…
