…
I0403 13:13:14.760045 10522 net.cpp:313] The NetState phase (1) differed from the phase (0) specified by a rule in layer data
I0403 13:13:14.760349 10522 net.cpp:49] Initializing net from parameters: 
state {
  phase: TEST
}
layer {
  name: "data"
  type: "Data"
  top: "data"
  top: "label"
  include {
    phase: TEST
  }
  transform_param {
    crop_size: 227
    mean_file: "/home/mohanty/data/final_dataset/lmdb/color-80-20/mean.binaryproto"
  }
  data_param {
    source: "/home/mohanty/data/final_dataset/lmdb/color-80-20/test_db"
    batch_size: 100
    backend: LMDB
  }
}
layer {
  name: "conv1"
  type: "Convolution"
  bottom: "data"
  top: "conv1"
  param {
    lr_mult: 1
    decay_mult: 1
  }
  param {
    lr_mult: 2
    decay_mult: 0
  }
  convolution_param {
    num_output: 96
    kernel_size: 11
    stride: 4
    weight_filler {
      type: "gaussian"
      std: 0.01
    }
    bias_filler {
      type: "constant"
      value: 0
    }
  }
}
layer {
  name: "relu1"
  type: "ReLU"
  bottom: "conv1"
  top: "conv1"
}
layer {
  name: "norm1"
  type: "LRN"
  bottom: "conv1"
  top: "norm1"
  lrn_param {
    local_size: 5
    alpha: 0.0001
    beta: 0.75
  }
}
layer {
  name: "pool1"
  type: "Pooling"
  bottom: "norm1"
  top: "pool1"
  pooling_param {
    pool: MAX
    kernel_size: 3
    stride: 2
  }
}
layer {
  name: "conv2"
  type: "Convolution"
  bottom: "pool1"
  top: "conv2"
  param {
    lr_mult: 1
    decay_mult: 1
  }
  param {
    lr_mult: 2
    decay_mult: 0
  }
  convolution_param {
    num_output: 256
    pad: 2
    kernel_size: 5
    group: 2
    weight_filler {
      type: "gaussian"
      std: 0.01
    }
    bias_filler {
      type: "constant"
      value: 0.1
    }
  }
}
layer {
  name: "relu2"
  type: "ReLU"
  bottom: "conv2"
  top: "conv2"
}
layer {
  name: "norm2"
  type: "LRN"
  bottom: "conv2"
  top: "norm2"
  lrn_param {
    local_size: 5
    alpha: 0.0001
    beta: 0.75
  }
}
layer {
  name: "pool2"
  type: "Pooling"
  bottom: "norm2"
  top: "pool2"
  pooling_param {
    pool: MAX
    kernel_size: 3
    stride: 2
  }
}
layer {
  name: "conv3"
  type: "Convolution"
  bottom: "pool2"
  top: "conv3"
  param {
    lr_mult: 1
    decay_mult: 1
  }
  param {
    lr_mult: 2
    decay_mult: 0
  }
  convolution_param {
    num_output: 384
    pad: 1
    kernel_size: 3
    weight_filler {
      type: "gaussian"
      std: 0.01
    }
    bias_filler {
      type: "constant"
      value: 0
    }
  }
}
layer {
  name: "relu3"
  type: "ReLU"
  bottom: "conv3"
  top: "conv3"
}
layer {
  name: "conv4"
  type: "Convolution"
  bottom: "conv3"
  top: "conv4"
  param {
    lr_mult: 1
    decay_mult: 1
  }
  param {
    lr_mult: 2
    decay_mult: 0
  }
  convolution_param {
    num_output: 384
    pad: 1
    kernel_size: 3
    group: 2
    weight_filler {
      type: "gaussian"
      std: 0.01
    }
    bias_filler {
      type: "constant"
      value: 0.1
    }
  }
}
layer {
  name: "relu4"
  type: "ReLU"
  bottom: "conv4"
  top: "conv4"
}
layer {
  name: "conv5"
  type: "Convolution"
  bottom: "conv4"
  top: "conv5"
  param {
    lr_mult: 1
    decay_mult: 1
  }
  param {
    lr_mult: 2
    decay_mult: 0
  }
  convolution_param {
    num_output: 256
    pad: 1
    kernel_size: 3
    group: 2
    weight_filler {
      type: "gaussian"
      std: 0.01
    }
    bias_filler {
      type: "constant"
      value: 0.1
    }
  }
}
layer {
  name: "relu5"
  type: "ReLU"
  bottom: "conv5"
  top: "conv5"
}
layer {
  name: "pool5"
  type: "Pooling"
  bottom: "conv5"
  top: "pool5"
  pooling_param {
    pool: MAX
    kernel_size: 3
    stride: 2
  }
}
layer {
  name: "fc6"
  type: "InnerProduct"
  bottom: "pool5"
  top: "fc6"
  param {
    lr_mult: 1
    decay_mult: 1
  }
  param {
    lr_mult: 2
    decay_mult: 0
  }
  inner_product_param {
    num_output: 4096
    weight_filler {
      type: "gaussian"
      std: 0.005
    }
    bias_filler {
      type: "constant"
      value: 0.1
    }
  }
}
layer {
  name: "relu6"
  type: "ReLU"
  bottom: "fc6"
  top: "fc6"
}
layer {
  name: "drop6"
  type: "Dropout"
  bottom: "fc6"
  top: "fc6"
  dropout_param {
    dropout_ratio: 0.5
  }
}
layer {
  name: "fc7"
  type: "InnerProduct"
  bottom: "fc6"
  top: "fc7"
  param {
    lr_mult: 1
    decay_mult: 1
  }
  param {
    lr_mult: 2
    decay_mult: 0
  }
  inner_product_param {
    num_output: 4096
    weight_filler {
      type: "gaussian"
      std: 0.005
    }
    bias_filler {
      type: "constant"
      value: 0.1
    }
  }
}
layer {
  name: "relu7"
  type: "ReLU"
  bottom: "fc7"
  top: "fc7"
}
layer {
  name: "drop7"
  type: "Dropout"
  bottom: "fc7"
  top: "fc7"
  dropout_param {
    dropout_ratio: 0.5
  }
}
layer {
  name: "fc8_plantvillage"
  type: "InnerProduct"
  bottom: "fc7"
  top: "fc8_plantvillage"
  param {
    lr_mult: 1
    decay_mult: 1
  }
  param {
    lr_mult: 2
    decay_mult: 0
  }
  inner_product_param {
    num_output: 38
    weight_filler {
      type: "gaussian"
      std: 0.01
    }
    bias_filler {
      type: "constant"
      value: 0
    }
  }
}
layer {
  name: "prob"
  type: "Softmax"
  bottom: "fc8_plantvillage"
  top: "prob"
  include {
    phase: TEST
  }
}
layer {
  name: "hdf5out"
  type: "HDF5Output"
  bottom: "prob"
  bottom: "label"
  include {
    phase: TEST
  }
  hdf5_output_param {
    file_name: "hdf5_dumps/iter_4370.h5"
  }
}
layer {
  name: "loss"
  type: "SoftmaxWithLoss"
  bottom: "fc8_plantvillage"
  bottom: "label"
  top: "loss"
}
layer {
  name: "accuracy"
  type: "Accuracy"
  bottom: "fc8_plantvillage"
  bottom: "label"
  top: "accuracy"
  include {
    phase: TEST
  }
}
I0403 13:13:14.760967 10522 layer_factory.hpp:77] Creating layer data
I0403 13:13:14.761637 10522 net.cpp:91] Creating Layer data
I0403 13:13:14.761670 10522 net.cpp:399] data -> data
I0403 13:13:14.761720 10522 net.cpp:399] data -> label
I0403 13:13:14.761759 10522 data_transformer.cpp:25] Loading mean file from: /home/mohanty/data/final_dataset/lmdb/color-80-20/mean.binaryproto
I0403 13:13:14.764415 10525 db_lmdb.cpp:38] Opened lmdb /home/mohanty/data/final_dataset/lmdb/color-80-20/test_db
I0403 13:13:14.776160 10522 data_layer.cpp:41] output data size: 100,3,227,227
I0403 13:13:14.896270 10522 net.cpp:141] Setting up data
I0403 13:13:14.896363 10522 net.cpp:148] Top shape: 100 3 227 227 (15458700)
I0403 13:13:14.896384 10522 net.cpp:148] Top shape: 100 (100)
I0403 13:13:14.896399 10522 net.cpp:156] Memory required for data: 61835200
I0403 13:13:14.896425 10522 layer_factory.hpp:77] Creating layer label_data_1_split
I0403 13:13:14.896450 10522 net.cpp:91] Creating Layer label_data_1_split
I0403 13:13:14.896467 10522 net.cpp:425] label_data_1_split <- label
I0403 13:13:14.896497 10522 net.cpp:399] label_data_1_split -> label_data_1_split_0
I0403 13:13:14.896524 10522 net.cpp:399] label_data_1_split -> label_data_1_split_1
I0403 13:13:14.896543 10522 net.cpp:399] label_data_1_split -> label_data_1_split_2
I0403 13:13:14.896610 10522 net.cpp:141] Setting up label_data_1_split
I0403 13:13:14.896632 10522 net.cpp:148] Top shape: 100 (100)
I0403 13:13:14.896647 10522 net.cpp:148] Top shape: 100 (100)
I0403 13:13:14.896662 10522 net.cpp:148] Top shape: 100 (100)
I0403 13:13:14.896675 10522 net.cpp:156] Memory required for data: 61836400
I0403 13:13:14.896689 10522 layer_factory.hpp:77] Creating layer conv1
I0403 13:13:14.896720 10522 net.cpp:91] Creating Layer conv1
I0403 13:13:14.896738 10522 net.cpp:425] conv1 <- data
I0403 13:13:14.896755 10522 net.cpp:399] conv1 -> conv1
I0403 13:13:15.038589 10522 net.cpp:141] Setting up conv1
I0403 13:13:15.038655 10522 net.cpp:148] Top shape: 100 96 55 55 (29040000)
I0403 13:13:15.038673 10522 net.cpp:156] Memory required for data: 177996400
I0403 13:13:15.038704 10522 layer_factory.hpp:77] Creating layer relu1
I0403 13:13:15.038732 10522 net.cpp:91] Creating Layer relu1
I0403 13:13:15.038749 10522 net.cpp:425] relu1 <- conv1
I0403 13:13:15.038768 10522 net.cpp:386] relu1 -> conv1 (in-place)
I0403 13:13:15.039026 10522 net.cpp:141] Setting up relu1
I0403 13:13:15.039053 10522 net.cpp:148] Top shape: 100 96 55 55 (29040000)
I0403 13:13:15.039069 10522 net.cpp:156] Memory required for data: 294156400
I0403 13:13:15.039122 10522 layer_factory.hpp:77] Creating layer norm1
I0403 13:13:15.039150 10522 net.cpp:91] Creating Layer norm1
I0403 13:13:15.039168 10522 net.cpp:425] norm1 <- conv1
I0403 13:13:15.039186 10522 net.cpp:399] norm1 -> norm1
I0403 13:13:15.039532 10522 net.cpp:141] Setting up norm1
I0403 13:13:15.039561 10522 net.cpp:148] Top shape: 100 96 55 55 (29040000)
I0403 13:13:15.039575 10522 net.cpp:156] Memory required for data: 410316400
I0403 13:13:15.039590 10522 layer_factory.hpp:77] Creating layer pool1
I0403 13:13:15.039638 10522 net.cpp:91] Creating Layer pool1
I0403 13:13:15.039656 10522 net.cpp:425] pool1 <- norm1
I0403 13:13:15.039685 10522 net.cpp:399] pool1 -> pool1
I0403 13:13:15.039753 10522 net.cpp:141] Setting up pool1
I0403 13:13:15.039777 10522 net.cpp:148] Top shape: 100 96 27 27 (6998400)
I0403 13:13:15.039793 10522 net.cpp:156] Memory required for data: 438310000
I0403 13:13:15.039808 10522 layer_factory.hpp:77] Creating layer conv2
I0403 13:13:15.039832 10522 net.cpp:91] Creating Layer conv2
I0403 13:13:15.039849 10522 net.cpp:425] conv2 <- pool1
I0403 13:13:15.039867 10522 net.cpp:399] conv2 -> conv2
I0403 13:13:15.055500 10522 net.cpp:141] Setting up conv2
I0403 13:13:15.055557 10522 net.cpp:148] Top shape: 100 256 27 27 (18662400)
I0403 13:13:15.055575 10522 net.cpp:156] Memory required for data: 512959600
I0403 13:13:15.055604 10522 layer_factory.hpp:77] Creating layer relu2
I0403 13:13:15.055630 10522 net.cpp:91] Creating Layer relu2
I0403 13:13:15.055649 10522 net.cpp:425] relu2 <- conv2
I0403 13:13:15.055666 10522 net.cpp:386] relu2 -> conv2 (in-place)
I0403 13:13:15.056001 10522 net.cpp:141] Setting up relu2
I0403 13:13:15.056030 10522 net.cpp:148] Top shape: 100 256 27 27 (18662400)
I0403 13:13:15.056047 10522 net.cpp:156] Memory required for data: 587609200
I0403 13:13:15.056062 10522 layer_factory.hpp:77] Creating layer norm2
I0403 13:13:15.056085 10522 net.cpp:91] Creating Layer norm2
I0403 13:13:15.056103 10522 net.cpp:425] norm2 <- conv2
I0403 13:13:15.056124 10522 net.cpp:399] norm2 -> norm2
I0403 13:13:15.056330 10522 net.cpp:141] Setting up norm2
I0403 13:13:15.056357 10522 net.cpp:148] Top shape: 100 256 27 27 (18662400)
I0403 13:13:15.056372 10522 net.cpp:156] Memory required for data: 662258800
I0403 13:13:15.056388 10522 layer_factory.hpp:77] Creating layer pool2
I0403 13:13:15.056408 10522 net.cpp:91] Creating Layer pool2
I0403 13:13:15.056426 10522 net.cpp:425] pool2 <- norm2
I0403 13:13:15.056443 10522 net.cpp:399] pool2 -> pool2
I0403 13:13:15.056499 10522 net.cpp:141] Setting up pool2
I0403 13:13:15.056522 10522 net.cpp:148] Top shape: 100 256 13 13 (4326400)
I0403 13:13:15.056537 10522 net.cpp:156] Memory required for data: 679564400
I0403 13:13:15.056552 10522 layer_factory.hpp:77] Creating layer conv3
I0403 13:13:15.056577 10522 net.cpp:91] Creating Layer conv3
I0403 13:13:15.056596 10522 net.cpp:425] conv3 <- pool2
I0403 13:13:15.056622 10522 net.cpp:399] conv3 -> conv3
I0403 13:13:15.100242 10522 net.cpp:141] Setting up conv3
I0403 13:13:15.100319 10522 net.cpp:148] Top shape: 100 384 13 13 (6489600)
I0403 13:13:15.100337 10522 net.cpp:156] Memory required for data: 705522800
I0403 13:13:15.100363 10522 layer_factory.hpp:77] Creating layer relu3
I0403 13:13:15.100386 10522 net.cpp:91] Creating Layer relu3
I0403 13:13:15.100404 10522 net.cpp:425] relu3 <- conv3
I0403 13:13:15.100422 10522 net.cpp:386] relu3 -> conv3 (in-place)
I0403 13:13:15.100703 10522 net.cpp:141] Setting up relu3
I0403 13:13:15.100730 10522 net.cpp:148] Top shape: 100 384 13 13 (6489600)
I0403 13:13:15.100746 10522 net.cpp:156] Memory required for data: 731481200
I0403 13:13:15.100762 10522 layer_factory.hpp:77] Creating layer conv4
I0403 13:13:15.100788 10522 net.cpp:91] Creating Layer conv4
I0403 13:13:15.100805 10522 net.cpp:425] conv4 <- conv3
I0403 13:13:15.100826 10522 net.cpp:399] conv4 -> conv4
I0403 13:13:15.131228 10522 net.cpp:141] Setting up conv4
I0403 13:13:15.131297 10522 net.cpp:148] Top shape: 100 384 13 13 (6489600)
I0403 13:13:15.131348 10522 net.cpp:156] Memory required for data: 757439600
I0403 13:13:15.131371 10522 layer_factory.hpp:77] Creating layer relu4
I0403 13:13:15.131394 10522 net.cpp:91] Creating Layer relu4
I0403 13:13:15.131413 10522 net.cpp:425] relu4 <- conv4
I0403 13:13:15.131433 10522 net.cpp:386] relu4 -> conv4 (in-place)
I0403 13:13:15.131714 10522 net.cpp:141] Setting up relu4
I0403 13:13:15.131742 10522 net.cpp:148] Top shape: 100 384 13 13 (6489600)
I0403 13:13:15.131757 10522 net.cpp:156] Memory required for data: 783398000
I0403 13:13:15.131772 10522 layer_factory.hpp:77] Creating layer conv5
I0403 13:13:15.131796 10522 net.cpp:91] Creating Layer conv5
I0403 13:13:15.131814 10522 net.cpp:425] conv5 <- conv4
I0403 13:13:15.131835 10522 net.cpp:399] conv5 -> conv5
I0403 13:13:15.155155 10522 net.cpp:141] Setting up conv5
I0403 13:13:15.155215 10522 net.cpp:148] Top shape: 100 256 13 13 (4326400)
I0403 13:13:15.155232 10522 net.cpp:156] Memory required for data: 800703600
I0403 13:13:15.155257 10522 layer_factory.hpp:77] Creating layer relu5
I0403 13:13:15.155282 10522 net.cpp:91] Creating Layer relu5
I0403 13:13:15.155303 10522 net.cpp:425] relu5 <- conv5
I0403 13:13:15.155321 10522 net.cpp:386] relu5 -> conv5 (in-place)
I0403 13:13:15.155603 10522 net.cpp:141] Setting up relu5
I0403 13:13:15.155632 10522 net.cpp:148] Top shape: 100 256 13 13 (4326400)
I0403 13:13:15.155647 10522 net.cpp:156] Memory required for data: 818009200
I0403 13:13:15.155661 10522 layer_factory.hpp:77] Creating layer pool5
I0403 13:13:15.155688 10522 net.cpp:91] Creating Layer pool5
I0403 13:13:15.155704 10522 net.cpp:425] pool5 <- conv5
I0403 13:13:15.155725 10522 net.cpp:399] pool5 -> pool5
I0403 13:13:15.155789 10522 net.cpp:141] Setting up pool5
I0403 13:13:15.155843 10522 net.cpp:148] Top shape: 100 256 6 6 (921600)
I0403 13:13:15.155860 10522 net.cpp:156] Memory required for data: 821695600
I0403 13:13:15.155874 10522 layer_factory.hpp:77] Creating layer fc6
I0403 13:13:15.155903 10522 net.cpp:91] Creating Layer fc6
I0403 13:13:15.155921 10522 net.cpp:425] fc6 <- pool5
I0403 13:13:15.155939 10522 net.cpp:399] fc6 -> fc6
I0403 13:13:16.709969 10522 net.cpp:141] Setting up fc6
I0403 13:13:16.710042 10522 net.cpp:148] Top shape: 100 4096 (409600)
I0403 13:13:16.710058 10522 net.cpp:156] Memory required for data: 823334000
I0403 13:13:16.710078 10522 layer_factory.hpp:77] Creating layer relu6
I0403 13:13:16.710100 10522 net.cpp:91] Creating Layer relu6
I0403 13:13:16.710117 10522 net.cpp:425] relu6 <- fc6
I0403 13:13:16.710139 10522 net.cpp:386] relu6 -> fc6 (in-place)
I0403 13:13:16.710374 10522 net.cpp:141] Setting up relu6
I0403 13:13:16.710398 10522 net.cpp:148] Top shape: 100 4096 (409600)
I0403 13:13:16.710412 10522 net.cpp:156] Memory required for data: 824972400
I0403 13:13:16.710425 10522 layer_factory.hpp:77] Creating layer drop6
I0403 13:13:16.710448 10522 net.cpp:91] Creating Layer drop6
I0403 13:13:16.710464 10522 net.cpp:425] drop6 <- fc6
I0403 13:13:16.710480 10522 net.cpp:386] drop6 -> fc6 (in-place)
I0403 13:13:16.710530 10522 net.cpp:141] Setting up drop6
I0403 13:13:16.710552 10522 net.cpp:148] Top shape: 100 4096 (409600)
I0403 13:13:16.710566 10522 net.cpp:156] Memory required for data: 826610800
I0403 13:13:16.710579 10522 layer_factory.hpp:77] Creating layer fc7
I0403 13:13:16.710603 10522 net.cpp:91] Creating Layer fc7
I0403 13:13:16.710620 10522 net.cpp:425] fc7 <- fc6
I0403 13:13:16.710640 10522 net.cpp:399] fc7 -> fc7
I0403 13:13:17.393990 10522 net.cpp:141] Setting up fc7
I0403 13:13:17.394038 10522 net.cpp:148] Top shape: 100 4096 (409600)
I0403 13:13:17.394054 10522 net.cpp:156] Memory required for data: 828249200
I0403 13:13:17.394075 10522 layer_factory.hpp:77] Creating layer relu7
I0403 13:13:17.394099 10522 net.cpp:91] Creating Layer relu7
I0403 13:13:17.394117 10522 net.cpp:425] relu7 <- fc7
I0403 13:13:17.394136 10522 net.cpp:386] relu7 -> fc7 (in-place)
I0403 13:13:17.394538 10522 net.cpp:141] Setting up relu7
I0403 13:13:17.394564 10522 net.cpp:148] Top shape: 100 4096 (409600)
I0403 13:13:17.394618 10522 net.cpp:156] Memory required for data: 829887600
I0403 13:13:17.394636 10522 layer_factory.hpp:77] Creating layer drop7
I0403 13:13:17.394657 10522 net.cpp:91] Creating Layer drop7
I0403 13:13:17.394675 10522 net.cpp:425] drop7 <- fc7
I0403 13:13:17.394691 10522 net.cpp:386] drop7 -> fc7 (in-place)
I0403 13:13:17.394738 10522 net.cpp:141] Setting up drop7
I0403 13:13:17.394762 10522 net.cpp:148] Top shape: 100 4096 (409600)
I0403 13:13:17.394775 10522 net.cpp:156] Memory required for data: 831526000
I0403 13:13:17.394789 10522 layer_factory.hpp:77] Creating layer fc8_plantvillage
I0403 13:13:17.394809 10522 net.cpp:91] Creating Layer fc8_plantvillage
I0403 13:13:17.394824 10522 net.cpp:425] fc8_plantvillage <- fc7
I0403 13:13:17.394842 10522 net.cpp:399] fc8_plantvillage -> fc8_plantvillage
I0403 13:13:17.401752 10522 net.cpp:141] Setting up fc8_plantvillage
I0403 13:13:17.401779 10522 net.cpp:148] Top shape: 100 38 (3800)
I0403 13:13:17.401794 10522 net.cpp:156] Memory required for data: 831541200
I0403 13:13:17.401813 10522 layer_factory.hpp:77] Creating layer fc8_plantvillage_fc8_plantvillage_0_split
I0403 13:13:17.401832 10522 net.cpp:91] Creating Layer fc8_plantvillage_fc8_plantvillage_0_split
I0403 13:13:17.401849 10522 net.cpp:425] fc8_plantvillage_fc8_plantvillage_0_split <- fc8_plantvillage
I0403 13:13:17.401865 10522 net.cpp:399] fc8_plantvillage_fc8_plantvillage_0_split -> fc8_plantvillage_fc8_plantvillage_0_split_0
I0403 13:13:17.401885 10522 net.cpp:399] fc8_plantvillage_fc8_plantvillage_0_split -> fc8_plantvillage_fc8_plantvillage_0_split_1
I0403 13:13:17.401906 10522 net.cpp:399] fc8_plantvillage_fc8_plantvillage_0_split -> fc8_plantvillage_fc8_plantvillage_0_split_2
I0403 13:13:17.401983 10522 net.cpp:141] Setting up fc8_plantvillage_fc8_plantvillage_0_split
I0403 13:13:17.402006 10522 net.cpp:148] Top shape: 100 38 (3800)
I0403 13:13:17.402022 10522 net.cpp:148] Top shape: 100 38 (3800)
I0403 13:13:17.402037 10522 net.cpp:148] Top shape: 100 38 (3800)
I0403 13:13:17.402050 10522 net.cpp:156] Memory required for data: 831586800
I0403 13:13:17.402063 10522 layer_factory.hpp:77] Creating layer prob
I0403 13:13:17.402081 10522 net.cpp:91] Creating Layer prob
I0403 13:13:17.402096 10522 net.cpp:425] prob <- fc8_plantvillage_fc8_plantvillage_0_split_0
I0403 13:13:17.402115 10522 net.cpp:399] prob -> prob
I0403 13:13:17.402336 10522 net.cpp:141] Setting up prob
I0403 13:13:17.402361 10522 net.cpp:148] Top shape: 100 38 (3800)
I0403 13:13:17.402376 10522 net.cpp:156] Memory required for data: 831602000
I0403 13:13:17.402390 10522 layer_factory.hpp:77] Creating layer hdf5out
I0403 13:13:17.402410 10522 net.cpp:91] Creating Layer hdf5out
I0403 13:13:17.402426 10522 net.cpp:425] hdf5out <- prob
I0403 13:13:17.402441 10522 net.cpp:425] hdf5out <- label_data_1_split_0
I0403 13:13:17.404855 10522 net.cpp:141] Setting up hdf5out
…
