…
I0403 13:17:03.884672 10657 net.cpp:313] The NetState phase (1) differed from the phase (0) specified by a rule in layer data
I0403 13:17:03.884963 10657 net.cpp:49] Initializing net from parameters: 
state {
  phase: TEST
}
layer {
  name: "data"
  type: "Data"
  top: "data"
  top: "label"
  include {
    phase: TEST
  }
  transform_param {
    crop_size: 227
    mean_file: "/home/mohanty/data/final_dataset/lmdb/color-80-20/mean.binaryproto"
  }
  data_param {
    source: "/home/mohanty/data/final_dataset/lmdb/color-80-20/test_db"
    batch_size: 100
    backend: LMDB
  }
}
layer {
  name: "conv1"
  type: "Convolution"
  bottom: "data"
  top: "conv1"
  param {
    lr_mult: 1
    decay_mult: 1
  }
  param {
    lr_mult: 2
    decay_mult: 0
  }
  convolution_param {
    num_output: 96
    kernel_size: 11
    stride: 4
    weight_filler {
      type: "gaussian"
      std: 0.01
    }
    bias_filler {
      type: "constant"
      value: 0
    }
  }
}
layer {
  name: "relu1"
  type: "ReLU"
  bottom: "conv1"
  top: "conv1"
}
layer {
  name: "norm1"
  type: "LRN"
  bottom: "conv1"
  top: "norm1"
  lrn_param {
    local_size: 5
    alpha: 0.0001
    beta: 0.75
  }
}
layer {
  name: "pool1"
  type: "Pooling"
  bottom: "norm1"
  top: "pool1"
  pooling_param {
    pool: MAX
    kernel_size: 3
    stride: 2
  }
}
layer {
  name: "conv2"
  type: "Convolution"
  bottom: "pool1"
  top: "conv2"
  param {
    lr_mult: 1
    decay_mult: 1
  }
  param {
    lr_mult: 2
    decay_mult: 0
  }
  convolution_param {
    num_output: 256
    pad: 2
    kernel_size: 5
    group: 2
    weight_filler {
      type: "gaussian"
      std: 0.01
    }
    bias_filler {
      type: "constant"
      value: 0.1
    }
  }
}
layer {
  name: "relu2"
  type: "ReLU"
  bottom: "conv2"
  top: "conv2"
}
layer {
  name: "norm2"
  type: "LRN"
  bottom: "conv2"
  top: "norm2"
  lrn_param {
    local_size: 5
    alpha: 0.0001
    beta: 0.75
  }
}
layer {
  name: "pool2"
  type: "Pooling"
  bottom: "norm2"
  top: "pool2"
  pooling_param {
    pool: MAX
    kernel_size: 3
    stride: 2
  }
}
layer {
  name: "conv3"
  type: "Convolution"
  bottom: "pool2"
  top: "conv3"
  param {
    lr_mult: 1
    decay_mult: 1
  }
  param {
    lr_mult: 2
    decay_mult: 0
  }
  convolution_param {
    num_output: 384
    pad: 1
    kernel_size: 3
    weight_filler {
      type: "gaussian"
      std: 0.01
    }
    bias_filler {
      type: "constant"
      value: 0
    }
  }
}
layer {
  name: "relu3"
  type: "ReLU"
  bottom: "conv3"
  top: "conv3"
}
layer {
  name: "conv4"
  type: "Convolution"
  bottom: "conv3"
  top: "conv4"
  param {
    lr_mult: 1
    decay_mult: 1
  }
  param {
    lr_mult: 2
    decay_mult: 0
  }
  convolution_param {
    num_output: 384
    pad: 1
    kernel_size: 3
    group: 2
    weight_filler {
      type: "gaussian"
      std: 0.01
    }
    bias_filler {
      type: "constant"
      value: 0.1
    }
  }
}
layer {
  name: "relu4"
  type: "ReLU"
  bottom: "conv4"
  top: "conv4"
}
layer {
  name: "conv5"
  type: "Convolution"
  bottom: "conv4"
  top: "conv5"
  param {
    lr_mult: 1
    decay_mult: 1
  }
  param {
    lr_mult: 2
    decay_mult: 0
  }
  convolution_param {
    num_output: 256
    pad: 1
    kernel_size: 3
    group: 2
    weight_filler {
      type: "gaussian"
      std: 0.01
    }
    bias_filler {
      type: "constant"
      value: 0.1
    }
  }
}
layer {
  name: "relu5"
  type: "ReLU"
  bottom: "conv5"
  top: "conv5"
}
layer {
  name: "pool5"
  type: "Pooling"
  bottom: "conv5"
  top: "pool5"
  pooling_param {
    pool: MAX
    kernel_size: 3
    stride: 2
  }
}
layer {
  name: "fc6"
  type: "InnerProduct"
  bottom: "pool5"
  top: "fc6"
  param {
    lr_mult: 1
    decay_mult: 1
  }
  param {
    lr_mult: 2
    decay_mult: 0
  }
  inner_product_param {
    num_output: 4096
    weight_filler {
      type: "gaussian"
      std: 0.005
    }
    bias_filler {
      type: "constant"
      value: 0.1
    }
  }
}
layer {
  name: "relu6"
  type: "ReLU"
  bottom: "fc6"
  top: "fc6"
}
layer {
  name: "drop6"
  type: "Dropout"
  bottom: "fc6"
  top: "fc6"
  dropout_param {
    dropout_ratio: 0.5
  }
}
layer {
  name: "fc7"
  type: "InnerProduct"
  bottom: "fc6"
  top: "fc7"
  param {
    lr_mult: 1
    decay_mult: 1
  }
  param {
    lr_mult: 2
    decay_mult: 0
  }
  inner_product_param {
    num_output: 4096
    weight_filler {
      type: "gaussian"
      std: 0.005
    }
    bias_filler {
      type: "constant"
      value: 0.1
    }
  }
}
layer {
  name: "relu7"
  type: "ReLU"
  bottom: "fc7"
  top: "fc7"
}
layer {
  name: "drop7"
  type: "Dropout"
  bottom: "fc7"
  top: "fc7"
  dropout_param {
    dropout_ratio: 0.5
  }
}
layer {
  name: "fc8_plantvillage"
  type: "InnerProduct"
  bottom: "fc7"
  top: "fc8_plantvillage"
  param {
    lr_mult: 1
    decay_mult: 1
  }
  param {
    lr_mult: 2
    decay_mult: 0
  }
  inner_product_param {
    num_output: 38
    weight_filler {
      type: "gaussian"
      std: 0.01
    }
    bias_filler {
      type: "constant"
      value: 0
    }
  }
}
layer {
  name: "prob"
  type: "Softmax"
  bottom: "fc8_plantvillage"
  top: "prob"
  include {
    phase: TEST
  }
}
layer {
  name: "hdf5out"
  type: "HDF5Output"
  bottom: "prob"
  bottom: "label"
  include {
    phase: TEST
  }
  hdf5_output_param {
    file_name: "hdf5_dumps/iter_8303.h5"
  }
}
layer {
  name: "loss"
  type: "SoftmaxWithLoss"
  bottom: "fc8_plantvillage"
  bottom: "label"
  top: "loss"
}
layer {
  name: "accuracy"
  type: "Accuracy"
  bottom: "fc8_plantvillage"
  bottom: "label"
  top: "accuracy"
  include {
    phase: TEST
  }
}
I0403 13:17:03.885548 10657 layer_factory.hpp:77] Creating layer data
I0403 13:17:03.886209 10657 net.cpp:91] Creating Layer data
I0403 13:17:03.886242 10657 net.cpp:399] data -> data
I0403 13:17:03.886293 10657 net.cpp:399] data -> label
I0403 13:17:03.886329 10657 data_transformer.cpp:25] Loading mean file from: /home/mohanty/data/final_dataset/lmdb/color-80-20/mean.binaryproto
I0403 13:17:03.889472 10661 db_lmdb.cpp:38] Opened lmdb /home/mohanty/data/final_dataset/lmdb/color-80-20/test_db
I0403 13:17:03.900421 10657 data_layer.cpp:41] output data size: 100,3,227,227
I0403 13:17:04.020087 10657 net.cpp:141] Setting up data
I0403 13:17:04.020146 10657 net.cpp:148] Top shape: 100 3 227 227 (15458700)
I0403 13:17:04.020170 10657 net.cpp:148] Top shape: 100 (100)
I0403 13:17:04.020185 10657 net.cpp:156] Memory required for data: 61835200
I0403 13:17:04.020213 10657 layer_factory.hpp:77] Creating layer label_data_1_split
I0403 13:17:04.020251 10657 net.cpp:91] Creating Layer label_data_1_split
I0403 13:17:04.020270 10657 net.cpp:425] label_data_1_split <- label
I0403 13:17:04.020300 10657 net.cpp:399] label_data_1_split -> label_data_1_split_0
I0403 13:17:04.020326 10657 net.cpp:399] label_data_1_split -> label_data_1_split_1
I0403 13:17:04.020345 10657 net.cpp:399] label_data_1_split -> label_data_1_split_2
I0403 13:17:04.020407 10657 net.cpp:141] Setting up label_data_1_split
I0403 13:17:04.020431 10657 net.cpp:148] Top shape: 100 (100)
I0403 13:17:04.020448 10657 net.cpp:148] Top shape: 100 (100)
I0403 13:17:04.020467 10657 net.cpp:148] Top shape: 100 (100)
I0403 13:17:04.020480 10657 net.cpp:156] Memory required for data: 61836400
I0403 13:17:04.020494 10657 layer_factory.hpp:77] Creating layer conv1
I0403 13:17:04.020526 10657 net.cpp:91] Creating Layer conv1
I0403 13:17:04.020545 10657 net.cpp:425] conv1 <- data
I0403 13:17:04.020565 10657 net.cpp:399] conv1 -> conv1
I0403 13:17:04.161558 10657 net.cpp:141] Setting up conv1
I0403 13:17:04.161639 10657 net.cpp:148] Top shape: 100 96 55 55 (29040000)
I0403 13:17:04.161656 10657 net.cpp:156] Memory required for data: 177996400
I0403 13:17:04.161689 10657 layer_factory.hpp:77] Creating layer relu1
I0403 13:17:04.161715 10657 net.cpp:91] Creating Layer relu1
I0403 13:17:04.161734 10657 net.cpp:425] relu1 <- conv1
I0403 13:17:04.161753 10657 net.cpp:386] relu1 -> conv1 (in-place)
I0403 13:17:04.162009 10657 net.cpp:141] Setting up relu1
I0403 13:17:04.162036 10657 net.cpp:148] Top shape: 100 96 55 55 (29040000)
I0403 13:17:04.162053 10657 net.cpp:156] Memory required for data: 294156400
I0403 13:17:04.162102 10657 layer_factory.hpp:77] Creating layer norm1
I0403 13:17:04.162132 10657 net.cpp:91] Creating Layer norm1
I0403 13:17:04.162149 10657 net.cpp:425] norm1 <- conv1
I0403 13:17:04.162168 10657 net.cpp:399] norm1 -> norm1
I0403 13:17:04.162472 10657 net.cpp:141] Setting up norm1
I0403 13:17:04.162499 10657 net.cpp:148] Top shape: 100 96 55 55 (29040000)
I0403 13:17:04.162515 10657 net.cpp:156] Memory required for data: 410316400
I0403 13:17:04.162531 10657 layer_factory.hpp:77] Creating layer pool1
I0403 13:17:04.162555 10657 net.cpp:91] Creating Layer pool1
I0403 13:17:04.162577 10657 net.cpp:425] pool1 <- norm1
I0403 13:17:04.162598 10657 net.cpp:399] pool1 -> pool1
I0403 13:17:04.162667 10657 net.cpp:141] Setting up pool1
I0403 13:17:04.162690 10657 net.cpp:148] Top shape: 100 96 27 27 (6998400)
I0403 13:17:04.162705 10657 net.cpp:156] Memory required for data: 438310000
I0403 13:17:04.162721 10657 layer_factory.hpp:77] Creating layer conv2
I0403 13:17:04.162746 10657 net.cpp:91] Creating Layer conv2
I0403 13:17:04.162763 10657 net.cpp:425] conv2 <- pool1
I0403 13:17:04.162782 10657 net.cpp:399] conv2 -> conv2
I0403 13:17:04.177753 10657 net.cpp:141] Setting up conv2
I0403 13:17:04.177803 10657 net.cpp:148] Top shape: 100 256 27 27 (18662400)
I0403 13:17:04.177821 10657 net.cpp:156] Memory required for data: 512959600
I0403 13:17:04.177845 10657 layer_factory.hpp:77] Creating layer relu2
I0403 13:17:04.177865 10657 net.cpp:91] Creating Layer relu2
I0403 13:17:04.177882 10657 net.cpp:425] relu2 <- conv2
I0403 13:17:04.177902 10657 net.cpp:386] relu2 -> conv2 (in-place)
I0403 13:17:04.178187 10657 net.cpp:141] Setting up relu2
I0403 13:17:04.178215 10657 net.cpp:148] Top shape: 100 256 27 27 (18662400)
I0403 13:17:04.178231 10657 net.cpp:156] Memory required for data: 587609200
I0403 13:17:04.178246 10657 layer_factory.hpp:77] Creating layer norm2
I0403 13:17:04.178270 10657 net.cpp:91] Creating Layer norm2
I0403 13:17:04.178287 10657 net.cpp:425] norm2 <- conv2
I0403 13:17:04.178306 10657 net.cpp:399] norm2 -> norm2
I0403 13:17:04.178506 10657 net.cpp:141] Setting up norm2
I0403 13:17:04.178535 10657 net.cpp:148] Top shape: 100 256 27 27 (18662400)
I0403 13:17:04.178551 10657 net.cpp:156] Memory required for data: 662258800
I0403 13:17:04.178570 10657 layer_factory.hpp:77] Creating layer pool2
I0403 13:17:04.178591 10657 net.cpp:91] Creating Layer pool2
I0403 13:17:04.178606 10657 net.cpp:425] pool2 <- norm2
I0403 13:17:04.178627 10657 net.cpp:399] pool2 -> pool2
I0403 13:17:04.178680 10657 net.cpp:141] Setting up pool2
I0403 13:17:04.178704 10657 net.cpp:148] Top shape: 100 256 13 13 (4326400)
I0403 13:17:04.178719 10657 net.cpp:156] Memory required for data: 679564400
I0403 13:17:04.178735 10657 layer_factory.hpp:77] Creating layer conv3
I0403 13:17:04.178758 10657 net.cpp:91] Creating Layer conv3
I0403 13:17:04.178776 10657 net.cpp:425] conv3 <- pool2
I0403 13:17:04.178797 10657 net.cpp:399] conv3 -> conv3
I0403 13:17:04.216919 10657 net.cpp:141] Setting up conv3
I0403 13:17:04.216986 10657 net.cpp:148] Top shape: 100 384 13 13 (6489600)
I0403 13:17:04.217005 10657 net.cpp:156] Memory required for data: 705522800
I0403 13:17:04.217031 10657 layer_factory.hpp:77] Creating layer relu3
I0403 13:17:04.217053 10657 net.cpp:91] Creating Layer relu3
I0403 13:17:04.217069 10657 net.cpp:425] relu3 <- conv3
I0403 13:17:04.217090 10657 net.cpp:386] relu3 -> conv3 (in-place)
I0403 13:17:04.217360 10657 net.cpp:141] Setting up relu3
I0403 13:17:04.217387 10657 net.cpp:148] Top shape: 100 384 13 13 (6489600)
I0403 13:17:04.217402 10657 net.cpp:156] Memory required for data: 731481200
I0403 13:17:04.217417 10657 layer_factory.hpp:77] Creating layer conv4
I0403 13:17:04.217453 10657 net.cpp:91] Creating Layer conv4
I0403 13:17:04.217474 10657 net.cpp:425] conv4 <- conv3
I0403 13:17:04.217499 10657 net.cpp:399] conv4 -> conv4
I0403 13:17:04.252866 10657 net.cpp:141] Setting up conv4
I0403 13:17:04.252950 10657 net.cpp:148] Top shape: 100 384 13 13 (6489600)
I0403 13:17:04.253000 10657 net.cpp:156] Memory required for data: 757439600
I0403 13:17:04.253022 10657 layer_factory.hpp:77] Creating layer relu4
I0403 13:17:04.253046 10657 net.cpp:91] Creating Layer relu4
I0403 13:17:04.253062 10657 net.cpp:425] relu4 <- conv4
I0403 13:17:04.253080 10657 net.cpp:386] relu4 -> conv4 (in-place)
I0403 13:17:04.253355 10657 net.cpp:141] Setting up relu4
I0403 13:17:04.253383 10657 net.cpp:148] Top shape: 100 384 13 13 (6489600)
I0403 13:17:04.253399 10657 net.cpp:156] Memory required for data: 783398000
I0403 13:17:04.253415 10657 layer_factory.hpp:77] Creating layer conv5
I0403 13:17:04.253438 10657 net.cpp:91] Creating Layer conv5
I0403 13:17:04.253456 10657 net.cpp:425] conv5 <- conv4
I0403 13:17:04.253479 10657 net.cpp:399] conv5 -> conv5
I0403 13:17:04.274001 10657 net.cpp:141] Setting up conv5
I0403 13:17:04.274044 10657 net.cpp:148] Top shape: 100 256 13 13 (4326400)
I0403 13:17:04.274062 10657 net.cpp:156] Memory required for data: 800703600
I0403 13:17:04.274086 10657 layer_factory.hpp:77] Creating layer relu5
I0403 13:17:04.274107 10657 net.cpp:91] Creating Layer relu5
I0403 13:17:04.274123 10657 net.cpp:425] relu5 <- conv5
I0403 13:17:04.274143 10657 net.cpp:386] relu5 -> conv5 (in-place)
I0403 13:17:04.274442 10657 net.cpp:141] Setting up relu5
I0403 13:17:04.274474 10657 net.cpp:148] Top shape: 100 256 13 13 (4326400)
I0403 13:17:04.274492 10657 net.cpp:156] Memory required for data: 818009200
I0403 13:17:04.274508 10657 layer_factory.hpp:77] Creating layer pool5
I0403 13:17:04.274530 10657 net.cpp:91] Creating Layer pool5
I0403 13:17:04.274564 10657 net.cpp:425] pool5 <- conv5
I0403 13:17:04.274595 10657 net.cpp:399] pool5 -> pool5
I0403 13:17:04.274657 10657 net.cpp:141] Setting up pool5
I0403 13:17:04.274682 10657 net.cpp:148] Top shape: 100 256 6 6 (921600)
I0403 13:17:04.274698 10657 net.cpp:156] Memory required for data: 821695600
I0403 13:17:04.274713 10657 layer_factory.hpp:77] Creating layer fc6
I0403 13:17:04.274740 10657 net.cpp:91] Creating Layer fc6
I0403 13:17:04.274758 10657 net.cpp:425] fc6 <- pool5
I0403 13:17:04.274778 10657 net.cpp:399] fc6 -> fc6
I0403 13:17:05.820933 10657 net.cpp:141] Setting up fc6
I0403 13:17:05.820976 10657 net.cpp:148] Top shape: 100 4096 (409600)
I0403 13:17:05.820993 10657 net.cpp:156] Memory required for data: 823334000
I0403 13:17:05.821015 10657 layer_factory.hpp:77] Creating layer relu6
I0403 13:17:05.821038 10657 net.cpp:91] Creating Layer relu6
I0403 13:17:05.821053 10657 net.cpp:425] relu6 <- fc6
I0403 13:17:05.821072 10657 net.cpp:386] relu6 -> fc6 (in-place)
I0403 13:17:05.821282 10657 net.cpp:141] Setting up relu6
I0403 13:17:05.821308 10657 net.cpp:148] Top shape: 100 4096 (409600)
I0403 13:17:05.821323 10657 net.cpp:156] Memory required for data: 824972400
I0403 13:17:05.821349 10657 layer_factory.hpp:77] Creating layer drop6
I0403 13:17:05.821370 10657 net.cpp:91] Creating Layer drop6
I0403 13:17:05.821388 10657 net.cpp:425] drop6 <- fc6
I0403 13:17:05.821406 10657 net.cpp:386] drop6 -> fc6 (in-place)
I0403 13:17:05.821455 10657 net.cpp:141] Setting up drop6
I0403 13:17:05.821478 10657 net.cpp:148] Top shape: 100 4096 (409600)
I0403 13:17:05.821492 10657 net.cpp:156] Memory required for data: 826610800
I0403 13:17:05.821507 10657 layer_factory.hpp:77] Creating layer fc7
I0403 13:17:05.821529 10657 net.cpp:91] Creating Layer fc7
I0403 13:17:05.821547 10657 net.cpp:425] fc7 <- fc6
I0403 13:17:05.821566 10657 net.cpp:399] fc7 -> fc7
I0403 13:17:06.504073 10657 net.cpp:141] Setting up fc7
I0403 13:17:06.504150 10657 net.cpp:148] Top shape: 100 4096 (409600)
I0403 13:17:06.504168 10657 net.cpp:156] Memory required for data: 828249200
I0403 13:17:06.504189 10657 layer_factory.hpp:77] Creating layer relu7
I0403 13:17:06.504211 10657 net.cpp:91] Creating Layer relu7
I0403 13:17:06.504228 10657 net.cpp:425] relu7 <- fc7
I0403 13:17:06.504247 10657 net.cpp:386] relu7 -> fc7 (in-place)
I0403 13:17:06.504678 10657 net.cpp:141] Setting up relu7
I0403 13:17:06.504706 10657 net.cpp:148] Top shape: 100 4096 (409600)
I0403 13:17:06.504761 10657 net.cpp:156] Memory required for data: 829887600
I0403 13:17:06.504777 10657 layer_factory.hpp:77] Creating layer drop7
I0403 13:17:06.504796 10657 net.cpp:91] Creating Layer drop7
I0403 13:17:06.504812 10657 net.cpp:425] drop7 <- fc7
I0403 13:17:06.504829 10657 net.cpp:386] drop7 -> fc7 (in-place)
I0403 13:17:06.504874 10657 net.cpp:141] Setting up drop7
I0403 13:17:06.504897 10657 net.cpp:148] Top shape: 100 4096 (409600)
I0403 13:17:06.504911 10657 net.cpp:156] Memory required for data: 831526000
I0403 13:17:06.504926 10657 layer_factory.hpp:77] Creating layer fc8_plantvillage
I0403 13:17:06.504946 10657 net.cpp:91] Creating Layer fc8_plantvillage
I0403 13:17:06.504963 10657 net.cpp:425] fc8_plantvillage <- fc7
I0403 13:17:06.504981 10657 net.cpp:399] fc8_plantvillage -> fc8_plantvillage
I0403 13:17:06.511723 10657 net.cpp:141] Setting up fc8_plantvillage
I0403 13:17:06.511750 10657 net.cpp:148] Top shape: 100 38 (3800)
I0403 13:17:06.511765 10657 net.cpp:156] Memory required for data: 831541200
I0403 13:17:06.511785 10657 layer_factory.hpp:77] Creating layer fc8_plantvillage_fc8_plantvillage_0_split
I0403 13:17:06.511803 10657 net.cpp:91] Creating Layer fc8_plantvillage_fc8_plantvillage_0_split
I0403 13:17:06.511818 10657 net.cpp:425] fc8_plantvillage_fc8_plantvillage_0_split <- fc8_plantvillage
I0403 13:17:06.511838 10657 net.cpp:399] fc8_plantvillage_fc8_plantvillage_0_split -> fc8_plantvillage_fc8_plantvillage_0_split_0
I0403 13:17:06.511858 10657 net.cpp:399] fc8_plantvillage_fc8_plantvillage_0_split -> fc8_plantvillage_fc8_plantvillage_0_split_1
I0403 13:17:06.511878 10657 net.cpp:399] fc8_plantvillage_fc8_plantvillage_0_split -> fc8_plantvillage_fc8_plantvillage_0_split_2
I0403 13:17:06.511955 10657 net.cpp:141] Setting up fc8_plantvillage_fc8_plantvillage_0_split
I0403 13:17:06.511978 10657 net.cpp:148] Top shape: 100 38 (3800)
I0403 13:17:06.511996 10657 net.cpp:148] Top shape: 100 38 (3800)
I0403 13:17:06.512011 10657 net.cpp:148] Top shape: 100 38 (3800)
I0403 13:17:06.512024 10657 net.cpp:156] Memory required for data: 831586800
I0403 13:17:06.512039 10657 layer_factory.hpp:77] Creating layer prob
I0403 13:17:06.512059 10657 net.cpp:91] Creating Layer prob
I0403 13:17:06.512075 10657 net.cpp:425] prob <- fc8_plantvillage_fc8_plantvillage_0_split_0
I0403 13:17:06.512092 10657 net.cpp:399] prob -> prob
I0403 13:17:06.512315 10657 net.cpp:141] Setting up prob
I0403 13:17:06.512343 10657 net.cpp:148] Top shape: 100 38 (3800)
I0403 13:17:06.512359 10657 net.cpp:156] Memory required for data: 831602000
I0403 13:17:06.512374 10657 layer_factory.hpp:77] Creating layer hdf5out
I0403 13:17:06.512393 10657 net.cpp:91] Creating Layer hdf5out
I0403 13:17:06.512408 10657 net.cpp:425] hdf5out <- prob
I0403 13:17:06.512424 10657 net.cpp:425] hdf5out <- label_data_1_split_0
I0403 13:17:06.514627 10657 net.cpp:141] Setting up hdf5out
…
