…
I0403 13:16:13.472771 10630 net.cpp:313] The NetState phase (1) differed from the phase (0) specified by a rule in layer data
I0403 13:16:13.473072 10630 net.cpp:49] Initializing net from parameters: 
state {
  phase: TEST
}
layer {
  name: "data"
  type: "Data"
  top: "data"
  top: "label"
  include {
    phase: TEST
  }
  transform_param {
    crop_size: 227
    mean_file: "/home/mohanty/data/final_dataset/lmdb/color-80-20/mean.binaryproto"
  }
  data_param {
    source: "/home/mohanty/data/final_dataset/lmdb/color-80-20/test_db"
    batch_size: 100
    backend: LMDB
  }
}
layer {
  name: "conv1"
  type: "Convolution"
  bottom: "data"
  top: "conv1"
  param {
    lr_mult: 1
    decay_mult: 1
  }
  param {
    lr_mult: 2
    decay_mult: 0
  }
  convolution_param {
    num_output: 96
    kernel_size: 11
    stride: 4
    weight_filler {
      type: "gaussian"
      std: 0.01
    }
    bias_filler {
      type: "constant"
      value: 0
    }
  }
}
layer {
  name: "relu1"
  type: "ReLU"
  bottom: "conv1"
  top: "conv1"
}
layer {
  name: "norm1"
  type: "LRN"
  bottom: "conv1"
  top: "norm1"
  lrn_param {
    local_size: 5
    alpha: 0.0001
    beta: 0.75
  }
}
layer {
  name: "pool1"
  type: "Pooling"
  bottom: "norm1"
  top: "pool1"
  pooling_param {
    pool: MAX
    kernel_size: 3
    stride: 2
  }
}
layer {
  name: "conv2"
  type: "Convolution"
  bottom: "pool1"
  top: "conv2"
  param {
    lr_mult: 1
    decay_mult: 1
  }
  param {
    lr_mult: 2
    decay_mult: 0
  }
  convolution_param {
    num_output: 256
    pad: 2
    kernel_size: 5
    group: 2
    weight_filler {
      type: "gaussian"
      std: 0.01
    }
    bias_filler {
      type: "constant"
      value: 0.1
    }
  }
}
layer {
  name: "relu2"
  type: "ReLU"
  bottom: "conv2"
  top: "conv2"
}
layer {
  name: "norm2"
  type: "LRN"
  bottom: "conv2"
  top: "norm2"
  lrn_param {
    local_size: 5
    alpha: 0.0001
    beta: 0.75
  }
}
layer {
  name: "pool2"
  type: "Pooling"
  bottom: "norm2"
  top: "pool2"
  pooling_param {
    pool: MAX
    kernel_size: 3
    stride: 2
  }
}
layer {
  name: "conv3"
  type: "Convolution"
  bottom: "pool2"
  top: "conv3"
  param {
    lr_mult: 1
    decay_mult: 1
  }
  param {
    lr_mult: 2
    decay_mult: 0
  }
  convolution_param {
    num_output: 384
    pad: 1
    kernel_size: 3
    weight_filler {
      type: "gaussian"
      std: 0.01
    }
    bias_filler {
      type: "constant"
      value: 0
    }
  }
}
layer {
  name: "relu3"
  type: "ReLU"
  bottom: "conv3"
  top: "conv3"
}
layer {
  name: "conv4"
  type: "Convolution"
  bottom: "conv3"
  top: "conv4"
  param {
    lr_mult: 1
    decay_mult: 1
  }
  param {
    lr_mult: 2
    decay_mult: 0
  }
  convolution_param {
    num_output: 384
    pad: 1
    kernel_size: 3
    group: 2
    weight_filler {
      type: "gaussian"
      std: 0.01
    }
    bias_filler {
      type: "constant"
      value: 0.1
    }
  }
}
layer {
  name: "relu4"
  type: "ReLU"
  bottom: "conv4"
  top: "conv4"
}
layer {
  name: "conv5"
  type: "Convolution"
  bottom: "conv4"
  top: "conv5"
  param {
    lr_mult: 1
    decay_mult: 1
  }
  param {
    lr_mult: 2
    decay_mult: 0
  }
  convolution_param {
    num_output: 256
    pad: 1
    kernel_size: 3
    group: 2
    weight_filler {
      type: "gaussian"
      std: 0.01
    }
    bias_filler {
      type: "constant"
      value: 0.1
    }
  }
}
layer {
  name: "relu5"
  type: "ReLU"
  bottom: "conv5"
  top: "conv5"
}
layer {
  name: "pool5"
  type: "Pooling"
  bottom: "conv5"
  top: "pool5"
  pooling_param {
    pool: MAX
    kernel_size: 3
    stride: 2
  }
}
layer {
  name: "fc6"
  type: "InnerProduct"
  bottom: "pool5"
  top: "fc6"
  param {
    lr_mult: 1
    decay_mult: 1
  }
  param {
    lr_mult: 2
    decay_mult: 0
  }
  inner_product_param {
    num_output: 4096
    weight_filler {
      type: "gaussian"
      std: 0.005
    }
    bias_filler {
      type: "constant"
      value: 0.1
    }
  }
}
layer {
  name: "relu6"
  type: "ReLU"
  bottom: "fc6"
  top: "fc6"
}
layer {
  name: "drop6"
  type: "Dropout"
  bottom: "fc6"
  top: "fc6"
  dropout_param {
    dropout_ratio: 0.5
  }
}
layer {
  name: "fc7"
  type: "InnerProduct"
  bottom: "fc6"
  top: "fc7"
  param {
    lr_mult: 1
    decay_mult: 1
  }
  param {
    lr_mult: 2
    decay_mult: 0
  }
  inner_product_param {
    num_output: 4096
    weight_filler {
      type: "gaussian"
      std: 0.005
    }
    bias_filler {
      type: "constant"
      value: 0.1
    }
  }
}
layer {
  name: "relu7"
  type: "ReLU"
  bottom: "fc7"
  top: "fc7"
}
layer {
  name: "drop7"
  type: "Dropout"
  bottom: "fc7"
  top: "fc7"
  dropout_param {
    dropout_ratio: 0.5
  }
}
layer {
  name: "fc8_plantvillage"
  type: "InnerProduct"
  bottom: "fc7"
  top: "fc8_plantvillage"
  param {
    lr_mult: 1
    decay_mult: 1
  }
  param {
    lr_mult: 2
    decay_mult: 0
  }
  inner_product_param {
    num_output: 38
    weight_filler {
      type: "gaussian"
      std: 0.01
    }
    bias_filler {
      type: "constant"
      value: 0
    }
  }
}
layer {
  name: "prob"
  type: "Softmax"
  bottom: "fc8_plantvillage"
  top: "prob"
  include {
    phase: TEST
  }
}
layer {
  name: "hdf5out"
  type: "HDF5Output"
  bottom: "prob"
  bottom: "label"
  include {
    phase: TEST
  }
  hdf5_output_param {
    file_name: "hdf5_dumps/iter_7429.h5"
  }
}
layer {
  name: "loss"
  type: "SoftmaxWithLoss"
  bottom: "fc8_plantvillage"
  bottom: "label"
  top: "loss"
}
layer {
  name: "accuracy"
  type: "Accuracy"
  bottom: "fc8_plantvillage"
  bottom: "label"
  top: "accuracy"
  include {
    phase: TEST
  }
}
I0403 13:16:13.473673 10630 layer_factory.hpp:77] Creating layer data
I0403 13:16:13.474310 10630 net.cpp:91] Creating Layer data
I0403 13:16:13.474344 10630 net.cpp:399] data -> data
I0403 13:16:13.474393 10630 net.cpp:399] data -> label
I0403 13:16:13.474429 10630 data_transformer.cpp:25] Loading mean file from: /home/mohanty/data/final_dataset/lmdb/color-80-20/mean.binaryproto
I0403 13:16:13.477277 10634 db_lmdb.cpp:38] Opened lmdb /home/mohanty/data/final_dataset/lmdb/color-80-20/test_db
I0403 13:16:13.488553 10630 data_layer.cpp:41] output data size: 100,3,227,227
I0403 13:16:13.605290 10630 net.cpp:141] Setting up data
I0403 13:16:13.605350 10630 net.cpp:148] Top shape: 100 3 227 227 (15458700)
I0403 13:16:13.605373 10630 net.cpp:148] Top shape: 100 (100)
I0403 13:16:13.605389 10630 net.cpp:156] Memory required for data: 61835200
I0403 13:16:13.605417 10630 layer_factory.hpp:77] Creating layer label_data_1_split
I0403 13:16:13.605442 10630 net.cpp:91] Creating Layer label_data_1_split
I0403 13:16:13.605460 10630 net.cpp:425] label_data_1_split <- label
I0403 13:16:13.605490 10630 net.cpp:399] label_data_1_split -> label_data_1_split_0
I0403 13:16:13.605516 10630 net.cpp:399] label_data_1_split -> label_data_1_split_1
I0403 13:16:13.605536 10630 net.cpp:399] label_data_1_split -> label_data_1_split_2
I0403 13:16:13.605597 10630 net.cpp:141] Setting up label_data_1_split
I0403 13:16:13.605624 10630 net.cpp:148] Top shape: 100 (100)
I0403 13:16:13.605640 10630 net.cpp:148] Top shape: 100 (100)
I0403 13:16:13.605655 10630 net.cpp:148] Top shape: 100 (100)
I0403 13:16:13.605669 10630 net.cpp:156] Memory required for data: 61836400
I0403 13:16:13.605681 10630 layer_factory.hpp:77] Creating layer conv1
I0403 13:16:13.605711 10630 net.cpp:91] Creating Layer conv1
I0403 13:16:13.605728 10630 net.cpp:425] conv1 <- data
I0403 13:16:13.605747 10630 net.cpp:399] conv1 -> conv1
I0403 13:16:13.747354 10630 net.cpp:141] Setting up conv1
I0403 13:16:13.747436 10630 net.cpp:148] Top shape: 100 96 55 55 (29040000)
I0403 13:16:13.747453 10630 net.cpp:156] Memory required for data: 177996400
I0403 13:16:13.747485 10630 layer_factory.hpp:77] Creating layer relu1
I0403 13:16:13.747560 10630 net.cpp:91] Creating Layer relu1
I0403 13:16:13.747582 10630 net.cpp:425] relu1 <- conv1
I0403 13:16:13.747606 10630 net.cpp:386] relu1 -> conv1 (in-place)
I0403 13:16:13.747874 10630 net.cpp:141] Setting up relu1
I0403 13:16:13.747902 10630 net.cpp:148] Top shape: 100 96 55 55 (29040000)
I0403 13:16:13.747920 10630 net.cpp:156] Memory required for data: 294156400
I0403 13:16:13.747969 10630 layer_factory.hpp:77] Creating layer norm1
I0403 13:16:13.747998 10630 net.cpp:91] Creating Layer norm1
I0403 13:16:13.748018 10630 net.cpp:425] norm1 <- conv1
I0403 13:16:13.748035 10630 net.cpp:399] norm1 -> norm1
I0403 13:16:13.748358 10630 net.cpp:141] Setting up norm1
I0403 13:16:13.748389 10630 net.cpp:148] Top shape: 100 96 55 55 (29040000)
I0403 13:16:13.748404 10630 net.cpp:156] Memory required for data: 410316400
I0403 13:16:13.748420 10630 layer_factory.hpp:77] Creating layer pool1
I0403 13:16:13.748443 10630 net.cpp:91] Creating Layer pool1
I0403 13:16:13.748461 10630 net.cpp:425] pool1 <- norm1
I0403 13:16:13.748479 10630 net.cpp:399] pool1 -> pool1
I0403 13:16:13.748551 10630 net.cpp:141] Setting up pool1
I0403 13:16:13.748576 10630 net.cpp:148] Top shape: 100 96 27 27 (6998400)
I0403 13:16:13.748591 10630 net.cpp:156] Memory required for data: 438310000
I0403 13:16:13.748611 10630 layer_factory.hpp:77] Creating layer conv2
I0403 13:16:13.748636 10630 net.cpp:91] Creating Layer conv2
I0403 13:16:13.748653 10630 net.cpp:425] conv2 <- pool1
I0403 13:16:13.748672 10630 net.cpp:399] conv2 -> conv2
I0403 13:16:13.764324 10630 net.cpp:141] Setting up conv2
I0403 13:16:13.764384 10630 net.cpp:148] Top shape: 100 256 27 27 (18662400)
I0403 13:16:13.764401 10630 net.cpp:156] Memory required for data: 512959600
I0403 13:16:13.764425 10630 layer_factory.hpp:77] Creating layer relu2
I0403 13:16:13.764446 10630 net.cpp:91] Creating Layer relu2
I0403 13:16:13.764462 10630 net.cpp:425] relu2 <- conv2
I0403 13:16:13.764480 10630 net.cpp:386] relu2 -> conv2 (in-place)
I0403 13:16:13.764789 10630 net.cpp:141] Setting up relu2
I0403 13:16:13.764818 10630 net.cpp:148] Top shape: 100 256 27 27 (18662400)
I0403 13:16:13.764834 10630 net.cpp:156] Memory required for data: 587609200
I0403 13:16:13.764849 10630 layer_factory.hpp:77] Creating layer norm2
I0403 13:16:13.764871 10630 net.cpp:91] Creating Layer norm2
I0403 13:16:13.764889 10630 net.cpp:425] norm2 <- conv2
I0403 13:16:13.764906 10630 net.cpp:399] norm2 -> norm2
I0403 13:16:13.765105 10630 net.cpp:141] Setting up norm2
I0403 13:16:13.765133 10630 net.cpp:148] Top shape: 100 256 27 27 (18662400)
I0403 13:16:13.765149 10630 net.cpp:156] Memory required for data: 662258800
I0403 13:16:13.765164 10630 layer_factory.hpp:77] Creating layer pool2
I0403 13:16:13.765183 10630 net.cpp:91] Creating Layer pool2
I0403 13:16:13.765199 10630 net.cpp:425] pool2 <- norm2
I0403 13:16:13.765216 10630 net.cpp:399] pool2 -> pool2
I0403 13:16:13.765267 10630 net.cpp:141] Setting up pool2
I0403 13:16:13.765291 10630 net.cpp:148] Top shape: 100 256 13 13 (4326400)
I0403 13:16:13.765306 10630 net.cpp:156] Memory required for data: 679564400
I0403 13:16:13.765321 10630 layer_factory.hpp:77] Creating layer conv3
I0403 13:16:13.765344 10630 net.cpp:91] Creating Layer conv3
I0403 13:16:13.765360 10630 net.cpp:425] conv3 <- pool2
I0403 13:16:13.765378 10630 net.cpp:399] conv3 -> conv3
I0403 13:16:13.810643 10630 net.cpp:141] Setting up conv3
I0403 13:16:13.810703 10630 net.cpp:148] Top shape: 100 384 13 13 (6489600)
I0403 13:16:13.810719 10630 net.cpp:156] Memory required for data: 705522800
I0403 13:16:13.810746 10630 layer_factory.hpp:77] Creating layer relu3
I0403 13:16:13.810770 10630 net.cpp:91] Creating Layer relu3
I0403 13:16:13.810786 10630 net.cpp:425] relu3 <- conv3
I0403 13:16:13.810804 10630 net.cpp:386] relu3 -> conv3 (in-place)
I0403 13:16:13.811094 10630 net.cpp:141] Setting up relu3
I0403 13:16:13.811122 10630 net.cpp:148] Top shape: 100 384 13 13 (6489600)
I0403 13:16:13.811137 10630 net.cpp:156] Memory required for data: 731481200
I0403 13:16:13.811152 10630 layer_factory.hpp:77] Creating layer conv4
I0403 13:16:13.811178 10630 net.cpp:91] Creating Layer conv4
I0403 13:16:13.811197 10630 net.cpp:425] conv4 <- conv3
I0403 13:16:13.811216 10630 net.cpp:399] conv4 -> conv4
I0403 13:16:13.841353 10630 net.cpp:141] Setting up conv4
I0403 13:16:13.841423 10630 net.cpp:148] Top shape: 100 384 13 13 (6489600)
I0403 13:16:13.841473 10630 net.cpp:156] Memory required for data: 757439600
I0403 13:16:13.841495 10630 layer_factory.hpp:77] Creating layer relu4
I0403 13:16:13.841519 10630 net.cpp:91] Creating Layer relu4
I0403 13:16:13.841536 10630 net.cpp:425] relu4 <- conv4
I0403 13:16:13.841554 10630 net.cpp:386] relu4 -> conv4 (in-place)
I0403 13:16:13.841840 10630 net.cpp:141] Setting up relu4
I0403 13:16:13.841877 10630 net.cpp:148] Top shape: 100 384 13 13 (6489600)
I0403 13:16:13.841892 10630 net.cpp:156] Memory required for data: 783398000
I0403 13:16:13.841907 10630 layer_factory.hpp:77] Creating layer conv5
I0403 13:16:13.841933 10630 net.cpp:91] Creating Layer conv5
I0403 13:16:13.841949 10630 net.cpp:425] conv5 <- conv4
I0403 13:16:13.841969 10630 net.cpp:399] conv5 -> conv5
I0403 13:16:13.862576 10630 net.cpp:141] Setting up conv5
I0403 13:16:13.862630 10630 net.cpp:148] Top shape: 100 256 13 13 (4326400)
I0403 13:16:13.862648 10630 net.cpp:156] Memory required for data: 800703600
I0403 13:16:13.862670 10630 layer_factory.hpp:77] Creating layer relu5
I0403 13:16:13.862694 10630 net.cpp:91] Creating Layer relu5
I0403 13:16:13.862712 10630 net.cpp:425] relu5 <- conv5
I0403 13:16:13.862730 10630 net.cpp:386] relu5 -> conv5 (in-place)
I0403 13:16:13.863011 10630 net.cpp:141] Setting up relu5
I0403 13:16:13.863039 10630 net.cpp:148] Top shape: 100 256 13 13 (4326400)
I0403 13:16:13.863054 10630 net.cpp:156] Memory required for data: 818009200
I0403 13:16:13.863068 10630 layer_factory.hpp:77] Creating layer pool5
I0403 13:16:13.863093 10630 net.cpp:91] Creating Layer pool5
I0403 13:16:13.863111 10630 net.cpp:425] pool5 <- conv5
I0403 13:16:13.863128 10630 net.cpp:399] pool5 -> pool5
I0403 13:16:13.863193 10630 net.cpp:141] Setting up pool5
I0403 13:16:13.863216 10630 net.cpp:148] Top shape: 100 256 6 6 (921600)
I0403 13:16:13.863231 10630 net.cpp:156] Memory required for data: 821695600
I0403 13:16:13.863246 10630 layer_factory.hpp:77] Creating layer fc6
I0403 13:16:13.863275 10630 net.cpp:91] Creating Layer fc6
I0403 13:16:13.863293 10630 net.cpp:425] fc6 <- pool5
I0403 13:16:13.863311 10630 net.cpp:399] fc6 -> fc6
I0403 13:16:15.417806 10630 net.cpp:141] Setting up fc6
I0403 13:16:15.417848 10630 net.cpp:148] Top shape: 100 4096 (409600)
I0403 13:16:15.417863 10630 net.cpp:156] Memory required for data: 823334000
I0403 13:16:15.417884 10630 layer_factory.hpp:77] Creating layer relu6
I0403 13:16:15.417906 10630 net.cpp:91] Creating Layer relu6
I0403 13:16:15.417922 10630 net.cpp:425] relu6 <- fc6
I0403 13:16:15.417942 10630 net.cpp:386] relu6 -> fc6 (in-place)
I0403 13:16:15.418155 10630 net.cpp:141] Setting up relu6
I0403 13:16:15.418193 10630 net.cpp:148] Top shape: 100 4096 (409600)
I0403 13:16:15.418207 10630 net.cpp:156] Memory required for data: 824972400
I0403 13:16:15.418222 10630 layer_factory.hpp:77] Creating layer drop6
I0403 13:16:15.418241 10630 net.cpp:91] Creating Layer drop6
I0403 13:16:15.418258 10630 net.cpp:425] drop6 <- fc6
I0403 13:16:15.418277 10630 net.cpp:386] drop6 -> fc6 (in-place)
I0403 13:16:15.418331 10630 net.cpp:141] Setting up drop6
I0403 13:16:15.418356 10630 net.cpp:148] Top shape: 100 4096 (409600)
I0403 13:16:15.418371 10630 net.cpp:156] Memory required for data: 826610800
I0403 13:16:15.418385 10630 layer_factory.hpp:77] Creating layer fc7
I0403 13:16:15.418404 10630 net.cpp:91] Creating Layer fc7
I0403 13:16:15.418419 10630 net.cpp:425] fc7 <- fc6
I0403 13:16:15.418438 10630 net.cpp:399] fc7 -> fc7
I0403 13:16:16.102812 10630 net.cpp:141] Setting up fc7
I0403 13:16:16.102888 10630 net.cpp:148] Top shape: 100 4096 (409600)
I0403 13:16:16.102905 10630 net.cpp:156] Memory required for data: 828249200
I0403 13:16:16.102926 10630 layer_factory.hpp:77] Creating layer relu7
I0403 13:16:16.102951 10630 net.cpp:91] Creating Layer relu7
I0403 13:16:16.102967 10630 net.cpp:425] relu7 <- fc7
I0403 13:16:16.102987 10630 net.cpp:386] relu7 -> fc7 (in-place)
I0403 13:16:16.103399 10630 net.cpp:141] Setting up relu7
I0403 13:16:16.103425 10630 net.cpp:148] Top shape: 100 4096 (409600)
I0403 13:16:16.103482 10630 net.cpp:156] Memory required for data: 829887600
I0403 13:16:16.103497 10630 layer_factory.hpp:77] Creating layer drop7
I0403 13:16:16.103519 10630 net.cpp:91] Creating Layer drop7
I0403 13:16:16.103535 10630 net.cpp:425] drop7 <- fc7
I0403 13:16:16.103551 10630 net.cpp:386] drop7 -> fc7 (in-place)
I0403 13:16:16.103595 10630 net.cpp:141] Setting up drop7
I0403 13:16:16.103623 10630 net.cpp:148] Top shape: 100 4096 (409600)
I0403 13:16:16.103638 10630 net.cpp:156] Memory required for data: 831526000
I0403 13:16:16.103653 10630 layer_factory.hpp:77] Creating layer fc8_plantvillage
I0403 13:16:16.103672 10630 net.cpp:91] Creating Layer fc8_plantvillage
I0403 13:16:16.103687 10630 net.cpp:425] fc8_plantvillage <- fc7
I0403 13:16:16.103705 10630 net.cpp:399] fc8_plantvillage -> fc8_plantvillage
I0403 13:16:16.110448 10630 net.cpp:141] Setting up fc8_plantvillage
I0403 13:16:16.110476 10630 net.cpp:148] Top shape: 100 38 (3800)
I0403 13:16:16.110491 10630 net.cpp:156] Memory required for data: 831541200
I0403 13:16:16.110508 10630 layer_factory.hpp:77] Creating layer fc8_plantvillage_fc8_plantvillage_0_split
I0403 13:16:16.110530 10630 net.cpp:91] Creating Layer fc8_plantvillage_fc8_plantvillage_0_split
I0403 13:16:16.110548 10630 net.cpp:425] fc8_plantvillage_fc8_plantvillage_0_split <- fc8_plantvillage
I0403 13:16:16.110565 10630 net.cpp:399] fc8_plantvillage_fc8_plantvillage_0_split -> fc8_plantvillage_fc8_plantvillage_0_split_0
I0403 13:16:16.110584 10630 net.cpp:399] fc8_plantvillage_fc8_plantvillage_0_split -> fc8_plantvillage_fc8_plantvillage_0_split_1
I0403 13:16:16.110607 10630 net.cpp:399] fc8_plantvillage_fc8_plantvillage_0_split -> fc8_plantvillage_fc8_plantvillage_0_split_2
I0403 13:16:16.110687 10630 net.cpp:141] Setting up fc8_plantvillage_fc8_plantvillage_0_split
I0403 13:16:16.110712 10630 net.cpp:148] Top shape: 100 38 (3800)
I0403 13:16:16.110726 10630 net.cpp:148] Top shape: 100 38 (3800)
I0403 13:16:16.110740 10630 net.cpp:148] Top shape: 100 38 (3800)
I0403 13:16:16.110754 10630 net.cpp:156] Memory required for data: 831586800
I0403 13:16:16.110767 10630 layer_factory.hpp:77] Creating layer prob
I0403 13:16:16.110785 10630 net.cpp:91] Creating Layer prob
I0403 13:16:16.110798 10630 net.cpp:425] prob <- fc8_plantvillage_fc8_plantvillage_0_split_0
I0403 13:16:16.110817 10630 net.cpp:399] prob -> prob
I0403 13:16:16.111042 10630 net.cpp:141] Setting up prob
I0403 13:16:16.111068 10630 net.cpp:148] Top shape: 100 38 (3800)
I0403 13:16:16.111083 10630 net.cpp:156] Memory required for data: 831602000
I0403 13:16:16.111096 10630 layer_factory.hpp:77] Creating layer hdf5out
I0403 13:16:16.111117 10630 net.cpp:91] Creating Layer hdf5out
I0403 13:16:16.111134 10630 net.cpp:425] hdf5out <- prob
I0403 13:16:16.111148 10630 net.cpp:425] hdf5out <- label_data_1_split_0
I0403 13:16:16.113482 10630 net.cpp:141] Setting up hdf5out
…
