…
I0403 13:19:58.849823 10889 net.cpp:313] The NetState phase (1) differed from the phase (0) specified by a rule in layer data
I0403 13:19:58.850129 10889 net.cpp:49] Initializing net from parameters: 
state {
  phase: TEST
}
layer {
  name: "data"
  type: "Data"
  top: "data"
  top: "label"
  include {
    phase: TEST
  }
  transform_param {
    crop_size: 227
    mean_file: "/home/mohanty/data/final_dataset/lmdb/color-80-20/mean.binaryproto"
  }
  data_param {
    source: "/home/mohanty/data/final_dataset/lmdb/color-80-20/test_db"
    batch_size: 100
    backend: LMDB
  }
}
layer {
  name: "conv1"
  type: "Convolution"
  bottom: "data"
  top: "conv1"
  param {
    lr_mult: 1
    decay_mult: 1
  }
  param {
    lr_mult: 2
    decay_mult: 0
  }
  convolution_param {
    num_output: 96
    kernel_size: 11
    stride: 4
    weight_filler {
      type: "gaussian"
      std: 0.01
    }
    bias_filler {
      type: "constant"
      value: 0
    }
  }
}
layer {
  name: "relu1"
  type: "ReLU"
  bottom: "conv1"
  top: "conv1"
}
layer {
  name: "norm1"
  type: "LRN"
  bottom: "conv1"
  top: "norm1"
  lrn_param {
    local_size: 5
    alpha: 0.0001
    beta: 0.75
  }
}
layer {
  name: "pool1"
  type: "Pooling"
  bottom: "norm1"
  top: "pool1"
  pooling_param {
    pool: MAX
    kernel_size: 3
    stride: 2
  }
}
layer {
  name: "conv2"
  type: "Convolution"
  bottom: "pool1"
  top: "conv2"
  param {
    lr_mult: 1
    decay_mult: 1
  }
  param {
    lr_mult: 2
    decay_mult: 0
  }
  convolution_param {
    num_output: 256
    pad: 2
    kernel_size: 5
    group: 2
    weight_filler {
      type: "gaussian"
      std: 0.01
    }
    bias_filler {
      type: "constant"
      value: 0.1
    }
  }
}
layer {
  name: "relu2"
  type: "ReLU"
  bottom: "conv2"
  top: "conv2"
}
layer {
  name: "norm2"
  type: "LRN"
  bottom: "conv2"
  top: "norm2"
  lrn_param {
    local_size: 5
    alpha: 0.0001
    beta: 0.75
  }
}
layer {
  name: "pool2"
  type: "Pooling"
  bottom: "norm2"
  top: "pool2"
  pooling_param {
    pool: MAX
    kernel_size: 3
    stride: 2
  }
}
layer {
  name: "conv3"
  type: "Convolution"
  bottom: "pool2"
  top: "conv3"
  param {
    lr_mult: 1
    decay_mult: 1
  }
  param {
    lr_mult: 2
    decay_mult: 0
  }
  convolution_param {
    num_output: 384
    pad: 1
    kernel_size: 3
    weight_filler {
      type: "gaussian"
      std: 0.01
    }
    bias_filler {
      type: "constant"
      value: 0
    }
  }
}
layer {
  name: "relu3"
  type: "ReLU"
  bottom: "conv3"
  top: "conv3"
}
layer {
  name: "conv4"
  type: "Convolution"
  bottom: "conv3"
  top: "conv4"
  param {
    lr_mult: 1
    decay_mult: 1
  }
  param {
    lr_mult: 2
    decay_mult: 0
  }
  convolution_param {
    num_output: 384
    pad: 1
    kernel_size: 3
    group: 2
    weight_filler {
      type: "gaussian"
      std: 0.01
    }
    bias_filler {
      type: "constant"
      value: 0.1
    }
  }
}
layer {
  name: "relu4"
  type: "ReLU"
  bottom: "conv4"
  top: "conv4"
}
layer {
  name: "conv5"
  type: "Convolution"
  bottom: "conv4"
  top: "conv5"
  param {
    lr_mult: 1
    decay_mult: 1
  }
  param {
    lr_mult: 2
    decay_mult: 0
  }
  convolution_param {
    num_output: 256
    pad: 1
    kernel_size: 3
    group: 2
    weight_filler {
      type: "gaussian"
      std: 0.01
    }
    bias_filler {
      type: "constant"
      value: 0.1
    }
  }
}
layer {
  name: "relu5"
  type: "ReLU"
  bottom: "conv5"
  top: "conv5"
}
layer {
  name: "pool5"
  type: "Pooling"
  bottom: "conv5"
  top: "pool5"
  pooling_param {
    pool: MAX
    kernel_size: 3
    stride: 2
  }
}
layer {
  name: "fc6"
  type: "InnerProduct"
  bottom: "pool5"
  top: "fc6"
  param {
    lr_mult: 1
    decay_mult: 1
  }
  param {
    lr_mult: 2
    decay_mult: 0
  }
  inner_product_param {
    num_output: 4096
    weight_filler {
      type: "gaussian"
      std: 0.005
    }
    bias_filler {
      type: "constant"
      value: 0.1
    }
  }
}
layer {
  name: "relu6"
  type: "ReLU"
  bottom: "fc6"
  top: "fc6"
}
layer {
  name: "drop6"
  type: "Dropout"
  bottom: "fc6"
  top: "fc6"
  dropout_param {
    dropout_ratio: 0.5
  }
}
layer {
  name: "fc7"
  type: "InnerProduct"
  bottom: "fc6"
  top: "fc7"
  param {
    lr_mult: 1
    decay_mult: 1
  }
  param {
    lr_mult: 2
    decay_mult: 0
  }
  inner_product_param {
    num_output: 4096
    weight_filler {
      type: "gaussian"
      std: 0.005
    }
    bias_filler {
      type: "constant"
      value: 0.1
    }
  }
}
layer {
  name: "relu7"
  type: "ReLU"
  bottom: "fc7"
  top: "fc7"
}
layer {
  name: "drop7"
  type: "Dropout"
  bottom: "fc7"
  top: "fc7"
  dropout_param {
    dropout_ratio: 0.5
  }
}
layer {
  name: "fc8_plantvillage"
  type: "InnerProduct"
  bottom: "fc7"
  top: "fc8_plantvillage"
  param {
    lr_mult: 1
    decay_mult: 1
  }
  param {
    lr_mult: 2
    decay_mult: 0
  }
  inner_product_param {
    num_output: 38
    weight_filler {
      type: "gaussian"
      std: 0.01
    }
    bias_filler {
      type: "constant"
      value: 0
    }
  }
}
layer {
  name: "prob"
  type: "Softmax"
  bottom: "fc8_plantvillage"
  top: "prob"
  include {
    phase: TEST
  }
}
layer {
  name: "hdf5out"
  type: "HDF5Output"
  bottom: "prob"
  bottom: "label"
  include {
    phase: TEST
  }
  hdf5_output_param {
    file_name: "hdf5_dumps/iter_11362.h5"
  }
}
layer {
  name: "loss"
  type: "SoftmaxWithLoss"
  bottom: "fc8_plantvillage"
  bottom: "label"
  top: "loss"
}
layer {
  name: "accuracy"
  type: "Accuracy"
  bottom: "fc8_plantvillage"
  bottom: "label"
  top: "accuracy"
  include {
    phase: TEST
  }
}
I0403 13:19:58.850750 10889 layer_factory.hpp:77] Creating layer data
I0403 13:19:58.851410 10889 net.cpp:91] Creating Layer data
I0403 13:19:58.851443 10889 net.cpp:399] data -> data
I0403 13:19:58.851495 10889 net.cpp:399] data -> label
I0403 13:19:58.851531 10889 data_transformer.cpp:25] Loading mean file from: /home/mohanty/data/final_dataset/lmdb/color-80-20/mean.binaryproto
I0403 13:19:58.854800 10893 db_lmdb.cpp:38] Opened lmdb /home/mohanty/data/final_dataset/lmdb/color-80-20/test_db
I0403 13:19:58.866123 10889 data_layer.cpp:41] output data size: 100,3,227,227
I0403 13:19:58.989387 10889 net.cpp:141] Setting up data
I0403 13:19:58.989480 10889 net.cpp:148] Top shape: 100 3 227 227 (15458700)
I0403 13:19:58.989505 10889 net.cpp:148] Top shape: 100 (100)
I0403 13:19:58.989521 10889 net.cpp:156] Memory required for data: 61835200
I0403 13:19:58.989547 10889 layer_factory.hpp:77] Creating layer label_data_1_split
I0403 13:19:58.989574 10889 net.cpp:91] Creating Layer label_data_1_split
I0403 13:19:58.989593 10889 net.cpp:425] label_data_1_split <- label
I0403 13:19:58.989630 10889 net.cpp:399] label_data_1_split -> label_data_1_split_0
I0403 13:19:58.989660 10889 net.cpp:399] label_data_1_split -> label_data_1_split_1
I0403 13:19:58.989681 10889 net.cpp:399] label_data_1_split -> label_data_1_split_2
I0403 13:19:58.989743 10889 net.cpp:141] Setting up label_data_1_split
I0403 13:19:58.989765 10889 net.cpp:148] Top shape: 100 (100)
I0403 13:19:58.989781 10889 net.cpp:148] Top shape: 100 (100)
I0403 13:19:58.989799 10889 net.cpp:148] Top shape: 100 (100)
I0403 13:19:58.989812 10889 net.cpp:156] Memory required for data: 61836400
I0403 13:19:58.989826 10889 layer_factory.hpp:77] Creating layer conv1
I0403 13:19:58.989858 10889 net.cpp:91] Creating Layer conv1
I0403 13:19:58.989876 10889 net.cpp:425] conv1 <- data
I0403 13:19:58.989897 10889 net.cpp:399] conv1 -> conv1
I0403 13:19:59.136886 10889 net.cpp:141] Setting up conv1
I0403 13:19:59.136963 10889 net.cpp:148] Top shape: 100 96 55 55 (29040000)
I0403 13:19:59.136982 10889 net.cpp:156] Memory required for data: 177996400
I0403 13:19:59.137051 10889 layer_factory.hpp:77] Creating layer relu1
I0403 13:19:59.137082 10889 net.cpp:91] Creating Layer relu1
I0403 13:19:59.137100 10889 net.cpp:425] relu1 <- conv1
I0403 13:19:59.137121 10889 net.cpp:386] relu1 -> conv1 (in-place)
I0403 13:19:59.137392 10889 net.cpp:141] Setting up relu1
I0403 13:19:59.137418 10889 net.cpp:148] Top shape: 100 96 55 55 (29040000)
I0403 13:19:59.137433 10889 net.cpp:156] Memory required for data: 294156400
I0403 13:19:59.137480 10889 layer_factory.hpp:77] Creating layer norm1
I0403 13:19:59.137509 10889 net.cpp:91] Creating Layer norm1
I0403 13:19:59.137527 10889 net.cpp:425] norm1 <- conv1
I0403 13:19:59.137545 10889 net.cpp:399] norm1 -> norm1
I0403 13:19:59.137871 10889 net.cpp:141] Setting up norm1
I0403 13:19:59.137900 10889 net.cpp:148] Top shape: 100 96 55 55 (29040000)
I0403 13:19:59.137928 10889 net.cpp:156] Memory required for data: 410316400
I0403 13:19:59.137944 10889 layer_factory.hpp:77] Creating layer pool1
I0403 13:19:59.137967 10889 net.cpp:91] Creating Layer pool1
I0403 13:19:59.137984 10889 net.cpp:425] pool1 <- norm1
I0403 13:19:59.138002 10889 net.cpp:399] pool1 -> pool1
I0403 13:19:59.138073 10889 net.cpp:141] Setting up pool1
I0403 13:19:59.138098 10889 net.cpp:148] Top shape: 100 96 27 27 (6998400)
I0403 13:19:59.138111 10889 net.cpp:156] Memory required for data: 438310000
I0403 13:19:59.138126 10889 layer_factory.hpp:77] Creating layer conv2
I0403 13:19:59.138152 10889 net.cpp:91] Creating Layer conv2
I0403 13:19:59.138170 10889 net.cpp:425] conv2 <- pool1
I0403 13:19:59.138191 10889 net.cpp:399] conv2 -> conv2
I0403 13:19:59.153198 10889 net.cpp:141] Setting up conv2
I0403 13:19:59.153240 10889 net.cpp:148] Top shape: 100 256 27 27 (18662400)
I0403 13:19:59.153270 10889 net.cpp:156] Memory required for data: 512959600
I0403 13:19:59.153293 10889 layer_factory.hpp:77] Creating layer relu2
I0403 13:19:59.153316 10889 net.cpp:91] Creating Layer relu2
I0403 13:19:59.153334 10889 net.cpp:425] relu2 <- conv2
I0403 13:19:59.153352 10889 net.cpp:386] relu2 -> conv2 (in-place)
I0403 13:19:59.153657 10889 net.cpp:141] Setting up relu2
I0403 13:19:59.153687 10889 net.cpp:148] Top shape: 100 256 27 27 (18662400)
I0403 13:19:59.153703 10889 net.cpp:156] Memory required for data: 587609200
I0403 13:19:59.153718 10889 layer_factory.hpp:77] Creating layer norm2
I0403 13:19:59.153741 10889 net.cpp:91] Creating Layer norm2
I0403 13:19:59.153759 10889 net.cpp:425] norm2 <- conv2
I0403 13:19:59.153777 10889 net.cpp:399] norm2 -> norm2
I0403 13:19:59.153978 10889 net.cpp:141] Setting up norm2
I0403 13:19:59.154005 10889 net.cpp:148] Top shape: 100 256 27 27 (18662400)
I0403 13:19:59.154019 10889 net.cpp:156] Memory required for data: 662258800
I0403 13:19:59.154036 10889 layer_factory.hpp:77] Creating layer pool2
I0403 13:19:59.154057 10889 net.cpp:91] Creating Layer pool2
I0403 13:19:59.154073 10889 net.cpp:425] pool2 <- norm2
I0403 13:19:59.154091 10889 net.cpp:399] pool2 -> pool2
I0403 13:19:59.154145 10889 net.cpp:141] Setting up pool2
I0403 13:19:59.154168 10889 net.cpp:148] Top shape: 100 256 13 13 (4326400)
I0403 13:19:59.154182 10889 net.cpp:156] Memory required for data: 679564400
I0403 13:19:59.154198 10889 layer_factory.hpp:77] Creating layer conv3
I0403 13:19:59.154220 10889 net.cpp:91] Creating Layer conv3
I0403 13:19:59.154237 10889 net.cpp:425] conv3 <- pool2
I0403 13:19:59.154258 10889 net.cpp:399] conv3 -> conv3
I0403 13:19:59.196264 10889 net.cpp:141] Setting up conv3
I0403 13:19:59.196341 10889 net.cpp:148] Top shape: 100 384 13 13 (6489600)
I0403 13:19:59.196357 10889 net.cpp:156] Memory required for data: 705522800
I0403 13:19:59.196387 10889 layer_factory.hpp:77] Creating layer relu3
I0403 13:19:59.196410 10889 net.cpp:91] Creating Layer relu3
I0403 13:19:59.196429 10889 net.cpp:425] relu3 <- conv3
I0403 13:19:59.196447 10889 net.cpp:386] relu3 -> conv3 (in-place)
I0403 13:19:59.196732 10889 net.cpp:141] Setting up relu3
I0403 13:19:59.196763 10889 net.cpp:148] Top shape: 100 384 13 13 (6489600)
I0403 13:19:59.196779 10889 net.cpp:156] Memory required for data: 731481200
I0403 13:19:59.196794 10889 layer_factory.hpp:77] Creating layer conv4
I0403 13:19:59.196820 10889 net.cpp:91] Creating Layer conv4
I0403 13:19:59.196837 10889 net.cpp:425] conv4 <- conv3
I0403 13:19:59.196856 10889 net.cpp:399] conv4 -> conv4
I0403 13:19:59.226670 10889 net.cpp:141] Setting up conv4
I0403 13:19:59.226740 10889 net.cpp:148] Top shape: 100 384 13 13 (6489600)
I0403 13:19:59.226794 10889 net.cpp:156] Memory required for data: 757439600
I0403 13:19:59.226825 10889 layer_factory.hpp:77] Creating layer relu4
I0403 13:19:59.226850 10889 net.cpp:91] Creating Layer relu4
I0403 13:19:59.226868 10889 net.cpp:425] relu4 <- conv4
I0403 13:19:59.226887 10889 net.cpp:386] relu4 -> conv4 (in-place)
I0403 13:19:59.227170 10889 net.cpp:141] Setting up relu4
I0403 13:19:59.227197 10889 net.cpp:148] Top shape: 100 384 13 13 (6489600)
I0403 13:19:59.227212 10889 net.cpp:156] Memory required for data: 783398000
I0403 13:19:59.227227 10889 layer_factory.hpp:77] Creating layer conv5
I0403 13:19:59.227254 10889 net.cpp:91] Creating Layer conv5
I0403 13:19:59.227272 10889 net.cpp:425] conv5 <- conv4
I0403 13:19:59.227293 10889 net.cpp:399] conv5 -> conv5
I0403 13:19:59.247791 10889 net.cpp:141] Setting up conv5
I0403 13:19:59.247846 10889 net.cpp:148] Top shape: 100 256 13 13 (4326400)
I0403 13:19:59.247862 10889 net.cpp:156] Memory required for data: 800703600
I0403 13:19:59.247887 10889 layer_factory.hpp:77] Creating layer relu5
I0403 13:19:59.247911 10889 net.cpp:91] Creating Layer relu5
I0403 13:19:59.247930 10889 net.cpp:425] relu5 <- conv5
I0403 13:19:59.247947 10889 net.cpp:386] relu5 -> conv5 (in-place)
I0403 13:19:59.248229 10889 net.cpp:141] Setting up relu5
I0403 13:19:59.248256 10889 net.cpp:148] Top shape: 100 256 13 13 (4326400)
I0403 13:19:59.248272 10889 net.cpp:156] Memory required for data: 818009200
I0403 13:19:59.248287 10889 layer_factory.hpp:77] Creating layer pool5
I0403 13:19:59.248313 10889 net.cpp:91] Creating Layer pool5
I0403 13:19:59.248330 10889 net.cpp:425] pool5 <- conv5
I0403 13:19:59.248352 10889 net.cpp:399] pool5 -> pool5
I0403 13:19:59.248416 10889 net.cpp:141] Setting up pool5
I0403 13:19:59.248440 10889 net.cpp:148] Top shape: 100 256 6 6 (921600)
I0403 13:19:59.248457 10889 net.cpp:156] Memory required for data: 821695600
I0403 13:19:59.248472 10889 layer_factory.hpp:77] Creating layer fc6
I0403 13:19:59.248502 10889 net.cpp:91] Creating Layer fc6
I0403 13:19:59.248519 10889 net.cpp:425] fc6 <- pool5
I0403 13:19:59.248540 10889 net.cpp:399] fc6 -> fc6
I0403 13:20:00.807997 10889 net.cpp:141] Setting up fc6
I0403 13:20:00.808073 10889 net.cpp:148] Top shape: 100 4096 (409600)
I0403 13:20:00.808089 10889 net.cpp:156] Memory required for data: 823334000
I0403 13:20:00.808111 10889 layer_factory.hpp:77] Creating layer relu6
I0403 13:20:00.808136 10889 net.cpp:91] Creating Layer relu6
I0403 13:20:00.808154 10889 net.cpp:425] relu6 <- fc6
I0403 13:20:00.808174 10889 net.cpp:386] relu6 -> fc6 (in-place)
I0403 13:20:00.808400 10889 net.cpp:141] Setting up relu6
I0403 13:20:00.808424 10889 net.cpp:148] Top shape: 100 4096 (409600)
I0403 13:20:00.808439 10889 net.cpp:156] Memory required for data: 824972400
I0403 13:20:00.808454 10889 layer_factory.hpp:77] Creating layer drop6
I0403 13:20:00.808475 10889 net.cpp:91] Creating Layer drop6
I0403 13:20:00.808490 10889 net.cpp:425] drop6 <- fc6
I0403 13:20:00.808507 10889 net.cpp:386] drop6 -> fc6 (in-place)
I0403 13:20:00.808559 10889 net.cpp:141] Setting up drop6
I0403 13:20:00.808581 10889 net.cpp:148] Top shape: 100 4096 (409600)
I0403 13:20:00.808595 10889 net.cpp:156] Memory required for data: 826610800
I0403 13:20:00.808614 10889 layer_factory.hpp:77] Creating layer fc7
I0403 13:20:00.808640 10889 net.cpp:91] Creating Layer fc7
I0403 13:20:00.808657 10889 net.cpp:425] fc7 <- fc6
I0403 13:20:00.808676 10889 net.cpp:399] fc7 -> fc7
I0403 13:20:01.496192 10889 net.cpp:141] Setting up fc7
I0403 13:20:01.496274 10889 net.cpp:148] Top shape: 100 4096 (409600)
I0403 13:20:01.496290 10889 net.cpp:156] Memory required for data: 828249200
I0403 13:20:01.496311 10889 layer_factory.hpp:77] Creating layer relu7
I0403 13:20:01.496335 10889 net.cpp:91] Creating Layer relu7
I0403 13:20:01.496351 10889 net.cpp:425] relu7 <- fc7
I0403 13:20:01.496371 10889 net.cpp:386] relu7 -> fc7 (in-place)
I0403 13:20:01.496788 10889 net.cpp:141] Setting up relu7
I0403 13:20:01.496814 10889 net.cpp:148] Top shape: 100 4096 (409600)
I0403 13:20:01.496865 10889 net.cpp:156] Memory required for data: 829887600
I0403 13:20:01.496882 10889 layer_factory.hpp:77] Creating layer drop7
I0403 13:20:01.496901 10889 net.cpp:91] Creating Layer drop7
I0403 13:20:01.496917 10889 net.cpp:425] drop7 <- fc7
I0403 13:20:01.496933 10889 net.cpp:386] drop7 -> fc7 (in-place)
I0403 13:20:01.496978 10889 net.cpp:141] Setting up drop7
I0403 13:20:01.497001 10889 net.cpp:148] Top shape: 100 4096 (409600)
I0403 13:20:01.497015 10889 net.cpp:156] Memory required for data: 831526000
I0403 13:20:01.497030 10889 layer_factory.hpp:77] Creating layer fc8_plantvillage
I0403 13:20:01.497051 10889 net.cpp:91] Creating Layer fc8_plantvillage
I0403 13:20:01.497069 10889 net.cpp:425] fc8_plantvillage <- fc7
I0403 13:20:01.497087 10889 net.cpp:399] fc8_plantvillage -> fc8_plantvillage
I0403 13:20:01.503790 10889 net.cpp:141] Setting up fc8_plantvillage
I0403 13:20:01.503819 10889 net.cpp:148] Top shape: 100 38 (3800)
I0403 13:20:01.503834 10889 net.cpp:156] Memory required for data: 831541200
I0403 13:20:01.503852 10889 layer_factory.hpp:77] Creating layer fc8_plantvillage_fc8_plantvillage_0_split
I0403 13:20:01.503873 10889 net.cpp:91] Creating Layer fc8_plantvillage_fc8_plantvillage_0_split
I0403 13:20:01.503890 10889 net.cpp:425] fc8_plantvillage_fc8_plantvillage_0_split <- fc8_plantvillage
I0403 13:20:01.503917 10889 net.cpp:399] fc8_plantvillage_fc8_plantvillage_0_split -> fc8_plantvillage_fc8_plantvillage_0_split_0
I0403 13:20:01.503938 10889 net.cpp:399] fc8_plantvillage_fc8_plantvillage_0_split -> fc8_plantvillage_fc8_plantvillage_0_split_1
I0403 13:20:01.503958 10889 net.cpp:399] fc8_plantvillage_fc8_plantvillage_0_split -> fc8_plantvillage_fc8_plantvillage_0_split_2
I0403 13:20:01.504034 10889 net.cpp:141] Setting up fc8_plantvillage_fc8_plantvillage_0_split
I0403 13:20:01.504057 10889 net.cpp:148] Top shape: 100 38 (3800)
I0403 13:20:01.504072 10889 net.cpp:148] Top shape: 100 38 (3800)
I0403 13:20:01.504088 10889 net.cpp:148] Top shape: 100 38 (3800)
I0403 13:20:01.504101 10889 net.cpp:156] Memory required for data: 831586800
I0403 13:20:01.504115 10889 layer_factory.hpp:77] Creating layer prob
I0403 13:20:01.504137 10889 net.cpp:91] Creating Layer prob
I0403 13:20:01.504153 10889 net.cpp:425] prob <- fc8_plantvillage_fc8_plantvillage_0_split_0
I0403 13:20:01.504170 10889 net.cpp:399] prob -> prob
I0403 13:20:01.504395 10889 net.cpp:141] Setting up prob
I0403 13:20:01.504420 10889 net.cpp:148] Top shape: 100 38 (3800)
I0403 13:20:01.504433 10889 net.cpp:156] Memory required for data: 831602000
I0403 13:20:01.504448 10889 layer_factory.hpp:77] Creating layer hdf5out
I0403 13:20:01.504469 10889 net.cpp:91] Creating Layer hdf5out
I0403 13:20:01.504487 10889 net.cpp:425] hdf5out <- prob
I0403 13:20:01.504501 10889 net.cpp:425] hdf5out <- label_data_1_split_0
I0403 13:20:01.506934 10889 net.cpp:141] Setting up hdf5out
…
