…
I0403 13:14:30.273008 10575 net.cpp:313] The NetState phase (1) differed from the phase (0) specified by a rule in layer data
I0403 13:14:30.273305 10575 net.cpp:49] Initializing net from parameters: 
state {
  phase: TEST
}
layer {
  name: "data"
  type: "Data"
  top: "data"
  top: "label"
  include {
    phase: TEST
  }
  transform_param {
    crop_size: 227
    mean_file: "/home/mohanty/data/final_dataset/lmdb/color-80-20/mean.binaryproto"
  }
  data_param {
    source: "/home/mohanty/data/final_dataset/lmdb/color-80-20/test_db"
    batch_size: 100
    backend: LMDB
  }
}
layer {
  name: "conv1"
  type: "Convolution"
  bottom: "data"
  top: "conv1"
  param {
    lr_mult: 1
    decay_mult: 1
  }
  param {
    lr_mult: 2
    decay_mult: 0
  }
  convolution_param {
    num_output: 96
    kernel_size: 11
    stride: 4
    weight_filler {
      type: "gaussian"
      std: 0.01
    }
    bias_filler {
      type: "constant"
      value: 0
    }
  }
}
layer {
  name: "relu1"
  type: "ReLU"
  bottom: "conv1"
  top: "conv1"
}
layer {
  name: "norm1"
  type: "LRN"
  bottom: "conv1"
  top: "norm1"
  lrn_param {
    local_size: 5
    alpha: 0.0001
    beta: 0.75
  }
}
layer {
  name: "pool1"
  type: "Pooling"
  bottom: "norm1"
  top: "pool1"
  pooling_param {
    pool: MAX
    kernel_size: 3
    stride: 2
  }
}
layer {
  name: "conv2"
  type: "Convolution"
  bottom: "pool1"
  top: "conv2"
  param {
    lr_mult: 1
    decay_mult: 1
  }
  param {
    lr_mult: 2
    decay_mult: 0
  }
  convolution_param {
    num_output: 256
    pad: 2
    kernel_size: 5
    group: 2
    weight_filler {
      type: "gaussian"
      std: 0.01
    }
    bias_filler {
      type: "constant"
      value: 0.1
    }
  }
}
layer {
  name: "relu2"
  type: "ReLU"
  bottom: "conv2"
  top: "conv2"
}
layer {
  name: "norm2"
  type: "LRN"
  bottom: "conv2"
  top: "norm2"
  lrn_param {
    local_size: 5
    alpha: 0.0001
    beta: 0.75
  }
}
layer {
  name: "pool2"
  type: "Pooling"
  bottom: "norm2"
  top: "pool2"
  pooling_param {
    pool: MAX
    kernel_size: 3
    stride: 2
  }
}
layer {
  name: "conv3"
  type: "Convolution"
  bottom: "pool2"
  top: "conv3"
  param {
    lr_mult: 1
    decay_mult: 1
  }
  param {
    lr_mult: 2
    decay_mult: 0
  }
  convolution_param {
    num_output: 384
    pad: 1
    kernel_size: 3
    weight_filler {
      type: "gaussian"
      std: 0.01
    }
    bias_filler {
      type: "constant"
      value: 0
    }
  }
}
layer {
  name: "relu3"
  type: "ReLU"
  bottom: "conv3"
  top: "conv3"
}
layer {
  name: "conv4"
  type: "Convolution"
  bottom: "conv3"
  top: "conv4"
  param {
    lr_mult: 1
    decay_mult: 1
  }
  param {
    lr_mult: 2
    decay_mult: 0
  }
  convolution_param {
    num_output: 384
    pad: 1
    kernel_size: 3
    group: 2
    weight_filler {
      type: "gaussian"
      std: 0.01
    }
    bias_filler {
      type: "constant"
      value: 0.1
    }
  }
}
layer {
  name: "relu4"
  type: "ReLU"
  bottom: "conv4"
  top: "conv4"
}
layer {
  name: "conv5"
  type: "Convolution"
  bottom: "conv4"
  top: "conv5"
  param {
    lr_mult: 1
    decay_mult: 1
  }
  param {
    lr_mult: 2
    decay_mult: 0
  }
  convolution_param {
    num_output: 256
    pad: 1
    kernel_size: 3
    group: 2
    weight_filler {
      type: "gaussian"
      std: 0.01
    }
    bias_filler {
      type: "constant"
      value: 0.1
    }
  }
}
layer {
  name: "relu5"
  type: "ReLU"
  bottom: "conv5"
  top: "conv5"
}
layer {
  name: "pool5"
  type: "Pooling"
  bottom: "conv5"
  top: "pool5"
  pooling_param {
    pool: MAX
    kernel_size: 3
    stride: 2
  }
}
layer {
  name: "fc6"
  type: "InnerProduct"
  bottom: "pool5"
  top: "fc6"
  param {
    lr_mult: 1
    decay_mult: 1
  }
  param {
    lr_mult: 2
    decay_mult: 0
  }
  inner_product_param {
    num_output: 4096
    weight_filler {
      type: "gaussian"
      std: 0.005
    }
    bias_filler {
      type: "constant"
      value: 0.1
    }
  }
}
layer {
  name: "relu6"
  type: "ReLU"
  bottom: "fc6"
  top: "fc6"
}
layer {
  name: "drop6"
  type: "Dropout"
  bottom: "fc6"
  top: "fc6"
  dropout_param {
    dropout_ratio: 0.5
  }
}
layer {
  name: "fc7"
  type: "InnerProduct"
  bottom: "fc6"
  top: "fc7"
  param {
    lr_mult: 1
    decay_mult: 1
  }
  param {
    lr_mult: 2
    decay_mult: 0
  }
  inner_product_param {
    num_output: 4096
    weight_filler {
      type: "gaussian"
      std: 0.005
    }
    bias_filler {
      type: "constant"
      value: 0.1
    }
  }
}
layer {
  name: "relu7"
  type: "ReLU"
  bottom: "fc7"
  top: "fc7"
}
layer {
  name: "drop7"
  type: "Dropout"
  bottom: "fc7"
  top: "fc7"
  dropout_param {
    dropout_ratio: 0.5
  }
}
layer {
  name: "fc8_plantvillage"
  type: "InnerProduct"
  bottom: "fc7"
  top: "fc8_plantvillage"
  param {
    lr_mult: 1
    decay_mult: 1
  }
  param {
    lr_mult: 2
    decay_mult: 0
  }
  inner_product_param {
    num_output: 38
    weight_filler {
      type: "gaussian"
      std: 0.01
    }
    bias_filler {
      type: "constant"
      value: 0
    }
  }
}
layer {
  name: "prob"
  type: "Softmax"
  bottom: "fc8_plantvillage"
  top: "prob"
  include {
    phase: TEST
  }
}
layer {
  name: "hdf5out"
  type: "HDF5Output"
  bottom: "prob"
  bottom: "label"
  include {
    phase: TEST
  }
  hdf5_output_param {
    file_name: "hdf5_dumps/iter_5681.h5"
  }
}
layer {
  name: "loss"
  type: "SoftmaxWithLoss"
  bottom: "fc8_plantvillage"
  bottom: "label"
  top: "loss"
}
layer {
  name: "accuracy"
  type: "Accuracy"
  bottom: "fc8_plantvillage"
  bottom: "label"
  top: "accuracy"
  include {
    phase: TEST
  }
}
I0403 13:14:30.274757 10575 layer_factory.hpp:77] Creating layer data
I0403 13:14:30.275430 10575 net.cpp:91] Creating Layer data
I0403 13:14:30.275460 10575 net.cpp:399] data -> data
I0403 13:14:30.275508 10575 net.cpp:399] data -> label
I0403 13:14:30.275555 10575 data_transformer.cpp:25] Loading mean file from: /home/mohanty/data/final_dataset/lmdb/color-80-20/mean.binaryproto
I0403 13:14:30.284879 10578 db_lmdb.cpp:38] Opened lmdb /home/mohanty/data/final_dataset/lmdb/color-80-20/test_db
I0403 13:14:30.300634 10575 data_layer.cpp:41] output data size: 100,3,227,227
I0403 13:14:30.419361 10575 net.cpp:141] Setting up data
I0403 13:14:30.419455 10575 net.cpp:148] Top shape: 100 3 227 227 (15458700)
I0403 13:14:30.419476 10575 net.cpp:148] Top shape: 100 (100)
I0403 13:14:30.419491 10575 net.cpp:156] Memory required for data: 61835200
I0403 13:14:30.419518 10575 layer_factory.hpp:77] Creating layer label_data_1_split
I0403 13:14:30.419544 10575 net.cpp:91] Creating Layer label_data_1_split
I0403 13:14:30.419561 10575 net.cpp:425] label_data_1_split <- label
I0403 13:14:30.419598 10575 net.cpp:399] label_data_1_split -> label_data_1_split_0
I0403 13:14:30.419626 10575 net.cpp:399] label_data_1_split -> label_data_1_split_1
I0403 13:14:30.419646 10575 net.cpp:399] label_data_1_split -> label_data_1_split_2
I0403 13:14:30.419709 10575 net.cpp:141] Setting up label_data_1_split
I0403 13:14:30.419734 10575 net.cpp:148] Top shape: 100 (100)
I0403 13:14:30.419749 10575 net.cpp:148] Top shape: 100 (100)
I0403 13:14:30.419765 10575 net.cpp:148] Top shape: 100 (100)
I0403 13:14:30.419780 10575 net.cpp:156] Memory required for data: 61836400
I0403 13:14:30.419795 10575 layer_factory.hpp:77] Creating layer conv1
I0403 13:14:30.419826 10575 net.cpp:91] Creating Layer conv1
I0403 13:14:30.419843 10575 net.cpp:425] conv1 <- data
I0403 13:14:30.419862 10575 net.cpp:399] conv1 -> conv1
I0403 13:14:30.562240 10575 net.cpp:141] Setting up conv1
I0403 13:14:30.562357 10575 net.cpp:148] Top shape: 100 96 55 55 (29040000)
I0403 13:14:30.562379 10575 net.cpp:156] Memory required for data: 177996400
I0403 13:14:30.562412 10575 layer_factory.hpp:77] Creating layer relu1
I0403 13:14:30.562439 10575 net.cpp:91] Creating Layer relu1
I0403 13:14:30.562458 10575 net.cpp:425] relu1 <- conv1
I0403 13:14:30.562476 10575 net.cpp:386] relu1 -> conv1 (in-place)
I0403 13:14:30.562747 10575 net.cpp:141] Setting up relu1
I0403 13:14:30.562774 10575 net.cpp:148] Top shape: 100 96 55 55 (29040000)
I0403 13:14:30.562790 10575 net.cpp:156] Memory required for data: 294156400
I0403 13:14:30.562839 10575 layer_factory.hpp:77] Creating layer norm1
I0403 13:14:30.562867 10575 net.cpp:91] Creating Layer norm1
I0403 13:14:30.562885 10575 net.cpp:425] norm1 <- conv1
I0403 13:14:30.562902 10575 net.cpp:399] norm1 -> norm1
I0403 13:14:30.563210 10575 net.cpp:141] Setting up norm1
I0403 13:14:30.563238 10575 net.cpp:148] Top shape: 100 96 55 55 (29040000)
I0403 13:14:30.563254 10575 net.cpp:156] Memory required for data: 410316400
I0403 13:14:30.563271 10575 layer_factory.hpp:77] Creating layer pool1
I0403 13:14:30.563292 10575 net.cpp:91] Creating Layer pool1
I0403 13:14:30.563309 10575 net.cpp:425] pool1 <- norm1
I0403 13:14:30.563328 10575 net.cpp:399] pool1 -> pool1
I0403 13:14:30.563397 10575 net.cpp:141] Setting up pool1
I0403 13:14:30.563422 10575 net.cpp:148] Top shape: 100 96 27 27 (6998400)
I0403 13:14:30.563437 10575 net.cpp:156] Memory required for data: 438310000
I0403 13:14:30.563452 10575 layer_factory.hpp:77] Creating layer conv2
I0403 13:14:30.563477 10575 net.cpp:91] Creating Layer conv2
I0403 13:14:30.563494 10575 net.cpp:425] conv2 <- pool1
I0403 13:14:30.563513 10575 net.cpp:399] conv2 -> conv2
I0403 13:14:30.578765 10575 net.cpp:141] Setting up conv2
I0403 13:14:30.578814 10575 net.cpp:148] Top shape: 100 256 27 27 (18662400)
I0403 13:14:30.578830 10575 net.cpp:156] Memory required for data: 512959600
I0403 13:14:30.578852 10575 layer_factory.hpp:77] Creating layer relu2
I0403 13:14:30.578874 10575 net.cpp:91] Creating Layer relu2
I0403 13:14:30.578891 10575 net.cpp:425] relu2 <- conv2
I0403 13:14:30.578909 10575 net.cpp:386] relu2 -> conv2 (in-place)
I0403 13:14:30.579187 10575 net.cpp:141] Setting up relu2
I0403 13:14:30.579216 10575 net.cpp:148] Top shape: 100 256 27 27 (18662400)
I0403 13:14:30.579231 10575 net.cpp:156] Memory required for data: 587609200
I0403 13:14:30.579244 10575 layer_factory.hpp:77] Creating layer norm2
I0403 13:14:30.579267 10575 net.cpp:91] Creating Layer norm2
I0403 13:14:30.579284 10575 net.cpp:425] norm2 <- conv2
I0403 13:14:30.579306 10575 net.cpp:399] norm2 -> norm2
I0403 13:14:30.579509 10575 net.cpp:141] Setting up norm2
I0403 13:14:30.579535 10575 net.cpp:148] Top shape: 100 256 27 27 (18662400)
I0403 13:14:30.579550 10575 net.cpp:156] Memory required for data: 662258800
I0403 13:14:30.579566 10575 layer_factory.hpp:77] Creating layer pool2
I0403 13:14:30.579591 10575 net.cpp:91] Creating Layer pool2
I0403 13:14:30.579608 10575 net.cpp:425] pool2 <- norm2
I0403 13:14:30.579627 10575 net.cpp:399] pool2 -> pool2
I0403 13:14:30.579682 10575 net.cpp:141] Setting up pool2
I0403 13:14:30.579706 10575 net.cpp:148] Top shape: 100 256 13 13 (4326400)
I0403 13:14:30.579721 10575 net.cpp:156] Memory required for data: 679564400
I0403 13:14:30.579735 10575 layer_factory.hpp:77] Creating layer conv3
I0403 13:14:30.579762 10575 net.cpp:91] Creating Layer conv3
I0403 13:14:30.579779 10575 net.cpp:425] conv3 <- pool2
I0403 13:14:30.579800 10575 net.cpp:399] conv3 -> conv3
I0403 13:14:30.623335 10575 net.cpp:141] Setting up conv3
I0403 13:14:30.623411 10575 net.cpp:148] Top shape: 100 384 13 13 (6489600)
I0403 13:14:30.623428 10575 net.cpp:156] Memory required for data: 705522800
I0403 13:14:30.623456 10575 layer_factory.hpp:77] Creating layer relu3
I0403 13:14:30.623479 10575 net.cpp:91] Creating Layer relu3
I0403 13:14:30.623497 10575 net.cpp:425] relu3 <- conv3
I0403 13:14:30.623515 10575 net.cpp:386] relu3 -> conv3 (in-place)
I0403 13:14:30.623800 10575 net.cpp:141] Setting up relu3
I0403 13:14:30.623827 10575 net.cpp:148] Top shape: 100 384 13 13 (6489600)
I0403 13:14:30.623843 10575 net.cpp:156] Memory required for data: 731481200
I0403 13:14:30.623858 10575 layer_factory.hpp:77] Creating layer conv4
I0403 13:14:30.623883 10575 net.cpp:91] Creating Layer conv4
I0403 13:14:30.623901 10575 net.cpp:425] conv4 <- conv3
I0403 13:14:30.623921 10575 net.cpp:399] conv4 -> conv4
I0403 13:14:30.653997 10575 net.cpp:141] Setting up conv4
I0403 13:14:30.654059 10575 net.cpp:148] Top shape: 100 384 13 13 (6489600)
I0403 13:14:30.654109 10575 net.cpp:156] Memory required for data: 757439600
I0403 13:14:30.654131 10575 layer_factory.hpp:77] Creating layer relu4
I0403 13:14:30.654155 10575 net.cpp:91] Creating Layer relu4
I0403 13:14:30.654172 10575 net.cpp:425] relu4 <- conv4
I0403 13:14:30.654191 10575 net.cpp:386] relu4 -> conv4 (in-place)
I0403 13:14:30.654464 10575 net.cpp:141] Setting up relu4
I0403 13:14:30.654491 10575 net.cpp:148] Top shape: 100 384 13 13 (6489600)
I0403 13:14:30.654506 10575 net.cpp:156] Memory required for data: 783398000
I0403 13:14:30.654521 10575 layer_factory.hpp:77] Creating layer conv5
I0403 13:14:30.654546 10575 net.cpp:91] Creating Layer conv5
I0403 13:14:30.654564 10575 net.cpp:425] conv5 <- conv4
I0403 13:14:30.654599 10575 net.cpp:399] conv5 -> conv5
I0403 13:14:30.675586 10575 net.cpp:141] Setting up conv5
I0403 13:14:30.675637 10575 net.cpp:148] Top shape: 100 256 13 13 (4326400)
I0403 13:14:30.675654 10575 net.cpp:156] Memory required for data: 800703600
I0403 13:14:30.675678 10575 layer_factory.hpp:77] Creating layer relu5
I0403 13:14:30.675701 10575 net.cpp:91] Creating Layer relu5
I0403 13:14:30.675719 10575 net.cpp:425] relu5 <- conv5
I0403 13:14:30.675736 10575 net.cpp:386] relu5 -> conv5 (in-place)
I0403 13:14:30.676014 10575 net.cpp:141] Setting up relu5
I0403 13:14:30.676040 10575 net.cpp:148] Top shape: 100 256 13 13 (4326400)
I0403 13:14:30.676056 10575 net.cpp:156] Memory required for data: 818009200
I0403 13:14:30.676070 10575 layer_factory.hpp:77] Creating layer pool5
I0403 13:14:30.676095 10575 net.cpp:91] Creating Layer pool5
I0403 13:14:30.676111 10575 net.cpp:425] pool5 <- conv5
I0403 13:14:30.676144 10575 net.cpp:399] pool5 -> pool5
I0403 13:14:30.676208 10575 net.cpp:141] Setting up pool5
I0403 13:14:30.676232 10575 net.cpp:148] Top shape: 100 256 6 6 (921600)
I0403 13:14:30.676247 10575 net.cpp:156] Memory required for data: 821695600
I0403 13:14:30.676262 10575 layer_factory.hpp:77] Creating layer fc6
I0403 13:14:30.676291 10575 net.cpp:91] Creating Layer fc6
I0403 13:14:30.676309 10575 net.cpp:425] fc6 <- pool5
I0403 13:14:30.676328 10575 net.cpp:399] fc6 -> fc6
I0403 13:14:32.240706 10575 net.cpp:141] Setting up fc6
I0403 13:14:32.240783 10575 net.cpp:148] Top shape: 100 4096 (409600)
I0403 13:14:32.240800 10575 net.cpp:156] Memory required for data: 823334000
I0403 13:14:32.240821 10575 layer_factory.hpp:77] Creating layer relu6
I0403 13:14:32.240844 10575 net.cpp:91] Creating Layer relu6
I0403 13:14:32.240859 10575 net.cpp:425] relu6 <- fc6
I0403 13:14:32.240881 10575 net.cpp:386] relu6 -> fc6 (in-place)
I0403 13:14:32.241109 10575 net.cpp:141] Setting up relu6
I0403 13:14:32.241135 10575 net.cpp:148] Top shape: 100 4096 (409600)
I0403 13:14:32.241150 10575 net.cpp:156] Memory required for data: 824972400
I0403 13:14:32.241164 10575 layer_factory.hpp:77] Creating layer drop6
I0403 13:14:32.241185 10575 net.cpp:91] Creating Layer drop6
I0403 13:14:32.241201 10575 net.cpp:425] drop6 <- fc6
I0403 13:14:32.241219 10575 net.cpp:386] drop6 -> fc6 (in-place)
I0403 13:14:32.241271 10575 net.cpp:141] Setting up drop6
I0403 13:14:32.241294 10575 net.cpp:148] Top shape: 100 4096 (409600)
I0403 13:14:32.241308 10575 net.cpp:156] Memory required for data: 826610800
I0403 13:14:32.241322 10575 layer_factory.hpp:77] Creating layer fc7
I0403 13:14:32.241340 10575 net.cpp:91] Creating Layer fc7
I0403 13:14:32.241356 10575 net.cpp:425] fc7 <- fc6
I0403 13:14:32.241379 10575 net.cpp:399] fc7 -> fc7
I0403 13:14:32.927651 10575 net.cpp:141] Setting up fc7
I0403 13:14:32.927729 10575 net.cpp:148] Top shape: 100 4096 (409600)
I0403 13:14:32.927745 10575 net.cpp:156] Memory required for data: 828249200
I0403 13:14:32.927765 10575 layer_factory.hpp:77] Creating layer relu7
I0403 13:14:32.927789 10575 net.cpp:91] Creating Layer relu7
I0403 13:14:32.927808 10575 net.cpp:425] relu7 <- fc7
I0403 13:14:32.927826 10575 net.cpp:386] relu7 -> fc7 (in-place)
I0403 13:14:32.928231 10575 net.cpp:141] Setting up relu7
I0403 13:14:32.928258 10575 net.cpp:148] Top shape: 100 4096 (409600)
I0403 13:14:32.928313 10575 net.cpp:156] Memory required for data: 829887600
I0403 13:14:32.928328 10575 layer_factory.hpp:77] Creating layer drop7
I0403 13:14:32.928349 10575 net.cpp:91] Creating Layer drop7
I0403 13:14:32.928364 10575 net.cpp:425] drop7 <- fc7
I0403 13:14:32.928381 10575 net.cpp:386] drop7 -> fc7 (in-place)
I0403 13:14:32.928427 10575 net.cpp:141] Setting up drop7
I0403 13:14:32.928449 10575 net.cpp:148] Top shape: 100 4096 (409600)
I0403 13:14:32.928463 10575 net.cpp:156] Memory required for data: 831526000
I0403 13:14:32.928478 10575 layer_factory.hpp:77] Creating layer fc8_plantvillage
I0403 13:14:32.928495 10575 net.cpp:91] Creating Layer fc8_plantvillage
I0403 13:14:32.928510 10575 net.cpp:425] fc8_plantvillage <- fc7
I0403 13:14:32.928530 10575 net.cpp:399] fc8_plantvillage -> fc8_plantvillage
I0403 13:14:32.935245 10575 net.cpp:141] Setting up fc8_plantvillage
I0403 13:14:32.935274 10575 net.cpp:148] Top shape: 100 38 (3800)
I0403 13:14:32.935289 10575 net.cpp:156] Memory required for data: 831541200
I0403 13:14:32.935322 10575 layer_factory.hpp:77] Creating layer fc8_plantvillage_fc8_plantvillage_0_split
I0403 13:14:32.935341 10575 net.cpp:91] Creating Layer fc8_plantvillage_fc8_plantvillage_0_split
I0403 13:14:32.935359 10575 net.cpp:425] fc8_plantvillage_fc8_plantvillage_0_split <- fc8_plantvillage
I0403 13:14:32.935376 10575 net.cpp:399] fc8_plantvillage_fc8_plantvillage_0_split -> fc8_plantvillage_fc8_plantvillage_0_split_0
I0403 13:14:32.935396 10575 net.cpp:399] fc8_plantvillage_fc8_plantvillage_0_split -> fc8_plantvillage_fc8_plantvillage_0_split_1
I0403 13:14:32.935420 10575 net.cpp:399] fc8_plantvillage_fc8_plantvillage_0_split -> fc8_plantvillage_fc8_plantvillage_0_split_2
I0403 13:14:32.935497 10575 net.cpp:141] Setting up fc8_plantvillage_fc8_plantvillage_0_split
I0403 13:14:32.935523 10575 net.cpp:148] Top shape: 100 38 (3800)
I0403 13:14:32.935539 10575 net.cpp:148] Top shape: 100 38 (3800)
I0403 13:14:32.935554 10575 net.cpp:148] Top shape: 100 38 (3800)
I0403 13:14:32.935572 10575 net.cpp:156] Memory required for data: 831586800
I0403 13:14:32.935600 10575 layer_factory.hpp:77] Creating layer prob
I0403 13:14:32.935617 10575 net.cpp:91] Creating Layer prob
I0403 13:14:32.935631 10575 net.cpp:425] prob <- fc8_plantvillage_fc8_plantvillage_0_split_0
I0403 13:14:32.935652 10575 net.cpp:399] prob -> prob
I0403 13:14:32.935873 10575 net.cpp:141] Setting up prob
I0403 13:14:32.935899 10575 net.cpp:148] Top shape: 100 38 (3800)
I0403 13:14:32.935912 10575 net.cpp:156] Memory required for data: 831602000
I0403 13:14:32.935926 10575 layer_factory.hpp:77] Creating layer hdf5out
I0403 13:14:32.935946 10575 net.cpp:91] Creating Layer hdf5out
I0403 13:14:32.935962 10575 net.cpp:425] hdf5out <- prob
I0403 13:14:32.935978 10575 net.cpp:425] hdf5out <- label_data_1_split_0
I0403 13:14:32.938271 10575 net.cpp:141] Setting up hdf5out
…
