…
I0403 13:21:39.926954 10961 net.cpp:313] The NetState phase (1) differed from the phase (0) specified by a rule in layer data
I0403 13:21:39.927268 10961 net.cpp:49] Initializing net from parameters: 
state {
  phase: TEST
}
layer {
  name: "data"
  type: "Data"
  top: "data"
  top: "label"
  include {
    phase: TEST
  }
  transform_param {
    crop_size: 227
    mean_file: "/home/mohanty/data/final_dataset/lmdb/color-80-20/mean.binaryproto"
  }
  data_param {
    source: "/home/mohanty/data/final_dataset/lmdb/color-80-20/test_db"
    batch_size: 100
    backend: LMDB
  }
}
layer {
  name: "conv1"
  type: "Convolution"
  bottom: "data"
  top: "conv1"
  param {
    lr_mult: 1
    decay_mult: 1
  }
  param {
    lr_mult: 2
    decay_mult: 0
  }
  convolution_param {
    num_output: 96
    kernel_size: 11
    stride: 4
    weight_filler {
      type: "gaussian"
      std: 0.01
    }
    bias_filler {
      type: "constant"
      value: 0
    }
  }
}
layer {
  name: "relu1"
  type: "ReLU"
  bottom: "conv1"
  top: "conv1"
}
layer {
  name: "norm1"
  type: "LRN"
  bottom: "conv1"
  top: "norm1"
  lrn_param {
    local_size: 5
    alpha: 0.0001
    beta: 0.75
  }
}
layer {
  name: "pool1"
  type: "Pooling"
  bottom: "norm1"
  top: "pool1"
  pooling_param {
    pool: MAX
    kernel_size: 3
    stride: 2
  }
}
layer {
  name: "conv2"
  type: "Convolution"
  bottom: "pool1"
  top: "conv2"
  param {
    lr_mult: 1
    decay_mult: 1
  }
  param {
    lr_mult: 2
    decay_mult: 0
  }
  convolution_param {
    num_output: 256
    pad: 2
    kernel_size: 5
    group: 2
    weight_filler {
      type: "gaussian"
      std: 0.01
    }
    bias_filler {
      type: "constant"
      value: 0.1
    }
  }
}
layer {
  name: "relu2"
  type: "ReLU"
  bottom: "conv2"
  top: "conv2"
}
layer {
  name: "norm2"
  type: "LRN"
  bottom: "conv2"
  top: "norm2"
  lrn_param {
    local_size: 5
    alpha: 0.0001
    beta: 0.75
  }
}
layer {
  name: "pool2"
  type: "Pooling"
  bottom: "norm2"
  top: "pool2"
  pooling_param {
    pool: MAX
    kernel_size: 3
    stride: 2
  }
}
layer {
  name: "conv3"
  type: "Convolution"
  bottom: "pool2"
  top: "conv3"
  param {
    lr_mult: 1
    decay_mult: 1
  }
  param {
    lr_mult: 2
    decay_mult: 0
  }
  convolution_param {
    num_output: 384
    pad: 1
    kernel_size: 3
    weight_filler {
      type: "gaussian"
      std: 0.01
    }
    bias_filler {
      type: "constant"
      value: 0
    }
  }
}
layer {
  name: "relu3"
  type: "ReLU"
  bottom: "conv3"
  top: "conv3"
}
layer {
  name: "conv4"
  type: "Convolution"
  bottom: "conv3"
  top: "conv4"
  param {
    lr_mult: 1
    decay_mult: 1
  }
  param {
    lr_mult: 2
    decay_mult: 0
  }
  convolution_param {
    num_output: 384
    pad: 1
    kernel_size: 3
    group: 2
    weight_filler {
      type: "gaussian"
      std: 0.01
    }
    bias_filler {
      type: "constant"
      value: 0.1
    }
  }
}
layer {
  name: "relu4"
  type: "ReLU"
  bottom: "conv4"
  top: "conv4"
}
layer {
  name: "conv5"
  type: "Convolution"
  bottom: "conv4"
  top: "conv5"
  param {
    lr_mult: 1
    decay_mult: 1
  }
  param {
    lr_mult: 2
    decay_mult: 0
  }
  convolution_param {
    num_output: 256
    pad: 1
    kernel_size: 3
    group: 2
    weight_filler {
      type: "gaussian"
      std: 0.01
    }
    bias_filler {
      type: "constant"
      value: 0.1
    }
  }
}
layer {
  name: "relu5"
  type: "ReLU"
  bottom: "conv5"
  top: "conv5"
}
layer {
  name: "pool5"
  type: "Pooling"
  bottom: "conv5"
  top: "pool5"
  pooling_param {
    pool: MAX
    kernel_size: 3
    stride: 2
  }
}
layer {
  name: "fc6"
  type: "InnerProduct"
  bottom: "pool5"
  top: "fc6"
  param {
    lr_mult: 1
    decay_mult: 1
  }
  param {
    lr_mult: 2
    decay_mult: 0
  }
  inner_product_param {
    num_output: 4096
    weight_filler {
      type: "gaussian"
      std: 0.005
    }
    bias_filler {
      type: "constant"
      value: 0.1
    }
  }
}
layer {
  name: "relu6"
  type: "ReLU"
  bottom: "fc6"
  top: "fc6"
}
layer {
  name: "drop6"
  type: "Dropout"
  bottom: "fc6"
  top: "fc6"
  dropout_param {
    dropout_ratio: 0.5
  }
}
layer {
  name: "fc7"
  type: "InnerProduct"
  bottom: "fc6"
  top: "fc7"
  param {
    lr_mult: 1
    decay_mult: 1
  }
  param {
    lr_mult: 2
    decay_mult: 0
  }
  inner_product_param {
    num_output: 4096
    weight_filler {
      type: "gaussian"
      std: 0.005
    }
    bias_filler {
      type: "constant"
      value: 0.1
    }
  }
}
layer {
  name: "relu7"
  type: "ReLU"
  bottom: "fc7"
  top: "fc7"
}
layer {
  name: "drop7"
  type: "Dropout"
  bottom: "fc7"
  top: "fc7"
  dropout_param {
    dropout_ratio: 0.5
  }
}
layer {
  name: "fc8_plantvillage"
  type: "InnerProduct"
  bottom: "fc7"
  top: "fc8_plantvillage"
  param {
    lr_mult: 1
    decay_mult: 1
  }
  param {
    lr_mult: 2
    decay_mult: 0
  }
  inner_product_param {
    num_output: 38
    weight_filler {
      type: "gaussian"
      std: 0.01
    }
    bias_filler {
      type: "constant"
      value: 0
    }
  }
}
layer {
  name: "prob"
  type: "Softmax"
  bottom: "fc8_plantvillage"
  top: "prob"
  include {
    phase: TEST
  }
}
layer {
  name: "hdf5out"
  type: "HDF5Output"
  bottom: "prob"
  bottom: "label"
  include {
    phase: TEST
  }
  hdf5_output_param {
    file_name: "hdf5_dumps/iter_13110.h5"
  }
}
layer {
  name: "loss"
  type: "SoftmaxWithLoss"
  bottom: "fc8_plantvillage"
  bottom: "label"
  top: "loss"
}
layer {
  name: "accuracy"
  type: "Accuracy"
  bottom: "fc8_plantvillage"
  bottom: "label"
  top: "accuracy"
  include {
    phase: TEST
  }
}
I0403 13:21:39.927902 10961 layer_factory.hpp:77] Creating layer data
I0403 13:21:39.928556 10961 net.cpp:91] Creating Layer data
I0403 13:21:39.928593 10961 net.cpp:399] data -> data
I0403 13:21:39.928647 10961 net.cpp:399] data -> label
I0403 13:21:39.928683 10961 data_transformer.cpp:25] Loading mean file from: /home/mohanty/data/final_dataset/lmdb/color-80-20/mean.binaryproto
I0403 13:21:39.931440 10964 db_lmdb.cpp:38] Opened lmdb /home/mohanty/data/final_dataset/lmdb/color-80-20/test_db
I0403 13:21:39.943538 10961 data_layer.cpp:41] output data size: 100,3,227,227
I0403 13:21:40.064987 10961 net.cpp:141] Setting up data
I0403 13:21:40.065081 10961 net.cpp:148] Top shape: 100 3 227 227 (15458700)
I0403 13:21:40.065104 10961 net.cpp:148] Top shape: 100 (100)
I0403 13:21:40.065119 10961 net.cpp:156] Memory required for data: 61835200
I0403 13:21:40.065147 10961 layer_factory.hpp:77] Creating layer label_data_1_split
I0403 13:21:40.065173 10961 net.cpp:91] Creating Layer label_data_1_split
I0403 13:21:40.065191 10961 net.cpp:425] label_data_1_split <- label
I0403 13:21:40.065224 10961 net.cpp:399] label_data_1_split -> label_data_1_split_0
I0403 13:21:40.065253 10961 net.cpp:399] label_data_1_split -> label_data_1_split_1
I0403 13:21:40.065274 10961 net.cpp:399] label_data_1_split -> label_data_1_split_2
I0403 13:21:40.065340 10961 net.cpp:141] Setting up label_data_1_split
I0403 13:21:40.065364 10961 net.cpp:148] Top shape: 100 (100)
I0403 13:21:40.065381 10961 net.cpp:148] Top shape: 100 (100)
I0403 13:21:40.065397 10961 net.cpp:148] Top shape: 100 (100)
I0403 13:21:40.065412 10961 net.cpp:156] Memory required for data: 61836400
I0403 13:21:40.065428 10961 layer_factory.hpp:77] Creating layer conv1
I0403 13:21:40.065459 10961 net.cpp:91] Creating Layer conv1
I0403 13:21:40.065479 10961 net.cpp:425] conv1 <- data
I0403 13:21:40.065497 10961 net.cpp:399] conv1 -> conv1
I0403 13:21:40.213472 10961 net.cpp:141] Setting up conv1
I0403 13:21:40.213559 10961 net.cpp:148] Top shape: 100 96 55 55 (29040000)
I0403 13:21:40.213583 10961 net.cpp:156] Memory required for data: 177996400
I0403 13:21:40.213618 10961 layer_factory.hpp:77] Creating layer relu1
I0403 13:21:40.213644 10961 net.cpp:91] Creating Layer relu1
I0403 13:21:40.213662 10961 net.cpp:425] relu1 <- conv1
I0403 13:21:40.213682 10961 net.cpp:386] relu1 -> conv1 (in-place)
I0403 13:21:40.213956 10961 net.cpp:141] Setting up relu1
I0403 13:21:40.213985 10961 net.cpp:148] Top shape: 100 96 55 55 (29040000)
I0403 13:21:40.214001 10961 net.cpp:156] Memory required for data: 294156400
I0403 13:21:40.214051 10961 layer_factory.hpp:77] Creating layer norm1
I0403 13:21:40.214082 10961 net.cpp:91] Creating Layer norm1
I0403 13:21:40.214100 10961 net.cpp:425] norm1 <- conv1
I0403 13:21:40.214119 10961 net.cpp:399] norm1 -> norm1
I0403 13:21:40.214478 10961 net.cpp:141] Setting up norm1
I0403 13:21:40.214506 10961 net.cpp:148] Top shape: 100 96 55 55 (29040000)
I0403 13:21:40.214524 10961 net.cpp:156] Memory required for data: 410316400
I0403 13:21:40.214539 10961 layer_factory.hpp:77] Creating layer pool1
I0403 13:21:40.214561 10961 net.cpp:91] Creating Layer pool1
I0403 13:21:40.214591 10961 net.cpp:425] pool1 <- norm1
I0403 13:21:40.214612 10961 net.cpp:399] pool1 -> pool1
I0403 13:21:40.214682 10961 net.cpp:141] Setting up pool1
I0403 13:21:40.214709 10961 net.cpp:148] Top shape: 100 96 27 27 (6998400)
I0403 13:21:40.214725 10961 net.cpp:156] Memory required for data: 438310000
I0403 13:21:40.214740 10961 layer_factory.hpp:77] Creating layer conv2
I0403 13:21:40.214764 10961 net.cpp:91] Creating Layer conv2
I0403 13:21:40.214781 10961 net.cpp:425] conv2 <- pool1
I0403 13:21:40.214799 10961 net.cpp:399] conv2 -> conv2
I0403 13:21:40.230512 10961 net.cpp:141] Setting up conv2
I0403 13:21:40.230607 10961 net.cpp:148] Top shape: 100 256 27 27 (18662400)
I0403 13:21:40.230629 10961 net.cpp:156] Memory required for data: 512959600
I0403 13:21:40.230654 10961 layer_factory.hpp:77] Creating layer relu2
I0403 13:21:40.230675 10961 net.cpp:91] Creating Layer relu2
I0403 13:21:40.230692 10961 net.cpp:425] relu2 <- conv2
I0403 13:21:40.230713 10961 net.cpp:386] relu2 -> conv2 (in-place)
I0403 13:21:40.231009 10961 net.cpp:141] Setting up relu2
I0403 13:21:40.231036 10961 net.cpp:148] Top shape: 100 256 27 27 (18662400)
I0403 13:21:40.231052 10961 net.cpp:156] Memory required for data: 587609200
I0403 13:21:40.231068 10961 layer_factory.hpp:77] Creating layer norm2
I0403 13:21:40.231092 10961 net.cpp:91] Creating Layer norm2
I0403 13:21:40.231111 10961 net.cpp:425] norm2 <- conv2
I0403 13:21:40.231128 10961 net.cpp:399] norm2 -> norm2
I0403 13:21:40.231336 10961 net.cpp:141] Setting up norm2
I0403 13:21:40.231365 10961 net.cpp:148] Top shape: 100 256 27 27 (18662400)
I0403 13:21:40.231381 10961 net.cpp:156] Memory required for data: 662258800
I0403 13:21:40.231396 10961 layer_factory.hpp:77] Creating layer pool2
I0403 13:21:40.231415 10961 net.cpp:91] Creating Layer pool2
I0403 13:21:40.231431 10961 net.cpp:425] pool2 <- norm2
I0403 13:21:40.231451 10961 net.cpp:399] pool2 -> pool2
I0403 13:21:40.231504 10961 net.cpp:141] Setting up pool2
I0403 13:21:40.231530 10961 net.cpp:148] Top shape: 100 256 13 13 (4326400)
I0403 13:21:40.231545 10961 net.cpp:156] Memory required for data: 679564400
I0403 13:21:40.231560 10961 layer_factory.hpp:77] Creating layer conv3
I0403 13:21:40.231591 10961 net.cpp:91] Creating Layer conv3
I0403 13:21:40.231609 10961 net.cpp:425] conv3 <- pool2
I0403 13:21:40.231631 10961 net.cpp:399] conv3 -> conv3
I0403 13:21:40.275400 10961 net.cpp:141] Setting up conv3
I0403 13:21:40.275480 10961 net.cpp:148] Top shape: 100 384 13 13 (6489600)
I0403 13:21:40.275497 10961 net.cpp:156] Memory required for data: 705522800
I0403 13:21:40.275523 10961 layer_factory.hpp:77] Creating layer relu3
I0403 13:21:40.275547 10961 net.cpp:91] Creating Layer relu3
I0403 13:21:40.275579 10961 net.cpp:425] relu3 <- conv3
I0403 13:21:40.275599 10961 net.cpp:386] relu3 -> conv3 (in-place)
I0403 13:21:40.275889 10961 net.cpp:141] Setting up relu3
I0403 13:21:40.275920 10961 net.cpp:148] Top shape: 100 384 13 13 (6489600)
I0403 13:21:40.275938 10961 net.cpp:156] Memory required for data: 731481200
I0403 13:21:40.275954 10961 layer_factory.hpp:77] Creating layer conv4
I0403 13:21:40.275980 10961 net.cpp:91] Creating Layer conv4
I0403 13:21:40.275998 10961 net.cpp:425] conv4 <- conv3
I0403 13:21:40.276021 10961 net.cpp:399] conv4 -> conv4
I0403 13:21:40.307453 10961 net.cpp:141] Setting up conv4
I0403 13:21:40.307525 10961 net.cpp:148] Top shape: 100 384 13 13 (6489600)
I0403 13:21:40.307587 10961 net.cpp:156] Memory required for data: 757439600
I0403 13:21:40.307612 10961 layer_factory.hpp:77] Creating layer relu4
I0403 13:21:40.307636 10961 net.cpp:91] Creating Layer relu4
I0403 13:21:40.307653 10961 net.cpp:425] relu4 <- conv4
I0403 13:21:40.307672 10961 net.cpp:386] relu4 -> conv4 (in-place)
I0403 13:21:40.307968 10961 net.cpp:141] Setting up relu4
I0403 13:21:40.307997 10961 net.cpp:148] Top shape: 100 384 13 13 (6489600)
I0403 13:21:40.308017 10961 net.cpp:156] Memory required for data: 783398000
I0403 13:21:40.308032 10961 layer_factory.hpp:77] Creating layer conv5
I0403 13:21:40.308058 10961 net.cpp:91] Creating Layer conv5
I0403 13:21:40.308073 10961 net.cpp:425] conv5 <- conv4
I0403 13:21:40.308095 10961 net.cpp:399] conv5 -> conv5
I0403 13:21:40.329068 10961 net.cpp:141] Setting up conv5
I0403 13:21:40.329113 10961 net.cpp:148] Top shape: 100 256 13 13 (4326400)
I0403 13:21:40.329128 10961 net.cpp:156] Memory required for data: 800703600
I0403 13:21:40.329154 10961 layer_factory.hpp:77] Creating layer relu5
I0403 13:21:40.329176 10961 net.cpp:91] Creating Layer relu5
I0403 13:21:40.329193 10961 net.cpp:425] relu5 <- conv5
I0403 13:21:40.329215 10961 net.cpp:386] relu5 -> conv5 (in-place)
I0403 13:21:40.329500 10961 net.cpp:141] Setting up relu5
I0403 13:21:40.329530 10961 net.cpp:148] Top shape: 100 256 13 13 (4326400)
I0403 13:21:40.329546 10961 net.cpp:156] Memory required for data: 818009200
I0403 13:21:40.329561 10961 layer_factory.hpp:77] Creating layer pool5
I0403 13:21:40.329586 10961 net.cpp:91] Creating Layer pool5
I0403 13:21:40.329603 10961 net.cpp:425] pool5 <- conv5
I0403 13:21:40.329623 10961 net.cpp:399] pool5 -> pool5
I0403 13:21:40.329685 10961 net.cpp:141] Setting up pool5
I0403 13:21:40.329711 10961 net.cpp:148] Top shape: 100 256 6 6 (921600)
I0403 13:21:40.329727 10961 net.cpp:156] Memory required for data: 821695600
I0403 13:21:40.329753 10961 layer_factory.hpp:77] Creating layer fc6
I0403 13:21:40.329778 10961 net.cpp:91] Creating Layer fc6
I0403 13:21:40.329795 10961 net.cpp:425] fc6 <- pool5
I0403 13:21:40.329814 10961 net.cpp:399] fc6 -> fc6
I0403 13:21:41.889716 10961 net.cpp:141] Setting up fc6
I0403 13:21:41.889817 10961 net.cpp:148] Top shape: 100 4096 (409600)
I0403 13:21:41.889835 10961 net.cpp:156] Memory required for data: 823334000
I0403 13:21:41.889858 10961 layer_factory.hpp:77] Creating layer relu6
I0403 13:21:41.889879 10961 net.cpp:91] Creating Layer relu6
I0403 13:21:41.889895 10961 net.cpp:425] relu6 <- fc6
I0403 13:21:41.889914 10961 net.cpp:386] relu6 -> fc6 (in-place)
I0403 13:21:41.890142 10961 net.cpp:141] Setting up relu6
I0403 13:21:41.890169 10961 net.cpp:148] Top shape: 100 4096 (409600)
I0403 13:21:41.890185 10961 net.cpp:156] Memory required for data: 824972400
I0403 13:21:41.890200 10961 layer_factory.hpp:77] Creating layer drop6
I0403 13:21:41.890218 10961 net.cpp:91] Creating Layer drop6
I0403 13:21:41.890233 10961 net.cpp:425] drop6 <- fc6
I0403 13:21:41.890252 10961 net.cpp:386] drop6 -> fc6 (in-place)
I0403 13:21:41.890305 10961 net.cpp:141] Setting up drop6
I0403 13:21:41.890328 10961 net.cpp:148] Top shape: 100 4096 (409600)
I0403 13:21:41.890342 10961 net.cpp:156] Memory required for data: 826610800
I0403 13:21:41.890355 10961 layer_factory.hpp:77] Creating layer fc7
I0403 13:21:41.890380 10961 net.cpp:91] Creating Layer fc7
I0403 13:21:41.890396 10961 net.cpp:425] fc7 <- fc6
I0403 13:21:41.890416 10961 net.cpp:399] fc7 -> fc7
I0403 13:21:42.613476 10961 net.cpp:141] Setting up fc7
I0403 13:21:42.613535 10961 net.cpp:148] Top shape: 100 4096 (409600)
I0403 13:21:42.613553 10961 net.cpp:156] Memory required for data: 828249200
I0403 13:21:42.613574 10961 layer_factory.hpp:77] Creating layer relu7
I0403 13:21:42.613596 10961 net.cpp:91] Creating Layer relu7
I0403 13:21:42.613618 10961 net.cpp:425] relu7 <- fc7
I0403 13:21:42.613637 10961 net.cpp:386] relu7 -> fc7 (in-place)
I0403 13:21:42.614048 10961 net.cpp:141] Setting up relu7
I0403 13:21:42.614078 10961 net.cpp:148] Top shape: 100 4096 (409600)
I0403 13:21:42.614130 10961 net.cpp:156] Memory required for data: 829887600
I0403 13:21:42.614146 10961 layer_factory.hpp:77] Creating layer drop7
I0403 13:21:42.614166 10961 net.cpp:91] Creating Layer drop7
I0403 13:21:42.614181 10961 net.cpp:425] drop7 <- fc7
I0403 13:21:42.614198 10961 net.cpp:386] drop7 -> fc7 (in-place)
I0403 13:21:42.614258 10961 net.cpp:141] Setting up drop7
I0403 13:21:42.614280 10961 net.cpp:148] Top shape: 100 4096 (409600)
I0403 13:21:42.614295 10961 net.cpp:156] Memory required for data: 831526000
I0403 13:21:42.614310 10961 layer_factory.hpp:77] Creating layer fc8_plantvillage
I0403 13:21:42.614332 10961 net.cpp:91] Creating Layer fc8_plantvillage
I0403 13:21:42.614349 10961 net.cpp:425] fc8_plantvillage <- fc7
I0403 13:21:42.614368 10961 net.cpp:399] fc8_plantvillage -> fc8_plantvillage
I0403 13:21:42.621387 10961 net.cpp:141] Setting up fc8_plantvillage
I0403 13:21:42.621417 10961 net.cpp:148] Top shape: 100 38 (3800)
I0403 13:21:42.621433 10961 net.cpp:156] Memory required for data: 831541200
I0403 13:21:42.621451 10961 layer_factory.hpp:77] Creating layer fc8_plantvillage_fc8_plantvillage_0_split
I0403 13:21:42.621469 10961 net.cpp:91] Creating Layer fc8_plantvillage_fc8_plantvillage_0_split
I0403 13:21:42.621484 10961 net.cpp:425] fc8_plantvillage_fc8_plantvillage_0_split <- fc8_plantvillage
I0403 13:21:42.621505 10961 net.cpp:399] fc8_plantvillage_fc8_plantvillage_0_split -> fc8_plantvillage_fc8_plantvillage_0_split_0
I0403 13:21:42.621525 10961 net.cpp:399] fc8_plantvillage_fc8_plantvillage_0_split -> fc8_plantvillage_fc8_plantvillage_0_split_1
I0403 13:21:42.621544 10961 net.cpp:399] fc8_plantvillage_fc8_plantvillage_0_split -> fc8_plantvillage_fc8_plantvillage_0_split_2
I0403 13:21:42.621623 10961 net.cpp:141] Setting up fc8_plantvillage_fc8_plantvillage_0_split
I0403 13:21:42.621647 10961 net.cpp:148] Top shape: 100 38 (3800)
I0403 13:21:42.621664 10961 net.cpp:148] Top shape: 100 38 (3800)
I0403 13:21:42.621680 10961 net.cpp:148] Top shape: 100 38 (3800)
I0403 13:21:42.621693 10961 net.cpp:156] Memory required for data: 831586800
I0403 13:21:42.621707 10961 layer_factory.hpp:77] Creating layer prob
I0403 13:21:42.621728 10961 net.cpp:91] Creating Layer prob
I0403 13:21:42.621744 10961 net.cpp:425] prob <- fc8_plantvillage_fc8_plantvillage_0_split_0
I0403 13:21:42.621763 10961 net.cpp:399] prob -> prob
I0403 13:21:42.621999 10961 net.cpp:141] Setting up prob
I0403 13:21:42.622028 10961 net.cpp:148] Top shape: 100 38 (3800)
I0403 13:21:42.622045 10961 net.cpp:156] Memory required for data: 831602000
I0403 13:21:42.622059 10961 layer_factory.hpp:77] Creating layer hdf5out
I0403 13:21:42.622079 10961 net.cpp:91] Creating Layer hdf5out
I0403 13:21:42.622094 10961 net.cpp:425] hdf5out <- prob
I0403 13:21:42.622110 10961 net.cpp:425] hdf5out <- label_data_1_split_0
I0403 13:21:42.625012 10961 net.cpp:141] Setting up hdf5out
…
