…
I0403 13:11:57.569087 10485 net.cpp:313] The NetState phase (1) differed from the phase (0) specified by a rule in layer data
I0403 13:11:57.569409 10485 net.cpp:49] Initializing net from parameters: 
state {
  phase: TEST
}
layer {
  name: "data"
  type: "Data"
  top: "data"
  top: "label"
  include {
    phase: TEST
  }
  transform_param {
    crop_size: 227
    mean_file: "/home/mohanty/data/final_dataset/lmdb/color-80-20/mean.binaryproto"
  }
  data_param {
    source: "/home/mohanty/data/final_dataset/lmdb/color-80-20/test_db"
    batch_size: 100
    backend: LMDB
  }
}
layer {
  name: "conv1"
  type: "Convolution"
  bottom: "data"
  top: "conv1"
  param {
    lr_mult: 1
    decay_mult: 1
  }
  param {
    lr_mult: 2
    decay_mult: 0
  }
  convolution_param {
    num_output: 96
    kernel_size: 11
    stride: 4
    weight_filler {
      type: "gaussian"
      std: 0.01
    }
    bias_filler {
      type: "constant"
      value: 0
    }
  }
}
layer {
  name: "relu1"
  type: "ReLU"
  bottom: "conv1"
  top: "conv1"
}
layer {
  name: "norm1"
  type: "LRN"
  bottom: "conv1"
  top: "norm1"
  lrn_param {
    local_size: 5
    alpha: 0.0001
    beta: 0.75
  }
}
layer {
  name: "pool1"
  type: "Pooling"
  bottom: "norm1"
  top: "pool1"
  pooling_param {
    pool: MAX
    kernel_size: 3
    stride: 2
  }
}
layer {
  name: "conv2"
  type: "Convolution"
  bottom: "pool1"
  top: "conv2"
  param {
    lr_mult: 1
    decay_mult: 1
  }
  param {
    lr_mult: 2
    decay_mult: 0
  }
  convolution_param {
    num_output: 256
    pad: 2
    kernel_size: 5
    group: 2
    weight_filler {
      type: "gaussian"
      std: 0.01
    }
    bias_filler {
      type: "constant"
      value: 0.1
    }
  }
}
layer {
  name: "relu2"
  type: "ReLU"
  bottom: "conv2"
  top: "conv2"
}
layer {
  name: "norm2"
  type: "LRN"
  bottom: "conv2"
  top: "norm2"
  lrn_param {
    local_size: 5
    alpha: 0.0001
    beta: 0.75
  }
}
layer {
  name: "pool2"
  type: "Pooling"
  bottom: "norm2"
  top: "pool2"
  pooling_param {
    pool: MAX
    kernel_size: 3
    stride: 2
  }
}
layer {
  name: "conv3"
  type: "Convolution"
  bottom: "pool2"
  top: "conv3"
  param {
    lr_mult: 1
    decay_mult: 1
  }
  param {
    lr_mult: 2
    decay_mult: 0
  }
  convolution_param {
    num_output: 384
    pad: 1
    kernel_size: 3
    weight_filler {
      type: "gaussian"
      std: 0.01
    }
    bias_filler {
      type: "constant"
      value: 0
    }
  }
}
layer {
  name: "relu3"
  type: "ReLU"
  bottom: "conv3"
  top: "conv3"
}
layer {
  name: "conv4"
  type: "Convolution"
  bottom: "conv3"
  top: "conv4"
  param {
    lr_mult: 1
    decay_mult: 1
  }
  param {
    lr_mult: 2
    decay_mult: 0
  }
  convolution_param {
    num_output: 384
    pad: 1
    kernel_size: 3
    group: 2
    weight_filler {
      type: "gaussian"
      std: 0.01
    }
    bias_filler {
      type: "constant"
      value: 0.1
    }
  }
}
layer {
  name: "relu4"
  type: "ReLU"
  bottom: "conv4"
  top: "conv4"
}
layer {
  name: "conv5"
  type: "Convolution"
  bottom: "conv4"
  top: "conv5"
  param {
    lr_mult: 1
    decay_mult: 1
  }
  param {
    lr_mult: 2
    decay_mult: 0
  }
  convolution_param {
    num_output: 256
    pad: 1
    kernel_size: 3
    group: 2
    weight_filler {
      type: "gaussian"
      std: 0.01
    }
    bias_filler {
      type: "constant"
      value: 0.1
    }
  }
}
layer {
  name: "relu5"
  type: "ReLU"
  bottom: "conv5"
  top: "conv5"
}
layer {
  name: "pool5"
  type: "Pooling"
  bottom: "conv5"
  top: "pool5"
  pooling_param {
    pool: MAX
    kernel_size: 3
    stride: 2
  }
}
layer {
  name: "fc6"
  type: "InnerProduct"
  bottom: "pool5"
  top: "fc6"
  param {
    lr_mult: 1
    decay_mult: 1
  }
  param {
    lr_mult: 2
    decay_mult: 0
  }
  inner_product_param {
    num_output: 4096
    weight_filler {
      type: "gaussian"
      std: 0.005
    }
    bias_filler {
      type: "constant"
      value: 0.1
    }
  }
}
layer {
  name: "relu6"
  type: "ReLU"
  bottom: "fc6"
  top: "fc6"
}
layer {
  name: "drop6"
  type: "Dropout"
  bottom: "fc6"
  top: "fc6"
  dropout_param {
    dropout_ratio: 0.5
  }
}
layer {
  name: "fc7"
  type: "InnerProduct"
  bottom: "fc6"
  top: "fc7"
  param {
    lr_mult: 1
    decay_mult: 1
  }
  param {
    lr_mult: 2
    decay_mult: 0
  }
  inner_product_param {
    num_output: 4096
    weight_filler {
      type: "gaussian"
      std: 0.005
    }
    bias_filler {
      type: "constant"
      value: 0.1
    }
  }
}
layer {
  name: "relu7"
  type: "ReLU"
  bottom: "fc7"
  top: "fc7"
}
layer {
  name: "drop7"
  type: "Dropout"
  bottom: "fc7"
  top: "fc7"
  dropout_param {
    dropout_ratio: 0.5
  }
}
layer {
  name: "fc8_plantvillage"
  type: "InnerProduct"
  bottom: "fc7"
  top: "fc8_plantvillage"
  param {
    lr_mult: 1
    decay_mult: 1
  }
  param {
    lr_mult: 2
    decay_mult: 0
  }
  inner_product_param {
    num_output: 38
    weight_filler {
      type: "gaussian"
      std: 0.01
    }
    bias_filler {
      type: "constant"
      value: 0
    }
  }
}
layer {
  name: "prob"
  type: "Softmax"
  bottom: "fc8_plantvillage"
  top: "prob"
  include {
    phase: TEST
  }
}
layer {
  name: "hdf5out"
  type: "HDF5Output"
  bottom: "prob"
  bottom: "label"
  include {
    phase: TEST
  }
  hdf5_output_param {
    file_name: "hdf5_dumps/iter_3059.h5"
  }
}
layer {
  name: "loss"
  type: "SoftmaxWithLoss"
  bottom: "fc8_plantvillage"
  bottom: "label"
  top: "loss"
}
layer {
  name: "accuracy"
  type: "Accuracy"
  bottom: "fc8_plantvillage"
  bottom: "label"
  top: "accuracy"
  include {
    phase: TEST
  }
}
I0403 13:11:57.570065 10485 layer_factory.hpp:77] Creating layer data
I0403 13:11:57.570757 10485 net.cpp:91] Creating Layer data
I0403 13:11:57.570791 10485 net.cpp:399] data -> data
I0403 13:11:57.570845 10485 net.cpp:399] data -> label
I0403 13:11:57.570885 10485 data_transformer.cpp:25] Loading mean file from: /home/mohanty/data/final_dataset/lmdb/color-80-20/mean.binaryproto
I0403 13:11:57.573650 10488 db_lmdb.cpp:38] Opened lmdb /home/mohanty/data/final_dataset/lmdb/color-80-20/test_db
I0403 13:11:57.585824 10485 data_layer.cpp:41] output data size: 100,3,227,227
I0403 13:11:57.720415 10485 net.cpp:141] Setting up data
I0403 13:11:57.720512 10485 net.cpp:148] Top shape: 100 3 227 227 (15458700)
I0403 13:11:57.720538 10485 net.cpp:148] Top shape: 100 (100)
I0403 13:11:57.720554 10485 net.cpp:156] Memory required for data: 61835200
I0403 13:11:57.720588 10485 layer_factory.hpp:77] Creating layer label_data_1_split
I0403 13:11:57.720618 10485 net.cpp:91] Creating Layer label_data_1_split
I0403 13:11:57.720638 10485 net.cpp:425] label_data_1_split <- label
I0403 13:11:57.720671 10485 net.cpp:399] label_data_1_split -> label_data_1_split_0
I0403 13:11:57.720705 10485 net.cpp:399] label_data_1_split -> label_data_1_split_1
I0403 13:11:57.720728 10485 net.cpp:399] label_data_1_split -> label_data_1_split_2
I0403 13:11:57.720804 10485 net.cpp:141] Setting up label_data_1_split
I0403 13:11:57.720829 10485 net.cpp:148] Top shape: 100 (100)
I0403 13:11:57.720849 10485 net.cpp:148] Top shape: 100 (100)
I0403 13:11:57.720870 10485 net.cpp:148] Top shape: 100 (100)
I0403 13:11:57.720886 10485 net.cpp:156] Memory required for data: 61836400
I0403 13:11:57.720904 10485 layer_factory.hpp:77] Creating layer conv1
I0403 13:11:57.720940 10485 net.cpp:91] Creating Layer conv1
I0403 13:11:57.720958 10485 net.cpp:425] conv1 <- data
I0403 13:11:57.720979 10485 net.cpp:399] conv1 -> conv1
I0403 13:11:57.874955 10485 net.cpp:141] Setting up conv1
I0403 13:11:57.875022 10485 net.cpp:148] Top shape: 100 96 55 55 (29040000)
I0403 13:11:57.875042 10485 net.cpp:156] Memory required for data: 177996400
I0403 13:11:57.875074 10485 layer_factory.hpp:77] Creating layer relu1
I0403 13:11:57.875104 10485 net.cpp:91] Creating Layer relu1
I0403 13:11:57.875123 10485 net.cpp:425] relu1 <- conv1
I0403 13:11:57.875144 10485 net.cpp:386] relu1 -> conv1 (in-place)
I0403 13:11:57.875413 10485 net.cpp:141] Setting up relu1
I0403 13:11:57.875443 10485 net.cpp:148] Top shape: 100 96 55 55 (29040000)
I0403 13:11:57.875459 10485 net.cpp:156] Memory required for data: 294156400
I0403 13:11:57.875516 10485 layer_factory.hpp:77] Creating layer norm1
I0403 13:11:57.875548 10485 net.cpp:91] Creating Layer norm1
I0403 13:11:57.875577 10485 net.cpp:425] norm1 <- conv1
I0403 13:11:57.875598 10485 net.cpp:399] norm1 -> norm1
I0403 13:11:57.875916 10485 net.cpp:141] Setting up norm1
I0403 13:11:57.875946 10485 net.cpp:148] Top shape: 100 96 55 55 (29040000)
I0403 13:11:57.875963 10485 net.cpp:156] Memory required for data: 410316400
I0403 13:11:57.875982 10485 layer_factory.hpp:77] Creating layer pool1
I0403 13:11:57.876005 10485 net.cpp:91] Creating Layer pool1
I0403 13:11:57.876024 10485 net.cpp:425] pool1 <- norm1
I0403 13:11:57.876044 10485 net.cpp:399] pool1 -> pool1
I0403 13:11:57.876116 10485 net.cpp:141] Setting up pool1
I0403 13:11:57.876142 10485 net.cpp:148] Top shape: 100 96 27 27 (6998400)
I0403 13:11:57.876158 10485 net.cpp:156] Memory required for data: 438310000
I0403 13:11:57.876173 10485 layer_factory.hpp:77] Creating layer conv2
I0403 13:11:57.876199 10485 net.cpp:91] Creating Layer conv2
I0403 13:11:57.876219 10485 net.cpp:425] conv2 <- pool1
I0403 13:11:57.876236 10485 net.cpp:399] conv2 -> conv2
I0403 13:11:57.891878 10485 net.cpp:141] Setting up conv2
I0403 13:11:57.891942 10485 net.cpp:148] Top shape: 100 256 27 27 (18662400)
I0403 13:11:57.891963 10485 net.cpp:156] Memory required for data: 512959600
I0403 13:11:57.891993 10485 layer_factory.hpp:77] Creating layer relu2
I0403 13:11:57.892019 10485 net.cpp:91] Creating Layer relu2
I0403 13:11:57.892038 10485 net.cpp:425] relu2 <- conv2
I0403 13:11:57.892061 10485 net.cpp:386] relu2 -> conv2 (in-place)
I0403 13:11:57.892359 10485 net.cpp:141] Setting up relu2
I0403 13:11:57.892388 10485 net.cpp:148] Top shape: 100 256 27 27 (18662400)
I0403 13:11:57.892405 10485 net.cpp:156] Memory required for data: 587609200
I0403 13:11:57.892421 10485 layer_factory.hpp:77] Creating layer norm2
I0403 13:11:57.892444 10485 net.cpp:91] Creating Layer norm2
I0403 13:11:57.892463 10485 net.cpp:425] norm2 <- conv2
I0403 13:11:57.892485 10485 net.cpp:399] norm2 -> norm2
I0403 13:11:57.892704 10485 net.cpp:141] Setting up norm2
I0403 13:11:57.892731 10485 net.cpp:148] Top shape: 100 256 27 27 (18662400)
I0403 13:11:57.892748 10485 net.cpp:156] Memory required for data: 662258800
I0403 13:11:57.892765 10485 layer_factory.hpp:77] Creating layer pool2
I0403 13:11:57.892787 10485 net.cpp:91] Creating Layer pool2
I0403 13:11:57.892804 10485 net.cpp:425] pool2 <- norm2
I0403 13:11:57.892824 10485 net.cpp:399] pool2 -> pool2
I0403 13:11:57.892880 10485 net.cpp:141] Setting up pool2
I0403 13:11:57.892905 10485 net.cpp:148] Top shape: 100 256 13 13 (4326400)
I0403 13:11:57.892921 10485 net.cpp:156] Memory required for data: 679564400
I0403 13:11:57.892938 10485 layer_factory.hpp:77] Creating layer conv3
I0403 13:11:57.892966 10485 net.cpp:91] Creating Layer conv3
I0403 13:11:57.892984 10485 net.cpp:425] conv3 <- pool2
I0403 13:11:57.893007 10485 net.cpp:399] conv3 -> conv3
I0403 13:11:57.940553 10485 net.cpp:141] Setting up conv3
I0403 13:11:57.940626 10485 net.cpp:148] Top shape: 100 384 13 13 (6489600)
I0403 13:11:57.940646 10485 net.cpp:156] Memory required for data: 705522800
I0403 13:11:57.940675 10485 layer_factory.hpp:77] Creating layer relu3
I0403 13:11:57.940704 10485 net.cpp:91] Creating Layer relu3
I0403 13:11:57.940723 10485 net.cpp:425] relu3 <- conv3
I0403 13:11:57.940745 10485 net.cpp:386] relu3 -> conv3 (in-place)
I0403 13:11:57.941041 10485 net.cpp:141] Setting up relu3
I0403 13:11:57.941071 10485 net.cpp:148] Top shape: 100 384 13 13 (6489600)
I0403 13:11:57.941088 10485 net.cpp:156] Memory required for data: 731481200
I0403 13:11:57.941105 10485 layer_factory.hpp:77] Creating layer conv4
I0403 13:11:57.941133 10485 net.cpp:91] Creating Layer conv4
I0403 13:11:57.941153 10485 net.cpp:425] conv4 <- conv3
I0403 13:11:57.941175 10485 net.cpp:399] conv4 -> conv4
I0403 13:11:57.972620 10485 net.cpp:141] Setting up conv4
I0403 13:11:57.972702 10485 net.cpp:148] Top shape: 100 384 13 13 (6489600)
I0403 13:11:57.972764 10485 net.cpp:156] Memory required for data: 757439600
I0403 13:11:57.972790 10485 layer_factory.hpp:77] Creating layer relu4
I0403 13:11:57.972813 10485 net.cpp:91] Creating Layer relu4
I0403 13:11:57.972832 10485 net.cpp:425] relu4 <- conv4
I0403 13:11:57.972854 10485 net.cpp:386] relu4 -> conv4 (in-place)
I0403 13:11:57.973163 10485 net.cpp:141] Setting up relu4
I0403 13:11:57.973192 10485 net.cpp:148] Top shape: 100 384 13 13 (6489600)
I0403 13:11:57.973208 10485 net.cpp:156] Memory required for data: 783398000
I0403 13:11:57.973223 10485 layer_factory.hpp:77] Creating layer conv5
I0403 13:11:57.973253 10485 net.cpp:91] Creating Layer conv5
I0403 13:11:57.973270 10485 net.cpp:425] conv5 <- conv4
I0403 13:11:57.973294 10485 net.cpp:399] conv5 -> conv5
I0403 13:11:57.995615 10485 net.cpp:141] Setting up conv5
I0403 13:11:57.995700 10485 net.cpp:148] Top shape: 100 256 13 13 (4326400)
I0403 13:11:57.995718 10485 net.cpp:156] Memory required for data: 800703600
I0403 13:11:57.995749 10485 layer_factory.hpp:77] Creating layer relu5
I0403 13:11:57.995776 10485 net.cpp:91] Creating Layer relu5
I0403 13:11:57.995795 10485 net.cpp:425] relu5 <- conv5
I0403 13:11:57.995815 10485 net.cpp:386] relu5 -> conv5 (in-place)
I0403 13:11:57.996115 10485 net.cpp:141] Setting up relu5
I0403 13:11:57.996143 10485 net.cpp:148] Top shape: 100 256 13 13 (4326400)
I0403 13:11:57.996160 10485 net.cpp:156] Memory required for data: 818009200
I0403 13:11:57.996175 10485 layer_factory.hpp:77] Creating layer pool5
I0403 13:11:57.996201 10485 net.cpp:91] Creating Layer pool5
I0403 13:11:57.996218 10485 net.cpp:425] pool5 <- conv5
I0403 13:11:57.996237 10485 net.cpp:399] pool5 -> pool5
I0403 13:11:57.996304 10485 net.cpp:141] Setting up pool5
I0403 13:11:57.996330 10485 net.cpp:148] Top shape: 100 256 6 6 (921600)
I0403 13:11:57.996345 10485 net.cpp:156] Memory required for data: 821695600
I0403 13:11:57.996359 10485 layer_factory.hpp:77] Creating layer fc6
I0403 13:11:57.996392 10485 net.cpp:91] Creating Layer fc6
I0403 13:11:57.996410 10485 net.cpp:425] fc6 <- pool5
I0403 13:11:57.996429 10485 net.cpp:399] fc6 -> fc6
I0403 13:11:59.553591 10485 net.cpp:141] Setting up fc6
I0403 13:11:59.553673 10485 net.cpp:148] Top shape: 100 4096 (409600)
I0403 13:11:59.553689 10485 net.cpp:156] Memory required for data: 823334000
I0403 13:11:59.553710 10485 layer_factory.hpp:77] Creating layer relu6
I0403 13:11:59.553731 10485 net.cpp:91] Creating Layer relu6
I0403 13:11:59.553748 10485 net.cpp:425] relu6 <- fc6
I0403 13:11:59.553769 10485 net.cpp:386] relu6 -> fc6 (in-place)
I0403 13:11:59.553987 10485 net.cpp:141] Setting up relu6
I0403 13:11:59.554010 10485 net.cpp:148] Top shape: 100 4096 (409600)
I0403 13:11:59.554025 10485 net.cpp:156] Memory required for data: 824972400
I0403 13:11:59.554039 10485 layer_factory.hpp:77] Creating layer drop6
I0403 13:11:59.554060 10485 net.cpp:91] Creating Layer drop6
I0403 13:11:59.554076 10485 net.cpp:425] drop6 <- fc6
I0403 13:11:59.554093 10485 net.cpp:386] drop6 -> fc6 (in-place)
I0403 13:11:59.554143 10485 net.cpp:141] Setting up drop6
I0403 13:11:59.554167 10485 net.cpp:148] Top shape: 100 4096 (409600)
I0403 13:11:59.554180 10485 net.cpp:156] Memory required for data: 826610800
I0403 13:11:59.554194 10485 layer_factory.hpp:77] Creating layer fc7
I0403 13:11:59.554214 10485 net.cpp:91] Creating Layer fc7
I0403 13:11:59.554227 10485 net.cpp:425] fc7 <- fc6
I0403 13:11:59.554247 10485 net.cpp:399] fc7 -> fc7
I0403 13:12:00.238364 10485 net.cpp:141] Setting up fc7
I0403 13:12:00.238436 10485 net.cpp:148] Top shape: 100 4096 (409600)
I0403 13:12:00.238451 10485 net.cpp:156] Memory required for data: 828249200
I0403 13:12:00.238472 10485 layer_factory.hpp:77] Creating layer relu7
I0403 13:12:00.238497 10485 net.cpp:91] Creating Layer relu7
I0403 13:12:00.238515 10485 net.cpp:425] relu7 <- fc7
I0403 13:12:00.238533 10485 net.cpp:386] relu7 -> fc7 (in-place)
I0403 13:12:00.238939 10485 net.cpp:141] Setting up relu7
I0403 13:12:00.238965 10485 net.cpp:148] Top shape: 100 4096 (409600)
I0403 13:12:00.239015 10485 net.cpp:156] Memory required for data: 829887600
I0403 13:12:00.239032 10485 layer_factory.hpp:77] Creating layer drop7
I0403 13:12:00.239049 10485 net.cpp:91] Creating Layer drop7
I0403 13:12:00.239064 10485 net.cpp:425] drop7 <- fc7
I0403 13:12:00.239084 10485 net.cpp:386] drop7 -> fc7 (in-place)
I0403 13:12:00.239130 10485 net.cpp:141] Setting up drop7
I0403 13:12:00.239152 10485 net.cpp:148] Top shape: 100 4096 (409600)
I0403 13:12:00.239167 10485 net.cpp:156] Memory required for data: 831526000
I0403 13:12:00.239181 10485 layer_factory.hpp:77] Creating layer fc8_plantvillage
I0403 13:12:00.239199 10485 net.cpp:91] Creating Layer fc8_plantvillage
I0403 13:12:00.239214 10485 net.cpp:425] fc8_plantvillage <- fc7
I0403 13:12:00.239235 10485 net.cpp:399] fc8_plantvillage -> fc8_plantvillage
I0403 13:12:00.245954 10485 net.cpp:141] Setting up fc8_plantvillage
I0403 13:12:00.245985 10485 net.cpp:148] Top shape: 100 38 (3800)
I0403 13:12:00.246001 10485 net.cpp:156] Memory required for data: 831541200
I0403 13:12:00.246018 10485 layer_factory.hpp:77] Creating layer fc8_plantvillage_fc8_plantvillage_0_split
I0403 13:12:00.246037 10485 net.cpp:91] Creating Layer fc8_plantvillage_fc8_plantvillage_0_split
I0403 13:12:00.246050 10485 net.cpp:425] fc8_plantvillage_fc8_plantvillage_0_split <- fc8_plantvillage
I0403 13:12:00.246068 10485 net.cpp:399] fc8_plantvillage_fc8_plantvillage_0_split -> fc8_plantvillage_fc8_plantvillage_0_split_0
I0403 13:12:00.246086 10485 net.cpp:399] fc8_plantvillage_fc8_plantvillage_0_split -> fc8_plantvillage_fc8_plantvillage_0_split_1
I0403 13:12:00.246106 10485 net.cpp:399] fc8_plantvillage_fc8_plantvillage_0_split -> fc8_plantvillage_fc8_plantvillage_0_split_2
I0403 13:12:00.246186 10485 net.cpp:141] Setting up fc8_plantvillage_fc8_plantvillage_0_split
I0403 13:12:00.246212 10485 net.cpp:148] Top shape: 100 38 (3800)
I0403 13:12:00.246227 10485 net.cpp:148] Top shape: 100 38 (3800)
I0403 13:12:00.246242 10485 net.cpp:148] Top shape: 100 38 (3800)
I0403 13:12:00.246254 10485 net.cpp:156] Memory required for data: 831586800
I0403 13:12:00.246268 10485 layer_factory.hpp:77] Creating layer prob
I0403 13:12:00.246286 10485 net.cpp:91] Creating Layer prob
I0403 13:12:00.246300 10485 net.cpp:425] prob <- fc8_plantvillage_fc8_plantvillage_0_split_0
I0403 13:12:00.246317 10485 net.cpp:399] prob -> prob
I0403 13:12:00.246542 10485 net.cpp:141] Setting up prob
I0403 13:12:00.246567 10485 net.cpp:148] Top shape: 100 38 (3800)
I0403 13:12:00.246580 10485 net.cpp:156] Memory required for data: 831602000
I0403 13:12:00.246595 10485 layer_factory.hpp:77] Creating layer hdf5out
I0403 13:12:00.246623 10485 net.cpp:91] Creating Layer hdf5out
I0403 13:12:00.246641 10485 net.cpp:425] hdf5out <- prob
I0403 13:12:00.246656 10485 net.cpp:425] hdf5out <- label_data_1_split_0
I0403 13:12:00.249037 10485 net.cpp:141] Setting up hdf5out
…
