…
I0403 13:12:22.799682 10496 net.cpp:313] The NetState phase (1) differed from the phase (0) specified by a rule in layer data
I0403 13:12:22.799998 10496 net.cpp:49] Initializing net from parameters: 
state {
  phase: TEST
}
layer {
  name: "data"
  type: "Data"
  top: "data"
  top: "label"
  include {
    phase: TEST
  }
  transform_param {
    crop_size: 227
    mean_file: "/home/mohanty/data/final_dataset/lmdb/color-80-20/mean.binaryproto"
  }
  data_param {
    source: "/home/mohanty/data/final_dataset/lmdb/color-80-20/test_db"
    batch_size: 100
    backend: LMDB
  }
}
layer {
  name: "conv1"
  type: "Convolution"
  bottom: "data"
  top: "conv1"
  param {
    lr_mult: 1
    decay_mult: 1
  }
  param {
    lr_mult: 2
    decay_mult: 0
  }
  convolution_param {
    num_output: 96
    kernel_size: 11
    stride: 4
    weight_filler {
      type: "gaussian"
      std: 0.01
    }
    bias_filler {
      type: "constant"
      value: 0
    }
  }
}
layer {
  name: "relu1"
  type: "ReLU"
  bottom: "conv1"
  top: "conv1"
}
layer {
  name: "norm1"
  type: "LRN"
  bottom: "conv1"
  top: "norm1"
  lrn_param {
    local_size: 5
    alpha: 0.0001
    beta: 0.75
  }
}
layer {
  name: "pool1"
  type: "Pooling"
  bottom: "norm1"
  top: "pool1"
  pooling_param {
    pool: MAX
    kernel_size: 3
    stride: 2
  }
}
layer {
  name: "conv2"
  type: "Convolution"
  bottom: "pool1"
  top: "conv2"
  param {
    lr_mult: 1
    decay_mult: 1
  }
  param {
    lr_mult: 2
    decay_mult: 0
  }
  convolution_param {
    num_output: 256
    pad: 2
    kernel_size: 5
    group: 2
    weight_filler {
      type: "gaussian"
      std: 0.01
    }
    bias_filler {
      type: "constant"
      value: 0.1
    }
  }
}
layer {
  name: "relu2"
  type: "ReLU"
  bottom: "conv2"
  top: "conv2"
}
layer {
  name: "norm2"
  type: "LRN"
  bottom: "conv2"
  top: "norm2"
  lrn_param {
    local_size: 5
    alpha: 0.0001
    beta: 0.75
  }
}
layer {
  name: "pool2"
  type: "Pooling"
  bottom: "norm2"
  top: "pool2"
  pooling_param {
    pool: MAX
    kernel_size: 3
    stride: 2
  }
}
layer {
  name: "conv3"
  type: "Convolution"
  bottom: "pool2"
  top: "conv3"
  param {
    lr_mult: 1
    decay_mult: 1
  }
  param {
    lr_mult: 2
    decay_mult: 0
  }
  convolution_param {
    num_output: 384
    pad: 1
    kernel_size: 3
    weight_filler {
      type: "gaussian"
      std: 0.01
    }
    bias_filler {
      type: "constant"
      value: 0
    }
  }
}
layer {
  name: "relu3"
  type: "ReLU"
  bottom: "conv3"
  top: "conv3"
}
layer {
  name: "conv4"
  type: "Convolution"
  bottom: "conv3"
  top: "conv4"
  param {
    lr_mult: 1
    decay_mult: 1
  }
  param {
    lr_mult: 2
    decay_mult: 0
  }
  convolution_param {
    num_output: 384
    pad: 1
    kernel_size: 3
    group: 2
    weight_filler {
      type: "gaussian"
      std: 0.01
    }
    bias_filler {
      type: "constant"
      value: 0.1
    }
  }
}
layer {
  name: "relu4"
  type: "ReLU"
  bottom: "conv4"
  top: "conv4"
}
layer {
  name: "conv5"
  type: "Convolution"
  bottom: "conv4"
  top: "conv5"
  param {
    lr_mult: 1
    decay_mult: 1
  }
  param {
    lr_mult: 2
    decay_mult: 0
  }
  convolution_param {
    num_output: 256
    pad: 1
    kernel_size: 3
    group: 2
    weight_filler {
      type: "gaussian"
      std: 0.01
    }
    bias_filler {
      type: "constant"
      value: 0.1
    }
  }
}
layer {
  name: "relu5"
  type: "ReLU"
  bottom: "conv5"
  top: "conv5"
}
layer {
  name: "pool5"
  type: "Pooling"
  bottom: "conv5"
  top: "pool5"
  pooling_param {
    pool: MAX
    kernel_size: 3
    stride: 2
  }
}
layer {
  name: "fc6"
  type: "InnerProduct"
  bottom: "pool5"
  top: "fc6"
  param {
    lr_mult: 1
    decay_mult: 1
  }
  param {
    lr_mult: 2
    decay_mult: 0
  }
  inner_product_param {
    num_output: 4096
    weight_filler {
      type: "gaussian"
      std: 0.005
    }
    bias_filler {
      type: "constant"
      value: 0.1
    }
  }
}
layer {
  name: "relu6"
  type: "ReLU"
  bottom: "fc6"
  top: "fc6"
}
layer {
  name: "drop6"
  type: "Dropout"
  bottom: "fc6"
  top: "fc6"
  dropout_param {
    dropout_ratio: 0.5
  }
}
layer {
  name: "fc7"
  type: "InnerProduct"
  bottom: "fc6"
  top: "fc7"
  param {
    lr_mult: 1
    decay_mult: 1
  }
  param {
    lr_mult: 2
    decay_mult: 0
  }
  inner_product_param {
    num_output: 4096
    weight_filler {
      type: "gaussian"
      std: 0.005
    }
    bias_filler {
      type: "constant"
      value: 0.1
    }
  }
}
layer {
  name: "relu7"
  type: "ReLU"
  bottom: "fc7"
  top: "fc7"
}
layer {
  name: "drop7"
  type: "Dropout"
  bottom: "fc7"
  top: "fc7"
  dropout_param {
    dropout_ratio: 0.5
  }
}
layer {
  name: "fc8_plantvillage"
  type: "InnerProduct"
  bottom: "fc7"
  top: "fc8_plantvillage"
  param {
    lr_mult: 1
    decay_mult: 1
  }
  param {
    lr_mult: 2
    decay_mult: 0
  }
  inner_product_param {
    num_output: 38
    weight_filler {
      type: "gaussian"
      std: 0.01
    }
    bias_filler {
      type: "constant"
      value: 0
    }
  }
}
layer {
  name: "prob"
  type: "Softmax"
  bottom: "fc8_plantvillage"
  top: "prob"
  include {
    phase: TEST
  }
}
layer {
  name: "hdf5out"
  type: "HDF5Output"
  bottom: "prob"
  bottom: "label"
  include {
    phase: TEST
  }
  hdf5_output_param {
    file_name: "hdf5_dumps/iter_3496.h5"
  }
}
layer {
  name: "loss"
  type: "SoftmaxWithLoss"
  bottom: "fc8_plantvillage"
  bottom: "label"
  top: "loss"
}
layer {
  name: "accuracy"
  type: "Accuracy"
  bottom: "fc8_plantvillage"
  bottom: "label"
  top: "accuracy"
  include {
    phase: TEST
  }
}
I0403 13:12:22.800539 10496 layer_factory.hpp:77] Creating layer data
I0403 13:12:22.801167 10496 net.cpp:91] Creating Layer data
I0403 13:12:22.801198 10496 net.cpp:399] data -> data
I0403 13:12:22.801249 10496 net.cpp:399] data -> label
I0403 13:12:22.801286 10496 data_transformer.cpp:25] Loading mean file from: /home/mohanty/data/final_dataset/lmdb/color-80-20/mean.binaryproto
I0403 13:12:22.803967 10499 db_lmdb.cpp:38] Opened lmdb /home/mohanty/data/final_dataset/lmdb/color-80-20/test_db
I0403 13:12:22.815367 10496 data_layer.cpp:41] output data size: 100,3,227,227
I0403 13:12:22.935541 10496 net.cpp:141] Setting up data
I0403 13:12:22.935606 10496 net.cpp:148] Top shape: 100 3 227 227 (15458700)
I0403 13:12:22.935629 10496 net.cpp:148] Top shape: 100 (100)
I0403 13:12:22.935644 10496 net.cpp:156] Memory required for data: 61835200
I0403 13:12:22.935672 10496 layer_factory.hpp:77] Creating layer label_data_1_split
I0403 13:12:22.935698 10496 net.cpp:91] Creating Layer label_data_1_split
I0403 13:12:22.935715 10496 net.cpp:425] label_data_1_split <- label
I0403 13:12:22.935746 10496 net.cpp:399] label_data_1_split -> label_data_1_split_0
I0403 13:12:22.935773 10496 net.cpp:399] label_data_1_split -> label_data_1_split_1
I0403 13:12:22.935793 10496 net.cpp:399] label_data_1_split -> label_data_1_split_2
I0403 13:12:22.935855 10496 net.cpp:141] Setting up label_data_1_split
I0403 13:12:22.935878 10496 net.cpp:148] Top shape: 100 (100)
I0403 13:12:22.935895 10496 net.cpp:148] Top shape: 100 (100)
I0403 13:12:22.935910 10496 net.cpp:148] Top shape: 100 (100)
I0403 13:12:22.935925 10496 net.cpp:156] Memory required for data: 61836400
I0403 13:12:22.935938 10496 layer_factory.hpp:77] Creating layer conv1
I0403 13:12:22.935969 10496 net.cpp:91] Creating Layer conv1
I0403 13:12:22.935986 10496 net.cpp:425] conv1 <- data
I0403 13:12:22.936005 10496 net.cpp:399] conv1 -> conv1
I0403 13:12:23.076284 10496 net.cpp:141] Setting up conv1
I0403 13:12:23.076364 10496 net.cpp:148] Top shape: 100 96 55 55 (29040000)
I0403 13:12:23.076381 10496 net.cpp:156] Memory required for data: 177996400
I0403 13:12:23.076413 10496 layer_factory.hpp:77] Creating layer relu1
I0403 13:12:23.076442 10496 net.cpp:91] Creating Layer relu1
I0403 13:12:23.076462 10496 net.cpp:425] relu1 <- conv1
I0403 13:12:23.076480 10496 net.cpp:386] relu1 -> conv1 (in-place)
I0403 13:12:23.076742 10496 net.cpp:141] Setting up relu1
I0403 13:12:23.076769 10496 net.cpp:148] Top shape: 100 96 55 55 (29040000)
I0403 13:12:23.076786 10496 net.cpp:156] Memory required for data: 294156400
I0403 13:12:23.076839 10496 layer_factory.hpp:77] Creating layer norm1
I0403 13:12:23.076867 10496 net.cpp:91] Creating Layer norm1
I0403 13:12:23.076885 10496 net.cpp:425] norm1 <- conv1
I0403 13:12:23.076902 10496 net.cpp:399] norm1 -> norm1
I0403 13:12:23.077227 10496 net.cpp:141] Setting up norm1
I0403 13:12:23.077255 10496 net.cpp:148] Top shape: 100 96 55 55 (29040000)
I0403 13:12:23.077270 10496 net.cpp:156] Memory required for data: 410316400
I0403 13:12:23.077283 10496 layer_factory.hpp:77] Creating layer pool1
I0403 13:12:23.077306 10496 net.cpp:91] Creating Layer pool1
I0403 13:12:23.077323 10496 net.cpp:425] pool1 <- norm1
I0403 13:12:23.077340 10496 net.cpp:399] pool1 -> pool1
I0403 13:12:23.077406 10496 net.cpp:141] Setting up pool1
I0403 13:12:23.077430 10496 net.cpp:148] Top shape: 100 96 27 27 (6998400)
I0403 13:12:23.077445 10496 net.cpp:156] Memory required for data: 438310000
I0403 13:12:23.077458 10496 layer_factory.hpp:77] Creating layer conv2
I0403 13:12:23.077482 10496 net.cpp:91] Creating Layer conv2
I0403 13:12:23.077498 10496 net.cpp:425] conv2 <- pool1
I0403 13:12:23.077517 10496 net.cpp:399] conv2 -> conv2
I0403 13:12:23.092602 10496 net.cpp:141] Setting up conv2
I0403 13:12:23.092653 10496 net.cpp:148] Top shape: 100 256 27 27 (18662400)
I0403 13:12:23.092672 10496 net.cpp:156] Memory required for data: 512959600
I0403 13:12:23.092695 10496 layer_factory.hpp:77] Creating layer relu2
I0403 13:12:23.092715 10496 net.cpp:91] Creating Layer relu2
I0403 13:12:23.092731 10496 net.cpp:425] relu2 <- conv2
I0403 13:12:23.092751 10496 net.cpp:386] relu2 -> conv2 (in-place)
I0403 13:12:23.093032 10496 net.cpp:141] Setting up relu2
I0403 13:12:23.093060 10496 net.cpp:148] Top shape: 100 256 27 27 (18662400)
I0403 13:12:23.093075 10496 net.cpp:156] Memory required for data: 587609200
I0403 13:12:23.093089 10496 layer_factory.hpp:77] Creating layer norm2
I0403 13:12:23.093112 10496 net.cpp:91] Creating Layer norm2
I0403 13:12:23.093129 10496 net.cpp:425] norm2 <- conv2
I0403 13:12:23.093148 10496 net.cpp:399] norm2 -> norm2
I0403 13:12:23.093361 10496 net.cpp:141] Setting up norm2
I0403 13:12:23.093390 10496 net.cpp:148] Top shape: 100 256 27 27 (18662400)
I0403 13:12:23.093405 10496 net.cpp:156] Memory required for data: 662258800
I0403 13:12:23.093420 10496 layer_factory.hpp:77] Creating layer pool2
I0403 13:12:23.093437 10496 net.cpp:91] Creating Layer pool2
I0403 13:12:23.093452 10496 net.cpp:425] pool2 <- norm2
I0403 13:12:23.093472 10496 net.cpp:399] pool2 -> pool2
I0403 13:12:23.093523 10496 net.cpp:141] Setting up pool2
I0403 13:12:23.093546 10496 net.cpp:148] Top shape: 100 256 13 13 (4326400)
I0403 13:12:23.093561 10496 net.cpp:156] Memory required for data: 679564400
I0403 13:12:23.093596 10496 layer_factory.hpp:77] Creating layer conv3
I0403 13:12:23.093622 10496 net.cpp:91] Creating Layer conv3
I0403 13:12:23.093638 10496 net.cpp:425] conv3 <- pool2
I0403 13:12:23.093660 10496 net.cpp:399] conv3 -> conv3
I0403 13:12:23.132711 10496 net.cpp:141] Setting up conv3
I0403 13:12:23.132789 10496 net.cpp:148] Top shape: 100 384 13 13 (6489600)
I0403 13:12:23.132808 10496 net.cpp:156] Memory required for data: 705522800
I0403 13:12:23.132848 10496 layer_factory.hpp:77] Creating layer relu3
I0403 13:12:23.132870 10496 net.cpp:91] Creating Layer relu3
I0403 13:12:23.132886 10496 net.cpp:425] relu3 <- conv3
I0403 13:12:23.132905 10496 net.cpp:386] relu3 -> conv3 (in-place)
I0403 13:12:23.138972 10496 net.cpp:141] Setting up relu3
I0403 13:12:23.139005 10496 net.cpp:148] Top shape: 100 384 13 13 (6489600)
I0403 13:12:23.139020 10496 net.cpp:156] Memory required for data: 731481200
I0403 13:12:23.139035 10496 layer_factory.hpp:77] Creating layer conv4
I0403 13:12:23.139062 10496 net.cpp:91] Creating Layer conv4
I0403 13:12:23.139080 10496 net.cpp:425] conv4 <- conv3
I0403 13:12:23.139101 10496 net.cpp:399] conv4 -> conv4
I0403 13:12:23.169059 10496 net.cpp:141] Setting up conv4
I0403 13:12:23.169121 10496 net.cpp:148] Top shape: 100 384 13 13 (6489600)
I0403 13:12:23.169170 10496 net.cpp:156] Memory required for data: 757439600
I0403 13:12:23.169191 10496 layer_factory.hpp:77] Creating layer relu4
I0403 13:12:23.169214 10496 net.cpp:91] Creating Layer relu4
I0403 13:12:23.169230 10496 net.cpp:425] relu4 <- conv4
I0403 13:12:23.169250 10496 net.cpp:386] relu4 -> conv4 (in-place)
I0403 13:12:23.169522 10496 net.cpp:141] Setting up relu4
I0403 13:12:23.169548 10496 net.cpp:148] Top shape: 100 384 13 13 (6489600)
I0403 13:12:23.169565 10496 net.cpp:156] Memory required for data: 783398000
I0403 13:12:23.169584 10496 layer_factory.hpp:77] Creating layer conv5
I0403 13:12:23.169607 10496 net.cpp:91] Creating Layer conv5
I0403 13:12:23.169622 10496 net.cpp:425] conv5 <- conv4
I0403 13:12:23.169643 10496 net.cpp:399] conv5 -> conv5
I0403 13:12:23.190181 10496 net.cpp:141] Setting up conv5
I0403 13:12:23.190230 10496 net.cpp:148] Top shape: 100 256 13 13 (4326400)
I0403 13:12:23.190246 10496 net.cpp:156] Memory required for data: 800703600
I0403 13:12:23.190273 10496 layer_factory.hpp:77] Creating layer relu5
I0403 13:12:23.190296 10496 net.cpp:91] Creating Layer relu5
I0403 13:12:23.190312 10496 net.cpp:425] relu5 <- conv5
I0403 13:12:23.190332 10496 net.cpp:386] relu5 -> conv5 (in-place)
I0403 13:12:23.190620 10496 net.cpp:141] Setting up relu5
I0403 13:12:23.190650 10496 net.cpp:148] Top shape: 100 256 13 13 (4326400)
I0403 13:12:23.190666 10496 net.cpp:156] Memory required for data: 818009200
I0403 13:12:23.190681 10496 layer_factory.hpp:77] Creating layer pool5
I0403 13:12:23.190703 10496 net.cpp:91] Creating Layer pool5
I0403 13:12:23.190719 10496 net.cpp:425] pool5 <- conv5
I0403 13:12:23.190739 10496 net.cpp:399] pool5 -> pool5
I0403 13:12:23.190799 10496 net.cpp:141] Setting up pool5
I0403 13:12:23.190825 10496 net.cpp:148] Top shape: 100 256 6 6 (921600)
I0403 13:12:23.190841 10496 net.cpp:156] Memory required for data: 821695600
I0403 13:12:23.190855 10496 layer_factory.hpp:77] Creating layer fc6
I0403 13:12:23.190881 10496 net.cpp:91] Creating Layer fc6
I0403 13:12:23.190897 10496 net.cpp:425] fc6 <- pool5
I0403 13:12:23.190917 10496 net.cpp:399] fc6 -> fc6
I0403 13:12:24.749156 10496 net.cpp:141] Setting up fc6
I0403 13:12:24.749217 10496 net.cpp:148] Top shape: 100 4096 (409600)
I0403 13:12:24.749233 10496 net.cpp:156] Memory required for data: 823334000
I0403 13:12:24.749255 10496 layer_factory.hpp:77] Creating layer relu6
I0403 13:12:24.749279 10496 net.cpp:91] Creating Layer relu6
I0403 13:12:24.749295 10496 net.cpp:425] relu6 <- fc6
I0403 13:12:24.749315 10496 net.cpp:386] relu6 -> fc6 (in-place)
I0403 13:12:24.749547 10496 net.cpp:141] Setting up relu6
I0403 13:12:24.749583 10496 net.cpp:148] Top shape: 100 4096 (409600)
I0403 13:12:24.749600 10496 net.cpp:156] Memory required for data: 824972400
I0403 13:12:24.749615 10496 layer_factory.hpp:77] Creating layer drop6
I0403 13:12:24.749634 10496 net.cpp:91] Creating Layer drop6
I0403 13:12:24.749650 10496 net.cpp:425] drop6 <- fc6
I0403 13:12:24.749668 10496 net.cpp:386] drop6 -> fc6 (in-place)
I0403 13:12:24.749721 10496 net.cpp:141] Setting up drop6
I0403 13:12:24.749744 10496 net.cpp:148] Top shape: 100 4096 (409600)
I0403 13:12:24.749758 10496 net.cpp:156] Memory required for data: 826610800
I0403 13:12:24.749773 10496 layer_factory.hpp:77] Creating layer fc7
I0403 13:12:24.749799 10496 net.cpp:91] Creating Layer fc7
I0403 13:12:24.749815 10496 net.cpp:425] fc7 <- fc6
I0403 13:12:24.749836 10496 net.cpp:399] fc7 -> fc7
I0403 13:12:25.441727 10496 net.cpp:141] Setting up fc7
I0403 13:12:25.441800 10496 net.cpp:148] Top shape: 100 4096 (409600)
I0403 13:12:25.441817 10496 net.cpp:156] Memory required for data: 828249200
I0403 13:12:25.441835 10496 layer_factory.hpp:77] Creating layer relu7
I0403 13:12:25.441856 10496 net.cpp:91] Creating Layer relu7
I0403 13:12:25.441874 10496 net.cpp:425] relu7 <- fc7
I0403 13:12:25.441891 10496 net.cpp:386] relu7 -> fc7 (in-place)
I0403 13:12:25.442296 10496 net.cpp:141] Setting up relu7
I0403 13:12:25.442323 10496 net.cpp:148] Top shape: 100 4096 (409600)
I0403 13:12:25.442376 10496 net.cpp:156] Memory required for data: 829887600
I0403 13:12:25.442391 10496 layer_factory.hpp:77] Creating layer drop7
I0403 13:12:25.442409 10496 net.cpp:91] Creating Layer drop7
I0403 13:12:25.442425 10496 net.cpp:425] drop7 <- fc7
I0403 13:12:25.442440 10496 net.cpp:386] drop7 -> fc7 (in-place)
I0403 13:12:25.442482 10496 net.cpp:141] Setting up drop7
I0403 13:12:25.442503 10496 net.cpp:148] Top shape: 100 4096 (409600)
I0403 13:12:25.442517 10496 net.cpp:156] Memory required for data: 831526000
I0403 13:12:25.442530 10496 layer_factory.hpp:77] Creating layer fc8_plantvillage
I0403 13:12:25.442550 10496 net.cpp:91] Creating Layer fc8_plantvillage
I0403 13:12:25.442565 10496 net.cpp:425] fc8_plantvillage <- fc7
I0403 13:12:25.442589 10496 net.cpp:399] fc8_plantvillage -> fc8_plantvillage
I0403 13:12:25.449093 10496 net.cpp:141] Setting up fc8_plantvillage
I0403 13:12:25.449121 10496 net.cpp:148] Top shape: 100 38 (3800)
I0403 13:12:25.449136 10496 net.cpp:156] Memory required for data: 831541200
I0403 13:12:25.449151 10496 layer_factory.hpp:77] Creating layer fc8_plantvillage_fc8_plantvillage_0_split
I0403 13:12:25.449168 10496 net.cpp:91] Creating Layer fc8_plantvillage_fc8_plantvillage_0_split
I0403 13:12:25.449183 10496 net.cpp:425] fc8_plantvillage_fc8_plantvillage_0_split <- fc8_plantvillage
I0403 13:12:25.449200 10496 net.cpp:399] fc8_plantvillage_fc8_plantvillage_0_split -> fc8_plantvillage_fc8_plantvillage_0_split_0
I0403 13:12:25.449220 10496 net.cpp:399] fc8_plantvillage_fc8_plantvillage_0_split -> fc8_plantvillage_fc8_plantvillage_0_split_1
I0403 13:12:25.449239 10496 net.cpp:399] fc8_plantvillage_fc8_plantvillage_0_split -> fc8_plantvillage_fc8_plantvillage_0_split_2
I0403 13:12:25.449322 10496 net.cpp:141] Setting up fc8_plantvillage_fc8_plantvillage_0_split
I0403 13:12:25.449347 10496 net.cpp:148] Top shape: 100 38 (3800)
I0403 13:12:25.449365 10496 net.cpp:148] Top shape: 100 38 (3800)
I0403 13:12:25.449380 10496 net.cpp:148] Top shape: 100 38 (3800)
I0403 13:12:25.449393 10496 net.cpp:156] Memory required for data: 831586800
I0403 13:12:25.449406 10496 layer_factory.hpp:77] Creating layer prob
I0403 13:12:25.449425 10496 net.cpp:91] Creating Layer prob
I0403 13:12:25.449441 10496 net.cpp:425] prob <- fc8_plantvillage_fc8_plantvillage_0_split_0
I0403 13:12:25.449457 10496 net.cpp:399] prob -> prob
I0403 13:12:25.449693 10496 net.cpp:141] Setting up prob
I0403 13:12:25.449722 10496 net.cpp:148] Top shape: 100 38 (3800)
I0403 13:12:25.449736 10496 net.cpp:156] Memory required for data: 831602000
I0403 13:12:25.449749 10496 layer_factory.hpp:77] Creating layer hdf5out
I0403 13:12:25.449766 10496 net.cpp:91] Creating Layer hdf5out
I0403 13:12:25.449780 10496 net.cpp:425] hdf5out <- prob
I0403 13:12:25.449795 10496 net.cpp:425] hdf5out <- label_data_1_split_0
I0403 13:12:25.452041 10496 net.cpp:141] Setting up hdf5out
…
