…
I0403 13:17:29.035380 10669 net.cpp:313] The NetState phase (1) differed from the phase (0) specified by a rule in layer data
I0403 13:17:29.035698 10669 net.cpp:49] Initializing net from parameters: 
state {
  phase: TEST
}
layer {
  name: "data"
  type: "Data"
  top: "data"
  top: "label"
  include {
    phase: TEST
  }
  transform_param {
    crop_size: 227
    mean_file: "/home/mohanty/data/final_dataset/lmdb/color-80-20/mean.binaryproto"
  }
  data_param {
    source: "/home/mohanty/data/final_dataset/lmdb/color-80-20/test_db"
    batch_size: 100
    backend: LMDB
  }
}
layer {
  name: "conv1"
  type: "Convolution"
  bottom: "data"
  top: "conv1"
  param {
    lr_mult: 1
    decay_mult: 1
  }
  param {
    lr_mult: 2
    decay_mult: 0
  }
  convolution_param {
    num_output: 96
    kernel_size: 11
    stride: 4
    weight_filler {
      type: "gaussian"
      std: 0.01
    }
    bias_filler {
      type: "constant"
      value: 0
    }
  }
}
layer {
  name: "relu1"
  type: "ReLU"
  bottom: "conv1"
  top: "conv1"
}
layer {
  name: "norm1"
  type: "LRN"
  bottom: "conv1"
  top: "norm1"
  lrn_param {
    local_size: 5
    alpha: 0.0001
    beta: 0.75
  }
}
layer {
  name: "pool1"
  type: "Pooling"
  bottom: "norm1"
  top: "pool1"
  pooling_param {
    pool: MAX
    kernel_size: 3
    stride: 2
  }
}
layer {
  name: "conv2"
  type: "Convolution"
  bottom: "pool1"
  top: "conv2"
  param {
    lr_mult: 1
    decay_mult: 1
  }
  param {
    lr_mult: 2
    decay_mult: 0
  }
  convolution_param {
    num_output: 256
    pad: 2
    kernel_size: 5
    group: 2
    weight_filler {
      type: "gaussian"
      std: 0.01
    }
    bias_filler {
      type: "constant"
      value: 0.1
    }
  }
}
layer {
  name: "relu2"
  type: "ReLU"
  bottom: "conv2"
  top: "conv2"
}
layer {
  name: "norm2"
  type: "LRN"
  bottom: "conv2"
  top: "norm2"
  lrn_param {
    local_size: 5
    alpha: 0.0001
    beta: 0.75
  }
}
layer {
  name: "pool2"
  type: "Pooling"
  bottom: "norm2"
  top: "pool2"
  pooling_param {
    pool: MAX
    kernel_size: 3
    stride: 2
  }
}
layer {
  name: "conv3"
  type: "Convolution"
  bottom: "pool2"
  top: "conv3"
  param {
    lr_mult: 1
    decay_mult: 1
  }
  param {
    lr_mult: 2
    decay_mult: 0
  }
  convolution_param {
    num_output: 384
    pad: 1
    kernel_size: 3
    weight_filler {
      type: "gaussian"
      std: 0.01
    }
    bias_filler {
      type: "constant"
      value: 0
    }
  }
}
layer {
  name: "relu3"
  type: "ReLU"
  bottom: "conv3"
  top: "conv3"
}
layer {
  name: "conv4"
  type: "Convolution"
  bottom: "conv3"
  top: "conv4"
  param {
    lr_mult: 1
    decay_mult: 1
  }
  param {
    lr_mult: 2
    decay_mult: 0
  }
  convolution_param {
    num_output: 384
    pad: 1
    kernel_size: 3
    group: 2
    weight_filler {
      type: "gaussian"
      std: 0.01
    }
    bias_filler {
      type: "constant"
      value: 0.1
    }
  }
}
layer {
  name: "relu4"
  type: "ReLU"
  bottom: "conv4"
  top: "conv4"
}
layer {
  name: "conv5"
  type: "Convolution"
  bottom: "conv4"
  top: "conv5"
  param {
    lr_mult: 1
    decay_mult: 1
  }
  param {
    lr_mult: 2
    decay_mult: 0
  }
  convolution_param {
    num_output: 256
    pad: 1
    kernel_size: 3
    group: 2
    weight_filler {
      type: "gaussian"
      std: 0.01
    }
    bias_filler {
      type: "constant"
      value: 0.1
    }
  }
}
layer {
  name: "relu5"
  type: "ReLU"
  bottom: "conv5"
  top: "conv5"
}
layer {
  name: "pool5"
  type: "Pooling"
  bottom: "conv5"
  top: "pool5"
  pooling_param {
    pool: MAX
    kernel_size: 3
    stride: 2
  }
}
layer {
  name: "fc6"
  type: "InnerProduct"
  bottom: "pool5"
  top: "fc6"
  param {
    lr_mult: 1
    decay_mult: 1
  }
  param {
    lr_mult: 2
    decay_mult: 0
  }
  inner_product_param {
    num_output: 4096
    weight_filler {
      type: "gaussian"
      std: 0.005
    }
    bias_filler {
      type: "constant"
      value: 0.1
    }
  }
}
layer {
  name: "relu6"
  type: "ReLU"
  bottom: "fc6"
  top: "fc6"
}
layer {
  name: "drop6"
  type: "Dropout"
  bottom: "fc6"
  top: "fc6"
  dropout_param {
    dropout_ratio: 0.5
  }
}
layer {
  name: "fc7"
  type: "InnerProduct"
  bottom: "fc6"
  top: "fc7"
  param {
    lr_mult: 1
    decay_mult: 1
  }
  param {
    lr_mult: 2
    decay_mult: 0
  }
  inner_product_param {
    num_output: 4096
    weight_filler {
      type: "gaussian"
      std: 0.005
    }
    bias_filler {
      type: "constant"
      value: 0.1
    }
  }
}
layer {
  name: "relu7"
  type: "ReLU"
  bottom: "fc7"
  top: "fc7"
}
layer {
  name: "drop7"
  type: "Dropout"
  bottom: "fc7"
  top: "fc7"
  dropout_param {
    dropout_ratio: 0.5
  }
}
layer {
  name: "fc8_plantvillage"
  type: "InnerProduct"
  bottom: "fc7"
  top: "fc8_plantvillage"
  param {
    lr_mult: 1
    decay_mult: 1
  }
  param {
    lr_mult: 2
    decay_mult: 0
  }
  inner_product_param {
    num_output: 38
    weight_filler {
      type: "gaussian"
      std: 0.01
    }
    bias_filler {
      type: "constant"
      value: 0
    }
  }
}
layer {
  name: "prob"
  type: "Softmax"
  bottom: "fc8_plantvillage"
  top: "prob"
  include {
    phase: TEST
  }
}
layer {
  name: "hdf5out"
  type: "HDF5Output"
  bottom: "prob"
  bottom: "label"
  include {
    phase: TEST
  }
  hdf5_output_param {
    file_name: "hdf5_dumps/iter_8740.h5"
  }
}
layer {
  name: "loss"
  type: "SoftmaxWithLoss"
  bottom: "fc8_plantvillage"
  bottom: "label"
  top: "loss"
}
layer {
  name: "accuracy"
  type: "Accuracy"
  bottom: "fc8_plantvillage"
  bottom: "label"
  top: "accuracy"
  include {
    phase: TEST
  }
}
I0403 13:17:29.036291 10669 layer_factory.hpp:77] Creating layer data
I0403 13:17:29.036949 10669 net.cpp:91] Creating Layer data
I0403 13:17:29.036979 10669 net.cpp:399] data -> data
I0403 13:17:29.037031 10669 net.cpp:399] data -> label
I0403 13:17:29.037067 10669 data_transformer.cpp:25] Loading mean file from: /home/mohanty/data/final_dataset/lmdb/color-80-20/mean.binaryproto
I0403 13:17:29.039954 10673 db_lmdb.cpp:38] Opened lmdb /home/mohanty/data/final_dataset/lmdb/color-80-20/test_db
I0403 13:17:29.051494 10669 data_layer.cpp:41] output data size: 100,3,227,227
I0403 13:17:29.170282 10669 net.cpp:141] Setting up data
I0403 13:17:29.170372 10669 net.cpp:148] Top shape: 100 3 227 227 (15458700)
I0403 13:17:29.170394 10669 net.cpp:148] Top shape: 100 (100)
I0403 13:17:29.170409 10669 net.cpp:156] Memory required for data: 61835200
I0403 13:17:29.170436 10669 layer_factory.hpp:77] Creating layer label_data_1_split
I0403 13:17:29.170460 10669 net.cpp:91] Creating Layer label_data_1_split
I0403 13:17:29.170477 10669 net.cpp:425] label_data_1_split <- label
I0403 13:17:29.170508 10669 net.cpp:399] label_data_1_split -> label_data_1_split_0
I0403 13:17:29.170534 10669 net.cpp:399] label_data_1_split -> label_data_1_split_1
I0403 13:17:29.170554 10669 net.cpp:399] label_data_1_split -> label_data_1_split_2
I0403 13:17:29.170620 10669 net.cpp:141] Setting up label_data_1_split
I0403 13:17:29.170642 10669 net.cpp:148] Top shape: 100 (100)
I0403 13:17:29.170658 10669 net.cpp:148] Top shape: 100 (100)
I0403 13:17:29.170673 10669 net.cpp:148] Top shape: 100 (100)
I0403 13:17:29.170686 10669 net.cpp:156] Memory required for data: 61836400
I0403 13:17:29.170699 10669 layer_factory.hpp:77] Creating layer conv1
I0403 13:17:29.170729 10669 net.cpp:91] Creating Layer conv1
I0403 13:17:29.170747 10669 net.cpp:425] conv1 <- data
I0403 13:17:29.170765 10669 net.cpp:399] conv1 -> conv1
I0403 13:17:29.312784 10669 net.cpp:141] Setting up conv1
I0403 13:17:29.312860 10669 net.cpp:148] Top shape: 100 96 55 55 (29040000)
I0403 13:17:29.312877 10669 net.cpp:156] Memory required for data: 177996400
I0403 13:17:29.312908 10669 layer_factory.hpp:77] Creating layer relu1
I0403 13:17:29.312937 10669 net.cpp:91] Creating Layer relu1
I0403 13:17:29.312954 10669 net.cpp:425] relu1 <- conv1
I0403 13:17:29.312973 10669 net.cpp:386] relu1 -> conv1 (in-place)
I0403 13:17:29.313280 10669 net.cpp:141] Setting up relu1
I0403 13:17:29.313318 10669 net.cpp:148] Top shape: 100 96 55 55 (29040000)
I0403 13:17:29.313333 10669 net.cpp:156] Memory required for data: 294156400
I0403 13:17:29.313386 10669 layer_factory.hpp:77] Creating layer norm1
I0403 13:17:29.313417 10669 net.cpp:91] Creating Layer norm1
I0403 13:17:29.313434 10669 net.cpp:425] norm1 <- conv1
I0403 13:17:29.313453 10669 net.cpp:399] norm1 -> norm1
I0403 13:17:29.313777 10669 net.cpp:141] Setting up norm1
I0403 13:17:29.313807 10669 net.cpp:148] Top shape: 100 96 55 55 (29040000)
I0403 13:17:29.313822 10669 net.cpp:156] Memory required for data: 410316400
I0403 13:17:29.313838 10669 layer_factory.hpp:77] Creating layer pool1
I0403 13:17:29.313860 10669 net.cpp:91] Creating Layer pool1
I0403 13:17:29.313876 10669 net.cpp:425] pool1 <- norm1
I0403 13:17:29.313895 10669 net.cpp:399] pool1 -> pool1
I0403 13:17:29.313963 10669 net.cpp:141] Setting up pool1
I0403 13:17:29.313987 10669 net.cpp:148] Top shape: 100 96 27 27 (6998400)
I0403 13:17:29.314000 10669 net.cpp:156] Memory required for data: 438310000
I0403 13:17:29.314028 10669 layer_factory.hpp:77] Creating layer conv2
I0403 13:17:29.314054 10669 net.cpp:91] Creating Layer conv2
I0403 13:17:29.314072 10669 net.cpp:425] conv2 <- pool1
I0403 13:17:29.314095 10669 net.cpp:399] conv2 -> conv2
I0403 13:17:29.329684 10669 net.cpp:141] Setting up conv2
I0403 13:17:29.329740 10669 net.cpp:148] Top shape: 100 256 27 27 (18662400)
I0403 13:17:29.329757 10669 net.cpp:156] Memory required for data: 512959600
I0403 13:17:29.329779 10669 layer_factory.hpp:77] Creating layer relu2
I0403 13:17:29.329800 10669 net.cpp:91] Creating Layer relu2
I0403 13:17:29.329816 10669 net.cpp:425] relu2 <- conv2
I0403 13:17:29.329836 10669 net.cpp:386] relu2 -> conv2 (in-place)
I0403 13:17:29.330117 10669 net.cpp:141] Setting up relu2
I0403 13:17:29.330145 10669 net.cpp:148] Top shape: 100 256 27 27 (18662400)
I0403 13:17:29.330160 10669 net.cpp:156] Memory required for data: 587609200
I0403 13:17:29.330174 10669 layer_factory.hpp:77] Creating layer norm2
I0403 13:17:29.330198 10669 net.cpp:91] Creating Layer norm2
I0403 13:17:29.330214 10669 net.cpp:425] norm2 <- conv2
I0403 13:17:29.330231 10669 net.cpp:399] norm2 -> norm2
I0403 13:17:29.330445 10669 net.cpp:141] Setting up norm2
I0403 13:17:29.330472 10669 net.cpp:148] Top shape: 100 256 27 27 (18662400)
I0403 13:17:29.330489 10669 net.cpp:156] Memory required for data: 662258800
I0403 13:17:29.330505 10669 layer_factory.hpp:77] Creating layer pool2
I0403 13:17:29.330524 10669 net.cpp:91] Creating Layer pool2
I0403 13:17:29.330539 10669 net.cpp:425] pool2 <- norm2
I0403 13:17:29.330560 10669 net.cpp:399] pool2 -> pool2
I0403 13:17:29.330620 10669 net.cpp:141] Setting up pool2
I0403 13:17:29.330643 10669 net.cpp:148] Top shape: 100 256 13 13 (4326400)
I0403 13:17:29.330658 10669 net.cpp:156] Memory required for data: 679564400
I0403 13:17:29.330673 10669 layer_factory.hpp:77] Creating layer conv3
I0403 13:17:29.330698 10669 net.cpp:91] Creating Layer conv3
I0403 13:17:29.330726 10669 net.cpp:425] conv3 <- pool2
I0403 13:17:29.330746 10669 net.cpp:399] conv3 -> conv3
I0403 13:17:29.374495 10669 net.cpp:141] Setting up conv3
I0403 13:17:29.374572 10669 net.cpp:148] Top shape: 100 384 13 13 (6489600)
I0403 13:17:29.374588 10669 net.cpp:156] Memory required for data: 705522800
I0403 13:17:29.374630 10669 layer_factory.hpp:77] Creating layer relu3
I0403 13:17:29.374655 10669 net.cpp:91] Creating Layer relu3
I0403 13:17:29.374673 10669 net.cpp:425] relu3 <- conv3
I0403 13:17:29.374692 10669 net.cpp:386] relu3 -> conv3 (in-place)
I0403 13:17:29.374968 10669 net.cpp:141] Setting up relu3
I0403 13:17:29.374997 10669 net.cpp:148] Top shape: 100 384 13 13 (6489600)
I0403 13:17:29.375013 10669 net.cpp:156] Memory required for data: 731481200
I0403 13:17:29.375028 10669 layer_factory.hpp:77] Creating layer conv4
I0403 13:17:29.375054 10669 net.cpp:91] Creating Layer conv4
I0403 13:17:29.375072 10669 net.cpp:425] conv4 <- conv3
I0403 13:17:29.375092 10669 net.cpp:399] conv4 -> conv4
I0403 13:17:29.404822 10669 net.cpp:141] Setting up conv4
I0403 13:17:29.404892 10669 net.cpp:148] Top shape: 100 384 13 13 (6489600)
I0403 13:17:29.404949 10669 net.cpp:156] Memory required for data: 757439600
I0403 13:17:29.404971 10669 layer_factory.hpp:77] Creating layer relu4
I0403 13:17:29.404994 10669 net.cpp:91] Creating Layer relu4
I0403 13:17:29.405011 10669 net.cpp:425] relu4 <- conv4
I0403 13:17:29.405030 10669 net.cpp:386] relu4 -> conv4 (in-place)
I0403 13:17:29.405308 10669 net.cpp:141] Setting up relu4
I0403 13:17:29.405335 10669 net.cpp:148] Top shape: 100 384 13 13 (6489600)
I0403 13:17:29.405354 10669 net.cpp:156] Memory required for data: 783398000
I0403 13:17:29.405369 10669 layer_factory.hpp:77] Creating layer conv5
I0403 13:17:29.405391 10669 net.cpp:91] Creating Layer conv5
I0403 13:17:29.405407 10669 net.cpp:425] conv5 <- conv4
I0403 13:17:29.405428 10669 net.cpp:399] conv5 -> conv5
I0403 13:17:29.425860 10669 net.cpp:141] Setting up conv5
I0403 13:17:29.425915 10669 net.cpp:148] Top shape: 100 256 13 13 (4326400)
I0403 13:17:29.425930 10669 net.cpp:156] Memory required for data: 800703600
I0403 13:17:29.425956 10669 layer_factory.hpp:77] Creating layer relu5
I0403 13:17:29.425978 10669 net.cpp:91] Creating Layer relu5
I0403 13:17:29.425994 10669 net.cpp:425] relu5 <- conv5
I0403 13:17:29.426015 10669 net.cpp:386] relu5 -> conv5 (in-place)
I0403 13:17:29.426292 10669 net.cpp:141] Setting up relu5
I0403 13:17:29.426322 10669 net.cpp:148] Top shape: 100 256 13 13 (4326400)
I0403 13:17:29.426338 10669 net.cpp:156] Memory required for data: 818009200
I0403 13:17:29.426353 10669 layer_factory.hpp:77] Creating layer pool5
I0403 13:17:29.426375 10669 net.cpp:91] Creating Layer pool5
I0403 13:17:29.426391 10669 net.cpp:425] pool5 <- conv5
I0403 13:17:29.426411 10669 net.cpp:399] pool5 -> pool5
I0403 13:17:29.426473 10669 net.cpp:141] Setting up pool5
I0403 13:17:29.426499 10669 net.cpp:148] Top shape: 100 256 6 6 (921600)
I0403 13:17:29.426515 10669 net.cpp:156] Memory required for data: 821695600
I0403 13:17:29.426532 10669 layer_factory.hpp:77] Creating layer fc6
I0403 13:17:29.426560 10669 net.cpp:91] Creating Layer fc6
I0403 13:17:29.426578 10669 net.cpp:425] fc6 <- pool5
I0403 13:17:29.426605 10669 net.cpp:399] fc6 -> fc6
I0403 13:17:30.991760 10669 net.cpp:141] Setting up fc6
I0403 13:17:30.991840 10669 net.cpp:148] Top shape: 100 4096 (409600)
I0403 13:17:30.991858 10669 net.cpp:156] Memory required for data: 823334000
I0403 13:17:30.991880 10669 layer_factory.hpp:77] Creating layer relu6
I0403 13:17:30.991902 10669 net.cpp:91] Creating Layer relu6
I0403 13:17:30.991920 10669 net.cpp:425] relu6 <- fc6
I0403 13:17:30.991940 10669 net.cpp:386] relu6 -> fc6 (in-place)
I0403 13:17:30.992172 10669 net.cpp:141] Setting up relu6
I0403 13:17:30.992202 10669 net.cpp:148] Top shape: 100 4096 (409600)
I0403 13:17:30.992218 10669 net.cpp:156] Memory required for data: 824972400
I0403 13:17:30.992233 10669 layer_factory.hpp:77] Creating layer drop6
I0403 13:17:30.992252 10669 net.cpp:91] Creating Layer drop6
I0403 13:17:30.992269 10669 net.cpp:425] drop6 <- fc6
I0403 13:17:30.992288 10669 net.cpp:386] drop6 -> fc6 (in-place)
I0403 13:17:30.992352 10669 net.cpp:141] Setting up drop6
I0403 13:17:30.992375 10669 net.cpp:148] Top shape: 100 4096 (409600)
I0403 13:17:30.992390 10669 net.cpp:156] Memory required for data: 826610800
I0403 13:17:30.992406 10669 layer_factory.hpp:77] Creating layer fc7
I0403 13:17:30.992431 10669 net.cpp:91] Creating Layer fc7
I0403 13:17:30.992449 10669 net.cpp:425] fc7 <- fc6
I0403 13:17:30.992470 10669 net.cpp:399] fc7 -> fc7
I0403 13:17:31.691329 10669 net.cpp:141] Setting up fc7
I0403 13:17:31.691382 10669 net.cpp:148] Top shape: 100 4096 (409600)
I0403 13:17:31.691398 10669 net.cpp:156] Memory required for data: 828249200
I0403 13:17:31.691419 10669 layer_factory.hpp:77] Creating layer relu7
I0403 13:17:31.691442 10669 net.cpp:91] Creating Layer relu7
I0403 13:17:31.691457 10669 net.cpp:425] relu7 <- fc7
I0403 13:17:31.691475 10669 net.cpp:386] relu7 -> fc7 (in-place)
I0403 13:17:31.691882 10669 net.cpp:141] Setting up relu7
I0403 13:17:31.691911 10669 net.cpp:148] Top shape: 100 4096 (409600)
I0403 13:17:31.691959 10669 net.cpp:156] Memory required for data: 829887600
I0403 13:17:31.691975 10669 layer_factory.hpp:77] Creating layer drop7
I0403 13:17:31.691993 10669 net.cpp:91] Creating Layer drop7
I0403 13:17:31.692008 10669 net.cpp:425] drop7 <- fc7
I0403 13:17:31.692024 10669 net.cpp:386] drop7 -> fc7 (in-place)
I0403 13:17:31.692067 10669 net.cpp:141] Setting up drop7
I0403 13:17:31.692090 10669 net.cpp:148] Top shape: 100 4096 (409600)
I0403 13:17:31.692103 10669 net.cpp:156] Memory required for data: 831526000
I0403 13:17:31.692117 10669 layer_factory.hpp:77] Creating layer fc8_plantvillage
I0403 13:17:31.692139 10669 net.cpp:91] Creating Layer fc8_plantvillage
I0403 13:17:31.692155 10669 net.cpp:425] fc8_plantvillage <- fc7
I0403 13:17:31.692173 10669 net.cpp:399] fc8_plantvillage -> fc8_plantvillage
I0403 13:17:31.698861 10669 net.cpp:141] Setting up fc8_plantvillage
I0403 13:17:31.698889 10669 net.cpp:148] Top shape: 100 38 (3800)
I0403 13:17:31.698904 10669 net.cpp:156] Memory required for data: 831541200
I0403 13:17:31.698921 10669 layer_factory.hpp:77] Creating layer fc8_plantvillage_fc8_plantvillage_0_split
I0403 13:17:31.698940 10669 net.cpp:91] Creating Layer fc8_plantvillage_fc8_plantvillage_0_split
I0403 13:17:31.698953 10669 net.cpp:425] fc8_plantvillage_fc8_plantvillage_0_split <- fc8_plantvillage
I0403 13:17:31.698972 10669 net.cpp:399] fc8_plantvillage_fc8_plantvillage_0_split -> fc8_plantvillage_fc8_plantvillage_0_split_0
I0403 13:17:31.698992 10669 net.cpp:399] fc8_plantvillage_fc8_plantvillage_0_split -> fc8_plantvillage_fc8_plantvillage_0_split_1
I0403 13:17:31.699012 10669 net.cpp:399] fc8_plantvillage_fc8_plantvillage_0_split -> fc8_plantvillage_fc8_plantvillage_0_split_2
I0403 13:17:31.699085 10669 net.cpp:141] Setting up fc8_plantvillage_fc8_plantvillage_0_split
I0403 13:17:31.699107 10669 net.cpp:148] Top shape: 100 38 (3800)
I0403 13:17:31.699122 10669 net.cpp:148] Top shape: 100 38 (3800)
I0403 13:17:31.699137 10669 net.cpp:148] Top shape: 100 38 (3800)
I0403 13:17:31.699151 10669 net.cpp:156] Memory required for data: 831586800
I0403 13:17:31.699164 10669 layer_factory.hpp:77] Creating layer prob
I0403 13:17:31.699184 10669 net.cpp:91] Creating Layer prob
I0403 13:17:31.699199 10669 net.cpp:425] prob <- fc8_plantvillage_fc8_plantvillage_0_split_0
I0403 13:17:31.699218 10669 net.cpp:399] prob -> prob
I0403 13:17:31.699430 10669 net.cpp:141] Setting up prob
I0403 13:17:31.699458 10669 net.cpp:148] Top shape: 100 38 (3800)
I0403 13:17:31.699472 10669 net.cpp:156] Memory required for data: 831602000
I0403 13:17:31.699486 10669 layer_factory.hpp:77] Creating layer hdf5out
I0403 13:17:31.699504 10669 net.cpp:91] Creating Layer hdf5out
I0403 13:17:31.699518 10669 net.cpp:425] hdf5out <- prob
I0403 13:17:31.699533 10669 net.cpp:425] hdf5out <- label_data_1_split_0
I0403 13:17:31.702088 10669 net.cpp:141] Setting up hdf5out
…
