…
I0403 13:15:48.088786 10618 net.cpp:313] The NetState phase (1) differed from the phase (0) specified by a rule in layer data
I0403 13:15:48.089181 10618 net.cpp:49] Initializing net from parameters: 
state {
  phase: TEST
}
layer {
  name: "data"
  type: "Data"
  top: "data"
  top: "label"
  include {
    phase: TEST
  }
  transform_param {
    crop_size: 227
    mean_file: "/home/mohanty/data/final_dataset/lmdb/color-80-20/mean.binaryproto"
  }
  data_param {
    source: "/home/mohanty/data/final_dataset/lmdb/color-80-20/test_db"
    batch_size: 100
    backend: LMDB
  }
}
layer {
  name: "conv1"
  type: "Convolution"
  bottom: "data"
  top: "conv1"
  param {
    lr_mult: 1
    decay_mult: 1
  }
  param {
    lr_mult: 2
    decay_mult: 0
  }
  convolution_param {
    num_output: 96
    kernel_size: 11
    stride: 4
    weight_filler {
      type: "gaussian"
      std: 0.01
    }
    bias_filler {
      type: "constant"
      value: 0
    }
  }
}
layer {
  name: "relu1"
  type: "ReLU"
  bottom: "conv1"
  top: "conv1"
}
layer {
  name: "norm1"
  type: "LRN"
  bottom: "conv1"
  top: "norm1"
  lrn_param {
    local_size: 5
    alpha: 0.0001
    beta: 0.75
  }
}
layer {
  name: "pool1"
  type: "Pooling"
  bottom: "norm1"
  top: "pool1"
  pooling_param {
    pool: MAX
    kernel_size: 3
    stride: 2
  }
}
layer {
  name: "conv2"
  type: "Convolution"
  bottom: "pool1"
  top: "conv2"
  param {
    lr_mult: 1
    decay_mult: 1
  }
  param {
    lr_mult: 2
    decay_mult: 0
  }
  convolution_param {
    num_output: 256
    pad: 2
    kernel_size: 5
    group: 2
    weight_filler {
      type: "gaussian"
      std: 0.01
    }
    bias_filler {
      type: "constant"
      value: 0.1
    }
  }
}
layer {
  name: "relu2"
  type: "ReLU"
  bottom: "conv2"
  top: "conv2"
}
layer {
  name: "norm2"
  type: "LRN"
  bottom: "conv2"
  top: "norm2"
  lrn_param {
    local_size: 5
    alpha: 0.0001
    beta: 0.75
  }
}
layer {
  name: "pool2"
  type: "Pooling"
  bottom: "norm2"
  top: "pool2"
  pooling_param {
    pool: MAX
    kernel_size: 3
    stride: 2
  }
}
layer {
  name: "conv3"
  type: "Convolution"
  bottom: "pool2"
  top: "conv3"
  param {
    lr_mult: 1
    decay_mult: 1
  }
  param {
    lr_mult: 2
    decay_mult: 0
  }
  convolution_param {
    num_output: 384
    pad: 1
    kernel_size: 3
    weight_filler {
      type: "gaussian"
      std: 0.01
    }
    bias_filler {
      type: "constant"
      value: 0
    }
  }
}
layer {
  name: "relu3"
  type: "ReLU"
  bottom: "conv3"
  top: "conv3"
}
layer {
  name: "conv4"
  type: "Convolution"
  bottom: "conv3"
  top: "conv4"
  param {
    lr_mult: 1
    decay_mult: 1
  }
  param {
    lr_mult: 2
    decay_mult: 0
  }
  convolution_param {
    num_output: 384
    pad: 1
    kernel_size: 3
    group: 2
    weight_filler {
      type: "gaussian"
      std: 0.01
    }
    bias_filler {
      type: "constant"
      value: 0.1
    }
  }
}
layer {
  name: "relu4"
  type: "ReLU"
  bottom: "conv4"
  top: "conv4"
}
layer {
  name: "conv5"
  type: "Convolution"
  bottom: "conv4"
  top: "conv5"
  param {
    lr_mult: 1
    decay_mult: 1
  }
  param {
    lr_mult: 2
    decay_mult: 0
  }
  convolution_param {
    num_output: 256
    pad: 1
    kernel_size: 3
    group: 2
    weight_filler {
      type: "gaussian"
      std: 0.01
    }
    bias_filler {
      type: "constant"
      value: 0.1
    }
  }
}
layer {
  name: "relu5"
  type: "ReLU"
  bottom: "conv5"
  top: "conv5"
}
layer {
  name: "pool5"
  type: "Pooling"
  bottom: "conv5"
  top: "pool5"
  pooling_param {
    pool: MAX
    kernel_size: 3
    stride: 2
  }
}
layer {
  name: "fc6"
  type: "InnerProduct"
  bottom: "pool5"
  top: "fc6"
  param {
    lr_mult: 1
    decay_mult: 1
  }
  param {
    lr_mult: 2
    decay_mult: 0
  }
  inner_product_param {
    num_output: 4096
    weight_filler {
      type: "gaussian"
      std: 0.005
    }
    bias_filler {
      type: "constant"
      value: 0.1
    }
  }
}
layer {
  name: "relu6"
  type: "ReLU"
  bottom: "fc6"
  top: "fc6"
}
layer {
  name: "drop6"
  type: "Dropout"
  bottom: "fc6"
  top: "fc6"
  dropout_param {
    dropout_ratio: 0.5
  }
}
layer {
  name: "fc7"
  type: "InnerProduct"
  bottom: "fc6"
  top: "fc7"
  param {
    lr_mult: 1
    decay_mult: 1
  }
  param {
    lr_mult: 2
    decay_mult: 0
  }
  inner_product_param {
    num_output: 4096
    weight_filler {
      type: "gaussian"
      std: 0.005
    }
    bias_filler {
      type: "constant"
      value: 0.1
    }
  }
}
layer {
  name: "relu7"
  type: "ReLU"
  bottom: "fc7"
  top: "fc7"
}
layer {
  name: "drop7"
  type: "Dropout"
  bottom: "fc7"
  top: "fc7"
  dropout_param {
    dropout_ratio: 0.5
  }
}
layer {
  name: "fc8_plantvillage"
  type: "InnerProduct"
  bottom: "fc7"
  top: "fc8_plantvillage"
  param {
    lr_mult: 1
    decay_mult: 1
  }
  param {
    lr_mult: 2
    decay_mult: 0
  }
  inner_product_param {
    num_output: 38
    weight_filler {
      type: "gaussian"
      std: 0.01
    }
    bias_filler {
      type: "constant"
      value: 0
    }
  }
}
layer {
  name: "prob"
  type: "Softmax"
  bottom: "fc8_plantvillage"
  top: "prob"
  include {
    phase: TEST
  }
}
layer {
  name: "hdf5out"
  type: "HDF5Output"
  bottom: "prob"
  bottom: "label"
  include {
    phase: TEST
  }
  hdf5_output_param {
    file_name: "hdf5_dumps/iter_6992.h5"
  }
}
layer {
  name: "loss"
  type: "SoftmaxWithLoss"
  bottom: "fc8_plantvillage"
  bottom: "label"
  top: "loss"
}
layer {
  name: "accuracy"
  type: "Accuracy"
  bottom: "fc8_plantvillage"
  bottom: "label"
  top: "accuracy"
  include {
    phase: TEST
  }
}
I0403 13:15:48.089869 10618 layer_factory.hpp:77] Creating layer data
I0403 13:15:48.090675 10618 net.cpp:91] Creating Layer data
I0403 13:15:48.090711 10618 net.cpp:399] data -> data
I0403 13:15:48.090773 10618 net.cpp:399] data -> label
I0403 13:15:48.090816 10618 data_transformer.cpp:25] Loading mean file from: /home/mohanty/data/final_dataset/lmdb/color-80-20/mean.binaryproto
I0403 13:15:48.093780 10623 db_lmdb.cpp:38] Opened lmdb /home/mohanty/data/final_dataset/lmdb/color-80-20/test_db
I0403 13:15:48.107682 10618 data_layer.cpp:41] output data size: 100,3,227,227
I0403 13:15:48.241663 10618 net.cpp:141] Setting up data
I0403 13:15:48.241770 10618 net.cpp:148] Top shape: 100 3 227 227 (15458700)
I0403 13:15:48.241796 10618 net.cpp:148] Top shape: 100 (100)
I0403 13:15:48.241813 10618 net.cpp:156] Memory required for data: 61835200
I0403 13:15:48.241845 10618 layer_factory.hpp:77] Creating layer label_data_1_split
I0403 13:15:48.241875 10618 net.cpp:91] Creating Layer label_data_1_split
I0403 13:15:48.241896 10618 net.cpp:425] label_data_1_split <- label
I0403 13:15:48.241933 10618 net.cpp:399] label_data_1_split -> label_data_1_split_0
I0403 13:15:48.241966 10618 net.cpp:399] label_data_1_split -> label_data_1_split_1
I0403 13:15:48.241991 10618 net.cpp:399] label_data_1_split -> label_data_1_split_2
I0403 13:15:48.242069 10618 net.cpp:141] Setting up label_data_1_split
I0403 13:15:48.242095 10618 net.cpp:148] Top shape: 100 (100)
I0403 13:15:48.242115 10618 net.cpp:148] Top shape: 100 (100)
I0403 13:15:48.242132 10618 net.cpp:148] Top shape: 100 (100)
I0403 13:15:48.242148 10618 net.cpp:156] Memory required for data: 61836400
I0403 13:15:48.242166 10618 layer_factory.hpp:77] Creating layer conv1
I0403 13:15:48.242202 10618 net.cpp:91] Creating Layer conv1
I0403 13:15:48.242223 10618 net.cpp:425] conv1 <- data
I0403 13:15:48.242246 10618 net.cpp:399] conv1 -> conv1
I0403 13:15:48.404510 10618 net.cpp:141] Setting up conv1
I0403 13:15:48.404597 10618 net.cpp:148] Top shape: 100 96 55 55 (29040000)
I0403 13:15:48.404634 10618 net.cpp:156] Memory required for data: 177996400
I0403 13:15:48.404671 10618 layer_factory.hpp:77] Creating layer relu1
I0403 13:15:48.404707 10618 net.cpp:91] Creating Layer relu1
I0403 13:15:48.404731 10618 net.cpp:425] relu1 <- conv1
I0403 13:15:48.404752 10618 net.cpp:386] relu1 -> conv1 (in-place)
I0403 13:15:48.405083 10618 net.cpp:141] Setting up relu1
I0403 13:15:48.405117 10618 net.cpp:148] Top shape: 100 96 55 55 (29040000)
I0403 13:15:48.405140 10618 net.cpp:156] Memory required for data: 294156400
I0403 13:15:48.405199 10618 layer_factory.hpp:77] Creating layer norm1
I0403 13:15:48.405243 10618 net.cpp:91] Creating Layer norm1
I0403 13:15:48.405267 10618 net.cpp:425] norm1 <- conv1
I0403 13:15:48.405292 10618 net.cpp:399] norm1 -> norm1
I0403 13:15:48.405696 10618 net.cpp:141] Setting up norm1
I0403 13:15:48.405733 10618 net.cpp:148] Top shape: 100 96 55 55 (29040000)
I0403 13:15:48.405753 10618 net.cpp:156] Memory required for data: 410316400
I0403 13:15:48.405771 10618 layer_factory.hpp:77] Creating layer pool1
I0403 13:15:48.405798 10618 net.cpp:91] Creating Layer pool1
I0403 13:15:48.405818 10618 net.cpp:425] pool1 <- norm1
I0403 13:15:48.405843 10618 net.cpp:399] pool1 -> pool1
I0403 13:15:48.405926 10618 net.cpp:141] Setting up pool1
I0403 13:15:48.405954 10618 net.cpp:148] Top shape: 100 96 27 27 (6998400)
I0403 13:15:48.405973 10618 net.cpp:156] Memory required for data: 438310000
I0403 13:15:48.405990 10618 layer_factory.hpp:77] Creating layer conv2
I0403 13:15:48.406023 10618 net.cpp:91] Creating Layer conv2
I0403 13:15:48.406045 10618 net.cpp:425] conv2 <- pool1
I0403 13:15:48.406067 10618 net.cpp:399] conv2 -> conv2
I0403 13:15:48.423902 10618 net.cpp:141] Setting up conv2
I0403 13:15:48.423950 10618 net.cpp:148] Top shape: 100 256 27 27 (18662400)
I0403 13:15:48.423971 10618 net.cpp:156] Memory required for data: 512959600
I0403 13:15:48.423997 10618 layer_factory.hpp:77] Creating layer relu2
I0403 13:15:48.424021 10618 net.cpp:91] Creating Layer relu2
I0403 13:15:48.424039 10618 net.cpp:425] relu2 <- conv2
I0403 13:15:48.424062 10618 net.cpp:386] relu2 -> conv2 (in-place)
I0403 13:15:48.424396 10618 net.cpp:141] Setting up relu2
I0403 13:15:48.424429 10618 net.cpp:148] Top shape: 100 256 27 27 (18662400)
I0403 13:15:48.424446 10618 net.cpp:156] Memory required for data: 587609200
I0403 13:15:48.424464 10618 layer_factory.hpp:77] Creating layer norm2
I0403 13:15:48.424491 10618 net.cpp:91] Creating Layer norm2
I0403 13:15:48.424511 10618 net.cpp:425] norm2 <- conv2
I0403 13:15:48.424533 10618 net.cpp:399] norm2 -> norm2
I0403 13:15:48.424803 10618 net.cpp:141] Setting up norm2
I0403 13:15:48.424840 10618 net.cpp:148] Top shape: 100 256 27 27 (18662400)
I0403 13:15:48.424860 10618 net.cpp:156] Memory required for data: 662258800
I0403 13:15:48.424877 10618 layer_factory.hpp:77] Creating layer pool2
I0403 13:15:48.424898 10618 net.cpp:91] Creating Layer pool2
I0403 13:15:48.424917 10618 net.cpp:425] pool2 <- norm2
I0403 13:15:48.424940 10618 net.cpp:399] pool2 -> pool2
I0403 13:15:48.425004 10618 net.cpp:141] Setting up pool2
I0403 13:15:48.425031 10618 net.cpp:148] Top shape: 100 256 13 13 (4326400)
I0403 13:15:48.425050 10618 net.cpp:156] Memory required for data: 679564400
I0403 13:15:48.425066 10618 layer_factory.hpp:77] Creating layer conv3
I0403 13:15:48.425093 10618 net.cpp:91] Creating Layer conv3
I0403 13:15:48.425114 10618 net.cpp:425] conv3 <- pool2
I0403 13:15:48.425137 10618 net.cpp:399] conv3 -> conv3
I0403 13:15:48.469461 10618 net.cpp:141] Setting up conv3
I0403 13:15:48.469526 10618 net.cpp:148] Top shape: 100 384 13 13 (6489600)
I0403 13:15:48.469542 10618 net.cpp:156] Memory required for data: 705522800
I0403 13:15:48.469565 10618 layer_factory.hpp:77] Creating layer relu3
I0403 13:15:48.469588 10618 net.cpp:91] Creating Layer relu3
I0403 13:15:48.469609 10618 net.cpp:425] relu3 <- conv3
I0403 13:15:48.469627 10618 net.cpp:386] relu3 -> conv3 (in-place)
I0403 13:15:48.469904 10618 net.cpp:141] Setting up relu3
I0403 13:15:48.469933 10618 net.cpp:148] Top shape: 100 384 13 13 (6489600)
I0403 13:15:48.469947 10618 net.cpp:156] Memory required for data: 731481200
I0403 13:15:48.469961 10618 layer_factory.hpp:77] Creating layer conv4
I0403 13:15:48.469985 10618 net.cpp:91] Creating Layer conv4
I0403 13:15:48.470002 10618 net.cpp:425] conv4 <- conv3
I0403 13:15:48.470023 10618 net.cpp:399] conv4 -> conv4
I0403 13:15:48.498798 10618 net.cpp:141] Setting up conv4
I0403 13:15:48.498847 10618 net.cpp:148] Top shape: 100 384 13 13 (6489600)
I0403 13:15:48.498898 10618 net.cpp:156] Memory required for data: 757439600
I0403 13:15:48.498917 10618 layer_factory.hpp:77] Creating layer relu4
I0403 13:15:48.498936 10618 net.cpp:91] Creating Layer relu4
I0403 13:15:48.498951 10618 net.cpp:425] relu4 <- conv4
I0403 13:15:48.498968 10618 net.cpp:386] relu4 -> conv4 (in-place)
I0403 13:15:48.499239 10618 net.cpp:141] Setting up relu4
I0403 13:15:48.499269 10618 net.cpp:148] Top shape: 100 384 13 13 (6489600)
I0403 13:15:48.499286 10618 net.cpp:156] Memory required for data: 783398000
I0403 13:15:48.499300 10618 layer_factory.hpp:77] Creating layer conv5
I0403 13:15:48.499321 10618 net.cpp:91] Creating Layer conv5
I0403 13:15:48.499337 10618 net.cpp:425] conv5 <- conv4
I0403 13:15:48.499358 10618 net.cpp:399] conv5 -> conv5
I0403 13:15:48.519191 10618 net.cpp:141] Setting up conv5
I0403 13:15:48.519225 10618 net.cpp:148] Top shape: 100 256 13 13 (4326400)
I0403 13:15:48.519242 10618 net.cpp:156] Memory required for data: 800703600
I0403 13:15:48.519265 10618 layer_factory.hpp:77] Creating layer relu5
I0403 13:15:48.519285 10618 net.cpp:91] Creating Layer relu5
I0403 13:15:48.519301 10618 net.cpp:425] relu5 <- conv5
I0403 13:15:48.519320 10618 net.cpp:386] relu5 -> conv5 (in-place)
I0403 13:15:48.519605 10618 net.cpp:141] Setting up relu5
I0403 13:15:48.519635 10618 net.cpp:148] Top shape: 100 256 13 13 (4326400)
I0403 13:15:48.519652 10618 net.cpp:156] Memory required for data: 818009200
I0403 13:15:48.519666 10618 layer_factory.hpp:77] Creating layer pool5
I0403 13:15:48.519687 10618 net.cpp:91] Creating Layer pool5
I0403 13:15:48.519703 10618 net.cpp:425] pool5 <- conv5
I0403 13:15:48.519723 10618 net.cpp:399] pool5 -> pool5
I0403 13:15:48.519783 10618 net.cpp:141] Setting up pool5
I0403 13:15:48.519820 10618 net.cpp:148] Top shape: 100 256 6 6 (921600)
I0403 13:15:48.519836 10618 net.cpp:156] Memory required for data: 821695600
I0403 13:15:48.519851 10618 layer_factory.hpp:77] Creating layer fc6
I0403 13:15:48.519876 10618 net.cpp:91] Creating Layer fc6
I0403 13:15:48.519894 10618 net.cpp:425] fc6 <- pool5
I0403 13:15:48.519914 10618 net.cpp:399] fc6 -> fc6
I0403 13:15:50.045164 10618 net.cpp:141] Setting up fc6
I0403 13:15:50.045245 10618 net.cpp:148] Top shape: 100 4096 (409600)
I0403 13:15:50.045263 10618 net.cpp:156] Memory required for data: 823334000
I0403 13:15:50.045284 10618 layer_factory.hpp:77] Creating layer relu6
I0403 13:15:50.045305 10618 net.cpp:91] Creating Layer relu6
I0403 13:15:50.045322 10618 net.cpp:425] relu6 <- fc6
I0403 13:15:50.045341 10618 net.cpp:386] relu6 -> fc6 (in-place)
I0403 13:15:50.045562 10618 net.cpp:141] Setting up relu6
I0403 13:15:50.045588 10618 net.cpp:148] Top shape: 100 4096 (409600)
I0403 13:15:50.045608 10618 net.cpp:156] Memory required for data: 824972400
I0403 13:15:50.045622 10618 layer_factory.hpp:77] Creating layer drop6
I0403 13:15:50.045640 10618 net.cpp:91] Creating Layer drop6
I0403 13:15:50.045655 10618 net.cpp:425] drop6 <- fc6
I0403 13:15:50.045673 10618 net.cpp:386] drop6 -> fc6 (in-place)
I0403 13:15:50.045725 10618 net.cpp:141] Setting up drop6
I0403 13:15:50.045747 10618 net.cpp:148] Top shape: 100 4096 (409600)
I0403 13:15:50.045760 10618 net.cpp:156] Memory required for data: 826610800
I0403 13:15:50.045773 10618 layer_factory.hpp:77] Creating layer fc7
I0403 13:15:50.045799 10618 net.cpp:91] Creating Layer fc7
I0403 13:15:50.045815 10618 net.cpp:425] fc7 <- fc6
I0403 13:15:50.045835 10618 net.cpp:399] fc7 -> fc7
I0403 13:15:50.741312 10618 net.cpp:141] Setting up fc7
I0403 13:15:50.741377 10618 net.cpp:148] Top shape: 100 4096 (409600)
I0403 13:15:50.741396 10618 net.cpp:156] Memory required for data: 828249200
I0403 13:15:50.741418 10618 layer_factory.hpp:77] Creating layer relu7
I0403 13:15:50.741441 10618 net.cpp:91] Creating Layer relu7
I0403 13:15:50.741461 10618 net.cpp:425] relu7 <- fc7
I0403 13:15:50.741482 10618 net.cpp:386] relu7 -> fc7 (in-place)
I0403 13:15:50.741921 10618 net.cpp:141] Setting up relu7
I0403 13:15:50.756654 10618 net.cpp:148] Top shape: 100 4096 (409600)
I0403 13:15:50.756712 10618 net.cpp:156] Memory required for data: 829887600
I0403 13:15:50.756733 10618 layer_factory.hpp:77] Creating layer drop7
I0403 13:15:50.756754 10618 net.cpp:91] Creating Layer drop7
I0403 13:15:50.756772 10618 net.cpp:425] drop7 <- fc7
I0403 13:15:50.756790 10618 net.cpp:386] drop7 -> fc7 (in-place)
I0403 13:15:50.756844 10618 net.cpp:141] Setting up drop7
I0403 13:15:50.756871 10618 net.cpp:148] Top shape: 100 4096 (409600)
I0403 13:15:50.756888 10618 net.cpp:156] Memory required for data: 831526000
I0403 13:15:50.756907 10618 layer_factory.hpp:77] Creating layer fc8_plantvillage
I0403 13:15:50.756932 10618 net.cpp:91] Creating Layer fc8_plantvillage
I0403 13:15:50.756950 10618 net.cpp:425] fc8_plantvillage <- fc7
I0403 13:15:50.756983 10618 net.cpp:399] fc8_plantvillage -> fc8_plantvillage
I0403 13:15:50.764076 10618 net.cpp:141] Setting up fc8_plantvillage
I0403 13:15:50.764111 10618 net.cpp:148] Top shape: 100 38 (3800)
I0403 13:15:50.764127 10618 net.cpp:156] Memory required for data: 831541200
I0403 13:15:50.764147 10618 layer_factory.hpp:77] Creating layer fc8_plantvillage_fc8_plantvillage_0_split
I0403 13:15:50.764169 10618 net.cpp:91] Creating Layer fc8_plantvillage_fc8_plantvillage_0_split
I0403 13:15:50.764185 10618 net.cpp:425] fc8_plantvillage_fc8_plantvillage_0_split <- fc8_plantvillage
I0403 13:15:50.764207 10618 net.cpp:399] fc8_plantvillage_fc8_plantvillage_0_split -> fc8_plantvillage_fc8_plantvillage_0_split_0
I0403 13:15:50.764230 10618 net.cpp:399] fc8_plantvillage_fc8_plantvillage_0_split -> fc8_plantvillage_fc8_plantvillage_0_split_1
I0403 13:15:50.764252 10618 net.cpp:399] fc8_plantvillage_fc8_plantvillage_0_split -> fc8_plantvillage_fc8_plantvillage_0_split_2
I0403 13:15:50.764334 10618 net.cpp:141] Setting up fc8_plantvillage_fc8_plantvillage_0_split
I0403 13:15:50.764359 10618 net.cpp:148] Top shape: 100 38 (3800)
I0403 13:15:50.764377 10618 net.cpp:148] Top shape: 100 38 (3800)
I0403 13:15:50.764394 10618 net.cpp:148] Top shape: 100 38 (3800)
I0403 13:15:50.764408 10618 net.cpp:156] Memory required for data: 831586800
I0403 13:15:50.764423 10618 layer_factory.hpp:77] Creating layer prob
I0403 13:15:50.764446 10618 net.cpp:91] Creating Layer prob
I0403 13:15:50.764464 10618 net.cpp:425] prob <- fc8_plantvillage_fc8_plantvillage_0_split_0
I0403 13:15:50.764482 10618 net.cpp:399] prob -> prob
I0403 13:15:50.764734 10618 net.cpp:141] Setting up prob
I0403 13:15:50.764766 10618 net.cpp:148] Top shape: 100 38 (3800)
I0403 13:15:50.764783 10618 net.cpp:156] Memory required for data: 831602000
I0403 13:15:50.764799 10618 layer_factory.hpp:77] Creating layer hdf5out
I0403 13:15:50.764819 10618 net.cpp:91] Creating Layer hdf5out
I0403 13:15:50.764838 10618 net.cpp:425] hdf5out <- prob
I0403 13:15:50.764856 10618 net.cpp:425] hdf5out <- label_data_1_split_0
I0403 13:15:50.767211 10618 net.cpp:141] Setting up hdf5out
…
