…
I0403 13:20:49.326653 10927 net.cpp:313] The NetState phase (1) differed from the phase (0) specified by a rule in layer data
I0403 13:20:49.326972 10927 net.cpp:49] Initializing net from parameters: 
state {
  phase: TEST
}
layer {
  name: "data"
  type: "Data"
  top: "data"
  top: "label"
  include {
    phase: TEST
  }
  transform_param {
    crop_size: 227
    mean_file: "/home/mohanty/data/final_dataset/lmdb/color-80-20/mean.binaryproto"
  }
  data_param {
    source: "/home/mohanty/data/final_dataset/lmdb/color-80-20/test_db"
    batch_size: 100
    backend: LMDB
  }
}
layer {
  name: "conv1"
  type: "Convolution"
  bottom: "data"
  top: "conv1"
  param {
    lr_mult: 1
    decay_mult: 1
  }
  param {
    lr_mult: 2
    decay_mult: 0
  }
  convolution_param {
    num_output: 96
    kernel_size: 11
    stride: 4
    weight_filler {
      type: "gaussian"
      std: 0.01
    }
    bias_filler {
      type: "constant"
      value: 0
    }
  }
}
layer {
  name: "relu1"
  type: "ReLU"
  bottom: "conv1"
  top: "conv1"
}
layer {
  name: "norm1"
  type: "LRN"
  bottom: "conv1"
  top: "norm1"
  lrn_param {
    local_size: 5
    alpha: 0.0001
    beta: 0.75
  }
}
layer {
  name: "pool1"
  type: "Pooling"
  bottom: "norm1"
  top: "pool1"
  pooling_param {
    pool: MAX
    kernel_size: 3
    stride: 2
  }
}
layer {
  name: "conv2"
  type: "Convolution"
  bottom: "pool1"
  top: "conv2"
  param {
    lr_mult: 1
    decay_mult: 1
  }
  param {
    lr_mult: 2
    decay_mult: 0
  }
  convolution_param {
    num_output: 256
    pad: 2
    kernel_size: 5
    group: 2
    weight_filler {
      type: "gaussian"
      std: 0.01
    }
    bias_filler {
      type: "constant"
      value: 0.1
    }
  }
}
layer {
  name: "relu2"
  type: "ReLU"
  bottom: "conv2"
  top: "conv2"
}
layer {
  name: "norm2"
  type: "LRN"
  bottom: "conv2"
  top: "norm2"
  lrn_param {
    local_size: 5
    alpha: 0.0001
    beta: 0.75
  }
}
layer {
  name: "pool2"
  type: "Pooling"
  bottom: "norm2"
  top: "pool2"
  pooling_param {
    pool: MAX
    kernel_size: 3
    stride: 2
  }
}
layer {
  name: "conv3"
  type: "Convolution"
  bottom: "pool2"
  top: "conv3"
  param {
    lr_mult: 1
    decay_mult: 1
  }
  param {
    lr_mult: 2
    decay_mult: 0
  }
  convolution_param {
    num_output: 384
    pad: 1
    kernel_size: 3
    weight_filler {
      type: "gaussian"
      std: 0.01
    }
    bias_filler {
      type: "constant"
      value: 0
    }
  }
}
layer {
  name: "relu3"
  type: "ReLU"
  bottom: "conv3"
  top: "conv3"
}
layer {
  name: "conv4"
  type: "Convolution"
  bottom: "conv3"
  top: "conv4"
  param {
    lr_mult: 1
    decay_mult: 1
  }
  param {
    lr_mult: 2
    decay_mult: 0
  }
  convolution_param {
    num_output: 384
    pad: 1
    kernel_size: 3
    group: 2
    weight_filler {
      type: "gaussian"
      std: 0.01
    }
    bias_filler {
      type: "constant"
      value: 0.1
    }
  }
}
layer {
  name: "relu4"
  type: "ReLU"
  bottom: "conv4"
  top: "conv4"
}
layer {
  name: "conv5"
  type: "Convolution"
  bottom: "conv4"
  top: "conv5"
  param {
    lr_mult: 1
    decay_mult: 1
  }
  param {
    lr_mult: 2
    decay_mult: 0
  }
  convolution_param {
    num_output: 256
    pad: 1
    kernel_size: 3
    group: 2
    weight_filler {
      type: "gaussian"
      std: 0.01
    }
    bias_filler {
      type: "constant"
      value: 0.1
    }
  }
}
layer {
  name: "relu5"
  type: "ReLU"
  bottom: "conv5"
  top: "conv5"
}
layer {
  name: "pool5"
  type: "Pooling"
  bottom: "conv5"
  top: "pool5"
  pooling_param {
    pool: MAX
    kernel_size: 3
    stride: 2
  }
}
layer {
  name: "fc6"
  type: "InnerProduct"
  bottom: "pool5"
  top: "fc6"
  param {
    lr_mult: 1
    decay_mult: 1
  }
  param {
    lr_mult: 2
    decay_mult: 0
  }
  inner_product_param {
    num_output: 4096
    weight_filler {
      type: "gaussian"
      std: 0.005
    }
    bias_filler {
      type: "constant"
      value: 0.1
    }
  }
}
layer {
  name: "relu6"
  type: "ReLU"
  bottom: "fc6"
  top: "fc6"
}
layer {
  name: "drop6"
  type: "Dropout"
  bottom: "fc6"
  top: "fc6"
  dropout_param {
    dropout_ratio: 0.5
  }
}
layer {
  name: "fc7"
  type: "InnerProduct"
  bottom: "fc6"
  top: "fc7"
  param {
    lr_mult: 1
    decay_mult: 1
  }
  param {
    lr_mult: 2
    decay_mult: 0
  }
  inner_product_param {
    num_output: 4096
    weight_filler {
      type: "gaussian"
      std: 0.005
    }
    bias_filler {
      type: "constant"
      value: 0.1
    }
  }
}
layer {
  name: "relu7"
  type: "ReLU"
  bottom: "fc7"
  top: "fc7"
}
layer {
  name: "drop7"
  type: "Dropout"
  bottom: "fc7"
  top: "fc7"
  dropout_param {
    dropout_ratio: 0.5
  }
}
layer {
  name: "fc8_plantvillage"
  type: "InnerProduct"
  bottom: "fc7"
  top: "fc8_plantvillage"
  param {
    lr_mult: 1
    decay_mult: 1
  }
  param {
    lr_mult: 2
    decay_mult: 0
  }
  inner_product_param {
    num_output: 38
    weight_filler {
      type: "gaussian"
      std: 0.01
    }
    bias_filler {
      type: "constant"
      value: 0
    }
  }
}
layer {
  name: "prob"
  type: "Softmax"
  bottom: "fc8_plantvillage"
  top: "prob"
  include {
    phase: TEST
  }
}
layer {
  name: "hdf5out"
  type: "HDF5Output"
  bottom: "prob"
  bottom: "label"
  include {
    phase: TEST
  }
  hdf5_output_param {
    file_name: "hdf5_dumps/iter_12236.h5"
  }
}
layer {
  name: "loss"
  type: "SoftmaxWithLoss"
  bottom: "fc8_plantvillage"
  bottom: "label"
  top: "loss"
}
layer {
  name: "accuracy"
  type: "Accuracy"
  bottom: "fc8_plantvillage"
  bottom: "label"
  top: "accuracy"
  include {
    phase: TEST
  }
}
I0403 13:20:49.327550 10927 layer_factory.hpp:77] Creating layer data
I0403 13:20:49.328191 10927 net.cpp:91] Creating Layer data
I0403 13:20:49.328222 10927 net.cpp:399] data -> data
I0403 13:20:49.328272 10927 net.cpp:399] data -> label
I0403 13:20:49.328307 10927 data_transformer.cpp:25] Loading mean file from: /home/mohanty/data/final_dataset/lmdb/color-80-20/mean.binaryproto
I0403 13:20:49.331182 10933 db_lmdb.cpp:38] Opened lmdb /home/mohanty/data/final_dataset/lmdb/color-80-20/test_db
I0403 13:20:49.342911 10927 data_layer.cpp:41] output data size: 100,3,227,227
I0403 13:20:49.464967 10927 net.cpp:141] Setting up data
I0403 13:20:49.465025 10927 net.cpp:148] Top shape: 100 3 227 227 (15458700)
I0403 13:20:49.465047 10927 net.cpp:148] Top shape: 100 (100)
I0403 13:20:49.465062 10927 net.cpp:156] Memory required for data: 61835200
I0403 13:20:49.465090 10927 layer_factory.hpp:77] Creating layer label_data_1_split
I0403 13:20:49.465116 10927 net.cpp:91] Creating Layer label_data_1_split
I0403 13:20:49.465145 10927 net.cpp:425] label_data_1_split <- label
I0403 13:20:49.465179 10927 net.cpp:399] label_data_1_split -> label_data_1_split_0
I0403 13:20:49.465206 10927 net.cpp:399] label_data_1_split -> label_data_1_split_1
I0403 13:20:49.465227 10927 net.cpp:399] label_data_1_split -> label_data_1_split_2
I0403 13:20:49.465291 10927 net.cpp:141] Setting up label_data_1_split
I0403 13:20:49.465315 10927 net.cpp:148] Top shape: 100 (100)
I0403 13:20:49.465332 10927 net.cpp:148] Top shape: 100 (100)
I0403 13:20:49.465348 10927 net.cpp:148] Top shape: 100 (100)
I0403 13:20:49.465361 10927 net.cpp:156] Memory required for data: 61836400
I0403 13:20:49.465376 10927 layer_factory.hpp:77] Creating layer conv1
I0403 13:20:49.465409 10927 net.cpp:91] Creating Layer conv1
I0403 13:20:49.465427 10927 net.cpp:425] conv1 <- data
I0403 13:20:49.465446 10927 net.cpp:399] conv1 -> conv1
I0403 13:20:49.609334 10927 net.cpp:141] Setting up conv1
I0403 13:20:49.609376 10927 net.cpp:148] Top shape: 100 96 55 55 (29040000)
I0403 13:20:49.609393 10927 net.cpp:156] Memory required for data: 177996400
I0403 13:20:49.609426 10927 layer_factory.hpp:77] Creating layer relu1
I0403 13:20:49.609452 10927 net.cpp:91] Creating Layer relu1
I0403 13:20:49.609470 10927 net.cpp:425] relu1 <- conv1
I0403 13:20:49.609489 10927 net.cpp:386] relu1 -> conv1 (in-place)
I0403 13:20:49.609783 10927 net.cpp:141] Setting up relu1
I0403 13:20:49.609810 10927 net.cpp:148] Top shape: 100 96 55 55 (29040000)
I0403 13:20:49.609825 10927 net.cpp:156] Memory required for data: 294156400
I0403 13:20:49.609879 10927 layer_factory.hpp:77] Creating layer norm1
I0403 13:20:49.609920 10927 net.cpp:91] Creating Layer norm1
I0403 13:20:49.609938 10927 net.cpp:425] norm1 <- conv1
I0403 13:20:49.609956 10927 net.cpp:399] norm1 -> norm1
I0403 13:20:49.610278 10927 net.cpp:141] Setting up norm1
I0403 13:20:49.610306 10927 net.cpp:148] Top shape: 100 96 55 55 (29040000)
I0403 13:20:49.610321 10927 net.cpp:156] Memory required for data: 410316400
I0403 13:20:49.610335 10927 layer_factory.hpp:77] Creating layer pool1
I0403 13:20:49.610357 10927 net.cpp:91] Creating Layer pool1
I0403 13:20:49.610373 10927 net.cpp:425] pool1 <- norm1
I0403 13:20:49.610390 10927 net.cpp:399] pool1 -> pool1
I0403 13:20:49.610456 10927 net.cpp:141] Setting up pool1
I0403 13:20:49.610479 10927 net.cpp:148] Top shape: 100 96 27 27 (6998400)
I0403 13:20:49.610493 10927 net.cpp:156] Memory required for data: 438310000
I0403 13:20:49.610507 10927 layer_factory.hpp:77] Creating layer conv2
I0403 13:20:49.610530 10927 net.cpp:91] Creating Layer conv2
I0403 13:20:49.610545 10927 net.cpp:425] conv2 <- pool1
I0403 13:20:49.610563 10927 net.cpp:399] conv2 -> conv2
I0403 13:20:49.625668 10927 net.cpp:141] Setting up conv2
I0403 13:20:49.625720 10927 net.cpp:148] Top shape: 100 256 27 27 (18662400)
I0403 13:20:49.625735 10927 net.cpp:156] Memory required for data: 512959600
I0403 13:20:49.625757 10927 layer_factory.hpp:77] Creating layer relu2
I0403 13:20:49.625779 10927 net.cpp:91] Creating Layer relu2
I0403 13:20:49.625795 10927 net.cpp:425] relu2 <- conv2
I0403 13:20:49.625813 10927 net.cpp:386] relu2 -> conv2 (in-place)
I0403 13:20:49.626086 10927 net.cpp:141] Setting up relu2
I0403 13:20:49.626112 10927 net.cpp:148] Top shape: 100 256 27 27 (18662400)
I0403 13:20:49.626127 10927 net.cpp:156] Memory required for data: 587609200
I0403 13:20:49.626142 10927 layer_factory.hpp:77] Creating layer norm2
I0403 13:20:49.626164 10927 net.cpp:91] Creating Layer norm2
I0403 13:20:49.626181 10927 net.cpp:425] norm2 <- conv2
I0403 13:20:49.626201 10927 net.cpp:399] norm2 -> norm2
I0403 13:20:49.626400 10927 net.cpp:141] Setting up norm2
I0403 13:20:49.626425 10927 net.cpp:148] Top shape: 100 256 27 27 (18662400)
I0403 13:20:49.626441 10927 net.cpp:156] Memory required for data: 662258800
I0403 13:20:49.626454 10927 layer_factory.hpp:77] Creating layer pool2
I0403 13:20:49.626471 10927 net.cpp:91] Creating Layer pool2
I0403 13:20:49.626485 10927 net.cpp:425] pool2 <- norm2
I0403 13:20:49.626504 10927 net.cpp:399] pool2 -> pool2
I0403 13:20:49.626559 10927 net.cpp:141] Setting up pool2
I0403 13:20:49.626580 10927 net.cpp:148] Top shape: 100 256 13 13 (4326400)
I0403 13:20:49.626595 10927 net.cpp:156] Memory required for data: 679564400
I0403 13:20:49.626615 10927 layer_factory.hpp:77] Creating layer conv3
I0403 13:20:49.626638 10927 net.cpp:91] Creating Layer conv3
I0403 13:20:49.626654 10927 net.cpp:425] conv3 <- pool2
I0403 13:20:49.626673 10927 net.cpp:399] conv3 -> conv3
I0403 13:20:49.671545 10927 net.cpp:141] Setting up conv3
I0403 13:20:49.671689 10927 net.cpp:148] Top shape: 100 384 13 13 (6489600)
I0403 13:20:49.671708 10927 net.cpp:156] Memory required for data: 705522800
I0403 13:20:49.671737 10927 layer_factory.hpp:77] Creating layer relu3
I0403 13:20:49.671761 10927 net.cpp:91] Creating Layer relu3
I0403 13:20:49.671779 10927 net.cpp:425] relu3 <- conv3
I0403 13:20:49.671798 10927 net.cpp:386] relu3 -> conv3 (in-place)
I0403 13:20:49.672080 10927 net.cpp:141] Setting up relu3
I0403 13:20:49.672106 10927 net.cpp:148] Top shape: 100 384 13 13 (6489600)
I0403 13:20:49.672122 10927 net.cpp:156] Memory required for data: 731481200
I0403 13:20:49.672137 10927 layer_factory.hpp:77] Creating layer conv4
I0403 13:20:49.672163 10927 net.cpp:91] Creating Layer conv4
I0403 13:20:49.672179 10927 net.cpp:425] conv4 <- conv3
I0403 13:20:49.672199 10927 net.cpp:399] conv4 -> conv4
I0403 13:20:49.703367 10927 net.cpp:141] Setting up conv4
I0403 13:20:49.703438 10927 net.cpp:148] Top shape: 100 384 13 13 (6489600)
I0403 13:20:49.703481 10927 net.cpp:156] Memory required for data: 757439600
I0403 13:20:49.703503 10927 layer_factory.hpp:77] Creating layer relu4
I0403 13:20:49.703529 10927 net.cpp:91] Creating Layer relu4
I0403 13:20:49.703547 10927 net.cpp:425] relu4 <- conv4
I0403 13:20:49.703567 10927 net.cpp:386] relu4 -> conv4 (in-place)
I0403 13:20:49.703855 10927 net.cpp:141] Setting up relu4
I0403 13:20:49.703881 10927 net.cpp:148] Top shape: 100 384 13 13 (6489600)
I0403 13:20:49.703896 10927 net.cpp:156] Memory required for data: 783398000
I0403 13:20:49.703912 10927 layer_factory.hpp:77] Creating layer conv5
I0403 13:20:49.703938 10927 net.cpp:91] Creating Layer conv5
I0403 13:20:49.703954 10927 net.cpp:425] conv5 <- conv4
I0403 13:20:49.703974 10927 net.cpp:399] conv5 -> conv5
I0403 13:20:49.724917 10927 net.cpp:141] Setting up conv5
I0403 13:20:49.724974 10927 net.cpp:148] Top shape: 100 256 13 13 (4326400)
I0403 13:20:49.724990 10927 net.cpp:156] Memory required for data: 800703600
I0403 13:20:49.725016 10927 layer_factory.hpp:77] Creating layer relu5
I0403 13:20:49.725041 10927 net.cpp:91] Creating Layer relu5
I0403 13:20:49.725059 10927 net.cpp:425] relu5 <- conv5
I0403 13:20:49.725077 10927 net.cpp:386] relu5 -> conv5 (in-place)
I0403 13:20:49.725360 10927 net.cpp:141] Setting up relu5
I0403 13:20:49.725388 10927 net.cpp:148] Top shape: 100 256 13 13 (4326400)
I0403 13:20:49.725404 10927 net.cpp:156] Memory required for data: 818009200
I0403 13:20:49.725419 10927 layer_factory.hpp:77] Creating layer pool5
I0403 13:20:49.725441 10927 net.cpp:91] Creating Layer pool5
I0403 13:20:49.725458 10927 net.cpp:425] pool5 <- conv5
I0403 13:20:49.725476 10927 net.cpp:399] pool5 -> pool5
I0403 13:20:49.725538 10927 net.cpp:141] Setting up pool5
I0403 13:20:49.725561 10927 net.cpp:148] Top shape: 100 256 6 6 (921600)
I0403 13:20:49.725576 10927 net.cpp:156] Memory required for data: 821695600
I0403 13:20:49.725591 10927 layer_factory.hpp:77] Creating layer fc6
I0403 13:20:49.725625 10927 net.cpp:91] Creating Layer fc6
I0403 13:20:49.725643 10927 net.cpp:425] fc6 <- pool5
I0403 13:20:49.725661 10927 net.cpp:399] fc6 -> fc6
I0403 13:20:51.283277 10927 net.cpp:141] Setting up fc6
I0403 13:20:51.283354 10927 net.cpp:148] Top shape: 100 4096 (409600)
I0403 13:20:51.283370 10927 net.cpp:156] Memory required for data: 823334000
I0403 13:20:51.283391 10927 layer_factory.hpp:77] Creating layer relu6
I0403 13:20:51.283412 10927 net.cpp:91] Creating Layer relu6
I0403 13:20:51.283429 10927 net.cpp:425] relu6 <- fc6
I0403 13:20:51.283452 10927 net.cpp:386] relu6 -> fc6 (in-place)
I0403 13:20:51.283679 10927 net.cpp:141] Setting up relu6
I0403 13:20:51.283704 10927 net.cpp:148] Top shape: 100 4096 (409600)
I0403 13:20:51.283718 10927 net.cpp:156] Memory required for data: 824972400
I0403 13:20:51.283731 10927 layer_factory.hpp:77] Creating layer drop6
I0403 13:20:51.283751 10927 net.cpp:91] Creating Layer drop6
I0403 13:20:51.283766 10927 net.cpp:425] drop6 <- fc6
I0403 13:20:51.283783 10927 net.cpp:386] drop6 -> fc6 (in-place)
I0403 13:20:51.283838 10927 net.cpp:141] Setting up drop6
I0403 13:20:51.283860 10927 net.cpp:148] Top shape: 100 4096 (409600)
I0403 13:20:51.283874 10927 net.cpp:156] Memory required for data: 826610800
I0403 13:20:51.283888 10927 layer_factory.hpp:77] Creating layer fc7
I0403 13:20:51.283907 10927 net.cpp:91] Creating Layer fc7
I0403 13:20:51.283922 10927 net.cpp:425] fc7 <- fc6
I0403 13:20:51.283943 10927 net.cpp:399] fc7 -> fc7
I0403 13:20:51.967296 10927 net.cpp:141] Setting up fc7
I0403 13:20:51.967373 10927 net.cpp:148] Top shape: 100 4096 (409600)
I0403 13:20:51.967389 10927 net.cpp:156] Memory required for data: 828249200
I0403 13:20:51.967411 10927 layer_factory.hpp:77] Creating layer relu7
I0403 13:20:51.967434 10927 net.cpp:91] Creating Layer relu7
I0403 13:20:51.967453 10927 net.cpp:425] relu7 <- fc7
I0403 13:20:51.967471 10927 net.cpp:386] relu7 -> fc7 (in-place)
I0403 13:20:51.967886 10927 net.cpp:141] Setting up relu7
I0403 13:20:51.967913 10927 net.cpp:148] Top shape: 100 4096 (409600)
I0403 13:20:51.967973 10927 net.cpp:156] Memory required for data: 829887600
I0403 13:20:51.967989 10927 layer_factory.hpp:77] Creating layer drop7
I0403 13:20:51.968010 10927 net.cpp:91] Creating Layer drop7
I0403 13:20:51.968025 10927 net.cpp:425] drop7 <- fc7
I0403 13:20:51.968042 10927 net.cpp:386] drop7 -> fc7 (in-place)
I0403 13:20:51.968086 10927 net.cpp:141] Setting up drop7
I0403 13:20:51.968108 10927 net.cpp:148] Top shape: 100 4096 (409600)
I0403 13:20:51.968123 10927 net.cpp:156] Memory required for data: 831526000
I0403 13:20:51.968137 10927 layer_factory.hpp:77] Creating layer fc8_plantvillage
I0403 13:20:51.968157 10927 net.cpp:91] Creating Layer fc8_plantvillage
I0403 13:20:51.968171 10927 net.cpp:425] fc8_plantvillage <- fc7
I0403 13:20:51.968190 10927 net.cpp:399] fc8_plantvillage -> fc8_plantvillage
I0403 13:20:51.974908 10927 net.cpp:141] Setting up fc8_plantvillage
I0403 13:20:51.974937 10927 net.cpp:148] Top shape: 100 38 (3800)
I0403 13:20:51.974953 10927 net.cpp:156] Memory required for data: 831541200
I0403 13:20:51.974972 10927 layer_factory.hpp:77] Creating layer fc8_plantvillage_fc8_plantvillage_0_split
I0403 13:20:51.974993 10927 net.cpp:91] Creating Layer fc8_plantvillage_fc8_plantvillage_0_split
I0403 13:20:51.975009 10927 net.cpp:425] fc8_plantvillage_fc8_plantvillage_0_split <- fc8_plantvillage
I0403 13:20:51.975026 10927 net.cpp:399] fc8_plantvillage_fc8_plantvillage_0_split -> fc8_plantvillage_fc8_plantvillage_0_split_0
I0403 13:20:51.975046 10927 net.cpp:399] fc8_plantvillage_fc8_plantvillage_0_split -> fc8_plantvillage_fc8_plantvillage_0_split_1
I0403 13:20:51.975065 10927 net.cpp:399] fc8_plantvillage_fc8_plantvillage_0_split -> fc8_plantvillage_fc8_plantvillage_0_split_2
I0403 13:20:51.975145 10927 net.cpp:141] Setting up fc8_plantvillage_fc8_plantvillage_0_split
I0403 13:20:51.975168 10927 net.cpp:148] Top shape: 100 38 (3800)
I0403 13:20:51.975184 10927 net.cpp:148] Top shape: 100 38 (3800)
I0403 13:20:51.975198 10927 net.cpp:148] Top shape: 100 38 (3800)
I0403 13:20:51.975213 10927 net.cpp:156] Memory required for data: 831586800
I0403 13:20:51.975225 10927 layer_factory.hpp:77] Creating layer prob
I0403 13:20:51.975244 10927 net.cpp:91] Creating Layer prob
I0403 13:20:51.975258 10927 net.cpp:425] prob <- fc8_plantvillage_fc8_plantvillage_0_split_0
I0403 13:20:51.975277 10927 net.cpp:399] prob -> prob
I0403 13:20:51.975504 10927 net.cpp:141] Setting up prob
I0403 13:20:51.975529 10927 net.cpp:148] Top shape: 100 38 (3800)
I0403 13:20:51.975544 10927 net.cpp:156] Memory required for data: 831602000
I0403 13:20:51.975558 10927 layer_factory.hpp:77] Creating layer hdf5out
I0403 13:20:51.975579 10927 net.cpp:91] Creating Layer hdf5out
I0403 13:20:51.975595 10927 net.cpp:425] hdf5out <- prob
I0403 13:20:51.975616 10927 net.cpp:425] hdf5out <- label_data_1_split_0
I0403 13:20:51.978128 10927 net.cpp:141] Setting up hdf5out
…
