…
I0403 15:08:10.332275  9155 net.cpp:313] The NetState phase (1) differed from the phase (0) specified by a rule in layer data
I0403 15:08:10.332595  9155 net.cpp:49] Initializing net from parameters: 
state {
  phase: TEST
}
layer {
  name: "data"
  type: "Data"
  top: "data"
  top: "label"
  include {
    phase: TEST
  }
  transform_param {
    crop_size: 227
    mean_file: "/home/mohanty/data/final_dataset/lmdb/color-50-50/mean.binaryproto"
  }
  data_param {
    source: "/home/mohanty/data/final_dataset/lmdb/color-50-50/test_db"
    batch_size: 100
    backend: LMDB
  }
}
layer {
  name: "conv1"
  type: "Convolution"
  bottom: "data"
  top: "conv1"
  param {
    lr_mult: 1
    decay_mult: 1
  }
  param {
    lr_mult: 2
    decay_mult: 0
  }
  convolution_param {
    num_output: 96
    kernel_size: 11
    stride: 4
    weight_filler {
      type: "gaussian"
      std: 0.01
    }
    bias_filler {
      type: "constant"
      value: 0
    }
  }
}
layer {
  name: "relu1"
  type: "ReLU"
  bottom: "conv1"
  top: "conv1"
}
layer {
  name: "norm1"
  type: "LRN"
  bottom: "conv1"
  top: "norm1"
  lrn_param {
    local_size: 5
    alpha: 0.0001
    beta: 0.75
  }
}
layer {
  name: "pool1"
  type: "Pooling"
  bottom: "norm1"
  top: "pool1"
  pooling_param {
    pool: MAX
    kernel_size: 3
    stride: 2
  }
}
layer {
  name: "conv2"
  type: "Convolution"
  bottom: "pool1"
  top: "conv2"
  param {
    lr_mult: 1
    decay_mult: 1
  }
  param {
    lr_mult: 2
    decay_mult: 0
  }
  convolution_param {
    num_output: 256
    pad: 2
    kernel_size: 5
    group: 2
    weight_filler {
      type: "gaussian"
      std: 0.01
    }
    bias_filler {
      type: "constant"
      value: 0.1
    }
  }
}
layer {
  name: "relu2"
  type: "ReLU"
  bottom: "conv2"
  top: "conv2"
}
layer {
  name: "norm2"
  type: "LRN"
  bottom: "conv2"
  top: "norm2"
  lrn_param {
    local_size: 5
    alpha: 0.0001
    beta: 0.75
  }
}
layer {
  name: "pool2"
  type: "Pooling"
  bottom: "norm2"
  top: "pool2"
  pooling_param {
    pool: MAX
    kernel_size: 3
    stride: 2
  }
}
layer {
  name: "conv3"
  type: "Convolution"
  bottom: "pool2"
  top: "conv3"
  param {
    lr_mult: 1
    decay_mult: 1
  }
  param {
    lr_mult: 2
    decay_mult: 0
  }
  convolution_param {
    num_output: 384
    pad: 1
    kernel_size: 3
    weight_filler {
      type: "gaussian"
      std: 0.01
    }
    bias_filler {
      type: "constant"
      value: 0
    }
  }
}
layer {
  name: "relu3"
  type: "ReLU"
  bottom: "conv3"
  top: "conv3"
}
layer {
  name: "conv4"
  type: "Convolution"
  bottom: "conv3"
  top: "conv4"
  param {
    lr_mult: 1
    decay_mult: 1
  }
  param {
    lr_mult: 2
    decay_mult: 0
  }
  convolution_param {
    num_output: 384
    pad: 1
    kernel_size: 3
    group: 2
    weight_filler {
      type: "gaussian"
      std: 0.01
    }
    bias_filler {
      type: "constant"
      value: 0.1
    }
  }
}
layer {
  name: "relu4"
  type: "ReLU"
  bottom: "conv4"
  top: "conv4"
}
layer {
  name: "conv5"
  type: "Convolution"
  bottom: "conv4"
  top: "conv5"
  param {
    lr_mult: 1
    decay_mult: 1
  }
  param {
    lr_mult: 2
    decay_mult: 0
  }
  convolution_param {
    num_output: 256
    pad: 1
    kernel_size: 3
    group: 2
    weight_filler {
      type: "gaussian"
      std: 0.01
    }
    bias_filler {
      type: "constant"
      value: 0.1
    }
  }
}
layer {
  name: "relu5"
  type: "ReLU"
  bottom: "conv5"
  top: "conv5"
}
layer {
  name: "pool5"
  type: "Pooling"
  bottom: "conv5"
  top: "pool5"
  pooling_param {
    pool: MAX
    kernel_size: 3
    stride: 2
  }
}
layer {
  name: "fc6"
  type: "InnerProduct"
  bottom: "pool5"
  top: "fc6"
  param {
    lr_mult: 1
    decay_mult: 1
  }
  param {
    lr_mult: 2
    decay_mult: 0
  }
  inner_product_param {
    num_output: 4096
    weight_filler {
      type: "gaussian"
      std: 0.005
    }
    bias_filler {
      type: "constant"
      value: 0.1
    }
  }
}
layer {
  name: "relu6"
  type: "ReLU"
  bottom: "fc6"
  top: "fc6"
}
layer {
  name: "drop6"
  type: "Dropout"
  bottom: "fc6"
  top: "fc6"
  dropout_param {
    dropout_ratio: 0.5
  }
}
layer {
  name: "fc7"
  type: "InnerProduct"
  bottom: "fc6"
  top: "fc7"
  param {
    lr_mult: 1
    decay_mult: 1
  }
  param {
    lr_mult: 2
    decay_mult: 0
  }
  inner_product_param {
    num_output: 4096
    weight_filler {
      type: "gaussian"
      std: 0.005
    }
    bias_filler {
      type: "constant"
      value: 0.1
    }
  }
}
layer {
  name: "relu7"
  type: "ReLU"
  bottom: "fc7"
  top: "fc7"
}
layer {
  name: "drop7"
  type: "Dropout"
  bottom: "fc7"
  top: "fc7"
  dropout_param {
    dropout_ratio: 0.5
  }
}
layer {
  name: "fc8_plantvillage"
  type: "InnerProduct"
  bottom: "fc7"
  top: "fc8_plantvillage"
  param {
    lr_mult: 1
    decay_mult: 1
  }
  param {
    lr_mult: 2
    decay_mult: 0
  }
  inner_product_param {
    num_output: 38
    weight_filler {
      type: "gaussian"
      std: 0.01
    }
    bias_filler {
      type: "constant"
      value: 0
    }
  }
}
layer {
  name: "prob"
  type: "Softmax"
  bottom: "fc8_plantvillage"
  top: "prob"
  include {
    phase: TEST
  }
}
layer {
  name: "hdf5out"
  type: "HDF5Output"
  bottom: "prob"
  bottom: "label"
  include {
    phase: TEST
  }
  hdf5_output_param {
    file_name: "hdf5_dumps/iter_7532.h5"
  }
}
layer {
  name: "loss"
  type: "SoftmaxWithLoss"
  bottom: "fc8_plantvillage"
  bottom: "label"
  top: "loss"
}
layer {
  name: "accuracy"
  type: "Accuracy"
  bottom: "fc8_plantvillage"
  bottom: "label"
  top: "accuracy"
  include {
    phase: TEST
  }
}
I0403 15:08:10.333142  9155 layer_factory.hpp:77] Creating layer data
I0403 15:08:10.333780  9155 net.cpp:91] Creating Layer data
I0403 15:08:10.333808  9155 net.cpp:399] data -> data
I0403 15:08:10.333863  9155 net.cpp:399] data -> label
I0403 15:08:10.333899  9155 data_transformer.cpp:25] Loading mean file from: /home/mohanty/data/final_dataset/lmdb/color-50-50/mean.binaryproto
I0403 15:08:10.336619  9160 db_lmdb.cpp:38] Opened lmdb /home/mohanty/data/final_dataset/lmdb/color-50-50/test_db
I0403 15:08:10.348337  9155 data_layer.cpp:41] output data size: 100,3,227,227
I0403 15:08:10.470021  9155 net.cpp:141] Setting up data
I0403 15:08:10.470126  9155 net.cpp:148] Top shape: 100 3 227 227 (15458700)
I0403 15:08:10.470149  9155 net.cpp:148] Top shape: 100 (100)
I0403 15:08:10.470165  9155 net.cpp:156] Memory required for data: 61835200
I0403 15:08:10.470193  9155 layer_factory.hpp:77] Creating layer label_data_1_split
I0403 15:08:10.470219  9155 net.cpp:91] Creating Layer label_data_1_split
I0403 15:08:10.470237  9155 net.cpp:425] label_data_1_split <- label
I0403 15:08:10.470268  9155 net.cpp:399] label_data_1_split -> label_data_1_split_0
I0403 15:08:10.470294  9155 net.cpp:399] label_data_1_split -> label_data_1_split_1
I0403 15:08:10.470315  9155 net.cpp:399] label_data_1_split -> label_data_1_split_2
I0403 15:08:10.470379  9155 net.cpp:141] Setting up label_data_1_split
I0403 15:08:10.470402  9155 net.cpp:148] Top shape: 100 (100)
I0403 15:08:10.470419  9155 net.cpp:148] Top shape: 100 (100)
I0403 15:08:10.470434  9155 net.cpp:148] Top shape: 100 (100)
I0403 15:08:10.470448  9155 net.cpp:156] Memory required for data: 61836400
I0403 15:08:10.470463  9155 layer_factory.hpp:77] Creating layer conv1
I0403 15:08:10.470495  9155 net.cpp:91] Creating Layer conv1
I0403 15:08:10.470513  9155 net.cpp:425] conv1 <- data
I0403 15:08:10.470533  9155 net.cpp:399] conv1 -> conv1
I0403 15:08:10.617403  9155 net.cpp:141] Setting up conv1
I0403 15:08:10.617465  9155 net.cpp:148] Top shape: 100 96 55 55 (29040000)
I0403 15:08:10.617483  9155 net.cpp:156] Memory required for data: 177996400
I0403 15:08:10.617514  9155 layer_factory.hpp:77] Creating layer relu1
I0403 15:08:10.617542  9155 net.cpp:91] Creating Layer relu1
I0403 15:08:10.617561  9155 net.cpp:425] relu1 <- conv1
I0403 15:08:10.617580  9155 net.cpp:386] relu1 -> conv1 (in-place)
I0403 15:08:10.617840  9155 net.cpp:141] Setting up relu1
I0403 15:08:10.617867  9155 net.cpp:148] Top shape: 100 96 55 55 (29040000)
I0403 15:08:10.617883  9155 net.cpp:156] Memory required for data: 294156400
I0403 15:08:10.617930  9155 layer_factory.hpp:77] Creating layer norm1
I0403 15:08:10.617959  9155 net.cpp:91] Creating Layer norm1
I0403 15:08:10.617981  9155 net.cpp:425] norm1 <- conv1
I0403 15:08:10.618001  9155 net.cpp:399] norm1 -> norm1
I0403 15:08:10.618312  9155 net.cpp:141] Setting up norm1
I0403 15:08:10.618340  9155 net.cpp:148] Top shape: 100 96 55 55 (29040000)
I0403 15:08:10.618356  9155 net.cpp:156] Memory required for data: 410316400
I0403 15:08:10.618372  9155 layer_factory.hpp:77] Creating layer pool1
I0403 15:08:10.618396  9155 net.cpp:91] Creating Layer pool1
I0403 15:08:10.618413  9155 net.cpp:425] pool1 <- norm1
I0403 15:08:10.618432  9155 net.cpp:399] pool1 -> pool1
I0403 15:08:10.618499  9155 net.cpp:141] Setting up pool1
I0403 15:08:10.618523  9155 net.cpp:148] Top shape: 100 96 27 27 (6998400)
I0403 15:08:10.618540  9155 net.cpp:156] Memory required for data: 438310000
I0403 15:08:10.618554  9155 layer_factory.hpp:77] Creating layer conv2
I0403 15:08:10.618579  9155 net.cpp:91] Creating Layer conv2
I0403 15:08:10.618597  9155 net.cpp:425] conv2 <- pool1
I0403 15:08:10.618618  9155 net.cpp:399] conv2 -> conv2
I0403 15:08:10.633971  9155 net.cpp:141] Setting up conv2
I0403 15:08:10.634009  9155 net.cpp:148] Top shape: 100 256 27 27 (18662400)
I0403 15:08:10.634027  9155 net.cpp:156] Memory required for data: 512959600
I0403 15:08:10.634048  9155 layer_factory.hpp:77] Creating layer relu2
I0403 15:08:10.634070  9155 net.cpp:91] Creating Layer relu2
I0403 15:08:10.634088  9155 net.cpp:425] relu2 <- conv2
I0403 15:08:10.634105  9155 net.cpp:386] relu2 -> conv2 (in-place)
I0403 15:08:10.634388  9155 net.cpp:141] Setting up relu2
I0403 15:08:10.634415  9155 net.cpp:148] Top shape: 100 256 27 27 (18662400)
I0403 15:08:10.634431  9155 net.cpp:156] Memory required for data: 587609200
I0403 15:08:10.634446  9155 layer_factory.hpp:77] Creating layer norm2
I0403 15:08:10.634469  9155 net.cpp:91] Creating Layer norm2
I0403 15:08:10.634486  9155 net.cpp:425] norm2 <- conv2
I0403 15:08:10.634506  9155 net.cpp:399] norm2 -> norm2
I0403 15:08:10.634706  9155 net.cpp:141] Setting up norm2
I0403 15:08:10.634732  9155 net.cpp:148] Top shape: 100 256 27 27 (18662400)
I0403 15:08:10.634747  9155 net.cpp:156] Memory required for data: 662258800
I0403 15:08:10.634763  9155 layer_factory.hpp:77] Creating layer pool2
I0403 15:08:10.634784  9155 net.cpp:91] Creating Layer pool2
I0403 15:08:10.634801  9155 net.cpp:425] pool2 <- norm2
I0403 15:08:10.634819  9155 net.cpp:399] pool2 -> pool2
I0403 15:08:10.634872  9155 net.cpp:141] Setting up pool2
I0403 15:08:10.634896  9155 net.cpp:148] Top shape: 100 256 13 13 (4326400)
I0403 15:08:10.634912  9155 net.cpp:156] Memory required for data: 679564400
I0403 15:08:10.634925  9155 layer_factory.hpp:77] Creating layer conv3
I0403 15:08:10.634948  9155 net.cpp:91] Creating Layer conv3
I0403 15:08:10.634966  9155 net.cpp:425] conv3 <- pool2
I0403 15:08:10.634992  9155 net.cpp:399] conv3 -> conv3
I0403 15:08:10.675442  9155 net.cpp:141] Setting up conv3
I0403 15:08:10.675498  9155 net.cpp:148] Top shape: 100 384 13 13 (6489600)
I0403 15:08:10.675514  9155 net.cpp:156] Memory required for data: 705522800
I0403 15:08:10.675540  9155 layer_factory.hpp:77] Creating layer relu3
I0403 15:08:10.675561  9155 net.cpp:91] Creating Layer relu3
I0403 15:08:10.675580  9155 net.cpp:425] relu3 <- conv3
I0403 15:08:10.675597  9155 net.cpp:386] relu3 -> conv3 (in-place)
I0403 15:08:10.675882  9155 net.cpp:141] Setting up relu3
I0403 15:08:10.675909  9155 net.cpp:148] Top shape: 100 384 13 13 (6489600)
I0403 15:08:10.675925  9155 net.cpp:156] Memory required for data: 731481200
I0403 15:08:10.675940  9155 layer_factory.hpp:77] Creating layer conv4
I0403 15:08:10.675964  9155 net.cpp:91] Creating Layer conv4
I0403 15:08:10.675986  9155 net.cpp:425] conv4 <- conv3
I0403 15:08:10.676009  9155 net.cpp:399] conv4 -> conv4
I0403 15:08:10.706315  9155 net.cpp:141] Setting up conv4
I0403 15:08:10.706363  9155 net.cpp:148] Top shape: 100 384 13 13 (6489600)
I0403 15:08:10.706409  9155 net.cpp:156] Memory required for data: 757439600
I0403 15:08:10.706429  9155 layer_factory.hpp:77] Creating layer relu4
I0403 15:08:10.706452  9155 net.cpp:91] Creating Layer relu4
I0403 15:08:10.706470  9155 net.cpp:425] relu4 <- conv4
I0403 15:08:10.706486  9155 net.cpp:386] relu4 -> conv4 (in-place)
I0403 15:08:10.706764  9155 net.cpp:141] Setting up relu4
I0403 15:08:10.706790  9155 net.cpp:148] Top shape: 100 384 13 13 (6489600)
I0403 15:08:10.706805  9155 net.cpp:156] Memory required for data: 783398000
I0403 15:08:10.706821  9155 layer_factory.hpp:77] Creating layer conv5
I0403 15:08:10.706845  9155 net.cpp:91] Creating Layer conv5
I0403 15:08:10.706863  9155 net.cpp:425] conv5 <- conv4
I0403 15:08:10.706883  9155 net.cpp:399] conv5 -> conv5
I0403 15:08:10.727162  9155 net.cpp:141] Setting up conv5
I0403 15:08:10.727197  9155 net.cpp:148] Top shape: 100 256 13 13 (4326400)
I0403 15:08:10.727215  9155 net.cpp:156] Memory required for data: 800703600
I0403 15:08:10.727237  9155 layer_factory.hpp:77] Creating layer relu5
I0403 15:08:10.727259  9155 net.cpp:91] Creating Layer relu5
I0403 15:08:10.727277  9155 net.cpp:425] relu5 <- conv5
I0403 15:08:10.727293  9155 net.cpp:386] relu5 -> conv5 (in-place)
I0403 15:08:10.727571  9155 net.cpp:141] Setting up relu5
I0403 15:08:10.727597  9155 net.cpp:148] Top shape: 100 256 13 13 (4326400)
I0403 15:08:10.727612  9155 net.cpp:156] Memory required for data: 818009200
I0403 15:08:10.727627  9155 layer_factory.hpp:77] Creating layer pool5
I0403 15:08:10.727651  9155 net.cpp:91] Creating Layer pool5
I0403 15:08:10.727669  9155 net.cpp:425] pool5 <- conv5
I0403 15:08:10.727690  9155 net.cpp:399] pool5 -> pool5
I0403 15:08:10.727749  9155 net.cpp:141] Setting up pool5
I0403 15:08:10.727773  9155 net.cpp:148] Top shape: 100 256 6 6 (921600)
I0403 15:08:10.727787  9155 net.cpp:156] Memory required for data: 821695600
I0403 15:08:10.727802  9155 layer_factory.hpp:77] Creating layer fc6
I0403 15:08:10.727830  9155 net.cpp:91] Creating Layer fc6
I0403 15:08:10.727849  9155 net.cpp:425] fc6 <- pool5
I0403 15:08:10.727865  9155 net.cpp:399] fc6 -> fc6
I0403 15:08:12.265830  9155 net.cpp:141] Setting up fc6
I0403 15:08:12.265916  9155 net.cpp:148] Top shape: 100 4096 (409600)
I0403 15:08:12.265933  9155 net.cpp:156] Memory required for data: 823334000
I0403 15:08:12.265955  9155 layer_factory.hpp:77] Creating layer relu6
I0403 15:08:12.265980  9155 net.cpp:91] Creating Layer relu6
I0403 15:08:12.265998  9155 net.cpp:425] relu6 <- fc6
I0403 15:08:12.266021  9155 net.cpp:386] relu6 -> fc6 (in-place)
I0403 15:08:12.266233  9155 net.cpp:141] Setting up relu6
I0403 15:08:12.266258  9155 net.cpp:148] Top shape: 100 4096 (409600)
I0403 15:08:12.266271  9155 net.cpp:156] Memory required for data: 824972400
I0403 15:08:12.266286  9155 layer_factory.hpp:77] Creating layer drop6
I0403 15:08:12.266306  9155 net.cpp:91] Creating Layer drop6
I0403 15:08:12.266322  9155 net.cpp:425] drop6 <- fc6
I0403 15:08:12.266338  9155 net.cpp:386] drop6 -> fc6 (in-place)
I0403 15:08:12.266391  9155 net.cpp:141] Setting up drop6
I0403 15:08:12.266412  9155 net.cpp:148] Top shape: 100 4096 (409600)
I0403 15:08:12.266427  9155 net.cpp:156] Memory required for data: 826610800
I0403 15:08:12.266441  9155 layer_factory.hpp:77] Creating layer fc7
I0403 15:08:12.266460  9155 net.cpp:91] Creating Layer fc7
I0403 15:08:12.266475  9155 net.cpp:425] fc7 <- fc6
I0403 15:08:12.266499  9155 net.cpp:399] fc7 -> fc7
I0403 15:08:12.934376  9155 net.cpp:141] Setting up fc7
I0403 15:08:12.934459  9155 net.cpp:148] Top shape: 100 4096 (409600)
I0403 15:08:12.934475  9155 net.cpp:156] Memory required for data: 828249200
I0403 15:08:12.934496  9155 layer_factory.hpp:77] Creating layer relu7
I0403 15:08:12.934521  9155 net.cpp:91] Creating Layer relu7
I0403 15:08:12.934538  9155 net.cpp:425] relu7 <- fc7
I0403 15:08:12.934557  9155 net.cpp:386] relu7 -> fc7 (in-place)
I0403 15:08:12.934942  9155 net.cpp:141] Setting up relu7
I0403 15:08:12.934967  9155 net.cpp:148] Top shape: 100 4096 (409600)
I0403 15:08:12.935004  9155 net.cpp:156] Memory required for data: 829887600
I0403 15:08:12.935020  9155 layer_factory.hpp:77] Creating layer drop7
I0403 15:08:12.935040  9155 net.cpp:91] Creating Layer drop7
I0403 15:08:12.935056  9155 net.cpp:425] drop7 <- fc7
I0403 15:08:12.935073  9155 net.cpp:386] drop7 -> fc7 (in-place)
I0403 15:08:12.935116  9155 net.cpp:141] Setting up drop7
I0403 15:08:12.935138  9155 net.cpp:148] Top shape: 100 4096 (409600)
I0403 15:08:12.935154  9155 net.cpp:156] Memory required for data: 831526000
I0403 15:08:12.935168  9155 layer_factory.hpp:77] Creating layer fc8_plantvillage
I0403 15:08:12.935187  9155 net.cpp:91] Creating Layer fc8_plantvillage
I0403 15:08:12.935202  9155 net.cpp:425] fc8_plantvillage <- fc7
I0403 15:08:12.935221  9155 net.cpp:399] fc8_plantvillage -> fc8_plantvillage
I0403 15:08:12.941810  9155 net.cpp:141] Setting up fc8_plantvillage
I0403 15:08:12.941838  9155 net.cpp:148] Top shape: 100 38 (3800)
I0403 15:08:12.941854  9155 net.cpp:156] Memory required for data: 831541200
I0403 15:08:12.941870  9155 layer_factory.hpp:77] Creating layer fc8_plantvillage_fc8_plantvillage_0_split
I0403 15:08:12.941890  9155 net.cpp:91] Creating Layer fc8_plantvillage_fc8_plantvillage_0_split
I0403 15:08:12.941907  9155 net.cpp:425] fc8_plantvillage_fc8_plantvillage_0_split <- fc8_plantvillage
I0403 15:08:12.941925  9155 net.cpp:399] fc8_plantvillage_fc8_plantvillage_0_split -> fc8_plantvillage_fc8_plantvillage_0_split_0
I0403 15:08:12.941943  9155 net.cpp:399] fc8_plantvillage_fc8_plantvillage_0_split -> fc8_plantvillage_fc8_plantvillage_0_split_1
I0403 15:08:12.941962  9155 net.cpp:399] fc8_plantvillage_fc8_plantvillage_0_split -> fc8_plantvillage_fc8_plantvillage_0_split_2
I0403 15:08:12.942042  9155 net.cpp:141] Setting up fc8_plantvillage_fc8_plantvillage_0_split
I0403 15:08:12.942065  9155 net.cpp:148] Top shape: 100 38 (3800)
I0403 15:08:12.942081  9155 net.cpp:148] Top shape: 100 38 (3800)
I0403 15:08:12.942096  9155 net.cpp:148] Top shape: 100 38 (3800)
I0403 15:08:12.942111  9155 net.cpp:156] Memory required for data: 831586800
I0403 15:08:12.942124  9155 layer_factory.hpp:77] Creating layer prob
I0403 15:08:12.942142  9155 net.cpp:91] Creating Layer prob
I0403 15:08:12.942157  9155 net.cpp:425] prob <- fc8_plantvillage_fc8_plantvillage_0_split_0
I0403 15:08:12.942176  9155 net.cpp:399] prob -> prob
I0403 15:08:12.942397  9155 net.cpp:141] Setting up prob
I0403 15:08:12.942421  9155 net.cpp:148] Top shape: 100 38 (3800)
I0403 15:08:12.942436  9155 net.cpp:156] Memory required for data: 831602000
I0403 15:08:12.942451  9155 layer_factory.hpp:77] Creating layer hdf5out
I0403 15:08:12.942471  9155 net.cpp:91] Creating Layer hdf5out
I0403 15:08:12.942487  9155 net.cpp:425] hdf5out <- prob
I0403 15:08:12.942503  9155 net.cpp:425] hdf5out <- label_data_1_split_0
I0403 15:08:12.944756  9155 net.cpp:141] Setting up hdf5out
…
