…
I0403 14:48:54.776792  7981 net.cpp:313] The NetState phase (1) differed from the phase (0) specified by a rule in layer data
I0403 14:48:54.777117  7981 net.cpp:49] Initializing net from parameters: 
state {
  phase: TEST
}
layer {
  name: "data"
  type: "Data"
  top: "data"
  top: "label"
  include {
    phase: TEST
  }
  transform_param {
    crop_size: 227
    mean_file: "/home/mohanty/data/final_dataset/lmdb/color-50-50/mean.binaryproto"
  }
  data_param {
    source: "/home/mohanty/data/final_dataset/lmdb/color-50-50/test_db"
    batch_size: 100
    backend: LMDB
  }
}
layer {
  name: "conv1"
  type: "Convolution"
  bottom: "data"
  top: "conv1"
  param {
    lr_mult: 1
    decay_mult: 1
  }
  param {
    lr_mult: 2
    decay_mult: 0
  }
  convolution_param {
    num_output: 96
    kernel_size: 11
    stride: 4
    weight_filler {
      type: "gaussian"
      std: 0.01
    }
    bias_filler {
      type: "constant"
      value: 0
    }
  }
}
layer {
  name: "relu1"
  type: "ReLU"
  bottom: "conv1"
  top: "conv1"
}
layer {
  name: "norm1"
  type: "LRN"
  bottom: "conv1"
  top: "norm1"
  lrn_param {
    local_size: 5
    alpha: 0.0001
    beta: 0.75
  }
}
layer {
  name: "pool1"
  type: "Pooling"
  bottom: "norm1"
  top: "pool1"
  pooling_param {
    pool: MAX
    kernel_size: 3
    stride: 2
  }
}
layer {
  name: "conv2"
  type: "Convolution"
  bottom: "pool1"
  top: "conv2"
  param {
    lr_mult: 1
    decay_mult: 1
  }
  param {
    lr_mult: 2
    decay_mult: 0
  }
  convolution_param {
    num_output: 256
    pad: 2
    kernel_size: 5
    group: 2
    weight_filler {
      type: "gaussian"
      std: 0.01
    }
    bias_filler {
      type: "constant"
      value: 0.1
    }
  }
}
layer {
  name: "relu2"
  type: "ReLU"
  bottom: "conv2"
  top: "conv2"
}
layer {
  name: "norm2"
  type: "LRN"
  bottom: "conv2"
  top: "norm2"
  lrn_param {
    local_size: 5
    alpha: 0.0001
    beta: 0.75
  }
}
layer {
  name: "pool2"
  type: "Pooling"
  bottom: "norm2"
  top: "pool2"
  pooling_param {
    pool: MAX
    kernel_size: 3
    stride: 2
  }
}
layer {
  name: "conv3"
  type: "Convolution"
  bottom: "pool2"
  top: "conv3"
  param {
    lr_mult: 1
    decay_mult: 1
  }
  param {
    lr_mult: 2
    decay_mult: 0
  }
  convolution_param {
    num_output: 384
    pad: 1
    kernel_size: 3
    weight_filler {
      type: "gaussian"
      std: 0.01
    }
    bias_filler {
      type: "constant"
      value: 0
    }
  }
}
layer {
  name: "relu3"
  type: "ReLU"
  bottom: "conv3"
  top: "conv3"
}
layer {
  name: "conv4"
  type: "Convolution"
  bottom: "conv3"
  top: "conv4"
  param {
    lr_mult: 1
    decay_mult: 1
  }
  param {
    lr_mult: 2
    decay_mult: 0
  }
  convolution_param {
    num_output: 384
    pad: 1
    kernel_size: 3
    group: 2
    weight_filler {
      type: "gaussian"
      std: 0.01
    }
    bias_filler {
      type: "constant"
      value: 0.1
    }
  }
}
layer {
  name: "relu4"
  type: "ReLU"
  bottom: "conv4"
  top: "conv4"
}
layer {
  name: "conv5"
  type: "Convolution"
  bottom: "conv4"
  top: "conv5"
  param {
    lr_mult: 1
    decay_mult: 1
  }
  param {
    lr_mult: 2
    decay_mult: 0
  }
  convolution_param {
    num_output: 256
    pad: 1
    kernel_size: 3
    group: 2
    weight_filler {
      type: "gaussian"
      std: 0.01
    }
    bias_filler {
      type: "constant"
      value: 0.1
    }
  }
}
layer {
  name: "relu5"
  type: "ReLU"
  bottom: "conv5"
  top: "conv5"
}
layer {
  name: "pool5"
  type: "Pooling"
  bottom: "conv5"
  top: "pool5"
  pooling_param {
    pool: MAX
    kernel_size: 3
    stride: 2
  }
}
layer {
  name: "fc6"
  type: "InnerProduct"
  bottom: "pool5"
  top: "fc6"
  param {
    lr_mult: 1
    decay_mult: 1
  }
  param {
    lr_mult: 2
    decay_mult: 0
  }
  inner_product_param {
    num_output: 4096
    weight_filler {
      type: "gaussian"
      std: 0.005
    }
    bias_filler {
      type: "constant"
      value: 0.1
    }
  }
}
layer {
  name: "relu6"
  type: "ReLU"
  bottom: "fc6"
  top: "fc6"
}
layer {
  name: "drop6"
  type: "Dropout"
  bottom: "fc6"
  top: "fc6"
  dropout_param {
    dropout_ratio: 0.5
  }
}
layer {
  name: "fc7"
  type: "InnerProduct"
  bottom: "fc6"
  top: "fc7"
  param {
    lr_mult: 1
    decay_mult: 1
  }
  param {
    lr_mult: 2
    decay_mult: 0
  }
  inner_product_param {
    num_output: 4096
    weight_filler {
      type: "gaussian"
      std: 0.005
    }
    bias_filler {
      type: "constant"
      value: 0.1
    }
  }
}
layer {
  name: "relu7"
  type: "ReLU"
  bottom: "fc7"
  top: "fc7"
}
layer {
  name: "drop7"
  type: "Dropout"
  bottom: "fc7"
  top: "fc7"
  dropout_param {
    dropout_ratio: 0.5
  }
}
layer {
  name: "fc8_plantvillage"
  type: "InnerProduct"
  bottom: "fc7"
  top: "fc8_plantvillage"
  param {
    lr_mult: 1
    decay_mult: 1
  }
  param {
    lr_mult: 2
    decay_mult: 0
  }
  inner_product_param {
    num_output: 38
    weight_filler {
      type: "gaussian"
      std: 0.01
    }
    bias_filler {
      type: "constant"
      value: 0
    }
  }
}
layer {
  name: "prob"
  type: "Softmax"
  bottom: "fc8_plantvillage"
  top: "prob"
  include {
    phase: TEST
  }
}
layer {
  name: "hdf5out"
  type: "HDF5Output"
  bottom: "prob"
  bottom: "label"
  include {
    phase: TEST
  }
  hdf5_output_param {
    file_name: "hdf5_dumps/iter_1883.h5"
  }
}
layer {
  name: "loss"
  type: "SoftmaxWithLoss"
  bottom: "fc8_plantvillage"
  bottom: "label"
  top: "loss"
}
layer {
  name: "accuracy"
  type: "Accuracy"
  bottom: "fc8_plantvillage"
  bottom: "label"
  top: "accuracy"
  include {
    phase: TEST
  }
}
I0403 14:48:54.777721  7981 layer_factory.hpp:77] Creating layer data
I0403 14:48:54.778344  7981 net.cpp:91] Creating Layer data
I0403 14:48:54.778374  7981 net.cpp:399] data -> data
I0403 14:48:54.778427  7981 net.cpp:399] data -> label
I0403 14:48:54.778465  7981 data_transformer.cpp:25] Loading mean file from: /home/mohanty/data/final_dataset/lmdb/color-50-50/mean.binaryproto
I0403 14:48:54.780807  7987 db_lmdb.cpp:38] Opened lmdb /home/mohanty/data/final_dataset/lmdb/color-50-50/test_db
I0403 14:48:54.793443  7981 data_layer.cpp:41] output data size: 100,3,227,227
I0403 14:48:54.914762  7981 net.cpp:141] Setting up data
I0403 14:48:54.914868  7981 net.cpp:148] Top shape: 100 3 227 227 (15458700)
I0403 14:48:54.914891  7981 net.cpp:148] Top shape: 100 (100)
I0403 14:48:54.914906  7981 net.cpp:156] Memory required for data: 61835200
I0403 14:48:54.914934  7981 layer_factory.hpp:77] Creating layer label_data_1_split
I0403 14:48:54.914966  7981 net.cpp:91] Creating Layer label_data_1_split
I0403 14:48:54.914985  7981 net.cpp:425] label_data_1_split <- label
I0403 14:48:54.915016  7981 net.cpp:399] label_data_1_split -> label_data_1_split_0
I0403 14:48:54.915043  7981 net.cpp:399] label_data_1_split -> label_data_1_split_1
I0403 14:48:54.915066  7981 net.cpp:399] label_data_1_split -> label_data_1_split_2
I0403 14:48:54.915128  7981 net.cpp:141] Setting up label_data_1_split
I0403 14:48:54.915153  7981 net.cpp:148] Top shape: 100 (100)
I0403 14:48:54.915169  7981 net.cpp:148] Top shape: 100 (100)
I0403 14:48:54.915185  7981 net.cpp:148] Top shape: 100 (100)
I0403 14:48:54.915201  7981 net.cpp:156] Memory required for data: 61836400
I0403 14:48:54.915216  7981 layer_factory.hpp:77] Creating layer conv1
I0403 14:48:54.915249  7981 net.cpp:91] Creating Layer conv1
I0403 14:48:54.915267  7981 net.cpp:425] conv1 <- data
I0403 14:48:54.915287  7981 net.cpp:399] conv1 -> conv1
I0403 14:48:55.059628  7981 net.cpp:141] Setting up conv1
I0403 14:48:55.059713  7981 net.cpp:148] Top shape: 100 96 55 55 (29040000)
I0403 14:48:55.059731  7981 net.cpp:156] Memory required for data: 177996400
I0403 14:48:55.059762  7981 layer_factory.hpp:77] Creating layer relu1
I0403 14:48:55.059789  7981 net.cpp:91] Creating Layer relu1
I0403 14:48:55.059808  7981 net.cpp:425] relu1 <- conv1
I0403 14:48:55.059825  7981 net.cpp:386] relu1 -> conv1 (in-place)
I0403 14:48:55.060082  7981 net.cpp:141] Setting up relu1
I0403 14:48:55.060109  7981 net.cpp:148] Top shape: 100 96 55 55 (29040000)
I0403 14:48:55.060124  7981 net.cpp:156] Memory required for data: 294156400
I0403 14:48:55.060169  7981 layer_factory.hpp:77] Creating layer norm1
I0403 14:48:55.060199  7981 net.cpp:91] Creating Layer norm1
I0403 14:48:55.060216  7981 net.cpp:425] norm1 <- conv1
I0403 14:48:55.060235  7981 net.cpp:399] norm1 -> norm1
I0403 14:48:55.060535  7981 net.cpp:141] Setting up norm1
I0403 14:48:55.060562  7981 net.cpp:148] Top shape: 100 96 55 55 (29040000)
I0403 14:48:55.060577  7981 net.cpp:156] Memory required for data: 410316400
I0403 14:48:55.060592  7981 layer_factory.hpp:77] Creating layer pool1
I0403 14:48:55.060616  7981 net.cpp:91] Creating Layer pool1
I0403 14:48:55.060633  7981 net.cpp:425] pool1 <- norm1
I0403 14:48:55.060650  7981 net.cpp:399] pool1 -> pool1
I0403 14:48:55.060715  7981 net.cpp:141] Setting up pool1
I0403 14:48:55.060739  7981 net.cpp:148] Top shape: 100 96 27 27 (6998400)
I0403 14:48:55.060753  7981 net.cpp:156] Memory required for data: 438310000
I0403 14:48:55.060767  7981 layer_factory.hpp:77] Creating layer conv2
I0403 14:48:55.060791  7981 net.cpp:91] Creating Layer conv2
I0403 14:48:55.060808  7981 net.cpp:425] conv2 <- pool1
I0403 14:48:55.060825  7981 net.cpp:399] conv2 -> conv2
I0403 14:48:55.075598  7981 net.cpp:141] Setting up conv2
I0403 14:48:55.075631  7981 net.cpp:148] Top shape: 100 256 27 27 (18662400)
I0403 14:48:55.075649  7981 net.cpp:156] Memory required for data: 512959600
I0403 14:48:55.075670  7981 layer_factory.hpp:77] Creating layer relu2
I0403 14:48:55.075690  7981 net.cpp:91] Creating Layer relu2
I0403 14:48:55.075705  7981 net.cpp:425] relu2 <- conv2
I0403 14:48:55.075721  7981 net.cpp:386] relu2 -> conv2 (in-place)
I0403 14:48:55.075983  7981 net.cpp:141] Setting up relu2
I0403 14:48:55.076010  7981 net.cpp:148] Top shape: 100 256 27 27 (18662400)
I0403 14:48:55.076026  7981 net.cpp:156] Memory required for data: 587609200
I0403 14:48:55.076041  7981 layer_factory.hpp:77] Creating layer norm2
I0403 14:48:55.076061  7981 net.cpp:91] Creating Layer norm2
I0403 14:48:55.076078  7981 net.cpp:425] norm2 <- conv2
I0403 14:48:55.076095  7981 net.cpp:399] norm2 -> norm2
I0403 14:48:55.076282  7981 net.cpp:141] Setting up norm2
I0403 14:48:55.076308  7981 net.cpp:148] Top shape: 100 256 27 27 (18662400)
I0403 14:48:55.076323  7981 net.cpp:156] Memory required for data: 662258800
I0403 14:48:55.076339  7981 layer_factory.hpp:77] Creating layer pool2
I0403 14:48:55.076359  7981 net.cpp:91] Creating Layer pool2
I0403 14:48:55.076376  7981 net.cpp:425] pool2 <- norm2
I0403 14:48:55.076393  7981 net.cpp:399] pool2 -> pool2
I0403 14:48:55.076445  7981 net.cpp:141] Setting up pool2
I0403 14:48:55.076468  7981 net.cpp:148] Top shape: 100 256 13 13 (4326400)
I0403 14:48:55.076483  7981 net.cpp:156] Memory required for data: 679564400
I0403 14:48:55.076498  7981 layer_factory.hpp:77] Creating layer conv3
I0403 14:48:55.076521  7981 net.cpp:91] Creating Layer conv3
I0403 14:48:55.076539  7981 net.cpp:425] conv3 <- pool2
I0403 14:48:55.076560  7981 net.cpp:399] conv3 -> conv3
I0403 14:48:55.115046  7981 net.cpp:141] Setting up conv3
I0403 14:48:55.115100  7981 net.cpp:148] Top shape: 100 384 13 13 (6489600)
I0403 14:48:55.115118  7981 net.cpp:156] Memory required for data: 705522800
I0403 14:48:55.115140  7981 layer_factory.hpp:77] Creating layer relu3
I0403 14:48:55.115164  7981 net.cpp:91] Creating Layer relu3
I0403 14:48:55.115181  7981 net.cpp:425] relu3 <- conv3
I0403 14:48:55.115200  7981 net.cpp:386] relu3 -> conv3 (in-place)
I0403 14:48:55.115473  7981 net.cpp:141] Setting up relu3
I0403 14:48:55.115500  7981 net.cpp:148] Top shape: 100 384 13 13 (6489600)
I0403 14:48:55.115515  7981 net.cpp:156] Memory required for data: 731481200
I0403 14:48:55.115597  7981 layer_factory.hpp:77] Creating layer conv4
I0403 14:48:55.115625  7981 net.cpp:91] Creating Layer conv4
I0403 14:48:55.115643  7981 net.cpp:425] conv4 <- conv3
I0403 14:48:55.115664  7981 net.cpp:399] conv4 -> conv4
I0403 14:48:55.145202  7981 net.cpp:141] Setting up conv4
I0403 14:48:55.145249  7981 net.cpp:148] Top shape: 100 384 13 13 (6489600)
I0403 14:48:55.145294  7981 net.cpp:156] Memory required for data: 757439600
I0403 14:48:55.145315  7981 layer_factory.hpp:77] Creating layer relu4
I0403 14:48:55.145334  7981 net.cpp:91] Creating Layer relu4
I0403 14:48:55.145350  7981 net.cpp:425] relu4 <- conv4
I0403 14:48:55.145370  7981 net.cpp:386] relu4 -> conv4 (in-place)
I0403 14:48:55.145650  7981 net.cpp:141] Setting up relu4
I0403 14:48:55.145676  7981 net.cpp:148] Top shape: 100 384 13 13 (6489600)
I0403 14:48:55.145691  7981 net.cpp:156] Memory required for data: 783398000
I0403 14:48:55.145705  7981 layer_factory.hpp:77] Creating layer conv5
I0403 14:48:55.145730  7981 net.cpp:91] Creating Layer conv5
I0403 14:48:55.145746  7981 net.cpp:425] conv5 <- conv4
I0403 14:48:55.145767  7981 net.cpp:399] conv5 -> conv5
I0403 14:48:55.166177  7981 net.cpp:141] Setting up conv5
I0403 14:48:55.166211  7981 net.cpp:148] Top shape: 100 256 13 13 (4326400)
I0403 14:48:55.166229  7981 net.cpp:156] Memory required for data: 800703600
I0403 14:48:55.166254  7981 layer_factory.hpp:77] Creating layer relu5
I0403 14:48:55.166272  7981 net.cpp:91] Creating Layer relu5
I0403 14:48:55.166290  7981 net.cpp:425] relu5 <- conv5
I0403 14:48:55.166306  7981 net.cpp:386] relu5 -> conv5 (in-place)
I0403 14:48:55.166576  7981 net.cpp:141] Setting up relu5
I0403 14:48:55.166602  7981 net.cpp:148] Top shape: 100 256 13 13 (4326400)
I0403 14:48:55.166618  7981 net.cpp:156] Memory required for data: 818009200
I0403 14:48:55.166632  7981 layer_factory.hpp:77] Creating layer pool5
I0403 14:48:55.166656  7981 net.cpp:91] Creating Layer pool5
I0403 14:48:55.166673  7981 net.cpp:425] pool5 <- conv5
I0403 14:48:55.166692  7981 net.cpp:399] pool5 -> pool5
I0403 14:48:55.166754  7981 net.cpp:141] Setting up pool5
I0403 14:48:55.166777  7981 net.cpp:148] Top shape: 100 256 6 6 (921600)
I0403 14:48:55.166792  7981 net.cpp:156] Memory required for data: 821695600
I0403 14:48:55.166806  7981 layer_factory.hpp:77] Creating layer fc6
I0403 14:48:55.166836  7981 net.cpp:91] Creating Layer fc6
I0403 14:48:55.166853  7981 net.cpp:425] fc6 <- pool5
I0403 14:48:55.166872  7981 net.cpp:399] fc6 -> fc6
I0403 14:48:56.767737  7981 net.cpp:141] Setting up fc6
I0403 14:48:56.767825  7981 net.cpp:148] Top shape: 100 4096 (409600)
I0403 14:48:56.767840  7981 net.cpp:156] Memory required for data: 823334000
I0403 14:48:56.767861  7981 layer_factory.hpp:77] Creating layer relu6
I0403 14:48:56.767882  7981 net.cpp:91] Creating Layer relu6
I0403 14:48:56.767899  7981 net.cpp:425] relu6 <- fc6
I0403 14:48:56.767923  7981 net.cpp:386] relu6 -> fc6 (in-place)
I0403 14:48:56.768136  7981 net.cpp:141] Setting up relu6
I0403 14:48:56.768160  7981 net.cpp:148] Top shape: 100 4096 (409600)
I0403 14:48:56.768174  7981 net.cpp:156] Memory required for data: 824972400
I0403 14:48:56.768188  7981 layer_factory.hpp:77] Creating layer drop6
I0403 14:48:56.768210  7981 net.cpp:91] Creating Layer drop6
I0403 14:48:56.768225  7981 net.cpp:425] drop6 <- fc6
I0403 14:48:56.768242  7981 net.cpp:386] drop6 -> fc6 (in-place)
I0403 14:48:56.768296  7981 net.cpp:141] Setting up drop6
I0403 14:48:56.768317  7981 net.cpp:148] Top shape: 100 4096 (409600)
I0403 14:48:56.768332  7981 net.cpp:156] Memory required for data: 826610800
I0403 14:48:56.768357  7981 layer_factory.hpp:77] Creating layer fc7
I0403 14:48:56.768378  7981 net.cpp:91] Creating Layer fc7
I0403 14:48:56.768393  7981 net.cpp:425] fc7 <- fc6
I0403 14:48:56.768412  7981 net.cpp:399] fc7 -> fc7
I0403 14:48:57.482839  7981 net.cpp:141] Setting up fc7
I0403 14:48:57.482928  7981 net.cpp:148] Top shape: 100 4096 (409600)
I0403 14:48:57.482944  7981 net.cpp:156] Memory required for data: 828249200
I0403 14:48:57.482965  7981 layer_factory.hpp:77] Creating layer relu7
I0403 14:48:57.483006  7981 net.cpp:91] Creating Layer relu7
I0403 14:48:57.483023  7981 net.cpp:425] relu7 <- fc7
I0403 14:48:57.483042  7981 net.cpp:386] relu7 -> fc7 (in-place)
I0403 14:48:57.483428  7981 net.cpp:141] Setting up relu7
I0403 14:48:57.483453  7981 net.cpp:148] Top shape: 100 4096 (409600)
I0403 14:48:57.483497  7981 net.cpp:156] Memory required for data: 829887600
I0403 14:48:57.483513  7981 layer_factory.hpp:77] Creating layer drop7
I0403 14:48:57.483533  7981 net.cpp:91] Creating Layer drop7
I0403 14:48:57.483551  7981 net.cpp:425] drop7 <- fc7
I0403 14:48:57.483567  7981 net.cpp:386] drop7 -> fc7 (in-place)
I0403 14:48:57.483611  7981 net.cpp:141] Setting up drop7
I0403 14:48:57.483633  7981 net.cpp:148] Top shape: 100 4096 (409600)
I0403 14:48:57.483647  7981 net.cpp:156] Memory required for data: 831526000
I0403 14:48:57.483661  7981 layer_factory.hpp:77] Creating layer fc8_plantvillage
I0403 14:48:57.483680  7981 net.cpp:91] Creating Layer fc8_plantvillage
I0403 14:48:57.483695  7981 net.cpp:425] fc8_plantvillage <- fc7
I0403 14:48:57.483716  7981 net.cpp:399] fc8_plantvillage -> fc8_plantvillage
I0403 14:48:57.490666  7981 net.cpp:141] Setting up fc8_plantvillage
I0403 14:48:57.490696  7981 net.cpp:148] Top shape: 100 38 (3800)
I0403 14:48:57.490712  7981 net.cpp:156] Memory required for data: 831541200
I0403 14:48:57.490731  7981 layer_factory.hpp:77] Creating layer fc8_plantvillage_fc8_plantvillage_0_split
I0403 14:48:57.490748  7981 net.cpp:91] Creating Layer fc8_plantvillage_fc8_plantvillage_0_split
I0403 14:48:57.490762  7981 net.cpp:425] fc8_plantvillage_fc8_plantvillage_0_split <- fc8_plantvillage
I0403 14:48:57.490779  7981 net.cpp:399] fc8_plantvillage_fc8_plantvillage_0_split -> fc8_plantvillage_fc8_plantvillage_0_split_0
I0403 14:48:57.490798  7981 net.cpp:399] fc8_plantvillage_fc8_plantvillage_0_split -> fc8_plantvillage_fc8_plantvillage_0_split_1
I0403 14:48:57.490818  7981 net.cpp:399] fc8_plantvillage_fc8_plantvillage_0_split -> fc8_plantvillage_fc8_plantvillage_0_split_2
I0403 14:48:57.490892  7981 net.cpp:141] Setting up fc8_plantvillage_fc8_plantvillage_0_split
I0403 14:48:57.490916  7981 net.cpp:148] Top shape: 100 38 (3800)
I0403 14:48:57.490931  7981 net.cpp:148] Top shape: 100 38 (3800)
I0403 14:48:57.490947  7981 net.cpp:148] Top shape: 100 38 (3800)
I0403 14:48:57.490959  7981 net.cpp:156] Memory required for data: 831586800
I0403 14:48:57.490973  7981 layer_factory.hpp:77] Creating layer prob
I0403 14:48:57.490995  7981 net.cpp:91] Creating Layer prob
I0403 14:48:57.491011  7981 net.cpp:425] prob <- fc8_plantvillage_fc8_plantvillage_0_split_0
I0403 14:48:57.491029  7981 net.cpp:399] prob -> prob
I0403 14:48:57.491250  7981 net.cpp:141] Setting up prob
I0403 14:48:57.491276  7981 net.cpp:148] Top shape: 100 38 (3800)
I0403 14:48:57.491291  7981 net.cpp:156] Memory required for data: 831602000
I0403 14:48:57.491304  7981 layer_factory.hpp:77] Creating layer hdf5out
I0403 14:48:57.491327  7981 net.cpp:91] Creating Layer hdf5out
I0403 14:48:57.491343  7981 net.cpp:425] hdf5out <- prob
I0403 14:48:57.491358  7981 net.cpp:425] hdf5out <- label_data_1_split_0
I0403 14:48:57.493928  7981 net.cpp:141] Setting up hdf5out
…
