…
I0403 15:02:40.022954  8830 net.cpp:313] The NetState phase (1) differed from the phase (0) specified by a rule in layer data
I0403 15:02:40.023285  8830 net.cpp:49] Initializing net from parameters: 
state {
  phase: TEST
}
layer {
  name: "data"
  type: "Data"
  top: "data"
  top: "label"
  include {
    phase: TEST
  }
  transform_param {
    crop_size: 227
    mean_file: "/home/mohanty/data/final_dataset/lmdb/color-50-50/mean.binaryproto"
  }
  data_param {
    source: "/home/mohanty/data/final_dataset/lmdb/color-50-50/test_db"
    batch_size: 100
    backend: LMDB
  }
}
layer {
  name: "conv1"
  type: "Convolution"
  bottom: "data"
  top: "conv1"
  param {
    lr_mult: 1
    decay_mult: 1
  }
  param {
    lr_mult: 2
    decay_mult: 0
  }
  convolution_param {
    num_output: 96
    kernel_size: 11
    stride: 4
    weight_filler {
      type: "gaussian"
      std: 0.01
    }
    bias_filler {
      type: "constant"
      value: 0
    }
  }
}
layer {
  name: "relu1"
  type: "ReLU"
  bottom: "conv1"
  top: "conv1"
}
layer {
  name: "norm1"
  type: "LRN"
  bottom: "conv1"
  top: "norm1"
  lrn_param {
    local_size: 5
    alpha: 0.0001
    beta: 0.75
  }
}
layer {
  name: "pool1"
  type: "Pooling"
  bottom: "norm1"
  top: "pool1"
  pooling_param {
    pool: MAX
    kernel_size: 3
    stride: 2
  }
}
layer {
  name: "conv2"
  type: "Convolution"
  bottom: "pool1"
  top: "conv2"
  param {
    lr_mult: 1
    decay_mult: 1
  }
  param {
    lr_mult: 2
    decay_mult: 0
  }
  convolution_param {
    num_output: 256
    pad: 2
    kernel_size: 5
    group: 2
    weight_filler {
      type: "gaussian"
      std: 0.01
    }
    bias_filler {
      type: "constant"
      value: 0.1
    }
  }
}
layer {
  name: "relu2"
  type: "ReLU"
  bottom: "conv2"
  top: "conv2"
}
layer {
  name: "norm2"
  type: "LRN"
  bottom: "conv2"
  top: "norm2"
  lrn_param {
    local_size: 5
    alpha: 0.0001
    beta: 0.75
  }
}
layer {
  name: "pool2"
  type: "Pooling"
  bottom: "norm2"
  top: "pool2"
  pooling_param {
    pool: MAX
    kernel_size: 3
    stride: 2
  }
}
layer {
  name: "conv3"
  type: "Convolution"
  bottom: "pool2"
  top: "conv3"
  param {
    lr_mult: 1
    decay_mult: 1
  }
  param {
    lr_mult: 2
    decay_mult: 0
  }
  convolution_param {
    num_output: 384
    pad: 1
    kernel_size: 3
    weight_filler {
      type: "gaussian"
      std: 0.01
    }
    bias_filler {
      type: "constant"
      value: 0
    }
  }
}
layer {
  name: "relu3"
  type: "ReLU"
  bottom: "conv3"
  top: "conv3"
}
layer {
  name: "conv4"
  type: "Convolution"
  bottom: "conv3"
  top: "conv4"
  param {
    lr_mult: 1
    decay_mult: 1
  }
  param {
    lr_mult: 2
    decay_mult: 0
  }
  convolution_param {
    num_output: 384
    pad: 1
    kernel_size: 3
    group: 2
    weight_filler {
      type: "gaussian"
      std: 0.01
    }
    bias_filler {
      type: "constant"
      value: 0.1
    }
  }
}
layer {
  name: "relu4"
  type: "ReLU"
  bottom: "conv4"
  top: "conv4"
}
layer {
  name: "conv5"
  type: "Convolution"
  bottom: "conv4"
  top: "conv5"
  param {
    lr_mult: 1
    decay_mult: 1
  }
  param {
    lr_mult: 2
    decay_mult: 0
  }
  convolution_param {
    num_output: 256
    pad: 1
    kernel_size: 3
    group: 2
    weight_filler {
      type: "gaussian"
      std: 0.01
    }
    bias_filler {
      type: "constant"
      value: 0.1
    }
  }
}
layer {
  name: "relu5"
  type: "ReLU"
  bottom: "conv5"
  top: "conv5"
}
layer {
  name: "pool5"
  type: "Pooling"
  bottom: "conv5"
  top: "pool5"
  pooling_param {
    pool: MAX
    kernel_size: 3
    stride: 2
  }
}
layer {
  name: "fc6"
  type: "InnerProduct"
  bottom: "pool5"
  top: "fc6"
  param {
    lr_mult: 1
    decay_mult: 1
  }
  param {
    lr_mult: 2
    decay_mult: 0
  }
  inner_product_param {
    num_output: 4096
    weight_filler {
      type: "gaussian"
      std: 0.005
    }
    bias_filler {
      type: "constant"
      value: 0.1
    }
  }
}
layer {
  name: "relu6"
  type: "ReLU"
  bottom: "fc6"
  top: "fc6"
}
layer {
  name: "drop6"
  type: "Dropout"
  bottom: "fc6"
  top: "fc6"
  dropout_param {
    dropout_ratio: 0.5
  }
}
layer {
  name: "fc7"
  type: "InnerProduct"
  bottom: "fc6"
  top: "fc7"
  param {
    lr_mult: 1
    decay_mult: 1
  }
  param {
    lr_mult: 2
    decay_mult: 0
  }
  inner_product_param {
    num_output: 4096
    weight_filler {
      type: "gaussian"
      std: 0.005
    }
    bias_filler {
      type: "constant"
      value: 0.1
    }
  }
}
layer {
  name: "relu7"
  type: "ReLU"
  bottom: "fc7"
  top: "fc7"
}
layer {
  name: "drop7"
  type: "Dropout"
  bottom: "fc7"
  top: "fc7"
  dropout_param {
    dropout_ratio: 0.5
  }
}
layer {
  name: "fc8_plantvillage"
  type: "InnerProduct"
  bottom: "fc7"
  top: "fc8_plantvillage"
  param {
    lr_mult: 1
    decay_mult: 1
  }
  param {
    lr_mult: 2
    decay_mult: 0
  }
  inner_product_param {
    num_output: 38
    weight_filler {
      type: "gaussian"
      std: 0.01
    }
    bias_filler {
      type: "constant"
      value: 0
    }
  }
}
layer {
  name: "prob"
  type: "Softmax"
  bottom: "fc8_plantvillage"
  top: "prob"
  include {
    phase: TEST
  }
}
layer {
  name: "hdf5out"
  type: "HDF5Output"
  bottom: "prob"
  bottom: "label"
  include {
    phase: TEST
  }
  hdf5_output_param {
    file_name: "hdf5_dumps/iter_5918.h5"
  }
}
layer {
  name: "loss"
  type: "SoftmaxWithLoss"
  bottom: "fc8_plantvillage"
  bottom: "label"
  top: "loss"
}
layer {
  name: "accuracy"
  type: "Accuracy"
  bottom: "fc8_plantvillage"
  bottom: "label"
  top: "accuracy"
  include {
    phase: TEST
  }
}
I0403 15:02:40.023847  8830 layer_factory.hpp:77] Creating layer data
I0403 15:02:40.024498  8830 net.cpp:91] Creating Layer data
I0403 15:02:40.024528  8830 net.cpp:399] data -> data
I0403 15:02:40.024583  8830 net.cpp:399] data -> label
I0403 15:02:40.024621  8830 data_transformer.cpp:25] Loading mean file from: /home/mohanty/data/final_dataset/lmdb/color-50-50/mean.binaryproto
I0403 15:02:40.029376  8836 db_lmdb.cpp:38] Opened lmdb /home/mohanty/data/final_dataset/lmdb/color-50-50/test_db
I0403 15:02:40.038859  8830 data_layer.cpp:41] output data size: 100,3,227,227
I0403 15:02:40.161109  8830 net.cpp:141] Setting up data
I0403 15:02:40.161216  8830 net.cpp:148] Top shape: 100 3 227 227 (15458700)
I0403 15:02:40.161238  8830 net.cpp:148] Top shape: 100 (100)
I0403 15:02:40.161254  8830 net.cpp:156] Memory required for data: 61835200
I0403 15:02:40.161281  8830 layer_factory.hpp:77] Creating layer label_data_1_split
I0403 15:02:40.161308  8830 net.cpp:91] Creating Layer label_data_1_split
I0403 15:02:40.161325  8830 net.cpp:425] label_data_1_split <- label
I0403 15:02:40.161357  8830 net.cpp:399] label_data_1_split -> label_data_1_split_0
I0403 15:02:40.161384  8830 net.cpp:399] label_data_1_split -> label_data_1_split_1
I0403 15:02:40.161406  8830 net.cpp:399] label_data_1_split -> label_data_1_split_2
I0403 15:02:40.161466  8830 net.cpp:141] Setting up label_data_1_split
I0403 15:02:40.161490  8830 net.cpp:148] Top shape: 100 (100)
I0403 15:02:40.161506  8830 net.cpp:148] Top shape: 100 (100)
I0403 15:02:40.161523  8830 net.cpp:148] Top shape: 100 (100)
I0403 15:02:40.161537  8830 net.cpp:156] Memory required for data: 61836400
I0403 15:02:40.161552  8830 layer_factory.hpp:77] Creating layer conv1
I0403 15:02:40.161583  8830 net.cpp:91] Creating Layer conv1
I0403 15:02:40.161602  8830 net.cpp:425] conv1 <- data
I0403 15:02:40.161622  8830 net.cpp:399] conv1 -> conv1
I0403 15:02:40.303973  8830 net.cpp:141] Setting up conv1
I0403 15:02:40.304051  8830 net.cpp:148] Top shape: 100 96 55 55 (29040000)
I0403 15:02:40.304110  8830 net.cpp:156] Memory required for data: 177996400
I0403 15:02:40.304147  8830 layer_factory.hpp:77] Creating layer relu1
I0403 15:02:40.304177  8830 net.cpp:91] Creating Layer relu1
I0403 15:02:40.304194  8830 net.cpp:425] relu1 <- conv1
I0403 15:02:40.304213  8830 net.cpp:386] relu1 -> conv1 (in-place)
I0403 15:02:40.304468  8830 net.cpp:141] Setting up relu1
I0403 15:02:40.304497  8830 net.cpp:148] Top shape: 100 96 55 55 (29040000)
I0403 15:02:40.304513  8830 net.cpp:156] Memory required for data: 294156400
I0403 15:02:40.304558  8830 layer_factory.hpp:77] Creating layer norm1
I0403 15:02:40.304586  8830 net.cpp:91] Creating Layer norm1
I0403 15:02:40.304605  8830 net.cpp:425] norm1 <- conv1
I0403 15:02:40.304625  8830 net.cpp:399] norm1 -> norm1
I0403 15:02:40.304940  8830 net.cpp:141] Setting up norm1
I0403 15:02:40.304967  8830 net.cpp:148] Top shape: 100 96 55 55 (29040000)
I0403 15:02:40.304988  8830 net.cpp:156] Memory required for data: 410316400
I0403 15:02:40.305004  8830 layer_factory.hpp:77] Creating layer pool1
I0403 15:02:40.305027  8830 net.cpp:91] Creating Layer pool1
I0403 15:02:40.305044  8830 net.cpp:425] pool1 <- norm1
I0403 15:02:40.305065  8830 net.cpp:399] pool1 -> pool1
I0403 15:02:40.305136  8830 net.cpp:141] Setting up pool1
I0403 15:02:40.305160  8830 net.cpp:148] Top shape: 100 96 27 27 (6998400)
I0403 15:02:40.305174  8830 net.cpp:156] Memory required for data: 438310000
I0403 15:02:40.305189  8830 layer_factory.hpp:77] Creating layer conv2
I0403 15:02:40.305220  8830 net.cpp:91] Creating Layer conv2
I0403 15:02:40.305238  8830 net.cpp:425] conv2 <- pool1
I0403 15:02:40.305255  8830 net.cpp:399] conv2 -> conv2
I0403 15:02:40.320134  8830 net.cpp:141] Setting up conv2
I0403 15:02:40.320170  8830 net.cpp:148] Top shape: 100 256 27 27 (18662400)
I0403 15:02:40.320188  8830 net.cpp:156] Memory required for data: 512959600
I0403 15:02:40.320209  8830 layer_factory.hpp:77] Creating layer relu2
I0403 15:02:40.320227  8830 net.cpp:91] Creating Layer relu2
I0403 15:02:40.320243  8830 net.cpp:425] relu2 <- conv2
I0403 15:02:40.320262  8830 net.cpp:386] relu2 -> conv2 (in-place)
I0403 15:02:40.320539  8830 net.cpp:141] Setting up relu2
I0403 15:02:40.320565  8830 net.cpp:148] Top shape: 100 256 27 27 (18662400)
I0403 15:02:40.320581  8830 net.cpp:156] Memory required for data: 587609200
I0403 15:02:40.320595  8830 layer_factory.hpp:77] Creating layer norm2
I0403 15:02:40.320617  8830 net.cpp:91] Creating Layer norm2
I0403 15:02:40.320634  8830 net.cpp:425] norm2 <- conv2
I0403 15:02:40.320652  8830 net.cpp:399] norm2 -> norm2
I0403 15:02:40.320845  8830 net.cpp:141] Setting up norm2
I0403 15:02:40.320873  8830 net.cpp:148] Top shape: 100 256 27 27 (18662400)
I0403 15:02:40.320888  8830 net.cpp:156] Memory required for data: 662258800
I0403 15:02:40.320904  8830 layer_factory.hpp:77] Creating layer pool2
I0403 15:02:40.320920  8830 net.cpp:91] Creating Layer pool2
I0403 15:02:40.320936  8830 net.cpp:425] pool2 <- norm2
I0403 15:02:40.320955  8830 net.cpp:399] pool2 -> pool2
I0403 15:02:40.321012  8830 net.cpp:141] Setting up pool2
I0403 15:02:40.321038  8830 net.cpp:148] Top shape: 100 256 13 13 (4326400)
I0403 15:02:40.321053  8830 net.cpp:156] Memory required for data: 679564400
I0403 15:02:40.321066  8830 layer_factory.hpp:77] Creating layer conv3
I0403 15:02:40.321090  8830 net.cpp:91] Creating Layer conv3
I0403 15:02:40.321107  8830 net.cpp:425] conv3 <- pool2
I0403 15:02:40.321126  8830 net.cpp:399] conv3 -> conv3
I0403 15:02:40.362393  8830 net.cpp:141] Setting up conv3
I0403 15:02:40.362448  8830 net.cpp:148] Top shape: 100 384 13 13 (6489600)
I0403 15:02:40.362464  8830 net.cpp:156] Memory required for data: 705522800
I0403 15:02:40.362488  8830 layer_factory.hpp:77] Creating layer relu3
I0403 15:02:40.362506  8830 net.cpp:91] Creating Layer relu3
I0403 15:02:40.362524  8830 net.cpp:425] relu3 <- conv3
I0403 15:02:40.362543  8830 net.cpp:386] relu3 -> conv3 (in-place)
I0403 15:02:40.362815  8830 net.cpp:141] Setting up relu3
I0403 15:02:40.362841  8830 net.cpp:148] Top shape: 100 384 13 13 (6489600)
I0403 15:02:40.362856  8830 net.cpp:156] Memory required for data: 731481200
I0403 15:02:40.362870  8830 layer_factory.hpp:77] Creating layer conv4
I0403 15:02:40.362895  8830 net.cpp:91] Creating Layer conv4
I0403 15:02:40.362911  8830 net.cpp:425] conv4 <- conv3
I0403 15:02:40.362932  8830 net.cpp:399] conv4 -> conv4
I0403 15:02:40.392531  8830 net.cpp:141] Setting up conv4
I0403 15:02:40.392581  8830 net.cpp:148] Top shape: 100 384 13 13 (6489600)
I0403 15:02:40.392627  8830 net.cpp:156] Memory required for data: 757439600
I0403 15:02:40.392648  8830 layer_factory.hpp:77] Creating layer relu4
I0403 15:02:40.392668  8830 net.cpp:91] Creating Layer relu4
I0403 15:02:40.392683  8830 net.cpp:425] relu4 <- conv4
I0403 15:02:40.392700  8830 net.cpp:386] relu4 -> conv4 (in-place)
I0403 15:02:40.392971  8830 net.cpp:141] Setting up relu4
I0403 15:02:40.393004  8830 net.cpp:148] Top shape: 100 384 13 13 (6489600)
I0403 15:02:40.393021  8830 net.cpp:156] Memory required for data: 783398000
I0403 15:02:40.393036  8830 layer_factory.hpp:77] Creating layer conv5
I0403 15:02:40.393059  8830 net.cpp:91] Creating Layer conv5
I0403 15:02:40.393076  8830 net.cpp:425] conv5 <- conv4
I0403 15:02:40.393095  8830 net.cpp:399] conv5 -> conv5
I0403 15:02:40.413322  8830 net.cpp:141] Setting up conv5
I0403 15:02:40.413362  8830 net.cpp:148] Top shape: 100 256 13 13 (4326400)
I0403 15:02:40.413379  8830 net.cpp:156] Memory required for data: 800703600
I0403 15:02:40.413403  8830 layer_factory.hpp:77] Creating layer relu5
I0403 15:02:40.413422  8830 net.cpp:91] Creating Layer relu5
I0403 15:02:40.413439  8830 net.cpp:425] relu5 <- conv5
I0403 15:02:40.413462  8830 net.cpp:386] relu5 -> conv5 (in-place)
I0403 15:02:40.413733  8830 net.cpp:141] Setting up relu5
I0403 15:02:40.413760  8830 net.cpp:148] Top shape: 100 256 13 13 (4326400)
I0403 15:02:40.413775  8830 net.cpp:156] Memory required for data: 818009200
I0403 15:02:40.413790  8830 layer_factory.hpp:77] Creating layer pool5
I0403 15:02:40.413815  8830 net.cpp:91] Creating Layer pool5
I0403 15:02:40.413831  8830 net.cpp:425] pool5 <- conv5
I0403 15:02:40.413851  8830 net.cpp:399] pool5 -> pool5
I0403 15:02:40.413910  8830 net.cpp:141] Setting up pool5
I0403 15:02:40.413934  8830 net.cpp:148] Top shape: 100 256 6 6 (921600)
I0403 15:02:40.413949  8830 net.cpp:156] Memory required for data: 821695600
I0403 15:02:40.413964  8830 layer_factory.hpp:77] Creating layer fc6
I0403 15:02:40.413992  8830 net.cpp:91] Creating Layer fc6
I0403 15:02:40.414011  8830 net.cpp:425] fc6 <- pool5
I0403 15:02:40.414031  8830 net.cpp:399] fc6 -> fc6
I0403 15:02:41.951053  8830 net.cpp:141] Setting up fc6
I0403 15:02:41.951139  8830 net.cpp:148] Top shape: 100 4096 (409600)
I0403 15:02:41.951158  8830 net.cpp:156] Memory required for data: 823334000
I0403 15:02:41.951180  8830 layer_factory.hpp:77] Creating layer relu6
I0403 15:02:41.951205  8830 net.cpp:91] Creating Layer relu6
I0403 15:02:41.951223  8830 net.cpp:425] relu6 <- fc6
I0403 15:02:41.951243  8830 net.cpp:386] relu6 -> fc6 (in-place)
I0403 15:02:41.951470  8830 net.cpp:141] Setting up relu6
I0403 15:02:41.951498  8830 net.cpp:148] Top shape: 100 4096 (409600)
I0403 15:02:41.951514  8830 net.cpp:156] Memory required for data: 824972400
I0403 15:02:41.951529  8830 layer_factory.hpp:77] Creating layer drop6
I0403 15:02:41.951550  8830 net.cpp:91] Creating Layer drop6
I0403 15:02:41.951566  8830 net.cpp:425] drop6 <- fc6
I0403 15:02:41.951586  8830 net.cpp:386] drop6 -> fc6 (in-place)
I0403 15:02:41.951643  8830 net.cpp:141] Setting up drop6
I0403 15:02:41.951668  8830 net.cpp:148] Top shape: 100 4096 (409600)
I0403 15:02:41.951683  8830 net.cpp:156] Memory required for data: 826610800
I0403 15:02:41.951699  8830 layer_factory.hpp:77] Creating layer fc7
I0403 15:02:41.951727  8830 net.cpp:91] Creating Layer fc7
I0403 15:02:41.951746  8830 net.cpp:425] fc7 <- fc6
I0403 15:02:41.951769  8830 net.cpp:399] fc7 -> fc7
I0403 15:02:42.640710  8830 net.cpp:141] Setting up fc7
I0403 15:02:42.640799  8830 net.cpp:148] Top shape: 100 4096 (409600)
I0403 15:02:42.640815  8830 net.cpp:156] Memory required for data: 828249200
I0403 15:02:42.640836  8830 layer_factory.hpp:77] Creating layer relu7
I0403 15:02:42.640858  8830 net.cpp:91] Creating Layer relu7
I0403 15:02:42.640875  8830 net.cpp:425] relu7 <- fc7
I0403 15:02:42.640897  8830 net.cpp:386] relu7 -> fc7 (in-place)
I0403 15:02:42.641310  8830 net.cpp:141] Setting up relu7
I0403 15:02:42.641336  8830 net.cpp:148] Top shape: 100 4096 (409600)
I0403 15:02:42.641382  8830 net.cpp:156] Memory required for data: 829887600
I0403 15:02:42.641397  8830 layer_factory.hpp:77] Creating layer drop7
I0403 15:02:42.641415  8830 net.cpp:91] Creating Layer drop7
I0403 15:02:42.641430  8830 net.cpp:425] drop7 <- fc7
I0403 15:02:42.641449  8830 net.cpp:386] drop7 -> fc7 (in-place)
I0403 15:02:42.641492  8830 net.cpp:141] Setting up drop7
I0403 15:02:42.641515  8830 net.cpp:148] Top shape: 100 4096 (409600)
I0403 15:02:42.641530  8830 net.cpp:156] Memory required for data: 831526000
I0403 15:02:42.641546  8830 layer_factory.hpp:77] Creating layer fc8_plantvillage
I0403 15:02:42.641564  8830 net.cpp:91] Creating Layer fc8_plantvillage
I0403 15:02:42.641579  8830 net.cpp:425] fc8_plantvillage <- fc7
I0403 15:02:42.641599  8830 net.cpp:399] fc8_plantvillage -> fc8_plantvillage
I0403 15:02:42.648120  8830 net.cpp:141] Setting up fc8_plantvillage
I0403 15:02:42.648149  8830 net.cpp:148] Top shape: 100 38 (3800)
I0403 15:02:42.648164  8830 net.cpp:156] Memory required for data: 831541200
I0403 15:02:42.648180  8830 layer_factory.hpp:77] Creating layer fc8_plantvillage_fc8_plantvillage_0_split
I0403 15:02:42.648198  8830 net.cpp:91] Creating Layer fc8_plantvillage_fc8_plantvillage_0_split
I0403 15:02:42.648214  8830 net.cpp:425] fc8_plantvillage_fc8_plantvillage_0_split <- fc8_plantvillage
I0403 15:02:42.648234  8830 net.cpp:399] fc8_plantvillage_fc8_plantvillage_0_split -> fc8_plantvillage_fc8_plantvillage_0_split_0
I0403 15:02:42.648254  8830 net.cpp:399] fc8_plantvillage_fc8_plantvillage_0_split -> fc8_plantvillage_fc8_plantvillage_0_split_1
I0403 15:02:42.648273  8830 net.cpp:399] fc8_plantvillage_fc8_plantvillage_0_split -> fc8_plantvillage_fc8_plantvillage_0_split_2
I0403 15:02:42.648349  8830 net.cpp:141] Setting up fc8_plantvillage_fc8_plantvillage_0_split
I0403 15:02:42.648373  8830 net.cpp:148] Top shape: 100 38 (3800)
I0403 15:02:42.648391  8830 net.cpp:148] Top shape: 100 38 (3800)
I0403 15:02:42.648406  8830 net.cpp:148] Top shape: 100 38 (3800)
I0403 15:02:42.648419  8830 net.cpp:156] Memory required for data: 831586800
I0403 15:02:42.648432  8830 layer_factory.hpp:77] Creating layer prob
I0403 15:02:42.648450  8830 net.cpp:91] Creating Layer prob
I0403 15:02:42.648465  8830 net.cpp:425] prob <- fc8_plantvillage_fc8_plantvillage_0_split_0
I0403 15:02:42.648483  8830 net.cpp:399] prob -> prob
I0403 15:02:42.648699  8830 net.cpp:141] Setting up prob
I0403 15:02:42.648725  8830 net.cpp:148] Top shape: 100 38 (3800)
I0403 15:02:42.648739  8830 net.cpp:156] Memory required for data: 831602000
I0403 15:02:42.648753  8830 layer_factory.hpp:77] Creating layer hdf5out
I0403 15:02:42.648772  8830 net.cpp:91] Creating Layer hdf5out
I0403 15:02:42.648787  8830 net.cpp:425] hdf5out <- prob
I0403 15:02:42.648802  8830 net.cpp:425] hdf5out <- label_data_1_split_0
I0403 15:02:42.650921  8830 net.cpp:141] Setting up hdf5out
…
