…
I0403 14:52:34.859529  8205 net.cpp:313] The NetState phase (1) differed from the phase (0) specified by a rule in layer data
I0403 14:52:34.859827  8205 net.cpp:49] Initializing net from parameters: 
state {
  phase: TEST
}
layer {
  name: "data"
  type: "Data"
  top: "data"
  top: "label"
  include {
    phase: TEST
  }
  transform_param {
    crop_size: 227
    mean_file: "/home/mohanty/data/final_dataset/lmdb/color-50-50/mean.binaryproto"
  }
  data_param {
    source: "/home/mohanty/data/final_dataset/lmdb/color-50-50/test_db"
    batch_size: 100
    backend: LMDB
  }
}
layer {
  name: "conv1"
  type: "Convolution"
  bottom: "data"
  top: "conv1"
  param {
    lr_mult: 1
    decay_mult: 1
  }
  param {
    lr_mult: 2
    decay_mult: 0
  }
  convolution_param {
    num_output: 96
    kernel_size: 11
    stride: 4
    weight_filler {
      type: "gaussian"
      std: 0.01
    }
    bias_filler {
      type: "constant"
      value: 0
    }
  }
}
layer {
  name: "relu1"
  type: "ReLU"
  bottom: "conv1"
  top: "conv1"
}
layer {
  name: "norm1"
  type: "LRN"
  bottom: "conv1"
  top: "norm1"
  lrn_param {
    local_size: 5
    alpha: 0.0001
    beta: 0.75
  }
}
layer {
  name: "pool1"
  type: "Pooling"
  bottom: "norm1"
  top: "pool1"
  pooling_param {
    pool: MAX
    kernel_size: 3
    stride: 2
  }
}
layer {
  name: "conv2"
  type: "Convolution"
  bottom: "pool1"
  top: "conv2"
  param {
    lr_mult: 1
    decay_mult: 1
  }
  param {
    lr_mult: 2
    decay_mult: 0
  }
  convolution_param {
    num_output: 256
    pad: 2
    kernel_size: 5
    group: 2
    weight_filler {
      type: "gaussian"
      std: 0.01
    }
    bias_filler {
      type: "constant"
      value: 0.1
    }
  }
}
layer {
  name: "relu2"
  type: "ReLU"
  bottom: "conv2"
  top: "conv2"
}
layer {
  name: "norm2"
  type: "LRN"
  bottom: "conv2"
  top: "norm2"
  lrn_param {
    local_size: 5
    alpha: 0.0001
    beta: 0.75
  }
}
layer {
  name: "pool2"
  type: "Pooling"
  bottom: "norm2"
  top: "pool2"
  pooling_param {
    pool: MAX
    kernel_size: 3
    stride: 2
  }
}
layer {
  name: "conv3"
  type: "Convolution"
  bottom: "pool2"
  top: "conv3"
  param {
    lr_mult: 1
    decay_mult: 1
  }
  param {
    lr_mult: 2
    decay_mult: 0
  }
  convolution_param {
    num_output: 384
    pad: 1
    kernel_size: 3
    weight_filler {
      type: "gaussian"
      std: 0.01
    }
    bias_filler {
      type: "constant"
      value: 0
    }
  }
}
layer {
  name: "relu3"
  type: "ReLU"
  bottom: "conv3"
  top: "conv3"
}
layer {
  name: "conv4"
  type: "Convolution"
  bottom: "conv3"
  top: "conv4"
  param {
    lr_mult: 1
    decay_mult: 1
  }
  param {
    lr_mult: 2
    decay_mult: 0
  }
  convolution_param {
    num_output: 384
    pad: 1
    kernel_size: 3
    group: 2
    weight_filler {
      type: "gaussian"
      std: 0.01
    }
    bias_filler {
      type: "constant"
      value: 0.1
    }
  }
}
layer {
  name: "relu4"
  type: "ReLU"
  bottom: "conv4"
  top: "conv4"
}
layer {
  name: "conv5"
  type: "Convolution"
  bottom: "conv4"
  top: "conv5"
  param {
    lr_mult: 1
    decay_mult: 1
  }
  param {
    lr_mult: 2
    decay_mult: 0
  }
  convolution_param {
    num_output: 256
    pad: 1
    kernel_size: 3
    group: 2
    weight_filler {
      type: "gaussian"
      std: 0.01
    }
    bias_filler {
      type: "constant"
      value: 0.1
    }
  }
}
layer {
  name: "relu5"
  type: "ReLU"
  bottom: "conv5"
  top: "conv5"
}
layer {
  name: "pool5"
  type: "Pooling"
  bottom: "conv5"
  top: "pool5"
  pooling_param {
    pool: MAX
    kernel_size: 3
    stride: 2
  }
}
layer {
  name: "fc6"
  type: "InnerProduct"
  bottom: "pool5"
  top: "fc6"
  param {
    lr_mult: 1
    decay_mult: 1
  }
  param {
    lr_mult: 2
    decay_mult: 0
  }
  inner_product_param {
    num_output: 4096
    weight_filler {
      type: "gaussian"
      std: 0.005
    }
    bias_filler {
      type: "constant"
      value: 0.1
    }
  }
}
layer {
  name: "relu6"
  type: "ReLU"
  bottom: "fc6"
  top: "fc6"
}
layer {
  name: "drop6"
  type: "Dropout"
  bottom: "fc6"
  top: "fc6"
  dropout_param {
    dropout_ratio: 0.5
  }
}
layer {
  name: "fc7"
  type: "InnerProduct"
  bottom: "fc6"
  top: "fc7"
  param {
    lr_mult: 1
    decay_mult: 1
  }
  param {
    lr_mult: 2
    decay_mult: 0
  }
  inner_product_param {
    num_output: 4096
    weight_filler {
      type: "gaussian"
      std: 0.005
    }
    bias_filler {
      type: "constant"
      value: 0.1
    }
  }
}
layer {
  name: "relu7"
  type: "ReLU"
  bottom: "fc7"
  top: "fc7"
}
layer {
  name: "drop7"
  type: "Dropout"
  bottom: "fc7"
  top: "fc7"
  dropout_param {
    dropout_ratio: 0.5
  }
}
layer {
  name: "fc8_plantvillage"
  type: "InnerProduct"
  bottom: "fc7"
  top: "fc8_plantvillage"
  param {
    lr_mult: 1
    decay_mult: 1
  }
  param {
    lr_mult: 2
    decay_mult: 0
  }
  inner_product_param {
    num_output: 38
    weight_filler {
      type: "gaussian"
      std: 0.01
    }
    bias_filler {
      type: "constant"
      value: 0
    }
  }
}
layer {
  name: "prob"
  type: "Softmax"
  bottom: "fc8_plantvillage"
  top: "prob"
  include {
    phase: TEST
  }
}
layer {
  name: "hdf5out"
  type: "HDF5Output"
  bottom: "prob"
  bottom: "label"
  include {
    phase: TEST
  }
  hdf5_output_param {
    file_name: "hdf5_dumps/iter_2959.h5"
  }
}
layer {
  name: "loss"
  type: "SoftmaxWithLoss"
  bottom: "fc8_plantvillage"
  bottom: "label"
  top: "loss"
}
layer {
  name: "accuracy"
  type: "Accuracy"
  bottom: "fc8_plantvillage"
  bottom: "label"
  top: "accuracy"
  include {
    phase: TEST
  }
}
I0403 14:52:34.860376  8205 layer_factory.hpp:77] Creating layer data
I0403 14:52:34.861003  8205 net.cpp:91] Creating Layer data
I0403 14:52:34.861032  8205 net.cpp:399] data -> data
I0403 14:52:34.861084  8205 net.cpp:399] data -> label
I0403 14:52:34.861119  8205 data_transformer.cpp:25] Loading mean file from: /home/mohanty/data/final_dataset/lmdb/color-50-50/mean.binaryproto
I0403 14:52:34.863314  8208 db_lmdb.cpp:38] Opened lmdb /home/mohanty/data/final_dataset/lmdb/color-50-50/test_db
I0403 14:52:34.875612  8205 data_layer.cpp:41] output data size: 100,3,227,227
I0403 14:52:34.994766  8205 net.cpp:141] Setting up data
I0403 14:52:34.994873  8205 net.cpp:148] Top shape: 100 3 227 227 (15458700)
I0403 14:52:34.994895  8205 net.cpp:148] Top shape: 100 (100)
I0403 14:52:34.994910  8205 net.cpp:156] Memory required for data: 61835200
I0403 14:52:34.994938  8205 layer_factory.hpp:77] Creating layer label_data_1_split
I0403 14:52:34.994963  8205 net.cpp:91] Creating Layer label_data_1_split
I0403 14:52:34.994984  8205 net.cpp:425] label_data_1_split <- label
I0403 14:52:34.995018  8205 net.cpp:399] label_data_1_split -> label_data_1_split_0
I0403 14:52:34.995044  8205 net.cpp:399] label_data_1_split -> label_data_1_split_1
I0403 14:52:34.995064  8205 net.cpp:399] label_data_1_split -> label_data_1_split_2
I0403 14:52:34.995126  8205 net.cpp:141] Setting up label_data_1_split
I0403 14:52:34.995148  8205 net.cpp:148] Top shape: 100 (100)
I0403 14:52:34.995164  8205 net.cpp:148] Top shape: 100 (100)
I0403 14:52:34.995182  8205 net.cpp:148] Top shape: 100 (100)
I0403 14:52:34.995195  8205 net.cpp:156] Memory required for data: 61836400
I0403 14:52:34.995211  8205 layer_factory.hpp:77] Creating layer conv1
I0403 14:52:34.995242  8205 net.cpp:91] Creating Layer conv1
I0403 14:52:34.995260  8205 net.cpp:425] conv1 <- data
I0403 14:52:34.995280  8205 net.cpp:399] conv1 -> conv1
I0403 14:52:35.137367  8205 net.cpp:141] Setting up conv1
I0403 14:52:35.137439  8205 net.cpp:148] Top shape: 100 96 55 55 (29040000)
I0403 14:52:35.137454  8205 net.cpp:156] Memory required for data: 177996400
I0403 14:52:35.137486  8205 layer_factory.hpp:77] Creating layer relu1
I0403 14:52:35.137514  8205 net.cpp:91] Creating Layer relu1
I0403 14:52:35.137532  8205 net.cpp:425] relu1 <- conv1
I0403 14:52:35.137552  8205 net.cpp:386] relu1 -> conv1 (in-place)
I0403 14:52:35.137800  8205 net.cpp:141] Setting up relu1
I0403 14:52:35.137827  8205 net.cpp:148] Top shape: 100 96 55 55 (29040000)
I0403 14:52:35.137843  8205 net.cpp:156] Memory required for data: 294156400
I0403 14:52:35.137915  8205 layer_factory.hpp:77] Creating layer norm1
I0403 14:52:35.137949  8205 net.cpp:91] Creating Layer norm1
I0403 14:52:35.137969  8205 net.cpp:425] norm1 <- conv1
I0403 14:52:35.137990  8205 net.cpp:399] norm1 -> norm1
I0403 14:52:35.138290  8205 net.cpp:141] Setting up norm1
I0403 14:52:35.138317  8205 net.cpp:148] Top shape: 100 96 55 55 (29040000)
I0403 14:52:35.138332  8205 net.cpp:156] Memory required for data: 410316400
I0403 14:52:35.138348  8205 layer_factory.hpp:77] Creating layer pool1
I0403 14:52:35.138370  8205 net.cpp:91] Creating Layer pool1
I0403 14:52:35.138387  8205 net.cpp:425] pool1 <- norm1
I0403 14:52:35.138406  8205 net.cpp:399] pool1 -> pool1
I0403 14:52:35.138470  8205 net.cpp:141] Setting up pool1
I0403 14:52:35.138494  8205 net.cpp:148] Top shape: 100 96 27 27 (6998400)
I0403 14:52:35.138509  8205 net.cpp:156] Memory required for data: 438310000
I0403 14:52:35.138525  8205 layer_factory.hpp:77] Creating layer conv2
I0403 14:52:35.138548  8205 net.cpp:91] Creating Layer conv2
I0403 14:52:35.138564  8205 net.cpp:425] conv2 <- pool1
I0403 14:52:35.138582  8205 net.cpp:399] conv2 -> conv2
I0403 14:52:35.153774  8205 net.cpp:141] Setting up conv2
I0403 14:52:35.153811  8205 net.cpp:148] Top shape: 100 256 27 27 (18662400)
I0403 14:52:35.153828  8205 net.cpp:156] Memory required for data: 512959600
I0403 14:52:35.153851  8205 layer_factory.hpp:77] Creating layer relu2
I0403 14:52:35.153869  8205 net.cpp:91] Creating Layer relu2
I0403 14:52:35.153885  8205 net.cpp:425] relu2 <- conv2
I0403 14:52:35.153905  8205 net.cpp:386] relu2 -> conv2 (in-place)
I0403 14:52:35.154183  8205 net.cpp:141] Setting up relu2
I0403 14:52:35.154211  8205 net.cpp:148] Top shape: 100 256 27 27 (18662400)
I0403 14:52:35.154227  8205 net.cpp:156] Memory required for data: 587609200
I0403 14:52:35.154242  8205 layer_factory.hpp:77] Creating layer norm2
I0403 14:52:35.154264  8205 net.cpp:91] Creating Layer norm2
I0403 14:52:35.154283  8205 net.cpp:425] norm2 <- conv2
I0403 14:52:35.154299  8205 net.cpp:399] norm2 -> norm2
I0403 14:52:35.154496  8205 net.cpp:141] Setting up norm2
I0403 14:52:35.154522  8205 net.cpp:148] Top shape: 100 256 27 27 (18662400)
I0403 14:52:35.154537  8205 net.cpp:156] Memory required for data: 662258800
I0403 14:52:35.154552  8205 layer_factory.hpp:77] Creating layer pool2
I0403 14:52:35.154572  8205 net.cpp:91] Creating Layer pool2
I0403 14:52:35.154587  8205 net.cpp:425] pool2 <- norm2
I0403 14:52:35.154605  8205 net.cpp:399] pool2 -> pool2
I0403 14:52:35.154656  8205 net.cpp:141] Setting up pool2
I0403 14:52:35.154680  8205 net.cpp:148] Top shape: 100 256 13 13 (4326400)
I0403 14:52:35.154693  8205 net.cpp:156] Memory required for data: 679564400
I0403 14:52:35.154709  8205 layer_factory.hpp:77] Creating layer conv3
I0403 14:52:35.154732  8205 net.cpp:91] Creating Layer conv3
I0403 14:52:35.154750  8205 net.cpp:425] conv3 <- pool2
I0403 14:52:35.154769  8205 net.cpp:399] conv3 -> conv3
I0403 14:52:35.193534  8205 net.cpp:141] Setting up conv3
I0403 14:52:35.193589  8205 net.cpp:148] Top shape: 100 384 13 13 (6489600)
I0403 14:52:35.193606  8205 net.cpp:156] Memory required for data: 705522800
I0403 14:52:35.193629  8205 layer_factory.hpp:77] Creating layer relu3
I0403 14:52:35.193650  8205 net.cpp:91] Creating Layer relu3
I0403 14:52:35.193665  8205 net.cpp:425] relu3 <- conv3
I0403 14:52:35.193686  8205 net.cpp:386] relu3 -> conv3 (in-place)
I0403 14:52:35.193953  8205 net.cpp:141] Setting up relu3
I0403 14:52:35.193985  8205 net.cpp:148] Top shape: 100 384 13 13 (6489600)
I0403 14:52:35.194002  8205 net.cpp:156] Memory required for data: 731481200
I0403 14:52:35.194017  8205 layer_factory.hpp:77] Creating layer conv4
I0403 14:52:35.194041  8205 net.cpp:91] Creating Layer conv4
I0403 14:52:35.194058  8205 net.cpp:425] conv4 <- conv3
I0403 14:52:35.194079  8205 net.cpp:399] conv4 -> conv4
I0403 14:52:35.224236  8205 net.cpp:141] Setting up conv4
I0403 14:52:35.224282  8205 net.cpp:148] Top shape: 100 384 13 13 (6489600)
I0403 14:52:35.224328  8205 net.cpp:156] Memory required for data: 757439600
I0403 14:52:35.224349  8205 layer_factory.hpp:77] Creating layer relu4
I0403 14:52:35.224371  8205 net.cpp:91] Creating Layer relu4
I0403 14:52:35.224388  8205 net.cpp:425] relu4 <- conv4
I0403 14:52:35.224407  8205 net.cpp:386] relu4 -> conv4 (in-place)
I0403 14:52:35.224678  8205 net.cpp:141] Setting up relu4
I0403 14:52:35.224704  8205 net.cpp:148] Top shape: 100 384 13 13 (6489600)
I0403 14:52:35.224720  8205 net.cpp:156] Memory required for data: 783398000
I0403 14:52:35.224735  8205 layer_factory.hpp:77] Creating layer conv5
I0403 14:52:35.224766  8205 net.cpp:91] Creating Layer conv5
I0403 14:52:35.224817  8205 net.cpp:425] conv5 <- conv4
I0403 14:52:35.224841  8205 net.cpp:399] conv5 -> conv5
I0403 14:52:35.245507  8205 net.cpp:141] Setting up conv5
I0403 14:52:35.245543  8205 net.cpp:148] Top shape: 100 256 13 13 (4326400)
I0403 14:52:35.245560  8205 net.cpp:156] Memory required for data: 800703600
I0403 14:52:35.245584  8205 layer_factory.hpp:77] Creating layer relu5
I0403 14:52:35.245604  8205 net.cpp:91] Creating Layer relu5
I0403 14:52:35.245618  8205 net.cpp:425] relu5 <- conv5
I0403 14:52:35.245638  8205 net.cpp:386] relu5 -> conv5 (in-place)
I0403 14:52:35.245908  8205 net.cpp:141] Setting up relu5
I0403 14:52:35.245934  8205 net.cpp:148] Top shape: 100 256 13 13 (4326400)
I0403 14:52:35.245949  8205 net.cpp:156] Memory required for data: 818009200
I0403 14:52:35.245964  8205 layer_factory.hpp:77] Creating layer pool5
I0403 14:52:35.245988  8205 net.cpp:91] Creating Layer pool5
I0403 14:52:35.246006  8205 net.cpp:425] pool5 <- conv5
I0403 14:52:35.246028  8205 net.cpp:399] pool5 -> pool5
I0403 14:52:35.246089  8205 net.cpp:141] Setting up pool5
I0403 14:52:35.246114  8205 net.cpp:148] Top shape: 100 256 6 6 (921600)
I0403 14:52:35.246127  8205 net.cpp:156] Memory required for data: 821695600
I0403 14:52:35.246142  8205 layer_factory.hpp:77] Creating layer fc6
I0403 14:52:35.246171  8205 net.cpp:91] Creating Layer fc6
I0403 14:52:35.246189  8205 net.cpp:425] fc6 <- pool5
I0403 14:52:35.246212  8205 net.cpp:399] fc6 -> fc6
I0403 14:52:36.807987  8205 net.cpp:141] Setting up fc6
I0403 14:52:36.808073  8205 net.cpp:148] Top shape: 100 4096 (409600)
I0403 14:52:36.808089  8205 net.cpp:156] Memory required for data: 823334000
I0403 14:52:36.808111  8205 layer_factory.hpp:77] Creating layer relu6
I0403 14:52:36.808140  8205 net.cpp:91] Creating Layer relu6
I0403 14:52:36.808158  8205 net.cpp:425] relu6 <- fc6
I0403 14:52:36.808177  8205 net.cpp:386] relu6 -> fc6 (in-place)
I0403 14:52:36.808399  8205 net.cpp:141] Setting up relu6
I0403 14:52:36.808424  8205 net.cpp:148] Top shape: 100 4096 (409600)
I0403 14:52:36.808439  8205 net.cpp:156] Memory required for data: 824972400
I0403 14:52:36.808454  8205 layer_factory.hpp:77] Creating layer drop6
I0403 14:52:36.808473  8205 net.cpp:91] Creating Layer drop6
I0403 14:52:36.808488  8205 net.cpp:425] drop6 <- fc6
I0403 14:52:36.808507  8205 net.cpp:386] drop6 -> fc6 (in-place)
I0403 14:52:36.808560  8205 net.cpp:141] Setting up drop6
I0403 14:52:36.808583  8205 net.cpp:148] Top shape: 100 4096 (409600)
I0403 14:52:36.808598  8205 net.cpp:156] Memory required for data: 826610800
I0403 14:52:36.808612  8205 layer_factory.hpp:77] Creating layer fc7
I0403 14:52:36.808634  8205 net.cpp:91] Creating Layer fc7
I0403 14:52:36.808650  8205 net.cpp:425] fc7 <- fc6
I0403 14:52:36.808671  8205 net.cpp:399] fc7 -> fc7
I0403 14:52:37.479557  8205 net.cpp:141] Setting up fc7
I0403 14:52:37.479643  8205 net.cpp:148] Top shape: 100 4096 (409600)
I0403 14:52:37.479660  8205 net.cpp:156] Memory required for data: 828249200
I0403 14:52:37.479681  8205 layer_factory.hpp:77] Creating layer relu7
I0403 14:52:37.479703  8205 net.cpp:91] Creating Layer relu7
I0403 14:52:37.479719  8205 net.cpp:425] relu7 <- fc7
I0403 14:52:37.479742  8205 net.cpp:386] relu7 -> fc7 (in-place)
I0403 14:52:37.480115  8205 net.cpp:141] Setting up relu7
I0403 14:52:37.480144  8205 net.cpp:148] Top shape: 100 4096 (409600)
I0403 14:52:37.480191  8205 net.cpp:156] Memory required for data: 829887600
I0403 14:52:37.480208  8205 layer_factory.hpp:77] Creating layer drop7
I0403 14:52:37.480227  8205 net.cpp:91] Creating Layer drop7
I0403 14:52:37.480242  8205 net.cpp:425] drop7 <- fc7
I0403 14:52:37.480262  8205 net.cpp:386] drop7 -> fc7 (in-place)
I0403 14:52:37.480304  8205 net.cpp:141] Setting up drop7
I0403 14:52:37.480324  8205 net.cpp:148] Top shape: 100 4096 (409600)
I0403 14:52:37.480339  8205 net.cpp:156] Memory required for data: 831526000
I0403 14:52:37.480352  8205 layer_factory.hpp:77] Creating layer fc8_plantvillage
I0403 14:52:37.480375  8205 net.cpp:91] Creating Layer fc8_plantvillage
I0403 14:52:37.480389  8205 net.cpp:425] fc8_plantvillage <- fc7
I0403 14:52:37.480409  8205 net.cpp:399] fc8_plantvillage -> fc8_plantvillage
I0403 14:52:37.486991  8205 net.cpp:141] Setting up fc8_plantvillage
I0403 14:52:37.487020  8205 net.cpp:148] Top shape: 100 38 (3800)
I0403 14:52:37.487035  8205 net.cpp:156] Memory required for data: 831541200
I0403 14:52:37.487052  8205 layer_factory.hpp:77] Creating layer fc8_plantvillage_fc8_plantvillage_0_split
I0403 14:52:37.487071  8205 net.cpp:91] Creating Layer fc8_plantvillage_fc8_plantvillage_0_split
I0403 14:52:37.487087  8205 net.cpp:425] fc8_plantvillage_fc8_plantvillage_0_split <- fc8_plantvillage
I0403 14:52:37.487107  8205 net.cpp:399] fc8_plantvillage_fc8_plantvillage_0_split -> fc8_plantvillage_fc8_plantvillage_0_split_0
I0403 14:52:37.487126  8205 net.cpp:399] fc8_plantvillage_fc8_plantvillage_0_split -> fc8_plantvillage_fc8_plantvillage_0_split_1
I0403 14:52:37.487146  8205 net.cpp:399] fc8_plantvillage_fc8_plantvillage_0_split -> fc8_plantvillage_fc8_plantvillage_0_split_2
I0403 14:52:37.487224  8205 net.cpp:141] Setting up fc8_plantvillage_fc8_plantvillage_0_split
I0403 14:52:37.487247  8205 net.cpp:148] Top shape: 100 38 (3800)
I0403 14:52:37.487263  8205 net.cpp:148] Top shape: 100 38 (3800)
I0403 14:52:37.487279  8205 net.cpp:148] Top shape: 100 38 (3800)
I0403 14:52:37.487293  8205 net.cpp:156] Memory required for data: 831586800
I0403 14:52:37.487306  8205 layer_factory.hpp:77] Creating layer prob
I0403 14:52:37.487324  8205 net.cpp:91] Creating Layer prob
I0403 14:52:37.487339  8205 net.cpp:425] prob <- fc8_plantvillage_fc8_plantvillage_0_split_0
I0403 14:52:37.487360  8205 net.cpp:399] prob -> prob
I0403 14:52:37.487576  8205 net.cpp:141] Setting up prob
I0403 14:52:37.487603  8205 net.cpp:148] Top shape: 100 38 (3800)
I0403 14:52:37.487619  8205 net.cpp:156] Memory required for data: 831602000
I0403 14:52:37.487635  8205 layer_factory.hpp:77] Creating layer hdf5out
I0403 14:52:37.487653  8205 net.cpp:91] Creating Layer hdf5out
I0403 14:52:37.487669  8205 net.cpp:425] hdf5out <- prob
I0403 14:52:37.487685  8205 net.cpp:425] hdf5out <- label_data_1_split_0
I0403 14:52:37.489878  8205 net.cpp:141] Setting up hdf5out
…
