…
I0403 14:54:24.920328  8322 net.cpp:313] The NetState phase (1) differed from the phase (0) specified by a rule in layer data
I0403 14:54:24.920631  8322 net.cpp:49] Initializing net from parameters: 
state {
  phase: TEST
}
layer {
  name: "data"
  type: "Data"
  top: "data"
  top: "label"
  include {
    phase: TEST
  }
  transform_param {
    crop_size: 227
    mean_file: "/home/mohanty/data/final_dataset/lmdb/color-50-50/mean.binaryproto"
  }
  data_param {
    source: "/home/mohanty/data/final_dataset/lmdb/color-50-50/test_db"
    batch_size: 100
    backend: LMDB
  }
}
layer {
  name: "conv1"
  type: "Convolution"
  bottom: "data"
  top: "conv1"
  param {
    lr_mult: 1
    decay_mult: 1
  }
  param {
    lr_mult: 2
    decay_mult: 0
  }
  convolution_param {
    num_output: 96
    kernel_size: 11
    stride: 4
    weight_filler {
      type: "gaussian"
      std: 0.01
    }
    bias_filler {
      type: "constant"
      value: 0
    }
  }
}
layer {
  name: "relu1"
  type: "ReLU"
  bottom: "conv1"
  top: "conv1"
}
layer {
  name: "norm1"
  type: "LRN"
  bottom: "conv1"
  top: "norm1"
  lrn_param {
    local_size: 5
    alpha: 0.0001
    beta: 0.75
  }
}
layer {
  name: "pool1"
  type: "Pooling"
  bottom: "norm1"
  top: "pool1"
  pooling_param {
    pool: MAX
    kernel_size: 3
    stride: 2
  }
}
layer {
  name: "conv2"
  type: "Convolution"
  bottom: "pool1"
  top: "conv2"
  param {
    lr_mult: 1
    decay_mult: 1
  }
  param {
    lr_mult: 2
    decay_mult: 0
  }
  convolution_param {
    num_output: 256
    pad: 2
    kernel_size: 5
    group: 2
    weight_filler {
      type: "gaussian"
      std: 0.01
    }
    bias_filler {
      type: "constant"
      value: 0.1
    }
  }
}
layer {
  name: "relu2"
  type: "ReLU"
  bottom: "conv2"
  top: "conv2"
}
layer {
  name: "norm2"
  type: "LRN"
  bottom: "conv2"
  top: "norm2"
  lrn_param {
    local_size: 5
    alpha: 0.0001
    beta: 0.75
  }
}
layer {
  name: "pool2"
  type: "Pooling"
  bottom: "norm2"
  top: "pool2"
  pooling_param {
    pool: MAX
    kernel_size: 3
    stride: 2
  }
}
layer {
  name: "conv3"
  type: "Convolution"
  bottom: "pool2"
  top: "conv3"
  param {
    lr_mult: 1
    decay_mult: 1
  }
  param {
    lr_mult: 2
    decay_mult: 0
  }
  convolution_param {
    num_output: 384
    pad: 1
    kernel_size: 3
    weight_filler {
      type: "gaussian"
      std: 0.01
    }
    bias_filler {
      type: "constant"
      value: 0
    }
  }
}
layer {
  name: "relu3"
  type: "ReLU"
  bottom: "conv3"
  top: "conv3"
}
layer {
  name: "conv4"
  type: "Convolution"
  bottom: "conv3"
  top: "conv4"
  param {
    lr_mult: 1
    decay_mult: 1
  }
  param {
    lr_mult: 2
    decay_mult: 0
  }
  convolution_param {
    num_output: 384
    pad: 1
    kernel_size: 3
    group: 2
    weight_filler {
      type: "gaussian"
      std: 0.01
    }
    bias_filler {
      type: "constant"
      value: 0.1
    }
  }
}
layer {
  name: "relu4"
  type: "ReLU"
  bottom: "conv4"
  top: "conv4"
}
layer {
  name: "conv5"
  type: "Convolution"
  bottom: "conv4"
  top: "conv5"
  param {
    lr_mult: 1
    decay_mult: 1
  }
  param {
    lr_mult: 2
    decay_mult: 0
  }
  convolution_param {
    num_output: 256
    pad: 1
    kernel_size: 3
    group: 2
    weight_filler {
      type: "gaussian"
      std: 0.01
    }
    bias_filler {
      type: "constant"
      value: 0.1
    }
  }
}
layer {
  name: "relu5"
  type: "ReLU"
  bottom: "conv5"
  top: "conv5"
}
layer {
  name: "pool5"
  type: "Pooling"
  bottom: "conv5"
  top: "pool5"
  pooling_param {
    pool: MAX
    kernel_size: 3
    stride: 2
  }
}
layer {
  name: "fc6"
  type: "InnerProduct"
  bottom: "pool5"
  top: "fc6"
  param {
    lr_mult: 1
    decay_mult: 1
  }
  param {
    lr_mult: 2
    decay_mult: 0
  }
  inner_product_param {
    num_output: 4096
    weight_filler {
      type: "gaussian"
      std: 0.005
    }
    bias_filler {
      type: "constant"
      value: 0.1
    }
  }
}
layer {
  name: "relu6"
  type: "ReLU"
  bottom: "fc6"
  top: "fc6"
}
layer {
  name: "drop6"
  type: "Dropout"
  bottom: "fc6"
  top: "fc6"
  dropout_param {
    dropout_ratio: 0.5
  }
}
layer {
  name: "fc7"
  type: "InnerProduct"
  bottom: "fc6"
  top: "fc7"
  param {
    lr_mult: 1
    decay_mult: 1
  }
  param {
    lr_mult: 2
    decay_mult: 0
  }
  inner_product_param {
    num_output: 4096
    weight_filler {
      type: "gaussian"
      std: 0.005
    }
    bias_filler {
      type: "constant"
      value: 0.1
    }
  }
}
layer {
  name: "relu7"
  type: "ReLU"
  bottom: "fc7"
  top: "fc7"
}
layer {
  name: "drop7"
  type: "Dropout"
  bottom: "fc7"
  top: "fc7"
  dropout_param {
    dropout_ratio: 0.5
  }
}
layer {
  name: "fc8_plantvillage"
  type: "InnerProduct"
  bottom: "fc7"
  top: "fc8_plantvillage"
  param {
    lr_mult: 1
    decay_mult: 1
  }
  param {
    lr_mult: 2
    decay_mult: 0
  }
  inner_product_param {
    num_output: 38
    weight_filler {
      type: "gaussian"
      std: 0.01
    }
    bias_filler {
      type: "constant"
      value: 0
    }
  }
}
layer {
  name: "prob"
  type: "Softmax"
  bottom: "fc8_plantvillage"
  top: "prob"
  include {
    phase: TEST
  }
}
layer {
  name: "hdf5out"
  type: "HDF5Output"
  bottom: "prob"
  bottom: "label"
  include {
    phase: TEST
  }
  hdf5_output_param {
    file_name: "hdf5_dumps/iter_3497.h5"
  }
}
layer {
  name: "loss"
  type: "SoftmaxWithLoss"
  bottom: "fc8_plantvillage"
  bottom: "label"
  top: "loss"
}
layer {
  name: "accuracy"
  type: "Accuracy"
  bottom: "fc8_plantvillage"
  bottom: "label"
  top: "accuracy"
  include {
    phase: TEST
  }
}
I0403 14:54:24.921169  8322 layer_factory.hpp:77] Creating layer data
I0403 14:54:24.921792  8322 net.cpp:91] Creating Layer data
I0403 14:54:24.921824  8322 net.cpp:399] data -> data
I0403 14:54:24.921875  8322 net.cpp:399] data -> label
I0403 14:54:24.921911  8322 data_transformer.cpp:25] Loading mean file from: /home/mohanty/data/final_dataset/lmdb/color-50-50/mean.binaryproto
I0403 14:54:24.924342  8328 db_lmdb.cpp:38] Opened lmdb /home/mohanty/data/final_dataset/lmdb/color-50-50/test_db
I0403 14:54:24.936645  8322 data_layer.cpp:41] output data size: 100,3,227,227
I0403 14:54:25.056105  8322 net.cpp:141] Setting up data
I0403 14:54:25.056211  8322 net.cpp:148] Top shape: 100 3 227 227 (15458700)
I0403 14:54:25.056233  8322 net.cpp:148] Top shape: 100 (100)
I0403 14:54:25.056248  8322 net.cpp:156] Memory required for data: 61835200
I0403 14:54:25.056277  8322 layer_factory.hpp:77] Creating layer label_data_1_split
I0403 14:54:25.056301  8322 net.cpp:91] Creating Layer label_data_1_split
I0403 14:54:25.056318  8322 net.cpp:425] label_data_1_split <- label
I0403 14:54:25.056349  8322 net.cpp:399] label_data_1_split -> label_data_1_split_0
I0403 14:54:25.056375  8322 net.cpp:399] label_data_1_split -> label_data_1_split_1
I0403 14:54:25.056396  8322 net.cpp:399] label_data_1_split -> label_data_1_split_2
I0403 14:54:25.056458  8322 net.cpp:141] Setting up label_data_1_split
I0403 14:54:25.056480  8322 net.cpp:148] Top shape: 100 (100)
I0403 14:54:25.056498  8322 net.cpp:148] Top shape: 100 (100)
I0403 14:54:25.056514  8322 net.cpp:148] Top shape: 100 (100)
I0403 14:54:25.056529  8322 net.cpp:156] Memory required for data: 61836400
I0403 14:54:25.056543  8322 layer_factory.hpp:77] Creating layer conv1
I0403 14:54:25.056576  8322 net.cpp:91] Creating Layer conv1
I0403 14:54:25.056592  8322 net.cpp:425] conv1 <- data
I0403 14:54:25.056612  8322 net.cpp:399] conv1 -> conv1
I0403 14:54:25.199540  8322 net.cpp:141] Setting up conv1
I0403 14:54:25.199628  8322 net.cpp:148] Top shape: 100 96 55 55 (29040000)
I0403 14:54:25.199646  8322 net.cpp:156] Memory required for data: 177996400
I0403 14:54:25.199678  8322 layer_factory.hpp:77] Creating layer relu1
I0403 14:54:25.199707  8322 net.cpp:91] Creating Layer relu1
I0403 14:54:25.199724  8322 net.cpp:425] relu1 <- conv1
I0403 14:54:25.199744  8322 net.cpp:386] relu1 -> conv1 (in-place)
I0403 14:54:25.200037  8322 net.cpp:141] Setting up relu1
I0403 14:54:25.200065  8322 net.cpp:148] Top shape: 100 96 55 55 (29040000)
I0403 14:54:25.200081  8322 net.cpp:156] Memory required for data: 294156400
I0403 14:54:25.200127  8322 layer_factory.hpp:77] Creating layer norm1
I0403 14:54:25.200156  8322 net.cpp:91] Creating Layer norm1
I0403 14:54:25.200176  8322 net.cpp:425] norm1 <- conv1
I0403 14:54:25.200194  8322 net.cpp:399] norm1 -> norm1
I0403 14:54:25.200505  8322 net.cpp:141] Setting up norm1
I0403 14:54:25.200533  8322 net.cpp:148] Top shape: 100 96 55 55 (29040000)
I0403 14:54:25.200549  8322 net.cpp:156] Memory required for data: 410316400
I0403 14:54:25.200565  8322 layer_factory.hpp:77] Creating layer pool1
I0403 14:54:25.200588  8322 net.cpp:91] Creating Layer pool1
I0403 14:54:25.200606  8322 net.cpp:425] pool1 <- norm1
I0403 14:54:25.200624  8322 net.cpp:399] pool1 -> pool1
I0403 14:54:25.200691  8322 net.cpp:141] Setting up pool1
I0403 14:54:25.200716  8322 net.cpp:148] Top shape: 100 96 27 27 (6998400)
I0403 14:54:25.200731  8322 net.cpp:156] Memory required for data: 438310000
I0403 14:54:25.200747  8322 layer_factory.hpp:77] Creating layer conv2
I0403 14:54:25.200770  8322 net.cpp:91] Creating Layer conv2
I0403 14:54:25.200788  8322 net.cpp:425] conv2 <- pool1
I0403 14:54:25.200805  8322 net.cpp:399] conv2 -> conv2
I0403 14:54:25.215628  8322 net.cpp:141] Setting up conv2
I0403 14:54:25.215667  8322 net.cpp:148] Top shape: 100 256 27 27 (18662400)
I0403 14:54:25.215684  8322 net.cpp:156] Memory required for data: 512959600
I0403 14:54:25.215706  8322 layer_factory.hpp:77] Creating layer relu2
I0403 14:54:25.215725  8322 net.cpp:91] Creating Layer relu2
I0403 14:54:25.215741  8322 net.cpp:425] relu2 <- conv2
I0403 14:54:25.215764  8322 net.cpp:386] relu2 -> conv2 (in-place)
I0403 14:54:25.216048  8322 net.cpp:141] Setting up relu2
I0403 14:54:25.216074  8322 net.cpp:148] Top shape: 100 256 27 27 (18662400)
I0403 14:54:25.216089  8322 net.cpp:156] Memory required for data: 587609200
I0403 14:54:25.216105  8322 layer_factory.hpp:77] Creating layer norm2
I0403 14:54:25.216127  8322 net.cpp:91] Creating Layer norm2
I0403 14:54:25.216145  8322 net.cpp:425] norm2 <- conv2
I0403 14:54:25.216162  8322 net.cpp:399] norm2 -> norm2
I0403 14:54:25.216357  8322 net.cpp:141] Setting up norm2
I0403 14:54:25.216385  8322 net.cpp:148] Top shape: 100 256 27 27 (18662400)
I0403 14:54:25.216401  8322 net.cpp:156] Memory required for data: 662258800
I0403 14:54:25.216416  8322 layer_factory.hpp:77] Creating layer pool2
I0403 14:54:25.216434  8322 net.cpp:91] Creating Layer pool2
I0403 14:54:25.216450  8322 net.cpp:425] pool2 <- norm2
I0403 14:54:25.216470  8322 net.cpp:399] pool2 -> pool2
I0403 14:54:25.216521  8322 net.cpp:141] Setting up pool2
I0403 14:54:25.216543  8322 net.cpp:148] Top shape: 100 256 13 13 (4326400)
I0403 14:54:25.216558  8322 net.cpp:156] Memory required for data: 679564400
I0403 14:54:25.216572  8322 layer_factory.hpp:77] Creating layer conv3
I0403 14:54:25.216594  8322 net.cpp:91] Creating Layer conv3
I0403 14:54:25.216612  8322 net.cpp:425] conv3 <- pool2
I0403 14:54:25.216632  8322 net.cpp:399] conv3 -> conv3
I0403 14:54:25.254317  8322 net.cpp:141] Setting up conv3
I0403 14:54:25.254371  8322 net.cpp:148] Top shape: 100 384 13 13 (6489600)
I0403 14:54:25.254390  8322 net.cpp:156] Memory required for data: 705522800
I0403 14:54:25.254412  8322 layer_factory.hpp:77] Creating layer relu3
I0403 14:54:25.254432  8322 net.cpp:91] Creating Layer relu3
I0403 14:54:25.254449  8322 net.cpp:425] relu3 <- conv3
I0403 14:54:25.254470  8322 net.cpp:386] relu3 -> conv3 (in-place)
I0403 14:54:25.254739  8322 net.cpp:141] Setting up relu3
I0403 14:54:25.254765  8322 net.cpp:148] Top shape: 100 384 13 13 (6489600)
I0403 14:54:25.254781  8322 net.cpp:156] Memory required for data: 731481200
I0403 14:54:25.254797  8322 layer_factory.hpp:77] Creating layer conv4
I0403 14:54:25.254822  8322 net.cpp:91] Creating Layer conv4
I0403 14:54:25.254839  8322 net.cpp:425] conv4 <- conv3
I0403 14:54:25.254861  8322 net.cpp:399] conv4 -> conv4
I0403 14:54:25.284320  8322 net.cpp:141] Setting up conv4
I0403 14:54:25.284369  8322 net.cpp:148] Top shape: 100 384 13 13 (6489600)
I0403 14:54:25.284416  8322 net.cpp:156] Memory required for data: 757439600
I0403 14:54:25.284436  8322 layer_factory.hpp:77] Creating layer relu4
I0403 14:54:25.284456  8322 net.cpp:91] Creating Layer relu4
I0403 14:54:25.284473  8322 net.cpp:425] relu4 <- conv4
I0403 14:54:25.284492  8322 net.cpp:386] relu4 -> conv4 (in-place)
I0403 14:54:25.284797  8322 net.cpp:141] Setting up relu4
I0403 14:54:25.284826  8322 net.cpp:148] Top shape: 100 384 13 13 (6489600)
I0403 14:54:25.284842  8322 net.cpp:156] Memory required for data: 783398000
I0403 14:54:25.284857  8322 layer_factory.hpp:77] Creating layer conv5
I0403 14:54:25.284881  8322 net.cpp:91] Creating Layer conv5
I0403 14:54:25.284898  8322 net.cpp:425] conv5 <- conv4
I0403 14:54:25.284919  8322 net.cpp:399] conv5 -> conv5
I0403 14:54:25.305047  8322 net.cpp:141] Setting up conv5
I0403 14:54:25.305132  8322 net.cpp:148] Top shape: 100 256 13 13 (4326400)
I0403 14:54:25.305152  8322 net.cpp:156] Memory required for data: 800703600
I0403 14:54:25.305176  8322 layer_factory.hpp:77] Creating layer relu5
I0403 14:54:25.305196  8322 net.cpp:91] Creating Layer relu5
I0403 14:54:25.305212  8322 net.cpp:425] relu5 <- conv5
I0403 14:54:25.305233  8322 net.cpp:386] relu5 -> conv5 (in-place)
I0403 14:54:25.305510  8322 net.cpp:141] Setting up relu5
I0403 14:54:25.305538  8322 net.cpp:148] Top shape: 100 256 13 13 (4326400)
I0403 14:54:25.305555  8322 net.cpp:156] Memory required for data: 818009200
I0403 14:54:25.305570  8322 layer_factory.hpp:77] Creating layer pool5
I0403 14:54:25.305593  8322 net.cpp:91] Creating Layer pool5
I0403 14:54:25.305613  8322 net.cpp:425] pool5 <- conv5
I0403 14:54:25.305631  8322 net.cpp:399] pool5 -> pool5
I0403 14:54:25.305688  8322 net.cpp:141] Setting up pool5
I0403 14:54:25.305714  8322 net.cpp:148] Top shape: 100 256 6 6 (921600)
I0403 14:54:25.305728  8322 net.cpp:156] Memory required for data: 821695600
I0403 14:54:25.305744  8322 layer_factory.hpp:77] Creating layer fc6
I0403 14:54:25.305770  8322 net.cpp:91] Creating Layer fc6
I0403 14:54:25.305788  8322 net.cpp:425] fc6 <- pool5
I0403 14:54:25.305807  8322 net.cpp:399] fc6 -> fc6
I0403 14:54:26.826486  8322 net.cpp:141] Setting up fc6
I0403 14:54:26.826577  8322 net.cpp:148] Top shape: 100 4096 (409600)
I0403 14:54:26.826594  8322 net.cpp:156] Memory required for data: 823334000
I0403 14:54:26.826617  8322 layer_factory.hpp:77] Creating layer relu6
I0403 14:54:26.826638  8322 net.cpp:91] Creating Layer relu6
I0403 14:54:26.826655  8322 net.cpp:425] relu6 <- fc6
I0403 14:54:26.826674  8322 net.cpp:386] relu6 -> fc6 (in-place)
I0403 14:54:26.826889  8322 net.cpp:141] Setting up relu6
I0403 14:54:26.826915  8322 net.cpp:148] Top shape: 100 4096 (409600)
I0403 14:54:26.826930  8322 net.cpp:156] Memory required for data: 824972400
I0403 14:54:26.826946  8322 layer_factory.hpp:77] Creating layer drop6
I0403 14:54:26.826964  8322 net.cpp:91] Creating Layer drop6
I0403 14:54:26.826984  8322 net.cpp:425] drop6 <- fc6
I0403 14:54:26.827005  8322 net.cpp:386] drop6 -> fc6 (in-place)
I0403 14:54:26.827059  8322 net.cpp:141] Setting up drop6
I0403 14:54:26.827080  8322 net.cpp:148] Top shape: 100 4096 (409600)
I0403 14:54:26.827095  8322 net.cpp:156] Memory required for data: 826610800
I0403 14:54:26.827108  8322 layer_factory.hpp:77] Creating layer fc7
I0403 14:54:26.827131  8322 net.cpp:91] Creating Layer fc7
I0403 14:54:26.827147  8322 net.cpp:425] fc7 <- fc6
I0403 14:54:26.827168  8322 net.cpp:399] fc7 -> fc7
I0403 14:54:27.502774  8322 net.cpp:141] Setting up fc7
I0403 14:54:27.502861  8322 net.cpp:148] Top shape: 100 4096 (409600)
I0403 14:54:27.502876  8322 net.cpp:156] Memory required for data: 828249200
I0403 14:54:27.502898  8322 layer_factory.hpp:77] Creating layer relu7
I0403 14:54:27.502921  8322 net.cpp:91] Creating Layer relu7
I0403 14:54:27.502954  8322 net.cpp:425] relu7 <- fc7
I0403 14:54:27.502972  8322 net.cpp:386] relu7 -> fc7 (in-place)
I0403 14:54:27.503378  8322 net.cpp:141] Setting up relu7
I0403 14:54:27.503407  8322 net.cpp:148] Top shape: 100 4096 (409600)
I0403 14:54:27.503453  8322 net.cpp:156] Memory required for data: 829887600
I0403 14:54:27.503468  8322 layer_factory.hpp:77] Creating layer drop7
I0403 14:54:27.503487  8322 net.cpp:91] Creating Layer drop7
I0403 14:54:27.503502  8322 net.cpp:425] drop7 <- fc7
I0403 14:54:27.503520  8322 net.cpp:386] drop7 -> fc7 (in-place)
I0403 14:54:27.503566  8322 net.cpp:141] Setting up drop7
I0403 14:54:27.503587  8322 net.cpp:148] Top shape: 100 4096 (409600)
I0403 14:54:27.503602  8322 net.cpp:156] Memory required for data: 831526000
I0403 14:54:27.503615  8322 layer_factory.hpp:77] Creating layer fc8_plantvillage
I0403 14:54:27.503636  8322 net.cpp:91] Creating Layer fc8_plantvillage
I0403 14:54:27.503653  8322 net.cpp:425] fc8_plantvillage <- fc7
I0403 14:54:27.503670  8322 net.cpp:399] fc8_plantvillage -> fc8_plantvillage
I0403 14:54:27.510277  8322 net.cpp:141] Setting up fc8_plantvillage
I0403 14:54:27.510303  8322 net.cpp:148] Top shape: 100 38 (3800)
I0403 14:54:27.510319  8322 net.cpp:156] Memory required for data: 831541200
I0403 14:54:27.510337  8322 layer_factory.hpp:77] Creating layer fc8_plantvillage_fc8_plantvillage_0_split
I0403 14:54:27.510356  8322 net.cpp:91] Creating Layer fc8_plantvillage_fc8_plantvillage_0_split
I0403 14:54:27.510370  8322 net.cpp:425] fc8_plantvillage_fc8_plantvillage_0_split <- fc8_plantvillage
I0403 14:54:27.510390  8322 net.cpp:399] fc8_plantvillage_fc8_plantvillage_0_split -> fc8_plantvillage_fc8_plantvillage_0_split_0
I0403 14:54:27.510411  8322 net.cpp:399] fc8_plantvillage_fc8_plantvillage_0_split -> fc8_plantvillage_fc8_plantvillage_0_split_1
I0403 14:54:27.510431  8322 net.cpp:399] fc8_plantvillage_fc8_plantvillage_0_split -> fc8_plantvillage_fc8_plantvillage_0_split_2
I0403 14:54:27.510505  8322 net.cpp:141] Setting up fc8_plantvillage_fc8_plantvillage_0_split
I0403 14:54:27.510529  8322 net.cpp:148] Top shape: 100 38 (3800)
I0403 14:54:27.510545  8322 net.cpp:148] Top shape: 100 38 (3800)
I0403 14:54:27.510560  8322 net.cpp:148] Top shape: 100 38 (3800)
I0403 14:54:27.510573  8322 net.cpp:156] Memory required for data: 831586800
I0403 14:54:27.510588  8322 layer_factory.hpp:77] Creating layer prob
I0403 14:54:27.510608  8322 net.cpp:91] Creating Layer prob
I0403 14:54:27.510624  8322 net.cpp:425] prob <- fc8_plantvillage_fc8_plantvillage_0_split_0
I0403 14:54:27.510642  8322 net.cpp:399] prob -> prob
I0403 14:54:27.510857  8322 net.cpp:141] Setting up prob
I0403 14:54:27.510885  8322 net.cpp:148] Top shape: 100 38 (3800)
I0403 14:54:27.510901  8322 net.cpp:156] Memory required for data: 831602000
I0403 14:54:27.510916  8322 layer_factory.hpp:77] Creating layer hdf5out
I0403 14:54:27.510934  8322 net.cpp:91] Creating Layer hdf5out
I0403 14:54:27.510949  8322 net.cpp:425] hdf5out <- prob
I0403 14:54:27.510964  8322 net.cpp:425] hdf5out <- label_data_1_split_0
I0403 14:54:27.513458  8322 net.cpp:141] Setting up hdf5out
…
