…
I0403 14:51:39.982621  8150 net.cpp:313] The NetState phase (1) differed from the phase (0) specified by a rule in layer data
I0403 14:51:39.982933  8150 net.cpp:49] Initializing net from parameters: 
state {
  phase: TEST
}
layer {
  name: "data"
  type: "Data"
  top: "data"
  top: "label"
  include {
    phase: TEST
  }
  transform_param {
    crop_size: 227
    mean_file: "/home/mohanty/data/final_dataset/lmdb/color-50-50/mean.binaryproto"
  }
  data_param {
    source: "/home/mohanty/data/final_dataset/lmdb/color-50-50/test_db"
    batch_size: 100
    backend: LMDB
  }
}
layer {
  name: "conv1"
  type: "Convolution"
  bottom: "data"
  top: "conv1"
  param {
    lr_mult: 1
    decay_mult: 1
  }
  param {
    lr_mult: 2
    decay_mult: 0
  }
  convolution_param {
    num_output: 96
    kernel_size: 11
    stride: 4
    weight_filler {
      type: "gaussian"
      std: 0.01
    }
    bias_filler {
      type: "constant"
      value: 0
    }
  }
}
layer {
  name: "relu1"
  type: "ReLU"
  bottom: "conv1"
  top: "conv1"
}
layer {
  name: "norm1"
  type: "LRN"
  bottom: "conv1"
  top: "norm1"
  lrn_param {
    local_size: 5
    alpha: 0.0001
    beta: 0.75
  }
}
layer {
  name: "pool1"
  type: "Pooling"
  bottom: "norm1"
  top: "pool1"
  pooling_param {
    pool: MAX
    kernel_size: 3
    stride: 2
  }
}
layer {
  name: "conv2"
  type: "Convolution"
  bottom: "pool1"
  top: "conv2"
  param {
    lr_mult: 1
    decay_mult: 1
  }
  param {
    lr_mult: 2
    decay_mult: 0
  }
  convolution_param {
    num_output: 256
    pad: 2
    kernel_size: 5
    group: 2
    weight_filler {
      type: "gaussian"
      std: 0.01
    }
    bias_filler {
      type: "constant"
      value: 0.1
    }
  }
}
layer {
  name: "relu2"
  type: "ReLU"
  bottom: "conv2"
  top: "conv2"
}
layer {
  name: "norm2"
  type: "LRN"
  bottom: "conv2"
  top: "norm2"
  lrn_param {
    local_size: 5
    alpha: 0.0001
    beta: 0.75
  }
}
layer {
  name: "pool2"
  type: "Pooling"
  bottom: "norm2"
  top: "pool2"
  pooling_param {
    pool: MAX
    kernel_size: 3
    stride: 2
  }
}
layer {
  name: "conv3"
  type: "Convolution"
  bottom: "pool2"
  top: "conv3"
  param {
    lr_mult: 1
    decay_mult: 1
  }
  param {
    lr_mult: 2
    decay_mult: 0
  }
  convolution_param {
    num_output: 384
    pad: 1
    kernel_size: 3
    weight_filler {
      type: "gaussian"
      std: 0.01
    }
    bias_filler {
      type: "constant"
      value: 0
    }
  }
}
layer {
  name: "relu3"
  type: "ReLU"
  bottom: "conv3"
  top: "conv3"
}
layer {
  name: "conv4"
  type: "Convolution"
  bottom: "conv3"
  top: "conv4"
  param {
    lr_mult: 1
    decay_mult: 1
  }
  param {
    lr_mult: 2
    decay_mult: 0
  }
  convolution_param {
    num_output: 384
    pad: 1
    kernel_size: 3
    group: 2
    weight_filler {
      type: "gaussian"
      std: 0.01
    }
    bias_filler {
      type: "constant"
      value: 0.1
    }
  }
}
layer {
  name: "relu4"
  type: "ReLU"
  bottom: "conv4"
  top: "conv4"
}
layer {
  name: "conv5"
  type: "Convolution"
  bottom: "conv4"
  top: "conv5"
  param {
    lr_mult: 1
    decay_mult: 1
  }
  param {
    lr_mult: 2
    decay_mult: 0
  }
  convolution_param {
    num_output: 256
    pad: 1
    kernel_size: 3
    group: 2
    weight_filler {
      type: "gaussian"
      std: 0.01
    }
    bias_filler {
      type: "constant"
      value: 0.1
    }
  }
}
layer {
  name: "relu5"
  type: "ReLU"
  bottom: "conv5"
  top: "conv5"
}
layer {
  name: "pool5"
  type: "Pooling"
  bottom: "conv5"
  top: "pool5"
  pooling_param {
    pool: MAX
    kernel_size: 3
    stride: 2
  }
}
layer {
  name: "fc6"
  type: "InnerProduct"
  bottom: "pool5"
  top: "fc6"
  param {
    lr_mult: 1
    decay_mult: 1
  }
  param {
    lr_mult: 2
    decay_mult: 0
  }
  inner_product_param {
    num_output: 4096
    weight_filler {
      type: "gaussian"
      std: 0.005
    }
    bias_filler {
      type: "constant"
      value: 0.1
    }
  }
}
layer {
  name: "relu6"
  type: "ReLU"
  bottom: "fc6"
  top: "fc6"
}
layer {
  name: "drop6"
  type: "Dropout"
  bottom: "fc6"
  top: "fc6"
  dropout_param {
    dropout_ratio: 0.5
  }
}
layer {
  name: "fc7"
  type: "InnerProduct"
  bottom: "fc6"
  top: "fc7"
  param {
    lr_mult: 1
    decay_mult: 1
  }
  param {
    lr_mult: 2
    decay_mult: 0
  }
  inner_product_param {
    num_output: 4096
    weight_filler {
      type: "gaussian"
      std: 0.005
    }
    bias_filler {
      type: "constant"
      value: 0.1
    }
  }
}
layer {
  name: "relu7"
  type: "ReLU"
  bottom: "fc7"
  top: "fc7"
}
layer {
  name: "drop7"
  type: "Dropout"
  bottom: "fc7"
  top: "fc7"
  dropout_param {
    dropout_ratio: 0.5
  }
}
layer {
  name: "fc8_plantvillage"
  type: "InnerProduct"
  bottom: "fc7"
  top: "fc8_plantvillage"
  param {
    lr_mult: 1
    decay_mult: 1
  }
  param {
    lr_mult: 2
    decay_mult: 0
  }
  inner_product_param {
    num_output: 38
    weight_filler {
      type: "gaussian"
      std: 0.01
    }
    bias_filler {
      type: "constant"
      value: 0
    }
  }
}
layer {
  name: "prob"
  type: "Softmax"
  bottom: "fc8_plantvillage"
  top: "prob"
  include {
    phase: TEST
  }
}
layer {
  name: "hdf5out"
  type: "HDF5Output"
  bottom: "prob"
  bottom: "label"
  include {
    phase: TEST
  }
  hdf5_output_param {
    file_name: "hdf5_dumps/iter_2690.h5"
  }
}
layer {
  name: "loss"
  type: "SoftmaxWithLoss"
  bottom: "fc8_plantvillage"
  bottom: "label"
  top: "loss"
}
layer {
  name: "accuracy"
  type: "Accuracy"
  bottom: "fc8_plantvillage"
  bottom: "label"
  top: "accuracy"
  include {
    phase: TEST
  }
}
I0403 14:51:39.983477  8150 layer_factory.hpp:77] Creating layer data
I0403 14:51:39.984110  8150 net.cpp:91] Creating Layer data
I0403 14:51:39.984143  8150 net.cpp:399] data -> data
I0403 14:51:39.984194  8150 net.cpp:399] data -> label
I0403 14:51:39.984231  8150 data_transformer.cpp:25] Loading mean file from: /home/mohanty/data/final_dataset/lmdb/color-50-50/mean.binaryproto
I0403 14:51:39.986675  8155 db_lmdb.cpp:38] Opened lmdb /home/mohanty/data/final_dataset/lmdb/color-50-50/test_db
I0403 14:51:39.998642  8150 data_layer.cpp:41] output data size: 100,3,227,227
I0403 14:51:40.119189  8150 net.cpp:141] Setting up data
I0403 14:51:40.119297  8150 net.cpp:148] Top shape: 100 3 227 227 (15458700)
I0403 14:51:40.119320  8150 net.cpp:148] Top shape: 100 (100)
I0403 14:51:40.119336  8150 net.cpp:156] Memory required for data: 61835200
I0403 14:51:40.119365  8150 layer_factory.hpp:77] Creating layer label_data_1_split
I0403 14:51:40.119392  8150 net.cpp:91] Creating Layer label_data_1_split
I0403 14:51:40.119410  8150 net.cpp:425] label_data_1_split <- label
I0403 14:51:40.119441  8150 net.cpp:399] label_data_1_split -> label_data_1_split_0
I0403 14:51:40.119469  8150 net.cpp:399] label_data_1_split -> label_data_1_split_1
I0403 14:51:40.119489  8150 net.cpp:399] label_data_1_split -> label_data_1_split_2
I0403 14:51:40.119554  8150 net.cpp:141] Setting up label_data_1_split
I0403 14:51:40.119578  8150 net.cpp:148] Top shape: 100 (100)
I0403 14:51:40.119596  8150 net.cpp:148] Top shape: 100 (100)
I0403 14:51:40.119612  8150 net.cpp:148] Top shape: 100 (100)
I0403 14:51:40.119627  8150 net.cpp:156] Memory required for data: 61836400
I0403 14:51:40.119642  8150 layer_factory.hpp:77] Creating layer conv1
I0403 14:51:40.119673  8150 net.cpp:91] Creating Layer conv1
I0403 14:51:40.119693  8150 net.cpp:425] conv1 <- data
I0403 14:51:40.119711  8150 net.cpp:399] conv1 -> conv1
I0403 14:51:40.261490  8150 net.cpp:141] Setting up conv1
I0403 14:51:40.261613  8150 net.cpp:148] Top shape: 100 96 55 55 (29040000)
I0403 14:51:40.261633  8150 net.cpp:156] Memory required for data: 177996400
I0403 14:51:40.261664  8150 layer_factory.hpp:77] Creating layer relu1
I0403 14:51:40.261692  8150 net.cpp:91] Creating Layer relu1
I0403 14:51:40.261710  8150 net.cpp:425] relu1 <- conv1
I0403 14:51:40.261732  8150 net.cpp:386] relu1 -> conv1 (in-place)
I0403 14:51:40.262014  8150 net.cpp:141] Setting up relu1
I0403 14:51:40.262042  8150 net.cpp:148] Top shape: 100 96 55 55 (29040000)
I0403 14:51:40.262058  8150 net.cpp:156] Memory required for data: 294156400
I0403 14:51:40.262105  8150 layer_factory.hpp:77] Creating layer norm1
I0403 14:51:40.262135  8150 net.cpp:91] Creating Layer norm1
I0403 14:51:40.262154  8150 net.cpp:425] norm1 <- conv1
I0403 14:51:40.262176  8150 net.cpp:399] norm1 -> norm1
I0403 14:51:40.262508  8150 net.cpp:141] Setting up norm1
I0403 14:51:40.262536  8150 net.cpp:148] Top shape: 100 96 55 55 (29040000)
I0403 14:51:40.262552  8150 net.cpp:156] Memory required for data: 410316400
I0403 14:51:40.262567  8150 layer_factory.hpp:77] Creating layer pool1
I0403 14:51:40.262590  8150 net.cpp:91] Creating Layer pool1
I0403 14:51:40.262609  8150 net.cpp:425] pool1 <- norm1
I0403 14:51:40.262629  8150 net.cpp:399] pool1 -> pool1
I0403 14:51:40.262703  8150 net.cpp:141] Setting up pool1
I0403 14:51:40.262728  8150 net.cpp:148] Top shape: 100 96 27 27 (6998400)
I0403 14:51:40.262743  8150 net.cpp:156] Memory required for data: 438310000
I0403 14:51:40.262760  8150 layer_factory.hpp:77] Creating layer conv2
I0403 14:51:40.262787  8150 net.cpp:91] Creating Layer conv2
I0403 14:51:40.262804  8150 net.cpp:425] conv2 <- pool1
I0403 14:51:40.262825  8150 net.cpp:399] conv2 -> conv2
I0403 14:51:40.278228  8150 net.cpp:141] Setting up conv2
I0403 14:51:40.278261  8150 net.cpp:148] Top shape: 100 256 27 27 (18662400)
I0403 14:51:40.278280  8150 net.cpp:156] Memory required for data: 512959600
I0403 14:51:40.278301  8150 layer_factory.hpp:77] Creating layer relu2
I0403 14:51:40.278323  8150 net.cpp:91] Creating Layer relu2
I0403 14:51:40.278340  8150 net.cpp:425] relu2 <- conv2
I0403 14:51:40.278358  8150 net.cpp:386] relu2 -> conv2 (in-place)
I0403 14:51:40.278641  8150 net.cpp:141] Setting up relu2
I0403 14:51:40.278669  8150 net.cpp:148] Top shape: 100 256 27 27 (18662400)
I0403 14:51:40.278686  8150 net.cpp:156] Memory required for data: 587609200
I0403 14:51:40.278702  8150 layer_factory.hpp:77] Creating layer norm2
I0403 14:51:40.278724  8150 net.cpp:91] Creating Layer norm2
I0403 14:51:40.278743  8150 net.cpp:425] norm2 <- conv2
I0403 14:51:40.278764  8150 net.cpp:399] norm2 -> norm2
I0403 14:51:40.278975  8150 net.cpp:141] Setting up norm2
I0403 14:51:40.279002  8150 net.cpp:148] Top shape: 100 256 27 27 (18662400)
I0403 14:51:40.279018  8150 net.cpp:156] Memory required for data: 662258800
I0403 14:51:40.279034  8150 layer_factory.hpp:77] Creating layer pool2
I0403 14:51:40.279055  8150 net.cpp:91] Creating Layer pool2
I0403 14:51:40.279072  8150 net.cpp:425] pool2 <- norm2
I0403 14:51:40.279090  8150 net.cpp:399] pool2 -> pool2
I0403 14:51:40.279144  8150 net.cpp:141] Setting up pool2
I0403 14:51:40.279167  8150 net.cpp:148] Top shape: 100 256 13 13 (4326400)
I0403 14:51:40.279182  8150 net.cpp:156] Memory required for data: 679564400
I0403 14:51:40.279197  8150 layer_factory.hpp:77] Creating layer conv3
I0403 14:51:40.279220  8150 net.cpp:91] Creating Layer conv3
I0403 14:51:40.279237  8150 net.cpp:425] conv3 <- pool2
I0403 14:51:40.279258  8150 net.cpp:399] conv3 -> conv3
I0403 14:51:40.319596  8150 net.cpp:141] Setting up conv3
I0403 14:51:40.319648  8150 net.cpp:148] Top shape: 100 384 13 13 (6489600)
I0403 14:51:40.319664  8150 net.cpp:156] Memory required for data: 705522800
I0403 14:51:40.319687  8150 layer_factory.hpp:77] Creating layer relu3
I0403 14:51:40.319711  8150 net.cpp:91] Creating Layer relu3
I0403 14:51:40.319730  8150 net.cpp:425] relu3 <- conv3
I0403 14:51:40.319749  8150 net.cpp:386] relu3 -> conv3 (in-place)
I0403 14:51:40.320031  8150 net.cpp:141] Setting up relu3
I0403 14:51:40.320058  8150 net.cpp:148] Top shape: 100 384 13 13 (6489600)
I0403 14:51:40.320075  8150 net.cpp:156] Memory required for data: 731481200
I0403 14:51:40.320091  8150 layer_factory.hpp:77] Creating layer conv4
I0403 14:51:40.320116  8150 net.cpp:91] Creating Layer conv4
I0403 14:51:40.320133  8150 net.cpp:425] conv4 <- conv3
I0403 14:51:40.320157  8150 net.cpp:399] conv4 -> conv4
I0403 14:51:40.350494  8150 net.cpp:141] Setting up conv4
I0403 14:51:40.350538  8150 net.cpp:148] Top shape: 100 384 13 13 (6489600)
I0403 14:51:40.350589  8150 net.cpp:156] Memory required for data: 757439600
I0403 14:51:40.350611  8150 layer_factory.hpp:77] Creating layer relu4
I0403 14:51:40.350631  8150 net.cpp:91] Creating Layer relu4
I0403 14:51:40.350648  8150 net.cpp:425] relu4 <- conv4
I0403 14:51:40.350669  8150 net.cpp:386] relu4 -> conv4 (in-place)
I0403 14:51:40.350955  8150 net.cpp:141] Setting up relu4
I0403 14:51:40.350981  8150 net.cpp:148] Top shape: 100 384 13 13 (6489600)
I0403 14:51:40.350997  8150 net.cpp:156] Memory required for data: 783398000
I0403 14:51:40.351013  8150 layer_factory.hpp:77] Creating layer conv5
I0403 14:51:40.351037  8150 net.cpp:91] Creating Layer conv5
I0403 14:51:40.351057  8150 net.cpp:425] conv5 <- conv4
I0403 14:51:40.351078  8150 net.cpp:399] conv5 -> conv5
I0403 14:51:40.371603  8150 net.cpp:141] Setting up conv5
I0403 14:51:40.371639  8150 net.cpp:148] Top shape: 100 256 13 13 (4326400)
I0403 14:51:40.371657  8150 net.cpp:156] Memory required for data: 800703600
I0403 14:51:40.371681  8150 layer_factory.hpp:77] Creating layer relu5
I0403 14:51:40.371704  8150 net.cpp:91] Creating Layer relu5
I0403 14:51:40.371721  8150 net.cpp:425] relu5 <- conv5
I0403 14:51:40.371739  8150 net.cpp:386] relu5 -> conv5 (in-place)
I0403 14:51:40.372017  8150 net.cpp:141] Setting up relu5
I0403 14:51:40.372045  8150 net.cpp:148] Top shape: 100 256 13 13 (4326400)
I0403 14:51:40.372061  8150 net.cpp:156] Memory required for data: 818009200
I0403 14:51:40.372076  8150 layer_factory.hpp:77] Creating layer pool5
I0403 14:51:40.372102  8150 net.cpp:91] Creating Layer pool5
I0403 14:51:40.372119  8150 net.cpp:425] pool5 <- conv5
I0403 14:51:40.372138  8150 net.cpp:399] pool5 -> pool5
I0403 14:51:40.372200  8150 net.cpp:141] Setting up pool5
I0403 14:51:40.372223  8150 net.cpp:148] Top shape: 100 256 6 6 (921600)
I0403 14:51:40.372238  8150 net.cpp:156] Memory required for data: 821695600
I0403 14:51:40.372254  8150 layer_factory.hpp:77] Creating layer fc6
I0403 14:51:40.372283  8150 net.cpp:91] Creating Layer fc6
I0403 14:51:40.372303  8150 net.cpp:425] fc6 <- pool5
I0403 14:51:40.372321  8150 net.cpp:399] fc6 -> fc6
I0403 14:51:41.907352  8150 net.cpp:141] Setting up fc6
I0403 14:51:41.907434  8150 net.cpp:148] Top shape: 100 4096 (409600)
I0403 14:51:41.907451  8150 net.cpp:156] Memory required for data: 823334000
I0403 14:51:41.907474  8150 layer_factory.hpp:77] Creating layer relu6
I0403 14:51:41.907497  8150 net.cpp:91] Creating Layer relu6
I0403 14:51:41.907515  8150 net.cpp:425] relu6 <- fc6
I0403 14:51:41.907536  8150 net.cpp:386] relu6 -> fc6 (in-place)
I0403 14:51:41.907749  8150 net.cpp:141] Setting up relu6
I0403 14:51:41.907773  8150 net.cpp:148] Top shape: 100 4096 (409600)
I0403 14:51:41.907788  8150 net.cpp:156] Memory required for data: 824972400
I0403 14:51:41.907804  8150 layer_factory.hpp:77] Creating layer drop6
I0403 14:51:41.907824  8150 net.cpp:91] Creating Layer drop6
I0403 14:51:41.907841  8150 net.cpp:425] drop6 <- fc6
I0403 14:51:41.907858  8150 net.cpp:386] drop6 -> fc6 (in-place)
I0403 14:51:41.907909  8150 net.cpp:141] Setting up drop6
I0403 14:51:41.907937  8150 net.cpp:148] Top shape: 100 4096 (409600)
I0403 14:51:41.907958  8150 net.cpp:156] Memory required for data: 826610800
I0403 14:51:41.907974  8150 layer_factory.hpp:77] Creating layer fc7
I0403 14:51:41.907994  8150 net.cpp:91] Creating Layer fc7
I0403 14:51:41.908010  8150 net.cpp:425] fc7 <- fc6
I0403 14:51:41.908030  8150 net.cpp:399] fc7 -> fc7
I0403 14:51:42.581754  8150 net.cpp:141] Setting up fc7
I0403 14:51:42.581838  8150 net.cpp:148] Top shape: 100 4096 (409600)
I0403 14:51:42.581856  8150 net.cpp:156] Memory required for data: 828249200
I0403 14:51:42.581876  8150 layer_factory.hpp:77] Creating layer relu7
I0403 14:51:42.581899  8150 net.cpp:91] Creating Layer relu7
I0403 14:51:42.581917  8150 net.cpp:425] relu7 <- fc7
I0403 14:51:42.581941  8150 net.cpp:386] relu7 -> fc7 (in-place)
I0403 14:51:42.582327  8150 net.cpp:141] Setting up relu7
I0403 14:51:42.582352  8150 net.cpp:148] Top shape: 100 4096 (409600)
I0403 14:51:42.582401  8150 net.cpp:156] Memory required for data: 829887600
I0403 14:51:42.582417  8150 layer_factory.hpp:77] Creating layer drop7
I0403 14:51:42.582435  8150 net.cpp:91] Creating Layer drop7
I0403 14:51:42.582450  8150 net.cpp:425] drop7 <- fc7
I0403 14:51:42.582469  8150 net.cpp:386] drop7 -> fc7 (in-place)
I0403 14:51:42.582514  8150 net.cpp:141] Setting up drop7
I0403 14:51:42.582537  8150 net.cpp:148] Top shape: 100 4096 (409600)
I0403 14:51:42.582551  8150 net.cpp:156] Memory required for data: 831526000
I0403 14:51:42.582564  8150 layer_factory.hpp:77] Creating layer fc8_plantvillage
I0403 14:51:42.582584  8150 net.cpp:91] Creating Layer fc8_plantvillage
I0403 14:51:42.582600  8150 net.cpp:425] fc8_plantvillage <- fc7
I0403 14:51:42.582622  8150 net.cpp:399] fc8_plantvillage -> fc8_plantvillage
I0403 14:51:42.589179  8150 net.cpp:141] Setting up fc8_plantvillage
I0403 14:51:42.589207  8150 net.cpp:148] Top shape: 100 38 (3800)
I0403 14:51:42.589223  8150 net.cpp:156] Memory required for data: 831541200
I0403 14:51:42.589241  8150 layer_factory.hpp:77] Creating layer fc8_plantvillage_fc8_plantvillage_0_split
I0403 14:51:42.589262  8150 net.cpp:91] Creating Layer fc8_plantvillage_fc8_plantvillage_0_split
I0403 14:51:42.589278  8150 net.cpp:425] fc8_plantvillage_fc8_plantvillage_0_split <- fc8_plantvillage
I0403 14:51:42.589295  8150 net.cpp:399] fc8_plantvillage_fc8_plantvillage_0_split -> fc8_plantvillage_fc8_plantvillage_0_split_0
I0403 14:51:42.589314  8150 net.cpp:399] fc8_plantvillage_fc8_plantvillage_0_split -> fc8_plantvillage_fc8_plantvillage_0_split_1
I0403 14:51:42.589334  8150 net.cpp:399] fc8_plantvillage_fc8_plantvillage_0_split -> fc8_plantvillage_fc8_plantvillage_0_split_2
I0403 14:51:42.589409  8150 net.cpp:141] Setting up fc8_plantvillage_fc8_plantvillage_0_split
I0403 14:51:42.589432  8150 net.cpp:148] Top shape: 100 38 (3800)
I0403 14:51:42.589449  8150 net.cpp:148] Top shape: 100 38 (3800)
I0403 14:51:42.589464  8150 net.cpp:148] Top shape: 100 38 (3800)
I0403 14:51:42.589478  8150 net.cpp:156] Memory required for data: 831586800
I0403 14:51:42.589493  8150 layer_factory.hpp:77] Creating layer prob
I0403 14:51:42.589510  8150 net.cpp:91] Creating Layer prob
I0403 14:51:42.589525  8150 net.cpp:425] prob <- fc8_plantvillage_fc8_plantvillage_0_split_0
I0403 14:51:42.589543  8150 net.cpp:399] prob -> prob
I0403 14:51:42.589762  8150 net.cpp:141] Setting up prob
I0403 14:51:42.589787  8150 net.cpp:148] Top shape: 100 38 (3800)
I0403 14:51:42.589802  8150 net.cpp:156] Memory required for data: 831602000
I0403 14:51:42.589815  8150 layer_factory.hpp:77] Creating layer hdf5out
I0403 14:51:42.589834  8150 net.cpp:91] Creating Layer hdf5out
I0403 14:51:42.589849  8150 net.cpp:425] hdf5out <- prob
I0403 14:51:42.589865  8150 net.cpp:425] hdf5out <- label_data_1_split_0
I0403 14:51:42.592034  8150 net.cpp:141] Setting up hdf5out
…
