…
I0403 14:43:19.760376  7687 net.cpp:313] The NetState phase (1) differed from the phase (0) specified by a rule in layer data
I0403 14:43:19.760835  7687 net.cpp:49] Initializing net from parameters: 
state {
  phase: TEST
}
layer {
  name: "data"
  type: "Data"
  top: "data"
  top: "label"
  include {
    phase: TEST
  }
  transform_param {
    crop_size: 227
    mean_file: "/home/mohanty/data/final_dataset/lmdb/color-50-50/mean.binaryproto"
  }
  data_param {
    source: "/home/mohanty/data/final_dataset/lmdb/color-50-50/test_db"
    batch_size: 100
    backend: LMDB
  }
}
layer {
  name: "conv1"
  type: "Convolution"
  bottom: "data"
  top: "conv1"
  param {
    lr_mult: 1
    decay_mult: 1
  }
  param {
    lr_mult: 2
    decay_mult: 0
  }
  convolution_param {
    num_output: 96
    kernel_size: 11
    stride: 4
    weight_filler {
      type: "gaussian"
      std: 0.01
    }
    bias_filler {
      type: "constant"
      value: 0
    }
  }
}
layer {
  name: "relu1"
  type: "ReLU"
  bottom: "conv1"
  top: "conv1"
}
layer {
  name: "norm1"
  type: "LRN"
  bottom: "conv1"
  top: "norm1"
  lrn_param {
    local_size: 5
    alpha: 0.0001
    beta: 0.75
  }
}
layer {
  name: "pool1"
  type: "Pooling"
  bottom: "norm1"
  top: "pool1"
  pooling_param {
    pool: MAX
    kernel_size: 3
    stride: 2
  }
}
layer {
  name: "conv2"
  type: "Convolution"
  bottom: "pool1"
  top: "conv2"
  param {
    lr_mult: 1
    decay_mult: 1
  }
  param {
    lr_mult: 2
    decay_mult: 0
  }
  convolution_param {
    num_output: 256
    pad: 2
    kernel_size: 5
    group: 2
    weight_filler {
      type: "gaussian"
      std: 0.01
    }
    bias_filler {
      type: "constant"
      value: 0.1
    }
  }
}
layer {
  name: "relu2"
  type: "ReLU"
  bottom: "conv2"
  top: "conv2"
}
layer {
  name: "norm2"
  type: "LRN"
  bottom: "conv2"
  top: "norm2"
  lrn_param {
    local_size: 5
    alpha: 0.0001
    beta: 0.75
  }
}
layer {
  name: "pool2"
  type: "Pooling"
  bottom: "norm2"
  top: "pool2"
  pooling_param {
    pool: MAX
    kernel_size: 3
    stride: 2
  }
}
layer {
  name: "conv3"
  type: "Convolution"
  bottom: "pool2"
  top: "conv3"
  param {
    lr_mult: 1
    decay_mult: 1
  }
  param {
    lr_mult: 2
    decay_mult: 0
  }
  convolution_param {
    num_output: 384
    pad: 1
    kernel_size: 3
    weight_filler {
      type: "gaussian"
      std: 0.01
    }
    bias_filler {
      type: "constant"
      value: 0
    }
  }
}
layer {
  name: "relu3"
  type: "ReLU"
  bottom: "conv3"
  top: "conv3"
}
layer {
  name: "conv4"
  type: "Convolution"
  bottom: "conv3"
  top: "conv4"
  param {
    lr_mult: 1
    decay_mult: 1
  }
  param {
    lr_mult: 2
    decay_mult: 0
  }
  convolution_param {
    num_output: 384
    pad: 1
    kernel_size: 3
    group: 2
    weight_filler {
      type: "gaussian"
      std: 0.01
    }
    bias_filler {
      type: "constant"
      value: 0.1
    }
  }
}
layer {
  name: "relu4"
  type: "ReLU"
  bottom: "conv4"
  top: "conv4"
}
layer {
  name: "conv5"
  type: "Convolution"
  bottom: "conv4"
  top: "conv5"
  param {
    lr_mult: 1
    decay_mult: 1
  }
  param {
    lr_mult: 2
    decay_mult: 0
  }
  convolution_param {
    num_output: 256
    pad: 1
    kernel_size: 3
    group: 2
    weight_filler {
      type: "gaussian"
      std: 0.01
    }
    bias_filler {
      type: "constant"
      value: 0.1
    }
  }
}
layer {
  name: "relu5"
  type: "ReLU"
  bottom: "conv5"
  top: "conv5"
}
layer {
  name: "pool5"
  type: "Pooling"
  bottom: "conv5"
  top: "pool5"
  pooling_param {
    pool: MAX
    kernel_size: 3
    stride: 2
  }
}
layer {
  name: "fc6"
  type: "InnerProduct"
  bottom: "pool5"
  top: "fc6"
  param {
    lr_mult: 1
    decay_mult: 1
  }
  param {
    lr_mult: 2
    decay_mult: 0
  }
  inner_product_param {
    num_output: 4096
    weight_filler {
      type: "gaussian"
      std: 0.005
    }
    bias_filler {
      type: "constant"
      value: 0.1
    }
  }
}
layer {
  name: "relu6"
  type: "ReLU"
  bottom: "fc6"
  top: "fc6"
}
layer {
  name: "drop6"
  type: "Dropout"
  bottom: "fc6"
  top: "fc6"
  dropout_param {
    dropout_ratio: 0.5
  }
}
layer {
  name: "fc7"
  type: "InnerProduct"
  bottom: "fc6"
  top: "fc7"
  param {
    lr_mult: 1
    decay_mult: 1
  }
  param {
    lr_mult: 2
    decay_mult: 0
  }
  inner_product_param {
    num_output: 4096
    weight_filler {
      type: "gaussian"
      std: 0.005
    }
    bias_filler {
      type: "constant"
      value: 0.1
    }
  }
}
layer {
  name: "relu7"
  type: "ReLU"
  bottom: "fc7"
  top: "fc7"
}
layer {
  name: "drop7"
  type: "Dropout"
  bottom: "fc7"
  top: "fc7"
  dropout_param {
    dropout_ratio: 0.5
  }
}
layer {
  name: "fc8_plantvillage"
  type: "InnerProduct"
  bottom: "fc7"
  top: "fc8_plantvillage"
  param {
    lr_mult: 1
    decay_mult: 1
  }
  param {
    lr_mult: 2
    decay_mult: 0
  }
  inner_product_param {
    num_output: 38
    weight_filler {
      type: "gaussian"
      std: 0.01
    }
    bias_filler {
      type: "constant"
      value: 0
    }
  }
}
layer {
  name: "prob"
  type: "Softmax"
  bottom: "fc8_plantvillage"
  top: "prob"
  include {
    phase: TEST
  }
}
layer {
  name: "hdf5out"
  type: "HDF5Output"
  bottom: "prob"
  bottom: "label"
  include {
    phase: TEST
  }
  hdf5_output_param {
    file_name: "hdf5_dumps/iter_269.h5"
  }
}
layer {
  name: "loss"
  type: "SoftmaxWithLoss"
  bottom: "fc8_plantvillage"
  bottom: "label"
  top: "loss"
}
layer {
  name: "accuracy"
  type: "Accuracy"
  bottom: "fc8_plantvillage"
  bottom: "label"
  top: "accuracy"
  include {
    phase: TEST
  }
}
I0403 14:43:19.763392  7687 layer_factory.hpp:77] Creating layer data
I0403 14:43:19.764291  7687 net.cpp:91] Creating Layer data
I0403 14:43:19.764323  7687 net.cpp:399] data -> data
I0403 14:43:19.764421  7687 net.cpp:399] data -> label
I0403 14:43:19.764493  7687 data_transformer.cpp:25] Loading mean file from: /home/mohanty/data/final_dataset/lmdb/color-50-50/mean.binaryproto
I0403 14:43:19.860561  7691 db_lmdb.cpp:38] Opened lmdb /home/mohanty/data/final_dataset/lmdb/color-50-50/test_db
I0403 14:43:19.962633  7687 data_layer.cpp:41] output data size: 100,3,227,227
I0403 14:43:20.102967  7687 net.cpp:141] Setting up data
I0403 14:43:20.103070  7687 net.cpp:148] Top shape: 100 3 227 227 (15458700)
I0403 14:43:20.103096  7687 net.cpp:148] Top shape: 100 (100)
I0403 14:43:20.103112  7687 net.cpp:156] Memory required for data: 61835200
I0403 14:43:20.103142  7687 layer_factory.hpp:77] Creating layer label_data_1_split
I0403 14:43:20.103168  7687 net.cpp:91] Creating Layer label_data_1_split
I0403 14:43:20.103186  7687 net.cpp:425] label_data_1_split <- label
I0403 14:43:20.103217  7687 net.cpp:399] label_data_1_split -> label_data_1_split_0
I0403 14:43:20.103246  7687 net.cpp:399] label_data_1_split -> label_data_1_split_1
I0403 14:43:20.103266  7687 net.cpp:399] label_data_1_split -> label_data_1_split_2
I0403 14:43:20.103333  7687 net.cpp:141] Setting up label_data_1_split
I0403 14:43:20.103358  7687 net.cpp:148] Top shape: 100 (100)
I0403 14:43:20.103374  7687 net.cpp:148] Top shape: 100 (100)
I0403 14:43:20.103391  7687 net.cpp:148] Top shape: 100 (100)
I0403 14:43:20.103406  7687 net.cpp:156] Memory required for data: 61836400
I0403 14:43:20.103422  7687 layer_factory.hpp:77] Creating layer conv1
I0403 14:43:20.103467  7687 net.cpp:91] Creating Layer conv1
I0403 14:43:20.103487  7687 net.cpp:425] conv1 <- data
I0403 14:43:20.103508  7687 net.cpp:399] conv1 -> conv1
I0403 14:43:20.441570  7687 net.cpp:141] Setting up conv1
I0403 14:43:20.441633  7687 net.cpp:148] Top shape: 100 96 55 55 (29040000)
I0403 14:43:20.441651  7687 net.cpp:156] Memory required for data: 177996400
I0403 14:43:20.441684  7687 layer_factory.hpp:77] Creating layer relu1
I0403 14:43:20.441725  7687 net.cpp:91] Creating Layer relu1
I0403 14:43:20.441745  7687 net.cpp:425] relu1 <- conv1
I0403 14:43:20.441766  7687 net.cpp:386] relu1 -> conv1 (in-place)
I0403 14:43:20.442036  7687 net.cpp:141] Setting up relu1
I0403 14:43:20.442065  7687 net.cpp:148] Top shape: 100 96 55 55 (29040000)
I0403 14:43:20.442081  7687 net.cpp:156] Memory required for data: 294156400
I0403 14:43:20.442121  7687 layer_factory.hpp:77] Creating layer norm1
I0403 14:43:20.442163  7687 net.cpp:91] Creating Layer norm1
I0403 14:43:20.442184  7687 net.cpp:425] norm1 <- conv1
I0403 14:43:20.442205  7687 net.cpp:399] norm1 -> norm1
I0403 14:43:20.442544  7687 net.cpp:141] Setting up norm1
I0403 14:43:20.442574  7687 net.cpp:148] Top shape: 100 96 55 55 (29040000)
I0403 14:43:20.442589  7687 net.cpp:156] Memory required for data: 410316400
I0403 14:43:20.442606  7687 layer_factory.hpp:77] Creating layer pool1
I0403 14:43:20.442641  7687 net.cpp:91] Creating Layer pool1
I0403 14:43:20.442662  7687 net.cpp:425] pool1 <- norm1
I0403 14:43:20.442680  7687 net.cpp:399] pool1 -> pool1
I0403 14:43:20.442778  7687 net.cpp:141] Setting up pool1
I0403 14:43:20.442803  7687 net.cpp:148] Top shape: 100 96 27 27 (6998400)
I0403 14:43:20.442819  7687 net.cpp:156] Memory required for data: 438310000
I0403 14:43:20.442836  7687 layer_factory.hpp:77] Creating layer conv2
I0403 14:43:20.442860  7687 net.cpp:91] Creating Layer conv2
I0403 14:43:20.442878  7687 net.cpp:425] conv2 <- pool1
I0403 14:43:20.442896  7687 net.cpp:399] conv2 -> conv2
I0403 14:43:20.459115  7687 net.cpp:141] Setting up conv2
I0403 14:43:20.459149  7687 net.cpp:148] Top shape: 100 256 27 27 (18662400)
I0403 14:43:20.459167  7687 net.cpp:156] Memory required for data: 512959600
I0403 14:43:20.459189  7687 layer_factory.hpp:77] Creating layer relu2
I0403 14:43:20.459211  7687 net.cpp:91] Creating Layer relu2
I0403 14:43:20.459228  7687 net.cpp:425] relu2 <- conv2
I0403 14:43:20.459245  7687 net.cpp:386] relu2 -> conv2 (in-place)
I0403 14:43:20.459520  7687 net.cpp:141] Setting up relu2
I0403 14:43:20.459548  7687 net.cpp:148] Top shape: 100 256 27 27 (18662400)
I0403 14:43:20.459565  7687 net.cpp:156] Memory required for data: 587609200
I0403 14:43:20.459581  7687 layer_factory.hpp:77] Creating layer norm2
I0403 14:43:20.459604  7687 net.cpp:91] Creating Layer norm2
I0403 14:43:20.459620  7687 net.cpp:425] norm2 <- conv2
I0403 14:43:20.459640  7687 net.cpp:399] norm2 -> norm2
I0403 14:43:20.459962  7687 net.cpp:141] Setting up norm2
I0403 14:43:20.459993  7687 net.cpp:148] Top shape: 100 256 27 27 (18662400)
I0403 14:43:20.460011  7687 net.cpp:156] Memory required for data: 662258800
I0403 14:43:20.460026  7687 layer_factory.hpp:77] Creating layer pool2
I0403 14:43:20.460047  7687 net.cpp:91] Creating Layer pool2
I0403 14:43:20.460064  7687 net.cpp:425] pool2 <- norm2
I0403 14:43:20.460083  7687 net.cpp:399] pool2 -> pool2
I0403 14:43:20.460139  7687 net.cpp:141] Setting up pool2
I0403 14:43:20.460165  7687 net.cpp:148] Top shape: 100 256 13 13 (4326400)
I0403 14:43:20.460180  7687 net.cpp:156] Memory required for data: 679564400
I0403 14:43:20.460196  7687 layer_factory.hpp:77] Creating layer conv3
I0403 14:43:20.460219  7687 net.cpp:91] Creating Layer conv3
I0403 14:43:20.460237  7687 net.cpp:425] conv3 <- pool2
I0403 14:43:20.460258  7687 net.cpp:399] conv3 -> conv3
I0403 14:43:20.510709  7687 net.cpp:141] Setting up conv3
I0403 14:43:20.510769  7687 net.cpp:148] Top shape: 100 384 13 13 (6489600)
I0403 14:43:20.510787  7687 net.cpp:156] Memory required for data: 705522800
I0403 14:43:20.510813  7687 layer_factory.hpp:77] Creating layer relu3
I0403 14:43:20.510839  7687 net.cpp:91] Creating Layer relu3
I0403 14:43:20.510859  7687 net.cpp:425] relu3 <- conv3
I0403 14:43:20.510879  7687 net.cpp:386] relu3 -> conv3 (in-place)
I0403 14:43:20.511175  7687 net.cpp:141] Setting up relu3
I0403 14:43:20.511204  7687 net.cpp:148] Top shape: 100 384 13 13 (6489600)
I0403 14:43:20.511219  7687 net.cpp:156] Memory required for data: 731481200
I0403 14:43:20.511235  7687 layer_factory.hpp:77] Creating layer conv4
I0403 14:43:20.511262  7687 net.cpp:91] Creating Layer conv4
I0403 14:43:20.511282  7687 net.cpp:425] conv4 <- conv3
I0403 14:43:20.511302  7687 net.cpp:399] conv4 -> conv4
I0403 14:43:20.543606  7687 net.cpp:141] Setting up conv4
I0403 14:43:20.543650  7687 net.cpp:148] Top shape: 100 384 13 13 (6489600)
I0403 14:43:20.543696  7687 net.cpp:156] Memory required for data: 757439600
I0403 14:43:20.543720  7687 layer_factory.hpp:77] Creating layer relu4
I0403 14:43:20.543745  7687 net.cpp:91] Creating Layer relu4
I0403 14:43:20.543764  7687 net.cpp:425] relu4 <- conv4
I0403 14:43:20.543782  7687 net.cpp:386] relu4 -> conv4 (in-place)
I0403 14:43:20.544086  7687 net.cpp:141] Setting up relu4
I0403 14:43:20.544114  7687 net.cpp:148] Top shape: 100 384 13 13 (6489600)
I0403 14:43:20.544131  7687 net.cpp:156] Memory required for data: 783398000
I0403 14:43:20.544147  7687 layer_factory.hpp:77] Creating layer conv5
I0403 14:43:20.544173  7687 net.cpp:91] Creating Layer conv5
I0403 14:43:20.544191  7687 net.cpp:425] conv5 <- conv4
I0403 14:43:20.544214  7687 net.cpp:399] conv5 -> conv5
I0403 14:43:20.566793  7687 net.cpp:141] Setting up conv5
I0403 14:43:20.566828  7687 net.cpp:148] Top shape: 100 256 13 13 (4326400)
I0403 14:43:20.566845  7687 net.cpp:156] Memory required for data: 800703600
I0403 14:43:20.566874  7687 layer_factory.hpp:77] Creating layer relu5
I0403 14:43:20.566895  7687 net.cpp:91] Creating Layer relu5
I0403 14:43:20.566912  7687 net.cpp:425] relu5 <- conv5
I0403 14:43:20.566931  7687 net.cpp:386] relu5 -> conv5 (in-place)
I0403 14:43:20.567222  7687 net.cpp:141] Setting up relu5
I0403 14:43:20.567250  7687 net.cpp:148] Top shape: 100 256 13 13 (4326400)
I0403 14:43:20.567266  7687 net.cpp:156] Memory required for data: 818009200
I0403 14:43:20.567283  7687 layer_factory.hpp:77] Creating layer pool5
I0403 14:43:20.567308  7687 net.cpp:91] Creating Layer pool5
I0403 14:43:20.567327  7687 net.cpp:425] pool5 <- conv5
I0403 14:43:20.567347  7687 net.cpp:399] pool5 -> pool5
I0403 14:43:20.567410  7687 net.cpp:141] Setting up pool5
I0403 14:43:20.567435  7687 net.cpp:148] Top shape: 100 256 6 6 (921600)
I0403 14:43:20.567451  7687 net.cpp:156] Memory required for data: 821695600
I0403 14:43:20.567467  7687 layer_factory.hpp:77] Creating layer fc6
I0403 14:43:20.567517  7687 net.cpp:91] Creating Layer fc6
I0403 14:43:20.567538  7687 net.cpp:425] fc6 <- pool5
I0403 14:43:20.567559  7687 net.cpp:399] fc6 -> fc6
I0403 14:43:22.087574  7687 net.cpp:141] Setting up fc6
I0403 14:43:22.087663  7687 net.cpp:148] Top shape: 100 4096 (409600)
I0403 14:43:22.087679  7687 net.cpp:156] Memory required for data: 823334000
I0403 14:43:22.087700  7687 layer_factory.hpp:77] Creating layer relu6
I0403 14:43:22.087723  7687 net.cpp:91] Creating Layer relu6
I0403 14:43:22.087739  7687 net.cpp:425] relu6 <- fc6
I0403 14:43:22.087760  7687 net.cpp:386] relu6 -> fc6 (in-place)
I0403 14:43:22.087978  7687 net.cpp:141] Setting up relu6
I0403 14:43:22.088003  7687 net.cpp:148] Top shape: 100 4096 (409600)
I0403 14:43:22.088017  7687 net.cpp:156] Memory required for data: 824972400
I0403 14:43:22.088032  7687 layer_factory.hpp:77] Creating layer drop6
I0403 14:43:22.088052  7687 net.cpp:91] Creating Layer drop6
I0403 14:43:22.088068  7687 net.cpp:425] drop6 <- fc6
I0403 14:43:22.088084  7687 net.cpp:386] drop6 -> fc6 (in-place)
I0403 14:43:22.088162  7687 net.cpp:141] Setting up drop6
I0403 14:43:22.088186  7687 net.cpp:148] Top shape: 100 4096 (409600)
I0403 14:43:22.088201  7687 net.cpp:156] Memory required for data: 826610800
I0403 14:43:22.088215  7687 layer_factory.hpp:77] Creating layer fc7
I0403 14:43:22.088234  7687 net.cpp:91] Creating Layer fc7
I0403 14:43:22.088254  7687 net.cpp:425] fc7 <- fc6
I0403 14:43:22.088271  7687 net.cpp:399] fc7 -> fc7
I0403 14:43:22.756610  7687 net.cpp:141] Setting up fc7
I0403 14:43:22.756698  7687 net.cpp:148] Top shape: 100 4096 (409600)
I0403 14:43:22.756716  7687 net.cpp:156] Memory required for data: 828249200
I0403 14:43:22.756736  7687 layer_factory.hpp:77] Creating layer relu7
I0403 14:43:22.756759  7687 net.cpp:91] Creating Layer relu7
I0403 14:43:22.756778  7687 net.cpp:425] relu7 <- fc7
I0403 14:43:22.756796  7687 net.cpp:386] relu7 -> fc7 (in-place)
I0403 14:43:22.757181  7687 net.cpp:141] Setting up relu7
I0403 14:43:22.757208  7687 net.cpp:148] Top shape: 100 4096 (409600)
I0403 14:43:22.757253  7687 net.cpp:156] Memory required for data: 829887600
I0403 14:43:22.757269  7687 layer_factory.hpp:77] Creating layer drop7
I0403 14:43:22.757289  7687 net.cpp:91] Creating Layer drop7
I0403 14:43:22.757305  7687 net.cpp:425] drop7 <- fc7
I0403 14:43:22.757321  7687 net.cpp:386] drop7 -> fc7 (in-place)
I0403 14:43:22.757366  7687 net.cpp:141] Setting up drop7
I0403 14:43:22.757388  7687 net.cpp:148] Top shape: 100 4096 (409600)
I0403 14:43:22.757402  7687 net.cpp:156] Memory required for data: 831526000
I0403 14:43:22.757416  7687 layer_factory.hpp:77] Creating layer fc8_plantvillage
I0403 14:43:22.757436  7687 net.cpp:91] Creating Layer fc8_plantvillage
I0403 14:43:22.757450  7687 net.cpp:425] fc8_plantvillage <- fc7
I0403 14:43:22.757469  7687 net.cpp:399] fc8_plantvillage -> fc8_plantvillage
I0403 14:43:22.763994  7687 net.cpp:141] Setting up fc8_plantvillage
I0403 14:43:22.764025  7687 net.cpp:148] Top shape: 100 38 (3800)
I0403 14:43:22.764040  7687 net.cpp:156] Memory required for data: 831541200
I0403 14:43:22.764058  7687 layer_factory.hpp:77] Creating layer fc8_plantvillage_fc8_plantvillage_0_split
I0403 14:43:22.764076  7687 net.cpp:91] Creating Layer fc8_plantvillage_fc8_plantvillage_0_split
I0403 14:43:22.764091  7687 net.cpp:425] fc8_plantvillage_fc8_plantvillage_0_split <- fc8_plantvillage
I0403 14:43:22.764109  7687 net.cpp:399] fc8_plantvillage_fc8_plantvillage_0_split -> fc8_plantvillage_fc8_plantvillage_0_split_0
I0403 14:43:22.764127  7687 net.cpp:399] fc8_plantvillage_fc8_plantvillage_0_split -> fc8_plantvillage_fc8_plantvillage_0_split_1
I0403 14:43:22.764147  7687 net.cpp:399] fc8_plantvillage_fc8_plantvillage_0_split -> fc8_plantvillage_fc8_plantvillage_0_split_2
I0403 14:43:22.764225  7687 net.cpp:141] Setting up fc8_plantvillage_fc8_plantvillage_0_split
I0403 14:43:22.764247  7687 net.cpp:148] Top shape: 100 38 (3800)
I0403 14:43:22.764262  7687 net.cpp:148] Top shape: 100 38 (3800)
I0403 14:43:22.764277  7687 net.cpp:148] Top shape: 100 38 (3800)
I0403 14:43:22.764292  7687 net.cpp:156] Memory required for data: 831586800
I0403 14:43:22.764304  7687 layer_factory.hpp:77] Creating layer prob
I0403 14:43:22.764322  7687 net.cpp:91] Creating Layer prob
I0403 14:43:22.764338  7687 net.cpp:425] prob <- fc8_plantvillage_fc8_plantvillage_0_split_0
I0403 14:43:22.764354  7687 net.cpp:399] prob -> prob
I0403 14:43:22.764576  7687 net.cpp:141] Setting up prob
I0403 14:43:22.764601  7687 net.cpp:148] Top shape: 100 38 (3800)
I0403 14:43:22.764616  7687 net.cpp:156] Memory required for data: 831602000
I0403 14:43:22.764628  7687 layer_factory.hpp:77] Creating layer hdf5out
I0403 14:43:22.764649  7687 net.cpp:91] Creating Layer hdf5out
I0403 14:43:22.764667  7687 net.cpp:425] hdf5out <- prob
I0403 14:43:22.764683  7687 net.cpp:425] hdf5out <- label_data_1_split_0
I0403 14:43:22.779244  7687 net.cpp:141] Setting up hdf5out
…
