…
I0403 14:55:19.930807  8372 net.cpp:313] The NetState phase (1) differed from the phase (0) specified by a rule in layer data
I0403 14:55:19.931140  8372 net.cpp:49] Initializing net from parameters: 
state {
  phase: TEST
}
layer {
  name: "data"
  type: "Data"
  top: "data"
  top: "label"
  include {
    phase: TEST
  }
  transform_param {
    crop_size: 227
    mean_file: "/home/mohanty/data/final_dataset/lmdb/color-50-50/mean.binaryproto"
  }
  data_param {
    source: "/home/mohanty/data/final_dataset/lmdb/color-50-50/test_db"
    batch_size: 100
    backend: LMDB
  }
}
layer {
  name: "conv1"
  type: "Convolution"
  bottom: "data"
  top: "conv1"
  param {
    lr_mult: 1
    decay_mult: 1
  }
  param {
    lr_mult: 2
    decay_mult: 0
  }
  convolution_param {
    num_output: 96
    kernel_size: 11
    stride: 4
    weight_filler {
      type: "gaussian"
      std: 0.01
    }
    bias_filler {
      type: "constant"
      value: 0
    }
  }
}
layer {
  name: "relu1"
  type: "ReLU"
  bottom: "conv1"
  top: "conv1"
}
layer {
  name: "norm1"
  type: "LRN"
  bottom: "conv1"
  top: "norm1"
  lrn_param {
    local_size: 5
    alpha: 0.0001
    beta: 0.75
  }
}
layer {
  name: "pool1"
  type: "Pooling"
  bottom: "norm1"
  top: "pool1"
  pooling_param {
    pool: MAX
    kernel_size: 3
    stride: 2
  }
}
layer {
  name: "conv2"
  type: "Convolution"
  bottom: "pool1"
  top: "conv2"
  param {
    lr_mult: 1
    decay_mult: 1
  }
  param {
    lr_mult: 2
    decay_mult: 0
  }
  convolution_param {
    num_output: 256
    pad: 2
    kernel_size: 5
    group: 2
    weight_filler {
      type: "gaussian"
      std: 0.01
    }
    bias_filler {
      type: "constant"
      value: 0.1
    }
  }
}
layer {
  name: "relu2"
  type: "ReLU"
  bottom: "conv2"
  top: "conv2"
}
layer {
  name: "norm2"
  type: "LRN"
  bottom: "conv2"
  top: "norm2"
  lrn_param {
    local_size: 5
    alpha: 0.0001
    beta: 0.75
  }
}
layer {
  name: "pool2"
  type: "Pooling"
  bottom: "norm2"
  top: "pool2"
  pooling_param {
    pool: MAX
    kernel_size: 3
    stride: 2
  }
}
layer {
  name: "conv3"
  type: "Convolution"
  bottom: "pool2"
  top: "conv3"
  param {
    lr_mult: 1
    decay_mult: 1
  }
  param {
    lr_mult: 2
    decay_mult: 0
  }
  convolution_param {
    num_output: 384
    pad: 1
    kernel_size: 3
    weight_filler {
      type: "gaussian"
      std: 0.01
    }
    bias_filler {
      type: "constant"
      value: 0
    }
  }
}
layer {
  name: "relu3"
  type: "ReLU"
  bottom: "conv3"
  top: "conv3"
}
layer {
  name: "conv4"
  type: "Convolution"
  bottom: "conv3"
  top: "conv4"
  param {
    lr_mult: 1
    decay_mult: 1
  }
  param {
    lr_mult: 2
    decay_mult: 0
  }
  convolution_param {
    num_output: 384
    pad: 1
    kernel_size: 3
    group: 2
    weight_filler {
      type: "gaussian"
      std: 0.01
    }
    bias_filler {
      type: "constant"
      value: 0.1
    }
  }
}
layer {
  name: "relu4"
  type: "ReLU"
  bottom: "conv4"
  top: "conv4"
}
layer {
  name: "conv5"
  type: "Convolution"
  bottom: "conv4"
  top: "conv5"
  param {
    lr_mult: 1
    decay_mult: 1
  }
  param {
    lr_mult: 2
    decay_mult: 0
  }
  convolution_param {
    num_output: 256
    pad: 1
    kernel_size: 3
    group: 2
    weight_filler {
      type: "gaussian"
      std: 0.01
    }
    bias_filler {
      type: "constant"
      value: 0.1
    }
  }
}
layer {
  name: "relu5"
  type: "ReLU"
  bottom: "conv5"
  top: "conv5"
}
layer {
  name: "pool5"
  type: "Pooling"
  bottom: "conv5"
  top: "pool5"
  pooling_param {
    pool: MAX
    kernel_size: 3
    stride: 2
  }
}
layer {
  name: "fc6"
  type: "InnerProduct"
  bottom: "pool5"
  top: "fc6"
  param {
    lr_mult: 1
    decay_mult: 1
  }
  param {
    lr_mult: 2
    decay_mult: 0
  }
  inner_product_param {
    num_output: 4096
    weight_filler {
      type: "gaussian"
      std: 0.005
    }
    bias_filler {
      type: "constant"
      value: 0.1
    }
  }
}
layer {
  name: "relu6"
  type: "ReLU"
  bottom: "fc6"
  top: "fc6"
}
layer {
  name: "drop6"
  type: "Dropout"
  bottom: "fc6"
  top: "fc6"
  dropout_param {
    dropout_ratio: 0.5
  }
}
layer {
  name: "fc7"
  type: "InnerProduct"
  bottom: "fc6"
  top: "fc7"
  param {
    lr_mult: 1
    decay_mult: 1
  }
  param {
    lr_mult: 2
    decay_mult: 0
  }
  inner_product_param {
    num_output: 4096
    weight_filler {
      type: "gaussian"
      std: 0.005
    }
    bias_filler {
      type: "constant"
      value: 0.1
    }
  }
}
layer {
  name: "relu7"
  type: "ReLU"
  bottom: "fc7"
  top: "fc7"
}
layer {
  name: "drop7"
  type: "Dropout"
  bottom: "fc7"
  top: "fc7"
  dropout_param {
    dropout_ratio: 0.5
  }
}
layer {
  name: "fc8_plantvillage"
  type: "InnerProduct"
  bottom: "fc7"
  top: "fc8_plantvillage"
  param {
    lr_mult: 1
    decay_mult: 1
  }
  param {
    lr_mult: 2
    decay_mult: 0
  }
  inner_product_param {
    num_output: 38
    weight_filler {
      type: "gaussian"
      std: 0.01
    }
    bias_filler {
      type: "constant"
      value: 0
    }
  }
}
layer {
  name: "prob"
  type: "Softmax"
  bottom: "fc8_plantvillage"
  top: "prob"
  include {
    phase: TEST
  }
}
layer {
  name: "hdf5out"
  type: "HDF5Output"
  bottom: "prob"
  bottom: "label"
  include {
    phase: TEST
  }
  hdf5_output_param {
    file_name: "hdf5_dumps/iter_3766.h5"
  }
}
layer {
  name: "loss"
  type: "SoftmaxWithLoss"
  bottom: "fc8_plantvillage"
  bottom: "label"
  top: "loss"
}
layer {
  name: "accuracy"
  type: "Accuracy"
  bottom: "fc8_plantvillage"
  bottom: "label"
  top: "accuracy"
  include {
    phase: TEST
  }
}
I0403 14:55:19.931802  8372 layer_factory.hpp:77] Creating layer data
I0403 14:55:19.932435  8372 net.cpp:91] Creating Layer data
I0403 14:55:19.932463  8372 net.cpp:399] data -> data
I0403 14:55:19.932515  8372 net.cpp:399] data -> label
I0403 14:55:19.932553  8372 data_transformer.cpp:25] Loading mean file from: /home/mohanty/data/final_dataset/lmdb/color-50-50/mean.binaryproto
I0403 14:55:19.935148  8375 db_lmdb.cpp:38] Opened lmdb /home/mohanty/data/final_dataset/lmdb/color-50-50/test_db
I0403 14:55:19.947154  8372 data_layer.cpp:41] output data size: 100,3,227,227
I0403 14:55:20.070616  8372 net.cpp:141] Setting up data
I0403 14:55:20.070724  8372 net.cpp:148] Top shape: 100 3 227 227 (15458700)
I0403 14:55:20.070746  8372 net.cpp:148] Top shape: 100 (100)
I0403 14:55:20.070762  8372 net.cpp:156] Memory required for data: 61835200
I0403 14:55:20.070791  8372 layer_factory.hpp:77] Creating layer label_data_1_split
I0403 14:55:20.070818  8372 net.cpp:91] Creating Layer label_data_1_split
I0403 14:55:20.070837  8372 net.cpp:425] label_data_1_split <- label
I0403 14:55:20.070869  8372 net.cpp:399] label_data_1_split -> label_data_1_split_0
I0403 14:55:20.070896  8372 net.cpp:399] label_data_1_split -> label_data_1_split_1
I0403 14:55:20.070919  8372 net.cpp:399] label_data_1_split -> label_data_1_split_2
I0403 14:55:20.070987  8372 net.cpp:141] Setting up label_data_1_split
I0403 14:55:20.071012  8372 net.cpp:148] Top shape: 100 (100)
I0403 14:55:20.071029  8372 net.cpp:148] Top shape: 100 (100)
I0403 14:55:20.071048  8372 net.cpp:148] Top shape: 100 (100)
I0403 14:55:20.071063  8372 net.cpp:156] Memory required for data: 61836400
I0403 14:55:20.071079  8372 layer_factory.hpp:77] Creating layer conv1
I0403 14:55:20.071110  8372 net.cpp:91] Creating Layer conv1
I0403 14:55:20.071130  8372 net.cpp:425] conv1 <- data
I0403 14:55:20.071151  8372 net.cpp:399] conv1 -> conv1
I0403 14:55:20.213325  8372 net.cpp:141] Setting up conv1
I0403 14:55:20.213389  8372 net.cpp:148] Top shape: 100 96 55 55 (29040000)
I0403 14:55:20.213407  8372 net.cpp:156] Memory required for data: 177996400
I0403 14:55:20.213438  8372 layer_factory.hpp:77] Creating layer relu1
I0403 14:55:20.213466  8372 net.cpp:91] Creating Layer relu1
I0403 14:55:20.213485  8372 net.cpp:425] relu1 <- conv1
I0403 14:55:20.213503  8372 net.cpp:386] relu1 -> conv1 (in-place)
I0403 14:55:20.213765  8372 net.cpp:141] Setting up relu1
I0403 14:55:20.213793  8372 net.cpp:148] Top shape: 100 96 55 55 (29040000)
I0403 14:55:20.213807  8372 net.cpp:156] Memory required for data: 294156400
I0403 14:55:20.213852  8372 layer_factory.hpp:77] Creating layer norm1
I0403 14:55:20.213881  8372 net.cpp:91] Creating Layer norm1
I0403 14:55:20.213899  8372 net.cpp:425] norm1 <- conv1
I0403 14:55:20.213918  8372 net.cpp:399] norm1 -> norm1
I0403 14:55:20.214236  8372 net.cpp:141] Setting up norm1
I0403 14:55:20.214265  8372 net.cpp:148] Top shape: 100 96 55 55 (29040000)
I0403 14:55:20.214282  8372 net.cpp:156] Memory required for data: 410316400
I0403 14:55:20.214296  8372 layer_factory.hpp:77] Creating layer pool1
I0403 14:55:20.214319  8372 net.cpp:91] Creating Layer pool1
I0403 14:55:20.214336  8372 net.cpp:425] pool1 <- norm1
I0403 14:55:20.214356  8372 net.cpp:399] pool1 -> pool1
I0403 14:55:20.214427  8372 net.cpp:141] Setting up pool1
I0403 14:55:20.214452  8372 net.cpp:148] Top shape: 100 96 27 27 (6998400)
I0403 14:55:20.214467  8372 net.cpp:156] Memory required for data: 438310000
I0403 14:55:20.214481  8372 layer_factory.hpp:77] Creating layer conv2
I0403 14:55:20.214507  8372 net.cpp:91] Creating Layer conv2
I0403 14:55:20.214524  8372 net.cpp:425] conv2 <- pool1
I0403 14:55:20.214545  8372 net.cpp:399] conv2 -> conv2
I0403 14:55:20.229434  8372 net.cpp:141] Setting up conv2
I0403 14:55:20.229473  8372 net.cpp:148] Top shape: 100 256 27 27 (18662400)
I0403 14:55:20.229490  8372 net.cpp:156] Memory required for data: 512959600
I0403 14:55:20.229512  8372 layer_factory.hpp:77] Creating layer relu2
I0403 14:55:20.229532  8372 net.cpp:91] Creating Layer relu2
I0403 14:55:20.229547  8372 net.cpp:425] relu2 <- conv2
I0403 14:55:20.229564  8372 net.cpp:386] relu2 -> conv2 (in-place)
I0403 14:55:20.229846  8372 net.cpp:141] Setting up relu2
I0403 14:55:20.229872  8372 net.cpp:148] Top shape: 100 256 27 27 (18662400)
I0403 14:55:20.229887  8372 net.cpp:156] Memory required for data: 587609200
I0403 14:55:20.229902  8372 layer_factory.hpp:77] Creating layer norm2
I0403 14:55:20.229923  8372 net.cpp:91] Creating Layer norm2
I0403 14:55:20.229941  8372 net.cpp:425] norm2 <- conv2
I0403 14:55:20.229964  8372 net.cpp:399] norm2 -> norm2
I0403 14:55:20.230159  8372 net.cpp:141] Setting up norm2
I0403 14:55:20.230188  8372 net.cpp:148] Top shape: 100 256 27 27 (18662400)
I0403 14:55:20.230206  8372 net.cpp:156] Memory required for data: 662258800
I0403 14:55:20.230221  8372 layer_factory.hpp:77] Creating layer pool2
I0403 14:55:20.230238  8372 net.cpp:91] Creating Layer pool2
I0403 14:55:20.230254  8372 net.cpp:425] pool2 <- norm2
I0403 14:55:20.230273  8372 net.cpp:399] pool2 -> pool2
I0403 14:55:20.230325  8372 net.cpp:141] Setting up pool2
I0403 14:55:20.230348  8372 net.cpp:148] Top shape: 100 256 13 13 (4326400)
I0403 14:55:20.230362  8372 net.cpp:156] Memory required for data: 679564400
I0403 14:55:20.230377  8372 layer_factory.hpp:77] Creating layer conv3
I0403 14:55:20.230399  8372 net.cpp:91] Creating Layer conv3
I0403 14:55:20.230417  8372 net.cpp:425] conv3 <- pool2
I0403 14:55:20.230437  8372 net.cpp:399] conv3 -> conv3
I0403 14:55:20.269863  8372 net.cpp:141] Setting up conv3
I0403 14:55:20.269920  8372 net.cpp:148] Top shape: 100 384 13 13 (6489600)
I0403 14:55:20.269937  8372 net.cpp:156] Memory required for data: 705522800
I0403 14:55:20.269971  8372 layer_factory.hpp:77] Creating layer relu3
I0403 14:55:20.269994  8372 net.cpp:91] Creating Layer relu3
I0403 14:55:20.270010  8372 net.cpp:425] relu3 <- conv3
I0403 14:55:20.270035  8372 net.cpp:386] relu3 -> conv3 (in-place)
I0403 14:55:20.270308  8372 net.cpp:141] Setting up relu3
I0403 14:55:20.270337  8372 net.cpp:148] Top shape: 100 384 13 13 (6489600)
I0403 14:55:20.270354  8372 net.cpp:156] Memory required for data: 731481200
I0403 14:55:20.270369  8372 layer_factory.hpp:77] Creating layer conv4
I0403 14:55:20.270392  8372 net.cpp:91] Creating Layer conv4
I0403 14:55:20.270409  8372 net.cpp:425] conv4 <- conv3
I0403 14:55:20.270428  8372 net.cpp:399] conv4 -> conv4
I0403 14:55:20.299841  8372 net.cpp:141] Setting up conv4
I0403 14:55:20.299887  8372 net.cpp:148] Top shape: 100 384 13 13 (6489600)
I0403 14:55:20.299933  8372 net.cpp:156] Memory required for data: 757439600
I0403 14:55:20.299958  8372 layer_factory.hpp:77] Creating layer relu4
I0403 14:55:20.299981  8372 net.cpp:91] Creating Layer relu4
I0403 14:55:20.299999  8372 net.cpp:425] relu4 <- conv4
I0403 14:55:20.300017  8372 net.cpp:386] relu4 -> conv4 (in-place)
I0403 14:55:20.300293  8372 net.cpp:141] Setting up relu4
I0403 14:55:20.300319  8372 net.cpp:148] Top shape: 100 384 13 13 (6489600)
I0403 14:55:20.300335  8372 net.cpp:156] Memory required for data: 783398000
I0403 14:55:20.300350  8372 layer_factory.hpp:77] Creating layer conv5
I0403 14:55:20.300375  8372 net.cpp:91] Creating Layer conv5
I0403 14:55:20.300393  8372 net.cpp:425] conv5 <- conv4
I0403 14:55:20.300412  8372 net.cpp:399] conv5 -> conv5
I0403 14:55:20.320641  8372 net.cpp:141] Setting up conv5
I0403 14:55:20.320678  8372 net.cpp:148] Top shape: 100 256 13 13 (4326400)
I0403 14:55:20.320695  8372 net.cpp:156] Memory required for data: 800703600
I0403 14:55:20.320719  8372 layer_factory.hpp:77] Creating layer relu5
I0403 14:55:20.320739  8372 net.cpp:91] Creating Layer relu5
I0403 14:55:20.320755  8372 net.cpp:425] relu5 <- conv5
I0403 14:55:20.320772  8372 net.cpp:386] relu5 -> conv5 (in-place)
I0403 14:55:20.321055  8372 net.cpp:141] Setting up relu5
I0403 14:55:20.321081  8372 net.cpp:148] Top shape: 100 256 13 13 (4326400)
I0403 14:55:20.321096  8372 net.cpp:156] Memory required for data: 818009200
I0403 14:55:20.321112  8372 layer_factory.hpp:77] Creating layer pool5
I0403 14:55:20.321133  8372 net.cpp:91] Creating Layer pool5
I0403 14:55:20.321149  8372 net.cpp:425] pool5 <- conv5
I0403 14:55:20.321171  8372 net.cpp:399] pool5 -> pool5
I0403 14:55:20.321231  8372 net.cpp:141] Setting up pool5
I0403 14:55:20.321254  8372 net.cpp:148] Top shape: 100 256 6 6 (921600)
I0403 14:55:20.321269  8372 net.cpp:156] Memory required for data: 821695600
I0403 14:55:20.321285  8372 layer_factory.hpp:77] Creating layer fc6
I0403 14:55:20.321313  8372 net.cpp:91] Creating Layer fc6
I0403 14:55:20.321331  8372 net.cpp:425] fc6 <- pool5
I0403 14:55:20.321352  8372 net.cpp:399] fc6 -> fc6
I0403 14:55:21.863860  8372 net.cpp:141] Setting up fc6
I0403 14:55:21.863961  8372 net.cpp:148] Top shape: 100 4096 (409600)
I0403 14:55:21.863978  8372 net.cpp:156] Memory required for data: 823334000
I0403 14:55:21.863999  8372 layer_factory.hpp:77] Creating layer relu6
I0403 14:55:21.864023  8372 net.cpp:91] Creating Layer relu6
I0403 14:55:21.864042  8372 net.cpp:425] relu6 <- fc6
I0403 14:55:21.864060  8372 net.cpp:386] relu6 -> fc6 (in-place)
I0403 14:55:21.864280  8372 net.cpp:141] Setting up relu6
I0403 14:55:21.864307  8372 net.cpp:148] Top shape: 100 4096 (409600)
I0403 14:55:21.864322  8372 net.cpp:156] Memory required for data: 824972400
I0403 14:55:21.864337  8372 layer_factory.hpp:77] Creating layer drop6
I0403 14:55:21.864356  8372 net.cpp:91] Creating Layer drop6
I0403 14:55:21.864370  8372 net.cpp:425] drop6 <- fc6
I0403 14:55:21.864387  8372 net.cpp:386] drop6 -> fc6 (in-place)
I0403 14:55:21.864440  8372 net.cpp:141] Setting up drop6
I0403 14:55:21.864462  8372 net.cpp:148] Top shape: 100 4096 (409600)
I0403 14:55:21.864477  8372 net.cpp:156] Memory required for data: 826610800
I0403 14:55:21.864491  8372 layer_factory.hpp:77] Creating layer fc7
I0403 14:55:21.864512  8372 net.cpp:91] Creating Layer fc7
I0403 14:55:21.864529  8372 net.cpp:425] fc7 <- fc6
I0403 14:55:21.864547  8372 net.cpp:399] fc7 -> fc7
I0403 14:55:22.530514  8372 net.cpp:141] Setting up fc7
I0403 14:55:22.530601  8372 net.cpp:148] Top shape: 100 4096 (409600)
I0403 14:55:22.530616  8372 net.cpp:156] Memory required for data: 828249200
I0403 14:55:22.530638  8372 layer_factory.hpp:77] Creating layer relu7
I0403 14:55:22.530663  8372 net.cpp:91] Creating Layer relu7
I0403 14:55:22.530681  8372 net.cpp:425] relu7 <- fc7
I0403 14:55:22.530704  8372 net.cpp:386] relu7 -> fc7 (in-place)
I0403 14:55:22.531085  8372 net.cpp:141] Setting up relu7
I0403 14:55:22.531113  8372 net.cpp:148] Top shape: 100 4096 (409600)
I0403 14:55:22.531159  8372 net.cpp:156] Memory required for data: 829887600
I0403 14:55:22.531175  8372 layer_factory.hpp:77] Creating layer drop7
I0403 14:55:22.531194  8372 net.cpp:91] Creating Layer drop7
I0403 14:55:22.531211  8372 net.cpp:425] drop7 <- fc7
I0403 14:55:22.531230  8372 net.cpp:386] drop7 -> fc7 (in-place)
I0403 14:55:22.531273  8372 net.cpp:141] Setting up drop7
I0403 14:55:22.531296  8372 net.cpp:148] Top shape: 100 4096 (409600)
I0403 14:55:22.531311  8372 net.cpp:156] Memory required for data: 831526000
I0403 14:55:22.531324  8372 layer_factory.hpp:77] Creating layer fc8_plantvillage
I0403 14:55:22.531347  8372 net.cpp:91] Creating Layer fc8_plantvillage
I0403 14:55:22.531364  8372 net.cpp:425] fc8_plantvillage <- fc7
I0403 14:55:22.531385  8372 net.cpp:399] fc8_plantvillage -> fc8_plantvillage
I0403 14:55:22.537894  8372 net.cpp:141] Setting up fc8_plantvillage
I0403 14:55:22.537921  8372 net.cpp:148] Top shape: 100 38 (3800)
I0403 14:55:22.537936  8372 net.cpp:156] Memory required for data: 831541200
I0403 14:55:22.537960  8372 layer_factory.hpp:77] Creating layer fc8_plantvillage_fc8_plantvillage_0_split
I0403 14:55:22.537979  8372 net.cpp:91] Creating Layer fc8_plantvillage_fc8_plantvillage_0_split
I0403 14:55:22.537994  8372 net.cpp:425] fc8_plantvillage_fc8_plantvillage_0_split <- fc8_plantvillage
I0403 14:55:22.538013  8372 net.cpp:399] fc8_plantvillage_fc8_plantvillage_0_split -> fc8_plantvillage_fc8_plantvillage_0_split_0
I0403 14:55:22.538033  8372 net.cpp:399] fc8_plantvillage_fc8_plantvillage_0_split -> fc8_plantvillage_fc8_plantvillage_0_split_1
I0403 14:55:22.538053  8372 net.cpp:399] fc8_plantvillage_fc8_plantvillage_0_split -> fc8_plantvillage_fc8_plantvillage_0_split_2
I0403 14:55:22.538130  8372 net.cpp:141] Setting up fc8_plantvillage_fc8_plantvillage_0_split
I0403 14:55:22.538152  8372 net.cpp:148] Top shape: 100 38 (3800)
I0403 14:55:22.538168  8372 net.cpp:148] Top shape: 100 38 (3800)
I0403 14:55:22.538183  8372 net.cpp:148] Top shape: 100 38 (3800)
I0403 14:55:22.538197  8372 net.cpp:156] Memory required for data: 831586800
I0403 14:55:22.538211  8372 layer_factory.hpp:77] Creating layer prob
I0403 14:55:22.538230  8372 net.cpp:91] Creating Layer prob
I0403 14:55:22.538245  8372 net.cpp:425] prob <- fc8_plantvillage_fc8_plantvillage_0_split_0
I0403 14:55:22.538264  8372 net.cpp:399] prob -> prob
I0403 14:55:22.538485  8372 net.cpp:141] Setting up prob
I0403 14:55:22.538511  8372 net.cpp:148] Top shape: 100 38 (3800)
I0403 14:55:22.538527  8372 net.cpp:156] Memory required for data: 831602000
I0403 14:55:22.538542  8372 layer_factory.hpp:77] Creating layer hdf5out
I0403 14:55:22.538560  8372 net.cpp:91] Creating Layer hdf5out
I0403 14:55:22.538576  8372 net.cpp:425] hdf5out <- prob
I0403 14:55:22.538591  8372 net.cpp:425] hdf5out <- label_data_1_split_0
I0403 14:55:22.540912  8372 net.cpp:141] Setting up hdf5out
…
