…
I0403 15:10:00.461810  9271 net.cpp:313] The NetState phase (1) differed from the phase (0) specified by a rule in layer data
I0403 15:10:00.462146  9271 net.cpp:49] Initializing net from parameters: 
state {
  phase: TEST
}
layer {
  name: "data"
  type: "Data"
  top: "data"
  top: "label"
  include {
    phase: TEST
  }
  transform_param {
    crop_size: 227
    mean_file: "/home/mohanty/data/final_dataset/lmdb/color-50-50/mean.binaryproto"
  }
  data_param {
    source: "/home/mohanty/data/final_dataset/lmdb/color-50-50/test_db"
    batch_size: 100
    backend: LMDB
  }
}
layer {
  name: "conv1"
  type: "Convolution"
  bottom: "data"
  top: "conv1"
  param {
    lr_mult: 1
    decay_mult: 1
  }
  param {
    lr_mult: 2
    decay_mult: 0
  }
  convolution_param {
    num_output: 96
    kernel_size: 11
    stride: 4
    weight_filler {
      type: "gaussian"
      std: 0.01
    }
    bias_filler {
      type: "constant"
      value: 0
    }
  }
}
layer {
  name: "relu1"
  type: "ReLU"
  bottom: "conv1"
  top: "conv1"
}
layer {
  name: "norm1"
  type: "LRN"
  bottom: "conv1"
  top: "norm1"
  lrn_param {
    local_size: 5
    alpha: 0.0001
    beta: 0.75
  }
}
layer {
  name: "pool1"
  type: "Pooling"
  bottom: "norm1"
  top: "pool1"
  pooling_param {
    pool: MAX
    kernel_size: 3
    stride: 2
  }
}
layer {
  name: "conv2"
  type: "Convolution"
  bottom: "pool1"
  top: "conv2"
  param {
    lr_mult: 1
    decay_mult: 1
  }
  param {
    lr_mult: 2
    decay_mult: 0
  }
  convolution_param {
    num_output: 256
    pad: 2
    kernel_size: 5
    group: 2
    weight_filler {
      type: "gaussian"
      std: 0.01
    }
    bias_filler {
      type: "constant"
      value: 0.1
    }
  }
}
layer {
  name: "relu2"
  type: "ReLU"
  bottom: "conv2"
  top: "conv2"
}
layer {
  name: "norm2"
  type: "LRN"
  bottom: "conv2"
  top: "norm2"
  lrn_param {
    local_size: 5
    alpha: 0.0001
    beta: 0.75
  }
}
layer {
  name: "pool2"
  type: "Pooling"
  bottom: "norm2"
  top: "pool2"
  pooling_param {
    pool: MAX
    kernel_size: 3
    stride: 2
  }
}
layer {
  name: "conv3"
  type: "Convolution"
  bottom: "pool2"
  top: "conv3"
  param {
    lr_mult: 1
    decay_mult: 1
  }
  param {
    lr_mult: 2
    decay_mult: 0
  }
  convolution_param {
    num_output: 384
    pad: 1
    kernel_size: 3
    weight_filler {
      type: "gaussian"
      std: 0.01
    }
    bias_filler {
      type: "constant"
      value: 0
    }
  }
}
layer {
  name: "relu3"
  type: "ReLU"
  bottom: "conv3"
  top: "conv3"
}
layer {
  name: "conv4"
  type: "Convolution"
  bottom: "conv3"
  top: "conv4"
  param {
    lr_mult: 1
    decay_mult: 1
  }
  param {
    lr_mult: 2
    decay_mult: 0
  }
  convolution_param {
    num_output: 384
    pad: 1
    kernel_size: 3
    group: 2
    weight_filler {
      type: "gaussian"
      std: 0.01
    }
    bias_filler {
      type: "constant"
      value: 0.1
    }
  }
}
layer {
  name: "relu4"
  type: "ReLU"
  bottom: "conv4"
  top: "conv4"
}
layer {
  name: "conv5"
  type: "Convolution"
  bottom: "conv4"
  top: "conv5"
  param {
    lr_mult: 1
    decay_mult: 1
  }
  param {
    lr_mult: 2
    decay_mult: 0
  }
  convolution_param {
    num_output: 256
    pad: 1
    kernel_size: 3
    group: 2
    weight_filler {
      type: "gaussian"
      std: 0.01
    }
    bias_filler {
      type: "constant"
      value: 0.1
    }
  }
}
layer {
  name: "relu5"
  type: "ReLU"
  bottom: "conv5"
  top: "conv5"
}
layer {
  name: "pool5"
  type: "Pooling"
  bottom: "conv5"
  top: "pool5"
  pooling_param {
    pool: MAX
    kernel_size: 3
    stride: 2
  }
}
layer {
  name: "fc6"
  type: "InnerProduct"
  bottom: "pool5"
  top: "fc6"
  param {
    lr_mult: 1
    decay_mult: 1
  }
  param {
    lr_mult: 2
    decay_mult: 0
  }
  inner_product_param {
    num_output: 4096
    weight_filler {
      type: "gaussian"
      std: 0.005
    }
    bias_filler {
      type: "constant"
      value: 0.1
    }
  }
}
layer {
  name: "relu6"
  type: "ReLU"
  bottom: "fc6"
  top: "fc6"
}
layer {
  name: "drop6"
  type: "Dropout"
  bottom: "fc6"
  top: "fc6"
  dropout_param {
    dropout_ratio: 0.5
  }
}
layer {
  name: "fc7"
  type: "InnerProduct"
  bottom: "fc6"
  top: "fc7"
  param {
    lr_mult: 1
    decay_mult: 1
  }
  param {
    lr_mult: 2
    decay_mult: 0
  }
  inner_product_param {
    num_output: 4096
    weight_filler {
      type: "gaussian"
      std: 0.005
    }
    bias_filler {
      type: "constant"
      value: 0.1
    }
  }
}
layer {
  name: "relu7"
  type: "ReLU"
  bottom: "fc7"
  top: "fc7"
}
layer {
  name: "drop7"
  type: "Dropout"
  bottom: "fc7"
  top: "fc7"
  dropout_param {
    dropout_ratio: 0.5
  }
}
layer {
  name: "fc8_plantvillage"
  type: "InnerProduct"
  bottom: "fc7"
  top: "fc8_plantvillage"
  param {
    lr_mult: 1
    decay_mult: 1
  }
  param {
    lr_mult: 2
    decay_mult: 0
  }
  inner_product_param {
    num_output: 38
    weight_filler {
      type: "gaussian"
      std: 0.01
    }
    bias_filler {
      type: "constant"
      value: 0
    }
  }
}
layer {
  name: "prob"
  type: "Softmax"
  bottom: "fc8_plantvillage"
  top: "prob"
  include {
    phase: TEST
  }
}
layer {
  name: "hdf5out"
  type: "HDF5Output"
  bottom: "prob"
  bottom: "label"
  include {
    phase: TEST
  }
  hdf5_output_param {
    file_name: "hdf5_dumps/iter_8070.h5"
  }
}
layer {
  name: "loss"
  type: "SoftmaxWithLoss"
  bottom: "fc8_plantvillage"
  bottom: "label"
  top: "loss"
}
layer {
  name: "accuracy"
  type: "Accuracy"
  bottom: "fc8_plantvillage"
  bottom: "label"
  top: "accuracy"
  include {
    phase: TEST
  }
}
I0403 15:10:00.462668  9271 layer_factory.hpp:77] Creating layer data
I0403 15:10:00.463332  9271 net.cpp:91] Creating Layer data
I0403 15:10:00.463363  9271 net.cpp:399] data -> data
I0403 15:10:00.463415  9271 net.cpp:399] data -> label
I0403 15:10:00.463452  9271 data_transformer.cpp:25] Loading mean file from: /home/mohanty/data/final_dataset/lmdb/color-50-50/mean.binaryproto
I0403 15:10:00.466351  9273 db_lmdb.cpp:38] Opened lmdb /home/mohanty/data/final_dataset/lmdb/color-50-50/test_db
I0403 15:10:00.477833  9271 data_layer.cpp:41] output data size: 100,3,227,227
I0403 15:10:00.599598  9271 net.cpp:141] Setting up data
I0403 15:10:00.599705  9271 net.cpp:148] Top shape: 100 3 227 227 (15458700)
I0403 15:10:00.599730  9271 net.cpp:148] Top shape: 100 (100)
I0403 15:10:00.599746  9271 net.cpp:156] Memory required for data: 61835200
I0403 15:10:00.599776  9271 layer_factory.hpp:77] Creating layer label_data_1_split
I0403 15:10:00.599802  9271 net.cpp:91] Creating Layer label_data_1_split
I0403 15:10:00.599822  9271 net.cpp:425] label_data_1_split <- label
I0403 15:10:00.599853  9271 net.cpp:399] label_data_1_split -> label_data_1_split_0
I0403 15:10:00.599881  9271 net.cpp:399] label_data_1_split -> label_data_1_split_1
I0403 15:10:00.599905  9271 net.cpp:399] label_data_1_split -> label_data_1_split_2
I0403 15:10:00.599970  9271 net.cpp:141] Setting up label_data_1_split
I0403 15:10:00.600000  9271 net.cpp:148] Top shape: 100 (100)
I0403 15:10:00.600018  9271 net.cpp:148] Top shape: 100 (100)
I0403 15:10:00.600036  9271 net.cpp:148] Top shape: 100 (100)
I0403 15:10:00.600051  9271 net.cpp:156] Memory required for data: 61836400
I0403 15:10:00.600066  9271 layer_factory.hpp:77] Creating layer conv1
I0403 15:10:00.600100  9271 net.cpp:91] Creating Layer conv1
I0403 15:10:00.600121  9271 net.cpp:425] conv1 <- data
I0403 15:10:00.600141  9271 net.cpp:399] conv1 -> conv1
I0403 15:10:00.744364  9271 net.cpp:141] Setting up conv1
I0403 15:10:00.744452  9271 net.cpp:148] Top shape: 100 96 55 55 (29040000)
I0403 15:10:00.744469  9271 net.cpp:156] Memory required for data: 177996400
I0403 15:10:00.744500  9271 layer_factory.hpp:77] Creating layer relu1
I0403 15:10:00.744527  9271 net.cpp:91] Creating Layer relu1
I0403 15:10:00.744546  9271 net.cpp:425] relu1 <- conv1
I0403 15:10:00.744565  9271 net.cpp:386] relu1 -> conv1 (in-place)
I0403 15:10:00.744813  9271 net.cpp:141] Setting up relu1
I0403 15:10:00.744840  9271 net.cpp:148] Top shape: 100 96 55 55 (29040000)
I0403 15:10:00.744855  9271 net.cpp:156] Memory required for data: 294156400
I0403 15:10:00.744901  9271 layer_factory.hpp:77] Creating layer norm1
I0403 15:10:00.744930  9271 net.cpp:91] Creating Layer norm1
I0403 15:10:00.744949  9271 net.cpp:425] norm1 <- conv1
I0403 15:10:00.744966  9271 net.cpp:399] norm1 -> norm1
I0403 15:10:00.745332  9271 net.cpp:141] Setting up norm1
I0403 15:10:00.745360  9271 net.cpp:148] Top shape: 100 96 55 55 (29040000)
I0403 15:10:00.745376  9271 net.cpp:156] Memory required for data: 410316400
I0403 15:10:00.745393  9271 layer_factory.hpp:77] Creating layer pool1
I0403 15:10:00.745415  9271 net.cpp:91] Creating Layer pool1
I0403 15:10:00.745434  9271 net.cpp:425] pool1 <- norm1
I0403 15:10:00.745452  9271 net.cpp:399] pool1 -> pool1
I0403 15:10:00.745530  9271 net.cpp:141] Setting up pool1
I0403 15:10:00.745553  9271 net.cpp:148] Top shape: 100 96 27 27 (6998400)
I0403 15:10:00.745569  9271 net.cpp:156] Memory required for data: 438310000
I0403 15:10:00.745584  9271 layer_factory.hpp:77] Creating layer conv2
I0403 15:10:00.745609  9271 net.cpp:91] Creating Layer conv2
I0403 15:10:00.745626  9271 net.cpp:425] conv2 <- pool1
I0403 15:10:00.745645  9271 net.cpp:399] conv2 -> conv2
I0403 15:10:00.760627  9271 net.cpp:141] Setting up conv2
I0403 15:10:00.760663  9271 net.cpp:148] Top shape: 100 256 27 27 (18662400)
I0403 15:10:00.760679  9271 net.cpp:156] Memory required for data: 512959600
I0403 15:10:00.760700  9271 layer_factory.hpp:77] Creating layer relu2
I0403 15:10:00.760720  9271 net.cpp:91] Creating Layer relu2
I0403 15:10:00.760740  9271 net.cpp:425] relu2 <- conv2
I0403 15:10:00.760757  9271 net.cpp:386] relu2 -> conv2 (in-place)
I0403 15:10:00.761032  9271 net.cpp:141] Setting up relu2
I0403 15:10:00.761059  9271 net.cpp:148] Top shape: 100 256 27 27 (18662400)
I0403 15:10:00.761075  9271 net.cpp:156] Memory required for data: 587609200
I0403 15:10:00.761090  9271 layer_factory.hpp:77] Creating layer norm2
I0403 15:10:00.761111  9271 net.cpp:91] Creating Layer norm2
I0403 15:10:00.761128  9271 net.cpp:425] norm2 <- conv2
I0403 15:10:00.761147  9271 net.cpp:399] norm2 -> norm2
I0403 15:10:00.761344  9271 net.cpp:141] Setting up norm2
I0403 15:10:00.761370  9271 net.cpp:148] Top shape: 100 256 27 27 (18662400)
I0403 15:10:00.761385  9271 net.cpp:156] Memory required for data: 662258800
I0403 15:10:00.761400  9271 layer_factory.hpp:77] Creating layer pool2
I0403 15:10:00.761418  9271 net.cpp:91] Creating Layer pool2
I0403 15:10:00.761433  9271 net.cpp:425] pool2 <- norm2
I0403 15:10:00.761453  9271 net.cpp:399] pool2 -> pool2
I0403 15:10:00.761505  9271 net.cpp:141] Setting up pool2
I0403 15:10:00.761530  9271 net.cpp:148] Top shape: 100 256 13 13 (4326400)
I0403 15:10:00.761545  9271 net.cpp:156] Memory required for data: 679564400
I0403 15:10:00.761560  9271 layer_factory.hpp:77] Creating layer conv3
I0403 15:10:00.761582  9271 net.cpp:91] Creating Layer conv3
I0403 15:10:00.761600  9271 net.cpp:425] conv3 <- pool2
I0403 15:10:00.761617  9271 net.cpp:399] conv3 -> conv3
I0403 15:10:00.803028  9271 net.cpp:141] Setting up conv3
I0403 15:10:00.803087  9271 net.cpp:148] Top shape: 100 384 13 13 (6489600)
I0403 15:10:00.803103  9271 net.cpp:156] Memory required for data: 705522800
I0403 15:10:00.803128  9271 layer_factory.hpp:77] Creating layer relu3
I0403 15:10:00.803148  9271 net.cpp:91] Creating Layer relu3
I0403 15:10:00.803164  9271 net.cpp:425] relu3 <- conv3
I0403 15:10:00.803186  9271 net.cpp:386] relu3 -> conv3 (in-place)
I0403 15:10:00.803455  9271 net.cpp:141] Setting up relu3
I0403 15:10:00.803481  9271 net.cpp:148] Top shape: 100 384 13 13 (6489600)
I0403 15:10:00.803498  9271 net.cpp:156] Memory required for data: 731481200
I0403 15:10:00.803513  9271 layer_factory.hpp:77] Creating layer conv4
I0403 15:10:00.803535  9271 net.cpp:91] Creating Layer conv4
I0403 15:10:00.803553  9271 net.cpp:425] conv4 <- conv3
I0403 15:10:00.803573  9271 net.cpp:399] conv4 -> conv4
I0403 15:10:00.833348  9271 net.cpp:141] Setting up conv4
I0403 15:10:00.833398  9271 net.cpp:148] Top shape: 100 384 13 13 (6489600)
I0403 15:10:00.833443  9271 net.cpp:156] Memory required for data: 757439600
I0403 15:10:00.833464  9271 layer_factory.hpp:77] Creating layer relu4
I0403 15:10:00.833484  9271 net.cpp:91] Creating Layer relu4
I0403 15:10:00.833500  9271 net.cpp:425] relu4 <- conv4
I0403 15:10:00.833520  9271 net.cpp:386] relu4 -> conv4 (in-place)
I0403 15:10:00.833791  9271 net.cpp:141] Setting up relu4
I0403 15:10:00.833819  9271 net.cpp:148] Top shape: 100 384 13 13 (6489600)
I0403 15:10:00.833834  9271 net.cpp:156] Memory required for data: 783398000
I0403 15:10:00.833850  9271 layer_factory.hpp:77] Creating layer conv5
I0403 15:10:00.833875  9271 net.cpp:91] Creating Layer conv5
I0403 15:10:00.833894  9271 net.cpp:425] conv5 <- conv4
I0403 15:10:00.833914  9271 net.cpp:399] conv5 -> conv5
I0403 15:10:00.854267  9271 net.cpp:141] Setting up conv5
I0403 15:10:00.854306  9271 net.cpp:148] Top shape: 100 256 13 13 (4326400)
I0403 15:10:00.854324  9271 net.cpp:156] Memory required for data: 800703600
I0403 15:10:00.854347  9271 layer_factory.hpp:77] Creating layer relu5
I0403 15:10:00.854367  9271 net.cpp:91] Creating Layer relu5
I0403 15:10:00.854382  9271 net.cpp:425] relu5 <- conv5
I0403 15:10:00.854403  9271 net.cpp:386] relu5 -> conv5 (in-place)
I0403 15:10:00.854691  9271 net.cpp:141] Setting up relu5
I0403 15:10:00.854717  9271 net.cpp:148] Top shape: 100 256 13 13 (4326400)
I0403 15:10:00.854732  9271 net.cpp:156] Memory required for data: 818009200
I0403 15:10:00.854748  9271 layer_factory.hpp:77] Creating layer pool5
I0403 15:10:00.854771  9271 net.cpp:91] Creating Layer pool5
I0403 15:10:00.854789  9271 net.cpp:425] pool5 <- conv5
I0403 15:10:00.854807  9271 net.cpp:399] pool5 -> pool5
I0403 15:10:00.854871  9271 net.cpp:141] Setting up pool5
I0403 15:10:00.854893  9271 net.cpp:148] Top shape: 100 256 6 6 (921600)
I0403 15:10:00.854908  9271 net.cpp:156] Memory required for data: 821695600
I0403 15:10:00.854923  9271 layer_factory.hpp:77] Creating layer fc6
I0403 15:10:00.854950  9271 net.cpp:91] Creating Layer fc6
I0403 15:10:00.854969  9271 net.cpp:425] fc6 <- pool5
I0403 15:10:00.854995  9271 net.cpp:399] fc6 -> fc6
I0403 15:10:02.391721  9271 net.cpp:141] Setting up fc6
I0403 15:10:02.391806  9271 net.cpp:148] Top shape: 100 4096 (409600)
I0403 15:10:02.391822  9271 net.cpp:156] Memory required for data: 823334000
I0403 15:10:02.391844  9271 layer_factory.hpp:77] Creating layer relu6
I0403 15:10:02.391866  9271 net.cpp:91] Creating Layer relu6
I0403 15:10:02.391883  9271 net.cpp:425] relu6 <- fc6
I0403 15:10:02.391902  9271 net.cpp:386] relu6 -> fc6 (in-place)
I0403 15:10:02.392117  9271 net.cpp:141] Setting up relu6
I0403 15:10:02.392141  9271 net.cpp:148] Top shape: 100 4096 (409600)
I0403 15:10:02.392156  9271 net.cpp:156] Memory required for data: 824972400
I0403 15:10:02.392170  9271 layer_factory.hpp:77] Creating layer drop6
I0403 15:10:02.392189  9271 net.cpp:91] Creating Layer drop6
I0403 15:10:02.392207  9271 net.cpp:425] drop6 <- fc6
I0403 15:10:02.392227  9271 net.cpp:386] drop6 -> fc6 (in-place)
I0403 15:10:02.392278  9271 net.cpp:141] Setting up drop6
I0403 15:10:02.392303  9271 net.cpp:148] Top shape: 100 4096 (409600)
I0403 15:10:02.392318  9271 net.cpp:156] Memory required for data: 826610800
I0403 15:10:02.392333  9271 layer_factory.hpp:77] Creating layer fc7
I0403 15:10:02.392352  9271 net.cpp:91] Creating Layer fc7
I0403 15:10:02.392367  9271 net.cpp:425] fc7 <- fc6
I0403 15:10:02.392387  9271 net.cpp:399] fc7 -> fc7
I0403 15:10:03.062882  9271 net.cpp:141] Setting up fc7
I0403 15:10:03.062968  9271 net.cpp:148] Top shape: 100 4096 (409600)
I0403 15:10:03.062988  9271 net.cpp:156] Memory required for data: 828249200
I0403 15:10:03.063010  9271 layer_factory.hpp:77] Creating layer relu7
I0403 15:10:03.063033  9271 net.cpp:91] Creating Layer relu7
I0403 15:10:03.063051  9271 net.cpp:425] relu7 <- fc7
I0403 15:10:03.063073  9271 net.cpp:386] relu7 -> fc7 (in-place)
I0403 15:10:03.063458  9271 net.cpp:141] Setting up relu7
I0403 15:10:03.063483  9271 net.cpp:148] Top shape: 100 4096 (409600)
I0403 15:10:03.063530  9271 net.cpp:156] Memory required for data: 829887600
I0403 15:10:03.063547  9271 layer_factory.hpp:77] Creating layer drop7
I0403 15:10:03.063566  9271 net.cpp:91] Creating Layer drop7
I0403 15:10:03.063582  9271 net.cpp:425] drop7 <- fc7
I0403 15:10:03.063601  9271 net.cpp:386] drop7 -> fc7 (in-place)
I0403 15:10:03.063644  9271 net.cpp:141] Setting up drop7
I0403 15:10:03.063668  9271 net.cpp:148] Top shape: 100 4096 (409600)
I0403 15:10:03.063683  9271 net.cpp:156] Memory required for data: 831526000
I0403 15:10:03.063697  9271 layer_factory.hpp:77] Creating layer fc8_plantvillage
I0403 15:10:03.063717  9271 net.cpp:91] Creating Layer fc8_plantvillage
I0403 15:10:03.063733  9271 net.cpp:425] fc8_plantvillage <- fc7
I0403 15:10:03.063752  9271 net.cpp:399] fc8_plantvillage -> fc8_plantvillage
I0403 15:10:03.070355  9271 net.cpp:141] Setting up fc8_plantvillage
I0403 15:10:03.070384  9271 net.cpp:148] Top shape: 100 38 (3800)
I0403 15:10:03.070400  9271 net.cpp:156] Memory required for data: 831541200
I0403 15:10:03.070420  9271 layer_factory.hpp:77] Creating layer fc8_plantvillage_fc8_plantvillage_0_split
I0403 15:10:03.070438  9271 net.cpp:91] Creating Layer fc8_plantvillage_fc8_plantvillage_0_split
I0403 15:10:03.070458  9271 net.cpp:425] fc8_plantvillage_fc8_plantvillage_0_split <- fc8_plantvillage
I0403 15:10:03.070487  9271 net.cpp:399] fc8_plantvillage_fc8_plantvillage_0_split -> fc8_plantvillage_fc8_plantvillage_0_split_0
I0403 15:10:03.070508  9271 net.cpp:399] fc8_plantvillage_fc8_plantvillage_0_split -> fc8_plantvillage_fc8_plantvillage_0_split_1
I0403 15:10:03.070526  9271 net.cpp:399] fc8_plantvillage_fc8_plantvillage_0_split -> fc8_plantvillage_fc8_plantvillage_0_split_2
I0403 15:10:03.070605  9271 net.cpp:141] Setting up fc8_plantvillage_fc8_plantvillage_0_split
I0403 15:10:03.070629  9271 net.cpp:148] Top shape: 100 38 (3800)
I0403 15:10:03.070647  9271 net.cpp:148] Top shape: 100 38 (3800)
I0403 15:10:03.070662  9271 net.cpp:148] Top shape: 100 38 (3800)
I0403 15:10:03.070675  9271 net.cpp:156] Memory required for data: 831586800
I0403 15:10:03.070689  9271 layer_factory.hpp:77] Creating layer prob
I0403 15:10:03.070708  9271 net.cpp:91] Creating Layer prob
I0403 15:10:03.070724  9271 net.cpp:425] prob <- fc8_plantvillage_fc8_plantvillage_0_split_0
I0403 15:10:03.070740  9271 net.cpp:399] prob -> prob
I0403 15:10:03.070956  9271 net.cpp:141] Setting up prob
I0403 15:10:03.070984  9271 net.cpp:148] Top shape: 100 38 (3800)
I0403 15:10:03.071001  9271 net.cpp:156] Memory required for data: 831602000
I0403 15:10:03.071014  9271 layer_factory.hpp:77] Creating layer hdf5out
I0403 15:10:03.071033  9271 net.cpp:91] Creating Layer hdf5out
I0403 15:10:03.071048  9271 net.cpp:425] hdf5out <- prob
I0403 15:10:03.071064  9271 net.cpp:425] hdf5out <- label_data_1_split_0
I0403 15:10:03.073173  9271 net.cpp:141] Setting up hdf5out
…
