…
I0403 15:06:20.212602  9052 net.cpp:313] The NetState phase (1) differed from the phase (0) specified by a rule in layer data
I0403 15:06:20.212898  9052 net.cpp:49] Initializing net from parameters: 
state {
  phase: TEST
}
layer {
  name: "data"
  type: "Data"
  top: "data"
  top: "label"
  include {
    phase: TEST
  }
  transform_param {
    crop_size: 227
    mean_file: "/home/mohanty/data/final_dataset/lmdb/color-50-50/mean.binaryproto"
  }
  data_param {
    source: "/home/mohanty/data/final_dataset/lmdb/color-50-50/test_db"
    batch_size: 100
    backend: LMDB
  }
}
layer {
  name: "conv1"
  type: "Convolution"
  bottom: "data"
  top: "conv1"
  param {
    lr_mult: 1
    decay_mult: 1
  }
  param {
    lr_mult: 2
    decay_mult: 0
  }
  convolution_param {
    num_output: 96
    kernel_size: 11
    stride: 4
    weight_filler {
      type: "gaussian"
      std: 0.01
    }
    bias_filler {
      type: "constant"
      value: 0
    }
  }
}
layer {
  name: "relu1"
  type: "ReLU"
  bottom: "conv1"
  top: "conv1"
}
layer {
  name: "norm1"
  type: "LRN"
  bottom: "conv1"
  top: "norm1"
  lrn_param {
    local_size: 5
    alpha: 0.0001
    beta: 0.75
  }
}
layer {
  name: "pool1"
  type: "Pooling"
  bottom: "norm1"
  top: "pool1"
  pooling_param {
    pool: MAX
    kernel_size: 3
    stride: 2
  }
}
layer {
  name: "conv2"
  type: "Convolution"
  bottom: "pool1"
  top: "conv2"
  param {
    lr_mult: 1
    decay_mult: 1
  }
  param {
    lr_mult: 2
    decay_mult: 0
  }
  convolution_param {
    num_output: 256
    pad: 2
    kernel_size: 5
    group: 2
    weight_filler {
      type: "gaussian"
      std: 0.01
    }
    bias_filler {
      type: "constant"
      value: 0.1
    }
  }
}
layer {
  name: "relu2"
  type: "ReLU"
  bottom: "conv2"
  top: "conv2"
}
layer {
  name: "norm2"
  type: "LRN"
  bottom: "conv2"
  top: "norm2"
  lrn_param {
    local_size: 5
    alpha: 0.0001
    beta: 0.75
  }
}
layer {
  name: "pool2"
  type: "Pooling"
  bottom: "norm2"
  top: "pool2"
  pooling_param {
    pool: MAX
    kernel_size: 3
    stride: 2
  }
}
layer {
  name: "conv3"
  type: "Convolution"
  bottom: "pool2"
  top: "conv3"
  param {
    lr_mult: 1
    decay_mult: 1
  }
  param {
    lr_mult: 2
    decay_mult: 0
  }
  convolution_param {
    num_output: 384
    pad: 1
    kernel_size: 3
    weight_filler {
      type: "gaussian"
      std: 0.01
    }
    bias_filler {
      type: "constant"
      value: 0
    }
  }
}
layer {
  name: "relu3"
  type: "ReLU"
  bottom: "conv3"
  top: "conv3"
}
layer {
  name: "conv4"
  type: "Convolution"
  bottom: "conv3"
  top: "conv4"
  param {
    lr_mult: 1
    decay_mult: 1
  }
  param {
    lr_mult: 2
    decay_mult: 0
  }
  convolution_param {
    num_output: 384
    pad: 1
    kernel_size: 3
    group: 2
    weight_filler {
      type: "gaussian"
      std: 0.01
    }
    bias_filler {
      type: "constant"
      value: 0.1
    }
  }
}
layer {
  name: "relu4"
  type: "ReLU"
  bottom: "conv4"
  top: "conv4"
}
layer {
  name: "conv5"
  type: "Convolution"
  bottom: "conv4"
  top: "conv5"
  param {
    lr_mult: 1
    decay_mult: 1
  }
  param {
    lr_mult: 2
    decay_mult: 0
  }
  convolution_param {
    num_output: 256
    pad: 1
    kernel_size: 3
    group: 2
    weight_filler {
      type: "gaussian"
      std: 0.01
    }
    bias_filler {
      type: "constant"
      value: 0.1
    }
  }
}
layer {
  name: "relu5"
  type: "ReLU"
  bottom: "conv5"
  top: "conv5"
}
layer {
  name: "pool5"
  type: "Pooling"
  bottom: "conv5"
  top: "pool5"
  pooling_param {
    pool: MAX
    kernel_size: 3
    stride: 2
  }
}
layer {
  name: "fc6"
  type: "InnerProduct"
  bottom: "pool5"
  top: "fc6"
  param {
    lr_mult: 1
    decay_mult: 1
  }
  param {
    lr_mult: 2
    decay_mult: 0
  }
  inner_product_param {
    num_output: 4096
    weight_filler {
      type: "gaussian"
      std: 0.005
    }
    bias_filler {
      type: "constant"
      value: 0.1
    }
  }
}
layer {
  name: "relu6"
  type: "ReLU"
  bottom: "fc6"
  top: "fc6"
}
layer {
  name: "drop6"
  type: "Dropout"
  bottom: "fc6"
  top: "fc6"
  dropout_param {
    dropout_ratio: 0.5
  }
}
layer {
  name: "fc7"
  type: "InnerProduct"
  bottom: "fc6"
  top: "fc7"
  param {
    lr_mult: 1
    decay_mult: 1
  }
  param {
    lr_mult: 2
    decay_mult: 0
  }
  inner_product_param {
    num_output: 4096
    weight_filler {
      type: "gaussian"
      std: 0.005
    }
    bias_filler {
      type: "constant"
      value: 0.1
    }
  }
}
layer {
  name: "relu7"
  type: "ReLU"
  bottom: "fc7"
  top: "fc7"
}
layer {
  name: "drop7"
  type: "Dropout"
  bottom: "fc7"
  top: "fc7"
  dropout_param {
    dropout_ratio: 0.5
  }
}
layer {
  name: "fc8_plantvillage"
  type: "InnerProduct"
  bottom: "fc7"
  top: "fc8_plantvillage"
  param {
    lr_mult: 1
    decay_mult: 1
  }
  param {
    lr_mult: 2
    decay_mult: 0
  }
  inner_product_param {
    num_output: 38
    weight_filler {
      type: "gaussian"
      std: 0.01
    }
    bias_filler {
      type: "constant"
      value: 0
    }
  }
}
layer {
  name: "prob"
  type: "Softmax"
  bottom: "fc8_plantvillage"
  top: "prob"
  include {
    phase: TEST
  }
}
layer {
  name: "hdf5out"
  type: "HDF5Output"
  bottom: "prob"
  bottom: "label"
  include {
    phase: TEST
  }
  hdf5_output_param {
    file_name: "hdf5_dumps/iter_6994.h5"
  }
}
layer {
  name: "loss"
  type: "SoftmaxWithLoss"
  bottom: "fc8_plantvillage"
  bottom: "label"
  top: "loss"
}
layer {
  name: "accuracy"
  type: "Accuracy"
  bottom: "fc8_plantvillage"
  bottom: "label"
  top: "accuracy"
  include {
    phase: TEST
  }
}
I0403 15:06:20.213444  9052 layer_factory.hpp:77] Creating layer data
I0403 15:06:20.214072  9052 net.cpp:91] Creating Layer data
I0403 15:06:20.214102  9052 net.cpp:399] data -> data
I0403 15:06:20.214153  9052 net.cpp:399] data -> label
I0403 15:06:20.214189  9052 data_transformer.cpp:25] Loading mean file from: /home/mohanty/data/final_dataset/lmdb/color-50-50/mean.binaryproto
I0403 15:06:20.217125  9055 db_lmdb.cpp:38] Opened lmdb /home/mohanty/data/final_dataset/lmdb/color-50-50/test_db
I0403 15:06:20.228449  9052 data_layer.cpp:41] output data size: 100,3,227,227
I0403 15:06:20.348127  9052 net.cpp:141] Setting up data
I0403 15:06:20.348232  9052 net.cpp:148] Top shape: 100 3 227 227 (15458700)
I0403 15:06:20.348254  9052 net.cpp:148] Top shape: 100 (100)
I0403 15:06:20.348269  9052 net.cpp:156] Memory required for data: 61835200
I0403 15:06:20.348296  9052 layer_factory.hpp:77] Creating layer label_data_1_split
I0403 15:06:20.348320  9052 net.cpp:91] Creating Layer label_data_1_split
I0403 15:06:20.348338  9052 net.cpp:425] label_data_1_split <- label
I0403 15:06:20.348368  9052 net.cpp:399] label_data_1_split -> label_data_1_split_0
I0403 15:06:20.348394  9052 net.cpp:399] label_data_1_split -> label_data_1_split_1
I0403 15:06:20.348414  9052 net.cpp:399] label_data_1_split -> label_data_1_split_2
I0403 15:06:20.348474  9052 net.cpp:141] Setting up label_data_1_split
I0403 15:06:20.348496  9052 net.cpp:148] Top shape: 100 (100)
I0403 15:06:20.348511  9052 net.cpp:148] Top shape: 100 (100)
I0403 15:06:20.348526  9052 net.cpp:148] Top shape: 100 (100)
I0403 15:06:20.348541  9052 net.cpp:156] Memory required for data: 61836400
I0403 15:06:20.348554  9052 layer_factory.hpp:77] Creating layer conv1
I0403 15:06:20.348584  9052 net.cpp:91] Creating Layer conv1
I0403 15:06:20.348601  9052 net.cpp:425] conv1 <- data
I0403 15:06:20.348620  9052 net.cpp:399] conv1 -> conv1
I0403 15:06:20.492123  9052 net.cpp:141] Setting up conv1
I0403 15:06:20.492210  9052 net.cpp:148] Top shape: 100 96 55 55 (29040000)
I0403 15:06:20.492238  9052 net.cpp:156] Memory required for data: 177996400
I0403 15:06:20.492266  9052 layer_factory.hpp:77] Creating layer relu1
I0403 15:06:20.492295  9052 net.cpp:91] Creating Layer relu1
I0403 15:06:20.492313  9052 net.cpp:425] relu1 <- conv1
I0403 15:06:20.492331  9052 net.cpp:386] relu1 -> conv1 (in-place)
I0403 15:06:20.492599  9052 net.cpp:141] Setting up relu1
I0403 15:06:20.492624  9052 net.cpp:148] Top shape: 100 96 55 55 (29040000)
I0403 15:06:20.492640  9052 net.cpp:156] Memory required for data: 294156400
I0403 15:06:20.492686  9052 layer_factory.hpp:77] Creating layer norm1
I0403 15:06:20.492715  9052 net.cpp:91] Creating Layer norm1
I0403 15:06:20.492734  9052 net.cpp:425] norm1 <- conv1
I0403 15:06:20.492754  9052 net.cpp:399] norm1 -> norm1
I0403 15:06:20.493080  9052 net.cpp:141] Setting up norm1
I0403 15:06:20.493108  9052 net.cpp:148] Top shape: 100 96 55 55 (29040000)
I0403 15:06:20.493124  9052 net.cpp:156] Memory required for data: 410316400
I0403 15:06:20.493137  9052 layer_factory.hpp:77] Creating layer pool1
I0403 15:06:20.493160  9052 net.cpp:91] Creating Layer pool1
I0403 15:06:20.493176  9052 net.cpp:425] pool1 <- norm1
I0403 15:06:20.493196  9052 net.cpp:399] pool1 -> pool1
I0403 15:06:20.493264  9052 net.cpp:141] Setting up pool1
I0403 15:06:20.493290  9052 net.cpp:148] Top shape: 100 96 27 27 (6998400)
I0403 15:06:20.493306  9052 net.cpp:156] Memory required for data: 438310000
I0403 15:06:20.493321  9052 layer_factory.hpp:77] Creating layer conv2
I0403 15:06:20.493346  9052 net.cpp:91] Creating Layer conv2
I0403 15:06:20.493363  9052 net.cpp:425] conv2 <- pool1
I0403 15:06:20.493381  9052 net.cpp:399] conv2 -> conv2
I0403 15:06:20.508252  9052 net.cpp:141] Setting up conv2
I0403 15:06:20.508290  9052 net.cpp:148] Top shape: 100 256 27 27 (18662400)
I0403 15:06:20.508306  9052 net.cpp:156] Memory required for data: 512959600
I0403 15:06:20.508327  9052 layer_factory.hpp:77] Creating layer relu2
I0403 15:06:20.508347  9052 net.cpp:91] Creating Layer relu2
I0403 15:06:20.508361  9052 net.cpp:425] relu2 <- conv2
I0403 15:06:20.508381  9052 net.cpp:386] relu2 -> conv2 (in-place)
I0403 15:06:20.508657  9052 net.cpp:141] Setting up relu2
I0403 15:06:20.508683  9052 net.cpp:148] Top shape: 100 256 27 27 (18662400)
I0403 15:06:20.508698  9052 net.cpp:156] Memory required for data: 587609200
I0403 15:06:20.508713  9052 layer_factory.hpp:77] Creating layer norm2
I0403 15:06:20.508734  9052 net.cpp:91] Creating Layer norm2
I0403 15:06:20.508751  9052 net.cpp:425] norm2 <- conv2
I0403 15:06:20.508769  9052 net.cpp:399] norm2 -> norm2
I0403 15:06:20.508975  9052 net.cpp:141] Setting up norm2
I0403 15:06:20.508999  9052 net.cpp:148] Top shape: 100 256 27 27 (18662400)
I0403 15:06:20.509014  9052 net.cpp:156] Memory required for data: 662258800
I0403 15:06:20.509029  9052 layer_factory.hpp:77] Creating layer pool2
I0403 15:06:20.509047  9052 net.cpp:91] Creating Layer pool2
I0403 15:06:20.509062  9052 net.cpp:425] pool2 <- norm2
I0403 15:06:20.509080  9052 net.cpp:399] pool2 -> pool2
I0403 15:06:20.509130  9052 net.cpp:141] Setting up pool2
I0403 15:06:20.509153  9052 net.cpp:148] Top shape: 100 256 13 13 (4326400)
I0403 15:06:20.509167  9052 net.cpp:156] Memory required for data: 679564400
I0403 15:06:20.509182  9052 layer_factory.hpp:77] Creating layer conv3
I0403 15:06:20.509207  9052 net.cpp:91] Creating Layer conv3
I0403 15:06:20.509223  9052 net.cpp:425] conv3 <- pool2
I0403 15:06:20.509240  9052 net.cpp:399] conv3 -> conv3
I0403 15:06:20.546880  9052 net.cpp:141] Setting up conv3
I0403 15:06:20.546955  9052 net.cpp:148] Top shape: 100 384 13 13 (6489600)
I0403 15:06:20.546974  9052 net.cpp:156] Memory required for data: 705522800
I0403 15:06:20.546998  9052 layer_factory.hpp:77] Creating layer relu3
I0403 15:06:20.547019  9052 net.cpp:91] Creating Layer relu3
I0403 15:06:20.547034  9052 net.cpp:425] relu3 <- conv3
I0403 15:06:20.547056  9052 net.cpp:386] relu3 -> conv3 (in-place)
I0403 15:06:20.547329  9052 net.cpp:141] Setting up relu3
I0403 15:06:20.547356  9052 net.cpp:148] Top shape: 100 384 13 13 (6489600)
I0403 15:06:20.547372  9052 net.cpp:156] Memory required for data: 731481200
I0403 15:06:20.547387  9052 layer_factory.hpp:77] Creating layer conv4
I0403 15:06:20.547413  9052 net.cpp:91] Creating Layer conv4
I0403 15:06:20.547431  9052 net.cpp:425] conv4 <- conv3
I0403 15:06:20.547464  9052 net.cpp:399] conv4 -> conv4
I0403 15:06:20.577545  9052 net.cpp:141] Setting up conv4
I0403 15:06:20.577597  9052 net.cpp:148] Top shape: 100 384 13 13 (6489600)
I0403 15:06:20.577644  9052 net.cpp:156] Memory required for data: 757439600
I0403 15:06:20.577664  9052 layer_factory.hpp:77] Creating layer relu4
I0403 15:06:20.577684  9052 net.cpp:91] Creating Layer relu4
I0403 15:06:20.577700  9052 net.cpp:425] relu4 <- conv4
I0403 15:06:20.577719  9052 net.cpp:386] relu4 -> conv4 (in-place)
I0403 15:06:20.577997  9052 net.cpp:141] Setting up relu4
I0403 15:06:20.578027  9052 net.cpp:148] Top shape: 100 384 13 13 (6489600)
I0403 15:06:20.578042  9052 net.cpp:156] Memory required for data: 783398000
I0403 15:06:20.578057  9052 layer_factory.hpp:77] Creating layer conv5
I0403 15:06:20.578080  9052 net.cpp:91] Creating Layer conv5
I0403 15:06:20.578096  9052 net.cpp:425] conv5 <- conv4
I0403 15:06:20.578114  9052 net.cpp:399] conv5 -> conv5
I0403 15:06:20.598297  9052 net.cpp:141] Setting up conv5
I0403 15:06:20.598335  9052 net.cpp:148] Top shape: 100 256 13 13 (4326400)
I0403 15:06:20.598351  9052 net.cpp:156] Memory required for data: 800703600
I0403 15:06:20.598374  9052 layer_factory.hpp:77] Creating layer relu5
I0403 15:06:20.598394  9052 net.cpp:91] Creating Layer relu5
I0403 15:06:20.598410  9052 net.cpp:425] relu5 <- conv5
I0403 15:06:20.598429  9052 net.cpp:386] relu5 -> conv5 (in-place)
I0403 15:06:20.598706  9052 net.cpp:141] Setting up relu5
I0403 15:06:20.598731  9052 net.cpp:148] Top shape: 100 256 13 13 (4326400)
I0403 15:06:20.598747  9052 net.cpp:156] Memory required for data: 818009200
I0403 15:06:20.598762  9052 layer_factory.hpp:77] Creating layer pool5
I0403 15:06:20.598784  9052 net.cpp:91] Creating Layer pool5
I0403 15:06:20.598801  9052 net.cpp:425] pool5 <- conv5
I0403 15:06:20.598819  9052 net.cpp:399] pool5 -> pool5
I0403 15:06:20.598878  9052 net.cpp:141] Setting up pool5
I0403 15:06:20.598901  9052 net.cpp:148] Top shape: 100 256 6 6 (921600)
I0403 15:06:20.598917  9052 net.cpp:156] Memory required for data: 821695600
I0403 15:06:20.598932  9052 layer_factory.hpp:77] Creating layer fc6
I0403 15:06:20.598965  9052 net.cpp:91] Creating Layer fc6
I0403 15:06:20.598985  9052 net.cpp:425] fc6 <- pool5
I0403 15:06:20.599006  9052 net.cpp:399] fc6 -> fc6
I0403 15:06:22.122064  9052 net.cpp:141] Setting up fc6
I0403 15:06:22.122153  9052 net.cpp:148] Top shape: 100 4096 (409600)
I0403 15:06:22.122167  9052 net.cpp:156] Memory required for data: 823334000
I0403 15:06:22.122189  9052 layer_factory.hpp:77] Creating layer relu6
I0403 15:06:22.122215  9052 net.cpp:91] Creating Layer relu6
I0403 15:06:22.122232  9052 net.cpp:425] relu6 <- fc6
I0403 15:06:22.122251  9052 net.cpp:386] relu6 -> fc6 (in-place)
I0403 15:06:22.122467  9052 net.cpp:141] Setting up relu6
I0403 15:06:22.122490  9052 net.cpp:148] Top shape: 100 4096 (409600)
I0403 15:06:22.122505  9052 net.cpp:156] Memory required for data: 824972400
I0403 15:06:22.122519  9052 layer_factory.hpp:77] Creating layer drop6
I0403 15:06:22.122537  9052 net.cpp:91] Creating Layer drop6
I0403 15:06:22.122551  9052 net.cpp:425] drop6 <- fc6
I0403 15:06:22.122570  9052 net.cpp:386] drop6 -> fc6 (in-place)
I0403 15:06:22.122622  9052 net.cpp:141] Setting up drop6
I0403 15:06:22.122648  9052 net.cpp:148] Top shape: 100 4096 (409600)
I0403 15:06:22.122663  9052 net.cpp:156] Memory required for data: 826610800
I0403 15:06:22.122676  9052 layer_factory.hpp:77] Creating layer fc7
I0403 15:06:22.122694  9052 net.cpp:91] Creating Layer fc7
I0403 15:06:22.122709  9052 net.cpp:425] fc7 <- fc6
I0403 15:06:22.122730  9052 net.cpp:399] fc7 -> fc7
I0403 15:06:22.790305  9052 net.cpp:141] Setting up fc7
I0403 15:06:22.790393  9052 net.cpp:148] Top shape: 100 4096 (409600)
I0403 15:06:22.790410  9052 net.cpp:156] Memory required for data: 828249200
I0403 15:06:22.790431  9052 layer_factory.hpp:77] Creating layer relu7
I0403 15:06:22.790452  9052 net.cpp:91] Creating Layer relu7
I0403 15:06:22.790467  9052 net.cpp:425] relu7 <- fc7
I0403 15:06:22.790488  9052 net.cpp:386] relu7 -> fc7 (in-place)
I0403 15:06:22.790865  9052 net.cpp:141] Setting up relu7
I0403 15:06:22.790891  9052 net.cpp:148] Top shape: 100 4096 (409600)
I0403 15:06:22.790952  9052 net.cpp:156] Memory required for data: 829887600
I0403 15:06:22.790969  9052 layer_factory.hpp:77] Creating layer drop7
I0403 15:06:22.790987  9052 net.cpp:91] Creating Layer drop7
I0403 15:06:22.791002  9052 net.cpp:425] drop7 <- fc7
I0403 15:06:22.791020  9052 net.cpp:386] drop7 -> fc7 (in-place)
I0403 15:06:22.791064  9052 net.cpp:141] Setting up drop7
I0403 15:06:22.791085  9052 net.cpp:148] Top shape: 100 4096 (409600)
I0403 15:06:22.791097  9052 net.cpp:156] Memory required for data: 831526000
I0403 15:06:22.791111  9052 layer_factory.hpp:77] Creating layer fc8_plantvillage
I0403 15:06:22.791133  9052 net.cpp:91] Creating Layer fc8_plantvillage
I0403 15:06:22.791148  9052 net.cpp:425] fc8_plantvillage <- fc7
I0403 15:06:22.791167  9052 net.cpp:399] fc8_plantvillage -> fc8_plantvillage
I0403 15:06:22.797682  9052 net.cpp:141] Setting up fc8_plantvillage
I0403 15:06:22.797708  9052 net.cpp:148] Top shape: 100 38 (3800)
I0403 15:06:22.797724  9052 net.cpp:156] Memory required for data: 831541200
I0403 15:06:22.797741  9052 layer_factory.hpp:77] Creating layer fc8_plantvillage_fc8_plantvillage_0_split
I0403 15:06:22.797758  9052 net.cpp:91] Creating Layer fc8_plantvillage_fc8_plantvillage_0_split
I0403 15:06:22.797773  9052 net.cpp:425] fc8_plantvillage_fc8_plantvillage_0_split <- fc8_plantvillage
I0403 15:06:22.797792  9052 net.cpp:399] fc8_plantvillage_fc8_plantvillage_0_split -> fc8_plantvillage_fc8_plantvillage_0_split_0
I0403 15:06:22.797811  9052 net.cpp:399] fc8_plantvillage_fc8_plantvillage_0_split -> fc8_plantvillage_fc8_plantvillage_0_split_1
I0403 15:06:22.797830  9052 net.cpp:399] fc8_plantvillage_fc8_plantvillage_0_split -> fc8_plantvillage_fc8_plantvillage_0_split_2
I0403 15:06:22.797915  9052 net.cpp:141] Setting up fc8_plantvillage_fc8_plantvillage_0_split
I0403 15:06:22.797940  9052 net.cpp:148] Top shape: 100 38 (3800)
I0403 15:06:22.797967  9052 net.cpp:148] Top shape: 100 38 (3800)
I0403 15:06:22.797986  9052 net.cpp:148] Top shape: 100 38 (3800)
I0403 15:06:22.797998  9052 net.cpp:156] Memory required for data: 831586800
I0403 15:06:22.798012  9052 layer_factory.hpp:77] Creating layer prob
I0403 15:06:22.798030  9052 net.cpp:91] Creating Layer prob
I0403 15:06:22.798046  9052 net.cpp:425] prob <- fc8_plantvillage_fc8_plantvillage_0_split_0
I0403 15:06:22.798066  9052 net.cpp:399] prob -> prob
I0403 15:06:22.798287  9052 net.cpp:141] Setting up prob
I0403 15:06:22.798316  9052 net.cpp:148] Top shape: 100 38 (3800)
I0403 15:06:22.798331  9052 net.cpp:156] Memory required for data: 831602000
I0403 15:06:22.798346  9052 layer_factory.hpp:77] Creating layer hdf5out
I0403 15:06:22.798364  9052 net.cpp:91] Creating Layer hdf5out
I0403 15:06:22.798379  9052 net.cpp:425] hdf5out <- prob
I0403 15:06:22.798395  9052 net.cpp:425] hdf5out <- label_data_1_split_0
I0403 15:06:22.800654  9052 net.cpp:141] Setting up hdf5out
…
