…
I0403 15:04:30.242172  8957 net.cpp:313] The NetState phase (1) differed from the phase (0) specified by a rule in layer data
I0403 15:04:30.242471  8957 net.cpp:49] Initializing net from parameters: 
state {
  phase: TEST
}
layer {
  name: "data"
  type: "Data"
  top: "data"
  top: "label"
  include {
    phase: TEST
  }
  transform_param {
    crop_size: 227
    mean_file: "/home/mohanty/data/final_dataset/lmdb/color-50-50/mean.binaryproto"
  }
  data_param {
    source: "/home/mohanty/data/final_dataset/lmdb/color-50-50/test_db"
    batch_size: 100
    backend: LMDB
  }
}
layer {
  name: "conv1"
  type: "Convolution"
  bottom: "data"
  top: "conv1"
  param {
    lr_mult: 1
    decay_mult: 1
  }
  param {
    lr_mult: 2
    decay_mult: 0
  }
  convolution_param {
    num_output: 96
    kernel_size: 11
    stride: 4
    weight_filler {
      type: "gaussian"
      std: 0.01
    }
    bias_filler {
      type: "constant"
      value: 0
    }
  }
}
layer {
  name: "relu1"
  type: "ReLU"
  bottom: "conv1"
  top: "conv1"
}
layer {
  name: "norm1"
  type: "LRN"
  bottom: "conv1"
  top: "norm1"
  lrn_param {
    local_size: 5
    alpha: 0.0001
    beta: 0.75
  }
}
layer {
  name: "pool1"
  type: "Pooling"
  bottom: "norm1"
  top: "pool1"
  pooling_param {
    pool: MAX
    kernel_size: 3
    stride: 2
  }
}
layer {
  name: "conv2"
  type: "Convolution"
  bottom: "pool1"
  top: "conv2"
  param {
    lr_mult: 1
    decay_mult: 1
  }
  param {
    lr_mult: 2
    decay_mult: 0
  }
  convolution_param {
    num_output: 256
    pad: 2
    kernel_size: 5
    group: 2
    weight_filler {
      type: "gaussian"
      std: 0.01
    }
    bias_filler {
      type: "constant"
      value: 0.1
    }
  }
}
layer {
  name: "relu2"
  type: "ReLU"
  bottom: "conv2"
  top: "conv2"
}
layer {
  name: "norm2"
  type: "LRN"
  bottom: "conv2"
  top: "norm2"
  lrn_param {
    local_size: 5
    alpha: 0.0001
    beta: 0.75
  }
}
layer {
  name: "pool2"
  type: "Pooling"
  bottom: "norm2"
  top: "pool2"
  pooling_param {
    pool: MAX
    kernel_size: 3
    stride: 2
  }
}
layer {
  name: "conv3"
  type: "Convolution"
  bottom: "pool2"
  top: "conv3"
  param {
    lr_mult: 1
    decay_mult: 1
  }
  param {
    lr_mult: 2
    decay_mult: 0
  }
  convolution_param {
    num_output: 384
    pad: 1
    kernel_size: 3
    weight_filler {
      type: "gaussian"
      std: 0.01
    }
    bias_filler {
      type: "constant"
      value: 0
    }
  }
}
layer {
  name: "relu3"
  type: "ReLU"
  bottom: "conv3"
  top: "conv3"
}
layer {
  name: "conv4"
  type: "Convolution"
  bottom: "conv3"
  top: "conv4"
  param {
    lr_mult: 1
    decay_mult: 1
  }
  param {
    lr_mult: 2
    decay_mult: 0
  }
  convolution_param {
    num_output: 384
    pad: 1
    kernel_size: 3
    group: 2
    weight_filler {
      type: "gaussian"
      std: 0.01
    }
    bias_filler {
      type: "constant"
      value: 0.1
    }
  }
}
layer {
  name: "relu4"
  type: "ReLU"
  bottom: "conv4"
  top: "conv4"
}
layer {
  name: "conv5"
  type: "Convolution"
  bottom: "conv4"
  top: "conv5"
  param {
    lr_mult: 1
    decay_mult: 1
  }
  param {
    lr_mult: 2
    decay_mult: 0
  }
  convolution_param {
    num_output: 256
    pad: 1
    kernel_size: 3
    group: 2
    weight_filler {
      type: "gaussian"
      std: 0.01
    }
    bias_filler {
      type: "constant"
      value: 0.1
    }
  }
}
layer {
  name: "relu5"
  type: "ReLU"
  bottom: "conv5"
  top: "conv5"
}
layer {
  name: "pool5"
  type: "Pooling"
  bottom: "conv5"
  top: "pool5"
  pooling_param {
    pool: MAX
    kernel_size: 3
    stride: 2
  }
}
layer {
  name: "fc6"
  type: "InnerProduct"
  bottom: "pool5"
  top: "fc6"
  param {
    lr_mult: 1
    decay_mult: 1
  }
  param {
    lr_mult: 2
    decay_mult: 0
  }
  inner_product_param {
    num_output: 4096
    weight_filler {
      type: "gaussian"
      std: 0.005
    }
    bias_filler {
      type: "constant"
      value: 0.1
    }
  }
}
layer {
  name: "relu6"
  type: "ReLU"
  bottom: "fc6"
  top: "fc6"
}
layer {
  name: "drop6"
  type: "Dropout"
  bottom: "fc6"
  top: "fc6"
  dropout_param {
    dropout_ratio: 0.5
  }
}
layer {
  name: "fc7"
  type: "InnerProduct"
  bottom: "fc6"
  top: "fc7"
  param {
    lr_mult: 1
    decay_mult: 1
  }
  param {
    lr_mult: 2
    decay_mult: 0
  }
  inner_product_param {
    num_output: 4096
    weight_filler {
      type: "gaussian"
      std: 0.005
    }
    bias_filler {
      type: "constant"
      value: 0.1
    }
  }
}
layer {
  name: "relu7"
  type: "ReLU"
  bottom: "fc7"
  top: "fc7"
}
layer {
  name: "drop7"
  type: "Dropout"
  bottom: "fc7"
  top: "fc7"
  dropout_param {
    dropout_ratio: 0.5
  }
}
layer {
  name: "fc8_plantvillage"
  type: "InnerProduct"
  bottom: "fc7"
  top: "fc8_plantvillage"
  param {
    lr_mult: 1
    decay_mult: 1
  }
  param {
    lr_mult: 2
    decay_mult: 0
  }
  inner_product_param {
    num_output: 38
    weight_filler {
      type: "gaussian"
      std: 0.01
    }
    bias_filler {
      type: "constant"
      value: 0
    }
  }
}
layer {
  name: "prob"
  type: "Softmax"
  bottom: "fc8_plantvillage"
  top: "prob"
  include {
    phase: TEST
  }
}
layer {
  name: "hdf5out"
  type: "HDF5Output"
  bottom: "prob"
  bottom: "label"
  include {
    phase: TEST
  }
  hdf5_output_param {
    file_name: "hdf5_dumps/iter_6456.h5"
  }
}
layer {
  name: "loss"
  type: "SoftmaxWithLoss"
  bottom: "fc8_plantvillage"
  bottom: "label"
  top: "loss"
}
layer {
  name: "accuracy"
  type: "Accuracy"
  bottom: "fc8_plantvillage"
  bottom: "label"
  top: "accuracy"
  include {
    phase: TEST
  }
}
I0403 15:04:30.243017  8957 layer_factory.hpp:77] Creating layer data
I0403 15:04:30.243640  8957 net.cpp:91] Creating Layer data
I0403 15:04:30.243672  8957 net.cpp:399] data -> data
I0403 15:04:30.243721  8957 net.cpp:399] data -> label
I0403 15:04:30.243758  8957 data_transformer.cpp:25] Loading mean file from: /home/mohanty/data/final_dataset/lmdb/color-50-50/mean.binaryproto
I0403 15:04:30.248543  8959 db_lmdb.cpp:38] Opened lmdb /home/mohanty/data/final_dataset/lmdb/color-50-50/test_db
I0403 15:04:30.258172  8957 data_layer.cpp:41] output data size: 100,3,227,227
I0403 15:04:30.379904  8957 net.cpp:141] Setting up data
I0403 15:04:30.380013  8957 net.cpp:148] Top shape: 100 3 227 227 (15458700)
I0403 15:04:30.380036  8957 net.cpp:148] Top shape: 100 (100)
I0403 15:04:30.380053  8957 net.cpp:156] Memory required for data: 61835200
I0403 15:04:30.380080  8957 layer_factory.hpp:77] Creating layer label_data_1_split
I0403 15:04:30.380106  8957 net.cpp:91] Creating Layer label_data_1_split
I0403 15:04:30.380125  8957 net.cpp:425] label_data_1_split <- label
I0403 15:04:30.380156  8957 net.cpp:399] label_data_1_split -> label_data_1_split_0
I0403 15:04:30.380183  8957 net.cpp:399] label_data_1_split -> label_data_1_split_1
I0403 15:04:30.380206  8957 net.cpp:399] label_data_1_split -> label_data_1_split_2
I0403 15:04:30.380270  8957 net.cpp:141] Setting up label_data_1_split
I0403 15:04:30.380293  8957 net.cpp:148] Top shape: 100 (100)
I0403 15:04:30.380311  8957 net.cpp:148] Top shape: 100 (100)
I0403 15:04:30.380327  8957 net.cpp:148] Top shape: 100 (100)
I0403 15:04:30.380342  8957 net.cpp:156] Memory required for data: 61836400
I0403 15:04:30.380357  8957 layer_factory.hpp:77] Creating layer conv1
I0403 15:04:30.380388  8957 net.cpp:91] Creating Layer conv1
I0403 15:04:30.380408  8957 net.cpp:425] conv1 <- data
I0403 15:04:30.380427  8957 net.cpp:399] conv1 -> conv1
I0403 15:04:30.526866  8957 net.cpp:141] Setting up conv1
I0403 15:04:30.526958  8957 net.cpp:148] Top shape: 100 96 55 55 (29040000)
I0403 15:04:30.526978  8957 net.cpp:156] Memory required for data: 177996400
I0403 15:04:30.527010  8957 layer_factory.hpp:77] Creating layer relu1
I0403 15:04:30.527040  8957 net.cpp:91] Creating Layer relu1
I0403 15:04:30.527060  8957 net.cpp:425] relu1 <- conv1
I0403 15:04:30.527079  8957 net.cpp:386] relu1 -> conv1 (in-place)
I0403 15:04:30.527344  8957 net.cpp:141] Setting up relu1
I0403 15:04:30.527372  8957 net.cpp:148] Top shape: 100 96 55 55 (29040000)
I0403 15:04:30.527390  8957 net.cpp:156] Memory required for data: 294156400
I0403 15:04:30.527438  8957 layer_factory.hpp:77] Creating layer norm1
I0403 15:04:30.527468  8957 net.cpp:91] Creating Layer norm1
I0403 15:04:30.527488  8957 net.cpp:425] norm1 <- conv1
I0403 15:04:30.527508  8957 net.cpp:399] norm1 -> norm1
I0403 15:04:30.527827  8957 net.cpp:141] Setting up norm1
I0403 15:04:30.527854  8957 net.cpp:148] Top shape: 100 96 55 55 (29040000)
I0403 15:04:30.527871  8957 net.cpp:156] Memory required for data: 410316400
I0403 15:04:30.527887  8957 layer_factory.hpp:77] Creating layer pool1
I0403 15:04:30.527911  8957 net.cpp:91] Creating Layer pool1
I0403 15:04:30.527930  8957 net.cpp:425] pool1 <- norm1
I0403 15:04:30.527953  8957 net.cpp:399] pool1 -> pool1
I0403 15:04:30.528024  8957 net.cpp:141] Setting up pool1
I0403 15:04:30.528049  8957 net.cpp:148] Top shape: 100 96 27 27 (6998400)
I0403 15:04:30.528065  8957 net.cpp:156] Memory required for data: 438310000
I0403 15:04:30.528081  8957 layer_factory.hpp:77] Creating layer conv2
I0403 15:04:30.528106  8957 net.cpp:91] Creating Layer conv2
I0403 15:04:30.528123  8957 net.cpp:425] conv2 <- pool1
I0403 15:04:30.528142  8957 net.cpp:399] conv2 -> conv2
I0403 15:04:30.543992  8957 net.cpp:141] Setting up conv2
I0403 15:04:30.544026  8957 net.cpp:148] Top shape: 100 256 27 27 (18662400)
I0403 15:04:30.544044  8957 net.cpp:156] Memory required for data: 512959600
I0403 15:04:30.544066  8957 layer_factory.hpp:77] Creating layer relu2
I0403 15:04:30.544086  8957 net.cpp:91] Creating Layer relu2
I0403 15:04:30.544102  8957 net.cpp:425] relu2 <- conv2
I0403 15:04:30.544121  8957 net.cpp:386] relu2 -> conv2 (in-place)
I0403 15:04:30.544384  8957 net.cpp:141] Setting up relu2
I0403 15:04:30.544410  8957 net.cpp:148] Top shape: 100 256 27 27 (18662400)
I0403 15:04:30.544427  8957 net.cpp:156] Memory required for data: 587609200
I0403 15:04:30.544442  8957 layer_factory.hpp:77] Creating layer norm2
I0403 15:04:30.544463  8957 net.cpp:91] Creating Layer norm2
I0403 15:04:30.544481  8957 net.cpp:425] norm2 <- conv2
I0403 15:04:30.544498  8957 net.cpp:399] norm2 -> norm2
I0403 15:04:30.544680  8957 net.cpp:141] Setting up norm2
I0403 15:04:30.544708  8957 net.cpp:148] Top shape: 100 256 27 27 (18662400)
I0403 15:04:30.544801  8957 net.cpp:156] Memory required for data: 662258800
I0403 15:04:30.544822  8957 layer_factory.hpp:77] Creating layer pool2
I0403 15:04:30.544842  8957 net.cpp:91] Creating Layer pool2
I0403 15:04:30.544857  8957 net.cpp:425] pool2 <- norm2
I0403 15:04:30.544875  8957 net.cpp:399] pool2 -> pool2
I0403 15:04:30.544926  8957 net.cpp:141] Setting up pool2
I0403 15:04:30.544953  8957 net.cpp:148] Top shape: 100 256 13 13 (4326400)
I0403 15:04:30.544971  8957 net.cpp:156] Memory required for data: 679564400
I0403 15:04:30.544986  8957 layer_factory.hpp:77] Creating layer conv3
I0403 15:04:30.545007  8957 net.cpp:91] Creating Layer conv3
I0403 15:04:30.545024  8957 net.cpp:425] conv3 <- pool2
I0403 15:04:30.545043  8957 net.cpp:399] conv3 -> conv3
I0403 15:04:30.585753  8957 net.cpp:141] Setting up conv3
I0403 15:04:30.585808  8957 net.cpp:148] Top shape: 100 384 13 13 (6489600)
I0403 15:04:30.585825  8957 net.cpp:156] Memory required for data: 705522800
I0403 15:04:30.585849  8957 layer_factory.hpp:77] Creating layer relu3
I0403 15:04:30.585870  8957 net.cpp:91] Creating Layer relu3
I0403 15:04:30.585887  8957 net.cpp:425] relu3 <- conv3
I0403 15:04:30.585906  8957 net.cpp:386] relu3 -> conv3 (in-place)
I0403 15:04:30.586191  8957 net.cpp:141] Setting up relu3
I0403 15:04:30.586221  8957 net.cpp:148] Top shape: 100 384 13 13 (6489600)
I0403 15:04:30.586237  8957 net.cpp:156] Memory required for data: 731481200
I0403 15:04:30.586253  8957 layer_factory.hpp:77] Creating layer conv4
I0403 15:04:30.586275  8957 net.cpp:91] Creating Layer conv4
I0403 15:04:30.586292  8957 net.cpp:425] conv4 <- conv3
I0403 15:04:30.586313  8957 net.cpp:399] conv4 -> conv4
I0403 15:04:30.617969  8957 net.cpp:141] Setting up conv4
I0403 15:04:30.618018  8957 net.cpp:148] Top shape: 100 384 13 13 (6489600)
I0403 15:04:30.618067  8957 net.cpp:156] Memory required for data: 757439600
I0403 15:04:30.618088  8957 layer_factory.hpp:77] Creating layer relu4
I0403 15:04:30.618113  8957 net.cpp:91] Creating Layer relu4
I0403 15:04:30.618129  8957 net.cpp:425] relu4 <- conv4
I0403 15:04:30.618149  8957 net.cpp:386] relu4 -> conv4 (in-place)
I0403 15:04:30.618476  8957 net.cpp:141] Setting up relu4
I0403 15:04:30.618504  8957 net.cpp:148] Top shape: 100 384 13 13 (6489600)
I0403 15:04:30.618520  8957 net.cpp:156] Memory required for data: 783398000
I0403 15:04:30.618535  8957 layer_factory.hpp:77] Creating layer conv5
I0403 15:04:30.618559  8957 net.cpp:91] Creating Layer conv5
I0403 15:04:30.618577  8957 net.cpp:425] conv5 <- conv4
I0403 15:04:30.618597  8957 net.cpp:399] conv5 -> conv5
I0403 15:04:30.640403  8957 net.cpp:141] Setting up conv5
I0403 15:04:30.640440  8957 net.cpp:148] Top shape: 100 256 13 13 (4326400)
I0403 15:04:30.640457  8957 net.cpp:156] Memory required for data: 800703600
I0403 15:04:30.640480  8957 layer_factory.hpp:77] Creating layer relu5
I0403 15:04:30.640502  8957 net.cpp:91] Creating Layer relu5
I0403 15:04:30.640521  8957 net.cpp:425] relu5 <- conv5
I0403 15:04:30.640538  8957 net.cpp:386] relu5 -> conv5 (in-place)
I0403 15:04:30.640821  8957 net.cpp:141] Setting up relu5
I0403 15:04:30.640848  8957 net.cpp:148] Top shape: 100 256 13 13 (4326400)
I0403 15:04:30.640864  8957 net.cpp:156] Memory required for data: 818009200
I0403 15:04:30.640879  8957 layer_factory.hpp:77] Creating layer pool5
I0403 15:04:30.640907  8957 net.cpp:91] Creating Layer pool5
I0403 15:04:30.640938  8957 net.cpp:425] pool5 <- conv5
I0403 15:04:30.640966  8957 net.cpp:399] pool5 -> pool5
I0403 15:04:30.641031  8957 net.cpp:141] Setting up pool5
I0403 15:04:30.641055  8957 net.cpp:148] Top shape: 100 256 6 6 (921600)
I0403 15:04:30.641072  8957 net.cpp:156] Memory required for data: 821695600
I0403 15:04:30.641086  8957 layer_factory.hpp:77] Creating layer fc6
I0403 15:04:30.641116  8957 net.cpp:91] Creating Layer fc6
I0403 15:04:30.641135  8957 net.cpp:425] fc6 <- pool5
I0403 15:04:30.641156  8957 net.cpp:399] fc6 -> fc6
I0403 15:04:32.160347  8957 net.cpp:141] Setting up fc6
I0403 15:04:32.160436  8957 net.cpp:148] Top shape: 100 4096 (409600)
I0403 15:04:32.160452  8957 net.cpp:156] Memory required for data: 823334000
I0403 15:04:32.160473  8957 layer_factory.hpp:77] Creating layer relu6
I0403 15:04:32.160495  8957 net.cpp:91] Creating Layer relu6
I0403 15:04:32.160516  8957 net.cpp:425] relu6 <- fc6
I0403 15:04:32.160536  8957 net.cpp:386] relu6 -> fc6 (in-place)
I0403 15:04:32.160745  8957 net.cpp:141] Setting up relu6
I0403 15:04:32.160770  8957 net.cpp:148] Top shape: 100 4096 (409600)
I0403 15:04:32.160784  8957 net.cpp:156] Memory required for data: 824972400
I0403 15:04:32.160799  8957 layer_factory.hpp:77] Creating layer drop6
I0403 15:04:32.160820  8957 net.cpp:91] Creating Layer drop6
I0403 15:04:32.160835  8957 net.cpp:425] drop6 <- fc6
I0403 15:04:32.160851  8957 net.cpp:386] drop6 -> fc6 (in-place)
I0403 15:04:32.160904  8957 net.cpp:141] Setting up drop6
I0403 15:04:32.160938  8957 net.cpp:148] Top shape: 100 4096 (409600)
I0403 15:04:32.160959  8957 net.cpp:156] Memory required for data: 826610800
I0403 15:04:32.160974  8957 layer_factory.hpp:77] Creating layer fc7
I0403 15:04:32.160995  8957 net.cpp:91] Creating Layer fc7
I0403 15:04:32.161011  8957 net.cpp:425] fc7 <- fc6
I0403 15:04:32.161031  8957 net.cpp:399] fc7 -> fc7
I0403 15:04:32.833981  8957 net.cpp:141] Setting up fc7
I0403 15:04:32.834074  8957 net.cpp:148] Top shape: 100 4096 (409600)
I0403 15:04:32.834091  8957 net.cpp:156] Memory required for data: 828249200
I0403 15:04:32.834115  8957 layer_factory.hpp:77] Creating layer relu7
I0403 15:04:32.834138  8957 net.cpp:91] Creating Layer relu7
I0403 15:04:32.834156  8957 net.cpp:425] relu7 <- fc7
I0403 15:04:32.834175  8957 net.cpp:386] relu7 -> fc7 (in-place)
I0403 15:04:32.834574  8957 net.cpp:141] Setting up relu7
I0403 15:04:32.834600  8957 net.cpp:148] Top shape: 100 4096 (409600)
I0403 15:04:32.834647  8957 net.cpp:156] Memory required for data: 829887600
I0403 15:04:32.834664  8957 layer_factory.hpp:77] Creating layer drop7
I0403 15:04:32.834686  8957 net.cpp:91] Creating Layer drop7
I0403 15:04:32.834702  8957 net.cpp:425] drop7 <- fc7
I0403 15:04:32.834718  8957 net.cpp:386] drop7 -> fc7 (in-place)
I0403 15:04:32.834763  8957 net.cpp:141] Setting up drop7
I0403 15:04:32.834784  8957 net.cpp:148] Top shape: 100 4096 (409600)
I0403 15:04:32.834799  8957 net.cpp:156] Memory required for data: 831526000
I0403 15:04:32.834813  8957 layer_factory.hpp:77] Creating layer fc8_plantvillage
I0403 15:04:32.834836  8957 net.cpp:91] Creating Layer fc8_plantvillage
I0403 15:04:32.834851  8957 net.cpp:425] fc8_plantvillage <- fc7
I0403 15:04:32.834869  8957 net.cpp:399] fc8_plantvillage -> fc8_plantvillage
I0403 15:04:32.841620  8957 net.cpp:141] Setting up fc8_plantvillage
I0403 15:04:32.841650  8957 net.cpp:148] Top shape: 100 38 (3800)
I0403 15:04:32.841665  8957 net.cpp:156] Memory required for data: 831541200
I0403 15:04:32.841683  8957 layer_factory.hpp:77] Creating layer fc8_plantvillage_fc8_plantvillage_0_split
I0403 15:04:32.841706  8957 net.cpp:91] Creating Layer fc8_plantvillage_fc8_plantvillage_0_split
I0403 15:04:32.841722  8957 net.cpp:425] fc8_plantvillage_fc8_plantvillage_0_split <- fc8_plantvillage
I0403 15:04:32.841739  8957 net.cpp:399] fc8_plantvillage_fc8_plantvillage_0_split -> fc8_plantvillage_fc8_plantvillage_0_split_0
I0403 15:04:32.841761  8957 net.cpp:399] fc8_plantvillage_fc8_plantvillage_0_split -> fc8_plantvillage_fc8_plantvillage_0_split_1
I0403 15:04:32.841783  8957 net.cpp:399] fc8_plantvillage_fc8_plantvillage_0_split -> fc8_plantvillage_fc8_plantvillage_0_split_2
I0403 15:04:32.841862  8957 net.cpp:141] Setting up fc8_plantvillage_fc8_plantvillage_0_split
I0403 15:04:32.841886  8957 net.cpp:148] Top shape: 100 38 (3800)
I0403 15:04:32.841902  8957 net.cpp:148] Top shape: 100 38 (3800)
I0403 15:04:32.841918  8957 net.cpp:148] Top shape: 100 38 (3800)
I0403 15:04:32.841933  8957 net.cpp:156] Memory required for data: 831586800
I0403 15:04:32.841950  8957 layer_factory.hpp:77] Creating layer prob
I0403 15:04:32.841972  8957 net.cpp:91] Creating Layer prob
I0403 15:04:32.841989  8957 net.cpp:425] prob <- fc8_plantvillage_fc8_plantvillage_0_split_0
I0403 15:04:32.842007  8957 net.cpp:399] prob -> prob
I0403 15:04:32.842231  8957 net.cpp:141] Setting up prob
I0403 15:04:32.842257  8957 net.cpp:148] Top shape: 100 38 (3800)
I0403 15:04:32.842272  8957 net.cpp:156] Memory required for data: 831602000
I0403 15:04:32.842288  8957 layer_factory.hpp:77] Creating layer hdf5out
I0403 15:04:32.842308  8957 net.cpp:91] Creating Layer hdf5out
I0403 15:04:32.842324  8957 net.cpp:425] hdf5out <- prob
I0403 15:04:32.842340  8957 net.cpp:425] hdf5out <- label_data_1_split_0
I0403 15:04:32.844571  8957 net.cpp:141] Setting up hdf5out
…
