…
I0403 14:46:09.929090  7820 net.cpp:313] The NetState phase (1) differed from the phase (0) specified by a rule in layer data
I0403 14:46:09.929394  7820 net.cpp:49] Initializing net from parameters: 
state {
  phase: TEST
}
layer {
  name: "data"
  type: "Data"
  top: "data"
  top: "label"
  include {
    phase: TEST
  }
  transform_param {
    crop_size: 227
    mean_file: "/home/mohanty/data/final_dataset/lmdb/color-50-50/mean.binaryproto"
  }
  data_param {
    source: "/home/mohanty/data/final_dataset/lmdb/color-50-50/test_db"
    batch_size: 100
    backend: LMDB
  }
}
layer {
  name: "conv1"
  type: "Convolution"
  bottom: "data"
  top: "conv1"
  param {
    lr_mult: 1
    decay_mult: 1
  }
  param {
    lr_mult: 2
    decay_mult: 0
  }
  convolution_param {
    num_output: 96
    kernel_size: 11
    stride: 4
    weight_filler {
      type: "gaussian"
      std: 0.01
    }
    bias_filler {
      type: "constant"
      value: 0
    }
  }
}
layer {
  name: "relu1"
  type: "ReLU"
  bottom: "conv1"
  top: "conv1"
}
layer {
  name: "norm1"
  type: "LRN"
  bottom: "conv1"
  top: "norm1"
  lrn_param {
    local_size: 5
    alpha: 0.0001
    beta: 0.75
  }
}
layer {
  name: "pool1"
  type: "Pooling"
  bottom: "norm1"
  top: "pool1"
  pooling_param {
    pool: MAX
    kernel_size: 3
    stride: 2
  }
}
layer {
  name: "conv2"
  type: "Convolution"
  bottom: "pool1"
  top: "conv2"
  param {
    lr_mult: 1
    decay_mult: 1
  }
  param {
    lr_mult: 2
    decay_mult: 0
  }
  convolution_param {
    num_output: 256
    pad: 2
    kernel_size: 5
    group: 2
    weight_filler {
      type: "gaussian"
      std: 0.01
    }
    bias_filler {
      type: "constant"
      value: 0.1
    }
  }
}
layer {
  name: "relu2"
  type: "ReLU"
  bottom: "conv2"
  top: "conv2"
}
layer {
  name: "norm2"
  type: "LRN"
  bottom: "conv2"
  top: "norm2"
  lrn_param {
    local_size: 5
    alpha: 0.0001
    beta: 0.75
  }
}
layer {
  name: "pool2"
  type: "Pooling"
  bottom: "norm2"
  top: "pool2"
  pooling_param {
    pool: MAX
    kernel_size: 3
    stride: 2
  }
}
layer {
  name: "conv3"
  type: "Convolution"
  bottom: "pool2"
  top: "conv3"
  param {
    lr_mult: 1
    decay_mult: 1
  }
  param {
    lr_mult: 2
    decay_mult: 0
  }
  convolution_param {
    num_output: 384
    pad: 1
    kernel_size: 3
    weight_filler {
      type: "gaussian"
      std: 0.01
    }
    bias_filler {
      type: "constant"
      value: 0
    }
  }
}
layer {
  name: "relu3"
  type: "ReLU"
  bottom: "conv3"
  top: "conv3"
}
layer {
  name: "conv4"
  type: "Convolution"
  bottom: "conv3"
  top: "conv4"
  param {
    lr_mult: 1
    decay_mult: 1
  }
  param {
    lr_mult: 2
    decay_mult: 0
  }
  convolution_param {
    num_output: 384
    pad: 1
    kernel_size: 3
    group: 2
    weight_filler {
      type: "gaussian"
      std: 0.01
    }
    bias_filler {
      type: "constant"
      value: 0.1
    }
  }
}
layer {
  name: "relu4"
  type: "ReLU"
  bottom: "conv4"
  top: "conv4"
}
layer {
  name: "conv5"
  type: "Convolution"
  bottom: "conv4"
  top: "conv5"
  param {
    lr_mult: 1
    decay_mult: 1
  }
  param {
    lr_mult: 2
    decay_mult: 0
  }
  convolution_param {
    num_output: 256
    pad: 1
    kernel_size: 3
    group: 2
    weight_filler {
      type: "gaussian"
      std: 0.01
    }
    bias_filler {
      type: "constant"
      value: 0.1
    }
  }
}
layer {
  name: "relu5"
  type: "ReLU"
  bottom: "conv5"
  top: "conv5"
}
layer {
  name: "pool5"
  type: "Pooling"
  bottom: "conv5"
  top: "pool5"
  pooling_param {
    pool: MAX
    kernel_size: 3
    stride: 2
  }
}
layer {
  name: "fc6"
  type: "InnerProduct"
  bottom: "pool5"
  top: "fc6"
  param {
    lr_mult: 1
    decay_mult: 1
  }
  param {
    lr_mult: 2
    decay_mult: 0
  }
  inner_product_param {
    num_output: 4096
    weight_filler {
      type: "gaussian"
      std: 0.005
    }
    bias_filler {
      type: "constant"
      value: 0.1
    }
  }
}
layer {
  name: "relu6"
  type: "ReLU"
  bottom: "fc6"
  top: "fc6"
}
layer {
  name: "drop6"
  type: "Dropout"
  bottom: "fc6"
  top: "fc6"
  dropout_param {
    dropout_ratio: 0.5
  }
}
layer {
  name: "fc7"
  type: "InnerProduct"
  bottom: "fc6"
  top: "fc7"
  param {
    lr_mult: 1
    decay_mult: 1
  }
  param {
    lr_mult: 2
    decay_mult: 0
  }
  inner_product_param {
    num_output: 4096
    weight_filler {
      type: "gaussian"
      std: 0.005
    }
    bias_filler {
      type: "constant"
      value: 0.1
    }
  }
}
layer {
  name: "relu7"
  type: "ReLU"
  bottom: "fc7"
  top: "fc7"
}
layer {
  name: "drop7"
  type: "Dropout"
  bottom: "fc7"
  top: "fc7"
  dropout_param {
    dropout_ratio: 0.5
  }
}
layer {
  name: "fc8_plantvillage"
  type: "InnerProduct"
  bottom: "fc7"
  top: "fc8_plantvillage"
  param {
    lr_mult: 1
    decay_mult: 1
  }
  param {
    lr_mult: 2
    decay_mult: 0
  }
  inner_product_param {
    num_output: 38
    weight_filler {
      type: "gaussian"
      std: 0.01
    }
    bias_filler {
      type: "constant"
      value: 0
    }
  }
}
layer {
  name: "prob"
  type: "Softmax"
  bottom: "fc8_plantvillage"
  top: "prob"
  include {
    phase: TEST
  }
}
layer {
  name: "hdf5out"
  type: "HDF5Output"
  bottom: "prob"
  bottom: "label"
  include {
    phase: TEST
  }
  hdf5_output_param {
    file_name: "hdf5_dumps/iter_1076.h5"
  }
}
layer {
  name: "loss"
  type: "SoftmaxWithLoss"
  bottom: "fc8_plantvillage"
  bottom: "label"
  top: "loss"
}
layer {
  name: "accuracy"
  type: "Accuracy"
  bottom: "fc8_plantvillage"
  bottom: "label"
  top: "accuracy"
  include {
    phase: TEST
  }
}
I0403 14:46:09.929927  7820 layer_factory.hpp:77] Creating layer data
I0403 14:46:09.930559  7820 net.cpp:91] Creating Layer data
I0403 14:46:09.930588  7820 net.cpp:399] data -> data
I0403 14:46:09.930637  7820 net.cpp:399] data -> label
I0403 14:46:09.930675  7820 data_transformer.cpp:25] Loading mean file from: /home/mohanty/data/final_dataset/lmdb/color-50-50/mean.binaryproto
I0403 14:46:09.933110  7824 db_lmdb.cpp:38] Opened lmdb /home/mohanty/data/final_dataset/lmdb/color-50-50/test_db
I0403 14:46:09.944835  7820 data_layer.cpp:41] output data size: 100,3,227,227
I0403 14:46:10.063616  7820 net.cpp:141] Setting up data
I0403 14:46:10.063722  7820 net.cpp:148] Top shape: 100 3 227 227 (15458700)
I0403 14:46:10.063745  7820 net.cpp:148] Top shape: 100 (100)
I0403 14:46:10.063758  7820 net.cpp:156] Memory required for data: 61835200
I0403 14:46:10.063786  7820 layer_factory.hpp:77] Creating layer label_data_1_split
I0403 14:46:10.063812  7820 net.cpp:91] Creating Layer label_data_1_split
I0403 14:46:10.063830  7820 net.cpp:425] label_data_1_split <- label
I0403 14:46:10.063861  7820 net.cpp:399] label_data_1_split -> label_data_1_split_0
I0403 14:46:10.063889  7820 net.cpp:399] label_data_1_split -> label_data_1_split_1
I0403 14:46:10.063908  7820 net.cpp:399] label_data_1_split -> label_data_1_split_2
I0403 14:46:10.063969  7820 net.cpp:141] Setting up label_data_1_split
I0403 14:46:10.063997  7820 net.cpp:148] Top shape: 100 (100)
I0403 14:46:10.064013  7820 net.cpp:148] Top shape: 100 (100)
I0403 14:46:10.064028  7820 net.cpp:148] Top shape: 100 (100)
I0403 14:46:10.064041  7820 net.cpp:156] Memory required for data: 61836400
I0403 14:46:10.064056  7820 layer_factory.hpp:77] Creating layer conv1
I0403 14:46:10.064086  7820 net.cpp:91] Creating Layer conv1
I0403 14:46:10.064105  7820 net.cpp:425] conv1 <- data
I0403 14:46:10.064123  7820 net.cpp:399] conv1 -> conv1
I0403 14:46:10.206336  7820 net.cpp:141] Setting up conv1
I0403 14:46:10.206398  7820 net.cpp:148] Top shape: 100 96 55 55 (29040000)
I0403 14:46:10.206416  7820 net.cpp:156] Memory required for data: 177996400
I0403 14:46:10.206446  7820 layer_factory.hpp:77] Creating layer relu1
I0403 14:46:10.206472  7820 net.cpp:91] Creating Layer relu1
I0403 14:46:10.206490  7820 net.cpp:425] relu1 <- conv1
I0403 14:46:10.206535  7820 net.cpp:386] relu1 -> conv1 (in-place)
I0403 14:46:10.206790  7820 net.cpp:141] Setting up relu1
I0403 14:46:10.206817  7820 net.cpp:148] Top shape: 100 96 55 55 (29040000)
I0403 14:46:10.206832  7820 net.cpp:156] Memory required for data: 294156400
I0403 14:46:10.206872  7820 layer_factory.hpp:77] Creating layer norm1
I0403 14:46:10.206902  7820 net.cpp:91] Creating Layer norm1
I0403 14:46:10.206918  7820 net.cpp:425] norm1 <- conv1
I0403 14:46:10.206936  7820 net.cpp:399] norm1 -> norm1
I0403 14:46:10.207240  7820 net.cpp:141] Setting up norm1
I0403 14:46:10.207268  7820 net.cpp:148] Top shape: 100 96 55 55 (29040000)
I0403 14:46:10.207283  7820 net.cpp:156] Memory required for data: 410316400
I0403 14:46:10.207299  7820 layer_factory.hpp:77] Creating layer pool1
I0403 14:46:10.207322  7820 net.cpp:91] Creating Layer pool1
I0403 14:46:10.207340  7820 net.cpp:425] pool1 <- norm1
I0403 14:46:10.207357  7820 net.cpp:399] pool1 -> pool1
I0403 14:46:10.207422  7820 net.cpp:141] Setting up pool1
I0403 14:46:10.207447  7820 net.cpp:148] Top shape: 100 96 27 27 (6998400)
I0403 14:46:10.207460  7820 net.cpp:156] Memory required for data: 438310000
I0403 14:46:10.207476  7820 layer_factory.hpp:77] Creating layer conv2
I0403 14:46:10.207502  7820 net.cpp:91] Creating Layer conv2
I0403 14:46:10.207521  7820 net.cpp:425] conv2 <- pool1
I0403 14:46:10.207540  7820 net.cpp:399] conv2 -> conv2
I0403 14:46:10.222430  7820 net.cpp:141] Setting up conv2
I0403 14:46:10.222468  7820 net.cpp:148] Top shape: 100 256 27 27 (18662400)
I0403 14:46:10.222486  7820 net.cpp:156] Memory required for data: 512959600
I0403 14:46:10.222506  7820 layer_factory.hpp:77] Creating layer relu2
I0403 14:46:10.222525  7820 net.cpp:91] Creating Layer relu2
I0403 14:46:10.222542  7820 net.cpp:425] relu2 <- conv2
I0403 14:46:10.222560  7820 net.cpp:386] relu2 -> conv2 (in-place)
I0403 14:46:10.222836  7820 net.cpp:141] Setting up relu2
I0403 14:46:10.222862  7820 net.cpp:148] Top shape: 100 256 27 27 (18662400)
I0403 14:46:10.222877  7820 net.cpp:156] Memory required for data: 587609200
I0403 14:46:10.222892  7820 layer_factory.hpp:77] Creating layer norm2
I0403 14:46:10.222913  7820 net.cpp:91] Creating Layer norm2
I0403 14:46:10.222930  7820 net.cpp:425] norm2 <- conv2
I0403 14:46:10.222947  7820 net.cpp:399] norm2 -> norm2
I0403 14:46:10.223148  7820 net.cpp:141] Setting up norm2
I0403 14:46:10.223176  7820 net.cpp:148] Top shape: 100 256 27 27 (18662400)
I0403 14:46:10.223191  7820 net.cpp:156] Memory required for data: 662258800
I0403 14:46:10.223208  7820 layer_factory.hpp:77] Creating layer pool2
I0403 14:46:10.223225  7820 net.cpp:91] Creating Layer pool2
I0403 14:46:10.223242  7820 net.cpp:425] pool2 <- norm2
I0403 14:46:10.223260  7820 net.cpp:399] pool2 -> pool2
I0403 14:46:10.223312  7820 net.cpp:141] Setting up pool2
I0403 14:46:10.223335  7820 net.cpp:148] Top shape: 100 256 13 13 (4326400)
I0403 14:46:10.223350  7820 net.cpp:156] Memory required for data: 679564400
I0403 14:46:10.223364  7820 layer_factory.hpp:77] Creating layer conv3
I0403 14:46:10.223387  7820 net.cpp:91] Creating Layer conv3
I0403 14:46:10.223404  7820 net.cpp:425] conv3 <- pool2
I0403 14:46:10.223424  7820 net.cpp:399] conv3 -> conv3
I0403 14:46:10.261129  7820 net.cpp:141] Setting up conv3
I0403 14:46:10.261183  7820 net.cpp:148] Top shape: 100 384 13 13 (6489600)
I0403 14:46:10.261203  7820 net.cpp:156] Memory required for data: 705522800
I0403 14:46:10.261225  7820 layer_factory.hpp:77] Creating layer relu3
I0403 14:46:10.261245  7820 net.cpp:91] Creating Layer relu3
I0403 14:46:10.261261  7820 net.cpp:425] relu3 <- conv3
I0403 14:46:10.261278  7820 net.cpp:386] relu3 -> conv3 (in-place)
I0403 14:46:10.261550  7820 net.cpp:141] Setting up relu3
I0403 14:46:10.261579  7820 net.cpp:148] Top shape: 100 384 13 13 (6489600)
I0403 14:46:10.261595  7820 net.cpp:156] Memory required for data: 731481200
I0403 14:46:10.261610  7820 layer_factory.hpp:77] Creating layer conv4
I0403 14:46:10.261632  7820 net.cpp:91] Creating Layer conv4
I0403 14:46:10.261649  7820 net.cpp:425] conv4 <- conv3
I0403 14:46:10.261670  7820 net.cpp:399] conv4 -> conv4
I0403 14:46:10.291081  7820 net.cpp:141] Setting up conv4
I0403 14:46:10.291127  7820 net.cpp:148] Top shape: 100 384 13 13 (6489600)
I0403 14:46:10.291175  7820 net.cpp:156] Memory required for data: 757439600
I0403 14:46:10.291196  7820 layer_factory.hpp:77] Creating layer relu4
I0403 14:46:10.291215  7820 net.cpp:91] Creating Layer relu4
I0403 14:46:10.291231  7820 net.cpp:425] relu4 <- conv4
I0403 14:46:10.291249  7820 net.cpp:386] relu4 -> conv4 (in-place)
I0403 14:46:10.291606  7820 net.cpp:141] Setting up relu4
I0403 14:46:10.291635  7820 net.cpp:148] Top shape: 100 384 13 13 (6489600)
I0403 14:46:10.291651  7820 net.cpp:156] Memory required for data: 783398000
I0403 14:46:10.291667  7820 layer_factory.hpp:77] Creating layer conv5
I0403 14:46:10.291687  7820 net.cpp:91] Creating Layer conv5
I0403 14:46:10.291704  7820 net.cpp:425] conv5 <- conv4
I0403 14:46:10.291726  7820 net.cpp:399] conv5 -> conv5
I0403 14:46:10.311837  7820 net.cpp:141] Setting up conv5
I0403 14:46:10.311872  7820 net.cpp:148] Top shape: 100 256 13 13 (4326400)
I0403 14:46:10.311888  7820 net.cpp:156] Memory required for data: 800703600
I0403 14:46:10.311965  7820 layer_factory.hpp:77] Creating layer relu5
I0403 14:46:10.311993  7820 net.cpp:91] Creating Layer relu5
I0403 14:46:10.312011  7820 net.cpp:425] relu5 <- conv5
I0403 14:46:10.312031  7820 net.cpp:386] relu5 -> conv5 (in-place)
I0403 14:46:10.312306  7820 net.cpp:141] Setting up relu5
I0403 14:46:10.312335  7820 net.cpp:148] Top shape: 100 256 13 13 (4326400)
I0403 14:46:10.312350  7820 net.cpp:156] Memory required for data: 818009200
I0403 14:46:10.312366  7820 layer_factory.hpp:77] Creating layer pool5
I0403 14:46:10.312387  7820 net.cpp:91] Creating Layer pool5
I0403 14:46:10.312402  7820 net.cpp:425] pool5 <- conv5
I0403 14:46:10.312423  7820 net.cpp:399] pool5 -> pool5
I0403 14:46:10.312482  7820 net.cpp:141] Setting up pool5
I0403 14:46:10.312507  7820 net.cpp:148] Top shape: 100 256 6 6 (921600)
I0403 14:46:10.312523  7820 net.cpp:156] Memory required for data: 821695600
I0403 14:46:10.312537  7820 layer_factory.hpp:77] Creating layer fc6
I0403 14:46:10.312563  7820 net.cpp:91] Creating Layer fc6
I0403 14:46:10.312582  7820 net.cpp:425] fc6 <- pool5
I0403 14:46:10.312602  7820 net.cpp:399] fc6 -> fc6
I0403 14:46:11.844262  7820 net.cpp:141] Setting up fc6
I0403 14:46:11.844347  7820 net.cpp:148] Top shape: 100 4096 (409600)
I0403 14:46:11.844367  7820 net.cpp:156] Memory required for data: 823334000
I0403 14:46:11.844389  7820 layer_factory.hpp:77] Creating layer relu6
I0403 14:46:11.844413  7820 net.cpp:91] Creating Layer relu6
I0403 14:46:11.844431  7820 net.cpp:425] relu6 <- fc6
I0403 14:46:11.844452  7820 net.cpp:386] relu6 -> fc6 (in-place)
I0403 14:46:11.844679  7820 net.cpp:141] Setting up relu6
I0403 14:46:11.844708  7820 net.cpp:148] Top shape: 100 4096 (409600)
I0403 14:46:11.844724  7820 net.cpp:156] Memory required for data: 824972400
I0403 14:46:11.844740  7820 layer_factory.hpp:77] Creating layer drop6
I0403 14:46:11.844759  7820 net.cpp:91] Creating Layer drop6
I0403 14:46:11.844775  7820 net.cpp:425] drop6 <- fc6
I0403 14:46:11.844796  7820 net.cpp:386] drop6 -> fc6 (in-place)
I0403 14:46:11.844851  7820 net.cpp:141] Setting up drop6
I0403 14:46:11.844874  7820 net.cpp:148] Top shape: 100 4096 (409600)
I0403 14:46:11.844889  7820 net.cpp:156] Memory required for data: 826610800
I0403 14:46:11.844904  7820 layer_factory.hpp:77] Creating layer fc7
I0403 14:46:11.844928  7820 net.cpp:91] Creating Layer fc7
I0403 14:46:11.844946  7820 net.cpp:425] fc7 <- fc6
I0403 14:46:11.844967  7820 net.cpp:399] fc7 -> fc7
I0403 14:46:12.521067  7820 net.cpp:141] Setting up fc7
I0403 14:46:12.521148  7820 net.cpp:148] Top shape: 100 4096 (409600)
I0403 14:46:12.521164  7820 net.cpp:156] Memory required for data: 828249200
I0403 14:46:12.521184  7820 layer_factory.hpp:77] Creating layer relu7
I0403 14:46:12.521209  7820 net.cpp:91] Creating Layer relu7
I0403 14:46:12.521226  7820 net.cpp:425] relu7 <- fc7
I0403 14:46:12.521245  7820 net.cpp:386] relu7 -> fc7 (in-place)
I0403 14:46:12.521625  7820 net.cpp:141] Setting up relu7
I0403 14:46:12.521652  7820 net.cpp:148] Top shape: 100 4096 (409600)
I0403 14:46:12.521698  7820 net.cpp:156] Memory required for data: 829887600
I0403 14:46:12.521713  7820 layer_factory.hpp:77] Creating layer drop7
I0403 14:46:12.521733  7820 net.cpp:91] Creating Layer drop7
I0403 14:46:12.521747  7820 net.cpp:425] drop7 <- fc7
I0403 14:46:12.521764  7820 net.cpp:386] drop7 -> fc7 (in-place)
I0403 14:46:12.521806  7820 net.cpp:141] Setting up drop7
I0403 14:46:12.521827  7820 net.cpp:148] Top shape: 100 4096 (409600)
I0403 14:46:12.521841  7820 net.cpp:156] Memory required for data: 831526000
I0403 14:46:12.521855  7820 layer_factory.hpp:77] Creating layer fc8_plantvillage
I0403 14:46:12.521878  7820 net.cpp:91] Creating Layer fc8_plantvillage
I0403 14:46:12.521893  7820 net.cpp:425] fc8_plantvillage <- fc7
I0403 14:46:12.521910  7820 net.cpp:399] fc8_plantvillage -> fc8_plantvillage
I0403 14:46:12.528441  7820 net.cpp:141] Setting up fc8_plantvillage
I0403 14:46:12.528470  7820 net.cpp:148] Top shape: 100 38 (3800)
I0403 14:46:12.528484  7820 net.cpp:156] Memory required for data: 831541200
I0403 14:46:12.528501  7820 layer_factory.hpp:77] Creating layer fc8_plantvillage_fc8_plantvillage_0_split
I0403 14:46:12.528519  7820 net.cpp:91] Creating Layer fc8_plantvillage_fc8_plantvillage_0_split
I0403 14:46:12.528533  7820 net.cpp:425] fc8_plantvillage_fc8_plantvillage_0_split <- fc8_plantvillage
I0403 14:46:12.528553  7820 net.cpp:399] fc8_plantvillage_fc8_plantvillage_0_split -> fc8_plantvillage_fc8_plantvillage_0_split_0
I0403 14:46:12.528573  7820 net.cpp:399] fc8_plantvillage_fc8_plantvillage_0_split -> fc8_plantvillage_fc8_plantvillage_0_split_1
I0403 14:46:12.528591  7820 net.cpp:399] fc8_plantvillage_fc8_plantvillage_0_split -> fc8_plantvillage_fc8_plantvillage_0_split_2
I0403 14:46:12.528669  7820 net.cpp:141] Setting up fc8_plantvillage_fc8_plantvillage_0_split
I0403 14:46:12.528692  7820 net.cpp:148] Top shape: 100 38 (3800)
I0403 14:46:12.528707  7820 net.cpp:148] Top shape: 100 38 (3800)
I0403 14:46:12.528722  7820 net.cpp:148] Top shape: 100 38 (3800)
I0403 14:46:12.528734  7820 net.cpp:156] Memory required for data: 831586800
I0403 14:46:12.528748  7820 layer_factory.hpp:77] Creating layer prob
I0403 14:46:12.528769  7820 net.cpp:91] Creating Layer prob
I0403 14:46:12.528785  7820 net.cpp:425] prob <- fc8_plantvillage_fc8_plantvillage_0_split_0
I0403 14:46:12.528802  7820 net.cpp:399] prob -> prob
I0403 14:46:12.529028  7820 net.cpp:141] Setting up prob
I0403 14:46:12.529057  7820 net.cpp:148] Top shape: 100 38 (3800)
I0403 14:46:12.529072  7820 net.cpp:156] Memory required for data: 831602000
I0403 14:46:12.529088  7820 layer_factory.hpp:77] Creating layer hdf5out
I0403 14:46:12.529105  7820 net.cpp:91] Creating Layer hdf5out
I0403 14:46:12.529121  7820 net.cpp:425] hdf5out <- prob
I0403 14:46:12.529136  7820 net.cpp:425] hdf5out <- label_data_1_split_0
I0403 14:46:12.531244  7820 net.cpp:141] Setting up hdf5out
…
