…
I0403 14:47:04.822798  7878 net.cpp:313] The NetState phase (1) differed from the phase (0) specified by a rule in layer data
I0403 14:47:04.823110  7878 net.cpp:49] Initializing net from parameters: 
state {
  phase: TEST
}
layer {
  name: "data"
  type: "Data"
  top: "data"
  top: "label"
  include {
    phase: TEST
  }
  transform_param {
    crop_size: 227
    mean_file: "/home/mohanty/data/final_dataset/lmdb/color-50-50/mean.binaryproto"
  }
  data_param {
    source: "/home/mohanty/data/final_dataset/lmdb/color-50-50/test_db"
    batch_size: 100
    backend: LMDB
  }
}
layer {
  name: "conv1"
  type: "Convolution"
  bottom: "data"
  top: "conv1"
  param {
    lr_mult: 1
    decay_mult: 1
  }
  param {
    lr_mult: 2
    decay_mult: 0
  }
  convolution_param {
    num_output: 96
    kernel_size: 11
    stride: 4
    weight_filler {
      type: "gaussian"
      std: 0.01
    }
    bias_filler {
      type: "constant"
      value: 0
    }
  }
}
layer {
  name: "relu1"
  type: "ReLU"
  bottom: "conv1"
  top: "conv1"
}
layer {
  name: "norm1"
  type: "LRN"
  bottom: "conv1"
  top: "norm1"
  lrn_param {
    local_size: 5
    alpha: 0.0001
    beta: 0.75
  }
}
layer {
  name: "pool1"
  type: "Pooling"
  bottom: "norm1"
  top: "pool1"
  pooling_param {
    pool: MAX
    kernel_size: 3
    stride: 2
  }
}
layer {
  name: "conv2"
  type: "Convolution"
  bottom: "pool1"
  top: "conv2"
  param {
    lr_mult: 1
    decay_mult: 1
  }
  param {
    lr_mult: 2
    decay_mult: 0
  }
  convolution_param {
    num_output: 256
    pad: 2
    kernel_size: 5
    group: 2
    weight_filler {
      type: "gaussian"
      std: 0.01
    }
    bias_filler {
      type: "constant"
      value: 0.1
    }
  }
}
layer {
  name: "relu2"
  type: "ReLU"
  bottom: "conv2"
  top: "conv2"
}
layer {
  name: "norm2"
  type: "LRN"
  bottom: "conv2"
  top: "norm2"
  lrn_param {
    local_size: 5
    alpha: 0.0001
    beta: 0.75
  }
}
layer {
  name: "pool2"
  type: "Pooling"
  bottom: "norm2"
  top: "pool2"
  pooling_param {
    pool: MAX
    kernel_size: 3
    stride: 2
  }
}
layer {
  name: "conv3"
  type: "Convolution"
  bottom: "pool2"
  top: "conv3"
  param {
    lr_mult: 1
    decay_mult: 1
  }
  param {
    lr_mult: 2
    decay_mult: 0
  }
  convolution_param {
    num_output: 384
    pad: 1
    kernel_size: 3
    weight_filler {
      type: "gaussian"
      std: 0.01
    }
    bias_filler {
      type: "constant"
      value: 0
    }
  }
}
layer {
  name: "relu3"
  type: "ReLU"
  bottom: "conv3"
  top: "conv3"
}
layer {
  name: "conv4"
  type: "Convolution"
  bottom: "conv3"
  top: "conv4"
  param {
    lr_mult: 1
    decay_mult: 1
  }
  param {
    lr_mult: 2
    decay_mult: 0
  }
  convolution_param {
    num_output: 384
    pad: 1
    kernel_size: 3
    group: 2
    weight_filler {
      type: "gaussian"
      std: 0.01
    }
    bias_filler {
      type: "constant"
      value: 0.1
    }
  }
}
layer {
  name: "relu4"
  type: "ReLU"
  bottom: "conv4"
  top: "conv4"
}
layer {
  name: "conv5"
  type: "Convolution"
  bottom: "conv4"
  top: "conv5"
  param {
    lr_mult: 1
    decay_mult: 1
  }
  param {
    lr_mult: 2
    decay_mult: 0
  }
  convolution_param {
    num_output: 256
    pad: 1
    kernel_size: 3
    group: 2
    weight_filler {
      type: "gaussian"
      std: 0.01
    }
    bias_filler {
      type: "constant"
      value: 0.1
    }
  }
}
layer {
  name: "relu5"
  type: "ReLU"
  bottom: "conv5"
  top: "conv5"
}
layer {
  name: "pool5"
  type: "Pooling"
  bottom: "conv5"
  top: "pool5"
  pooling_param {
    pool: MAX
    kernel_size: 3
    stride: 2
  }
}
layer {
  name: "fc6"
  type: "InnerProduct"
  bottom: "pool5"
  top: "fc6"
  param {
    lr_mult: 1
    decay_mult: 1
  }
  param {
    lr_mult: 2
    decay_mult: 0
  }
  inner_product_param {
    num_output: 4096
    weight_filler {
      type: "gaussian"
      std: 0.005
    }
    bias_filler {
      type: "constant"
      value: 0.1
    }
  }
}
layer {
  name: "relu6"
  type: "ReLU"
  bottom: "fc6"
  top: "fc6"
}
layer {
  name: "drop6"
  type: "Dropout"
  bottom: "fc6"
  top: "fc6"
  dropout_param {
    dropout_ratio: 0.5
  }
}
layer {
  name: "fc7"
  type: "InnerProduct"
  bottom: "fc6"
  top: "fc7"
  param {
    lr_mult: 1
    decay_mult: 1
  }
  param {
    lr_mult: 2
    decay_mult: 0
  }
  inner_product_param {
    num_output: 4096
    weight_filler {
      type: "gaussian"
      std: 0.005
    }
    bias_filler {
      type: "constant"
      value: 0.1
    }
  }
}
layer {
  name: "relu7"
  type: "ReLU"
  bottom: "fc7"
  top: "fc7"
}
layer {
  name: "drop7"
  type: "Dropout"
  bottom: "fc7"
  top: "fc7"
  dropout_param {
    dropout_ratio: 0.5
  }
}
layer {
  name: "fc8_plantvillage"
  type: "InnerProduct"
  bottom: "fc7"
  top: "fc8_plantvillage"
  param {
    lr_mult: 1
    decay_mult: 1
  }
  param {
    lr_mult: 2
    decay_mult: 0
  }
  inner_product_param {
    num_output: 38
    weight_filler {
      type: "gaussian"
      std: 0.01
    }
    bias_filler {
      type: "constant"
      value: 0
    }
  }
}
layer {
  name: "prob"
  type: "Softmax"
  bottom: "fc8_plantvillage"
  top: "prob"
  include {
    phase: TEST
  }
}
layer {
  name: "hdf5out"
  type: "HDF5Output"
  bottom: "prob"
  bottom: "label"
  include {
    phase: TEST
  }
  hdf5_output_param {
    file_name: "hdf5_dumps/iter_1345.h5"
  }
}
layer {
  name: "loss"
  type: "SoftmaxWithLoss"
  bottom: "fc8_plantvillage"
  bottom: "label"
  top: "loss"
}
layer {
  name: "accuracy"
  type: "Accuracy"
  bottom: "fc8_plantvillage"
  bottom: "label"
  top: "accuracy"
  include {
    phase: TEST
  }
}
I0403 14:47:04.823704  7878 layer_factory.hpp:77] Creating layer data
I0403 14:47:04.824313  7878 net.cpp:91] Creating Layer data
I0403 14:47:04.824345  7878 net.cpp:399] data -> data
I0403 14:47:04.824395  7878 net.cpp:399] data -> label
I0403 14:47:04.824430  7878 data_transformer.cpp:25] Loading mean file from: /home/mohanty/data/final_dataset/lmdb/color-50-50/mean.binaryproto
I0403 14:47:04.826961  7880 db_lmdb.cpp:38] Opened lmdb /home/mohanty/data/final_dataset/lmdb/color-50-50/test_db
I0403 14:47:04.839153  7878 data_layer.cpp:41] output data size: 100,3,227,227
I0403 14:47:04.961030  7878 net.cpp:141] Setting up data
I0403 14:47:04.961138  7878 net.cpp:148] Top shape: 100 3 227 227 (15458700)
I0403 14:47:04.961160  7878 net.cpp:148] Top shape: 100 (100)
I0403 14:47:04.961176  7878 net.cpp:156] Memory required for data: 61835200
I0403 14:47:04.961205  7878 layer_factory.hpp:77] Creating layer label_data_1_split
I0403 14:47:04.961230  7878 net.cpp:91] Creating Layer label_data_1_split
I0403 14:47:04.961247  7878 net.cpp:425] label_data_1_split <- label
I0403 14:47:04.961279  7878 net.cpp:399] label_data_1_split -> label_data_1_split_0
I0403 14:47:04.961307  7878 net.cpp:399] label_data_1_split -> label_data_1_split_1
I0403 14:47:04.961328  7878 net.cpp:399] label_data_1_split -> label_data_1_split_2
I0403 14:47:04.961391  7878 net.cpp:141] Setting up label_data_1_split
I0403 14:47:04.961416  7878 net.cpp:148] Top shape: 100 (100)
I0403 14:47:04.961432  7878 net.cpp:148] Top shape: 100 (100)
I0403 14:47:04.961448  7878 net.cpp:148] Top shape: 100 (100)
I0403 14:47:04.961462  7878 net.cpp:156] Memory required for data: 61836400
I0403 14:47:04.961477  7878 layer_factory.hpp:77] Creating layer conv1
I0403 14:47:04.961510  7878 net.cpp:91] Creating Layer conv1
I0403 14:47:04.961529  7878 net.cpp:425] conv1 <- data
I0403 14:47:04.961549  7878 net.cpp:399] conv1 -> conv1
I0403 14:47:05.104214  7878 net.cpp:141] Setting up conv1
I0403 14:47:05.104300  7878 net.cpp:148] Top shape: 100 96 55 55 (29040000)
I0403 14:47:05.104316  7878 net.cpp:156] Memory required for data: 177996400
I0403 14:47:05.104346  7878 layer_factory.hpp:77] Creating layer relu1
I0403 14:47:05.104373  7878 net.cpp:91] Creating Layer relu1
I0403 14:47:05.104393  7878 net.cpp:425] relu1 <- conv1
I0403 14:47:05.104411  7878 net.cpp:386] relu1 -> conv1 (in-place)
I0403 14:47:05.104670  7878 net.cpp:141] Setting up relu1
I0403 14:47:05.104696  7878 net.cpp:148] Top shape: 100 96 55 55 (29040000)
I0403 14:47:05.104710  7878 net.cpp:156] Memory required for data: 294156400
I0403 14:47:05.104756  7878 layer_factory.hpp:77] Creating layer norm1
I0403 14:47:05.104786  7878 net.cpp:91] Creating Layer norm1
I0403 14:47:05.104805  7878 net.cpp:425] norm1 <- conv1
I0403 14:47:05.104822  7878 net.cpp:399] norm1 -> norm1
I0403 14:47:05.105151  7878 net.cpp:141] Setting up norm1
I0403 14:47:05.105180  7878 net.cpp:148] Top shape: 100 96 55 55 (29040000)
I0403 14:47:05.105195  7878 net.cpp:156] Memory required for data: 410316400
I0403 14:47:05.105211  7878 layer_factory.hpp:77] Creating layer pool1
I0403 14:47:05.105237  7878 net.cpp:91] Creating Layer pool1
I0403 14:47:05.105255  7878 net.cpp:425] pool1 <- norm1
I0403 14:47:05.105273  7878 net.cpp:399] pool1 -> pool1
I0403 14:47:05.105343  7878 net.cpp:141] Setting up pool1
I0403 14:47:05.105367  7878 net.cpp:148] Top shape: 100 96 27 27 (6998400)
I0403 14:47:05.105382  7878 net.cpp:156] Memory required for data: 438310000
I0403 14:47:05.105397  7878 layer_factory.hpp:77] Creating layer conv2
I0403 14:47:05.105423  7878 net.cpp:91] Creating Layer conv2
I0403 14:47:05.105440  7878 net.cpp:425] conv2 <- pool1
I0403 14:47:05.105460  7878 net.cpp:399] conv2 -> conv2
I0403 14:47:05.120621  7878 net.cpp:141] Setting up conv2
I0403 14:47:05.120658  7878 net.cpp:148] Top shape: 100 256 27 27 (18662400)
I0403 14:47:05.120674  7878 net.cpp:156] Memory required for data: 512959600
I0403 14:47:05.120698  7878 layer_factory.hpp:77] Creating layer relu2
I0403 14:47:05.120719  7878 net.cpp:91] Creating Layer relu2
I0403 14:47:05.120735  7878 net.cpp:425] relu2 <- conv2
I0403 14:47:05.120754  7878 net.cpp:386] relu2 -> conv2 (in-place)
I0403 14:47:05.121040  7878 net.cpp:141] Setting up relu2
I0403 14:47:05.121069  7878 net.cpp:148] Top shape: 100 256 27 27 (18662400)
I0403 14:47:05.121086  7878 net.cpp:156] Memory required for data: 587609200
I0403 14:47:05.121101  7878 layer_factory.hpp:77] Creating layer norm2
I0403 14:47:05.121122  7878 net.cpp:91] Creating Layer norm2
I0403 14:47:05.121139  7878 net.cpp:425] norm2 <- conv2
I0403 14:47:05.121160  7878 net.cpp:399] norm2 -> norm2
I0403 14:47:05.121361  7878 net.cpp:141] Setting up norm2
I0403 14:47:05.121388  7878 net.cpp:148] Top shape: 100 256 27 27 (18662400)
I0403 14:47:05.121403  7878 net.cpp:156] Memory required for data: 662258800
I0403 14:47:05.121418  7878 layer_factory.hpp:77] Creating layer pool2
I0403 14:47:05.121439  7878 net.cpp:91] Creating Layer pool2
I0403 14:47:05.121456  7878 net.cpp:425] pool2 <- norm2
I0403 14:47:05.121474  7878 net.cpp:399] pool2 -> pool2
I0403 14:47:05.121528  7878 net.cpp:141] Setting up pool2
I0403 14:47:05.121551  7878 net.cpp:148] Top shape: 100 256 13 13 (4326400)
I0403 14:47:05.121567  7878 net.cpp:156] Memory required for data: 679564400
I0403 14:47:05.121582  7878 layer_factory.hpp:77] Creating layer conv3
I0403 14:47:05.121606  7878 net.cpp:91] Creating Layer conv3
I0403 14:47:05.121624  7878 net.cpp:425] conv3 <- pool2
I0403 14:47:05.121645  7878 net.cpp:399] conv3 -> conv3
I0403 14:47:05.161463  7878 net.cpp:141] Setting up conv3
I0403 14:47:05.161520  7878 net.cpp:148] Top shape: 100 384 13 13 (6489600)
I0403 14:47:05.161535  7878 net.cpp:156] Memory required for data: 705522800
I0403 14:47:05.161559  7878 layer_factory.hpp:77] Creating layer relu3
I0403 14:47:05.161581  7878 net.cpp:91] Creating Layer relu3
I0403 14:47:05.161599  7878 net.cpp:425] relu3 <- conv3
I0403 14:47:05.161617  7878 net.cpp:386] relu3 -> conv3 (in-place)
I0403 14:47:05.161885  7878 net.cpp:141] Setting up relu3
I0403 14:47:05.161911  7878 net.cpp:148] Top shape: 100 384 13 13 (6489600)
I0403 14:47:05.161926  7878 net.cpp:156] Memory required for data: 731481200
I0403 14:47:05.161942  7878 layer_factory.hpp:77] Creating layer conv4
I0403 14:47:05.161974  7878 net.cpp:91] Creating Layer conv4
I0403 14:47:05.161993  7878 net.cpp:425] conv4 <- conv3
I0403 14:47:05.162011  7878 net.cpp:399] conv4 -> conv4
I0403 14:47:05.190753  7878 net.cpp:141] Setting up conv4
I0403 14:47:05.190798  7878 net.cpp:148] Top shape: 100 384 13 13 (6489600)
I0403 14:47:05.190845  7878 net.cpp:156] Memory required for data: 757439600
I0403 14:47:05.190865  7878 layer_factory.hpp:77] Creating layer relu4
I0403 14:47:05.190887  7878 net.cpp:91] Creating Layer relu4
I0403 14:47:05.190904  7878 net.cpp:425] relu4 <- conv4
I0403 14:47:05.190922  7878 net.cpp:386] relu4 -> conv4 (in-place)
I0403 14:47:05.191200  7878 net.cpp:141] Setting up relu4
I0403 14:47:05.191226  7878 net.cpp:148] Top shape: 100 384 13 13 (6489600)
I0403 14:47:05.191242  7878 net.cpp:156] Memory required for data: 783398000
I0403 14:47:05.191258  7878 layer_factory.hpp:77] Creating layer conv5
I0403 14:47:05.191283  7878 net.cpp:91] Creating Layer conv5
I0403 14:47:05.191301  7878 net.cpp:425] conv5 <- conv4
I0403 14:47:05.191321  7878 net.cpp:399] conv5 -> conv5
I0403 14:47:05.211135  7878 net.cpp:141] Setting up conv5
I0403 14:47:05.211169  7878 net.cpp:148] Top shape: 100 256 13 13 (4326400)
I0403 14:47:05.211186  7878 net.cpp:156] Memory required for data: 800703600
I0403 14:47:05.211211  7878 layer_factory.hpp:77] Creating layer relu5
I0403 14:47:05.211231  7878 net.cpp:91] Creating Layer relu5
I0403 14:47:05.211247  7878 net.cpp:425] relu5 <- conv5
I0403 14:47:05.211264  7878 net.cpp:386] relu5 -> conv5 (in-place)
I0403 14:47:05.211537  7878 net.cpp:141] Setting up relu5
I0403 14:47:05.211565  7878 net.cpp:148] Top shape: 100 256 13 13 (4326400)
I0403 14:47:05.211582  7878 net.cpp:156] Memory required for data: 818009200
I0403 14:47:05.211598  7878 layer_factory.hpp:77] Creating layer pool5
I0403 14:47:05.211619  7878 net.cpp:91] Creating Layer pool5
I0403 14:47:05.211635  7878 net.cpp:425] pool5 <- conv5
I0403 14:47:05.211653  7878 net.cpp:399] pool5 -> pool5
I0403 14:47:05.211715  7878 net.cpp:141] Setting up pool5
I0403 14:47:05.211738  7878 net.cpp:148] Top shape: 100 256 6 6 (921600)
I0403 14:47:05.211753  7878 net.cpp:156] Memory required for data: 821695600
I0403 14:47:05.211767  7878 layer_factory.hpp:77] Creating layer fc6
I0403 14:47:05.211796  7878 net.cpp:91] Creating Layer fc6
I0403 14:47:05.211813  7878 net.cpp:425] fc6 <- pool5
I0403 14:47:05.211833  7878 net.cpp:399] fc6 -> fc6
I0403 14:47:06.825850  7878 net.cpp:141] Setting up fc6
I0403 14:47:06.825943  7878 net.cpp:148] Top shape: 100 4096 (409600)
I0403 14:47:06.825963  7878 net.cpp:156] Memory required for data: 823334000
I0403 14:47:06.825984  7878 layer_factory.hpp:77] Creating layer relu6
I0403 14:47:06.826007  7878 net.cpp:91] Creating Layer relu6
I0403 14:47:06.826025  7878 net.cpp:425] relu6 <- fc6
I0403 14:47:06.826045  7878 net.cpp:386] relu6 -> fc6 (in-place)
I0403 14:47:06.826270  7878 net.cpp:141] Setting up relu6
I0403 14:47:06.826295  7878 net.cpp:148] Top shape: 100 4096 (409600)
I0403 14:47:06.826309  7878 net.cpp:156] Memory required for data: 824972400
I0403 14:47:06.826324  7878 layer_factory.hpp:77] Creating layer drop6
I0403 14:47:06.826344  7878 net.cpp:91] Creating Layer drop6
I0403 14:47:06.826360  7878 net.cpp:425] drop6 <- fc6
I0403 14:47:06.826376  7878 net.cpp:386] drop6 -> fc6 (in-place)
I0403 14:47:06.826431  7878 net.cpp:141] Setting up drop6
I0403 14:47:06.826452  7878 net.cpp:148] Top shape: 100 4096 (409600)
I0403 14:47:06.826467  7878 net.cpp:156] Memory required for data: 826610800
I0403 14:47:06.826480  7878 layer_factory.hpp:77] Creating layer fc7
I0403 14:47:06.826503  7878 net.cpp:91] Creating Layer fc7
I0403 14:47:06.826519  7878 net.cpp:425] fc7 <- fc6
I0403 14:47:06.826535  7878 net.cpp:399] fc7 -> fc7
I0403 14:47:07.512634  7878 net.cpp:141] Setting up fc7
I0403 14:47:07.512717  7878 net.cpp:148] Top shape: 100 4096 (409600)
I0403 14:47:07.512732  7878 net.cpp:156] Memory required for data: 828249200
I0403 14:47:07.512753  7878 layer_factory.hpp:77] Creating layer relu7
I0403 14:47:07.512776  7878 net.cpp:91] Creating Layer relu7
I0403 14:47:07.512794  7878 net.cpp:425] relu7 <- fc7
I0403 14:47:07.512812  7878 net.cpp:386] relu7 -> fc7 (in-place)
I0403 14:47:07.513209  7878 net.cpp:141] Setting up relu7
I0403 14:47:07.513236  7878 net.cpp:148] Top shape: 100 4096 (409600)
I0403 14:47:07.513279  7878 net.cpp:156] Memory required for data: 829887600
I0403 14:47:07.513295  7878 layer_factory.hpp:77] Creating layer drop7
I0403 14:47:07.513317  7878 net.cpp:91] Creating Layer drop7
I0403 14:47:07.513334  7878 net.cpp:425] drop7 <- fc7
I0403 14:47:07.513351  7878 net.cpp:386] drop7 -> fc7 (in-place)
I0403 14:47:07.513396  7878 net.cpp:141] Setting up drop7
I0403 14:47:07.513417  7878 net.cpp:148] Top shape: 100 4096 (409600)
I0403 14:47:07.513430  7878 net.cpp:156] Memory required for data: 831526000
I0403 14:47:07.513444  7878 layer_factory.hpp:77] Creating layer fc8_plantvillage
I0403 14:47:07.513463  7878 net.cpp:91] Creating Layer fc8_plantvillage
I0403 14:47:07.513478  7878 net.cpp:425] fc8_plantvillage <- fc7
I0403 14:47:07.513499  7878 net.cpp:399] fc8_plantvillage -> fc8_plantvillage
I0403 14:47:07.520095  7878 net.cpp:141] Setting up fc8_plantvillage
I0403 14:47:07.520126  7878 net.cpp:148] Top shape: 100 38 (3800)
I0403 14:47:07.520143  7878 net.cpp:156] Memory required for data: 831541200
I0403 14:47:07.520160  7878 layer_factory.hpp:77] Creating layer fc8_plantvillage_fc8_plantvillage_0_split
I0403 14:47:07.520179  7878 net.cpp:91] Creating Layer fc8_plantvillage_fc8_plantvillage_0_split
I0403 14:47:07.520195  7878 net.cpp:425] fc8_plantvillage_fc8_plantvillage_0_split <- fc8_plantvillage
I0403 14:47:07.520211  7878 net.cpp:399] fc8_plantvillage_fc8_plantvillage_0_split -> fc8_plantvillage_fc8_plantvillage_0_split_0
I0403 14:47:07.520231  7878 net.cpp:399] fc8_plantvillage_fc8_plantvillage_0_split -> fc8_plantvillage_fc8_plantvillage_0_split_1
I0403 14:47:07.520249  7878 net.cpp:399] fc8_plantvillage_fc8_plantvillage_0_split -> fc8_plantvillage_fc8_plantvillage_0_split_2
I0403 14:47:07.520324  7878 net.cpp:141] Setting up fc8_plantvillage_fc8_plantvillage_0_split
I0403 14:47:07.520347  7878 net.cpp:148] Top shape: 100 38 (3800)
I0403 14:47:07.520364  7878 net.cpp:148] Top shape: 100 38 (3800)
I0403 14:47:07.520378  7878 net.cpp:148] Top shape: 100 38 (3800)
I0403 14:47:07.520391  7878 net.cpp:156] Memory required for data: 831586800
I0403 14:47:07.520406  7878 layer_factory.hpp:77] Creating layer prob
I0403 14:47:07.520423  7878 net.cpp:91] Creating Layer prob
I0403 14:47:07.520439  7878 net.cpp:425] prob <- fc8_plantvillage_fc8_plantvillage_0_split_0
I0403 14:47:07.520457  7878 net.cpp:399] prob -> prob
I0403 14:47:07.520680  7878 net.cpp:141] Setting up prob
I0403 14:47:07.520705  7878 net.cpp:148] Top shape: 100 38 (3800)
I0403 14:47:07.520720  7878 net.cpp:156] Memory required for data: 831602000
I0403 14:47:07.520735  7878 layer_factory.hpp:77] Creating layer hdf5out
I0403 14:47:07.520756  7878 net.cpp:91] Creating Layer hdf5out
I0403 14:47:07.520772  7878 net.cpp:425] hdf5out <- prob
I0403 14:47:07.520788  7878 net.cpp:425] hdf5out <- label_data_1_split_0
I0403 14:47:07.523116  7878 net.cpp:141] Setting up hdf5out
…
