…
I0403 14:47:59.824862  7934 net.cpp:313] The NetState phase (1) differed from the phase (0) specified by a rule in layer data
I0403 14:47:59.825197  7934 net.cpp:49] Initializing net from parameters: 
state {
  phase: TEST
}
layer {
  name: "data"
  type: "Data"
  top: "data"
  top: "label"
  include {
    phase: TEST
  }
  transform_param {
    crop_size: 227
    mean_file: "/home/mohanty/data/final_dataset/lmdb/color-50-50/mean.binaryproto"
  }
  data_param {
    source: "/home/mohanty/data/final_dataset/lmdb/color-50-50/test_db"
    batch_size: 100
    backend: LMDB
  }
}
layer {
  name: "conv1"
  type: "Convolution"
  bottom: "data"
  top: "conv1"
  param {
    lr_mult: 1
    decay_mult: 1
  }
  param {
    lr_mult: 2
    decay_mult: 0
  }
  convolution_param {
    num_output: 96
    kernel_size: 11
    stride: 4
    weight_filler {
      type: "gaussian"
      std: 0.01
    }
    bias_filler {
      type: "constant"
      value: 0
    }
  }
}
layer {
  name: "relu1"
  type: "ReLU"
  bottom: "conv1"
  top: "conv1"
}
layer {
  name: "norm1"
  type: "LRN"
  bottom: "conv1"
  top: "norm1"
  lrn_param {
    local_size: 5
    alpha: 0.0001
    beta: 0.75
  }
}
layer {
  name: "pool1"
  type: "Pooling"
  bottom: "norm1"
  top: "pool1"
  pooling_param {
    pool: MAX
    kernel_size: 3
    stride: 2
  }
}
layer {
  name: "conv2"
  type: "Convolution"
  bottom: "pool1"
  top: "conv2"
  param {
    lr_mult: 1
    decay_mult: 1
  }
  param {
    lr_mult: 2
    decay_mult: 0
  }
  convolution_param {
    num_output: 256
    pad: 2
    kernel_size: 5
    group: 2
    weight_filler {
      type: "gaussian"
      std: 0.01
    }
    bias_filler {
      type: "constant"
      value: 0.1
    }
  }
}
layer {
  name: "relu2"
  type: "ReLU"
  bottom: "conv2"
  top: "conv2"
}
layer {
  name: "norm2"
  type: "LRN"
  bottom: "conv2"
  top: "norm2"
  lrn_param {
    local_size: 5
    alpha: 0.0001
    beta: 0.75
  }
}
layer {
  name: "pool2"
  type: "Pooling"
  bottom: "norm2"
  top: "pool2"
  pooling_param {
    pool: MAX
    kernel_size: 3
    stride: 2
  }
}
layer {
  name: "conv3"
  type: "Convolution"
  bottom: "pool2"
  top: "conv3"
  param {
    lr_mult: 1
    decay_mult: 1
  }
  param {
    lr_mult: 2
    decay_mult: 0
  }
  convolution_param {
    num_output: 384
    pad: 1
    kernel_size: 3
    weight_filler {
      type: "gaussian"
      std: 0.01
    }
    bias_filler {
      type: "constant"
      value: 0
    }
  }
}
layer {
  name: "relu3"
  type: "ReLU"
  bottom: "conv3"
  top: "conv3"
}
layer {
  name: "conv4"
  type: "Convolution"
  bottom: "conv3"
  top: "conv4"
  param {
    lr_mult: 1
    decay_mult: 1
  }
  param {
    lr_mult: 2
    decay_mult: 0
  }
  convolution_param {
    num_output: 384
    pad: 1
    kernel_size: 3
    group: 2
    weight_filler {
      type: "gaussian"
      std: 0.01
    }
    bias_filler {
      type: "constant"
      value: 0.1
    }
  }
}
layer {
  name: "relu4"
  type: "ReLU"
  bottom: "conv4"
  top: "conv4"
}
layer {
  name: "conv5"
  type: "Convolution"
  bottom: "conv4"
  top: "conv5"
  param {
    lr_mult: 1
    decay_mult: 1
  }
  param {
    lr_mult: 2
    decay_mult: 0
  }
  convolution_param {
    num_output: 256
    pad: 1
    kernel_size: 3
    group: 2
    weight_filler {
      type: "gaussian"
      std: 0.01
    }
    bias_filler {
      type: "constant"
      value: 0.1
    }
  }
}
layer {
  name: "relu5"
  type: "ReLU"
  bottom: "conv5"
  top: "conv5"
}
layer {
  name: "pool5"
  type: "Pooling"
  bottom: "conv5"
  top: "pool5"
  pooling_param {
    pool: MAX
    kernel_size: 3
    stride: 2
  }
}
layer {
  name: "fc6"
  type: "InnerProduct"
  bottom: "pool5"
  top: "fc6"
  param {
    lr_mult: 1
    decay_mult: 1
  }
  param {
    lr_mult: 2
    decay_mult: 0
  }
  inner_product_param {
    num_output: 4096
    weight_filler {
      type: "gaussian"
      std: 0.005
    }
    bias_filler {
      type: "constant"
      value: 0.1
    }
  }
}
layer {
  name: "relu6"
  type: "ReLU"
  bottom: "fc6"
  top: "fc6"
}
layer {
  name: "drop6"
  type: "Dropout"
  bottom: "fc6"
  top: "fc6"
  dropout_param {
    dropout_ratio: 0.5
  }
}
layer {
  name: "fc7"
  type: "InnerProduct"
  bottom: "fc6"
  top: "fc7"
  param {
    lr_mult: 1
    decay_mult: 1
  }
  param {
    lr_mult: 2
    decay_mult: 0
  }
  inner_product_param {
    num_output: 4096
    weight_filler {
      type: "gaussian"
      std: 0.005
    }
    bias_filler {
      type: "constant"
      value: 0.1
    }
  }
}
layer {
  name: "relu7"
  type: "ReLU"
  bottom: "fc7"
  top: "fc7"
}
layer {
  name: "drop7"
  type: "Dropout"
  bottom: "fc7"
  top: "fc7"
  dropout_param {
    dropout_ratio: 0.5
  }
}
layer {
  name: "fc8_plantvillage"
  type: "InnerProduct"
  bottom: "fc7"
  top: "fc8_plantvillage"
  param {
    lr_mult: 1
    decay_mult: 1
  }
  param {
    lr_mult: 2
    decay_mult: 0
  }
  inner_product_param {
    num_output: 38
    weight_filler {
      type: "gaussian"
      std: 0.01
    }
    bias_filler {
      type: "constant"
      value: 0
    }
  }
}
layer {
  name: "prob"
  type: "Softmax"
  bottom: "fc8_plantvillage"
  top: "prob"
  include {
    phase: TEST
  }
}
layer {
  name: "hdf5out"
  type: "HDF5Output"
  bottom: "prob"
  bottom: "label"
  include {
    phase: TEST
  }
  hdf5_output_param {
    file_name: "hdf5_dumps/iter_1614.h5"
  }
}
layer {
  name: "loss"
  type: "SoftmaxWithLoss"
  bottom: "fc8_plantvillage"
  bottom: "label"
  top: "loss"
}
layer {
  name: "accuracy"
  type: "Accuracy"
  bottom: "fc8_plantvillage"
  bottom: "label"
  top: "accuracy"
  include {
    phase: TEST
  }
}
I0403 14:47:59.825738  7934 layer_factory.hpp:77] Creating layer data
I0403 14:47:59.826387  7934 net.cpp:91] Creating Layer data
I0403 14:47:59.826429  7934 net.cpp:399] data -> data
I0403 14:47:59.826483  7934 net.cpp:399] data -> label
I0403 14:47:59.826522  7934 data_transformer.cpp:25] Loading mean file from: /home/mohanty/data/final_dataset/lmdb/color-50-50/mean.binaryproto
I0403 14:47:59.828656  7937 db_lmdb.cpp:38] Opened lmdb /home/mohanty/data/final_dataset/lmdb/color-50-50/test_db
I0403 14:47:59.841326  7934 data_layer.cpp:41] output data size: 100,3,227,227
I0403 14:47:59.963471  7934 net.cpp:141] Setting up data
I0403 14:47:59.963577  7934 net.cpp:148] Top shape: 100 3 227 227 (15458700)
I0403 14:47:59.963601  7934 net.cpp:148] Top shape: 100 (100)
I0403 14:47:59.963618  7934 net.cpp:156] Memory required for data: 61835200
I0403 14:47:59.963645  7934 layer_factory.hpp:77] Creating layer label_data_1_split
I0403 14:47:59.963670  7934 net.cpp:91] Creating Layer label_data_1_split
I0403 14:47:59.963688  7934 net.cpp:425] label_data_1_split <- label
I0403 14:47:59.963721  7934 net.cpp:399] label_data_1_split -> label_data_1_split_0
I0403 14:47:59.963748  7934 net.cpp:399] label_data_1_split -> label_data_1_split_1
I0403 14:47:59.963770  7934 net.cpp:399] label_data_1_split -> label_data_1_split_2
I0403 14:47:59.963835  7934 net.cpp:141] Setting up label_data_1_split
I0403 14:47:59.963860  7934 net.cpp:148] Top shape: 100 (100)
I0403 14:47:59.963876  7934 net.cpp:148] Top shape: 100 (100)
I0403 14:47:59.963893  7934 net.cpp:148] Top shape: 100 (100)
I0403 14:47:59.963908  7934 net.cpp:156] Memory required for data: 61836400
I0403 14:47:59.963923  7934 layer_factory.hpp:77] Creating layer conv1
I0403 14:47:59.963955  7934 net.cpp:91] Creating Layer conv1
I0403 14:47:59.963974  7934 net.cpp:425] conv1 <- data
I0403 14:47:59.963999  7934 net.cpp:399] conv1 -> conv1
I0403 14:48:00.105170  7934 net.cpp:141] Setting up conv1
I0403 14:48:00.105234  7934 net.cpp:148] Top shape: 100 96 55 55 (29040000)
I0403 14:48:00.105252  7934 net.cpp:156] Memory required for data: 177996400
I0403 14:48:00.105283  7934 layer_factory.hpp:77] Creating layer relu1
I0403 14:48:00.105311  7934 net.cpp:91] Creating Layer relu1
I0403 14:48:00.105331  7934 net.cpp:425] relu1 <- conv1
I0403 14:48:00.105350  7934 net.cpp:386] relu1 -> conv1 (in-place)
I0403 14:48:00.105605  7934 net.cpp:141] Setting up relu1
I0403 14:48:00.105633  7934 net.cpp:148] Top shape: 100 96 55 55 (29040000)
I0403 14:48:00.105649  7934 net.cpp:156] Memory required for data: 294156400
I0403 14:48:00.105696  7934 layer_factory.hpp:77] Creating layer norm1
I0403 14:48:00.105726  7934 net.cpp:91] Creating Layer norm1
I0403 14:48:00.105746  7934 net.cpp:425] norm1 <- conv1
I0403 14:48:00.105763  7934 net.cpp:399] norm1 -> norm1
I0403 14:48:00.106123  7934 net.cpp:141] Setting up norm1
I0403 14:48:00.106151  7934 net.cpp:148] Top shape: 100 96 55 55 (29040000)
I0403 14:48:00.106168  7934 net.cpp:156] Memory required for data: 410316400
I0403 14:48:00.106184  7934 layer_factory.hpp:77] Creating layer pool1
I0403 14:48:00.106209  7934 net.cpp:91] Creating Layer pool1
I0403 14:48:00.106227  7934 net.cpp:425] pool1 <- norm1
I0403 14:48:00.106246  7934 net.cpp:399] pool1 -> pool1
I0403 14:48:00.106312  7934 net.cpp:141] Setting up pool1
I0403 14:48:00.106338  7934 net.cpp:148] Top shape: 100 96 27 27 (6998400)
I0403 14:48:00.106353  7934 net.cpp:156] Memory required for data: 438310000
I0403 14:48:00.106369  7934 layer_factory.hpp:77] Creating layer conv2
I0403 14:48:00.106392  7934 net.cpp:91] Creating Layer conv2
I0403 14:48:00.106410  7934 net.cpp:425] conv2 <- pool1
I0403 14:48:00.106431  7934 net.cpp:399] conv2 -> conv2
I0403 14:48:00.121475  7934 net.cpp:141] Setting up conv2
I0403 14:48:00.121510  7934 net.cpp:148] Top shape: 100 256 27 27 (18662400)
I0403 14:48:00.121527  7934 net.cpp:156] Memory required for data: 512959600
I0403 14:48:00.121613  7934 layer_factory.hpp:77] Creating layer relu2
I0403 14:48:00.121639  7934 net.cpp:91] Creating Layer relu2
I0403 14:48:00.121656  7934 net.cpp:425] relu2 <- conv2
I0403 14:48:00.121675  7934 net.cpp:386] relu2 -> conv2 (in-place)
I0403 14:48:00.121953  7934 net.cpp:141] Setting up relu2
I0403 14:48:00.121981  7934 net.cpp:148] Top shape: 100 256 27 27 (18662400)
I0403 14:48:00.121999  7934 net.cpp:156] Memory required for data: 587609200
I0403 14:48:00.122014  7934 layer_factory.hpp:77] Creating layer norm2
I0403 14:48:00.122035  7934 net.cpp:91] Creating Layer norm2
I0403 14:48:00.122052  7934 net.cpp:425] norm2 <- conv2
I0403 14:48:00.122072  7934 net.cpp:399] norm2 -> norm2
I0403 14:48:00.122263  7934 net.cpp:141] Setting up norm2
I0403 14:48:00.122288  7934 net.cpp:148] Top shape: 100 256 27 27 (18662400)
I0403 14:48:00.122303  7934 net.cpp:156] Memory required for data: 662258800
I0403 14:48:00.122321  7934 layer_factory.hpp:77] Creating layer pool2
I0403 14:48:00.122342  7934 net.cpp:91] Creating Layer pool2
I0403 14:48:00.122359  7934 net.cpp:425] pool2 <- norm2
I0403 14:48:00.122376  7934 net.cpp:399] pool2 -> pool2
I0403 14:48:00.122428  7934 net.cpp:141] Setting up pool2
I0403 14:48:00.122452  7934 net.cpp:148] Top shape: 100 256 13 13 (4326400)
I0403 14:48:00.122467  7934 net.cpp:156] Memory required for data: 679564400
I0403 14:48:00.122483  7934 layer_factory.hpp:77] Creating layer conv3
I0403 14:48:00.122505  7934 net.cpp:91] Creating Layer conv3
I0403 14:48:00.122524  7934 net.cpp:425] conv3 <- pool2
I0403 14:48:00.122545  7934 net.cpp:399] conv3 -> conv3
I0403 14:48:00.162595  7934 net.cpp:141] Setting up conv3
I0403 14:48:00.162652  7934 net.cpp:148] Top shape: 100 384 13 13 (6489600)
I0403 14:48:00.162669  7934 net.cpp:156] Memory required for data: 705522800
I0403 14:48:00.162693  7934 layer_factory.hpp:77] Creating layer relu3
I0403 14:48:00.162717  7934 net.cpp:91] Creating Layer relu3
I0403 14:48:00.162735  7934 net.cpp:425] relu3 <- conv3
I0403 14:48:00.162753  7934 net.cpp:386] relu3 -> conv3 (in-place)
I0403 14:48:00.163028  7934 net.cpp:141] Setting up relu3
I0403 14:48:00.163054  7934 net.cpp:148] Top shape: 100 384 13 13 (6489600)
I0403 14:48:00.163069  7934 net.cpp:156] Memory required for data: 731481200
I0403 14:48:00.163084  7934 layer_factory.hpp:77] Creating layer conv4
I0403 14:48:00.163108  7934 net.cpp:91] Creating Layer conv4
I0403 14:48:00.163125  7934 net.cpp:425] conv4 <- conv3
I0403 14:48:00.163147  7934 net.cpp:399] conv4 -> conv4
I0403 14:48:00.192533  7934 net.cpp:141] Setting up conv4
I0403 14:48:00.192574  7934 net.cpp:148] Top shape: 100 384 13 13 (6489600)
I0403 14:48:00.192617  7934 net.cpp:156] Memory required for data: 757439600
I0403 14:48:00.192638  7934 layer_factory.hpp:77] Creating layer relu4
I0403 14:48:00.192658  7934 net.cpp:91] Creating Layer relu4
I0403 14:48:00.192675  7934 net.cpp:425] relu4 <- conv4
I0403 14:48:00.192695  7934 net.cpp:386] relu4 -> conv4 (in-place)
I0403 14:48:00.192965  7934 net.cpp:141] Setting up relu4
I0403 14:48:00.192996  7934 net.cpp:148] Top shape: 100 384 13 13 (6489600)
I0403 14:48:00.193012  7934 net.cpp:156] Memory required for data: 783398000
I0403 14:48:00.193027  7934 layer_factory.hpp:77] Creating layer conv5
I0403 14:48:00.193053  7934 net.cpp:91] Creating Layer conv5
I0403 14:48:00.193071  7934 net.cpp:425] conv5 <- conv4
I0403 14:48:00.193094  7934 net.cpp:399] conv5 -> conv5
I0403 14:48:00.213315  7934 net.cpp:141] Setting up conv5
I0403 14:48:00.213348  7934 net.cpp:148] Top shape: 100 256 13 13 (4326400)
I0403 14:48:00.213366  7934 net.cpp:156] Memory required for data: 800703600
I0403 14:48:00.213390  7934 layer_factory.hpp:77] Creating layer relu5
I0403 14:48:00.213415  7934 net.cpp:91] Creating Layer relu5
I0403 14:48:00.213433  7934 net.cpp:425] relu5 <- conv5
I0403 14:48:00.213451  7934 net.cpp:386] relu5 -> conv5 (in-place)
I0403 14:48:00.213721  7934 net.cpp:141] Setting up relu5
I0403 14:48:00.213747  7934 net.cpp:148] Top shape: 100 256 13 13 (4326400)
I0403 14:48:00.213763  7934 net.cpp:156] Memory required for data: 818009200
I0403 14:48:00.213778  7934 layer_factory.hpp:77] Creating layer pool5
I0403 14:48:00.213803  7934 net.cpp:91] Creating Layer pool5
I0403 14:48:00.213819  7934 net.cpp:425] pool5 <- conv5
I0403 14:48:00.213837  7934 net.cpp:399] pool5 -> pool5
I0403 14:48:00.213898  7934 net.cpp:141] Setting up pool5
I0403 14:48:00.213922  7934 net.cpp:148] Top shape: 100 256 6 6 (921600)
I0403 14:48:00.213938  7934 net.cpp:156] Memory required for data: 821695600
I0403 14:48:00.213953  7934 layer_factory.hpp:77] Creating layer fc6
I0403 14:48:00.213985  7934 net.cpp:91] Creating Layer fc6
I0403 14:48:00.214004  7934 net.cpp:425] fc6 <- pool5
I0403 14:48:00.214023  7934 net.cpp:399] fc6 -> fc6
I0403 14:48:01.744354  7934 net.cpp:141] Setting up fc6
I0403 14:48:01.744442  7934 net.cpp:148] Top shape: 100 4096 (409600)
I0403 14:48:01.744459  7934 net.cpp:156] Memory required for data: 823334000
I0403 14:48:01.744482  7934 layer_factory.hpp:77] Creating layer relu6
I0403 14:48:01.744503  7934 net.cpp:91] Creating Layer relu6
I0403 14:48:01.744520  7934 net.cpp:425] relu6 <- fc6
I0403 14:48:01.744542  7934 net.cpp:386] relu6 -> fc6 (in-place)
I0403 14:48:01.744752  7934 net.cpp:141] Setting up relu6
I0403 14:48:01.744776  7934 net.cpp:148] Top shape: 100 4096 (409600)
I0403 14:48:01.744791  7934 net.cpp:156] Memory required for data: 824972400
I0403 14:48:01.744804  7934 layer_factory.hpp:77] Creating layer drop6
I0403 14:48:01.744825  7934 net.cpp:91] Creating Layer drop6
I0403 14:48:01.744842  7934 net.cpp:425] drop6 <- fc6
I0403 14:48:01.744859  7934 net.cpp:386] drop6 -> fc6 (in-place)
I0403 14:48:01.744910  7934 net.cpp:141] Setting up drop6
I0403 14:48:01.744947  7934 net.cpp:148] Top shape: 100 4096 (409600)
I0403 14:48:01.744963  7934 net.cpp:156] Memory required for data: 826610800
I0403 14:48:01.744982  7934 layer_factory.hpp:77] Creating layer fc7
I0403 14:48:01.745005  7934 net.cpp:91] Creating Layer fc7
I0403 14:48:01.745021  7934 net.cpp:425] fc7 <- fc6
I0403 14:48:01.745041  7934 net.cpp:399] fc7 -> fc7
I0403 14:48:02.417402  7934 net.cpp:141] Setting up fc7
I0403 14:48:02.417492  7934 net.cpp:148] Top shape: 100 4096 (409600)
I0403 14:48:02.417508  7934 net.cpp:156] Memory required for data: 828249200
I0403 14:48:02.417531  7934 layer_factory.hpp:77] Creating layer relu7
I0403 14:48:02.417552  7934 net.cpp:91] Creating Layer relu7
I0403 14:48:02.417570  7934 net.cpp:425] relu7 <- fc7
I0403 14:48:02.417593  7934 net.cpp:386] relu7 -> fc7 (in-place)
I0403 14:48:02.417971  7934 net.cpp:141] Setting up relu7
I0403 14:48:02.418000  7934 net.cpp:148] Top shape: 100 4096 (409600)
I0403 14:48:02.418047  7934 net.cpp:156] Memory required for data: 829887600
I0403 14:48:02.418068  7934 layer_factory.hpp:77] Creating layer drop7
I0403 14:48:02.418088  7934 net.cpp:91] Creating Layer drop7
I0403 14:48:02.418103  7934 net.cpp:425] drop7 <- fc7
I0403 14:48:02.418133  7934 net.cpp:386] drop7 -> fc7 (in-place)
I0403 14:48:02.418179  7934 net.cpp:141] Setting up drop7
I0403 14:48:02.418203  7934 net.cpp:148] Top shape: 100 4096 (409600)
I0403 14:48:02.418217  7934 net.cpp:156] Memory required for data: 831526000
I0403 14:48:02.418232  7934 layer_factory.hpp:77] Creating layer fc8_plantvillage
I0403 14:48:02.418251  7934 net.cpp:91] Creating Layer fc8_plantvillage
I0403 14:48:02.418267  7934 net.cpp:425] fc8_plantvillage <- fc7
I0403 14:48:02.418288  7934 net.cpp:399] fc8_plantvillage -> fc8_plantvillage
I0403 14:48:02.424887  7934 net.cpp:141] Setting up fc8_plantvillage
I0403 14:48:02.424916  7934 net.cpp:148] Top shape: 100 38 (3800)
I0403 14:48:02.424943  7934 net.cpp:156] Memory required for data: 831541200
I0403 14:48:02.424962  7934 layer_factory.hpp:77] Creating layer fc8_plantvillage_fc8_plantvillage_0_split
I0403 14:48:02.424986  7934 net.cpp:91] Creating Layer fc8_plantvillage_fc8_plantvillage_0_split
I0403 14:48:02.425004  7934 net.cpp:425] fc8_plantvillage_fc8_plantvillage_0_split <- fc8_plantvillage
I0403 14:48:02.425022  7934 net.cpp:399] fc8_plantvillage_fc8_plantvillage_0_split -> fc8_plantvillage_fc8_plantvillage_0_split_0
I0403 14:48:02.425043  7934 net.cpp:399] fc8_plantvillage_fc8_plantvillage_0_split -> fc8_plantvillage_fc8_plantvillage_0_split_1
I0403 14:48:02.425063  7934 net.cpp:399] fc8_plantvillage_fc8_plantvillage_0_split -> fc8_plantvillage_fc8_plantvillage_0_split_2
I0403 14:48:02.425143  7934 net.cpp:141] Setting up fc8_plantvillage_fc8_plantvillage_0_split
I0403 14:48:02.425166  7934 net.cpp:148] Top shape: 100 38 (3800)
I0403 14:48:02.425182  7934 net.cpp:148] Top shape: 100 38 (3800)
I0403 14:48:02.425199  7934 net.cpp:148] Top shape: 100 38 (3800)
I0403 14:48:02.425225  7934 net.cpp:156] Memory required for data: 831586800
I0403 14:48:02.425240  7934 layer_factory.hpp:77] Creating layer prob
I0403 14:48:02.425257  7934 net.cpp:91] Creating Layer prob
I0403 14:48:02.425272  7934 net.cpp:425] prob <- fc8_plantvillage_fc8_plantvillage_0_split_0
I0403 14:48:02.425290  7934 net.cpp:399] prob -> prob
I0403 14:48:02.425509  7934 net.cpp:141] Setting up prob
I0403 14:48:02.425534  7934 net.cpp:148] Top shape: 100 38 (3800)
I0403 14:48:02.425549  7934 net.cpp:156] Memory required for data: 831602000
I0403 14:48:02.425564  7934 layer_factory.hpp:77] Creating layer hdf5out
I0403 14:48:02.425581  7934 net.cpp:91] Creating Layer hdf5out
I0403 14:48:02.425597  7934 net.cpp:425] hdf5out <- prob
I0403 14:48:02.425612  7934 net.cpp:425] hdf5out <- label_data_1_split_0
I0403 14:48:02.427759  7934 net.cpp:141] Setting up hdf5out
…
