…
I0403 14:49:50.020354  8053 net.cpp:313] The NetState phase (1) differed from the phase (0) specified by a rule in layer data
I0403 14:49:50.020669  8053 net.cpp:49] Initializing net from parameters: 
state {
  phase: TEST
}
layer {
  name: "data"
  type: "Data"
  top: "data"
  top: "label"
  include {
    phase: TEST
  }
  transform_param {
    crop_size: 227
    mean_file: "/home/mohanty/data/final_dataset/lmdb/color-50-50/mean.binaryproto"
  }
  data_param {
    source: "/home/mohanty/data/final_dataset/lmdb/color-50-50/test_db"
    batch_size: 100
    backend: LMDB
  }
}
layer {
  name: "conv1"
  type: "Convolution"
  bottom: "data"
  top: "conv1"
  param {
    lr_mult: 1
    decay_mult: 1
  }
  param {
    lr_mult: 2
    decay_mult: 0
  }
  convolution_param {
    num_output: 96
    kernel_size: 11
    stride: 4
    weight_filler {
      type: "gaussian"
      std: 0.01
    }
    bias_filler {
      type: "constant"
      value: 0
    }
  }
}
layer {
  name: "relu1"
  type: "ReLU"
  bottom: "conv1"
  top: "conv1"
}
layer {
  name: "norm1"
  type: "LRN"
  bottom: "conv1"
  top: "norm1"
  lrn_param {
    local_size: 5
    alpha: 0.0001
    beta: 0.75
  }
}
layer {
  name: "pool1"
  type: "Pooling"
  bottom: "norm1"
  top: "pool1"
  pooling_param {
    pool: MAX
    kernel_size: 3
    stride: 2
  }
}
layer {
  name: "conv2"
  type: "Convolution"
  bottom: "pool1"
  top: "conv2"
  param {
    lr_mult: 1
    decay_mult: 1
  }
  param {
    lr_mult: 2
    decay_mult: 0
  }
  convolution_param {
    num_output: 256
    pad: 2
    kernel_size: 5
    group: 2
    weight_filler {
      type: "gaussian"
      std: 0.01
    }
    bias_filler {
      type: "constant"
      value: 0.1
    }
  }
}
layer {
  name: "relu2"
  type: "ReLU"
  bottom: "conv2"
  top: "conv2"
}
layer {
  name: "norm2"
  type: "LRN"
  bottom: "conv2"
  top: "norm2"
  lrn_param {
    local_size: 5
    alpha: 0.0001
    beta: 0.75
  }
}
layer {
  name: "pool2"
  type: "Pooling"
  bottom: "norm2"
  top: "pool2"
  pooling_param {
    pool: MAX
    kernel_size: 3
    stride: 2
  }
}
layer {
  name: "conv3"
  type: "Convolution"
  bottom: "pool2"
  top: "conv3"
  param {
    lr_mult: 1
    decay_mult: 1
  }
  param {
    lr_mult: 2
    decay_mult: 0
  }
  convolution_param {
    num_output: 384
    pad: 1
    kernel_size: 3
    weight_filler {
      type: "gaussian"
      std: 0.01
    }
    bias_filler {
      type: "constant"
      value: 0
    }
  }
}
layer {
  name: "relu3"
  type: "ReLU"
  bottom: "conv3"
  top: "conv3"
}
layer {
  name: "conv4"
  type: "Convolution"
  bottom: "conv3"
  top: "conv4"
  param {
    lr_mult: 1
    decay_mult: 1
  }
  param {
    lr_mult: 2
    decay_mult: 0
  }
  convolution_param {
    num_output: 384
    pad: 1
    kernel_size: 3
    group: 2
    weight_filler {
      type: "gaussian"
      std: 0.01
    }
    bias_filler {
      type: "constant"
      value: 0.1
    }
  }
}
layer {
  name: "relu4"
  type: "ReLU"
  bottom: "conv4"
  top: "conv4"
}
layer {
  name: "conv5"
  type: "Convolution"
  bottom: "conv4"
  top: "conv5"
  param {
    lr_mult: 1
    decay_mult: 1
  }
  param {
    lr_mult: 2
    decay_mult: 0
  }
  convolution_param {
    num_output: 256
    pad: 1
    kernel_size: 3
    group: 2
    weight_filler {
      type: "gaussian"
      std: 0.01
    }
    bias_filler {
      type: "constant"
      value: 0.1
    }
  }
}
layer {
  name: "relu5"
  type: "ReLU"
  bottom: "conv5"
  top: "conv5"
}
layer {
  name: "pool5"
  type: "Pooling"
  bottom: "conv5"
  top: "pool5"
  pooling_param {
    pool: MAX
    kernel_size: 3
    stride: 2
  }
}
layer {
  name: "fc6"
  type: "InnerProduct"
  bottom: "pool5"
  top: "fc6"
  param {
    lr_mult: 1
    decay_mult: 1
  }
  param {
    lr_mult: 2
    decay_mult: 0
  }
  inner_product_param {
    num_output: 4096
    weight_filler {
      type: "gaussian"
      std: 0.005
    }
    bias_filler {
      type: "constant"
      value: 0.1
    }
  }
}
layer {
  name: "relu6"
  type: "ReLU"
  bottom: "fc6"
  top: "fc6"
}
layer {
  name: "drop6"
  type: "Dropout"
  bottom: "fc6"
  top: "fc6"
  dropout_param {
    dropout_ratio: 0.5
  }
}
layer {
  name: "fc7"
  type: "InnerProduct"
  bottom: "fc6"
  top: "fc7"
  param {
    lr_mult: 1
    decay_mult: 1
  }
  param {
    lr_mult: 2
    decay_mult: 0
  }
  inner_product_param {
    num_output: 4096
    weight_filler {
      type: "gaussian"
      std: 0.005
    }
    bias_filler {
      type: "constant"
      value: 0.1
    }
  }
}
layer {
  name: "relu7"
  type: "ReLU"
  bottom: "fc7"
  top: "fc7"
}
layer {
  name: "drop7"
  type: "Dropout"
  bottom: "fc7"
  top: "fc7"
  dropout_param {
    dropout_ratio: 0.5
  }
}
layer {
  name: "fc8_plantvillage"
  type: "InnerProduct"
  bottom: "fc7"
  top: "fc8_plantvillage"
  param {
    lr_mult: 1
    decay_mult: 1
  }
  param {
    lr_mult: 2
    decay_mult: 0
  }
  inner_product_param {
    num_output: 38
    weight_filler {
      type: "gaussian"
      std: 0.01
    }
    bias_filler {
      type: "constant"
      value: 0
    }
  }
}
layer {
  name: "prob"
  type: "Softmax"
  bottom: "fc8_plantvillage"
  top: "prob"
  include {
    phase: TEST
  }
}
layer {
  name: "hdf5out"
  type: "HDF5Output"
  bottom: "prob"
  bottom: "label"
  include {
    phase: TEST
  }
  hdf5_output_param {
    file_name: "hdf5_dumps/iter_2152.h5"
  }
}
layer {
  name: "loss"
  type: "SoftmaxWithLoss"
  bottom: "fc8_plantvillage"
  bottom: "label"
  top: "loss"
}
layer {
  name: "accuracy"
  type: "Accuracy"
  bottom: "fc8_plantvillage"
  bottom: "label"
  top: "accuracy"
  include {
    phase: TEST
  }
}
I0403 14:49:50.021200  8053 layer_factory.hpp:77] Creating layer data
I0403 14:49:50.021858  8053 net.cpp:91] Creating Layer data
I0403 14:49:50.021888  8053 net.cpp:399] data -> data
I0403 14:49:50.021941  8053 net.cpp:399] data -> label
I0403 14:49:50.021983  8053 data_transformer.cpp:25] Loading mean file from: /home/mohanty/data/final_dataset/lmdb/color-50-50/mean.binaryproto
I0403 14:49:50.024761  8055 db_lmdb.cpp:38] Opened lmdb /home/mohanty/data/final_dataset/lmdb/color-50-50/test_db
I0403 14:49:50.036532  8053 data_layer.cpp:41] output data size: 100,3,227,227
I0403 14:49:50.157901  8053 net.cpp:141] Setting up data
I0403 14:49:50.158010  8053 net.cpp:148] Top shape: 100 3 227 227 (15458700)
I0403 14:49:50.158035  8053 net.cpp:148] Top shape: 100 (100)
I0403 14:49:50.158052  8053 net.cpp:156] Memory required for data: 61835200
I0403 14:49:50.158082  8053 layer_factory.hpp:77] Creating layer label_data_1_split
I0403 14:49:50.158108  8053 net.cpp:91] Creating Layer label_data_1_split
I0403 14:49:50.158128  8053 net.cpp:425] label_data_1_split <- label
I0403 14:49:50.158160  8053 net.cpp:399] label_data_1_split -> label_data_1_split_0
I0403 14:49:50.158190  8053 net.cpp:399] label_data_1_split -> label_data_1_split_1
I0403 14:49:50.158212  8053 net.cpp:399] label_data_1_split -> label_data_1_split_2
I0403 14:49:50.158278  8053 net.cpp:141] Setting up label_data_1_split
I0403 14:49:50.158301  8053 net.cpp:148] Top shape: 100 (100)
I0403 14:49:50.158318  8053 net.cpp:148] Top shape: 100 (100)
I0403 14:49:50.158335  8053 net.cpp:148] Top shape: 100 (100)
I0403 14:49:50.158350  8053 net.cpp:156] Memory required for data: 61836400
I0403 14:49:50.158365  8053 layer_factory.hpp:77] Creating layer conv1
I0403 14:49:50.158396  8053 net.cpp:91] Creating Layer conv1
I0403 14:49:50.158416  8053 net.cpp:425] conv1 <- data
I0403 14:49:50.158435  8053 net.cpp:399] conv1 -> conv1
I0403 14:49:50.301769  8053 net.cpp:141] Setting up conv1
I0403 14:49:50.301859  8053 net.cpp:148] Top shape: 100 96 55 55 (29040000)
I0403 14:49:50.301877  8053 net.cpp:156] Memory required for data: 177996400
I0403 14:49:50.301908  8053 layer_factory.hpp:77] Creating layer relu1
I0403 14:49:50.301937  8053 net.cpp:91] Creating Layer relu1
I0403 14:49:50.301960  8053 net.cpp:425] relu1 <- conv1
I0403 14:49:50.301980  8053 net.cpp:386] relu1 -> conv1 (in-place)
I0403 14:49:50.302230  8053 net.cpp:141] Setting up relu1
I0403 14:49:50.302258  8053 net.cpp:148] Top shape: 100 96 55 55 (29040000)
I0403 14:49:50.302273  8053 net.cpp:156] Memory required for data: 294156400
I0403 14:49:50.302320  8053 layer_factory.hpp:77] Creating layer norm1
I0403 14:49:50.302348  8053 net.cpp:91] Creating Layer norm1
I0403 14:49:50.302366  8053 net.cpp:425] norm1 <- conv1
I0403 14:49:50.302383  8053 net.cpp:399] norm1 -> norm1
I0403 14:49:50.302685  8053 net.cpp:141] Setting up norm1
I0403 14:49:50.302711  8053 net.cpp:148] Top shape: 100 96 55 55 (29040000)
I0403 14:49:50.302727  8053 net.cpp:156] Memory required for data: 410316400
I0403 14:49:50.302742  8053 layer_factory.hpp:77] Creating layer pool1
I0403 14:49:50.302767  8053 net.cpp:91] Creating Layer pool1
I0403 14:49:50.302783  8053 net.cpp:425] pool1 <- norm1
I0403 14:49:50.302801  8053 net.cpp:399] pool1 -> pool1
I0403 14:49:50.302867  8053 net.cpp:141] Setting up pool1
I0403 14:49:50.302891  8053 net.cpp:148] Top shape: 100 96 27 27 (6998400)
I0403 14:49:50.302906  8053 net.cpp:156] Memory required for data: 438310000
I0403 14:49:50.302920  8053 layer_factory.hpp:77] Creating layer conv2
I0403 14:49:50.302949  8053 net.cpp:91] Creating Layer conv2
I0403 14:49:50.302966  8053 net.cpp:425] conv2 <- pool1
I0403 14:49:50.302985  8053 net.cpp:399] conv2 -> conv2
I0403 14:49:50.317445  8053 net.cpp:141] Setting up conv2
I0403 14:49:50.317481  8053 net.cpp:148] Top shape: 100 256 27 27 (18662400)
I0403 14:49:50.317499  8053 net.cpp:156] Memory required for data: 512959600
I0403 14:49:50.317523  8053 layer_factory.hpp:77] Creating layer relu2
I0403 14:49:50.317545  8053 net.cpp:91] Creating Layer relu2
I0403 14:49:50.317564  8053 net.cpp:425] relu2 <- conv2
I0403 14:49:50.317581  8053 net.cpp:386] relu2 -> conv2 (in-place)
I0403 14:49:50.317845  8053 net.cpp:141] Setting up relu2
I0403 14:49:50.317872  8053 net.cpp:148] Top shape: 100 256 27 27 (18662400)
I0403 14:49:50.317888  8053 net.cpp:156] Memory required for data: 587609200
I0403 14:49:50.317903  8053 layer_factory.hpp:77] Creating layer norm2
I0403 14:49:50.317922  8053 net.cpp:91] Creating Layer norm2
I0403 14:49:50.317939  8053 net.cpp:425] norm2 <- conv2
I0403 14:49:50.317963  8053 net.cpp:399] norm2 -> norm2
I0403 14:49:50.318141  8053 net.cpp:141] Setting up norm2
I0403 14:49:50.318166  8053 net.cpp:148] Top shape: 100 256 27 27 (18662400)
I0403 14:49:50.318181  8053 net.cpp:156] Memory required for data: 662258800
I0403 14:49:50.318197  8053 layer_factory.hpp:77] Creating layer pool2
I0403 14:49:50.318217  8053 net.cpp:91] Creating Layer pool2
I0403 14:49:50.318233  8053 net.cpp:425] pool2 <- norm2
I0403 14:49:50.318249  8053 net.cpp:399] pool2 -> pool2
I0403 14:49:50.318298  8053 net.cpp:141] Setting up pool2
I0403 14:49:50.318320  8053 net.cpp:148] Top shape: 100 256 13 13 (4326400)
I0403 14:49:50.318336  8053 net.cpp:156] Memory required for data: 679564400
I0403 14:49:50.318351  8053 layer_factory.hpp:77] Creating layer conv3
I0403 14:49:50.318372  8053 net.cpp:91] Creating Layer conv3
I0403 14:49:50.318388  8053 net.cpp:425] conv3 <- pool2
I0403 14:49:50.318405  8053 net.cpp:399] conv3 -> conv3
I0403 14:49:50.358813  8053 net.cpp:141] Setting up conv3
I0403 14:49:50.358871  8053 net.cpp:148] Top shape: 100 384 13 13 (6489600)
I0403 14:49:50.358888  8053 net.cpp:156] Memory required for data: 705522800
I0403 14:49:50.358913  8053 layer_factory.hpp:77] Creating layer relu3
I0403 14:49:50.358934  8053 net.cpp:91] Creating Layer relu3
I0403 14:49:50.358964  8053 net.cpp:425] relu3 <- conv3
I0403 14:49:50.358986  8053 net.cpp:386] relu3 -> conv3 (in-place)
I0403 14:49:50.359256  8053 net.cpp:141] Setting up relu3
I0403 14:49:50.359282  8053 net.cpp:148] Top shape: 100 384 13 13 (6489600)
I0403 14:49:50.359297  8053 net.cpp:156] Memory required for data: 731481200
I0403 14:49:50.359313  8053 layer_factory.hpp:77] Creating layer conv4
I0403 14:49:50.359338  8053 net.cpp:91] Creating Layer conv4
I0403 14:49:50.359355  8053 net.cpp:425] conv4 <- conv3
I0403 14:49:50.359375  8053 net.cpp:399] conv4 -> conv4
I0403 14:49:50.388273  8053 net.cpp:141] Setting up conv4
I0403 14:49:50.388314  8053 net.cpp:148] Top shape: 100 384 13 13 (6489600)
I0403 14:49:50.388360  8053 net.cpp:156] Memory required for data: 757439600
I0403 14:49:50.388380  8053 layer_factory.hpp:77] Creating layer relu4
I0403 14:49:50.388398  8053 net.cpp:91] Creating Layer relu4
I0403 14:49:50.388416  8053 net.cpp:425] relu4 <- conv4
I0403 14:49:50.388434  8053 net.cpp:386] relu4 -> conv4 (in-place)
I0403 14:49:50.388703  8053 net.cpp:141] Setting up relu4
I0403 14:49:50.388730  8053 net.cpp:148] Top shape: 100 384 13 13 (6489600)
I0403 14:49:50.388746  8053 net.cpp:156] Memory required for data: 783398000
I0403 14:49:50.388761  8053 layer_factory.hpp:77] Creating layer conv5
I0403 14:49:50.388784  8053 net.cpp:91] Creating Layer conv5
I0403 14:49:50.388802  8053 net.cpp:425] conv5 <- conv4
I0403 14:49:50.388823  8053 net.cpp:399] conv5 -> conv5
I0403 14:49:50.408700  8053 net.cpp:141] Setting up conv5
I0403 14:49:50.408733  8053 net.cpp:148] Top shape: 100 256 13 13 (4326400)
I0403 14:49:50.408749  8053 net.cpp:156] Memory required for data: 800703600
I0403 14:49:50.408776  8053 layer_factory.hpp:77] Creating layer relu5
I0403 14:49:50.408795  8053 net.cpp:91] Creating Layer relu5
I0403 14:49:50.408810  8053 net.cpp:425] relu5 <- conv5
I0403 14:49:50.408828  8053 net.cpp:386] relu5 -> conv5 (in-place)
I0403 14:49:50.409109  8053 net.cpp:141] Setting up relu5
I0403 14:49:50.409137  8053 net.cpp:148] Top shape: 100 256 13 13 (4326400)
I0403 14:49:50.409152  8053 net.cpp:156] Memory required for data: 818009200
I0403 14:49:50.409168  8053 layer_factory.hpp:77] Creating layer pool5
I0403 14:49:50.409191  8053 net.cpp:91] Creating Layer pool5
I0403 14:49:50.409210  8053 net.cpp:425] pool5 <- conv5
I0403 14:49:50.409229  8053 net.cpp:399] pool5 -> pool5
I0403 14:49:50.409291  8053 net.cpp:141] Setting up pool5
I0403 14:49:50.409314  8053 net.cpp:148] Top shape: 100 256 6 6 (921600)
I0403 14:49:50.409329  8053 net.cpp:156] Memory required for data: 821695600
I0403 14:49:50.409344  8053 layer_factory.hpp:77] Creating layer fc6
I0403 14:49:50.409373  8053 net.cpp:91] Creating Layer fc6
I0403 14:49:50.409391  8053 net.cpp:425] fc6 <- pool5
I0403 14:49:50.409409  8053 net.cpp:399] fc6 -> fc6
I0403 14:49:51.925159  8053 net.cpp:141] Setting up fc6
I0403 14:49:51.925251  8053 net.cpp:148] Top shape: 100 4096 (409600)
I0403 14:49:51.925269  8053 net.cpp:156] Memory required for data: 823334000
I0403 14:49:51.925290  8053 layer_factory.hpp:77] Creating layer relu6
I0403 14:49:51.925313  8053 net.cpp:91] Creating Layer relu6
I0403 14:49:51.925331  8053 net.cpp:425] relu6 <- fc6
I0403 14:49:51.925354  8053 net.cpp:386] relu6 -> fc6 (in-place)
I0403 14:49:51.925565  8053 net.cpp:141] Setting up relu6
I0403 14:49:51.925590  8053 net.cpp:148] Top shape: 100 4096 (409600)
I0403 14:49:51.925603  8053 net.cpp:156] Memory required for data: 824972400
I0403 14:49:51.925617  8053 layer_factory.hpp:77] Creating layer drop6
I0403 14:49:51.925638  8053 net.cpp:91] Creating Layer drop6
I0403 14:49:51.925654  8053 net.cpp:425] drop6 <- fc6
I0403 14:49:51.925671  8053 net.cpp:386] drop6 -> fc6 (in-place)
I0403 14:49:51.925724  8053 net.cpp:141] Setting up drop6
I0403 14:49:51.925746  8053 net.cpp:148] Top shape: 100 4096 (409600)
I0403 14:49:51.925760  8053 net.cpp:156] Memory required for data: 826610800
I0403 14:49:51.925775  8053 layer_factory.hpp:77] Creating layer fc7
I0403 14:49:51.925794  8053 net.cpp:91] Creating Layer fc7
I0403 14:49:51.925809  8053 net.cpp:425] fc7 <- fc6
I0403 14:49:51.925829  8053 net.cpp:399] fc7 -> fc7
I0403 14:49:52.593850  8053 net.cpp:141] Setting up fc7
I0403 14:49:52.593938  8053 net.cpp:148] Top shape: 100 4096 (409600)
I0403 14:49:52.593960  8053 net.cpp:156] Memory required for data: 828249200
I0403 14:49:52.593981  8053 layer_factory.hpp:77] Creating layer relu7
I0403 14:49:52.594007  8053 net.cpp:91] Creating Layer relu7
I0403 14:49:52.594025  8053 net.cpp:425] relu7 <- fc7
I0403 14:49:52.594044  8053 net.cpp:386] relu7 -> fc7 (in-place)
I0403 14:49:52.594429  8053 net.cpp:141] Setting up relu7
I0403 14:49:52.594455  8053 net.cpp:148] Top shape: 100 4096 (409600)
I0403 14:49:52.594501  8053 net.cpp:156] Memory required for data: 829887600
I0403 14:49:52.594516  8053 layer_factory.hpp:77] Creating layer drop7
I0403 14:49:52.594535  8053 net.cpp:91] Creating Layer drop7
I0403 14:49:52.594550  8053 net.cpp:425] drop7 <- fc7
I0403 14:49:52.594568  8053 net.cpp:386] drop7 -> fc7 (in-place)
I0403 14:49:52.594614  8053 net.cpp:141] Setting up drop7
I0403 14:49:52.594635  8053 net.cpp:148] Top shape: 100 4096 (409600)
I0403 14:49:52.594650  8053 net.cpp:156] Memory required for data: 831526000
I0403 14:49:52.594665  8053 layer_factory.hpp:77] Creating layer fc8_plantvillage
I0403 14:49:52.594683  8053 net.cpp:91] Creating Layer fc8_plantvillage
I0403 14:49:52.594697  8053 net.cpp:425] fc8_plantvillage <- fc7
I0403 14:49:52.594718  8053 net.cpp:399] fc8_plantvillage -> fc8_plantvillage
I0403 14:49:52.601325  8053 net.cpp:141] Setting up fc8_plantvillage
I0403 14:49:52.601354  8053 net.cpp:148] Top shape: 100 38 (3800)
I0403 14:49:52.601371  8053 net.cpp:156] Memory required for data: 831541200
I0403 14:49:52.601389  8053 layer_factory.hpp:77] Creating layer fc8_plantvillage_fc8_plantvillage_0_split
I0403 14:49:52.601407  8053 net.cpp:91] Creating Layer fc8_plantvillage_fc8_plantvillage_0_split
I0403 14:49:52.601423  8053 net.cpp:425] fc8_plantvillage_fc8_plantvillage_0_split <- fc8_plantvillage
I0403 14:49:52.601439  8053 net.cpp:399] fc8_plantvillage_fc8_plantvillage_0_split -> fc8_plantvillage_fc8_plantvillage_0_split_0
I0403 14:49:52.601459  8053 net.cpp:399] fc8_plantvillage_fc8_plantvillage_0_split -> fc8_plantvillage_fc8_plantvillage_0_split_1
I0403 14:49:52.601478  8053 net.cpp:399] fc8_plantvillage_fc8_plantvillage_0_split -> fc8_plantvillage_fc8_plantvillage_0_split_2
I0403 14:49:52.601577  8053 net.cpp:141] Setting up fc8_plantvillage_fc8_plantvillage_0_split
I0403 14:49:52.601598  8053 net.cpp:148] Top shape: 100 38 (3800)
I0403 14:49:52.601615  8053 net.cpp:148] Top shape: 100 38 (3800)
I0403 14:49:52.601631  8053 net.cpp:148] Top shape: 100 38 (3800)
I0403 14:49:52.601644  8053 net.cpp:156] Memory required for data: 831586800
I0403 14:49:52.601660  8053 layer_factory.hpp:77] Creating layer prob
I0403 14:49:52.601677  8053 net.cpp:91] Creating Layer prob
I0403 14:49:52.601692  8053 net.cpp:425] prob <- fc8_plantvillage_fc8_plantvillage_0_split_0
I0403 14:49:52.601711  8053 net.cpp:399] prob -> prob
I0403 14:49:52.601949  8053 net.cpp:141] Setting up prob
I0403 14:49:52.601974  8053 net.cpp:148] Top shape: 100 38 (3800)
I0403 14:49:52.601989  8053 net.cpp:156] Memory required for data: 831602000
I0403 14:49:52.602005  8053 layer_factory.hpp:77] Creating layer hdf5out
I0403 14:49:52.602027  8053 net.cpp:91] Creating Layer hdf5out
I0403 14:49:52.602043  8053 net.cpp:425] hdf5out <- prob
I0403 14:49:52.602059  8053 net.cpp:425] hdf5out <- label_data_1_split_0
I0403 14:49:52.604491  8053 net.cpp:141] Setting up hdf5out
…
