…
I0403 15:03:35.073997  8878 net.cpp:313] The NetState phase (1) differed from the phase (0) specified by a rule in layer data
I0403 15:03:35.074306  8878 net.cpp:49] Initializing net from parameters: 
state {
  phase: TEST
}
layer {
  name: "data"
  type: "Data"
  top: "data"
  top: "label"
  include {
    phase: TEST
  }
  transform_param {
    crop_size: 227
    mean_file: "/home/mohanty/data/final_dataset/lmdb/color-50-50/mean.binaryproto"
  }
  data_param {
    source: "/home/mohanty/data/final_dataset/lmdb/color-50-50/test_db"
    batch_size: 100
    backend: LMDB
  }
}
layer {
  name: "conv1"
  type: "Convolution"
  bottom: "data"
  top: "conv1"
  param {
    lr_mult: 1
    decay_mult: 1
  }
  param {
    lr_mult: 2
    decay_mult: 0
  }
  convolution_param {
    num_output: 96
    kernel_size: 11
    stride: 4
    weight_filler {
      type: "gaussian"
      std: 0.01
    }
    bias_filler {
      type: "constant"
      value: 0
    }
  }
}
layer {
  name: "relu1"
  type: "ReLU"
  bottom: "conv1"
  top: "conv1"
}
layer {
  name: "norm1"
  type: "LRN"
  bottom: "conv1"
  top: "norm1"
  lrn_param {
    local_size: 5
    alpha: 0.0001
    beta: 0.75
  }
}
layer {
  name: "pool1"
  type: "Pooling"
  bottom: "norm1"
  top: "pool1"
  pooling_param {
    pool: MAX
    kernel_size: 3
    stride: 2
  }
}
layer {
  name: "conv2"
  type: "Convolution"
  bottom: "pool1"
  top: "conv2"
  param {
    lr_mult: 1
    decay_mult: 1
  }
  param {
    lr_mult: 2
    decay_mult: 0
  }
  convolution_param {
    num_output: 256
    pad: 2
    kernel_size: 5
    group: 2
    weight_filler {
      type: "gaussian"
      std: 0.01
    }
    bias_filler {
      type: "constant"
      value: 0.1
    }
  }
}
layer {
  name: "relu2"
  type: "ReLU"
  bottom: "conv2"
  top: "conv2"
}
layer {
  name: "norm2"
  type: "LRN"
  bottom: "conv2"
  top: "norm2"
  lrn_param {
    local_size: 5
    alpha: 0.0001
    beta: 0.75
  }
}
layer {
  name: "pool2"
  type: "Pooling"
  bottom: "norm2"
  top: "pool2"
  pooling_param {
    pool: MAX
    kernel_size: 3
    stride: 2
  }
}
layer {
  name: "conv3"
  type: "Convolution"
  bottom: "pool2"
  top: "conv3"
  param {
    lr_mult: 1
    decay_mult: 1
  }
  param {
    lr_mult: 2
    decay_mult: 0
  }
  convolution_param {
    num_output: 384
    pad: 1
    kernel_size: 3
    weight_filler {
      type: "gaussian"
      std: 0.01
    }
    bias_filler {
      type: "constant"
      value: 0
    }
  }
}
layer {
  name: "relu3"
  type: "ReLU"
  bottom: "conv3"
  top: "conv3"
}
layer {
  name: "conv4"
  type: "Convolution"
  bottom: "conv3"
  top: "conv4"
  param {
    lr_mult: 1
    decay_mult: 1
  }
  param {
    lr_mult: 2
    decay_mult: 0
  }
  convolution_param {
    num_output: 384
    pad: 1
    kernel_size: 3
    group: 2
    weight_filler {
      type: "gaussian"
      std: 0.01
    }
    bias_filler {
      type: "constant"
      value: 0.1
    }
  }
}
layer {
  name: "relu4"
  type: "ReLU"
  bottom: "conv4"
  top: "conv4"
}
layer {
  name: "conv5"
  type: "Convolution"
  bottom: "conv4"
  top: "conv5"
  param {
    lr_mult: 1
    decay_mult: 1
  }
  param {
    lr_mult: 2
    decay_mult: 0
  }
  convolution_param {
    num_output: 256
    pad: 1
    kernel_size: 3
    group: 2
    weight_filler {
      type: "gaussian"
      std: 0.01
    }
    bias_filler {
      type: "constant"
      value: 0.1
    }
  }
}
layer {
  name: "relu5"
  type: "ReLU"
  bottom: "conv5"
  top: "conv5"
}
layer {
  name: "pool5"
  type: "Pooling"
  bottom: "conv5"
  top: "pool5"
  pooling_param {
    pool: MAX
    kernel_size: 3
    stride: 2
  }
}
layer {
  name: "fc6"
  type: "InnerProduct"
  bottom: "pool5"
  top: "fc6"
  param {
    lr_mult: 1
    decay_mult: 1
  }
  param {
    lr_mult: 2
    decay_mult: 0
  }
  inner_product_param {
    num_output: 4096
    weight_filler {
      type: "gaussian"
      std: 0.005
    }
    bias_filler {
      type: "constant"
      value: 0.1
    }
  }
}
layer {
  name: "relu6"
  type: "ReLU"
  bottom: "fc6"
  top: "fc6"
}
layer {
  name: "drop6"
  type: "Dropout"
  bottom: "fc6"
  top: "fc6"
  dropout_param {
    dropout_ratio: 0.5
  }
}
layer {
  name: "fc7"
  type: "InnerProduct"
  bottom: "fc6"
  top: "fc7"
  param {
    lr_mult: 1
    decay_mult: 1
  }
  param {
    lr_mult: 2
    decay_mult: 0
  }
  inner_product_param {
    num_output: 4096
    weight_filler {
      type: "gaussian"
      std: 0.005
    }
    bias_filler {
      type: "constant"
      value: 0.1
    }
  }
}
layer {
  name: "relu7"
  type: "ReLU"
  bottom: "fc7"
  top: "fc7"
}
layer {
  name: "drop7"
  type: "Dropout"
  bottom: "fc7"
  top: "fc7"
  dropout_param {
    dropout_ratio: 0.5
  }
}
layer {
  name: "fc8_plantvillage"
  type: "InnerProduct"
  bottom: "fc7"
  top: "fc8_plantvillage"
  param {
    lr_mult: 1
    decay_mult: 1
  }
  param {
    lr_mult: 2
    decay_mult: 0
  }
  inner_product_param {
    num_output: 38
    weight_filler {
      type: "gaussian"
      std: 0.01
    }
    bias_filler {
      type: "constant"
      value: 0
    }
  }
}
layer {
  name: "prob"
  type: "Softmax"
  bottom: "fc8_plantvillage"
  top: "prob"
  include {
    phase: TEST
  }
}
layer {
  name: "hdf5out"
  type: "HDF5Output"
  bottom: "prob"
  bottom: "label"
  include {
    phase: TEST
  }
  hdf5_output_param {
    file_name: "hdf5_dumps/iter_6187.h5"
  }
}
layer {
  name: "loss"
  type: "SoftmaxWithLoss"
  bottom: "fc8_plantvillage"
  bottom: "label"
  top: "loss"
}
layer {
  name: "accuracy"
  type: "Accuracy"
  bottom: "fc8_plantvillage"
  bottom: "label"
  top: "accuracy"
  include {
    phase: TEST
  }
}
I0403 15:03:35.074810  8878 layer_factory.hpp:77] Creating layer data
I0403 15:03:35.075479  8878 net.cpp:91] Creating Layer data
I0403 15:03:35.075512  8878 net.cpp:399] data -> data
I0403 15:03:35.075564  8878 net.cpp:399] data -> label
I0403 15:03:35.075603  8878 data_transformer.cpp:25] Loading mean file from: /home/mohanty/data/final_dataset/lmdb/color-50-50/mean.binaryproto
I0403 15:03:35.078294  8882 db_lmdb.cpp:38] Opened lmdb /home/mohanty/data/final_dataset/lmdb/color-50-50/test_db
I0403 15:03:35.090014  8878 data_layer.cpp:41] output data size: 100,3,227,227
I0403 15:03:35.210372  8878 net.cpp:141] Setting up data
I0403 15:03:35.210476  8878 net.cpp:148] Top shape: 100 3 227 227 (15458700)
I0403 15:03:35.210500  8878 net.cpp:148] Top shape: 100 (100)
I0403 15:03:35.210515  8878 net.cpp:156] Memory required for data: 61835200
I0403 15:03:35.210543  8878 layer_factory.hpp:77] Creating layer label_data_1_split
I0403 15:03:35.210571  8878 net.cpp:91] Creating Layer label_data_1_split
I0403 15:03:35.210589  8878 net.cpp:425] label_data_1_split <- label
I0403 15:03:35.210620  8878 net.cpp:399] label_data_1_split -> label_data_1_split_0
I0403 15:03:35.210649  8878 net.cpp:399] label_data_1_split -> label_data_1_split_1
I0403 15:03:35.210670  8878 net.cpp:399] label_data_1_split -> label_data_1_split_2
I0403 15:03:35.210733  8878 net.cpp:141] Setting up label_data_1_split
I0403 15:03:35.210757  8878 net.cpp:148] Top shape: 100 (100)
I0403 15:03:35.210774  8878 net.cpp:148] Top shape: 100 (100)
I0403 15:03:35.210789  8878 net.cpp:148] Top shape: 100 (100)
I0403 15:03:35.210804  8878 net.cpp:156] Memory required for data: 61836400
I0403 15:03:35.210819  8878 layer_factory.hpp:77] Creating layer conv1
I0403 15:03:35.210850  8878 net.cpp:91] Creating Layer conv1
I0403 15:03:35.210868  8878 net.cpp:425] conv1 <- data
I0403 15:03:35.210887  8878 net.cpp:399] conv1 -> conv1
I0403 15:03:35.355325  8878 net.cpp:141] Setting up conv1
I0403 15:03:35.355412  8878 net.cpp:148] Top shape: 100 96 55 55 (29040000)
I0403 15:03:35.355432  8878 net.cpp:156] Memory required for data: 177996400
I0403 15:03:35.355474  8878 layer_factory.hpp:77] Creating layer relu1
I0403 15:03:35.355502  8878 net.cpp:91] Creating Layer relu1
I0403 15:03:35.355521  8878 net.cpp:425] relu1 <- conv1
I0403 15:03:35.355543  8878 net.cpp:386] relu1 -> conv1 (in-place)
I0403 15:03:35.355832  8878 net.cpp:141] Setting up relu1
I0403 15:03:35.355859  8878 net.cpp:148] Top shape: 100 96 55 55 (29040000)
I0403 15:03:35.355876  8878 net.cpp:156] Memory required for data: 294156400
I0403 15:03:35.355936  8878 layer_factory.hpp:77] Creating layer norm1
I0403 15:03:35.355965  8878 net.cpp:91] Creating Layer norm1
I0403 15:03:35.355988  8878 net.cpp:425] norm1 <- conv1
I0403 15:03:35.356008  8878 net.cpp:399] norm1 -> norm1
I0403 15:03:35.356371  8878 net.cpp:141] Setting up norm1
I0403 15:03:35.356400  8878 net.cpp:148] Top shape: 100 96 55 55 (29040000)
I0403 15:03:35.356415  8878 net.cpp:156] Memory required for data: 410316400
I0403 15:03:35.356431  8878 layer_factory.hpp:77] Creating layer pool1
I0403 15:03:35.356456  8878 net.cpp:91] Creating Layer pool1
I0403 15:03:35.356473  8878 net.cpp:425] pool1 <- norm1
I0403 15:03:35.356492  8878 net.cpp:399] pool1 -> pool1
I0403 15:03:35.356562  8878 net.cpp:141] Setting up pool1
I0403 15:03:35.356586  8878 net.cpp:148] Top shape: 100 96 27 27 (6998400)
I0403 15:03:35.356602  8878 net.cpp:156] Memory required for data: 438310000
I0403 15:03:35.356617  8878 layer_factory.hpp:77] Creating layer conv2
I0403 15:03:35.356643  8878 net.cpp:91] Creating Layer conv2
I0403 15:03:35.356660  8878 net.cpp:425] conv2 <- pool1
I0403 15:03:35.356681  8878 net.cpp:399] conv2 -> conv2
I0403 15:03:35.371765  8878 net.cpp:141] Setting up conv2
I0403 15:03:35.371801  8878 net.cpp:148] Top shape: 100 256 27 27 (18662400)
I0403 15:03:35.371819  8878 net.cpp:156] Memory required for data: 512959600
I0403 15:03:35.371866  8878 layer_factory.hpp:77] Creating layer relu2
I0403 15:03:35.371896  8878 net.cpp:91] Creating Layer relu2
I0403 15:03:35.371915  8878 net.cpp:425] relu2 <- conv2
I0403 15:03:35.371932  8878 net.cpp:386] relu2 -> conv2 (in-place)
I0403 15:03:35.372210  8878 net.cpp:141] Setting up relu2
I0403 15:03:35.372236  8878 net.cpp:148] Top shape: 100 256 27 27 (18662400)
I0403 15:03:35.372251  8878 net.cpp:156] Memory required for data: 587609200
I0403 15:03:35.372267  8878 layer_factory.hpp:77] Creating layer norm2
I0403 15:03:35.372289  8878 net.cpp:91] Creating Layer norm2
I0403 15:03:35.372308  8878 net.cpp:425] norm2 <- conv2
I0403 15:03:35.372328  8878 net.cpp:399] norm2 -> norm2
I0403 15:03:35.372521  8878 net.cpp:141] Setting up norm2
I0403 15:03:35.372546  8878 net.cpp:148] Top shape: 100 256 27 27 (18662400)
I0403 15:03:35.372561  8878 net.cpp:156] Memory required for data: 662258800
I0403 15:03:35.372577  8878 layer_factory.hpp:77] Creating layer pool2
I0403 15:03:35.372598  8878 net.cpp:91] Creating Layer pool2
I0403 15:03:35.372614  8878 net.cpp:425] pool2 <- norm2
I0403 15:03:35.372632  8878 net.cpp:399] pool2 -> pool2
I0403 15:03:35.372689  8878 net.cpp:141] Setting up pool2
I0403 15:03:35.372711  8878 net.cpp:148] Top shape: 100 256 13 13 (4326400)
I0403 15:03:35.372726  8878 net.cpp:156] Memory required for data: 679564400
I0403 15:03:35.372740  8878 layer_factory.hpp:77] Creating layer conv3
I0403 15:03:35.372762  8878 net.cpp:91] Creating Layer conv3
I0403 15:03:35.372781  8878 net.cpp:425] conv3 <- pool2
I0403 15:03:35.372800  8878 net.cpp:399] conv3 -> conv3
I0403 15:03:35.410725  8878 net.cpp:141] Setting up conv3
I0403 15:03:35.410776  8878 net.cpp:148] Top shape: 100 384 13 13 (6489600)
I0403 15:03:35.410792  8878 net.cpp:156] Memory required for data: 705522800
I0403 15:03:35.410818  8878 layer_factory.hpp:77] Creating layer relu3
I0403 15:03:35.410840  8878 net.cpp:91] Creating Layer relu3
I0403 15:03:35.410856  8878 net.cpp:425] relu3 <- conv3
I0403 15:03:35.410872  8878 net.cpp:386] relu3 -> conv3 (in-place)
I0403 15:03:35.411149  8878 net.cpp:141] Setting up relu3
I0403 15:03:35.411175  8878 net.cpp:148] Top shape: 100 384 13 13 (6489600)
I0403 15:03:35.411190  8878 net.cpp:156] Memory required for data: 731481200
I0403 15:03:35.411206  8878 layer_factory.hpp:77] Creating layer conv4
I0403 15:03:35.411231  8878 net.cpp:91] Creating Layer conv4
I0403 15:03:35.411248  8878 net.cpp:425] conv4 <- conv3
I0403 15:03:35.411269  8878 net.cpp:399] conv4 -> conv4
I0403 15:03:35.440745  8878 net.cpp:141] Setting up conv4
I0403 15:03:35.440793  8878 net.cpp:148] Top shape: 100 384 13 13 (6489600)
I0403 15:03:35.440839  8878 net.cpp:156] Memory required for data: 757439600
I0403 15:03:35.440860  8878 layer_factory.hpp:77] Creating layer relu4
I0403 15:03:35.440882  8878 net.cpp:91] Creating Layer relu4
I0403 15:03:35.440899  8878 net.cpp:425] relu4 <- conv4
I0403 15:03:35.440919  8878 net.cpp:386] relu4 -> conv4 (in-place)
I0403 15:03:35.441233  8878 net.cpp:141] Setting up relu4
I0403 15:03:35.441261  8878 net.cpp:148] Top shape: 100 384 13 13 (6489600)
I0403 15:03:35.441275  8878 net.cpp:156] Memory required for data: 783398000
I0403 15:03:35.441290  8878 layer_factory.hpp:77] Creating layer conv5
I0403 15:03:35.441313  8878 net.cpp:91] Creating Layer conv5
I0403 15:03:35.441330  8878 net.cpp:425] conv5 <- conv4
I0403 15:03:35.441351  8878 net.cpp:399] conv5 -> conv5
I0403 15:03:35.461771  8878 net.cpp:141] Setting up conv5
I0403 15:03:35.461807  8878 net.cpp:148] Top shape: 100 256 13 13 (4326400)
I0403 15:03:35.461823  8878 net.cpp:156] Memory required for data: 800703600
I0403 15:03:35.461846  8878 layer_factory.hpp:77] Creating layer relu5
I0403 15:03:35.461870  8878 net.cpp:91] Creating Layer relu5
I0403 15:03:35.461889  8878 net.cpp:425] relu5 <- conv5
I0403 15:03:35.461906  8878 net.cpp:386] relu5 -> conv5 (in-place)
I0403 15:03:35.462187  8878 net.cpp:141] Setting up relu5
I0403 15:03:35.462213  8878 net.cpp:148] Top shape: 100 256 13 13 (4326400)
I0403 15:03:35.462229  8878 net.cpp:156] Memory required for data: 818009200
I0403 15:03:35.462244  8878 layer_factory.hpp:77] Creating layer pool5
I0403 15:03:35.462270  8878 net.cpp:91] Creating Layer pool5
I0403 15:03:35.462286  8878 net.cpp:425] pool5 <- conv5
I0403 15:03:35.462308  8878 net.cpp:399] pool5 -> pool5
I0403 15:03:35.462368  8878 net.cpp:141] Setting up pool5
I0403 15:03:35.462390  8878 net.cpp:148] Top shape: 100 256 6 6 (921600)
I0403 15:03:35.462405  8878 net.cpp:156] Memory required for data: 821695600
I0403 15:03:35.462420  8878 layer_factory.hpp:77] Creating layer fc6
I0403 15:03:35.462450  8878 net.cpp:91] Creating Layer fc6
I0403 15:03:35.462467  8878 net.cpp:425] fc6 <- pool5
I0403 15:03:35.462486  8878 net.cpp:399] fc6 -> fc6
I0403 15:03:37.047451  8878 net.cpp:141] Setting up fc6
I0403 15:03:37.047535  8878 net.cpp:148] Top shape: 100 4096 (409600)
I0403 15:03:37.047552  8878 net.cpp:156] Memory required for data: 823334000
I0403 15:03:37.047574  8878 layer_factory.hpp:77] Creating layer relu6
I0403 15:03:37.047595  8878 net.cpp:91] Creating Layer relu6
I0403 15:03:37.047612  8878 net.cpp:425] relu6 <- fc6
I0403 15:03:37.047633  8878 net.cpp:386] relu6 -> fc6 (in-place)
I0403 15:03:37.047852  8878 net.cpp:141] Setting up relu6
I0403 15:03:37.047876  8878 net.cpp:148] Top shape: 100 4096 (409600)
I0403 15:03:37.047890  8878 net.cpp:156] Memory required for data: 824972400
I0403 15:03:37.047905  8878 layer_factory.hpp:77] Creating layer drop6
I0403 15:03:37.047925  8878 net.cpp:91] Creating Layer drop6
I0403 15:03:37.047942  8878 net.cpp:425] drop6 <- fc6
I0403 15:03:37.047960  8878 net.cpp:386] drop6 -> fc6 (in-place)
I0403 15:03:37.048017  8878 net.cpp:141] Setting up drop6
I0403 15:03:37.048040  8878 net.cpp:148] Top shape: 100 4096 (409600)
I0403 15:03:37.048054  8878 net.cpp:156] Memory required for data: 826610800
I0403 15:03:37.048069  8878 layer_factory.hpp:77] Creating layer fc7
I0403 15:03:37.048087  8878 net.cpp:91] Creating Layer fc7
I0403 15:03:37.048102  8878 net.cpp:425] fc7 <- fc6
I0403 15:03:37.048122  8878 net.cpp:399] fc7 -> fc7
I0403 15:03:37.718685  8878 net.cpp:141] Setting up fc7
I0403 15:03:37.718768  8878 net.cpp:148] Top shape: 100 4096 (409600)
I0403 15:03:37.718785  8878 net.cpp:156] Memory required for data: 828249200
I0403 15:03:37.718804  8878 layer_factory.hpp:77] Creating layer relu7
I0403 15:03:37.718830  8878 net.cpp:91] Creating Layer relu7
I0403 15:03:37.718849  8878 net.cpp:425] relu7 <- fc7
I0403 15:03:37.718868  8878 net.cpp:386] relu7 -> fc7 (in-place)
I0403 15:03:37.719279  8878 net.cpp:141] Setting up relu7
I0403 15:03:37.719305  8878 net.cpp:148] Top shape: 100 4096 (409600)
I0403 15:03:37.719348  8878 net.cpp:156] Memory required for data: 829887600
I0403 15:03:37.719365  8878 layer_factory.hpp:77] Creating layer drop7
I0403 15:03:37.719386  8878 net.cpp:91] Creating Layer drop7
I0403 15:03:37.719403  8878 net.cpp:425] drop7 <- fc7
I0403 15:03:37.719419  8878 net.cpp:386] drop7 -> fc7 (in-place)
I0403 15:03:37.719463  8878 net.cpp:141] Setting up drop7
I0403 15:03:37.719485  8878 net.cpp:148] Top shape: 100 4096 (409600)
I0403 15:03:37.719499  8878 net.cpp:156] Memory required for data: 831526000
I0403 15:03:37.719513  8878 layer_factory.hpp:77] Creating layer fc8_plantvillage
I0403 15:03:37.719532  8878 net.cpp:91] Creating Layer fc8_plantvillage
I0403 15:03:37.719548  8878 net.cpp:425] fc8_plantvillage <- fc7
I0403 15:03:37.719568  8878 net.cpp:399] fc8_plantvillage -> fc8_plantvillage
I0403 15:03:37.726073  8878 net.cpp:141] Setting up fc8_plantvillage
I0403 15:03:37.726099  8878 net.cpp:148] Top shape: 100 38 (3800)
I0403 15:03:37.726116  8878 net.cpp:156] Memory required for data: 831541200
I0403 15:03:37.726133  8878 layer_factory.hpp:77] Creating layer fc8_plantvillage_fc8_plantvillage_0_split
I0403 15:03:37.726155  8878 net.cpp:91] Creating Layer fc8_plantvillage_fc8_plantvillage_0_split
I0403 15:03:37.726171  8878 net.cpp:425] fc8_plantvillage_fc8_plantvillage_0_split <- fc8_plantvillage
I0403 15:03:37.726188  8878 net.cpp:399] fc8_plantvillage_fc8_plantvillage_0_split -> fc8_plantvillage_fc8_plantvillage_0_split_0
I0403 15:03:37.726209  8878 net.cpp:399] fc8_plantvillage_fc8_plantvillage_0_split -> fc8_plantvillage_fc8_plantvillage_0_split_1
I0403 15:03:37.726230  8878 net.cpp:399] fc8_plantvillage_fc8_plantvillage_0_split -> fc8_plantvillage_fc8_plantvillage_0_split_2
I0403 15:03:37.726307  8878 net.cpp:141] Setting up fc8_plantvillage_fc8_plantvillage_0_split
I0403 15:03:37.726330  8878 net.cpp:148] Top shape: 100 38 (3800)
I0403 15:03:37.726346  8878 net.cpp:148] Top shape: 100 38 (3800)
I0403 15:03:37.726362  8878 net.cpp:148] Top shape: 100 38 (3800)
I0403 15:03:37.726375  8878 net.cpp:156] Memory required for data: 831586800
I0403 15:03:37.726389  8878 layer_factory.hpp:77] Creating layer prob
I0403 15:03:37.726409  8878 net.cpp:91] Creating Layer prob
I0403 15:03:37.726426  8878 net.cpp:425] prob <- fc8_plantvillage_fc8_plantvillage_0_split_0
I0403 15:03:37.726444  8878 net.cpp:399] prob -> prob
I0403 15:03:37.726667  8878 net.cpp:141] Setting up prob
I0403 15:03:37.726691  8878 net.cpp:148] Top shape: 100 38 (3800)
I0403 15:03:37.726706  8878 net.cpp:156] Memory required for data: 831602000
I0403 15:03:37.726721  8878 layer_factory.hpp:77] Creating layer hdf5out
I0403 15:03:37.726742  8878 net.cpp:91] Creating Layer hdf5out
I0403 15:03:37.726758  8878 net.cpp:425] hdf5out <- prob
I0403 15:03:37.726774  8878 net.cpp:425] hdf5out <- label_data_1_split_0
I0403 15:03:37.729184  8878 net.cpp:141] Setting up hdf5out
…
