…
I0403 14:59:55.022158  8665 net.cpp:313] The NetState phase (1) differed from the phase (0) specified by a rule in layer data
I0403 14:59:55.022471  8665 net.cpp:49] Initializing net from parameters: 
state {
  phase: TEST
}
layer {
  name: "data"
  type: "Data"
  top: "data"
  top: "label"
  include {
    phase: TEST
  }
  transform_param {
    crop_size: 227
    mean_file: "/home/mohanty/data/final_dataset/lmdb/color-50-50/mean.binaryproto"
  }
  data_param {
    source: "/home/mohanty/data/final_dataset/lmdb/color-50-50/test_db"
    batch_size: 100
    backend: LMDB
  }
}
layer {
  name: "conv1"
  type: "Convolution"
  bottom: "data"
  top: "conv1"
  param {
    lr_mult: 1
    decay_mult: 1
  }
  param {
    lr_mult: 2
    decay_mult: 0
  }
  convolution_param {
    num_output: 96
    kernel_size: 11
    stride: 4
    weight_filler {
      type: "gaussian"
      std: 0.01
    }
    bias_filler {
      type: "constant"
      value: 0
    }
  }
}
layer {
  name: "relu1"
  type: "ReLU"
  bottom: "conv1"
  top: "conv1"
}
layer {
  name: "norm1"
  type: "LRN"
  bottom: "conv1"
  top: "norm1"
  lrn_param {
    local_size: 5
    alpha: 0.0001
    beta: 0.75
  }
}
layer {
  name: "pool1"
  type: "Pooling"
  bottom: "norm1"
  top: "pool1"
  pooling_param {
    pool: MAX
    kernel_size: 3
    stride: 2
  }
}
layer {
  name: "conv2"
  type: "Convolution"
  bottom: "pool1"
  top: "conv2"
  param {
    lr_mult: 1
    decay_mult: 1
  }
  param {
    lr_mult: 2
    decay_mult: 0
  }
  convolution_param {
    num_output: 256
    pad: 2
    kernel_size: 5
    group: 2
    weight_filler {
      type: "gaussian"
      std: 0.01
    }
    bias_filler {
      type: "constant"
      value: 0.1
    }
  }
}
layer {
  name: "relu2"
  type: "ReLU"
  bottom: "conv2"
  top: "conv2"
}
layer {
  name: "norm2"
  type: "LRN"
  bottom: "conv2"
  top: "norm2"
  lrn_param {
    local_size: 5
    alpha: 0.0001
    beta: 0.75
  }
}
layer {
  name: "pool2"
  type: "Pooling"
  bottom: "norm2"
  top: "pool2"
  pooling_param {
    pool: MAX
    kernel_size: 3
    stride: 2
  }
}
layer {
  name: "conv3"
  type: "Convolution"
  bottom: "pool2"
  top: "conv3"
  param {
    lr_mult: 1
    decay_mult: 1
  }
  param {
    lr_mult: 2
    decay_mult: 0
  }
  convolution_param {
    num_output: 384
    pad: 1
    kernel_size: 3
    weight_filler {
      type: "gaussian"
      std: 0.01
    }
    bias_filler {
      type: "constant"
      value: 0
    }
  }
}
layer {
  name: "relu3"
  type: "ReLU"
  bottom: "conv3"
  top: "conv3"
}
layer {
  name: "conv4"
  type: "Convolution"
  bottom: "conv3"
  top: "conv4"
  param {
    lr_mult: 1
    decay_mult: 1
  }
  param {
    lr_mult: 2
    decay_mult: 0
  }
  convolution_param {
    num_output: 384
    pad: 1
    kernel_size: 3
    group: 2
    weight_filler {
      type: "gaussian"
      std: 0.01
    }
    bias_filler {
      type: "constant"
      value: 0.1
    }
  }
}
layer {
  name: "relu4"
  type: "ReLU"
  bottom: "conv4"
  top: "conv4"
}
layer {
  name: "conv5"
  type: "Convolution"
  bottom: "conv4"
  top: "conv5"
  param {
    lr_mult: 1
    decay_mult: 1
  }
  param {
    lr_mult: 2
    decay_mult: 0
  }
  convolution_param {
    num_output: 256
    pad: 1
    kernel_size: 3
    group: 2
    weight_filler {
      type: "gaussian"
      std: 0.01
    }
    bias_filler {
      type: "constant"
      value: 0.1
    }
  }
}
layer {
  name: "relu5"
  type: "ReLU"
  bottom: "conv5"
  top: "conv5"
}
layer {
  name: "pool5"
  type: "Pooling"
  bottom: "conv5"
  top: "pool5"
  pooling_param {
    pool: MAX
    kernel_size: 3
    stride: 2
  }
}
layer {
  name: "fc6"
  type: "InnerProduct"
  bottom: "pool5"
  top: "fc6"
  param {
    lr_mult: 1
    decay_mult: 1
  }
  param {
    lr_mult: 2
    decay_mult: 0
  }
  inner_product_param {
    num_output: 4096
    weight_filler {
      type: "gaussian"
      std: 0.005
    }
    bias_filler {
      type: "constant"
      value: 0.1
    }
  }
}
layer {
  name: "relu6"
  type: "ReLU"
  bottom: "fc6"
  top: "fc6"
}
layer {
  name: "drop6"
  type: "Dropout"
  bottom: "fc6"
  top: "fc6"
  dropout_param {
    dropout_ratio: 0.5
  }
}
layer {
  name: "fc7"
  type: "InnerProduct"
  bottom: "fc6"
  top: "fc7"
  param {
    lr_mult: 1
    decay_mult: 1
  }
  param {
    lr_mult: 2
    decay_mult: 0
  }
  inner_product_param {
    num_output: 4096
    weight_filler {
      type: "gaussian"
      std: 0.005
    }
    bias_filler {
      type: "constant"
      value: 0.1
    }
  }
}
layer {
  name: "relu7"
  type: "ReLU"
  bottom: "fc7"
  top: "fc7"
}
layer {
  name: "drop7"
  type: "Dropout"
  bottom: "fc7"
  top: "fc7"
  dropout_param {
    dropout_ratio: 0.5
  }
}
layer {
  name: "fc8_plantvillage"
  type: "InnerProduct"
  bottom: "fc7"
  top: "fc8_plantvillage"
  param {
    lr_mult: 1
    decay_mult: 1
  }
  param {
    lr_mult: 2
    decay_mult: 0
  }
  inner_product_param {
    num_output: 38
    weight_filler {
      type: "gaussian"
      std: 0.01
    }
    bias_filler {
      type: "constant"
      value: 0
    }
  }
}
layer {
  name: "prob"
  type: "Softmax"
  bottom: "fc8_plantvillage"
  top: "prob"
  include {
    phase: TEST
  }
}
layer {
  name: "hdf5out"
  type: "HDF5Output"
  bottom: "prob"
  bottom: "label"
  include {
    phase: TEST
  }
  hdf5_output_param {
    file_name: "hdf5_dumps/iter_5111.h5"
  }
}
layer {
  name: "loss"
  type: "SoftmaxWithLoss"
  bottom: "fc8_plantvillage"
  bottom: "label"
  top: "loss"
}
layer {
  name: "accuracy"
  type: "Accuracy"
  bottom: "fc8_plantvillage"
  bottom: "label"
  top: "accuracy"
  include {
    phase: TEST
  }
}
I0403 14:59:55.023030  8665 layer_factory.hpp:77] Creating layer data
I0403 14:59:55.023661  8665 net.cpp:91] Creating Layer data
I0403 14:59:55.023694  8665 net.cpp:399] data -> data
I0403 14:59:55.023744  8665 net.cpp:399] data -> label
I0403 14:59:55.023782  8665 data_transformer.cpp:25] Loading mean file from: /home/mohanty/data/final_dataset/lmdb/color-50-50/mean.binaryproto
I0403 14:59:55.026322  8669 db_lmdb.cpp:38] Opened lmdb /home/mohanty/data/final_dataset/lmdb/color-50-50/test_db
I0403 14:59:55.038558  8665 data_layer.cpp:41] output data size: 100,3,227,227
I0403 14:59:55.158957  8665 net.cpp:141] Setting up data
I0403 14:59:55.159083  8665 net.cpp:148] Top shape: 100 3 227 227 (15458700)
I0403 14:59:55.159107  8665 net.cpp:148] Top shape: 100 (100)
I0403 14:59:55.159123  8665 net.cpp:156] Memory required for data: 61835200
I0403 14:59:55.159150  8665 layer_factory.hpp:77] Creating layer label_data_1_split
I0403 14:59:55.159176  8665 net.cpp:91] Creating Layer label_data_1_split
I0403 14:59:55.159195  8665 net.cpp:425] label_data_1_split <- label
I0403 14:59:55.159238  8665 net.cpp:399] label_data_1_split -> label_data_1_split_0
I0403 14:59:55.159265  8665 net.cpp:399] label_data_1_split -> label_data_1_split_1
I0403 14:59:55.159286  8665 net.cpp:399] label_data_1_split -> label_data_1_split_2
I0403 14:59:55.159348  8665 net.cpp:141] Setting up label_data_1_split
I0403 14:59:55.159370  8665 net.cpp:148] Top shape: 100 (100)
I0403 14:59:55.159386  8665 net.cpp:148] Top shape: 100 (100)
I0403 14:59:55.159404  8665 net.cpp:148] Top shape: 100 (100)
I0403 14:59:55.159417  8665 net.cpp:156] Memory required for data: 61836400
I0403 14:59:55.159432  8665 layer_factory.hpp:77] Creating layer conv1
I0403 14:59:55.159463  8665 net.cpp:91] Creating Layer conv1
I0403 14:59:55.159482  8665 net.cpp:425] conv1 <- data
I0403 14:59:55.159500  8665 net.cpp:399] conv1 -> conv1
I0403 14:59:55.303020  8665 net.cpp:141] Setting up conv1
I0403 14:59:55.303100  8665 net.cpp:148] Top shape: 100 96 55 55 (29040000)
I0403 14:59:55.303119  8665 net.cpp:156] Memory required for data: 177996400
I0403 14:59:55.303150  8665 layer_factory.hpp:77] Creating layer relu1
I0403 14:59:55.303177  8665 net.cpp:91] Creating Layer relu1
I0403 14:59:55.303196  8665 net.cpp:425] relu1 <- conv1
I0403 14:59:55.303227  8665 net.cpp:386] relu1 -> conv1 (in-place)
I0403 14:59:55.303478  8665 net.cpp:141] Setting up relu1
I0403 14:59:55.303504  8665 net.cpp:148] Top shape: 100 96 55 55 (29040000)
I0403 14:59:55.303520  8665 net.cpp:156] Memory required for data: 294156400
I0403 14:59:55.303571  8665 layer_factory.hpp:77] Creating layer norm1
I0403 14:59:55.303601  8665 net.cpp:91] Creating Layer norm1
I0403 14:59:55.303618  8665 net.cpp:425] norm1 <- conv1
I0403 14:59:55.303637  8665 net.cpp:399] norm1 -> norm1
I0403 14:59:55.303971  8665 net.cpp:141] Setting up norm1
I0403 14:59:55.303998  8665 net.cpp:148] Top shape: 100 96 55 55 (29040000)
I0403 14:59:55.304013  8665 net.cpp:156] Memory required for data: 410316400
I0403 14:59:55.304029  8665 layer_factory.hpp:77] Creating layer pool1
I0403 14:59:55.304052  8665 net.cpp:91] Creating Layer pool1
I0403 14:59:55.304069  8665 net.cpp:425] pool1 <- norm1
I0403 14:59:55.304087  8665 net.cpp:399] pool1 -> pool1
I0403 14:59:55.304152  8665 net.cpp:141] Setting up pool1
I0403 14:59:55.304177  8665 net.cpp:148] Top shape: 100 96 27 27 (6998400)
I0403 14:59:55.304190  8665 net.cpp:156] Memory required for data: 438310000
I0403 14:59:55.304206  8665 layer_factory.hpp:77] Creating layer conv2
I0403 14:59:55.304230  8665 net.cpp:91] Creating Layer conv2
I0403 14:59:55.304246  8665 net.cpp:425] conv2 <- pool1
I0403 14:59:55.304265  8665 net.cpp:399] conv2 -> conv2
I0403 14:59:55.319001  8665 net.cpp:141] Setting up conv2
I0403 14:59:55.319038  8665 net.cpp:148] Top shape: 100 256 27 27 (18662400)
I0403 14:59:55.319056  8665 net.cpp:156] Memory required for data: 512959600
I0403 14:59:55.319077  8665 layer_factory.hpp:77] Creating layer relu2
I0403 14:59:55.319097  8665 net.cpp:91] Creating Layer relu2
I0403 14:59:55.319111  8665 net.cpp:425] relu2 <- conv2
I0403 14:59:55.319131  8665 net.cpp:386] relu2 -> conv2 (in-place)
I0403 14:59:55.319476  8665 net.cpp:141] Setting up relu2
I0403 14:59:55.319504  8665 net.cpp:148] Top shape: 100 256 27 27 (18662400)
I0403 14:59:55.319519  8665 net.cpp:156] Memory required for data: 587609200
I0403 14:59:55.319535  8665 layer_factory.hpp:77] Creating layer norm2
I0403 14:59:55.319556  8665 net.cpp:91] Creating Layer norm2
I0403 14:59:55.319572  8665 net.cpp:425] norm2 <- conv2
I0403 14:59:55.319591  8665 net.cpp:399] norm2 -> norm2
I0403 14:59:55.319782  8665 net.cpp:141] Setting up norm2
I0403 14:59:55.319810  8665 net.cpp:148] Top shape: 100 256 27 27 (18662400)
I0403 14:59:55.319825  8665 net.cpp:156] Memory required for data: 662258800
I0403 14:59:55.319840  8665 layer_factory.hpp:77] Creating layer pool2
I0403 14:59:55.319859  8665 net.cpp:91] Creating Layer pool2
I0403 14:59:55.319874  8665 net.cpp:425] pool2 <- norm2
I0403 14:59:55.319892  8665 net.cpp:399] pool2 -> pool2
I0403 14:59:55.319960  8665 net.cpp:141] Setting up pool2
I0403 14:59:55.319984  8665 net.cpp:148] Top shape: 100 256 13 13 (4326400)
I0403 14:59:55.319999  8665 net.cpp:156] Memory required for data: 679564400
I0403 14:59:55.320014  8665 layer_factory.hpp:77] Creating layer conv3
I0403 14:59:55.320037  8665 net.cpp:91] Creating Layer conv3
I0403 14:59:55.320055  8665 net.cpp:425] conv3 <- pool2
I0403 14:59:55.320076  8665 net.cpp:399] conv3 -> conv3
I0403 14:59:55.358157  8665 net.cpp:141] Setting up conv3
I0403 14:59:55.358213  8665 net.cpp:148] Top shape: 100 384 13 13 (6489600)
I0403 14:59:55.358229  8665 net.cpp:156] Memory required for data: 705522800
I0403 14:59:55.358253  8665 layer_factory.hpp:77] Creating layer relu3
I0403 14:59:55.358273  8665 net.cpp:91] Creating Layer relu3
I0403 14:59:55.358289  8665 net.cpp:425] relu3 <- conv3
I0403 14:59:55.358309  8665 net.cpp:386] relu3 -> conv3 (in-place)
I0403 14:59:55.358587  8665 net.cpp:141] Setting up relu3
I0403 14:59:55.358613  8665 net.cpp:148] Top shape: 100 384 13 13 (6489600)
I0403 14:59:55.358628  8665 net.cpp:156] Memory required for data: 731481200
I0403 14:59:55.358642  8665 layer_factory.hpp:77] Creating layer conv4
I0403 14:59:55.358666  8665 net.cpp:91] Creating Layer conv4
I0403 14:59:55.358685  8665 net.cpp:425] conv4 <- conv3
I0403 14:59:55.358705  8665 net.cpp:399] conv4 -> conv4
I0403 14:59:55.388286  8665 net.cpp:141] Setting up conv4
I0403 14:59:55.388332  8665 net.cpp:148] Top shape: 100 384 13 13 (6489600)
I0403 14:59:55.388380  8665 net.cpp:156] Memory required for data: 757439600
I0403 14:59:55.388401  8665 layer_factory.hpp:77] Creating layer relu4
I0403 14:59:55.388420  8665 net.cpp:91] Creating Layer relu4
I0403 14:59:55.388437  8665 net.cpp:425] relu4 <- conv4
I0403 14:59:55.388454  8665 net.cpp:386] relu4 -> conv4 (in-place)
I0403 14:59:55.388774  8665 net.cpp:141] Setting up relu4
I0403 14:59:55.388803  8665 net.cpp:148] Top shape: 100 384 13 13 (6489600)
I0403 14:59:55.388820  8665 net.cpp:156] Memory required for data: 783398000
I0403 14:59:55.388835  8665 layer_factory.hpp:77] Creating layer conv5
I0403 14:59:55.388859  8665 net.cpp:91] Creating Layer conv5
I0403 14:59:55.388877  8665 net.cpp:425] conv5 <- conv4
I0403 14:59:55.388896  8665 net.cpp:399] conv5 -> conv5
I0403 14:59:55.409152  8665 net.cpp:141] Setting up conv5
I0403 14:59:55.409189  8665 net.cpp:148] Top shape: 100 256 13 13 (4326400)
I0403 14:59:55.409207  8665 net.cpp:156] Memory required for data: 800703600
I0403 14:59:55.409231  8665 layer_factory.hpp:77] Creating layer relu5
I0403 14:59:55.409251  8665 net.cpp:91] Creating Layer relu5
I0403 14:59:55.409267  8665 net.cpp:425] relu5 <- conv5
I0403 14:59:55.409286  8665 net.cpp:386] relu5 -> conv5 (in-place)
I0403 14:59:55.409559  8665 net.cpp:141] Setting up relu5
I0403 14:59:55.409585  8665 net.cpp:148] Top shape: 100 256 13 13 (4326400)
I0403 14:59:55.409600  8665 net.cpp:156] Memory required for data: 818009200
I0403 14:59:55.409615  8665 layer_factory.hpp:77] Creating layer pool5
I0403 14:59:55.409643  8665 net.cpp:91] Creating Layer pool5
I0403 14:59:55.409662  8665 net.cpp:425] pool5 <- conv5
I0403 14:59:55.409679  8665 net.cpp:399] pool5 -> pool5
I0403 14:59:55.409739  8665 net.cpp:141] Setting up pool5
I0403 14:59:55.409762  8665 net.cpp:148] Top shape: 100 256 6 6 (921600)
I0403 14:59:55.409776  8665 net.cpp:156] Memory required for data: 821695600
I0403 14:59:55.409791  8665 layer_factory.hpp:77] Creating layer fc6
I0403 14:59:55.409817  8665 net.cpp:91] Creating Layer fc6
I0403 14:59:55.409835  8665 net.cpp:425] fc6 <- pool5
I0403 14:59:55.409855  8665 net.cpp:399] fc6 -> fc6
I0403 14:59:56.933903  8665 net.cpp:141] Setting up fc6
I0403 14:59:56.933998  8665 net.cpp:148] Top shape: 100 4096 (409600)
I0403 14:59:56.934015  8665 net.cpp:156] Memory required for data: 823334000
I0403 14:59:56.934038  8665 layer_factory.hpp:77] Creating layer relu6
I0403 14:59:56.934073  8665 net.cpp:91] Creating Layer relu6
I0403 14:59:56.934090  8665 net.cpp:425] relu6 <- fc6
I0403 14:59:56.934111  8665 net.cpp:386] relu6 -> fc6 (in-place)
I0403 14:59:56.934356  8665 net.cpp:141] Setting up relu6
I0403 14:59:56.934383  8665 net.cpp:148] Top shape: 100 4096 (409600)
I0403 14:59:56.934398  8665 net.cpp:156] Memory required for data: 824972400
I0403 14:59:56.934413  8665 layer_factory.hpp:77] Creating layer drop6
I0403 14:59:56.934432  8665 net.cpp:91] Creating Layer drop6
I0403 14:59:56.934447  8665 net.cpp:425] drop6 <- fc6
I0403 14:59:56.934465  8665 net.cpp:386] drop6 -> fc6 (in-place)
I0403 14:59:56.934517  8665 net.cpp:141] Setting up drop6
I0403 14:59:56.934540  8665 net.cpp:148] Top shape: 100 4096 (409600)
I0403 14:59:56.934553  8665 net.cpp:156] Memory required for data: 826610800
I0403 14:59:56.934568  8665 layer_factory.hpp:77] Creating layer fc7
I0403 14:59:56.934590  8665 net.cpp:91] Creating Layer fc7
I0403 14:59:56.934607  8665 net.cpp:425] fc7 <- fc6
I0403 14:59:56.934626  8665 net.cpp:399] fc7 -> fc7
I0403 14:59:57.607343  8665 net.cpp:141] Setting up fc7
I0403 14:59:57.607429  8665 net.cpp:148] Top shape: 100 4096 (409600)
I0403 14:59:57.607445  8665 net.cpp:156] Memory required for data: 828249200
I0403 14:59:57.607466  8665 layer_factory.hpp:77] Creating layer relu7
I0403 14:59:57.607488  8665 net.cpp:91] Creating Layer relu7
I0403 14:59:57.607506  8665 net.cpp:425] relu7 <- fc7
I0403 14:59:57.607527  8665 net.cpp:386] relu7 -> fc7 (in-place)
I0403 14:59:57.607914  8665 net.cpp:141] Setting up relu7
I0403 14:59:57.607940  8665 net.cpp:148] Top shape: 100 4096 (409600)
I0403 14:59:57.607990  8665 net.cpp:156] Memory required for data: 829887600
I0403 14:59:57.608006  8665 layer_factory.hpp:77] Creating layer drop7
I0403 14:59:57.608023  8665 net.cpp:91] Creating Layer drop7
I0403 14:59:57.608039  8665 net.cpp:425] drop7 <- fc7
I0403 14:59:57.608058  8665 net.cpp:386] drop7 -> fc7 (in-place)
I0403 14:59:57.608101  8665 net.cpp:141] Setting up drop7
I0403 14:59:57.608124  8665 net.cpp:148] Top shape: 100 4096 (409600)
I0403 14:59:57.608136  8665 net.cpp:156] Memory required for data: 831526000
I0403 14:59:57.608151  8665 layer_factory.hpp:77] Creating layer fc8_plantvillage
I0403 14:59:57.608173  8665 net.cpp:91] Creating Layer fc8_plantvillage
I0403 14:59:57.608191  8665 net.cpp:425] fc8_plantvillage <- fc7
I0403 14:59:57.608211  8665 net.cpp:399] fc8_plantvillage -> fc8_plantvillage
I0403 14:59:57.614754  8665 net.cpp:141] Setting up fc8_plantvillage
I0403 14:59:57.614783  8665 net.cpp:148] Top shape: 100 38 (3800)
I0403 14:59:57.614796  8665 net.cpp:156] Memory required for data: 831541200
I0403 14:59:57.614814  8665 layer_factory.hpp:77] Creating layer fc8_plantvillage_fc8_plantvillage_0_split
I0403 14:59:57.614832  8665 net.cpp:91] Creating Layer fc8_plantvillage_fc8_plantvillage_0_split
I0403 14:59:57.614847  8665 net.cpp:425] fc8_plantvillage_fc8_plantvillage_0_split <- fc8_plantvillage
I0403 14:59:57.614866  8665 net.cpp:399] fc8_plantvillage_fc8_plantvillage_0_split -> fc8_plantvillage_fc8_plantvillage_0_split_0
I0403 14:59:57.614886  8665 net.cpp:399] fc8_plantvillage_fc8_plantvillage_0_split -> fc8_plantvillage_fc8_plantvillage_0_split_1
I0403 14:59:57.614905  8665 net.cpp:399] fc8_plantvillage_fc8_plantvillage_0_split -> fc8_plantvillage_fc8_plantvillage_0_split_2
I0403 14:59:57.614985  8665 net.cpp:141] Setting up fc8_plantvillage_fc8_plantvillage_0_split
I0403 14:59:57.615010  8665 net.cpp:148] Top shape: 100 38 (3800)
I0403 14:59:57.615027  8665 net.cpp:148] Top shape: 100 38 (3800)
I0403 14:59:57.615041  8665 net.cpp:148] Top shape: 100 38 (3800)
I0403 14:59:57.615054  8665 net.cpp:156] Memory required for data: 831586800
I0403 14:59:57.615068  8665 layer_factory.hpp:77] Creating layer prob
I0403 14:59:57.615087  8665 net.cpp:91] Creating Layer prob
I0403 14:59:57.615103  8665 net.cpp:425] prob <- fc8_plantvillage_fc8_plantvillage_0_split_0
I0403 14:59:57.615120  8665 net.cpp:399] prob -> prob
I0403 14:59:57.615334  8665 net.cpp:141] Setting up prob
I0403 14:59:57.615361  8665 net.cpp:148] Top shape: 100 38 (3800)
I0403 14:59:57.615376  8665 net.cpp:156] Memory required for data: 831602000
I0403 14:59:57.615391  8665 layer_factory.hpp:77] Creating layer hdf5out
I0403 14:59:57.615408  8665 net.cpp:91] Creating Layer hdf5out
I0403 14:59:57.615424  8665 net.cpp:425] hdf5out <- prob
I0403 14:59:57.615440  8665 net.cpp:425] hdf5out <- label_data_1_split_0
I0403 14:59:57.618763  8665 net.cpp:141] Setting up hdf5out
…
