…
I0403 15:00:49.920647  8718 net.cpp:313] The NetState phase (1) differed from the phase (0) specified by a rule in layer data
I0403 15:00:49.920964  8718 net.cpp:49] Initializing net from parameters: 
state {
  phase: TEST
}
layer {
  name: "data"
  type: "Data"
  top: "data"
  top: "label"
  include {
    phase: TEST
  }
  transform_param {
    crop_size: 227
    mean_file: "/home/mohanty/data/final_dataset/lmdb/color-50-50/mean.binaryproto"
  }
  data_param {
    source: "/home/mohanty/data/final_dataset/lmdb/color-50-50/test_db"
    batch_size: 100
    backend: LMDB
  }
}
layer {
  name: "conv1"
  type: "Convolution"
  bottom: "data"
  top: "conv1"
  param {
    lr_mult: 1
    decay_mult: 1
  }
  param {
    lr_mult: 2
    decay_mult: 0
  }
  convolution_param {
    num_output: 96
    kernel_size: 11
    stride: 4
    weight_filler {
      type: "gaussian"
      std: 0.01
    }
    bias_filler {
      type: "constant"
      value: 0
    }
  }
}
layer {
  name: "relu1"
  type: "ReLU"
  bottom: "conv1"
  top: "conv1"
}
layer {
  name: "norm1"
  type: "LRN"
  bottom: "conv1"
  top: "norm1"
  lrn_param {
    local_size: 5
    alpha: 0.0001
    beta: 0.75
  }
}
layer {
  name: "pool1"
  type: "Pooling"
  bottom: "norm1"
  top: "pool1"
  pooling_param {
    pool: MAX
    kernel_size: 3
    stride: 2
  }
}
layer {
  name: "conv2"
  type: "Convolution"
  bottom: "pool1"
  top: "conv2"
  param {
    lr_mult: 1
    decay_mult: 1
  }
  param {
    lr_mult: 2
    decay_mult: 0
  }
  convolution_param {
    num_output: 256
    pad: 2
    kernel_size: 5
    group: 2
    weight_filler {
      type: "gaussian"
      std: 0.01
    }
    bias_filler {
      type: "constant"
      value: 0.1
    }
  }
}
layer {
  name: "relu2"
  type: "ReLU"
  bottom: "conv2"
  top: "conv2"
}
layer {
  name: "norm2"
  type: "LRN"
  bottom: "conv2"
  top: "norm2"
  lrn_param {
    local_size: 5
    alpha: 0.0001
    beta: 0.75
  }
}
layer {
  name: "pool2"
  type: "Pooling"
  bottom: "norm2"
  top: "pool2"
  pooling_param {
    pool: MAX
    kernel_size: 3
    stride: 2
  }
}
layer {
  name: "conv3"
  type: "Convolution"
  bottom: "pool2"
  top: "conv3"
  param {
    lr_mult: 1
    decay_mult: 1
  }
  param {
    lr_mult: 2
    decay_mult: 0
  }
  convolution_param {
    num_output: 384
    pad: 1
    kernel_size: 3
    weight_filler {
      type: "gaussian"
      std: 0.01
    }
    bias_filler {
      type: "constant"
      value: 0
    }
  }
}
layer {
  name: "relu3"
  type: "ReLU"
  bottom: "conv3"
  top: "conv3"
}
layer {
  name: "conv4"
  type: "Convolution"
  bottom: "conv3"
  top: "conv4"
  param {
    lr_mult: 1
    decay_mult: 1
  }
  param {
    lr_mult: 2
    decay_mult: 0
  }
  convolution_param {
    num_output: 384
    pad: 1
    kernel_size: 3
    group: 2
    weight_filler {
      type: "gaussian"
      std: 0.01
    }
    bias_filler {
      type: "constant"
      value: 0.1
    }
  }
}
layer {
  name: "relu4"
  type: "ReLU"
  bottom: "conv4"
  top: "conv4"
}
layer {
  name: "conv5"
  type: "Convolution"
  bottom: "conv4"
  top: "conv5"
  param {
    lr_mult: 1
    decay_mult: 1
  }
  param {
    lr_mult: 2
    decay_mult: 0
  }
  convolution_param {
    num_output: 256
    pad: 1
    kernel_size: 3
    group: 2
    weight_filler {
      type: "gaussian"
      std: 0.01
    }
    bias_filler {
      type: "constant"
      value: 0.1
    }
  }
}
layer {
  name: "relu5"
  type: "ReLU"
  bottom: "conv5"
  top: "conv5"
}
layer {
  name: "pool5"
  type: "Pooling"
  bottom: "conv5"
  top: "pool5"
  pooling_param {
    pool: MAX
    kernel_size: 3
    stride: 2
  }
}
layer {
  name: "fc6"
  type: "InnerProduct"
  bottom: "pool5"
  top: "fc6"
  param {
    lr_mult: 1
    decay_mult: 1
  }
  param {
    lr_mult: 2
    decay_mult: 0
  }
  inner_product_param {
    num_output: 4096
    weight_filler {
      type: "gaussian"
      std: 0.005
    }
    bias_filler {
      type: "constant"
      value: 0.1
    }
  }
}
layer {
  name: "relu6"
  type: "ReLU"
  bottom: "fc6"
  top: "fc6"
}
layer {
  name: "drop6"
  type: "Dropout"
  bottom: "fc6"
  top: "fc6"
  dropout_param {
    dropout_ratio: 0.5
  }
}
layer {
  name: "fc7"
  type: "InnerProduct"
  bottom: "fc6"
  top: "fc7"
  param {
    lr_mult: 1
    decay_mult: 1
  }
  param {
    lr_mult: 2
    decay_mult: 0
  }
  inner_product_param {
    num_output: 4096
    weight_filler {
      type: "gaussian"
      std: 0.005
    }
    bias_filler {
      type: "constant"
      value: 0.1
    }
  }
}
layer {
  name: "relu7"
  type: "ReLU"
  bottom: "fc7"
  top: "fc7"
}
layer {
  name: "drop7"
  type: "Dropout"
  bottom: "fc7"
  top: "fc7"
  dropout_param {
    dropout_ratio: 0.5
  }
}
layer {
  name: "fc8_plantvillage"
  type: "InnerProduct"
  bottom: "fc7"
  top: "fc8_plantvillage"
  param {
    lr_mult: 1
    decay_mult: 1
  }
  param {
    lr_mult: 2
    decay_mult: 0
  }
  inner_product_param {
    num_output: 38
    weight_filler {
      type: "gaussian"
      std: 0.01
    }
    bias_filler {
      type: "constant"
      value: 0
    }
  }
}
layer {
  name: "prob"
  type: "Softmax"
  bottom: "fc8_plantvillage"
  top: "prob"
  include {
    phase: TEST
  }
}
layer {
  name: "hdf5out"
  type: "HDF5Output"
  bottom: "prob"
  bottom: "label"
  include {
    phase: TEST
  }
  hdf5_output_param {
    file_name: "hdf5_dumps/iter_5380.h5"
  }
}
layer {
  name: "loss"
  type: "SoftmaxWithLoss"
  bottom: "fc8_plantvillage"
  bottom: "label"
  top: "loss"
}
layer {
  name: "accuracy"
  type: "Accuracy"
  bottom: "fc8_plantvillage"
  bottom: "label"
  top: "accuracy"
  include {
    phase: TEST
  }
}
I0403 15:00:49.921525  8718 layer_factory.hpp:77] Creating layer data
I0403 15:00:49.922169  8718 net.cpp:91] Creating Layer data
I0403 15:00:49.922200  8718 net.cpp:399] data -> data
I0403 15:00:49.922250  8718 net.cpp:399] data -> label
I0403 15:00:49.922287  8718 data_transformer.cpp:25] Loading mean file from: /home/mohanty/data/final_dataset/lmdb/color-50-50/mean.binaryproto
I0403 15:00:49.926895  8720 db_lmdb.cpp:38] Opened lmdb /home/mohanty/data/final_dataset/lmdb/color-50-50/test_db
I0403 15:00:49.936727  8718 data_layer.cpp:41] output data size: 100,3,227,227
I0403 15:00:50.058413  8718 net.cpp:141] Setting up data
I0403 15:00:50.058521  8718 net.cpp:148] Top shape: 100 3 227 227 (15458700)
I0403 15:00:50.058542  8718 net.cpp:148] Top shape: 100 (100)
I0403 15:00:50.058557  8718 net.cpp:156] Memory required for data: 61835200
I0403 15:00:50.058584  8718 layer_factory.hpp:77] Creating layer label_data_1_split
I0403 15:00:50.058609  8718 net.cpp:91] Creating Layer label_data_1_split
I0403 15:00:50.058626  8718 net.cpp:425] label_data_1_split <- label
I0403 15:00:50.058657  8718 net.cpp:399] label_data_1_split -> label_data_1_split_0
I0403 15:00:50.058683  8718 net.cpp:399] label_data_1_split -> label_data_1_split_1
I0403 15:00:50.058703  8718 net.cpp:399] label_data_1_split -> label_data_1_split_2
I0403 15:00:50.058766  8718 net.cpp:141] Setting up label_data_1_split
I0403 15:00:50.058789  8718 net.cpp:148] Top shape: 100 (100)
I0403 15:00:50.058804  8718 net.cpp:148] Top shape: 100 (100)
I0403 15:00:50.058820  8718 net.cpp:148] Top shape: 100 (100)
I0403 15:00:50.058835  8718 net.cpp:156] Memory required for data: 61836400
I0403 15:00:50.058850  8718 layer_factory.hpp:77] Creating layer conv1
I0403 15:00:50.058881  8718 net.cpp:91] Creating Layer conv1
I0403 15:00:50.058898  8718 net.cpp:425] conv1 <- data
I0403 15:00:50.058917  8718 net.cpp:399] conv1 -> conv1
I0403 15:00:50.200523  8718 net.cpp:141] Setting up conv1
I0403 15:00:50.200603  8718 net.cpp:148] Top shape: 100 96 55 55 (29040000)
I0403 15:00:50.200621  8718 net.cpp:156] Memory required for data: 177996400
I0403 15:00:50.200652  8718 layer_factory.hpp:77] Creating layer relu1
I0403 15:00:50.200678  8718 net.cpp:91] Creating Layer relu1
I0403 15:00:50.200696  8718 net.cpp:425] relu1 <- conv1
I0403 15:00:50.200714  8718 net.cpp:386] relu1 -> conv1 (in-place)
I0403 15:00:50.200968  8718 net.cpp:141] Setting up relu1
I0403 15:00:50.200994  8718 net.cpp:148] Top shape: 100 96 55 55 (29040000)
I0403 15:00:50.201009  8718 net.cpp:156] Memory required for data: 294156400
I0403 15:00:50.201056  8718 layer_factory.hpp:77] Creating layer norm1
I0403 15:00:50.201083  8718 net.cpp:91] Creating Layer norm1
I0403 15:00:50.201100  8718 net.cpp:425] norm1 <- conv1
I0403 15:00:50.201118  8718 net.cpp:399] norm1 -> norm1
I0403 15:00:50.201417  8718 net.cpp:141] Setting up norm1
I0403 15:00:50.201444  8718 net.cpp:148] Top shape: 100 96 55 55 (29040000)
I0403 15:00:50.201460  8718 net.cpp:156] Memory required for data: 410316400
I0403 15:00:50.201475  8718 layer_factory.hpp:77] Creating layer pool1
I0403 15:00:50.201498  8718 net.cpp:91] Creating Layer pool1
I0403 15:00:50.201514  8718 net.cpp:425] pool1 <- norm1
I0403 15:00:50.201531  8718 net.cpp:399] pool1 -> pool1
I0403 15:00:50.201596  8718 net.cpp:141] Setting up pool1
I0403 15:00:50.201619  8718 net.cpp:148] Top shape: 100 96 27 27 (6998400)
I0403 15:00:50.201634  8718 net.cpp:156] Memory required for data: 438310000
I0403 15:00:50.201649  8718 layer_factory.hpp:77] Creating layer conv2
I0403 15:00:50.201673  8718 net.cpp:91] Creating Layer conv2
I0403 15:00:50.201689  8718 net.cpp:425] conv2 <- pool1
I0403 15:00:50.201738  8718 net.cpp:399] conv2 -> conv2
I0403 15:00:50.216542  8718 net.cpp:141] Setting up conv2
I0403 15:00:50.216575  8718 net.cpp:148] Top shape: 100 256 27 27 (18662400)
I0403 15:00:50.216591  8718 net.cpp:156] Memory required for data: 512959600
I0403 15:00:50.216612  8718 layer_factory.hpp:77] Creating layer relu2
I0403 15:00:50.216631  8718 net.cpp:91] Creating Layer relu2
I0403 15:00:50.216647  8718 net.cpp:425] relu2 <- conv2
I0403 15:00:50.216666  8718 net.cpp:386] relu2 -> conv2 (in-place)
I0403 15:00:50.216941  8718 net.cpp:141] Setting up relu2
I0403 15:00:50.216970  8718 net.cpp:148] Top shape: 100 256 27 27 (18662400)
I0403 15:00:50.216986  8718 net.cpp:156] Memory required for data: 587609200
I0403 15:00:50.217001  8718 layer_factory.hpp:77] Creating layer norm2
I0403 15:00:50.217072  8718 net.cpp:91] Creating Layer norm2
I0403 15:00:50.217105  8718 net.cpp:425] norm2 <- conv2
I0403 15:00:50.217126  8718 net.cpp:399] norm2 -> norm2
I0403 15:00:50.217321  8718 net.cpp:141] Setting up norm2
I0403 15:00:50.217346  8718 net.cpp:148] Top shape: 100 256 27 27 (18662400)
I0403 15:00:50.217360  8718 net.cpp:156] Memory required for data: 662258800
I0403 15:00:50.217375  8718 layer_factory.hpp:77] Creating layer pool2
I0403 15:00:50.217393  8718 net.cpp:91] Creating Layer pool2
I0403 15:00:50.217409  8718 net.cpp:425] pool2 <- norm2
I0403 15:00:50.217432  8718 net.cpp:399] pool2 -> pool2
I0403 15:00:50.217483  8718 net.cpp:141] Setting up pool2
I0403 15:00:50.217505  8718 net.cpp:148] Top shape: 100 256 13 13 (4326400)
I0403 15:00:50.217519  8718 net.cpp:156] Memory required for data: 679564400
I0403 15:00:50.217535  8718 layer_factory.hpp:77] Creating layer conv3
I0403 15:00:50.217557  8718 net.cpp:91] Creating Layer conv3
I0403 15:00:50.217576  8718 net.cpp:425] conv3 <- pool2
I0403 15:00:50.217593  8718 net.cpp:399] conv3 -> conv3
I0403 15:00:50.256986  8718 net.cpp:141] Setting up conv3
I0403 15:00:50.257040  8718 net.cpp:148] Top shape: 100 384 13 13 (6489600)
I0403 15:00:50.257056  8718 net.cpp:156] Memory required for data: 705522800
I0403 15:00:50.257078  8718 layer_factory.hpp:77] Creating layer relu3
I0403 15:00:50.257102  8718 net.cpp:91] Creating Layer relu3
I0403 15:00:50.257118  8718 net.cpp:425] relu3 <- conv3
I0403 15:00:50.257136  8718 net.cpp:386] relu3 -> conv3 (in-place)
I0403 15:00:50.257398  8718 net.cpp:141] Setting up relu3
I0403 15:00:50.257424  8718 net.cpp:148] Top shape: 100 384 13 13 (6489600)
I0403 15:00:50.257439  8718 net.cpp:156] Memory required for data: 731481200
I0403 15:00:50.257453  8718 layer_factory.hpp:77] Creating layer conv4
I0403 15:00:50.257477  8718 net.cpp:91] Creating Layer conv4
I0403 15:00:50.257493  8718 net.cpp:425] conv4 <- conv3
I0403 15:00:50.257514  8718 net.cpp:399] conv4 -> conv4
I0403 15:00:50.287418  8718 net.cpp:141] Setting up conv4
I0403 15:00:50.287467  8718 net.cpp:148] Top shape: 100 384 13 13 (6489600)
I0403 15:00:50.287513  8718 net.cpp:156] Memory required for data: 757439600
I0403 15:00:50.287534  8718 layer_factory.hpp:77] Creating layer relu4
I0403 15:00:50.287552  8718 net.cpp:91] Creating Layer relu4
I0403 15:00:50.287569  8718 net.cpp:425] relu4 <- conv4
I0403 15:00:50.287590  8718 net.cpp:386] relu4 -> conv4 (in-place)
I0403 15:00:50.287863  8718 net.cpp:141] Setting up relu4
I0403 15:00:50.287889  8718 net.cpp:148] Top shape: 100 384 13 13 (6489600)
I0403 15:00:50.287904  8718 net.cpp:156] Memory required for data: 783398000
I0403 15:00:50.287919  8718 layer_factory.hpp:77] Creating layer conv5
I0403 15:00:50.287942  8718 net.cpp:91] Creating Layer conv5
I0403 15:00:50.287964  8718 net.cpp:425] conv5 <- conv4
I0403 15:00:50.287989  8718 net.cpp:399] conv5 -> conv5
I0403 15:00:50.308398  8718 net.cpp:141] Setting up conv5
I0403 15:00:50.308432  8718 net.cpp:148] Top shape: 100 256 13 13 (4326400)
I0403 15:00:50.308449  8718 net.cpp:156] Memory required for data: 800703600
I0403 15:00:50.308471  8718 layer_factory.hpp:77] Creating layer relu5
I0403 15:00:50.308490  8718 net.cpp:91] Creating Layer relu5
I0403 15:00:50.308506  8718 net.cpp:425] relu5 <- conv5
I0403 15:00:50.308527  8718 net.cpp:386] relu5 -> conv5 (in-place)
I0403 15:00:50.308799  8718 net.cpp:141] Setting up relu5
I0403 15:00:50.308825  8718 net.cpp:148] Top shape: 100 256 13 13 (4326400)
I0403 15:00:50.308840  8718 net.cpp:156] Memory required for data: 818009200
I0403 15:00:50.308854  8718 layer_factory.hpp:77] Creating layer pool5
I0403 15:00:50.308877  8718 net.cpp:91] Creating Layer pool5
I0403 15:00:50.308894  8718 net.cpp:425] pool5 <- conv5
I0403 15:00:50.308912  8718 net.cpp:399] pool5 -> pool5
I0403 15:00:50.308981  8718 net.cpp:141] Setting up pool5
I0403 15:00:50.309006  8718 net.cpp:148] Top shape: 100 256 6 6 (921600)
I0403 15:00:50.309020  8718 net.cpp:156] Memory required for data: 821695600
I0403 15:00:50.309036  8718 layer_factory.hpp:77] Creating layer fc6
I0403 15:00:50.309063  8718 net.cpp:91] Creating Layer fc6
I0403 15:00:50.309082  8718 net.cpp:425] fc6 <- pool5
I0403 15:00:50.309099  8718 net.cpp:399] fc6 -> fc6
I0403 15:00:51.836431  8718 net.cpp:141] Setting up fc6
I0403 15:00:51.836521  8718 net.cpp:148] Top shape: 100 4096 (409600)
I0403 15:00:51.836537  8718 net.cpp:156] Memory required for data: 823334000
I0403 15:00:51.836558  8718 layer_factory.hpp:77] Creating layer relu6
I0403 15:00:51.836580  8718 net.cpp:91] Creating Layer relu6
I0403 15:00:51.836596  8718 net.cpp:425] relu6 <- fc6
I0403 15:00:51.836618  8718 net.cpp:386] relu6 -> fc6 (in-place)
I0403 15:00:51.836832  8718 net.cpp:141] Setting up relu6
I0403 15:00:51.836856  8718 net.cpp:148] Top shape: 100 4096 (409600)
I0403 15:00:51.836870  8718 net.cpp:156] Memory required for data: 824972400
I0403 15:00:51.836884  8718 layer_factory.hpp:77] Creating layer drop6
I0403 15:00:51.836902  8718 net.cpp:91] Creating Layer drop6
I0403 15:00:51.836917  8718 net.cpp:425] drop6 <- fc6
I0403 15:00:51.836936  8718 net.cpp:386] drop6 -> fc6 (in-place)
I0403 15:00:51.836992  8718 net.cpp:141] Setting up drop6
I0403 15:00:51.837018  8718 net.cpp:148] Top shape: 100 4096 (409600)
I0403 15:00:51.837033  8718 net.cpp:156] Memory required for data: 826610800
I0403 15:00:51.837046  8718 layer_factory.hpp:77] Creating layer fc7
I0403 15:00:51.837066  8718 net.cpp:91] Creating Layer fc7
I0403 15:00:51.837082  8718 net.cpp:425] fc7 <- fc6
I0403 15:00:51.837102  8718 net.cpp:399] fc7 -> fc7
I0403 15:00:52.503912  8718 net.cpp:141] Setting up fc7
I0403 15:00:52.504001  8718 net.cpp:148] Top shape: 100 4096 (409600)
I0403 15:00:52.504019  8718 net.cpp:156] Memory required for data: 828249200
I0403 15:00:52.504040  8718 layer_factory.hpp:77] Creating layer relu7
I0403 15:00:52.504061  8718 net.cpp:91] Creating Layer relu7
I0403 15:00:52.504081  8718 net.cpp:425] relu7 <- fc7
I0403 15:00:52.504101  8718 net.cpp:386] relu7 -> fc7 (in-place)
I0403 15:00:52.504482  8718 net.cpp:141] Setting up relu7
I0403 15:00:52.504506  8718 net.cpp:148] Top shape: 100 4096 (409600)
I0403 15:00:52.504550  8718 net.cpp:156] Memory required for data: 829887600
I0403 15:00:52.504566  8718 layer_factory.hpp:77] Creating layer drop7
I0403 15:00:52.504585  8718 net.cpp:91] Creating Layer drop7
I0403 15:00:52.504600  8718 net.cpp:425] drop7 <- fc7
I0403 15:00:52.504617  8718 net.cpp:386] drop7 -> fc7 (in-place)
I0403 15:00:52.504659  8718 net.cpp:141] Setting up drop7
I0403 15:00:52.504683  8718 net.cpp:148] Top shape: 100 4096 (409600)
I0403 15:00:52.504698  8718 net.cpp:156] Memory required for data: 831526000
I0403 15:00:52.504712  8718 layer_factory.hpp:77] Creating layer fc8_plantvillage
I0403 15:00:52.504731  8718 net.cpp:91] Creating Layer fc8_plantvillage
I0403 15:00:52.504745  8718 net.cpp:425] fc8_plantvillage <- fc7
I0403 15:00:52.504765  8718 net.cpp:399] fc8_plantvillage -> fc8_plantvillage
I0403 15:00:52.511298  8718 net.cpp:141] Setting up fc8_plantvillage
I0403 15:00:52.511327  8718 net.cpp:148] Top shape: 100 38 (3800)
I0403 15:00:52.511343  8718 net.cpp:156] Memory required for data: 831541200
I0403 15:00:52.511360  8718 layer_factory.hpp:77] Creating layer fc8_plantvillage_fc8_plantvillage_0_split
I0403 15:00:52.511379  8718 net.cpp:91] Creating Layer fc8_plantvillage_fc8_plantvillage_0_split
I0403 15:00:52.511392  8718 net.cpp:425] fc8_plantvillage_fc8_plantvillage_0_split <- fc8_plantvillage
I0403 15:00:52.511411  8718 net.cpp:399] fc8_plantvillage_fc8_plantvillage_0_split -> fc8_plantvillage_fc8_plantvillage_0_split_0
I0403 15:00:52.511431  8718 net.cpp:399] fc8_plantvillage_fc8_plantvillage_0_split -> fc8_plantvillage_fc8_plantvillage_0_split_1
I0403 15:00:52.511451  8718 net.cpp:399] fc8_plantvillage_fc8_plantvillage_0_split -> fc8_plantvillage_fc8_plantvillage_0_split_2
I0403 15:00:52.511525  8718 net.cpp:141] Setting up fc8_plantvillage_fc8_plantvillage_0_split
I0403 15:00:52.511548  8718 net.cpp:148] Top shape: 100 38 (3800)
I0403 15:00:52.511564  8718 net.cpp:148] Top shape: 100 38 (3800)
I0403 15:00:52.511579  8718 net.cpp:148] Top shape: 100 38 (3800)
I0403 15:00:52.511591  8718 net.cpp:156] Memory required for data: 831586800
I0403 15:00:52.511605  8718 layer_factory.hpp:77] Creating layer prob
I0403 15:00:52.511622  8718 net.cpp:91] Creating Layer prob
I0403 15:00:52.511637  8718 net.cpp:425] prob <- fc8_plantvillage_fc8_plantvillage_0_split_0
I0403 15:00:52.511656  8718 net.cpp:399] prob -> prob
I0403 15:00:52.511875  8718 net.cpp:141] Setting up prob
I0403 15:00:52.511899  8718 net.cpp:148] Top shape: 100 38 (3800)
I0403 15:00:52.511915  8718 net.cpp:156] Memory required for data: 831602000
I0403 15:00:52.511929  8718 layer_factory.hpp:77] Creating layer hdf5out
I0403 15:00:52.511950  8718 net.cpp:91] Creating Layer hdf5out
I0403 15:00:52.511966  8718 net.cpp:425] hdf5out <- prob
I0403 15:00:52.511984  8718 net.cpp:425] hdf5out <- label_data_1_split_0
I0403 15:00:52.514086  8718 net.cpp:141] Setting up hdf5out
…
