…
I0403 14:58:04.754963  8546 net.cpp:313] The NetState phase (1) differed from the phase (0) specified by a rule in layer data
I0403 14:58:04.755280  8546 net.cpp:49] Initializing net from parameters: 
state {
  phase: TEST
}
layer {
  name: "data"
  type: "Data"
  top: "data"
  top: "label"
  include {
    phase: TEST
  }
  transform_param {
    crop_size: 227
    mean_file: "/home/mohanty/data/final_dataset/lmdb/color-50-50/mean.binaryproto"
  }
  data_param {
    source: "/home/mohanty/data/final_dataset/lmdb/color-50-50/test_db"
    batch_size: 100
    backend: LMDB
  }
}
layer {
  name: "conv1"
  type: "Convolution"
  bottom: "data"
  top: "conv1"
  param {
    lr_mult: 1
    decay_mult: 1
  }
  param {
    lr_mult: 2
    decay_mult: 0
  }
  convolution_param {
    num_output: 96
    kernel_size: 11
    stride: 4
    weight_filler {
      type: "gaussian"
      std: 0.01
    }
    bias_filler {
      type: "constant"
      value: 0
    }
  }
}
layer {
  name: "relu1"
  type: "ReLU"
  bottom: "conv1"
  top: "conv1"
}
layer {
  name: "norm1"
  type: "LRN"
  bottom: "conv1"
  top: "norm1"
  lrn_param {
    local_size: 5
    alpha: 0.0001
    beta: 0.75
  }
}
layer {
  name: "pool1"
  type: "Pooling"
  bottom: "norm1"
  top: "pool1"
  pooling_param {
    pool: MAX
    kernel_size: 3
    stride: 2
  }
}
layer {
  name: "conv2"
  type: "Convolution"
  bottom: "pool1"
  top: "conv2"
  param {
    lr_mult: 1
    decay_mult: 1
  }
  param {
    lr_mult: 2
    decay_mult: 0
  }
  convolution_param {
    num_output: 256
    pad: 2
    kernel_size: 5
    group: 2
    weight_filler {
      type: "gaussian"
      std: 0.01
    }
    bias_filler {
      type: "constant"
      value: 0.1
    }
  }
}
layer {
  name: "relu2"
  type: "ReLU"
  bottom: "conv2"
  top: "conv2"
}
layer {
  name: "norm2"
  type: "LRN"
  bottom: "conv2"
  top: "norm2"
  lrn_param {
    local_size: 5
    alpha: 0.0001
    beta: 0.75
  }
}
layer {
  name: "pool2"
  type: "Pooling"
  bottom: "norm2"
  top: "pool2"
  pooling_param {
    pool: MAX
    kernel_size: 3
    stride: 2
  }
}
layer {
  name: "conv3"
  type: "Convolution"
  bottom: "pool2"
  top: "conv3"
  param {
    lr_mult: 1
    decay_mult: 1
  }
  param {
    lr_mult: 2
    decay_mult: 0
  }
  convolution_param {
    num_output: 384
    pad: 1
    kernel_size: 3
    weight_filler {
      type: "gaussian"
      std: 0.01
    }
    bias_filler {
      type: "constant"
      value: 0
    }
  }
}
layer {
  name: "relu3"
  type: "ReLU"
  bottom: "conv3"
  top: "conv3"
}
layer {
  name: "conv4"
  type: "Convolution"
  bottom: "conv3"
  top: "conv4"
  param {
    lr_mult: 1
    decay_mult: 1
  }
  param {
    lr_mult: 2
    decay_mult: 0
  }
  convolution_param {
    num_output: 384
    pad: 1
    kernel_size: 3
    group: 2
    weight_filler {
      type: "gaussian"
      std: 0.01
    }
    bias_filler {
      type: "constant"
      value: 0.1
    }
  }
}
layer {
  name: "relu4"
  type: "ReLU"
  bottom: "conv4"
  top: "conv4"
}
layer {
  name: "conv5"
  type: "Convolution"
  bottom: "conv4"
  top: "conv5"
  param {
    lr_mult: 1
    decay_mult: 1
  }
  param {
    lr_mult: 2
    decay_mult: 0
  }
  convolution_param {
    num_output: 256
    pad: 1
    kernel_size: 3
    group: 2
    weight_filler {
      type: "gaussian"
      std: 0.01
    }
    bias_filler {
      type: "constant"
      value: 0.1
    }
  }
}
layer {
  name: "relu5"
  type: "ReLU"
  bottom: "conv5"
  top: "conv5"
}
layer {
  name: "pool5"
  type: "Pooling"
  bottom: "conv5"
  top: "pool5"
  pooling_param {
    pool: MAX
    kernel_size: 3
    stride: 2
  }
}
layer {
  name: "fc6"
  type: "InnerProduct"
  bottom: "pool5"
  top: "fc6"
  param {
    lr_mult: 1
    decay_mult: 1
  }
  param {
    lr_mult: 2
    decay_mult: 0
  }
  inner_product_param {
    num_output: 4096
    weight_filler {
      type: "gaussian"
      std: 0.005
    }
    bias_filler {
      type: "constant"
      value: 0.1
    }
  }
}
layer {
  name: "relu6"
  type: "ReLU"
  bottom: "fc6"
  top: "fc6"
}
layer {
  name: "drop6"
  type: "Dropout"
  bottom: "fc6"
  top: "fc6"
  dropout_param {
    dropout_ratio: 0.5
  }
}
layer {
  name: "fc7"
  type: "InnerProduct"
  bottom: "fc6"
  top: "fc7"
  param {
    lr_mult: 1
    decay_mult: 1
  }
  param {
    lr_mult: 2
    decay_mult: 0
  }
  inner_product_param {
    num_output: 4096
    weight_filler {
      type: "gaussian"
      std: 0.005
    }
    bias_filler {
      type: "constant"
      value: 0.1
    }
  }
}
layer {
  name: "relu7"
  type: "ReLU"
  bottom: "fc7"
  top: "fc7"
}
layer {
  name: "drop7"
  type: "Dropout"
  bottom: "fc7"
  top: "fc7"
  dropout_param {
    dropout_ratio: 0.5
  }
}
layer {
  name: "fc8_plantvillage"
  type: "InnerProduct"
  bottom: "fc7"
  top: "fc8_plantvillage"
  param {
    lr_mult: 1
    decay_mult: 1
  }
  param {
    lr_mult: 2
    decay_mult: 0
  }
  inner_product_param {
    num_output: 38
    weight_filler {
      type: "gaussian"
      std: 0.01
    }
    bias_filler {
      type: "constant"
      value: 0
    }
  }
}
layer {
  name: "prob"
  type: "Softmax"
  bottom: "fc8_plantvillage"
  top: "prob"
  include {
    phase: TEST
  }
}
layer {
  name: "hdf5out"
  type: "HDF5Output"
  bottom: "prob"
  bottom: "label"
  include {
    phase: TEST
  }
  hdf5_output_param {
    file_name: "hdf5_dumps/iter_4573.h5"
  }
}
layer {
  name: "loss"
  type: "SoftmaxWithLoss"
  bottom: "fc8_plantvillage"
  bottom: "label"
  top: "loss"
}
layer {
  name: "accuracy"
  type: "Accuracy"
  bottom: "fc8_plantvillage"
  bottom: "label"
  top: "accuracy"
  include {
    phase: TEST
  }
}
I0403 14:58:04.755795  8546 layer_factory.hpp:77] Creating layer data
I0403 14:58:04.756448  8546 net.cpp:91] Creating Layer data
I0403 14:58:04.756481  8546 net.cpp:399] data -> data
I0403 14:58:04.756534  8546 net.cpp:399] data -> label
I0403 14:58:04.756572  8546 data_transformer.cpp:25] Loading mean file from: /home/mohanty/data/final_dataset/lmdb/color-50-50/mean.binaryproto
I0403 14:58:04.759259  8548 db_lmdb.cpp:38] Opened lmdb /home/mohanty/data/final_dataset/lmdb/color-50-50/test_db
I0403 14:58:04.770963  8546 data_layer.cpp:41] output data size: 100,3,227,227
I0403 14:58:04.891345  8546 net.cpp:141] Setting up data
I0403 14:58:04.891451  8546 net.cpp:148] Top shape: 100 3 227 227 (15458700)
I0403 14:58:04.891474  8546 net.cpp:148] Top shape: 100 (100)
I0403 14:58:04.891489  8546 net.cpp:156] Memory required for data: 61835200
I0403 14:58:04.891517  8546 layer_factory.hpp:77] Creating layer label_data_1_split
I0403 14:58:04.891542  8546 net.cpp:91] Creating Layer label_data_1_split
I0403 14:58:04.891561  8546 net.cpp:425] label_data_1_split <- label
I0403 14:58:04.891593  8546 net.cpp:399] label_data_1_split -> label_data_1_split_0
I0403 14:58:04.891620  8546 net.cpp:399] label_data_1_split -> label_data_1_split_1
I0403 14:58:04.891641  8546 net.cpp:399] label_data_1_split -> label_data_1_split_2
I0403 14:58:04.891703  8546 net.cpp:141] Setting up label_data_1_split
I0403 14:58:04.891726  8546 net.cpp:148] Top shape: 100 (100)
I0403 14:58:04.891743  8546 net.cpp:148] Top shape: 100 (100)
I0403 14:58:04.891760  8546 net.cpp:148] Top shape: 100 (100)
I0403 14:58:04.891774  8546 net.cpp:156] Memory required for data: 61836400
I0403 14:58:04.891788  8546 layer_factory.hpp:77] Creating layer conv1
I0403 14:58:04.891820  8546 net.cpp:91] Creating Layer conv1
I0403 14:58:04.891839  8546 net.cpp:425] conv1 <- data
I0403 14:58:04.891858  8546 net.cpp:399] conv1 -> conv1
I0403 14:58:05.034893  8546 net.cpp:141] Setting up conv1
I0403 14:58:05.034998  8546 net.cpp:148] Top shape: 100 96 55 55 (29040000)
I0403 14:58:05.035017  8546 net.cpp:156] Memory required for data: 177996400
I0403 14:58:05.035049  8546 layer_factory.hpp:77] Creating layer relu1
I0403 14:58:05.035082  8546 net.cpp:91] Creating Layer relu1
I0403 14:58:05.035104  8546 net.cpp:425] relu1 <- conv1
I0403 14:58:05.035123  8546 net.cpp:386] relu1 -> conv1 (in-place)
I0403 14:58:05.035411  8546 net.cpp:141] Setting up relu1
I0403 14:58:05.035437  8546 net.cpp:148] Top shape: 100 96 55 55 (29040000)
I0403 14:58:05.035452  8546 net.cpp:156] Memory required for data: 294156400
I0403 14:58:05.035498  8546 layer_factory.hpp:77] Creating layer norm1
I0403 14:58:05.035528  8546 net.cpp:91] Creating Layer norm1
I0403 14:58:05.035547  8546 net.cpp:425] norm1 <- conv1
I0403 14:58:05.035564  8546 net.cpp:399] norm1 -> norm1
I0403 14:58:05.035892  8546 net.cpp:141] Setting up norm1
I0403 14:58:05.035918  8546 net.cpp:148] Top shape: 100 96 55 55 (29040000)
I0403 14:58:05.035934  8546 net.cpp:156] Memory required for data: 410316400
I0403 14:58:05.035949  8546 layer_factory.hpp:77] Creating layer pool1
I0403 14:58:05.035974  8546 net.cpp:91] Creating Layer pool1
I0403 14:58:05.035995  8546 net.cpp:425] pool1 <- norm1
I0403 14:58:05.036012  8546 net.cpp:399] pool1 -> pool1
I0403 14:58:05.036082  8546 net.cpp:141] Setting up pool1
I0403 14:58:05.036106  8546 net.cpp:148] Top shape: 100 96 27 27 (6998400)
I0403 14:58:05.036120  8546 net.cpp:156] Memory required for data: 438310000
I0403 14:58:05.036135  8546 layer_factory.hpp:77] Creating layer conv2
I0403 14:58:05.036162  8546 net.cpp:91] Creating Layer conv2
I0403 14:58:05.036180  8546 net.cpp:425] conv2 <- pool1
I0403 14:58:05.036200  8546 net.cpp:399] conv2 -> conv2
I0403 14:58:05.051640  8546 net.cpp:141] Setting up conv2
I0403 14:58:05.051676  8546 net.cpp:148] Top shape: 100 256 27 27 (18662400)
I0403 14:58:05.051693  8546 net.cpp:156] Memory required for data: 512959600
I0403 14:58:05.051719  8546 layer_factory.hpp:77] Creating layer relu2
I0403 14:58:05.051740  8546 net.cpp:91] Creating Layer relu2
I0403 14:58:05.051756  8546 net.cpp:425] relu2 <- conv2
I0403 14:58:05.051775  8546 net.cpp:386] relu2 -> conv2 (in-place)
I0403 14:58:05.052058  8546 net.cpp:141] Setting up relu2
I0403 14:58:05.052088  8546 net.cpp:148] Top shape: 100 256 27 27 (18662400)
I0403 14:58:05.052105  8546 net.cpp:156] Memory required for data: 587609200
I0403 14:58:05.052120  8546 layer_factory.hpp:77] Creating layer norm2
I0403 14:58:05.052140  8546 net.cpp:91] Creating Layer norm2
I0403 14:58:05.052158  8546 net.cpp:425] norm2 <- conv2
I0403 14:58:05.052247  8546 net.cpp:399] norm2 -> norm2
I0403 14:58:05.052454  8546 net.cpp:141] Setting up norm2
I0403 14:58:05.052480  8546 net.cpp:148] Top shape: 100 256 27 27 (18662400)
I0403 14:58:05.052495  8546 net.cpp:156] Memory required for data: 662258800
I0403 14:58:05.052510  8546 layer_factory.hpp:77] Creating layer pool2
I0403 14:58:05.052531  8546 net.cpp:91] Creating Layer pool2
I0403 14:58:05.052547  8546 net.cpp:425] pool2 <- norm2
I0403 14:58:05.052566  8546 net.cpp:399] pool2 -> pool2
I0403 14:58:05.052618  8546 net.cpp:141] Setting up pool2
I0403 14:58:05.052640  8546 net.cpp:148] Top shape: 100 256 13 13 (4326400)
I0403 14:58:05.052655  8546 net.cpp:156] Memory required for data: 679564400
I0403 14:58:05.052670  8546 layer_factory.hpp:77] Creating layer conv3
I0403 14:58:05.052693  8546 net.cpp:91] Creating Layer conv3
I0403 14:58:05.052711  8546 net.cpp:425] conv3 <- pool2
I0403 14:58:05.052731  8546 net.cpp:399] conv3 -> conv3
I0403 14:58:05.090989  8546 net.cpp:141] Setting up conv3
I0403 14:58:05.091042  8546 net.cpp:148] Top shape: 100 384 13 13 (6489600)
I0403 14:58:05.091058  8546 net.cpp:156] Memory required for data: 705522800
I0403 14:58:05.091084  8546 layer_factory.hpp:77] Creating layer relu3
I0403 14:58:05.091105  8546 net.cpp:91] Creating Layer relu3
I0403 14:58:05.091122  8546 net.cpp:425] relu3 <- conv3
I0403 14:58:05.091140  8546 net.cpp:386] relu3 -> conv3 (in-place)
I0403 14:58:05.091480  8546 net.cpp:141] Setting up relu3
I0403 14:58:05.091507  8546 net.cpp:148] Top shape: 100 384 13 13 (6489600)
I0403 14:58:05.091522  8546 net.cpp:156] Memory required for data: 731481200
I0403 14:58:05.091537  8546 layer_factory.hpp:77] Creating layer conv4
I0403 14:58:05.091563  8546 net.cpp:91] Creating Layer conv4
I0403 14:58:05.091580  8546 net.cpp:425] conv4 <- conv3
I0403 14:58:05.091598  8546 net.cpp:399] conv4 -> conv4
I0403 14:58:05.121529  8546 net.cpp:141] Setting up conv4
I0403 14:58:05.121575  8546 net.cpp:148] Top shape: 100 384 13 13 (6489600)
I0403 14:58:05.121620  8546 net.cpp:156] Memory required for data: 757439600
I0403 14:58:05.121641  8546 layer_factory.hpp:77] Creating layer relu4
I0403 14:58:05.121664  8546 net.cpp:91] Creating Layer relu4
I0403 14:58:05.121681  8546 net.cpp:425] relu4 <- conv4
I0403 14:58:05.121700  8546 net.cpp:386] relu4 -> conv4 (in-place)
I0403 14:58:05.121970  8546 net.cpp:141] Setting up relu4
I0403 14:58:05.122001  8546 net.cpp:148] Top shape: 100 384 13 13 (6489600)
I0403 14:58:05.122016  8546 net.cpp:156] Memory required for data: 783398000
I0403 14:58:05.122031  8546 layer_factory.hpp:77] Creating layer conv5
I0403 14:58:05.122056  8546 net.cpp:91] Creating Layer conv5
I0403 14:58:05.122072  8546 net.cpp:425] conv5 <- conv4
I0403 14:58:05.122092  8546 net.cpp:399] conv5 -> conv5
I0403 14:58:05.142458  8546 net.cpp:141] Setting up conv5
I0403 14:58:05.142493  8546 net.cpp:148] Top shape: 100 256 13 13 (4326400)
I0403 14:58:05.142508  8546 net.cpp:156] Memory required for data: 800703600
I0403 14:58:05.142534  8546 layer_factory.hpp:77] Creating layer relu5
I0403 14:58:05.142554  8546 net.cpp:91] Creating Layer relu5
I0403 14:58:05.142570  8546 net.cpp:425] relu5 <- conv5
I0403 14:58:05.142585  8546 net.cpp:386] relu5 -> conv5 (in-place)
I0403 14:58:05.142863  8546 net.cpp:141] Setting up relu5
I0403 14:58:05.142889  8546 net.cpp:148] Top shape: 100 256 13 13 (4326400)
I0403 14:58:05.142907  8546 net.cpp:156] Memory required for data: 818009200
I0403 14:58:05.142923  8546 layer_factory.hpp:77] Creating layer pool5
I0403 14:58:05.142945  8546 net.cpp:91] Creating Layer pool5
I0403 14:58:05.142959  8546 net.cpp:425] pool5 <- conv5
I0403 14:58:05.142981  8546 net.cpp:399] pool5 -> pool5
I0403 14:58:05.143044  8546 net.cpp:141] Setting up pool5
I0403 14:58:05.143067  8546 net.cpp:148] Top shape: 100 256 6 6 (921600)
I0403 14:58:05.143082  8546 net.cpp:156] Memory required for data: 821695600
I0403 14:58:05.143097  8546 layer_factory.hpp:77] Creating layer fc6
I0403 14:58:05.143126  8546 net.cpp:91] Creating Layer fc6
I0403 14:58:05.143143  8546 net.cpp:425] fc6 <- pool5
I0403 14:58:05.143163  8546 net.cpp:399] fc6 -> fc6
I0403 14:58:06.850199  8546 net.cpp:141] Setting up fc6
I0403 14:58:06.850281  8546 net.cpp:148] Top shape: 100 4096 (409600)
I0403 14:58:06.850298  8546 net.cpp:156] Memory required for data: 823334000
I0403 14:58:06.850319  8546 layer_factory.hpp:77] Creating layer relu6
I0403 14:58:06.850342  8546 net.cpp:91] Creating Layer relu6
I0403 14:58:06.850358  8546 net.cpp:425] relu6 <- fc6
I0403 14:58:06.850380  8546 net.cpp:386] relu6 -> fc6 (in-place)
I0403 14:58:06.850599  8546 net.cpp:141] Setting up relu6
I0403 14:58:06.850623  8546 net.cpp:148] Top shape: 100 4096 (409600)
I0403 14:58:06.850637  8546 net.cpp:156] Memory required for data: 824972400
I0403 14:58:06.850651  8546 layer_factory.hpp:77] Creating layer drop6
I0403 14:58:06.850672  8546 net.cpp:91] Creating Layer drop6
I0403 14:58:06.850687  8546 net.cpp:425] drop6 <- fc6
I0403 14:58:06.850703  8546 net.cpp:386] drop6 -> fc6 (in-place)
I0403 14:58:06.850755  8546 net.cpp:141] Setting up drop6
I0403 14:58:06.850776  8546 net.cpp:148] Top shape: 100 4096 (409600)
I0403 14:58:06.850790  8546 net.cpp:156] Memory required for data: 826610800
I0403 14:58:06.850805  8546 layer_factory.hpp:77] Creating layer fc7
I0403 14:58:06.850824  8546 net.cpp:91] Creating Layer fc7
I0403 14:58:06.850841  8546 net.cpp:425] fc7 <- fc6
I0403 14:58:06.850857  8546 net.cpp:399] fc7 -> fc7
I0403 14:58:07.598248  8546 net.cpp:141] Setting up fc7
I0403 14:58:07.598331  8546 net.cpp:148] Top shape: 100 4096 (409600)
I0403 14:58:07.598348  8546 net.cpp:156] Memory required for data: 828249200
I0403 14:58:07.598369  8546 layer_factory.hpp:77] Creating layer relu7
I0403 14:58:07.598393  8546 net.cpp:91] Creating Layer relu7
I0403 14:58:07.598412  8546 net.cpp:425] relu7 <- fc7
I0403 14:58:07.598430  8546 net.cpp:386] relu7 -> fc7 (in-place)
I0403 14:58:07.598803  8546 net.cpp:141] Setting up relu7
I0403 14:58:07.598829  8546 net.cpp:148] Top shape: 100 4096 (409600)
I0403 14:58:07.598875  8546 net.cpp:156] Memory required for data: 829887600
I0403 14:58:07.598891  8546 layer_factory.hpp:77] Creating layer drop7
I0403 14:58:07.598912  8546 net.cpp:91] Creating Layer drop7
I0403 14:58:07.598927  8546 net.cpp:425] drop7 <- fc7
I0403 14:58:07.598944  8546 net.cpp:386] drop7 -> fc7 (in-place)
I0403 14:58:07.598996  8546 net.cpp:141] Setting up drop7
I0403 14:58:07.599019  8546 net.cpp:148] Top shape: 100 4096 (409600)
I0403 14:58:07.599033  8546 net.cpp:156] Memory required for data: 831526000
I0403 14:58:07.599047  8546 layer_factory.hpp:77] Creating layer fc8_plantvillage
I0403 14:58:07.599066  8546 net.cpp:91] Creating Layer fc8_plantvillage
I0403 14:58:07.599081  8546 net.cpp:425] fc8_plantvillage <- fc7
I0403 14:58:07.599099  8546 net.cpp:399] fc8_plantvillage -> fc8_plantvillage
I0403 14:58:07.606286  8546 net.cpp:141] Setting up fc8_plantvillage
I0403 14:58:07.606315  8546 net.cpp:148] Top shape: 100 38 (3800)
I0403 14:58:07.606331  8546 net.cpp:156] Memory required for data: 831541200
I0403 14:58:07.606349  8546 layer_factory.hpp:77] Creating layer fc8_plantvillage_fc8_plantvillage_0_split
I0403 14:58:07.606366  8546 net.cpp:91] Creating Layer fc8_plantvillage_fc8_plantvillage_0_split
I0403 14:58:07.606381  8546 net.cpp:425] fc8_plantvillage_fc8_plantvillage_0_split <- fc8_plantvillage
I0403 14:58:07.606397  8546 net.cpp:399] fc8_plantvillage_fc8_plantvillage_0_split -> fc8_plantvillage_fc8_plantvillage_0_split_0
I0403 14:58:07.606416  8546 net.cpp:399] fc8_plantvillage_fc8_plantvillage_0_split -> fc8_plantvillage_fc8_plantvillage_0_split_1
I0403 14:58:07.606434  8546 net.cpp:399] fc8_plantvillage_fc8_plantvillage_0_split -> fc8_plantvillage_fc8_plantvillage_0_split_2
I0403 14:58:07.606509  8546 net.cpp:141] Setting up fc8_plantvillage_fc8_plantvillage_0_split
I0403 14:58:07.606533  8546 net.cpp:148] Top shape: 100 38 (3800)
I0403 14:58:07.606549  8546 net.cpp:148] Top shape: 100 38 (3800)
I0403 14:58:07.606564  8546 net.cpp:148] Top shape: 100 38 (3800)
I0403 14:58:07.606576  8546 net.cpp:156] Memory required for data: 831586800
I0403 14:58:07.606591  8546 layer_factory.hpp:77] Creating layer prob
I0403 14:58:07.606608  8546 net.cpp:91] Creating Layer prob
I0403 14:58:07.606623  8546 net.cpp:425] prob <- fc8_plantvillage_fc8_plantvillage_0_split_0
I0403 14:58:07.606639  8546 net.cpp:399] prob -> prob
I0403 14:58:07.606858  8546 net.cpp:141] Setting up prob
I0403 14:58:07.606884  8546 net.cpp:148] Top shape: 100 38 (3800)
I0403 14:58:07.606897  8546 net.cpp:156] Memory required for data: 831602000
I0403 14:58:07.606912  8546 layer_factory.hpp:77] Creating layer hdf5out
I0403 14:58:07.606933  8546 net.cpp:91] Creating Layer hdf5out
I0403 14:58:07.606950  8546 net.cpp:425] hdf5out <- prob
I0403 14:58:07.606964  8546 net.cpp:425] hdf5out <- label_data_1_split_0
I0403 14:58:07.609272  8546 net.cpp:141] Setting up hdf5out
…
