…
I0403 14:58:59.970373  8595 net.cpp:313] The NetState phase (1) differed from the phase (0) specified by a rule in layer data
I0403 14:58:59.970697  8595 net.cpp:49] Initializing net from parameters: 
state {
  phase: TEST
}
layer {
  name: "data"
  type: "Data"
  top: "data"
  top: "label"
  include {
    phase: TEST
  }
  transform_param {
    crop_size: 227
    mean_file: "/home/mohanty/data/final_dataset/lmdb/color-50-50/mean.binaryproto"
  }
  data_param {
    source: "/home/mohanty/data/final_dataset/lmdb/color-50-50/test_db"
    batch_size: 100
    backend: LMDB
  }
}
layer {
  name: "conv1"
  type: "Convolution"
  bottom: "data"
  top: "conv1"
  param {
    lr_mult: 1
    decay_mult: 1
  }
  param {
    lr_mult: 2
    decay_mult: 0
  }
  convolution_param {
    num_output: 96
    kernel_size: 11
    stride: 4
    weight_filler {
      type: "gaussian"
      std: 0.01
    }
    bias_filler {
      type: "constant"
      value: 0
    }
  }
}
layer {
  name: "relu1"
  type: "ReLU"
  bottom: "conv1"
  top: "conv1"
}
layer {
  name: "norm1"
  type: "LRN"
  bottom: "conv1"
  top: "norm1"
  lrn_param {
    local_size: 5
    alpha: 0.0001
    beta: 0.75
  }
}
layer {
  name: "pool1"
  type: "Pooling"
  bottom: "norm1"
  top: "pool1"
  pooling_param {
    pool: MAX
    kernel_size: 3
    stride: 2
  }
}
layer {
  name: "conv2"
  type: "Convolution"
  bottom: "pool1"
  top: "conv2"
  param {
    lr_mult: 1
    decay_mult: 1
  }
  param {
    lr_mult: 2
    decay_mult: 0
  }
  convolution_param {
    num_output: 256
    pad: 2
    kernel_size: 5
    group: 2
    weight_filler {
      type: "gaussian"
      std: 0.01
    }
    bias_filler {
      type: "constant"
      value: 0.1
    }
  }
}
layer {
  name: "relu2"
  type: "ReLU"
  bottom: "conv2"
  top: "conv2"
}
layer {
  name: "norm2"
  type: "LRN"
  bottom: "conv2"
  top: "norm2"
  lrn_param {
    local_size: 5
    alpha: 0.0001
    beta: 0.75
  }
}
layer {
  name: "pool2"
  type: "Pooling"
  bottom: "norm2"
  top: "pool2"
  pooling_param {
    pool: MAX
    kernel_size: 3
    stride: 2
  }
}
layer {
  name: "conv3"
  type: "Convolution"
  bottom: "pool2"
  top: "conv3"
  param {
    lr_mult: 1
    decay_mult: 1
  }
  param {
    lr_mult: 2
    decay_mult: 0
  }
  convolution_param {
    num_output: 384
    pad: 1
    kernel_size: 3
    weight_filler {
      type: "gaussian"
      std: 0.01
    }
    bias_filler {
      type: "constant"
      value: 0
    }
  }
}
layer {
  name: "relu3"
  type: "ReLU"
  bottom: "conv3"
  top: "conv3"
}
layer {
  name: "conv4"
  type: "Convolution"
  bottom: "conv3"
  top: "conv4"
  param {
    lr_mult: 1
    decay_mult: 1
  }
  param {
    lr_mult: 2
    decay_mult: 0
  }
  convolution_param {
    num_output: 384
    pad: 1
    kernel_size: 3
    group: 2
    weight_filler {
      type: "gaussian"
      std: 0.01
    }
    bias_filler {
      type: "constant"
      value: 0.1
    }
  }
}
layer {
  name: "relu4"
  type: "ReLU"
  bottom: "conv4"
  top: "conv4"
}
layer {
  name: "conv5"
  type: "Convolution"
  bottom: "conv4"
  top: "conv5"
  param {
    lr_mult: 1
    decay_mult: 1
  }
  param {
    lr_mult: 2
    decay_mult: 0
  }
  convolution_param {
    num_output: 256
    pad: 1
    kernel_size: 3
    group: 2
    weight_filler {
      type: "gaussian"
      std: 0.01
    }
    bias_filler {
      type: "constant"
      value: 0.1
    }
  }
}
layer {
  name: "relu5"
  type: "ReLU"
  bottom: "conv5"
  top: "conv5"
}
layer {
  name: "pool5"
  type: "Pooling"
  bottom: "conv5"
  top: "pool5"
  pooling_param {
    pool: MAX
    kernel_size: 3
    stride: 2
  }
}
layer {
  name: "fc6"
  type: "InnerProduct"
  bottom: "pool5"
  top: "fc6"
  param {
    lr_mult: 1
    decay_mult: 1
  }
  param {
    lr_mult: 2
    decay_mult: 0
  }
  inner_product_param {
    num_output: 4096
    weight_filler {
      type: "gaussian"
      std: 0.005
    }
    bias_filler {
      type: "constant"
      value: 0.1
    }
  }
}
layer {
  name: "relu6"
  type: "ReLU"
  bottom: "fc6"
  top: "fc6"
}
layer {
  name: "drop6"
  type: "Dropout"
  bottom: "fc6"
  top: "fc6"
  dropout_param {
    dropout_ratio: 0.5
  }
}
layer {
  name: "fc7"
  type: "InnerProduct"
  bottom: "fc6"
  top: "fc7"
  param {
    lr_mult: 1
    decay_mult: 1
  }
  param {
    lr_mult: 2
    decay_mult: 0
  }
  inner_product_param {
    num_output: 4096
    weight_filler {
      type: "gaussian"
      std: 0.005
    }
    bias_filler {
      type: "constant"
      value: 0.1
    }
  }
}
layer {
  name: "relu7"
  type: "ReLU"
  bottom: "fc7"
  top: "fc7"
}
layer {
  name: "drop7"
  type: "Dropout"
  bottom: "fc7"
  top: "fc7"
  dropout_param {
    dropout_ratio: 0.5
  }
}
layer {
  name: "fc8_plantvillage"
  type: "InnerProduct"
  bottom: "fc7"
  top: "fc8_plantvillage"
  param {
    lr_mult: 1
    decay_mult: 1
  }
  param {
    lr_mult: 2
    decay_mult: 0
  }
  inner_product_param {
    num_output: 38
    weight_filler {
      type: "gaussian"
      std: 0.01
    }
    bias_filler {
      type: "constant"
      value: 0
    }
  }
}
layer {
  name: "prob"
  type: "Softmax"
  bottom: "fc8_plantvillage"
  top: "prob"
  include {
    phase: TEST
  }
}
layer {
  name: "hdf5out"
  type: "HDF5Output"
  bottom: "prob"
  bottom: "label"
  include {
    phase: TEST
  }
  hdf5_output_param {
    file_name: "hdf5_dumps/iter_4842.h5"
  }
}
layer {
  name: "loss"
  type: "SoftmaxWithLoss"
  bottom: "fc8_plantvillage"
  bottom: "label"
  top: "loss"
}
layer {
  name: "accuracy"
  type: "Accuracy"
  bottom: "fc8_plantvillage"
  bottom: "label"
  top: "accuracy"
  include {
    phase: TEST
  }
}
I0403 14:58:59.971276  8595 layer_factory.hpp:77] Creating layer data
I0403 14:58:59.971935  8595 net.cpp:91] Creating Layer data
I0403 14:58:59.971968  8595 net.cpp:399] data -> data
I0403 14:58:59.972025  8595 net.cpp:399] data -> label
I0403 14:58:59.972064  8595 data_transformer.cpp:25] Loading mean file from: /home/mohanty/data/final_dataset/lmdb/color-50-50/mean.binaryproto
I0403 14:58:59.974596  8597 db_lmdb.cpp:38] Opened lmdb /home/mohanty/data/final_dataset/lmdb/color-50-50/test_db
I0403 14:58:59.986719  8595 data_layer.cpp:41] output data size: 100,3,227,227
I0403 14:59:00.105664  8595 net.cpp:141] Setting up data
I0403 14:59:00.105770  8595 net.cpp:148] Top shape: 100 3 227 227 (15458700)
I0403 14:59:00.105792  8595 net.cpp:148] Top shape: 100 (100)
I0403 14:59:00.105808  8595 net.cpp:156] Memory required for data: 61835200
I0403 14:59:00.105835  8595 layer_factory.hpp:77] Creating layer label_data_1_split
I0403 14:59:00.105861  8595 net.cpp:91] Creating Layer label_data_1_split
I0403 14:59:00.105878  8595 net.cpp:425] label_data_1_split <- label
I0403 14:59:00.105908  8595 net.cpp:399] label_data_1_split -> label_data_1_split_0
I0403 14:59:00.105936  8595 net.cpp:399] label_data_1_split -> label_data_1_split_1
I0403 14:59:00.105955  8595 net.cpp:399] label_data_1_split -> label_data_1_split_2
I0403 14:59:00.106021  8595 net.cpp:141] Setting up label_data_1_split
I0403 14:59:00.106045  8595 net.cpp:148] Top shape: 100 (100)
I0403 14:59:00.106060  8595 net.cpp:148] Top shape: 100 (100)
I0403 14:59:00.106076  8595 net.cpp:148] Top shape: 100 (100)
I0403 14:59:00.106091  8595 net.cpp:156] Memory required for data: 61836400
I0403 14:59:00.106104  8595 layer_factory.hpp:77] Creating layer conv1
I0403 14:59:00.106134  8595 net.cpp:91] Creating Layer conv1
I0403 14:59:00.106153  8595 net.cpp:425] conv1 <- data
I0403 14:59:00.106171  8595 net.cpp:399] conv1 -> conv1
I0403 14:59:00.248417  8595 net.cpp:141] Setting up conv1
I0403 14:59:00.248492  8595 net.cpp:148] Top shape: 100 96 55 55 (29040000)
I0403 14:59:00.248512  8595 net.cpp:156] Memory required for data: 177996400
I0403 14:59:00.248544  8595 layer_factory.hpp:77] Creating layer relu1
I0403 14:59:00.248610  8595 net.cpp:91] Creating Layer relu1
I0403 14:59:00.248631  8595 net.cpp:425] relu1 <- conv1
I0403 14:59:00.248651  8595 net.cpp:386] relu1 -> conv1 (in-place)
I0403 14:59:00.248924  8595 net.cpp:141] Setting up relu1
I0403 14:59:00.248956  8595 net.cpp:148] Top shape: 100 96 55 55 (29040000)
I0403 14:59:00.248975  8595 net.cpp:156] Memory required for data: 294156400
I0403 14:59:00.249022  8595 layer_factory.hpp:77] Creating layer norm1
I0403 14:59:00.249052  8595 net.cpp:91] Creating Layer norm1
I0403 14:59:00.249070  8595 net.cpp:425] norm1 <- conv1
I0403 14:59:00.249090  8595 net.cpp:399] norm1 -> norm1
I0403 14:59:00.249408  8595 net.cpp:141] Setting up norm1
I0403 14:59:00.249439  8595 net.cpp:148] Top shape: 100 96 55 55 (29040000)
I0403 14:59:00.249454  8595 net.cpp:156] Memory required for data: 410316400
I0403 14:59:00.249471  8595 layer_factory.hpp:77] Creating layer pool1
I0403 14:59:00.249495  8595 net.cpp:91] Creating Layer pool1
I0403 14:59:00.249514  8595 net.cpp:425] pool1 <- norm1
I0403 14:59:00.249533  8595 net.cpp:399] pool1 -> pool1
I0403 14:59:00.249603  8595 net.cpp:141] Setting up pool1
I0403 14:59:00.249629  8595 net.cpp:148] Top shape: 100 96 27 27 (6998400)
I0403 14:59:00.249644  8595 net.cpp:156] Memory required for data: 438310000
I0403 14:59:00.249660  8595 layer_factory.hpp:77] Creating layer conv2
I0403 14:59:00.249686  8595 net.cpp:91] Creating Layer conv2
I0403 14:59:00.249703  8595 net.cpp:425] conv2 <- pool1
I0403 14:59:00.249722  8595 net.cpp:399] conv2 -> conv2
I0403 14:59:00.265202  8595 net.cpp:141] Setting up conv2
I0403 14:59:00.265242  8595 net.cpp:148] Top shape: 100 256 27 27 (18662400)
I0403 14:59:00.265259  8595 net.cpp:156] Memory required for data: 512959600
I0403 14:59:00.265281  8595 layer_factory.hpp:77] Creating layer relu2
I0403 14:59:00.265301  8595 net.cpp:91] Creating Layer relu2
I0403 14:59:00.265317  8595 net.cpp:425] relu2 <- conv2
I0403 14:59:00.265338  8595 net.cpp:386] relu2 -> conv2 (in-place)
I0403 14:59:00.265630  8595 net.cpp:141] Setting up relu2
I0403 14:59:00.265657  8595 net.cpp:148] Top shape: 100 256 27 27 (18662400)
I0403 14:59:00.265674  8595 net.cpp:156] Memory required for data: 587609200
I0403 14:59:00.265689  8595 layer_factory.hpp:77] Creating layer norm2
I0403 14:59:00.265712  8595 net.cpp:91] Creating Layer norm2
I0403 14:59:00.265729  8595 net.cpp:425] norm2 <- conv2
I0403 14:59:00.265748  8595 net.cpp:399] norm2 -> norm2
I0403 14:59:00.265959  8595 net.cpp:141] Setting up norm2
I0403 14:59:00.265985  8595 net.cpp:148] Top shape: 100 256 27 27 (18662400)
I0403 14:59:00.266000  8595 net.cpp:156] Memory required for data: 662258800
I0403 14:59:00.266016  8595 layer_factory.hpp:77] Creating layer pool2
I0403 14:59:00.266034  8595 net.cpp:91] Creating Layer pool2
I0403 14:59:00.266050  8595 net.cpp:425] pool2 <- norm2
I0403 14:59:00.266070  8595 net.cpp:399] pool2 -> pool2
I0403 14:59:00.266124  8595 net.cpp:141] Setting up pool2
I0403 14:59:00.266149  8595 net.cpp:148] Top shape: 100 256 13 13 (4326400)
I0403 14:59:00.266163  8595 net.cpp:156] Memory required for data: 679564400
I0403 14:59:00.266178  8595 layer_factory.hpp:77] Creating layer conv3
I0403 14:59:00.266203  8595 net.cpp:91] Creating Layer conv3
I0403 14:59:00.266221  8595 net.cpp:425] conv3 <- pool2
I0403 14:59:00.266239  8595 net.cpp:399] conv3 -> conv3
I0403 14:59:00.305233  8595 net.cpp:141] Setting up conv3
I0403 14:59:00.305291  8595 net.cpp:148] Top shape: 100 384 13 13 (6489600)
I0403 14:59:00.305310  8595 net.cpp:156] Memory required for data: 705522800
I0403 14:59:00.305333  8595 layer_factory.hpp:77] Creating layer relu3
I0403 14:59:00.305353  8595 net.cpp:91] Creating Layer relu3
I0403 14:59:00.305371  8595 net.cpp:425] relu3 <- conv3
I0403 14:59:00.305393  8595 net.cpp:386] relu3 -> conv3 (in-place)
I0403 14:59:00.305737  8595 net.cpp:141] Setting up relu3
I0403 14:59:00.305764  8595 net.cpp:148] Top shape: 100 384 13 13 (6489600)
I0403 14:59:00.305780  8595 net.cpp:156] Memory required for data: 731481200
I0403 14:59:00.305796  8595 layer_factory.hpp:77] Creating layer conv4
I0403 14:59:00.305821  8595 net.cpp:91] Creating Layer conv4
I0403 14:59:00.305838  8595 net.cpp:425] conv4 <- conv3
I0403 14:59:00.305860  8595 net.cpp:399] conv4 -> conv4
I0403 14:59:00.336259  8595 net.cpp:141] Setting up conv4
I0403 14:59:00.336309  8595 net.cpp:148] Top shape: 100 384 13 13 (6489600)
I0403 14:59:00.336357  8595 net.cpp:156] Memory required for data: 757439600
I0403 14:59:00.336380  8595 layer_factory.hpp:77] Creating layer relu4
I0403 14:59:00.336400  8595 net.cpp:91] Creating Layer relu4
I0403 14:59:00.336416  8595 net.cpp:425] relu4 <- conv4
I0403 14:59:00.336436  8595 net.cpp:386] relu4 -> conv4 (in-place)
I0403 14:59:00.336719  8595 net.cpp:141] Setting up relu4
I0403 14:59:00.336748  8595 net.cpp:148] Top shape: 100 384 13 13 (6489600)
I0403 14:59:00.336766  8595 net.cpp:156] Memory required for data: 783398000
I0403 14:59:00.336781  8595 layer_factory.hpp:77] Creating layer conv5
I0403 14:59:00.336805  8595 net.cpp:91] Creating Layer conv5
I0403 14:59:00.336823  8595 net.cpp:425] conv5 <- conv4
I0403 14:59:00.336843  8595 net.cpp:399] conv5 -> conv5
I0403 14:59:00.357740  8595 net.cpp:141] Setting up conv5
I0403 14:59:00.357777  8595 net.cpp:148] Top shape: 100 256 13 13 (4326400)
I0403 14:59:00.357795  8595 net.cpp:156] Memory required for data: 800703600
I0403 14:59:00.357818  8595 layer_factory.hpp:77] Creating layer relu5
I0403 14:59:00.357837  8595 net.cpp:91] Creating Layer relu5
I0403 14:59:00.357853  8595 net.cpp:425] relu5 <- conv5
I0403 14:59:00.357874  8595 net.cpp:386] relu5 -> conv5 (in-place)
I0403 14:59:00.358160  8595 net.cpp:141] Setting up relu5
I0403 14:59:00.358187  8595 net.cpp:148] Top shape: 100 256 13 13 (4326400)
I0403 14:59:00.358204  8595 net.cpp:156] Memory required for data: 818009200
I0403 14:59:00.358222  8595 layer_factory.hpp:77] Creating layer pool5
I0403 14:59:00.358247  8595 net.cpp:91] Creating Layer pool5
I0403 14:59:00.358264  8595 net.cpp:425] pool5 <- conv5
I0403 14:59:00.358283  8595 net.cpp:399] pool5 -> pool5
I0403 14:59:00.358347  8595 net.cpp:141] Setting up pool5
I0403 14:59:00.358371  8595 net.cpp:148] Top shape: 100 256 6 6 (921600)
I0403 14:59:00.358386  8595 net.cpp:156] Memory required for data: 821695600
I0403 14:59:00.358402  8595 layer_factory.hpp:77] Creating layer fc6
I0403 14:59:00.358428  8595 net.cpp:91] Creating Layer fc6
I0403 14:59:00.358446  8595 net.cpp:425] fc6 <- pool5
I0403 14:59:00.358469  8595 net.cpp:399] fc6 -> fc6
I0403 14:59:01.878970  8595 net.cpp:141] Setting up fc6
I0403 14:59:01.879061  8595 net.cpp:148] Top shape: 100 4096 (409600)
I0403 14:59:01.879077  8595 net.cpp:156] Memory required for data: 823334000
I0403 14:59:01.879099  8595 layer_factory.hpp:77] Creating layer relu6
I0403 14:59:01.879127  8595 net.cpp:91] Creating Layer relu6
I0403 14:59:01.879144  8595 net.cpp:425] relu6 <- fc6
I0403 14:59:01.879163  8595 net.cpp:386] relu6 -> fc6 (in-place)
I0403 14:59:01.879390  8595 net.cpp:141] Setting up relu6
I0403 14:59:01.879415  8595 net.cpp:148] Top shape: 100 4096 (409600)
I0403 14:59:01.879429  8595 net.cpp:156] Memory required for data: 824972400
I0403 14:59:01.879443  8595 layer_factory.hpp:77] Creating layer drop6
I0403 14:59:01.879462  8595 net.cpp:91] Creating Layer drop6
I0403 14:59:01.879477  8595 net.cpp:425] drop6 <- fc6
I0403 14:59:01.879497  8595 net.cpp:386] drop6 -> fc6 (in-place)
I0403 14:59:01.879549  8595 net.cpp:141] Setting up drop6
I0403 14:59:01.879575  8595 net.cpp:148] Top shape: 100 4096 (409600)
I0403 14:59:01.879590  8595 net.cpp:156] Memory required for data: 826610800
I0403 14:59:01.879603  8595 layer_factory.hpp:77] Creating layer fc7
I0403 14:59:01.879622  8595 net.cpp:91] Creating Layer fc7
I0403 14:59:01.879637  8595 net.cpp:425] fc7 <- fc6
I0403 14:59:01.879657  8595 net.cpp:399] fc7 -> fc7
I0403 14:59:02.545614  8595 net.cpp:141] Setting up fc7
I0403 14:59:02.545704  8595 net.cpp:148] Top shape: 100 4096 (409600)
I0403 14:59:02.545720  8595 net.cpp:156] Memory required for data: 828249200
I0403 14:59:02.545742  8595 layer_factory.hpp:77] Creating layer relu7
I0403 14:59:02.545763  8595 net.cpp:91] Creating Layer relu7
I0403 14:59:02.545780  8595 net.cpp:425] relu7 <- fc7
I0403 14:59:02.545801  8595 net.cpp:386] relu7 -> fc7 (in-place)
I0403 14:59:02.546187  8595 net.cpp:141] Setting up relu7
I0403 14:59:02.546213  8595 net.cpp:148] Top shape: 100 4096 (409600)
I0403 14:59:02.546257  8595 net.cpp:156] Memory required for data: 829887600
I0403 14:59:02.546272  8595 layer_factory.hpp:77] Creating layer drop7
I0403 14:59:02.546291  8595 net.cpp:91] Creating Layer drop7
I0403 14:59:02.546306  8595 net.cpp:425] drop7 <- fc7
I0403 14:59:02.546325  8595 net.cpp:386] drop7 -> fc7 (in-place)
I0403 14:59:02.546368  8595 net.cpp:141] Setting up drop7
I0403 14:59:02.546391  8595 net.cpp:148] Top shape: 100 4096 (409600)
I0403 14:59:02.546404  8595 net.cpp:156] Memory required for data: 831526000
I0403 14:59:02.546419  8595 layer_factory.hpp:77] Creating layer fc8_plantvillage
I0403 14:59:02.546440  8595 net.cpp:91] Creating Layer fc8_plantvillage
I0403 14:59:02.546457  8595 net.cpp:425] fc8_plantvillage <- fc7
I0403 14:59:02.546478  8595 net.cpp:399] fc8_plantvillage -> fc8_plantvillage
I0403 14:59:02.553025  8595 net.cpp:141] Setting up fc8_plantvillage
I0403 14:59:02.553053  8595 net.cpp:148] Top shape: 100 38 (3800)
I0403 14:59:02.553067  8595 net.cpp:156] Memory required for data: 831541200
I0403 14:59:02.553084  8595 layer_factory.hpp:77] Creating layer fc8_plantvillage_fc8_plantvillage_0_split
I0403 14:59:02.553103  8595 net.cpp:91] Creating Layer fc8_plantvillage_fc8_plantvillage_0_split
I0403 14:59:02.553119  8595 net.cpp:425] fc8_plantvillage_fc8_plantvillage_0_split <- fc8_plantvillage
I0403 14:59:02.553138  8595 net.cpp:399] fc8_plantvillage_fc8_plantvillage_0_split -> fc8_plantvillage_fc8_plantvillage_0_split_0
I0403 14:59:02.553158  8595 net.cpp:399] fc8_plantvillage_fc8_plantvillage_0_split -> fc8_plantvillage_fc8_plantvillage_0_split_1
I0403 14:59:02.553179  8595 net.cpp:399] fc8_plantvillage_fc8_plantvillage_0_split -> fc8_plantvillage_fc8_plantvillage_0_split_2
I0403 14:59:02.553252  8595 net.cpp:141] Setting up fc8_plantvillage_fc8_plantvillage_0_split
I0403 14:59:02.553277  8595 net.cpp:148] Top shape: 100 38 (3800)
I0403 14:59:02.553292  8595 net.cpp:148] Top shape: 100 38 (3800)
I0403 14:59:02.553308  8595 net.cpp:148] Top shape: 100 38 (3800)
I0403 14:59:02.553320  8595 net.cpp:156] Memory required for data: 831586800
I0403 14:59:02.553334  8595 layer_factory.hpp:77] Creating layer prob
I0403 14:59:02.553354  8595 net.cpp:91] Creating Layer prob
I0403 14:59:02.553369  8595 net.cpp:425] prob <- fc8_plantvillage_fc8_plantvillage_0_split_0
I0403 14:59:02.553388  8595 net.cpp:399] prob -> prob
I0403 14:59:02.553604  8595 net.cpp:141] Setting up prob
I0403 14:59:02.553632  8595 net.cpp:148] Top shape: 100 38 (3800)
I0403 14:59:02.553648  8595 net.cpp:156] Memory required for data: 831602000
I0403 14:59:02.553663  8595 layer_factory.hpp:77] Creating layer hdf5out
I0403 14:59:02.553680  8595 net.cpp:91] Creating Layer hdf5out
I0403 14:59:02.553696  8595 net.cpp:425] hdf5out <- prob
I0403 14:59:02.553712  8595 net.cpp:425] hdf5out <- label_data_1_split_0
I0403 14:59:02.555794  8595 net.cpp:141] Setting up hdf5out
…
