…
I0403 15:10:55.280944  9320 net.cpp:313] The NetState phase (1) differed from the phase (0) specified by a rule in layer data
I0403 15:10:55.281266  9320 net.cpp:49] Initializing net from parameters: 
state {
  phase: TEST
}
layer {
  name: "data"
  type: "Data"
  top: "data"
  top: "label"
  include {
    phase: TEST
  }
  transform_param {
    crop_size: 227
    mean_file: "/home/mohanty/data/final_dataset/lmdb/color-50-50/mean.binaryproto"
  }
  data_param {
    source: "/home/mohanty/data/final_dataset/lmdb/color-50-50/test_db"
    batch_size: 100
    backend: LMDB
  }
}
layer {
  name: "conv1"
  type: "Convolution"
  bottom: "data"
  top: "conv1"
  param {
    lr_mult: 1
    decay_mult: 1
  }
  param {
    lr_mult: 2
    decay_mult: 0
  }
  convolution_param {
    num_output: 96
    kernel_size: 11
    stride: 4
    weight_filler {
      type: "gaussian"
      std: 0.01
    }
    bias_filler {
      type: "constant"
      value: 0
    }
  }
}
layer {
  name: "relu1"
  type: "ReLU"
  bottom: "conv1"
  top: "conv1"
}
layer {
  name: "norm1"
  type: "LRN"
  bottom: "conv1"
  top: "norm1"
  lrn_param {
    local_size: 5
    alpha: 0.0001
    beta: 0.75
  }
}
layer {
  name: "pool1"
  type: "Pooling"
  bottom: "norm1"
  top: "pool1"
  pooling_param {
    pool: MAX
    kernel_size: 3
    stride: 2
  }
}
layer {
  name: "conv2"
  type: "Convolution"
  bottom: "pool1"
  top: "conv2"
  param {
    lr_mult: 1
    decay_mult: 1
  }
  param {
    lr_mult: 2
    decay_mult: 0
  }
  convolution_param {
    num_output: 256
    pad: 2
    kernel_size: 5
    group: 2
    weight_filler {
      type: "gaussian"
      std: 0.01
    }
    bias_filler {
      type: "constant"
      value: 0.1
    }
  }
}
layer {
  name: "relu2"
  type: "ReLU"
  bottom: "conv2"
  top: "conv2"
}
layer {
  name: "norm2"
  type: "LRN"
  bottom: "conv2"
  top: "norm2"
  lrn_param {
    local_size: 5
    alpha: 0.0001
    beta: 0.75
  }
}
layer {
  name: "pool2"
  type: "Pooling"
  bottom: "norm2"
  top: "pool2"
  pooling_param {
    pool: MAX
    kernel_size: 3
    stride: 2
  }
}
layer {
  name: "conv3"
  type: "Convolution"
  bottom: "pool2"
  top: "conv3"
  param {
    lr_mult: 1
    decay_mult: 1
  }
  param {
    lr_mult: 2
    decay_mult: 0
  }
  convolution_param {
    num_output: 384
    pad: 1
    kernel_size: 3
    weight_filler {
      type: "gaussian"
      std: 0.01
    }
    bias_filler {
      type: "constant"
      value: 0
    }
  }
}
layer {
  name: "relu3"
  type: "ReLU"
  bottom: "conv3"
  top: "conv3"
}
layer {
  name: "conv4"
  type: "Convolution"
  bottom: "conv3"
  top: "conv4"
  param {
    lr_mult: 1
    decay_mult: 1
  }
  param {
    lr_mult: 2
    decay_mult: 0
  }
  convolution_param {
    num_output: 384
    pad: 1
    kernel_size: 3
    group: 2
    weight_filler {
      type: "gaussian"
      std: 0.01
    }
    bias_filler {
      type: "constant"
      value: 0.1
    }
  }
}
layer {
  name: "relu4"
  type: "ReLU"
  bottom: "conv4"
  top: "conv4"
}
layer {
  name: "conv5"
  type: "Convolution"
  bottom: "conv4"
  top: "conv5"
  param {
    lr_mult: 1
    decay_mult: 1
  }
  param {
    lr_mult: 2
    decay_mult: 0
  }
  convolution_param {
    num_output: 256
    pad: 1
    kernel_size: 3
    group: 2
    weight_filler {
      type: "gaussian"
      std: 0.01
    }
    bias_filler {
      type: "constant"
      value: 0.1
    }
  }
}
layer {
  name: "relu5"
  type: "ReLU"
  bottom: "conv5"
  top: "conv5"
}
layer {
  name: "pool5"
  type: "Pooling"
  bottom: "conv5"
  top: "pool5"
  pooling_param {
    pool: MAX
    kernel_size: 3
    stride: 2
  }
}
layer {
  name: "fc6"
  type: "InnerProduct"
  bottom: "pool5"
  top: "fc6"
  param {
    lr_mult: 1
    decay_mult: 1
  }
  param {
    lr_mult: 2
    decay_mult: 0
  }
  inner_product_param {
    num_output: 4096
    weight_filler {
      type: "gaussian"
      std: 0.005
    }
    bias_filler {
      type: "constant"
      value: 0.1
    }
  }
}
layer {
  name: "relu6"
  type: "ReLU"
  bottom: "fc6"
  top: "fc6"
}
layer {
  name: "drop6"
  type: "Dropout"
  bottom: "fc6"
  top: "fc6"
  dropout_param {
    dropout_ratio: 0.5
  }
}
layer {
  name: "fc7"
  type: "InnerProduct"
  bottom: "fc6"
  top: "fc7"
  param {
    lr_mult: 1
    decay_mult: 1
  }
  param {
    lr_mult: 2
    decay_mult: 0
  }
  inner_product_param {
    num_output: 4096
    weight_filler {
      type: "gaussian"
      std: 0.005
    }
    bias_filler {
      type: "constant"
      value: 0.1
    }
  }
}
layer {
  name: "relu7"
  type: "ReLU"
  bottom: "fc7"
  top: "fc7"
}
layer {
  name: "drop7"
  type: "Dropout"
  bottom: "fc7"
  top: "fc7"
  dropout_param {
    dropout_ratio: 0.5
  }
}
layer {
  name: "fc8_plantvillage"
  type: "InnerProduct"
  bottom: "fc7"
  top: "fc8_plantvillage"
  param {
    lr_mult: 1
    decay_mult: 1
  }
  param {
    lr_mult: 2
    decay_mult: 0
  }
  inner_product_param {
    num_output: 38
    weight_filler {
      type: "gaussian"
      std: 0.01
    }
    bias_filler {
      type: "constant"
      value: 0
    }
  }
}
layer {
  name: "prob"
  type: "Softmax"
  bottom: "fc8_plantvillage"
  top: "prob"
  include {
    phase: TEST
  }
}
layer {
  name: "hdf5out"
  type: "HDF5Output"
  bottom: "prob"
  bottom: "label"
  include {
    phase: TEST
  }
  hdf5_output_param {
    file_name: "hdf5_dumps/iter_8075.h5"
  }
}
layer {
  name: "loss"
  type: "SoftmaxWithLoss"
  bottom: "fc8_plantvillage"
  bottom: "label"
  top: "loss"
}
layer {
  name: "accuracy"
  type: "Accuracy"
  bottom: "fc8_plantvillage"
  bottom: "label"
  top: "accuracy"
  include {
    phase: TEST
  }
}
I0403 15:10:55.281818  9320 layer_factory.hpp:77] Creating layer data
I0403 15:10:55.282471  9320 net.cpp:91] Creating Layer data
I0403 15:10:55.282503  9320 net.cpp:399] data -> data
I0403 15:10:55.282554  9320 net.cpp:399] data -> label
I0403 15:10:55.282590  9320 data_transformer.cpp:25] Loading mean file from: /home/mohanty/data/final_dataset/lmdb/color-50-50/mean.binaryproto
I0403 15:10:55.286670  9324 db_lmdb.cpp:38] Opened lmdb /home/mohanty/data/final_dataset/lmdb/color-50-50/test_db
I0403 15:10:55.296759  9320 data_layer.cpp:41] output data size: 100,3,227,227
I0403 15:10:55.416649  9320 net.cpp:141] Setting up data
I0403 15:10:55.416755  9320 net.cpp:148] Top shape: 100 3 227 227 (15458700)
I0403 15:10:55.416777  9320 net.cpp:148] Top shape: 100 (100)
I0403 15:10:55.416792  9320 net.cpp:156] Memory required for data: 61835200
I0403 15:10:55.416820  9320 layer_factory.hpp:77] Creating layer label_data_1_split
I0403 15:10:55.416844  9320 net.cpp:91] Creating Layer label_data_1_split
I0403 15:10:55.416862  9320 net.cpp:425] label_data_1_split <- label
I0403 15:10:55.416893  9320 net.cpp:399] label_data_1_split -> label_data_1_split_0
I0403 15:10:55.416920  9320 net.cpp:399] label_data_1_split -> label_data_1_split_1
I0403 15:10:55.416941  9320 net.cpp:399] label_data_1_split -> label_data_1_split_2
I0403 15:10:55.417007  9320 net.cpp:141] Setting up label_data_1_split
I0403 15:10:55.417031  9320 net.cpp:148] Top shape: 100 (100)
I0403 15:10:55.417047  9320 net.cpp:148] Top shape: 100 (100)
I0403 15:10:55.417063  9320 net.cpp:148] Top shape: 100 (100)
I0403 15:10:55.417078  9320 net.cpp:156] Memory required for data: 61836400
I0403 15:10:55.417093  9320 layer_factory.hpp:77] Creating layer conv1
I0403 15:10:55.417124  9320 net.cpp:91] Creating Layer conv1
I0403 15:10:55.417141  9320 net.cpp:425] conv1 <- data
I0403 15:10:55.417161  9320 net.cpp:399] conv1 -> conv1
I0403 15:10:55.560557  9320 net.cpp:141] Setting up conv1
I0403 15:10:55.560649  9320 net.cpp:148] Top shape: 100 96 55 55 (29040000)
I0403 15:10:55.560668  9320 net.cpp:156] Memory required for data: 177996400
I0403 15:10:55.560699  9320 layer_factory.hpp:77] Creating layer relu1
I0403 15:10:55.560729  9320 net.cpp:91] Creating Layer relu1
I0403 15:10:55.560746  9320 net.cpp:425] relu1 <- conv1
I0403 15:10:55.560766  9320 net.cpp:386] relu1 -> conv1 (in-place)
I0403 15:10:55.561030  9320 net.cpp:141] Setting up relu1
I0403 15:10:55.561058  9320 net.cpp:148] Top shape: 100 96 55 55 (29040000)
I0403 15:10:55.561074  9320 net.cpp:156] Memory required for data: 294156400
I0403 15:10:55.561120  9320 layer_factory.hpp:77] Creating layer norm1
I0403 15:10:55.561149  9320 net.cpp:91] Creating Layer norm1
I0403 15:10:55.561169  9320 net.cpp:425] norm1 <- conv1
I0403 15:10:55.561187  9320 net.cpp:399] norm1 -> norm1
I0403 15:10:55.561512  9320 net.cpp:141] Setting up norm1
I0403 15:10:55.561540  9320 net.cpp:148] Top shape: 100 96 55 55 (29040000)
I0403 15:10:55.561556  9320 net.cpp:156] Memory required for data: 410316400
I0403 15:10:55.561573  9320 layer_factory.hpp:77] Creating layer pool1
I0403 15:10:55.561596  9320 net.cpp:91] Creating Layer pool1
I0403 15:10:55.561617  9320 net.cpp:425] pool1 <- norm1
I0403 15:10:55.561636  9320 net.cpp:399] pool1 -> pool1
I0403 15:10:55.561708  9320 net.cpp:141] Setting up pool1
I0403 15:10:55.561733  9320 net.cpp:148] Top shape: 100 96 27 27 (6998400)
I0403 15:10:55.561748  9320 net.cpp:156] Memory required for data: 438310000
I0403 15:10:55.561764  9320 layer_factory.hpp:77] Creating layer conv2
I0403 15:10:55.561791  9320 net.cpp:91] Creating Layer conv2
I0403 15:10:55.561808  9320 net.cpp:425] conv2 <- pool1
I0403 15:10:55.561830  9320 net.cpp:399] conv2 -> conv2
I0403 15:10:55.576876  9320 net.cpp:141] Setting up conv2
I0403 15:10:55.576911  9320 net.cpp:148] Top shape: 100 256 27 27 (18662400)
I0403 15:10:55.576928  9320 net.cpp:156] Memory required for data: 512959600
I0403 15:10:55.576951  9320 layer_factory.hpp:77] Creating layer relu2
I0403 15:10:55.576969  9320 net.cpp:91] Creating Layer relu2
I0403 15:10:55.576992  9320 net.cpp:425] relu2 <- conv2
I0403 15:10:55.577014  9320 net.cpp:386] relu2 -> conv2 (in-place)
I0403 15:10:55.577294  9320 net.cpp:141] Setting up relu2
I0403 15:10:55.577322  9320 net.cpp:148] Top shape: 100 256 27 27 (18662400)
I0403 15:10:55.577337  9320 net.cpp:156] Memory required for data: 587609200
I0403 15:10:55.577353  9320 layer_factory.hpp:77] Creating layer norm2
I0403 15:10:55.577376  9320 net.cpp:91] Creating Layer norm2
I0403 15:10:55.577394  9320 net.cpp:425] norm2 <- conv2
I0403 15:10:55.577414  9320 net.cpp:399] norm2 -> norm2
I0403 15:10:55.577620  9320 net.cpp:141] Setting up norm2
I0403 15:10:55.577646  9320 net.cpp:148] Top shape: 100 256 27 27 (18662400)
I0403 15:10:55.577661  9320 net.cpp:156] Memory required for data: 662258800
I0403 15:10:55.577677  9320 layer_factory.hpp:77] Creating layer pool2
I0403 15:10:55.577695  9320 net.cpp:91] Creating Layer pool2
I0403 15:10:55.577711  9320 net.cpp:425] pool2 <- norm2
I0403 15:10:55.577733  9320 net.cpp:399] pool2 -> pool2
I0403 15:10:55.577790  9320 net.cpp:141] Setting up pool2
I0403 15:10:55.577813  9320 net.cpp:148] Top shape: 100 256 13 13 (4326400)
I0403 15:10:55.577828  9320 net.cpp:156] Memory required for data: 679564400
I0403 15:10:55.577843  9320 layer_factory.hpp:77] Creating layer conv3
I0403 15:10:55.577868  9320 net.cpp:91] Creating Layer conv3
I0403 15:10:55.577885  9320 net.cpp:425] conv3 <- pool2
I0403 15:10:55.577904  9320 net.cpp:399] conv3 -> conv3
I0403 15:10:55.618675  9320 net.cpp:141] Setting up conv3
I0403 15:10:55.618736  9320 net.cpp:148] Top shape: 100 384 13 13 (6489600)
I0403 15:10:55.618753  9320 net.cpp:156] Memory required for data: 705522800
I0403 15:10:55.618778  9320 layer_factory.hpp:77] Creating layer relu3
I0403 15:10:55.618803  9320 net.cpp:91] Creating Layer relu3
I0403 15:10:55.618820  9320 net.cpp:425] relu3 <- conv3
I0403 15:10:55.618839  9320 net.cpp:386] relu3 -> conv3 (in-place)
I0403 15:10:55.619130  9320 net.cpp:141] Setting up relu3
I0403 15:10:55.619158  9320 net.cpp:148] Top shape: 100 384 13 13 (6489600)
I0403 15:10:55.619174  9320 net.cpp:156] Memory required for data: 731481200
I0403 15:10:55.619190  9320 layer_factory.hpp:77] Creating layer conv4
I0403 15:10:55.619216  9320 net.cpp:91] Creating Layer conv4
I0403 15:10:55.619235  9320 net.cpp:425] conv4 <- conv3
I0403 15:10:55.619258  9320 net.cpp:399] conv4 -> conv4
I0403 15:10:55.649266  9320 net.cpp:141] Setting up conv4
I0403 15:10:55.649309  9320 net.cpp:148] Top shape: 100 384 13 13 (6489600)
I0403 15:10:55.649355  9320 net.cpp:156] Memory required for data: 757439600
I0403 15:10:55.649376  9320 layer_factory.hpp:77] Creating layer relu4
I0403 15:10:55.649396  9320 net.cpp:91] Creating Layer relu4
I0403 15:10:55.649413  9320 net.cpp:425] relu4 <- conv4
I0403 15:10:55.649435  9320 net.cpp:386] relu4 -> conv4 (in-place)
I0403 15:10:55.649711  9320 net.cpp:141] Setting up relu4
I0403 15:10:55.649740  9320 net.cpp:148] Top shape: 100 384 13 13 (6489600)
I0403 15:10:55.649757  9320 net.cpp:156] Memory required for data: 783398000
I0403 15:10:55.649773  9320 layer_factory.hpp:77] Creating layer conv5
I0403 15:10:55.649797  9320 net.cpp:91] Creating Layer conv5
I0403 15:10:55.649816  9320 net.cpp:425] conv5 <- conv4
I0403 15:10:55.649838  9320 net.cpp:399] conv5 -> conv5
I0403 15:10:55.670723  9320 net.cpp:141] Setting up conv5
I0403 15:10:55.670761  9320 net.cpp:148] Top shape: 100 256 13 13 (4326400)
I0403 15:10:55.670778  9320 net.cpp:156] Memory required for data: 800703600
I0403 15:10:55.670804  9320 layer_factory.hpp:77] Creating layer relu5
I0403 15:10:55.670825  9320 net.cpp:91] Creating Layer relu5
I0403 15:10:55.670840  9320 net.cpp:425] relu5 <- conv5
I0403 15:10:55.670861  9320 net.cpp:386] relu5 -> conv5 (in-place)
I0403 15:10:55.671144  9320 net.cpp:141] Setting up relu5
I0403 15:10:55.671172  9320 net.cpp:148] Top shape: 100 256 13 13 (4326400)
I0403 15:10:55.671188  9320 net.cpp:156] Memory required for data: 818009200
I0403 15:10:55.671205  9320 layer_factory.hpp:77] Creating layer pool5
I0403 15:10:55.671229  9320 net.cpp:91] Creating Layer pool5
I0403 15:10:55.671247  9320 net.cpp:425] pool5 <- conv5
I0403 15:10:55.671267  9320 net.cpp:399] pool5 -> pool5
I0403 15:10:55.671372  9320 net.cpp:141] Setting up pool5
I0403 15:10:55.671396  9320 net.cpp:148] Top shape: 100 256 6 6 (921600)
I0403 15:10:55.671411  9320 net.cpp:156] Memory required for data: 821695600
I0403 15:10:55.671427  9320 layer_factory.hpp:77] Creating layer fc6
I0403 15:10:55.671457  9320 net.cpp:91] Creating Layer fc6
I0403 15:10:55.671475  9320 net.cpp:425] fc6 <- pool5
I0403 15:10:55.671494  9320 net.cpp:399] fc6 -> fc6
I0403 15:10:57.199548  9320 net.cpp:141] Setting up fc6
I0403 15:10:57.199638  9320 net.cpp:148] Top shape: 100 4096 (409600)
I0403 15:10:57.199656  9320 net.cpp:156] Memory required for data: 823334000
I0403 15:10:57.199676  9320 layer_factory.hpp:77] Creating layer relu6
I0403 15:10:57.199699  9320 net.cpp:91] Creating Layer relu6
I0403 15:10:57.199717  9320 net.cpp:425] relu6 <- fc6
I0403 15:10:57.199738  9320 net.cpp:386] relu6 -> fc6 (in-place)
I0403 15:10:57.199954  9320 net.cpp:141] Setting up relu6
I0403 15:10:57.199983  9320 net.cpp:148] Top shape: 100 4096 (409600)
I0403 15:10:57.200000  9320 net.cpp:156] Memory required for data: 824972400
I0403 15:10:57.200014  9320 layer_factory.hpp:77] Creating layer drop6
I0403 15:10:57.200033  9320 net.cpp:91] Creating Layer drop6
I0403 15:10:57.200049  9320 net.cpp:425] drop6 <- fc6
I0403 15:10:57.200074  9320 net.cpp:386] drop6 -> fc6 (in-place)
I0403 15:10:57.200139  9320 net.cpp:141] Setting up drop6
I0403 15:10:57.200165  9320 net.cpp:148] Top shape: 100 4096 (409600)
I0403 15:10:57.200181  9320 net.cpp:156] Memory required for data: 826610800
I0403 15:10:57.200194  9320 layer_factory.hpp:77] Creating layer fc7
I0403 15:10:57.200214  9320 net.cpp:91] Creating Layer fc7
I0403 15:10:57.200229  9320 net.cpp:425] fc7 <- fc6
I0403 15:10:57.200251  9320 net.cpp:399] fc7 -> fc7
I0403 15:10:57.866288  9320 net.cpp:141] Setting up fc7
I0403 15:10:57.866375  9320 net.cpp:148] Top shape: 100 4096 (409600)
I0403 15:10:57.866392  9320 net.cpp:156] Memory required for data: 828249200
I0403 15:10:57.866413  9320 layer_factory.hpp:77] Creating layer relu7
I0403 15:10:57.866436  9320 net.cpp:91] Creating Layer relu7
I0403 15:10:57.866453  9320 net.cpp:425] relu7 <- fc7
I0403 15:10:57.866474  9320 net.cpp:386] relu7 -> fc7 (in-place)
I0403 15:10:57.866854  9320 net.cpp:141] Setting up relu7
I0403 15:10:57.866880  9320 net.cpp:148] Top shape: 100 4096 (409600)
I0403 15:10:57.866925  9320 net.cpp:156] Memory required for data: 829887600
I0403 15:10:57.866940  9320 layer_factory.hpp:77] Creating layer drop7
I0403 15:10:57.866960  9320 net.cpp:91] Creating Layer drop7
I0403 15:10:57.866974  9320 net.cpp:425] drop7 <- fc7
I0403 15:10:57.867002  9320 net.cpp:386] drop7 -> fc7 (in-place)
I0403 15:10:57.867045  9320 net.cpp:141] Setting up drop7
I0403 15:10:57.867069  9320 net.cpp:148] Top shape: 100 4096 (409600)
I0403 15:10:57.867085  9320 net.cpp:156] Memory required for data: 831526000
I0403 15:10:57.867100  9320 layer_factory.hpp:77] Creating layer fc8_plantvillage
I0403 15:10:57.867120  9320 net.cpp:91] Creating Layer fc8_plantvillage
I0403 15:10:57.867135  9320 net.cpp:425] fc8_plantvillage <- fc7
I0403 15:10:57.867154  9320 net.cpp:399] fc8_plantvillage -> fc8_plantvillage
I0403 15:10:57.873860  9320 net.cpp:141] Setting up fc8_plantvillage
I0403 15:10:57.873889  9320 net.cpp:148] Top shape: 100 38 (3800)
I0403 15:10:57.873904  9320 net.cpp:156] Memory required for data: 831541200
I0403 15:10:57.873924  9320 layer_factory.hpp:77] Creating layer fc8_plantvillage_fc8_plantvillage_0_split
I0403 15:10:57.873942  9320 net.cpp:91] Creating Layer fc8_plantvillage_fc8_plantvillage_0_split
I0403 15:10:57.873958  9320 net.cpp:425] fc8_plantvillage_fc8_plantvillage_0_split <- fc8_plantvillage
I0403 15:10:57.873982  9320 net.cpp:399] fc8_plantvillage_fc8_plantvillage_0_split -> fc8_plantvillage_fc8_plantvillage_0_split_0
I0403 15:10:57.874006  9320 net.cpp:399] fc8_plantvillage_fc8_plantvillage_0_split -> fc8_plantvillage_fc8_plantvillage_0_split_1
I0403 15:10:57.874025  9320 net.cpp:399] fc8_plantvillage_fc8_plantvillage_0_split -> fc8_plantvillage_fc8_plantvillage_0_split_2
I0403 15:10:57.874104  9320 net.cpp:141] Setting up fc8_plantvillage_fc8_plantvillage_0_split
I0403 15:10:57.874127  9320 net.cpp:148] Top shape: 100 38 (3800)
I0403 15:10:57.874145  9320 net.cpp:148] Top shape: 100 38 (3800)
I0403 15:10:57.874161  9320 net.cpp:148] Top shape: 100 38 (3800)
I0403 15:10:57.874174  9320 net.cpp:156] Memory required for data: 831586800
I0403 15:10:57.874189  9320 layer_factory.hpp:77] Creating layer prob
I0403 15:10:57.874209  9320 net.cpp:91] Creating Layer prob
I0403 15:10:57.874224  9320 net.cpp:425] prob <- fc8_plantvillage_fc8_plantvillage_0_split_0
I0403 15:10:57.874245  9320 net.cpp:399] prob -> prob
I0403 15:10:57.874472  9320 net.cpp:141] Setting up prob
I0403 15:10:57.874497  9320 net.cpp:148] Top shape: 100 38 (3800)
I0403 15:10:57.874512  9320 net.cpp:156] Memory required for data: 831602000
I0403 15:10:57.874527  9320 layer_factory.hpp:77] Creating layer hdf5out
I0403 15:10:57.874547  9320 net.cpp:91] Creating Layer hdf5out
I0403 15:10:57.874562  9320 net.cpp:425] hdf5out <- prob
I0403 15:10:57.874579  9320 net.cpp:425] hdf5out <- label_data_1_split_0
I0403 15:10:57.876744  9320 net.cpp:141] Setting up hdf5out
…
