…
I0403 14:45:14.852995  7771 net.cpp:313] The NetState phase (1) differed from the phase (0) specified by a rule in layer data
I0403 14:45:14.853296  7771 net.cpp:49] Initializing net from parameters: 
state {
  phase: TEST
}
layer {
  name: "data"
  type: "Data"
  top: "data"
  top: "label"
  include {
    phase: TEST
  }
  transform_param {
    crop_size: 227
    mean_file: "/home/mohanty/data/final_dataset/lmdb/color-50-50/mean.binaryproto"
  }
  data_param {
    source: "/home/mohanty/data/final_dataset/lmdb/color-50-50/test_db"
    batch_size: 100
    backend: LMDB
  }
}
layer {
  name: "conv1"
  type: "Convolution"
  bottom: "data"
  top: "conv1"
  param {
    lr_mult: 1
    decay_mult: 1
  }
  param {
    lr_mult: 2
    decay_mult: 0
  }
  convolution_param {
    num_output: 96
    kernel_size: 11
    stride: 4
    weight_filler {
      type: "gaussian"
      std: 0.01
    }
    bias_filler {
      type: "constant"
      value: 0
    }
  }
}
layer {
  name: "relu1"
  type: "ReLU"
  bottom: "conv1"
  top: "conv1"
}
layer {
  name: "norm1"
  type: "LRN"
  bottom: "conv1"
  top: "norm1"
  lrn_param {
    local_size: 5
    alpha: 0.0001
    beta: 0.75
  }
}
layer {
  name: "pool1"
  type: "Pooling"
  bottom: "norm1"
  top: "pool1"
  pooling_param {
    pool: MAX
    kernel_size: 3
    stride: 2
  }
}
layer {
  name: "conv2"
  type: "Convolution"
  bottom: "pool1"
  top: "conv2"
  param {
    lr_mult: 1
    decay_mult: 1
  }
  param {
    lr_mult: 2
    decay_mult: 0
  }
  convolution_param {
    num_output: 256
    pad: 2
    kernel_size: 5
    group: 2
    weight_filler {
      type: "gaussian"
      std: 0.01
    }
    bias_filler {
      type: "constant"
      value: 0.1
    }
  }
}
layer {
  name: "relu2"
  type: "ReLU"
  bottom: "conv2"
  top: "conv2"
}
layer {
  name: "norm2"
  type: "LRN"
  bottom: "conv2"
  top: "norm2"
  lrn_param {
    local_size: 5
    alpha: 0.0001
    beta: 0.75
  }
}
layer {
  name: "pool2"
  type: "Pooling"
  bottom: "norm2"
  top: "pool2"
  pooling_param {
    pool: MAX
    kernel_size: 3
    stride: 2
  }
}
layer {
  name: "conv3"
  type: "Convolution"
  bottom: "pool2"
  top: "conv3"
  param {
    lr_mult: 1
    decay_mult: 1
  }
  param {
    lr_mult: 2
    decay_mult: 0
  }
  convolution_param {
    num_output: 384
    pad: 1
    kernel_size: 3
    weight_filler {
      type: "gaussian"
      std: 0.01
    }
    bias_filler {
      type: "constant"
      value: 0
    }
  }
}
layer {
  name: "relu3"
  type: "ReLU"
  bottom: "conv3"
  top: "conv3"
}
layer {
  name: "conv4"
  type: "Convolution"
  bottom: "conv3"
  top: "conv4"
  param {
    lr_mult: 1
    decay_mult: 1
  }
  param {
    lr_mult: 2
    decay_mult: 0
  }
  convolution_param {
    num_output: 384
    pad: 1
    kernel_size: 3
    group: 2
    weight_filler {
      type: "gaussian"
      std: 0.01
    }
    bias_filler {
      type: "constant"
      value: 0.1
    }
  }
}
layer {
  name: "relu4"
  type: "ReLU"
  bottom: "conv4"
  top: "conv4"
}
layer {
  name: "conv5"
  type: "Convolution"
  bottom: "conv4"
  top: "conv5"
  param {
    lr_mult: 1
    decay_mult: 1
  }
  param {
    lr_mult: 2
    decay_mult: 0
  }
  convolution_param {
    num_output: 256
    pad: 1
    kernel_size: 3
    group: 2
    weight_filler {
      type: "gaussian"
      std: 0.01
    }
    bias_filler {
      type: "constant"
      value: 0.1
    }
  }
}
layer {
  name: "relu5"
  type: "ReLU"
  bottom: "conv5"
  top: "conv5"
}
layer {
  name: "pool5"
  type: "Pooling"
  bottom: "conv5"
  top: "pool5"
  pooling_param {
    pool: MAX
    kernel_size: 3
    stride: 2
  }
}
layer {
  name: "fc6"
  type: "InnerProduct"
  bottom: "pool5"
  top: "fc6"
  param {
    lr_mult: 1
    decay_mult: 1
  }
  param {
    lr_mult: 2
    decay_mult: 0
  }
  inner_product_param {
    num_output: 4096
    weight_filler {
      type: "gaussian"
      std: 0.005
    }
    bias_filler {
      type: "constant"
      value: 0.1
    }
  }
}
layer {
  name: "relu6"
  type: "ReLU"
  bottom: "fc6"
  top: "fc6"
}
layer {
  name: "drop6"
  type: "Dropout"
  bottom: "fc6"
  top: "fc6"
  dropout_param {
    dropout_ratio: 0.5
  }
}
layer {
  name: "fc7"
  type: "InnerProduct"
  bottom: "fc6"
  top: "fc7"
  param {
    lr_mult: 1
    decay_mult: 1
  }
  param {
    lr_mult: 2
    decay_mult: 0
  }
  inner_product_param {
    num_output: 4096
    weight_filler {
      type: "gaussian"
      std: 0.005
    }
    bias_filler {
      type: "constant"
      value: 0.1
    }
  }
}
layer {
  name: "relu7"
  type: "ReLU"
  bottom: "fc7"
  top: "fc7"
}
layer {
  name: "drop7"
  type: "Dropout"
  bottom: "fc7"
  top: "fc7"
  dropout_param {
    dropout_ratio: 0.5
  }
}
layer {
  name: "fc8_plantvillage"
  type: "InnerProduct"
  bottom: "fc7"
  top: "fc8_plantvillage"
  param {
    lr_mult: 1
    decay_mult: 1
  }
  param {
    lr_mult: 2
    decay_mult: 0
  }
  inner_product_param {
    num_output: 38
    weight_filler {
      type: "gaussian"
      std: 0.01
    }
    bias_filler {
      type: "constant"
      value: 0
    }
  }
}
layer {
  name: "prob"
  type: "Softmax"
  bottom: "fc8_plantvillage"
  top: "prob"
  include {
    phase: TEST
  }
}
layer {
  name: "hdf5out"
  type: "HDF5Output"
  bottom: "prob"
  bottom: "label"
  include {
    phase: TEST
  }
  hdf5_output_param {
    file_name: "hdf5_dumps/iter_807.h5"
  }
}
layer {
  name: "loss"
  type: "SoftmaxWithLoss"
  bottom: "fc8_plantvillage"
  bottom: "label"
  top: "loss"
}
layer {
  name: "accuracy"
  type: "Accuracy"
  bottom: "fc8_plantvillage"
  bottom: "label"
  top: "accuracy"
  include {
    phase: TEST
  }
}
I0403 14:45:14.853873  7771 layer_factory.hpp:77] Creating layer data
I0403 14:45:14.854508  7771 net.cpp:91] Creating Layer data
I0403 14:45:14.854540  7771 net.cpp:399] data -> data
I0403 14:45:14.854590  7771 net.cpp:399] data -> label
I0403 14:45:14.854625  7771 data_transformer.cpp:25] Loading mean file from: /home/mohanty/data/final_dataset/lmdb/color-50-50/mean.binaryproto
I0403 14:45:14.857087  7775 db_lmdb.cpp:38] Opened lmdb /home/mohanty/data/final_dataset/lmdb/color-50-50/test_db
I0403 14:45:14.869035  7771 data_layer.cpp:41] output data size: 100,3,227,227
I0403 14:45:14.991061  7771 net.cpp:141] Setting up data
I0403 14:45:14.991166  7771 net.cpp:148] Top shape: 100 3 227 227 (15458700)
I0403 14:45:14.991189  7771 net.cpp:148] Top shape: 100 (100)
I0403 14:45:14.991204  7771 net.cpp:156] Memory required for data: 61835200
I0403 14:45:14.991241  7771 layer_factory.hpp:77] Creating layer label_data_1_split
I0403 14:45:14.991268  7771 net.cpp:91] Creating Layer label_data_1_split
I0403 14:45:14.991287  7771 net.cpp:425] label_data_1_split <- label
I0403 14:45:14.991317  7771 net.cpp:399] label_data_1_split -> label_data_1_split_0
I0403 14:45:14.991344  7771 net.cpp:399] label_data_1_split -> label_data_1_split_1
I0403 14:45:14.991364  7771 net.cpp:399] label_data_1_split -> label_data_1_split_2
I0403 14:45:14.991427  7771 net.cpp:141] Setting up label_data_1_split
I0403 14:45:14.991451  7771 net.cpp:148] Top shape: 100 (100)
I0403 14:45:14.991467  7771 net.cpp:148] Top shape: 100 (100)
I0403 14:45:14.991483  7771 net.cpp:148] Top shape: 100 (100)
I0403 14:45:14.991497  7771 net.cpp:156] Memory required for data: 61836400
I0403 14:45:14.991511  7771 layer_factory.hpp:77] Creating layer conv1
I0403 14:45:14.991542  7771 net.cpp:91] Creating Layer conv1
I0403 14:45:14.991560  7771 net.cpp:425] conv1 <- data
I0403 14:45:14.991580  7771 net.cpp:399] conv1 -> conv1
I0403 14:45:15.134259  7771 net.cpp:141] Setting up conv1
I0403 14:45:15.134346  7771 net.cpp:148] Top shape: 100 96 55 55 (29040000)
I0403 14:45:15.134362  7771 net.cpp:156] Memory required for data: 177996400
I0403 14:45:15.134393  7771 layer_factory.hpp:77] Creating layer relu1
I0403 14:45:15.134420  7771 net.cpp:91] Creating Layer relu1
I0403 14:45:15.134438  7771 net.cpp:425] relu1 <- conv1
I0403 14:45:15.134456  7771 net.cpp:386] relu1 -> conv1 (in-place)
I0403 14:45:15.134709  7771 net.cpp:141] Setting up relu1
I0403 14:45:15.134737  7771 net.cpp:148] Top shape: 100 96 55 55 (29040000)
I0403 14:45:15.134752  7771 net.cpp:156] Memory required for data: 294156400
I0403 14:45:15.134799  7771 layer_factory.hpp:77] Creating layer norm1
I0403 14:45:15.134827  7771 net.cpp:91] Creating Layer norm1
I0403 14:45:15.134845  7771 net.cpp:425] norm1 <- conv1
I0403 14:45:15.134862  7771 net.cpp:399] norm1 -> norm1
I0403 14:45:15.135164  7771 net.cpp:141] Setting up norm1
I0403 14:45:15.135190  7771 net.cpp:148] Top shape: 100 96 55 55 (29040000)
I0403 14:45:15.135207  7771 net.cpp:156] Memory required for data: 410316400
I0403 14:45:15.135222  7771 layer_factory.hpp:77] Creating layer pool1
I0403 14:45:15.135246  7771 net.cpp:91] Creating Layer pool1
I0403 14:45:15.135262  7771 net.cpp:425] pool1 <- norm1
I0403 14:45:15.135279  7771 net.cpp:399] pool1 -> pool1
I0403 14:45:15.135344  7771 net.cpp:141] Setting up pool1
I0403 14:45:15.135367  7771 net.cpp:148] Top shape: 100 96 27 27 (6998400)
I0403 14:45:15.135381  7771 net.cpp:156] Memory required for data: 438310000
I0403 14:45:15.135396  7771 layer_factory.hpp:77] Creating layer conv2
I0403 14:45:15.135421  7771 net.cpp:91] Creating Layer conv2
I0403 14:45:15.135437  7771 net.cpp:425] conv2 <- pool1
I0403 14:45:15.135453  7771 net.cpp:399] conv2 -> conv2
I0403 14:45:15.150176  7771 net.cpp:141] Setting up conv2
I0403 14:45:15.150210  7771 net.cpp:148] Top shape: 100 256 27 27 (18662400)
I0403 14:45:15.150226  7771 net.cpp:156] Memory required for data: 512959600
I0403 14:45:15.150248  7771 layer_factory.hpp:77] Creating layer relu2
I0403 14:45:15.150265  7771 net.cpp:91] Creating Layer relu2
I0403 14:45:15.150281  7771 net.cpp:425] relu2 <- conv2
I0403 14:45:15.150298  7771 net.cpp:386] relu2 -> conv2 (in-place)
I0403 14:45:15.150559  7771 net.cpp:141] Setting up relu2
I0403 14:45:15.150585  7771 net.cpp:148] Top shape: 100 256 27 27 (18662400)
I0403 14:45:15.150600  7771 net.cpp:156] Memory required for data: 587609200
I0403 14:45:15.150615  7771 layer_factory.hpp:77] Creating layer norm2
I0403 14:45:15.150635  7771 net.cpp:91] Creating Layer norm2
I0403 14:45:15.150651  7771 net.cpp:425] norm2 <- conv2
I0403 14:45:15.150668  7771 net.cpp:399] norm2 -> norm2
I0403 14:45:15.150848  7771 net.cpp:141] Setting up norm2
I0403 14:45:15.150873  7771 net.cpp:148] Top shape: 100 256 27 27 (18662400)
I0403 14:45:15.150887  7771 net.cpp:156] Memory required for data: 662258800
I0403 14:45:15.150902  7771 layer_factory.hpp:77] Creating layer pool2
I0403 14:45:15.150920  7771 net.cpp:91] Creating Layer pool2
I0403 14:45:15.150935  7771 net.cpp:425] pool2 <- norm2
I0403 14:45:15.150957  7771 net.cpp:399] pool2 -> pool2
I0403 14:45:15.151005  7771 net.cpp:141] Setting up pool2
I0403 14:45:15.151028  7771 net.cpp:148] Top shape: 100 256 13 13 (4326400)
I0403 14:45:15.151043  7771 net.cpp:156] Memory required for data: 679564400
I0403 14:45:15.151057  7771 layer_factory.hpp:77] Creating layer conv3
I0403 14:45:15.151077  7771 net.cpp:91] Creating Layer conv3
I0403 14:45:15.151093  7771 net.cpp:425] conv3 <- pool2
I0403 14:45:15.151110  7771 net.cpp:399] conv3 -> conv3
I0403 14:45:15.190744  7771 net.cpp:141] Setting up conv3
I0403 14:45:15.190804  7771 net.cpp:148] Top shape: 100 384 13 13 (6489600)
I0403 14:45:15.190820  7771 net.cpp:156] Memory required for data: 705522800
I0403 14:45:15.190843  7771 layer_factory.hpp:77] Creating layer relu3
I0403 14:45:15.190863  7771 net.cpp:91] Creating Layer relu3
I0403 14:45:15.190879  7771 net.cpp:425] relu3 <- conv3
I0403 14:45:15.190897  7771 net.cpp:386] relu3 -> conv3 (in-place)
I0403 14:45:15.191170  7771 net.cpp:141] Setting up relu3
I0403 14:45:15.191196  7771 net.cpp:148] Top shape: 100 384 13 13 (6489600)
I0403 14:45:15.191212  7771 net.cpp:156] Memory required for data: 731481200
I0403 14:45:15.191234  7771 layer_factory.hpp:77] Creating layer conv4
I0403 14:45:15.191256  7771 net.cpp:91] Creating Layer conv4
I0403 14:45:15.191272  7771 net.cpp:425] conv4 <- conv3
I0403 14:45:15.191293  7771 net.cpp:399] conv4 -> conv4
I0403 14:45:15.220042  7771 net.cpp:141] Setting up conv4
I0403 14:45:15.220088  7771 net.cpp:148] Top shape: 100 384 13 13 (6489600)
I0403 14:45:15.220134  7771 net.cpp:156] Memory required for data: 757439600
I0403 14:45:15.220154  7771 layer_factory.hpp:77] Creating layer relu4
I0403 14:45:15.220171  7771 net.cpp:91] Creating Layer relu4
I0403 14:45:15.220191  7771 net.cpp:425] relu4 <- conv4
I0403 14:45:15.220211  7771 net.cpp:386] relu4 -> conv4 (in-place)
I0403 14:45:15.220482  7771 net.cpp:141] Setting up relu4
I0403 14:45:15.220509  7771 net.cpp:148] Top shape: 100 384 13 13 (6489600)
I0403 14:45:15.220523  7771 net.cpp:156] Memory required for data: 783398000
I0403 14:45:15.220538  7771 layer_factory.hpp:77] Creating layer conv5
I0403 14:45:15.220561  7771 net.cpp:91] Creating Layer conv5
I0403 14:45:15.220577  7771 net.cpp:425] conv5 <- conv4
I0403 14:45:15.220602  7771 net.cpp:399] conv5 -> conv5
I0403 14:45:15.240412  7771 net.cpp:141] Setting up conv5
I0403 14:45:15.240447  7771 net.cpp:148] Top shape: 100 256 13 13 (4326400)
I0403 14:45:15.240463  7771 net.cpp:156] Memory required for data: 800703600
I0403 14:45:15.240485  7771 layer_factory.hpp:77] Creating layer relu5
I0403 14:45:15.240506  7771 net.cpp:91] Creating Layer relu5
I0403 14:45:15.240522  7771 net.cpp:425] relu5 <- conv5
I0403 14:45:15.240540  7771 net.cpp:386] relu5 -> conv5 (in-place)
I0403 14:45:15.240819  7771 net.cpp:141] Setting up relu5
I0403 14:45:15.240844  7771 net.cpp:148] Top shape: 100 256 13 13 (4326400)
I0403 14:45:15.240859  7771 net.cpp:156] Memory required for data: 818009200
I0403 14:45:15.240875  7771 layer_factory.hpp:77] Creating layer pool5
I0403 14:45:15.240900  7771 net.cpp:91] Creating Layer pool5
I0403 14:45:15.240918  7771 net.cpp:425] pool5 <- conv5
I0403 14:45:15.240936  7771 net.cpp:399] pool5 -> pool5
I0403 14:45:15.241000  7771 net.cpp:141] Setting up pool5
I0403 14:45:15.241024  7771 net.cpp:148] Top shape: 100 256 6 6 (921600)
I0403 14:45:15.241039  7771 net.cpp:156] Memory required for data: 821695600
I0403 14:45:15.241053  7771 layer_factory.hpp:77] Creating layer fc6
I0403 14:45:15.241081  7771 net.cpp:91] Creating Layer fc6
I0403 14:45:15.241098  7771 net.cpp:425] fc6 <- pool5
I0403 14:45:15.241117  7771 net.cpp:399] fc6 -> fc6
I0403 14:45:16.754237  7771 net.cpp:141] Setting up fc6
I0403 14:45:16.754325  7771 net.cpp:148] Top shape: 100 4096 (409600)
I0403 14:45:16.754343  7771 net.cpp:156] Memory required for data: 823334000
I0403 14:45:16.754364  7771 layer_factory.hpp:77] Creating layer relu6
I0403 14:45:16.754386  7771 net.cpp:91] Creating Layer relu6
I0403 14:45:16.754403  7771 net.cpp:425] relu6 <- fc6
I0403 14:45:16.754425  7771 net.cpp:386] relu6 -> fc6 (in-place)
I0403 14:45:16.754642  7771 net.cpp:141] Setting up relu6
I0403 14:45:16.754667  7771 net.cpp:148] Top shape: 100 4096 (409600)
I0403 14:45:16.754681  7771 net.cpp:156] Memory required for data: 824972400
I0403 14:45:16.754698  7771 layer_factory.hpp:77] Creating layer drop6
I0403 14:45:16.754715  7771 net.cpp:91] Creating Layer drop6
I0403 14:45:16.754730  7771 net.cpp:425] drop6 <- fc6
I0403 14:45:16.754753  7771 net.cpp:386] drop6 -> fc6 (in-place)
I0403 14:45:16.754808  7771 net.cpp:141] Setting up drop6
I0403 14:45:16.754832  7771 net.cpp:148] Top shape: 100 4096 (409600)
I0403 14:45:16.754845  7771 net.cpp:156] Memory required for data: 826610800
I0403 14:45:16.754860  7771 layer_factory.hpp:77] Creating layer fc7
I0403 14:45:16.754879  7771 net.cpp:91] Creating Layer fc7
I0403 14:45:16.754894  7771 net.cpp:425] fc7 <- fc6
I0403 14:45:16.754914  7771 net.cpp:399] fc7 -> fc7
I0403 14:45:17.425848  7771 net.cpp:141] Setting up fc7
I0403 14:45:17.425933  7771 net.cpp:148] Top shape: 100 4096 (409600)
I0403 14:45:17.425952  7771 net.cpp:156] Memory required for data: 828249200
I0403 14:45:17.425974  7771 layer_factory.hpp:77] Creating layer relu7
I0403 14:45:17.425998  7771 net.cpp:91] Creating Layer relu7
I0403 14:45:17.426017  7771 net.cpp:425] relu7 <- fc7
I0403 14:45:17.426034  7771 net.cpp:386] relu7 -> fc7 (in-place)
I0403 14:45:17.426409  7771 net.cpp:141] Setting up relu7
I0403 14:45:17.426434  7771 net.cpp:148] Top shape: 100 4096 (409600)
I0403 14:45:17.426481  7771 net.cpp:156] Memory required for data: 829887600
I0403 14:45:17.426496  7771 layer_factory.hpp:77] Creating layer drop7
I0403 14:45:17.426517  7771 net.cpp:91] Creating Layer drop7
I0403 14:45:17.426532  7771 net.cpp:425] drop7 <- fc7
I0403 14:45:17.426548  7771 net.cpp:386] drop7 -> fc7 (in-place)
I0403 14:45:17.426587  7771 net.cpp:141] Setting up drop7
I0403 14:45:17.426614  7771 net.cpp:148] Top shape: 100 4096 (409600)
I0403 14:45:17.426630  7771 net.cpp:156] Memory required for data: 831526000
I0403 14:45:17.426643  7771 layer_factory.hpp:77] Creating layer fc8_plantvillage
I0403 14:45:17.426662  7771 net.cpp:91] Creating Layer fc8_plantvillage
I0403 14:45:17.426676  7771 net.cpp:425] fc8_plantvillage <- fc7
I0403 14:45:17.426695  7771 net.cpp:399] fc8_plantvillage -> fc8_plantvillage
I0403 14:45:17.433223  7771 net.cpp:141] Setting up fc8_plantvillage
I0403 14:45:17.433250  7771 net.cpp:148] Top shape: 100 38 (3800)
I0403 14:45:17.433265  7771 net.cpp:156] Memory required for data: 831541200
I0403 14:45:17.433282  7771 layer_factory.hpp:77] Creating layer fc8_plantvillage_fc8_plantvillage_0_split
I0403 14:45:17.433303  7771 net.cpp:91] Creating Layer fc8_plantvillage_fc8_plantvillage_0_split
I0403 14:45:17.433320  7771 net.cpp:425] fc8_plantvillage_fc8_plantvillage_0_split <- fc8_plantvillage
I0403 14:45:17.433336  7771 net.cpp:399] fc8_plantvillage_fc8_plantvillage_0_split -> fc8_plantvillage_fc8_plantvillage_0_split_0
I0403 14:45:17.433354  7771 net.cpp:399] fc8_plantvillage_fc8_plantvillage_0_split -> fc8_plantvillage_fc8_plantvillage_0_split_1
I0403 14:45:17.433372  7771 net.cpp:399] fc8_plantvillage_fc8_plantvillage_0_split -> fc8_plantvillage_fc8_plantvillage_0_split_2
I0403 14:45:17.433451  7771 net.cpp:141] Setting up fc8_plantvillage_fc8_plantvillage_0_split
I0403 14:45:17.433475  7771 net.cpp:148] Top shape: 100 38 (3800)
I0403 14:45:17.433490  7771 net.cpp:148] Top shape: 100 38 (3800)
I0403 14:45:17.433506  7771 net.cpp:148] Top shape: 100 38 (3800)
I0403 14:45:17.433517  7771 net.cpp:156] Memory required for data: 831586800
I0403 14:45:17.433531  7771 layer_factory.hpp:77] Creating layer prob
I0403 14:45:17.433549  7771 net.cpp:91] Creating Layer prob
I0403 14:45:17.433563  7771 net.cpp:425] prob <- fc8_plantvillage_fc8_plantvillage_0_split_0
I0403 14:45:17.433583  7771 net.cpp:399] prob -> prob
I0403 14:45:17.433802  7771 net.cpp:141] Setting up prob
I0403 14:45:17.433826  7771 net.cpp:148] Top shape: 100 38 (3800)
I0403 14:45:17.433840  7771 net.cpp:156] Memory required for data: 831602000
I0403 14:45:17.433854  7771 layer_factory.hpp:77] Creating layer hdf5out
I0403 14:45:17.433874  7771 net.cpp:91] Creating Layer hdf5out
I0403 14:45:17.433890  7771 net.cpp:425] hdf5out <- prob
I0403 14:45:17.433905  7771 net.cpp:425] hdf5out <- label_data_1_split_0
I0403 14:45:17.436116  7771 net.cpp:141] Setting up hdf5out
…
