…
I0403 15:01:44.988566  8777 net.cpp:313] The NetState phase (1) differed from the phase (0) specified by a rule in layer data
I0403 15:01:44.988875  8777 net.cpp:49] Initializing net from parameters: 
state {
  phase: TEST
}
layer {
  name: "data"
  type: "Data"
  top: "data"
  top: "label"
  include {
    phase: TEST
  }
  transform_param {
    crop_size: 227
    mean_file: "/home/mohanty/data/final_dataset/lmdb/color-50-50/mean.binaryproto"
  }
  data_param {
    source: "/home/mohanty/data/final_dataset/lmdb/color-50-50/test_db"
    batch_size: 100
    backend: LMDB
  }
}
layer {
  name: "conv1"
  type: "Convolution"
  bottom: "data"
  top: "conv1"
  param {
    lr_mult: 1
    decay_mult: 1
  }
  param {
    lr_mult: 2
    decay_mult: 0
  }
  convolution_param {
    num_output: 96
    kernel_size: 11
    stride: 4
    weight_filler {
      type: "gaussian"
      std: 0.01
    }
    bias_filler {
      type: "constant"
      value: 0
    }
  }
}
layer {
  name: "relu1"
  type: "ReLU"
  bottom: "conv1"
  top: "conv1"
}
layer {
  name: "norm1"
  type: "LRN"
  bottom: "conv1"
  top: "norm1"
  lrn_param {
    local_size: 5
    alpha: 0.0001
    beta: 0.75
  }
}
layer {
  name: "pool1"
  type: "Pooling"
  bottom: "norm1"
  top: "pool1"
  pooling_param {
    pool: MAX
    kernel_size: 3
    stride: 2
  }
}
layer {
  name: "conv2"
  type: "Convolution"
  bottom: "pool1"
  top: "conv2"
  param {
    lr_mult: 1
    decay_mult: 1
  }
  param {
    lr_mult: 2
    decay_mult: 0
  }
  convolution_param {
    num_output: 256
    pad: 2
    kernel_size: 5
    group: 2
    weight_filler {
      type: "gaussian"
      std: 0.01
    }
    bias_filler {
      type: "constant"
      value: 0.1
    }
  }
}
layer {
  name: "relu2"
  type: "ReLU"
  bottom: "conv2"
  top: "conv2"
}
layer {
  name: "norm2"
  type: "LRN"
  bottom: "conv2"
  top: "norm2"
  lrn_param {
    local_size: 5
    alpha: 0.0001
    beta: 0.75
  }
}
layer {
  name: "pool2"
  type: "Pooling"
  bottom: "norm2"
  top: "pool2"
  pooling_param {
    pool: MAX
    kernel_size: 3
    stride: 2
  }
}
layer {
  name: "conv3"
  type: "Convolution"
  bottom: "pool2"
  top: "conv3"
  param {
    lr_mult: 1
    decay_mult: 1
  }
  param {
    lr_mult: 2
    decay_mult: 0
  }
  convolution_param {
    num_output: 384
    pad: 1
    kernel_size: 3
    weight_filler {
      type: "gaussian"
      std: 0.01
    }
    bias_filler {
      type: "constant"
      value: 0
    }
  }
}
layer {
  name: "relu3"
  type: "ReLU"
  bottom: "conv3"
  top: "conv3"
}
layer {
  name: "conv4"
  type: "Convolution"
  bottom: "conv3"
  top: "conv4"
  param {
    lr_mult: 1
    decay_mult: 1
  }
  param {
    lr_mult: 2
    decay_mult: 0
  }
  convolution_param {
    num_output: 384
    pad: 1
    kernel_size: 3
    group: 2
    weight_filler {
      type: "gaussian"
      std: 0.01
    }
    bias_filler {
      type: "constant"
      value: 0.1
    }
  }
}
layer {
  name: "relu4"
  type: "ReLU"
  bottom: "conv4"
  top: "conv4"
}
layer {
  name: "conv5"
  type: "Convolution"
  bottom: "conv4"
  top: "conv5"
  param {
    lr_mult: 1
    decay_mult: 1
  }
  param {
    lr_mult: 2
    decay_mult: 0
  }
  convolution_param {
    num_output: 256
    pad: 1
    kernel_size: 3
    group: 2
    weight_filler {
      type: "gaussian"
      std: 0.01
    }
    bias_filler {
      type: "constant"
      value: 0.1
    }
  }
}
layer {
  name: "relu5"
  type: "ReLU"
  bottom: "conv5"
  top: "conv5"
}
layer {
  name: "pool5"
  type: "Pooling"
  bottom: "conv5"
  top: "pool5"
  pooling_param {
    pool: MAX
    kernel_size: 3
    stride: 2
  }
}
layer {
  name: "fc6"
  type: "InnerProduct"
  bottom: "pool5"
  top: "fc6"
  param {
    lr_mult: 1
    decay_mult: 1
  }
  param {
    lr_mult: 2
    decay_mult: 0
  }
  inner_product_param {
    num_output: 4096
    weight_filler {
      type: "gaussian"
      std: 0.005
    }
    bias_filler {
      type: "constant"
      value: 0.1
    }
  }
}
layer {
  name: "relu6"
  type: "ReLU"
  bottom: "fc6"
  top: "fc6"
}
layer {
  name: "drop6"
  type: "Dropout"
  bottom: "fc6"
  top: "fc6"
  dropout_param {
    dropout_ratio: 0.5
  }
}
layer {
  name: "fc7"
  type: "InnerProduct"
  bottom: "fc6"
  top: "fc7"
  param {
    lr_mult: 1
    decay_mult: 1
  }
  param {
    lr_mult: 2
    decay_mult: 0
  }
  inner_product_param {
    num_output: 4096
    weight_filler {
      type: "gaussian"
      std: 0.005
    }
    bias_filler {
      type: "constant"
      value: 0.1
    }
  }
}
layer {
  name: "relu7"
  type: "ReLU"
  bottom: "fc7"
  top: "fc7"
}
layer {
  name: "drop7"
  type: "Dropout"
  bottom: "fc7"
  top: "fc7"
  dropout_param {
    dropout_ratio: 0.5
  }
}
layer {
  name: "fc8_plantvillage"
  type: "InnerProduct"
  bottom: "fc7"
  top: "fc8_plantvillage"
  param {
    lr_mult: 1
    decay_mult: 1
  }
  param {
    lr_mult: 2
    decay_mult: 0
  }
  inner_product_param {
    num_output: 38
    weight_filler {
      type: "gaussian"
      std: 0.01
    }
    bias_filler {
      type: "constant"
      value: 0
    }
  }
}
layer {
  name: "prob"
  type: "Softmax"
  bottom: "fc8_plantvillage"
  top: "prob"
  include {
    phase: TEST
  }
}
layer {
  name: "hdf5out"
  type: "HDF5Output"
  bottom: "prob"
  bottom: "label"
  include {
    phase: TEST
  }
  hdf5_output_param {
    file_name: "hdf5_dumps/iter_5649.h5"
  }
}
layer {
  name: "loss"
  type: "SoftmaxWithLoss"
  bottom: "fc8_plantvillage"
  bottom: "label"
  top: "loss"
}
layer {
  name: "accuracy"
  type: "Accuracy"
  bottom: "fc8_plantvillage"
  bottom: "label"
  top: "accuracy"
  include {
    phase: TEST
  }
}
I0403 15:01:44.989496  8777 layer_factory.hpp:77] Creating layer data
I0403 15:01:44.990123  8777 net.cpp:91] Creating Layer data
I0403 15:01:44.990154  8777 net.cpp:399] data -> data
I0403 15:01:44.990217  8777 net.cpp:399] data -> label
I0403 15:01:44.990252  8777 data_transformer.cpp:25] Loading mean file from: /home/mohanty/data/final_dataset/lmdb/color-50-50/mean.binaryproto
I0403 15:01:44.993055  8780 db_lmdb.cpp:38] Opened lmdb /home/mohanty/data/final_dataset/lmdb/color-50-50/test_db
I0403 15:01:45.004505  8777 data_layer.cpp:41] output data size: 100,3,227,227
I0403 15:01:45.126353  8777 net.cpp:141] Setting up data
I0403 15:01:45.126458  8777 net.cpp:148] Top shape: 100 3 227 227 (15458700)
I0403 15:01:45.126483  8777 net.cpp:148] Top shape: 100 (100)
I0403 15:01:45.126500  8777 net.cpp:156] Memory required for data: 61835200
I0403 15:01:45.126530  8777 layer_factory.hpp:77] Creating layer label_data_1_split
I0403 15:01:45.126556  8777 net.cpp:91] Creating Layer label_data_1_split
I0403 15:01:45.126576  8777 net.cpp:425] label_data_1_split <- label
I0403 15:01:45.126608  8777 net.cpp:399] label_data_1_split -> label_data_1_split_0
I0403 15:01:45.126636  8777 net.cpp:399] label_data_1_split -> label_data_1_split_1
I0403 15:01:45.126657  8777 net.cpp:399] label_data_1_split -> label_data_1_split_2
I0403 15:01:45.126721  8777 net.cpp:141] Setting up label_data_1_split
I0403 15:01:45.126744  8777 net.cpp:148] Top shape: 100 (100)
I0403 15:01:45.126760  8777 net.cpp:148] Top shape: 100 (100)
I0403 15:01:45.126776  8777 net.cpp:148] Top shape: 100 (100)
I0403 15:01:45.126791  8777 net.cpp:156] Memory required for data: 61836400
I0403 15:01:45.126806  8777 layer_factory.hpp:77] Creating layer conv1
I0403 15:01:45.126837  8777 net.cpp:91] Creating Layer conv1
I0403 15:01:45.126855  8777 net.cpp:425] conv1 <- data
I0403 15:01:45.126874  8777 net.cpp:399] conv1 -> conv1
I0403 15:01:45.271705  8777 net.cpp:141] Setting up conv1
I0403 15:01:45.271790  8777 net.cpp:148] Top shape: 100 96 55 55 (29040000)
I0403 15:01:45.271808  8777 net.cpp:156] Memory required for data: 177996400
I0403 15:01:45.271838  8777 layer_factory.hpp:77] Creating layer relu1
I0403 15:01:45.271867  8777 net.cpp:91] Creating Layer relu1
I0403 15:01:45.271883  8777 net.cpp:425] relu1 <- conv1
I0403 15:01:45.271903  8777 net.cpp:386] relu1 -> conv1 (in-place)
I0403 15:01:45.272161  8777 net.cpp:141] Setting up relu1
I0403 15:01:45.272187  8777 net.cpp:148] Top shape: 100 96 55 55 (29040000)
I0403 15:01:45.272204  8777 net.cpp:156] Memory required for data: 294156400
I0403 15:01:45.272250  8777 layer_factory.hpp:77] Creating layer norm1
I0403 15:01:45.272279  8777 net.cpp:91] Creating Layer norm1
I0403 15:01:45.272297  8777 net.cpp:425] norm1 <- conv1
I0403 15:01:45.272315  8777 net.cpp:399] norm1 -> norm1
I0403 15:01:45.272615  8777 net.cpp:141] Setting up norm1
I0403 15:01:45.272642  8777 net.cpp:148] Top shape: 100 96 55 55 (29040000)
I0403 15:01:45.272657  8777 net.cpp:156] Memory required for data: 410316400
I0403 15:01:45.272672  8777 layer_factory.hpp:77] Creating layer pool1
I0403 15:01:45.272696  8777 net.cpp:91] Creating Layer pool1
I0403 15:01:45.272712  8777 net.cpp:425] pool1 <- norm1
I0403 15:01:45.272730  8777 net.cpp:399] pool1 -> pool1
I0403 15:01:45.272796  8777 net.cpp:141] Setting up pool1
I0403 15:01:45.272819  8777 net.cpp:148] Top shape: 100 96 27 27 (6998400)
I0403 15:01:45.272835  8777 net.cpp:156] Memory required for data: 438310000
I0403 15:01:45.272850  8777 layer_factory.hpp:77] Creating layer conv2
I0403 15:01:45.272873  8777 net.cpp:91] Creating Layer conv2
I0403 15:01:45.272889  8777 net.cpp:425] conv2 <- pool1
I0403 15:01:45.272907  8777 net.cpp:399] conv2 -> conv2
I0403 15:01:45.289386  8777 net.cpp:141] Setting up conv2
I0403 15:01:45.289419  8777 net.cpp:148] Top shape: 100 256 27 27 (18662400)
I0403 15:01:45.289436  8777 net.cpp:156] Memory required for data: 512959600
I0403 15:01:45.289458  8777 layer_factory.hpp:77] Creating layer relu2
I0403 15:01:45.289475  8777 net.cpp:91] Creating Layer relu2
I0403 15:01:45.289491  8777 net.cpp:425] relu2 <- conv2
I0403 15:01:45.289508  8777 net.cpp:386] relu2 -> conv2 (in-place)
I0403 15:01:45.289768  8777 net.cpp:141] Setting up relu2
I0403 15:01:45.289794  8777 net.cpp:148] Top shape: 100 256 27 27 (18662400)
I0403 15:01:45.289809  8777 net.cpp:156] Memory required for data: 587609200
I0403 15:01:45.289824  8777 layer_factory.hpp:77] Creating layer norm2
I0403 15:01:45.289844  8777 net.cpp:91] Creating Layer norm2
I0403 15:01:45.289860  8777 net.cpp:425] norm2 <- conv2
I0403 15:01:45.289878  8777 net.cpp:399] norm2 -> norm2
I0403 15:01:45.290071  8777 net.cpp:141] Setting up norm2
I0403 15:01:45.290097  8777 net.cpp:148] Top shape: 100 256 27 27 (18662400)
I0403 15:01:45.290112  8777 net.cpp:156] Memory required for data: 662258800
I0403 15:01:45.290125  8777 layer_factory.hpp:77] Creating layer pool2
I0403 15:01:45.290143  8777 net.cpp:91] Creating Layer pool2
I0403 15:01:45.290158  8777 net.cpp:425] pool2 <- norm2
I0403 15:01:45.290177  8777 net.cpp:399] pool2 -> pool2
I0403 15:01:45.290225  8777 net.cpp:141] Setting up pool2
I0403 15:01:45.290247  8777 net.cpp:148] Top shape: 100 256 13 13 (4326400)
I0403 15:01:45.290261  8777 net.cpp:156] Memory required for data: 679564400
I0403 15:01:45.290277  8777 layer_factory.hpp:77] Creating layer conv3
I0403 15:01:45.290297  8777 net.cpp:91] Creating Layer conv3
I0403 15:01:45.290313  8777 net.cpp:425] conv3 <- pool2
I0403 15:01:45.290331  8777 net.cpp:399] conv3 -> conv3
I0403 15:01:45.328047  8777 net.cpp:141] Setting up conv3
I0403 15:01:45.328099  8777 net.cpp:148] Top shape: 100 384 13 13 (6489600)
I0403 15:01:45.328115  8777 net.cpp:156] Memory required for data: 705522800
I0403 15:01:45.328138  8777 layer_factory.hpp:77] Creating layer relu3
I0403 15:01:45.328160  8777 net.cpp:91] Creating Layer relu3
I0403 15:01:45.328176  8777 net.cpp:425] relu3 <- conv3
I0403 15:01:45.328194  8777 net.cpp:386] relu3 -> conv3 (in-place)
I0403 15:01:45.328449  8777 net.cpp:141] Setting up relu3
I0403 15:01:45.328476  8777 net.cpp:148] Top shape: 100 384 13 13 (6489600)
I0403 15:01:45.328491  8777 net.cpp:156] Memory required for data: 731481200
I0403 15:01:45.328506  8777 layer_factory.hpp:77] Creating layer conv4
I0403 15:01:45.328528  8777 net.cpp:91] Creating Layer conv4
I0403 15:01:45.328544  8777 net.cpp:425] conv4 <- conv3
I0403 15:01:45.328562  8777 net.cpp:399] conv4 -> conv4
I0403 15:01:45.358152  8777 net.cpp:141] Setting up conv4
I0403 15:01:45.358201  8777 net.cpp:148] Top shape: 100 384 13 13 (6489600)
I0403 15:01:45.358247  8777 net.cpp:156] Memory required for data: 757439600
I0403 15:01:45.358268  8777 layer_factory.hpp:77] Creating layer relu4
I0403 15:01:45.358289  8777 net.cpp:91] Creating Layer relu4
I0403 15:01:45.358305  8777 net.cpp:425] relu4 <- conv4
I0403 15:01:45.358325  8777 net.cpp:386] relu4 -> conv4 (in-place)
I0403 15:01:45.358635  8777 net.cpp:141] Setting up relu4
I0403 15:01:45.358665  8777 net.cpp:148] Top shape: 100 384 13 13 (6489600)
I0403 15:01:45.358682  8777 net.cpp:156] Memory required for data: 783398000
I0403 15:01:45.358696  8777 layer_factory.hpp:77] Creating layer conv5
I0403 15:01:45.358721  8777 net.cpp:91] Creating Layer conv5
I0403 15:01:45.358737  8777 net.cpp:425] conv5 <- conv4
I0403 15:01:45.358757  8777 net.cpp:399] conv5 -> conv5
I0403 15:01:45.378990  8777 net.cpp:141] Setting up conv5
I0403 15:01:45.379081  8777 net.cpp:148] Top shape: 100 256 13 13 (4326400)
I0403 15:01:45.379099  8777 net.cpp:156] Memory required for data: 800703600
I0403 15:01:45.379124  8777 layer_factory.hpp:77] Creating layer relu5
I0403 15:01:45.379145  8777 net.cpp:91] Creating Layer relu5
I0403 15:01:45.379163  8777 net.cpp:425] relu5 <- conv5
I0403 15:01:45.379184  8777 net.cpp:386] relu5 -> conv5 (in-place)
I0403 15:01:45.379492  8777 net.cpp:141] Setting up relu5
I0403 15:01:45.379518  8777 net.cpp:148] Top shape: 100 256 13 13 (4326400)
I0403 15:01:45.379534  8777 net.cpp:156] Memory required for data: 818009200
I0403 15:01:45.379547  8777 layer_factory.hpp:77] Creating layer pool5
I0403 15:01:45.379570  8777 net.cpp:91] Creating Layer pool5
I0403 15:01:45.379587  8777 net.cpp:425] pool5 <- conv5
I0403 15:01:45.379606  8777 net.cpp:399] pool5 -> pool5
I0403 15:01:45.379665  8777 net.cpp:141] Setting up pool5
I0403 15:01:45.379689  8777 net.cpp:148] Top shape: 100 256 6 6 (921600)
I0403 15:01:45.379703  8777 net.cpp:156] Memory required for data: 821695600
I0403 15:01:45.379719  8777 layer_factory.hpp:77] Creating layer fc6
I0403 15:01:45.379745  8777 net.cpp:91] Creating Layer fc6
I0403 15:01:45.379761  8777 net.cpp:425] fc6 <- pool5
I0403 15:01:45.379781  8777 net.cpp:399] fc6 -> fc6
I0403 15:01:46.910575  8777 net.cpp:141] Setting up fc6
I0403 15:01:46.910661  8777 net.cpp:148] Top shape: 100 4096 (409600)
I0403 15:01:46.910676  8777 net.cpp:156] Memory required for data: 823334000
I0403 15:01:46.910697  8777 layer_factory.hpp:77] Creating layer relu6
I0403 15:01:46.910719  8777 net.cpp:91] Creating Layer relu6
I0403 15:01:46.910737  8777 net.cpp:425] relu6 <- fc6
I0403 15:01:46.910755  8777 net.cpp:386] relu6 -> fc6 (in-place)
I0403 15:01:46.910989  8777 net.cpp:141] Setting up relu6
I0403 15:01:46.911013  8777 net.cpp:148] Top shape: 100 4096 (409600)
I0403 15:01:46.911028  8777 net.cpp:156] Memory required for data: 824972400
I0403 15:01:46.911042  8777 layer_factory.hpp:77] Creating layer drop6
I0403 15:01:46.911062  8777 net.cpp:91] Creating Layer drop6
I0403 15:01:46.911077  8777 net.cpp:425] drop6 <- fc6
I0403 15:01:46.911097  8777 net.cpp:386] drop6 -> fc6 (in-place)
I0403 15:01:46.911149  8777 net.cpp:141] Setting up drop6
I0403 15:01:46.911171  8777 net.cpp:148] Top shape: 100 4096 (409600)
I0403 15:01:46.911185  8777 net.cpp:156] Memory required for data: 826610800
I0403 15:01:46.911201  8777 layer_factory.hpp:77] Creating layer fc7
I0403 15:01:46.911234  8777 net.cpp:91] Creating Layer fc7
I0403 15:01:46.911250  8777 net.cpp:425] fc7 <- fc6
I0403 15:01:46.911269  8777 net.cpp:399] fc7 -> fc7
I0403 15:01:47.603788  8777 net.cpp:141] Setting up fc7
I0403 15:01:47.603873  8777 net.cpp:148] Top shape: 100 4096 (409600)
I0403 15:01:47.603889  8777 net.cpp:156] Memory required for data: 828249200
I0403 15:01:47.603910  8777 layer_factory.hpp:77] Creating layer relu7
I0403 15:01:47.603931  8777 net.cpp:91] Creating Layer relu7
I0403 15:01:47.603951  8777 net.cpp:425] relu7 <- fc7
I0403 15:01:47.603973  8777 net.cpp:386] relu7 -> fc7 (in-place)
I0403 15:01:47.604354  8777 net.cpp:141] Setting up relu7
I0403 15:01:47.604379  8777 net.cpp:148] Top shape: 100 4096 (409600)
I0403 15:01:47.604425  8777 net.cpp:156] Memory required for data: 829887600
I0403 15:01:47.604441  8777 layer_factory.hpp:77] Creating layer drop7
I0403 15:01:47.604460  8777 net.cpp:91] Creating Layer drop7
I0403 15:01:47.604475  8777 net.cpp:425] drop7 <- fc7
I0403 15:01:47.604493  8777 net.cpp:386] drop7 -> fc7 (in-place)
I0403 15:01:47.604535  8777 net.cpp:141] Setting up drop7
I0403 15:01:47.604559  8777 net.cpp:148] Top shape: 100 4096 (409600)
I0403 15:01:47.604574  8777 net.cpp:156] Memory required for data: 831526000
I0403 15:01:47.604588  8777 layer_factory.hpp:77] Creating layer fc8_plantvillage
I0403 15:01:47.604606  8777 net.cpp:91] Creating Layer fc8_plantvillage
I0403 15:01:47.604621  8777 net.cpp:425] fc8_plantvillage <- fc7
I0403 15:01:47.604640  8777 net.cpp:399] fc8_plantvillage -> fc8_plantvillage
I0403 15:01:47.611425  8777 net.cpp:141] Setting up fc8_plantvillage
I0403 15:01:47.611454  8777 net.cpp:148] Top shape: 100 38 (3800)
I0403 15:01:47.611470  8777 net.cpp:156] Memory required for data: 831541200
I0403 15:01:47.611488  8777 layer_factory.hpp:77] Creating layer fc8_plantvillage_fc8_plantvillage_0_split
I0403 15:01:47.611507  8777 net.cpp:91] Creating Layer fc8_plantvillage_fc8_plantvillage_0_split
I0403 15:01:47.611522  8777 net.cpp:425] fc8_plantvillage_fc8_plantvillage_0_split <- fc8_plantvillage
I0403 15:01:47.611542  8777 net.cpp:399] fc8_plantvillage_fc8_plantvillage_0_split -> fc8_plantvillage_fc8_plantvillage_0_split_0
I0403 15:01:47.611563  8777 net.cpp:399] fc8_plantvillage_fc8_plantvillage_0_split -> fc8_plantvillage_fc8_plantvillage_0_split_1
I0403 15:01:47.611583  8777 net.cpp:399] fc8_plantvillage_fc8_plantvillage_0_split -> fc8_plantvillage_fc8_plantvillage_0_split_2
I0403 15:01:47.611660  8777 net.cpp:141] Setting up fc8_plantvillage_fc8_plantvillage_0_split
I0403 15:01:47.611688  8777 net.cpp:148] Top shape: 100 38 (3800)
I0403 15:01:47.611706  8777 net.cpp:148] Top shape: 100 38 (3800)
I0403 15:01:47.611721  8777 net.cpp:148] Top shape: 100 38 (3800)
I0403 15:01:47.611735  8777 net.cpp:156] Memory required for data: 831586800
I0403 15:01:47.611749  8777 layer_factory.hpp:77] Creating layer prob
I0403 15:01:47.611766  8777 net.cpp:91] Creating Layer prob
I0403 15:01:47.611783  8777 net.cpp:425] prob <- fc8_plantvillage_fc8_plantvillage_0_split_0
I0403 15:01:47.611799  8777 net.cpp:399] prob -> prob
I0403 15:01:47.612028  8777 net.cpp:141] Setting up prob
I0403 15:01:47.612053  8777 net.cpp:148] Top shape: 100 38 (3800)
I0403 15:01:47.612069  8777 net.cpp:156] Memory required for data: 831602000
I0403 15:01:47.612083  8777 layer_factory.hpp:77] Creating layer hdf5out
I0403 15:01:47.612102  8777 net.cpp:91] Creating Layer hdf5out
I0403 15:01:47.612118  8777 net.cpp:425] hdf5out <- prob
I0403 15:01:47.612133  8777 net.cpp:425] hdf5out <- label_data_1_split_0
I0403 15:01:47.614341  8777 net.cpp:141] Setting up hdf5out
…
