…
I0403 15:07:15.189355  9101 net.cpp:313] The NetState phase (1) differed from the phase (0) specified by a rule in layer data
I0403 15:07:15.189659  9101 net.cpp:49] Initializing net from parameters: 
state {
  phase: TEST
}
layer {
  name: "data"
  type: "Data"
  top: "data"
  top: "label"
  include {
    phase: TEST
  }
  transform_param {
    crop_size: 227
    mean_file: "/home/mohanty/data/final_dataset/lmdb/color-50-50/mean.binaryproto"
  }
  data_param {
    source: "/home/mohanty/data/final_dataset/lmdb/color-50-50/test_db"
    batch_size: 100
    backend: LMDB
  }
}
layer {
  name: "conv1"
  type: "Convolution"
  bottom: "data"
  top: "conv1"
  param {
    lr_mult: 1
    decay_mult: 1
  }
  param {
    lr_mult: 2
    decay_mult: 0
  }
  convolution_param {
    num_output: 96
    kernel_size: 11
    stride: 4
    weight_filler {
      type: "gaussian"
      std: 0.01
    }
    bias_filler {
      type: "constant"
      value: 0
    }
  }
}
layer {
  name: "relu1"
  type: "ReLU"
  bottom: "conv1"
  top: "conv1"
}
layer {
  name: "norm1"
  type: "LRN"
  bottom: "conv1"
  top: "norm1"
  lrn_param {
    local_size: 5
    alpha: 0.0001
    beta: 0.75
  }
}
layer {
  name: "pool1"
  type: "Pooling"
  bottom: "norm1"
  top: "pool1"
  pooling_param {
    pool: MAX
    kernel_size: 3
    stride: 2
  }
}
layer {
  name: "conv2"
  type: "Convolution"
  bottom: "pool1"
  top: "conv2"
  param {
    lr_mult: 1
    decay_mult: 1
  }
  param {
    lr_mult: 2
    decay_mult: 0
  }
  convolution_param {
    num_output: 256
    pad: 2
    kernel_size: 5
    group: 2
    weight_filler {
      type: "gaussian"
      std: 0.01
    }
    bias_filler {
      type: "constant"
      value: 0.1
    }
  }
}
layer {
  name: "relu2"
  type: "ReLU"
  bottom: "conv2"
  top: "conv2"
}
layer {
  name: "norm2"
  type: "LRN"
  bottom: "conv2"
  top: "norm2"
  lrn_param {
    local_size: 5
    alpha: 0.0001
    beta: 0.75
  }
}
layer {
  name: "pool2"
  type: "Pooling"
  bottom: "norm2"
  top: "pool2"
  pooling_param {
    pool: MAX
    kernel_size: 3
    stride: 2
  }
}
layer {
  name: "conv3"
  type: "Convolution"
  bottom: "pool2"
  top: "conv3"
  param {
    lr_mult: 1
    decay_mult: 1
  }
  param {
    lr_mult: 2
    decay_mult: 0
  }
  convolution_param {
    num_output: 384
    pad: 1
    kernel_size: 3
    weight_filler {
      type: "gaussian"
      std: 0.01
    }
    bias_filler {
      type: "constant"
      value: 0
    }
  }
}
layer {
  name: "relu3"
  type: "ReLU"
  bottom: "conv3"
  top: "conv3"
}
layer {
  name: "conv4"
  type: "Convolution"
  bottom: "conv3"
  top: "conv4"
  param {
    lr_mult: 1
    decay_mult: 1
  }
  param {
    lr_mult: 2
    decay_mult: 0
  }
  convolution_param {
    num_output: 384
    pad: 1
    kernel_size: 3
    group: 2
    weight_filler {
      type: "gaussian"
      std: 0.01
    }
    bias_filler {
      type: "constant"
      value: 0.1
    }
  }
}
layer {
  name: "relu4"
  type: "ReLU"
  bottom: "conv4"
  top: "conv4"
}
layer {
  name: "conv5"
  type: "Convolution"
  bottom: "conv4"
  top: "conv5"
  param {
    lr_mult: 1
    decay_mult: 1
  }
  param {
    lr_mult: 2
    decay_mult: 0
  }
  convolution_param {
    num_output: 256
    pad: 1
    kernel_size: 3
    group: 2
    weight_filler {
      type: "gaussian"
      std: 0.01
    }
    bias_filler {
      type: "constant"
      value: 0.1
    }
  }
}
layer {
  name: "relu5"
  type: "ReLU"
  bottom: "conv5"
  top: "conv5"
}
layer {
  name: "pool5"
  type: "Pooling"
  bottom: "conv5"
  top: "pool5"
  pooling_param {
    pool: MAX
    kernel_size: 3
    stride: 2
  }
}
layer {
  name: "fc6"
  type: "InnerProduct"
  bottom: "pool5"
  top: "fc6"
  param {
    lr_mult: 1
    decay_mult: 1
  }
  param {
    lr_mult: 2
    decay_mult: 0
  }
  inner_product_param {
    num_output: 4096
    weight_filler {
      type: "gaussian"
      std: 0.005
    }
    bias_filler {
      type: "constant"
      value: 0.1
    }
  }
}
layer {
  name: "relu6"
  type: "ReLU"
  bottom: "fc6"
  top: "fc6"
}
layer {
  name: "drop6"
  type: "Dropout"
  bottom: "fc6"
  top: "fc6"
  dropout_param {
    dropout_ratio: 0.5
  }
}
layer {
  name: "fc7"
  type: "InnerProduct"
  bottom: "fc6"
  top: "fc7"
  param {
    lr_mult: 1
    decay_mult: 1
  }
  param {
    lr_mult: 2
    decay_mult: 0
  }
  inner_product_param {
    num_output: 4096
    weight_filler {
      type: "gaussian"
      std: 0.005
    }
    bias_filler {
      type: "constant"
      value: 0.1
    }
  }
}
layer {
  name: "relu7"
  type: "ReLU"
  bottom: "fc7"
  top: "fc7"
}
layer {
  name: "drop7"
  type: "Dropout"
  bottom: "fc7"
  top: "fc7"
  dropout_param {
    dropout_ratio: 0.5
  }
}
layer {
  name: "fc8_plantvillage"
  type: "InnerProduct"
  bottom: "fc7"
  top: "fc8_plantvillage"
  param {
    lr_mult: 1
    decay_mult: 1
  }
  param {
    lr_mult: 2
    decay_mult: 0
  }
  inner_product_param {
    num_output: 38
    weight_filler {
      type: "gaussian"
      std: 0.01
    }
    bias_filler {
      type: "constant"
      value: 0
    }
  }
}
layer {
  name: "prob"
  type: "Softmax"
  bottom: "fc8_plantvillage"
  top: "prob"
  include {
    phase: TEST
  }
}
layer {
  name: "hdf5out"
  type: "HDF5Output"
  bottom: "prob"
  bottom: "label"
  include {
    phase: TEST
  }
  hdf5_output_param {
    file_name: "hdf5_dumps/iter_7263.h5"
  }
}
layer {
  name: "loss"
  type: "SoftmaxWithLoss"
  bottom: "fc8_plantvillage"
  bottom: "label"
  top: "loss"
}
layer {
  name: "accuracy"
  type: "Accuracy"
  bottom: "fc8_plantvillage"
  bottom: "label"
  top: "accuracy"
  include {
    phase: TEST
  }
}
I0403 15:07:15.190229  9101 layer_factory.hpp:77] Creating layer data
I0403 15:07:15.190863  9101 net.cpp:91] Creating Layer data
I0403 15:07:15.190896  9101 net.cpp:399] data -> data
I0403 15:07:15.190948  9101 net.cpp:399] data -> label
I0403 15:07:15.190989  9101 data_transformer.cpp:25] Loading mean file from: /home/mohanty/data/final_dataset/lmdb/color-50-50/mean.binaryproto
I0403 15:07:15.205011  9103 db_lmdb.cpp:38] Opened lmdb /home/mohanty/data/final_dataset/lmdb/color-50-50/test_db
I0403 15:07:15.210713  9101 data_layer.cpp:41] output data size: 100,3,227,227
I0403 15:07:15.335206  9101 net.cpp:141] Setting up data
I0403 15:07:15.335312  9101 net.cpp:148] Top shape: 100 3 227 227 (15458700)
I0403 15:07:15.335336  9101 net.cpp:148] Top shape: 100 (100)
I0403 15:07:15.335352  9101 net.cpp:156] Memory required for data: 61835200
I0403 15:07:15.335381  9101 layer_factory.hpp:77] Creating layer label_data_1_split
I0403 15:07:15.335408  9101 net.cpp:91] Creating Layer label_data_1_split
I0403 15:07:15.335427  9101 net.cpp:425] label_data_1_split <- label
I0403 15:07:15.335458  9101 net.cpp:399] label_data_1_split -> label_data_1_split_0
I0403 15:07:15.335486  9101 net.cpp:399] label_data_1_split -> label_data_1_split_1
I0403 15:07:15.335507  9101 net.cpp:399] label_data_1_split -> label_data_1_split_2
I0403 15:07:15.335572  9101 net.cpp:141] Setting up label_data_1_split
I0403 15:07:15.335595  9101 net.cpp:148] Top shape: 100 (100)
I0403 15:07:15.335613  9101 net.cpp:148] Top shape: 100 (100)
I0403 15:07:15.335630  9101 net.cpp:148] Top shape: 100 (100)
I0403 15:07:15.335645  9101 net.cpp:156] Memory required for data: 61836400
I0403 15:07:15.335660  9101 layer_factory.hpp:77] Creating layer conv1
I0403 15:07:15.335691  9101 net.cpp:91] Creating Layer conv1
I0403 15:07:15.335711  9101 net.cpp:425] conv1 <- data
I0403 15:07:15.335731  9101 net.cpp:399] conv1 -> conv1
I0403 15:07:15.480334  9101 net.cpp:141] Setting up conv1
I0403 15:07:15.480420  9101 net.cpp:148] Top shape: 100 96 55 55 (29040000)
I0403 15:07:15.480438  9101 net.cpp:156] Memory required for data: 177996400
I0403 15:07:15.480470  9101 layer_factory.hpp:77] Creating layer relu1
I0403 15:07:15.480499  9101 net.cpp:91] Creating Layer relu1
I0403 15:07:15.480517  9101 net.cpp:425] relu1 <- conv1
I0403 15:07:15.480536  9101 net.cpp:386] relu1 -> conv1 (in-place)
I0403 15:07:15.480794  9101 net.cpp:141] Setting up relu1
I0403 15:07:15.480823  9101 net.cpp:148] Top shape: 100 96 55 55 (29040000)
I0403 15:07:15.480839  9101 net.cpp:156] Memory required for data: 294156400
I0403 15:07:15.480885  9101 layer_factory.hpp:77] Creating layer norm1
I0403 15:07:15.480913  9101 net.cpp:91] Creating Layer norm1
I0403 15:07:15.480932  9101 net.cpp:425] norm1 <- conv1
I0403 15:07:15.480952  9101 net.cpp:399] norm1 -> norm1
I0403 15:07:15.481297  9101 net.cpp:141] Setting up norm1
I0403 15:07:15.481325  9101 net.cpp:148] Top shape: 100 96 55 55 (29040000)
I0403 15:07:15.481341  9101 net.cpp:156] Memory required for data: 410316400
I0403 15:07:15.481358  9101 layer_factory.hpp:77] Creating layer pool1
I0403 15:07:15.481380  9101 net.cpp:91] Creating Layer pool1
I0403 15:07:15.481398  9101 net.cpp:425] pool1 <- norm1
I0403 15:07:15.481416  9101 net.cpp:399] pool1 -> pool1
I0403 15:07:15.481483  9101 net.cpp:141] Setting up pool1
I0403 15:07:15.481508  9101 net.cpp:148] Top shape: 100 96 27 27 (6998400)
I0403 15:07:15.481523  9101 net.cpp:156] Memory required for data: 438310000
I0403 15:07:15.481539  9101 layer_factory.hpp:77] Creating layer conv2
I0403 15:07:15.481562  9101 net.cpp:91] Creating Layer conv2
I0403 15:07:15.481578  9101 net.cpp:425] conv2 <- pool1
I0403 15:07:15.481596  9101 net.cpp:399] conv2 -> conv2
I0403 15:07:15.496850  9101 net.cpp:141] Setting up conv2
I0403 15:07:15.496889  9101 net.cpp:148] Top shape: 100 256 27 27 (18662400)
I0403 15:07:15.496908  9101 net.cpp:156] Memory required for data: 512959600
I0403 15:07:15.496932  9101 layer_factory.hpp:77] Creating layer relu2
I0403 15:07:15.497022  9101 net.cpp:91] Creating Layer relu2
I0403 15:07:15.497045  9101 net.cpp:425] relu2 <- conv2
I0403 15:07:15.497066  9101 net.cpp:386] relu2 -> conv2 (in-place)
I0403 15:07:15.497349  9101 net.cpp:141] Setting up relu2
I0403 15:07:15.497378  9101 net.cpp:148] Top shape: 100 256 27 27 (18662400)
I0403 15:07:15.497395  9101 net.cpp:156] Memory required for data: 587609200
I0403 15:07:15.497411  9101 layer_factory.hpp:77] Creating layer norm2
I0403 15:07:15.497434  9101 net.cpp:91] Creating Layer norm2
I0403 15:07:15.497452  9101 net.cpp:425] norm2 <- conv2
I0403 15:07:15.497469  9101 net.cpp:399] norm2 -> norm2
I0403 15:07:15.497669  9101 net.cpp:141] Setting up norm2
I0403 15:07:15.497697  9101 net.cpp:148] Top shape: 100 256 27 27 (18662400)
I0403 15:07:15.497714  9101 net.cpp:156] Memory required for data: 662258800
I0403 15:07:15.497730  9101 layer_factory.hpp:77] Creating layer pool2
I0403 15:07:15.497747  9101 net.cpp:91] Creating Layer pool2
I0403 15:07:15.497763  9101 net.cpp:425] pool2 <- norm2
I0403 15:07:15.497783  9101 net.cpp:399] pool2 -> pool2
I0403 15:07:15.497836  9101 net.cpp:141] Setting up pool2
I0403 15:07:15.497859  9101 net.cpp:148] Top shape: 100 256 13 13 (4326400)
I0403 15:07:15.497875  9101 net.cpp:156] Memory required for data: 679564400
I0403 15:07:15.497890  9101 layer_factory.hpp:77] Creating layer conv3
I0403 15:07:15.497913  9101 net.cpp:91] Creating Layer conv3
I0403 15:07:15.497931  9101 net.cpp:425] conv3 <- pool2
I0403 15:07:15.497951  9101 net.cpp:399] conv3 -> conv3
I0403 15:07:15.536872  9101 net.cpp:141] Setting up conv3
I0403 15:07:15.536939  9101 net.cpp:148] Top shape: 100 384 13 13 (6489600)
I0403 15:07:15.536957  9101 net.cpp:156] Memory required for data: 705522800
I0403 15:07:15.536986  9101 layer_factory.hpp:77] Creating layer relu3
I0403 15:07:15.537009  9101 net.cpp:91] Creating Layer relu3
I0403 15:07:15.537026  9101 net.cpp:425] relu3 <- conv3
I0403 15:07:15.537045  9101 net.cpp:386] relu3 -> conv3 (in-place)
I0403 15:07:15.537405  9101 net.cpp:141] Setting up relu3
I0403 15:07:15.537439  9101 net.cpp:148] Top shape: 100 384 13 13 (6489600)
I0403 15:07:15.537457  9101 net.cpp:156] Memory required for data: 731481200
I0403 15:07:15.537472  9101 layer_factory.hpp:77] Creating layer conv4
I0403 15:07:15.537497  9101 net.cpp:91] Creating Layer conv4
I0403 15:07:15.537516  9101 net.cpp:425] conv4 <- conv3
I0403 15:07:15.537535  9101 net.cpp:399] conv4 -> conv4
I0403 15:07:15.567873  9101 net.cpp:141] Setting up conv4
I0403 15:07:15.567919  9101 net.cpp:148] Top shape: 100 384 13 13 (6489600)
I0403 15:07:15.567968  9101 net.cpp:156] Memory required for data: 757439600
I0403 15:07:15.567994  9101 layer_factory.hpp:77] Creating layer relu4
I0403 15:07:15.568022  9101 net.cpp:91] Creating Layer relu4
I0403 15:07:15.568040  9101 net.cpp:425] relu4 <- conv4
I0403 15:07:15.568059  9101 net.cpp:386] relu4 -> conv4 (in-place)
I0403 15:07:15.568338  9101 net.cpp:141] Setting up relu4
I0403 15:07:15.568366  9101 net.cpp:148] Top shape: 100 384 13 13 (6489600)
I0403 15:07:15.568382  9101 net.cpp:156] Memory required for data: 783398000
I0403 15:07:15.568397  9101 layer_factory.hpp:77] Creating layer conv5
I0403 15:07:15.568421  9101 net.cpp:91] Creating Layer conv5
I0403 15:07:15.568439  9101 net.cpp:425] conv5 <- conv4
I0403 15:07:15.568460  9101 net.cpp:399] conv5 -> conv5
I0403 15:07:15.589390  9101 net.cpp:141] Setting up conv5
I0403 15:07:15.589426  9101 net.cpp:148] Top shape: 100 256 13 13 (4326400)
I0403 15:07:15.589443  9101 net.cpp:156] Memory required for data: 800703600
I0403 15:07:15.589467  9101 layer_factory.hpp:77] Creating layer relu5
I0403 15:07:15.589489  9101 net.cpp:91] Creating Layer relu5
I0403 15:07:15.589506  9101 net.cpp:425] relu5 <- conv5
I0403 15:07:15.589527  9101 net.cpp:386] relu5 -> conv5 (in-place)
I0403 15:07:15.589814  9101 net.cpp:141] Setting up relu5
I0403 15:07:15.589844  9101 net.cpp:148] Top shape: 100 256 13 13 (4326400)
I0403 15:07:15.589862  9101 net.cpp:156] Memory required for data: 818009200
I0403 15:07:15.589879  9101 layer_factory.hpp:77] Creating layer pool5
I0403 15:07:15.589900  9101 net.cpp:91] Creating Layer pool5
I0403 15:07:15.589915  9101 net.cpp:425] pool5 <- conv5
I0403 15:07:15.589936  9101 net.cpp:399] pool5 -> pool5
I0403 15:07:15.590001  9101 net.cpp:141] Setting up pool5
I0403 15:07:15.590029  9101 net.cpp:148] Top shape: 100 256 6 6 (921600)
I0403 15:07:15.590044  9101 net.cpp:156] Memory required for data: 821695600
I0403 15:07:15.590059  9101 layer_factory.hpp:77] Creating layer fc6
I0403 15:07:15.590086  9101 net.cpp:91] Creating Layer fc6
I0403 15:07:15.590104  9101 net.cpp:425] fc6 <- pool5
I0403 15:07:15.590126  9101 net.cpp:399] fc6 -> fc6
I0403 15:07:17.103981  9101 net.cpp:141] Setting up fc6
I0403 15:07:17.104069  9101 net.cpp:148] Top shape: 100 4096 (409600)
I0403 15:07:17.104085  9101 net.cpp:156] Memory required for data: 823334000
I0403 15:07:17.104106  9101 layer_factory.hpp:77] Creating layer relu6
I0403 15:07:17.104133  9101 net.cpp:91] Creating Layer relu6
I0403 15:07:17.104151  9101 net.cpp:425] relu6 <- fc6
I0403 15:07:17.104171  9101 net.cpp:386] relu6 -> fc6 (in-place)
I0403 15:07:17.104382  9101 net.cpp:141] Setting up relu6
I0403 15:07:17.104408  9101 net.cpp:148] Top shape: 100 4096 (409600)
I0403 15:07:17.104423  9101 net.cpp:156] Memory required for data: 824972400
I0403 15:07:17.104439  9101 layer_factory.hpp:77] Creating layer drop6
I0403 15:07:17.104456  9101 net.cpp:91] Creating Layer drop6
I0403 15:07:17.104471  9101 net.cpp:425] drop6 <- fc6
I0403 15:07:17.104488  9101 net.cpp:386] drop6 -> fc6 (in-place)
I0403 15:07:17.104542  9101 net.cpp:141] Setting up drop6
I0403 15:07:17.104564  9101 net.cpp:148] Top shape: 100 4096 (409600)
I0403 15:07:17.104578  9101 net.cpp:156] Memory required for data: 826610800
I0403 15:07:17.104593  9101 layer_factory.hpp:77] Creating layer fc7
I0403 15:07:17.104621  9101 net.cpp:91] Creating Layer fc7
I0403 15:07:17.104637  9101 net.cpp:425] fc7 <- fc6
I0403 15:07:17.104655  9101 net.cpp:399] fc7 -> fc7
I0403 15:07:17.775380  9101 net.cpp:141] Setting up fc7
I0403 15:07:17.775467  9101 net.cpp:148] Top shape: 100 4096 (409600)
I0403 15:07:17.775485  9101 net.cpp:156] Memory required for data: 828249200
I0403 15:07:17.775509  9101 layer_factory.hpp:77] Creating layer relu7
I0403 15:07:17.775533  9101 net.cpp:91] Creating Layer relu7
I0403 15:07:17.775552  9101 net.cpp:425] relu7 <- fc7
I0403 15:07:17.775571  9101 net.cpp:386] relu7 -> fc7 (in-place)
I0403 15:07:17.775967  9101 net.cpp:141] Setting up relu7
I0403 15:07:17.776002  9101 net.cpp:148] Top shape: 100 4096 (409600)
I0403 15:07:17.776051  9101 net.cpp:156] Memory required for data: 829887600
I0403 15:07:17.776069  9101 layer_factory.hpp:77] Creating layer drop7
I0403 15:07:17.776089  9101 net.cpp:91] Creating Layer drop7
I0403 15:07:17.776105  9101 net.cpp:425] drop7 <- fc7
I0403 15:07:17.776124  9101 net.cpp:386] drop7 -> fc7 (in-place)
I0403 15:07:17.776172  9101 net.cpp:141] Setting up drop7
I0403 15:07:17.776196  9101 net.cpp:148] Top shape: 100 4096 (409600)
I0403 15:07:17.776212  9101 net.cpp:156] Memory required for data: 831526000
I0403 15:07:17.776227  9101 layer_factory.hpp:77] Creating layer fc8_plantvillage
I0403 15:07:17.776250  9101 net.cpp:91] Creating Layer fc8_plantvillage
I0403 15:07:17.776268  9101 net.cpp:425] fc8_plantvillage <- fc7
I0403 15:07:17.776286  9101 net.cpp:399] fc8_plantvillage -> fc8_plantvillage
I0403 15:07:17.783432  9101 net.cpp:141] Setting up fc8_plantvillage
I0403 15:07:17.783463  9101 net.cpp:148] Top shape: 100 38 (3800)
I0403 15:07:17.783479  9101 net.cpp:156] Memory required for data: 831541200
I0403 15:07:17.783499  9101 layer_factory.hpp:77] Creating layer fc8_plantvillage_fc8_plantvillage_0_split
I0403 15:07:17.783519  9101 net.cpp:91] Creating Layer fc8_plantvillage_fc8_plantvillage_0_split
I0403 15:07:17.783535  9101 net.cpp:425] fc8_plantvillage_fc8_plantvillage_0_split <- fc8_plantvillage
I0403 15:07:17.783557  9101 net.cpp:399] fc8_plantvillage_fc8_plantvillage_0_split -> fc8_plantvillage_fc8_plantvillage_0_split_0
I0403 15:07:17.783581  9101 net.cpp:399] fc8_plantvillage_fc8_plantvillage_0_split -> fc8_plantvillage_fc8_plantvillage_0_split_1
I0403 15:07:17.783601  9101 net.cpp:399] fc8_plantvillage_fc8_plantvillage_0_split -> fc8_plantvillage_fc8_plantvillage_0_split_2
I0403 15:07:17.783681  9101 net.cpp:141] Setting up fc8_plantvillage_fc8_plantvillage_0_split
I0403 15:07:17.783707  9101 net.cpp:148] Top shape: 100 38 (3800)
I0403 15:07:17.783725  9101 net.cpp:148] Top shape: 100 38 (3800)
I0403 15:07:17.783741  9101 net.cpp:148] Top shape: 100 38 (3800)
I0403 15:07:17.783757  9101 net.cpp:156] Memory required for data: 831586800
I0403 15:07:17.783772  9101 layer_factory.hpp:77] Creating layer prob
I0403 15:07:17.783794  9101 net.cpp:91] Creating Layer prob
I0403 15:07:17.783812  9101 net.cpp:425] prob <- fc8_plantvillage_fc8_plantvillage_0_split_0
I0403 15:07:17.783831  9101 net.cpp:399] prob -> prob
I0403 15:07:17.784075  9101 net.cpp:141] Setting up prob
I0403 15:07:17.784106  9101 net.cpp:148] Top shape: 100 38 (3800)
I0403 15:07:17.784123  9101 net.cpp:156] Memory required for data: 831602000
I0403 15:07:17.784139  9101 layer_factory.hpp:77] Creating layer hdf5out
I0403 15:07:17.784159  9101 net.cpp:91] Creating Layer hdf5out
I0403 15:07:17.784176  9101 net.cpp:425] hdf5out <- prob
I0403 15:07:17.784193  9101 net.cpp:425] hdf5out <- label_data_1_split_0
I0403 15:07:17.786587  9101 net.cpp:141] Setting up hdf5out
…
