…
I0403 14:50:45.063963  8104 net.cpp:313] The NetState phase (1) differed from the phase (0) specified by a rule in layer data
I0403 14:50:45.064306  8104 net.cpp:49] Initializing net from parameters: 
state {
  phase: TEST
}
layer {
  name: "data"
  type: "Data"
  top: "data"
  top: "label"
  include {
    phase: TEST
  }
  transform_param {
    crop_size: 227
    mean_file: "/home/mohanty/data/final_dataset/lmdb/color-50-50/mean.binaryproto"
  }
  data_param {
    source: "/home/mohanty/data/final_dataset/lmdb/color-50-50/test_db"
    batch_size: 100
    backend: LMDB
  }
}
layer {
  name: "conv1"
  type: "Convolution"
  bottom: "data"
  top: "conv1"
  param {
    lr_mult: 1
    decay_mult: 1
  }
  param {
    lr_mult: 2
    decay_mult: 0
  }
  convolution_param {
    num_output: 96
    kernel_size: 11
    stride: 4
    weight_filler {
      type: "gaussian"
      std: 0.01
    }
    bias_filler {
      type: "constant"
      value: 0
    }
  }
}
layer {
  name: "relu1"
  type: "ReLU"
  bottom: "conv1"
  top: "conv1"
}
layer {
  name: "norm1"
  type: "LRN"
  bottom: "conv1"
  top: "norm1"
  lrn_param {
    local_size: 5
    alpha: 0.0001
    beta: 0.75
  }
}
layer {
  name: "pool1"
  type: "Pooling"
  bottom: "norm1"
  top: "pool1"
  pooling_param {
    pool: MAX
    kernel_size: 3
    stride: 2
  }
}
layer {
  name: "conv2"
  type: "Convolution"
  bottom: "pool1"
  top: "conv2"
  param {
    lr_mult: 1
    decay_mult: 1
  }
  param {
    lr_mult: 2
    decay_mult: 0
  }
  convolution_param {
    num_output: 256
    pad: 2
    kernel_size: 5
    group: 2
    weight_filler {
      type: "gaussian"
      std: 0.01
    }
    bias_filler {
      type: "constant"
      value: 0.1
    }
  }
}
layer {
  name: "relu2"
  type: "ReLU"
  bottom: "conv2"
  top: "conv2"
}
layer {
  name: "norm2"
  type: "LRN"
  bottom: "conv2"
  top: "norm2"
  lrn_param {
    local_size: 5
    alpha: 0.0001
    beta: 0.75
  }
}
layer {
  name: "pool2"
  type: "Pooling"
  bottom: "norm2"
  top: "pool2"
  pooling_param {
    pool: MAX
    kernel_size: 3
    stride: 2
  }
}
layer {
  name: "conv3"
  type: "Convolution"
  bottom: "pool2"
  top: "conv3"
  param {
    lr_mult: 1
    decay_mult: 1
  }
  param {
    lr_mult: 2
    decay_mult: 0
  }
  convolution_param {
    num_output: 384
    pad: 1
    kernel_size: 3
    weight_filler {
      type: "gaussian"
      std: 0.01
    }
    bias_filler {
      type: "constant"
      value: 0
    }
  }
}
layer {
  name: "relu3"
  type: "ReLU"
  bottom: "conv3"
  top: "conv3"
}
layer {
  name: "conv4"
  type: "Convolution"
  bottom: "conv3"
  top: "conv4"
  param {
    lr_mult: 1
    decay_mult: 1
  }
  param {
    lr_mult: 2
    decay_mult: 0
  }
  convolution_param {
    num_output: 384
    pad: 1
    kernel_size: 3
    group: 2
    weight_filler {
      type: "gaussian"
      std: 0.01
    }
    bias_filler {
      type: "constant"
      value: 0.1
    }
  }
}
layer {
  name: "relu4"
  type: "ReLU"
  bottom: "conv4"
  top: "conv4"
}
layer {
  name: "conv5"
  type: "Convolution"
  bottom: "conv4"
  top: "conv5"
  param {
    lr_mult: 1
    decay_mult: 1
  }
  param {
    lr_mult: 2
    decay_mult: 0
  }
  convolution_param {
    num_output: 256
    pad: 1
    kernel_size: 3
    group: 2
    weight_filler {
      type: "gaussian"
      std: 0.01
    }
    bias_filler {
      type: "constant"
      value: 0.1
    }
  }
}
layer {
  name: "relu5"
  type: "ReLU"
  bottom: "conv5"
  top: "conv5"
}
layer {
  name: "pool5"
  type: "Pooling"
  bottom: "conv5"
  top: "pool5"
  pooling_param {
    pool: MAX
    kernel_size: 3
    stride: 2
  }
}
layer {
  name: "fc6"
  type: "InnerProduct"
  bottom: "pool5"
  top: "fc6"
  param {
    lr_mult: 1
    decay_mult: 1
  }
  param {
    lr_mult: 2
    decay_mult: 0
  }
  inner_product_param {
    num_output: 4096
    weight_filler {
      type: "gaussian"
      std: 0.005
    }
    bias_filler {
      type: "constant"
      value: 0.1
    }
  }
}
layer {
  name: "relu6"
  type: "ReLU"
  bottom: "fc6"
  top: "fc6"
}
layer {
  name: "drop6"
  type: "Dropout"
  bottom: "fc6"
  top: "fc6"
  dropout_param {
    dropout_ratio: 0.5
  }
}
layer {
  name: "fc7"
  type: "InnerProduct"
  bottom: "fc6"
  top: "fc7"
  param {
    lr_mult: 1
    decay_mult: 1
  }
  param {
    lr_mult: 2
    decay_mult: 0
  }
  inner_product_param {
    num_output: 4096
    weight_filler {
      type: "gaussian"
      std: 0.005
    }
    bias_filler {
      type: "constant"
      value: 0.1
    }
  }
}
layer {
  name: "relu7"
  type: "ReLU"
  bottom: "fc7"
  top: "fc7"
}
layer {
  name: "drop7"
  type: "Dropout"
  bottom: "fc7"
  top: "fc7"
  dropout_param {
    dropout_ratio: 0.5
  }
}
layer {
  name: "fc8_plantvillage"
  type: "InnerProduct"
  bottom: "fc7"
  top: "fc8_plantvillage"
  param {
    lr_mult: 1
    decay_mult: 1
  }
  param {
    lr_mult: 2
    decay_mult: 0
  }
  inner_product_param {
    num_output: 38
    weight_filler {
      type: "gaussian"
      std: 0.01
    }
    bias_filler {
      type: "constant"
      value: 0
    }
  }
}
layer {
  name: "prob"
  type: "Softmax"
  bottom: "fc8_plantvillage"
  top: "prob"
  include {
    phase: TEST
  }
}
layer {
  name: "hdf5out"
  type: "HDF5Output"
  bottom: "prob"
  bottom: "label"
  include {
    phase: TEST
  }
  hdf5_output_param {
    file_name: "hdf5_dumps/iter_2421.h5"
  }
}
layer {
  name: "loss"
  type: "SoftmaxWithLoss"
  bottom: "fc8_plantvillage"
  bottom: "label"
  top: "loss"
}
layer {
  name: "accuracy"
  type: "Accuracy"
  bottom: "fc8_plantvillage"
  bottom: "label"
  top: "accuracy"
  include {
    phase: TEST
  }
}
I0403 14:50:45.064862  8104 layer_factory.hpp:77] Creating layer data
I0403 14:50:45.065512  8104 net.cpp:91] Creating Layer data
I0403 14:50:45.065546  8104 net.cpp:399] data -> data
I0403 14:50:45.065598  8104 net.cpp:399] data -> label
I0403 14:50:45.065635  8104 data_transformer.cpp:25] Loading mean file from: /home/mohanty/data/final_dataset/lmdb/color-50-50/mean.binaryproto
I0403 14:50:45.068295  8107 db_lmdb.cpp:38] Opened lmdb /home/mohanty/data/final_dataset/lmdb/color-50-50/test_db
I0403 14:50:45.080361  8104 data_layer.cpp:41] output data size: 100,3,227,227
I0403 14:50:45.203289  8104 net.cpp:141] Setting up data
I0403 14:50:45.203397  8104 net.cpp:148] Top shape: 100 3 227 227 (15458700)
I0403 14:50:45.203420  8104 net.cpp:148] Top shape: 100 (100)
I0403 14:50:45.203435  8104 net.cpp:156] Memory required for data: 61835200
I0403 14:50:45.203464  8104 layer_factory.hpp:77] Creating layer label_data_1_split
I0403 14:50:45.203490  8104 net.cpp:91] Creating Layer label_data_1_split
I0403 14:50:45.203510  8104 net.cpp:425] label_data_1_split <- label
I0403 14:50:45.203541  8104 net.cpp:399] label_data_1_split -> label_data_1_split_0
I0403 14:50:45.203568  8104 net.cpp:399] label_data_1_split -> label_data_1_split_1
I0403 14:50:45.203590  8104 net.cpp:399] label_data_1_split -> label_data_1_split_2
I0403 14:50:45.203657  8104 net.cpp:141] Setting up label_data_1_split
I0403 14:50:45.203681  8104 net.cpp:148] Top shape: 100 (100)
I0403 14:50:45.203699  8104 net.cpp:148] Top shape: 100 (100)
I0403 14:50:45.203716  8104 net.cpp:148] Top shape: 100 (100)
I0403 14:50:45.203732  8104 net.cpp:156] Memory required for data: 61836400
I0403 14:50:45.203747  8104 layer_factory.hpp:77] Creating layer conv1
I0403 14:50:45.203779  8104 net.cpp:91] Creating Layer conv1
I0403 14:50:45.203799  8104 net.cpp:425] conv1 <- data
I0403 14:50:45.203819  8104 net.cpp:399] conv1 -> conv1
I0403 14:50:45.350966  8104 net.cpp:141] Setting up conv1
I0403 14:50:45.351061  8104 net.cpp:148] Top shape: 100 96 55 55 (29040000)
I0403 14:50:45.351081  8104 net.cpp:156] Memory required for data: 177996400
I0403 14:50:45.351114  8104 layer_factory.hpp:77] Creating layer relu1
I0403 14:50:45.351142  8104 net.cpp:91] Creating Layer relu1
I0403 14:50:45.351161  8104 net.cpp:425] relu1 <- conv1
I0403 14:50:45.351181  8104 net.cpp:386] relu1 -> conv1 (in-place)
I0403 14:50:45.351511  8104 net.cpp:141] Setting up relu1
I0403 14:50:45.351541  8104 net.cpp:148] Top shape: 100 96 55 55 (29040000)
I0403 14:50:45.351559  8104 net.cpp:156] Memory required for data: 294156400
I0403 14:50:45.351605  8104 layer_factory.hpp:77] Creating layer norm1
I0403 14:50:45.351634  8104 net.cpp:91] Creating Layer norm1
I0403 14:50:45.351654  8104 net.cpp:425] norm1 <- conv1
I0403 14:50:45.351675  8104 net.cpp:399] norm1 -> norm1
I0403 14:50:45.352012  8104 net.cpp:141] Setting up norm1
I0403 14:50:45.352041  8104 net.cpp:148] Top shape: 100 96 55 55 (29040000)
I0403 14:50:45.352056  8104 net.cpp:156] Memory required for data: 410316400
I0403 14:50:45.352072  8104 layer_factory.hpp:77] Creating layer pool1
I0403 14:50:45.352094  8104 net.cpp:91] Creating Layer pool1
I0403 14:50:45.352113  8104 net.cpp:425] pool1 <- norm1
I0403 14:50:45.352133  8104 net.cpp:399] pool1 -> pool1
I0403 14:50:45.352205  8104 net.cpp:141] Setting up pool1
I0403 14:50:45.352229  8104 net.cpp:148] Top shape: 100 96 27 27 (6998400)
I0403 14:50:45.352244  8104 net.cpp:156] Memory required for data: 438310000
I0403 14:50:45.352259  8104 layer_factory.hpp:77] Creating layer conv2
I0403 14:50:45.352288  8104 net.cpp:91] Creating Layer conv2
I0403 14:50:45.352306  8104 net.cpp:425] conv2 <- pool1
I0403 14:50:45.352325  8104 net.cpp:399] conv2 -> conv2
I0403 14:50:45.367676  8104 net.cpp:141] Setting up conv2
I0403 14:50:45.367712  8104 net.cpp:148] Top shape: 100 256 27 27 (18662400)
I0403 14:50:45.367729  8104 net.cpp:156] Memory required for data: 512959600
I0403 14:50:45.367751  8104 layer_factory.hpp:77] Creating layer relu2
I0403 14:50:45.367776  8104 net.cpp:91] Creating Layer relu2
I0403 14:50:45.367794  8104 net.cpp:425] relu2 <- conv2
I0403 14:50:45.367812  8104 net.cpp:386] relu2 -> conv2 (in-place)
I0403 14:50:45.368101  8104 net.cpp:141] Setting up relu2
I0403 14:50:45.368129  8104 net.cpp:148] Top shape: 100 256 27 27 (18662400)
I0403 14:50:45.368144  8104 net.cpp:156] Memory required for data: 587609200
I0403 14:50:45.368160  8104 layer_factory.hpp:77] Creating layer norm2
I0403 14:50:45.368183  8104 net.cpp:91] Creating Layer norm2
I0403 14:50:45.368203  8104 net.cpp:425] norm2 <- conv2
I0403 14:50:45.368223  8104 net.cpp:399] norm2 -> norm2
I0403 14:50:45.368427  8104 net.cpp:141] Setting up norm2
I0403 14:50:45.368454  8104 net.cpp:148] Top shape: 100 256 27 27 (18662400)
I0403 14:50:45.368470  8104 net.cpp:156] Memory required for data: 662258800
I0403 14:50:45.368485  8104 layer_factory.hpp:77] Creating layer pool2
I0403 14:50:45.368504  8104 net.cpp:91] Creating Layer pool2
I0403 14:50:45.368520  8104 net.cpp:425] pool2 <- norm2
I0403 14:50:45.368541  8104 net.cpp:399] pool2 -> pool2
I0403 14:50:45.368593  8104 net.cpp:141] Setting up pool2
I0403 14:50:45.368618  8104 net.cpp:148] Top shape: 100 256 13 13 (4326400)
I0403 14:50:45.368633  8104 net.cpp:156] Memory required for data: 679564400
I0403 14:50:45.368649  8104 layer_factory.hpp:77] Creating layer conv3
I0403 14:50:45.368672  8104 net.cpp:91] Creating Layer conv3
I0403 14:50:45.368690  8104 net.cpp:425] conv3 <- pool2
I0403 14:50:45.368710  8104 net.cpp:399] conv3 -> conv3
I0403 14:50:45.408908  8104 net.cpp:141] Setting up conv3
I0403 14:50:45.408967  8104 net.cpp:148] Top shape: 100 384 13 13 (6489600)
I0403 14:50:45.408994  8104 net.cpp:156] Memory required for data: 705522800
I0403 14:50:45.409021  8104 layer_factory.hpp:77] Creating layer relu3
I0403 14:50:45.409042  8104 net.cpp:91] Creating Layer relu3
I0403 14:50:45.409060  8104 net.cpp:425] relu3 <- conv3
I0403 14:50:45.409081  8104 net.cpp:386] relu3 -> conv3 (in-place)
I0403 14:50:45.409365  8104 net.cpp:141] Setting up relu3
I0403 14:50:45.409392  8104 net.cpp:148] Top shape: 100 384 13 13 (6489600)
I0403 14:50:45.409407  8104 net.cpp:156] Memory required for data: 731481200
I0403 14:50:45.409423  8104 layer_factory.hpp:77] Creating layer conv4
I0403 14:50:45.409451  8104 net.cpp:91] Creating Layer conv4
I0403 14:50:45.409468  8104 net.cpp:425] conv4 <- conv3
I0403 14:50:45.409489  8104 net.cpp:399] conv4 -> conv4
I0403 14:50:45.439936  8104 net.cpp:141] Setting up conv4
I0403 14:50:45.439985  8104 net.cpp:148] Top shape: 100 384 13 13 (6489600)
I0403 14:50:45.440033  8104 net.cpp:156] Memory required for data: 757439600
I0403 14:50:45.440055  8104 layer_factory.hpp:77] Creating layer relu4
I0403 14:50:45.440075  8104 net.cpp:91] Creating Layer relu4
I0403 14:50:45.440093  8104 net.cpp:425] relu4 <- conv4
I0403 14:50:45.440114  8104 net.cpp:386] relu4 -> conv4 (in-place)
I0403 14:50:45.440397  8104 net.cpp:141] Setting up relu4
I0403 14:50:45.440424  8104 net.cpp:148] Top shape: 100 384 13 13 (6489600)
I0403 14:50:45.440439  8104 net.cpp:156] Memory required for data: 783398000
I0403 14:50:45.440455  8104 layer_factory.hpp:77] Creating layer conv5
I0403 14:50:45.440482  8104 net.cpp:91] Creating Layer conv5
I0403 14:50:45.440500  8104 net.cpp:425] conv5 <- conv4
I0403 14:50:45.440522  8104 net.cpp:399] conv5 -> conv5
I0403 14:50:45.461488  8104 net.cpp:141] Setting up conv5
I0403 14:50:45.461524  8104 net.cpp:148] Top shape: 100 256 13 13 (4326400)
I0403 14:50:45.461542  8104 net.cpp:156] Memory required for data: 800703600
I0403 14:50:45.461567  8104 layer_factory.hpp:77] Creating layer relu5
I0403 14:50:45.461591  8104 net.cpp:91] Creating Layer relu5
I0403 14:50:45.461609  8104 net.cpp:425] relu5 <- conv5
I0403 14:50:45.461628  8104 net.cpp:386] relu5 -> conv5 (in-place)
I0403 14:50:45.461923  8104 net.cpp:141] Setting up relu5
I0403 14:50:45.461951  8104 net.cpp:148] Top shape: 100 256 13 13 (4326400)
I0403 14:50:45.461967  8104 net.cpp:156] Memory required for data: 818009200
I0403 14:50:45.461988  8104 layer_factory.hpp:77] Creating layer pool5
I0403 14:50:45.462015  8104 net.cpp:91] Creating Layer pool5
I0403 14:50:45.462034  8104 net.cpp:425] pool5 <- conv5
I0403 14:50:45.462054  8104 net.cpp:399] pool5 -> pool5
I0403 14:50:45.462117  8104 net.cpp:141] Setting up pool5
I0403 14:50:45.462142  8104 net.cpp:148] Top shape: 100 256 6 6 (921600)
I0403 14:50:45.462158  8104 net.cpp:156] Memory required for data: 821695600
I0403 14:50:45.462175  8104 layer_factory.hpp:77] Creating layer fc6
I0403 14:50:45.462203  8104 net.cpp:91] Creating Layer fc6
I0403 14:50:45.462221  8104 net.cpp:425] fc6 <- pool5
I0403 14:50:45.462244  8104 net.cpp:399] fc6 -> fc6
I0403 14:50:46.996353  8104 net.cpp:141] Setting up fc6
I0403 14:50:46.996443  8104 net.cpp:148] Top shape: 100 4096 (409600)
I0403 14:50:46.996459  8104 net.cpp:156] Memory required for data: 823334000
I0403 14:50:46.996480  8104 layer_factory.hpp:77] Creating layer relu6
I0403 14:50:46.996502  8104 net.cpp:91] Creating Layer relu6
I0403 14:50:46.996520  8104 net.cpp:425] relu6 <- fc6
I0403 14:50:46.996541  8104 net.cpp:386] relu6 -> fc6 (in-place)
I0403 14:50:46.996762  8104 net.cpp:141] Setting up relu6
I0403 14:50:46.996788  8104 net.cpp:148] Top shape: 100 4096 (409600)
I0403 14:50:46.996803  8104 net.cpp:156] Memory required for data: 824972400
I0403 14:50:46.996816  8104 layer_factory.hpp:77] Creating layer drop6
I0403 14:50:46.996834  8104 net.cpp:91] Creating Layer drop6
I0403 14:50:46.996850  8104 net.cpp:425] drop6 <- fc6
I0403 14:50:46.996870  8104 net.cpp:386] drop6 -> fc6 (in-place)
I0403 14:50:46.996923  8104 net.cpp:141] Setting up drop6
I0403 14:50:46.996950  8104 net.cpp:148] Top shape: 100 4096 (409600)
I0403 14:50:46.996966  8104 net.cpp:156] Memory required for data: 826610800
I0403 14:50:46.996985  8104 layer_factory.hpp:77] Creating layer fc7
I0403 14:50:46.997007  8104 net.cpp:91] Creating Layer fc7
I0403 14:50:46.997023  8104 net.cpp:425] fc7 <- fc6
I0403 14:50:46.997043  8104 net.cpp:399] fc7 -> fc7
I0403 14:50:47.688490  8104 net.cpp:141] Setting up fc7
I0403 14:50:47.688580  8104 net.cpp:148] Top shape: 100 4096 (409600)
I0403 14:50:47.688596  8104 net.cpp:156] Memory required for data: 828249200
I0403 14:50:47.688618  8104 layer_factory.hpp:77] Creating layer relu7
I0403 14:50:47.688640  8104 net.cpp:91] Creating Layer relu7
I0403 14:50:47.688657  8104 net.cpp:425] relu7 <- fc7
I0403 14:50:47.688679  8104 net.cpp:386] relu7 -> fc7 (in-place)
I0403 14:50:47.689079  8104 net.cpp:141] Setting up relu7
I0403 14:50:47.689105  8104 net.cpp:148] Top shape: 100 4096 (409600)
I0403 14:50:47.689151  8104 net.cpp:156] Memory required for data: 829887600
I0403 14:50:47.689167  8104 layer_factory.hpp:77] Creating layer drop7
I0403 14:50:47.689185  8104 net.cpp:91] Creating Layer drop7
I0403 14:50:47.689203  8104 net.cpp:425] drop7 <- fc7
I0403 14:50:47.689224  8104 net.cpp:386] drop7 -> fc7 (in-place)
I0403 14:50:47.689266  8104 net.cpp:141] Setting up drop7
I0403 14:50:47.689291  8104 net.cpp:148] Top shape: 100 4096 (409600)
I0403 14:50:47.689306  8104 net.cpp:156] Memory required for data: 831526000
I0403 14:50:47.689322  8104 layer_factory.hpp:77] Creating layer fc8_plantvillage
I0403 14:50:47.689342  8104 net.cpp:91] Creating Layer fc8_plantvillage
I0403 14:50:47.689357  8104 net.cpp:425] fc8_plantvillage <- fc7
I0403 14:50:47.689378  8104 net.cpp:399] fc8_plantvillage -> fc8_plantvillage
I0403 14:50:47.696518  8104 net.cpp:141] Setting up fc8_plantvillage
I0403 14:50:47.696550  8104 net.cpp:148] Top shape: 100 38 (3800)
I0403 14:50:47.696568  8104 net.cpp:156] Memory required for data: 831541200
I0403 14:50:47.696588  8104 layer_factory.hpp:77] Creating layer fc8_plantvillage_fc8_plantvillage_0_split
I0403 14:50:47.696619  8104 net.cpp:91] Creating Layer fc8_plantvillage_fc8_plantvillage_0_split
I0403 14:50:47.696638  8104 net.cpp:425] fc8_plantvillage_fc8_plantvillage_0_split <- fc8_plantvillage
I0403 14:50:47.696657  8104 net.cpp:399] fc8_plantvillage_fc8_plantvillage_0_split -> fc8_plantvillage_fc8_plantvillage_0_split_0
I0403 14:50:47.696678  8104 net.cpp:399] fc8_plantvillage_fc8_plantvillage_0_split -> fc8_plantvillage_fc8_plantvillage_0_split_1
I0403 14:50:47.696701  8104 net.cpp:399] fc8_plantvillage_fc8_plantvillage_0_split -> fc8_plantvillage_fc8_plantvillage_0_split_2
I0403 14:50:47.696785  8104 net.cpp:141] Setting up fc8_plantvillage_fc8_plantvillage_0_split
I0403 14:50:47.696810  8104 net.cpp:148] Top shape: 100 38 (3800)
I0403 14:50:47.696828  8104 net.cpp:148] Top shape: 100 38 (3800)
I0403 14:50:47.696846  8104 net.cpp:148] Top shape: 100 38 (3800)
I0403 14:50:47.696859  8104 net.cpp:156] Memory required for data: 831586800
I0403 14:50:47.696876  8104 layer_factory.hpp:77] Creating layer prob
I0403 14:50:47.696907  8104 net.cpp:91] Creating Layer prob
I0403 14:50:47.696931  8104 net.cpp:425] prob <- fc8_plantvillage_fc8_plantvillage_0_split_0
I0403 14:50:47.696956  8104 net.cpp:399] prob -> prob
I0403 14:50:47.697227  8104 net.cpp:141] Setting up prob
I0403 14:50:47.697255  8104 net.cpp:148] Top shape: 100 38 (3800)
I0403 14:50:47.697271  8104 net.cpp:156] Memory required for data: 831602000
I0403 14:50:47.697286  8104 layer_factory.hpp:77] Creating layer hdf5out
I0403 14:50:47.697306  8104 net.cpp:91] Creating Layer hdf5out
I0403 14:50:47.697341  8104 net.cpp:425] hdf5out <- prob
I0403 14:50:47.697365  8104 net.cpp:425] hdf5out <- label_data_1_split_0
I0403 14:50:47.699708  8104 net.cpp:141] Setting up hdf5out
…
