…
I0403 14:53:29.959511  8253 net.cpp:313] The NetState phase (1) differed from the phase (0) specified by a rule in layer data
I0403 14:53:29.959817  8253 net.cpp:49] Initializing net from parameters: 
state {
  phase: TEST
}
layer {
  name: "data"
  type: "Data"
  top: "data"
  top: "label"
  include {
    phase: TEST
  }
  transform_param {
    crop_size: 227
    mean_file: "/home/mohanty/data/final_dataset/lmdb/color-50-50/mean.binaryproto"
  }
  data_param {
    source: "/home/mohanty/data/final_dataset/lmdb/color-50-50/test_db"
    batch_size: 100
    backend: LMDB
  }
}
layer {
  name: "conv1"
  type: "Convolution"
  bottom: "data"
  top: "conv1"
  param {
    lr_mult: 1
    decay_mult: 1
  }
  param {
    lr_mult: 2
    decay_mult: 0
  }
  convolution_param {
    num_output: 96
    kernel_size: 11
    stride: 4
    weight_filler {
      type: "gaussian"
      std: 0.01
    }
    bias_filler {
      type: "constant"
      value: 0
    }
  }
}
layer {
  name: "relu1"
  type: "ReLU"
  bottom: "conv1"
  top: "conv1"
}
layer {
  name: "norm1"
  type: "LRN"
  bottom: "conv1"
  top: "norm1"
  lrn_param {
    local_size: 5
    alpha: 0.0001
    beta: 0.75
  }
}
layer {
  name: "pool1"
  type: "Pooling"
  bottom: "norm1"
  top: "pool1"
  pooling_param {
    pool: MAX
    kernel_size: 3
    stride: 2
  }
}
layer {
  name: "conv2"
  type: "Convolution"
  bottom: "pool1"
  top: "conv2"
  param {
    lr_mult: 1
    decay_mult: 1
  }
  param {
    lr_mult: 2
    decay_mult: 0
  }
  convolution_param {
    num_output: 256
    pad: 2
    kernel_size: 5
    group: 2
    weight_filler {
      type: "gaussian"
      std: 0.01
    }
    bias_filler {
      type: "constant"
      value: 0.1
    }
  }
}
layer {
  name: "relu2"
  type: "ReLU"
  bottom: "conv2"
  top: "conv2"
}
layer {
  name: "norm2"
  type: "LRN"
  bottom: "conv2"
  top: "norm2"
  lrn_param {
    local_size: 5
    alpha: 0.0001
    beta: 0.75
  }
}
layer {
  name: "pool2"
  type: "Pooling"
  bottom: "norm2"
  top: "pool2"
  pooling_param {
    pool: MAX
    kernel_size: 3
    stride: 2
  }
}
layer {
  name: "conv3"
  type: "Convolution"
  bottom: "pool2"
  top: "conv3"
  param {
    lr_mult: 1
    decay_mult: 1
  }
  param {
    lr_mult: 2
    decay_mult: 0
  }
  convolution_param {
    num_output: 384
    pad: 1
    kernel_size: 3
    weight_filler {
      type: "gaussian"
      std: 0.01
    }
    bias_filler {
      type: "constant"
      value: 0
    }
  }
}
layer {
  name: "relu3"
  type: "ReLU"
  bottom: "conv3"
  top: "conv3"
}
layer {
  name: "conv4"
  type: "Convolution"
  bottom: "conv3"
  top: "conv4"
  param {
    lr_mult: 1
    decay_mult: 1
  }
  param {
    lr_mult: 2
    decay_mult: 0
  }
  convolution_param {
    num_output: 384
    pad: 1
    kernel_size: 3
    group: 2
    weight_filler {
      type: "gaussian"
      std: 0.01
    }
    bias_filler {
      type: "constant"
      value: 0.1
    }
  }
}
layer {
  name: "relu4"
  type: "ReLU"
  bottom: "conv4"
  top: "conv4"
}
layer {
  name: "conv5"
  type: "Convolution"
  bottom: "conv4"
  top: "conv5"
  param {
    lr_mult: 1
    decay_mult: 1
  }
  param {
    lr_mult: 2
    decay_mult: 0
  }
  convolution_param {
    num_output: 256
    pad: 1
    kernel_size: 3
    group: 2
    weight_filler {
      type: "gaussian"
      std: 0.01
    }
    bias_filler {
      type: "constant"
      value: 0.1
    }
  }
}
layer {
  name: "relu5"
  type: "ReLU"
  bottom: "conv5"
  top: "conv5"
}
layer {
  name: "pool5"
  type: "Pooling"
  bottom: "conv5"
  top: "pool5"
  pooling_param {
    pool: MAX
    kernel_size: 3
    stride: 2
  }
}
layer {
  name: "fc6"
  type: "InnerProduct"
  bottom: "pool5"
  top: "fc6"
  param {
    lr_mult: 1
    decay_mult: 1
  }
  param {
    lr_mult: 2
    decay_mult: 0
  }
  inner_product_param {
    num_output: 4096
    weight_filler {
      type: "gaussian"
      std: 0.005
    }
    bias_filler {
      type: "constant"
      value: 0.1
    }
  }
}
layer {
  name: "relu6"
  type: "ReLU"
  bottom: "fc6"
  top: "fc6"
}
layer {
  name: "drop6"
  type: "Dropout"
  bottom: "fc6"
  top: "fc6"
  dropout_param {
    dropout_ratio: 0.5
  }
}
layer {
  name: "fc7"
  type: "InnerProduct"
  bottom: "fc6"
  top: "fc7"
  param {
    lr_mult: 1
    decay_mult: 1
  }
  param {
    lr_mult: 2
    decay_mult: 0
  }
  inner_product_param {
    num_output: 4096
    weight_filler {
      type: "gaussian"
      std: 0.005
    }
    bias_filler {
      type: "constant"
      value: 0.1
    }
  }
}
layer {
  name: "relu7"
  type: "ReLU"
  bottom: "fc7"
  top: "fc7"
}
layer {
  name: "drop7"
  type: "Dropout"
  bottom: "fc7"
  top: "fc7"
  dropout_param {
    dropout_ratio: 0.5
  }
}
layer {
  name: "fc8_plantvillage"
  type: "InnerProduct"
  bottom: "fc7"
  top: "fc8_plantvillage"
  param {
    lr_mult: 1
    decay_mult: 1
  }
  param {
    lr_mult: 2
    decay_mult: 0
  }
  inner_product_param {
    num_output: 38
    weight_filler {
      type: "gaussian"
      std: 0.01
    }
    bias_filler {
      type: "constant"
      value: 0
    }
  }
}
layer {
  name: "prob"
  type: "Softmax"
  bottom: "fc8_plantvillage"
  top: "prob"
  include {
    phase: TEST
  }
}
layer {
  name: "hdf5out"
  type: "HDF5Output"
  bottom: "prob"
  bottom: "label"
  include {
    phase: TEST
  }
  hdf5_output_param {
    file_name: "hdf5_dumps/iter_3228.h5"
  }
}
layer {
  name: "loss"
  type: "SoftmaxWithLoss"
  bottom: "fc8_plantvillage"
  bottom: "label"
  top: "loss"
}
layer {
  name: "accuracy"
  type: "Accuracy"
  bottom: "fc8_plantvillage"
  bottom: "label"
  top: "accuracy"
  include {
    phase: TEST
  }
}
I0403 14:53:29.960352  8253 layer_factory.hpp:77] Creating layer data
I0403 14:53:29.961000  8253 net.cpp:91] Creating Layer data
I0403 14:53:29.961030  8253 net.cpp:399] data -> data
I0403 14:53:29.961084  8253 net.cpp:399] data -> label
I0403 14:53:29.961120  8253 data_transformer.cpp:25] Loading mean file from: /home/mohanty/data/final_dataset/lmdb/color-50-50/mean.binaryproto
I0403 14:53:29.963455  8256 db_lmdb.cpp:38] Opened lmdb /home/mohanty/data/final_dataset/lmdb/color-50-50/test_db
I0403 14:53:29.975519  8253 data_layer.cpp:41] output data size: 100,3,227,227
I0403 14:53:30.095610  8253 net.cpp:141] Setting up data
I0403 14:53:30.095726  8253 net.cpp:148] Top shape: 100 3 227 227 (15458700)
I0403 14:53:30.095748  8253 net.cpp:148] Top shape: 100 (100)
I0403 14:53:30.095762  8253 net.cpp:156] Memory required for data: 61835200
I0403 14:53:30.095789  8253 layer_factory.hpp:77] Creating layer label_data_1_split
I0403 14:53:30.095814  8253 net.cpp:91] Creating Layer label_data_1_split
I0403 14:53:30.095832  8253 net.cpp:425] label_data_1_split <- label
I0403 14:53:30.095862  8253 net.cpp:399] label_data_1_split -> label_data_1_split_0
I0403 14:53:30.095887  8253 net.cpp:399] label_data_1_split -> label_data_1_split_1
I0403 14:53:30.095908  8253 net.cpp:399] label_data_1_split -> label_data_1_split_2
I0403 14:53:30.095973  8253 net.cpp:141] Setting up label_data_1_split
I0403 14:53:30.095998  8253 net.cpp:148] Top shape: 100 (100)
I0403 14:53:30.096014  8253 net.cpp:148] Top shape: 100 (100)
I0403 14:53:30.096029  8253 net.cpp:148] Top shape: 100 (100)
I0403 14:53:30.096043  8253 net.cpp:156] Memory required for data: 61836400
I0403 14:53:30.096057  8253 layer_factory.hpp:77] Creating layer conv1
I0403 14:53:30.096088  8253 net.cpp:91] Creating Layer conv1
I0403 14:53:30.096107  8253 net.cpp:425] conv1 <- data
I0403 14:53:30.096125  8253 net.cpp:399] conv1 -> conv1
I0403 14:53:30.238667  8253 net.cpp:141] Setting up conv1
I0403 14:53:30.238732  8253 net.cpp:148] Top shape: 100 96 55 55 (29040000)
I0403 14:53:30.238749  8253 net.cpp:156] Memory required for data: 177996400
I0403 14:53:30.238780  8253 layer_factory.hpp:77] Creating layer relu1
I0403 14:53:30.238807  8253 net.cpp:91] Creating Layer relu1
I0403 14:53:30.238824  8253 net.cpp:425] relu1 <- conv1
I0403 14:53:30.238843  8253 net.cpp:386] relu1 -> conv1 (in-place)
I0403 14:53:30.239105  8253 net.cpp:141] Setting up relu1
I0403 14:53:30.239132  8253 net.cpp:148] Top shape: 100 96 55 55 (29040000)
I0403 14:53:30.239147  8253 net.cpp:156] Memory required for data: 294156400
I0403 14:53:30.239193  8253 layer_factory.hpp:77] Creating layer norm1
I0403 14:53:30.239223  8253 net.cpp:91] Creating Layer norm1
I0403 14:53:30.239239  8253 net.cpp:425] norm1 <- conv1
I0403 14:53:30.239258  8253 net.cpp:399] norm1 -> norm1
I0403 14:53:30.239558  8253 net.cpp:141] Setting up norm1
I0403 14:53:30.239586  8253 net.cpp:148] Top shape: 100 96 55 55 (29040000)
I0403 14:53:30.239601  8253 net.cpp:156] Memory required for data: 410316400
I0403 14:53:30.239616  8253 layer_factory.hpp:77] Creating layer pool1
I0403 14:53:30.239640  8253 net.cpp:91] Creating Layer pool1
I0403 14:53:30.239656  8253 net.cpp:425] pool1 <- norm1
I0403 14:53:30.239675  8253 net.cpp:399] pool1 -> pool1
I0403 14:53:30.239738  8253 net.cpp:141] Setting up pool1
I0403 14:53:30.239763  8253 net.cpp:148] Top shape: 100 96 27 27 (6998400)
I0403 14:53:30.239778  8253 net.cpp:156] Memory required for data: 438310000
I0403 14:53:30.239791  8253 layer_factory.hpp:77] Creating layer conv2
I0403 14:53:30.239816  8253 net.cpp:91] Creating Layer conv2
I0403 14:53:30.239831  8253 net.cpp:425] conv2 <- pool1
I0403 14:53:30.239848  8253 net.cpp:399] conv2 -> conv2
I0403 14:53:30.254536  8253 net.cpp:141] Setting up conv2
I0403 14:53:30.254571  8253 net.cpp:148] Top shape: 100 256 27 27 (18662400)
I0403 14:53:30.254587  8253 net.cpp:156] Memory required for data: 512959600
I0403 14:53:30.254608  8253 layer_factory.hpp:77] Creating layer relu2
I0403 14:53:30.254627  8253 net.cpp:91] Creating Layer relu2
I0403 14:53:30.254642  8253 net.cpp:425] relu2 <- conv2
I0403 14:53:30.254659  8253 net.cpp:386] relu2 -> conv2 (in-place)
I0403 14:53:30.254912  8253 net.cpp:141] Setting up relu2
I0403 14:53:30.254938  8253 net.cpp:148] Top shape: 100 256 27 27 (18662400)
I0403 14:53:30.254958  8253 net.cpp:156] Memory required for data: 587609200
I0403 14:53:30.254974  8253 layer_factory.hpp:77] Creating layer norm2
I0403 14:53:30.254994  8253 net.cpp:91] Creating Layer norm2
I0403 14:53:30.255012  8253 net.cpp:425] norm2 <- conv2
I0403 14:53:30.255028  8253 net.cpp:399] norm2 -> norm2
I0403 14:53:30.255208  8253 net.cpp:141] Setting up norm2
I0403 14:53:30.255234  8253 net.cpp:148] Top shape: 100 256 27 27 (18662400)
I0403 14:53:30.255247  8253 net.cpp:156] Memory required for data: 662258800
I0403 14:53:30.255262  8253 layer_factory.hpp:77] Creating layer pool2
I0403 14:53:30.255280  8253 net.cpp:91] Creating Layer pool2
I0403 14:53:30.255295  8253 net.cpp:425] pool2 <- norm2
I0403 14:53:30.255312  8253 net.cpp:399] pool2 -> pool2
I0403 14:53:30.255359  8253 net.cpp:141] Setting up pool2
I0403 14:53:30.255381  8253 net.cpp:148] Top shape: 100 256 13 13 (4326400)
I0403 14:53:30.255396  8253 net.cpp:156] Memory required for data: 679564400
I0403 14:53:30.255410  8253 layer_factory.hpp:77] Creating layer conv3
I0403 14:53:30.255430  8253 net.cpp:91] Creating Layer conv3
I0403 14:53:30.255445  8253 net.cpp:425] conv3 <- pool2
I0403 14:53:30.255463  8253 net.cpp:399] conv3 -> conv3
I0403 14:53:30.294925  8253 net.cpp:141] Setting up conv3
I0403 14:53:30.294986  8253 net.cpp:148] Top shape: 100 384 13 13 (6489600)
I0403 14:53:30.295003  8253 net.cpp:156] Memory required for data: 705522800
I0403 14:53:30.295027  8253 layer_factory.hpp:77] Creating layer relu3
I0403 14:53:30.295047  8253 net.cpp:91] Creating Layer relu3
I0403 14:53:30.295063  8253 net.cpp:425] relu3 <- conv3
I0403 14:53:30.295083  8253 net.cpp:386] relu3 -> conv3 (in-place)
I0403 14:53:30.295348  8253 net.cpp:141] Setting up relu3
I0403 14:53:30.295377  8253 net.cpp:148] Top shape: 100 384 13 13 (6489600)
I0403 14:53:30.295393  8253 net.cpp:156] Memory required for data: 731481200
I0403 14:53:30.295408  8253 layer_factory.hpp:77] Creating layer conv4
I0403 14:53:30.295430  8253 net.cpp:91] Creating Layer conv4
I0403 14:53:30.295449  8253 net.cpp:425] conv4 <- conv3
I0403 14:53:30.295465  8253 net.cpp:399] conv4 -> conv4
I0403 14:53:30.324928  8253 net.cpp:141] Setting up conv4
I0403 14:53:30.324975  8253 net.cpp:148] Top shape: 100 384 13 13 (6489600)
I0403 14:53:30.325021  8253 net.cpp:156] Memory required for data: 757439600
I0403 14:53:30.325042  8253 layer_factory.hpp:77] Creating layer relu4
I0403 14:53:30.325063  8253 net.cpp:91] Creating Layer relu4
I0403 14:53:30.325081  8253 net.cpp:425] relu4 <- conv4
I0403 14:53:30.325098  8253 net.cpp:386] relu4 -> conv4 (in-place)
I0403 14:53:30.325377  8253 net.cpp:141] Setting up relu4
I0403 14:53:30.325403  8253 net.cpp:148] Top shape: 100 384 13 13 (6489600)
I0403 14:53:30.325418  8253 net.cpp:156] Memory required for data: 783398000
I0403 14:53:30.325433  8253 layer_factory.hpp:77] Creating layer conv5
I0403 14:53:30.325459  8253 net.cpp:91] Creating Layer conv5
I0403 14:53:30.325475  8253 net.cpp:425] conv5 <- conv4
I0403 14:53:30.325495  8253 net.cpp:399] conv5 -> conv5
I0403 14:53:30.345676  8253 net.cpp:141] Setting up conv5
I0403 14:53:30.345715  8253 net.cpp:148] Top shape: 100 256 13 13 (4326400)
I0403 14:53:30.345731  8253 net.cpp:156] Memory required for data: 800703600
I0403 14:53:30.345755  8253 layer_factory.hpp:77] Creating layer relu5
I0403 14:53:30.345773  8253 net.cpp:91] Creating Layer relu5
I0403 14:53:30.345789  8253 net.cpp:425] relu5 <- conv5
I0403 14:53:30.345806  8253 net.cpp:386] relu5 -> conv5 (in-place)
I0403 14:53:30.346082  8253 net.cpp:141] Setting up relu5
I0403 14:53:30.346110  8253 net.cpp:148] Top shape: 100 256 13 13 (4326400)
I0403 14:53:30.346127  8253 net.cpp:156] Memory required for data: 818009200
I0403 14:53:30.346141  8253 layer_factory.hpp:77] Creating layer pool5
I0403 14:53:30.346163  8253 net.cpp:91] Creating Layer pool5
I0403 14:53:30.346179  8253 net.cpp:425] pool5 <- conv5
I0403 14:53:30.346199  8253 net.cpp:399] pool5 -> pool5
I0403 14:53:30.346259  8253 net.cpp:141] Setting up pool5
I0403 14:53:30.346282  8253 net.cpp:148] Top shape: 100 256 6 6 (921600)
I0403 14:53:30.346297  8253 net.cpp:156] Memory required for data: 821695600
I0403 14:53:30.346312  8253 layer_factory.hpp:77] Creating layer fc6
I0403 14:53:30.346340  8253 net.cpp:91] Creating Layer fc6
I0403 14:53:30.346357  8253 net.cpp:425] fc6 <- pool5
I0403 14:53:30.346377  8253 net.cpp:399] fc6 -> fc6
I0403 14:53:31.868602  8253 net.cpp:141] Setting up fc6
I0403 14:53:31.868690  8253 net.cpp:148] Top shape: 100 4096 (409600)
I0403 14:53:31.868706  8253 net.cpp:156] Memory required for data: 823334000
I0403 14:53:31.868726  8253 layer_factory.hpp:77] Creating layer relu6
I0403 14:53:31.868751  8253 net.cpp:91] Creating Layer relu6
I0403 14:53:31.868768  8253 net.cpp:425] relu6 <- fc6
I0403 14:53:31.868788  8253 net.cpp:386] relu6 -> fc6 (in-place)
I0403 14:53:31.869009  8253 net.cpp:141] Setting up relu6
I0403 14:53:31.869035  8253 net.cpp:148] Top shape: 100 4096 (409600)
I0403 14:53:31.869050  8253 net.cpp:156] Memory required for data: 824972400
I0403 14:53:31.869065  8253 layer_factory.hpp:77] Creating layer drop6
I0403 14:53:31.869083  8253 net.cpp:91] Creating Layer drop6
I0403 14:53:31.869098  8253 net.cpp:425] drop6 <- fc6
I0403 14:53:31.869114  8253 net.cpp:386] drop6 -> fc6 (in-place)
I0403 14:53:31.869165  8253 net.cpp:141] Setting up drop6
I0403 14:53:31.869187  8253 net.cpp:148] Top shape: 100 4096 (409600)
I0403 14:53:31.869202  8253 net.cpp:156] Memory required for data: 826610800
I0403 14:53:31.869216  8253 layer_factory.hpp:77] Creating layer fc7
I0403 14:53:31.869238  8253 net.cpp:91] Creating Layer fc7
I0403 14:53:31.869254  8253 net.cpp:425] fc7 <- fc6
I0403 14:53:31.869271  8253 net.cpp:399] fc7 -> fc7
I0403 14:53:32.535202  8253 net.cpp:141] Setting up fc7
I0403 14:53:32.535290  8253 net.cpp:148] Top shape: 100 4096 (409600)
I0403 14:53:32.535306  8253 net.cpp:156] Memory required for data: 828249200
I0403 14:53:32.535327  8253 layer_factory.hpp:77] Creating layer relu7
I0403 14:53:32.535352  8253 net.cpp:91] Creating Layer relu7
I0403 14:53:32.535370  8253 net.cpp:425] relu7 <- fc7
I0403 14:53:32.535389  8253 net.cpp:386] relu7 -> fc7 (in-place)
I0403 14:53:32.535770  8253 net.cpp:141] Setting up relu7
I0403 14:53:32.535797  8253 net.cpp:148] Top shape: 100 4096 (409600)
I0403 14:53:32.535843  8253 net.cpp:156] Memory required for data: 829887600
I0403 14:53:32.535858  8253 layer_factory.hpp:77] Creating layer drop7
I0403 14:53:32.535877  8253 net.cpp:91] Creating Layer drop7
I0403 14:53:32.535892  8253 net.cpp:425] drop7 <- fc7
I0403 14:53:32.535920  8253 net.cpp:386] drop7 -> fc7 (in-place)
I0403 14:53:32.535969  8253 net.cpp:141] Setting up drop7
I0403 14:53:32.535991  8253 net.cpp:148] Top shape: 100 4096 (409600)
I0403 14:53:32.536005  8253 net.cpp:156] Memory required for data: 831526000
I0403 14:53:32.536020  8253 layer_factory.hpp:77] Creating layer fc8_plantvillage
I0403 14:53:32.536043  8253 net.cpp:91] Creating Layer fc8_plantvillage
I0403 14:53:32.536061  8253 net.cpp:425] fc8_plantvillage <- fc7
I0403 14:53:32.536077  8253 net.cpp:399] fc8_plantvillage -> fc8_plantvillage
I0403 14:53:32.542875  8253 net.cpp:141] Setting up fc8_plantvillage
I0403 14:53:32.542902  8253 net.cpp:148] Top shape: 100 38 (3800)
I0403 14:53:32.542918  8253 net.cpp:156] Memory required for data: 831541200
I0403 14:53:32.542937  8253 layer_factory.hpp:77] Creating layer fc8_plantvillage_fc8_plantvillage_0_split
I0403 14:53:32.542958  8253 net.cpp:91] Creating Layer fc8_plantvillage_fc8_plantvillage_0_split
I0403 14:53:32.542975  8253 net.cpp:425] fc8_plantvillage_fc8_plantvillage_0_split <- fc8_plantvillage
I0403 14:53:32.542992  8253 net.cpp:399] fc8_plantvillage_fc8_plantvillage_0_split -> fc8_plantvillage_fc8_plantvillage_0_split_0
I0403 14:53:32.543015  8253 net.cpp:399] fc8_plantvillage_fc8_plantvillage_0_split -> fc8_plantvillage_fc8_plantvillage_0_split_1
I0403 14:53:32.543036  8253 net.cpp:399] fc8_plantvillage_fc8_plantvillage_0_split -> fc8_plantvillage_fc8_plantvillage_0_split_2
I0403 14:53:32.543113  8253 net.cpp:141] Setting up fc8_plantvillage_fc8_plantvillage_0_split
I0403 14:53:32.543136  8253 net.cpp:148] Top shape: 100 38 (3800)
I0403 14:53:32.543153  8253 net.cpp:148] Top shape: 100 38 (3800)
I0403 14:53:32.543167  8253 net.cpp:148] Top shape: 100 38 (3800)
I0403 14:53:32.543181  8253 net.cpp:156] Memory required for data: 831586800
I0403 14:53:32.543195  8253 layer_factory.hpp:77] Creating layer prob
I0403 14:53:32.543215  8253 net.cpp:91] Creating Layer prob
I0403 14:53:32.543231  8253 net.cpp:425] prob <- fc8_plantvillage_fc8_plantvillage_0_split_0
I0403 14:53:32.543248  8253 net.cpp:399] prob -> prob
I0403 14:53:32.543475  8253 net.cpp:141] Setting up prob
I0403 14:53:32.543501  8253 net.cpp:148] Top shape: 100 38 (3800)
I0403 14:53:32.543516  8253 net.cpp:156] Memory required for data: 831602000
I0403 14:53:32.543531  8253 layer_factory.hpp:77] Creating layer hdf5out
I0403 14:53:32.543553  8253 net.cpp:91] Creating Layer hdf5out
I0403 14:53:32.543570  8253 net.cpp:425] hdf5out <- prob
I0403 14:53:32.543586  8253 net.cpp:425] hdf5out <- label_data_1_split_0
I0403 14:53:32.545747  8253 net.cpp:141] Setting up hdf5out
…
