…
I0403 15:09:05.334373  9204 net.cpp:313] The NetState phase (1) differed from the phase (0) specified by a rule in layer data
I0403 15:09:05.334682  9204 net.cpp:49] Initializing net from parameters: 
state {
  phase: TEST
}
layer {
  name: "data"
  type: "Data"
  top: "data"
  top: "label"
  include {
    phase: TEST
  }
  transform_param {
    crop_size: 227
    mean_file: "/home/mohanty/data/final_dataset/lmdb/color-50-50/mean.binaryproto"
  }
  data_param {
    source: "/home/mohanty/data/final_dataset/lmdb/color-50-50/test_db"
    batch_size: 100
    backend: LMDB
  }
}
layer {
  name: "conv1"
  type: "Convolution"
  bottom: "data"
  top: "conv1"
  param {
    lr_mult: 1
    decay_mult: 1
  }
  param {
    lr_mult: 2
    decay_mult: 0
  }
  convolution_param {
    num_output: 96
    kernel_size: 11
    stride: 4
    weight_filler {
      type: "gaussian"
      std: 0.01
    }
    bias_filler {
      type: "constant"
      value: 0
    }
  }
}
layer {
  name: "relu1"
  type: "ReLU"
  bottom: "conv1"
  top: "conv1"
}
layer {
  name: "norm1"
  type: "LRN"
  bottom: "conv1"
  top: "norm1"
  lrn_param {
    local_size: 5
    alpha: 0.0001
    beta: 0.75
  }
}
layer {
  name: "pool1"
  type: "Pooling"
  bottom: "norm1"
  top: "pool1"
  pooling_param {
    pool: MAX
    kernel_size: 3
    stride: 2
  }
}
layer {
  name: "conv2"
  type: "Convolution"
  bottom: "pool1"
  top: "conv2"
  param {
    lr_mult: 1
    decay_mult: 1
  }
  param {
    lr_mult: 2
    decay_mult: 0
  }
  convolution_param {
    num_output: 256
    pad: 2
    kernel_size: 5
    group: 2
    weight_filler {
      type: "gaussian"
      std: 0.01
    }
    bias_filler {
      type: "constant"
      value: 0.1
    }
  }
}
layer {
  name: "relu2"
  type: "ReLU"
  bottom: "conv2"
  top: "conv2"
}
layer {
  name: "norm2"
  type: "LRN"
  bottom: "conv2"
  top: "norm2"
  lrn_param {
    local_size: 5
    alpha: 0.0001
    beta: 0.75
  }
}
layer {
  name: "pool2"
  type: "Pooling"
  bottom: "norm2"
  top: "pool2"
  pooling_param {
    pool: MAX
    kernel_size: 3
    stride: 2
  }
}
layer {
  name: "conv3"
  type: "Convolution"
  bottom: "pool2"
  top: "conv3"
  param {
    lr_mult: 1
    decay_mult: 1
  }
  param {
    lr_mult: 2
    decay_mult: 0
  }
  convolution_param {
    num_output: 384
    pad: 1
    kernel_size: 3
    weight_filler {
      type: "gaussian"
      std: 0.01
    }
    bias_filler {
      type: "constant"
      value: 0
    }
  }
}
layer {
  name: "relu3"
  type: "ReLU"
  bottom: "conv3"
  top: "conv3"
}
layer {
  name: "conv4"
  type: "Convolution"
  bottom: "conv3"
  top: "conv4"
  param {
    lr_mult: 1
    decay_mult: 1
  }
  param {
    lr_mult: 2
    decay_mult: 0
  }
  convolution_param {
    num_output: 384
    pad: 1
    kernel_size: 3
    group: 2
    weight_filler {
      type: "gaussian"
      std: 0.01
    }
    bias_filler {
      type: "constant"
      value: 0.1
    }
  }
}
layer {
  name: "relu4"
  type: "ReLU"
  bottom: "conv4"
  top: "conv4"
}
layer {
  name: "conv5"
  type: "Convolution"
  bottom: "conv4"
  top: "conv5"
  param {
    lr_mult: 1
    decay_mult: 1
  }
  param {
    lr_mult: 2
    decay_mult: 0
  }
  convolution_param {
    num_output: 256
    pad: 1
    kernel_size: 3
    group: 2
    weight_filler {
      type: "gaussian"
      std: 0.01
    }
    bias_filler {
      type: "constant"
      value: 0.1
    }
  }
}
layer {
  name: "relu5"
  type: "ReLU"
  bottom: "conv5"
  top: "conv5"
}
layer {
  name: "pool5"
  type: "Pooling"
  bottom: "conv5"
  top: "pool5"
  pooling_param {
    pool: MAX
    kernel_size: 3
    stride: 2
  }
}
layer {
  name: "fc6"
  type: "InnerProduct"
  bottom: "pool5"
  top: "fc6"
  param {
    lr_mult: 1
    decay_mult: 1
  }
  param {
    lr_mult: 2
    decay_mult: 0
  }
  inner_product_param {
    num_output: 4096
    weight_filler {
      type: "gaussian"
      std: 0.005
    }
    bias_filler {
      type: "constant"
      value: 0.1
    }
  }
}
layer {
  name: "relu6"
  type: "ReLU"
  bottom: "fc6"
  top: "fc6"
}
layer {
  name: "drop6"
  type: "Dropout"
  bottom: "fc6"
  top: "fc6"
  dropout_param {
    dropout_ratio: 0.5
  }
}
layer {
  name: "fc7"
  type: "InnerProduct"
  bottom: "fc6"
  top: "fc7"
  param {
    lr_mult: 1
    decay_mult: 1
  }
  param {
    lr_mult: 2
    decay_mult: 0
  }
  inner_product_param {
    num_output: 4096
    weight_filler {
      type: "gaussian"
      std: 0.005
    }
    bias_filler {
      type: "constant"
      value: 0.1
    }
  }
}
layer {
  name: "relu7"
  type: "ReLU"
  bottom: "fc7"
  top: "fc7"
}
layer {
  name: "drop7"
  type: "Dropout"
  bottom: "fc7"
  top: "fc7"
  dropout_param {
    dropout_ratio: 0.5
  }
}
layer {
  name: "fc8_plantvillage"
  type: "InnerProduct"
  bottom: "fc7"
  top: "fc8_plantvillage"
  param {
    lr_mult: 1
    decay_mult: 1
  }
  param {
    lr_mult: 2
    decay_mult: 0
  }
  inner_product_param {
    num_output: 38
    weight_filler {
      type: "gaussian"
      std: 0.01
    }
    bias_filler {
      type: "constant"
      value: 0
    }
  }
}
layer {
  name: "prob"
  type: "Softmax"
  bottom: "fc8_plantvillage"
  top: "prob"
  include {
    phase: TEST
  }
}
layer {
  name: "hdf5out"
  type: "HDF5Output"
  bottom: "prob"
  bottom: "label"
  include {
    phase: TEST
  }
  hdf5_output_param {
    file_name: "hdf5_dumps/iter_7801.h5"
  }
}
layer {
  name: "loss"
  type: "SoftmaxWithLoss"
  bottom: "fc8_plantvillage"
  bottom: "label"
  top: "loss"
}
layer {
  name: "accuracy"
  type: "Accuracy"
  bottom: "fc8_plantvillage"
  bottom: "label"
  top: "accuracy"
  include {
    phase: TEST
  }
}
I0403 15:09:05.335191  9204 layer_factory.hpp:77] Creating layer data
I0403 15:09:05.335814  9204 net.cpp:91] Creating Layer data
I0403 15:09:05.335844  9204 net.cpp:399] data -> data
I0403 15:09:05.335891  9204 net.cpp:399] data -> label
I0403 15:09:05.335929  9204 data_transformer.cpp:25] Loading mean file from: /home/mohanty/data/final_dataset/lmdb/color-50-50/mean.binaryproto
I0403 15:09:05.342759  9208 db_lmdb.cpp:38] Opened lmdb /home/mohanty/data/final_dataset/lmdb/color-50-50/test_db
I0403 15:09:05.350350  9204 data_layer.cpp:41] output data size: 100,3,227,227
I0403 15:09:05.473711  9204 net.cpp:141] Setting up data
I0403 15:09:05.473817  9204 net.cpp:148] Top shape: 100 3 227 227 (15458700)
I0403 15:09:05.473839  9204 net.cpp:148] Top shape: 100 (100)
I0403 15:09:05.473855  9204 net.cpp:156] Memory required for data: 61835200
I0403 15:09:05.473881  9204 layer_factory.hpp:77] Creating layer label_data_1_split
I0403 15:09:05.473906  9204 net.cpp:91] Creating Layer label_data_1_split
I0403 15:09:05.473924  9204 net.cpp:425] label_data_1_split <- label
I0403 15:09:05.473958  9204 net.cpp:399] label_data_1_split -> label_data_1_split_0
I0403 15:09:05.473986  9204 net.cpp:399] label_data_1_split -> label_data_1_split_1
I0403 15:09:05.474006  9204 net.cpp:399] label_data_1_split -> label_data_1_split_2
I0403 15:09:05.474068  9204 net.cpp:141] Setting up label_data_1_split
I0403 15:09:05.474092  9204 net.cpp:148] Top shape: 100 (100)
I0403 15:09:05.474107  9204 net.cpp:148] Top shape: 100 (100)
I0403 15:09:05.474123  9204 net.cpp:148] Top shape: 100 (100)
I0403 15:09:05.474138  9204 net.cpp:156] Memory required for data: 61836400
I0403 15:09:05.474153  9204 layer_factory.hpp:77] Creating layer conv1
I0403 15:09:05.474184  9204 net.cpp:91] Creating Layer conv1
I0403 15:09:05.474203  9204 net.cpp:425] conv1 <- data
I0403 15:09:05.474222  9204 net.cpp:399] conv1 -> conv1
I0403 15:09:05.620013  9204 net.cpp:141] Setting up conv1
I0403 15:09:05.620100  9204 net.cpp:148] Top shape: 100 96 55 55 (29040000)
I0403 15:09:05.620117  9204 net.cpp:156] Memory required for data: 177996400
I0403 15:09:05.620148  9204 layer_factory.hpp:77] Creating layer relu1
I0403 15:09:05.620175  9204 net.cpp:91] Creating Layer relu1
I0403 15:09:05.620193  9204 net.cpp:425] relu1 <- conv1
I0403 15:09:05.620213  9204 net.cpp:386] relu1 -> conv1 (in-place)
I0403 15:09:05.620472  9204 net.cpp:141] Setting up relu1
I0403 15:09:05.620499  9204 net.cpp:148] Top shape: 100 96 55 55 (29040000)
I0403 15:09:05.620515  9204 net.cpp:156] Memory required for data: 294156400
I0403 15:09:05.620561  9204 layer_factory.hpp:77] Creating layer norm1
I0403 15:09:05.620590  9204 net.cpp:91] Creating Layer norm1
I0403 15:09:05.620609  9204 net.cpp:425] norm1 <- conv1
I0403 15:09:05.620627  9204 net.cpp:399] norm1 -> norm1
I0403 15:09:05.620944  9204 net.cpp:141] Setting up norm1
I0403 15:09:05.621017  9204 net.cpp:148] Top shape: 100 96 55 55 (29040000)
I0403 15:09:05.621039  9204 net.cpp:156] Memory required for data: 410316400
I0403 15:09:05.621055  9204 layer_factory.hpp:77] Creating layer pool1
I0403 15:09:05.621079  9204 net.cpp:91] Creating Layer pool1
I0403 15:09:05.621098  9204 net.cpp:425] pool1 <- norm1
I0403 15:09:05.621116  9204 net.cpp:399] pool1 -> pool1
I0403 15:09:05.621186  9204 net.cpp:141] Setting up pool1
I0403 15:09:05.621209  9204 net.cpp:148] Top shape: 100 96 27 27 (6998400)
I0403 15:09:05.621237  9204 net.cpp:156] Memory required for data: 438310000
I0403 15:09:05.621253  9204 layer_factory.hpp:77] Creating layer conv2
I0403 15:09:05.621276  9204 net.cpp:91] Creating Layer conv2
I0403 15:09:05.621294  9204 net.cpp:425] conv2 <- pool1
I0403 15:09:05.621311  9204 net.cpp:399] conv2 -> conv2
I0403 15:09:05.636544  9204 net.cpp:141] Setting up conv2
I0403 15:09:05.636580  9204 net.cpp:148] Top shape: 100 256 27 27 (18662400)
I0403 15:09:05.636597  9204 net.cpp:156] Memory required for data: 512959600
I0403 15:09:05.636620  9204 layer_factory.hpp:77] Creating layer relu2
I0403 15:09:05.636641  9204 net.cpp:91] Creating Layer relu2
I0403 15:09:05.636656  9204 net.cpp:425] relu2 <- conv2
I0403 15:09:05.636674  9204 net.cpp:386] relu2 -> conv2 (in-place)
I0403 15:09:05.637017  9204 net.cpp:141] Setting up relu2
I0403 15:09:05.637044  9204 net.cpp:148] Top shape: 100 256 27 27 (18662400)
I0403 15:09:05.637060  9204 net.cpp:156] Memory required for data: 587609200
I0403 15:09:05.637075  9204 layer_factory.hpp:77] Creating layer norm2
I0403 15:09:05.637095  9204 net.cpp:91] Creating Layer norm2
I0403 15:09:05.637112  9204 net.cpp:425] norm2 <- conv2
I0403 15:09:05.637130  9204 net.cpp:399] norm2 -> norm2
I0403 15:09:05.637312  9204 net.cpp:141] Setting up norm2
I0403 15:09:05.637338  9204 net.cpp:148] Top shape: 100 256 27 27 (18662400)
I0403 15:09:05.637354  9204 net.cpp:156] Memory required for data: 662258800
I0403 15:09:05.637369  9204 layer_factory.hpp:77] Creating layer pool2
I0403 15:09:05.637387  9204 net.cpp:91] Creating Layer pool2
I0403 15:09:05.637403  9204 net.cpp:425] pool2 <- norm2
I0403 15:09:05.637420  9204 net.cpp:399] pool2 -> pool2
I0403 15:09:05.637468  9204 net.cpp:141] Setting up pool2
I0403 15:09:05.637492  9204 net.cpp:148] Top shape: 100 256 13 13 (4326400)
I0403 15:09:05.637506  9204 net.cpp:156] Memory required for data: 679564400
I0403 15:09:05.637521  9204 layer_factory.hpp:77] Creating layer conv3
I0403 15:09:05.637542  9204 net.cpp:91] Creating Layer conv3
I0403 15:09:05.637559  9204 net.cpp:425] conv3 <- pool2
I0403 15:09:05.637578  9204 net.cpp:399] conv3 -> conv3
I0403 15:09:05.676540  9204 net.cpp:141] Setting up conv3
I0403 15:09:05.676599  9204 net.cpp:148] Top shape: 100 384 13 13 (6489600)
I0403 15:09:05.676615  9204 net.cpp:156] Memory required for data: 705522800
I0403 15:09:05.676640  9204 layer_factory.hpp:77] Creating layer relu3
I0403 15:09:05.676659  9204 net.cpp:91] Creating Layer relu3
I0403 15:09:05.676676  9204 net.cpp:425] relu3 <- conv3
I0403 15:09:05.676695  9204 net.cpp:386] relu3 -> conv3 (in-place)
I0403 15:09:05.677028  9204 net.cpp:141] Setting up relu3
I0403 15:09:05.677057  9204 net.cpp:148] Top shape: 100 384 13 13 (6489600)
I0403 15:09:05.677072  9204 net.cpp:156] Memory required for data: 731481200
I0403 15:09:05.677088  9204 layer_factory.hpp:77] Creating layer conv4
I0403 15:09:05.677110  9204 net.cpp:91] Creating Layer conv4
I0403 15:09:05.677127  9204 net.cpp:425] conv4 <- conv3
I0403 15:09:05.677146  9204 net.cpp:399] conv4 -> conv4
I0403 15:09:05.707850  9204 net.cpp:141] Setting up conv4
I0403 15:09:05.707906  9204 net.cpp:148] Top shape: 100 384 13 13 (6489600)
I0403 15:09:05.707967  9204 net.cpp:156] Memory required for data: 757439600
I0403 15:09:05.707999  9204 layer_factory.hpp:77] Creating layer relu4
I0403 15:09:05.708022  9204 net.cpp:91] Creating Layer relu4
I0403 15:09:05.708039  9204 net.cpp:425] relu4 <- conv4
I0403 15:09:05.708062  9204 net.cpp:386] relu4 -> conv4 (in-place)
I0403 15:09:05.708354  9204 net.cpp:141] Setting up relu4
I0403 15:09:05.708384  9204 net.cpp:148] Top shape: 100 384 13 13 (6489600)
I0403 15:09:05.708400  9204 net.cpp:156] Memory required for data: 783398000
I0403 15:09:05.708415  9204 layer_factory.hpp:77] Creating layer conv5
I0403 15:09:05.708441  9204 net.cpp:91] Creating Layer conv5
I0403 15:09:05.708457  9204 net.cpp:425] conv5 <- conv4
I0403 15:09:05.708478  9204 net.cpp:399] conv5 -> conv5
I0403 15:09:05.729351  9204 net.cpp:141] Setting up conv5
I0403 15:09:05.729389  9204 net.cpp:148] Top shape: 100 256 13 13 (4326400)
I0403 15:09:05.729408  9204 net.cpp:156] Memory required for data: 800703600
I0403 15:09:05.729431  9204 layer_factory.hpp:77] Creating layer relu5
I0403 15:09:05.729450  9204 net.cpp:91] Creating Layer relu5
I0403 15:09:05.729465  9204 net.cpp:425] relu5 <- conv5
I0403 15:09:05.729485  9204 net.cpp:386] relu5 -> conv5 (in-place)
I0403 15:09:05.729765  9204 net.cpp:141] Setting up relu5
I0403 15:09:05.729792  9204 net.cpp:148] Top shape: 100 256 13 13 (4326400)
I0403 15:09:05.729809  9204 net.cpp:156] Memory required for data: 818009200
I0403 15:09:05.729823  9204 layer_factory.hpp:77] Creating layer pool5
I0403 15:09:05.729847  9204 net.cpp:91] Creating Layer pool5
I0403 15:09:05.729864  9204 net.cpp:425] pool5 <- conv5
I0403 15:09:05.729882  9204 net.cpp:399] pool5 -> pool5
I0403 15:09:05.729943  9204 net.cpp:141] Setting up pool5
I0403 15:09:05.729967  9204 net.cpp:148] Top shape: 100 256 6 6 (921600)
I0403 15:09:05.729986  9204 net.cpp:156] Memory required for data: 821695600
I0403 15:09:05.730005  9204 layer_factory.hpp:77] Creating layer fc6
I0403 15:09:05.730031  9204 net.cpp:91] Creating Layer fc6
I0403 15:09:05.730048  9204 net.cpp:425] fc6 <- pool5
I0403 15:09:05.730068  9204 net.cpp:399] fc6 -> fc6
I0403 15:09:07.269450  9204 net.cpp:141] Setting up fc6
I0403 15:09:07.269533  9204 net.cpp:148] Top shape: 100 4096 (409600)
I0403 15:09:07.269551  9204 net.cpp:156] Memory required for data: 823334000
I0403 15:09:07.269572  9204 layer_factory.hpp:77] Creating layer relu6
I0403 15:09:07.269593  9204 net.cpp:91] Creating Layer relu6
I0403 15:09:07.269609  9204 net.cpp:425] relu6 <- fc6
I0403 15:09:07.269629  9204 net.cpp:386] relu6 -> fc6 (in-place)
I0403 15:09:07.269846  9204 net.cpp:141] Setting up relu6
I0403 15:09:07.269870  9204 net.cpp:148] Top shape: 100 4096 (409600)
I0403 15:09:07.269884  9204 net.cpp:156] Memory required for data: 824972400
I0403 15:09:07.269899  9204 layer_factory.hpp:77] Creating layer drop6
I0403 15:09:07.269917  9204 net.cpp:91] Creating Layer drop6
I0403 15:09:07.269932  9204 net.cpp:425] drop6 <- fc6
I0403 15:09:07.269949  9204 net.cpp:386] drop6 -> fc6 (in-place)
I0403 15:09:07.270004  9204 net.cpp:141] Setting up drop6
I0403 15:09:07.270030  9204 net.cpp:148] Top shape: 100 4096 (409600)
I0403 15:09:07.270043  9204 net.cpp:156] Memory required for data: 826610800
I0403 15:09:07.270058  9204 layer_factory.hpp:77] Creating layer fc7
I0403 15:09:07.270077  9204 net.cpp:91] Creating Layer fc7
I0403 15:09:07.270092  9204 net.cpp:425] fc7 <- fc6
I0403 15:09:07.270110  9204 net.cpp:399] fc7 -> fc7
I0403 15:09:07.948782  9204 net.cpp:141] Setting up fc7
I0403 15:09:07.948865  9204 net.cpp:148] Top shape: 100 4096 (409600)
I0403 15:09:07.948880  9204 net.cpp:156] Memory required for data: 828249200
I0403 15:09:07.948901  9204 layer_factory.hpp:77] Creating layer relu7
I0403 15:09:07.948923  9204 net.cpp:91] Creating Layer relu7
I0403 15:09:07.948941  9204 net.cpp:425] relu7 <- fc7
I0403 15:09:07.948962  9204 net.cpp:386] relu7 -> fc7 (in-place)
I0403 15:09:07.949347  9204 net.cpp:141] Setting up relu7
I0403 15:09:07.949373  9204 net.cpp:148] Top shape: 100 4096 (409600)
I0403 15:09:07.949419  9204 net.cpp:156] Memory required for data: 829887600
I0403 15:09:07.949434  9204 layer_factory.hpp:77] Creating layer drop7
I0403 15:09:07.949452  9204 net.cpp:91] Creating Layer drop7
I0403 15:09:07.949466  9204 net.cpp:425] drop7 <- fc7
I0403 15:09:07.949488  9204 net.cpp:386] drop7 -> fc7 (in-place)
I0403 15:09:07.949530  9204 net.cpp:141] Setting up drop7
I0403 15:09:07.949553  9204 net.cpp:148] Top shape: 100 4096 (409600)
I0403 15:09:07.949568  9204 net.cpp:156] Memory required for data: 831526000
I0403 15:09:07.949582  9204 layer_factory.hpp:77] Creating layer fc8_plantvillage
I0403 15:09:07.949601  9204 net.cpp:91] Creating Layer fc8_plantvillage
I0403 15:09:07.949615  9204 net.cpp:425] fc8_plantvillage <- fc7
I0403 15:09:07.949635  9204 net.cpp:399] fc8_plantvillage -> fc8_plantvillage
I0403 15:09:07.956182  9204 net.cpp:141] Setting up fc8_plantvillage
I0403 15:09:07.956209  9204 net.cpp:148] Top shape: 100 38 (3800)
I0403 15:09:07.956224  9204 net.cpp:156] Memory required for data: 831541200
I0403 15:09:07.956243  9204 layer_factory.hpp:77] Creating layer fc8_plantvillage_fc8_plantvillage_0_split
I0403 15:09:07.956260  9204 net.cpp:91] Creating Layer fc8_plantvillage_fc8_plantvillage_0_split
I0403 15:09:07.956275  9204 net.cpp:425] fc8_plantvillage_fc8_plantvillage_0_split <- fc8_plantvillage
I0403 15:09:07.956295  9204 net.cpp:399] fc8_plantvillage_fc8_plantvillage_0_split -> fc8_plantvillage_fc8_plantvillage_0_split_0
I0403 15:09:07.956313  9204 net.cpp:399] fc8_plantvillage_fc8_plantvillage_0_split -> fc8_plantvillage_fc8_plantvillage_0_split_1
I0403 15:09:07.956332  9204 net.cpp:399] fc8_plantvillage_fc8_plantvillage_0_split -> fc8_plantvillage_fc8_plantvillage_0_split_2
I0403 15:09:07.956410  9204 net.cpp:141] Setting up fc8_plantvillage_fc8_plantvillage_0_split
I0403 15:09:07.956434  9204 net.cpp:148] Top shape: 100 38 (3800)
I0403 15:09:07.956450  9204 net.cpp:148] Top shape: 100 38 (3800)
I0403 15:09:07.956465  9204 net.cpp:148] Top shape: 100 38 (3800)
I0403 15:09:07.956478  9204 net.cpp:156] Memory required for data: 831586800
I0403 15:09:07.956492  9204 layer_factory.hpp:77] Creating layer prob
I0403 15:09:07.956509  9204 net.cpp:91] Creating Layer prob
I0403 15:09:07.956524  9204 net.cpp:425] prob <- fc8_plantvillage_fc8_plantvillage_0_split_0
I0403 15:09:07.956542  9204 net.cpp:399] prob -> prob
I0403 15:09:07.956756  9204 net.cpp:141] Setting up prob
I0403 15:09:07.956780  9204 net.cpp:148] Top shape: 100 38 (3800)
I0403 15:09:07.956794  9204 net.cpp:156] Memory required for data: 831602000
I0403 15:09:07.956809  9204 layer_factory.hpp:77] Creating layer hdf5out
I0403 15:09:07.956827  9204 net.cpp:91] Creating Layer hdf5out
I0403 15:09:07.956841  9204 net.cpp:425] hdf5out <- prob
I0403 15:09:07.956856  9204 net.cpp:425] hdf5out <- label_data_1_split_0
I0403 15:09:07.959025  9204 net.cpp:141] Setting up hdf5out
…
