…
I0403 14:56:14.741361  8418 net.cpp:313] The NetState phase (1) differed from the phase (0) specified by a rule in layer data
I0403 14:56:14.741660  8418 net.cpp:49] Initializing net from parameters: 
state {
  phase: TEST
}
layer {
  name: "data"
  type: "Data"
  top: "data"
  top: "label"
  include {
    phase: TEST
  }
  transform_param {
    crop_size: 227
    mean_file: "/home/mohanty/data/final_dataset/lmdb/color-50-50/mean.binaryproto"
  }
  data_param {
    source: "/home/mohanty/data/final_dataset/lmdb/color-50-50/test_db"
    batch_size: 100
    backend: LMDB
  }
}
layer {
  name: "conv1"
  type: "Convolution"
  bottom: "data"
  top: "conv1"
  param {
    lr_mult: 1
    decay_mult: 1
  }
  param {
    lr_mult: 2
    decay_mult: 0
  }
  convolution_param {
    num_output: 96
    kernel_size: 11
    stride: 4
    weight_filler {
      type: "gaussian"
      std: 0.01
    }
    bias_filler {
      type: "constant"
      value: 0
    }
  }
}
layer {
  name: "relu1"
  type: "ReLU"
  bottom: "conv1"
  top: "conv1"
}
layer {
  name: "norm1"
  type: "LRN"
  bottom: "conv1"
  top: "norm1"
  lrn_param {
    local_size: 5
    alpha: 0.0001
    beta: 0.75
  }
}
layer {
  name: "pool1"
  type: "Pooling"
  bottom: "norm1"
  top: "pool1"
  pooling_param {
    pool: MAX
    kernel_size: 3
    stride: 2
  }
}
layer {
  name: "conv2"
  type: "Convolution"
  bottom: "pool1"
  top: "conv2"
  param {
    lr_mult: 1
    decay_mult: 1
  }
  param {
    lr_mult: 2
    decay_mult: 0
  }
  convolution_param {
    num_output: 256
    pad: 2
    kernel_size: 5
    group: 2
    weight_filler {
      type: "gaussian"
      std: 0.01
    }
    bias_filler {
      type: "constant"
      value: 0.1
    }
  }
}
layer {
  name: "relu2"
  type: "ReLU"
  bottom: "conv2"
  top: "conv2"
}
layer {
  name: "norm2"
  type: "LRN"
  bottom: "conv2"
  top: "norm2"
  lrn_param {
    local_size: 5
    alpha: 0.0001
    beta: 0.75
  }
}
layer {
  name: "pool2"
  type: "Pooling"
  bottom: "norm2"
  top: "pool2"
  pooling_param {
    pool: MAX
    kernel_size: 3
    stride: 2
  }
}
layer {
  name: "conv3"
  type: "Convolution"
  bottom: "pool2"
  top: "conv3"
  param {
    lr_mult: 1
    decay_mult: 1
  }
  param {
    lr_mult: 2
    decay_mult: 0
  }
  convolution_param {
    num_output: 384
    pad: 1
    kernel_size: 3
    weight_filler {
      type: "gaussian"
      std: 0.01
    }
    bias_filler {
      type: "constant"
      value: 0
    }
  }
}
layer {
  name: "relu3"
  type: "ReLU"
  bottom: "conv3"
  top: "conv3"
}
layer {
  name: "conv4"
  type: "Convolution"
  bottom: "conv3"
  top: "conv4"
  param {
    lr_mult: 1
    decay_mult: 1
  }
  param {
    lr_mult: 2
    decay_mult: 0
  }
  convolution_param {
    num_output: 384
    pad: 1
    kernel_size: 3
    group: 2
    weight_filler {
      type: "gaussian"
      std: 0.01
    }
    bias_filler {
      type: "constant"
      value: 0.1
    }
  }
}
layer {
  name: "relu4"
  type: "ReLU"
  bottom: "conv4"
  top: "conv4"
}
layer {
  name: "conv5"
  type: "Convolution"
  bottom: "conv4"
  top: "conv5"
  param {
    lr_mult: 1
    decay_mult: 1
  }
  param {
    lr_mult: 2
    decay_mult: 0
  }
  convolution_param {
    num_output: 256
    pad: 1
    kernel_size: 3
    group: 2
    weight_filler {
      type: "gaussian"
      std: 0.01
    }
    bias_filler {
      type: "constant"
      value: 0.1
    }
  }
}
layer {
  name: "relu5"
  type: "ReLU"
  bottom: "conv5"
  top: "conv5"
}
layer {
  name: "pool5"
  type: "Pooling"
  bottom: "conv5"
  top: "pool5"
  pooling_param {
    pool: MAX
    kernel_size: 3
    stride: 2
  }
}
layer {
  name: "fc6"
  type: "InnerProduct"
  bottom: "pool5"
  top: "fc6"
  param {
    lr_mult: 1
    decay_mult: 1
  }
  param {
    lr_mult: 2
    decay_mult: 0
  }
  inner_product_param {
    num_output: 4096
    weight_filler {
      type: "gaussian"
      std: 0.005
    }
    bias_filler {
      type: "constant"
      value: 0.1
    }
  }
}
layer {
  name: "relu6"
  type: "ReLU"
  bottom: "fc6"
  top: "fc6"
}
layer {
  name: "drop6"
  type: "Dropout"
  bottom: "fc6"
  top: "fc6"
  dropout_param {
    dropout_ratio: 0.5
  }
}
layer {
  name: "fc7"
  type: "InnerProduct"
  bottom: "fc6"
  top: "fc7"
  param {
    lr_mult: 1
    decay_mult: 1
  }
  param {
    lr_mult: 2
    decay_mult: 0
  }
  inner_product_param {
    num_output: 4096
    weight_filler {
      type: "gaussian"
      std: 0.005
    }
    bias_filler {
      type: "constant"
      value: 0.1
    }
  }
}
layer {
  name: "relu7"
  type: "ReLU"
  bottom: "fc7"
  top: "fc7"
}
layer {
  name: "drop7"
  type: "Dropout"
  bottom: "fc7"
  top: "fc7"
  dropout_param {
    dropout_ratio: 0.5
  }
}
layer {
  name: "fc8_plantvillage"
  type: "InnerProduct"
  bottom: "fc7"
  top: "fc8_plantvillage"
  param {
    lr_mult: 1
    decay_mult: 1
  }
  param {
    lr_mult: 2
    decay_mult: 0
  }
  inner_product_param {
    num_output: 38
    weight_filler {
      type: "gaussian"
      std: 0.01
    }
    bias_filler {
      type: "constant"
      value: 0
    }
  }
}
layer {
  name: "prob"
  type: "Softmax"
  bottom: "fc8_plantvillage"
  top: "prob"
  include {
    phase: TEST
  }
}
layer {
  name: "hdf5out"
  type: "HDF5Output"
  bottom: "prob"
  bottom: "label"
  include {
    phase: TEST
  }
  hdf5_output_param {
    file_name: "hdf5_dumps/iter_4035.h5"
  }
}
layer {
  name: "loss"
  type: "SoftmaxWithLoss"
  bottom: "fc8_plantvillage"
  bottom: "label"
  top: "loss"
}
layer {
  name: "accuracy"
  type: "Accuracy"
  bottom: "fc8_plantvillage"
  bottom: "label"
  top: "accuracy"
  include {
    phase: TEST
  }
}
I0403 14:56:14.742233  8418 layer_factory.hpp:77] Creating layer data
I0403 14:56:14.742843  8418 net.cpp:91] Creating Layer data
I0403 14:56:14.742873  8418 net.cpp:399] data -> data
I0403 14:56:14.742923  8418 net.cpp:399] data -> label
I0403 14:56:14.742964  8418 data_transformer.cpp:25] Loading mean file from: /home/mohanty/data/final_dataset/lmdb/color-50-50/mean.binaryproto
I0403 14:56:14.745934  8421 db_lmdb.cpp:38] Opened lmdb /home/mohanty/data/final_dataset/lmdb/color-50-50/test_db
I0403 14:56:14.757370  8418 data_layer.cpp:41] output data size: 100,3,227,227
I0403 14:56:14.879827  8418 net.cpp:141] Setting up data
I0403 14:56:14.879935  8418 net.cpp:148] Top shape: 100 3 227 227 (15458700)
I0403 14:56:14.879963  8418 net.cpp:148] Top shape: 100 (100)
I0403 14:56:14.879981  8418 net.cpp:156] Memory required for data: 61835200
I0403 14:56:14.880009  8418 layer_factory.hpp:77] Creating layer label_data_1_split
I0403 14:56:14.880035  8418 net.cpp:91] Creating Layer label_data_1_split
I0403 14:56:14.880054  8418 net.cpp:425] label_data_1_split <- label
I0403 14:56:14.880086  8418 net.cpp:399] label_data_1_split -> label_data_1_split_0
I0403 14:56:14.880115  8418 net.cpp:399] label_data_1_split -> label_data_1_split_1
I0403 14:56:14.880136  8418 net.cpp:399] label_data_1_split -> label_data_1_split_2
I0403 14:56:14.880211  8418 net.cpp:141] Setting up label_data_1_split
I0403 14:56:14.880234  8418 net.cpp:148] Top shape: 100 (100)
I0403 14:56:14.880252  8418 net.cpp:148] Top shape: 100 (100)
I0403 14:56:14.880269  8418 net.cpp:148] Top shape: 100 (100)
I0403 14:56:14.880282  8418 net.cpp:156] Memory required for data: 61836400
I0403 14:56:14.880297  8418 layer_factory.hpp:77] Creating layer conv1
I0403 14:56:14.880329  8418 net.cpp:91] Creating Layer conv1
I0403 14:56:14.880347  8418 net.cpp:425] conv1 <- data
I0403 14:56:14.880367  8418 net.cpp:399] conv1 -> conv1
I0403 14:56:15.023643  8418 net.cpp:141] Setting up conv1
I0403 14:56:15.023728  8418 net.cpp:148] Top shape: 100 96 55 55 (29040000)
I0403 14:56:15.023746  8418 net.cpp:156] Memory required for data: 177996400
I0403 14:56:15.023777  8418 layer_factory.hpp:77] Creating layer relu1
I0403 14:56:15.023803  8418 net.cpp:91] Creating Layer relu1
I0403 14:56:15.023821  8418 net.cpp:425] relu1 <- conv1
I0403 14:56:15.023840  8418 net.cpp:386] relu1 -> conv1 (in-place)
I0403 14:56:15.024093  8418 net.cpp:141] Setting up relu1
I0403 14:56:15.024121  8418 net.cpp:148] Top shape: 100 96 55 55 (29040000)
I0403 14:56:15.024135  8418 net.cpp:156] Memory required for data: 294156400
I0403 14:56:15.024183  8418 layer_factory.hpp:77] Creating layer norm1
I0403 14:56:15.024212  8418 net.cpp:91] Creating Layer norm1
I0403 14:56:15.024231  8418 net.cpp:425] norm1 <- conv1
I0403 14:56:15.024250  8418 net.cpp:399] norm1 -> norm1
I0403 14:56:15.024544  8418 net.cpp:141] Setting up norm1
I0403 14:56:15.024572  8418 net.cpp:148] Top shape: 100 96 55 55 (29040000)
I0403 14:56:15.024587  8418 net.cpp:156] Memory required for data: 410316400
I0403 14:56:15.024602  8418 layer_factory.hpp:77] Creating layer pool1
I0403 14:56:15.024626  8418 net.cpp:91] Creating Layer pool1
I0403 14:56:15.024642  8418 net.cpp:425] pool1 <- norm1
I0403 14:56:15.024660  8418 net.cpp:399] pool1 -> pool1
I0403 14:56:15.024725  8418 net.cpp:141] Setting up pool1
I0403 14:56:15.024749  8418 net.cpp:148] Top shape: 100 96 27 27 (6998400)
I0403 14:56:15.024765  8418 net.cpp:156] Memory required for data: 438310000
I0403 14:56:15.024780  8418 layer_factory.hpp:77] Creating layer conv2
I0403 14:56:15.024804  8418 net.cpp:91] Creating Layer conv2
I0403 14:56:15.024821  8418 net.cpp:425] conv2 <- pool1
I0403 14:56:15.024838  8418 net.cpp:399] conv2 -> conv2
I0403 14:56:15.039686  8418 net.cpp:141] Setting up conv2
I0403 14:56:15.039721  8418 net.cpp:148] Top shape: 100 256 27 27 (18662400)
I0403 14:56:15.039737  8418 net.cpp:156] Memory required for data: 512959600
I0403 14:56:15.039762  8418 layer_factory.hpp:77] Creating layer relu2
I0403 14:56:15.039783  8418 net.cpp:91] Creating Layer relu2
I0403 14:56:15.039798  8418 net.cpp:425] relu2 <- conv2
I0403 14:56:15.039815  8418 net.cpp:386] relu2 -> conv2 (in-place)
I0403 14:56:15.040091  8418 net.cpp:141] Setting up relu2
I0403 14:56:15.040119  8418 net.cpp:148] Top shape: 100 256 27 27 (18662400)
I0403 14:56:15.040135  8418 net.cpp:156] Memory required for data: 587609200
I0403 14:56:15.040150  8418 layer_factory.hpp:77] Creating layer norm2
I0403 14:56:15.040170  8418 net.cpp:91] Creating Layer norm2
I0403 14:56:15.040185  8418 net.cpp:425] norm2 <- conv2
I0403 14:56:15.040207  8418 net.cpp:399] norm2 -> norm2
I0403 14:56:15.040400  8418 net.cpp:141] Setting up norm2
I0403 14:56:15.040426  8418 net.cpp:148] Top shape: 100 256 27 27 (18662400)
I0403 14:56:15.040441  8418 net.cpp:156] Memory required for data: 662258800
I0403 14:56:15.040455  8418 layer_factory.hpp:77] Creating layer pool2
I0403 14:56:15.040474  8418 net.cpp:91] Creating Layer pool2
I0403 14:56:15.040491  8418 net.cpp:425] pool2 <- norm2
I0403 14:56:15.040508  8418 net.cpp:399] pool2 -> pool2
I0403 14:56:15.040560  8418 net.cpp:141] Setting up pool2
I0403 14:56:15.040583  8418 net.cpp:148] Top shape: 100 256 13 13 (4326400)
I0403 14:56:15.040597  8418 net.cpp:156] Memory required for data: 679564400
I0403 14:56:15.040612  8418 layer_factory.hpp:77] Creating layer conv3
I0403 14:56:15.040634  8418 net.cpp:91] Creating Layer conv3
I0403 14:56:15.040652  8418 net.cpp:425] conv3 <- pool2
I0403 14:56:15.040671  8418 net.cpp:399] conv3 -> conv3
I0403 14:56:15.078394  8418 net.cpp:141] Setting up conv3
I0403 14:56:15.078449  8418 net.cpp:148] Top shape: 100 384 13 13 (6489600)
I0403 14:56:15.078464  8418 net.cpp:156] Memory required for data: 705522800
I0403 14:56:15.078487  8418 layer_factory.hpp:77] Creating layer relu3
I0403 14:56:15.078511  8418 net.cpp:91] Creating Layer relu3
I0403 14:56:15.078529  8418 net.cpp:425] relu3 <- conv3
I0403 14:56:15.078547  8418 net.cpp:386] relu3 -> conv3 (in-place)
I0403 14:56:15.078811  8418 net.cpp:141] Setting up relu3
I0403 14:56:15.078838  8418 net.cpp:148] Top shape: 100 384 13 13 (6489600)
I0403 14:56:15.078853  8418 net.cpp:156] Memory required for data: 731481200
I0403 14:56:15.078868  8418 layer_factory.hpp:77] Creating layer conv4
I0403 14:56:15.078892  8418 net.cpp:91] Creating Layer conv4
I0403 14:56:15.078910  8418 net.cpp:425] conv4 <- conv3
I0403 14:56:15.078932  8418 net.cpp:399] conv4 -> conv4
I0403 14:56:15.108472  8418 net.cpp:141] Setting up conv4
I0403 14:56:15.108516  8418 net.cpp:148] Top shape: 100 384 13 13 (6489600)
I0403 14:56:15.108562  8418 net.cpp:156] Memory required for data: 757439600
I0403 14:56:15.108583  8418 layer_factory.hpp:77] Creating layer relu4
I0403 14:56:15.108603  8418 net.cpp:91] Creating Layer relu4
I0403 14:56:15.108619  8418 net.cpp:425] relu4 <- conv4
I0403 14:56:15.108639  8418 net.cpp:386] relu4 -> conv4 (in-place)
I0403 14:56:15.108943  8418 net.cpp:141] Setting up relu4
I0403 14:56:15.108979  8418 net.cpp:148] Top shape: 100 384 13 13 (6489600)
I0403 14:56:15.108995  8418 net.cpp:156] Memory required for data: 783398000
I0403 14:56:15.109010  8418 layer_factory.hpp:77] Creating layer conv5
I0403 14:56:15.109033  8418 net.cpp:91] Creating Layer conv5
I0403 14:56:15.109051  8418 net.cpp:425] conv5 <- conv4
I0403 14:56:15.109072  8418 net.cpp:399] conv5 -> conv5
I0403 14:56:15.129369  8418 net.cpp:141] Setting up conv5
I0403 14:56:15.129405  8418 net.cpp:148] Top shape: 100 256 13 13 (4326400)
I0403 14:56:15.129421  8418 net.cpp:156] Memory required for data: 800703600
I0403 14:56:15.129447  8418 layer_factory.hpp:77] Creating layer relu5
I0403 14:56:15.129479  8418 net.cpp:91] Creating Layer relu5
I0403 14:56:15.129495  8418 net.cpp:425] relu5 <- conv5
I0403 14:56:15.129513  8418 net.cpp:386] relu5 -> conv5 (in-place)
I0403 14:56:15.129801  8418 net.cpp:141] Setting up relu5
I0403 14:56:15.129828  8418 net.cpp:148] Top shape: 100 256 13 13 (4326400)
I0403 14:56:15.129844  8418 net.cpp:156] Memory required for data: 818009200
I0403 14:56:15.129859  8418 layer_factory.hpp:77] Creating layer pool5
I0403 14:56:15.129884  8418 net.cpp:91] Creating Layer pool5
I0403 14:56:15.129901  8418 net.cpp:425] pool5 <- conv5
I0403 14:56:15.129920  8418 net.cpp:399] pool5 -> pool5
I0403 14:56:15.129987  8418 net.cpp:141] Setting up pool5
I0403 14:56:15.130012  8418 net.cpp:148] Top shape: 100 256 6 6 (921600)
I0403 14:56:15.130028  8418 net.cpp:156] Memory required for data: 821695600
I0403 14:56:15.130043  8418 layer_factory.hpp:77] Creating layer fc6
I0403 14:56:15.130072  8418 net.cpp:91] Creating Layer fc6
I0403 14:56:15.130102  8418 net.cpp:425] fc6 <- pool5
I0403 14:56:15.130120  8418 net.cpp:399] fc6 -> fc6
I0403 14:56:16.648890  8418 net.cpp:141] Setting up fc6
I0403 14:56:16.648984  8418 net.cpp:148] Top shape: 100 4096 (409600)
I0403 14:56:16.649001  8418 net.cpp:156] Memory required for data: 823334000
I0403 14:56:16.649022  8418 layer_factory.hpp:77] Creating layer relu6
I0403 14:56:16.649044  8418 net.cpp:91] Creating Layer relu6
I0403 14:56:16.649061  8418 net.cpp:425] relu6 <- fc6
I0403 14:56:16.649085  8418 net.cpp:386] relu6 -> fc6 (in-place)
I0403 14:56:16.649302  8418 net.cpp:141] Setting up relu6
I0403 14:56:16.649325  8418 net.cpp:148] Top shape: 100 4096 (409600)
I0403 14:56:16.649339  8418 net.cpp:156] Memory required for data: 824972400
I0403 14:56:16.649354  8418 layer_factory.hpp:77] Creating layer drop6
I0403 14:56:16.649375  8418 net.cpp:91] Creating Layer drop6
I0403 14:56:16.649391  8418 net.cpp:425] drop6 <- fc6
I0403 14:56:16.649407  8418 net.cpp:386] drop6 -> fc6 (in-place)
I0403 14:56:16.649464  8418 net.cpp:141] Setting up drop6
I0403 14:56:16.649487  8418 net.cpp:148] Top shape: 100 4096 (409600)
I0403 14:56:16.649502  8418 net.cpp:156] Memory required for data: 826610800
I0403 14:56:16.649515  8418 layer_factory.hpp:77] Creating layer fc7
I0403 14:56:16.649534  8418 net.cpp:91] Creating Layer fc7
I0403 14:56:16.649550  8418 net.cpp:425] fc7 <- fc6
I0403 14:56:16.649570  8418 net.cpp:399] fc7 -> fc7
I0403 14:56:17.329721  8418 net.cpp:141] Setting up fc7
I0403 14:56:17.329809  8418 net.cpp:148] Top shape: 100 4096 (409600)
I0403 14:56:17.329825  8418 net.cpp:156] Memory required for data: 828249200
I0403 14:56:17.329846  8418 layer_factory.hpp:77] Creating layer relu7
I0403 14:56:17.329870  8418 net.cpp:91] Creating Layer relu7
I0403 14:56:17.329888  8418 net.cpp:425] relu7 <- fc7
I0403 14:56:17.329908  8418 net.cpp:386] relu7 -> fc7 (in-place)
I0403 14:56:17.330307  8418 net.cpp:141] Setting up relu7
I0403 14:56:17.330332  8418 net.cpp:148] Top shape: 100 4096 (409600)
I0403 14:56:17.330379  8418 net.cpp:156] Memory required for data: 829887600
I0403 14:56:17.330395  8418 layer_factory.hpp:77] Creating layer drop7
I0403 14:56:17.330416  8418 net.cpp:91] Creating Layer drop7
I0403 14:56:17.330433  8418 net.cpp:425] drop7 <- fc7
I0403 14:56:17.330451  8418 net.cpp:386] drop7 -> fc7 (in-place)
I0403 14:56:17.330500  8418 net.cpp:141] Setting up drop7
I0403 14:56:17.330535  8418 net.cpp:148] Top shape: 100 4096 (409600)
I0403 14:56:17.330549  8418 net.cpp:156] Memory required for data: 831526000
I0403 14:56:17.330564  8418 layer_factory.hpp:77] Creating layer fc8_plantvillage
I0403 14:56:17.330582  8418 net.cpp:91] Creating Layer fc8_plantvillage
I0403 14:56:17.330597  8418 net.cpp:425] fc8_plantvillage <- fc7
I0403 14:56:17.330618  8418 net.cpp:399] fc8_plantvillage -> fc8_plantvillage
I0403 14:56:17.337158  8418 net.cpp:141] Setting up fc8_plantvillage
I0403 14:56:17.337188  8418 net.cpp:148] Top shape: 100 38 (3800)
I0403 14:56:17.337205  8418 net.cpp:156] Memory required for data: 831541200
I0403 14:56:17.337223  8418 layer_factory.hpp:77] Creating layer fc8_plantvillage_fc8_plantvillage_0_split
I0403 14:56:17.337241  8418 net.cpp:91] Creating Layer fc8_plantvillage_fc8_plantvillage_0_split
I0403 14:56:17.337257  8418 net.cpp:425] fc8_plantvillage_fc8_plantvillage_0_split <- fc8_plantvillage
I0403 14:56:17.337275  8418 net.cpp:399] fc8_plantvillage_fc8_plantvillage_0_split -> fc8_plantvillage_fc8_plantvillage_0_split_0
I0403 14:56:17.337293  8418 net.cpp:399] fc8_plantvillage_fc8_plantvillage_0_split -> fc8_plantvillage_fc8_plantvillage_0_split_1
I0403 14:56:17.337312  8418 net.cpp:399] fc8_plantvillage_fc8_plantvillage_0_split -> fc8_plantvillage_fc8_plantvillage_0_split_2
I0403 14:56:17.337388  8418 net.cpp:141] Setting up fc8_plantvillage_fc8_plantvillage_0_split
I0403 14:56:17.337410  8418 net.cpp:148] Top shape: 100 38 (3800)
I0403 14:56:17.337426  8418 net.cpp:148] Top shape: 100 38 (3800)
I0403 14:56:17.337441  8418 net.cpp:148] Top shape: 100 38 (3800)
I0403 14:56:17.337455  8418 net.cpp:156] Memory required for data: 831586800
I0403 14:56:17.337468  8418 layer_factory.hpp:77] Creating layer prob
I0403 14:56:17.337486  8418 net.cpp:91] Creating Layer prob
I0403 14:56:17.337502  8418 net.cpp:425] prob <- fc8_plantvillage_fc8_plantvillage_0_split_0
I0403 14:56:17.337518  8418 net.cpp:399] prob -> prob
I0403 14:56:17.337736  8418 net.cpp:141] Setting up prob
I0403 14:56:17.337761  8418 net.cpp:148] Top shape: 100 38 (3800)
I0403 14:56:17.337775  8418 net.cpp:156] Memory required for data: 831602000
I0403 14:56:17.337790  8418 layer_factory.hpp:77] Creating layer hdf5out
I0403 14:56:17.337810  8418 net.cpp:91] Creating Layer hdf5out
I0403 14:56:17.337827  8418 net.cpp:425] hdf5out <- prob
I0403 14:56:17.337843  8418 net.cpp:425] hdf5out <- label_data_1_split_0
I0403 14:56:17.340028  8418 net.cpp:141] Setting up hdf5out
…
