…
I0403 14:44:19.518824  7724 net.cpp:313] The NetState phase (1) differed from the phase (0) specified by a rule in layer data
I0403 14:44:19.519158  7724 net.cpp:49] Initializing net from parameters: 
state {
  phase: TEST
}
layer {
  name: "data"
  type: "Data"
  top: "data"
  top: "label"
  include {
    phase: TEST
  }
  transform_param {
    crop_size: 227
    mean_file: "/home/mohanty/data/final_dataset/lmdb/color-50-50/mean.binaryproto"
  }
  data_param {
    source: "/home/mohanty/data/final_dataset/lmdb/color-50-50/test_db"
    batch_size: 100
    backend: LMDB
  }
}
layer {
  name: "conv1"
  type: "Convolution"
  bottom: "data"
  top: "conv1"
  param {
    lr_mult: 1
    decay_mult: 1
  }
  param {
    lr_mult: 2
    decay_mult: 0
  }
  convolution_param {
    num_output: 96
    kernel_size: 11
    stride: 4
    weight_filler {
      type: "gaussian"
      std: 0.01
    }
    bias_filler {
      type: "constant"
      value: 0
    }
  }
}
layer {
  name: "relu1"
  type: "ReLU"
  bottom: "conv1"
  top: "conv1"
}
layer {
  name: "norm1"
  type: "LRN"
  bottom: "conv1"
  top: "norm1"
  lrn_param {
    local_size: 5
    alpha: 0.0001
    beta: 0.75
  }
}
layer {
  name: "pool1"
  type: "Pooling"
  bottom: "norm1"
  top: "pool1"
  pooling_param {
    pool: MAX
    kernel_size: 3
    stride: 2
  }
}
layer {
  name: "conv2"
  type: "Convolution"
  bottom: "pool1"
  top: "conv2"
  param {
    lr_mult: 1
    decay_mult: 1
  }
  param {
    lr_mult: 2
    decay_mult: 0
  }
  convolution_param {
    num_output: 256
    pad: 2
    kernel_size: 5
    group: 2
    weight_filler {
      type: "gaussian"
      std: 0.01
    }
    bias_filler {
      type: "constant"
      value: 0.1
    }
  }
}
layer {
  name: "relu2"
  type: "ReLU"
  bottom: "conv2"
  top: "conv2"
}
layer {
  name: "norm2"
  type: "LRN"
  bottom: "conv2"
  top: "norm2"
  lrn_param {
    local_size: 5
    alpha: 0.0001
    beta: 0.75
  }
}
layer {
  name: "pool2"
  type: "Pooling"
  bottom: "norm2"
  top: "pool2"
  pooling_param {
    pool: MAX
    kernel_size: 3
    stride: 2
  }
}
layer {
  name: "conv3"
  type: "Convolution"
  bottom: "pool2"
  top: "conv3"
  param {
    lr_mult: 1
    decay_mult: 1
  }
  param {
    lr_mult: 2
    decay_mult: 0
  }
  convolution_param {
    num_output: 384
    pad: 1
    kernel_size: 3
    weight_filler {
      type: "gaussian"
      std: 0.01
    }
    bias_filler {
      type: "constant"
      value: 0
    }
  }
}
layer {
  name: "relu3"
  type: "ReLU"
  bottom: "conv3"
  top: "conv3"
}
layer {
  name: "conv4"
  type: "Convolution"
  bottom: "conv3"
  top: "conv4"
  param {
    lr_mult: 1
    decay_mult: 1
  }
  param {
    lr_mult: 2
    decay_mult: 0
  }
  convolution_param {
    num_output: 384
    pad: 1
    kernel_size: 3
    group: 2
    weight_filler {
      type: "gaussian"
      std: 0.01
    }
    bias_filler {
      type: "constant"
      value: 0.1
    }
  }
}
layer {
  name: "relu4"
  type: "ReLU"
  bottom: "conv4"
  top: "conv4"
}
layer {
  name: "conv5"
  type: "Convolution"
  bottom: "conv4"
  top: "conv5"
  param {
    lr_mult: 1
    decay_mult: 1
  }
  param {
    lr_mult: 2
    decay_mult: 0
  }
  convolution_param {
    num_output: 256
    pad: 1
    kernel_size: 3
    group: 2
    weight_filler {
      type: "gaussian"
      std: 0.01
    }
    bias_filler {
      type: "constant"
      value: 0.1
    }
  }
}
layer {
  name: "relu5"
  type: "ReLU"
  bottom: "conv5"
  top: "conv5"
}
layer {
  name: "pool5"
  type: "Pooling"
  bottom: "conv5"
  top: "pool5"
  pooling_param {
    pool: MAX
    kernel_size: 3
    stride: 2
  }
}
layer {
  name: "fc6"
  type: "InnerProduct"
  bottom: "pool5"
  top: "fc6"
  param {
    lr_mult: 1
    decay_mult: 1
  }
  param {
    lr_mult: 2
    decay_mult: 0
  }
  inner_product_param {
    num_output: 4096
    weight_filler {
      type: "gaussian"
      std: 0.005
    }
    bias_filler {
      type: "constant"
      value: 0.1
    }
  }
}
layer {
  name: "relu6"
  type: "ReLU"
  bottom: "fc6"
  top: "fc6"
}
layer {
  name: "drop6"
  type: "Dropout"
  bottom: "fc6"
  top: "fc6"
  dropout_param {
    dropout_ratio: 0.5
  }
}
layer {
  name: "fc7"
  type: "InnerProduct"
  bottom: "fc6"
  top: "fc7"
  param {
    lr_mult: 1
    decay_mult: 1
  }
  param {
    lr_mult: 2
    decay_mult: 0
  }
  inner_product_param {
    num_output: 4096
    weight_filler {
      type: "gaussian"
      std: 0.005
    }
    bias_filler {
      type: "constant"
      value: 0.1
    }
  }
}
layer {
  name: "relu7"
  type: "ReLU"
  bottom: "fc7"
  top: "fc7"
}
layer {
  name: "drop7"
  type: "Dropout"
  bottom: "fc7"
  top: "fc7"
  dropout_param {
    dropout_ratio: 0.5
  }
}
layer {
  name: "fc8_plantvillage"
  type: "InnerProduct"
  bottom: "fc7"
  top: "fc8_plantvillage"
  param {
    lr_mult: 1
    decay_mult: 1
  }
  param {
    lr_mult: 2
    decay_mult: 0
  }
  inner_product_param {
    num_output: 38
    weight_filler {
      type: "gaussian"
      std: 0.01
    }
    bias_filler {
      type: "constant"
      value: 0
    }
  }
}
layer {
  name: "prob"
  type: "Softmax"
  bottom: "fc8_plantvillage"
  top: "prob"
  include {
    phase: TEST
  }
}
layer {
  name: "hdf5out"
  type: "HDF5Output"
  bottom: "prob"
  bottom: "label"
  include {
    phase: TEST
  }
  hdf5_output_param {
    file_name: "hdf5_dumps/iter_538.h5"
  }
}
layer {
  name: "loss"
  type: "SoftmaxWithLoss"
  bottom: "fc8_plantvillage"
  bottom: "label"
  top: "loss"
}
layer {
  name: "accuracy"
  type: "Accuracy"
  bottom: "fc8_plantvillage"
  bottom: "label"
  top: "accuracy"
  include {
    phase: TEST
  }
}
I0403 14:44:19.519745  7724 layer_factory.hpp:77] Creating layer data
I0403 14:44:19.520388  7724 net.cpp:91] Creating Layer data
I0403 14:44:19.520417  7724 net.cpp:399] data -> data
I0403 14:44:19.520468  7724 net.cpp:399] data -> label
I0403 14:44:19.520504  7724 data_transformer.cpp:25] Loading mean file from: /home/mohanty/data/final_dataset/lmdb/color-50-50/mean.binaryproto
I0403 14:44:19.527562  7726 db_lmdb.cpp:38] Opened lmdb /home/mohanty/data/final_dataset/lmdb/color-50-50/test_db
I0403 14:44:19.536483  7724 data_layer.cpp:41] output data size: 100,3,227,227
I0403 14:44:19.658433  7724 net.cpp:141] Setting up data
I0403 14:44:19.658543  7724 net.cpp:148] Top shape: 100 3 227 227 (15458700)
I0403 14:44:19.658568  7724 net.cpp:148] Top shape: 100 (100)
I0403 14:44:19.658584  7724 net.cpp:156] Memory required for data: 61835200
I0403 14:44:19.658614  7724 layer_factory.hpp:77] Creating layer label_data_1_split
I0403 14:44:19.658640  7724 net.cpp:91] Creating Layer label_data_1_split
I0403 14:44:19.658658  7724 net.cpp:425] label_data_1_split <- label
I0403 14:44:19.658689  7724 net.cpp:399] label_data_1_split -> label_data_1_split_0
I0403 14:44:19.658718  7724 net.cpp:399] label_data_1_split -> label_data_1_split_1
I0403 14:44:19.658738  7724 net.cpp:399] label_data_1_split -> label_data_1_split_2
I0403 14:44:19.658802  7724 net.cpp:141] Setting up label_data_1_split
I0403 14:44:19.658826  7724 net.cpp:148] Top shape: 100 (100)
I0403 14:44:19.658843  7724 net.cpp:148] Top shape: 100 (100)
I0403 14:44:19.658860  7724 net.cpp:148] Top shape: 100 (100)
I0403 14:44:19.658876  7724 net.cpp:156] Memory required for data: 61836400
I0403 14:44:19.658892  7724 layer_factory.hpp:77] Creating layer conv1
I0403 14:44:19.658926  7724 net.cpp:91] Creating Layer conv1
I0403 14:44:19.658956  7724 net.cpp:425] conv1 <- data
I0403 14:44:19.658979  7724 net.cpp:399] conv1 -> conv1
I0403 14:44:19.803009  7724 net.cpp:141] Setting up conv1
I0403 14:44:19.803095  7724 net.cpp:148] Top shape: 100 96 55 55 (29040000)
I0403 14:44:19.803113  7724 net.cpp:156] Memory required for data: 177996400
I0403 14:44:19.803176  7724 layer_factory.hpp:77] Creating layer relu1
I0403 14:44:19.803206  7724 net.cpp:91] Creating Layer relu1
I0403 14:44:19.803225  7724 net.cpp:425] relu1 <- conv1
I0403 14:44:19.803242  7724 net.cpp:386] relu1 -> conv1 (in-place)
I0403 14:44:19.803491  7724 net.cpp:141] Setting up relu1
I0403 14:44:19.803517  7724 net.cpp:148] Top shape: 100 96 55 55 (29040000)
I0403 14:44:19.803534  7724 net.cpp:156] Memory required for data: 294156400
I0403 14:44:19.803575  7724 layer_factory.hpp:77] Creating layer norm1
I0403 14:44:19.803603  7724 net.cpp:91] Creating Layer norm1
I0403 14:44:19.803620  7724 net.cpp:425] norm1 <- conv1
I0403 14:44:19.803638  7724 net.cpp:399] norm1 -> norm1
I0403 14:44:19.803936  7724 net.cpp:141] Setting up norm1
I0403 14:44:19.803968  7724 net.cpp:148] Top shape: 100 96 55 55 (29040000)
I0403 14:44:19.803984  7724 net.cpp:156] Memory required for data: 410316400
I0403 14:44:19.803999  7724 layer_factory.hpp:77] Creating layer pool1
I0403 14:44:19.804023  7724 net.cpp:91] Creating Layer pool1
I0403 14:44:19.804039  7724 net.cpp:425] pool1 <- norm1
I0403 14:44:19.804056  7724 net.cpp:399] pool1 -> pool1
I0403 14:44:19.804122  7724 net.cpp:141] Setting up pool1
I0403 14:44:19.804146  7724 net.cpp:148] Top shape: 100 96 27 27 (6998400)
I0403 14:44:19.804160  7724 net.cpp:156] Memory required for data: 438310000
I0403 14:44:19.804175  7724 layer_factory.hpp:77] Creating layer conv2
I0403 14:44:19.804199  7724 net.cpp:91] Creating Layer conv2
I0403 14:44:19.804214  7724 net.cpp:425] conv2 <- pool1
I0403 14:44:19.804232  7724 net.cpp:399] conv2 -> conv2
I0403 14:44:19.819090  7724 net.cpp:141] Setting up conv2
I0403 14:44:19.819126  7724 net.cpp:148] Top shape: 100 256 27 27 (18662400)
I0403 14:44:19.819144  7724 net.cpp:156] Memory required for data: 512959600
I0403 14:44:19.819165  7724 layer_factory.hpp:77] Creating layer relu2
I0403 14:44:19.819183  7724 net.cpp:91] Creating Layer relu2
I0403 14:44:19.819200  7724 net.cpp:425] relu2 <- conv2
I0403 14:44:19.819218  7724 net.cpp:386] relu2 -> conv2 (in-place)
I0403 14:44:19.819490  7724 net.cpp:141] Setting up relu2
I0403 14:44:19.819516  7724 net.cpp:148] Top shape: 100 256 27 27 (18662400)
I0403 14:44:19.819531  7724 net.cpp:156] Memory required for data: 587609200
I0403 14:44:19.819547  7724 layer_factory.hpp:77] Creating layer norm2
I0403 14:44:19.819569  7724 net.cpp:91] Creating Layer norm2
I0403 14:44:19.819586  7724 net.cpp:425] norm2 <- conv2
I0403 14:44:19.819603  7724 net.cpp:399] norm2 -> norm2
I0403 14:44:19.819800  7724 net.cpp:141] Setting up norm2
I0403 14:44:19.819825  7724 net.cpp:148] Top shape: 100 256 27 27 (18662400)
I0403 14:44:19.819840  7724 net.cpp:156] Memory required for data: 662258800
I0403 14:44:19.819855  7724 layer_factory.hpp:77] Creating layer pool2
I0403 14:44:19.819874  7724 net.cpp:91] Creating Layer pool2
I0403 14:44:19.819888  7724 net.cpp:425] pool2 <- norm2
I0403 14:44:19.819907  7724 net.cpp:399] pool2 -> pool2
I0403 14:44:19.819963  7724 net.cpp:141] Setting up pool2
I0403 14:44:19.819986  7724 net.cpp:148] Top shape: 100 256 13 13 (4326400)
I0403 14:44:19.820001  7724 net.cpp:156] Memory required for data: 679564400
I0403 14:44:19.820015  7724 layer_factory.hpp:77] Creating layer conv3
I0403 14:44:19.820039  7724 net.cpp:91] Creating Layer conv3
I0403 14:44:19.820056  7724 net.cpp:425] conv3 <- pool2
I0403 14:44:19.820075  7724 net.cpp:399] conv3 -> conv3
I0403 14:44:19.857893  7724 net.cpp:141] Setting up conv3
I0403 14:44:19.857955  7724 net.cpp:148] Top shape: 100 384 13 13 (6489600)
I0403 14:44:19.857974  7724 net.cpp:156] Memory required for data: 705522800
I0403 14:44:19.857996  7724 layer_factory.hpp:77] Creating layer relu3
I0403 14:44:19.858016  7724 net.cpp:91] Creating Layer relu3
I0403 14:44:19.858032  7724 net.cpp:425] relu3 <- conv3
I0403 14:44:19.858052  7724 net.cpp:386] relu3 -> conv3 (in-place)
I0403 14:44:19.858315  7724 net.cpp:141] Setting up relu3
I0403 14:44:19.858341  7724 net.cpp:148] Top shape: 100 384 13 13 (6489600)
I0403 14:44:19.858355  7724 net.cpp:156] Memory required for data: 731481200
I0403 14:44:19.858371  7724 layer_factory.hpp:77] Creating layer conv4
I0403 14:44:19.858395  7724 net.cpp:91] Creating Layer conv4
I0403 14:44:19.858412  7724 net.cpp:425] conv4 <- conv3
I0403 14:44:19.858433  7724 net.cpp:399] conv4 -> conv4
I0403 14:44:19.887167  7724 net.cpp:141] Setting up conv4
I0403 14:44:19.887212  7724 net.cpp:148] Top shape: 100 384 13 13 (6489600)
I0403 14:44:19.887258  7724 net.cpp:156] Memory required for data: 757439600
I0403 14:44:19.887277  7724 layer_factory.hpp:77] Creating layer relu4
I0403 14:44:19.887297  7724 net.cpp:91] Creating Layer relu4
I0403 14:44:19.887315  7724 net.cpp:425] relu4 <- conv4
I0403 14:44:19.887334  7724 net.cpp:386] relu4 -> conv4 (in-place)
I0403 14:44:19.887599  7724 net.cpp:141] Setting up relu4
I0403 14:44:19.887629  7724 net.cpp:148] Top shape: 100 384 13 13 (6489600)
I0403 14:44:19.887646  7724 net.cpp:156] Memory required for data: 783398000
I0403 14:44:19.887661  7724 layer_factory.hpp:77] Creating layer conv5
I0403 14:44:19.887686  7724 net.cpp:91] Creating Layer conv5
I0403 14:44:19.887702  7724 net.cpp:425] conv5 <- conv4
I0403 14:44:19.887720  7724 net.cpp:399] conv5 -> conv5
I0403 14:44:19.907472  7724 net.cpp:141] Setting up conv5
I0403 14:44:19.907508  7724 net.cpp:148] Top shape: 100 256 13 13 (4326400)
I0403 14:44:19.907523  7724 net.cpp:156] Memory required for data: 800703600
I0403 14:44:19.907546  7724 layer_factory.hpp:77] Creating layer relu5
I0403 14:44:19.907565  7724 net.cpp:91] Creating Layer relu5
I0403 14:44:19.907582  7724 net.cpp:425] relu5 <- conv5
I0403 14:44:19.907603  7724 net.cpp:386] relu5 -> conv5 (in-place)
I0403 14:44:19.907873  7724 net.cpp:141] Setting up relu5
I0403 14:44:19.907901  7724 net.cpp:148] Top shape: 100 256 13 13 (4326400)
I0403 14:44:19.907927  7724 net.cpp:156] Memory required for data: 818009200
I0403 14:44:19.907943  7724 layer_factory.hpp:77] Creating layer pool5
I0403 14:44:19.907980  7724 net.cpp:91] Creating Layer pool5
I0403 14:44:19.908000  7724 net.cpp:425] pool5 <- conv5
I0403 14:44:19.908018  7724 net.cpp:399] pool5 -> pool5
I0403 14:44:19.908080  7724 net.cpp:141] Setting up pool5
I0403 14:44:19.908103  7724 net.cpp:148] Top shape: 100 256 6 6 (921600)
I0403 14:44:19.908119  7724 net.cpp:156] Memory required for data: 821695600
I0403 14:44:19.908133  7724 layer_factory.hpp:77] Creating layer fc6
I0403 14:44:19.908160  7724 net.cpp:91] Creating Layer fc6
I0403 14:44:19.908179  7724 net.cpp:425] fc6 <- pool5
I0403 14:44:19.908200  7724 net.cpp:399] fc6 -> fc6
I0403 14:44:21.419158  7724 net.cpp:141] Setting up fc6
I0403 14:44:21.419250  7724 net.cpp:148] Top shape: 100 4096 (409600)
I0403 14:44:21.419265  7724 net.cpp:156] Memory required for data: 823334000
I0403 14:44:21.419286  7724 layer_factory.hpp:77] Creating layer relu6
I0403 14:44:21.419311  7724 net.cpp:91] Creating Layer relu6
I0403 14:44:21.419328  7724 net.cpp:425] relu6 <- fc6
I0403 14:44:21.419347  7724 net.cpp:386] relu6 -> fc6 (in-place)
I0403 14:44:21.419556  7724 net.cpp:141] Setting up relu6
I0403 14:44:21.419579  7724 net.cpp:148] Top shape: 100 4096 (409600)
I0403 14:44:21.419595  7724 net.cpp:156] Memory required for data: 824972400
I0403 14:44:21.419608  7724 layer_factory.hpp:77] Creating layer drop6
I0403 14:44:21.419627  7724 net.cpp:91] Creating Layer drop6
I0403 14:44:21.419641  7724 net.cpp:425] drop6 <- fc6
I0403 14:44:21.419661  7724 net.cpp:386] drop6 -> fc6 (in-place)
I0403 14:44:21.419711  7724 net.cpp:141] Setting up drop6
I0403 14:44:21.419736  7724 net.cpp:148] Top shape: 100 4096 (409600)
I0403 14:44:21.419751  7724 net.cpp:156] Memory required for data: 826610800
I0403 14:44:21.419766  7724 layer_factory.hpp:77] Creating layer fc7
I0403 14:44:21.419785  7724 net.cpp:91] Creating Layer fc7
I0403 14:44:21.419800  7724 net.cpp:425] fc7 <- fc6
I0403 14:44:21.419818  7724 net.cpp:399] fc7 -> fc7
I0403 14:44:22.085525  7724 net.cpp:141] Setting up fc7
I0403 14:44:22.085613  7724 net.cpp:148] Top shape: 100 4096 (409600)
I0403 14:44:22.085629  7724 net.cpp:156] Memory required for data: 828249200
I0403 14:44:22.085650  7724 layer_factory.hpp:77] Creating layer relu7
I0403 14:44:22.085672  7724 net.cpp:91] Creating Layer relu7
I0403 14:44:22.085690  7724 net.cpp:425] relu7 <- fc7
I0403 14:44:22.085711  7724 net.cpp:386] relu7 -> fc7 (in-place)
I0403 14:44:22.086097  7724 net.cpp:141] Setting up relu7
I0403 14:44:22.086122  7724 net.cpp:148] Top shape: 100 4096 (409600)
I0403 14:44:22.086169  7724 net.cpp:156] Memory required for data: 829887600
I0403 14:44:22.086184  7724 layer_factory.hpp:77] Creating layer drop7
I0403 14:44:22.086201  7724 net.cpp:91] Creating Layer drop7
I0403 14:44:22.086217  7724 net.cpp:425] drop7 <- fc7
I0403 14:44:22.086236  7724 net.cpp:386] drop7 -> fc7 (in-place)
I0403 14:44:22.086278  7724 net.cpp:141] Setting up drop7
I0403 14:44:22.086299  7724 net.cpp:148] Top shape: 100 4096 (409600)
I0403 14:44:22.086313  7724 net.cpp:156] Memory required for data: 831526000
I0403 14:44:22.086326  7724 layer_factory.hpp:77] Creating layer fc8_plantvillage
I0403 14:44:22.086349  7724 net.cpp:91] Creating Layer fc8_plantvillage
I0403 14:44:22.086364  7724 net.cpp:425] fc8_plantvillage <- fc7
I0403 14:44:22.086383  7724 net.cpp:399] fc8_plantvillage -> fc8_plantvillage
I0403 14:44:22.092944  7724 net.cpp:141] Setting up fc8_plantvillage
I0403 14:44:22.092974  7724 net.cpp:148] Top shape: 100 38 (3800)
I0403 14:44:22.092989  7724 net.cpp:156] Memory required for data: 831541200
I0403 14:44:22.093006  7724 layer_factory.hpp:77] Creating layer fc8_plantvillage_fc8_plantvillage_0_split
I0403 14:44:22.093025  7724 net.cpp:91] Creating Layer fc8_plantvillage_fc8_plantvillage_0_split
I0403 14:44:22.093040  7724 net.cpp:425] fc8_plantvillage_fc8_plantvillage_0_split <- fc8_plantvillage
I0403 14:44:22.093060  7724 net.cpp:399] fc8_plantvillage_fc8_plantvillage_0_split -> fc8_plantvillage_fc8_plantvillage_0_split_0
I0403 14:44:22.093080  7724 net.cpp:399] fc8_plantvillage_fc8_plantvillage_0_split -> fc8_plantvillage_fc8_plantvillage_0_split_1
I0403 14:44:22.093099  7724 net.cpp:399] fc8_plantvillage_fc8_plantvillage_0_split -> fc8_plantvillage_fc8_plantvillage_0_split_2
I0403 14:44:22.093174  7724 net.cpp:141] Setting up fc8_plantvillage_fc8_plantvillage_0_split
I0403 14:44:22.093197  7724 net.cpp:148] Top shape: 100 38 (3800)
I0403 14:44:22.093212  7724 net.cpp:148] Top shape: 100 38 (3800)
I0403 14:44:22.093228  7724 net.cpp:148] Top shape: 100 38 (3800)
I0403 14:44:22.093241  7724 net.cpp:156] Memory required for data: 831586800
I0403 14:44:22.093255  7724 layer_factory.hpp:77] Creating layer prob
I0403 14:44:22.093273  7724 net.cpp:91] Creating Layer prob
I0403 14:44:22.093288  7724 net.cpp:425] prob <- fc8_plantvillage_fc8_plantvillage_0_split_0
I0403 14:44:22.093307  7724 net.cpp:399] prob -> prob
I0403 14:44:22.093521  7724 net.cpp:141] Setting up prob
I0403 14:44:22.093549  7724 net.cpp:148] Top shape: 100 38 (3800)
I0403 14:44:22.093565  7724 net.cpp:156] Memory required for data: 831602000
I0403 14:44:22.093580  7724 layer_factory.hpp:77] Creating layer hdf5out
I0403 14:44:22.093598  7724 net.cpp:91] Creating Layer hdf5out
I0403 14:44:22.093613  7724 net.cpp:425] hdf5out <- prob
I0403 14:44:22.093628  7724 net.cpp:425] hdf5out <- label_data_1_split_0
I0403 14:44:22.363260  7724 net.cpp:141] Setting up hdf5out
…
