…
I0403 14:57:09.724617  8463 net.cpp:313] The NetState phase (1) differed from the phase (0) specified by a rule in layer data
I0403 14:57:09.724920  8463 net.cpp:49] Initializing net from parameters: 
state {
  phase: TEST
}
layer {
  name: "data"
  type: "Data"
  top: "data"
  top: "label"
  include {
    phase: TEST
  }
  transform_param {
    crop_size: 227
    mean_file: "/home/mohanty/data/final_dataset/lmdb/color-50-50/mean.binaryproto"
  }
  data_param {
    source: "/home/mohanty/data/final_dataset/lmdb/color-50-50/test_db"
    batch_size: 100
    backend: LMDB
  }
}
layer {
  name: "conv1"
  type: "Convolution"
  bottom: "data"
  top: "conv1"
  param {
    lr_mult: 1
    decay_mult: 1
  }
  param {
    lr_mult: 2
    decay_mult: 0
  }
  convolution_param {
    num_output: 96
    kernel_size: 11
    stride: 4
    weight_filler {
      type: "gaussian"
      std: 0.01
    }
    bias_filler {
      type: "constant"
      value: 0
    }
  }
}
layer {
  name: "relu1"
  type: "ReLU"
  bottom: "conv1"
  top: "conv1"
}
layer {
  name: "norm1"
  type: "LRN"
  bottom: "conv1"
  top: "norm1"
  lrn_param {
    local_size: 5
    alpha: 0.0001
    beta: 0.75
  }
}
layer {
  name: "pool1"
  type: "Pooling"
  bottom: "norm1"
  top: "pool1"
  pooling_param {
    pool: MAX
    kernel_size: 3
    stride: 2
  }
}
layer {
  name: "conv2"
  type: "Convolution"
  bottom: "pool1"
  top: "conv2"
  param {
    lr_mult: 1
    decay_mult: 1
  }
  param {
    lr_mult: 2
    decay_mult: 0
  }
  convolution_param {
    num_output: 256
    pad: 2
    kernel_size: 5
    group: 2
    weight_filler {
      type: "gaussian"
      std: 0.01
    }
    bias_filler {
      type: "constant"
      value: 0.1
    }
  }
}
layer {
  name: "relu2"
  type: "ReLU"
  bottom: "conv2"
  top: "conv2"
}
layer {
  name: "norm2"
  type: "LRN"
  bottom: "conv2"
  top: "norm2"
  lrn_param {
    local_size: 5
    alpha: 0.0001
    beta: 0.75
  }
}
layer {
  name: "pool2"
  type: "Pooling"
  bottom: "norm2"
  top: "pool2"
  pooling_param {
    pool: MAX
    kernel_size: 3
    stride: 2
  }
}
layer {
  name: "conv3"
  type: "Convolution"
  bottom: "pool2"
  top: "conv3"
  param {
    lr_mult: 1
    decay_mult: 1
  }
  param {
    lr_mult: 2
    decay_mult: 0
  }
  convolution_param {
    num_output: 384
    pad: 1
    kernel_size: 3
    weight_filler {
      type: "gaussian"
      std: 0.01
    }
    bias_filler {
      type: "constant"
      value: 0
    }
  }
}
layer {
  name: "relu3"
  type: "ReLU"
  bottom: "conv3"
  top: "conv3"
}
layer {
  name: "conv4"
  type: "Convolution"
  bottom: "conv3"
  top: "conv4"
  param {
    lr_mult: 1
    decay_mult: 1
  }
  param {
    lr_mult: 2
    decay_mult: 0
  }
  convolution_param {
    num_output: 384
    pad: 1
    kernel_size: 3
    group: 2
    weight_filler {
      type: "gaussian"
      std: 0.01
    }
    bias_filler {
      type: "constant"
      value: 0.1
    }
  }
}
layer {
  name: "relu4"
  type: "ReLU"
  bottom: "conv4"
  top: "conv4"
}
layer {
  name: "conv5"
  type: "Convolution"
  bottom: "conv4"
  top: "conv5"
  param {
    lr_mult: 1
    decay_mult: 1
  }
  param {
    lr_mult: 2
    decay_mult: 0
  }
  convolution_param {
    num_output: 256
    pad: 1
    kernel_size: 3
    group: 2
    weight_filler {
      type: "gaussian"
      std: 0.01
    }
    bias_filler {
      type: "constant"
      value: 0.1
    }
  }
}
layer {
  name: "relu5"
  type: "ReLU"
  bottom: "conv5"
  top: "conv5"
}
layer {
  name: "pool5"
  type: "Pooling"
  bottom: "conv5"
  top: "pool5"
  pooling_param {
    pool: MAX
    kernel_size: 3
    stride: 2
  }
}
layer {
  name: "fc6"
  type: "InnerProduct"
  bottom: "pool5"
  top: "fc6"
  param {
    lr_mult: 1
    decay_mult: 1
  }
  param {
    lr_mult: 2
    decay_mult: 0
  }
  inner_product_param {
    num_output: 4096
    weight_filler {
      type: "gaussian"
      std: 0.005
    }
    bias_filler {
      type: "constant"
      value: 0.1
    }
  }
}
layer {
  name: "relu6"
  type: "ReLU"
  bottom: "fc6"
  top: "fc6"
}
layer {
  name: "drop6"
  type: "Dropout"
  bottom: "fc6"
  top: "fc6"
  dropout_param {
    dropout_ratio: 0.5
  }
}
layer {
  name: "fc7"
  type: "InnerProduct"
  bottom: "fc6"
  top: "fc7"
  param {
    lr_mult: 1
    decay_mult: 1
  }
  param {
    lr_mult: 2
    decay_mult: 0
  }
  inner_product_param {
    num_output: 4096
    weight_filler {
      type: "gaussian"
      std: 0.005
    }
    bias_filler {
      type: "constant"
      value: 0.1
    }
  }
}
layer {
  name: "relu7"
  type: "ReLU"
  bottom: "fc7"
  top: "fc7"
}
layer {
  name: "drop7"
  type: "Dropout"
  bottom: "fc7"
  top: "fc7"
  dropout_param {
    dropout_ratio: 0.5
  }
}
layer {
  name: "fc8_plantvillage"
  type: "InnerProduct"
  bottom: "fc7"
  top: "fc8_plantvillage"
  param {
    lr_mult: 1
    decay_mult: 1
  }
  param {
    lr_mult: 2
    decay_mult: 0
  }
  inner_product_param {
    num_output: 38
    weight_filler {
      type: "gaussian"
      std: 0.01
    }
    bias_filler {
      type: "constant"
      value: 0
    }
  }
}
layer {
  name: "prob"
  type: "Softmax"
  bottom: "fc8_plantvillage"
  top: "prob"
  include {
    phase: TEST
  }
}
layer {
  name: "hdf5out"
  type: "HDF5Output"
  bottom: "prob"
  bottom: "label"
  include {
    phase: TEST
  }
  hdf5_output_param {
    file_name: "hdf5_dumps/iter_4304.h5"
  }
}
layer {
  name: "loss"
  type: "SoftmaxWithLoss"
  bottom: "fc8_plantvillage"
  bottom: "label"
  top: "loss"
}
layer {
  name: "accuracy"
  type: "Accuracy"
  bottom: "fc8_plantvillage"
  bottom: "label"
  top: "accuracy"
  include {
    phase: TEST
  }
}
I0403 14:57:09.725466  8463 layer_factory.hpp:77] Creating layer data
I0403 14:57:09.726094  8463 net.cpp:91] Creating Layer data
I0403 14:57:09.726125  8463 net.cpp:399] data -> data
I0403 14:57:09.726173  8463 net.cpp:399] data -> label
I0403 14:57:09.726212  8463 data_transformer.cpp:25] Loading mean file from: /home/mohanty/data/final_dataset/lmdb/color-50-50/mean.binaryproto
I0403 14:57:09.728659  8467 db_lmdb.cpp:38] Opened lmdb /home/mohanty/data/final_dataset/lmdb/color-50-50/test_db
I0403 14:57:09.740808  8463 data_layer.cpp:41] output data size: 100,3,227,227
I0403 14:57:09.860546  8463 net.cpp:141] Setting up data
I0403 14:57:09.860656  8463 net.cpp:148] Top shape: 100 3 227 227 (15458700)
I0403 14:57:09.860677  8463 net.cpp:148] Top shape: 100 (100)
I0403 14:57:09.860692  8463 net.cpp:156] Memory required for data: 61835200
I0403 14:57:09.860720  8463 layer_factory.hpp:77] Creating layer label_data_1_split
I0403 14:57:09.860746  8463 net.cpp:91] Creating Layer label_data_1_split
I0403 14:57:09.860764  8463 net.cpp:425] label_data_1_split <- label
I0403 14:57:09.860793  8463 net.cpp:399] label_data_1_split -> label_data_1_split_0
I0403 14:57:09.860821  8463 net.cpp:399] label_data_1_split -> label_data_1_split_1
I0403 14:57:09.860841  8463 net.cpp:399] label_data_1_split -> label_data_1_split_2
I0403 14:57:09.860918  8463 net.cpp:141] Setting up label_data_1_split
I0403 14:57:09.860944  8463 net.cpp:148] Top shape: 100 (100)
I0403 14:57:09.860961  8463 net.cpp:148] Top shape: 100 (100)
I0403 14:57:09.860982  8463 net.cpp:148] Top shape: 100 (100)
I0403 14:57:09.860997  8463 net.cpp:156] Memory required for data: 61836400
I0403 14:57:09.861013  8463 layer_factory.hpp:77] Creating layer conv1
I0403 14:57:09.861045  8463 net.cpp:91] Creating Layer conv1
I0403 14:57:09.861064  8463 net.cpp:425] conv1 <- data
I0403 14:57:09.861084  8463 net.cpp:399] conv1 -> conv1
I0403 14:57:10.004813  8463 net.cpp:141] Setting up conv1
I0403 14:57:10.004900  8463 net.cpp:148] Top shape: 100 96 55 55 (29040000)
I0403 14:57:10.004919  8463 net.cpp:156] Memory required for data: 177996400
I0403 14:57:10.004950  8463 layer_factory.hpp:77] Creating layer relu1
I0403 14:57:10.004981  8463 net.cpp:91] Creating Layer relu1
I0403 14:57:10.005000  8463 net.cpp:425] relu1 <- conv1
I0403 14:57:10.005019  8463 net.cpp:386] relu1 -> conv1 (in-place)
I0403 14:57:10.005276  8463 net.cpp:141] Setting up relu1
I0403 14:57:10.005305  8463 net.cpp:148] Top shape: 100 96 55 55 (29040000)
I0403 14:57:10.005319  8463 net.cpp:156] Memory required for data: 294156400
I0403 14:57:10.005400  8463 layer_factory.hpp:77] Creating layer norm1
I0403 14:57:10.005431  8463 net.cpp:91] Creating Layer norm1
I0403 14:57:10.005450  8463 net.cpp:425] norm1 <- conv1
I0403 14:57:10.005468  8463 net.cpp:399] norm1 -> norm1
I0403 14:57:10.005779  8463 net.cpp:141] Setting up norm1
I0403 14:57:10.005807  8463 net.cpp:148] Top shape: 100 96 55 55 (29040000)
I0403 14:57:10.005825  8463 net.cpp:156] Memory required for data: 410316400
I0403 14:57:10.005841  8463 layer_factory.hpp:77] Creating layer pool1
I0403 14:57:10.005863  8463 net.cpp:91] Creating Layer pool1
I0403 14:57:10.005880  8463 net.cpp:425] pool1 <- norm1
I0403 14:57:10.005898  8463 net.cpp:399] pool1 -> pool1
I0403 14:57:10.005964  8463 net.cpp:141] Setting up pool1
I0403 14:57:10.005993  8463 net.cpp:148] Top shape: 100 96 27 27 (6998400)
I0403 14:57:10.006011  8463 net.cpp:156] Memory required for data: 438310000
I0403 14:57:10.006026  8463 layer_factory.hpp:77] Creating layer conv2
I0403 14:57:10.006050  8463 net.cpp:91] Creating Layer conv2
I0403 14:57:10.006067  8463 net.cpp:425] conv2 <- pool1
I0403 14:57:10.006085  8463 net.cpp:399] conv2 -> conv2
I0403 14:57:10.021327  8463 net.cpp:141] Setting up conv2
I0403 14:57:10.021368  8463 net.cpp:148] Top shape: 100 256 27 27 (18662400)
I0403 14:57:10.021385  8463 net.cpp:156] Memory required for data: 512959600
I0403 14:57:10.021409  8463 layer_factory.hpp:77] Creating layer relu2
I0403 14:57:10.021428  8463 net.cpp:91] Creating Layer relu2
I0403 14:57:10.021445  8463 net.cpp:425] relu2 <- conv2
I0403 14:57:10.021462  8463 net.cpp:386] relu2 -> conv2 (in-place)
I0403 14:57:10.021744  8463 net.cpp:141] Setting up relu2
I0403 14:57:10.021772  8463 net.cpp:148] Top shape: 100 256 27 27 (18662400)
I0403 14:57:10.021787  8463 net.cpp:156] Memory required for data: 587609200
I0403 14:57:10.021803  8463 layer_factory.hpp:77] Creating layer norm2
I0403 14:57:10.021824  8463 net.cpp:91] Creating Layer norm2
I0403 14:57:10.021841  8463 net.cpp:425] norm2 <- conv2
I0403 14:57:10.021860  8463 net.cpp:399] norm2 -> norm2
I0403 14:57:10.022063  8463 net.cpp:141] Setting up norm2
I0403 14:57:10.022094  8463 net.cpp:148] Top shape: 100 256 27 27 (18662400)
I0403 14:57:10.022109  8463 net.cpp:156] Memory required for data: 662258800
I0403 14:57:10.022125  8463 layer_factory.hpp:77] Creating layer pool2
I0403 14:57:10.022142  8463 net.cpp:91] Creating Layer pool2
I0403 14:57:10.022157  8463 net.cpp:425] pool2 <- norm2
I0403 14:57:10.022176  8463 net.cpp:399] pool2 -> pool2
I0403 14:57:10.022228  8463 net.cpp:141] Setting up pool2
I0403 14:57:10.022253  8463 net.cpp:148] Top shape: 100 256 13 13 (4326400)
I0403 14:57:10.022267  8463 net.cpp:156] Memory required for data: 679564400
I0403 14:57:10.022282  8463 layer_factory.hpp:77] Creating layer conv3
I0403 14:57:10.022305  8463 net.cpp:91] Creating Layer conv3
I0403 14:57:10.022322  8463 net.cpp:425] conv3 <- pool2
I0403 14:57:10.022344  8463 net.cpp:399] conv3 -> conv3
I0403 14:57:10.062572  8463 net.cpp:141] Setting up conv3
I0403 14:57:10.062629  8463 net.cpp:148] Top shape: 100 384 13 13 (6489600)
I0403 14:57:10.062645  8463 net.cpp:156] Memory required for data: 705522800
I0403 14:57:10.062669  8463 layer_factory.hpp:77] Creating layer relu3
I0403 14:57:10.062691  8463 net.cpp:91] Creating Layer relu3
I0403 14:57:10.062710  8463 net.cpp:425] relu3 <- conv3
I0403 14:57:10.062726  8463 net.cpp:386] relu3 -> conv3 (in-place)
I0403 14:57:10.063011  8463 net.cpp:141] Setting up relu3
I0403 14:57:10.063040  8463 net.cpp:148] Top shape: 100 384 13 13 (6489600)
I0403 14:57:10.063057  8463 net.cpp:156] Memory required for data: 731481200
I0403 14:57:10.063072  8463 layer_factory.hpp:77] Creating layer conv4
I0403 14:57:10.063097  8463 net.cpp:91] Creating Layer conv4
I0403 14:57:10.063115  8463 net.cpp:425] conv4 <- conv3
I0403 14:57:10.063134  8463 net.cpp:399] conv4 -> conv4
I0403 14:57:10.093469  8463 net.cpp:141] Setting up conv4
I0403 14:57:10.093514  8463 net.cpp:148] Top shape: 100 384 13 13 (6489600)
I0403 14:57:10.093560  8463 net.cpp:156] Memory required for data: 757439600
I0403 14:57:10.093581  8463 layer_factory.hpp:77] Creating layer relu4
I0403 14:57:10.093605  8463 net.cpp:91] Creating Layer relu4
I0403 14:57:10.093622  8463 net.cpp:425] relu4 <- conv4
I0403 14:57:10.093641  8463 net.cpp:386] relu4 -> conv4 (in-place)
I0403 14:57:10.093920  8463 net.cpp:141] Setting up relu4
I0403 14:57:10.093947  8463 net.cpp:148] Top shape: 100 384 13 13 (6489600)
I0403 14:57:10.093963  8463 net.cpp:156] Memory required for data: 783398000
I0403 14:57:10.093983  8463 layer_factory.hpp:77] Creating layer conv5
I0403 14:57:10.094009  8463 net.cpp:91] Creating Layer conv5
I0403 14:57:10.094027  8463 net.cpp:425] conv5 <- conv4
I0403 14:57:10.094049  8463 net.cpp:399] conv5 -> conv5
I0403 14:57:10.114881  8463 net.cpp:141] Setting up conv5
I0403 14:57:10.114917  8463 net.cpp:148] Top shape: 100 256 13 13 (4326400)
I0403 14:57:10.114934  8463 net.cpp:156] Memory required for data: 800703600
I0403 14:57:10.114960  8463 layer_factory.hpp:77] Creating layer relu5
I0403 14:57:10.114985  8463 net.cpp:91] Creating Layer relu5
I0403 14:57:10.115003  8463 net.cpp:425] relu5 <- conv5
I0403 14:57:10.115021  8463 net.cpp:386] relu5 -> conv5 (in-place)
I0403 14:57:10.115303  8463 net.cpp:141] Setting up relu5
I0403 14:57:10.115334  8463 net.cpp:148] Top shape: 100 256 13 13 (4326400)
I0403 14:57:10.115350  8463 net.cpp:156] Memory required for data: 818009200
I0403 14:57:10.115365  8463 layer_factory.hpp:77] Creating layer pool5
I0403 14:57:10.115387  8463 net.cpp:91] Creating Layer pool5
I0403 14:57:10.115404  8463 net.cpp:425] pool5 <- conv5
I0403 14:57:10.115425  8463 net.cpp:399] pool5 -> pool5
I0403 14:57:10.115485  8463 net.cpp:141] Setting up pool5
I0403 14:57:10.115509  8463 net.cpp:148] Top shape: 100 256 6 6 (921600)
I0403 14:57:10.115525  8463 net.cpp:156] Memory required for data: 821695600
I0403 14:57:10.115540  8463 layer_factory.hpp:77] Creating layer fc6
I0403 14:57:10.115568  8463 net.cpp:91] Creating Layer fc6
I0403 14:57:10.115587  8463 net.cpp:425] fc6 <- pool5
I0403 14:57:10.115609  8463 net.cpp:399] fc6 -> fc6
I0403 14:57:11.641269  8463 net.cpp:141] Setting up fc6
I0403 14:57:11.641358  8463 net.cpp:148] Top shape: 100 4096 (409600)
I0403 14:57:11.641374  8463 net.cpp:156] Memory required for data: 823334000
I0403 14:57:11.641396  8463 layer_factory.hpp:77] Creating layer relu6
I0403 14:57:11.641420  8463 net.cpp:91] Creating Layer relu6
I0403 14:57:11.641438  8463 net.cpp:425] relu6 <- fc6
I0403 14:57:11.641456  8463 net.cpp:386] relu6 -> fc6 (in-place)
I0403 14:57:11.641664  8463 net.cpp:141] Setting up relu6
I0403 14:57:11.641691  8463 net.cpp:148] Top shape: 100 4096 (409600)
I0403 14:57:11.641706  8463 net.cpp:156] Memory required for data: 824972400
I0403 14:57:11.641721  8463 layer_factory.hpp:77] Creating layer drop6
I0403 14:57:11.641739  8463 net.cpp:91] Creating Layer drop6
I0403 14:57:11.641753  8463 net.cpp:425] drop6 <- fc6
I0403 14:57:11.641770  8463 net.cpp:386] drop6 -> fc6 (in-place)
I0403 14:57:11.641824  8463 net.cpp:141] Setting up drop6
I0403 14:57:11.641845  8463 net.cpp:148] Top shape: 100 4096 (409600)
I0403 14:57:11.641858  8463 net.cpp:156] Memory required for data: 826610800
I0403 14:57:11.641873  8463 layer_factory.hpp:77] Creating layer fc7
I0403 14:57:11.641896  8463 net.cpp:91] Creating Layer fc7
I0403 14:57:11.641911  8463 net.cpp:425] fc7 <- fc6
I0403 14:57:11.641939  8463 net.cpp:399] fc7 -> fc7
I0403 14:57:12.336683  8463 net.cpp:141] Setting up fc7
I0403 14:57:12.336767  8463 net.cpp:148] Top shape: 100 4096 (409600)
I0403 14:57:12.336783  8463 net.cpp:156] Memory required for data: 828249200
I0403 14:57:12.336804  8463 layer_factory.hpp:77] Creating layer relu7
I0403 14:57:12.336830  8463 net.cpp:91] Creating Layer relu7
I0403 14:57:12.336849  8463 net.cpp:425] relu7 <- fc7
I0403 14:57:12.336869  8463 net.cpp:386] relu7 -> fc7 (in-place)
I0403 14:57:12.337266  8463 net.cpp:141] Setting up relu7
I0403 14:57:12.337292  8463 net.cpp:148] Top shape: 100 4096 (409600)
I0403 14:57:12.337337  8463 net.cpp:156] Memory required for data: 829887600
I0403 14:57:12.337353  8463 layer_factory.hpp:77] Creating layer drop7
I0403 14:57:12.337375  8463 net.cpp:91] Creating Layer drop7
I0403 14:57:12.337391  8463 net.cpp:425] drop7 <- fc7
I0403 14:57:12.337409  8463 net.cpp:386] drop7 -> fc7 (in-place)
I0403 14:57:12.337453  8463 net.cpp:141] Setting up drop7
I0403 14:57:12.337476  8463 net.cpp:148] Top shape: 100 4096 (409600)
I0403 14:57:12.337489  8463 net.cpp:156] Memory required for data: 831526000
I0403 14:57:12.337504  8463 layer_factory.hpp:77] Creating layer fc8_plantvillage
I0403 14:57:12.337527  8463 net.cpp:91] Creating Layer fc8_plantvillage
I0403 14:57:12.337543  8463 net.cpp:425] fc8_plantvillage <- fc7
I0403 14:57:12.337560  8463 net.cpp:399] fc8_plantvillage -> fc8_plantvillage
I0403 14:57:12.344286  8463 net.cpp:141] Setting up fc8_plantvillage
I0403 14:57:12.344316  8463 net.cpp:148] Top shape: 100 38 (3800)
I0403 14:57:12.344331  8463 net.cpp:156] Memory required for data: 831541200
I0403 14:57:12.344350  8463 layer_factory.hpp:77] Creating layer fc8_plantvillage_fc8_plantvillage_0_split
I0403 14:57:12.344368  8463 net.cpp:91] Creating Layer fc8_plantvillage_fc8_plantvillage_0_split
I0403 14:57:12.344384  8463 net.cpp:425] fc8_plantvillage_fc8_plantvillage_0_split <- fc8_plantvillage
I0403 14:57:12.344413  8463 net.cpp:399] fc8_plantvillage_fc8_plantvillage_0_split -> fc8_plantvillage_fc8_plantvillage_0_split_0
I0403 14:57:12.344434  8463 net.cpp:399] fc8_plantvillage_fc8_plantvillage_0_split -> fc8_plantvillage_fc8_plantvillage_0_split_1
I0403 14:57:12.344455  8463 net.cpp:399] fc8_plantvillage_fc8_plantvillage_0_split -> fc8_plantvillage_fc8_plantvillage_0_split_2
I0403 14:57:12.344530  8463 net.cpp:141] Setting up fc8_plantvillage_fc8_plantvillage_0_split
I0403 14:57:12.344553  8463 net.cpp:148] Top shape: 100 38 (3800)
I0403 14:57:12.344569  8463 net.cpp:148] Top shape: 100 38 (3800)
I0403 14:57:12.344584  8463 net.cpp:148] Top shape: 100 38 (3800)
I0403 14:57:12.344597  8463 net.cpp:156] Memory required for data: 831586800
I0403 14:57:12.344611  8463 layer_factory.hpp:77] Creating layer prob
I0403 14:57:12.344630  8463 net.cpp:91] Creating Layer prob
I0403 14:57:12.344645  8463 net.cpp:425] prob <- fc8_plantvillage_fc8_plantvillage_0_split_0
I0403 14:57:12.344660  8463 net.cpp:399] prob -> prob
I0403 14:57:12.344877  8463 net.cpp:141] Setting up prob
I0403 14:57:12.344902  8463 net.cpp:148] Top shape: 100 38 (3800)
I0403 14:57:12.344916  8463 net.cpp:156] Memory required for data: 831602000
I0403 14:57:12.344930  8463 layer_factory.hpp:77] Creating layer hdf5out
I0403 14:57:12.344954  8463 net.cpp:91] Creating Layer hdf5out
I0403 14:57:12.344971  8463 net.cpp:425] hdf5out <- prob
I0403 14:57:12.344992  8463 net.cpp:425] hdf5out <- label_data_1_split_0
I0403 14:57:12.347194  8463 net.cpp:141] Setting up hdf5out
…
