…
I0403 15:05:25.252485  9004 net.cpp:313] The NetState phase (1) differed from the phase (0) specified by a rule in layer data
I0403 15:05:25.252787  9004 net.cpp:49] Initializing net from parameters: 
state {
  phase: TEST
}
layer {
  name: "data"
  type: "Data"
  top: "data"
  top: "label"
  include {
    phase: TEST
  }
  transform_param {
    crop_size: 227
    mean_file: "/home/mohanty/data/final_dataset/lmdb/color-50-50/mean.binaryproto"
  }
  data_param {
    source: "/home/mohanty/data/final_dataset/lmdb/color-50-50/test_db"
    batch_size: 100
    backend: LMDB
  }
}
layer {
  name: "conv1"
  type: "Convolution"
  bottom: "data"
  top: "conv1"
  param {
    lr_mult: 1
    decay_mult: 1
  }
  param {
    lr_mult: 2
    decay_mult: 0
  }
  convolution_param {
    num_output: 96
    kernel_size: 11
    stride: 4
    weight_filler {
      type: "gaussian"
      std: 0.01
    }
    bias_filler {
      type: "constant"
      value: 0
    }
  }
}
layer {
  name: "relu1"
  type: "ReLU"
  bottom: "conv1"
  top: "conv1"
}
layer {
  name: "norm1"
  type: "LRN"
  bottom: "conv1"
  top: "norm1"
  lrn_param {
    local_size: 5
    alpha: 0.0001
    beta: 0.75
  }
}
layer {
  name: "pool1"
  type: "Pooling"
  bottom: "norm1"
  top: "pool1"
  pooling_param {
    pool: MAX
    kernel_size: 3
    stride: 2
  }
}
layer {
  name: "conv2"
  type: "Convolution"
  bottom: "pool1"
  top: "conv2"
  param {
    lr_mult: 1
    decay_mult: 1
  }
  param {
    lr_mult: 2
    decay_mult: 0
  }
  convolution_param {
    num_output: 256
    pad: 2
    kernel_size: 5
    group: 2
    weight_filler {
      type: "gaussian"
      std: 0.01
    }
    bias_filler {
      type: "constant"
      value: 0.1
    }
  }
}
layer {
  name: "relu2"
  type: "ReLU"
  bottom: "conv2"
  top: "conv2"
}
layer {
  name: "norm2"
  type: "LRN"
  bottom: "conv2"
  top: "norm2"
  lrn_param {
    local_size: 5
    alpha: 0.0001
    beta: 0.75
  }
}
layer {
  name: "pool2"
  type: "Pooling"
  bottom: "norm2"
  top: "pool2"
  pooling_param {
    pool: MAX
    kernel_size: 3
    stride: 2
  }
}
layer {
  name: "conv3"
  type: "Convolution"
  bottom: "pool2"
  top: "conv3"
  param {
    lr_mult: 1
    decay_mult: 1
  }
  param {
    lr_mult: 2
    decay_mult: 0
  }
  convolution_param {
    num_output: 384
    pad: 1
    kernel_size: 3
    weight_filler {
      type: "gaussian"
      std: 0.01
    }
    bias_filler {
      type: "constant"
      value: 0
    }
  }
}
layer {
  name: "relu3"
  type: "ReLU"
  bottom: "conv3"
  top: "conv3"
}
layer {
  name: "conv4"
  type: "Convolution"
  bottom: "conv3"
  top: "conv4"
  param {
    lr_mult: 1
    decay_mult: 1
  }
  param {
    lr_mult: 2
    decay_mult: 0
  }
  convolution_param {
    num_output: 384
    pad: 1
    kernel_size: 3
    group: 2
    weight_filler {
      type: "gaussian"
      std: 0.01
    }
    bias_filler {
      type: "constant"
      value: 0.1
    }
  }
}
layer {
  name: "relu4"
  type: "ReLU"
  bottom: "conv4"
  top: "conv4"
}
layer {
  name: "conv5"
  type: "Convolution"
  bottom: "conv4"
  top: "conv5"
  param {
    lr_mult: 1
    decay_mult: 1
  }
  param {
    lr_mult: 2
    decay_mult: 0
  }
  convolution_param {
    num_output: 256
    pad: 1
    kernel_size: 3
    group: 2
    weight_filler {
      type: "gaussian"
      std: 0.01
    }
    bias_filler {
      type: "constant"
      value: 0.1
    }
  }
}
layer {
  name: "relu5"
  type: "ReLU"
  bottom: "conv5"
  top: "conv5"
}
layer {
  name: "pool5"
  type: "Pooling"
  bottom: "conv5"
  top: "pool5"
  pooling_param {
    pool: MAX
    kernel_size: 3
    stride: 2
  }
}
layer {
  name: "fc6"
  type: "InnerProduct"
  bottom: "pool5"
  top: "fc6"
  param {
    lr_mult: 1
    decay_mult: 1
  }
  param {
    lr_mult: 2
    decay_mult: 0
  }
  inner_product_param {
    num_output: 4096
    weight_filler {
      type: "gaussian"
      std: 0.005
    }
    bias_filler {
      type: "constant"
      value: 0.1
    }
  }
}
layer {
  name: "relu6"
  type: "ReLU"
  bottom: "fc6"
  top: "fc6"
}
layer {
  name: "drop6"
  type: "Dropout"
  bottom: "fc6"
  top: "fc6"
  dropout_param {
    dropout_ratio: 0.5
  }
}
layer {
  name: "fc7"
  type: "InnerProduct"
  bottom: "fc6"
  top: "fc7"
  param {
    lr_mult: 1
    decay_mult: 1
  }
  param {
    lr_mult: 2
    decay_mult: 0
  }
  inner_product_param {
    num_output: 4096
    weight_filler {
      type: "gaussian"
      std: 0.005
    }
    bias_filler {
      type: "constant"
      value: 0.1
    }
  }
}
layer {
  name: "relu7"
  type: "ReLU"
  bottom: "fc7"
  top: "fc7"
}
layer {
  name: "drop7"
  type: "Dropout"
  bottom: "fc7"
  top: "fc7"
  dropout_param {
    dropout_ratio: 0.5
  }
}
layer {
  name: "fc8_plantvillage"
  type: "InnerProduct"
  bottom: "fc7"
  top: "fc8_plantvillage"
  param {
    lr_mult: 1
    decay_mult: 1
  }
  param {
    lr_mult: 2
    decay_mult: 0
  }
  inner_product_param {
    num_output: 38
    weight_filler {
      type: "gaussian"
      std: 0.01
    }
    bias_filler {
      type: "constant"
      value: 0
    }
  }
}
layer {
  name: "prob"
  type: "Softmax"
  bottom: "fc8_plantvillage"
  top: "prob"
  include {
    phase: TEST
  }
}
layer {
  name: "hdf5out"
  type: "HDF5Output"
  bottom: "prob"
  bottom: "label"
  include {
    phase: TEST
  }
  hdf5_output_param {
    file_name: "hdf5_dumps/iter_6725.h5"
  }
}
layer {
  name: "loss"
  type: "SoftmaxWithLoss"
  bottom: "fc8_plantvillage"
  bottom: "label"
  top: "loss"
}
layer {
  name: "accuracy"
  type: "Accuracy"
  bottom: "fc8_plantvillage"
  bottom: "label"
  top: "accuracy"
  include {
    phase: TEST
  }
}
I0403 15:05:25.253353  9004 layer_factory.hpp:77] Creating layer data
I0403 15:05:25.253985  9004 net.cpp:91] Creating Layer data
I0403 15:05:25.254015  9004 net.cpp:399] data -> data
I0403 15:05:25.254066  9004 net.cpp:399] data -> label
I0403 15:05:25.254102  9004 data_transformer.cpp:25] Loading mean file from: /home/mohanty/data/final_dataset/lmdb/color-50-50/mean.binaryproto
I0403 15:05:25.265527  9008 db_lmdb.cpp:38] Opened lmdb /home/mohanty/data/final_dataset/lmdb/color-50-50/test_db
I0403 15:05:25.272970  9004 data_layer.cpp:41] output data size: 100,3,227,227
I0403 15:05:25.394861  9004 net.cpp:141] Setting up data
I0403 15:05:25.394968  9004 net.cpp:148] Top shape: 100 3 227 227 (15458700)
I0403 15:05:25.394994  9004 net.cpp:148] Top shape: 100 (100)
I0403 15:05:25.395009  9004 net.cpp:156] Memory required for data: 61835200
I0403 15:05:25.395036  9004 layer_factory.hpp:77] Creating layer label_data_1_split
I0403 15:05:25.395061  9004 net.cpp:91] Creating Layer label_data_1_split
I0403 15:05:25.395078  9004 net.cpp:425] label_data_1_split <- label
I0403 15:05:25.395108  9004 net.cpp:399] label_data_1_split -> label_data_1_split_0
I0403 15:05:25.395136  9004 net.cpp:399] label_data_1_split -> label_data_1_split_1
I0403 15:05:25.395156  9004 net.cpp:399] label_data_1_split -> label_data_1_split_2
I0403 15:05:25.395220  9004 net.cpp:141] Setting up label_data_1_split
I0403 15:05:25.395241  9004 net.cpp:148] Top shape: 100 (100)
I0403 15:05:25.395257  9004 net.cpp:148] Top shape: 100 (100)
I0403 15:05:25.395272  9004 net.cpp:148] Top shape: 100 (100)
I0403 15:05:25.395287  9004 net.cpp:156] Memory required for data: 61836400
I0403 15:05:25.395300  9004 layer_factory.hpp:77] Creating layer conv1
I0403 15:05:25.395331  9004 net.cpp:91] Creating Layer conv1
I0403 15:05:25.395349  9004 net.cpp:425] conv1 <- data
I0403 15:05:25.395369  9004 net.cpp:399] conv1 -> conv1
I0403 15:05:25.538022  9004 net.cpp:141] Setting up conv1
I0403 15:05:25.538107  9004 net.cpp:148] Top shape: 100 96 55 55 (29040000)
I0403 15:05:25.538125  9004 net.cpp:156] Memory required for data: 177996400
I0403 15:05:25.538156  9004 layer_factory.hpp:77] Creating layer relu1
I0403 15:05:25.538182  9004 net.cpp:91] Creating Layer relu1
I0403 15:05:25.538200  9004 net.cpp:425] relu1 <- conv1
I0403 15:05:25.538219  9004 net.cpp:386] relu1 -> conv1 (in-place)
I0403 15:05:25.538471  9004 net.cpp:141] Setting up relu1
I0403 15:05:25.538498  9004 net.cpp:148] Top shape: 100 96 55 55 (29040000)
I0403 15:05:25.538513  9004 net.cpp:156] Memory required for data: 294156400
I0403 15:05:25.538559  9004 layer_factory.hpp:77] Creating layer norm1
I0403 15:05:25.538589  9004 net.cpp:91] Creating Layer norm1
I0403 15:05:25.538606  9004 net.cpp:425] norm1 <- conv1
I0403 15:05:25.538625  9004 net.cpp:399] norm1 -> norm1
I0403 15:05:25.538930  9004 net.cpp:141] Setting up norm1
I0403 15:05:25.538959  9004 net.cpp:148] Top shape: 100 96 55 55 (29040000)
I0403 15:05:25.538974  9004 net.cpp:156] Memory required for data: 410316400
I0403 15:05:25.539001  9004 layer_factory.hpp:77] Creating layer pool1
I0403 15:05:25.539026  9004 net.cpp:91] Creating Layer pool1
I0403 15:05:25.539044  9004 net.cpp:425] pool1 <- norm1
I0403 15:05:25.539062  9004 net.cpp:399] pool1 -> pool1
I0403 15:05:25.539129  9004 net.cpp:141] Setting up pool1
I0403 15:05:25.539151  9004 net.cpp:148] Top shape: 100 96 27 27 (6998400)
I0403 15:05:25.539166  9004 net.cpp:156] Memory required for data: 438310000
I0403 15:05:25.539181  9004 layer_factory.hpp:77] Creating layer conv2
I0403 15:05:25.539204  9004 net.cpp:91] Creating Layer conv2
I0403 15:05:25.539228  9004 net.cpp:425] conv2 <- pool1
I0403 15:05:25.539247  9004 net.cpp:399] conv2 -> conv2
I0403 15:05:25.554028  9004 net.cpp:141] Setting up conv2
I0403 15:05:25.554071  9004 net.cpp:148] Top shape: 100 256 27 27 (18662400)
I0403 15:05:25.554088  9004 net.cpp:156] Memory required for data: 512959600
I0403 15:05:25.554111  9004 layer_factory.hpp:77] Creating layer relu2
I0403 15:05:25.554131  9004 net.cpp:91] Creating Layer relu2
I0403 15:05:25.554146  9004 net.cpp:425] relu2 <- conv2
I0403 15:05:25.554164  9004 net.cpp:386] relu2 -> conv2 (in-place)
I0403 15:05:25.554446  9004 net.cpp:141] Setting up relu2
I0403 15:05:25.554473  9004 net.cpp:148] Top shape: 100 256 27 27 (18662400)
I0403 15:05:25.554488  9004 net.cpp:156] Memory required for data: 587609200
I0403 15:05:25.554503  9004 layer_factory.hpp:77] Creating layer norm2
I0403 15:05:25.554524  9004 net.cpp:91] Creating Layer norm2
I0403 15:05:25.554541  9004 net.cpp:425] norm2 <- conv2
I0403 15:05:25.554559  9004 net.cpp:399] norm2 -> norm2
I0403 15:05:25.554755  9004 net.cpp:141] Setting up norm2
I0403 15:05:25.554782  9004 net.cpp:148] Top shape: 100 256 27 27 (18662400)
I0403 15:05:25.554800  9004 net.cpp:156] Memory required for data: 662258800
I0403 15:05:25.554814  9004 layer_factory.hpp:77] Creating layer pool2
I0403 15:05:25.554831  9004 net.cpp:91] Creating Layer pool2
I0403 15:05:25.554847  9004 net.cpp:425] pool2 <- norm2
I0403 15:05:25.554867  9004 net.cpp:399] pool2 -> pool2
I0403 15:05:25.554918  9004 net.cpp:141] Setting up pool2
I0403 15:05:25.554944  9004 net.cpp:148] Top shape: 100 256 13 13 (4326400)
I0403 15:05:25.554958  9004 net.cpp:156] Memory required for data: 679564400
I0403 15:05:25.554973  9004 layer_factory.hpp:77] Creating layer conv3
I0403 15:05:25.555001  9004 net.cpp:91] Creating Layer conv3
I0403 15:05:25.555017  9004 net.cpp:425] conv3 <- pool2
I0403 15:05:25.555037  9004 net.cpp:399] conv3 -> conv3
I0403 15:05:25.594480  9004 net.cpp:141] Setting up conv3
I0403 15:05:25.594554  9004 net.cpp:148] Top shape: 100 384 13 13 (6489600)
I0403 15:05:25.594570  9004 net.cpp:156] Memory required for data: 705522800
I0403 15:05:25.594594  9004 layer_factory.hpp:77] Creating layer relu3
I0403 15:05:25.594616  9004 net.cpp:91] Creating Layer relu3
I0403 15:05:25.594635  9004 net.cpp:425] relu3 <- conv3
I0403 15:05:25.594655  9004 net.cpp:386] relu3 -> conv3 (in-place)
I0403 15:05:25.594934  9004 net.cpp:141] Setting up relu3
I0403 15:05:25.594961  9004 net.cpp:148] Top shape: 100 384 13 13 (6489600)
I0403 15:05:25.594976  9004 net.cpp:156] Memory required for data: 731481200
I0403 15:05:25.594996  9004 layer_factory.hpp:77] Creating layer conv4
I0403 15:05:25.595021  9004 net.cpp:91] Creating Layer conv4
I0403 15:05:25.595039  9004 net.cpp:425] conv4 <- conv3
I0403 15:05:25.595060  9004 net.cpp:399] conv4 -> conv4
I0403 15:05:25.626482  9004 net.cpp:141] Setting up conv4
I0403 15:05:25.626534  9004 net.cpp:148] Top shape: 100 384 13 13 (6489600)
I0403 15:05:25.626577  9004 net.cpp:156] Memory required for data: 757439600
I0403 15:05:25.626598  9004 layer_factory.hpp:77] Creating layer relu4
I0403 15:05:25.626617  9004 net.cpp:91] Creating Layer relu4
I0403 15:05:25.626634  9004 net.cpp:425] relu4 <- conv4
I0403 15:05:25.626652  9004 net.cpp:386] relu4 -> conv4 (in-place)
I0403 15:05:25.626929  9004 net.cpp:141] Setting up relu4
I0403 15:05:25.626957  9004 net.cpp:148] Top shape: 100 384 13 13 (6489600)
I0403 15:05:25.626973  9004 net.cpp:156] Memory required for data: 783398000
I0403 15:05:25.626993  9004 layer_factory.hpp:77] Creating layer conv5
I0403 15:05:25.627018  9004 net.cpp:91] Creating Layer conv5
I0403 15:05:25.627035  9004 net.cpp:425] conv5 <- conv4
I0403 15:05:25.627054  9004 net.cpp:399] conv5 -> conv5
I0403 15:05:25.647352  9004 net.cpp:141] Setting up conv5
I0403 15:05:25.647389  9004 net.cpp:148] Top shape: 100 256 13 13 (4326400)
I0403 15:05:25.647406  9004 net.cpp:156] Memory required for data: 800703600
I0403 15:05:25.647429  9004 layer_factory.hpp:77] Creating layer relu5
I0403 15:05:25.647449  9004 net.cpp:91] Creating Layer relu5
I0403 15:05:25.647464  9004 net.cpp:425] relu5 <- conv5
I0403 15:05:25.647483  9004 net.cpp:386] relu5 -> conv5 (in-place)
I0403 15:05:25.647758  9004 net.cpp:141] Setting up relu5
I0403 15:05:25.647785  9004 net.cpp:148] Top shape: 100 256 13 13 (4326400)
I0403 15:05:25.647800  9004 net.cpp:156] Memory required for data: 818009200
I0403 15:05:25.647815  9004 layer_factory.hpp:77] Creating layer pool5
I0403 15:05:25.647840  9004 net.cpp:91] Creating Layer pool5
I0403 15:05:25.647857  9004 net.cpp:425] pool5 <- conv5
I0403 15:05:25.647876  9004 net.cpp:399] pool5 -> pool5
I0403 15:05:25.647935  9004 net.cpp:141] Setting up pool5
I0403 15:05:25.647958  9004 net.cpp:148] Top shape: 100 256 6 6 (921600)
I0403 15:05:25.647972  9004 net.cpp:156] Memory required for data: 821695600
I0403 15:05:25.647991  9004 layer_factory.hpp:77] Creating layer fc6
I0403 15:05:25.648020  9004 net.cpp:91] Creating Layer fc6
I0403 15:05:25.648036  9004 net.cpp:425] fc6 <- pool5
I0403 15:05:25.648057  9004 net.cpp:399] fc6 -> fc6
I0403 15:05:27.193686  9004 net.cpp:141] Setting up fc6
I0403 15:05:27.193769  9004 net.cpp:148] Top shape: 100 4096 (409600)
I0403 15:05:27.193786  9004 net.cpp:156] Memory required for data: 823334000
I0403 15:05:27.193809  9004 layer_factory.hpp:77] Creating layer relu6
I0403 15:05:27.193831  9004 net.cpp:91] Creating Layer relu6
I0403 15:05:27.193850  9004 net.cpp:425] relu6 <- fc6
I0403 15:05:27.193869  9004 net.cpp:386] relu6 -> fc6 (in-place)
I0403 15:05:27.194100  9004 net.cpp:141] Setting up relu6
I0403 15:05:27.194126  9004 net.cpp:148] Top shape: 100 4096 (409600)
I0403 15:05:27.194142  9004 net.cpp:156] Memory required for data: 824972400
I0403 15:05:27.194156  9004 layer_factory.hpp:77] Creating layer drop6
I0403 15:05:27.194176  9004 net.cpp:91] Creating Layer drop6
I0403 15:05:27.194192  9004 net.cpp:425] drop6 <- fc6
I0403 15:05:27.194214  9004 net.cpp:386] drop6 -> fc6 (in-place)
I0403 15:05:27.194268  9004 net.cpp:141] Setting up drop6
I0403 15:05:27.194291  9004 net.cpp:148] Top shape: 100 4096 (409600)
I0403 15:05:27.194306  9004 net.cpp:156] Memory required for data: 826610800
I0403 15:05:27.194320  9004 layer_factory.hpp:77] Creating layer fc7
I0403 15:05:27.194349  9004 net.cpp:91] Creating Layer fc7
I0403 15:05:27.194366  9004 net.cpp:425] fc7 <- fc6
I0403 15:05:27.194391  9004 net.cpp:399] fc7 -> fc7
I0403 15:05:27.872527  9004 net.cpp:141] Setting up fc7
I0403 15:05:27.872611  9004 net.cpp:148] Top shape: 100 4096 (409600)
I0403 15:05:27.872627  9004 net.cpp:156] Memory required for data: 828249200
I0403 15:05:27.872648  9004 layer_factory.hpp:77] Creating layer relu7
I0403 15:05:27.872669  9004 net.cpp:91] Creating Layer relu7
I0403 15:05:27.872685  9004 net.cpp:425] relu7 <- fc7
I0403 15:05:27.872707  9004 net.cpp:386] relu7 -> fc7 (in-place)
I0403 15:05:27.873111  9004 net.cpp:141] Setting up relu7
I0403 15:05:27.873137  9004 net.cpp:148] Top shape: 100 4096 (409600)
I0403 15:05:27.873183  9004 net.cpp:156] Memory required for data: 829887600
I0403 15:05:27.873198  9004 layer_factory.hpp:77] Creating layer drop7
I0403 15:05:27.873219  9004 net.cpp:91] Creating Layer drop7
I0403 15:05:27.873234  9004 net.cpp:425] drop7 <- fc7
I0403 15:05:27.873253  9004 net.cpp:386] drop7 -> fc7 (in-place)
I0403 15:05:27.873309  9004 net.cpp:141] Setting up drop7
I0403 15:05:27.873333  9004 net.cpp:148] Top shape: 100 4096 (409600)
I0403 15:05:27.873347  9004 net.cpp:156] Memory required for data: 831526000
I0403 15:05:27.873361  9004 layer_factory.hpp:77] Creating layer fc8_plantvillage
I0403 15:05:27.873380  9004 net.cpp:91] Creating Layer fc8_plantvillage
I0403 15:05:27.873395  9004 net.cpp:425] fc8_plantvillage <- fc7
I0403 15:05:27.873416  9004 net.cpp:399] fc8_plantvillage -> fc8_plantvillage
I0403 15:05:27.879976  9004 net.cpp:141] Setting up fc8_plantvillage
I0403 15:05:27.880004  9004 net.cpp:148] Top shape: 100 38 (3800)
I0403 15:05:27.880020  9004 net.cpp:156] Memory required for data: 831541200
I0403 15:05:27.880038  9004 layer_factory.hpp:77] Creating layer fc8_plantvillage_fc8_plantvillage_0_split
I0403 15:05:27.880055  9004 net.cpp:91] Creating Layer fc8_plantvillage_fc8_plantvillage_0_split
I0403 15:05:27.880070  9004 net.cpp:425] fc8_plantvillage_fc8_plantvillage_0_split <- fc8_plantvillage
I0403 15:05:27.880089  9004 net.cpp:399] fc8_plantvillage_fc8_plantvillage_0_split -> fc8_plantvillage_fc8_plantvillage_0_split_0
I0403 15:05:27.880110  9004 net.cpp:399] fc8_plantvillage_fc8_plantvillage_0_split -> fc8_plantvillage_fc8_plantvillage_0_split_1
I0403 15:05:27.880130  9004 net.cpp:399] fc8_plantvillage_fc8_plantvillage_0_split -> fc8_plantvillage_fc8_plantvillage_0_split_2
I0403 15:05:27.880205  9004 net.cpp:141] Setting up fc8_plantvillage_fc8_plantvillage_0_split
I0403 15:05:27.880230  9004 net.cpp:148] Top shape: 100 38 (3800)
I0403 15:05:27.880246  9004 net.cpp:148] Top shape: 100 38 (3800)
I0403 15:05:27.880261  9004 net.cpp:148] Top shape: 100 38 (3800)
I0403 15:05:27.880275  9004 net.cpp:156] Memory required for data: 831586800
I0403 15:05:27.880288  9004 layer_factory.hpp:77] Creating layer prob
I0403 15:05:27.880307  9004 net.cpp:91] Creating Layer prob
I0403 15:05:27.880322  9004 net.cpp:425] prob <- fc8_plantvillage_fc8_plantvillage_0_split_0
I0403 15:05:27.880339  9004 net.cpp:399] prob -> prob
I0403 15:05:27.880559  9004 net.cpp:141] Setting up prob
I0403 15:05:27.880584  9004 net.cpp:148] Top shape: 100 38 (3800)
I0403 15:05:27.880599  9004 net.cpp:156] Memory required for data: 831602000
I0403 15:05:27.880614  9004 layer_factory.hpp:77] Creating layer hdf5out
I0403 15:05:27.880631  9004 net.cpp:91] Creating Layer hdf5out
I0403 15:05:27.880646  9004 net.cpp:425] hdf5out <- prob
I0403 15:05:27.880662  9004 net.cpp:425] hdf5out <- label_data_1_split_0
I0403 15:05:27.883080  9004 net.cpp:141] Setting up hdf5out
…
