…
I0403 11:11:51.155884  7989 net.cpp:313] The NetState phase (0) differed from the phase (1) specified by a rule in layer loss3/top-5
I0403 11:11:51.159440  7989 net.cpp:49] Initializing net from parameters: 
state {
  phase: TRAIN
}
layer {
  name: "data"
  type: "Data"
  top: "data"
  top: "label"
  include {
    phase: TRAIN
  }
  transform_param {
    mirror: true
    crop_size: 224
    mean_file: "/home/mohanty/data/final_dataset/lmdb/color-60-40/mean.binaryproto"
  }
  data_param {
    source: "/home/mohanty/data/final_dataset/lmdb/color-60-40/train_db"
    batch_size: 24
    backend: LMDB
  }
}
layer {
  name: "conv1/7x7_s2"
  type: "Convolution"
  bottom: "data"
  top: "conv1/7x7_s2"
  param {
    lr_mult: 1
    decay_mult: 1
  }
  param {
    lr_mult: 2
    decay_mult: 0
  }
  convolution_param {
    num_output: 64
    pad: 3
    kernel_size: 7
    stride: 2
    weight_filler {
      type: "xavier"
      std: 0.1
    }
    bias_filler {
      type: "constant"
      value: 0.2
    }
  }
}
layer {
  name: "conv1/relu_7x7"
  type: "ReLU"
  bottom: "conv1/7x7_s2"
  top: "conv1/7x7_s2"
}
layer {
  name: "pool1/3x3_s2"
  type: "Pooling"
  bottom: "conv1/7x7_s2"
  top: "pool1/3x3_s2"
  pooling_param {
    pool: MAX
    kernel_size: 3
    stride: 2
  }
}
layer {
  name: "pool1/norm1"
  type: "LRN"
  bottom: "pool1/3x3_s2"
  top: "pool1/norm1"
  lrn_param {
    local_size: 5
    alpha: 0.0001
    beta: 0.75
  }
}
layer {
  name: "conv2/3x3_reduce"
  type: "Convolution"
  bottom: "pool1/norm1"
  top: "conv2/3x3_reduce"
  param {
    lr_mult: 1
    decay_mult: 1
  }
  param {
    lr_mult: 2
    decay_mult: 0
  }
  convolution_param {
    num_output: 64
    kernel_size: 1
    weight_filler {
      type: "xavier"
      std: 0.1
    }
    bias_filler {
      type: "constant"
      value: 0.2
    }
  }
}
layer {
  name: "conv2/relu_3x3_reduce"
  type: "ReLU"
  bottom: "conv2/3x3_reduce"
  top: "conv2/3x3_reduce"
}
layer {
  name: "conv2/3x3"
  type: "Convolution"
  bottom: "conv2/3x3_reduce"
  top: "conv2/3x3"
  param {
    lr_mult: 1
    decay_mult: 1
  }
  param {
    lr_mult: 2
    decay_mult: 0
  }
  convolution_param {
    num_output: 192
    pad: 1
    kernel_size: 3
    weight_filler {
      type: "xavier"
      std: 0.03
    }
    bias_filler {
      type: "constant"
      value: 0.2
    }
  }
}
layer {
  name: "conv2/relu_3x3"
  type: "ReLU"
  bottom: "conv2/3x3"
  top: "conv2/3x3"
}
layer {
  name: "conv2/norm2"
  type: "LRN"
  bottom: "conv2/3x3"
  top: "conv2/norm2"
  lrn_param {
    local_size: 5
    alpha: 0.0001
    beta: 0.75
  }
}
layer {
  name: "pool2/3x3_s2"
  type: "Pooling"
  bottom: "conv2/norm2"
  top: "pool2/3x3_s2"
  pooling_param {
    pool: MAX
    kernel_size: 3
    stride: 2
  }
}
layer {
  name: "inception_3a/1x1"
  type: "Convolution"
  bottom: "pool2/3x3_s2"
  top: "inception_3a/1x1"
  param {
    lr_mult: 1
    decay_mult: 1
  }
  param {
    lr_mult: 2
    decay_mult: 0
  }
  convolution_param {
    num_output: 64
    kernel_size: 1
    weight_filler {
      type: "xavier"
      std: 0.03
    }
    bias_filler {
      type: "constant"
      value: 0.2
    }
  }
}
layer {
  name: "inception_3a/relu_1x1"
  type: "ReLU"
  bottom: "inception_3a/1x1"
  top: "inception_3a/1x1"
}
layer {
  name: "inception_3a/3x3_reduce"
  type: "Convolution"
  bottom: "pool2/3x3_s2"
  top: "inception_3a/3x3_reduce"
  param {
    lr_mult: 1
    decay_mult: 1
  }
  param {
    lr_mult: 2
    decay_mult: 0
  }
  convolution_param {
    num_output: 96
    kernel_size: 1
    weight_filler {
      type: "xavier"
      std: 0.09
    }
    bias_filler {
      type: "constant"
      value: 0.2
    }
  }
}
layer {
  name: "inception_3a/relu_3x3_reduce"
  type: "ReLU"
  bottom: "inception_3a/3x3_reduce"
  top: "inception_3a/3x3_reduce"
}
layer {
  name: "inception_3a/3x3"
  type: "Convolution"
  bottom: "inception_3a/3x3_reduce"
  top: "inception_3a/3x3"
  param {
    lr_mult: 1
    decay_mult: 1
  }
  param {
    lr_mult: 2
    decay_mult: 0
  }
  convolution_param {
    num_output: 128
    pad: 1
    kernel_size: 3
    weight_filler {
      type: "xavier"
      std: 0.03
    }
    bias_filler {
      type: "constant"
      value: 0.2
    }
  }
}
layer {
  name: "inception_3a/relu_3x3"
  type: "ReLU"
  bottom: "inception_3a/3x3"
  top: "inception_3a/3x3"
}
layer {
  name: "inception_3a/5x5_reduce"
  type: "Convolution"
  bottom: "pool2/3x3_s2"
  top: "inception_3a/5x5_reduce"
  param {
    lr_mult: 1
    decay_mult: 1
  }
  param {
    lr_mult: 2
    decay_mult: 0
  }
  convolution_param {
    num_output: 16
    kernel_size: 1
    weight_filler {
      type: "xavier"
      std: 0.2
    }
    bias_filler {
      type: "constant"
      value: 0.2
    }
  }
}
layer {
  name: "inception_3a/relu_5x5_reduce"
  type: "ReLU"
  bottom: "inception_3a/5x5_reduce"
  top: "inception_3a/5x5_reduce"
}
layer {
  name: "inception_3a/5x5"
  type: "Convolution"
  bottom: "inception_3a/5x5_reduce"
  top: "inception_3a/5x5"
  param {
    lr_mult: 1
    decay_mult: 1
  }
  param {
    lr_mult: 2
    decay_mult: 0
  }
  convolution_param {
    num_output: 32
    pad: 2
    kernel_size: 5
    weight_filler {
      type: "xavier"
      std: 0.03
    }
    bias_filler {
      type: "constant"
      value: 0.2
    }
  }
}
layer {
  name: "inception_3a/relu_5x5"
  type: "ReLU"
  bottom: "inception_3a/5x5"
  top: "inception_3a/5x5"
}
layer {
  name: "inception_3a/pool"
  type: "Pooling"
  bottom: "pool2/3x3_s2"
  top: "inception_3a/pool"
  pooling_param {
    pool: MAX
    kernel_size: 3
    stride: 1
    pad: 1
  }
}
layer {
  name: "inception_3a/pool_proj"
  type: "Convolution"
  bottom: "inception_3a/pool"
  top: "inception_3a/pool_proj"
  param {
    lr_mult: 1
    decay_mult: 1
  }
  param {
    lr_mult: 2
    decay_mult: 0
  }
  convolution_param {
    num_output: 32
    kernel_size: 1
    weight_filler {
      type: "xavier"
      std: 0.1
    }
    bias_filler {
      type: "constant"
      value: 0.2
    }
  }
}
layer {
  name: "inception_3a/relu_pool_proj"
  type: "ReLU"
  bottom: "inception_3a/pool_proj"
  top: "inception_3a/pool_proj"
}
layer {
  name: "inception_3a/output"
  type: "Concat"
  bottom: "inception_3a/1x1"
  bottom: "inception_3a/3x3"
  bottom: "inception_3a/5x5"
  bottom: "inception_3a/pool_proj"
  top: "inception_3a/output"
}
layer {
  name: "inception_3b/1x1"
  type: "Convolution"
  bottom: "inception_3a/output"
  top: "inception_3b/1x1"
  param {
    lr_mult: 1
    decay_mult: 1
  }
  param {
    lr_mult: 2
    decay_mult: 0
  }
  convolution_param {
    num_output: 128
    kernel_size: 1
    weight_filler {
      type: "xavier"
      std: 0.03
    }
    bias_filler {
      type: "constant"
      value: 0.2
    }
  }
}
layer {
  name: "inception_3b/relu_1x1"
  type: "ReLU"
  bottom: "inception_3b/1x1"
  top: "inception_3b/1x1"
}
layer {
  name: "inception_3b/3x3_reduce"
  type: "Convolution"
  bottom: "inception_3a/output"
  top: "inception_3b/3x3_reduce"
  param {
    lr_mult: 1
    decay_mult: 1
  }
  param {
    lr_mult: 2
    decay_mult: 0
  }
  convolution_param {
    num_output: 128
    kernel_size: 1
    weight_filler {
      type: "xavier"
      std: 0.09
    }
    bias_filler {
      type: "constant"
      value: 0.2
    }
  }
}
layer {
  name: "inception_3b/relu_3x3_reduce"
  type: "ReLU"
  bottom: "inception_3b/3x3_reduce"
  top: "inception_3b/3x3_reduce"
}
layer {
  name: "inception_3b/3x3"
  type: "Convolution"
  bottom: "inception_3b/3x3_reduce"
  top: "inception_3b/3x3"
  param {
    lr_mult: 1
    decay_mult: 1
  }
  param {
    lr_mult: 2
    decay_mult: 0
  }
  convolution_param {
    num_output: 192
    pad: 1
    kernel_size: 3
    weight_filler {
      type: "xavier"
      std: 0.03
    }
    bias_filler {
      type: "constant"
      value: 0.2
    }
  }
}
layer {
  name: "inception_3b/relu_3x3"
  type: "ReLU"
  bottom: "inception_3b/3x3"
  top: "inception_3b/3x3"
}
layer {
  name: "inception_3b/5x5_reduce"
  type: "Convolution"
  bottom: "inception_3a/output"
  top: "inception_3b/5x5_reduce"
  param {
    lr_mult: 1
    decay_mult: 1
  }
  param {
    lr_mult: 2
    decay_mult: 0
  }
  convolution_param {
    num_output: 32
    kernel_size: 1
    weight_filler {
      type: "xavier"
      std: 0.2
    }
    bias_filler {
      type: "constant"
      value: 0.2
    }
  }
}
layer {
  name: "inception_3b/relu_5x5_reduce"
  type: "ReLU"
  bottom: "inception_3b/5x5_reduce"
  top: "inception_3b/5x5_reduce"
}
layer {
  name: "inception_3b/5x5"
  type: "Convolution"
  bottom: "inception_3b/5x5_reduce"
  top: "inception_3b/5x5"
  param {
    lr_mult: 1
    decay_mult: 1
  }
  param {
    lr_mult: 2
    decay_mult: 0
  }
  convolution_param {
    num_output: 96
    pad: 2
    kernel_size: 5
    weight_filler {
      type: "xavier"
      std: 0.03
    }
    bias_filler {
      type: "constant"
      value: 0.2
    }
  }
}
layer {
  name: "inception_3b/relu_5x5"
  type: "ReLU"
  bottom: "inception_3b/5x5"
  top: "inception_3b/5x5"
}
layer {
  name: "inception_3b/pool"
  type: "Pooling"
  bottom: "inception_3a/output"
  top: "inception_3b/pool"
  pooling_param {
    pool: MAX
    kernel_size: 3
    stride: 1
    pad: 1
  }
}
layer {
  name: "inception_3b/pool_proj"
  type: "Convolution"
  bottom: "inception_3b/pool"
  top: "inception_3b/pool_proj"
  param {
    lr_mult: 1
    decay_mult: 1
  }
  param {
    lr_mult: 2
    decay_mult: 0
  }
  convolution_param {
    num_output: 64
    kernel_size: 1
    weight_filler {
      type: "xavier"
      std: 0.1
    }
    bias_filler {
      type: "constant"
      value: 0.2
    }
  }
}
layer {
  name: "inception_3b/relu_pool_proj"
  type: "ReLU"
  bottom: "inception_3b/pool_proj"
  top: "inception_3b/pool_proj"
}
layer {
  name: "inception_3b/output"
  type: "Concat"
  bottom: "inception_3b/1x1"
  bottom: "inception_3b/3x3"
  bottom: "inception_3b/5x5"
  bottom: "inception_3b/pool_proj"
  top: "inception_3b/output"
}
layer {
  name: "pool3/3x3_s2"
  type: "Pooling"
  bottom: "inception_3b/output"
  top: "pool3/3x3_s2"
  pooling_param {
    pool: MAX
    kernel_size: 3
    stride: 2
  }
}
layer {
  name: "inception_4a/1x1"
  type: "Convolution"
  bottom: "pool3/3x3_s2"
  top: "inception_4a/1x1"
  param {
    lr_mult: 1
    decay_mult: 1
  }
  param {
    lr_mult: 2
    decay_mult: 0
  }
  convolution_param {
    num_output: 192
    kernel_size: 1
    weight_filler {
      type: "xavier"
      std: 0.03
    }
    bias_filler {
      type: "constant"
      value: 0.2
    }
  }
}
layer {
  name: "inception_4a/relu_1x1"
  type: "ReLU"
  bottom: "inception_4a/1x1"
  top: "inception_4a/1x1"
}
layer {
  name: "inception_4a/3x3_reduce"
  type: "Convolution"
  bottom: "pool3/3x3_s2"
  top: "inception_4a/3x3_reduce"
  param {
    lr_mult: 1
    decay_mult: 1
  }
  param {
    lr_mult: 2
    decay_mult: 0
  }
  convolution_param {
    num_output: 96
    kernel_size: 1
    weight_filler {
      type: "xavier"
      std: 0.09
    }
    bias_filler {
      type: "constant"
      value: 0.2
    }
  }
}
layer {
  name: "inception_4a/relu_3x3_reduce"
  type: "ReLU"
  bottom: "inception_4a/3x3_reduce"
  top: "inception_4a/3x3_reduce"
}
layer {
  name: "inception_4a/3x3"
  type: "Convolution"
  bottom: "inception_4a/3x3_reduce"
  top: "inception_4a/3x3"
  param {
    lr_mult: 1
    decay_mult: 1
  }
  param {
    lr_mult: 2
    decay_mult: 0
  }
  convolution_param {
    num_output: 208
    pad: 1
    kernel_size: 3
    weight_filler {
      type: "xavier"
      std: 0.03
    }
    bias_filler {
      type: "constant"
      value: 0.2
    }
  }
}
layer {
  name: "inception_4a/relu_3x3"
  type: "ReLU"
  bottom: "inception_4a/3x3"
  top: "inception_4a/3x3"
}
layer {
  name: "inception_4a/5x5_reduce"
  type: "Convolution"
  bottom: "pool3/3x3_s2"
  top: "inception_4a/5x5_reduce"
  param {
    lr_mult: 1
    decay_mult: 1
  }
  param {
    lr_mult: 2
    decay_mult: 0
  }
  convolution_param {
    num_output: 16
    kernel_size: 1
    weight_filler {
      type: "xavier"
      std: 0.2
    }
    bias_filler {
      type: "constant"
      value: 0.2
    }
  }
}
layer {
  name: "inception_4a/relu_5x5_reduce"
  type: "ReLU"
  bottom: "inception_4a/5x5_reduce"
  top: "inception_4a/5x5_reduce"
}
layer {
  name: "inception_4a/5x5"
  type: "Convolution"
  bottom: "inception_4a/5x5_reduce"
  top: "inception_4a/5x5"
  param {
    lr_mult: 1
    decay_mult: 1
  }
  param {
    lr_mult: 2
    decay_mult: 0
  }
  convolution_param {
    num_output: 48
    pad: 2
    kernel_size: 5
    weight_filler {
      type: "xavier"
      std: 0.03
    }
    bias_filler {
      type: "constant"
      value: 0.2
    }
  }
}
layer {
  name: "inception_4a/relu_5x5"
  type: "ReLU"
  bottom: "inception_4a/5x5"
  top: "inception_4a/5x5"
}
layer {
  name: "inception_4a/pool"
  type: "Pooling"
  bottom: "pool3/3x3_s2"
  top: "inception_4a/pool"
  pooling_param {
    pool: MAX
    kernel_size: 3
    stride: 1
    pad: 1
  }
}
layer {
  name: "inception_4a/pool_proj"
  type: "Convolution"
  bottom: "inception_4a/pool"
  top: "inception_4a/pool_proj"
  param {
    lr_mult: 1
    decay_mult: 1
  }
  param {
    lr_mult: 2
    decay_mult: 0
  }
  convolution_param {
    num_output: 64
    kernel_size: 1
    weight_filler {
      type: "xavier"
      std: 0.1
    }
    bias_filler {
      type: "constant"
      value: 0.2
    }
  }
}
layer {
  name: "inception_4a/relu_pool_proj"
  type: "ReLU"
  bottom: "inception_4a/pool_proj"
  top: "inception_4a/pool_proj"
}
layer {
  name: "inception_4a/output"
  type: "Concat"
  bottom: "inception_4a/1x1"
  bottom: "inception_4a/3x3"
  bottom: "inception_4a/5x5"
  bottom: "inception_4a/pool_proj"
  top: "inception_4a/output"
}
layer {
  name: "loss1/ave_pool"
  type: "Pooling"
  bottom: "inception_4a/output"
  top: "loss1/ave_pool"
  pooling_param {
    pool: AVE
    kernel_size: 5
    stride: 3
  }
}
layer {
  name: "loss1/conv"
  type: "Convolution"
  bottom: "loss1/ave_pool"
  top: "loss1/conv"
  param {
    lr_mult: 1
    decay_mult: 1
  }
  param {
    lr_mult: 2
    decay_mult: 0
  }
  convolution_param {
    num_output: 128
    kernel_size: 1
    weight_filler {
      type: "xavier"
      std: 0.08
    }
    bias_filler {
      type: "constant"
      value: 0.2
    }
  }
}
layer {
  name: "loss1/relu_conv"
  type: "ReLU"
  bottom: "loss1/conv"
  top: "loss1/conv"
}
layer {
  name: "loss1/fc"
  type: "InnerProduct"
  bottom: "loss1/conv"
  top: "loss1/fc"
  param {
    lr_mult: 1
    decay_mult: 1
  }
  param {
    lr_mult: 2
    decay_mult: 0
  }
  inner_product_param {
    num_output: 1024
    weight_filler {
      type: "xavier"
      std: 0.02
    }
    bias_filler {
      type: "constant"
      value: 0.2
    }
  }
}
layer {
  name: "loss1/relu_fc"
  type: "ReLU"
  bottom: "loss1/fc"
  top: "loss1/fc"
}
layer {
  name: "loss1/drop_fc"
  type: "Dropout"
  bottom: "loss1/fc"
  top: "loss1/fc"
  dropout_param {
    dropout_ratio: 0.7
  }
}
layer {
  name: "loss1/classifier_plantvillage"
  type: "InnerProduct"
  bottom: "loss1/fc"
  top: "loss1/classifier_plantvillage"
  param {
    lr_mult: 1
    decay_mult: 1
  }
  param {
    lr_mult: 2
    decay_mult: 0
  }
  inner_product_param {
    num_output: 38
    weight_filler {
      type: "xavier"
      std: 0.0009765625
    }
    bias_filler {
      type: "constant"
      value: 0
    }
  }
}
layer {
  name: "inception_4b/1x1"
  type: "Convolution"
  bottom: "inception_4a/output"
  top: "inception_4b/1x1"
  param {
    lr_mult: 1
    decay_mult: 1
  }
  param {
    lr_mult: 2
    decay_mult: 0
  }
  convolution_param {
    num_output: 160
    kernel_size: 1
    weight_filler {
      type: "xavier"
      std: 0.03
    }
    bias_filler {
      type: "constant"
      value: 0.2
    }
  }
}
layer {
  name: "inception_4b/relu_1x1"
  type: "ReLU"
  bottom: "inception_4b/1x1"
  top: "inception_4b/1x1"
}
layer {
  name: "inception_4b/3x3_reduce"
  type: "Convolution"
  bottom: "inception_4a/output"
  top: "inception_4b/3x3_reduce"
  param {
    lr_mult: 1
    decay_mult: 1
  }
  param {
    lr_mult: 2
    decay_mult: 0
  }
  convolution_param {
    num_output: 112
    kernel_size: 1
    weight_filler {
      type: "xavier"
      std: 0.09
    }
    bias_filler {
      type: "constant"
      value: 0.2
    }
  }
}
layer {
  name: "inception_4b/relu_3x3_reduce"
  type: "ReLU"
  bottom: "inception_4b/3x3_reduce"
  top: "inception_4b/3x3_reduce"
}
layer {
  name: "inception_4b/3x3"
  type: "Convolution"
  bottom: "inception_4b/3x3_reduce"
  top: "inception_4b/3x3"
  param {
    lr_mult: 1
    decay_mult: 1
  }
  param {
    lr_mult: 2
    decay_mult: 0
  }
  convolution_param {
    num_output: 224
    pad: 1
    kernel_size: 3
    weight_filler {
      type: "xavier"
      std: 0.03
    }
    bias_filler {
      type: "constant"
      value: 0.2
    }
  }
}
layer {
  name: "inception_4b/relu_3x3"
  type: "ReLU"
  bottom: "inception_4b/3x3"
  top: "inception_4b/3x3"
}
layer {
  name: "inception_4b/5x5_reduce"
  type: "Convolution"
  bottom: "inception_4a/output"
  top: "inception_4b/5x5_reduce"
  param {
    lr_mult: 1
    decay_mult: 1
  }
  param {
    lr_mult: 2
    decay_mult: 0
  }
  convolution_param {
    num_output: 24
    kernel_size: 1
    weight_filler {
      type: "xavier"
      std: 0.2
    }
    bias_filler {
      type: "constant"
      value: 0.2
    }
  }
}
layer {
  name: "inception_4b/relu_5x5_reduce"
  type: "ReLU"
  bottom: "inception_4b/5x5_reduce"
  top: "inception_4b/5x5_reduce"
}
layer {
  name: "inception_4b/5x5"
  type: "Convolution"
  bottom: "inception_4b/5x5_reduce"
  top: "inception_4b/5x5"
  param {
    lr_mult: 1
    decay_mult: 1
  }
  param {
    lr_mult: 2
    decay_mult: 0
  }
  convolution_param {
    num_output: 64
    pad: 2
    kernel_size: 5
    weight_filler {
      type: "xavier"
      std: 0.03
    }
    bias_filler {
      type: "constant"
      value: 0.2
    }
  }
}
layer {
  name: "inception_4b/relu_5x5"
  type: "ReLU"
  bottom: "inception_4b/5x5"
  top: "inception_4b/5x5"
}
layer {
  name: "inception_4b/pool"
  type: "Pooling"
  bottom: "inception_4a/output"
  top: "inception_4b/pool"
  pooling_param {
    pool: MAX
    kernel_size: 3
    stride: 1
    pad: 1
  }
}
layer {
  name: "inception_4b/pool_proj"
  type: "Convolution"
  bottom: "inception_4b/pool"
  top: "inception_4b/pool_proj"
  param {
    lr_mult: 1
    decay_mult: 1
  }
  param {
    lr_mult: 2
    decay_mult: 0
  }
  convolution_param {
    num_output: 64
    kernel_size: 1
    weight_filler {
      type: "xavier"
      std: 0.1
    }
    bias_filler {
      type: "constant"
      value: 0.2
    }
  }
}
layer {
  name: "inception_4b/relu_pool_proj"
  type: "ReLU"
  bottom: "inception_4b/pool_proj"
  top: "inception_4b/pool_proj"
}
layer {
  name: "inception_4b/output"
  type: "Concat"
  bottom: "inception_4b/1x1"
  bottom: "inception_4b/3x3"
  bottom: "inception_4b/5x5"
  bottom: "inception_4b/pool_proj"
  top: "inception_4b/output"
}
layer {
  name: "inception_4c/1x1"
  type: "Convolution"
  bottom: "inception_4b/output"
  top: "inception_4c/1x1"
  param {
    lr_mult: 1
    decay_mult: 1
  }
  param {
    lr_mult: 2
    decay_mult: 0
  }
  convolution_param {
    num_output: 128
    kernel_size: 1
    weight_filler {
      type: "xavier"
      std: 0.03
    }
    bias_filler {
      type: "constant"
      value: 0.2
    }
  }
}
layer {
  name: "inception_4c/relu_1x1"
  type: "ReLU"
  bottom: "inception_4c/1x1"
  top: "inception_4c/1x1"
}
layer {
  name: "inception_4c/3x3_reduce"
  type: "Convolution"
  bottom: "inception_4b/output"
  top: "inception_4c/3x3_reduce"
  param {
    lr_mult: 1
    decay_mult: 1
  }
  param {
    lr_mult: 2
    decay_mult: 0
  }
  convolution_param {
    num_output: 128
    kernel_size: 1
    weight_filler {
      type: "xavier"
      std: 0.09
    }
    bias_filler {
      type: "constant"
      value: 0.2
    }
  }
}
layer {
  name: "inception_4c/relu_3x3_reduce"
  type: "ReLU"
  bottom: "inception_4c/3x3_reduce"
  top: "inception_4c/3x3_reduce"
}
layer {
  name: "inception_4c/3x3"
  type: "Convolution"
  bottom: "inception_4c/3x3_reduce"
  top: "inception_4c/3x3"
  param {
    lr_mult: 1
    decay_mult: 1
  }
  param {
    lr_mult: 2
    decay_mult: 0
  }
  convolution_param {
    num_output: 256
    pad: 1
    kernel_size: 3
    weight_filler {
      type: "xavier"
      std: 0.03
    }
    bias_filler {
      type: "constant"
      value: 0.2
    }
  }
}
layer {
  name: "inception_4c/relu_3x3"
  type: "ReLU"
  bottom: "inception_4c/3x3"
  top: "inception_4c/3x3"
}
layer {
  name: "inception_4c/5x5_reduce"
  type: "Convolution"
  bottom: "inception_4b/output"
  top: "inception_4c/5x5_reduce"
  param {
    lr_mult: 1
    decay_mult: 1
  }
  param {
    lr_mult: 2
    decay_mult: 0
  }
  convolution_param {
    num_output: 24
    kernel_size: 1
    weight_filler {
      type: "xavier"
      std: 0.2
    }
    bias_filler {
      type: "constant"
      value: 0.2
    }
  }
}
layer {
  name: "inception_4c/relu_5x5_reduce"
  type: "ReLU"
  bottom: "inception_4c/5x5_reduce"
  top: "inception_4c/5x5_reduce"
}
layer {
  name: "inception_4c/5x5"
  type: "Convolution"
  bottom: "inception_4c/5x5_reduce"
  top: "inception_4c/5x5"
  param {
    lr_mult: 1
    decay_mult: 1
  }
  param {
    lr_mult: 2
    decay_mult: 0
  }
  convolution_param {
    num_output: 64
    pad: 2
    kernel_size: 5
    weight_filler {
      type: "xavier"
      std: 0.03
    }
    bias_filler {
      type: "constant"
      value: 0.2
    }
  }
}
layer {
  name: "inception_4c/relu_5x5"
  type: "ReLU"
  bottom: "inception_4c/5x5"
  top: "inception_4c/5x5"
}
layer {
  name: "inception_4c/pool"
  type: "Pooling"
  bottom: "inception_4b/output"
  top: "inception_4c/pool"
  pooling_param {
    pool: MAX
    kernel_size: 3
    stride: 1
    pad: 1
  }
}
layer {
  name: "inception_4c/pool_proj"
  type: "Convolution"
  bottom: "inception_4c/pool"
  top: "inception_4c/pool_proj"
  param {
    lr_mult: 1
    decay_mult: 1
  }
  param {
    lr_mult: 2
    decay_mult: 0
  }
  convolution_param {
    num_output: 64
    kernel_size: 1
    weight_filler {
      type: "xavier"
      std: 0.1
    }
    bias_filler {
      type: "constant"
      value: 0.2
    }
  }
}
layer {
  name: "inception_4c/relu_pool_proj"
  type: "ReLU"
  bottom: "inception_4c/pool_proj"
  top: "inception_4c/pool_proj"
}
layer {
  name: "inception_4c/output"
  type: "Concat"
  bottom: "inception_4c/1x1"
  bottom: "inception_4c/3x3"
  bottom: "inception_4c/5x5"
  bottom: "inception_4c/pool_proj"
  top: "inception_4c/output"
}
layer {
  name: "inception_4d/1x1"
  type: "Convolution"
  bottom: "inception_4c/output"
  top: "inception_4d/1x1"
  param {
    lr_mult: 1
    decay_mult: 1
  }
  param {
    lr_mult: 2
    decay_mult: 0
  }
  convolution_param {
    num_output: 112
    kernel_size: 1
    weight_filler {
      type: "xavier"
      std: 0.03
    }
    bias_filler {
      type: "constant"
      value: 0.2
    }
  }
}
layer {
  name: "inception_4d/relu_1x1"
  type: "ReLU"
  bottom: "inception_4d/1x1"
  top: "inception_4d/1x1"
}
layer {
  name: "inception_4d/3x3_reduce"
  type: "Convolution"
  bottom: "inception_4c/output"
  top: "inception_4d/3x3_reduce"
  param {
    lr_mult: 1
    decay_mult: 1
  }
  param {
    lr_mult: 2
    decay_mult: 0
  }
  convolution_param {
    num_output: 144
    kernel_size: 1
    weight_filler {
      type: "xavier"
      std: 0.09
    }
    bias_filler {
      type: "constant"
      value: 0.2
    }
  }
}
layer {
  name: "inception_4d/relu_3x3_reduce"
  type: "ReLU"
  bottom: "inception_4d/3x3_reduce"
  top: "inception_4d/3x3_reduce"
}
layer {
  name: "inception_4d/3x3"
  type: "Convolution"
  bottom: "inception_4d/3x3_reduce"
  top: "inception_4d/3x3"
  param {
    lr_mult: 1
    decay_mult: 1
  }
  param {
    lr_mult: 2
    decay_mult: 0
  }
  convolution_param {
    num_output: 288
    pad: 1
    kernel_size: 3
    weight_filler {
      type: "xavier"
      std: 0.03
    }
    bias_filler {
      type: "constant"
      value: 0.2
    }
  }
}
layer {
  name: "inception_4d/relu_3x3"
  type: "ReLU"
  bottom: "inception_4d/3x3"
  top: "inception_4d/3x3"
}
layer {
  name: "inception_4d/5x5_reduce"
  type: "Convolution"
  bottom: "inception_4c/output"
  top: "inception_4d/5x5_reduce"
  param {
    lr_mult: 1
    decay_mult: 1
  }
  param {
    lr_mult: 2
    decay_mult: 0
  }
  convolution_param {
    num_output: 32
    kernel_size: 1
    weight_filler {
      type: "xavier"
      std: 0.2
    }
    bias_filler {
      type: "constant"
      value: 0.2
    }
  }
}
layer {
  name: "inception_4d/relu_5x5_reduce"
  type: "ReLU"
  bottom: "inception_4d/5x5_reduce"
  top: "inception_4d/5x5_reduce"
}
layer {
  name: "inception_4d/5x5"
  type: "Convolution"
  bottom: "inception_4d/5x5_reduce"
  top: "inception_4d/5x5"
  param {
    lr_mult: 1
    decay_mult: 1
  }
  param {
    lr_mult: 2
    decay_mult: 0
  }
  convolution_param {
    num_output: 64
    pad: 2
    kernel_size: 5
    weight_filler {
      type: "xavier"
      std: 0.03
    }
    bias_filler {
      type: "constant"
      value: 0.2
    }
  }
}
layer {
  name: "inception_4d/relu_5x5"
  type: "ReLU"
  bottom: "inception_4d/5x5"
  top: "inception_4d/5x5"
}
layer {
  name: "inception_4d/pool"
  type: "Pooling"
  bottom: "inception_4c/output"
  top: "inception_4d/pool"
  pooling_param {
    pool: MAX
    kernel_size: 3
    stride: 1
    pad: 1
  }
}
layer {
  name: "inception_4d/pool_proj"
  type: "Convolution"
  bottom: "inception_4d/pool"
  top: "inception_4d/pool_proj"
  param {
    lr_mult: 1
    decay_mult: 1
  }
  param {
    lr_mult: 2
    decay_mult: 0
  }
  convolution_param {
    num_output: 64
    kernel_size: 1
    weight_filler {
      type: "xavier"
      std: 0.1
    }
    bias_filler {
      type: "constant"
      value: 0.2
    }
  }
}
layer {
  name: "inception_4d/relu_pool_proj"
  type: "ReLU"
  bottom: "inception_4d/pool_proj"
  top: "inception_4d/pool_proj"
}
layer {
  name: "inception_4d/output"
  type: "Concat"
  bottom: "inception_4d/1x1"
  bottom: "inception_4d/3x3"
  bottom: "inception_4d/5x5"
  bottom: "inception_4d/pool_proj"
  top: "inception_4d/output"
}
layer {
  name: "loss2/ave_pool"
  type: "Pooling"
  bottom: "inception_4d/output"
  top: "loss2/ave_pool"
  pooling_param {
    pool: AVE
    kernel_size: 5
    stride: 3
  }
}
layer {
  name: "loss2/conv"
  type: "Convolution"
  bottom: "loss2/ave_pool"
  top: "loss2/conv"
  param {
    lr_mult: 1
    decay_mult: 1
  }
  param {
    lr_mult: 2
    decay_mult: 0
  }
  convolution_param {
    num_output: 128
    kernel_size: 1
    weight_filler {
      type: "xavier"
      std: 0.08
    }
    bias_filler {
      type: "constant"
      value: 0.2
    }
  }
}
layer {
  name: "loss2/relu_conv"
  type: "ReLU"
  bottom: "loss2/conv"
  top: "loss2/conv"
}
layer {
  name: "loss2/fc"
  type: "InnerProduct"
  bottom: "loss2/conv"
  top: "loss2/fc"
  param {
    lr_mult: 1
    decay_mult: 1
  }
  param {
    lr_mult: 2
    decay_mult: 0
  }
  inner_product_param {
    num_output: 1024
    weight_filler {
      type: "xavier"
      std: 0.02
    }
    bias_filler {
      type: "constant"
      value: 0.2
    }
  }
}
layer {
  name: "loss2/relu_fc"
  type: "ReLU"
  bottom: "loss2/fc"
  top: "loss2/fc"
}
layer {
  name: "loss2/drop_fc"
  type: "Dropout"
  bottom: "loss2/fc"
  top: "loss2/fc"
  dropout_param {
    dropout_ratio: 0.7
  }
}
layer {
  name: "loss2/classifier_plantvillage"
  type: "InnerProduct"
  bottom: "loss2/fc"
  top: "loss2/classifier_plantvillage"
  param {
    lr_mult: 1
    decay_mult: 1
  }
  param {
    lr_mult: 2
    decay_mult: 0
  }
  inner_product_param {
    num_output: 38
    weight_filler {
      type: "xavier"
      std: 0.0009765625
    }
    bias_filler {
      type: "constant"
      value: 0
    }
  }
}
layer {
  name: "inception_4e/1x1"
  type: "Convolution"
  bottom: "inception_4d/output"
  top: "inception_4e/1x1"
  param {
    lr_mult: 1
    decay_mult: 1
  }
  param {
    lr_mult: 2
    decay_mult: 0
  }
  convolution_param {
    num_output: 256
    kernel_size: 1
    weight_filler {
      type: "xavier"
      std: 0.03
    }
    bias_filler {
      type: "constant"
      value: 0.2
    }
  }
}
layer {
  name: "inception_4e/relu_1x1"
  type: "ReLU"
  bottom: "inception_4e/1x1"
  top: "inception_4e/1x1"
}
layer {
  name: "inception_4e/3x3_reduce"
  type: "Convolution"
  bottom: "inception_4d/output"
  top: "inception_4e/3x3_reduce"
  param {
    lr_mult: 1
    decay_mult: 1
  }
  param {
    lr_mult: 2
    decay_mult: 0
  }
  convolution_param {
    num_output: 160
    kernel_size: 1
    weight_filler {
      type: "xavier"
      std: 0.09
    }
    bias_filler {
      type: "constant"
      value: 0.2
    }
  }
}
layer {
  name: "inception_4e/relu_3x3_reduce"
  type: "ReLU"
  bottom: "inception_4e/3x3_reduce"
  top: "inception_4e/3x3_reduce"
}
layer {
  name: "inception_4e/3x3"
  type: "Convolution"
  bottom: "inception_4e/3x3_reduce"
  top: "inception_4e/3x3"
  param {
    lr_mult: 1
    decay_mult: 1
  }
  param {
    lr_mult: 2
    decay_mult: 0
  }
  convolution_param {
    num_output: 320
    pad: 1
    kernel_size: 3
    weight_filler {
      type: "xavier"
      std: 0.03
    }
    bias_filler {
      type: "constant"
      value: 0.2
    }
  }
}
layer {
  name: "inception_4e/relu_3x3"
  type: "ReLU"
  bottom: "inception_4e/3x3"
  top: "inception_4e/3x3"
}
layer {
  name: "inception_4e/5x5_reduce"
  type: "Convolution"
  bottom: "inception_4d/output"
  top: "inception_4e/5x5_reduce"
  param {
    lr_mult: 1
    decay_mult: 1
  }
  param {
    lr_mult: 2
    decay_mult: 0
  }
  convolution_param {
    num_output: 32
    kernel_size: 1
    weight_filler {
      type: "xavier"
      std: 0.2
    }
    bias_filler {
      type: "constant"
      value: 0.2
    }
  }
}
layer {
  name: "inception_4e/relu_5x5_reduce"
  type: "ReLU"
  bottom: "inception_4e/5x5_reduce"
  top: "inception_4e/5x5_reduce"
}
layer {
  name: "inception_4e/5x5"
  type: "Convolution"
  bottom: "inception_4e/5x5_reduce"
  top: "inception_4e/5x5"
 
I0403 11:11:51.160677  7989 layer_factory.hpp:77] Creating layer data
I0403 11:11:51.161417  7989 net.cpp:91] Creating Layer data
I0403 11:11:51.161483  7989 net.cpp:399] data -> data
I0403 11:11:51.161573  7989 net.cpp:399] data -> label
I0403 11:11:51.161607  7989 data_transformer.cpp:25] Loading mean file from: /home/mohanty/data/final_dataset/lmdb/color-60-40/mean.binaryproto
I0403 11:11:51.288650  7992 db_lmdb.cpp:38] Opened lmdb /home/mohanty/data/final_dataset/lmdb/color-60-40/train_db
I0403 11:11:51.337242  7989 data_layer.cpp:41] output data size: 24,3,224,224
I0403 11:11:51.363867  7989 net.cpp:141] Setting up data
I0403 11:11:51.363981  7989 net.cpp:148] Top shape: 24 3 224 224 (3612672)
I0403 11:11:51.364003  7989 net.cpp:148] Top shape: 24 (24)
I0403 11:11:51.364019  7989 net.cpp:156] Memory required for data: 14450784
I0403 11:11:51.364069  7989 layer_factory.hpp:77] Creating layer label_data_1_split
I0403 11:11:51.364101  7989 net.cpp:91] Creating Layer label_data_1_split
I0403 11:11:51.364122  7989 net.cpp:425] label_data_1_split <- label
I0403 11:11:51.364152  7989 net.cpp:399] label_data_1_split -> label_data_1_split_0
I0403 11:11:51.364179  7989 net.cpp:399] label_data_1_split -> label_data_1_split_1
I0403 11:11:51.364199  7989 net.cpp:399] label_data_1_split -> label_data_1_split_2
I0403 11:11:51.364262  7989 net.cpp:141] Setting up label_data_1_split
I0403 11:11:51.364286  7989 net.cpp:148] Top shape: 24 (24)
I0403 11:11:51.364302  7989 net.cpp:148] Top shape: 24 (24)
I0403 11:11:51.364318  7989 net.cpp:148] Top shape: 24 (24)
I0403 11:11:51.364331  7989 net.cpp:156] Memory required for data: 14451072
I0403 11:11:51.364346  7989 layer_factory.hpp:77] Creating layer conv1/7x7_s2
I0403 11:11:51.364384  7989 net.cpp:91] Creating Layer conv1/7x7_s2
I0403 11:11:51.364404  7989 net.cpp:425] conv1/7x7_s2 <- data
I0403 11:11:51.364424  7989 net.cpp:399] conv1/7x7_s2 -> conv1/7x7_s2
I0403 11:11:51.365397  7989 net.cpp:141] Setting up conv1/7x7_s2
I0403 11:11:51.365424  7989 net.cpp:148] Top shape: 24 64 112 112 (19267584)
I0403 11:11:51.365439  7989 net.cpp:156] Memory required for data: 91521408
I0403 11:11:51.365491  7989 layer_factory.hpp:77] Creating layer conv1/relu_7x7
I0403 11:11:51.365530  7989 net.cpp:91] Creating Layer conv1/relu_7x7
I0403 11:11:51.365548  7989 net.cpp:425] conv1/relu_7x7 <- conv1/7x7_s2
I0403 11:11:51.365566  7989 net.cpp:386] conv1/relu_7x7 -> conv1/7x7_s2 (in-place)
I0403 11:11:51.365598  7989 net.cpp:141] Setting up conv1/relu_7x7
I0403 11:11:51.365618  7989 net.cpp:148] Top shape: 24 64 112 112 (19267584)
I0403 11:11:51.365633  7989 net.cpp:156] Memory required for data: 168591744
I0403 11:11:51.365646  7989 layer_factory.hpp:77] Creating layer pool1/3x3_s2
I0403 11:11:51.365679  7989 net.cpp:91] Creating Layer pool1/3x3_s2
I0403 11:11:51.365694  7989 net.cpp:425] pool1/3x3_s2 <- conv1/7x7_s2
I0403 11:11:51.365711  7989 net.cpp:399] pool1/3x3_s2 -> pool1/3x3_s2
I0403 11:11:51.365770  7989 net.cpp:141] Setting up pool1/3x3_s2
I0403 11:11:51.365793  7989 net.cpp:148] Top shape: 24 64 56 56 (4816896)
I0403 11:11:51.365808  7989 net.cpp:156] Memory required for data: 187859328
I0403 11:11:51.365823  7989 layer_factory.hpp:77] Creating layer pool1/norm1
I0403 11:11:51.365840  7989 net.cpp:91] Creating Layer pool1/norm1
I0403 11:11:51.365855  7989 net.cpp:425] pool1/norm1 <- pool1/3x3_s2
I0403 11:11:51.365874  7989 net.cpp:399] pool1/norm1 -> pool1/norm1
I0403 11:11:51.365921  7989 net.cpp:141] Setting up pool1/norm1
I0403 11:11:51.365942  7989 net.cpp:148] Top shape: 24 64 56 56 (4816896)
I0403 11:11:51.365957  7989 net.cpp:156] Memory required for data: 207126912
I0403 11:11:51.365970  7989 layer_factory.hpp:77] Creating layer conv2/3x3_reduce
I0403 11:11:51.365990  7989 net.cpp:91] Creating Layer conv2/3x3_reduce
I0403 11:11:51.366006  7989 net.cpp:425] conv2/3x3_reduce <- pool1/norm1
I0403 11:11:51.366025  7989 net.cpp:399] conv2/3x3_reduce -> conv2/3x3_reduce
I0403 11:11:51.368234  7989 net.cpp:141] Setting up conv2/3x3_reduce
I0403 11:11:51.368264  7989 net.cpp:148] Top shape: 24 64 56 56 (4816896)
I0403 11:11:51.368278  7989 net.cpp:156] Memory required for data: 226394496
I0403 11:11:51.368299  7989 layer_factory.hpp:77] Creating layer conv2/relu_3x3_reduce
I0403 11:11:51.368317  7989 net.cpp:91] Creating Layer conv2/relu_3x3_reduce
I0403 11:11:51.368332  7989 net.cpp:425] conv2/relu_3x3_reduce <- conv2/3x3_reduce
I0403 11:11:51.368350  7989 net.cpp:386] conv2/relu_3x3_reduce -> conv2/3x3_reduce (in-place)
I0403 11:11:51.368366  7989 net.cpp:141] Setting up conv2/relu_3x3_reduce
I0403 11:11:51.368388  7989 net.cpp:148] Top shape: 24 64 56 56 (4816896)
I0403 11:11:51.368402  7989 net.cpp:156] Memory required for data: 245662080
I0403 11:11:51.368417  7989 layer_factory.hpp:77] Creating layer conv2/3x3
I0403 11:11:51.368438  7989 net.cpp:91] Creating Layer conv2/3x3
I0403 11:11:51.368453  7989 net.cpp:425] conv2/3x3 <- conv2/3x3_reduce
I0403 11:11:51.368489  7989 net.cpp:399] conv2/3x3 -> conv2/3x3
I0403 11:11:51.369851  7993 blocking_queue.cpp:50] Waiting for data
I0403 11:11:51.370010  7989 net.cpp:141] Setting up conv2/3x3
I0403 11:11:51.370039  7989 net.cpp:148] Top shape: 24 192 56 56 (14450688)
I0403 11:11:51.370055  7989 net.cpp:156] Memory required for data: 303464832
I0403 11:11:51.370075  7989 layer_factory.hpp:77] Creating layer conv2/relu_3x3
I0403 11:11:51.370095  7989 net.cpp:91] Creating Layer conv2/relu_3x3
I0403 11:11:51.370111  7989 net.cpp:425] conv2/relu_3x3 <- conv2/3x3
I0403 11:11:51.370128  7989 net.cpp:386] conv2/relu_3x3 -> conv2/3x3 (in-place)
I0403 11:11:51.370146  7989 net.cpp:141] Setting up conv2/relu_3x3
I0403 11:11:51.370163  7989 net.cpp:148] Top shape: 24 192 56 56 (14450688)
I0403 11:11:51.370177  7989 net.cpp:156] Memory required for data: 361267584
I0403 11:11:51.370189  7989 layer_factory.hpp:77] Creating layer conv2/norm2
I0403 11:11:51.370206  7989 net.cpp:91] Creating Layer conv2/norm2
I0403 11:11:51.370221  7989 net.cpp:425] conv2/norm2 <- conv2/3x3
I0403 11:11:51.370239  7989 net.cpp:399] conv2/norm2 -> conv2/norm2
I0403 11:11:51.370281  7989 net.cpp:141] Setting up conv2/norm2
I0403 11:11:51.370302  7989 net.cpp:148] Top shape: 24 192 56 56 (14450688)
I0403 11:11:51.370316  7989 net.cpp:156] Memory required for data: 419070336
I0403 11:11:51.370331  7989 layer_factory.hpp:77] Creating layer pool2/3x3_s2
I0403 11:11:51.370347  7989 net.cpp:91] Creating Layer pool2/3x3_s2
I0403 11:11:51.370362  7989 net.cpp:425] pool2/3x3_s2 <- conv2/norm2
I0403 11:11:51.370396  7989 net.cpp:399] pool2/3x3_s2 -> pool2/3x3_s2
I0403 11:11:51.370441  7989 net.cpp:141] Setting up pool2/3x3_s2
I0403 11:11:51.370462  7989 net.cpp:148] Top shape: 24 192 28 28 (3612672)
I0403 11:11:51.370477  7989 net.cpp:156] Memory required for data: 433521024
I0403 11:11:51.370491  7989 layer_factory.hpp:77] Creating layer pool2/3x3_s2_pool2/3x3_s2_0_split
I0403 11:11:51.370509  7989 net.cpp:91] Creating Layer pool2/3x3_s2_pool2/3x3_s2_0_split
I0403 11:11:51.370525  7989 net.cpp:425] pool2/3x3_s2_pool2/3x3_s2_0_split <- pool2/3x3_s2
I0403 11:11:51.370543  7989 net.cpp:399] pool2/3x3_s2_pool2/3x3_s2_0_split -> pool2/3x3_s2_pool2/3x3_s2_0_split_0
I0403 11:11:51.370563  7989 net.cpp:399] pool2/3x3_s2_pool2/3x3_s2_0_split -> pool2/3x3_s2_pool2/3x3_s2_0_split_1
I0403 11:11:51.370582  7989 net.cpp:399] pool2/3x3_s2_pool2/3x3_s2_0_split -> pool2/3x3_s2_pool2/3x3_s2_0_split_2
I0403 11:11:51.370601  7989 net.cpp:399] pool2/3x3_s2_pool2/3x3_s2_0_split -> pool2/3x3_s2_pool2/3x3_s2_0_split_3
I0403 11:11:51.370682  7989 net.cpp:141] Setting up pool2/3x3_s2_pool2/3x3_s2_0_split
I0403 11:11:51.370702  7989 net.cpp:148] Top shape: 24 192 28 28 (3612672)
I0403 11:11:51.370718  7989 net.cpp:148] Top shape: 24 192 28 28 (3612672)
I0403 11:11:51.370731  7989 net.cpp:148] Top shape: 24 192 28 28 (3612672)
I0403 11:11:51.370746  7989 net.cpp:148] Top shape: 24 192 28 28 (3612672)
I0403 11:11:51.370759  7989 net.cpp:156] Memory required for data: 491323776
I0403 11:11:51.370772  7989 layer_factory.hpp:77] Creating layer inception_3a/1x1
I0403 11:11:51.370792  7989 net.cpp:91] Creating Layer inception_3a/1x1
I0403 11:11:51.370808  7989 net.cpp:425] inception_3a/1x1 <- pool2/3x3_s2_pool2/3x3_s2_0_split_0
I0403 11:11:51.370827  7989 net.cpp:399] inception_3a/1x1 -> inception_3a/1x1
I0403 11:11:51.372192  7989 net.cpp:141] Setting up inception_3a/1x1
I0403 11:11:51.372220  7989 net.cpp:148] Top shape: 24 64 28 28 (1204224)
I0403 11:11:51.372234  7989 net.cpp:156] Memory required for data: 496140672
I0403 11:11:51.372252  7989 layer_factory.hpp:77] Creating layer inception_3a/relu_1x1
I0403 11:11:51.372270  7989 net.cpp:91] Creating Layer inception_3a/relu_1x1
I0403 11:11:51.372285  7989 net.cpp:425] inception_3a/relu_1x1 <- inception_3a/1x1
I0403 11:11:51.372301  7989 net.cpp:386] inception_3a/relu_1x1 -> inception_3a/1x1 (in-place)
I0403 11:11:51.372320  7989 net.cpp:141] Setting up inception_3a/relu_1x1
I0403 11:11:51.372344  7989 net.cpp:148] Top shape: 24 64 28 28 (1204224)
I0403 11:11:51.372373  7989 net.cpp:156] Memory required for data: 500957568
I0403 11:11:51.372400  7989 layer_factory.hpp:77] Creating layer inception_3a/3x3_reduce
I0403 11:11:51.372421  7989 net.cpp:91] Creating Layer inception_3a/3x3_reduce
I0403 11:11:51.372437  7989 net.cpp:425] inception_3a/3x3_reduce <- pool2/3x3_s2_pool2/3x3_s2_0_split_1
I0403 11:11:51.372457  7989 net.cpp:399] inception_3a/3x3_reduce -> inception_3a/3x3_reduce
I0403 11:11:51.373253  7989 net.cpp:141] Setting up inception_3a/3x3_reduce
I0403 11:11:51.373282  7989 net.cpp:148] Top shape: 24 96 28 28 (1806336)
I0403 11:11:51.373298  7989 net.cpp:156] Memory required for data: 508182912
I0403 11:11:51.373332  7989 layer_factory.hpp:77] Creating layer inception_3a/relu_3x3_reduce
I0403 11:11:51.373352  7989 net.cpp:91] Creating Layer inception_3a/relu_3x3_reduce
I0403 11:11:51.373369  7989 net.cpp:425] inception_3a/relu_3x3_reduce <- inception_3a/3x3_reduce
I0403 11:11:51.373404  7989 net.cpp:386] inception_3a/relu_3x3_reduce -> inception_3a/3x3_reduce (in-place)
I0403 11:11:51.373423  7989 net.cpp:141] Setting up inception_3a/relu_3x3_reduce
I0403 11:11:51.373441  7989 net.cpp:148] Top shape: 24 96 28 28 (1806336)
I0403 11:11:51.373456  7989 net.cpp:156] Memory required for data: 515408256
I0403 11:11:51.373469  7989 layer_factory.hpp:77] Creating layer inception_3a/3x3
I0403 11:11:51.373492  7989 net.cpp:91] Creating Layer inception_3a/3x3
I0403 11:11:51.373512  7989 net.cpp:425] inception_3a/3x3 <- inception_3a/3x3_reduce
I0403 11:11:51.373533  7989 net.cpp:399] inception_3a/3x3 -> inception_3a/3x3
I0403 11:11:51.374311  7989 net.cpp:141] Setting up inception_3a/3x3
I0403 11:11:51.374349  7989 net.cpp:148] Top shape: 24 128 28 28 (2408448)
I0403 11:11:51.374363  7989 net.cpp:156] Memory required for data: 525042048
I0403 11:11:51.374384  7989 layer_factory.hpp:77] Creating layer inception_3a/relu_3x3
I0403 11:11:51.374407  7989 net.cpp:91] Creating Layer inception_3a/relu_3x3
I0403 11:11:51.374423  7989 net.cpp:425] inception_3a/relu_3x3 <- inception_3a/3x3
I0403 11:11:51.374440  7989 net.cpp:386] inception_3a/relu_3x3 -> inception_3a/3x3 (in-place)
I0403 11:11:51.374459  7989 net.cpp:141] Setting up inception_3a/relu_3x3
I0403 11:11:51.374475  7989 net.cpp:148] Top shape: 24 128 28 28 (2408448)
I0403 11:11:51.374488  7989 net.cpp:156] Memory required for data: 534675840
I0403 11:11:51.374502  7989 layer_factory.hpp:77] Creating layer inception_3a/5x5_reduce
I0403 11:11:51.374524  7989 net.cpp:91] Creating Layer inception_3a/5x5_reduce
I0403 11:11:51.374542  7989 net.cpp:425] inception_3a/5x5_reduce <- pool2/3x3_s2_pool2/3x3_s2_0_split_2
I0403 11:11:51.374562  7989 net.cpp:399] inception_3a/5x5_reduce -> inception_3a/5x5_reduce
I0403 11:11:51.374786  7989 net.cpp:141] Setting up inception_3a/5x5_reduce
I0403 11:11:51.374809  7989 net.cpp:148] Top shape: 24 16 28 28 (301056)
I0403 11:11:51.374825  7989 net.cpp:156] Memory required for data: 535880064
I0403 11:11:51.374841  7989 layer_factory.hpp:77] Creating layer inception_3a/relu_5x5_reduce
I0403 11:11:51.374858  7989 net.cpp:91] Creating Layer inception_3a/relu_5x5_reduce
I0403 11:11:51.374874  7989 net.cpp:425] inception_3a/relu_5x5_reduce <- inception_3a/5x5_reduce
I0403 11:11:51.374891  7989 net.cpp:386] inception_3a/relu_5x5_reduce -> inception_3a/5x5_reduce (in-place)
I0403 11:11:51.374908  7989 net.cpp:141] Setting up inception_3a/relu_5x5_reduce
I0403 11:11:51.374923  7989 net.cpp:148] Top shape: 24 16 28 28 (301056)
I0403 11:11:51.374938  7989 net.cpp:156] Memory required for data: 537084288
I0403 11:11:51.374950  7989 layer_factory.hpp:77] Creating layer inception_3a/5x5
I0403 11:11:51.374972  7989 net.cpp:91] Creating Layer inception_3a/5x5
I0403 11:11:51.374989  7989 net.cpp:425] inception_3a/5x5 <- inception_3a/5x5_reduce
I0403 11:11:51.375008  7989 net.cpp:399] inception_3a/5x5 -> inception_3a/5x5
I0403 11:11:51.375269  7989 net.cpp:141] Setting up inception_3a/5x5
I0403 11:11:51.375293  7989 net.cpp:148] Top shape: 24 32 28 28 (602112)
I0403 11:11:51.375332  7989 net.cpp:156] Memory required for data: 539492736
I0403 11:11:51.375350  7989 layer_factory.hpp:77] Creating layer inception_3a/relu_5x5
I0403 11:11:51.375370  7989 net.cpp:91] Creating Layer inception_3a/relu_5x5
I0403 11:11:51.375390  7989 net.cpp:425] inception_3a/relu_5x5 <- inception_3a/5x5
I0403 11:11:51.375407  7989 net.cpp:386] inception_3a/relu_5x5 -> inception_3a/5x5 (in-place)
I0403 11:11:51.375428  7989 net.cpp:141] Setting up inception_3a/relu_5x5
I0403 11:11:51.375447  7989 net.cpp:148] Top shape: 24 32 28 28 (602112)
I0403 11:11:51.375460  7989 net.cpp:156] Memory required for data: 541901184
I0403 11:11:51.375474  7989 layer_factory.hpp:77] Creating layer inception_3a/pool
I0403 11:11:51.375491  7989 net.cpp:91] Creating Layer inception_3a/pool
I0403 11:11:51.375506  7989 net.cpp:425] inception_3a/pool <- pool2/3x3_s2_pool2/3x3_s2_0_split_3
I0403 11:11:51.375522  7989 net.cpp:399] inception_3a/pool -> inception_3a/pool
I0403 11:11:51.375572  7989 net.cpp:141] Setting up inception_3a/pool
I0403 11:11:51.375594  7989 net.cpp:148] Top shape: 24 192 28 28 (3612672)
I0403 11:11:51.375620  7989 net.cpp:156] Memory required for data: 556351872
I0403 11:11:51.375633  7989 layer_factory.hpp:77] Creating layer inception_3a/pool_proj
I0403 11:11:51.375655  7989 net.cpp:91] Creating Layer inception_3a/pool_proj
I0403 11:11:51.375672  7989 net.cpp:425] inception_3a/pool_proj <- inception_3a/pool
I0403 11:11:51.375694  7989 net.cpp:399] inception_3a/pool_proj -> inception_3a/pool_proj
I0403 11:11:51.375906  7989 net.cpp:141] Setting up inception_3a/pool_proj
I0403 11:11:51.375931  7989 net.cpp:148] Top shape: 24 32 28 28 (602112)
I0403 11:11:51.375944  7989 net.cpp:156] Memory required for data: 558760320
I0403 11:11:51.375965  7989 layer_factory.hpp:77] Creating layer inception_3a/relu_pool_proj
I0403 11:11:51.375984  7989 net.cpp:91] Creating Layer inception_3a/relu_pool_proj
I0403 11:11:51.375999  7989 net.cpp:425] inception_3a/relu_pool_proj <- inception_3a/pool_proj
I0403 11:11:51.376019  7989 net.cpp:386] inception_3a/relu_pool_proj -> inception_3a/pool_proj (in-place)
I0403 11:11:51.376037  7989 net.cpp:141] Setting up inception_3a/relu_pool_proj
I0403 11:11:51.376055  7989 net.cpp:148] Top shape: 24 32 28 28 (602112)
I0403 11:11:51.376068  7989 net.cpp:156] Memory required for data: 561168768
I0403 11:11:51.376081  7989 layer_factory.hpp:77] Creating layer inception_3a/output
I0403 11:11:51.376097  7989 net.cpp:91] Creating Layer inception_3a/output
I0403 11:11:51.376112  7989 net.cpp:425] inception_3a/output <- inception_3a/1x1
I0403 11:11:51.376127  7989 net.cpp:425] inception_3a/output <- inception_3a/3x3
I0403 11:11:51.376142  7989 net.cpp:425] inception_3a/output <- inception_3a/5x5
I0403 11:11:51.376157  7989 net.cpp:425] inception_3a/output <- inception_3a/pool_proj
I0403 11:11:51.376173  7989 net.cpp:399] inception_3a/output -> inception_3a/output
I0403 11:11:51.376214  7989 net.cpp:141] Setting up inception_3a/output
I0403 11:11:51.376237  7989 net.cpp:148] Top shape: 24 256 28 28 (4816896)
I0403 11:11:51.376251  7989 net.cpp:156] Memory required for data: 580436352
I0403 11:11:51.376265  7989 layer_factory.hpp:77] Creating layer inception_3a/output_inception_3a/output_0_split
I0403 11:11:51.376281  7989 net.cpp:91] Creating Layer inception_3a/output_inception_3a/output_0_split
I0403 11:11:51.376296  7989 net.cpp:425] inception_3a/output_inception_3a/output_0_split <- inception_3a/output
I0403 11:11:51.376314  7989 net.cpp:399] inception_3a/output_inception_3a/output_0_split -> inception_3a/output_inception_3a/output_0_split_0
I0403 11:11:51.376348  7989 net.cpp:399] inception_3a/output_inception_3a/output_0_split -> inception_3a/output_inception_3a/output_0_split_1
I0403 11:11:51.376366  7989 net.cpp:399] inception_3a/output_inception_3a/output_0_split -> inception_3a/output_inception_3a/output_0_split_2
I0403 11:11:51.376391  7989 net.cpp:399] inception_3a/output_inception_3a/output_0_split -> inception_3a/output_inception_3a/output_0_split_3
I0403 11:11:51.376456  7989 net.cpp:141] Setting up inception_3a/output_inception_3a/output_0_split
I0403 11:11:51.376489  7989 net.cpp:148] Top shape: 24 256 28 28 (4816896)
I0403 11:11:51.376507  7989 net.cpp:148] Top shape: 24 256 28 28 (4816896)
I0403 11:11:51.376523  7989 net.cpp:148] Top shape: 24 256 28 28 (4816896)
I0403 11:11:51.376538  7989 net.cpp:148] Top shape: 24 256 28 28 (4816896)
I0403 11:11:51.376551  7989 net.cpp:156] Memory required for data: 657506688
I0403 11:11:51.376566  7989 layer_factory.hpp:77] Creating layer inception_3b/1x1
I0403 11:11:51.376588  7989 net.cpp:91] Creating Layer inception_3b/1x1
I0403 11:11:51.376605  7989 net.cpp:425] inception_3b/1x1 <- inception_3a/output_inception_3a/output_0_split_0
I0403 11:11:51.376636  7989 net.cpp:399] inception_3b/1x1 -> inception_3b/1x1
I0403 11:11:51.376982  7989 net.cpp:141] Setting up inception_3b/1x1
I0403 11:11:51.377007  7989 net.cpp:148] Top shape: 24 128 28 28 (2408448)
I0403 11:11:51.377020  7989 net.cpp:156] Memory required for data: 667140480
I0403 11:11:51.377038  7989 layer_factory.hpp:77] Creating layer inception_3b/relu_1x1
I0403 11:11:51.377054  7989 net.cpp:91] Creating Layer inception_3b/relu_1x1
I0403 11:11:51.377069  7989 net.cpp:425] inception_3b/relu_1x1 <- inception_3b/1x1
I0403 11:11:51.377085  7989 net.cpp:386] inception_3b/relu_1x1 -> inception_3b/1x1 (in-place)
I0403 11:11:51.377105  7989 net.cpp:141] Setting up inception_3b/relu_1x1
I0403 11:11:51.377122  7989 net.cpp:148] Top shape: 24 128 28 28 (2408448)
I0403 11:11:51.377135  7989 net.cpp:156] Memory required for data: 676774272
I0403 11:11:51.377148  7989 layer_factory.hpp:77] Creating layer inception_3b/3x3_reduce
I0403 11:11:51.377169  7989 net.cpp:91] Creating Layer inception_3b/3x3_reduce
I0403 11:11:51.377187  7989 net.cpp:425] inception_3b/3x3_reduce <- inception_3a/output_inception_3a/output_0_split_1
I0403 11:11:51.377212  7989 net.cpp:399] inception_3b/3x3_reduce -> inception_3b/3x3_reduce
I0403 11:11:51.377619  7989 net.cpp:141] Setting up inception_3b/3x3_reduce
I0403 11:11:51.377645  7989 net.cpp:148] Top shape: 24 128 28 28 (2408448)
I0403 11:11:51.377660  7989 net.cpp:156] Memory required for data: 686408064
I0403 11:11:51.377687  7989 layer_factory.hpp:77] Creating layer inception_3b/relu_3x3_reduce
I0403 11:11:51.377707  7989 net.cpp:91] Creating Layer inception_3b/relu_3x3_reduce
I0403 11:11:51.377724  7989 net.cpp:425] inception_3b/relu_3x3_reduce <- inception_3b/3x3_reduce
I0403 11:11:51.377742  7989 net.cpp:386] inception_3b/relu_3x3_reduce -> inception_3b/3x3_reduce (in-place)
I0403 11:11:51.377758  7989 net.cpp:141] Setting up inception_3b/relu_3x3_reduce
I0403 11:11:51.377774  7989 net.cpp:148] Top shape: 24 128 28 28 (2408448)
I0403 11:11:51.377787  7989 net.cpp:156] Memory required for data: 696041856
I0403 11:11:51.377799  7989 layer_factory.hpp:77] Creating layer inception_3b/3x3
I0403 11:11:51.377825  7989 net.cpp:91] Creating Layer inception_3b/3x3
I0403 11:11:51.377843  7989 net.cpp:425] inception_3b/3x3 <- inception_3b/3x3_reduce
I0403 11:11:51.377861  7989 net.cpp:399] inception_3b/3x3 -> inception_3b/3x3
I0403 11:11:51.380133  7989 net.cpp:141] Setting up inception_3b/3x3
I0403 11:11:51.380161  7989 net.cpp:148] Top shape: 24 192 28 28 (3612672)
I0403 11:11:51.380174  7989 net.cpp:156] Memory required for data: 710492544
I0403 11:11:51.380192  7989 layer_factory.hpp:77] Creating layer inception_3b/relu_3x3
I0403 11:11:51.380209  7989 net.cpp:91] Creating Layer inception_3b/relu_3x3
I0403 11:11:51.380225  7989 net.cpp:425] inception_3b/relu_3x3 <- inception_3b/3x3
I0403 11:11:51.380244  7989 net.cpp:386] inception_3b/relu_3x3 -> inception_3b/3x3 (in-place)
I0403 11:11:51.380264  7989 net.cpp:141] Setting up inception_3b/relu_3x3
I0403 11:11:51.380278  7989 net.cpp:148] Top shape: 24 192 28 28 (3612672)
I0403 11:11:51.380291  7989 net.cpp:156] Memory required for data: 724943232
I0403 11:11:51.380306  7989 layer_factory.hpp:77] Creating layer inception_3b/5x5_reduce
I0403 11:11:51.380324  7989 net.cpp:91] Creating Layer inception_3b/5x5_reduce
I0403 11:11:51.380341  7989 net.cpp:425] inception_3b/5x5_reduce <- inception_3a/output_inception_3a/output_0_split_2
I0403 11:11:51.380378  7989 net.cpp:399] inception_3b/5x5_reduce -> inception_3b/5x5_reduce
I0403 11:11:51.380620  7989 net.cpp:141] Setting up inception_3b/5x5_reduce
I0403 11:11:51.380642  7989 net.cpp:148] Top shape: 24 32 28 28 (602112)
I0403 11:11:51.380657  7989 net.cpp:156] Memory required for data: 727351680
I0403 11:11:51.380673  7989 layer_factory.hpp:77] Creating layer inception_3b/relu_5x5_reduce
I0403 11:11:51.380692  7989 net.cpp:91] Creating Layer inception_3b/relu_5x5_reduce
I0403 11:11:51.380707  7989 net.cpp:425] inception_3b/relu_5x5_reduce <- inception_3b/5x5_reduce
I0403 11:11:51.380722  7989 net.cpp:386] inception_3b/relu_5x5_reduce -> inception_3b/5x5_reduce (in-place)
I0403 11:11:51.380740  7989 net.cpp:141] Setting up inception_3b/relu_5x5_reduce
I0403 11:11:51.380756  7989 net.cpp:148] Top shape: 24 32 28 28 (602112)
I0403 11:11:51.380769  7989 net.cpp:156] Memory required for data: 729760128
I0403 11:11:51.380784  7989 layer_factory.hpp:77] Creating layer inception_3b/5x5
I0403 11:11:51.380805  7989 net.cpp:91] Creating Layer inception_3b/5x5
I0403 11:11:51.380820  7989 net.cpp:425] inception_3b/5x5 <- inception_3b/5x5_reduce
I0403 11:11:51.380841  7989 net.cpp:399] inception_3b/5x5 -> inception_3b/5x5
I0403 11:11:51.383190  7989 net.cpp:141] Setting up inception_3b/5x5
I0403 11:11:51.383226  7989 net.cpp:148] Top shape: 24 96 28 28 (1806336)
I0403 11:11:51.383242  7989 net.cpp:156] Memory required for data: 736985472
I0403 11:11:51.383261  7989 layer_factory.hpp:77] Creating layer inception_3b/relu_5x5
I0403 11:11:51.383280  7989 net.cpp:91] Creating Layer inception_3b/relu_5x5
I0403 11:11:51.383294  7989 net.cpp:425] inception_3b/relu_5x5 <- inception_3b/5x5
I0403 11:11:51.383314  7989 net.cpp:386] inception_3b/relu_5x5 -> inception_3b/5x5 (in-place)
I0403 11:11:51.383334  7989 net.cpp:141] Setting up inception_3b/relu_5x5
I0403 11:11:51.383352  7989 net.cpp:148] Top shape: 24 96 28 28 (1806336)
I0403 11:11:51.383365  7989 net.cpp:156] Memory required for data: 744210816
I0403 11:11:51.383383  7989 layer_factory.hpp:77] Creating layer inception_3b/pool
I0403 11:11:51.383401  7989 net.cpp:91] Creating Layer inception_3b/pool
I0403 11:11:51.383416  7989 net.cpp:425] inception_3b/pool <- inception_3a/output_inception_3a/output_0_split_3
I0403 11:11:51.383437  7989 net.cpp:399] inception_3b/pool -> inception_3b/pool
I0403 11:11:51.383486  7989 net.cpp:141] Setting up inception_3b/pool
I0403 11:11:51.383510  7989 net.cpp:148] Top shape: 24 256 28 28 (4816896)
I0403 11:11:51.383524  7989 net.cpp:156] Memory required for data: 763478400
I0403 11:11:51.383538  7989 layer_factory.hpp:77] Creating layer inception_3b/pool_proj
I0403 11:11:51.383558  7989 net.cpp:91] Creating Layer inception_3b/pool_proj
I0403 11:11:51.383575  7989 net.cpp:425] inception_3b/pool_proj <- inception_3b/pool
I0403 11:11:51.383596  7989 net.cpp:399] inception_3b/pool_proj -> inception_3b/pool_proj
I0403 11:11:51.383872  7989 net.cpp:141] Setting up inception_3b/pool_proj
I0403 11:11:51.383896  7989 net.cpp:148] Top shape: 24 64 28 28 (1204224)
I0403 11:11:51.383911  7989 net.cpp:156] Memory required for data: 768295296
I0403 11:11:51.383927  7989 layer_factory.hpp:77] Creating layer inception_3b/relu_pool_proj
I0403 11:11:51.383945  7989 net.cpp:91] Creating Layer inception_3b/relu_pool_proj
I0403 11:11:51.383960  7989 net.cpp:425] inception_3b/relu_pool_proj <- inception_3b/pool_proj
I0403 11:11:51.383978  7989 net.cpp:386] inception_3b/relu_pool_proj -> inception_3b/pool_proj (in-place)
I0403 11:11:51.383997  7989 net.cpp:141] Setting up inception_3b/relu_pool_proj
I0403 11:11:51.384013  7989 net.cpp:148] Top shape: 24 64 28 28 (1204224)
I0403 11:11:51.384027  7989 net.cpp:156] Memory required for data: 773112192
I0403 11:11:51.384040  7989 layer_factory.hpp:77] Creating layer inception_3b/output
I0403 11:11:51.384060  7989 net.cpp:91] Creating Layer inception_3b/output
I0403 11:11:51.384078  7989 net.cpp:425] inception_3b/output <- inception_3b/1x1
I0403 11:11:51.384112  7989 net.cpp:425] inception_3b/output <- inception_3b/3x3
I0403 11:11:51.384130  7989 net.cpp:425] inception_3b/output <- inception_3b/5x5
I0403 11:11:51.384145  7989 net.cpp:425] inception_3b/output <- inception_3b/pool_proj
I0403 11:11:51.384161  7989 net.cpp:399] inception_3b/output -> inception_3b/output
I0403 11:11:51.384198  7989 net.cpp:141] Setting up inception_3b/output
I0403 11:11:51.384219  7989 net.cpp:148] Top shape: 24 480 28 28 (9031680)
I0403 11:11:51.384233  7989 net.cpp:156] Memory required for data: 809238912
I0403 11:11:51.384248  7989 layer_factory.hpp:77] Creating layer pool3/3x3_s2
I0403 11:11:51.384264  7989 net.cpp:91] Creating Layer pool3/3x3_s2
I0403 11:11:51.384279  7989 net.cpp:425] pool3/3x3_s2 <- inception_3b/output
I0403 11:11:51.384299  7989 net.cpp:399] pool3/3x3_s2 -> pool3/3x3_s2
I0403 11:11:51.384344  7989 net.cpp:141] Setting up pool3/3x3_s2
I0403 11:11:51.384366  7989 net.cpp:148] Top shape: 24 480 14 14 (2257920)
I0403 11:11:51.384400  7989 net.cpp:156] Memory required for data: 818270592
I0403 11:11:51.384416  7989 layer_factory.hpp:77] Creating layer pool3/3x3_s2_pool3/3x3_s2_0_split
I0403 11:11:51.384445  7989 net.cpp:91] Creating Layer pool3/3x3_s2_pool3/3x3_s2_0_split
I0403 11:11:51.384461  7989 net.cpp:425] pool3/3x3_s2_pool3/3x3_s2_0_split <- pool3/3x3_s2
I0403 11:11:51.384479  7989 net.cpp:399] pool3/3x3_s2_pool3/3x3_s2_0_split -> pool3/3x3_s2_pool3/3x3_s2_0_split_0
I0403 11:11:51.384501  7989 net.cpp:399] pool3/3x3_s2_pool3/3x3_s2_0_split -> pool3/3x3_s2_pool3/3x3_s2_0_split_1
I0403 11:11:51.384521  7989 net.cpp:399] pool3/3x3_s2_pool3/3x3_s2_0_split -> pool3/3x3_s2_pool3/3x3_s2_0_split_2
I0403 11:11:51.384541  7989 net.cpp:399] pool3/3x3_s2_pool3/3x3_s2_0_split -> pool3/3x3_s2_pool3/3x3_s2_0_split_3
I0403 11:11:51.384600  7989 net.cpp:141] Setting up pool3/3x3_s2_pool3/3x3_s2_0_split
I0403 11:11:51.384621  7989 net.cpp:148] Top shape: 24 480 14 14 (2257920)
I0403 11:11:51.384637  7989 net.cpp:148] Top shape: 24 480 14 14 (2257920)
I0403 11:11:51.384652  7989 net.cpp:148] Top shape: 24 480 14 14 (2257920)
I0403 11:11:51.384680  7989 net.cpp:148] Top shape: 24 480 14 14 (2257920)
I0403 11:11:51.384692  7989 net.cpp:156] Memory required for data: 854397312
I0403 11:11:51.384706  7989 layer_factory.hpp:77] Creating layer inception_4a/1x1
I0403 11:11:51.384727  7989 net.cpp:91] Creating Layer inception_4a/1x1
I0403 11:11:51.384744  7989 net.cpp:425] inception_4a/1x1 <- pool3/3x3_s2_pool3/3x3_s2_0_split_0
I0403 11:11:51.384768  7989 net.cpp:399] inception_4a/1x1 -> inception_4a/1x1
I0403 11:11:51.385442  7989 net.cpp:141] Setting up inception_4a/1x1
I0403 11:11:51.385468  7989 net.cpp:148] Top shape: 24 192 14 14 (903168)
I0403 11:11:51.385484  7989 net.cpp:156] Memory required for data: 858009984
I0403 11:11:51.385502  7989 layer_factory.hpp:77] Creating layer inception_4a/relu_1x1
I0403 11:11:51.385521  7989 net.cpp:91] Creating Layer inception_4a/relu_1x1
I0403 11:11:51.385537  7989 net.cpp:425] inception_4a/relu_1x1 <- inception_4a/1x1
I0403 11:11:51.385555  7989 net.cpp:386] inception_4a/relu_1x1 -> inception_4a/1x1 (in-place)
I0403 11:11:51.385573  7989 net.cpp:141] Setting up inception_4a/relu_1x1
I0403 11:11:51.385591  7989 net.cpp:148] Top shape: 24 192 14 14 (903168)
I0403 11:11:51.385604  7989 net.cpp:156] Memory required for data: 861622656
I0403 11:11:51.385617  7989 layer_factory.hpp:77] Creating layer inception_4a/3x3_reduce
I0403 11:11:51.385640  7989 net.cpp:91] Creating Layer inception_4a/3x3_reduce
I0403 11:11:51.385658  7989 net.cpp:425] inception_4a/3x3_reduce <- pool3/3x3_s2_pool3/3x3_s2_0_split_1
I0403 11:11:51.385694  7989 net.cpp:399] inception_4a/3x3_reduce -> inception_4a/3x3_reduce
I0403 11:11:51.386127  7989 net.cpp:141] Setting up inception_4a/3x3_reduce
I0403 11:11:51.386152  7989 net.cpp:148] Top shape: 24 96 14 14 (451584)
I0403 11:11:51.386168  7989 net.cpp:156] Memory required for data: 863428992
I0403 11:11:51.386190  7989 layer_factory.hpp:77] Creating layer inception_4a/relu_3x3_reduce
I0403 11:11:51.386210  7989 net.cpp:91] Creating Layer inception_4a/relu_3x3_reduce
I0403 11:11:51.386240  7989 net.cpp:425] inception_4a/relu_3x3_reduce <- inception_4a/3x3_reduce
I0403 11:11:51.386260  7989 net.cpp:386] inception_4a/relu_3x3_reduce -> inception_4a/3x3_reduce (in-place)
I0403 11:11:51.386278  7989 net.cpp:141] Setting up inception_4a/relu_3x3_reduce
I0403 11:11:51.386294  7989 net.cpp:148] Top shape: 24 96 14 14 (451584)
I0403 11:11:51.386308  7989 net.cpp:156] Memory required for data: 865235328
I0403 11:11:51.386322  7989 layer_factory.hpp:77] Creating layer inception_4a/3x3
I0403 11:11:51.386343  7989 net.cpp:91] Creating Layer inception_4a/3x3
I0403 11:11:51.386359  7989 net.cpp:425] inception_4a/3x3 <- inception_4a/3x3_reduce
I0403 11:11:51.386385  7989 net.cpp:399] inception_4a/3x3 -> inception_4a/3x3
I0403 11:11:51.388053  7989 net.cpp:141] Setting up inception_4a/3x3
I0403 11:11:51.388083  7989 net.cpp:148] Top shape: 24 208 14 14 (978432)
I0403 11:11:51.388099  7989 net.cpp:156] Memory required for data: 869149056
I0403 11:11:51.388118  7989 layer_factory.hpp:77] Creating layer inception_4a/relu_3x3
I0403 11:11:51.388135  7989 net.cpp:91] Creating Layer inception_4a/relu_3x3
I0403 11:11:51.388152  7989 net.cpp:425] inception_4a/relu_3x3 <- inception_4a/3x3
I0403 11:11:51.388170  7989 net.cpp:386] inception_4a/relu_3x3 -> inception_4a/3x3 (in-place)
I0403 11:11:51.388187  7989 net.cpp:141] Setting up inception_4a/relu_3x3
I0403 11:11:51.388205  7989 net.cpp:148] Top shape: 24 208 14 14 (978432)
I0403 11:11:51.388218  7989 net.cpp:156] Memory required for data: 873062784
I0403 11:11:51.388232  7989 layer_factory.hpp:77] Creating layer inception_4a/5x5_reduce
I0403 11:11:51.388253  7989 net.cpp:91] Creating Layer inception_4a/5x5_reduce
I0403 11:11:51.388272  7989 net.cpp:425] inception_4a/5x5_reduce <- pool3/3x3_s2_pool3/3x3_s2_0_split_2
I0403 11:11:51.388293  7989 net.cpp:399] inception_4a/5x5_reduce -> inception_4a/5x5_reduce
I0403 11:11:51.388531  7989 net.cpp:141] Setting up inception_4a/5x5_reduce
I0403 11:11:51.388556  7989 net.cpp:148] Top shape: 24 16 14 14 (75264)
I0403 11:11:51.388571  7989 net.cpp:156] Memory required for data: 873363840
I0403 11:11:51.388587  7989 layer_factory.hpp:77] Creating layer inception_4a/relu_5x5_reduce
I0403 11:11:51.388607  7989 net.cpp:91] Creating Layer inception_4a/relu_5x5_reduce
I0403 11:11:51.388624  7989 net.cpp:425] inception_4a/relu_5x5_reduce <- inception_4a/5x5_reduce
I0403 11:11:51.388640  7989 net.cpp:386] inception_4a/relu_5x5_reduce -> inception_4a/5x5_reduce (in-place)
I0403 11:11:51.388659  7989 net.cpp:141] Setting up inception_4a/relu_5x5_reduce
I0403 11:11:51.388677  7989 net.cpp:148] Top shape: 24 16 14 14 (75264)
I0403 11:11:51.388691  7989 net.cpp:156] Memory required for data: 873664896
I0403 11:11:51.388705  7989 layer_factory.hpp:77] Creating layer inception_4a/5x5
I0403 11:11:51.388726  7989 net.cpp:91] Creating Layer inception_4a/5x5
I0403 11:11:51.388744  7989 net.cpp:425] inception_4a/5x5 <- inception_4a/5x5_reduce
I0403 11:11:51.388766  7989 net.cpp:399] inception_4a/5x5 -> inception_4a/5x5
I0403 11:11:51.389056  7989 net.cpp:141] Setting up inception_4a/5x5
I0403 11:11:51.389081  7989 net.cpp:148] Top shape: 24 48 14 14 (225792)
I0403 11:11:51.389096  7989 net.cpp:156] Memory required for data: 874568064
I0403 11:11:51.389113  7989 layer_factory.hpp:77] Creating layer inception_4a/relu_5x5
I0403 11:11:51.389134  7989 net.cpp:91] Creating Layer inception_4a/relu_5x5
I0403 11:11:51.389150  7989 net.cpp:425] inception_4a/relu_5x5 <- inception_4a/5x5
I0403 11:11:51.389168  7989 net.cpp:386] inception_4a/relu_5x5 -> inception_4a/5x5 (in-place)
I0403 11:11:51.389184  7989 net.cpp:141] Setting up inception_4a/relu_5x5
I0403 11:11:51.389201  7989 net.cpp:148] Top shape: 24 48 14 14 (225792)
I0403 11:11:51.389214  7989 net.cpp:156] Memory required for data: 875471232
I0403 11:11:51.389227  7989 layer_factory.hpp:77] Creating layer inception_4a/pool
I0403 11:11:51.389252  7989 net.cpp:91] Creating Layer inception_4a/pool
I0403 11:11:51.389269  7989 net.cpp:425] inception_4a/pool <- pool3/3x3_s2_pool3/3x3_s2_0_split_3
I0403 11:11:51.389300  7989 net.cpp:399] inception_4a/pool -> inception_4a/pool
I0403 11:11:51.389348  7989 net.cpp:141] Setting up inception_4a/pool
I0403 11:11:51.389370  7989 net.cpp:148] Top shape: 24 480 14 14 (2257920)
I0403 11:11:51.389400  7989 net.cpp:156] Memory required for data: 884502912
I0403 11:11:51.389416  7989 layer_factory.hpp:77] Creating layer inception_4a/pool_proj
I0403 11:11:51.389439  7989 net.cpp:91] Creating Layer inception_4a/pool_proj
I0403 11:11:51.389457  7989 net.cpp:425] inception_4a/pool_proj <- inception_4a/pool
I0403 11:11:51.389477  7989 net.cpp:399] inception_4a/pool_proj -> inception_4a/pool_proj
I0403 11:11:51.389842  7989 net.cpp:141] Setting up inception_4a/pool_proj
I0403 11:11:51.389864  7989 net.cpp:148] Top shape: 24 64 14 14 (301056)
I0403 11:11:51.389878  7989 net.cpp:156] Memory required for data: 885707136
I0403 11:11:51.389895  7989 layer_factory.hpp:77] Creating layer inception_4a/relu_pool_proj
I0403 11:11:51.389912  7989 net.cpp:91] Creating Layer inception_4a/relu_pool_proj
I0403 11:11:51.389927  7989 net.cpp:425] inception_4a/relu_pool_proj <- inception_4a/pool_proj
I0403 11:11:51.389945  7989 net.cpp:386] inception_4a/relu_pool_proj -> inception_4a/pool_proj (in-place)
I0403 11:11:51.389964  7989 net.cpp:141] Setting up inception_4a/relu_pool_proj
I0403 11:11:51.389981  7989 net.cpp:148] Top shape: 24 64 14 14 (301056)
I0403 11:11:51.389993  7989 net.cpp:156] Memory required for data: 886911360
I0403 11:11:51.390007  7989 layer_factory.hpp:77] Creating layer inception_4a/output
I0403 11:11:51.390022  7989 net.cpp:91] Creating Layer inception_4a/output
I0403 11:11:51.390038  7989 net.cpp:425] inception_4a/output <- inception_4a/1x1
I0403 11:11:51.390051  7989 net.cpp:425] inception_4a/output <- inception_4a/3x3
I0403 11:11:51.390066  7989 net.cpp:425] inception_4a/output <- inception_4a/5x5
I0403 11:11:51.390081  7989 net.cpp:425] inception_4a/output <- inception_4a/pool_proj
I0403 11:11:51.390097  7989 net.cpp:399] inception_4a/output -> inception_4a/output
I0403 11:11:51.390133  7989 net.cpp:141] Setting up inception_4a/output
I0403 11:11:51.390154  7989 net.cpp:148] Top shape: 24 512 14 14 (2408448)
I0403 11:11:51.390168  7989 net.cpp:156] Memory required for data: 896545152
I0403 11:11:51.390182  7989 layer_factory.hpp:77] Creating layer inception_4a/output_inception_4a/output_0_split
I0403 11:11:51.390202  7989 net.cpp:91] Creating Layer inception_4a/output_inception_4a/output_0_split
I0403 11:11:51.390218  7989 net.cpp:425] inception_4a/output_inception_4a/output_0_split <- inception_4a/output
I0403 11:11:51.390234  7989 net.cpp:399] inception_4a/output_inception_4a/output_0_split -> inception_4a/output_inception_4a/output_0_split_0
I0403 11:11:51.390254  7989 net.cpp:399] inception_4a/output_inception_4a/output_0_split -> inception_4a/output_inception_4a/output_0_split_1
I0403 11:11:51.390274  7989 net.cpp:399] inception_4a/output_inception_4a/output_0_split -> inception_4a/output_inception_4a/output_0_split_2
I0403 11:11:51.390291  7989 net.cpp:399] inception_4a/output_inception_4a/output_0_split -> inception_4a/output_inception_4a/output_0_split_3
I0403 11:11:51.390310  7989 net.cpp:399] inception_4a/output_inception_4a/output_0_split -> inception_4a/output_inception_4a/output_0_split_4
I0403 11:11:51.390384  7989 net.cpp:141] Setting up inception_4a/output_inception_4a/output_0_split
I0403 11:11:51.390406  7989 net.cpp:148] Top shape: 24 512 14 14 (2408448)
I0403 11:11:51.390421  7989 net.cpp:148] Top shape: 24 512 14 14 (2408448)
I0403 11:11:51.390435  7989 net.cpp:148] Top shape: 24 512 14 14 (2408448)
I0403 11:11:51.390450  7989 net.cpp:148] Top shape: 24 512 14 14 (2408448)
I0403 11:11:51.390463  7989 net.cpp:148] Top shape: 24 512 14 14 (2408448)
I0403 11:11:51.390476  7989 net.cpp:156] Memory required for data: 944714112
I0403 11:11:51.390491  7989 layer_factory.hpp:77] Creating layer loss1/ave_pool
I0403 11:11:51.390507  7989 net.cpp:91] Creating Layer loss1/ave_pool
I0403 11:11:51.390534  7989 net.cpp:425] loss1/ave_pool <- inception_4a/output_inception_4a/output_0_split_0
I0403 11:11:51.390554  7989 net.cpp:399] loss1/ave_pool -> loss1/ave_pool
I0403 11:11:51.390589  7989 net.cpp:141] Setting up loss1/ave_pool
I0403 11:11:51.390610  7989 net.cpp:148] Top shape: 24 512 4 4 (196608)
I0403 11:11:51.390625  7989 net.cpp:156] Memory required for data: 945500544
I0403 11:11:51.390637  7989 layer_factory.hpp:77] Creating layer loss1/conv
I0403 11:11:51.390661  7989 net.cpp:91] Creating Layer loss1/conv
I0403 11:11:51.390677  7989 net.cpp:425] loss1/conv <- loss1/ave_pool
I0403 11:11:51.390696  7989 net.cpp:399] loss1/conv -> loss1/conv
I0403 11:11:51.391209  7989 net.cpp:141] Setting up loss1/conv
I0403 11:11:51.391232  7989 net.cpp:148] Top shape: 24 128 4 4 (49152)
I0403 11:11:51.391247  7989 net.cpp:156] Memory required for data: 945697152
I0403 11:11:51.391263  7989 layer_factory.hpp:77] Creating layer loss1/relu_conv
I0403 11:11:51.391280  7989 net.cpp:91] Creating Layer loss1/relu_conv
I0403 11:11:51.391295  7989 net.cpp:425] loss1/relu_conv <- loss1/conv
I0403 11:11:51.391315  7989 net.cpp:386] loss1/relu_conv -> loss1/conv (in-place)
I0403 11:11:51.391333  7989 net.cpp:141] Setting up loss1/relu_conv
I0403 11:11:51.391362  7989 net.cpp:148] Top shape: 24 128 4 4 (49152)
I0403 11:11:51.391379  7989 net.cpp:156] Memory required for data: 945893760
I0403 11:11:51.391393  7989 layer_factory.hpp:77] Creating layer loss1/fc
I0403 11:11:51.391429  7989 net.cpp:91] Creating Layer loss1/fc
I0403 11:11:51.391448  7989 net.cpp:425] loss1/fc <- loss1/conv
I0403 11:11:51.391470  7989 net.cpp:399] loss1/fc -> loss1/fc
I0403 11:11:51.406482  7989 net.cpp:141] Setting up loss1/fc
I0403 11:11:51.406523  7989 net.cpp:148] Top shape: 24 1024 (24576)
I0403 11:11:51.406539  7989 net.cpp:156] Memory required for data: 945992064
I0403 11:11:51.406558  7989 layer_factory.hpp:77] Creating layer loss1/relu_fc
I0403 11:11:51.406576  7989 net.cpp:91] Creating Layer loss1/relu_fc
I0403 11:11:51.406592  7989 net.cpp:425] loss1/relu_fc <- loss1/fc
I0403 11:11:51.406611  7989 net.cpp:386] loss1/relu_fc -> loss1/fc (in-place)
I0403 11:11:51.406630  7989 net.cpp:141] Setting up loss1/relu_fc
I0403 11:11:51.406646  7989 net.cpp:148] Top shape: 24 1024 (24576)
I0403 11:11:51.406661  7989 net.cpp:156] Memory required for data: 946090368
I0403 11:11:51.406674  7989 layer_factory.hpp:77] Creating layer loss1/drop_fc
I0403 11:11:51.406702  7989 net.cpp:91] Creating Layer loss1/drop_fc
I0403 11:11:51.406719  7989 net.cpp:425] loss1/drop_fc <- loss1/fc
I0403 11:11:51.406738  7989 net.cpp:386] loss1/drop_fc -> loss1/fc (in-place)
I0403 11:11:51.406780  7989 net.cpp:141] Setting up loss1/drop_fc
I0403 11:11:51.406815  7989 net.cpp:148] Top shape: 24 1024 (24576)
I0403 11:11:51.406828  7989 net.cpp:156] Memory required for data: 946188672
I0403 11:11:51.406842  7989 layer_factory.hpp:77] Creating layer loss1/classifier_plantvillage
I0403 11:11:51.406862  7989 net.cpp:91] Creating Layer loss1/classifier_plantvillage
I0403 11:11:51.406877  7989 net.cpp:425] loss1/classifier_plantvillage <- loss1/fc
I0403 11:11:51.406900  7989 net.cpp:399] loss1/classifier_plantvillage -> loss1/classifier_plantvillage
I0403 11:11:51.407737  7989 net.cpp:141] Setting up loss1/classifier_plantvillage
I0403 11:11:51.407766  7989 net.cpp:148] Top shape: 24 38 (912)
I0403 11:11:51.407781  7989 net.cpp:156] Memory required for data: 946192320
I0403 11:11:51.407799  7989 layer_factory.hpp:77] Creating layer inception_4b/1x1
I0403 11:11:51.407820  7989 net.cpp:91] Creating Layer inception_4b/1x1
I0403 11:11:51.407836  7989 net.cpp:425] inception_4b/1x1 <- inception_4a/output_inception_4a/output_0_split_1
I0403 11:11:51.407857  7989 net.cpp:399] inception_4b/1x1 -> inception_4b/1x1
I0403 11:11:51.408478  7989 net.cpp:141] Setting up inception_4b/1x1
I0403 11:11:51.408502  7989 net.cpp:148] Top shape: 24 160 14 14 (752640)
I0403 11:11:51.408516  7989 net.cpp:156] Memory required for data: 949202880
I0403 11:11:51.408535  7989 layer_factory.hpp:77] Creating layer inception_4b/relu_1x1
I0403 11:11:51.408566  7989 net.cpp:91] Creating Layer inception_4b/relu_1x1
I0403 11:11:51.408583  7989 net.cpp:425] inception_4b/relu_1x1 <- inception_4b/1x1
I0403 11:11:51.408599  7989 net.cpp:386] inception_4b/relu_1x1 -> inception_4b/1x1 (in-place)
I0403 11:11:51.408617  7989 net.cpp:141] Setting up inception_4b/relu_1x1
I0403 11:11:51.408633  7989 net.cpp:148] Top shape: 24 160 14 14 (752640)
I0403 11:11:51.408646  7989 net.cpp:156] Memory required for data: 952213440
I0403 11:11:51.408660  7989 layer_factory.hpp:77] Creating layer inception_4b/3x3_reduce
I0403 11:11:51.408682  7989 net.cpp:91] Creating Layer inception_4b/3x3_reduce
I0403 11:11:51.408699  7989 net.cpp:425] inception_4b/3x3_reduce <- inception_4a/output_inception_4a/output_0_split_2
I0403 11:11:51.408720  7989 net.cpp:399] inception_4b/3x3_reduce -> inception_4b/3x3_reduce
I0403 11:11:51.409221  7989 net.cpp:141] Setting up inception_4b/3x3_reduce
I0403 11:11:51.409245  7989 net.cpp:148] Top shape: 24 112 14 14 (526848)
I0403 11:11:51.409260  7989 net.cpp:156] Memory required for data: 954320832
I0403 11:11:51.409277  7989 layer_factory.hpp:77] Creating layer inception_4b/relu_3x3_reduce
I0403 11:11:51.409294  7989 net.cpp:91] Creating Layer inception_4b/relu_3x3_reduce
I0403 11:11:51.409309  7989 net.cpp:425] inception_4b/relu_3x3_reduce <- inception_4b/3x3_reduce
I0403 11:11:51.409327  7989 net.cpp:386] inception_4b/relu_3x3_reduce -> inception_4b/3x3_reduce (in-place)
I0403 11:11:51.409348  7989 net.cpp:141] Setting up inception_4b/relu_3x3_reduce
I0403 11:11:51.409365  7989 net.cpp:148] Top shape: 24 112 14 14 (526848)
I0403 11:11:51.409384  7989 net.cpp:156] Memory required for data: 956428224
I0403 11:11:51.409397  7989 layer_factory.hpp:77] Creating layer inception_4b/3x3
I0403 11:11:51.409428  7989 net.cpp:91] Creating Layer inception_4b/3x3
I0403 11:11:51.409445  7989 net.cpp:425] inception_4b/3x3 <- inception_4b/3x3_reduce
I0403 11:11:51.409466  7989 net.cpp:399] inception_4b/3x3 -> inception_4b/3x3
I0403 11:11:51.411324  7989 net.cpp:141] Setting up inception_4b/3x3
I0403 11:11:51.411350  7989 net.cpp:148] Top shape: 24 224 14 14 (1053696)
I0403 11:11:51.411365  7989 net.cpp:156] Memory required for data: 960643008
I0403 11:11:51.411386  7989 layer_factory.hpp:77] Creating layer inception_4b/relu_3x3
I0403 11:11:51.411404  7989 net.cpp:91] Creating Layer inception_4b/relu_3x3
I0403 11:11:51.411419  7989 net.cpp:425] inception_4b/relu_3x3 <- inception_4b/3x3
I0403 11:11:51.411437  7989 net.cpp:386] inception_4b/relu_3x3 -> inception_4b/3x3 (in-place)
I0403 11:11:51.411458  7989 net.cpp:141] Setting up inception_4b/relu_3x3
I0403 11:11:51.411473  7989 net.cpp:148] Top shape: 24 224 14 14 (1053696)
I0403 11:11:51.411487  7989 net.cpp:156] Memory required for data: 964857792
I0403 11:11:51.411500  7989 layer_factory.hpp:77] Creating layer inception_4b/5x5_reduce
I0403 11:11:51.411519  7989 net.cpp:91] Creating Layer inception_4b/5x5_reduce
I0403 11:11:51.411535  7989 net.cpp:425] inception_4b/5x5_reduce <- inception_4a/output_inception_4a/output_0_split_3
I0403 11:11:51.411556  7989 net.cpp:399] inception_4b/5x5_reduce -> inception_4b/5x5_reduce
I0403 11:11:51.411818  7989 net.cpp:141] Setting up inception_4b/5x5_reduce
I0403 11:11:51.411840  7989 net.cpp:148] Top shape: 24 24 14 14 (112896)
I0403 11:11:51.411854  7989 net.cpp:156] Memory required for data: 965309376
I0403 11:11:51.411871  7989 layer_factory.hpp:77] Creating layer inception_4b/relu_5x5_reduce
I0403 11:11:51.411888  7989 net.cpp:91] Creating Layer inception_4b/relu_5x5_reduce
I0403 11:11:51.411905  7989 net.cpp:425] inception_4b/relu_5x5_reduce <- inception_4b/5x5_reduce
I0403 11:11:51.411921  7989 net.cpp:386] inception_4b/relu_5x5_reduce -> inception_4b/5x5_reduce (in-place)
I0403 11:11:51.411938  7989 net.cpp:141] Setting up inception_4b/relu_5x5_reduce
I0403 11:11:51.411955  7989 net.cpp:148] Top shape: 24 24 14 14 (112896)
I0403 11:11:51.411968  7989 net.cpp:156] Memory required for data: 965760960
I0403 11:11:51.411981  7989 layer_factory.hpp:77] Creating layer inception_4b/5x5
I0403 11:11:51.412017  7989 net.cpp:91] Creating Layer inception_4b/5x5
I0403 11:11:51.412035  7989 net.cpp:425] inception_4b/5x5 <- inception_4b/5x5_reduce
I0403 11:11:51.412056  7989 net.cpp:399] inception_4b/5x5 -> inception_4b/5x5
I0403 11:11:51.412466  7989 net.cpp:141] Setting up inception_4b/5x5
I0403 11:11:51.412489  7989 net.cpp:148] Top shape: 24 64 14 14 (301056)
I0403 11:11:51.412503  7989 net.cpp:156] Memory required for data: 966965184
I0403 11:11:51.412520  7989 layer_factory.hpp:77] Creating layer inception_4b/relu_5x5
I0403 11:11:51.412538  7989 net.cpp:91] Creating Layer inception_4b/relu_5x5
I0403 11:11:51.412552  7989 net.cpp:425] inception_4b/relu_5x5 <- inception_4b/5x5
I0403 11:11:51.412569  7989 net.cpp:386] inception_4b/relu_5x5 -> inception_4b/5x5 (in-place)
I0403 11:11:51.412593  7989 net.cpp:141] Setting up inception_4b/relu_5x5
I0403 11:11:51.412609  7989 net.cpp:148] Top shape: 24 64 14 14 (301056)
I0403 11:11:51.412623  7989 net.cpp:156] Memory required for data: 968169408
I0403 11:11:51.412637  7989 layer_factory.hpp:77] Creating layer inception_4b/pool
I0403 11:11:51.412653  7989 net.cpp:91] Creating Layer inception_4b/pool
I0403 11:11:51.412668  7989 net.cpp:425] inception_4b/pool <- inception_4a/output_inception_4a/output_0_split_4
I0403 11:11:51.412684  7989 net.cpp:399] inception_4b/pool -> inception_4b/pool
I0403 11:11:51.412734  7989 net.cpp:141] Setting up inception_4b/pool
I0403 11:11:51.412755  7989 net.cpp:148] Top shape: 24 512 14 14 (2408448)
I0403 11:11:51.412768  7989 net.cpp:156] Memory required for data: 977803200
I0403 11:11:51.412782  7989 layer_factory.hpp:77] Creating layer inception_4b/pool_proj
I0403 11:11:51.412804  7989 net.cpp:91] Creating Layer inception_4b/pool_proj
I0403 11:11:51.412822  7989 net.cpp:425] inception_4b/pool_proj <- inception_4b/pool
I0403 11:11:51.412842  7989 net.cpp:399] inception_4b/pool_proj -> inception_4b/pool_proj
I0403 11:11:51.413223  7989 net.cpp:141] Setting up inception_4b/pool_proj
I0403 11:11:51.413249  7989 net.cpp:148] Top shape: 24 64 14 14 (301056)
I0403 11:11:51.413264  7989 net.cpp:156] Memory required for data: 979007424
I0403 11:11:51.413282  7989 layer_factory.hpp:77] Creating layer inception_4b/relu_pool_proj
I0403 11:11:51.413300  7989 net.cpp:91] Creating Layer inception_4b/relu_pool_proj
I0403 11:11:51.413316  7989 net.cpp:425] inception_4b/relu_pool_proj <- inception_4b/pool_proj
I0403 11:11:51.413332  7989 net.cpp:386] inception_4b/relu_pool_proj -> inception_4b/pool_proj (in-place)
I0403 11:11:51.413352  7989 net.cpp:141] Setting up inception_4b/relu_pool_proj
I0403 11:11:51.413367  7989 net.cpp:148] Top shape: 24 64 14 14 (301056)
I0403 11:11:51.413398  7989 net.cpp:156] Memory required for data: 980211648
I0403 11:11:51.413426  7989 layer_factory.hpp:77] Creating layer inception_4b/output
I0403 11:11:51.413444  7989 net.cpp:91] Creating Layer inception_4b/output
I0403 11:11:51.413457  7989 net.cpp:425] inception_4b/output <- inception_4b/1x1
I0403 11:11:51.413472  7989 net.cpp:425] inception_4b/output <- inception_4b/3x3
I0403 11:11:51.413499  7989 net.cpp:425] inception_4b/output <- inception_4b/5x5
I0403 11:11:51.413516  7989 net.cpp:425] inception_4b/output <- inception_4b/pool_proj
I0403 11:11:51.413532  7989 net.cpp:399] inception_4b/output -> inception_4b/output
I0403 11:11:51.413569  7989 net.cpp:141] Setting up inception_4b/output
I0403 11:11:51.413594  7989 net.cpp:148] Top shape: 24 512 14 14 (2408448)
I0403 11:11:51.413609  7989 net.cpp:156] Memory required for data: 989845440
I0403 11:11:51.413624  7989 layer_factory.hpp:77] Creating layer inception_4b/output_inception_4b/output_0_split
I0403 11:11:51.413640  7989 net.cpp:91] Creating Layer inception_4b/output_inception_4b/output_0_split
I0403 11:11:51.413655  7989 net.cpp:425] inception_4b/output_inception_4b/output_0_split <- inception_4b/output
I0403 11:11:51.413672  7989 net.cpp:399] inception_4b/output_inception_4b/output_0_split -> inception_4b/output_inception_4b/output_0_split_0
I0403 11:11:51.413692  7989 net.cpp:399] inception_4b/output_inception_4b/output_0_split -> inception_4b/output_inception_4b/output_0_split_1
I0403 11:11:51.413725  7989 net.cpp:399] inception_4b/output_inception_4b/output_0_split -> inception_4b/output_inception_4b/output_0_split_2
I0403 11:11:51.413748  7989 net.cpp:399] inception_4b/output_inception_4b/output_0_split -> inception_4b/output_inception_4b/output_0_split_3
I0403 11:11:51.413825  7989 net.cpp:141] Setting up inception_4b/output_inception_4b/output_0_split
I0403 11:11:51.413846  7989 net.cpp:148] Top shape: 24 512 14 14 (2408448)
I0403 11:11:51.413861  7989 net.cpp:148] Top shape: 24 512 14 14 (2408448)
I0403 11:11:51.413875  7989 net.cpp:148] Top shape: 24 512 14 14 (2408448)
I0403 11:11:51.413890  7989 net.cpp:148] Top shape: 24 512 14 14 (2408448)
I0403 11:11:51.413903  7989 net.cpp:156] Memory required for data: 1028380608
I0403 11:11:51.413916  7989 layer_factory.hpp:77] Creating layer inception_4c/1x1
I0403 11:11:51.413938  7989 net.cpp:91] Creating Layer inception_4c/1x1
I0403 11:11:51.413954  7989 net.cpp:425] inception_4c/1x1 <- inception_4b/output_inception_4b/output_0_split_0
I0403 11:11:51.413975  7989 net.cpp:399] inception_4c/1x1 -> inception_4c/1x1
I0403 11:11:51.414502  7989 net.cpp:141] Setting up inception_4c/1x1
I0403 11:11:51.414526  7989 net.cpp:148] Top shape: 24 128 14 14 (602112)
I0403 11:11:51.414541  7989 net.cpp:156] Memory required for data: 1030789056
I0403 11:11:51.414556  7989 layer_factory.hpp:77] Creating layer inception_4c/relu_1x1
I0403 11:11:51.414573  7989 net.cpp:91] Creating Layer inception_4c/relu_1x1
I0403 11:11:51.414588  7989 net.cpp:425] inception_4c/relu_1x1 <- inception_4c/1x1
I0403 11:11:51.414608  7989 net.cpp:386] inception_4c/relu_1x1 -> inception_4c/1x1 (in-place)
I0403 11:11:51.414626  7989 net.cpp:141] Setting up inception_4c/relu_1x1
I0403 11:11:51.414644  7989 net.cpp:148] Top shape: 24 128 14 14 (602112)
I0403 11:11:51.414656  7989 net.cpp:156] Memory required for data: 1033197504
I0403 11:11:51.414669  7989 layer_factory.hpp:77] Creating layer inception_4c/3x3_reduce
I0403 11:11:51.414691  7989 net.cpp:91] Creating Layer inception_4c/3x3_reduce
I0403 11:11:51.414708  7989 net.cpp:425] inception_4c/3x3_reduce <- inception_4b/output_inception_4b/output_0_split_1
I0403 11:11:51.414726  7989 net.cpp:399] inception_4c/3x3_reduce -> inception_4c/3x3_reduce
I0403 11:11:51.415773  7989 net.cpp:141] Setting up inception_4c/3x3_reduce
I0403 11:11:51.415799  7989 net.cpp:148] Top shape: 24 128 14 14 (602112)
I0403 11:11:51.415813  7989 net.cpp:156] Memory required for data: 1035605952
I0403 11:11:51.415829  7989 layer_factory.hpp:77] Creating layer inception_4c/relu_3x3_reduce
I0403 11:11:51.415846  7989 net.cpp:91] Creating Layer inception_4c/relu_3x3_reduce
I0403 11:11:51.415861  7989 net.cpp:425] inception_4c/relu_3x3_reduce <- inception_4c/3x3_reduce
I0403 11:11:51.415877  7989 net.cpp:386] inception_4c/relu_3x3_reduce -> inception_4c/3x3_reduce (in-place)
I0403 11:11:51.415897  7989 net.cpp:141] Setting up inception_4c/relu_3x3_reduce
I0403 11:11:51.415915  7989 net.cpp:148] Top shape: 24 128 14 14 (602112)
I0403 11:11:51.415928  7989 net.cpp:156] Memory required for data: 1038014400
I0403 11:11:51.415941  7989 layer_factory.hpp:77] Creating layer inception_4c/3x3
I0403 11:11:51.415963  7989 net.cpp:91] Creating Layer inception_4c/3x3
I0403 11:11:51.415980  7989 net.cpp:425] inception_4c/3x3 <- inception_4c/3x3_reduce
I0403 11:11:51.415998  7989 net.cpp:399] inception_4c/3x3 -> inception_4c/3x3
I0403 11:11:51.418313  7989 net.cpp:141] Setting up inception_4c/3x3
I0403 11:11:51.418342  7989 net.cpp:148] Top shape: 24 256 14 14 (1204224)
I0403 11:11:51.418359  7989 net.cpp:156] Memory required for data: 1042831296
I0403 11:11:51.418391  7989 layer_factory.hpp:77] Creating layer inception_4c/relu_3x3
I0403 11:11:51.418412  7989 net.cpp:91] Creating Layer inception_4c/relu_3x3
I0403 11:11:51.418427  7989 net.cpp:425] inception_4c/relu_3x3 <- inception_4c/3x3
I0403 11:11:51.418444  7989 net.cpp:386] inception_4c/relu_3x3 -> inception_4c/3x3 (in-place)
I0403 11:11:51.418475  7989 net.cpp:141] Setting up inception_4c/relu_3x3
I0403 11:11:51.418493  7989 net.cpp:148] Top shape: 24 256 14 14 (1204224)
I0403 11:11:51.418506  7989 net.cpp:156] Memory required for data: 1047648192
I0403 11:11:51.418519  7989 layer_factory.hpp:77] Creating layer inception_4c/5x5_reduce
I0403 11:11:51.418540  7989 net.cpp:91] Creating Layer inception_4c/5x5_reduce
I0403 11:11:51.418557  7989 net.cpp:425] inception_4c/5x5_reduce <- inception_4b/output_inception_4b/output_0_split_2
I0403 11:11:51.418576  7989 net.cpp:399] inception_4c/5x5_reduce -> inception_4c/5x5_reduce
I0403 11:11:51.418843  7989 net.cpp:141] Setting up inception_4c/5x5_reduce
I0403 11:11:51.418867  7989 net.cpp:148] Top shape: 24 24 14 14 (112896)
I0403 11:11:51.418881  7989 net.cpp:156] Memory required for data: 1048099776
I0403 11:11:51.418897  7989 layer_factory.hpp:77] Creating layer inception_4c/relu_5x5_reduce
I0403 11:11:51.418915  7989 net.cpp:91] Creating Layer inception_4c/relu_5x5_reduce
I0403 11:11:51.418931  7989 net.cpp:425] inception_4c/relu_5x5_reduce <- inception_4c/5x5_reduce
I0403 11:11:51.418948  7989 net.cpp:386] inception_4c/relu_5x5_reduce -> inception_4c/5x5_reduce (in-place)
I0403 11:11:51.418967  7989 net.cpp:141] Setting up inception_4c/relu_5x5_reduce
I0403 11:11:51.418983  7989 net.cpp:148] Top shape: 24 24 14 14 (112896)
I0403 11:11:51.418997  7989 net.cpp:156] Memory required for data: 1048551360
I0403 11:11:51.419009  7989 layer_factory.hpp:77] Creating layer inception_4c/5x5
I0403 11:11:51.419033  7989 net.cpp:91] Creating Layer inception_4c/5x5
I0403 11:11:51.419049  7989 net.cpp:425] inception_4c/5x5 <- inception_4c/5x5_reduce
I0403 11:11:51.419066  7989 net.cpp:399] inception_4c/5x5 -> inception_4c/5x5
I0403 11:11:51.419468  7989 net.cpp:141] Setting up inception_4c/5x5
I0403 11:11:51.419492  7989 net.cpp:148] Top shape: 24 64 14 14 (301056)
I0403 11:11:51.419507  7989 net.cpp:156] Memory required for data: 1049755584
I0403 11:11:51.419523  7989 layer_factory.hpp:77] Creating layer inception_4c/relu_5x5
I0403 11:11:51.419543  7989 net.cpp:91] Creating Layer inception_4c/relu_5x5
I0403 11:11:51.419558  7989 net.cpp:425] inception_4c/relu_5x5 <- inception_4c/5x5
I0403 11:11:51.419574  7989 net.cpp:386] inception_4c/relu_5x5 -> inception_4c/5x5 (in-place)
I0403 11:11:51.419591  7989 net.cpp:141] Setting up inception_4c/relu_5x5
I0403 11:11:51.419607  7989 net.cpp:148] Top shape: 24 64 14 14 (301056)
I0403 11:11:51.419621  7989 net.cpp:156] Memory required for data: 1050959808
I0403 11:11:51.419634  7989 layer_factory.hpp:77] Creating layer inception_4c/pool
I0403 11:11:51.419651  7989 net.cpp:91] Creating Layer inception_4c/pool
I0403 11:11:51.419666  7989 net.cpp:425] inception_4c/pool <- inception_4b/output_inception_4b/output_0_split_3
I0403 11:11:51.419684  7989 net.cpp:399] inception_4c/pool -> inception_4c/pool
I0403 11:11:51.419734  7989 net.cpp:141] Setting up inception_4c/pool
I0403 11:11:51.419755  7989 net.cpp:148] Top shape: 24 512 14 14 (2408448)
I0403 11:11:51.419770  7989 net.cpp:156] Memory required for data: 1060593600
I0403 11:11:51.419782  7989 layer_factory.hpp:77] Creating layer inception_4c/pool_proj
I0403 11:11:51.419803  7989 net.cpp:91] Creating Layer inception_4c/pool_proj
I0403 11:11:51.419822  7989 net.cpp:425] inception_4c/pool_proj <- inception_4c/pool
I0403 11:11:51.419841  7989 net.cpp:399] inception_4c/pool_proj -> inception_4c/pool_proj
I0403 11:11:51.420203  7989 net.cpp:141] Setting up inception_4c/pool_proj
I0403 11:11:51.420228  7989 net.cpp:148] Top shape: 24 64 14 14 (301056)
I0403 11:11:51.420241  7989 net.cpp:156] Memory required for data: 1061797824
I0403 11:11:51.420258  7989 layer_factory.hpp:77] Creating layer inception_4c/relu_pool_proj
I0403 11:11:51.420274  7989 net.cpp:91] Creating Layer inception_4c/relu_pool_proj
I0403 11:11:51.420290  7989 net.cpp:425] inception_4c/relu_pool_proj <- inception_4c/pool_proj
I0403 11:11:51.420310  7989 net.cpp:386] inception_4c/relu_pool_proj -> inception_4c/pool_proj (in-place)
I0403 11:11:51.420328  7989 net.cpp:141] Setting up inception_4c/relu_pool_proj
I0403 11:11:51.420357  7989 net.cpp:148] Top shape: 24 64 14 14 (301056)
I0403 11:11:51.420372  7989 net.cpp:156] Memory required for data: 1063002048
I0403 11:11:51.420389  7989 layer_factory.hpp:77] Creating layer inception_4c/output
I0403 11:11:51.420406  7989 net.cpp:91] Creating Layer inception_4c/output
I0403 11:11:51.420420  7989 net.cpp:425] inception_4c/output <- inception_4c/1x1
I0403 11:11:51.420436  7989 net.cpp:425] inception_4c/output <- inception_4c/3x3
I0403 11:11:51.420451  7989 net.cpp:425] inception_4c/output <- inception_4c/5x5
I0403 11:11:51.420465  7989 net.cpp:425] inception_4c/output <- inception_4c/pool_proj
I0403 11:11:51.420481  7989 net.cpp:399] inception_4c/output -> inception_4c/output
I0403 11:11:51.420519  7989 net.cpp:141] Setting up inception_4c/output
I0403 11:11:51.420542  7989 net.cpp:148] Top shape: 24 512 14 14 (2408448)
I0403 11:11:51.420554  7989 net.cpp:156] Memory required for data: 1072635840
I0403 11:11:51.420568  7989 layer_factory.hpp:77] Creating layer inception_4c/output_inception_4c/output_0_split
I0403 11:11:51.420584  7989 net.cpp:91] Creating Layer inception_4c/output_inception_4c/output_0_split
I0403 11:11:51.420599  7989 net.cpp:425] inception_4c/output_inception_4c/output_0_split <- inception_4c/output
I0403 11:11:51.420617  7989 net.cpp:399] inception_4c/output_inception_4c/output_0_split -> inception_4c/output_inception_4c/output_0_split_0
I0403 11:11:51.420637  7989 net.cpp:399] inception_4c/output_inception_4c/output_0_split -> inception_4c/output_inception_4c/output_0_split_1
I0403 11:11:51.420657  7989 net.cpp:399] inception_4c/output_inception_4c/output_0_split -> inception_4c/output_inception_4c/output_0_split_2
I0403 11:11:51.420675  7989 net.cpp:399] inception_4c/output_inception_4c/output_0_split -> inception_4c/output_inception_4c/output_0_split_3
I0403 11:11:51.420738  7989 net.cpp:141] Setting up inception_4c/output_inception_4c/output_0_split
I0403 11:11:51.420759  7989 net.cpp:148] Top shape: 24 512 14 14 (2408448)
I0403 11:11:51.420774  7989 net.cpp:148] Top shape: 24 512 14 14 (2408448)
I0403 11:11:51.420789  7989 net.cpp:148] Top shape: 24 512 14 14 (2408448)
I0403 11:11:51.420802  7989 net.cpp:148] Top shape: 24 512 14 14 (2408448)
I0403 11:11:51.420815  7989 net.cpp:156] Memory required for data: 1111171008
I0403 11:11:51.420830  7989 layer_factory.hpp:77] Creating layer inception_4d/1x1
I0403 11:11:51.420851  7989 net.cpp:91] Creating Layer inception_4d/1x1
I0403 11:11:51.420868  7989 net.cpp:425] inception_4d/1x1 <- inception_4c/output_inception_4c/output_0_split_0
I0403 11:11:51.420886  7989 net.cpp:399] inception_4d/1x1 -> inception_4d/1x1
I0403 11:11:51.421401  7989 net.cpp:141] Setting up inception_4d/1x1
I0403 11:11:51.421437  7989 net.cpp:148] Top shape: 24 112 14 14 (526848)
I0403 11:11:51.421452  7989 net.cpp:156] Memory required for data: 1113278400
I0403 11:11:51.421468  7989 layer_factory.hpp:77] Creating layer inception_4d/relu_1x1
I0403 11:11:51.421484  7989 net.cpp:91] Creating Layer inception_4d/relu_1x1
I0403 11:11:51.421499  7989 net.cpp:425] inception_4d/relu_1x1 <- inception_4d/1x1
I0403 11:11:51.421519  7989 net.cpp:386] inception_4d/relu_1x1 -> inception_4d/1x1 (in-place)
I0403 11:11:51.421537  7989 net.cpp:141] Setting up inception_4d/relu_1x1
I0403 11:11:51.421555  7989 net.cpp:148] Top shape: 24 112 14 14 (526848)
I0403 11:11:51.421567  7989 net.cpp:156] Memory required for data: 1115385792
I0403 11:11:51.421579  7989 layer_factory.hpp:77] Creating layer inception_4d/3x3_reduce
I0403 11:11:51.421600  7989 net.cpp:91] Creating Layer inception_4d/3x3_reduce
I0403 11:11:51.421617  7989 net.cpp:425] inception_4d/3x3_reduce <- inception_4c/output_inception_4c/output_0_split_1
I0403 11:11:51.421635  7989 net.cpp:399] inception_4d/3x3_reduce -> inception_4d/3x3_reduce
I0403 11:11:51.422221  7989 net.cpp:141] Setting up inception_4d/3x3_reduce
I0403 11:11:51.422245  7989 net.cpp:148] Top shape: 24 144 14 14 (677376)
I0403 11:11:51.422258  7989 net.cpp:156] Memory required for data: 1118095296
I0403 11:11:51.422287  7989 layer_factory.hpp:77] Creating layer inception_4d/relu_3x3_reduce
I0403 11:11:51.422305  7989 net.cpp:91] Creating Layer inception_4d/relu_3x3_reduce
I0403 11:11:51.422322  7989 net.cpp:425] inception_4d/relu_3x3_reduce <- inception_4d/3x3_reduce
I0403 11:11:51.422340  7989 net.cpp:386] inception_4d/relu_3x3_reduce -> inception_4d/3x3_reduce (in-place)
I0403 11:11:51.422359  7989 net.cpp:141] Setting up inception_4d/relu_3x3_reduce
I0403 11:11:51.422384  7989 net.cpp:148] Top shape: 24 144 14 14 (677376)
I0403 11:11:51.422401  7989 net.cpp:156] Memory required for data: 1120804800
I0403 11:11:51.422415  7989 layer_factory.hpp:77] Creating layer inception_4d/3x3
I0403 11:11:51.422437  7989 net.cpp:91] Creating Layer inception_4d/3x3
I0403 11:11:51.422454  7989 net.cpp:425] inception_4d/3x3 <- inception_4d/3x3_reduce
I0403 11:11:51.422472  7989 net.cpp:399] inception_4d/3x3 -> inception_4d/3x3
I0403 11:11:51.425429  7989 net.cpp:141] Setting up inception_4d/3x3
I0403 11:11:51.425457  7989 net.cpp:148] Top shape: 24 288 14 14 (1354752)
I0403 11:11:51.425472  7989 net.cpp:156] Memory required for data: 1126223808
I0403 11:11:51.425490  7989 layer_factory.hpp:77] Creating layer inception_4d/relu_3x3
I0403 11:11:51.425509  7989 net.cpp:91] Creating Layer inception_4d/relu_3x3
I0403 11:11:51.425526  7989 net.cpp:425] inception_4d/relu_3x3 <- inception_4d/3x3
I0403 11:11:51.425544  7989 net.cpp:386] inception_4d/relu_3x3 -> inception_4d/3x3 (in-place)
I0403 11:11:51.425562  7989 net.cpp:141] Setting up inception_4d/relu_3x3
I0403 11:11:51.425580  7989 net.cpp:148] Top shape: 24 288 14 14 (1354752)
I0403 11:11:51.425595  7989 net.cpp:156] Memory required for data: 1131642816
I0403 11:11:51.425608  7989 layer_factory.hpp:77] Creating layer inception_4d/5x5_reduce
I0403 11:11:51.425629  7989 net.cpp:91] Creating Layer inception_4d/5x5_reduce
I0403 11:11:51.425647  7989 net.cpp:425] inception_4d/5x5_reduce <- inception_4c/output_inception_4c/output_0_split_2
I0403 11:11:51.425668  7989 net.cpp:399] inception_4d/5x5_reduce -> inception_4d/5x5_reduce
I0403 11:11:51.425956  7989 net.cpp:141] Setting up inception_4d/5x5_reduce
I0403 11:11:51.425979  7989 net.cpp:148] Top shape: 24 32 14 14 (150528)
I0403 11:11:51.425993  7989 net.cpp:156] Memory required for data: 1132244928
I0403 11:11:51.426010  7989 layer_factory.hpp:77] Creating layer inception_4d/relu_5x5_reduce
I0403 11:11:51.426026  7989 net.cpp:91] Creating Layer inception_4d/relu_5x5_reduce
I0403 11:11:51.426041  7989 net.cpp:425] inception_4d/relu_5x5_reduce <- inception_4d/5x5_reduce
I0403 11:11:51.426059  7989 net.cpp:386] inception_4d/relu_5x5_reduce -> inception_4d/5x5_reduce (in-place)
I0403 11:11:51.426076  7989 net.cpp:141] Setting up inception_4d/relu_5x5_reduce
I0403 11:11:51.426092  7989 net.cpp:148] Top shape: 24 32 14 14 (150528)
I0403 11:11:51.426105  7989 net.cpp:156] Memory required for data: 1132847040
I0403 11:11:51.426118  7989 layer_factory.hpp:77] Creating layer inception_4d/5x5
I0403 11:11:51.426141  7989 net.cpp:91] Creating Layer inception_4d/5x5
I0403 11:11:51.426158  7989 net.cpp:425] inception_4d/5x5 <- inception_4d/5x5_reduce
I0403 11:11:51.426179  7989 net.cpp:399] inception_4d/5x5 -> inception_4d/5x5
I0403 11:11:51.426647  7989 net.cpp:141] Setting up inception_4d/5x5
I0403 11:11:51.426671  7989 net.cpp:148] Top shape: 24 64 14 14 (301056)
I0403 11:11:51.426686  7989 net.cpp:156] Memory required for data: 1134051264
I0403 11:11:51.426702  7989 layer_factory.hpp:77] Creating layer inception_4d/relu_5x5
I0403 11:11:51.426720  7989 net.cpp:91] Creating Layer inception_4d/relu_5x5
I0403 11:11:51.426736  7989 net.cpp:425] inception_4d/relu_5x5 <- inception_4d/5x5
I0403 11:11:51.426753  7989 net.cpp:386] inception_4d/relu_5x5 -> inception_4d/5x5 (in-place)
I0403 11:11:51.426770  7989 net.cpp:141] Setting up inception_4d/relu_5x5
I0403 11:11:51.426787  7989 net.cpp:148] Top shape: 24 64 14 14 (301056)
I0403 11:11:51.426801  7989 net.cpp:156] Memory required for data: 1135255488
I0403 11:11:51.426815  7989 layer_factory.hpp:77] Creating layer inception_4d/pool
I0403 11:11:51.426847  7989 net.cpp:91] Creating Layer inception_4d/pool
I0403 11:11:51.426864  7989 net.cpp:425] inception_4d/pool <- inception_4c/output_inception_4c/output_0_split_3
I0403 11:11:51.426882  7989 net.cpp:399] inception_4d/pool -> inception_4d/pool
I0403 11:11:51.426929  7989 net.cpp:141] Setting up inception_4d/pool
I0403 11:11:51.426951  7989 net.cpp:148] Top shape: 24 512 14 14 (2408448)
I0403 11:11:51.426964  7989 net.cpp:156] Memory required for data: 1144889280
I0403 11:11:51.426978  7989 layer_factory.hpp:77] Creating layer inception_4d/pool_proj
I0403 11:11:51.427000  7989 net.cpp:91] Creating Layer inception_4d/pool_proj
I0403 11:11:51.427016  7989 net.cpp:425] inception_4d/pool_proj <- inception_4d/pool
I0403 11:11:51.427034  7989 net.cpp:399] inception_4d/pool_proj -> inception_4d/pool_proj
I0403 11:11:51.427909  7989 net.cpp:141] Setting up inception_4d/pool_proj
I0403 11:11:51.427935  7989 net.cpp:148] Top shape: 24 64 14 14 (301056)
I0403 11:11:51.427950  7989 net.cpp:156] Memory required for data: 1146093504
I0403 11:11:51.427968  7989 layer_factory.hpp:77] Creating layer inception_4d/relu_pool_proj
I0403 11:11:51.427985  7989 net.cpp:91] Creating Layer inception_4d/relu_pool_proj
I0403 11:11:51.428000  7989 net.cpp:425] inception_4d/relu_pool_proj <- inception_4d/pool_proj
I0403 11:11:51.428020  7989 net.cpp:386] inception_4d/relu_pool_proj -> inception_4d/pool_proj (in-place)
I0403 11:11:51.428040  7989 net.cpp:141] Setting up inception_4d/relu_pool_proj
I0403 11:11:51.428056  7989 net.cpp:148] Top shape: 24 64 14 14 (301056)
I0403 11:11:51.428069  7989 net.cpp:156] Memory required for data: 1147297728
I0403 11:11:51.428082  7989 layer_factory.hpp:77] Creating layer inception_4d/output
I0403 11:11:51.428098  7989 net.cpp:91] Creating Layer inception_4d/output
I0403 11:11:51.428112  7989 net.cpp:425] inception_4d/output <- inception_4d/1x1
I0403 11:11:51.428128  7989 net.cpp:425] inception_4d/output <- inception_4d/3x3
I0403 11:11:51.428143  7989 net.cpp:425] inception_4d/output <- inception_4d/5x5
I0403 11:11:51.428156  7989 net.cpp:425] inception_4d/output <- inception_4d/pool_proj
I0403 11:11:51.428172  7989 net.cpp:399] inception_4d/output -> inception_4d/output
I0403 11:11:51.428210  7989 net.cpp:141] Setting up inception_4d/output
I0403 11:11:51.428231  7989 net.cpp:148] Top shape: 24 528 14 14 (2483712)
I0403 11:11:51.428244  7989 net.cpp:156] Memory required for data: 1157232576
I0403 11:11:51.428257  7989 layer_factory.hpp:77] Creating layer inception_4d/output_inception_4d/output_0_split
I0403 11:11:51.428277  7989 net.cpp:91] Creating Layer inception_4d/output_inception_4d/output_0_split
I0403 11:11:51.428292  7989 net.cpp:425] inception_4d/output_inception_4d/output_0_split <- inception_4d/output
I0403 11:11:51.428308  7989 net.cpp:399] inception_4d/output_inception_4d/output_0_split -> inception_4d/output_inception_4d/output_0_split_0
I0403 11:11:51.428326  7989 net.cpp:399] inception_4d/output_inception_4d/output_0_split -> inception_4d/output_inception_4d/output_0_split_1
I0403 11:11:51.428345  7989 net.cpp:399] inception_4d/output_inception_4d/output_0_split -> inception_4d/output_inception_4d/output_0_split_2
I0403 11:11:51.428365  7989 net.cpp:399] inception_4d/output_inception_4d/output_0_split -> inception_4d/output_inception_4d/output_0_split_3
I0403 11:11:51.428387  7989 net.cpp:399] inception_4d/output_inception_4d/output_0_split -> inception_4d/output_inception_4d/output_0_split_4
I0403 11:11:51.428462  7989 net.cpp:141] Setting up inception_4d/output_inception_4d/output_0_split
I0403 11:11:51.428484  7989 net.cpp:148] Top shape: 24 528 14 14 (2483712)
I0403 11:11:51.428499  7989 net.cpp:148] Top shape: 24 528 14 14 (2483712)
I0403 11:11:51.428514  7989 net.cpp:148] Top shape: 24 528 14 14 (2483712)
I0403 11:11:51.428529  7989 net.cpp:148] Top shape: 24 528 14 14 (2483712)
I0403 11:11:51.428544  7989 net.cpp:148] Top shape: 24 528 14 14 (2483712)
I0403 11:11:51.428555  7989 net.cpp:156] Memory required for data: 1206906816
I0403 11:11:51.428582  7989 layer_factory.hpp:77] Creating layer loss2/ave_pool
I0403 11:11:51.428601  7989 net.cpp:91] Creating Layer loss2/ave_pool
I0403 11:11:51.428617  7989 net.cpp:425] loss2/ave_pool <- inception_4d/output_inception_4d/output_0_split_0
I0403 11:11:51.428635  7989 net.cpp:399] loss2/ave_pool -> loss2/ave_pool
I0403 11:11:51.428673  7989 net.cpp:141] Setting up loss2/ave_pool
I0403 11:11:51.428694  7989 net.cpp:148] Top shape: 24 528 4 4 (202752)
I0403 11:11:51.428706  7989 net.cpp:156] Memory required for data: 1207717824
I0403 11:11:51.428720  7989 layer_factory.hpp:77] Creating layer loss2/conv
I0403 11:11:51.428750  7989 net.cpp:91] Creating Layer loss2/conv
I0403 11:11:51.428767  7989 net.cpp:425] loss2/conv <- loss2/ave_pool
I0403 11:11:51.428786  7989 net.cpp:399] loss2/conv -> loss2/conv
I0403 11:11:51.429918  7989 net.cpp:141] Setting up loss2/conv
I0403 11:11:51.429944  7989 net.cpp:148] Top shape: 24 128 4 4 (49152)
I0403 11:11:51.429957  7989 net.cpp:156] Memory required for data: 1207914432
I0403 11:11:51.429975  7989 layer_factory.hpp:77] Creating layer loss2/relu_conv
I0403 11:11:51.429991  7989 net.cpp:91] Creating Layer loss2/relu_conv
I0403 11:11:51.430007  7989 net.cpp:425] loss2/relu_conv <- loss2/conv
I0403 11:11:51.430023  7989 net.cpp:386] loss2/relu_conv -> loss2/conv (in-place)
I0403 11:11:51.430042  7989 net.cpp:141] Setting up loss2/relu_conv
I0403 11:11:51.430058  7989 net.cpp:148] Top shape: 24 128 4 4 (49152)
I0403 11:11:51.430071  7989 net.cpp:156] Memory required for data: 1208111040
I0403 11:11:51.430084  7989 layer_factory.hpp:77] Creating layer loss2/fc
I0403 11:11:51.430104  7989 net.cpp:91] Creating Layer loss2/fc
I0403 11:11:51.430120  7989 net.cpp:425] loss2/fc <- loss2/conv
I0403 11:11:51.430142  7989 net.cpp:399] loss2/fc -> loss2/fc
I0403 11:11:51.445088  7989 net.cpp:141] Setting up loss2/fc
I0403 11:11:51.445122  7989 net.cpp:148] Top shape: 24 1024 (24576)
I0403 11:11:51.445139  7989 net.cpp:156] Memory required for data: 1208209344
I0403 11:11:51.445158  7989 layer_factory.hpp:77] Creating layer loss2/relu_fc
I0403 11:11:51.445178  7989 net.cpp:91] Creating Layer loss2/relu_fc
I0403 11:11:51.445193  7989 net.cpp:425] loss2/relu_fc <- loss2/fc
I0403 11:11:51.445211  7989 net.cpp:386] loss2/relu_fc -> loss2/fc (in-place)
I0403 11:11:51.445230  7989 net.cpp:141] Setting up loss2/relu_fc
I0403 11:11:51.445246  7989 net.cpp:148] Top shape: 24 1024 (24576)
I0403 11:11:51.445260  7989 net.cpp:156] Memory required for data: 1208307648
I0403 11:11:51.445273  7989 layer_factory.hpp:77] Creating layer loss2/drop_fc
I0403 11:11:51.445289  7989 net.cpp:91] Creating Layer loss2/drop_fc
I0403 11:11:51.445304  7989 net.cpp:425] loss2/drop_fc <- loss2/fc
I0403 11:11:51.445320  7989 net.cpp:386] loss2/drop_fc -> loss2/fc (in-place)
I0403 11:11:51.445359  7989 net.cpp:141] Setting up loss2/drop_fc
I0403 11:11:51.445395  7989 net.cpp:148] Top shape: 24 1024 (24576)
I0403 11:11:51.445411  7989 net.cpp:156] Memory required for data: 1208405952
I0403 11:11:51.445425  7989 layer_factory.hpp:77] Creating layer loss2/classifier_plantvillage
I0403 11:11:51.445446  7989 net.cpp:91] Creating Layer loss2/classifier_plantvillage
I0403 11:11:51.445462  7989 net.cpp:425] loss2/classifier_plantvillage <- loss2/fc
I0403 11:11:51.445480  7989 net.cpp:399] loss2/classifier_plantvillage -> loss2/classifier_plantvillage
I0403 11:11:51.445801  7989 net.cpp:141] Setting up loss2/classifier_plantvillage
I0403 11:11:51.445823  7989 net.cpp:148] Top shape: 24 38 (912)
I0403 11:11:51.445837  7989 net.cpp:156] Memory required for data: 1208409600
I0403 11:11:51.445854  7989 layer_factory.hpp:77] Creating layer inception_4e/1x1
I0403 11:11:51.445878  7989 net.cpp:91] Creating Layer inception_4e/1x1
I0403 11:11:51.445895  7989 net.cpp:425] inception_4e/1x1 <- inception_4d/output_inception_4d/output_0_split_1
I0403 11:11:51.445912  7989 net.cpp:399] inception_4e/1x1 -> inception_4e/1x1
I0403 11:11:51.446843  7989 net.cpp:141] Setting up inception_4e/1x1
I0403 11:11:51.446867  7989 net.cpp:148] Top shape: 24 256 14 14 (1204224)
I0403 11:11:51.446899  7989 net.cpp:156] Memory required for data: 1213226496
I0403 11:11:51.446918  7989 layer_factory.hpp:77] Creating layer inception_4e/relu_1x1
I0403 11:11:51.446935  7989 net.cpp:91] Creating Layer inception_4e/relu_1x1
I0403 11:11:51.446951  7989 net.cpp:425] inception_4e/relu_1x1 <- inception_4e/1x1
I0403 11:11:51.446969  7989 net.cpp:386] inception_4e/relu_1x1 -> inception_4e/1x1 (in-place)
I0403 11:11:51.446988  7989 net.cpp:141] Setting up inception_4e/relu_1x1
I0403 11:11:51.447005  7989 net.cpp:148] Top shape: 24 256 14 14 (1204224)
I0403 11:11:51.447018  7989 net.cpp:156] Memory required for data: 1218043392
I0403 11:11:51.447031  7989 layer_factory.hpp:77] Creating layer inception_4e/3x3_reduce
I0403 11:11:51.447053  7989 net.cpp:91] Creating Layer inception_4e/3x3_reduce
I0403 11:11:51.447069  7989 net.cpp:425] inception_4e/3x3_reduce <- inception_4d/output_inception_4d/output_0_split_2
I0403 11:11:51.447088  7989 net.cpp:399] inception_4e/3x3_reduce -> inception_4e/3x3_reduce
I0403 11:11:51.448254  7989 net.cpp:141] Setting up inception_4e/3x3_reduce
I0403 11:11:51.448282  7989 net.cpp:148] Top shape: 24 160 14 14 (752640)
I0403 11:11:51.448297  7989 net.cpp:156] Memory required for data: 1221053952
I0403 11:11:51.448313  7989 layer_factory.hpp:77] Creating layer inception_4e/relu_3x3_reduce
I0403 11:11:51.448331  7989 net.cpp:91] Creating Layer inception_4e/relu_3x3_reduce
I0403 11:11:51.448348  7989 net.cpp:425] inception_4e/relu_3x3_reduce <- inception_4e/3x3_reduce
I0403 11:11:51.448364  7989 net.cpp:386] inception_4e/relu_3x3_reduce -> inception_4e/3x3_reduce (in-place)
I0403 11:11:51.448386  7989 net.cpp:141] Setting up inception_4e/relu_3x3_reduce
I0403 11:11:51.448405  7989 net.cpp:148] Top shape: 24 160 14 14 (752640)
I0403 11:11:51.448431  7989 net.cpp:156] Memory required for data: 1224064512
I0403 11:11:51.448444  7989 layer_factory.hpp:77] Creating layer inception_4e/3x3
I0403 11:11:51.448467  7989 net.cpp:91] Creating Layer inception_4e/3x3
I0403 11:11:51.448483  7989 net.cpp:425] inception_4e/3x3 <- inception_4e/3x3_reduce
I0403 11:11:51.448503  7989 net.cpp:399] inception_4e/3x3 -> inception_4e/3x3
I0403 11:11:51.452072  7989 net.cpp:141] Setting up inception_4e/3x3
I0403 11:11:51.452100  7989 net.cpp:148] Top shape: 24 320 14 14 (1505280)
I0403 11:11:51.452116  7989 net.cpp:156] Memory required for data: 1230085632
I0403 11:11:51.452147  7989 layer_factory.hpp:77] Creating layer inception_4e/relu_3x3
I0403 11:11:51.452168  7989 net.cpp:91] Creating Layer inception_4e/relu_3x3
I0403 11:11:51.452184  7989 net.cpp:425] inception_4e/relu_3x3 <- inception_4e/3x3
I0403 11:11:51.452201  7989 net.cpp:386] inception_4e/relu_3x3 -> inception_4e/3x3 (in-place)
I0403 11:11:51.452220  7989 net.cpp:141] Setting up inception_4e/relu_3x3
I0403 11:11:51.452237  7989 net.cpp:148] Top shape: 24 320 14 14 (1505280)
I0403 11:11:51.452250  7989 net.cpp:156] Memory required for data: 1236106752
I0403 11:11:51.452263  7989 layer_factory.hpp:77] Creating layer inception_4e/5x5_reduce
I0403 11:11:51.452286  7989 net.cpp:91] Creating Layer inception_4e/5x5_reduce
I0403 11:11:51.452303  7989 net.cpp:425] inception_4e/5x5_reduce <- inception_4d/output_inception_4d/output_0_split_3
I0403 11:11:51.452322  7989 net.cpp:399] inception_4e/5x5_reduce -> inception_4e/5x5_reduce
I0403 11:11:51.452643  7989 net.cpp:141] Setting up inception_4e/5x5_reduce
I0403 11:11:51.452671  7989 net.cpp:148] Top shape: 24 32 14 14 (150528)
I0403 11:11:51.452685  7989 net.cpp:156] Memory required for data: 1236708864
I0403 11:11:51.452702  7989 layer_factory.hpp:77] Creating layer inception_4e/relu_5x5_reduce
I0403 11:11:51.452718  7989 net.cpp:91] Creating Layer inception_4e/relu_5x5_reduce
I0403 11:11:51.452734  7989 net.cpp:425] inception_4e/relu_5x5_reduce <- inception_4e/5x5_reduce
I0403 11:11:51.452750  7989 net.cpp:386] inception_4e/relu_5x5_reduce -> inception_4e/5x5_reduce (in-place)
I0403 11:11:51.452769  7989 net.cpp:141] Setting up inception_4e/relu_5x5_reduce
I0403 11:11:51.452785  7989 net.cpp:148] Top shape: 24 32 14 14 (150528)
I0403 11:11:51.452812  7989 net.cpp:156] Memory required for data: 1237310976
I0403 11:11:51.452826  7989 layer_factory.hpp:77] Creating layer inception_4e/5x5
I0403 11:11:51.452848  7989 net.cpp:91] Creating Layer inception_4e/5x5
I0403 11:11:51.452865  7989 net.cpp:425] inception_4e/5x5 <- inception_4e/5x5_reduce
I0403 11:11:51.452885  7989 net.cpp:399] inception_4e/5x5 -> inception_4e/5x5
I0403 11:11:51.453646  7989 net.cpp:141] Setting up inception_4e/5x5
I0403 11:11:51.453670  7989 net.cpp:148] Top shape: 24 128 14 14 (602112)
I0403 11:11:51.453685  7989 net.cpp:156] Memory required for data: 1239719424
I0403 11:11:51.453701  7989 layer_factory.hpp:77] Creating layer inception_4e/relu_5x5
I0403 11:11:51.453718  7989 net.cpp:91] Creating Layer inception_4e/relu_5x5
I0403 11:11:51.453733  7989 net.cpp:425] inception_4e/relu_5x5 <- inception_4e/5x5
I0403 11:11:51.453752  7989 net.cpp:386] inception_4e/relu_5x5 -> inception_4e/5x5 (in-place)
I0403 11:11:51.453771  7989 net.cpp:141] Setting up inception_4e/relu_5x5
I0403 11:11:51.453788  7989 net.cpp:148] Top shape: 24 128 14 14 (602112)
I0403 11:11:51.453800  7989 net.cpp:156] Memory required for data: 1242127872
I0403 11:11:51.453814  7989 layer_factory.hpp:77] Creating layer inception_4e/pool
I0403 11:11:51.453848  7989 net.cpp:91] Creating Layer inception_4e/pool
I0403 11:11:51.453866  7989 net.cpp:425] inception_4e/pool <- inception_4d/output_inception_4d/output_0_split_4
I0403 11:11:51.453884  7989 net.cpp:399] inception_4e/pool -> inception_4e/pool
I0403 11:11:51.453933  7989 net.cpp:141] Setting up inception_4e/pool
I0403 11:11:51.453955  7989 net.cpp:148] Top shape: 24 528 14 14 (2483712)
I0403 11:11:51.453969  7989 net.cpp:156] Memory required for data: 1252062720
I0403 11:11:51.453984  7989 layer_factory.hpp:77] Creating layer inception_4e/pool_proj
I0403 11:11:51.454006  7989 net.cpp:91] Creating Layer inception_4e/pool_proj
I0403 11:11:51.454023  7989 net.cpp:425] inception_4e/pool_proj <- inception_4e/pool
I0403 11:11:51.454041  7989 net.cpp:399] inception_4e/pool_proj -> inception_4e/pool_proj
I0403 11:11:51.454594  7989 net.cpp:141] Setting up inception_4e/pool_proj
I0403 11:11:51.454618  7989 net.cpp:148] Top shape: 24 128 14 14 (602112)
I0403 11:11:51.454632  7989 net.cpp:156] Memory required for data: 1254471168
I0403 11:11:51.454649  7989 layer_factory.hpp:77] Creating layer inception_4e/relu_pool_proj
I0403 11:11:51.454666  7989 net.cpp:91] Creating Layer inception_4e/relu_pool_proj
I0403 11:11:51.454681  7989 net.cpp:425] inception_4e/relu_pool_proj <- inception_4e/pool_proj
I0403 11:11:51.454700  7989 net.cpp:386] inception_4e/relu_pool_proj -> inception_4e/pool_proj (in-place)
I0403 11:11:51.454718  7989 net.cpp:141] Setting up inception_4e/relu_pool_proj
I0403 11:11:51.454735  7989 net.cpp:148] Top shape: 24 128 14 14 (602112)
I0403 11:11:51.454749  7989 net.cpp:156] Memory required for data: 1256879616
I0403 11:11:51.454762  7989 layer_factory.hpp:77] Creating layer inception_4e/output
I0403 11:11:51.454778  7989 net.cpp:91] Creating Layer inception_4e/output
I0403 11:11:51.454793  7989 net.cpp:425] inception_4e/output <- inception_4e/1x1
I0403 11:11:51.454808  7989 net.cpp:425] inception_4e/output <- inception_4e/3x3
I0403 11:11:51.454823  7989 net.cpp:425] inception_4e/output <- inception_4e/5x5
I0403 11:11:51.454838  7989 net.cpp:425] inception_4e/output <- inception_4e/pool_proj
I0403 11:11:51.454854  7989 net.cpp:399] inception_4e/output -> inception_4e/output
I0403 11:11:51.454891  7989 net.cpp:141] Setting up inception_4e/output
I0403 11:11:51.454913  7989 net.cpp:148] Top shape: 24 832 14 14 (3913728)
I0403 11:11:51.454926  7989 net.cpp:156] Memory required for data: 1272534528
I0403 11:11:51.454941  7989 layer_factory.hpp:77] Creating layer pool4/3x3_s2
I0403 11:11:51.454957  7989 net.cpp:91] Creating Layer pool4/3x3_s2
I0403 11:11:51.454972  7989 net.cpp:425] pool4/3x3_s2 <- inception_4e/output
I0403 11:11:51.454989  7989 net.cpp:399] pool4/3x3_s2 -> pool4/3x3_s2
I0403 11:11:51.455036  7989 net.cpp:141] Setting up pool4/3x3_s2
I0403 11:11:51.455071  7989 net.cpp:148] Top shape: 24 832 7 7 (978432)
I0403 11:11:51.455086  7989 net.cpp:156] Memory required for data: 1276448256
I0403 11:11:51.455099  7989 layer_factory.hpp:77] Creating layer pool4/3x3_s2_pool4/3x3_s2_0_split
I0403 11:11:51.455116  7989 net.cpp:91] Creating Layer pool4/3x3_s2_pool4/3x3_s2_0_split
I0403 11:11:51.455133  7989 net.cpp:425] pool4/3x3_s2_pool4/3x3_s2_0_split <- pool4/3x3_s2
I0403 11:11:51.455149  7989 net.cpp:399] pool4/3x3_s2_pool4/3x3_s2_0_split -> pool4/3x3_s2_pool4/3x3_s2_0_split_0
I0403 11:11:51.455169  7989 net.cpp:399] pool4/3x3_s2_pool4/3x3_s2_0_split -> pool4/3x3_s2_pool4/3x3_s2_0_split_1
I0403 11:11:51.455190  7989 net.cpp:399] pool4/3x3_s2_pool4/3x3_s2_0_split -> pool4/3x3_s2_pool4/3x3_s2_0_split_2
I0403 11:11:51.455210  7989 net.cpp:399] pool4/3x3_s2_pool4/3x3_s2_0_split -> pool4/3x3_s2_pool4/3x3_s2_0_split_3
I0403 11:11:51.455276  7989 net.cpp:141] Setting up pool4/3x3_s2_pool4/3x3_s2_0_split
I0403 11:11:51.455296  7989 net.cpp:148] Top shape: 24 832 7 7 (978432)
I0403 11:11:51.455312  7989 net.cpp:148] Top shape: 24 832 7 7 (978432)
I0403 11:11:51.455325  7989 net.cpp:148] Top shape: 24 832 7 7 (978432)
I0403 11:11:51.455340  7989 net.cpp:148] Top shape: 24 832 7 7 (978432)
I0403 11:11:51.455353  7989 net.cpp:156] Memory required for data: 1292103168
I0403 11:11:51.455365  7989 layer_factory.hpp:77] Creating layer inception_5a/1x1
I0403 11:11:51.455391  7989 net.cpp:91] Creating Layer inception_5a/1x1
I0403 11:11:51.455410  7989 net.cpp:425] inception_5a/1x1 <- pool4/3x3_s2_pool4/3x3_s2_0_split_0
I0403 11:11:51.455431  7989 net.cpp:399] inception_5a/1x1 -> inception_5a/1x1
I0403 11:11:51.457238  7989 net.cpp:141] Setting up inception_5a/1x1
I0403 11:11:51.457272  7989 net.cpp:148] Top shape: 24 256 7 7 (301056)
I0403 11:11:51.457288  7989 net.cpp:156] Memory required for data: 1293307392
I0403 11:11:51.457305  7989 layer_factory.hpp:77] Creating layer inception_5a/relu_1x1
I0403 11:11:51.457324  7989 net.cpp:91] Creating Layer inception_5a/relu_1x1
I0403 11:11:51.457340  7989 net.cpp:425] inception_5a/relu_1x1 <- inception_5a/1x1
I0403 11:11:51.457355  7989 net.cpp:386] inception_5a/relu_1x1 -> inception_5a/1x1 (in-place)
I0403 11:11:51.457378  7989 net.cpp:141] Setting up inception_5a/relu_1x1
I0403 11:11:51.457396  7989 net.cpp:148] Top shape: 24 256 7 7 (301056)
I0403 11:11:51.457409  7989 net.cpp:156] Memory required for data: 1294511616
I0403 11:11:51.457434  7989 layer_factory.hpp:77] Creating layer inception_5a/3x3_reduce
I0403 11:11:51.457456  7989 net.cpp:91] Creating Layer inception_5a/3x3_reduce
I0403 11:11:51.457474  7989 net.cpp:425] inception_5a/3x3_reduce <- pool4/3x3_s2_pool4/3x3_s2_0_split_1
I0403 11:11:51.457494  7989 net.cpp:399] inception_5a/3x3_reduce -> inception_5a/3x3_reduce
I0403 11:11:51.458886  7989 net.cpp:141] Setting up inception_5a/3x3_reduce
I0403 11:11:51.458914  7989 net.cpp:148] Top shape: 24 160 7 7 (188160)
I0403 11:11:51.458930  7989 net.cpp:156] Memory required for data: 1295264256
I0403 11:11:51.458946  7989 layer_factory.hpp:77] Creating layer inception_5a/relu_3x3_reduce
I0403 11:11:51.458964  7989 net.cpp:91] Creating Layer inception_5a/relu_3x3_reduce
I0403 11:11:51.458981  7989 net.cpp:425] inception_5a/relu_3x3_reduce <- inception_5a/3x3_reduce
I0403 11:11:51.458997  7989 net.cpp:386] inception_5a/relu_3x3_reduce -> inception_5a/3x3_reduce (in-place)
I0403 11:11:51.459013  7989 net.cpp:141] Setting up inception_5a/relu_3x3_reduce
I0403 11:11:51.459030  7989 net.cpp:148] Top shape: 24 160 7 7 (188160)
I0403 11:11:51.459043  7989 net.cpp:156] Memory required for data: 1296016896
I0403 11:11:51.459056  7989 layer_factory.hpp:77] Creating layer inception_5a/3x3
I0403 11:11:51.459079  7989 net.cpp:91] Creating Layer inception_5a/3x3
I0403 11:11:51.459095  7989 net.cpp:425] inception_5a/3x3 <- inception_5a/3x3_reduce
I0403 11:11:51.459115  7989 net.cpp:399] inception_5a/3x3 -> inception_5a/3x3
I0403 11:11:51.462705  7989 net.cpp:141] Setting up inception_5a/3x3
I0403 11:11:51.462744  7989 net.cpp:148] Top shape: 24 320 7 7 (376320)
I0403 11:11:51.462761  7989 net.cpp:156] Memory required for data: 1297522176
I0403 11:11:51.462779  7989 layer_factory.hpp:77] Creating layer inception_5a/relu_3x3
I0403 11:11:51.462798  7989 net.cpp:91] Creating Layer inception_5a/relu_3x3
I0403 11:11:51.462820  7989 net.cpp:425] inception_5a/relu_3x3 <- inception_5a/3x3
I0403 11:11:51.462837  7989 net.cpp:386] inception_5a/relu_3x3 -> inception_5a/3x3 (in-place)
I0403 11:11:51.462857  7989 net.cpp:141] Setting up inception_5a/relu_3x3
I0403 11:11:51.462873  7989 net.cpp:148] Top shape: 24 320 7 7 (376320)
I0403 11:11:51.462888  7989 net.cpp:156] Memory required for data: 1299027456
I0403 11:11:51.462903  7989 layer_factory.hpp:77] Creating layer inception_5a/5x5_reduce
I0403 11:11:51.462924  7989 net.cpp:91] Creating Layer inception_5a/5x5_reduce
I0403 11:11:51.462940  7989 net.cpp:425] inception_5a/5x5_reduce <- pool4/3x3_s2_pool4/3x3_s2_0_split_2
I0403 11:11:51.462959  7989 net.cpp:399] inception_5a/5x5_reduce -> inception_5a/5x5_reduce
I0403 11:11:51.463313  7989 net.cpp:141] Setting up inception_5a/5x5_reduce
I0403 11:11:51.463336  7989 net.cpp:148] Top shape: 24 32 7 7 (37632)
I0403 11:11:51.463351  7989 net.cpp:156] Memory required for data: 1299177984
I0403 11:11:51.463367  7989 layer_factory.hpp:77] Creating layer inception_5a/relu_5x5_reduce
I0403 11:11:51.463388  7989 net.cpp:91] Creating Layer inception_5a/relu_5x5_reduce
I0403 11:11:51.463405  7989 net.cpp:425] inception_5a/relu_5x5_reduce <- inception_5a/5x5_reduce
I0403 11:11:51.463424  7989 net.cpp:386] inception_5a/relu_5x5_reduce -> inception_5a/5x5_reduce (in-place)
I0403 11:11:51.463444  7989 net.cpp:141] Setting up inception_5a/relu_5x5_reduce
I0403 11:11:51.463460  7989 net.cpp:148] Top shape: 24 32 7 7 (37632)
I0403 11:11:51.463474  7989 net.cpp:156] Memory required for data: 1299328512
I0403 11:11:51.463487  7989 layer_factory.hpp:77] Creating layer inception_5a/5x5
I0403 11:11:51.463510  7989 net.cpp:91] Creating Layer inception_5a/5x5
I0403 11:11:51.463527  7989 net.cpp:425] inception_5a/5x5 <- inception_5a/5x5_reduce
I0403 11:11:51.463546  7989 net.cpp:399] inception_5a/5x5 -> inception_5a/5x5
I0403 11:11:51.464285  7989 net.cpp:141] Setting up inception_5a/5x5
I0403 11:11:51.464309  7989 net.cpp:148] Top shape: 24 128 7 7 (150528)
I0403 11:11:51.464323  7989 net.cpp:156] Memory required for data: 1299930624
I0403 11:11:51.464340  7989 layer_factory.hpp:77] Creating layer inception_5a/relu_5x5
I0403 11:11:51.464357  7989 net.cpp:91] Creating Layer inception_5a/relu_5x5
I0403 11:11:51.464372  7989 net.cpp:425] inception_5a/relu_5x5 <- inception_5a/5x5
I0403 11:11:51.464396  7989 net.cpp:386] inception_5a/relu_5x5 -> inception_5a/5x5 (in-place)
I0403 11:11:51.464416  7989 net.cpp:141] Setting up inception_5a/relu_5x5
I0403 11:11:51.464433  7989 net.cpp:148] Top shape: 24 128 7 7 (150528)
I0403 11:11:51.464447  7989 net.cpp:156] Memory required for data: 1300532736
I0403 11:11:51.464460  7989 layer_factory.hpp:77] Creating layer inception_5a/pool
I0403 11:11:51.464476  7989 net.cpp:91] Creating Layer inception_5a/pool
I0403 11:11:51.464491  7989 net.cpp:425] inception_5a/pool <- pool4/3x3_s2_pool4/3x3_s2_0_split_3
I0403 11:11:51.464509  7989 net.cpp:399] inception_5a/pool -> inception_5a/pool
I0403 11:11:51.464575  7989 net.cpp:141] Setting up inception_5a/pool
I0403 11:11:51.464596  7989 net.cpp:148] Top shape: 24 832 7 7 (978432)
I0403 11:11:51.464609  7989 net.cpp:156] Memory required for data: 1304446464
I0403 11:11:51.464622  7989 layer_factory.hpp:77] Creating layer inception_5a/pool_proj
I0403 11:11:51.464644  7989 net.cpp:91] Creating Layer inception_5a/pool_proj
I0403 11:11:51.464661  7989 net.cpp:425] inception_5a/pool_proj <- inception_5a/pool
I0403 11:11:51.464681  7989 net.cpp:399] inception_5a/pool_proj -> inception_5a/pool_proj
I0403 11:11:51.466012  7989 net.cpp:141] Setting up inception_5a/pool_proj
I0403 11:11:51.466038  7989 net.cpp:148] Top shape: 24 128 7 7 (150528)
I0403 11:11:51.466053  7989 net.cpp:156] Memory required for data: 1305048576
I0403 11:11:51.466084  7989 layer_factory.hpp:77] Creating layer inception_5a/relu_pool_proj
I0403 11:11:51.466104  7989 net.cpp:91] Creating Layer inception_5a/relu_pool_proj
I0403 11:11:51.466120  7989 net.cpp:425] inception_5a/relu_pool_proj <- inception_5a/pool_proj
I0403 11:11:51.466140  7989 net.cpp:386] inception_5a/relu_pool_proj -> inception_5a/pool_proj (in-place)
I0403 11:11:51.466157  7989 net.cpp:141] Setting up inception_5a/relu_pool_proj
I0403 11:11:51.466173  7989 net.cpp:148] Top shape: 24 128 7 7 (150528)
I0403 11:11:51.466187  7989 net.cpp:156] Memory required for data: 1305650688
I0403 11:11:51.466202  7989 layer_factory.hpp:77] Creating layer inception_5a/output
I0403 11:11:51.466217  7989 net.cpp:91] Creating Layer inception_5a/output
I0403 11:11:51.466233  7989 net.cpp:425] inception_5a/output <- inception_5a/1x1
I0403 11:11:51.466248  7989 net.cpp:425] inception_5a/output <- inception_5a/3x3
I0403 11:11:51.466262  7989 net.cpp:425] inception_5a/output <- inception_5a/5x5
I0403 11:11:51.466276  7989 net.cpp:425] inception_5a/output <- inception_5a/pool_proj
I0403 11:11:51.466294  7989 net.cpp:399] inception_5a/output -> inception_5a/output
I0403 11:11:51.466331  7989 net.cpp:141] Setting up inception_5a/output
I0403 11:11:51.466353  7989 net.cpp:148] Top shape: 24 832 7 7 (978432)
I0403 11:11:51.466367  7989 net.cpp:156] Memory required for data: 1309564416
I0403 11:11:51.466384  7989 layer_factory.hpp:77] Creating layer inception_5a/output_inception_5a/output_0_split
I0403 11:11:51.466403  7989 net.cpp:91] Creating Layer inception_5a/output_inception_5a/output_0_split
I0403 11:11:51.466420  7989 net.cpp:425] inception_5a/output_inception_5a/output_0_split <- inception_5a/output
I0403 11:11:51.466436  7989 net.cpp:399] inception_5a/output_inception_5a/output_0_split -> inception_5a/output_inception_5a/output_0_split_0
I0403 11:11:51.466456  7989 net.cpp:399] inception_5a/output_inception_5a/output_0_split -> inception_5a/output_inception_5a/output_0_split_1
I0403 11:11:51.466475  7989 net.cpp:399] inception_5a/output_inception_5a/output_0_split -> inception_5a/output_inception_5a/output_0_split_2
I0403 11:11:51.466495  7989 net.cpp:399] inception_5a/output_inception_5a/output_0_split -> inception_5a/output_inception_5a/output_0_split_3
I0403 11:11:51.466559  7989 net.cpp:141] Setting up inception_5a/output_inception_5a/output_0_split
I0403 11:11:51.466581  7989 net.cpp:148] Top shape: 24 832 7 7 (978432)
I0403 11:11:51.466596  7989 net.cpp:148] Top shape: 24 832 7 7 (978432)
I0403 11:11:51.466610  7989 net.cpp:148] Top shape: 24 832 7 7 (978432)
I0403 11:11:51.466624  7989 net.cpp:148] Top shape: 24 832 7 7 (978432)
I0403 11:11:51.466637  7989 net.cpp:156] Memory required for data: 1325219328
I0403 11:11:51.466650  7989 layer_factory.hpp:77] Creating layer inception_5b/1x1
I0403 11:11:51.466672  7989 net.cpp:91] Creating Layer inception_5b/1x1
I0403 11:11:51.466689  7989 net.cpp:425] inception_5b/1x1 <- inception_5a/output_inception_5a/output_0_split_0
I0403 11:11:51.466709  7989 net.cpp:399] inception_5b/1x1 -> inception_5b/1x1
I0403 11:11:51.469151  7989 net.cpp:141] Setting up inception_5b/1x1
I0403 11:11:51.469182  7989 net.cpp:148] Top shape: 24 384 7 7 (451584)
I0403 11:11:51.469199  7989 net.cpp:156] Memory required for data: 1327025664
I0403 11:11:51.469216  7989 layer_factory.hpp:77] Creating layer inception_5b/relu_1x1
I0403 11:11:51.469235  7989 net.cpp:91] Creating Layer inception_5b/relu_1x1
I0403 11:11:51.469251  7989 net.cpp:425] inception_5b/relu_1x1 <- inception_5b/1x1
I0403 11:11:51.469269  7989 net.cpp:386] inception_5b/relu_1x1 -> inception_5b/1x1 (in-place)
I0403 11:11:51.469286  7989 net.cpp:141] Setting up inception_5b/relu_1x1
I0403 11:11:51.469303  7989 net.cpp:148] Top shape: 24 384 7 7 (451584)
I0403 11:11:51.469316  7989 net.cpp:156] Memory required for data: 1328832000
I0403 11:11:51.469331  7989 layer_factory.hpp:77] Creating layer inception_5b/3x3_reduce
I0403 11:11:51.469352  7989 net.cpp:91] Creating Layer inception_5b/3x3_reduce
I0403 11:11:51.469386  7989 net.cpp:425] inception_5b/3x3_reduce <- inception_5a/output_inception_5a/output_0_split_1
I0403 11:11:51.469408  7989 net.cpp:399] inception_5b/3x3_reduce -> inception_5b/3x3_reduce
I0403 11:11:51.470960  7989 net.cpp:141] Setting up inception_5b/3x3_reduce
I0403 11:11:51.470986  7989 net.cpp:148] Top shape: 24 192 7 7 (225792)
I0403 11:11:51.471001  7989 net.cpp:156] Memory required for data: 1329735168
I0403 11:11:51.471019  7989 layer_factory.hpp:77] Creating layer inception_5b/relu_3x3_reduce
I0403 11:11:51.471038  7989 net.cpp:91] Creating Layer inception_5b/relu_3x3_reduce
I0403 11:11:51.471055  7989 net.cpp:425] inception_5b/relu_3x3_reduce <- inception_5b/3x3_reduce
I0403 11:11:51.471071  7989 net.cpp:386] inception_5b/relu_3x3_reduce -> inception_5b/3x3_reduce (in-place)
I0403 11:11:51.471091  7989 net.cpp:141] Setting up inception_5b/relu_3x3_reduce
I0403 11:11:51.471107  7989 net.cpp:148] Top shape: 24 192 7 7 (225792)
I0403 11:11:51.471119  7989 net.cpp:156] Memory required for data: 1330638336
I0403 11:11:51.471134  7989 layer_factory.hpp:77] Creating layer inception_5b/3x3
I0403 11:11:51.471156  7989 net.cpp:91] Creating Layer inception_5b/3x3
I0403 11:11:51.471173  7989 net.cpp:425] inception_5b/3x3 <- inception_5b/3x3_reduce
I0403 11:11:51.471190  7989 net.cpp:399] inception_5b/3x3 -> inception_5b/3x3
I0403 11:11:51.476181  7989 net.cpp:141] Setting up inception_5b/3x3
I0403 11:11:51.476208  7989 net.cpp:148] Top shape: 24 384 7 7 (451584)
I0403 11:11:51.476223  7989 net.cpp:156] Memory required for data: 1332444672
I0403 11:11:51.476241  7989 layer_factory.hpp:77] Creating layer inception_5b/relu_3x3
I0403 11:11:51.476259  7989 net.cpp:91] Creating Layer inception_5b/relu_3x3
I0403 11:11:51.476275  7989 net.cpp:425] inception_5b/relu_3x3 <- inception_5b/3x3
I0403 11:11:51.476294  7989 net.cpp:386] inception_5b/relu_3x3 -> inception_5b/3x3 (in-place)
I0403 11:11:51.476315  7989 net.cpp:141] Setting up inception_5b/relu_3x3
I0403 11:11:51.476332  7989 net.cpp:148] Top shape: 24 384 7 7 (451584)
I0403 11:11:51.476347  7989 net.cpp:156] Memory required for data: 1334251008
I0403 11:11:51.476362  7989 layer_factory.hpp:77] Creating layer inception_5b/5x5_reduce
I0403 11:11:51.476385  7989 net.cpp:91] Creating Layer inception_5b/5x5_reduce
I0403 11:11:51.476403  7989 net.cpp:425] inception_5b/5x5_reduce <- inception_5a/output_inception_5a/output_0_split_2
I0403 11:11:51.476425  7989 net.cpp:399] inception_5b/5x5_reduce -> inception_5b/5x5_reduce
I0403 11:11:51.476861  7989 net.cpp:141] Setting up inception_5b/5x5_reduce
I0403 11:11:51.476884  7989 net.cpp:148] Top shape: 24 48 7 7 (56448)
I0403 11:11:51.476899  7989 net.cpp:156] Memory required for data: 1334476800
I0403 11:11:51.476917  7989 layer_factory.hpp:77] Creating layer inception_5b/relu_5x5_reduce
I0403 11:11:51.476934  7989 net.cpp:91] Creating Layer inception_5b/relu_5x5_reduce
I0403 11:11:51.476949  7989 net.cpp:425] inception_5b/relu_5x5_reduce <- inception_5b/5x5_reduce
I0403 11:11:51.476966  7989 net.cpp:386] inception_5b/relu_5x5_reduce -> inception_5b/5x5_reduce (in-place)
I0403 11:11:51.476984  7989 net.cpp:141] Setting up inception_5b/relu_5x5_reduce
I0403 11:11:51.477000  7989 net.cpp:148] Top shape: 24 48 7 7 (56448)
I0403 11:11:51.477015  7989 net.cpp:156] Memory required for data: 1334702592
I0403 11:11:51.477027  7989 layer_factory.hpp:77] Creating layer inception_5b/5x5
I0403 11:11:51.477048  7989 net.cpp:91] Creating Layer inception_5b/5x5
I0403 11:11:51.477066  7989 net.cpp:425] inception_5b/5x5 <- inception_5b/5x5_reduce
I0403 11:11:51.477087  7989 net.cpp:399] inception_5b/5x5 -> inception_5b/5x5
I0403 11:11:51.478164  7989 net.cpp:141] Setting up inception_5b/5x5
I0403 11:11:51.478189  7989 net.cpp:148] Top shape: 24 128 7 7 (150528)
I0403 11:11:51.478204  7989 net.cpp:156] Memory required for data: 1335304704
I0403 11:11:51.478220  7989 layer_factory.hpp:77] Creating layer inception_5b/relu_5x5
I0403 11:11:51.478240  7989 net.cpp:91] Creating Layer inception_5b/relu_5x5
I0403 11:11:51.478256  7989 net.cpp:425] inception_5b/relu_5x5 <- inception_5b/5x5
I0403 11:11:51.478286  7989 net.cpp:386] inception_5b/relu_5x5 -> inception_5b/5x5 (in-place)
I0403 11:11:51.478307  7989 net.cpp:141] Setting up inception_5b/relu_5x5
I0403 11:11:51.478323  7989 net.cpp:148] Top shape: 24 128 7 7 (150528)
I0403 11:11:51.478337  7989 net.cpp:156] Memory required for data: 1335906816
I0403 11:11:51.478348  7989 layer_factory.hpp:77] Creating layer inception_5b/pool
I0403 11:11:51.478365  7989 net.cpp:91] Creating Layer inception_5b/pool
I0403 11:11:51.478384  7989 net.cpp:425] inception_5b/pool <- inception_5a/output_inception_5a/output_0_split_3
I0403 11:11:51.478405  7989 net.cpp:399] inception_5b/pool -> inception_5b/pool
I0403 11:11:51.478456  7989 net.cpp:141] Setting up inception_5b/pool
I0403 11:11:51.478480  7989 net.cpp:148] Top shape: 24 832 7 7 (978432)
I0403 11:11:51.478494  7989 net.cpp:156] Memory required for data: 1339820544
I0403 11:11:51.478508  7989 layer_factory.hpp:77] Creating layer inception_5b/pool_proj
I0403 11:11:51.478528  7989 net.cpp:91] Creating Layer inception_5b/pool_proj
I0403 11:11:51.478544  7989 net.cpp:425] inception_5b/pool_proj <- inception_5b/pool
I0403 11:11:51.478565  7989 net.cpp:399] inception_5b/pool_proj -> inception_5b/pool_proj
I0403 11:11:51.479828  7989 net.cpp:141] Setting up inception_5b/pool_proj
I0403 11:11:51.479854  7989 net.cpp:148] Top shape: 24 128 7 7 (150528)
I0403 11:11:51.479869  7989 net.cpp:156] Memory required for data: 1340422656
I0403 11:11:51.479887  7989 layer_factory.hpp:77] Creating layer inception_5b/relu_pool_proj
I0403 11:11:51.479907  7989 net.cpp:91] Creating Layer inception_5b/relu_pool_proj
I0403 11:11:51.479923  7989 net.cpp:425] inception_5b/relu_pool_proj <- inception_5b/pool_proj
I0403 11:11:51.479939  7989 net.cpp:386] inception_5b/relu_pool_proj -> inception_5b/pool_proj (in-place)
I0403 11:11:51.479959  7989 net.cpp:141] Setting up inception_5b/relu_pool_proj
I0403 11:11:51.479975  7989 net.cpp:148] Top shape: 24 128 7 7 (150528)
I0403 11:11:51.479989  7989 net.cpp:156] Memory required for data: 1341024768
I0403 11:11:51.480001  7989 layer_factory.hpp:77] Creating layer inception_5b/output
I0403 11:11:51.480025  7989 net.cpp:91] Creating Layer inception_5b/output
I0403 11:11:51.480039  7989 net.cpp:425] inception_5b/output <- inception_5b/1x1
I0403 11:11:51.480054  7989 net.cpp:425] inception_5b/output <- inception_5b/3x3
I0403 11:11:51.480069  7989 net.cpp:425] inception_5b/output <- inception_5b/5x5
I0403 11:11:51.480084  7989 net.cpp:425] inception_5b/output <- inception_5b/pool_proj
I0403 11:11:51.480101  7989 net.cpp:399] inception_5b/output -> inception_5b/output
I0403 11:11:51.480150  7989 net.cpp:141] Setting up inception_5b/output
I0403 11:11:51.480175  7989 net.cpp:148] Top shape: 24 1024 7 7 (1204224)
I0403 11:11:51.480190  7989 net.cpp:156] Memory required for data: 1345841664
I0403 11:11:51.480204  7989 layer_factory.hpp:77] Creating layer pool5/7x7_s1
I0403 11:11:51.480221  7989 net.cpp:91] Creating Layer pool5/7x7_s1
I0403 11:11:51.480237  7989 net.cpp:425] pool5/7x7_s1 <- inception_5b/output
I0403 11:11:51.480257  7989 net.cpp:399] pool5/7x7_s1 -> pool5/7x7_s1
I0403 11:11:51.480293  7989 net.cpp:141] Setting up pool5/7x7_s1
I0403 11:11:51.480315  7989 net.cpp:148] Top shape: 24 1024 1 1 (24576)
I0403 11:11:51.480329  7989 net.cpp:156] Memory required for data: 1345939968
I0403 11:11:51.480342  7989 layer_factory.hpp:77] Creating layer pool5/drop_7x7_s1
I0403 11:11:51.480362  7989 net.cpp:91] Creating Layer pool5/drop_7x7_s1
I0403 11:11:51.480382  7989 net.cpp:425] pool5/drop_7x7_s1 <- pool5/7x7_s1
I0403 11:11:51.480401  7989 net.cpp:386] pool5/drop_7x7_s1 -> pool5/7x7_s1 (in-place)
I0403 11:11:51.480450  7989 net.cpp:141] Setting up pool5/drop_7x7_s1
I0403 11:11:51.480473  7989 net.cpp:148] Top shape: 24 1024 1 1 (24576)
I0403 11:11:51.480485  7989 net.cpp:156] Memory required for data: 1346038272
I0403 11:11:51.480499  7989 layer_factory.hpp:77] Creating layer loss3/classifier_plantvillage
I0403 11:11:51.480517  7989 net.cpp:91] Creating Layer loss3/classifier_plantvillage
I0403 11:11:51.480545  7989 net.cpp:425] loss3/classifier_plantvillage <- pool5/7x7_s1
I0403 11:11:51.480566  7989 net.cpp:399] loss3/classifier_plantvillage -> loss3/classifier_plantvillage
I0403 11:11:51.480887  7989 net.cpp:141] Setting up loss3/classifier_plantvillage
I0403 11:11:51.480911  7989 net.cpp:148] Top shape: 24 38 (912)
I0403 11:11:51.480923  7989 net.cpp:156] Memory required for data: 1346041920
I0403 11:11:51.480940  7989 layer_factory.hpp:77] Creating layer loss1/loss
I0403 11:11:51.480986  7989 net.cpp:91] Creating Layer loss1/loss
I0403 11:11:51.481004  7989 net.cpp:425] loss1/loss <- loss1/classifier_plantvillage
I0403 11:11:51.481021  7989 net.cpp:425] loss1/loss <- label_data_1_split_0
I0403 11:11:51.481037  7989 net.cpp:399] loss1/loss -> loss1/loss
…
I0403 11:11:51.490255  7989 net.cpp:313] The NetState phase (1) differed from the phase (0) specified by a rule in layer data
I0403 11:11:51.493922  7989 net.cpp:49] Initializing net from parameters: 
state {
  phase: TEST
}
layer {
  name: "data"
  type: "Data"
  top: "data"
  top: "label"
  include {
    phase: TEST
  }
  transform_param {
    mirror: false
    crop_size: 224
    mean_file: "/home/mohanty/data/final_dataset/lmdb/color-60-40/mean.binaryproto"
  }
  data_param {
    source: "/home/mohanty/data/final_dataset/lmdb/color-60-40/test_db"
    batch_size: 24
    backend: LMDB
  }
}
layer {
  name: "conv1/7x7_s2"
  type: "Convolution"
  bottom: "data"
  top: "conv1/7x7_s2"
  param {
    lr_mult: 1
    decay_mult: 1
  }
  param {
    lr_mult: 2
    decay_mult: 0
  }
  convolution_param {
    num_output: 64
    pad: 3
    kernel_size: 7
    stride: 2
    weight_filler {
      type: "xavier"
      std: 0.1
    }
    bias_filler {
      type: "constant"
      value: 0.2
    }
  }
}
layer {
  name: "conv1/relu_7x7"
  type: "ReLU"
  bottom: "conv1/7x7_s2"
  top: "conv1/7x7_s2"
}
layer {
  name: "pool1/3x3_s2"
  type: "Pooling"
  bottom: "conv1/7x7_s2"
  top: "pool1/3x3_s2"
  pooling_param {
    pool: MAX
    kernel_size: 3
    stride: 2
  }
}
layer {
  name: "pool1/norm1"
  type: "LRN"
  bottom: "pool1/3x3_s2"
  top: "pool1/norm1"
  lrn_param {
    local_size: 5
    alpha: 0.0001
    beta: 0.75
  }
}
layer {
  name: "conv2/3x3_reduce"
  type: "Convolution"
  bottom: "pool1/norm1"
  top: "conv2/3x3_reduce"
  param {
    lr_mult: 1
    decay_mult: 1
  }
  param {
    lr_mult: 2
    decay_mult: 0
  }
  convolution_param {
    num_output: 64
    kernel_size: 1
    weight_filler {
      type: "xavier"
      std: 0.1
    }
    bias_filler {
      type: "constant"
      value: 0.2
    }
  }
}
layer {
  name: "conv2/relu_3x3_reduce"
  type: "ReLU"
  bottom: "conv2/3x3_reduce"
  top: "conv2/3x3_reduce"
}
layer {
  name: "conv2/3x3"
  type: "Convolution"
  bottom: "conv2/3x3_reduce"
  top: "conv2/3x3"
  param {
    lr_mult: 1
    decay_mult: 1
  }
  param {
    lr_mult: 2
    decay_mult: 0
  }
  convolution_param {
    num_output: 192
    pad: 1
    kernel_size: 3
    weight_filler {
      type: "xavier"
      std: 0.03
    }
    bias_filler {
      type: "constant"
      value: 0.2
    }
  }
}
layer {
  name: "conv2/relu_3x3"
  type: "ReLU"
  bottom: "conv2/3x3"
  top: "conv2/3x3"
}
layer {
  name: "conv2/norm2"
  type: "LRN"
  bottom: "conv2/3x3"
  top: "conv2/norm2"
  lrn_param {
    local_size: 5
    alpha: 0.0001
    beta: 0.75
  }
}
layer {
  name: "pool2/3x3_s2"
  type: "Pooling"
  bottom: "conv2/norm2"
  top: "pool2/3x3_s2"
  pooling_param {
    pool: MAX
    kernel_size: 3
    stride: 2
  }
}
layer {
  name: "inception_3a/1x1"
  type: "Convolution"
  bottom: "pool2/3x3_s2"
  top: "inception_3a/1x1"
  param {
    lr_mult: 1
    decay_mult: 1
  }
  param {
    lr_mult: 2
    decay_mult: 0
  }
  convolution_param {
    num_output: 64
    kernel_size: 1
    weight_filler {
      type: "xavier"
      std: 0.03
    }
    bias_filler {
      type: "constant"
      value: 0.2
    }
  }
}
layer {
  name: "inception_3a/relu_1x1"
  type: "ReLU"
  bottom: "inception_3a/1x1"
  top: "inception_3a/1x1"
}
layer {
  name: "inception_3a/3x3_reduce"
  type: "Convolution"
  bottom: "pool2/3x3_s2"
  top: "inception_3a/3x3_reduce"
  param {
    lr_mult: 1
    decay_mult: 1
  }
  param {
    lr_mult: 2
    decay_mult: 0
  }
  convolution_param {
    num_output: 96
    kernel_size: 1
    weight_filler {
      type: "xavier"
      std: 0.09
    }
    bias_filler {
      type: "constant"
      value: 0.2
    }
  }
}
layer {
  name: "inception_3a/relu_3x3_reduce"
  type: "ReLU"
  bottom: "inception_3a/3x3_reduce"
  top: "inception_3a/3x3_reduce"
}
layer {
  name: "inception_3a/3x3"
  type: "Convolution"
  bottom: "inception_3a/3x3_reduce"
  top: "inception_3a/3x3"
  param {
    lr_mult: 1
    decay_mult: 1
  }
  param {
    lr_mult: 2
    decay_mult: 0
  }
  convolution_param {
    num_output: 128
    pad: 1
    kernel_size: 3
    weight_filler {
      type: "xavier"
      std: 0.03
    }
    bias_filler {
      type: "constant"
      value: 0.2
    }
  }
}
layer {
  name: "inception_3a/relu_3x3"
  type: "ReLU"
  bottom: "inception_3a/3x3"
  top: "inception_3a/3x3"
}
layer {
  name: "inception_3a/5x5_reduce"
  type: "Convolution"
  bottom: "pool2/3x3_s2"
  top: "inception_3a/5x5_reduce"
  param {
    lr_mult: 1
    decay_mult: 1
  }
  param {
    lr_mult: 2
    decay_mult: 0
  }
  convolution_param {
    num_output: 16
    kernel_size: 1
    weight_filler {
      type: "xavier"
      std: 0.2
    }
    bias_filler {
      type: "constant"
      value: 0.2
    }
  }
}
layer {
  name: "inception_3a/relu_5x5_reduce"
  type: "ReLU"
  bottom: "inception_3a/5x5_reduce"
  top: "inception_3a/5x5_reduce"
}
layer {
  name: "inception_3a/5x5"
  type: "Convolution"
  bottom: "inception_3a/5x5_reduce"
  top: "inception_3a/5x5"
  param {
    lr_mult: 1
    decay_mult: 1
  }
  param {
    lr_mult: 2
    decay_mult: 0
  }
  convolution_param {
    num_output: 32
    pad: 2
    kernel_size: 5
    weight_filler {
      type: "xavier"
      std: 0.03
    }
    bias_filler {
      type: "constant"
      value: 0.2
    }
  }
}
layer {
  name: "inception_3a/relu_5x5"
  type: "ReLU"
  bottom: "inception_3a/5x5"
  top: "inception_3a/5x5"
}
layer {
  name: "inception_3a/pool"
  type: "Pooling"
  bottom: "pool2/3x3_s2"
  top: "inception_3a/pool"
  pooling_param {
    pool: MAX
    kernel_size: 3
    stride: 1
    pad: 1
  }
}
layer {
  name: "inception_3a/pool_proj"
  type: "Convolution"
  bottom: "inception_3a/pool"
  top: "inception_3a/pool_proj"
  param {
    lr_mult: 1
    decay_mult: 1
  }
  param {
    lr_mult: 2
    decay_mult: 0
  }
  convolution_param {
    num_output: 32
    kernel_size: 1
    weight_filler {
      type: "xavier"
      std: 0.1
    }
    bias_filler {
      type: "constant"
      value: 0.2
    }
  }
}
layer {
  name: "inception_3a/relu_pool_proj"
  type: "ReLU"
  bottom: "inception_3a/pool_proj"
  top: "inception_3a/pool_proj"
}
layer {
  name: "inception_3a/output"
  type: "Concat"
  bottom: "inception_3a/1x1"
  bottom: "inception_3a/3x3"
  bottom: "inception_3a/5x5"
  bottom: "inception_3a/pool_proj"
  top: "inception_3a/output"
}
layer {
  name: "inception_3b/1x1"
  type: "Convolution"
  bottom: "inception_3a/output"
  top: "inception_3b/1x1"
  param {
    lr_mult: 1
    decay_mult: 1
  }
  param {
    lr_mult: 2
    decay_mult: 0
  }
  convolution_param {
    num_output: 128
    kernel_size: 1
    weight_filler {
      type: "xavier"
      std: 0.03
    }
    bias_filler {
      type: "constant"
      value: 0.2
    }
  }
}
layer {
  name: "inception_3b/relu_1x1"
  type: "ReLU"
  bottom: "inception_3b/1x1"
  top: "inception_3b/1x1"
}
layer {
  name: "inception_3b/3x3_reduce"
  type: "Convolution"
  bottom: "inception_3a/output"
  top: "inception_3b/3x3_reduce"
  param {
    lr_mult: 1
    decay_mult: 1
  }
  param {
    lr_mult: 2
    decay_mult: 0
  }
  convolution_param {
    num_output: 128
    kernel_size: 1
    weight_filler {
      type: "xavier"
      std: 0.09
    }
    bias_filler {
      type: "constant"
      value: 0.2
    }
  }
}
layer {
  name: "inception_3b/relu_3x3_reduce"
  type: "ReLU"
  bottom: "inception_3b/3x3_reduce"
  top: "inception_3b/3x3_reduce"
}
layer {
  name: "inception_3b/3x3"
  type: "Convolution"
  bottom: "inception_3b/3x3_reduce"
  top: "inception_3b/3x3"
  param {
    lr_mult: 1
    decay_mult: 1
  }
  param {
    lr_mult: 2
    decay_mult: 0
  }
  convolution_param {
    num_output: 192
    pad: 1
    kernel_size: 3
    weight_filler {
      type: "xavier"
      std: 0.03
    }
    bias_filler {
      type: "constant"
      value: 0.2
    }
  }
}
layer {
  name: "inception_3b/relu_3x3"
  type: "ReLU"
  bottom: "inception_3b/3x3"
  top: "inception_3b/3x3"
}
layer {
  name: "inception_3b/5x5_reduce"
  type: "Convolution"
  bottom: "inception_3a/output"
  top: "inception_3b/5x5_reduce"
  param {
    lr_mult: 1
    decay_mult: 1
  }
  param {
    lr_mult: 2
    decay_mult: 0
  }
  convolution_param {
    num_output: 32
    kernel_size: 1
    weight_filler {
      type: "xavier"
      std: 0.2
    }
    bias_filler {
      type: "constant"
      value: 0.2
    }
  }
}
layer {
  name: "inception_3b/relu_5x5_reduce"
  type: "ReLU"
  bottom: "inception_3b/5x5_reduce"
  top: "inception_3b/5x5_reduce"
}
layer {
  name: "inception_3b/5x5"
  type: "Convolution"
  bottom: "inception_3b/5x5_reduce"
  top: "inception_3b/5x5"
  param {
    lr_mult: 1
    decay_mult: 1
  }
  param {
    lr_mult: 2
    decay_mult: 0
  }
  convolution_param {
    num_output: 96
    pad: 2
    kernel_size: 5
    weight_filler {
      type: "xavier"
      std: 0.03
    }
    bias_filler {
      type: "constant"
      value: 0.2
    }
  }
}
layer {
  name: "inception_3b/relu_5x5"
  type: "ReLU"
  bottom: "inception_3b/5x5"
  top: "inception_3b/5x5"
}
layer {
  name: "inception_3b/pool"
  type: "Pooling"
  bottom: "inception_3a/output"
  top: "inception_3b/pool"
  pooling_param {
    pool: MAX
    kernel_size: 3
    stride: 1
    pad: 1
  }
}
layer {
  name: "inception_3b/pool_proj"
  type: "Convolution"
  bottom: "inception_3b/pool"
  top: "inception_3b/pool_proj"
  param {
    lr_mult: 1
    decay_mult: 1
  }
  param {
    lr_mult: 2
    decay_mult: 0
  }
  convolution_param {
    num_output: 64
    kernel_size: 1
    weight_filler {
      type: "xavier"
      std: 0.1
    }
    bias_filler {
      type: "constant"
      value: 0.2
    }
  }
}
layer {
  name: "inception_3b/relu_pool_proj"
  type: "ReLU"
  bottom: "inception_3b/pool_proj"
  top: "inception_3b/pool_proj"
}
layer {
  name: "inception_3b/output"
  type: "Concat"
  bottom: "inception_3b/1x1"
  bottom: "inception_3b/3x3"
  bottom: "inception_3b/5x5"
  bottom: "inception_3b/pool_proj"
  top: "inception_3b/output"
}
layer {
  name: "pool3/3x3_s2"
  type: "Pooling"
  bottom: "inception_3b/output"
  top: "pool3/3x3_s2"
  pooling_param {
    pool: MAX
    kernel_size: 3
    stride: 2
  }
}
layer {
  name: "inception_4a/1x1"
  type: "Convolution"
  bottom: "pool3/3x3_s2"
  top: "inception_4a/1x1"
  param {
    lr_mult: 1
    decay_mult: 1
  }
  param {
    lr_mult: 2
    decay_mult: 0
  }
  convolution_param {
    num_output: 192
    kernel_size: 1
    weight_filler {
      type: "xavier"
      std: 0.03
    }
    bias_filler {
      type: "constant"
      value: 0.2
    }
  }
}
layer {
  name: "inception_4a/relu_1x1"
  type: "ReLU"
  bottom: "inception_4a/1x1"
  top: "inception_4a/1x1"
}
layer {
  name: "inception_4a/3x3_reduce"
  type: "Convolution"
  bottom: "pool3/3x3_s2"
  top: "inception_4a/3x3_reduce"
  param {
    lr_mult: 1
    decay_mult: 1
  }
  param {
    lr_mult: 2
    decay_mult: 0
  }
  convolution_param {
    num_output: 96
    kernel_size: 1
    weight_filler {
      type: "xavier"
      std: 0.09
    }
    bias_filler {
      type: "constant"
      value: 0.2
    }
  }
}
layer {
  name: "inception_4a/relu_3x3_reduce"
  type: "ReLU"
  bottom: "inception_4a/3x3_reduce"
  top: "inception_4a/3x3_reduce"
}
layer {
  name: "inception_4a/3x3"
  type: "Convolution"
  bottom: "inception_4a/3x3_reduce"
  top: "inception_4a/3x3"
  param {
    lr_mult: 1
    decay_mult: 1
  }
  param {
    lr_mult: 2
    decay_mult: 0
  }
  convolution_param {
    num_output: 208
    pad: 1
    kernel_size: 3
    weight_filler {
      type: "xavier"
      std: 0.03
    }
    bias_filler {
      type: "constant"
      value: 0.2
    }
  }
}
layer {
  name: "inception_4a/relu_3x3"
  type: "ReLU"
  bottom: "inception_4a/3x3"
  top: "inception_4a/3x3"
}
layer {
  name: "inception_4a/5x5_reduce"
  type: "Convolution"
  bottom: "pool3/3x3_s2"
  top: "inception_4a/5x5_reduce"
  param {
    lr_mult: 1
    decay_mult: 1
  }
  param {
    lr_mult: 2
    decay_mult: 0
  }
  convolution_param {
    num_output: 16
    kernel_size: 1
    weight_filler {
      type: "xavier"
      std: 0.2
    }
    bias_filler {
      type: "constant"
      value: 0.2
    }
  }
}
layer {
  name: "inception_4a/relu_5x5_reduce"
  type: "ReLU"
  bottom: "inception_4a/5x5_reduce"
  top: "inception_4a/5x5_reduce"
}
layer {
  name: "inception_4a/5x5"
  type: "Convolution"
  bottom: "inception_4a/5x5_reduce"
  top: "inception_4a/5x5"
  param {
    lr_mult: 1
    decay_mult: 1
  }
  param {
    lr_mult: 2
    decay_mult: 0
  }
  convolution_param {
    num_output: 48
    pad: 2
    kernel_size: 5
    weight_filler {
      type: "xavier"
      std: 0.03
    }
    bias_filler {
      type: "constant"
      value: 0.2
    }
  }
}
layer {
  name: "inception_4a/relu_5x5"
  type: "ReLU"
  bottom: "inception_4a/5x5"
  top: "inception_4a/5x5"
}
layer {
  name: "inception_4a/pool"
  type: "Pooling"
  bottom: "pool3/3x3_s2"
  top: "inception_4a/pool"
  pooling_param {
    pool: MAX
    kernel_size: 3
    stride: 1
    pad: 1
  }
}
layer {
  name: "inception_4a/pool_proj"
  type: "Convolution"
  bottom: "inception_4a/pool"
  top: "inception_4a/pool_proj"
  param {
    lr_mult: 1
    decay_mult: 1
  }
  param {
    lr_mult: 2
    decay_mult: 0
  }
  convolution_param {
    num_output: 64
    kernel_size: 1
    weight_filler {
      type: "xavier"
      std: 0.1
    }
    bias_filler {
      type: "constant"
      value: 0.2
    }
  }
}
layer {
  name: "inception_4a/relu_pool_proj"
  type: "ReLU"
  bottom: "inception_4a/pool_proj"
  top: "inception_4a/pool_proj"
}
layer {
  name: "inception_4a/output"
  type: "Concat"
  bottom: "inception_4a/1x1"
  bottom: "inception_4a/3x3"
  bottom: "inception_4a/5x5"
  bottom: "inception_4a/pool_proj"
  top: "inception_4a/output"
}
layer {
  name: "loss1/ave_pool"
  type: "Pooling"
  bottom: "inception_4a/output"
  top: "loss1/ave_pool"
  pooling_param {
    pool: AVE
    kernel_size: 5
    stride: 3
  }
}
layer {
  name: "loss1/conv"
  type: "Convolution"
  bottom: "loss1/ave_pool"
  top: "loss1/conv"
  param {
    lr_mult: 1
    decay_mult: 1
  }
  param {
    lr_mult: 2
    decay_mult: 0
  }
  convolution_param {
    num_output: 128
    kernel_size: 1
    weight_filler {
      type: "xavier"
      std: 0.08
    }
    bias_filler {
      type: "constant"
      value: 0.2
    }
  }
}
layer {
  name: "loss1/relu_conv"
  type: "ReLU"
  bottom: "loss1/conv"
  top: "loss1/conv"
}
layer {
  name: "loss1/fc"
  type: "InnerProduct"
  bottom: "loss1/conv"
  top: "loss1/fc"
  param {
    lr_mult: 1
    decay_mult: 1
  }
  param {
    lr_mult: 2
    decay_mult: 0
  }
  inner_product_param {
    num_output: 1024
    weight_filler {
      type: "xavier"
      std: 0.02
    }
    bias_filler {
      type: "constant"
      value: 0.2
    }
  }
}
layer {
  name: "loss1/relu_fc"
  type: "ReLU"
  bottom: "loss1/fc"
  top: "loss1/fc"
}
layer {
  name: "loss1/drop_fc"
  type: "Dropout"
  bottom: "loss1/fc"
  top: "loss1/fc"
  dropout_param {
    dropout_ratio: 0.7
  }
}
layer {
  name: "loss1/classifier_plantvillage"
  type: "InnerProduct"
  bottom: "loss1/fc"
  top: "loss1/classifier_plantvillage"
  param {
    lr_mult: 1
    decay_mult: 1
  }
  param {
    lr_mult: 2
    decay_mult: 0
  }
  inner_product_param {
    num_output: 38
    weight_filler {
      type: "xavier"
      std: 0.0009765625
    }
    bias_filler {
      type: "constant"
      value: 0
    }
  }
}
layer {
  name: "inception_4b/1x1"
  type: "Convolution"
  bottom: "inception_4a/output"
  top: "inception_4b/1x1"
  param {
    lr_mult: 1
    decay_mult: 1
  }
  param {
    lr_mult: 2
    decay_mult: 0
  }
  convolution_param {
    num_output: 160
    kernel_size: 1
    weight_filler {
      type: "xavier"
      std: 0.03
    }
    bias_filler {
      type: "constant"
      value: 0.2
    }
  }
}
layer {
  name: "inception_4b/relu_1x1"
…
I0403 11:11:51.694258  7989 layer_factory.hpp:77] Creating layer inception_4c/pool
I0403 11:11:51.694278  7989 net.cpp:91] Creating Layer inception_4c/pool
I0403 11:11:51.694294  7989 net.cpp:425] inception_4c/pool <- inception_4b/output_inception_4b/output_0_split_3
I0403 11:11:51.694313  7989 net.cpp:399] inception_4c/pool -> inception_4c/pool
I0403 11:11:51.694372  7989 net.cpp:141] Setting up inception_4c/pool
I0403 11:11:51.694398  7989 net.cpp:148] Top shape: 24 512 14 14 (2408448)
I0403 11:11:51.694413  7989 net.cpp:156] Memory required for data: 1060605120
I0403 11:11:51.694427  7989 layer_factory.hpp:77] Creating layer inception_4c/pool_proj
I0403 11:11:51.694447  7989 net.cpp:91] Creating Layer inception_4c/pool_proj
I0403 11:11:51.694464  7989 net.cpp:425] inception_4c/pool_proj <- inception_4c/pool
I0403 11:11:51.694485  7989 net.cpp:399] inception_4c/pool_proj -> inception_4c/pool_proj
I0403 11:11:51.694893  7989 net.cpp:141] Setting up inception_4c/pool_proj
I0403 11:11:51.694918  7989 net.cpp:148] Top shape: 24 64 14 14 (301056)
I0403 11:11:51.694932  7989 net.cpp:156] Memory required for data: 1061809344
I0403 11:11:51.694949  7989 layer_factory.hpp:77] Creating layer inception_4c/relu_pool_proj
I0403 11:11:51.694968  7989 net.cpp:91] Creating Layer inception_4c/relu_pool_proj
I0403 11:11:51.694983  7989 net.cpp:425] inception_4c/relu_pool_proj <- inception_4c/pool_proj
I0403 11:11:51.695003  7989 net.cpp:386] inception_4c/relu_pool_proj -> inception_4c/pool_proj (in-place)
I0403 11:11:51.695024  7989 net.cpp:141] Setting up inception_4c/relu_pool_proj
I0403 11:11:51.695039  7989 net.cpp:148] Top shape: 24 64 14 14 (301056)
I0403 11:11:51.695053  7989 net.cpp:156] Memory required for data: 1063013568
I0403 11:11:51.695066  7989 layer_factory.hpp:77] Creating layer inception_4c/output
I0403 11:11:51.695083  7989 net.cpp:91] Creating Layer inception_4c/output
I0403 11:11:51.695101  7989 net.cpp:425] inception_4c/output <- inception_4c/1x1
I0403 11:11:51.695116  7989 net.cpp:425] inception_4c/output <- inception_4c/3x3
I0403 11:11:51.695132  7989 net.cpp:425] inception_4c/output <- inception_4c/5x5
I0403 11:11:51.695145  7989 net.cpp:425] inception_4c/output <- inception_4c/pool_proj
I0403 11:11:51.695163  7989 net.cpp:399] inception_4c/output -> inception_4c/output
I0403 11:11:51.695205  7989 net.cpp:141] Setting up inception_4c/output
I0403 11:11:51.695228  7989 net.cpp:148] Top shape: 24 512 14 14 (2408448)
I0403 11:11:51.695242  7989 net.cpp:156] Memory required for data: 1072647360
I0403 11:11:51.695256  7989 layer_factory.hpp:77] Creating layer inception_4c/output_inception_4c/output_0_split
I0403 11:11:51.695273  7989 net.cpp:91] Creating Layer inception_4c/output_inception_4c/output_0_split
I0403 11:11:51.695294  7989 net.cpp:425] inception_4c/output_inception_4c/output_0_split <- inception_4c/output
I0403 11:11:51.695318  7989 net.cpp:399] inception_4c/output_inception_4c/output_0_split -> inception_4c/output_inception_4c/output_0_split_0
I0403 11:11:51.695348  7989 net.cpp:399] inception_4c/output_inception_4c/output_0_split -> inception_4c/output_inception_4c/output_0_split_1
I0403 11:11:51.695374  7989 net.cpp:399] inception_4c/output_inception_4c/output_0_split -> inception_4c/output_inception_4c/output_0_split_2
I0403 11:11:51.695399  7989 net.cpp:399] inception_4c/output_inception_4c/output_0_split -> inception_4c/output_inception_4c/output_0_split_3
I0403 11:11:51.695490  7989 net.cpp:141] Setting up inception_4c/output_inception_4c/output_0_split
I0403 11:11:51.695515  7989 net.cpp:148] Top shape: 24 512 14 14 (2408448)
I0403 11:11:51.695533  7989 net.cpp:148] Top shape: 24 512 14 14 (2408448)
I0403 11:11:51.695547  7989 net.cpp:148] Top shape: 24 512 14 14 (2408448)
I0403 11:11:51.695562  7989 net.cpp:148] Top shape: 24 512 14 14 (2408448)
I0403 11:11:51.695576  7989 net.cpp:156] Memory required for data: 1111182528
I0403 11:11:51.695591  7989 layer_factory.hpp:77] Creating layer inception_4d/1x1
I0403 11:11:51.695612  7989 net.cpp:91] Creating Layer inception_4d/1x1
I0403 11:11:51.695631  7989 net.cpp:425] inception_4d/1x1 <- inception_4c/output_inception_4c/output_0_split_0
I0403 11:11:51.695648  7989 net.cpp:399] inception_4d/1x1 -> inception_4d/1x1
I0403 11:11:51.696185  7989 net.cpp:141] Setting up inception_4d/1x1
I0403 11:11:51.696209  7989 net.cpp:148] Top shape: 24 112 14 14 (526848)
I0403 11:11:51.696224  7989 net.cpp:156] Memory required for data: 1113289920
I0403 11:11:51.696241  7989 layer_factory.hpp:77] Creating layer inception_4d/relu_1x1
I0403 11:11:51.696261  7989 net.cpp:91] Creating Layer inception_4d/relu_1x1
I0403 11:11:51.696279  7989 net.cpp:425] inception_4d/relu_1x1 <- inception_4d/1x1
I0403 11:11:51.696295  7989 net.cpp:386] inception_4d/relu_1x1 -> inception_4d/1x1 (in-place)
I0403 11:11:51.696313  7989 net.cpp:141] Setting up inception_4d/relu_1x1
I0403 11:11:51.696331  7989 net.cpp:148] Top shape: 24 112 14 14 (526848)
I0403 11:11:51.696347  7989 net.cpp:156] Memory required for data: 1115397312
I0403 11:11:51.696362  7989 layer_factory.hpp:77] Creating layer inception_4d/3x3_reduce
I0403 11:11:51.696384  7989 net.cpp:91] Creating Layer inception_4d/3x3_reduce
I0403 11:11:51.696401  7989 net.cpp:425] inception_4d/3x3_reduce <- inception_4c/output_inception_4c/output_0_split_1
I0403 11:11:51.696420  7989 net.cpp:399] inception_4d/3x3_reduce -> inception_4d/3x3_reduce
I0403 11:11:51.697090  7989 net.cpp:141] Setting up inception_4d/3x3_reduce
I0403 11:11:51.697116  7989 net.cpp:148] Top shape: 24 144 14 14 (677376)
I0403 11:11:51.697135  7989 net.cpp:156] Memory required for data: 1118106816
I0403 11:11:51.697154  7989 layer_factory.hpp:77] Creating layer inception_4d/relu_3x3_reduce
I0403 11:11:51.697171  7989 net.cpp:91] Creating Layer inception_4d/relu_3x3_reduce
I0403 11:11:51.697186  7989 net.cpp:425] inception_4d/relu_3x3_reduce <- inception_4d/3x3_reduce
I0403 11:11:51.697206  7989 net.cpp:386] inception_4d/relu_3x3_reduce -> inception_4d/3x3_reduce (in-place)
I0403 11:11:51.697227  7989 net.cpp:141] Setting up inception_4d/relu_3x3_reduce
I0403 11:11:51.697243  7989 net.cpp:148] Top shape: 24 144 14 14 (677376)
I0403 11:11:51.697258  7989 net.cpp:156] Memory required for data: 1120816320
I0403 11:11:51.697273  7989 layer_factory.hpp:77] Creating layer inception_4d/3x3
I0403 11:11:51.697294  7989 net.cpp:91] Creating Layer inception_4d/3x3
I0403 11:11:51.697312  7989 net.cpp:425] inception_4d/3x3 <- inception_4d/3x3_reduce
I0403 11:11:51.697331  7989 net.cpp:399] inception_4d/3x3 -> inception_4d/3x3
I0403 11:11:51.700383  7989 net.cpp:141] Setting up inception_4d/3x3
I0403 11:11:51.700412  7989 net.cpp:148] Top shape: 24 288 14 14 (1354752)
I0403 11:11:51.700430  7989 net.cpp:156] Memory required for data: 1126235328
I0403 11:11:51.700448  7989 layer_factory.hpp:77] Creating layer inception_4d/relu_3x3
I0403 11:11:51.700469  7989 net.cpp:91] Creating Layer inception_4d/relu_3x3
I0403 11:11:51.700485  7989 net.cpp:425] inception_4d/relu_3x3 <- inception_4d/3x3
I0403 11:11:51.700507  7989 net.cpp:386] inception_4d/relu_3x3 -> inception_4d/3x3 (in-place)
I0403 11:11:51.700536  7989 net.cpp:141] Setting up inception_4d/relu_3x3
I0403 11:11:51.700561  7989 net.cpp:148] Top shape: 24 288 14 14 (1354752)
I0403 11:11:51.700577  7989 net.cpp:156] Memory required for data: 1131654336
I0403 11:11:51.700590  7989 layer_factory.hpp:77] Creating layer inception_4d/5x5_reduce
I0403 11:11:51.700629  7989 net.cpp:91] Creating Layer inception_4d/5x5_reduce
I0403 11:11:51.700651  7989 net.cpp:425] inception_4d/5x5_reduce <- inception_4c/output_inception_4c/output_0_split_2
I0403 11:11:51.700675  7989 net.cpp:399] inception_4d/5x5_reduce -> inception_4d/5x5_reduce
I0403 11:11:51.701011  7989 net.cpp:141] Setting up inception_4d/5x5_reduce
I0403 11:11:51.701036  7989 net.cpp:148] Top shape: 24 32 14 14 (150528)
I0403 11:11:51.701050  7989 net.cpp:156] Memory required for data: 1132256448
I0403 11:11:51.701068  7989 layer_factory.hpp:77] Creating layer inception_4d/relu_5x5_reduce
I0403 11:11:51.701086  7989 net.cpp:91] Creating Layer inception_4d/relu_5x5_reduce
I0403 11:11:51.701104  7989 net.cpp:425] inception_4d/relu_5x5_reduce <- inception_4d/5x5_reduce
I0403 11:11:51.701123  7989 net.cpp:386] inception_4d/relu_5x5_reduce -> inception_4d/5x5_reduce (in-place)
I0403 11:11:51.701143  7989 net.cpp:141] Setting up inception_4d/relu_5x5_reduce
I0403 11:11:51.701160  7989 net.cpp:148] Top shape: 24 32 14 14 (150528)
I0403 11:11:51.701174  7989 net.cpp:156] Memory required for data: 1132858560
I0403 11:11:51.701187  7989 layer_factory.hpp:77] Creating layer inception_4d/5x5
I0403 11:11:51.701207  7989 net.cpp:91] Creating Layer inception_4d/5x5
I0403 11:11:51.701223  7989 net.cpp:425] inception_4d/5x5 <- inception_4d/5x5_reduce
I0403 11:11:51.701246  7989 net.cpp:399] inception_4d/5x5 -> inception_4d/5x5
I0403 11:11:51.701761  7989 net.cpp:141] Setting up inception_4d/5x5
I0403 11:11:51.701786  7989 net.cpp:148] Top shape: 24 64 14 14 (301056)
I0403 11:11:51.701802  7989 net.cpp:156] Memory required for data: 1134062784
I0403 11:11:51.701818  7989 layer_factory.hpp:77] Creating layer inception_4d/relu_5x5
I0403 11:11:51.701836  7989 net.cpp:91] Creating Layer inception_4d/relu_5x5
I0403 11:11:51.701851  7989 net.cpp:425] inception_4d/relu_5x5 <- inception_4d/5x5
I0403 11:11:51.701867  7989 net.cpp:386] inception_4d/relu_5x5 -> inception_4d/5x5 (in-place)
I0403 11:11:51.701886  7989 net.cpp:141] Setting up inception_4d/relu_5x5
I0403 11:11:51.701902  7989 net.cpp:148] Top shape: 24 64 14 14 (301056)
I0403 11:11:51.701916  7989 net.cpp:156] Memory required for data: 1135267008
I0403 11:11:51.701930  7989 layer_factory.hpp:77] Creating layer inception_4d/pool
I0403 11:11:51.701949  7989 net.cpp:91] Creating Layer inception_4d/pool
I0403 11:11:51.701966  7989 net.cpp:425] inception_4d/pool <- inception_4c/output_inception_4c/output_0_split_3
I0403 11:11:51.701983  7989 net.cpp:399] inception_4d/pool -> inception_4d/pool
I0403 11:11:51.702039  7989 net.cpp:141] Setting up inception_4d/pool
I0403 11:11:51.702061  7989 net.cpp:148] Top shape: 24 512 14 14 (2408448)
I0403 11:11:51.702075  7989 net.cpp:156] Memory required for data: 1144900800
I0403 11:11:51.702090  7989 layer_factory.hpp:77] Creating layer inception_4d/pool_proj
I0403 11:11:51.702113  7989 net.cpp:91] Creating Layer inception_4d/pool_proj
I0403 11:11:51.702131  7989 net.cpp:425] inception_4d/pool_proj <- inception_4d/pool
I0403 11:11:51.702152  7989 net.cpp:399] inception_4d/pool_proj -> inception_4d/pool_proj
I0403 11:11:51.702595  7989 net.cpp:141] Setting up inception_4d/pool_proj
I0403 11:11:51.702620  7989 net.cpp:148] Top shape: 24 64 14 14 (301056)
I0403 11:11:51.702636  7989 net.cpp:156] Memory required for data: 1146105024
I0403 11:11:51.702652  7989 layer_factory.hpp:77] Creating layer inception_4d/relu_pool_proj
I0403 11:11:51.702669  7989 net.cpp:91] Creating Layer inception_4d/relu_pool_proj
I0403 11:11:51.702685  7989 net.cpp:425] inception_4d/relu_pool_proj <- inception_4d/pool_proj
I0403 11:11:51.702703  7989 net.cpp:386] inception_4d/relu_pool_proj -> inception_4d/pool_proj (in-place)
I0403 11:11:51.702721  7989 net.cpp:141] Setting up inception_4d/relu_pool_proj
I0403 11:11:51.702739  7989 net.cpp:148] Top shape: 24 64 14 14 (301056)
I0403 11:11:51.702751  7989 net.cpp:156] Memory required for data: 1147309248
I0403 11:11:51.702764  7989 layer_factory.hpp:77] Creating layer inception_4d/output
I0403 11:11:51.702795  7989 net.cpp:91] Creating Layer inception_4d/output
I0403 11:11:51.702812  7989 net.cpp:425] inception_4d/output <- inception_4d/1x1
I0403 11:11:51.702827  7989 net.cpp:425] inception_4d/output <- inception_4d/3x3
I0403 11:11:51.702842  7989 net.cpp:425] inception_4d/output <- inception_4d/5x5
I0403 11:11:51.702858  7989 net.cpp:425] inception_4d/output <- inception_4d/pool_proj
I0403 11:11:51.702877  7989 net.cpp:399] inception_4d/output -> inception_4d/output
I0403 11:11:51.702918  7989 net.cpp:141] Setting up inception_4d/output
I0403 11:11:51.702942  7989 net.cpp:148] Top shape: 24 528 14 14 (2483712)
I0403 11:11:51.702957  7989 net.cpp:156] Memory required for data: 1157244096
I0403 11:11:51.702971  7989 layer_factory.hpp:77] Creating layer inception_4d/output_inception_4d/output_0_split
I0403 11:11:51.702988  7989 net.cpp:91] Creating Layer inception_4d/output_inception_4d/output_0_split
I0403 11:11:51.703003  7989 net.cpp:425] inception_4d/output_inception_4d/output_0_split <- inception_4d/output
I0403 11:11:51.703021  7989 net.cpp:399] inception_4d/output_inception_4d/output_0_split -> inception_4d/output_inception_4d/output_0_split_0
I0403 11:11:51.703042  7989 net.cpp:399] inception_4d/output_inception_4d/output_0_split -> inception_4d/output_inception_4d/output_0_split_1
I0403 11:11:51.703064  7989 net.cpp:399] inception_4d/output_inception_4d/output_0_split -> inception_4d/output_inception_4d/output_0_split_2
I0403 11:11:51.703085  7989 net.cpp:399] inception_4d/output_inception_4d/output_0_split -> inception_4d/output_inception_4d/output_0_split_3
I0403 11:11:51.703106  7989 net.cpp:399] inception_4d/output_inception_4d/output_0_split -> inception_4d/output_inception_4d/output_0_split_4
I0403 11:11:51.703191  7989 net.cpp:141] Setting up inception_4d/output_inception_4d/output_0_split
I0403 11:11:51.703213  7989 net.cpp:148] Top shape: 24 528 14 14 (2483712)
I0403 11:11:51.703229  7989 net.cpp:148] Top shape: 24 528 14 14 (2483712)
I0403 11:11:51.703245  7989 net.cpp:148] Top shape: 24 528 14 14 (2483712)
I0403 11:11:51.703259  7989 net.cpp:148] Top shape: 24 528 14 14 (2483712)
I0403 11:11:51.703274  7989 net.cpp:148] Top shape: 24 528 14 14 (2483712)
I0403 11:11:51.703286  7989 net.cpp:156] Memory required for data: 1206918336
I0403 11:11:51.703300  7989 layer_factory.hpp:77] Creating layer loss2/ave_pool
I0403 11:11:51.703320  7989 net.cpp:91] Creating Layer loss2/ave_pool
I0403 11:11:51.703336  7989 net.cpp:425] loss2/ave_pool <- inception_4d/output_inception_4d/output_0_split_0
I0403 11:11:51.703358  7989 net.cpp:399] loss2/ave_pool -> loss2/ave_pool
I0403 11:11:51.703402  7989 net.cpp:141] Setting up loss2/ave_pool
I0403 11:11:51.703423  7989 net.cpp:148] Top shape: 24 528 4 4 (202752)
I0403 11:11:51.703438  7989 net.cpp:156] Memory required for data: 1207729344
I0403 11:11:51.703451  7989 layer_factory.hpp:77] Creating layer loss2/conv
I0403 11:11:51.703474  7989 net.cpp:91] Creating Layer loss2/conv
I0403 11:11:51.703491  7989 net.cpp:425] loss2/conv <- loss2/ave_pool
I0403 11:11:51.703513  7989 net.cpp:399] loss2/conv -> loss2/conv
I0403 11:11:51.704675  7989 net.cpp:141] Setting up loss2/conv
I0403 11:11:51.704704  7989 net.cpp:148] Top shape: 24 128 4 4 (49152)
I0403 11:11:51.704720  7989 net.cpp:156] Memory required for data: 1207925952
I0403 11:11:51.704736  7989 layer_factory.hpp:77] Creating layer loss2/relu_conv
I0403 11:11:51.704754  7989 net.cpp:91] Creating Layer loss2/relu_conv
I0403 11:11:51.704771  7989 net.cpp:425] loss2/relu_conv <- loss2/conv
I0403 11:11:51.704789  7989 net.cpp:386] loss2/relu_conv -> loss2/conv (in-place)
I0403 11:11:51.704810  7989 net.cpp:141] Setting up loss2/relu_conv
I0403 11:11:51.704828  7989 net.cpp:148] Top shape: 24 128 4 4 (49152)
I0403 11:11:51.704843  7989 net.cpp:156] Memory required for data: 1208122560
I0403 11:11:51.704857  7989 layer_factory.hpp:77] Creating layer loss2/fc
I0403 11:11:51.704875  7989 net.cpp:91] Creating Layer loss2/fc
I0403 11:11:51.704891  7989 net.cpp:425] loss2/fc <- loss2/conv
I0403 11:11:51.704911  7989 net.cpp:399] loss2/fc -> loss2/fc
I0403 11:11:51.720180  7989 net.cpp:141] Setting up loss2/fc
I0403 11:11:51.720227  7989 net.cpp:148] Top shape: 24 1024 (24576)
I0403 11:11:51.720242  7989 net.cpp:156] Memory required for data: 1208220864
I0403 11:11:51.720263  7989 layer_factory.hpp:77] Creating layer loss2/relu_fc
I0403 11:11:51.720283  7989 net.cpp:91] Creating Layer loss2/relu_fc
I0403 11:11:51.720302  7989 net.cpp:425] loss2/relu_fc <- loss2/fc
I0403 11:11:51.720325  7989 net.cpp:386] loss2/relu_fc -> loss2/fc (in-place)
I0403 11:11:51.720350  7989 net.cpp:141] Setting up loss2/relu_fc
I0403 11:11:51.720368  7989 net.cpp:148] Top shape: 24 1024 (24576)
I0403 11:11:51.720382  7989 net.cpp:156] Memory required for data: 1208319168
I0403 11:11:51.720396  7989 layer_factory.hpp:77] Creating layer loss2/drop_fc
I0403 11:11:51.720415  7989 net.cpp:91] Creating Layer loss2/drop_fc
I0403 11:11:51.720430  7989 net.cpp:425] loss2/drop_fc <- loss2/fc
I0403 11:11:51.720450  7989 net.cpp:386] loss2/drop_fc -> loss2/fc (in-place)
I0403 11:11:51.720492  7989 net.cpp:141] Setting up loss2/drop_fc
I0403 11:11:51.720515  7989 net.cpp:148] Top shape: 24 1024 (24576)
I0403 11:11:51.720528  7989 net.cpp:156] Memory required for data: 1208417472
I0403 11:11:51.720542  7989 layer_factory.hpp:77] Creating layer loss2/classifier_plantvillage
I0403 11:11:51.720563  7989 net.cpp:91] Creating Layer loss2/classifier_plantvillage
I0403 11:11:51.720579  7989 net.cpp:425] loss2/classifier_plantvillage <- loss2/fc
I0403 11:11:51.720598  7989 net.cpp:399] loss2/classifier_plantvillage -> loss2/classifier_plantvillage
I0403 11:11:51.720944  7989 net.cpp:141] Setting up loss2/classifier_plantvillage
I0403 11:11:51.720968  7989 net.cpp:148] Top shape: 24 38 (912)
I0403 11:11:51.720983  7989 net.cpp:156] Memory required for data: 1208421120
I0403 11:11:51.720999  7989 layer_factory.hpp:77] Creating layer loss2/classifier_plantvillage_loss2/classifier_plantvillage_0_split
I0403 11:11:51.721019  7989 net.cpp:91] Creating Layer loss2/classifier_plantvillage_loss2/classifier_plantvillage_0_split
I0403 11:11:51.721035  7989 net.cpp:425] loss2/classifier_plantvillage_loss2/classifier_plantvillage_0_split <- loss2/classifier_plantvillage
I0403 11:11:51.721055  7989 net.cpp:399] loss2/classifier_plantvillage_loss2/classifier_plantvillage_0_split -> loss2/classifier_plantvillage_loss2/classifier_plantvillage_0_split_0
I0403 11:11:51.721076  7989 net.cpp:399] loss2/classifier_plantvillage_loss2/classifier_plantvillage_0_split -> loss2/classifier_plantvillage_loss2/classifier_plantvillage_0_split_1
I0403 11:11:51.721096  7989 net.cpp:399] loss2/classifier_plantvillage_loss2/classifier_plantvillage_0_split -> loss2/classifier_plantvillage_loss2/classifier_plantvillage_0_split_2
I0403 11:11:51.721163  7989 net.cpp:141] Setting up loss2/classifier_plantvillage_loss2/classifier_plantvillage_0_split
I0403 11:11:51.721190  7989 net.cpp:148] Top shape: 24 38 (912)
I0403 11:11:51.721210  7989 net.cpp:148] Top shape: 24 38 (912)
I0403 11:11:51.721225  7989 net.cpp:148] Top shape: 24 38 (912)
I0403 11:11:51.721237  7989 net.cpp:156] Memory required for data: 1208432064
I0403 11:11:51.721256  7989 layer_factory.hpp:77] Creating layer inception_4e/1x1
I0403 11:11:51.721279  7989 net.cpp:91] Creating Layer inception_4e/1x1
I0403 11:11:51.721297  7989 net.cpp:425] inception_4e/1x1 <- inception_4d/output_inception_4d/output_0_split_1
I0403 11:11:51.721317  7989 net.cpp:399] inception_4e/1x1 -> inception_4e/1x1
I0403 11:11:51.722292  7989 net.cpp:141] Setting up inception_4e/1x1
I0403 11:11:51.722317  7989 net.cpp:148] Top shape: 24 256 14 14 (1204224)
I0403 11:11:51.722332  7989 net.cpp:156] Memory required for data: 1213248960
I0403 11:11:51.722359  7989 layer_factory.hpp:77] Creating layer inception_4e/relu_1x1
I0403 11:11:51.722379  7989 net.cpp:91] Creating Layer inception_4e/relu_1x1
I0403 11:11:51.722396  7989 net.cpp:425] inception_4e/relu_1x1 <- inception_4e/1x1
I0403 11:11:51.722415  7989 net.cpp:386] inception_4e/relu_1x1 -> inception_4e/1x1 (in-place)
I0403 11:11:51.722439  7989 net.cpp:141] Setting up inception_4e/relu_1x1
I0403 11:11:51.722484  7989 net.cpp:148] Top shape: 24 256 14 14 (1204224)
I0403 11:11:51.722499  7989 net.cpp:156] Memory required for data: 1218065856
I0403 11:11:51.722513  7989 layer_factory.hpp:77] Creating layer inception_4e/3x3_reduce
I0403 11:11:51.722534  7989 net.cpp:91] Creating Layer inception_4e/3x3_reduce
I0403 11:11:51.722551  7989 net.cpp:425] inception_4e/3x3_reduce <- inception_4d/output_inception_4d/output_0_split_2
I0403 11:11:51.722573  7989 net.cpp:399] inception_4e/3x3_reduce -> inception_4e/3x3_reduce
I0403 11:11:51.723809  7989 net.cpp:141] Setting up inception_4e/3x3_reduce
I0403 11:11:51.723837  7989 net.cpp:148] Top shape: 24 160 14 14 (752640)
I0403 11:11:51.723853  7989 net.cpp:156] Memory required for data: 1221076416
I0403 11:11:51.723871  7989 layer_factory.hpp:77] Creating layer inception_4e/relu_3x3_reduce
I0403 11:11:51.723894  7989 net.cpp:91] Creating Layer inception_4e/relu_3x3_reduce
I0403 11:11:51.723914  7989 net.cpp:425] inception_4e/relu_3x3_reduce <- inception_4e/3x3_reduce
I0403 11:11:51.723933  7989 net.cpp:386] inception_4e/relu_3x3_reduce -> inception_4e/3x3_reduce (in-place)
I0403 11:11:51.723953  7989 net.cpp:141] Setting up inception_4e/relu_3x3_reduce
I0403 11:11:51.723971  7989 net.cpp:148] Top shape: 24 160 14 14 (752640)
I0403 11:11:51.723985  7989 net.cpp:156] Memory required for data: 1224086976
I0403 11:11:51.723999  7989 layer_factory.hpp:77] Creating layer inception_4e/3x3
I0403 11:11:51.724022  7989 net.cpp:91] Creating Layer inception_4e/3x3
I0403 11:11:51.724040  7989 net.cpp:425] inception_4e/3x3 <- inception_4e/3x3_reduce
I0403 11:11:51.724059  7989 net.cpp:399] inception_4e/3x3 -> inception_4e/3x3
I0403 11:11:51.727784  7989 net.cpp:141] Setting up inception_4e/3x3
I0403 11:11:51.727815  7989 net.cpp:148] Top shape: 24 320 14 14 (1505280)
I0403 11:11:51.727831  7989 net.cpp:156] Memory required for data: 1230108096
I0403 11:11:51.727849  7989 layer_factory.hpp:77] Creating layer inception_4e/relu_3x3
I0403 11:11:51.727870  7989 net.cpp:91] Creating Layer inception_4e/relu_3x3
I0403 11:11:51.727887  7989 net.cpp:425] inception_4e/relu_3x3 <- inception_4e/3x3
I0403 11:11:51.727913  7989 net.cpp:386] inception_4e/relu_3x3 -> inception_4e/3x3 (in-place)
I0403 11:11:51.727941  7989 net.cpp:141] Setting up inception_4e/relu_3x3
I0403 11:11:51.727964  7989 net.cpp:148] Top shape: 24 320 14 14 (1505280)
I0403 11:11:51.727977  7989 net.cpp:156] Memory required for data: 1236129216
I0403 11:11:51.727993  7989 layer_factory.hpp:77] Creating layer inception_4e/5x5_reduce
I0403 11:11:51.728014  7989 net.cpp:91] Creating Layer inception_4e/5x5_reduce
I0403 11:11:51.728032  7989 net.cpp:425] inception_4e/5x5_reduce <- inception_4d/output_inception_4d/output_0_split_3
I0403 11:11:51.728051  7989 net.cpp:399] inception_4e/5x5_reduce -> inception_4e/5x5_reduce
I0403 11:11:51.728878  7989 net.cpp:141] Setting up inception_4e/5x5_reduce
I0403 11:11:51.728906  7989 net.cpp:148] Top shape: 24 32 14 14 (150528)
I0403 11:11:51.728924  7989 net.cpp:156] Memory required for data: 1236731328
I0403 11:11:51.728941  7989 layer_factory.hpp:77] Creating layer inception_4e/relu_5x5_reduce
I0403 11:11:51.728961  7989 net.cpp:91] Creating Layer inception_4e/relu_5x5_reduce
I0403 11:11:51.728976  7989 net.cpp:425] inception_4e/relu_5x5_reduce <- inception_4e/5x5_reduce
I0403 11:11:51.728993  7989 net.cpp:386] inception_4e/relu_5x5_reduce -> inception_4e/5x5_reduce (in-place)
I0403 11:11:51.729012  7989 net.cpp:141] Setting up inception_4e/relu_5x5_reduce
I0403 11:11:51.729029  7989 net.cpp:148] Top shape: 24 32 14 14 (150528)
I0403 11:11:51.729043  7989 net.cpp:156] Memory required for data: 1237333440
I0403 11:11:51.729058  7989 layer_factory.hpp:77] Creating layer inception_4e/5x5
I0403 11:11:51.729097  7989 net.cpp:91] Creating Layer inception_4e/5x5
I0403 11:11:51.729117  7989 net.cpp:425] inception_4e/5x5 <- inception_4e/5x5_reduce
I0403 11:11:51.729137  7989 net.cpp:399] inception_4e/5x5 -> inception_4e/5x5
I0403 11:11:51.729887  7989 net.cpp:141] Setting up inception_4e/5x5
I0403 11:11:51.729924  7989 net.cpp:148] Top shape: 24 128 14 14 (602112)
I0403 11:11:51.729939  7989 net.cpp:156] Memory required for data: 1239741888
I0403 11:11:51.729959  7989 layer_factory.hpp:77] Creating layer inception_4e/relu_5x5
I0403 11:11:51.729977  7989 net.cpp:91] Creating Layer inception_4e/relu_5x5
I0403 11:11:51.729993  7989 net.cpp:425] inception_4e/relu_5x5 <- inception_4e/5x5
I0403 11:11:51.730010  7989 net.cpp:386] inception_4e/relu_5x5 -> inception_4e/5x5 (in-place)
I0403 11:11:51.730031  7989 net.cpp:141] Setting up inception_4e/relu_5x5
I0403 11:11:51.730048  7989 net.cpp:148] Top shape: 24 128 14 14 (602112)
I0403 11:11:51.730062  7989 net.cpp:156] Memory required for data: 1242150336
I0403 11:11:51.730077  7989 layer_factory.hpp:77] Creating layer inception_4e/pool
I0403 11:11:51.730094  7989 net.cpp:91] Creating Layer inception_4e/pool
I0403 11:11:51.730110  7989 net.cpp:425] inception_4e/pool <- inception_4d/output_inception_4d/output_0_split_4
I0403 11:11:51.730128  7989 net.cpp:399] inception_4e/pool -> inception_4e/pool
I0403 11:11:51.730181  7989 net.cpp:141] Setting up inception_4e/pool
I0403 11:11:51.730204  7989 net.cpp:148] Top shape: 24 528 14 14 (2483712)
I0403 11:11:51.730218  7989 net.cpp:156] Memory required for data: 1252085184
I0403 11:11:51.730233  7989 layer_factory.hpp:77] Creating layer inception_4e/pool_proj
I0403 11:11:51.730255  7989 net.cpp:91] Creating Layer inception_4e/pool_proj
I0403 11:11:51.730273  7989 net.cpp:425] inception_4e/pool_proj <- inception_4e/pool
I0403 11:11:51.730294  7989 net.cpp:399] inception_4e/pool_proj -> inception_4e/pool_proj
I0403 11:11:51.730859  7989 net.cpp:141] Setting up inception_4e/pool_proj
I0403 11:11:51.730882  7989 net.cpp:148] Top shape: 24 128 14 14 (602112)
I0403 11:11:51.730898  7989 net.cpp:156] Memory required for data: 1254493632
I0403 11:11:51.730916  7989 layer_factory.hpp:77] Creating layer inception_4e/relu_pool_proj
I0403 11:11:51.730933  7989 net.cpp:91] Creating Layer inception_4e/relu_pool_proj
I0403 11:11:51.730950  7989 net.cpp:425] inception_4e/relu_pool_proj <- inception_4e/pool_proj
I0403 11:11:51.730973  7989 net.cpp:386] inception_4e/relu_pool_proj -> inception_4e/pool_proj (in-place)
I0403 11:11:51.730998  7989 net.cpp:141] Setting up inception_4e/relu_pool_proj
I0403 11:11:51.731014  7989 net.cpp:148] Top shape: 24 128 14 14 (602112)
I0403 11:11:51.731027  7989 net.cpp:156] Memory required for data: 1256902080
I0403 11:11:51.731042  7989 layer_factory.hpp:77] Creating layer inception_4e/output
I0403 11:11:51.731060  7989 net.cpp:91] Creating Layer inception_4e/output
I0403 11:11:51.731075  7989 net.cpp:425] inception_4e/output <- inception_4e/1x1
I0403 11:11:51.731091  7989 net.cpp:425] inception_4e/output <- inception_4e/3x3
I0403 11:11:51.731106  7989 net.cpp:425] inception_4e/output <- inception_4e/5x5
I0403 11:11:51.731122  7989 net.cpp:425] inception_4e/output <- inception_4e/pool_proj
I0403 11:11:51.731139  7989 net.cpp:399] inception_4e/output -> inception_4e/output
I0403 11:11:51.731181  7989 net.cpp:141] Setting up inception_4e/output
I0403 11:11:51.731204  7989 net.cpp:148] Top shape: 24 832 14 14 (3913728)
I0403 11:11:51.731221  7989 net.cpp:156] Memory required for data: 1272556992
I0403 11:11:51.731235  7989 layer_factory.hpp:77] Creating layer pool4/3x3_s2
I0403 11:11:51.731253  7989 net.cpp:91] Creating Layer pool4/3x3_s2
I0403 11:11:51.731268  7989 net.cpp:425] pool4/3x3_s2 <- inception_4e/output
I0403 11:11:51.731286  7989 net.cpp:399] pool4/3x3_s2 -> pool4/3x3_s2
I0403 11:11:51.731335  7989 net.cpp:141] Setting up pool4/3x3_s2
I0403 11:11:51.731362  7989 net.cpp:148] Top shape: 24 832 7 7 (978432)
I0403 11:11:51.731376  7989 net.cpp:156] Memory required for data: 1276470720
I0403 11:11:51.731390  7989 layer_factory.hpp:77] Creating layer pool4/3x3_s2_pool4/3x3_s2_0_split
I0403 11:11:51.731408  7989 net.cpp:91] Creating Layer pool4/3x3_s2_pool4/3x3_s2_0_split
I0403 11:11:51.731422  7989 net.cpp:425] pool4/3x3_s2_pool4/3x3_s2_0_split <- pool4/3x3_s2
I0403 11:11:51.731456  7989 net.cpp:399] pool4/3x3_s2_pool4/3x3_s2_0_split -> pool4/3x3_s2_pool4/3x3_s2_0_split_0
I0403 11:11:51.731477  7989 net.cpp:399] pool4/3x3_s2_pool4/3x3_s2_0_split -> pool4/3x3_s2_pool4/3x3_s2_0_split_1
I0403 11:11:51.731498  7989 net.cpp:399] pool4/3x3_s2_pool4/3x3_s2_0_split -> pool4/3x3_s2_pool4/3x3_s2_0_split_2
I0403 11:11:51.731518  7989 net.cpp:399] pool4/3x3_s2_pool4/3x3_s2_0_split -> pool4/3x3_s2_pool4/3x3_s2_0_split_3
I0403 11:11:51.731582  7989 net.cpp:141] Setting up pool4/3x3_s2_pool4/3x3_s2_0_split
I0403 11:11:51.731606  7989 net.cpp:148] Top shape: 24 832 7 7 (978432)
I0403 11:11:51.731623  7989 net.cpp:148] Top shape: 24 832 7 7 (978432)
I0403 11:11:51.731638  7989 net.cpp:148] Top shape: 24 832 7 7 (978432)
I0403 11:11:51.731653  7989 net.cpp:148] Top shape: 24 832 7 7 (978432)
I0403 11:11:51.731667  7989 net.cpp:156] Memory required for data: 1292125632
I0403 11:11:51.731680  7989 layer_factory.hpp:77] Creating layer inception_5a/1x1
I0403 11:11:51.731703  7989 net.cpp:91] Creating Layer inception_5a/1x1
I0403 11:11:51.731719  7989 net.cpp:425] inception_5a/1x1 <- pool4/3x3_s2_pool4/3x3_s2_0_split_0
I0403 11:11:51.731739  7989 net.cpp:399] inception_5a/1x1 -> inception_5a/1x1
I0403 11:11:51.733587  7989 net.cpp:141] Setting up inception_5a/1x1
I0403 11:11:51.733615  7989 net.cpp:148] Top shape: 24 256 7 7 (301056)
I0403 11:11:51.733633  7989 net.cpp:156] Memory required for data: 1293329856
I0403 11:11:51.733652  7989 layer_factory.hpp:77] Creating layer inception_5a/relu_1x1
I0403 11:11:51.733671  7989 net.cpp:91] Creating Layer inception_5a/relu_1x1
I0403 11:11:51.733688  7989 net.cpp:425] inception_5a/relu_1x1 <- inception_5a/1x1
I0403 11:11:51.733707  7989 net.cpp:386] inception_5a/relu_1x1 -> inception_5a/1x1 (in-place)
I0403 11:11:51.733728  7989 net.cpp:141] Setting up inception_5a/relu_1x1
I0403 11:11:51.733746  7989 net.cpp:148] Top shape: 24 256 7 7 (301056)
I0403 11:11:51.733759  7989 net.cpp:156] Memory required for data: 1294534080
I0403 11:11:51.733777  7989 layer_factory.hpp:77] Creating layer inception_5a/3x3_reduce
I0403 11:11:51.733804  7989 net.cpp:91] Creating Layer inception_5a/3x3_reduce
I0403 11:11:51.733829  7989 net.cpp:425] inception_5a/3x3_reduce <- pool4/3x3_s2_pool4/3x3_s2_0_split_1
I0403 11:11:51.733853  7989 net.cpp:399] inception_5a/3x3_reduce -> inception_5a/3x3_reduce
I0403 11:11:51.735321  7989 net.cpp:141] Setting up inception_5a/3x3_reduce
I0403 11:11:51.735353  7989 net.cpp:148] Top shape: 24 160 7 7 (188160)
I0403 11:11:51.735369  7989 net.cpp:156] Memory required for data: 1295286720
I0403 11:11:51.735388  7989 layer_factory.hpp:77] Creating layer inception_5a/relu_3x3_reduce
I0403 11:11:51.735406  7989 net.cpp:91] Creating Layer inception_5a/relu_3x3_reduce
I0403 11:11:51.735424  7989 net.cpp:425] inception_5a/relu_3x3_reduce <- inception_5a/3x3_reduce
I0403 11:11:51.735441  7989 net.cpp:386] inception_5a/relu_3x3_reduce -> inception_5a/3x3_reduce (in-place)
I0403 11:11:51.735461  7989 net.cpp:141] Setting up inception_5a/relu_3x3_reduce
I0403 11:11:51.735478  7989 net.cpp:148] Top shape: 24 160 7 7 (188160)
I0403 11:11:51.735492  7989 net.cpp:156] Memory required for data: 1296039360
I0403 11:11:51.735507  7989 layer_factory.hpp:77] Creating layer inception_5a/3x3
I0403 11:11:51.735528  7989 net.cpp:91] Creating Layer inception_5a/3x3
I0403 11:11:51.735545  7989 net.cpp:425] inception_5a/3x3 <- inception_5a/3x3_reduce
I0403 11:11:51.735568  7989 net.cpp:399] inception_5a/3x3 -> inception_5a/3x3
I0403 11:11:51.739244  7989 net.cpp:141] Setting up inception_5a/3x3
I0403 11:11:51.739276  7989 net.cpp:148] Top shape: 24 320 7 7 (376320)
I0403 11:11:51.739296  7989 net.cpp:156] Memory required for data: 1297544640
I0403 11:11:51.739316  7989 layer_factory.hpp:77] Creating layer inception_5a/relu_3x3
I0403 11:11:51.739336  7989 net.cpp:91] Creating Layer inception_5a/relu_3x3
I0403 11:11:51.739356  7989 net.cpp:425] inception_5a/relu_3x3 <- inception_5a/3x3
I0403 11:11:51.739373  7989 net.cpp:386] inception_5a/relu_3x3 -> inception_5a/3x3 (in-place)
I0403 11:11:51.739408  7989 net.cpp:141] Setting up inception_5a/relu_3x3
I0403 11:11:51.739426  7989 net.cpp:148] Top shape: 24 320 7 7 (376320)
I0403 11:11:51.739440  7989 net.cpp:156] Memory required for data: 1299049920
I0403 11:11:51.739460  7989 layer_factory.hpp:77] Creating layer inception_5a/5x5_reduce
I0403 11:11:51.739485  7989 net.cpp:91] Creating Layer inception_5a/5x5_reduce
I0403 11:11:51.739503  7989 net.cpp:425] inception_5a/5x5_reduce <- pool4/3x3_s2_pool4/3x3_s2_0_split_2
I0403 11:11:51.739526  7989 net.cpp:399] inception_5a/5x5_reduce -> inception_5a/5x5_reduce
I0403 11:11:51.739894  7989 net.cpp:141] Setting up inception_5a/5x5_reduce
I0403 11:11:51.739919  7989 net.cpp:148] Top shape: 24 32 7 7 (37632)
I0403 11:11:51.739933  7989 net.cpp:156] Memory required for data: 1299200448
I0403 11:11:51.739951  7989 layer_factory.hpp:77] Creating layer inception_5a/relu_5x5_reduce
I0403 11:11:51.739972  7989 net.cpp:91] Creating Layer inception_5a/relu_5x5_reduce
I0403 11:11:51.739990  7989 net.cpp:425] inception_5a/relu_5x5_reduce <- inception_5a/5x5_reduce
I0403 11:11:51.740007  7989 net.cpp:386] inception_5a/relu_5x5_reduce -> inception_5a/5x5_reduce (in-place)
I0403 11:11:51.740025  7989 net.cpp:141] Setting up inception_5a/relu_5x5_reduce
I0403 11:11:51.740043  7989 net.cpp:148] Top shape: 24 32 7 7 (37632)
I0403 11:11:51.740057  7989 net.cpp:156] Memory required for data: 1299350976
I0403 11:11:51.740070  7989 layer_factory.hpp:77] Creating layer inception_5a/5x5
I0403 11:11:51.740093  7989 net.cpp:91] Creating Layer inception_5a/5x5
I0403 11:11:51.740111  7989 net.cpp:425] inception_5a/5x5 <- inception_5a/5x5_reduce
I0403 11:11:51.740136  7989 net.cpp:399] inception_5a/5x5 -> inception_5a/5x5
I0403 11:11:51.740911  7989 net.cpp:141] Setting up inception_5a/5x5
I0403 11:11:51.740938  7989 net.cpp:148] Top shape: 24 128 7 7 (150528)
I0403 11:11:51.740958  7989 net.cpp:156] Memory required for data: 1299953088
I0403 11:11:51.740977  7989 layer_factory.hpp:77] Creating layer inception_5a/relu_5x5
I0403 11:11:51.740995  7989 net.cpp:91] Creating Layer inception_5a/relu_5x5
I0403 11:11:51.741011  7989 net.cpp:425] inception_5a/relu_5x5 <- inception_5a/5x5
I0403 11:11:51.741029  7989 net.cpp:386] inception_5a/relu_5x5 -> inception_5a/5x5 (in-place)
I0403 11:11:51.741047  7989 net.cpp:141] Setting up inception_5a/relu_5x5
I0403 11:11:51.741065  7989 net.cpp:148] Top shape: 24 128 7 7 (150528)
I0403 11:11:51.741077  7989 net.cpp:156] Memory required for data: 1300555200
I0403 11:11:51.741091  7989 layer_factory.hpp:77] Creating layer inception_5a/pool
I0403 11:11:51.741108  7989 net.cpp:91] Creating Layer inception_5a/pool
I0403 11:11:51.741127  7989 net.cpp:425] inception_5a/pool <- pool4/3x3_s2_pool4/3x3_s2_0_split_3
I0403 11:11:51.741144  7989 net.cpp:399] inception_5a/pool -> inception_5a/pool
I0403 11:11:51.741197  7989 net.cpp:141] Setting up inception_5a/pool
I0403 11:11:51.741219  7989 net.cpp:148] Top shape: 24 832 7 7 (978432)
I0403 11:11:51.741235  7989 net.cpp:156] Memory required for data: 1304468928
I0403 11:11:51.741248  7989 layer_factory.hpp:77] Creating layer inception_5a/pool_proj
I0403 11:11:51.741271  7989 net.cpp:91] Creating Layer inception_5a/pool_proj
I0403 11:11:51.741291  7989 net.cpp:425] inception_5a/pool_proj <- inception_5a/pool
I0403 11:11:51.741313  7989 net.cpp:399] inception_5a/pool_proj -> inception_5a/pool_proj
I0403 11:11:51.742684  7989 net.cpp:141] Setting up inception_5a/pool_proj
I0403 11:11:51.742714  7989 net.cpp:148] Top shape: 24 128 7 7 (150528)
I0403 11:11:51.742732  7989 net.cpp:156] Memory required for data: 1305071040
I0403 11:11:51.742749  7989 layer_factory.hpp:77] Creating layer inception_5a/relu_pool_proj
I0403 11:11:51.742768  7989 net.cpp:91] Creating Layer inception_5a/relu_pool_proj
I0403 11:11:51.742784  7989 net.cpp:425] inception_5a/relu_pool_proj <- inception_5a/pool_proj
I0403 11:11:51.742800  7989 net.cpp:386] inception_5a/relu_pool_proj -> inception_5a/pool_proj (in-place)
I0403 11:11:51.742820  7989 net.cpp:141] Setting up inception_5a/relu_pool_proj
I0403 11:11:51.742851  7989 net.cpp:148] Top shape: 24 128 7 7 (150528)
I0403 11:11:51.742867  7989 net.cpp:156] Memory required for data: 1305673152
I0403 11:11:51.742882  7989 layer_factory.hpp:77] Creating layer inception_5a/output
I0403 11:11:51.742898  7989 net.cpp:91] Creating Layer inception_5a/output
I0403 11:11:51.742913  7989 net.cpp:425] inception_5a/output <- inception_5a/1x1
I0403 11:11:51.742929  7989 net.cpp:425] inception_5a/output <- inception_5a/3x3
I0403 11:11:51.742944  7989 net.cpp:425] inception_5a/output <- inception_5a/5x5
I0403 11:11:51.742965  7989 net.cpp:425] inception_5a/output <- inception_5a/pool_proj
I0403 11:11:51.742990  7989 net.cpp:399] inception_5a/output -> inception_5a/output
I0403 11:11:51.743036  7989 net.cpp:141] Setting up inception_5a/output
I0403 11:11:51.743062  7989 net.cpp:148] Top shape: 24 832 7 7 (978432)
I0403 11:11:51.743077  7989 net.cpp:156] Memory required for data: 1309586880
I0403 11:11:51.743091  7989 layer_factory.hpp:77] Creating layer inception_5a/output_inception_5a/output_0_split
I0403 11:11:51.743109  7989 net.cpp:91] Creating Layer inception_5a/output_inception_5a/output_0_split
I0403 11:11:51.743124  7989 net.cpp:425] inception_5a/output_inception_5a/output_0_split <- inception_5a/output
I0403 11:11:51.743141  7989 net.cpp:399] inception_5a/output_inception_5a/output_0_split -> inception_5a/output_inception_5a/output_0_split_0
I0403 11:11:51.743161  7989 net.cpp:399] inception_5a/output_inception_5a/output_0_split -> inception_5a/output_inception_5a/output_0_split_1
I0403 11:11:51.743182  7989 net.cpp:399] inception_5a/output_inception_5a/output_0_split -> inception_5a/output_inception_5a/output_0_split_2
I0403 11:11:51.743203  7989 net.cpp:399] inception_5a/output_inception_5a/output_0_split -> inception_5a/output_inception_5a/output_0_split_3
I0403 11:11:51.743271  7989 net.cpp:141] Setting up inception_5a/output_inception_5a/output_0_split
I0403 11:11:51.743294  7989 net.cpp:148] Top shape: 24 832 7 7 (978432)
I0403 11:11:51.743309  7989 net.cpp:148] Top shape: 24 832 7 7 (978432)
I0403 11:11:51.743324  7989 net.cpp:148] Top shape: 24 832 7 7 (978432)
I0403 11:11:51.743340  7989 net.cpp:148] Top shape: 24 832 7 7 (978432)
I0403 11:11:51.743357  7989 net.cpp:156] Memory required for data: 1325241792
I0403 11:11:51.743371  7989 layer_factory.hpp:77] Creating layer inception_5b/1x1
I0403 11:11:51.743394  7989 net.cpp:91] Creating Layer inception_5b/1x1
I0403 11:11:51.743412  7989 net.cpp:425] inception_5b/1x1 <- inception_5a/output_inception_5a/output_0_split_0
I0403 11:11:51.743433  7989 net.cpp:399] inception_5b/1x1 -> inception_5b/1x1
I0403 11:11:51.746004  7989 net.cpp:141] Setting up inception_5b/1x1
I0403 11:11:51.746034  7989 net.cpp:148] Top shape: 24 384 7 7 (451584)
I0403 11:11:51.746050  7989 net.cpp:156] Memory required for data: 1327048128
I0403 11:11:51.746068  7989 layer_factory.hpp:77] Creating layer inception_5b/relu_1x1
I0403 11:11:51.746088  7989 net.cpp:91] Creating Layer inception_5b/relu_1x1
I0403 11:11:51.746105  7989 net.cpp:425] inception_5b/relu_1x1 <- inception_5b/1x1
I0403 11:11:51.746122  7989 net.cpp:386] inception_5b/relu_1x1 -> inception_5b/1x1 (in-place)
I0403 11:11:51.746141  7989 net.cpp:141] Setting up inception_5b/relu_1x1
I0403 11:11:51.746158  7989 net.cpp:148] Top shape: 24 384 7 7 (451584)
I0403 11:11:51.746172  7989 net.cpp:156] Memory required for data: 1328854464
I0403 11:11:51.746186  7989 layer_factory.hpp:77] Creating layer inception_5b/3x3_reduce
I0403 11:11:51.746211  7989 net.cpp:91] Creating Layer inception_5b/3x3_reduce
I0403 11:11:51.746227  7989 net.cpp:425] inception_5b/3x3_reduce <- inception_5a/output_inception_5a/output_0_split_1
I0403 11:11:51.746250  7989 net.cpp:399] inception_5b/3x3_reduce -> inception_5b/3x3_reduce
I0403 11:11:51.747822  7989 net.cpp:141] Setting up inception_5b/3x3_reduce
I0403 11:11:51.747851  7989 net.cpp:148] Top shape: 24 192 7 7 (225792)
I0403 11:11:51.747867  7989 net.cpp:156] Memory required for data: 1329757632
I0403 11:11:51.747885  7989 layer_factory.hpp:77] Creating layer inception_5b/relu_3x3_reduce
I0403 11:11:51.747917  7989 net.cpp:91] Creating Layer inception_5b/relu_3x3_reduce
I0403 11:11:51.747934  7989 net.cpp:425] inception_5b/relu_3x3_reduce <- inception_5b/3x3_reduce
I0403 11:11:51.747952  7989 net.cpp:386] inception_5b/relu_3x3_reduce -> inception_5b/3x3_reduce (in-place)
I0403 11:11:51.747972  7989 net.cpp:141] Setting up inception_5b/relu_3x3_reduce
I0403 11:11:51.747989  7989 net.cpp:148] Top shape: 24 192 7 7 (225792)
I0403 11:11:51.748003  7989 net.cpp:156] Memory required for data: 1330660800
I0403 11:11:51.748016  7989 layer_factory.hpp:77] Creating layer inception_5b/3x3
I0403 11:11:51.748039  7989 net.cpp:91] Creating Layer inception_5b/3x3
I0403 11:11:51.748056  7989 net.cpp:425] inception_5b/3x3 <- inception_5b/3x3_reduce
I0403 11:11:51.748078  7989 net.cpp:399] inception_5b/3x3 -> inception_5b/3x3
I0403 11:11:51.753144  7989 net.cpp:141] Setting up inception_5b/3x3
I0403 11:11:51.753171  7989 net.cpp:148] Top shape: 24 384 7 7 (451584)
I0403 11:11:51.753190  7989 net.cpp:156] Memory required for data: 1332467136
I0403 11:11:51.753209  7989 layer_factory.hpp:77] Creating layer inception_5b/relu_3x3
I0403 11:11:51.753228  7989 net.cpp:91] Creating Layer inception_5b/relu_3x3
I0403 11:11:51.753245  7989 net.cpp:425] inception_5b/relu_3x3 <- inception_5b/3x3
I0403 11:11:51.753265  7989 net.cpp:386] inception_5b/relu_3x3 -> inception_5b/3x3 (in-place)
I0403 11:11:51.753286  7989 net.cpp:141] Setting up inception_5b/relu_3x3
I0403 11:11:51.753304  7989 net.cpp:148] Top shape: 24 384 7 7 (451584)
I0403 11:11:51.753317  7989 net.cpp:156] Memory required for data: 1334273472
I0403 11:11:51.753331  7989 layer_factory.hpp:77] Creating layer inception_5b/5x5_reduce
I0403 11:11:51.753355  7989 net.cpp:91] Creating Layer inception_5b/5x5_reduce
I0403 11:11:51.753373  7989 net.cpp:425] inception_5b/5x5_reduce <- inception_5a/output_inception_5a/output_0_split_2
I0403 11:11:51.753394  7989 net.cpp:399] inception_5b/5x5_reduce -> inception_5b/5x5_reduce
I0403 11:11:51.754343  7989 net.cpp:141] Setting up inception_5b/5x5_reduce
I0403 11:11:51.754374  7989 net.cpp:148] Top shape: 24 48 7 7 (56448)
I0403 11:11:51.754390  7989 net.cpp:156] Memory required for data: 1334499264
I0403 11:11:51.754410  7989 layer_factory.hpp:77] Creating layer inception_5b/relu_5x5_reduce
I0403 11:11:51.754427  7989 net.cpp:91] Creating Layer inception_5b/relu_5x5_reduce
I0403 11:11:51.754443  7989 net.cpp:425] inception_5b/relu_5x5_reduce <- inception_5b/5x5_reduce
I0403 11:11:51.754463  7989 net.cpp:386] inception_5b/relu_5x5_reduce -> inception_5b/5x5_reduce (in-place)
I0403 11:11:51.754483  7989 net.cpp:141] Setting up inception_5b/relu_5x5_reduce
I0403 11:11:51.754501  7989 net.cpp:148] Top shape: 24 48 7 7 (56448)
I0403 11:11:51.754515  7989 net.cpp:156] Memory required for data: 1334725056
I0403 11:11:51.754528  7989 layer_factory.hpp:77] Creating layer inception_5b/5x5
I0403 11:11:51.754549  7989 net.cpp:91] Creating Layer inception_5b/5x5
I0403 11:11:51.754565  7989 net.cpp:425] inception_5b/5x5 <- inception_5b/5x5_reduce
I0403 11:11:51.754585  7989 net.cpp:399] inception_5b/5x5 -> inception_5b/5x5
I0403 11:11:51.755625  7989 net.cpp:141] Setting up inception_5b/5x5
I0403 11:11:51.755650  7989 net.cpp:148] Top shape: 24 128 7 7 (150528)
I0403 11:11:51.755664  7989 net.cpp:156] Memory required for data: 1335327168
I0403 11:11:51.755681  7989 layer_factory.hpp:77] Creating layer inception_5b/relu_5x5
I0403 11:11:51.755698  7989 net.cpp:91] Creating Layer inception_5b/relu_5x5
I0403 11:11:51.755714  7989 net.cpp:425] inception_5b/relu_5x5 <- inception_5b/5x5
I0403 11:11:51.755731  7989 net.cpp:386] inception_5b/relu_5x5 -> inception_5b/5x5 (in-place)
I0403 11:11:51.755749  7989 net.cpp:141] Setting up inception_5b/relu_5x5
I0403 11:11:51.755767  7989 net.cpp:148] Top shape: 24 128 7 7 (150528)
I0403 11:11:51.755781  7989 net.cpp:156] Memory required for data: 1335929280
I0403 11:11:51.755795  7989 layer_factory.hpp:77] Creating layer inception_5b/pool
I0403 11:11:51.755815  7989 net.cpp:91] Creating Layer inception_5b/pool
I0403 11:11:51.755846  7989 net.cpp:425] inception_5b/pool <- inception_5a/output_inception_5a/output_0_split_3
I0403 11:11:51.755867  7989 net.cpp:399] inception_5b/pool -> inception_5b/pool
I0403 11:11:51.755920  7989 net.cpp:141] Setting up inception_5b/pool
I0403 11:11:51.755944  7989 net.cpp:148] Top shape: 24 832 7 7 (978432)
I0403 11:11:51.755959  7989 net.cpp:156] Memory required for data: 1339843008
I0403 11:11:51.755972  7989 layer_factory.hpp:77] Creating layer inception_5b/pool_proj
I0403 11:11:51.755995  7989 net.cpp:91] Creating Layer inception_5b/pool_proj
I0403 11:11:51.756011  7989 net.cpp:425] inception_5b/pool_proj <- inception_5b/pool
I0403 11:11:51.756031  7989 net.cpp:399] inception_5b/pool_proj -> inception_5b/pool_proj
I0403 11:11:51.757315  7989 net.cpp:141] Setting up inception_5b/pool_proj
I0403 11:11:51.757342  7989 net.cpp:148] Top shape: 24 128 7 7 (150528)
I0403 11:11:51.757365  7989 net.cpp:156] Memory required for data: 1340445120
I0403 11:11:51.757383  7989 layer_factory.hpp:77] Creating layer inception_5b/relu_pool_proj
I0403 11:11:51.757401  7989 net.cpp:91] Creating Layer inception_5b/relu_pool_proj
I0403 11:11:51.757417  7989 net.cpp:425] inception_5b/relu_pool_proj <- inception_5b/pool_proj
I0403 11:11:51.757434  7989 net.cpp:386] inception_5b/relu_pool_proj -> inception_5b/pool_proj (in-place)
I0403 11:11:51.757457  7989 net.cpp:141] Setting up inception_5b/relu_pool_proj
I0403 11:11:51.757475  7989 net.cpp:148] Top shape: 24 128 7 7 (150528)
I0403 11:11:51.757489  7989 net.cpp:156] Memory required for data: 1341047232
I0403 11:11:51.757503  7989 layer_factory.hpp:77] Creating layer inception_5b/output
I0403 11:11:51.757520  7989 net.cpp:91] Creating Layer inception_5b/output
I0403 11:11:51.757536  7989 net.cpp:425] inception_5b/output <- inception_5b/1x1
I0403 11:11:51.757552  7989 net.cpp:425] inception_5b/output <- inception_5b/3x3
I0403 11:11:51.757567  7989 net.cpp:425] inception_5b/output <- inception_5b/5x5
I0403 11:11:51.757583  7989 net.cpp:425] inception_5b/output <- inception_5b/pool_proj
I0403 11:11:51.757601  7989 net.cpp:399] inception_5b/output -> inception_5b/output
I0403 11:11:51.757639  7989 net.cpp:141] Setting up inception_5b/output
I0403 11:11:51.757663  7989 net.cpp:148] Top shape: 24 1024 7 7 (1204224)
I0403 11:11:51.757676  7989 net.cpp:156] Memory required for data: 1345864128
I0403 11:11:51.757690  7989 layer_factory.hpp:77] Creating layer pool5/7x7_s1
I0403 11:11:51.757709  7989 net.cpp:91] Creating Layer pool5/7x7_s1
I0403 11:11:51.757724  7989 net.cpp:425] pool5/7x7_s1 <- inception_5b/output
I0403 11:11:51.757745  7989 net.cpp:399] pool5/7x7_s1 -> pool5/7x7_s1
I0403 11:11:51.757784  7989 net.cpp:141] Setting up pool5/7x7_s1
I0403 11:11:51.757807  7989 net.cpp:148] Top shape: 24 1024 1 1 (24576)
I0403 11:11:51.757820  7989 net.cpp:156] Memory required for data: 1345962432
I0403 11:11:51.757834  7989 layer_factory.hpp:77] Creating layer pool5/drop_7x7_s1
I0403 11:11:51.757853  7989 net.cpp:91] Creating Layer pool5/drop_7x7_s1
I0403 11:11:51.757869  7989 net.cpp:425] pool5/drop_7x7_s1 <- pool5/7x7_s1
I0403 11:11:51.757884  7989 net.cpp:386] pool5/drop_7x7_s1 -> pool5/7x7_s1 (in-place)
I0403 11:11:51.757922  7989 net.cpp:141] Setting up pool5/drop_7x7_s1
I0403 11:11:51.757943  7989 net.cpp:148] Top shape: 24 1024 1 1 (24576)
I0403 11:11:51.757957  7989 net.cpp:156] Memory required for data: 1346060736
I0403 11:11:51.757972  7989 layer_factory.hpp:77] Creating layer loss3/classifier_plantvillage
I0403 11:11:51.757993  7989 net.cpp:91] Creating Layer loss3/classifier_plantvillage
I0403 11:11:51.758009  7989 net.cpp:425] loss3/classifier_plantvillage <- pool5/7x7_s1
I0403 11:11:51.758028  7989 net.cpp:399] loss3/classifier_plantvillage -> loss3/classifier_plantvillage
I0403 11:11:51.758352  7989 net.cpp:141] Setting up loss3/classifier_plantvillage
I0403 11:11:51.758376  7989 net.cpp:148] Top shape: 24 38 (912)
I0403 11:11:51.758391  7989 net.cpp:156] Memory required for data: 1346064384
I0403 11:11:51.758409  7989 layer_factory.hpp:77] Creating layer loss3/classifier_plantvillage_loss3/classifier_plantvillage_0_split
I0403 11:11:51.758441  7989 net.cpp:91] Creating Layer loss3/classifier_plantvillage_loss3/classifier_plantvillage_0_split
I0403 11:11:51.758460  7989 net.cpp:425] loss3/classifier_plantvillage_loss3/classifier_plantvillage_0_split <- loss3/classifier_plantvillage
I0403 11:11:51.758478  7989 net.cpp:399] loss3/classifier_plantvillage_loss3/classifier_plantvillage_0_split -> loss3/classifier_plantvillage_loss3/classifier_plantvillage_0_split_0
I0403 11:11:51.758501  7989 net.cpp:399] loss3/classifier_plantvillage_loss3/classifier_plantvillage_0_split -> loss3/classifier_plantvillage_loss3/classifier_plantvillage_0_split_1
I0403 11:11:51.758527  7989 net.cpp:399] loss3/classifier_plantvillage_loss3/classifier_plantvillage_0_split -> loss3/classifier_plantvillage_loss3/classifier_plantvillage_0_split_2
I0403 11:11:51.758590  7989 net.cpp:141] Setting up loss3/classifier_plantvillage_loss3/classifier_plantvillage_0_split
I0403 11:11:51.758612  7989 net.cpp:148] Top shape: 24 38 (912)
I0403 11:11:51.758628  7989 net.cpp:148] Top shape: 24 38 (912)
I0403 11:11:51.758643  7989 net.cpp:148] Top shape: 24 38 (912)
I0403 11:11:51.758656  7989 net.cpp:156] Memory required for data: 1346075328
I0403 11:11:51.758669  7989 layer_factory.hpp:77] Creating layer loss1/loss
I0403 11:11:51.758687  7989 net.cpp:91] Creating Layer loss1/loss
I0403 11:11:51.758703  7989 net.cpp:425] loss1/loss <- loss1/classifier_plantvillage_loss1/classifier_plantvillage_0_split_0
I0403 11:11:51.758720  7989 net.cpp:425] loss1/loss <- label_data_1_split_0
…
