…
I0403 02:30:37.041473  2203 net.cpp:313] The NetState phase (0) differed from the phase (1) specified by a rule in layer accuracy
I0403 02:30:37.043162  2203 net.cpp:49] Initializing net from parameters: 
state {
  phase: TRAIN
}
layer {
  name: "data"
  type: "Data"
  top: "data"
  top: "label"
  include {
    phase: TRAIN
  }
  transform_param {
    mirror: true
    crop_size: 227
    mean_file: "/home/mohanty/data/final_dataset/lmdb/grayscale-80-20/mean.binaryproto"
  }
  data_param {
    source: "/home/mohanty/data/final_dataset/lmdb/grayscale-80-20/train_db"
    batch_size: 100
    backend: LMDB
  }
}
layer {
  name: "conv1"
  type: "Convolution"
  bottom: "data"
  top: "conv1"
  param {
    lr_mult: 1
    decay_mult: 1
  }
  param {
    lr_mult: 2
    decay_mult: 0
  }
  convolution_param {
    num_output: 96
    kernel_size: 11
    stride: 4
    weight_filler {
      type: "gaussian"
      std: 0.01
    }
    bias_filler {
      type: "constant"
      value: 0
    }
  }
}
layer {
  name: "relu1"
  type: "ReLU"
  bottom: "conv1"
  top: "conv1"
}
layer {
  name: "norm1"
  type: "LRN"
  bottom: "conv1"
  top: "norm1"
  lrn_param {
    local_size: 5
    alpha: 0.0001
    beta: 0.75
  }
}
layer {
  name: "pool1"
  type: "Pooling"
  bottom: "norm1"
  top: "pool1"
  pooling_param {
    pool: MAX
    kernel_size: 3
    stride: 2
  }
}
layer {
  name: "conv2"
  type: "Convolution"
  bottom: "pool1"
  top: "conv2"
  param {
    lr_mult: 1
    decay_mult: 1
  }
  param {
    lr_mult: 2
    decay_mult: 0
  }
  convolution_param {
    num_output: 256
    pad: 2
    kernel_size: 5
    group: 2
    weight_filler {
      type: "gaussian"
      std: 0.01
    }
    bias_filler {
      type: "constant"
      value: 0.1
    }
  }
}
layer {
  name: "relu2"
  type: "ReLU"
  bottom: "conv2"
  top: "conv2"
}
layer {
  name: "norm2"
  type: "LRN"
  bottom: "conv2"
  top: "norm2"
  lrn_param {
    local_size: 5
    alpha: 0.0001
    beta: 0.75
  }
}
layer {
  name: "pool2"
  type: "Pooling"
  bottom: "norm2"
  top: "pool2"
  pooling_param {
    pool: MAX
    kernel_size: 3
    stride: 2
  }
}
layer {
  name: "conv3"
  type: "Convolution"
  bottom: "pool2"
  top: "conv3"
  param {
    lr_mult: 1
    decay_mult: 1
  }
  param {
    lr_mult: 2
    decay_mult: 0
  }
  convolution_param {
    num_output: 384
    pad: 1
    kernel_size: 3
    weight_filler {
      type: "gaussian"
      std: 0.01
    }
    bias_filler {
      type: "constant"
      value: 0
    }
  }
}
layer {
  name: "relu3"
  type: "ReLU"
  bottom: "conv3"
  top: "conv3"
}
layer {
  name: "conv4"
  type: "Convolution"
  bottom: "conv3"
  top: "conv4"
  param {
    lr_mult: 1
    decay_mult: 1
  }
  param {
    lr_mult: 2
    decay_mult: 0
  }
  convolution_param {
    num_output: 384
    pad: 1
    kernel_size: 3
    group: 2
    weight_filler {
      type: "gaussian"
      std: 0.01
    }
    bias_filler {
      type: "constant"
      value: 0.1
    }
  }
}
layer {
  name: "relu4"
  type: "ReLU"
  bottom: "conv4"
  top: "conv4"
}
layer {
  name: "conv5"
  type: "Convolution"
  bottom: "conv4"
  top: "conv5"
  param {
    lr_mult: 1
    decay_mult: 1
  }
  param {
    lr_mult: 2
    decay_mult: 0
  }
  convolution_param {
    num_output: 256
    pad: 1
    kernel_size: 3
    group: 2
    weight_filler {
      type: "gaussian"
      std: 0.01
    }
    bias_filler {
      type: "constant"
      value: 0.1
    }
  }
}
layer {
  name: "relu5"
  type: "ReLU"
  bottom: "conv5"
  top: "conv5"
}
layer {
  name: "pool5"
  type: "Pooling"
  bottom: "conv5"
  top: "pool5"
  pooling_param {
    pool: MAX
    kernel_size: 3
    stride: 2
  }
}
layer {
  name: "fc6"
  type: "InnerProduct"
  bottom: "pool5"
  top: "fc6"
  param {
    lr_mult: 1
    decay_mult: 1
  }
  param {
    lr_mult: 2
    decay_mult: 0
  }
  inner_product_param {
    num_output: 4096
    weight_filler {
      type: "gaussian"
      std: 0.005
    }
    bias_filler {
      type: "constant"
      value: 0.1
    }
  }
}
layer {
  name: "relu6"
  type: "ReLU"
  bottom: "fc6"
  top: "fc6"
}
layer {
  name: "drop6"
  type: "Dropout"
  bottom: "fc6"
  top: "fc6"
  dropout_param {
    dropout_ratio: 0.5
  }
}
layer {
  name: "fc7"
  type: "InnerProduct"
  bottom: "fc6"
  top: "fc7"
  param {
    lr_mult: 1
    decay_mult: 1
  }
  param {
    lr_mult: 2
    decay_mult: 0
  }
  inner_product_param {
    num_output: 4096
    weight_filler {
      type: "gaussian"
      std: 0.005
    }
    bias_filler {
      type: "constant"
      value: 0.1
    }
  }
}
layer {
  name: "relu7"
  type: "ReLU"
  bottom: "fc7"
  top: "fc7"
}
layer {
  name: "drop7"
  type: "Dropout"
  bottom: "fc7"
  top: "fc7"
  dropout_param {
    dropout_ratio: 0.5
  }
}
layer {
  name: "fc8_plantvillage"
  type: "InnerProduct"
  bottom: "fc7"
  top: "fc8_plantvillage"
  param {
    lr_mult: 1
    decay_mult: 1
  }
  param {
    lr_mult: 2
    decay_mult: 0
  }
  inner_product_param {
    num_output: 38
    weight_filler {
      type: "gaussian"
      std: 0.01
    }
    bias_filler {
      type: "constant"
      value: 0
    }
  }
}
layer {
  name: "loss"
  type: "SoftmaxWithLoss"
  bottom: "fc8_plantvillage"
  bottom: "label"
  top: "loss"
}
I0403 02:30:37.044287  2203 layer_factory.hpp:77] Creating layer data
I0403 02:30:37.046223  2203 net.cpp:91] Creating Layer data
I0403 02:30:37.046342  2203 net.cpp:399] data -> data
I0403 02:30:37.046464  2203 net.cpp:399] data -> label
I0403 02:30:37.046561  2203 data_transformer.cpp:25] Loading mean file from: /home/mohanty/data/final_dataset/lmdb/grayscale-80-20/mean.binaryproto
I0403 02:30:37.068290  2211 db_lmdb.cpp:38] Opened lmdb /home/mohanty/data/final_dataset/lmdb/grayscale-80-20/train_db
I0403 02:30:37.093698  2203 data_layer.cpp:41] output data size: 100,3,227,227
I0403 02:30:37.231467  2203 net.cpp:141] Setting up data
I0403 02:30:37.231602  2203 net.cpp:148] Top shape: 100 3 227 227 (15458700)
I0403 02:30:37.231659  2203 net.cpp:148] Top shape: 100 (100)
I0403 02:30:37.231698  2203 net.cpp:156] Memory required for data: 61835200
I0403 02:30:37.231791  2203 layer_factory.hpp:77] Creating layer conv1
I0403 02:30:37.231858  2203 net.cpp:91] Creating Layer conv1
I0403 02:30:37.231931  2203 net.cpp:425] conv1 <- data
I0403 02:30:37.231972  2203 net.cpp:399] conv1 -> conv1
I0403 02:30:37.235337  2203 net.cpp:141] Setting up conv1
I0403 02:30:37.235374  2203 net.cpp:148] Top shape: 100 96 55 55 (29040000)
I0403 02:30:37.235396  2203 net.cpp:156] Memory required for data: 177995200
I0403 02:30:37.235468  2203 layer_factory.hpp:77] Creating layer relu1
I0403 02:30:37.235530  2203 net.cpp:91] Creating Layer relu1
I0403 02:30:37.235558  2203 net.cpp:425] relu1 <- conv1
I0403 02:30:37.235580  2203 net.cpp:386] relu1 -> conv1 (in-place)
I0403 02:30:37.235630  2203 net.cpp:141] Setting up relu1
I0403 02:30:37.235656  2203 net.cpp:148] Top shape: 100 96 55 55 (29040000)
I0403 02:30:37.235672  2203 net.cpp:156] Memory required for data: 294155200
I0403 02:30:37.235689  2203 layer_factory.hpp:77] Creating layer norm1
I0403 02:30:37.235713  2203 net.cpp:91] Creating Layer norm1
I0403 02:30:37.235770  2203 net.cpp:425] norm1 <- conv1
I0403 02:30:37.235795  2203 net.cpp:399] norm1 -> norm1
I0403 02:30:37.241263  2203 net.cpp:141] Setting up norm1
I0403 02:30:37.241312  2203 net.cpp:148] Top shape: 100 96 55 55 (29040000)
I0403 02:30:37.241334  2203 net.cpp:156] Memory required for data: 410315200
I0403 02:30:37.241363  2203 layer_factory.hpp:77] Creating layer pool1
I0403 02:30:37.241408  2203 net.cpp:91] Creating Layer pool1
I0403 02:30:37.241441  2203 net.cpp:425] pool1 <- norm1
I0403 02:30:37.241463  2203 net.cpp:399] pool1 -> pool1
I0403 02:30:37.241575  2203 net.cpp:141] Setting up pool1
I0403 02:30:37.241607  2203 net.cpp:148] Top shape: 100 96 27 27 (6998400)
I0403 02:30:37.241627  2203 net.cpp:156] Memory required for data: 438308800
I0403 02:30:37.241665  2203 layer_factory.hpp:77] Creating layer conv2
I0403 02:30:37.241720  2203 net.cpp:91] Creating Layer conv2
I0403 02:30:37.241804  2203 net.cpp:425] conv2 <- pool1
I0403 02:30:37.241870  2203 net.cpp:399] conv2 -> conv2
I0403 02:30:37.243433  2213 blocking_queue.cpp:50] Waiting for data
I0403 02:30:37.262420  2203 net.cpp:141] Setting up conv2
I0403 02:30:37.262459  2203 net.cpp:148] Top shape: 100 256 27 27 (18662400)
I0403 02:30:37.262480  2203 net.cpp:156] Memory required for data: 512958400
I0403 02:30:37.262504  2203 layer_factory.hpp:77] Creating layer relu2
I0403 02:30:37.262538  2203 net.cpp:91] Creating Layer relu2
I0403 02:30:37.262559  2203 net.cpp:425] relu2 <- conv2
I0403 02:30:37.262581  2203 net.cpp:386] relu2 -> conv2 (in-place)
I0403 02:30:37.262604  2203 net.cpp:141] Setting up relu2
I0403 02:30:37.262626  2203 net.cpp:148] Top shape: 100 256 27 27 (18662400)
I0403 02:30:37.262644  2203 net.cpp:156] Memory required for data: 587608000
I0403 02:30:37.262660  2203 layer_factory.hpp:77] Creating layer norm2
I0403 02:30:37.262682  2203 net.cpp:91] Creating Layer norm2
I0403 02:30:37.262702  2203 net.cpp:425] norm2 <- conv2
I0403 02:30:37.262723  2203 net.cpp:399] norm2 -> norm2
I0403 02:30:37.262780  2203 net.cpp:141] Setting up norm2
I0403 02:30:37.262806  2203 net.cpp:148] Top shape: 100 256 27 27 (18662400)
I0403 02:30:37.262825  2203 net.cpp:156] Memory required for data: 662257600
I0403 02:30:37.262843  2203 layer_factory.hpp:77] Creating layer pool2
I0403 02:30:37.262869  2203 net.cpp:91] Creating Layer pool2
I0403 02:30:37.262889  2203 net.cpp:425] pool2 <- norm2
I0403 02:30:37.262912  2203 net.cpp:399] pool2 -> pool2
I0403 02:30:37.262966  2203 net.cpp:141] Setting up pool2
I0403 02:30:37.262994  2203 net.cpp:148] Top shape: 100 256 13 13 (4326400)
I0403 02:30:37.263011  2203 net.cpp:156] Memory required for data: 679563200
I0403 02:30:37.263030  2203 layer_factory.hpp:77] Creating layer conv3
I0403 02:30:37.263056  2203 net.cpp:91] Creating Layer conv3
I0403 02:30:37.263077  2203 net.cpp:425] conv3 <- pool2
I0403 02:30:37.263101  2203 net.cpp:399] conv3 -> conv3
I0403 02:30:37.304880  2203 net.cpp:141] Setting up conv3
I0403 02:30:37.304920  2203 net.cpp:148] Top shape: 100 384 13 13 (6489600)
I0403 02:30:37.304940  2203 net.cpp:156] Memory required for data: 705521600
I0403 02:30:37.304966  2203 layer_factory.hpp:77] Creating layer relu3
I0403 02:30:37.304991  2203 net.cpp:91] Creating Layer relu3
I0403 02:30:37.305013  2203 net.cpp:425] relu3 <- conv3
I0403 02:30:37.305035  2203 net.cpp:386] relu3 -> conv3 (in-place)
I0403 02:30:37.305059  2203 net.cpp:141] Setting up relu3
I0403 02:30:37.305081  2203 net.cpp:148] Top shape: 100 384 13 13 (6489600)
I0403 02:30:37.305099  2203 net.cpp:156] Memory required for data: 731480000
I0403 02:30:37.305117  2203 layer_factory.hpp:77] Creating layer conv4
I0403 02:30:37.305143  2203 net.cpp:91] Creating Layer conv4
I0403 02:30:37.305166  2203 net.cpp:425] conv4 <- conv3
I0403 02:30:37.305189  2203 net.cpp:399] conv4 -> conv4
I0403 02:30:37.336655  2203 net.cpp:141] Setting up conv4
I0403 02:30:37.336695  2203 net.cpp:148] Top shape: 100 384 13 13 (6489600)
I0403 02:30:37.336715  2203 net.cpp:156] Memory required for data: 757438400
I0403 02:30:37.336758  2203 layer_factory.hpp:77] Creating layer relu4
I0403 02:30:37.336786  2203 net.cpp:91] Creating Layer relu4
I0403 02:30:37.336807  2203 net.cpp:425] relu4 <- conv4
I0403 02:30:37.336829  2203 net.cpp:386] relu4 -> conv4 (in-place)
I0403 02:30:37.336854  2203 net.cpp:141] Setting up relu4
I0403 02:30:37.336874  2203 net.cpp:148] Top shape: 100 384 13 13 (6489600)
I0403 02:30:37.336892  2203 net.cpp:156] Memory required for data: 783396800
I0403 02:30:37.336910  2203 layer_factory.hpp:77] Creating layer conv5
I0403 02:30:37.336935  2203 net.cpp:91] Creating Layer conv5
I0403 02:30:37.336958  2203 net.cpp:425] conv5 <- conv4
I0403 02:30:37.336982  2203 net.cpp:399] conv5 -> conv5
I0403 02:30:37.358042  2203 net.cpp:141] Setting up conv5
I0403 02:30:37.358081  2203 net.cpp:148] Top shape: 100 256 13 13 (4326400)
I0403 02:30:37.358100  2203 net.cpp:156] Memory required for data: 800702400
I0403 02:30:37.358126  2203 layer_factory.hpp:77] Creating layer relu5
I0403 02:30:37.358151  2203 net.cpp:91] Creating Layer relu5
I0403 02:30:37.358171  2203 net.cpp:425] relu5 <- conv5
I0403 02:30:37.358193  2203 net.cpp:386] relu5 -> conv5 (in-place)
I0403 02:30:37.358216  2203 net.cpp:141] Setting up relu5
I0403 02:30:37.358237  2203 net.cpp:148] Top shape: 100 256 13 13 (4326400)
I0403 02:30:37.358254  2203 net.cpp:156] Memory required for data: 818008000
I0403 02:30:37.358273  2203 layer_factory.hpp:77] Creating layer pool5
I0403 02:30:37.358295  2203 net.cpp:91] Creating Layer pool5
I0403 02:30:37.358314  2203 net.cpp:425] pool5 <- conv5
I0403 02:30:37.358336  2203 net.cpp:399] pool5 -> pool5
I0403 02:30:37.358394  2203 net.cpp:141] Setting up pool5
I0403 02:30:37.358423  2203 net.cpp:148] Top shape: 100 256 6 6 (921600)
I0403 02:30:37.358441  2203 net.cpp:156] Memory required for data: 821694400
I0403 02:30:37.358459  2203 layer_factory.hpp:77] Creating layer fc6
I0403 02:30:37.358492  2203 net.cpp:91] Creating Layer fc6
I0403 02:30:37.358521  2203 net.cpp:425] fc6 <- pool5
I0403 02:30:37.358547  2203 net.cpp:399] fc6 -> fc6
I0403 02:30:39.132417  2203 net.cpp:141] Setting up fc6
I0403 02:30:39.132520  2203 net.cpp:148] Top shape: 100 4096 (409600)
I0403 02:30:39.132544  2203 net.cpp:156] Memory required for data: 823332800
I0403 02:30:39.132571  2203 layer_factory.hpp:77] Creating layer relu6
I0403 02:30:39.132601  2203 net.cpp:91] Creating Layer relu6
I0403 02:30:39.132623  2203 net.cpp:425] relu6 <- fc6
I0403 02:30:39.132650  2203 net.cpp:386] relu6 -> fc6 (in-place)
I0403 02:30:39.132679  2203 net.cpp:141] Setting up relu6
I0403 02:30:39.132700  2203 net.cpp:148] Top shape: 100 4096 (409600)
I0403 02:30:39.132719  2203 net.cpp:156] Memory required for data: 824971200
I0403 02:30:39.132735  2203 layer_factory.hpp:77] Creating layer drop6
I0403 02:30:39.132766  2203 net.cpp:91] Creating Layer drop6
I0403 02:30:39.132786  2203 net.cpp:425] drop6 <- fc6
I0403 02:30:39.132807  2203 net.cpp:386] drop6 -> fc6 (in-place)
I0403 02:30:39.132865  2203 net.cpp:141] Setting up drop6
I0403 02:30:39.132892  2203 net.cpp:148] Top shape: 100 4096 (409600)
I0403 02:30:39.132910  2203 net.cpp:156] Memory required for data: 826609600
I0403 02:30:39.132928  2203 layer_factory.hpp:77] Creating layer fc7
I0403 02:30:39.132957  2203 net.cpp:91] Creating Layer fc7
I0403 02:30:39.132978  2203 net.cpp:425] fc7 <- fc6
I0403 02:30:39.133000  2203 net.cpp:399] fc7 -> fc7
I0403 02:30:39.784626  2203 net.cpp:141] Setting up fc7
I0403 02:30:39.784710  2203 net.cpp:148] Top shape: 100 4096 (409600)
I0403 02:30:39.784729  2203 net.cpp:156] Memory required for data: 828248000
I0403 02:30:39.784751  2203 layer_factory.hpp:77] Creating layer relu7
I0403 02:30:39.784777  2203 net.cpp:91] Creating Layer relu7
I0403 02:30:39.784796  2203 net.cpp:425] relu7 <- fc7
I0403 02:30:39.784816  2203 net.cpp:386] relu7 -> fc7 (in-place)
I0403 02:30:39.784839  2203 net.cpp:141] Setting up relu7
I0403 02:30:39.784857  2203 net.cpp:148] Top shape: 100 4096 (409600)
I0403 02:30:39.784870  2203 net.cpp:156] Memory required for data: 829886400
I0403 02:30:39.784884  2203 layer_factory.hpp:77] Creating layer drop7
I0403 02:30:39.784936  2203 net.cpp:91] Creating Layer drop7
I0403 02:30:39.784953  2203 net.cpp:425] drop7 <- fc7
I0403 02:30:39.784973  2203 net.cpp:386] drop7 -> fc7 (in-place)
I0403 02:30:39.785014  2203 net.cpp:141] Setting up drop7
I0403 02:30:39.785037  2203 net.cpp:148] Top shape: 100 4096 (409600)
I0403 02:30:39.785053  2203 net.cpp:156] Memory required for data: 831524800
I0403 02:30:39.785068  2203 layer_factory.hpp:77] Creating layer fc8_plantvillage
I0403 02:30:39.785090  2203 net.cpp:91] Creating Layer fc8_plantvillage
I0403 02:30:39.785105  2203 net.cpp:425] fc8_plantvillage <- fc7
I0403 02:30:39.785123  2203 net.cpp:399] fc8_plantvillage -> fc8_plantvillage
I0403 02:30:39.791261  2203 net.cpp:141] Setting up fc8_plantvillage
I0403 02:30:39.791290  2203 net.cpp:148] Top shape: 100 38 (3800)
I0403 02:30:39.791306  2203 net.cpp:156] Memory required for data: 831540000
I0403 02:30:39.791324  2203 layer_factory.hpp:77] Creating layer loss
I0403 02:30:39.791350  2203 net.cpp:91] Creating Layer loss
I0403 02:30:39.791368  2203 net.cpp:425] loss <- fc8_plantvillage
I0403 02:30:39.791384  2203 net.cpp:425] loss <- label
I0403 02:30:39.791407  2203 net.cpp:399] loss -> loss
I0403 02:30:39.791436  2203 layer_factory.hpp:77] Creating layer loss
…
I0403 02:30:39.793198  2203 net.cpp:313] The NetState phase (1) differed from the phase (0) specified by a rule in layer data
I0403 02:30:39.793828  2203 net.cpp:49] Initializing net from parameters: 
state {
  phase: TEST
}
layer {
  name: "data"
  type: "Data"
  top: "data"
  top: "label"
  include {
    phase: TEST
  }
  transform_param {
    crop_size: 227
    mean_file: "/home/mohanty/data/final_dataset/lmdb/grayscale-80-20/mean.binaryproto"
  }
  data_param {
    source: "/home/mohanty/data/final_dataset/lmdb/grayscale-80-20/test_db"
    batch_size: 100
    backend: LMDB
  }
}
layer {
  name: "conv1"
  type: "Convolution"
  bottom: "data"
  top: "conv1"
  param {
    lr_mult: 1
    decay_mult: 1
  }
  param {
    lr_mult: 2
    decay_mult: 0
  }
  convolution_param {
    num_output: 96
    kernel_size: 11
    stride: 4
    weight_filler {
      type: "gaussian"
      std: 0.01
    }
    bias_filler {
      type: "constant"
      value: 0
    }
  }
}
layer {
  name: "relu1"
  type: "ReLU"
  bottom: "conv1"
  top: "conv1"
}
layer {
  name: "norm1"
  type: "LRN"
  bottom: "conv1"
  top: "norm1"
  lrn_param {
    local_size: 5
    alpha: 0.0001
    beta: 0.75
  }
}
layer {
  name: "pool1"
  type: "Pooling"
  bottom: "norm1"
  top: "pool1"
  pooling_param {
    pool: MAX
    kernel_size: 3
    stride: 2
  }
}
layer {
  name: "conv2"
  type: "Convolution"
  bottom: "pool1"
  top: "conv2"
  param {
    lr_mult: 1
    decay_mult: 1
  }
  param {
    lr_mult: 2
    decay_mult: 0
  }
  convolution_param {
    num_output: 256
    pad: 2
    kernel_size: 5
    group: 2
    weight_filler {
      type: "gaussian"
      std: 0.01
    }
    bias_filler {
      type: "constant"
      value: 0.1
    }
  }
}
layer {
  name: "relu2"
  type: "ReLU"
  bottom: "conv2"
  top: "conv2"
}
layer {
  name: "norm2"
  type: "LRN"
  bottom: "conv2"
  top: "norm2"
  lrn_param {
    local_size: 5
    alpha: 0.0001
    beta: 0.75
  }
}
layer {
  name: "pool2"
  type: "Pooling"
  bottom: "norm2"
  top: "pool2"
  pooling_param {
    pool: MAX
    kernel_size: 3
    stride: 2
  }
}
layer {
  name: "conv3"
  type: "Convolution"
  bottom: "pool2"
  top: "conv3"
  param {
    lr_mult: 1
    decay_mult: 1
  }
  param {
    lr_mult: 2
    decay_mult: 0
  }
  convolution_param {
    num_output: 384
    pad: 1
    kernel_size: 3
    weight_filler {
      type: "gaussian"
      std: 0.01
    }
    bias_filler {
      type: "constant"
      value: 0
    }
  }
}
layer {
  name: "relu3"
  type: "ReLU"
  bottom: "conv3"
  top: "conv3"
}
layer {
  name: "conv4"
  type: "Convolution"
  bottom: "conv3"
  top: "conv4"
  param {
    lr_mult: 1
    decay_mult: 1
  }
  param {
    lr_mult: 2
    decay_mult: 0
  }
  convolution_param {
    num_output: 384
    pad: 1
    kernel_size: 3
    group: 2
    weight_filler {
      type: "gaussian"
      std: 0.01
    }
    bias_filler {
      type: "constant"
      value: 0.1
    }
  }
}
layer {
  name: "relu4"
  type: "ReLU"
  bottom: "conv4"
  top: "conv4"
}
layer {
  name: "conv5"
  type: "Convolution"
  bottom: "conv4"
  top: "conv5"
  param {
    lr_mult: 1
    decay_mult: 1
  }
  param {
    lr_mult: 2
    decay_mult: 0
  }
  convolution_param {
    num_output: 256
    pad: 1
    kernel_size: 3
    group: 2
    weight_filler {
      type: "gaussian"
      std: 0.01
    }
    bias_filler {
      type: "constant"
      value: 0.1
    }
  }
}
layer {
  name: "relu5"
  type: "ReLU"
  bottom: "conv5"
  top: "conv5"
}
layer {
  name: "pool5"
  type: "Pooling"
  bottom: "conv5"
  top: "pool5"
  pooling_param {
    pool: MAX
    kernel_size: 3
    stride: 2
  }
}
layer {
  name: "fc6"
  type: "InnerProduct"
  bottom: "pool5"
  top: "fc6"
  param {
    lr_mult: 1
    decay_mult: 1
  }
  param {
    lr_mult: 2
    decay_mult: 0
  }
  inner_product_param {
    num_output: 4096
    weight_filler {
      type: "gaussian"
      std: 0.005
    }
    bias_filler {
      type: "constant"
      value: 0.1
    }
  }
}
layer {
  name: "relu6"
  type: "ReLU"
  bottom: "fc6"
  top: "fc6"
}
layer {
  name: "drop6"
  type: "Dropout"
  bottom: "fc6"
  top: "fc6"
  dropout_param {
    dropout_ratio: 0.5
  }
}
layer {
  name: "fc7"
  type: "InnerProduct"
  bottom: "fc6"
  top: "fc7"
  param {
    lr_mult: 1
    decay_mult: 1
  }
  param {
    lr_mult: 2
    decay_mult: 0
  }
  inner_product_param {
    num_output: 4096
    weight_filler {
      type: "gaussian"
      std: 0.005
    }
    bias_filler {
      type: "constant"
      value: 0.1
    }
  }
}
layer {
  name: "relu7"
  type: "ReLU"
  bottom: "fc7"
  top: "fc7"
}
layer {
  name: "drop7"
  type: "Dropout"
  bottom: "fc7"
  top: "fc7"
  dropout_param {
    dropout_ratio: 0.5
  }
}
layer {
  name: "fc8_plantvillage"
  type: "InnerProduct"
  bottom: "fc7"
  top: "fc8_plantvillage"
  param {
    lr_mult: 1
    decay_mult: 1
  }
  param {
    lr_mult: 2
    decay_mult: 0
  }
  inner_product_param {
    num_output: 38
    weight_filler {
      type: "gaussian"
      std: 0.01
    }
    bias_filler {
      type: "constant"
      value: 0
    }
  }
}
layer {
  name: "loss"
  type: "SoftmaxWithLoss"
  bottom: "fc8_plantvillage"
  bottom: "label"
  top: "loss"
}
layer {
  name: "accuracy"
  type: "Accuracy"
  bottom: "fc8_plantvillage"
  bottom: "label"
  top: "accuracy"
  include {
    phase: TEST
  }
}
I0403 02:30:39.793987  2203 layer_factory.hpp:77] Creating layer data
I0403 02:30:39.794144  2203 net.cpp:91] Creating Layer data
I0403 02:30:39.794173  2203 net.cpp:399] data -> data
I0403 02:30:39.794198  2203 net.cpp:399] data -> label
I0403 02:30:39.794222  2203 data_transformer.cpp:25] Loading mean file from: /home/mohanty/data/final_dataset/lmdb/grayscale-80-20/mean.binaryproto
I0403 02:30:39.815356  2217 db_lmdb.cpp:38] Opened lmdb /home/mohanty/data/final_dataset/lmdb/grayscale-80-20/test_db
I0403 02:30:39.822700  2203 data_layer.cpp:41] output data size: 100,3,227,227
I0403 02:30:39.965425  2203 net.cpp:141] Setting up data
I0403 02:30:39.965500  2203 net.cpp:148] Top shape: 100 3 227 227 (15458700)
I0403 02:30:39.965528  2203 net.cpp:148] Top shape: 100 (100)
I0403 02:30:39.965544  2203 net.cpp:156] Memory required for data: 61835200
I0403 02:30:39.965564  2203 layer_factory.hpp:77] Creating layer label_data_1_split
I0403 02:30:39.965593  2203 net.cpp:91] Creating Layer label_data_1_split
I0403 02:30:39.965611  2203 net.cpp:425] label_data_1_split <- label
I0403 02:30:39.965632  2203 net.cpp:399] label_data_1_split -> label_data_1_split_0
I0403 02:30:39.965658  2203 net.cpp:399] label_data_1_split -> label_data_1_split_1
I0403 02:30:39.965718  2203 net.cpp:141] Setting up label_data_1_split
I0403 02:30:39.965740  2203 net.cpp:148] Top shape: 100 (100)
I0403 02:30:39.965757  2203 net.cpp:148] Top shape: 100 (100)
I0403 02:30:39.965772  2203 net.cpp:156] Memory required for data: 61836000
I0403 02:30:39.965787  2203 layer_factory.hpp:77] Creating layer conv1
I0403 02:30:39.965816  2203 net.cpp:91] Creating Layer conv1
I0403 02:30:39.965833  2203 net.cpp:425] conv1 <- data
I0403 02:30:39.965852  2203 net.cpp:399] conv1 -> conv1
I0403 02:30:39.967456  2203 net.cpp:141] Setting up conv1
I0403 02:30:39.967485  2203 net.cpp:148] Top shape: 100 96 55 55 (29040000)
I0403 02:30:39.967501  2203 net.cpp:156] Memory required for data: 177996000
I0403 02:30:39.967531  2203 layer_factory.hpp:77] Creating layer relu1
I0403 02:30:39.967555  2203 net.cpp:91] Creating Layer relu1
I0403 02:30:39.967571  2203 net.cpp:425] relu1 <- conv1
I0403 02:30:39.967588  2203 net.cpp:386] relu1 -> conv1 (in-place)
I0403 02:30:39.967607  2203 net.cpp:141] Setting up relu1
I0403 02:30:39.967624  2203 net.cpp:148] Top shape: 100 96 55 55 (29040000)
I0403 02:30:39.967638  2203 net.cpp:156] Memory required for data: 294156000
I0403 02:30:39.967653  2203 layer_factory.hpp:77] Creating layer norm1
I0403 02:30:39.967674  2203 net.cpp:91] Creating Layer norm1
I0403 02:30:39.967689  2203 net.cpp:425] norm1 <- conv1
I0403 02:30:39.967707  2203 net.cpp:399] norm1 -> norm1
I0403 02:30:39.967757  2203 net.cpp:141] Setting up norm1
I0403 02:30:39.967780  2203 net.cpp:148] Top shape: 100 96 55 55 (29040000)
I0403 02:30:39.967794  2203 net.cpp:156] Memory required for data: 410316000
I0403 02:30:39.967809  2203 layer_factory.hpp:77] Creating layer pool1
I0403 02:30:39.967828  2203 net.cpp:91] Creating Layer pool1
I0403 02:30:39.967844  2203 net.cpp:425] pool1 <- norm1
I0403 02:30:39.967864  2203 net.cpp:399] pool1 -> pool1
I0403 02:30:39.973824  2203 net.cpp:141] Setting up pool1
I0403 02:30:39.995460  2203 net.cpp:148] Top shape: 100 96 27 27 (6998400)
I0403 02:30:39.995621  2203 net.cpp:156] Memory required for data: 438309600
I0403 02:30:39.995669  2203 layer_factory.hpp:77] Creating layer conv2
I0403 02:30:39.995698  2203 net.cpp:91] Creating Layer conv2
I0403 02:30:39.995718  2203 net.cpp:425] conv2 <- pool1
I0403 02:30:39.995739  2203 net.cpp:399] conv2 -> conv2
I0403 02:30:40.009265  2203 net.cpp:141] Setting up conv2
I0403 02:30:40.009297  2203 net.cpp:148] Top shape: 100 256 27 27 (18662400)
I0403 02:30:40.009315  2203 net.cpp:156] Memory required for data: 512959200
I0403 02:30:40.009337  2203 layer_factory.hpp:77] Creating layer relu2
I0403 02:30:40.009358  2203 net.cpp:91] Creating Layer relu2
I0403 02:30:40.009376  2203 net.cpp:425] relu2 <- conv2
I0403 02:30:40.009393  2203 net.cpp:386] relu2 -> conv2 (in-place)
I0403 02:30:40.009413  2203 net.cpp:141] Setting up relu2
I0403 02:30:40.009431  2203 net.cpp:148] Top shape: 100 256 27 27 (18662400)
I0403 02:30:40.009445  2203 net.cpp:156] Memory required for data: 587608800
I0403 02:30:40.009460  2203 layer_factory.hpp:77] Creating layer norm2
I0403 02:30:40.009480  2203 net.cpp:91] Creating Layer norm2
I0403 02:30:40.009496  2203 net.cpp:425] norm2 <- conv2
I0403 02:30:40.009519  2203 net.cpp:399] norm2 -> norm2
I0403 02:30:40.009574  2203 net.cpp:141] Setting up norm2
I0403 02:30:40.009598  2203 net.cpp:148] Top shape: 100 256 27 27 (18662400)
I0403 02:30:40.009611  2203 net.cpp:156] Memory required for data: 662258400
I0403 02:30:40.009626  2203 layer_factory.hpp:77] Creating layer pool2
I0403 02:30:40.009646  2203 net.cpp:91] Creating Layer pool2
I0403 02:30:40.009663  2203 net.cpp:425] pool2 <- norm2
I0403 02:30:40.009680  2203 net.cpp:399] pool2 -> pool2
I0403 02:30:40.009728  2203 net.cpp:141] Setting up pool2
I0403 02:30:40.009752  2203 net.cpp:148] Top shape: 100 256 13 13 (4326400)
I0403 02:30:40.009768  2203 net.cpp:156] Memory required for data: 679564000
I0403 02:30:40.009781  2203 layer_factory.hpp:77] Creating layer conv3
I0403 02:30:40.009804  2203 net.cpp:91] Creating Layer conv3
I0403 02:30:40.009824  2203 net.cpp:425] conv3 <- pool2
I0403 02:30:40.009842  2203 net.cpp:399] conv3 -> conv3
I0403 02:30:40.048086  2203 net.cpp:141] Setting up conv3
I0403 02:30:40.048141  2203 net.cpp:148] Top shape: 100 384 13 13 (6489600)
I0403 02:30:40.048161  2203 net.cpp:156] Memory required for data: 705522400
I0403 02:30:40.048187  2203 layer_factory.hpp:77] Creating layer relu3
I0403 02:30:40.048212  2203 net.cpp:91] Creating Layer relu3
I0403 02:30:40.048228  2203 net.cpp:425] relu3 <- conv3
I0403 02:30:40.048250  2203 net.cpp:386] relu3 -> conv3 (in-place)
I0403 02:30:40.048274  2203 net.cpp:141] Setting up relu3
I0403 02:30:40.048291  2203 net.cpp:148] Top shape: 100 384 13 13 (6489600)
I0403 02:30:40.048306  2203 net.cpp:156] Memory required for data: 731480800
I0403 02:30:40.048321  2203 layer_factory.hpp:77] Creating layer conv4
I0403 02:30:40.048346  2203 net.cpp:91] Creating Layer conv4
I0403 02:30:40.048363  2203 net.cpp:425] conv4 <- conv3
I0403 02:30:40.048383  2203 net.cpp:399] conv4 -> conv4
I0403 02:30:40.076084  2203 net.cpp:141] Setting up conv4
I0403 02:30:40.076124  2203 net.cpp:148] Top shape: 100 384 13 13 (6489600)
I0403 02:30:40.076140  2203 net.cpp:156] Memory required for data: 757439200
I0403 02:30:40.076159  2203 layer_factory.hpp:77] Creating layer relu4
I0403 02:30:40.076179  2203 net.cpp:91] Creating Layer relu4
I0403 02:30:40.076195  2203 net.cpp:425] relu4 <- conv4
I0403 02:30:40.076213  2203 net.cpp:386] relu4 -> conv4 (in-place)
I0403 02:30:40.076331  2203 net.cpp:141] Setting up relu4
I0403 02:30:40.076350  2203 net.cpp:148] Top shape: 100 384 13 13 (6489600)
I0403 02:30:40.076365  2203 net.cpp:156] Memory required for data: 783397600
I0403 02:30:40.076378  2203 layer_factory.hpp:77] Creating layer conv5
I0403 02:30:40.076400  2203 net.cpp:91] Creating Layer conv5
I0403 02:30:40.076417  2203 net.cpp:425] conv5 <- conv4
I0403 02:30:40.076436  2203 net.cpp:399] conv5 -> conv5
I0403 02:30:40.094383  2203 net.cpp:141] Setting up conv5
I0403 02:30:40.094413  2203 net.cpp:148] Top shape: 100 256 13 13 (4326400)
I0403 02:30:40.094460  2203 net.cpp:156] Memory required for data: 800703200
I0403 02:30:40.094482  2203 layer_factory.hpp:77] Creating layer relu5
I0403 02:30:40.094502  2203 net.cpp:91] Creating Layer relu5
I0403 02:30:40.094532  2203 net.cpp:425] relu5 <- conv5
I0403 02:30:40.094552  2203 net.cpp:386] relu5 -> conv5 (in-place)
I0403 02:30:40.094573  2203 net.cpp:141] Setting up relu5
I0403 02:30:40.094589  2203 net.cpp:148] Top shape: 100 256 13 13 (4326400)
I0403 02:30:40.094604  2203 net.cpp:156] Memory required for data: 818008800
I0403 02:30:40.094617  2203 layer_factory.hpp:77] Creating layer pool5
I0403 02:30:40.094640  2203 net.cpp:91] Creating Layer pool5
I0403 02:30:40.094655  2203 net.cpp:425] pool5 <- conv5
I0403 02:30:40.094676  2203 net.cpp:399] pool5 -> pool5
I0403 02:30:40.094728  2203 net.cpp:141] Setting up pool5
I0403 02:30:40.094750  2203 net.cpp:148] Top shape: 100 256 6 6 (921600)
I0403 02:30:40.094765  2203 net.cpp:156] Memory required for data: 821695200
I0403 02:30:40.094779  2203 layer_factory.hpp:77] Creating layer fc6
I0403 02:30:40.094804  2203 net.cpp:91] Creating Layer fc6
I0403 02:30:40.094821  2203 net.cpp:425] fc6 <- pool5
I0403 02:30:40.094841  2203 net.cpp:399] fc6 -> fc6
I0403 02:30:41.505254  2203 net.cpp:141] Setting up fc6
I0403 02:30:41.505342  2203 net.cpp:148] Top shape: 100 4096 (409600)
I0403 02:30:41.505358  2203 net.cpp:156] Memory required for data: 823333600
I0403 02:30:41.505380  2203 layer_factory.hpp:77] Creating layer relu6
I0403 02:30:41.505406  2203 net.cpp:91] Creating Layer relu6
I0403 02:30:41.505424  2203 net.cpp:425] relu6 <- fc6
I0403 02:30:41.505445  2203 net.cpp:386] relu6 -> fc6 (in-place)
I0403 02:30:41.505468  2203 net.cpp:141] Setting up relu6
I0403 02:30:41.505486  2203 net.cpp:148] Top shape: 100 4096 (409600)
I0403 02:30:41.505498  2203 net.cpp:156] Memory required for data: 824972000
I0403 02:30:41.505517  2203 layer_factory.hpp:77] Creating layer drop6
I0403 02:30:41.505538  2203 net.cpp:91] Creating Layer drop6
I0403 02:30:41.505554  2203 net.cpp:425] drop6 <- fc6
I0403 02:30:41.505571  2203 net.cpp:386] drop6 -> fc6 (in-place)
I0403 02:30:41.505611  2203 net.cpp:141] Setting up drop6
I0403 02:30:41.505632  2203 net.cpp:148] Top shape: 100 4096 (409600)
I0403 02:30:41.505646  2203 net.cpp:156] Memory required for data: 826610400
I0403 02:30:41.505661  2203 layer_factory.hpp:77] Creating layer fc7
I0403 02:30:41.505686  2203 net.cpp:91] Creating Layer fc7
I0403 02:30:41.505703  2203 net.cpp:425] fc7 <- fc6
I0403 02:30:41.505722  2203 net.cpp:399] fc7 -> fc7
I0403 02:30:42.153810  2203 net.cpp:141] Setting up fc7
I0403 02:30:42.153893  2203 net.cpp:148] Top shape: 100 4096 (409600)
I0403 02:30:42.153913  2203 net.cpp:156] Memory required for data: 828248800
I0403 02:30:42.153937  2203 layer_factory.hpp:77] Creating layer relu7
I0403 02:30:42.153967  2203 net.cpp:91] Creating Layer relu7
I0403 02:30:42.153988  2203 net.cpp:425] relu7 <- fc7
I0403 02:30:42.154011  2203 net.cpp:386] relu7 -> fc7 (in-place)
I0403 02:30:42.154036  2203 net.cpp:141] Setting up relu7
I0403 02:30:42.154054  2203 net.cpp:148] Top shape: 100 4096 (409600)
I0403 02:30:42.154069  2203 net.cpp:156] Memory required for data: 829887200
I0403 02:30:42.154084  2203 layer_factory.hpp:77] Creating layer drop7
I0403 02:30:42.154105  2203 net.cpp:91] Creating Layer drop7
I0403 02:30:42.154122  2203 net.cpp:425] drop7 <- fc7
I0403 02:30:42.154146  2203 net.cpp:386] drop7 -> fc7 (in-place)
I0403 02:30:42.154189  2203 net.cpp:141] Setting up drop7
I0403 02:30:42.154213  2203 net.cpp:148] Top shape: 100 4096 (409600)
I0403 02:30:42.154229  2203 net.cpp:156] Memory required for data: 831525600
I0403 02:30:42.154244  2203 layer_factory.hpp:77] Creating layer fc8_plantvillage
I0403 02:30:42.154271  2203 net.cpp:91] Creating Layer fc8_plantvillage
I0403 02:30:42.154289  2203 net.cpp:425] fc8_plantvillage <- fc7
I0403 02:30:42.154310  2203 net.cpp:399] fc8_plantvillage -> fc8_plantvillage
I0403 02:30:42.161052  2203 net.cpp:141] Setting up fc8_plantvillage
I0403 02:30:42.161085  2203 net.cpp:148] Top shape: 100 38 (3800)
I0403 02:30:42.161124  2203 net.cpp:156] Memory required for data: 831540800
I0403 02:30:42.161145  2203 layer_factory.hpp:77] Creating layer fc8_plantvillage_fc8_plantvillage_0_split
I0403 02:30:42.161166  2203 net.cpp:91] Creating Layer fc8_plantvillage_fc8_plantvillage_0_split
I0403 02:30:42.161185  2203 net.cpp:425] fc8_plantvillage_fc8_plantvillage_0_split <- fc8_plantvillage
I0403 02:30:42.161206  2203 net.cpp:399] fc8_plantvillage_fc8_plantvillage_0_split -> fc8_plantvillage_fc8_plantvillage_0_split_0
I0403 02:30:42.161229  2203 net.cpp:399] fc8_plantvillage_fc8_plantvillage_0_split -> fc8_plantvillage_fc8_plantvillage_0_split_1
I0403 02:30:42.161283  2203 net.cpp:141] Setting up fc8_plantvillage_fc8_plantvillage_0_split
I0403 02:30:42.161309  2203 net.cpp:148] Top shape: 100 38 (3800)
I0403 02:30:42.161329  2203 net.cpp:148] Top shape: 100 38 (3800)
I0403 02:30:42.161344  2203 net.cpp:156] Memory required for data: 831571200
I0403 02:30:42.161358  2203 layer_factory.hpp:77] Creating layer loss
I0403 02:30:42.161378  2203 net.cpp:91] Creating Layer loss
I0403 02:30:42.161394  2203 net.cpp:425] loss <- fc8_plantvillage_fc8_plantvillage_0_split_0
I0403 02:30:42.161412  2203 net.cpp:425] loss <- label_data_1_split_0
I0403 02:30:42.161432  2203 net.cpp:399] loss -> loss
…
