…
I0403 17:53:28.053408  6228 net.cpp:313] The NetState phase (1) differed from the phase (0) specified by a rule in layer data
I0403 17:53:28.054811  6228 net.cpp:49] Initializing net from parameters: 
state {
  phase: TEST
}
layer {
  name: "data"
  type: "Data"
  top: "data"
  top: "label"
  include {
    phase: TEST
  }
  transform_param {
    mirror: false
    crop_size: 224
    mean_file: "/home/mohanty/data/final_dataset/lmdb/segmented-50-50/mean.binaryproto"
  }
  data_param {
    source: "/home/mohanty/data/final_dataset/lmdb/segmented-50-50/test_db"
    batch_size: 24
    backend: LMDB
  }
}
layer {
  name: "conv1/7x7_s2"
  type: "Convolution"
  bottom: "data"
  top: "conv1/7x7_s2"
  param {
    lr_mult: 1
    decay_mult: 1
  }
  param {
    lr_mult: 2
    decay_mult: 0
  }
  convolution_param {
    num_output: 64
    pad: 3
    kernel_size: 7
    stride: 2
    weight_filler {
      type: "xavier"
      std: 0.1
    }
    bias_filler {
      type: "constant"
      value: 0.2
    }
  }
}
layer {
  name: "conv1/relu_7x7"
  type: "ReLU"
  bottom: "conv1/7x7_s2"
  top: "conv1/7x7_s2"
}
layer {
  name: "pool1/3x3_s2"
  type: "Pooling"
  bottom: "conv1/7x7_s2"
  top: "pool1/3x3_s2"
  pooling_param {
    pool: MAX
    kernel_size: 3
    stride: 2
  }
}
layer {
  name: "pool1/norm1"
  type: "LRN"
  bottom: "pool1/3x3_s2"
  top: "pool1/norm1"
  lrn_param {
    local_size: 5
    alpha: 0.0001
    beta: 0.75
  }
}
layer {
  name: "conv2/3x3_reduce"
  type: "Convolution"
  bottom: "pool1/norm1"
  top: "conv2/3x3_reduce"
  param {
    lr_mult: 1
    decay_mult: 1
  }
  param {
    lr_mult: 2
    decay_mult: 0
  }
  convolution_param {
    num_output: 64
    kernel_size: 1
    weight_filler {
      type: "xavier"
      std: 0.1
    }
    bias_filler {
      type: "constant"
      value: 0.2
    }
  }
}
layer {
  name: "conv2/relu_3x3_reduce"
  type: "ReLU"
  bottom: "conv2/3x3_reduce"
  top: "conv2/3x3_reduce"
}
layer {
  name: "conv2/3x3"
  type: "Convolution"
  bottom: "conv2/3x3_reduce"
  top: "conv2/3x3"
  param {
    lr_mult: 1
    decay_mult: 1
  }
  param {
    lr_mult: 2
    decay_mult: 0
  }
  convolution_param {
    num_output: 192
    pad: 1
    kernel_size: 3
    weight_filler {
      type: "xavier"
      std: 0.03
    }
    bias_filler {
      type: "constant"
      value: 0.2
    }
  }
}
layer {
  name: "conv2/relu_3x3"
  type: "ReLU"
  bottom: "conv2/3x3"
  top: "conv2/3x3"
}
layer {
  name: "conv2/norm2"
  type: "LRN"
  bottom: "conv2/3x3"
  top: "conv2/norm2"
  lrn_param {
    local_size: 5
    alpha: 0.0001
    beta: 0.75
  }
}
layer {
  name: "pool2/3x3_s2"
  type: "Pooling"
  bottom: "conv2/norm2"
  top: "pool2/3x3_s2"
  pooling_param {
    pool: MAX
    kernel_size: 3
    stride: 2
  }
}
layer {
  name: "inception_3a/1x1"
  type: "Convolution"
  bottom: "pool2/3x3_s2"
  top: "inception_3a/1x1"
  param {
    lr_mult: 1
    decay_mult: 1
  }
  param {
    lr_mult: 2
    decay_mult: 0
  }
  convolution_param {
    num_output: 64
    kernel_size: 1
    weight_filler {
      type: "xavier"
      std: 0.03
    }
    bias_filler {
      type: "constant"
      value: 0.2
    }
  }
}
layer {
  name: "inception_3a/relu_1x1"
  type: "ReLU"
  bottom: "inception_3a/1x1"
  top: "inception_3a/1x1"
}
layer {
  name: "inception_3a/3x3_reduce"
  type: "Convolution"
  bottom: "pool2/3x3_s2"
  top: "inception_3a/3x3_reduce"
  param {
    lr_mult: 1
    decay_mult: 1
  }
  param {
    lr_mult: 2
    decay_mult: 0
  }
  convolution_param {
    num_output: 96
    kernel_size: 1
    weight_filler {
      type: "xavier"
      std: 0.09
    }
    bias_filler {
      type: "constant"
      value: 0.2
    }
  }
}
layer {
  name: "inception_3a/relu_3x3_reduce"
  type: "ReLU"
  bottom: "inception_3a/3x3_reduce"
  top: "inception_3a/3x3_reduce"
}
layer {
  name: "inception_3a/3x3"
  type: "Convolution"
  bottom: "inception_3a/3x3_reduce"
  top: "inception_3a/3x3"
  param {
    lr_mult: 1
    decay_mult: 1
  }
  param {
    lr_mult: 2
    decay_mult: 0
  }
  convolution_param {
    num_output: 128
    pad: 1
    kernel_size: 3
    weight_filler {
      type: "xavier"
      std: 0.03
    }
    bias_filler {
      type: "constant"
      value: 0.2
    }
  }
}
layer {
  name: "inception_3a/relu_3x3"
  type: "ReLU"
  bottom: "inception_3a/3x3"
  top: "inception_3a/3x3"
}
layer {
  name: "inception_3a/5x5_reduce"
  type: "Convolution"
  bottom: "pool2/3x3_s2"
  top: "inception_3a/5x5_reduce"
  param {
    lr_mult: 1
    decay_mult: 1
  }
  param {
    lr_mult: 2
    decay_mult: 0
  }
  convolution_param {
    num_output: 16
    kernel_size: 1
    weight_filler {
      type: "xavier"
      std: 0.2
    }
    bias_filler {
      type: "constant"
      value: 0.2
    }
  }
}
layer {
  name: "inception_3a/relu_5x5_reduce"
  type: "ReLU"
  bottom: "inception_3a/5x5_reduce"
  top: "inception_3a/5x5_reduce"
}
layer {
  name: "inception_3a/5x5"
  type: "Convolution"
  bottom: "inception_3a/5x5_reduce"
  top: "inception_3a/5x5"
  param {
    lr_mult: 1
    decay_mult: 1
  }
  param {
    lr_mult: 2
    decay_mult: 0
  }
  convolution_param {
    num_output: 32
    pad: 2
    kernel_size: 5
    weight_filler {
      type: "xavier"
      std: 0.03
    }
    bias_filler {
      type: "constant"
      value: 0.2
    }
  }
}
layer {
  name: "inception_3a/relu_5x5"
  type: "ReLU"
  bottom: "inception_3a/5x5"
  top: "inception_3a/5x5"
}
layer {
  name: "inception_3a/pool"
  type: "Pooling"
  bottom: "pool2/3x3_s2"
  top: "inception_3a/pool"
  pooling_param {
    pool: MAX
    kernel_size: 3
    stride: 1
    pad: 1
  }
}
layer {
  name: "inception_3a/pool_proj"
  type: "Convolution"
  bottom: "inception_3a/pool"
  top: "inception_3a/pool_proj"
  param {
    lr_mult: 1
    decay_mult: 1
  }
  param {
    lr_mult: 2
    decay_mult: 0
  }
  convolution_param {
    num_output: 32
    kernel_size: 1
    weight_filler {
      type: "xavier"
      std: 0.1
    }
    bias_filler {
      type: "constant"
      value: 0.2
    }
  }
}
layer {
  name: "inception_3a/relu_pool_proj"
  type: "ReLU"
  bottom: "inception_3a/pool_proj"
  top: "inception_3a/pool_proj"
}
layer {
  name: "inception_3a/output"
  type: "Concat"
  bottom: "inception_3a/1x1"
  bottom: "inception_3a/3x3"
  bottom: "inception_3a/5x5"
  bottom: "inception_3a/pool_proj"
  top: "inception_3a/output"
}
layer {
  name: "inception_3b/1x1"
  type: "Convolution"
  bottom: "inception_3a/output"
  top: "inception_3b/1x1"
  param {
    lr_mult: 1
    decay_mult: 1
  }
  param {
    lr_mult: 2
    decay_mult: 0
  }
  convolution_param {
    num_output: 128
    kernel_size: 1
    weight_filler {
      type: "xavier"
      std: 0.03
    }
    bias_filler {
      type: "constant"
      value: 0.2
    }
  }
}
layer {
  name: "inception_3b/relu_1x1"
  type: "ReLU"
  bottom: "inception_3b/1x1"
  top: "inception_3b/1x1"
}
layer {
  name: "inception_3b/3x3_reduce"
  type: "Convolution"
  bottom: "inception_3a/output"
  top: "inception_3b/3x3_reduce"
  param {
    lr_mult: 1
    decay_mult: 1
  }
  param {
    lr_mult: 2
    decay_mult: 0
  }
  convolution_param {
    num_output: 128
    kernel_size: 1
    weight_filler {
      type: "xavier"
      std: 0.09
    }
    bias_filler {
      type: "constant"
      value: 0.2
    }
  }
}
layer {
  name: "inception_3b/relu_3x3_reduce"
  type: "ReLU"
  bottom: "inception_3b/3x3_reduce"
  top: "inception_3b/3x3_reduce"
}
layer {
  name: "inception_3b/3x3"
  type: "Convolution"
  bottom: "inception_3b/3x3_reduce"
  top: "inception_3b/3x3"
  param {
    lr_mult: 1
    decay_mult: 1
  }
  param {
    lr_mult: 2
    decay_mult: 0
  }
  convolution_param {
    num_output: 192
    pad: 1
    kernel_size: 3
    weight_filler {
      type: "xavier"
      std: 0.03
    }
    bias_filler {
      type: "constant"
      value: 0.2
    }
  }
}
layer {
  name: "inception_3b/relu_3x3"
  type: "ReLU"
  bottom: "inception_3b/3x3"
  top: "inception_3b/3x3"
}
layer {
  name: "inception_3b/5x5_reduce"
  type: "Convolution"
  bottom: "inception_3a/output"
  top: "inception_3b/5x5_reduce"
  param {
    lr_mult: 1
    decay_mult: 1
  }
  param {
    lr_mult: 2
    decay_mult: 0
  }
  convolution_param {
    num_output: 32
    kernel_size: 1
    weight_filler {
      type: "xavier"
      std: 0.2
    }
    bias_filler {
      type: "constant"
      value: 0.2
    }
  }
}
layer {
  name: "inception_3b/relu_5x5_reduce"
  type: "ReLU"
  bottom: "inception_3b/5x5_reduce"
  top: "inception_3b/5x5_reduce"
}
layer {
  name: "inception_3b/5x5"
  type: "Convolution"
  bottom: "inception_3b/5x5_reduce"
  top: "inception_3b/5x5"
  param {
    lr_mult: 1
    decay_mult: 1
  }
  param {
    lr_mult: 2
    decay_mult: 0
  }
  convolution_param {
    num_output: 96
    pad: 2
    kernel_size: 5
    weight_filler {
      type: "xavier"
      std: 0.03
    }
    bias_filler {
      type: "constant"
      value: 0.2
    }
  }
}
layer {
  name: "inception_3b/relu_5x5"
  type: "ReLU"
  bottom: "inception_3b/5x5"
  top: "inception_3b/5x5"
}
layer {
  name: "inception_3b/pool"
  type: "Pooling"
  bottom: "inception_3a/output"
  top: "inception_3b/pool"
  pooling_param {
    pool: MAX
    kernel_size: 3
    stride: 1
    pad: 1
  }
}
layer {
  name: "inception_3b/pool_proj"
  type: "Convolution"
  bottom: "inception_3b/pool"
  top: "inception_3b/pool_proj"
  param {
    lr_mult: 1
    decay_mult: 1
  }
  param {
    lr_mult: 2
    decay_mult: 0
  }
  convolution_param {
    num_output: 64
    kernel_size: 1
    weight_filler {
      type: "xavier"
      std: 0.1
    }
    bias_filler {
      type: "constant"
      value: 0.2
    }
  }
}
layer {
  name: "inception_3b/relu_pool_proj"
  type: "ReLU"
  bottom: "inception_3b/pool_proj"
  top: "inception_3b/pool_proj"
}
layer {
  name: "inception_3b/output"
  type: "Concat"
  bottom: "inception_3b/1x1"
  bottom: "inception_3b/3x3"
  bottom: "inception_3b/5x5"
  bottom: "inception_3b/pool_proj"
  top: "inception_3b/output"
}
layer {
  name: "pool3/3x3_s2"
  type: "Pooling"
  bottom: "inception_3b/output"
  top: "pool3/3x3_s2"
  pooling_param {
    pool: MAX
    kernel_size: 3
    stride: 2
  }
}
layer {
  name: "inception_4a/1x1"
  type: "Convolution"
  bottom: "pool3/3x3_s2"
  top: "inception_4a/1x1"
  param {
    lr_mult: 1
    decay_mult: 1
  }
  param {
    lr_mult: 2
    decay_mult: 0
  }
  convolution_param {
    num_output: 192
    kernel_size: 1
    weight_filler {
      type: "xavier"
      std: 0.03
    }
    bias_filler {
      type: "constant"
      value: 0.2
    }
  }
}
layer {
  name: "inception_4a/relu_1x1"
  type: "ReLU"
  bottom: "inception_4a/1x1"
  top: "inception_4a/1x1"
}
layer {
  name: "inception_4a/3x3_reduce"
  type: "Convolution"
  bottom: "pool3/3x3_s2"
  top: "inception_4a/3x3_reduce"
  param {
    lr_mult: 1
    decay_mult: 1
  }
  param {
    lr_mult: 2
    decay_mult: 0
  }
  convolution_param {
    num_output: 96
    kernel_size: 1
    weight_filler {
      type: "xavier"
      std: 0.09
    }
    bias_filler {
      type: "constant"
      value: 0.2
    }
  }
}
layer {
  name: "inception_4a/relu_3x3_reduce"
  type: "ReLU"
  bottom: "inception_4a/3x3_reduce"
  top: "inception_4a/3x3_reduce"
}
layer {
  name: "inception_4a/3x3"
  type: "Convolution"
  bottom: "inception_4a/3x3_reduce"
  top: "inception_4a/3x3"
  param {
    lr_mult: 1
    decay_mult: 1
  }
  param {
    lr_mult: 2
    decay_mult: 0
  }
  convolution_param {
    num_output: 208
    pad: 1
    kernel_size: 3
    weight_filler {
      type: "xavier"
      std: 0.03
    }
    bias_filler {
      type: "constant"
      value: 0.2
    }
  }
}
layer {
  name: "inception_4a/relu_3x3"
  type: "ReLU"
  bottom: "inception_4a/3x3"
  top: "inception_4a/3x3"
}
layer {
  name: "inception_4a/5x5_reduce"
  type: "Convolution"
  bottom: "pool3/3x3_s2"
  top: "inception_4a/5x5_reduce"
  param {
    lr_mult: 1
    decay_mult: 1
  }
  param {
    lr_mult: 2
    decay_mult: 0
  }
  convolution_param {
    num_output: 16
    kernel_size: 1
    weight_filler {
      type: "xavier"
      std: 0.2
    }
    bias_filler {
      type: "constant"
      value: 0.2
    }
  }
}
layer {
  name: "inception_4a/relu_5x5_reduce"
  type: "ReLU"
  bottom: "inception_4a/5x5_reduce"
  top: "inception_4a/5x5_reduce"
}
layer {
  name: "inception_4a/5x5"
  type: "Convolution"
  bottom: "inception_4a/5x5_reduce"
  top: "inception_4a/5x5"
  param {
    lr_mult: 1
    decay_mult: 1
  }
  param {
    lr_mult: 2
    decay_mult: 0
  }
  convolution_param {
    num_output: 48
    pad: 2
    kernel_size: 5
    weight_filler {
      type: "xavier"
      std: 0.03
    }
    bias_filler {
      type: "constant"
      value: 0.2
    }
  }
}
layer {
  name: "inception_4a/relu_5x5"
  type: "ReLU"
  bottom: "inception_4a/5x5"
  top: "inception_4a/5x5"
}
layer {
  name: "inception_4a/pool"
  type: "Pooling"
  bottom: "pool3/3x3_s2"
  top: "inception_4a/pool"
  pooling_param {
    pool: MAX
    kernel_size: 3
    stride: 1
    pad: 1
  }
}
layer {
  name: "inception_4a/pool_proj"
  type: "Convolution"
  bottom: "inception_4a/pool"
  top: "inception_4a/pool_proj"
  param {
    lr_mult: 1
    decay_mult: 1
  }
  param {
    lr_mult: 2
    decay_mult: 0
  }
  convolution_param {
    num_output: 64
    kernel_size: 1
    weight_filler {
      type: "xavier"
      std: 0.1
    }
    bias_filler {
      type: "constant"
      value: 0.2
    }
  }
}
layer {
  name: "inception_4a/relu_pool_proj"
  type: "ReLU"
  bottom: "inception_4a/pool_proj"
  top: "inception_4a/pool_proj"
}
layer {
  name: "inception_4a/output"
  type: "Concat"
  bottom: "inception_4a/1x1"
  bottom: "inception_4a/3x3"
  bottom: "inception_4a/5x5"
  bottom: "inception_4a/pool_proj"
  top: "inception_4a/output"
}
layer {
  name: "loss1/ave_pool"
  type: "Pooling"
  bottom: "inception_4a/output"
  top: "loss1/ave_pool"
  pooling_param {
    pool: AVE
    kernel_size: 5
    stride: 3
  }
}
layer {
  name: "loss1/conv"
  type: "Convolution"
  bottom: "loss1/ave_pool"
  top: "loss1/conv"
  param {
    lr_mult: 1
    decay_mult: 1
  }
  param {
    lr_mult: 2
    decay_mult: 0
  }
  convolution_param {
    num_output: 128
    kernel_size: 1
    weight_filler {
      type: "xavier"
      std: 0.08
    }
    bias_filler {
      type: "constant"
      value: 0.2
    }
  }
}
layer {
  name: "loss1/relu_conv"
  type: "ReLU"
  bottom: "loss1/conv"
  top: "loss1/conv"
}
layer {
  name: "loss1/fc"
  type: "InnerProduct"
  bottom: "loss1/conv"
  top: "loss1/fc"
  param {
    lr_mult: 1
    decay_mult: 1
  }
  param {
    lr_mult: 2
    decay_mult: 0
  }
  inner_product_param {
    num_output: 1024
    weight_filler {
      type: "xavier"
      std: 0.02
    }
    bias_filler {
      type: "constant"
      value: 0.2
    }
  }
}
layer {
  name: "loss1/relu_fc"
  type: "ReLU"
  bottom: "loss1/fc"
  top: "loss1/fc"
}
layer {
  name: "loss1/drop_fc"
  type: "Dropout"
  bottom: "loss1/fc"
  top: "loss1/fc"
  dropout_param {
    dropout_ratio: 0.7
  }
}
layer {
  name: "loss1/classifier_plantvillage"
  type: "InnerProduct"
  bottom: "loss1/fc"
  top: "loss1/classifier_plantvillage"
  param {
    lr_mult: 1
    decay_mult: 1
  }
  param {
    lr_mult: 2
    decay_mult: 0
  }
  inner_product_param {
    num_output: 38
    weight_filler {
      type: "xavier"
      std: 0.0009765625
    }
    bias_filler {
      type: "constant"
      value: 0
    }
  }
}
layer {
  name: "inception_4b/1x1"
  type: "Convolution"
  bottom: "inception_4a/output"
  top: "inception_4b/1x1"
  param {
    lr_mult: 1
    decay_mult: 1
  }
  param {
    lr_mult: 2
    decay_mult: 0
  }
  convolution_param {
    num_output: 160
    kernel_size: 1
    weight_filler {
      type: "xavier"
      std: 0.03
    }
    bias_filler {
      type: "constant"
      value: 0.2
    }
  }
}
layer {
  name: "inception_4b/relu_1x1"
  type: "ReLU"
  bottom: "inception_4b/1x1"
  top: "inception_4b/1x1"
}
layer {
  name: "inception_4b/3x3_reduce"
  type: "Convolution"
  bottom: "inception_4a/output"
  top: "inception_4b/3x3_reduce"
  param {
    lr_mult: 1
    decay_mult: 1
  }
  param {
    lr_mult: 2
    decay_mult: 0
  }
  convolution_param {
    num_output: 112
    kernel_size: 1
    weight_filler {
      type: "xavier"
      std: 0.09
    }
    bias_filler {
      type: "constant"
      value: 0.2
    }
  }
}
layer {
  name: "inception_4b/relu_3x3_reduce"
  type: "ReLU"
  bottom: "inception_4b/3x3_reduce"
  top: "inception_4b/3x3_reduce"
}
layer {
  name: "inception_4b/3x3"
  type: "Convolution"
  bottom: "inception_4b/3x3_reduce"
  top: "inception_4b/3x3"
  param {
    lr_mult: 1
    decay_mult: 1
  }
  param {
    lr_mult: 2
    decay_mult: 0
  }
  convolution_param {
    num_output: 224
    pad: 1
    kernel_size: 3
    weight_filler {
      type: "xavier"
      std: 0.03
    }
    bias_filler {
      type: "constant"
      value: 0.2
    }
  }
}
layer {
  name: "inception_4b/relu_3x3"
  type: "ReLU"
  bottom: "inception_4b/3x3"
  top: "inception_4b/3x3"
}
layer {
  name: "inception_4b/5x5_reduce"
  type: "Convolution"
  bottom: "inception_4a/output"
  top: "inception_4b/5x5_reduce"
  param {
    lr_mult: 1
    decay_mult: 1
  }
  param {
    lr_mult: 2
    decay_mult: 0
  }
  convolution_param {
    num_output: 24
    kernel_size: 1
    weight_filler {
      type: "xavier"
      std: 0.2
    }
    bias_filler {
      type: "constant"
      value: 0.2
    }
  }
}
layer {
  name: "inception_4b/relu_5x5_reduce"
  type: "ReLU"
  bottom: "inception_4b/5x5_reduce"
  top: "inception_4b/5x5_reduce"
}
layer {
  name: "inception_4b/5x5"
  type: "Convolution"
  bottom: "inception_4b/5x5_reduce"
  top: "inception_4b/5x5"
  param {
    lr_mult: 1
    decay_mult: 1
  }
  param {
    lr_mult: 2
    decay_mult: 0
  }
  convolution_param {
    num_output: 64
    pad: 2
    kernel_size: 5
    weight_filler {
      type: "xavier"
      std: 0.03
    }
    bias_filler {
      type: "constant"
      value: 0.2
    }
  }
}
layer {
  name: "inception_4b/relu_5x5"
  type: "ReLU"
  bottom: "inception_4b/5x5"
  top: "inception_4b/5x5"
}
layer {
  name: "inception_4b/pool"
  type: "Pooling"
  bottom: "inception_4a/output"
  top: "inception_4b/pool"
  pooling_param {
    pool: MAX
    kernel_size: 3
    stride: 1
    pad: 1
  }
}
layer {
  name: "inception_4b/pool_proj"
  type: "Convolution"
  bottom: "inception_4b/pool"
  top: "inception_4b/pool_proj"
  param {
    lr_mult: 1
    decay_mult: 1
  }
  param {
    lr_mult: 2
    decay_mult: 0
  }
  convolution_param {
    num_output: 64
    kernel_size: 1
    weight_filler {
      type: "xavier"
      std: 0.1
    }
    bias_filler {
      type: "constant"
      value: 0.2
    }
  }
}
layer {
  name: "inception_4b/relu_pool_proj"
  type: "ReLU"
  bottom: "inception_4b/pool_proj"
  top: "inception_4b/pool_proj"
}
layer {
  name: "inception_4b/output"
  type: "Concat"
  bottom: "inception_4b/1x1"
  bottom: "inception_4b/3x3"
  bottom: "inception_4b/5x5"
  bottom: "inception_4b/pool_proj"
  top: "inception_4b/output"
}
layer {
  name: "inception_4c/1x1"
  type: "Convolution"
  bottom: "inception_4b/output"
  top: "inception_4c/1x1"
  param {
    lr_mult: 1
    decay_mult: 1
  }
  param {
    lr_mult: 2
    decay_mult: 0
  }
  convolution_param {
    num_output: 128
    kernel_size: 1
    weight_filler {
      type: "xavier"
      std: 0.03
    }
    bias_filler {
      type: "constant"
      value: 0.2
    }
  }
}
layer {
  name: "inception_4c/relu_1x1"
  type: "ReLU"
  bottom: "inception_4c/1x1"
  top: "inception_4c/1x1"
}
layer {
  name: "inception_4c/3x3_reduce"
  type: "Convolution"
  bottom: "inception_4b/output"
  top: "inception_4c/3x3_reduce"
  param {
    lr_mult: 1
    decay_mult: 1
  }
  param {
    lr_mult: 2
    decay_mult: 0
  }
  convolution_param {
    num_output: 128
    kernel_size: 1
    weight_filler {
      type: "xavier"
      std: 0.09
    }
    bias_filler {
      type: "constant"
      value: 0.2
    }
  }
}
layer {
  name: "inception_4c/relu_3x3_reduce"
  type: "ReLU"
  bottom: "inception_4c/3x3_reduce"
  top: "inception_4c/3x3_reduce"
}
layer {
  name: "inception_4c/3x3"
  type: "Convolution"
  bottom: "inception_4c/3x3_reduce"
  top: "inception_4c/3x3"
  param {
    lr_mult: 1
    decay_mult: 1
  }
  param {
    lr_mult: 2
    decay_mult: 0
  }
  convolution_param {
    num_output: 256
    pad: 1
    kernel_size: 3
    weight_filler {
      type: "xavier"
      std: 0.03
    }
    bias_filler {
      type: "constant"
      value: 0.2
    }
  }
}
layer {
  name: "inception_4c/relu_3x3"
  type: "ReLU"
  bottom: "inception_4c/3x3"
  top: "inception_4c/3x3"
}
layer {
  name: "inception_4c/5x5_reduce"
  type: "Convolution"
  bottom: "inception_4b/output"
  top: "inception_4c/5x5_reduce"
  param {
    lr_mult: 1
    decay_mult: 1
  }
  param {
    lr_mult: 2
    decay_mult: 0
  }
  convolution_param {
    num_output: 24
    kernel_size: 1
    weight_filler {
      type: "xavier"
      std: 0.2
    }
    bias_filler {
      type: "constant"
      value: 0.2
    }
  }
}
layer {
  name: "inception_4c/relu_5x5_reduce"
  type: "ReLU"
  bottom: "inception_4c/5x5_reduce"
  top: "inception_4c/5x5_reduce"
}
layer {
  name: "inception_4c/5x5"
  type: "Convolution"
  bottom: "inception_4c/5x5_reduce"
  top: "inception_4c/5x5"
  param {
    lr_mult: 1
    decay_mult: 1
  }
  param {
    lr_mult: 2
    decay_mult: 0
  }
  convolution_param {
    num_output: 64
    pad: 2
    kernel_size: 5
    weight_filler {
      type: "xavier"
      std: 0.03
    }
    bias_filler {
      type: "constant"
      value: 0.2
    }
  }
}
layer {
  name: "inception_4c/relu_5x5"
  type: "ReLU"
  bottom: "inception_4c/5x5"
  top: "inception_4c/5x5"
}
layer {
  name: "inception_4c/pool"
  type: "Pooling"
  bottom: "inception_4b/output"
  top: "inception_4c/pool"
  pooling_param {
    pool: MAX
    kernel_size: 3
    stride: 1
    pad: 1
  }
}
layer {
  name: "inception_4c/pool_proj"
  type: "Convolution"
  bottom: "inception_4c/pool"
  top: "inception_4c/pool_proj"
  param {
    lr_mult: 1
    decay_mult: 1
  }
  param {
    lr_mult: 2
    decay_mult: 0
  }
  convolution_param {
    num_output: 64
    kernel_size: 1
    weight_filler {
      type: "xavier"
      std: 0.1
    }
    bias_filler {
      type: "constant"
      value: 0.2
    }
  }
}
layer {
  name: "inception_4c/relu_pool_proj"
  type: "ReLU"
  bottom: "inception_4c/pool_proj"
  top: "inception_4c/pool_proj"
}
layer {
  name: "inception_4c/output"
  type: "Concat"
  bottom: "inception_4c/1x1"
  bottom: "inception_4c/3x3"
  bottom: "inception_4c/5x5"
  bottom: "inception_4c/pool_proj"
  top: "inception_4c/output"
}
layer {
  name: "inception_4d/1x1"
  type: "Convolution"
  bottom: "inception_4c/output"
  top: "inception_4d/1x1"
  param {
    lr_mult: 1
    decay_mult: 1
  }
  param {
    lr_mult: 2
    decay_mult: 0
  }
  convolution_param {
    num_output: 112
    kernel_size: 1
    weight_filler {
      type: "xavier"
      std: 0.03
    }
    bias_filler {
      type: "constant"
      value: 0.2
    }
  }
}
layer {
  name: "inception_4d/relu_1x1"
  type: "ReLU"
  bottom: "inception_4d/1x1"
  top: "inception_4d/1x1"
}
layer {
  name: "inception_4d/3x3_reduce"
  type: "Convolution"
  bottom: "inception_4c/output"
  top: "inception_4d/3x3_reduce"
  param {
    lr_mult: 1
    decay_mult: 1
  }
  param {
    lr_mult: 2
    decay_mult: 0
  }
  convolution_param {
    num_output: 144
    kernel_size: 1
    weight_filler {
      type: "xavier"
      std: 0.09
    }
    bias_filler {
      type: "constant"
      value: 0.2
    }
  }
}
layer {
  name: "inception_4d/relu_3x3_reduce"
  type: "ReLU"
  bottom: "inception_4d/3x3_reduce"
  top: "inception_4d/3x3_reduce"
}
layer {
  name: "inception_4d/3x3"
  type: "Convolution"
  bottom: "inception_4d/3x3_reduce"
  top: "inception_4d/3x3"
  param {
    lr_mult: 1
    decay_mult: 1
  }
  param {
    lr_mult: 2
    decay_mult: 0
  }
  convolution_param {
    num_output: 288
    pad: 1
    kernel_size: 3
    weight_filler {
      type: "xavier"
      std: 0.03
    }
    bias_filler {
      type: "constant"
      value: 0.2
    }
  }
}
layer {
  name: "inception_4d/relu_3x3"
  type: "ReLU"
  bottom: "inception_4d/3x3"
  top: "inception_4d/3x3"
}
layer {
  name: "inception_4d/5x5_reduce"
  type: "Convolution"
  bottom: "inception_4c/output"
  top: "inception_4d/5x5_reduce"
  param {
    lr_mult: 1
    decay_mult: 1
  }
  param {
    lr_mult: 2
    decay_mult: 0
  }
  convolution_param {
    num_output: 32
    kernel_size: 1
    weight_filler {
      type: "xavier"
      std: 0.2
    }
    bias_filler {
      type: "constant"
      value: 0.2
    }
  }
}
layer {
  name: "inception_4d/relu_5x5_reduce"
  type: "ReLU"
  bottom: "inception_4d/5x5_reduce"
  top: "inception_4d/5x5_reduce"
}
layer {
  name: "inception_4d/5x5"
  type: "Convolution"
  bottom: "inception_4d/5x5_reduce"
  top: "inception_4d/5x5"
  param {
    lr_mult: 1
    decay_mult: 1
  }
  param {
    lr_mult: 2
    decay_mult: 0
  }
  convolution_param {
    num_output: 64
    pad: 2
    kernel_size: 5
    weight_filler {
      type: "xavier"
      std: 0.03
    }
    bias_filler {
      type: "constant"
      value: 0.2
    }
  }
}
layer {
  name: "inception_4d/relu_5x5"
  type: "ReLU"
  bottom: "inception_4d/5x5"
  top: "inception_4d/5x5"
}
layer {
  name: "inception_4d/pool"
  type: "Pooling"
  bottom: "inception_4c/output"
  top: "inception_4d/pool"
  pooling_param {
    pool: MAX
    kernel_size: 3
    stride: 1
    pad: 1
  }
}
layer {
  name: "inception_4d/pool_proj"
  type: "Convolution"
  bottom: "inception_4d/pool"
  top: "inception_4d/pool_proj"
  param {
    lr_mult: 1
    decay_mult: 1
  }
  param {
    lr_mult: 2
    decay_mult: 0
  }
  convolution_param {
    num_output: 64
    kernel_size: 1
    weight_filler {
      type: "xavier"
      std: 0.1
    }
    bias_filler {
      type: "constant"
      value: 0.2
    }
  }
}
layer {
  name: "inception_4d/relu_pool_proj"
  type: "ReLU"
  bottom: "inception_4d/pool_proj"
  top: "inception_4d/pool_proj"
}
layer {
  name: "inception_4d/output"
  type: "Concat"
  bottom: "inception_4d/1x1"
  bottom: "inception_4d/3x3"
  bottom: "inception_4d/5x5"
  bottom: "inception_4d/pool_proj"
  top: "inception_4d/output"
}
layer {
  name: "loss2/ave_pool"
  type: "Pooling"
  bottom: "inception_4d/output"
  top: "loss2/ave_pool"
  pooling_param {
    pool: AVE
    kernel_size: 5
    stride: 3
  }
}
layer {
  name: "loss2/conv"
  type: "Convolution"
  bottom: "loss2/ave_pool"
  top: "loss2/conv"
  param {
    lr_mult: 1
    decay_mult: 1
  }
  param {
    lr_mult: 2
    decay_mult: 0
  }
  convolution_param {
    num_output: 128
    kernel_size: 1
    weight_filler {
      type: "xavier"
      std: 0.08
    }
    bias_filler {
      type: "constant"
      value: 0.2
    }
  }
}
layer {
  name: "loss2/relu_conv"
  type: "ReLU"
  bottom: "loss2/conv"
  top: "loss2/conv"
}
layer {
  name: "loss2/fc"
  type: "InnerProduct"
  bottom: "loss2/conv"
  top: "loss2/fc"
  param {
    lr_mult: 1
    decay_mult: 1
  }
  param {
    lr_mult: 2
    decay_mult: 0
  }
  inner_product_param {
    num_output: 1024
    weight_filler {
      type: "xavier"
      std: 0.02
    }
    bias_filler {
      type: "constant"
      value: 0.2
    }
  }
}
layer {
  name: "loss2/relu_fc"
  type: "ReLU"
  bottom: "loss2/fc"
  top: "loss2/fc"
}
layer {
  name: "loss2/drop_fc"
  type: "Dropout"
  bottom: "loss2/fc"
  top: "loss2/fc"
  dropout_param {
    dropout_ratio: 0.7
  }
}
layer {
  name: "loss2/classifier_plantvillage"
  type: "InnerProduct"
  bottom: "loss2/fc"
  top: "loss2/classifier_plantvillage"
  param {
    lr_mult: 1
    decay_mult: 1
  }
  param {
    lr_mult: 2
    decay_mult: 0
  }
  inner_product_param {
    num_output: 38
    weight_filler {
      type: "xavier"
      std: 0.0009765625
    }
    bias_filler {
      type: "constant"
      value: 0
    }
  }
}
layer {
  name: "inception_4e/1x1"
  type: "Convolution"
  bottom: "inception_4d/output"
  top: "inception_4e/1x1"
  param {
    lr_mult: 1
    decay_mult: 1
  }
  param {
    lr_mult: 2
    decay_mult: 0
  }
  convolution_param {
    num_output: 256
    kernel_size: 1
    weight_filler {
      type: "xavier"
      std: 0.03
    }
    bias_filler {
      type: "constant"
      value: 0.2
    }
  }
}
layer {
  name: "inception_4e/relu_1x1"
  type: "ReLU"
  bottom: "inception_4e/1x1"
  top: "inception_4e/1x1"
}
layer {
  name: "inception_4e/3x3_reduce"
  type: "Convolution"
  bottom: "inception_4d/output"
  top: "inception_4e/3x3_reduce"
  param {
    lr_mult: 1
    decay_mult: 1
  }
  param {
    lr_mult: 2
    decay_mult: 0
  }
  convolution_param {
    num_output: 160
    kernel_size: 1
    weight_filler {
      type: "xavier"
      std: 0.09
    }
    bias_filler {
      type: "constant"
      value: 0.2
    }
  }
}
layer {
  name: "inception_4e/relu_3x3_reduce"
  type: "ReLU"
  bottom: "inception_4e/3x3_reduce"
  top: "inception_4e/3x3_reduce"
}
layer {
  name: "inception_4e/3x3"
  type: "Convolution"
  bottom: "inception_4e/3x3_reduce"
  top: "inception_4e/3x3"
  param {
    lr_mult: 1
    decay_mult: 1
  }
  param {
    lr_mult: 2
    decay_mult: 0
  }
  convolution_param {
    num_output: 320
    pad: 1
    kernel_size: 3
    weight_filler {
      type: "xavier"
      std: 0.03
    }
    bias_filler {
      type: "constant"
      value: 0.2
    }
  }
}
layer {
  name: "inception_4e/relu_3x3"
  type: "ReLU"
  bottom: "inception_4e/3x3"
  top: "inception_4e/3x3"
}
layer {
  name: "inception_4e/5x5_reduce"
  type: "Convolution"
  bottom: "inception_4d/output"
  top: "inception_4e/5x5_reduce"
  param {
    lr_mult: 1
    decay_mult: 1
  }
  param {
    lr_mult: 2
    decay_mult: 0
  }
  convolution_param {
    num_output: 32
    kernel_size: 1
    weight_filler {
      type: "xavier"
      std: 0.2
    }
    bias_filler {
      type: "constant"
      value: 0.2
    }
  }
}
layer {
  name: "inception_4e/relu_5x5_reduce"
  type: "ReLU"
  bottom: "inception_4e/5x5_reduce"
  top: "inception_4e/5x5_reduce"
}
layer {
  name: "inception_4e/5x5"
  type: "Convolution"
  bottom: "inception_4e/5x5_reduce"
  top: "inception_4e/
I0403 17:53:28.058153  6228 layer_factory.hpp:77] Creating layer data
I0403 17:53:28.058946  6228 net.cpp:91] Creating Layer data
I0403 17:53:28.058984  6228 net.cpp:399] data -> data
I0403 17:53:28.059046  6228 net.cpp:399] data -> label
I0403 17:53:28.059089  6228 data_transformer.cpp:25] Loading mean file from: /home/mohanty/data/final_dataset/lmdb/segmented-50-50/mean.binaryproto
I0403 17:53:28.060379  6230 db_lmdb.cpp:38] Opened lmdb /home/mohanty/data/final_dataset/lmdb/segmented-50-50/test_db
I0403 17:53:28.074618  6228 data_layer.cpp:41] output data size: 24,3,224,224
I0403 17:53:28.106478  6228 net.cpp:141] Setting up data
I0403 17:53:28.106578  6228 net.cpp:148] Top shape: 24 3 224 224 (3612672)
I0403 17:53:28.106606  6228 net.cpp:148] Top shape: 24 (24)
I0403 17:53:28.106623  6228 net.cpp:156] Memory required for data: 14450784
I0403 17:53:28.106657  6228 layer_factory.hpp:77] Creating layer label_data_1_split
I0403 17:53:28.106688  6228 net.cpp:91] Creating Layer label_data_1_split
I0403 17:53:28.106709  6228 net.cpp:425] label_data_1_split <- label
I0403 17:53:28.106747  6228 net.cpp:399] label_data_1_split -> label_data_1_split_0
I0403 17:53:28.106781  6228 net.cpp:399] label_data_1_split -> label_data_1_split_1
I0403 17:53:28.106806  6228 net.cpp:399] label_data_1_split -> label_data_1_split_2
I0403 17:53:28.106832  6228 net.cpp:399] label_data_1_split -> label_data_1_split_3
I0403 17:53:28.106856  6228 net.cpp:399] label_data_1_split -> label_data_1_split_4
I0403 17:53:28.106881  6228 net.cpp:399] label_data_1_split -> label_data_1_split_5
I0403 17:53:28.106904  6228 net.cpp:399] label_data_1_split -> label_data_1_split_6
I0403 17:53:28.106930  6228 net.cpp:399] label_data_1_split -> label_data_1_split_7
I0403 17:53:28.106953  6228 net.cpp:399] label_data_1_split -> label_data_1_split_8
I0403 17:53:28.106978  6228 net.cpp:399] label_data_1_split -> label_data_1_split_9
I0403 17:53:28.107122  6228 net.cpp:141] Setting up label_data_1_split
I0403 17:53:28.107151  6228 net.cpp:148] Top shape: 24 (24)
I0403 17:53:28.107174  6228 net.cpp:148] Top shape: 24 (24)
I0403 17:53:28.107193  6228 net.cpp:148] Top shape: 24 (24)
I0403 17:53:28.107218  6228 net.cpp:148] Top shape: 24 (24)
I0403 17:53:28.107241  6228 net.cpp:148] Top shape: 24 (24)
I0403 17:53:28.107260  6228 net.cpp:148] Top shape: 24 (24)
I0403 17:53:28.107281  6228 net.cpp:148] Top shape: 24 (24)
I0403 17:53:28.107300  6228 net.cpp:148] Top shape: 24 (24)
I0403 17:53:28.107319  6228 net.cpp:148] Top shape: 24 (24)
I0403 17:53:28.107338  6228 net.cpp:148] Top shape: 24 (24)
I0403 17:53:28.107390  6228 net.cpp:156] Memory required for data: 14451744
I0403 17:53:28.107410  6228 layer_factory.hpp:77] Creating layer conv1/7x7_s2
I0403 17:53:28.107448  6228 net.cpp:91] Creating Layer conv1/7x7_s2
I0403 17:53:28.107470  6228 net.cpp:425] conv1/7x7_s2 <- data
I0403 17:53:28.107494  6228 net.cpp:399] conv1/7x7_s2 -> conv1/7x7_s2
I0403 17:53:28.271415  6228 net.cpp:141] Setting up conv1/7x7_s2
I0403 17:53:28.271514  6228 net.cpp:148] Top shape: 24 64 112 112 (19267584)
I0403 17:53:28.271535  6228 net.cpp:156] Memory required for data: 91522080
I0403 17:53:28.271572  6228 layer_factory.hpp:77] Creating layer conv1/relu_7x7
I0403 17:53:28.271605  6228 net.cpp:91] Creating Layer conv1/relu_7x7
I0403 17:53:28.271628  6228 net.cpp:425] conv1/relu_7x7 <- conv1/7x7_s2
I0403 17:53:28.271651  6228 net.cpp:386] conv1/relu_7x7 -> conv1/7x7_s2 (in-place)
I0403 17:53:28.271967  6228 net.cpp:141] Setting up conv1/relu_7x7
I0403 17:53:28.272001  6228 net.cpp:148] Top shape: 24 64 112 112 (19267584)
I0403 17:53:28.272019  6228 net.cpp:156] Memory required for data: 168592416
I0403 17:53:28.272038  6228 layer_factory.hpp:77] Creating layer pool1/3x3_s2
I0403 17:53:28.272097  6228 net.cpp:91] Creating Layer pool1/3x3_s2
I0403 17:53:28.272122  6228 net.cpp:425] pool1/3x3_s2 <- conv1/7x7_s2
I0403 17:53:28.272145  6228 net.cpp:399] pool1/3x3_s2 -> pool1/3x3_s2
I0403 17:53:28.272240  6228 net.cpp:141] Setting up pool1/3x3_s2
I0403 17:53:28.272270  6228 net.cpp:148] Top shape: 24 64 56 56 (4816896)
I0403 17:53:28.272289  6228 net.cpp:156] Memory required for data: 187860000
I0403 17:53:28.272307  6228 layer_factory.hpp:77] Creating layer pool1/norm1
I0403 17:53:28.272337  6228 net.cpp:91] Creating Layer pool1/norm1
I0403 17:53:28.272359  6228 net.cpp:425] pool1/norm1 <- pool1/3x3_s2
I0403 17:53:28.272382  6228 net.cpp:399] pool1/norm1 -> pool1/norm1
I0403 17:53:28.272727  6228 net.cpp:141] Setting up pool1/norm1
I0403 17:53:28.272760  6228 net.cpp:148] Top shape: 24 64 56 56 (4816896)
I0403 17:53:28.272780  6228 net.cpp:156] Memory required for data: 207127584
I0403 17:53:28.272799  6228 layer_factory.hpp:77] Creating layer conv2/3x3_reduce
I0403 17:53:28.272830  6228 net.cpp:91] Creating Layer conv2/3x3_reduce
I0403 17:53:28.272851  6228 net.cpp:425] conv2/3x3_reduce <- pool1/norm1
I0403 17:53:28.272873  6228 net.cpp:399] conv2/3x3_reduce -> conv2/3x3_reduce
I0403 17:53:28.274555  6228 net.cpp:141] Setting up conv2/3x3_reduce
I0403 17:53:28.274590  6228 net.cpp:148] Top shape: 24 64 56 56 (4816896)
I0403 17:53:28.274610  6228 net.cpp:156] Memory required for data: 226395168
I0403 17:53:28.274636  6228 layer_factory.hpp:77] Creating layer conv2/relu_3x3_reduce
I0403 17:53:28.274658  6228 net.cpp:91] Creating Layer conv2/relu_3x3_reduce
I0403 17:53:28.274677  6228 net.cpp:425] conv2/relu_3x3_reduce <- conv2/3x3_reduce
I0403 17:53:28.274698  6228 net.cpp:386] conv2/relu_3x3_reduce -> conv2/3x3_reduce (in-place)
I0403 17:53:28.275001  6228 net.cpp:141] Setting up conv2/relu_3x3_reduce
I0403 17:53:28.275033  6228 net.cpp:148] Top shape: 24 64 56 56 (4816896)
I0403 17:53:28.275051  6228 net.cpp:156] Memory required for data: 245662752
I0403 17:53:28.275070  6228 layer_factory.hpp:77] Creating layer conv2/3x3
I0403 17:53:28.275097  6228 net.cpp:91] Creating Layer conv2/3x3
I0403 17:53:28.275118  6228 net.cpp:425] conv2/3x3 <- conv2/3x3_reduce
I0403 17:53:28.275142  6228 net.cpp:399] conv2/3x3 -> conv2/3x3
I0403 17:53:28.277807  6228 net.cpp:141] Setting up conv2/3x3
I0403 17:53:28.277844  6228 net.cpp:148] Top shape: 24 192 56 56 (14450688)
I0403 17:53:28.277863  6228 net.cpp:156] Memory required for data: 303465504
I0403 17:53:28.277890  6228 layer_factory.hpp:77] Creating layer conv2/relu_3x3
I0403 17:53:28.277914  6228 net.cpp:91] Creating Layer conv2/relu_3x3
I0403 17:53:28.277933  6228 net.cpp:425] conv2/relu_3x3 <- conv2/3x3
I0403 17:53:28.277954  6228 net.cpp:386] conv2/relu_3x3 -> conv2/3x3 (in-place)
I0403 17:53:28.278151  6228 net.cpp:141] Setting up conv2/relu_3x3
I0403 17:53:28.278182  6228 net.cpp:148] Top shape: 24 192 56 56 (14450688)
I0403 17:53:28.278244  6228 net.cpp:156] Memory required for data: 361268256
I0403 17:53:28.278264  6228 layer_factory.hpp:77] Creating layer conv2/norm2
I0403 17:53:28.278285  6228 net.cpp:91] Creating Layer conv2/norm2
I0403 17:53:28.278306  6228 net.cpp:425] conv2/norm2 <- conv2/3x3
I0403 17:53:28.278327  6228 net.cpp:399] conv2/norm2 -> conv2/norm2
I0403 17:53:28.278668  6228 net.cpp:141] Setting up conv2/norm2
I0403 17:53:28.278702  6228 net.cpp:148] Top shape: 24 192 56 56 (14450688)
I0403 17:53:28.278722  6228 net.cpp:156] Memory required for data: 419071008
I0403 17:53:28.278740  6228 layer_factory.hpp:77] Creating layer pool2/3x3_s2
I0403 17:53:28.278762  6228 net.cpp:91] Creating Layer pool2/3x3_s2
I0403 17:53:28.278782  6228 net.cpp:425] pool2/3x3_s2 <- conv2/norm2
I0403 17:53:28.278805  6228 net.cpp:399] pool2/3x3_s2 -> pool2/3x3_s2
I0403 17:53:28.278864  6228 net.cpp:141] Setting up pool2/3x3_s2
I0403 17:53:28.278892  6228 net.cpp:148] Top shape: 24 192 28 28 (3612672)
I0403 17:53:28.278910  6228 net.cpp:156] Memory required for data: 433521696
I0403 17:53:28.278929  6228 layer_factory.hpp:77] Creating layer pool2/3x3_s2_pool2/3x3_s2_0_split
I0403 17:53:28.278951  6228 net.cpp:91] Creating Layer pool2/3x3_s2_pool2/3x3_s2_0_split
I0403 17:53:28.278970  6228 net.cpp:425] pool2/3x3_s2_pool2/3x3_s2_0_split <- pool2/3x3_s2
I0403 17:53:28.278991  6228 net.cpp:399] pool2/3x3_s2_pool2/3x3_s2_0_split -> pool2/3x3_s2_pool2/3x3_s2_0_split_0
I0403 17:53:28.279016  6228 net.cpp:399] pool2/3x3_s2_pool2/3x3_s2_0_split -> pool2/3x3_s2_pool2/3x3_s2_0_split_1
I0403 17:53:28.279039  6228 net.cpp:399] pool2/3x3_s2_pool2/3x3_s2_0_split -> pool2/3x3_s2_pool2/3x3_s2_0_split_2
I0403 17:53:28.279063  6228 net.cpp:399] pool2/3x3_s2_pool2/3x3_s2_0_split -> pool2/3x3_s2_pool2/3x3_s2_0_split_3
I0403 17:53:28.279142  6228 net.cpp:141] Setting up pool2/3x3_s2_pool2/3x3_s2_0_split
I0403 17:53:28.279171  6228 net.cpp:148] Top shape: 24 192 28 28 (3612672)
I0403 17:53:28.279192  6228 net.cpp:148] Top shape: 24 192 28 28 (3612672)
I0403 17:53:28.279219  6228 net.cpp:148] Top shape: 24 192 28 28 (3612672)
I0403 17:53:28.279243  6228 net.cpp:148] Top shape: 24 192 28 28 (3612672)
I0403 17:53:28.279261  6228 net.cpp:156] Memory required for data: 491324448
I0403 17:53:28.279289  6228 layer_factory.hpp:77] Creating layer inception_3a/1x1
I0403 17:53:28.279314  6228 net.cpp:91] Creating Layer inception_3a/1x1
I0403 17:53:28.279333  6228 net.cpp:425] inception_3a/1x1 <- pool2/3x3_s2_pool2/3x3_s2_0_split_0
I0403 17:53:28.279356  6228 net.cpp:399] inception_3a/1x1 -> inception_3a/1x1
I0403 17:53:28.281095  6228 net.cpp:141] Setting up inception_3a/1x1
I0403 17:53:28.281131  6228 net.cpp:148] Top shape: 24 64 28 28 (1204224)
I0403 17:53:28.281150  6228 net.cpp:156] Memory required for data: 496141344
I0403 17:53:28.281175  6228 layer_factory.hpp:77] Creating layer inception_3a/relu_1x1
I0403 17:53:28.281198  6228 net.cpp:91] Creating Layer inception_3a/relu_1x1
I0403 17:53:28.281224  6228 net.cpp:425] inception_3a/relu_1x1 <- inception_3a/1x1
I0403 17:53:28.281246  6228 net.cpp:386] inception_3a/relu_1x1 -> inception_3a/1x1 (in-place)
I0403 17:53:28.281440  6228 net.cpp:141] Setting up inception_3a/relu_1x1
I0403 17:53:28.281471  6228 net.cpp:148] Top shape: 24 64 28 28 (1204224)
I0403 17:53:28.281489  6228 net.cpp:156] Memory required for data: 500958240
I0403 17:53:28.281508  6228 layer_factory.hpp:77] Creating layer inception_3a/3x3_reduce
I0403 17:53:28.281539  6228 net.cpp:91] Creating Layer inception_3a/3x3_reduce
I0403 17:53:28.281561  6228 net.cpp:425] inception_3a/3x3_reduce <- pool2/3x3_s2_pool2/3x3_s2_0_split_1
I0403 17:53:28.281585  6228 net.cpp:399] inception_3a/3x3_reduce -> inception_3a/3x3_reduce
I0403 17:53:28.283604  6228 net.cpp:141] Setting up inception_3a/3x3_reduce
I0403 17:53:28.283643  6228 net.cpp:148] Top shape: 24 96 28 28 (1806336)
I0403 17:53:28.283663  6228 net.cpp:156] Memory required for data: 508183584
I0403 17:53:28.283692  6228 layer_factory.hpp:77] Creating layer inception_3a/relu_3x3_reduce
I0403 17:53:28.283735  6228 net.cpp:91] Creating Layer inception_3a/relu_3x3_reduce
I0403 17:53:28.283756  6228 net.cpp:425] inception_3a/relu_3x3_reduce <- inception_3a/3x3_reduce
I0403 17:53:28.283782  6228 net.cpp:386] inception_3a/relu_3x3_reduce -> inception_3a/3x3_reduce (in-place)
I0403 17:53:28.284008  6228 net.cpp:141] Setting up inception_3a/relu_3x3_reduce
I0403 17:53:28.284039  6228 net.cpp:148] Top shape: 24 96 28 28 (1806336)
I0403 17:53:28.284059  6228 net.cpp:156] Memory required for data: 515408928
I0403 17:53:28.284076  6228 layer_factory.hpp:77] Creating layer inception_3a/3x3
I0403 17:53:28.284104  6228 net.cpp:91] Creating Layer inception_3a/3x3
I0403 17:53:28.284126  6228 net.cpp:425] inception_3a/3x3 <- inception_3a/3x3_reduce
I0403 17:53:28.284150  6228 net.cpp:399] inception_3a/3x3 -> inception_3a/3x3
I0403 17:53:28.286147  6228 net.cpp:141] Setting up inception_3a/3x3
I0403 17:53:28.286185  6228 net.cpp:148] Top shape: 24 128 28 28 (2408448)
I0403 17:53:28.286207  6228 net.cpp:156] Memory required for data: 525042720
I0403 17:53:28.286242  6228 layer_factory.hpp:77] Creating layer inception_3a/relu_3x3
I0403 17:53:28.286265  6228 net.cpp:91] Creating Layer inception_3a/relu_3x3
I0403 17:53:28.286283  6228 net.cpp:425] inception_3a/relu_3x3 <- inception_3a/3x3
I0403 17:53:28.286308  6228 net.cpp:386] inception_3a/relu_3x3 -> inception_3a/3x3 (in-place)
I0403 17:53:28.286638  6228 net.cpp:141] Setting up inception_3a/relu_3x3
I0403 17:53:28.286674  6228 net.cpp:148] Top shape: 24 128 28 28 (2408448)
I0403 17:53:28.286695  6228 net.cpp:156] Memory required for data: 534676512
I0403 17:53:28.286713  6228 layer_factory.hpp:77] Creating layer inception_3a/5x5_reduce
I0403 17:53:28.286741  6228 net.cpp:91] Creating Layer inception_3a/5x5_reduce
I0403 17:53:28.286762  6228 net.cpp:425] inception_3a/5x5_reduce <- pool2/3x3_s2_pool2/3x3_s2_0_split_2
I0403 17:53:28.286787  6228 net.cpp:399] inception_3a/5x5_reduce -> inception_3a/5x5_reduce
I0403 17:53:28.287969  6228 net.cpp:141] Setting up inception_3a/5x5_reduce
I0403 17:53:28.288003  6228 net.cpp:148] Top shape: 24 16 28 28 (301056)
I0403 17:53:28.288023  6228 net.cpp:156] Memory required for data: 535880736
I0403 17:53:28.288048  6228 layer_factory.hpp:77] Creating layer inception_3a/relu_5x5_reduce
I0403 17:53:28.288069  6228 net.cpp:91] Creating Layer inception_3a/relu_5x5_reduce
I0403 17:53:28.288089  6228 net.cpp:425] inception_3a/relu_5x5_reduce <- inception_3a/5x5_reduce
I0403 17:53:28.288112  6228 net.cpp:386] inception_3a/relu_5x5_reduce -> inception_3a/5x5_reduce (in-place)
I0403 17:53:28.288486  6228 net.cpp:141] Setting up inception_3a/relu_5x5_reduce
I0403 17:53:28.288517  6228 net.cpp:148] Top shape: 24 16 28 28 (301056)
I0403 17:53:28.288537  6228 net.cpp:156] Memory required for data: 537084960
I0403 17:53:28.288555  6228 layer_factory.hpp:77] Creating layer inception_3a/5x5
I0403 17:53:28.288583  6228 net.cpp:91] Creating Layer inception_3a/5x5
I0403 17:53:28.288604  6228 net.cpp:425] inception_3a/5x5 <- inception_3a/5x5_reduce
I0403 17:53:28.288630  6228 net.cpp:399] inception_3a/5x5 -> inception_3a/5x5
I0403 17:53:28.289861  6228 net.cpp:141] Setting up inception_3a/5x5
I0403 17:53:28.289898  6228 net.cpp:148] Top shape: 24 32 28 28 (602112)
I0403 17:53:28.289919  6228 net.cpp:156] Memory required for data: 539493408
I0403 17:53:28.289942  6228 layer_factory.hpp:77] Creating layer inception_3a/relu_5x5
I0403 17:53:28.289964  6228 net.cpp:91] Creating Layer inception_3a/relu_5x5
I0403 17:53:28.289984  6228 net.cpp:425] inception_3a/relu_5x5 <- inception_3a/5x5
I0403 17:53:28.290006  6228 net.cpp:386] inception_3a/relu_5x5 -> inception_3a/5x5 (in-place)
I0403 17:53:28.290226  6228 net.cpp:141] Setting up inception_3a/relu_5x5
I0403 17:53:28.290257  6228 net.cpp:148] Top shape: 24 32 28 28 (602112)
I0403 17:53:28.290276  6228 net.cpp:156] Memory required for data: 541901856
I0403 17:53:28.290293  6228 layer_factory.hpp:77] Creating layer inception_3a/pool
I0403 17:53:28.290316  6228 net.cpp:91] Creating Layer inception_3a/pool
I0403 17:53:28.290354  6228 net.cpp:425] inception_3a/pool <- pool2/3x3_s2_pool2/3x3_s2_0_split_3
I0403 17:53:28.290380  6228 net.cpp:399] inception_3a/pool -> inception_3a/pool
I0403 17:53:28.290449  6228 net.cpp:141] Setting up inception_3a/pool
I0403 17:53:28.290482  6228 net.cpp:148] Top shape: 24 192 28 28 (3612672)
I0403 17:53:28.290500  6228 net.cpp:156] Memory required for data: 556352544
I0403 17:53:28.290519  6228 layer_factory.hpp:77] Creating layer inception_3a/pool_proj
I0403 17:53:28.290546  6228 net.cpp:91] Creating Layer inception_3a/pool_proj
I0403 17:53:28.290567  6228 net.cpp:425] inception_3a/pool_proj <- inception_3a/pool
I0403 17:53:28.290591  6228 net.cpp:399] inception_3a/pool_proj -> inception_3a/pool_proj
I0403 17:53:28.291756  6228 net.cpp:141] Setting up inception_3a/pool_proj
I0403 17:53:28.291790  6228 net.cpp:148] Top shape: 24 32 28 28 (602112)
I0403 17:53:28.291810  6228 net.cpp:156] Memory required for data: 558760992
I0403 17:53:28.291841  6228 layer_factory.hpp:77] Creating layer inception_3a/relu_pool_proj
I0403 17:53:28.291865  6228 net.cpp:91] Creating Layer inception_3a/relu_pool_proj
I0403 17:53:28.291885  6228 net.cpp:425] inception_3a/relu_pool_proj <- inception_3a/pool_proj
I0403 17:53:28.291909  6228 net.cpp:386] inception_3a/relu_pool_proj -> inception_3a/pool_proj (in-place)
I0403 17:53:28.292249  6228 net.cpp:141] Setting up inception_3a/relu_pool_proj
I0403 17:53:28.292285  6228 net.cpp:148] Top shape: 24 32 28 28 (602112)
I0403 17:53:28.292305  6228 net.cpp:156] Memory required for data: 561169440
I0403 17:53:28.292325  6228 layer_factory.hpp:77] Creating layer inception_3a/output
I0403 17:53:28.292347  6228 net.cpp:91] Creating Layer inception_3a/output
I0403 17:53:28.292366  6228 net.cpp:425] inception_3a/output <- inception_3a/1x1
I0403 17:53:28.292387  6228 net.cpp:425] inception_3a/output <- inception_3a/3x3
I0403 17:53:28.292405  6228 net.cpp:425] inception_3a/output <- inception_3a/5x5
I0403 17:53:28.292424  6228 net.cpp:425] inception_3a/output <- inception_3a/pool_proj
I0403 17:53:28.292446  6228 net.cpp:399] inception_3a/output -> inception_3a/output
I0403 17:53:28.292505  6228 net.cpp:141] Setting up inception_3a/output
I0403 17:53:28.292533  6228 net.cpp:148] Top shape: 24 256 28 28 (4816896)
I0403 17:53:28.292551  6228 net.cpp:156] Memory required for data: 580437024
I0403 17:53:28.292569  6228 layer_factory.hpp:77] Creating layer inception_3a/output_inception_3a/output_0_split
I0403 17:53:28.292593  6228 net.cpp:91] Creating Layer inception_3a/output_inception_3a/output_0_split
I0403 17:53:28.292613  6228 net.cpp:425] inception_3a/output_inception_3a/output_0_split <- inception_3a/output
I0403 17:53:28.292635  6228 net.cpp:399] inception_3a/output_inception_3a/output_0_split -> inception_3a/output_inception_3a/output_0_split_0
I0403 17:53:28.292660  6228 net.cpp:399] inception_3a/output_inception_3a/output_0_split -> inception_3a/output_inception_3a/output_0_split_1
I0403 17:53:28.292690  6228 net.cpp:399] inception_3a/output_inception_3a/output_0_split -> inception_3a/output_inception_3a/output_0_split_2
I0403 17:53:28.292717  6228 net.cpp:399] inception_3a/output_inception_3a/output_0_split -> inception_3a/output_inception_3a/output_0_split_3
I0403 17:53:28.292811  6228 net.cpp:141] Setting up inception_3a/output_inception_3a/output_0_split
I0403 17:53:28.292840  6228 net.cpp:148] Top shape: 24 256 28 28 (4816896)
I0403 17:53:28.292861  6228 net.cpp:148] Top shape: 24 256 28 28 (4816896)
I0403 17:53:28.292881  6228 net.cpp:148] Top shape: 24 256 28 28 (4816896)
I0403 17:53:28.292901  6228 net.cpp:148] Top shape: 24 256 28 28 (4816896)
I0403 17:53:28.292918  6228 net.cpp:156] Memory required for data: 657507360
I0403 17:53:28.292937  6228 layer_factory.hpp:77] Creating layer inception_3b/1x1
I0403 17:53:28.292965  6228 net.cpp:91] Creating Layer inception_3b/1x1
I0403 17:53:28.292987  6228 net.cpp:425] inception_3b/1x1 <- inception_3a/output_inception_3a/output_0_split_0
I0403 17:53:28.293011  6228 net.cpp:399] inception_3b/1x1 -> inception_3b/1x1
I0403 17:53:28.294404  6228 net.cpp:141] Setting up inception_3b/1x1
I0403 17:53:28.294455  6228 net.cpp:148] Top shape: 24 128 28 28 (2408448)
I0403 17:53:28.294474  6228 net.cpp:156] Memory required for data: 667141152
I0403 17:53:28.294498  6228 layer_factory.hpp:77] Creating layer inception_3b/relu_1x1
I0403 17:53:28.294523  6228 net.cpp:91] Creating Layer inception_3b/relu_1x1
I0403 17:53:28.294545  6228 net.cpp:425] inception_3b/relu_1x1 <- inception_3b/1x1
I0403 17:53:28.294567  6228 net.cpp:386] inception_3b/relu_1x1 -> inception_3b/1x1 (in-place)
I0403 17:53:28.294778  6228 net.cpp:141] Setting up inception_3b/relu_1x1
I0403 17:53:28.294812  6228 net.cpp:148] Top shape: 24 128 28 28 (2408448)
I0403 17:53:28.294831  6228 net.cpp:156] Memory required for data: 676774944
I0403 17:53:28.294848  6228 layer_factory.hpp:77] Creating layer inception_3b/3x3_reduce
I0403 17:53:28.294877  6228 net.cpp:91] Creating Layer inception_3b/3x3_reduce
I0403 17:53:28.294898  6228 net.cpp:425] inception_3b/3x3_reduce <- inception_3a/output_inception_3a/output_0_split_1
I0403 17:53:28.294924  6228 net.cpp:399] inception_3b/3x3_reduce -> inception_3b/3x3_reduce
I0403 17:53:28.296306  6228 net.cpp:141] Setting up inception_3b/3x3_reduce
I0403 17:53:28.296342  6228 net.cpp:148] Top shape: 24 128 28 28 (2408448)
I0403 17:53:28.296361  6228 net.cpp:156] Memory required for data: 686408736
I0403 17:53:28.296386  6228 layer_factory.hpp:77] Creating layer inception_3b/relu_3x3_reduce
I0403 17:53:28.296411  6228 net.cpp:91] Creating Layer inception_3b/relu_3x3_reduce
I0403 17:53:28.296434  6228 net.cpp:425] inception_3b/relu_3x3_reduce <- inception_3b/3x3_reduce
I0403 17:53:28.296454  6228 net.cpp:386] inception_3b/relu_3x3_reduce -> inception_3b/3x3_reduce (in-place)
I0403 17:53:28.296670  6228 net.cpp:141] Setting up inception_3b/relu_3x3_reduce
I0403 17:53:28.296705  6228 net.cpp:148] Top shape: 24 128 28 28 (2408448)
I0403 17:53:28.296725  6228 net.cpp:156] Memory required for data: 696042528
I0403 17:53:28.296744  6228 layer_factory.hpp:77] Creating layer inception_3b/3x3
I0403 17:53:28.296774  6228 net.cpp:91] Creating Layer inception_3b/3x3
I0403 17:53:28.296797  6228 net.cpp:425] inception_3b/3x3 <- inception_3b/3x3_reduce
I0403 17:53:28.296823  6228 net.cpp:399] inception_3b/3x3 -> inception_3b/3x3
I0403 17:53:28.300353  6228 net.cpp:141] Setting up inception_3b/3x3
I0403 17:53:28.300391  6228 net.cpp:148] Top shape: 24 192 28 28 (3612672)
I0403 17:53:28.300412  6228 net.cpp:156] Memory required for data: 710493216
I0403 17:53:28.300438  6228 layer_factory.hpp:77] Creating layer inception_3b/relu_3x3
I0403 17:53:28.300462  6228 net.cpp:91] Creating Layer inception_3b/relu_3x3
I0403 17:53:28.300480  6228 net.cpp:425] inception_3b/relu_3x3 <- inception_3b/3x3
I0403 17:53:28.300503  6228 net.cpp:386] inception_3b/relu_3x3 -> inception_3b/3x3 (in-place)
I0403 17:53:28.300833  6228 net.cpp:141] Setting up inception_3b/relu_3x3
I0403 17:53:28.300868  6228 net.cpp:148] Top shape: 24 192 28 28 (3612672)
I0403 17:53:28.300889  6228 net.cpp:156] Memory required for data: 724943904
I0403 17:53:28.300906  6228 layer_factory.hpp:77] Creating layer inception_3b/5x5_reduce
I0403 17:53:28.300938  6228 net.cpp:91] Creating Layer inception_3b/5x5_reduce
I0403 17:53:28.300961  6228 net.cpp:425] inception_3b/5x5_reduce <- inception_3a/output_inception_3a/output_0_split_2
I0403 17:53:28.300986  6228 net.cpp:399] inception_3b/5x5_reduce -> inception_3b/5x5_reduce
I0403 17:53:28.302201  6228 net.cpp:141] Setting up inception_3b/5x5_reduce
I0403 17:53:28.302242  6228 net.cpp:148] Top shape: 24 32 28 28 (602112)
I0403 17:53:28.302263  6228 net.cpp:156] Memory required for data: 727352352
I0403 17:53:28.302295  6228 layer_factory.hpp:77] Creating layer inception_3b/relu_5x5_reduce
I0403 17:53:28.302317  6228 net.cpp:91] Creating Layer inception_3b/relu_5x5_reduce
I0403 17:53:28.302336  6228 net.cpp:425] inception_3b/relu_5x5_reduce <- inception_3b/5x5_reduce
I0403 17:53:28.302357  6228 net.cpp:386] inception_3b/relu_5x5_reduce -> inception_3b/5x5_reduce (in-place)
I0403 17:53:28.302597  6228 net.cpp:141] Setting up inception_3b/relu_5x5_reduce
I0403 17:53:28.302629  6228 net.cpp:148] Top shape: 24 32 28 28 (602112)
I0403 17:53:28.302656  6228 net.cpp:156] Memory required for data: 729760800
I0403 17:53:28.302675  6228 layer_factory.hpp:77] Creating layer inception_3b/5x5
I0403 17:53:28.302711  6228 net.cpp:91] Creating Layer inception_3b/5x5
I0403 17:53:28.302732  6228 net.cpp:425] inception_3b/5x5 <- inception_3b/5x5_reduce
I0403 17:53:28.302757  6228 net.cpp:399] inception_3b/5x5 -> inception_3b/5x5
I0403 17:53:28.305152  6228 net.cpp:141] Setting up inception_3b/5x5
I0403 17:53:28.305189  6228 net.cpp:148] Top shape: 24 96 28 28 (1806336)
I0403 17:53:28.305213  6228 net.cpp:156] Memory required for data: 736986144
I0403 17:53:28.305238  6228 layer_factory.hpp:77] Creating layer inception_3b/relu_5x5
I0403 17:53:28.305263  6228 net.cpp:91] Creating Layer inception_3b/relu_5x5
I0403 17:53:28.305284  6228 net.cpp:425] inception_3b/relu_5x5 <- inception_3b/5x5
I0403 17:53:28.305305  6228 net.cpp:386] inception_3b/relu_5x5 -> inception_3b/5x5 (in-place)
I0403 17:53:28.305544  6228 net.cpp:141] Setting up inception_3b/relu_5x5
I0403 17:53:28.305575  6228 net.cpp:148] Top shape: 24 96 28 28 (1806336)
I0403 17:53:28.305593  6228 net.cpp:156] Memory required for data: 744211488
I0403 17:53:28.305613  6228 layer_factory.hpp:77] Creating layer inception_3b/pool
I0403 17:53:28.305634  6228 net.cpp:91] Creating Layer inception_3b/pool
I0403 17:53:28.305655  6228 net.cpp:425] inception_3b/pool <- inception_3a/output_inception_3a/output_0_split_3
I0403 17:53:28.305678  6228 net.cpp:399] inception_3b/pool -> inception_3b/pool
I0403 17:53:28.305747  6228 net.cpp:141] Setting up inception_3b/pool
I0403 17:53:28.305775  6228 net.cpp:148] Top shape: 24 256 28 28 (4816896)
I0403 17:53:28.305794  6228 net.cpp:156] Memory required for data: 763479072
I0403 17:53:28.305812  6228 layer_factory.hpp:77] Creating layer inception_3b/pool_proj
I0403 17:53:28.305840  6228 net.cpp:91] Creating Layer inception_3b/pool_proj
I0403 17:53:28.305862  6228 net.cpp:425] inception_3b/pool_proj <- inception_3b/pool
I0403 17:53:28.305888  6228 net.cpp:399] inception_3b/pool_proj -> inception_3b/pool_proj
I0403 17:53:28.307173  6228 net.cpp:141] Setting up inception_3b/pool_proj
I0403 17:53:28.307212  6228 net.cpp:148] Top shape: 24 64 28 28 (1204224)
I0403 17:53:28.307234  6228 net.cpp:156] Memory required for data: 768295968
I0403 17:53:28.307256  6228 layer_factory.hpp:77] Creating layer inception_3b/relu_pool_proj
I0403 17:53:28.307282  6228 net.cpp:91] Creating Layer inception_3b/relu_pool_proj
I0403 17:53:28.307303  6228 net.cpp:425] inception_3b/relu_pool_proj <- inception_3b/pool_proj
I0403 17:53:28.307325  6228 net.cpp:386] inception_3b/relu_pool_proj -> inception_3b/pool_proj (in-place)
I0403 17:53:28.307788  6228 net.cpp:141] Setting up inception_3b/relu_pool_proj
I0403 17:53:28.307821  6228 net.cpp:148] Top shape: 24 64 28 28 (1204224)
I0403 17:53:28.307840  6228 net.cpp:156] Memory required for data: 773112864
I0403 17:53:28.307859  6228 layer_factory.hpp:77] Creating layer inception_3b/output
I0403 17:53:28.307881  6228 net.cpp:91] Creating Layer inception_3b/output
I0403 17:53:28.307900  6228 net.cpp:425] inception_3b/output <- inception_3b/1x1
I0403 17:53:28.307920  6228 net.cpp:425] inception_3b/output <- inception_3b/3x3
I0403 17:53:28.307941  6228 net.cpp:425] inception_3b/output <- inception_3b/5x5
I0403 17:53:28.307960  6228 net.cpp:425] inception_3b/output <- inception_3b/pool_proj
I0403 17:53:28.307984  6228 net.cpp:399] inception_3b/output -> inception_3b/output
I0403 17:53:28.308039  6228 net.cpp:141] Setting up inception_3b/output
I0403 17:53:28.308071  6228 net.cpp:148] Top shape: 24 480 28 28 (9031680)
I0403 17:53:28.308091  6228 net.cpp:156] Memory required for data: 809239584
I0403 17:53:28.308110  6228 layer_factory.hpp:77] Creating layer pool3/3x3_s2
I0403 17:53:28.308131  6228 net.cpp:91] Creating Layer pool3/3x3_s2
I0403 17:53:28.308151  6228 net.cpp:425] pool3/3x3_s2 <- inception_3b/output
I0403 17:53:28.308192  6228 net.cpp:399] pool3/3x3_s2 -> pool3/3x3_s2
I0403 17:53:28.308270  6228 net.cpp:141] Setting up pool3/3x3_s2
I0403 17:53:28.308300  6228 net.cpp:148] Top shape: 24 480 14 14 (2257920)
I0403 17:53:28.308320  6228 net.cpp:156] Memory required for data: 818271264
I0403 17:53:28.308338  6228 layer_factory.hpp:77] Creating layer pool3/3x3_s2_pool3/3x3_s2_0_split
I0403 17:53:28.308359  6228 net.cpp:91] Creating Layer pool3/3x3_s2_pool3/3x3_s2_0_split
I0403 17:53:28.308378  6228 net.cpp:425] pool3/3x3_s2_pool3/3x3_s2_0_split <- pool3/3x3_s2
I0403 17:53:28.308406  6228 net.cpp:399] pool3/3x3_s2_pool3/3x3_s2_0_split -> pool3/3x3_s2_pool3/3x3_s2_0_split_0
I0403 17:53:28.308434  6228 net.cpp:399] pool3/3x3_s2_pool3/3x3_s2_0_split -> pool3/3x3_s2_pool3/3x3_s2_0_split_1
I0403 17:53:28.308459  6228 net.cpp:399] pool3/3x3_s2_pool3/3x3_s2_0_split -> pool3/3x3_s2_pool3/3x3_s2_0_split_2
I0403 17:53:28.308487  6228 net.cpp:399] pool3/3x3_s2_pool3/3x3_s2_0_split -> pool3/3x3_s2_pool3/3x3_s2_0_split_3
I0403 17:53:28.308583  6228 net.cpp:141] Setting up pool3/3x3_s2_pool3/3x3_s2_0_split
I0403 17:53:28.308611  6228 net.cpp:148] Top shape: 24 480 14 14 (2257920)
I0403 17:53:28.308631  6228 net.cpp:148] Top shape: 24 480 14 14 (2257920)
I0403 17:53:28.308651  6228 net.cpp:148] Top shape: 24 480 14 14 (2257920)
I0403 17:53:28.308671  6228 net.cpp:148] Top shape: 24 480 14 14 (2257920)
I0403 17:53:28.308688  6228 net.cpp:156] Memory required for data: 854397984
I0403 17:53:28.308706  6228 layer_factory.hpp:77] Creating layer inception_4a/1x1
I0403 17:53:28.308734  6228 net.cpp:91] Creating Layer inception_4a/1x1
I0403 17:53:28.308755  6228 net.cpp:425] inception_4a/1x1 <- pool3/3x3_s2_pool3/3x3_s2_0_split_0
I0403 17:53:28.308782  6228 net.cpp:399] inception_4a/1x1 -> inception_4a/1x1
I0403 17:53:28.310684  6228 net.cpp:141] Setting up inception_4a/1x1
I0403 17:53:28.310719  6228 net.cpp:148] Top shape: 24 192 14 14 (903168)
I0403 17:53:28.310737  6228 net.cpp:156] Memory required for data: 858010656
I0403 17:53:28.310760  6228 layer_factory.hpp:77] Creating layer inception_4a/relu_1x1
I0403 17:53:28.310786  6228 net.cpp:91] Creating Layer inception_4a/relu_1x1
I0403 17:53:28.310808  6228 net.cpp:425] inception_4a/relu_1x1 <- inception_4a/1x1
I0403 17:53:28.310830  6228 net.cpp:386] inception_4a/relu_1x1 -> inception_4a/1x1 (in-place)
I0403 17:53:28.311044  6228 net.cpp:141] Setting up inception_4a/relu_1x1
I0403 17:53:28.311075  6228 net.cpp:148] Top shape: 24 192 14 14 (903168)
I0403 17:53:28.311094  6228 net.cpp:156] Memory required for data: 861623328
I0403 17:53:28.311112  6228 layer_factory.hpp:77] Creating layer inception_4a/3x3_reduce
I0403 17:53:28.311143  6228 net.cpp:91] Creating Layer inception_4a/3x3_reduce
I0403 17:53:28.311164  6228 net.cpp:425] inception_4a/3x3_reduce <- pool3/3x3_s2_pool3/3x3_s2_0_split_1
I0403 17:53:28.311188  6228 net.cpp:399] inception_4a/3x3_reduce -> inception_4a/3x3_reduce
I0403 17:53:28.312729  6228 net.cpp:141] Setting up inception_4a/3x3_reduce
I0403 17:53:28.312762  6228 net.cpp:148] Top shape: 24 96 14 14 (451584)
I0403 17:53:28.312782  6228 net.cpp:156] Memory required for data: 863429664
I0403 17:53:28.312813  6228 layer_factory.hpp:77] Creating layer inception_4a/relu_3x3_reduce
I0403 17:53:28.312837  6228 net.cpp:91] Creating Layer inception_4a/relu_3x3_reduce
I0403 17:53:28.312857  6228 net.cpp:425] inception_4a/relu_3x3_reduce <- inception_4a/3x3_reduce
I0403 17:53:28.312881  6228 net.cpp:386] inception_4a/relu_3x3_reduce -> inception_4a/3x3_reduce (in-place)
I0403 17:53:28.313097  6228 net.cpp:141] Setting up inception_4a/relu_3x3_reduce
I0403 17:53:28.313127  6228 net.cpp:148] Top shape: 24 96 14 14 (451584)
I0403 17:53:28.313146  6228 net.cpp:156] Memory required for data: 865236000
I0403 17:53:28.313165  6228 layer_factory.hpp:77] Creating layer inception_4a/3x3
I0403 17:53:28.313192  6228 net.cpp:91] Creating Layer inception_4a/3x3
I0403 17:53:28.313228  6228 net.cpp:425] inception_4a/3x3 <- inception_4a/3x3_reduce
I0403 17:53:28.313258  6228 net.cpp:399] inception_4a/3x3 -> inception_4a/3x3
I0403 17:53:28.316520  6228 net.cpp:141] Setting up inception_4a/3x3
I0403 17:53:28.316556  6228 net.cpp:148] Top shape: 24 208 14 14 (978432)
I0403 17:53:28.316578  6228 net.cpp:156] Memory required for data: 869149728
I0403 17:53:28.316601  6228 layer_factory.hpp:77] Creating layer inception_4a/relu_3x3
I0403 17:53:28.316624  6228 net.cpp:91] Creating Layer inception_4a/relu_3x3
I0403 17:53:28.316644  6228 net.cpp:425] inception_4a/relu_3x3 <- inception_4a/3x3
I0403 17:53:28.316665  6228 net.cpp:386] inception_4a/relu_3x3 -> inception_4a/3x3 (in-place)
I0403 17:53:28.317003  6228 net.cpp:141] Setting up inception_4a/relu_3x3
I0403 17:53:28.317035  6228 net.cpp:148] Top shape: 24 208 14 14 (978432)
I0403 17:53:28.317057  6228 net.cpp:156] Memory required for data: 873063456
I0403 17:53:28.317076  6228 layer_factory.hpp:77] Creating layer inception_4a/5x5_reduce
I0403 17:53:28.317101  6228 net.cpp:91] Creating Layer inception_4a/5x5_reduce
I0403 17:53:28.317122  6228 net.cpp:425] inception_4a/5x5_reduce <- pool3/3x3_s2_pool3/3x3_s2_0_split_2
I0403 17:53:28.317148  6228 net.cpp:399] inception_4a/5x5_reduce -> inception_4a/5x5_reduce
I0403 17:53:28.318413  6228 net.cpp:141] Setting up inception_4a/5x5_reduce
I0403 17:53:28.318450  6228 net.cpp:148] Top shape: 24 16 14 14 (75264)
I0403 17:53:28.318470  6228 net.cpp:156] Memory required for data: 873364512
I0403 17:53:28.318495  6228 layer_factory.hpp:77] Creating layer inception_4a/relu_5x5_reduce
I0403 17:53:28.318517  6228 net.cpp:91] Creating Layer inception_4a/relu_5x5_reduce
I0403 17:53:28.318537  6228 net.cpp:425] inception_4a/relu_5x5_reduce <- inception_4a/5x5_reduce
I0403 17:53:28.318559  6228 net.cpp:386] inception_4a/relu_5x5_reduce -> inception_4a/5x5_reduce (in-place)
I0403 17:53:28.318788  6228 net.cpp:141] Setting up inception_4a/relu_5x5_reduce
I0403 17:53:28.318819  6228 net.cpp:148] Top shape: 24 16 14 14 (75264)
I0403 17:53:28.318837  6228 net.cpp:156] Memory required for data: 873665568
I0403 17:53:28.318856  6228 layer_factory.hpp:77] Creating layer inception_4a/5x5
I0403 17:53:28.318883  6228 net.cpp:91] Creating Layer inception_4a/5x5
I0403 17:53:28.318907  6228 net.cpp:425] inception_4a/5x5 <- inception_4a/5x5_reduce
I0403 17:53:28.318933  6228 net.cpp:399] inception_4a/5x5 -> inception_4a/5x5
I0403 17:53:28.320274  6228 net.cpp:141] Setting up inception_4a/5x5
I0403 17:53:28.320308  6228 net.cpp:148] Top shape: 24 48 14 14 (225792)
I0403 17:53:28.320328  6228 net.cpp:156] Memory required for data: 874568736
I0403 17:53:28.320353  6228 layer_factory.hpp:77] Creating layer inception_4a/relu_5x5
I0403 17:53:28.320375  6228 net.cpp:91] Creating Layer inception_4a/relu_5x5
I0403 17:53:28.320394  6228 net.cpp:425] inception_4a/relu_5x5 <- inception_4a/5x5
I0403 17:53:28.320420  6228 net.cpp:386] inception_4a/relu_5x5 -> inception_4a/5x5 (in-place)
I0403 17:53:28.320642  6228 net.cpp:141] Setting up inception_4a/relu_5x5
I0403 17:53:28.320673  6228 net.cpp:148] Top shape: 24 48 14 14 (225792)
I0403 17:53:28.320691  6228 net.cpp:156] Memory required for data: 875471904
I0403 17:53:28.320710  6228 layer_factory.hpp:77] Creating layer inception_4a/pool
I0403 17:53:28.320736  6228 net.cpp:91] Creating Layer inception_4a/pool
I0403 17:53:28.320757  6228 net.cpp:425] inception_4a/pool <- pool3/3x3_s2_pool3/3x3_s2_0_split_3
I0403 17:53:28.320780  6228 net.cpp:399] inception_4a/pool -> inception_4a/pool
I0403 17:53:28.320854  6228 net.cpp:141] Setting up inception_4a/pool
I0403 17:53:28.320884  6228 net.cpp:148] Top shape: 24 480 14 14 (2257920)
I0403 17:53:28.320902  6228 net.cpp:156] Memory required for data: 884503584
I0403 17:53:28.320920  6228 layer_factory.hpp:77] Creating layer inception_4a/pool_proj
I0403 17:53:28.320948  6228 net.cpp:91] Creating Layer inception_4a/pool_proj
I0403 17:53:28.320971  6228 net.cpp:425] inception_4a/pool_proj <- inception_4a/pool
I0403 17:53:28.320996  6228 net.cpp:399] inception_4a/pool_proj -> inception_4a/pool_proj
I0403 17:53:28.322422  6228 net.cpp:141] Setting up inception_4a/pool_proj
I0403 17:53:28.322455  6228 net.cpp:148] Top shape: 24 64 14 14 (301056)
I0403 17:53:28.322491  6228 net.cpp:156] Memory required for data: 885707808
I0403 17:53:28.322515  6228 layer_factory.hpp:77] Creating layer inception_4a/relu_pool_proj
I0403 17:53:28.322542  6228 net.cpp:91] Creating Layer inception_4a/relu_pool_proj
I0403 17:53:28.322564  6228 net.cpp:425] inception_4a/relu_pool_proj <- inception_4a/pool_proj
I0403 17:53:28.322587  6228 net.cpp:386] inception_4a/relu_pool_proj -> inception_4a/pool_proj (in-place)
I0403 17:53:28.322932  6228 net.cpp:141] Setting up inception_4a/relu_pool_proj
I0403 17:53:28.322965  6228 net.cpp:148] Top shape: 24 64 14 14 (301056)
I0403 17:53:28.322985  6228 net.cpp:156] Memory required for data: 886912032
I0403 17:53:28.323004  6228 layer_factory.hpp:77] Creating layer inception_4a/output
I0403 17:53:28.323026  6228 net.cpp:91] Creating Layer inception_4a/output
I0403 17:53:28.323046  6228 net.cpp:425] inception_4a/output <- inception_4a/1x1
I0403 17:53:28.323066  6228 net.cpp:425] inception_4a/output <- inception_4a/3x3
I0403 17:53:28.323086  6228 net.cpp:425] inception_4a/output <- inception_4a/5x5
I0403 17:53:28.323106  6228 net.cpp:425] inception_4a/output <- inception_4a/pool_proj
I0403 17:53:28.323129  6228 net.cpp:399] inception_4a/output -> inception_4a/output
I0403 17:53:28.323186  6228 net.cpp:141] Setting up inception_4a/output
I0403 17:53:28.323228  6228 net.cpp:148] Top shape: 24 512 14 14 (2408448)
I0403 17:53:28.323251  6228 net.cpp:156] Memory required for data: 896545824
I0403 17:53:28.323268  6228 layer_factory.hpp:77] Creating layer inception_4a/output_inception_4a/output_0_split
I0403 17:53:28.323290  6228 net.cpp:91] Creating Layer inception_4a/output_inception_4a/output_0_split
I0403 17:53:28.323312  6228 net.cpp:425] inception_4a/output_inception_4a/output_0_split <- inception_4a/output
I0403 17:53:28.323336  6228 net.cpp:399] inception_4a/output_inception_4a/output_0_split -> inception_4a/output_inception_4a/output_0_split_0
I0403 17:53:28.323364  6228 net.cpp:399] inception_4a/output_inception_4a/output_0_split -> inception_4a/output_inception_4a/output_0_split_1
I0403 17:53:28.323390  6228 net.cpp:399] inception_4a/output_inception_4a/output_0_split -> inception_4a/output_inception_4a/output_0_split_2
I0403 17:53:28.323415  6228 net.cpp:399] inception_4a/output_inception_4a/output_0_split -> inception_4a/output_inception_4a/output_0_split_3
I0403 17:53:28.323441  6228 net.cpp:399] inception_4a/output_inception_4a/output_0_split -> inception_4a/output_inception_4a/output_0_split_4
I0403 17:53:28.323554  6228 net.cpp:141] Setting up inception_4a/output_inception_4a/output_0_split
I0403 17:53:28.323586  6228 net.cpp:148] Top shape: 24 512 14 14 (2408448)
I0403 17:53:28.323608  6228 net.cpp:148] Top shape: 24 512 14 14 (2408448)
I0403 17:53:28.323628  6228 net.cpp:148] Top shape: 24 512 14 14 (2408448)
I0403 17:53:28.323647  6228 net.cpp:148] Top shape: 24 512 14 14 (2408448)
I0403 17:53:28.323667  6228 net.cpp:148] Top shape: 24 512 14 14 (2408448)
I0403 17:53:28.323684  6228 net.cpp:156] Memory required for data: 944714784
I0403 17:53:28.323704  6228 layer_factory.hpp:77] Creating layer loss1/ave_pool
I0403 17:53:28.323726  6228 net.cpp:91] Creating Layer loss1/ave_pool
I0403 17:53:28.323746  6228 net.cpp:425] loss1/ave_pool <- inception_4a/output_inception_4a/output_0_split_0
I0403 17:53:28.323768  6228 net.cpp:399] loss1/ave_pool -> loss1/ave_pool
I0403 17:53:28.324019  6228 net.cpp:141] Setting up loss1/ave_pool
I0403 17:53:28.324053  6228 net.cpp:148] Top shape: 24 512 4 4 (196608)
I0403 17:53:28.324071  6228 net.cpp:156] Memory required for data: 945501216
I0403 17:53:28.324090  6228 layer_factory.hpp:77] Creating layer loss1/conv
I0403 17:53:28.324118  6228 net.cpp:91] Creating Layer loss1/conv
I0403 17:53:28.324139  6228 net.cpp:425] loss1/conv <- loss1/ave_pool
I0403 17:53:28.324165  6228 net.cpp:399] loss1/conv -> loss1/conv
I0403 17:53:28.325886  6228 net.cpp:141] Setting up loss1/conv
I0403 17:53:28.325923  6228 net.cpp:148] Top shape: 24 128 4 4 (49152)
I0403 17:53:28.325959  6228 net.cpp:156] Memory required for data: 945697824
I0403 17:53:28.325984  6228 layer_factory.hpp:77] Creating layer loss1/relu_conv
I0403 17:53:28.326005  6228 net.cpp:91] Creating Layer loss1/relu_conv
I0403 17:53:28.326025  6228 net.cpp:425] loss1/relu_conv <- loss1/conv
I0403 17:53:28.326046  6228 net.cpp:386] loss1/relu_conv -> loss1/conv (in-place)
I0403 17:53:28.326397  6228 net.cpp:141] Setting up loss1/relu_conv
I0403 17:53:28.326433  6228 net.cpp:148] Top shape: 24 128 4 4 (49152)
I0403 17:53:28.326453  6228 net.cpp:156] Memory required for data: 945894432
I0403 17:53:28.326472  6228 layer_factory.hpp:77] Creating layer loss1/fc
I0403 17:53:28.326501  6228 net.cpp:91] Creating Layer loss1/fc
I0403 17:53:28.326524  6228 net.cpp:425] loss1/fc <- loss1/conv
I0403 17:53:28.326550  6228 net.cpp:399] loss1/fc -> loss1/fc
I0403 17:53:28.348513  6228 net.cpp:141] Setting up loss1/fc
I0403 17:53:28.348554  6228 net.cpp:148] Top shape: 24 1024 (24576)
I0403 17:53:28.348574  6228 net.cpp:156] Memory required for data: 945992736
I0403 17:53:28.348598  6228 layer_factory.hpp:77] Creating layer loss1/relu_fc
I0403 17:53:28.348623  6228 net.cpp:91] Creating Layer loss1/relu_fc
I0403 17:53:28.348645  6228 net.cpp:425] loss1/relu_fc <- loss1/fc
I0403 17:53:28.348666  6228 net.cpp:386] loss1/relu_fc -> loss1/fc (in-place)
I0403 17:53:28.348894  6228 net.cpp:141] Setting up loss1/relu_fc
I0403 17:53:28.348925  6228 net.cpp:148] Top shape: 24 1024 (24576)
I0403 17:53:28.348944  6228 net.cpp:156] Memory required for data: 946091040
I0403 17:53:28.348963  6228 layer_factory.hpp:77] Creating layer loss1/drop_fc
I0403 17:53:28.348996  6228 net.cpp:91] Creating Layer loss1/drop_fc
I0403 17:53:28.349019  6228 net.cpp:425] loss1/drop_fc <- loss1/fc
I0403 17:53:28.349041  6228 net.cpp:386] loss1/drop_fc -> loss1/fc (in-place)
I0403 17:53:28.349107  6228 net.cpp:141] Setting up loss1/drop_fc
I0403 17:53:28.349135  6228 net.cpp:148] Top shape: 24 1024 (24576)
I0403 17:53:28.349153  6228 net.cpp:156] Memory required for data: 946189344
I0403 17:53:28.349172  6228 layer_factory.hpp:77] Creating layer loss1/classifier_plantvillage
I0403 17:53:28.349195  6228 net.cpp:91] Creating Layer loss1/classifier_plantvillage
I0403 17:53:28.349221  6228 net.cpp:425] loss1/classifier_plantvillage <- loss1/fc
I0403 17:53:28.349249  6228 net.cpp:399] loss1/classifier_plantvillage -> loss1/classifier_plantvillage
I0403 17:53:28.350355  6228 net.cpp:141] Setting up loss1/classifier_plantvillage
I0403 17:53:28.350394  6228 net.cpp:148] Top shape: 24 38 (912)
I0403 17:53:28.350414  6228 net.cpp:156] Memory required for data: 946192992
I0403 17:53:28.350438  6228 layer_factory.hpp:77] Creating layer loss1/classifier_plantvillage_loss1/classifier_plantvillage_0_split
I0403 17:53:28.350461  6228 net.cpp:91] Creating Layer loss1/classifier_plantvillage_loss1/classifier_plantvillage_0_split
I0403 17:53:28.350481  6228 net.cpp:425] loss1/classifier_plantvillage_loss1/classifier_plantvillage_0_split <- loss1/classifier_plantvillage
I0403 17:53:28.350503  6228 net.cpp:399] loss1/classifier_plantvillage_loss1/classifier_plantvillage_0_split -> loss1/classifier_plantvillage_loss1/classifier_plantvillage_0_split_0
I0403 17:53:28.350528  6228 net.cpp:399] loss1/classifier_plantvillage_loss1/classifier_plantvillage_0_split -> loss1/classifier_plantvillage_loss1/classifier_plantvillage_0_split_1
I0403 17:53:28.350553  6228 net.cpp:399] loss1/classifier_plantvillage_loss1/classifier_plantvillage_0_split -> loss1/classifier_plantvillage_loss1/classifier_plantvillage_0_split_2
I0403 17:53:28.350636  6228 net.cpp:141] Setting up loss1/classifier_plantvillage_loss1/classifier_plantvillage_0_split
I0403 17:53:28.350666  6228 net.cpp:148] Top shape: 24 38 (912)
I0403 17:53:28.350687  6228 net.cpp:148] Top shape: 24 38 (912)
I0403 17:53:28.350708  6228 net.cpp:148] Top shape: 24 38 (912)
I0403 17:53:28.350724  6228 net.cpp:156] Memory required for data: 946203936
I0403 17:53:28.350744  6228 layer_factory.hpp:77] Creating layer inception_4b/1x1
I0403 17:53:28.350767  6228 net.cpp:91] Creating Layer inception_4b/1x1
I0403 17:53:28.350811  6228 net.cpp:425] inception_4b/1x1 <- inception_4a/output_inception_4a/output_0_split_1
I0403 17:53:28.350837  6228 net.cpp:399] inception_4b/1x1 -> inception_4b/1x1
I0403 17:53:28.352834  6228 net.cpp:141] Setting up inception_4b/1x1
I0403 17:53:28.352874  6228 net.cpp:148] Top shape: 24 160 14 14 (752640)
I0403 17:53:28.352895  6228 net.cpp:156] Memory required for data: 949214496
I0403 17:53:28.352918  6228 layer_factory.hpp:77] Creating layer inception_4b/relu_1x1
I0403 17:53:28.352941  6228 net.cpp:91] Creating Layer inception_4b/relu_1x1
I0403 17:53:28.352962  6228 net.cpp:425] inception_4b/relu_1x1 <- inception_4b/1x1
I0403 17:53:28.352982  6228 net.cpp:386] inception_4b/relu_1x1 -> inception_4b/1x1 (in-place)
I0403 17:53:28.353204  6228 net.cpp:141] Setting up inception_4b/relu_1x1
I0403 17:53:28.353247  6228 net.cpp:148] Top shape: 24 160 14 14 (752640)
I0403 17:53:28.353266  6228 net.cpp:156] Memory required for data: 952225056
I0403 17:53:28.353286  6228 layer_factory.hpp:77] Creating layer inception_4b/3x3_reduce
I0403 17:53:28.353314  6228 net.cpp:91] Creating Layer inception_4b/3x3_reduce
I0403 17:53:28.353335  6228 net.cpp:425] inception_4b/3x3_reduce <- inception_4a/output_inception_4a/output_0_split_2
I0403 17:53:28.353365  6228 net.cpp:399] inception_4b/3x3_reduce -> inception_4b/3x3_reduce
I0403 17:53:28.355013  6228 net.cpp:141] Setting up inception_4b/3x3_reduce
I0403 17:53:28.355051  6228 net.cpp:148] Top shape: 24 112 14 14 (526848)
I0403 17:53:28.355072  6228 net.cpp:156] Memory required for data: 954332448
I0403 17:53:28.355095  6228 layer_factory.hpp:77] Creating layer inception_4b/relu_3x3_reduce
I0403 17:53:28.355118  6228 net.cpp:91] Creating Layer inception_4b/relu_3x3_reduce
I0403 17:53:28.355139  6228 net.cpp:425] inception_4b/relu_3x3_reduce <- inception_4b/3x3_reduce
I0403 17:53:28.355165  6228 net.cpp:386] inception_4b/relu_3x3_reduce -> inception_4b/3x3_reduce (in-place)
I0403 17:53:28.355509  6228 net.cpp:141] Setting up inception_4b/relu_3x3_reduce
I0403 17:53:28.355545  6228 net.cpp:148] Top shape: 24 112 14 14 (526848)
I0403 17:53:28.355564  6228 net.cpp:156] Memory required for data: 956439840
I0403 17:53:28.355584  6228 layer_factory.hpp:77] Creating layer inception_4b/3x3
I0403 17:53:28.355613  6228 net.cpp:91] Creating Layer inception_4b/3x3
I0403 17:53:28.355634  6228 net.cpp:425] inception_4b/3x3 <- inception_4b/3x3_reduce
I0403 17:53:28.355664  6228 net.cpp:399] inception_4b/3x3 -> inception_4b/3x3
I0403 17:53:28.359292  6228 net.cpp:141] Setting up inception_4b/3x3
I0403 17:53:28.359328  6228 net.cpp:148] Top shape: 24 224 14 14 (1053696)
I0403 17:53:28.359349  6228 net.cpp:156] Memory required for data: 960654624
I0403 17:53:28.359371  6228 layer_factory.hpp:77] Creating layer inception_4b/relu_3x3
I0403 17:53:28.359397  6228 net.cpp:91] Creating Layer inception_4b/relu_3x3
I0403 17:53:28.359418  6228 net.cpp:425] inception_4b/relu_3x3 <- inception_4b/3x3
I0403 17:53:28.359441  6228 net.cpp:386] inception_4b/relu_3x3 -> inception_4b/3x3 (in-place)
I0403 17:53:28.359665  6228 net.cpp:141] Setting up inception_4b/relu_3x3
I0403 17:53:28.359697  6228 net.cpp:148] Top shape: 24 224 14 14 (1053696)
I0403 17:53:28.359716  6228 net.cpp:156] Memory required for data: 964869408
I0403 17:53:28.359735  6228 layer_factory.hpp:77] Creating layer inception_4b/5x5_reduce
I0403 17:53:28.359766  6228 net.cpp:91] Creating Layer inception_4b/5x5_reduce
I0403 17:53:28.359787  6228 net.cpp:425] inception_4b/5x5_reduce <- inception_4a/output_inception_4a/output_0_split_3
I0403 17:53:28.359810  6228 net.cpp:399] inception_4b/5x5_reduce -> inception_4b/5x5_reduce
I0403 17:53:28.361135  6228 net.cpp:141] Setting up inception_4b/5x5_reduce
I0403 17:53:28.361173  6228 net.cpp:148] Top shape: 24 24 14 14 (112896)
I0403 17:53:28.361193  6228 net.cpp:156] Memory required for data: 965320992
I0403 17:53:28.361222  6228 layer_factory.hpp:77] Creating layer inception_4b/relu_5x5_reduce
I0403 17:53:28.361248  6228 net.cpp:91] Creating Layer inception_4b/relu_5x5_reduce
I0403 17:53:28.361284  6228 net.cpp:425] inception_4b/relu_5x5_reduce <- inception_4b/5x5_reduce
I0403 17:53:28.361310  6228 net.cpp:386] inception_4b/relu_5x5_reduce -> inception_4b/5x5_reduce (in-place)
I0403 17:53:28.361541  6228 net.cpp:141] Setting up inception_4b/relu_5x5_reduce
I0403 17:53:28.361574  6228 net.cpp:148] Top shape: 24 24 14 14 (112896)
I0403 17:53:28.361593  6228 net.cpp:156] Memory required for data: 965772576
I0403 17:53:28.361611  6228 layer_factory.hpp:77] Creating layer inception_4b/5x5
I0403 17:53:28.361639  6228 net.cpp:91] Creating Layer inception_4b/5x5
I0403 17:53:28.361661  6228 net.cpp:425] inception_4b/5x5 <- inception_4b/5x5_reduce
I0403 17:53:28.361687  6228 net.cpp:399] inception_4b/5x5 -> inception_4b/5x5
I0403 17:53:28.363204  6228 net.cpp:141] Setting up inception_4b/5x5
I0403 17:53:28.363253  6228 net.cpp:148] Top shape: 24 64 14 14 (301056)
I0403 17:53:28.363275  6228 net.cpp:156] Memory required for data: 966976800
I0403 17:53:28.363298  6228 layer_factory.hpp:77] Creating layer inception_4b/relu_5x5
I0403 17:53:28.363320  6228 net.cpp:91] Creating Layer inception_4b/relu_5x5
I0403 17:53:28.363340  6228 net.cpp:425] inception_4b/relu_5x5 <- inception_4b/5x5
I0403 17:53:28.363363  6228 net.cpp:386] inception_4b/relu_5x5 -> inception_4b/5x5 (in-place)
I0403 17:53:28.363713  6228 net.cpp:141] Setting up inception_4b/relu_5x5
I0403 17:53:28.363749  6228 net.cpp:148] Top shape: 24 64 14 14 (301056)
I0403 17:53:28.363770  6228 net.cpp:156] Memory required for data: 968181024
I0403 17:53:28.363790  6228 layer_factory.hpp:77] Creating layer inception_4b/pool
I0403 17:53:28.363812  6228 net.cpp:91] Creating Layer inception_4b/pool
I0403 17:53:28.363832  6228 net.cpp:425] inception_4b/pool <- inception_4a/output_inception_4a/output_0_split_4
I0403 17:53:28.363857  6228 net.cpp:399] inception_4b/pool -> inception_4b/pool
I0403 17:53:28.363936  6228 net.cpp:141] Setting up inception_4b/pool
I0403 17:53:28.363966  6228 net.cpp:148] Top shape: 24 512 14 14 (2408448)
I0403 17:53:28.363984  6228 net.cpp:156] Memory required for data: 977814816
I0403 17:53:28.364002  6228 layer_factory.hpp:77] Creating layer inception_4b/pool_proj
I0403 17:53:28.364029  6228 net.cpp:91] Creating Layer inception_4b/pool_proj
I0403 17:53:28.364053  6228 net.cpp:425] inception_4b/pool_proj <- inception_4b/pool
I0403 17:53:28.364078  6228 net.cpp:399] inception_4b/pool_proj -> inception_4b/pool_proj
I0403 17:53:28.365566  6228 net.cpp:141] Setting up inception_4b/pool_proj
I0403 17:53:28.365604  6228 net.cpp:148] Top shape: 24 64 14 14 (301056)
I0403 17:53:28.365624  6228 net.cpp:156] Memory required for data: 979019040
I0403 17:53:28.365648  6228 layer_factory.hpp:77] Creating layer inception_4b/relu_pool_proj
I0403 17:53:28.365670  6228 net.cpp:91] Creating Layer inception_4b/relu_pool_proj
I0403 17:53:28.365689  6228 net.cpp:425] inception_4b/relu_pool_proj <- inception_4b/pool_proj
I0403 17:53:28.365711  6228 net.cpp:386] inception_4b/relu_pool_proj -> inception_4b/pool_proj (in-place)
I0403 17:53:28.365939  6228 net.cpp:141] Setting up inception_4b/relu_pool_proj
I0403 17:53:28.365970  6228 net.cpp:148] Top shape: 24 64 14 14 (301056)
I0403 17:53:28.365990  6228 net.cpp:156] Memory required for data: 980223264
I0403 17:53:28.366009  6228 layer_factory.hpp:77] Creating layer inception_4b/output
I0403 17:53:28.366030  6228 net.cpp:91] Creating Layer inception_4b/output
I0403 17:53:28.366050  6228 net.cpp:425] inception_4b/output <- inception_4b/1x1
I0403 17:53:28.366070  6228 net.cpp:425] inception_4b/output <- inception_4b/3x3
I0403 17:53:28.366089  6228 net.cpp:425] inception_4b/output <- inception_4b/5x5
I0403 17:53:28.366108  6228 net.cpp:425] inception_4b/output <- inception_4b/pool_proj
I0403 17:53:28.366134  6228 net.cpp:399] inception_4b/output -> inception_4b/output
I0403 17:53:28.366190  6228 net.cpp:141] Setting up inception_4b/output
I0403 17:53:28.366227  6228 net.cpp:148] Top shape: 24 512 14 14 (2408448)
I0403 17:53:28.366248  6228 net.cpp:156] Memory required for data: 989857056
I0403 17:53:28.366283  6228 layer_factory.hpp:77] Creating layer inception_4b/output_inception_4b/output_0_split
I0403 17:53:28.366307  6228 net.cpp:91] Creating Layer inception_4b/output_inception_4b/output_0_split
I0403 17:53:28.366327  6228 net.cpp:425] inception_4b/output_inception_4b/output_0_split <- inception_4b/output
I0403 17:53:28.366353  6228 net.cpp:399] inception_4b/output_inception_4b/output_0_split -> inception_4b/output_inception_4b/output_0_split_0
I0403 17:53:28.366379  6228 net.cpp:399] inception_4b/output_inception_4b/output_0_split -> inception_4b/output_inception_4b/output_0_split_1
I0403 17:53:28.366405  6228 net.cpp:399] inception_4b/output_inception_4b/output_0_split -> inception_4b/output_inception_4b/output_0_split_2
I0403 17:53:28.366430  6228 net.cpp:399] inception_4b/output_inception_4b/output_0_split -> inception_4b/output_inception_4b/output_0_split_3
I0403 17:53:28.366531  6228 net.cpp:141] Setting up inception_4b/output_inception_4b/output_0_split
I0403 17:53:28.366560  6228 net.cpp:148] Top shape: 24 512 14 14 (2408448)
I0403 17:53:28.366581  6228 net.cpp:148] Top shape: 24 512 14 14 (2408448)
I0403 17:53:28.366601  6228 net.cpp:148] Top shape: 24 512 14 14 (2408448)
I0403 17:53:28.366621  6228 net.cpp:148] Top shape: 24 512 14 14 (2408448)
I0403 17:53:28.366637  6228 net.cpp:156] Memory required for data: 1028392224
I0403 17:53:28.366655  6228 layer_factory.hpp:77] Creating layer inception_4c/1x1
I0403 17:53:28.366683  6228 net.cpp:91] Creating Layer inception_4c/1x1
I0403 17:53:28.366706  6228 net.cpp:425] inception_4c/1x1 <- inception_4b/output_inception_4b/output_0_split_0
I0403 17:53:28.366732  6228 net.cpp:399] inception_4c/1x1 -> inception_4c/1x1
I0403 17:53:28.368499  6228 net.cpp:141] Setting up inception_4c/1x1
I0403 17:53:28.368535  6228 net.cpp:148] Top shape: 24 128 14 14 (602112)
I0403 17:53:28.368553  6228 net.cpp:156] Memory required for data: 1030800672
I0403 17:53:28.368577  6228 layer_factory.hpp:77] Creating layer inception_4c/relu_1x1
I0403 17:53:28.368605  6228 net.cpp:91] Creating Layer inception_4c/relu_1x1
I0403 17:53:28.368628  6228 net.cpp:425] inception_4c/relu_1x1 <- inception_4c/1x1
I0403 17:53:28.368649  6228 net.cpp:386] inception_4c/relu_1x1 -> inception_4c/1x1 (in-place)
I0403 17:53:28.368873  6228 net.cpp:141] Setting up inception_4c/relu_1x1
I0403 17:53:28.368904  6228 net.cpp:148] Top shape: 24 128 14 14 (602112)
I0403 17:53:28.368923  6228 net.cpp:156] Memory required for data: 1033209120
I0403 17:53:28.368942  6228 layer_factory.hpp:77] Creating layer inception_4c/3x3_reduce
I0403 17:53:28.368970  6228 net.cpp:91] Creating Layer inception_4c/3x3_reduce
I0403 17:53:28.368993  6228 net.cpp:425] inception_4c/3x3_reduce <- inception_4b/output_inception_4b/output_0_split_1
I0403 17:53:28.369017  6228 net.cpp:399] inception_4c/3x3_reduce -> inception_4c/3x3_reduce
I0403 17:53:28.371392  6228 net.cpp:141] Setting up inception_4c/3x3_reduce
I0403 17:53:28.371428  6228 net.cpp:148] Top shape: 24 128 14 14 (602112)
I0403 17:53:28.371448  6228 net.cpp:156] Memory required for data: 1035617568
I0403 17:53:28.371471  6228 layer_factory.hpp:77] Creating layer inception_4c/relu_3x3_reduce
I0403 17:53:28.371497  6228 net.cpp:91] Creating Layer inception_4c/relu_3x3_reduce
I0403 17:53:28.371520  6228 net.cpp:425] inception_4c/relu_3x3_reduce <- inception_4c/3x3_reduce
I0403 17:53:28.371541  6228 net.cpp:386] inception_4c/relu_3x3_reduce -> inception_4c/3x3_reduce (in-place)
I0403 17:53:28.371884  6228 net.cpp:141] Setting up inception_4c/relu_3x3_reduce
I0403 17:53:28.371918  6228 net.cpp:148] Top shape: 24 128 14 14 (602112)
I0403 17:53:28.371937  6228 net.cpp:156] Memory required for data: 1038026016
I0403 17:53:28.371955  6228 layer_factory.hpp:77] Creating layer inception_4c/3x3
I0403 17:53:28.371986  6228 net.cpp:91] Creating Layer inception_4c/3x3
I0403 17:53:28.372009  6228 net.cpp:425] inception_4c/3x3 <- inception_4c/3x3_reduce
I0403 17:53:28.372032  6228 net.cpp:399] inception_4c/3x3 -> inception_4c/3x3
I0403 17:53:28.376446  6228 net.cpp:141] Setting up inception_4c/3x3
I0403 17:53:28.376499  6228 net.cpp:148] Top shape: 24 256 14 14 (1204224)
I0403 17:53:28.376521  6228 net.cpp:156] Memory required for data: 1042842912
I0403 17:53:28.376560  6228 layer_factory.hpp:77] Creating layer inception_4c/relu_3x3
I0403 17:53:28.376585  6228 net.cpp:91] Creating Layer inception_4c/relu_3x3
I0403 17:53:28.376605  6228 net.cpp:425] inception_4c/relu_3x3 <- inception_4c/3x3
I0403 17:53:28.376626  6228 net.cpp:386] inception_4c/relu_3x3 -> inception_4c/3x3 (in-place)
I0403 17:53:28.376852  6228 net.cpp:141] Setting up inception_4c/relu_3x3
I0403 17:53:28.376888  6228 net.cpp:148] Top shape: 24 256 14 14 (1204224)
I0403 17:53:28.376906  6228 net.cpp:156] Memory required for data: 1047659808
I0403 17:53:28.376925  6228 layer_factory.hpp:77] Creating layer inception_4c/5x5_reduce
I0403 17:53:28.376955  6228 net.cpp:91] Creating Layer inception_4c/5x5_reduce
I0403 17:53:28.376977  6228 net.cpp:425] inception_4c/5x5_reduce <- inception_4b/output_inception_4b/output_0_split_2
I0403 17:53:28.377002  6228 net.cpp:399] inception_4c/5x5_reduce -> inception_4c/5x5_reduce
I0403 17:53:28.378350  6228 net.cpp:141] Setting up inception_4c/5x5_reduce
I0403 17:53:28.378387  6228 net.cpp:148] Top shape: 24 24 14 14 (112896)
I0403 17:53:28.378410  6228 net.cpp:156] Memory required for data: 1048111392
I0403 17:53:28.378433  6228 layer_factory.hpp:77] Creating layer inception_4c/relu_5x5_reduce
I0403 17:53:28.378455  6228 net.cpp:91] Creating Layer inception_4c/relu_5x5_reduce
I0403 17:53:28.378476  6228 net.cpp:425] inception_4c/relu_5x5_reduce <- inception_4c/5x5_reduce
I0403 17:53:28.378500  6228 net.cpp:386] inception_4c/relu_5x5_reduce -> inception_4c/5x5_reduce (in-place)
I0403 17:53:28.378732  6228 net.cpp:141] Setting up inception_4c/relu_5x5_reduce
I0403 17:53:28.378763  6228 net.cpp:148] Top shape: 24 24 14 14 (112896)
I0403 17:53:28.378782  6228 net.cpp:156] Memory required for data: 1048562976
I0403 17:53:28.378801  6228 layer_factory.hpp:77] Creating layer inception_4c/5x5
I0403 17:53:28.378829  6228 net.cpp:91] Creating Layer inception_4c/5x5
I0403 17:53:28.378851  6228 net.cpp:425] inception_4c/5x5 <- inception_4c/5x5_reduce
I0403 17:53:28.378877  6228 net.cpp:399] inception_4c/5x5 -> inception_4c/5x5
I0403 17:53:28.380439  6228 net.cpp:141] Setting up inception_4c/5x5
I0403 17:53:28.380475  6228 net.cpp:148] Top shape: 24 64 14 14 (301056)
I0403 17:53:28.380493  6228 net.cpp:156] Memory required for data: 1049767200
I0403 17:53:28.380517  6228 layer_factory.hpp:77] Creating layer inception_4c/relu_5x5
I0403 17:53:28.380553  6228 net.cpp:91] Creating Layer inception_4c/relu_5x5
I0403 17:53:28.380574  6228 net.cpp:425] inception_4c/relu_5x5 <- inception_4c/5x5
I0403 17:53:28.380596  6228 net.cpp:386] inception_4c/relu_5x5 -> inception_4c/5x5 (in-place)
I0403 17:53:28.380950  6228 net.cpp:141] Setting up inception_4c/relu_5x5
I0403 17:53:28.380983  6228 net.cpp:148] Top shape: 24 64 14 14 (301056)
I0403 17:53:28.381002  6228 net.cpp:156] Memory required for data: 1050971424
I0403 17:53:28.381021  6228 layer_factory.hpp:77] Creating layer inception_4c/pool
I0403 17:53:28.381043  6228 net.cpp:91] Creating Layer inception_4c/pool
I0403 17:53:28.381064  6228 net.cpp:425] inception_4c/pool <- inception_4b/output_inception_4b/output_0_split_3
I0403 17:53:28.381089  6228 net.cpp:399] inception_4c/pool -> inception_4c/pool
I0403 17:53:28.381170  6228 net.cpp:141] Setting up inception_4c/pool
I0403 17:53:28.381201  6228 net.cpp:148] Top shape: 24 512 14 14 (2408448)
I0403 17:53:28.381227  6228 net.cpp:156] Memory required for data: 1060605216
I0403 17:53:28.381247  6228 layer_factory.hpp:77] Creating layer inception_4c/pool_proj
I0403 17:53:28.381274  6228 net.cpp:91] Creating Layer inception_4c/pool_proj
I0403 17:53:28.381296  6228 net.cpp:425] inception_4c/pool_proj <- inception_4c/pool
I0403 17:53:28.381320  6228 net.cpp:399] inception_4c/pool_proj -> inception_4c/pool_proj
I0403 17:53:28.382822  6228 net.cpp:141] Setting up inception_4c/pool_proj
I0403 17:53:28.382861  6228 net.cpp:148] Top shape: 24 64 14 14 (301056)
I0403 17:53:28.382897  6228 net.cpp:156] Memory required for data: 1061809440
I0403 17:53:28.382922  6228 layer_factory.hpp:77] Creating layer inception_4c/relu_pool_proj
I0403 17:53:28.382946  6228 net.cpp:91] Creating Layer inception_4c/relu_pool_proj
I0403 17:53:28.382964  6228 net.cpp:425] inception_4c/relu_pool_proj <- inception_4c/pool_proj
I0403 17:53:28.382985  6228 net.cpp:386] inception_4c/relu_pool_proj -> inception_4c/pool_proj (in-place)
I0403 17:53:28.383226  6228 net.cpp:141] Setting up inception_4c/relu_pool_proj
I0403 17:53:28.383258  6228 net.cpp:148] Top shape: 24 64 14 14 (301056)
I0403 17:53:28.383278  6228 net.cpp:156] Memory required for data: 1063013664
I0403 17:53:28.383297  6228 layer_factory.hpp:77] Creating layer inception_4c/output
I0403 17:53:28.383318  6228 net.cpp:91] Creating Layer inception_4c/output
I0403 17:53:28.383338  6228 net.cpp:425] inception_4c/output <- inception_4c/1x1
I0403 17:53:28.383358  6228 net.cpp:425] inception_4c/output <- inception_4c/3x3
I0403 17:53:28.383378  6228 net.cpp:425] inception_4c/output <- inception_4c/5x5
I0403 17:53:28.383399  6228 net.cpp:425] inception_4c/output <- inception_4c/pool_proj
I0403 17:53:28.383422  6228 net.cpp:399] inception_4c/output -> inception_4c/output
I0403 17:53:28.383481  6228 net.cpp:141] Setting up inception_4c/output
I0403 17:53:28.383513  6228 net.cpp:148] Top shape: 24 512 14 14 (2408448)
I0403 17:53:28.383533  6228 net.cpp:156] Memory required for data: 1072647456
I0403 17:53:28.383553  6228 layer_factory.hpp:77] Creating layer inception_4c/output_inception_4c/output_0_split
I0403 17:53:28.383574  6228 net.cpp:91] Creating Layer inception_4c/output_inception_4c/output_0_split
I0403 17:53:28.383592  6228 net.cpp:425] inception_4c/output_inception_4c/output_0_split <- inception_4c/output
I0403 17:53:28.383613  6228 net.cpp:399] inception_4c/output_inception_4c/output_0_split -> inception_4c/output_inception_4c/output_0_split_0
I0403 17:53:28.383647  6228 net.cpp:399] inception_4c/output_inception_4c/output_0_split -> inception_4c/output_inception_4c/output_0_split_1
I0403 17:53:28.383672  6228 net.cpp:399] inception_4c/output_inception_4c/output_0_split -> inception_4c/output_inception_4c/output_0_split_2
I0403 17:53:28.383697  6228 net.cpp:399] inception_4c/output_inception_4c/output_0_split -> inception_4c/output_inception_4c/output_0_split_3
I0403 17:53:28.383805  6228 net.cpp:141] Setting up inception_4c/output_inception_4c/output_0_split
I0403 17:53:28.383833  6228 net.cpp:148] Top shape: 24 512 14 14 (2408448)
I0403 17:53:28.383854  6228 net.cpp:148] Top shape: 24 512 14 14 (2408448)
I0403 17:53:28.383873  6228 net.cpp:148] Top shape: 24 512 14 14 (2408448)
I0403 17:53:28.383893  6228 net.cpp:148] Top shape: 24 512 14 14 (2408448)
I0403 17:53:28.383910  6228 net.cpp:156] Memory required for data: 1111182624
I0403 17:53:28.383929  6228 layer_factory.hpp:77] Creating layer inception_4d/1x1
I0403 17:53:28.383956  6228 net.cpp:91] Creating Layer inception_4d/1x1
I0403 17:53:28.383977  6228 net.cpp:425] inception_4d/1x1 <- inception_4c/output_inception_4c/output_0_split_0
I0403 17:53:28.384003  6228 net.cpp:399] inception_4d/1x1 -> inception_4d/1x1
I0403 17:53:28.385720  6228 net.cpp:141] Setting up inception_4d/1x1
I0403 17:53:28.385754  6228 net.cpp:148] Top shape: 24 112 14 14 (526848)
I0403 17:53:28.385773  6228 net.cpp:156] Memory required for data: 1113290016
I0403 17:53:28.385797  6228 layer_factory.hpp:77] Creating layer inception_4d/relu_1x1
I0403 17:53:28.385821  6228 net.cpp:91] Creating Layer inception_4d/relu_1x1
I0403 17:53:28.385843  6228 net.cpp:425] inception_4d/relu_1x1 <- inception_4d/1x1
I0403 17:53:28.385864  6228 net.cpp:386] inception_4d/relu_1x1 -> inception_4d/1x1 (in-place)
I0403 17:53:28.386095  6228 net.cpp:141] Setting up inception_4d/relu_1x1
I0403 17:53:28.386127  6228 net.cpp:148] Top shape: 24 112 14 14 (526848)
I0403 17:53:28.386148  6228 net.cpp:156] Memory required for data: 1115397408
I0403 17:53:28.386167  6228 layer_factory.hpp:77] Creating layer inception_4d/3x3_reduce
I0403 17:53:28.386216  6228 net.cpp:91] Creating Layer inception_4d/3x3_reduce
I0403 17:53:28.386242  6228 net.cpp:425] inception_4d/3x3_reduce <- inception_4c/output_inception_4c/output_0_split_1
I0403 17:53:28.386265  6228 net.cpp:399] inception_4d/3x3_reduce -> inception_4d/3x3_reduce
I0403 17:53:28.388124  6228 net.cpp:141] Setting up inception_4d/3x3_reduce
I0403 17:53:28.388159  6228 net.cpp:148] Top shape: 24 144 14 14 (677376)
I0403 17:53:28.388177  6228 net.cpp:156] Memory required for data: 1118106912
I0403 17:53:28.388200  6228 layer_factory.hpp:77] Creating layer inception_4d/relu_3x3_reduce
I0403 17:53:28.388228  6228 net.cpp:91] Creating Layer inception_4d/relu_3x3_reduce
I0403 17:53:28.388248  6228 net.cpp:425] inception_4d/relu_3x3_reduce <- inception_4d/3x3_reduce
I0403 17:53:28.388273  6228 net.cpp:386] inception_4d/relu_3x3_reduce -> inception_4d/3x3_reduce (in-place)
I0403 17:53:28.388627  6228 net.cpp:141] Setting up inception_4d/relu_3x3_reduce
I0403 17:53:28.388660  6228 net.cpp:148] Top shape: 24 144 14 14 (677376)
I0403 17:53:28.388679  6228 net.cpp:156] Memory required for data: 1120816416
I0403 17:53:28.388698  6228 layer_factory.hpp:77] Creating layer inception_4d/3x3
I0403 17:53:28.388726  6228 net.cpp:91] Creating Layer inception_4d/3x3
I0403 17:53:28.388748  6228 net.cpp:425] inception_4d/3x3 <- inception_4d/3x3_reduce
I0403 17:53:28.388778  6228 net.cpp:399] inception_4d/3x3 -> inception_4d/3x3
I0403 17:53:28.394063  6228 net.cpp:141] Setting up inception_4d/3x3
I0403 17:53:28.394099  6228 net.cpp:148] Top shape: 24 288 14 14 (1354752)
I0403 17:53:28.394119  6228 net.cpp:156] Memory required for data: 1126235424
I0403 17:53:28.394142  6228 layer_factory.hpp:77] Creating layer inception_4d/relu_3x3
I0403 17:53:28.394168  6228 net.cpp:91] Creating Layer inception_4d/relu_3x3
I0403 17:53:28.394191  6228 net.cpp:425] inception_4d/relu_3x3 <- inception_4d/3x3
I0403 17:53:28.394217  6228 net.cpp:386] inception_4d/relu_3x3 -> inception_4d/3x3 (in-place)
I0403 17:53:28.394454  6228 net.cpp:141] Setting up inception_4d/relu_3x3
I0403 17:53:28.394489  6228 net.cpp:148] Top shape: 24 288 14 14 (1354752)
I0403 17:53:28.394508  6228 net.cpp:156] Memory required for data: 1131654432
I0403 17:53:28.394526  6228 layer_factory.hpp:77] Creating layer inception_4d/5x5_reduce
I0403 17:53:28.394556  6228 net.cpp:91] Creating Layer inception_4d/5x5_reduce
I0403 17:53:28.394577  6228 net.cpp:425] inception_4d/5x5_reduce <- inception_4c/output_inception_4c/output_0_split_2
I0403 17:53:28.394601  6228 net.cpp:399] inception_4d/5x5_reduce -> inception_4d/5x5_reduce
I0403 17:53:28.396031  6228 net.cpp:141] Setting up inception_4d/5x5_reduce
I0403 17:53:28.396066  6228 net.cpp:148] Top shape: 24 32 14 14 (150528)
I0403 17:53:28.396086  6228 net.cpp:156] Memory required for data: 1132256544
I0403 17:53:28.396109  6228 layer_factory.hpp:77] Creating layer inception_4d/relu_5x5_reduce
I0403 17:53:28.396136  6228 net.cpp:91] Creating Layer inception_4d/relu_5x5_reduce
I0403 17:53:28.396157  6228 net.cpp:425] inception_4d/relu_5x5_reduce <- inception_4d/5x5_reduce
I0403 17:53:28.396178  6228 net.cpp:386] inception_4d/relu_5x5_reduce -> inception_4d/5x5_reduce (in-place)
I0403 17:53:28.396419  6228 net.cpp:141] Setting up inception_4d/relu_5x5_reduce
I0403 17:53:28.396452  6228 net.cpp:148] Top shape: 24 32 14 14 (150528)
I0403 17:53:28.396472  6228 net.cpp:156] Memory required for data: 1132858656
I0403 17:53:28.396491  6228 layer_factory.hpp:77] Creating layer inception_4d/5x5
I0403 17:53:28.396518  6228 net.cpp:91] Creating Layer inception_4d/5x5
I0403 17:53:28.396541  6228 net.cpp:425] inception_4d/5x5 <- inception_4d/5x5_reduce
I0403 17:53:28.396565  6228 net.cpp:399] inception_4d/5x5 -> inception_4d/5x5
I0403 17:53:28.398370  6228 net.cpp:141] Setting up inception_4d/5x5
I0403 17:53:28.398407  6228 net.cpp:148] Top shape: 24 64 14 14 (301056)
I0403 17:53:28.398427  6228 net.cpp:156] Memory required for data: 1134062880
I0403 17:53:28.398452  6228 layer_factory.hpp:77] Creating layer inception_4d/relu_5x5
I0403 17:53:28.398493  6228 net.cpp:91] Creating Layer inception_4d/relu_5x5
I0403 17:53:28.398514  6228 net.cpp:425] inception_4d/relu_5x5 <- inception_4d/5x5
I0403 17:53:28.398540  6228 net.cpp:386] inception_4d/relu_5x5 -> inception_4d/5x5 (in-place)
I0403 17:53:28.398910  6228 net.cpp:141] Setting up inception_4d/relu_5x5
I0403 17:53:28.398947  6228 net.cpp:148] Top shape: 24 64 14 14 (301056)
I0403 17:53:28.398968  6228 net.cpp:156] Memory required for data: 1135267104
I0403 17:53:28.398986  6228 layer_factory.hpp:77] Creating layer inception_4d/pool
I0403 17:53:28.399009  6228 net.cpp:91] Creating Layer inception_4d/pool
I0403 17:53:28.399029  6228 net.cpp:425] inception_4d/pool <- inception_4c/output_inception_4c/output_0_split_3
I0403 17:53:28.399055  6228 net.cpp:399] inception_4d/pool -> inception_4d/pool
I0403 17:53:28.399137  6228 net.cpp:141] Setting up inception_4d/pool
I0403 17:53:28.399170  6228 net.cpp:148] Top shape: 24 512 14 14 (2408448)
I0403 17:53:28.399191  6228 net.cpp:156] Memory required for data: 1144900896
I0403 17:53:28.399214  6228 layer_factory.hpp:77] Creating layer inception_4d/pool_proj
I0403 17:53:28.399242  6228 net.cpp:91] Creating Layer inception_4d/pool_proj
I0403 17:53:28.399263  6228 net.cpp:425] inception_4d/pool_proj <- inception_4d/pool
I0403 17:53:28.399289  6228 net.cpp:399] inception_4d/pool_proj -> inception_4d/pool_proj
I0403 17:53:28.401444  6228 net.cpp:141] Setting up inception_4d/pool_proj
I0403 17:53:28.401480  6228 net.cpp:148] Top shape: 24 64 14 14 (301056)
I0403 17:53:28.401505  6228 net.cpp:156] Memory required for data: 1146105120
I0403 17:53:28.401530  6228 layer_factory.hpp:77] Creating layer inception_4d/relu_pool_proj
I0403 17:53:28.401554  6228 net.cpp:91] Creating Layer inception_4d/relu_pool_proj
I0403 17:53:28.401576  6228 net.cpp:425] inception_4d/relu_pool_proj <- inception_4d/pool_proj
I0403 17:53:28.401597  6228 net.cpp:386] inception_4d/relu_pool_proj -> inception_4d/pool_proj (in-place)
I0403 17:53:28.401826  6228 net.cpp:141] Setting up inception_4d/relu_pool_proj
I0403 17:53:28.401861  6228 net.cpp:148] Top shape: 24 64 14 14 (301056)
I0403 17:53:28.401881  6228 net.cpp:156] Memory required for data: 1147309344
I0403 17:53:28.401901  6228 layer_factory.hpp:77] Creating layer inception_4d/output
I0403 17:53:28.401921  6228 net.cpp:91] Creating Layer inception_4d/output
I0403 17:53:28.401940  6228 net.cpp:425] inception_4d/output <- inception_4d/1x1
I0403 17:53:28.401962  6228 net.cpp:425] inception_4d/output <- inception_4d/3x3
I0403 17:53:28.401981  6228 net.cpp:425] inception_4d/output <- inception_4d/5x5
I0403 17:53:28.402000  6228 net.cpp:425] inception_4d/output <- inception_4d/pool_proj
I0403 17:53:28.402020  6228 net.cpp:399] inception_4d/output -> inception_4d/output
I0403 17:53:28.402091  6228 net.cpp:141] Setting up inception_4d/output
I0403 17:53:28.402119  6228 net.cpp:148] Top shape: 24 528 14 14 (2483712)
I0403 17:53:28.402138  6228 net.cpp:156] Memory required for data: 1157244192
I0403 17:53:28.402156  6228 layer_factory.hpp:77] Creating layer inception_4d/output_inception_4d/output_0_split
I0403 17:53:28.402181  6228 net.cpp:91] Creating Layer inception_4d/output_inception_4d/output_0_split
I0403 17:53:28.402202  6228 net.cpp:425] inception_4d/output_inception_4d/output_0_split <- inception_4d/output
I0403 17:53:28.402230  6228 net.cpp:399] inception_4d/output_inception_4d/output_0_split -> inception_4d/output_inception_4d/output_0_split_0
I0403 17:53:28.402257  6228 net.cpp:399] inception_4d/output_inception_4d/output_0_split -> inception_4d/output_inception_4d/output_0_split_1
I0403 17:53:28.402286  6228 net.cpp:399] inception_4d/output_inception_4d/output_0_split -> inception_4d/output_inception_4d/output_0_split_2
I0403 17:53:28.402313  6228 net.cpp:399] inception_4d/output_inception_4d/output_0_split -> inception_4d/output_inception_4d/output_0_split_3
I0403 17:53:28.402339  6228 net.cpp:399] inception_4d/output_inception_4d/output_0_split -> inception_4d/output_inception_4d/output_0_split_4
I0403 17:53:28.402472  6228 net.cpp:141] Setting up inception_4d/output_inception_4d/output_0_split
I0403 17:53:28.402518  6228 net.cpp:148] Top shape: 24 528 14 14 (2483712)
I0403 17:53:28.402540  6228 net.cpp:148] Top shape: 24 528 14 14 (2483712)
I0403 17:53:28.402560  6228 net.cpp:148] Top shape: 24 528 14 14 (2483712)
I0403 17:53:28.402580  6228 net.cpp:148] Top shape: 24 528 14 14 (2483712)
I0403 17:53:28.402601  6228 net.cpp:148] Top shape: 24 528 14 14 (2483712)
I0403 17:53:28.402618  6228 net.cpp:156] Memory required for data: 1206918432
I0403 17:53:28.402637  6228 layer_factory.hpp:77] Creating layer loss2/ave_pool
I0403 17:53:28.402662  6228 net.cpp:91] Creating Layer loss2/ave_pool
I0403 17:53:28.402683  6228 net.cpp:425] loss2/ave_pool <- inception_4d/output_inception_4d/output_0_split_0
I0403 17:53:28.402705  6228 net.cpp:399] loss2/ave_pool -> loss2/ave_pool
I0403 17:53:28.403086  6228 net.cpp:141] Setting up loss2/ave_pool
I0403 17:53:28.403118  6228 net.cpp:148] Top shape: 24 528 4 4 (202752)
I0403 17:53:28.403138  6228 net.cpp:156] Memory required for data: 1207729440
I0403 17:53:28.403156  6228 layer_factory.hpp:77] Creating layer loss2/conv
I0403 17:53:28.403187  6228 net.cpp:91] Creating Layer loss2/conv
I0403 17:53:28.403219  6228 net.cpp:425] loss2/conv <- loss2/ave_pool
I0403 17:53:28.403249  6228 net.cpp:399] loss2/conv -> loss2/conv
I0403 17:53:28.405576  6228 net.cpp:141] Setting up loss2/conv
I0403 17:53:28.405612  6228 net.cpp:148] Top shape: 24 128 4 4 (49152)
I0403 17:53:28.405632  6228 net.cpp:156] Memory required for data: 1207926048
I0403 17:53:28.405655  6228 layer_factory.hpp:77] Creating layer loss2/relu_conv
I0403 17:53:28.405678  6228 net.cpp:91] Creating Layer loss2/relu_conv
I0403 17:53:28.405699  6228 net.cpp:425] loss2/relu_conv <- loss2/conv
I0403 17:53:28.405722  6228 net.cpp:386] loss2/relu_conv -> loss2/conv (in-place)
I0403 17:53:28.406075  6228 net.cpp:141] Setting up loss2/relu_conv
I0403 17:53:28.406107  6228 net.cpp:148] Top shape: 24 128 4 4 (49152)
I0403 17:53:28.406126  6228 net.cpp:156] Memory required for data: 1208122656
I0403 17:53:28.406144  6228 layer_factory.hpp:77] Creating layer loss2/fc
I0403 17:53:28.406168  6228 net.cpp:91] Creating Layer loss2/fc
I0403 17:53:28.406189  6228 net.cpp:425] loss2/fc <- loss2/conv
I0403 17:53:28.406220  6228 net.cpp:399] loss2/fc -> loss2/fc
I0403 17:53:28.428125  6228 net.cpp:141] Setting up loss2/fc
I0403 17:53:28.428169  6228 net.cpp:148] Top shape: 24 1024 (24576)
I0403 17:53:28.428189  6228 net.cpp:156] Memory required for data: 1208220960
I0403 17:53:28.428216  6228 layer_factory.hpp:77] Creating layer loss2/relu_fc
I0403 17:53:28.428241  6228 net.cpp:91] Creating Layer loss2/relu_fc
I0403 17:53:28.428262  6228 net.cpp:425] loss2/relu_fc <- loss2/fc
I0403 17:53:28.428284  6228 net.cpp:386] loss2/relu_fc -> loss2/fc (in-place)
I0403 17:53:28.428647  6228 net.cpp:141] Setting up loss2/relu_fc
I0403 17:53:28.428681  6228 net.cpp:148] Top shape: 24 1024 (24576)
I0403 17:53:28.428701  6228 net.cpp:156] Memory required for data: 1208319264
I0403 17:53:28.428721  6228 layer_factory.hpp:77] Creating layer loss2/drop_fc
I0403 17:53:28.428745  6228 net.cpp:91] Creating Layer loss2/drop_fc
I0403 17:53:28.428764  6228 net.cpp:425] loss2/drop_fc <- loss2/fc
I0403 17:53:28.428786  6228 net.cpp:386] loss2/drop_fc -> loss2/fc (in-place)
I0403 17:53:28.428848  6228 net.cpp:141] Setting up loss2/drop_fc
I0403 17:53:28.428877  6228 net.cpp:148] Top shape: 24 1024 (24576)
I0403 17:53:28.428896  6228 net.cpp:156] Memory required for data: 1208417568
I0403 17:53:28.428915  6228 layer_factory.hpp:77] Creating layer loss2/classifier_plantvillage
I0403 17:53:28.428941  6228 net.cpp:91] Creating Layer loss2/classifier_plantvillage
I0403 17:53:28.428961  6228 net.cpp:425] loss2/classifier_plantvillage <- loss2/fc
I0403 17:53:28.428984  6228 net.cpp:399] loss2/classifier_plantvillage -> loss2/classifier_plantvillage
I0403 17:53:28.429488  6228 net.cpp:141] Setting up loss2/classifier_plantvillage
I0403 17:53:28.429520  6228 net.cpp:148] Top shape: 24 38 (912)
I0403 17:53:28.429558  6228 net.cpp:156] Memory required for data: 1208421216
I0403 17:53:28.429581  6228 layer_factory.hpp:77] Creating layer loss2/classifier_plantvillage_loss2/classifier_plantvillage_0_split
I0403 17:53:28.429605  6228 net.cpp:91] Creating Layer loss2/classifier_plantvillage_loss2/classifier_plantvillage_0_split
I0403 17:53:28.429623  6228 net.cpp:425] loss2/classifier_plantvillage_loss2/classifier_plantvillage_0_split <- loss2/classifier_plantvillage
I0403 17:53:28.429648  6228 net.cpp:399] loss2/classifier_plantvillage_loss2/classifier_plantvillage_0_split -> loss2/classifier_plantvillage_loss2/classifier_plantvillage_0_split_0
I0403 17:53:28.429674  6228 net.cpp:399] loss2/classifier_plantvillage_loss2/classifier_plantvillage_0_split -> loss2/classifier_plantvillage_loss2/classifier_plantvillage_0_split_1
I0403 17:53:28.429702  6228 net.cpp:399] loss2/classifier_plantvillage_loss2/classifier_plantvillage_0_split -> loss2/classifier_plantvillage_loss2/classifier_plantvillage_0_split_2
I0403 17:53:28.429796  6228 net.cpp:141] Setting up loss2/classifier_plantvillage_loss2/classifier_plantvillage_0_split
I0403 17:53:28.429827  6228 net.cpp:148] Top shape: 24 38 (912)
I0403 17:53:28.429849  6228 net.cpp:148] Top shape: 24 38 (912)
I0403 17:53:28.429868  6228 net.cpp:148] Top shape: 24 38 (912)
I0403 17:53:28.429885  6228 net.cpp:156] Memory required for data: 1208432160
I0403 17:53:28.429904  6228 layer_factory.hpp:77] Creating layer inception_4e/1x1
I0403 17:53:28.429932  6228 net.cpp:91] Creating Layer inception_4e/1x1
I0403 17:53:28.429955  6228 net.cpp:425] inception_4e/1x1 <- inception_4d/output_inception_4d/output_0_split_1
I0403 17:53:28.429980  6228 net.cpp:399] inception_4e/1x1 -> inception_4e/1x1
I0403 17:53:28.432235  6228 net.cpp:141] Setting up inception_4e/1x1
I0403 17:53:28.432271  6228 net.cpp:148] Top shape: 24 256 14 14 (1204224)
I0403 17:53:28.432291  6228 net.cpp:156] Memory required for data: 1213249056
I0403 17:53:28.432313  6228 layer_factory.hpp:77] Creating layer inception_4e/relu_1x1
I0403 17:53:28.432337  6228 net.cpp:91] Creating Layer inception_4e/relu_1x1
I0403 17:53:28.432356  6228 net.cpp:425] inception_4e/relu_1x1 <- inception_4e/1x1
I0403 17:53:28.432380  6228 net.cpp:386] inception_4e/relu_1x1 -> inception_4e/1x1 (in-place)
I0403 17:53:28.432746  6228 net.cpp:141] Setting up inception_4e/relu_1x1
I0403 17:53:28.432780  6228 net.cpp:148] Top shape: 24 256 14 14 (1204224)
I0403 17:53:28.432799  6228 net.cpp:156] Memory required for data: 1218065952
I0403 17:53:28.432818  6228 layer_factory.hpp:77] Creating layer inception_4e/3x3_reduce
I0403 17:53:28.432847  6228 net.cpp:91] Creating Layer inception_4e/3x3_reduce
I0403 17:53:28.432869  6228 net.cpp:425] inception_4e/3x3_reduce <- inception_4d/output_inception_4d/output_0_split_2
I0403 17:53:28.432896  6228 net.cpp:399] inception_4e/3x3_reduce -> inception_4e/3x3_reduce
I0403 17:53:28.435499  6228 net.cpp:141] Setting up inception_4e/3x3_reduce
I0403 17:53:28.435539  6228 net.cpp:148] Top shape: 24 160 14 14 (752640)
I0403 17:53:28.435559  6228 net.cpp:156] Memory required for data: 1221076512
I0403 17:53:28.435582  6228 layer_factory.hpp:77] Creating layer inception_4e/relu_3x3_reduce
I0403 17:53:28.435605  6228 net.cpp:91] Creating Layer inception_4e/relu_3x3_reduce
I0403 17:53:28.435626  6228 net.cpp:425] inception_4e/relu_3x3_reduce <- inception_4e/3x3_reduce
I0403 17:53:28.435649  6228 net.cpp:386] inception_4e/relu_3x3_reduce -> inception_4e/3x3_reduce (in-place)
I0403 17:53:28.435885  6228 net.cpp:141] Setting up inception_4e/relu_3x3_reduce
I0403 17:53:28.435916  6228 net.cpp:148] Top shape: 24 160 14 14 (752640)
I0403 17:53:28.435935  6228 net.cpp:156] Memory required for data: 1224087072
I0403 17:53:28.435955  6228 layer_factory.hpp:77] Creating layer inception_4e/3x3
I0403 17:53:28.435981  6228 net.cpp:91] Creating Layer inception_4e/3x3
I0403 17:53:28.436005  6228 net.cpp:425] inception_4e/3x3 <- inception_4e/3x3_reduce
I0403 17:53:28.436035  6228 net.cpp:399] inception_4e/3x3 -> inception_4e/3x3
I0403 17:53:28.442256  6228 net.cpp:141] Setting up inception_4e/3x3
I0403 17:53:28.442306  6228 net.cpp:148] Top shape: 24 320 14 14 (1505280)
I0403 17:53:28.442327  6228 net.cpp:156] Memory required for data: 1230108192
I0403 17:53:28.442349  6228 layer_factory.hpp:77] Creating layer inception_4e/relu_3x3
I0403 17:53:28.442374  6228 net.cpp:91] Creating Layer inception_4e/relu_3x3
I0403 17:53:28.442396  6228 net.cpp:425] inception_4e/relu_3x3 <- inception_4e/3x3
I0403 17:53:28.442417  6228 net.cpp:386] inception_4e/relu_3x3 -> inception_4e/3x3 (in-place)
I0403 17:53:28.442783  6228 net.cpp:141] Setting up inception_4e/relu_3x3
I0403 17:53:28.442817  6228 net.cpp:148] Top shape: 24 320 14 14 (1505280)
I0403 17:53:28.442837  6228 net.cpp:156] Memory required for data: 1236129312
I0403 17:53:28.442857  6228 layer_factory.hpp:77] Creating layer inception_4e/5x5_reduce
I0403 17:53:28.442884  6228 net.cpp:91] Creating Layer inception_4e/5x5_reduce
I0403 17:53:28.442906  6228 net.cpp:425] inception_4e/5x5_reduce <- inception_4d/output_inception_4d/output_0_split_3
I0403 17:53:28.442936  6228 net.cpp:399] inception_4e/5x5_reduce -> inception_4e/5x5_reduce
I0403 17:53:28.444290  6228 net.cpp:141] Setting up inception_4e/5x5_reduce
I0403 17:53:28.444329  6228 net.cpp:148] Top shape: 24 32 14 14 (150528)
I0403 17:53:28.444350  6228 net.cpp:156] Memory required for data: 1236731424
I0403 17:53:28.444373  6228 layer_factory.hpp:77] Creating layer inception_4e/relu_5x5_reduce
I0403 17:53:28.444396  6228 net.cpp:91] Creating Layer inception_4e/relu_5x5_reduce
I0403 17:53:28.444416  6228 net.cpp:425] inception_4e/relu_5x5_reduce <- inception_4e/5x5_reduce
I0403 17:53:28.444442  6228 net.cpp:386] inception_4e/relu_5x5_reduce -> inception_4e/5x5_reduce (in-place)
I0403 17:53:28.444804  6228 net.cpp:141] Setting up inception_4e/relu_5x5_reduce
I0403 17:53:28.444839  6228 net.cpp:148] Top shape: 24 32 14 14 (150528)
I0403 17:53:28.444859  6228 net.cpp:156] Memory required for data: 1237333536
I0403 17:53:28.444880  6228 layer_factory.hpp:77] Creating layer inception_4e/5x5
I0403 17:53:28.444926  6228 net.cpp:91] Creating Layer inception_4e/5x5
I0403 17:53:28.444949  6228 net.cpp:425] inception_4e/5x5 <- inception_4e/5x5_reduce
I0403 17:53:28.444973  6228 net.cpp:399] inception_4e/5x5 -> inception_4e/5x5
I0403 17:53:28.447234  6228 net.cpp:141] Setting up inception_4e/5x5
I0403 17:53:28.447269  6228 net.cpp:148] Top shape: 24 128 14 14 (602112)
I0403 17:53:28.447289  6228 net.cpp:156] Memory required for data: 1239741984
I0403 17:53:28.447314  6228 layer_factory.hpp:77] Creating layer inception_4e/relu_5x5
I0403 17:53:28.447338  6228 net.cpp:91] Creating Layer inception_4e/relu_5x5
I0403 17:53:28.447360  6228 net.cpp:425] inception_4e/relu_5x5 <- inception_4e/5x5
I0403 17:53:28.447381  6228 net.cpp:386] inception_4e/relu_5x5 -> inception_4e/5x5 (in-place)
I0403 17:53:28.447625  6228 net.cpp:141] Setting up inception_4e/relu_5x5
I0403 17:53:28.447659  6228 net.cpp:148] Top shape: 24 128 14 14 (602112)
I0403 17:53:28.447679  6228 net.cpp:156] Memory required for data: 1242150432
I0403 17:53:28.447698  6228 layer_factory.hpp:77] Creating layer inception_4e/pool
I0403 17:53:28.447721  6228 net.cpp:91] Creating Layer inception_4e/pool
I0403 17:53:28.447741  6228 net.cpp:425] inception_4e/pool <- inception_4d/output_inception_4d/output_0_split_4
I0403 17:53:28.447764  6228 net.cpp:399] inception_4e/pool -> inception_4e/pool
I0403 17:53:28.447852  6228 net.cpp:141] Setting up inception_4e/pool
I0403 17:53:28.447882  6228 net.cpp:148] Top shape: 24 528 14 14 (2483712)
I0403 17:53:28.447901  6228 net.cpp:156] Memory required for data: 1252085280
I0403 17:53:28.447921  6228 layer_factory.hpp:77] Creating layer inception_4e/pool_proj
I0403 17:53:28.447954  6228 net.cpp:91] Creating Layer inception_4e/pool_proj
I0403 17:53:28.447976  6228 net.cpp:425] inception_4e/pool_proj <- inception_4e/pool
I0403 17:53:28.447999  6228 net.cpp:399] inception_4e/pool_proj -> inception_4e/pool_proj
I0403 17:53:28.449867  6228 net.cpp:141] Setting up inception_4e/pool_proj
I0403 17:53:28.449916  6228 net.cpp:148] Top shape: 24 128 14 14 (602112)
I0403 17:53:28.449937  6228 net.cpp:156] Memory required for data: 1254493728
I0403 17:53:28.449960  6228 layer_factory.hpp:77] Creating layer inception_4e/relu_pool_proj
I0403 17:53:28.449985  6228 net.cpp:91] Creating Layer inception_4e/relu_pool_proj
I0403 17:53:28.450007  6228 net.cpp:425] inception_4e/relu_pool_proj <- inception_4e/pool_proj
I0403 17:53:28.450028  6228 net.cpp:386] inception_4e/relu_pool_proj -> inception_4e/pool_proj (in-place)
I0403 17:53:28.450389  6228 net.cpp:141] Setting up inception_4e/relu_pool_proj
I0403 17:53:28.450423  6228 net.cpp:148] Top shape: 24 128 14 14 (602112)
I0403 17:53:28.450443  6228 net.cpp:156] Memory required for data: 1256902176
I0403 17:53:28.450460  6228 layer_factory.hpp:77] Creating layer inception_4e/output
I0403 17:53:28.450485  6228 net.cpp:91] Creating Layer inception_4e/output
I0403 17:53:28.450506  6228 net.cpp:425] inception_4e/output <- inception_4e/1x1
I0403 17:53:28.450527  6228 net.cpp:425] inception_4e/output <- inception_4e/3x3
I0403 17:53:28.450546  6228 net.cpp:425] inception_4e/output <- inception_4e/5x5
I0403 17:53:28.450565  6228 net.cpp:425] inception_4e/output <- inception_4e/pool_proj
I0403 17:53:28.450587  6228 net.cpp:399] inception_4e/output -> inception_4e/output
I0403 17:53:28.450649  6228 net.cpp:141] Setting up inception_4e/output
I0403 17:53:28.450678  6228 net.cpp:148] Top shape: 24 832 14 14 (3913728)
I0403 17:53:28.450697  6228 net.cpp:156] Memory required for data: 1272557088
I0403 17:53:28.450716  6228 layer_factory.hpp:77] Creating layer pool4/3x3_s2
I0403 17:53:28.450739  6228 net.cpp:91] Creating Layer pool4/3x3_s2
I0403 17:53:28.450759  6228 net.cpp:425] pool4/3x3_s2 <- inception_4e/output
I0403 17:53:28.450784  6228 net.cpp:399] pool4/3x3_s2 -> pool4/3x3_s2
I0403 17:53:28.450870  6228 net.cpp:141] Setting up pool4/3x3_s2
I0403 17:53:28.450898  6228 net.cpp:148] Top shape: 24 832 7 7 (978432)
I0403 17:53:28.450917  6228 net.cpp:156] Memory required for data: 1276470816
I0403 17:53:28.450937  6228 layer_factory.hpp:77] Creating layer pool4/3x3_s2_pool4/3x3_s2_0_split
I0403 17:53:28.450963  6228 net.cpp:91] Creating Layer pool4/3x3_s2_pool4/3x3_s2_0_split
I0403 17:53:28.450984  6228 net.cpp:425] pool4/3x3_s2_pool4/3x3_s2_0_split <- pool4/3x3_s2
I0403 17:53:28.451009  6228 net.cpp:399] pool4/3x3_s2_pool4/3x3_s2_0_split -> pool4/3x3_s2_pool4/3x3_s2_0_split_0
I0403 17:53:28.451035  6228 net.cpp:399] pool4/3x3_s2_pool4/3x3_s2_0_split -> pool4/3x3_s2_pool4/3x3_s2_0_split_1
I0403 17:53:28.451061  6228 net.cpp:399] pool4/3x3_s2_pool4/3x3_s2_0_split -> pool4/3x3_s2_pool4/3x3_s2_0_split_2
I0403 17:53:28.451086  6228 net.cpp:399] pool4/3x3_s2_pool4/3x3_s2_0_split -> pool4/3x3_s2_pool4/3x3_s2_0_split_3
I0403 17:53:28.451198  6228 net.cpp:141] Setting up pool4/3x3_s2_pool4/3x3_s2_0_split
I0403 17:53:28.451236  6228 net.cpp:148] Top shape: 24 832 7 7 (978432)
I0403 17:53:28.451258  6228 net.cpp:148] Top shape: 24 832 7 7 (978432)
I0403 17:53:28.451278  6228 net.cpp:148] Top shape: 24 832 7 7 (978432)
I0403 17:53:28.451298  6228 net.cpp:148] Top shape: 24 832 7 7 (978432)
I0403 17:53:28.451315  6228 net.cpp:156] Memory required for data: 1292125728
I0403 17:53:28.451334  6228 layer_factory.hpp:77] Creating layer inception_5a/1x1
I0403 17:53:28.451361  6228 net.cpp:91] Creating Layer inception_5a/1x1
I0403 17:53:28.451385  6228 net.cpp:425] inception_5a/1x1 <- pool4/3x3_s2_pool4/3x3_s2_0_split_0
I0403 17:53:28.451408  6228 net.cpp:399] inception_5a/1x1 -> inception_5a/1x1
I0403 17:53:28.454922  6228 net.cpp:141] Setting up inception_5a/1x1
I0403 17:53:28.454965  6228 net.cpp:148] Top shape: 24 256 7 7 (301056)
I0403 17:53:28.454988  6228 net.cpp:156] Memory required for data: 1293329952
I0403 17:53:28.455010  6228 layer_factory.hpp:77] Creating layer inception_5a/relu_1x1
I0403 17:53:28.455034  6228 net.cpp:91] Creating Layer inception_5a/relu_1x1
I0403 17:53:28.455054  6228 net.cpp:425] inception_5a/relu_1x1 <- inception_5a/1x1
I0403 17:53:28.455075  6228 net.cpp:386] inception_5a/relu_1x1 -> inception_5a/1x1 (in-place)
I0403 17:53:28.455471  6228 net.cpp:141] Setting up inception_5a/relu_1x1
I0403 17:53:28.455505  6228 net.cpp:148] Top shape: 24 256 7 7 (301056)
I0403 17:53:28.455525  6228 net.cpp:156] Memory required for data: 1294534176
I0403 17:53:28.455544  6228 layer_factory.hpp:77] Creating layer inception_5a/3x3_reduce
I0403 17:53:28.455572  6228 net.cpp:91] Creating Layer inception_5a/3x3_reduce
I0403 17:53:28.455595  6228 net.cpp:425] inception_5a/3x3_reduce <- pool4/3x3_s2_pool4/3x3_s2_0_split_1
I0403 17:53:28.455620  6228 net.cpp:399] inception_5a/3x3_reduce -> inception_5a/3x3_reduce
I0403 17:53:28.458643  6228 net.cpp:141] Setting up inception_5a/3x3_reduce
I0403 17:53:28.458681  6228 net.cpp:148] Top shape: 24 160 7 7 (188160)
I0403 17:53:28.458703  6228 net.cpp:156] Memory required for data: 1295286816
I0403 17:53:28.458725  6228 layer_factory.hpp:77] Creating layer inception_5a/relu_3x3_reduce
I0403 17:53:28.458751  6228 net.cpp:91] Creating Layer inception_5a/relu_3x3_reduce
I0403 17:53:28.458772  6228 net.cpp:425] inception_5a/relu_3x3_reduce <- inception_5a/3x3_reduce
I0403 17:53:28.458794  6228 net.cpp:386] inception_5a/relu_3x3_reduce -> inception_5a/3x3_reduce (in-place)
I0403 17:53:28.459030  6228 net.cpp:141] Setting up inception_5a/relu_3x3_reduce
I0403 17:53:28.459065  6228 net.cpp:148] Top shape: 24 160 7 7 (188160)
I0403 17:53:28.459085  6228 net.cpp:156] Memory required for data: 1296039456
I0403 17:53:28.459105  6228 layer_factory.hpp:77] Creating layer inception_5a/3x3
I0403 17:53:28.459133  6228 net.cpp:91] Creating Layer inception_5a/3x3
I0403 17:53:28.459156  6228 net.cpp:425] inception_5a/3x3 <- inception_5a/3x3_reduce
I0403 17:53:28.459180  6228 net.cpp:399] inception_5a/3x3 -> inception_5a/3x3
I0403 17:53:28.465438  6228 net.cpp:141] Setting up inception_5a/3x3
I0403 17:53:28.465476  6228 net.cpp:148] Top shape: 24 320 7 7 (376320)
I0403 17:53:28.465497  6228 net.cpp:156] Memory required for data: 1297544736
I0403 17:53:28.465522  6228 layer_factory.hpp:77] Creating layer inception_5a/relu_3x3
I0403 17:53:28.465544  6228 net.cpp:91] Creating Layer inception_5a/relu_3x3
I0403 17:53:28.465564  6228 net.cpp:425] inception_5a/relu_3x3 <- inception_5a/3x3
I0403 17:53:28.465590  6228 net.cpp:386] inception_5a/relu_3x3 -> inception_5a/3x3 (in-place)
I0403 17:53:28.465950  6228 net.cpp:141] Setting up inception_5a/relu_3x3
I0403 17:53:28.465986  6228 net.cpp:148] Top shape: 24 320 7 7 (376320)
I0403 17:53:28.466006  6228 net.cpp:156] Memory required for data: 1299050016
I0403 17:53:28.466025  6228 layer_factory.hpp:77] Creating layer inception_5a/5x5_reduce
I0403 17:53:28.466054  6228 net.cpp:91] Creating Layer inception_5a/5x5_reduce
I0403 17:53:28.466078  6228 net.cpp:425] inception_5a/5x5_reduce <- pool4/3x3_s2_pool4/3x3_s2_0_split_2
I0403 17:53:28.466100  6228 net.cpp:399] inception_5a/5x5_reduce -> inception_5a/5x5_reduce
I0403 17:53:28.467551  6228 net.cpp:141] Setting up inception_5a/5x5_reduce
I0403 17:53:28.467591  6228 net.cpp:148] Top shape: 24 32 7 7 (37632)
I0403 17:53:28.467612  6228 net.cpp:156] Memory required for data: 1299200544
I0403 17:53:28.467634  6228 layer_factory.hpp:77] Creating layer inception_5a/relu_5x5_reduce
I0403 17:53:28.467658  6228 net.cpp:91] Creating Layer inception_5a/relu_5x5_reduce
I0403 17:53:28.467677  6228 net.cpp:425] inception_5a/relu_5x5_reduce <- inception_5a/5x5_reduce
I0403 17:53:28.467701  6228 net.cpp:386] inception_5a/relu_5x5_reduce -> inception_5a/5x5_reduce (in-place)
I0403 17:53:28.468063  6228 net.cpp:141] Setting up inception_5a/relu_5x5_reduce
I0403 17:53:28.468096  6228 net.cpp:148] Top shape: 24 32 7 7 (37632)
I0403 17:53:28.468116  6228 net.cpp:156] Memory required for data: 1299351072
I0403 17:53:28.468135  6228 layer_factory.hpp:77] Creating layer inception_5a/5x5
I0403 17:53:28.468163  6228 net.cpp:91] Creating Layer inception_5a/5x5
I0403 17:53:28.468184  6228 net.cpp:425] inception_5a/5x5 <- inception_5a/5x5_reduce
I0403 17:53:28.468215  6228 net.cpp:399] inception_5a/5x5 -> inception_5a/5x5
I0403 17:53:28.470366  6228 net.cpp:141] Setting up inception_5a/5x5
I0403 17:53:28.470419  6228 net.cpp:148] Top shape: 24 128 7 7 (150528)
I0403 17:53:28.470441  6228 net.cpp:156] Memory required for data: 1299953184
I0403 17:53:28.470465  6228 layer_factory.hpp:77] Creating layer inception_5a/relu_5x5
I0403 17:53:28.470487  6228 net.cpp:91] Creating Layer inception_5a/relu_5x5
I0403 17:53:28.470509  6228 net.cpp:425] inception_5a/relu_5x5 <- inception_5a/5x5
I0403 17:53:28.470532  6228 net.cpp:386] inception_5a/relu_5x5 -> inception_5a/5x5 (in-place)
I0403 17:53:28.470773  6228 net.cpp:141] Setting up inception_5a/relu_5x5
I0403 17:53:28.470805  6228 net.cpp:148] Top shape: 24 128 7 7 (150528)
I0403 17:53:28.470824  6228 net.cpp:156] Memory required for data: 1300555296
I0403 17:53:28.470844  6228 layer_factory.hpp:77] Creating layer inception_5a/pool
I0403 17:53:28.470865  6228 net.cpp:91] Creating Layer inception_5a/pool
I0403 17:53:28.470885  6228 net.cpp:425] inception_5a/pool <- pool4/3x3_s2_pool4/3x3_s2_0_split_3
I0403 17:53:28.470911  6228 net.cpp:399] inception_5a/pool -> inception_5a/pool
I0403 17:53:28.471002  6228 net.cpp:141] Setting up inception_5a/pool
I0403 17:53:28.471031  6228 net.cpp:148] Top shape: 24 832 7 7 (978432)
I0403 17:53:28.471050  6228 net.cpp:156] Memory required for data: 1304469024
I0403 17:53:28.471067  6228 layer_factory.hpp:77] Creating layer inception_5a/pool_proj
I0403 17:53:28.471096  6228 net.cpp:91] Creating Layer inception_5a/pool_proj
I0403 17:53:28.471119  6228 net.cpp:425] inception_5a/pool_proj <- inception_5a/pool
I0403 17:53:28.471143  6228 net.cpp:399] inception_5a/pool_proj -> inception_5a/pool_proj
I0403 17:53:28.473973  6228 net.cpp:141] Setting up inception_5a/pool_proj
I0403 17:53:28.474011  6228 net.cpp:148] Top shape: 24 128 7 7 (150528)
I0403 17:53:28.474031  6228 net.cpp:156] Memory required for data: 1305071136
I0403 17:53:28.474056  6228 layer_factory.hpp:77] Creating layer inception_5a/relu_pool_proj
I0403 17:53:28.474081  6228 net.cpp:91] Creating Layer inception_5a/relu_pool_proj
I0403 17:53:28.474102  6228 net.cpp:425] inception_5a/relu_pool_proj <- inception_5a/pool_proj
I0403 17:53:28.474124  6228 net.cpp:386] inception_5a/relu_pool_proj -> inception_5a/pool_proj (in-place)
I0403 17:53:28.474489  6228 net.cpp:141] Setting up inception_5a/relu_pool_proj
I0403 17:53:28.474521  6228 net.cpp:148] Top shape: 24 128 7 7 (150528)
I0403 17:53:28.474545  6228 net.cpp:156] Memory required for data: 1305673248
I0403 17:53:28.474563  6228 layer_factory.hpp:77] Creating layer inception_5a/output
I0403 17:53:28.474586  6228 net.cpp:91] Creating Layer inception_5a/output
I0403 17:53:28.474606  6228 net.cpp:425] inception_5a/output <- inception_5a/1x1
I0403 17:53:28.474627  6228 net.cpp:425] inception_5a/output <- inception_5a/3x3
I0403 17:53:28.474647  6228 net.cpp:425] inception_5a/output <- inception_5a/5x5
I0403 17:53:28.474668  6228 net.cpp:425] inception_5a/output <- inception_5a/pool_proj
I0403 17:53:28.474689  6228 net.cpp:399] inception_5a/output -> inception_5a/output
I0403 17:53:28.474752  6228 net.cpp:141] Setting up inception_5a/output
I0403 17:53:28.474782  6228 net.cpp:148] Top shape: 24 832 7 7 (978432)
I0403 17:53:28.474800  6228 net.cpp:156] Memory required for data: 1309586976
I0403 17:53:28.474818  6228 layer_factory.hpp:77] Creating layer inception_5a/output_inception_5a/output_0_split
I0403 17:53:28.474840  6228 net.cpp:91] Creating Layer inception_5a/output_inception_5a/output_0_split
I0403 17:53:28.474859  6228 net.cpp:425] inception_5a/output_inception_5a/output_0_split <- inception_5a/output
I0403 17:53:28.474884  6228 net.cpp:399] inception_5a/output_inception_5a/output_0_split -> inception_5a/output_inception_5a/output_0_split_0
I0403 17:53:28.474912  6228 net.cpp:399] inception_5a/output_inception_5a/output_0_split -> inception_5a/output_inception_5a/output_0_split_1
I0403 17:53:28.474938  6228 net.cpp:399] inception_5a/output_inception_5a/output_0_split -> inception_5a/output_inception_5a/output_0_split_2
I0403 17:53:28.474964  6228 net.cpp:399] inception_5a/output_inception_5a/output_0_split -> inception_5a/output_inception_5a/output_0_split_3
I0403 17:53:28.475105  6228 net.cpp:141] Setting up inception_5a/output_inception_5a/output_0_split
I0403 17:53:28.475136  6228 net.cpp:148] Top shape: 24 832 7 7 (978432)
I0403 17:53:28.475157  6228 net.cpp:148] Top shape: 24 832 7 7 (978432)
I0403 17:53:28.475178  6228 net.cpp:148] Top shape: 24 832 7 7 (978432)
I0403 17:53:28.475198  6228 net.cpp:148] Top shape: 24 832 7 7 (978432)
I0403 17:53:28.475222  6228 net.cpp:156] Memory required for data: 1325241888
I0403 17:53:28.475241  6228 layer_factory.hpp:77] Creating layer inception_5b/1x1
I0403 17:53:28.475272  6228 net.cpp:91] Creating Layer inception_5b/1x1
I0403 17:53:28.475296  6228 net.cpp:425] inception_5b/1x1 <- inception_5a/output_inception_5a/output_0_split_0
I0403 17:53:28.475322  6228 net.cpp:399] inception_5b/1x1 -> inception_5b/1x1
I0403 17:53:28.479954  6228 net.cpp:141] Setting up inception_5b/1x1
I0403 17:53:28.479990  6228 net.cpp:148] Top shape: 24 384 7 7 (451584)
I0403 17:53:28.480010  6228 net.cpp:156] Memory required for data: 1327048224
I0403 17:53:28.480032  6228 layer_factory.hpp:77] Creating layer inception_5b/relu_1x1
I0403 17:53:28.480058  6228 net.cpp:91] Creating Layer inception_5b/relu_1x1
I0403 17:53:28.480079  6228 net.cpp:425] inception_5b/relu_1x1 <- inception_5b/1x1
I0403 17:53:28.480103  6228 net.cpp:386] inception_5b/relu_1x1 -> inception_5b/1x1 (in-place)
I0403 17:53:28.480479  6228 net.cpp:141] Setting up inception_5b/relu_1x1
I0403 17:53:28.480512  6228 net.cpp:148] Top shape: 24 384 7 7 (451584)
I0403 17:53:28.480531  6228 net.cpp:156] Memory required for data: 1328854560
I0403 17:53:28.480551  6228 layer_factory.hpp:77] Creating layer inception_5b/3x3_reduce
I0403 17:53:28.480579  6228 net.cpp:91] Creating Layer inception_5b/3x3_reduce
I0403 17:53:28.480603  6228 net.cpp:425] inception_5b/3x3_reduce <- inception_5a/output_inception_5a/output_0_split_1
I0403 17:53:28.480631  6228 net.cpp:399] inception_5b/3x3_reduce -> inception_5b/3x3_reduce
I0403 17:53:28.483922  6228 net.cpp:141] Setting up inception_5b/3x3_reduce
I0403 17:53:28.483959  6228 net.cpp:148] Top shape: 24 192 7 7 (225792)
I0403 17:53:28.483979  6228 net.cpp:156] Memory required for data: 1329757728
I0403 17:53:28.484004  6228 layer_factory.hpp:77] Creating layer inception_5b/relu_3x3_reduce
I0403 17:53:28.484030  6228 net.cpp:91] Creating Layer inception_5b/relu_3x3_reduce
I0403 17:53:28.484052  6228 net.cpp:425] inception_5b/relu_3x3_reduce <- inception_5b/3x3_reduce
I0403 17:53:28.484073  6228 net.cpp:386] inception_5b/relu_3x3_reduce -> inception_5b/3x3_reduce (in-place)
I0403 17:53:28.484321  6228 net.cpp:141] Setting up inception_5b/relu_3x3_reduce
I0403 17:53:28.484356  6228 net.cpp:148] Top shape: 24 192 7 7 (225792)
I0403 17:53:28.484376  6228 net.cpp:156] Memory required for data: 1330660896
I0403 17:53:28.484395  6228 layer_factory.hpp:77] Creating layer inception_5b/3x3
I0403 17:53:28.484424  6228 net.cpp:91] Creating Layer inception_5b/3x3
I0403 17:53:28.484447  6228 net.cpp:425] inception_5b/3x3 <- inception_5b/3x3_reduce
I0403 17:53:28.484472  6228 net.cpp:399] inception_5b/3x3 -> inception_5b/3x3
I0403 17:53:28.492835  6228 net.cpp:141] Setting up inception_5b/3x3
I0403 17:53:28.492871  6228 net.cpp:148] Top shape: 24 384 7 7 (451584)
I0403 17:53:28.492894  6228 net.cpp:156] Memory required for data: 1332467232
I0403 17:53:28.492918  6228 layer_factory.hpp:77] Creating layer inception_5b/relu_3x3
I0403 17:53:28.492940  6228 net.cpp:91] Creating Layer inception_5b/relu_3x3
I0403 17:53:28.492960  6228 net.cpp:425] inception_5b/relu_3x3 <- inception_5b/3x3
I0403 17:53:28.492981  6228 net.cpp:386] inception_5b/relu_3x3 -> inception_5b/3x3 (in-place)
I0403 17:53:28.493360  6228 net.cpp:141] Setting up inception_5b/relu_3x3
I0403 17:53:28.493393  6228 net.cpp:148] Top shape: 24 384 7 7 (451584)
I0403 17:53:28.493417  6228 net.cpp:156] Memory required for data: 1334273568
I0403 17:53:28.493438  6228 layer_factory.hpp:77] Creating layer inception_5b/5x5_reduce
I0403 17:53:28.493481  6228 net.cpp:91] Creating Layer inception_5b/5x5_reduce
I0403 17:53:28.493505  6228 net.cpp:425] inception_5b/5x5_reduce <- inception_5a/output_inception_5a/output_0_split_2
I0403 17:53:28.493530  6228 net.cpp:399] inception_5b/5x5_reduce -> inception_5b/5x5_reduce
I0403 17:53:28.495116  6228 net.cpp:141] Setting up inception_5b/5x5_reduce
I0403 17:53:28.495152  6228 net.cpp:148] Top shape: 24 48 7 7 (56448)
I0403 17:53:28.495172  6228 net.cpp:156] Memory required for data: 1334499360
I0403 17:53:28.495196  6228 layer_factory.hpp:77] Creating layer inception_5b/relu_5x5_reduce
I0403 17:53:28.495228  6228 net.cpp:91] Creating Layer inception_5b/relu_5x5_reduce
I0403 17:53:28.495250  6228 net.cpp:425] inception_5b/relu_5x5_reduce <- inception_5b/5x5_reduce
I0403 17:53:28.495273  6228 net.cpp:386] inception_5b/relu_5x5_reduce -> inception_5b/5x5_reduce (in-place)
I0403 17:53:28.495731  6228 net.cpp:141] Setting up inception_5b/relu_5x5_reduce
I0403 17:53:28.495764  6228 net.cpp:148] Top shape: 24 48 7 7 (56448)
I0403 17:53:28.495784  6228 net.cpp:156] Memory required for data: 1334725152
I0403 17:53:28.495802  6228 layer_factory.hpp:77] Creating layer inception_5b/5x5
I0403 17:53:28.495828  6228 net.cpp:91] Creating Layer inception_5b/5x5
I0403 17:53:28.495849  6228 net.cpp:425] inception_5b/5x5 <- inception_5b/5x5_reduce
I0403 17:53:28.495873  6228 net.cpp:399] inception_5b/5x5 -> inception_5b/5x5
I0403 17:53:28.498410  6228 net.cpp:141] Setting up inception_5b/5x5
I0403 17:53:28.498450  6228 net.cpp:148] Top shape: 24 128 7 7 (150528)
I0403 17:53:28.498471  6228 net.cpp:156] Memory required for data: 1335327264
I0403 17:53:28.498494  6228 layer_factory.hpp:77] Creating layer inception_5b/relu_5x5
I0403 17:53:28.498517  6228 net.cpp:91] Creating Layer inception_5b/relu_5x5
I0403 17:53:28.498538  6228 net.cpp:425] inception_5b/relu_5x5 <- inception_5b/5x5
I0403 17:53:28.498558  6228 net.cpp:386] inception_5b/relu_5x5 -> inception_5b/5x5 (in-place)
I0403 17:53:28.498806  6228 net.cpp:141] Setting up inception_5b/relu_5x5
I0403 17:53:28.498837  6228 net.cpp:148] Top shape: 24 128 7 7 (150528)
I0403 17:53:28.498857  6228 net.cpp:156] Memory required for data: 1335929376
I0403 17:53:28.498875  6228 layer_factory.hpp:77] Creating layer inception_5b/pool
I0403 17:53:28.498898  6228 net.cpp:91] Creating Layer inception_5b/pool
I0403 17:53:28.498919  6228 net.cpp:425] inception_5b/pool <- inception_5a/output_inception_5a/output_0_split_3
I0403 17:53:28.498945  6228 net.cpp:399] inception_5b/pool -> inception_5b/pool
I0403 17:53:28.499035  6228 net.cpp:141] Setting up inception_5b/pool
I0403 17:53:28.499068  6228 net.cpp:148] Top shape: 24 832 7 7 (978432)
I0403 17:53:28.499088  6228 net.cpp:156] Memory required for data: 1339843104
I0403 17:53:28.499105  6228 layer_factory.hpp:77] Creating layer inception_5b/pool_proj
I0403 17:53:28.499132  6228 net.cpp:91] Creating Layer inception_5b/pool_proj
I0403 17:53:28.499156  6228 net.cpp:425] inception_5b/pool_proj <- inception_5b/pool
I0403 17:53:28.499179  6228 net.cpp:399] inception_5b/pool_proj -> inception_5b/pool_proj
I0403 17:53:28.502032  6228 net.cpp:141] Setting up inception_5b/pool_proj
I0403 17:53:28.502066  6228 net.cpp:148] Top shape: 24 128 7 7 (150528)
I0403 17:53:28.502085  6228 net.cpp:156] Memory required for data: 1340445216
I0403 17:53:28.502110  6228 layer_factory.hpp:77] Creating layer inception_5b/relu_pool_proj
I0403 17:53:28.502135  6228 net.cpp:91] Creating Layer inception_5b/relu_pool_proj
I0403 17:53:28.502157  6228 net.cpp:425] inception_5b/relu_pool_proj <- inception_5b/pool_proj
I0403 17:53:28.502178  6228 net.cpp:386] inception_5b/relu_pool_proj -> inception_5b/pool_proj (in-place)
I0403 17:53:28.502552  6228 net.cpp:141] Setting up inception_5b/relu_pool_proj
I0403 17:53:28.502585  6228 net.cpp:148] Top shape: 24 128 7 7 (150528)
I0403 17:53:28.502604  6228 net.cpp:156] Memory required for data: 1341047328
I0403 17:53:28.502624  6228 layer_factory.hpp:77] Creating layer inception_5b/output
I0403 17:53:28.502648  6228 net.cpp:91] Creating Layer inception_5b/output
I0403 17:53:28.502686  6228 net.cpp:425] inception_5b/output <- inception_5b/1x1
I0403 17:53:28.502708  6228 net.cpp:425] inception_5b/output <- inception_5b/3x3
I0403 17:53:28.502728  6228 net.cpp:425] inception_5b/output <- inception_5b/5x5
I0403 17:53:28.502748  6228 net.cpp:425] inception_5b/output <- inception_5b/pool_proj
I0403 17:53:28.502770  6228 net.cpp:399] inception_5b/output -> inception_5b/output
I0403 17:53:28.502836  6228 net.cpp:141] Setting up inception_5b/output
I0403 17:53:28.502866  6228 net.cpp:148] Top shape: 24 1024 7 7 (1204224)
I0403 17:53:28.502884  6228 net.cpp:156] Memory required for data: 1345864224
I0403 17:53:28.502903  6228 layer_factory.hpp:77] Creating layer pool5/7x7_s1
I0403 17:53:28.502925  6228 net.cpp:91] Creating Layer pool5/7x7_s1
I0403 17:53:28.502946  6228 net.cpp:425] pool5/7x7_s1 <- inception_5b/output
I0403 17:53:28.502972  6228 net.cpp:399] pool5/7x7_s1 -> pool5/7x7_s1
I0403 17:53:28.503262  6228 net.cpp:141] Setting up pool5/7x7_s1
I0403 17:53:28.503296  6228 net.cpp:148] Top shape: 24 1024 1 1 (24576)
I0403 17:53:28.503316  6228 net.cpp:156] Memory required for data: 1345962528
I0403 17:53:28.503335  6228 layer_factory.hpp:77] Creating layer pool5/drop_7x7_s1
I0403 17:53:28.503358  6228 net.cpp:91] Creating Layer pool5/drop_7x7_s1
I0403 17:53:28.503378  6228 net.cpp:425] pool5/drop_7x7_s1 <- pool5/7x7_s1
I0403 17:53:28.503403  6228 net.cpp:386] pool5/drop_7x7_s1 -> pool5/7x7_s1 (in-place)
I0403 17:53:28.503466  6228 net.cpp:141] Setting up pool5/drop_7x7_s1
I0403 17:53:28.503495  6228 net.cpp:148] Top shape: 24 1024 1 1 (24576)
I0403 17:53:28.503515  6228 net.cpp:156] Memory required for data: 1346060832
I0403 17:53:28.503532  6228 layer_factory.hpp:77] Creating layer loss3/classifier_plantvillage
I0403 17:53:28.503559  6228 net.cpp:91] Creating Layer loss3/classifier_plantvillage
I0403 17:53:28.503582  6228 net.cpp:425] loss3/classifier_plantvillage <- pool5/7x7_s1
I0403 17:53:28.503607  6228 net.cpp:399] loss3/classifier_plantvillage -> loss3/classifier_plantvillage
I0403 17:53:28.504133  6228 net.cpp:141] Setting up loss3/classifier_plantvillage
I0403 17:53:28.504164  6228 net.cpp:148] Top shape: 24 38 (912)
I0403 17:53:28.504182  6228 net.cpp:156] Memory required for data: 1346064480
I0403 17:53:28.504206  6228 layer_factory.hpp:77] Creating layer loss3/classifier_plantvillage_loss3/classifier_plantvillage_0_split
I0403 17:53:28.504235  6228 net.cpp:91] Creating Layer loss3/classifier_plantvillage_loss3/classifier_plantvillage_0_split
I0403 17:53:28.504254  6228 net.cpp:425] loss3/classifier_plantvillage_loss3/classifier_plantvillage_0_split <- loss3/classifier_plantvillage
I0403 17:53:28.504281  6228 net.cpp:399] loss3/classifier_plantvillage_loss3/classifier_plantvillage_0_split -> loss3/classifier_plantvillage_loss3/classifier_plantvillage_0_split_0
I0403 17:53:28.504305  6228 net.cpp:399] loss3/classifier_plantvillage_loss3/classifier_plantvillage_0_split -> loss3/classifier_plantvillage_loss3/classifier_plantvillage_0_split_1
I0403 17:53:28.504330  6228 net.cpp:399] loss3/classifier_plantvillage_loss3/classifier_plantvillage_0_split -> loss3/classifier_plantvillage_loss3/classifier_plantvillage_0_split_2
I0403 17:53:28.504355  6228 net.cpp:399] loss3/classifier_plantvillage_loss3/classifier_plantvillage_0_split -> loss3/classifier_plantvillage_loss3/classifier_plantvillage_0_split_3
I0403 17:53:28.504480  6228 net.cpp:141] Setting up loss3/classifier_plantvillage_loss3/classifier_plantvillage_0_split
I0403 17:53:28.504510  6228 net.cpp:148] Top shape: 24 38 (912)
I0403 17:53:28.504530  6228 net.cpp:148] Top shape: 24 38 (912)
I0403 17:53:28.504550  6228 net.cpp:148] Top shape: 24 38 (912)
I0403 17:53:28.504570  6228 net.cpp:148] Top shape: 24 38 (912)
I0403 17:53:28.504588  6228 net.cpp:156] Memory required for data: 1346079072
I0403 17:53:28.504607  6228 layer_factory.hpp:77] Creating layer loss1/loss
I0403 17:53:28.504634  6228 net.cpp:91] Creating Layer loss1/loss
I0403 17:53:28.504658  6228 net.cpp:425] loss1/loss <- loss1/classifier_plantvillage_loss1/classifier_plantvillage_0_split_0
I0403 17:53:28.504698  6228 net.cpp:425] loss1/loss <- label_data_1_split_0
…
