…
I0403 18:30:22.858934  7051 net.cpp:313] The NetState phase (1) differed from the phase (0) specified by a rule in layer data
I0403 18:30:22.860165  7051 net.cpp:49] Initializing net from parameters: 
state {
  phase: TEST
}
layer {
  name: "data"
  type: "Data"
  top: "data"
  top: "label"
  include {
    phase: TEST
  }
  transform_param {
    mirror: false
    crop_size: 224
    mean_file: "/home/mohanty/data/final_dataset/lmdb/segmented-50-50/mean.binaryproto"
  }
  data_param {
    source: "/home/mohanty/data/final_dataset/lmdb/segmented-50-50/test_db"
    batch_size: 24
    backend: LMDB
  }
}
layer {
  name: "conv1/7x7_s2"
  type: "Convolution"
  bottom: "data"
  top: "conv1/7x7_s2"
  param {
    lr_mult: 1
    decay_mult: 1
  }
  param {
    lr_mult: 2
    decay_mult: 0
  }
  convolution_param {
    num_output: 64
    pad: 3
    kernel_size: 7
    stride: 2
    weight_filler {
      type: "xavier"
      std: 0.1
    }
    bias_filler {
      type: "constant"
      value: 0.2
    }
  }
}
layer {
  name: "conv1/relu_7x7"
  type: "ReLU"
  bottom: "conv1/7x7_s2"
  top: "conv1/7x7_s2"
}
layer {
  name: "pool1/3x3_s2"
  type: "Pooling"
  bottom: "conv1/7x7_s2"
  top: "pool1/3x3_s2"
  pooling_param {
    pool: MAX
    kernel_size: 3
    stride: 2
  }
}
layer {
  name: "pool1/norm1"
  type: "LRN"
  bottom: "pool1/3x3_s2"
  top: "pool1/norm1"
  lrn_param {
    local_size: 5
    alpha: 0.0001
    beta: 0.75
  }
}
layer {
  name: "conv2/3x3_reduce"
  type: "Convolution"
  bottom: "pool1/norm1"
  top: "conv2/3x3_reduce"
  param {
    lr_mult: 1
    decay_mult: 1
  }
  param {
    lr_mult: 2
    decay_mult: 0
  }
  convolution_param {
    num_output: 64
    kernel_size: 1
    weight_filler {
      type: "xavier"
      std: 0.1
    }
    bias_filler {
      type: "constant"
      value: 0.2
    }
  }
}
layer {
  name: "conv2/relu_3x3_reduce"
  type: "ReLU"
  bottom: "conv2/3x3_reduce"
  top: "conv2/3x3_reduce"
}
layer {
  name: "conv2/3x3"
  type: "Convolution"
  bottom: "conv2/3x3_reduce"
  top: "conv2/3x3"
  param {
    lr_mult: 1
    decay_mult: 1
  }
  param {
    lr_mult: 2
    decay_mult: 0
  }
  convolution_param {
    num_output: 192
    pad: 1
    kernel_size: 3
    weight_filler {
      type: "xavier"
      std: 0.03
    }
    bias_filler {
      type: "constant"
      value: 0.2
    }
  }
}
layer {
  name: "conv2/relu_3x3"
  type: "ReLU"
  bottom: "conv2/3x3"
  top: "conv2/3x3"
}
layer {
  name: "conv2/norm2"
  type: "LRN"
  bottom: "conv2/3x3"
  top: "conv2/norm2"
  lrn_param {
    local_size: 5
    alpha: 0.0001
    beta: 0.75
  }
}
layer {
  name: "pool2/3x3_s2"
  type: "Pooling"
  bottom: "conv2/norm2"
  top: "pool2/3x3_s2"
  pooling_param {
    pool: MAX
    kernel_size: 3
    stride: 2
  }
}
layer {
  name: "inception_3a/1x1"
  type: "Convolution"
  bottom: "pool2/3x3_s2"
  top: "inception_3a/1x1"
  param {
    lr_mult: 1
    decay_mult: 1
  }
  param {
    lr_mult: 2
    decay_mult: 0
  }
  convolution_param {
    num_output: 64
    kernel_size: 1
    weight_filler {
      type: "xavier"
      std: 0.03
    }
    bias_filler {
      type: "constant"
      value: 0.2
    }
  }
}
layer {
  name: "inception_3a/relu_1x1"
  type: "ReLU"
  bottom: "inception_3a/1x1"
  top: "inception_3a/1x1"
}
layer {
  name: "inception_3a/3x3_reduce"
  type: "Convolution"
  bottom: "pool2/3x3_s2"
  top: "inception_3a/3x3_reduce"
  param {
    lr_mult: 1
    decay_mult: 1
  }
  param {
    lr_mult: 2
    decay_mult: 0
  }
  convolution_param {
    num_output: 96
    kernel_size: 1
    weight_filler {
      type: "xavier"
      std: 0.09
    }
    bias_filler {
      type: "constant"
      value: 0.2
    }
  }
}
layer {
  name: "inception_3a/relu_3x3_reduce"
  type: "ReLU"
  bottom: "inception_3a/3x3_reduce"
  top: "inception_3a/3x3_reduce"
}
layer {
  name: "inception_3a/3x3"
  type: "Convolution"
  bottom: "inception_3a/3x3_reduce"
  top: "inception_3a/3x3"
  param {
    lr_mult: 1
    decay_mult: 1
  }
  param {
    lr_mult: 2
    decay_mult: 0
  }
  convolution_param {
    num_output: 128
    pad: 1
    kernel_size: 3
    weight_filler {
      type: "xavier"
      std: 0.03
    }
    bias_filler {
      type: "constant"
      value: 0.2
    }
  }
}
layer {
  name: "inception_3a/relu_3x3"
  type: "ReLU"
  bottom: "inception_3a/3x3"
  top: "inception_3a/3x3"
}
layer {
  name: "inception_3a/5x5_reduce"
  type: "Convolution"
  bottom: "pool2/3x3_s2"
  top: "inception_3a/5x5_reduce"
  param {
    lr_mult: 1
    decay_mult: 1
  }
  param {
    lr_mult: 2
    decay_mult: 0
  }
  convolution_param {
    num_output: 16
    kernel_size: 1
    weight_filler {
      type: "xavier"
      std: 0.2
    }
    bias_filler {
      type: "constant"
      value: 0.2
    }
  }
}
layer {
  name: "inception_3a/relu_5x5_reduce"
  type: "ReLU"
  bottom: "inception_3a/5x5_reduce"
  top: "inception_3a/5x5_reduce"
}
layer {
  name: "inception_3a/5x5"
  type: "Convolution"
  bottom: "inception_3a/5x5_reduce"
  top: "inception_3a/5x5"
  param {
    lr_mult: 1
    decay_mult: 1
  }
  param {
    lr_mult: 2
    decay_mult: 0
  }
  convolution_param {
    num_output: 32
    pad: 2
    kernel_size: 5
    weight_filler {
      type: "xavier"
      std: 0.03
    }
    bias_filler {
      type: "constant"
      value: 0.2
    }
  }
}
layer {
  name: "inception_3a/relu_5x5"
  type: "ReLU"
  bottom: "inception_3a/5x5"
  top: "inception_3a/5x5"
}
layer {
  name: "inception_3a/pool"
  type: "Pooling"
  bottom: "pool2/3x3_s2"
  top: "inception_3a/pool"
  pooling_param {
    pool: MAX
    kernel_size: 3
    stride: 1
    pad: 1
  }
}
layer {
  name: "inception_3a/pool_proj"
  type: "Convolution"
  bottom: "inception_3a/pool"
  top: "inception_3a/pool_proj"
  param {
    lr_mult: 1
    decay_mult: 1
  }
  param {
    lr_mult: 2
    decay_mult: 0
  }
  convolution_param {
    num_output: 32
    kernel_size: 1
    weight_filler {
      type: "xavier"
      std: 0.1
    }
    bias_filler {
      type: "constant"
      value: 0.2
    }
  }
}
layer {
  name: "inception_3a/relu_pool_proj"
  type: "ReLU"
  bottom: "inception_3a/pool_proj"
  top: "inception_3a/pool_proj"
}
layer {
  name: "inception_3a/output"
  type: "Concat"
  bottom: "inception_3a/1x1"
  bottom: "inception_3a/3x3"
  bottom: "inception_3a/5x5"
  bottom: "inception_3a/pool_proj"
  top: "inception_3a/output"
}
layer {
  name: "inception_3b/1x1"
  type: "Convolution"
  bottom: "inception_3a/output"
  top: "inception_3b/1x1"
  param {
    lr_mult: 1
    decay_mult: 1
  }
  param {
    lr_mult: 2
    decay_mult: 0
  }
  convolution_param {
    num_output: 128
    kernel_size: 1
    weight_filler {
      type: "xavier"
      std: 0.03
    }
    bias_filler {
      type: "constant"
      value: 0.2
    }
  }
}
layer {
  name: "inception_3b/relu_1x1"
  type: "ReLU"
  bottom: "inception_3b/1x1"
  top: "inception_3b/1x1"
}
layer {
  name: "inception_3b/3x3_reduce"
  type: "Convolution"
  bottom: "inception_3a/output"
  top: "inception_3b/3x3_reduce"
  param {
    lr_mult: 1
    decay_mult: 1
  }
  param {
    lr_mult: 2
    decay_mult: 0
  }
  convolution_param {
    num_output: 128
    kernel_size: 1
    weight_filler {
      type: "xavier"
      std: 0.09
    }
    bias_filler {
      type: "constant"
      value: 0.2
    }
  }
}
layer {
  name: "inception_3b/relu_3x3_reduce"
  type: "ReLU"
  bottom: "inception_3b/3x3_reduce"
  top: "inception_3b/3x3_reduce"
}
layer {
  name: "inception_3b/3x3"
  type: "Convolution"
  bottom: "inception_3b/3x3_reduce"
  top: "inception_3b/3x3"
  param {
    lr_mult: 1
    decay_mult: 1
  }
  param {
    lr_mult: 2
    decay_mult: 0
  }
  convolution_param {
    num_output: 192
    pad: 1
    kernel_size: 3
    weight_filler {
      type: "xavier"
      std: 0.03
    }
    bias_filler {
      type: "constant"
      value: 0.2
    }
  }
}
layer {
  name: "inception_3b/relu_3x3"
  type: "ReLU"
  bottom: "inception_3b/3x3"
  top: "inception_3b/3x3"
}
layer {
  name: "inception_3b/5x5_reduce"
  type: "Convolution"
  bottom: "inception_3a/output"
  top: "inception_3b/5x5_reduce"
  param {
    lr_mult: 1
    decay_mult: 1
  }
  param {
    lr_mult: 2
    decay_mult: 0
  }
  convolution_param {
    num_output: 32
    kernel_size: 1
    weight_filler {
      type: "xavier"
      std: 0.2
    }
    bias_filler {
      type: "constant"
      value: 0.2
    }
  }
}
layer {
  name: "inception_3b/relu_5x5_reduce"
  type: "ReLU"
  bottom: "inception_3b/5x5_reduce"
  top: "inception_3b/5x5_reduce"
}
layer {
  name: "inception_3b/5x5"
  type: "Convolution"
  bottom: "inception_3b/5x5_reduce"
  top: "inception_3b/5x5"
  param {
    lr_mult: 1
    decay_mult: 1
  }
  param {
    lr_mult: 2
    decay_mult: 0
  }
  convolution_param {
    num_output: 96
    pad: 2
    kernel_size: 5
    weight_filler {
      type: "xavier"
      std: 0.03
    }
    bias_filler {
      type: "constant"
      value: 0.2
    }
  }
}
layer {
  name: "inception_3b/relu_5x5"
  type: "ReLU"
  bottom: "inception_3b/5x5"
  top: "inception_3b/5x5"
}
layer {
  name: "inception_3b/pool"
  type: "Pooling"
  bottom: "inception_3a/output"
  top: "inception_3b/pool"
  pooling_param {
    pool: MAX
    kernel_size: 3
    stride: 1
    pad: 1
  }
}
layer {
  name: "inception_3b/pool_proj"
  type: "Convolution"
  bottom: "inception_3b/pool"
  top: "inception_3b/pool_proj"
  param {
    lr_mult: 1
    decay_mult: 1
  }
  param {
    lr_mult: 2
    decay_mult: 0
  }
  convolution_param {
    num_output: 64
    kernel_size: 1
    weight_filler {
      type: "xavier"
      std: 0.1
    }
    bias_filler {
      type: "constant"
      value: 0.2
    }
  }
}
layer {
  name: "inception_3b/relu_pool_proj"
  type: "ReLU"
  bottom: "inception_3b/pool_proj"
  top: "inception_3b/pool_proj"
}
layer {
  name: "inception_3b/output"
  type: "Concat"
  bottom: "inception_3b/1x1"
  bottom: "inception_3b/3x3"
  bottom: "inception_3b/5x5"
  bottom: "inception_3b/pool_proj"
  top: "inception_3b/output"
}
layer {
  name: "pool3/3x3_s2"
  type: "Pooling"
  bottom: "inception_3b/output"
  top: "pool3/3x3_s2"
  pooling_param {
    pool: MAX
    kernel_size: 3
    stride: 2
  }
}
layer {
  name: "inception_4a/1x1"
  type: "Convolution"
  bottom: "pool3/3x3_s2"
  top: "inception_4a/1x1"
  param {
    lr_mult: 1
    decay_mult: 1
  }
  param {
    lr_mult: 2
    decay_mult: 0
  }
  convolution_param {
    num_output: 192
    kernel_size: 1
    weight_filler {
      type: "xavier"
      std: 0.03
    }
    bias_filler {
      type: "constant"
      value: 0.2
    }
  }
}
layer {
  name: "inception_4a/relu_1x1"
  type: "ReLU"
  bottom: "inception_4a/1x1"
  top: "inception_4a/1x1"
}
layer {
  name: "inception_4a/3x3_reduce"
  type: "Convolution"
  bottom: "pool3/3x3_s2"
  top: "inception_4a/3x3_reduce"
  param {
    lr_mult: 1
    decay_mult: 1
  }
  param {
    lr_mult: 2
    decay_mult: 0
  }
  convolution_param {
    num_output: 96
    kernel_size: 1
    weight_filler {
      type: "xavier"
      std: 0.09
    }
    bias_filler {
      type: "constant"
      value: 0.2
    }
  }
}
layer {
  name: "inception_4a/relu_3x3_reduce"
  type: "ReLU"
  bottom: "inception_4a/3x3_reduce"
  top: "inception_4a/3x3_reduce"
}
layer {
  name: "inception_4a/3x3"
  type: "Convolution"
  bottom: "inception_4a/3x3_reduce"
  top: "inception_4a/3x3"
  param {
    lr_mult: 1
    decay_mult: 1
  }
  param {
    lr_mult: 2
    decay_mult: 0
  }
  convolution_param {
    num_output: 208
    pad: 1
    kernel_size: 3
    weight_filler {
      type: "xavier"
      std: 0.03
    }
    bias_filler {
      type: "constant"
      value: 0.2
    }
  }
}
layer {
  name: "inception_4a/relu_3x3"
  type: "ReLU"
  bottom: "inception_4a/3x3"
  top: "inception_4a/3x3"
}
layer {
  name: "inception_4a/5x5_reduce"
  type: "Convolution"
  bottom: "pool3/3x3_s2"
  top: "inception_4a/5x5_reduce"
  param {
    lr_mult: 1
    decay_mult: 1
  }
  param {
    lr_mult: 2
    decay_mult: 0
  }
  convolution_param {
    num_output: 16
    kernel_size: 1
    weight_filler {
      type: "xavier"
      std: 0.2
    }
    bias_filler {
      type: "constant"
      value: 0.2
    }
  }
}
layer {
  name: "inception_4a/relu_5x5_reduce"
  type: "ReLU"
  bottom: "inception_4a/5x5_reduce"
  top: "inception_4a/5x5_reduce"
}
layer {
  name: "inception_4a/5x5"
  type: "Convolution"
  bottom: "inception_4a/5x5_reduce"
  top: "inception_4a/5x5"
  param {
    lr_mult: 1
    decay_mult: 1
  }
  param {
    lr_mult: 2
    decay_mult: 0
  }
  convolution_param {
    num_output: 48
    pad: 2
    kernel_size: 5
    weight_filler {
      type: "xavier"
      std: 0.03
    }
    bias_filler {
      type: "constant"
      value: 0.2
    }
  }
}
layer {
  name: "inception_4a/relu_5x5"
  type: "ReLU"
  bottom: "inception_4a/5x5"
  top: "inception_4a/5x5"
}
layer {
  name: "inception_4a/pool"
  type: "Pooling"
  bottom: "pool3/3x3_s2"
  top: "inception_4a/pool"
  pooling_param {
    pool: MAX
    kernel_size: 3
    stride: 1
    pad: 1
  }
}
layer {
  name: "inception_4a/pool_proj"
  type: "Convolution"
  bottom: "inception_4a/pool"
  top: "inception_4a/pool_proj"
  param {
    lr_mult: 1
    decay_mult: 1
  }
  param {
    lr_mult: 2
    decay_mult: 0
  }
  convolution_param {
    num_output: 64
    kernel_size: 1
    weight_filler {
      type: "xavier"
      std: 0.1
    }
    bias_filler {
      type: "constant"
      value: 0.2
    }
  }
}
layer {
  name: "inception_4a/relu_pool_proj"
  type: "ReLU"
  bottom: "inception_4a/pool_proj"
  top: "inception_4a/pool_proj"
}
layer {
  name: "inception_4a/output"
  type: "Concat"
  bottom: "inception_4a/1x1"
  bottom: "inception_4a/3x3"
  bottom: "inception_4a/5x5"
  bottom: "inception_4a/pool_proj"
  top: "inception_4a/output"
}
layer {
  name: "loss1/ave_pool"
  type: "Pooling"
  bottom: "inception_4a/output"
  top: "loss1/ave_pool"
  pooling_param {
    pool: AVE
    kernel_size: 5
    stride: 3
  }
}
layer {
  name: "loss1/conv"
  type: "Convolution"
  bottom: "loss1/ave_pool"
  top: "loss1/conv"
  param {
    lr_mult: 1
    decay_mult: 1
  }
  param {
    lr_mult: 2
    decay_mult: 0
  }
  convolution_param {
    num_output: 128
    kernel_size: 1
    weight_filler {
      type: "xavier"
      std: 0.08
    }
    bias_filler {
      type: "constant"
      value: 0.2
    }
  }
}
layer {
  name: "loss1/relu_conv"
  type: "ReLU"
  bottom: "loss1/conv"
  top: "loss1/conv"
}
layer {
  name: "loss1/fc"
  type: "InnerProduct"
  bottom: "loss1/conv"
  top: "loss1/fc"
  param {
    lr_mult: 1
    decay_mult: 1
  }
  param {
    lr_mult: 2
    decay_mult: 0
  }
  inner_product_param {
    num_output: 1024
    weight_filler {
      type: "xavier"
      std: 0.02
    }
    bias_filler {
      type: "constant"
      value: 0.2
    }
  }
}
layer {
  name: "loss1/relu_fc"
  type: "ReLU"
  bottom: "loss1/fc"
  top: "loss1/fc"
}
layer {
  name: "loss1/drop_fc"
  type: "Dropout"
  bottom: "loss1/fc"
  top: "loss1/fc"
  dropout_param {
    dropout_ratio: 0.7
  }
}
layer {
  name: "loss1/classifier_plantvillage"
  type: "InnerProduct"
  bottom: "loss1/fc"
  top: "loss1/classifier_plantvillage"
  param {
    lr_mult: 1
    decay_mult: 1
  }
  param {
    lr_mult: 2
    decay_mult: 0
  }
  inner_product_param {
    num_output: 38
    weight_filler {
      type: "xavier"
      std: 0.0009765625
    }
    bias_filler {
      type: "constant"
      value: 0
    }
  }
}
layer {
  name: "inception_4b/1x1"
  type: "Convolution"
  bottom: "inception_4a/output"
  top: "inception_4b/1x1"
  param {
    lr_mult: 1
    decay_mult: 1
  }
  param {
    lr_mult: 2
    decay_mult: 0
  }
  convolution_param {
    num_output: 160
    kernel_size: 1
    weight_filler {
      type: "xavier"
      std: 0.03
    }
    bias_filler {
      type: "constant"
      value: 0.2
    }
  }
}
layer {
  name: "inception_4b/relu_1x1"
  type: "ReLU"
  bottom: "inception_4b/1x1"
  top: "inception_4b/1x1"
}
layer {
  name: "inception_4b/3x3_reduce"
  type: "Convolution"
  bottom: "inception_4a/output"
  top: "inception_4b/3x3_reduce"
  param {
    lr_mult: 1
    decay_mult: 1
  }
  param {
    lr_mult: 2
    decay_mult: 0
  }
  convolution_param {
    num_output: 112
    kernel_size: 1
    weight_filler {
      type: "xavier"
      std: 0.09
    }
    bias_filler {
      type: "constant"
      value: 0.2
    }
  }
}
layer {
  name: "inception_4b/relu_3x3_reduce"
  type: "ReLU"
  bottom: "inception_4b/3x3_reduce"
  top: "inception_4b/3x3_reduce"
}
layer {
  name: "inception_4b/3x3"
  type: "Convolution"
  bottom: "inception_4b/3x3_reduce"
  top: "inception_4b/3x3"
  param {
    lr_mult: 1
    decay_mult: 1
  }
  param {
    lr_mult: 2
    decay_mult: 0
  }
  convolution_param {
    num_output: 224
    pad: 1
    kernel_size: 3
    weight_filler {
      type: "xavier"
      std: 0.03
    }
    bias_filler {
      type: "constant"
      value: 0.2
    }
  }
}
layer {
  name: "inception_4b/relu_3x3"
  type: "ReLU"
  bottom: "inception_4b/3x3"
  top: "inception_4b/3x3"
}
layer {
  name: "inception_4b/5x5_reduce"
  type: "Convolution"
  bottom: "inception_4a/output"
  top: "inception_4b/5x5_reduce"
  param {
    lr_mult: 1
    decay_mult: 1
  }
  param {
    lr_mult: 2
    decay_mult: 0
  }
  convolution_param {
    num_output: 24
    kernel_size: 1
    weight_filler {
      type: "xavier"
      std: 0.2
    }
    bias_filler {
      type: "constant"
      value: 0.2
    }
  }
}
layer {
  name: "inception_4b/relu_5x5_reduce"
  type: "ReLU"
  bottom: "inception_4b/5x5_reduce"
  top: "inception_4b/5x5_reduce"
}
layer {
  name: "inception_4b/5x5"
  type: "Convolution"
  bottom: "inception_4b/5x5_reduce"
  top: "inception_4b/5x5"
  param {
    lr_mult: 1
    decay_mult: 1
  }
  param {
    lr_mult: 2
    decay_mult: 0
  }
  convolution_param {
    num_output: 64
    pad: 2
    kernel_size: 5
    weight_filler {
      type: "xavier"
      std: 0.03
    }
    bias_filler {
      type: "constant"
      value: 0.2
    }
  }
}
layer {
  name: "inception_4b/relu_5x5"
  type: "ReLU"
  bottom: "inception_4b/5x5"
  top: "inception_4b/5x5"
}
layer {
  name: "inception_4b/pool"
  type: "Pooling"
  bottom: "inception_4a/output"
  top: "inception_4b/pool"
  pooling_param {
    pool: MAX
    kernel_size: 3
    stride: 1
    pad: 1
  }
}
layer {
  name: "inception_4b/pool_proj"
  type: "Convolution"
  bottom: "inception_4b/pool"
  top: "inception_4b/pool_proj"
  param {
    lr_mult: 1
    decay_mult: 1
  }
  param {
    lr_mult: 2
    decay_mult: 0
  }
  convolution_param {
    num_output: 64
    kernel_size: 1
    weight_filler {
      type: "xavier"
      std: 0.1
    }
    bias_filler {
      type: "constant"
      value: 0.2
    }
  }
}
layer {
  name: "inception_4b/relu_pool_proj"
  type: "ReLU"
  bottom: "inception_4b/pool_proj"
  top: "inception_4b/pool_proj"
}
layer {
  name: "inception_4b/output"
  type: "Concat"
  bottom: "inception_4b/1x1"
  bottom: "inception_4b/3x3"
  bottom: "inception_4b/5x5"
  bottom: "inception_4b/pool_proj"
  top: "inception_4b/output"
}
layer {
  name: "inception_4c/1x1"
  type: "Convolution"
  bottom: "inception_4b/output"
  top: "inception_4c/1x1"
  param {
    lr_mult: 1
    decay_mult: 1
  }
  param {
    lr_mult: 2
    decay_mult: 0
  }
  convolution_param {
    num_output: 128
    kernel_size: 1
    weight_filler {
      type: "xavier"
      std: 0.03
    }
    bias_filler {
      type: "constant"
      value: 0.2
    }
  }
}
layer {
  name: "inception_4c/relu_1x1"
  type: "ReLU"
  bottom: "inception_4c/1x1"
  top: "inception_4c/1x1"
}
layer {
  name: "inception_4c/3x3_reduce"
  type: "Convolution"
  bottom: "inception_4b/output"
  top: "inception_4c/3x3_reduce"
  param {
    lr_mult: 1
    decay_mult: 1
  }
  param {
    lr_mult: 2
    decay_mult: 0
  }
  convolution_param {
    num_output: 128
    kernel_size: 1
    weight_filler {
      type: "xavier"
      std: 0.09
    }
    bias_filler {
      type: "constant"
      value: 0.2
    }
  }
}
layer {
  name: "inception_4c/relu_3x3_reduce"
  type: "ReLU"
  bottom: "inception_4c/3x3_reduce"
  top: "inception_4c/3x3_reduce"
}
layer {
  name: "inception_4c/3x3"
  type: "Convolution"
  bottom: "inception_4c/3x3_reduce"
  top: "inception_4c/3x3"
  param {
    lr_mult: 1
    decay_mult: 1
  }
  param {
    lr_mult: 2
    decay_mult: 0
  }
  convolution_param {
    num_output: 256
    pad: 1
    kernel_size: 3
    weight_filler {
      type: "xavier"
      std: 0.03
    }
    bias_filler {
      type: "constant"
      value: 0.2
    }
  }
}
layer {
  name: "inception_4c/relu_3x3"
  type: "ReLU"
  bottom: "inception_4c/3x3"
  top: "inception_4c/3x3"
}
layer {
  name: "inception_4c/5x5_reduce"
  type: "Convolution"
  bottom: "inception_4b/output"
  top: "inception_4c/5x5_reduce"
  param {
    lr_mult: 1
    decay_mult: 1
  }
  param {
    lr_mult: 2
    decay_mult: 0
  }
  convolution_param {
    num_output: 24
    kernel_size: 1
    weight_filler {
      type: "xavier"
      std: 0.2
    }
    bias_filler {
      type: "constant"
      value: 0.2
    }
  }
}
layer {
  name: "inception_4c/relu_5x5_reduce"
  type: "ReLU"
  bottom: "inception_4c/5x5_reduce"
  top: "inception_4c/5x5_reduce"
}
layer {
  name: "inception_4c/5x5"
  type: "Convolution"
  bottom: "inception_4c/5x5_reduce"
  top: "inception_4c/5x5"
  param {
    lr_mult: 1
    decay_mult: 1
  }
  param {
    lr_mult: 2
    decay_mult: 0
  }
  convolution_param {
    num_output: 64
    pad: 2
    kernel_size: 5
    weight_filler {
      type: "xavier"
      std: 0.03
    }
    bias_filler {
      type: "constant"
      value: 0.2
    }
  }
}
layer {
  name: "inception_4c/relu_5x5"
  type: "ReLU"
  bottom: "inception_4c/5x5"
  top: "inception_4c/5x5"
}
layer {
  name: "inception_4c/pool"
  type: "Pooling"
  bottom: "inception_4b/output"
  top: "inception_4c/pool"
  pooling_param {
    pool: MAX
    kernel_size: 3
    stride: 1
    pad: 1
  }
}
layer {
  name: "inception_4c/pool_proj"
  type: "Convolution"
  bottom: "inception_4c/pool"
  top: "inception_4c/pool_proj"
  param {
    lr_mult: 1
    decay_mult: 1
  }
  param {
    lr_mult: 2
    decay_mult: 0
  }
  convolution_param {
    num_output: 64
    kernel_size: 1
    weight_filler {
      type: "xavier"
      std: 0.1
    }
    bias_filler {
      type: "constant"
      value: 0.2
    }
  }
}
layer {
  name: "inception_4c/relu_pool_proj"
  type: "ReLU"
  bottom: "inception_4c/pool_proj"
  top: "inception_4c/pool_proj"
}
layer {
  name: "inception_4c/output"
  type: "Concat"
  bottom: "inception_4c/1x1"
  bottom: "inception_4c/3x3"
  bottom: "inception_4c/5x5"
  bottom: "inception_4c/pool_proj"
  top: "inception_4c/output"
}
layer {
  name: "inception_4d/1x1"
  type: "Convolution"
  bottom: "inception_4c/output"
  top: "inception_4d/1x1"
  param {
    lr_mult: 1
    decay_mult: 1
  }
  param {
    lr_mult: 2
    decay_mult: 0
  }
  convolution_param {
    num_output: 112
    kernel_size: 1
    weight_filler {
      type: "xavier"
      std: 0.03
    }
    bias_filler {
      type: "constant"
      value: 0.2
    }
  }
}
layer {
  name: "inception_4d/relu_1x1"
  type: "ReLU"
  bottom: "inception_4d/1x1"
  top: "inception_4d/1x1"
}
layer {
  name: "inception_4d/3x3_reduce"
  type: "Convolution"
  bottom: "inception_4c/output"
  top: "inception_4d/3x3_reduce"
  param {
    lr_mult: 1
    decay_mult: 1
  }
  param {
    lr_mult: 2
    decay_mult: 0
  }
  convolution_param {
    num_output: 144
    kernel_size: 1
    weight_filler {
      type: "xavier"
      std: 0.09
    }
    bias_filler {
      type: "constant"
      value: 0.2
    }
  }
}
layer {
  name: "inception_4d/relu_3x3_reduce"
  type: "ReLU"
  bottom: "inception_4d/3x3_reduce"
  top: "inception_4d/3x3_reduce"
}
layer {
  name: "inception_4d/3x3"
  type: "Convolution"
  bottom: "inception_4d/3x3_reduce"
  top: "inception_4d/3x3"
  param {
    lr_mult: 1
    decay_mult: 1
  }
  param {
    lr_mult: 2
    decay_mult: 0
  }
  convolution_param {
    num_output: 288
    pad: 1
    kernel_size: 3
    weight_filler {
      type: "xavier"
      std: 0.03
    }
    bias_filler {
      type: "constant"
      value: 0.2
    }
  }
}
layer {
  name: "inception_4d/relu_3x3"
  type: "ReLU"
  bottom: "inception_4d/3x3"
  top: "inception_4d/3x3"
}
layer {
  name: "inception_4d/5x5_reduce"
  type: "Convolution"
  bottom: "inception_4c/output"
  top: "inception_4d/5x5_reduce"
  param {
    lr_mult: 1
    decay_mult: 1
  }
  param {
    lr_mult: 2
    decay_mult: 0
  }
  convolution_param {
    num_output: 32
    kernel_size: 1
    weight_filler {
      type: "xavier"
      std: 0.2
    }
    bias_filler {
      type: "constant"
      value: 0.2
    }
  }
}
layer {
  name: "inception_4d/relu_5x5_reduce"
  type: "ReLU"
  bottom: "inception_4d/5x5_reduce"
  top: "inception_4d/5x5_reduce"
}
layer {
  name: "inception_4d/5x5"
  type: "Convolution"
  bottom: "inception_4d/5x5_reduce"
  top: "inception_4d/5x5"
  param {
    lr_mult: 1
    decay_mult: 1
  }
  param {
    lr_mult: 2
    decay_mult: 0
  }
  convolution_param {
    num_output: 64
    pad: 2
    kernel_size: 5
    weight_filler {
      type: "xavier"
      std: 0.03
    }
    bias_filler {
      type: "constant"
      value: 0.2
    }
  }
}
layer {
  name: "inception_4d/relu_5x5"
  type: "ReLU"
  bottom: "inception_4d/5x5"
  top: "inception_4d/5x5"
}
layer {
  name: "inception_4d/pool"
  type: "Pooling"
  bottom: "inception_4c/output"
  top: "inception_4d/pool"
  pooling_param {
    pool: MAX
    kernel_size: 3
    stride: 1
    pad: 1
  }
}
layer {
  name: "inception_4d/pool_proj"
  type: "Convolution"
  bottom: "inception_4d/pool"
  top: "inception_4d/pool_proj"
  param {
    lr_mult: 1
    decay_mult: 1
  }
  param {
    lr_mult: 2
    decay_mult: 0
  }
  convolution_param {
    num_output: 64
    kernel_size: 1
    weight_filler {
      type: "xavier"
      std: 0.1
    }
    bias_filler {
      type: "constant"
      value: 0.2
    }
  }
}
layer {
  name: "inception_4d/relu_pool_proj"
  type: "ReLU"
  bottom: "inception_4d/pool_proj"
  top: "inception_4d/pool_proj"
}
layer {
  name: "inception_4d/output"
  type: "Concat"
  bottom: "inception_4d/1x1"
  bottom: "inception_4d/3x3"
  bottom: "inception_4d/5x5"
  bottom: "inception_4d/pool_proj"
  top: "inception_4d/output"
}
layer {
  name: "loss2/ave_pool"
  type: "Pooling"
  bottom: "inception_4d/output"
  top: "loss2/ave_pool"
  pooling_param {
    pool: AVE
    kernel_size: 5
    stride: 3
  }
}
layer {
  name: "loss2/conv"
  type: "Convolution"
  bottom: "loss2/ave_pool"
  top: "loss2/conv"
  param {
    lr_mult: 1
    decay_mult: 1
  }
  param {
    lr_mult: 2
    decay_mult: 0
  }
  convolution_param {
    num_output: 128
    kernel_size: 1
    weight_filler {
      type: "xavier"
      std: 0.08
    }
    bias_filler {
      type: "constant"
      value: 0.2
    }
  }
}
layer {
  name: "loss2/relu_conv"
  type: "ReLU"
  bottom: "loss2/conv"
  top: "loss2/conv"
}
layer {
  name: "loss2/fc"
  type: "InnerProduct"
  bottom: "loss2/conv"
  top: "loss2/fc"
  param {
    lr_mult: 1
    decay_mult: 1
  }
  param {
    lr_mult: 2
    decay_mult: 0
  }
  inner_product_param {
    num_output: 1024
    weight_filler {
      type: "xavier"
      std: 0.02
    }
    bias_filler {
      type: "constant"
      value: 0.2
    }
  }
}
layer {
  name: "loss2/relu_fc"
  type: "ReLU"
  bottom: "loss2/fc"
  top: "loss2/fc"
}
layer {
  name: "loss2/drop_fc"
  type: "Dropout"
  bottom: "loss2/fc"
  top: "loss2/fc"
  dropout_param {
    dropout_ratio: 0.7
  }
}
layer {
  name: "loss2/classifier_plantvillage"
  type: "InnerProduct"
  bottom: "loss2/fc"
  top: "loss2/classifier_plantvillage"
  param {
    lr_mult: 1
    decay_mult: 1
  }
  param {
    lr_mult: 2
    decay_mult: 0
  }
  inner_product_param {
    num_output: 38
    weight_filler {
      type: "xavier"
      std: 0.0009765625
    }
    bias_filler {
      type: "constant"
      value: 0
    }
  }
}
layer {
  name: "inception_4e/1x1"
  type: "Convolution"
  bottom: "inception_4d/output"
  top: "inception_4e/1x1"
  param {
    lr_mult: 1
    decay_mult: 1
  }
  param {
    lr_mult: 2
    decay_mult: 0
  }
  convolution_param {
    num_output: 256
    kernel_size: 1
    weight_filler {
      type: "xavier"
      std: 0.03
    }
    bias_filler {
      type: "constant"
      value: 0.2
    }
  }
}
layer {
  name: "inception_4e/relu_1x1"
  type: "ReLU"
  bottom: "inception_4e/1x1"
  top: "inception_4e/1x1"
}
layer {
  name: "inception_4e/3x3_reduce"
  type: "Convolution"
  bottom: "inception_4d/output"
  top: "inception_4e/3x3_reduce"
  param {
    lr_mult: 1
    decay_mult: 1
  }
  param {
    lr_mult: 2
    decay_mult: 0
  }
  convolution_param {
    num_output: 160
    kernel_size: 1
    weight_filler {
      type: "xavier"
      std: 0.09
    }
    bias_filler {
      type: "constant"
      value: 0.2
    }
  }
}
layer {
  name: "inception_4e/relu_3x3_reduce"
  type: "ReLU"
  bottom: "inception_4e/3x3_reduce"
  top: "inception_4e/3x3_reduce"
}
layer {
  name: "inception_4e/3x3"
  type: "Convolution"
  bottom: "inception_4e/3x3_reduce"
  top: "inception_4e/3x3"
  param {
    lr_mult: 1
    decay_mult: 1
  }
  param {
    lr_mult: 2
    decay_mult: 0
  }
  convolution_param {
    num_output: 320
    pad: 1
    kernel_size: 3
    weight_filler {
      type: "xavier"
      std: 0.03
    }
    bias_filler {
      type: "constant"
      value: 0.2
    }
  }
}
layer {
  name: "inception_4e/relu_3x3"
  type: "ReLU"
  bottom: "inception_4e/3x3"
  top: "inception_4e/3x3"
}
layer {
  name: "inception_4e/5x5_reduce"
  type: "Convolution"
  bottom: "inception_4d/output"
  top: "inception_4e/5x5_reduce"
  param {
    lr_mult: 1
    decay_mult: 1
  }
  param {
    lr_mult: 2
    decay_mult: 0
  }
  convolution_param {
    num_output: 32
    kernel_size: 1
    weight_filler {
      type: "xavier"
      std: 0.2
    }
    bias_filler {
      type: "constant"
      value: 0.2
    }
  }
}
layer {
  name: "inception_4e/relu_5x5_reduce"
  type: "ReLU"
  bottom: "inception_4e/5x5_reduce"
  top: "inception_4e/5x5_reduce"
}
layer {
  name: "inception_4e/5x5"
  type: "Convolution"
  bottom: "inception_4e/5x5_reduce"
  top: "inception_4e/
I0403 18:30:22.861866  7051 layer_factory.hpp:77] Creating layer data
I0403 18:30:22.862519  7051 net.cpp:91] Creating Layer data
I0403 18:30:22.862555  7051 net.cpp:399] data -> data
I0403 18:30:22.862612  7051 net.cpp:399] data -> label
I0403 18:30:22.862650  7051 data_transformer.cpp:25] Loading mean file from: /home/mohanty/data/final_dataset/lmdb/segmented-50-50/mean.binaryproto
I0403 18:30:22.863886  7054 db_lmdb.cpp:38] Opened lmdb /home/mohanty/data/final_dataset/lmdb/segmented-50-50/test_db
I0403 18:30:22.877537  7051 data_layer.cpp:41] output data size: 24,3,224,224
I0403 18:30:22.907539  7051 net.cpp:141] Setting up data
I0403 18:30:22.907598  7051 net.cpp:148] Top shape: 24 3 224 224 (3612672)
I0403 18:30:22.907623  7051 net.cpp:148] Top shape: 24 (24)
I0403 18:30:22.907637  7051 net.cpp:156] Memory required for data: 14450784
I0403 18:30:22.907665  7051 layer_factory.hpp:77] Creating layer label_data_1_split
I0403 18:30:22.907692  7051 net.cpp:91] Creating Layer label_data_1_split
I0403 18:30:22.907711  7051 net.cpp:425] label_data_1_split <- label
I0403 18:30:22.907742  7051 net.cpp:399] label_data_1_split -> label_data_1_split_0
I0403 18:30:22.907770  7051 net.cpp:399] label_data_1_split -> label_data_1_split_1
I0403 18:30:22.907798  7051 net.cpp:399] label_data_1_split -> label_data_1_split_2
I0403 18:30:22.907817  7051 net.cpp:399] label_data_1_split -> label_data_1_split_3
I0403 18:30:22.907837  7051 net.cpp:399] label_data_1_split -> label_data_1_split_4
I0403 18:30:22.907856  7051 net.cpp:399] label_data_1_split -> label_data_1_split_5
I0403 18:30:22.907876  7051 net.cpp:399] label_data_1_split -> label_data_1_split_6
I0403 18:30:22.907896  7051 net.cpp:399] label_data_1_split -> label_data_1_split_7
I0403 18:30:22.907915  7051 net.cpp:399] label_data_1_split -> label_data_1_split_8
I0403 18:30:22.907935  7051 net.cpp:399] label_data_1_split -> label_data_1_split_9
I0403 18:30:22.908054  7051 net.cpp:141] Setting up label_data_1_split
I0403 18:30:22.908082  7051 net.cpp:148] Top shape: 24 (24)
I0403 18:30:22.908107  7051 net.cpp:148] Top shape: 24 (24)
I0403 18:30:22.908133  7051 net.cpp:148] Top shape: 24 (24)
I0403 18:30:22.908154  7051 net.cpp:148] Top shape: 24 (24)
I0403 18:30:22.908186  7051 net.cpp:148] Top shape: 24 (24)
I0403 18:30:22.908205  7051 net.cpp:148] Top shape: 24 (24)
I0403 18:30:22.908222  7051 net.cpp:148] Top shape: 24 (24)
I0403 18:30:22.908241  7051 net.cpp:148] Top shape: 24 (24)
I0403 18:30:22.908257  7051 net.cpp:148] Top shape: 24 (24)
I0403 18:30:22.908274  7051 net.cpp:148] Top shape: 24 (24)
I0403 18:30:22.908308  7051 net.cpp:156] Memory required for data: 14451744
I0403 18:30:22.908324  7051 layer_factory.hpp:77] Creating layer conv1/7x7_s2
I0403 18:30:22.908355  7051 net.cpp:91] Creating Layer conv1/7x7_s2
I0403 18:30:22.908375  7051 net.cpp:425] conv1/7x7_s2 <- data
I0403 18:30:22.908396  7051 net.cpp:399] conv1/7x7_s2 -> conv1/7x7_s2
I0403 18:30:23.058611  7051 net.cpp:141] Setting up conv1/7x7_s2
I0403 18:30:23.058691  7051 net.cpp:148] Top shape: 24 64 112 112 (19267584)
I0403 18:30:23.058706  7051 net.cpp:156] Memory required for data: 91522080
I0403 18:30:23.058737  7051 layer_factory.hpp:77] Creating layer conv1/relu_7x7
I0403 18:30:23.058763  7051 net.cpp:91] Creating Layer conv1/relu_7x7
I0403 18:30:23.058780  7051 net.cpp:425] conv1/relu_7x7 <- conv1/7x7_s2
I0403 18:30:23.058799  7051 net.cpp:386] conv1/relu_7x7 -> conv1/7x7_s2 (in-place)
I0403 18:30:23.059051  7051 net.cpp:141] Setting up conv1/relu_7x7
I0403 18:30:23.059077  7051 net.cpp:148] Top shape: 24 64 112 112 (19267584)
I0403 18:30:23.059093  7051 net.cpp:156] Memory required for data: 168592416
I0403 18:30:23.059108  7051 layer_factory.hpp:77] Creating layer pool1/3x3_s2
I0403 18:30:23.059133  7051 net.cpp:91] Creating Layer pool1/3x3_s2
I0403 18:30:23.059150  7051 net.cpp:425] pool1/3x3_s2 <- conv1/7x7_s2
I0403 18:30:23.059170  7051 net.cpp:399] pool1/3x3_s2 -> pool1/3x3_s2
I0403 18:30:23.059245  7051 net.cpp:141] Setting up pool1/3x3_s2
I0403 18:30:23.059269  7051 net.cpp:148] Top shape: 24 64 56 56 (4816896)
I0403 18:30:23.059284  7051 net.cpp:156] Memory required for data: 187860000
I0403 18:30:23.059299  7051 layer_factory.hpp:77] Creating layer pool1/norm1
I0403 18:30:23.059324  7051 net.cpp:91] Creating Layer pool1/norm1
I0403 18:30:23.059341  7051 net.cpp:425] pool1/norm1 <- pool1/3x3_s2
I0403 18:30:23.059358  7051 net.cpp:399] pool1/norm1 -> pool1/norm1
I0403 18:30:23.059638  7051 net.cpp:141] Setting up pool1/norm1
I0403 18:30:23.059664  7051 net.cpp:148] Top shape: 24 64 56 56 (4816896)
I0403 18:30:23.059679  7051 net.cpp:156] Memory required for data: 207127584
I0403 18:30:23.059695  7051 layer_factory.hpp:77] Creating layer conv2/3x3_reduce
I0403 18:30:23.059720  7051 net.cpp:91] Creating Layer conv2/3x3_reduce
I0403 18:30:23.059736  7051 net.cpp:425] conv2/3x3_reduce <- pool1/norm1
I0403 18:30:23.059754  7051 net.cpp:399] conv2/3x3_reduce -> conv2/3x3_reduce
I0403 18:30:23.061095  7051 net.cpp:141] Setting up conv2/3x3_reduce
I0403 18:30:23.061125  7051 net.cpp:148] Top shape: 24 64 56 56 (4816896)
I0403 18:30:23.061141  7051 net.cpp:156] Memory required for data: 226395168
I0403 18:30:23.061161  7051 layer_factory.hpp:77] Creating layer conv2/relu_3x3_reduce
I0403 18:30:23.061177  7051 net.cpp:91] Creating Layer conv2/relu_3x3_reduce
I0403 18:30:23.061192  7051 net.cpp:425] conv2/relu_3x3_reduce <- conv2/3x3_reduce
I0403 18:30:23.061215  7051 net.cpp:386] conv2/relu_3x3_reduce -> conv2/3x3_reduce (in-place)
I0403 18:30:23.061475  7051 net.cpp:141] Setting up conv2/relu_3x3_reduce
I0403 18:30:23.061502  7051 net.cpp:148] Top shape: 24 64 56 56 (4816896)
I0403 18:30:23.061517  7051 net.cpp:156] Memory required for data: 245662752
I0403 18:30:23.061532  7051 layer_factory.hpp:77] Creating layer conv2/3x3
I0403 18:30:23.061558  7051 net.cpp:91] Creating Layer conv2/3x3
I0403 18:30:23.061575  7051 net.cpp:425] conv2/3x3 <- conv2/3x3_reduce
I0403 18:30:23.061600  7051 net.cpp:399] conv2/3x3 -> conv2/3x3
I0403 18:30:23.063935  7051 net.cpp:141] Setting up conv2/3x3
I0403 18:30:23.063966  7051 net.cpp:148] Top shape: 24 192 56 56 (14450688)
I0403 18:30:23.063980  7051 net.cpp:156] Memory required for data: 303465504
I0403 18:30:23.064004  7051 layer_factory.hpp:77] Creating layer conv2/relu_3x3
I0403 18:30:23.064024  7051 net.cpp:91] Creating Layer conv2/relu_3x3
I0403 18:30:23.064039  7051 net.cpp:425] conv2/relu_3x3 <- conv2/3x3
I0403 18:30:23.064056  7051 net.cpp:386] conv2/relu_3x3 -> conv2/3x3 (in-place)
I0403 18:30:23.064240  7051 net.cpp:141] Setting up conv2/relu_3x3
I0403 18:30:23.064267  7051 net.cpp:148] Top shape: 24 192 56 56 (14450688)
I0403 18:30:23.064316  7051 net.cpp:156] Memory required for data: 361268256
I0403 18:30:23.064332  7051 layer_factory.hpp:77] Creating layer conv2/norm2
I0403 18:30:23.064349  7051 net.cpp:91] Creating Layer conv2/norm2
I0403 18:30:23.064364  7051 net.cpp:425] conv2/norm2 <- conv2/3x3
I0403 18:30:23.064385  7051 net.cpp:399] conv2/norm2 -> conv2/norm2
I0403 18:30:23.064692  7051 net.cpp:141] Setting up conv2/norm2
I0403 18:30:23.064718  7051 net.cpp:148] Top shape: 24 192 56 56 (14450688)
I0403 18:30:23.064734  7051 net.cpp:156] Memory required for data: 419071008
I0403 18:30:23.064749  7051 layer_factory.hpp:77] Creating layer pool2/3x3_s2
I0403 18:30:23.064766  7051 net.cpp:91] Creating Layer pool2/3x3_s2
I0403 18:30:23.064782  7051 net.cpp:425] pool2/3x3_s2 <- conv2/norm2
I0403 18:30:23.064801  7051 net.cpp:399] pool2/3x3_s2 -> pool2/3x3_s2
I0403 18:30:23.064857  7051 net.cpp:141] Setting up pool2/3x3_s2
I0403 18:30:23.064879  7051 net.cpp:148] Top shape: 24 192 28 28 (3612672)
I0403 18:30:23.064894  7051 net.cpp:156] Memory required for data: 433521696
I0403 18:30:23.064909  7051 layer_factory.hpp:77] Creating layer pool2/3x3_s2_pool2/3x3_s2_0_split
I0403 18:30:23.064929  7051 net.cpp:91] Creating Layer pool2/3x3_s2_pool2/3x3_s2_0_split
I0403 18:30:23.064944  7051 net.cpp:425] pool2/3x3_s2_pool2/3x3_s2_0_split <- pool2/3x3_s2
I0403 18:30:23.064962  7051 net.cpp:399] pool2/3x3_s2_pool2/3x3_s2_0_split -> pool2/3x3_s2_pool2/3x3_s2_0_split_0
I0403 18:30:23.064982  7051 net.cpp:399] pool2/3x3_s2_pool2/3x3_s2_0_split -> pool2/3x3_s2_pool2/3x3_s2_0_split_1
I0403 18:30:23.065001  7051 net.cpp:399] pool2/3x3_s2_pool2/3x3_s2_0_split -> pool2/3x3_s2_pool2/3x3_s2_0_split_2
I0403 18:30:23.065021  7051 net.cpp:399] pool2/3x3_s2_pool2/3x3_s2_0_split -> pool2/3x3_s2_pool2/3x3_s2_0_split_3
I0403 18:30:23.065091  7051 net.cpp:141] Setting up pool2/3x3_s2_pool2/3x3_s2_0_split
I0403 18:30:23.065114  7051 net.cpp:148] Top shape: 24 192 28 28 (3612672)
I0403 18:30:23.065130  7051 net.cpp:148] Top shape: 24 192 28 28 (3612672)
I0403 18:30:23.065145  7051 net.cpp:148] Top shape: 24 192 28 28 (3612672)
I0403 18:30:23.065160  7051 net.cpp:148] Top shape: 24 192 28 28 (3612672)
I0403 18:30:23.065173  7051 net.cpp:156] Memory required for data: 491324448
I0403 18:30:23.065187  7051 layer_factory.hpp:77] Creating layer inception_3a/1x1
I0403 18:30:23.065215  7051 net.cpp:91] Creating Layer inception_3a/1x1
I0403 18:30:23.065234  7051 net.cpp:425] inception_3a/1x1 <- pool2/3x3_s2_pool2/3x3_s2_0_split_0
I0403 18:30:23.065253  7051 net.cpp:399] inception_3a/1x1 -> inception_3a/1x1
I0403 18:30:23.066860  7051 net.cpp:141] Setting up inception_3a/1x1
I0403 18:30:23.066890  7051 net.cpp:148] Top shape: 24 64 28 28 (1204224)
I0403 18:30:23.066906  7051 net.cpp:156] Memory required for data: 496141344
I0403 18:30:23.066925  7051 layer_factory.hpp:77] Creating layer inception_3a/relu_1x1
I0403 18:30:23.066946  7051 net.cpp:91] Creating Layer inception_3a/relu_1x1
I0403 18:30:23.066962  7051 net.cpp:425] inception_3a/relu_1x1 <- inception_3a/1x1
I0403 18:30:23.066978  7051 net.cpp:386] inception_3a/relu_1x1 -> inception_3a/1x1 (in-place)
I0403 18:30:23.067153  7051 net.cpp:141] Setting up inception_3a/relu_1x1
I0403 18:30:23.067181  7051 net.cpp:148] Top shape: 24 64 28 28 (1204224)
I0403 18:30:23.067196  7051 net.cpp:156] Memory required for data: 500958240
I0403 18:30:23.067216  7051 layer_factory.hpp:77] Creating layer inception_3a/3x3_reduce
I0403 18:30:23.067240  7051 net.cpp:91] Creating Layer inception_3a/3x3_reduce
I0403 18:30:23.067260  7051 net.cpp:425] inception_3a/3x3_reduce <- pool2/3x3_s2_pool2/3x3_s2_0_split_1
I0403 18:30:23.067278  7051 net.cpp:399] inception_3a/3x3_reduce -> inception_3a/3x3_reduce
I0403 18:30:23.068997  7051 net.cpp:141] Setting up inception_3a/3x3_reduce
I0403 18:30:23.069025  7051 net.cpp:148] Top shape: 24 96 28 28 (1806336)
I0403 18:30:23.069041  7051 net.cpp:156] Memory required for data: 508183584
I0403 18:30:23.069064  7051 layer_factory.hpp:77] Creating layer inception_3a/relu_3x3_reduce
I0403 18:30:23.069100  7051 net.cpp:91] Creating Layer inception_3a/relu_3x3_reduce
I0403 18:30:23.069118  7051 net.cpp:425] inception_3a/relu_3x3_reduce <- inception_3a/3x3_reduce
I0403 18:30:23.069136  7051 net.cpp:386] inception_3a/relu_3x3_reduce -> inception_3a/3x3_reduce (in-place)
I0403 18:30:23.069324  7051 net.cpp:141] Setting up inception_3a/relu_3x3_reduce
I0403 18:30:23.069350  7051 net.cpp:148] Top shape: 24 96 28 28 (1806336)
I0403 18:30:23.069363  7051 net.cpp:156] Memory required for data: 515408928
I0403 18:30:23.069378  7051 layer_factory.hpp:77] Creating layer inception_3a/3x3
I0403 18:30:23.069401  7051 net.cpp:91] Creating Layer inception_3a/3x3
I0403 18:30:23.069418  7051 net.cpp:425] inception_3a/3x3 <- inception_3a/3x3_reduce
I0403 18:30:23.069440  7051 net.cpp:399] inception_3a/3x3 -> inception_3a/3x3
I0403 18:30:23.071081  7051 net.cpp:141] Setting up inception_3a/3x3
I0403 18:30:23.071110  7051 net.cpp:148] Top shape: 24 128 28 28 (2408448)
I0403 18:30:23.071125  7051 net.cpp:156] Memory required for data: 525042720
I0403 18:30:23.071142  7051 layer_factory.hpp:77] Creating layer inception_3a/relu_3x3
I0403 18:30:23.071162  7051 net.cpp:91] Creating Layer inception_3a/relu_3x3
I0403 18:30:23.071179  7051 net.cpp:425] inception_3a/relu_3x3 <- inception_3a/3x3
I0403 18:30:23.071195  7051 net.cpp:386] inception_3a/relu_3x3 -> inception_3a/3x3 (in-place)
I0403 18:30:23.071480  7051 net.cpp:141] Setting up inception_3a/relu_3x3
I0403 18:30:23.071506  7051 net.cpp:148] Top shape: 24 128 28 28 (2408448)
I0403 18:30:23.071521  7051 net.cpp:156] Memory required for data: 534676512
I0403 18:30:23.071535  7051 layer_factory.hpp:77] Creating layer inception_3a/5x5_reduce
I0403 18:30:23.071559  7051 net.cpp:91] Creating Layer inception_3a/5x5_reduce
I0403 18:30:23.071575  7051 net.cpp:425] inception_3a/5x5_reduce <- pool2/3x3_s2_pool2/3x3_s2_0_split_2
I0403 18:30:23.071594  7051 net.cpp:399] inception_3a/5x5_reduce -> inception_3a/5x5_reduce
I0403 18:30:23.072563  7051 net.cpp:141] Setting up inception_3a/5x5_reduce
I0403 18:30:23.072592  7051 net.cpp:148] Top shape: 24 16 28 28 (301056)
I0403 18:30:23.072607  7051 net.cpp:156] Memory required for data: 535880736
I0403 18:30:23.072625  7051 layer_factory.hpp:77] Creating layer inception_3a/relu_5x5_reduce
I0403 18:30:23.072645  7051 net.cpp:91] Creating Layer inception_3a/relu_5x5_reduce
I0403 18:30:23.072662  7051 net.cpp:425] inception_3a/relu_5x5_reduce <- inception_3a/5x5_reduce
I0403 18:30:23.072680  7051 net.cpp:386] inception_3a/relu_5x5_reduce -> inception_3a/5x5_reduce (in-place)
I0403 18:30:23.072963  7051 net.cpp:141] Setting up inception_3a/relu_5x5_reduce
I0403 18:30:23.072993  7051 net.cpp:148] Top shape: 24 16 28 28 (301056)
I0403 18:30:23.073009  7051 net.cpp:156] Memory required for data: 537084960
I0403 18:30:23.073022  7051 layer_factory.hpp:77] Creating layer inception_3a/5x5
I0403 18:30:23.073045  7051 net.cpp:91] Creating Layer inception_3a/5x5
I0403 18:30:23.073062  7051 net.cpp:425] inception_3a/5x5 <- inception_3a/5x5_reduce
I0403 18:30:23.073081  7051 net.cpp:399] inception_3a/5x5 -> inception_3a/5x5
I0403 18:30:23.074092  7051 net.cpp:141] Setting up inception_3a/5x5
I0403 18:30:23.074120  7051 net.cpp:148] Top shape: 24 32 28 28 (602112)
I0403 18:30:23.074136  7051 net.cpp:156] Memory required for data: 539493408
I0403 18:30:23.074152  7051 layer_factory.hpp:77] Creating layer inception_3a/relu_5x5
I0403 18:30:23.074172  7051 net.cpp:91] Creating Layer inception_3a/relu_5x5
I0403 18:30:23.074189  7051 net.cpp:425] inception_3a/relu_5x5 <- inception_3a/5x5
I0403 18:30:23.074208  7051 net.cpp:386] inception_3a/relu_5x5 -> inception_3a/5x5 (in-place)
I0403 18:30:23.074390  7051 net.cpp:141] Setting up inception_3a/relu_5x5
I0403 18:30:23.074419  7051 net.cpp:148] Top shape: 24 32 28 28 (602112)
I0403 18:30:23.074434  7051 net.cpp:156] Memory required for data: 541901856
I0403 18:30:23.074448  7051 layer_factory.hpp:77] Creating layer inception_3a/pool
I0403 18:30:23.074467  7051 net.cpp:91] Creating Layer inception_3a/pool
I0403 18:30:23.074497  7051 net.cpp:425] inception_3a/pool <- pool2/3x3_s2_pool2/3x3_s2_0_split_3
I0403 18:30:23.074517  7051 net.cpp:399] inception_3a/pool -> inception_3a/pool
I0403 18:30:23.074573  7051 net.cpp:141] Setting up inception_3a/pool
I0403 18:30:23.074596  7051 net.cpp:148] Top shape: 24 192 28 28 (3612672)
I0403 18:30:23.074610  7051 net.cpp:156] Memory required for data: 556352544
I0403 18:30:23.074625  7051 layer_factory.hpp:77] Creating layer inception_3a/pool_proj
I0403 18:30:23.074647  7051 net.cpp:91] Creating Layer inception_3a/pool_proj
I0403 18:30:23.074664  7051 net.cpp:425] inception_3a/pool_proj <- inception_3a/pool
I0403 18:30:23.074687  7051 net.cpp:399] inception_3a/pool_proj -> inception_3a/pool_proj
I0403 18:30:23.075654  7051 net.cpp:141] Setting up inception_3a/pool_proj
I0403 18:30:23.075681  7051 net.cpp:148] Top shape: 24 32 28 28 (602112)
I0403 18:30:23.075696  7051 net.cpp:156] Memory required for data: 558760992
I0403 18:30:23.075721  7051 layer_factory.hpp:77] Creating layer inception_3a/relu_pool_proj
I0403 18:30:23.075739  7051 net.cpp:91] Creating Layer inception_3a/relu_pool_proj
I0403 18:30:23.075754  7051 net.cpp:425] inception_3a/relu_pool_proj <- inception_3a/pool_proj
I0403 18:30:23.075772  7051 net.cpp:386] inception_3a/relu_pool_proj -> inception_3a/pool_proj (in-place)
I0403 18:30:23.076046  7051 net.cpp:141] Setting up inception_3a/relu_pool_proj
I0403 18:30:23.076072  7051 net.cpp:148] Top shape: 24 32 28 28 (602112)
I0403 18:30:23.076087  7051 net.cpp:156] Memory required for data: 561169440
I0403 18:30:23.076102  7051 layer_factory.hpp:77] Creating layer inception_3a/output
I0403 18:30:23.076122  7051 net.cpp:91] Creating Layer inception_3a/output
I0403 18:30:23.076139  7051 net.cpp:425] inception_3a/output <- inception_3a/1x1
I0403 18:30:23.076155  7051 net.cpp:425] inception_3a/output <- inception_3a/3x3
I0403 18:30:23.076170  7051 net.cpp:425] inception_3a/output <- inception_3a/5x5
I0403 18:30:23.076186  7051 net.cpp:425] inception_3a/output <- inception_3a/pool_proj
I0403 18:30:23.076202  7051 net.cpp:399] inception_3a/output -> inception_3a/output
I0403 18:30:23.076256  7051 net.cpp:141] Setting up inception_3a/output
I0403 18:30:23.076279  7051 net.cpp:148] Top shape: 24 256 28 28 (4816896)
I0403 18:30:23.076293  7051 net.cpp:156] Memory required for data: 580437024
I0403 18:30:23.076308  7051 layer_factory.hpp:77] Creating layer inception_3a/output_inception_3a/output_0_split
I0403 18:30:23.076323  7051 net.cpp:91] Creating Layer inception_3a/output_inception_3a/output_0_split
I0403 18:30:23.076339  7051 net.cpp:425] inception_3a/output_inception_3a/output_0_split <- inception_3a/output
I0403 18:30:23.076359  7051 net.cpp:399] inception_3a/output_inception_3a/output_0_split -> inception_3a/output_inception_3a/output_0_split_0
I0403 18:30:23.076380  7051 net.cpp:399] inception_3a/output_inception_3a/output_0_split -> inception_3a/output_inception_3a/output_0_split_1
I0403 18:30:23.076405  7051 net.cpp:399] inception_3a/output_inception_3a/output_0_split -> inception_3a/output_inception_3a/output_0_split_2
I0403 18:30:23.076426  7051 net.cpp:399] inception_3a/output_inception_3a/output_0_split -> inception_3a/output_inception_3a/output_0_split_3
I0403 18:30:23.076499  7051 net.cpp:141] Setting up inception_3a/output_inception_3a/output_0_split
I0403 18:30:23.076522  7051 net.cpp:148] Top shape: 24 256 28 28 (4816896)
I0403 18:30:23.076539  7051 net.cpp:148] Top shape: 24 256 28 28 (4816896)
I0403 18:30:23.076555  7051 net.cpp:148] Top shape: 24 256 28 28 (4816896)
I0403 18:30:23.076568  7051 net.cpp:148] Top shape: 24 256 28 28 (4816896)
I0403 18:30:23.076582  7051 net.cpp:156] Memory required for data: 657507360
I0403 18:30:23.076596  7051 layer_factory.hpp:77] Creating layer inception_3b/1x1
I0403 18:30:23.076618  7051 net.cpp:91] Creating Layer inception_3b/1x1
I0403 18:30:23.076635  7051 net.cpp:425] inception_3b/1x1 <- inception_3a/output_inception_3a/output_0_split_0
I0403 18:30:23.076656  7051 net.cpp:399] inception_3b/1x1 -> inception_3b/1x1
I0403 18:30:23.077797  7051 net.cpp:141] Setting up inception_3b/1x1
I0403 18:30:23.077836  7051 net.cpp:148] Top shape: 24 128 28 28 (2408448)
I0403 18:30:23.077852  7051 net.cpp:156] Memory required for data: 667141152
I0403 18:30:23.077870  7051 layer_factory.hpp:77] Creating layer inception_3b/relu_1x1
I0403 18:30:23.077896  7051 net.cpp:91] Creating Layer inception_3b/relu_1x1
I0403 18:30:23.077913  7051 net.cpp:425] inception_3b/relu_1x1 <- inception_3b/1x1
I0403 18:30:23.077929  7051 net.cpp:386] inception_3b/relu_1x1 -> inception_3b/1x1 (in-place)
I0403 18:30:23.078105  7051 net.cpp:141] Setting up inception_3b/relu_1x1
I0403 18:30:23.078130  7051 net.cpp:148] Top shape: 24 128 28 28 (2408448)
I0403 18:30:23.078145  7051 net.cpp:156] Memory required for data: 676774944
I0403 18:30:23.078160  7051 layer_factory.hpp:77] Creating layer inception_3b/3x3_reduce
I0403 18:30:23.078183  7051 net.cpp:91] Creating Layer inception_3b/3x3_reduce
I0403 18:30:23.078202  7051 net.cpp:425] inception_3b/3x3_reduce <- inception_3a/output_inception_3a/output_0_split_1
I0403 18:30:23.078225  7051 net.cpp:399] inception_3b/3x3_reduce -> inception_3b/3x3_reduce
I0403 18:30:23.079363  7051 net.cpp:141] Setting up inception_3b/3x3_reduce
I0403 18:30:23.079391  7051 net.cpp:148] Top shape: 24 128 28 28 (2408448)
I0403 18:30:23.079406  7051 net.cpp:156] Memory required for data: 686408736
I0403 18:30:23.079423  7051 layer_factory.hpp:77] Creating layer inception_3b/relu_3x3_reduce
I0403 18:30:23.079442  7051 net.cpp:91] Creating Layer inception_3b/relu_3x3_reduce
I0403 18:30:23.079457  7051 net.cpp:425] inception_3b/relu_3x3_reduce <- inception_3b/3x3_reduce
I0403 18:30:23.079476  7051 net.cpp:386] inception_3b/relu_3x3_reduce -> inception_3b/3x3_reduce (in-place)
I0403 18:30:23.079649  7051 net.cpp:141] Setting up inception_3b/relu_3x3_reduce
I0403 18:30:23.079675  7051 net.cpp:148] Top shape: 24 128 28 28 (2408448)
I0403 18:30:23.079689  7051 net.cpp:156] Memory required for data: 696042528
I0403 18:30:23.079704  7051 layer_factory.hpp:77] Creating layer inception_3b/3x3
I0403 18:30:23.079730  7051 net.cpp:91] Creating Layer inception_3b/3x3
I0403 18:30:23.079749  7051 net.cpp:425] inception_3b/3x3 <- inception_3b/3x3_reduce
I0403 18:30:23.079772  7051 net.cpp:399] inception_3b/3x3 -> inception_3b/3x3
I0403 18:30:23.082857  7051 net.cpp:141] Setting up inception_3b/3x3
I0403 18:30:23.082886  7051 net.cpp:148] Top shape: 24 192 28 28 (3612672)
I0403 18:30:23.082903  7051 net.cpp:156] Memory required for data: 710493216
I0403 18:30:23.082922  7051 layer_factory.hpp:77] Creating layer inception_3b/relu_3x3
I0403 18:30:23.082943  7051 net.cpp:91] Creating Layer inception_3b/relu_3x3
I0403 18:30:23.082960  7051 net.cpp:425] inception_3b/relu_3x3 <- inception_3b/3x3
I0403 18:30:23.082978  7051 net.cpp:386] inception_3b/relu_3x3 -> inception_3b/3x3 (in-place)
I0403 18:30:23.083271  7051 net.cpp:141] Setting up inception_3b/relu_3x3
I0403 18:30:23.083297  7051 net.cpp:148] Top shape: 24 192 28 28 (3612672)
I0403 18:30:23.083313  7051 net.cpp:156] Memory required for data: 724943904
I0403 18:30:23.083328  7051 layer_factory.hpp:77] Creating layer inception_3b/5x5_reduce
I0403 18:30:23.083353  7051 net.cpp:91] Creating Layer inception_3b/5x5_reduce
I0403 18:30:23.083374  7051 net.cpp:425] inception_3b/5x5_reduce <- inception_3a/output_inception_3a/output_0_split_2
I0403 18:30:23.083392  7051 net.cpp:399] inception_3b/5x5_reduce -> inception_3b/5x5_reduce
I0403 18:30:23.084429  7051 net.cpp:141] Setting up inception_3b/5x5_reduce
I0403 18:30:23.084456  7051 net.cpp:148] Top shape: 24 32 28 28 (602112)
I0403 18:30:23.084472  7051 net.cpp:156] Memory required for data: 727352352
I0403 18:30:23.084491  7051 layer_factory.hpp:77] Creating layer inception_3b/relu_5x5_reduce
I0403 18:30:23.084512  7051 net.cpp:91] Creating Layer inception_3b/relu_5x5_reduce
I0403 18:30:23.084529  7051 net.cpp:425] inception_3b/relu_5x5_reduce <- inception_3b/5x5_reduce
I0403 18:30:23.084547  7051 net.cpp:386] inception_3b/relu_5x5_reduce -> inception_3b/5x5_reduce (in-place)
I0403 18:30:23.084746  7051 net.cpp:141] Setting up inception_3b/relu_5x5_reduce
I0403 18:30:23.084775  7051 net.cpp:148] Top shape: 24 32 28 28 (602112)
I0403 18:30:23.084791  7051 net.cpp:156] Memory required for data: 729760800
I0403 18:30:23.084806  7051 layer_factory.hpp:77] Creating layer inception_3b/5x5
I0403 18:30:23.084830  7051 net.cpp:91] Creating Layer inception_3b/5x5
I0403 18:30:23.084846  7051 net.cpp:425] inception_3b/5x5 <- inception_3b/5x5_reduce
I0403 18:30:23.084867  7051 net.cpp:399] inception_3b/5x5 -> inception_3b/5x5
I0403 18:30:23.086989  7051 net.cpp:141] Setting up inception_3b/5x5
I0403 18:30:23.087019  7051 net.cpp:148] Top shape: 24 96 28 28 (1806336)
I0403 18:30:23.087035  7051 net.cpp:156] Memory required for data: 736986144
I0403 18:30:23.087055  7051 layer_factory.hpp:77] Creating layer inception_3b/relu_5x5
I0403 18:30:23.087074  7051 net.cpp:91] Creating Layer inception_3b/relu_5x5
I0403 18:30:23.087091  7051 net.cpp:425] inception_3b/relu_5x5 <- inception_3b/5x5
I0403 18:30:23.087111  7051 net.cpp:386] inception_3b/relu_5x5 -> inception_3b/5x5 (in-place)
I0403 18:30:23.087323  7051 net.cpp:141] Setting up inception_3b/relu_5x5
I0403 18:30:23.087350  7051 net.cpp:148] Top shape: 24 96 28 28 (1806336)
I0403 18:30:23.087366  7051 net.cpp:156] Memory required for data: 744211488
I0403 18:30:23.087383  7051 layer_factory.hpp:77] Creating layer inception_3b/pool
I0403 18:30:23.087401  7051 net.cpp:91] Creating Layer inception_3b/pool
I0403 18:30:23.087419  7051 net.cpp:425] inception_3b/pool <- inception_3a/output_inception_3a/output_0_split_3
I0403 18:30:23.087437  7051 net.cpp:399] inception_3b/pool -> inception_3b/pool
I0403 18:30:23.087496  7051 net.cpp:141] Setting up inception_3b/pool
I0403 18:30:23.087520  7051 net.cpp:148] Top shape: 24 256 28 28 (4816896)
I0403 18:30:23.087535  7051 net.cpp:156] Memory required for data: 763479072
I0403 18:30:23.087550  7051 layer_factory.hpp:77] Creating layer inception_3b/pool_proj
I0403 18:30:23.087574  7051 net.cpp:91] Creating Layer inception_3b/pool_proj
I0403 18:30:23.087592  7051 net.cpp:425] inception_3b/pool_proj <- inception_3b/pool
I0403 18:30:23.087615  7051 net.cpp:399] inception_3b/pool_proj -> inception_3b/pool_proj
I0403 18:30:23.088742  7051 net.cpp:141] Setting up inception_3b/pool_proj
I0403 18:30:23.088774  7051 net.cpp:148] Top shape: 24 64 28 28 (1204224)
I0403 18:30:23.088790  7051 net.cpp:156] Memory required for data: 768295968
I0403 18:30:23.088809  7051 layer_factory.hpp:77] Creating layer inception_3b/relu_pool_proj
I0403 18:30:23.088829  7051 net.cpp:91] Creating Layer inception_3b/relu_pool_proj
I0403 18:30:23.088845  7051 net.cpp:425] inception_3b/relu_pool_proj <- inception_3b/pool_proj
I0403 18:30:23.088871  7051 net.cpp:386] inception_3b/relu_pool_proj -> inception_3b/pool_proj (in-place)
I0403 18:30:23.089278  7051 net.cpp:141] Setting up inception_3b/relu_pool_proj
I0403 18:30:23.089309  7051 net.cpp:148] Top shape: 24 64 28 28 (1204224)
I0403 18:30:23.089326  7051 net.cpp:156] Memory required for data: 773112864
I0403 18:30:23.089342  7051 layer_factory.hpp:77] Creating layer inception_3b/output
I0403 18:30:23.089360  7051 net.cpp:91] Creating Layer inception_3b/output
I0403 18:30:23.089377  7051 net.cpp:425] inception_3b/output <- inception_3b/1x1
I0403 18:30:23.089395  7051 net.cpp:425] inception_3b/output <- inception_3b/3x3
I0403 18:30:23.089411  7051 net.cpp:425] inception_3b/output <- inception_3b/5x5
I0403 18:30:23.089427  7051 net.cpp:425] inception_3b/output <- inception_3b/pool_proj
I0403 18:30:23.089445  7051 net.cpp:399] inception_3b/output -> inception_3b/output
I0403 18:30:23.089493  7051 net.cpp:141] Setting up inception_3b/output
I0403 18:30:23.089517  7051 net.cpp:148] Top shape: 24 480 28 28 (9031680)
I0403 18:30:23.089532  7051 net.cpp:156] Memory required for data: 809239584
I0403 18:30:23.089547  7051 layer_factory.hpp:77] Creating layer pool3/3x3_s2
I0403 18:30:23.089567  7051 net.cpp:91] Creating Layer pool3/3x3_s2
I0403 18:30:23.089586  7051 net.cpp:425] pool3/3x3_s2 <- inception_3b/output
I0403 18:30:23.089620  7051 net.cpp:399] pool3/3x3_s2 -> pool3/3x3_s2
I0403 18:30:23.089684  7051 net.cpp:141] Setting up pool3/3x3_s2
I0403 18:30:23.089709  7051 net.cpp:148] Top shape: 24 480 14 14 (2257920)
I0403 18:30:23.089725  7051 net.cpp:156] Memory required for data: 818271264
I0403 18:30:23.089740  7051 layer_factory.hpp:77] Creating layer pool3/3x3_s2_pool3/3x3_s2_0_split
I0403 18:30:23.089756  7051 net.cpp:91] Creating Layer pool3/3x3_s2_pool3/3x3_s2_0_split
I0403 18:30:23.089772  7051 net.cpp:425] pool3/3x3_s2_pool3/3x3_s2_0_split <- pool3/3x3_s2
I0403 18:30:23.089793  7051 net.cpp:399] pool3/3x3_s2_pool3/3x3_s2_0_split -> pool3/3x3_s2_pool3/3x3_s2_0_split_0
I0403 18:30:23.089814  7051 net.cpp:399] pool3/3x3_s2_pool3/3x3_s2_0_split -> pool3/3x3_s2_pool3/3x3_s2_0_split_1
I0403 18:30:23.089835  7051 net.cpp:399] pool3/3x3_s2_pool3/3x3_s2_0_split -> pool3/3x3_s2_pool3/3x3_s2_0_split_2
I0403 18:30:23.089855  7051 net.cpp:399] pool3/3x3_s2_pool3/3x3_s2_0_split -> pool3/3x3_s2_pool3/3x3_s2_0_split_3
I0403 18:30:23.089936  7051 net.cpp:141] Setting up pool3/3x3_s2_pool3/3x3_s2_0_split
I0403 18:30:23.089963  7051 net.cpp:148] Top shape: 24 480 14 14 (2257920)
I0403 18:30:23.089982  7051 net.cpp:148] Top shape: 24 480 14 14 (2257920)
I0403 18:30:23.089998  7051 net.cpp:148] Top shape: 24 480 14 14 (2257920)
I0403 18:30:23.090013  7051 net.cpp:148] Top shape: 24 480 14 14 (2257920)
I0403 18:30:23.090028  7051 net.cpp:156] Memory required for data: 854397984
I0403 18:30:23.090044  7051 layer_factory.hpp:77] Creating layer inception_4a/1x1
I0403 18:30:23.090066  7051 net.cpp:91] Creating Layer inception_4a/1x1
I0403 18:30:23.090085  7051 net.cpp:425] inception_4a/1x1 <- pool3/3x3_s2_pool3/3x3_s2_0_split_0
I0403 18:30:23.090106  7051 net.cpp:399] inception_4a/1x1 -> inception_4a/1x1
I0403 18:30:23.091779  7051 net.cpp:141] Setting up inception_4a/1x1
I0403 18:30:23.091809  7051 net.cpp:148] Top shape: 24 192 14 14 (903168)
I0403 18:30:23.091825  7051 net.cpp:156] Memory required for data: 858010656
I0403 18:30:23.091843  7051 layer_factory.hpp:77] Creating layer inception_4a/relu_1x1
I0403 18:30:23.091862  7051 net.cpp:91] Creating Layer inception_4a/relu_1x1
I0403 18:30:23.091879  7051 net.cpp:425] inception_4a/relu_1x1 <- inception_4a/1x1
I0403 18:30:23.091900  7051 net.cpp:386] inception_4a/relu_1x1 -> inception_4a/1x1 (in-place)
I0403 18:30:23.092089  7051 net.cpp:141] Setting up inception_4a/relu_1x1
I0403 18:30:23.092116  7051 net.cpp:148] Top shape: 24 192 14 14 (903168)
I0403 18:30:23.092131  7051 net.cpp:156] Memory required for data: 861623328
I0403 18:30:23.092147  7051 layer_factory.hpp:77] Creating layer inception_4a/3x3_reduce
I0403 18:30:23.092170  7051 net.cpp:91] Creating Layer inception_4a/3x3_reduce
I0403 18:30:23.092190  7051 net.cpp:425] inception_4a/3x3_reduce <- pool3/3x3_s2_pool3/3x3_s2_0_split_1
I0403 18:30:23.092222  7051 net.cpp:399] inception_4a/3x3_reduce -> inception_4a/3x3_reduce
I0403 18:30:23.093590  7051 net.cpp:141] Setting up inception_4a/3x3_reduce
I0403 18:30:23.093622  7051 net.cpp:148] Top shape: 24 96 14 14 (451584)
I0403 18:30:23.093641  7051 net.cpp:156] Memory required for data: 863429664
I0403 18:30:23.093668  7051 layer_factory.hpp:77] Creating layer inception_4a/relu_3x3_reduce
I0403 18:30:23.093689  7051 net.cpp:91] Creating Layer inception_4a/relu_3x3_reduce
I0403 18:30:23.093706  7051 net.cpp:425] inception_4a/relu_3x3_reduce <- inception_4a/3x3_reduce
I0403 18:30:23.093724  7051 net.cpp:386] inception_4a/relu_3x3_reduce -> inception_4a/3x3_reduce (in-place)
I0403 18:30:23.093914  7051 net.cpp:141] Setting up inception_4a/relu_3x3_reduce
I0403 18:30:23.093940  7051 net.cpp:148] Top shape: 24 96 14 14 (451584)
I0403 18:30:23.093955  7051 net.cpp:156] Memory required for data: 865236000
I0403 18:30:23.093971  7051 layer_factory.hpp:77] Creating layer inception_4a/3x3
I0403 18:30:23.093994  7051 net.cpp:91] Creating Layer inception_4a/3x3
I0403 18:30:23.094013  7051 net.cpp:425] inception_4a/3x3 <- inception_4a/3x3_reduce
I0403 18:30:23.094036  7051 net.cpp:399] inception_4a/3x3 -> inception_4a/3x3
I0403 18:30:23.096935  7051 net.cpp:141] Setting up inception_4a/3x3
I0403 18:30:23.096966  7051 net.cpp:148] Top shape: 24 208 14 14 (978432)
I0403 18:30:23.096981  7051 net.cpp:156] Memory required for data: 869149728
I0403 18:30:23.097000  7051 layer_factory.hpp:77] Creating layer inception_4a/relu_3x3
I0403 18:30:23.097021  7051 net.cpp:91] Creating Layer inception_4a/relu_3x3
I0403 18:30:23.097038  7051 net.cpp:425] inception_4a/relu_3x3 <- inception_4a/3x3
I0403 18:30:23.097057  7051 net.cpp:386] inception_4a/relu_3x3 -> inception_4a/3x3 (in-place)
I0403 18:30:23.097363  7051 net.cpp:141] Setting up inception_4a/relu_3x3
I0403 18:30:23.097393  7051 net.cpp:148] Top shape: 24 208 14 14 (978432)
I0403 18:30:23.097407  7051 net.cpp:156] Memory required for data: 873063456
I0403 18:30:23.097422  7051 layer_factory.hpp:77] Creating layer inception_4a/5x5_reduce
I0403 18:30:23.097445  7051 net.cpp:91] Creating Layer inception_4a/5x5_reduce
I0403 18:30:23.097465  7051 net.cpp:425] inception_4a/5x5_reduce <- pool3/3x3_s2_pool3/3x3_s2_0_split_2
I0403 18:30:23.097487  7051 net.cpp:399] inception_4a/5x5_reduce -> inception_4a/5x5_reduce
I0403 18:30:23.098575  7051 net.cpp:141] Setting up inception_4a/5x5_reduce
I0403 18:30:23.098605  7051 net.cpp:148] Top shape: 24 16 14 14 (75264)
I0403 18:30:23.098621  7051 net.cpp:156] Memory required for data: 873364512
I0403 18:30:23.098639  7051 layer_factory.hpp:77] Creating layer inception_4a/relu_5x5_reduce
I0403 18:30:23.098661  7051 net.cpp:91] Creating Layer inception_4a/relu_5x5_reduce
I0403 18:30:23.098678  7051 net.cpp:425] inception_4a/relu_5x5_reduce <- inception_4a/5x5_reduce
I0403 18:30:23.098697  7051 net.cpp:386] inception_4a/relu_5x5_reduce -> inception_4a/5x5_reduce (in-place)
I0403 18:30:23.098886  7051 net.cpp:141] Setting up inception_4a/relu_5x5_reduce
I0403 18:30:23.098917  7051 net.cpp:148] Top shape: 24 16 14 14 (75264)
I0403 18:30:23.098933  7051 net.cpp:156] Memory required for data: 873665568
I0403 18:30:23.098949  7051 layer_factory.hpp:77] Creating layer inception_4a/5x5
I0403 18:30:23.098973  7051 net.cpp:91] Creating Layer inception_4a/5x5
I0403 18:30:23.098991  7051 net.cpp:425] inception_4a/5x5 <- inception_4a/5x5_reduce
I0403 18:30:23.099011  7051 net.cpp:399] inception_4a/5x5 -> inception_4a/5x5
I0403 18:30:23.100179  7051 net.cpp:141] Setting up inception_4a/5x5
I0403 18:30:23.100229  7051 net.cpp:148] Top shape: 24 48 14 14 (225792)
I0403 18:30:23.100249  7051 net.cpp:156] Memory required for data: 874568736
I0403 18:30:23.100277  7051 layer_factory.hpp:77] Creating layer inception_4a/relu_5x5
I0403 18:30:23.100297  7051 net.cpp:91] Creating Layer inception_4a/relu_5x5
I0403 18:30:23.100314  7051 net.cpp:425] inception_4a/relu_5x5 <- inception_4a/5x5
I0403 18:30:23.100334  7051 net.cpp:386] inception_4a/relu_5x5 -> inception_4a/5x5 (in-place)
I0403 18:30:23.100539  7051 net.cpp:141] Setting up inception_4a/relu_5x5
I0403 18:30:23.100565  7051 net.cpp:148] Top shape: 24 48 14 14 (225792)
I0403 18:30:23.100581  7051 net.cpp:156] Memory required for data: 875471904
I0403 18:30:23.100596  7051 layer_factory.hpp:77] Creating layer inception_4a/pool
I0403 18:30:23.100615  7051 net.cpp:91] Creating Layer inception_4a/pool
I0403 18:30:23.100631  7051 net.cpp:425] inception_4a/pool <- pool3/3x3_s2_pool3/3x3_s2_0_split_3
I0403 18:30:23.100652  7051 net.cpp:399] inception_4a/pool -> inception_4a/pool
I0403 18:30:23.100715  7051 net.cpp:141] Setting up inception_4a/pool
I0403 18:30:23.100739  7051 net.cpp:148] Top shape: 24 480 14 14 (2257920)
I0403 18:30:23.100754  7051 net.cpp:156] Memory required for data: 884503584
I0403 18:30:23.100767  7051 layer_factory.hpp:77] Creating layer inception_4a/pool_proj
I0403 18:30:23.100792  7051 net.cpp:91] Creating Layer inception_4a/pool_proj
I0403 18:30:23.100811  7051 net.cpp:425] inception_4a/pool_proj <- inception_4a/pool
I0403 18:30:23.100831  7051 net.cpp:399] inception_4a/pool_proj -> inception_4a/pool_proj
I0403 18:30:23.102041  7051 net.cpp:141] Setting up inception_4a/pool_proj
I0403 18:30:23.102075  7051 net.cpp:148] Top shape: 24 64 14 14 (301056)
I0403 18:30:23.102107  7051 net.cpp:156] Memory required for data: 885707808
I0403 18:30:23.102125  7051 layer_factory.hpp:77] Creating layer inception_4a/relu_pool_proj
I0403 18:30:23.102144  7051 net.cpp:91] Creating Layer inception_4a/relu_pool_proj
I0403 18:30:23.102160  7051 net.cpp:425] inception_4a/relu_pool_proj <- inception_4a/pool_proj
I0403 18:30:23.102181  7051 net.cpp:386] inception_4a/relu_pool_proj -> inception_4a/pool_proj (in-place)
I0403 18:30:23.102486  7051 net.cpp:141] Setting up inception_4a/relu_pool_proj
I0403 18:30:23.102516  7051 net.cpp:148] Top shape: 24 64 14 14 (301056)
I0403 18:30:23.102532  7051 net.cpp:156] Memory required for data: 886912032
I0403 18:30:23.102547  7051 layer_factory.hpp:77] Creating layer inception_4a/output
I0403 18:30:23.102566  7051 net.cpp:91] Creating Layer inception_4a/output
I0403 18:30:23.102581  7051 net.cpp:425] inception_4a/output <- inception_4a/1x1
I0403 18:30:23.102598  7051 net.cpp:425] inception_4a/output <- inception_4a/3x3
I0403 18:30:23.102615  7051 net.cpp:425] inception_4a/output <- inception_4a/5x5
I0403 18:30:23.102632  7051 net.cpp:425] inception_4a/output <- inception_4a/pool_proj
I0403 18:30:23.102651  7051 net.cpp:399] inception_4a/output -> inception_4a/output
I0403 18:30:23.102697  7051 net.cpp:141] Setting up inception_4a/output
I0403 18:30:23.102720  7051 net.cpp:148] Top shape: 24 512 14 14 (2408448)
I0403 18:30:23.102735  7051 net.cpp:156] Memory required for data: 896545824
I0403 18:30:23.102749  7051 layer_factory.hpp:77] Creating layer inception_4a/output_inception_4a/output_0_split
I0403 18:30:23.102771  7051 net.cpp:91] Creating Layer inception_4a/output_inception_4a/output_0_split
I0403 18:30:23.102787  7051 net.cpp:425] inception_4a/output_inception_4a/output_0_split <- inception_4a/output
I0403 18:30:23.102805  7051 net.cpp:399] inception_4a/output_inception_4a/output_0_split -> inception_4a/output_inception_4a/output_0_split_0
I0403 18:30:23.102828  7051 net.cpp:399] inception_4a/output_inception_4a/output_0_split -> inception_4a/output_inception_4a/output_0_split_1
I0403 18:30:23.102849  7051 net.cpp:399] inception_4a/output_inception_4a/output_0_split -> inception_4a/output_inception_4a/output_0_split_2
I0403 18:30:23.102869  7051 net.cpp:399] inception_4a/output_inception_4a/output_0_split -> inception_4a/output_inception_4a/output_0_split_3
I0403 18:30:23.102888  7051 net.cpp:399] inception_4a/output_inception_4a/output_0_split -> inception_4a/output_inception_4a/output_0_split_4
I0403 18:30:23.102985  7051 net.cpp:141] Setting up inception_4a/output_inception_4a/output_0_split
I0403 18:30:23.103009  7051 net.cpp:148] Top shape: 24 512 14 14 (2408448)
I0403 18:30:23.103026  7051 net.cpp:148] Top shape: 24 512 14 14 (2408448)
I0403 18:30:23.103042  7051 net.cpp:148] Top shape: 24 512 14 14 (2408448)
I0403 18:30:23.103057  7051 net.cpp:148] Top shape: 24 512 14 14 (2408448)
I0403 18:30:23.103072  7051 net.cpp:148] Top shape: 24 512 14 14 (2408448)
I0403 18:30:23.103087  7051 net.cpp:156] Memory required for data: 944714784
I0403 18:30:23.103103  7051 layer_factory.hpp:77] Creating layer loss1/ave_pool
I0403 18:30:23.103126  7051 net.cpp:91] Creating Layer loss1/ave_pool
I0403 18:30:23.103143  7051 net.cpp:425] loss1/ave_pool <- inception_4a/output_inception_4a/output_0_split_0
I0403 18:30:23.103162  7051 net.cpp:399] loss1/ave_pool -> loss1/ave_pool
I0403 18:30:23.103389  7051 net.cpp:141] Setting up loss1/ave_pool
I0403 18:30:23.103425  7051 net.cpp:148] Top shape: 24 512 4 4 (196608)
I0403 18:30:23.103440  7051 net.cpp:156] Memory required for data: 945501216
I0403 18:30:23.103456  7051 layer_factory.hpp:77] Creating layer loss1/conv
I0403 18:30:23.103479  7051 net.cpp:91] Creating Layer loss1/conv
I0403 18:30:23.103498  7051 net.cpp:425] loss1/conv <- loss1/ave_pool
I0403 18:30:23.103516  7051 net.cpp:399] loss1/conv -> loss1/conv
I0403 18:30:23.104970  7051 net.cpp:141] Setting up loss1/conv
I0403 18:30:23.105001  7051 net.cpp:148] Top shape: 24 128 4 4 (49152)
I0403 18:30:23.105031  7051 net.cpp:156] Memory required for data: 945697824
I0403 18:30:23.105051  7051 layer_factory.hpp:77] Creating layer loss1/relu_conv
I0403 18:30:23.105072  7051 net.cpp:91] Creating Layer loss1/relu_conv
I0403 18:30:23.105088  7051 net.cpp:425] loss1/relu_conv <- loss1/conv
I0403 18:30:23.105105  7051 net.cpp:386] loss1/relu_conv -> loss1/conv (in-place)
I0403 18:30:23.105396  7051 net.cpp:141] Setting up loss1/relu_conv
I0403 18:30:23.105422  7051 net.cpp:148] Top shape: 24 128 4 4 (49152)
I0403 18:30:23.105437  7051 net.cpp:156] Memory required for data: 945894432
I0403 18:30:23.105453  7051 layer_factory.hpp:77] Creating layer loss1/fc
I0403 18:30:23.105479  7051 net.cpp:91] Creating Layer loss1/fc
I0403 18:30:23.105499  7051 net.cpp:425] loss1/fc <- loss1/conv
I0403 18:30:23.105518  7051 net.cpp:399] loss1/fc -> loss1/fc
I0403 18:30:23.124218  7051 net.cpp:141] Setting up loss1/fc
I0403 18:30:23.124284  7051 net.cpp:148] Top shape: 24 1024 (24576)
I0403 18:30:23.124300  7051 net.cpp:156] Memory required for data: 945992736
I0403 18:30:23.124320  7051 layer_factory.hpp:77] Creating layer loss1/relu_fc
I0403 18:30:23.124339  7051 net.cpp:91] Creating Layer loss1/relu_fc
I0403 18:30:23.124357  7051 net.cpp:425] loss1/relu_fc <- loss1/fc
I0403 18:30:23.124378  7051 net.cpp:386] loss1/relu_fc -> loss1/fc (in-place)
I0403 18:30:23.124599  7051 net.cpp:141] Setting up loss1/relu_fc
I0403 18:30:23.124625  7051 net.cpp:148] Top shape: 24 1024 (24576)
I0403 18:30:23.124641  7051 net.cpp:156] Memory required for data: 946091040
I0403 18:30:23.124657  7051 layer_factory.hpp:77] Creating layer loss1/drop_fc
I0403 18:30:23.124687  7051 net.cpp:91] Creating Layer loss1/drop_fc
I0403 18:30:23.124706  7051 net.cpp:425] loss1/drop_fc <- loss1/fc
I0403 18:30:23.124730  7051 net.cpp:386] loss1/drop_fc -> loss1/fc (in-place)
I0403 18:30:23.124785  7051 net.cpp:141] Setting up loss1/drop_fc
I0403 18:30:23.124814  7051 net.cpp:148] Top shape: 24 1024 (24576)
I0403 18:30:23.124830  7051 net.cpp:156] Memory required for data: 946189344
I0403 18:30:23.124845  7051 layer_factory.hpp:77] Creating layer loss1/classifier_plantvillage
I0403 18:30:23.124866  7051 net.cpp:91] Creating Layer loss1/classifier_plantvillage
I0403 18:30:23.124883  7051 net.cpp:425] loss1/classifier_plantvillage <- loss1/fc
I0403 18:30:23.124904  7051 net.cpp:399] loss1/classifier_plantvillage -> loss1/classifier_plantvillage
I0403 18:30:23.125905  7051 net.cpp:141] Setting up loss1/classifier_plantvillage
I0403 18:30:23.125932  7051 net.cpp:148] Top shape: 24 38 (912)
I0403 18:30:23.125948  7051 net.cpp:156] Memory required for data: 946192992
I0403 18:30:23.125967  7051 layer_factory.hpp:77] Creating layer loss1/classifier_plantvillage_loss1/classifier_plantvillage_0_split
I0403 18:30:23.125987  7051 net.cpp:91] Creating Layer loss1/classifier_plantvillage_loss1/classifier_plantvillage_0_split
I0403 18:30:23.126003  7051 net.cpp:425] loss1/classifier_plantvillage_loss1/classifier_plantvillage_0_split <- loss1/classifier_plantvillage
I0403 18:30:23.126022  7051 net.cpp:399] loss1/classifier_plantvillage_loss1/classifier_plantvillage_0_split -> loss1/classifier_plantvillage_loss1/classifier_plantvillage_0_split_0
I0403 18:30:23.126045  7051 net.cpp:399] loss1/classifier_plantvillage_loss1/classifier_plantvillage_0_split -> loss1/classifier_plantvillage_loss1/classifier_plantvillage_0_split_1
I0403 18:30:23.126066  7051 net.cpp:399] loss1/classifier_plantvillage_loss1/classifier_plantvillage_0_split -> loss1/classifier_plantvillage_loss1/classifier_plantvillage_0_split_2
I0403 18:30:23.126137  7051 net.cpp:141] Setting up loss1/classifier_plantvillage_loss1/classifier_plantvillage_0_split
I0403 18:30:23.126162  7051 net.cpp:148] Top shape: 24 38 (912)
I0403 18:30:23.126178  7051 net.cpp:148] Top shape: 24 38 (912)
I0403 18:30:23.126193  7051 net.cpp:148] Top shape: 24 38 (912)
I0403 18:30:23.126206  7051 net.cpp:156] Memory required for data: 946203936
I0403 18:30:23.126226  7051 layer_factory.hpp:77] Creating layer inception_4b/1x1
I0403 18:30:23.126251  7051 net.cpp:91] Creating Layer inception_4b/1x1
I0403 18:30:23.126293  7051 net.cpp:425] inception_4b/1x1 <- inception_4a/output_inception_4a/output_0_split_1
I0403 18:30:23.126313  7051 net.cpp:399] inception_4b/1x1 -> inception_4b/1x1
I0403 18:30:23.128036  7051 net.cpp:141] Setting up inception_4b/1x1
I0403 18:30:23.128065  7051 net.cpp:148] Top shape: 24 160 14 14 (752640)
I0403 18:30:23.128080  7051 net.cpp:156] Memory required for data: 949214496
I0403 18:30:23.128099  7051 layer_factory.hpp:77] Creating layer inception_4b/relu_1x1
I0403 18:30:23.128119  7051 net.cpp:91] Creating Layer inception_4b/relu_1x1
I0403 18:30:23.128136  7051 net.cpp:425] inception_4b/relu_1x1 <- inception_4b/1x1
I0403 18:30:23.128154  7051 net.cpp:386] inception_4b/relu_1x1 -> inception_4b/1x1 (in-place)
I0403 18:30:23.128343  7051 net.cpp:141] Setting up inception_4b/relu_1x1
I0403 18:30:23.128371  7051 net.cpp:148] Top shape: 24 160 14 14 (752640)
I0403 18:30:23.128387  7051 net.cpp:156] Memory required for data: 952225056
I0403 18:30:23.128402  7051 layer_factory.hpp:77] Creating layer inception_4b/3x3_reduce
I0403 18:30:23.128427  7051 net.cpp:91] Creating Layer inception_4b/3x3_reduce
I0403 18:30:23.128444  7051 net.cpp:425] inception_4b/3x3_reduce <- inception_4a/output_inception_4a/output_0_split_2
I0403 18:30:23.128463  7051 net.cpp:399] inception_4b/3x3_reduce -> inception_4b/3x3_reduce
I0403 18:30:23.129915  7051 net.cpp:141] Setting up inception_4b/3x3_reduce
I0403 18:30:23.129948  7051 net.cpp:148] Top shape: 24 112 14 14 (526848)
I0403 18:30:23.129966  7051 net.cpp:156] Memory required for data: 954332448
I0403 18:30:23.129984  7051 layer_factory.hpp:77] Creating layer inception_4b/relu_3x3_reduce
I0403 18:30:23.130003  7051 net.cpp:91] Creating Layer inception_4b/relu_3x3_reduce
I0403 18:30:23.130019  7051 net.cpp:425] inception_4b/relu_3x3_reduce <- inception_4b/3x3_reduce
I0403 18:30:23.130036  7051 net.cpp:386] inception_4b/relu_3x3_reduce -> inception_4b/3x3_reduce (in-place)
I0403 18:30:23.130337  7051 net.cpp:141] Setting up inception_4b/relu_3x3_reduce
I0403 18:30:23.130367  7051 net.cpp:148] Top shape: 24 112 14 14 (526848)
I0403 18:30:23.130384  7051 net.cpp:156] Memory required for data: 956439840
I0403 18:30:23.130399  7051 layer_factory.hpp:77] Creating layer inception_4b/3x3
I0403 18:30:23.130422  7051 net.cpp:91] Creating Layer inception_4b/3x3
I0403 18:30:23.130440  7051 net.cpp:425] inception_4b/3x3 <- inception_4b/3x3_reduce
I0403 18:30:23.130460  7051 net.cpp:399] inception_4b/3x3 -> inception_4b/3x3
I0403 18:30:23.133599  7051 net.cpp:141] Setting up inception_4b/3x3
I0403 18:30:23.133628  7051 net.cpp:148] Top shape: 24 224 14 14 (1053696)
I0403 18:30:23.133643  7051 net.cpp:156] Memory required for data: 960654624
I0403 18:30:23.133663  7051 layer_factory.hpp:77] Creating layer inception_4b/relu_3x3
I0403 18:30:23.133682  7051 net.cpp:91] Creating Layer inception_4b/relu_3x3
I0403 18:30:23.133697  7051 net.cpp:425] inception_4b/relu_3x3 <- inception_4b/3x3
I0403 18:30:23.133718  7051 net.cpp:386] inception_4b/relu_3x3 -> inception_4b/3x3 (in-place)
I0403 18:30:23.133909  7051 net.cpp:141] Setting up inception_4b/relu_3x3
I0403 18:30:23.133935  7051 net.cpp:148] Top shape: 24 224 14 14 (1053696)
I0403 18:30:23.133949  7051 net.cpp:156] Memory required for data: 964869408
I0403 18:30:23.133965  7051 layer_factory.hpp:77] Creating layer inception_4b/5x5_reduce
I0403 18:30:23.133987  7051 net.cpp:91] Creating Layer inception_4b/5x5_reduce
I0403 18:30:23.134006  7051 net.cpp:425] inception_4b/5x5_reduce <- inception_4a/output_inception_4a/output_0_split_3
I0403 18:30:23.134029  7051 net.cpp:399] inception_4b/5x5_reduce -> inception_4b/5x5_reduce
I0403 18:30:23.135155  7051 net.cpp:141] Setting up inception_4b/5x5_reduce
I0403 18:30:23.135184  7051 net.cpp:148] Top shape: 24 24 14 14 (112896)
I0403 18:30:23.135200  7051 net.cpp:156] Memory required for data: 965320992
I0403 18:30:23.135223  7051 layer_factory.hpp:77] Creating layer inception_4b/relu_5x5_reduce
I0403 18:30:23.135246  7051 net.cpp:91] Creating Layer inception_4b/relu_5x5_reduce
I0403 18:30:23.135278  7051 net.cpp:425] inception_4b/relu_5x5_reduce <- inception_4b/5x5_reduce
I0403 18:30:23.135298  7051 net.cpp:386] inception_4b/relu_5x5_reduce -> inception_4b/5x5_reduce (in-place)
I0403 18:30:23.135488  7051 net.cpp:141] Setting up inception_4b/relu_5x5_reduce
I0403 18:30:23.135517  7051 net.cpp:148] Top shape: 24 24 14 14 (112896)
I0403 18:30:23.135532  7051 net.cpp:156] Memory required for data: 965772576
I0403 18:30:23.135548  7051 layer_factory.hpp:77] Creating layer inception_4b/5x5
I0403 18:30:23.135571  7051 net.cpp:91] Creating Layer inception_4b/5x5
I0403 18:30:23.135591  7051 net.cpp:425] inception_4b/5x5 <- inception_4b/5x5_reduce
I0403 18:30:23.135610  7051 net.cpp:399] inception_4b/5x5 -> inception_4b/5x5
I0403 18:30:23.136880  7051 net.cpp:141] Setting up inception_4b/5x5
I0403 18:30:23.136909  7051 net.cpp:148] Top shape: 24 64 14 14 (301056)
I0403 18:30:23.136925  7051 net.cpp:156] Memory required for data: 966976800
I0403 18:30:23.136945  7051 layer_factory.hpp:77] Creating layer inception_4b/relu_5x5
I0403 18:30:23.136965  7051 net.cpp:91] Creating Layer inception_4b/relu_5x5
I0403 18:30:23.136982  7051 net.cpp:425] inception_4b/relu_5x5 <- inception_4b/5x5
I0403 18:30:23.137001  7051 net.cpp:386] inception_4b/relu_5x5 -> inception_4b/5x5 (in-place)
I0403 18:30:23.137301  7051 net.cpp:141] Setting up inception_4b/relu_5x5
I0403 18:30:23.137329  7051 net.cpp:148] Top shape: 24 64 14 14 (301056)
I0403 18:30:23.137344  7051 net.cpp:156] Memory required for data: 968181024
I0403 18:30:23.137359  7051 layer_factory.hpp:77] Creating layer inception_4b/pool
I0403 18:30:23.137383  7051 net.cpp:91] Creating Layer inception_4b/pool
I0403 18:30:23.137401  7051 net.cpp:425] inception_4b/pool <- inception_4a/output_inception_4a/output_0_split_4
I0403 18:30:23.137419  7051 net.cpp:399] inception_4b/pool -> inception_4b/pool
I0403 18:30:23.137487  7051 net.cpp:141] Setting up inception_4b/pool
I0403 18:30:23.137512  7051 net.cpp:148] Top shape: 24 512 14 14 (2408448)
I0403 18:30:23.137527  7051 net.cpp:156] Memory required for data: 977814816
I0403 18:30:23.137542  7051 layer_factory.hpp:77] Creating layer inception_4b/pool_proj
I0403 18:30:23.137565  7051 net.cpp:91] Creating Layer inception_4b/pool_proj
I0403 18:30:23.137583  7051 net.cpp:425] inception_4b/pool_proj <- inception_4b/pool
I0403 18:30:23.137604  7051 net.cpp:399] inception_4b/pool_proj -> inception_4b/pool_proj
I0403 18:30:23.138906  7051 net.cpp:141] Setting up inception_4b/pool_proj
I0403 18:30:23.138934  7051 net.cpp:148] Top shape: 24 64 14 14 (301056)
I0403 18:30:23.138950  7051 net.cpp:156] Memory required for data: 979019040
I0403 18:30:23.138969  7051 layer_factory.hpp:77] Creating layer inception_4b/relu_pool_proj
I0403 18:30:23.138991  7051 net.cpp:91] Creating Layer inception_4b/relu_pool_proj
I0403 18:30:23.139008  7051 net.cpp:425] inception_4b/relu_pool_proj <- inception_4b/pool_proj
I0403 18:30:23.139027  7051 net.cpp:386] inception_4b/relu_pool_proj -> inception_4b/pool_proj (in-place)
I0403 18:30:23.139225  7051 net.cpp:141] Setting up inception_4b/relu_pool_proj
I0403 18:30:23.139255  7051 net.cpp:148] Top shape: 24 64 14 14 (301056)
I0403 18:30:23.139271  7051 net.cpp:156] Memory required for data: 980223264
I0403 18:30:23.139286  7051 layer_factory.hpp:77] Creating layer inception_4b/output
I0403 18:30:23.139304  7051 net.cpp:91] Creating Layer inception_4b/output
I0403 18:30:23.139320  7051 net.cpp:425] inception_4b/output <- inception_4b/1x1
I0403 18:30:23.139338  7051 net.cpp:425] inception_4b/output <- inception_4b/3x3
I0403 18:30:23.139366  7051 net.cpp:425] inception_4b/output <- inception_4b/5x5
I0403 18:30:23.139382  7051 net.cpp:425] inception_4b/output <- inception_4b/pool_proj
I0403 18:30:23.139399  7051 net.cpp:399] inception_4b/output -> inception_4b/output
I0403 18:30:23.139447  7051 net.cpp:141] Setting up inception_4b/output
I0403 18:30:23.139472  7051 net.cpp:148] Top shape: 24 512 14 14 (2408448)
I0403 18:30:23.139485  7051 net.cpp:156] Memory required for data: 989857056
I0403 18:30:23.139514  7051 layer_factory.hpp:77] Creating layer inception_4b/output_inception_4b/output_0_split
I0403 18:30:23.139535  7051 net.cpp:91] Creating Layer inception_4b/output_inception_4b/output_0_split
I0403 18:30:23.139552  7051 net.cpp:425] inception_4b/output_inception_4b/output_0_split <- inception_4b/output
I0403 18:30:23.139569  7051 net.cpp:399] inception_4b/output_inception_4b/output_0_split -> inception_4b/output_inception_4b/output_0_split_0
I0403 18:30:23.139590  7051 net.cpp:399] inception_4b/output_inception_4b/output_0_split -> inception_4b/output_inception_4b/output_0_split_1
I0403 18:30:23.139611  7051 net.cpp:399] inception_4b/output_inception_4b/output_0_split -> inception_4b/output_inception_4b/output_0_split_2
I0403 18:30:23.139633  7051 net.cpp:399] inception_4b/output_inception_4b/output_0_split -> inception_4b/output_inception_4b/output_0_split_3
I0403 18:30:23.139724  7051 net.cpp:141] Setting up inception_4b/output_inception_4b/output_0_split
I0403 18:30:23.139747  7051 net.cpp:148] Top shape: 24 512 14 14 (2408448)
I0403 18:30:23.139762  7051 net.cpp:148] Top shape: 24 512 14 14 (2408448)
I0403 18:30:23.139778  7051 net.cpp:148] Top shape: 24 512 14 14 (2408448)
I0403 18:30:23.139793  7051 net.cpp:148] Top shape: 24 512 14 14 (2408448)
I0403 18:30:23.139807  7051 net.cpp:156] Memory required for data: 1028392224
I0403 18:30:23.139822  7051 layer_factory.hpp:77] Creating layer inception_4c/1x1
I0403 18:30:23.139844  7051 net.cpp:91] Creating Layer inception_4c/1x1
I0403 18:30:23.139863  7051 net.cpp:425] inception_4c/1x1 <- inception_4b/output_inception_4b/output_0_split_0
I0403 18:30:23.139883  7051 net.cpp:399] inception_4c/1x1 -> inception_4c/1x1
I0403 18:30:23.141374  7051 net.cpp:141] Setting up inception_4c/1x1
I0403 18:30:23.141407  7051 net.cpp:148] Top shape: 24 128 14 14 (602112)
I0403 18:30:23.141422  7051 net.cpp:156] Memory required for data: 1030800672
I0403 18:30:23.141440  7051 layer_factory.hpp:77] Creating layer inception_4c/relu_1x1
I0403 18:30:23.141458  7051 net.cpp:91] Creating Layer inception_4c/relu_1x1
I0403 18:30:23.141475  7051 net.cpp:425] inception_4c/relu_1x1 <- inception_4c/1x1
I0403 18:30:23.141495  7051 net.cpp:386] inception_4c/relu_1x1 -> inception_4c/1x1 (in-place)
I0403 18:30:23.141681  7051 net.cpp:141] Setting up inception_4c/relu_1x1
I0403 18:30:23.141707  7051 net.cpp:148] Top shape: 24 128 14 14 (602112)
I0403 18:30:23.141722  7051 net.cpp:156] Memory required for data: 1033209120
I0403 18:30:23.141737  7051 layer_factory.hpp:77] Creating layer inception_4c/3x3_reduce
I0403 18:30:23.141762  7051 net.cpp:91] Creating Layer inception_4c/3x3_reduce
I0403 18:30:23.141779  7051 net.cpp:425] inception_4c/3x3_reduce <- inception_4b/output_inception_4b/output_0_split_1
I0403 18:30:23.141804  7051 net.cpp:399] inception_4c/3x3_reduce -> inception_4c/3x3_reduce
I0403 18:30:23.143874  7051 net.cpp:141] Setting up inception_4c/3x3_reduce
I0403 18:30:23.143903  7051 net.cpp:148] Top shape: 24 128 14 14 (602112)
I0403 18:30:23.143918  7051 net.cpp:156] Memory required for data: 1035617568
I0403 18:30:23.143937  7051 layer_factory.hpp:77] Creating layer inception_4c/relu_3x3_reduce
I0403 18:30:23.143959  7051 net.cpp:91] Creating Layer inception_4c/relu_3x3_reduce
I0403 18:30:23.143976  7051 net.cpp:425] inception_4c/relu_3x3_reduce <- inception_4c/3x3_reduce
I0403 18:30:23.143993  7051 net.cpp:386] inception_4c/relu_3x3_reduce -> inception_4c/3x3_reduce (in-place)
I0403 18:30:23.144300  7051 net.cpp:141] Setting up inception_4c/relu_3x3_reduce
I0403 18:30:23.144328  7051 net.cpp:148] Top shape: 24 128 14 14 (602112)
I0403 18:30:23.144345  7051 net.cpp:156] Memory required for data: 1038026016
I0403 18:30:23.144358  7051 layer_factory.hpp:77] Creating layer inception_4c/3x3
I0403 18:30:23.144382  7051 net.cpp:91] Creating Layer inception_4c/3x3
I0403 18:30:23.144400  7051 net.cpp:425] inception_4c/3x3 <- inception_4c/3x3_reduce
I0403 18:30:23.144423  7051 net.cpp:399] inception_4c/3x3 -> inception_4c/3x3
I0403 18:30:23.148217  7051 net.cpp:141] Setting up inception_4c/3x3
I0403 18:30:23.148272  7051 net.cpp:148] Top shape: 24 256 14 14 (1204224)
I0403 18:30:23.148290  7051 net.cpp:156] Memory required for data: 1042842912
I0403 18:30:23.148324  7051 layer_factory.hpp:77] Creating layer inception_4c/relu_3x3
I0403 18:30:23.148347  7051 net.cpp:91] Creating Layer inception_4c/relu_3x3
I0403 18:30:23.148365  7051 net.cpp:425] inception_4c/relu_3x3 <- inception_4c/3x3
I0403 18:30:23.148382  7051 net.cpp:386] inception_4c/relu_3x3 -> inception_4c/3x3 (in-place)
I0403 18:30:23.148577  7051 net.cpp:141] Setting up inception_4c/relu_3x3
I0403 18:30:23.148603  7051 net.cpp:148] Top shape: 24 256 14 14 (1204224)
I0403 18:30:23.148618  7051 net.cpp:156] Memory required for data: 1047659808
I0403 18:30:23.148633  7051 layer_factory.hpp:77] Creating layer inception_4c/5x5_reduce
I0403 18:30:23.148656  7051 net.cpp:91] Creating Layer inception_4c/5x5_reduce
I0403 18:30:23.148674  7051 net.cpp:425] inception_4c/5x5_reduce <- inception_4b/output_inception_4b/output_0_split_2
I0403 18:30:23.148696  7051 net.cpp:399] inception_4c/5x5_reduce -> inception_4c/5x5_reduce
I0403 18:30:23.149801  7051 net.cpp:141] Setting up inception_4c/5x5_reduce
I0403 18:30:23.149829  7051 net.cpp:148] Top shape: 24 24 14 14 (112896)
I0403 18:30:23.149844  7051 net.cpp:156] Memory required for data: 1048111392
I0403 18:30:23.149863  7051 layer_factory.hpp:77] Creating layer inception_4c/relu_5x5_reduce
I0403 18:30:23.149883  7051 net.cpp:91] Creating Layer inception_4c/relu_5x5_reduce
I0403 18:30:23.149899  7051 net.cpp:425] inception_4c/relu_5x5_reduce <- inception_4c/5x5_reduce
I0403 18:30:23.149917  7051 net.cpp:386] inception_4c/relu_5x5_reduce -> inception_4c/5x5_reduce (in-place)
I0403 18:30:23.150102  7051 net.cpp:141] Setting up inception_4c/relu_5x5_reduce
I0403 18:30:23.150130  7051 net.cpp:148] Top shape: 24 24 14 14 (112896)
I0403 18:30:23.150146  7051 net.cpp:156] Memory required for data: 1048562976
I0403 18:30:23.150161  7051 layer_factory.hpp:77] Creating layer inception_4c/5x5
I0403 18:30:23.150182  7051 net.cpp:91] Creating Layer inception_4c/5x5
I0403 18:30:23.150200  7051 net.cpp:425] inception_4c/5x5 <- inception_4c/5x5_reduce
I0403 18:30:23.150224  7051 net.cpp:399] inception_4c/5x5 -> inception_4c/5x5
I0403 18:30:23.151471  7051 net.cpp:141] Setting up inception_4c/5x5
I0403 18:30:23.151501  7051 net.cpp:148] Top shape: 24 64 14 14 (301056)
I0403 18:30:23.151517  7051 net.cpp:156] Memory required for data: 1049767200
I0403 18:30:23.151536  7051 layer_factory.hpp:77] Creating layer inception_4c/relu_5x5
I0403 18:30:23.151553  7051 net.cpp:91] Creating Layer inception_4c/relu_5x5
I0403 18:30:23.151571  7051 net.cpp:425] inception_4c/relu_5x5 <- inception_4c/5x5
I0403 18:30:23.151590  7051 net.cpp:386] inception_4c/relu_5x5 -> inception_4c/5x5 (in-place)
I0403 18:30:23.151876  7051 net.cpp:141] Setting up inception_4c/relu_5x5
I0403 18:30:23.151906  7051 net.cpp:148] Top shape: 24 64 14 14 (301056)
I0403 18:30:23.151921  7051 net.cpp:156] Memory required for data: 1050971424
I0403 18:30:23.151934  7051 layer_factory.hpp:77] Creating layer inception_4c/pool
I0403 18:30:23.151953  7051 net.cpp:91] Creating Layer inception_4c/pool
I0403 18:30:23.151968  7051 net.cpp:425] inception_4c/pool <- inception_4b/output_inception_4b/output_0_split_3
I0403 18:30:23.151989  7051 net.cpp:399] inception_4c/pool -> inception_4c/pool
I0403 18:30:23.152055  7051 net.cpp:141] Setting up inception_4c/pool
I0403 18:30:23.152077  7051 net.cpp:148] Top shape: 24 512 14 14 (2408448)
I0403 18:30:23.152092  7051 net.cpp:156] Memory required for data: 1060605216
I0403 18:30:23.152107  7051 layer_factory.hpp:77] Creating layer inception_4c/pool_proj
I0403 18:30:23.152129  7051 net.cpp:91] Creating Layer inception_4c/pool_proj
I0403 18:30:23.152149  7051 net.cpp:425] inception_4c/pool_proj <- inception_4c/pool
I0403 18:30:23.152168  7051 net.cpp:399] inception_4c/pool_proj -> inception_4c/pool_proj
I0403 18:30:23.153414  7051 net.cpp:141] Setting up inception_4c/pool_proj
I0403 18:30:23.153442  7051 net.cpp:148] Top shape: 24 64 14 14 (301056)
I0403 18:30:23.153472  7051 net.cpp:156] Memory required for data: 1061809440
I0403 18:30:23.153491  7051 layer_factory.hpp:77] Creating layer inception_4c/relu_pool_proj
I0403 18:30:23.153512  7051 net.cpp:91] Creating Layer inception_4c/relu_pool_proj
I0403 18:30:23.153528  7051 net.cpp:425] inception_4c/relu_pool_proj <- inception_4c/pool_proj
I0403 18:30:23.153545  7051 net.cpp:386] inception_4c/relu_pool_proj -> inception_4c/pool_proj (in-place)
I0403 18:30:23.153728  7051 net.cpp:141] Setting up inception_4c/relu_pool_proj
I0403 18:30:23.153755  7051 net.cpp:148] Top shape: 24 64 14 14 (301056)
I0403 18:30:23.153771  7051 net.cpp:156] Memory required for data: 1063013664
I0403 18:30:23.153786  7051 layer_factory.hpp:77] Creating layer inception_4c/output
I0403 18:30:23.153803  7051 net.cpp:91] Creating Layer inception_4c/output
I0403 18:30:23.153818  7051 net.cpp:425] inception_4c/output <- inception_4c/1x1
I0403 18:30:23.153834  7051 net.cpp:425] inception_4c/output <- inception_4c/3x3
I0403 18:30:23.153849  7051 net.cpp:425] inception_4c/output <- inception_4c/5x5
I0403 18:30:23.153866  7051 net.cpp:425] inception_4c/output <- inception_4c/pool_proj
I0403 18:30:23.153882  7051 net.cpp:399] inception_4c/output -> inception_4c/output
I0403 18:30:23.153929  7051 net.cpp:141] Setting up inception_4c/output
I0403 18:30:23.153951  7051 net.cpp:148] Top shape: 24 512 14 14 (2408448)
I0403 18:30:23.153965  7051 net.cpp:156] Memory required for data: 1072647456
I0403 18:30:23.153980  7051 layer_factory.hpp:77] Creating layer inception_4c/output_inception_4c/output_0_split
I0403 18:30:23.154000  7051 net.cpp:91] Creating Layer inception_4c/output_inception_4c/output_0_split
I0403 18:30:23.154017  7051 net.cpp:425] inception_4c/output_inception_4c/output_0_split <- inception_4c/output
I0403 18:30:23.154034  7051 net.cpp:399] inception_4c/output_inception_4c/output_0_split -> inception_4c/output_inception_4c/output_0_split_0
I0403 18:30:23.154054  7051 net.cpp:399] inception_4c/output_inception_4c/output_0_split -> inception_4c/output_inception_4c/output_0_split_1
I0403 18:30:23.154073  7051 net.cpp:399] inception_4c/output_inception_4c/output_0_split -> inception_4c/output_inception_4c/output_0_split_2
I0403 18:30:23.154094  7051 net.cpp:399] inception_4c/output_inception_4c/output_0_split -> inception_4c/output_inception_4c/output_0_split_3
I0403 18:30:23.154180  7051 net.cpp:141] Setting up inception_4c/output_inception_4c/output_0_split
I0403 18:30:23.154203  7051 net.cpp:148] Top shape: 24 512 14 14 (2408448)
I0403 18:30:23.154224  7051 net.cpp:148] Top shape: 24 512 14 14 (2408448)
I0403 18:30:23.154242  7051 net.cpp:148] Top shape: 24 512 14 14 (2408448)
I0403 18:30:23.154258  7051 net.cpp:148] Top shape: 24 512 14 14 (2408448)
I0403 18:30:23.154270  7051 net.cpp:156] Memory required for data: 1111182624
I0403 18:30:23.154284  7051 layer_factory.hpp:77] Creating layer inception_4d/1x1
I0403 18:30:23.154306  7051 net.cpp:91] Creating Layer inception_4d/1x1
I0403 18:30:23.154325  7051 net.cpp:425] inception_4d/1x1 <- inception_4c/output_inception_4c/output_0_split_0
I0403 18:30:23.154346  7051 net.cpp:399] inception_4d/1x1 -> inception_4d/1x1
I0403 18:30:23.155727  7051 net.cpp:141] Setting up inception_4d/1x1
I0403 18:30:23.155756  7051 net.cpp:148] Top shape: 24 112 14 14 (526848)
I0403 18:30:23.155771  7051 net.cpp:156] Memory required for data: 1113290016
I0403 18:30:23.155788  7051 layer_factory.hpp:77] Creating layer inception_4d/relu_1x1
I0403 18:30:23.155807  7051 net.cpp:91] Creating Layer inception_4d/relu_1x1
I0403 18:30:23.155822  7051 net.cpp:425] inception_4d/relu_1x1 <- inception_4d/1x1
I0403 18:30:23.155841  7051 net.cpp:386] inception_4d/relu_1x1 -> inception_4d/1x1 (in-place)
I0403 18:30:23.156025  7051 net.cpp:141] Setting up inception_4d/relu_1x1
I0403 18:30:23.156049  7051 net.cpp:148] Top shape: 24 112 14 14 (526848)
I0403 18:30:23.156064  7051 net.cpp:156] Memory required for data: 1115397408
I0403 18:30:23.156080  7051 layer_factory.hpp:77] Creating layer inception_4d/3x3_reduce
I0403 18:30:23.156114  7051 net.cpp:91] Creating Layer inception_4d/3x3_reduce
I0403 18:30:23.156132  7051 net.cpp:425] inception_4d/3x3_reduce <- inception_4c/output_inception_4c/output_0_split_1
I0403 18:30:23.156154  7051 net.cpp:399] inception_4d/3x3_reduce -> inception_4d/3x3_reduce
I0403 18:30:23.157683  7051 net.cpp:141] Setting up inception_4d/3x3_reduce
I0403 18:30:23.157713  7051 net.cpp:148] Top shape: 24 144 14 14 (677376)
I0403 18:30:23.157729  7051 net.cpp:156] Memory required for data: 1118106912
I0403 18:30:23.157747  7051 layer_factory.hpp:77] Creating layer inception_4d/relu_3x3_reduce
I0403 18:30:23.157765  7051 net.cpp:91] Creating Layer inception_4d/relu_3x3_reduce
I0403 18:30:23.157781  7051 net.cpp:425] inception_4d/relu_3x3_reduce <- inception_4d/3x3_reduce
I0403 18:30:23.157800  7051 net.cpp:386] inception_4d/relu_3x3_reduce -> inception_4d/3x3_reduce (in-place)
I0403 18:30:23.158087  7051 net.cpp:141] Setting up inception_4d/relu_3x3_reduce
I0403 18:30:23.158116  7051 net.cpp:148] Top shape: 24 144 14 14 (677376)
I0403 18:30:23.158133  7051 net.cpp:156] Memory required for data: 1120816416
I0403 18:30:23.158149  7051 layer_factory.hpp:77] Creating layer inception_4d/3x3
I0403 18:30:23.158170  7051 net.cpp:91] Creating Layer inception_4d/3x3
I0403 18:30:23.158188  7051 net.cpp:425] inception_4d/3x3 <- inception_4d/3x3_reduce
I0403 18:30:23.158207  7051 net.cpp:399] inception_4d/3x3 -> inception_4d/3x3
I0403 18:30:23.162585  7051 net.cpp:141] Setting up inception_4d/3x3
I0403 18:30:23.162613  7051 net.cpp:148] Top shape: 24 288 14 14 (1354752)
I0403 18:30:23.162629  7051 net.cpp:156] Memory required for data: 1126235424
I0403 18:30:23.162647  7051 layer_factory.hpp:77] Creating layer inception_4d/relu_3x3
I0403 18:30:23.162667  7051 net.cpp:91] Creating Layer inception_4d/relu_3x3
I0403 18:30:23.162684  7051 net.cpp:425] inception_4d/relu_3x3 <- inception_4d/3x3
I0403 18:30:23.162700  7051 net.cpp:386] inception_4d/relu_3x3 -> inception_4d/3x3 (in-place)
I0403 18:30:23.162886  7051 net.cpp:141] Setting up inception_4d/relu_3x3
I0403 18:30:23.162912  7051 net.cpp:148] Top shape: 24 288 14 14 (1354752)
I0403 18:30:23.162926  7051 net.cpp:156] Memory required for data: 1131654432
I0403 18:30:23.162941  7051 layer_factory.hpp:77] Creating layer inception_4d/5x5_reduce
I0403 18:30:23.162964  7051 net.cpp:91] Creating Layer inception_4d/5x5_reduce
I0403 18:30:23.162981  7051 net.cpp:425] inception_4d/5x5_reduce <- inception_4c/output_inception_4c/output_0_split_2
I0403 18:30:23.163000  7051 net.cpp:399] inception_4d/5x5_reduce -> inception_4d/5x5_reduce
I0403 18:30:23.164165  7051 net.cpp:141] Setting up inception_4d/5x5_reduce
I0403 18:30:23.164192  7051 net.cpp:148] Top shape: 24 32 14 14 (150528)
I0403 18:30:23.164207  7051 net.cpp:156] Memory required for data: 1132256544
I0403 18:30:23.164230  7051 layer_factory.hpp:77] Creating layer inception_4d/relu_5x5_reduce
I0403 18:30:23.164248  7051 net.cpp:91] Creating Layer inception_4d/relu_5x5_reduce
I0403 18:30:23.164264  7051 net.cpp:425] inception_4d/relu_5x5_reduce <- inception_4d/5x5_reduce
I0403 18:30:23.164284  7051 net.cpp:386] inception_4d/relu_5x5_reduce -> inception_4d/5x5_reduce (in-place)
I0403 18:30:23.164479  7051 net.cpp:141] Setting up inception_4d/relu_5x5_reduce
I0403 18:30:23.164505  7051 net.cpp:148] Top shape: 24 32 14 14 (150528)
I0403 18:30:23.164518  7051 net.cpp:156] Memory required for data: 1132858656
I0403 18:30:23.164533  7051 layer_factory.hpp:77] Creating layer inception_4d/5x5
I0403 18:30:23.164556  7051 net.cpp:91] Creating Layer inception_4d/5x5
I0403 18:30:23.164573  7051 net.cpp:425] inception_4d/5x5 <- inception_4d/5x5_reduce
I0403 18:30:23.164594  7051 net.cpp:399] inception_4d/5x5 -> inception_4d/5x5
I0403 18:30:23.166079  7051 net.cpp:141] Setting up inception_4d/5x5
I0403 18:30:23.166110  7051 net.cpp:148] Top shape: 24 64 14 14 (301056)
I0403 18:30:23.166126  7051 net.cpp:156] Memory required for data: 1134062880
I0403 18:30:23.166146  7051 layer_factory.hpp:77] Creating layer inception_4d/relu_5x5
I0403 18:30:23.166179  7051 net.cpp:91] Creating Layer inception_4d/relu_5x5
I0403 18:30:23.166196  7051 net.cpp:425] inception_4d/relu_5x5 <- inception_4d/5x5
I0403 18:30:23.166218  7051 net.cpp:386] inception_4d/relu_5x5 -> inception_4d/5x5 (in-place)
I0403 18:30:23.166538  7051 net.cpp:141] Setting up inception_4d/relu_5x5
I0403 18:30:23.166568  7051 net.cpp:148] Top shape: 24 64 14 14 (301056)
I0403 18:30:23.166584  7051 net.cpp:156] Memory required for data: 1135267104
I0403 18:30:23.166599  7051 layer_factory.hpp:77] Creating layer inception_4d/pool
I0403 18:30:23.166617  7051 net.cpp:91] Creating Layer inception_4d/pool
I0403 18:30:23.166633  7051 net.cpp:425] inception_4d/pool <- inception_4c/output_inception_4c/output_0_split_3
I0403 18:30:23.166652  7051 net.cpp:399] inception_4d/pool -> inception_4d/pool
I0403 18:30:23.166721  7051 net.cpp:141] Setting up inception_4d/pool
I0403 18:30:23.166745  7051 net.cpp:148] Top shape: 24 512 14 14 (2408448)
I0403 18:30:23.166772  7051 net.cpp:156] Memory required for data: 1144900896
I0403 18:30:23.166786  7051 layer_factory.hpp:77] Creating layer inception_4d/pool_proj
I0403 18:30:23.166810  7051 net.cpp:91] Creating Layer inception_4d/pool_proj
I0403 18:30:23.166827  7051 net.cpp:425] inception_4d/pool_proj <- inception_4d/pool
I0403 18:30:23.166847  7051 net.cpp:399] inception_4d/pool_proj -> inception_4d/pool_proj
I0403 18:30:23.168638  7051 net.cpp:141] Setting up inception_4d/pool_proj
I0403 18:30:23.168666  7051 net.cpp:148] Top shape: 24 64 14 14 (301056)
I0403 18:30:23.168681  7051 net.cpp:156] Memory required for data: 1146105120
I0403 18:30:23.168699  7051 layer_factory.hpp:77] Creating layer inception_4d/relu_pool_proj
I0403 18:30:23.168720  7051 net.cpp:91] Creating Layer inception_4d/relu_pool_proj
I0403 18:30:23.168736  7051 net.cpp:425] inception_4d/relu_pool_proj <- inception_4d/pool_proj
I0403 18:30:23.168753  7051 net.cpp:386] inception_4d/relu_pool_proj -> inception_4d/pool_proj (in-place)
I0403 18:30:23.168939  7051 net.cpp:141] Setting up inception_4d/relu_pool_proj
I0403 18:30:23.168965  7051 net.cpp:148] Top shape: 24 64 14 14 (301056)
I0403 18:30:23.168982  7051 net.cpp:156] Memory required for data: 1147309344
I0403 18:30:23.168997  7051 layer_factory.hpp:77] Creating layer inception_4d/output
I0403 18:30:23.169015  7051 net.cpp:91] Creating Layer inception_4d/output
I0403 18:30:23.169033  7051 net.cpp:425] inception_4d/output <- inception_4d/1x1
I0403 18:30:23.169049  7051 net.cpp:425] inception_4d/output <- inception_4d/3x3
I0403 18:30:23.169066  7051 net.cpp:425] inception_4d/output <- inception_4d/5x5
I0403 18:30:23.169082  7051 net.cpp:425] inception_4d/output <- inception_4d/pool_proj
I0403 18:30:23.169098  7051 net.cpp:399] inception_4d/output -> inception_4d/output
I0403 18:30:23.169147  7051 net.cpp:141] Setting up inception_4d/output
I0403 18:30:23.169170  7051 net.cpp:148] Top shape: 24 528 14 14 (2483712)
I0403 18:30:23.169184  7051 net.cpp:156] Memory required for data: 1157244192
I0403 18:30:23.169199  7051 layer_factory.hpp:77] Creating layer inception_4d/output_inception_4d/output_0_split
I0403 18:30:23.169236  7051 net.cpp:91] Creating Layer inception_4d/output_inception_4d/output_0_split
I0403 18:30:23.169255  7051 net.cpp:425] inception_4d/output_inception_4d/output_0_split <- inception_4d/output
I0403 18:30:23.169275  7051 net.cpp:399] inception_4d/output_inception_4d/output_0_split -> inception_4d/output_inception_4d/output_0_split_0
I0403 18:30:23.169298  7051 net.cpp:399] inception_4d/output_inception_4d/output_0_split -> inception_4d/output_inception_4d/output_0_split_1
I0403 18:30:23.169318  7051 net.cpp:399] inception_4d/output_inception_4d/output_0_split -> inception_4d/output_inception_4d/output_0_split_2
I0403 18:30:23.169339  7051 net.cpp:399] inception_4d/output_inception_4d/output_0_split -> inception_4d/output_inception_4d/output_0_split_3
I0403 18:30:23.169364  7051 net.cpp:399] inception_4d/output_inception_4d/output_0_split -> inception_4d/output_inception_4d/output_0_split_4
I0403 18:30:23.169471  7051 net.cpp:141] Setting up inception_4d/output_inception_4d/output_0_split
I0403 18:30:23.169507  7051 net.cpp:148] Top shape: 24 528 14 14 (2483712)
I0403 18:30:23.169524  7051 net.cpp:148] Top shape: 24 528 14 14 (2483712)
I0403 18:30:23.169540  7051 net.cpp:148] Top shape: 24 528 14 14 (2483712)
I0403 18:30:23.169555  7051 net.cpp:148] Top shape: 24 528 14 14 (2483712)
I0403 18:30:23.169570  7051 net.cpp:148] Top shape: 24 528 14 14 (2483712)
I0403 18:30:23.169585  7051 net.cpp:156] Memory required for data: 1206918432
I0403 18:30:23.169600  7051 layer_factory.hpp:77] Creating layer loss2/ave_pool
I0403 18:30:23.169618  7051 net.cpp:91] Creating Layer loss2/ave_pool
I0403 18:30:23.169633  7051 net.cpp:425] loss2/ave_pool <- inception_4d/output_inception_4d/output_0_split_0
I0403 18:30:23.169654  7051 net.cpp:399] loss2/ave_pool -> loss2/ave_pool
I0403 18:30:23.169976  7051 net.cpp:141] Setting up loss2/ave_pool
I0403 18:30:23.170003  7051 net.cpp:148] Top shape: 24 528 4 4 (202752)
I0403 18:30:23.170019  7051 net.cpp:156] Memory required for data: 1207729440
I0403 18:30:23.170035  7051 layer_factory.hpp:77] Creating layer loss2/conv
I0403 18:30:23.170058  7051 net.cpp:91] Creating Layer loss2/conv
I0403 18:30:23.170078  7051 net.cpp:425] loss2/conv <- loss2/ave_pool
I0403 18:30:23.170099  7051 net.cpp:399] loss2/conv -> loss2/conv
I0403 18:30:23.172117  7051 net.cpp:141] Setting up loss2/conv
I0403 18:30:23.172147  7051 net.cpp:148] Top shape: 24 128 4 4 (49152)
I0403 18:30:23.172163  7051 net.cpp:156] Memory required for data: 1207926048
I0403 18:30:23.172181  7051 layer_factory.hpp:77] Creating layer loss2/relu_conv
I0403 18:30:23.172202  7051 net.cpp:91] Creating Layer loss2/relu_conv
I0403 18:30:23.172233  7051 net.cpp:425] loss2/relu_conv <- loss2/conv
I0403 18:30:23.172252  7051 net.cpp:386] loss2/relu_conv -> loss2/conv (in-place)
I0403 18:30:23.172549  7051 net.cpp:141] Setting up loss2/relu_conv
I0403 18:30:23.172576  7051 net.cpp:148] Top shape: 24 128 4 4 (49152)
I0403 18:30:23.172592  7051 net.cpp:156] Memory required for data: 1208122656
I0403 18:30:23.172608  7051 layer_factory.hpp:77] Creating layer loss2/fc
I0403 18:30:23.172629  7051 net.cpp:91] Creating Layer loss2/fc
I0403 18:30:23.172647  7051 net.cpp:425] loss2/fc <- loss2/conv
I0403 18:30:23.172669  7051 net.cpp:399] loss2/fc -> loss2/fc
I0403 18:30:23.191601  7051 net.cpp:141] Setting up loss2/fc
I0403 18:30:23.191664  7051 net.cpp:148] Top shape: 24 1024 (24576)
I0403 18:30:23.191679  7051 net.cpp:156] Memory required for data: 1208220960
I0403 18:30:23.191699  7051 layer_factory.hpp:77] Creating layer loss2/relu_fc
I0403 18:30:23.191720  7051 net.cpp:91] Creating Layer loss2/relu_fc
I0403 18:30:23.191736  7051 net.cpp:425] loss2/relu_fc <- loss2/fc
I0403 18:30:23.191756  7051 net.cpp:386] loss2/relu_fc -> loss2/fc (in-place)
I0403 18:30:23.192116  7051 net.cpp:141] Setting up loss2/relu_fc
I0403 18:30:23.192143  7051 net.cpp:148] Top shape: 24 1024 (24576)
I0403 18:30:23.192158  7051 net.cpp:156] Memory required for data: 1208319264
I0403 18:30:23.192173  7051 layer_factory.hpp:77] Creating layer loss2/drop_fc
I0403 18:30:23.192191  7051 net.cpp:91] Creating Layer loss2/drop_fc
I0403 18:30:23.192206  7051 net.cpp:425] loss2/drop_fc <- loss2/fc
I0403 18:30:23.192239  7051 net.cpp:386] loss2/drop_fc -> loss2/fc (in-place)
I0403 18:30:23.192293  7051 net.cpp:141] Setting up loss2/drop_fc
I0403 18:30:23.192317  7051 net.cpp:148] Top shape: 24 1024 (24576)
I0403 18:30:23.192332  7051 net.cpp:156] Memory required for data: 1208417568
I0403 18:30:23.192345  7051 layer_factory.hpp:77] Creating layer loss2/classifier_plantvillage
I0403 18:30:23.192363  7051 net.cpp:91] Creating Layer loss2/classifier_plantvillage
I0403 18:30:23.192379  7051 net.cpp:425] loss2/classifier_plantvillage <- loss2/fc
I0403 18:30:23.192401  7051 net.cpp:399] loss2/classifier_plantvillage -> loss2/classifier_plantvillage
I0403 18:30:23.192816  7051 net.cpp:141] Setting up loss2/classifier_plantvillage
I0403 18:30:23.192841  7051 net.cpp:148] Top shape: 24 38 (912)
I0403 18:30:23.192879  7051 net.cpp:156] Memory required for data: 1208421216
I0403 18:30:23.192899  7051 layer_factory.hpp:77] Creating layer loss2/classifier_plantvillage_loss2/classifier_plantvillage_0_split
I0403 18:30:23.192920  7051 net.cpp:91] Creating Layer loss2/classifier_plantvillage_loss2/classifier_plantvillage_0_split
I0403 18:30:23.192937  7051 net.cpp:425] loss2/classifier_plantvillage_loss2/classifier_plantvillage_0_split <- loss2/classifier_plantvillage
I0403 18:30:23.192957  7051 net.cpp:399] loss2/classifier_plantvillage_loss2/classifier_plantvillage_0_split -> loss2/classifier_plantvillage_loss2/classifier_plantvillage_0_split_0
I0403 18:30:23.192980  7051 net.cpp:399] loss2/classifier_plantvillage_loss2/classifier_plantvillage_0_split -> loss2/classifier_plantvillage_loss2/classifier_plantvillage_0_split_1
I0403 18:30:23.193001  7051 net.cpp:399] loss2/classifier_plantvillage_loss2/classifier_plantvillage_0_split -> loss2/classifier_plantvillage_loss2/classifier_plantvillage_0_split_2
I0403 18:30:23.193078  7051 net.cpp:141] Setting up loss2/classifier_plantvillage_loss2/classifier_plantvillage_0_split
I0403 18:30:23.193112  7051 net.cpp:148] Top shape: 24 38 (912)
I0403 18:30:23.193128  7051 net.cpp:148] Top shape: 24 38 (912)
I0403 18:30:23.193143  7051 net.cpp:148] Top shape: 24 38 (912)
I0403 18:30:23.193157  7051 net.cpp:156] Memory required for data: 1208432160
I0403 18:30:23.193172  7051 layer_factory.hpp:77] Creating layer inception_4e/1x1
I0403 18:30:23.193199  7051 net.cpp:91] Creating Layer inception_4e/1x1
I0403 18:30:23.193224  7051 net.cpp:425] inception_4e/1x1 <- inception_4d/output_inception_4d/output_0_split_1
I0403 18:30:23.193244  7051 net.cpp:399] inception_4e/1x1 -> inception_4e/1x1
I0403 18:30:23.195125  7051 net.cpp:141] Setting up inception_4e/1x1
I0403 18:30:23.195155  7051 net.cpp:148] Top shape: 24 256 14 14 (1204224)
I0403 18:30:23.195173  7051 net.cpp:156] Memory required for data: 1213249056
I0403 18:30:23.195190  7051 layer_factory.hpp:77] Creating layer inception_4e/relu_1x1
I0403 18:30:23.195211  7051 net.cpp:91] Creating Layer inception_4e/relu_1x1
I0403 18:30:23.195228  7051 net.cpp:425] inception_4e/relu_1x1 <- inception_4e/1x1
I0403 18:30:23.195245  7051 net.cpp:386] inception_4e/relu_1x1 -> inception_4e/1x1 (in-place)
I0403 18:30:23.195580  7051 net.cpp:141] Setting up inception_4e/relu_1x1
I0403 18:30:23.195607  7051 net.cpp:148] Top shape: 24 256 14 14 (1204224)
I0403 18:30:23.195623  7051 net.cpp:156] Memory required for data: 1218065952
I0403 18:30:23.195638  7051 layer_factory.hpp:77] Creating layer inception_4e/3x3_reduce
I0403 18:30:23.195662  7051 net.cpp:91] Creating Layer inception_4e/3x3_reduce
I0403 18:30:23.195679  7051 net.cpp:425] inception_4e/3x3_reduce <- inception_4d/output_inception_4d/output_0_split_2
I0403 18:30:23.195698  7051 net.cpp:399] inception_4e/3x3_reduce -> inception_4e/3x3_reduce
I0403 18:30:23.197875  7051 net.cpp:141] Setting up inception_4e/3x3_reduce
I0403 18:30:23.197903  7051 net.cpp:148] Top shape: 24 160 14 14 (752640)
I0403 18:30:23.197918  7051 net.cpp:156] Memory required for data: 1221076512
I0403 18:30:23.197937  7051 layer_factory.hpp:77] Creating layer inception_4e/relu_3x3_reduce
I0403 18:30:23.197957  7051 net.cpp:91] Creating Layer inception_4e/relu_3x3_reduce
I0403 18:30:23.197973  7051 net.cpp:425] inception_4e/relu_3x3_reduce <- inception_4e/3x3_reduce
I0403 18:30:23.197989  7051 net.cpp:386] inception_4e/relu_3x3_reduce -> inception_4e/3x3_reduce (in-place)
I0403 18:30:23.198179  7051 net.cpp:141] Setting up inception_4e/relu_3x3_reduce
I0403 18:30:23.198205  7051 net.cpp:148] Top shape: 24 160 14 14 (752640)
I0403 18:30:23.198225  7051 net.cpp:156] Memory required for data: 1224087072
I0403 18:30:23.198241  7051 layer_factory.hpp:77] Creating layer inception_4e/3x3
I0403 18:30:23.198263  7051 net.cpp:91] Creating Layer inception_4e/3x3
I0403 18:30:23.198282  7051 net.cpp:425] inception_4e/3x3 <- inception_4e/3x3_reduce
I0403 18:30:23.198302  7051 net.cpp:399] inception_4e/3x3 -> inception_4e/3x3
I0403 18:30:23.203385  7051 net.cpp:141] Setting up inception_4e/3x3
I0403 18:30:23.203428  7051 net.cpp:148] Top shape: 24 320 14 14 (1505280)
I0403 18:30:23.203444  7051 net.cpp:156] Memory required for data: 1230108192
I0403 18:30:23.203462  7051 layer_factory.hpp:77] Creating layer inception_4e/relu_3x3
I0403 18:30:23.203480  7051 net.cpp:91] Creating Layer inception_4e/relu_3x3
I0403 18:30:23.203495  7051 net.cpp:425] inception_4e/relu_3x3 <- inception_4e/3x3
I0403 18:30:23.203516  7051 net.cpp:386] inception_4e/relu_3x3 -> inception_4e/3x3 (in-place)
I0403 18:30:23.203819  7051 net.cpp:141] Setting up inception_4e/relu_3x3
I0403 18:30:23.203845  7051 net.cpp:148] Top shape: 24 320 14 14 (1505280)
I0403 18:30:23.203860  7051 net.cpp:156] Memory required for data: 1236129312
I0403 18:30:23.203874  7051 layer_factory.hpp:77] Creating layer inception_4e/5x5_reduce
I0403 18:30:23.203897  7051 net.cpp:91] Creating Layer inception_4e/5x5_reduce
I0403 18:30:23.203915  7051 net.cpp:425] inception_4e/5x5_reduce <- inception_4d/output_inception_4d/output_0_split_3
I0403 18:30:23.203938  7051 net.cpp:399] inception_4e/5x5_reduce -> inception_4e/5x5_reduce
I0403 18:30:23.205034  7051 net.cpp:141] Setting up inception_4e/5x5_reduce
I0403 18:30:23.205065  7051 net.cpp:148] Top shape: 24 32 14 14 (150528)
I0403 18:30:23.205080  7051 net.cpp:156] Memory required for data: 1236731424
I0403 18:30:23.205098  7051 layer_factory.hpp:77] Creating layer inception_4e/relu_5x5_reduce
I0403 18:30:23.205116  7051 net.cpp:91] Creating Layer inception_4e/relu_5x5_reduce
I0403 18:30:23.205132  7051 net.cpp:425] inception_4e/relu_5x5_reduce <- inception_4e/5x5_reduce
I0403 18:30:23.205150  7051 net.cpp:386] inception_4e/relu_5x5_reduce -> inception_4e/5x5_reduce (in-place)
I0403 18:30:23.205459  7051 net.cpp:141] Setting up inception_4e/relu_5x5_reduce
I0403 18:30:23.205488  7051 net.cpp:148] Top shape: 24 32 14 14 (150528)
I0403 18:30:23.205504  7051 net.cpp:156] Memory required for data: 1237333536
I0403 18:30:23.205519  7051 layer_factory.hpp:77] Creating layer inception_4e/5x5
I0403 18:30:23.205559  7051 net.cpp:91] Creating Layer inception_4e/5x5
I0403 18:30:23.205579  7051 net.cpp:425] inception_4e/5x5 <- inception_4e/5x5_reduce
I0403 18:30:23.205600  7051 net.cpp:399] inception_4e/5x5 -> inception_4e/5x5
I0403 18:30:23.207466  7051 net.cpp:141] Setting up inception_4e/5x5
I0403 18:30:23.207494  7051 net.cpp:148] Top shape: 24 128 14 14 (602112)
I0403 18:30:23.207509  7051 net.cpp:156] Memory required for data: 1239741984
I0403 18:30:23.207527  7051 layer_factory.hpp:77] Creating layer inception_4e/relu_5x5
I0403 18:30:23.207548  7051 net.cpp:91] Creating Layer inception_4e/relu_5x5
I0403 18:30:23.207566  7051 net.cpp:425] inception_4e/relu_5x5 <- inception_4e/5x5
I0403 18:30:23.207582  7051 net.cpp:386] inception_4e/relu_5x5 -> inception_4e/5x5 (in-place)
I0403 18:30:23.207783  7051 net.cpp:141] Setting up inception_4e/relu_5x5
I0403 18:30:23.207810  7051 net.cpp:148] Top shape: 24 128 14 14 (602112)
I0403 18:30:23.207826  7051 net.cpp:156] Memory required for data: 1242150432
I0403 18:30:23.207840  7051 layer_factory.hpp:77] Creating layer inception_4e/pool
I0403 18:30:23.207859  7051 net.cpp:91] Creating Layer inception_4e/pool
I0403 18:30:23.207875  7051 net.cpp:425] inception_4e/pool <- inception_4d/output_inception_4d/output_0_split_4
I0403 18:30:23.207895  7051 net.cpp:399] inception_4e/pool -> inception_4e/pool
I0403 18:30:23.207967  7051 net.cpp:141] Setting up inception_4e/pool
I0403 18:30:23.207990  7051 net.cpp:148] Top shape: 24 528 14 14 (2483712)
I0403 18:30:23.208006  7051 net.cpp:156] Memory required for data: 1252085280
I0403 18:30:23.208021  7051 layer_factory.hpp:77] Creating layer inception_4e/pool_proj
I0403 18:30:23.208044  7051 net.cpp:91] Creating Layer inception_4e/pool_proj
I0403 18:30:23.208060  7051 net.cpp:425] inception_4e/pool_proj <- inception_4e/pool
I0403 18:30:23.208081  7051 net.cpp:399] inception_4e/pool_proj -> inception_4e/pool_proj
I0403 18:30:23.209606  7051 net.cpp:141] Setting up inception_4e/pool_proj
I0403 18:30:23.209645  7051 net.cpp:148] Top shape: 24 128 14 14 (602112)
I0403 18:30:23.209661  7051 net.cpp:156] Memory required for data: 1254493728
I0403 18:30:23.209679  7051 layer_factory.hpp:77] Creating layer inception_4e/relu_pool_proj
I0403 18:30:23.209700  7051 net.cpp:91] Creating Layer inception_4e/relu_pool_proj
I0403 18:30:23.209717  7051 net.cpp:425] inception_4e/relu_pool_proj <- inception_4e/pool_proj
I0403 18:30:23.209736  7051 net.cpp:386] inception_4e/relu_pool_proj -> inception_4e/pool_proj (in-place)
I0403 18:30:23.210031  7051 net.cpp:141] Setting up inception_4e/relu_pool_proj
I0403 18:30:23.210057  7051 net.cpp:148] Top shape: 24 128 14 14 (602112)
I0403 18:30:23.210072  7051 net.cpp:156] Memory required for data: 1256902176
I0403 18:30:23.210086  7051 layer_factory.hpp:77] Creating layer inception_4e/output
I0403 18:30:23.210103  7051 net.cpp:91] Creating Layer inception_4e/output
I0403 18:30:23.210119  7051 net.cpp:425] inception_4e/output <- inception_4e/1x1
I0403 18:30:23.210139  7051 net.cpp:425] inception_4e/output <- inception_4e/3x3
I0403 18:30:23.210156  7051 net.cpp:425] inception_4e/output <- inception_4e/5x5
I0403 18:30:23.210172  7051 net.cpp:425] inception_4e/output <- inception_4e/pool_proj
I0403 18:30:23.210189  7051 net.cpp:399] inception_4e/output -> inception_4e/output
I0403 18:30:23.210242  7051 net.cpp:141] Setting up inception_4e/output
I0403 18:30:23.210269  7051 net.cpp:148] Top shape: 24 832 14 14 (3913728)
I0403 18:30:23.210285  7051 net.cpp:156] Memory required for data: 1272557088
I0403 18:30:23.210300  7051 layer_factory.hpp:77] Creating layer pool4/3x3_s2
I0403 18:30:23.210317  7051 net.cpp:91] Creating Layer pool4/3x3_s2
I0403 18:30:23.210332  7051 net.cpp:425] pool4/3x3_s2 <- inception_4e/output
I0403 18:30:23.210352  7051 net.cpp:399] pool4/3x3_s2 -> pool4/3x3_s2
I0403 18:30:23.210423  7051 net.cpp:141] Setting up pool4/3x3_s2
I0403 18:30:23.210450  7051 net.cpp:148] Top shape: 24 832 7 7 (978432)
I0403 18:30:23.210465  7051 net.cpp:156] Memory required for data: 1276470816
I0403 18:30:23.210479  7051 layer_factory.hpp:77] Creating layer pool4/3x3_s2_pool4/3x3_s2_0_split
I0403 18:30:23.210497  7051 net.cpp:91] Creating Layer pool4/3x3_s2_pool4/3x3_s2_0_split
I0403 18:30:23.210515  7051 net.cpp:425] pool4/3x3_s2_pool4/3x3_s2_0_split <- pool4/3x3_s2
I0403 18:30:23.210531  7051 net.cpp:399] pool4/3x3_s2_pool4/3x3_s2_0_split -> pool4/3x3_s2_pool4/3x3_s2_0_split_0
I0403 18:30:23.210551  7051 net.cpp:399] pool4/3x3_s2_pool4/3x3_s2_0_split -> pool4/3x3_s2_pool4/3x3_s2_0_split_1
I0403 18:30:23.210572  7051 net.cpp:399] pool4/3x3_s2_pool4/3x3_s2_0_split -> pool4/3x3_s2_pool4/3x3_s2_0_split_2
I0403 18:30:23.210592  7051 net.cpp:399] pool4/3x3_s2_pool4/3x3_s2_0_split -> pool4/3x3_s2_pool4/3x3_s2_0_split_3
I0403 18:30:23.210685  7051 net.cpp:141] Setting up pool4/3x3_s2_pool4/3x3_s2_0_split
I0403 18:30:23.210710  7051 net.cpp:148] Top shape: 24 832 7 7 (978432)
I0403 18:30:23.210724  7051 net.cpp:148] Top shape: 24 832 7 7 (978432)
I0403 18:30:23.210741  7051 net.cpp:148] Top shape: 24 832 7 7 (978432)
I0403 18:30:23.210757  7051 net.cpp:148] Top shape: 24 832 7 7 (978432)
I0403 18:30:23.210769  7051 net.cpp:156] Memory required for data: 1292125728
I0403 18:30:23.210783  7051 layer_factory.hpp:77] Creating layer inception_5a/1x1
I0403 18:30:23.210806  7051 net.cpp:91] Creating Layer inception_5a/1x1
I0403 18:30:23.210824  7051 net.cpp:425] inception_5a/1x1 <- pool4/3x3_s2_pool4/3x3_s2_0_split_0
I0403 18:30:23.210845  7051 net.cpp:399] inception_5a/1x1 -> inception_5a/1x1
I0403 18:30:23.213752  7051 net.cpp:141] Setting up inception_5a/1x1
I0403 18:30:23.213781  7051 net.cpp:148] Top shape: 24 256 7 7 (301056)
I0403 18:30:23.213796  7051 net.cpp:156] Memory required for data: 1293329952
I0403 18:30:23.213815  7051 layer_factory.hpp:77] Creating layer inception_5a/relu_1x1
I0403 18:30:23.213835  7051 net.cpp:91] Creating Layer inception_5a/relu_1x1
I0403 18:30:23.213851  7051 net.cpp:425] inception_5a/relu_1x1 <- inception_5a/1x1
I0403 18:30:23.213870  7051 net.cpp:386] inception_5a/relu_1x1 -> inception_5a/1x1 (in-place)
I0403 18:30:23.214186  7051 net.cpp:141] Setting up inception_5a/relu_1x1
I0403 18:30:23.214217  7051 net.cpp:148] Top shape: 24 256 7 7 (301056)
I0403 18:30:23.214234  7051 net.cpp:156] Memory required for data: 1294534176
I0403 18:30:23.214249  7051 layer_factory.hpp:77] Creating layer inception_5a/3x3_reduce
I0403 18:30:23.214272  7051 net.cpp:91] Creating Layer inception_5a/3x3_reduce
I0403 18:30:23.214292  7051 net.cpp:425] inception_5a/3x3_reduce <- pool4/3x3_s2_pool4/3x3_s2_0_split_1
I0403 18:30:23.214311  7051 net.cpp:399] inception_5a/3x3_reduce -> inception_5a/3x3_reduce
I0403 18:30:23.216807  7051 net.cpp:141] Setting up inception_5a/3x3_reduce
I0403 18:30:23.216836  7051 net.cpp:148] Top shape: 24 160 7 7 (188160)
I0403 18:30:23.216851  7051 net.cpp:156] Memory required for data: 1295286816
I0403 18:30:23.216869  7051 layer_factory.hpp:77] Creating layer inception_5a/relu_3x3_reduce
I0403 18:30:23.216889  7051 net.cpp:91] Creating Layer inception_5a/relu_3x3_reduce
I0403 18:30:23.216909  7051 net.cpp:425] inception_5a/relu_3x3_reduce <- inception_5a/3x3_reduce
I0403 18:30:23.216927  7051 net.cpp:386] inception_5a/relu_3x3_reduce -> inception_5a/3x3_reduce (in-place)
I0403 18:30:23.217116  7051 net.cpp:141] Setting up inception_5a/relu_3x3_reduce
I0403 18:30:23.217142  7051 net.cpp:148] Top shape: 24 160 7 7 (188160)
I0403 18:30:23.217156  7051 net.cpp:156] Memory required for data: 1296039456
I0403 18:30:23.217172  7051 layer_factory.hpp:77] Creating layer inception_5a/3x3
I0403 18:30:23.217195  7051 net.cpp:91] Creating Layer inception_5a/3x3
I0403 18:30:23.217216  7051 net.cpp:425] inception_5a/3x3 <- inception_5a/3x3_reduce
I0403 18:30:23.217239  7051 net.cpp:399] inception_5a/3x3 -> inception_5a/3x3
I0403 18:30:23.222271  7051 net.cpp:141] Setting up inception_5a/3x3
I0403 18:30:23.222301  7051 net.cpp:148] Top shape: 24 320 7 7 (376320)
I0403 18:30:23.222316  7051 net.cpp:156] Memory required for data: 1297544736
I0403 18:30:23.222333  7051 layer_factory.hpp:77] Creating layer inception_5a/relu_3x3
I0403 18:30:23.222353  7051 net.cpp:91] Creating Layer inception_5a/relu_3x3
I0403 18:30:23.222369  7051 net.cpp:425] inception_5a/relu_3x3 <- inception_5a/3x3
I0403 18:30:23.222386  7051 net.cpp:386] inception_5a/relu_3x3 -> inception_5a/3x3 (in-place)
I0403 18:30:23.222682  7051 net.cpp:141] Setting up inception_5a/relu_3x3
I0403 18:30:23.222707  7051 net.cpp:148] Top shape: 24 320 7 7 (376320)
I0403 18:30:23.222723  7051 net.cpp:156] Memory required for data: 1299050016
I0403 18:30:23.222736  7051 layer_factory.hpp:77] Creating layer inception_5a/5x5_reduce
I0403 18:30:23.222759  7051 net.cpp:91] Creating Layer inception_5a/5x5_reduce
I0403 18:30:23.222775  7051 net.cpp:425] inception_5a/5x5_reduce <- pool4/3x3_s2_pool4/3x3_s2_0_split_2
I0403 18:30:23.222796  7051 net.cpp:399] inception_5a/5x5_reduce -> inception_5a/5x5_reduce
I0403 18:30:23.223956  7051 net.cpp:141] Setting up inception_5a/5x5_reduce
I0403 18:30:23.223984  7051 net.cpp:148] Top shape: 24 32 7 7 (37632)
I0403 18:30:23.223999  7051 net.cpp:156] Memory required for data: 1299200544
I0403 18:30:23.224016  7051 layer_factory.hpp:77] Creating layer inception_5a/relu_5x5_reduce
I0403 18:30:23.224037  7051 net.cpp:91] Creating Layer inception_5a/relu_5x5_reduce
I0403 18:30:23.224053  7051 net.cpp:425] inception_5a/relu_5x5_reduce <- inception_5a/5x5_reduce
I0403 18:30:23.224071  7051 net.cpp:386] inception_5a/relu_5x5_reduce -> inception_5a/5x5_reduce (in-place)
I0403 18:30:23.224371  7051 net.cpp:141] Setting up inception_5a/relu_5x5_reduce
I0403 18:30:23.224396  7051 net.cpp:148] Top shape: 24 32 7 7 (37632)
I0403 18:30:23.224411  7051 net.cpp:156] Memory required for data: 1299351072
I0403 18:30:23.224426  7051 layer_factory.hpp:77] Creating layer inception_5a/5x5
I0403 18:30:23.224452  7051 net.cpp:91] Creating Layer inception_5a/5x5
I0403 18:30:23.224469  7051 net.cpp:425] inception_5a/5x5 <- inception_5a/5x5_reduce
I0403 18:30:23.224488  7051 net.cpp:399] inception_5a/5x5 -> inception_5a/5x5
I0403 18:30:23.226196  7051 net.cpp:141] Setting up inception_5a/5x5
I0403 18:30:23.226241  7051 net.cpp:148] Top shape: 24 128 7 7 (150528)
I0403 18:30:23.226258  7051 net.cpp:156] Memory required for data: 1299953184
I0403 18:30:23.226275  7051 layer_factory.hpp:77] Creating layer inception_5a/relu_5x5
I0403 18:30:23.226295  7051 net.cpp:91] Creating Layer inception_5a/relu_5x5
I0403 18:30:23.226313  7051 net.cpp:425] inception_5a/relu_5x5 <- inception_5a/5x5
I0403 18:30:23.226330  7051 net.cpp:386] inception_5a/relu_5x5 -> inception_5a/5x5 (in-place)
I0403 18:30:23.226523  7051 net.cpp:141] Setting up inception_5a/relu_5x5
I0403 18:30:23.226552  7051 net.cpp:148] Top shape: 24 128 7 7 (150528)
I0403 18:30:23.226567  7051 net.cpp:156] Memory required for data: 1300555296
I0403 18:30:23.226580  7051 layer_factory.hpp:77] Creating layer inception_5a/pool
I0403 18:30:23.226598  7051 net.cpp:91] Creating Layer inception_5a/pool
I0403 18:30:23.226613  7051 net.cpp:425] inception_5a/pool <- pool4/3x3_s2_pool4/3x3_s2_0_split_3
I0403 18:30:23.226634  7051 net.cpp:399] inception_5a/pool -> inception_5a/pool
I0403 18:30:23.226706  7051 net.cpp:141] Setting up inception_5a/pool
I0403 18:30:23.226730  7051 net.cpp:148] Top shape: 24 832 7 7 (978432)
I0403 18:30:23.226745  7051 net.cpp:156] Memory required for data: 1304469024
I0403 18:30:23.226759  7051 layer_factory.hpp:77] Creating layer inception_5a/pool_proj
I0403 18:30:23.226780  7051 net.cpp:91] Creating Layer inception_5a/pool_proj
I0403 18:30:23.226799  7051 net.cpp:425] inception_5a/pool_proj <- inception_5a/pool
I0403 18:30:23.226819  7051 net.cpp:399] inception_5a/pool_proj -> inception_5a/pool_proj
I0403 18:30:23.229145  7051 net.cpp:141] Setting up inception_5a/pool_proj
I0403 18:30:23.229176  7051 net.cpp:148] Top shape: 24 128 7 7 (150528)
I0403 18:30:23.229190  7051 net.cpp:156] Memory required for data: 1305071136
I0403 18:30:23.229214  7051 layer_factory.hpp:77] Creating layer inception_5a/relu_pool_proj
I0403 18:30:23.229250  7051 net.cpp:91] Creating Layer inception_5a/relu_pool_proj
I0403 18:30:23.229269  7051 net.cpp:425] inception_5a/relu_pool_proj <- inception_5a/pool_proj
I0403 18:30:23.229285  7051 net.cpp:386] inception_5a/relu_pool_proj -> inception_5a/pool_proj (in-place)
I0403 18:30:23.229595  7051 net.cpp:141] Setting up inception_5a/relu_pool_proj
I0403 18:30:23.229624  7051 net.cpp:148] Top shape: 24 128 7 7 (150528)
I0403 18:30:23.229638  7051 net.cpp:156] Memory required for data: 1305673248
I0403 18:30:23.229653  7051 layer_factory.hpp:77] Creating layer inception_5a/output
I0403 18:30:23.229671  7051 net.cpp:91] Creating Layer inception_5a/output
I0403 18:30:23.229687  7051 net.cpp:425] inception_5a/output <- inception_5a/1x1
I0403 18:30:23.229704  7051 net.cpp:425] inception_5a/output <- inception_5a/3x3
I0403 18:30:23.229720  7051 net.cpp:425] inception_5a/output <- inception_5a/5x5
I0403 18:30:23.229737  7051 net.cpp:425] inception_5a/output <- inception_5a/pool_proj
I0403 18:30:23.229756  7051 net.cpp:399] inception_5a/output -> inception_5a/output
I0403 18:30:23.229810  7051 net.cpp:141] Setting up inception_5a/output
I0403 18:30:23.229835  7051 net.cpp:148] Top shape: 24 832 7 7 (978432)
I0403 18:30:23.229851  7051 net.cpp:156] Memory required for data: 1309586976
I0403 18:30:23.229864  7051 layer_factory.hpp:77] Creating layer inception_5a/output_inception_5a/output_0_split
I0403 18:30:23.229882  7051 net.cpp:91] Creating Layer inception_5a/output_inception_5a/output_0_split
I0403 18:30:23.229898  7051 net.cpp:425] inception_5a/output_inception_5a/output_0_split <- inception_5a/output
I0403 18:30:23.229918  7051 net.cpp:399] inception_5a/output_inception_5a/output_0_split -> inception_5a/output_inception_5a/output_0_split_0
I0403 18:30:23.229941  7051 net.cpp:399] inception_5a/output_inception_5a/output_0_split -> inception_5a/output_inception_5a/output_0_split_1
I0403 18:30:23.229961  7051 net.cpp:399] inception_5a/output_inception_5a/output_0_split -> inception_5a/output_inception_5a/output_0_split_2
I0403 18:30:23.229982  7051 net.cpp:399] inception_5a/output_inception_5a/output_0_split -> inception_5a/output_inception_5a/output_0_split_3
I0403 18:30:23.230101  7051 net.cpp:141] Setting up inception_5a/output_inception_5a/output_0_split
I0403 18:30:23.230126  7051 net.cpp:148] Top shape: 24 832 7 7 (978432)
I0403 18:30:23.230142  7051 net.cpp:148] Top shape: 24 832 7 7 (978432)
I0403 18:30:23.230157  7051 net.cpp:148] Top shape: 24 832 7 7 (978432)
I0403 18:30:23.230173  7051 net.cpp:148] Top shape: 24 832 7 7 (978432)
I0403 18:30:23.230187  7051 net.cpp:156] Memory required for data: 1325241888
I0403 18:30:23.230201  7051 layer_factory.hpp:77] Creating layer inception_5b/1x1
I0403 18:30:23.230232  7051 net.cpp:91] Creating Layer inception_5b/1x1
I0403 18:30:23.230250  7051 net.cpp:425] inception_5b/1x1 <- inception_5a/output_inception_5a/output_0_split_0
I0403 18:30:23.230269  7051 net.cpp:399] inception_5b/1x1 -> inception_5b/1x1
I0403 18:30:23.234197  7051 net.cpp:141] Setting up inception_5b/1x1
I0403 18:30:23.234231  7051 net.cpp:148] Top shape: 24 384 7 7 (451584)
I0403 18:30:23.234247  7051 net.cpp:156] Memory required for data: 1327048224
I0403 18:30:23.234266  7051 layer_factory.hpp:77] Creating layer inception_5b/relu_1x1
I0403 18:30:23.234287  7051 net.cpp:91] Creating Layer inception_5b/relu_1x1
I0403 18:30:23.234304  7051 net.cpp:425] inception_5b/relu_1x1 <- inception_5b/1x1
I0403 18:30:23.234323  7051 net.cpp:386] inception_5b/relu_1x1 -> inception_5b/1x1 (in-place)
I0403 18:30:23.234635  7051 net.cpp:141] Setting up inception_5b/relu_1x1
I0403 18:30:23.234661  7051 net.cpp:148] Top shape: 24 384 7 7 (451584)
I0403 18:30:23.234676  7051 net.cpp:156] Memory required for data: 1328854560
I0403 18:30:23.234690  7051 layer_factory.hpp:77] Creating layer inception_5b/3x3_reduce
I0403 18:30:23.234714  7051 net.cpp:91] Creating Layer inception_5b/3x3_reduce
I0403 18:30:23.234732  7051 net.cpp:425] inception_5b/3x3_reduce <- inception_5a/output_inception_5a/output_0_split_1
I0403 18:30:23.234757  7051 net.cpp:399] inception_5b/3x3_reduce -> inception_5b/3x3_reduce
I0403 18:30:23.237468  7051 net.cpp:141] Setting up inception_5b/3x3_reduce
I0403 18:30:23.237499  7051 net.cpp:148] Top shape: 24 192 7 7 (225792)
I0403 18:30:23.237514  7051 net.cpp:156] Memory required for data: 1329757728
I0403 18:30:23.237532  7051 layer_factory.hpp:77] Creating layer inception_5b/relu_3x3_reduce
I0403 18:30:23.237550  7051 net.cpp:91] Creating Layer inception_5b/relu_3x3_reduce
I0403 18:30:23.237566  7051 net.cpp:425] inception_5b/relu_3x3_reduce <- inception_5b/3x3_reduce
I0403 18:30:23.237587  7051 net.cpp:386] inception_5b/relu_3x3_reduce -> inception_5b/3x3_reduce (in-place)
I0403 18:30:23.237782  7051 net.cpp:141] Setting up inception_5b/relu_3x3_reduce
I0403 18:30:23.237807  7051 net.cpp:148] Top shape: 24 192 7 7 (225792)
I0403 18:30:23.237821  7051 net.cpp:156] Memory required for data: 1330660896
I0403 18:30:23.237835  7051 layer_factory.hpp:77] Creating layer inception_5b/3x3
I0403 18:30:23.237859  7051 net.cpp:91] Creating Layer inception_5b/3x3
I0403 18:30:23.237875  7051 net.cpp:425] inception_5b/3x3 <- inception_5b/3x3_reduce
I0403 18:30:23.237897  7051 net.cpp:399] inception_5b/3x3 -> inception_5b/3x3
I0403 18:30:23.244699  7051 net.cpp:141] Setting up inception_5b/3x3
I0403 18:30:23.244727  7051 net.cpp:148] Top shape: 24 384 7 7 (451584)
I0403 18:30:23.244743  7051 net.cpp:156] Memory required for data: 1332467232
I0403 18:30:23.244761  7051 layer_factory.hpp:77] Creating layer inception_5b/relu_3x3
I0403 18:30:23.244783  7051 net.cpp:91] Creating Layer inception_5b/relu_3x3
I0403 18:30:23.244801  7051 net.cpp:425] inception_5b/relu_3x3 <- inception_5b/3x3
I0403 18:30:23.244817  7051 net.cpp:386] inception_5b/relu_3x3 -> inception_5b/3x3 (in-place)
I0403 18:30:23.245123  7051 net.cpp:141] Setting up inception_5b/relu_3x3
I0403 18:30:23.245151  7051 net.cpp:148] Top shape: 24 384 7 7 (451584)
I0403 18:30:23.245164  7051 net.cpp:156] Memory required for data: 1334273568
I0403 18:30:23.245179  7051 layer_factory.hpp:77] Creating layer inception_5b/5x5_reduce
I0403 18:30:23.245223  7051 net.cpp:91] Creating Layer inception_5b/5x5_reduce
I0403 18:30:23.245244  7051 net.cpp:425] inception_5b/5x5_reduce <- inception_5a/output_inception_5a/output_0_split_2
I0403 18:30:23.245266  7051 net.cpp:399] inception_5b/5x5_reduce -> inception_5b/5x5_reduce
I0403 18:30:23.246558  7051 net.cpp:141] Setting up inception_5b/5x5_reduce
I0403 18:30:23.246587  7051 net.cpp:148] Top shape: 24 48 7 7 (56448)
I0403 18:30:23.246603  7051 net.cpp:156] Memory required for data: 1334499360
I0403 18:30:23.246620  7051 layer_factory.hpp:77] Creating layer inception_5b/relu_5x5_reduce
I0403 18:30:23.246639  7051 net.cpp:91] Creating Layer inception_5b/relu_5x5_reduce
I0403 18:30:23.246657  7051 net.cpp:425] inception_5b/relu_5x5_reduce <- inception_5b/5x5_reduce
I0403 18:30:23.246675  7051 net.cpp:386] inception_5b/relu_5x5_reduce -> inception_5b/5x5_reduce (in-place)
I0403 18:30:23.247051  7051 net.cpp:141] Setting up inception_5b/relu_5x5_reduce
I0403 18:30:23.247078  7051 net.cpp:148] Top shape: 24 48 7 7 (56448)
I0403 18:30:23.247093  7051 net.cpp:156] Memory required for data: 1334725152
I0403 18:30:23.247108  7051 layer_factory.hpp:77] Creating layer inception_5b/5x5
I0403 18:30:23.247128  7051 net.cpp:91] Creating Layer inception_5b/5x5
I0403 18:30:23.247146  7051 net.cpp:425] inception_5b/5x5 <- inception_5b/5x5_reduce
I0403 18:30:23.247165  7051 net.cpp:399] inception_5b/5x5 -> inception_5b/5x5
I0403 18:30:23.249249  7051 net.cpp:141] Setting up inception_5b/5x5
I0403 18:30:23.249276  7051 net.cpp:148] Top shape: 24 128 7 7 (150528)
I0403 18:30:23.249290  7051 net.cpp:156] Memory required for data: 1335327264
I0403 18:30:23.249308  7051 layer_factory.hpp:77] Creating layer inception_5b/relu_5x5
I0403 18:30:23.249330  7051 net.cpp:91] Creating Layer inception_5b/relu_5x5
I0403 18:30:23.249346  7051 net.cpp:425] inception_5b/relu_5x5 <- inception_5b/5x5
I0403 18:30:23.249362  7051 net.cpp:386] inception_5b/relu_5x5 -> inception_5b/5x5 (in-place)
I0403 18:30:23.249554  7051 net.cpp:141] Setting up inception_5b/relu_5x5
I0403 18:30:23.249582  7051 net.cpp:148] Top shape: 24 128 7 7 (150528)
I0403 18:30:23.249598  7051 net.cpp:156] Memory required for data: 1335929376
I0403 18:30:23.249613  7051 layer_factory.hpp:77] Creating layer inception_5b/pool
I0403 18:30:23.249629  7051 net.cpp:91] Creating Layer inception_5b/pool
I0403 18:30:23.249645  7051 net.cpp:425] inception_5b/pool <- inception_5a/output_inception_5a/output_0_split_3
I0403 18:30:23.249666  7051 net.cpp:399] inception_5b/pool -> inception_5b/pool
I0403 18:30:23.249738  7051 net.cpp:141] Setting up inception_5b/pool
I0403 18:30:23.249761  7051 net.cpp:148] Top shape: 24 832 7 7 (978432)
I0403 18:30:23.249776  7051 net.cpp:156] Memory required for data: 1339843104
I0403 18:30:23.249790  7051 layer_factory.hpp:77] Creating layer inception_5b/pool_proj
I0403 18:30:23.249811  7051 net.cpp:91] Creating Layer inception_5b/pool_proj
I0403 18:30:23.249830  7051 net.cpp:425] inception_5b/pool_proj <- inception_5b/pool
I0403 18:30:23.249848  7051 net.cpp:399] inception_5b/pool_proj -> inception_5b/pool_proj
I0403 18:30:23.252131  7051 net.cpp:141] Setting up inception_5b/pool_proj
I0403 18:30:23.252161  7051 net.cpp:148] Top shape: 24 128 7 7 (150528)
I0403 18:30:23.252177  7051 net.cpp:156] Memory required for data: 1340445216
I0403 18:30:23.252193  7051 layer_factory.hpp:77] Creating layer inception_5b/relu_pool_proj
I0403 18:30:23.252223  7051 net.cpp:91] Creating Layer inception_5b/relu_pool_proj
I0403 18:30:23.252243  7051 net.cpp:425] inception_5b/relu_pool_proj <- inception_5b/pool_proj
I0403 18:30:23.252259  7051 net.cpp:386] inception_5b/relu_pool_proj -> inception_5b/pool_proj (in-place)
I0403 18:30:23.252560  7051 net.cpp:141] Setting up inception_5b/relu_pool_proj
I0403 18:30:23.252588  7051 net.cpp:148] Top shape: 24 128 7 7 (150528)
I0403 18:30:23.252601  7051 net.cpp:156] Memory required for data: 1341047328
I0403 18:30:23.252616  7051 layer_factory.hpp:77] Creating layer inception_5b/output
I0403 18:30:23.252636  7051 net.cpp:91] Creating Layer inception_5b/output
I0403 18:30:23.252665  7051 net.cpp:425] inception_5b/output <- inception_5b/1x1
I0403 18:30:23.252683  7051 net.cpp:425] inception_5b/output <- inception_5b/3x3
I0403 18:30:23.252699  7051 net.cpp:425] inception_5b/output <- inception_5b/5x5
I0403 18:30:23.252714  7051 net.cpp:425] inception_5b/output <- inception_5b/pool_proj
I0403 18:30:23.252730  7051 net.cpp:399] inception_5b/output -> inception_5b/output
I0403 18:30:23.252780  7051 net.cpp:141] Setting up inception_5b/output
I0403 18:30:23.252805  7051 net.cpp:148] Top shape: 24 1024 7 7 (1204224)
I0403 18:30:23.252821  7051 net.cpp:156] Memory required for data: 1345864224
I0403 18:30:23.252835  7051 layer_factory.hpp:77] Creating layer pool5/7x7_s1
I0403 18:30:23.252853  7051 net.cpp:91] Creating Layer pool5/7x7_s1
I0403 18:30:23.252868  7051 net.cpp:425] pool5/7x7_s1 <- inception_5b/output
I0403 18:30:23.252887  7051 net.cpp:399] pool5/7x7_s1 -> pool5/7x7_s1
I0403 18:30:23.253103  7051 net.cpp:141] Setting up pool5/7x7_s1
I0403 18:30:23.253128  7051 net.cpp:148] Top shape: 24 1024 1 1 (24576)
I0403 18:30:23.253142  7051 net.cpp:156] Memory required for data: 1345962528
I0403 18:30:23.253156  7051 layer_factory.hpp:77] Creating layer pool5/drop_7x7_s1
I0403 18:30:23.253176  7051 net.cpp:91] Creating Layer pool5/drop_7x7_s1
I0403 18:30:23.253191  7051 net.cpp:425] pool5/drop_7x7_s1 <- pool5/7x7_s1
I0403 18:30:23.253212  7051 net.cpp:386] pool5/drop_7x7_s1 -> pool5/7x7_s1 (in-place)
I0403 18:30:23.253264  7051 net.cpp:141] Setting up pool5/drop_7x7_s1
I0403 18:30:23.253288  7051 net.cpp:148] Top shape: 24 1024 1 1 (24576)
I0403 18:30:23.253301  7051 net.cpp:156] Memory required for data: 1346060832
I0403 18:30:23.253315  7051 layer_factory.hpp:77] Creating layer loss3/classifier_plantvillage
I0403 18:30:23.253334  7051 net.cpp:91] Creating Layer loss3/classifier_plantvillage
I0403 18:30:23.253352  7051 net.cpp:425] loss3/classifier_plantvillage <- pool5/7x7_s1
I0403 18:30:23.253371  7051 net.cpp:399] loss3/classifier_plantvillage -> loss3/classifier_plantvillage
I0403 18:30:23.253788  7051 net.cpp:141] Setting up loss3/classifier_plantvillage
I0403 18:30:23.253813  7051 net.cpp:148] Top shape: 24 38 (912)
I0403 18:30:23.253828  7051 net.cpp:156] Memory required for data: 1346064480
I0403 18:30:23.253844  7051 layer_factory.hpp:77] Creating layer loss3/classifier_plantvillage_loss3/classifier_plantvillage_0_split
I0403 18:30:23.253862  7051 net.cpp:91] Creating Layer loss3/classifier_plantvillage_loss3/classifier_plantvillage_0_split
I0403 18:30:23.253877  7051 net.cpp:425] loss3/classifier_plantvillage_loss3/classifier_plantvillage_0_split <- loss3/classifier_plantvillage
I0403 18:30:23.253896  7051 net.cpp:399] loss3/classifier_plantvillage_loss3/classifier_plantvillage_0_split -> loss3/classifier_plantvillage_loss3/classifier_plantvillage_0_split_0
I0403 18:30:23.253917  7051 net.cpp:399] loss3/classifier_plantvillage_loss3/classifier_plantvillage_0_split -> loss3/classifier_plantvillage_loss3/classifier_plantvillage_0_split_1
I0403 18:30:23.253937  7051 net.cpp:399] loss3/classifier_plantvillage_loss3/classifier_plantvillage_0_split -> loss3/classifier_plantvillage_loss3/classifier_plantvillage_0_split_2
I0403 18:30:23.253957  7051 net.cpp:399] loss3/classifier_plantvillage_loss3/classifier_plantvillage_0_split -> loss3/classifier_plantvillage_loss3/classifier_plantvillage_0_split_3
I0403 18:30:23.254058  7051 net.cpp:141] Setting up loss3/classifier_plantvillage_loss3/classifier_plantvillage_0_split
I0403 18:30:23.254082  7051 net.cpp:148] Top shape: 24 38 (912)
I0403 18:30:23.254097  7051 net.cpp:148] Top shape: 24 38 (912)
I0403 18:30:23.254112  7051 net.cpp:148] Top shape: 24 38 (912)
I0403 18:30:23.254127  7051 net.cpp:148] Top shape: 24 38 (912)
I0403 18:30:23.254139  7051 net.cpp:156] Memory required for data: 1346079072
I0403 18:30:23.254153  7051 layer_factory.hpp:77] Creating layer loss1/loss
I0403 18:30:23.254176  7051 net.cpp:91] Creating Layer loss1/loss
I0403 18:30:23.254194  7051 net.cpp:425] loss1/loss <- loss1/classifier_plantvillage_loss1/classifier_plantvillage_0_split_0
I0403 18:30:23.254230  7051 net.cpp:425] loss1/loss <- label_data_1_split_0
…
