…
I0403 18:35:40.294932  7149 net.cpp:313] The NetState phase (1) differed from the phase (0) specified by a rule in layer data
I0403 18:35:40.296166  7149 net.cpp:49] Initializing net from parameters: 
state {
  phase: TEST
}
layer {
  name: "data"
  type: "Data"
  top: "data"
  top: "label"
  include {
    phase: TEST
  }
  transform_param {
    mirror: false
    crop_size: 224
    mean_file: "/home/mohanty/data/final_dataset/lmdb/segmented-50-50/mean.binaryproto"
  }
  data_param {
    source: "/home/mohanty/data/final_dataset/lmdb/segmented-50-50/test_db"
    batch_size: 24
    backend: LMDB
  }
}
layer {
  name: "conv1/7x7_s2"
  type: "Convolution"
  bottom: "data"
  top: "conv1/7x7_s2"
  param {
    lr_mult: 1
    decay_mult: 1
  }
  param {
    lr_mult: 2
    decay_mult: 0
  }
  convolution_param {
    num_output: 64
    pad: 3
    kernel_size: 7
    stride: 2
    weight_filler {
      type: "xavier"
      std: 0.1
    }
    bias_filler {
      type: "constant"
      value: 0.2
    }
  }
}
layer {
  name: "conv1/relu_7x7"
  type: "ReLU"
  bottom: "conv1/7x7_s2"
  top: "conv1/7x7_s2"
}
layer {
  name: "pool1/3x3_s2"
  type: "Pooling"
  bottom: "conv1/7x7_s2"
  top: "pool1/3x3_s2"
  pooling_param {
    pool: MAX
    kernel_size: 3
    stride: 2
  }
}
layer {
  name: "pool1/norm1"
  type: "LRN"
  bottom: "pool1/3x3_s2"
  top: "pool1/norm1"
  lrn_param {
    local_size: 5
    alpha: 0.0001
    beta: 0.75
  }
}
layer {
  name: "conv2/3x3_reduce"
  type: "Convolution"
  bottom: "pool1/norm1"
  top: "conv2/3x3_reduce"
  param {
    lr_mult: 1
    decay_mult: 1
  }
  param {
    lr_mult: 2
    decay_mult: 0
  }
  convolution_param {
    num_output: 64
    kernel_size: 1
    weight_filler {
      type: "xavier"
      std: 0.1
    }
    bias_filler {
      type: "constant"
      value: 0.2
    }
  }
}
layer {
  name: "conv2/relu_3x3_reduce"
  type: "ReLU"
  bottom: "conv2/3x3_reduce"
  top: "conv2/3x3_reduce"
}
layer {
  name: "conv2/3x3"
  type: "Convolution"
  bottom: "conv2/3x3_reduce"
  top: "conv2/3x3"
  param {
    lr_mult: 1
    decay_mult: 1
  }
  param {
    lr_mult: 2
    decay_mult: 0
  }
  convolution_param {
    num_output: 192
    pad: 1
    kernel_size: 3
    weight_filler {
      type: "xavier"
      std: 0.03
    }
    bias_filler {
      type: "constant"
      value: 0.2
    }
  }
}
layer {
  name: "conv2/relu_3x3"
  type: "ReLU"
  bottom: "conv2/3x3"
  top: "conv2/3x3"
}
layer {
  name: "conv2/norm2"
  type: "LRN"
  bottom: "conv2/3x3"
  top: "conv2/norm2"
  lrn_param {
    local_size: 5
    alpha: 0.0001
    beta: 0.75
  }
}
layer {
  name: "pool2/3x3_s2"
  type: "Pooling"
  bottom: "conv2/norm2"
  top: "pool2/3x3_s2"
  pooling_param {
    pool: MAX
    kernel_size: 3
    stride: 2
  }
}
layer {
  name: "inception_3a/1x1"
  type: "Convolution"
  bottom: "pool2/3x3_s2"
  top: "inception_3a/1x1"
  param {
    lr_mult: 1
    decay_mult: 1
  }
  param {
    lr_mult: 2
    decay_mult: 0
  }
  convolution_param {
    num_output: 64
    kernel_size: 1
    weight_filler {
      type: "xavier"
      std: 0.03
    }
    bias_filler {
      type: "constant"
      value: 0.2
    }
  }
}
layer {
  name: "inception_3a/relu_1x1"
  type: "ReLU"
  bottom: "inception_3a/1x1"
  top: "inception_3a/1x1"
}
layer {
  name: "inception_3a/3x3_reduce"
  type: "Convolution"
  bottom: "pool2/3x3_s2"
  top: "inception_3a/3x3_reduce"
  param {
    lr_mult: 1
    decay_mult: 1
  }
  param {
    lr_mult: 2
    decay_mult: 0
  }
  convolution_param {
    num_output: 96
    kernel_size: 1
    weight_filler {
      type: "xavier"
      std: 0.09
    }
    bias_filler {
      type: "constant"
      value: 0.2
    }
  }
}
layer {
  name: "inception_3a/relu_3x3_reduce"
  type: "ReLU"
  bottom: "inception_3a/3x3_reduce"
  top: "inception_3a/3x3_reduce"
}
layer {
  name: "inception_3a/3x3"
  type: "Convolution"
  bottom: "inception_3a/3x3_reduce"
  top: "inception_3a/3x3"
  param {
    lr_mult: 1
    decay_mult: 1
  }
  param {
    lr_mult: 2
    decay_mult: 0
  }
  convolution_param {
    num_output: 128
    pad: 1
    kernel_size: 3
    weight_filler {
      type: "xavier"
      std: 0.03
    }
    bias_filler {
      type: "constant"
      value: 0.2
    }
  }
}
layer {
  name: "inception_3a/relu_3x3"
  type: "ReLU"
  bottom: "inception_3a/3x3"
  top: "inception_3a/3x3"
}
layer {
  name: "inception_3a/5x5_reduce"
  type: "Convolution"
  bottom: "pool2/3x3_s2"
  top: "inception_3a/5x5_reduce"
  param {
    lr_mult: 1
    decay_mult: 1
  }
  param {
    lr_mult: 2
    decay_mult: 0
  }
  convolution_param {
    num_output: 16
    kernel_size: 1
    weight_filler {
      type: "xavier"
      std: 0.2
    }
    bias_filler {
      type: "constant"
      value: 0.2
    }
  }
}
layer {
  name: "inception_3a/relu_5x5_reduce"
  type: "ReLU"
  bottom: "inception_3a/5x5_reduce"
  top: "inception_3a/5x5_reduce"
}
layer {
  name: "inception_3a/5x5"
  type: "Convolution"
  bottom: "inception_3a/5x5_reduce"
  top: "inception_3a/5x5"
  param {
    lr_mult: 1
    decay_mult: 1
  }
  param {
    lr_mult: 2
    decay_mult: 0
  }
  convolution_param {
    num_output: 32
    pad: 2
    kernel_size: 5
    weight_filler {
      type: "xavier"
      std: 0.03
    }
    bias_filler {
      type: "constant"
      value: 0.2
    }
  }
}
layer {
  name: "inception_3a/relu_5x5"
  type: "ReLU"
  bottom: "inception_3a/5x5"
  top: "inception_3a/5x5"
}
layer {
  name: "inception_3a/pool"
  type: "Pooling"
  bottom: "pool2/3x3_s2"
  top: "inception_3a/pool"
  pooling_param {
    pool: MAX
    kernel_size: 3
    stride: 1
    pad: 1
  }
}
layer {
  name: "inception_3a/pool_proj"
  type: "Convolution"
  bottom: "inception_3a/pool"
  top: "inception_3a/pool_proj"
  param {
    lr_mult: 1
    decay_mult: 1
  }
  param {
    lr_mult: 2
    decay_mult: 0
  }
  convolution_param {
    num_output: 32
    kernel_size: 1
    weight_filler {
      type: "xavier"
      std: 0.1
    }
    bias_filler {
      type: "constant"
      value: 0.2
    }
  }
}
layer {
  name: "inception_3a/relu_pool_proj"
  type: "ReLU"
  bottom: "inception_3a/pool_proj"
  top: "inception_3a/pool_proj"
}
layer {
  name: "inception_3a/output"
  type: "Concat"
  bottom: "inception_3a/1x1"
  bottom: "inception_3a/3x3"
  bottom: "inception_3a/5x5"
  bottom: "inception_3a/pool_proj"
  top: "inception_3a/output"
}
layer {
  name: "inception_3b/1x1"
  type: "Convolution"
  bottom: "inception_3a/output"
  top: "inception_3b/1x1"
  param {
    lr_mult: 1
    decay_mult: 1
  }
  param {
    lr_mult: 2
    decay_mult: 0
  }
  convolution_param {
    num_output: 128
    kernel_size: 1
    weight_filler {
      type: "xavier"
      std: 0.03
    }
    bias_filler {
      type: "constant"
      value: 0.2
    }
  }
}
layer {
  name: "inception_3b/relu_1x1"
  type: "ReLU"
  bottom: "inception_3b/1x1"
  top: "inception_3b/1x1"
}
layer {
  name: "inception_3b/3x3_reduce"
  type: "Convolution"
  bottom: "inception_3a/output"
  top: "inception_3b/3x3_reduce"
  param {
    lr_mult: 1
    decay_mult: 1
  }
  param {
    lr_mult: 2
    decay_mult: 0
  }
  convolution_param {
    num_output: 128
    kernel_size: 1
    weight_filler {
      type: "xavier"
      std: 0.09
    }
    bias_filler {
      type: "constant"
      value: 0.2
    }
  }
}
layer {
  name: "inception_3b/relu_3x3_reduce"
  type: "ReLU"
  bottom: "inception_3b/3x3_reduce"
  top: "inception_3b/3x3_reduce"
}
layer {
  name: "inception_3b/3x3"
  type: "Convolution"
  bottom: "inception_3b/3x3_reduce"
  top: "inception_3b/3x3"
  param {
    lr_mult: 1
    decay_mult: 1
  }
  param {
    lr_mult: 2
    decay_mult: 0
  }
  convolution_param {
    num_output: 192
    pad: 1
    kernel_size: 3
    weight_filler {
      type: "xavier"
      std: 0.03
    }
    bias_filler {
      type: "constant"
      value: 0.2
    }
  }
}
layer {
  name: "inception_3b/relu_3x3"
  type: "ReLU"
  bottom: "inception_3b/3x3"
  top: "inception_3b/3x3"
}
layer {
  name: "inception_3b/5x5_reduce"
  type: "Convolution"
  bottom: "inception_3a/output"
  top: "inception_3b/5x5_reduce"
  param {
    lr_mult: 1
    decay_mult: 1
  }
  param {
    lr_mult: 2
    decay_mult: 0
  }
  convolution_param {
    num_output: 32
    kernel_size: 1
    weight_filler {
      type: "xavier"
      std: 0.2
    }
    bias_filler {
      type: "constant"
      value: 0.2
    }
  }
}
layer {
  name: "inception_3b/relu_5x5_reduce"
  type: "ReLU"
  bottom: "inception_3b/5x5_reduce"
  top: "inception_3b/5x5_reduce"
}
layer {
  name: "inception_3b/5x5"
  type: "Convolution"
  bottom: "inception_3b/5x5_reduce"
  top: "inception_3b/5x5"
  param {
    lr_mult: 1
    decay_mult: 1
  }
  param {
    lr_mult: 2
    decay_mult: 0
  }
  convolution_param {
    num_output: 96
    pad: 2
    kernel_size: 5
    weight_filler {
      type: "xavier"
      std: 0.03
    }
    bias_filler {
      type: "constant"
      value: 0.2
    }
  }
}
layer {
  name: "inception_3b/relu_5x5"
  type: "ReLU"
  bottom: "inception_3b/5x5"
  top: "inception_3b/5x5"
}
layer {
  name: "inception_3b/pool"
  type: "Pooling"
  bottom: "inception_3a/output"
  top: "inception_3b/pool"
  pooling_param {
    pool: MAX
    kernel_size: 3
    stride: 1
    pad: 1
  }
}
layer {
  name: "inception_3b/pool_proj"
  type: "Convolution"
  bottom: "inception_3b/pool"
  top: "inception_3b/pool_proj"
  param {
    lr_mult: 1
    decay_mult: 1
  }
  param {
    lr_mult: 2
    decay_mult: 0
  }
  convolution_param {
    num_output: 64
    kernel_size: 1
    weight_filler {
      type: "xavier"
      std: 0.1
    }
    bias_filler {
      type: "constant"
      value: 0.2
    }
  }
}
layer {
  name: "inception_3b/relu_pool_proj"
  type: "ReLU"
  bottom: "inception_3b/pool_proj"
  top: "inception_3b/pool_proj"
}
layer {
  name: "inception_3b/output"
  type: "Concat"
  bottom: "inception_3b/1x1"
  bottom: "inception_3b/3x3"
  bottom: "inception_3b/5x5"
  bottom: "inception_3b/pool_proj"
  top: "inception_3b/output"
}
layer {
  name: "pool3/3x3_s2"
  type: "Pooling"
  bottom: "inception_3b/output"
  top: "pool3/3x3_s2"
  pooling_param {
    pool: MAX
    kernel_size: 3
    stride: 2
  }
}
layer {
  name: "inception_4a/1x1"
  type: "Convolution"
  bottom: "pool3/3x3_s2"
  top: "inception_4a/1x1"
  param {
    lr_mult: 1
    decay_mult: 1
  }
  param {
    lr_mult: 2
    decay_mult: 0
  }
  convolution_param {
    num_output: 192
    kernel_size: 1
    weight_filler {
      type: "xavier"
      std: 0.03
    }
    bias_filler {
      type: "constant"
      value: 0.2
    }
  }
}
layer {
  name: "inception_4a/relu_1x1"
  type: "ReLU"
  bottom: "inception_4a/1x1"
  top: "inception_4a/1x1"
}
layer {
  name: "inception_4a/3x3_reduce"
  type: "Convolution"
  bottom: "pool3/3x3_s2"
  top: "inception_4a/3x3_reduce"
  param {
    lr_mult: 1
    decay_mult: 1
  }
  param {
    lr_mult: 2
    decay_mult: 0
  }
  convolution_param {
    num_output: 96
    kernel_size: 1
    weight_filler {
      type: "xavier"
      std: 0.09
    }
    bias_filler {
      type: "constant"
      value: 0.2
    }
  }
}
layer {
  name: "inception_4a/relu_3x3_reduce"
  type: "ReLU"
  bottom: "inception_4a/3x3_reduce"
  top: "inception_4a/3x3_reduce"
}
layer {
  name: "inception_4a/3x3"
  type: "Convolution"
  bottom: "inception_4a/3x3_reduce"
  top: "inception_4a/3x3"
  param {
    lr_mult: 1
    decay_mult: 1
  }
  param {
    lr_mult: 2
    decay_mult: 0
  }
  convolution_param {
    num_output: 208
    pad: 1
    kernel_size: 3
    weight_filler {
      type: "xavier"
      std: 0.03
    }
    bias_filler {
      type: "constant"
      value: 0.2
    }
  }
}
layer {
  name: "inception_4a/relu_3x3"
  type: "ReLU"
  bottom: "inception_4a/3x3"
  top: "inception_4a/3x3"
}
layer {
  name: "inception_4a/5x5_reduce"
  type: "Convolution"
  bottom: "pool3/3x3_s2"
  top: "inception_4a/5x5_reduce"
  param {
    lr_mult: 1
    decay_mult: 1
  }
  param {
    lr_mult: 2
    decay_mult: 0
  }
  convolution_param {
    num_output: 16
    kernel_size: 1
    weight_filler {
      type: "xavier"
      std: 0.2
    }
    bias_filler {
      type: "constant"
      value: 0.2
    }
  }
}
layer {
  name: "inception_4a/relu_5x5_reduce"
  type: "ReLU"
  bottom: "inception_4a/5x5_reduce"
  top: "inception_4a/5x5_reduce"
}
layer {
  name: "inception_4a/5x5"
  type: "Convolution"
  bottom: "inception_4a/5x5_reduce"
  top: "inception_4a/5x5"
  param {
    lr_mult: 1
    decay_mult: 1
  }
  param {
    lr_mult: 2
    decay_mult: 0
  }
  convolution_param {
    num_output: 48
    pad: 2
    kernel_size: 5
    weight_filler {
      type: "xavier"
      std: 0.03
    }
    bias_filler {
      type: "constant"
      value: 0.2
    }
  }
}
layer {
  name: "inception_4a/relu_5x5"
  type: "ReLU"
  bottom: "inception_4a/5x5"
  top: "inception_4a/5x5"
}
layer {
  name: "inception_4a/pool"
  type: "Pooling"
  bottom: "pool3/3x3_s2"
  top: "inception_4a/pool"
  pooling_param {
    pool: MAX
    kernel_size: 3
    stride: 1
    pad: 1
  }
}
layer {
  name: "inception_4a/pool_proj"
  type: "Convolution"
  bottom: "inception_4a/pool"
  top: "inception_4a/pool_proj"
  param {
    lr_mult: 1
    decay_mult: 1
  }
  param {
    lr_mult: 2
    decay_mult: 0
  }
  convolution_param {
    num_output: 64
    kernel_size: 1
    weight_filler {
      type: "xavier"
      std: 0.1
    }
    bias_filler {
      type: "constant"
      value: 0.2
    }
  }
}
layer {
  name: "inception_4a/relu_pool_proj"
  type: "ReLU"
  bottom: "inception_4a/pool_proj"
  top: "inception_4a/pool_proj"
}
layer {
  name: "inception_4a/output"
  type: "Concat"
  bottom: "inception_4a/1x1"
  bottom: "inception_4a/3x3"
  bottom: "inception_4a/5x5"
  bottom: "inception_4a/pool_proj"
  top: "inception_4a/output"
}
layer {
  name: "loss1/ave_pool"
  type: "Pooling"
  bottom: "inception_4a/output"
  top: "loss1/ave_pool"
  pooling_param {
    pool: AVE
    kernel_size: 5
    stride: 3
  }
}
layer {
  name: "loss1/conv"
  type: "Convolution"
  bottom: "loss1/ave_pool"
  top: "loss1/conv"
  param {
    lr_mult: 1
    decay_mult: 1
  }
  param {
    lr_mult: 2
    decay_mult: 0
  }
  convolution_param {
    num_output: 128
    kernel_size: 1
    weight_filler {
      type: "xavier"
      std: 0.08
    }
    bias_filler {
      type: "constant"
      value: 0.2
    }
  }
}
layer {
  name: "loss1/relu_conv"
  type: "ReLU"
  bottom: "loss1/conv"
  top: "loss1/conv"
}
layer {
  name: "loss1/fc"
  type: "InnerProduct"
  bottom: "loss1/conv"
  top: "loss1/fc"
  param {
    lr_mult: 1
    decay_mult: 1
  }
  param {
    lr_mult: 2
    decay_mult: 0
  }
  inner_product_param {
    num_output: 1024
    weight_filler {
      type: "xavier"
      std: 0.02
    }
    bias_filler {
      type: "constant"
      value: 0.2
    }
  }
}
layer {
  name: "loss1/relu_fc"
  type: "ReLU"
  bottom: "loss1/fc"
  top: "loss1/fc"
}
layer {
  name: "loss1/drop_fc"
  type: "Dropout"
  bottom: "loss1/fc"
  top: "loss1/fc"
  dropout_param {
    dropout_ratio: 0.7
  }
}
layer {
  name: "loss1/classifier_plantvillage"
  type: "InnerProduct"
  bottom: "loss1/fc"
  top: "loss1/classifier_plantvillage"
  param {
    lr_mult: 1
    decay_mult: 1
  }
  param {
    lr_mult: 2
    decay_mult: 0
  }
  inner_product_param {
    num_output: 38
    weight_filler {
      type: "xavier"
      std: 0.0009765625
    }
    bias_filler {
      type: "constant"
      value: 0
    }
  }
}
layer {
  name: "inception_4b/1x1"
  type: "Convolution"
  bottom: "inception_4a/output"
  top: "inception_4b/1x1"
  param {
    lr_mult: 1
    decay_mult: 1
  }
  param {
    lr_mult: 2
    decay_mult: 0
  }
  convolution_param {
    num_output: 160
    kernel_size: 1
    weight_filler {
      type: "xavier"
      std: 0.03
    }
    bias_filler {
      type: "constant"
      value: 0.2
    }
  }
}
layer {
  name: "inception_4b/relu_1x1"
  type: "ReLU"
  bottom: "inception_4b/1x1"
  top: "inception_4b/1x1"
}
layer {
  name: "inception_4b/3x3_reduce"
  type: "Convolution"
  bottom: "inception_4a/output"
  top: "inception_4b/3x3_reduce"
  param {
    lr_mult: 1
    decay_mult: 1
  }
  param {
    lr_mult: 2
    decay_mult: 0
  }
  convolution_param {
    num_output: 112
    kernel_size: 1
    weight_filler {
      type: "xavier"
      std: 0.09
    }
    bias_filler {
      type: "constant"
      value: 0.2
    }
  }
}
layer {
  name: "inception_4b/relu_3x3_reduce"
  type: "ReLU"
  bottom: "inception_4b/3x3_reduce"
  top: "inception_4b/3x3_reduce"
}
layer {
  name: "inception_4b/3x3"
  type: "Convolution"
  bottom: "inception_4b/3x3_reduce"
  top: "inception_4b/3x3"
  param {
    lr_mult: 1
    decay_mult: 1
  }
  param {
    lr_mult: 2
    decay_mult: 0
  }
  convolution_param {
    num_output: 224
    pad: 1
    kernel_size: 3
    weight_filler {
      type: "xavier"
      std: 0.03
    }
    bias_filler {
      type: "constant"
      value: 0.2
    }
  }
}
layer {
  name: "inception_4b/relu_3x3"
  type: "ReLU"
  bottom: "inception_4b/3x3"
  top: "inception_4b/3x3"
}
layer {
  name: "inception_4b/5x5_reduce"
  type: "Convolution"
  bottom: "inception_4a/output"
  top: "inception_4b/5x5_reduce"
  param {
    lr_mult: 1
    decay_mult: 1
  }
  param {
    lr_mult: 2
    decay_mult: 0
  }
  convolution_param {
    num_output: 24
    kernel_size: 1
    weight_filler {
      type: "xavier"
      std: 0.2
    }
    bias_filler {
      type: "constant"
      value: 0.2
    }
  }
}
layer {
  name: "inception_4b/relu_5x5_reduce"
  type: "ReLU"
  bottom: "inception_4b/5x5_reduce"
  top: "inception_4b/5x5_reduce"
}
layer {
  name: "inception_4b/5x5"
  type: "Convolution"
  bottom: "inception_4b/5x5_reduce"
  top: "inception_4b/5x5"
  param {
    lr_mult: 1
    decay_mult: 1
  }
  param {
    lr_mult: 2
    decay_mult: 0
  }
  convolution_param {
    num_output: 64
    pad: 2
    kernel_size: 5
    weight_filler {
      type: "xavier"
      std: 0.03
    }
    bias_filler {
      type: "constant"
      value: 0.2
    }
  }
}
layer {
  name: "inception_4b/relu_5x5"
  type: "ReLU"
  bottom: "inception_4b/5x5"
  top: "inception_4b/5x5"
}
layer {
  name: "inception_4b/pool"
  type: "Pooling"
  bottom: "inception_4a/output"
  top: "inception_4b/pool"
  pooling_param {
    pool: MAX
    kernel_size: 3
    stride: 1
    pad: 1
  }
}
layer {
  name: "inception_4b/pool_proj"
  type: "Convolution"
  bottom: "inception_4b/pool"
  top: "inception_4b/pool_proj"
  param {
    lr_mult: 1
    decay_mult: 1
  }
  param {
    lr_mult: 2
    decay_mult: 0
  }
  convolution_param {
    num_output: 64
    kernel_size: 1
    weight_filler {
      type: "xavier"
      std: 0.1
    }
    bias_filler {
      type: "constant"
      value: 0.2
    }
  }
}
layer {
  name: "inception_4b/relu_pool_proj"
  type: "ReLU"
  bottom: "inception_4b/pool_proj"
  top: "inception_4b/pool_proj"
}
layer {
  name: "inception_4b/output"
  type: "Concat"
  bottom: "inception_4b/1x1"
  bottom: "inception_4b/3x3"
  bottom: "inception_4b/5x5"
  bottom: "inception_4b/pool_proj"
  top: "inception_4b/output"
}
layer {
  name: "inception_4c/1x1"
  type: "Convolution"
  bottom: "inception_4b/output"
  top: "inception_4c/1x1"
  param {
    lr_mult: 1
    decay_mult: 1
  }
  param {
    lr_mult: 2
    decay_mult: 0
  }
  convolution_param {
    num_output: 128
    kernel_size: 1
    weight_filler {
      type: "xavier"
      std: 0.03
    }
    bias_filler {
      type: "constant"
      value: 0.2
    }
  }
}
layer {
  name: "inception_4c/relu_1x1"
  type: "ReLU"
  bottom: "inception_4c/1x1"
  top: "inception_4c/1x1"
}
layer {
  name: "inception_4c/3x3_reduce"
  type: "Convolution"
  bottom: "inception_4b/output"
  top: "inception_4c/3x3_reduce"
  param {
    lr_mult: 1
    decay_mult: 1
  }
  param {
    lr_mult: 2
    decay_mult: 0
  }
  convolution_param {
    num_output: 128
    kernel_size: 1
    weight_filler {
      type: "xavier"
      std: 0.09
    }
    bias_filler {
      type: "constant"
      value: 0.2
    }
  }
}
layer {
  name: "inception_4c/relu_3x3_reduce"
  type: "ReLU"
  bottom: "inception_4c/3x3_reduce"
  top: "inception_4c/3x3_reduce"
}
layer {
  name: "inception_4c/3x3"
  type: "Convolution"
  bottom: "inception_4c/3x3_reduce"
  top: "inception_4c/3x3"
  param {
    lr_mult: 1
    decay_mult: 1
  }
  param {
    lr_mult: 2
    decay_mult: 0
  }
  convolution_param {
    num_output: 256
    pad: 1
    kernel_size: 3
    weight_filler {
      type: "xavier"
      std: 0.03
    }
    bias_filler {
      type: "constant"
      value: 0.2
    }
  }
}
layer {
  name: "inception_4c/relu_3x3"
  type: "ReLU"
  bottom: "inception_4c/3x3"
  top: "inception_4c/3x3"
}
layer {
  name: "inception_4c/5x5_reduce"
  type: "Convolution"
  bottom: "inception_4b/output"
  top: "inception_4c/5x5_reduce"
  param {
    lr_mult: 1
    decay_mult: 1
  }
  param {
    lr_mult: 2
    decay_mult: 0
  }
  convolution_param {
    num_output: 24
    kernel_size: 1
    weight_filler {
      type: "xavier"
      std: 0.2
    }
    bias_filler {
      type: "constant"
      value: 0.2
    }
  }
}
layer {
  name: "inception_4c/relu_5x5_reduce"
  type: "ReLU"
  bottom: "inception_4c/5x5_reduce"
  top: "inception_4c/5x5_reduce"
}
layer {
  name: "inception_4c/5x5"
  type: "Convolution"
  bottom: "inception_4c/5x5_reduce"
  top: "inception_4c/5x5"
  param {
    lr_mult: 1
    decay_mult: 1
  }
  param {
    lr_mult: 2
    decay_mult: 0
  }
  convolution_param {
    num_output: 64
    pad: 2
    kernel_size: 5
    weight_filler {
      type: "xavier"
      std: 0.03
    }
    bias_filler {
      type: "constant"
      value: 0.2
    }
  }
}
layer {
  name: "inception_4c/relu_5x5"
  type: "ReLU"
  bottom: "inception_4c/5x5"
  top: "inception_4c/5x5"
}
layer {
  name: "inception_4c/pool"
  type: "Pooling"
  bottom: "inception_4b/output"
  top: "inception_4c/pool"
  pooling_param {
    pool: MAX
    kernel_size: 3
    stride: 1
    pad: 1
  }
}
layer {
  name: "inception_4c/pool_proj"
  type: "Convolution"
  bottom: "inception_4c/pool"
  top: "inception_4c/pool_proj"
  param {
    lr_mult: 1
    decay_mult: 1
  }
  param {
    lr_mult: 2
    decay_mult: 0
  }
  convolution_param {
    num_output: 64
    kernel_size: 1
    weight_filler {
      type: "xavier"
      std: 0.1
    }
    bias_filler {
      type: "constant"
      value: 0.2
    }
  }
}
layer {
  name: "inception_4c/relu_pool_proj"
  type: "ReLU"
  bottom: "inception_4c/pool_proj"
  top: "inception_4c/pool_proj"
}
layer {
  name: "inception_4c/output"
  type: "Concat"
  bottom: "inception_4c/1x1"
  bottom: "inception_4c/3x3"
  bottom: "inception_4c/5x5"
  bottom: "inception_4c/pool_proj"
  top: "inception_4c/output"
}
layer {
  name: "inception_4d/1x1"
  type: "Convolution"
  bottom: "inception_4c/output"
  top: "inception_4d/1x1"
  param {
    lr_mult: 1
    decay_mult: 1
  }
  param {
    lr_mult: 2
    decay_mult: 0
  }
  convolution_param {
    num_output: 112
    kernel_size: 1
    weight_filler {
      type: "xavier"
      std: 0.03
    }
    bias_filler {
      type: "constant"
      value: 0.2
    }
  }
}
layer {
  name: "inception_4d/relu_1x1"
  type: "ReLU"
  bottom: "inception_4d/1x1"
  top: "inception_4d/1x1"
}
layer {
  name: "inception_4d/3x3_reduce"
  type: "Convolution"
  bottom: "inception_4c/output"
  top: "inception_4d/3x3_reduce"
  param {
    lr_mult: 1
    decay_mult: 1
  }
  param {
    lr_mult: 2
    decay_mult: 0
  }
  convolution_param {
    num_output: 144
    kernel_size: 1
    weight_filler {
      type: "xavier"
      std: 0.09
    }
    bias_filler {
      type: "constant"
      value: 0.2
    }
  }
}
layer {
  name: "inception_4d/relu_3x3_reduce"
  type: "ReLU"
  bottom: "inception_4d/3x3_reduce"
  top: "inception_4d/3x3_reduce"
}
layer {
  name: "inception_4d/3x3"
  type: "Convolution"
  bottom: "inception_4d/3x3_reduce"
  top: "inception_4d/3x3"
  param {
    lr_mult: 1
    decay_mult: 1
  }
  param {
    lr_mult: 2
    decay_mult: 0
  }
  convolution_param {
    num_output: 288
    pad: 1
    kernel_size: 3
    weight_filler {
      type: "xavier"
      std: 0.03
    }
    bias_filler {
      type: "constant"
      value: 0.2
    }
  }
}
layer {
  name: "inception_4d/relu_3x3"
  type: "ReLU"
  bottom: "inception_4d/3x3"
  top: "inception_4d/3x3"
}
layer {
  name: "inception_4d/5x5_reduce"
  type: "Convolution"
  bottom: "inception_4c/output"
  top: "inception_4d/5x5_reduce"
  param {
    lr_mult: 1
    decay_mult: 1
  }
  param {
    lr_mult: 2
    decay_mult: 0
  }
  convolution_param {
    num_output: 32
    kernel_size: 1
    weight_filler {
      type: "xavier"
      std: 0.2
    }
    bias_filler {
      type: "constant"
      value: 0.2
    }
  }
}
layer {
  name: "inception_4d/relu_5x5_reduce"
  type: "ReLU"
  bottom: "inception_4d/5x5_reduce"
  top: "inception_4d/5x5_reduce"
}
layer {
  name: "inception_4d/5x5"
  type: "Convolution"
  bottom: "inception_4d/5x5_reduce"
  top: "inception_4d/5x5"
  param {
    lr_mult: 1
    decay_mult: 1
  }
  param {
    lr_mult: 2
    decay_mult: 0
  }
  convolution_param {
    num_output: 64
    pad: 2
    kernel_size: 5
    weight_filler {
      type: "xavier"
      std: 0.03
    }
    bias_filler {
      type: "constant"
      value: 0.2
    }
  }
}
layer {
  name: "inception_4d/relu_5x5"
  type: "ReLU"
  bottom: "inception_4d/5x5"
  top: "inception_4d/5x5"
}
layer {
  name: "inception_4d/pool"
  type: "Pooling"
  bottom: "inception_4c/output"
  top: "inception_4d/pool"
  pooling_param {
    pool: MAX
    kernel_size: 3
    stride: 1
    pad: 1
  }
}
layer {
  name: "inception_4d/pool_proj"
  type: "Convolution"
  bottom: "inception_4d/pool"
  top: "inception_4d/pool_proj"
  param {
    lr_mult: 1
    decay_mult: 1
  }
  param {
    lr_mult: 2
    decay_mult: 0
  }
  convolution_param {
    num_output: 64
    kernel_size: 1
    weight_filler {
      type: "xavier"
      std: 0.1
    }
    bias_filler {
      type: "constant"
      value: 0.2
    }
  }
}
layer {
  name: "inception_4d/relu_pool_proj"
  type: "ReLU"
  bottom: "inception_4d/pool_proj"
  top: "inception_4d/pool_proj"
}
layer {
  name: "inception_4d/output"
  type: "Concat"
  bottom: "inception_4d/1x1"
  bottom: "inception_4d/3x3"
  bottom: "inception_4d/5x5"
  bottom: "inception_4d/pool_proj"
  top: "inception_4d/output"
}
layer {
  name: "loss2/ave_pool"
  type: "Pooling"
  bottom: "inception_4d/output"
  top: "loss2/ave_pool"
  pooling_param {
    pool: AVE
    kernel_size: 5
    stride: 3
  }
}
layer {
  name: "loss2/conv"
  type: "Convolution"
  bottom: "loss2/ave_pool"
  top: "loss2/conv"
  param {
    lr_mult: 1
    decay_mult: 1
  }
  param {
    lr_mult: 2
    decay_mult: 0
  }
  convolution_param {
    num_output: 128
    kernel_size: 1
    weight_filler {
      type: "xavier"
      std: 0.08
    }
    bias_filler {
      type: "constant"
      value: 0.2
    }
  }
}
layer {
  name: "loss2/relu_conv"
  type: "ReLU"
  bottom: "loss2/conv"
  top: "loss2/conv"
}
layer {
  name: "loss2/fc"
  type: "InnerProduct"
  bottom: "loss2/conv"
  top: "loss2/fc"
  param {
    lr_mult: 1
    decay_mult: 1
  }
  param {
    lr_mult: 2
    decay_mult: 0
  }
  inner_product_param {
    num_output: 1024
    weight_filler {
      type: "xavier"
      std: 0.02
    }
    bias_filler {
      type: "constant"
      value: 0.2
    }
  }
}
layer {
  name: "loss2/relu_fc"
  type: "ReLU"
  bottom: "loss2/fc"
  top: "loss2/fc"
}
layer {
  name: "loss2/drop_fc"
  type: "Dropout"
  bottom: "loss2/fc"
  top: "loss2/fc"
  dropout_param {
    dropout_ratio: 0.7
  }
}
layer {
  name: "loss2/classifier_plantvillage"
  type: "InnerProduct"
  bottom: "loss2/fc"
  top: "loss2/classifier_plantvillage"
  param {
    lr_mult: 1
    decay_mult: 1
  }
  param {
    lr_mult: 2
    decay_mult: 0
  }
  inner_product_param {
    num_output: 38
    weight_filler {
      type: "xavier"
      std: 0.0009765625
    }
    bias_filler {
      type: "constant"
      value: 0
    }
  }
}
layer {
  name: "inception_4e/1x1"
  type: "Convolution"
  bottom: "inception_4d/output"
  top: "inception_4e/1x1"
  param {
    lr_mult: 1
    decay_mult: 1
  }
  param {
    lr_mult: 2
    decay_mult: 0
  }
  convolution_param {
    num_output: 256
    kernel_size: 1
    weight_filler {
      type: "xavier"
      std: 0.03
    }
    bias_filler {
      type: "constant"
      value: 0.2
    }
  }
}
layer {
  name: "inception_4e/relu_1x1"
  type: "ReLU"
  bottom: "inception_4e/1x1"
  top: "inception_4e/1x1"
}
layer {
  name: "inception_4e/3x3_reduce"
  type: "Convolution"
  bottom: "inception_4d/output"
  top: "inception_4e/3x3_reduce"
  param {
    lr_mult: 1
    decay_mult: 1
  }
  param {
    lr_mult: 2
    decay_mult: 0
  }
  convolution_param {
    num_output: 160
    kernel_size: 1
    weight_filler {
      type: "xavier"
      std: 0.09
    }
    bias_filler {
      type: "constant"
      value: 0.2
    }
  }
}
layer {
  name: "inception_4e/relu_3x3_reduce"
  type: "ReLU"
  bottom: "inception_4e/3x3_reduce"
  top: "inception_4e/3x3_reduce"
}
layer {
  name: "inception_4e/3x3"
  type: "Convolution"
  bottom: "inception_4e/3x3_reduce"
  top: "inception_4e/3x3"
  param {
    lr_mult: 1
    decay_mult: 1
  }
  param {
    lr_mult: 2
    decay_mult: 0
  }
  convolution_param {
    num_output: 320
    pad: 1
    kernel_size: 3
    weight_filler {
      type: "xavier"
      std: 0.03
    }
    bias_filler {
      type: "constant"
      value: 0.2
    }
  }
}
layer {
  name: "inception_4e/relu_3x3"
  type: "ReLU"
  bottom: "inception_4e/3x3"
  top: "inception_4e/3x3"
}
layer {
  name: "inception_4e/5x5_reduce"
  type: "Convolution"
  bottom: "inception_4d/output"
  top: "inception_4e/5x5_reduce"
  param {
    lr_mult: 1
    decay_mult: 1
  }
  param {
    lr_mult: 2
    decay_mult: 0
  }
  convolution_param {
    num_output: 32
    kernel_size: 1
    weight_filler {
      type: "xavier"
      std: 0.2
    }
    bias_filler {
      type: "constant"
      value: 0.2
    }
  }
}
layer {
  name: "inception_4e/relu_5x5_reduce"
  type: "ReLU"
  bottom: "inception_4e/5x5_reduce"
  top: "inception_4e/5x5_reduce"
}
layer {
  name: "inception_4e/5x5"
  type: "Convolution"
  bottom: "inception_4e/5x5_reduce"
  top: "inception_4e/
I0403 18:35:40.297860  7149 layer_factory.hpp:77] Creating layer data
I0403 18:35:40.298492  7149 net.cpp:91] Creating Layer data
I0403 18:35:40.298527  7149 net.cpp:399] data -> data
I0403 18:35:40.298579  7149 net.cpp:399] data -> label
I0403 18:35:40.298617  7149 data_transformer.cpp:25] Loading mean file from: /home/mohanty/data/final_dataset/lmdb/segmented-50-50/mean.binaryproto
I0403 18:35:40.299841  7152 db_lmdb.cpp:38] Opened lmdb /home/mohanty/data/final_dataset/lmdb/segmented-50-50/test_db
I0403 18:35:40.311934  7149 data_layer.cpp:41] output data size: 24,3,224,224
I0403 18:35:40.340188  7149 net.cpp:141] Setting up data
I0403 18:35:40.340332  7149 net.cpp:148] Top shape: 24 3 224 224 (3612672)
I0403 18:35:40.340358  7149 net.cpp:148] Top shape: 24 (24)
I0403 18:35:40.340375  7149 net.cpp:156] Memory required for data: 14450784
I0403 18:35:40.340405  7149 layer_factory.hpp:77] Creating layer label_data_1_split
I0403 18:35:40.340433  7149 net.cpp:91] Creating Layer label_data_1_split
I0403 18:35:40.340452  7149 net.cpp:425] label_data_1_split <- label
I0403 18:35:40.340487  7149 net.cpp:399] label_data_1_split -> label_data_1_split_0
I0403 18:35:40.340517  7149 net.cpp:399] label_data_1_split -> label_data_1_split_1
I0403 18:35:40.340550  7149 net.cpp:399] label_data_1_split -> label_data_1_split_2
I0403 18:35:40.340572  7149 net.cpp:399] label_data_1_split -> label_data_1_split_3
I0403 18:35:40.340591  7149 net.cpp:399] label_data_1_split -> label_data_1_split_4
I0403 18:35:40.340623  7149 net.cpp:399] label_data_1_split -> label_data_1_split_5
I0403 18:35:40.340642  7149 net.cpp:399] label_data_1_split -> label_data_1_split_6
I0403 18:35:40.340662  7149 net.cpp:399] label_data_1_split -> label_data_1_split_7
I0403 18:35:40.340682  7149 net.cpp:399] label_data_1_split -> label_data_1_split_8
I0403 18:35:40.340703  7149 net.cpp:399] label_data_1_split -> label_data_1_split_9
I0403 18:35:40.340817  7149 net.cpp:141] Setting up label_data_1_split
I0403 18:35:40.340840  7149 net.cpp:148] Top shape: 24 (24)
I0403 18:35:40.340857  7149 net.cpp:148] Top shape: 24 (24)
I0403 18:35:40.340873  7149 net.cpp:148] Top shape: 24 (24)
I0403 18:35:40.340888  7149 net.cpp:148] Top shape: 24 (24)
I0403 18:35:40.340904  7149 net.cpp:148] Top shape: 24 (24)
I0403 18:35:40.340920  7149 net.cpp:148] Top shape: 24 (24)
I0403 18:35:40.340936  7149 net.cpp:148] Top shape: 24 (24)
I0403 18:35:40.340952  7149 net.cpp:148] Top shape: 24 (24)
I0403 18:35:40.340967  7149 net.cpp:148] Top shape: 24 (24)
I0403 18:35:40.340986  7149 net.cpp:148] Top shape: 24 (24)
I0403 18:35:40.341035  7149 net.cpp:156] Memory required for data: 14451744
I0403 18:35:40.341051  7149 layer_factory.hpp:77] Creating layer conv1/7x7_s2
I0403 18:35:40.341085  7149 net.cpp:91] Creating Layer conv1/7x7_s2
I0403 18:35:40.341105  7149 net.cpp:425] conv1/7x7_s2 <- data
I0403 18:35:40.341125  7149 net.cpp:399] conv1/7x7_s2 -> conv1/7x7_s2
I0403 18:35:40.492236  7149 net.cpp:141] Setting up conv1/7x7_s2
I0403 18:35:40.492359  7149 net.cpp:148] Top shape: 24 64 112 112 (19267584)
I0403 18:35:40.492377  7149 net.cpp:156] Memory required for data: 91522080
I0403 18:35:40.492409  7149 layer_factory.hpp:77] Creating layer conv1/relu_7x7
I0403 18:35:40.492436  7149 net.cpp:91] Creating Layer conv1/relu_7x7
I0403 18:35:40.492455  7149 net.cpp:425] conv1/relu_7x7 <- conv1/7x7_s2
I0403 18:35:40.492475  7149 net.cpp:386] conv1/relu_7x7 -> conv1/7x7_s2 (in-place)
I0403 18:35:40.492751  7149 net.cpp:141] Setting up conv1/relu_7x7
I0403 18:35:40.492777  7149 net.cpp:148] Top shape: 24 64 112 112 (19267584)
I0403 18:35:40.492792  7149 net.cpp:156] Memory required for data: 168592416
I0403 18:35:40.492806  7149 layer_factory.hpp:77] Creating layer pool1/3x3_s2
I0403 18:35:40.492830  7149 net.cpp:91] Creating Layer pool1/3x3_s2
I0403 18:35:40.492847  7149 net.cpp:425] pool1/3x3_s2 <- conv1/7x7_s2
I0403 18:35:40.492866  7149 net.cpp:399] pool1/3x3_s2 -> pool1/3x3_s2
I0403 18:35:40.492934  7149 net.cpp:141] Setting up pool1/3x3_s2
I0403 18:35:40.492959  7149 net.cpp:148] Top shape: 24 64 56 56 (4816896)
I0403 18:35:40.492974  7149 net.cpp:156] Memory required for data: 187860000
I0403 18:35:40.492990  7149 layer_factory.hpp:77] Creating layer pool1/norm1
I0403 18:35:40.493013  7149 net.cpp:91] Creating Layer pool1/norm1
I0403 18:35:40.493032  7149 net.cpp:425] pool1/norm1 <- pool1/3x3_s2
I0403 18:35:40.493049  7149 net.cpp:399] pool1/norm1 -> pool1/norm1
I0403 18:35:40.493330  7149 net.cpp:141] Setting up pool1/norm1
I0403 18:35:40.493356  7149 net.cpp:148] Top shape: 24 64 56 56 (4816896)
I0403 18:35:40.493371  7149 net.cpp:156] Memory required for data: 207127584
I0403 18:35:40.493388  7149 layer_factory.hpp:77] Creating layer conv2/3x3_reduce
I0403 18:35:40.493412  7149 net.cpp:91] Creating Layer conv2/3x3_reduce
I0403 18:35:40.493429  7149 net.cpp:425] conv2/3x3_reduce <- pool1/norm1
I0403 18:35:40.493448  7149 net.cpp:399] conv2/3x3_reduce -> conv2/3x3_reduce
I0403 18:35:40.494760  7149 net.cpp:141] Setting up conv2/3x3_reduce
I0403 18:35:40.494789  7149 net.cpp:148] Top shape: 24 64 56 56 (4816896)
I0403 18:35:40.494807  7149 net.cpp:156] Memory required for data: 226395168
I0403 18:35:40.494828  7149 layer_factory.hpp:77] Creating layer conv2/relu_3x3_reduce
I0403 18:35:40.494846  7149 net.cpp:91] Creating Layer conv2/relu_3x3_reduce
I0403 18:35:40.494863  7149 net.cpp:425] conv2/relu_3x3_reduce <- conv2/3x3_reduce
I0403 18:35:40.494879  7149 net.cpp:386] conv2/relu_3x3_reduce -> conv2/3x3_reduce (in-place)
I0403 18:35:40.495121  7149 net.cpp:141] Setting up conv2/relu_3x3_reduce
I0403 18:35:40.495147  7149 net.cpp:148] Top shape: 24 64 56 56 (4816896)
I0403 18:35:40.495163  7149 net.cpp:156] Memory required for data: 245662752
I0403 18:35:40.495178  7149 layer_factory.hpp:77] Creating layer conv2/3x3
I0403 18:35:40.495200  7149 net.cpp:91] Creating Layer conv2/3x3
I0403 18:35:40.495223  7149 net.cpp:425] conv2/3x3 <- conv2/3x3_reduce
I0403 18:35:40.495242  7149 net.cpp:399] conv2/3x3 -> conv2/3x3
I0403 18:35:40.497442  7149 net.cpp:141] Setting up conv2/3x3
I0403 18:35:40.497474  7149 net.cpp:148] Top shape: 24 192 56 56 (14450688)
I0403 18:35:40.497491  7149 net.cpp:156] Memory required for data: 303465504
I0403 18:35:40.497514  7149 layer_factory.hpp:77] Creating layer conv2/relu_3x3
I0403 18:35:40.497534  7149 net.cpp:91] Creating Layer conv2/relu_3x3
I0403 18:35:40.497551  7149 net.cpp:425] conv2/relu_3x3 <- conv2/3x3
I0403 18:35:40.497568  7149 net.cpp:386] conv2/relu_3x3 -> conv2/3x3 (in-place)
I0403 18:35:40.497730  7149 net.cpp:141] Setting up conv2/relu_3x3
I0403 18:35:40.497761  7149 net.cpp:148] Top shape: 24 192 56 56 (14450688)
I0403 18:35:40.497807  7149 net.cpp:156] Memory required for data: 361268256
I0403 18:35:40.497825  7149 layer_factory.hpp:77] Creating layer conv2/norm2
I0403 18:35:40.497843  7149 net.cpp:91] Creating Layer conv2/norm2
I0403 18:35:40.497858  7149 net.cpp:425] conv2/norm2 <- conv2/3x3
I0403 18:35:40.497875  7149 net.cpp:399] conv2/norm2 -> conv2/norm2
I0403 18:35:40.498160  7149 net.cpp:141] Setting up conv2/norm2
I0403 18:35:40.498189  7149 net.cpp:148] Top shape: 24 192 56 56 (14450688)
I0403 18:35:40.498205  7149 net.cpp:156] Memory required for data: 419071008
I0403 18:35:40.498227  7149 layer_factory.hpp:77] Creating layer pool2/3x3_s2
I0403 18:35:40.498245  7149 net.cpp:91] Creating Layer pool2/3x3_s2
I0403 18:35:40.498261  7149 net.cpp:425] pool2/3x3_s2 <- conv2/norm2
I0403 18:35:40.498278  7149 net.cpp:399] pool2/3x3_s2 -> pool2/3x3_s2
I0403 18:35:40.498332  7149 net.cpp:141] Setting up pool2/3x3_s2
I0403 18:35:40.498355  7149 net.cpp:148] Top shape: 24 192 28 28 (3612672)
I0403 18:35:40.498369  7149 net.cpp:156] Memory required for data: 433521696
I0403 18:35:40.498384  7149 layer_factory.hpp:77] Creating layer pool2/3x3_s2_pool2/3x3_s2_0_split
I0403 18:35:40.498404  7149 net.cpp:91] Creating Layer pool2/3x3_s2_pool2/3x3_s2_0_split
I0403 18:35:40.498420  7149 net.cpp:425] pool2/3x3_s2_pool2/3x3_s2_0_split <- pool2/3x3_s2
I0403 18:35:40.498438  7149 net.cpp:399] pool2/3x3_s2_pool2/3x3_s2_0_split -> pool2/3x3_s2_pool2/3x3_s2_0_split_0
I0403 18:35:40.498457  7149 net.cpp:399] pool2/3x3_s2_pool2/3x3_s2_0_split -> pool2/3x3_s2_pool2/3x3_s2_0_split_1
I0403 18:35:40.498477  7149 net.cpp:399] pool2/3x3_s2_pool2/3x3_s2_0_split -> pool2/3x3_s2_pool2/3x3_s2_0_split_2
I0403 18:35:40.498498  7149 net.cpp:399] pool2/3x3_s2_pool2/3x3_s2_0_split -> pool2/3x3_s2_pool2/3x3_s2_0_split_3
I0403 18:35:40.498569  7149 net.cpp:141] Setting up pool2/3x3_s2_pool2/3x3_s2_0_split
I0403 18:35:40.498590  7149 net.cpp:148] Top shape: 24 192 28 28 (3612672)
I0403 18:35:40.498606  7149 net.cpp:148] Top shape: 24 192 28 28 (3612672)
I0403 18:35:40.498622  7149 net.cpp:148] Top shape: 24 192 28 28 (3612672)
I0403 18:35:40.498637  7149 net.cpp:148] Top shape: 24 192 28 28 (3612672)
I0403 18:35:40.498651  7149 net.cpp:156] Memory required for data: 491324448
I0403 18:35:40.498667  7149 layer_factory.hpp:77] Creating layer inception_3a/1x1
I0403 18:35:40.498692  7149 net.cpp:91] Creating Layer inception_3a/1x1
I0403 18:35:40.498708  7149 net.cpp:425] inception_3a/1x1 <- pool2/3x3_s2_pool2/3x3_s2_0_split_0
I0403 18:35:40.498729  7149 net.cpp:399] inception_3a/1x1 -> inception_3a/1x1
I0403 18:35:40.500262  7149 net.cpp:141] Setting up inception_3a/1x1
I0403 18:35:40.500296  7149 net.cpp:148] Top shape: 24 64 28 28 (1204224)
I0403 18:35:40.500314  7149 net.cpp:156] Memory required for data: 496141344
I0403 18:35:40.500334  7149 layer_factory.hpp:77] Creating layer inception_3a/relu_1x1
I0403 18:35:40.500355  7149 net.cpp:91] Creating Layer inception_3a/relu_1x1
I0403 18:35:40.500372  7149 net.cpp:425] inception_3a/relu_1x1 <- inception_3a/1x1
I0403 18:35:40.500392  7149 net.cpp:386] inception_3a/relu_1x1 -> inception_3a/1x1 (in-place)
I0403 18:35:40.500567  7149 net.cpp:141] Setting up inception_3a/relu_1x1
I0403 18:35:40.500592  7149 net.cpp:148] Top shape: 24 64 28 28 (1204224)
I0403 18:35:40.500607  7149 net.cpp:156] Memory required for data: 500958240
I0403 18:35:40.500622  7149 layer_factory.hpp:77] Creating layer inception_3a/3x3_reduce
I0403 18:35:40.500643  7149 net.cpp:91] Creating Layer inception_3a/3x3_reduce
I0403 18:35:40.500661  7149 net.cpp:425] inception_3a/3x3_reduce <- pool2/3x3_s2_pool2/3x3_s2_0_split_1
I0403 18:35:40.500684  7149 net.cpp:399] inception_3a/3x3_reduce -> inception_3a/3x3_reduce
I0403 18:35:40.502388  7149 net.cpp:141] Setting up inception_3a/3x3_reduce
I0403 18:35:40.502418  7149 net.cpp:148] Top shape: 24 96 28 28 (1806336)
I0403 18:35:40.502437  7149 net.cpp:156] Memory required for data: 508183584
I0403 18:35:40.502460  7149 layer_factory.hpp:77] Creating layer inception_3a/relu_3x3_reduce
I0403 18:35:40.502506  7149 net.cpp:91] Creating Layer inception_3a/relu_3x3_reduce
I0403 18:35:40.502523  7149 net.cpp:425] inception_3a/relu_3x3_reduce <- inception_3a/3x3_reduce
I0403 18:35:40.502540  7149 net.cpp:386] inception_3a/relu_3x3_reduce -> inception_3a/3x3_reduce (in-place)
I0403 18:35:40.502715  7149 net.cpp:141] Setting up inception_3a/relu_3x3_reduce
I0403 18:35:40.502743  7149 net.cpp:148] Top shape: 24 96 28 28 (1806336)
I0403 18:35:40.502758  7149 net.cpp:156] Memory required for data: 515408928
I0403 18:35:40.502771  7149 layer_factory.hpp:77] Creating layer inception_3a/3x3
I0403 18:35:40.502794  7149 net.cpp:91] Creating Layer inception_3a/3x3
I0403 18:35:40.502810  7149 net.cpp:425] inception_3a/3x3 <- inception_3a/3x3_reduce
I0403 18:35:40.502828  7149 net.cpp:399] inception_3a/3x3 -> inception_3a/3x3
I0403 18:35:40.504426  7149 net.cpp:141] Setting up inception_3a/3x3
I0403 18:35:40.504456  7149 net.cpp:148] Top shape: 24 128 28 28 (2408448)
I0403 18:35:40.504472  7149 net.cpp:156] Memory required for data: 525042720
I0403 18:35:40.504489  7149 layer_factory.hpp:77] Creating layer inception_3a/relu_3x3
I0403 18:35:40.504510  7149 net.cpp:91] Creating Layer inception_3a/relu_3x3
I0403 18:35:40.504526  7149 net.cpp:425] inception_3a/relu_3x3 <- inception_3a/3x3
I0403 18:35:40.504542  7149 net.cpp:386] inception_3a/relu_3x3 -> inception_3a/3x3 (in-place)
I0403 18:35:40.504806  7149 net.cpp:141] Setting up inception_3a/relu_3x3
I0403 18:35:40.504832  7149 net.cpp:148] Top shape: 24 128 28 28 (2408448)
I0403 18:35:40.504845  7149 net.cpp:156] Memory required for data: 534676512
I0403 18:35:40.504859  7149 layer_factory.hpp:77] Creating layer inception_3a/5x5_reduce
I0403 18:35:40.504880  7149 net.cpp:91] Creating Layer inception_3a/5x5_reduce
I0403 18:35:40.504897  7149 net.cpp:425] inception_3a/5x5_reduce <- pool2/3x3_s2_pool2/3x3_s2_0_split_2
I0403 18:35:40.504919  7149 net.cpp:399] inception_3a/5x5_reduce -> inception_3a/5x5_reduce
I0403 18:35:40.505846  7149 net.cpp:141] Setting up inception_3a/5x5_reduce
I0403 18:35:40.505874  7149 net.cpp:148] Top shape: 24 16 28 28 (301056)
I0403 18:35:40.505890  7149 net.cpp:156] Memory required for data: 535880736
I0403 18:35:40.505908  7149 layer_factory.hpp:77] Creating layer inception_3a/relu_5x5_reduce
I0403 18:35:40.505929  7149 net.cpp:91] Creating Layer inception_3a/relu_5x5_reduce
I0403 18:35:40.505946  7149 net.cpp:425] inception_3a/relu_5x5_reduce <- inception_3a/5x5_reduce
I0403 18:35:40.505964  7149 net.cpp:386] inception_3a/relu_5x5_reduce -> inception_3a/5x5_reduce (in-place)
I0403 18:35:40.506256  7149 net.cpp:141] Setting up inception_3a/relu_5x5_reduce
I0403 18:35:40.506283  7149 net.cpp:148] Top shape: 24 16 28 28 (301056)
I0403 18:35:40.506299  7149 net.cpp:156] Memory required for data: 537084960
I0403 18:35:40.506312  7149 layer_factory.hpp:77] Creating layer inception_3a/5x5
I0403 18:35:40.506335  7149 net.cpp:91] Creating Layer inception_3a/5x5
I0403 18:35:40.506352  7149 net.cpp:425] inception_3a/5x5 <- inception_3a/5x5_reduce
I0403 18:35:40.506373  7149 net.cpp:399] inception_3a/5x5 -> inception_3a/5x5
I0403 18:35:40.507370  7149 net.cpp:141] Setting up inception_3a/5x5
I0403 18:35:40.507405  7149 net.cpp:148] Top shape: 24 32 28 28 (602112)
I0403 18:35:40.507422  7149 net.cpp:156] Memory required for data: 539493408
I0403 18:35:40.507442  7149 layer_factory.hpp:77] Creating layer inception_3a/relu_5x5
I0403 18:35:40.507459  7149 net.cpp:91] Creating Layer inception_3a/relu_5x5
I0403 18:35:40.507475  7149 net.cpp:425] inception_3a/relu_5x5 <- inception_3a/5x5
I0403 18:35:40.507494  7149 net.cpp:386] inception_3a/relu_5x5 -> inception_3a/5x5 (in-place)
I0403 18:35:40.507663  7149 net.cpp:141] Setting up inception_3a/relu_5x5
I0403 18:35:40.507688  7149 net.cpp:148] Top shape: 24 32 28 28 (602112)
I0403 18:35:40.507702  7149 net.cpp:156] Memory required for data: 541901856
I0403 18:35:40.507717  7149 layer_factory.hpp:77] Creating layer inception_3a/pool
I0403 18:35:40.507737  7149 net.cpp:91] Creating Layer inception_3a/pool
I0403 18:35:40.507766  7149 net.cpp:425] inception_3a/pool <- pool2/3x3_s2_pool2/3x3_s2_0_split_3
I0403 18:35:40.507784  7149 net.cpp:399] inception_3a/pool -> inception_3a/pool
I0403 18:35:40.507841  7149 net.cpp:141] Setting up inception_3a/pool
I0403 18:35:40.507864  7149 net.cpp:148] Top shape: 24 192 28 28 (3612672)
I0403 18:35:40.507879  7149 net.cpp:156] Memory required for data: 556352544
I0403 18:35:40.507894  7149 layer_factory.hpp:77] Creating layer inception_3a/pool_proj
I0403 18:35:40.507915  7149 net.cpp:91] Creating Layer inception_3a/pool_proj
I0403 18:35:40.507931  7149 net.cpp:425] inception_3a/pool_proj <- inception_3a/pool
I0403 18:35:40.507952  7149 net.cpp:399] inception_3a/pool_proj -> inception_3a/pool_proj
I0403 18:35:40.508887  7149 net.cpp:141] Setting up inception_3a/pool_proj
I0403 18:35:40.508914  7149 net.cpp:148] Top shape: 24 32 28 28 (602112)
I0403 18:35:40.508930  7149 net.cpp:156] Memory required for data: 558760992
I0403 18:35:40.508954  7149 layer_factory.hpp:77] Creating layer inception_3a/relu_pool_proj
I0403 18:35:40.508975  7149 net.cpp:91] Creating Layer inception_3a/relu_pool_proj
I0403 18:35:40.508991  7149 net.cpp:425] inception_3a/relu_pool_proj <- inception_3a/pool_proj
I0403 18:35:40.509006  7149 net.cpp:386] inception_3a/relu_pool_proj -> inception_3a/pool_proj (in-place)
I0403 18:35:40.509275  7149 net.cpp:141] Setting up inception_3a/relu_pool_proj
I0403 18:35:40.509301  7149 net.cpp:148] Top shape: 24 32 28 28 (602112)
I0403 18:35:40.509315  7149 net.cpp:156] Memory required for data: 561169440
I0403 18:35:40.509330  7149 layer_factory.hpp:77] Creating layer inception_3a/output
I0403 18:35:40.509347  7149 net.cpp:91] Creating Layer inception_3a/output
I0403 18:35:40.509361  7149 net.cpp:425] inception_3a/output <- inception_3a/1x1
I0403 18:35:40.509377  7149 net.cpp:425] inception_3a/output <- inception_3a/3x3
I0403 18:35:40.509393  7149 net.cpp:425] inception_3a/output <- inception_3a/5x5
I0403 18:35:40.509408  7149 net.cpp:425] inception_3a/output <- inception_3a/pool_proj
I0403 18:35:40.509428  7149 net.cpp:399] inception_3a/output -> inception_3a/output
I0403 18:35:40.509470  7149 net.cpp:141] Setting up inception_3a/output
I0403 18:35:40.509495  7149 net.cpp:148] Top shape: 24 256 28 28 (4816896)
I0403 18:35:40.509510  7149 net.cpp:156] Memory required for data: 580437024
I0403 18:35:40.509524  7149 layer_factory.hpp:77] Creating layer inception_3a/output_inception_3a/output_0_split
I0403 18:35:40.509541  7149 net.cpp:91] Creating Layer inception_3a/output_inception_3a/output_0_split
I0403 18:35:40.509555  7149 net.cpp:425] inception_3a/output_inception_3a/output_0_split <- inception_3a/output
I0403 18:35:40.509573  7149 net.cpp:399] inception_3a/output_inception_3a/output_0_split -> inception_3a/output_inception_3a/output_0_split_0
I0403 18:35:40.509593  7149 net.cpp:399] inception_3a/output_inception_3a/output_0_split -> inception_3a/output_inception_3a/output_0_split_1
I0403 18:35:40.509614  7149 net.cpp:399] inception_3a/output_inception_3a/output_0_split -> inception_3a/output_inception_3a/output_0_split_2
I0403 18:35:40.509634  7149 net.cpp:399] inception_3a/output_inception_3a/output_0_split -> inception_3a/output_inception_3a/output_0_split_3
I0403 18:35:40.509711  7149 net.cpp:141] Setting up inception_3a/output_inception_3a/output_0_split
I0403 18:35:40.509734  7149 net.cpp:148] Top shape: 24 256 28 28 (4816896)
I0403 18:35:40.509750  7149 net.cpp:148] Top shape: 24 256 28 28 (4816896)
I0403 18:35:40.509766  7149 net.cpp:148] Top shape: 24 256 28 28 (4816896)
I0403 18:35:40.509783  7149 net.cpp:148] Top shape: 24 256 28 28 (4816896)
I0403 18:35:40.509795  7149 net.cpp:156] Memory required for data: 657507360
I0403 18:35:40.509809  7149 layer_factory.hpp:77] Creating layer inception_3b/1x1
I0403 18:35:40.509831  7149 net.cpp:91] Creating Layer inception_3b/1x1
I0403 18:35:40.509848  7149 net.cpp:425] inception_3b/1x1 <- inception_3a/output_inception_3a/output_0_split_0
I0403 18:35:40.509870  7149 net.cpp:399] inception_3b/1x1 -> inception_3b/1x1
I0403 18:35:40.510962  7149 net.cpp:141] Setting up inception_3b/1x1
I0403 18:35:40.511004  7149 net.cpp:148] Top shape: 24 128 28 28 (2408448)
I0403 18:35:40.511023  7149 net.cpp:156] Memory required for data: 667141152
I0403 18:35:40.511041  7149 layer_factory.hpp:77] Creating layer inception_3b/relu_1x1
I0403 18:35:40.511059  7149 net.cpp:91] Creating Layer inception_3b/relu_1x1
I0403 18:35:40.511075  7149 net.cpp:425] inception_3b/relu_1x1 <- inception_3b/1x1
I0403 18:35:40.511095  7149 net.cpp:386] inception_3b/relu_1x1 -> inception_3b/1x1 (in-place)
I0403 18:35:40.511271  7149 net.cpp:141] Setting up inception_3b/relu_1x1
I0403 18:35:40.511296  7149 net.cpp:148] Top shape: 24 128 28 28 (2408448)
I0403 18:35:40.511312  7149 net.cpp:156] Memory required for data: 676774944
I0403 18:35:40.511325  7149 layer_factory.hpp:77] Creating layer inception_3b/3x3_reduce
I0403 18:35:40.511348  7149 net.cpp:91] Creating Layer inception_3b/3x3_reduce
I0403 18:35:40.511364  7149 net.cpp:425] inception_3b/3x3_reduce <- inception_3a/output_inception_3a/output_0_split_1
I0403 18:35:40.511384  7149 net.cpp:399] inception_3b/3x3_reduce -> inception_3b/3x3_reduce
I0403 18:35:40.512490  7149 net.cpp:141] Setting up inception_3b/3x3_reduce
I0403 18:35:40.512521  7149 net.cpp:148] Top shape: 24 128 28 28 (2408448)
I0403 18:35:40.512538  7149 net.cpp:156] Memory required for data: 686408736
I0403 18:35:40.512557  7149 layer_factory.hpp:77] Creating layer inception_3b/relu_3x3_reduce
I0403 18:35:40.512574  7149 net.cpp:91] Creating Layer inception_3b/relu_3x3_reduce
I0403 18:35:40.512590  7149 net.cpp:425] inception_3b/relu_3x3_reduce <- inception_3b/3x3_reduce
I0403 18:35:40.512611  7149 net.cpp:386] inception_3b/relu_3x3_reduce -> inception_3b/3x3_reduce (in-place)
I0403 18:35:40.512779  7149 net.cpp:141] Setting up inception_3b/relu_3x3_reduce
I0403 18:35:40.512804  7149 net.cpp:148] Top shape: 24 128 28 28 (2408448)
I0403 18:35:40.512820  7149 net.cpp:156] Memory required for data: 696042528
I0403 18:35:40.512833  7149 layer_factory.hpp:77] Creating layer inception_3b/3x3
I0403 18:35:40.512858  7149 net.cpp:91] Creating Layer inception_3b/3x3
I0403 18:35:40.512876  7149 net.cpp:425] inception_3b/3x3 <- inception_3b/3x3_reduce
I0403 18:35:40.512897  7149 net.cpp:399] inception_3b/3x3 -> inception_3b/3x3
I0403 18:35:40.515722  7149 net.cpp:141] Setting up inception_3b/3x3
I0403 18:35:40.515751  7149 net.cpp:148] Top shape: 24 192 28 28 (3612672)
I0403 18:35:40.515769  7149 net.cpp:156] Memory required for data: 710493216
I0403 18:35:40.515787  7149 layer_factory.hpp:77] Creating layer inception_3b/relu_3x3
I0403 18:35:40.515807  7149 net.cpp:91] Creating Layer inception_3b/relu_3x3
I0403 18:35:40.515825  7149 net.cpp:425] inception_3b/relu_3x3 <- inception_3b/3x3
I0403 18:35:40.515842  7149 net.cpp:386] inception_3b/relu_3x3 -> inception_3b/3x3 (in-place)
I0403 18:35:40.516109  7149 net.cpp:141] Setting up inception_3b/relu_3x3
I0403 18:35:40.516135  7149 net.cpp:148] Top shape: 24 192 28 28 (3612672)
I0403 18:35:40.516149  7149 net.cpp:156] Memory required for data: 724943904
I0403 18:35:40.516163  7149 layer_factory.hpp:77] Creating layer inception_3b/5x5_reduce
I0403 18:35:40.516187  7149 net.cpp:91] Creating Layer inception_3b/5x5_reduce
I0403 18:35:40.516206  7149 net.cpp:425] inception_3b/5x5_reduce <- inception_3a/output_inception_3a/output_0_split_2
I0403 18:35:40.516232  7149 net.cpp:399] inception_3b/5x5_reduce -> inception_3b/5x5_reduce
I0403 18:35:40.517190  7149 net.cpp:141] Setting up inception_3b/5x5_reduce
I0403 18:35:40.517225  7149 net.cpp:148] Top shape: 24 32 28 28 (602112)
I0403 18:35:40.517243  7149 net.cpp:156] Memory required for data: 727352352
I0403 18:35:40.517262  7149 layer_factory.hpp:77] Creating layer inception_3b/relu_5x5_reduce
I0403 18:35:40.517293  7149 net.cpp:91] Creating Layer inception_3b/relu_5x5_reduce
I0403 18:35:40.517310  7149 net.cpp:425] inception_3b/relu_5x5_reduce <- inception_3b/5x5_reduce
I0403 18:35:40.517330  7149 net.cpp:386] inception_3b/relu_5x5_reduce -> inception_3b/5x5_reduce (in-place)
I0403 18:35:40.517524  7149 net.cpp:141] Setting up inception_3b/relu_5x5_reduce
I0403 18:35:40.517549  7149 net.cpp:148] Top shape: 24 32 28 28 (602112)
I0403 18:35:40.517563  7149 net.cpp:156] Memory required for data: 729760800
I0403 18:35:40.517578  7149 layer_factory.hpp:77] Creating layer inception_3b/5x5
I0403 18:35:40.517611  7149 net.cpp:91] Creating Layer inception_3b/5x5
I0403 18:35:40.517628  7149 net.cpp:425] inception_3b/5x5 <- inception_3b/5x5_reduce
I0403 18:35:40.517649  7149 net.cpp:399] inception_3b/5x5 -> inception_3b/5x5
I0403 18:35:40.519558  7149 net.cpp:141] Setting up inception_3b/5x5
I0403 18:35:40.519590  7149 net.cpp:148] Top shape: 24 96 28 28 (1806336)
I0403 18:35:40.519608  7149 net.cpp:156] Memory required for data: 736986144
I0403 18:35:40.519628  7149 layer_factory.hpp:77] Creating layer inception_3b/relu_5x5
I0403 18:35:40.519645  7149 net.cpp:91] Creating Layer inception_3b/relu_5x5
I0403 18:35:40.519660  7149 net.cpp:425] inception_3b/relu_5x5 <- inception_3b/5x5
I0403 18:35:40.519678  7149 net.cpp:386] inception_3b/relu_5x5 -> inception_3b/5x5 (in-place)
I0403 18:35:40.519865  7149 net.cpp:141] Setting up inception_3b/relu_5x5
I0403 18:35:40.519888  7149 net.cpp:148] Top shape: 24 96 28 28 (1806336)
I0403 18:35:40.519903  7149 net.cpp:156] Memory required for data: 744211488
I0403 18:35:40.519918  7149 layer_factory.hpp:77] Creating layer inception_3b/pool
I0403 18:35:40.519935  7149 net.cpp:91] Creating Layer inception_3b/pool
I0403 18:35:40.519951  7149 net.cpp:425] inception_3b/pool <- inception_3a/output_inception_3a/output_0_split_3
I0403 18:35:40.519969  7149 net.cpp:399] inception_3b/pool -> inception_3b/pool
I0403 18:35:40.520023  7149 net.cpp:141] Setting up inception_3b/pool
I0403 18:35:40.520046  7149 net.cpp:148] Top shape: 24 256 28 28 (4816896)
I0403 18:35:40.520061  7149 net.cpp:156] Memory required for data: 763479072
I0403 18:35:40.520076  7149 layer_factory.hpp:77] Creating layer inception_3b/pool_proj
I0403 18:35:40.520102  7149 net.cpp:91] Creating Layer inception_3b/pool_proj
I0403 18:35:40.520119  7149 net.cpp:425] inception_3b/pool_proj <- inception_3b/pool
I0403 18:35:40.520138  7149 net.cpp:399] inception_3b/pool_proj -> inception_3b/pool_proj
I0403 18:35:40.521159  7149 net.cpp:141] Setting up inception_3b/pool_proj
I0403 18:35:40.521188  7149 net.cpp:148] Top shape: 24 64 28 28 (1204224)
I0403 18:35:40.521203  7149 net.cpp:156] Memory required for data: 768295968
I0403 18:35:40.521229  7149 layer_factory.hpp:77] Creating layer inception_3b/relu_pool_proj
I0403 18:35:40.521248  7149 net.cpp:91] Creating Layer inception_3b/relu_pool_proj
I0403 18:35:40.521265  7149 net.cpp:425] inception_3b/relu_pool_proj <- inception_3b/pool_proj
I0403 18:35:40.521282  7149 net.cpp:386] inception_3b/relu_pool_proj -> inception_3b/pool_proj (in-place)
I0403 18:35:40.521651  7149 net.cpp:141] Setting up inception_3b/relu_pool_proj
I0403 18:35:40.521677  7149 net.cpp:148] Top shape: 24 64 28 28 (1204224)
I0403 18:35:40.521690  7149 net.cpp:156] Memory required for data: 773112864
I0403 18:35:40.521705  7149 layer_factory.hpp:77] Creating layer inception_3b/output
I0403 18:35:40.521724  7149 net.cpp:91] Creating Layer inception_3b/output
I0403 18:35:40.521740  7149 net.cpp:425] inception_3b/output <- inception_3b/1x1
I0403 18:35:40.521756  7149 net.cpp:425] inception_3b/output <- inception_3b/3x3
I0403 18:35:40.521772  7149 net.cpp:425] inception_3b/output <- inception_3b/5x5
I0403 18:35:40.521787  7149 net.cpp:425] inception_3b/output <- inception_3b/pool_proj
I0403 18:35:40.521803  7149 net.cpp:399] inception_3b/output -> inception_3b/output
I0403 18:35:40.521844  7149 net.cpp:141] Setting up inception_3b/output
I0403 18:35:40.521869  7149 net.cpp:148] Top shape: 24 480 28 28 (9031680)
I0403 18:35:40.521884  7149 net.cpp:156] Memory required for data: 809239584
I0403 18:35:40.521899  7149 layer_factory.hpp:77] Creating layer pool3/3x3_s2
I0403 18:35:40.521915  7149 net.cpp:91] Creating Layer pool3/3x3_s2
I0403 18:35:40.521930  7149 net.cpp:425] pool3/3x3_s2 <- inception_3b/output
I0403 18:35:40.521965  7149 net.cpp:399] pool3/3x3_s2 -> pool3/3x3_s2
I0403 18:35:40.522020  7149 net.cpp:141] Setting up pool3/3x3_s2
I0403 18:35:40.522045  7149 net.cpp:148] Top shape: 24 480 14 14 (2257920)
I0403 18:35:40.522060  7149 net.cpp:156] Memory required for data: 818271264
I0403 18:35:40.522075  7149 layer_factory.hpp:77] Creating layer pool3/3x3_s2_pool3/3x3_s2_0_split
I0403 18:35:40.522091  7149 net.cpp:91] Creating Layer pool3/3x3_s2_pool3/3x3_s2_0_split
I0403 18:35:40.522105  7149 net.cpp:425] pool3/3x3_s2_pool3/3x3_s2_0_split <- pool3/3x3_s2
I0403 18:35:40.522122  7149 net.cpp:399] pool3/3x3_s2_pool3/3x3_s2_0_split -> pool3/3x3_s2_pool3/3x3_s2_0_split_0
I0403 18:35:40.522140  7149 net.cpp:399] pool3/3x3_s2_pool3/3x3_s2_0_split -> pool3/3x3_s2_pool3/3x3_s2_0_split_1
I0403 18:35:40.522162  7149 net.cpp:399] pool3/3x3_s2_pool3/3x3_s2_0_split -> pool3/3x3_s2_pool3/3x3_s2_0_split_2
I0403 18:35:40.522181  7149 net.cpp:399] pool3/3x3_s2_pool3/3x3_s2_0_split -> pool3/3x3_s2_pool3/3x3_s2_0_split_3
I0403 18:35:40.522269  7149 net.cpp:141] Setting up pool3/3x3_s2_pool3/3x3_s2_0_split
I0403 18:35:40.522291  7149 net.cpp:148] Top shape: 24 480 14 14 (2257920)
I0403 18:35:40.522307  7149 net.cpp:148] Top shape: 24 480 14 14 (2257920)
I0403 18:35:40.522323  7149 net.cpp:148] Top shape: 24 480 14 14 (2257920)
I0403 18:35:40.522338  7149 net.cpp:148] Top shape: 24 480 14 14 (2257920)
I0403 18:35:40.522352  7149 net.cpp:156] Memory required for data: 854397984
I0403 18:35:40.522367  7149 layer_factory.hpp:77] Creating layer inception_4a/1x1
I0403 18:35:40.522387  7149 net.cpp:91] Creating Layer inception_4a/1x1
I0403 18:35:40.522404  7149 net.cpp:425] inception_4a/1x1 <- pool3/3x3_s2_pool3/3x3_s2_0_split_0
I0403 18:35:40.522425  7149 net.cpp:399] inception_4a/1x1 -> inception_4a/1x1
I0403 18:35:40.523947  7149 net.cpp:141] Setting up inception_4a/1x1
I0403 18:35:40.523983  7149 net.cpp:148] Top shape: 24 192 14 14 (903168)
I0403 18:35:40.523999  7149 net.cpp:156] Memory required for data: 858010656
I0403 18:35:40.524020  7149 layer_factory.hpp:77] Creating layer inception_4a/relu_1x1
I0403 18:35:40.524057  7149 net.cpp:91] Creating Layer inception_4a/relu_1x1
I0403 18:35:40.524075  7149 net.cpp:425] inception_4a/relu_1x1 <- inception_4a/1x1
I0403 18:35:40.524093  7149 net.cpp:386] inception_4a/relu_1x1 -> inception_4a/1x1 (in-place)
I0403 18:35:40.524281  7149 net.cpp:141] Setting up inception_4a/relu_1x1
I0403 18:35:40.524310  7149 net.cpp:148] Top shape: 24 192 14 14 (903168)
I0403 18:35:40.524338  7149 net.cpp:156] Memory required for data: 861623328
I0403 18:35:40.524351  7149 layer_factory.hpp:77] Creating layer inception_4a/3x3_reduce
I0403 18:35:40.524380  7149 net.cpp:91] Creating Layer inception_4a/3x3_reduce
I0403 18:35:40.524397  7149 net.cpp:425] inception_4a/3x3_reduce <- pool3/3x3_s2_pool3/3x3_s2_0_split_1
I0403 18:35:40.524418  7149 net.cpp:399] inception_4a/3x3_reduce -> inception_4a/3x3_reduce
I0403 18:35:40.525696  7149 net.cpp:141] Setting up inception_4a/3x3_reduce
I0403 18:35:40.525723  7149 net.cpp:148] Top shape: 24 96 14 14 (451584)
I0403 18:35:40.525739  7149 net.cpp:156] Memory required for data: 863429664
I0403 18:35:40.525764  7149 layer_factory.hpp:77] Creating layer inception_4a/relu_3x3_reduce
I0403 18:35:40.525787  7149 net.cpp:91] Creating Layer inception_4a/relu_3x3_reduce
I0403 18:35:40.525804  7149 net.cpp:425] inception_4a/relu_3x3_reduce <- inception_4a/3x3_reduce
I0403 18:35:40.525823  7149 net.cpp:386] inception_4a/relu_3x3_reduce -> inception_4a/3x3_reduce (in-place)
I0403 18:35:40.526000  7149 net.cpp:141] Setting up inception_4a/relu_3x3_reduce
I0403 18:35:40.526027  7149 net.cpp:148] Top shape: 24 96 14 14 (451584)
I0403 18:35:40.526044  7149 net.cpp:156] Memory required for data: 865236000
I0403 18:35:40.526059  7149 layer_factory.hpp:77] Creating layer inception_4a/3x3
I0403 18:35:40.526082  7149 net.cpp:91] Creating Layer inception_4a/3x3
I0403 18:35:40.526099  7149 net.cpp:425] inception_4a/3x3 <- inception_4a/3x3_reduce
I0403 18:35:40.526118  7149 net.cpp:399] inception_4a/3x3 -> inception_4a/3x3
I0403 18:35:40.528828  7149 net.cpp:141] Setting up inception_4a/3x3
I0403 18:35:40.528862  7149 net.cpp:148] Top shape: 24 208 14 14 (978432)
I0403 18:35:40.528880  7149 net.cpp:156] Memory required for data: 869149728
I0403 18:35:40.528899  7149 layer_factory.hpp:77] Creating layer inception_4a/relu_3x3
I0403 18:35:40.528918  7149 net.cpp:91] Creating Layer inception_4a/relu_3x3
I0403 18:35:40.528935  7149 net.cpp:425] inception_4a/relu_3x3 <- inception_4a/3x3
I0403 18:35:40.528955  7149 net.cpp:386] inception_4a/relu_3x3 -> inception_4a/3x3 (in-place)
I0403 18:35:40.529244  7149 net.cpp:141] Setting up inception_4a/relu_3x3
I0403 18:35:40.529273  7149 net.cpp:148] Top shape: 24 208 14 14 (978432)
I0403 18:35:40.529290  7149 net.cpp:156] Memory required for data: 873063456
I0403 18:35:40.529306  7149 layer_factory.hpp:77] Creating layer inception_4a/5x5_reduce
I0403 18:35:40.529331  7149 net.cpp:91] Creating Layer inception_4a/5x5_reduce
I0403 18:35:40.529350  7149 net.cpp:425] inception_4a/5x5_reduce <- pool3/3x3_s2_pool3/3x3_s2_0_split_2
I0403 18:35:40.529369  7149 net.cpp:399] inception_4a/5x5_reduce -> inception_4a/5x5_reduce
I0403 18:35:40.530387  7149 net.cpp:141] Setting up inception_4a/5x5_reduce
I0403 18:35:40.530421  7149 net.cpp:148] Top shape: 24 16 14 14 (75264)
I0403 18:35:40.530437  7149 net.cpp:156] Memory required for data: 873364512
I0403 18:35:40.530458  7149 layer_factory.hpp:77] Creating layer inception_4a/relu_5x5_reduce
I0403 18:35:40.530477  7149 net.cpp:91] Creating Layer inception_4a/relu_5x5_reduce
I0403 18:35:40.530494  7149 net.cpp:425] inception_4a/relu_5x5_reduce <- inception_4a/5x5_reduce
I0403 18:35:40.530516  7149 net.cpp:386] inception_4a/relu_5x5_reduce -> inception_4a/5x5_reduce (in-place)
I0403 18:35:40.530695  7149 net.cpp:141] Setting up inception_4a/relu_5x5_reduce
I0403 18:35:40.530720  7149 net.cpp:148] Top shape: 24 16 14 14 (75264)
I0403 18:35:40.530735  7149 net.cpp:156] Memory required for data: 873665568
I0403 18:35:40.530750  7149 layer_factory.hpp:77] Creating layer inception_4a/5x5
I0403 18:35:40.530771  7149 net.cpp:91] Creating Layer inception_4a/5x5
I0403 18:35:40.530791  7149 net.cpp:425] inception_4a/5x5 <- inception_4a/5x5_reduce
I0403 18:35:40.530812  7149 net.cpp:399] inception_4a/5x5 -> inception_4a/5x5
I0403 18:35:40.531909  7149 net.cpp:141] Setting up inception_4a/5x5
I0403 18:35:40.531939  7149 net.cpp:148] Top shape: 24 48 14 14 (225792)
I0403 18:35:40.531955  7149 net.cpp:156] Memory required for data: 874568736
I0403 18:35:40.531975  7149 layer_factory.hpp:77] Creating layer inception_4a/relu_5x5
I0403 18:35:40.531996  7149 net.cpp:91] Creating Layer inception_4a/relu_5x5
I0403 18:35:40.532016  7149 net.cpp:425] inception_4a/relu_5x5 <- inception_4a/5x5
I0403 18:35:40.532035  7149 net.cpp:386] inception_4a/relu_5x5 -> inception_4a/5x5 (in-place)
I0403 18:35:40.532233  7149 net.cpp:141] Setting up inception_4a/relu_5x5
I0403 18:35:40.532260  7149 net.cpp:148] Top shape: 24 48 14 14 (225792)
I0403 18:35:40.532284  7149 net.cpp:156] Memory required for data: 875471904
I0403 18:35:40.532299  7149 layer_factory.hpp:77] Creating layer inception_4a/pool
I0403 18:35:40.532320  7149 net.cpp:91] Creating Layer inception_4a/pool
I0403 18:35:40.532336  7149 net.cpp:425] inception_4a/pool <- pool3/3x3_s2_pool3/3x3_s2_0_split_3
I0403 18:35:40.532357  7149 net.cpp:399] inception_4a/pool -> inception_4a/pool
I0403 18:35:40.532419  7149 net.cpp:141] Setting up inception_4a/pool
I0403 18:35:40.532444  7149 net.cpp:148] Top shape: 24 480 14 14 (2257920)
I0403 18:35:40.532459  7149 net.cpp:156] Memory required for data: 884503584
I0403 18:35:40.532483  7149 layer_factory.hpp:77] Creating layer inception_4a/pool_proj
I0403 18:35:40.532506  7149 net.cpp:91] Creating Layer inception_4a/pool_proj
I0403 18:35:40.532524  7149 net.cpp:425] inception_4a/pool_proj <- inception_4a/pool
I0403 18:35:40.532547  7149 net.cpp:399] inception_4a/pool_proj -> inception_4a/pool_proj
I0403 18:35:40.533718  7149 net.cpp:141] Setting up inception_4a/pool_proj
I0403 18:35:40.533747  7149 net.cpp:148] Top shape: 24 64 14 14 (301056)
I0403 18:35:40.533777  7149 net.cpp:156] Memory required for data: 885707808
I0403 18:35:40.533797  7149 layer_factory.hpp:77] Creating layer inception_4a/relu_pool_proj
I0403 18:35:40.533819  7149 net.cpp:91] Creating Layer inception_4a/relu_pool_proj
I0403 18:35:40.533838  7149 net.cpp:425] inception_4a/relu_pool_proj <- inception_4a/pool_proj
I0403 18:35:40.533855  7149 net.cpp:386] inception_4a/relu_pool_proj -> inception_4a/pool_proj (in-place)
I0403 18:35:40.534134  7149 net.cpp:141] Setting up inception_4a/relu_pool_proj
I0403 18:35:40.534160  7149 net.cpp:148] Top shape: 24 64 14 14 (301056)
I0403 18:35:40.534176  7149 net.cpp:156] Memory required for data: 886912032
I0403 18:35:40.534191  7149 layer_factory.hpp:77] Creating layer inception_4a/output
I0403 18:35:40.534219  7149 net.cpp:91] Creating Layer inception_4a/output
I0403 18:35:40.534236  7149 net.cpp:425] inception_4a/output <- inception_4a/1x1
I0403 18:35:40.534252  7149 net.cpp:425] inception_4a/output <- inception_4a/3x3
I0403 18:35:40.534268  7149 net.cpp:425] inception_4a/output <- inception_4a/5x5
I0403 18:35:40.534284  7149 net.cpp:425] inception_4a/output <- inception_4a/pool_proj
I0403 18:35:40.534301  7149 net.cpp:399] inception_4a/output -> inception_4a/output
I0403 18:35:40.534348  7149 net.cpp:141] Setting up inception_4a/output
I0403 18:35:40.534373  7149 net.cpp:148] Top shape: 24 512 14 14 (2408448)
I0403 18:35:40.534387  7149 net.cpp:156] Memory required for data: 896545824
I0403 18:35:40.534402  7149 layer_factory.hpp:77] Creating layer inception_4a/output_inception_4a/output_0_split
I0403 18:35:40.534420  7149 net.cpp:91] Creating Layer inception_4a/output_inception_4a/output_0_split
I0403 18:35:40.534435  7149 net.cpp:425] inception_4a/output_inception_4a/output_0_split <- inception_4a/output
I0403 18:35:40.534456  7149 net.cpp:399] inception_4a/output_inception_4a/output_0_split -> inception_4a/output_inception_4a/output_0_split_0
I0403 18:35:40.534477  7149 net.cpp:399] inception_4a/output_inception_4a/output_0_split -> inception_4a/output_inception_4a/output_0_split_1
I0403 18:35:40.534497  7149 net.cpp:399] inception_4a/output_inception_4a/output_0_split -> inception_4a/output_inception_4a/output_0_split_2
I0403 18:35:40.534518  7149 net.cpp:399] inception_4a/output_inception_4a/output_0_split -> inception_4a/output_inception_4a/output_0_split_3
I0403 18:35:40.534538  7149 net.cpp:399] inception_4a/output_inception_4a/output_0_split -> inception_4a/output_inception_4a/output_0_split_4
I0403 18:35:40.534633  7149 net.cpp:141] Setting up inception_4a/output_inception_4a/output_0_split
I0403 18:35:40.534657  7149 net.cpp:148] Top shape: 24 512 14 14 (2408448)
I0403 18:35:40.534674  7149 net.cpp:148] Top shape: 24 512 14 14 (2408448)
I0403 18:35:40.534690  7149 net.cpp:148] Top shape: 24 512 14 14 (2408448)
I0403 18:35:40.534705  7149 net.cpp:148] Top shape: 24 512 14 14 (2408448)
I0403 18:35:40.534721  7149 net.cpp:148] Top shape: 24 512 14 14 (2408448)
I0403 18:35:40.534734  7149 net.cpp:156] Memory required for data: 944714784
I0403 18:35:40.534749  7149 layer_factory.hpp:77] Creating layer loss1/ave_pool
I0403 18:35:40.534766  7149 net.cpp:91] Creating Layer loss1/ave_pool
I0403 18:35:40.534782  7149 net.cpp:425] loss1/ave_pool <- inception_4a/output_inception_4a/output_0_split_0
I0403 18:35:40.534802  7149 net.cpp:399] loss1/ave_pool -> loss1/ave_pool
I0403 18:35:40.535013  7149 net.cpp:141] Setting up loss1/ave_pool
I0403 18:35:40.535039  7149 net.cpp:148] Top shape: 24 512 4 4 (196608)
I0403 18:35:40.535058  7149 net.cpp:156] Memory required for data: 945501216
I0403 18:35:40.535073  7149 layer_factory.hpp:77] Creating layer loss1/conv
I0403 18:35:40.535094  7149 net.cpp:91] Creating Layer loss1/conv
I0403 18:35:40.535109  7149 net.cpp:425] loss1/conv <- loss1/ave_pool
I0403 18:35:40.535131  7149 net.cpp:399] loss1/conv -> loss1/conv
I0403 18:35:40.536551  7149 net.cpp:141] Setting up loss1/conv
I0403 18:35:40.536583  7149 net.cpp:148] Top shape: 24 128 4 4 (49152)
I0403 18:35:40.536614  7149 net.cpp:156] Memory required for data: 945697824
I0403 18:35:40.536634  7149 layer_factory.hpp:77] Creating layer loss1/relu_conv
I0403 18:35:40.536654  7149 net.cpp:91] Creating Layer loss1/relu_conv
I0403 18:35:40.536672  7149 net.cpp:425] loss1/relu_conv <- loss1/conv
I0403 18:35:40.536692  7149 net.cpp:386] loss1/relu_conv -> loss1/conv (in-place)
I0403 18:35:40.536977  7149 net.cpp:141] Setting up loss1/relu_conv
I0403 18:35:40.537006  7149 net.cpp:148] Top shape: 24 128 4 4 (49152)
I0403 18:35:40.537024  7149 net.cpp:156] Memory required for data: 945894432
I0403 18:35:40.537039  7149 layer_factory.hpp:77] Creating layer loss1/fc
I0403 18:35:40.537062  7149 net.cpp:91] Creating Layer loss1/fc
I0403 18:35:40.537080  7149 net.cpp:425] loss1/fc <- loss1/conv
I0403 18:35:40.537101  7149 net.cpp:399] loss1/fc -> loss1/fc
I0403 18:35:40.557095  7149 net.cpp:141] Setting up loss1/fc
I0403 18:35:40.557173  7149 net.cpp:148] Top shape: 24 1024 (24576)
I0403 18:35:40.557191  7149 net.cpp:156] Memory required for data: 945992736
I0403 18:35:40.557216  7149 layer_factory.hpp:77] Creating layer loss1/relu_fc
I0403 18:35:40.557241  7149 net.cpp:91] Creating Layer loss1/relu_fc
I0403 18:35:40.557261  7149 net.cpp:425] loss1/relu_fc <- loss1/fc
I0403 18:35:40.557282  7149 net.cpp:386] loss1/relu_fc -> loss1/fc (in-place)
I0403 18:35:40.557508  7149 net.cpp:141] Setting up loss1/relu_fc
I0403 18:35:40.557534  7149 net.cpp:148] Top shape: 24 1024 (24576)
I0403 18:35:40.557548  7149 net.cpp:156] Memory required for data: 946091040
I0403 18:35:40.557564  7149 layer_factory.hpp:77] Creating layer loss1/drop_fc
I0403 18:35:40.557592  7149 net.cpp:91] Creating Layer loss1/drop_fc
I0403 18:35:40.557610  7149 net.cpp:425] loss1/drop_fc <- loss1/fc
I0403 18:35:40.557629  7149 net.cpp:386] loss1/drop_fc -> loss1/fc (in-place)
I0403 18:35:40.557683  7149 net.cpp:141] Setting up loss1/drop_fc
I0403 18:35:40.557708  7149 net.cpp:148] Top shape: 24 1024 (24576)
I0403 18:35:40.557721  7149 net.cpp:156] Memory required for data: 946189344
I0403 18:35:40.557736  7149 layer_factory.hpp:77] Creating layer loss1/classifier_plantvillage
I0403 18:35:40.557760  7149 net.cpp:91] Creating Layer loss1/classifier_plantvillage
I0403 18:35:40.557777  7149 net.cpp:425] loss1/classifier_plantvillage <- loss1/fc
I0403 18:35:40.557796  7149 net.cpp:399] loss1/classifier_plantvillage -> loss1/classifier_plantvillage
I0403 18:35:40.558744  7149 net.cpp:141] Setting up loss1/classifier_plantvillage
I0403 18:35:40.558774  7149 net.cpp:148] Top shape: 24 38 (912)
I0403 18:35:40.558790  7149 net.cpp:156] Memory required for data: 946192992
I0403 18:35:40.558809  7149 layer_factory.hpp:77] Creating layer loss1/classifier_plantvillage_loss1/classifier_plantvillage_0_split
I0403 18:35:40.558830  7149 net.cpp:91] Creating Layer loss1/classifier_plantvillage_loss1/classifier_plantvillage_0_split
I0403 18:35:40.558850  7149 net.cpp:425] loss1/classifier_plantvillage_loss1/classifier_plantvillage_0_split <- loss1/classifier_plantvillage
I0403 18:35:40.558867  7149 net.cpp:399] loss1/classifier_plantvillage_loss1/classifier_plantvillage_0_split -> loss1/classifier_plantvillage_loss1/classifier_plantvillage_0_split_0
I0403 18:35:40.558890  7149 net.cpp:399] loss1/classifier_plantvillage_loss1/classifier_plantvillage_0_split -> loss1/classifier_plantvillage_loss1/classifier_plantvillage_0_split_1
I0403 18:35:40.558910  7149 net.cpp:399] loss1/classifier_plantvillage_loss1/classifier_plantvillage_0_split -> loss1/classifier_plantvillage_loss1/classifier_plantvillage_0_split_2
I0403 18:35:40.558977  7149 net.cpp:141] Setting up loss1/classifier_plantvillage_loss1/classifier_plantvillage_0_split
I0403 18:35:40.559000  7149 net.cpp:148] Top shape: 24 38 (912)
I0403 18:35:40.559017  7149 net.cpp:148] Top shape: 24 38 (912)
I0403 18:35:40.559032  7149 net.cpp:148] Top shape: 24 38 (912)
I0403 18:35:40.559046  7149 net.cpp:156] Memory required for data: 946203936
I0403 18:35:40.559059  7149 layer_factory.hpp:77] Creating layer inception_4b/1x1
I0403 18:35:40.559083  7149 net.cpp:91] Creating Layer inception_4b/1x1
I0403 18:35:40.559125  7149 net.cpp:425] inception_4b/1x1 <- inception_4a/output_inception_4a/output_0_split_1
I0403 18:35:40.559146  7149 net.cpp:399] inception_4b/1x1 -> inception_4b/1x1
I0403 18:35:40.560905  7149 net.cpp:141] Setting up inception_4b/1x1
I0403 18:35:40.560938  7149 net.cpp:148] Top shape: 24 160 14 14 (752640)
I0403 18:35:40.560956  7149 net.cpp:156] Memory required for data: 949214496
I0403 18:35:40.560976  7149 layer_factory.hpp:77] Creating layer inception_4b/relu_1x1
I0403 18:35:40.560993  7149 net.cpp:91] Creating Layer inception_4b/relu_1x1
I0403 18:35:40.561010  7149 net.cpp:425] inception_4b/relu_1x1 <- inception_4b/1x1
I0403 18:35:40.561030  7149 net.cpp:386] inception_4b/relu_1x1 -> inception_4b/1x1 (in-place)
I0403 18:35:40.561223  7149 net.cpp:141] Setting up inception_4b/relu_1x1
I0403 18:35:40.561249  7149 net.cpp:148] Top shape: 24 160 14 14 (752640)
I0403 18:35:40.561264  7149 net.cpp:156] Memory required for data: 952225056
I0403 18:35:40.561278  7149 layer_factory.hpp:77] Creating layer inception_4b/3x3_reduce
I0403 18:35:40.561303  7149 net.cpp:91] Creating Layer inception_4b/3x3_reduce
I0403 18:35:40.561322  7149 net.cpp:425] inception_4b/3x3_reduce <- inception_4a/output_inception_4a/output_0_split_2
I0403 18:35:40.561344  7149 net.cpp:399] inception_4b/3x3_reduce -> inception_4b/3x3_reduce
I0403 18:35:40.562718  7149 net.cpp:141] Setting up inception_4b/3x3_reduce
I0403 18:35:40.562748  7149 net.cpp:148] Top shape: 24 112 14 14 (526848)
I0403 18:35:40.562764  7149 net.cpp:156] Memory required for data: 954332448
I0403 18:35:40.562784  7149 layer_factory.hpp:77] Creating layer inception_4b/relu_3x3_reduce
I0403 18:35:40.562805  7149 net.cpp:91] Creating Layer inception_4b/relu_3x3_reduce
I0403 18:35:40.562822  7149 net.cpp:425] inception_4b/relu_3x3_reduce <- inception_4b/3x3_reduce
I0403 18:35:40.562839  7149 net.cpp:386] inception_4b/relu_3x3_reduce -> inception_4b/3x3_reduce (in-place)
I0403 18:35:40.563125  7149 net.cpp:141] Setting up inception_4b/relu_3x3_reduce
I0403 18:35:40.563153  7149 net.cpp:148] Top shape: 24 112 14 14 (526848)
I0403 18:35:40.563169  7149 net.cpp:156] Memory required for data: 956439840
I0403 18:35:40.563184  7149 layer_factory.hpp:77] Creating layer inception_4b/3x3
I0403 18:35:40.563206  7149 net.cpp:91] Creating Layer inception_4b/3x3
I0403 18:35:40.563237  7149 net.cpp:425] inception_4b/3x3 <- inception_4b/3x3_reduce
I0403 18:35:40.563261  7149 net.cpp:399] inception_4b/3x3 -> inception_4b/3x3
I0403 18:35:40.566323  7149 net.cpp:141] Setting up inception_4b/3x3
I0403 18:35:40.566355  7149 net.cpp:148] Top shape: 24 224 14 14 (1053696)
I0403 18:35:40.566371  7149 net.cpp:156] Memory required for data: 960654624
I0403 18:35:40.566390  7149 layer_factory.hpp:77] Creating layer inception_4b/relu_3x3
I0403 18:35:40.566413  7149 net.cpp:91] Creating Layer inception_4b/relu_3x3
I0403 18:35:40.566432  7149 net.cpp:425] inception_4b/relu_3x3 <- inception_4b/3x3
I0403 18:35:40.566449  7149 net.cpp:386] inception_4b/relu_3x3 -> inception_4b/3x3 (in-place)
I0403 18:35:40.566634  7149 net.cpp:141] Setting up inception_4b/relu_3x3
I0403 18:35:40.566660  7149 net.cpp:148] Top shape: 24 224 14 14 (1053696)
I0403 18:35:40.566676  7149 net.cpp:156] Memory required for data: 964869408
I0403 18:35:40.566691  7149 layer_factory.hpp:77] Creating layer inception_4b/5x5_reduce
I0403 18:35:40.566715  7149 net.cpp:91] Creating Layer inception_4b/5x5_reduce
I0403 18:35:40.566733  7149 net.cpp:425] inception_4b/5x5_reduce <- inception_4a/output_inception_4a/output_0_split_3
I0403 18:35:40.566757  7149 net.cpp:399] inception_4b/5x5_reduce -> inception_4b/5x5_reduce
I0403 18:35:40.567844  7149 net.cpp:141] Setting up inception_4b/5x5_reduce
I0403 18:35:40.567874  7149 net.cpp:148] Top shape: 24 24 14 14 (112896)
I0403 18:35:40.567890  7149 net.cpp:156] Memory required for data: 965320992
I0403 18:35:40.567921  7149 layer_factory.hpp:77] Creating layer inception_4b/relu_5x5_reduce
I0403 18:35:40.567941  7149 net.cpp:91] Creating Layer inception_4b/relu_5x5_reduce
I0403 18:35:40.567973  7149 net.cpp:425] inception_4b/relu_5x5_reduce <- inception_4b/5x5_reduce
I0403 18:35:40.567993  7149 net.cpp:386] inception_4b/relu_5x5_reduce -> inception_4b/5x5_reduce (in-place)
I0403 18:35:40.568172  7149 net.cpp:141] Setting up inception_4b/relu_5x5_reduce
I0403 18:35:40.568197  7149 net.cpp:148] Top shape: 24 24 14 14 (112896)
I0403 18:35:40.568217  7149 net.cpp:156] Memory required for data: 965772576
I0403 18:35:40.568234  7149 layer_factory.hpp:77] Creating layer inception_4b/5x5
I0403 18:35:40.568256  7149 net.cpp:91] Creating Layer inception_4b/5x5
I0403 18:35:40.568274  7149 net.cpp:425] inception_4b/5x5 <- inception_4b/5x5_reduce
I0403 18:35:40.568295  7149 net.cpp:399] inception_4b/5x5 -> inception_4b/5x5
I0403 18:35:40.569495  7149 net.cpp:141] Setting up inception_4b/5x5
I0403 18:35:40.569526  7149 net.cpp:148] Top shape: 24 64 14 14 (301056)
I0403 18:35:40.569543  7149 net.cpp:156] Memory required for data: 966976800
I0403 18:35:40.569564  7149 layer_factory.hpp:77] Creating layer inception_4b/relu_5x5
I0403 18:35:40.569582  7149 net.cpp:91] Creating Layer inception_4b/relu_5x5
I0403 18:35:40.569598  7149 net.cpp:425] inception_4b/relu_5x5 <- inception_4b/5x5
I0403 18:35:40.569619  7149 net.cpp:386] inception_4b/relu_5x5 -> inception_4b/5x5 (in-place)
I0403 18:35:40.569900  7149 net.cpp:141] Setting up inception_4b/relu_5x5
I0403 18:35:40.569929  7149 net.cpp:148] Top shape: 24 64 14 14 (301056)
I0403 18:35:40.569946  7149 net.cpp:156] Memory required for data: 968181024
I0403 18:35:40.569960  7149 layer_factory.hpp:77] Creating layer inception_4b/pool
I0403 18:35:40.569979  7149 net.cpp:91] Creating Layer inception_4b/pool
I0403 18:35:40.569995  7149 net.cpp:425] inception_4b/pool <- inception_4a/output_inception_4a/output_0_split_4
I0403 18:35:40.570015  7149 net.cpp:399] inception_4b/pool -> inception_4b/pool
I0403 18:35:40.570078  7149 net.cpp:141] Setting up inception_4b/pool
I0403 18:35:40.570106  7149 net.cpp:148] Top shape: 24 512 14 14 (2408448)
I0403 18:35:40.570119  7149 net.cpp:156] Memory required for data: 977814816
I0403 18:35:40.570135  7149 layer_factory.hpp:77] Creating layer inception_4b/pool_proj
I0403 18:35:40.570158  7149 net.cpp:91] Creating Layer inception_4b/pool_proj
I0403 18:35:40.570174  7149 net.cpp:425] inception_4b/pool_proj <- inception_4b/pool
I0403 18:35:40.570194  7149 net.cpp:399] inception_4b/pool_proj -> inception_4b/pool_proj
I0403 18:35:40.571368  7149 net.cpp:141] Setting up inception_4b/pool_proj
I0403 18:35:40.571396  7149 net.cpp:148] Top shape: 24 64 14 14 (301056)
I0403 18:35:40.571413  7149 net.cpp:156] Memory required for data: 979019040
I0403 18:35:40.571430  7149 layer_factory.hpp:77] Creating layer inception_4b/relu_pool_proj
I0403 18:35:40.571450  7149 net.cpp:91] Creating Layer inception_4b/relu_pool_proj
I0403 18:35:40.571470  7149 net.cpp:425] inception_4b/relu_pool_proj <- inception_4b/pool_proj
I0403 18:35:40.571488  7149 net.cpp:386] inception_4b/relu_pool_proj -> inception_4b/pool_proj (in-place)
I0403 18:35:40.571665  7149 net.cpp:141] Setting up inception_4b/relu_pool_proj
I0403 18:35:40.571691  7149 net.cpp:148] Top shape: 24 64 14 14 (301056)
I0403 18:35:40.571705  7149 net.cpp:156] Memory required for data: 980223264
I0403 18:35:40.571722  7149 layer_factory.hpp:77] Creating layer inception_4b/output
I0403 18:35:40.571741  7149 net.cpp:91] Creating Layer inception_4b/output
I0403 18:35:40.571759  7149 net.cpp:425] inception_4b/output <- inception_4b/1x1
I0403 18:35:40.571776  7149 net.cpp:425] inception_4b/output <- inception_4b/3x3
I0403 18:35:40.571792  7149 net.cpp:425] inception_4b/output <- inception_4b/5x5
I0403 18:35:40.571807  7149 net.cpp:425] inception_4b/output <- inception_4b/pool_proj
I0403 18:35:40.571823  7149 net.cpp:399] inception_4b/output -> inception_4b/output
I0403 18:35:40.571871  7149 net.cpp:141] Setting up inception_4b/output
I0403 18:35:40.571894  7149 net.cpp:148] Top shape: 24 512 14 14 (2408448)
I0403 18:35:40.571908  7149 net.cpp:156] Memory required for data: 989857056
I0403 18:35:40.571938  7149 layer_factory.hpp:77] Creating layer inception_4b/output_inception_4b/output_0_split
I0403 18:35:40.571955  7149 net.cpp:91] Creating Layer inception_4b/output_inception_4b/output_0_split
I0403 18:35:40.571971  7149 net.cpp:425] inception_4b/output_inception_4b/output_0_split <- inception_4b/output
I0403 18:35:40.571991  7149 net.cpp:399] inception_4b/output_inception_4b/output_0_split -> inception_4b/output_inception_4b/output_0_split_0
I0403 18:35:40.572012  7149 net.cpp:399] inception_4b/output_inception_4b/output_0_split -> inception_4b/output_inception_4b/output_0_split_1
I0403 18:35:40.572034  7149 net.cpp:399] inception_4b/output_inception_4b/output_0_split -> inception_4b/output_inception_4b/output_0_split_2
I0403 18:35:40.572053  7149 net.cpp:399] inception_4b/output_inception_4b/output_0_split -> inception_4b/output_inception_4b/output_0_split_3
I0403 18:35:40.572136  7149 net.cpp:141] Setting up inception_4b/output_inception_4b/output_0_split
I0403 18:35:40.572161  7149 net.cpp:148] Top shape: 24 512 14 14 (2408448)
I0403 18:35:40.572178  7149 net.cpp:148] Top shape: 24 512 14 14 (2408448)
I0403 18:35:40.572193  7149 net.cpp:148] Top shape: 24 512 14 14 (2408448)
I0403 18:35:40.572219  7149 net.cpp:148] Top shape: 24 512 14 14 (2408448)
I0403 18:35:40.572237  7149 net.cpp:156] Memory required for data: 1028392224
I0403 18:35:40.572252  7149 layer_factory.hpp:77] Creating layer inception_4c/1x1
I0403 18:35:40.572278  7149 net.cpp:91] Creating Layer inception_4c/1x1
I0403 18:35:40.572295  7149 net.cpp:425] inception_4c/1x1 <- inception_4b/output_inception_4b/output_0_split_0
I0403 18:35:40.572314  7149 net.cpp:399] inception_4c/1x1 -> inception_4c/1x1
I0403 18:35:40.573709  7149 net.cpp:141] Setting up inception_4c/1x1
I0403 18:35:40.573739  7149 net.cpp:148] Top shape: 24 128 14 14 (602112)
I0403 18:35:40.573755  7149 net.cpp:156] Memory required for data: 1030800672
I0403 18:35:40.573772  7149 layer_factory.hpp:77] Creating layer inception_4c/relu_1x1
I0403 18:35:40.573794  7149 net.cpp:91] Creating Layer inception_4c/relu_1x1
I0403 18:35:40.573813  7149 net.cpp:425] inception_4c/relu_1x1 <- inception_4c/1x1
I0403 18:35:40.573830  7149 net.cpp:386] inception_4c/relu_1x1 -> inception_4c/1x1 (in-place)
I0403 18:35:40.574008  7149 net.cpp:141] Setting up inception_4c/relu_1x1
I0403 18:35:40.574035  7149 net.cpp:148] Top shape: 24 128 14 14 (602112)
I0403 18:35:40.574050  7149 net.cpp:156] Memory required for data: 1033209120
I0403 18:35:40.574065  7149 layer_factory.hpp:77] Creating layer inception_4c/3x3_reduce
I0403 18:35:40.574087  7149 net.cpp:91] Creating Layer inception_4c/3x3_reduce
I0403 18:35:40.574105  7149 net.cpp:425] inception_4c/3x3_reduce <- inception_4b/output_inception_4b/output_0_split_1
I0403 18:35:40.574125  7149 net.cpp:399] inception_4c/3x3_reduce -> inception_4c/3x3_reduce
I0403 18:35:40.576084  7149 net.cpp:141] Setting up inception_4c/3x3_reduce
I0403 18:35:40.576115  7149 net.cpp:148] Top shape: 24 128 14 14 (602112)
I0403 18:35:40.576133  7149 net.cpp:156] Memory required for data: 1035617568
I0403 18:35:40.576150  7149 layer_factory.hpp:77] Creating layer inception_4c/relu_3x3_reduce
I0403 18:35:40.576169  7149 net.cpp:91] Creating Layer inception_4c/relu_3x3_reduce
I0403 18:35:40.576187  7149 net.cpp:425] inception_4c/relu_3x3_reduce <- inception_4c/3x3_reduce
I0403 18:35:40.576212  7149 net.cpp:386] inception_4c/relu_3x3_reduce -> inception_4c/3x3_reduce (in-place)
I0403 18:35:40.576498  7149 net.cpp:141] Setting up inception_4c/relu_3x3_reduce
I0403 18:35:40.576526  7149 net.cpp:148] Top shape: 24 128 14 14 (602112)
I0403 18:35:40.576542  7149 net.cpp:156] Memory required for data: 1038026016
I0403 18:35:40.576557  7149 layer_factory.hpp:77] Creating layer inception_4c/3x3
I0403 18:35:40.576582  7149 net.cpp:91] Creating Layer inception_4c/3x3
I0403 18:35:40.576602  7149 net.cpp:425] inception_4c/3x3 <- inception_4c/3x3_reduce
I0403 18:35:40.576624  7149 net.cpp:399] inception_4c/3x3 -> inception_4c/3x3
I0403 18:35:40.580240  7149 net.cpp:141] Setting up inception_4c/3x3
I0403 18:35:40.580284  7149 net.cpp:148] Top shape: 24 256 14 14 (1204224)
I0403 18:35:40.580301  7149 net.cpp:156] Memory required for data: 1042842912
I0403 18:35:40.580335  7149 layer_factory.hpp:77] Creating layer inception_4c/relu_3x3
I0403 18:35:40.580358  7149 net.cpp:91] Creating Layer inception_4c/relu_3x3
I0403 18:35:40.580375  7149 net.cpp:425] inception_4c/relu_3x3 <- inception_4c/3x3
I0403 18:35:40.580395  7149 net.cpp:386] inception_4c/relu_3x3 -> inception_4c/3x3 (in-place)
I0403 18:35:40.580579  7149 net.cpp:141] Setting up inception_4c/relu_3x3
I0403 18:35:40.580603  7149 net.cpp:148] Top shape: 24 256 14 14 (1204224)
I0403 18:35:40.580618  7149 net.cpp:156] Memory required for data: 1047659808
I0403 18:35:40.580633  7149 layer_factory.hpp:77] Creating layer inception_4c/5x5_reduce
I0403 18:35:40.580658  7149 net.cpp:91] Creating Layer inception_4c/5x5_reduce
I0403 18:35:40.580675  7149 net.cpp:425] inception_4c/5x5_reduce <- inception_4b/output_inception_4b/output_0_split_2
I0403 18:35:40.580698  7149 net.cpp:399] inception_4c/5x5_reduce -> inception_4c/5x5_reduce
I0403 18:35:40.581768  7149 net.cpp:141] Setting up inception_4c/5x5_reduce
I0403 18:35:40.581797  7149 net.cpp:148] Top shape: 24 24 14 14 (112896)
I0403 18:35:40.581814  7149 net.cpp:156] Memory required for data: 1048111392
I0403 18:35:40.581833  7149 layer_factory.hpp:77] Creating layer inception_4c/relu_5x5_reduce
I0403 18:35:40.581851  7149 net.cpp:91] Creating Layer inception_4c/relu_5x5_reduce
I0403 18:35:40.581866  7149 net.cpp:425] inception_4c/relu_5x5_reduce <- inception_4c/5x5_reduce
I0403 18:35:40.581887  7149 net.cpp:386] inception_4c/relu_5x5_reduce -> inception_4c/5x5_reduce (in-place)
I0403 18:35:40.582070  7149 net.cpp:141] Setting up inception_4c/relu_5x5_reduce
I0403 18:35:40.582095  7149 net.cpp:148] Top shape: 24 24 14 14 (112896)
I0403 18:35:40.582110  7149 net.cpp:156] Memory required for data: 1048562976
I0403 18:35:40.582124  7149 layer_factory.hpp:77] Creating layer inception_4c/5x5
I0403 18:35:40.582146  7149 net.cpp:91] Creating Layer inception_4c/5x5
I0403 18:35:40.582164  7149 net.cpp:425] inception_4c/5x5 <- inception_4c/5x5_reduce
I0403 18:35:40.582183  7149 net.cpp:399] inception_4c/5x5 -> inception_4c/5x5
I0403 18:35:40.583415  7149 net.cpp:141] Setting up inception_4c/5x5
I0403 18:35:40.583443  7149 net.cpp:148] Top shape: 24 64 14 14 (301056)
I0403 18:35:40.583459  7149 net.cpp:156] Memory required for data: 1049767200
I0403 18:35:40.583478  7149 layer_factory.hpp:77] Creating layer inception_4c/relu_5x5
I0403 18:35:40.583498  7149 net.cpp:91] Creating Layer inception_4c/relu_5x5
I0403 18:35:40.583516  7149 net.cpp:425] inception_4c/relu_5x5 <- inception_4c/5x5
I0403 18:35:40.583534  7149 net.cpp:386] inception_4c/relu_5x5 -> inception_4c/5x5 (in-place)
I0403 18:35:40.583822  7149 net.cpp:141] Setting up inception_4c/relu_5x5
I0403 18:35:40.583847  7149 net.cpp:148] Top shape: 24 64 14 14 (301056)
I0403 18:35:40.583863  7149 net.cpp:156] Memory required for data: 1050971424
I0403 18:35:40.583876  7149 layer_factory.hpp:77] Creating layer inception_4c/pool
I0403 18:35:40.583896  7149 net.cpp:91] Creating Layer inception_4c/pool
I0403 18:35:40.583914  7149 net.cpp:425] inception_4c/pool <- inception_4b/output_inception_4b/output_0_split_3
I0403 18:35:40.583933  7149 net.cpp:399] inception_4c/pool -> inception_4c/pool
I0403 18:35:40.583998  7149 net.cpp:141] Setting up inception_4c/pool
I0403 18:35:40.584022  7149 net.cpp:148] Top shape: 24 512 14 14 (2408448)
I0403 18:35:40.584036  7149 net.cpp:156] Memory required for data: 1060605216
I0403 18:35:40.584051  7149 layer_factory.hpp:77] Creating layer inception_4c/pool_proj
I0403 18:35:40.584074  7149 net.cpp:91] Creating Layer inception_4c/pool_proj
I0403 18:35:40.584091  7149 net.cpp:425] inception_4c/pool_proj <- inception_4c/pool
I0403 18:35:40.584112  7149 net.cpp:399] inception_4c/pool_proj -> inception_4c/pool_proj
I0403 18:35:40.585324  7149 net.cpp:141] Setting up inception_4c/pool_proj
I0403 18:35:40.585350  7149 net.cpp:148] Top shape: 24 64 14 14 (301056)
I0403 18:35:40.585378  7149 net.cpp:156] Memory required for data: 1061809440
I0403 18:35:40.585397  7149 layer_factory.hpp:77] Creating layer inception_4c/relu_pool_proj
I0403 18:35:40.585415  7149 net.cpp:91] Creating Layer inception_4c/relu_pool_proj
I0403 18:35:40.585430  7149 net.cpp:425] inception_4c/relu_pool_proj <- inception_4c/pool_proj
I0403 18:35:40.585450  7149 net.cpp:386] inception_4c/relu_pool_proj -> inception_4c/pool_proj (in-place)
I0403 18:35:40.585626  7149 net.cpp:141] Setting up inception_4c/relu_pool_proj
I0403 18:35:40.585650  7149 net.cpp:148] Top shape: 24 64 14 14 (301056)
I0403 18:35:40.585664  7149 net.cpp:156] Memory required for data: 1063013664
I0403 18:35:40.585677  7149 layer_factory.hpp:77] Creating layer inception_4c/output
I0403 18:35:40.585695  7149 net.cpp:91] Creating Layer inception_4c/output
I0403 18:35:40.585708  7149 net.cpp:425] inception_4c/output <- inception_4c/1x1
I0403 18:35:40.585726  7149 net.cpp:425] inception_4c/output <- inception_4c/3x3
I0403 18:35:40.585742  7149 net.cpp:425] inception_4c/output <- inception_4c/5x5
I0403 18:35:40.585757  7149 net.cpp:425] inception_4c/output <- inception_4c/pool_proj
I0403 18:35:40.585774  7149 net.cpp:399] inception_4c/output -> inception_4c/output
I0403 18:35:40.585820  7149 net.cpp:141] Setting up inception_4c/output
I0403 18:35:40.585842  7149 net.cpp:148] Top shape: 24 512 14 14 (2408448)
I0403 18:35:40.585856  7149 net.cpp:156] Memory required for data: 1072647456
I0403 18:35:40.585870  7149 layer_factory.hpp:77] Creating layer inception_4c/output_inception_4c/output_0_split
I0403 18:35:40.585886  7149 net.cpp:91] Creating Layer inception_4c/output_inception_4c/output_0_split
I0403 18:35:40.585901  7149 net.cpp:425] inception_4c/output_inception_4c/output_0_split <- inception_4c/output
I0403 18:35:40.585919  7149 net.cpp:399] inception_4c/output_inception_4c/output_0_split -> inception_4c/output_inception_4c/output_0_split_0
I0403 18:35:40.585939  7149 net.cpp:399] inception_4c/output_inception_4c/output_0_split -> inception_4c/output_inception_4c/output_0_split_1
I0403 18:35:40.585959  7149 net.cpp:399] inception_4c/output_inception_4c/output_0_split -> inception_4c/output_inception_4c/output_0_split_2
I0403 18:35:40.585978  7149 net.cpp:399] inception_4c/output_inception_4c/output_0_split -> inception_4c/output_inception_4c/output_0_split_3
I0403 18:35:40.586063  7149 net.cpp:141] Setting up inception_4c/output_inception_4c/output_0_split
I0403 18:35:40.586088  7149 net.cpp:148] Top shape: 24 512 14 14 (2408448)
I0403 18:35:40.586104  7149 net.cpp:148] Top shape: 24 512 14 14 (2408448)
I0403 18:35:40.586119  7149 net.cpp:148] Top shape: 24 512 14 14 (2408448)
I0403 18:35:40.586134  7149 net.cpp:148] Top shape: 24 512 14 14 (2408448)
I0403 18:35:40.586148  7149 net.cpp:156] Memory required for data: 1111182624
I0403 18:35:40.586161  7149 layer_factory.hpp:77] Creating layer inception_4d/1x1
I0403 18:35:40.586182  7149 net.cpp:91] Creating Layer inception_4d/1x1
I0403 18:35:40.586199  7149 net.cpp:425] inception_4d/1x1 <- inception_4c/output_inception_4c/output_0_split_0
I0403 18:35:40.586225  7149 net.cpp:399] inception_4d/1x1 -> inception_4d/1x1
I0403 18:35:40.587570  7149 net.cpp:141] Setting up inception_4d/1x1
I0403 18:35:40.587599  7149 net.cpp:148] Top shape: 24 112 14 14 (526848)
I0403 18:35:40.587613  7149 net.cpp:156] Memory required for data: 1113290016
I0403 18:35:40.587633  7149 layer_factory.hpp:77] Creating layer inception_4d/relu_1x1
I0403 18:35:40.587652  7149 net.cpp:91] Creating Layer inception_4d/relu_1x1
I0403 18:35:40.587668  7149 net.cpp:425] inception_4d/relu_1x1 <- inception_4d/1x1
I0403 18:35:40.587685  7149 net.cpp:386] inception_4d/relu_1x1 -> inception_4d/1x1 (in-place)
I0403 18:35:40.587870  7149 net.cpp:141] Setting up inception_4d/relu_1x1
I0403 18:35:40.587894  7149 net.cpp:148] Top shape: 24 112 14 14 (526848)
I0403 18:35:40.587908  7149 net.cpp:156] Memory required for data: 1115397408
I0403 18:35:40.587924  7149 layer_factory.hpp:77] Creating layer inception_4d/3x3_reduce
I0403 18:35:40.587957  7149 net.cpp:91] Creating Layer inception_4d/3x3_reduce
I0403 18:35:40.587975  7149 net.cpp:425] inception_4d/3x3_reduce <- inception_4c/output_inception_4c/output_0_split_1
I0403 18:35:40.587996  7149 net.cpp:399] inception_4d/3x3_reduce -> inception_4d/3x3_reduce
I0403 18:35:40.589473  7149 net.cpp:141] Setting up inception_4d/3x3_reduce
I0403 18:35:40.589499  7149 net.cpp:148] Top shape: 24 144 14 14 (677376)
I0403 18:35:40.589514  7149 net.cpp:156] Memory required for data: 1118106912
I0403 18:35:40.589531  7149 layer_factory.hpp:77] Creating layer inception_4d/relu_3x3_reduce
I0403 18:35:40.589551  7149 net.cpp:91] Creating Layer inception_4d/relu_3x3_reduce
I0403 18:35:40.589567  7149 net.cpp:425] inception_4d/relu_3x3_reduce <- inception_4d/3x3_reduce
I0403 18:35:40.589584  7149 net.cpp:386] inception_4d/relu_3x3_reduce -> inception_4d/3x3_reduce (in-place)
I0403 18:35:40.589864  7149 net.cpp:141] Setting up inception_4d/relu_3x3_reduce
I0403 18:35:40.589889  7149 net.cpp:148] Top shape: 24 144 14 14 (677376)
I0403 18:35:40.589903  7149 net.cpp:156] Memory required for data: 1120816416
I0403 18:35:40.589918  7149 layer_factory.hpp:77] Creating layer inception_4d/3x3
I0403 18:35:40.589939  7149 net.cpp:91] Creating Layer inception_4d/3x3
I0403 18:35:40.589956  7149 net.cpp:425] inception_4d/3x3 <- inception_4d/3x3_reduce
I0403 18:35:40.589977  7149 net.cpp:399] inception_4d/3x3 -> inception_4d/3x3
I0403 18:35:40.594175  7149 net.cpp:141] Setting up inception_4d/3x3
I0403 18:35:40.594207  7149 net.cpp:148] Top shape: 24 288 14 14 (1354752)
I0403 18:35:40.594229  7149 net.cpp:156] Memory required for data: 1126235424
I0403 18:35:40.594249  7149 layer_factory.hpp:77] Creating layer inception_4d/relu_3x3
I0403 18:35:40.594265  7149 net.cpp:91] Creating Layer inception_4d/relu_3x3
I0403 18:35:40.594281  7149 net.cpp:425] inception_4d/relu_3x3 <- inception_4d/3x3
I0403 18:35:40.594297  7149 net.cpp:386] inception_4d/relu_3x3 -> inception_4d/3x3 (in-place)
I0403 18:35:40.594480  7149 net.cpp:141] Setting up inception_4d/relu_3x3
I0403 18:35:40.594504  7149 net.cpp:148] Top shape: 24 288 14 14 (1354752)
I0403 18:35:40.594518  7149 net.cpp:156] Memory required for data: 1131654432
I0403 18:35:40.594532  7149 layer_factory.hpp:77] Creating layer inception_4d/5x5_reduce
I0403 18:35:40.594553  7149 net.cpp:91] Creating Layer inception_4d/5x5_reduce
I0403 18:35:40.594571  7149 net.cpp:425] inception_4d/5x5_reduce <- inception_4c/output_inception_4c/output_0_split_2
I0403 18:35:40.594593  7149 net.cpp:399] inception_4d/5x5_reduce -> inception_4d/5x5_reduce
I0403 18:35:40.595705  7149 net.cpp:141] Setting up inception_4d/5x5_reduce
I0403 18:35:40.595737  7149 net.cpp:148] Top shape: 24 32 14 14 (150528)
I0403 18:35:40.595755  7149 net.cpp:156] Memory required for data: 1132256544
I0403 18:35:40.595773  7149 layer_factory.hpp:77] Creating layer inception_4d/relu_5x5_reduce
I0403 18:35:40.595790  7149 net.cpp:91] Creating Layer inception_4d/relu_5x5_reduce
I0403 18:35:40.595806  7149 net.cpp:425] inception_4d/relu_5x5_reduce <- inception_4d/5x5_reduce
I0403 18:35:40.595826  7149 net.cpp:386] inception_4d/relu_5x5_reduce -> inception_4d/5x5_reduce (in-place)
I0403 18:35:40.596009  7149 net.cpp:141] Setting up inception_4d/relu_5x5_reduce
I0403 18:35:40.596035  7149 net.cpp:148] Top shape: 24 32 14 14 (150528)
I0403 18:35:40.596048  7149 net.cpp:156] Memory required for data: 1132858656
I0403 18:35:40.596062  7149 layer_factory.hpp:77] Creating layer inception_4d/5x5
I0403 18:35:40.596083  7149 net.cpp:91] Creating Layer inception_4d/5x5
I0403 18:35:40.596101  7149 net.cpp:425] inception_4d/5x5 <- inception_4d/5x5_reduce
I0403 18:35:40.596122  7149 net.cpp:399] inception_4d/5x5 -> inception_4d/5x5
I0403 18:35:40.597581  7149 net.cpp:141] Setting up inception_4d/5x5
I0403 18:35:40.597609  7149 net.cpp:148] Top shape: 24 64 14 14 (301056)
I0403 18:35:40.597625  7149 net.cpp:156] Memory required for data: 1134062880
I0403 18:35:40.597642  7149 layer_factory.hpp:77] Creating layer inception_4d/relu_5x5
I0403 18:35:40.597676  7149 net.cpp:91] Creating Layer inception_4d/relu_5x5
I0403 18:35:40.597693  7149 net.cpp:425] inception_4d/relu_5x5 <- inception_4d/5x5
I0403 18:35:40.597710  7149 net.cpp:386] inception_4d/relu_5x5 -> inception_4d/5x5 (in-place)
I0403 18:35:40.598001  7149 net.cpp:141] Setting up inception_4d/relu_5x5
I0403 18:35:40.598027  7149 net.cpp:148] Top shape: 24 64 14 14 (301056)
I0403 18:35:40.598042  7149 net.cpp:156] Memory required for data: 1135267104
I0403 18:35:40.598055  7149 layer_factory.hpp:77] Creating layer inception_4d/pool
I0403 18:35:40.598073  7149 net.cpp:91] Creating Layer inception_4d/pool
I0403 18:35:40.598088  7149 net.cpp:425] inception_4d/pool <- inception_4c/output_inception_4c/output_0_split_3
I0403 18:35:40.598109  7149 net.cpp:399] inception_4d/pool -> inception_4d/pool
I0403 18:35:40.598175  7149 net.cpp:141] Setting up inception_4d/pool
I0403 18:35:40.598197  7149 net.cpp:148] Top shape: 24 512 14 14 (2408448)
I0403 18:35:40.598217  7149 net.cpp:156] Memory required for data: 1144900896
I0403 18:35:40.598232  7149 layer_factory.hpp:77] Creating layer inception_4d/pool_proj
I0403 18:35:40.598255  7149 net.cpp:91] Creating Layer inception_4d/pool_proj
I0403 18:35:40.598273  7149 net.cpp:425] inception_4d/pool_proj <- inception_4d/pool
I0403 18:35:40.598290  7149 net.cpp:399] inception_4d/pool_proj -> inception_4d/pool_proj
I0403 18:35:40.600013  7149 net.cpp:141] Setting up inception_4d/pool_proj
I0403 18:35:40.600044  7149 net.cpp:148] Top shape: 24 64 14 14 (301056)
I0403 18:35:40.600059  7149 net.cpp:156] Memory required for data: 1146105120
I0403 18:35:40.600078  7149 layer_factory.hpp:77] Creating layer inception_4d/relu_pool_proj
I0403 18:35:40.600095  7149 net.cpp:91] Creating Layer inception_4d/relu_pool_proj
I0403 18:35:40.600111  7149 net.cpp:425] inception_4d/relu_pool_proj <- inception_4d/pool_proj
I0403 18:35:40.600127  7149 net.cpp:386] inception_4d/relu_pool_proj -> inception_4d/pool_proj (in-place)
I0403 18:35:40.600314  7149 net.cpp:141] Setting up inception_4d/relu_pool_proj
I0403 18:35:40.600339  7149 net.cpp:148] Top shape: 24 64 14 14 (301056)
I0403 18:35:40.600353  7149 net.cpp:156] Memory required for data: 1147309344
I0403 18:35:40.600368  7149 layer_factory.hpp:77] Creating layer inception_4d/output
I0403 18:35:40.600384  7149 net.cpp:91] Creating Layer inception_4d/output
I0403 18:35:40.600399  7149 net.cpp:425] inception_4d/output <- inception_4d/1x1
I0403 18:35:40.600415  7149 net.cpp:425] inception_4d/output <- inception_4d/3x3
I0403 18:35:40.600430  7149 net.cpp:425] inception_4d/output <- inception_4d/5x5
I0403 18:35:40.600445  7149 net.cpp:425] inception_4d/output <- inception_4d/pool_proj
I0403 18:35:40.600463  7149 net.cpp:399] inception_4d/output -> inception_4d/output
I0403 18:35:40.600509  7149 net.cpp:141] Setting up inception_4d/output
I0403 18:35:40.600534  7149 net.cpp:148] Top shape: 24 528 14 14 (2483712)
I0403 18:35:40.600549  7149 net.cpp:156] Memory required for data: 1157244192
I0403 18:35:40.600564  7149 layer_factory.hpp:77] Creating layer inception_4d/output_inception_4d/output_0_split
I0403 18:35:40.600579  7149 net.cpp:91] Creating Layer inception_4d/output_inception_4d/output_0_split
I0403 18:35:40.600594  7149 net.cpp:425] inception_4d/output_inception_4d/output_0_split <- inception_4d/output
I0403 18:35:40.600615  7149 net.cpp:399] inception_4d/output_inception_4d/output_0_split -> inception_4d/output_inception_4d/output_0_split_0
I0403 18:35:40.600636  7149 net.cpp:399] inception_4d/output_inception_4d/output_0_split -> inception_4d/output_inception_4d/output_0_split_1
I0403 18:35:40.600657  7149 net.cpp:399] inception_4d/output_inception_4d/output_0_split -> inception_4d/output_inception_4d/output_0_split_2
I0403 18:35:40.600677  7149 net.cpp:399] inception_4d/output_inception_4d/output_0_split -> inception_4d/output_inception_4d/output_0_split_3
I0403 18:35:40.600697  7149 net.cpp:399] inception_4d/output_inception_4d/output_0_split -> inception_4d/output_inception_4d/output_0_split_4
I0403 18:35:40.600796  7149 net.cpp:141] Setting up inception_4d/output_inception_4d/output_0_split
I0403 18:35:40.600831  7149 net.cpp:148] Top shape: 24 528 14 14 (2483712)
I0403 18:35:40.600847  7149 net.cpp:148] Top shape: 24 528 14 14 (2483712)
I0403 18:35:40.600862  7149 net.cpp:148] Top shape: 24 528 14 14 (2483712)
I0403 18:35:40.600878  7149 net.cpp:148] Top shape: 24 528 14 14 (2483712)
I0403 18:35:40.600893  7149 net.cpp:148] Top shape: 24 528 14 14 (2483712)
I0403 18:35:40.600905  7149 net.cpp:156] Memory required for data: 1206918432
I0403 18:35:40.600919  7149 layer_factory.hpp:77] Creating layer loss2/ave_pool
I0403 18:35:40.600939  7149 net.cpp:91] Creating Layer loss2/ave_pool
I0403 18:35:40.600955  7149 net.cpp:425] loss2/ave_pool <- inception_4d/output_inception_4d/output_0_split_0
I0403 18:35:40.600973  7149 net.cpp:399] loss2/ave_pool -> loss2/ave_pool
I0403 18:35:40.601280  7149 net.cpp:141] Setting up loss2/ave_pool
I0403 18:35:40.601308  7149 net.cpp:148] Top shape: 24 528 4 4 (202752)
I0403 18:35:40.601323  7149 net.cpp:156] Memory required for data: 1207729440
I0403 18:35:40.601338  7149 layer_factory.hpp:77] Creating layer loss2/conv
I0403 18:35:40.601363  7149 net.cpp:91] Creating Layer loss2/conv
I0403 18:35:40.601382  7149 net.cpp:425] loss2/conv <- loss2/ave_pool
I0403 18:35:40.601399  7149 net.cpp:399] loss2/conv -> loss2/conv
I0403 18:35:40.603261  7149 net.cpp:141] Setting up loss2/conv
I0403 18:35:40.603289  7149 net.cpp:148] Top shape: 24 128 4 4 (49152)
I0403 18:35:40.603305  7149 net.cpp:156] Memory required for data: 1207926048
I0403 18:35:40.603322  7149 layer_factory.hpp:77] Creating layer loss2/relu_conv
I0403 18:35:40.603343  7149 net.cpp:91] Creating Layer loss2/relu_conv
I0403 18:35:40.603360  7149 net.cpp:425] loss2/relu_conv <- loss2/conv
I0403 18:35:40.603376  7149 net.cpp:386] loss2/relu_conv -> loss2/conv (in-place)
I0403 18:35:40.603652  7149 net.cpp:141] Setting up loss2/relu_conv
I0403 18:35:40.603678  7149 net.cpp:148] Top shape: 24 128 4 4 (49152)
I0403 18:35:40.603693  7149 net.cpp:156] Memory required for data: 1208122656
I0403 18:35:40.603708  7149 layer_factory.hpp:77] Creating layer loss2/fc
I0403 18:35:40.603727  7149 net.cpp:91] Creating Layer loss2/fc
I0403 18:35:40.603745  7149 net.cpp:425] loss2/fc <- loss2/conv
I0403 18:35:40.603765  7149 net.cpp:399] loss2/fc -> loss2/fc
I0403 18:35:40.621373  7149 net.cpp:141] Setting up loss2/fc
I0403 18:35:40.621410  7149 net.cpp:148] Top shape: 24 1024 (24576)
I0403 18:35:40.621426  7149 net.cpp:156] Memory required for data: 1208220960
I0403 18:35:40.621448  7149 layer_factory.hpp:77] Creating layer loss2/relu_fc
I0403 18:35:40.621469  7149 net.cpp:91] Creating Layer loss2/relu_fc
I0403 18:35:40.621489  7149 net.cpp:425] loss2/relu_fc <- loss2/fc
I0403 18:35:40.621510  7149 net.cpp:386] loss2/relu_fc -> loss2/fc (in-place)
I0403 18:35:40.621832  7149 net.cpp:141] Setting up loss2/relu_fc
I0403 18:35:40.621862  7149 net.cpp:148] Top shape: 24 1024 (24576)
I0403 18:35:40.621879  7149 net.cpp:156] Memory required for data: 1208319264
I0403 18:35:40.621894  7149 layer_factory.hpp:77] Creating layer loss2/drop_fc
I0403 18:35:40.621913  7149 net.cpp:91] Creating Layer loss2/drop_fc
I0403 18:35:40.621930  7149 net.cpp:425] loss2/drop_fc <- loss2/fc
I0403 18:35:40.621951  7149 net.cpp:386] loss2/drop_fc -> loss2/fc (in-place)
I0403 18:35:40.622001  7149 net.cpp:141] Setting up loss2/drop_fc
I0403 18:35:40.622025  7149 net.cpp:148] Top shape: 24 1024 (24576)
I0403 18:35:40.622040  7149 net.cpp:156] Memory required for data: 1208417568
I0403 18:35:40.622054  7149 layer_factory.hpp:77] Creating layer loss2/classifier_plantvillage
I0403 18:35:40.622076  7149 net.cpp:91] Creating Layer loss2/classifier_plantvillage
I0403 18:35:40.622094  7149 net.cpp:425] loss2/classifier_plantvillage <- loss2/fc
I0403 18:35:40.622115  7149 net.cpp:399] loss2/classifier_plantvillage -> loss2/classifier_plantvillage
I0403 18:35:40.622536  7149 net.cpp:141] Setting up loss2/classifier_plantvillage
I0403 18:35:40.622563  7149 net.cpp:148] Top shape: 24 38 (912)
I0403 18:35:40.622598  7149 net.cpp:156] Memory required for data: 1208421216
I0403 18:35:40.622618  7149 layer_factory.hpp:77] Creating layer loss2/classifier_plantvillage_loss2/classifier_plantvillage_0_split
I0403 18:35:40.622640  7149 net.cpp:91] Creating Layer loss2/classifier_plantvillage_loss2/classifier_plantvillage_0_split
I0403 18:35:40.622658  7149 net.cpp:425] loss2/classifier_plantvillage_loss2/classifier_plantvillage_0_split <- loss2/classifier_plantvillage
I0403 18:35:40.622676  7149 net.cpp:399] loss2/classifier_plantvillage_loss2/classifier_plantvillage_0_split -> loss2/classifier_plantvillage_loss2/classifier_plantvillage_0_split_0
I0403 18:35:40.622697  7149 net.cpp:399] loss2/classifier_plantvillage_loss2/classifier_plantvillage_0_split -> loss2/classifier_plantvillage_loss2/classifier_plantvillage_0_split_1
I0403 18:35:40.622720  7149 net.cpp:399] loss2/classifier_plantvillage_loss2/classifier_plantvillage_0_split -> loss2/classifier_plantvillage_loss2/classifier_plantvillage_0_split_2
I0403 18:35:40.622800  7149 net.cpp:141] Setting up loss2/classifier_plantvillage_loss2/classifier_plantvillage_0_split
I0403 18:35:40.622825  7149 net.cpp:148] Top shape: 24 38 (912)
I0403 18:35:40.622843  7149 net.cpp:148] Top shape: 24 38 (912)
I0403 18:35:40.622858  7149 net.cpp:148] Top shape: 24 38 (912)
I0403 18:35:40.622872  7149 net.cpp:156] Memory required for data: 1208432160
I0403 18:35:40.622886  7149 layer_factory.hpp:77] Creating layer inception_4e/1x1
I0403 18:35:40.622907  7149 net.cpp:91] Creating Layer inception_4e/1x1
I0403 18:35:40.622925  7149 net.cpp:425] inception_4e/1x1 <- inception_4d/output_inception_4d/output_0_split_1
I0403 18:35:40.622947  7149 net.cpp:399] inception_4e/1x1 -> inception_4e/1x1
I0403 18:35:40.624853  7149 net.cpp:141] Setting up inception_4e/1x1
I0403 18:35:40.624884  7149 net.cpp:148] Top shape: 24 256 14 14 (1204224)
I0403 18:35:40.624900  7149 net.cpp:156] Memory required for data: 1213249056
I0403 18:35:40.624919  7149 layer_factory.hpp:77] Creating layer inception_4e/relu_1x1
I0403 18:35:40.624940  7149 net.cpp:91] Creating Layer inception_4e/relu_1x1
I0403 18:35:40.624958  7149 net.cpp:425] inception_4e/relu_1x1 <- inception_4e/1x1
I0403 18:35:40.624977  7149 net.cpp:386] inception_4e/relu_1x1 -> inception_4e/1x1 (in-place)
I0403 18:35:40.625286  7149 net.cpp:141] Setting up inception_4e/relu_1x1
I0403 18:35:40.625314  7149 net.cpp:148] Top shape: 24 256 14 14 (1204224)
I0403 18:35:40.625329  7149 net.cpp:156] Memory required for data: 1218065952
I0403 18:35:40.625345  7149 layer_factory.hpp:77] Creating layer inception_4e/3x3_reduce
I0403 18:35:40.625380  7149 net.cpp:91] Creating Layer inception_4e/3x3_reduce
I0403 18:35:40.625398  7149 net.cpp:425] inception_4e/3x3_reduce <- inception_4d/output_inception_4d/output_0_split_2
I0403 18:35:40.625421  7149 net.cpp:399] inception_4e/3x3_reduce -> inception_4e/3x3_reduce
I0403 18:35:40.627590  7149 net.cpp:141] Setting up inception_4e/3x3_reduce
I0403 18:35:40.627624  7149 net.cpp:148] Top shape: 24 160 14 14 (752640)
I0403 18:35:40.627640  7149 net.cpp:156] Memory required for data: 1221076512
I0403 18:35:40.627660  7149 layer_factory.hpp:77] Creating layer inception_4e/relu_3x3_reduce
I0403 18:35:40.627681  7149 net.cpp:91] Creating Layer inception_4e/relu_3x3_reduce
I0403 18:35:40.627702  7149 net.cpp:425] inception_4e/relu_3x3_reduce <- inception_4e/3x3_reduce
I0403 18:35:40.627720  7149 net.cpp:386] inception_4e/relu_3x3_reduce -> inception_4e/3x3_reduce (in-place)
I0403 18:35:40.627907  7149 net.cpp:141] Setting up inception_4e/relu_3x3_reduce
I0403 18:35:40.627933  7149 net.cpp:148] Top shape: 24 160 14 14 (752640)
I0403 18:35:40.627950  7149 net.cpp:156] Memory required for data: 1224087072
I0403 18:35:40.627967  7149 layer_factory.hpp:77] Creating layer inception_4e/3x3
I0403 18:35:40.627990  7149 net.cpp:91] Creating Layer inception_4e/3x3
I0403 18:35:40.628007  7149 net.cpp:425] inception_4e/3x3 <- inception_4e/3x3_reduce
I0403 18:35:40.628031  7149 net.cpp:399] inception_4e/3x3 -> inception_4e/3x3
I0403 18:35:40.633085  7149 net.cpp:141] Setting up inception_4e/3x3
I0403 18:35:40.633131  7149 net.cpp:148] Top shape: 24 320 14 14 (1505280)
I0403 18:35:40.633150  7149 net.cpp:156] Memory required for data: 1230108192
I0403 18:35:40.633172  7149 layer_factory.hpp:77] Creating layer inception_4e/relu_3x3
I0403 18:35:40.633193  7149 net.cpp:91] Creating Layer inception_4e/relu_3x3
I0403 18:35:40.633215  7149 net.cpp:425] inception_4e/relu_3x3 <- inception_4e/3x3
I0403 18:35:40.633236  7149 net.cpp:386] inception_4e/relu_3x3 -> inception_4e/3x3 (in-place)
I0403 18:35:40.633536  7149 net.cpp:141] Setting up inception_4e/relu_3x3
I0403 18:35:40.633568  7149 net.cpp:148] Top shape: 24 320 14 14 (1505280)
I0403 18:35:40.633586  7149 net.cpp:156] Memory required for data: 1236129312
I0403 18:35:40.633602  7149 layer_factory.hpp:77] Creating layer inception_4e/5x5_reduce
I0403 18:35:40.633627  7149 net.cpp:91] Creating Layer inception_4e/5x5_reduce
I0403 18:35:40.633646  7149 net.cpp:425] inception_4e/5x5_reduce <- inception_4d/output_inception_4d/output_0_split_3
I0403 18:35:40.633667  7149 net.cpp:399] inception_4e/5x5_reduce -> inception_4e/5x5_reduce
I0403 18:35:40.634752  7149 net.cpp:141] Setting up inception_4e/5x5_reduce
I0403 18:35:40.634781  7149 net.cpp:148] Top shape: 24 32 14 14 (150528)
I0403 18:35:40.634799  7149 net.cpp:156] Memory required for data: 1236731424
I0403 18:35:40.634819  7149 layer_factory.hpp:77] Creating layer inception_4e/relu_5x5_reduce
I0403 18:35:40.634836  7149 net.cpp:91] Creating Layer inception_4e/relu_5x5_reduce
I0403 18:35:40.634853  7149 net.cpp:425] inception_4e/relu_5x5_reduce <- inception_4e/5x5_reduce
I0403 18:35:40.634876  7149 net.cpp:386] inception_4e/relu_5x5_reduce -> inception_4e/5x5_reduce (in-place)
I0403 18:35:40.635184  7149 net.cpp:141] Setting up inception_4e/relu_5x5_reduce
I0403 18:35:40.635215  7149 net.cpp:148] Top shape: 24 32 14 14 (150528)
I0403 18:35:40.635232  7149 net.cpp:156] Memory required for data: 1237333536
I0403 18:35:40.635247  7149 layer_factory.hpp:77] Creating layer inception_4e/5x5
I0403 18:35:40.635288  7149 net.cpp:91] Creating Layer inception_4e/5x5
I0403 18:35:40.635308  7149 net.cpp:425] inception_4e/5x5 <- inception_4e/5x5_reduce
I0403 18:35:40.635329  7149 net.cpp:399] inception_4e/5x5 -> inception_4e/5x5
I0403 18:35:40.637189  7149 net.cpp:141] Setting up inception_4e/5x5
I0403 18:35:40.637224  7149 net.cpp:148] Top shape: 24 128 14 14 (602112)
I0403 18:35:40.637244  7149 net.cpp:156] Memory required for data: 1239741984
I0403 18:35:40.637264  7149 layer_factory.hpp:77] Creating layer inception_4e/relu_5x5
I0403 18:35:40.637284  7149 net.cpp:91] Creating Layer inception_4e/relu_5x5
I0403 18:35:40.637302  7149 net.cpp:425] inception_4e/relu_5x5 <- inception_4e/5x5
I0403 18:35:40.637326  7149 net.cpp:386] inception_4e/relu_5x5 -> inception_4e/5x5 (in-place)
I0403 18:35:40.637526  7149 net.cpp:141] Setting up inception_4e/relu_5x5
I0403 18:35:40.637552  7149 net.cpp:148] Top shape: 24 128 14 14 (602112)
I0403 18:35:40.637567  7149 net.cpp:156] Memory required for data: 1242150432
I0403 18:35:40.637583  7149 layer_factory.hpp:77] Creating layer inception_4e/pool
I0403 18:35:40.637604  7149 net.cpp:91] Creating Layer inception_4e/pool
I0403 18:35:40.637622  7149 net.cpp:425] inception_4e/pool <- inception_4d/output_inception_4d/output_0_split_4
I0403 18:35:40.637640  7149 net.cpp:399] inception_4e/pool -> inception_4e/pool
I0403 18:35:40.637712  7149 net.cpp:141] Setting up inception_4e/pool
I0403 18:35:40.637737  7149 net.cpp:148] Top shape: 24 528 14 14 (2483712)
I0403 18:35:40.637753  7149 net.cpp:156] Memory required for data: 1252085280
I0403 18:35:40.637768  7149 layer_factory.hpp:77] Creating layer inception_4e/pool_proj
I0403 18:35:40.637790  7149 net.cpp:91] Creating Layer inception_4e/pool_proj
I0403 18:35:40.637809  7149 net.cpp:425] inception_4e/pool_proj <- inception_4e/pool
I0403 18:35:40.637831  7149 net.cpp:399] inception_4e/pool_proj -> inception_4e/pool_proj
I0403 18:35:40.639371  7149 net.cpp:141] Setting up inception_4e/pool_proj
I0403 18:35:40.639415  7149 net.cpp:148] Top shape: 24 128 14 14 (602112)
I0403 18:35:40.639436  7149 net.cpp:156] Memory required for data: 1254493728
I0403 18:35:40.639456  7149 layer_factory.hpp:77] Creating layer inception_4e/relu_pool_proj
I0403 18:35:40.639475  7149 net.cpp:91] Creating Layer inception_4e/relu_pool_proj
I0403 18:35:40.639494  7149 net.cpp:425] inception_4e/relu_pool_proj <- inception_4e/pool_proj
I0403 18:35:40.639515  7149 net.cpp:386] inception_4e/relu_pool_proj -> inception_4e/pool_proj (in-place)
I0403 18:35:40.639809  7149 net.cpp:141] Setting up inception_4e/relu_pool_proj
I0403 18:35:40.639842  7149 net.cpp:148] Top shape: 24 128 14 14 (602112)
I0403 18:35:40.639858  7149 net.cpp:156] Memory required for data: 1256902176
I0403 18:35:40.639875  7149 layer_factory.hpp:77] Creating layer inception_4e/output
I0403 18:35:40.639895  7149 net.cpp:91] Creating Layer inception_4e/output
I0403 18:35:40.639912  7149 net.cpp:425] inception_4e/output <- inception_4e/1x1
I0403 18:35:40.639930  7149 net.cpp:425] inception_4e/output <- inception_4e/3x3
I0403 18:35:40.639946  7149 net.cpp:425] inception_4e/output <- inception_4e/5x5
I0403 18:35:40.639963  7149 net.cpp:425] inception_4e/output <- inception_4e/pool_proj
I0403 18:35:40.639982  7149 net.cpp:399] inception_4e/output -> inception_4e/output
I0403 18:35:40.640036  7149 net.cpp:141] Setting up inception_4e/output
I0403 18:35:40.640063  7149 net.cpp:148] Top shape: 24 832 14 14 (3913728)
I0403 18:35:40.640079  7149 net.cpp:156] Memory required for data: 1272557088
I0403 18:35:40.640094  7149 layer_factory.hpp:77] Creating layer pool4/3x3_s2
I0403 18:35:40.640115  7149 net.cpp:91] Creating Layer pool4/3x3_s2
I0403 18:35:40.640132  7149 net.cpp:425] pool4/3x3_s2 <- inception_4e/output
I0403 18:35:40.640152  7149 net.cpp:399] pool4/3x3_s2 -> pool4/3x3_s2
I0403 18:35:40.640228  7149 net.cpp:141] Setting up pool4/3x3_s2
I0403 18:35:40.640254  7149 net.cpp:148] Top shape: 24 832 7 7 (978432)
I0403 18:35:40.640269  7149 net.cpp:156] Memory required for data: 1276470816
I0403 18:35:40.640283  7149 layer_factory.hpp:77] Creating layer pool4/3x3_s2_pool4/3x3_s2_0_split
I0403 18:35:40.640302  7149 net.cpp:91] Creating Layer pool4/3x3_s2_pool4/3x3_s2_0_split
I0403 18:35:40.640318  7149 net.cpp:425] pool4/3x3_s2_pool4/3x3_s2_0_split <- pool4/3x3_s2
I0403 18:35:40.640338  7149 net.cpp:399] pool4/3x3_s2_pool4/3x3_s2_0_split -> pool4/3x3_s2_pool4/3x3_s2_0_split_0
I0403 18:35:40.640360  7149 net.cpp:399] pool4/3x3_s2_pool4/3x3_s2_0_split -> pool4/3x3_s2_pool4/3x3_s2_0_split_1
I0403 18:35:40.640380  7149 net.cpp:399] pool4/3x3_s2_pool4/3x3_s2_0_split -> pool4/3x3_s2_pool4/3x3_s2_0_split_2
I0403 18:35:40.640401  7149 net.cpp:399] pool4/3x3_s2_pool4/3x3_s2_0_split -> pool4/3x3_s2_pool4/3x3_s2_0_split_3
I0403 18:35:40.640496  7149 net.cpp:141] Setting up pool4/3x3_s2_pool4/3x3_s2_0_split
I0403 18:35:40.640522  7149 net.cpp:148] Top shape: 24 832 7 7 (978432)
I0403 18:35:40.640540  7149 net.cpp:148] Top shape: 24 832 7 7 (978432)
I0403 18:35:40.640558  7149 net.cpp:148] Top shape: 24 832 7 7 (978432)
I0403 18:35:40.640573  7149 net.cpp:148] Top shape: 24 832 7 7 (978432)
I0403 18:35:40.640588  7149 net.cpp:156] Memory required for data: 1292125728
I0403 18:35:40.640601  7149 layer_factory.hpp:77] Creating layer inception_5a/1x1
I0403 18:35:40.640625  7149 net.cpp:91] Creating Layer inception_5a/1x1
I0403 18:35:40.640643  7149 net.cpp:425] inception_5a/1x1 <- pool4/3x3_s2_pool4/3x3_s2_0_split_0
I0403 18:35:40.640663  7149 net.cpp:399] inception_5a/1x1 -> inception_5a/1x1
I0403 18:35:40.643579  7149 net.cpp:141] Setting up inception_5a/1x1
I0403 18:35:40.643611  7149 net.cpp:148] Top shape: 24 256 7 7 (301056)
I0403 18:35:40.643627  7149 net.cpp:156] Memory required for data: 1293329952
I0403 18:35:40.643646  7149 layer_factory.hpp:77] Creating layer inception_5a/relu_1x1
I0403 18:35:40.643663  7149 net.cpp:91] Creating Layer inception_5a/relu_1x1
I0403 18:35:40.643682  7149 net.cpp:425] inception_5a/relu_1x1 <- inception_5a/1x1
I0403 18:35:40.643702  7149 net.cpp:386] inception_5a/relu_1x1 -> inception_5a/1x1 (in-place)
I0403 18:35:40.644016  7149 net.cpp:141] Setting up inception_5a/relu_1x1
I0403 18:35:40.644042  7149 net.cpp:148] Top shape: 24 256 7 7 (301056)
I0403 18:35:40.644058  7149 net.cpp:156] Memory required for data: 1294534176
I0403 18:35:40.644074  7149 layer_factory.hpp:77] Creating layer inception_5a/3x3_reduce
I0403 18:35:40.644100  7149 net.cpp:91] Creating Layer inception_5a/3x3_reduce
I0403 18:35:40.644119  7149 net.cpp:425] inception_5a/3x3_reduce <- pool4/3x3_s2_pool4/3x3_s2_0_split_1
I0403 18:35:40.644141  7149 net.cpp:399] inception_5a/3x3_reduce -> inception_5a/3x3_reduce
I0403 18:35:40.646620  7149 net.cpp:141] Setting up inception_5a/3x3_reduce
I0403 18:35:40.646652  7149 net.cpp:148] Top shape: 24 160 7 7 (188160)
I0403 18:35:40.646672  7149 net.cpp:156] Memory required for data: 1295286816
I0403 18:35:40.646690  7149 layer_factory.hpp:77] Creating layer inception_5a/relu_3x3_reduce
I0403 18:35:40.646709  7149 net.cpp:91] Creating Layer inception_5a/relu_3x3_reduce
I0403 18:35:40.646725  7149 net.cpp:425] inception_5a/relu_3x3_reduce <- inception_5a/3x3_reduce
I0403 18:35:40.646744  7149 net.cpp:386] inception_5a/relu_3x3_reduce -> inception_5a/3x3_reduce (in-place)
I0403 18:35:40.646934  7149 net.cpp:141] Setting up inception_5a/relu_3x3_reduce
I0403 18:35:40.646962  7149 net.cpp:148] Top shape: 24 160 7 7 (188160)
I0403 18:35:40.646978  7149 net.cpp:156] Memory required for data: 1296039456
I0403 18:35:40.646993  7149 layer_factory.hpp:77] Creating layer inception_5a/3x3
I0403 18:35:40.647014  7149 net.cpp:91] Creating Layer inception_5a/3x3
I0403 18:35:40.647032  7149 net.cpp:425] inception_5a/3x3 <- inception_5a/3x3_reduce
I0403 18:35:40.647055  7149 net.cpp:399] inception_5a/3x3 -> inception_5a/3x3
I0403 18:35:40.652123  7149 net.cpp:141] Setting up inception_5a/3x3
I0403 18:35:40.652155  7149 net.cpp:148] Top shape: 24 320 7 7 (376320)
I0403 18:35:40.652173  7149 net.cpp:156] Memory required for data: 1297544736
I0403 18:35:40.652194  7149 layer_factory.hpp:77] Creating layer inception_5a/relu_3x3
I0403 18:35:40.652221  7149 net.cpp:91] Creating Layer inception_5a/relu_3x3
I0403 18:35:40.652242  7149 net.cpp:425] inception_5a/relu_3x3 <- inception_5a/3x3
I0403 18:35:40.652266  7149 net.cpp:386] inception_5a/relu_3x3 -> inception_5a/3x3 (in-place)
I0403 18:35:40.652565  7149 net.cpp:141] Setting up inception_5a/relu_3x3
I0403 18:35:40.652593  7149 net.cpp:148] Top shape: 24 320 7 7 (376320)
I0403 18:35:40.652609  7149 net.cpp:156] Memory required for data: 1299050016
I0403 18:35:40.652626  7149 layer_factory.hpp:77] Creating layer inception_5a/5x5_reduce
I0403 18:35:40.652648  7149 net.cpp:91] Creating Layer inception_5a/5x5_reduce
I0403 18:35:40.652667  7149 net.cpp:425] inception_5a/5x5_reduce <- pool4/3x3_s2_pool4/3x3_s2_0_split_2
I0403 18:35:40.652689  7149 net.cpp:399] inception_5a/5x5_reduce -> inception_5a/5x5_reduce
I0403 18:35:40.653877  7149 net.cpp:141] Setting up inception_5a/5x5_reduce
I0403 18:35:40.653908  7149 net.cpp:148] Top shape: 24 32 7 7 (37632)
I0403 18:35:40.653924  7149 net.cpp:156] Memory required for data: 1299200544
I0403 18:35:40.653944  7149 layer_factory.hpp:77] Creating layer inception_5a/relu_5x5_reduce
I0403 18:35:40.653965  7149 net.cpp:91] Creating Layer inception_5a/relu_5x5_reduce
I0403 18:35:40.653985  7149 net.cpp:425] inception_5a/relu_5x5_reduce <- inception_5a/5x5_reduce
I0403 18:35:40.654003  7149 net.cpp:386] inception_5a/relu_5x5_reduce -> inception_5a/5x5_reduce (in-place)
I0403 18:35:40.654314  7149 net.cpp:141] Setting up inception_5a/relu_5x5_reduce
I0403 18:35:40.654340  7149 net.cpp:148] Top shape: 24 32 7 7 (37632)
I0403 18:35:40.654356  7149 net.cpp:156] Memory required for data: 1299351072
I0403 18:35:40.654373  7149 layer_factory.hpp:77] Creating layer inception_5a/5x5
I0403 18:35:40.654397  7149 net.cpp:91] Creating Layer inception_5a/5x5
I0403 18:35:40.654415  7149 net.cpp:425] inception_5a/5x5 <- inception_5a/5x5_reduce
I0403 18:35:40.654438  7149 net.cpp:399] inception_5a/5x5 -> inception_5a/5x5
I0403 18:35:40.656175  7149 net.cpp:141] Setting up inception_5a/5x5
I0403 18:35:40.656221  7149 net.cpp:148] Top shape: 24 128 7 7 (150528)
I0403 18:35:40.656241  7149 net.cpp:156] Memory required for data: 1299953184
I0403 18:35:40.656260  7149 layer_factory.hpp:77] Creating layer inception_5a/relu_5x5
I0403 18:35:40.656278  7149 net.cpp:91] Creating Layer inception_5a/relu_5x5
I0403 18:35:40.656296  7149 net.cpp:425] inception_5a/relu_5x5 <- inception_5a/5x5
I0403 18:35:40.656314  7149 net.cpp:386] inception_5a/relu_5x5 -> inception_5a/5x5 (in-place)
I0403 18:35:40.656502  7149 net.cpp:141] Setting up inception_5a/relu_5x5
I0403 18:35:40.656527  7149 net.cpp:148] Top shape: 24 128 7 7 (150528)
I0403 18:35:40.656543  7149 net.cpp:156] Memory required for data: 1300555296
I0403 18:35:40.656558  7149 layer_factory.hpp:77] Creating layer inception_5a/pool
I0403 18:35:40.656576  7149 net.cpp:91] Creating Layer inception_5a/pool
I0403 18:35:40.656592  7149 net.cpp:425] inception_5a/pool <- pool4/3x3_s2_pool4/3x3_s2_0_split_3
I0403 18:35:40.656610  7149 net.cpp:399] inception_5a/pool -> inception_5a/pool
I0403 18:35:40.656682  7149 net.cpp:141] Setting up inception_5a/pool
I0403 18:35:40.656705  7149 net.cpp:148] Top shape: 24 832 7 7 (978432)
I0403 18:35:40.656719  7149 net.cpp:156] Memory required for data: 1304469024
I0403 18:35:40.656733  7149 layer_factory.hpp:77] Creating layer inception_5a/pool_proj
I0403 18:35:40.656755  7149 net.cpp:91] Creating Layer inception_5a/pool_proj
I0403 18:35:40.656772  7149 net.cpp:425] inception_5a/pool_proj <- inception_5a/pool
I0403 18:35:40.656793  7149 net.cpp:399] inception_5a/pool_proj -> inception_5a/pool_proj
I0403 18:35:40.659023  7149 net.cpp:141] Setting up inception_5a/pool_proj
I0403 18:35:40.659054  7149 net.cpp:148] Top shape: 24 128 7 7 (150528)
I0403 18:35:40.659075  7149 net.cpp:156] Memory required for data: 1305071136
I0403 18:35:40.659096  7149 layer_factory.hpp:77] Creating layer inception_5a/relu_pool_proj
I0403 18:35:40.659112  7149 net.cpp:91] Creating Layer inception_5a/relu_pool_proj
I0403 18:35:40.659127  7149 net.cpp:425] inception_5a/relu_pool_proj <- inception_5a/pool_proj
I0403 18:35:40.659147  7149 net.cpp:386] inception_5a/relu_pool_proj -> inception_5a/pool_proj (in-place)
I0403 18:35:40.659440  7149 net.cpp:141] Setting up inception_5a/relu_pool_proj
I0403 18:35:40.659467  7149 net.cpp:148] Top shape: 24 128 7 7 (150528)
I0403 18:35:40.659483  7149 net.cpp:156] Memory required for data: 1305673248
I0403 18:35:40.659498  7149 layer_factory.hpp:77] Creating layer inception_5a/output
I0403 18:35:40.659515  7149 net.cpp:91] Creating Layer inception_5a/output
I0403 18:35:40.659530  7149 net.cpp:425] inception_5a/output <- inception_5a/1x1
I0403 18:35:40.659546  7149 net.cpp:425] inception_5a/output <- inception_5a/3x3
I0403 18:35:40.659562  7149 net.cpp:425] inception_5a/output <- inception_5a/5x5
I0403 18:35:40.659579  7149 net.cpp:425] inception_5a/output <- inception_5a/pool_proj
I0403 18:35:40.659597  7149 net.cpp:399] inception_5a/output -> inception_5a/output
I0403 18:35:40.659646  7149 net.cpp:141] Setting up inception_5a/output
I0403 18:35:40.659669  7149 net.cpp:148] Top shape: 24 832 7 7 (978432)
I0403 18:35:40.659683  7149 net.cpp:156] Memory required for data: 1309586976
I0403 18:35:40.659698  7149 layer_factory.hpp:77] Creating layer inception_5a/output_inception_5a/output_0_split
I0403 18:35:40.659718  7149 net.cpp:91] Creating Layer inception_5a/output_inception_5a/output_0_split
I0403 18:35:40.659734  7149 net.cpp:425] inception_5a/output_inception_5a/output_0_split <- inception_5a/output
I0403 18:35:40.659751  7149 net.cpp:399] inception_5a/output_inception_5a/output_0_split -> inception_5a/output_inception_5a/output_0_split_0
I0403 18:35:40.659770  7149 net.cpp:399] inception_5a/output_inception_5a/output_0_split -> inception_5a/output_inception_5a/output_0_split_1
I0403 18:35:40.659790  7149 net.cpp:399] inception_5a/output_inception_5a/output_0_split -> inception_5a/output_inception_5a/output_0_split_2
I0403 18:35:40.659814  7149 net.cpp:399] inception_5a/output_inception_5a/output_0_split -> inception_5a/output_inception_5a/output_0_split_3
I0403 18:35:40.659924  7149 net.cpp:141] Setting up inception_5a/output_inception_5a/output_0_split
I0403 18:35:40.659947  7149 net.cpp:148] Top shape: 24 832 7 7 (978432)
I0403 18:35:40.659963  7149 net.cpp:148] Top shape: 24 832 7 7 (978432)
I0403 18:35:40.659978  7149 net.cpp:148] Top shape: 24 832 7 7 (978432)
I0403 18:35:40.659992  7149 net.cpp:148] Top shape: 24 832 7 7 (978432)
I0403 18:35:40.660006  7149 net.cpp:156] Memory required for data: 1325241888
I0403 18:35:40.660019  7149 layer_factory.hpp:77] Creating layer inception_5b/1x1
I0403 18:35:40.660042  7149 net.cpp:91] Creating Layer inception_5b/1x1
I0403 18:35:40.660059  7149 net.cpp:425] inception_5b/1x1 <- inception_5a/output_inception_5a/output_0_split_0
I0403 18:35:40.660079  7149 net.cpp:399] inception_5b/1x1 -> inception_5b/1x1
I0403 18:35:40.663805  7149 net.cpp:141] Setting up inception_5b/1x1
I0403 18:35:40.663839  7149 net.cpp:148] Top shape: 24 384 7 7 (451584)
I0403 18:35:40.663857  7149 net.cpp:156] Memory required for data: 1327048224
I0403 18:35:40.663877  7149 layer_factory.hpp:77] Creating layer inception_5b/relu_1x1
I0403 18:35:40.663895  7149 net.cpp:91] Creating Layer inception_5b/relu_1x1
I0403 18:35:40.663911  7149 net.cpp:425] inception_5b/relu_1x1 <- inception_5b/1x1
I0403 18:35:40.663928  7149 net.cpp:386] inception_5b/relu_1x1 -> inception_5b/1x1 (in-place)
I0403 18:35:40.664237  7149 net.cpp:141] Setting up inception_5b/relu_1x1
I0403 18:35:40.664266  7149 net.cpp:148] Top shape: 24 384 7 7 (451584)
I0403 18:35:40.664283  7149 net.cpp:156] Memory required for data: 1328854560
I0403 18:35:40.664299  7149 layer_factory.hpp:77] Creating layer inception_5b/3x3_reduce
I0403 18:35:40.664321  7149 net.cpp:91] Creating Layer inception_5b/3x3_reduce
I0403 18:35:40.664340  7149 net.cpp:425] inception_5b/3x3_reduce <- inception_5a/output_inception_5a/output_0_split_1
I0403 18:35:40.664360  7149 net.cpp:399] inception_5b/3x3_reduce -> inception_5b/3x3_reduce
I0403 18:35:40.667075  7149 net.cpp:141] Setting up inception_5b/3x3_reduce
I0403 18:35:40.667109  7149 net.cpp:148] Top shape: 24 192 7 7 (225792)
I0403 18:35:40.667127  7149 net.cpp:156] Memory required for data: 1329757728
I0403 18:35:40.667147  7149 layer_factory.hpp:77] Creating layer inception_5b/relu_3x3_reduce
I0403 18:35:40.667166  7149 net.cpp:91] Creating Layer inception_5b/relu_3x3_reduce
I0403 18:35:40.667183  7149 net.cpp:425] inception_5b/relu_3x3_reduce <- inception_5b/3x3_reduce
I0403 18:35:40.667204  7149 net.cpp:386] inception_5b/relu_3x3_reduce -> inception_5b/3x3_reduce (in-place)
I0403 18:35:40.667399  7149 net.cpp:141] Setting up inception_5b/relu_3x3_reduce
I0403 18:35:40.667425  7149 net.cpp:148] Top shape: 24 192 7 7 (225792)
I0403 18:35:40.667439  7149 net.cpp:156] Memory required for data: 1330660896
I0403 18:35:40.667454  7149 layer_factory.hpp:77] Creating layer inception_5b/3x3
I0403 18:35:40.667477  7149 net.cpp:91] Creating Layer inception_5b/3x3
I0403 18:35:40.667495  7149 net.cpp:425] inception_5b/3x3 <- inception_5b/3x3_reduce
I0403 18:35:40.667517  7149 net.cpp:399] inception_5b/3x3 -> inception_5b/3x3
I0403 18:35:40.674154  7149 net.cpp:141] Setting up inception_5b/3x3
I0403 18:35:40.674187  7149 net.cpp:148] Top shape: 24 384 7 7 (451584)
I0403 18:35:40.674206  7149 net.cpp:156] Memory required for data: 1332467232
I0403 18:35:40.674231  7149 layer_factory.hpp:77] Creating layer inception_5b/relu_3x3
I0403 18:35:40.674252  7149 net.cpp:91] Creating Layer inception_5b/relu_3x3
I0403 18:35:40.674269  7149 net.cpp:425] inception_5b/relu_3x3 <- inception_5b/3x3
I0403 18:35:40.674290  7149 net.cpp:386] inception_5b/relu_3x3 -> inception_5b/3x3 (in-place)
I0403 18:35:40.674583  7149 net.cpp:141] Setting up inception_5b/relu_3x3
I0403 18:35:40.674614  7149 net.cpp:148] Top shape: 24 384 7 7 (451584)
I0403 18:35:40.674631  7149 net.cpp:156] Memory required for data: 1334273568
I0403 18:35:40.674645  7149 layer_factory.hpp:77] Creating layer inception_5b/5x5_reduce
I0403 18:35:40.674685  7149 net.cpp:91] Creating Layer inception_5b/5x5_reduce
I0403 18:35:40.674706  7149 net.cpp:425] inception_5b/5x5_reduce <- inception_5a/output_inception_5a/output_0_split_2
I0403 18:35:40.674726  7149 net.cpp:399] inception_5b/5x5_reduce -> inception_5b/5x5_reduce
I0403 18:35:40.675976  7149 net.cpp:141] Setting up inception_5b/5x5_reduce
I0403 18:35:40.676007  7149 net.cpp:148] Top shape: 24 48 7 7 (56448)
I0403 18:35:40.676025  7149 net.cpp:156] Memory required for data: 1334499360
I0403 18:35:40.676044  7149 layer_factory.hpp:77] Creating layer inception_5b/relu_5x5_reduce
I0403 18:35:40.676064  7149 net.cpp:91] Creating Layer inception_5b/relu_5x5_reduce
I0403 18:35:40.676082  7149 net.cpp:425] inception_5b/relu_5x5_reduce <- inception_5b/5x5_reduce
I0403 18:35:40.676103  7149 net.cpp:386] inception_5b/relu_5x5_reduce -> inception_5b/5x5_reduce (in-place)
I0403 18:35:40.676481  7149 net.cpp:141] Setting up inception_5b/relu_5x5_reduce
I0403 18:35:40.676507  7149 net.cpp:148] Top shape: 24 48 7 7 (56448)
I0403 18:35:40.676522  7149 net.cpp:156] Memory required for data: 1334725152
I0403 18:35:40.676537  7149 layer_factory.hpp:77] Creating layer inception_5b/5x5
I0403 18:35:40.676558  7149 net.cpp:91] Creating Layer inception_5b/5x5
I0403 18:35:40.676574  7149 net.cpp:425] inception_5b/5x5 <- inception_5b/5x5_reduce
I0403 18:35:40.676592  7149 net.cpp:399] inception_5b/5x5 -> inception_5b/5x5
I0403 18:35:40.678603  7149 net.cpp:141] Setting up inception_5b/5x5
I0403 18:35:40.678633  7149 net.cpp:148] Top shape: 24 128 7 7 (150528)
I0403 18:35:40.678649  7149 net.cpp:156] Memory required for data: 1335327264
I0403 18:35:40.678668  7149 layer_factory.hpp:77] Creating layer inception_5b/relu_5x5
I0403 18:35:40.678688  7149 net.cpp:91] Creating Layer inception_5b/relu_5x5
I0403 18:35:40.678738  7149 net.cpp:425] inception_5b/relu_5x5 <- inception_5b/5x5
I0403 18:35:40.678758  7149 net.cpp:386] inception_5b/relu_5x5 -> inception_5b/5x5 (in-place)
I0403 18:35:40.678956  7149 net.cpp:141] Setting up inception_5b/relu_5x5
I0403 18:35:40.678992  7149 net.cpp:148] Top shape: 24 128 7 7 (150528)
I0403 18:35:40.679008  7149 net.cpp:156] Memory required for data: 1335929376
I0403 18:35:40.679024  7149 layer_factory.hpp:77] Creating layer inception_5b/pool
I0403 18:35:40.679044  7149 net.cpp:91] Creating Layer inception_5b/pool
I0403 18:35:40.679062  7149 net.cpp:425] inception_5b/pool <- inception_5a/output_inception_5a/output_0_split_3
I0403 18:35:40.679080  7149 net.cpp:399] inception_5b/pool -> inception_5b/pool
I0403 18:35:40.679155  7149 net.cpp:141] Setting up inception_5b/pool
I0403 18:35:40.679179  7149 net.cpp:148] Top shape: 24 832 7 7 (978432)
I0403 18:35:40.679193  7149 net.cpp:156] Memory required for data: 1339843104
I0403 18:35:40.679214  7149 layer_factory.hpp:77] Creating layer inception_5b/pool_proj
I0403 18:35:40.679237  7149 net.cpp:91] Creating Layer inception_5b/pool_proj
I0403 18:35:40.679256  7149 net.cpp:425] inception_5b/pool_proj <- inception_5b/pool
I0403 18:35:40.679276  7149 net.cpp:399] inception_5b/pool_proj -> inception_5b/pool_proj
I0403 18:35:40.681565  7149 net.cpp:141] Setting up inception_5b/pool_proj
I0403 18:35:40.681596  7149 net.cpp:148] Top shape: 24 128 7 7 (150528)
I0403 18:35:40.681614  7149 net.cpp:156] Memory required for data: 1340445216
I0403 18:35:40.681632  7149 layer_factory.hpp:77] Creating layer inception_5b/relu_pool_proj
I0403 18:35:40.681651  7149 net.cpp:91] Creating Layer inception_5b/relu_pool_proj
I0403 18:35:40.681668  7149 net.cpp:425] inception_5b/relu_pool_proj <- inception_5b/pool_proj
I0403 18:35:40.681687  7149 net.cpp:386] inception_5b/relu_pool_proj -> inception_5b/pool_proj (in-place)
I0403 18:35:40.681982  7149 net.cpp:141] Setting up inception_5b/relu_pool_proj
I0403 18:35:40.682009  7149 net.cpp:148] Top shape: 24 128 7 7 (150528)
I0403 18:35:40.682024  7149 net.cpp:156] Memory required for data: 1341047328
I0403 18:35:40.682039  7149 layer_factory.hpp:77] Creating layer inception_5b/output
I0403 18:35:40.682056  7149 net.cpp:91] Creating Layer inception_5b/output
I0403 18:35:40.682086  7149 net.cpp:425] inception_5b/output <- inception_5b/1x1
I0403 18:35:40.682104  7149 net.cpp:425] inception_5b/output <- inception_5b/3x3
I0403 18:35:40.682121  7149 net.cpp:425] inception_5b/output <- inception_5b/5x5
I0403 18:35:40.682137  7149 net.cpp:425] inception_5b/output <- inception_5b/pool_proj
I0403 18:35:40.682157  7149 net.cpp:399] inception_5b/output -> inception_5b/output
I0403 18:35:40.682219  7149 net.cpp:141] Setting up inception_5b/output
I0403 18:35:40.682243  7149 net.cpp:148] Top shape: 24 1024 7 7 (1204224)
I0403 18:35:40.682262  7149 net.cpp:156] Memory required for data: 1345864224
I0403 18:35:40.682277  7149 layer_factory.hpp:77] Creating layer pool5/7x7_s1
I0403 18:35:40.682296  7149 net.cpp:91] Creating Layer pool5/7x7_s1
I0403 18:35:40.682312  7149 net.cpp:425] pool5/7x7_s1 <- inception_5b/output
I0403 18:35:40.682329  7149 net.cpp:399] pool5/7x7_s1 -> pool5/7x7_s1
I0403 18:35:40.682544  7149 net.cpp:141] Setting up pool5/7x7_s1
I0403 18:35:40.682569  7149 net.cpp:148] Top shape: 24 1024 1 1 (24576)
I0403 18:35:40.682585  7149 net.cpp:156] Memory required for data: 1345962528
I0403 18:35:40.682600  7149 layer_factory.hpp:77] Creating layer pool5/drop_7x7_s1
I0403 18:35:40.682618  7149 net.cpp:91] Creating Layer pool5/drop_7x7_s1
I0403 18:35:40.682636  7149 net.cpp:425] pool5/drop_7x7_s1 <- pool5/7x7_s1
I0403 18:35:40.682654  7149 net.cpp:386] pool5/drop_7x7_s1 -> pool5/7x7_s1 (in-place)
I0403 18:35:40.682704  7149 net.cpp:141] Setting up pool5/drop_7x7_s1
I0403 18:35:40.682729  7149 net.cpp:148] Top shape: 24 1024 1 1 (24576)
I0403 18:35:40.682746  7149 net.cpp:156] Memory required for data: 1346060832
I0403 18:35:40.682762  7149 layer_factory.hpp:77] Creating layer loss3/classifier_plantvillage
I0403 18:35:40.682781  7149 net.cpp:91] Creating Layer loss3/classifier_plantvillage
I0403 18:35:40.682797  7149 net.cpp:425] loss3/classifier_plantvillage <- pool5/7x7_s1
I0403 18:35:40.682818  7149 net.cpp:399] loss3/classifier_plantvillage -> loss3/classifier_plantvillage
I0403 18:35:40.683243  7149 net.cpp:141] Setting up loss3/classifier_plantvillage
I0403 18:35:40.683267  7149 net.cpp:148] Top shape: 24 38 (912)
I0403 18:35:40.683284  7149 net.cpp:156] Memory required for data: 1346064480
I0403 18:35:40.683300  7149 layer_factory.hpp:77] Creating layer loss3/classifier_plantvillage_loss3/classifier_plantvillage_0_split
I0403 18:35:40.683326  7149 net.cpp:91] Creating Layer loss3/classifier_plantvillage_loss3/classifier_plantvillage_0_split
I0403 18:35:40.683343  7149 net.cpp:425] loss3/classifier_plantvillage_loss3/classifier_plantvillage_0_split <- loss3/classifier_plantvillage
I0403 18:35:40.683362  7149 net.cpp:399] loss3/classifier_plantvillage_loss3/classifier_plantvillage_0_split -> loss3/classifier_plantvillage_loss3/classifier_plantvillage_0_split_0
I0403 18:35:40.683383  7149 net.cpp:399] loss3/classifier_plantvillage_loss3/classifier_plantvillage_0_split -> loss3/classifier_plantvillage_loss3/classifier_plantvillage_0_split_1
I0403 18:35:40.683405  7149 net.cpp:399] loss3/classifier_plantvillage_loss3/classifier_plantvillage_0_split -> loss3/classifier_plantvillage_loss3/classifier_plantvillage_0_split_2
I0403 18:35:40.683428  7149 net.cpp:399] loss3/classifier_plantvillage_loss3/classifier_plantvillage_0_split -> loss3/classifier_plantvillage_loss3/classifier_plantvillage_0_split_3
I0403 18:35:40.683526  7149 net.cpp:141] Setting up loss3/classifier_plantvillage_loss3/classifier_plantvillage_0_split
I0403 18:35:40.683550  7149 net.cpp:148] Top shape: 24 38 (912)
I0403 18:35:40.683567  7149 net.cpp:148] Top shape: 24 38 (912)
I0403 18:35:40.683583  7149 net.cpp:148] Top shape: 24 38 (912)
I0403 18:35:40.683598  7149 net.cpp:148] Top shape: 24 38 (912)
I0403 18:35:40.683612  7149 net.cpp:156] Memory required for data: 1346079072
I0403 18:35:40.683626  7149 layer_factory.hpp:77] Creating layer loss1/loss
I0403 18:35:40.683650  7149 net.cpp:91] Creating Layer loss1/loss
I0403 18:35:40.683667  7149 net.cpp:425] loss1/loss <- loss1/classifier_plantvillage_loss1/classifier_plantvillage_0_split_0
I0403 18:35:40.683699  7149 net.cpp:425] loss1/loss <- label_data_1_split_0
…
