…
I0403 18:42:43.260397  7283 net.cpp:313] The NetState phase (1) differed from the phase (0) specified by a rule in layer data
I0403 18:42:43.261579  7283 net.cpp:49] Initializing net from parameters: 
state {
  phase: TEST
}
layer {
  name: "data"
  type: "Data"
  top: "data"
  top: "label"
  include {
    phase: TEST
  }
  transform_param {
    mirror: false
    crop_size: 224
    mean_file: "/home/mohanty/data/final_dataset/lmdb/segmented-50-50/mean.binaryproto"
  }
  data_param {
    source: "/home/mohanty/data/final_dataset/lmdb/segmented-50-50/test_db"
    batch_size: 24
    backend: LMDB
  }
}
layer {
  name: "conv1/7x7_s2"
  type: "Convolution"
  bottom: "data"
  top: "conv1/7x7_s2"
  param {
    lr_mult: 1
    decay_mult: 1
  }
  param {
    lr_mult: 2
    decay_mult: 0
  }
  convolution_param {
    num_output: 64
    pad: 3
    kernel_size: 7
    stride: 2
    weight_filler {
      type: "xavier"
      std: 0.1
    }
    bias_filler {
      type: "constant"
      value: 0.2
    }
  }
}
layer {
  name: "conv1/relu_7x7"
  type: "ReLU"
  bottom: "conv1/7x7_s2"
  top: "conv1/7x7_s2"
}
layer {
  name: "pool1/3x3_s2"
  type: "Pooling"
  bottom: "conv1/7x7_s2"
  top: "pool1/3x3_s2"
  pooling_param {
    pool: MAX
    kernel_size: 3
    stride: 2
  }
}
layer {
  name: "pool1/norm1"
  type: "LRN"
  bottom: "pool1/3x3_s2"
  top: "pool1/norm1"
  lrn_param {
    local_size: 5
    alpha: 0.0001
    beta: 0.75
  }
}
layer {
  name: "conv2/3x3_reduce"
  type: "Convolution"
  bottom: "pool1/norm1"
  top: "conv2/3x3_reduce"
  param {
    lr_mult: 1
    decay_mult: 1
  }
  param {
    lr_mult: 2
    decay_mult: 0
  }
  convolution_param {
    num_output: 64
    kernel_size: 1
    weight_filler {
      type: "xavier"
      std: 0.1
    }
    bias_filler {
      type: "constant"
      value: 0.2
    }
  }
}
layer {
  name: "conv2/relu_3x3_reduce"
  type: "ReLU"
  bottom: "conv2/3x3_reduce"
  top: "conv2/3x3_reduce"
}
layer {
  name: "conv2/3x3"
  type: "Convolution"
  bottom: "conv2/3x3_reduce"
  top: "conv2/3x3"
  param {
    lr_mult: 1
    decay_mult: 1
  }
  param {
    lr_mult: 2
    decay_mult: 0
  }
  convolution_param {
    num_output: 192
    pad: 1
    kernel_size: 3
    weight_filler {
      type: "xavier"
      std: 0.03
    }
    bias_filler {
      type: "constant"
      value: 0.2
    }
  }
}
layer {
  name: "conv2/relu_3x3"
  type: "ReLU"
  bottom: "conv2/3x3"
  top: "conv2/3x3"
}
layer {
  name: "conv2/norm2"
  type: "LRN"
  bottom: "conv2/3x3"
  top: "conv2/norm2"
  lrn_param {
    local_size: 5
    alpha: 0.0001
    beta: 0.75
  }
}
layer {
  name: "pool2/3x3_s2"
  type: "Pooling"
  bottom: "conv2/norm2"
  top: "pool2/3x3_s2"
  pooling_param {
    pool: MAX
    kernel_size: 3
    stride: 2
  }
}
layer {
  name: "inception_3a/1x1"
  type: "Convolution"
  bottom: "pool2/3x3_s2"
  top: "inception_3a/1x1"
  param {
    lr_mult: 1
    decay_mult: 1
  }
  param {
    lr_mult: 2
    decay_mult: 0
  }
  convolution_param {
    num_output: 64
    kernel_size: 1
    weight_filler {
      type: "xavier"
      std: 0.03
    }
    bias_filler {
      type: "constant"
      value: 0.2
    }
  }
}
layer {
  name: "inception_3a/relu_1x1"
  type: "ReLU"
  bottom: "inception_3a/1x1"
  top: "inception_3a/1x1"
}
layer {
  name: "inception_3a/3x3_reduce"
  type: "Convolution"
  bottom: "pool2/3x3_s2"
  top: "inception_3a/3x3_reduce"
  param {
    lr_mult: 1
    decay_mult: 1
  }
  param {
    lr_mult: 2
    decay_mult: 0
  }
  convolution_param {
    num_output: 96
    kernel_size: 1
    weight_filler {
      type: "xavier"
      std: 0.09
    }
    bias_filler {
      type: "constant"
      value: 0.2
    }
  }
}
layer {
  name: "inception_3a/relu_3x3_reduce"
  type: "ReLU"
  bottom: "inception_3a/3x3_reduce"
  top: "inception_3a/3x3_reduce"
}
layer {
  name: "inception_3a/3x3"
  type: "Convolution"
  bottom: "inception_3a/3x3_reduce"
  top: "inception_3a/3x3"
  param {
    lr_mult: 1
    decay_mult: 1
  }
  param {
    lr_mult: 2
    decay_mult: 0
  }
  convolution_param {
    num_output: 128
    pad: 1
    kernel_size: 3
    weight_filler {
      type: "xavier"
      std: 0.03
    }
    bias_filler {
      type: "constant"
      value: 0.2
    }
  }
}
layer {
  name: "inception_3a/relu_3x3"
  type: "ReLU"
  bottom: "inception_3a/3x3"
  top: "inception_3a/3x3"
}
layer {
  name: "inception_3a/5x5_reduce"
  type: "Convolution"
  bottom: "pool2/3x3_s2"
  top: "inception_3a/5x5_reduce"
  param {
    lr_mult: 1
    decay_mult: 1
  }
  param {
    lr_mult: 2
    decay_mult: 0
  }
  convolution_param {
    num_output: 16
    kernel_size: 1
    weight_filler {
      type: "xavier"
      std: 0.2
    }
    bias_filler {
      type: "constant"
      value: 0.2
    }
  }
}
layer {
  name: "inception_3a/relu_5x5_reduce"
  type: "ReLU"
  bottom: "inception_3a/5x5_reduce"
  top: "inception_3a/5x5_reduce"
}
layer {
  name: "inception_3a/5x5"
  type: "Convolution"
  bottom: "inception_3a/5x5_reduce"
  top: "inception_3a/5x5"
  param {
    lr_mult: 1
    decay_mult: 1
  }
  param {
    lr_mult: 2
    decay_mult: 0
  }
  convolution_param {
    num_output: 32
    pad: 2
    kernel_size: 5
    weight_filler {
      type: "xavier"
      std: 0.03
    }
    bias_filler {
      type: "constant"
      value: 0.2
    }
  }
}
layer {
  name: "inception_3a/relu_5x5"
  type: "ReLU"
  bottom: "inception_3a/5x5"
  top: "inception_3a/5x5"
}
layer {
  name: "inception_3a/pool"
  type: "Pooling"
  bottom: "pool2/3x3_s2"
  top: "inception_3a/pool"
  pooling_param {
    pool: MAX
    kernel_size: 3
    stride: 1
    pad: 1
  }
}
layer {
  name: "inception_3a/pool_proj"
  type: "Convolution"
  bottom: "inception_3a/pool"
  top: "inception_3a/pool_proj"
  param {
    lr_mult: 1
    decay_mult: 1
  }
  param {
    lr_mult: 2
    decay_mult: 0
  }
  convolution_param {
    num_output: 32
    kernel_size: 1
    weight_filler {
      type: "xavier"
      std: 0.1
    }
    bias_filler {
      type: "constant"
      value: 0.2
    }
  }
}
layer {
  name: "inception_3a/relu_pool_proj"
  type: "ReLU"
  bottom: "inception_3a/pool_proj"
  top: "inception_3a/pool_proj"
}
layer {
  name: "inception_3a/output"
  type: "Concat"
  bottom: "inception_3a/1x1"
  bottom: "inception_3a/3x3"
  bottom: "inception_3a/5x5"
  bottom: "inception_3a/pool_proj"
  top: "inception_3a/output"
}
layer {
  name: "inception_3b/1x1"
  type: "Convolution"
  bottom: "inception_3a/output"
  top: "inception_3b/1x1"
  param {
    lr_mult: 1
    decay_mult: 1
  }
  param {
    lr_mult: 2
    decay_mult: 0
  }
  convolution_param {
    num_output: 128
    kernel_size: 1
    weight_filler {
      type: "xavier"
      std: 0.03
    }
    bias_filler {
      type: "constant"
      value: 0.2
    }
  }
}
layer {
  name: "inception_3b/relu_1x1"
  type: "ReLU"
  bottom: "inception_3b/1x1"
  top: "inception_3b/1x1"
}
layer {
  name: "inception_3b/3x3_reduce"
  type: "Convolution"
  bottom: "inception_3a/output"
  top: "inception_3b/3x3_reduce"
  param {
    lr_mult: 1
    decay_mult: 1
  }
  param {
    lr_mult: 2
    decay_mult: 0
  }
  convolution_param {
    num_output: 128
    kernel_size: 1
    weight_filler {
      type: "xavier"
      std: 0.09
    }
    bias_filler {
      type: "constant"
      value: 0.2
    }
  }
}
layer {
  name: "inception_3b/relu_3x3_reduce"
  type: "ReLU"
  bottom: "inception_3b/3x3_reduce"
  top: "inception_3b/3x3_reduce"
}
layer {
  name: "inception_3b/3x3"
  type: "Convolution"
  bottom: "inception_3b/3x3_reduce"
  top: "inception_3b/3x3"
  param {
    lr_mult: 1
    decay_mult: 1
  }
  param {
    lr_mult: 2
    decay_mult: 0
  }
  convolution_param {
    num_output: 192
    pad: 1
    kernel_size: 3
    weight_filler {
      type: "xavier"
      std: 0.03
    }
    bias_filler {
      type: "constant"
      value: 0.2
    }
  }
}
layer {
  name: "inception_3b/relu_3x3"
  type: "ReLU"
  bottom: "inception_3b/3x3"
  top: "inception_3b/3x3"
}
layer {
  name: "inception_3b/5x5_reduce"
  type: "Convolution"
  bottom: "inception_3a/output"
  top: "inception_3b/5x5_reduce"
  param {
    lr_mult: 1
    decay_mult: 1
  }
  param {
    lr_mult: 2
    decay_mult: 0
  }
  convolution_param {
    num_output: 32
    kernel_size: 1
    weight_filler {
      type: "xavier"
      std: 0.2
    }
    bias_filler {
      type: "constant"
      value: 0.2
    }
  }
}
layer {
  name: "inception_3b/relu_5x5_reduce"
  type: "ReLU"
  bottom: "inception_3b/5x5_reduce"
  top: "inception_3b/5x5_reduce"
}
layer {
  name: "inception_3b/5x5"
  type: "Convolution"
  bottom: "inception_3b/5x5_reduce"
  top: "inception_3b/5x5"
  param {
    lr_mult: 1
    decay_mult: 1
  }
  param {
    lr_mult: 2
    decay_mult: 0
  }
  convolution_param {
    num_output: 96
    pad: 2
    kernel_size: 5
    weight_filler {
      type: "xavier"
      std: 0.03
    }
    bias_filler {
      type: "constant"
      value: 0.2
    }
  }
}
layer {
  name: "inception_3b/relu_5x5"
  type: "ReLU"
  bottom: "inception_3b/5x5"
  top: "inception_3b/5x5"
}
layer {
  name: "inception_3b/pool"
  type: "Pooling"
  bottom: "inception_3a/output"
  top: "inception_3b/pool"
  pooling_param {
    pool: MAX
    kernel_size: 3
    stride: 1
    pad: 1
  }
}
layer {
  name: "inception_3b/pool_proj"
  type: "Convolution"
  bottom: "inception_3b/pool"
  top: "inception_3b/pool_proj"
  param {
    lr_mult: 1
    decay_mult: 1
  }
  param {
    lr_mult: 2
    decay_mult: 0
  }
  convolution_param {
    num_output: 64
    kernel_size: 1
    weight_filler {
      type: "xavier"
      std: 0.1
    }
    bias_filler {
      type: "constant"
      value: 0.2
    }
  }
}
layer {
  name: "inception_3b/relu_pool_proj"
  type: "ReLU"
  bottom: "inception_3b/pool_proj"
  top: "inception_3b/pool_proj"
}
layer {
  name: "inception_3b/output"
  type: "Concat"
  bottom: "inception_3b/1x1"
  bottom: "inception_3b/3x3"
  bottom: "inception_3b/5x5"
  bottom: "inception_3b/pool_proj"
  top: "inception_3b/output"
}
layer {
  name: "pool3/3x3_s2"
  type: "Pooling"
  bottom: "inception_3b/output"
  top: "pool3/3x3_s2"
  pooling_param {
    pool: MAX
    kernel_size: 3
    stride: 2
  }
}
layer {
  name: "inception_4a/1x1"
  type: "Convolution"
  bottom: "pool3/3x3_s2"
  top: "inception_4a/1x1"
  param {
    lr_mult: 1
    decay_mult: 1
  }
  param {
    lr_mult: 2
    decay_mult: 0
  }
  convolution_param {
    num_output: 192
    kernel_size: 1
    weight_filler {
      type: "xavier"
      std: 0.03
    }
    bias_filler {
      type: "constant"
      value: 0.2
    }
  }
}
layer {
  name: "inception_4a/relu_1x1"
  type: "ReLU"
  bottom: "inception_4a/1x1"
  top: "inception_4a/1x1"
}
layer {
  name: "inception_4a/3x3_reduce"
  type: "Convolution"
  bottom: "pool3/3x3_s2"
  top: "inception_4a/3x3_reduce"
  param {
    lr_mult: 1
    decay_mult: 1
  }
  param {
    lr_mult: 2
    decay_mult: 0
  }
  convolution_param {
    num_output: 96
    kernel_size: 1
    weight_filler {
      type: "xavier"
      std: 0.09
    }
    bias_filler {
      type: "constant"
      value: 0.2
    }
  }
}
layer {
  name: "inception_4a/relu_3x3_reduce"
  type: "ReLU"
  bottom: "inception_4a/3x3_reduce"
  top: "inception_4a/3x3_reduce"
}
layer {
  name: "inception_4a/3x3"
  type: "Convolution"
  bottom: "inception_4a/3x3_reduce"
  top: "inception_4a/3x3"
  param {
    lr_mult: 1
    decay_mult: 1
  }
  param {
    lr_mult: 2
    decay_mult: 0
  }
  convolution_param {
    num_output: 208
    pad: 1
    kernel_size: 3
    weight_filler {
      type: "xavier"
      std: 0.03
    }
    bias_filler {
      type: "constant"
      value: 0.2
    }
  }
}
layer {
  name: "inception_4a/relu_3x3"
  type: "ReLU"
  bottom: "inception_4a/3x3"
  top: "inception_4a/3x3"
}
layer {
  name: "inception_4a/5x5_reduce"
  type: "Convolution"
  bottom: "pool3/3x3_s2"
  top: "inception_4a/5x5_reduce"
  param {
    lr_mult: 1
    decay_mult: 1
  }
  param {
    lr_mult: 2
    decay_mult: 0
  }
  convolution_param {
    num_output: 16
    kernel_size: 1
    weight_filler {
      type: "xavier"
      std: 0.2
    }
    bias_filler {
      type: "constant"
      value: 0.2
    }
  }
}
layer {
  name: "inception_4a/relu_5x5_reduce"
  type: "ReLU"
  bottom: "inception_4a/5x5_reduce"
  top: "inception_4a/5x5_reduce"
}
layer {
  name: "inception_4a/5x5"
  type: "Convolution"
  bottom: "inception_4a/5x5_reduce"
  top: "inception_4a/5x5"
  param {
    lr_mult: 1
    decay_mult: 1
  }
  param {
    lr_mult: 2
    decay_mult: 0
  }
  convolution_param {
    num_output: 48
    pad: 2
    kernel_size: 5
    weight_filler {
      type: "xavier"
      std: 0.03
    }
    bias_filler {
      type: "constant"
      value: 0.2
    }
  }
}
layer {
  name: "inception_4a/relu_5x5"
  type: "ReLU"
  bottom: "inception_4a/5x5"
  top: "inception_4a/5x5"
}
layer {
  name: "inception_4a/pool"
  type: "Pooling"
  bottom: "pool3/3x3_s2"
  top: "inception_4a/pool"
  pooling_param {
    pool: MAX
    kernel_size: 3
    stride: 1
    pad: 1
  }
}
layer {
  name: "inception_4a/pool_proj"
  type: "Convolution"
  bottom: "inception_4a/pool"
  top: "inception_4a/pool_proj"
  param {
    lr_mult: 1
    decay_mult: 1
  }
  param {
    lr_mult: 2
    decay_mult: 0
  }
  convolution_param {
    num_output: 64
    kernel_size: 1
    weight_filler {
      type: "xavier"
      std: 0.1
    }
    bias_filler {
      type: "constant"
      value: 0.2
    }
  }
}
layer {
  name: "inception_4a/relu_pool_proj"
  type: "ReLU"
  bottom: "inception_4a/pool_proj"
  top: "inception_4a/pool_proj"
}
layer {
  name: "inception_4a/output"
  type: "Concat"
  bottom: "inception_4a/1x1"
  bottom: "inception_4a/3x3"
  bottom: "inception_4a/5x5"
  bottom: "inception_4a/pool_proj"
  top: "inception_4a/output"
}
layer {
  name: "loss1/ave_pool"
  type: "Pooling"
  bottom: "inception_4a/output"
  top: "loss1/ave_pool"
  pooling_param {
    pool: AVE
    kernel_size: 5
    stride: 3
  }
}
layer {
  name: "loss1/conv"
  type: "Convolution"
  bottom: "loss1/ave_pool"
  top: "loss1/conv"
  param {
    lr_mult: 1
    decay_mult: 1
  }
  param {
    lr_mult: 2
    decay_mult: 0
  }
  convolution_param {
    num_output: 128
    kernel_size: 1
    weight_filler {
      type: "xavier"
      std: 0.08
    }
    bias_filler {
      type: "constant"
      value: 0.2
    }
  }
}
layer {
  name: "loss1/relu_conv"
  type: "ReLU"
  bottom: "loss1/conv"
  top: "loss1/conv"
}
layer {
  name: "loss1/fc"
  type: "InnerProduct"
  bottom: "loss1/conv"
  top: "loss1/fc"
  param {
    lr_mult: 1
    decay_mult: 1
  }
  param {
    lr_mult: 2
    decay_mult: 0
  }
  inner_product_param {
    num_output: 1024
    weight_filler {
      type: "xavier"
      std: 0.02
    }
    bias_filler {
      type: "constant"
      value: 0.2
    }
  }
}
layer {
  name: "loss1/relu_fc"
  type: "ReLU"
  bottom: "loss1/fc"
  top: "loss1/fc"
}
layer {
  name: "loss1/drop_fc"
  type: "Dropout"
  bottom: "loss1/fc"
  top: "loss1/fc"
  dropout_param {
    dropout_ratio: 0.7
  }
}
layer {
  name: "loss1/classifier_plantvillage"
  type: "InnerProduct"
  bottom: "loss1/fc"
  top: "loss1/classifier_plantvillage"
  param {
    lr_mult: 1
    decay_mult: 1
  }
  param {
    lr_mult: 2
    decay_mult: 0
  }
  inner_product_param {
    num_output: 38
    weight_filler {
      type: "xavier"
      std: 0.0009765625
    }
    bias_filler {
      type: "constant"
      value: 0
    }
  }
}
layer {
  name: "inception_4b/1x1"
  type: "Convolution"
  bottom: "inception_4a/output"
  top: "inception_4b/1x1"
  param {
    lr_mult: 1
    decay_mult: 1
  }
  param {
    lr_mult: 2
    decay_mult: 0
  }
  convolution_param {
    num_output: 160
    kernel_size: 1
    weight_filler {
      type: "xavier"
      std: 0.03
    }
    bias_filler {
      type: "constant"
      value: 0.2
    }
  }
}
layer {
  name: "inception_4b/relu_1x1"
  type: "ReLU"
  bottom: "inception_4b/1x1"
  top: "inception_4b/1x1"
}
layer {
  name: "inception_4b/3x3_reduce"
  type: "Convolution"
  bottom: "inception_4a/output"
  top: "inception_4b/3x3_reduce"
  param {
    lr_mult: 1
    decay_mult: 1
  }
  param {
    lr_mult: 2
    decay_mult: 0
  }
  convolution_param {
    num_output: 112
    kernel_size: 1
    weight_filler {
      type: "xavier"
      std: 0.09
    }
    bias_filler {
      type: "constant"
      value: 0.2
    }
  }
}
layer {
  name: "inception_4b/relu_3x3_reduce"
  type: "ReLU"
  bottom: "inception_4b/3x3_reduce"
  top: "inception_4b/3x3_reduce"
}
layer {
  name: "inception_4b/3x3"
  type: "Convolution"
  bottom: "inception_4b/3x3_reduce"
  top: "inception_4b/3x3"
  param {
    lr_mult: 1
    decay_mult: 1
  }
  param {
    lr_mult: 2
    decay_mult: 0
  }
  convolution_param {
    num_output: 224
    pad: 1
    kernel_size: 3
    weight_filler {
      type: "xavier"
      std: 0.03
    }
    bias_filler {
      type: "constant"
      value: 0.2
    }
  }
}
layer {
  name: "inception_4b/relu_3x3"
  type: "ReLU"
  bottom: "inception_4b/3x3"
  top: "inception_4b/3x3"
}
layer {
  name: "inception_4b/5x5_reduce"
  type: "Convolution"
  bottom: "inception_4a/output"
  top: "inception_4b/5x5_reduce"
  param {
    lr_mult: 1
    decay_mult: 1
  }
  param {
    lr_mult: 2
    decay_mult: 0
  }
  convolution_param {
    num_output: 24
    kernel_size: 1
    weight_filler {
      type: "xavier"
      std: 0.2
    }
    bias_filler {
      type: "constant"
      value: 0.2
    }
  }
}
layer {
  name: "inception_4b/relu_5x5_reduce"
  type: "ReLU"
  bottom: "inception_4b/5x5_reduce"
  top: "inception_4b/5x5_reduce"
}
layer {
  name: "inception_4b/5x5"
  type: "Convolution"
  bottom: "inception_4b/5x5_reduce"
  top: "inception_4b/5x5"
  param {
    lr_mult: 1
    decay_mult: 1
  }
  param {
    lr_mult: 2
    decay_mult: 0
  }
  convolution_param {
    num_output: 64
    pad: 2
    kernel_size: 5
    weight_filler {
      type: "xavier"
      std: 0.03
    }
    bias_filler {
      type: "constant"
      value: 0.2
    }
  }
}
layer {
  name: "inception_4b/relu_5x5"
  type: "ReLU"
  bottom: "inception_4b/5x5"
  top: "inception_4b/5x5"
}
layer {
  name: "inception_4b/pool"
  type: "Pooling"
  bottom: "inception_4a/output"
  top: "inception_4b/pool"
  pooling_param {
    pool: MAX
    kernel_size: 3
    stride: 1
    pad: 1
  }
}
layer {
  name: "inception_4b/pool_proj"
  type: "Convolution"
  bottom: "inception_4b/pool"
  top: "inception_4b/pool_proj"
  param {
    lr_mult: 1
    decay_mult: 1
  }
  param {
    lr_mult: 2
    decay_mult: 0
  }
  convolution_param {
    num_output: 64
    kernel_size: 1
    weight_filler {
      type: "xavier"
      std: 0.1
    }
    bias_filler {
      type: "constant"
      value: 0.2
    }
  }
}
layer {
  name: "inception_4b/relu_pool_proj"
  type: "ReLU"
  bottom: "inception_4b/pool_proj"
  top: "inception_4b/pool_proj"
}
layer {
  name: "inception_4b/output"
  type: "Concat"
  bottom: "inception_4b/1x1"
  bottom: "inception_4b/3x3"
  bottom: "inception_4b/5x5"
  bottom: "inception_4b/pool_proj"
  top: "inception_4b/output"
}
layer {
  name: "inception_4c/1x1"
  type: "Convolution"
  bottom: "inception_4b/output"
  top: "inception_4c/1x1"
  param {
    lr_mult: 1
    decay_mult: 1
  }
  param {
    lr_mult: 2
    decay_mult: 0
  }
  convolution_param {
    num_output: 128
    kernel_size: 1
    weight_filler {
      type: "xavier"
      std: 0.03
    }
    bias_filler {
      type: "constant"
      value: 0.2
    }
  }
}
layer {
  name: "inception_4c/relu_1x1"
  type: "ReLU"
  bottom: "inception_4c/1x1"
  top: "inception_4c/1x1"
}
layer {
  name: "inception_4c/3x3_reduce"
  type: "Convolution"
  bottom: "inception_4b/output"
  top: "inception_4c/3x3_reduce"
  param {
    lr_mult: 1
    decay_mult: 1
  }
  param {
    lr_mult: 2
    decay_mult: 0
  }
  convolution_param {
    num_output: 128
    kernel_size: 1
    weight_filler {
      type: "xavier"
      std: 0.09
    }
    bias_filler {
      type: "constant"
      value: 0.2
    }
  }
}
layer {
  name: "inception_4c/relu_3x3_reduce"
  type: "ReLU"
  bottom: "inception_4c/3x3_reduce"
  top: "inception_4c/3x3_reduce"
}
layer {
  name: "inception_4c/3x3"
  type: "Convolution"
  bottom: "inception_4c/3x3_reduce"
  top: "inception_4c/3x3"
  param {
    lr_mult: 1
    decay_mult: 1
  }
  param {
    lr_mult: 2
    decay_mult: 0
  }
  convolution_param {
    num_output: 256
    pad: 1
    kernel_size: 3
    weight_filler {
      type: "xavier"
      std: 0.03
    }
    bias_filler {
      type: "constant"
      value: 0.2
    }
  }
}
layer {
  name: "inception_4c/relu_3x3"
  type: "ReLU"
  bottom: "inception_4c/3x3"
  top: "inception_4c/3x3"
}
layer {
  name: "inception_4c/5x5_reduce"
  type: "Convolution"
  bottom: "inception_4b/output"
  top: "inception_4c/5x5_reduce"
  param {
    lr_mult: 1
    decay_mult: 1
  }
  param {
    lr_mult: 2
    decay_mult: 0
  }
  convolution_param {
    num_output: 24
    kernel_size: 1
    weight_filler {
      type: "xavier"
      std: 0.2
    }
    bias_filler {
      type: "constant"
      value: 0.2
    }
  }
}
layer {
  name: "inception_4c/relu_5x5_reduce"
  type: "ReLU"
  bottom: "inception_4c/5x5_reduce"
  top: "inception_4c/5x5_reduce"
}
layer {
  name: "inception_4c/5x5"
  type: "Convolution"
  bottom: "inception_4c/5x5_reduce"
  top: "inception_4c/5x5"
  param {
    lr_mult: 1
    decay_mult: 1
  }
  param {
    lr_mult: 2
    decay_mult: 0
  }
  convolution_param {
    num_output: 64
    pad: 2
    kernel_size: 5
    weight_filler {
      type: "xavier"
      std: 0.03
    }
    bias_filler {
      type: "constant"
      value: 0.2
    }
  }
}
layer {
  name: "inception_4c/relu_5x5"
  type: "ReLU"
  bottom: "inception_4c/5x5"
  top: "inception_4c/5x5"
}
layer {
  name: "inception_4c/pool"
  type: "Pooling"
  bottom: "inception_4b/output"
  top: "inception_4c/pool"
  pooling_param {
    pool: MAX
    kernel_size: 3
    stride: 1
    pad: 1
  }
}
layer {
  name: "inception_4c/pool_proj"
  type: "Convolution"
  bottom: "inception_4c/pool"
  top: "inception_4c/pool_proj"
  param {
    lr_mult: 1
    decay_mult: 1
  }
  param {
    lr_mult: 2
    decay_mult: 0
  }
  convolution_param {
    num_output: 64
    kernel_size: 1
    weight_filler {
      type: "xavier"
      std: 0.1
    }
    bias_filler {
      type: "constant"
      value: 0.2
    }
  }
}
layer {
  name: "inception_4c/relu_pool_proj"
  type: "ReLU"
  bottom: "inception_4c/pool_proj"
  top: "inception_4c/pool_proj"
}
layer {
  name: "inception_4c/output"
  type: "Concat"
  bottom: "inception_4c/1x1"
  bottom: "inception_4c/3x3"
  bottom: "inception_4c/5x5"
  bottom: "inception_4c/pool_proj"
  top: "inception_4c/output"
}
layer {
  name: "inception_4d/1x1"
  type: "Convolution"
  bottom: "inception_4c/output"
  top: "inception_4d/1x1"
  param {
    lr_mult: 1
    decay_mult: 1
  }
  param {
    lr_mult: 2
    decay_mult: 0
  }
  convolution_param {
    num_output: 112
    kernel_size: 1
    weight_filler {
      type: "xavier"
      std: 0.03
    }
    bias_filler {
      type: "constant"
      value: 0.2
    }
  }
}
layer {
  name: "inception_4d/relu_1x1"
  type: "ReLU"
  bottom: "inception_4d/1x1"
  top: "inception_4d/1x1"
}
layer {
  name: "inception_4d/3x3_reduce"
  type: "Convolution"
  bottom: "inception_4c/output"
  top: "inception_4d/3x3_reduce"
  param {
    lr_mult: 1
    decay_mult: 1
  }
  param {
    lr_mult: 2
    decay_mult: 0
  }
  convolution_param {
    num_output: 144
    kernel_size: 1
    weight_filler {
      type: "xavier"
      std: 0.09
    }
    bias_filler {
      type: "constant"
      value: 0.2
    }
  }
}
layer {
  name: "inception_4d/relu_3x3_reduce"
  type: "ReLU"
  bottom: "inception_4d/3x3_reduce"
  top: "inception_4d/3x3_reduce"
}
layer {
  name: "inception_4d/3x3"
  type: "Convolution"
  bottom: "inception_4d/3x3_reduce"
  top: "inception_4d/3x3"
  param {
    lr_mult: 1
    decay_mult: 1
  }
  param {
    lr_mult: 2
    decay_mult: 0
  }
  convolution_param {
    num_output: 288
    pad: 1
    kernel_size: 3
    weight_filler {
      type: "xavier"
      std: 0.03
    }
    bias_filler {
      type: "constant"
      value: 0.2
    }
  }
}
layer {
  name: "inception_4d/relu_3x3"
  type: "ReLU"
  bottom: "inception_4d/3x3"
  top: "inception_4d/3x3"
}
layer {
  name: "inception_4d/5x5_reduce"
  type: "Convolution"
  bottom: "inception_4c/output"
  top: "inception_4d/5x5_reduce"
  param {
    lr_mult: 1
    decay_mult: 1
  }
  param {
    lr_mult: 2
    decay_mult: 0
  }
  convolution_param {
    num_output: 32
    kernel_size: 1
    weight_filler {
      type: "xavier"
      std: 0.2
    }
    bias_filler {
      type: "constant"
      value: 0.2
    }
  }
}
layer {
  name: "inception_4d/relu_5x5_reduce"
  type: "ReLU"
  bottom: "inception_4d/5x5_reduce"
  top: "inception_4d/5x5_reduce"
}
layer {
  name: "inception_4d/5x5"
  type: "Convolution"
  bottom: "inception_4d/5x5_reduce"
  top: "inception_4d/5x5"
  param {
    lr_mult: 1
    decay_mult: 1
  }
  param {
    lr_mult: 2
    decay_mult: 0
  }
  convolution_param {
    num_output: 64
    pad: 2
    kernel_size: 5
    weight_filler {
      type: "xavier"
      std: 0.03
    }
    bias_filler {
      type: "constant"
      value: 0.2
    }
  }
}
layer {
  name: "inception_4d/relu_5x5"
  type: "ReLU"
  bottom: "inception_4d/5x5"
  top: "inception_4d/5x5"
}
layer {
  name: "inception_4d/pool"
  type: "Pooling"
  bottom: "inception_4c/output"
  top: "inception_4d/pool"
  pooling_param {
    pool: MAX
    kernel_size: 3
    stride: 1
    pad: 1
  }
}
layer {
  name: "inception_4d/pool_proj"
  type: "Convolution"
  bottom: "inception_4d/pool"
  top: "inception_4d/pool_proj"
  param {
    lr_mult: 1
    decay_mult: 1
  }
  param {
    lr_mult: 2
    decay_mult: 0
  }
  convolution_param {
    num_output: 64
    kernel_size: 1
    weight_filler {
      type: "xavier"
      std: 0.1
    }
    bias_filler {
      type: "constant"
      value: 0.2
    }
  }
}
layer {
  name: "inception_4d/relu_pool_proj"
  type: "ReLU"
  bottom: "inception_4d/pool_proj"
  top: "inception_4d/pool_proj"
}
layer {
  name: "inception_4d/output"
  type: "Concat"
  bottom: "inception_4d/1x1"
  bottom: "inception_4d/3x3"
  bottom: "inception_4d/5x5"
  bottom: "inception_4d/pool_proj"
  top: "inception_4d/output"
}
layer {
  name: "loss2/ave_pool"
  type: "Pooling"
  bottom: "inception_4d/output"
  top: "loss2/ave_pool"
  pooling_param {
    pool: AVE
    kernel_size: 5
    stride: 3
  }
}
layer {
  name: "loss2/conv"
  type: "Convolution"
  bottom: "loss2/ave_pool"
  top: "loss2/conv"
  param {
    lr_mult: 1
    decay_mult: 1
  }
  param {
    lr_mult: 2
    decay_mult: 0
  }
  convolution_param {
    num_output: 128
    kernel_size: 1
    weight_filler {
      type: "xavier"
      std: 0.08
    }
    bias_filler {
      type: "constant"
      value: 0.2
    }
  }
}
layer {
  name: "loss2/relu_conv"
  type: "ReLU"
  bottom: "loss2/conv"
  top: "loss2/conv"
}
layer {
  name: "loss2/fc"
  type: "InnerProduct"
  bottom: "loss2/conv"
  top: "loss2/fc"
  param {
    lr_mult: 1
    decay_mult: 1
  }
  param {
    lr_mult: 2
    decay_mult: 0
  }
  inner_product_param {
    num_output: 1024
    weight_filler {
      type: "xavier"
      std: 0.02
    }
    bias_filler {
      type: "constant"
      value: 0.2
    }
  }
}
layer {
  name: "loss2/relu_fc"
  type: "ReLU"
  bottom: "loss2/fc"
  top: "loss2/fc"
}
layer {
  name: "loss2/drop_fc"
  type: "Dropout"
  bottom: "loss2/fc"
  top: "loss2/fc"
  dropout_param {
    dropout_ratio: 0.7
  }
}
layer {
  name: "loss2/classifier_plantvillage"
  type: "InnerProduct"
  bottom: "loss2/fc"
  top: "loss2/classifier_plantvillage"
  param {
    lr_mult: 1
    decay_mult: 1
  }
  param {
    lr_mult: 2
    decay_mult: 0
  }
  inner_product_param {
    num_output: 38
    weight_filler {
      type: "xavier"
      std: 0.0009765625
    }
    bias_filler {
      type: "constant"
      value: 0
    }
  }
}
layer {
  name: "inception_4e/1x1"
  type: "Convolution"
  bottom: "inception_4d/output"
  top: "inception_4e/1x1"
  param {
    lr_mult: 1
    decay_mult: 1
  }
  param {
    lr_mult: 2
    decay_mult: 0
  }
  convolution_param {
    num_output: 256
    kernel_size: 1
    weight_filler {
      type: "xavier"
      std: 0.03
    }
    bias_filler {
      type: "constant"
      value: 0.2
    }
  }
}
layer {
  name: "inception_4e/relu_1x1"
  type: "ReLU"
  bottom: "inception_4e/1x1"
  top: "inception_4e/1x1"
}
layer {
  name: "inception_4e/3x3_reduce"
  type: "Convolution"
  bottom: "inception_4d/output"
  top: "inception_4e/3x3_reduce"
  param {
    lr_mult: 1
    decay_mult: 1
  }
  param {
    lr_mult: 2
    decay_mult: 0
  }
  convolution_param {
    num_output: 160
    kernel_size: 1
    weight_filler {
      type: "xavier"
      std: 0.09
    }
    bias_filler {
      type: "constant"
      value: 0.2
    }
  }
}
layer {
  name: "inception_4e/relu_3x3_reduce"
  type: "ReLU"
  bottom: "inception_4e/3x3_reduce"
  top: "inception_4e/3x3_reduce"
}
layer {
  name: "inception_4e/3x3"
  type: "Convolution"
  bottom: "inception_4e/3x3_reduce"
  top: "inception_4e/3x3"
  param {
    lr_mult: 1
    decay_mult: 1
  }
  param {
    lr_mult: 2
    decay_mult: 0
  }
  convolution_param {
    num_output: 320
    pad: 1
    kernel_size: 3
    weight_filler {
      type: "xavier"
      std: 0.03
    }
    bias_filler {
      type: "constant"
      value: 0.2
    }
  }
}
layer {
  name: "inception_4e/relu_3x3"
  type: "ReLU"
  bottom: "inception_4e/3x3"
  top: "inception_4e/3x3"
}
layer {
  name: "inception_4e/5x5_reduce"
  type: "Convolution"
  bottom: "inception_4d/output"
  top: "inception_4e/5x5_reduce"
  param {
    lr_mult: 1
    decay_mult: 1
  }
  param {
    lr_mult: 2
    decay_mult: 0
  }
  convolution_param {
    num_output: 32
    kernel_size: 1
    weight_filler {
      type: "xavier"
      std: 0.2
    }
    bias_filler {
      type: "constant"
      value: 0.2
    }
  }
}
layer {
  name: "inception_4e/relu_5x5_reduce"
  type: "ReLU"
  bottom: "inception_4e/5x5_reduce"
  top: "inception_4e/5x5_reduce"
}
layer {
  name: "inception_4e/5x5"
  type: "Convolution"
  bottom: "inception_4e/5x5_reduce"
  top: "inception_4e/
I0403 18:42:43.263243  7283 layer_factory.hpp:77] Creating layer data
I0403 18:42:43.263869  7283 net.cpp:91] Creating Layer data
I0403 18:42:43.263902  7283 net.cpp:399] data -> data
I0403 18:42:43.263952  7283 net.cpp:399] data -> label
I0403 18:42:43.263989  7283 data_transformer.cpp:25] Loading mean file from: /home/mohanty/data/final_dataset/lmdb/segmented-50-50/mean.binaryproto
I0403 18:42:43.265039  7288 db_lmdb.cpp:38] Opened lmdb /home/mohanty/data/final_dataset/lmdb/segmented-50-50/test_db
I0403 18:42:43.277297  7283 data_layer.cpp:41] output data size: 24,3,224,224
I0403 18:42:43.306637  7283 net.cpp:141] Setting up data
I0403 18:42:43.306757  7283 net.cpp:148] Top shape: 24 3 224 224 (3612672)
I0403 18:42:43.306782  7283 net.cpp:148] Top shape: 24 (24)
I0403 18:42:43.306797  7283 net.cpp:156] Memory required for data: 14450784
I0403 18:42:43.306825  7283 layer_factory.hpp:77] Creating layer label_data_1_split
I0403 18:42:43.306851  7283 net.cpp:91] Creating Layer label_data_1_split
I0403 18:42:43.306870  7283 net.cpp:425] label_data_1_split <- label
I0403 18:42:43.306903  7283 net.cpp:399] label_data_1_split -> label_data_1_split_0
I0403 18:42:43.306931  7283 net.cpp:399] label_data_1_split -> label_data_1_split_1
I0403 18:42:43.306952  7283 net.cpp:399] label_data_1_split -> label_data_1_split_2
I0403 18:42:43.306973  7283 net.cpp:399] label_data_1_split -> label_data_1_split_3
I0403 18:42:43.306993  7283 net.cpp:399] label_data_1_split -> label_data_1_split_4
I0403 18:42:43.307013  7283 net.cpp:399] label_data_1_split -> label_data_1_split_5
I0403 18:42:43.307032  7283 net.cpp:399] label_data_1_split -> label_data_1_split_6
I0403 18:42:43.307052  7283 net.cpp:399] label_data_1_split -> label_data_1_split_7
I0403 18:42:43.307072  7283 net.cpp:399] label_data_1_split -> label_data_1_split_8
I0403 18:42:43.307091  7283 net.cpp:399] label_data_1_split -> label_data_1_split_9
I0403 18:42:43.307219  7283 net.cpp:141] Setting up label_data_1_split
I0403 18:42:43.307242  7283 net.cpp:148] Top shape: 24 (24)
I0403 18:42:43.307260  7283 net.cpp:148] Top shape: 24 (24)
I0403 18:42:43.307277  7283 net.cpp:148] Top shape: 24 (24)
I0403 18:42:43.307294  7283 net.cpp:148] Top shape: 24 (24)
I0403 18:42:43.307310  7283 net.cpp:148] Top shape: 24 (24)
I0403 18:42:43.307327  7283 net.cpp:148] Top shape: 24 (24)
I0403 18:42:43.307344  7283 net.cpp:148] Top shape: 24 (24)
I0403 18:42:43.307360  7283 net.cpp:148] Top shape: 24 (24)
I0403 18:42:43.307376  7283 net.cpp:148] Top shape: 24 (24)
I0403 18:42:43.307397  7283 net.cpp:148] Top shape: 24 (24)
I0403 18:42:43.307448  7283 net.cpp:156] Memory required for data: 14451744
I0403 18:42:43.307466  7283 layer_factory.hpp:77] Creating layer conv1/7x7_s2
I0403 18:42:43.307498  7283 net.cpp:91] Creating Layer conv1/7x7_s2
I0403 18:42:43.307518  7283 net.cpp:425] conv1/7x7_s2 <- data
I0403 18:42:43.307540  7283 net.cpp:399] conv1/7x7_s2 -> conv1/7x7_s2
I0403 18:42:43.454408  7283 net.cpp:141] Setting up conv1/7x7_s2
I0403 18:42:43.454522  7283 net.cpp:148] Top shape: 24 64 112 112 (19267584)
I0403 18:42:43.454541  7283 net.cpp:156] Memory required for data: 91522080
I0403 18:42:43.454574  7283 layer_factory.hpp:77] Creating layer conv1/relu_7x7
I0403 18:42:43.454602  7283 net.cpp:91] Creating Layer conv1/relu_7x7
I0403 18:42:43.454620  7283 net.cpp:425] conv1/relu_7x7 <- conv1/7x7_s2
I0403 18:42:43.454639  7283 net.cpp:386] conv1/relu_7x7 -> conv1/7x7_s2 (in-place)
I0403 18:42:43.454900  7283 net.cpp:141] Setting up conv1/relu_7x7
I0403 18:42:43.454927  7283 net.cpp:148] Top shape: 24 64 112 112 (19267584)
I0403 18:42:43.454943  7283 net.cpp:156] Memory required for data: 168592416
I0403 18:42:43.454959  7283 layer_factory.hpp:77] Creating layer pool1/3x3_s2
I0403 18:42:43.454985  7283 net.cpp:91] Creating Layer pool1/3x3_s2
I0403 18:42:43.455003  7283 net.cpp:425] pool1/3x3_s2 <- conv1/7x7_s2
I0403 18:42:43.455021  7283 net.cpp:399] pool1/3x3_s2 -> pool1/3x3_s2
I0403 18:42:43.455096  7283 net.cpp:141] Setting up pool1/3x3_s2
I0403 18:42:43.455121  7283 net.cpp:148] Top shape: 24 64 56 56 (4816896)
I0403 18:42:43.455137  7283 net.cpp:156] Memory required for data: 187860000
I0403 18:42:43.455153  7283 layer_factory.hpp:77] Creating layer pool1/norm1
I0403 18:42:43.455183  7283 net.cpp:91] Creating Layer pool1/norm1
I0403 18:42:43.455204  7283 net.cpp:425] pool1/norm1 <- pool1/3x3_s2
I0403 18:42:43.455221  7283 net.cpp:399] pool1/norm1 -> pool1/norm1
I0403 18:42:43.455508  7283 net.cpp:141] Setting up pool1/norm1
I0403 18:42:43.455535  7283 net.cpp:148] Top shape: 24 64 56 56 (4816896)
I0403 18:42:43.455552  7283 net.cpp:156] Memory required for data: 207127584
I0403 18:42:43.455569  7283 layer_factory.hpp:77] Creating layer conv2/3x3_reduce
I0403 18:42:43.455595  7283 net.cpp:91] Creating Layer conv2/3x3_reduce
I0403 18:42:43.455612  7283 net.cpp:425] conv2/3x3_reduce <- pool1/norm1
I0403 18:42:43.455631  7283 net.cpp:399] conv2/3x3_reduce -> conv2/3x3_reduce
I0403 18:42:43.457031  7283 net.cpp:141] Setting up conv2/3x3_reduce
I0403 18:42:43.457062  7283 net.cpp:148] Top shape: 24 64 56 56 (4816896)
I0403 18:42:43.457080  7283 net.cpp:156] Memory required for data: 226395168
I0403 18:42:43.457103  7283 layer_factory.hpp:77] Creating layer conv2/relu_3x3_reduce
I0403 18:42:43.457123  7283 net.cpp:91] Creating Layer conv2/relu_3x3_reduce
I0403 18:42:43.457139  7283 net.cpp:425] conv2/relu_3x3_reduce <- conv2/3x3_reduce
I0403 18:42:43.457159  7283 net.cpp:386] conv2/relu_3x3_reduce -> conv2/3x3_reduce (in-place)
I0403 18:42:43.457438  7283 net.cpp:141] Setting up conv2/relu_3x3_reduce
I0403 18:42:43.457466  7283 net.cpp:148] Top shape: 24 64 56 56 (4816896)
I0403 18:42:43.457481  7283 net.cpp:156] Memory required for data: 245662752
I0403 18:42:43.457497  7283 layer_factory.hpp:77] Creating layer conv2/3x3
I0403 18:42:43.457525  7283 net.cpp:91] Creating Layer conv2/3x3
I0403 18:42:43.457542  7283 net.cpp:425] conv2/3x3 <- conv2/3x3_reduce
I0403 18:42:43.457564  7283 net.cpp:399] conv2/3x3 -> conv2/3x3
I0403 18:42:43.459946  7283 net.cpp:141] Setting up conv2/3x3
I0403 18:42:43.459980  7283 net.cpp:148] Top shape: 24 192 56 56 (14450688)
I0403 18:42:43.460000  7283 net.cpp:156] Memory required for data: 303465504
I0403 18:42:43.460023  7283 layer_factory.hpp:77] Creating layer conv2/relu_3x3
I0403 18:42:43.460047  7283 net.cpp:91] Creating Layer conv2/relu_3x3
I0403 18:42:43.460067  7283 net.cpp:425] conv2/relu_3x3 <- conv2/3x3
I0403 18:42:43.460085  7283 net.cpp:386] conv2/relu_3x3 -> conv2/3x3 (in-place)
I0403 18:42:43.460273  7283 net.cpp:141] Setting up conv2/relu_3x3
I0403 18:42:43.460304  7283 net.cpp:148] Top shape: 24 192 56 56 (14450688)
I0403 18:42:43.460352  7283 net.cpp:156] Memory required for data: 361268256
I0403 18:42:43.460371  7283 layer_factory.hpp:77] Creating layer conv2/norm2
I0403 18:42:43.460392  7283 net.cpp:91] Creating Layer conv2/norm2
I0403 18:42:43.460409  7283 net.cpp:425] conv2/norm2 <- conv2/3x3
I0403 18:42:43.460430  7283 net.cpp:399] conv2/norm2 -> conv2/norm2
I0403 18:42:43.460741  7283 net.cpp:141] Setting up conv2/norm2
I0403 18:42:43.460769  7283 net.cpp:148] Top shape: 24 192 56 56 (14450688)
I0403 18:42:43.460785  7283 net.cpp:156] Memory required for data: 419071008
I0403 18:42:43.460803  7283 layer_factory.hpp:77] Creating layer pool2/3x3_s2
I0403 18:42:43.460820  7283 net.cpp:91] Creating Layer pool2/3x3_s2
I0403 18:42:43.460837  7283 net.cpp:425] pool2/3x3_s2 <- conv2/norm2
I0403 18:42:43.460860  7283 net.cpp:399] pool2/3x3_s2 -> pool2/3x3_s2
I0403 18:42:43.460914  7283 net.cpp:141] Setting up pool2/3x3_s2
I0403 18:42:43.460938  7283 net.cpp:148] Top shape: 24 192 28 28 (3612672)
I0403 18:42:43.460953  7283 net.cpp:156] Memory required for data: 433521696
I0403 18:42:43.460970  7283 layer_factory.hpp:77] Creating layer pool2/3x3_s2_pool2/3x3_s2_0_split
I0403 18:42:43.460991  7283 net.cpp:91] Creating Layer pool2/3x3_s2_pool2/3x3_s2_0_split
I0403 18:42:43.461009  7283 net.cpp:425] pool2/3x3_s2_pool2/3x3_s2_0_split <- pool2/3x3_s2
I0403 18:42:43.461026  7283 net.cpp:399] pool2/3x3_s2_pool2/3x3_s2_0_split -> pool2/3x3_s2_pool2/3x3_s2_0_split_0
I0403 18:42:43.461050  7283 net.cpp:399] pool2/3x3_s2_pool2/3x3_s2_0_split -> pool2/3x3_s2_pool2/3x3_s2_0_split_1
I0403 18:42:43.461072  7283 net.cpp:399] pool2/3x3_s2_pool2/3x3_s2_0_split -> pool2/3x3_s2_pool2/3x3_s2_0_split_2
I0403 18:42:43.461092  7283 net.cpp:399] pool2/3x3_s2_pool2/3x3_s2_0_split -> pool2/3x3_s2_pool2/3x3_s2_0_split_3
I0403 18:42:43.461163  7283 net.cpp:141] Setting up pool2/3x3_s2_pool2/3x3_s2_0_split
I0403 18:42:43.461190  7283 net.cpp:148] Top shape: 24 192 28 28 (3612672)
I0403 18:42:43.461210  7283 net.cpp:148] Top shape: 24 192 28 28 (3612672)
I0403 18:42:43.461226  7283 net.cpp:148] Top shape: 24 192 28 28 (3612672)
I0403 18:42:43.461244  7283 net.cpp:148] Top shape: 24 192 28 28 (3612672)
I0403 18:42:43.461258  7283 net.cpp:156] Memory required for data: 491324448
I0403 18:42:43.461274  7283 layer_factory.hpp:77] Creating layer inception_3a/1x1
I0403 18:42:43.461298  7283 net.cpp:91] Creating Layer inception_3a/1x1
I0403 18:42:43.461315  7283 net.cpp:425] inception_3a/1x1 <- pool2/3x3_s2_pool2/3x3_s2_0_split_0
I0403 18:42:43.461338  7283 net.cpp:399] inception_3a/1x1 -> inception_3a/1x1
I0403 18:42:43.462978  7283 net.cpp:141] Setting up inception_3a/1x1
I0403 18:42:43.463009  7283 net.cpp:148] Top shape: 24 64 28 28 (1204224)
I0403 18:42:43.463027  7283 net.cpp:156] Memory required for data: 496141344
I0403 18:42:43.463045  7283 layer_factory.hpp:77] Creating layer inception_3a/relu_1x1
I0403 18:42:43.463065  7283 net.cpp:91] Creating Layer inception_3a/relu_1x1
I0403 18:42:43.463084  7283 net.cpp:425] inception_3a/relu_1x1 <- inception_3a/1x1
I0403 18:42:43.463104  7283 net.cpp:386] inception_3a/relu_1x1 -> inception_3a/1x1 (in-place)
I0403 18:42:43.463305  7283 net.cpp:141] Setting up inception_3a/relu_1x1
I0403 18:42:43.463332  7283 net.cpp:148] Top shape: 24 64 28 28 (1204224)
I0403 18:42:43.463349  7283 net.cpp:156] Memory required for data: 500958240
I0403 18:42:43.463366  7283 layer_factory.hpp:77] Creating layer inception_3a/3x3_reduce
I0403 18:42:43.463390  7283 net.cpp:91] Creating Layer inception_3a/3x3_reduce
I0403 18:42:43.463408  7283 net.cpp:425] inception_3a/3x3_reduce <- pool2/3x3_s2_pool2/3x3_s2_0_split_1
I0403 18:42:43.463431  7283 net.cpp:399] inception_3a/3x3_reduce -> inception_3a/3x3_reduce
I0403 18:42:43.465231  7283 net.cpp:141] Setting up inception_3a/3x3_reduce
I0403 18:42:43.465265  7283 net.cpp:148] Top shape: 24 96 28 28 (1806336)
I0403 18:42:43.465281  7283 net.cpp:156] Memory required for data: 508183584
I0403 18:42:43.465303  7283 layer_factory.hpp:77] Creating layer inception_3a/relu_3x3_reduce
I0403 18:42:43.465343  7283 net.cpp:91] Creating Layer inception_3a/relu_3x3_reduce
I0403 18:42:43.465363  7283 net.cpp:425] inception_3a/relu_3x3_reduce <- inception_3a/3x3_reduce
I0403 18:42:43.465383  7283 net.cpp:386] inception_3a/relu_3x3_reduce -> inception_3a/3x3_reduce (in-place)
I0403 18:42:43.465572  7283 net.cpp:141] Setting up inception_3a/relu_3x3_reduce
I0403 18:42:43.465600  7283 net.cpp:148] Top shape: 24 96 28 28 (1806336)
I0403 18:42:43.465616  7283 net.cpp:156] Memory required for data: 515408928
I0403 18:42:43.465631  7283 layer_factory.hpp:77] Creating layer inception_3a/3x3
I0403 18:42:43.465656  7283 net.cpp:91] Creating Layer inception_3a/3x3
I0403 18:42:43.465677  7283 net.cpp:425] inception_3a/3x3 <- inception_3a/3x3_reduce
I0403 18:42:43.465703  7283 net.cpp:399] inception_3a/3x3 -> inception_3a/3x3
I0403 18:42:43.467418  7283 net.cpp:141] Setting up inception_3a/3x3
I0403 18:42:43.467450  7283 net.cpp:148] Top shape: 24 128 28 28 (2408448)
I0403 18:42:43.467468  7283 net.cpp:156] Memory required for data: 525042720
I0403 18:42:43.467486  7283 layer_factory.hpp:77] Creating layer inception_3a/relu_3x3
I0403 18:42:43.467509  7283 net.cpp:91] Creating Layer inception_3a/relu_3x3
I0403 18:42:43.467526  7283 net.cpp:425] inception_3a/relu_3x3 <- inception_3a/3x3
I0403 18:42:43.467545  7283 net.cpp:386] inception_3a/relu_3x3 -> inception_3a/3x3 (in-place)
I0403 18:42:43.467824  7283 net.cpp:141] Setting up inception_3a/relu_3x3
I0403 18:42:43.467851  7283 net.cpp:148] Top shape: 24 128 28 28 (2408448)
I0403 18:42:43.467867  7283 net.cpp:156] Memory required for data: 534676512
I0403 18:42:43.467882  7283 layer_factory.hpp:77] Creating layer inception_3a/5x5_reduce
I0403 18:42:43.467906  7283 net.cpp:91] Creating Layer inception_3a/5x5_reduce
I0403 18:42:43.467924  7283 net.cpp:425] inception_3a/5x5_reduce <- pool2/3x3_s2_pool2/3x3_s2_0_split_2
I0403 18:42:43.467947  7283 net.cpp:399] inception_3a/5x5_reduce -> inception_3a/5x5_reduce
I0403 18:42:43.468952  7283 net.cpp:141] Setting up inception_3a/5x5_reduce
I0403 18:42:43.468983  7283 net.cpp:148] Top shape: 24 16 28 28 (301056)
I0403 18:42:43.469000  7283 net.cpp:156] Memory required for data: 535880736
I0403 18:42:43.469020  7283 layer_factory.hpp:77] Creating layer inception_3a/relu_5x5_reduce
I0403 18:42:43.469043  7283 net.cpp:91] Creating Layer inception_3a/relu_5x5_reduce
I0403 18:42:43.469061  7283 net.cpp:425] inception_3a/relu_5x5_reduce <- inception_3a/5x5_reduce
I0403 18:42:43.469080  7283 net.cpp:386] inception_3a/relu_5x5_reduce -> inception_3a/5x5_reduce (in-place)
I0403 18:42:43.469382  7283 net.cpp:141] Setting up inception_3a/relu_5x5_reduce
I0403 18:42:43.469413  7283 net.cpp:148] Top shape: 24 16 28 28 (301056)
I0403 18:42:43.469431  7283 net.cpp:156] Memory required for data: 537084960
I0403 18:42:43.469446  7283 layer_factory.hpp:77] Creating layer inception_3a/5x5
I0403 18:42:43.469470  7283 net.cpp:91] Creating Layer inception_3a/5x5
I0403 18:42:43.469488  7283 net.cpp:425] inception_3a/5x5 <- inception_3a/5x5_reduce
I0403 18:42:43.469507  7283 net.cpp:399] inception_3a/5x5 -> inception_3a/5x5
I0403 18:42:43.470561  7283 net.cpp:141] Setting up inception_3a/5x5
I0403 18:42:43.470590  7283 net.cpp:148] Top shape: 24 32 28 28 (602112)
I0403 18:42:43.470607  7283 net.cpp:156] Memory required for data: 539493408
I0403 18:42:43.470630  7283 layer_factory.hpp:77] Creating layer inception_3a/relu_5x5
I0403 18:42:43.470654  7283 net.cpp:91] Creating Layer inception_3a/relu_5x5
I0403 18:42:43.470672  7283 net.cpp:425] inception_3a/relu_5x5 <- inception_3a/5x5
I0403 18:42:43.470691  7283 net.cpp:386] inception_3a/relu_5x5 -> inception_3a/5x5 (in-place)
I0403 18:42:43.470875  7283 net.cpp:141] Setting up inception_3a/relu_5x5
I0403 18:42:43.470901  7283 net.cpp:148] Top shape: 24 32 28 28 (602112)
I0403 18:42:43.470917  7283 net.cpp:156] Memory required for data: 541901856
I0403 18:42:43.470932  7283 layer_factory.hpp:77] Creating layer inception_3a/pool
I0403 18:42:43.470953  7283 net.cpp:91] Creating Layer inception_3a/pool
I0403 18:42:43.470986  7283 net.cpp:425] inception_3a/pool <- pool2/3x3_s2_pool2/3x3_s2_0_split_3
I0403 18:42:43.471007  7283 net.cpp:399] inception_3a/pool -> inception_3a/pool
I0403 18:42:43.471071  7283 net.cpp:141] Setting up inception_3a/pool
I0403 18:42:43.471096  7283 net.cpp:148] Top shape: 24 192 28 28 (3612672)
I0403 18:42:43.471112  7283 net.cpp:156] Memory required for data: 556352544
I0403 18:42:43.471127  7283 layer_factory.hpp:77] Creating layer inception_3a/pool_proj
I0403 18:42:43.471151  7283 net.cpp:91] Creating Layer inception_3a/pool_proj
I0403 18:42:43.471170  7283 net.cpp:425] inception_3a/pool_proj <- inception_3a/pool
I0403 18:42:43.471204  7283 net.cpp:399] inception_3a/pool_proj -> inception_3a/pool_proj
I0403 18:42:43.472201  7283 net.cpp:141] Setting up inception_3a/pool_proj
I0403 18:42:43.472234  7283 net.cpp:148] Top shape: 24 32 28 28 (602112)
I0403 18:42:43.472251  7283 net.cpp:156] Memory required for data: 558760992
I0403 18:42:43.472275  7283 layer_factory.hpp:77] Creating layer inception_3a/relu_pool_proj
I0403 18:42:43.472296  7283 net.cpp:91] Creating Layer inception_3a/relu_pool_proj
I0403 18:42:43.472316  7283 net.cpp:425] inception_3a/relu_pool_proj <- inception_3a/pool_proj
I0403 18:42:43.472333  7283 net.cpp:386] inception_3a/relu_pool_proj -> inception_3a/pool_proj (in-place)
I0403 18:42:43.472617  7283 net.cpp:141] Setting up inception_3a/relu_pool_proj
I0403 18:42:43.472645  7283 net.cpp:148] Top shape: 24 32 28 28 (602112)
I0403 18:42:43.472661  7283 net.cpp:156] Memory required for data: 561169440
I0403 18:42:43.472676  7283 layer_factory.hpp:77] Creating layer inception_3a/output
I0403 18:42:43.472695  7283 net.cpp:91] Creating Layer inception_3a/output
I0403 18:42:43.472714  7283 net.cpp:425] inception_3a/output <- inception_3a/1x1
I0403 18:42:43.472733  7283 net.cpp:425] inception_3a/output <- inception_3a/3x3
I0403 18:42:43.472748  7283 net.cpp:425] inception_3a/output <- inception_3a/5x5
I0403 18:42:43.472764  7283 net.cpp:425] inception_3a/output <- inception_3a/pool_proj
I0403 18:42:43.472780  7283 net.cpp:399] inception_3a/output -> inception_3a/output
I0403 18:42:43.472827  7283 net.cpp:141] Setting up inception_3a/output
I0403 18:42:43.472853  7283 net.cpp:148] Top shape: 24 256 28 28 (4816896)
I0403 18:42:43.472869  7283 net.cpp:156] Memory required for data: 580437024
I0403 18:42:43.472885  7283 layer_factory.hpp:77] Creating layer inception_3a/output_inception_3a/output_0_split
I0403 18:42:43.472903  7283 net.cpp:91] Creating Layer inception_3a/output_inception_3a/output_0_split
I0403 18:42:43.472918  7283 net.cpp:425] inception_3a/output_inception_3a/output_0_split <- inception_3a/output
I0403 18:42:43.472939  7283 net.cpp:399] inception_3a/output_inception_3a/output_0_split -> inception_3a/output_inception_3a/output_0_split_0
I0403 18:42:43.472959  7283 net.cpp:399] inception_3a/output_inception_3a/output_0_split -> inception_3a/output_inception_3a/output_0_split_1
I0403 18:42:43.472982  7283 net.cpp:399] inception_3a/output_inception_3a/output_0_split -> inception_3a/output_inception_3a/output_0_split_2
I0403 18:42:43.473003  7283 net.cpp:399] inception_3a/output_inception_3a/output_0_split -> inception_3a/output_inception_3a/output_0_split_3
I0403 18:42:43.473080  7283 net.cpp:141] Setting up inception_3a/output_inception_3a/output_0_split
I0403 18:42:43.473103  7283 net.cpp:148] Top shape: 24 256 28 28 (4816896)
I0403 18:42:43.473120  7283 net.cpp:148] Top shape: 24 256 28 28 (4816896)
I0403 18:42:43.473136  7283 net.cpp:148] Top shape: 24 256 28 28 (4816896)
I0403 18:42:43.473152  7283 net.cpp:148] Top shape: 24 256 28 28 (4816896)
I0403 18:42:43.473166  7283 net.cpp:156] Memory required for data: 657507360
I0403 18:42:43.473187  7283 layer_factory.hpp:77] Creating layer inception_3b/1x1
I0403 18:42:43.473212  7283 net.cpp:91] Creating Layer inception_3b/1x1
I0403 18:42:43.473230  7283 net.cpp:425] inception_3b/1x1 <- inception_3a/output_inception_3a/output_0_split_0
I0403 18:42:43.473251  7283 net.cpp:399] inception_3b/1x1 -> inception_3b/1x1
I0403 18:42:43.474416  7283 net.cpp:141] Setting up inception_3b/1x1
I0403 18:42:43.474458  7283 net.cpp:148] Top shape: 24 128 28 28 (2408448)
I0403 18:42:43.474477  7283 net.cpp:156] Memory required for data: 667141152
I0403 18:42:43.474498  7283 layer_factory.hpp:77] Creating layer inception_3b/relu_1x1
I0403 18:42:43.474515  7283 net.cpp:91] Creating Layer inception_3b/relu_1x1
I0403 18:42:43.474532  7283 net.cpp:425] inception_3b/relu_1x1 <- inception_3b/1x1
I0403 18:42:43.474552  7283 net.cpp:386] inception_3b/relu_1x1 -> inception_3b/1x1 (in-place)
I0403 18:42:43.474730  7283 net.cpp:141] Setting up inception_3b/relu_1x1
I0403 18:42:43.474757  7283 net.cpp:148] Top shape: 24 128 28 28 (2408448)
I0403 18:42:43.474774  7283 net.cpp:156] Memory required for data: 676774944
I0403 18:42:43.474791  7283 layer_factory.hpp:77] Creating layer inception_3b/3x3_reduce
I0403 18:42:43.474814  7283 net.cpp:91] Creating Layer inception_3b/3x3_reduce
I0403 18:42:43.474833  7283 net.cpp:425] inception_3b/3x3_reduce <- inception_3a/output_inception_3a/output_0_split_1
I0403 18:42:43.474853  7283 net.cpp:399] inception_3b/3x3_reduce -> inception_3b/3x3_reduce
I0403 18:42:43.476022  7283 net.cpp:141] Setting up inception_3b/3x3_reduce
I0403 18:42:43.476057  7283 net.cpp:148] Top shape: 24 128 28 28 (2408448)
I0403 18:42:43.476076  7283 net.cpp:156] Memory required for data: 686408736
I0403 18:42:43.476097  7283 layer_factory.hpp:77] Creating layer inception_3b/relu_3x3_reduce
I0403 18:42:43.476116  7283 net.cpp:91] Creating Layer inception_3b/relu_3x3_reduce
I0403 18:42:43.476135  7283 net.cpp:425] inception_3b/relu_3x3_reduce <- inception_3b/3x3_reduce
I0403 18:42:43.476158  7283 net.cpp:386] inception_3b/relu_3x3_reduce -> inception_3b/3x3_reduce (in-place)
I0403 18:42:43.476343  7283 net.cpp:141] Setting up inception_3b/relu_3x3_reduce
I0403 18:42:43.476369  7283 net.cpp:148] Top shape: 24 128 28 28 (2408448)
I0403 18:42:43.476387  7283 net.cpp:156] Memory required for data: 696042528
I0403 18:42:43.476402  7283 layer_factory.hpp:77] Creating layer inception_3b/3x3
I0403 18:42:43.476430  7283 net.cpp:91] Creating Layer inception_3b/3x3
I0403 18:42:43.476449  7283 net.cpp:425] inception_3b/3x3 <- inception_3b/3x3_reduce
I0403 18:42:43.476469  7283 net.cpp:399] inception_3b/3x3 -> inception_3b/3x3
I0403 18:42:43.479467  7283 net.cpp:141] Setting up inception_3b/3x3
I0403 18:42:43.479498  7283 net.cpp:148] Top shape: 24 192 28 28 (3612672)
I0403 18:42:43.479516  7283 net.cpp:156] Memory required for data: 710493216
I0403 18:42:43.479537  7283 layer_factory.hpp:77] Creating layer inception_3b/relu_3x3
I0403 18:42:43.479560  7283 net.cpp:91] Creating Layer inception_3b/relu_3x3
I0403 18:42:43.479579  7283 net.cpp:425] inception_3b/relu_3x3 <- inception_3b/3x3
I0403 18:42:43.479598  7283 net.cpp:386] inception_3b/relu_3x3 -> inception_3b/3x3 (in-place)
I0403 18:42:43.479885  7283 net.cpp:141] Setting up inception_3b/relu_3x3
I0403 18:42:43.479913  7283 net.cpp:148] Top shape: 24 192 28 28 (3612672)
I0403 18:42:43.479929  7283 net.cpp:156] Memory required for data: 724943904
I0403 18:42:43.479944  7283 layer_factory.hpp:77] Creating layer inception_3b/5x5_reduce
I0403 18:42:43.479967  7283 net.cpp:91] Creating Layer inception_3b/5x5_reduce
I0403 18:42:43.479986  7283 net.cpp:425] inception_3b/5x5_reduce <- inception_3a/output_inception_3a/output_0_split_2
I0403 18:42:43.480008  7283 net.cpp:399] inception_3b/5x5_reduce -> inception_3b/5x5_reduce
I0403 18:42:43.481034  7283 net.cpp:141] Setting up inception_3b/5x5_reduce
I0403 18:42:43.481065  7283 net.cpp:148] Top shape: 24 32 28 28 (602112)
I0403 18:42:43.481082  7283 net.cpp:156] Memory required for data: 727352352
I0403 18:42:43.481103  7283 layer_factory.hpp:77] Creating layer inception_3b/relu_5x5_reduce
I0403 18:42:43.481124  7283 net.cpp:91] Creating Layer inception_3b/relu_5x5_reduce
I0403 18:42:43.481142  7283 net.cpp:425] inception_3b/relu_5x5_reduce <- inception_3b/5x5_reduce
I0403 18:42:43.481160  7283 net.cpp:386] inception_3b/relu_5x5_reduce -> inception_3b/5x5_reduce (in-place)
I0403 18:42:43.481360  7283 net.cpp:141] Setting up inception_3b/relu_5x5_reduce
I0403 18:42:43.481387  7283 net.cpp:148] Top shape: 24 32 28 28 (602112)
I0403 18:42:43.481402  7283 net.cpp:156] Memory required for data: 729760800
I0403 18:42:43.481417  7283 layer_factory.hpp:77] Creating layer inception_3b/5x5
I0403 18:42:43.481442  7283 net.cpp:91] Creating Layer inception_3b/5x5
I0403 18:42:43.481461  7283 net.cpp:425] inception_3b/5x5 <- inception_3b/5x5_reduce
I0403 18:42:43.481479  7283 net.cpp:399] inception_3b/5x5 -> inception_3b/5x5
I0403 18:42:43.483520  7283 net.cpp:141] Setting up inception_3b/5x5
I0403 18:42:43.483551  7283 net.cpp:148] Top shape: 24 96 28 28 (1806336)
I0403 18:42:43.483568  7283 net.cpp:156] Memory required for data: 736986144
I0403 18:42:43.483587  7283 layer_factory.hpp:77] Creating layer inception_3b/relu_5x5
I0403 18:42:43.483606  7283 net.cpp:91] Creating Layer inception_3b/relu_5x5
I0403 18:42:43.483623  7283 net.cpp:425] inception_3b/relu_5x5 <- inception_3b/5x5
I0403 18:42:43.483642  7283 net.cpp:386] inception_3b/relu_5x5 -> inception_3b/5x5 (in-place)
I0403 18:42:43.483839  7283 net.cpp:141] Setting up inception_3b/relu_5x5
I0403 18:42:43.483863  7283 net.cpp:148] Top shape: 24 96 28 28 (1806336)
I0403 18:42:43.483880  7283 net.cpp:156] Memory required for data: 744211488
I0403 18:42:43.483894  7283 layer_factory.hpp:77] Creating layer inception_3b/pool
I0403 18:42:43.483913  7283 net.cpp:91] Creating Layer inception_3b/pool
I0403 18:42:43.483929  7283 net.cpp:425] inception_3b/pool <- inception_3a/output_inception_3a/output_0_split_3
I0403 18:42:43.483947  7283 net.cpp:399] inception_3b/pool -> inception_3b/pool
I0403 18:42:43.484007  7283 net.cpp:141] Setting up inception_3b/pool
I0403 18:42:43.484031  7283 net.cpp:148] Top shape: 24 256 28 28 (4816896)
I0403 18:42:43.484046  7283 net.cpp:156] Memory required for data: 763479072
I0403 18:42:43.484062  7283 layer_factory.hpp:77] Creating layer inception_3b/pool_proj
I0403 18:42:43.484084  7283 net.cpp:91] Creating Layer inception_3b/pool_proj
I0403 18:42:43.484103  7283 net.cpp:425] inception_3b/pool_proj <- inception_3b/pool
I0403 18:42:43.484124  7283 net.cpp:399] inception_3b/pool_proj -> inception_3b/pool_proj
I0403 18:42:43.485211  7283 net.cpp:141] Setting up inception_3b/pool_proj
I0403 18:42:43.485240  7283 net.cpp:148] Top shape: 24 64 28 28 (1204224)
I0403 18:42:43.485257  7283 net.cpp:156] Memory required for data: 768295968
I0403 18:42:43.485278  7283 layer_factory.hpp:77] Creating layer inception_3b/relu_pool_proj
I0403 18:42:43.485298  7283 net.cpp:91] Creating Layer inception_3b/relu_pool_proj
I0403 18:42:43.485316  7283 net.cpp:425] inception_3b/relu_pool_proj <- inception_3b/pool_proj
I0403 18:42:43.485333  7283 net.cpp:386] inception_3b/relu_pool_proj -> inception_3b/pool_proj (in-place)
I0403 18:42:43.485719  7283 net.cpp:141] Setting up inception_3b/relu_pool_proj
I0403 18:42:43.485746  7283 net.cpp:148] Top shape: 24 64 28 28 (1204224)
I0403 18:42:43.485762  7283 net.cpp:156] Memory required for data: 773112864
I0403 18:42:43.485777  7283 layer_factory.hpp:77] Creating layer inception_3b/output
I0403 18:42:43.485798  7283 net.cpp:91] Creating Layer inception_3b/output
I0403 18:42:43.485816  7283 net.cpp:425] inception_3b/output <- inception_3b/1x1
I0403 18:42:43.485832  7283 net.cpp:425] inception_3b/output <- inception_3b/3x3
I0403 18:42:43.485849  7283 net.cpp:425] inception_3b/output <- inception_3b/5x5
I0403 18:42:43.485865  7283 net.cpp:425] inception_3b/output <- inception_3b/pool_proj
I0403 18:42:43.485883  7283 net.cpp:399] inception_3b/output -> inception_3b/output
I0403 18:42:43.485929  7283 net.cpp:141] Setting up inception_3b/output
I0403 18:42:43.485952  7283 net.cpp:148] Top shape: 24 480 28 28 (9031680)
I0403 18:42:43.485968  7283 net.cpp:156] Memory required for data: 809239584
I0403 18:42:43.485983  7283 layer_factory.hpp:77] Creating layer pool3/3x3_s2
I0403 18:42:43.486001  7283 net.cpp:91] Creating Layer pool3/3x3_s2
I0403 18:42:43.486017  7283 net.cpp:425] pool3/3x3_s2 <- inception_3b/output
I0403 18:42:43.486057  7283 net.cpp:399] pool3/3x3_s2 -> pool3/3x3_s2
I0403 18:42:43.486117  7283 net.cpp:141] Setting up pool3/3x3_s2
I0403 18:42:43.486142  7283 net.cpp:148] Top shape: 24 480 14 14 (2257920)
I0403 18:42:43.486157  7283 net.cpp:156] Memory required for data: 818271264
I0403 18:42:43.486173  7283 layer_factory.hpp:77] Creating layer pool3/3x3_s2_pool3/3x3_s2_0_split
I0403 18:42:43.486197  7283 net.cpp:91] Creating Layer pool3/3x3_s2_pool3/3x3_s2_0_split
I0403 18:42:43.486214  7283 net.cpp:425] pool3/3x3_s2_pool3/3x3_s2_0_split <- pool3/3x3_s2
I0403 18:42:43.486232  7283 net.cpp:399] pool3/3x3_s2_pool3/3x3_s2_0_split -> pool3/3x3_s2_pool3/3x3_s2_0_split_0
I0403 18:42:43.486253  7283 net.cpp:399] pool3/3x3_s2_pool3/3x3_s2_0_split -> pool3/3x3_s2_pool3/3x3_s2_0_split_1
I0403 18:42:43.486274  7283 net.cpp:399] pool3/3x3_s2_pool3/3x3_s2_0_split -> pool3/3x3_s2_pool3/3x3_s2_0_split_2
I0403 18:42:43.486294  7283 net.cpp:399] pool3/3x3_s2_pool3/3x3_s2_0_split -> pool3/3x3_s2_pool3/3x3_s2_0_split_3
I0403 18:42:43.486376  7283 net.cpp:141] Setting up pool3/3x3_s2_pool3/3x3_s2_0_split
I0403 18:42:43.486399  7283 net.cpp:148] Top shape: 24 480 14 14 (2257920)
I0403 18:42:43.486416  7283 net.cpp:148] Top shape: 24 480 14 14 (2257920)
I0403 18:42:43.486433  7283 net.cpp:148] Top shape: 24 480 14 14 (2257920)
I0403 18:42:43.486449  7283 net.cpp:148] Top shape: 24 480 14 14 (2257920)
I0403 18:42:43.486464  7283 net.cpp:156] Memory required for data: 854397984
I0403 18:42:43.486480  7283 layer_factory.hpp:77] Creating layer inception_4a/1x1
I0403 18:42:43.486507  7283 net.cpp:91] Creating Layer inception_4a/1x1
I0403 18:42:43.486524  7283 net.cpp:425] inception_4a/1x1 <- pool3/3x3_s2_pool3/3x3_s2_0_split_0
I0403 18:42:43.486544  7283 net.cpp:399] inception_4a/1x1 -> inception_4a/1x1
I0403 18:42:43.488155  7283 net.cpp:141] Setting up inception_4a/1x1
I0403 18:42:43.488193  7283 net.cpp:148] Top shape: 24 192 14 14 (903168)
I0403 18:42:43.488212  7283 net.cpp:156] Memory required for data: 858010656
I0403 18:42:43.488232  7283 layer_factory.hpp:77] Creating layer inception_4a/relu_1x1
I0403 18:42:43.488252  7283 net.cpp:91] Creating Layer inception_4a/relu_1x1
I0403 18:42:43.488270  7283 net.cpp:425] inception_4a/relu_1x1 <- inception_4a/1x1
I0403 18:42:43.488291  7283 net.cpp:386] inception_4a/relu_1x1 -> inception_4a/1x1 (in-place)
I0403 18:42:43.488474  7283 net.cpp:141] Setting up inception_4a/relu_1x1
I0403 18:42:43.488502  7283 net.cpp:148] Top shape: 24 192 14 14 (903168)
I0403 18:42:43.488517  7283 net.cpp:156] Memory required for data: 861623328
I0403 18:42:43.488533  7283 layer_factory.hpp:77] Creating layer inception_4a/3x3_reduce
I0403 18:42:43.488555  7283 net.cpp:91] Creating Layer inception_4a/3x3_reduce
I0403 18:42:43.488574  7283 net.cpp:425] inception_4a/3x3_reduce <- pool3/3x3_s2_pool3/3x3_s2_0_split_1
I0403 18:42:43.488595  7283 net.cpp:399] inception_4a/3x3_reduce -> inception_4a/3x3_reduce
I0403 18:42:43.489938  7283 net.cpp:141] Setting up inception_4a/3x3_reduce
I0403 18:42:43.489970  7283 net.cpp:148] Top shape: 24 96 14 14 (451584)
I0403 18:42:43.489992  7283 net.cpp:156] Memory required for data: 863429664
I0403 18:42:43.490016  7283 layer_factory.hpp:77] Creating layer inception_4a/relu_3x3_reduce
I0403 18:42:43.490039  7283 net.cpp:91] Creating Layer inception_4a/relu_3x3_reduce
I0403 18:42:43.490057  7283 net.cpp:425] inception_4a/relu_3x3_reduce <- inception_4a/3x3_reduce
I0403 18:42:43.490077  7283 net.cpp:386] inception_4a/relu_3x3_reduce -> inception_4a/3x3_reduce (in-place)
I0403 18:42:43.490272  7283 net.cpp:141] Setting up inception_4a/relu_3x3_reduce
I0403 18:42:43.490298  7283 net.cpp:148] Top shape: 24 96 14 14 (451584)
I0403 18:42:43.490313  7283 net.cpp:156] Memory required for data: 865236000
I0403 18:42:43.490327  7283 layer_factory.hpp:77] Creating layer inception_4a/3x3
I0403 18:42:43.490350  7283 net.cpp:91] Creating Layer inception_4a/3x3
I0403 18:42:43.490367  7283 net.cpp:425] inception_4a/3x3 <- inception_4a/3x3_reduce
I0403 18:42:43.490389  7283 net.cpp:399] inception_4a/3x3 -> inception_4a/3x3
I0403 18:42:43.493219  7283 net.cpp:141] Setting up inception_4a/3x3
I0403 18:42:43.493252  7283 net.cpp:148] Top shape: 24 208 14 14 (978432)
I0403 18:42:43.493268  7283 net.cpp:156] Memory required for data: 869149728
I0403 18:42:43.493288  7283 layer_factory.hpp:77] Creating layer inception_4a/relu_3x3
I0403 18:42:43.493307  7283 net.cpp:91] Creating Layer inception_4a/relu_3x3
I0403 18:42:43.493325  7283 net.cpp:425] inception_4a/relu_3x3 <- inception_4a/3x3
I0403 18:42:43.493345  7283 net.cpp:386] inception_4a/relu_3x3 -> inception_4a/3x3 (in-place)
I0403 18:42:43.493636  7283 net.cpp:141] Setting up inception_4a/relu_3x3
I0403 18:42:43.493664  7283 net.cpp:148] Top shape: 24 208 14 14 (978432)
I0403 18:42:43.493679  7283 net.cpp:156] Memory required for data: 873063456
I0403 18:42:43.493695  7283 layer_factory.hpp:77] Creating layer inception_4a/5x5_reduce
I0403 18:42:43.493721  7283 net.cpp:91] Creating Layer inception_4a/5x5_reduce
I0403 18:42:43.493739  7283 net.cpp:425] inception_4a/5x5_reduce <- pool3/3x3_s2_pool3/3x3_s2_0_split_2
I0403 18:42:43.493762  7283 net.cpp:399] inception_4a/5x5_reduce -> inception_4a/5x5_reduce
I0403 18:42:43.494829  7283 net.cpp:141] Setting up inception_4a/5x5_reduce
I0403 18:42:43.494860  7283 net.cpp:148] Top shape: 24 16 14 14 (75264)
I0403 18:42:43.494879  7283 net.cpp:156] Memory required for data: 873364512
I0403 18:42:43.494899  7283 layer_factory.hpp:77] Creating layer inception_4a/relu_5x5_reduce
I0403 18:42:43.494923  7283 net.cpp:91] Creating Layer inception_4a/relu_5x5_reduce
I0403 18:42:43.494941  7283 net.cpp:425] inception_4a/relu_5x5_reduce <- inception_4a/5x5_reduce
I0403 18:42:43.494961  7283 net.cpp:386] inception_4a/relu_5x5_reduce -> inception_4a/5x5_reduce (in-place)
I0403 18:42:43.495143  7283 net.cpp:141] Setting up inception_4a/relu_5x5_reduce
I0403 18:42:43.495168  7283 net.cpp:148] Top shape: 24 16 14 14 (75264)
I0403 18:42:43.495189  7283 net.cpp:156] Memory required for data: 873665568
I0403 18:42:43.495205  7283 layer_factory.hpp:77] Creating layer inception_4a/5x5
I0403 18:42:43.495231  7283 net.cpp:91] Creating Layer inception_4a/5x5
I0403 18:42:43.495251  7283 net.cpp:425] inception_4a/5x5 <- inception_4a/5x5_reduce
I0403 18:42:43.495270  7283 net.cpp:399] inception_4a/5x5 -> inception_4a/5x5
I0403 18:42:43.496404  7283 net.cpp:141] Setting up inception_4a/5x5
I0403 18:42:43.496433  7283 net.cpp:148] Top shape: 24 48 14 14 (225792)
I0403 18:42:43.496449  7283 net.cpp:156] Memory required for data: 874568736
I0403 18:42:43.496469  7283 layer_factory.hpp:77] Creating layer inception_4a/relu_5x5
I0403 18:42:43.496490  7283 net.cpp:91] Creating Layer inception_4a/relu_5x5
I0403 18:42:43.496507  7283 net.cpp:425] inception_4a/relu_5x5 <- inception_4a/5x5
I0403 18:42:43.496526  7283 net.cpp:386] inception_4a/relu_5x5 -> inception_4a/5x5 (in-place)
I0403 18:42:43.496716  7283 net.cpp:141] Setting up inception_4a/relu_5x5
I0403 18:42:43.496745  7283 net.cpp:148] Top shape: 24 48 14 14 (225792)
I0403 18:42:43.496762  7283 net.cpp:156] Memory required for data: 875471904
I0403 18:42:43.496778  7283 layer_factory.hpp:77] Creating layer inception_4a/pool
I0403 18:42:43.496795  7283 net.cpp:91] Creating Layer inception_4a/pool
I0403 18:42:43.496811  7283 net.cpp:425] inception_4a/pool <- pool3/3x3_s2_pool3/3x3_s2_0_split_3
I0403 18:42:43.496831  7283 net.cpp:399] inception_4a/pool -> inception_4a/pool
I0403 18:42:43.496892  7283 net.cpp:141] Setting up inception_4a/pool
I0403 18:42:43.496917  7283 net.cpp:148] Top shape: 24 480 14 14 (2257920)
I0403 18:42:43.496932  7283 net.cpp:156] Memory required for data: 884503584
I0403 18:42:43.496945  7283 layer_factory.hpp:77] Creating layer inception_4a/pool_proj
I0403 18:42:43.496968  7283 net.cpp:91] Creating Layer inception_4a/pool_proj
I0403 18:42:43.496984  7283 net.cpp:425] inception_4a/pool_proj <- inception_4a/pool
I0403 18:42:43.497005  7283 net.cpp:399] inception_4a/pool_proj -> inception_4a/pool_proj
I0403 18:42:43.498181  7283 net.cpp:141] Setting up inception_4a/pool_proj
I0403 18:42:43.498214  7283 net.cpp:148] Top shape: 24 64 14 14 (301056)
I0403 18:42:43.498247  7283 net.cpp:156] Memory required for data: 885707808
I0403 18:42:43.498267  7283 layer_factory.hpp:77] Creating layer inception_4a/relu_pool_proj
I0403 18:42:43.498284  7283 net.cpp:91] Creating Layer inception_4a/relu_pool_proj
I0403 18:42:43.498301  7283 net.cpp:425] inception_4a/relu_pool_proj <- inception_4a/pool_proj
I0403 18:42:43.498318  7283 net.cpp:386] inception_4a/relu_pool_proj -> inception_4a/pool_proj (in-place)
I0403 18:42:43.498600  7283 net.cpp:141] Setting up inception_4a/relu_pool_proj
I0403 18:42:43.498630  7283 net.cpp:148] Top shape: 24 64 14 14 (301056)
I0403 18:42:43.498646  7283 net.cpp:156] Memory required for data: 886912032
I0403 18:42:43.498661  7283 layer_factory.hpp:77] Creating layer inception_4a/output
I0403 18:42:43.498678  7283 net.cpp:91] Creating Layer inception_4a/output
I0403 18:42:43.498693  7283 net.cpp:425] inception_4a/output <- inception_4a/1x1
I0403 18:42:43.498710  7283 net.cpp:425] inception_4a/output <- inception_4a/3x3
I0403 18:42:43.498726  7283 net.cpp:425] inception_4a/output <- inception_4a/5x5
I0403 18:42:43.498742  7283 net.cpp:425] inception_4a/output <- inception_4a/pool_proj
I0403 18:42:43.498759  7283 net.cpp:399] inception_4a/output -> inception_4a/output
I0403 18:42:43.498805  7283 net.cpp:141] Setting up inception_4a/output
I0403 18:42:43.498827  7283 net.cpp:148] Top shape: 24 512 14 14 (2408448)
I0403 18:42:43.498842  7283 net.cpp:156] Memory required for data: 896545824
I0403 18:42:43.498857  7283 layer_factory.hpp:77] Creating layer inception_4a/output_inception_4a/output_0_split
I0403 18:42:43.498877  7283 net.cpp:91] Creating Layer inception_4a/output_inception_4a/output_0_split
I0403 18:42:43.498893  7283 net.cpp:425] inception_4a/output_inception_4a/output_0_split <- inception_4a/output
I0403 18:42:43.498910  7283 net.cpp:399] inception_4a/output_inception_4a/output_0_split -> inception_4a/output_inception_4a/output_0_split_0
I0403 18:42:43.498931  7283 net.cpp:399] inception_4a/output_inception_4a/output_0_split -> inception_4a/output_inception_4a/output_0_split_1
I0403 18:42:43.498952  7283 net.cpp:399] inception_4a/output_inception_4a/output_0_split -> inception_4a/output_inception_4a/output_0_split_2
I0403 18:42:43.498975  7283 net.cpp:399] inception_4a/output_inception_4a/output_0_split -> inception_4a/output_inception_4a/output_0_split_3
I0403 18:42:43.498996  7283 net.cpp:399] inception_4a/output_inception_4a/output_0_split -> inception_4a/output_inception_4a/output_0_split_4
I0403 18:42:43.499090  7283 net.cpp:141] Setting up inception_4a/output_inception_4a/output_0_split
I0403 18:42:43.499114  7283 net.cpp:148] Top shape: 24 512 14 14 (2408448)
I0403 18:42:43.499130  7283 net.cpp:148] Top shape: 24 512 14 14 (2408448)
I0403 18:42:43.499146  7283 net.cpp:148] Top shape: 24 512 14 14 (2408448)
I0403 18:42:43.499162  7283 net.cpp:148] Top shape: 24 512 14 14 (2408448)
I0403 18:42:43.499182  7283 net.cpp:148] Top shape: 24 512 14 14 (2408448)
I0403 18:42:43.499198  7283 net.cpp:156] Memory required for data: 944714784
I0403 18:42:43.499212  7283 layer_factory.hpp:77] Creating layer loss1/ave_pool
I0403 18:42:43.499233  7283 net.cpp:91] Creating Layer loss1/ave_pool
I0403 18:42:43.499249  7283 net.cpp:425] loss1/ave_pool <- inception_4a/output_inception_4a/output_0_split_0
I0403 18:42:43.499269  7283 net.cpp:399] loss1/ave_pool -> loss1/ave_pool
I0403 18:42:43.499471  7283 net.cpp:141] Setting up loss1/ave_pool
I0403 18:42:43.499500  7283 net.cpp:148] Top shape: 24 512 4 4 (196608)
I0403 18:42:43.499514  7283 net.cpp:156] Memory required for data: 945501216
I0403 18:42:43.499529  7283 layer_factory.hpp:77] Creating layer loss1/conv
I0403 18:42:43.499552  7283 net.cpp:91] Creating Layer loss1/conv
I0403 18:42:43.499569  7283 net.cpp:425] loss1/conv <- loss1/ave_pool
I0403 18:42:43.499588  7283 net.cpp:399] loss1/conv -> loss1/conv
I0403 18:42:43.501000  7283 net.cpp:141] Setting up loss1/conv
I0403 18:42:43.501029  7283 net.cpp:148] Top shape: 24 128 4 4 (49152)
I0403 18:42:43.501060  7283 net.cpp:156] Memory required for data: 945697824
I0403 18:42:43.501080  7283 layer_factory.hpp:77] Creating layer loss1/relu_conv
I0403 18:42:43.501101  7283 net.cpp:91] Creating Layer loss1/relu_conv
I0403 18:42:43.501121  7283 net.cpp:425] loss1/relu_conv <- loss1/conv
I0403 18:42:43.501139  7283 net.cpp:386] loss1/relu_conv -> loss1/conv (in-place)
I0403 18:42:43.501426  7283 net.cpp:141] Setting up loss1/relu_conv
I0403 18:42:43.501453  7283 net.cpp:148] Top shape: 24 128 4 4 (49152)
I0403 18:42:43.501468  7283 net.cpp:156] Memory required for data: 945894432
I0403 18:42:43.501484  7283 layer_factory.hpp:77] Creating layer loss1/fc
I0403 18:42:43.501507  7283 net.cpp:91] Creating Layer loss1/fc
I0403 18:42:43.501528  7283 net.cpp:425] loss1/fc <- loss1/conv
I0403 18:42:43.501546  7283 net.cpp:399] loss1/fc -> loss1/fc
I0403 18:42:43.519546  7283 net.cpp:141] Setting up loss1/fc
I0403 18:42:43.519584  7283 net.cpp:148] Top shape: 24 1024 (24576)
I0403 18:42:43.519601  7283 net.cpp:156] Memory required for data: 945992736
I0403 18:42:43.519620  7283 layer_factory.hpp:77] Creating layer loss1/relu_fc
I0403 18:42:43.519641  7283 net.cpp:91] Creating Layer loss1/relu_fc
I0403 18:42:43.519659  7283 net.cpp:425] loss1/relu_fc <- loss1/fc
I0403 18:42:43.519676  7283 net.cpp:386] loss1/relu_fc -> loss1/fc (in-place)
I0403 18:42:43.519867  7283 net.cpp:141] Setting up loss1/relu_fc
I0403 18:42:43.519892  7283 net.cpp:148] Top shape: 24 1024 (24576)
I0403 18:42:43.519909  7283 net.cpp:156] Memory required for data: 946091040
I0403 18:42:43.519925  7283 layer_factory.hpp:77] Creating layer loss1/drop_fc
I0403 18:42:43.519953  7283 net.cpp:91] Creating Layer loss1/drop_fc
I0403 18:42:43.519969  7283 net.cpp:425] loss1/drop_fc <- loss1/fc
I0403 18:42:43.519989  7283 net.cpp:386] loss1/drop_fc -> loss1/fc (in-place)
I0403 18:42:43.520040  7283 net.cpp:141] Setting up loss1/drop_fc
I0403 18:42:43.520061  7283 net.cpp:148] Top shape: 24 1024 (24576)
I0403 18:42:43.520076  7283 net.cpp:156] Memory required for data: 946189344
I0403 18:42:43.520092  7283 layer_factory.hpp:77] Creating layer loss1/classifier_plantvillage
I0403 18:42:43.520113  7283 net.cpp:91] Creating Layer loss1/classifier_plantvillage
I0403 18:42:43.520131  7283 net.cpp:425] loss1/classifier_plantvillage <- loss1/fc
I0403 18:42:43.520151  7283 net.cpp:399] loss1/classifier_plantvillage -> loss1/classifier_plantvillage
I0403 18:42:43.521070  7283 net.cpp:141] Setting up loss1/classifier_plantvillage
I0403 18:42:43.521101  7283 net.cpp:148] Top shape: 24 38 (912)
I0403 18:42:43.521118  7283 net.cpp:156] Memory required for data: 946192992
I0403 18:42:43.521147  7283 layer_factory.hpp:77] Creating layer loss1/classifier_plantvillage_loss1/classifier_plantvillage_0_split
I0403 18:42:43.521165  7283 net.cpp:91] Creating Layer loss1/classifier_plantvillage_loss1/classifier_plantvillage_0_split
I0403 18:42:43.521196  7283 net.cpp:425] loss1/classifier_plantvillage_loss1/classifier_plantvillage_0_split <- loss1/classifier_plantvillage
I0403 18:42:43.521219  7283 net.cpp:399] loss1/classifier_plantvillage_loss1/classifier_plantvillage_0_split -> loss1/classifier_plantvillage_loss1/classifier_plantvillage_0_split_0
I0403 18:42:43.521250  7283 net.cpp:399] loss1/classifier_plantvillage_loss1/classifier_plantvillage_0_split -> loss1/classifier_plantvillage_loss1/classifier_plantvillage_0_split_1
I0403 18:42:43.521270  7283 net.cpp:399] loss1/classifier_plantvillage_loss1/classifier_plantvillage_0_split -> loss1/classifier_plantvillage_loss1/classifier_plantvillage_0_split_2
I0403 18:42:43.521337  7283 net.cpp:141] Setting up loss1/classifier_plantvillage_loss1/classifier_plantvillage_0_split
I0403 18:42:43.521359  7283 net.cpp:148] Top shape: 24 38 (912)
I0403 18:42:43.521375  7283 net.cpp:148] Top shape: 24 38 (912)
I0403 18:42:43.521391  7283 net.cpp:148] Top shape: 24 38 (912)
I0403 18:42:43.521405  7283 net.cpp:156] Memory required for data: 946203936
I0403 18:42:43.521420  7283 layer_factory.hpp:77] Creating layer inception_4b/1x1
I0403 18:42:43.521442  7283 net.cpp:91] Creating Layer inception_4b/1x1
I0403 18:42:43.521474  7283 net.cpp:425] inception_4b/1x1 <- inception_4a/output_inception_4a/output_0_split_1
I0403 18:42:43.521502  7283 net.cpp:399] inception_4b/1x1 -> inception_4b/1x1
I0403 18:42:43.523154  7283 net.cpp:141] Setting up inception_4b/1x1
I0403 18:42:43.523188  7283 net.cpp:148] Top shape: 24 160 14 14 (752640)
I0403 18:42:43.523208  7283 net.cpp:156] Memory required for data: 949214496
I0403 18:42:43.523228  7283 layer_factory.hpp:77] Creating layer inception_4b/relu_1x1
I0403 18:42:43.523248  7283 net.cpp:91] Creating Layer inception_4b/relu_1x1
I0403 18:42:43.523265  7283 net.cpp:425] inception_4b/relu_1x1 <- inception_4b/1x1
I0403 18:42:43.523283  7283 net.cpp:386] inception_4b/relu_1x1 -> inception_4b/1x1 (in-place)
I0403 18:42:43.523459  7283 net.cpp:141] Setting up inception_4b/relu_1x1
I0403 18:42:43.523484  7283 net.cpp:148] Top shape: 24 160 14 14 (752640)
I0403 18:42:43.523499  7283 net.cpp:156] Memory required for data: 952225056
I0403 18:42:43.523514  7283 layer_factory.hpp:77] Creating layer inception_4b/3x3_reduce
I0403 18:42:43.523537  7283 net.cpp:91] Creating Layer inception_4b/3x3_reduce
I0403 18:42:43.523555  7283 net.cpp:425] inception_4b/3x3_reduce <- inception_4a/output_inception_4a/output_0_split_2
I0403 18:42:43.523577  7283 net.cpp:399] inception_4b/3x3_reduce -> inception_4b/3x3_reduce
I0403 18:42:43.524936  7283 net.cpp:141] Setting up inception_4b/3x3_reduce
I0403 18:42:43.524966  7283 net.cpp:148] Top shape: 24 112 14 14 (526848)
I0403 18:42:43.524981  7283 net.cpp:156] Memory required for data: 954332448
I0403 18:42:43.525001  7283 layer_factory.hpp:77] Creating layer inception_4b/relu_3x3_reduce
I0403 18:42:43.525022  7283 net.cpp:91] Creating Layer inception_4b/relu_3x3_reduce
I0403 18:42:43.525039  7283 net.cpp:425] inception_4b/relu_3x3_reduce <- inception_4b/3x3_reduce
I0403 18:42:43.525058  7283 net.cpp:386] inception_4b/relu_3x3_reduce -> inception_4b/3x3_reduce (in-place)
I0403 18:42:43.525349  7283 net.cpp:141] Setting up inception_4b/relu_3x3_reduce
I0403 18:42:43.525377  7283 net.cpp:148] Top shape: 24 112 14 14 (526848)
I0403 18:42:43.525393  7283 net.cpp:156] Memory required for data: 956439840
I0403 18:42:43.525408  7283 layer_factory.hpp:77] Creating layer inception_4b/3x3
I0403 18:42:43.525430  7283 net.cpp:91] Creating Layer inception_4b/3x3
I0403 18:42:43.525449  7283 net.cpp:425] inception_4b/3x3 <- inception_4b/3x3_reduce
I0403 18:42:43.525470  7283 net.cpp:399] inception_4b/3x3 -> inception_4b/3x3
I0403 18:42:43.528489  7283 net.cpp:141] Setting up inception_4b/3x3
I0403 18:42:43.528523  7283 net.cpp:148] Top shape: 24 224 14 14 (1053696)
I0403 18:42:43.528540  7283 net.cpp:156] Memory required for data: 960654624
I0403 18:42:43.528559  7283 layer_factory.hpp:77] Creating layer inception_4b/relu_3x3
I0403 18:42:43.528578  7283 net.cpp:91] Creating Layer inception_4b/relu_3x3
I0403 18:42:43.528594  7283 net.cpp:425] inception_4b/relu_3x3 <- inception_4b/3x3
I0403 18:42:43.528614  7283 net.cpp:386] inception_4b/relu_3x3 -> inception_4b/3x3 (in-place)
I0403 18:42:43.528797  7283 net.cpp:141] Setting up inception_4b/relu_3x3
I0403 18:42:43.528821  7283 net.cpp:148] Top shape: 24 224 14 14 (1053696)
I0403 18:42:43.528836  7283 net.cpp:156] Memory required for data: 964869408
I0403 18:42:43.528851  7283 layer_factory.hpp:77] Creating layer inception_4b/5x5_reduce
I0403 18:42:43.528873  7283 net.cpp:91] Creating Layer inception_4b/5x5_reduce
I0403 18:42:43.528892  7283 net.cpp:425] inception_4b/5x5_reduce <- inception_4a/output_inception_4a/output_0_split_3
I0403 18:42:43.528914  7283 net.cpp:399] inception_4b/5x5_reduce -> inception_4b/5x5_reduce
I0403 18:42:43.530007  7283 net.cpp:141] Setting up inception_4b/5x5_reduce
I0403 18:42:43.530036  7283 net.cpp:148] Top shape: 24 24 14 14 (112896)
I0403 18:42:43.530052  7283 net.cpp:156] Memory required for data: 965320992
I0403 18:42:43.530073  7283 layer_factory.hpp:77] Creating layer inception_4b/relu_5x5_reduce
I0403 18:42:43.530093  7283 net.cpp:91] Creating Layer inception_4b/relu_5x5_reduce
I0403 18:42:43.530128  7283 net.cpp:425] inception_4b/relu_5x5_reduce <- inception_4b/5x5_reduce
I0403 18:42:43.530148  7283 net.cpp:386] inception_4b/relu_5x5_reduce -> inception_4b/5x5_reduce (in-place)
I0403 18:42:43.530336  7283 net.cpp:141] Setting up inception_4b/relu_5x5_reduce
I0403 18:42:43.530364  7283 net.cpp:148] Top shape: 24 24 14 14 (112896)
I0403 18:42:43.530380  7283 net.cpp:156] Memory required for data: 965772576
I0403 18:42:43.530395  7283 layer_factory.hpp:77] Creating layer inception_4b/5x5
I0403 18:42:43.530416  7283 net.cpp:91] Creating Layer inception_4b/5x5
I0403 18:42:43.530432  7283 net.cpp:425] inception_4b/5x5 <- inception_4b/5x5_reduce
I0403 18:42:43.530453  7283 net.cpp:399] inception_4b/5x5 -> inception_4b/5x5
I0403 18:42:43.531692  7283 net.cpp:141] Setting up inception_4b/5x5
I0403 18:42:43.531721  7283 net.cpp:148] Top shape: 24 64 14 14 (301056)
I0403 18:42:43.531738  7283 net.cpp:156] Memory required for data: 966976800
I0403 18:42:43.531759  7283 layer_factory.hpp:77] Creating layer inception_4b/relu_5x5
I0403 18:42:43.531780  7283 net.cpp:91] Creating Layer inception_4b/relu_5x5
I0403 18:42:43.531796  7283 net.cpp:425] inception_4b/relu_5x5 <- inception_4b/5x5
I0403 18:42:43.531815  7283 net.cpp:386] inception_4b/relu_5x5 -> inception_4b/5x5 (in-place)
I0403 18:42:43.532097  7283 net.cpp:141] Setting up inception_4b/relu_5x5
I0403 18:42:43.532124  7283 net.cpp:148] Top shape: 24 64 14 14 (301056)
I0403 18:42:43.532140  7283 net.cpp:156] Memory required for data: 968181024
I0403 18:42:43.532155  7283 layer_factory.hpp:77] Creating layer inception_4b/pool
I0403 18:42:43.532173  7283 net.cpp:91] Creating Layer inception_4b/pool
I0403 18:42:43.532203  7283 net.cpp:425] inception_4b/pool <- inception_4a/output_inception_4a/output_0_split_4
I0403 18:42:43.532225  7283 net.cpp:399] inception_4b/pool -> inception_4b/pool
I0403 18:42:43.532289  7283 net.cpp:141] Setting up inception_4b/pool
I0403 18:42:43.532315  7283 net.cpp:148] Top shape: 24 512 14 14 (2408448)
I0403 18:42:43.532330  7283 net.cpp:156] Memory required for data: 977814816
I0403 18:42:43.532346  7283 layer_factory.hpp:77] Creating layer inception_4b/pool_proj
I0403 18:42:43.532368  7283 net.cpp:91] Creating Layer inception_4b/pool_proj
I0403 18:42:43.532387  7283 net.cpp:425] inception_4b/pool_proj <- inception_4b/pool
I0403 18:42:43.532407  7283 net.cpp:399] inception_4b/pool_proj -> inception_4b/pool_proj
I0403 18:42:43.533612  7283 net.cpp:141] Setting up inception_4b/pool_proj
I0403 18:42:43.533641  7283 net.cpp:148] Top shape: 24 64 14 14 (301056)
I0403 18:42:43.533658  7283 net.cpp:156] Memory required for data: 979019040
I0403 18:42:43.533675  7283 layer_factory.hpp:77] Creating layer inception_4b/relu_pool_proj
I0403 18:42:43.533699  7283 net.cpp:91] Creating Layer inception_4b/relu_pool_proj
I0403 18:42:43.533717  7283 net.cpp:425] inception_4b/relu_pool_proj <- inception_4b/pool_proj
I0403 18:42:43.533735  7283 net.cpp:386] inception_4b/relu_pool_proj -> inception_4b/pool_proj (in-place)
I0403 18:42:43.533920  7283 net.cpp:141] Setting up inception_4b/relu_pool_proj
I0403 18:42:43.533944  7283 net.cpp:148] Top shape: 24 64 14 14 (301056)
I0403 18:42:43.533959  7283 net.cpp:156] Memory required for data: 980223264
I0403 18:42:43.533974  7283 layer_factory.hpp:77] Creating layer inception_4b/output
I0403 18:42:43.533994  7283 net.cpp:91] Creating Layer inception_4b/output
I0403 18:42:43.534011  7283 net.cpp:425] inception_4b/output <- inception_4b/1x1
I0403 18:42:43.534029  7283 net.cpp:425] inception_4b/output <- inception_4b/3x3
I0403 18:42:43.534045  7283 net.cpp:425] inception_4b/output <- inception_4b/5x5
I0403 18:42:43.534060  7283 net.cpp:425] inception_4b/output <- inception_4b/pool_proj
I0403 18:42:43.534077  7283 net.cpp:399] inception_4b/output -> inception_4b/output
I0403 18:42:43.534127  7283 net.cpp:141] Setting up inception_4b/output
I0403 18:42:43.534150  7283 net.cpp:148] Top shape: 24 512 14 14 (2408448)
I0403 18:42:43.534165  7283 net.cpp:156] Memory required for data: 989857056
I0403 18:42:43.534200  7283 layer_factory.hpp:77] Creating layer inception_4b/output_inception_4b/output_0_split
I0403 18:42:43.534219  7283 net.cpp:91] Creating Layer inception_4b/output_inception_4b/output_0_split
I0403 18:42:43.534232  7283 net.cpp:425] inception_4b/output_inception_4b/output_0_split <- inception_4b/output
I0403 18:42:43.534252  7283 net.cpp:399] inception_4b/output_inception_4b/output_0_split -> inception_4b/output_inception_4b/output_0_split_0
I0403 18:42:43.534276  7283 net.cpp:399] inception_4b/output_inception_4b/output_0_split -> inception_4b/output_inception_4b/output_0_split_1
I0403 18:42:43.534296  7283 net.cpp:399] inception_4b/output_inception_4b/output_0_split -> inception_4b/output_inception_4b/output_0_split_2
I0403 18:42:43.534315  7283 net.cpp:399] inception_4b/output_inception_4b/output_0_split -> inception_4b/output_inception_4b/output_0_split_3
I0403 18:42:43.534402  7283 net.cpp:141] Setting up inception_4b/output_inception_4b/output_0_split
I0403 18:42:43.534427  7283 net.cpp:148] Top shape: 24 512 14 14 (2408448)
I0403 18:42:43.534446  7283 net.cpp:148] Top shape: 24 512 14 14 (2408448)
I0403 18:42:43.534461  7283 net.cpp:148] Top shape: 24 512 14 14 (2408448)
I0403 18:42:43.534478  7283 net.cpp:148] Top shape: 24 512 14 14 (2408448)
I0403 18:42:43.534492  7283 net.cpp:156] Memory required for data: 1028392224
I0403 18:42:43.534508  7283 layer_factory.hpp:77] Creating layer inception_4c/1x1
I0403 18:42:43.534530  7283 net.cpp:91] Creating Layer inception_4c/1x1
I0403 18:42:43.534548  7283 net.cpp:425] inception_4c/1x1 <- inception_4b/output_inception_4b/output_0_split_0
I0403 18:42:43.534569  7283 net.cpp:399] inception_4c/1x1 -> inception_4c/1x1
I0403 18:42:43.536005  7283 net.cpp:141] Setting up inception_4c/1x1
I0403 18:42:43.536036  7283 net.cpp:148] Top shape: 24 128 14 14 (602112)
I0403 18:42:43.536051  7283 net.cpp:156] Memory required for data: 1030800672
I0403 18:42:43.536072  7283 layer_factory.hpp:77] Creating layer inception_4c/relu_1x1
I0403 18:42:43.536093  7283 net.cpp:91] Creating Layer inception_4c/relu_1x1
I0403 18:42:43.536113  7283 net.cpp:425] inception_4c/relu_1x1 <- inception_4c/1x1
I0403 18:42:43.536131  7283 net.cpp:386] inception_4c/relu_1x1 -> inception_4c/1x1 (in-place)
I0403 18:42:43.536329  7283 net.cpp:141] Setting up inception_4c/relu_1x1
I0403 18:42:43.536355  7283 net.cpp:148] Top shape: 24 128 14 14 (602112)
I0403 18:42:43.536370  7283 net.cpp:156] Memory required for data: 1033209120
I0403 18:42:43.536386  7283 layer_factory.hpp:77] Creating layer inception_4c/3x3_reduce
I0403 18:42:43.536407  7283 net.cpp:91] Creating Layer inception_4c/3x3_reduce
I0403 18:42:43.536425  7283 net.cpp:425] inception_4c/3x3_reduce <- inception_4b/output_inception_4b/output_0_split_1
I0403 18:42:43.536448  7283 net.cpp:399] inception_4c/3x3_reduce -> inception_4c/3x3_reduce
I0403 18:42:43.538441  7283 net.cpp:141] Setting up inception_4c/3x3_reduce
I0403 18:42:43.538471  7283 net.cpp:148] Top shape: 24 128 14 14 (602112)
I0403 18:42:43.538488  7283 net.cpp:156] Memory required for data: 1035617568
I0403 18:42:43.538507  7283 layer_factory.hpp:77] Creating layer inception_4c/relu_3x3_reduce
I0403 18:42:43.538525  7283 net.cpp:91] Creating Layer inception_4c/relu_3x3_reduce
I0403 18:42:43.538544  7283 net.cpp:425] inception_4c/relu_3x3_reduce <- inception_4c/3x3_reduce
I0403 18:42:43.538566  7283 net.cpp:386] inception_4c/relu_3x3_reduce -> inception_4c/3x3_reduce (in-place)
I0403 18:42:43.538866  7283 net.cpp:141] Setting up inception_4c/relu_3x3_reduce
I0403 18:42:43.538894  7283 net.cpp:148] Top shape: 24 128 14 14 (602112)
I0403 18:42:43.538909  7283 net.cpp:156] Memory required for data: 1038026016
I0403 18:42:43.538925  7283 layer_factory.hpp:77] Creating layer inception_4c/3x3
I0403 18:42:43.538949  7283 net.cpp:91] Creating Layer inception_4c/3x3
I0403 18:42:43.538969  7283 net.cpp:425] inception_4c/3x3 <- inception_4c/3x3_reduce
I0403 18:42:43.538991  7283 net.cpp:399] inception_4c/3x3 -> inception_4c/3x3
I0403 18:42:43.542803  7283 net.cpp:141] Setting up inception_4c/3x3
I0403 18:42:43.542846  7283 net.cpp:148] Top shape: 24 256 14 14 (1204224)
I0403 18:42:43.542865  7283 net.cpp:156] Memory required for data: 1042842912
I0403 18:42:43.542898  7283 layer_factory.hpp:77] Creating layer inception_4c/relu_3x3
I0403 18:42:43.542922  7283 net.cpp:91] Creating Layer inception_4c/relu_3x3
I0403 18:42:43.542943  7283 net.cpp:425] inception_4c/relu_3x3 <- inception_4c/3x3
I0403 18:42:43.542963  7283 net.cpp:386] inception_4c/relu_3x3 -> inception_4c/3x3 (in-place)
I0403 18:42:43.543148  7283 net.cpp:141] Setting up inception_4c/relu_3x3
I0403 18:42:43.543175  7283 net.cpp:148] Top shape: 24 256 14 14 (1204224)
I0403 18:42:43.543197  7283 net.cpp:156] Memory required for data: 1047659808
I0403 18:42:43.543213  7283 layer_factory.hpp:77] Creating layer inception_4c/5x5_reduce
I0403 18:42:43.543238  7283 net.cpp:91] Creating Layer inception_4c/5x5_reduce
I0403 18:42:43.543256  7283 net.cpp:425] inception_4c/5x5_reduce <- inception_4b/output_inception_4b/output_0_split_2
I0403 18:42:43.543279  7283 net.cpp:399] inception_4c/5x5_reduce -> inception_4c/5x5_reduce
I0403 18:42:43.544410  7283 net.cpp:141] Setting up inception_4c/5x5_reduce
I0403 18:42:43.544440  7283 net.cpp:148] Top shape: 24 24 14 14 (112896)
I0403 18:42:43.544458  7283 net.cpp:156] Memory required for data: 1048111392
I0403 18:42:43.544479  7283 layer_factory.hpp:77] Creating layer inception_4c/relu_5x5_reduce
I0403 18:42:43.544502  7283 net.cpp:91] Creating Layer inception_4c/relu_5x5_reduce
I0403 18:42:43.544523  7283 net.cpp:425] inception_4c/relu_5x5_reduce <- inception_4c/5x5_reduce
I0403 18:42:43.544543  7283 net.cpp:386] inception_4c/relu_5x5_reduce -> inception_4c/5x5_reduce (in-place)
I0403 18:42:43.544737  7283 net.cpp:141] Setting up inception_4c/relu_5x5_reduce
I0403 18:42:43.544765  7283 net.cpp:148] Top shape: 24 24 14 14 (112896)
I0403 18:42:43.544785  7283 net.cpp:156] Memory required for data: 1048562976
I0403 18:42:43.544800  7283 layer_factory.hpp:77] Creating layer inception_4c/5x5
I0403 18:42:43.544821  7283 net.cpp:91] Creating Layer inception_4c/5x5
I0403 18:42:43.544839  7283 net.cpp:425] inception_4c/5x5 <- inception_4c/5x5_reduce
I0403 18:42:43.544862  7283 net.cpp:399] inception_4c/5x5 -> inception_4c/5x5
I0403 18:42:43.546146  7283 net.cpp:141] Setting up inception_4c/5x5
I0403 18:42:43.546181  7283 net.cpp:148] Top shape: 24 64 14 14 (301056)
I0403 18:42:43.546200  7283 net.cpp:156] Memory required for data: 1049767200
I0403 18:42:43.546221  7283 layer_factory.hpp:77] Creating layer inception_4c/relu_5x5
I0403 18:42:43.546242  7283 net.cpp:91] Creating Layer inception_4c/relu_5x5
I0403 18:42:43.546262  7283 net.cpp:425] inception_4c/relu_5x5 <- inception_4c/5x5
I0403 18:42:43.546282  7283 net.cpp:386] inception_4c/relu_5x5 -> inception_4c/5x5 (in-place)
I0403 18:42:43.546574  7283 net.cpp:141] Setting up inception_4c/relu_5x5
I0403 18:42:43.546604  7283 net.cpp:148] Top shape: 24 64 14 14 (301056)
I0403 18:42:43.546620  7283 net.cpp:156] Memory required for data: 1050971424
I0403 18:42:43.546636  7283 layer_factory.hpp:77] Creating layer inception_4c/pool
I0403 18:42:43.546659  7283 net.cpp:91] Creating Layer inception_4c/pool
I0403 18:42:43.546677  7283 net.cpp:425] inception_4c/pool <- inception_4b/output_inception_4b/output_0_split_3
I0403 18:42:43.546697  7283 net.cpp:399] inception_4c/pool -> inception_4c/pool
I0403 18:42:43.546766  7283 net.cpp:141] Setting up inception_4c/pool
I0403 18:42:43.546790  7283 net.cpp:148] Top shape: 24 512 14 14 (2408448)
I0403 18:42:43.546805  7283 net.cpp:156] Memory required for data: 1060605216
I0403 18:42:43.546821  7283 layer_factory.hpp:77] Creating layer inception_4c/pool_proj
I0403 18:42:43.546844  7283 net.cpp:91] Creating Layer inception_4c/pool_proj
I0403 18:42:43.546864  7283 net.cpp:425] inception_4c/pool_proj <- inception_4c/pool
I0403 18:42:43.546885  7283 net.cpp:399] inception_4c/pool_proj -> inception_4c/pool_proj
I0403 18:42:43.548189  7283 net.cpp:141] Setting up inception_4c/pool_proj
I0403 18:42:43.548220  7283 net.cpp:148] Top shape: 24 64 14 14 (301056)
I0403 18:42:43.548252  7283 net.cpp:156] Memory required for data: 1061809440
I0403 18:42:43.548274  7283 layer_factory.hpp:77] Creating layer inception_4c/relu_pool_proj
I0403 18:42:43.548296  7283 net.cpp:91] Creating Layer inception_4c/relu_pool_proj
I0403 18:42:43.548317  7283 net.cpp:425] inception_4c/relu_pool_proj <- inception_4c/pool_proj
I0403 18:42:43.548337  7283 net.cpp:386] inception_4c/relu_pool_proj -> inception_4c/pool_proj (in-place)
I0403 18:42:43.548527  7283 net.cpp:141] Setting up inception_4c/relu_pool_proj
I0403 18:42:43.548553  7283 net.cpp:148] Top shape: 24 64 14 14 (301056)
I0403 18:42:43.548568  7283 net.cpp:156] Memory required for data: 1063013664
I0403 18:42:43.548584  7283 layer_factory.hpp:77] Creating layer inception_4c/output
I0403 18:42:43.548606  7283 net.cpp:91] Creating Layer inception_4c/output
I0403 18:42:43.548624  7283 net.cpp:425] inception_4c/output <- inception_4c/1x1
I0403 18:42:43.548641  7283 net.cpp:425] inception_4c/output <- inception_4c/3x3
I0403 18:42:43.548658  7283 net.cpp:425] inception_4c/output <- inception_4c/5x5
I0403 18:42:43.548676  7283 net.cpp:425] inception_4c/output <- inception_4c/pool_proj
I0403 18:42:43.548694  7283 net.cpp:399] inception_4c/output -> inception_4c/output
I0403 18:42:43.548744  7283 net.cpp:141] Setting up inception_4c/output
I0403 18:42:43.548769  7283 net.cpp:148] Top shape: 24 512 14 14 (2408448)
I0403 18:42:43.548784  7283 net.cpp:156] Memory required for data: 1072647456
I0403 18:42:43.548799  7283 layer_factory.hpp:77] Creating layer inception_4c/output_inception_4c/output_0_split
I0403 18:42:43.548817  7283 net.cpp:91] Creating Layer inception_4c/output_inception_4c/output_0_split
I0403 18:42:43.548835  7283 net.cpp:425] inception_4c/output_inception_4c/output_0_split <- inception_4c/output
I0403 18:42:43.548856  7283 net.cpp:399] inception_4c/output_inception_4c/output_0_split -> inception_4c/output_inception_4c/output_0_split_0
I0403 18:42:43.548877  7283 net.cpp:399] inception_4c/output_inception_4c/output_0_split -> inception_4c/output_inception_4c/output_0_split_1
I0403 18:42:43.548898  7283 net.cpp:399] inception_4c/output_inception_4c/output_0_split -> inception_4c/output_inception_4c/output_0_split_2
I0403 18:42:43.548919  7283 net.cpp:399] inception_4c/output_inception_4c/output_0_split -> inception_4c/output_inception_4c/output_0_split_3
I0403 18:42:43.549011  7283 net.cpp:141] Setting up inception_4c/output_inception_4c/output_0_split
I0403 18:42:43.549038  7283 net.cpp:148] Top shape: 24 512 14 14 (2408448)
I0403 18:42:43.549057  7283 net.cpp:148] Top shape: 24 512 14 14 (2408448)
I0403 18:42:43.549074  7283 net.cpp:148] Top shape: 24 512 14 14 (2408448)
I0403 18:42:43.549091  7283 net.cpp:148] Top shape: 24 512 14 14 (2408448)
I0403 18:42:43.549105  7283 net.cpp:156] Memory required for data: 1111182624
I0403 18:42:43.549121  7283 layer_factory.hpp:77] Creating layer inception_4d/1x1
I0403 18:42:43.549144  7283 net.cpp:91] Creating Layer inception_4d/1x1
I0403 18:42:43.549162  7283 net.cpp:425] inception_4d/1x1 <- inception_4c/output_inception_4c/output_0_split_0
I0403 18:42:43.549190  7283 net.cpp:399] inception_4d/1x1 -> inception_4d/1x1
I0403 18:42:43.550631  7283 net.cpp:141] Setting up inception_4d/1x1
I0403 18:42:43.550664  7283 net.cpp:148] Top shape: 24 112 14 14 (526848)
I0403 18:42:43.550685  7283 net.cpp:156] Memory required for data: 1113290016
I0403 18:42:43.550706  7283 layer_factory.hpp:77] Creating layer inception_4d/relu_1x1
I0403 18:42:43.550726  7283 net.cpp:91] Creating Layer inception_4d/relu_1x1
I0403 18:42:43.550745  7283 net.cpp:425] inception_4d/relu_1x1 <- inception_4d/1x1
I0403 18:42:43.550767  7283 net.cpp:386] inception_4d/relu_1x1 -> inception_4d/1x1 (in-place)
I0403 18:42:43.550959  7283 net.cpp:141] Setting up inception_4d/relu_1x1
I0403 18:42:43.550987  7283 net.cpp:148] Top shape: 24 112 14 14 (526848)
I0403 18:42:43.551004  7283 net.cpp:156] Memory required for data: 1115397408
I0403 18:42:43.551022  7283 layer_factory.hpp:77] Creating layer inception_4d/3x3_reduce
I0403 18:42:43.551060  7283 net.cpp:91] Creating Layer inception_4d/3x3_reduce
I0403 18:42:43.551082  7283 net.cpp:425] inception_4d/3x3_reduce <- inception_4c/output_inception_4c/output_0_split_1
I0403 18:42:43.551106  7283 net.cpp:399] inception_4d/3x3_reduce -> inception_4d/3x3_reduce
I0403 18:42:43.552757  7283 net.cpp:141] Setting up inception_4d/3x3_reduce
I0403 18:42:43.552789  7283 net.cpp:148] Top shape: 24 144 14 14 (677376)
I0403 18:42:43.552808  7283 net.cpp:156] Memory required for data: 1118106912
I0403 18:42:43.552825  7283 layer_factory.hpp:77] Creating layer inception_4d/relu_3x3_reduce
I0403 18:42:43.552845  7283 net.cpp:91] Creating Layer inception_4d/relu_3x3_reduce
I0403 18:42:43.552862  7283 net.cpp:425] inception_4d/relu_3x3_reduce <- inception_4d/3x3_reduce
I0403 18:42:43.552881  7283 net.cpp:386] inception_4d/relu_3x3_reduce -> inception_4d/3x3_reduce (in-place)
I0403 18:42:43.553175  7283 net.cpp:141] Setting up inception_4d/relu_3x3_reduce
I0403 18:42:43.553210  7283 net.cpp:148] Top shape: 24 144 14 14 (677376)
I0403 18:42:43.553226  7283 net.cpp:156] Memory required for data: 1120816416
I0403 18:42:43.553242  7283 layer_factory.hpp:77] Creating layer inception_4d/3x3
I0403 18:42:43.553267  7283 net.cpp:91] Creating Layer inception_4d/3x3
I0403 18:42:43.553284  7283 net.cpp:425] inception_4d/3x3 <- inception_4d/3x3_reduce
I0403 18:42:43.553305  7283 net.cpp:399] inception_4d/3x3 -> inception_4d/3x3
I0403 18:42:43.557731  7283 net.cpp:141] Setting up inception_4d/3x3
I0403 18:42:43.557763  7283 net.cpp:148] Top shape: 24 288 14 14 (1354752)
I0403 18:42:43.557780  7283 net.cpp:156] Memory required for data: 1126235424
I0403 18:42:43.557801  7283 layer_factory.hpp:77] Creating layer inception_4d/relu_3x3
I0403 18:42:43.557821  7283 net.cpp:91] Creating Layer inception_4d/relu_3x3
I0403 18:42:43.557838  7283 net.cpp:425] inception_4d/relu_3x3 <- inception_4d/3x3
I0403 18:42:43.557860  7283 net.cpp:386] inception_4d/relu_3x3 -> inception_4d/3x3 (in-place)
I0403 18:42:43.558049  7283 net.cpp:141] Setting up inception_4d/relu_3x3
I0403 18:42:43.558075  7283 net.cpp:148] Top shape: 24 288 14 14 (1354752)
I0403 18:42:43.558090  7283 net.cpp:156] Memory required for data: 1131654432
I0403 18:42:43.558105  7283 layer_factory.hpp:77] Creating layer inception_4d/5x5_reduce
I0403 18:42:43.558128  7283 net.cpp:91] Creating Layer inception_4d/5x5_reduce
I0403 18:42:43.558146  7283 net.cpp:425] inception_4d/5x5_reduce <- inception_4c/output_inception_4c/output_0_split_2
I0403 18:42:43.558167  7283 net.cpp:399] inception_4d/5x5_reduce -> inception_4d/5x5_reduce
I0403 18:42:43.559355  7283 net.cpp:141] Setting up inception_4d/5x5_reduce
I0403 18:42:43.559387  7283 net.cpp:148] Top shape: 24 32 14 14 (150528)
I0403 18:42:43.559406  7283 net.cpp:156] Memory required for data: 1132256544
I0403 18:42:43.559425  7283 layer_factory.hpp:77] Creating layer inception_4d/relu_5x5_reduce
I0403 18:42:43.559445  7283 net.cpp:91] Creating Layer inception_4d/relu_5x5_reduce
I0403 18:42:43.559463  7283 net.cpp:425] inception_4d/relu_5x5_reduce <- inception_4d/5x5_reduce
I0403 18:42:43.559484  7283 net.cpp:386] inception_4d/relu_5x5_reduce -> inception_4d/5x5_reduce (in-place)
I0403 18:42:43.559677  7283 net.cpp:141] Setting up inception_4d/relu_5x5_reduce
I0403 18:42:43.559702  7283 net.cpp:148] Top shape: 24 32 14 14 (150528)
I0403 18:42:43.559718  7283 net.cpp:156] Memory required for data: 1132858656
I0403 18:42:43.559733  7283 layer_factory.hpp:77] Creating layer inception_4d/5x5
I0403 18:42:43.559756  7283 net.cpp:91] Creating Layer inception_4d/5x5
I0403 18:42:43.559774  7283 net.cpp:425] inception_4d/5x5 <- inception_4d/5x5_reduce
I0403 18:42:43.559795  7283 net.cpp:399] inception_4d/5x5 -> inception_4d/5x5
I0403 18:42:43.561310  7283 net.cpp:141] Setting up inception_4d/5x5
I0403 18:42:43.561339  7283 net.cpp:148] Top shape: 24 64 14 14 (301056)
I0403 18:42:43.561357  7283 net.cpp:156] Memory required for data: 1134062880
I0403 18:42:43.561378  7283 layer_factory.hpp:77] Creating layer inception_4d/relu_5x5
I0403 18:42:43.561415  7283 net.cpp:91] Creating Layer inception_4d/relu_5x5
I0403 18:42:43.561435  7283 net.cpp:425] inception_4d/relu_5x5 <- inception_4d/5x5
I0403 18:42:43.561455  7283 net.cpp:386] inception_4d/relu_5x5 -> inception_4d/5x5 (in-place)
I0403 18:42:43.561765  7283 net.cpp:141] Setting up inception_4d/relu_5x5
I0403 18:42:43.561794  7283 net.cpp:148] Top shape: 24 64 14 14 (301056)
I0403 18:42:43.561808  7283 net.cpp:156] Memory required for data: 1135267104
I0403 18:42:43.561825  7283 layer_factory.hpp:77] Creating layer inception_4d/pool
I0403 18:42:43.561847  7283 net.cpp:91] Creating Layer inception_4d/pool
I0403 18:42:43.561864  7283 net.cpp:425] inception_4d/pool <- inception_4c/output_inception_4c/output_0_split_3
I0403 18:42:43.561883  7283 net.cpp:399] inception_4d/pool -> inception_4d/pool
I0403 18:42:43.561955  7283 net.cpp:141] Setting up inception_4d/pool
I0403 18:42:43.561981  7283 net.cpp:148] Top shape: 24 512 14 14 (2408448)
I0403 18:42:43.561998  7283 net.cpp:156] Memory required for data: 1144900896
I0403 18:42:43.562013  7283 layer_factory.hpp:77] Creating layer inception_4d/pool_proj
I0403 18:42:43.562036  7283 net.cpp:91] Creating Layer inception_4d/pool_proj
I0403 18:42:43.562055  7283 net.cpp:425] inception_4d/pool_proj <- inception_4d/pool
I0403 18:42:43.562077  7283 net.cpp:399] inception_4d/pool_proj -> inception_4d/pool_proj
I0403 18:42:43.563920  7283 net.cpp:141] Setting up inception_4d/pool_proj
I0403 18:42:43.563952  7283 net.cpp:148] Top shape: 24 64 14 14 (301056)
I0403 18:42:43.563969  7283 net.cpp:156] Memory required for data: 1146105120
I0403 18:42:43.563989  7283 layer_factory.hpp:77] Creating layer inception_4d/relu_pool_proj
I0403 18:42:43.564008  7283 net.cpp:91] Creating Layer inception_4d/relu_pool_proj
I0403 18:42:43.564025  7283 net.cpp:425] inception_4d/relu_pool_proj <- inception_4d/pool_proj
I0403 18:42:43.564045  7283 net.cpp:386] inception_4d/relu_pool_proj -> inception_4d/pool_proj (in-place)
I0403 18:42:43.564244  7283 net.cpp:141] Setting up inception_4d/relu_pool_proj
I0403 18:42:43.564270  7283 net.cpp:148] Top shape: 24 64 14 14 (301056)
I0403 18:42:43.564286  7283 net.cpp:156] Memory required for data: 1147309344
I0403 18:42:43.564302  7283 layer_factory.hpp:77] Creating layer inception_4d/output
I0403 18:42:43.564327  7283 net.cpp:91] Creating Layer inception_4d/output
I0403 18:42:43.564347  7283 net.cpp:425] inception_4d/output <- inception_4d/1x1
I0403 18:42:43.564364  7283 net.cpp:425] inception_4d/output <- inception_4d/3x3
I0403 18:42:43.564380  7283 net.cpp:425] inception_4d/output <- inception_4d/5x5
I0403 18:42:43.564396  7283 net.cpp:425] inception_4d/output <- inception_4d/pool_proj
I0403 18:42:43.564414  7283 net.cpp:399] inception_4d/output -> inception_4d/output
I0403 18:42:43.564461  7283 net.cpp:141] Setting up inception_4d/output
I0403 18:42:43.564488  7283 net.cpp:148] Top shape: 24 528 14 14 (2483712)
I0403 18:42:43.564503  7283 net.cpp:156] Memory required for data: 1157244192
I0403 18:42:43.564519  7283 layer_factory.hpp:77] Creating layer inception_4d/output_inception_4d/output_0_split
I0403 18:42:43.564538  7283 net.cpp:91] Creating Layer inception_4d/output_inception_4d/output_0_split
I0403 18:42:43.564554  7283 net.cpp:425] inception_4d/output_inception_4d/output_0_split <- inception_4d/output
I0403 18:42:43.564575  7283 net.cpp:399] inception_4d/output_inception_4d/output_0_split -> inception_4d/output_inception_4d/output_0_split_0
I0403 18:42:43.564597  7283 net.cpp:399] inception_4d/output_inception_4d/output_0_split -> inception_4d/output_inception_4d/output_0_split_1
I0403 18:42:43.564618  7283 net.cpp:399] inception_4d/output_inception_4d/output_0_split -> inception_4d/output_inception_4d/output_0_split_2
I0403 18:42:43.564640  7283 net.cpp:399] inception_4d/output_inception_4d/output_0_split -> inception_4d/output_inception_4d/output_0_split_3
I0403 18:42:43.564661  7283 net.cpp:399] inception_4d/output_inception_4d/output_0_split -> inception_4d/output_inception_4d/output_0_split_4
I0403 18:42:43.564769  7283 net.cpp:141] Setting up inception_4d/output_inception_4d/output_0_split
I0403 18:42:43.564805  7283 net.cpp:148] Top shape: 24 528 14 14 (2483712)
I0403 18:42:43.564826  7283 net.cpp:148] Top shape: 24 528 14 14 (2483712)
I0403 18:42:43.564843  7283 net.cpp:148] Top shape: 24 528 14 14 (2483712)
I0403 18:42:43.564859  7283 net.cpp:148] Top shape: 24 528 14 14 (2483712)
I0403 18:42:43.564875  7283 net.cpp:148] Top shape: 24 528 14 14 (2483712)
I0403 18:42:43.564889  7283 net.cpp:156] Memory required for data: 1206918432
I0403 18:42:43.564905  7283 layer_factory.hpp:77] Creating layer loss2/ave_pool
I0403 18:42:43.564924  7283 net.cpp:91] Creating Layer loss2/ave_pool
I0403 18:42:43.564939  7283 net.cpp:425] loss2/ave_pool <- inception_4d/output_inception_4d/output_0_split_0
I0403 18:42:43.564960  7283 net.cpp:399] loss2/ave_pool -> loss2/ave_pool
I0403 18:42:43.565285  7283 net.cpp:141] Setting up loss2/ave_pool
I0403 18:42:43.565313  7283 net.cpp:148] Top shape: 24 528 4 4 (202752)
I0403 18:42:43.565328  7283 net.cpp:156] Memory required for data: 1207729440
I0403 18:42:43.565345  7283 layer_factory.hpp:77] Creating layer loss2/conv
I0403 18:42:43.565368  7283 net.cpp:91] Creating Layer loss2/conv
I0403 18:42:43.565387  7283 net.cpp:425] loss2/conv <- loss2/ave_pool
I0403 18:42:43.565407  7283 net.cpp:399] loss2/conv -> loss2/conv
I0403 18:42:43.567376  7283 net.cpp:141] Setting up loss2/conv
I0403 18:42:43.567405  7283 net.cpp:148] Top shape: 24 128 4 4 (49152)
I0403 18:42:43.567421  7283 net.cpp:156] Memory required for data: 1207926048
I0403 18:42:43.567440  7283 layer_factory.hpp:77] Creating layer loss2/relu_conv
I0403 18:42:43.567461  7283 net.cpp:91] Creating Layer loss2/relu_conv
I0403 18:42:43.567479  7283 net.cpp:425] loss2/relu_conv <- loss2/conv
I0403 18:42:43.567497  7283 net.cpp:386] loss2/relu_conv -> loss2/conv (in-place)
I0403 18:42:43.567793  7283 net.cpp:141] Setting up loss2/relu_conv
I0403 18:42:43.567821  7283 net.cpp:148] Top shape: 24 128 4 4 (49152)
I0403 18:42:43.567836  7283 net.cpp:156] Memory required for data: 1208122656
I0403 18:42:43.567852  7283 layer_factory.hpp:77] Creating layer loss2/fc
I0403 18:42:43.567874  7283 net.cpp:91] Creating Layer loss2/fc
I0403 18:42:43.567893  7283 net.cpp:425] loss2/fc <- loss2/conv
I0403 18:42:43.567911  7283 net.cpp:399] loss2/fc -> loss2/fc
I0403 18:42:43.586670  7283 net.cpp:141] Setting up loss2/fc
I0403 18:42:43.586714  7283 net.cpp:148] Top shape: 24 1024 (24576)
I0403 18:42:43.586730  7283 net.cpp:156] Memory required for data: 1208220960
I0403 18:42:43.586750  7283 layer_factory.hpp:77] Creating layer loss2/relu_fc
I0403 18:42:43.586771  7283 net.cpp:91] Creating Layer loss2/relu_fc
I0403 18:42:43.586788  7283 net.cpp:425] loss2/relu_fc <- loss2/fc
I0403 18:42:43.586809  7283 net.cpp:386] loss2/relu_fc -> loss2/fc (in-place)
I0403 18:42:43.587191  7283 net.cpp:141] Setting up loss2/relu_fc
I0403 18:42:43.587219  7283 net.cpp:148] Top shape: 24 1024 (24576)
I0403 18:42:43.587235  7283 net.cpp:156] Memory required for data: 1208319264
I0403 18:42:43.587250  7283 layer_factory.hpp:77] Creating layer loss2/drop_fc
I0403 18:42:43.587270  7283 net.cpp:91] Creating Layer loss2/drop_fc
I0403 18:42:43.587286  7283 net.cpp:425] loss2/drop_fc <- loss2/fc
I0403 18:42:43.587308  7283 net.cpp:386] loss2/drop_fc -> loss2/fc (in-place)
I0403 18:42:43.587362  7283 net.cpp:141] Setting up loss2/drop_fc
I0403 18:42:43.587390  7283 net.cpp:148] Top shape: 24 1024 (24576)
I0403 18:42:43.587406  7283 net.cpp:156] Memory required for data: 1208417568
I0403 18:42:43.587421  7283 layer_factory.hpp:77] Creating layer loss2/classifier_plantvillage
I0403 18:42:43.587442  7283 net.cpp:91] Creating Layer loss2/classifier_plantvillage
I0403 18:42:43.587458  7283 net.cpp:425] loss2/classifier_plantvillage <- loss2/fc
I0403 18:42:43.587492  7283 net.cpp:399] loss2/classifier_plantvillage -> loss2/classifier_plantvillage
I0403 18:42:43.587905  7283 net.cpp:141] Setting up loss2/classifier_plantvillage
I0403 18:42:43.587934  7283 net.cpp:148] Top shape: 24 38 (912)
I0403 18:42:43.587975  7283 net.cpp:156] Memory required for data: 1208421216
I0403 18:42:43.587995  7283 layer_factory.hpp:77] Creating layer loss2/classifier_plantvillage_loss2/classifier_plantvillage_0_split
I0403 18:42:43.588014  7283 net.cpp:91] Creating Layer loss2/classifier_plantvillage_loss2/classifier_plantvillage_0_split
I0403 18:42:43.588032  7283 net.cpp:425] loss2/classifier_plantvillage_loss2/classifier_plantvillage_0_split <- loss2/classifier_plantvillage
I0403 18:42:43.588048  7283 net.cpp:399] loss2/classifier_plantvillage_loss2/classifier_plantvillage_0_split -> loss2/classifier_plantvillage_loss2/classifier_plantvillage_0_split_0
I0403 18:42:43.588068  7283 net.cpp:399] loss2/classifier_plantvillage_loss2/classifier_plantvillage_0_split -> loss2/classifier_plantvillage_loss2/classifier_plantvillage_0_split_1
I0403 18:42:43.588090  7283 net.cpp:399] loss2/classifier_plantvillage_loss2/classifier_plantvillage_0_split -> loss2/classifier_plantvillage_loss2/classifier_plantvillage_0_split_2
I0403 18:42:43.588172  7283 net.cpp:141] Setting up loss2/classifier_plantvillage_loss2/classifier_plantvillage_0_split
I0403 18:42:43.588201  7283 net.cpp:148] Top shape: 24 38 (912)
I0403 18:42:43.588217  7283 net.cpp:148] Top shape: 24 38 (912)
I0403 18:42:43.588233  7283 net.cpp:148] Top shape: 24 38 (912)
I0403 18:42:43.588248  7283 net.cpp:156] Memory required for data: 1208432160
I0403 18:42:43.588263  7283 layer_factory.hpp:77] Creating layer inception_4e/1x1
I0403 18:42:43.588284  7283 net.cpp:91] Creating Layer inception_4e/1x1
I0403 18:42:43.588302  7283 net.cpp:425] inception_4e/1x1 <- inception_4d/output_inception_4d/output_0_split_1
I0403 18:42:43.588325  7283 net.cpp:399] inception_4e/1x1 -> inception_4e/1x1
I0403 18:42:43.590229  7283 net.cpp:141] Setting up inception_4e/1x1
I0403 18:42:43.590260  7283 net.cpp:148] Top shape: 24 256 14 14 (1204224)
I0403 18:42:43.590276  7283 net.cpp:156] Memory required for data: 1213249056
I0403 18:42:43.590296  7283 layer_factory.hpp:77] Creating layer inception_4e/relu_1x1
I0403 18:42:43.590317  7283 net.cpp:91] Creating Layer inception_4e/relu_1x1
I0403 18:42:43.590337  7283 net.cpp:425] inception_4e/relu_1x1 <- inception_4e/1x1
I0403 18:42:43.590355  7283 net.cpp:386] inception_4e/relu_1x1 -> inception_4e/1x1 (in-place)
I0403 18:42:43.590652  7283 net.cpp:141] Setting up inception_4e/relu_1x1
I0403 18:42:43.590678  7283 net.cpp:148] Top shape: 24 256 14 14 (1204224)
I0403 18:42:43.590693  7283 net.cpp:156] Memory required for data: 1218065952
I0403 18:42:43.590708  7283 layer_factory.hpp:77] Creating layer inception_4e/3x3_reduce
I0403 18:42:43.590733  7283 net.cpp:91] Creating Layer inception_4e/3x3_reduce
I0403 18:42:43.590752  7283 net.cpp:425] inception_4e/3x3_reduce <- inception_4d/output_inception_4d/output_0_split_2
I0403 18:42:43.590772  7283 net.cpp:399] inception_4e/3x3_reduce -> inception_4e/3x3_reduce
I0403 18:42:43.592978  7283 net.cpp:141] Setting up inception_4e/3x3_reduce
I0403 18:42:43.593008  7283 net.cpp:148] Top shape: 24 160 14 14 (752640)
I0403 18:42:43.593025  7283 net.cpp:156] Memory required for data: 1221076512
I0403 18:42:43.593046  7283 layer_factory.hpp:77] Creating layer inception_4e/relu_3x3_reduce
I0403 18:42:43.593066  7283 net.cpp:91] Creating Layer inception_4e/relu_3x3_reduce
I0403 18:42:43.593085  7283 net.cpp:425] inception_4e/relu_3x3_reduce <- inception_4e/3x3_reduce
I0403 18:42:43.593101  7283 net.cpp:386] inception_4e/relu_3x3_reduce -> inception_4e/3x3_reduce (in-place)
I0403 18:42:43.593299  7283 net.cpp:141] Setting up inception_4e/relu_3x3_reduce
I0403 18:42:43.593324  7283 net.cpp:148] Top shape: 24 160 14 14 (752640)
I0403 18:42:43.593339  7283 net.cpp:156] Memory required for data: 1224087072
I0403 18:42:43.593355  7283 layer_factory.hpp:77] Creating layer inception_4e/3x3
I0403 18:42:43.593380  7283 net.cpp:91] Creating Layer inception_4e/3x3
I0403 18:42:43.593399  7283 net.cpp:425] inception_4e/3x3 <- inception_4e/3x3_reduce
I0403 18:42:43.593417  7283 net.cpp:399] inception_4e/3x3 -> inception_4e/3x3
I0403 18:42:43.598538  7283 net.cpp:141] Setting up inception_4e/3x3
I0403 18:42:43.598582  7283 net.cpp:148] Top shape: 24 320 14 14 (1505280)
I0403 18:42:43.598600  7283 net.cpp:156] Memory required for data: 1230108192
I0403 18:42:43.598623  7283 layer_factory.hpp:77] Creating layer inception_4e/relu_3x3
I0403 18:42:43.598641  7283 net.cpp:91] Creating Layer inception_4e/relu_3x3
I0403 18:42:43.598657  7283 net.cpp:425] inception_4e/relu_3x3 <- inception_4e/3x3
I0403 18:42:43.598675  7283 net.cpp:386] inception_4e/relu_3x3 -> inception_4e/3x3 (in-place)
I0403 18:42:43.598986  7283 net.cpp:141] Setting up inception_4e/relu_3x3
I0403 18:42:43.599015  7283 net.cpp:148] Top shape: 24 320 14 14 (1505280)
I0403 18:42:43.599032  7283 net.cpp:156] Memory required for data: 1236129312
I0403 18:42:43.599048  7283 layer_factory.hpp:77] Creating layer inception_4e/5x5_reduce
I0403 18:42:43.599072  7283 net.cpp:91] Creating Layer inception_4e/5x5_reduce
I0403 18:42:43.599089  7283 net.cpp:425] inception_4e/5x5_reduce <- inception_4d/output_inception_4d/output_0_split_3
I0403 18:42:43.599109  7283 net.cpp:399] inception_4e/5x5_reduce -> inception_4e/5x5_reduce
I0403 18:42:43.600214  7283 net.cpp:141] Setting up inception_4e/5x5_reduce
I0403 18:42:43.600244  7283 net.cpp:148] Top shape: 24 32 14 14 (150528)
I0403 18:42:43.600260  7283 net.cpp:156] Memory required for data: 1236731424
I0403 18:42:43.600280  7283 layer_factory.hpp:77] Creating layer inception_4e/relu_5x5_reduce
I0403 18:42:43.600299  7283 net.cpp:91] Creating Layer inception_4e/relu_5x5_reduce
I0403 18:42:43.600317  7283 net.cpp:425] inception_4e/relu_5x5_reduce <- inception_4e/5x5_reduce
I0403 18:42:43.600337  7283 net.cpp:386] inception_4e/relu_5x5_reduce -> inception_4e/5x5_reduce (in-place)
I0403 18:42:43.600639  7283 net.cpp:141] Setting up inception_4e/relu_5x5_reduce
I0403 18:42:43.600667  7283 net.cpp:148] Top shape: 24 32 14 14 (150528)
I0403 18:42:43.600682  7283 net.cpp:156] Memory required for data: 1237333536
I0403 18:42:43.600697  7283 layer_factory.hpp:77] Creating layer inception_4e/5x5
I0403 18:42:43.600736  7283 net.cpp:91] Creating Layer inception_4e/5x5
I0403 18:42:43.600757  7283 net.cpp:425] inception_4e/5x5 <- inception_4e/5x5_reduce
I0403 18:42:43.600780  7283 net.cpp:399] inception_4e/5x5 -> inception_4e/5x5
I0403 18:42:43.602653  7283 net.cpp:141] Setting up inception_4e/5x5
I0403 18:42:43.602682  7283 net.cpp:148] Top shape: 24 128 14 14 (602112)
I0403 18:42:43.602697  7283 net.cpp:156] Memory required for data: 1239741984
I0403 18:42:43.602717  7283 layer_factory.hpp:77] Creating layer inception_4e/relu_5x5
I0403 18:42:43.602736  7283 net.cpp:91] Creating Layer inception_4e/relu_5x5
I0403 18:42:43.602754  7283 net.cpp:425] inception_4e/relu_5x5 <- inception_4e/5x5
I0403 18:42:43.602776  7283 net.cpp:386] inception_4e/relu_5x5 -> inception_4e/5x5 (in-place)
I0403 18:42:43.602977  7283 net.cpp:141] Setting up inception_4e/relu_5x5
I0403 18:42:43.603005  7283 net.cpp:148] Top shape: 24 128 14 14 (602112)
I0403 18:42:43.603021  7283 net.cpp:156] Memory required for data: 1242150432
I0403 18:42:43.603036  7283 layer_factory.hpp:77] Creating layer inception_4e/pool
I0403 18:42:43.603060  7283 net.cpp:91] Creating Layer inception_4e/pool
I0403 18:42:43.603078  7283 net.cpp:425] inception_4e/pool <- inception_4d/output_inception_4d/output_0_split_4
I0403 18:42:43.603096  7283 net.cpp:399] inception_4e/pool -> inception_4e/pool
I0403 18:42:43.603168  7283 net.cpp:141] Setting up inception_4e/pool
I0403 18:42:43.603198  7283 net.cpp:148] Top shape: 24 528 14 14 (2483712)
I0403 18:42:43.603212  7283 net.cpp:156] Memory required for data: 1252085280
I0403 18:42:43.603227  7283 layer_factory.hpp:77] Creating layer inception_4e/pool_proj
I0403 18:42:43.603250  7283 net.cpp:91] Creating Layer inception_4e/pool_proj
I0403 18:42:43.603267  7283 net.cpp:425] inception_4e/pool_proj <- inception_4e/pool
I0403 18:42:43.603288  7283 net.cpp:399] inception_4e/pool_proj -> inception_4e/pool_proj
I0403 18:42:43.604807  7283 net.cpp:141] Setting up inception_4e/pool_proj
I0403 18:42:43.604848  7283 net.cpp:148] Top shape: 24 128 14 14 (602112)
I0403 18:42:43.604866  7283 net.cpp:156] Memory required for data: 1254493728
I0403 18:42:43.604885  7283 layer_factory.hpp:77] Creating layer inception_4e/relu_pool_proj
I0403 18:42:43.604903  7283 net.cpp:91] Creating Layer inception_4e/relu_pool_proj
I0403 18:42:43.604921  7283 net.cpp:425] inception_4e/relu_pool_proj <- inception_4e/pool_proj
I0403 18:42:43.604941  7283 net.cpp:386] inception_4e/relu_pool_proj -> inception_4e/pool_proj (in-place)
I0403 18:42:43.605242  7283 net.cpp:141] Setting up inception_4e/relu_pool_proj
I0403 18:42:43.605269  7283 net.cpp:148] Top shape: 24 128 14 14 (602112)
I0403 18:42:43.605285  7283 net.cpp:156] Memory required for data: 1256902176
I0403 18:42:43.605301  7283 layer_factory.hpp:77] Creating layer inception_4e/output
I0403 18:42:43.605320  7283 net.cpp:91] Creating Layer inception_4e/output
I0403 18:42:43.605336  7283 net.cpp:425] inception_4e/output <- inception_4e/1x1
I0403 18:42:43.605352  7283 net.cpp:425] inception_4e/output <- inception_4e/3x3
I0403 18:42:43.605370  7283 net.cpp:425] inception_4e/output <- inception_4e/5x5
I0403 18:42:43.605386  7283 net.cpp:425] inception_4e/output <- inception_4e/pool_proj
I0403 18:42:43.605406  7283 net.cpp:399] inception_4e/output -> inception_4e/output
I0403 18:42:43.605456  7283 net.cpp:141] Setting up inception_4e/output
I0403 18:42:43.605484  7283 net.cpp:148] Top shape: 24 832 14 14 (3913728)
I0403 18:42:43.605499  7283 net.cpp:156] Memory required for data: 1272557088
I0403 18:42:43.605514  7283 layer_factory.hpp:77] Creating layer pool4/3x3_s2
I0403 18:42:43.605532  7283 net.cpp:91] Creating Layer pool4/3x3_s2
I0403 18:42:43.605548  7283 net.cpp:425] pool4/3x3_s2 <- inception_4e/output
I0403 18:42:43.605567  7283 net.cpp:399] pool4/3x3_s2 -> pool4/3x3_s2
I0403 18:42:43.605635  7283 net.cpp:141] Setting up pool4/3x3_s2
I0403 18:42:43.605660  7283 net.cpp:148] Top shape: 24 832 7 7 (978432)
I0403 18:42:43.605675  7283 net.cpp:156] Memory required for data: 1276470816
I0403 18:42:43.605690  7283 layer_factory.hpp:77] Creating layer pool4/3x3_s2_pool4/3x3_s2_0_split
I0403 18:42:43.605708  7283 net.cpp:91] Creating Layer pool4/3x3_s2_pool4/3x3_s2_0_split
I0403 18:42:43.605725  7283 net.cpp:425] pool4/3x3_s2_pool4/3x3_s2_0_split <- pool4/3x3_s2
I0403 18:42:43.605744  7283 net.cpp:399] pool4/3x3_s2_pool4/3x3_s2_0_split -> pool4/3x3_s2_pool4/3x3_s2_0_split_0
I0403 18:42:43.605767  7283 net.cpp:399] pool4/3x3_s2_pool4/3x3_s2_0_split -> pool4/3x3_s2_pool4/3x3_s2_0_split_1
I0403 18:42:43.605787  7283 net.cpp:399] pool4/3x3_s2_pool4/3x3_s2_0_split -> pool4/3x3_s2_pool4/3x3_s2_0_split_2
I0403 18:42:43.605809  7283 net.cpp:399] pool4/3x3_s2_pool4/3x3_s2_0_split -> pool4/3x3_s2_pool4/3x3_s2_0_split_3
I0403 18:42:43.605902  7283 net.cpp:141] Setting up pool4/3x3_s2_pool4/3x3_s2_0_split
I0403 18:42:43.605926  7283 net.cpp:148] Top shape: 24 832 7 7 (978432)
I0403 18:42:43.605943  7283 net.cpp:148] Top shape: 24 832 7 7 (978432)
I0403 18:42:43.605959  7283 net.cpp:148] Top shape: 24 832 7 7 (978432)
I0403 18:42:43.605974  7283 net.cpp:148] Top shape: 24 832 7 7 (978432)
I0403 18:42:43.605989  7283 net.cpp:156] Memory required for data: 1292125728
I0403 18:42:43.606005  7283 layer_factory.hpp:77] Creating layer inception_5a/1x1
I0403 18:42:43.606029  7283 net.cpp:91] Creating Layer inception_5a/1x1
I0403 18:42:43.606045  7283 net.cpp:425] inception_5a/1x1 <- pool4/3x3_s2_pool4/3x3_s2_0_split_0
I0403 18:42:43.606066  7283 net.cpp:399] inception_5a/1x1 -> inception_5a/1x1
I0403 18:42:43.608994  7283 net.cpp:141] Setting up inception_5a/1x1
I0403 18:42:43.609026  7283 net.cpp:148] Top shape: 24 256 7 7 (301056)
I0403 18:42:43.609045  7283 net.cpp:156] Memory required for data: 1293329952
I0403 18:42:43.609064  7283 layer_factory.hpp:77] Creating layer inception_5a/relu_1x1
I0403 18:42:43.609086  7283 net.cpp:91] Creating Layer inception_5a/relu_1x1
I0403 18:42:43.609107  7283 net.cpp:425] inception_5a/relu_1x1 <- inception_5a/1x1
I0403 18:42:43.609125  7283 net.cpp:386] inception_5a/relu_1x1 -> inception_5a/1x1 (in-place)
I0403 18:42:43.609459  7283 net.cpp:141] Setting up inception_5a/relu_1x1
I0403 18:42:43.609486  7283 net.cpp:148] Top shape: 24 256 7 7 (301056)
I0403 18:42:43.609503  7283 net.cpp:156] Memory required for data: 1294534176
I0403 18:42:43.609519  7283 layer_factory.hpp:77] Creating layer inception_5a/3x3_reduce
I0403 18:42:43.609541  7283 net.cpp:91] Creating Layer inception_5a/3x3_reduce
I0403 18:42:43.609560  7283 net.cpp:425] inception_5a/3x3_reduce <- pool4/3x3_s2_pool4/3x3_s2_0_split_1
I0403 18:42:43.609581  7283 net.cpp:399] inception_5a/3x3_reduce -> inception_5a/3x3_reduce
I0403 18:42:43.612085  7283 net.cpp:141] Setting up inception_5a/3x3_reduce
I0403 18:42:43.612119  7283 net.cpp:148] Top shape: 24 160 7 7 (188160)
I0403 18:42:43.612138  7283 net.cpp:156] Memory required for data: 1295286816
I0403 18:42:43.612159  7283 layer_factory.hpp:77] Creating layer inception_5a/relu_3x3_reduce
I0403 18:42:43.612188  7283 net.cpp:91] Creating Layer inception_5a/relu_3x3_reduce
I0403 18:42:43.612208  7283 net.cpp:425] inception_5a/relu_3x3_reduce <- inception_5a/3x3_reduce
I0403 18:42:43.612231  7283 net.cpp:386] inception_5a/relu_3x3_reduce -> inception_5a/3x3_reduce (in-place)
I0403 18:42:43.612426  7283 net.cpp:141] Setting up inception_5a/relu_3x3_reduce
I0403 18:42:43.612454  7283 net.cpp:148] Top shape: 24 160 7 7 (188160)
I0403 18:42:43.612479  7283 net.cpp:156] Memory required for data: 1296039456
I0403 18:42:43.612495  7283 layer_factory.hpp:77] Creating layer inception_5a/3x3
I0403 18:42:43.612519  7283 net.cpp:91] Creating Layer inception_5a/3x3
I0403 18:42:43.612540  7283 net.cpp:425] inception_5a/3x3 <- inception_5a/3x3_reduce
I0403 18:42:43.612560  7283 net.cpp:399] inception_5a/3x3 -> inception_5a/3x3
I0403 18:42:43.617610  7283 net.cpp:141] Setting up inception_5a/3x3
I0403 18:42:43.617642  7283 net.cpp:148] Top shape: 24 320 7 7 (376320)
I0403 18:42:43.617660  7283 net.cpp:156] Memory required for data: 1297544736
I0403 18:42:43.617679  7283 layer_factory.hpp:77] Creating layer inception_5a/relu_3x3
I0403 18:42:43.617697  7283 net.cpp:91] Creating Layer inception_5a/relu_3x3
I0403 18:42:43.617715  7283 net.cpp:425] inception_5a/relu_3x3 <- inception_5a/3x3
I0403 18:42:43.617735  7283 net.cpp:386] inception_5a/relu_3x3 -> inception_5a/3x3 (in-place)
I0403 18:42:43.618039  7283 net.cpp:141] Setting up inception_5a/relu_3x3
I0403 18:42:43.618065  7283 net.cpp:148] Top shape: 24 320 7 7 (376320)
I0403 18:42:43.618080  7283 net.cpp:156] Memory required for data: 1299050016
I0403 18:42:43.618094  7283 layer_factory.hpp:77] Creating layer inception_5a/5x5_reduce
I0403 18:42:43.618118  7283 net.cpp:91] Creating Layer inception_5a/5x5_reduce
I0403 18:42:43.618135  7283 net.cpp:425] inception_5a/5x5_reduce <- pool4/3x3_s2_pool4/3x3_s2_0_split_2
I0403 18:42:43.618157  7283 net.cpp:399] inception_5a/5x5_reduce -> inception_5a/5x5_reduce
I0403 18:42:43.619343  7283 net.cpp:141] Setting up inception_5a/5x5_reduce
I0403 18:42:43.619376  7283 net.cpp:148] Top shape: 24 32 7 7 (37632)
I0403 18:42:43.619395  7283 net.cpp:156] Memory required for data: 1299200544
I0403 18:42:43.619413  7283 layer_factory.hpp:77] Creating layer inception_5a/relu_5x5_reduce
I0403 18:42:43.619431  7283 net.cpp:91] Creating Layer inception_5a/relu_5x5_reduce
I0403 18:42:43.619448  7283 net.cpp:425] inception_5a/relu_5x5_reduce <- inception_5a/5x5_reduce
I0403 18:42:43.619467  7283 net.cpp:386] inception_5a/relu_5x5_reduce -> inception_5a/5x5_reduce (in-place)
I0403 18:42:43.619765  7283 net.cpp:141] Setting up inception_5a/relu_5x5_reduce
I0403 18:42:43.619791  7283 net.cpp:148] Top shape: 24 32 7 7 (37632)
I0403 18:42:43.619807  7283 net.cpp:156] Memory required for data: 1299351072
I0403 18:42:43.619822  7283 layer_factory.hpp:77] Creating layer inception_5a/5x5
I0403 18:42:43.619843  7283 net.cpp:91] Creating Layer inception_5a/5x5
I0403 18:42:43.619861  7283 net.cpp:425] inception_5a/5x5 <- inception_5a/5x5_reduce
I0403 18:42:43.619884  7283 net.cpp:399] inception_5a/5x5 -> inception_5a/5x5
I0403 18:42:43.621618  7283 net.cpp:141] Setting up inception_5a/5x5
I0403 18:42:43.621659  7283 net.cpp:148] Top shape: 24 128 7 7 (150528)
I0403 18:42:43.621676  7283 net.cpp:156] Memory required for data: 1299953184
I0403 18:42:43.621695  7283 layer_factory.hpp:77] Creating layer inception_5a/relu_5x5
I0403 18:42:43.621713  7283 net.cpp:91] Creating Layer inception_5a/relu_5x5
I0403 18:42:43.621731  7283 net.cpp:425] inception_5a/relu_5x5 <- inception_5a/5x5
I0403 18:42:43.621752  7283 net.cpp:386] inception_5a/relu_5x5 -> inception_5a/5x5 (in-place)
I0403 18:42:43.621947  7283 net.cpp:141] Setting up inception_5a/relu_5x5
I0403 18:42:43.621971  7283 net.cpp:148] Top shape: 24 128 7 7 (150528)
I0403 18:42:43.621985  7283 net.cpp:156] Memory required for data: 1300555296
I0403 18:42:43.622001  7283 layer_factory.hpp:77] Creating layer inception_5a/pool
I0403 18:42:43.622021  7283 net.cpp:91] Creating Layer inception_5a/pool
I0403 18:42:43.622037  7283 net.cpp:425] inception_5a/pool <- pool4/3x3_s2_pool4/3x3_s2_0_split_3
I0403 18:42:43.622056  7283 net.cpp:399] inception_5a/pool -> inception_5a/pool
I0403 18:42:43.622126  7283 net.cpp:141] Setting up inception_5a/pool
I0403 18:42:43.622150  7283 net.cpp:148] Top shape: 24 832 7 7 (978432)
I0403 18:42:43.622165  7283 net.cpp:156] Memory required for data: 1304469024
I0403 18:42:43.622191  7283 layer_factory.hpp:77] Creating layer inception_5a/pool_proj
I0403 18:42:43.622217  7283 net.cpp:91] Creating Layer inception_5a/pool_proj
I0403 18:42:43.622236  7283 net.cpp:425] inception_5a/pool_proj <- inception_5a/pool
I0403 18:42:43.622256  7283 net.cpp:399] inception_5a/pool_proj -> inception_5a/pool_proj
I0403 18:42:43.624546  7283 net.cpp:141] Setting up inception_5a/pool_proj
I0403 18:42:43.624577  7283 net.cpp:148] Top shape: 24 128 7 7 (150528)
I0403 18:42:43.624593  7283 net.cpp:156] Memory required for data: 1305071136
I0403 18:42:43.624614  7283 layer_factory.hpp:77] Creating layer inception_5a/relu_pool_proj
I0403 18:42:43.624631  7283 net.cpp:91] Creating Layer inception_5a/relu_pool_proj
I0403 18:42:43.624647  7283 net.cpp:425] inception_5a/relu_pool_proj <- inception_5a/pool_proj
I0403 18:42:43.624667  7283 net.cpp:386] inception_5a/relu_pool_proj -> inception_5a/pool_proj (in-place)
I0403 18:42:43.624963  7283 net.cpp:141] Setting up inception_5a/relu_pool_proj
I0403 18:42:43.624989  7283 net.cpp:148] Top shape: 24 128 7 7 (150528)
I0403 18:42:43.625005  7283 net.cpp:156] Memory required for data: 1305673248
I0403 18:42:43.625020  7283 layer_factory.hpp:77] Creating layer inception_5a/output
I0403 18:42:43.625036  7283 net.cpp:91] Creating Layer inception_5a/output
I0403 18:42:43.625052  7283 net.cpp:425] inception_5a/output <- inception_5a/1x1
I0403 18:42:43.625068  7283 net.cpp:425] inception_5a/output <- inception_5a/3x3
I0403 18:42:43.625084  7283 net.cpp:425] inception_5a/output <- inception_5a/5x5
I0403 18:42:43.625100  7283 net.cpp:425] inception_5a/output <- inception_5a/pool_proj
I0403 18:42:43.625119  7283 net.cpp:399] inception_5a/output -> inception_5a/output
I0403 18:42:43.625169  7283 net.cpp:141] Setting up inception_5a/output
I0403 18:42:43.625198  7283 net.cpp:148] Top shape: 24 832 7 7 (978432)
I0403 18:42:43.625213  7283 net.cpp:156] Memory required for data: 1309586976
I0403 18:42:43.625228  7283 layer_factory.hpp:77] Creating layer inception_5a/output_inception_5a/output_0_split
I0403 18:42:43.625248  7283 net.cpp:91] Creating Layer inception_5a/output_inception_5a/output_0_split
I0403 18:42:43.625265  7283 net.cpp:425] inception_5a/output_inception_5a/output_0_split <- inception_5a/output
I0403 18:42:43.625283  7283 net.cpp:399] inception_5a/output_inception_5a/output_0_split -> inception_5a/output_inception_5a/output_0_split_0
I0403 18:42:43.625308  7283 net.cpp:399] inception_5a/output_inception_5a/output_0_split -> inception_5a/output_inception_5a/output_0_split_1
I0403 18:42:43.625329  7283 net.cpp:399] inception_5a/output_inception_5a/output_0_split -> inception_5a/output_inception_5a/output_0_split_2
I0403 18:42:43.625350  7283 net.cpp:399] inception_5a/output_inception_5a/output_0_split -> inception_5a/output_inception_5a/output_0_split_3
I0403 18:42:43.625463  7283 net.cpp:141] Setting up inception_5a/output_inception_5a/output_0_split
I0403 18:42:43.625488  7283 net.cpp:148] Top shape: 24 832 7 7 (978432)
I0403 18:42:43.625504  7283 net.cpp:148] Top shape: 24 832 7 7 (978432)
I0403 18:42:43.625519  7283 net.cpp:148] Top shape: 24 832 7 7 (978432)
I0403 18:42:43.625535  7283 net.cpp:148] Top shape: 24 832 7 7 (978432)
I0403 18:42:43.625550  7283 net.cpp:156] Memory required for data: 1325241888
I0403 18:42:43.625565  7283 layer_factory.hpp:77] Creating layer inception_5b/1x1
I0403 18:42:43.625586  7283 net.cpp:91] Creating Layer inception_5b/1x1
I0403 18:42:43.625604  7283 net.cpp:425] inception_5b/1x1 <- inception_5a/output_inception_5a/output_0_split_0
I0403 18:42:43.625624  7283 net.cpp:399] inception_5b/1x1 -> inception_5b/1x1
I0403 18:42:43.629484  7283 net.cpp:141] Setting up inception_5b/1x1
I0403 18:42:43.629519  7283 net.cpp:148] Top shape: 24 384 7 7 (451584)
I0403 18:42:43.629539  7283 net.cpp:156] Memory required for data: 1327048224
I0403 18:42:43.629559  7283 layer_factory.hpp:77] Creating layer inception_5b/relu_1x1
I0403 18:42:43.629577  7283 net.cpp:91] Creating Layer inception_5b/relu_1x1
I0403 18:42:43.629593  7283 net.cpp:425] inception_5b/relu_1x1 <- inception_5b/1x1
I0403 18:42:43.629614  7283 net.cpp:386] inception_5b/relu_1x1 -> inception_5b/1x1 (in-place)
I0403 18:42:43.629932  7283 net.cpp:141] Setting up inception_5b/relu_1x1
I0403 18:42:43.629962  7283 net.cpp:148] Top shape: 24 384 7 7 (451584)
I0403 18:42:43.629979  7283 net.cpp:156] Memory required for data: 1328854560
I0403 18:42:43.629994  7283 layer_factory.hpp:77] Creating layer inception_5b/3x3_reduce
I0403 18:42:43.630018  7283 net.cpp:91] Creating Layer inception_5b/3x3_reduce
I0403 18:42:43.630036  7283 net.cpp:425] inception_5b/3x3_reduce <- inception_5a/output_inception_5a/output_0_split_1
I0403 18:42:43.630059  7283 net.cpp:399] inception_5b/3x3_reduce -> inception_5b/3x3_reduce
I0403 18:42:43.632866  7283 net.cpp:141] Setting up inception_5b/3x3_reduce
I0403 18:42:43.632902  7283 net.cpp:148] Top shape: 24 192 7 7 (225792)
I0403 18:42:43.632923  7283 net.cpp:156] Memory required for data: 1329757728
I0403 18:42:43.632944  7283 layer_factory.hpp:77] Creating layer inception_5b/relu_3x3_reduce
I0403 18:42:43.632963  7283 net.cpp:91] Creating Layer inception_5b/relu_3x3_reduce
I0403 18:42:43.632980  7283 net.cpp:425] inception_5b/relu_3x3_reduce <- inception_5b/3x3_reduce
I0403 18:42:43.633000  7283 net.cpp:386] inception_5b/relu_3x3_reduce -> inception_5b/3x3_reduce (in-place)
I0403 18:42:43.633208  7283 net.cpp:141] Setting up inception_5b/relu_3x3_reduce
I0403 18:42:43.633236  7283 net.cpp:148] Top shape: 24 192 7 7 (225792)
I0403 18:42:43.633254  7283 net.cpp:156] Memory required for data: 1330660896
I0403 18:42:43.633270  7283 layer_factory.hpp:77] Creating layer inception_5b/3x3
I0403 18:42:43.633292  7283 net.cpp:91] Creating Layer inception_5b/3x3
I0403 18:42:43.633312  7283 net.cpp:425] inception_5b/3x3 <- inception_5b/3x3_reduce
I0403 18:42:43.633337  7283 net.cpp:399] inception_5b/3x3 -> inception_5b/3x3
I0403 18:42:43.640333  7283 net.cpp:141] Setting up inception_5b/3x3
I0403 18:42:43.640367  7283 net.cpp:148] Top shape: 24 384 7 7 (451584)
I0403 18:42:43.640383  7283 net.cpp:156] Memory required for data: 1332467232
I0403 18:42:43.640403  7283 layer_factory.hpp:77] Creating layer inception_5b/relu_3x3
I0403 18:42:43.640421  7283 net.cpp:91] Creating Layer inception_5b/relu_3x3
I0403 18:42:43.640440  7283 net.cpp:425] inception_5b/relu_3x3 <- inception_5b/3x3
I0403 18:42:43.640462  7283 net.cpp:386] inception_5b/relu_3x3 -> inception_5b/3x3 (in-place)
I0403 18:42:43.640769  7283 net.cpp:141] Setting up inception_5b/relu_3x3
I0403 18:42:43.640796  7283 net.cpp:148] Top shape: 24 384 7 7 (451584)
I0403 18:42:43.640812  7283 net.cpp:156] Memory required for data: 1334273568
I0403 18:42:43.640827  7283 layer_factory.hpp:77] Creating layer inception_5b/5x5_reduce
I0403 18:42:43.640869  7283 net.cpp:91] Creating Layer inception_5b/5x5_reduce
I0403 18:42:43.640889  7283 net.cpp:425] inception_5b/5x5_reduce <- inception_5a/output_inception_5a/output_0_split_2
I0403 18:42:43.640913  7283 net.cpp:399] inception_5b/5x5_reduce -> inception_5b/5x5_reduce
I0403 18:42:43.642256  7283 net.cpp:141] Setting up inception_5b/5x5_reduce
I0403 18:42:43.642287  7283 net.cpp:148] Top shape: 24 48 7 7 (56448)
I0403 18:42:43.642304  7283 net.cpp:156] Memory required for data: 1334499360
I0403 18:42:43.642324  7283 layer_factory.hpp:77] Creating layer inception_5b/relu_5x5_reduce
I0403 18:42:43.642343  7283 net.cpp:91] Creating Layer inception_5b/relu_5x5_reduce
I0403 18:42:43.642362  7283 net.cpp:425] inception_5b/relu_5x5_reduce <- inception_5b/5x5_reduce
I0403 18:42:43.642385  7283 net.cpp:386] inception_5b/relu_5x5_reduce -> inception_5b/5x5_reduce (in-place)
I0403 18:42:43.642776  7283 net.cpp:141] Setting up inception_5b/relu_5x5_reduce
I0403 18:42:43.642804  7283 net.cpp:148] Top shape: 24 48 7 7 (56448)
I0403 18:42:43.642822  7283 net.cpp:156] Memory required for data: 1334725152
I0403 18:42:43.642838  7283 layer_factory.hpp:77] Creating layer inception_5b/5x5
I0403 18:42:43.642858  7283 net.cpp:91] Creating Layer inception_5b/5x5
I0403 18:42:43.642876  7283 net.cpp:425] inception_5b/5x5 <- inception_5b/5x5_reduce
I0403 18:42:43.642895  7283 net.cpp:399] inception_5b/5x5 -> inception_5b/5x5
I0403 18:42:43.645054  7283 net.cpp:141] Setting up inception_5b/5x5
I0403 18:42:43.645086  7283 net.cpp:148] Top shape: 24 128 7 7 (150528)
I0403 18:42:43.645102  7283 net.cpp:156] Memory required for data: 1335327264
I0403 18:42:43.645123  7283 layer_factory.hpp:77] Creating layer inception_5b/relu_5x5
I0403 18:42:43.645144  7283 net.cpp:91] Creating Layer inception_5b/relu_5x5
I0403 18:42:43.645164  7283 net.cpp:425] inception_5b/relu_5x5 <- inception_5b/5x5
I0403 18:42:43.645186  7283 net.cpp:386] inception_5b/relu_5x5 -> inception_5b/5x5 (in-place)
I0403 18:42:43.645392  7283 net.cpp:141] Setting up inception_5b/relu_5x5
I0403 18:42:43.645418  7283 net.cpp:148] Top shape: 24 128 7 7 (150528)
I0403 18:42:43.645434  7283 net.cpp:156] Memory required for data: 1335929376
I0403 18:42:43.645450  7283 layer_factory.hpp:77] Creating layer inception_5b/pool
I0403 18:42:43.645472  7283 net.cpp:91] Creating Layer inception_5b/pool
I0403 18:42:43.645490  7283 net.cpp:425] inception_5b/pool <- inception_5a/output_inception_5a/output_0_split_3
I0403 18:42:43.645509  7283 net.cpp:399] inception_5b/pool -> inception_5b/pool
I0403 18:42:43.645587  7283 net.cpp:141] Setting up inception_5b/pool
I0403 18:42:43.645612  7283 net.cpp:148] Top shape: 24 832 7 7 (978432)
I0403 18:42:43.645627  7283 net.cpp:156] Memory required for data: 1339843104
I0403 18:42:43.645642  7283 layer_factory.hpp:77] Creating layer inception_5b/pool_proj
I0403 18:42:43.645666  7283 net.cpp:91] Creating Layer inception_5b/pool_proj
I0403 18:42:43.645685  7283 net.cpp:425] inception_5b/pool_proj <- inception_5b/pool
I0403 18:42:43.645706  7283 net.cpp:399] inception_5b/pool_proj -> inception_5b/pool_proj
I0403 18:42:43.648129  7283 net.cpp:141] Setting up inception_5b/pool_proj
I0403 18:42:43.648161  7283 net.cpp:148] Top shape: 24 128 7 7 (150528)
I0403 18:42:43.648185  7283 net.cpp:156] Memory required for data: 1340445216
I0403 18:42:43.648207  7283 layer_factory.hpp:77] Creating layer inception_5b/relu_pool_proj
I0403 18:42:43.648229  7283 net.cpp:91] Creating Layer inception_5b/relu_pool_proj
I0403 18:42:43.648247  7283 net.cpp:425] inception_5b/relu_pool_proj <- inception_5b/pool_proj
I0403 18:42:43.648267  7283 net.cpp:386] inception_5b/relu_pool_proj -> inception_5b/pool_proj (in-place)
I0403 18:42:43.648579  7283 net.cpp:141] Setting up inception_5b/relu_pool_proj
I0403 18:42:43.648609  7283 net.cpp:148] Top shape: 24 128 7 7 (150528)
I0403 18:42:43.648627  7283 net.cpp:156] Memory required for data: 1341047328
I0403 18:42:43.648643  7283 layer_factory.hpp:77] Creating layer inception_5b/output
I0403 18:42:43.648661  7283 net.cpp:91] Creating Layer inception_5b/output
I0403 18:42:43.648695  7283 net.cpp:425] inception_5b/output <- inception_5b/1x1
I0403 18:42:43.648715  7283 net.cpp:425] inception_5b/output <- inception_5b/3x3
I0403 18:42:43.648732  7283 net.cpp:425] inception_5b/output <- inception_5b/5x5
I0403 18:42:43.648751  7283 net.cpp:425] inception_5b/output <- inception_5b/pool_proj
I0403 18:42:43.648771  7283 net.cpp:399] inception_5b/output -> inception_5b/output
I0403 18:42:43.648823  7283 net.cpp:141] Setting up inception_5b/output
I0403 18:42:43.648851  7283 net.cpp:148] Top shape: 24 1024 7 7 (1204224)
I0403 18:42:43.648867  7283 net.cpp:156] Memory required for data: 1345864224
I0403 18:42:43.648883  7283 layer_factory.hpp:77] Creating layer pool5/7x7_s1
I0403 18:42:43.648902  7283 net.cpp:91] Creating Layer pool5/7x7_s1
I0403 18:42:43.648918  7283 net.cpp:425] pool5/7x7_s1 <- inception_5b/output
I0403 18:42:43.648938  7283 net.cpp:399] pool5/7x7_s1 -> pool5/7x7_s1
I0403 18:42:43.649166  7283 net.cpp:141] Setting up pool5/7x7_s1
I0403 18:42:43.649199  7283 net.cpp:148] Top shape: 24 1024 1 1 (24576)
I0403 18:42:43.649214  7283 net.cpp:156] Memory required for data: 1345962528
I0403 18:42:43.649230  7283 layer_factory.hpp:77] Creating layer pool5/drop_7x7_s1
I0403 18:42:43.649250  7283 net.cpp:91] Creating Layer pool5/drop_7x7_s1
I0403 18:42:43.649267  7283 net.cpp:425] pool5/drop_7x7_s1 <- pool5/7x7_s1
I0403 18:42:43.649288  7283 net.cpp:386] pool5/drop_7x7_s1 -> pool5/7x7_s1 (in-place)
I0403 18:42:43.649340  7283 net.cpp:141] Setting up pool5/drop_7x7_s1
I0403 18:42:43.649368  7283 net.cpp:148] Top shape: 24 1024 1 1 (24576)
I0403 18:42:43.649384  7283 net.cpp:156] Memory required for data: 1346060832
I0403 18:42:43.649400  7283 layer_factory.hpp:77] Creating layer loss3/classifier_plantvillage
I0403 18:42:43.649421  7283 net.cpp:91] Creating Layer loss3/classifier_plantvillage
I0403 18:42:43.649438  7283 net.cpp:425] loss3/classifier_plantvillage <- pool5/7x7_s1
I0403 18:42:43.649458  7283 net.cpp:399] loss3/classifier_plantvillage -> loss3/classifier_plantvillage
I0403 18:42:43.649904  7283 net.cpp:141] Setting up loss3/classifier_plantvillage
I0403 18:42:43.649930  7283 net.cpp:148] Top shape: 24 38 (912)
I0403 18:42:43.649947  7283 net.cpp:156] Memory required for data: 1346064480
I0403 18:42:43.649966  7283 layer_factory.hpp:77] Creating layer loss3/classifier_plantvillage_loss3/classifier_plantvillage_0_split
I0403 18:42:43.649989  7283 net.cpp:91] Creating Layer loss3/classifier_plantvillage_loss3/classifier_plantvillage_0_split
I0403 18:42:43.650007  7283 net.cpp:425] loss3/classifier_plantvillage_loss3/classifier_plantvillage_0_split <- loss3/classifier_plantvillage
I0403 18:42:43.650027  7283 net.cpp:399] loss3/classifier_plantvillage_loss3/classifier_plantvillage_0_split -> loss3/classifier_plantvillage_loss3/classifier_plantvillage_0_split_0
I0403 18:42:43.650053  7283 net.cpp:399] loss3/classifier_plantvillage_loss3/classifier_plantvillage_0_split -> loss3/classifier_plantvillage_loss3/classifier_plantvillage_0_split_1
I0403 18:42:43.650074  7283 net.cpp:399] loss3/classifier_plantvillage_loss3/classifier_plantvillage_0_split -> loss3/classifier_plantvillage_loss3/classifier_plantvillage_0_split_2
I0403 18:42:43.650095  7283 net.cpp:399] loss3/classifier_plantvillage_loss3/classifier_plantvillage_0_split -> loss3/classifier_plantvillage_loss3/classifier_plantvillage_0_split_3
I0403 18:42:43.650209  7283 net.cpp:141] Setting up loss3/classifier_plantvillage_loss3/classifier_plantvillage_0_split
I0403 18:42:43.650234  7283 net.cpp:148] Top shape: 24 38 (912)
I0403 18:42:43.650251  7283 net.cpp:148] Top shape: 24 38 (912)
I0403 18:42:43.650269  7283 net.cpp:148] Top shape: 24 38 (912)
I0403 18:42:43.650285  7283 net.cpp:148] Top shape: 24 38 (912)
I0403 18:42:43.650300  7283 net.cpp:156] Memory required for data: 1346079072
I0403 18:42:43.650315  7283 layer_factory.hpp:77] Creating layer loss1/loss
I0403 18:42:43.650339  7283 net.cpp:91] Creating Layer loss1/loss
I0403 18:42:43.650357  7283 net.cpp:425] loss1/loss <- loss1/classifier_plantvillage_loss1/classifier_plantvillage_0_split_0
I0403 18:42:43.650389  7283 net.cpp:425] loss1/loss <- label_data_1_split_0
…
