…
I0403 18:16:19.714406  6758 net.cpp:313] The NetState phase (1) differed from the phase (0) specified by a rule in layer data
I0403 18:16:19.715620  6758 net.cpp:49] Initializing net from parameters: 
state {
  phase: TEST
}
layer {
  name: "data"
  type: "Data"
  top: "data"
  top: "label"
  include {
    phase: TEST
  }
  transform_param {
    mirror: false
    crop_size: 224
    mean_file: "/home/mohanty/data/final_dataset/lmdb/segmented-50-50/mean.binaryproto"
  }
  data_param {
    source: "/home/mohanty/data/final_dataset/lmdb/segmented-50-50/test_db"
    batch_size: 24
    backend: LMDB
  }
}
layer {
  name: "conv1/7x7_s2"
  type: "Convolution"
  bottom: "data"
  top: "conv1/7x7_s2"
  param {
    lr_mult: 1
    decay_mult: 1
  }
  param {
    lr_mult: 2
    decay_mult: 0
  }
  convolution_param {
    num_output: 64
    pad: 3
    kernel_size: 7
    stride: 2
    weight_filler {
      type: "xavier"
      std: 0.1
    }
    bias_filler {
      type: "constant"
      value: 0.2
    }
  }
}
layer {
  name: "conv1/relu_7x7"
  type: "ReLU"
  bottom: "conv1/7x7_s2"
  top: "conv1/7x7_s2"
}
layer {
  name: "pool1/3x3_s2"
  type: "Pooling"
  bottom: "conv1/7x7_s2"
  top: "pool1/3x3_s2"
  pooling_param {
    pool: MAX
    kernel_size: 3
    stride: 2
  }
}
layer {
  name: "pool1/norm1"
  type: "LRN"
  bottom: "pool1/3x3_s2"
  top: "pool1/norm1"
  lrn_param {
    local_size: 5
    alpha: 0.0001
    beta: 0.75
  }
}
layer {
  name: "conv2/3x3_reduce"
  type: "Convolution"
  bottom: "pool1/norm1"
  top: "conv2/3x3_reduce"
  param {
    lr_mult: 1
    decay_mult: 1
  }
  param {
    lr_mult: 2
    decay_mult: 0
  }
  convolution_param {
    num_output: 64
    kernel_size: 1
    weight_filler {
      type: "xavier"
      std: 0.1
    }
    bias_filler {
      type: "constant"
      value: 0.2
    }
  }
}
layer {
  name: "conv2/relu_3x3_reduce"
  type: "ReLU"
  bottom: "conv2/3x3_reduce"
  top: "conv2/3x3_reduce"
}
layer {
  name: "conv2/3x3"
  type: "Convolution"
  bottom: "conv2/3x3_reduce"
  top: "conv2/3x3"
  param {
    lr_mult: 1
    decay_mult: 1
  }
  param {
    lr_mult: 2
    decay_mult: 0
  }
  convolution_param {
    num_output: 192
    pad: 1
    kernel_size: 3
    weight_filler {
      type: "xavier"
      std: 0.03
    }
    bias_filler {
      type: "constant"
      value: 0.2
    }
  }
}
layer {
  name: "conv2/relu_3x3"
  type: "ReLU"
  bottom: "conv2/3x3"
  top: "conv2/3x3"
}
layer {
  name: "conv2/norm2"
  type: "LRN"
  bottom: "conv2/3x3"
  top: "conv2/norm2"
  lrn_param {
    local_size: 5
    alpha: 0.0001
    beta: 0.75
  }
}
layer {
  name: "pool2/3x3_s2"
  type: "Pooling"
  bottom: "conv2/norm2"
  top: "pool2/3x3_s2"
  pooling_param {
    pool: MAX
    kernel_size: 3
    stride: 2
  }
}
layer {
  name: "inception_3a/1x1"
  type: "Convolution"
  bottom: "pool2/3x3_s2"
  top: "inception_3a/1x1"
  param {
    lr_mult: 1
    decay_mult: 1
  }
  param {
    lr_mult: 2
    decay_mult: 0
  }
  convolution_param {
    num_output: 64
    kernel_size: 1
    weight_filler {
      type: "xavier"
      std: 0.03
    }
    bias_filler {
      type: "constant"
      value: 0.2
    }
  }
}
layer {
  name: "inception_3a/relu_1x1"
  type: "ReLU"
  bottom: "inception_3a/1x1"
  top: "inception_3a/1x1"
}
layer {
  name: "inception_3a/3x3_reduce"
  type: "Convolution"
  bottom: "pool2/3x3_s2"
  top: "inception_3a/3x3_reduce"
  param {
    lr_mult: 1
    decay_mult: 1
  }
  param {
    lr_mult: 2
    decay_mult: 0
  }
  convolution_param {
    num_output: 96
    kernel_size: 1
    weight_filler {
      type: "xavier"
      std: 0.09
    }
    bias_filler {
      type: "constant"
      value: 0.2
    }
  }
}
layer {
  name: "inception_3a/relu_3x3_reduce"
  type: "ReLU"
  bottom: "inception_3a/3x3_reduce"
  top: "inception_3a/3x3_reduce"
}
layer {
  name: "inception_3a/3x3"
  type: "Convolution"
  bottom: "inception_3a/3x3_reduce"
  top: "inception_3a/3x3"
  param {
    lr_mult: 1
    decay_mult: 1
  }
  param {
    lr_mult: 2
    decay_mult: 0
  }
  convolution_param {
    num_output: 128
    pad: 1
    kernel_size: 3
    weight_filler {
      type: "xavier"
      std: 0.03
    }
    bias_filler {
      type: "constant"
      value: 0.2
    }
  }
}
layer {
  name: "inception_3a/relu_3x3"
  type: "ReLU"
  bottom: "inception_3a/3x3"
  top: "inception_3a/3x3"
}
layer {
  name: "inception_3a/5x5_reduce"
  type: "Convolution"
  bottom: "pool2/3x3_s2"
  top: "inception_3a/5x5_reduce"
  param {
    lr_mult: 1
    decay_mult: 1
  }
  param {
    lr_mult: 2
    decay_mult: 0
  }
  convolution_param {
    num_output: 16
    kernel_size: 1
    weight_filler {
      type: "xavier"
      std: 0.2
    }
    bias_filler {
      type: "constant"
      value: 0.2
    }
  }
}
layer {
  name: "inception_3a/relu_5x5_reduce"
  type: "ReLU"
  bottom: "inception_3a/5x5_reduce"
  top: "inception_3a/5x5_reduce"
}
layer {
  name: "inception_3a/5x5"
  type: "Convolution"
  bottom: "inception_3a/5x5_reduce"
  top: "inception_3a/5x5"
  param {
    lr_mult: 1
    decay_mult: 1
  }
  param {
    lr_mult: 2
    decay_mult: 0
  }
  convolution_param {
    num_output: 32
    pad: 2
    kernel_size: 5
    weight_filler {
      type: "xavier"
      std: 0.03
    }
    bias_filler {
      type: "constant"
      value: 0.2
    }
  }
}
layer {
  name: "inception_3a/relu_5x5"
  type: "ReLU"
  bottom: "inception_3a/5x5"
  top: "inception_3a/5x5"
}
layer {
  name: "inception_3a/pool"
  type: "Pooling"
  bottom: "pool2/3x3_s2"
  top: "inception_3a/pool"
  pooling_param {
    pool: MAX
    kernel_size: 3
    stride: 1
    pad: 1
  }
}
layer {
  name: "inception_3a/pool_proj"
  type: "Convolution"
  bottom: "inception_3a/pool"
  top: "inception_3a/pool_proj"
  param {
    lr_mult: 1
    decay_mult: 1
  }
  param {
    lr_mult: 2
    decay_mult: 0
  }
  convolution_param {
    num_output: 32
    kernel_size: 1
    weight_filler {
      type: "xavier"
      std: 0.1
    }
    bias_filler {
      type: "constant"
      value: 0.2
    }
  }
}
layer {
  name: "inception_3a/relu_pool_proj"
  type: "ReLU"
  bottom: "inception_3a/pool_proj"
  top: "inception_3a/pool_proj"
}
layer {
  name: "inception_3a/output"
  type: "Concat"
  bottom: "inception_3a/1x1"
  bottom: "inception_3a/3x3"
  bottom: "inception_3a/5x5"
  bottom: "inception_3a/pool_proj"
  top: "inception_3a/output"
}
layer {
  name: "inception_3b/1x1"
  type: "Convolution"
  bottom: "inception_3a/output"
  top: "inception_3b/1x1"
  param {
    lr_mult: 1
    decay_mult: 1
  }
  param {
    lr_mult: 2
    decay_mult: 0
  }
  convolution_param {
    num_output: 128
    kernel_size: 1
    weight_filler {
      type: "xavier"
      std: 0.03
    }
    bias_filler {
      type: "constant"
      value: 0.2
    }
  }
}
layer {
  name: "inception_3b/relu_1x1"
  type: "ReLU"
  bottom: "inception_3b/1x1"
  top: "inception_3b/1x1"
}
layer {
  name: "inception_3b/3x3_reduce"
  type: "Convolution"
  bottom: "inception_3a/output"
  top: "inception_3b/3x3_reduce"
  param {
    lr_mult: 1
    decay_mult: 1
  }
  param {
    lr_mult: 2
    decay_mult: 0
  }
  convolution_param {
    num_output: 128
    kernel_size: 1
    weight_filler {
      type: "xavier"
      std: 0.09
    }
    bias_filler {
      type: "constant"
      value: 0.2
    }
  }
}
layer {
  name: "inception_3b/relu_3x3_reduce"
  type: "ReLU"
  bottom: "inception_3b/3x3_reduce"
  top: "inception_3b/3x3_reduce"
}
layer {
  name: "inception_3b/3x3"
  type: "Convolution"
  bottom: "inception_3b/3x3_reduce"
  top: "inception_3b/3x3"
  param {
    lr_mult: 1
    decay_mult: 1
  }
  param {
    lr_mult: 2
    decay_mult: 0
  }
  convolution_param {
    num_output: 192
    pad: 1
    kernel_size: 3
    weight_filler {
      type: "xavier"
      std: 0.03
    }
    bias_filler {
      type: "constant"
      value: 0.2
    }
  }
}
layer {
  name: "inception_3b/relu_3x3"
  type: "ReLU"
  bottom: "inception_3b/3x3"
  top: "inception_3b/3x3"
}
layer {
  name: "inception_3b/5x5_reduce"
  type: "Convolution"
  bottom: "inception_3a/output"
  top: "inception_3b/5x5_reduce"
  param {
    lr_mult: 1
    decay_mult: 1
  }
  param {
    lr_mult: 2
    decay_mult: 0
  }
  convolution_param {
    num_output: 32
    kernel_size: 1
    weight_filler {
      type: "xavier"
      std: 0.2
    }
    bias_filler {
      type: "constant"
      value: 0.2
    }
  }
}
layer {
  name: "inception_3b/relu_5x5_reduce"
  type: "ReLU"
  bottom: "inception_3b/5x5_reduce"
  top: "inception_3b/5x5_reduce"
}
layer {
  name: "inception_3b/5x5"
  type: "Convolution"
  bottom: "inception_3b/5x5_reduce"
  top: "inception_3b/5x5"
  param {
    lr_mult: 1
    decay_mult: 1
  }
  param {
    lr_mult: 2
    decay_mult: 0
  }
  convolution_param {
    num_output: 96
    pad: 2
    kernel_size: 5
    weight_filler {
      type: "xavier"
      std: 0.03
    }
    bias_filler {
      type: "constant"
      value: 0.2
    }
  }
}
layer {
  name: "inception_3b/relu_5x5"
  type: "ReLU"
  bottom: "inception_3b/5x5"
  top: "inception_3b/5x5"
}
layer {
  name: "inception_3b/pool"
  type: "Pooling"
  bottom: "inception_3a/output"
  top: "inception_3b/pool"
  pooling_param {
    pool: MAX
    kernel_size: 3
    stride: 1
    pad: 1
  }
}
layer {
  name: "inception_3b/pool_proj"
  type: "Convolution"
  bottom: "inception_3b/pool"
  top: "inception_3b/pool_proj"
  param {
    lr_mult: 1
    decay_mult: 1
  }
  param {
    lr_mult: 2
    decay_mult: 0
  }
  convolution_param {
    num_output: 64
    kernel_size: 1
    weight_filler {
      type: "xavier"
      std: 0.1
    }
    bias_filler {
      type: "constant"
      value: 0.2
    }
  }
}
layer {
  name: "inception_3b/relu_pool_proj"
  type: "ReLU"
  bottom: "inception_3b/pool_proj"
  top: "inception_3b/pool_proj"
}
layer {
  name: "inception_3b/output"
  type: "Concat"
  bottom: "inception_3b/1x1"
  bottom: "inception_3b/3x3"
  bottom: "inception_3b/5x5"
  bottom: "inception_3b/pool_proj"
  top: "inception_3b/output"
}
layer {
  name: "pool3/3x3_s2"
  type: "Pooling"
  bottom: "inception_3b/output"
  top: "pool3/3x3_s2"
  pooling_param {
    pool: MAX
    kernel_size: 3
    stride: 2
  }
}
layer {
  name: "inception_4a/1x1"
  type: "Convolution"
  bottom: "pool3/3x3_s2"
  top: "inception_4a/1x1"
  param {
    lr_mult: 1
    decay_mult: 1
  }
  param {
    lr_mult: 2
    decay_mult: 0
  }
  convolution_param {
    num_output: 192
    kernel_size: 1
    weight_filler {
      type: "xavier"
      std: 0.03
    }
    bias_filler {
      type: "constant"
      value: 0.2
    }
  }
}
layer {
  name: "inception_4a/relu_1x1"
  type: "ReLU"
  bottom: "inception_4a/1x1"
  top: "inception_4a/1x1"
}
layer {
  name: "inception_4a/3x3_reduce"
  type: "Convolution"
  bottom: "pool3/3x3_s2"
  top: "inception_4a/3x3_reduce"
  param {
    lr_mult: 1
    decay_mult: 1
  }
  param {
    lr_mult: 2
    decay_mult: 0
  }
  convolution_param {
    num_output: 96
    kernel_size: 1
    weight_filler {
      type: "xavier"
      std: 0.09
    }
    bias_filler {
      type: "constant"
      value: 0.2
    }
  }
}
layer {
  name: "inception_4a/relu_3x3_reduce"
  type: "ReLU"
  bottom: "inception_4a/3x3_reduce"
  top: "inception_4a/3x3_reduce"
}
layer {
  name: "inception_4a/3x3"
  type: "Convolution"
  bottom: "inception_4a/3x3_reduce"
  top: "inception_4a/3x3"
  param {
    lr_mult: 1
    decay_mult: 1
  }
  param {
    lr_mult: 2
    decay_mult: 0
  }
  convolution_param {
    num_output: 208
    pad: 1
    kernel_size: 3
    weight_filler {
      type: "xavier"
      std: 0.03
    }
    bias_filler {
      type: "constant"
      value: 0.2
    }
  }
}
layer {
  name: "inception_4a/relu_3x3"
  type: "ReLU"
  bottom: "inception_4a/3x3"
  top: "inception_4a/3x3"
}
layer {
  name: "inception_4a/5x5_reduce"
  type: "Convolution"
  bottom: "pool3/3x3_s2"
  top: "inception_4a/5x5_reduce"
  param {
    lr_mult: 1
    decay_mult: 1
  }
  param {
    lr_mult: 2
    decay_mult: 0
  }
  convolution_param {
    num_output: 16
    kernel_size: 1
    weight_filler {
      type: "xavier"
      std: 0.2
    }
    bias_filler {
      type: "constant"
      value: 0.2
    }
  }
}
layer {
  name: "inception_4a/relu_5x5_reduce"
  type: "ReLU"
  bottom: "inception_4a/5x5_reduce"
  top: "inception_4a/5x5_reduce"
}
layer {
  name: "inception_4a/5x5"
  type: "Convolution"
  bottom: "inception_4a/5x5_reduce"
  top: "inception_4a/5x5"
  param {
    lr_mult: 1
    decay_mult: 1
  }
  param {
    lr_mult: 2
    decay_mult: 0
  }
  convolution_param {
    num_output: 48
    pad: 2
    kernel_size: 5
    weight_filler {
      type: "xavier"
      std: 0.03
    }
    bias_filler {
      type: "constant"
      value: 0.2
    }
  }
}
layer {
  name: "inception_4a/relu_5x5"
  type: "ReLU"
  bottom: "inception_4a/5x5"
  top: "inception_4a/5x5"
}
layer {
  name: "inception_4a/pool"
  type: "Pooling"
  bottom: "pool3/3x3_s2"
  top: "inception_4a/pool"
  pooling_param {
    pool: MAX
    kernel_size: 3
    stride: 1
    pad: 1
  }
}
layer {
  name: "inception_4a/pool_proj"
  type: "Convolution"
  bottom: "inception_4a/pool"
  top: "inception_4a/pool_proj"
  param {
    lr_mult: 1
    decay_mult: 1
  }
  param {
    lr_mult: 2
    decay_mult: 0
  }
  convolution_param {
    num_output: 64
    kernel_size: 1
    weight_filler {
      type: "xavier"
      std: 0.1
    }
    bias_filler {
      type: "constant"
      value: 0.2
    }
  }
}
layer {
  name: "inception_4a/relu_pool_proj"
  type: "ReLU"
  bottom: "inception_4a/pool_proj"
  top: "inception_4a/pool_proj"
}
layer {
  name: "inception_4a/output"
  type: "Concat"
  bottom: "inception_4a/1x1"
  bottom: "inception_4a/3x3"
  bottom: "inception_4a/5x5"
  bottom: "inception_4a/pool_proj"
  top: "inception_4a/output"
}
layer {
  name: "loss1/ave_pool"
  type: "Pooling"
  bottom: "inception_4a/output"
  top: "loss1/ave_pool"
  pooling_param {
    pool: AVE
    kernel_size: 5
    stride: 3
  }
}
layer {
  name: "loss1/conv"
  type: "Convolution"
  bottom: "loss1/ave_pool"
  top: "loss1/conv"
  param {
    lr_mult: 1
    decay_mult: 1
  }
  param {
    lr_mult: 2
    decay_mult: 0
  }
  convolution_param {
    num_output: 128
    kernel_size: 1
    weight_filler {
      type: "xavier"
      std: 0.08
    }
    bias_filler {
      type: "constant"
      value: 0.2
    }
  }
}
layer {
  name: "loss1/relu_conv"
  type: "ReLU"
  bottom: "loss1/conv"
  top: "loss1/conv"
}
layer {
  name: "loss1/fc"
  type: "InnerProduct"
  bottom: "loss1/conv"
  top: "loss1/fc"
  param {
    lr_mult: 1
    decay_mult: 1
  }
  param {
    lr_mult: 2
    decay_mult: 0
  }
  inner_product_param {
    num_output: 1024
    weight_filler {
      type: "xavier"
      std: 0.02
    }
    bias_filler {
      type: "constant"
      value: 0.2
    }
  }
}
layer {
  name: "loss1/relu_fc"
  type: "ReLU"
  bottom: "loss1/fc"
  top: "loss1/fc"
}
layer {
  name: "loss1/drop_fc"
  type: "Dropout"
  bottom: "loss1/fc"
  top: "loss1/fc"
  dropout_param {
    dropout_ratio: 0.7
  }
}
layer {
  name: "loss1/classifier_plantvillage"
  type: "InnerProduct"
  bottom: "loss1/fc"
  top: "loss1/classifier_plantvillage"
  param {
    lr_mult: 1
    decay_mult: 1
  }
  param {
    lr_mult: 2
    decay_mult: 0
  }
  inner_product_param {
    num_output: 38
    weight_filler {
      type: "xavier"
      std: 0.0009765625
    }
    bias_filler {
      type: "constant"
      value: 0
    }
  }
}
layer {
  name: "inception_4b/1x1"
  type: "Convolution"
  bottom: "inception_4a/output"
  top: "inception_4b/1x1"
  param {
    lr_mult: 1
    decay_mult: 1
  }
  param {
    lr_mult: 2
    decay_mult: 0
  }
  convolution_param {
    num_output: 160
    kernel_size: 1
    weight_filler {
      type: "xavier"
      std: 0.03
    }
    bias_filler {
      type: "constant"
      value: 0.2
    }
  }
}
layer {
  name: "inception_4b/relu_1x1"
  type: "ReLU"
  bottom: "inception_4b/1x1"
  top: "inception_4b/1x1"
}
layer {
  name: "inception_4b/3x3_reduce"
  type: "Convolution"
  bottom: "inception_4a/output"
  top: "inception_4b/3x3_reduce"
  param {
    lr_mult: 1
    decay_mult: 1
  }
  param {
    lr_mult: 2
    decay_mult: 0
  }
  convolution_param {
    num_output: 112
    kernel_size: 1
    weight_filler {
      type: "xavier"
      std: 0.09
    }
    bias_filler {
      type: "constant"
      value: 0.2
    }
  }
}
layer {
  name: "inception_4b/relu_3x3_reduce"
  type: "ReLU"
  bottom: "inception_4b/3x3_reduce"
  top: "inception_4b/3x3_reduce"
}
layer {
  name: "inception_4b/3x3"
  type: "Convolution"
  bottom: "inception_4b/3x3_reduce"
  top: "inception_4b/3x3"
  param {
    lr_mult: 1
    decay_mult: 1
  }
  param {
    lr_mult: 2
    decay_mult: 0
  }
  convolution_param {
    num_output: 224
    pad: 1
    kernel_size: 3
    weight_filler {
      type: "xavier"
      std: 0.03
    }
    bias_filler {
      type: "constant"
      value: 0.2
    }
  }
}
layer {
  name: "inception_4b/relu_3x3"
  type: "ReLU"
  bottom: "inception_4b/3x3"
  top: "inception_4b/3x3"
}
layer {
  name: "inception_4b/5x5_reduce"
  type: "Convolution"
  bottom: "inception_4a/output"
  top: "inception_4b/5x5_reduce"
  param {
    lr_mult: 1
    decay_mult: 1
  }
  param {
    lr_mult: 2
    decay_mult: 0
  }
  convolution_param {
    num_output: 24
    kernel_size: 1
    weight_filler {
      type: "xavier"
      std: 0.2
    }
    bias_filler {
      type: "constant"
      value: 0.2
    }
  }
}
layer {
  name: "inception_4b/relu_5x5_reduce"
  type: "ReLU"
  bottom: "inception_4b/5x5_reduce"
  top: "inception_4b/5x5_reduce"
}
layer {
  name: "inception_4b/5x5"
  type: "Convolution"
  bottom: "inception_4b/5x5_reduce"
  top: "inception_4b/5x5"
  param {
    lr_mult: 1
    decay_mult: 1
  }
  param {
    lr_mult: 2
    decay_mult: 0
  }
  convolution_param {
    num_output: 64
    pad: 2
    kernel_size: 5
    weight_filler {
      type: "xavier"
      std: 0.03
    }
    bias_filler {
      type: "constant"
      value: 0.2
    }
  }
}
layer {
  name: "inception_4b/relu_5x5"
  type: "ReLU"
  bottom: "inception_4b/5x5"
  top: "inception_4b/5x5"
}
layer {
  name: "inception_4b/pool"
  type: "Pooling"
  bottom: "inception_4a/output"
  top: "inception_4b/pool"
  pooling_param {
    pool: MAX
    kernel_size: 3
    stride: 1
    pad: 1
  }
}
layer {
  name: "inception_4b/pool_proj"
  type: "Convolution"
  bottom: "inception_4b/pool"
  top: "inception_4b/pool_proj"
  param {
    lr_mult: 1
    decay_mult: 1
  }
  param {
    lr_mult: 2
    decay_mult: 0
  }
  convolution_param {
    num_output: 64
    kernel_size: 1
    weight_filler {
      type: "xavier"
      std: 0.1
    }
    bias_filler {
      type: "constant"
      value: 0.2
    }
  }
}
layer {
  name: "inception_4b/relu_pool_proj"
  type: "ReLU"
  bottom: "inception_4b/pool_proj"
  top: "inception_4b/pool_proj"
}
layer {
  name: "inception_4b/output"
  type: "Concat"
  bottom: "inception_4b/1x1"
  bottom: "inception_4b/3x3"
  bottom: "inception_4b/5x5"
  bottom: "inception_4b/pool_proj"
  top: "inception_4b/output"
}
layer {
  name: "inception_4c/1x1"
  type: "Convolution"
  bottom: "inception_4b/output"
  top: "inception_4c/1x1"
  param {
    lr_mult: 1
    decay_mult: 1
  }
  param {
    lr_mult: 2
    decay_mult: 0
  }
  convolution_param {
    num_output: 128
    kernel_size: 1
    weight_filler {
      type: "xavier"
      std: 0.03
    }
    bias_filler {
      type: "constant"
      value: 0.2
    }
  }
}
layer {
  name: "inception_4c/relu_1x1"
  type: "ReLU"
  bottom: "inception_4c/1x1"
  top: "inception_4c/1x1"
}
layer {
  name: "inception_4c/3x3_reduce"
  type: "Convolution"
  bottom: "inception_4b/output"
  top: "inception_4c/3x3_reduce"
  param {
    lr_mult: 1
    decay_mult: 1
  }
  param {
    lr_mult: 2
    decay_mult: 0
  }
  convolution_param {
    num_output: 128
    kernel_size: 1
    weight_filler {
      type: "xavier"
      std: 0.09
    }
    bias_filler {
      type: "constant"
      value: 0.2
    }
  }
}
layer {
  name: "inception_4c/relu_3x3_reduce"
  type: "ReLU"
  bottom: "inception_4c/3x3_reduce"
  top: "inception_4c/3x3_reduce"
}
layer {
  name: "inception_4c/3x3"
  type: "Convolution"
  bottom: "inception_4c/3x3_reduce"
  top: "inception_4c/3x3"
  param {
    lr_mult: 1
    decay_mult: 1
  }
  param {
    lr_mult: 2
    decay_mult: 0
  }
  convolution_param {
    num_output: 256
    pad: 1
    kernel_size: 3
    weight_filler {
      type: "xavier"
      std: 0.03
    }
    bias_filler {
      type: "constant"
      value: 0.2
    }
  }
}
layer {
  name: "inception_4c/relu_3x3"
  type: "ReLU"
  bottom: "inception_4c/3x3"
  top: "inception_4c/3x3"
}
layer {
  name: "inception_4c/5x5_reduce"
  type: "Convolution"
  bottom: "inception_4b/output"
  top: "inception_4c/5x5_reduce"
  param {
    lr_mult: 1
    decay_mult: 1
  }
  param {
    lr_mult: 2
    decay_mult: 0
  }
  convolution_param {
    num_output: 24
    kernel_size: 1
    weight_filler {
      type: "xavier"
      std: 0.2
    }
    bias_filler {
      type: "constant"
      value: 0.2
    }
  }
}
layer {
  name: "inception_4c/relu_5x5_reduce"
  type: "ReLU"
  bottom: "inception_4c/5x5_reduce"
  top: "inception_4c/5x5_reduce"
}
layer {
  name: "inception_4c/5x5"
  type: "Convolution"
  bottom: "inception_4c/5x5_reduce"
  top: "inception_4c/5x5"
  param {
    lr_mult: 1
    decay_mult: 1
  }
  param {
    lr_mult: 2
    decay_mult: 0
  }
  convolution_param {
    num_output: 64
    pad: 2
    kernel_size: 5
    weight_filler {
      type: "xavier"
      std: 0.03
    }
    bias_filler {
      type: "constant"
      value: 0.2
    }
  }
}
layer {
  name: "inception_4c/relu_5x5"
  type: "ReLU"
  bottom: "inception_4c/5x5"
  top: "inception_4c/5x5"
}
layer {
  name: "inception_4c/pool"
  type: "Pooling"
  bottom: "inception_4b/output"
  top: "inception_4c/pool"
  pooling_param {
    pool: MAX
    kernel_size: 3
    stride: 1
    pad: 1
  }
}
layer {
  name: "inception_4c/pool_proj"
  type: "Convolution"
  bottom: "inception_4c/pool"
  top: "inception_4c/pool_proj"
  param {
    lr_mult: 1
    decay_mult: 1
  }
  param {
    lr_mult: 2
    decay_mult: 0
  }
  convolution_param {
    num_output: 64
    kernel_size: 1
    weight_filler {
      type: "xavier"
      std: 0.1
    }
    bias_filler {
      type: "constant"
      value: 0.2
    }
  }
}
layer {
  name: "inception_4c/relu_pool_proj"
  type: "ReLU"
  bottom: "inception_4c/pool_proj"
  top: "inception_4c/pool_proj"
}
layer {
  name: "inception_4c/output"
  type: "Concat"
  bottom: "inception_4c/1x1"
  bottom: "inception_4c/3x3"
  bottom: "inception_4c/5x5"
  bottom: "inception_4c/pool_proj"
  top: "inception_4c/output"
}
layer {
  name: "inception_4d/1x1"
  type: "Convolution"
  bottom: "inception_4c/output"
  top: "inception_4d/1x1"
  param {
    lr_mult: 1
    decay_mult: 1
  }
  param {
    lr_mult: 2
    decay_mult: 0
  }
  convolution_param {
    num_output: 112
    kernel_size: 1
    weight_filler {
      type: "xavier"
      std: 0.03
    }
    bias_filler {
      type: "constant"
      value: 0.2
    }
  }
}
layer {
  name: "inception_4d/relu_1x1"
  type: "ReLU"
  bottom: "inception_4d/1x1"
  top: "inception_4d/1x1"
}
layer {
  name: "inception_4d/3x3_reduce"
  type: "Convolution"
  bottom: "inception_4c/output"
  top: "inception_4d/3x3_reduce"
  param {
    lr_mult: 1
    decay_mult: 1
  }
  param {
    lr_mult: 2
    decay_mult: 0
  }
  convolution_param {
    num_output: 144
    kernel_size: 1
    weight_filler {
      type: "xavier"
      std: 0.09
    }
    bias_filler {
      type: "constant"
      value: 0.2
    }
  }
}
layer {
  name: "inception_4d/relu_3x3_reduce"
  type: "ReLU"
  bottom: "inception_4d/3x3_reduce"
  top: "inception_4d/3x3_reduce"
}
layer {
  name: "inception_4d/3x3"
  type: "Convolution"
  bottom: "inception_4d/3x3_reduce"
  top: "inception_4d/3x3"
  param {
    lr_mult: 1
    decay_mult: 1
  }
  param {
    lr_mult: 2
    decay_mult: 0
  }
  convolution_param {
    num_output: 288
    pad: 1
    kernel_size: 3
    weight_filler {
      type: "xavier"
      std: 0.03
    }
    bias_filler {
      type: "constant"
      value: 0.2
    }
  }
}
layer {
  name: "inception_4d/relu_3x3"
  type: "ReLU"
  bottom: "inception_4d/3x3"
  top: "inception_4d/3x3"
}
layer {
  name: "inception_4d/5x5_reduce"
  type: "Convolution"
  bottom: "inception_4c/output"
  top: "inception_4d/5x5_reduce"
  param {
    lr_mult: 1
    decay_mult: 1
  }
  param {
    lr_mult: 2
    decay_mult: 0
  }
  convolution_param {
    num_output: 32
    kernel_size: 1
    weight_filler {
      type: "xavier"
      std: 0.2
    }
    bias_filler {
      type: "constant"
      value: 0.2
    }
  }
}
layer {
  name: "inception_4d/relu_5x5_reduce"
  type: "ReLU"
  bottom: "inception_4d/5x5_reduce"
  top: "inception_4d/5x5_reduce"
}
layer {
  name: "inception_4d/5x5"
  type: "Convolution"
  bottom: "inception_4d/5x5_reduce"
  top: "inception_4d/5x5"
  param {
    lr_mult: 1
    decay_mult: 1
  }
  param {
    lr_mult: 2
    decay_mult: 0
  }
  convolution_param {
    num_output: 64
    pad: 2
    kernel_size: 5
    weight_filler {
      type: "xavier"
      std: 0.03
    }
    bias_filler {
      type: "constant"
      value: 0.2
    }
  }
}
layer {
  name: "inception_4d/relu_5x5"
  type: "ReLU"
  bottom: "inception_4d/5x5"
  top: "inception_4d/5x5"
}
layer {
  name: "inception_4d/pool"
  type: "Pooling"
  bottom: "inception_4c/output"
  top: "inception_4d/pool"
  pooling_param {
    pool: MAX
    kernel_size: 3
    stride: 1
    pad: 1
  }
}
layer {
  name: "inception_4d/pool_proj"
  type: "Convolution"
  bottom: "inception_4d/pool"
  top: "inception_4d/pool_proj"
  param {
    lr_mult: 1
    decay_mult: 1
  }
  param {
    lr_mult: 2
    decay_mult: 0
  }
  convolution_param {
    num_output: 64
    kernel_size: 1
    weight_filler {
      type: "xavier"
      std: 0.1
    }
    bias_filler {
      type: "constant"
      value: 0.2
    }
  }
}
layer {
  name: "inception_4d/relu_pool_proj"
  type: "ReLU"
  bottom: "inception_4d/pool_proj"
  top: "inception_4d/pool_proj"
}
layer {
  name: "inception_4d/output"
  type: "Concat"
  bottom: "inception_4d/1x1"
  bottom: "inception_4d/3x3"
  bottom: "inception_4d/5x5"
  bottom: "inception_4d/pool_proj"
  top: "inception_4d/output"
}
layer {
  name: "loss2/ave_pool"
  type: "Pooling"
  bottom: "inception_4d/output"
  top: "loss2/ave_pool"
  pooling_param {
    pool: AVE
    kernel_size: 5
    stride: 3
  }
}
layer {
  name: "loss2/conv"
  type: "Convolution"
  bottom: "loss2/ave_pool"
  top: "loss2/conv"
  param {
    lr_mult: 1
    decay_mult: 1
  }
  param {
    lr_mult: 2
    decay_mult: 0
  }
  convolution_param {
    num_output: 128
    kernel_size: 1
    weight_filler {
      type: "xavier"
      std: 0.08
    }
    bias_filler {
      type: "constant"
      value: 0.2
    }
  }
}
layer {
  name: "loss2/relu_conv"
  type: "ReLU"
  bottom: "loss2/conv"
  top: "loss2/conv"
}
layer {
  name: "loss2/fc"
  type: "InnerProduct"
  bottom: "loss2/conv"
  top: "loss2/fc"
  param {
    lr_mult: 1
    decay_mult: 1
  }
  param {
    lr_mult: 2
    decay_mult: 0
  }
  inner_product_param {
    num_output: 1024
    weight_filler {
      type: "xavier"
      std: 0.02
    }
    bias_filler {
      type: "constant"
      value: 0.2
    }
  }
}
layer {
  name: "loss2/relu_fc"
  type: "ReLU"
  bottom: "loss2/fc"
  top: "loss2/fc"
}
layer {
  name: "loss2/drop_fc"
  type: "Dropout"
  bottom: "loss2/fc"
  top: "loss2/fc"
  dropout_param {
    dropout_ratio: 0.7
  }
}
layer {
  name: "loss2/classifier_plantvillage"
  type: "InnerProduct"
  bottom: "loss2/fc"
  top: "loss2/classifier_plantvillage"
  param {
    lr_mult: 1
    decay_mult: 1
  }
  param {
    lr_mult: 2
    decay_mult: 0
  }
  inner_product_param {
    num_output: 38
    weight_filler {
      type: "xavier"
      std: 0.0009765625
    }
    bias_filler {
      type: "constant"
      value: 0
    }
  }
}
layer {
  name: "inception_4e/1x1"
  type: "Convolution"
  bottom: "inception_4d/output"
  top: "inception_4e/1x1"
  param {
    lr_mult: 1
    decay_mult: 1
  }
  param {
    lr_mult: 2
    decay_mult: 0
  }
  convolution_param {
    num_output: 256
    kernel_size: 1
    weight_filler {
      type: "xavier"
      std: 0.03
    }
    bias_filler {
      type: "constant"
      value: 0.2
    }
  }
}
layer {
  name: "inception_4e/relu_1x1"
  type: "ReLU"
  bottom: "inception_4e/1x1"
  top: "inception_4e/1x1"
}
layer {
  name: "inception_4e/3x3_reduce"
  type: "Convolution"
  bottom: "inception_4d/output"
  top: "inception_4e/3x3_reduce"
  param {
    lr_mult: 1
    decay_mult: 1
  }
  param {
    lr_mult: 2
    decay_mult: 0
  }
  convolution_param {
    num_output: 160
    kernel_size: 1
    weight_filler {
      type: "xavier"
      std: 0.09
    }
    bias_filler {
      type: "constant"
      value: 0.2
    }
  }
}
layer {
  name: "inception_4e/relu_3x3_reduce"
  type: "ReLU"
  bottom: "inception_4e/3x3_reduce"
  top: "inception_4e/3x3_reduce"
}
layer {
  name: "inception_4e/3x3"
  type: "Convolution"
  bottom: "inception_4e/3x3_reduce"
  top: "inception_4e/3x3"
  param {
    lr_mult: 1
    decay_mult: 1
  }
  param {
    lr_mult: 2
    decay_mult: 0
  }
  convolution_param {
    num_output: 320
    pad: 1
    kernel_size: 3
    weight_filler {
      type: "xavier"
      std: 0.03
    }
    bias_filler {
      type: "constant"
      value: 0.2
    }
  }
}
layer {
  name: "inception_4e/relu_3x3"
  type: "ReLU"
  bottom: "inception_4e/3x3"
  top: "inception_4e/3x3"
}
layer {
  name: "inception_4e/5x5_reduce"
  type: "Convolution"
  bottom: "inception_4d/output"
  top: "inception_4e/5x5_reduce"
  param {
    lr_mult: 1
    decay_mult: 1
  }
  param {
    lr_mult: 2
    decay_mult: 0
  }
  convolution_param {
    num_output: 32
    kernel_size: 1
    weight_filler {
      type: "xavier"
      std: 0.2
    }
    bias_filler {
      type: "constant"
      value: 0.2
    }
  }
}
layer {
  name: "inception_4e/relu_5x5_reduce"
  type: "ReLU"
  bottom: "inception_4e/5x5_reduce"
  top: "inception_4e/5x5_reduce"
}
layer {
  name: "inception_4e/5x5"
  type: "Convolution"
  bottom: "inception_4e/5x5_reduce"
  top: "inception_4e/
I0403 18:16:19.717413  6758 layer_factory.hpp:77] Creating layer data
I0403 18:16:19.718039  6758 net.cpp:91] Creating Layer data
I0403 18:16:19.718070  6758 net.cpp:399] data -> data
I0403 18:16:19.718123  6758 net.cpp:399] data -> label
I0403 18:16:19.718161  6758 data_transformer.cpp:25] Loading mean file from: /home/mohanty/data/final_dataset/lmdb/segmented-50-50/mean.binaryproto
I0403 18:16:19.719230  6761 db_lmdb.cpp:38] Opened lmdb /home/mohanty/data/final_dataset/lmdb/segmented-50-50/test_db
I0403 18:16:19.731703  6758 data_layer.cpp:41] output data size: 24,3,224,224
I0403 18:16:19.761621  6758 net.cpp:141] Setting up data
I0403 18:16:19.761744  6758 net.cpp:148] Top shape: 24 3 224 224 (3612672)
I0403 18:16:19.761770  6758 net.cpp:148] Top shape: 24 (24)
I0403 18:16:19.761787  6758 net.cpp:156] Memory required for data: 14450784
I0403 18:16:19.761821  6758 layer_factory.hpp:77] Creating layer label_data_1_split
I0403 18:16:19.761848  6758 net.cpp:91] Creating Layer label_data_1_split
I0403 18:16:19.761868  6758 net.cpp:425] label_data_1_split <- label
I0403 18:16:19.761900  6758 net.cpp:399] label_data_1_split -> label_data_1_split_0
I0403 18:16:19.761930  6758 net.cpp:399] label_data_1_split -> label_data_1_split_1
I0403 18:16:19.761955  6758 net.cpp:399] label_data_1_split -> label_data_1_split_2
I0403 18:16:19.761979  6758 net.cpp:399] label_data_1_split -> label_data_1_split_3
I0403 18:16:19.762001  6758 net.cpp:399] label_data_1_split -> label_data_1_split_4
I0403 18:16:19.762022  6758 net.cpp:399] label_data_1_split -> label_data_1_split_5
I0403 18:16:19.762043  6758 net.cpp:399] label_data_1_split -> label_data_1_split_6
I0403 18:16:19.762065  6758 net.cpp:399] label_data_1_split -> label_data_1_split_7
I0403 18:16:19.762086  6758 net.cpp:399] label_data_1_split -> label_data_1_split_8
I0403 18:16:19.762109  6758 net.cpp:399] label_data_1_split -> label_data_1_split_9
I0403 18:16:19.762248  6758 net.cpp:141] Setting up label_data_1_split
I0403 18:16:19.762275  6758 net.cpp:148] Top shape: 24 (24)
I0403 18:16:19.762295  6758 net.cpp:148] Top shape: 24 (24)
I0403 18:16:19.762311  6758 net.cpp:148] Top shape: 24 (24)
I0403 18:16:19.762328  6758 net.cpp:148] Top shape: 24 (24)
I0403 18:16:19.762346  6758 net.cpp:148] Top shape: 24 (24)
I0403 18:16:19.762363  6758 net.cpp:148] Top shape: 24 (24)
I0403 18:16:19.762380  6758 net.cpp:148] Top shape: 24 (24)
I0403 18:16:19.762398  6758 net.cpp:148] Top shape: 24 (24)
I0403 18:16:19.762413  6758 net.cpp:148] Top shape: 24 (24)
I0403 18:16:19.762434  6758 net.cpp:148] Top shape: 24 (24)
I0403 18:16:19.762482  6758 net.cpp:156] Memory required for data: 14451744
I0403 18:16:19.762501  6758 layer_factory.hpp:77] Creating layer conv1/7x7_s2
I0403 18:16:19.762537  6758 net.cpp:91] Creating Layer conv1/7x7_s2
I0403 18:16:19.762557  6758 net.cpp:425] conv1/7x7_s2 <- data
I0403 18:16:19.762578  6758 net.cpp:399] conv1/7x7_s2 -> conv1/7x7_s2
I0403 18:16:19.910312  6758 net.cpp:141] Setting up conv1/7x7_s2
I0403 18:16:19.910424  6758 net.cpp:148] Top shape: 24 64 112 112 (19267584)
I0403 18:16:19.910442  6758 net.cpp:156] Memory required for data: 91522080
I0403 18:16:19.910475  6758 layer_factory.hpp:77] Creating layer conv1/relu_7x7
I0403 18:16:19.910503  6758 net.cpp:91] Creating Layer conv1/relu_7x7
I0403 18:16:19.910522  6758 net.cpp:425] conv1/relu_7x7 <- conv1/7x7_s2
I0403 18:16:19.910548  6758 net.cpp:386] conv1/relu_7x7 -> conv1/7x7_s2 (in-place)
I0403 18:16:19.910818  6758 net.cpp:141] Setting up conv1/relu_7x7
I0403 18:16:19.910846  6758 net.cpp:148] Top shape: 24 64 112 112 (19267584)
I0403 18:16:19.910864  6758 net.cpp:156] Memory required for data: 168592416
I0403 18:16:19.910887  6758 layer_factory.hpp:77] Creating layer pool1/3x3_s2
I0403 18:16:19.910922  6758 net.cpp:91] Creating Layer pool1/3x3_s2
I0403 18:16:19.910943  6758 net.cpp:425] pool1/3x3_s2 <- conv1/7x7_s2
I0403 18:16:19.910964  6758 net.cpp:399] pool1/3x3_s2 -> pool1/3x3_s2
I0403 18:16:19.911048  6758 net.cpp:141] Setting up pool1/3x3_s2
I0403 18:16:19.911073  6758 net.cpp:148] Top shape: 24 64 56 56 (4816896)
I0403 18:16:19.911090  6758 net.cpp:156] Memory required for data: 187860000
I0403 18:16:19.911106  6758 layer_factory.hpp:77] Creating layer pool1/norm1
I0403 18:16:19.911131  6758 net.cpp:91] Creating Layer pool1/norm1
I0403 18:16:19.911150  6758 net.cpp:425] pool1/norm1 <- pool1/3x3_s2
I0403 18:16:19.911170  6758 net.cpp:399] pool1/norm1 -> pool1/norm1
I0403 18:16:19.911481  6758 net.cpp:141] Setting up pool1/norm1
I0403 18:16:19.911509  6758 net.cpp:148] Top shape: 24 64 56 56 (4816896)
I0403 18:16:19.911526  6758 net.cpp:156] Memory required for data: 207127584
I0403 18:16:19.911543  6758 layer_factory.hpp:77] Creating layer conv2/3x3_reduce
I0403 18:16:19.911571  6758 net.cpp:91] Creating Layer conv2/3x3_reduce
I0403 18:16:19.911589  6758 net.cpp:425] conv2/3x3_reduce <- pool1/norm1
I0403 18:16:19.911609  6758 net.cpp:399] conv2/3x3_reduce -> conv2/3x3_reduce
I0403 18:16:19.913036  6758 net.cpp:141] Setting up conv2/3x3_reduce
I0403 18:16:19.913069  6758 net.cpp:148] Top shape: 24 64 56 56 (4816896)
I0403 18:16:19.913085  6758 net.cpp:156] Memory required for data: 226395168
I0403 18:16:19.913107  6758 layer_factory.hpp:77] Creating layer conv2/relu_3x3_reduce
I0403 18:16:19.913127  6758 net.cpp:91] Creating Layer conv2/relu_3x3_reduce
I0403 18:16:19.913146  6758 net.cpp:425] conv2/relu_3x3_reduce <- conv2/3x3_reduce
I0403 18:16:19.913163  6758 net.cpp:386] conv2/relu_3x3_reduce -> conv2/3x3_reduce (in-place)
I0403 18:16:19.913432  6758 net.cpp:141] Setting up conv2/relu_3x3_reduce
I0403 18:16:19.913461  6758 net.cpp:148] Top shape: 24 64 56 56 (4816896)
I0403 18:16:19.913478  6758 net.cpp:156] Memory required for data: 245662752
I0403 18:16:19.913496  6758 layer_factory.hpp:77] Creating layer conv2/3x3
I0403 18:16:19.913518  6758 net.cpp:91] Creating Layer conv2/3x3
I0403 18:16:19.913537  6758 net.cpp:425] conv2/3x3 <- conv2/3x3_reduce
I0403 18:16:19.913558  6758 net.cpp:399] conv2/3x3 -> conv2/3x3
I0403 18:16:19.915966  6758 net.cpp:141] Setting up conv2/3x3
I0403 18:16:19.916002  6758 net.cpp:148] Top shape: 24 192 56 56 (14450688)
I0403 18:16:19.916021  6758 net.cpp:156] Memory required for data: 303465504
I0403 18:16:19.916046  6758 layer_factory.hpp:77] Creating layer conv2/relu_3x3
I0403 18:16:19.916067  6758 net.cpp:91] Creating Layer conv2/relu_3x3
I0403 18:16:19.916085  6758 net.cpp:425] conv2/relu_3x3 <- conv2/3x3
I0403 18:16:19.916105  6758 net.cpp:386] conv2/relu_3x3 -> conv2/3x3 (in-place)
I0403 18:16:19.916302  6758 net.cpp:141] Setting up conv2/relu_3x3
I0403 18:16:19.916332  6758 net.cpp:148] Top shape: 24 192 56 56 (14450688)
I0403 18:16:19.916383  6758 net.cpp:156] Memory required for data: 361268256
I0403 18:16:19.916399  6758 layer_factory.hpp:77] Creating layer conv2/norm2
I0403 18:16:19.916421  6758 net.cpp:91] Creating Layer conv2/norm2
I0403 18:16:19.916440  6758 net.cpp:425] conv2/norm2 <- conv2/3x3
I0403 18:16:19.916458  6758 net.cpp:399] conv2/norm2 -> conv2/norm2
I0403 18:16:19.916774  6758 net.cpp:141] Setting up conv2/norm2
I0403 18:16:19.916803  6758 net.cpp:148] Top shape: 24 192 56 56 (14450688)
I0403 18:16:19.916821  6758 net.cpp:156] Memory required for data: 419071008
I0403 18:16:19.916837  6758 layer_factory.hpp:77] Creating layer pool2/3x3_s2
I0403 18:16:19.916859  6758 net.cpp:91] Creating Layer pool2/3x3_s2
I0403 18:16:19.916877  6758 net.cpp:425] pool2/3x3_s2 <- conv2/norm2
I0403 18:16:19.916896  6758 net.cpp:399] pool2/3x3_s2 -> pool2/3x3_s2
I0403 18:16:19.916954  6758 net.cpp:141] Setting up pool2/3x3_s2
I0403 18:16:19.916980  6758 net.cpp:148] Top shape: 24 192 28 28 (3612672)
I0403 18:16:19.916996  6758 net.cpp:156] Memory required for data: 433521696
I0403 18:16:19.917011  6758 layer_factory.hpp:77] Creating layer pool2/3x3_s2_pool2/3x3_s2_0_split
I0403 18:16:19.917032  6758 net.cpp:91] Creating Layer pool2/3x3_s2_pool2/3x3_s2_0_split
I0403 18:16:19.917048  6758 net.cpp:425] pool2/3x3_s2_pool2/3x3_s2_0_split <- pool2/3x3_s2
I0403 18:16:19.917070  6758 net.cpp:399] pool2/3x3_s2_pool2/3x3_s2_0_split -> pool2/3x3_s2_pool2/3x3_s2_0_split_0
I0403 18:16:19.917093  6758 net.cpp:399] pool2/3x3_s2_pool2/3x3_s2_0_split -> pool2/3x3_s2_pool2/3x3_s2_0_split_1
I0403 18:16:19.917114  6758 net.cpp:399] pool2/3x3_s2_pool2/3x3_s2_0_split -> pool2/3x3_s2_pool2/3x3_s2_0_split_2
I0403 18:16:19.917135  6758 net.cpp:399] pool2/3x3_s2_pool2/3x3_s2_0_split -> pool2/3x3_s2_pool2/3x3_s2_0_split_3
I0403 18:16:19.917215  6758 net.cpp:141] Setting up pool2/3x3_s2_pool2/3x3_s2_0_split
I0403 18:16:19.917243  6758 net.cpp:148] Top shape: 24 192 28 28 (3612672)
I0403 18:16:19.917263  6758 net.cpp:148] Top shape: 24 192 28 28 (3612672)
I0403 18:16:19.917281  6758 net.cpp:148] Top shape: 24 192 28 28 (3612672)
I0403 18:16:19.917297  6758 net.cpp:148] Top shape: 24 192 28 28 (3612672)
I0403 18:16:19.917312  6758 net.cpp:156] Memory required for data: 491324448
I0403 18:16:19.917330  6758 layer_factory.hpp:77] Creating layer inception_3a/1x1
I0403 18:16:19.917352  6758 net.cpp:91] Creating Layer inception_3a/1x1
I0403 18:16:19.917371  6758 net.cpp:425] inception_3a/1x1 <- pool2/3x3_s2_pool2/3x3_s2_0_split_0
I0403 18:16:19.917392  6758 net.cpp:399] inception_3a/1x1 -> inception_3a/1x1
I0403 18:16:19.919049  6758 net.cpp:141] Setting up inception_3a/1x1
I0403 18:16:19.919080  6758 net.cpp:148] Top shape: 24 64 28 28 (1204224)
I0403 18:16:19.919097  6758 net.cpp:156] Memory required for data: 496141344
I0403 18:16:19.919117  6758 layer_factory.hpp:77] Creating layer inception_3a/relu_1x1
I0403 18:16:19.919139  6758 net.cpp:91] Creating Layer inception_3a/relu_1x1
I0403 18:16:19.919157  6758 net.cpp:425] inception_3a/relu_1x1 <- inception_3a/1x1
I0403 18:16:19.919181  6758 net.cpp:386] inception_3a/relu_1x1 -> inception_3a/1x1 (in-place)
I0403 18:16:19.919368  6758 net.cpp:141] Setting up inception_3a/relu_1x1
I0403 18:16:19.919395  6758 net.cpp:148] Top shape: 24 64 28 28 (1204224)
I0403 18:16:19.919411  6758 net.cpp:156] Memory required for data: 500958240
I0403 18:16:19.919426  6758 layer_factory.hpp:77] Creating layer inception_3a/3x3_reduce
I0403 18:16:19.919450  6758 net.cpp:91] Creating Layer inception_3a/3x3_reduce
I0403 18:16:19.919471  6758 net.cpp:425] inception_3a/3x3_reduce <- pool2/3x3_s2_pool2/3x3_s2_0_split_1
I0403 18:16:19.919495  6758 net.cpp:399] inception_3a/3x3_reduce -> inception_3a/3x3_reduce
I0403 18:16:19.921279  6758 net.cpp:141] Setting up inception_3a/3x3_reduce
I0403 18:16:19.921319  6758 net.cpp:148] Top shape: 24 96 28 28 (1806336)
I0403 18:16:19.921339  6758 net.cpp:156] Memory required for data: 508183584
I0403 18:16:19.921363  6758 layer_factory.hpp:77] Creating layer inception_3a/relu_3x3_reduce
I0403 18:16:19.921402  6758 net.cpp:91] Creating Layer inception_3a/relu_3x3_reduce
I0403 18:16:19.921422  6758 net.cpp:425] inception_3a/relu_3x3_reduce <- inception_3a/3x3_reduce
I0403 18:16:19.921445  6758 net.cpp:386] inception_3a/relu_3x3_reduce -> inception_3a/3x3_reduce (in-place)
I0403 18:16:19.921639  6758 net.cpp:141] Setting up inception_3a/relu_3x3_reduce
I0403 18:16:19.921668  6758 net.cpp:148] Top shape: 24 96 28 28 (1806336)
I0403 18:16:19.921685  6758 net.cpp:156] Memory required for data: 515408928
I0403 18:16:19.921703  6758 layer_factory.hpp:77] Creating layer inception_3a/3x3
I0403 18:16:19.921728  6758 net.cpp:91] Creating Layer inception_3a/3x3
I0403 18:16:19.921747  6758 net.cpp:425] inception_3a/3x3 <- inception_3a/3x3_reduce
I0403 18:16:19.921772  6758 net.cpp:399] inception_3a/3x3 -> inception_3a/3x3
I0403 18:16:19.923529  6758 net.cpp:141] Setting up inception_3a/3x3
I0403 18:16:19.923564  6758 net.cpp:148] Top shape: 24 128 28 28 (2408448)
I0403 18:16:19.923584  6758 net.cpp:156] Memory required for data: 525042720
I0403 18:16:19.923606  6758 layer_factory.hpp:77] Creating layer inception_3a/relu_3x3
I0403 18:16:19.923627  6758 net.cpp:91] Creating Layer inception_3a/relu_3x3
I0403 18:16:19.923646  6758 net.cpp:425] inception_3a/relu_3x3 <- inception_3a/3x3
I0403 18:16:19.923668  6758 net.cpp:386] inception_3a/relu_3x3 -> inception_3a/3x3 (in-place)
I0403 18:16:19.923955  6758 net.cpp:141] Setting up inception_3a/relu_3x3
I0403 18:16:19.923987  6758 net.cpp:148] Top shape: 24 128 28 28 (2408448)
I0403 18:16:19.924005  6758 net.cpp:156] Memory required for data: 534676512
I0403 18:16:19.924022  6758 layer_factory.hpp:77] Creating layer inception_3a/5x5_reduce
I0403 18:16:19.924047  6758 net.cpp:91] Creating Layer inception_3a/5x5_reduce
I0403 18:16:19.924067  6758 net.cpp:425] inception_3a/5x5_reduce <- pool2/3x3_s2_pool2/3x3_s2_0_split_2
I0403 18:16:19.924088  6758 net.cpp:399] inception_3a/5x5_reduce -> inception_3a/5x5_reduce
I0403 18:16:19.925112  6758 net.cpp:141] Setting up inception_3a/5x5_reduce
I0403 18:16:19.925145  6758 net.cpp:148] Top shape: 24 16 28 28 (301056)
I0403 18:16:19.925164  6758 net.cpp:156] Memory required for data: 535880736
I0403 18:16:19.925191  6758 layer_factory.hpp:77] Creating layer inception_3a/relu_5x5_reduce
I0403 18:16:19.925215  6758 net.cpp:91] Creating Layer inception_3a/relu_5x5_reduce
I0403 18:16:19.925235  6758 net.cpp:425] inception_3a/relu_5x5_reduce <- inception_3a/5x5_reduce
I0403 18:16:19.925259  6758 net.cpp:386] inception_3a/relu_5x5_reduce -> inception_3a/5x5_reduce (in-place)
I0403 18:16:19.925561  6758 net.cpp:141] Setting up inception_3a/relu_5x5_reduce
I0403 18:16:19.925590  6758 net.cpp:148] Top shape: 24 16 28 28 (301056)
I0403 18:16:19.925607  6758 net.cpp:156] Memory required for data: 537084960
I0403 18:16:19.925623  6758 layer_factory.hpp:77] Creating layer inception_3a/5x5
I0403 18:16:19.925647  6758 net.cpp:91] Creating Layer inception_3a/5x5
I0403 18:16:19.925665  6758 net.cpp:425] inception_3a/5x5 <- inception_3a/5x5_reduce
I0403 18:16:19.925688  6758 net.cpp:399] inception_3a/5x5 -> inception_3a/5x5
I0403 18:16:19.926774  6758 net.cpp:141] Setting up inception_3a/5x5
I0403 18:16:19.926805  6758 net.cpp:148] Top shape: 24 32 28 28 (602112)
I0403 18:16:19.926823  6758 net.cpp:156] Memory required for data: 539493408
I0403 18:16:19.926844  6758 layer_factory.hpp:77] Creating layer inception_3a/relu_5x5
I0403 18:16:19.926867  6758 net.cpp:91] Creating Layer inception_3a/relu_5x5
I0403 18:16:19.926887  6758 net.cpp:425] inception_3a/relu_5x5 <- inception_3a/5x5
I0403 18:16:19.926905  6758 net.cpp:386] inception_3a/relu_5x5 -> inception_3a/5x5 (in-place)
I0403 18:16:19.927091  6758 net.cpp:141] Setting up inception_3a/relu_5x5
I0403 18:16:19.927119  6758 net.cpp:148] Top shape: 24 32 28 28 (602112)
I0403 18:16:19.927136  6758 net.cpp:156] Memory required for data: 541901856
I0403 18:16:19.927153  6758 layer_factory.hpp:77] Creating layer inception_3a/pool
I0403 18:16:19.927173  6758 net.cpp:91] Creating Layer inception_3a/pool
I0403 18:16:19.927213  6758 net.cpp:425] inception_3a/pool <- pool2/3x3_s2_pool2/3x3_s2_0_split_3
I0403 18:16:19.927237  6758 net.cpp:399] inception_3a/pool -> inception_3a/pool
I0403 18:16:19.927304  6758 net.cpp:141] Setting up inception_3a/pool
I0403 18:16:19.927328  6758 net.cpp:148] Top shape: 24 192 28 28 (3612672)
I0403 18:16:19.927345  6758 net.cpp:156] Memory required for data: 556352544
I0403 18:16:19.927361  6758 layer_factory.hpp:77] Creating layer inception_3a/pool_proj
I0403 18:16:19.927387  6758 net.cpp:91] Creating Layer inception_3a/pool_proj
I0403 18:16:19.927407  6758 net.cpp:425] inception_3a/pool_proj <- inception_3a/pool
I0403 18:16:19.927426  6758 net.cpp:399] inception_3a/pool_proj -> inception_3a/pool_proj
I0403 18:16:19.928445  6758 net.cpp:141] Setting up inception_3a/pool_proj
I0403 18:16:19.928475  6758 net.cpp:148] Top shape: 24 32 28 28 (602112)
I0403 18:16:19.928493  6758 net.cpp:156] Memory required for data: 558760992
I0403 18:16:19.928519  6758 layer_factory.hpp:77] Creating layer inception_3a/relu_pool_proj
I0403 18:16:19.928541  6758 net.cpp:91] Creating Layer inception_3a/relu_pool_proj
I0403 18:16:19.928561  6758 net.cpp:425] inception_3a/relu_pool_proj <- inception_3a/pool_proj
I0403 18:16:19.928583  6758 net.cpp:386] inception_3a/relu_pool_proj -> inception_3a/pool_proj (in-place)
I0403 18:16:19.928972  6758 net.cpp:141] Setting up inception_3a/relu_pool_proj
I0403 18:16:19.929006  6758 net.cpp:148] Top shape: 24 32 28 28 (602112)
I0403 18:16:19.929028  6758 net.cpp:156] Memory required for data: 561169440
I0403 18:16:19.929045  6758 layer_factory.hpp:77] Creating layer inception_3a/output
I0403 18:16:19.929065  6758 net.cpp:91] Creating Layer inception_3a/output
I0403 18:16:19.929083  6758 net.cpp:425] inception_3a/output <- inception_3a/1x1
I0403 18:16:19.929102  6758 net.cpp:425] inception_3a/output <- inception_3a/3x3
I0403 18:16:19.929119  6758 net.cpp:425] inception_3a/output <- inception_3a/5x5
I0403 18:16:19.929136  6758 net.cpp:425] inception_3a/output <- inception_3a/pool_proj
I0403 18:16:19.929155  6758 net.cpp:399] inception_3a/output -> inception_3a/output
I0403 18:16:19.929214  6758 net.cpp:141] Setting up inception_3a/output
I0403 18:16:19.929242  6758 net.cpp:148] Top shape: 24 256 28 28 (4816896)
I0403 18:16:19.929260  6758 net.cpp:156] Memory required for data: 580437024
I0403 18:16:19.929276  6758 layer_factory.hpp:77] Creating layer inception_3a/output_inception_3a/output_0_split
I0403 18:16:19.929297  6758 net.cpp:91] Creating Layer inception_3a/output_inception_3a/output_0_split
I0403 18:16:19.929316  6758 net.cpp:425] inception_3a/output_inception_3a/output_0_split <- inception_3a/output
I0403 18:16:19.929337  6758 net.cpp:399] inception_3a/output_inception_3a/output_0_split -> inception_3a/output_inception_3a/output_0_split_0
I0403 18:16:19.929359  6758 net.cpp:399] inception_3a/output_inception_3a/output_0_split -> inception_3a/output_inception_3a/output_0_split_1
I0403 18:16:19.929388  6758 net.cpp:399] inception_3a/output_inception_3a/output_0_split -> inception_3a/output_inception_3a/output_0_split_2
I0403 18:16:19.929410  6758 net.cpp:399] inception_3a/output_inception_3a/output_0_split -> inception_3a/output_inception_3a/output_0_split_3
I0403 18:16:19.929491  6758 net.cpp:141] Setting up inception_3a/output_inception_3a/output_0_split
I0403 18:16:19.929517  6758 net.cpp:148] Top shape: 24 256 28 28 (4816896)
I0403 18:16:19.929539  6758 net.cpp:148] Top shape: 24 256 28 28 (4816896)
I0403 18:16:19.929558  6758 net.cpp:148] Top shape: 24 256 28 28 (4816896)
I0403 18:16:19.929576  6758 net.cpp:148] Top shape: 24 256 28 28 (4816896)
I0403 18:16:19.929592  6758 net.cpp:156] Memory required for data: 657507360
I0403 18:16:19.929608  6758 layer_factory.hpp:77] Creating layer inception_3b/1x1
I0403 18:16:19.929630  6758 net.cpp:91] Creating Layer inception_3b/1x1
I0403 18:16:19.929648  6758 net.cpp:425] inception_3b/1x1 <- inception_3a/output_inception_3a/output_0_split_0
I0403 18:16:19.929672  6758 net.cpp:399] inception_3b/1x1 -> inception_3b/1x1
I0403 18:16:19.930922  6758 net.cpp:141] Setting up inception_3b/1x1
I0403 18:16:19.930965  6758 net.cpp:148] Top shape: 24 128 28 28 (2408448)
I0403 18:16:19.930984  6758 net.cpp:156] Memory required for data: 667141152
I0403 18:16:19.931005  6758 layer_factory.hpp:77] Creating layer inception_3b/relu_1x1
I0403 18:16:19.931027  6758 net.cpp:91] Creating Layer inception_3b/relu_1x1
I0403 18:16:19.931047  6758 net.cpp:425] inception_3b/relu_1x1 <- inception_3b/1x1
I0403 18:16:19.931066  6758 net.cpp:386] inception_3b/relu_1x1 -> inception_3b/1x1 (in-place)
I0403 18:16:19.931259  6758 net.cpp:141] Setting up inception_3b/relu_1x1
I0403 18:16:19.931289  6758 net.cpp:148] Top shape: 24 128 28 28 (2408448)
I0403 18:16:19.931308  6758 net.cpp:156] Memory required for data: 676774944
I0403 18:16:19.931324  6758 layer_factory.hpp:77] Creating layer inception_3b/3x3_reduce
I0403 18:16:19.931346  6758 net.cpp:91] Creating Layer inception_3b/3x3_reduce
I0403 18:16:19.931365  6758 net.cpp:425] inception_3b/3x3_reduce <- inception_3a/output_inception_3a/output_0_split_1
I0403 18:16:19.931386  6758 net.cpp:399] inception_3b/3x3_reduce -> inception_3b/3x3_reduce
I0403 18:16:19.932600  6758 net.cpp:141] Setting up inception_3b/3x3_reduce
I0403 18:16:19.932631  6758 net.cpp:148] Top shape: 24 128 28 28 (2408448)
I0403 18:16:19.932649  6758 net.cpp:156] Memory required for data: 686408736
I0403 18:16:19.932668  6758 layer_factory.hpp:77] Creating layer inception_3b/relu_3x3_reduce
I0403 18:16:19.932693  6758 net.cpp:91] Creating Layer inception_3b/relu_3x3_reduce
I0403 18:16:19.932710  6758 net.cpp:425] inception_3b/relu_3x3_reduce <- inception_3b/3x3_reduce
I0403 18:16:19.932730  6758 net.cpp:386] inception_3b/relu_3x3_reduce -> inception_3b/3x3_reduce (in-place)
I0403 18:16:19.932914  6758 net.cpp:141] Setting up inception_3b/relu_3x3_reduce
I0403 18:16:19.932942  6758 net.cpp:148] Top shape: 24 128 28 28 (2408448)
I0403 18:16:19.932960  6758 net.cpp:156] Memory required for data: 696042528
I0403 18:16:19.932976  6758 layer_factory.hpp:77] Creating layer inception_3b/3x3
I0403 18:16:19.933003  6758 net.cpp:91] Creating Layer inception_3b/3x3
I0403 18:16:19.933023  6758 net.cpp:425] inception_3b/3x3 <- inception_3b/3x3_reduce
I0403 18:16:19.933046  6758 net.cpp:399] inception_3b/3x3 -> inception_3b/3x3
I0403 18:16:19.936111  6758 net.cpp:141] Setting up inception_3b/3x3
I0403 18:16:19.936146  6758 net.cpp:148] Top shape: 24 192 28 28 (3612672)
I0403 18:16:19.936166  6758 net.cpp:156] Memory required for data: 710493216
I0403 18:16:19.936194  6758 layer_factory.hpp:77] Creating layer inception_3b/relu_3x3
I0403 18:16:19.936218  6758 net.cpp:91] Creating Layer inception_3b/relu_3x3
I0403 18:16:19.936234  6758 net.cpp:425] inception_3b/relu_3x3 <- inception_3b/3x3
I0403 18:16:19.936256  6758 net.cpp:386] inception_3b/relu_3x3 -> inception_3b/3x3 (in-place)
I0403 18:16:19.936548  6758 net.cpp:141] Setting up inception_3b/relu_3x3
I0403 18:16:19.936579  6758 net.cpp:148] Top shape: 24 192 28 28 (3612672)
I0403 18:16:19.936597  6758 net.cpp:156] Memory required for data: 724943904
I0403 18:16:19.936614  6758 layer_factory.hpp:77] Creating layer inception_3b/5x5_reduce
I0403 18:16:19.936640  6758 net.cpp:91] Creating Layer inception_3b/5x5_reduce
I0403 18:16:19.936658  6758 net.cpp:425] inception_3b/5x5_reduce <- inception_3a/output_inception_3a/output_0_split_2
I0403 18:16:19.936678  6758 net.cpp:399] inception_3b/5x5_reduce -> inception_3b/5x5_reduce
I0403 18:16:19.937731  6758 net.cpp:141] Setting up inception_3b/5x5_reduce
I0403 18:16:19.937763  6758 net.cpp:148] Top shape: 24 32 28 28 (602112)
I0403 18:16:19.937783  6758 net.cpp:156] Memory required for data: 727352352
I0403 18:16:19.937805  6758 layer_factory.hpp:77] Creating layer inception_3b/relu_5x5_reduce
I0403 18:16:19.937825  6758 net.cpp:91] Creating Layer inception_3b/relu_5x5_reduce
I0403 18:16:19.937844  6758 net.cpp:425] inception_3b/relu_5x5_reduce <- inception_3b/5x5_reduce
I0403 18:16:19.937865  6758 net.cpp:386] inception_3b/relu_5x5_reduce -> inception_3b/5x5_reduce (in-place)
I0403 18:16:19.938066  6758 net.cpp:141] Setting up inception_3b/relu_5x5_reduce
I0403 18:16:19.938093  6758 net.cpp:148] Top shape: 24 32 28 28 (602112)
I0403 18:16:19.938109  6758 net.cpp:156] Memory required for data: 729760800
I0403 18:16:19.938125  6758 layer_factory.hpp:77] Creating layer inception_3b/5x5
I0403 18:16:19.938149  6758 net.cpp:91] Creating Layer inception_3b/5x5
I0403 18:16:19.938169  6758 net.cpp:425] inception_3b/5x5 <- inception_3b/5x5_reduce
I0403 18:16:19.938197  6758 net.cpp:399] inception_3b/5x5 -> inception_3b/5x5
I0403 18:16:19.940292  6758 net.cpp:141] Setting up inception_3b/5x5
I0403 18:16:19.940325  6758 net.cpp:148] Top shape: 24 96 28 28 (1806336)
I0403 18:16:19.940343  6758 net.cpp:156] Memory required for data: 736986144
I0403 18:16:19.940363  6758 layer_factory.hpp:77] Creating layer inception_3b/relu_5x5
I0403 18:16:19.940387  6758 net.cpp:91] Creating Layer inception_3b/relu_5x5
I0403 18:16:19.940405  6758 net.cpp:425] inception_3b/relu_5x5 <- inception_3b/5x5
I0403 18:16:19.940425  6758 net.cpp:386] inception_3b/relu_5x5 -> inception_3b/5x5 (in-place)
I0403 18:16:19.940629  6758 net.cpp:141] Setting up inception_3b/relu_5x5
I0403 18:16:19.940656  6758 net.cpp:148] Top shape: 24 96 28 28 (1806336)
I0403 18:16:19.940673  6758 net.cpp:156] Memory required for data: 744211488
I0403 18:16:19.940690  6758 layer_factory.hpp:77] Creating layer inception_3b/pool
I0403 18:16:19.940711  6758 net.cpp:91] Creating Layer inception_3b/pool
I0403 18:16:19.940729  6758 net.cpp:425] inception_3b/pool <- inception_3a/output_inception_3a/output_0_split_3
I0403 18:16:19.940749  6758 net.cpp:399] inception_3b/pool -> inception_3b/pool
I0403 18:16:19.940809  6758 net.cpp:141] Setting up inception_3b/pool
I0403 18:16:19.940834  6758 net.cpp:148] Top shape: 24 256 28 28 (4816896)
I0403 18:16:19.940850  6758 net.cpp:156] Memory required for data: 763479072
I0403 18:16:19.940865  6758 layer_factory.hpp:77] Creating layer inception_3b/pool_proj
I0403 18:16:19.940891  6758 net.cpp:91] Creating Layer inception_3b/pool_proj
I0403 18:16:19.940909  6758 net.cpp:425] inception_3b/pool_proj <- inception_3b/pool
I0403 18:16:19.940932  6758 net.cpp:399] inception_3b/pool_proj -> inception_3b/pool_proj
I0403 18:16:19.942041  6758 net.cpp:141] Setting up inception_3b/pool_proj
I0403 18:16:19.942072  6758 net.cpp:148] Top shape: 24 64 28 28 (1204224)
I0403 18:16:19.942090  6758 net.cpp:156] Memory required for data: 768295968
I0403 18:16:19.942111  6758 layer_factory.hpp:77] Creating layer inception_3b/relu_pool_proj
I0403 18:16:19.942131  6758 net.cpp:91] Creating Layer inception_3b/relu_pool_proj
I0403 18:16:19.942147  6758 net.cpp:425] inception_3b/relu_pool_proj <- inception_3b/pool_proj
I0403 18:16:19.942168  6758 net.cpp:386] inception_3b/relu_pool_proj -> inception_3b/pool_proj (in-place)
I0403 18:16:19.942579  6758 net.cpp:141] Setting up inception_3b/relu_pool_proj
I0403 18:16:19.942611  6758 net.cpp:148] Top shape: 24 64 28 28 (1204224)
I0403 18:16:19.942630  6758 net.cpp:156] Memory required for data: 773112864
I0403 18:16:19.942646  6758 layer_factory.hpp:77] Creating layer inception_3b/output
I0403 18:16:19.942665  6758 net.cpp:91] Creating Layer inception_3b/output
I0403 18:16:19.942682  6758 net.cpp:425] inception_3b/output <- inception_3b/1x1
I0403 18:16:19.942700  6758 net.cpp:425] inception_3b/output <- inception_3b/3x3
I0403 18:16:19.942718  6758 net.cpp:425] inception_3b/output <- inception_3b/5x5
I0403 18:16:19.942734  6758 net.cpp:425] inception_3b/output <- inception_3b/pool_proj
I0403 18:16:19.942754  6758 net.cpp:399] inception_3b/output -> inception_3b/output
I0403 18:16:19.942800  6758 net.cpp:141] Setting up inception_3b/output
I0403 18:16:19.942824  6758 net.cpp:148] Top shape: 24 480 28 28 (9031680)
I0403 18:16:19.942839  6758 net.cpp:156] Memory required for data: 809239584
I0403 18:16:19.942855  6758 layer_factory.hpp:77] Creating layer pool3/3x3_s2
I0403 18:16:19.942880  6758 net.cpp:91] Creating Layer pool3/3x3_s2
I0403 18:16:19.942898  6758 net.cpp:425] pool3/3x3_s2 <- inception_3b/output
I0403 18:16:19.942934  6758 net.cpp:399] pool3/3x3_s2 -> pool3/3x3_s2
I0403 18:16:19.943001  6758 net.cpp:141] Setting up pool3/3x3_s2
I0403 18:16:19.943025  6758 net.cpp:148] Top shape: 24 480 14 14 (2257920)
I0403 18:16:19.943040  6758 net.cpp:156] Memory required for data: 818271264
I0403 18:16:19.943056  6758 layer_factory.hpp:77] Creating layer pool3/3x3_s2_pool3/3x3_s2_0_split
I0403 18:16:19.943078  6758 net.cpp:91] Creating Layer pool3/3x3_s2_pool3/3x3_s2_0_split
I0403 18:16:19.943094  6758 net.cpp:425] pool3/3x3_s2_pool3/3x3_s2_0_split <- pool3/3x3_s2
I0403 18:16:19.943112  6758 net.cpp:399] pool3/3x3_s2_pool3/3x3_s2_0_split -> pool3/3x3_s2_pool3/3x3_s2_0_split_0
I0403 18:16:19.943133  6758 net.cpp:399] pool3/3x3_s2_pool3/3x3_s2_0_split -> pool3/3x3_s2_pool3/3x3_s2_0_split_1
I0403 18:16:19.943153  6758 net.cpp:399] pool3/3x3_s2_pool3/3x3_s2_0_split -> pool3/3x3_s2_pool3/3x3_s2_0_split_2
I0403 18:16:19.943173  6758 net.cpp:399] pool3/3x3_s2_pool3/3x3_s2_0_split -> pool3/3x3_s2_pool3/3x3_s2_0_split_3
I0403 18:16:19.943264  6758 net.cpp:141] Setting up pool3/3x3_s2_pool3/3x3_s2_0_split
I0403 18:16:19.943287  6758 net.cpp:148] Top shape: 24 480 14 14 (2257920)
I0403 18:16:19.943305  6758 net.cpp:148] Top shape: 24 480 14 14 (2257920)
I0403 18:16:19.943322  6758 net.cpp:148] Top shape: 24 480 14 14 (2257920)
I0403 18:16:19.943338  6758 net.cpp:148] Top shape: 24 480 14 14 (2257920)
I0403 18:16:19.943353  6758 net.cpp:156] Memory required for data: 854397984
I0403 18:16:19.943369  6758 layer_factory.hpp:77] Creating layer inception_4a/1x1
I0403 18:16:19.943392  6758 net.cpp:91] Creating Layer inception_4a/1x1
I0403 18:16:19.943410  6758 net.cpp:425] inception_4a/1x1 <- pool3/3x3_s2_pool3/3x3_s2_0_split_0
I0403 18:16:19.943434  6758 net.cpp:399] inception_4a/1x1 -> inception_4a/1x1
I0403 18:16:19.945083  6758 net.cpp:141] Setting up inception_4a/1x1
I0403 18:16:19.945114  6758 net.cpp:148] Top shape: 24 192 14 14 (903168)
I0403 18:16:19.945132  6758 net.cpp:156] Memory required for data: 858010656
I0403 18:16:19.945152  6758 layer_factory.hpp:77] Creating layer inception_4a/relu_1x1
I0403 18:16:19.945174  6758 net.cpp:91] Creating Layer inception_4a/relu_1x1
I0403 18:16:19.945199  6758 net.cpp:425] inception_4a/relu_1x1 <- inception_4a/1x1
I0403 18:16:19.945219  6758 net.cpp:386] inception_4a/relu_1x1 -> inception_4a/1x1 (in-place)
I0403 18:16:19.945405  6758 net.cpp:141] Setting up inception_4a/relu_1x1
I0403 18:16:19.945431  6758 net.cpp:148] Top shape: 24 192 14 14 (903168)
I0403 18:16:19.945451  6758 net.cpp:156] Memory required for data: 861623328
I0403 18:16:19.945467  6758 layer_factory.hpp:77] Creating layer inception_4a/3x3_reduce
I0403 18:16:19.945487  6758 net.cpp:91] Creating Layer inception_4a/3x3_reduce
I0403 18:16:19.945504  6758 net.cpp:425] inception_4a/3x3_reduce <- pool3/3x3_s2_pool3/3x3_s2_0_split_1
I0403 18:16:19.945528  6758 net.cpp:399] inception_4a/3x3_reduce -> inception_4a/3x3_reduce
I0403 18:16:19.946874  6758 net.cpp:141] Setting up inception_4a/3x3_reduce
I0403 18:16:19.946905  6758 net.cpp:148] Top shape: 24 96 14 14 (451584)
I0403 18:16:19.946923  6758 net.cpp:156] Memory required for data: 863429664
I0403 18:16:19.946951  6758 layer_factory.hpp:77] Creating layer inception_4a/relu_3x3_reduce
I0403 18:16:19.946974  6758 net.cpp:91] Creating Layer inception_4a/relu_3x3_reduce
I0403 18:16:19.946993  6758 net.cpp:425] inception_4a/relu_3x3_reduce <- inception_4a/3x3_reduce
I0403 18:16:19.947016  6758 net.cpp:386] inception_4a/relu_3x3_reduce -> inception_4a/3x3_reduce (in-place)
I0403 18:16:19.947214  6758 net.cpp:141] Setting up inception_4a/relu_3x3_reduce
I0403 18:16:19.947243  6758 net.cpp:148] Top shape: 24 96 14 14 (451584)
I0403 18:16:19.947260  6758 net.cpp:156] Memory required for data: 865236000
I0403 18:16:19.947276  6758 layer_factory.hpp:77] Creating layer inception_4a/3x3
I0403 18:16:19.947301  6758 net.cpp:91] Creating Layer inception_4a/3x3
I0403 18:16:19.947319  6758 net.cpp:425] inception_4a/3x3 <- inception_4a/3x3_reduce
I0403 18:16:19.947343  6758 net.cpp:399] inception_4a/3x3 -> inception_4a/3x3
I0403 18:16:19.950130  6758 net.cpp:141] Setting up inception_4a/3x3
I0403 18:16:19.950160  6758 net.cpp:148] Top shape: 24 208 14 14 (978432)
I0403 18:16:19.950184  6758 net.cpp:156] Memory required for data: 869149728
I0403 18:16:19.950206  6758 layer_factory.hpp:77] Creating layer inception_4a/relu_3x3
I0403 18:16:19.950228  6758 net.cpp:91] Creating Layer inception_4a/relu_3x3
I0403 18:16:19.950248  6758 net.cpp:425] inception_4a/relu_3x3 <- inception_4a/3x3
I0403 18:16:19.950266  6758 net.cpp:386] inception_4a/relu_3x3 -> inception_4a/3x3 (in-place)
I0403 18:16:19.950548  6758 net.cpp:141] Setting up inception_4a/relu_3x3
I0403 18:16:19.950577  6758 net.cpp:148] Top shape: 24 208 14 14 (978432)
I0403 18:16:19.950592  6758 net.cpp:156] Memory required for data: 873063456
I0403 18:16:19.950608  6758 layer_factory.hpp:77] Creating layer inception_4a/5x5_reduce
I0403 18:16:19.950631  6758 net.cpp:91] Creating Layer inception_4a/5x5_reduce
I0403 18:16:19.950654  6758 net.cpp:425] inception_4a/5x5_reduce <- pool3/3x3_s2_pool3/3x3_s2_0_split_2
I0403 18:16:19.950673  6758 net.cpp:399] inception_4a/5x5_reduce -> inception_4a/5x5_reduce
I0403 18:16:19.951727  6758 net.cpp:141] Setting up inception_4a/5x5_reduce
I0403 18:16:19.951757  6758 net.cpp:148] Top shape: 24 16 14 14 (75264)
I0403 18:16:19.951774  6758 net.cpp:156] Memory required for data: 873364512
I0403 18:16:19.951795  6758 layer_factory.hpp:77] Creating layer inception_4a/relu_5x5_reduce
I0403 18:16:19.951818  6758 net.cpp:91] Creating Layer inception_4a/relu_5x5_reduce
I0403 18:16:19.951838  6758 net.cpp:425] inception_4a/relu_5x5_reduce <- inception_4a/5x5_reduce
I0403 18:16:19.951858  6758 net.cpp:386] inception_4a/relu_5x5_reduce -> inception_4a/5x5_reduce (in-place)
I0403 18:16:19.952044  6758 net.cpp:141] Setting up inception_4a/relu_5x5_reduce
I0403 18:16:19.952069  6758 net.cpp:148] Top shape: 24 16 14 14 (75264)
I0403 18:16:19.952085  6758 net.cpp:156] Memory required for data: 873665568
I0403 18:16:19.952100  6758 layer_factory.hpp:77] Creating layer inception_4a/5x5
I0403 18:16:19.952122  6758 net.cpp:91] Creating Layer inception_4a/5x5
I0403 18:16:19.952141  6758 net.cpp:425] inception_4a/5x5 <- inception_4a/5x5_reduce
I0403 18:16:19.952163  6758 net.cpp:399] inception_4a/5x5 -> inception_4a/5x5
I0403 18:16:19.953321  6758 net.cpp:141] Setting up inception_4a/5x5
I0403 18:16:19.953351  6758 net.cpp:148] Top shape: 24 48 14 14 (225792)
I0403 18:16:19.953371  6758 net.cpp:156] Memory required for data: 874568736
I0403 18:16:19.953390  6758 layer_factory.hpp:77] Creating layer inception_4a/relu_5x5
I0403 18:16:19.953408  6758 net.cpp:91] Creating Layer inception_4a/relu_5x5
I0403 18:16:19.953425  6758 net.cpp:425] inception_4a/relu_5x5 <- inception_4a/5x5
I0403 18:16:19.953446  6758 net.cpp:386] inception_4a/relu_5x5 -> inception_4a/5x5 (in-place)
I0403 18:16:19.953629  6758 net.cpp:141] Setting up inception_4a/relu_5x5
I0403 18:16:19.953655  6758 net.cpp:148] Top shape: 24 48 14 14 (225792)
I0403 18:16:19.953670  6758 net.cpp:156] Memory required for data: 875471904
I0403 18:16:19.953685  6758 layer_factory.hpp:77] Creating layer inception_4a/pool
I0403 18:16:19.953707  6758 net.cpp:91] Creating Layer inception_4a/pool
I0403 18:16:19.953725  6758 net.cpp:425] inception_4a/pool <- pool3/3x3_s2_pool3/3x3_s2_0_split_3
I0403 18:16:19.953744  6758 net.cpp:399] inception_4a/pool -> inception_4a/pool
I0403 18:16:19.953809  6758 net.cpp:141] Setting up inception_4a/pool
I0403 18:16:19.953835  6758 net.cpp:148] Top shape: 24 480 14 14 (2257920)
I0403 18:16:19.953850  6758 net.cpp:156] Memory required for data: 884503584
I0403 18:16:19.953866  6758 layer_factory.hpp:77] Creating layer inception_4a/pool_proj
I0403 18:16:19.953889  6758 net.cpp:91] Creating Layer inception_4a/pool_proj
I0403 18:16:19.953908  6758 net.cpp:425] inception_4a/pool_proj <- inception_4a/pool
I0403 18:16:19.953930  6758 net.cpp:399] inception_4a/pool_proj -> inception_4a/pool_proj
I0403 18:16:19.955142  6758 net.cpp:141] Setting up inception_4a/pool_proj
I0403 18:16:19.955175  6758 net.cpp:148] Top shape: 24 64 14 14 (301056)
I0403 18:16:19.955214  6758 net.cpp:156] Memory required for data: 885707808
I0403 18:16:19.955235  6758 layer_factory.hpp:77] Creating layer inception_4a/relu_pool_proj
I0403 18:16:19.955258  6758 net.cpp:91] Creating Layer inception_4a/relu_pool_proj
I0403 18:16:19.955277  6758 net.cpp:425] inception_4a/relu_pool_proj <- inception_4a/pool_proj
I0403 18:16:19.955296  6758 net.cpp:386] inception_4a/relu_pool_proj -> inception_4a/pool_proj (in-place)
I0403 18:16:19.955595  6758 net.cpp:141] Setting up inception_4a/relu_pool_proj
I0403 18:16:19.955622  6758 net.cpp:148] Top shape: 24 64 14 14 (301056)
I0403 18:16:19.955639  6758 net.cpp:156] Memory required for data: 886912032
I0403 18:16:19.955656  6758 layer_factory.hpp:77] Creating layer inception_4a/output
I0403 18:16:19.955673  6758 net.cpp:91] Creating Layer inception_4a/output
I0403 18:16:19.955692  6758 net.cpp:425] inception_4a/output <- inception_4a/1x1
I0403 18:16:19.955710  6758 net.cpp:425] inception_4a/output <- inception_4a/3x3
I0403 18:16:19.955727  6758 net.cpp:425] inception_4a/output <- inception_4a/5x5
I0403 18:16:19.955745  6758 net.cpp:425] inception_4a/output <- inception_4a/pool_proj
I0403 18:16:19.955767  6758 net.cpp:399] inception_4a/output -> inception_4a/output
I0403 18:16:19.955814  6758 net.cpp:141] Setting up inception_4a/output
I0403 18:16:19.955842  6758 net.cpp:148] Top shape: 24 512 14 14 (2408448)
I0403 18:16:19.955862  6758 net.cpp:156] Memory required for data: 896545824
I0403 18:16:19.955878  6758 layer_factory.hpp:77] Creating layer inception_4a/output_inception_4a/output_0_split
I0403 18:16:19.955899  6758 net.cpp:91] Creating Layer inception_4a/output_inception_4a/output_0_split
I0403 18:16:19.955916  6758 net.cpp:425] inception_4a/output_inception_4a/output_0_split <- inception_4a/output
I0403 18:16:19.955937  6758 net.cpp:399] inception_4a/output_inception_4a/output_0_split -> inception_4a/output_inception_4a/output_0_split_0
I0403 18:16:19.955960  6758 net.cpp:399] inception_4a/output_inception_4a/output_0_split -> inception_4a/output_inception_4a/output_0_split_1
I0403 18:16:19.955982  6758 net.cpp:399] inception_4a/output_inception_4a/output_0_split -> inception_4a/output_inception_4a/output_0_split_2
I0403 18:16:19.956004  6758 net.cpp:399] inception_4a/output_inception_4a/output_0_split -> inception_4a/output_inception_4a/output_0_split_3
I0403 18:16:19.956025  6758 net.cpp:399] inception_4a/output_inception_4a/output_0_split -> inception_4a/output_inception_4a/output_0_split_4
I0403 18:16:19.956122  6758 net.cpp:141] Setting up inception_4a/output_inception_4a/output_0_split
I0403 18:16:19.956147  6758 net.cpp:148] Top shape: 24 512 14 14 (2408448)
I0403 18:16:19.956167  6758 net.cpp:148] Top shape: 24 512 14 14 (2408448)
I0403 18:16:19.956192  6758 net.cpp:148] Top shape: 24 512 14 14 (2408448)
I0403 18:16:19.956212  6758 net.cpp:148] Top shape: 24 512 14 14 (2408448)
I0403 18:16:19.956228  6758 net.cpp:148] Top shape: 24 512 14 14 (2408448)
I0403 18:16:19.956244  6758 net.cpp:156] Memory required for data: 944714784
I0403 18:16:19.956259  6758 layer_factory.hpp:77] Creating layer loss1/ave_pool
I0403 18:16:19.956279  6758 net.cpp:91] Creating Layer loss1/ave_pool
I0403 18:16:19.956295  6758 net.cpp:425] loss1/ave_pool <- inception_4a/output_inception_4a/output_0_split_0
I0403 18:16:19.956317  6758 net.cpp:399] loss1/ave_pool -> loss1/ave_pool
I0403 18:16:19.956535  6758 net.cpp:141] Setting up loss1/ave_pool
I0403 18:16:19.956563  6758 net.cpp:148] Top shape: 24 512 4 4 (196608)
I0403 18:16:19.956579  6758 net.cpp:156] Memory required for data: 945501216
I0403 18:16:19.956596  6758 layer_factory.hpp:77] Creating layer loss1/conv
I0403 18:16:19.956619  6758 net.cpp:91] Creating Layer loss1/conv
I0403 18:16:19.956639  6758 net.cpp:425] loss1/conv <- loss1/ave_pool
I0403 18:16:19.956660  6758 net.cpp:399] loss1/conv -> loss1/conv
I0403 18:16:19.958106  6758 net.cpp:141] Setting up loss1/conv
I0403 18:16:19.958137  6758 net.cpp:148] Top shape: 24 128 4 4 (49152)
I0403 18:16:19.958168  6758 net.cpp:156] Memory required for data: 945697824
I0403 18:16:19.958196  6758 layer_factory.hpp:77] Creating layer loss1/relu_conv
I0403 18:16:19.958220  6758 net.cpp:91] Creating Layer loss1/relu_conv
I0403 18:16:19.958238  6758 net.cpp:425] loss1/relu_conv <- loss1/conv
I0403 18:16:19.958257  6758 net.cpp:386] loss1/relu_conv -> loss1/conv (in-place)
I0403 18:16:19.958540  6758 net.cpp:141] Setting up loss1/relu_conv
I0403 18:16:19.958567  6758 net.cpp:148] Top shape: 24 128 4 4 (49152)
I0403 18:16:19.958582  6758 net.cpp:156] Memory required for data: 945894432
I0403 18:16:19.958598  6758 layer_factory.hpp:77] Creating layer loss1/fc
I0403 18:16:19.958624  6758 net.cpp:91] Creating Layer loss1/fc
I0403 18:16:19.958643  6758 net.cpp:425] loss1/fc <- loss1/conv
I0403 18:16:19.958665  6758 net.cpp:399] loss1/fc -> loss1/fc
I0403 18:16:19.976691  6758 net.cpp:141] Setting up loss1/fc
I0403 18:16:19.976728  6758 net.cpp:148] Top shape: 24 1024 (24576)
I0403 18:16:19.976745  6758 net.cpp:156] Memory required for data: 945992736
I0403 18:16:19.976764  6758 layer_factory.hpp:77] Creating layer loss1/relu_fc
I0403 18:16:19.976784  6758 net.cpp:91] Creating Layer loss1/relu_fc
I0403 18:16:19.976802  6758 net.cpp:425] loss1/relu_fc <- loss1/fc
I0403 18:16:19.976824  6758 net.cpp:386] loss1/relu_fc -> loss1/fc (in-place)
I0403 18:16:19.977008  6758 net.cpp:141] Setting up loss1/relu_fc
I0403 18:16:19.977035  6758 net.cpp:148] Top shape: 24 1024 (24576)
I0403 18:16:19.977051  6758 net.cpp:156] Memory required for data: 946091040
I0403 18:16:19.977066  6758 layer_factory.hpp:77] Creating layer loss1/drop_fc
I0403 18:16:19.977094  6758 net.cpp:91] Creating Layer loss1/drop_fc
I0403 18:16:19.977113  6758 net.cpp:425] loss1/drop_fc <- loss1/fc
I0403 18:16:19.977130  6758 net.cpp:386] loss1/drop_fc -> loss1/fc (in-place)
I0403 18:16:19.977190  6758 net.cpp:141] Setting up loss1/drop_fc
I0403 18:16:19.977212  6758 net.cpp:148] Top shape: 24 1024 (24576)
I0403 18:16:19.977227  6758 net.cpp:156] Memory required for data: 946189344
I0403 18:16:19.977243  6758 layer_factory.hpp:77] Creating layer loss1/classifier_plantvillage
I0403 18:16:19.977262  6758 net.cpp:91] Creating Layer loss1/classifier_plantvillage
I0403 18:16:19.977277  6758 net.cpp:425] loss1/classifier_plantvillage <- loss1/fc
I0403 18:16:19.977298  6758 net.cpp:399] loss1/classifier_plantvillage -> loss1/classifier_plantvillage
I0403 18:16:19.978214  6758 net.cpp:141] Setting up loss1/classifier_plantvillage
I0403 18:16:19.978242  6758 net.cpp:148] Top shape: 24 38 (912)
I0403 18:16:19.978258  6758 net.cpp:156] Memory required for data: 946192992
I0403 18:16:19.978277  6758 layer_factory.hpp:77] Creating layer loss1/classifier_plantvillage_loss1/classifier_plantvillage_0_split
I0403 18:16:19.978297  6758 net.cpp:91] Creating Layer loss1/classifier_plantvillage_loss1/classifier_plantvillage_0_split
I0403 18:16:19.978315  6758 net.cpp:425] loss1/classifier_plantvillage_loss1/classifier_plantvillage_0_split <- loss1/classifier_plantvillage
I0403 18:16:19.978333  6758 net.cpp:399] loss1/classifier_plantvillage_loss1/classifier_plantvillage_0_split -> loss1/classifier_plantvillage_loss1/classifier_plantvillage_0_split_0
I0403 18:16:19.978354  6758 net.cpp:399] loss1/classifier_plantvillage_loss1/classifier_plantvillage_0_split -> loss1/classifier_plantvillage_loss1/classifier_plantvillage_0_split_1
I0403 18:16:19.978374  6758 net.cpp:399] loss1/classifier_plantvillage_loss1/classifier_plantvillage_0_split -> loss1/classifier_plantvillage_loss1/classifier_plantvillage_0_split_2
I0403 18:16:19.978442  6758 net.cpp:141] Setting up loss1/classifier_plantvillage_loss1/classifier_plantvillage_0_split
I0403 18:16:19.978466  6758 net.cpp:148] Top shape: 24 38 (912)
I0403 18:16:19.978482  6758 net.cpp:148] Top shape: 24 38 (912)
I0403 18:16:19.978498  6758 net.cpp:148] Top shape: 24 38 (912)
I0403 18:16:19.978513  6758 net.cpp:156] Memory required for data: 946203936
I0403 18:16:19.978526  6758 layer_factory.hpp:77] Creating layer inception_4b/1x1
I0403 18:16:19.978549  6758 net.cpp:91] Creating Layer inception_4b/1x1
I0403 18:16:19.978581  6758 net.cpp:425] inception_4b/1x1 <- inception_4a/output_inception_4a/output_0_split_1
I0403 18:16:19.978602  6758 net.cpp:399] inception_4b/1x1 -> inception_4b/1x1
I0403 18:16:19.980245  6758 net.cpp:141] Setting up inception_4b/1x1
I0403 18:16:19.980275  6758 net.cpp:148] Top shape: 24 160 14 14 (752640)
I0403 18:16:19.980291  6758 net.cpp:156] Memory required for data: 949214496
I0403 18:16:19.980311  6758 layer_factory.hpp:77] Creating layer inception_4b/relu_1x1
I0403 18:16:19.980332  6758 net.cpp:91] Creating Layer inception_4b/relu_1x1
I0403 18:16:19.980351  6758 net.cpp:425] inception_4b/relu_1x1 <- inception_4b/1x1
I0403 18:16:19.980370  6758 net.cpp:386] inception_4b/relu_1x1 -> inception_4b/1x1 (in-place)
I0403 18:16:19.980551  6758 net.cpp:141] Setting up inception_4b/relu_1x1
I0403 18:16:19.980577  6758 net.cpp:148] Top shape: 24 160 14 14 (752640)
I0403 18:16:19.980592  6758 net.cpp:156] Memory required for data: 952225056
I0403 18:16:19.980607  6758 layer_factory.hpp:77] Creating layer inception_4b/3x3_reduce
I0403 18:16:19.980631  6758 net.cpp:91] Creating Layer inception_4b/3x3_reduce
I0403 18:16:19.980650  6758 net.cpp:425] inception_4b/3x3_reduce <- inception_4a/output_inception_4a/output_0_split_2
I0403 18:16:19.980672  6758 net.cpp:399] inception_4b/3x3_reduce -> inception_4b/3x3_reduce
I0403 18:16:19.982048  6758 net.cpp:141] Setting up inception_4b/3x3_reduce
I0403 18:16:19.982076  6758 net.cpp:148] Top shape: 24 112 14 14 (526848)
I0403 18:16:19.982094  6758 net.cpp:156] Memory required for data: 954332448
I0403 18:16:19.982112  6758 layer_factory.hpp:77] Creating layer inception_4b/relu_3x3_reduce
I0403 18:16:19.982131  6758 net.cpp:91] Creating Layer inception_4b/relu_3x3_reduce
I0403 18:16:19.982146  6758 net.cpp:425] inception_4b/relu_3x3_reduce <- inception_4b/3x3_reduce
I0403 18:16:19.982167  6758 net.cpp:386] inception_4b/relu_3x3_reduce -> inception_4b/3x3_reduce (in-place)
I0403 18:16:19.982471  6758 net.cpp:141] Setting up inception_4b/relu_3x3_reduce
I0403 18:16:19.982498  6758 net.cpp:148] Top shape: 24 112 14 14 (526848)
I0403 18:16:19.982514  6758 net.cpp:156] Memory required for data: 956439840
I0403 18:16:19.982530  6758 layer_factory.hpp:77] Creating layer inception_4b/3x3
I0403 18:16:19.982553  6758 net.cpp:91] Creating Layer inception_4b/3x3
I0403 18:16:19.982571  6758 net.cpp:425] inception_4b/3x3 <- inception_4b/3x3_reduce
I0403 18:16:19.982594  6758 net.cpp:399] inception_4b/3x3 -> inception_4b/3x3
I0403 18:16:19.985625  6758 net.cpp:141] Setting up inception_4b/3x3
I0403 18:16:19.985656  6758 net.cpp:148] Top shape: 24 224 14 14 (1053696)
I0403 18:16:19.985674  6758 net.cpp:156] Memory required for data: 960654624
I0403 18:16:19.985693  6758 layer_factory.hpp:77] Creating layer inception_4b/relu_3x3
I0403 18:16:19.985714  6758 net.cpp:91] Creating Layer inception_4b/relu_3x3
I0403 18:16:19.985733  6758 net.cpp:425] inception_4b/relu_3x3 <- inception_4b/3x3
I0403 18:16:19.985752  6758 net.cpp:386] inception_4b/relu_3x3 -> inception_4b/3x3 (in-place)
I0403 18:16:19.985935  6758 net.cpp:141] Setting up inception_4b/relu_3x3
I0403 18:16:19.985965  6758 net.cpp:148] Top shape: 24 224 14 14 (1053696)
I0403 18:16:19.985983  6758 net.cpp:156] Memory required for data: 964869408
I0403 18:16:19.985998  6758 layer_factory.hpp:77] Creating layer inception_4b/5x5_reduce
I0403 18:16:19.986019  6758 net.cpp:91] Creating Layer inception_4b/5x5_reduce
I0403 18:16:19.986037  6758 net.cpp:425] inception_4b/5x5_reduce <- inception_4a/output_inception_4a/output_0_split_3
I0403 18:16:19.986063  6758 net.cpp:399] inception_4b/5x5_reduce -> inception_4b/5x5_reduce
I0403 18:16:19.987226  6758 net.cpp:141] Setting up inception_4b/5x5_reduce
I0403 18:16:19.987258  6758 net.cpp:148] Top shape: 24 24 14 14 (112896)
I0403 18:16:19.987275  6758 net.cpp:156] Memory required for data: 965320992
I0403 18:16:19.987295  6758 layer_factory.hpp:77] Creating layer inception_4b/relu_5x5_reduce
I0403 18:16:19.987315  6758 net.cpp:91] Creating Layer inception_4b/relu_5x5_reduce
I0403 18:16:19.987349  6758 net.cpp:425] inception_4b/relu_5x5_reduce <- inception_4b/5x5_reduce
I0403 18:16:19.987380  6758 net.cpp:386] inception_4b/relu_5x5_reduce -> inception_4b/5x5_reduce (in-place)
I0403 18:16:19.987571  6758 net.cpp:141] Setting up inception_4b/relu_5x5_reduce
I0403 18:16:19.987596  6758 net.cpp:148] Top shape: 24 24 14 14 (112896)
I0403 18:16:19.987610  6758 net.cpp:156] Memory required for data: 965772576
I0403 18:16:19.987625  6758 layer_factory.hpp:77] Creating layer inception_4b/5x5
I0403 18:16:19.987648  6758 net.cpp:91] Creating Layer inception_4b/5x5
I0403 18:16:19.987666  6758 net.cpp:425] inception_4b/5x5 <- inception_4b/5x5_reduce
I0403 18:16:19.987689  6758 net.cpp:399] inception_4b/5x5 -> inception_4b/5x5
I0403 18:16:19.988920  6758 net.cpp:141] Setting up inception_4b/5x5
I0403 18:16:19.988950  6758 net.cpp:148] Top shape: 24 64 14 14 (301056)
I0403 18:16:19.988966  6758 net.cpp:156] Memory required for data: 966976800
I0403 18:16:19.988986  6758 layer_factory.hpp:77] Creating layer inception_4b/relu_5x5
I0403 18:16:19.989008  6758 net.cpp:91] Creating Layer inception_4b/relu_5x5
I0403 18:16:19.989027  6758 net.cpp:425] inception_4b/relu_5x5 <- inception_4b/5x5
I0403 18:16:19.989047  6758 net.cpp:386] inception_4b/relu_5x5 -> inception_4b/5x5 (in-place)
I0403 18:16:19.989334  6758 net.cpp:141] Setting up inception_4b/relu_5x5
I0403 18:16:19.989361  6758 net.cpp:148] Top shape: 24 64 14 14 (301056)
I0403 18:16:19.989377  6758 net.cpp:156] Memory required for data: 968181024
I0403 18:16:19.989392  6758 layer_factory.hpp:77] Creating layer inception_4b/pool
I0403 18:16:19.989413  6758 net.cpp:91] Creating Layer inception_4b/pool
I0403 18:16:19.989430  6758 net.cpp:425] inception_4b/pool <- inception_4a/output_inception_4a/output_0_split_4
I0403 18:16:19.989449  6758 net.cpp:399] inception_4b/pool -> inception_4b/pool
I0403 18:16:19.989516  6758 net.cpp:141] Setting up inception_4b/pool
I0403 18:16:19.989540  6758 net.cpp:148] Top shape: 24 512 14 14 (2408448)
I0403 18:16:19.989555  6758 net.cpp:156] Memory required for data: 977814816
I0403 18:16:19.989572  6758 layer_factory.hpp:77] Creating layer inception_4b/pool_proj
I0403 18:16:19.989595  6758 net.cpp:91] Creating Layer inception_4b/pool_proj
I0403 18:16:19.989612  6758 net.cpp:425] inception_4b/pool_proj <- inception_4b/pool
I0403 18:16:19.989634  6758 net.cpp:399] inception_4b/pool_proj -> inception_4b/pool_proj
I0403 18:16:19.990844  6758 net.cpp:141] Setting up inception_4b/pool_proj
I0403 18:16:19.990876  6758 net.cpp:148] Top shape: 24 64 14 14 (301056)
I0403 18:16:19.990896  6758 net.cpp:156] Memory required for data: 979019040
I0403 18:16:19.990916  6758 layer_factory.hpp:77] Creating layer inception_4b/relu_pool_proj
I0403 18:16:19.990936  6758 net.cpp:91] Creating Layer inception_4b/relu_pool_proj
I0403 18:16:19.990953  6758 net.cpp:425] inception_4b/relu_pool_proj <- inception_4b/pool_proj
I0403 18:16:19.990973  6758 net.cpp:386] inception_4b/relu_pool_proj -> inception_4b/pool_proj (in-place)
I0403 18:16:19.991158  6758 net.cpp:141] Setting up inception_4b/relu_pool_proj
I0403 18:16:19.991190  6758 net.cpp:148] Top shape: 24 64 14 14 (301056)
I0403 18:16:19.991209  6758 net.cpp:156] Memory required for data: 980223264
I0403 18:16:19.991226  6758 layer_factory.hpp:77] Creating layer inception_4b/output
I0403 18:16:19.991245  6758 net.cpp:91] Creating Layer inception_4b/output
I0403 18:16:19.991261  6758 net.cpp:425] inception_4b/output <- inception_4b/1x1
I0403 18:16:19.991278  6758 net.cpp:425] inception_4b/output <- inception_4b/3x3
I0403 18:16:19.991297  6758 net.cpp:425] inception_4b/output <- inception_4b/5x5
I0403 18:16:19.991314  6758 net.cpp:425] inception_4b/output <- inception_4b/pool_proj
I0403 18:16:19.991336  6758 net.cpp:399] inception_4b/output -> inception_4b/output
I0403 18:16:19.991382  6758 net.cpp:141] Setting up inception_4b/output
I0403 18:16:19.991410  6758 net.cpp:148] Top shape: 24 512 14 14 (2408448)
I0403 18:16:19.991428  6758 net.cpp:156] Memory required for data: 989857056
I0403 18:16:19.991457  6758 layer_factory.hpp:77] Creating layer inception_4b/output_inception_4b/output_0_split
I0403 18:16:19.991479  6758 net.cpp:91] Creating Layer inception_4b/output_inception_4b/output_0_split
I0403 18:16:19.991497  6758 net.cpp:425] inception_4b/output_inception_4b/output_0_split <- inception_4b/output
I0403 18:16:19.991514  6758 net.cpp:399] inception_4b/output_inception_4b/output_0_split -> inception_4b/output_inception_4b/output_0_split_0
I0403 18:16:19.991538  6758 net.cpp:399] inception_4b/output_inception_4b/output_0_split -> inception_4b/output_inception_4b/output_0_split_1
I0403 18:16:19.991560  6758 net.cpp:399] inception_4b/output_inception_4b/output_0_split -> inception_4b/output_inception_4b/output_0_split_2
I0403 18:16:19.991581  6758 net.cpp:399] inception_4b/output_inception_4b/output_0_split -> inception_4b/output_inception_4b/output_0_split_3
I0403 18:16:19.991668  6758 net.cpp:141] Setting up inception_4b/output_inception_4b/output_0_split
I0403 18:16:19.991693  6758 net.cpp:148] Top shape: 24 512 14 14 (2408448)
I0403 18:16:19.991710  6758 net.cpp:148] Top shape: 24 512 14 14 (2408448)
I0403 18:16:19.991725  6758 net.cpp:148] Top shape: 24 512 14 14 (2408448)
I0403 18:16:19.991742  6758 net.cpp:148] Top shape: 24 512 14 14 (2408448)
I0403 18:16:19.991756  6758 net.cpp:156] Memory required for data: 1028392224
I0403 18:16:19.991770  6758 layer_factory.hpp:77] Creating layer inception_4c/1x1
I0403 18:16:19.991794  6758 net.cpp:91] Creating Layer inception_4c/1x1
I0403 18:16:19.991811  6758 net.cpp:425] inception_4c/1x1 <- inception_4b/output_inception_4b/output_0_split_0
I0403 18:16:19.991833  6758 net.cpp:399] inception_4c/1x1 -> inception_4c/1x1
I0403 18:16:19.993315  6758 net.cpp:141] Setting up inception_4c/1x1
I0403 18:16:19.993345  6758 net.cpp:148] Top shape: 24 128 14 14 (602112)
I0403 18:16:19.993362  6758 net.cpp:156] Memory required for data: 1030800672
I0403 18:16:19.993382  6758 layer_factory.hpp:77] Creating layer inception_4c/relu_1x1
I0403 18:16:19.993402  6758 net.cpp:91] Creating Layer inception_4c/relu_1x1
I0403 18:16:19.993419  6758 net.cpp:425] inception_4c/relu_1x1 <- inception_4c/1x1
I0403 18:16:19.993439  6758 net.cpp:386] inception_4c/relu_1x1 -> inception_4c/1x1 (in-place)
I0403 18:16:19.993625  6758 net.cpp:141] Setting up inception_4c/relu_1x1
I0403 18:16:19.993651  6758 net.cpp:148] Top shape: 24 128 14 14 (602112)
I0403 18:16:19.993667  6758 net.cpp:156] Memory required for data: 1033209120
I0403 18:16:19.993685  6758 layer_factory.hpp:77] Creating layer inception_4c/3x3_reduce
I0403 18:16:19.993708  6758 net.cpp:91] Creating Layer inception_4c/3x3_reduce
I0403 18:16:19.993726  6758 net.cpp:425] inception_4c/3x3_reduce <- inception_4b/output_inception_4b/output_0_split_1
I0403 18:16:19.993748  6758 net.cpp:399] inception_4c/3x3_reduce -> inception_4c/3x3_reduce
I0403 18:16:19.995720  6758 net.cpp:141] Setting up inception_4c/3x3_reduce
I0403 18:16:19.995751  6758 net.cpp:148] Top shape: 24 128 14 14 (602112)
I0403 18:16:19.995772  6758 net.cpp:156] Memory required for data: 1035617568
I0403 18:16:19.995795  6758 layer_factory.hpp:77] Creating layer inception_4c/relu_3x3_reduce
I0403 18:16:19.995815  6758 net.cpp:91] Creating Layer inception_4c/relu_3x3_reduce
I0403 18:16:19.995832  6758 net.cpp:425] inception_4c/relu_3x3_reduce <- inception_4c/3x3_reduce
I0403 18:16:19.995849  6758 net.cpp:386] inception_4c/relu_3x3_reduce -> inception_4c/3x3_reduce (in-place)
I0403 18:16:19.996135  6758 net.cpp:141] Setting up inception_4c/relu_3x3_reduce
I0403 18:16:19.996165  6758 net.cpp:148] Top shape: 24 128 14 14 (602112)
I0403 18:16:19.996189  6758 net.cpp:156] Memory required for data: 1038026016
I0403 18:16:19.996206  6758 layer_factory.hpp:77] Creating layer inception_4c/3x3
I0403 18:16:19.996227  6758 net.cpp:91] Creating Layer inception_4c/3x3
I0403 18:16:19.996243  6758 net.cpp:425] inception_4c/3x3 <- inception_4c/3x3_reduce
I0403 18:16:19.996266  6758 net.cpp:399] inception_4c/3x3 -> inception_4c/3x3
I0403 18:16:19.999914  6758 net.cpp:141] Setting up inception_4c/3x3
I0403 18:16:19.999971  6758 net.cpp:148] Top shape: 24 256 14 14 (1204224)
I0403 18:16:19.999989  6758 net.cpp:156] Memory required for data: 1042842912
I0403 18:16:20.000025  6758 layer_factory.hpp:77] Creating layer inception_4c/relu_3x3
I0403 18:16:20.000046  6758 net.cpp:91] Creating Layer inception_4c/relu_3x3
I0403 18:16:20.000064  6758 net.cpp:425] inception_4c/relu_3x3 <- inception_4c/3x3
I0403 18:16:20.000085  6758 net.cpp:386] inception_4c/relu_3x3 -> inception_4c/3x3 (in-place)
I0403 18:16:20.000277  6758 net.cpp:141] Setting up inception_4c/relu_3x3
I0403 18:16:20.000306  6758 net.cpp:148] Top shape: 24 256 14 14 (1204224)
I0403 18:16:20.000322  6758 net.cpp:156] Memory required for data: 1047659808
I0403 18:16:20.000339  6758 layer_factory.hpp:77] Creating layer inception_4c/5x5_reduce
I0403 18:16:20.000362  6758 net.cpp:91] Creating Layer inception_4c/5x5_reduce
I0403 18:16:20.000381  6758 net.cpp:425] inception_4c/5x5_reduce <- inception_4b/output_inception_4b/output_0_split_2
I0403 18:16:20.000401  6758 net.cpp:399] inception_4c/5x5_reduce -> inception_4c/5x5_reduce
I0403 18:16:20.001538  6758 net.cpp:141] Setting up inception_4c/5x5_reduce
I0403 18:16:20.001570  6758 net.cpp:148] Top shape: 24 24 14 14 (112896)
I0403 18:16:20.001587  6758 net.cpp:156] Memory required for data: 1048111392
I0403 18:16:20.001607  6758 layer_factory.hpp:77] Creating layer inception_4c/relu_5x5_reduce
I0403 18:16:20.001627  6758 net.cpp:91] Creating Layer inception_4c/relu_5x5_reduce
I0403 18:16:20.001644  6758 net.cpp:425] inception_4c/relu_5x5_reduce <- inception_4c/5x5_reduce
I0403 18:16:20.001664  6758 net.cpp:386] inception_4c/relu_5x5_reduce -> inception_4c/5x5_reduce (in-place)
I0403 18:16:20.001860  6758 net.cpp:141] Setting up inception_4c/relu_5x5_reduce
I0403 18:16:20.001886  6758 net.cpp:148] Top shape: 24 24 14 14 (112896)
I0403 18:16:20.001901  6758 net.cpp:156] Memory required for data: 1048562976
I0403 18:16:20.001919  6758 layer_factory.hpp:77] Creating layer inception_4c/5x5
I0403 18:16:20.001941  6758 net.cpp:91] Creating Layer inception_4c/5x5
I0403 18:16:20.001960  6758 net.cpp:425] inception_4c/5x5 <- inception_4c/5x5_reduce
I0403 18:16:20.001982  6758 net.cpp:399] inception_4c/5x5 -> inception_4c/5x5
I0403 18:16:20.003280  6758 net.cpp:141] Setting up inception_4c/5x5
I0403 18:16:20.003311  6758 net.cpp:148] Top shape: 24 64 14 14 (301056)
I0403 18:16:20.003330  6758 net.cpp:156] Memory required for data: 1049767200
I0403 18:16:20.003351  6758 layer_factory.hpp:77] Creating layer inception_4c/relu_5x5
I0403 18:16:20.003371  6758 net.cpp:91] Creating Layer inception_4c/relu_5x5
I0403 18:16:20.003391  6758 net.cpp:425] inception_4c/relu_5x5 <- inception_4c/5x5
I0403 18:16:20.003412  6758 net.cpp:386] inception_4c/relu_5x5 -> inception_4c/5x5 (in-place)
I0403 18:16:20.003711  6758 net.cpp:141] Setting up inception_4c/relu_5x5
I0403 18:16:20.003738  6758 net.cpp:148] Top shape: 24 64 14 14 (301056)
I0403 18:16:20.003756  6758 net.cpp:156] Memory required for data: 1050971424
I0403 18:16:20.003772  6758 layer_factory.hpp:77] Creating layer inception_4c/pool
I0403 18:16:20.003792  6758 net.cpp:91] Creating Layer inception_4c/pool
I0403 18:16:20.003808  6758 net.cpp:425] inception_4c/pool <- inception_4b/output_inception_4b/output_0_split_3
I0403 18:16:20.003829  6758 net.cpp:399] inception_4c/pool -> inception_4c/pool
I0403 18:16:20.003898  6758 net.cpp:141] Setting up inception_4c/pool
I0403 18:16:20.003922  6758 net.cpp:148] Top shape: 24 512 14 14 (2408448)
I0403 18:16:20.003938  6758 net.cpp:156] Memory required for data: 1060605216
I0403 18:16:20.003955  6758 layer_factory.hpp:77] Creating layer inception_4c/pool_proj
I0403 18:16:20.003980  6758 net.cpp:91] Creating Layer inception_4c/pool_proj
I0403 18:16:20.004000  6758 net.cpp:425] inception_4c/pool_proj <- inception_4c/pool
I0403 18:16:20.004019  6758 net.cpp:399] inception_4c/pool_proj -> inception_4c/pool_proj
I0403 18:16:20.005290  6758 net.cpp:141] Setting up inception_4c/pool_proj
I0403 18:16:20.005322  6758 net.cpp:148] Top shape: 24 64 14 14 (301056)
I0403 18:16:20.005355  6758 net.cpp:156] Memory required for data: 1061809440
I0403 18:16:20.005378  6758 layer_factory.hpp:77] Creating layer inception_4c/relu_pool_proj
I0403 18:16:20.005396  6758 net.cpp:91] Creating Layer inception_4c/relu_pool_proj
I0403 18:16:20.005414  6758 net.cpp:425] inception_4c/relu_pool_proj <- inception_4c/pool_proj
I0403 18:16:20.005435  6758 net.cpp:386] inception_4c/relu_pool_proj -> inception_4c/pool_proj (in-place)
I0403 18:16:20.005628  6758 net.cpp:141] Setting up inception_4c/relu_pool_proj
I0403 18:16:20.005656  6758 net.cpp:148] Top shape: 24 64 14 14 (301056)
I0403 18:16:20.005673  6758 net.cpp:156] Memory required for data: 1063013664
I0403 18:16:20.005691  6758 layer_factory.hpp:77] Creating layer inception_4c/output
I0403 18:16:20.005709  6758 net.cpp:91] Creating Layer inception_4c/output
I0403 18:16:20.005725  6758 net.cpp:425] inception_4c/output <- inception_4c/1x1
I0403 18:16:20.005743  6758 net.cpp:425] inception_4c/output <- inception_4c/3x3
I0403 18:16:20.005760  6758 net.cpp:425] inception_4c/output <- inception_4c/5x5
I0403 18:16:20.005779  6758 net.cpp:425] inception_4c/output <- inception_4c/pool_proj
I0403 18:16:20.005800  6758 net.cpp:399] inception_4c/output -> inception_4c/output
I0403 18:16:20.005847  6758 net.cpp:141] Setting up inception_4c/output
I0403 18:16:20.005874  6758 net.cpp:148] Top shape: 24 512 14 14 (2408448)
I0403 18:16:20.005890  6758 net.cpp:156] Memory required for data: 1072647456
I0403 18:16:20.005906  6758 layer_factory.hpp:77] Creating layer inception_4c/output_inception_4c/output_0_split
I0403 18:16:20.005925  6758 net.cpp:91] Creating Layer inception_4c/output_inception_4c/output_0_split
I0403 18:16:20.005942  6758 net.cpp:425] inception_4c/output_inception_4c/output_0_split <- inception_4c/output
I0403 18:16:20.005960  6758 net.cpp:399] inception_4c/output_inception_4c/output_0_split -> inception_4c/output_inception_4c/output_0_split_0
I0403 18:16:20.005982  6758 net.cpp:399] inception_4c/output_inception_4c/output_0_split -> inception_4c/output_inception_4c/output_0_split_1
I0403 18:16:20.006006  6758 net.cpp:399] inception_4c/output_inception_4c/output_0_split -> inception_4c/output_inception_4c/output_0_split_2
I0403 18:16:20.006028  6758 net.cpp:399] inception_4c/output_inception_4c/output_0_split -> inception_4c/output_inception_4c/output_0_split_3
I0403 18:16:20.006120  6758 net.cpp:141] Setting up inception_4c/output_inception_4c/output_0_split
I0403 18:16:20.006145  6758 net.cpp:148] Top shape: 24 512 14 14 (2408448)
I0403 18:16:20.006162  6758 net.cpp:148] Top shape: 24 512 14 14 (2408448)
I0403 18:16:20.006184  6758 net.cpp:148] Top shape: 24 512 14 14 (2408448)
I0403 18:16:20.006203  6758 net.cpp:148] Top shape: 24 512 14 14 (2408448)
I0403 18:16:20.006218  6758 net.cpp:156] Memory required for data: 1111182624
I0403 18:16:20.006234  6758 layer_factory.hpp:77] Creating layer inception_4d/1x1
I0403 18:16:20.006258  6758 net.cpp:91] Creating Layer inception_4d/1x1
I0403 18:16:20.006278  6758 net.cpp:425] inception_4d/1x1 <- inception_4c/output_inception_4c/output_0_split_0
I0403 18:16:20.006300  6758 net.cpp:399] inception_4d/1x1 -> inception_4d/1x1
I0403 18:16:20.007741  6758 net.cpp:141] Setting up inception_4d/1x1
I0403 18:16:20.007771  6758 net.cpp:148] Top shape: 24 112 14 14 (526848)
I0403 18:16:20.007789  6758 net.cpp:156] Memory required for data: 1113290016
I0403 18:16:20.007808  6758 layer_factory.hpp:77] Creating layer inception_4d/relu_1x1
I0403 18:16:20.007833  6758 net.cpp:91] Creating Layer inception_4d/relu_1x1
I0403 18:16:20.007851  6758 net.cpp:425] inception_4d/relu_1x1 <- inception_4d/1x1
I0403 18:16:20.007871  6758 net.cpp:386] inception_4d/relu_1x1 -> inception_4d/1x1 (in-place)
I0403 18:16:20.008061  6758 net.cpp:141] Setting up inception_4d/relu_1x1
I0403 18:16:20.008090  6758 net.cpp:148] Top shape: 24 112 14 14 (526848)
I0403 18:16:20.008107  6758 net.cpp:156] Memory required for data: 1115397408
I0403 18:16:20.008123  6758 layer_factory.hpp:77] Creating layer inception_4d/3x3_reduce
I0403 18:16:20.008162  6758 net.cpp:91] Creating Layer inception_4d/3x3_reduce
I0403 18:16:20.008188  6758 net.cpp:425] inception_4d/3x3_reduce <- inception_4c/output_inception_4c/output_0_split_1
I0403 18:16:20.008213  6758 net.cpp:399] inception_4d/3x3_reduce -> inception_4d/3x3_reduce
I0403 18:16:20.009778  6758 net.cpp:141] Setting up inception_4d/3x3_reduce
I0403 18:16:20.009811  6758 net.cpp:148] Top shape: 24 144 14 14 (677376)
I0403 18:16:20.009829  6758 net.cpp:156] Memory required for data: 1118106912
I0403 18:16:20.009850  6758 layer_factory.hpp:77] Creating layer inception_4d/relu_3x3_reduce
I0403 18:16:20.009872  6758 net.cpp:91] Creating Layer inception_4d/relu_3x3_reduce
I0403 18:16:20.009892  6758 net.cpp:425] inception_4d/relu_3x3_reduce <- inception_4d/3x3_reduce
I0403 18:16:20.009913  6758 net.cpp:386] inception_4d/relu_3x3_reduce -> inception_4d/3x3_reduce (in-place)
I0403 18:16:20.010221  6758 net.cpp:141] Setting up inception_4d/relu_3x3_reduce
I0403 18:16:20.010251  6758 net.cpp:148] Top shape: 24 144 14 14 (677376)
I0403 18:16:20.010267  6758 net.cpp:156] Memory required for data: 1120816416
I0403 18:16:20.010283  6758 layer_factory.hpp:77] Creating layer inception_4d/3x3
I0403 18:16:20.010306  6758 net.cpp:91] Creating Layer inception_4d/3x3
I0403 18:16:20.010325  6758 net.cpp:425] inception_4d/3x3 <- inception_4d/3x3_reduce
I0403 18:16:20.010349  6758 net.cpp:399] inception_4d/3x3 -> inception_4d/3x3
I0403 18:16:20.014827  6758 net.cpp:141] Setting up inception_4d/3x3
I0403 18:16:20.014859  6758 net.cpp:148] Top shape: 24 288 14 14 (1354752)
I0403 18:16:20.014878  6758 net.cpp:156] Memory required for data: 1126235424
I0403 18:16:20.014897  6758 layer_factory.hpp:77] Creating layer inception_4d/relu_3x3
I0403 18:16:20.014922  6758 net.cpp:91] Creating Layer inception_4d/relu_3x3
I0403 18:16:20.014942  6758 net.cpp:425] inception_4d/relu_3x3 <- inception_4d/3x3
I0403 18:16:20.014962  6758 net.cpp:386] inception_4d/relu_3x3 -> inception_4d/3x3 (in-place)
I0403 18:16:20.015153  6758 net.cpp:141] Setting up inception_4d/relu_3x3
I0403 18:16:20.015189  6758 net.cpp:148] Top shape: 24 288 14 14 (1354752)
I0403 18:16:20.015210  6758 net.cpp:156] Memory required for data: 1131654432
I0403 18:16:20.015226  6758 layer_factory.hpp:77] Creating layer inception_4d/5x5_reduce
I0403 18:16:20.015249  6758 net.cpp:91] Creating Layer inception_4d/5x5_reduce
I0403 18:16:20.015269  6758 net.cpp:425] inception_4d/5x5_reduce <- inception_4c/output_inception_4c/output_0_split_2
I0403 18:16:20.015291  6758 net.cpp:399] inception_4d/5x5_reduce -> inception_4d/5x5_reduce
I0403 18:16:20.016491  6758 net.cpp:141] Setting up inception_4d/5x5_reduce
I0403 18:16:20.016522  6758 net.cpp:148] Top shape: 24 32 14 14 (150528)
I0403 18:16:20.016540  6758 net.cpp:156] Memory required for data: 1132256544
I0403 18:16:20.016559  6758 layer_factory.hpp:77] Creating layer inception_4d/relu_5x5_reduce
I0403 18:16:20.016582  6758 net.cpp:91] Creating Layer inception_4d/relu_5x5_reduce
I0403 18:16:20.016600  6758 net.cpp:425] inception_4d/relu_5x5_reduce <- inception_4d/5x5_reduce
I0403 18:16:20.016619  6758 net.cpp:386] inception_4d/relu_5x5_reduce -> inception_4d/5x5_reduce (in-place)
I0403 18:16:20.016810  6758 net.cpp:141] Setting up inception_4d/relu_5x5_reduce
I0403 18:16:20.016844  6758 net.cpp:148] Top shape: 24 32 14 14 (150528)
I0403 18:16:20.016860  6758 net.cpp:156] Memory required for data: 1132858656
I0403 18:16:20.016877  6758 layer_factory.hpp:77] Creating layer inception_4d/5x5
I0403 18:16:20.016901  6758 net.cpp:91] Creating Layer inception_4d/5x5
I0403 18:16:20.016921  6758 net.cpp:425] inception_4d/5x5 <- inception_4d/5x5_reduce
I0403 18:16:20.016942  6758 net.cpp:399] inception_4d/5x5 -> inception_4d/5x5
I0403 18:16:20.018465  6758 net.cpp:141] Setting up inception_4d/5x5
I0403 18:16:20.018496  6758 net.cpp:148] Top shape: 24 64 14 14 (301056)
I0403 18:16:20.018513  6758 net.cpp:156] Memory required for data: 1134062880
I0403 18:16:20.018535  6758 layer_factory.hpp:77] Creating layer inception_4d/relu_5x5
I0403 18:16:20.018570  6758 net.cpp:91] Creating Layer inception_4d/relu_5x5
I0403 18:16:20.018589  6758 net.cpp:425] inception_4d/relu_5x5 <- inception_4d/5x5
I0403 18:16:20.018611  6758 net.cpp:386] inception_4d/relu_5x5 -> inception_4d/5x5 (in-place)
I0403 18:16:20.018923  6758 net.cpp:141] Setting up inception_4d/relu_5x5
I0403 18:16:20.018954  6758 net.cpp:148] Top shape: 24 64 14 14 (301056)
I0403 18:16:20.018970  6758 net.cpp:156] Memory required for data: 1135267104
I0403 18:16:20.018986  6758 layer_factory.hpp:77] Creating layer inception_4d/pool
I0403 18:16:20.019004  6758 net.cpp:91] Creating Layer inception_4d/pool
I0403 18:16:20.019022  6758 net.cpp:425] inception_4d/pool <- inception_4c/output_inception_4c/output_0_split_3
I0403 18:16:20.019045  6758 net.cpp:399] inception_4d/pool -> inception_4d/pool
I0403 18:16:20.019115  6758 net.cpp:141] Setting up inception_4d/pool
I0403 18:16:20.019145  6758 net.cpp:148] Top shape: 24 512 14 14 (2408448)
I0403 18:16:20.019162  6758 net.cpp:156] Memory required for data: 1144900896
I0403 18:16:20.019186  6758 layer_factory.hpp:77] Creating layer inception_4d/pool_proj
I0403 18:16:20.019212  6758 net.cpp:91] Creating Layer inception_4d/pool_proj
I0403 18:16:20.019233  6758 net.cpp:425] inception_4d/pool_proj <- inception_4d/pool
I0403 18:16:20.019254  6758 net.cpp:399] inception_4d/pool_proj -> inception_4d/pool_proj
I0403 18:16:20.021075  6758 net.cpp:141] Setting up inception_4d/pool_proj
I0403 18:16:20.021107  6758 net.cpp:148] Top shape: 24 64 14 14 (301056)
I0403 18:16:20.021126  6758 net.cpp:156] Memory required for data: 1146105120
I0403 18:16:20.021145  6758 layer_factory.hpp:77] Creating layer inception_4d/relu_pool_proj
I0403 18:16:20.021167  6758 net.cpp:91] Creating Layer inception_4d/relu_pool_proj
I0403 18:16:20.021193  6758 net.cpp:425] inception_4d/relu_pool_proj <- inception_4d/pool_proj
I0403 18:16:20.021214  6758 net.cpp:386] inception_4d/relu_pool_proj -> inception_4d/pool_proj (in-place)
I0403 18:16:20.021405  6758 net.cpp:141] Setting up inception_4d/relu_pool_proj
I0403 18:16:20.021437  6758 net.cpp:148] Top shape: 24 64 14 14 (301056)
I0403 18:16:20.021455  6758 net.cpp:156] Memory required for data: 1147309344
I0403 18:16:20.021471  6758 layer_factory.hpp:77] Creating layer inception_4d/output
I0403 18:16:20.021487  6758 net.cpp:91] Creating Layer inception_4d/output
I0403 18:16:20.021504  6758 net.cpp:425] inception_4d/output <- inception_4d/1x1
I0403 18:16:20.021522  6758 net.cpp:425] inception_4d/output <- inception_4d/3x3
I0403 18:16:20.021538  6758 net.cpp:425] inception_4d/output <- inception_4d/5x5
I0403 18:16:20.021554  6758 net.cpp:425] inception_4d/output <- inception_4d/pool_proj
I0403 18:16:20.021574  6758 net.cpp:399] inception_4d/output -> inception_4d/output
I0403 18:16:20.021623  6758 net.cpp:141] Setting up inception_4d/output
I0403 18:16:20.021648  6758 net.cpp:148] Top shape: 24 528 14 14 (2483712)
I0403 18:16:20.021663  6758 net.cpp:156] Memory required for data: 1157244192
I0403 18:16:20.021678  6758 layer_factory.hpp:77] Creating layer inception_4d/output_inception_4d/output_0_split
I0403 18:16:20.021699  6758 net.cpp:91] Creating Layer inception_4d/output_inception_4d/output_0_split
I0403 18:16:20.021716  6758 net.cpp:425] inception_4d/output_inception_4d/output_0_split <- inception_4d/output
I0403 18:16:20.021734  6758 net.cpp:399] inception_4d/output_inception_4d/output_0_split -> inception_4d/output_inception_4d/output_0_split_0
I0403 18:16:20.021755  6758 net.cpp:399] inception_4d/output_inception_4d/output_0_split -> inception_4d/output_inception_4d/output_0_split_1
I0403 18:16:20.021783  6758 net.cpp:399] inception_4d/output_inception_4d/output_0_split -> inception_4d/output_inception_4d/output_0_split_2
I0403 18:16:20.021806  6758 net.cpp:399] inception_4d/output_inception_4d/output_0_split -> inception_4d/output_inception_4d/output_0_split_3
I0403 18:16:20.021826  6758 net.cpp:399] inception_4d/output_inception_4d/output_0_split -> inception_4d/output_inception_4d/output_0_split_4
I0403 18:16:20.021932  6758 net.cpp:141] Setting up inception_4d/output_inception_4d/output_0_split
I0403 18:16:20.021970  6758 net.cpp:148] Top shape: 24 528 14 14 (2483712)
I0403 18:16:20.021987  6758 net.cpp:148] Top shape: 24 528 14 14 (2483712)
I0403 18:16:20.022004  6758 net.cpp:148] Top shape: 24 528 14 14 (2483712)
I0403 18:16:20.022020  6758 net.cpp:148] Top shape: 24 528 14 14 (2483712)
I0403 18:16:20.022037  6758 net.cpp:148] Top shape: 24 528 14 14 (2483712)
I0403 18:16:20.022052  6758 net.cpp:156] Memory required for data: 1206918432
I0403 18:16:20.022068  6758 layer_factory.hpp:77] Creating layer loss2/ave_pool
I0403 18:16:20.022085  6758 net.cpp:91] Creating Layer loss2/ave_pool
I0403 18:16:20.022102  6758 net.cpp:425] loss2/ave_pool <- inception_4d/output_inception_4d/output_0_split_0
I0403 18:16:20.022125  6758 net.cpp:399] loss2/ave_pool -> loss2/ave_pool
I0403 18:16:20.022457  6758 net.cpp:141] Setting up loss2/ave_pool
I0403 18:16:20.022485  6758 net.cpp:148] Top shape: 24 528 4 4 (202752)
I0403 18:16:20.022501  6758 net.cpp:156] Memory required for data: 1207729440
I0403 18:16:20.022517  6758 layer_factory.hpp:77] Creating layer loss2/conv
I0403 18:16:20.022541  6758 net.cpp:91] Creating Layer loss2/conv
I0403 18:16:20.022558  6758 net.cpp:425] loss2/conv <- loss2/ave_pool
I0403 18:16:20.022581  6758 net.cpp:399] loss2/conv -> loss2/conv
I0403 18:16:20.024554  6758 net.cpp:141] Setting up loss2/conv
I0403 18:16:20.024587  6758 net.cpp:148] Top shape: 24 128 4 4 (49152)
I0403 18:16:20.024607  6758 net.cpp:156] Memory required for data: 1207926048
I0403 18:16:20.024628  6758 layer_factory.hpp:77] Creating layer loss2/relu_conv
I0403 18:16:20.024646  6758 net.cpp:91] Creating Layer loss2/relu_conv
I0403 18:16:20.024663  6758 net.cpp:425] loss2/relu_conv <- loss2/conv
I0403 18:16:20.024684  6758 net.cpp:386] loss2/relu_conv -> loss2/conv (in-place)
I0403 18:16:20.024981  6758 net.cpp:141] Setting up loss2/relu_conv
I0403 18:16:20.025012  6758 net.cpp:148] Top shape: 24 128 4 4 (49152)
I0403 18:16:20.025030  6758 net.cpp:156] Memory required for data: 1208122656
I0403 18:16:20.025048  6758 layer_factory.hpp:77] Creating layer loss2/fc
I0403 18:16:20.025069  6758 net.cpp:91] Creating Layer loss2/fc
I0403 18:16:20.025087  6758 net.cpp:425] loss2/fc <- loss2/conv
I0403 18:16:20.025110  6758 net.cpp:399] loss2/fc -> loss2/fc
I0403 18:16:20.043591  6758 net.cpp:141] Setting up loss2/fc
I0403 18:16:20.043653  6758 net.cpp:148] Top shape: 24 1024 (24576)
I0403 18:16:20.043671  6758 net.cpp:156] Memory required for data: 1208220960
I0403 18:16:20.043694  6758 layer_factory.hpp:77] Creating layer loss2/relu_fc
I0403 18:16:20.043716  6758 net.cpp:91] Creating Layer loss2/relu_fc
I0403 18:16:20.043736  6758 net.cpp:425] loss2/relu_fc <- loss2/fc
I0403 18:16:20.043756  6758 net.cpp:386] loss2/relu_fc -> loss2/fc (in-place)
I0403 18:16:20.044113  6758 net.cpp:141] Setting up loss2/relu_fc
I0403 18:16:20.044142  6758 net.cpp:148] Top shape: 24 1024 (24576)
I0403 18:16:20.044159  6758 net.cpp:156] Memory required for data: 1208319264
I0403 18:16:20.044183  6758 layer_factory.hpp:77] Creating layer loss2/drop_fc
I0403 18:16:20.044206  6758 net.cpp:91] Creating Layer loss2/drop_fc
I0403 18:16:20.044225  6758 net.cpp:425] loss2/drop_fc <- loss2/fc
I0403 18:16:20.044245  6758 net.cpp:386] loss2/drop_fc -> loss2/fc (in-place)
I0403 18:16:20.044299  6758 net.cpp:141] Setting up loss2/drop_fc
I0403 18:16:20.044323  6758 net.cpp:148] Top shape: 24 1024 (24576)
I0403 18:16:20.044339  6758 net.cpp:156] Memory required for data: 1208417568
I0403 18:16:20.044355  6758 layer_factory.hpp:77] Creating layer loss2/classifier_plantvillage
I0403 18:16:20.044379  6758 net.cpp:91] Creating Layer loss2/classifier_plantvillage
I0403 18:16:20.044399  6758 net.cpp:425] loss2/classifier_plantvillage <- loss2/fc
I0403 18:16:20.044419  6758 net.cpp:399] loss2/classifier_plantvillage -> loss2/classifier_plantvillage
I0403 18:16:20.044844  6758 net.cpp:141] Setting up loss2/classifier_plantvillage
I0403 18:16:20.044870  6758 net.cpp:148] Top shape: 24 38 (912)
I0403 18:16:20.044909  6758 net.cpp:156] Memory required for data: 1208421216
I0403 18:16:20.044929  6758 layer_factory.hpp:77] Creating layer loss2/classifier_plantvillage_loss2/classifier_plantvillage_0_split
I0403 18:16:20.044947  6758 net.cpp:91] Creating Layer loss2/classifier_plantvillage_loss2/classifier_plantvillage_0_split
I0403 18:16:20.044963  6758 net.cpp:425] loss2/classifier_plantvillage_loss2/classifier_plantvillage_0_split <- loss2/classifier_plantvillage
I0403 18:16:20.044983  6758 net.cpp:399] loss2/classifier_plantvillage_loss2/classifier_plantvillage_0_split -> loss2/classifier_plantvillage_loss2/classifier_plantvillage_0_split_0
I0403 18:16:20.045007  6758 net.cpp:399] loss2/classifier_plantvillage_loss2/classifier_plantvillage_0_split -> loss2/classifier_plantvillage_loss2/classifier_plantvillage_0_split_1
I0403 18:16:20.045030  6758 net.cpp:399] loss2/classifier_plantvillage_loss2/classifier_plantvillage_0_split -> loss2/classifier_plantvillage_loss2/classifier_plantvillage_0_split_2
I0403 18:16:20.045112  6758 net.cpp:141] Setting up loss2/classifier_plantvillage_loss2/classifier_plantvillage_0_split
I0403 18:16:20.045138  6758 net.cpp:148] Top shape: 24 38 (912)
I0403 18:16:20.045156  6758 net.cpp:148] Top shape: 24 38 (912)
I0403 18:16:20.045172  6758 net.cpp:148] Top shape: 24 38 (912)
I0403 18:16:20.045192  6758 net.cpp:156] Memory required for data: 1208432160
I0403 18:16:20.045207  6758 layer_factory.hpp:77] Creating layer inception_4e/1x1
I0403 18:16:20.045228  6758 net.cpp:91] Creating Layer inception_4e/1x1
I0403 18:16:20.045248  6758 net.cpp:425] inception_4e/1x1 <- inception_4d/output_inception_4d/output_0_split_1
I0403 18:16:20.045267  6758 net.cpp:399] inception_4e/1x1 -> inception_4e/1x1
I0403 18:16:20.047133  6758 net.cpp:141] Setting up inception_4e/1x1
I0403 18:16:20.047163  6758 net.cpp:148] Top shape: 24 256 14 14 (1204224)
I0403 18:16:20.047184  6758 net.cpp:156] Memory required for data: 1213249056
I0403 18:16:20.047207  6758 layer_factory.hpp:77] Creating layer inception_4e/relu_1x1
I0403 18:16:20.047226  6758 net.cpp:91] Creating Layer inception_4e/relu_1x1
I0403 18:16:20.047243  6758 net.cpp:425] inception_4e/relu_1x1 <- inception_4e/1x1
I0403 18:16:20.047263  6758 net.cpp:386] inception_4e/relu_1x1 -> inception_4e/1x1 (in-place)
I0403 18:16:20.047562  6758 net.cpp:141] Setting up inception_4e/relu_1x1
I0403 18:16:20.047588  6758 net.cpp:148] Top shape: 24 256 14 14 (1204224)
I0403 18:16:20.047603  6758 net.cpp:156] Memory required for data: 1218065952
I0403 18:16:20.047619  6758 layer_factory.hpp:77] Creating layer inception_4e/3x3_reduce
I0403 18:16:20.047642  6758 net.cpp:91] Creating Layer inception_4e/3x3_reduce
I0403 18:16:20.047660  6758 net.cpp:425] inception_4e/3x3_reduce <- inception_4d/output_inception_4d/output_0_split_2
I0403 18:16:20.047683  6758 net.cpp:399] inception_4e/3x3_reduce -> inception_4e/3x3_reduce
I0403 18:16:20.049867  6758 net.cpp:141] Setting up inception_4e/3x3_reduce
I0403 18:16:20.049901  6758 net.cpp:148] Top shape: 24 160 14 14 (752640)
I0403 18:16:20.049921  6758 net.cpp:156] Memory required for data: 1221076512
I0403 18:16:20.049942  6758 layer_factory.hpp:77] Creating layer inception_4e/relu_3x3_reduce
I0403 18:16:20.049962  6758 net.cpp:91] Creating Layer inception_4e/relu_3x3_reduce
I0403 18:16:20.049980  6758 net.cpp:425] inception_4e/relu_3x3_reduce <- inception_4e/3x3_reduce
I0403 18:16:20.050001  6758 net.cpp:386] inception_4e/relu_3x3_reduce -> inception_4e/3x3_reduce (in-place)
I0403 18:16:20.050199  6758 net.cpp:141] Setting up inception_4e/relu_3x3_reduce
I0403 18:16:20.050227  6758 net.cpp:148] Top shape: 24 160 14 14 (752640)
I0403 18:16:20.050243  6758 net.cpp:156] Memory required for data: 1224087072
I0403 18:16:20.050258  6758 layer_factory.hpp:77] Creating layer inception_4e/3x3
I0403 18:16:20.050282  6758 net.cpp:91] Creating Layer inception_4e/3x3
I0403 18:16:20.050302  6758 net.cpp:425] inception_4e/3x3 <- inception_4e/3x3_reduce
I0403 18:16:20.050326  6758 net.cpp:399] inception_4e/3x3 -> inception_4e/3x3
I0403 18:16:20.055594  6758 net.cpp:141] Setting up inception_4e/3x3
I0403 18:16:20.055639  6758 net.cpp:148] Top shape: 24 320 14 14 (1505280)
I0403 18:16:20.055655  6758 net.cpp:156] Memory required for data: 1230108192
I0403 18:16:20.055675  6758 layer_factory.hpp:77] Creating layer inception_4e/relu_3x3
I0403 18:16:20.055696  6758 net.cpp:91] Creating Layer inception_4e/relu_3x3
I0403 18:16:20.055712  6758 net.cpp:425] inception_4e/relu_3x3 <- inception_4e/3x3
I0403 18:16:20.055733  6758 net.cpp:386] inception_4e/relu_3x3 -> inception_4e/3x3 (in-place)
I0403 18:16:20.056038  6758 net.cpp:141] Setting up inception_4e/relu_3x3
I0403 18:16:20.056066  6758 net.cpp:148] Top shape: 24 320 14 14 (1505280)
I0403 18:16:20.056080  6758 net.cpp:156] Memory required for data: 1236129312
I0403 18:16:20.056095  6758 layer_factory.hpp:77] Creating layer inception_4e/5x5_reduce
I0403 18:16:20.056120  6758 net.cpp:91] Creating Layer inception_4e/5x5_reduce
I0403 18:16:20.056138  6758 net.cpp:425] inception_4e/5x5_reduce <- inception_4d/output_inception_4d/output_0_split_3
I0403 18:16:20.056161  6758 net.cpp:399] inception_4e/5x5_reduce -> inception_4e/5x5_reduce
I0403 18:16:20.057255  6758 net.cpp:141] Setting up inception_4e/5x5_reduce
I0403 18:16:20.057286  6758 net.cpp:148] Top shape: 24 32 14 14 (150528)
I0403 18:16:20.057303  6758 net.cpp:156] Memory required for data: 1236731424
I0403 18:16:20.057322  6758 layer_factory.hpp:77] Creating layer inception_4e/relu_5x5_reduce
I0403 18:16:20.057343  6758 net.cpp:91] Creating Layer inception_4e/relu_5x5_reduce
I0403 18:16:20.057359  6758 net.cpp:425] inception_4e/relu_5x5_reduce <- inception_4e/5x5_reduce
I0403 18:16:20.057380  6758 net.cpp:386] inception_4e/relu_5x5_reduce -> inception_4e/5x5_reduce (in-place)
I0403 18:16:20.057675  6758 net.cpp:141] Setting up inception_4e/relu_5x5_reduce
I0403 18:16:20.057704  6758 net.cpp:148] Top shape: 24 32 14 14 (150528)
I0403 18:16:20.057719  6758 net.cpp:156] Memory required for data: 1237333536
I0403 18:16:20.057736  6758 layer_factory.hpp:77] Creating layer inception_4e/5x5
I0403 18:16:20.057778  6758 net.cpp:91] Creating Layer inception_4e/5x5
I0403 18:16:20.057798  6758 net.cpp:425] inception_4e/5x5 <- inception_4e/5x5_reduce
I0403 18:16:20.057819  6758 net.cpp:399] inception_4e/5x5 -> inception_4e/5x5
I0403 18:16:20.059682  6758 net.cpp:141] Setting up inception_4e/5x5
I0403 18:16:20.059715  6758 net.cpp:148] Top shape: 24 128 14 14 (602112)
I0403 18:16:20.059733  6758 net.cpp:156] Memory required for data: 1239741984
I0403 18:16:20.059754  6758 layer_factory.hpp:77] Creating layer inception_4e/relu_5x5
I0403 18:16:20.059773  6758 net.cpp:91] Creating Layer inception_4e/relu_5x5
I0403 18:16:20.059792  6758 net.cpp:425] inception_4e/relu_5x5 <- inception_4e/5x5
I0403 18:16:20.059808  6758 net.cpp:386] inception_4e/relu_5x5 -> inception_4e/5x5 (in-place)
I0403 18:16:20.060011  6758 net.cpp:141] Setting up inception_4e/relu_5x5
I0403 18:16:20.060040  6758 net.cpp:148] Top shape: 24 128 14 14 (602112)
I0403 18:16:20.060056  6758 net.cpp:156] Memory required for data: 1242150432
I0403 18:16:20.060073  6758 layer_factory.hpp:77] Creating layer inception_4e/pool
I0403 18:16:20.060092  6758 net.cpp:91] Creating Layer inception_4e/pool
I0403 18:16:20.060109  6758 net.cpp:425] inception_4e/pool <- inception_4d/output_inception_4d/output_0_split_4
I0403 18:16:20.060130  6758 net.cpp:399] inception_4e/pool -> inception_4e/pool
I0403 18:16:20.060207  6758 net.cpp:141] Setting up inception_4e/pool
I0403 18:16:20.060235  6758 net.cpp:148] Top shape: 24 528 14 14 (2483712)
I0403 18:16:20.060252  6758 net.cpp:156] Memory required for data: 1252085280
I0403 18:16:20.060268  6758 layer_factory.hpp:77] Creating layer inception_4e/pool_proj
I0403 18:16:20.060292  6758 net.cpp:91] Creating Layer inception_4e/pool_proj
I0403 18:16:20.060310  6758 net.cpp:425] inception_4e/pool_proj <- inception_4e/pool
I0403 18:16:20.060329  6758 net.cpp:399] inception_4e/pool_proj -> inception_4e/pool_proj
I0403 18:16:20.061847  6758 net.cpp:141] Setting up inception_4e/pool_proj
I0403 18:16:20.061889  6758 net.cpp:148] Top shape: 24 128 14 14 (602112)
I0403 18:16:20.061908  6758 net.cpp:156] Memory required for data: 1254493728
I0403 18:16:20.061928  6758 layer_factory.hpp:77] Creating layer inception_4e/relu_pool_proj
I0403 18:16:20.061950  6758 net.cpp:91] Creating Layer inception_4e/relu_pool_proj
I0403 18:16:20.061969  6758 net.cpp:425] inception_4e/relu_pool_proj <- inception_4e/pool_proj
I0403 18:16:20.061987  6758 net.cpp:386] inception_4e/relu_pool_proj -> inception_4e/pool_proj (in-place)
I0403 18:16:20.062296  6758 net.cpp:141] Setting up inception_4e/relu_pool_proj
I0403 18:16:20.062325  6758 net.cpp:148] Top shape: 24 128 14 14 (602112)
I0403 18:16:20.062341  6758 net.cpp:156] Memory required for data: 1256902176
I0403 18:16:20.062356  6758 layer_factory.hpp:77] Creating layer inception_4e/output
I0403 18:16:20.062378  6758 net.cpp:91] Creating Layer inception_4e/output
I0403 18:16:20.062396  6758 net.cpp:425] inception_4e/output <- inception_4e/1x1
I0403 18:16:20.062414  6758 net.cpp:425] inception_4e/output <- inception_4e/3x3
I0403 18:16:20.062433  6758 net.cpp:425] inception_4e/output <- inception_4e/5x5
I0403 18:16:20.062449  6758 net.cpp:425] inception_4e/output <- inception_4e/pool_proj
I0403 18:16:20.062469  6758 net.cpp:399] inception_4e/output -> inception_4e/output
I0403 18:16:20.062520  6758 net.cpp:141] Setting up inception_4e/output
I0403 18:16:20.062543  6758 net.cpp:148] Top shape: 24 832 14 14 (3913728)
I0403 18:16:20.062561  6758 net.cpp:156] Memory required for data: 1272557088
I0403 18:16:20.062575  6758 layer_factory.hpp:77] Creating layer pool4/3x3_s2
I0403 18:16:20.062594  6758 net.cpp:91] Creating Layer pool4/3x3_s2
I0403 18:16:20.062610  6758 net.cpp:425] pool4/3x3_s2 <- inception_4e/output
I0403 18:16:20.062631  6758 net.cpp:399] pool4/3x3_s2 -> pool4/3x3_s2
I0403 18:16:20.062713  6758 net.cpp:141] Setting up pool4/3x3_s2
I0403 18:16:20.062738  6758 net.cpp:148] Top shape: 24 832 7 7 (978432)
I0403 18:16:20.062754  6758 net.cpp:156] Memory required for data: 1276470816
I0403 18:16:20.062770  6758 layer_factory.hpp:77] Creating layer pool4/3x3_s2_pool4/3x3_s2_0_split
I0403 18:16:20.062788  6758 net.cpp:91] Creating Layer pool4/3x3_s2_pool4/3x3_s2_0_split
I0403 18:16:20.062805  6758 net.cpp:425] pool4/3x3_s2_pool4/3x3_s2_0_split <- pool4/3x3_s2
I0403 18:16:20.062824  6758 net.cpp:399] pool4/3x3_s2_pool4/3x3_s2_0_split -> pool4/3x3_s2_pool4/3x3_s2_0_split_0
I0403 18:16:20.062847  6758 net.cpp:399] pool4/3x3_s2_pool4/3x3_s2_0_split -> pool4/3x3_s2_pool4/3x3_s2_0_split_1
I0403 18:16:20.062870  6758 net.cpp:399] pool4/3x3_s2_pool4/3x3_s2_0_split -> pool4/3x3_s2_pool4/3x3_s2_0_split_2
I0403 18:16:20.062892  6758 net.cpp:399] pool4/3x3_s2_pool4/3x3_s2_0_split -> pool4/3x3_s2_pool4/3x3_s2_0_split_3
I0403 18:16:20.062989  6758 net.cpp:141] Setting up pool4/3x3_s2_pool4/3x3_s2_0_split
I0403 18:16:20.063025  6758 net.cpp:148] Top shape: 24 832 7 7 (978432)
I0403 18:16:20.063042  6758 net.cpp:148] Top shape: 24 832 7 7 (978432)
I0403 18:16:20.063060  6758 net.cpp:148] Top shape: 24 832 7 7 (978432)
I0403 18:16:20.063076  6758 net.cpp:148] Top shape: 24 832 7 7 (978432)
I0403 18:16:20.063091  6758 net.cpp:156] Memory required for data: 1292125728
I0403 18:16:20.063105  6758 layer_factory.hpp:77] Creating layer inception_5a/1x1
I0403 18:16:20.063130  6758 net.cpp:91] Creating Layer inception_5a/1x1
I0403 18:16:20.063148  6758 net.cpp:425] inception_5a/1x1 <- pool4/3x3_s2_pool4/3x3_s2_0_split_0
I0403 18:16:20.063169  6758 net.cpp:399] inception_5a/1x1 -> inception_5a/1x1
I0403 18:16:20.066148  6758 net.cpp:141] Setting up inception_5a/1x1
I0403 18:16:20.066187  6758 net.cpp:148] Top shape: 24 256 7 7 (301056)
I0403 18:16:20.066210  6758 net.cpp:156] Memory required for data: 1293329952
I0403 18:16:20.066228  6758 layer_factory.hpp:77] Creating layer inception_5a/relu_1x1
I0403 18:16:20.066247  6758 net.cpp:91] Creating Layer inception_5a/relu_1x1
I0403 18:16:20.066267  6758 net.cpp:425] inception_5a/relu_1x1 <- inception_5a/1x1
I0403 18:16:20.066288  6758 net.cpp:386] inception_5a/relu_1x1 -> inception_5a/1x1 (in-place)
I0403 18:16:20.066601  6758 net.cpp:141] Setting up inception_5a/relu_1x1
I0403 18:16:20.066632  6758 net.cpp:148] Top shape: 24 256 7 7 (301056)
I0403 18:16:20.066649  6758 net.cpp:156] Memory required for data: 1294534176
I0403 18:16:20.066665  6758 layer_factory.hpp:77] Creating layer inception_5a/3x3_reduce
I0403 18:16:20.066687  6758 net.cpp:91] Creating Layer inception_5a/3x3_reduce
I0403 18:16:20.066705  6758 net.cpp:425] inception_5a/3x3_reduce <- pool4/3x3_s2_pool4/3x3_s2_0_split_1
I0403 18:16:20.066726  6758 net.cpp:399] inception_5a/3x3_reduce -> inception_5a/3x3_reduce
I0403 18:16:20.069236  6758 net.cpp:141] Setting up inception_5a/3x3_reduce
I0403 18:16:20.069269  6758 net.cpp:148] Top shape: 24 160 7 7 (188160)
I0403 18:16:20.069286  6758 net.cpp:156] Memory required for data: 1295286816
I0403 18:16:20.069308  6758 layer_factory.hpp:77] Creating layer inception_5a/relu_3x3_reduce
I0403 18:16:20.069331  6758 net.cpp:91] Creating Layer inception_5a/relu_3x3_reduce
I0403 18:16:20.069351  6758 net.cpp:425] inception_5a/relu_3x3_reduce <- inception_5a/3x3_reduce
I0403 18:16:20.069371  6758 net.cpp:386] inception_5a/relu_3x3_reduce -> inception_5a/3x3_reduce (in-place)
I0403 18:16:20.069564  6758 net.cpp:141] Setting up inception_5a/relu_3x3_reduce
I0403 18:16:20.069591  6758 net.cpp:148] Top shape: 24 160 7 7 (188160)
I0403 18:16:20.069607  6758 net.cpp:156] Memory required for data: 1296039456
I0403 18:16:20.069622  6758 layer_factory.hpp:77] Creating layer inception_5a/3x3
I0403 18:16:20.069648  6758 net.cpp:91] Creating Layer inception_5a/3x3
I0403 18:16:20.069666  6758 net.cpp:425] inception_5a/3x3 <- inception_5a/3x3_reduce
I0403 18:16:20.069687  6758 net.cpp:399] inception_5a/3x3 -> inception_5a/3x3
I0403 18:16:20.074820  6758 net.cpp:141] Setting up inception_5a/3x3
I0403 18:16:20.074853  6758 net.cpp:148] Top shape: 24 320 7 7 (376320)
I0403 18:16:20.074872  6758 net.cpp:156] Memory required for data: 1297544736
I0403 18:16:20.074892  6758 layer_factory.hpp:77] Creating layer inception_5a/relu_3x3
I0403 18:16:20.074910  6758 net.cpp:91] Creating Layer inception_5a/relu_3x3
I0403 18:16:20.074928  6758 net.cpp:425] inception_5a/relu_3x3 <- inception_5a/3x3
I0403 18:16:20.074946  6758 net.cpp:386] inception_5a/relu_3x3 -> inception_5a/3x3 (in-place)
I0403 18:16:20.075251  6758 net.cpp:141] Setting up inception_5a/relu_3x3
I0403 18:16:20.075281  6758 net.cpp:148] Top shape: 24 320 7 7 (376320)
I0403 18:16:20.075299  6758 net.cpp:156] Memory required for data: 1299050016
I0403 18:16:20.075315  6758 layer_factory.hpp:77] Creating layer inception_5a/5x5_reduce
I0403 18:16:20.075338  6758 net.cpp:91] Creating Layer inception_5a/5x5_reduce
I0403 18:16:20.075356  6758 net.cpp:425] inception_5a/5x5_reduce <- pool4/3x3_s2_pool4/3x3_s2_0_split_2
I0403 18:16:20.075377  6758 net.cpp:399] inception_5a/5x5_reduce -> inception_5a/5x5_reduce
I0403 18:16:20.076563  6758 net.cpp:141] Setting up inception_5a/5x5_reduce
I0403 18:16:20.076596  6758 net.cpp:148] Top shape: 24 32 7 7 (37632)
I0403 18:16:20.076614  6758 net.cpp:156] Memory required for data: 1299200544
I0403 18:16:20.076633  6758 layer_factory.hpp:77] Creating layer inception_5a/relu_5x5_reduce
I0403 18:16:20.076652  6758 net.cpp:91] Creating Layer inception_5a/relu_5x5_reduce
I0403 18:16:20.076669  6758 net.cpp:425] inception_5a/relu_5x5_reduce <- inception_5a/5x5_reduce
I0403 18:16:20.076689  6758 net.cpp:386] inception_5a/relu_5x5_reduce -> inception_5a/5x5_reduce (in-place)
I0403 18:16:20.076995  6758 net.cpp:141] Setting up inception_5a/relu_5x5_reduce
I0403 18:16:20.077024  6758 net.cpp:148] Top shape: 24 32 7 7 (37632)
I0403 18:16:20.077041  6758 net.cpp:156] Memory required for data: 1299351072
I0403 18:16:20.077057  6758 layer_factory.hpp:77] Creating layer inception_5a/5x5
I0403 18:16:20.077080  6758 net.cpp:91] Creating Layer inception_5a/5x5
I0403 18:16:20.077097  6758 net.cpp:425] inception_5a/5x5 <- inception_5a/5x5_reduce
I0403 18:16:20.077116  6758 net.cpp:399] inception_5a/5x5 -> inception_5a/5x5
I0403 18:16:20.078855  6758 net.cpp:141] Setting up inception_5a/5x5
I0403 18:16:20.078898  6758 net.cpp:148] Top shape: 24 128 7 7 (150528)
I0403 18:16:20.078917  6758 net.cpp:156] Memory required for data: 1299953184
I0403 18:16:20.078938  6758 layer_factory.hpp:77] Creating layer inception_5a/relu_5x5
I0403 18:16:20.078958  6758 net.cpp:91] Creating Layer inception_5a/relu_5x5
I0403 18:16:20.078974  6758 net.cpp:425] inception_5a/relu_5x5 <- inception_5a/5x5
I0403 18:16:20.078992  6758 net.cpp:386] inception_5a/relu_5x5 -> inception_5a/5x5 (in-place)
I0403 18:16:20.079198  6758 net.cpp:141] Setting up inception_5a/relu_5x5
I0403 18:16:20.079226  6758 net.cpp:148] Top shape: 24 128 7 7 (150528)
I0403 18:16:20.079242  6758 net.cpp:156] Memory required for data: 1300555296
I0403 18:16:20.079257  6758 layer_factory.hpp:77] Creating layer inception_5a/pool
I0403 18:16:20.079275  6758 net.cpp:91] Creating Layer inception_5a/pool
I0403 18:16:20.079293  6758 net.cpp:425] inception_5a/pool <- pool4/3x3_s2_pool4/3x3_s2_0_split_3
I0403 18:16:20.079315  6758 net.cpp:399] inception_5a/pool -> inception_5a/pool
I0403 18:16:20.079387  6758 net.cpp:141] Setting up inception_5a/pool
I0403 18:16:20.079416  6758 net.cpp:148] Top shape: 24 832 7 7 (978432)
I0403 18:16:20.079432  6758 net.cpp:156] Memory required for data: 1304469024
I0403 18:16:20.079448  6758 layer_factory.hpp:77] Creating layer inception_5a/pool_proj
I0403 18:16:20.079470  6758 net.cpp:91] Creating Layer inception_5a/pool_proj
I0403 18:16:20.079490  6758 net.cpp:425] inception_5a/pool_proj <- inception_5a/pool
I0403 18:16:20.079510  6758 net.cpp:399] inception_5a/pool_proj -> inception_5a/pool_proj
I0403 18:16:20.081804  6758 net.cpp:141] Setting up inception_5a/pool_proj
I0403 18:16:20.081833  6758 net.cpp:148] Top shape: 24 128 7 7 (150528)
I0403 18:16:20.081851  6758 net.cpp:156] Memory required for data: 1305071136
I0403 18:16:20.081871  6758 layer_factory.hpp:77] Creating layer inception_5a/relu_pool_proj
I0403 18:16:20.081892  6758 net.cpp:91] Creating Layer inception_5a/relu_pool_proj
I0403 18:16:20.081912  6758 net.cpp:425] inception_5a/relu_pool_proj <- inception_5a/pool_proj
I0403 18:16:20.081933  6758 net.cpp:386] inception_5a/relu_pool_proj -> inception_5a/pool_proj (in-place)
I0403 18:16:20.082242  6758 net.cpp:141] Setting up inception_5a/relu_pool_proj
I0403 18:16:20.082268  6758 net.cpp:148] Top shape: 24 128 7 7 (150528)
I0403 18:16:20.082284  6758 net.cpp:156] Memory required for data: 1305673248
I0403 18:16:20.082299  6758 layer_factory.hpp:77] Creating layer inception_5a/output
I0403 18:16:20.082319  6758 net.cpp:91] Creating Layer inception_5a/output
I0403 18:16:20.082336  6758 net.cpp:425] inception_5a/output <- inception_5a/1x1
I0403 18:16:20.082355  6758 net.cpp:425] inception_5a/output <- inception_5a/3x3
I0403 18:16:20.082370  6758 net.cpp:425] inception_5a/output <- inception_5a/5x5
I0403 18:16:20.082387  6758 net.cpp:425] inception_5a/output <- inception_5a/pool_proj
I0403 18:16:20.082404  6758 net.cpp:399] inception_5a/output -> inception_5a/output
I0403 18:16:20.082458  6758 net.cpp:141] Setting up inception_5a/output
I0403 18:16:20.082481  6758 net.cpp:148] Top shape: 24 832 7 7 (978432)
I0403 18:16:20.082496  6758 net.cpp:156] Memory required for data: 1309586976
I0403 18:16:20.082511  6758 layer_factory.hpp:77] Creating layer inception_5a/output_inception_5a/output_0_split
I0403 18:16:20.082528  6758 net.cpp:91] Creating Layer inception_5a/output_inception_5a/output_0_split
I0403 18:16:20.082545  6758 net.cpp:425] inception_5a/output_inception_5a/output_0_split <- inception_5a/output
I0403 18:16:20.082564  6758 net.cpp:399] inception_5a/output_inception_5a/output_0_split -> inception_5a/output_inception_5a/output_0_split_0
I0403 18:16:20.082586  6758 net.cpp:399] inception_5a/output_inception_5a/output_0_split -> inception_5a/output_inception_5a/output_0_split_1
I0403 18:16:20.082607  6758 net.cpp:399] inception_5a/output_inception_5a/output_0_split -> inception_5a/output_inception_5a/output_0_split_2
I0403 18:16:20.082628  6758 net.cpp:399] inception_5a/output_inception_5a/output_0_split -> inception_5a/output_inception_5a/output_0_split_3
I0403 18:16:20.082746  6758 net.cpp:141] Setting up inception_5a/output_inception_5a/output_0_split
I0403 18:16:20.082772  6758 net.cpp:148] Top shape: 24 832 7 7 (978432)
I0403 18:16:20.082789  6758 net.cpp:148] Top shape: 24 832 7 7 (978432)
I0403 18:16:20.082806  6758 net.cpp:148] Top shape: 24 832 7 7 (978432)
I0403 18:16:20.082823  6758 net.cpp:148] Top shape: 24 832 7 7 (978432)
I0403 18:16:20.082835  6758 net.cpp:156] Memory required for data: 1325241888
I0403 18:16:20.082850  6758 layer_factory.hpp:77] Creating layer inception_5b/1x1
I0403 18:16:20.082872  6758 net.cpp:91] Creating Layer inception_5b/1x1
I0403 18:16:20.082890  6758 net.cpp:425] inception_5b/1x1 <- inception_5a/output_inception_5a/output_0_split_0
I0403 18:16:20.082909  6758 net.cpp:399] inception_5b/1x1 -> inception_5b/1x1
I0403 18:16:20.086681  6758 net.cpp:141] Setting up inception_5b/1x1
I0403 18:16:20.086712  6758 net.cpp:148] Top shape: 24 384 7 7 (451584)
I0403 18:16:20.086729  6758 net.cpp:156] Memory required for data: 1327048224
I0403 18:16:20.086746  6758 layer_factory.hpp:77] Creating layer inception_5b/relu_1x1
I0403 18:16:20.086767  6758 net.cpp:91] Creating Layer inception_5b/relu_1x1
I0403 18:16:20.086786  6758 net.cpp:425] inception_5b/relu_1x1 <- inception_5b/1x1
I0403 18:16:20.086803  6758 net.cpp:386] inception_5b/relu_1x1 -> inception_5b/1x1 (in-place)
I0403 18:16:20.087107  6758 net.cpp:141] Setting up inception_5b/relu_1x1
I0403 18:16:20.087133  6758 net.cpp:148] Top shape: 24 384 7 7 (451584)
I0403 18:16:20.087148  6758 net.cpp:156] Memory required for data: 1328854560
I0403 18:16:20.087164  6758 layer_factory.hpp:77] Creating layer inception_5b/3x3_reduce
I0403 18:16:20.087193  6758 net.cpp:91] Creating Layer inception_5b/3x3_reduce
I0403 18:16:20.087213  6758 net.cpp:425] inception_5b/3x3_reduce <- inception_5a/output_inception_5a/output_0_split_1
I0403 18:16:20.087234  6758 net.cpp:399] inception_5b/3x3_reduce -> inception_5b/3x3_reduce
I0403 18:16:20.089989  6758 net.cpp:141] Setting up inception_5b/3x3_reduce
I0403 18:16:20.090020  6758 net.cpp:148] Top shape: 24 192 7 7 (225792)
I0403 18:16:20.090037  6758 net.cpp:156] Memory required for data: 1329757728
I0403 18:16:20.090057  6758 layer_factory.hpp:77] Creating layer inception_5b/relu_3x3_reduce
I0403 18:16:20.090078  6758 net.cpp:91] Creating Layer inception_5b/relu_3x3_reduce
I0403 18:16:20.090096  6758 net.cpp:425] inception_5b/relu_3x3_reduce <- inception_5b/3x3_reduce
I0403 18:16:20.090116  6758 net.cpp:386] inception_5b/relu_3x3_reduce -> inception_5b/3x3_reduce (in-place)
I0403 18:16:20.090318  6758 net.cpp:141] Setting up inception_5b/relu_3x3_reduce
I0403 18:16:20.090348  6758 net.cpp:148] Top shape: 24 192 7 7 (225792)
I0403 18:16:20.090363  6758 net.cpp:156] Memory required for data: 1330660896
I0403 18:16:20.090379  6758 layer_factory.hpp:77] Creating layer inception_5b/3x3
I0403 18:16:20.090402  6758 net.cpp:91] Creating Layer inception_5b/3x3
I0403 18:16:20.090420  6758 net.cpp:425] inception_5b/3x3 <- inception_5b/3x3_reduce
I0403 18:16:20.090440  6758 net.cpp:399] inception_5b/3x3 -> inception_5b/3x3
I0403 18:16:20.097534  6758 net.cpp:141] Setting up inception_5b/3x3
I0403 18:16:20.097570  6758 net.cpp:148] Top shape: 24 384 7 7 (451584)
I0403 18:16:20.097589  6758 net.cpp:156] Memory required for data: 1332467232
I0403 18:16:20.097607  6758 layer_factory.hpp:77] Creating layer inception_5b/relu_3x3
I0403 18:16:20.097630  6758 net.cpp:91] Creating Layer inception_5b/relu_3x3
I0403 18:16:20.097650  6758 net.cpp:425] inception_5b/relu_3x3 <- inception_5b/3x3
I0403 18:16:20.097671  6758 net.cpp:386] inception_5b/relu_3x3 -> inception_5b/3x3 (in-place)
I0403 18:16:20.097981  6758 net.cpp:141] Setting up inception_5b/relu_3x3
I0403 18:16:20.098011  6758 net.cpp:148] Top shape: 24 384 7 7 (451584)
I0403 18:16:20.098027  6758 net.cpp:156] Memory required for data: 1334273568
I0403 18:16:20.098042  6758 layer_factory.hpp:77] Creating layer inception_5b/5x5_reduce
I0403 18:16:20.098088  6758 net.cpp:91] Creating Layer inception_5b/5x5_reduce
I0403 18:16:20.098110  6758 net.cpp:425] inception_5b/5x5_reduce <- inception_5a/output_inception_5a/output_0_split_2
I0403 18:16:20.098132  6758 net.cpp:399] inception_5b/5x5_reduce -> inception_5b/5x5_reduce
I0403 18:16:20.099479  6758 net.cpp:141] Setting up inception_5b/5x5_reduce
I0403 18:16:20.099509  6758 net.cpp:148] Top shape: 24 48 7 7 (56448)
I0403 18:16:20.099527  6758 net.cpp:156] Memory required for data: 1334499360
I0403 18:16:20.099546  6758 layer_factory.hpp:77] Creating layer inception_5b/relu_5x5_reduce
I0403 18:16:20.099570  6758 net.cpp:91] Creating Layer inception_5b/relu_5x5_reduce
I0403 18:16:20.099588  6758 net.cpp:425] inception_5b/relu_5x5_reduce <- inception_5b/5x5_reduce
I0403 18:16:20.099607  6758 net.cpp:386] inception_5b/relu_5x5_reduce -> inception_5b/5x5_reduce (in-place)
I0403 18:16:20.100003  6758 net.cpp:141] Setting up inception_5b/relu_5x5_reduce
I0403 18:16:20.100033  6758 net.cpp:148] Top shape: 24 48 7 7 (56448)
I0403 18:16:20.100049  6758 net.cpp:156] Memory required for data: 1334725152
I0403 18:16:20.100064  6758 layer_factory.hpp:77] Creating layer inception_5b/5x5
I0403 18:16:20.100086  6758 net.cpp:91] Creating Layer inception_5b/5x5
I0403 18:16:20.100105  6758 net.cpp:425] inception_5b/5x5 <- inception_5b/5x5_reduce
I0403 18:16:20.100124  6758 net.cpp:399] inception_5b/5x5 -> inception_5b/5x5
I0403 18:16:20.102293  6758 net.cpp:141] Setting up inception_5b/5x5
I0403 18:16:20.102327  6758 net.cpp:148] Top shape: 24 128 7 7 (150528)
I0403 18:16:20.102346  6758 net.cpp:156] Memory required for data: 1335327264
I0403 18:16:20.102367  6758 layer_factory.hpp:77] Creating layer inception_5b/relu_5x5
I0403 18:16:20.102388  6758 net.cpp:91] Creating Layer inception_5b/relu_5x5
I0403 18:16:20.102406  6758 net.cpp:425] inception_5b/relu_5x5 <- inception_5b/5x5
I0403 18:16:20.102428  6758 net.cpp:386] inception_5b/relu_5x5 -> inception_5b/5x5 (in-place)
I0403 18:16:20.102637  6758 net.cpp:141] Setting up inception_5b/relu_5x5
I0403 18:16:20.102664  6758 net.cpp:148] Top shape: 24 128 7 7 (150528)
I0403 18:16:20.102682  6758 net.cpp:156] Memory required for data: 1335929376
I0403 18:16:20.102700  6758 layer_factory.hpp:77] Creating layer inception_5b/pool
I0403 18:16:20.102720  6758 net.cpp:91] Creating Layer inception_5b/pool
I0403 18:16:20.102737  6758 net.cpp:425] inception_5b/pool <- inception_5a/output_inception_5a/output_0_split_3
I0403 18:16:20.102761  6758 net.cpp:399] inception_5b/pool -> inception_5b/pool
I0403 18:16:20.102839  6758 net.cpp:141] Setting up inception_5b/pool
I0403 18:16:20.102866  6758 net.cpp:148] Top shape: 24 832 7 7 (978432)
I0403 18:16:20.102882  6758 net.cpp:156] Memory required for data: 1339843104
I0403 18:16:20.102900  6758 layer_factory.hpp:77] Creating layer inception_5b/pool_proj
I0403 18:16:20.102924  6758 net.cpp:91] Creating Layer inception_5b/pool_proj
I0403 18:16:20.102942  6758 net.cpp:425] inception_5b/pool_proj <- inception_5b/pool
I0403 18:16:20.102962  6758 net.cpp:399] inception_5b/pool_proj -> inception_5b/pool_proj
I0403 18:16:20.105412  6758 net.cpp:141] Setting up inception_5b/pool_proj
I0403 18:16:20.105444  6758 net.cpp:148] Top shape: 24 128 7 7 (150528)
I0403 18:16:20.105465  6758 net.cpp:156] Memory required for data: 1340445216
I0403 18:16:20.105486  6758 layer_factory.hpp:77] Creating layer inception_5b/relu_pool_proj
I0403 18:16:20.105505  6758 net.cpp:91] Creating Layer inception_5b/relu_pool_proj
I0403 18:16:20.105523  6758 net.cpp:425] inception_5b/relu_pool_proj <- inception_5b/pool_proj
I0403 18:16:20.105541  6758 net.cpp:386] inception_5b/relu_pool_proj -> inception_5b/pool_proj (in-place)
I0403 18:16:20.105855  6758 net.cpp:141] Setting up inception_5b/relu_pool_proj
I0403 18:16:20.105886  6758 net.cpp:148] Top shape: 24 128 7 7 (150528)
I0403 18:16:20.105906  6758 net.cpp:156] Memory required for data: 1341047328
I0403 18:16:20.105924  6758 layer_factory.hpp:77] Creating layer inception_5b/output
I0403 18:16:20.105944  6758 net.cpp:91] Creating Layer inception_5b/output
I0403 18:16:20.105978  6758 net.cpp:425] inception_5b/output <- inception_5b/1x1
I0403 18:16:20.105998  6758 net.cpp:425] inception_5b/output <- inception_5b/3x3
I0403 18:16:20.106015  6758 net.cpp:425] inception_5b/output <- inception_5b/5x5
I0403 18:16:20.106034  6758 net.cpp:425] inception_5b/output <- inception_5b/pool_proj
I0403 18:16:20.106053  6758 net.cpp:399] inception_5b/output -> inception_5b/output
I0403 18:16:20.106111  6758 net.cpp:141] Setting up inception_5b/output
I0403 18:16:20.106137  6758 net.cpp:148] Top shape: 24 1024 7 7 (1204224)
I0403 18:16:20.106154  6758 net.cpp:156] Memory required for data: 1345864224
I0403 18:16:20.106171  6758 layer_factory.hpp:77] Creating layer pool5/7x7_s1
I0403 18:16:20.106200  6758 net.cpp:91] Creating Layer pool5/7x7_s1
I0403 18:16:20.106221  6758 net.cpp:425] pool5/7x7_s1 <- inception_5b/output
I0403 18:16:20.106242  6758 net.cpp:399] pool5/7x7_s1 -> pool5/7x7_s1
I0403 18:16:20.106473  6758 net.cpp:141] Setting up pool5/7x7_s1
I0403 18:16:20.106503  6758 net.cpp:148] Top shape: 24 1024 1 1 (24576)
I0403 18:16:20.106520  6758 net.cpp:156] Memory required for data: 1345962528
I0403 18:16:20.106535  6758 layer_factory.hpp:77] Creating layer pool5/drop_7x7_s1
I0403 18:16:20.106554  6758 net.cpp:91] Creating Layer pool5/drop_7x7_s1
I0403 18:16:20.106572  6758 net.cpp:425] pool5/drop_7x7_s1 <- pool5/7x7_s1
I0403 18:16:20.106590  6758 net.cpp:386] pool5/drop_7x7_s1 -> pool5/7x7_s1 (in-place)
I0403 18:16:20.106644  6758 net.cpp:141] Setting up pool5/drop_7x7_s1
I0403 18:16:20.106668  6758 net.cpp:148] Top shape: 24 1024 1 1 (24576)
I0403 18:16:20.106684  6758 net.cpp:156] Memory required for data: 1346060832
I0403 18:16:20.106700  6758 layer_factory.hpp:77] Creating layer loss3/classifier_plantvillage
I0403 18:16:20.106724  6758 net.cpp:91] Creating Layer loss3/classifier_plantvillage
I0403 18:16:20.106740  6758 net.cpp:425] loss3/classifier_plantvillage <- pool5/7x7_s1
I0403 18:16:20.106761  6758 net.cpp:399] loss3/classifier_plantvillage -> loss3/classifier_plantvillage
I0403 18:16:20.107215  6758 net.cpp:141] Setting up loss3/classifier_plantvillage
I0403 18:16:20.107242  6758 net.cpp:148] Top shape: 24 38 (912)
I0403 18:16:20.107259  6758 net.cpp:156] Memory required for data: 1346064480
I0403 18:16:20.107277  6758 layer_factory.hpp:77] Creating layer loss3/classifier_plantvillage_loss3/classifier_plantvillage_0_split
I0403 18:16:20.107297  6758 net.cpp:91] Creating Layer loss3/classifier_plantvillage_loss3/classifier_plantvillage_0_split
I0403 18:16:20.107314  6758 net.cpp:425] loss3/classifier_plantvillage_loss3/classifier_plantvillage_0_split <- loss3/classifier_plantvillage
I0403 18:16:20.107337  6758 net.cpp:399] loss3/classifier_plantvillage_loss3/classifier_plantvillage_0_split -> loss3/classifier_plantvillage_loss3/classifier_plantvillage_0_split_0
I0403 18:16:20.107362  6758 net.cpp:399] loss3/classifier_plantvillage_loss3/classifier_plantvillage_0_split -> loss3/classifier_plantvillage_loss3/classifier_plantvillage_0_split_1
I0403 18:16:20.107383  6758 net.cpp:399] loss3/classifier_plantvillage_loss3/classifier_plantvillage_0_split -> loss3/classifier_plantvillage_loss3/classifier_plantvillage_0_split_2
I0403 18:16:20.107405  6758 net.cpp:399] loss3/classifier_plantvillage_loss3/classifier_plantvillage_0_split -> loss3/classifier_plantvillage_loss3/classifier_plantvillage_0_split_3
I0403 18:16:20.107516  6758 net.cpp:141] Setting up loss3/classifier_plantvillage_loss3/classifier_plantvillage_0_split
I0403 18:16:20.107542  6758 net.cpp:148] Top shape: 24 38 (912)
I0403 18:16:20.107559  6758 net.cpp:148] Top shape: 24 38 (912)
I0403 18:16:20.107576  6758 net.cpp:148] Top shape: 24 38 (912)
I0403 18:16:20.107592  6758 net.cpp:148] Top shape: 24 38 (912)
I0403 18:16:20.107606  6758 net.cpp:156] Memory required for data: 1346079072
I0403 18:16:20.107622  6758 layer_factory.hpp:77] Creating layer loss1/loss
I0403 18:16:20.107646  6758 net.cpp:91] Creating Layer loss1/loss
I0403 18:16:20.107666  6758 net.cpp:425] loss1/loss <- loss1/classifier_plantvillage_loss1/classifier_plantvillage_0_split_0
I0403 18:16:20.107698  6758 net.cpp:425] loss1/loss <- label_data_1_split_0
…
