…
I0403 18:11:02.394795  6670 net.cpp:313] The NetState phase (1) differed from the phase (0) specified by a rule in layer data
I0403 18:11:02.396055  6670 net.cpp:49] Initializing net from parameters: 
state {
  phase: TEST
}
layer {
  name: "data"
  type: "Data"
  top: "data"
  top: "label"
  include {
    phase: TEST
  }
  transform_param {
    mirror: false
    crop_size: 224
    mean_file: "/home/mohanty/data/final_dataset/lmdb/segmented-50-50/mean.binaryproto"
  }
  data_param {
    source: "/home/mohanty/data/final_dataset/lmdb/segmented-50-50/test_db"
    batch_size: 24
    backend: LMDB
  }
}
layer {
  name: "conv1/7x7_s2"
  type: "Convolution"
  bottom: "data"
  top: "conv1/7x7_s2"
  param {
    lr_mult: 1
    decay_mult: 1
  }
  param {
    lr_mult: 2
    decay_mult: 0
  }
  convolution_param {
    num_output: 64
    pad: 3
    kernel_size: 7
    stride: 2
    weight_filler {
      type: "xavier"
      std: 0.1
    }
    bias_filler {
      type: "constant"
      value: 0.2
    }
  }
}
layer {
  name: "conv1/relu_7x7"
  type: "ReLU"
  bottom: "conv1/7x7_s2"
  top: "conv1/7x7_s2"
}
layer {
  name: "pool1/3x3_s2"
  type: "Pooling"
  bottom: "conv1/7x7_s2"
  top: "pool1/3x3_s2"
  pooling_param {
    pool: MAX
    kernel_size: 3
    stride: 2
  }
}
layer {
  name: "pool1/norm1"
  type: "LRN"
  bottom: "pool1/3x3_s2"
  top: "pool1/norm1"
  lrn_param {
    local_size: 5
    alpha: 0.0001
    beta: 0.75
  }
}
layer {
  name: "conv2/3x3_reduce"
  type: "Convolution"
  bottom: "pool1/norm1"
  top: "conv2/3x3_reduce"
  param {
    lr_mult: 1
    decay_mult: 1
  }
  param {
    lr_mult: 2
    decay_mult: 0
  }
  convolution_param {
    num_output: 64
    kernel_size: 1
    weight_filler {
      type: "xavier"
      std: 0.1
    }
    bias_filler {
      type: "constant"
      value: 0.2
    }
  }
}
layer {
  name: "conv2/relu_3x3_reduce"
  type: "ReLU"
  bottom: "conv2/3x3_reduce"
  top: "conv2/3x3_reduce"
}
layer {
  name: "conv2/3x3"
  type: "Convolution"
  bottom: "conv2/3x3_reduce"
  top: "conv2/3x3"
  param {
    lr_mult: 1
    decay_mult: 1
  }
  param {
    lr_mult: 2
    decay_mult: 0
  }
  convolution_param {
    num_output: 192
    pad: 1
    kernel_size: 3
    weight_filler {
      type: "xavier"
      std: 0.03
    }
    bias_filler {
      type: "constant"
      value: 0.2
    }
  }
}
layer {
  name: "conv2/relu_3x3"
  type: "ReLU"
  bottom: "conv2/3x3"
  top: "conv2/3x3"
}
layer {
  name: "conv2/norm2"
  type: "LRN"
  bottom: "conv2/3x3"
  top: "conv2/norm2"
  lrn_param {
    local_size: 5
    alpha: 0.0001
    beta: 0.75
  }
}
layer {
  name: "pool2/3x3_s2"
  type: "Pooling"
  bottom: "conv2/norm2"
  top: "pool2/3x3_s2"
  pooling_param {
    pool: MAX
    kernel_size: 3
    stride: 2
  }
}
layer {
  name: "inception_3a/1x1"
  type: "Convolution"
  bottom: "pool2/3x3_s2"
  top: "inception_3a/1x1"
  param {
    lr_mult: 1
    decay_mult: 1
  }
  param {
    lr_mult: 2
    decay_mult: 0
  }
  convolution_param {
    num_output: 64
    kernel_size: 1
    weight_filler {
      type: "xavier"
      std: 0.03
    }
    bias_filler {
      type: "constant"
      value: 0.2
    }
  }
}
layer {
  name: "inception_3a/relu_1x1"
  type: "ReLU"
  bottom: "inception_3a/1x1"
  top: "inception_3a/1x1"
}
layer {
  name: "inception_3a/3x3_reduce"
  type: "Convolution"
  bottom: "pool2/3x3_s2"
  top: "inception_3a/3x3_reduce"
  param {
    lr_mult: 1
    decay_mult: 1
  }
  param {
    lr_mult: 2
    decay_mult: 0
  }
  convolution_param {
    num_output: 96
    kernel_size: 1
    weight_filler {
      type: "xavier"
      std: 0.09
    }
    bias_filler {
      type: "constant"
      value: 0.2
    }
  }
}
layer {
  name: "inception_3a/relu_3x3_reduce"
  type: "ReLU"
  bottom: "inception_3a/3x3_reduce"
  top: "inception_3a/3x3_reduce"
}
layer {
  name: "inception_3a/3x3"
  type: "Convolution"
  bottom: "inception_3a/3x3_reduce"
  top: "inception_3a/3x3"
  param {
    lr_mult: 1
    decay_mult: 1
  }
  param {
    lr_mult: 2
    decay_mult: 0
  }
  convolution_param {
    num_output: 128
    pad: 1
    kernel_size: 3
    weight_filler {
      type: "xavier"
      std: 0.03
    }
    bias_filler {
      type: "constant"
      value: 0.2
    }
  }
}
layer {
  name: "inception_3a/relu_3x3"
  type: "ReLU"
  bottom: "inception_3a/3x3"
  top: "inception_3a/3x3"
}
layer {
  name: "inception_3a/5x5_reduce"
  type: "Convolution"
  bottom: "pool2/3x3_s2"
  top: "inception_3a/5x5_reduce"
  param {
    lr_mult: 1
    decay_mult: 1
  }
  param {
    lr_mult: 2
    decay_mult: 0
  }
  convolution_param {
    num_output: 16
    kernel_size: 1
    weight_filler {
      type: "xavier"
      std: 0.2
    }
    bias_filler {
      type: "constant"
      value: 0.2
    }
  }
}
layer {
  name: "inception_3a/relu_5x5_reduce"
  type: "ReLU"
  bottom: "inception_3a/5x5_reduce"
  top: "inception_3a/5x5_reduce"
}
layer {
  name: "inception_3a/5x5"
  type: "Convolution"
  bottom: "inception_3a/5x5_reduce"
  top: "inception_3a/5x5"
  param {
    lr_mult: 1
    decay_mult: 1
  }
  param {
    lr_mult: 2
    decay_mult: 0
  }
  convolution_param {
    num_output: 32
    pad: 2
    kernel_size: 5
    weight_filler {
      type: "xavier"
      std: 0.03
    }
    bias_filler {
      type: "constant"
      value: 0.2
    }
  }
}
layer {
  name: "inception_3a/relu_5x5"
  type: "ReLU"
  bottom: "inception_3a/5x5"
  top: "inception_3a/5x5"
}
layer {
  name: "inception_3a/pool"
  type: "Pooling"
  bottom: "pool2/3x3_s2"
  top: "inception_3a/pool"
  pooling_param {
    pool: MAX
    kernel_size: 3
    stride: 1
    pad: 1
  }
}
layer {
  name: "inception_3a/pool_proj"
  type: "Convolution"
  bottom: "inception_3a/pool"
  top: "inception_3a/pool_proj"
  param {
    lr_mult: 1
    decay_mult: 1
  }
  param {
    lr_mult: 2
    decay_mult: 0
  }
  convolution_param {
    num_output: 32
    kernel_size: 1
    weight_filler {
      type: "xavier"
      std: 0.1
    }
    bias_filler {
      type: "constant"
      value: 0.2
    }
  }
}
layer {
  name: "inception_3a/relu_pool_proj"
  type: "ReLU"
  bottom: "inception_3a/pool_proj"
  top: "inception_3a/pool_proj"
}
layer {
  name: "inception_3a/output"
  type: "Concat"
  bottom: "inception_3a/1x1"
  bottom: "inception_3a/3x3"
  bottom: "inception_3a/5x5"
  bottom: "inception_3a/pool_proj"
  top: "inception_3a/output"
}
layer {
  name: "inception_3b/1x1"
  type: "Convolution"
  bottom: "inception_3a/output"
  top: "inception_3b/1x1"
  param {
    lr_mult: 1
    decay_mult: 1
  }
  param {
    lr_mult: 2
    decay_mult: 0
  }
  convolution_param {
    num_output: 128
    kernel_size: 1
    weight_filler {
      type: "xavier"
      std: 0.03
    }
    bias_filler {
      type: "constant"
      value: 0.2
    }
  }
}
layer {
  name: "inception_3b/relu_1x1"
  type: "ReLU"
  bottom: "inception_3b/1x1"
  top: "inception_3b/1x1"
}
layer {
  name: "inception_3b/3x3_reduce"
  type: "Convolution"
  bottom: "inception_3a/output"
  top: "inception_3b/3x3_reduce"
  param {
    lr_mult: 1
    decay_mult: 1
  }
  param {
    lr_mult: 2
    decay_mult: 0
  }
  convolution_param {
    num_output: 128
    kernel_size: 1
    weight_filler {
      type: "xavier"
      std: 0.09
    }
    bias_filler {
      type: "constant"
      value: 0.2
    }
  }
}
layer {
  name: "inception_3b/relu_3x3_reduce"
  type: "ReLU"
  bottom: "inception_3b/3x3_reduce"
  top: "inception_3b/3x3_reduce"
}
layer {
  name: "inception_3b/3x3"
  type: "Convolution"
  bottom: "inception_3b/3x3_reduce"
  top: "inception_3b/3x3"
  param {
    lr_mult: 1
    decay_mult: 1
  }
  param {
    lr_mult: 2
    decay_mult: 0
  }
  convolution_param {
    num_output: 192
    pad: 1
    kernel_size: 3
    weight_filler {
      type: "xavier"
      std: 0.03
    }
    bias_filler {
      type: "constant"
      value: 0.2
    }
  }
}
layer {
  name: "inception_3b/relu_3x3"
  type: "ReLU"
  bottom: "inception_3b/3x3"
  top: "inception_3b/3x3"
}
layer {
  name: "inception_3b/5x5_reduce"
  type: "Convolution"
  bottom: "inception_3a/output"
  top: "inception_3b/5x5_reduce"
  param {
    lr_mult: 1
    decay_mult: 1
  }
  param {
    lr_mult: 2
    decay_mult: 0
  }
  convolution_param {
    num_output: 32
    kernel_size: 1
    weight_filler {
      type: "xavier"
      std: 0.2
    }
    bias_filler {
      type: "constant"
      value: 0.2
    }
  }
}
layer {
  name: "inception_3b/relu_5x5_reduce"
  type: "ReLU"
  bottom: "inception_3b/5x5_reduce"
  top: "inception_3b/5x5_reduce"
}
layer {
  name: "inception_3b/5x5"
  type: "Convolution"
  bottom: "inception_3b/5x5_reduce"
  top: "inception_3b/5x5"
  param {
    lr_mult: 1
    decay_mult: 1
  }
  param {
    lr_mult: 2
    decay_mult: 0
  }
  convolution_param {
    num_output: 96
    pad: 2
    kernel_size: 5
    weight_filler {
      type: "xavier"
      std: 0.03
    }
    bias_filler {
      type: "constant"
      value: 0.2
    }
  }
}
layer {
  name: "inception_3b/relu_5x5"
  type: "ReLU"
  bottom: "inception_3b/5x5"
  top: "inception_3b/5x5"
}
layer {
  name: "inception_3b/pool"
  type: "Pooling"
  bottom: "inception_3a/output"
  top: "inception_3b/pool"
  pooling_param {
    pool: MAX
    kernel_size: 3
    stride: 1
    pad: 1
  }
}
layer {
  name: "inception_3b/pool_proj"
  type: "Convolution"
  bottom: "inception_3b/pool"
  top: "inception_3b/pool_proj"
  param {
    lr_mult: 1
    decay_mult: 1
  }
  param {
    lr_mult: 2
    decay_mult: 0
  }
  convolution_param {
    num_output: 64
    kernel_size: 1
    weight_filler {
      type: "xavier"
      std: 0.1
    }
    bias_filler {
      type: "constant"
      value: 0.2
    }
  }
}
layer {
  name: "inception_3b/relu_pool_proj"
  type: "ReLU"
  bottom: "inception_3b/pool_proj"
  top: "inception_3b/pool_proj"
}
layer {
  name: "inception_3b/output"
  type: "Concat"
  bottom: "inception_3b/1x1"
  bottom: "inception_3b/3x3"
  bottom: "inception_3b/5x5"
  bottom: "inception_3b/pool_proj"
  top: "inception_3b/output"
}
layer {
  name: "pool3/3x3_s2"
  type: "Pooling"
  bottom: "inception_3b/output"
  top: "pool3/3x3_s2"
  pooling_param {
    pool: MAX
    kernel_size: 3
    stride: 2
  }
}
layer {
  name: "inception_4a/1x1"
  type: "Convolution"
  bottom: "pool3/3x3_s2"
  top: "inception_4a/1x1"
  param {
    lr_mult: 1
    decay_mult: 1
  }
  param {
    lr_mult: 2
    decay_mult: 0
  }
  convolution_param {
    num_output: 192
    kernel_size: 1
    weight_filler {
      type: "xavier"
      std: 0.03
    }
    bias_filler {
      type: "constant"
      value: 0.2
    }
  }
}
layer {
  name: "inception_4a/relu_1x1"
  type: "ReLU"
  bottom: "inception_4a/1x1"
  top: "inception_4a/1x1"
}
layer {
  name: "inception_4a/3x3_reduce"
  type: "Convolution"
  bottom: "pool3/3x3_s2"
  top: "inception_4a/3x3_reduce"
  param {
    lr_mult: 1
    decay_mult: 1
  }
  param {
    lr_mult: 2
    decay_mult: 0
  }
  convolution_param {
    num_output: 96
    kernel_size: 1
    weight_filler {
      type: "xavier"
      std: 0.09
    }
    bias_filler {
      type: "constant"
      value: 0.2
    }
  }
}
layer {
  name: "inception_4a/relu_3x3_reduce"
  type: "ReLU"
  bottom: "inception_4a/3x3_reduce"
  top: "inception_4a/3x3_reduce"
}
layer {
  name: "inception_4a/3x3"
  type: "Convolution"
  bottom: "inception_4a/3x3_reduce"
  top: "inception_4a/3x3"
  param {
    lr_mult: 1
    decay_mult: 1
  }
  param {
    lr_mult: 2
    decay_mult: 0
  }
  convolution_param {
    num_output: 208
    pad: 1
    kernel_size: 3
    weight_filler {
      type: "xavier"
      std: 0.03
    }
    bias_filler {
      type: "constant"
      value: 0.2
    }
  }
}
layer {
  name: "inception_4a/relu_3x3"
  type: "ReLU"
  bottom: "inception_4a/3x3"
  top: "inception_4a/3x3"
}
layer {
  name: "inception_4a/5x5_reduce"
  type: "Convolution"
  bottom: "pool3/3x3_s2"
  top: "inception_4a/5x5_reduce"
  param {
    lr_mult: 1
    decay_mult: 1
  }
  param {
    lr_mult: 2
    decay_mult: 0
  }
  convolution_param {
    num_output: 16
    kernel_size: 1
    weight_filler {
      type: "xavier"
      std: 0.2
    }
    bias_filler {
      type: "constant"
      value: 0.2
    }
  }
}
layer {
  name: "inception_4a/relu_5x5_reduce"
  type: "ReLU"
  bottom: "inception_4a/5x5_reduce"
  top: "inception_4a/5x5_reduce"
}
layer {
  name: "inception_4a/5x5"
  type: "Convolution"
  bottom: "inception_4a/5x5_reduce"
  top: "inception_4a/5x5"
  param {
    lr_mult: 1
    decay_mult: 1
  }
  param {
    lr_mult: 2
    decay_mult: 0
  }
  convolution_param {
    num_output: 48
    pad: 2
    kernel_size: 5
    weight_filler {
      type: "xavier"
      std: 0.03
    }
    bias_filler {
      type: "constant"
      value: 0.2
    }
  }
}
layer {
  name: "inception_4a/relu_5x5"
  type: "ReLU"
  bottom: "inception_4a/5x5"
  top: "inception_4a/5x5"
}
layer {
  name: "inception_4a/pool"
  type: "Pooling"
  bottom: "pool3/3x3_s2"
  top: "inception_4a/pool"
  pooling_param {
    pool: MAX
    kernel_size: 3
    stride: 1
    pad: 1
  }
}
layer {
  name: "inception_4a/pool_proj"
  type: "Convolution"
  bottom: "inception_4a/pool"
  top: "inception_4a/pool_proj"
  param {
    lr_mult: 1
    decay_mult: 1
  }
  param {
    lr_mult: 2
    decay_mult: 0
  }
  convolution_param {
    num_output: 64
    kernel_size: 1
    weight_filler {
      type: "xavier"
      std: 0.1
    }
    bias_filler {
      type: "constant"
      value: 0.2
    }
  }
}
layer {
  name: "inception_4a/relu_pool_proj"
  type: "ReLU"
  bottom: "inception_4a/pool_proj"
  top: "inception_4a/pool_proj"
}
layer {
  name: "inception_4a/output"
  type: "Concat"
  bottom: "inception_4a/1x1"
  bottom: "inception_4a/3x3"
  bottom: "inception_4a/5x5"
  bottom: "inception_4a/pool_proj"
  top: "inception_4a/output"
}
layer {
  name: "loss1/ave_pool"
  type: "Pooling"
  bottom: "inception_4a/output"
  top: "loss1/ave_pool"
  pooling_param {
    pool: AVE
    kernel_size: 5
    stride: 3
  }
}
layer {
  name: "loss1/conv"
  type: "Convolution"
  bottom: "loss1/ave_pool"
  top: "loss1/conv"
  param {
    lr_mult: 1
    decay_mult: 1
  }
  param {
    lr_mult: 2
    decay_mult: 0
  }
  convolution_param {
    num_output: 128
    kernel_size: 1
    weight_filler {
      type: "xavier"
      std: 0.08
    }
    bias_filler {
      type: "constant"
      value: 0.2
    }
  }
}
layer {
  name: "loss1/relu_conv"
  type: "ReLU"
  bottom: "loss1/conv"
  top: "loss1/conv"
}
layer {
  name: "loss1/fc"
  type: "InnerProduct"
  bottom: "loss1/conv"
  top: "loss1/fc"
  param {
    lr_mult: 1
    decay_mult: 1
  }
  param {
    lr_mult: 2
    decay_mult: 0
  }
  inner_product_param {
    num_output: 1024
    weight_filler {
      type: "xavier"
      std: 0.02
    }
    bias_filler {
      type: "constant"
      value: 0.2
    }
  }
}
layer {
  name: "loss1/relu_fc"
  type: "ReLU"
  bottom: "loss1/fc"
  top: "loss1/fc"
}
layer {
  name: "loss1/drop_fc"
  type: "Dropout"
  bottom: "loss1/fc"
  top: "loss1/fc"
  dropout_param {
    dropout_ratio: 0.7
  }
}
layer {
  name: "loss1/classifier_plantvillage"
  type: "InnerProduct"
  bottom: "loss1/fc"
  top: "loss1/classifier_plantvillage"
  param {
    lr_mult: 1
    decay_mult: 1
  }
  param {
    lr_mult: 2
    decay_mult: 0
  }
  inner_product_param {
    num_output: 38
    weight_filler {
      type: "xavier"
      std: 0.0009765625
    }
    bias_filler {
      type: "constant"
      value: 0
    }
  }
}
layer {
  name: "inception_4b/1x1"
  type: "Convolution"
  bottom: "inception_4a/output"
  top: "inception_4b/1x1"
  param {
    lr_mult: 1
    decay_mult: 1
  }
  param {
    lr_mult: 2
    decay_mult: 0
  }
  convolution_param {
    num_output: 160
    kernel_size: 1
    weight_filler {
      type: "xavier"
      std: 0.03
    }
    bias_filler {
      type: "constant"
      value: 0.2
    }
  }
}
layer {
  name: "inception_4b/relu_1x1"
  type: "ReLU"
  bottom: "inception_4b/1x1"
  top: "inception_4b/1x1"
}
layer {
  name: "inception_4b/3x3_reduce"
  type: "Convolution"
  bottom: "inception_4a/output"
  top: "inception_4b/3x3_reduce"
  param {
    lr_mult: 1
    decay_mult: 1
  }
  param {
    lr_mult: 2
    decay_mult: 0
  }
  convolution_param {
    num_output: 112
    kernel_size: 1
    weight_filler {
      type: "xavier"
      std: 0.09
    }
    bias_filler {
      type: "constant"
      value: 0.2
    }
  }
}
layer {
  name: "inception_4b/relu_3x3_reduce"
  type: "ReLU"
  bottom: "inception_4b/3x3_reduce"
  top: "inception_4b/3x3_reduce"
}
layer {
  name: "inception_4b/3x3"
  type: "Convolution"
  bottom: "inception_4b/3x3_reduce"
  top: "inception_4b/3x3"
  param {
    lr_mult: 1
    decay_mult: 1
  }
  param {
    lr_mult: 2
    decay_mult: 0
  }
  convolution_param {
    num_output: 224
    pad: 1
    kernel_size: 3
    weight_filler {
      type: "xavier"
      std: 0.03
    }
    bias_filler {
      type: "constant"
      value: 0.2
    }
  }
}
layer {
  name: "inception_4b/relu_3x3"
  type: "ReLU"
  bottom: "inception_4b/3x3"
  top: "inception_4b/3x3"
}
layer {
  name: "inception_4b/5x5_reduce"
  type: "Convolution"
  bottom: "inception_4a/output"
  top: "inception_4b/5x5_reduce"
  param {
    lr_mult: 1
    decay_mult: 1
  }
  param {
    lr_mult: 2
    decay_mult: 0
  }
  convolution_param {
    num_output: 24
    kernel_size: 1
    weight_filler {
      type: "xavier"
      std: 0.2
    }
    bias_filler {
      type: "constant"
      value: 0.2
    }
  }
}
layer {
  name: "inception_4b/relu_5x5_reduce"
  type: "ReLU"
  bottom: "inception_4b/5x5_reduce"
  top: "inception_4b/5x5_reduce"
}
layer {
  name: "inception_4b/5x5"
  type: "Convolution"
  bottom: "inception_4b/5x5_reduce"
  top: "inception_4b/5x5"
  param {
    lr_mult: 1
    decay_mult: 1
  }
  param {
    lr_mult: 2
    decay_mult: 0
  }
  convolution_param {
    num_output: 64
    pad: 2
    kernel_size: 5
    weight_filler {
      type: "xavier"
      std: 0.03
    }
    bias_filler {
      type: "constant"
      value: 0.2
    }
  }
}
layer {
  name: "inception_4b/relu_5x5"
  type: "ReLU"
  bottom: "inception_4b/5x5"
  top: "inception_4b/5x5"
}
layer {
  name: "inception_4b/pool"
  type: "Pooling"
  bottom: "inception_4a/output"
  top: "inception_4b/pool"
  pooling_param {
    pool: MAX
    kernel_size: 3
    stride: 1
    pad: 1
  }
}
layer {
  name: "inception_4b/pool_proj"
  type: "Convolution"
  bottom: "inception_4b/pool"
  top: "inception_4b/pool_proj"
  param {
    lr_mult: 1
    decay_mult: 1
  }
  param {
    lr_mult: 2
    decay_mult: 0
  }
  convolution_param {
    num_output: 64
    kernel_size: 1
    weight_filler {
      type: "xavier"
      std: 0.1
    }
    bias_filler {
      type: "constant"
      value: 0.2
    }
  }
}
layer {
  name: "inception_4b/relu_pool_proj"
  type: "ReLU"
  bottom: "inception_4b/pool_proj"
  top: "inception_4b/pool_proj"
}
layer {
  name: "inception_4b/output"
  type: "Concat"
  bottom: "inception_4b/1x1"
  bottom: "inception_4b/3x3"
  bottom: "inception_4b/5x5"
  bottom: "inception_4b/pool_proj"
  top: "inception_4b/output"
}
layer {
  name: "inception_4c/1x1"
  type: "Convolution"
  bottom: "inception_4b/output"
  top: "inception_4c/1x1"
  param {
    lr_mult: 1
    decay_mult: 1
  }
  param {
    lr_mult: 2
    decay_mult: 0
  }
  convolution_param {
    num_output: 128
    kernel_size: 1
    weight_filler {
      type: "xavier"
      std: 0.03
    }
    bias_filler {
      type: "constant"
      value: 0.2
    }
  }
}
layer {
  name: "inception_4c/relu_1x1"
  type: "ReLU"
  bottom: "inception_4c/1x1"
  top: "inception_4c/1x1"
}
layer {
  name: "inception_4c/3x3_reduce"
  type: "Convolution"
  bottom: "inception_4b/output"
  top: "inception_4c/3x3_reduce"
  param {
    lr_mult: 1
    decay_mult: 1
  }
  param {
    lr_mult: 2
    decay_mult: 0
  }
  convolution_param {
    num_output: 128
    kernel_size: 1
    weight_filler {
      type: "xavier"
      std: 0.09
    }
    bias_filler {
      type: "constant"
      value: 0.2
    }
  }
}
layer {
  name: "inception_4c/relu_3x3_reduce"
  type: "ReLU"
  bottom: "inception_4c/3x3_reduce"
  top: "inception_4c/3x3_reduce"
}
layer {
  name: "inception_4c/3x3"
  type: "Convolution"
  bottom: "inception_4c/3x3_reduce"
  top: "inception_4c/3x3"
  param {
    lr_mult: 1
    decay_mult: 1
  }
  param {
    lr_mult: 2
    decay_mult: 0
  }
  convolution_param {
    num_output: 256
    pad: 1
    kernel_size: 3
    weight_filler {
      type: "xavier"
      std: 0.03
    }
    bias_filler {
      type: "constant"
      value: 0.2
    }
  }
}
layer {
  name: "inception_4c/relu_3x3"
  type: "ReLU"
  bottom: "inception_4c/3x3"
  top: "inception_4c/3x3"
}
layer {
  name: "inception_4c/5x5_reduce"
  type: "Convolution"
  bottom: "inception_4b/output"
  top: "inception_4c/5x5_reduce"
  param {
    lr_mult: 1
    decay_mult: 1
  }
  param {
    lr_mult: 2
    decay_mult: 0
  }
  convolution_param {
    num_output: 24
    kernel_size: 1
    weight_filler {
      type: "xavier"
      std: 0.2
    }
    bias_filler {
      type: "constant"
      value: 0.2
    }
  }
}
layer {
  name: "inception_4c/relu_5x5_reduce"
  type: "ReLU"
  bottom: "inception_4c/5x5_reduce"
  top: "inception_4c/5x5_reduce"
}
layer {
  name: "inception_4c/5x5"
  type: "Convolution"
  bottom: "inception_4c/5x5_reduce"
  top: "inception_4c/5x5"
  param {
    lr_mult: 1
    decay_mult: 1
  }
  param {
    lr_mult: 2
    decay_mult: 0
  }
  convolution_param {
    num_output: 64
    pad: 2
    kernel_size: 5
    weight_filler {
      type: "xavier"
      std: 0.03
    }
    bias_filler {
      type: "constant"
      value: 0.2
    }
  }
}
layer {
  name: "inception_4c/relu_5x5"
  type: "ReLU"
  bottom: "inception_4c/5x5"
  top: "inception_4c/5x5"
}
layer {
  name: "inception_4c/pool"
  type: "Pooling"
  bottom: "inception_4b/output"
  top: "inception_4c/pool"
  pooling_param {
    pool: MAX
    kernel_size: 3
    stride: 1
    pad: 1
  }
}
layer {
  name: "inception_4c/pool_proj"
  type: "Convolution"
  bottom: "inception_4c/pool"
  top: "inception_4c/pool_proj"
  param {
    lr_mult: 1
    decay_mult: 1
  }
  param {
    lr_mult: 2
    decay_mult: 0
  }
  convolution_param {
    num_output: 64
    kernel_size: 1
    weight_filler {
      type: "xavier"
      std: 0.1
    }
    bias_filler {
      type: "constant"
      value: 0.2
    }
  }
}
layer {
  name: "inception_4c/relu_pool_proj"
  type: "ReLU"
  bottom: "inception_4c/pool_proj"
  top: "inception_4c/pool_proj"
}
layer {
  name: "inception_4c/output"
  type: "Concat"
  bottom: "inception_4c/1x1"
  bottom: "inception_4c/3x3"
  bottom: "inception_4c/5x5"
  bottom: "inception_4c/pool_proj"
  top: "inception_4c/output"
}
layer {
  name: "inception_4d/1x1"
  type: "Convolution"
  bottom: "inception_4c/output"
  top: "inception_4d/1x1"
  param {
    lr_mult: 1
    decay_mult: 1
  }
  param {
    lr_mult: 2
    decay_mult: 0
  }
  convolution_param {
    num_output: 112
    kernel_size: 1
    weight_filler {
      type: "xavier"
      std: 0.03
    }
    bias_filler {
      type: "constant"
      value: 0.2
    }
  }
}
layer {
  name: "inception_4d/relu_1x1"
  type: "ReLU"
  bottom: "inception_4d/1x1"
  top: "inception_4d/1x1"
}
layer {
  name: "inception_4d/3x3_reduce"
  type: "Convolution"
  bottom: "inception_4c/output"
  top: "inception_4d/3x3_reduce"
  param {
    lr_mult: 1
    decay_mult: 1
  }
  param {
    lr_mult: 2
    decay_mult: 0
  }
  convolution_param {
    num_output: 144
    kernel_size: 1
    weight_filler {
      type: "xavier"
      std: 0.09
    }
    bias_filler {
      type: "constant"
      value: 0.2
    }
  }
}
layer {
  name: "inception_4d/relu_3x3_reduce"
  type: "ReLU"
  bottom: "inception_4d/3x3_reduce"
  top: "inception_4d/3x3_reduce"
}
layer {
  name: "inception_4d/3x3"
  type: "Convolution"
  bottom: "inception_4d/3x3_reduce"
  top: "inception_4d/3x3"
  param {
    lr_mult: 1
    decay_mult: 1
  }
  param {
    lr_mult: 2
    decay_mult: 0
  }
  convolution_param {
    num_output: 288
    pad: 1
    kernel_size: 3
    weight_filler {
      type: "xavier"
      std: 0.03
    }
    bias_filler {
      type: "constant"
      value: 0.2
    }
  }
}
layer {
  name: "inception_4d/relu_3x3"
  type: "ReLU"
  bottom: "inception_4d/3x3"
  top: "inception_4d/3x3"
}
layer {
  name: "inception_4d/5x5_reduce"
  type: "Convolution"
  bottom: "inception_4c/output"
  top: "inception_4d/5x5_reduce"
  param {
    lr_mult: 1
    decay_mult: 1
  }
  param {
    lr_mult: 2
    decay_mult: 0
  }
  convolution_param {
    num_output: 32
    kernel_size: 1
    weight_filler {
      type: "xavier"
      std: 0.2
    }
    bias_filler {
      type: "constant"
      value: 0.2
    }
  }
}
layer {
  name: "inception_4d/relu_5x5_reduce"
  type: "ReLU"
  bottom: "inception_4d/5x5_reduce"
  top: "inception_4d/5x5_reduce"
}
layer {
  name: "inception_4d/5x5"
  type: "Convolution"
  bottom: "inception_4d/5x5_reduce"
  top: "inception_4d/5x5"
  param {
    lr_mult: 1
    decay_mult: 1
  }
  param {
    lr_mult: 2
    decay_mult: 0
  }
  convolution_param {
    num_output: 64
    pad: 2
    kernel_size: 5
    weight_filler {
      type: "xavier"
      std: 0.03
    }
    bias_filler {
      type: "constant"
      value: 0.2
    }
  }
}
layer {
  name: "inception_4d/relu_5x5"
  type: "ReLU"
  bottom: "inception_4d/5x5"
  top: "inception_4d/5x5"
}
layer {
  name: "inception_4d/pool"
  type: "Pooling"
  bottom: "inception_4c/output"
  top: "inception_4d/pool"
  pooling_param {
    pool: MAX
    kernel_size: 3
    stride: 1
    pad: 1
  }
}
layer {
  name: "inception_4d/pool_proj"
  type: "Convolution"
  bottom: "inception_4d/pool"
  top: "inception_4d/pool_proj"
  param {
    lr_mult: 1
    decay_mult: 1
  }
  param {
    lr_mult: 2
    decay_mult: 0
  }
  convolution_param {
    num_output: 64
    kernel_size: 1
    weight_filler {
      type: "xavier"
      std: 0.1
    }
    bias_filler {
      type: "constant"
      value: 0.2
    }
  }
}
layer {
  name: "inception_4d/relu_pool_proj"
  type: "ReLU"
  bottom: "inception_4d/pool_proj"
  top: "inception_4d/pool_proj"
}
layer {
  name: "inception_4d/output"
  type: "Concat"
  bottom: "inception_4d/1x1"
  bottom: "inception_4d/3x3"
  bottom: "inception_4d/5x5"
  bottom: "inception_4d/pool_proj"
  top: "inception_4d/output"
}
layer {
  name: "loss2/ave_pool"
  type: "Pooling"
  bottom: "inception_4d/output"
  top: "loss2/ave_pool"
  pooling_param {
    pool: AVE
    kernel_size: 5
    stride: 3
  }
}
layer {
  name: "loss2/conv"
  type: "Convolution"
  bottom: "loss2/ave_pool"
  top: "loss2/conv"
  param {
    lr_mult: 1
    decay_mult: 1
  }
  param {
    lr_mult: 2
    decay_mult: 0
  }
  convolution_param {
    num_output: 128
    kernel_size: 1
    weight_filler {
      type: "xavier"
      std: 0.08
    }
    bias_filler {
      type: "constant"
      value: 0.2
    }
  }
}
layer {
  name: "loss2/relu_conv"
  type: "ReLU"
  bottom: "loss2/conv"
  top: "loss2/conv"
}
layer {
  name: "loss2/fc"
  type: "InnerProduct"
  bottom: "loss2/conv"
  top: "loss2/fc"
  param {
    lr_mult: 1
    decay_mult: 1
  }
  param {
    lr_mult: 2
    decay_mult: 0
  }
  inner_product_param {
    num_output: 1024
    weight_filler {
      type: "xavier"
      std: 0.02
    }
    bias_filler {
      type: "constant"
      value: 0.2
    }
  }
}
layer {
  name: "loss2/relu_fc"
  type: "ReLU"
  bottom: "loss2/fc"
  top: "loss2/fc"
}
layer {
  name: "loss2/drop_fc"
  type: "Dropout"
  bottom: "loss2/fc"
  top: "loss2/fc"
  dropout_param {
    dropout_ratio: 0.7
  }
}
layer {
  name: "loss2/classifier_plantvillage"
  type: "InnerProduct"
  bottom: "loss2/fc"
  top: "loss2/classifier_plantvillage"
  param {
    lr_mult: 1
    decay_mult: 1
  }
  param {
    lr_mult: 2
    decay_mult: 0
  }
  inner_product_param {
    num_output: 38
    weight_filler {
      type: "xavier"
      std: 0.0009765625
    }
    bias_filler {
      type: "constant"
      value: 0
    }
  }
}
layer {
  name: "inception_4e/1x1"
  type: "Convolution"
  bottom: "inception_4d/output"
  top: "inception_4e/1x1"
  param {
    lr_mult: 1
    decay_mult: 1
  }
  param {
    lr_mult: 2
    decay_mult: 0
  }
  convolution_param {
    num_output: 256
    kernel_size: 1
    weight_filler {
      type: "xavier"
      std: 0.03
    }
    bias_filler {
      type: "constant"
      value: 0.2
    }
  }
}
layer {
  name: "inception_4e/relu_1x1"
  type: "ReLU"
  bottom: "inception_4e/1x1"
  top: "inception_4e/1x1"
}
layer {
  name: "inception_4e/3x3_reduce"
  type: "Convolution"
  bottom: "inception_4d/output"
  top: "inception_4e/3x3_reduce"
  param {
    lr_mult: 1
    decay_mult: 1
  }
  param {
    lr_mult: 2
    decay_mult: 0
  }
  convolution_param {
    num_output: 160
    kernel_size: 1
    weight_filler {
      type: "xavier"
      std: 0.09
    }
    bias_filler {
      type: "constant"
      value: 0.2
    }
  }
}
layer {
  name: "inception_4e/relu_3x3_reduce"
  type: "ReLU"
  bottom: "inception_4e/3x3_reduce"
  top: "inception_4e/3x3_reduce"
}
layer {
  name: "inception_4e/3x3"
  type: "Convolution"
  bottom: "inception_4e/3x3_reduce"
  top: "inception_4e/3x3"
  param {
    lr_mult: 1
    decay_mult: 1
  }
  param {
    lr_mult: 2
    decay_mult: 0
  }
  convolution_param {
    num_output: 320
    pad: 1
    kernel_size: 3
    weight_filler {
      type: "xavier"
      std: 0.03
    }
    bias_filler {
      type: "constant"
      value: 0.2
    }
  }
}
layer {
  name: "inception_4e/relu_3x3"
  type: "ReLU"
  bottom: "inception_4e/3x3"
  top: "inception_4e/3x3"
}
layer {
  name: "inception_4e/5x5_reduce"
  type: "Convolution"
  bottom: "inception_4d/output"
  top: "inception_4e/5x5_reduce"
  param {
    lr_mult: 1
    decay_mult: 1
  }
  param {
    lr_mult: 2
    decay_mult: 0
  }
  convolution_param {
    num_output: 32
    kernel_size: 1
    weight_filler {
      type: "xavier"
      std: 0.2
    }
    bias_filler {
      type: "constant"
      value: 0.2
    }
  }
}
layer {
  name: "inception_4e/relu_5x5_reduce"
  type: "ReLU"
  bottom: "inception_4e/5x5_reduce"
  top: "inception_4e/5x5_reduce"
}
layer {
  name: "inception_4e/5x5"
  type: "Convolution"
  bottom: "inception_4e/5x5_reduce"
  top: "inception_4e/
I0403 18:11:02.397778  6670 layer_factory.hpp:77] Creating layer data
I0403 18:11:02.398409  6670 net.cpp:91] Creating Layer data
I0403 18:11:02.398442  6670 net.cpp:399] data -> data
I0403 18:11:02.398496  6670 net.cpp:399] data -> label
I0403 18:11:02.398538  6670 data_transformer.cpp:25] Loading mean file from: /home/mohanty/data/final_dataset/lmdb/segmented-50-50/mean.binaryproto
I0403 18:11:02.399597  6673 db_lmdb.cpp:38] Opened lmdb /home/mohanty/data/final_dataset/lmdb/segmented-50-50/test_db
I0403 18:11:02.411530  6670 data_layer.cpp:41] output data size: 24,3,224,224
I0403 18:11:02.438503  6670 net.cpp:141] Setting up data
I0403 18:11:02.438570  6670 net.cpp:148] Top shape: 24 3 224 224 (3612672)
I0403 18:11:02.438593  6670 net.cpp:148] Top shape: 24 (24)
I0403 18:11:02.438611  6670 net.cpp:156] Memory required for data: 14450784
I0403 18:11:02.438638  6670 layer_factory.hpp:77] Creating layer label_data_1_split
I0403 18:11:02.438664  6670 net.cpp:91] Creating Layer label_data_1_split
I0403 18:11:02.438683  6670 net.cpp:425] label_data_1_split <- label
I0403 18:11:02.438716  6670 net.cpp:399] label_data_1_split -> label_data_1_split_0
I0403 18:11:02.438743  6670 net.cpp:399] label_data_1_split -> label_data_1_split_1
I0403 18:11:02.438766  6670 net.cpp:399] label_data_1_split -> label_data_1_split_2
I0403 18:11:02.438786  6670 net.cpp:399] label_data_1_split -> label_data_1_split_3
I0403 18:11:02.438805  6670 net.cpp:399] label_data_1_split -> label_data_1_split_4
I0403 18:11:02.438825  6670 net.cpp:399] label_data_1_split -> label_data_1_split_5
I0403 18:11:02.438845  6670 net.cpp:399] label_data_1_split -> label_data_1_split_6
I0403 18:11:02.438866  6670 net.cpp:399] label_data_1_split -> label_data_1_split_7
I0403 18:11:02.438886  6670 net.cpp:399] label_data_1_split -> label_data_1_split_8
I0403 18:11:02.438906  6670 net.cpp:399] label_data_1_split -> label_data_1_split_9
I0403 18:11:02.439023  6670 net.cpp:141] Setting up label_data_1_split
I0403 18:11:02.439048  6670 net.cpp:148] Top shape: 24 (24)
I0403 18:11:02.439065  6670 net.cpp:148] Top shape: 24 (24)
I0403 18:11:02.439082  6670 net.cpp:148] Top shape: 24 (24)
I0403 18:11:02.439100  6670 net.cpp:148] Top shape: 24 (24)
I0403 18:11:02.439116  6670 net.cpp:148] Top shape: 24 (24)
I0403 18:11:02.439131  6670 net.cpp:148] Top shape: 24 (24)
I0403 18:11:02.439147  6670 net.cpp:148] Top shape: 24 (24)
I0403 18:11:02.439164  6670 net.cpp:148] Top shape: 24 (24)
I0403 18:11:02.439180  6670 net.cpp:148] Top shape: 24 (24)
I0403 18:11:02.439199  6670 net.cpp:148] Top shape: 24 (24)
I0403 18:11:02.439275  6670 net.cpp:156] Memory required for data: 14451744
I0403 18:11:02.439293  6670 layer_factory.hpp:77] Creating layer conv1/7x7_s2
I0403 18:11:02.439326  6670 net.cpp:91] Creating Layer conv1/7x7_s2
I0403 18:11:02.439347  6670 net.cpp:425] conv1/7x7_s2 <- data
I0403 18:11:02.439368  6670 net.cpp:399] conv1/7x7_s2 -> conv1/7x7_s2
I0403 18:11:02.580327  6670 net.cpp:141] Setting up conv1/7x7_s2
I0403 18:11:02.580440  6670 net.cpp:148] Top shape: 24 64 112 112 (19267584)
I0403 18:11:02.580456  6670 net.cpp:156] Memory required for data: 91522080
I0403 18:11:02.580487  6670 layer_factory.hpp:77] Creating layer conv1/relu_7x7
I0403 18:11:02.580513  6670 net.cpp:91] Creating Layer conv1/relu_7x7
I0403 18:11:02.580531  6670 net.cpp:425] conv1/relu_7x7 <- conv1/7x7_s2
I0403 18:11:02.580550  6670 net.cpp:386] conv1/relu_7x7 -> conv1/7x7_s2 (in-place)
I0403 18:11:02.580796  6670 net.cpp:141] Setting up conv1/relu_7x7
I0403 18:11:02.580822  6670 net.cpp:148] Top shape: 24 64 112 112 (19267584)
I0403 18:11:02.580837  6670 net.cpp:156] Memory required for data: 168592416
I0403 18:11:02.580852  6670 layer_factory.hpp:77] Creating layer pool1/3x3_s2
I0403 18:11:02.580876  6670 net.cpp:91] Creating Layer pool1/3x3_s2
I0403 18:11:02.580893  6670 net.cpp:425] pool1/3x3_s2 <- conv1/7x7_s2
I0403 18:11:02.580912  6670 net.cpp:399] pool1/3x3_s2 -> pool1/3x3_s2
I0403 18:11:02.580982  6670 net.cpp:141] Setting up pool1/3x3_s2
I0403 18:11:02.581007  6670 net.cpp:148] Top shape: 24 64 56 56 (4816896)
I0403 18:11:02.581022  6670 net.cpp:156] Memory required for data: 187860000
I0403 18:11:02.581037  6670 layer_factory.hpp:77] Creating layer pool1/norm1
I0403 18:11:02.581059  6670 net.cpp:91] Creating Layer pool1/norm1
I0403 18:11:02.581076  6670 net.cpp:425] pool1/norm1 <- pool1/3x3_s2
I0403 18:11:02.581094  6670 net.cpp:399] pool1/norm1 -> pool1/norm1
I0403 18:11:02.581378  6670 net.cpp:141] Setting up pool1/norm1
I0403 18:11:02.581405  6670 net.cpp:148] Top shape: 24 64 56 56 (4816896)
I0403 18:11:02.581420  6670 net.cpp:156] Memory required for data: 207127584
I0403 18:11:02.581436  6670 layer_factory.hpp:77] Creating layer conv2/3x3_reduce
I0403 18:11:02.581460  6670 net.cpp:91] Creating Layer conv2/3x3_reduce
I0403 18:11:02.581477  6670 net.cpp:425] conv2/3x3_reduce <- pool1/norm1
I0403 18:11:02.581496  6670 net.cpp:399] conv2/3x3_reduce -> conv2/3x3_reduce
I0403 18:11:02.582830  6670 net.cpp:141] Setting up conv2/3x3_reduce
I0403 18:11:02.582861  6670 net.cpp:148] Top shape: 24 64 56 56 (4816896)
I0403 18:11:02.582876  6670 net.cpp:156] Memory required for data: 226395168
I0403 18:11:02.582897  6670 layer_factory.hpp:77] Creating layer conv2/relu_3x3_reduce
I0403 18:11:02.582914  6670 net.cpp:91] Creating Layer conv2/relu_3x3_reduce
I0403 18:11:02.582931  6670 net.cpp:425] conv2/relu_3x3_reduce <- conv2/3x3_reduce
I0403 18:11:02.582947  6670 net.cpp:386] conv2/relu_3x3_reduce -> conv2/3x3_reduce (in-place)
I0403 18:11:02.583214  6670 net.cpp:141] Setting up conv2/relu_3x3_reduce
I0403 18:11:02.583242  6670 net.cpp:148] Top shape: 24 64 56 56 (4816896)
I0403 18:11:02.583257  6670 net.cpp:156] Memory required for data: 245662752
I0403 18:11:02.583273  6670 layer_factory.hpp:77] Creating layer conv2/3x3
I0403 18:11:02.583297  6670 net.cpp:91] Creating Layer conv2/3x3
I0403 18:11:02.583313  6670 net.cpp:425] conv2/3x3 <- conv2/3x3_reduce
I0403 18:11:02.583334  6670 net.cpp:399] conv2/3x3 -> conv2/3x3
I0403 18:11:02.585623  6670 net.cpp:141] Setting up conv2/3x3
I0403 18:11:02.585655  6670 net.cpp:148] Top shape: 24 192 56 56 (14450688)
I0403 18:11:02.585672  6670 net.cpp:156] Memory required for data: 303465504
I0403 18:11:02.585693  6670 layer_factory.hpp:77] Creating layer conv2/relu_3x3
I0403 18:11:02.585712  6670 net.cpp:91] Creating Layer conv2/relu_3x3
I0403 18:11:02.585727  6670 net.cpp:425] conv2/relu_3x3 <- conv2/3x3
I0403 18:11:02.585747  6670 net.cpp:386] conv2/relu_3x3 -> conv2/3x3 (in-place)
I0403 18:11:02.585922  6670 net.cpp:141] Setting up conv2/relu_3x3
I0403 18:11:02.585947  6670 net.cpp:148] Top shape: 24 192 56 56 (14450688)
I0403 18:11:02.585994  6670 net.cpp:156] Memory required for data: 361268256
I0403 18:11:02.586010  6670 layer_factory.hpp:77] Creating layer conv2/norm2
I0403 18:11:02.586030  6670 net.cpp:91] Creating Layer conv2/norm2
I0403 18:11:02.586047  6670 net.cpp:425] conv2/norm2 <- conv2/3x3
I0403 18:11:02.586066  6670 net.cpp:399] conv2/norm2 -> conv2/norm2
I0403 18:11:02.586369  6670 net.cpp:141] Setting up conv2/norm2
I0403 18:11:02.586395  6670 net.cpp:148] Top shape: 24 192 56 56 (14450688)
I0403 18:11:02.586410  6670 net.cpp:156] Memory required for data: 419071008
I0403 18:11:02.586424  6670 layer_factory.hpp:77] Creating layer pool2/3x3_s2
I0403 18:11:02.586444  6670 net.cpp:91] Creating Layer pool2/3x3_s2
I0403 18:11:02.586462  6670 net.cpp:425] pool2/3x3_s2 <- conv2/norm2
I0403 18:11:02.586482  6670 net.cpp:399] pool2/3x3_s2 -> pool2/3x3_s2
I0403 18:11:02.586532  6670 net.cpp:141] Setting up pool2/3x3_s2
I0403 18:11:02.586555  6670 net.cpp:148] Top shape: 24 192 28 28 (3612672)
I0403 18:11:02.586570  6670 net.cpp:156] Memory required for data: 433521696
I0403 18:11:02.586583  6670 layer_factory.hpp:77] Creating layer pool2/3x3_s2_pool2/3x3_s2_0_split
I0403 18:11:02.586604  6670 net.cpp:91] Creating Layer pool2/3x3_s2_pool2/3x3_s2_0_split
I0403 18:11:02.586621  6670 net.cpp:425] pool2/3x3_s2_pool2/3x3_s2_0_split <- pool2/3x3_s2
I0403 18:11:02.586637  6670 net.cpp:399] pool2/3x3_s2_pool2/3x3_s2_0_split -> pool2/3x3_s2_pool2/3x3_s2_0_split_0
I0403 18:11:02.586658  6670 net.cpp:399] pool2/3x3_s2_pool2/3x3_s2_0_split -> pool2/3x3_s2_pool2/3x3_s2_0_split_1
I0403 18:11:02.586678  6670 net.cpp:399] pool2/3x3_s2_pool2/3x3_s2_0_split -> pool2/3x3_s2_pool2/3x3_s2_0_split_2
I0403 18:11:02.586697  6670 net.cpp:399] pool2/3x3_s2_pool2/3x3_s2_0_split -> pool2/3x3_s2_pool2/3x3_s2_0_split_3
I0403 18:11:02.586766  6670 net.cpp:141] Setting up pool2/3x3_s2_pool2/3x3_s2_0_split
I0403 18:11:02.586788  6670 net.cpp:148] Top shape: 24 192 28 28 (3612672)
I0403 18:11:02.586804  6670 net.cpp:148] Top shape: 24 192 28 28 (3612672)
I0403 18:11:02.586819  6670 net.cpp:148] Top shape: 24 192 28 28 (3612672)
I0403 18:11:02.586836  6670 net.cpp:148] Top shape: 24 192 28 28 (3612672)
I0403 18:11:02.586849  6670 net.cpp:156] Memory required for data: 491324448
I0403 18:11:02.586863  6670 layer_factory.hpp:77] Creating layer inception_3a/1x1
I0403 18:11:02.586885  6670 net.cpp:91] Creating Layer inception_3a/1x1
I0403 18:11:02.586902  6670 net.cpp:425] inception_3a/1x1 <- pool2/3x3_s2_pool2/3x3_s2_0_split_0
I0403 18:11:02.586923  6670 net.cpp:399] inception_3a/1x1 -> inception_3a/1x1
I0403 18:11:02.588465  6670 net.cpp:141] Setting up inception_3a/1x1
I0403 18:11:02.588498  6670 net.cpp:148] Top shape: 24 64 28 28 (1204224)
I0403 18:11:02.588515  6670 net.cpp:156] Memory required for data: 496141344
I0403 18:11:02.588534  6670 layer_factory.hpp:77] Creating layer inception_3a/relu_1x1
I0403 18:11:02.588553  6670 net.cpp:91] Creating Layer inception_3a/relu_1x1
I0403 18:11:02.588569  6670 net.cpp:425] inception_3a/relu_1x1 <- inception_3a/1x1
I0403 18:11:02.588589  6670 net.cpp:386] inception_3a/relu_1x1 -> inception_3a/1x1 (in-place)
I0403 18:11:02.588759  6670 net.cpp:141] Setting up inception_3a/relu_1x1
I0403 18:11:02.588784  6670 net.cpp:148] Top shape: 24 64 28 28 (1204224)
I0403 18:11:02.588799  6670 net.cpp:156] Memory required for data: 500958240
I0403 18:11:02.588815  6670 layer_factory.hpp:77] Creating layer inception_3a/3x3_reduce
I0403 18:11:02.588837  6670 net.cpp:91] Creating Layer inception_3a/3x3_reduce
I0403 18:11:02.588855  6670 net.cpp:425] inception_3a/3x3_reduce <- pool2/3x3_s2_pool2/3x3_s2_0_split_1
I0403 18:11:02.588876  6670 net.cpp:399] inception_3a/3x3_reduce -> inception_3a/3x3_reduce
I0403 18:11:02.590545  6670 net.cpp:141] Setting up inception_3a/3x3_reduce
I0403 18:11:02.590579  6670 net.cpp:148] Top shape: 24 96 28 28 (1806336)
I0403 18:11:02.590595  6670 net.cpp:156] Memory required for data: 508183584
I0403 18:11:02.590617  6670 layer_factory.hpp:77] Creating layer inception_3a/relu_3x3_reduce
I0403 18:11:02.590654  6670 net.cpp:91] Creating Layer inception_3a/relu_3x3_reduce
I0403 18:11:02.590672  6670 net.cpp:425] inception_3a/relu_3x3_reduce <- inception_3a/3x3_reduce
I0403 18:11:02.590689  6670 net.cpp:386] inception_3a/relu_3x3_reduce -> inception_3a/3x3_reduce (in-place)
I0403 18:11:02.590867  6670 net.cpp:141] Setting up inception_3a/relu_3x3_reduce
I0403 18:11:02.590891  6670 net.cpp:148] Top shape: 24 96 28 28 (1806336)
I0403 18:11:02.590906  6670 net.cpp:156] Memory required for data: 515408928
I0403 18:11:02.590921  6670 layer_factory.hpp:77] Creating layer inception_3a/3x3
I0403 18:11:02.590945  6670 net.cpp:91] Creating Layer inception_3a/3x3
I0403 18:11:02.590961  6670 net.cpp:425] inception_3a/3x3 <- inception_3a/3x3_reduce
I0403 18:11:02.590981  6670 net.cpp:399] inception_3a/3x3 -> inception_3a/3x3
I0403 18:11:02.592586  6670 net.cpp:141] Setting up inception_3a/3x3
I0403 18:11:02.592614  6670 net.cpp:148] Top shape: 24 128 28 28 (2408448)
I0403 18:11:02.592629  6670 net.cpp:156] Memory required for data: 525042720
I0403 18:11:02.592649  6670 layer_factory.hpp:77] Creating layer inception_3a/relu_3x3
I0403 18:11:02.592666  6670 net.cpp:91] Creating Layer inception_3a/relu_3x3
I0403 18:11:02.592681  6670 net.cpp:425] inception_3a/relu_3x3 <- inception_3a/3x3
I0403 18:11:02.592700  6670 net.cpp:386] inception_3a/relu_3x3 -> inception_3a/3x3 (in-place)
I0403 18:11:02.592963  6670 net.cpp:141] Setting up inception_3a/relu_3x3
I0403 18:11:02.592989  6670 net.cpp:148] Top shape: 24 128 28 28 (2408448)
I0403 18:11:02.593004  6670 net.cpp:156] Memory required for data: 534676512
I0403 18:11:02.593019  6670 layer_factory.hpp:77] Creating layer inception_3a/5x5_reduce
I0403 18:11:02.593042  6670 net.cpp:91] Creating Layer inception_3a/5x5_reduce
I0403 18:11:02.593060  6670 net.cpp:425] inception_3a/5x5_reduce <- pool2/3x3_s2_pool2/3x3_s2_0_split_2
I0403 18:11:02.593080  6670 net.cpp:399] inception_3a/5x5_reduce -> inception_3a/5x5_reduce
I0403 18:11:02.594010  6670 net.cpp:141] Setting up inception_3a/5x5_reduce
I0403 18:11:02.594039  6670 net.cpp:148] Top shape: 24 16 28 28 (301056)
I0403 18:11:02.594058  6670 net.cpp:156] Memory required for data: 535880736
I0403 18:11:02.594076  6670 layer_factory.hpp:77] Creating layer inception_3a/relu_5x5_reduce
I0403 18:11:02.594094  6670 net.cpp:91] Creating Layer inception_3a/relu_5x5_reduce
I0403 18:11:02.594108  6670 net.cpp:425] inception_3a/relu_5x5_reduce <- inception_3a/5x5_reduce
I0403 18:11:02.594127  6670 net.cpp:386] inception_3a/relu_5x5_reduce -> inception_3a/5x5_reduce (in-place)
I0403 18:11:02.594429  6670 net.cpp:141] Setting up inception_3a/relu_5x5_reduce
I0403 18:11:02.594455  6670 net.cpp:148] Top shape: 24 16 28 28 (301056)
I0403 18:11:02.594483  6670 net.cpp:156] Memory required for data: 537084960
I0403 18:11:02.594498  6670 layer_factory.hpp:77] Creating layer inception_3a/5x5
I0403 18:11:02.594521  6670 net.cpp:91] Creating Layer inception_3a/5x5
I0403 18:11:02.594537  6670 net.cpp:425] inception_3a/5x5 <- inception_3a/5x5_reduce
I0403 18:11:02.594558  6670 net.cpp:399] inception_3a/5x5 -> inception_3a/5x5
I0403 18:11:02.595530  6670 net.cpp:141] Setting up inception_3a/5x5
I0403 18:11:02.595557  6670 net.cpp:148] Top shape: 24 32 28 28 (602112)
I0403 18:11:02.595572  6670 net.cpp:156] Memory required for data: 539493408
I0403 18:11:02.595592  6670 layer_factory.hpp:77] Creating layer inception_3a/relu_5x5
I0403 18:11:02.595608  6670 net.cpp:91] Creating Layer inception_3a/relu_5x5
I0403 18:11:02.595624  6670 net.cpp:425] inception_3a/relu_5x5 <- inception_3a/5x5
I0403 18:11:02.595644  6670 net.cpp:386] inception_3a/relu_5x5 -> inception_3a/5x5 (in-place)
I0403 18:11:02.595810  6670 net.cpp:141] Setting up inception_3a/relu_5x5
I0403 18:11:02.595834  6670 net.cpp:148] Top shape: 24 32 28 28 (602112)
I0403 18:11:02.595849  6670 net.cpp:156] Memory required for data: 541901856
I0403 18:11:02.595863  6670 layer_factory.hpp:77] Creating layer inception_3a/pool
I0403 18:11:02.595883  6670 net.cpp:91] Creating Layer inception_3a/pool
I0403 18:11:02.595912  6670 net.cpp:425] inception_3a/pool <- pool2/3x3_s2_pool2/3x3_s2_0_split_3
I0403 18:11:02.595930  6670 net.cpp:399] inception_3a/pool -> inception_3a/pool
I0403 18:11:02.595986  6670 net.cpp:141] Setting up inception_3a/pool
I0403 18:11:02.596009  6670 net.cpp:148] Top shape: 24 192 28 28 (3612672)
I0403 18:11:02.596022  6670 net.cpp:156] Memory required for data: 556352544
I0403 18:11:02.596036  6670 layer_factory.hpp:77] Creating layer inception_3a/pool_proj
I0403 18:11:02.596057  6670 net.cpp:91] Creating Layer inception_3a/pool_proj
I0403 18:11:02.596074  6670 net.cpp:425] inception_3a/pool_proj <- inception_3a/pool
I0403 18:11:02.596096  6670 net.cpp:399] inception_3a/pool_proj -> inception_3a/pool_proj
I0403 18:11:02.597028  6670 net.cpp:141] Setting up inception_3a/pool_proj
I0403 18:11:02.597055  6670 net.cpp:148] Top shape: 24 32 28 28 (602112)
I0403 18:11:02.597074  6670 net.cpp:156] Memory required for data: 558760992
I0403 18:11:02.597097  6670 layer_factory.hpp:77] Creating layer inception_3a/relu_pool_proj
I0403 18:11:02.597116  6670 net.cpp:91] Creating Layer inception_3a/relu_pool_proj
I0403 18:11:02.597133  6670 net.cpp:425] inception_3a/relu_pool_proj <- inception_3a/pool_proj
I0403 18:11:02.597153  6670 net.cpp:386] inception_3a/relu_pool_proj -> inception_3a/pool_proj (in-place)
I0403 18:11:02.597432  6670 net.cpp:141] Setting up inception_3a/relu_pool_proj
I0403 18:11:02.597458  6670 net.cpp:148] Top shape: 24 32 28 28 (602112)
I0403 18:11:02.597475  6670 net.cpp:156] Memory required for data: 561169440
I0403 18:11:02.597489  6670 layer_factory.hpp:77] Creating layer inception_3a/output
I0403 18:11:02.597508  6670 net.cpp:91] Creating Layer inception_3a/output
I0403 18:11:02.597524  6670 net.cpp:425] inception_3a/output <- inception_3a/1x1
I0403 18:11:02.597540  6670 net.cpp:425] inception_3a/output <- inception_3a/3x3
I0403 18:11:02.597556  6670 net.cpp:425] inception_3a/output <- inception_3a/5x5
I0403 18:11:02.597573  6670 net.cpp:425] inception_3a/output <- inception_3a/pool_proj
I0403 18:11:02.597591  6670 net.cpp:399] inception_3a/output -> inception_3a/output
I0403 18:11:02.597635  6670 net.cpp:141] Setting up inception_3a/output
I0403 18:11:02.597662  6670 net.cpp:148] Top shape: 24 256 28 28 (4816896)
I0403 18:11:02.597677  6670 net.cpp:156] Memory required for data: 580437024
I0403 18:11:02.597693  6670 layer_factory.hpp:77] Creating layer inception_3a/output_inception_3a/output_0_split
I0403 18:11:02.597710  6670 net.cpp:91] Creating Layer inception_3a/output_inception_3a/output_0_split
I0403 18:11:02.597726  6670 net.cpp:425] inception_3a/output_inception_3a/output_0_split <- inception_3a/output
I0403 18:11:02.597743  6670 net.cpp:399] inception_3a/output_inception_3a/output_0_split -> inception_3a/output_inception_3a/output_0_split_0
I0403 18:11:02.597761  6670 net.cpp:399] inception_3a/output_inception_3a/output_0_split -> inception_3a/output_inception_3a/output_0_split_1
I0403 18:11:02.597785  6670 net.cpp:399] inception_3a/output_inception_3a/output_0_split -> inception_3a/output_inception_3a/output_0_split_2
I0403 18:11:02.597806  6670 net.cpp:399] inception_3a/output_inception_3a/output_0_split -> inception_3a/output_inception_3a/output_0_split_3
I0403 18:11:02.597878  6670 net.cpp:141] Setting up inception_3a/output_inception_3a/output_0_split
I0403 18:11:02.597903  6670 net.cpp:148] Top shape: 24 256 28 28 (4816896)
I0403 18:11:02.597919  6670 net.cpp:148] Top shape: 24 256 28 28 (4816896)
I0403 18:11:02.597935  6670 net.cpp:148] Top shape: 24 256 28 28 (4816896)
I0403 18:11:02.597950  6670 net.cpp:148] Top shape: 24 256 28 28 (4816896)
I0403 18:11:02.597965  6670 net.cpp:156] Memory required for data: 657507360
I0403 18:11:02.597978  6670 layer_factory.hpp:77] Creating layer inception_3b/1x1
I0403 18:11:02.598001  6670 net.cpp:91] Creating Layer inception_3b/1x1
I0403 18:11:02.598016  6670 net.cpp:425] inception_3b/1x1 <- inception_3a/output_inception_3a/output_0_split_0
I0403 18:11:02.598034  6670 net.cpp:399] inception_3b/1x1 -> inception_3b/1x1
I0403 18:11:02.599133  6670 net.cpp:141] Setting up inception_3b/1x1
I0403 18:11:02.599174  6670 net.cpp:148] Top shape: 24 128 28 28 (2408448)
I0403 18:11:02.599191  6670 net.cpp:156] Memory required for data: 667141152
I0403 18:11:02.599215  6670 layer_factory.hpp:77] Creating layer inception_3b/relu_1x1
I0403 18:11:02.599236  6670 net.cpp:91] Creating Layer inception_3b/relu_1x1
I0403 18:11:02.599251  6670 net.cpp:425] inception_3b/relu_1x1 <- inception_3b/1x1
I0403 18:11:02.599272  6670 net.cpp:386] inception_3b/relu_1x1 -> inception_3b/1x1 (in-place)
I0403 18:11:02.599437  6670 net.cpp:141] Setting up inception_3b/relu_1x1
I0403 18:11:02.599462  6670 net.cpp:148] Top shape: 24 128 28 28 (2408448)
I0403 18:11:02.599478  6670 net.cpp:156] Memory required for data: 676774944
I0403 18:11:02.599491  6670 layer_factory.hpp:77] Creating layer inception_3b/3x3_reduce
I0403 18:11:02.599514  6670 net.cpp:91] Creating Layer inception_3b/3x3_reduce
I0403 18:11:02.599530  6670 net.cpp:425] inception_3b/3x3_reduce <- inception_3a/output_inception_3a/output_0_split_1
I0403 18:11:02.599551  6670 net.cpp:399] inception_3b/3x3_reduce -> inception_3b/3x3_reduce
I0403 18:11:02.600656  6670 net.cpp:141] Setting up inception_3b/3x3_reduce
I0403 18:11:02.600687  6670 net.cpp:148] Top shape: 24 128 28 28 (2408448)
I0403 18:11:02.600703  6670 net.cpp:156] Memory required for data: 686408736
I0403 18:11:02.600723  6670 layer_factory.hpp:77] Creating layer inception_3b/relu_3x3_reduce
I0403 18:11:02.600740  6670 net.cpp:91] Creating Layer inception_3b/relu_3x3_reduce
I0403 18:11:02.600757  6670 net.cpp:425] inception_3b/relu_3x3_reduce <- inception_3b/3x3_reduce
I0403 18:11:02.600775  6670 net.cpp:386] inception_3b/relu_3x3_reduce -> inception_3b/3x3_reduce (in-place)
I0403 18:11:02.600947  6670 net.cpp:141] Setting up inception_3b/relu_3x3_reduce
I0403 18:11:02.600971  6670 net.cpp:148] Top shape: 24 128 28 28 (2408448)
I0403 18:11:02.600986  6670 net.cpp:156] Memory required for data: 696042528
I0403 18:11:02.600999  6670 layer_factory.hpp:77] Creating layer inception_3b/3x3
I0403 18:11:02.601023  6670 net.cpp:91] Creating Layer inception_3b/3x3
I0403 18:11:02.601042  6670 net.cpp:425] inception_3b/3x3 <- inception_3b/3x3_reduce
I0403 18:11:02.601061  6670 net.cpp:399] inception_3b/3x3 -> inception_3b/3x3
I0403 18:11:02.603899  6670 net.cpp:141] Setting up inception_3b/3x3
I0403 18:11:02.603929  6670 net.cpp:148] Top shape: 24 192 28 28 (3612672)
I0403 18:11:02.603945  6670 net.cpp:156] Memory required for data: 710493216
I0403 18:11:02.603965  6670 layer_factory.hpp:77] Creating layer inception_3b/relu_3x3
I0403 18:11:02.603982  6670 net.cpp:91] Creating Layer inception_3b/relu_3x3
I0403 18:11:02.603999  6670 net.cpp:425] inception_3b/relu_3x3 <- inception_3b/3x3
I0403 18:11:02.604019  6670 net.cpp:386] inception_3b/relu_3x3 -> inception_3b/3x3 (in-place)
I0403 18:11:02.604291  6670 net.cpp:141] Setting up inception_3b/relu_3x3
I0403 18:11:02.604316  6670 net.cpp:148] Top shape: 24 192 28 28 (3612672)
I0403 18:11:02.604331  6670 net.cpp:156] Memory required for data: 724943904
I0403 18:11:02.604346  6670 layer_factory.hpp:77] Creating layer inception_3b/5x5_reduce
I0403 18:11:02.604368  6670 net.cpp:91] Creating Layer inception_3b/5x5_reduce
I0403 18:11:02.604385  6670 net.cpp:425] inception_3b/5x5_reduce <- inception_3a/output_inception_3a/output_0_split_2
I0403 18:11:02.604406  6670 net.cpp:399] inception_3b/5x5_reduce -> inception_3b/5x5_reduce
I0403 18:11:02.605371  6670 net.cpp:141] Setting up inception_3b/5x5_reduce
I0403 18:11:02.605397  6670 net.cpp:148] Top shape: 24 32 28 28 (602112)
I0403 18:11:02.605413  6670 net.cpp:156] Memory required for data: 727352352
I0403 18:11:02.605432  6670 layer_factory.hpp:77] Creating layer inception_3b/relu_5x5_reduce
I0403 18:11:02.605449  6670 net.cpp:91] Creating Layer inception_3b/relu_5x5_reduce
I0403 18:11:02.605464  6670 net.cpp:425] inception_3b/relu_5x5_reduce <- inception_3b/5x5_reduce
I0403 18:11:02.605484  6670 net.cpp:386] inception_3b/relu_5x5_reduce -> inception_3b/5x5_reduce (in-place)
I0403 18:11:02.605669  6670 net.cpp:141] Setting up inception_3b/relu_5x5_reduce
I0403 18:11:02.605693  6670 net.cpp:148] Top shape: 24 32 28 28 (602112)
I0403 18:11:02.605708  6670 net.cpp:156] Memory required for data: 729760800
I0403 18:11:02.605722  6670 layer_factory.hpp:77] Creating layer inception_3b/5x5
I0403 18:11:02.605743  6670 net.cpp:91] Creating Layer inception_3b/5x5
I0403 18:11:02.605762  6670 net.cpp:425] inception_3b/5x5 <- inception_3b/5x5_reduce
I0403 18:11:02.605782  6670 net.cpp:399] inception_3b/5x5 -> inception_3b/5x5
I0403 18:11:02.607736  6670 net.cpp:141] Setting up inception_3b/5x5
I0403 18:11:02.607769  6670 net.cpp:148] Top shape: 24 96 28 28 (1806336)
I0403 18:11:02.607784  6670 net.cpp:156] Memory required for data: 736986144
I0403 18:11:02.607803  6670 layer_factory.hpp:77] Creating layer inception_3b/relu_5x5
I0403 18:11:02.607821  6670 net.cpp:91] Creating Layer inception_3b/relu_5x5
I0403 18:11:02.607837  6670 net.cpp:425] inception_3b/relu_5x5 <- inception_3b/5x5
I0403 18:11:02.607854  6670 net.cpp:386] inception_3b/relu_5x5 -> inception_3b/5x5 (in-place)
I0403 18:11:02.608049  6670 net.cpp:141] Setting up inception_3b/relu_5x5
I0403 18:11:02.608074  6670 net.cpp:148] Top shape: 24 96 28 28 (1806336)
I0403 18:11:02.608089  6670 net.cpp:156] Memory required for data: 744211488
I0403 18:11:02.608104  6670 layer_factory.hpp:77] Creating layer inception_3b/pool
I0403 18:11:02.608122  6670 net.cpp:91] Creating Layer inception_3b/pool
I0403 18:11:02.608139  6670 net.cpp:425] inception_3b/pool <- inception_3a/output_inception_3a/output_0_split_3
I0403 18:11:02.608157  6670 net.cpp:399] inception_3b/pool -> inception_3b/pool
I0403 18:11:02.608217  6670 net.cpp:141] Setting up inception_3b/pool
I0403 18:11:02.608244  6670 net.cpp:148] Top shape: 24 256 28 28 (4816896)
I0403 18:11:02.608259  6670 net.cpp:156] Memory required for data: 763479072
I0403 18:11:02.608275  6670 layer_factory.hpp:77] Creating layer inception_3b/pool_proj
I0403 18:11:02.608296  6670 net.cpp:91] Creating Layer inception_3b/pool_proj
I0403 18:11:02.608314  6670 net.cpp:425] inception_3b/pool_proj <- inception_3b/pool
I0403 18:11:02.608332  6670 net.cpp:399] inception_3b/pool_proj -> inception_3b/pool_proj
I0403 18:11:02.609382  6670 net.cpp:141] Setting up inception_3b/pool_proj
I0403 18:11:02.609411  6670 net.cpp:148] Top shape: 24 64 28 28 (1204224)
I0403 18:11:02.609428  6670 net.cpp:156] Memory required for data: 768295968
I0403 18:11:02.609447  6670 layer_factory.hpp:77] Creating layer inception_3b/relu_pool_proj
I0403 18:11:02.609469  6670 net.cpp:91] Creating Layer inception_3b/relu_pool_proj
I0403 18:11:02.609488  6670 net.cpp:425] inception_3b/relu_pool_proj <- inception_3b/pool_proj
I0403 18:11:02.609508  6670 net.cpp:386] inception_3b/relu_pool_proj -> inception_3b/pool_proj (in-place)
I0403 18:11:02.609887  6670 net.cpp:141] Setting up inception_3b/relu_pool_proj
I0403 18:11:02.609915  6670 net.cpp:148] Top shape: 24 64 28 28 (1204224)
I0403 18:11:02.609931  6670 net.cpp:156] Memory required for data: 773112864
I0403 18:11:02.609946  6670 layer_factory.hpp:77] Creating layer inception_3b/output
I0403 18:11:02.609966  6670 net.cpp:91] Creating Layer inception_3b/output
I0403 18:11:02.609982  6670 net.cpp:425] inception_3b/output <- inception_3b/1x1
I0403 18:11:02.609999  6670 net.cpp:425] inception_3b/output <- inception_3b/3x3
I0403 18:11:02.610015  6670 net.cpp:425] inception_3b/output <- inception_3b/5x5
I0403 18:11:02.610030  6670 net.cpp:425] inception_3b/output <- inception_3b/pool_proj
I0403 18:11:02.610050  6670 net.cpp:399] inception_3b/output -> inception_3b/output
I0403 18:11:02.610095  6670 net.cpp:141] Setting up inception_3b/output
I0403 18:11:02.610118  6670 net.cpp:148] Top shape: 24 480 28 28 (9031680)
I0403 18:11:02.610133  6670 net.cpp:156] Memory required for data: 809239584
I0403 18:11:02.610148  6670 layer_factory.hpp:77] Creating layer pool3/3x3_s2
I0403 18:11:02.610164  6670 net.cpp:91] Creating Layer pool3/3x3_s2
I0403 18:11:02.610180  6670 net.cpp:425] pool3/3x3_s2 <- inception_3b/output
I0403 18:11:02.610220  6670 net.cpp:399] pool3/3x3_s2 -> pool3/3x3_s2
I0403 18:11:02.610281  6670 net.cpp:141] Setting up pool3/3x3_s2
I0403 18:11:02.610304  6670 net.cpp:148] Top shape: 24 480 14 14 (2257920)
I0403 18:11:02.610318  6670 net.cpp:156] Memory required for data: 818271264
I0403 18:11:02.610333  6670 layer_factory.hpp:77] Creating layer pool3/3x3_s2_pool3/3x3_s2_0_split
I0403 18:11:02.610352  6670 net.cpp:91] Creating Layer pool3/3x3_s2_pool3/3x3_s2_0_split
I0403 18:11:02.610368  6670 net.cpp:425] pool3/3x3_s2_pool3/3x3_s2_0_split <- pool3/3x3_s2
I0403 18:11:02.610386  6670 net.cpp:399] pool3/3x3_s2_pool3/3x3_s2_0_split -> pool3/3x3_s2_pool3/3x3_s2_0_split_0
I0403 18:11:02.610405  6670 net.cpp:399] pool3/3x3_s2_pool3/3x3_s2_0_split -> pool3/3x3_s2_pool3/3x3_s2_0_split_1
I0403 18:11:02.610427  6670 net.cpp:399] pool3/3x3_s2_pool3/3x3_s2_0_split -> pool3/3x3_s2_pool3/3x3_s2_0_split_2
I0403 18:11:02.610446  6670 net.cpp:399] pool3/3x3_s2_pool3/3x3_s2_0_split -> pool3/3x3_s2_pool3/3x3_s2_0_split_3
I0403 18:11:02.610524  6670 net.cpp:141] Setting up pool3/3x3_s2_pool3/3x3_s2_0_split
I0403 18:11:02.610548  6670 net.cpp:148] Top shape: 24 480 14 14 (2257920)
I0403 18:11:02.610564  6670 net.cpp:148] Top shape: 24 480 14 14 (2257920)
I0403 18:11:02.610579  6670 net.cpp:148] Top shape: 24 480 14 14 (2257920)
I0403 18:11:02.610596  6670 net.cpp:148] Top shape: 24 480 14 14 (2257920)
I0403 18:11:02.610610  6670 net.cpp:156] Memory required for data: 854397984
I0403 18:11:02.610625  6670 layer_factory.hpp:77] Creating layer inception_4a/1x1
I0403 18:11:02.610646  6670 net.cpp:91] Creating Layer inception_4a/1x1
I0403 18:11:02.610664  6670 net.cpp:425] inception_4a/1x1 <- pool3/3x3_s2_pool3/3x3_s2_0_split_0
I0403 18:11:02.610685  6670 net.cpp:399] inception_4a/1x1 -> inception_4a/1x1
I0403 18:11:02.612310  6670 net.cpp:141] Setting up inception_4a/1x1
I0403 18:11:02.612347  6670 net.cpp:148] Top shape: 24 192 14 14 (903168)
I0403 18:11:02.612362  6670 net.cpp:156] Memory required for data: 858010656
I0403 18:11:02.612381  6670 layer_factory.hpp:77] Creating layer inception_4a/relu_1x1
I0403 18:11:02.612401  6670 net.cpp:91] Creating Layer inception_4a/relu_1x1
I0403 18:11:02.612418  6670 net.cpp:425] inception_4a/relu_1x1 <- inception_4a/1x1
I0403 18:11:02.612437  6670 net.cpp:386] inception_4a/relu_1x1 -> inception_4a/1x1 (in-place)
I0403 18:11:02.612615  6670 net.cpp:141] Setting up inception_4a/relu_1x1
I0403 18:11:02.612644  6670 net.cpp:148] Top shape: 24 192 14 14 (903168)
I0403 18:11:02.612661  6670 net.cpp:156] Memory required for data: 861623328
I0403 18:11:02.612676  6670 layer_factory.hpp:77] Creating layer inception_4a/3x3_reduce
I0403 18:11:02.612699  6670 net.cpp:91] Creating Layer inception_4a/3x3_reduce
I0403 18:11:02.612717  6670 net.cpp:425] inception_4a/3x3_reduce <- pool3/3x3_s2_pool3/3x3_s2_0_split_1
I0403 18:11:02.612736  6670 net.cpp:399] inception_4a/3x3_reduce -> inception_4a/3x3_reduce
I0403 18:11:02.614011  6670 net.cpp:141] Setting up inception_4a/3x3_reduce
I0403 18:11:02.614040  6670 net.cpp:148] Top shape: 24 96 14 14 (451584)
I0403 18:11:02.614056  6670 net.cpp:156] Memory required for data: 863429664
I0403 18:11:02.614084  6670 layer_factory.hpp:77] Creating layer inception_4a/relu_3x3_reduce
I0403 18:11:02.614109  6670 net.cpp:91] Creating Layer inception_4a/relu_3x3_reduce
I0403 18:11:02.614126  6670 net.cpp:425] inception_4a/relu_3x3_reduce <- inception_4a/3x3_reduce
I0403 18:11:02.614145  6670 net.cpp:386] inception_4a/relu_3x3_reduce -> inception_4a/3x3_reduce (in-place)
I0403 18:11:02.614326  6670 net.cpp:141] Setting up inception_4a/relu_3x3_reduce
I0403 18:11:02.614352  6670 net.cpp:148] Top shape: 24 96 14 14 (451584)
I0403 18:11:02.614368  6670 net.cpp:156] Memory required for data: 865236000
I0403 18:11:02.614384  6670 layer_factory.hpp:77] Creating layer inception_4a/3x3
I0403 18:11:02.614408  6670 net.cpp:91] Creating Layer inception_4a/3x3
I0403 18:11:02.614428  6670 net.cpp:425] inception_4a/3x3 <- inception_4a/3x3_reduce
I0403 18:11:02.614447  6670 net.cpp:399] inception_4a/3x3 -> inception_4a/3x3
I0403 18:11:02.617141  6670 net.cpp:141] Setting up inception_4a/3x3
I0403 18:11:02.617177  6670 net.cpp:148] Top shape: 24 208 14 14 (978432)
I0403 18:11:02.617193  6670 net.cpp:156] Memory required for data: 869149728
I0403 18:11:02.617218  6670 layer_factory.hpp:77] Creating layer inception_4a/relu_3x3
I0403 18:11:02.617238  6670 net.cpp:91] Creating Layer inception_4a/relu_3x3
I0403 18:11:02.617255  6670 net.cpp:425] inception_4a/relu_3x3 <- inception_4a/3x3
I0403 18:11:02.617274  6670 net.cpp:386] inception_4a/relu_3x3 -> inception_4a/3x3 (in-place)
I0403 18:11:02.617548  6670 net.cpp:141] Setting up inception_4a/relu_3x3
I0403 18:11:02.617578  6670 net.cpp:148] Top shape: 24 208 14 14 (978432)
I0403 18:11:02.617594  6670 net.cpp:156] Memory required for data: 873063456
I0403 18:11:02.617609  6670 layer_factory.hpp:77] Creating layer inception_4a/5x5_reduce
I0403 18:11:02.617631  6670 net.cpp:91] Creating Layer inception_4a/5x5_reduce
I0403 18:11:02.617650  6670 net.cpp:425] inception_4a/5x5_reduce <- pool3/3x3_s2_pool3/3x3_s2_0_split_2
I0403 18:11:02.617671  6670 net.cpp:399] inception_4a/5x5_reduce -> inception_4a/5x5_reduce
I0403 18:11:02.618695  6670 net.cpp:141] Setting up inception_4a/5x5_reduce
I0403 18:11:02.618724  6670 net.cpp:148] Top shape: 24 16 14 14 (75264)
I0403 18:11:02.618741  6670 net.cpp:156] Memory required for data: 873364512
I0403 18:11:02.618762  6670 layer_factory.hpp:77] Creating layer inception_4a/relu_5x5_reduce
I0403 18:11:02.618780  6670 net.cpp:91] Creating Layer inception_4a/relu_5x5_reduce
I0403 18:11:02.618798  6670 net.cpp:425] inception_4a/relu_5x5_reduce <- inception_4a/5x5_reduce
I0403 18:11:02.618820  6670 net.cpp:386] inception_4a/relu_5x5_reduce -> inception_4a/5x5_reduce (in-place)
I0403 18:11:02.619001  6670 net.cpp:141] Setting up inception_4a/relu_5x5_reduce
I0403 18:11:02.619027  6670 net.cpp:148] Top shape: 24 16 14 14 (75264)
I0403 18:11:02.619042  6670 net.cpp:156] Memory required for data: 873665568
I0403 18:11:02.619057  6670 layer_factory.hpp:77] Creating layer inception_4a/5x5
I0403 18:11:02.619081  6670 net.cpp:91] Creating Layer inception_4a/5x5
I0403 18:11:02.619097  6670 net.cpp:425] inception_4a/5x5 <- inception_4a/5x5_reduce
I0403 18:11:02.619118  6670 net.cpp:399] inception_4a/5x5 -> inception_4a/5x5
I0403 18:11:02.620205  6670 net.cpp:141] Setting up inception_4a/5x5
I0403 18:11:02.620240  6670 net.cpp:148] Top shape: 24 48 14 14 (225792)
I0403 18:11:02.620257  6670 net.cpp:156] Memory required for data: 874568736
I0403 18:11:02.620277  6670 layer_factory.hpp:77] Creating layer inception_4a/relu_5x5
I0403 18:11:02.620301  6670 net.cpp:91] Creating Layer inception_4a/relu_5x5
I0403 18:11:02.620321  6670 net.cpp:425] inception_4a/relu_5x5 <- inception_4a/5x5
I0403 18:11:02.620339  6670 net.cpp:386] inception_4a/relu_5x5 -> inception_4a/5x5 (in-place)
I0403 18:11:02.620515  6670 net.cpp:141] Setting up inception_4a/relu_5x5
I0403 18:11:02.620543  6670 net.cpp:148] Top shape: 24 48 14 14 (225792)
I0403 18:11:02.620563  6670 net.cpp:156] Memory required for data: 875471904
I0403 18:11:02.620579  6670 layer_factory.hpp:77] Creating layer inception_4a/pool
I0403 18:11:02.620597  6670 net.cpp:91] Creating Layer inception_4a/pool
I0403 18:11:02.620614  6670 net.cpp:425] inception_4a/pool <- pool3/3x3_s2_pool3/3x3_s2_0_split_3
I0403 18:11:02.620632  6670 net.cpp:399] inception_4a/pool -> inception_4a/pool
I0403 18:11:02.620694  6670 net.cpp:141] Setting up inception_4a/pool
I0403 18:11:02.620719  6670 net.cpp:148] Top shape: 24 480 14 14 (2257920)
I0403 18:11:02.620734  6670 net.cpp:156] Memory required for data: 884503584
I0403 18:11:02.620750  6670 layer_factory.hpp:77] Creating layer inception_4a/pool_proj
I0403 18:11:02.620774  6670 net.cpp:91] Creating Layer inception_4a/pool_proj
I0403 18:11:02.620792  6670 net.cpp:425] inception_4a/pool_proj <- inception_4a/pool
I0403 18:11:02.620813  6670 net.cpp:399] inception_4a/pool_proj -> inception_4a/pool_proj
I0403 18:11:02.621975  6670 net.cpp:141] Setting up inception_4a/pool_proj
I0403 18:11:02.622005  6670 net.cpp:148] Top shape: 24 64 14 14 (301056)
I0403 18:11:02.622037  6670 net.cpp:156] Memory required for data: 885707808
I0403 18:11:02.622059  6670 layer_factory.hpp:77] Creating layer inception_4a/relu_pool_proj
I0403 18:11:02.622082  6670 net.cpp:91] Creating Layer inception_4a/relu_pool_proj
I0403 18:11:02.622102  6670 net.cpp:425] inception_4a/relu_pool_proj <- inception_4a/pool_proj
I0403 18:11:02.622120  6670 net.cpp:386] inception_4a/relu_pool_proj -> inception_4a/pool_proj (in-place)
I0403 18:11:02.622417  6670 net.cpp:141] Setting up inception_4a/relu_pool_proj
I0403 18:11:02.622444  6670 net.cpp:148] Top shape: 24 64 14 14 (301056)
I0403 18:11:02.622459  6670 net.cpp:156] Memory required for data: 886912032
I0403 18:11:02.622483  6670 layer_factory.hpp:77] Creating layer inception_4a/output
I0403 18:11:02.622501  6670 net.cpp:91] Creating Layer inception_4a/output
I0403 18:11:02.622519  6670 net.cpp:425] inception_4a/output <- inception_4a/1x1
I0403 18:11:02.622535  6670 net.cpp:425] inception_4a/output <- inception_4a/3x3
I0403 18:11:02.622551  6670 net.cpp:425] inception_4a/output <- inception_4a/5x5
I0403 18:11:02.622566  6670 net.cpp:425] inception_4a/output <- inception_4a/pool_proj
I0403 18:11:02.622583  6670 net.cpp:399] inception_4a/output -> inception_4a/output
I0403 18:11:02.622629  6670 net.cpp:141] Setting up inception_4a/output
I0403 18:11:02.622653  6670 net.cpp:148] Top shape: 24 512 14 14 (2408448)
I0403 18:11:02.622668  6670 net.cpp:156] Memory required for data: 896545824
I0403 18:11:02.622683  6670 layer_factory.hpp:77] Creating layer inception_4a/output_inception_4a/output_0_split
I0403 18:11:02.622700  6670 net.cpp:91] Creating Layer inception_4a/output_inception_4a/output_0_split
I0403 18:11:02.622715  6670 net.cpp:425] inception_4a/output_inception_4a/output_0_split <- inception_4a/output
I0403 18:11:02.622736  6670 net.cpp:399] inception_4a/output_inception_4a/output_0_split -> inception_4a/output_inception_4a/output_0_split_0
I0403 18:11:02.622757  6670 net.cpp:399] inception_4a/output_inception_4a/output_0_split -> inception_4a/output_inception_4a/output_0_split_1
I0403 18:11:02.622778  6670 net.cpp:399] inception_4a/output_inception_4a/output_0_split -> inception_4a/output_inception_4a/output_0_split_2
I0403 18:11:02.622798  6670 net.cpp:399] inception_4a/output_inception_4a/output_0_split -> inception_4a/output_inception_4a/output_0_split_3
I0403 18:11:02.622818  6670 net.cpp:399] inception_4a/output_inception_4a/output_0_split -> inception_4a/output_inception_4a/output_0_split_4
I0403 18:11:02.622911  6670 net.cpp:141] Setting up inception_4a/output_inception_4a/output_0_split
I0403 18:11:02.622936  6670 net.cpp:148] Top shape: 24 512 14 14 (2408448)
I0403 18:11:02.622952  6670 net.cpp:148] Top shape: 24 512 14 14 (2408448)
I0403 18:11:02.622968  6670 net.cpp:148] Top shape: 24 512 14 14 (2408448)
I0403 18:11:02.622983  6670 net.cpp:148] Top shape: 24 512 14 14 (2408448)
I0403 18:11:02.622999  6670 net.cpp:148] Top shape: 24 512 14 14 (2408448)
I0403 18:11:02.623013  6670 net.cpp:156] Memory required for data: 944714784
I0403 18:11:02.623028  6670 layer_factory.hpp:77] Creating layer loss1/ave_pool
I0403 18:11:02.623044  6670 net.cpp:91] Creating Layer loss1/ave_pool
I0403 18:11:02.623060  6670 net.cpp:425] loss1/ave_pool <- inception_4a/output_inception_4a/output_0_split_0
I0403 18:11:02.623080  6670 net.cpp:399] loss1/ave_pool -> loss1/ave_pool
I0403 18:11:02.623294  6670 net.cpp:141] Setting up loss1/ave_pool
I0403 18:11:02.623319  6670 net.cpp:148] Top shape: 24 512 4 4 (196608)
I0403 18:11:02.623334  6670 net.cpp:156] Memory required for data: 945501216
I0403 18:11:02.623350  6670 layer_factory.hpp:77] Creating layer loss1/conv
I0403 18:11:02.623373  6670 net.cpp:91] Creating Layer loss1/conv
I0403 18:11:02.623390  6670 net.cpp:425] loss1/conv <- loss1/ave_pool
I0403 18:11:02.623410  6670 net.cpp:399] loss1/conv -> loss1/conv
I0403 18:11:02.624855  6670 net.cpp:141] Setting up loss1/conv
I0403 18:11:02.624887  6670 net.cpp:148] Top shape: 24 128 4 4 (49152)
I0403 18:11:02.624918  6670 net.cpp:156] Memory required for data: 945697824
I0403 18:11:02.624940  6670 layer_factory.hpp:77] Creating layer loss1/relu_conv
I0403 18:11:02.624959  6670 net.cpp:91] Creating Layer loss1/relu_conv
I0403 18:11:02.624976  6670 net.cpp:425] loss1/relu_conv <- loss1/conv
I0403 18:11:02.624992  6670 net.cpp:386] loss1/relu_conv -> loss1/conv (in-place)
I0403 18:11:02.625278  6670 net.cpp:141] Setting up loss1/relu_conv
I0403 18:11:02.625306  6670 net.cpp:148] Top shape: 24 128 4 4 (49152)
I0403 18:11:02.625324  6670 net.cpp:156] Memory required for data: 945894432
I0403 18:11:02.625339  6670 layer_factory.hpp:77] Creating layer loss1/fc
I0403 18:11:02.625362  6670 net.cpp:91] Creating Layer loss1/fc
I0403 18:11:02.625380  6670 net.cpp:425] loss1/fc <- loss1/conv
I0403 18:11:02.625401  6670 net.cpp:399] loss1/fc -> loss1/fc
I0403 18:11:02.643332  6670 net.cpp:141] Setting up loss1/fc
I0403 18:11:02.643398  6670 net.cpp:148] Top shape: 24 1024 (24576)
I0403 18:11:02.643414  6670 net.cpp:156] Memory required for data: 945992736
I0403 18:11:02.643434  6670 layer_factory.hpp:77] Creating layer loss1/relu_fc
I0403 18:11:02.643453  6670 net.cpp:91] Creating Layer loss1/relu_fc
I0403 18:11:02.643471  6670 net.cpp:425] loss1/relu_fc <- loss1/fc
I0403 18:11:02.643489  6670 net.cpp:386] loss1/relu_fc -> loss1/fc (in-place)
I0403 18:11:02.643710  6670 net.cpp:141] Setting up loss1/relu_fc
I0403 18:11:02.643738  6670 net.cpp:148] Top shape: 24 1024 (24576)
I0403 18:11:02.643753  6670 net.cpp:156] Memory required for data: 946091040
I0403 18:11:02.643767  6670 layer_factory.hpp:77] Creating layer loss1/drop_fc
I0403 18:11:02.643797  6670 net.cpp:91] Creating Layer loss1/drop_fc
I0403 18:11:02.643815  6670 net.cpp:425] loss1/drop_fc <- loss1/fc
I0403 18:11:02.643833  6670 net.cpp:386] loss1/drop_fc -> loss1/fc (in-place)
I0403 18:11:02.643889  6670 net.cpp:141] Setting up loss1/drop_fc
I0403 18:11:02.643913  6670 net.cpp:148] Top shape: 24 1024 (24576)
I0403 18:11:02.643929  6670 net.cpp:156] Memory required for data: 946189344
I0403 18:11:02.643944  6670 layer_factory.hpp:77] Creating layer loss1/classifier_plantvillage
I0403 18:11:02.643968  6670 net.cpp:91] Creating Layer loss1/classifier_plantvillage
I0403 18:11:02.643986  6670 net.cpp:425] loss1/classifier_plantvillage <- loss1/fc
I0403 18:11:02.644004  6670 net.cpp:399] loss1/classifier_plantvillage -> loss1/classifier_plantvillage
I0403 18:11:02.644982  6670 net.cpp:141] Setting up loss1/classifier_plantvillage
I0403 18:11:02.645015  6670 net.cpp:148] Top shape: 24 38 (912)
I0403 18:11:02.645032  6670 net.cpp:156] Memory required for data: 946192992
I0403 18:11:02.645051  6670 layer_factory.hpp:77] Creating layer loss1/classifier_plantvillage_loss1/classifier_plantvillage_0_split
I0403 18:11:02.645071  6670 net.cpp:91] Creating Layer loss1/classifier_plantvillage_loss1/classifier_plantvillage_0_split
I0403 18:11:02.645089  6670 net.cpp:425] loss1/classifier_plantvillage_loss1/classifier_plantvillage_0_split <- loss1/classifier_plantvillage
I0403 18:11:02.645109  6670 net.cpp:399] loss1/classifier_plantvillage_loss1/classifier_plantvillage_0_split -> loss1/classifier_plantvillage_loss1/classifier_plantvillage_0_split_0
I0403 18:11:02.645130  6670 net.cpp:399] loss1/classifier_plantvillage_loss1/classifier_plantvillage_0_split -> loss1/classifier_plantvillage_loss1/classifier_plantvillage_0_split_1
I0403 18:11:02.645150  6670 net.cpp:399] loss1/classifier_plantvillage_loss1/classifier_plantvillage_0_split -> loss1/classifier_plantvillage_loss1/classifier_plantvillage_0_split_2
I0403 18:11:02.645222  6670 net.cpp:141] Setting up loss1/classifier_plantvillage_loss1/classifier_plantvillage_0_split
I0403 18:11:02.645248  6670 net.cpp:148] Top shape: 24 38 (912)
I0403 18:11:02.645267  6670 net.cpp:148] Top shape: 24 38 (912)
I0403 18:11:02.645283  6670 net.cpp:148] Top shape: 24 38 (912)
I0403 18:11:02.645298  6670 net.cpp:156] Memory required for data: 946203936
I0403 18:11:02.645314  6670 layer_factory.hpp:77] Creating layer inception_4b/1x1
I0403 18:11:02.645336  6670 net.cpp:91] Creating Layer inception_4b/1x1
I0403 18:11:02.645383  6670 net.cpp:425] inception_4b/1x1 <- inception_4a/output_inception_4a/output_0_split_1
I0403 18:11:02.645406  6670 net.cpp:399] inception_4b/1x1 -> inception_4b/1x1
I0403 18:11:02.647085  6670 net.cpp:141] Setting up inception_4b/1x1
I0403 18:11:02.647119  6670 net.cpp:148] Top shape: 24 160 14 14 (752640)
I0403 18:11:02.647137  6670 net.cpp:156] Memory required for data: 949214496
I0403 18:11:02.647157  6670 layer_factory.hpp:77] Creating layer inception_4b/relu_1x1
I0403 18:11:02.647176  6670 net.cpp:91] Creating Layer inception_4b/relu_1x1
I0403 18:11:02.647193  6670 net.cpp:425] inception_4b/relu_1x1 <- inception_4b/1x1
I0403 18:11:02.647218  6670 net.cpp:386] inception_4b/relu_1x1 -> inception_4b/1x1 (in-place)
I0403 18:11:02.647404  6670 net.cpp:141] Setting up inception_4b/relu_1x1
I0403 18:11:02.647430  6670 net.cpp:148] Top shape: 24 160 14 14 (752640)
I0403 18:11:02.647445  6670 net.cpp:156] Memory required for data: 952225056
I0403 18:11:02.647460  6670 layer_factory.hpp:77] Creating layer inception_4b/3x3_reduce
I0403 18:11:02.647483  6670 net.cpp:91] Creating Layer inception_4b/3x3_reduce
I0403 18:11:02.647502  6670 net.cpp:425] inception_4b/3x3_reduce <- inception_4a/output_inception_4a/output_0_split_2
I0403 18:11:02.647526  6670 net.cpp:399] inception_4b/3x3_reduce -> inception_4b/3x3_reduce
I0403 18:11:02.648890  6670 net.cpp:141] Setting up inception_4b/3x3_reduce
I0403 18:11:02.648921  6670 net.cpp:148] Top shape: 24 112 14 14 (526848)
I0403 18:11:02.648937  6670 net.cpp:156] Memory required for data: 954332448
I0403 18:11:02.648958  6670 layer_factory.hpp:77] Creating layer inception_4b/relu_3x3_reduce
I0403 18:11:02.648979  6670 net.cpp:91] Creating Layer inception_4b/relu_3x3_reduce
I0403 18:11:02.649011  6670 net.cpp:425] inception_4b/relu_3x3_reduce <- inception_4b/3x3_reduce
I0403 18:11:02.649029  6670 net.cpp:386] inception_4b/relu_3x3_reduce -> inception_4b/3x3_reduce (in-place)
I0403 18:11:02.649338  6670 net.cpp:141] Setting up inception_4b/relu_3x3_reduce
I0403 18:11:02.649364  6670 net.cpp:148] Top shape: 24 112 14 14 (526848)
I0403 18:11:02.649379  6670 net.cpp:156] Memory required for data: 956439840
I0403 18:11:02.649395  6670 layer_factory.hpp:77] Creating layer inception_4b/3x3
I0403 18:11:02.649418  6670 net.cpp:91] Creating Layer inception_4b/3x3
I0403 18:11:02.649435  6670 net.cpp:425] inception_4b/3x3 <- inception_4b/3x3_reduce
I0403 18:11:02.649457  6670 net.cpp:399] inception_4b/3x3 -> inception_4b/3x3
I0403 18:11:02.652439  6670 net.cpp:141] Setting up inception_4b/3x3
I0403 18:11:02.652470  6670 net.cpp:148] Top shape: 24 224 14 14 (1053696)
I0403 18:11:02.652487  6670 net.cpp:156] Memory required for data: 960654624
I0403 18:11:02.652505  6670 layer_factory.hpp:77] Creating layer inception_4b/relu_3x3
I0403 18:11:02.652526  6670 net.cpp:91] Creating Layer inception_4b/relu_3x3
I0403 18:11:02.652542  6670 net.cpp:425] inception_4b/relu_3x3 <- inception_4b/3x3
I0403 18:11:02.652560  6670 net.cpp:386] inception_4b/relu_3x3 -> inception_4b/3x3 (in-place)
I0403 18:11:02.652740  6670 net.cpp:141] Setting up inception_4b/relu_3x3
I0403 18:11:02.652767  6670 net.cpp:148] Top shape: 24 224 14 14 (1053696)
I0403 18:11:02.652783  6670 net.cpp:156] Memory required for data: 964869408
I0403 18:11:02.652797  6670 layer_factory.hpp:77] Creating layer inception_4b/5x5_reduce
I0403 18:11:02.652819  6670 net.cpp:91] Creating Layer inception_4b/5x5_reduce
I0403 18:11:02.652837  6670 net.cpp:425] inception_4b/5x5_reduce <- inception_4a/output_inception_4a/output_0_split_3
I0403 18:11:02.652855  6670 net.cpp:399] inception_4b/5x5_reduce -> inception_4b/5x5_reduce
I0403 18:11:02.653921  6670 net.cpp:141] Setting up inception_4b/5x5_reduce
I0403 18:11:02.653954  6670 net.cpp:148] Top shape: 24 24 14 14 (112896)
I0403 18:11:02.653970  6670 net.cpp:156] Memory required for data: 965320992
I0403 18:11:02.653988  6670 layer_factory.hpp:77] Creating layer inception_4b/relu_5x5_reduce
I0403 18:11:02.654007  6670 net.cpp:91] Creating Layer inception_4b/relu_5x5_reduce
I0403 18:11:02.654038  6670 net.cpp:425] inception_4b/relu_5x5_reduce <- inception_4b/5x5_reduce
I0403 18:11:02.654059  6670 net.cpp:386] inception_4b/relu_5x5_reduce -> inception_4b/5x5_reduce (in-place)
I0403 18:11:02.654250  6670 net.cpp:141] Setting up inception_4b/relu_5x5_reduce
I0403 18:11:02.654275  6670 net.cpp:148] Top shape: 24 24 14 14 (112896)
I0403 18:11:02.654289  6670 net.cpp:156] Memory required for data: 965772576
I0403 18:11:02.654304  6670 layer_factory.hpp:77] Creating layer inception_4b/5x5
I0403 18:11:02.654326  6670 net.cpp:91] Creating Layer inception_4b/5x5
I0403 18:11:02.654345  6670 net.cpp:425] inception_4b/5x5 <- inception_4b/5x5_reduce
I0403 18:11:02.654366  6670 net.cpp:399] inception_4b/5x5 -> inception_4b/5x5
I0403 18:11:02.655561  6670 net.cpp:141] Setting up inception_4b/5x5
I0403 18:11:02.655592  6670 net.cpp:148] Top shape: 24 64 14 14 (301056)
I0403 18:11:02.655609  6670 net.cpp:156] Memory required for data: 966976800
I0403 18:11:02.655629  6670 layer_factory.hpp:77] Creating layer inception_4b/relu_5x5
I0403 18:11:02.655647  6670 net.cpp:91] Creating Layer inception_4b/relu_5x5
I0403 18:11:02.655665  6670 net.cpp:425] inception_4b/relu_5x5 <- inception_4b/5x5
I0403 18:11:02.655697  6670 net.cpp:386] inception_4b/relu_5x5 -> inception_4b/5x5 (in-place)
I0403 18:11:02.655992  6670 net.cpp:141] Setting up inception_4b/relu_5x5
I0403 18:11:02.656020  6670 net.cpp:148] Top shape: 24 64 14 14 (301056)
I0403 18:11:02.656035  6670 net.cpp:156] Memory required for data: 968181024
I0403 18:11:02.656051  6670 layer_factory.hpp:77] Creating layer inception_4b/pool
I0403 18:11:02.656070  6670 net.cpp:91] Creating Layer inception_4b/pool
I0403 18:11:02.656086  6670 net.cpp:425] inception_4b/pool <- inception_4a/output_inception_4a/output_0_split_4
I0403 18:11:02.656107  6670 net.cpp:399] inception_4b/pool -> inception_4b/pool
I0403 18:11:02.656169  6670 net.cpp:141] Setting up inception_4b/pool
I0403 18:11:02.656193  6670 net.cpp:148] Top shape: 24 512 14 14 (2408448)
I0403 18:11:02.656208  6670 net.cpp:156] Memory required for data: 977814816
I0403 18:11:02.656229  6670 layer_factory.hpp:77] Creating layer inception_4b/pool_proj
I0403 18:11:02.656254  6670 net.cpp:91] Creating Layer inception_4b/pool_proj
I0403 18:11:02.656271  6670 net.cpp:425] inception_4b/pool_proj <- inception_4b/pool
I0403 18:11:02.656289  6670 net.cpp:399] inception_4b/pool_proj -> inception_4b/pool_proj
I0403 18:11:02.657490  6670 net.cpp:141] Setting up inception_4b/pool_proj
I0403 18:11:02.657517  6670 net.cpp:148] Top shape: 24 64 14 14 (301056)
I0403 18:11:02.657533  6670 net.cpp:156] Memory required for data: 979019040
I0403 18:11:02.657552  6670 layer_factory.hpp:77] Creating layer inception_4b/relu_pool_proj
I0403 18:11:02.657584  6670 net.cpp:91] Creating Layer inception_4b/relu_pool_proj
I0403 18:11:02.657599  6670 net.cpp:425] inception_4b/relu_pool_proj <- inception_4b/pool_proj
I0403 18:11:02.657619  6670 net.cpp:386] inception_4b/relu_pool_proj -> inception_4b/pool_proj (in-place)
I0403 18:11:02.657799  6670 net.cpp:141] Setting up inception_4b/relu_pool_proj
I0403 18:11:02.657824  6670 net.cpp:148] Top shape: 24 64 14 14 (301056)
I0403 18:11:02.657838  6670 net.cpp:156] Memory required for data: 980223264
I0403 18:11:02.657853  6670 layer_factory.hpp:77] Creating layer inception_4b/output
I0403 18:11:02.657876  6670 net.cpp:91] Creating Layer inception_4b/output
I0403 18:11:02.657893  6670 net.cpp:425] inception_4b/output <- inception_4b/1x1
I0403 18:11:02.657909  6670 net.cpp:425] inception_4b/output <- inception_4b/3x3
I0403 18:11:02.657927  6670 net.cpp:425] inception_4b/output <- inception_4b/5x5
I0403 18:11:02.657943  6670 net.cpp:425] inception_4b/output <- inception_4b/pool_proj
I0403 18:11:02.657959  6670 net.cpp:399] inception_4b/output -> inception_4b/output
I0403 18:11:02.658002  6670 net.cpp:141] Setting up inception_4b/output
I0403 18:11:02.658027  6670 net.cpp:148] Top shape: 24 512 14 14 (2408448)
I0403 18:11:02.658043  6670 net.cpp:156] Memory required for data: 989857056
I0403 18:11:02.658072  6670 layer_factory.hpp:77] Creating layer inception_4b/output_inception_4b/output_0_split
I0403 18:11:02.658090  6670 net.cpp:91] Creating Layer inception_4b/output_inception_4b/output_0_split
I0403 18:11:02.658107  6670 net.cpp:425] inception_4b/output_inception_4b/output_0_split <- inception_4b/output
I0403 18:11:02.658126  6670 net.cpp:399] inception_4b/output_inception_4b/output_0_split -> inception_4b/output_inception_4b/output_0_split_0
I0403 18:11:02.658149  6670 net.cpp:399] inception_4b/output_inception_4b/output_0_split -> inception_4b/output_inception_4b/output_0_split_1
I0403 18:11:02.658169  6670 net.cpp:399] inception_4b/output_inception_4b/output_0_split -> inception_4b/output_inception_4b/output_0_split_2
I0403 18:11:02.658188  6670 net.cpp:399] inception_4b/output_inception_4b/output_0_split -> inception_4b/output_inception_4b/output_0_split_3
I0403 18:11:02.658272  6670 net.cpp:141] Setting up inception_4b/output_inception_4b/output_0_split
I0403 18:11:02.658298  6670 net.cpp:148] Top shape: 24 512 14 14 (2408448)
I0403 18:11:02.658315  6670 net.cpp:148] Top shape: 24 512 14 14 (2408448)
I0403 18:11:02.658330  6670 net.cpp:148] Top shape: 24 512 14 14 (2408448)
I0403 18:11:02.658345  6670 net.cpp:148] Top shape: 24 512 14 14 (2408448)
I0403 18:11:02.658360  6670 net.cpp:156] Memory required for data: 1028392224
I0403 18:11:02.658373  6670 layer_factory.hpp:77] Creating layer inception_4c/1x1
I0403 18:11:02.658397  6670 net.cpp:91] Creating Layer inception_4c/1x1
I0403 18:11:02.658414  6670 net.cpp:425] inception_4c/1x1 <- inception_4b/output_inception_4b/output_0_split_0
I0403 18:11:02.658445  6670 net.cpp:399] inception_4c/1x1 -> inception_4c/1x1
I0403 18:11:02.659893  6670 net.cpp:141] Setting up inception_4c/1x1
I0403 18:11:02.659922  6670 net.cpp:148] Top shape: 24 128 14 14 (602112)
I0403 18:11:02.659939  6670 net.cpp:156] Memory required for data: 1030800672
I0403 18:11:02.659958  6670 layer_factory.hpp:77] Creating layer inception_4c/relu_1x1
I0403 18:11:02.659981  6670 net.cpp:91] Creating Layer inception_4c/relu_1x1
I0403 18:11:02.659999  6670 net.cpp:425] inception_4c/relu_1x1 <- inception_4c/1x1
I0403 18:11:02.660017  6670 net.cpp:386] inception_4c/relu_1x1 -> inception_4c/1x1 (in-place)
I0403 18:11:02.660219  6670 net.cpp:141] Setting up inception_4c/relu_1x1
I0403 18:11:02.660248  6670 net.cpp:148] Top shape: 24 128 14 14 (602112)
I0403 18:11:02.660264  6670 net.cpp:156] Memory required for data: 1033209120
I0403 18:11:02.660280  6670 layer_factory.hpp:77] Creating layer inception_4c/3x3_reduce
I0403 18:11:02.660301  6670 net.cpp:91] Creating Layer inception_4c/3x3_reduce
I0403 18:11:02.660318  6670 net.cpp:425] inception_4c/3x3_reduce <- inception_4b/output_inception_4b/output_0_split_1
I0403 18:11:02.660337  6670 net.cpp:399] inception_4c/3x3_reduce -> inception_4c/3x3_reduce
I0403 18:11:02.662287  6670 net.cpp:141] Setting up inception_4c/3x3_reduce
I0403 18:11:02.662320  6670 net.cpp:148] Top shape: 24 128 14 14 (602112)
I0403 18:11:02.662338  6670 net.cpp:156] Memory required for data: 1035617568
I0403 18:11:02.662358  6670 layer_factory.hpp:77] Creating layer inception_4c/relu_3x3_reduce
I0403 18:11:02.662376  6670 net.cpp:91] Creating Layer inception_4c/relu_3x3_reduce
I0403 18:11:02.662395  6670 net.cpp:425] inception_4c/relu_3x3_reduce <- inception_4c/3x3_reduce
I0403 18:11:02.662415  6670 net.cpp:386] inception_4c/relu_3x3_reduce -> inception_4c/3x3_reduce (in-place)
I0403 18:11:02.662694  6670 net.cpp:141] Setting up inception_4c/relu_3x3_reduce
I0403 18:11:02.662724  6670 net.cpp:148] Top shape: 24 128 14 14 (602112)
I0403 18:11:02.662744  6670 net.cpp:156] Memory required for data: 1038026016
I0403 18:11:02.662760  6670 layer_factory.hpp:77] Creating layer inception_4c/3x3
I0403 18:11:02.662783  6670 net.cpp:91] Creating Layer inception_4c/3x3
I0403 18:11:02.662801  6670 net.cpp:425] inception_4c/3x3 <- inception_4c/3x3_reduce
I0403 18:11:02.662820  6670 net.cpp:399] inception_4c/3x3 -> inception_4c/3x3
I0403 18:11:02.666373  6670 net.cpp:141] Setting up inception_4c/3x3
I0403 18:11:02.666414  6670 net.cpp:148] Top shape: 24 256 14 14 (1204224)
I0403 18:11:02.666430  6670 net.cpp:156] Memory required for data: 1042842912
I0403 18:11:02.666463  6670 layer_factory.hpp:77] Creating layer inception_4c/relu_3x3
I0403 18:11:02.666483  6670 net.cpp:91] Creating Layer inception_4c/relu_3x3
I0403 18:11:02.666501  6670 net.cpp:425] inception_4c/relu_3x3 <- inception_4c/3x3
I0403 18:11:02.666520  6670 net.cpp:386] inception_4c/relu_3x3 -> inception_4c/3x3 (in-place)
I0403 18:11:02.666704  6670 net.cpp:141] Setting up inception_4c/relu_3x3
I0403 18:11:02.666729  6670 net.cpp:148] Top shape: 24 256 14 14 (1204224)
I0403 18:11:02.666743  6670 net.cpp:156] Memory required for data: 1047659808
I0403 18:11:02.666759  6670 layer_factory.hpp:77] Creating layer inception_4c/5x5_reduce
I0403 18:11:02.666782  6670 net.cpp:91] Creating Layer inception_4c/5x5_reduce
I0403 18:11:02.666800  6670 net.cpp:425] inception_4c/5x5_reduce <- inception_4b/output_inception_4b/output_0_split_2
I0403 18:11:02.666821  6670 net.cpp:399] inception_4c/5x5_reduce -> inception_4c/5x5_reduce
I0403 18:11:02.667889  6670 net.cpp:141] Setting up inception_4c/5x5_reduce
I0403 18:11:02.667922  6670 net.cpp:148] Top shape: 24 24 14 14 (112896)
I0403 18:11:02.667938  6670 net.cpp:156] Memory required for data: 1048111392
I0403 18:11:02.667956  6670 layer_factory.hpp:77] Creating layer inception_4c/relu_5x5_reduce
I0403 18:11:02.667975  6670 net.cpp:91] Creating Layer inception_4c/relu_5x5_reduce
I0403 18:11:02.667992  6670 net.cpp:425] inception_4c/relu_5x5_reduce <- inception_4c/5x5_reduce
I0403 18:11:02.668012  6670 net.cpp:386] inception_4c/relu_5x5_reduce -> inception_4c/5x5_reduce (in-place)
I0403 18:11:02.668197  6670 net.cpp:141] Setting up inception_4c/relu_5x5_reduce
I0403 18:11:02.668231  6670 net.cpp:148] Top shape: 24 24 14 14 (112896)
I0403 18:11:02.668247  6670 net.cpp:156] Memory required for data: 1048562976
I0403 18:11:02.668263  6670 layer_factory.hpp:77] Creating layer inception_4c/5x5
I0403 18:11:02.668297  6670 net.cpp:91] Creating Layer inception_4c/5x5
I0403 18:11:02.668314  6670 net.cpp:425] inception_4c/5x5 <- inception_4c/5x5_reduce
I0403 18:11:02.668335  6670 net.cpp:399] inception_4c/5x5 -> inception_4c/5x5
I0403 18:11:02.669555  6670 net.cpp:141] Setting up inception_4c/5x5
I0403 18:11:02.669584  6670 net.cpp:148] Top shape: 24 64 14 14 (301056)
I0403 18:11:02.669600  6670 net.cpp:156] Memory required for data: 1049767200
I0403 18:11:02.669620  6670 layer_factory.hpp:77] Creating layer inception_4c/relu_5x5
I0403 18:11:02.669646  6670 net.cpp:91] Creating Layer inception_4c/relu_5x5
I0403 18:11:02.669663  6670 net.cpp:425] inception_4c/relu_5x5 <- inception_4c/5x5
I0403 18:11:02.669680  6670 net.cpp:386] inception_4c/relu_5x5 -> inception_4c/5x5 (in-place)
I0403 18:11:02.669962  6670 net.cpp:141] Setting up inception_4c/relu_5x5
I0403 18:11:02.669989  6670 net.cpp:148] Top shape: 24 64 14 14 (301056)
I0403 18:11:02.670006  6670 net.cpp:156] Memory required for data: 1050971424
I0403 18:11:02.670022  6670 layer_factory.hpp:77] Creating layer inception_4c/pool
I0403 18:11:02.670042  6670 net.cpp:91] Creating Layer inception_4c/pool
I0403 18:11:02.670058  6670 net.cpp:425] inception_4c/pool <- inception_4b/output_inception_4b/output_0_split_3
I0403 18:11:02.670076  6670 net.cpp:399] inception_4c/pool -> inception_4c/pool
I0403 18:11:02.670141  6670 net.cpp:141] Setting up inception_4c/pool
I0403 18:11:02.670166  6670 net.cpp:148] Top shape: 24 512 14 14 (2408448)
I0403 18:11:02.670182  6670 net.cpp:156] Memory required for data: 1060605216
I0403 18:11:02.670198  6670 layer_factory.hpp:77] Creating layer inception_4c/pool_proj
I0403 18:11:02.670227  6670 net.cpp:91] Creating Layer inception_4c/pool_proj
I0403 18:11:02.670246  6670 net.cpp:425] inception_4c/pool_proj <- inception_4c/pool
I0403 18:11:02.670269  6670 net.cpp:399] inception_4c/pool_proj -> inception_4c/pool_proj
I0403 18:11:02.671460  6670 net.cpp:141] Setting up inception_4c/pool_proj
I0403 18:11:02.671490  6670 net.cpp:148] Top shape: 24 64 14 14 (301056)
I0403 18:11:02.671524  6670 net.cpp:156] Memory required for data: 1061809440
I0403 18:11:02.671543  6670 layer_factory.hpp:77] Creating layer inception_4c/relu_pool_proj
I0403 18:11:02.671561  6670 net.cpp:91] Creating Layer inception_4c/relu_pool_proj
I0403 18:11:02.671579  6670 net.cpp:425] inception_4c/relu_pool_proj <- inception_4c/pool_proj
I0403 18:11:02.671600  6670 net.cpp:386] inception_4c/relu_pool_proj -> inception_4c/pool_proj (in-place)
I0403 18:11:02.671782  6670 net.cpp:141] Setting up inception_4c/relu_pool_proj
I0403 18:11:02.671808  6670 net.cpp:148] Top shape: 24 64 14 14 (301056)
I0403 18:11:02.671824  6670 net.cpp:156] Memory required for data: 1063013664
I0403 18:11:02.671839  6670 layer_factory.hpp:77] Creating layer inception_4c/output
I0403 18:11:02.671856  6670 net.cpp:91] Creating Layer inception_4c/output
I0403 18:11:02.671875  6670 net.cpp:425] inception_4c/output <- inception_4c/1x1
I0403 18:11:02.671892  6670 net.cpp:425] inception_4c/output <- inception_4c/3x3
I0403 18:11:02.671908  6670 net.cpp:425] inception_4c/output <- inception_4c/5x5
I0403 18:11:02.671926  6670 net.cpp:425] inception_4c/output <- inception_4c/pool_proj
I0403 18:11:02.671941  6670 net.cpp:399] inception_4c/output -> inception_4c/output
I0403 18:11:02.671984  6670 net.cpp:141] Setting up inception_4c/output
I0403 18:11:02.672010  6670 net.cpp:148] Top shape: 24 512 14 14 (2408448)
I0403 18:11:02.672026  6670 net.cpp:156] Memory required for data: 1072647456
I0403 18:11:02.672042  6670 layer_factory.hpp:77] Creating layer inception_4c/output_inception_4c/output_0_split
I0403 18:11:02.672060  6670 net.cpp:91] Creating Layer inception_4c/output_inception_4c/output_0_split
I0403 18:11:02.672075  6670 net.cpp:425] inception_4c/output_inception_4c/output_0_split <- inception_4c/output
I0403 18:11:02.672094  6670 net.cpp:399] inception_4c/output_inception_4c/output_0_split -> inception_4c/output_inception_4c/output_0_split_0
I0403 18:11:02.672116  6670 net.cpp:399] inception_4c/output_inception_4c/output_0_split -> inception_4c/output_inception_4c/output_0_split_1
I0403 18:11:02.672135  6670 net.cpp:399] inception_4c/output_inception_4c/output_0_split -> inception_4c/output_inception_4c/output_0_split_2
I0403 18:11:02.672158  6670 net.cpp:399] inception_4c/output_inception_4c/output_0_split -> inception_4c/output_inception_4c/output_0_split_3
I0403 18:11:02.672255  6670 net.cpp:141] Setting up inception_4c/output_inception_4c/output_0_split
I0403 18:11:02.672284  6670 net.cpp:148] Top shape: 24 512 14 14 (2408448)
I0403 18:11:02.672302  6670 net.cpp:148] Top shape: 24 512 14 14 (2408448)
I0403 18:11:02.672319  6670 net.cpp:148] Top shape: 24 512 14 14 (2408448)
I0403 18:11:02.672334  6670 net.cpp:148] Top shape: 24 512 14 14 (2408448)
I0403 18:11:02.672348  6670 net.cpp:156] Memory required for data: 1111182624
I0403 18:11:02.672363  6670 layer_factory.hpp:77] Creating layer inception_4d/1x1
I0403 18:11:02.672389  6670 net.cpp:91] Creating Layer inception_4d/1x1
I0403 18:11:02.672407  6670 net.cpp:425] inception_4d/1x1 <- inception_4c/output_inception_4c/output_0_split_0
I0403 18:11:02.672426  6670 net.cpp:399] inception_4d/1x1 -> inception_4d/1x1
I0403 18:11:02.673780  6670 net.cpp:141] Setting up inception_4d/1x1
I0403 18:11:02.673812  6670 net.cpp:148] Top shape: 24 112 14 14 (526848)
I0403 18:11:02.673830  6670 net.cpp:156] Memory required for data: 1113290016
I0403 18:11:02.673849  6670 layer_factory.hpp:77] Creating layer inception_4d/relu_1x1
I0403 18:11:02.673867  6670 net.cpp:91] Creating Layer inception_4d/relu_1x1
I0403 18:11:02.673883  6670 net.cpp:425] inception_4d/relu_1x1 <- inception_4d/1x1
I0403 18:11:02.673900  6670 net.cpp:386] inception_4d/relu_1x1 -> inception_4d/1x1 (in-place)
I0403 18:11:02.674082  6670 net.cpp:141] Setting up inception_4d/relu_1x1
I0403 18:11:02.674108  6670 net.cpp:148] Top shape: 24 112 14 14 (526848)
I0403 18:11:02.674124  6670 net.cpp:156] Memory required for data: 1115397408
I0403 18:11:02.674139  6670 layer_factory.hpp:77] Creating layer inception_4d/3x3_reduce
I0403 18:11:02.674173  6670 net.cpp:91] Creating Layer inception_4d/3x3_reduce
I0403 18:11:02.674192  6670 net.cpp:425] inception_4d/3x3_reduce <- inception_4c/output_inception_4c/output_0_split_1
I0403 18:11:02.674216  6670 net.cpp:399] inception_4d/3x3_reduce -> inception_4d/3x3_reduce
I0403 18:11:02.675700  6670 net.cpp:141] Setting up inception_4d/3x3_reduce
I0403 18:11:02.675729  6670 net.cpp:148] Top shape: 24 144 14 14 (677376)
I0403 18:11:02.675745  6670 net.cpp:156] Memory required for data: 1118106912
I0403 18:11:02.675763  6670 layer_factory.hpp:77] Creating layer inception_4d/relu_3x3_reduce
I0403 18:11:02.675783  6670 net.cpp:91] Creating Layer inception_4d/relu_3x3_reduce
I0403 18:11:02.675799  6670 net.cpp:425] inception_4d/relu_3x3_reduce <- inception_4d/3x3_reduce
I0403 18:11:02.675817  6670 net.cpp:386] inception_4d/relu_3x3_reduce -> inception_4d/3x3_reduce (in-place)
I0403 18:11:02.676102  6670 net.cpp:141] Setting up inception_4d/relu_3x3_reduce
I0403 18:11:02.676128  6670 net.cpp:148] Top shape: 24 144 14 14 (677376)
I0403 18:11:02.676142  6670 net.cpp:156] Memory required for data: 1120816416
I0403 18:11:02.676157  6670 layer_factory.hpp:77] Creating layer inception_4d/3x3
I0403 18:11:02.676179  6670 net.cpp:91] Creating Layer inception_4d/3x3
I0403 18:11:02.676198  6670 net.cpp:425] inception_4d/3x3 <- inception_4d/3x3_reduce
I0403 18:11:02.676224  6670 net.cpp:399] inception_4d/3x3 -> inception_4d/3x3
I0403 18:11:02.680380  6670 net.cpp:141] Setting up inception_4d/3x3
I0403 18:11:02.680409  6670 net.cpp:148] Top shape: 24 288 14 14 (1354752)
I0403 18:11:02.680426  6670 net.cpp:156] Memory required for data: 1126235424
I0403 18:11:02.680444  6670 layer_factory.hpp:77] Creating layer inception_4d/relu_3x3
I0403 18:11:02.680465  6670 net.cpp:91] Creating Layer inception_4d/relu_3x3
I0403 18:11:02.680483  6670 net.cpp:425] inception_4d/relu_3x3 <- inception_4d/3x3
I0403 18:11:02.680501  6670 net.cpp:386] inception_4d/relu_3x3 -> inception_4d/3x3 (in-place)
I0403 18:11:02.680687  6670 net.cpp:141] Setting up inception_4d/relu_3x3
I0403 18:11:02.680711  6670 net.cpp:148] Top shape: 24 288 14 14 (1354752)
I0403 18:11:02.680727  6670 net.cpp:156] Memory required for data: 1131654432
I0403 18:11:02.680740  6670 layer_factory.hpp:77] Creating layer inception_4d/5x5_reduce
I0403 18:11:02.680763  6670 net.cpp:91] Creating Layer inception_4d/5x5_reduce
I0403 18:11:02.680780  6670 net.cpp:425] inception_4d/5x5_reduce <- inception_4c/output_inception_4c/output_0_split_2
I0403 18:11:02.680801  6670 net.cpp:399] inception_4d/5x5_reduce -> inception_4d/5x5_reduce
I0403 18:11:02.681923  6670 net.cpp:141] Setting up inception_4d/5x5_reduce
I0403 18:11:02.681954  6670 net.cpp:148] Top shape: 24 32 14 14 (150528)
I0403 18:11:02.681972  6670 net.cpp:156] Memory required for data: 1132256544
I0403 18:11:02.681990  6670 layer_factory.hpp:77] Creating layer inception_4d/relu_5x5_reduce
I0403 18:11:02.682008  6670 net.cpp:91] Creating Layer inception_4d/relu_5x5_reduce
I0403 18:11:02.682025  6670 net.cpp:425] inception_4d/relu_5x5_reduce <- inception_4d/5x5_reduce
I0403 18:11:02.682042  6670 net.cpp:386] inception_4d/relu_5x5_reduce -> inception_4d/5x5_reduce (in-place)
I0403 18:11:02.682240  6670 net.cpp:141] Setting up inception_4d/relu_5x5_reduce
I0403 18:11:02.682266  6670 net.cpp:148] Top shape: 24 32 14 14 (150528)
I0403 18:11:02.682281  6670 net.cpp:156] Memory required for data: 1132858656
I0403 18:11:02.682296  6670 layer_factory.hpp:77] Creating layer inception_4d/5x5
I0403 18:11:02.682319  6670 net.cpp:91] Creating Layer inception_4d/5x5
I0403 18:11:02.682337  6670 net.cpp:425] inception_4d/5x5 <- inception_4d/5x5_reduce
I0403 18:11:02.682358  6670 net.cpp:399] inception_4d/5x5 -> inception_4d/5x5
I0403 18:11:02.683815  6670 net.cpp:141] Setting up inception_4d/5x5
I0403 18:11:02.683842  6670 net.cpp:148] Top shape: 24 64 14 14 (301056)
I0403 18:11:02.683858  6670 net.cpp:156] Memory required for data: 1134062880
I0403 18:11:02.683878  6670 layer_factory.hpp:77] Creating layer inception_4d/relu_5x5
I0403 18:11:02.683913  6670 net.cpp:91] Creating Layer inception_4d/relu_5x5
I0403 18:11:02.683931  6670 net.cpp:425] inception_4d/relu_5x5 <- inception_4d/5x5
I0403 18:11:02.683949  6670 net.cpp:386] inception_4d/relu_5x5 -> inception_4d/5x5 (in-place)
I0403 18:11:02.684262  6670 net.cpp:141] Setting up inception_4d/relu_5x5
I0403 18:11:02.684288  6670 net.cpp:148] Top shape: 24 64 14 14 (301056)
I0403 18:11:02.684303  6670 net.cpp:156] Memory required for data: 1135267104
I0403 18:11:02.684319  6670 layer_factory.hpp:77] Creating layer inception_4d/pool
I0403 18:11:02.684337  6670 net.cpp:91] Creating Layer inception_4d/pool
I0403 18:11:02.684353  6670 net.cpp:425] inception_4d/pool <- inception_4c/output_inception_4c/output_0_split_3
I0403 18:11:02.684375  6670 net.cpp:399] inception_4d/pool -> inception_4d/pool
I0403 18:11:02.684440  6670 net.cpp:141] Setting up inception_4d/pool
I0403 18:11:02.684466  6670 net.cpp:148] Top shape: 24 512 14 14 (2408448)
I0403 18:11:02.684483  6670 net.cpp:156] Memory required for data: 1144900896
I0403 18:11:02.684497  6670 layer_factory.hpp:77] Creating layer inception_4d/pool_proj
I0403 18:11:02.684520  6670 net.cpp:91] Creating Layer inception_4d/pool_proj
I0403 18:11:02.684538  6670 net.cpp:425] inception_4d/pool_proj <- inception_4d/pool
I0403 18:11:02.684557  6670 net.cpp:399] inception_4d/pool_proj -> inception_4d/pool_proj
I0403 18:11:02.686339  6670 net.cpp:141] Setting up inception_4d/pool_proj
I0403 18:11:02.686370  6670 net.cpp:148] Top shape: 24 64 14 14 (301056)
I0403 18:11:02.686388  6670 net.cpp:156] Memory required for data: 1146105120
I0403 18:11:02.686409  6670 layer_factory.hpp:77] Creating layer inception_4d/relu_pool_proj
I0403 18:11:02.686429  6670 net.cpp:91] Creating Layer inception_4d/relu_pool_proj
I0403 18:11:02.686446  6670 net.cpp:425] inception_4d/relu_pool_proj <- inception_4d/pool_proj
I0403 18:11:02.686465  6670 net.cpp:386] inception_4d/relu_pool_proj -> inception_4d/pool_proj (in-place)
I0403 18:11:02.686657  6670 net.cpp:141] Setting up inception_4d/relu_pool_proj
I0403 18:11:02.686683  6670 net.cpp:148] Top shape: 24 64 14 14 (301056)
I0403 18:11:02.686699  6670 net.cpp:156] Memory required for data: 1147309344
I0403 18:11:02.686714  6670 layer_factory.hpp:77] Creating layer inception_4d/output
I0403 18:11:02.686733  6670 net.cpp:91] Creating Layer inception_4d/output
I0403 18:11:02.686748  6670 net.cpp:425] inception_4d/output <- inception_4d/1x1
I0403 18:11:02.686765  6670 net.cpp:425] inception_4d/output <- inception_4d/3x3
I0403 18:11:02.686781  6670 net.cpp:425] inception_4d/output <- inception_4d/5x5
I0403 18:11:02.686797  6670 net.cpp:425] inception_4d/output <- inception_4d/pool_proj
I0403 18:11:02.686816  6670 net.cpp:399] inception_4d/output -> inception_4d/output
I0403 18:11:02.686864  6670 net.cpp:141] Setting up inception_4d/output
I0403 18:11:02.686890  6670 net.cpp:148] Top shape: 24 528 14 14 (2483712)
I0403 18:11:02.686907  6670 net.cpp:156] Memory required for data: 1157244192
I0403 18:11:02.686921  6670 layer_factory.hpp:77] Creating layer inception_4d/output_inception_4d/output_0_split
I0403 18:11:02.686939  6670 net.cpp:91] Creating Layer inception_4d/output_inception_4d/output_0_split
I0403 18:11:02.686954  6670 net.cpp:425] inception_4d/output_inception_4d/output_0_split <- inception_4d/output
I0403 18:11:02.686971  6670 net.cpp:399] inception_4d/output_inception_4d/output_0_split -> inception_4d/output_inception_4d/output_0_split_0
I0403 18:11:02.686995  6670 net.cpp:399] inception_4d/output_inception_4d/output_0_split -> inception_4d/output_inception_4d/output_0_split_1
I0403 18:11:02.687017  6670 net.cpp:399] inception_4d/output_inception_4d/output_0_split -> inception_4d/output_inception_4d/output_0_split_2
I0403 18:11:02.687039  6670 net.cpp:399] inception_4d/output_inception_4d/output_0_split -> inception_4d/output_inception_4d/output_0_split_3
I0403 18:11:02.687059  6670 net.cpp:399] inception_4d/output_inception_4d/output_0_split -> inception_4d/output_inception_4d/output_0_split_4
I0403 18:11:02.687160  6670 net.cpp:141] Setting up inception_4d/output_inception_4d/output_0_split
I0403 18:11:02.687201  6670 net.cpp:148] Top shape: 24 528 14 14 (2483712)
I0403 18:11:02.687223  6670 net.cpp:148] Top shape: 24 528 14 14 (2483712)
I0403 18:11:02.687240  6670 net.cpp:148] Top shape: 24 528 14 14 (2483712)
I0403 18:11:02.687258  6670 net.cpp:148] Top shape: 24 528 14 14 (2483712)
I0403 18:11:02.687273  6670 net.cpp:148] Top shape: 24 528 14 14 (2483712)
I0403 18:11:02.687286  6670 net.cpp:156] Memory required for data: 1206918432
I0403 18:11:02.687301  6670 layer_factory.hpp:77] Creating layer loss2/ave_pool
I0403 18:11:02.687322  6670 net.cpp:91] Creating Layer loss2/ave_pool
I0403 18:11:02.687340  6670 net.cpp:425] loss2/ave_pool <- inception_4d/output_inception_4d/output_0_split_0
I0403 18:11:02.687358  6670 net.cpp:399] loss2/ave_pool -> loss2/ave_pool
I0403 18:11:02.687674  6670 net.cpp:141] Setting up loss2/ave_pool
I0403 18:11:02.687702  6670 net.cpp:148] Top shape: 24 528 4 4 (202752)
I0403 18:11:02.687718  6670 net.cpp:156] Memory required for data: 1207729440
I0403 18:11:02.687734  6670 layer_factory.hpp:77] Creating layer loss2/conv
I0403 18:11:02.687757  6670 net.cpp:91] Creating Layer loss2/conv
I0403 18:11:02.687775  6670 net.cpp:425] loss2/conv <- loss2/ave_pool
I0403 18:11:02.687795  6670 net.cpp:399] loss2/conv -> loss2/conv
I0403 18:11:02.689721  6670 net.cpp:141] Setting up loss2/conv
I0403 18:11:02.689751  6670 net.cpp:148] Top shape: 24 128 4 4 (49152)
I0403 18:11:02.689767  6670 net.cpp:156] Memory required for data: 1207926048
I0403 18:11:02.689786  6670 layer_factory.hpp:77] Creating layer loss2/relu_conv
I0403 18:11:02.689805  6670 net.cpp:91] Creating Layer loss2/relu_conv
I0403 18:11:02.689821  6670 net.cpp:425] loss2/relu_conv <- loss2/conv
I0403 18:11:02.689841  6670 net.cpp:386] loss2/relu_conv -> loss2/conv (in-place)
I0403 18:11:02.690130  6670 net.cpp:141] Setting up loss2/relu_conv
I0403 18:11:02.690156  6670 net.cpp:148] Top shape: 24 128 4 4 (49152)
I0403 18:11:02.690171  6670 net.cpp:156] Memory required for data: 1208122656
I0403 18:11:02.690186  6670 layer_factory.hpp:77] Creating layer loss2/fc
I0403 18:11:02.690207  6670 net.cpp:91] Creating Layer loss2/fc
I0403 18:11:02.690230  6670 net.cpp:425] loss2/fc <- loss2/conv
I0403 18:11:02.690254  6670 net.cpp:399] loss2/fc -> loss2/fc
I0403 18:11:02.708608  6670 net.cpp:141] Setting up loss2/fc
I0403 18:11:02.708649  6670 net.cpp:148] Top shape: 24 1024 (24576)
I0403 18:11:02.708667  6670 net.cpp:156] Memory required for data: 1208220960
I0403 18:11:02.708688  6670 layer_factory.hpp:77] Creating layer loss2/relu_fc
I0403 18:11:02.708706  6670 net.cpp:91] Creating Layer loss2/relu_fc
I0403 18:11:02.708726  6670 net.cpp:425] loss2/relu_fc <- loss2/fc
I0403 18:11:02.708746  6670 net.cpp:386] loss2/relu_fc -> loss2/fc (in-place)
I0403 18:11:02.709090  6670 net.cpp:141] Setting up loss2/relu_fc
I0403 18:11:02.709121  6670 net.cpp:148] Top shape: 24 1024 (24576)
I0403 18:11:02.709139  6670 net.cpp:156] Memory required for data: 1208319264
I0403 18:11:02.709156  6670 layer_factory.hpp:77] Creating layer loss2/drop_fc
I0403 18:11:02.709177  6670 net.cpp:91] Creating Layer loss2/drop_fc
I0403 18:11:02.709194  6670 net.cpp:425] loss2/drop_fc <- loss2/fc
I0403 18:11:02.709218  6670 net.cpp:386] loss2/drop_fc -> loss2/fc (in-place)
I0403 18:11:02.709273  6670 net.cpp:141] Setting up loss2/drop_fc
I0403 18:11:02.709300  6670 net.cpp:148] Top shape: 24 1024 (24576)
I0403 18:11:02.709316  6670 net.cpp:156] Memory required for data: 1208417568
I0403 18:11:02.709332  6670 layer_factory.hpp:77] Creating layer loss2/classifier_plantvillage
I0403 18:11:02.709357  6670 net.cpp:91] Creating Layer loss2/classifier_plantvillage
I0403 18:11:02.709377  6670 net.cpp:425] loss2/classifier_plantvillage <- loss2/fc
I0403 18:11:02.709398  6670 net.cpp:399] loss2/classifier_plantvillage -> loss2/classifier_plantvillage
I0403 18:11:02.709820  6670 net.cpp:141] Setting up loss2/classifier_plantvillage
I0403 18:11:02.709847  6670 net.cpp:148] Top shape: 24 38 (912)
I0403 18:11:02.709884  6670 net.cpp:156] Memory required for data: 1208421216
I0403 18:11:02.709905  6670 layer_factory.hpp:77] Creating layer loss2/classifier_plantvillage_loss2/classifier_plantvillage_0_split
I0403 18:11:02.709925  6670 net.cpp:91] Creating Layer loss2/classifier_plantvillage_loss2/classifier_plantvillage_0_split
I0403 18:11:02.709942  6670 net.cpp:425] loss2/classifier_plantvillage_loss2/classifier_plantvillage_0_split <- loss2/classifier_plantvillage
I0403 18:11:02.709962  6670 net.cpp:399] loss2/classifier_plantvillage_loss2/classifier_plantvillage_0_split -> loss2/classifier_plantvillage_loss2/classifier_plantvillage_0_split_0
I0403 18:11:02.709985  6670 net.cpp:399] loss2/classifier_plantvillage_loss2/classifier_plantvillage_0_split -> loss2/classifier_plantvillage_loss2/classifier_plantvillage_0_split_1
I0403 18:11:02.710006  6670 net.cpp:399] loss2/classifier_plantvillage_loss2/classifier_plantvillage_0_split -> loss2/classifier_plantvillage_loss2/classifier_plantvillage_0_split_2
I0403 18:11:02.710088  6670 net.cpp:141] Setting up loss2/classifier_plantvillage_loss2/classifier_plantvillage_0_split
I0403 18:11:02.710111  6670 net.cpp:148] Top shape: 24 38 (912)
I0403 18:11:02.710129  6670 net.cpp:148] Top shape: 24 38 (912)
I0403 18:11:02.710145  6670 net.cpp:148] Top shape: 24 38 (912)
I0403 18:11:02.710160  6670 net.cpp:156] Memory required for data: 1208432160
I0403 18:11:02.710175  6670 layer_factory.hpp:77] Creating layer inception_4e/1x1
I0403 18:11:02.710199  6670 net.cpp:91] Creating Layer inception_4e/1x1
I0403 18:11:02.710223  6670 net.cpp:425] inception_4e/1x1 <- inception_4d/output_inception_4d/output_0_split_1
I0403 18:11:02.710245  6670 net.cpp:399] inception_4e/1x1 -> inception_4e/1x1
I0403 18:11:02.712169  6670 net.cpp:141] Setting up inception_4e/1x1
I0403 18:11:02.712199  6670 net.cpp:148] Top shape: 24 256 14 14 (1204224)
I0403 18:11:02.712229  6670 net.cpp:156] Memory required for data: 1213249056
I0403 18:11:02.712252  6670 layer_factory.hpp:77] Creating layer inception_4e/relu_1x1
I0403 18:11:02.712275  6670 net.cpp:91] Creating Layer inception_4e/relu_1x1
I0403 18:11:02.712296  6670 net.cpp:425] inception_4e/relu_1x1 <- inception_4e/1x1
I0403 18:11:02.712314  6670 net.cpp:386] inception_4e/relu_1x1 -> inception_4e/1x1 (in-place)
I0403 18:11:02.712627  6670 net.cpp:141] Setting up inception_4e/relu_1x1
I0403 18:11:02.712656  6670 net.cpp:148] Top shape: 24 256 14 14 (1204224)
I0403 18:11:02.712672  6670 net.cpp:156] Memory required for data: 1218065952
I0403 18:11:02.712689  6670 layer_factory.hpp:77] Creating layer inception_4e/3x3_reduce
I0403 18:11:02.712713  6670 net.cpp:91] Creating Layer inception_4e/3x3_reduce
I0403 18:11:02.712733  6670 net.cpp:425] inception_4e/3x3_reduce <- inception_4d/output_inception_4d/output_0_split_2
I0403 18:11:02.712754  6670 net.cpp:399] inception_4e/3x3_reduce -> inception_4e/3x3_reduce
I0403 18:11:02.714998  6670 net.cpp:141] Setting up inception_4e/3x3_reduce
I0403 18:11:02.715029  6670 net.cpp:148] Top shape: 24 160 14 14 (752640)
I0403 18:11:02.715049  6670 net.cpp:156] Memory required for data: 1221076512
I0403 18:11:02.715070  6670 layer_factory.hpp:77] Creating layer inception_4e/relu_3x3_reduce
I0403 18:11:02.715090  6670 net.cpp:91] Creating Layer inception_4e/relu_3x3_reduce
I0403 18:11:02.715108  6670 net.cpp:425] inception_4e/relu_3x3_reduce <- inception_4e/3x3_reduce
I0403 18:11:02.715128  6670 net.cpp:386] inception_4e/relu_3x3_reduce -> inception_4e/3x3_reduce (in-place)
I0403 18:11:02.715333  6670 net.cpp:141] Setting up inception_4e/relu_3x3_reduce
I0403 18:11:02.715360  6670 net.cpp:148] Top shape: 24 160 14 14 (752640)
I0403 18:11:02.715376  6670 net.cpp:156] Memory required for data: 1224087072
I0403 18:11:02.715392  6670 layer_factory.hpp:77] Creating layer inception_4e/3x3
I0403 18:11:02.715416  6670 net.cpp:91] Creating Layer inception_4e/3x3
I0403 18:11:02.715435  6670 net.cpp:425] inception_4e/3x3 <- inception_4e/3x3_reduce
I0403 18:11:02.715456  6670 net.cpp:399] inception_4e/3x3 -> inception_4e/3x3
I0403 18:11:02.720688  6670 net.cpp:141] Setting up inception_4e/3x3
I0403 18:11:02.720747  6670 net.cpp:148] Top shape: 24 320 14 14 (1505280)
I0403 18:11:02.720765  6670 net.cpp:156] Memory required for data: 1230108192
I0403 18:11:02.720787  6670 layer_factory.hpp:77] Creating layer inception_4e/relu_3x3
I0403 18:11:02.720809  6670 net.cpp:91] Creating Layer inception_4e/relu_3x3
I0403 18:11:02.720829  6670 net.cpp:425] inception_4e/relu_3x3 <- inception_4e/3x3
I0403 18:11:02.720847  6670 net.cpp:386] inception_4e/relu_3x3 -> inception_4e/3x3 (in-place)
I0403 18:11:02.721185  6670 net.cpp:141] Setting up inception_4e/relu_3x3
I0403 18:11:02.721223  6670 net.cpp:148] Top shape: 24 320 14 14 (1505280)
I0403 18:11:02.721243  6670 net.cpp:156] Memory required for data: 1236129312
I0403 18:11:02.721259  6670 layer_factory.hpp:77] Creating layer inception_4e/5x5_reduce
I0403 18:11:02.721282  6670 net.cpp:91] Creating Layer inception_4e/5x5_reduce
I0403 18:11:02.721298  6670 net.cpp:425] inception_4e/5x5_reduce <- inception_4d/output_inception_4d/output_0_split_3
I0403 18:11:02.721323  6670 net.cpp:399] inception_4e/5x5_reduce -> inception_4e/5x5_reduce
I0403 18:11:02.722458  6670 net.cpp:141] Setting up inception_4e/5x5_reduce
I0403 18:11:02.722489  6670 net.cpp:148] Top shape: 24 32 14 14 (150528)
I0403 18:11:02.722507  6670 net.cpp:156] Memory required for data: 1236731424
I0403 18:11:02.722528  6670 layer_factory.hpp:77] Creating layer inception_4e/relu_5x5_reduce
I0403 18:11:02.722549  6670 net.cpp:91] Creating Layer inception_4e/relu_5x5_reduce
I0403 18:11:02.722570  6670 net.cpp:425] inception_4e/relu_5x5_reduce <- inception_4e/5x5_reduce
I0403 18:11:02.722590  6670 net.cpp:386] inception_4e/relu_5x5_reduce -> inception_4e/5x5_reduce (in-place)
I0403 18:11:02.722903  6670 net.cpp:141] Setting up inception_4e/relu_5x5_reduce
I0403 18:11:02.722931  6670 net.cpp:148] Top shape: 24 32 14 14 (150528)
I0403 18:11:02.722947  6670 net.cpp:156] Memory required for data: 1237333536
I0403 18:11:02.722965  6670 layer_factory.hpp:77] Creating layer inception_4e/5x5
I0403 18:11:02.723008  6670 net.cpp:91] Creating Layer inception_4e/5x5
I0403 18:11:02.723029  6670 net.cpp:425] inception_4e/5x5 <- inception_4e/5x5_reduce
I0403 18:11:02.723052  6670 net.cpp:399] inception_4e/5x5 -> inception_4e/5x5
I0403 18:11:02.724961  6670 net.cpp:141] Setting up inception_4e/5x5
I0403 18:11:02.724994  6670 net.cpp:148] Top shape: 24 128 14 14 (602112)
I0403 18:11:02.725013  6670 net.cpp:156] Memory required for data: 1239741984
I0403 18:11:02.725034  6670 layer_factory.hpp:77] Creating layer inception_4e/relu_5x5
I0403 18:11:02.725059  6670 net.cpp:91] Creating Layer inception_4e/relu_5x5
I0403 18:11:02.725077  6670 net.cpp:425] inception_4e/relu_5x5 <- inception_4e/5x5
I0403 18:11:02.725098  6670 net.cpp:386] inception_4e/relu_5x5 -> inception_4e/5x5 (in-place)
I0403 18:11:02.725314  6670 net.cpp:141] Setting up inception_4e/relu_5x5
I0403 18:11:02.725343  6670 net.cpp:148] Top shape: 24 128 14 14 (602112)
I0403 18:11:02.725361  6670 net.cpp:156] Memory required for data: 1242150432
I0403 18:11:02.725378  6670 layer_factory.hpp:77] Creating layer inception_4e/pool
I0403 18:11:02.725399  6670 net.cpp:91] Creating Layer inception_4e/pool
I0403 18:11:02.725417  6670 net.cpp:425] inception_4e/pool <- inception_4d/output_inception_4d/output_0_split_4
I0403 18:11:02.725440  6670 net.cpp:399] inception_4e/pool -> inception_4e/pool
I0403 18:11:02.725514  6670 net.cpp:141] Setting up inception_4e/pool
I0403 18:11:02.725541  6670 net.cpp:148] Top shape: 24 528 14 14 (2483712)
I0403 18:11:02.725558  6670 net.cpp:156] Memory required for data: 1252085280
I0403 18:11:02.725574  6670 layer_factory.hpp:77] Creating layer inception_4e/pool_proj
I0403 18:11:02.725599  6670 net.cpp:91] Creating Layer inception_4e/pool_proj
I0403 18:11:02.725617  6670 net.cpp:425] inception_4e/pool_proj <- inception_4e/pool
I0403 18:11:02.725636  6670 net.cpp:399] inception_4e/pool_proj -> inception_4e/pool_proj
I0403 18:11:02.727195  6670 net.cpp:141] Setting up inception_4e/pool_proj
I0403 18:11:02.727246  6670 net.cpp:148] Top shape: 24 128 14 14 (602112)
I0403 18:11:02.727267  6670 net.cpp:156] Memory required for data: 1254493728
I0403 18:11:02.727288  6670 layer_factory.hpp:77] Creating layer inception_4e/relu_pool_proj
I0403 18:11:02.727308  6670 net.cpp:91] Creating Layer inception_4e/relu_pool_proj
I0403 18:11:02.727327  6670 net.cpp:425] inception_4e/relu_pool_proj <- inception_4e/pool_proj
I0403 18:11:02.727349  6670 net.cpp:386] inception_4e/relu_pool_proj -> inception_4e/pool_proj (in-place)
I0403 18:11:02.727666  6670 net.cpp:141] Setting up inception_4e/relu_pool_proj
I0403 18:11:02.727697  6670 net.cpp:148] Top shape: 24 128 14 14 (602112)
I0403 18:11:02.727715  6670 net.cpp:156] Memory required for data: 1256902176
I0403 18:11:02.727732  6670 layer_factory.hpp:77] Creating layer inception_4e/output
I0403 18:11:02.727752  6670 net.cpp:91] Creating Layer inception_4e/output
I0403 18:11:02.727769  6670 net.cpp:425] inception_4e/output <- inception_4e/1x1
I0403 18:11:02.727787  6670 net.cpp:425] inception_4e/output <- inception_4e/3x3
I0403 18:11:02.727803  6670 net.cpp:425] inception_4e/output <- inception_4e/5x5
I0403 18:11:02.727821  6670 net.cpp:425] inception_4e/output <- inception_4e/pool_proj
I0403 18:11:02.727840  6670 net.cpp:399] inception_4e/output -> inception_4e/output
I0403 18:11:02.727910  6670 net.cpp:141] Setting up inception_4e/output
I0403 18:11:02.727934  6670 net.cpp:148] Top shape: 24 832 14 14 (3913728)
I0403 18:11:02.727949  6670 net.cpp:156] Memory required for data: 1272557088
I0403 18:11:02.727965  6670 layer_factory.hpp:77] Creating layer pool4/3x3_s2
I0403 18:11:02.727987  6670 net.cpp:91] Creating Layer pool4/3x3_s2
I0403 18:11:02.728004  6670 net.cpp:425] pool4/3x3_s2 <- inception_4e/output
I0403 18:11:02.728024  6670 net.cpp:399] pool4/3x3_s2 -> pool4/3x3_s2
I0403 18:11:02.728097  6670 net.cpp:141] Setting up pool4/3x3_s2
I0403 18:11:02.728123  6670 net.cpp:148] Top shape: 24 832 7 7 (978432)
I0403 18:11:02.728139  6670 net.cpp:156] Memory required for data: 1276470816
I0403 18:11:02.728154  6670 layer_factory.hpp:77] Creating layer pool4/3x3_s2_pool4/3x3_s2_0_split
I0403 18:11:02.728173  6670 net.cpp:91] Creating Layer pool4/3x3_s2_pool4/3x3_s2_0_split
I0403 18:11:02.728189  6670 net.cpp:425] pool4/3x3_s2_pool4/3x3_s2_0_split <- pool4/3x3_s2
I0403 18:11:02.728217  6670 net.cpp:399] pool4/3x3_s2_pool4/3x3_s2_0_split -> pool4/3x3_s2_pool4/3x3_s2_0_split_0
I0403 18:11:02.728241  6670 net.cpp:399] pool4/3x3_s2_pool4/3x3_s2_0_split -> pool4/3x3_s2_pool4/3x3_s2_0_split_1
I0403 18:11:02.728263  6670 net.cpp:399] pool4/3x3_s2_pool4/3x3_s2_0_split -> pool4/3x3_s2_pool4/3x3_s2_0_split_2
I0403 18:11:02.728284  6670 net.cpp:399] pool4/3x3_s2_pool4/3x3_s2_0_split -> pool4/3x3_s2_pool4/3x3_s2_0_split_3
I0403 18:11:02.728379  6670 net.cpp:141] Setting up pool4/3x3_s2_pool4/3x3_s2_0_split
I0403 18:11:02.728405  6670 net.cpp:148] Top shape: 24 832 7 7 (978432)
I0403 18:11:02.728425  6670 net.cpp:148] Top shape: 24 832 7 7 (978432)
I0403 18:11:02.728441  6670 net.cpp:148] Top shape: 24 832 7 7 (978432)
I0403 18:11:02.728458  6670 net.cpp:148] Top shape: 24 832 7 7 (978432)
I0403 18:11:02.728472  6670 net.cpp:156] Memory required for data: 1292125728
I0403 18:11:02.728488  6670 layer_factory.hpp:77] Creating layer inception_5a/1x1
I0403 18:11:02.728512  6670 net.cpp:91] Creating Layer inception_5a/1x1
I0403 18:11:02.728531  6670 net.cpp:425] inception_5a/1x1 <- pool4/3x3_s2_pool4/3x3_s2_0_split_0
I0403 18:11:02.728554  6670 net.cpp:399] inception_5a/1x1 -> inception_5a/1x1
I0403 18:11:02.731549  6670 net.cpp:141] Setting up inception_5a/1x1
I0403 18:11:02.731581  6670 net.cpp:148] Top shape: 24 256 7 7 (301056)
I0403 18:11:02.731600  6670 net.cpp:156] Memory required for data: 1293329952
I0403 18:11:02.731621  6670 layer_factory.hpp:77] Creating layer inception_5a/relu_1x1
I0403 18:11:02.731640  6670 net.cpp:91] Creating Layer inception_5a/relu_1x1
I0403 18:11:02.731657  6670 net.cpp:425] inception_5a/relu_1x1 <- inception_5a/1x1
I0403 18:11:02.731679  6670 net.cpp:386] inception_5a/relu_1x1 -> inception_5a/1x1 (in-place)
I0403 18:11:02.732010  6670 net.cpp:141] Setting up inception_5a/relu_1x1
I0403 18:11:02.732040  6670 net.cpp:148] Top shape: 24 256 7 7 (301056)
I0403 18:11:02.732059  6670 net.cpp:156] Memory required for data: 1294534176
I0403 18:11:02.732075  6670 layer_factory.hpp:77] Creating layer inception_5a/3x3_reduce
I0403 18:11:02.732100  6670 net.cpp:91] Creating Layer inception_5a/3x3_reduce
I0403 18:11:02.732120  6670 net.cpp:425] inception_5a/3x3_reduce <- pool4/3x3_s2_pool4/3x3_s2_0_split_1
I0403 18:11:02.732142  6670 net.cpp:399] inception_5a/3x3_reduce -> inception_5a/3x3_reduce
I0403 18:11:02.734722  6670 net.cpp:141] Setting up inception_5a/3x3_reduce
I0403 18:11:02.734755  6670 net.cpp:148] Top shape: 24 160 7 7 (188160)
I0403 18:11:02.734771  6670 net.cpp:156] Memory required for data: 1295286816
I0403 18:11:02.734792  6670 layer_factory.hpp:77] Creating layer inception_5a/relu_3x3_reduce
I0403 18:11:02.734814  6670 net.cpp:91] Creating Layer inception_5a/relu_3x3_reduce
I0403 18:11:02.734833  6670 net.cpp:425] inception_5a/relu_3x3_reduce <- inception_5a/3x3_reduce
I0403 18:11:02.734851  6670 net.cpp:386] inception_5a/relu_3x3_reduce -> inception_5a/3x3_reduce (in-place)
I0403 18:11:02.735050  6670 net.cpp:141] Setting up inception_5a/relu_3x3_reduce
I0403 18:11:02.735077  6670 net.cpp:148] Top shape: 24 160 7 7 (188160)
I0403 18:11:02.735092  6670 net.cpp:156] Memory required for data: 1296039456
I0403 18:11:02.735108  6670 layer_factory.hpp:77] Creating layer inception_5a/3x3
I0403 18:11:02.735134  6670 net.cpp:91] Creating Layer inception_5a/3x3
I0403 18:11:02.735153  6670 net.cpp:425] inception_5a/3x3 <- inception_5a/3x3_reduce
I0403 18:11:02.735175  6670 net.cpp:399] inception_5a/3x3 -> inception_5a/3x3
I0403 18:11:02.740368  6670 net.cpp:141] Setting up inception_5a/3x3
I0403 18:11:02.740403  6670 net.cpp:148] Top shape: 24 320 7 7 (376320)
I0403 18:11:02.740422  6670 net.cpp:156] Memory required for data: 1297544736
I0403 18:11:02.740440  6670 layer_factory.hpp:77] Creating layer inception_5a/relu_3x3
I0403 18:11:02.740458  6670 net.cpp:91] Creating Layer inception_5a/relu_3x3
I0403 18:11:02.740475  6670 net.cpp:425] inception_5a/relu_3x3 <- inception_5a/3x3
I0403 18:11:02.740496  6670 net.cpp:386] inception_5a/relu_3x3 -> inception_5a/3x3 (in-place)
I0403 18:11:02.740793  6670 net.cpp:141] Setting up inception_5a/relu_3x3
I0403 18:11:02.740823  6670 net.cpp:148] Top shape: 24 320 7 7 (376320)
I0403 18:11:02.740840  6670 net.cpp:156] Memory required for data: 1299050016
I0403 18:11:02.740855  6670 layer_factory.hpp:77] Creating layer inception_5a/5x5_reduce
I0403 18:11:02.740882  6670 net.cpp:91] Creating Layer inception_5a/5x5_reduce
I0403 18:11:02.740901  6670 net.cpp:425] inception_5a/5x5_reduce <- pool4/3x3_s2_pool4/3x3_s2_0_split_2
I0403 18:11:02.740922  6670 net.cpp:399] inception_5a/5x5_reduce -> inception_5a/5x5_reduce
I0403 18:11:02.742110  6670 net.cpp:141] Setting up inception_5a/5x5_reduce
I0403 18:11:02.742141  6670 net.cpp:148] Top shape: 24 32 7 7 (37632)
I0403 18:11:02.742158  6670 net.cpp:156] Memory required for data: 1299200544
I0403 18:11:02.742178  6670 layer_factory.hpp:77] Creating layer inception_5a/relu_5x5_reduce
I0403 18:11:02.742198  6670 net.cpp:91] Creating Layer inception_5a/relu_5x5_reduce
I0403 18:11:02.742231  6670 net.cpp:425] inception_5a/relu_5x5_reduce <- inception_5a/5x5_reduce
I0403 18:11:02.742256  6670 net.cpp:386] inception_5a/relu_5x5_reduce -> inception_5a/5x5_reduce (in-place)
I0403 18:11:02.742563  6670 net.cpp:141] Setting up inception_5a/relu_5x5_reduce
I0403 18:11:02.742588  6670 net.cpp:148] Top shape: 24 32 7 7 (37632)
I0403 18:11:02.742604  6670 net.cpp:156] Memory required for data: 1299351072
I0403 18:11:02.742619  6670 layer_factory.hpp:77] Creating layer inception_5a/5x5
I0403 18:11:02.742642  6670 net.cpp:91] Creating Layer inception_5a/5x5
I0403 18:11:02.742660  6670 net.cpp:425] inception_5a/5x5 <- inception_5a/5x5_reduce
I0403 18:11:02.742682  6670 net.cpp:399] inception_5a/5x5 -> inception_5a/5x5
I0403 18:11:02.744418  6670 net.cpp:141] Setting up inception_5a/5x5
I0403 18:11:02.744462  6670 net.cpp:148] Top shape: 24 128 7 7 (150528)
I0403 18:11:02.744482  6670 net.cpp:156] Memory required for data: 1299953184
I0403 18:11:02.744503  6670 layer_factory.hpp:77] Creating layer inception_5a/relu_5x5
I0403 18:11:02.744520  6670 net.cpp:91] Creating Layer inception_5a/relu_5x5
I0403 18:11:02.744537  6670 net.cpp:425] inception_5a/relu_5x5 <- inception_5a/5x5
I0403 18:11:02.744557  6670 net.cpp:386] inception_5a/relu_5x5 -> inception_5a/5x5 (in-place)
I0403 18:11:02.744752  6670 net.cpp:141] Setting up inception_5a/relu_5x5
I0403 18:11:02.744777  6670 net.cpp:148] Top shape: 24 128 7 7 (150528)
I0403 18:11:02.744792  6670 net.cpp:156] Memory required for data: 1300555296
I0403 18:11:02.744807  6670 layer_factory.hpp:77] Creating layer inception_5a/pool
I0403 18:11:02.744824  6670 net.cpp:91] Creating Layer inception_5a/pool
I0403 18:11:02.744840  6670 net.cpp:425] inception_5a/pool <- pool4/3x3_s2_pool4/3x3_s2_0_split_3
I0403 18:11:02.744860  6670 net.cpp:399] inception_5a/pool -> inception_5a/pool
I0403 18:11:02.744931  6670 net.cpp:141] Setting up inception_5a/pool
I0403 18:11:02.744956  6670 net.cpp:148] Top shape: 24 832 7 7 (978432)
I0403 18:11:02.744971  6670 net.cpp:156] Memory required for data: 1304469024
I0403 18:11:02.744985  6670 layer_factory.hpp:77] Creating layer inception_5a/pool_proj
I0403 18:11:02.745012  6670 net.cpp:91] Creating Layer inception_5a/pool_proj
I0403 18:11:02.745029  6670 net.cpp:425] inception_5a/pool_proj <- inception_5a/pool
I0403 18:11:02.745048  6670 net.cpp:399] inception_5a/pool_proj -> inception_5a/pool_proj
I0403 18:11:02.747380  6670 net.cpp:141] Setting up inception_5a/pool_proj
I0403 18:11:02.747414  6670 net.cpp:148] Top shape: 24 128 7 7 (150528)
I0403 18:11:02.747433  6670 net.cpp:156] Memory required for data: 1305071136
I0403 18:11:02.747453  6670 layer_factory.hpp:77] Creating layer inception_5a/relu_pool_proj
I0403 18:11:02.747473  6670 net.cpp:91] Creating Layer inception_5a/relu_pool_proj
I0403 18:11:02.747490  6670 net.cpp:425] inception_5a/relu_pool_proj <- inception_5a/pool_proj
I0403 18:11:02.747509  6670 net.cpp:386] inception_5a/relu_pool_proj -> inception_5a/pool_proj (in-place)
I0403 18:11:02.747824  6670 net.cpp:141] Setting up inception_5a/relu_pool_proj
I0403 18:11:02.747855  6670 net.cpp:148] Top shape: 24 128 7 7 (150528)
I0403 18:11:02.747872  6670 net.cpp:156] Memory required for data: 1305673248
I0403 18:11:02.747889  6670 layer_factory.hpp:77] Creating layer inception_5a/output
I0403 18:11:02.747908  6670 net.cpp:91] Creating Layer inception_5a/output
I0403 18:11:02.747925  6670 net.cpp:425] inception_5a/output <- inception_5a/1x1
I0403 18:11:02.747942  6670 net.cpp:425] inception_5a/output <- inception_5a/3x3
I0403 18:11:02.747961  6670 net.cpp:425] inception_5a/output <- inception_5a/5x5
I0403 18:11:02.747977  6670 net.cpp:425] inception_5a/output <- inception_5a/pool_proj
I0403 18:11:02.747994  6670 net.cpp:399] inception_5a/output -> inception_5a/output
I0403 18:11:02.748049  6670 net.cpp:141] Setting up inception_5a/output
I0403 18:11:02.748075  6670 net.cpp:148] Top shape: 24 832 7 7 (978432)
I0403 18:11:02.748090  6670 net.cpp:156] Memory required for data: 1309586976
I0403 18:11:02.748107  6670 layer_factory.hpp:77] Creating layer inception_5a/output_inception_5a/output_0_split
I0403 18:11:02.748129  6670 net.cpp:91] Creating Layer inception_5a/output_inception_5a/output_0_split
I0403 18:11:02.748147  6670 net.cpp:425] inception_5a/output_inception_5a/output_0_split <- inception_5a/output
I0403 18:11:02.748164  6670 net.cpp:399] inception_5a/output_inception_5a/output_0_split -> inception_5a/output_inception_5a/output_0_split_0
I0403 18:11:02.748185  6670 net.cpp:399] inception_5a/output_inception_5a/output_0_split -> inception_5a/output_inception_5a/output_0_split_1
I0403 18:11:02.748208  6670 net.cpp:399] inception_5a/output_inception_5a/output_0_split -> inception_5a/output_inception_5a/output_0_split_2
I0403 18:11:02.748237  6670 net.cpp:399] inception_5a/output_inception_5a/output_0_split -> inception_5a/output_inception_5a/output_0_split_3
I0403 18:11:02.748358  6670 net.cpp:141] Setting up inception_5a/output_inception_5a/output_0_split
I0403 18:11:02.748385  6670 net.cpp:148] Top shape: 24 832 7 7 (978432)
I0403 18:11:02.748404  6670 net.cpp:148] Top shape: 24 832 7 7 (978432)
I0403 18:11:02.748420  6670 net.cpp:148] Top shape: 24 832 7 7 (978432)
I0403 18:11:02.748437  6670 net.cpp:148] Top shape: 24 832 7 7 (978432)
I0403 18:11:02.748453  6670 net.cpp:156] Memory required for data: 1325241888
I0403 18:11:02.748469  6670 layer_factory.hpp:77] Creating layer inception_5b/1x1
I0403 18:11:02.748492  6670 net.cpp:91] Creating Layer inception_5b/1x1
I0403 18:11:02.748509  6670 net.cpp:425] inception_5b/1x1 <- inception_5a/output_inception_5a/output_0_split_0
I0403 18:11:02.748533  6670 net.cpp:399] inception_5b/1x1 -> inception_5b/1x1
I0403 18:11:02.752421  6670 net.cpp:141] Setting up inception_5b/1x1
I0403 18:11:02.752455  6670 net.cpp:148] Top shape: 24 384 7 7 (451584)
I0403 18:11:02.752473  6670 net.cpp:156] Memory required for data: 1327048224
I0403 18:11:02.752493  6670 layer_factory.hpp:77] Creating layer inception_5b/relu_1x1
I0403 18:11:02.752516  6670 net.cpp:91] Creating Layer inception_5b/relu_1x1
I0403 18:11:02.752532  6670 net.cpp:425] inception_5b/relu_1x1 <- inception_5b/1x1
I0403 18:11:02.752550  6670 net.cpp:386] inception_5b/relu_1x1 -> inception_5b/1x1 (in-place)
I0403 18:11:02.752866  6670 net.cpp:141] Setting up inception_5b/relu_1x1
I0403 18:11:02.752893  6670 net.cpp:148] Top shape: 24 384 7 7 (451584)
I0403 18:11:02.752909  6670 net.cpp:156] Memory required for data: 1328854560
I0403 18:11:02.752924  6670 layer_factory.hpp:77] Creating layer inception_5b/3x3_reduce
I0403 18:11:02.752949  6670 net.cpp:91] Creating Layer inception_5b/3x3_reduce
I0403 18:11:02.752969  6670 net.cpp:425] inception_5b/3x3_reduce <- inception_5a/output_inception_5a/output_0_split_1
I0403 18:11:02.752988  6670 net.cpp:399] inception_5b/3x3_reduce -> inception_5b/3x3_reduce
I0403 18:11:02.755708  6670 net.cpp:141] Setting up inception_5b/3x3_reduce
I0403 18:11:02.755743  6670 net.cpp:148] Top shape: 24 192 7 7 (225792)
I0403 18:11:02.755759  6670 net.cpp:156] Memory required for data: 1329757728
I0403 18:11:02.755779  6670 layer_factory.hpp:77] Creating layer inception_5b/relu_3x3_reduce
I0403 18:11:02.755798  6670 net.cpp:91] Creating Layer inception_5b/relu_3x3_reduce
I0403 18:11:02.755815  6670 net.cpp:425] inception_5b/relu_3x3_reduce <- inception_5b/3x3_reduce
I0403 18:11:02.755834  6670 net.cpp:386] inception_5b/relu_3x3_reduce -> inception_5b/3x3_reduce (in-place)
I0403 18:11:02.756036  6670 net.cpp:141] Setting up inception_5b/relu_3x3_reduce
I0403 18:11:02.756062  6670 net.cpp:148] Top shape: 24 192 7 7 (225792)
I0403 18:11:02.756078  6670 net.cpp:156] Memory required for data: 1330660896
I0403 18:11:02.756093  6670 layer_factory.hpp:77] Creating layer inception_5b/3x3
I0403 18:11:02.756114  6670 net.cpp:91] Creating Layer inception_5b/3x3
I0403 18:11:02.756134  6670 net.cpp:425] inception_5b/3x3 <- inception_5b/3x3_reduce
I0403 18:11:02.756156  6670 net.cpp:399] inception_5b/3x3 -> inception_5b/3x3
I0403 18:11:02.763003  6670 net.cpp:141] Setting up inception_5b/3x3
I0403 18:11:02.763038  6670 net.cpp:148] Top shape: 24 384 7 7 (451584)
I0403 18:11:02.763056  6670 net.cpp:156] Memory required for data: 1332467232
I0403 18:11:02.763077  6670 layer_factory.hpp:77] Creating layer inception_5b/relu_3x3
I0403 18:11:02.763097  6670 net.cpp:91] Creating Layer inception_5b/relu_3x3
I0403 18:11:02.763114  6670 net.cpp:425] inception_5b/relu_3x3 <- inception_5b/3x3
I0403 18:11:02.763134  6670 net.cpp:386] inception_5b/relu_3x3 -> inception_5b/3x3 (in-place)
I0403 18:11:02.763449  6670 net.cpp:141] Setting up inception_5b/relu_3x3
I0403 18:11:02.763478  6670 net.cpp:148] Top shape: 24 384 7 7 (451584)
I0403 18:11:02.763494  6670 net.cpp:156] Memory required for data: 1334273568
I0403 18:11:02.763509  6670 layer_factory.hpp:77] Creating layer inception_5b/5x5_reduce
I0403 18:11:02.763550  6670 net.cpp:91] Creating Layer inception_5b/5x5_reduce
I0403 18:11:02.763569  6670 net.cpp:425] inception_5b/5x5_reduce <- inception_5a/output_inception_5a/output_0_split_2
I0403 18:11:02.763591  6670 net.cpp:399] inception_5b/5x5_reduce -> inception_5b/5x5_reduce
I0403 18:11:02.764896  6670 net.cpp:141] Setting up inception_5b/5x5_reduce
I0403 18:11:02.764930  6670 net.cpp:148] Top shape: 24 48 7 7 (56448)
I0403 18:11:02.764945  6670 net.cpp:156] Memory required for data: 1334499360
I0403 18:11:02.764964  6670 layer_factory.hpp:77] Creating layer inception_5b/relu_5x5_reduce
I0403 18:11:02.764983  6670 net.cpp:91] Creating Layer inception_5b/relu_5x5_reduce
I0403 18:11:02.765000  6670 net.cpp:425] inception_5b/relu_5x5_reduce <- inception_5b/5x5_reduce
I0403 18:11:02.765020  6670 net.cpp:386] inception_5b/relu_5x5_reduce -> inception_5b/5x5_reduce (in-place)
I0403 18:11:02.765415  6670 net.cpp:141] Setting up inception_5b/relu_5x5_reduce
I0403 18:11:02.765444  6670 net.cpp:148] Top shape: 24 48 7 7 (56448)
I0403 18:11:02.765460  6670 net.cpp:156] Memory required for data: 1334725152
I0403 18:11:02.765477  6670 layer_factory.hpp:77] Creating layer inception_5b/5x5
I0403 18:11:02.765498  6670 net.cpp:91] Creating Layer inception_5b/5x5
I0403 18:11:02.765516  6670 net.cpp:425] inception_5b/5x5 <- inception_5b/5x5_reduce
I0403 18:11:02.765535  6670 net.cpp:399] inception_5b/5x5 -> inception_5b/5x5
I0403 18:11:02.767617  6670 net.cpp:141] Setting up inception_5b/5x5
I0403 18:11:02.767647  6670 net.cpp:148] Top shape: 24 128 7 7 (150528)
I0403 18:11:02.767663  6670 net.cpp:156] Memory required for data: 1335327264
I0403 18:11:02.767683  6670 layer_factory.hpp:77] Creating layer inception_5b/relu_5x5
I0403 18:11:02.767702  6670 net.cpp:91] Creating Layer inception_5b/relu_5x5
I0403 18:11:02.767719  6670 net.cpp:425] inception_5b/relu_5x5 <- inception_5b/5x5
I0403 18:11:02.767740  6670 net.cpp:386] inception_5b/relu_5x5 -> inception_5b/5x5 (in-place)
I0403 18:11:02.767940  6670 net.cpp:141] Setting up inception_5b/relu_5x5
I0403 18:11:02.767966  6670 net.cpp:148] Top shape: 24 128 7 7 (150528)
I0403 18:11:02.767982  6670 net.cpp:156] Memory required for data: 1335929376
I0403 18:11:02.767998  6670 layer_factory.hpp:77] Creating layer inception_5b/pool
I0403 18:11:02.768018  6670 net.cpp:91] Creating Layer inception_5b/pool
I0403 18:11:02.768035  6670 net.cpp:425] inception_5b/pool <- inception_5a/output_inception_5a/output_0_split_3
I0403 18:11:02.768054  6670 net.cpp:399] inception_5b/pool -> inception_5b/pool
I0403 18:11:02.768129  6670 net.cpp:141] Setting up inception_5b/pool
I0403 18:11:02.768153  6670 net.cpp:148] Top shape: 24 832 7 7 (978432)
I0403 18:11:02.768169  6670 net.cpp:156] Memory required for data: 1339843104
I0403 18:11:02.768184  6670 layer_factory.hpp:77] Creating layer inception_5b/pool_proj
I0403 18:11:02.768214  6670 net.cpp:91] Creating Layer inception_5b/pool_proj
I0403 18:11:02.768234  6670 net.cpp:425] inception_5b/pool_proj <- inception_5b/pool
I0403 18:11:02.768257  6670 net.cpp:399] inception_5b/pool_proj -> inception_5b/pool_proj
I0403 18:11:02.770618  6670 net.cpp:141] Setting up inception_5b/pool_proj
I0403 18:11:02.770650  6670 net.cpp:148] Top shape: 24 128 7 7 (150528)
I0403 18:11:02.770668  6670 net.cpp:156] Memory required for data: 1340445216
I0403 18:11:02.770687  6670 layer_factory.hpp:77] Creating layer inception_5b/relu_pool_proj
I0403 18:11:02.770709  6670 net.cpp:91] Creating Layer inception_5b/relu_pool_proj
I0403 18:11:02.770725  6670 net.cpp:425] inception_5b/relu_pool_proj <- inception_5b/pool_proj
I0403 18:11:02.770747  6670 net.cpp:386] inception_5b/relu_pool_proj -> inception_5b/pool_proj (in-place)
I0403 18:11:02.771052  6670 net.cpp:141] Setting up inception_5b/relu_pool_proj
I0403 18:11:02.771083  6670 net.cpp:148] Top shape: 24 128 7 7 (150528)
I0403 18:11:02.771100  6670 net.cpp:156] Memory required for data: 1341047328
I0403 18:11:02.771116  6670 layer_factory.hpp:77] Creating layer inception_5b/output
I0403 18:11:02.771136  6670 net.cpp:91] Creating Layer inception_5b/output
I0403 18:11:02.771169  6670 net.cpp:425] inception_5b/output <- inception_5b/1x1
I0403 18:11:02.771189  6670 net.cpp:425] inception_5b/output <- inception_5b/3x3
I0403 18:11:02.771208  6670 net.cpp:425] inception_5b/output <- inception_5b/5x5
I0403 18:11:02.771229  6670 net.cpp:425] inception_5b/output <- inception_5b/pool_proj
I0403 18:11:02.771250  6670 net.cpp:399] inception_5b/output -> inception_5b/output
I0403 18:11:02.771302  6670 net.cpp:141] Setting up inception_5b/output
I0403 18:11:02.771327  6670 net.cpp:148] Top shape: 24 1024 7 7 (1204224)
I0403 18:11:02.771342  6670 net.cpp:156] Memory required for data: 1345864224
I0403 18:11:02.771356  6670 layer_factory.hpp:77] Creating layer pool5/7x7_s1
I0403 18:11:02.771378  6670 net.cpp:91] Creating Layer pool5/7x7_s1
I0403 18:11:02.771395  6670 net.cpp:425] pool5/7x7_s1 <- inception_5b/output
I0403 18:11:02.771414  6670 net.cpp:399] pool5/7x7_s1 -> pool5/7x7_s1
I0403 18:11:02.771641  6670 net.cpp:141] Setting up pool5/7x7_s1
I0403 18:11:02.771668  6670 net.cpp:148] Top shape: 24 1024 1 1 (24576)
I0403 18:11:02.771684  6670 net.cpp:156] Memory required for data: 1345962528
I0403 18:11:02.771699  6670 layer_factory.hpp:77] Creating layer pool5/drop_7x7_s1
I0403 18:11:02.771718  6670 net.cpp:91] Creating Layer pool5/drop_7x7_s1
I0403 18:11:02.771733  6670 net.cpp:425] pool5/drop_7x7_s1 <- pool5/7x7_s1
I0403 18:11:02.771754  6670 net.cpp:386] pool5/drop_7x7_s1 -> pool5/7x7_s1 (in-place)
I0403 18:11:02.771805  6670 net.cpp:141] Setting up pool5/drop_7x7_s1
I0403 18:11:02.771827  6670 net.cpp:148] Top shape: 24 1024 1 1 (24576)
I0403 18:11:02.771842  6670 net.cpp:156] Memory required for data: 1346060832
I0403 18:11:02.771857  6670 layer_factory.hpp:77] Creating layer loss3/classifier_plantvillage
I0403 18:11:02.771880  6670 net.cpp:91] Creating Layer loss3/classifier_plantvillage
I0403 18:11:02.771898  6670 net.cpp:425] loss3/classifier_plantvillage <- pool5/7x7_s1
I0403 18:11:02.771919  6670 net.cpp:399] loss3/classifier_plantvillage -> loss3/classifier_plantvillage
I0403 18:11:02.772367  6670 net.cpp:141] Setting up loss3/classifier_plantvillage
I0403 18:11:02.772393  6670 net.cpp:148] Top shape: 24 38 (912)
I0403 18:11:02.772408  6670 net.cpp:156] Memory required for data: 1346064480
I0403 18:11:02.772428  6670 layer_factory.hpp:77] Creating layer loss3/classifier_plantvillage_loss3/classifier_plantvillage_0_split
I0403 18:11:02.772449  6670 net.cpp:91] Creating Layer loss3/classifier_plantvillage_loss3/classifier_plantvillage_0_split
I0403 18:11:02.772475  6670 net.cpp:425] loss3/classifier_plantvillage_loss3/classifier_plantvillage_0_split <- loss3/classifier_plantvillage
I0403 18:11:02.772493  6670 net.cpp:399] loss3/classifier_plantvillage_loss3/classifier_plantvillage_0_split -> loss3/classifier_plantvillage_loss3/classifier_plantvillage_0_split_0
I0403 18:11:02.772513  6670 net.cpp:399] loss3/classifier_plantvillage_loss3/classifier_plantvillage_0_split -> loss3/classifier_plantvillage_loss3/classifier_plantvillage_0_split_1
I0403 18:11:02.772533  6670 net.cpp:399] loss3/classifier_plantvillage_loss3/classifier_plantvillage_0_split -> loss3/classifier_plantvillage_loss3/classifier_plantvillage_0_split_2
I0403 18:11:02.772553  6670 net.cpp:399] loss3/classifier_plantvillage_loss3/classifier_plantvillage_0_split -> loss3/classifier_plantvillage_loss3/classifier_plantvillage_0_split_3
I0403 18:11:02.772653  6670 net.cpp:141] Setting up loss3/classifier_plantvillage_loss3/classifier_plantvillage_0_split
I0403 18:11:02.772678  6670 net.cpp:148] Top shape: 24 38 (912)
I0403 18:11:02.772696  6670 net.cpp:148] Top shape: 24 38 (912)
I0403 18:11:02.772711  6670 net.cpp:148] Top shape: 24 38 (912)
I0403 18:11:02.772727  6670 net.cpp:148] Top shape: 24 38 (912)
I0403 18:11:02.772742  6670 net.cpp:156] Memory required for data: 1346079072
I0403 18:11:02.772756  6670 layer_factory.hpp:77] Creating layer loss1/loss
I0403 18:11:02.772779  6670 net.cpp:91] Creating Layer loss1/loss
I0403 18:11:02.772799  6670 net.cpp:425] loss1/loss <- loss1/classifier_plantvillage_loss1/classifier_plantvillage_0_split_0
I0403 18:11:02.772832  6670 net.cpp:425] loss1/loss <- label_data_1_split_0
…
