…
I0403 17:51:43.295675  6138 net.cpp:313] The NetState phase (1) differed from the phase (0) specified by a rule in layer data
I0403 17:51:43.296808  6138 net.cpp:49] Initializing net from parameters: 
state {
  phase: TEST
}
layer {
  name: "data"
  type: "Data"
  top: "data"
  top: "label"
  include {
    phase: TEST
  }
  transform_param {
    mirror: false
    crop_size: 224
    mean_file: "/home/mohanty/data/final_dataset/lmdb/segmented-50-50/mean.binaryproto"
  }
  data_param {
    source: "/home/mohanty/data/final_dataset/lmdb/segmented-50-50/test_db"
    batch_size: 24
    backend: LMDB
  }
}
layer {
  name: "conv1/7x7_s2"
  type: "Convolution"
  bottom: "data"
  top: "conv1/7x7_s2"
  param {
    lr_mult: 1
    decay_mult: 1
  }
  param {
    lr_mult: 2
    decay_mult: 0
  }
  convolution_param {
    num_output: 64
    pad: 3
    kernel_size: 7
    stride: 2
    weight_filler {
      type: "xavier"
      std: 0.1
    }
    bias_filler {
      type: "constant"
      value: 0.2
    }
  }
}
layer {
  name: "conv1/relu_7x7"
  type: "ReLU"
  bottom: "conv1/7x7_s2"
  top: "conv1/7x7_s2"
}
layer {
  name: "pool1/3x3_s2"
  type: "Pooling"
  bottom: "conv1/7x7_s2"
  top: "pool1/3x3_s2"
  pooling_param {
    pool: MAX
    kernel_size: 3
    stride: 2
  }
}
layer {
  name: "pool1/norm1"
  type: "LRN"
  bottom: "pool1/3x3_s2"
  top: "pool1/norm1"
  lrn_param {
    local_size: 5
    alpha: 0.0001
    beta: 0.75
  }
}
layer {
  name: "conv2/3x3_reduce"
  type: "Convolution"
  bottom: "pool1/norm1"
  top: "conv2/3x3_reduce"
  param {
    lr_mult: 1
    decay_mult: 1
  }
  param {
    lr_mult: 2
    decay_mult: 0
  }
  convolution_param {
    num_output: 64
    kernel_size: 1
    weight_filler {
      type: "xavier"
      std: 0.1
    }
    bias_filler {
      type: "constant"
      value: 0.2
    }
  }
}
layer {
  name: "conv2/relu_3x3_reduce"
  type: "ReLU"
  bottom: "conv2/3x3_reduce"
  top: "conv2/3x3_reduce"
}
layer {
  name: "conv2/3x3"
  type: "Convolution"
  bottom: "conv2/3x3_reduce"
  top: "conv2/3x3"
  param {
    lr_mult: 1
    decay_mult: 1
  }
  param {
    lr_mult: 2
    decay_mult: 0
  }
  convolution_param {
    num_output: 192
    pad: 1
    kernel_size: 3
    weight_filler {
      type: "xavier"
      std: 0.03
    }
    bias_filler {
      type: "constant"
      value: 0.2
    }
  }
}
layer {
  name: "conv2/relu_3x3"
  type: "ReLU"
  bottom: "conv2/3x3"
  top: "conv2/3x3"
}
layer {
  name: "conv2/norm2"
  type: "LRN"
  bottom: "conv2/3x3"
  top: "conv2/norm2"
  lrn_param {
    local_size: 5
    alpha: 0.0001
    beta: 0.75
  }
}
layer {
  name: "pool2/3x3_s2"
  type: "Pooling"
  bottom: "conv2/norm2"
  top: "pool2/3x3_s2"
  pooling_param {
    pool: MAX
    kernel_size: 3
    stride: 2
  }
}
layer {
  name: "inception_3a/1x1"
  type: "Convolution"
  bottom: "pool2/3x3_s2"
  top: "inception_3a/1x1"
  param {
    lr_mult: 1
    decay_mult: 1
  }
  param {
    lr_mult: 2
    decay_mult: 0
  }
  convolution_param {
    num_output: 64
    kernel_size: 1
    weight_filler {
      type: "xavier"
      std: 0.03
    }
    bias_filler {
      type: "constant"
      value: 0.2
    }
  }
}
layer {
  name: "inception_3a/relu_1x1"
  type: "ReLU"
  bottom: "inception_3a/1x1"
  top: "inception_3a/1x1"
}
layer {
  name: "inception_3a/3x3_reduce"
  type: "Convolution"
  bottom: "pool2/3x3_s2"
  top: "inception_3a/3x3_reduce"
  param {
    lr_mult: 1
    decay_mult: 1
  }
  param {
    lr_mult: 2
    decay_mult: 0
  }
  convolution_param {
    num_output: 96
    kernel_size: 1
    weight_filler {
      type: "xavier"
      std: 0.09
    }
    bias_filler {
      type: "constant"
      value: 0.2
    }
  }
}
layer {
  name: "inception_3a/relu_3x3_reduce"
  type: "ReLU"
  bottom: "inception_3a/3x3_reduce"
  top: "inception_3a/3x3_reduce"
}
layer {
  name: "inception_3a/3x3"
  type: "Convolution"
  bottom: "inception_3a/3x3_reduce"
  top: "inception_3a/3x3"
  param {
    lr_mult: 1
    decay_mult: 1
  }
  param {
    lr_mult: 2
    decay_mult: 0
  }
  convolution_param {
    num_output: 128
    pad: 1
    kernel_size: 3
    weight_filler {
      type: "xavier"
      std: 0.03
    }
    bias_filler {
      type: "constant"
      value: 0.2
    }
  }
}
layer {
  name: "inception_3a/relu_3x3"
  type: "ReLU"
  bottom: "inception_3a/3x3"
  top: "inception_3a/3x3"
}
layer {
  name: "inception_3a/5x5_reduce"
  type: "Convolution"
  bottom: "pool2/3x3_s2"
  top: "inception_3a/5x5_reduce"
  param {
    lr_mult: 1
    decay_mult: 1
  }
  param {
    lr_mult: 2
    decay_mult: 0
  }
  convolution_param {
    num_output: 16
    kernel_size: 1
    weight_filler {
      type: "xavier"
      std: 0.2
    }
    bias_filler {
      type: "constant"
      value: 0.2
    }
  }
}
layer {
  name: "inception_3a/relu_5x5_reduce"
  type: "ReLU"
  bottom: "inception_3a/5x5_reduce"
  top: "inception_3a/5x5_reduce"
}
layer {
  name: "inception_3a/5x5"
  type: "Convolution"
  bottom: "inception_3a/5x5_reduce"
  top: "inception_3a/5x5"
  param {
    lr_mult: 1
    decay_mult: 1
  }
  param {
    lr_mult: 2
    decay_mult: 0
  }
  convolution_param {
    num_output: 32
    pad: 2
    kernel_size: 5
    weight_filler {
      type: "xavier"
      std: 0.03
    }
    bias_filler {
      type: "constant"
      value: 0.2
    }
  }
}
layer {
  name: "inception_3a/relu_5x5"
  type: "ReLU"
  bottom: "inception_3a/5x5"
  top: "inception_3a/5x5"
}
layer {
  name: "inception_3a/pool"
  type: "Pooling"
  bottom: "pool2/3x3_s2"
  top: "inception_3a/pool"
  pooling_param {
    pool: MAX
    kernel_size: 3
    stride: 1
    pad: 1
  }
}
layer {
  name: "inception_3a/pool_proj"
  type: "Convolution"
  bottom: "inception_3a/pool"
  top: "inception_3a/pool_proj"
  param {
    lr_mult: 1
    decay_mult: 1
  }
  param {
    lr_mult: 2
    decay_mult: 0
  }
  convolution_param {
    num_output: 32
    kernel_size: 1
    weight_filler {
      type: "xavier"
      std: 0.1
    }
    bias_filler {
      type: "constant"
      value: 0.2
    }
  }
}
layer {
  name: "inception_3a/relu_pool_proj"
  type: "ReLU"
  bottom: "inception_3a/pool_proj"
  top: "inception_3a/pool_proj"
}
layer {
  name: "inception_3a/output"
  type: "Concat"
  bottom: "inception_3a/1x1"
  bottom: "inception_3a/3x3"
  bottom: "inception_3a/5x5"
  bottom: "inception_3a/pool_proj"
  top: "inception_3a/output"
}
layer {
  name: "inception_3b/1x1"
  type: "Convolution"
  bottom: "inception_3a/output"
  top: "inception_3b/1x1"
  param {
    lr_mult: 1
    decay_mult: 1
  }
  param {
    lr_mult: 2
    decay_mult: 0
  }
  convolution_param {
    num_output: 128
    kernel_size: 1
    weight_filler {
      type: "xavier"
      std: 0.03
    }
    bias_filler {
      type: "constant"
      value: 0.2
    }
  }
}
layer {
  name: "inception_3b/relu_1x1"
  type: "ReLU"
  bottom: "inception_3b/1x1"
  top: "inception_3b/1x1"
}
layer {
  name: "inception_3b/3x3_reduce"
  type: "Convolution"
  bottom: "inception_3a/output"
  top: "inception_3b/3x3_reduce"
  param {
    lr_mult: 1
    decay_mult: 1
  }
  param {
    lr_mult: 2
    decay_mult: 0
  }
  convolution_param {
    num_output: 128
    kernel_size: 1
    weight_filler {
      type: "xavier"
      std: 0.09
    }
    bias_filler {
      type: "constant"
      value: 0.2
    }
  }
}
layer {
  name: "inception_3b/relu_3x3_reduce"
  type: "ReLU"
  bottom: "inception_3b/3x3_reduce"
  top: "inception_3b/3x3_reduce"
}
layer {
  name: "inception_3b/3x3"
  type: "Convolution"
  bottom: "inception_3b/3x3_reduce"
  top: "inception_3b/3x3"
  param {
    lr_mult: 1
    decay_mult: 1
  }
  param {
    lr_mult: 2
    decay_mult: 0
  }
  convolution_param {
    num_output: 192
    pad: 1
    kernel_size: 3
    weight_filler {
      type: "xavier"
      std: 0.03
    }
    bias_filler {
      type: "constant"
      value: 0.2
    }
  }
}
layer {
  name: "inception_3b/relu_3x3"
  type: "ReLU"
  bottom: "inception_3b/3x3"
  top: "inception_3b/3x3"
}
layer {
  name: "inception_3b/5x5_reduce"
  type: "Convolution"
  bottom: "inception_3a/output"
  top: "inception_3b/5x5_reduce"
  param {
    lr_mult: 1
    decay_mult: 1
  }
  param {
    lr_mult: 2
    decay_mult: 0
  }
  convolution_param {
    num_output: 32
    kernel_size: 1
    weight_filler {
      type: "xavier"
      std: 0.2
    }
    bias_filler {
      type: "constant"
      value: 0.2
    }
  }
}
layer {
  name: "inception_3b/relu_5x5_reduce"
  type: "ReLU"
  bottom: "inception_3b/5x5_reduce"
  top: "inception_3b/5x5_reduce"
}
layer {
  name: "inception_3b/5x5"
  type: "Convolution"
  bottom: "inception_3b/5x5_reduce"
  top: "inception_3b/5x5"
  param {
    lr_mult: 1
    decay_mult: 1
  }
  param {
    lr_mult: 2
    decay_mult: 0
  }
  convolution_param {
    num_output: 96
    pad: 2
    kernel_size: 5
    weight_filler {
      type: "xavier"
      std: 0.03
    }
    bias_filler {
      type: "constant"
      value: 0.2
    }
  }
}
layer {
  name: "inception_3b/relu_5x5"
  type: "ReLU"
  bottom: "inception_3b/5x5"
  top: "inception_3b/5x5"
}
layer {
  name: "inception_3b/pool"
  type: "Pooling"
  bottom: "inception_3a/output"
  top: "inception_3b/pool"
  pooling_param {
    pool: MAX
    kernel_size: 3
    stride: 1
    pad: 1
  }
}
layer {
  name: "inception_3b/pool_proj"
  type: "Convolution"
  bottom: "inception_3b/pool"
  top: "inception_3b/pool_proj"
  param {
    lr_mult: 1
    decay_mult: 1
  }
  param {
    lr_mult: 2
    decay_mult: 0
  }
  convolution_param {
    num_output: 64
    kernel_size: 1
    weight_filler {
      type: "xavier"
      std: 0.1
    }
    bias_filler {
      type: "constant"
      value: 0.2
    }
  }
}
layer {
  name: "inception_3b/relu_pool_proj"
  type: "ReLU"
  bottom: "inception_3b/pool_proj"
  top: "inception_3b/pool_proj"
}
layer {
  name: "inception_3b/output"
  type: "Concat"
  bottom: "inception_3b/1x1"
  bottom: "inception_3b/3x3"
  bottom: "inception_3b/5x5"
  bottom: "inception_3b/pool_proj"
  top: "inception_3b/output"
}
layer {
  name: "pool3/3x3_s2"
  type: "Pooling"
  bottom: "inception_3b/output"
  top: "pool3/3x3_s2"
  pooling_param {
    pool: MAX
    kernel_size: 3
    stride: 2
  }
}
layer {
  name: "inception_4a/1x1"
  type: "Convolution"
  bottom: "pool3/3x3_s2"
  top: "inception_4a/1x1"
  param {
    lr_mult: 1
    decay_mult: 1
  }
  param {
    lr_mult: 2
    decay_mult: 0
  }
  convolution_param {
    num_output: 192
    kernel_size: 1
    weight_filler {
      type: "xavier"
      std: 0.03
    }
    bias_filler {
      type: "constant"
      value: 0.2
    }
  }
}
layer {
  name: "inception_4a/relu_1x1"
  type: "ReLU"
  bottom: "inception_4a/1x1"
  top: "inception_4a/1x1"
}
layer {
  name: "inception_4a/3x3_reduce"
  type: "Convolution"
  bottom: "pool3/3x3_s2"
  top: "inception_4a/3x3_reduce"
  param {
    lr_mult: 1
    decay_mult: 1
  }
  param {
    lr_mult: 2
    decay_mult: 0
  }
  convolution_param {
    num_output: 96
    kernel_size: 1
    weight_filler {
      type: "xavier"
      std: 0.09
    }
    bias_filler {
      type: "constant"
      value: 0.2
    }
  }
}
layer {
  name: "inception_4a/relu_3x3_reduce"
  type: "ReLU"
  bottom: "inception_4a/3x3_reduce"
  top: "inception_4a/3x3_reduce"
}
layer {
  name: "inception_4a/3x3"
  type: "Convolution"
  bottom: "inception_4a/3x3_reduce"
  top: "inception_4a/3x3"
  param {
    lr_mult: 1
    decay_mult: 1
  }
  param {
    lr_mult: 2
    decay_mult: 0
  }
  convolution_param {
    num_output: 208
    pad: 1
    kernel_size: 3
    weight_filler {
      type: "xavier"
      std: 0.03
    }
    bias_filler {
      type: "constant"
      value: 0.2
    }
  }
}
layer {
  name: "inception_4a/relu_3x3"
  type: "ReLU"
  bottom: "inception_4a/3x3"
  top: "inception_4a/3x3"
}
layer {
  name: "inception_4a/5x5_reduce"
  type: "Convolution"
  bottom: "pool3/3x3_s2"
  top: "inception_4a/5x5_reduce"
  param {
    lr_mult: 1
    decay_mult: 1
  }
  param {
    lr_mult: 2
    decay_mult: 0
  }
  convolution_param {
    num_output: 16
    kernel_size: 1
    weight_filler {
      type: "xavier"
      std: 0.2
    }
    bias_filler {
      type: "constant"
      value: 0.2
    }
  }
}
layer {
  name: "inception_4a/relu_5x5_reduce"
  type: "ReLU"
  bottom: "inception_4a/5x5_reduce"
  top: "inception_4a/5x5_reduce"
}
layer {
  name: "inception_4a/5x5"
  type: "Convolution"
  bottom: "inception_4a/5x5_reduce"
  top: "inception_4a/5x5"
  param {
    lr_mult: 1
    decay_mult: 1
  }
  param {
    lr_mult: 2
    decay_mult: 0
  }
  convolution_param {
    num_output: 48
    pad: 2
    kernel_size: 5
    weight_filler {
      type: "xavier"
      std: 0.03
    }
    bias_filler {
      type: "constant"
      value: 0.2
    }
  }
}
layer {
  name: "inception_4a/relu_5x5"
  type: "ReLU"
  bottom: "inception_4a/5x5"
  top: "inception_4a/5x5"
}
layer {
  name: "inception_4a/pool"
  type: "Pooling"
  bottom: "pool3/3x3_s2"
  top: "inception_4a/pool"
  pooling_param {
    pool: MAX
    kernel_size: 3
    stride: 1
    pad: 1
  }
}
layer {
  name: "inception_4a/pool_proj"
  type: "Convolution"
  bottom: "inception_4a/pool"
  top: "inception_4a/pool_proj"
  param {
    lr_mult: 1
    decay_mult: 1
  }
  param {
    lr_mult: 2
    decay_mult: 0
  }
  convolution_param {
    num_output: 64
    kernel_size: 1
    weight_filler {
      type: "xavier"
      std: 0.1
    }
    bias_filler {
      type: "constant"
      value: 0.2
    }
  }
}
layer {
  name: "inception_4a/relu_pool_proj"
  type: "ReLU"
  bottom: "inception_4a/pool_proj"
  top: "inception_4a/pool_proj"
}
layer {
  name: "inception_4a/output"
  type: "Concat"
  bottom: "inception_4a/1x1"
  bottom: "inception_4a/3x3"
  bottom: "inception_4a/5x5"
  bottom: "inception_4a/pool_proj"
  top: "inception_4a/output"
}
layer {
  name: "loss1/ave_pool"
  type: "Pooling"
  bottom: "inception_4a/output"
  top: "loss1/ave_pool"
  pooling_param {
    pool: AVE
    kernel_size: 5
    stride: 3
  }
}
layer {
  name: "loss1/conv"
  type: "Convolution"
  bottom: "loss1/ave_pool"
  top: "loss1/conv"
  param {
    lr_mult: 1
    decay_mult: 1
  }
  param {
    lr_mult: 2
    decay_mult: 0
  }
  convolution_param {
    num_output: 128
    kernel_size: 1
    weight_filler {
      type: "xavier"
      std: 0.08
    }
    bias_filler {
      type: "constant"
      value: 0.2
    }
  }
}
layer {
  name: "loss1/relu_conv"
  type: "ReLU"
  bottom: "loss1/conv"
  top: "loss1/conv"
}
layer {
  name: "loss1/fc"
  type: "InnerProduct"
  bottom: "loss1/conv"
  top: "loss1/fc"
  param {
    lr_mult: 1
    decay_mult: 1
  }
  param {
    lr_mult: 2
    decay_mult: 0
  }
  inner_product_param {
    num_output: 1024
    weight_filler {
      type: "xavier"
      std: 0.02
    }
    bias_filler {
      type: "constant"
      value: 0.2
    }
  }
}
layer {
  name: "loss1/relu_fc"
  type: "ReLU"
  bottom: "loss1/fc"
  top: "loss1/fc"
}
layer {
  name: "loss1/drop_fc"
  type: "Dropout"
  bottom: "loss1/fc"
  top: "loss1/fc"
  dropout_param {
    dropout_ratio: 0.7
  }
}
layer {
  name: "loss1/classifier_plantvillage"
  type: "InnerProduct"
  bottom: "loss1/fc"
  top: "loss1/classifier_plantvillage"
  param {
    lr_mult: 1
    decay_mult: 1
  }
  param {
    lr_mult: 2
    decay_mult: 0
  }
  inner_product_param {
    num_output: 38
    weight_filler {
      type: "xavier"
      std: 0.0009765625
    }
    bias_filler {
      type: "constant"
      value: 0
    }
  }
}
layer {
  name: "inception_4b/1x1"
  type: "Convolution"
  bottom: "inception_4a/output"
  top: "inception_4b/1x1"
  param {
    lr_mult: 1
    decay_mult: 1
  }
  param {
    lr_mult: 2
    decay_mult: 0
  }
  convolution_param {
    num_output: 160
    kernel_size: 1
    weight_filler {
      type: "xavier"
      std: 0.03
    }
    bias_filler {
      type: "constant"
      value: 0.2
    }
  }
}
layer {
  name: "inception_4b/relu_1x1"
  type: "ReLU"
  bottom: "inception_4b/1x1"
  top: "inception_4b/1x1"
}
layer {
  name: "inception_4b/3x3_reduce"
  type: "Convolution"
  bottom: "inception_4a/output"
  top: "inception_4b/3x3_reduce"
  param {
    lr_mult: 1
    decay_mult: 1
  }
  param {
    lr_mult: 2
    decay_mult: 0
  }
  convolution_param {
    num_output: 112
    kernel_size: 1
    weight_filler {
      type: "xavier"
      std: 0.09
    }
    bias_filler {
      type: "constant"
      value: 0.2
    }
  }
}
layer {
  name: "inception_4b/relu_3x3_reduce"
  type: "ReLU"
  bottom: "inception_4b/3x3_reduce"
  top: "inception_4b/3x3_reduce"
}
layer {
  name: "inception_4b/3x3"
  type: "Convolution"
  bottom: "inception_4b/3x3_reduce"
  top: "inception_4b/3x3"
  param {
    lr_mult: 1
    decay_mult: 1
  }
  param {
    lr_mult: 2
    decay_mult: 0
  }
  convolution_param {
    num_output: 224
    pad: 1
    kernel_size: 3
    weight_filler {
      type: "xavier"
      std: 0.03
    }
    bias_filler {
      type: "constant"
      value: 0.2
    }
  }
}
layer {
  name: "inception_4b/relu_3x3"
  type: "ReLU"
  bottom: "inception_4b/3x3"
  top: "inception_4b/3x3"
}
layer {
  name: "inception_4b/5x5_reduce"
  type: "Convolution"
  bottom: "inception_4a/output"
  top: "inception_4b/5x5_reduce"
  param {
    lr_mult: 1
    decay_mult: 1
  }
  param {
    lr_mult: 2
    decay_mult: 0
  }
  convolution_param {
    num_output: 24
    kernel_size: 1
    weight_filler {
      type: "xavier"
      std: 0.2
    }
    bias_filler {
      type: "constant"
      value: 0.2
    }
  }
}
layer {
  name: "inception_4b/relu_5x5_reduce"
  type: "ReLU"
  bottom: "inception_4b/5x5_reduce"
  top: "inception_4b/5x5_reduce"
}
layer {
  name: "inception_4b/5x5"
  type: "Convolution"
  bottom: "inception_4b/5x5_reduce"
  top: "inception_4b/5x5"
  param {
    lr_mult: 1
    decay_mult: 1
  }
  param {
    lr_mult: 2
    decay_mult: 0
  }
  convolution_param {
    num_output: 64
    pad: 2
    kernel_size: 5
    weight_filler {
      type: "xavier"
      std: 0.03
    }
    bias_filler {
      type: "constant"
      value: 0.2
    }
  }
}
layer {
  name: "inception_4b/relu_5x5"
  type: "ReLU"
  bottom: "inception_4b/5x5"
  top: "inception_4b/5x5"
}
layer {
  name: "inception_4b/pool"
  type: "Pooling"
  bottom: "inception_4a/output"
  top: "inception_4b/pool"
  pooling_param {
    pool: MAX
    kernel_size: 3
    stride: 1
    pad: 1
  }
}
layer {
  name: "inception_4b/pool_proj"
  type: "Convolution"
  bottom: "inception_4b/pool"
  top: "inception_4b/pool_proj"
  param {
    lr_mult: 1
    decay_mult: 1
  }
  param {
    lr_mult: 2
    decay_mult: 0
  }
  convolution_param {
    num_output: 64
    kernel_size: 1
    weight_filler {
      type: "xavier"
      std: 0.1
    }
    bias_filler {
      type: "constant"
      value: 0.2
    }
  }
}
layer {
  name: "inception_4b/relu_pool_proj"
  type: "ReLU"
  bottom: "inception_4b/pool_proj"
  top: "inception_4b/pool_proj"
}
layer {
  name: "inception_4b/output"
  type: "Concat"
  bottom: "inception_4b/1x1"
  bottom: "inception_4b/3x3"
  bottom: "inception_4b/5x5"
  bottom: "inception_4b/pool_proj"
  top: "inception_4b/output"
}
layer {
  name: "inception_4c/1x1"
  type: "Convolution"
  bottom: "inception_4b/output"
  top: "inception_4c/1x1"
  param {
    lr_mult: 1
    decay_mult: 1
  }
  param {
    lr_mult: 2
    decay_mult: 0
  }
  convolution_param {
    num_output: 128
    kernel_size: 1
    weight_filler {
      type: "xavier"
      std: 0.03
    }
    bias_filler {
      type: "constant"
      value: 0.2
    }
  }
}
layer {
  name: "inception_4c/relu_1x1"
  type: "ReLU"
  bottom: "inception_4c/1x1"
  top: "inception_4c/1x1"
}
layer {
  name: "inception_4c/3x3_reduce"
  type: "Convolution"
  bottom: "inception_4b/output"
  top: "inception_4c/3x3_reduce"
  param {
    lr_mult: 1
    decay_mult: 1
  }
  param {
    lr_mult: 2
    decay_mult: 0
  }
  convolution_param {
    num_output: 128
    kernel_size: 1
    weight_filler {
      type: "xavier"
      std: 0.09
    }
    bias_filler {
      type: "constant"
      value: 0.2
    }
  }
}
layer {
  name: "inception_4c/relu_3x3_reduce"
  type: "ReLU"
  bottom: "inception_4c/3x3_reduce"
  top: "inception_4c/3x3_reduce"
}
layer {
  name: "inception_4c/3x3"
  type: "Convolution"
  bottom: "inception_4c/3x3_reduce"
  top: "inception_4c/3x3"
  param {
    lr_mult: 1
    decay_mult: 1
  }
  param {
    lr_mult: 2
    decay_mult: 0
  }
  convolution_param {
    num_output: 256
    pad: 1
    kernel_size: 3
    weight_filler {
      type: "xavier"
      std: 0.03
    }
    bias_filler {
      type: "constant"
      value: 0.2
    }
  }
}
layer {
  name: "inception_4c/relu_3x3"
  type: "ReLU"
  bottom: "inception_4c/3x3"
  top: "inception_4c/3x3"
}
layer {
  name: "inception_4c/5x5_reduce"
  type: "Convolution"
  bottom: "inception_4b/output"
  top: "inception_4c/5x5_reduce"
  param {
    lr_mult: 1
    decay_mult: 1
  }
  param {
    lr_mult: 2
    decay_mult: 0
  }
  convolution_param {
    num_output: 24
    kernel_size: 1
    weight_filler {
      type: "xavier"
      std: 0.2
    }
    bias_filler {
      type: "constant"
      value: 0.2
    }
  }
}
layer {
  name: "inception_4c/relu_5x5_reduce"
  type: "ReLU"
  bottom: "inception_4c/5x5_reduce"
  top: "inception_4c/5x5_reduce"
}
layer {
  name: "inception_4c/5x5"
  type: "Convolution"
  bottom: "inception_4c/5x5_reduce"
  top: "inception_4c/5x5"
  param {
    lr_mult: 1
    decay_mult: 1
  }
  param {
    lr_mult: 2
    decay_mult: 0
  }
  convolution_param {
    num_output: 64
    pad: 2
    kernel_size: 5
    weight_filler {
      type: "xavier"
      std: 0.03
    }
    bias_filler {
      type: "constant"
      value: 0.2
    }
  }
}
layer {
  name: "inception_4c/relu_5x5"
  type: "ReLU"
  bottom: "inception_4c/5x5"
  top: "inception_4c/5x5"
}
layer {
  name: "inception_4c/pool"
  type: "Pooling"
  bottom: "inception_4b/output"
  top: "inception_4c/pool"
  pooling_param {
    pool: MAX
    kernel_size: 3
    stride: 1
    pad: 1
  }
}
layer {
  name: "inception_4c/pool_proj"
  type: "Convolution"
  bottom: "inception_4c/pool"
  top: "inception_4c/pool_proj"
  param {
    lr_mult: 1
    decay_mult: 1
  }
  param {
    lr_mult: 2
    decay_mult: 0
  }
  convolution_param {
    num_output: 64
    kernel_size: 1
    weight_filler {
      type: "xavier"
      std: 0.1
    }
    bias_filler {
      type: "constant"
      value: 0.2
    }
  }
}
layer {
  name: "inception_4c/relu_pool_proj"
  type: "ReLU"
  bottom: "inception_4c/pool_proj"
  top: "inception_4c/pool_proj"
}
layer {
  name: "inception_4c/output"
  type: "Concat"
  bottom: "inception_4c/1x1"
  bottom: "inception_4c/3x3"
  bottom: "inception_4c/5x5"
  bottom: "inception_4c/pool_proj"
  top: "inception_4c/output"
}
layer {
  name: "inception_4d/1x1"
  type: "Convolution"
  bottom: "inception_4c/output"
  top: "inception_4d/1x1"
  param {
    lr_mult: 1
    decay_mult: 1
  }
  param {
    lr_mult: 2
    decay_mult: 0
  }
  convolution_param {
    num_output: 112
    kernel_size: 1
    weight_filler {
      type: "xavier"
      std: 0.03
    }
    bias_filler {
      type: "constant"
      value: 0.2
    }
  }
}
layer {
  name: "inception_4d/relu_1x1"
  type: "ReLU"
  bottom: "inception_4d/1x1"
  top: "inception_4d/1x1"
}
layer {
  name: "inception_4d/3x3_reduce"
  type: "Convolution"
  bottom: "inception_4c/output"
  top: "inception_4d/3x3_reduce"
  param {
    lr_mult: 1
    decay_mult: 1
  }
  param {
    lr_mult: 2
    decay_mult: 0
  }
  convolution_param {
    num_output: 144
    kernel_size: 1
    weight_filler {
      type: "xavier"
      std: 0.09
    }
    bias_filler {
      type: "constant"
      value: 0.2
    }
  }
}
layer {
  name: "inception_4d/relu_3x3_reduce"
  type: "ReLU"
  bottom: "inception_4d/3x3_reduce"
  top: "inception_4d/3x3_reduce"
}
layer {
  name: "inception_4d/3x3"
  type: "Convolution"
  bottom: "inception_4d/3x3_reduce"
  top: "inception_4d/3x3"
  param {
    lr_mult: 1
    decay_mult: 1
  }
  param {
    lr_mult: 2
    decay_mult: 0
  }
  convolution_param {
    num_output: 288
    pad: 1
    kernel_size: 3
    weight_filler {
      type: "xavier"
      std: 0.03
    }
    bias_filler {
      type: "constant"
      value: 0.2
    }
  }
}
layer {
  name: "inception_4d/relu_3x3"
  type: "ReLU"
  bottom: "inception_4d/3x3"
  top: "inception_4d/3x3"
}
layer {
  name: "inception_4d/5x5_reduce"
  type: "Convolution"
  bottom: "inception_4c/output"
  top: "inception_4d/5x5_reduce"
  param {
    lr_mult: 1
    decay_mult: 1
  }
  param {
    lr_mult: 2
    decay_mult: 0
  }
  convolution_param {
    num_output: 32
    kernel_size: 1
    weight_filler {
      type: "xavier"
      std: 0.2
    }
    bias_filler {
      type: "constant"
      value: 0.2
    }
  }
}
layer {
  name: "inception_4d/relu_5x5_reduce"
  type: "ReLU"
  bottom: "inception_4d/5x5_reduce"
  top: "inception_4d/5x5_reduce"
}
layer {
  name: "inception_4d/5x5"
  type: "Convolution"
  bottom: "inception_4d/5x5_reduce"
  top: "inception_4d/5x5"
  param {
    lr_mult: 1
    decay_mult: 1
  }
  param {
    lr_mult: 2
    decay_mult: 0
  }
  convolution_param {
    num_output: 64
    pad: 2
    kernel_size: 5
    weight_filler {
      type: "xavier"
      std: 0.03
    }
    bias_filler {
      type: "constant"
      value: 0.2
    }
  }
}
layer {
  name: "inception_4d/relu_5x5"
  type: "ReLU"
  bottom: "inception_4d/5x5"
  top: "inception_4d/5x5"
}
layer {
  name: "inception_4d/pool"
  type: "Pooling"
  bottom: "inception_4c/output"
  top: "inception_4d/pool"
  pooling_param {
    pool: MAX
    kernel_size: 3
    stride: 1
    pad: 1
  }
}
layer {
  name: "inception_4d/pool_proj"
  type: "Convolution"
  bottom: "inception_4d/pool"
  top: "inception_4d/pool_proj"
  param {
    lr_mult: 1
    decay_mult: 1
  }
  param {
    lr_mult: 2
    decay_mult: 0
  }
  convolution_param {
    num_output: 64
    kernel_size: 1
    weight_filler {
      type: "xavier"
      std: 0.1
    }
    bias_filler {
      type: "constant"
      value: 0.2
    }
  }
}
layer {
  name: "inception_4d/relu_pool_proj"
  type: "ReLU"
  bottom: "inception_4d/pool_proj"
  top: "inception_4d/pool_proj"
}
layer {
  name: "inception_4d/output"
  type: "Concat"
  bottom: "inception_4d/1x1"
  bottom: "inception_4d/3x3"
  bottom: "inception_4d/5x5"
  bottom: "inception_4d/pool_proj"
  top: "inception_4d/output"
}
layer {
  name: "loss2/ave_pool"
  type: "Pooling"
  bottom: "inception_4d/output"
  top: "loss2/ave_pool"
  pooling_param {
    pool: AVE
    kernel_size: 5
    stride: 3
  }
}
layer {
  name: "loss2/conv"
  type: "Convolution"
  bottom: "loss2/ave_pool"
  top: "loss2/conv"
  param {
    lr_mult: 1
    decay_mult: 1
  }
  param {
    lr_mult: 2
    decay_mult: 0
  }
  convolution_param {
    num_output: 128
    kernel_size: 1
    weight_filler {
      type: "xavier"
      std: 0.08
    }
    bias_filler {
      type: "constant"
      value: 0.2
    }
  }
}
layer {
  name: "loss2/relu_conv"
  type: "ReLU"
  bottom: "loss2/conv"
  top: "loss2/conv"
}
layer {
  name: "loss2/fc"
  type: "InnerProduct"
  bottom: "loss2/conv"
  top: "loss2/fc"
  param {
    lr_mult: 1
    decay_mult: 1
  }
  param {
    lr_mult: 2
    decay_mult: 0
  }
  inner_product_param {
    num_output: 1024
    weight_filler {
      type: "xavier"
      std: 0.02
    }
    bias_filler {
      type: "constant"
      value: 0.2
    }
  }
}
layer {
  name: "loss2/relu_fc"
  type: "ReLU"
  bottom: "loss2/fc"
  top: "loss2/fc"
}
layer {
  name: "loss2/drop_fc"
  type: "Dropout"
  bottom: "loss2/fc"
  top: "loss2/fc"
  dropout_param {
    dropout_ratio: 0.7
  }
}
layer {
  name: "loss2/classifier_plantvillage"
  type: "InnerProduct"
  bottom: "loss2/fc"
  top: "loss2/classifier_plantvillage"
  param {
    lr_mult: 1
    decay_mult: 1
  }
  param {
    lr_mult: 2
    decay_mult: 0
  }
  inner_product_param {
    num_output: 38
    weight_filler {
      type: "xavier"
      std: 0.0009765625
    }
    bias_filler {
      type: "constant"
      value: 0
    }
  }
}
layer {
  name: "inception_4e/1x1"
  type: "Convolution"
  bottom: "inception_4d/output"
  top: "inception_4e/1x1"
  param {
    lr_mult: 1
    decay_mult: 1
  }
  param {
    lr_mult: 2
    decay_mult: 0
  }
  convolution_param {
    num_output: 256
    kernel_size: 1
    weight_filler {
      type: "xavier"
      std: 0.03
    }
    bias_filler {
      type: "constant"
      value: 0.2
    }
  }
}
layer {
  name: "inception_4e/relu_1x1"
  type: "ReLU"
  bottom: "inception_4e/1x1"
  top: "inception_4e/1x1"
}
layer {
  name: "inception_4e/3x3_reduce"
  type: "Convolution"
  bottom: "inception_4d/output"
  top: "inception_4e/3x3_reduce"
  param {
    lr_mult: 1
    decay_mult: 1
  }
  param {
    lr_mult: 2
    decay_mult: 0
  }
  convolution_param {
    num_output: 160
    kernel_size: 1
    weight_filler {
      type: "xavier"
      std: 0.09
    }
    bias_filler {
      type: "constant"
      value: 0.2
    }
  }
}
layer {
  name: "inception_4e/relu_3x3_reduce"
  type: "ReLU"
  bottom: "inception_4e/3x3_reduce"
  top: "inception_4e/3x3_reduce"
}
layer {
  name: "inception_4e/3x3"
  type: "Convolution"
  bottom: "inception_4e/3x3_reduce"
  top: "inception_4e/3x3"
  param {
    lr_mult: 1
    decay_mult: 1
  }
  param {
    lr_mult: 2
    decay_mult: 0
  }
  convolution_param {
    num_output: 320
    pad: 1
    kernel_size: 3
    weight_filler {
      type: "xavier"
      std: 0.03
    }
    bias_filler {
      type: "constant"
      value: 0.2
    }
  }
}
layer {
  name: "inception_4e/relu_3x3"
  type: "ReLU"
  bottom: "inception_4e/3x3"
  top: "inception_4e/3x3"
}
layer {
  name: "inception_4e/5x5_reduce"
  type: "Convolution"
  bottom: "inception_4d/output"
  top: "inception_4e/5x5_reduce"
  param {
    lr_mult: 1
    decay_mult: 1
  }
  param {
    lr_mult: 2
    decay_mult: 0
  }
  convolution_param {
    num_output: 32
    kernel_size: 1
    weight_filler {
      type: "xavier"
      std: 0.2
    }
    bias_filler {
      type: "constant"
      value: 0.2
    }
  }
}
layer {
  name: "inception_4e/relu_5x5_reduce"
  type: "ReLU"
  bottom: "inception_4e/5x5_reduce"
  top: "inception_4e/5x5_reduce"
}
layer {
  name: "inception_4e/5x5"
  type: "Convolution"
  bottom: "inception_4e/5x5_reduce"
  top: "inception_4e/
I0403 17:51:43.298188  6138 layer_factory.hpp:77] Creating layer data
I0403 17:51:43.298779  6138 net.cpp:91] Creating Layer data
I0403 17:51:43.298809  6138 net.cpp:399] data -> data
I0403 17:51:43.298857  6138 net.cpp:399] data -> label
I0403 17:51:43.298895  6138 data_transformer.cpp:25] Loading mean file from: /home/mohanty/data/final_dataset/lmdb/segmented-50-50/mean.binaryproto
I0403 17:51:43.300051  6141 db_lmdb.cpp:38] Opened lmdb /home/mohanty/data/final_dataset/lmdb/segmented-50-50/test_db
I0403 17:51:43.311637  6138 data_layer.cpp:41] output data size: 24,3,224,224
I0403 17:51:43.338799  6138 net.cpp:141] Setting up data
I0403 17:51:43.338881  6138 net.cpp:148] Top shape: 24 3 224 224 (3612672)
I0403 17:51:43.338902  6138 net.cpp:148] Top shape: 24 (24)
I0403 17:51:43.338917  6138 net.cpp:156] Memory required for data: 14450784
I0403 17:51:43.338943  6138 layer_factory.hpp:77] Creating layer label_data_1_split
I0403 17:51:43.338968  6138 net.cpp:91] Creating Layer label_data_1_split
I0403 17:51:43.338984  6138 net.cpp:425] label_data_1_split <- label
I0403 17:51:43.339015  6138 net.cpp:399] label_data_1_split -> label_data_1_split_0
I0403 17:51:43.339040  6138 net.cpp:399] label_data_1_split -> label_data_1_split_1
I0403 17:51:43.339061  6138 net.cpp:399] label_data_1_split -> label_data_1_split_2
I0403 17:51:43.339081  6138 net.cpp:399] label_data_1_split -> label_data_1_split_3
I0403 17:51:43.339098  6138 net.cpp:399] label_data_1_split -> label_data_1_split_4
I0403 17:51:43.339118  6138 net.cpp:399] label_data_1_split -> label_data_1_split_5
I0403 17:51:43.339138  6138 net.cpp:399] label_data_1_split -> label_data_1_split_6
I0403 17:51:43.339156  6138 net.cpp:399] label_data_1_split -> label_data_1_split_7
I0403 17:51:43.339175  6138 net.cpp:399] label_data_1_split -> label_data_1_split_8
I0403 17:51:43.339195  6138 net.cpp:399] label_data_1_split -> label_data_1_split_9
I0403 17:51:43.339314  6138 net.cpp:141] Setting up label_data_1_split
I0403 17:51:43.339337  6138 net.cpp:148] Top shape: 24 (24)
I0403 17:51:43.339354  6138 net.cpp:148] Top shape: 24 (24)
I0403 17:51:43.339370  6138 net.cpp:148] Top shape: 24 (24)
I0403 17:51:43.339386  6138 net.cpp:148] Top shape: 24 (24)
I0403 17:51:43.339401  6138 net.cpp:148] Top shape: 24 (24)
I0403 17:51:43.339416  6138 net.cpp:148] Top shape: 24 (24)
I0403 17:51:43.339432  6138 net.cpp:148] Top shape: 24 (24)
I0403 17:51:43.339447  6138 net.cpp:148] Top shape: 24 (24)
I0403 17:51:43.339462  6138 net.cpp:148] Top shape: 24 (24)
I0403 17:51:43.339478  6138 net.cpp:148] Top shape: 24 (24)
I0403 17:51:43.339532  6138 net.cpp:156] Memory required for data: 14451744
I0403 17:51:43.339547  6138 layer_factory.hpp:77] Creating layer conv1/7x7_s2
I0403 17:51:43.339579  6138 net.cpp:91] Creating Layer conv1/7x7_s2
I0403 17:51:43.339596  6138 net.cpp:425] conv1/7x7_s2 <- data
I0403 17:51:43.339615  6138 net.cpp:399] conv1/7x7_s2 -> conv1/7x7_s2
I0403 17:51:43.478282  6138 net.cpp:141] Setting up conv1/7x7_s2
I0403 17:51:43.478374  6138 net.cpp:148] Top shape: 24 64 112 112 (19267584)
I0403 17:51:43.478391  6138 net.cpp:156] Memory required for data: 91522080
I0403 17:51:43.478421  6138 layer_factory.hpp:77] Creating layer conv1/relu_7x7
I0403 17:51:43.478448  6138 net.cpp:91] Creating Layer conv1/relu_7x7
I0403 17:51:43.478466  6138 net.cpp:425] conv1/relu_7x7 <- conv1/7x7_s2
I0403 17:51:43.478483  6138 net.cpp:386] conv1/relu_7x7 -> conv1/7x7_s2 (in-place)
I0403 17:51:43.478749  6138 net.cpp:141] Setting up conv1/relu_7x7
I0403 17:51:43.478775  6138 net.cpp:148] Top shape: 24 64 112 112 (19267584)
I0403 17:51:43.478818  6138 net.cpp:156] Memory required for data: 168592416
I0403 17:51:43.478834  6138 layer_factory.hpp:77] Creating layer pool1/3x3_s2
I0403 17:51:43.478858  6138 net.cpp:91] Creating Layer pool1/3x3_s2
I0403 17:51:43.478875  6138 net.cpp:425] pool1/3x3_s2 <- conv1/7x7_s2
I0403 17:51:43.478893  6138 net.cpp:399] pool1/3x3_s2 -> pool1/3x3_s2
I0403 17:51:43.478968  6138 net.cpp:141] Setting up pool1/3x3_s2
I0403 17:51:43.478992  6138 net.cpp:148] Top shape: 24 64 56 56 (4816896)
I0403 17:51:43.479007  6138 net.cpp:156] Memory required for data: 187860000
I0403 17:51:43.479022  6138 layer_factory.hpp:77] Creating layer pool1/norm1
I0403 17:51:43.479048  6138 net.cpp:91] Creating Layer pool1/norm1
I0403 17:51:43.479079  6138 net.cpp:425] pool1/norm1 <- pool1/3x3_s2
I0403 17:51:43.479095  6138 net.cpp:399] pool1/norm1 -> pool1/norm1
I0403 17:51:43.479389  6138 net.cpp:141] Setting up pool1/norm1
I0403 17:51:43.479415  6138 net.cpp:148] Top shape: 24 64 56 56 (4816896)
I0403 17:51:43.479431  6138 net.cpp:156] Memory required for data: 207127584
I0403 17:51:43.479446  6138 layer_factory.hpp:77] Creating layer conv2/3x3_reduce
I0403 17:51:43.479483  6138 net.cpp:91] Creating Layer conv2/3x3_reduce
I0403 17:51:43.479501  6138 net.cpp:425] conv2/3x3_reduce <- pool1/norm1
I0403 17:51:43.479518  6138 net.cpp:399] conv2/3x3_reduce -> conv2/3x3_reduce
I0403 17:51:43.480881  6138 net.cpp:141] Setting up conv2/3x3_reduce
I0403 17:51:43.480911  6138 net.cpp:148] Top shape: 24 64 56 56 (4816896)
I0403 17:51:43.480926  6138 net.cpp:156] Memory required for data: 226395168
I0403 17:51:43.480947  6138 layer_factory.hpp:77] Creating layer conv2/relu_3x3_reduce
I0403 17:51:43.480967  6138 net.cpp:91] Creating Layer conv2/relu_3x3_reduce
I0403 17:51:43.480981  6138 net.cpp:425] conv2/relu_3x3_reduce <- conv2/3x3_reduce
I0403 17:51:43.480998  6138 net.cpp:386] conv2/relu_3x3_reduce -> conv2/3x3_reduce (in-place)
I0403 17:51:43.481261  6138 net.cpp:141] Setting up conv2/relu_3x3_reduce
I0403 17:51:43.481287  6138 net.cpp:148] Top shape: 24 64 56 56 (4816896)
I0403 17:51:43.481302  6138 net.cpp:156] Memory required for data: 245662752
I0403 17:51:43.481317  6138 layer_factory.hpp:77] Creating layer conv2/3x3
I0403 17:51:43.481338  6138 net.cpp:91] Creating Layer conv2/3x3
I0403 17:51:43.481355  6138 net.cpp:425] conv2/3x3 <- conv2/3x3_reduce
I0403 17:51:43.481376  6138 net.cpp:399] conv2/3x3 -> conv2/3x3
I0403 17:51:43.483600  6138 net.cpp:141] Setting up conv2/3x3
I0403 17:51:43.483630  6138 net.cpp:148] Top shape: 24 192 56 56 (14450688)
I0403 17:51:43.483645  6138 net.cpp:156] Memory required for data: 303465504
I0403 17:51:43.483666  6138 layer_factory.hpp:77] Creating layer conv2/relu_3x3
I0403 17:51:43.483690  6138 net.cpp:91] Creating Layer conv2/relu_3x3
I0403 17:51:43.483705  6138 net.cpp:425] conv2/relu_3x3 <- conv2/3x3
I0403 17:51:43.483722  6138 net.cpp:386] conv2/relu_3x3 -> conv2/3x3 (in-place)
I0403 17:51:43.483891  6138 net.cpp:141] Setting up conv2/relu_3x3
I0403 17:51:43.483914  6138 net.cpp:148] Top shape: 24 192 56 56 (14450688)
I0403 17:51:43.483959  6138 net.cpp:156] Memory required for data: 361268256
I0403 17:51:43.483975  6138 layer_factory.hpp:77] Creating layer conv2/norm2
I0403 17:51:43.483995  6138 net.cpp:91] Creating Layer conv2/norm2
I0403 17:51:43.484010  6138 net.cpp:425] conv2/norm2 <- conv2/3x3
I0403 17:51:43.484030  6138 net.cpp:399] conv2/norm2 -> conv2/norm2
I0403 17:51:43.484328  6138 net.cpp:141] Setting up conv2/norm2
I0403 17:51:43.484356  6138 net.cpp:148] Top shape: 24 192 56 56 (14450688)
I0403 17:51:43.484372  6138 net.cpp:156] Memory required for data: 419071008
I0403 17:51:43.484386  6138 layer_factory.hpp:77] Creating layer pool2/3x3_s2
I0403 17:51:43.484403  6138 net.cpp:91] Creating Layer pool2/3x3_s2
I0403 17:51:43.484418  6138 net.cpp:425] pool2/3x3_s2 <- conv2/norm2
I0403 17:51:43.484438  6138 net.cpp:399] pool2/3x3_s2 -> pool2/3x3_s2
I0403 17:51:43.484495  6138 net.cpp:141] Setting up pool2/3x3_s2
I0403 17:51:43.484520  6138 net.cpp:148] Top shape: 24 192 28 28 (3612672)
I0403 17:51:43.484536  6138 net.cpp:156] Memory required for data: 433521696
I0403 17:51:43.484550  6138 layer_factory.hpp:77] Creating layer pool2/3x3_s2_pool2/3x3_s2_0_split
I0403 17:51:43.484567  6138 net.cpp:91] Creating Layer pool2/3x3_s2_pool2/3x3_s2_0_split
I0403 17:51:43.484582  6138 net.cpp:425] pool2/3x3_s2_pool2/3x3_s2_0_split <- pool2/3x3_s2
I0403 17:51:43.484598  6138 net.cpp:399] pool2/3x3_s2_pool2/3x3_s2_0_split -> pool2/3x3_s2_pool2/3x3_s2_0_split_0
I0403 17:51:43.484617  6138 net.cpp:399] pool2/3x3_s2_pool2/3x3_s2_0_split -> pool2/3x3_s2_pool2/3x3_s2_0_split_1
I0403 17:51:43.484638  6138 net.cpp:399] pool2/3x3_s2_pool2/3x3_s2_0_split -> pool2/3x3_s2_pool2/3x3_s2_0_split_2
I0403 17:51:43.484658  6138 net.cpp:399] pool2/3x3_s2_pool2/3x3_s2_0_split -> pool2/3x3_s2_pool2/3x3_s2_0_split_3
I0403 17:51:43.484738  6138 net.cpp:141] Setting up pool2/3x3_s2_pool2/3x3_s2_0_split
I0403 17:51:43.484760  6138 net.cpp:148] Top shape: 24 192 28 28 (3612672)
I0403 17:51:43.484776  6138 net.cpp:148] Top shape: 24 192 28 28 (3612672)
I0403 17:51:43.484793  6138 net.cpp:148] Top shape: 24 192 28 28 (3612672)
I0403 17:51:43.484822  6138 net.cpp:148] Top shape: 24 192 28 28 (3612672)
I0403 17:51:43.484836  6138 net.cpp:156] Memory required for data: 491324448
I0403 17:51:43.484850  6138 layer_factory.hpp:77] Creating layer inception_3a/1x1
I0403 17:51:43.484872  6138 net.cpp:91] Creating Layer inception_3a/1x1
I0403 17:51:43.484889  6138 net.cpp:425] inception_3a/1x1 <- pool2/3x3_s2_pool2/3x3_s2_0_split_0
I0403 17:51:43.484910  6138 net.cpp:399] inception_3a/1x1 -> inception_3a/1x1
I0403 17:51:43.486395  6138 net.cpp:141] Setting up inception_3a/1x1
I0403 17:51:43.486423  6138 net.cpp:148] Top shape: 24 64 28 28 (1204224)
I0403 17:51:43.486439  6138 net.cpp:156] Memory required for data: 496141344
I0403 17:51:43.486456  6138 layer_factory.hpp:77] Creating layer inception_3a/relu_1x1
I0403 17:51:43.486474  6138 net.cpp:91] Creating Layer inception_3a/relu_1x1
I0403 17:51:43.486488  6138 net.cpp:425] inception_3a/relu_1x1 <- inception_3a/1x1
I0403 17:51:43.486507  6138 net.cpp:386] inception_3a/relu_1x1 -> inception_3a/1x1 (in-place)
I0403 17:51:43.486668  6138 net.cpp:141] Setting up inception_3a/relu_1x1
I0403 17:51:43.486692  6138 net.cpp:148] Top shape: 24 64 28 28 (1204224)
I0403 17:51:43.486706  6138 net.cpp:156] Memory required for data: 500958240
I0403 17:51:43.486719  6138 layer_factory.hpp:77] Creating layer inception_3a/3x3_reduce
I0403 17:51:43.486740  6138 net.cpp:91] Creating Layer inception_3a/3x3_reduce
I0403 17:51:43.486755  6138 net.cpp:425] inception_3a/3x3_reduce <- pool2/3x3_s2_pool2/3x3_s2_0_split_1
I0403 17:51:43.486775  6138 net.cpp:399] inception_3a/3x3_reduce -> inception_3a/3x3_reduce
I0403 17:51:43.488363  6138 net.cpp:141] Setting up inception_3a/3x3_reduce
I0403 17:51:43.488390  6138 net.cpp:148] Top shape: 24 96 28 28 (1806336)
I0403 17:51:43.488405  6138 net.cpp:156] Memory required for data: 508183584
I0403 17:51:43.488425  6138 layer_factory.hpp:77] Creating layer inception_3a/relu_3x3_reduce
I0403 17:51:43.488464  6138 net.cpp:91] Creating Layer inception_3a/relu_3x3_reduce
I0403 17:51:43.488481  6138 net.cpp:425] inception_3a/relu_3x3_reduce <- inception_3a/3x3_reduce
I0403 17:51:43.488497  6138 net.cpp:386] inception_3a/relu_3x3_reduce -> inception_3a/3x3_reduce (in-place)
I0403 17:51:43.488667  6138 net.cpp:141] Setting up inception_3a/relu_3x3_reduce
I0403 17:51:43.488692  6138 net.cpp:148] Top shape: 24 96 28 28 (1806336)
I0403 17:51:43.488706  6138 net.cpp:156] Memory required for data: 515408928
I0403 17:51:43.488721  6138 layer_factory.hpp:77] Creating layer inception_3a/3x3
I0403 17:51:43.488744  6138 net.cpp:91] Creating Layer inception_3a/3x3
I0403 17:51:43.488759  6138 net.cpp:425] inception_3a/3x3 <- inception_3a/3x3_reduce
I0403 17:51:43.488778  6138 net.cpp:399] inception_3a/3x3 -> inception_3a/3x3
I0403 17:51:43.490314  6138 net.cpp:141] Setting up inception_3a/3x3
I0403 17:51:43.490340  6138 net.cpp:148] Top shape: 24 128 28 28 (2408448)
I0403 17:51:43.490355  6138 net.cpp:156] Memory required for data: 525042720
I0403 17:51:43.490372  6138 layer_factory.hpp:77] Creating layer inception_3a/relu_3x3
I0403 17:51:43.490392  6138 net.cpp:91] Creating Layer inception_3a/relu_3x3
I0403 17:51:43.490408  6138 net.cpp:425] inception_3a/relu_3x3 <- inception_3a/3x3
I0403 17:51:43.490425  6138 net.cpp:386] inception_3a/relu_3x3 -> inception_3a/3x3 (in-place)
I0403 17:51:43.490681  6138 net.cpp:141] Setting up inception_3a/relu_3x3
I0403 17:51:43.490706  6138 net.cpp:148] Top shape: 24 128 28 28 (2408448)
I0403 17:51:43.490720  6138 net.cpp:156] Memory required for data: 534676512
I0403 17:51:43.490733  6138 layer_factory.hpp:77] Creating layer inception_3a/5x5_reduce
I0403 17:51:43.490754  6138 net.cpp:91] Creating Layer inception_3a/5x5_reduce
I0403 17:51:43.490772  6138 net.cpp:425] inception_3a/5x5_reduce <- pool2/3x3_s2_pool2/3x3_s2_0_split_2
I0403 17:51:43.490792  6138 net.cpp:399] inception_3a/5x5_reduce -> inception_3a/5x5_reduce
I0403 17:51:43.491684  6138 net.cpp:141] Setting up inception_3a/5x5_reduce
I0403 17:51:43.491710  6138 net.cpp:148] Top shape: 24 16 28 28 (301056)
I0403 17:51:43.491724  6138 net.cpp:156] Memory required for data: 535880736
I0403 17:51:43.491741  6138 layer_factory.hpp:77] Creating layer inception_3a/relu_5x5_reduce
I0403 17:51:43.491770  6138 net.cpp:91] Creating Layer inception_3a/relu_5x5_reduce
I0403 17:51:43.491786  6138 net.cpp:425] inception_3a/relu_5x5_reduce <- inception_3a/5x5_reduce
I0403 17:51:43.491802  6138 net.cpp:386] inception_3a/relu_5x5_reduce -> inception_3a/5x5_reduce (in-place)
I0403 17:51:43.492077  6138 net.cpp:141] Setting up inception_3a/relu_5x5_reduce
I0403 17:51:43.492102  6138 net.cpp:148] Top shape: 24 16 28 28 (301056)
I0403 17:51:43.492115  6138 net.cpp:156] Memory required for data: 537084960
I0403 17:51:43.492130  6138 layer_factory.hpp:77] Creating layer inception_3a/5x5
I0403 17:51:43.492152  6138 net.cpp:91] Creating Layer inception_3a/5x5
I0403 17:51:43.492168  6138 net.cpp:425] inception_3a/5x5 <- inception_3a/5x5_reduce
I0403 17:51:43.492187  6138 net.cpp:399] inception_3a/5x5 -> inception_3a/5x5
I0403 17:51:43.493155  6138 net.cpp:141] Setting up inception_3a/5x5
I0403 17:51:43.493180  6138 net.cpp:148] Top shape: 24 32 28 28 (602112)
I0403 17:51:43.493196  6138 net.cpp:156] Memory required for data: 539493408
I0403 17:51:43.493222  6138 layer_factory.hpp:77] Creating layer inception_3a/relu_5x5
I0403 17:51:43.493242  6138 net.cpp:91] Creating Layer inception_3a/relu_5x5
I0403 17:51:43.493257  6138 net.cpp:425] inception_3a/relu_5x5 <- inception_3a/5x5
I0403 17:51:43.493275  6138 net.cpp:386] inception_3a/relu_5x5 -> inception_3a/5x5 (in-place)
I0403 17:51:43.493437  6138 net.cpp:141] Setting up inception_3a/relu_5x5
I0403 17:51:43.493459  6138 net.cpp:148] Top shape: 24 32 28 28 (602112)
I0403 17:51:43.493474  6138 net.cpp:156] Memory required for data: 541901856
I0403 17:51:43.493487  6138 layer_factory.hpp:77] Creating layer inception_3a/pool
I0403 17:51:43.493505  6138 net.cpp:91] Creating Layer inception_3a/pool
I0403 17:51:43.493535  6138 net.cpp:425] inception_3a/pool <- pool2/3x3_s2_pool2/3x3_s2_0_split_3
I0403 17:51:43.493552  6138 net.cpp:399] inception_3a/pool -> inception_3a/pool
I0403 17:51:43.493605  6138 net.cpp:141] Setting up inception_3a/pool
I0403 17:51:43.493628  6138 net.cpp:148] Top shape: 24 192 28 28 (3612672)
I0403 17:51:43.493641  6138 net.cpp:156] Memory required for data: 556352544
I0403 17:51:43.493655  6138 layer_factory.hpp:77] Creating layer inception_3a/pool_proj
I0403 17:51:43.493676  6138 net.cpp:91] Creating Layer inception_3a/pool_proj
I0403 17:51:43.493693  6138 net.cpp:425] inception_3a/pool_proj <- inception_3a/pool
I0403 17:51:43.493713  6138 net.cpp:399] inception_3a/pool_proj -> inception_3a/pool_proj
I0403 17:51:43.494613  6138 net.cpp:141] Setting up inception_3a/pool_proj
I0403 17:51:43.494642  6138 net.cpp:148] Top shape: 24 32 28 28 (602112)
I0403 17:51:43.494657  6138 net.cpp:156] Memory required for data: 558760992
I0403 17:51:43.494678  6138 layer_factory.hpp:77] Creating layer inception_3a/relu_pool_proj
I0403 17:51:43.494696  6138 net.cpp:91] Creating Layer inception_3a/relu_pool_proj
I0403 17:51:43.494712  6138 net.cpp:425] inception_3a/relu_pool_proj <- inception_3a/pool_proj
I0403 17:51:43.494729  6138 net.cpp:386] inception_3a/relu_pool_proj -> inception_3a/pool_proj (in-place)
I0403 17:51:43.494988  6138 net.cpp:141] Setting up inception_3a/relu_pool_proj
I0403 17:51:43.495013  6138 net.cpp:148] Top shape: 24 32 28 28 (602112)
I0403 17:51:43.495028  6138 net.cpp:156] Memory required for data: 561169440
I0403 17:51:43.495041  6138 layer_factory.hpp:77] Creating layer inception_3a/output
I0403 17:51:43.495059  6138 net.cpp:91] Creating Layer inception_3a/output
I0403 17:51:43.495072  6138 net.cpp:425] inception_3a/output <- inception_3a/1x1
I0403 17:51:43.495088  6138 net.cpp:425] inception_3a/output <- inception_3a/3x3
I0403 17:51:43.495102  6138 net.cpp:425] inception_3a/output <- inception_3a/5x5
I0403 17:51:43.495117  6138 net.cpp:425] inception_3a/output <- inception_3a/pool_proj
I0403 17:51:43.495134  6138 net.cpp:399] inception_3a/output -> inception_3a/output
I0403 17:51:43.495179  6138 net.cpp:141] Setting up inception_3a/output
I0403 17:51:43.495200  6138 net.cpp:148] Top shape: 24 256 28 28 (4816896)
I0403 17:51:43.495218  6138 net.cpp:156] Memory required for data: 580437024
I0403 17:51:43.495234  6138 layer_factory.hpp:77] Creating layer inception_3a/output_inception_3a/output_0_split
I0403 17:51:43.495249  6138 net.cpp:91] Creating Layer inception_3a/output_inception_3a/output_0_split
I0403 17:51:43.495263  6138 net.cpp:425] inception_3a/output_inception_3a/output_0_split <- inception_3a/output
I0403 17:51:43.495281  6138 net.cpp:399] inception_3a/output_inception_3a/output_0_split -> inception_3a/output_inception_3a/output_0_split_0
I0403 17:51:43.495301  6138 net.cpp:399] inception_3a/output_inception_3a/output_0_split -> inception_3a/output_inception_3a/output_0_split_1
I0403 17:51:43.495321  6138 net.cpp:399] inception_3a/output_inception_3a/output_0_split -> inception_3a/output_inception_3a/output_0_split_2
I0403 17:51:43.495340  6138 net.cpp:399] inception_3a/output_inception_3a/output_0_split -> inception_3a/output_inception_3a/output_0_split_3
I0403 17:51:43.495411  6138 net.cpp:141] Setting up inception_3a/output_inception_3a/output_0_split
I0403 17:51:43.495434  6138 net.cpp:148] Top shape: 24 256 28 28 (4816896)
I0403 17:51:43.495450  6138 net.cpp:148] Top shape: 24 256 28 28 (4816896)
I0403 17:51:43.495465  6138 net.cpp:148] Top shape: 24 256 28 28 (4816896)
I0403 17:51:43.495483  6138 net.cpp:148] Top shape: 24 256 28 28 (4816896)
I0403 17:51:43.495496  6138 net.cpp:156] Memory required for data: 657507360
I0403 17:51:43.495510  6138 layer_factory.hpp:77] Creating layer inception_3b/1x1
I0403 17:51:43.495532  6138 net.cpp:91] Creating Layer inception_3b/1x1
I0403 17:51:43.495548  6138 net.cpp:425] inception_3b/1x1 <- inception_3a/output_inception_3a/output_0_split_0
I0403 17:51:43.495566  6138 net.cpp:399] inception_3b/1x1 -> inception_3b/1x1
I0403 17:51:43.496683  6138 net.cpp:141] Setting up inception_3b/1x1
I0403 17:51:43.496722  6138 net.cpp:148] Top shape: 24 128 28 28 (2408448)
I0403 17:51:43.496737  6138 net.cpp:156] Memory required for data: 667141152
I0403 17:51:43.496755  6138 layer_factory.hpp:77] Creating layer inception_3b/relu_1x1
I0403 17:51:43.496773  6138 net.cpp:91] Creating Layer inception_3b/relu_1x1
I0403 17:51:43.496788  6138 net.cpp:425] inception_3b/relu_1x1 <- inception_3b/1x1
I0403 17:51:43.496808  6138 net.cpp:386] inception_3b/relu_1x1 -> inception_3b/1x1 (in-place)
I0403 17:51:43.496973  6138 net.cpp:141] Setting up inception_3b/relu_1x1
I0403 17:51:43.496997  6138 net.cpp:148] Top shape: 24 128 28 28 (2408448)
I0403 17:51:43.497011  6138 net.cpp:156] Memory required for data: 676774944
I0403 17:51:43.497025  6138 layer_factory.hpp:77] Creating layer inception_3b/3x3_reduce
I0403 17:51:43.497046  6138 net.cpp:91] Creating Layer inception_3b/3x3_reduce
I0403 17:51:43.497063  6138 net.cpp:425] inception_3b/3x3_reduce <- inception_3a/output_inception_3a/output_0_split_1
I0403 17:51:43.497084  6138 net.cpp:399] inception_3b/3x3_reduce -> inception_3b/3x3_reduce
I0403 17:51:43.498178  6138 net.cpp:141] Setting up inception_3b/3x3_reduce
I0403 17:51:43.498204  6138 net.cpp:148] Top shape: 24 128 28 28 (2408448)
I0403 17:51:43.498224  6138 net.cpp:156] Memory required for data: 686408736
I0403 17:51:43.498242  6138 layer_factory.hpp:77] Creating layer inception_3b/relu_3x3_reduce
I0403 17:51:43.498260  6138 net.cpp:91] Creating Layer inception_3b/relu_3x3_reduce
I0403 17:51:43.498275  6138 net.cpp:425] inception_3b/relu_3x3_reduce <- inception_3b/3x3_reduce
I0403 17:51:43.498297  6138 net.cpp:386] inception_3b/relu_3x3_reduce -> inception_3b/3x3_reduce (in-place)
I0403 17:51:43.498461  6138 net.cpp:141] Setting up inception_3b/relu_3x3_reduce
I0403 17:51:43.498486  6138 net.cpp:148] Top shape: 24 128 28 28 (2408448)
I0403 17:51:43.498499  6138 net.cpp:156] Memory required for data: 696042528
I0403 17:51:43.498514  6138 layer_factory.hpp:77] Creating layer inception_3b/3x3
I0403 17:51:43.498538  6138 net.cpp:91] Creating Layer inception_3b/3x3
I0403 17:51:43.498555  6138 net.cpp:425] inception_3b/3x3 <- inception_3b/3x3_reduce
I0403 17:51:43.498574  6138 net.cpp:399] inception_3b/3x3 -> inception_3b/3x3
I0403 17:51:43.501385  6138 net.cpp:141] Setting up inception_3b/3x3
I0403 17:51:43.501413  6138 net.cpp:148] Top shape: 24 192 28 28 (3612672)
I0403 17:51:43.501428  6138 net.cpp:156] Memory required for data: 710493216
I0403 17:51:43.501446  6138 layer_factory.hpp:77] Creating layer inception_3b/relu_3x3
I0403 17:51:43.501466  6138 net.cpp:91] Creating Layer inception_3b/relu_3x3
I0403 17:51:43.501482  6138 net.cpp:425] inception_3b/relu_3x3 <- inception_3b/3x3
I0403 17:51:43.501499  6138 net.cpp:386] inception_3b/relu_3x3 -> inception_3b/3x3 (in-place)
I0403 17:51:43.501766  6138 net.cpp:141] Setting up inception_3b/relu_3x3
I0403 17:51:43.501792  6138 net.cpp:148] Top shape: 24 192 28 28 (3612672)
I0403 17:51:43.501807  6138 net.cpp:156] Memory required for data: 724943904
I0403 17:51:43.501821  6138 layer_factory.hpp:77] Creating layer inception_3b/5x5_reduce
I0403 17:51:43.501843  6138 net.cpp:91] Creating Layer inception_3b/5x5_reduce
I0403 17:51:43.501862  6138 net.cpp:425] inception_3b/5x5_reduce <- inception_3a/output_inception_3a/output_0_split_2
I0403 17:51:43.501883  6138 net.cpp:399] inception_3b/5x5_reduce -> inception_3b/5x5_reduce
I0403 17:51:43.502832  6138 net.cpp:141] Setting up inception_3b/5x5_reduce
I0403 17:51:43.502858  6138 net.cpp:148] Top shape: 24 32 28 28 (602112)
I0403 17:51:43.502873  6138 net.cpp:156] Memory required for data: 727352352
I0403 17:51:43.502892  6138 layer_factory.hpp:77] Creating layer inception_3b/relu_5x5_reduce
I0403 17:51:43.502910  6138 net.cpp:91] Creating Layer inception_3b/relu_5x5_reduce
I0403 17:51:43.502928  6138 net.cpp:425] inception_3b/relu_5x5_reduce <- inception_3b/5x5_reduce
I0403 17:51:43.502944  6138 net.cpp:386] inception_3b/relu_5x5_reduce -> inception_3b/5x5_reduce (in-place)
I0403 17:51:43.503128  6138 net.cpp:141] Setting up inception_3b/relu_5x5_reduce
I0403 17:51:43.503151  6138 net.cpp:148] Top shape: 24 32 28 28 (602112)
I0403 17:51:43.503168  6138 net.cpp:156] Memory required for data: 729760800
I0403 17:51:43.503182  6138 layer_factory.hpp:77] Creating layer inception_3b/5x5
I0403 17:51:43.503201  6138 net.cpp:91] Creating Layer inception_3b/5x5
I0403 17:51:43.503228  6138 net.cpp:425] inception_3b/5x5 <- inception_3b/5x5_reduce
I0403 17:51:43.503252  6138 net.cpp:399] inception_3b/5x5 -> inception_3b/5x5
I0403 17:51:43.505162  6138 net.cpp:141] Setting up inception_3b/5x5
I0403 17:51:43.505189  6138 net.cpp:148] Top shape: 24 96 28 28 (1806336)
I0403 17:51:43.505204  6138 net.cpp:156] Memory required for data: 736986144
I0403 17:51:43.505226  6138 layer_factory.hpp:77] Creating layer inception_3b/relu_5x5
I0403 17:51:43.505244  6138 net.cpp:91] Creating Layer inception_3b/relu_5x5
I0403 17:51:43.505259  6138 net.cpp:425] inception_3b/relu_5x5 <- inception_3b/5x5
I0403 17:51:43.505280  6138 net.cpp:386] inception_3b/relu_5x5 -> inception_3b/5x5 (in-place)
I0403 17:51:43.505463  6138 net.cpp:141] Setting up inception_3b/relu_5x5
I0403 17:51:43.505488  6138 net.cpp:148] Top shape: 24 96 28 28 (1806336)
I0403 17:51:43.505502  6138 net.cpp:156] Memory required for data: 744211488
I0403 17:51:43.505517  6138 layer_factory.hpp:77] Creating layer inception_3b/pool
I0403 17:51:43.505533  6138 net.cpp:91] Creating Layer inception_3b/pool
I0403 17:51:43.505549  6138 net.cpp:425] inception_3b/pool <- inception_3a/output_inception_3a/output_0_split_3
I0403 17:51:43.505566  6138 net.cpp:399] inception_3b/pool -> inception_3b/pool
I0403 17:51:43.505622  6138 net.cpp:141] Setting up inception_3b/pool
I0403 17:51:43.505645  6138 net.cpp:148] Top shape: 24 256 28 28 (4816896)
I0403 17:51:43.505658  6138 net.cpp:156] Memory required for data: 763479072
I0403 17:51:43.505673  6138 layer_factory.hpp:77] Creating layer inception_3b/pool_proj
I0403 17:51:43.505694  6138 net.cpp:91] Creating Layer inception_3b/pool_proj
I0403 17:51:43.505712  6138 net.cpp:425] inception_3b/pool_proj <- inception_3b/pool
I0403 17:51:43.505731  6138 net.cpp:399] inception_3b/pool_proj -> inception_3b/pool_proj
I0403 17:51:43.506742  6138 net.cpp:141] Setting up inception_3b/pool_proj
I0403 17:51:43.506772  6138 net.cpp:148] Top shape: 24 64 28 28 (1204224)
I0403 17:51:43.506786  6138 net.cpp:156] Memory required for data: 768295968
I0403 17:51:43.506804  6138 layer_factory.hpp:77] Creating layer inception_3b/relu_pool_proj
I0403 17:51:43.506821  6138 net.cpp:91] Creating Layer inception_3b/relu_pool_proj
I0403 17:51:43.506836  6138 net.cpp:425] inception_3b/relu_pool_proj <- inception_3b/pool_proj
I0403 17:51:43.506853  6138 net.cpp:386] inception_3b/relu_pool_proj -> inception_3b/pool_proj (in-place)
I0403 17:51:43.507232  6138 net.cpp:141] Setting up inception_3b/relu_pool_proj
I0403 17:51:43.507258  6138 net.cpp:148] Top shape: 24 64 28 28 (1204224)
I0403 17:51:43.507272  6138 net.cpp:156] Memory required for data: 773112864
I0403 17:51:43.507287  6138 layer_factory.hpp:77] Creating layer inception_3b/output
I0403 17:51:43.507305  6138 net.cpp:91] Creating Layer inception_3b/output
I0403 17:51:43.507321  6138 net.cpp:425] inception_3b/output <- inception_3b/1x1
I0403 17:51:43.507339  6138 net.cpp:425] inception_3b/output <- inception_3b/3x3
I0403 17:51:43.507354  6138 net.cpp:425] inception_3b/output <- inception_3b/5x5
I0403 17:51:43.507369  6138 net.cpp:425] inception_3b/output <- inception_3b/pool_proj
I0403 17:51:43.507385  6138 net.cpp:399] inception_3b/output -> inception_3b/output
I0403 17:51:43.507427  6138 net.cpp:141] Setting up inception_3b/output
I0403 17:51:43.507450  6138 net.cpp:148] Top shape: 24 480 28 28 (9031680)
I0403 17:51:43.507464  6138 net.cpp:156] Memory required for data: 809239584
I0403 17:51:43.507480  6138 layer_factory.hpp:77] Creating layer pool3/3x3_s2
I0403 17:51:43.507498  6138 net.cpp:91] Creating Layer pool3/3x3_s2
I0403 17:51:43.507513  6138 net.cpp:425] pool3/3x3_s2 <- inception_3b/output
I0403 17:51:43.507547  6138 net.cpp:399] pool3/3x3_s2 -> pool3/3x3_s2
I0403 17:51:43.507607  6138 net.cpp:141] Setting up pool3/3x3_s2
I0403 17:51:43.507629  6138 net.cpp:148] Top shape: 24 480 14 14 (2257920)
I0403 17:51:43.507643  6138 net.cpp:156] Memory required for data: 818271264
I0403 17:51:43.507658  6138 layer_factory.hpp:77] Creating layer pool3/3x3_s2_pool3/3x3_s2_0_split
I0403 17:51:43.507676  6138 net.cpp:91] Creating Layer pool3/3x3_s2_pool3/3x3_s2_0_split
I0403 17:51:43.507691  6138 net.cpp:425] pool3/3x3_s2_pool3/3x3_s2_0_split <- pool3/3x3_s2
I0403 17:51:43.507710  6138 net.cpp:399] pool3/3x3_s2_pool3/3x3_s2_0_split -> pool3/3x3_s2_pool3/3x3_s2_0_split_0
I0403 17:51:43.507730  6138 net.cpp:399] pool3/3x3_s2_pool3/3x3_s2_0_split -> pool3/3x3_s2_pool3/3x3_s2_0_split_1
I0403 17:51:43.507748  6138 net.cpp:399] pool3/3x3_s2_pool3/3x3_s2_0_split -> pool3/3x3_s2_pool3/3x3_s2_0_split_2
I0403 17:51:43.507776  6138 net.cpp:399] pool3/3x3_s2_pool3/3x3_s2_0_split -> pool3/3x3_s2_pool3/3x3_s2_0_split_3
I0403 17:51:43.507848  6138 net.cpp:141] Setting up pool3/3x3_s2_pool3/3x3_s2_0_split
I0403 17:51:43.507871  6138 net.cpp:148] Top shape: 24 480 14 14 (2257920)
I0403 17:51:43.507887  6138 net.cpp:148] Top shape: 24 480 14 14 (2257920)
I0403 17:51:43.507902  6138 net.cpp:148] Top shape: 24 480 14 14 (2257920)
I0403 17:51:43.507918  6138 net.cpp:148] Top shape: 24 480 14 14 (2257920)
I0403 17:51:43.507931  6138 net.cpp:156] Memory required for data: 854397984
I0403 17:51:43.507946  6138 layer_factory.hpp:77] Creating layer inception_4a/1x1
I0403 17:51:43.507964  6138 net.cpp:91] Creating Layer inception_4a/1x1
I0403 17:51:43.507980  6138 net.cpp:425] inception_4a/1x1 <- pool3/3x3_s2_pool3/3x3_s2_0_split_0
I0403 17:51:43.508000  6138 net.cpp:399] inception_4a/1x1 -> inception_4a/1x1
I0403 17:51:43.509513  6138 net.cpp:141] Setting up inception_4a/1x1
I0403 17:51:43.509542  6138 net.cpp:148] Top shape: 24 192 14 14 (903168)
I0403 17:51:43.509559  6138 net.cpp:156] Memory required for data: 858010656
I0403 17:51:43.509577  6138 layer_factory.hpp:77] Creating layer inception_4a/relu_1x1
I0403 17:51:43.509594  6138 net.cpp:91] Creating Layer inception_4a/relu_1x1
I0403 17:51:43.509609  6138 net.cpp:425] inception_4a/relu_1x1 <- inception_4a/1x1
I0403 17:51:43.509626  6138 net.cpp:386] inception_4a/relu_1x1 -> inception_4a/1x1 (in-place)
I0403 17:51:43.509796  6138 net.cpp:141] Setting up inception_4a/relu_1x1
I0403 17:51:43.509820  6138 net.cpp:148] Top shape: 24 192 14 14 (903168)
I0403 17:51:43.509834  6138 net.cpp:156] Memory required for data: 861623328
I0403 17:51:43.509847  6138 layer_factory.hpp:77] Creating layer inception_4a/3x3_reduce
I0403 17:51:43.509870  6138 net.cpp:91] Creating Layer inception_4a/3x3_reduce
I0403 17:51:43.509886  6138 net.cpp:425] inception_4a/3x3_reduce <- pool3/3x3_s2_pool3/3x3_s2_0_split_1
I0403 17:51:43.509907  6138 net.cpp:399] inception_4a/3x3_reduce -> inception_4a/3x3_reduce
I0403 17:51:43.511118  6138 net.cpp:141] Setting up inception_4a/3x3_reduce
I0403 17:51:43.511147  6138 net.cpp:148] Top shape: 24 96 14 14 (451584)
I0403 17:51:43.511162  6138 net.cpp:156] Memory required for data: 863429664
I0403 17:51:43.511186  6138 layer_factory.hpp:77] Creating layer inception_4a/relu_3x3_reduce
I0403 17:51:43.511205  6138 net.cpp:91] Creating Layer inception_4a/relu_3x3_reduce
I0403 17:51:43.511225  6138 net.cpp:425] inception_4a/relu_3x3_reduce <- inception_4a/3x3_reduce
I0403 17:51:43.511242  6138 net.cpp:386] inception_4a/relu_3x3_reduce -> inception_4a/3x3_reduce (in-place)
I0403 17:51:43.511409  6138 net.cpp:141] Setting up inception_4a/relu_3x3_reduce
I0403 17:51:43.511436  6138 net.cpp:148] Top shape: 24 96 14 14 (451584)
I0403 17:51:43.511451  6138 net.cpp:156] Memory required for data: 865236000
I0403 17:51:43.511474  6138 layer_factory.hpp:77] Creating layer inception_4a/3x3
I0403 17:51:43.511499  6138 net.cpp:91] Creating Layer inception_4a/3x3
I0403 17:51:43.511518  6138 net.cpp:425] inception_4a/3x3 <- inception_4a/3x3_reduce
I0403 17:51:43.511536  6138 net.cpp:399] inception_4a/3x3 -> inception_4a/3x3
I0403 17:51:43.514166  6138 net.cpp:141] Setting up inception_4a/3x3
I0403 17:51:43.514194  6138 net.cpp:148] Top shape: 24 208 14 14 (978432)
I0403 17:51:43.514211  6138 net.cpp:156] Memory required for data: 869149728
I0403 17:51:43.514230  6138 layer_factory.hpp:77] Creating layer inception_4a/relu_3x3
I0403 17:51:43.514247  6138 net.cpp:91] Creating Layer inception_4a/relu_3x3
I0403 17:51:43.514262  6138 net.cpp:425] inception_4a/relu_3x3 <- inception_4a/3x3
I0403 17:51:43.514281  6138 net.cpp:386] inception_4a/relu_3x3 -> inception_4a/3x3 (in-place)
I0403 17:51:43.514545  6138 net.cpp:141] Setting up inception_4a/relu_3x3
I0403 17:51:43.514570  6138 net.cpp:148] Top shape: 24 208 14 14 (978432)
I0403 17:51:43.514585  6138 net.cpp:156] Memory required for data: 873063456
I0403 17:51:43.514598  6138 layer_factory.hpp:77] Creating layer inception_4a/5x5_reduce
I0403 17:51:43.514619  6138 net.cpp:91] Creating Layer inception_4a/5x5_reduce
I0403 17:51:43.514636  6138 net.cpp:425] inception_4a/5x5_reduce <- pool3/3x3_s2_pool3/3x3_s2_0_split_2
I0403 17:51:43.514655  6138 net.cpp:399] inception_4a/5x5_reduce -> inception_4a/5x5_reduce
I0403 17:51:43.515616  6138 net.cpp:141] Setting up inception_4a/5x5_reduce
I0403 17:51:43.515642  6138 net.cpp:148] Top shape: 24 16 14 14 (75264)
I0403 17:51:43.515657  6138 net.cpp:156] Memory required for data: 873364512
I0403 17:51:43.515674  6138 layer_factory.hpp:77] Creating layer inception_4a/relu_5x5_reduce
I0403 17:51:43.515691  6138 net.cpp:91] Creating Layer inception_4a/relu_5x5_reduce
I0403 17:51:43.515707  6138 net.cpp:425] inception_4a/relu_5x5_reduce <- inception_4a/5x5_reduce
I0403 17:51:43.515724  6138 net.cpp:386] inception_4a/relu_5x5_reduce -> inception_4a/5x5_reduce (in-place)
I0403 17:51:43.515892  6138 net.cpp:141] Setting up inception_4a/relu_5x5_reduce
I0403 17:51:43.515915  6138 net.cpp:148] Top shape: 24 16 14 14 (75264)
I0403 17:51:43.515929  6138 net.cpp:156] Memory required for data: 873665568
I0403 17:51:43.515944  6138 layer_factory.hpp:77] Creating layer inception_4a/5x5
I0403 17:51:43.515966  6138 net.cpp:91] Creating Layer inception_4a/5x5
I0403 17:51:43.515982  6138 net.cpp:425] inception_4a/5x5 <- inception_4a/5x5_reduce
I0403 17:51:43.516002  6138 net.cpp:399] inception_4a/5x5 -> inception_4a/5x5
I0403 17:51:43.517026  6138 net.cpp:141] Setting up inception_4a/5x5
I0403 17:51:43.517052  6138 net.cpp:148] Top shape: 24 48 14 14 (225792)
I0403 17:51:43.517067  6138 net.cpp:156] Memory required for data: 874568736
I0403 17:51:43.517084  6138 layer_factory.hpp:77] Creating layer inception_4a/relu_5x5
I0403 17:51:43.517102  6138 net.cpp:91] Creating Layer inception_4a/relu_5x5
I0403 17:51:43.517118  6138 net.cpp:425] inception_4a/relu_5x5 <- inception_4a/5x5
I0403 17:51:43.517134  6138 net.cpp:386] inception_4a/relu_5x5 -> inception_4a/5x5 (in-place)
I0403 17:51:43.517303  6138 net.cpp:141] Setting up inception_4a/relu_5x5
I0403 17:51:43.517328  6138 net.cpp:148] Top shape: 24 48 14 14 (225792)
I0403 17:51:43.517341  6138 net.cpp:156] Memory required for data: 875471904
I0403 17:51:43.517356  6138 layer_factory.hpp:77] Creating layer inception_4a/pool
I0403 17:51:43.517372  6138 net.cpp:91] Creating Layer inception_4a/pool
I0403 17:51:43.517386  6138 net.cpp:425] inception_4a/pool <- pool3/3x3_s2_pool3/3x3_s2_0_split_3
I0403 17:51:43.517405  6138 net.cpp:399] inception_4a/pool -> inception_4a/pool
I0403 17:51:43.517462  6138 net.cpp:141] Setting up inception_4a/pool
I0403 17:51:43.517484  6138 net.cpp:148] Top shape: 24 480 14 14 (2257920)
I0403 17:51:43.517498  6138 net.cpp:156] Memory required for data: 884503584
I0403 17:51:43.517511  6138 layer_factory.hpp:77] Creating layer inception_4a/pool_proj
I0403 17:51:43.517534  6138 net.cpp:91] Creating Layer inception_4a/pool_proj
I0403 17:51:43.517549  6138 net.cpp:425] inception_4a/pool_proj <- inception_4a/pool
I0403 17:51:43.517567  6138 net.cpp:399] inception_4a/pool_proj -> inception_4a/pool_proj
I0403 17:51:43.518656  6138 net.cpp:141] Setting up inception_4a/pool_proj
I0403 17:51:43.518684  6138 net.cpp:148] Top shape: 24 64 14 14 (301056)
I0403 17:51:43.518712  6138 net.cpp:156] Memory required for data: 885707808
I0403 17:51:43.518731  6138 layer_factory.hpp:77] Creating layer inception_4a/relu_pool_proj
I0403 17:51:43.518748  6138 net.cpp:91] Creating Layer inception_4a/relu_pool_proj
I0403 17:51:43.518764  6138 net.cpp:425] inception_4a/relu_pool_proj <- inception_4a/pool_proj
I0403 17:51:43.518784  6138 net.cpp:386] inception_4a/relu_pool_proj -> inception_4a/pool_proj (in-place)
I0403 17:51:43.519049  6138 net.cpp:141] Setting up inception_4a/relu_pool_proj
I0403 17:51:43.519076  6138 net.cpp:148] Top shape: 24 64 14 14 (301056)
I0403 17:51:43.519091  6138 net.cpp:156] Memory required for data: 886912032
I0403 17:51:43.519105  6138 layer_factory.hpp:77] Creating layer inception_4a/output
I0403 17:51:43.519121  6138 net.cpp:91] Creating Layer inception_4a/output
I0403 17:51:43.519135  6138 net.cpp:425] inception_4a/output <- inception_4a/1x1
I0403 17:51:43.519151  6138 net.cpp:425] inception_4a/output <- inception_4a/3x3
I0403 17:51:43.519166  6138 net.cpp:425] inception_4a/output <- inception_4a/5x5
I0403 17:51:43.519181  6138 net.cpp:425] inception_4a/output <- inception_4a/pool_proj
I0403 17:51:43.519196  6138 net.cpp:399] inception_4a/output -> inception_4a/output
I0403 17:51:43.519243  6138 net.cpp:141] Setting up inception_4a/output
I0403 17:51:43.519264  6138 net.cpp:148] Top shape: 24 512 14 14 (2408448)
I0403 17:51:43.519278  6138 net.cpp:156] Memory required for data: 896545824
I0403 17:51:43.519291  6138 layer_factory.hpp:77] Creating layer inception_4a/output_inception_4a/output_0_split
I0403 17:51:43.519310  6138 net.cpp:91] Creating Layer inception_4a/output_inception_4a/output_0_split
I0403 17:51:43.519325  6138 net.cpp:425] inception_4a/output_inception_4a/output_0_split <- inception_4a/output
I0403 17:51:43.519341  6138 net.cpp:399] inception_4a/output_inception_4a/output_0_split -> inception_4a/output_inception_4a/output_0_split_0
I0403 17:51:43.519361  6138 net.cpp:399] inception_4a/output_inception_4a/output_0_split -> inception_4a/output_inception_4a/output_0_split_1
I0403 17:51:43.519379  6138 net.cpp:399] inception_4a/output_inception_4a/output_0_split -> inception_4a/output_inception_4a/output_0_split_2
I0403 17:51:43.519402  6138 net.cpp:399] inception_4a/output_inception_4a/output_0_split -> inception_4a/output_inception_4a/output_0_split_3
I0403 17:51:43.519420  6138 net.cpp:399] inception_4a/output_inception_4a/output_0_split -> inception_4a/output_inception_4a/output_0_split_4
I0403 17:51:43.519510  6138 net.cpp:141] Setting up inception_4a/output_inception_4a/output_0_split
I0403 17:51:43.519531  6138 net.cpp:148] Top shape: 24 512 14 14 (2408448)
I0403 17:51:43.519546  6138 net.cpp:148] Top shape: 24 512 14 14 (2408448)
I0403 17:51:43.519562  6138 net.cpp:148] Top shape: 24 512 14 14 (2408448)
I0403 17:51:43.519577  6138 net.cpp:148] Top shape: 24 512 14 14 (2408448)
I0403 17:51:43.519592  6138 net.cpp:148] Top shape: 24 512 14 14 (2408448)
I0403 17:51:43.519604  6138 net.cpp:156] Memory required for data: 944714784
I0403 17:51:43.519618  6138 layer_factory.hpp:77] Creating layer loss1/ave_pool
I0403 17:51:43.519634  6138 net.cpp:91] Creating Layer loss1/ave_pool
I0403 17:51:43.519649  6138 net.cpp:425] loss1/ave_pool <- inception_4a/output_inception_4a/output_0_split_0
I0403 17:51:43.519667  6138 net.cpp:399] loss1/ave_pool -> loss1/ave_pool
I0403 17:51:43.519858  6138 net.cpp:141] Setting up loss1/ave_pool
I0403 17:51:43.519884  6138 net.cpp:148] Top shape: 24 512 4 4 (196608)
I0403 17:51:43.519898  6138 net.cpp:156] Memory required for data: 945501216
I0403 17:51:43.519912  6138 layer_factory.hpp:77] Creating layer loss1/conv
I0403 17:51:43.519932  6138 net.cpp:91] Creating Layer loss1/conv
I0403 17:51:43.519948  6138 net.cpp:425] loss1/conv <- loss1/ave_pool
I0403 17:51:43.519966  6138 net.cpp:399] loss1/conv -> loss1/conv
I0403 17:51:43.521281  6138 net.cpp:141] Setting up loss1/conv
I0403 17:51:43.521306  6138 net.cpp:148] Top shape: 24 128 4 4 (49152)
I0403 17:51:43.521334  6138 net.cpp:156] Memory required for data: 945697824
I0403 17:51:43.521353  6138 layer_factory.hpp:77] Creating layer loss1/relu_conv
I0403 17:51:43.521369  6138 net.cpp:91] Creating Layer loss1/relu_conv
I0403 17:51:43.521384  6138 net.cpp:425] loss1/relu_conv <- loss1/conv
I0403 17:51:43.521402  6138 net.cpp:386] loss1/relu_conv -> loss1/conv (in-place)
I0403 17:51:43.521668  6138 net.cpp:141] Setting up loss1/relu_conv
I0403 17:51:43.521693  6138 net.cpp:148] Top shape: 24 128 4 4 (49152)
I0403 17:51:43.521708  6138 net.cpp:156] Memory required for data: 945894432
I0403 17:51:43.521721  6138 layer_factory.hpp:77] Creating layer loss1/fc
I0403 17:51:43.521744  6138 net.cpp:91] Creating Layer loss1/fc
I0403 17:51:43.521761  6138 net.cpp:425] loss1/fc <- loss1/conv
I0403 17:51:43.521781  6138 net.cpp:399] loss1/fc -> loss1/fc
I0403 17:51:43.538564  6138 net.cpp:141] Setting up loss1/fc
I0403 17:51:43.538595  6138 net.cpp:148] Top shape: 24 1024 (24576)
I0403 17:51:43.538610  6138 net.cpp:156] Memory required for data: 945992736
I0403 17:51:43.538627  6138 layer_factory.hpp:77] Creating layer loss1/relu_fc
I0403 17:51:43.538645  6138 net.cpp:91] Creating Layer loss1/relu_fc
I0403 17:51:43.538661  6138 net.cpp:425] loss1/relu_fc <- loss1/fc
I0403 17:51:43.538677  6138 net.cpp:386] loss1/relu_fc -> loss1/fc (in-place)
I0403 17:51:43.538851  6138 net.cpp:141] Setting up loss1/relu_fc
I0403 17:51:43.538873  6138 net.cpp:148] Top shape: 24 1024 (24576)
I0403 17:51:43.538887  6138 net.cpp:156] Memory required for data: 946091040
I0403 17:51:43.538902  6138 layer_factory.hpp:77] Creating layer loss1/drop_fc
I0403 17:51:43.538928  6138 net.cpp:91] Creating Layer loss1/drop_fc
I0403 17:51:43.538944  6138 net.cpp:425] loss1/drop_fc <- loss1/fc
I0403 17:51:43.538962  6138 net.cpp:386] loss1/drop_fc -> loss1/fc (in-place)
I0403 17:51:43.539011  6138 net.cpp:141] Setting up loss1/drop_fc
I0403 17:51:43.539031  6138 net.cpp:148] Top shape: 24 1024 (24576)
I0403 17:51:43.539046  6138 net.cpp:156] Memory required for data: 946189344
I0403 17:51:43.539059  6138 layer_factory.hpp:77] Creating layer loss1/classifier_plantvillage
I0403 17:51:43.539080  6138 net.cpp:91] Creating Layer loss1/classifier_plantvillage
I0403 17:51:43.539096  6138 net.cpp:425] loss1/classifier_plantvillage <- loss1/fc
I0403 17:51:43.539115  6138 net.cpp:399] loss1/classifier_plantvillage -> loss1/classifier_plantvillage
I0403 17:51:43.539995  6138 net.cpp:141] Setting up loss1/classifier_plantvillage
I0403 17:51:43.540021  6138 net.cpp:148] Top shape: 24 38 (912)
I0403 17:51:43.540036  6138 net.cpp:156] Memory required for data: 946192992
I0403 17:51:43.540053  6138 layer_factory.hpp:77] Creating layer loss1/classifier_plantvillage_loss1/classifier_plantvillage_0_split
I0403 17:51:43.540071  6138 net.cpp:91] Creating Layer loss1/classifier_plantvillage_loss1/classifier_plantvillage_0_split
I0403 17:51:43.540086  6138 net.cpp:425] loss1/classifier_plantvillage_loss1/classifier_plantvillage_0_split <- loss1/classifier_plantvillage
I0403 17:51:43.540104  6138 net.cpp:399] loss1/classifier_plantvillage_loss1/classifier_plantvillage_0_split -> loss1/classifier_plantvillage_loss1/classifier_plantvillage_0_split_0
I0403 17:51:43.540123  6138 net.cpp:399] loss1/classifier_plantvillage_loss1/classifier_plantvillage_0_split -> loss1/classifier_plantvillage_loss1/classifier_plantvillage_0_split_1
I0403 17:51:43.540143  6138 net.cpp:399] loss1/classifier_plantvillage_loss1/classifier_plantvillage_0_split -> loss1/classifier_plantvillage_loss1/classifier_plantvillage_0_split_2
I0403 17:51:43.540204  6138 net.cpp:141] Setting up loss1/classifier_plantvillage_loss1/classifier_plantvillage_0_split
I0403 17:51:43.540242  6138 net.cpp:148] Top shape: 24 38 (912)
I0403 17:51:43.540259  6138 net.cpp:148] Top shape: 24 38 (912)
I0403 17:51:43.540283  6138 net.cpp:148] Top shape: 24 38 (912)
I0403 17:51:43.540297  6138 net.cpp:156] Memory required for data: 946203936
I0403 17:51:43.540312  6138 layer_factory.hpp:77] Creating layer inception_4b/1x1
I0403 17:51:43.540333  6138 net.cpp:91] Creating Layer inception_4b/1x1
I0403 17:51:43.540364  6138 net.cpp:425] inception_4b/1x1 <- inception_4a/output_inception_4a/output_0_split_1
I0403 17:51:43.540385  6138 net.cpp:399] inception_4b/1x1 -> inception_4b/1x1
I0403 17:51:43.541959  6138 net.cpp:141] Setting up inception_4b/1x1
I0403 17:51:43.541986  6138 net.cpp:148] Top shape: 24 160 14 14 (752640)
I0403 17:51:43.542001  6138 net.cpp:156] Memory required for data: 949214496
I0403 17:51:43.542019  6138 layer_factory.hpp:77] Creating layer inception_4b/relu_1x1
I0403 17:51:43.542037  6138 net.cpp:91] Creating Layer inception_4b/relu_1x1
I0403 17:51:43.542052  6138 net.cpp:425] inception_4b/relu_1x1 <- inception_4b/1x1
I0403 17:51:43.542071  6138 net.cpp:386] inception_4b/relu_1x1 -> inception_4b/1x1 (in-place)
I0403 17:51:43.542249  6138 net.cpp:141] Setting up inception_4b/relu_1x1
I0403 17:51:43.542273  6138 net.cpp:148] Top shape: 24 160 14 14 (752640)
I0403 17:51:43.542289  6138 net.cpp:156] Memory required for data: 952225056
I0403 17:51:43.542302  6138 layer_factory.hpp:77] Creating layer inception_4b/3x3_reduce
I0403 17:51:43.542325  6138 net.cpp:91] Creating Layer inception_4b/3x3_reduce
I0403 17:51:43.542341  6138 net.cpp:425] inception_4b/3x3_reduce <- inception_4a/output_inception_4a/output_0_split_2
I0403 17:51:43.542362  6138 net.cpp:399] inception_4b/3x3_reduce -> inception_4b/3x3_reduce
I0403 17:51:43.543690  6138 net.cpp:141] Setting up inception_4b/3x3_reduce
I0403 17:51:43.543717  6138 net.cpp:148] Top shape: 24 112 14 14 (526848)
I0403 17:51:43.543732  6138 net.cpp:156] Memory required for data: 954332448
I0403 17:51:43.543750  6138 layer_factory.hpp:77] Creating layer inception_4b/relu_3x3_reduce
I0403 17:51:43.543778  6138 net.cpp:91] Creating Layer inception_4b/relu_3x3_reduce
I0403 17:51:43.543794  6138 net.cpp:425] inception_4b/relu_3x3_reduce <- inception_4b/3x3_reduce
I0403 17:51:43.543812  6138 net.cpp:386] inception_4b/relu_3x3_reduce -> inception_4b/3x3_reduce (in-place)
I0403 17:51:43.544091  6138 net.cpp:141] Setting up inception_4b/relu_3x3_reduce
I0403 17:51:43.544116  6138 net.cpp:148] Top shape: 24 112 14 14 (526848)
I0403 17:51:43.544131  6138 net.cpp:156] Memory required for data: 956439840
I0403 17:51:43.544145  6138 layer_factory.hpp:77] Creating layer inception_4b/3x3
I0403 17:51:43.544167  6138 net.cpp:91] Creating Layer inception_4b/3x3
I0403 17:51:43.544183  6138 net.cpp:425] inception_4b/3x3 <- inception_4b/3x3_reduce
I0403 17:51:43.544208  6138 net.cpp:399] inception_4b/3x3 -> inception_4b/3x3
I0403 17:51:43.547119  6138 net.cpp:141] Setting up inception_4b/3x3
I0403 17:51:43.547149  6138 net.cpp:148] Top shape: 24 224 14 14 (1053696)
I0403 17:51:43.547165  6138 net.cpp:156] Memory required for data: 960654624
I0403 17:51:43.547183  6138 layer_factory.hpp:77] Creating layer inception_4b/relu_3x3
I0403 17:51:43.547201  6138 net.cpp:91] Creating Layer inception_4b/relu_3x3
I0403 17:51:43.547222  6138 net.cpp:425] inception_4b/relu_3x3 <- inception_4b/3x3
I0403 17:51:43.547242  6138 net.cpp:386] inception_4b/relu_3x3 -> inception_4b/3x3 (in-place)
I0403 17:51:43.547418  6138 net.cpp:141] Setting up inception_4b/relu_3x3
I0403 17:51:43.547443  6138 net.cpp:148] Top shape: 24 224 14 14 (1053696)
I0403 17:51:43.547457  6138 net.cpp:156] Memory required for data: 964869408
I0403 17:51:43.547477  6138 layer_factory.hpp:77] Creating layer inception_4b/5x5_reduce
I0403 17:51:43.547500  6138 net.cpp:91] Creating Layer inception_4b/5x5_reduce
I0403 17:51:43.547518  6138 net.cpp:425] inception_4b/5x5_reduce <- inception_4a/output_inception_4a/output_0_split_3
I0403 17:51:43.547539  6138 net.cpp:399] inception_4b/5x5_reduce -> inception_4b/5x5_reduce
I0403 17:51:43.548584  6138 net.cpp:141] Setting up inception_4b/5x5_reduce
I0403 17:51:43.548611  6138 net.cpp:148] Top shape: 24 24 14 14 (112896)
I0403 17:51:43.548626  6138 net.cpp:156] Memory required for data: 965320992
I0403 17:51:43.548643  6138 layer_factory.hpp:77] Creating layer inception_4b/relu_5x5_reduce
I0403 17:51:43.548663  6138 net.cpp:91] Creating Layer inception_4b/relu_5x5_reduce
I0403 17:51:43.548693  6138 net.cpp:425] inception_4b/relu_5x5_reduce <- inception_4b/5x5_reduce
I0403 17:51:43.548712  6138 net.cpp:386] inception_4b/relu_5x5_reduce -> inception_4b/5x5_reduce (in-place)
I0403 17:51:43.548897  6138 net.cpp:141] Setting up inception_4b/relu_5x5_reduce
I0403 17:51:43.548923  6138 net.cpp:148] Top shape: 24 24 14 14 (112896)
I0403 17:51:43.548936  6138 net.cpp:156] Memory required for data: 965772576
I0403 17:51:43.548950  6138 layer_factory.hpp:77] Creating layer inception_4b/5x5
I0403 17:51:43.548974  6138 net.cpp:91] Creating Layer inception_4b/5x5
I0403 17:51:43.548990  6138 net.cpp:425] inception_4b/5x5 <- inception_4b/5x5_reduce
I0403 17:51:43.549008  6138 net.cpp:399] inception_4b/5x5 -> inception_4b/5x5
I0403 17:51:43.550195  6138 net.cpp:141] Setting up inception_4b/5x5
I0403 17:51:43.550226  6138 net.cpp:148] Top shape: 24 64 14 14 (301056)
I0403 17:51:43.550241  6138 net.cpp:156] Memory required for data: 966976800
I0403 17:51:43.550259  6138 layer_factory.hpp:77] Creating layer inception_4b/relu_5x5
I0403 17:51:43.550276  6138 net.cpp:91] Creating Layer inception_4b/relu_5x5
I0403 17:51:43.550292  6138 net.cpp:425] inception_4b/relu_5x5 <- inception_4b/5x5
I0403 17:51:43.550310  6138 net.cpp:386] inception_4b/relu_5x5 -> inception_4b/5x5 (in-place)
I0403 17:51:43.550586  6138 net.cpp:141] Setting up inception_4b/relu_5x5
I0403 17:51:43.550612  6138 net.cpp:148] Top shape: 24 64 14 14 (301056)
I0403 17:51:43.550627  6138 net.cpp:156] Memory required for data: 968181024
I0403 17:51:43.550642  6138 layer_factory.hpp:77] Creating layer inception_4b/pool
I0403 17:51:43.550658  6138 net.cpp:91] Creating Layer inception_4b/pool
I0403 17:51:43.550673  6138 net.cpp:425] inception_4b/pool <- inception_4a/output_inception_4a/output_0_split_4
I0403 17:51:43.550695  6138 net.cpp:399] inception_4b/pool -> inception_4b/pool
I0403 17:51:43.550757  6138 net.cpp:141] Setting up inception_4b/pool
I0403 17:51:43.550781  6138 net.cpp:148] Top shape: 24 512 14 14 (2408448)
I0403 17:51:43.550794  6138 net.cpp:156] Memory required for data: 977814816
I0403 17:51:43.550808  6138 layer_factory.hpp:77] Creating layer inception_4b/pool_proj
I0403 17:51:43.550832  6138 net.cpp:91] Creating Layer inception_4b/pool_proj
I0403 17:51:43.550848  6138 net.cpp:425] inception_4b/pool_proj <- inception_4b/pool
I0403 17:51:43.550866  6138 net.cpp:399] inception_4b/pool_proj -> inception_4b/pool_proj
I0403 17:51:43.552040  6138 net.cpp:141] Setting up inception_4b/pool_proj
I0403 17:51:43.552067  6138 net.cpp:148] Top shape: 24 64 14 14 (301056)
I0403 17:51:43.552083  6138 net.cpp:156] Memory required for data: 979019040
I0403 17:51:43.552100  6138 layer_factory.hpp:77] Creating layer inception_4b/relu_pool_proj
I0403 17:51:43.552119  6138 net.cpp:91] Creating Layer inception_4b/relu_pool_proj
I0403 17:51:43.552135  6138 net.cpp:425] inception_4b/relu_pool_proj <- inception_4b/pool_proj
I0403 17:51:43.552152  6138 net.cpp:386] inception_4b/relu_pool_proj -> inception_4b/pool_proj (in-place)
I0403 17:51:43.552335  6138 net.cpp:141] Setting up inception_4b/relu_pool_proj
I0403 17:51:43.552361  6138 net.cpp:148] Top shape: 24 64 14 14 (301056)
I0403 17:51:43.552374  6138 net.cpp:156] Memory required for data: 980223264
I0403 17:51:43.552389  6138 layer_factory.hpp:77] Creating layer inception_4b/output
I0403 17:51:43.552405  6138 net.cpp:91] Creating Layer inception_4b/output
I0403 17:51:43.552420  6138 net.cpp:425] inception_4b/output <- inception_4b/1x1
I0403 17:51:43.552438  6138 net.cpp:425] inception_4b/output <- inception_4b/3x3
I0403 17:51:43.552453  6138 net.cpp:425] inception_4b/output <- inception_4b/5x5
I0403 17:51:43.552469  6138 net.cpp:425] inception_4b/output <- inception_4b/pool_proj
I0403 17:51:43.552485  6138 net.cpp:399] inception_4b/output -> inception_4b/output
I0403 17:51:43.552531  6138 net.cpp:141] Setting up inception_4b/output
I0403 17:51:43.552552  6138 net.cpp:148] Top shape: 24 512 14 14 (2408448)
I0403 17:51:43.552567  6138 net.cpp:156] Memory required for data: 989857056
I0403 17:51:43.552594  6138 layer_factory.hpp:77] Creating layer inception_4b/output_inception_4b/output_0_split
I0403 17:51:43.552611  6138 net.cpp:91] Creating Layer inception_4b/output_inception_4b/output_0_split
I0403 17:51:43.552629  6138 net.cpp:425] inception_4b/output_inception_4b/output_0_split <- inception_4b/output
I0403 17:51:43.552646  6138 net.cpp:399] inception_4b/output_inception_4b/output_0_split -> inception_4b/output_inception_4b/output_0_split_0
I0403 17:51:43.552665  6138 net.cpp:399] inception_4b/output_inception_4b/output_0_split -> inception_4b/output_inception_4b/output_0_split_1
I0403 17:51:43.552685  6138 net.cpp:399] inception_4b/output_inception_4b/output_0_split -> inception_4b/output_inception_4b/output_0_split_2
I0403 17:51:43.552705  6138 net.cpp:399] inception_4b/output_inception_4b/output_0_split -> inception_4b/output_inception_4b/output_0_split_3
I0403 17:51:43.552785  6138 net.cpp:141] Setting up inception_4b/output_inception_4b/output_0_split
I0403 17:51:43.552808  6138 net.cpp:148] Top shape: 24 512 14 14 (2408448)
I0403 17:51:43.552824  6138 net.cpp:148] Top shape: 24 512 14 14 (2408448)
I0403 17:51:43.552839  6138 net.cpp:148] Top shape: 24 512 14 14 (2408448)
I0403 17:51:43.552853  6138 net.cpp:148] Top shape: 24 512 14 14 (2408448)
I0403 17:51:43.552867  6138 net.cpp:156] Memory required for data: 1028392224
I0403 17:51:43.552881  6138 layer_factory.hpp:77] Creating layer inception_4c/1x1
I0403 17:51:43.552903  6138 net.cpp:91] Creating Layer inception_4c/1x1
I0403 17:51:43.552920  6138 net.cpp:425] inception_4c/1x1 <- inception_4b/output_inception_4b/output_0_split_0
I0403 17:51:43.552940  6138 net.cpp:399] inception_4c/1x1 -> inception_4c/1x1
I0403 17:51:43.554340  6138 net.cpp:141] Setting up inception_4c/1x1
I0403 17:51:43.554370  6138 net.cpp:148] Top shape: 24 128 14 14 (602112)
I0403 17:51:43.554386  6138 net.cpp:156] Memory required for data: 1030800672
I0403 17:51:43.554405  6138 layer_factory.hpp:77] Creating layer inception_4c/relu_1x1
I0403 17:51:43.554422  6138 net.cpp:91] Creating Layer inception_4c/relu_1x1
I0403 17:51:43.554440  6138 net.cpp:425] inception_4c/relu_1x1 <- inception_4c/1x1
I0403 17:51:43.554456  6138 net.cpp:386] inception_4c/relu_1x1 -> inception_4c/1x1 (in-place)
I0403 17:51:43.554631  6138 net.cpp:141] Setting up inception_4c/relu_1x1
I0403 17:51:43.554656  6138 net.cpp:148] Top shape: 24 128 14 14 (602112)
I0403 17:51:43.554669  6138 net.cpp:156] Memory required for data: 1033209120
I0403 17:51:43.554684  6138 layer_factory.hpp:77] Creating layer inception_4c/3x3_reduce
I0403 17:51:43.554709  6138 net.cpp:91] Creating Layer inception_4c/3x3_reduce
I0403 17:51:43.554728  6138 net.cpp:425] inception_4c/3x3_reduce <- inception_4b/output_inception_4b/output_0_split_1
I0403 17:51:43.554750  6138 net.cpp:399] inception_4c/3x3_reduce -> inception_4c/3x3_reduce
I0403 17:51:43.556638  6138 net.cpp:141] Setting up inception_4c/3x3_reduce
I0403 17:51:43.556665  6138 net.cpp:148] Top shape: 24 128 14 14 (602112)
I0403 17:51:43.556680  6138 net.cpp:156] Memory required for data: 1035617568
I0403 17:51:43.556697  6138 layer_factory.hpp:77] Creating layer inception_4c/relu_3x3_reduce
I0403 17:51:43.556717  6138 net.cpp:91] Creating Layer inception_4c/relu_3x3_reduce
I0403 17:51:43.556733  6138 net.cpp:425] inception_4c/relu_3x3_reduce <- inception_4c/3x3_reduce
I0403 17:51:43.556751  6138 net.cpp:386] inception_4c/relu_3x3_reduce -> inception_4c/3x3_reduce (in-place)
I0403 17:51:43.557026  6138 net.cpp:141] Setting up inception_4c/relu_3x3_reduce
I0403 17:51:43.557051  6138 net.cpp:148] Top shape: 24 128 14 14 (602112)
I0403 17:51:43.557066  6138 net.cpp:156] Memory required for data: 1038026016
I0403 17:51:43.557080  6138 layer_factory.hpp:77] Creating layer inception_4c/3x3
I0403 17:51:43.557102  6138 net.cpp:91] Creating Layer inception_4c/3x3
I0403 17:51:43.557121  6138 net.cpp:425] inception_4c/3x3 <- inception_4c/3x3_reduce
I0403 17:51:43.557142  6138 net.cpp:399] inception_4c/3x3 -> inception_4c/3x3
I0403 17:51:43.560637  6138 net.cpp:141] Setting up inception_4c/3x3
I0403 17:51:43.560678  6138 net.cpp:148] Top shape: 24 256 14 14 (1204224)
I0403 17:51:43.560693  6138 net.cpp:156] Memory required for data: 1042842912
I0403 17:51:43.560722  6138 layer_factory.hpp:77] Creating layer inception_4c/relu_3x3
I0403 17:51:43.560744  6138 net.cpp:91] Creating Layer inception_4c/relu_3x3
I0403 17:51:43.560760  6138 net.cpp:425] inception_4c/relu_3x3 <- inception_4c/3x3
I0403 17:51:43.560775  6138 net.cpp:386] inception_4c/relu_3x3 -> inception_4c/3x3 (in-place)
I0403 17:51:43.560945  6138 net.cpp:141] Setting up inception_4c/relu_3x3
I0403 17:51:43.560968  6138 net.cpp:148] Top shape: 24 256 14 14 (1204224)
I0403 17:51:43.560982  6138 net.cpp:156] Memory required for data: 1047659808
I0403 17:51:43.560997  6138 layer_factory.hpp:77] Creating layer inception_4c/5x5_reduce
I0403 17:51:43.561017  6138 net.cpp:91] Creating Layer inception_4c/5x5_reduce
I0403 17:51:43.561034  6138 net.cpp:425] inception_4c/5x5_reduce <- inception_4b/output_inception_4b/output_0_split_2
I0403 17:51:43.561054  6138 net.cpp:399] inception_4c/5x5_reduce -> inception_4c/5x5_reduce
I0403 17:51:43.562126  6138 net.cpp:141] Setting up inception_4c/5x5_reduce
I0403 17:51:43.562152  6138 net.cpp:148] Top shape: 24 24 14 14 (112896)
I0403 17:51:43.562167  6138 net.cpp:156] Memory required for data: 1048111392
I0403 17:51:43.562186  6138 layer_factory.hpp:77] Creating layer inception_4c/relu_5x5_reduce
I0403 17:51:43.562203  6138 net.cpp:91] Creating Layer inception_4c/relu_5x5_reduce
I0403 17:51:43.562224  6138 net.cpp:425] inception_4c/relu_5x5_reduce <- inception_4c/5x5_reduce
I0403 17:51:43.562242  6138 net.cpp:386] inception_4c/relu_5x5_reduce -> inception_4c/5x5_reduce (in-place)
I0403 17:51:43.562417  6138 net.cpp:141] Setting up inception_4c/relu_5x5_reduce
I0403 17:51:43.562440  6138 net.cpp:148] Top shape: 24 24 14 14 (112896)
I0403 17:51:43.562454  6138 net.cpp:156] Memory required for data: 1048562976
I0403 17:51:43.562469  6138 layer_factory.hpp:77] Creating layer inception_4c/5x5
I0403 17:51:43.562494  6138 net.cpp:91] Creating Layer inception_4c/5x5
I0403 17:51:43.562511  6138 net.cpp:425] inception_4c/5x5 <- inception_4c/5x5_reduce
I0403 17:51:43.562528  6138 net.cpp:399] inception_4c/5x5 -> inception_4c/5x5
I0403 17:51:43.563709  6138 net.cpp:141] Setting up inception_4c/5x5
I0403 17:51:43.563738  6138 net.cpp:148] Top shape: 24 64 14 14 (301056)
I0403 17:51:43.563755  6138 net.cpp:156] Memory required for data: 1049767200
I0403 17:51:43.563777  6138 layer_factory.hpp:77] Creating layer inception_4c/relu_5x5
I0403 17:51:43.563793  6138 net.cpp:91] Creating Layer inception_4c/relu_5x5
I0403 17:51:43.563809  6138 net.cpp:425] inception_4c/relu_5x5 <- inception_4c/5x5
I0403 17:51:43.563824  6138 net.cpp:386] inception_4c/relu_5x5 -> inception_4c/5x5 (in-place)
I0403 17:51:43.564097  6138 net.cpp:141] Setting up inception_4c/relu_5x5
I0403 17:51:43.564123  6138 net.cpp:148] Top shape: 24 64 14 14 (301056)
I0403 17:51:43.564138  6138 net.cpp:156] Memory required for data: 1050971424
I0403 17:51:43.564152  6138 layer_factory.hpp:77] Creating layer inception_4c/pool
I0403 17:51:43.564169  6138 net.cpp:91] Creating Layer inception_4c/pool
I0403 17:51:43.564183  6138 net.cpp:425] inception_4c/pool <- inception_4b/output_inception_4b/output_0_split_3
I0403 17:51:43.564200  6138 net.cpp:399] inception_4c/pool -> inception_4c/pool
I0403 17:51:43.564267  6138 net.cpp:141] Setting up inception_4c/pool
I0403 17:51:43.564291  6138 net.cpp:148] Top shape: 24 512 14 14 (2408448)
I0403 17:51:43.564304  6138 net.cpp:156] Memory required for data: 1060605216
I0403 17:51:43.564317  6138 layer_factory.hpp:77] Creating layer inception_4c/pool_proj
I0403 17:51:43.564338  6138 net.cpp:91] Creating Layer inception_4c/pool_proj
I0403 17:51:43.564354  6138 net.cpp:425] inception_4c/pool_proj <- inception_4c/pool
I0403 17:51:43.564374  6138 net.cpp:399] inception_4c/pool_proj -> inception_4c/pool_proj
I0403 17:51:43.565533  6138 net.cpp:141] Setting up inception_4c/pool_proj
I0403 17:51:43.565572  6138 net.cpp:148] Top shape: 24 64 14 14 (301056)
I0403 17:51:43.565600  6138 net.cpp:156] Memory required for data: 1061809440
I0403 17:51:43.565619  6138 layer_factory.hpp:77] Creating layer inception_4c/relu_pool_proj
I0403 17:51:43.565640  6138 net.cpp:91] Creating Layer inception_4c/relu_pool_proj
I0403 17:51:43.565657  6138 net.cpp:425] inception_4c/relu_pool_proj <- inception_4c/pool_proj
I0403 17:51:43.565675  6138 net.cpp:386] inception_4c/relu_pool_proj -> inception_4c/pool_proj (in-place)
I0403 17:51:43.565866  6138 net.cpp:141] Setting up inception_4c/relu_pool_proj
I0403 17:51:43.565891  6138 net.cpp:148] Top shape: 24 64 14 14 (301056)
I0403 17:51:43.565906  6138 net.cpp:156] Memory required for data: 1063013664
I0403 17:51:43.565919  6138 layer_factory.hpp:77] Creating layer inception_4c/output
I0403 17:51:43.565937  6138 net.cpp:91] Creating Layer inception_4c/output
I0403 17:51:43.565951  6138 net.cpp:425] inception_4c/output <- inception_4c/1x1
I0403 17:51:43.565966  6138 net.cpp:425] inception_4c/output <- inception_4c/3x3
I0403 17:51:43.565981  6138 net.cpp:425] inception_4c/output <- inception_4c/5x5
I0403 17:51:43.565995  6138 net.cpp:425] inception_4c/output <- inception_4c/pool_proj
I0403 17:51:43.566011  6138 net.cpp:399] inception_4c/output -> inception_4c/output
I0403 17:51:43.566056  6138 net.cpp:141] Setting up inception_4c/output
I0403 17:51:43.566077  6138 net.cpp:148] Top shape: 24 512 14 14 (2408448)
I0403 17:51:43.566090  6138 net.cpp:156] Memory required for data: 1072647456
I0403 17:51:43.566104  6138 layer_factory.hpp:77] Creating layer inception_4c/output_inception_4c/output_0_split
I0403 17:51:43.566119  6138 net.cpp:91] Creating Layer inception_4c/output_inception_4c/output_0_split
I0403 17:51:43.566134  6138 net.cpp:425] inception_4c/output_inception_4c/output_0_split <- inception_4c/output
I0403 17:51:43.566156  6138 net.cpp:399] inception_4c/output_inception_4c/output_0_split -> inception_4c/output_inception_4c/output_0_split_0
I0403 17:51:43.566176  6138 net.cpp:399] inception_4c/output_inception_4c/output_0_split -> inception_4c/output_inception_4c/output_0_split_1
I0403 17:51:43.566195  6138 net.cpp:399] inception_4c/output_inception_4c/output_0_split -> inception_4c/output_inception_4c/output_0_split_2
I0403 17:51:43.566217  6138 net.cpp:399] inception_4c/output_inception_4c/output_0_split -> inception_4c/output_inception_4c/output_0_split_3
I0403 17:51:43.566299  6138 net.cpp:141] Setting up inception_4c/output_inception_4c/output_0_split
I0403 17:51:43.566320  6138 net.cpp:148] Top shape: 24 512 14 14 (2408448)
I0403 17:51:43.566335  6138 net.cpp:148] Top shape: 24 512 14 14 (2408448)
I0403 17:51:43.566350  6138 net.cpp:148] Top shape: 24 512 14 14 (2408448)
I0403 17:51:43.566365  6138 net.cpp:148] Top shape: 24 512 14 14 (2408448)
I0403 17:51:43.566378  6138 net.cpp:156] Memory required for data: 1111182624
I0403 17:51:43.566392  6138 layer_factory.hpp:77] Creating layer inception_4d/1x1
I0403 17:51:43.566413  6138 net.cpp:91] Creating Layer inception_4d/1x1
I0403 17:51:43.566431  6138 net.cpp:425] inception_4d/1x1 <- inception_4c/output_inception_4c/output_0_split_0
I0403 17:51:43.566450  6138 net.cpp:399] inception_4d/1x1 -> inception_4d/1x1
I0403 17:51:43.567770  6138 net.cpp:141] Setting up inception_4d/1x1
I0403 17:51:43.567796  6138 net.cpp:148] Top shape: 24 112 14 14 (526848)
I0403 17:51:43.567811  6138 net.cpp:156] Memory required for data: 1113290016
I0403 17:51:43.567828  6138 layer_factory.hpp:77] Creating layer inception_4d/relu_1x1
I0403 17:51:43.567845  6138 net.cpp:91] Creating Layer inception_4d/relu_1x1
I0403 17:51:43.567860  6138 net.cpp:425] inception_4d/relu_1x1 <- inception_4d/1x1
I0403 17:51:43.567879  6138 net.cpp:386] inception_4d/relu_1x1 -> inception_4d/1x1 (in-place)
I0403 17:51:43.568053  6138 net.cpp:141] Setting up inception_4d/relu_1x1
I0403 17:51:43.568075  6138 net.cpp:148] Top shape: 24 112 14 14 (526848)
I0403 17:51:43.568089  6138 net.cpp:156] Memory required for data: 1115397408
I0403 17:51:43.568104  6138 layer_factory.hpp:77] Creating layer inception_4d/3x3_reduce
I0403 17:51:43.568138  6138 net.cpp:91] Creating Layer inception_4d/3x3_reduce
I0403 17:51:43.568156  6138 net.cpp:425] inception_4d/3x3_reduce <- inception_4c/output_inception_4c/output_0_split_1
I0403 17:51:43.568177  6138 net.cpp:399] inception_4d/3x3_reduce -> inception_4d/3x3_reduce
I0403 17:51:43.569607  6138 net.cpp:141] Setting up inception_4d/3x3_reduce
I0403 17:51:43.569634  6138 net.cpp:148] Top shape: 24 144 14 14 (677376)
I0403 17:51:43.569648  6138 net.cpp:156] Memory required for data: 1118106912
I0403 17:51:43.569665  6138 layer_factory.hpp:77] Creating layer inception_4d/relu_3x3_reduce
I0403 17:51:43.569684  6138 net.cpp:91] Creating Layer inception_4d/relu_3x3_reduce
I0403 17:51:43.569700  6138 net.cpp:425] inception_4d/relu_3x3_reduce <- inception_4d/3x3_reduce
I0403 17:51:43.569716  6138 net.cpp:386] inception_4d/relu_3x3_reduce -> inception_4d/3x3_reduce (in-place)
I0403 17:51:43.569993  6138 net.cpp:141] Setting up inception_4d/relu_3x3_reduce
I0403 17:51:43.570018  6138 net.cpp:148] Top shape: 24 144 14 14 (677376)
I0403 17:51:43.570031  6138 net.cpp:156] Memory required for data: 1120816416
I0403 17:51:43.570045  6138 layer_factory.hpp:77] Creating layer inception_4d/3x3
I0403 17:51:43.570071  6138 net.cpp:91] Creating Layer inception_4d/3x3
I0403 17:51:43.570088  6138 net.cpp:425] inception_4d/3x3 <- inception_4d/3x3_reduce
I0403 17:51:43.570106  6138 net.cpp:399] inception_4d/3x3 -> inception_4d/3x3
I0403 17:51:43.574224  6138 net.cpp:141] Setting up inception_4d/3x3
I0403 17:51:43.574254  6138 net.cpp:148] Top shape: 24 288 14 14 (1354752)
I0403 17:51:43.574270  6138 net.cpp:156] Memory required for data: 1126235424
I0403 17:51:43.574288  6138 layer_factory.hpp:77] Creating layer inception_4d/relu_3x3
I0403 17:51:43.574306  6138 net.cpp:91] Creating Layer inception_4d/relu_3x3
I0403 17:51:43.574321  6138 net.cpp:425] inception_4d/relu_3x3 <- inception_4d/3x3
I0403 17:51:43.574339  6138 net.cpp:386] inception_4d/relu_3x3 -> inception_4d/3x3 (in-place)
I0403 17:51:43.574522  6138 net.cpp:141] Setting up inception_4d/relu_3x3
I0403 17:51:43.574547  6138 net.cpp:148] Top shape: 24 288 14 14 (1354752)
I0403 17:51:43.574560  6138 net.cpp:156] Memory required for data: 1131654432
I0403 17:51:43.574574  6138 layer_factory.hpp:77] Creating layer inception_4d/5x5_reduce
I0403 17:51:43.574597  6138 net.cpp:91] Creating Layer inception_4d/5x5_reduce
I0403 17:51:43.574615  6138 net.cpp:425] inception_4d/5x5_reduce <- inception_4c/output_inception_4c/output_0_split_2
I0403 17:51:43.574635  6138 net.cpp:399] inception_4d/5x5_reduce -> inception_4d/5x5_reduce
I0403 17:51:43.575773  6138 net.cpp:141] Setting up inception_4d/5x5_reduce
I0403 17:51:43.575800  6138 net.cpp:148] Top shape: 24 32 14 14 (150528)
I0403 17:51:43.575815  6138 net.cpp:156] Memory required for data: 1132256544
I0403 17:51:43.575832  6138 layer_factory.hpp:77] Creating layer inception_4d/relu_5x5_reduce
I0403 17:51:43.575850  6138 net.cpp:91] Creating Layer inception_4d/relu_5x5_reduce
I0403 17:51:43.575865  6138 net.cpp:425] inception_4d/relu_5x5_reduce <- inception_4d/5x5_reduce
I0403 17:51:43.575884  6138 net.cpp:386] inception_4d/relu_5x5_reduce -> inception_4d/5x5_reduce (in-place)
I0403 17:51:43.576068  6138 net.cpp:141] Setting up inception_4d/relu_5x5_reduce
I0403 17:51:43.576092  6138 net.cpp:148] Top shape: 24 32 14 14 (150528)
I0403 17:51:43.576107  6138 net.cpp:156] Memory required for data: 1132858656
I0403 17:51:43.576122  6138 layer_factory.hpp:77] Creating layer inception_4d/5x5
I0403 17:51:43.576143  6138 net.cpp:91] Creating Layer inception_4d/5x5
I0403 17:51:43.576160  6138 net.cpp:425] inception_4d/5x5 <- inception_4d/5x5_reduce
I0403 17:51:43.576181  6138 net.cpp:399] inception_4d/5x5 -> inception_4d/5x5
I0403 17:51:43.577637  6138 net.cpp:141] Setting up inception_4d/5x5
I0403 17:51:43.577664  6138 net.cpp:148] Top shape: 24 64 14 14 (301056)
I0403 17:51:43.577679  6138 net.cpp:156] Memory required for data: 1134062880
I0403 17:51:43.577698  6138 layer_factory.hpp:77] Creating layer inception_4d/relu_5x5
I0403 17:51:43.577733  6138 net.cpp:91] Creating Layer inception_4d/relu_5x5
I0403 17:51:43.577749  6138 net.cpp:425] inception_4d/relu_5x5 <- inception_4d/5x5
I0403 17:51:43.577767  6138 net.cpp:386] inception_4d/relu_5x5 -> inception_4d/5x5 (in-place)
I0403 17:51:43.578065  6138 net.cpp:141] Setting up inception_4d/relu_5x5
I0403 17:51:43.578090  6138 net.cpp:148] Top shape: 24 64 14 14 (301056)
I0403 17:51:43.578105  6138 net.cpp:156] Memory required for data: 1135267104
I0403 17:51:43.578119  6138 layer_factory.hpp:77] Creating layer inception_4d/pool
I0403 17:51:43.578138  6138 net.cpp:91] Creating Layer inception_4d/pool
I0403 17:51:43.578155  6138 net.cpp:425] inception_4d/pool <- inception_4c/output_inception_4c/output_0_split_3
I0403 17:51:43.578173  6138 net.cpp:399] inception_4d/pool -> inception_4d/pool
I0403 17:51:43.578244  6138 net.cpp:141] Setting up inception_4d/pool
I0403 17:51:43.578268  6138 net.cpp:148] Top shape: 24 512 14 14 (2408448)
I0403 17:51:43.578281  6138 net.cpp:156] Memory required for data: 1144900896
I0403 17:51:43.578295  6138 layer_factory.hpp:77] Creating layer inception_4d/pool_proj
I0403 17:51:43.578316  6138 net.cpp:91] Creating Layer inception_4d/pool_proj
I0403 17:51:43.578333  6138 net.cpp:425] inception_4d/pool_proj <- inception_4d/pool
I0403 17:51:43.578354  6138 net.cpp:399] inception_4d/pool_proj -> inception_4d/pool_proj
I0403 17:51:43.580098  6138 net.cpp:141] Setting up inception_4d/pool_proj
I0403 17:51:43.580127  6138 net.cpp:148] Top shape: 24 64 14 14 (301056)
I0403 17:51:43.580142  6138 net.cpp:156] Memory required for data: 1146105120
I0403 17:51:43.580159  6138 layer_factory.hpp:77] Creating layer inception_4d/relu_pool_proj
I0403 17:51:43.580176  6138 net.cpp:91] Creating Layer inception_4d/relu_pool_proj
I0403 17:51:43.580193  6138 net.cpp:425] inception_4d/relu_pool_proj <- inception_4d/pool_proj
I0403 17:51:43.580215  6138 net.cpp:386] inception_4d/relu_pool_proj -> inception_4d/pool_proj (in-place)
I0403 17:51:43.580397  6138 net.cpp:141] Setting up inception_4d/relu_pool_proj
I0403 17:51:43.580421  6138 net.cpp:148] Top shape: 24 64 14 14 (301056)
I0403 17:51:43.580436  6138 net.cpp:156] Memory required for data: 1147309344
I0403 17:51:43.580451  6138 layer_factory.hpp:77] Creating layer inception_4d/output
I0403 17:51:43.580467  6138 net.cpp:91] Creating Layer inception_4d/output
I0403 17:51:43.580485  6138 net.cpp:425] inception_4d/output <- inception_4d/1x1
I0403 17:51:43.580502  6138 net.cpp:425] inception_4d/output <- inception_4d/3x3
I0403 17:51:43.580516  6138 net.cpp:425] inception_4d/output <- inception_4d/5x5
I0403 17:51:43.580533  6138 net.cpp:425] inception_4d/output <- inception_4d/pool_proj
I0403 17:51:43.580550  6138 net.cpp:399] inception_4d/output -> inception_4d/output
I0403 17:51:43.580600  6138 net.cpp:141] Setting up inception_4d/output
I0403 17:51:43.580621  6138 net.cpp:148] Top shape: 24 528 14 14 (2483712)
I0403 17:51:43.580636  6138 net.cpp:156] Memory required for data: 1157244192
I0403 17:51:43.580649  6138 layer_factory.hpp:77] Creating layer inception_4d/output_inception_4d/output_0_split
I0403 17:51:43.580667  6138 net.cpp:91] Creating Layer inception_4d/output_inception_4d/output_0_split
I0403 17:51:43.580682  6138 net.cpp:425] inception_4d/output_inception_4d/output_0_split <- inception_4d/output
I0403 17:51:43.580705  6138 net.cpp:399] inception_4d/output_inception_4d/output_0_split -> inception_4d/output_inception_4d/output_0_split_0
I0403 17:51:43.580727  6138 net.cpp:399] inception_4d/output_inception_4d/output_0_split -> inception_4d/output_inception_4d/output_0_split_1
I0403 17:51:43.580746  6138 net.cpp:399] inception_4d/output_inception_4d/output_0_split -> inception_4d/output_inception_4d/output_0_split_2
I0403 17:51:43.580775  6138 net.cpp:399] inception_4d/output_inception_4d/output_0_split -> inception_4d/output_inception_4d/output_0_split_3
I0403 17:51:43.580793  6138 net.cpp:399] inception_4d/output_inception_4d/output_0_split -> inception_4d/output_inception_4d/output_0_split_4
I0403 17:51:43.580891  6138 net.cpp:141] Setting up inception_4d/output_inception_4d/output_0_split
I0403 17:51:43.580927  6138 net.cpp:148] Top shape: 24 528 14 14 (2483712)
I0403 17:51:43.580945  6138 net.cpp:148] Top shape: 24 528 14 14 (2483712)
I0403 17:51:43.580960  6138 net.cpp:148] Top shape: 24 528 14 14 (2483712)
I0403 17:51:43.580974  6138 net.cpp:148] Top shape: 24 528 14 14 (2483712)
I0403 17:51:43.580989  6138 net.cpp:148] Top shape: 24 528 14 14 (2483712)
I0403 17:51:43.581003  6138 net.cpp:156] Memory required for data: 1206918432
I0403 17:51:43.581017  6138 layer_factory.hpp:77] Creating layer loss2/ave_pool
I0403 17:51:43.581034  6138 net.cpp:91] Creating Layer loss2/ave_pool
I0403 17:51:43.581050  6138 net.cpp:425] loss2/ave_pool <- inception_4d/output_inception_4d/output_0_split_0
I0403 17:51:43.581070  6138 net.cpp:399] loss2/ave_pool -> loss2/ave_pool
I0403 17:51:43.581379  6138 net.cpp:141] Setting up loss2/ave_pool
I0403 17:51:43.581405  6138 net.cpp:148] Top shape: 24 528 4 4 (202752)
I0403 17:51:43.581420  6138 net.cpp:156] Memory required for data: 1207729440
I0403 17:51:43.581436  6138 layer_factory.hpp:77] Creating layer loss2/conv
I0403 17:51:43.581457  6138 net.cpp:91] Creating Layer loss2/conv
I0403 17:51:43.581475  6138 net.cpp:425] loss2/conv <- loss2/ave_pool
I0403 17:51:43.581496  6138 net.cpp:399] loss2/conv -> loss2/conv
I0403 17:51:43.583351  6138 net.cpp:141] Setting up loss2/conv
I0403 17:51:43.583379  6138 net.cpp:148] Top shape: 24 128 4 4 (49152)
I0403 17:51:43.583395  6138 net.cpp:156] Memory required for data: 1207926048
I0403 17:51:43.583412  6138 layer_factory.hpp:77] Creating layer loss2/relu_conv
I0403 17:51:43.583433  6138 net.cpp:91] Creating Layer loss2/relu_conv
I0403 17:51:43.583449  6138 net.cpp:425] loss2/relu_conv <- loss2/conv
I0403 17:51:43.583467  6138 net.cpp:386] loss2/relu_conv -> loss2/conv (in-place)
I0403 17:51:43.583750  6138 net.cpp:141] Setting up loss2/relu_conv
I0403 17:51:43.583780  6138 net.cpp:148] Top shape: 24 128 4 4 (49152)
I0403 17:51:43.583794  6138 net.cpp:156] Memory required for data: 1208122656
I0403 17:51:43.583808  6138 layer_factory.hpp:77] Creating layer loss2/fc
I0403 17:51:43.583828  6138 net.cpp:91] Creating Layer loss2/fc
I0403 17:51:43.583847  6138 net.cpp:425] loss2/fc <- loss2/conv
I0403 17:51:43.583866  6138 net.cpp:399] loss2/fc -> loss2/fc
I0403 17:51:43.600971  6138 net.cpp:141] Setting up loss2/fc
I0403 17:51:43.601004  6138 net.cpp:148] Top shape: 24 1024 (24576)
I0403 17:51:43.601018  6138 net.cpp:156] Memory required for data: 1208220960
I0403 17:51:43.601037  6138 layer_factory.hpp:77] Creating layer loss2/relu_fc
I0403 17:51:43.601052  6138 net.cpp:91] Creating Layer loss2/relu_fc
I0403 17:51:43.601068  6138 net.cpp:425] loss2/relu_fc <- loss2/fc
I0403 17:51:43.601086  6138 net.cpp:386] loss2/relu_fc -> loss2/fc (in-place)
I0403 17:51:43.601373  6138 net.cpp:141] Setting up loss2/relu_fc
I0403 17:51:43.601398  6138 net.cpp:148] Top shape: 24 1024 (24576)
I0403 17:51:43.601413  6138 net.cpp:156] Memory required for data: 1208319264
I0403 17:51:43.601426  6138 layer_factory.hpp:77] Creating layer loss2/drop_fc
I0403 17:51:43.601444  6138 net.cpp:91] Creating Layer loss2/drop_fc
I0403 17:51:43.601459  6138 net.cpp:425] loss2/drop_fc <- loss2/fc
I0403 17:51:43.601478  6138 net.cpp:386] loss2/drop_fc -> loss2/fc (in-place)
I0403 17:51:43.601523  6138 net.cpp:141] Setting up loss2/drop_fc
I0403 17:51:43.601547  6138 net.cpp:148] Top shape: 24 1024 (24576)
I0403 17:51:43.601562  6138 net.cpp:156] Memory required for data: 1208417568
I0403 17:51:43.601575  6138 layer_factory.hpp:77] Creating layer loss2/classifier_plantvillage
I0403 17:51:43.601593  6138 net.cpp:91] Creating Layer loss2/classifier_plantvillage
I0403 17:51:43.601608  6138 net.cpp:425] loss2/classifier_plantvillage <- loss2/fc
I0403 17:51:43.601629  6138 net.cpp:399] loss2/classifier_plantvillage -> loss2/classifier_plantvillage
I0403 17:51:43.602005  6138 net.cpp:141] Setting up loss2/classifier_plantvillage
I0403 17:51:43.602028  6138 net.cpp:148] Top shape: 24 38 (912)
I0403 17:51:43.602058  6138 net.cpp:156] Memory required for data: 1208421216
I0403 17:51:43.602075  6138 layer_factory.hpp:77] Creating layer loss2/classifier_plantvillage_loss2/classifier_plantvillage_0_split
I0403 17:51:43.602094  6138 net.cpp:91] Creating Layer loss2/classifier_plantvillage_loss2/classifier_plantvillage_0_split
I0403 17:51:43.602110  6138 net.cpp:425] loss2/classifier_plantvillage_loss2/classifier_plantvillage_0_split <- loss2/classifier_plantvillage
I0403 17:51:43.602128  6138 net.cpp:399] loss2/classifier_plantvillage_loss2/classifier_plantvillage_0_split -> loss2/classifier_plantvillage_loss2/classifier_plantvillage_0_split_0
I0403 17:51:43.602146  6138 net.cpp:399] loss2/classifier_plantvillage_loss2/classifier_plantvillage_0_split -> loss2/classifier_plantvillage_loss2/classifier_plantvillage_0_split_1
I0403 17:51:43.602169  6138 net.cpp:399] loss2/classifier_plantvillage_loss2/classifier_plantvillage_0_split -> loss2/classifier_plantvillage_loss2/classifier_plantvillage_0_split_2
I0403 17:51:43.602246  6138 net.cpp:141] Setting up loss2/classifier_plantvillage_loss2/classifier_plantvillage_0_split
I0403 17:51:43.602268  6138 net.cpp:148] Top shape: 24 38 (912)
I0403 17:51:43.602284  6138 net.cpp:148] Top shape: 24 38 (912)
I0403 17:51:43.602299  6138 net.cpp:148] Top shape: 24 38 (912)
I0403 17:51:43.602313  6138 net.cpp:156] Memory required for data: 1208432160
I0403 17:51:43.602326  6138 layer_factory.hpp:77] Creating layer inception_4e/1x1
I0403 17:51:43.602350  6138 net.cpp:91] Creating Layer inception_4e/1x1
I0403 17:51:43.602367  6138 net.cpp:425] inception_4e/1x1 <- inception_4d/output_inception_4d/output_0_split_1
I0403 17:51:43.602385  6138 net.cpp:399] inception_4e/1x1 -> inception_4e/1x1
I0403 17:51:43.604115  6138 net.cpp:141] Setting up inception_4e/1x1
I0403 17:51:43.604142  6138 net.cpp:148] Top shape: 24 256 14 14 (1204224)
I0403 17:51:43.604156  6138 net.cpp:156] Memory required for data: 1213249056
I0403 17:51:43.604174  6138 layer_factory.hpp:77] Creating layer inception_4e/relu_1x1
I0403 17:51:43.604194  6138 net.cpp:91] Creating Layer inception_4e/relu_1x1
I0403 17:51:43.604213  6138 net.cpp:425] inception_4e/relu_1x1 <- inception_4e/1x1
I0403 17:51:43.604230  6138 net.cpp:386] inception_4e/relu_1x1 -> inception_4e/1x1 (in-place)
I0403 17:51:43.604513  6138 net.cpp:141] Setting up inception_4e/relu_1x1
I0403 17:51:43.604538  6138 net.cpp:148] Top shape: 24 256 14 14 (1204224)
I0403 17:51:43.604552  6138 net.cpp:156] Memory required for data: 1218065952
I0403 17:51:43.604568  6138 layer_factory.hpp:77] Creating layer inception_4e/3x3_reduce
I0403 17:51:43.604588  6138 net.cpp:91] Creating Layer inception_4e/3x3_reduce
I0403 17:51:43.604605  6138 net.cpp:425] inception_4e/3x3_reduce <- inception_4d/output_inception_4d/output_0_split_2
I0403 17:51:43.604625  6138 net.cpp:399] inception_4e/3x3_reduce -> inception_4e/3x3_reduce
I0403 17:51:43.606652  6138 net.cpp:141] Setting up inception_4e/3x3_reduce
I0403 17:51:43.606678  6138 net.cpp:148] Top shape: 24 160 14 14 (752640)
I0403 17:51:43.606693  6138 net.cpp:156] Memory required for data: 1221076512
I0403 17:51:43.606709  6138 layer_factory.hpp:77] Creating layer inception_4e/relu_3x3_reduce
I0403 17:51:43.606729  6138 net.cpp:91] Creating Layer inception_4e/relu_3x3_reduce
I0403 17:51:43.606745  6138 net.cpp:425] inception_4e/relu_3x3_reduce <- inception_4e/3x3_reduce
I0403 17:51:43.606762  6138 net.cpp:386] inception_4e/relu_3x3_reduce -> inception_4e/3x3_reduce (in-place)
I0403 17:51:43.606938  6138 net.cpp:141] Setting up inception_4e/relu_3x3_reduce
I0403 17:51:43.606964  6138 net.cpp:148] Top shape: 24 160 14 14 (752640)
I0403 17:51:43.606978  6138 net.cpp:156] Memory required for data: 1224087072
I0403 17:51:43.606992  6138 layer_factory.hpp:77] Creating layer inception_4e/3x3
I0403 17:51:43.607017  6138 net.cpp:91] Creating Layer inception_4e/3x3
I0403 17:51:43.607033  6138 net.cpp:425] inception_4e/3x3 <- inception_4e/3x3_reduce
I0403 17:51:43.607051  6138 net.cpp:399] inception_4e/3x3 -> inception_4e/3x3
I0403 17:51:43.611860  6138 net.cpp:141] Setting up inception_4e/3x3
I0403 17:51:43.611901  6138 net.cpp:148] Top shape: 24 320 14 14 (1505280)
I0403 17:51:43.611917  6138 net.cpp:156] Memory required for data: 1230108192
I0403 17:51:43.611935  6138 layer_factory.hpp:77] Creating layer inception_4e/relu_3x3
I0403 17:51:43.611953  6138 net.cpp:91] Creating Layer inception_4e/relu_3x3
I0403 17:51:43.611968  6138 net.cpp:425] inception_4e/relu_3x3 <- inception_4e/3x3
I0403 17:51:43.611984  6138 net.cpp:386] inception_4e/relu_3x3 -> inception_4e/3x3 (in-place)
I0403 17:51:43.612280  6138 net.cpp:141] Setting up inception_4e/relu_3x3
I0403 17:51:43.612305  6138 net.cpp:148] Top shape: 24 320 14 14 (1505280)
I0403 17:51:43.612319  6138 net.cpp:156] Memory required for data: 1236129312
I0403 17:51:43.612334  6138 layer_factory.hpp:77] Creating layer inception_4e/5x5_reduce
I0403 17:51:43.612355  6138 net.cpp:91] Creating Layer inception_4e/5x5_reduce
I0403 17:51:43.612372  6138 net.cpp:425] inception_4e/5x5_reduce <- inception_4d/output_inception_4d/output_0_split_3
I0403 17:51:43.612392  6138 net.cpp:399] inception_4e/5x5_reduce -> inception_4e/5x5_reduce
I0403 17:51:43.613430  6138 net.cpp:141] Setting up inception_4e/5x5_reduce
I0403 17:51:43.613457  6138 net.cpp:148] Top shape: 24 32 14 14 (150528)
I0403 17:51:43.613471  6138 net.cpp:156] Memory required for data: 1236731424
I0403 17:51:43.613488  6138 layer_factory.hpp:77] Creating layer inception_4e/relu_5x5_reduce
I0403 17:51:43.613507  6138 net.cpp:91] Creating Layer inception_4e/relu_5x5_reduce
I0403 17:51:43.613524  6138 net.cpp:425] inception_4e/relu_5x5_reduce <- inception_4e/5x5_reduce
I0403 17:51:43.613540  6138 net.cpp:386] inception_4e/relu_5x5_reduce -> inception_4e/5x5_reduce (in-place)
I0403 17:51:43.613823  6138 net.cpp:141] Setting up inception_4e/relu_5x5_reduce
I0403 17:51:43.613848  6138 net.cpp:148] Top shape: 24 32 14 14 (150528)
I0403 17:51:43.613862  6138 net.cpp:156] Memory required for data: 1237333536
I0403 17:51:43.613876  6138 layer_factory.hpp:77] Creating layer inception_4e/5x5
I0403 17:51:43.613914  6138 net.cpp:91] Creating Layer inception_4e/5x5
I0403 17:51:43.613934  6138 net.cpp:425] inception_4e/5x5 <- inception_4e/5x5_reduce
I0403 17:51:43.613951  6138 net.cpp:399] inception_4e/5x5 -> inception_4e/5x5
I0403 17:51:43.615699  6138 net.cpp:141] Setting up inception_4e/5x5
I0403 17:51:43.615725  6138 net.cpp:148] Top shape: 24 128 14 14 (602112)
I0403 17:51:43.615739  6138 net.cpp:156] Memory required for data: 1239741984
I0403 17:51:43.615764  6138 layer_factory.hpp:77] Creating layer inception_4e/relu_5x5
I0403 17:51:43.615783  6138 net.cpp:91] Creating Layer inception_4e/relu_5x5
I0403 17:51:43.615799  6138 net.cpp:425] inception_4e/relu_5x5 <- inception_4e/5x5
I0403 17:51:43.615816  6138 net.cpp:386] inception_4e/relu_5x5 -> inception_4e/5x5 (in-place)
I0403 17:51:43.616001  6138 net.cpp:141] Setting up inception_4e/relu_5x5
I0403 17:51:43.616025  6138 net.cpp:148] Top shape: 24 128 14 14 (602112)
I0403 17:51:43.616039  6138 net.cpp:156] Memory required for data: 1242150432
I0403 17:51:43.616053  6138 layer_factory.hpp:77] Creating layer inception_4e/pool
I0403 17:51:43.616072  6138 net.cpp:91] Creating Layer inception_4e/pool
I0403 17:51:43.616089  6138 net.cpp:425] inception_4e/pool <- inception_4d/output_inception_4d/output_0_split_4
I0403 17:51:43.616106  6138 net.cpp:399] inception_4e/pool -> inception_4e/pool
I0403 17:51:43.616178  6138 net.cpp:141] Setting up inception_4e/pool
I0403 17:51:43.616199  6138 net.cpp:148] Top shape: 24 528 14 14 (2483712)
I0403 17:51:43.616219  6138 net.cpp:156] Memory required for data: 1252085280
I0403 17:51:43.616233  6138 layer_factory.hpp:77] Creating layer inception_4e/pool_proj
I0403 17:51:43.616255  6138 net.cpp:91] Creating Layer inception_4e/pool_proj
I0403 17:51:43.616271  6138 net.cpp:425] inception_4e/pool_proj <- inception_4e/pool
I0403 17:51:43.616291  6138 net.cpp:399] inception_4e/pool_proj -> inception_4e/pool_proj
I0403 17:51:43.617714  6138 net.cpp:141] Setting up inception_4e/pool_proj
I0403 17:51:43.617751  6138 net.cpp:148] Top shape: 24 128 14 14 (602112)
I0403 17:51:43.617766  6138 net.cpp:156] Memory required for data: 1254493728
I0403 17:51:43.617784  6138 layer_factory.hpp:77] Creating layer inception_4e/relu_pool_proj
I0403 17:51:43.617800  6138 net.cpp:91] Creating Layer inception_4e/relu_pool_proj
I0403 17:51:43.617816  6138 net.cpp:425] inception_4e/relu_pool_proj <- inception_4e/pool_proj
I0403 17:51:43.617835  6138 net.cpp:386] inception_4e/relu_pool_proj -> inception_4e/pool_proj (in-place)
I0403 17:51:43.618129  6138 net.cpp:141] Setting up inception_4e/relu_pool_proj
I0403 17:51:43.618155  6138 net.cpp:148] Top shape: 24 128 14 14 (602112)
I0403 17:51:43.618170  6138 net.cpp:156] Memory required for data: 1256902176
I0403 17:51:43.618183  6138 layer_factory.hpp:77] Creating layer inception_4e/output
I0403 17:51:43.618201  6138 net.cpp:91] Creating Layer inception_4e/output
I0403 17:51:43.618232  6138 net.cpp:425] inception_4e/output <- inception_4e/1x1
I0403 17:51:43.618248  6138 net.cpp:425] inception_4e/output <- inception_4e/3x3
I0403 17:51:43.618264  6138 net.cpp:425] inception_4e/output <- inception_4e/5x5
I0403 17:51:43.618278  6138 net.cpp:425] inception_4e/output <- inception_4e/pool_proj
I0403 17:51:43.618297  6138 net.cpp:399] inception_4e/output -> inception_4e/output
I0403 17:51:43.618343  6138 net.cpp:141] Setting up inception_4e/output
I0403 17:51:43.618368  6138 net.cpp:148] Top shape: 24 832 14 14 (3913728)
I0403 17:51:43.618382  6138 net.cpp:156] Memory required for data: 1272557088
I0403 17:51:43.618396  6138 layer_factory.hpp:77] Creating layer pool4/3x3_s2
I0403 17:51:43.618413  6138 net.cpp:91] Creating Layer pool4/3x3_s2
I0403 17:51:43.618428  6138 net.cpp:425] pool4/3x3_s2 <- inception_4e/output
I0403 17:51:43.618449  6138 net.cpp:399] pool4/3x3_s2 -> pool4/3x3_s2
I0403 17:51:43.618511  6138 net.cpp:141] Setting up pool4/3x3_s2
I0403 17:51:43.618535  6138 net.cpp:148] Top shape: 24 832 7 7 (978432)
I0403 17:51:43.618547  6138 net.cpp:156] Memory required for data: 1276470816
I0403 17:51:43.618561  6138 layer_factory.hpp:77] Creating layer pool4/3x3_s2_pool4/3x3_s2_0_split
I0403 17:51:43.618579  6138 net.cpp:91] Creating Layer pool4/3x3_s2_pool4/3x3_s2_0_split
I0403 17:51:43.618595  6138 net.cpp:425] pool4/3x3_s2_pool4/3x3_s2_0_split <- pool4/3x3_s2
I0403 17:51:43.618613  6138 net.cpp:399] pool4/3x3_s2_pool4/3x3_s2_0_split -> pool4/3x3_s2_pool4/3x3_s2_0_split_0
I0403 17:51:43.618630  6138 net.cpp:399] pool4/3x3_s2_pool4/3x3_s2_0_split -> pool4/3x3_s2_pool4/3x3_s2_0_split_1
I0403 17:51:43.618649  6138 net.cpp:399] pool4/3x3_s2_pool4/3x3_s2_0_split -> pool4/3x3_s2_pool4/3x3_s2_0_split_2
I0403 17:51:43.618667  6138 net.cpp:399] pool4/3x3_s2_pool4/3x3_s2_0_split -> pool4/3x3_s2_pool4/3x3_s2_0_split_3
I0403 17:51:43.618752  6138 net.cpp:141] Setting up pool4/3x3_s2_pool4/3x3_s2_0_split
I0403 17:51:43.618774  6138 net.cpp:148] Top shape: 24 832 7 7 (978432)
I0403 17:51:43.618790  6138 net.cpp:148] Top shape: 24 832 7 7 (978432)
I0403 17:51:43.618804  6138 net.cpp:148] Top shape: 24 832 7 7 (978432)
I0403 17:51:43.618819  6138 net.cpp:148] Top shape: 24 832 7 7 (978432)
I0403 17:51:43.618832  6138 net.cpp:156] Memory required for data: 1292125728
I0403 17:51:43.618846  6138 layer_factory.hpp:77] Creating layer inception_5a/1x1
I0403 17:51:43.618867  6138 net.cpp:91] Creating Layer inception_5a/1x1
I0403 17:51:43.618883  6138 net.cpp:425] inception_5a/1x1 <- pool4/3x3_s2_pool4/3x3_s2_0_split_0
I0403 17:51:43.618904  6138 net.cpp:399] inception_5a/1x1 -> inception_5a/1x1
I0403 17:51:43.621633  6138 net.cpp:141] Setting up inception_5a/1x1
I0403 17:51:43.621659  6138 net.cpp:148] Top shape: 24 256 7 7 (301056)
I0403 17:51:43.621675  6138 net.cpp:156] Memory required for data: 1293329952
I0403 17:51:43.621691  6138 layer_factory.hpp:77] Creating layer inception_5a/relu_1x1
I0403 17:51:43.621711  6138 net.cpp:91] Creating Layer inception_5a/relu_1x1
I0403 17:51:43.621726  6138 net.cpp:425] inception_5a/relu_1x1 <- inception_5a/1x1
I0403 17:51:43.621743  6138 net.cpp:386] inception_5a/relu_1x1 -> inception_5a/1x1 (in-place)
I0403 17:51:43.622045  6138 net.cpp:141] Setting up inception_5a/relu_1x1
I0403 17:51:43.622069  6138 net.cpp:148] Top shape: 24 256 7 7 (301056)
I0403 17:51:43.622083  6138 net.cpp:156] Memory required for data: 1294534176
I0403 17:51:43.622098  6138 layer_factory.hpp:77] Creating layer inception_5a/3x3_reduce
I0403 17:51:43.622119  6138 net.cpp:91] Creating Layer inception_5a/3x3_reduce
I0403 17:51:43.622136  6138 net.cpp:425] inception_5a/3x3_reduce <- pool4/3x3_s2_pool4/3x3_s2_0_split_1
I0403 17:51:43.622156  6138 net.cpp:399] inception_5a/3x3_reduce -> inception_5a/3x3_reduce
I0403 17:51:43.624505  6138 net.cpp:141] Setting up inception_5a/3x3_reduce
I0403 17:51:43.624533  6138 net.cpp:148] Top shape: 24 160 7 7 (188160)
I0403 17:51:43.624549  6138 net.cpp:156] Memory required for data: 1295286816
I0403 17:51:43.624567  6138 layer_factory.hpp:77] Creating layer inception_5a/relu_3x3_reduce
I0403 17:51:43.624584  6138 net.cpp:91] Creating Layer inception_5a/relu_3x3_reduce
I0403 17:51:43.624599  6138 net.cpp:425] inception_5a/relu_3x3_reduce <- inception_5a/3x3_reduce
I0403 17:51:43.624617  6138 net.cpp:386] inception_5a/relu_3x3_reduce -> inception_5a/3x3_reduce (in-place)
I0403 17:51:43.624796  6138 net.cpp:141] Setting up inception_5a/relu_3x3_reduce
I0403 17:51:43.624820  6138 net.cpp:148] Top shape: 24 160 7 7 (188160)
I0403 17:51:43.624835  6138 net.cpp:156] Memory required for data: 1296039456
I0403 17:51:43.624848  6138 layer_factory.hpp:77] Creating layer inception_5a/3x3
I0403 17:51:43.624869  6138 net.cpp:91] Creating Layer inception_5a/3x3
I0403 17:51:43.624886  6138 net.cpp:425] inception_5a/3x3 <- inception_5a/3x3_reduce
I0403 17:51:43.624907  6138 net.cpp:399] inception_5a/3x3 -> inception_5a/3x3
I0403 17:51:43.629688  6138 net.cpp:141] Setting up inception_5a/3x3
I0403 17:51:43.629716  6138 net.cpp:148] Top shape: 24 320 7 7 (376320)
I0403 17:51:43.629731  6138 net.cpp:156] Memory required for data: 1297544736
I0403 17:51:43.629748  6138 layer_factory.hpp:77] Creating layer inception_5a/relu_3x3
I0403 17:51:43.629766  6138 net.cpp:91] Creating Layer inception_5a/relu_3x3
I0403 17:51:43.629782  6138 net.cpp:425] inception_5a/relu_3x3 <- inception_5a/3x3
I0403 17:51:43.629799  6138 net.cpp:386] inception_5a/relu_3x3 -> inception_5a/3x3 (in-place)
I0403 17:51:43.630077  6138 net.cpp:141] Setting up inception_5a/relu_3x3
I0403 17:51:43.630101  6138 net.cpp:148] Top shape: 24 320 7 7 (376320)
I0403 17:51:43.630116  6138 net.cpp:156] Memory required for data: 1299050016
I0403 17:51:43.630131  6138 layer_factory.hpp:77] Creating layer inception_5a/5x5_reduce
I0403 17:51:43.630152  6138 net.cpp:91] Creating Layer inception_5a/5x5_reduce
I0403 17:51:43.630169  6138 net.cpp:425] inception_5a/5x5_reduce <- pool4/3x3_s2_pool4/3x3_s2_0_split_2
I0403 17:51:43.630190  6138 net.cpp:399] inception_5a/5x5_reduce -> inception_5a/5x5_reduce
I0403 17:51:43.631299  6138 net.cpp:141] Setting up inception_5a/5x5_reduce
I0403 17:51:43.631325  6138 net.cpp:148] Top shape: 24 32 7 7 (37632)
I0403 17:51:43.631340  6138 net.cpp:156] Memory required for data: 1299200544
I0403 17:51:43.631357  6138 layer_factory.hpp:77] Creating layer inception_5a/relu_5x5_reduce
I0403 17:51:43.631376  6138 net.cpp:91] Creating Layer inception_5a/relu_5x5_reduce
I0403 17:51:43.631392  6138 net.cpp:425] inception_5a/relu_5x5_reduce <- inception_5a/5x5_reduce
I0403 17:51:43.631409  6138 net.cpp:386] inception_5a/relu_5x5_reduce -> inception_5a/5x5_reduce (in-place)
I0403 17:51:43.631710  6138 net.cpp:141] Setting up inception_5a/relu_5x5_reduce
I0403 17:51:43.631734  6138 net.cpp:148] Top shape: 24 32 7 7 (37632)
I0403 17:51:43.631749  6138 net.cpp:156] Memory required for data: 1299351072
I0403 17:51:43.631773  6138 layer_factory.hpp:77] Creating layer inception_5a/5x5
I0403 17:51:43.631795  6138 net.cpp:91] Creating Layer inception_5a/5x5
I0403 17:51:43.631813  6138 net.cpp:425] inception_5a/5x5 <- inception_5a/5x5_reduce
I0403 17:51:43.631834  6138 net.cpp:399] inception_5a/5x5 -> inception_5a/5x5
I0403 17:51:43.633510  6138 net.cpp:141] Setting up inception_5a/5x5
I0403 17:51:43.633549  6138 net.cpp:148] Top shape: 24 128 7 7 (150528)
I0403 17:51:43.633565  6138 net.cpp:156] Memory required for data: 1299953184
I0403 17:51:43.633584  6138 layer_factory.hpp:77] Creating layer inception_5a/relu_5x5
I0403 17:51:43.633604  6138 net.cpp:91] Creating Layer inception_5a/relu_5x5
I0403 17:51:43.633620  6138 net.cpp:425] inception_5a/relu_5x5 <- inception_5a/5x5
I0403 17:51:43.633636  6138 net.cpp:386] inception_5a/relu_5x5 -> inception_5a/5x5 (in-place)
I0403 17:51:43.633826  6138 net.cpp:141] Setting up inception_5a/relu_5x5
I0403 17:51:43.633851  6138 net.cpp:148] Top shape: 24 128 7 7 (150528)
I0403 17:51:43.633865  6138 net.cpp:156] Memory required for data: 1300555296
I0403 17:51:43.633879  6138 layer_factory.hpp:77] Creating layer inception_5a/pool
I0403 17:51:43.633898  6138 net.cpp:91] Creating Layer inception_5a/pool
I0403 17:51:43.633914  6138 net.cpp:425] inception_5a/pool <- pool4/3x3_s2_pool4/3x3_s2_0_split_3
I0403 17:51:43.633932  6138 net.cpp:399] inception_5a/pool -> inception_5a/pool
I0403 17:51:43.634001  6138 net.cpp:141] Setting up inception_5a/pool
I0403 17:51:43.634023  6138 net.cpp:148] Top shape: 24 832 7 7 (978432)
I0403 17:51:43.634038  6138 net.cpp:156] Memory required for data: 1304469024
I0403 17:51:43.634052  6138 layer_factory.hpp:77] Creating layer inception_5a/pool_proj
I0403 17:51:43.634073  6138 net.cpp:91] Creating Layer inception_5a/pool_proj
I0403 17:51:43.634090  6138 net.cpp:425] inception_5a/pool_proj <- inception_5a/pool
I0403 17:51:43.634110  6138 net.cpp:399] inception_5a/pool_proj -> inception_5a/pool_proj
I0403 17:51:43.636406  6138 net.cpp:141] Setting up inception_5a/pool_proj
I0403 17:51:43.636436  6138 net.cpp:148] Top shape: 24 128 7 7 (150528)
I0403 17:51:43.636451  6138 net.cpp:156] Memory required for data: 1305071136
I0403 17:51:43.636469  6138 layer_factory.hpp:77] Creating layer inception_5a/relu_pool_proj
I0403 17:51:43.636487  6138 net.cpp:91] Creating Layer inception_5a/relu_pool_proj
I0403 17:51:43.636502  6138 net.cpp:425] inception_5a/relu_pool_proj <- inception_5a/pool_proj
I0403 17:51:43.636521  6138 net.cpp:386] inception_5a/relu_pool_proj -> inception_5a/pool_proj (in-place)
I0403 17:51:43.636814  6138 net.cpp:141] Setting up inception_5a/relu_pool_proj
I0403 17:51:43.636840  6138 net.cpp:148] Top shape: 24 128 7 7 (150528)
I0403 17:51:43.636855  6138 net.cpp:156] Memory required for data: 1305673248
I0403 17:51:43.636870  6138 layer_factory.hpp:77] Creating layer inception_5a/output
I0403 17:51:43.636886  6138 net.cpp:91] Creating Layer inception_5a/output
I0403 17:51:43.636903  6138 net.cpp:425] inception_5a/output <- inception_5a/1x1
I0403 17:51:43.636919  6138 net.cpp:425] inception_5a/output <- inception_5a/3x3
I0403 17:51:43.636934  6138 net.cpp:425] inception_5a/output <- inception_5a/5x5
I0403 17:51:43.636950  6138 net.cpp:425] inception_5a/output <- inception_5a/pool_proj
I0403 17:51:43.636970  6138 net.cpp:399] inception_5a/output -> inception_5a/output
I0403 17:51:43.637017  6138 net.cpp:141] Setting up inception_5a/output
I0403 17:51:43.637042  6138 net.cpp:148] Top shape: 24 832 7 7 (978432)
I0403 17:51:43.637056  6138 net.cpp:156] Memory required for data: 1309586976
I0403 17:51:43.637070  6138 layer_factory.hpp:77] Creating layer inception_5a/output_inception_5a/output_0_split
I0403 17:51:43.637086  6138 net.cpp:91] Creating Layer inception_5a/output_inception_5a/output_0_split
I0403 17:51:43.637101  6138 net.cpp:425] inception_5a/output_inception_5a/output_0_split <- inception_5a/output
I0403 17:51:43.637118  6138 net.cpp:399] inception_5a/output_inception_5a/output_0_split -> inception_5a/output_inception_5a/output_0_split_0
I0403 17:51:43.637137  6138 net.cpp:399] inception_5a/output_inception_5a/output_0_split -> inception_5a/output_inception_5a/output_0_split_1
I0403 17:51:43.637159  6138 net.cpp:399] inception_5a/output_inception_5a/output_0_split -> inception_5a/output_inception_5a/output_0_split_2
I0403 17:51:43.637181  6138 net.cpp:399] inception_5a/output_inception_5a/output_0_split -> inception_5a/output_inception_5a/output_0_split_3
I0403 17:51:43.637298  6138 net.cpp:141] Setting up inception_5a/output_inception_5a/output_0_split
I0403 17:51:43.637322  6138 net.cpp:148] Top shape: 24 832 7 7 (978432)
I0403 17:51:43.637337  6138 net.cpp:148] Top shape: 24 832 7 7 (978432)
I0403 17:51:43.637352  6138 net.cpp:148] Top shape: 24 832 7 7 (978432)
I0403 17:51:43.637367  6138 net.cpp:148] Top shape: 24 832 7 7 (978432)
I0403 17:51:43.637380  6138 net.cpp:156] Memory required for data: 1325241888
I0403 17:51:43.637394  6138 layer_factory.hpp:77] Creating layer inception_5b/1x1
I0403 17:51:43.637416  6138 net.cpp:91] Creating Layer inception_5b/1x1
I0403 17:51:43.637434  6138 net.cpp:425] inception_5b/1x1 <- inception_5a/output_inception_5a/output_0_split_0
I0403 17:51:43.637454  6138 net.cpp:399] inception_5b/1x1 -> inception_5b/1x1
I0403 17:51:43.641129  6138 net.cpp:141] Setting up inception_5b/1x1
I0403 17:51:43.641160  6138 net.cpp:148] Top shape: 24 384 7 7 (451584)
I0403 17:51:43.641175  6138 net.cpp:156] Memory required for data: 1327048224
I0403 17:51:43.641194  6138 layer_factory.hpp:77] Creating layer inception_5b/relu_1x1
I0403 17:51:43.641216  6138 net.cpp:91] Creating Layer inception_5b/relu_1x1
I0403 17:51:43.641232  6138 net.cpp:425] inception_5b/relu_1x1 <- inception_5b/1x1
I0403 17:51:43.641252  6138 net.cpp:386] inception_5b/relu_1x1 -> inception_5b/1x1 (in-place)
I0403 17:51:43.641546  6138 net.cpp:141] Setting up inception_5b/relu_1x1
I0403 17:51:43.641573  6138 net.cpp:148] Top shape: 24 384 7 7 (451584)
I0403 17:51:43.641589  6138 net.cpp:156] Memory required for data: 1328854560
I0403 17:51:43.641605  6138 layer_factory.hpp:77] Creating layer inception_5b/3x3_reduce
I0403 17:51:43.641626  6138 net.cpp:91] Creating Layer inception_5b/3x3_reduce
I0403 17:51:43.641644  6138 net.cpp:425] inception_5b/3x3_reduce <- inception_5a/output_inception_5a/output_0_split_1
I0403 17:51:43.641661  6138 net.cpp:399] inception_5b/3x3_reduce -> inception_5b/3x3_reduce
I0403 17:51:43.644284  6138 net.cpp:141] Setting up inception_5b/3x3_reduce
I0403 17:51:43.644315  6138 net.cpp:148] Top shape: 24 192 7 7 (225792)
I0403 17:51:43.644330  6138 net.cpp:156] Memory required for data: 1329757728
I0403 17:51:43.644348  6138 layer_factory.hpp:77] Creating layer inception_5b/relu_3x3_reduce
I0403 17:51:43.644366  6138 net.cpp:91] Creating Layer inception_5b/relu_3x3_reduce
I0403 17:51:43.644381  6138 net.cpp:425] inception_5b/relu_3x3_reduce <- inception_5b/3x3_reduce
I0403 17:51:43.644402  6138 net.cpp:386] inception_5b/relu_3x3_reduce -> inception_5b/3x3_reduce (in-place)
I0403 17:51:43.644599  6138 net.cpp:141] Setting up inception_5b/relu_3x3_reduce
I0403 17:51:43.644623  6138 net.cpp:148] Top shape: 24 192 7 7 (225792)
I0403 17:51:43.644639  6138 net.cpp:156] Memory required for data: 1330660896
I0403 17:51:43.644652  6138 layer_factory.hpp:77] Creating layer inception_5b/3x3
I0403 17:51:43.644673  6138 net.cpp:91] Creating Layer inception_5b/3x3
I0403 17:51:43.644691  6138 net.cpp:425] inception_5b/3x3 <- inception_5b/3x3_reduce
I0403 17:51:43.644711  6138 net.cpp:399] inception_5b/3x3 -> inception_5b/3x3
I0403 17:51:43.651358  6138 net.cpp:141] Setting up inception_5b/3x3
I0403 17:51:43.651386  6138 net.cpp:148] Top shape: 24 384 7 7 (451584)
I0403 17:51:43.651401  6138 net.cpp:156] Memory required for data: 1332467232
I0403 17:51:43.651417  6138 layer_factory.hpp:77] Creating layer inception_5b/relu_3x3
I0403 17:51:43.651435  6138 net.cpp:91] Creating Layer inception_5b/relu_3x3
I0403 17:51:43.651450  6138 net.cpp:425] inception_5b/relu_3x3 <- inception_5b/3x3
I0403 17:51:43.651478  6138 net.cpp:386] inception_5b/relu_3x3 -> inception_5b/3x3 (in-place)
I0403 17:51:43.651769  6138 net.cpp:141] Setting up inception_5b/relu_3x3
I0403 17:51:43.651794  6138 net.cpp:148] Top shape: 24 384 7 7 (451584)
I0403 17:51:43.651808  6138 net.cpp:156] Memory required for data: 1334273568
I0403 17:51:43.651823  6138 layer_factory.hpp:77] Creating layer inception_5b/5x5_reduce
I0403 17:51:43.651859  6138 net.cpp:91] Creating Layer inception_5b/5x5_reduce
I0403 17:51:43.651877  6138 net.cpp:425] inception_5b/5x5_reduce <- inception_5a/output_inception_5a/output_0_split_2
I0403 17:51:43.651898  6138 net.cpp:399] inception_5b/5x5_reduce -> inception_5b/5x5_reduce
I0403 17:51:43.653115  6138 net.cpp:141] Setting up inception_5b/5x5_reduce
I0403 17:51:43.653141  6138 net.cpp:148] Top shape: 24 48 7 7 (56448)
I0403 17:51:43.653156  6138 net.cpp:156] Memory required for data: 1334499360
I0403 17:51:43.653173  6138 layer_factory.hpp:77] Creating layer inception_5b/relu_5x5_reduce
I0403 17:51:43.653190  6138 net.cpp:91] Creating Layer inception_5b/relu_5x5_reduce
I0403 17:51:43.653206  6138 net.cpp:425] inception_5b/relu_5x5_reduce <- inception_5b/5x5_reduce
I0403 17:51:43.653236  6138 net.cpp:386] inception_5b/relu_5x5_reduce -> inception_5b/5x5_reduce (in-place)
I0403 17:51:43.653599  6138 net.cpp:141] Setting up inception_5b/relu_5x5_reduce
I0403 17:51:43.653623  6138 net.cpp:148] Top shape: 24 48 7 7 (56448)
I0403 17:51:43.653637  6138 net.cpp:156] Memory required for data: 1334725152
I0403 17:51:43.653651  6138 layer_factory.hpp:77] Creating layer inception_5b/5x5
I0403 17:51:43.653671  6138 net.cpp:91] Creating Layer inception_5b/5x5
I0403 17:51:43.653687  6138 net.cpp:425] inception_5b/5x5 <- inception_5b/5x5_reduce
I0403 17:51:43.653704  6138 net.cpp:399] inception_5b/5x5 -> inception_5b/5x5
I0403 17:51:43.655663  6138 net.cpp:141] Setting up inception_5b/5x5
I0403 17:51:43.655689  6138 net.cpp:148] Top shape: 24 128 7 7 (150528)
I0403 17:51:43.655704  6138 net.cpp:156] Memory required for data: 1335327264
I0403 17:51:43.655722  6138 layer_factory.hpp:77] Creating layer inception_5b/relu_5x5
I0403 17:51:43.655741  6138 net.cpp:91] Creating Layer inception_5b/relu_5x5
I0403 17:51:43.655766  6138 net.cpp:425] inception_5b/relu_5x5 <- inception_5b/5x5
I0403 17:51:43.655782  6138 net.cpp:386] inception_5b/relu_5x5 -> inception_5b/5x5 (in-place)
I0403 17:51:43.655969  6138 net.cpp:141] Setting up inception_5b/relu_5x5
I0403 17:51:43.655995  6138 net.cpp:148] Top shape: 24 128 7 7 (150528)
I0403 17:51:43.656010  6138 net.cpp:156] Memory required for data: 1335929376
I0403 17:51:43.656024  6138 layer_factory.hpp:77] Creating layer inception_5b/pool
I0403 17:51:43.656041  6138 net.cpp:91] Creating Layer inception_5b/pool
I0403 17:51:43.656057  6138 net.cpp:425] inception_5b/pool <- inception_5a/output_inception_5a/output_0_split_3
I0403 17:51:43.656075  6138 net.cpp:399] inception_5b/pool -> inception_5b/pool
I0403 17:51:43.656143  6138 net.cpp:141] Setting up inception_5b/pool
I0403 17:51:43.656167  6138 net.cpp:148] Top shape: 24 832 7 7 (978432)
I0403 17:51:43.656180  6138 net.cpp:156] Memory required for data: 1339843104
I0403 17:51:43.656194  6138 layer_factory.hpp:77] Creating layer inception_5b/pool_proj
I0403 17:51:43.656219  6138 net.cpp:91] Creating Layer inception_5b/pool_proj
I0403 17:51:43.656237  6138 net.cpp:425] inception_5b/pool_proj <- inception_5b/pool
I0403 17:51:43.656257  6138 net.cpp:399] inception_5b/pool_proj -> inception_5b/pool_proj
I0403 17:51:43.658468  6138 net.cpp:141] Setting up inception_5b/pool_proj
I0403 17:51:43.658494  6138 net.cpp:148] Top shape: 24 128 7 7 (150528)
I0403 17:51:43.658509  6138 net.cpp:156] Memory required for data: 1340445216
I0403 17:51:43.658526  6138 layer_factory.hpp:77] Creating layer inception_5b/relu_pool_proj
I0403 17:51:43.658545  6138 net.cpp:91] Creating Layer inception_5b/relu_pool_proj
I0403 17:51:43.658561  6138 net.cpp:425] inception_5b/relu_pool_proj <- inception_5b/pool_proj
I0403 17:51:43.658578  6138 net.cpp:386] inception_5b/relu_pool_proj -> inception_5b/pool_proj (in-place)
I0403 17:51:43.658862  6138 net.cpp:141] Setting up inception_5b/relu_pool_proj
I0403 17:51:43.658887  6138 net.cpp:148] Top shape: 24 128 7 7 (150528)
I0403 17:51:43.658902  6138 net.cpp:156] Memory required for data: 1341047328
I0403 17:51:43.658916  6138 layer_factory.hpp:77] Creating layer inception_5b/output
I0403 17:51:43.658932  6138 net.cpp:91] Creating Layer inception_5b/output
I0403 17:51:43.658962  6138 net.cpp:425] inception_5b/output <- inception_5b/1x1
I0403 17:51:43.658979  6138 net.cpp:425] inception_5b/output <- inception_5b/3x3
I0403 17:51:43.658995  6138 net.cpp:425] inception_5b/output <- inception_5b/5x5
I0403 17:51:43.659010  6138 net.cpp:425] inception_5b/output <- inception_5b/pool_proj
I0403 17:51:43.659029  6138 net.cpp:399] inception_5b/output -> inception_5b/output
I0403 17:51:43.659077  6138 net.cpp:141] Setting up inception_5b/output
I0403 17:51:43.659101  6138 net.cpp:148] Top shape: 24 1024 7 7 (1204224)
I0403 17:51:43.659116  6138 net.cpp:156] Memory required for data: 1345864224
I0403 17:51:43.659131  6138 layer_factory.hpp:77] Creating layer pool5/7x7_s1
I0403 17:51:43.659147  6138 net.cpp:91] Creating Layer pool5/7x7_s1
I0403 17:51:43.659162  6138 net.cpp:425] pool5/7x7_s1 <- inception_5b/output
I0403 17:51:43.659181  6138 net.cpp:399] pool5/7x7_s1 -> pool5/7x7_s1
I0403 17:51:43.659394  6138 net.cpp:141] Setting up pool5/7x7_s1
I0403 17:51:43.659417  6138 net.cpp:148] Top shape: 24 1024 1 1 (24576)
I0403 17:51:43.659433  6138 net.cpp:156] Memory required for data: 1345962528
I0403 17:51:43.659447  6138 layer_factory.hpp:77] Creating layer pool5/drop_7x7_s1
I0403 17:51:43.659464  6138 net.cpp:91] Creating Layer pool5/drop_7x7_s1
I0403 17:51:43.659492  6138 net.cpp:425] pool5/drop_7x7_s1 <- pool5/7x7_s1
I0403 17:51:43.659508  6138 net.cpp:386] pool5/drop_7x7_s1 -> pool5/7x7_s1 (in-place)
I0403 17:51:43.659555  6138 net.cpp:141] Setting up pool5/drop_7x7_s1
I0403 17:51:43.659579  6138 net.cpp:148] Top shape: 24 1024 1 1 (24576)
I0403 17:51:43.659593  6138 net.cpp:156] Memory required for data: 1346060832
I0403 17:51:43.659606  6138 layer_factory.hpp:77] Creating layer loss3/classifier_plantvillage
I0403 17:51:43.659626  6138 net.cpp:91] Creating Layer loss3/classifier_plantvillage
I0403 17:51:43.659641  6138 net.cpp:425] loss3/classifier_plantvillage <- pool5/7x7_s1
I0403 17:51:43.659660  6138 net.cpp:399] loss3/classifier_plantvillage -> loss3/classifier_plantvillage
I0403 17:51:43.660063  6138 net.cpp:141] Setting up loss3/classifier_plantvillage
I0403 17:51:43.660089  6138 net.cpp:148] Top shape: 24 38 (912)
I0403 17:51:43.660102  6138 net.cpp:156] Memory required for data: 1346064480
I0403 17:51:43.660118  6138 layer_factory.hpp:77] Creating layer loss3/classifier_plantvillage_loss3/classifier_plantvillage_0_split
I0403 17:51:43.660135  6138 net.cpp:91] Creating Layer loss3/classifier_plantvillage_loss3/classifier_plantvillage_0_split
I0403 17:51:43.660151  6138 net.cpp:425] loss3/classifier_plantvillage_loss3/classifier_plantvillage_0_split <- loss3/classifier_plantvillage
I0403 17:51:43.660167  6138 net.cpp:399] loss3/classifier_plantvillage_loss3/classifier_plantvillage_0_split -> loss3/classifier_plantvillage_loss3/classifier_plantvillage_0_split_0
I0403 17:51:43.660189  6138 net.cpp:399] loss3/classifier_plantvillage_loss3/classifier_plantvillage_0_split -> loss3/classifier_plantvillage_loss3/classifier_plantvillage_0_split_1
I0403 17:51:43.660213  6138 net.cpp:399] loss3/classifier_plantvillage_loss3/classifier_plantvillage_0_split -> loss3/classifier_plantvillage_loss3/classifier_plantvillage_0_split_2
I0403 17:51:43.660233  6138 net.cpp:399] loss3/classifier_plantvillage_loss3/classifier_plantvillage_0_split -> loss3/classifier_plantvillage_loss3/classifier_plantvillage_0_split_3
I0403 17:51:43.660331  6138 net.cpp:141] Setting up loss3/classifier_plantvillage_loss3/classifier_plantvillage_0_split
I0403 17:51:43.660351  6138 net.cpp:148] Top shape: 24 38 (912)
I0403 17:51:43.660367  6138 net.cpp:148] Top shape: 24 38 (912)
I0403 17:51:43.660382  6138 net.cpp:148] Top shape: 24 38 (912)
I0403 17:51:43.660397  6138 net.cpp:148] Top shape: 24 38 (912)
I0403 17:51:43.660409  6138 net.cpp:156] Memory required for data: 1346079072
I0403 17:51:43.660423  6138 layer_factory.hpp:77] Creating layer loss1/loss
I0403 17:51:43.660447  6138 net.cpp:91] Creating Layer loss1/loss
I0403 17:51:43.660464  6138 net.cpp:425] loss1/loss <- loss1/classifier_plantvillage_loss1/classifier_plantvillage_0_split_0
I0403 17:51:43.660492  6138 net.cpp:425] loss1/loss <- label_data_1_split_0
…
