…
I0403 18:00:29.053017  6465 net.cpp:313] The NetState phase (1) differed from the phase (0) specified by a rule in layer data
I0403 18:00:29.054250  6465 net.cpp:49] Initializing net from parameters: 
state {
  phase: TEST
}
layer {
  name: "data"
  type: "Data"
  top: "data"
  top: "label"
  include {
    phase: TEST
  }
  transform_param {
    mirror: false
    crop_size: 224
    mean_file: "/home/mohanty/data/final_dataset/lmdb/segmented-50-50/mean.binaryproto"
  }
  data_param {
    source: "/home/mohanty/data/final_dataset/lmdb/segmented-50-50/test_db"
    batch_size: 24
    backend: LMDB
  }
}
layer {
  name: "conv1/7x7_s2"
  type: "Convolution"
  bottom: "data"
  top: "conv1/7x7_s2"
  param {
    lr_mult: 1
    decay_mult: 1
  }
  param {
    lr_mult: 2
    decay_mult: 0
  }
  convolution_param {
    num_output: 64
    pad: 3
    kernel_size: 7
    stride: 2
    weight_filler {
      type: "xavier"
      std: 0.1
    }
    bias_filler {
      type: "constant"
      value: 0.2
    }
  }
}
layer {
  name: "conv1/relu_7x7"
  type: "ReLU"
  bottom: "conv1/7x7_s2"
  top: "conv1/7x7_s2"
}
layer {
  name: "pool1/3x3_s2"
  type: "Pooling"
  bottom: "conv1/7x7_s2"
  top: "pool1/3x3_s2"
  pooling_param {
    pool: MAX
    kernel_size: 3
    stride: 2
  }
}
layer {
  name: "pool1/norm1"
  type: "LRN"
  bottom: "pool1/3x3_s2"
  top: "pool1/norm1"
  lrn_param {
    local_size: 5
    alpha: 0.0001
    beta: 0.75
  }
}
layer {
  name: "conv2/3x3_reduce"
  type: "Convolution"
  bottom: "pool1/norm1"
  top: "conv2/3x3_reduce"
  param {
    lr_mult: 1
    decay_mult: 1
  }
  param {
    lr_mult: 2
    decay_mult: 0
  }
  convolution_param {
    num_output: 64
    kernel_size: 1
    weight_filler {
      type: "xavier"
      std: 0.1
    }
    bias_filler {
      type: "constant"
      value: 0.2
    }
  }
}
layer {
  name: "conv2/relu_3x3_reduce"
  type: "ReLU"
  bottom: "conv2/3x3_reduce"
  top: "conv2/3x3_reduce"
}
layer {
  name: "conv2/3x3"
  type: "Convolution"
  bottom: "conv2/3x3_reduce"
  top: "conv2/3x3"
  param {
    lr_mult: 1
    decay_mult: 1
  }
  param {
    lr_mult: 2
    decay_mult: 0
  }
  convolution_param {
    num_output: 192
    pad: 1
    kernel_size: 3
    weight_filler {
      type: "xavier"
      std: 0.03
    }
    bias_filler {
      type: "constant"
      value: 0.2
    }
  }
}
layer {
  name: "conv2/relu_3x3"
  type: "ReLU"
  bottom: "conv2/3x3"
  top: "conv2/3x3"
}
layer {
  name: "conv2/norm2"
  type: "LRN"
  bottom: "conv2/3x3"
  top: "conv2/norm2"
  lrn_param {
    local_size: 5
    alpha: 0.0001
    beta: 0.75
  }
}
layer {
  name: "pool2/3x3_s2"
  type: "Pooling"
  bottom: "conv2/norm2"
  top: "pool2/3x3_s2"
  pooling_param {
    pool: MAX
    kernel_size: 3
    stride: 2
  }
}
layer {
  name: "inception_3a/1x1"
  type: "Convolution"
  bottom: "pool2/3x3_s2"
  top: "inception_3a/1x1"
  param {
    lr_mult: 1
    decay_mult: 1
  }
  param {
    lr_mult: 2
    decay_mult: 0
  }
  convolution_param {
    num_output: 64
    kernel_size: 1
    weight_filler {
      type: "xavier"
      std: 0.03
    }
    bias_filler {
      type: "constant"
      value: 0.2
    }
  }
}
layer {
  name: "inception_3a/relu_1x1"
  type: "ReLU"
  bottom: "inception_3a/1x1"
  top: "inception_3a/1x1"
}
layer {
  name: "inception_3a/3x3_reduce"
  type: "Convolution"
  bottom: "pool2/3x3_s2"
  top: "inception_3a/3x3_reduce"
  param {
    lr_mult: 1
    decay_mult: 1
  }
  param {
    lr_mult: 2
    decay_mult: 0
  }
  convolution_param {
    num_output: 96
    kernel_size: 1
    weight_filler {
      type: "xavier"
      std: 0.09
    }
    bias_filler {
      type: "constant"
      value: 0.2
    }
  }
}
layer {
  name: "inception_3a/relu_3x3_reduce"
  type: "ReLU"
  bottom: "inception_3a/3x3_reduce"
  top: "inception_3a/3x3_reduce"
}
layer {
  name: "inception_3a/3x3"
  type: "Convolution"
  bottom: "inception_3a/3x3_reduce"
  top: "inception_3a/3x3"
  param {
    lr_mult: 1
    decay_mult: 1
  }
  param {
    lr_mult: 2
    decay_mult: 0
  }
  convolution_param {
    num_output: 128
    pad: 1
    kernel_size: 3
    weight_filler {
      type: "xavier"
      std: 0.03
    }
    bias_filler {
      type: "constant"
      value: 0.2
    }
  }
}
layer {
  name: "inception_3a/relu_3x3"
  type: "ReLU"
  bottom: "inception_3a/3x3"
  top: "inception_3a/3x3"
}
layer {
  name: "inception_3a/5x5_reduce"
  type: "Convolution"
  bottom: "pool2/3x3_s2"
  top: "inception_3a/5x5_reduce"
  param {
    lr_mult: 1
    decay_mult: 1
  }
  param {
    lr_mult: 2
    decay_mult: 0
  }
  convolution_param {
    num_output: 16
    kernel_size: 1
    weight_filler {
      type: "xavier"
      std: 0.2
    }
    bias_filler {
      type: "constant"
      value: 0.2
    }
  }
}
layer {
  name: "inception_3a/relu_5x5_reduce"
  type: "ReLU"
  bottom: "inception_3a/5x5_reduce"
  top: "inception_3a/5x5_reduce"
}
layer {
  name: "inception_3a/5x5"
  type: "Convolution"
  bottom: "inception_3a/5x5_reduce"
  top: "inception_3a/5x5"
  param {
    lr_mult: 1
    decay_mult: 1
  }
  param {
    lr_mult: 2
    decay_mult: 0
  }
  convolution_param {
    num_output: 32
    pad: 2
    kernel_size: 5
    weight_filler {
      type: "xavier"
      std: 0.03
    }
    bias_filler {
      type: "constant"
      value: 0.2
    }
  }
}
layer {
  name: "inception_3a/relu_5x5"
  type: "ReLU"
  bottom: "inception_3a/5x5"
  top: "inception_3a/5x5"
}
layer {
  name: "inception_3a/pool"
  type: "Pooling"
  bottom: "pool2/3x3_s2"
  top: "inception_3a/pool"
  pooling_param {
    pool: MAX
    kernel_size: 3
    stride: 1
    pad: 1
  }
}
layer {
  name: "inception_3a/pool_proj"
  type: "Convolution"
  bottom: "inception_3a/pool"
  top: "inception_3a/pool_proj"
  param {
    lr_mult: 1
    decay_mult: 1
  }
  param {
    lr_mult: 2
    decay_mult: 0
  }
  convolution_param {
    num_output: 32
    kernel_size: 1
    weight_filler {
      type: "xavier"
      std: 0.1
    }
    bias_filler {
      type: "constant"
      value: 0.2
    }
  }
}
layer {
  name: "inception_3a/relu_pool_proj"
  type: "ReLU"
  bottom: "inception_3a/pool_proj"
  top: "inception_3a/pool_proj"
}
layer {
  name: "inception_3a/output"
  type: "Concat"
  bottom: "inception_3a/1x1"
  bottom: "inception_3a/3x3"
  bottom: "inception_3a/5x5"
  bottom: "inception_3a/pool_proj"
  top: "inception_3a/output"
}
layer {
  name: "inception_3b/1x1"
  type: "Convolution"
  bottom: "inception_3a/output"
  top: "inception_3b/1x1"
  param {
    lr_mult: 1
    decay_mult: 1
  }
  param {
    lr_mult: 2
    decay_mult: 0
  }
  convolution_param {
    num_output: 128
    kernel_size: 1
    weight_filler {
      type: "xavier"
      std: 0.03
    }
    bias_filler {
      type: "constant"
      value: 0.2
    }
  }
}
layer {
  name: "inception_3b/relu_1x1"
  type: "ReLU"
  bottom: "inception_3b/1x1"
  top: "inception_3b/1x1"
}
layer {
  name: "inception_3b/3x3_reduce"
  type: "Convolution"
  bottom: "inception_3a/output"
  top: "inception_3b/3x3_reduce"
  param {
    lr_mult: 1
    decay_mult: 1
  }
  param {
    lr_mult: 2
    decay_mult: 0
  }
  convolution_param {
    num_output: 128
    kernel_size: 1
    weight_filler {
      type: "xavier"
      std: 0.09
    }
    bias_filler {
      type: "constant"
      value: 0.2
    }
  }
}
layer {
  name: "inception_3b/relu_3x3_reduce"
  type: "ReLU"
  bottom: "inception_3b/3x3_reduce"
  top: "inception_3b/3x3_reduce"
}
layer {
  name: "inception_3b/3x3"
  type: "Convolution"
  bottom: "inception_3b/3x3_reduce"
  top: "inception_3b/3x3"
  param {
    lr_mult: 1
    decay_mult: 1
  }
  param {
    lr_mult: 2
    decay_mult: 0
  }
  convolution_param {
    num_output: 192
    pad: 1
    kernel_size: 3
    weight_filler {
      type: "xavier"
      std: 0.03
    }
    bias_filler {
      type: "constant"
      value: 0.2
    }
  }
}
layer {
  name: "inception_3b/relu_3x3"
  type: "ReLU"
  bottom: "inception_3b/3x3"
  top: "inception_3b/3x3"
}
layer {
  name: "inception_3b/5x5_reduce"
  type: "Convolution"
  bottom: "inception_3a/output"
  top: "inception_3b/5x5_reduce"
  param {
    lr_mult: 1
    decay_mult: 1
  }
  param {
    lr_mult: 2
    decay_mult: 0
  }
  convolution_param {
    num_output: 32
    kernel_size: 1
    weight_filler {
      type: "xavier"
      std: 0.2
    }
    bias_filler {
      type: "constant"
      value: 0.2
    }
  }
}
layer {
  name: "inception_3b/relu_5x5_reduce"
  type: "ReLU"
  bottom: "inception_3b/5x5_reduce"
  top: "inception_3b/5x5_reduce"
}
layer {
  name: "inception_3b/5x5"
  type: "Convolution"
  bottom: "inception_3b/5x5_reduce"
  top: "inception_3b/5x5"
  param {
    lr_mult: 1
    decay_mult: 1
  }
  param {
    lr_mult: 2
    decay_mult: 0
  }
  convolution_param {
    num_output: 96
    pad: 2
    kernel_size: 5
    weight_filler {
      type: "xavier"
      std: 0.03
    }
    bias_filler {
      type: "constant"
      value: 0.2
    }
  }
}
layer {
  name: "inception_3b/relu_5x5"
  type: "ReLU"
  bottom: "inception_3b/5x5"
  top: "inception_3b/5x5"
}
layer {
  name: "inception_3b/pool"
  type: "Pooling"
  bottom: "inception_3a/output"
  top: "inception_3b/pool"
  pooling_param {
    pool: MAX
    kernel_size: 3
    stride: 1
    pad: 1
  }
}
layer {
  name: "inception_3b/pool_proj"
  type: "Convolution"
  bottom: "inception_3b/pool"
  top: "inception_3b/pool_proj"
  param {
    lr_mult: 1
    decay_mult: 1
  }
  param {
    lr_mult: 2
    decay_mult: 0
  }
  convolution_param {
    num_output: 64
    kernel_size: 1
    weight_filler {
      type: "xavier"
      std: 0.1
    }
    bias_filler {
      type: "constant"
      value: 0.2
    }
  }
}
layer {
  name: "inception_3b/relu_pool_proj"
  type: "ReLU"
  bottom: "inception_3b/pool_proj"
  top: "inception_3b/pool_proj"
}
layer {
  name: "inception_3b/output"
  type: "Concat"
  bottom: "inception_3b/1x1"
  bottom: "inception_3b/3x3"
  bottom: "inception_3b/5x5"
  bottom: "inception_3b/pool_proj"
  top: "inception_3b/output"
}
layer {
  name: "pool3/3x3_s2"
  type: "Pooling"
  bottom: "inception_3b/output"
  top: "pool3/3x3_s2"
  pooling_param {
    pool: MAX
    kernel_size: 3
    stride: 2
  }
}
layer {
  name: "inception_4a/1x1"
  type: "Convolution"
  bottom: "pool3/3x3_s2"
  top: "inception_4a/1x1"
  param {
    lr_mult: 1
    decay_mult: 1
  }
  param {
    lr_mult: 2
    decay_mult: 0
  }
  convolution_param {
    num_output: 192
    kernel_size: 1
    weight_filler {
      type: "xavier"
      std: 0.03
    }
    bias_filler {
      type: "constant"
      value: 0.2
    }
  }
}
layer {
  name: "inception_4a/relu_1x1"
  type: "ReLU"
  bottom: "inception_4a/1x1"
  top: "inception_4a/1x1"
}
layer {
  name: "inception_4a/3x3_reduce"
  type: "Convolution"
  bottom: "pool3/3x3_s2"
  top: "inception_4a/3x3_reduce"
  param {
    lr_mult: 1
    decay_mult: 1
  }
  param {
    lr_mult: 2
    decay_mult: 0
  }
  convolution_param {
    num_output: 96
    kernel_size: 1
    weight_filler {
      type: "xavier"
      std: 0.09
    }
    bias_filler {
      type: "constant"
      value: 0.2
    }
  }
}
layer {
  name: "inception_4a/relu_3x3_reduce"
  type: "ReLU"
  bottom: "inception_4a/3x3_reduce"
  top: "inception_4a/3x3_reduce"
}
layer {
  name: "inception_4a/3x3"
  type: "Convolution"
  bottom: "inception_4a/3x3_reduce"
  top: "inception_4a/3x3"
  param {
    lr_mult: 1
    decay_mult: 1
  }
  param {
    lr_mult: 2
    decay_mult: 0
  }
  convolution_param {
    num_output: 208
    pad: 1
    kernel_size: 3
    weight_filler {
      type: "xavier"
      std: 0.03
    }
    bias_filler {
      type: "constant"
      value: 0.2
    }
  }
}
layer {
  name: "inception_4a/relu_3x3"
  type: "ReLU"
  bottom: "inception_4a/3x3"
  top: "inception_4a/3x3"
}
layer {
  name: "inception_4a/5x5_reduce"
  type: "Convolution"
  bottom: "pool3/3x3_s2"
  top: "inception_4a/5x5_reduce"
  param {
    lr_mult: 1
    decay_mult: 1
  }
  param {
    lr_mult: 2
    decay_mult: 0
  }
  convolution_param {
    num_output: 16
    kernel_size: 1
    weight_filler {
      type: "xavier"
      std: 0.2
    }
    bias_filler {
      type: "constant"
      value: 0.2
    }
  }
}
layer {
  name: "inception_4a/relu_5x5_reduce"
  type: "ReLU"
  bottom: "inception_4a/5x5_reduce"
  top: "inception_4a/5x5_reduce"
}
layer {
  name: "inception_4a/5x5"
  type: "Convolution"
  bottom: "inception_4a/5x5_reduce"
  top: "inception_4a/5x5"
  param {
    lr_mult: 1
    decay_mult: 1
  }
  param {
    lr_mult: 2
    decay_mult: 0
  }
  convolution_param {
    num_output: 48
    pad: 2
    kernel_size: 5
    weight_filler {
      type: "xavier"
      std: 0.03
    }
    bias_filler {
      type: "constant"
      value: 0.2
    }
  }
}
layer {
  name: "inception_4a/relu_5x5"
  type: "ReLU"
  bottom: "inception_4a/5x5"
  top: "inception_4a/5x5"
}
layer {
  name: "inception_4a/pool"
  type: "Pooling"
  bottom: "pool3/3x3_s2"
  top: "inception_4a/pool"
  pooling_param {
    pool: MAX
    kernel_size: 3
    stride: 1
    pad: 1
  }
}
layer {
  name: "inception_4a/pool_proj"
  type: "Convolution"
  bottom: "inception_4a/pool"
  top: "inception_4a/pool_proj"
  param {
    lr_mult: 1
    decay_mult: 1
  }
  param {
    lr_mult: 2
    decay_mult: 0
  }
  convolution_param {
    num_output: 64
    kernel_size: 1
    weight_filler {
      type: "xavier"
      std: 0.1
    }
    bias_filler {
      type: "constant"
      value: 0.2
    }
  }
}
layer {
  name: "inception_4a/relu_pool_proj"
  type: "ReLU"
  bottom: "inception_4a/pool_proj"
  top: "inception_4a/pool_proj"
}
layer {
  name: "inception_4a/output"
  type: "Concat"
  bottom: "inception_4a/1x1"
  bottom: "inception_4a/3x3"
  bottom: "inception_4a/5x5"
  bottom: "inception_4a/pool_proj"
  top: "inception_4a/output"
}
layer {
  name: "loss1/ave_pool"
  type: "Pooling"
  bottom: "inception_4a/output"
  top: "loss1/ave_pool"
  pooling_param {
    pool: AVE
    kernel_size: 5
    stride: 3
  }
}
layer {
  name: "loss1/conv"
  type: "Convolution"
  bottom: "loss1/ave_pool"
  top: "loss1/conv"
  param {
    lr_mult: 1
    decay_mult: 1
  }
  param {
    lr_mult: 2
    decay_mult: 0
  }
  convolution_param {
    num_output: 128
    kernel_size: 1
    weight_filler {
      type: "xavier"
      std: 0.08
    }
    bias_filler {
      type: "constant"
      value: 0.2
    }
  }
}
layer {
  name: "loss1/relu_conv"
  type: "ReLU"
  bottom: "loss1/conv"
  top: "loss1/conv"
}
layer {
  name: "loss1/fc"
  type: "InnerProduct"
  bottom: "loss1/conv"
  top: "loss1/fc"
  param {
    lr_mult: 1
    decay_mult: 1
  }
  param {
    lr_mult: 2
    decay_mult: 0
  }
  inner_product_param {
    num_output: 1024
    weight_filler {
      type: "xavier"
      std: 0.02
    }
    bias_filler {
      type: "constant"
      value: 0.2
    }
  }
}
layer {
  name: "loss1/relu_fc"
  type: "ReLU"
  bottom: "loss1/fc"
  top: "loss1/fc"
}
layer {
  name: "loss1/drop_fc"
  type: "Dropout"
  bottom: "loss1/fc"
  top: "loss1/fc"
  dropout_param {
    dropout_ratio: 0.7
  }
}
layer {
  name: "loss1/classifier_plantvillage"
  type: "InnerProduct"
  bottom: "loss1/fc"
  top: "loss1/classifier_plantvillage"
  param {
    lr_mult: 1
    decay_mult: 1
  }
  param {
    lr_mult: 2
    decay_mult: 0
  }
  inner_product_param {
    num_output: 38
    weight_filler {
      type: "xavier"
      std: 0.0009765625
    }
    bias_filler {
      type: "constant"
      value: 0
    }
  }
}
layer {
  name: "inception_4b/1x1"
  type: "Convolution"
  bottom: "inception_4a/output"
  top: "inception_4b/1x1"
  param {
    lr_mult: 1
    decay_mult: 1
  }
  param {
    lr_mult: 2
    decay_mult: 0
  }
  convolution_param {
    num_output: 160
    kernel_size: 1
    weight_filler {
      type: "xavier"
      std: 0.03
    }
    bias_filler {
      type: "constant"
      value: 0.2
    }
  }
}
layer {
  name: "inception_4b/relu_1x1"
  type: "ReLU"
  bottom: "inception_4b/1x1"
  top: "inception_4b/1x1"
}
layer {
  name: "inception_4b/3x3_reduce"
  type: "Convolution"
  bottom: "inception_4a/output"
  top: "inception_4b/3x3_reduce"
  param {
    lr_mult: 1
    decay_mult: 1
  }
  param {
    lr_mult: 2
    decay_mult: 0
  }
  convolution_param {
    num_output: 112
    kernel_size: 1
    weight_filler {
      type: "xavier"
      std: 0.09
    }
    bias_filler {
      type: "constant"
      value: 0.2
    }
  }
}
layer {
  name: "inception_4b/relu_3x3_reduce"
  type: "ReLU"
  bottom: "inception_4b/3x3_reduce"
  top: "inception_4b/3x3_reduce"
}
layer {
  name: "inception_4b/3x3"
  type: "Convolution"
  bottom: "inception_4b/3x3_reduce"
  top: "inception_4b/3x3"
  param {
    lr_mult: 1
    decay_mult: 1
  }
  param {
    lr_mult: 2
    decay_mult: 0
  }
  convolution_param {
    num_output: 224
    pad: 1
    kernel_size: 3
    weight_filler {
      type: "xavier"
      std: 0.03
    }
    bias_filler {
      type: "constant"
      value: 0.2
    }
  }
}
layer {
  name: "inception_4b/relu_3x3"
  type: "ReLU"
  bottom: "inception_4b/3x3"
  top: "inception_4b/3x3"
}
layer {
  name: "inception_4b/5x5_reduce"
  type: "Convolution"
  bottom: "inception_4a/output"
  top: "inception_4b/5x5_reduce"
  param {
    lr_mult: 1
    decay_mult: 1
  }
  param {
    lr_mult: 2
    decay_mult: 0
  }
  convolution_param {
    num_output: 24
    kernel_size: 1
    weight_filler {
      type: "xavier"
      std: 0.2
    }
    bias_filler {
      type: "constant"
      value: 0.2
    }
  }
}
layer {
  name: "inception_4b/relu_5x5_reduce"
  type: "ReLU"
  bottom: "inception_4b/5x5_reduce"
  top: "inception_4b/5x5_reduce"
}
layer {
  name: "inception_4b/5x5"
  type: "Convolution"
  bottom: "inception_4b/5x5_reduce"
  top: "inception_4b/5x5"
  param {
    lr_mult: 1
    decay_mult: 1
  }
  param {
    lr_mult: 2
    decay_mult: 0
  }
  convolution_param {
    num_output: 64
    pad: 2
    kernel_size: 5
    weight_filler {
      type: "xavier"
      std: 0.03
    }
    bias_filler {
      type: "constant"
      value: 0.2
    }
  }
}
layer {
  name: "inception_4b/relu_5x5"
  type: "ReLU"
  bottom: "inception_4b/5x5"
  top: "inception_4b/5x5"
}
layer {
  name: "inception_4b/pool"
  type: "Pooling"
  bottom: "inception_4a/output"
  top: "inception_4b/pool"
  pooling_param {
    pool: MAX
    kernel_size: 3
    stride: 1
    pad: 1
  }
}
layer {
  name: "inception_4b/pool_proj"
  type: "Convolution"
  bottom: "inception_4b/pool"
  top: "inception_4b/pool_proj"
  param {
    lr_mult: 1
    decay_mult: 1
  }
  param {
    lr_mult: 2
    decay_mult: 0
  }
  convolution_param {
    num_output: 64
    kernel_size: 1
    weight_filler {
      type: "xavier"
      std: 0.1
    }
    bias_filler {
      type: "constant"
      value: 0.2
    }
  }
}
layer {
  name: "inception_4b/relu_pool_proj"
  type: "ReLU"
  bottom: "inception_4b/pool_proj"
  top: "inception_4b/pool_proj"
}
layer {
  name: "inception_4b/output"
  type: "Concat"
  bottom: "inception_4b/1x1"
  bottom: "inception_4b/3x3"
  bottom: "inception_4b/5x5"
  bottom: "inception_4b/pool_proj"
  top: "inception_4b/output"
}
layer {
  name: "inception_4c/1x1"
  type: "Convolution"
  bottom: "inception_4b/output"
  top: "inception_4c/1x1"
  param {
    lr_mult: 1
    decay_mult: 1
  }
  param {
    lr_mult: 2
    decay_mult: 0
  }
  convolution_param {
    num_output: 128
    kernel_size: 1
    weight_filler {
      type: "xavier"
      std: 0.03
    }
    bias_filler {
      type: "constant"
      value: 0.2
    }
  }
}
layer {
  name: "inception_4c/relu_1x1"
  type: "ReLU"
  bottom: "inception_4c/1x1"
  top: "inception_4c/1x1"
}
layer {
  name: "inception_4c/3x3_reduce"
  type: "Convolution"
  bottom: "inception_4b/output"
  top: "inception_4c/3x3_reduce"
  param {
    lr_mult: 1
    decay_mult: 1
  }
  param {
    lr_mult: 2
    decay_mult: 0
  }
  convolution_param {
    num_output: 128
    kernel_size: 1
    weight_filler {
      type: "xavier"
      std: 0.09
    }
    bias_filler {
      type: "constant"
      value: 0.2
    }
  }
}
layer {
  name: "inception_4c/relu_3x3_reduce"
  type: "ReLU"
  bottom: "inception_4c/3x3_reduce"
  top: "inception_4c/3x3_reduce"
}
layer {
  name: "inception_4c/3x3"
  type: "Convolution"
  bottom: "inception_4c/3x3_reduce"
  top: "inception_4c/3x3"
  param {
    lr_mult: 1
    decay_mult: 1
  }
  param {
    lr_mult: 2
    decay_mult: 0
  }
  convolution_param {
    num_output: 256
    pad: 1
    kernel_size: 3
    weight_filler {
      type: "xavier"
      std: 0.03
    }
    bias_filler {
      type: "constant"
      value: 0.2
    }
  }
}
layer {
  name: "inception_4c/relu_3x3"
  type: "ReLU"
  bottom: "inception_4c/3x3"
  top: "inception_4c/3x3"
}
layer {
  name: "inception_4c/5x5_reduce"
  type: "Convolution"
  bottom: "inception_4b/output"
  top: "inception_4c/5x5_reduce"
  param {
    lr_mult: 1
    decay_mult: 1
  }
  param {
    lr_mult: 2
    decay_mult: 0
  }
  convolution_param {
    num_output: 24
    kernel_size: 1
    weight_filler {
      type: "xavier"
      std: 0.2
    }
    bias_filler {
      type: "constant"
      value: 0.2
    }
  }
}
layer {
  name: "inception_4c/relu_5x5_reduce"
  type: "ReLU"
  bottom: "inception_4c/5x5_reduce"
  top: "inception_4c/5x5_reduce"
}
layer {
  name: "inception_4c/5x5"
  type: "Convolution"
  bottom: "inception_4c/5x5_reduce"
  top: "inception_4c/5x5"
  param {
    lr_mult: 1
    decay_mult: 1
  }
  param {
    lr_mult: 2
    decay_mult: 0
  }
  convolution_param {
    num_output: 64
    pad: 2
    kernel_size: 5
    weight_filler {
      type: "xavier"
      std: 0.03
    }
    bias_filler {
      type: "constant"
      value: 0.2
    }
  }
}
layer {
  name: "inception_4c/relu_5x5"
  type: "ReLU"
  bottom: "inception_4c/5x5"
  top: "inception_4c/5x5"
}
layer {
  name: "inception_4c/pool"
  type: "Pooling"
  bottom: "inception_4b/output"
  top: "inception_4c/pool"
  pooling_param {
    pool: MAX
    kernel_size: 3
    stride: 1
    pad: 1
  }
}
layer {
  name: "inception_4c/pool_proj"
  type: "Convolution"
  bottom: "inception_4c/pool"
  top: "inception_4c/pool_proj"
  param {
    lr_mult: 1
    decay_mult: 1
  }
  param {
    lr_mult: 2
    decay_mult: 0
  }
  convolution_param {
    num_output: 64
    kernel_size: 1
    weight_filler {
      type: "xavier"
      std: 0.1
    }
    bias_filler {
      type: "constant"
      value: 0.2
    }
  }
}
layer {
  name: "inception_4c/relu_pool_proj"
  type: "ReLU"
  bottom: "inception_4c/pool_proj"
  top: "inception_4c/pool_proj"
}
layer {
  name: "inception_4c/output"
  type: "Concat"
  bottom: "inception_4c/1x1"
  bottom: "inception_4c/3x3"
  bottom: "inception_4c/5x5"
  bottom: "inception_4c/pool_proj"
  top: "inception_4c/output"
}
layer {
  name: "inception_4d/1x1"
  type: "Convolution"
  bottom: "inception_4c/output"
  top: "inception_4d/1x1"
  param {
    lr_mult: 1
    decay_mult: 1
  }
  param {
    lr_mult: 2
    decay_mult: 0
  }
  convolution_param {
    num_output: 112
    kernel_size: 1
    weight_filler {
      type: "xavier"
      std: 0.03
    }
    bias_filler {
      type: "constant"
      value: 0.2
    }
  }
}
layer {
  name: "inception_4d/relu_1x1"
  type: "ReLU"
  bottom: "inception_4d/1x1"
  top: "inception_4d/1x1"
}
layer {
  name: "inception_4d/3x3_reduce"
  type: "Convolution"
  bottom: "inception_4c/output"
  top: "inception_4d/3x3_reduce"
  param {
    lr_mult: 1
    decay_mult: 1
  }
  param {
    lr_mult: 2
    decay_mult: 0
  }
  convolution_param {
    num_output: 144
    kernel_size: 1
    weight_filler {
      type: "xavier"
      std: 0.09
    }
    bias_filler {
      type: "constant"
      value: 0.2
    }
  }
}
layer {
  name: "inception_4d/relu_3x3_reduce"
  type: "ReLU"
  bottom: "inception_4d/3x3_reduce"
  top: "inception_4d/3x3_reduce"
}
layer {
  name: "inception_4d/3x3"
  type: "Convolution"
  bottom: "inception_4d/3x3_reduce"
  top: "inception_4d/3x3"
  param {
    lr_mult: 1
    decay_mult: 1
  }
  param {
    lr_mult: 2
    decay_mult: 0
  }
  convolution_param {
    num_output: 288
    pad: 1
    kernel_size: 3
    weight_filler {
      type: "xavier"
      std: 0.03
    }
    bias_filler {
      type: "constant"
      value: 0.2
    }
  }
}
layer {
  name: "inception_4d/relu_3x3"
  type: "ReLU"
  bottom: "inception_4d/3x3"
  top: "inception_4d/3x3"
}
layer {
  name: "inception_4d/5x5_reduce"
  type: "Convolution"
  bottom: "inception_4c/output"
  top: "inception_4d/5x5_reduce"
  param {
    lr_mult: 1
    decay_mult: 1
  }
  param {
    lr_mult: 2
    decay_mult: 0
  }
  convolution_param {
    num_output: 32
    kernel_size: 1
    weight_filler {
      type: "xavier"
      std: 0.2
    }
    bias_filler {
      type: "constant"
      value: 0.2
    }
  }
}
layer {
  name: "inception_4d/relu_5x5_reduce"
  type: "ReLU"
  bottom: "inception_4d/5x5_reduce"
  top: "inception_4d/5x5_reduce"
}
layer {
  name: "inception_4d/5x5"
  type: "Convolution"
  bottom: "inception_4d/5x5_reduce"
  top: "inception_4d/5x5"
  param {
    lr_mult: 1
    decay_mult: 1
  }
  param {
    lr_mult: 2
    decay_mult: 0
  }
  convolution_param {
    num_output: 64
    pad: 2
    kernel_size: 5
    weight_filler {
      type: "xavier"
      std: 0.03
    }
    bias_filler {
      type: "constant"
      value: 0.2
    }
  }
}
layer {
  name: "inception_4d/relu_5x5"
  type: "ReLU"
  bottom: "inception_4d/5x5"
  top: "inception_4d/5x5"
}
layer {
  name: "inception_4d/pool"
  type: "Pooling"
  bottom: "inception_4c/output"
  top: "inception_4d/pool"
  pooling_param {
    pool: MAX
    kernel_size: 3
    stride: 1
    pad: 1
  }
}
layer {
  name: "inception_4d/pool_proj"
  type: "Convolution"
  bottom: "inception_4d/pool"
  top: "inception_4d/pool_proj"
  param {
    lr_mult: 1
    decay_mult: 1
  }
  param {
    lr_mult: 2
    decay_mult: 0
  }
  convolution_param {
    num_output: 64
    kernel_size: 1
    weight_filler {
      type: "xavier"
      std: 0.1
    }
    bias_filler {
      type: "constant"
      value: 0.2
    }
  }
}
layer {
  name: "inception_4d/relu_pool_proj"
  type: "ReLU"
  bottom: "inception_4d/pool_proj"
  top: "inception_4d/pool_proj"
}
layer {
  name: "inception_4d/output"
  type: "Concat"
  bottom: "inception_4d/1x1"
  bottom: "inception_4d/3x3"
  bottom: "inception_4d/5x5"
  bottom: "inception_4d/pool_proj"
  top: "inception_4d/output"
}
layer {
  name: "loss2/ave_pool"
  type: "Pooling"
  bottom: "inception_4d/output"
  top: "loss2/ave_pool"
  pooling_param {
    pool: AVE
    kernel_size: 5
    stride: 3
  }
}
layer {
  name: "loss2/conv"
  type: "Convolution"
  bottom: "loss2/ave_pool"
  top: "loss2/conv"
  param {
    lr_mult: 1
    decay_mult: 1
  }
  param {
    lr_mult: 2
    decay_mult: 0
  }
  convolution_param {
    num_output: 128
    kernel_size: 1
    weight_filler {
      type: "xavier"
      std: 0.08
    }
    bias_filler {
      type: "constant"
      value: 0.2
    }
  }
}
layer {
  name: "loss2/relu_conv"
  type: "ReLU"
  bottom: "loss2/conv"
  top: "loss2/conv"
}
layer {
  name: "loss2/fc"
  type: "InnerProduct"
  bottom: "loss2/conv"
  top: "loss2/fc"
  param {
    lr_mult: 1
    decay_mult: 1
  }
  param {
    lr_mult: 2
    decay_mult: 0
  }
  inner_product_param {
    num_output: 1024
    weight_filler {
      type: "xavier"
      std: 0.02
    }
    bias_filler {
      type: "constant"
      value: 0.2
    }
  }
}
layer {
  name: "loss2/relu_fc"
  type: "ReLU"
  bottom: "loss2/fc"
  top: "loss2/fc"
}
layer {
  name: "loss2/drop_fc"
  type: "Dropout"
  bottom: "loss2/fc"
  top: "loss2/fc"
  dropout_param {
    dropout_ratio: 0.7
  }
}
layer {
  name: "loss2/classifier_plantvillage"
  type: "InnerProduct"
  bottom: "loss2/fc"
  top: "loss2/classifier_plantvillage"
  param {
    lr_mult: 1
    decay_mult: 1
  }
  param {
    lr_mult: 2
    decay_mult: 0
  }
  inner_product_param {
    num_output: 38
    weight_filler {
      type: "xavier"
      std: 0.0009765625
    }
    bias_filler {
      type: "constant"
      value: 0
    }
  }
}
layer {
  name: "inception_4e/1x1"
  type: "Convolution"
  bottom: "inception_4d/output"
  top: "inception_4e/1x1"
  param {
    lr_mult: 1
    decay_mult: 1
  }
  param {
    lr_mult: 2
    decay_mult: 0
  }
  convolution_param {
    num_output: 256
    kernel_size: 1
    weight_filler {
      type: "xavier"
      std: 0.03
    }
    bias_filler {
      type: "constant"
      value: 0.2
    }
  }
}
layer {
  name: "inception_4e/relu_1x1"
  type: "ReLU"
  bottom: "inception_4e/1x1"
  top: "inception_4e/1x1"
}
layer {
  name: "inception_4e/3x3_reduce"
  type: "Convolution"
  bottom: "inception_4d/output"
  top: "inception_4e/3x3_reduce"
  param {
    lr_mult: 1
    decay_mult: 1
  }
  param {
    lr_mult: 2
    decay_mult: 0
  }
  convolution_param {
    num_output: 160
    kernel_size: 1
    weight_filler {
      type: "xavier"
      std: 0.09
    }
    bias_filler {
      type: "constant"
      value: 0.2
    }
  }
}
layer {
  name: "inception_4e/relu_3x3_reduce"
  type: "ReLU"
  bottom: "inception_4e/3x3_reduce"
  top: "inception_4e/3x3_reduce"
}
layer {
  name: "inception_4e/3x3"
  type: "Convolution"
  bottom: "inception_4e/3x3_reduce"
  top: "inception_4e/3x3"
  param {
    lr_mult: 1
    decay_mult: 1
  }
  param {
    lr_mult: 2
    decay_mult: 0
  }
  convolution_param {
    num_output: 320
    pad: 1
    kernel_size: 3
    weight_filler {
      type: "xavier"
      std: 0.03
    }
    bias_filler {
      type: "constant"
      value: 0.2
    }
  }
}
layer {
  name: "inception_4e/relu_3x3"
  type: "ReLU"
  bottom: "inception_4e/3x3"
  top: "inception_4e/3x3"
}
layer {
  name: "inception_4e/5x5_reduce"
  type: "Convolution"
  bottom: "inception_4d/output"
  top: "inception_4e/5x5_reduce"
  param {
    lr_mult: 1
    decay_mult: 1
  }
  param {
    lr_mult: 2
    decay_mult: 0
  }
  convolution_param {
    num_output: 32
    kernel_size: 1
    weight_filler {
      type: "xavier"
      std: 0.2
    }
    bias_filler {
      type: "constant"
      value: 0.2
    }
  }
}
layer {
  name: "inception_4e/relu_5x5_reduce"
  type: "ReLU"
  bottom: "inception_4e/5x5_reduce"
  top: "inception_4e/5x5_reduce"
}
layer {
  name: "inception_4e/5x5"
  type: "Convolution"
  bottom: "inception_4e/5x5_reduce"
  top: "inception_4e/
I0403 18:00:29.055631  6465 layer_factory.hpp:77] Creating layer data
I0403 18:00:29.056262  6465 net.cpp:91] Creating Layer data
I0403 18:00:29.056294  6465 net.cpp:399] data -> data
I0403 18:00:29.056349  6465 net.cpp:399] data -> label
I0403 18:00:29.056386  6465 data_transformer.cpp:25] Loading mean file from: /home/mohanty/data/final_dataset/lmdb/segmented-50-50/mean.binaryproto
I0403 18:00:29.057509  6469 db_lmdb.cpp:38] Opened lmdb /home/mohanty/data/final_dataset/lmdb/segmented-50-50/test_db
I0403 18:00:29.070148  6465 data_layer.cpp:41] output data size: 24,3,224,224
I0403 18:00:29.099772  6465 net.cpp:141] Setting up data
I0403 18:00:29.099831  6465 net.cpp:148] Top shape: 24 3 224 224 (3612672)
I0403 18:00:29.099858  6465 net.cpp:148] Top shape: 24 (24)
I0403 18:00:29.099874  6465 net.cpp:156] Memory required for data: 14450784
I0403 18:00:29.099902  6465 layer_factory.hpp:77] Creating layer label_data_1_split
I0403 18:00:29.099930  6465 net.cpp:91] Creating Layer label_data_1_split
I0403 18:00:29.099947  6465 net.cpp:425] label_data_1_split <- label
I0403 18:00:29.099980  6465 net.cpp:399] label_data_1_split -> label_data_1_split_0
I0403 18:00:29.100008  6465 net.cpp:399] label_data_1_split -> label_data_1_split_1
I0403 18:00:29.100031  6465 net.cpp:399] label_data_1_split -> label_data_1_split_2
I0403 18:00:29.100054  6465 net.cpp:399] label_data_1_split -> label_data_1_split_3
I0403 18:00:29.100075  6465 net.cpp:399] label_data_1_split -> label_data_1_split_4
I0403 18:00:29.100095  6465 net.cpp:399] label_data_1_split -> label_data_1_split_5
I0403 18:00:29.100116  6465 net.cpp:399] label_data_1_split -> label_data_1_split_6
I0403 18:00:29.100137  6465 net.cpp:399] label_data_1_split -> label_data_1_split_7
I0403 18:00:29.100157  6465 net.cpp:399] label_data_1_split -> label_data_1_split_8
I0403 18:00:29.100179  6465 net.cpp:399] label_data_1_split -> label_data_1_split_9
I0403 18:00:29.100303  6465 net.cpp:141] Setting up label_data_1_split
I0403 18:00:29.100328  6465 net.cpp:148] Top shape: 24 (24)
I0403 18:00:29.100347  6465 net.cpp:148] Top shape: 24 (24)
I0403 18:00:29.100363  6465 net.cpp:148] Top shape: 24 (24)
I0403 18:00:29.100381  6465 net.cpp:148] Top shape: 24 (24)
I0403 18:00:29.100399  6465 net.cpp:148] Top shape: 24 (24)
I0403 18:00:29.100415  6465 net.cpp:148] Top shape: 24 (24)
I0403 18:00:29.100432  6465 net.cpp:148] Top shape: 24 (24)
I0403 18:00:29.100450  6465 net.cpp:148] Top shape: 24 (24)
I0403 18:00:29.100466  6465 net.cpp:148] Top shape: 24 (24)
I0403 18:00:29.100484  6465 net.cpp:148] Top shape: 24 (24)
I0403 18:00:29.100531  6465 net.cpp:156] Memory required for data: 14451744
I0403 18:00:29.100549  6465 layer_factory.hpp:77] Creating layer conv1/7x7_s2
I0403 18:00:29.100582  6465 net.cpp:91] Creating Layer conv1/7x7_s2
I0403 18:00:29.100601  6465 net.cpp:425] conv1/7x7_s2 <- data
I0403 18:00:29.100621  6465 net.cpp:399] conv1/7x7_s2 -> conv1/7x7_s2
I0403 18:00:29.247773  6465 net.cpp:141] Setting up conv1/7x7_s2
I0403 18:00:29.247853  6465 net.cpp:148] Top shape: 24 64 112 112 (19267584)
I0403 18:00:29.247871  6465 net.cpp:156] Memory required for data: 91522080
I0403 18:00:29.247905  6465 layer_factory.hpp:77] Creating layer conv1/relu_7x7
I0403 18:00:29.247932  6465 net.cpp:91] Creating Layer conv1/relu_7x7
I0403 18:00:29.247951  6465 net.cpp:425] conv1/relu_7x7 <- conv1/7x7_s2
I0403 18:00:29.247972  6465 net.cpp:386] conv1/relu_7x7 -> conv1/7x7_s2 (in-place)
I0403 18:00:29.248262  6465 net.cpp:141] Setting up conv1/relu_7x7
I0403 18:00:29.248292  6465 net.cpp:148] Top shape: 24 64 112 112 (19267584)
I0403 18:00:29.248309  6465 net.cpp:156] Memory required for data: 168592416
I0403 18:00:29.248327  6465 layer_factory.hpp:77] Creating layer pool1/3x3_s2
I0403 18:00:29.248353  6465 net.cpp:91] Creating Layer pool1/3x3_s2
I0403 18:00:29.248370  6465 net.cpp:425] pool1/3x3_s2 <- conv1/7x7_s2
I0403 18:00:29.248390  6465 net.cpp:399] pool1/3x3_s2 -> pool1/3x3_s2
I0403 18:00:29.248464  6465 net.cpp:141] Setting up pool1/3x3_s2
I0403 18:00:29.248491  6465 net.cpp:148] Top shape: 24 64 56 56 (4816896)
I0403 18:00:29.248507  6465 net.cpp:156] Memory required for data: 187860000
I0403 18:00:29.248522  6465 layer_factory.hpp:77] Creating layer pool1/norm1
I0403 18:00:29.248548  6465 net.cpp:91] Creating Layer pool1/norm1
I0403 18:00:29.248567  6465 net.cpp:425] pool1/norm1 <- pool1/3x3_s2
I0403 18:00:29.248585  6465 net.cpp:399] pool1/norm1 -> pool1/norm1
I0403 18:00:29.248888  6465 net.cpp:141] Setting up pool1/norm1
I0403 18:00:29.248917  6465 net.cpp:148] Top shape: 24 64 56 56 (4816896)
I0403 18:00:29.248934  6465 net.cpp:156] Memory required for data: 207127584
I0403 18:00:29.248950  6465 layer_factory.hpp:77] Creating layer conv2/3x3_reduce
I0403 18:00:29.248975  6465 net.cpp:91] Creating Layer conv2/3x3_reduce
I0403 18:00:29.248993  6465 net.cpp:425] conv2/3x3_reduce <- pool1/norm1
I0403 18:00:29.249012  6465 net.cpp:399] conv2/3x3_reduce -> conv2/3x3_reduce
I0403 18:00:29.250442  6465 net.cpp:141] Setting up conv2/3x3_reduce
I0403 18:00:29.250473  6465 net.cpp:148] Top shape: 24 64 56 56 (4816896)
I0403 18:00:29.250490  6465 net.cpp:156] Memory required for data: 226395168
I0403 18:00:29.250514  6465 layer_factory.hpp:77] Creating layer conv2/relu_3x3_reduce
I0403 18:00:29.250533  6465 net.cpp:91] Creating Layer conv2/relu_3x3_reduce
I0403 18:00:29.250550  6465 net.cpp:425] conv2/relu_3x3_reduce <- conv2/3x3_reduce
I0403 18:00:29.250569  6465 net.cpp:386] conv2/relu_3x3_reduce -> conv2/3x3_reduce (in-place)
I0403 18:00:29.250834  6465 net.cpp:141] Setting up conv2/relu_3x3_reduce
I0403 18:00:29.250862  6465 net.cpp:148] Top shape: 24 64 56 56 (4816896)
I0403 18:00:29.250880  6465 net.cpp:156] Memory required for data: 245662752
I0403 18:00:29.250895  6465 layer_factory.hpp:77] Creating layer conv2/3x3
I0403 18:00:29.250918  6465 net.cpp:91] Creating Layer conv2/3x3
I0403 18:00:29.250936  6465 net.cpp:425] conv2/3x3 <- conv2/3x3_reduce
I0403 18:00:29.250955  6465 net.cpp:399] conv2/3x3 -> conv2/3x3
I0403 18:00:29.253319  6465 net.cpp:141] Setting up conv2/3x3
I0403 18:00:29.253350  6465 net.cpp:148] Top shape: 24 192 56 56 (14450688)
I0403 18:00:29.253367  6465 net.cpp:156] Memory required for data: 303465504
I0403 18:00:29.253391  6465 layer_factory.hpp:77] Creating layer conv2/relu_3x3
I0403 18:00:29.253410  6465 net.cpp:91] Creating Layer conv2/relu_3x3
I0403 18:00:29.253427  6465 net.cpp:425] conv2/relu_3x3 <- conv2/3x3
I0403 18:00:29.253445  6465 net.cpp:386] conv2/relu_3x3 -> conv2/3x3 (in-place)
I0403 18:00:29.253626  6465 net.cpp:141] Setting up conv2/relu_3x3
I0403 18:00:29.253654  6465 net.cpp:148] Top shape: 24 192 56 56 (14450688)
I0403 18:00:29.253702  6465 net.cpp:156] Memory required for data: 361268256
I0403 18:00:29.253720  6465 layer_factory.hpp:77] Creating layer conv2/norm2
I0403 18:00:29.253739  6465 net.cpp:91] Creating Layer conv2/norm2
I0403 18:00:29.253757  6465 net.cpp:425] conv2/norm2 <- conv2/3x3
I0403 18:00:29.253778  6465 net.cpp:399] conv2/norm2 -> conv2/norm2
I0403 18:00:29.254094  6465 net.cpp:141] Setting up conv2/norm2
I0403 18:00:29.254123  6465 net.cpp:148] Top shape: 24 192 56 56 (14450688)
I0403 18:00:29.254140  6465 net.cpp:156] Memory required for data: 419071008
I0403 18:00:29.254158  6465 layer_factory.hpp:77] Creating layer pool2/3x3_s2
I0403 18:00:29.254179  6465 net.cpp:91] Creating Layer pool2/3x3_s2
I0403 18:00:29.254200  6465 net.cpp:425] pool2/3x3_s2 <- conv2/norm2
I0403 18:00:29.254225  6465 net.cpp:399] pool2/3x3_s2 -> pool2/3x3_s2
I0403 18:00:29.254283  6465 net.cpp:141] Setting up pool2/3x3_s2
I0403 18:00:29.254309  6465 net.cpp:148] Top shape: 24 192 28 28 (3612672)
I0403 18:00:29.254325  6465 net.cpp:156] Memory required for data: 433521696
I0403 18:00:29.254343  6465 layer_factory.hpp:77] Creating layer pool2/3x3_s2_pool2/3x3_s2_0_split
I0403 18:00:29.254361  6465 net.cpp:91] Creating Layer pool2/3x3_s2_pool2/3x3_s2_0_split
I0403 18:00:29.254377  6465 net.cpp:425] pool2/3x3_s2_pool2/3x3_s2_0_split <- pool2/3x3_s2
I0403 18:00:29.254398  6465 net.cpp:399] pool2/3x3_s2_pool2/3x3_s2_0_split -> pool2/3x3_s2_pool2/3x3_s2_0_split_0
I0403 18:00:29.254420  6465 net.cpp:399] pool2/3x3_s2_pool2/3x3_s2_0_split -> pool2/3x3_s2_pool2/3x3_s2_0_split_1
I0403 18:00:29.254442  6465 net.cpp:399] pool2/3x3_s2_pool2/3x3_s2_0_split -> pool2/3x3_s2_pool2/3x3_s2_0_split_2
I0403 18:00:29.254463  6465 net.cpp:399] pool2/3x3_s2_pool2/3x3_s2_0_split -> pool2/3x3_s2_pool2/3x3_s2_0_split_3
I0403 18:00:29.254539  6465 net.cpp:141] Setting up pool2/3x3_s2_pool2/3x3_s2_0_split
I0403 18:00:29.254566  6465 net.cpp:148] Top shape: 24 192 28 28 (3612672)
I0403 18:00:29.254585  6465 net.cpp:148] Top shape: 24 192 28 28 (3612672)
I0403 18:00:29.254602  6465 net.cpp:148] Top shape: 24 192 28 28 (3612672)
I0403 18:00:29.254621  6465 net.cpp:148] Top shape: 24 192 28 28 (3612672)
I0403 18:00:29.254636  6465 net.cpp:156] Memory required for data: 491324448
I0403 18:00:29.254652  6465 layer_factory.hpp:77] Creating layer inception_3a/1x1
I0403 18:00:29.254675  6465 net.cpp:91] Creating Layer inception_3a/1x1
I0403 18:00:29.254694  6465 net.cpp:425] inception_3a/1x1 <- pool2/3x3_s2_pool2/3x3_s2_0_split_0
I0403 18:00:29.254715  6465 net.cpp:399] inception_3a/1x1 -> inception_3a/1x1
I0403 18:00:29.256348  6465 net.cpp:141] Setting up inception_3a/1x1
I0403 18:00:29.256381  6465 net.cpp:148] Top shape: 24 64 28 28 (1204224)
I0403 18:00:29.256397  6465 net.cpp:156] Memory required for data: 496141344
I0403 18:00:29.256417  6465 layer_factory.hpp:77] Creating layer inception_3a/relu_1x1
I0403 18:00:29.256445  6465 net.cpp:91] Creating Layer inception_3a/relu_1x1
I0403 18:00:29.256464  6465 net.cpp:425] inception_3a/relu_1x1 <- inception_3a/1x1
I0403 18:00:29.256482  6465 net.cpp:386] inception_3a/relu_1x1 -> inception_3a/1x1 (in-place)
I0403 18:00:29.256670  6465 net.cpp:141] Setting up inception_3a/relu_1x1
I0403 18:00:29.256700  6465 net.cpp:148] Top shape: 24 64 28 28 (1204224)
I0403 18:00:29.256716  6465 net.cpp:156] Memory required for data: 500958240
I0403 18:00:29.256733  6465 layer_factory.hpp:77] Creating layer inception_3a/3x3_reduce
I0403 18:00:29.256757  6465 net.cpp:91] Creating Layer inception_3a/3x3_reduce
I0403 18:00:29.256777  6465 net.cpp:425] inception_3a/3x3_reduce <- pool2/3x3_s2_pool2/3x3_s2_0_split_1
I0403 18:00:29.256796  6465 net.cpp:399] inception_3a/3x3_reduce -> inception_3a/3x3_reduce
I0403 18:00:29.258589  6465 net.cpp:141] Setting up inception_3a/3x3_reduce
I0403 18:00:29.258620  6465 net.cpp:148] Top shape: 24 96 28 28 (1806336)
I0403 18:00:29.258635  6465 net.cpp:156] Memory required for data: 508183584
I0403 18:00:29.258658  6465 layer_factory.hpp:77] Creating layer inception_3a/relu_3x3_reduce
I0403 18:00:29.258698  6465 net.cpp:91] Creating Layer inception_3a/relu_3x3_reduce
I0403 18:00:29.258718  6465 net.cpp:425] inception_3a/relu_3x3_reduce <- inception_3a/3x3_reduce
I0403 18:00:29.258739  6465 net.cpp:386] inception_3a/relu_3x3_reduce -> inception_3a/3x3_reduce (in-place)
I0403 18:00:29.258934  6465 net.cpp:141] Setting up inception_3a/relu_3x3_reduce
I0403 18:00:29.258961  6465 net.cpp:148] Top shape: 24 96 28 28 (1806336)
I0403 18:00:29.258977  6465 net.cpp:156] Memory required for data: 515408928
I0403 18:00:29.258993  6465 layer_factory.hpp:77] Creating layer inception_3a/3x3
I0403 18:00:29.259018  6465 net.cpp:91] Creating Layer inception_3a/3x3
I0403 18:00:29.259037  6465 net.cpp:425] inception_3a/3x3 <- inception_3a/3x3_reduce
I0403 18:00:29.259059  6465 net.cpp:399] inception_3a/3x3 -> inception_3a/3x3
I0403 18:00:29.260799  6465 net.cpp:141] Setting up inception_3a/3x3
I0403 18:00:29.260833  6465 net.cpp:148] Top shape: 24 128 28 28 (2408448)
I0403 18:00:29.260850  6465 net.cpp:156] Memory required for data: 525042720
I0403 18:00:29.260870  6465 layer_factory.hpp:77] Creating layer inception_3a/relu_3x3
I0403 18:00:29.260890  6465 net.cpp:91] Creating Layer inception_3a/relu_3x3
I0403 18:00:29.260905  6465 net.cpp:425] inception_3a/relu_3x3 <- inception_3a/3x3
I0403 18:00:29.260923  6465 net.cpp:386] inception_3a/relu_3x3 -> inception_3a/3x3 (in-place)
I0403 18:00:29.261219  6465 net.cpp:141] Setting up inception_3a/relu_3x3
I0403 18:00:29.261250  6465 net.cpp:148] Top shape: 24 128 28 28 (2408448)
I0403 18:00:29.261267  6465 net.cpp:156] Memory required for data: 534676512
I0403 18:00:29.261284  6465 layer_factory.hpp:77] Creating layer inception_3a/5x5_reduce
I0403 18:00:29.261307  6465 net.cpp:91] Creating Layer inception_3a/5x5_reduce
I0403 18:00:29.261327  6465 net.cpp:425] inception_3a/5x5_reduce <- pool2/3x3_s2_pool2/3x3_s2_0_split_2
I0403 18:00:29.261346  6465 net.cpp:399] inception_3a/5x5_reduce -> inception_3a/5x5_reduce
I0403 18:00:29.262377  6465 net.cpp:141] Setting up inception_3a/5x5_reduce
I0403 18:00:29.262408  6465 net.cpp:148] Top shape: 24 16 28 28 (301056)
I0403 18:00:29.262426  6465 net.cpp:156] Memory required for data: 535880736
I0403 18:00:29.262446  6465 layer_factory.hpp:77] Creating layer inception_3a/relu_5x5_reduce
I0403 18:00:29.262465  6465 net.cpp:91] Creating Layer inception_3a/relu_5x5_reduce
I0403 18:00:29.262481  6465 net.cpp:425] inception_3a/relu_5x5_reduce <- inception_3a/5x5_reduce
I0403 18:00:29.262502  6465 net.cpp:386] inception_3a/relu_5x5_reduce -> inception_3a/5x5_reduce (in-place)
I0403 18:00:29.262815  6465 net.cpp:141] Setting up inception_3a/relu_5x5_reduce
I0403 18:00:29.262843  6465 net.cpp:148] Top shape: 24 16 28 28 (301056)
I0403 18:00:29.262858  6465 net.cpp:156] Memory required for data: 537084960
I0403 18:00:29.262874  6465 layer_factory.hpp:77] Creating layer inception_3a/5x5
I0403 18:00:29.262898  6465 net.cpp:91] Creating Layer inception_3a/5x5
I0403 18:00:29.262915  6465 net.cpp:425] inception_3a/5x5 <- inception_3a/5x5_reduce
I0403 18:00:29.262939  6465 net.cpp:399] inception_3a/5x5 -> inception_3a/5x5
I0403 18:00:29.263985  6465 net.cpp:141] Setting up inception_3a/5x5
I0403 18:00:29.264015  6465 net.cpp:148] Top shape: 24 32 28 28 (602112)
I0403 18:00:29.264034  6465 net.cpp:156] Memory required for data: 539493408
I0403 18:00:29.264055  6465 layer_factory.hpp:77] Creating layer inception_3a/relu_5x5
I0403 18:00:29.264075  6465 net.cpp:91] Creating Layer inception_3a/relu_5x5
I0403 18:00:29.264089  6465 net.cpp:425] inception_3a/relu_5x5 <- inception_3a/5x5
I0403 18:00:29.264107  6465 net.cpp:386] inception_3a/relu_5x5 -> inception_3a/5x5 (in-place)
I0403 18:00:29.264294  6465 net.cpp:141] Setting up inception_3a/relu_5x5
I0403 18:00:29.264322  6465 net.cpp:148] Top shape: 24 32 28 28 (602112)
I0403 18:00:29.264338  6465 net.cpp:156] Memory required for data: 541901856
I0403 18:00:29.264354  6465 layer_factory.hpp:77] Creating layer inception_3a/pool
I0403 18:00:29.264374  6465 net.cpp:91] Creating Layer inception_3a/pool
I0403 18:00:29.264405  6465 net.cpp:425] inception_3a/pool <- pool2/3x3_s2_pool2/3x3_s2_0_split_3
I0403 18:00:29.264427  6465 net.cpp:399] inception_3a/pool -> inception_3a/pool
I0403 18:00:29.264485  6465 net.cpp:141] Setting up inception_3a/pool
I0403 18:00:29.264511  6465 net.cpp:148] Top shape: 24 192 28 28 (3612672)
I0403 18:00:29.264528  6465 net.cpp:156] Memory required for data: 556352544
I0403 18:00:29.264542  6465 layer_factory.hpp:77] Creating layer inception_3a/pool_proj
I0403 18:00:29.264562  6465 net.cpp:91] Creating Layer inception_3a/pool_proj
I0403 18:00:29.264580  6465 net.cpp:425] inception_3a/pool_proj <- inception_3a/pool
I0403 18:00:29.264602  6465 net.cpp:399] inception_3a/pool_proj -> inception_3a/pool_proj
I0403 18:00:29.265636  6465 net.cpp:141] Setting up inception_3a/pool_proj
I0403 18:00:29.265666  6465 net.cpp:148] Top shape: 24 32 28 28 (602112)
I0403 18:00:29.265681  6465 net.cpp:156] Memory required for data: 558760992
I0403 18:00:29.265707  6465 layer_factory.hpp:77] Creating layer inception_3a/relu_pool_proj
I0403 18:00:29.265727  6465 net.cpp:91] Creating Layer inception_3a/relu_pool_proj
I0403 18:00:29.265743  6465 net.cpp:425] inception_3a/relu_pool_proj <- inception_3a/pool_proj
I0403 18:00:29.265764  6465 net.cpp:386] inception_3a/relu_pool_proj -> inception_3a/pool_proj (in-place)
I0403 18:00:29.266053  6465 net.cpp:141] Setting up inception_3a/relu_pool_proj
I0403 18:00:29.266083  6465 net.cpp:148] Top shape: 24 32 28 28 (602112)
I0403 18:00:29.266099  6465 net.cpp:156] Memory required for data: 561169440
I0403 18:00:29.266115  6465 layer_factory.hpp:77] Creating layer inception_3a/output
I0403 18:00:29.266134  6465 net.cpp:91] Creating Layer inception_3a/output
I0403 18:00:29.266149  6465 net.cpp:425] inception_3a/output <- inception_3a/1x1
I0403 18:00:29.266165  6465 net.cpp:425] inception_3a/output <- inception_3a/3x3
I0403 18:00:29.266181  6465 net.cpp:425] inception_3a/output <- inception_3a/5x5
I0403 18:00:29.266198  6465 net.cpp:425] inception_3a/output <- inception_3a/pool_proj
I0403 18:00:29.266222  6465 net.cpp:399] inception_3a/output -> inception_3a/output
I0403 18:00:29.266273  6465 net.cpp:141] Setting up inception_3a/output
I0403 18:00:29.266310  6465 net.cpp:148] Top shape: 24 256 28 28 (4816896)
I0403 18:00:29.266325  6465 net.cpp:156] Memory required for data: 580437024
I0403 18:00:29.266342  6465 layer_factory.hpp:77] Creating layer inception_3a/output_inception_3a/output_0_split
I0403 18:00:29.266362  6465 net.cpp:91] Creating Layer inception_3a/output_inception_3a/output_0_split
I0403 18:00:29.266381  6465 net.cpp:425] inception_3a/output_inception_3a/output_0_split <- inception_3a/output
I0403 18:00:29.266399  6465 net.cpp:399] inception_3a/output_inception_3a/output_0_split -> inception_3a/output_inception_3a/output_0_split_0
I0403 18:00:29.266420  6465 net.cpp:399] inception_3a/output_inception_3a/output_0_split -> inception_3a/output_inception_3a/output_0_split_1
I0403 18:00:29.266445  6465 net.cpp:399] inception_3a/output_inception_3a/output_0_split -> inception_3a/output_inception_3a/output_0_split_2
I0403 18:00:29.266469  6465 net.cpp:399] inception_3a/output_inception_3a/output_0_split -> inception_3a/output_inception_3a/output_0_split_3
I0403 18:00:29.266551  6465 net.cpp:141] Setting up inception_3a/output_inception_3a/output_0_split
I0403 18:00:29.266587  6465 net.cpp:148] Top shape: 24 256 28 28 (4816896)
I0403 18:00:29.266604  6465 net.cpp:148] Top shape: 24 256 28 28 (4816896)
I0403 18:00:29.266621  6465 net.cpp:148] Top shape: 24 256 28 28 (4816896)
I0403 18:00:29.266638  6465 net.cpp:148] Top shape: 24 256 28 28 (4816896)
I0403 18:00:29.266652  6465 net.cpp:156] Memory required for data: 657507360
I0403 18:00:29.266667  6465 layer_factory.hpp:77] Creating layer inception_3b/1x1
I0403 18:00:29.266690  6465 net.cpp:91] Creating Layer inception_3b/1x1
I0403 18:00:29.266710  6465 net.cpp:425] inception_3b/1x1 <- inception_3a/output_inception_3a/output_0_split_0
I0403 18:00:29.266731  6465 net.cpp:399] inception_3b/1x1 -> inception_3b/1x1
I0403 18:00:29.267899  6465 net.cpp:141] Setting up inception_3b/1x1
I0403 18:00:29.267940  6465 net.cpp:148] Top shape: 24 128 28 28 (2408448)
I0403 18:00:29.267956  6465 net.cpp:156] Memory required for data: 667141152
I0403 18:00:29.267974  6465 layer_factory.hpp:77] Creating layer inception_3b/relu_1x1
I0403 18:00:29.267997  6465 net.cpp:91] Creating Layer inception_3b/relu_1x1
I0403 18:00:29.268014  6465 net.cpp:425] inception_3b/relu_1x1 <- inception_3b/1x1
I0403 18:00:29.268031  6465 net.cpp:386] inception_3b/relu_1x1 -> inception_3b/1x1 (in-place)
I0403 18:00:29.268218  6465 net.cpp:141] Setting up inception_3b/relu_1x1
I0403 18:00:29.268246  6465 net.cpp:148] Top shape: 24 128 28 28 (2408448)
I0403 18:00:29.268262  6465 net.cpp:156] Memory required for data: 676774944
I0403 18:00:29.268277  6465 layer_factory.hpp:77] Creating layer inception_3b/3x3_reduce
I0403 18:00:29.268301  6465 net.cpp:91] Creating Layer inception_3b/3x3_reduce
I0403 18:00:29.268317  6465 net.cpp:425] inception_3b/3x3_reduce <- inception_3a/output_inception_3a/output_0_split_1
I0403 18:00:29.268338  6465 net.cpp:399] inception_3b/3x3_reduce -> inception_3b/3x3_reduce
I0403 18:00:29.269569  6465 net.cpp:141] Setting up inception_3b/3x3_reduce
I0403 18:00:29.269598  6465 net.cpp:148] Top shape: 24 128 28 28 (2408448)
I0403 18:00:29.269614  6465 net.cpp:156] Memory required for data: 686408736
I0403 18:00:29.269634  6465 layer_factory.hpp:77] Creating layer inception_3b/relu_3x3_reduce
I0403 18:00:29.269654  6465 net.cpp:91] Creating Layer inception_3b/relu_3x3_reduce
I0403 18:00:29.269672  6465 net.cpp:425] inception_3b/relu_3x3_reduce <- inception_3b/3x3_reduce
I0403 18:00:29.269690  6465 net.cpp:386] inception_3b/relu_3x3_reduce -> inception_3b/3x3_reduce (in-place)
I0403 18:00:29.269870  6465 net.cpp:141] Setting up inception_3b/relu_3x3_reduce
I0403 18:00:29.269898  6465 net.cpp:148] Top shape: 24 128 28 28 (2408448)
I0403 18:00:29.269914  6465 net.cpp:156] Memory required for data: 696042528
I0403 18:00:29.269930  6465 layer_factory.hpp:77] Creating layer inception_3b/3x3
I0403 18:00:29.269954  6465 net.cpp:91] Creating Layer inception_3b/3x3
I0403 18:00:29.269973  6465 net.cpp:425] inception_3b/3x3 <- inception_3b/3x3_reduce
I0403 18:00:29.269994  6465 net.cpp:399] inception_3b/3x3 -> inception_3b/3x3
I0403 18:00:29.272987  6465 net.cpp:141] Setting up inception_3b/3x3
I0403 18:00:29.273020  6465 net.cpp:148] Top shape: 24 192 28 28 (3612672)
I0403 18:00:29.273036  6465 net.cpp:156] Memory required for data: 710493216
I0403 18:00:29.273056  6465 layer_factory.hpp:77] Creating layer inception_3b/relu_3x3
I0403 18:00:29.273073  6465 net.cpp:91] Creating Layer inception_3b/relu_3x3
I0403 18:00:29.273089  6465 net.cpp:425] inception_3b/relu_3x3 <- inception_3b/3x3
I0403 18:00:29.273107  6465 net.cpp:386] inception_3b/relu_3x3 -> inception_3b/3x3 (in-place)
I0403 18:00:29.273406  6465 net.cpp:141] Setting up inception_3b/relu_3x3
I0403 18:00:29.273437  6465 net.cpp:148] Top shape: 24 192 28 28 (3612672)
I0403 18:00:29.273453  6465 net.cpp:156] Memory required for data: 724943904
I0403 18:00:29.273469  6465 layer_factory.hpp:77] Creating layer inception_3b/5x5_reduce
I0403 18:00:29.273494  6465 net.cpp:91] Creating Layer inception_3b/5x5_reduce
I0403 18:00:29.273511  6465 net.cpp:425] inception_3b/5x5_reduce <- inception_3a/output_inception_3a/output_0_split_2
I0403 18:00:29.273530  6465 net.cpp:399] inception_3b/5x5_reduce -> inception_3b/5x5_reduce
I0403 18:00:29.274560  6465 net.cpp:141] Setting up inception_3b/5x5_reduce
I0403 18:00:29.274602  6465 net.cpp:148] Top shape: 24 32 28 28 (602112)
I0403 18:00:29.274619  6465 net.cpp:156] Memory required for data: 727352352
I0403 18:00:29.274637  6465 layer_factory.hpp:77] Creating layer inception_3b/relu_5x5_reduce
I0403 18:00:29.274655  6465 net.cpp:91] Creating Layer inception_3b/relu_5x5_reduce
I0403 18:00:29.274672  6465 net.cpp:425] inception_3b/relu_5x5_reduce <- inception_3b/5x5_reduce
I0403 18:00:29.274688  6465 net.cpp:386] inception_3b/relu_5x5_reduce -> inception_3b/5x5_reduce (in-place)
I0403 18:00:29.274888  6465 net.cpp:141] Setting up inception_3b/relu_5x5_reduce
I0403 18:00:29.274916  6465 net.cpp:148] Top shape: 24 32 28 28 (602112)
I0403 18:00:29.274931  6465 net.cpp:156] Memory required for data: 729760800
I0403 18:00:29.274946  6465 layer_factory.hpp:77] Creating layer inception_3b/5x5
I0403 18:00:29.274968  6465 net.cpp:91] Creating Layer inception_3b/5x5
I0403 18:00:29.274986  6465 net.cpp:425] inception_3b/5x5 <- inception_3b/5x5_reduce
I0403 18:00:29.275008  6465 net.cpp:399] inception_3b/5x5 -> inception_3b/5x5
I0403 18:00:29.277060  6465 net.cpp:141] Setting up inception_3b/5x5
I0403 18:00:29.277089  6465 net.cpp:148] Top shape: 24 96 28 28 (1806336)
I0403 18:00:29.277106  6465 net.cpp:156] Memory required for data: 736986144
I0403 18:00:29.277124  6465 layer_factory.hpp:77] Creating layer inception_3b/relu_5x5
I0403 18:00:29.277146  6465 net.cpp:91] Creating Layer inception_3b/relu_5x5
I0403 18:00:29.277164  6465 net.cpp:425] inception_3b/relu_5x5 <- inception_3b/5x5
I0403 18:00:29.277182  6465 net.cpp:386] inception_3b/relu_5x5 -> inception_3b/5x5 (in-place)
I0403 18:00:29.277410  6465 net.cpp:141] Setting up inception_3b/relu_5x5
I0403 18:00:29.277438  6465 net.cpp:148] Top shape: 24 96 28 28 (1806336)
I0403 18:00:29.277453  6465 net.cpp:156] Memory required for data: 744211488
I0403 18:00:29.277469  6465 layer_factory.hpp:77] Creating layer inception_3b/pool
I0403 18:00:29.277489  6465 net.cpp:91] Creating Layer inception_3b/pool
I0403 18:00:29.277505  6465 net.cpp:425] inception_3b/pool <- inception_3a/output_inception_3a/output_0_split_3
I0403 18:00:29.277525  6465 net.cpp:399] inception_3b/pool -> inception_3b/pool
I0403 18:00:29.277595  6465 net.cpp:141] Setting up inception_3b/pool
I0403 18:00:29.277618  6465 net.cpp:148] Top shape: 24 256 28 28 (4816896)
I0403 18:00:29.277633  6465 net.cpp:156] Memory required for data: 763479072
I0403 18:00:29.277650  6465 layer_factory.hpp:77] Creating layer inception_3b/pool_proj
I0403 18:00:29.277673  6465 net.cpp:91] Creating Layer inception_3b/pool_proj
I0403 18:00:29.277690  6465 net.cpp:425] inception_3b/pool_proj <- inception_3b/pool
I0403 18:00:29.277712  6465 net.cpp:399] inception_3b/pool_proj -> inception_3b/pool_proj
I0403 18:00:29.278851  6465 net.cpp:141] Setting up inception_3b/pool_proj
I0403 18:00:29.278878  6465 net.cpp:148] Top shape: 24 64 28 28 (1204224)
I0403 18:00:29.278894  6465 net.cpp:156] Memory required for data: 768295968
I0403 18:00:29.278914  6465 layer_factory.hpp:77] Creating layer inception_3b/relu_pool_proj
I0403 18:00:29.278933  6465 net.cpp:91] Creating Layer inception_3b/relu_pool_proj
I0403 18:00:29.278949  6465 net.cpp:425] inception_3b/relu_pool_proj <- inception_3b/pool_proj
I0403 18:00:29.278969  6465 net.cpp:386] inception_3b/relu_pool_proj -> inception_3b/pool_proj (in-place)
I0403 18:00:29.279381  6465 net.cpp:141] Setting up inception_3b/relu_pool_proj
I0403 18:00:29.279407  6465 net.cpp:148] Top shape: 24 64 28 28 (1204224)
I0403 18:00:29.279425  6465 net.cpp:156] Memory required for data: 773112864
I0403 18:00:29.279440  6465 layer_factory.hpp:77] Creating layer inception_3b/output
I0403 18:00:29.279458  6465 net.cpp:91] Creating Layer inception_3b/output
I0403 18:00:29.279474  6465 net.cpp:425] inception_3b/output <- inception_3b/1x1
I0403 18:00:29.279491  6465 net.cpp:425] inception_3b/output <- inception_3b/3x3
I0403 18:00:29.279507  6465 net.cpp:425] inception_3b/output <- inception_3b/5x5
I0403 18:00:29.279523  6465 net.cpp:425] inception_3b/output <- inception_3b/pool_proj
I0403 18:00:29.279543  6465 net.cpp:399] inception_3b/output -> inception_3b/output
I0403 18:00:29.279589  6465 net.cpp:141] Setting up inception_3b/output
I0403 18:00:29.279613  6465 net.cpp:148] Top shape: 24 480 28 28 (9031680)
I0403 18:00:29.279631  6465 net.cpp:156] Memory required for data: 809239584
I0403 18:00:29.279647  6465 layer_factory.hpp:77] Creating layer pool3/3x3_s2
I0403 18:00:29.279665  6465 net.cpp:91] Creating Layer pool3/3x3_s2
I0403 18:00:29.279683  6465 net.cpp:425] pool3/3x3_s2 <- inception_3b/output
I0403 18:00:29.279717  6465 net.cpp:399] pool3/3x3_s2 -> pool3/3x3_s2
I0403 18:00:29.279779  6465 net.cpp:141] Setting up pool3/3x3_s2
I0403 18:00:29.279803  6465 net.cpp:148] Top shape: 24 480 14 14 (2257920)
I0403 18:00:29.279819  6465 net.cpp:156] Memory required for data: 818271264
I0403 18:00:29.279832  6465 layer_factory.hpp:77] Creating layer pool3/3x3_s2_pool3/3x3_s2_0_split
I0403 18:00:29.279851  6465 net.cpp:91] Creating Layer pool3/3x3_s2_pool3/3x3_s2_0_split
I0403 18:00:29.279866  6465 net.cpp:425] pool3/3x3_s2_pool3/3x3_s2_0_split <- pool3/3x3_s2
I0403 18:00:29.279886  6465 net.cpp:399] pool3/3x3_s2_pool3/3x3_s2_0_split -> pool3/3x3_s2_pool3/3x3_s2_0_split_0
I0403 18:00:29.279906  6465 net.cpp:399] pool3/3x3_s2_pool3/3x3_s2_0_split -> pool3/3x3_s2_pool3/3x3_s2_0_split_1
I0403 18:00:29.279927  6465 net.cpp:399] pool3/3x3_s2_pool3/3x3_s2_0_split -> pool3/3x3_s2_pool3/3x3_s2_0_split_2
I0403 18:00:29.279947  6465 net.cpp:399] pool3/3x3_s2_pool3/3x3_s2_0_split -> pool3/3x3_s2_pool3/3x3_s2_0_split_3
I0403 18:00:29.280025  6465 net.cpp:141] Setting up pool3/3x3_s2_pool3/3x3_s2_0_split
I0403 18:00:29.280051  6465 net.cpp:148] Top shape: 24 480 14 14 (2257920)
I0403 18:00:29.280069  6465 net.cpp:148] Top shape: 24 480 14 14 (2257920)
I0403 18:00:29.280086  6465 net.cpp:148] Top shape: 24 480 14 14 (2257920)
I0403 18:00:29.280102  6465 net.cpp:148] Top shape: 24 480 14 14 (2257920)
I0403 18:00:29.280117  6465 net.cpp:156] Memory required for data: 854397984
I0403 18:00:29.280130  6465 layer_factory.hpp:77] Creating layer inception_4a/1x1
I0403 18:00:29.280156  6465 net.cpp:91] Creating Layer inception_4a/1x1
I0403 18:00:29.280175  6465 net.cpp:425] inception_4a/1x1 <- pool3/3x3_s2_pool3/3x3_s2_0_split_0
I0403 18:00:29.280197  6465 net.cpp:399] inception_4a/1x1 -> inception_4a/1x1
I0403 18:00:29.281889  6465 net.cpp:141] Setting up inception_4a/1x1
I0403 18:00:29.281919  6465 net.cpp:148] Top shape: 24 192 14 14 (903168)
I0403 18:00:29.281935  6465 net.cpp:156] Memory required for data: 858010656
I0403 18:00:29.281956  6465 layer_factory.hpp:77] Creating layer inception_4a/relu_1x1
I0403 18:00:29.281978  6465 net.cpp:91] Creating Layer inception_4a/relu_1x1
I0403 18:00:29.281996  6465 net.cpp:425] inception_4a/relu_1x1 <- inception_4a/1x1
I0403 18:00:29.282014  6465 net.cpp:386] inception_4a/relu_1x1 -> inception_4a/1x1 (in-place)
I0403 18:00:29.282205  6465 net.cpp:141] Setting up inception_4a/relu_1x1
I0403 18:00:29.282243  6465 net.cpp:148] Top shape: 24 192 14 14 (903168)
I0403 18:00:29.282260  6465 net.cpp:156] Memory required for data: 861623328
I0403 18:00:29.282276  6465 layer_factory.hpp:77] Creating layer inception_4a/3x3_reduce
I0403 18:00:29.282302  6465 net.cpp:91] Creating Layer inception_4a/3x3_reduce
I0403 18:00:29.282321  6465 net.cpp:425] inception_4a/3x3_reduce <- pool3/3x3_s2_pool3/3x3_s2_0_split_1
I0403 18:00:29.282344  6465 net.cpp:399] inception_4a/3x3_reduce -> inception_4a/3x3_reduce
I0403 18:00:29.283711  6465 net.cpp:141] Setting up inception_4a/3x3_reduce
I0403 18:00:29.283741  6465 net.cpp:148] Top shape: 24 96 14 14 (451584)
I0403 18:00:29.283758  6465 net.cpp:156] Memory required for data: 863429664
I0403 18:00:29.283785  6465 layer_factory.hpp:77] Creating layer inception_4a/relu_3x3_reduce
I0403 18:00:29.283807  6465 net.cpp:91] Creating Layer inception_4a/relu_3x3_reduce
I0403 18:00:29.283824  6465 net.cpp:425] inception_4a/relu_3x3_reduce <- inception_4a/3x3_reduce
I0403 18:00:29.283848  6465 net.cpp:386] inception_4a/relu_3x3_reduce -> inception_4a/3x3_reduce (in-place)
I0403 18:00:29.284039  6465 net.cpp:141] Setting up inception_4a/relu_3x3_reduce
I0403 18:00:29.284065  6465 net.cpp:148] Top shape: 24 96 14 14 (451584)
I0403 18:00:29.284080  6465 net.cpp:156] Memory required for data: 865236000
I0403 18:00:29.284096  6465 layer_factory.hpp:77] Creating layer inception_4a/3x3
I0403 18:00:29.284119  6465 net.cpp:91] Creating Layer inception_4a/3x3
I0403 18:00:29.284138  6465 net.cpp:425] inception_4a/3x3 <- inception_4a/3x3_reduce
I0403 18:00:29.284162  6465 net.cpp:399] inception_4a/3x3 -> inception_4a/3x3
I0403 18:00:29.287034  6465 net.cpp:141] Setting up inception_4a/3x3
I0403 18:00:29.287065  6465 net.cpp:148] Top shape: 24 208 14 14 (978432)
I0403 18:00:29.287081  6465 net.cpp:156] Memory required for data: 869149728
I0403 18:00:29.287101  6465 layer_factory.hpp:77] Creating layer inception_4a/relu_3x3
I0403 18:00:29.287123  6465 net.cpp:91] Creating Layer inception_4a/relu_3x3
I0403 18:00:29.287142  6465 net.cpp:425] inception_4a/relu_3x3 <- inception_4a/3x3
I0403 18:00:29.287160  6465 net.cpp:386] inception_4a/relu_3x3 -> inception_4a/3x3 (in-place)
I0403 18:00:29.287463  6465 net.cpp:141] Setting up inception_4a/relu_3x3
I0403 18:00:29.287492  6465 net.cpp:148] Top shape: 24 208 14 14 (978432)
I0403 18:00:29.287508  6465 net.cpp:156] Memory required for data: 873063456
I0403 18:00:29.287523  6465 layer_factory.hpp:77] Creating layer inception_4a/5x5_reduce
I0403 18:00:29.287547  6465 net.cpp:91] Creating Layer inception_4a/5x5_reduce
I0403 18:00:29.287566  6465 net.cpp:425] inception_4a/5x5_reduce <- pool3/3x3_s2_pool3/3x3_s2_0_split_2
I0403 18:00:29.287590  6465 net.cpp:399] inception_4a/5x5_reduce -> inception_4a/5x5_reduce
I0403 18:00:29.288676  6465 net.cpp:141] Setting up inception_4a/5x5_reduce
I0403 18:00:29.288705  6465 net.cpp:148] Top shape: 24 16 14 14 (75264)
I0403 18:00:29.288725  6465 net.cpp:156] Memory required for data: 873364512
I0403 18:00:29.288745  6465 layer_factory.hpp:77] Creating layer inception_4a/relu_5x5_reduce
I0403 18:00:29.288766  6465 net.cpp:91] Creating Layer inception_4a/relu_5x5_reduce
I0403 18:00:29.288784  6465 net.cpp:425] inception_4a/relu_5x5_reduce <- inception_4a/5x5_reduce
I0403 18:00:29.288802  6465 net.cpp:386] inception_4a/relu_5x5_reduce -> inception_4a/5x5_reduce (in-place)
I0403 18:00:29.288995  6465 net.cpp:141] Setting up inception_4a/relu_5x5_reduce
I0403 18:00:29.289024  6465 net.cpp:148] Top shape: 24 16 14 14 (75264)
I0403 18:00:29.289041  6465 net.cpp:156] Memory required for data: 873665568
I0403 18:00:29.289057  6465 layer_factory.hpp:77] Creating layer inception_4a/5x5
I0403 18:00:29.289084  6465 net.cpp:91] Creating Layer inception_4a/5x5
I0403 18:00:29.289103  6465 net.cpp:425] inception_4a/5x5 <- inception_4a/5x5_reduce
I0403 18:00:29.289124  6465 net.cpp:399] inception_4a/5x5 -> inception_4a/5x5
I0403 18:00:29.290295  6465 net.cpp:141] Setting up inception_4a/5x5
I0403 18:00:29.290324  6465 net.cpp:148] Top shape: 24 48 14 14 (225792)
I0403 18:00:29.290343  6465 net.cpp:156] Memory required for data: 874568736
I0403 18:00:29.290362  6465 layer_factory.hpp:77] Creating layer inception_4a/relu_5x5
I0403 18:00:29.290383  6465 net.cpp:91] Creating Layer inception_4a/relu_5x5
I0403 18:00:29.290400  6465 net.cpp:425] inception_4a/relu_5x5 <- inception_4a/5x5
I0403 18:00:29.290421  6465 net.cpp:386] inception_4a/relu_5x5 -> inception_4a/5x5 (in-place)
I0403 18:00:29.290616  6465 net.cpp:141] Setting up inception_4a/relu_5x5
I0403 18:00:29.290643  6465 net.cpp:148] Top shape: 24 48 14 14 (225792)
I0403 18:00:29.290659  6465 net.cpp:156] Memory required for data: 875471904
I0403 18:00:29.290675  6465 layer_factory.hpp:77] Creating layer inception_4a/pool
I0403 18:00:29.290698  6465 net.cpp:91] Creating Layer inception_4a/pool
I0403 18:00:29.290714  6465 net.cpp:425] inception_4a/pool <- pool3/3x3_s2_pool3/3x3_s2_0_split_3
I0403 18:00:29.290734  6465 net.cpp:399] inception_4a/pool -> inception_4a/pool
I0403 18:00:29.290801  6465 net.cpp:141] Setting up inception_4a/pool
I0403 18:00:29.290827  6465 net.cpp:148] Top shape: 24 480 14 14 (2257920)
I0403 18:00:29.290841  6465 net.cpp:156] Memory required for data: 884503584
I0403 18:00:29.290858  6465 layer_factory.hpp:77] Creating layer inception_4a/pool_proj
I0403 18:00:29.290881  6465 net.cpp:91] Creating Layer inception_4a/pool_proj
I0403 18:00:29.290899  6465 net.cpp:425] inception_4a/pool_proj <- inception_4a/pool
I0403 18:00:29.290923  6465 net.cpp:399] inception_4a/pool_proj -> inception_4a/pool_proj
I0403 18:00:29.292171  6465 net.cpp:141] Setting up inception_4a/pool_proj
I0403 18:00:29.292203  6465 net.cpp:148] Top shape: 24 64 14 14 (301056)
I0403 18:00:29.292248  6465 net.cpp:156] Memory required for data: 885707808
I0403 18:00:29.292270  6465 layer_factory.hpp:77] Creating layer inception_4a/relu_pool_proj
I0403 18:00:29.292289  6465 net.cpp:91] Creating Layer inception_4a/relu_pool_proj
I0403 18:00:29.292307  6465 net.cpp:425] inception_4a/relu_pool_proj <- inception_4a/pool_proj
I0403 18:00:29.292330  6465 net.cpp:386] inception_4a/relu_pool_proj -> inception_4a/pool_proj (in-place)
I0403 18:00:29.292634  6465 net.cpp:141] Setting up inception_4a/relu_pool_proj
I0403 18:00:29.292662  6465 net.cpp:148] Top shape: 24 64 14 14 (301056)
I0403 18:00:29.292680  6465 net.cpp:156] Memory required for data: 886912032
I0403 18:00:29.292695  6465 layer_factory.hpp:77] Creating layer inception_4a/output
I0403 18:00:29.292714  6465 net.cpp:91] Creating Layer inception_4a/output
I0403 18:00:29.292732  6465 net.cpp:425] inception_4a/output <- inception_4a/1x1
I0403 18:00:29.292748  6465 net.cpp:425] inception_4a/output <- inception_4a/3x3
I0403 18:00:29.292765  6465 net.cpp:425] inception_4a/output <- inception_4a/5x5
I0403 18:00:29.292783  6465 net.cpp:425] inception_4a/output <- inception_4a/pool_proj
I0403 18:00:29.292803  6465 net.cpp:399] inception_4a/output -> inception_4a/output
I0403 18:00:29.292850  6465 net.cpp:141] Setting up inception_4a/output
I0403 18:00:29.292882  6465 net.cpp:148] Top shape: 24 512 14 14 (2408448)
I0403 18:00:29.292901  6465 net.cpp:156] Memory required for data: 896545824
I0403 18:00:29.292917  6465 layer_factory.hpp:77] Creating layer inception_4a/output_inception_4a/output_0_split
I0403 18:00:29.292937  6465 net.cpp:91] Creating Layer inception_4a/output_inception_4a/output_0_split
I0403 18:00:29.292953  6465 net.cpp:425] inception_4a/output_inception_4a/output_0_split <- inception_4a/output
I0403 18:00:29.292971  6465 net.cpp:399] inception_4a/output_inception_4a/output_0_split -> inception_4a/output_inception_4a/output_0_split_0
I0403 18:00:29.292996  6465 net.cpp:399] inception_4a/output_inception_4a/output_0_split -> inception_4a/output_inception_4a/output_0_split_1
I0403 18:00:29.293020  6465 net.cpp:399] inception_4a/output_inception_4a/output_0_split -> inception_4a/output_inception_4a/output_0_split_2
I0403 18:00:29.293042  6465 net.cpp:399] inception_4a/output_inception_4a/output_0_split -> inception_4a/output_inception_4a/output_0_split_3
I0403 18:00:29.293063  6465 net.cpp:399] inception_4a/output_inception_4a/output_0_split -> inception_4a/output_inception_4a/output_0_split_4
I0403 18:00:29.293160  6465 net.cpp:141] Setting up inception_4a/output_inception_4a/output_0_split
I0403 18:00:29.293189  6465 net.cpp:148] Top shape: 24 512 14 14 (2408448)
I0403 18:00:29.293206  6465 net.cpp:148] Top shape: 24 512 14 14 (2408448)
I0403 18:00:29.293231  6465 net.cpp:148] Top shape: 24 512 14 14 (2408448)
I0403 18:00:29.293247  6465 net.cpp:148] Top shape: 24 512 14 14 (2408448)
I0403 18:00:29.293263  6465 net.cpp:148] Top shape: 24 512 14 14 (2408448)
I0403 18:00:29.293278  6465 net.cpp:156] Memory required for data: 944714784
I0403 18:00:29.293294  6465 layer_factory.hpp:77] Creating layer loss1/ave_pool
I0403 18:00:29.293313  6465 net.cpp:91] Creating Layer loss1/ave_pool
I0403 18:00:29.293330  6465 net.cpp:425] loss1/ave_pool <- inception_4a/output_inception_4a/output_0_split_0
I0403 18:00:29.293350  6465 net.cpp:399] loss1/ave_pool -> loss1/ave_pool
I0403 18:00:29.293576  6465 net.cpp:141] Setting up loss1/ave_pool
I0403 18:00:29.293604  6465 net.cpp:148] Top shape: 24 512 4 4 (196608)
I0403 18:00:29.293619  6465 net.cpp:156] Memory required for data: 945501216
I0403 18:00:29.293637  6465 layer_factory.hpp:77] Creating layer loss1/conv
I0403 18:00:29.293660  6465 net.cpp:91] Creating Layer loss1/conv
I0403 18:00:29.293678  6465 net.cpp:425] loss1/conv <- loss1/ave_pool
I0403 18:00:29.293701  6465 net.cpp:399] loss1/conv -> loss1/conv
I0403 18:00:29.295230  6465 net.cpp:141] Setting up loss1/conv
I0403 18:00:29.295260  6465 net.cpp:148] Top shape: 24 128 4 4 (49152)
I0403 18:00:29.295291  6465 net.cpp:156] Memory required for data: 945697824
I0403 18:00:29.295313  6465 layer_factory.hpp:77] Creating layer loss1/relu_conv
I0403 18:00:29.295336  6465 net.cpp:91] Creating Layer loss1/relu_conv
I0403 18:00:29.295353  6465 net.cpp:425] loss1/relu_conv <- loss1/conv
I0403 18:00:29.295372  6465 net.cpp:386] loss1/relu_conv -> loss1/conv (in-place)
I0403 18:00:29.295678  6465 net.cpp:141] Setting up loss1/relu_conv
I0403 18:00:29.295706  6465 net.cpp:148] Top shape: 24 128 4 4 (49152)
I0403 18:00:29.295723  6465 net.cpp:156] Memory required for data: 945894432
I0403 18:00:29.295738  6465 layer_factory.hpp:77] Creating layer loss1/fc
I0403 18:00:29.295765  6465 net.cpp:91] Creating Layer loss1/fc
I0403 18:00:29.295784  6465 net.cpp:425] loss1/fc <- loss1/conv
I0403 18:00:29.295804  6465 net.cpp:399] loss1/fc -> loss1/fc
I0403 18:00:29.314859  6465 net.cpp:141] Setting up loss1/fc
I0403 18:00:29.314929  6465 net.cpp:148] Top shape: 24 1024 (24576)
I0403 18:00:29.314944  6465 net.cpp:156] Memory required for data: 945992736
I0403 18:00:29.314965  6465 layer_factory.hpp:77] Creating layer loss1/relu_fc
I0403 18:00:29.314986  6465 net.cpp:91] Creating Layer loss1/relu_fc
I0403 18:00:29.315004  6465 net.cpp:425] loss1/relu_fc <- loss1/fc
I0403 18:00:29.315026  6465 net.cpp:386] loss1/relu_fc -> loss1/fc (in-place)
I0403 18:00:29.315263  6465 net.cpp:141] Setting up loss1/relu_fc
I0403 18:00:29.315289  6465 net.cpp:148] Top shape: 24 1024 (24576)
I0403 18:00:29.315304  6465 net.cpp:156] Memory required for data: 946091040
I0403 18:00:29.315320  6465 layer_factory.hpp:77] Creating layer loss1/drop_fc
I0403 18:00:29.315351  6465 net.cpp:91] Creating Layer loss1/drop_fc
I0403 18:00:29.315369  6465 net.cpp:425] loss1/drop_fc <- loss1/fc
I0403 18:00:29.315387  6465 net.cpp:386] loss1/drop_fc -> loss1/fc (in-place)
I0403 18:00:29.315441  6465 net.cpp:141] Setting up loss1/drop_fc
I0403 18:00:29.315469  6465 net.cpp:148] Top shape: 24 1024 (24576)
I0403 18:00:29.315486  6465 net.cpp:156] Memory required for data: 946189344
I0403 18:00:29.315502  6465 layer_factory.hpp:77] Creating layer loss1/classifier_plantvillage
I0403 18:00:29.315522  6465 net.cpp:91] Creating Layer loss1/classifier_plantvillage
I0403 18:00:29.315538  6465 net.cpp:425] loss1/classifier_plantvillage <- loss1/fc
I0403 18:00:29.315559  6465 net.cpp:399] loss1/classifier_plantvillage -> loss1/classifier_plantvillage
I0403 18:00:29.316550  6465 net.cpp:141] Setting up loss1/classifier_plantvillage
I0403 18:00:29.316578  6465 net.cpp:148] Top shape: 24 38 (912)
I0403 18:00:29.316594  6465 net.cpp:156] Memory required for data: 946192992
I0403 18:00:29.316613  6465 layer_factory.hpp:77] Creating layer loss1/classifier_plantvillage_loss1/classifier_plantvillage_0_split
I0403 18:00:29.316635  6465 net.cpp:91] Creating Layer loss1/classifier_plantvillage_loss1/classifier_plantvillage_0_split
I0403 18:00:29.316653  6465 net.cpp:425] loss1/classifier_plantvillage_loss1/classifier_plantvillage_0_split <- loss1/classifier_plantvillage
I0403 18:00:29.316671  6465 net.cpp:399] loss1/classifier_plantvillage_loss1/classifier_plantvillage_0_split -> loss1/classifier_plantvillage_loss1/classifier_plantvillage_0_split_0
I0403 18:00:29.316694  6465 net.cpp:399] loss1/classifier_plantvillage_loss1/classifier_plantvillage_0_split -> loss1/classifier_plantvillage_loss1/classifier_plantvillage_0_split_1
I0403 18:00:29.316715  6465 net.cpp:399] loss1/classifier_plantvillage_loss1/classifier_plantvillage_0_split -> loss1/classifier_plantvillage_loss1/classifier_plantvillage_0_split_2
I0403 18:00:29.316784  6465 net.cpp:141] Setting up loss1/classifier_plantvillage_loss1/classifier_plantvillage_0_split
I0403 18:00:29.316809  6465 net.cpp:148] Top shape: 24 38 (912)
I0403 18:00:29.316825  6465 net.cpp:148] Top shape: 24 38 (912)
I0403 18:00:29.316843  6465 net.cpp:148] Top shape: 24 38 (912)
I0403 18:00:29.316856  6465 net.cpp:156] Memory required for data: 946203936
I0403 18:00:29.316871  6465 layer_factory.hpp:77] Creating layer inception_4b/1x1
I0403 18:00:29.316895  6465 net.cpp:91] Creating Layer inception_4b/1x1
I0403 18:00:29.316937  6465 net.cpp:425] inception_4b/1x1 <- inception_4a/output_inception_4a/output_0_split_1
I0403 18:00:29.316965  6465 net.cpp:399] inception_4b/1x1 -> inception_4b/1x1
I0403 18:00:29.318745  6465 net.cpp:141] Setting up inception_4b/1x1
I0403 18:00:29.318775  6465 net.cpp:148] Top shape: 24 160 14 14 (752640)
I0403 18:00:29.318792  6465 net.cpp:156] Memory required for data: 949214496
I0403 18:00:29.318811  6465 layer_factory.hpp:77] Creating layer inception_4b/relu_1x1
I0403 18:00:29.318835  6465 net.cpp:91] Creating Layer inception_4b/relu_1x1
I0403 18:00:29.318850  6465 net.cpp:425] inception_4b/relu_1x1 <- inception_4b/1x1
I0403 18:00:29.318868  6465 net.cpp:386] inception_4b/relu_1x1 -> inception_4b/1x1 (in-place)
I0403 18:00:29.319062  6465 net.cpp:141] Setting up inception_4b/relu_1x1
I0403 18:00:29.319092  6465 net.cpp:148] Top shape: 24 160 14 14 (752640)
I0403 18:00:29.319108  6465 net.cpp:156] Memory required for data: 952225056
I0403 18:00:29.319123  6465 layer_factory.hpp:77] Creating layer inception_4b/3x3_reduce
I0403 18:00:29.319146  6465 net.cpp:91] Creating Layer inception_4b/3x3_reduce
I0403 18:00:29.319164  6465 net.cpp:425] inception_4b/3x3_reduce <- inception_4a/output_inception_4a/output_0_split_2
I0403 18:00:29.319185  6465 net.cpp:399] inception_4b/3x3_reduce -> inception_4b/3x3_reduce
I0403 18:00:29.320601  6465 net.cpp:141] Setting up inception_4b/3x3_reduce
I0403 18:00:29.320633  6465 net.cpp:148] Top shape: 24 112 14 14 (526848)
I0403 18:00:29.320650  6465 net.cpp:156] Memory required for data: 954332448
I0403 18:00:29.320672  6465 layer_factory.hpp:77] Creating layer inception_4b/relu_3x3_reduce
I0403 18:00:29.320690  6465 net.cpp:91] Creating Layer inception_4b/relu_3x3_reduce
I0403 18:00:29.320706  6465 net.cpp:425] inception_4b/relu_3x3_reduce <- inception_4b/3x3_reduce
I0403 18:00:29.320727  6465 net.cpp:386] inception_4b/relu_3x3_reduce -> inception_4b/3x3_reduce (in-place)
I0403 18:00:29.321020  6465 net.cpp:141] Setting up inception_4b/relu_3x3_reduce
I0403 18:00:29.321049  6465 net.cpp:148] Top shape: 24 112 14 14 (526848)
I0403 18:00:29.321068  6465 net.cpp:156] Memory required for data: 956439840
I0403 18:00:29.321084  6465 layer_factory.hpp:77] Creating layer inception_4b/3x3
I0403 18:00:29.321106  6465 net.cpp:91] Creating Layer inception_4b/3x3
I0403 18:00:29.321125  6465 net.cpp:425] inception_4b/3x3 <- inception_4b/3x3_reduce
I0403 18:00:29.321143  6465 net.cpp:399] inception_4b/3x3 -> inception_4b/3x3
I0403 18:00:29.324262  6465 net.cpp:141] Setting up inception_4b/3x3
I0403 18:00:29.324292  6465 net.cpp:148] Top shape: 24 224 14 14 (1053696)
I0403 18:00:29.324308  6465 net.cpp:156] Memory required for data: 960654624
I0403 18:00:29.324327  6465 layer_factory.hpp:77] Creating layer inception_4b/relu_3x3
I0403 18:00:29.324348  6465 net.cpp:91] Creating Layer inception_4b/relu_3x3
I0403 18:00:29.324367  6465 net.cpp:425] inception_4b/relu_3x3 <- inception_4b/3x3
I0403 18:00:29.324383  6465 net.cpp:386] inception_4b/relu_3x3 -> inception_4b/3x3 (in-place)
I0403 18:00:29.324570  6465 net.cpp:141] Setting up inception_4b/relu_3x3
I0403 18:00:29.324596  6465 net.cpp:148] Top shape: 24 224 14 14 (1053696)
I0403 18:00:29.324610  6465 net.cpp:156] Memory required for data: 964869408
I0403 18:00:29.324625  6465 layer_factory.hpp:77] Creating layer inception_4b/5x5_reduce
I0403 18:00:29.324651  6465 net.cpp:91] Creating Layer inception_4b/5x5_reduce
I0403 18:00:29.324671  6465 net.cpp:425] inception_4b/5x5_reduce <- inception_4a/output_inception_4a/output_0_split_3
I0403 18:00:29.324690  6465 net.cpp:399] inception_4b/5x5_reduce -> inception_4b/5x5_reduce
I0403 18:00:29.325804  6465 net.cpp:141] Setting up inception_4b/5x5_reduce
I0403 18:00:29.325831  6465 net.cpp:148] Top shape: 24 24 14 14 (112896)
I0403 18:00:29.325847  6465 net.cpp:156] Memory required for data: 965320992
I0403 18:00:29.325867  6465 layer_factory.hpp:77] Creating layer inception_4b/relu_5x5_reduce
I0403 18:00:29.325889  6465 net.cpp:91] Creating Layer inception_4b/relu_5x5_reduce
I0403 18:00:29.325920  6465 net.cpp:425] inception_4b/relu_5x5_reduce <- inception_4b/5x5_reduce
I0403 18:00:29.325938  6465 net.cpp:386] inception_4b/relu_5x5_reduce -> inception_4b/5x5_reduce (in-place)
I0403 18:00:29.326129  6465 net.cpp:141] Setting up inception_4b/relu_5x5_reduce
I0403 18:00:29.326154  6465 net.cpp:148] Top shape: 24 24 14 14 (112896)
I0403 18:00:29.326169  6465 net.cpp:156] Memory required for data: 965772576
I0403 18:00:29.326184  6465 layer_factory.hpp:77] Creating layer inception_4b/5x5
I0403 18:00:29.326215  6465 net.cpp:91] Creating Layer inception_4b/5x5
I0403 18:00:29.326236  6465 net.cpp:425] inception_4b/5x5 <- inception_4b/5x5_reduce
I0403 18:00:29.326256  6465 net.cpp:399] inception_4b/5x5 -> inception_4b/5x5
I0403 18:00:29.327571  6465 net.cpp:141] Setting up inception_4b/5x5
I0403 18:00:29.327600  6465 net.cpp:148] Top shape: 24 64 14 14 (301056)
I0403 18:00:29.327615  6465 net.cpp:156] Memory required for data: 966976800
I0403 18:00:29.327636  6465 layer_factory.hpp:77] Creating layer inception_4b/relu_5x5
I0403 18:00:29.327656  6465 net.cpp:91] Creating Layer inception_4b/relu_5x5
I0403 18:00:29.327684  6465 net.cpp:425] inception_4b/relu_5x5 <- inception_4b/5x5
I0403 18:00:29.327702  6465 net.cpp:386] inception_4b/relu_5x5 -> inception_4b/5x5 (in-place)
I0403 18:00:29.327998  6465 net.cpp:141] Setting up inception_4b/relu_5x5
I0403 18:00:29.328025  6465 net.cpp:148] Top shape: 24 64 14 14 (301056)
I0403 18:00:29.328042  6465 net.cpp:156] Memory required for data: 968181024
I0403 18:00:29.328057  6465 layer_factory.hpp:77] Creating layer inception_4b/pool
I0403 18:00:29.328078  6465 net.cpp:91] Creating Layer inception_4b/pool
I0403 18:00:29.328095  6465 net.cpp:425] inception_4b/pool <- inception_4a/output_inception_4a/output_0_split_4
I0403 18:00:29.328115  6465 net.cpp:399] inception_4b/pool -> inception_4b/pool
I0403 18:00:29.328183  6465 net.cpp:141] Setting up inception_4b/pool
I0403 18:00:29.328212  6465 net.cpp:148] Top shape: 24 512 14 14 (2408448)
I0403 18:00:29.328230  6465 net.cpp:156] Memory required for data: 977814816
I0403 18:00:29.328246  6465 layer_factory.hpp:77] Creating layer inception_4b/pool_proj
I0403 18:00:29.328269  6465 net.cpp:91] Creating Layer inception_4b/pool_proj
I0403 18:00:29.328287  6465 net.cpp:425] inception_4b/pool_proj <- inception_4b/pool
I0403 18:00:29.328310  6465 net.cpp:399] inception_4b/pool_proj -> inception_4b/pool_proj
I0403 18:00:29.329603  6465 net.cpp:141] Setting up inception_4b/pool_proj
I0403 18:00:29.329634  6465 net.cpp:148] Top shape: 24 64 14 14 (301056)
I0403 18:00:29.329651  6465 net.cpp:156] Memory required for data: 979019040
I0403 18:00:29.329670  6465 layer_factory.hpp:77] Creating layer inception_4b/relu_pool_proj
I0403 18:00:29.329689  6465 net.cpp:91] Creating Layer inception_4b/relu_pool_proj
I0403 18:00:29.329704  6465 net.cpp:425] inception_4b/relu_pool_proj <- inception_4b/pool_proj
I0403 18:00:29.329721  6465 net.cpp:386] inception_4b/relu_pool_proj -> inception_4b/pool_proj (in-place)
I0403 18:00:29.329908  6465 net.cpp:141] Setting up inception_4b/relu_pool_proj
I0403 18:00:29.329933  6465 net.cpp:148] Top shape: 24 64 14 14 (301056)
I0403 18:00:29.329948  6465 net.cpp:156] Memory required for data: 980223264
I0403 18:00:29.329963  6465 layer_factory.hpp:77] Creating layer inception_4b/output
I0403 18:00:29.329980  6465 net.cpp:91] Creating Layer inception_4b/output
I0403 18:00:29.329996  6465 net.cpp:425] inception_4b/output <- inception_4b/1x1
I0403 18:00:29.330013  6465 net.cpp:425] inception_4b/output <- inception_4b/3x3
I0403 18:00:29.330029  6465 net.cpp:425] inception_4b/output <- inception_4b/5x5
I0403 18:00:29.330044  6465 net.cpp:425] inception_4b/output <- inception_4b/pool_proj
I0403 18:00:29.330063  6465 net.cpp:399] inception_4b/output -> inception_4b/output
I0403 18:00:29.330111  6465 net.cpp:141] Setting up inception_4b/output
I0403 18:00:29.330133  6465 net.cpp:148] Top shape: 24 512 14 14 (2408448)
I0403 18:00:29.330148  6465 net.cpp:156] Memory required for data: 989857056
I0403 18:00:29.330181  6465 layer_factory.hpp:77] Creating layer inception_4b/output_inception_4b/output_0_split
I0403 18:00:29.330201  6465 net.cpp:91] Creating Layer inception_4b/output_inception_4b/output_0_split
I0403 18:00:29.330225  6465 net.cpp:425] inception_4b/output_inception_4b/output_0_split <- inception_4b/output
I0403 18:00:29.330245  6465 net.cpp:399] inception_4b/output_inception_4b/output_0_split -> inception_4b/output_inception_4b/output_0_split_0
I0403 18:00:29.330268  6465 net.cpp:399] inception_4b/output_inception_4b/output_0_split -> inception_4b/output_inception_4b/output_0_split_1
I0403 18:00:29.330302  6465 net.cpp:399] inception_4b/output_inception_4b/output_0_split -> inception_4b/output_inception_4b/output_0_split_2
I0403 18:00:29.330323  6465 net.cpp:399] inception_4b/output_inception_4b/output_0_split -> inception_4b/output_inception_4b/output_0_split_3
I0403 18:00:29.330410  6465 net.cpp:141] Setting up inception_4b/output_inception_4b/output_0_split
I0403 18:00:29.330432  6465 net.cpp:148] Top shape: 24 512 14 14 (2408448)
I0403 18:00:29.330449  6465 net.cpp:148] Top shape: 24 512 14 14 (2408448)
I0403 18:00:29.330466  6465 net.cpp:148] Top shape: 24 512 14 14 (2408448)
I0403 18:00:29.330482  6465 net.cpp:148] Top shape: 24 512 14 14 (2408448)
I0403 18:00:29.330497  6465 net.cpp:156] Memory required for data: 1028392224
I0403 18:00:29.330513  6465 layer_factory.hpp:77] Creating layer inception_4c/1x1
I0403 18:00:29.330534  6465 net.cpp:91] Creating Layer inception_4c/1x1
I0403 18:00:29.330552  6465 net.cpp:425] inception_4c/1x1 <- inception_4b/output_inception_4b/output_0_split_0
I0403 18:00:29.330585  6465 net.cpp:399] inception_4c/1x1 -> inception_4c/1x1
I0403 18:00:29.332072  6465 net.cpp:141] Setting up inception_4c/1x1
I0403 18:00:29.332101  6465 net.cpp:148] Top shape: 24 128 14 14 (602112)
I0403 18:00:29.332118  6465 net.cpp:156] Memory required for data: 1030800672
I0403 18:00:29.332139  6465 layer_factory.hpp:77] Creating layer inception_4c/relu_1x1
I0403 18:00:29.332156  6465 net.cpp:91] Creating Layer inception_4c/relu_1x1
I0403 18:00:29.332173  6465 net.cpp:425] inception_4c/relu_1x1 <- inception_4c/1x1
I0403 18:00:29.332193  6465 net.cpp:386] inception_4c/relu_1x1 -> inception_4c/1x1 (in-place)
I0403 18:00:29.332398  6465 net.cpp:141] Setting up inception_4c/relu_1x1
I0403 18:00:29.332424  6465 net.cpp:148] Top shape: 24 128 14 14 (602112)
I0403 18:00:29.332439  6465 net.cpp:156] Memory required for data: 1033209120
I0403 18:00:29.332455  6465 layer_factory.hpp:77] Creating layer inception_4c/3x3_reduce
I0403 18:00:29.332479  6465 net.cpp:91] Creating Layer inception_4c/3x3_reduce
I0403 18:00:29.332496  6465 net.cpp:425] inception_4c/3x3_reduce <- inception_4b/output_inception_4b/output_0_split_1
I0403 18:00:29.332518  6465 net.cpp:399] inception_4c/3x3_reduce -> inception_4c/3x3_reduce
I0403 18:00:29.334597  6465 net.cpp:141] Setting up inception_4c/3x3_reduce
I0403 18:00:29.334628  6465 net.cpp:148] Top shape: 24 128 14 14 (602112)
I0403 18:00:29.334645  6465 net.cpp:156] Memory required for data: 1035617568
I0403 18:00:29.334663  6465 layer_factory.hpp:77] Creating layer inception_4c/relu_3x3_reduce
I0403 18:00:29.334686  6465 net.cpp:91] Creating Layer inception_4c/relu_3x3_reduce
I0403 18:00:29.334702  6465 net.cpp:425] inception_4c/relu_3x3_reduce <- inception_4c/3x3_reduce
I0403 18:00:29.334722  6465 net.cpp:386] inception_4c/relu_3x3_reduce -> inception_4c/3x3_reduce (in-place)
I0403 18:00:29.335019  6465 net.cpp:141] Setting up inception_4c/relu_3x3_reduce
I0403 18:00:29.335047  6465 net.cpp:148] Top shape: 24 128 14 14 (602112)
I0403 18:00:29.335063  6465 net.cpp:156] Memory required for data: 1038026016
I0403 18:00:29.335078  6465 layer_factory.hpp:77] Creating layer inception_4c/3x3
I0403 18:00:29.335103  6465 net.cpp:91] Creating Layer inception_4c/3x3
I0403 18:00:29.335121  6465 net.cpp:425] inception_4c/3x3 <- inception_4c/3x3_reduce
I0403 18:00:29.335145  6465 net.cpp:399] inception_4c/3x3 -> inception_4c/3x3
I0403 18:00:29.338938  6465 net.cpp:141] Setting up inception_4c/3x3
I0403 18:00:29.338986  6465 net.cpp:148] Top shape: 24 256 14 14 (1204224)
I0403 18:00:29.339005  6465 net.cpp:156] Memory required for data: 1042842912
I0403 18:00:29.339038  6465 layer_factory.hpp:77] Creating layer inception_4c/relu_3x3
I0403 18:00:29.339061  6465 net.cpp:91] Creating Layer inception_4c/relu_3x3
I0403 18:00:29.339078  6465 net.cpp:425] inception_4c/relu_3x3 <- inception_4c/3x3
I0403 18:00:29.339097  6465 net.cpp:386] inception_4c/relu_3x3 -> inception_4c/3x3 (in-place)
I0403 18:00:29.339295  6465 net.cpp:141] Setting up inception_4c/relu_3x3
I0403 18:00:29.339323  6465 net.cpp:148] Top shape: 24 256 14 14 (1204224)
I0403 18:00:29.339337  6465 net.cpp:156] Memory required for data: 1047659808
I0403 18:00:29.339352  6465 layer_factory.hpp:77] Creating layer inception_4c/5x5_reduce
I0403 18:00:29.339380  6465 net.cpp:91] Creating Layer inception_4c/5x5_reduce
I0403 18:00:29.339397  6465 net.cpp:425] inception_4c/5x5_reduce <- inception_4b/output_inception_4b/output_0_split_2
I0403 18:00:29.339417  6465 net.cpp:399] inception_4c/5x5_reduce -> inception_4c/5x5_reduce
I0403 18:00:29.340564  6465 net.cpp:141] Setting up inception_4c/5x5_reduce
I0403 18:00:29.340592  6465 net.cpp:148] Top shape: 24 24 14 14 (112896)
I0403 18:00:29.340610  6465 net.cpp:156] Memory required for data: 1048111392
I0403 18:00:29.340629  6465 layer_factory.hpp:77] Creating layer inception_4c/relu_5x5_reduce
I0403 18:00:29.340651  6465 net.cpp:91] Creating Layer inception_4c/relu_5x5_reduce
I0403 18:00:29.340668  6465 net.cpp:425] inception_4c/relu_5x5_reduce <- inception_4c/5x5_reduce
I0403 18:00:29.340687  6465 net.cpp:386] inception_4c/relu_5x5_reduce -> inception_4c/5x5_reduce (in-place)
I0403 18:00:29.340885  6465 net.cpp:141] Setting up inception_4c/relu_5x5_reduce
I0403 18:00:29.340910  6465 net.cpp:148] Top shape: 24 24 14 14 (112896)
I0403 18:00:29.340926  6465 net.cpp:156] Memory required for data: 1048562976
I0403 18:00:29.340941  6465 layer_factory.hpp:77] Creating layer inception_4c/5x5
I0403 18:00:29.340965  6465 net.cpp:91] Creating Layer inception_4c/5x5
I0403 18:00:29.340983  6465 net.cpp:425] inception_4c/5x5 <- inception_4c/5x5_reduce
I0403 18:00:29.341006  6465 net.cpp:399] inception_4c/5x5 -> inception_4c/5x5
I0403 18:00:29.342373  6465 net.cpp:141] Setting up inception_4c/5x5
I0403 18:00:29.342406  6465 net.cpp:148] Top shape: 24 64 14 14 (301056)
I0403 18:00:29.342424  6465 net.cpp:156] Memory required for data: 1049767200
I0403 18:00:29.342444  6465 layer_factory.hpp:77] Creating layer inception_4c/relu_5x5
I0403 18:00:29.342464  6465 net.cpp:91] Creating Layer inception_4c/relu_5x5
I0403 18:00:29.342483  6465 net.cpp:425] inception_4c/relu_5x5 <- inception_4c/5x5
I0403 18:00:29.342502  6465 net.cpp:386] inception_4c/relu_5x5 -> inception_4c/5x5 (in-place)
I0403 18:00:29.342819  6465 net.cpp:141] Setting up inception_4c/relu_5x5
I0403 18:00:29.342849  6465 net.cpp:148] Top shape: 24 64 14 14 (301056)
I0403 18:00:29.342866  6465 net.cpp:156] Memory required for data: 1050971424
I0403 18:00:29.342881  6465 layer_factory.hpp:77] Creating layer inception_4c/pool
I0403 18:00:29.342900  6465 net.cpp:91] Creating Layer inception_4c/pool
I0403 18:00:29.342916  6465 net.cpp:425] inception_4c/pool <- inception_4b/output_inception_4b/output_0_split_3
I0403 18:00:29.342937  6465 net.cpp:399] inception_4c/pool -> inception_4c/pool
I0403 18:00:29.343005  6465 net.cpp:141] Setting up inception_4c/pool
I0403 18:00:29.343032  6465 net.cpp:148] Top shape: 24 512 14 14 (2408448)
I0403 18:00:29.343050  6465 net.cpp:156] Memory required for data: 1060605216
I0403 18:00:29.343065  6465 layer_factory.hpp:77] Creating layer inception_4c/pool_proj
I0403 18:00:29.343088  6465 net.cpp:91] Creating Layer inception_4c/pool_proj
I0403 18:00:29.343106  6465 net.cpp:425] inception_4c/pool_proj <- inception_4c/pool
I0403 18:00:29.343127  6465 net.cpp:399] inception_4c/pool_proj -> inception_4c/pool_proj
I0403 18:00:29.344409  6465 net.cpp:141] Setting up inception_4c/pool_proj
I0403 18:00:29.344442  6465 net.cpp:148] Top shape: 24 64 14 14 (301056)
I0403 18:00:29.344472  6465 net.cpp:156] Memory required for data: 1061809440
I0403 18:00:29.344494  6465 layer_factory.hpp:77] Creating layer inception_4c/relu_pool_proj
I0403 18:00:29.344512  6465 net.cpp:91] Creating Layer inception_4c/relu_pool_proj
I0403 18:00:29.344529  6465 net.cpp:425] inception_4c/relu_pool_proj <- inception_4c/pool_proj
I0403 18:00:29.344548  6465 net.cpp:386] inception_4c/relu_pool_proj -> inception_4c/pool_proj (in-place)
I0403 18:00:29.344743  6465 net.cpp:141] Setting up inception_4c/relu_pool_proj
I0403 18:00:29.344770  6465 net.cpp:148] Top shape: 24 64 14 14 (301056)
I0403 18:00:29.344786  6465 net.cpp:156] Memory required for data: 1063013664
I0403 18:00:29.344801  6465 layer_factory.hpp:77] Creating layer inception_4c/output
I0403 18:00:29.344820  6465 net.cpp:91] Creating Layer inception_4c/output
I0403 18:00:29.344835  6465 net.cpp:425] inception_4c/output <- inception_4c/1x1
I0403 18:00:29.344853  6465 net.cpp:425] inception_4c/output <- inception_4c/3x3
I0403 18:00:29.344869  6465 net.cpp:425] inception_4c/output <- inception_4c/5x5
I0403 18:00:29.344885  6465 net.cpp:425] inception_4c/output <- inception_4c/pool_proj
I0403 18:00:29.344904  6465 net.cpp:399] inception_4c/output -> inception_4c/output
I0403 18:00:29.344954  6465 net.cpp:141] Setting up inception_4c/output
I0403 18:00:29.344977  6465 net.cpp:148] Top shape: 24 512 14 14 (2408448)
I0403 18:00:29.344992  6465 net.cpp:156] Memory required for data: 1072647456
I0403 18:00:29.345007  6465 layer_factory.hpp:77] Creating layer inception_4c/output_inception_4c/output_0_split
I0403 18:00:29.345028  6465 net.cpp:91] Creating Layer inception_4c/output_inception_4c/output_0_split
I0403 18:00:29.345046  6465 net.cpp:425] inception_4c/output_inception_4c/output_0_split <- inception_4c/output
I0403 18:00:29.345063  6465 net.cpp:399] inception_4c/output_inception_4c/output_0_split -> inception_4c/output_inception_4c/output_0_split_0
I0403 18:00:29.345085  6465 net.cpp:399] inception_4c/output_inception_4c/output_0_split -> inception_4c/output_inception_4c/output_0_split_1
I0403 18:00:29.345111  6465 net.cpp:399] inception_4c/output_inception_4c/output_0_split -> inception_4c/output_inception_4c/output_0_split_2
I0403 18:00:29.345132  6465 net.cpp:399] inception_4c/output_inception_4c/output_0_split -> inception_4c/output_inception_4c/output_0_split_3
I0403 18:00:29.345227  6465 net.cpp:141] Setting up inception_4c/output_inception_4c/output_0_split
I0403 18:00:29.345252  6465 net.cpp:148] Top shape: 24 512 14 14 (2408448)
I0403 18:00:29.345268  6465 net.cpp:148] Top shape: 24 512 14 14 (2408448)
I0403 18:00:29.345299  6465 net.cpp:148] Top shape: 24 512 14 14 (2408448)
I0403 18:00:29.345315  6465 net.cpp:148] Top shape: 24 512 14 14 (2408448)
I0403 18:00:29.345330  6465 net.cpp:156] Memory required for data: 1111182624
I0403 18:00:29.345346  6465 layer_factory.hpp:77] Creating layer inception_4d/1x1
I0403 18:00:29.345369  6465 net.cpp:91] Creating Layer inception_4d/1x1
I0403 18:00:29.345389  6465 net.cpp:425] inception_4d/1x1 <- inception_4c/output_inception_4c/output_0_split_0
I0403 18:00:29.345412  6465 net.cpp:399] inception_4d/1x1 -> inception_4d/1x1
I0403 18:00:29.346909  6465 net.cpp:141] Setting up inception_4d/1x1
I0403 18:00:29.346938  6465 net.cpp:148] Top shape: 24 112 14 14 (526848)
I0403 18:00:29.346956  6465 net.cpp:156] Memory required for data: 1113290016
I0403 18:00:29.346974  6465 layer_factory.hpp:77] Creating layer inception_4d/relu_1x1
I0403 18:00:29.346999  6465 net.cpp:91] Creating Layer inception_4d/relu_1x1
I0403 18:00:29.347018  6465 net.cpp:425] inception_4d/relu_1x1 <- inception_4d/1x1
I0403 18:00:29.347036  6465 net.cpp:386] inception_4d/relu_1x1 -> inception_4d/1x1 (in-place)
I0403 18:00:29.347239  6465 net.cpp:141] Setting up inception_4d/relu_1x1
I0403 18:00:29.347265  6465 net.cpp:148] Top shape: 24 112 14 14 (526848)
I0403 18:00:29.347280  6465 net.cpp:156] Memory required for data: 1115397408
I0403 18:00:29.347295  6465 layer_factory.hpp:77] Creating layer inception_4d/3x3_reduce
I0403 18:00:29.347333  6465 net.cpp:91] Creating Layer inception_4d/3x3_reduce
I0403 18:00:29.347352  6465 net.cpp:425] inception_4d/3x3_reduce <- inception_4c/output_inception_4c/output_0_split_1
I0403 18:00:29.347373  6465 net.cpp:399] inception_4d/3x3_reduce -> inception_4d/3x3_reduce
I0403 18:00:29.348953  6465 net.cpp:141] Setting up inception_4d/3x3_reduce
I0403 18:00:29.348981  6465 net.cpp:148] Top shape: 24 144 14 14 (677376)
I0403 18:00:29.348999  6465 net.cpp:156] Memory required for data: 1118106912
I0403 18:00:29.349016  6465 layer_factory.hpp:77] Creating layer inception_4d/relu_3x3_reduce
I0403 18:00:29.349036  6465 net.cpp:91] Creating Layer inception_4d/relu_3x3_reduce
I0403 18:00:29.349053  6465 net.cpp:425] inception_4d/relu_3x3_reduce <- inception_4d/3x3_reduce
I0403 18:00:29.349073  6465 net.cpp:386] inception_4d/relu_3x3_reduce -> inception_4d/3x3_reduce (in-place)
I0403 18:00:29.349380  6465 net.cpp:141] Setting up inception_4d/relu_3x3_reduce
I0403 18:00:29.349407  6465 net.cpp:148] Top shape: 24 144 14 14 (677376)
I0403 18:00:29.349424  6465 net.cpp:156] Memory required for data: 1120816416
I0403 18:00:29.349439  6465 layer_factory.hpp:77] Creating layer inception_4d/3x3
I0403 18:00:29.349462  6465 net.cpp:91] Creating Layer inception_4d/3x3
I0403 18:00:29.349480  6465 net.cpp:425] inception_4d/3x3 <- inception_4d/3x3_reduce
I0403 18:00:29.349503  6465 net.cpp:399] inception_4d/3x3 -> inception_4d/3x3
I0403 18:00:29.353984  6465 net.cpp:141] Setting up inception_4d/3x3
I0403 18:00:29.354014  6465 net.cpp:148] Top shape: 24 288 14 14 (1354752)
I0403 18:00:29.354030  6465 net.cpp:156] Memory required for data: 1126235424
I0403 18:00:29.354049  6465 layer_factory.hpp:77] Creating layer inception_4d/relu_3x3
I0403 18:00:29.354069  6465 net.cpp:91] Creating Layer inception_4d/relu_3x3
I0403 18:00:29.354086  6465 net.cpp:425] inception_4d/relu_3x3 <- inception_4d/3x3
I0403 18:00:29.354104  6465 net.cpp:386] inception_4d/relu_3x3 -> inception_4d/3x3 (in-place)
I0403 18:00:29.354310  6465 net.cpp:141] Setting up inception_4d/relu_3x3
I0403 18:00:29.354342  6465 net.cpp:148] Top shape: 24 288 14 14 (1354752)
I0403 18:00:29.354359  6465 net.cpp:156] Memory required for data: 1131654432
I0403 18:00:29.354374  6465 layer_factory.hpp:77] Creating layer inception_4d/5x5_reduce
I0403 18:00:29.354398  6465 net.cpp:91] Creating Layer inception_4d/5x5_reduce
I0403 18:00:29.354415  6465 net.cpp:425] inception_4d/5x5_reduce <- inception_4c/output_inception_4c/output_0_split_2
I0403 18:00:29.354436  6465 net.cpp:399] inception_4d/5x5_reduce -> inception_4d/5x5_reduce
I0403 18:00:29.355639  6465 net.cpp:141] Setting up inception_4d/5x5_reduce
I0403 18:00:29.355667  6465 net.cpp:148] Top shape: 24 32 14 14 (150528)
I0403 18:00:29.355682  6465 net.cpp:156] Memory required for data: 1132256544
I0403 18:00:29.355701  6465 layer_factory.hpp:77] Creating layer inception_4d/relu_5x5_reduce
I0403 18:00:29.355722  6465 net.cpp:91] Creating Layer inception_4d/relu_5x5_reduce
I0403 18:00:29.355738  6465 net.cpp:425] inception_4d/relu_5x5_reduce <- inception_4d/5x5_reduce
I0403 18:00:29.355756  6465 net.cpp:386] inception_4d/relu_5x5_reduce -> inception_4d/5x5_reduce (in-place)
I0403 18:00:29.355950  6465 net.cpp:141] Setting up inception_4d/relu_5x5_reduce
I0403 18:00:29.355975  6465 net.cpp:148] Top shape: 24 32 14 14 (150528)
I0403 18:00:29.355990  6465 net.cpp:156] Memory required for data: 1132858656
I0403 18:00:29.356005  6465 layer_factory.hpp:77] Creating layer inception_4d/5x5
I0403 18:00:29.356029  6465 net.cpp:91] Creating Layer inception_4d/5x5
I0403 18:00:29.356048  6465 net.cpp:425] inception_4d/5x5 <- inception_4d/5x5_reduce
I0403 18:00:29.356067  6465 net.cpp:399] inception_4d/5x5 -> inception_4d/5x5
I0403 18:00:29.357568  6465 net.cpp:141] Setting up inception_4d/5x5
I0403 18:00:29.357599  6465 net.cpp:148] Top shape: 24 64 14 14 (301056)
I0403 18:00:29.357615  6465 net.cpp:156] Memory required for data: 1134062880
I0403 18:00:29.357636  6465 layer_factory.hpp:77] Creating layer inception_4d/relu_5x5
I0403 18:00:29.357668  6465 net.cpp:91] Creating Layer inception_4d/relu_5x5
I0403 18:00:29.357686  6465 net.cpp:425] inception_4d/relu_5x5 <- inception_4d/5x5
I0403 18:00:29.357705  6465 net.cpp:386] inception_4d/relu_5x5 -> inception_4d/5x5 (in-place)
I0403 18:00:29.358007  6465 net.cpp:141] Setting up inception_4d/relu_5x5
I0403 18:00:29.358036  6465 net.cpp:148] Top shape: 24 64 14 14 (301056)
I0403 18:00:29.358052  6465 net.cpp:156] Memory required for data: 1135267104
I0403 18:00:29.358067  6465 layer_factory.hpp:77] Creating layer inception_4d/pool
I0403 18:00:29.358084  6465 net.cpp:91] Creating Layer inception_4d/pool
I0403 18:00:29.358100  6465 net.cpp:425] inception_4d/pool <- inception_4c/output_inception_4c/output_0_split_3
I0403 18:00:29.358124  6465 net.cpp:399] inception_4d/pool -> inception_4d/pool
I0403 18:00:29.358191  6465 net.cpp:141] Setting up inception_4d/pool
I0403 18:00:29.358219  6465 net.cpp:148] Top shape: 24 512 14 14 (2408448)
I0403 18:00:29.358235  6465 net.cpp:156] Memory required for data: 1144900896
I0403 18:00:29.358250  6465 layer_factory.hpp:77] Creating layer inception_4d/pool_proj
I0403 18:00:29.358273  6465 net.cpp:91] Creating Layer inception_4d/pool_proj
I0403 18:00:29.358304  6465 net.cpp:425] inception_4d/pool_proj <- inception_4d/pool
I0403 18:00:29.358326  6465 net.cpp:399] inception_4d/pool_proj -> inception_4d/pool_proj
I0403 18:00:29.360153  6465 net.cpp:141] Setting up inception_4d/pool_proj
I0403 18:00:29.360183  6465 net.cpp:148] Top shape: 24 64 14 14 (301056)
I0403 18:00:29.360198  6465 net.cpp:156] Memory required for data: 1146105120
I0403 18:00:29.360224  6465 layer_factory.hpp:77] Creating layer inception_4d/relu_pool_proj
I0403 18:00:29.360245  6465 net.cpp:91] Creating Layer inception_4d/relu_pool_proj
I0403 18:00:29.360263  6465 net.cpp:425] inception_4d/relu_pool_proj <- inception_4d/pool_proj
I0403 18:00:29.360280  6465 net.cpp:386] inception_4d/relu_pool_proj -> inception_4d/pool_proj (in-place)
I0403 18:00:29.360469  6465 net.cpp:141] Setting up inception_4d/relu_pool_proj
I0403 18:00:29.360497  6465 net.cpp:148] Top shape: 24 64 14 14 (301056)
I0403 18:00:29.360513  6465 net.cpp:156] Memory required for data: 1147309344
I0403 18:00:29.360528  6465 layer_factory.hpp:77] Creating layer inception_4d/output
I0403 18:00:29.360546  6465 net.cpp:91] Creating Layer inception_4d/output
I0403 18:00:29.360563  6465 net.cpp:425] inception_4d/output <- inception_4d/1x1
I0403 18:00:29.360579  6465 net.cpp:425] inception_4d/output <- inception_4d/3x3
I0403 18:00:29.360595  6465 net.cpp:425] inception_4d/output <- inception_4d/5x5
I0403 18:00:29.360611  6465 net.cpp:425] inception_4d/output <- inception_4d/pool_proj
I0403 18:00:29.360628  6465 net.cpp:399] inception_4d/output -> inception_4d/output
I0403 18:00:29.360678  6465 net.cpp:141] Setting up inception_4d/output
I0403 18:00:29.360702  6465 net.cpp:148] Top shape: 24 528 14 14 (2483712)
I0403 18:00:29.360718  6465 net.cpp:156] Memory required for data: 1157244192
I0403 18:00:29.360733  6465 layer_factory.hpp:77] Creating layer inception_4d/output_inception_4d/output_0_split
I0403 18:00:29.360754  6465 net.cpp:91] Creating Layer inception_4d/output_inception_4d/output_0_split
I0403 18:00:29.360769  6465 net.cpp:425] inception_4d/output_inception_4d/output_0_split <- inception_4d/output
I0403 18:00:29.360787  6465 net.cpp:399] inception_4d/output_inception_4d/output_0_split -> inception_4d/output_inception_4d/output_0_split_0
I0403 18:00:29.360808  6465 net.cpp:399] inception_4d/output_inception_4d/output_0_split -> inception_4d/output_inception_4d/output_0_split_1
I0403 18:00:29.360829  6465 net.cpp:399] inception_4d/output_inception_4d/output_0_split -> inception_4d/output_inception_4d/output_0_split_2
I0403 18:00:29.360852  6465 net.cpp:399] inception_4d/output_inception_4d/output_0_split -> inception_4d/output_inception_4d/output_0_split_3
I0403 18:00:29.360874  6465 net.cpp:399] inception_4d/output_inception_4d/output_0_split -> inception_4d/output_inception_4d/output_0_split_4
I0403 18:00:29.360980  6465 net.cpp:141] Setting up inception_4d/output_inception_4d/output_0_split
I0403 18:00:29.361016  6465 net.cpp:148] Top shape: 24 528 14 14 (2483712)
I0403 18:00:29.361034  6465 net.cpp:148] Top shape: 24 528 14 14 (2483712)
I0403 18:00:29.361049  6465 net.cpp:148] Top shape: 24 528 14 14 (2483712)
I0403 18:00:29.361065  6465 net.cpp:148] Top shape: 24 528 14 14 (2483712)
I0403 18:00:29.361081  6465 net.cpp:148] Top shape: 24 528 14 14 (2483712)
I0403 18:00:29.361095  6465 net.cpp:156] Memory required for data: 1206918432
I0403 18:00:29.361109  6465 layer_factory.hpp:77] Creating layer loss2/ave_pool
I0403 18:00:29.361132  6465 net.cpp:91] Creating Layer loss2/ave_pool
I0403 18:00:29.361150  6465 net.cpp:425] loss2/ave_pool <- inception_4d/output_inception_4d/output_0_split_0
I0403 18:00:29.361167  6465 net.cpp:399] loss2/ave_pool -> loss2/ave_pool
I0403 18:00:29.361510  6465 net.cpp:141] Setting up loss2/ave_pool
I0403 18:00:29.361537  6465 net.cpp:148] Top shape: 24 528 4 4 (202752)
I0403 18:00:29.361553  6465 net.cpp:156] Memory required for data: 1207729440
I0403 18:00:29.361582  6465 layer_factory.hpp:77] Creating layer loss2/conv
I0403 18:00:29.361604  6465 net.cpp:91] Creating Layer loss2/conv
I0403 18:00:29.361623  6465 net.cpp:425] loss2/conv <- loss2/ave_pool
I0403 18:00:29.361644  6465 net.cpp:399] loss2/conv -> loss2/conv
I0403 18:00:29.363616  6465 net.cpp:141] Setting up loss2/conv
I0403 18:00:29.363647  6465 net.cpp:148] Top shape: 24 128 4 4 (49152)
I0403 18:00:29.363665  6465 net.cpp:156] Memory required for data: 1207926048
I0403 18:00:29.363684  6465 layer_factory.hpp:77] Creating layer loss2/relu_conv
I0403 18:00:29.363704  6465 net.cpp:91] Creating Layer loss2/relu_conv
I0403 18:00:29.363723  6465 net.cpp:425] loss2/relu_conv <- loss2/conv
I0403 18:00:29.363742  6465 net.cpp:386] loss2/relu_conv -> loss2/conv (in-place)
I0403 18:00:29.364032  6465 net.cpp:141] Setting up loss2/relu_conv
I0403 18:00:29.364060  6465 net.cpp:148] Top shape: 24 128 4 4 (49152)
I0403 18:00:29.364078  6465 net.cpp:156] Memory required for data: 1208122656
I0403 18:00:29.364094  6465 layer_factory.hpp:77] Creating layer loss2/fc
I0403 18:00:29.364114  6465 net.cpp:91] Creating Layer loss2/fc
I0403 18:00:29.364130  6465 net.cpp:425] loss2/fc <- loss2/conv
I0403 18:00:29.364151  6465 net.cpp:399] loss2/fc -> loss2/fc
I0403 18:00:29.382886  6465 net.cpp:141] Setting up loss2/fc
I0403 18:00:29.382958  6465 net.cpp:148] Top shape: 24 1024 (24576)
I0403 18:00:29.382975  6465 net.cpp:156] Memory required for data: 1208220960
I0403 18:00:29.382997  6465 layer_factory.hpp:77] Creating layer loss2/relu_fc
I0403 18:00:29.383018  6465 net.cpp:91] Creating Layer loss2/relu_fc
I0403 18:00:29.383035  6465 net.cpp:425] loss2/relu_fc <- loss2/fc
I0403 18:00:29.383054  6465 net.cpp:386] loss2/relu_fc -> loss2/fc (in-place)
I0403 18:00:29.383453  6465 net.cpp:141] Setting up loss2/relu_fc
I0403 18:00:29.383481  6465 net.cpp:148] Top shape: 24 1024 (24576)
I0403 18:00:29.383497  6465 net.cpp:156] Memory required for data: 1208319264
I0403 18:00:29.383513  6465 layer_factory.hpp:77] Creating layer loss2/drop_fc
I0403 18:00:29.383535  6465 net.cpp:91] Creating Layer loss2/drop_fc
I0403 18:00:29.383566  6465 net.cpp:425] loss2/drop_fc <- loss2/fc
I0403 18:00:29.383584  6465 net.cpp:386] loss2/drop_fc -> loss2/fc (in-place)
I0403 18:00:29.383637  6465 net.cpp:141] Setting up loss2/drop_fc
I0403 18:00:29.383661  6465 net.cpp:148] Top shape: 24 1024 (24576)
I0403 18:00:29.383677  6465 net.cpp:156] Memory required for data: 1208417568
I0403 18:00:29.383692  6465 layer_factory.hpp:77] Creating layer loss2/classifier_plantvillage
I0403 18:00:29.383714  6465 net.cpp:91] Creating Layer loss2/classifier_plantvillage
I0403 18:00:29.383731  6465 net.cpp:425] loss2/classifier_plantvillage <- loss2/fc
I0403 18:00:29.383750  6465 net.cpp:399] loss2/classifier_plantvillage -> loss2/classifier_plantvillage
I0403 18:00:29.384174  6465 net.cpp:141] Setting up loss2/classifier_plantvillage
I0403 18:00:29.384202  6465 net.cpp:148] Top shape: 24 38 (912)
I0403 18:00:29.384249  6465 net.cpp:156] Memory required for data: 1208421216
I0403 18:00:29.384270  6465 layer_factory.hpp:77] Creating layer loss2/classifier_plantvillage_loss2/classifier_plantvillage_0_split
I0403 18:00:29.384289  6465 net.cpp:91] Creating Layer loss2/classifier_plantvillage_loss2/classifier_plantvillage_0_split
I0403 18:00:29.384307  6465 net.cpp:425] loss2/classifier_plantvillage_loss2/classifier_plantvillage_0_split <- loss2/classifier_plantvillage
I0403 18:00:29.384328  6465 net.cpp:399] loss2/classifier_plantvillage_loss2/classifier_plantvillage_0_split -> loss2/classifier_plantvillage_loss2/classifier_plantvillage_0_split_0
I0403 18:00:29.384351  6465 net.cpp:399] loss2/classifier_plantvillage_loss2/classifier_plantvillage_0_split -> loss2/classifier_plantvillage_loss2/classifier_plantvillage_0_split_1
I0403 18:00:29.384373  6465 net.cpp:399] loss2/classifier_plantvillage_loss2/classifier_plantvillage_0_split -> loss2/classifier_plantvillage_loss2/classifier_plantvillage_0_split_2
I0403 18:00:29.384454  6465 net.cpp:141] Setting up loss2/classifier_plantvillage_loss2/classifier_plantvillage_0_split
I0403 18:00:29.384481  6465 net.cpp:148] Top shape: 24 38 (912)
I0403 18:00:29.384500  6465 net.cpp:148] Top shape: 24 38 (912)
I0403 18:00:29.384516  6465 net.cpp:148] Top shape: 24 38 (912)
I0403 18:00:29.384531  6465 net.cpp:156] Memory required for data: 1208432160
I0403 18:00:29.384546  6465 layer_factory.hpp:77] Creating layer inception_4e/1x1
I0403 18:00:29.384569  6465 net.cpp:91] Creating Layer inception_4e/1x1
I0403 18:00:29.384588  6465 net.cpp:425] inception_4e/1x1 <- inception_4d/output_inception_4d/output_0_split_1
I0403 18:00:29.384608  6465 net.cpp:399] inception_4e/1x1 -> inception_4e/1x1
I0403 18:00:29.386639  6465 net.cpp:141] Setting up inception_4e/1x1
I0403 18:00:29.386672  6465 net.cpp:148] Top shape: 24 256 14 14 (1204224)
I0403 18:00:29.386692  6465 net.cpp:156] Memory required for data: 1213249056
I0403 18:00:29.386713  6465 layer_factory.hpp:77] Creating layer inception_4e/relu_1x1
I0403 18:00:29.386731  6465 net.cpp:91] Creating Layer inception_4e/relu_1x1
I0403 18:00:29.386749  6465 net.cpp:425] inception_4e/relu_1x1 <- inception_4e/1x1
I0403 18:00:29.386770  6465 net.cpp:386] inception_4e/relu_1x1 -> inception_4e/1x1 (in-place)
I0403 18:00:29.387096  6465 net.cpp:141] Setting up inception_4e/relu_1x1
I0403 18:00:29.387127  6465 net.cpp:148] Top shape: 24 256 14 14 (1204224)
I0403 18:00:29.387145  6465 net.cpp:156] Memory required for data: 1218065952
I0403 18:00:29.387162  6465 layer_factory.hpp:77] Creating layer inception_4e/3x3_reduce
I0403 18:00:29.387187  6465 net.cpp:91] Creating Layer inception_4e/3x3_reduce
I0403 18:00:29.387205  6465 net.cpp:425] inception_4e/3x3_reduce <- inception_4d/output_inception_4d/output_0_split_2
I0403 18:00:29.387231  6465 net.cpp:399] inception_4e/3x3_reduce -> inception_4e/3x3_reduce
I0403 18:00:29.389539  6465 net.cpp:141] Setting up inception_4e/3x3_reduce
I0403 18:00:29.389575  6465 net.cpp:148] Top shape: 24 160 14 14 (752640)
I0403 18:00:29.389592  6465 net.cpp:156] Memory required for data: 1221076512
I0403 18:00:29.389613  6465 layer_factory.hpp:77] Creating layer inception_4e/relu_3x3_reduce
I0403 18:00:29.389632  6465 net.cpp:91] Creating Layer inception_4e/relu_3x3_reduce
I0403 18:00:29.389649  6465 net.cpp:425] inception_4e/relu_3x3_reduce <- inception_4e/3x3_reduce
I0403 18:00:29.389667  6465 net.cpp:386] inception_4e/relu_3x3_reduce -> inception_4e/3x3_reduce (in-place)
I0403 18:00:29.389876  6465 net.cpp:141] Setting up inception_4e/relu_3x3_reduce
I0403 18:00:29.389904  6465 net.cpp:148] Top shape: 24 160 14 14 (752640)
I0403 18:00:29.389919  6465 net.cpp:156] Memory required for data: 1224087072
I0403 18:00:29.389935  6465 layer_factory.hpp:77] Creating layer inception_4e/3x3
I0403 18:00:29.389958  6465 net.cpp:91] Creating Layer inception_4e/3x3
I0403 18:00:29.389977  6465 net.cpp:425] inception_4e/3x3 <- inception_4e/3x3_reduce
I0403 18:00:29.390000  6465 net.cpp:399] inception_4e/3x3 -> inception_4e/3x3
I0403 18:00:29.395390  6465 net.cpp:141] Setting up inception_4e/3x3
I0403 18:00:29.395437  6465 net.cpp:148] Top shape: 24 320 14 14 (1505280)
I0403 18:00:29.395453  6465 net.cpp:156] Memory required for data: 1230108192
I0403 18:00:29.395473  6465 layer_factory.hpp:77] Creating layer inception_4e/relu_3x3
I0403 18:00:29.395493  6465 net.cpp:91] Creating Layer inception_4e/relu_3x3
I0403 18:00:29.395514  6465 net.cpp:425] inception_4e/relu_3x3 <- inception_4e/3x3
I0403 18:00:29.395532  6465 net.cpp:386] inception_4e/relu_3x3 -> inception_4e/3x3 (in-place)
I0403 18:00:29.395853  6465 net.cpp:141] Setting up inception_4e/relu_3x3
I0403 18:00:29.395882  6465 net.cpp:148] Top shape: 24 320 14 14 (1505280)
I0403 18:00:29.395898  6465 net.cpp:156] Memory required for data: 1236129312
I0403 18:00:29.395915  6465 layer_factory.hpp:77] Creating layer inception_4e/5x5_reduce
I0403 18:00:29.395938  6465 net.cpp:91] Creating Layer inception_4e/5x5_reduce
I0403 18:00:29.395956  6465 net.cpp:425] inception_4e/5x5_reduce <- inception_4d/output_inception_4d/output_0_split_3
I0403 18:00:29.395979  6465 net.cpp:399] inception_4e/5x5_reduce -> inception_4e/5x5_reduce
I0403 18:00:29.397155  6465 net.cpp:141] Setting up inception_4e/5x5_reduce
I0403 18:00:29.397186  6465 net.cpp:148] Top shape: 24 32 14 14 (150528)
I0403 18:00:29.397204  6465 net.cpp:156] Memory required for data: 1236731424
I0403 18:00:29.397230  6465 layer_factory.hpp:77] Creating layer inception_4e/relu_5x5_reduce
I0403 18:00:29.397250  6465 net.cpp:91] Creating Layer inception_4e/relu_5x5_reduce
I0403 18:00:29.397269  6465 net.cpp:425] inception_4e/relu_5x5_reduce <- inception_4e/5x5_reduce
I0403 18:00:29.397292  6465 net.cpp:386] inception_4e/relu_5x5_reduce -> inception_4e/5x5_reduce (in-place)
I0403 18:00:29.397616  6465 net.cpp:141] Setting up inception_4e/relu_5x5_reduce
I0403 18:00:29.397647  6465 net.cpp:148] Top shape: 24 32 14 14 (150528)
I0403 18:00:29.397665  6465 net.cpp:156] Memory required for data: 1237333536
I0403 18:00:29.397682  6465 layer_factory.hpp:77] Creating layer inception_4e/5x5
I0403 18:00:29.397723  6465 net.cpp:91] Creating Layer inception_4e/5x5
I0403 18:00:29.397744  6465 net.cpp:425] inception_4e/5x5 <- inception_4e/5x5_reduce
I0403 18:00:29.397765  6465 net.cpp:399] inception_4e/5x5 -> inception_4e/5x5
I0403 18:00:29.399761  6465 net.cpp:141] Setting up inception_4e/5x5
I0403 18:00:29.399791  6465 net.cpp:148] Top shape: 24 128 14 14 (602112)
I0403 18:00:29.399808  6465 net.cpp:156] Memory required for data: 1239741984
I0403 18:00:29.399830  6465 layer_factory.hpp:77] Creating layer inception_4e/relu_5x5
I0403 18:00:29.399852  6465 net.cpp:91] Creating Layer inception_4e/relu_5x5
I0403 18:00:29.399871  6465 net.cpp:425] inception_4e/relu_5x5 <- inception_4e/5x5
I0403 18:00:29.399889  6465 net.cpp:386] inception_4e/relu_5x5 -> inception_4e/5x5 (in-place)
I0403 18:00:29.400105  6465 net.cpp:141] Setting up inception_4e/relu_5x5
I0403 18:00:29.400135  6465 net.cpp:148] Top shape: 24 128 14 14 (602112)
I0403 18:00:29.400153  6465 net.cpp:156] Memory required for data: 1242150432
I0403 18:00:29.400169  6465 layer_factory.hpp:77] Creating layer inception_4e/pool
I0403 18:00:29.400190  6465 net.cpp:91] Creating Layer inception_4e/pool
I0403 18:00:29.400207  6465 net.cpp:425] inception_4e/pool <- inception_4d/output_inception_4d/output_0_split_4
I0403 18:00:29.400234  6465 net.cpp:399] inception_4e/pool -> inception_4e/pool
I0403 18:00:29.400313  6465 net.cpp:141] Setting up inception_4e/pool
I0403 18:00:29.400341  6465 net.cpp:148] Top shape: 24 528 14 14 (2483712)
I0403 18:00:29.400355  6465 net.cpp:156] Memory required for data: 1252085280
I0403 18:00:29.400370  6465 layer_factory.hpp:77] Creating layer inception_4e/pool_proj
I0403 18:00:29.400396  6465 net.cpp:91] Creating Layer inception_4e/pool_proj
I0403 18:00:29.400415  6465 net.cpp:425] inception_4e/pool_proj <- inception_4e/pool
I0403 18:00:29.400436  6465 net.cpp:399] inception_4e/pool_proj -> inception_4e/pool_proj
I0403 18:00:29.402067  6465 net.cpp:141] Setting up inception_4e/pool_proj
I0403 18:00:29.402109  6465 net.cpp:148] Top shape: 24 128 14 14 (602112)
I0403 18:00:29.402127  6465 net.cpp:156] Memory required for data: 1254493728
I0403 18:00:29.402146  6465 layer_factory.hpp:77] Creating layer inception_4e/relu_pool_proj
I0403 18:00:29.402171  6465 net.cpp:91] Creating Layer inception_4e/relu_pool_proj
I0403 18:00:29.402191  6465 net.cpp:425] inception_4e/relu_pool_proj <- inception_4e/pool_proj
I0403 18:00:29.402220  6465 net.cpp:386] inception_4e/relu_pool_proj -> inception_4e/pool_proj (in-place)
I0403 18:00:29.402544  6465 net.cpp:141] Setting up inception_4e/relu_pool_proj
I0403 18:00:29.402571  6465 net.cpp:148] Top shape: 24 128 14 14 (602112)
I0403 18:00:29.402587  6465 net.cpp:156] Memory required for data: 1256902176
I0403 18:00:29.402602  6465 layer_factory.hpp:77] Creating layer inception_4e/output
I0403 18:00:29.402624  6465 net.cpp:91] Creating Layer inception_4e/output
I0403 18:00:29.402642  6465 net.cpp:425] inception_4e/output <- inception_4e/1x1
I0403 18:00:29.402660  6465 net.cpp:425] inception_4e/output <- inception_4e/3x3
I0403 18:00:29.402678  6465 net.cpp:425] inception_4e/output <- inception_4e/5x5
I0403 18:00:29.402695  6465 net.cpp:425] inception_4e/output <- inception_4e/pool_proj
I0403 18:00:29.402714  6465 net.cpp:399] inception_4e/output -> inception_4e/output
I0403 18:00:29.402768  6465 net.cpp:141] Setting up inception_4e/output
I0403 18:00:29.402794  6465 net.cpp:148] Top shape: 24 832 14 14 (3913728)
I0403 18:00:29.402812  6465 net.cpp:156] Memory required for data: 1272557088
I0403 18:00:29.402827  6465 layer_factory.hpp:77] Creating layer pool4/3x3_s2
I0403 18:00:29.402847  6465 net.cpp:91] Creating Layer pool4/3x3_s2
I0403 18:00:29.402863  6465 net.cpp:425] pool4/3x3_s2 <- inception_4e/output
I0403 18:00:29.402885  6465 net.cpp:399] pool4/3x3_s2 -> pool4/3x3_s2
I0403 18:00:29.402958  6465 net.cpp:141] Setting up pool4/3x3_s2
I0403 18:00:29.402984  6465 net.cpp:148] Top shape: 24 832 7 7 (978432)
I0403 18:00:29.403000  6465 net.cpp:156] Memory required for data: 1276470816
I0403 18:00:29.403017  6465 layer_factory.hpp:77] Creating layer pool4/3x3_s2_pool4/3x3_s2_0_split
I0403 18:00:29.403039  6465 net.cpp:91] Creating Layer pool4/3x3_s2_pool4/3x3_s2_0_split
I0403 18:00:29.403058  6465 net.cpp:425] pool4/3x3_s2_pool4/3x3_s2_0_split <- pool4/3x3_s2
I0403 18:00:29.403079  6465 net.cpp:399] pool4/3x3_s2_pool4/3x3_s2_0_split -> pool4/3x3_s2_pool4/3x3_s2_0_split_0
I0403 18:00:29.403101  6465 net.cpp:399] pool4/3x3_s2_pool4/3x3_s2_0_split -> pool4/3x3_s2_pool4/3x3_s2_0_split_1
I0403 18:00:29.403125  6465 net.cpp:399] pool4/3x3_s2_pool4/3x3_s2_0_split -> pool4/3x3_s2_pool4/3x3_s2_0_split_2
I0403 18:00:29.403146  6465 net.cpp:399] pool4/3x3_s2_pool4/3x3_s2_0_split -> pool4/3x3_s2_pool4/3x3_s2_0_split_3
I0403 18:00:29.403249  6465 net.cpp:141] Setting up pool4/3x3_s2_pool4/3x3_s2_0_split
I0403 18:00:29.403275  6465 net.cpp:148] Top shape: 24 832 7 7 (978432)
I0403 18:00:29.403292  6465 net.cpp:148] Top shape: 24 832 7 7 (978432)
I0403 18:00:29.403311  6465 net.cpp:148] Top shape: 24 832 7 7 (978432)
I0403 18:00:29.403327  6465 net.cpp:148] Top shape: 24 832 7 7 (978432)
I0403 18:00:29.403342  6465 net.cpp:156] Memory required for data: 1292125728
I0403 18:00:29.403357  6465 layer_factory.hpp:77] Creating layer inception_5a/1x1
I0403 18:00:29.403381  6465 net.cpp:91] Creating Layer inception_5a/1x1
I0403 18:00:29.403400  6465 net.cpp:425] inception_5a/1x1 <- pool4/3x3_s2_pool4/3x3_s2_0_split_0
I0403 18:00:29.403422  6465 net.cpp:399] inception_5a/1x1 -> inception_5a/1x1
I0403 18:00:29.406522  6465 net.cpp:141] Setting up inception_5a/1x1
I0403 18:00:29.406555  6465 net.cpp:148] Top shape: 24 256 7 7 (301056)
I0403 18:00:29.406572  6465 net.cpp:156] Memory required for data: 1293329952
I0403 18:00:29.406591  6465 layer_factory.hpp:77] Creating layer inception_5a/relu_1x1
I0403 18:00:29.406610  6465 net.cpp:91] Creating Layer inception_5a/relu_1x1
I0403 18:00:29.406627  6465 net.cpp:425] inception_5a/relu_1x1 <- inception_5a/1x1
I0403 18:00:29.406646  6465 net.cpp:386] inception_5a/relu_1x1 -> inception_5a/1x1 (in-place)
I0403 18:00:29.406978  6465 net.cpp:141] Setting up inception_5a/relu_1x1
I0403 18:00:29.407008  6465 net.cpp:148] Top shape: 24 256 7 7 (301056)
I0403 18:00:29.407024  6465 net.cpp:156] Memory required for data: 1294534176
I0403 18:00:29.407040  6465 layer_factory.hpp:77] Creating layer inception_5a/3x3_reduce
I0403 18:00:29.407064  6465 net.cpp:91] Creating Layer inception_5a/3x3_reduce
I0403 18:00:29.407083  6465 net.cpp:425] inception_5a/3x3_reduce <- pool4/3x3_s2_pool4/3x3_s2_0_split_1
I0403 18:00:29.407102  6465 net.cpp:399] inception_5a/3x3_reduce -> inception_5a/3x3_reduce
I0403 18:00:29.409765  6465 net.cpp:141] Setting up inception_5a/3x3_reduce
I0403 18:00:29.409797  6465 net.cpp:148] Top shape: 24 160 7 7 (188160)
I0403 18:00:29.409813  6465 net.cpp:156] Memory required for data: 1295286816
I0403 18:00:29.409833  6465 layer_factory.hpp:77] Creating layer inception_5a/relu_3x3_reduce
I0403 18:00:29.409855  6465 net.cpp:91] Creating Layer inception_5a/relu_3x3_reduce
I0403 18:00:29.409873  6465 net.cpp:425] inception_5a/relu_3x3_reduce <- inception_5a/3x3_reduce
I0403 18:00:29.409893  6465 net.cpp:386] inception_5a/relu_3x3_reduce -> inception_5a/3x3_reduce (in-place)
I0403 18:00:29.410100  6465 net.cpp:141] Setting up inception_5a/relu_3x3_reduce
I0403 18:00:29.410126  6465 net.cpp:148] Top shape: 24 160 7 7 (188160)
I0403 18:00:29.410145  6465 net.cpp:156] Memory required for data: 1296039456
I0403 18:00:29.410161  6465 layer_factory.hpp:77] Creating layer inception_5a/3x3
I0403 18:00:29.410181  6465 net.cpp:91] Creating Layer inception_5a/3x3
I0403 18:00:29.410198  6465 net.cpp:425] inception_5a/3x3 <- inception_5a/3x3_reduce
I0403 18:00:29.410225  6465 net.cpp:399] inception_5a/3x3 -> inception_5a/3x3
I0403 18:00:29.415432  6465 net.cpp:141] Setting up inception_5a/3x3
I0403 18:00:29.415462  6465 net.cpp:148] Top shape: 24 320 7 7 (376320)
I0403 18:00:29.415478  6465 net.cpp:156] Memory required for data: 1297544736
I0403 18:00:29.415499  6465 layer_factory.hpp:77] Creating layer inception_5a/relu_3x3
I0403 18:00:29.415520  6465 net.cpp:91] Creating Layer inception_5a/relu_3x3
I0403 18:00:29.415539  6465 net.cpp:425] inception_5a/relu_3x3 <- inception_5a/3x3
I0403 18:00:29.415557  6465 net.cpp:386] inception_5a/relu_3x3 -> inception_5a/3x3 (in-place)
I0403 18:00:29.415874  6465 net.cpp:141] Setting up inception_5a/relu_3x3
I0403 18:00:29.415901  6465 net.cpp:148] Top shape: 24 320 7 7 (376320)
I0403 18:00:29.415917  6465 net.cpp:156] Memory required for data: 1299050016
I0403 18:00:29.415932  6465 layer_factory.hpp:77] Creating layer inception_5a/5x5_reduce
I0403 18:00:29.415958  6465 net.cpp:91] Creating Layer inception_5a/5x5_reduce
I0403 18:00:29.415976  6465 net.cpp:425] inception_5a/5x5_reduce <- pool4/3x3_s2_pool4/3x3_s2_0_split_2
I0403 18:00:29.415995  6465 net.cpp:399] inception_5a/5x5_reduce -> inception_5a/5x5_reduce
I0403 18:00:29.417248  6465 net.cpp:141] Setting up inception_5a/5x5_reduce
I0403 18:00:29.417279  6465 net.cpp:148] Top shape: 24 32 7 7 (37632)
I0403 18:00:29.417297  6465 net.cpp:156] Memory required for data: 1299200544
I0403 18:00:29.417317  6465 layer_factory.hpp:77] Creating layer inception_5a/relu_5x5_reduce
I0403 18:00:29.417336  6465 net.cpp:91] Creating Layer inception_5a/relu_5x5_reduce
I0403 18:00:29.417352  6465 net.cpp:425] inception_5a/relu_5x5_reduce <- inception_5a/5x5_reduce
I0403 18:00:29.417371  6465 net.cpp:386] inception_5a/relu_5x5_reduce -> inception_5a/5x5_reduce (in-place)
I0403 18:00:29.417692  6465 net.cpp:141] Setting up inception_5a/relu_5x5_reduce
I0403 18:00:29.417723  6465 net.cpp:148] Top shape: 24 32 7 7 (37632)
I0403 18:00:29.417740  6465 net.cpp:156] Memory required for data: 1299351072
I0403 18:00:29.417755  6465 layer_factory.hpp:77] Creating layer inception_5a/5x5
I0403 18:00:29.417779  6465 net.cpp:91] Creating Layer inception_5a/5x5
I0403 18:00:29.417798  6465 net.cpp:425] inception_5a/5x5 <- inception_5a/5x5_reduce
I0403 18:00:29.417819  6465 net.cpp:399] inception_5a/5x5 -> inception_5a/5x5
I0403 18:00:29.419625  6465 net.cpp:141] Setting up inception_5a/5x5
I0403 18:00:29.419667  6465 net.cpp:148] Top shape: 24 128 7 7 (150528)
I0403 18:00:29.419682  6465 net.cpp:156] Memory required for data: 1299953184
I0403 18:00:29.419702  6465 layer_factory.hpp:77] Creating layer inception_5a/relu_5x5
I0403 18:00:29.419721  6465 net.cpp:91] Creating Layer inception_5a/relu_5x5
I0403 18:00:29.419739  6465 net.cpp:425] inception_5a/relu_5x5 <- inception_5a/5x5
I0403 18:00:29.419755  6465 net.cpp:386] inception_5a/relu_5x5 -> inception_5a/5x5 (in-place)
I0403 18:00:29.419952  6465 net.cpp:141] Setting up inception_5a/relu_5x5
I0403 18:00:29.419978  6465 net.cpp:148] Top shape: 24 128 7 7 (150528)
I0403 18:00:29.419992  6465 net.cpp:156] Memory required for data: 1300555296
I0403 18:00:29.420007  6465 layer_factory.hpp:77] Creating layer inception_5a/pool
I0403 18:00:29.420024  6465 net.cpp:91] Creating Layer inception_5a/pool
I0403 18:00:29.420042  6465 net.cpp:425] inception_5a/pool <- pool4/3x3_s2_pool4/3x3_s2_0_split_3
I0403 18:00:29.420063  6465 net.cpp:399] inception_5a/pool -> inception_5a/pool
I0403 18:00:29.420135  6465 net.cpp:141] Setting up inception_5a/pool
I0403 18:00:29.420159  6465 net.cpp:148] Top shape: 24 832 7 7 (978432)
I0403 18:00:29.420174  6465 net.cpp:156] Memory required for data: 1304469024
I0403 18:00:29.420188  6465 layer_factory.hpp:77] Creating layer inception_5a/pool_proj
I0403 18:00:29.420217  6465 net.cpp:91] Creating Layer inception_5a/pool_proj
I0403 18:00:29.420238  6465 net.cpp:425] inception_5a/pool_proj <- inception_5a/pool
I0403 18:00:29.420256  6465 net.cpp:399] inception_5a/pool_proj -> inception_5a/pool_proj
I0403 18:00:29.422633  6465 net.cpp:141] Setting up inception_5a/pool_proj
I0403 18:00:29.422662  6465 net.cpp:148] Top shape: 24 128 7 7 (150528)
I0403 18:00:29.422678  6465 net.cpp:156] Memory required for data: 1305071136
I0403 18:00:29.422698  6465 layer_factory.hpp:77] Creating layer inception_5a/relu_pool_proj
I0403 18:00:29.422719  6465 net.cpp:91] Creating Layer inception_5a/relu_pool_proj
I0403 18:00:29.422735  6465 net.cpp:425] inception_5a/relu_pool_proj <- inception_5a/pool_proj
I0403 18:00:29.422755  6465 net.cpp:386] inception_5a/relu_pool_proj -> inception_5a/pool_proj (in-place)
I0403 18:00:29.423056  6465 net.cpp:141] Setting up inception_5a/relu_pool_proj
I0403 18:00:29.423082  6465 net.cpp:148] Top shape: 24 128 7 7 (150528)
I0403 18:00:29.423097  6465 net.cpp:156] Memory required for data: 1305673248
I0403 18:00:29.423113  6465 layer_factory.hpp:77] Creating layer inception_5a/output
I0403 18:00:29.423133  6465 net.cpp:91] Creating Layer inception_5a/output
I0403 18:00:29.423151  6465 net.cpp:425] inception_5a/output <- inception_5a/1x1
I0403 18:00:29.423168  6465 net.cpp:425] inception_5a/output <- inception_5a/3x3
I0403 18:00:29.423184  6465 net.cpp:425] inception_5a/output <- inception_5a/5x5
I0403 18:00:29.423200  6465 net.cpp:425] inception_5a/output <- inception_5a/pool_proj
I0403 18:00:29.423223  6465 net.cpp:399] inception_5a/output -> inception_5a/output
I0403 18:00:29.423290  6465 net.cpp:141] Setting up inception_5a/output
I0403 18:00:29.423316  6465 net.cpp:148] Top shape: 24 832 7 7 (978432)
I0403 18:00:29.423331  6465 net.cpp:156] Memory required for data: 1309586976
I0403 18:00:29.423346  6465 layer_factory.hpp:77] Creating layer inception_5a/output_inception_5a/output_0_split
I0403 18:00:29.423364  6465 net.cpp:91] Creating Layer inception_5a/output_inception_5a/output_0_split
I0403 18:00:29.423382  6465 net.cpp:425] inception_5a/output_inception_5a/output_0_split <- inception_5a/output
I0403 18:00:29.423401  6465 net.cpp:399] inception_5a/output_inception_5a/output_0_split -> inception_5a/output_inception_5a/output_0_split_0
I0403 18:00:29.423425  6465 net.cpp:399] inception_5a/output_inception_5a/output_0_split -> inception_5a/output_inception_5a/output_0_split_1
I0403 18:00:29.423447  6465 net.cpp:399] inception_5a/output_inception_5a/output_0_split -> inception_5a/output_inception_5a/output_0_split_2
I0403 18:00:29.423470  6465 net.cpp:399] inception_5a/output_inception_5a/output_0_split -> inception_5a/output_inception_5a/output_0_split_3
I0403 18:00:29.423599  6465 net.cpp:141] Setting up inception_5a/output_inception_5a/output_0_split
I0403 18:00:29.423626  6465 net.cpp:148] Top shape: 24 832 7 7 (978432)
I0403 18:00:29.423643  6465 net.cpp:148] Top shape: 24 832 7 7 (978432)
I0403 18:00:29.423660  6465 net.cpp:148] Top shape: 24 832 7 7 (978432)
I0403 18:00:29.423674  6465 net.cpp:148] Top shape: 24 832 7 7 (978432)
I0403 18:00:29.423688  6465 net.cpp:156] Memory required for data: 1325241888
I0403 18:00:29.423702  6465 layer_factory.hpp:77] Creating layer inception_5b/1x1
I0403 18:00:29.423724  6465 net.cpp:91] Creating Layer inception_5b/1x1
I0403 18:00:29.423743  6465 net.cpp:425] inception_5b/1x1 <- inception_5a/output_inception_5a/output_0_split_0
I0403 18:00:29.423761  6465 net.cpp:399] inception_5b/1x1 -> inception_5b/1x1
I0403 18:00:29.427677  6465 net.cpp:141] Setting up inception_5b/1x1
I0403 18:00:29.427706  6465 net.cpp:148] Top shape: 24 384 7 7 (451584)
I0403 18:00:29.427722  6465 net.cpp:156] Memory required for data: 1327048224
I0403 18:00:29.427742  6465 layer_factory.hpp:77] Creating layer inception_5b/relu_1x1
I0403 18:00:29.427762  6465 net.cpp:91] Creating Layer inception_5b/relu_1x1
I0403 18:00:29.427779  6465 net.cpp:425] inception_5b/relu_1x1 <- inception_5b/1x1
I0403 18:00:29.427798  6465 net.cpp:386] inception_5b/relu_1x1 -> inception_5b/1x1 (in-place)
I0403 18:00:29.428110  6465 net.cpp:141] Setting up inception_5b/relu_1x1
I0403 18:00:29.428138  6465 net.cpp:148] Top shape: 24 384 7 7 (451584)
I0403 18:00:29.428153  6465 net.cpp:156] Memory required for data: 1328854560
I0403 18:00:29.428169  6465 layer_factory.hpp:77] Creating layer inception_5b/3x3_reduce
I0403 18:00:29.428190  6465 net.cpp:91] Creating Layer inception_5b/3x3_reduce
I0403 18:00:29.428213  6465 net.cpp:425] inception_5b/3x3_reduce <- inception_5a/output_inception_5a/output_0_split_1
I0403 18:00:29.428239  6465 net.cpp:399] inception_5b/3x3_reduce -> inception_5b/3x3_reduce
I0403 18:00:29.431001  6465 net.cpp:141] Setting up inception_5b/3x3_reduce
I0403 18:00:29.431030  6465 net.cpp:148] Top shape: 24 192 7 7 (225792)
I0403 18:00:29.431046  6465 net.cpp:156] Memory required for data: 1329757728
I0403 18:00:29.431066  6465 layer_factory.hpp:77] Creating layer inception_5b/relu_3x3_reduce
I0403 18:00:29.431087  6465 net.cpp:91] Creating Layer inception_5b/relu_3x3_reduce
I0403 18:00:29.431104  6465 net.cpp:425] inception_5b/relu_3x3_reduce <- inception_5b/3x3_reduce
I0403 18:00:29.431123  6465 net.cpp:386] inception_5b/relu_3x3_reduce -> inception_5b/3x3_reduce (in-place)
I0403 18:00:29.431344  6465 net.cpp:141] Setting up inception_5b/relu_3x3_reduce
I0403 18:00:29.431371  6465 net.cpp:148] Top shape: 24 192 7 7 (225792)
I0403 18:00:29.431386  6465 net.cpp:156] Memory required for data: 1330660896
I0403 18:00:29.431401  6465 layer_factory.hpp:77] Creating layer inception_5b/3x3
I0403 18:00:29.431427  6465 net.cpp:91] Creating Layer inception_5b/3x3
I0403 18:00:29.431444  6465 net.cpp:425] inception_5b/3x3 <- inception_5b/3x3_reduce
I0403 18:00:29.431464  6465 net.cpp:399] inception_5b/3x3 -> inception_5b/3x3
I0403 18:00:29.438396  6465 net.cpp:141] Setting up inception_5b/3x3
I0403 18:00:29.438426  6465 net.cpp:148] Top shape: 24 384 7 7 (451584)
I0403 18:00:29.438442  6465 net.cpp:156] Memory required for data: 1332467232
I0403 18:00:29.438462  6465 layer_factory.hpp:77] Creating layer inception_5b/relu_3x3
I0403 18:00:29.438482  6465 net.cpp:91] Creating Layer inception_5b/relu_3x3
I0403 18:00:29.438499  6465 net.cpp:425] inception_5b/relu_3x3 <- inception_5b/3x3
I0403 18:00:29.438518  6465 net.cpp:386] inception_5b/relu_3x3 -> inception_5b/3x3 (in-place)
I0403 18:00:29.438823  6465 net.cpp:141] Setting up inception_5b/relu_3x3
I0403 18:00:29.438849  6465 net.cpp:148] Top shape: 24 384 7 7 (451584)
I0403 18:00:29.438865  6465 net.cpp:156] Memory required for data: 1334273568
I0403 18:00:29.438881  6465 layer_factory.hpp:77] Creating layer inception_5b/5x5_reduce
I0403 18:00:29.438920  6465 net.cpp:91] Creating Layer inception_5b/5x5_reduce
I0403 18:00:29.438938  6465 net.cpp:425] inception_5b/5x5_reduce <- inception_5a/output_inception_5a/output_0_split_2
I0403 18:00:29.438961  6465 net.cpp:399] inception_5b/5x5_reduce -> inception_5b/5x5_reduce
I0403 18:00:29.440335  6465 net.cpp:141] Setting up inception_5b/5x5_reduce
I0403 18:00:29.440362  6465 net.cpp:148] Top shape: 24 48 7 7 (56448)
I0403 18:00:29.440379  6465 net.cpp:156] Memory required for data: 1334499360
I0403 18:00:29.440397  6465 layer_factory.hpp:77] Creating layer inception_5b/relu_5x5_reduce
I0403 18:00:29.440418  6465 net.cpp:91] Creating Layer inception_5b/relu_5x5_reduce
I0403 18:00:29.440434  6465 net.cpp:425] inception_5b/relu_5x5_reduce <- inception_5b/5x5_reduce
I0403 18:00:29.440453  6465 net.cpp:386] inception_5b/relu_5x5_reduce -> inception_5b/5x5_reduce (in-place)
I0403 18:00:29.440824  6465 net.cpp:141] Setting up inception_5b/relu_5x5_reduce
I0403 18:00:29.440851  6465 net.cpp:148] Top shape: 24 48 7 7 (56448)
I0403 18:00:29.440866  6465 net.cpp:156] Memory required for data: 1334725152
I0403 18:00:29.440881  6465 layer_factory.hpp:77] Creating layer inception_5b/5x5
I0403 18:00:29.440901  6465 net.cpp:91] Creating Layer inception_5b/5x5
I0403 18:00:29.440917  6465 net.cpp:425] inception_5b/5x5 <- inception_5b/5x5_reduce
I0403 18:00:29.440935  6465 net.cpp:399] inception_5b/5x5 -> inception_5b/5x5
I0403 18:00:29.443064  6465 net.cpp:141] Setting up inception_5b/5x5
I0403 18:00:29.443095  6465 net.cpp:148] Top shape: 24 128 7 7 (150528)
I0403 18:00:29.443112  6465 net.cpp:156] Memory required for data: 1335327264
I0403 18:00:29.443131  6465 layer_factory.hpp:77] Creating layer inception_5b/relu_5x5
I0403 18:00:29.443150  6465 net.cpp:91] Creating Layer inception_5b/relu_5x5
I0403 18:00:29.443177  6465 net.cpp:425] inception_5b/relu_5x5 <- inception_5b/5x5
I0403 18:00:29.443197  6465 net.cpp:386] inception_5b/relu_5x5 -> inception_5b/5x5 (in-place)
I0403 18:00:29.443410  6465 net.cpp:141] Setting up inception_5b/relu_5x5
I0403 18:00:29.443439  6465 net.cpp:148] Top shape: 24 128 7 7 (150528)
I0403 18:00:29.443455  6465 net.cpp:156] Memory required for data: 1335929376
I0403 18:00:29.443482  6465 layer_factory.hpp:77] Creating layer inception_5b/pool
I0403 18:00:29.443500  6465 net.cpp:91] Creating Layer inception_5b/pool
I0403 18:00:29.443517  6465 net.cpp:425] inception_5b/pool <- inception_5a/output_inception_5a/output_0_split_3
I0403 18:00:29.443539  6465 net.cpp:399] inception_5b/pool -> inception_5b/pool
I0403 18:00:29.443613  6465 net.cpp:141] Setting up inception_5b/pool
I0403 18:00:29.443639  6465 net.cpp:148] Top shape: 24 832 7 7 (978432)
I0403 18:00:29.443655  6465 net.cpp:156] Memory required for data: 1339843104
I0403 18:00:29.443670  6465 layer_factory.hpp:77] Creating layer inception_5b/pool_proj
I0403 18:00:29.443691  6465 net.cpp:91] Creating Layer inception_5b/pool_proj
I0403 18:00:29.443711  6465 net.cpp:425] inception_5b/pool_proj <- inception_5b/pool
I0403 18:00:29.443729  6465 net.cpp:399] inception_5b/pool_proj -> inception_5b/pool_proj
I0403 18:00:29.446106  6465 net.cpp:141] Setting up inception_5b/pool_proj
I0403 18:00:29.446136  6465 net.cpp:148] Top shape: 24 128 7 7 (150528)
I0403 18:00:29.446152  6465 net.cpp:156] Memory required for data: 1340445216
I0403 18:00:29.446171  6465 layer_factory.hpp:77] Creating layer inception_5b/relu_pool_proj
I0403 18:00:29.446192  6465 net.cpp:91] Creating Layer inception_5b/relu_pool_proj
I0403 18:00:29.446215  6465 net.cpp:425] inception_5b/relu_pool_proj <- inception_5b/pool_proj
I0403 18:00:29.446234  6465 net.cpp:386] inception_5b/relu_pool_proj -> inception_5b/pool_proj (in-place)
I0403 18:00:29.446547  6465 net.cpp:141] Setting up inception_5b/relu_pool_proj
I0403 18:00:29.446573  6465 net.cpp:148] Top shape: 24 128 7 7 (150528)
I0403 18:00:29.446588  6465 net.cpp:156] Memory required for data: 1341047328
I0403 18:00:29.446604  6465 layer_factory.hpp:77] Creating layer inception_5b/output
I0403 18:00:29.446624  6465 net.cpp:91] Creating Layer inception_5b/output
I0403 18:00:29.446655  6465 net.cpp:425] inception_5b/output <- inception_5b/1x1
I0403 18:00:29.446674  6465 net.cpp:425] inception_5b/output <- inception_5b/3x3
I0403 18:00:29.446691  6465 net.cpp:425] inception_5b/output <- inception_5b/5x5
I0403 18:00:29.446705  6465 net.cpp:425] inception_5b/output <- inception_5b/pool_proj
I0403 18:00:29.446724  6465 net.cpp:399] inception_5b/output -> inception_5b/output
I0403 18:00:29.446779  6465 net.cpp:141] Setting up inception_5b/output
I0403 18:00:29.446802  6465 net.cpp:148] Top shape: 24 1024 7 7 (1204224)
I0403 18:00:29.446817  6465 net.cpp:156] Memory required for data: 1345864224
I0403 18:00:29.446832  6465 layer_factory.hpp:77] Creating layer pool5/7x7_s1
I0403 18:00:29.446849  6465 net.cpp:91] Creating Layer pool5/7x7_s1
I0403 18:00:29.446866  6465 net.cpp:425] pool5/7x7_s1 <- inception_5b/output
I0403 18:00:29.446887  6465 net.cpp:399] pool5/7x7_s1 -> pool5/7x7_s1
I0403 18:00:29.447109  6465 net.cpp:141] Setting up pool5/7x7_s1
I0403 18:00:29.447135  6465 net.cpp:148] Top shape: 24 1024 1 1 (24576)
I0403 18:00:29.447151  6465 net.cpp:156] Memory required for data: 1345962528
I0403 18:00:29.447166  6465 layer_factory.hpp:77] Creating layer pool5/drop_7x7_s1
I0403 18:00:29.447186  6465 net.cpp:91] Creating Layer pool5/drop_7x7_s1
I0403 18:00:29.447204  6465 net.cpp:425] pool5/drop_7x7_s1 <- pool5/7x7_s1
I0403 18:00:29.447227  6465 net.cpp:386] pool5/drop_7x7_s1 -> pool5/7x7_s1 (in-place)
I0403 18:00:29.447283  6465 net.cpp:141] Setting up pool5/drop_7x7_s1
I0403 18:00:29.447305  6465 net.cpp:148] Top shape: 24 1024 1 1 (24576)
I0403 18:00:29.447321  6465 net.cpp:156] Memory required for data: 1346060832
I0403 18:00:29.447336  6465 layer_factory.hpp:77] Creating layer loss3/classifier_plantvillage
I0403 18:00:29.447357  6465 net.cpp:91] Creating Layer loss3/classifier_plantvillage
I0403 18:00:29.447376  6465 net.cpp:425] loss3/classifier_plantvillage <- pool5/7x7_s1
I0403 18:00:29.447394  6465 net.cpp:399] loss3/classifier_plantvillage -> loss3/classifier_plantvillage
I0403 18:00:29.447826  6465 net.cpp:141] Setting up loss3/classifier_plantvillage
I0403 18:00:29.447850  6465 net.cpp:148] Top shape: 24 38 (912)
I0403 18:00:29.447865  6465 net.cpp:156] Memory required for data: 1346064480
I0403 18:00:29.447883  6465 layer_factory.hpp:77] Creating layer loss3/classifier_plantvillage_loss3/classifier_plantvillage_0_split
I0403 18:00:29.447902  6465 net.cpp:91] Creating Layer loss3/classifier_plantvillage_loss3/classifier_plantvillage_0_split
I0403 18:00:29.447918  6465 net.cpp:425] loss3/classifier_plantvillage_loss3/classifier_plantvillage_0_split <- loss3/classifier_plantvillage
I0403 18:00:29.447940  6465 net.cpp:399] loss3/classifier_plantvillage_loss3/classifier_plantvillage_0_split -> loss3/classifier_plantvillage_loss3/classifier_plantvillage_0_split_0
I0403 18:00:29.447962  6465 net.cpp:399] loss3/classifier_plantvillage_loss3/classifier_plantvillage_0_split -> loss3/classifier_plantvillage_loss3/classifier_plantvillage_0_split_1
I0403 18:00:29.447984  6465 net.cpp:399] loss3/classifier_plantvillage_loss3/classifier_plantvillage_0_split -> loss3/classifier_plantvillage_loss3/classifier_plantvillage_0_split_2
I0403 18:00:29.448005  6465 net.cpp:399] loss3/classifier_plantvillage_loss3/classifier_plantvillage_0_split -> loss3/classifier_plantvillage_loss3/classifier_plantvillage_0_split_3
I0403 18:00:29.448109  6465 net.cpp:141] Setting up loss3/classifier_plantvillage_loss3/classifier_plantvillage_0_split
I0403 18:00:29.448133  6465 net.cpp:148] Top shape: 24 38 (912)
I0403 18:00:29.448150  6465 net.cpp:148] Top shape: 24 38 (912)
I0403 18:00:29.448165  6465 net.cpp:148] Top shape: 24 38 (912)
I0403 18:00:29.448181  6465 net.cpp:148] Top shape: 24 38 (912)
I0403 18:00:29.448194  6465 net.cpp:156] Memory required for data: 1346079072
I0403 18:00:29.448215  6465 layer_factory.hpp:77] Creating layer loss1/loss
I0403 18:00:29.448240  6465 net.cpp:91] Creating Layer loss1/loss
I0403 18:00:29.448257  6465 net.cpp:425] loss1/loss <- loss1/classifier_plantvillage_loss1/classifier_plantvillage_0_split_0
I0403 18:00:29.448287  6465 net.cpp:425] loss1/loss <- label_data_1_split_0
…
