…
I0403 18:14:34.951845  6726 net.cpp:313] The NetState phase (1) differed from the phase (0) specified by a rule in layer data
I0403 18:14:34.953136  6726 net.cpp:49] Initializing net from parameters: 
state {
  phase: TEST
}
layer {
  name: "data"
  type: "Data"
  top: "data"
  top: "label"
  include {
    phase: TEST
  }
  transform_param {
    mirror: false
    crop_size: 224
    mean_file: "/home/mohanty/data/final_dataset/lmdb/segmented-50-50/mean.binaryproto"
  }
  data_param {
    source: "/home/mohanty/data/final_dataset/lmdb/segmented-50-50/test_db"
    batch_size: 24
    backend: LMDB
  }
}
layer {
  name: "conv1/7x7_s2"
  type: "Convolution"
  bottom: "data"
  top: "conv1/7x7_s2"
  param {
    lr_mult: 1
    decay_mult: 1
  }
  param {
    lr_mult: 2
    decay_mult: 0
  }
  convolution_param {
    num_output: 64
    pad: 3
    kernel_size: 7
    stride: 2
    weight_filler {
      type: "xavier"
      std: 0.1
    }
    bias_filler {
      type: "constant"
      value: 0.2
    }
  }
}
layer {
  name: "conv1/relu_7x7"
  type: "ReLU"
  bottom: "conv1/7x7_s2"
  top: "conv1/7x7_s2"
}
layer {
  name: "pool1/3x3_s2"
  type: "Pooling"
  bottom: "conv1/7x7_s2"
  top: "pool1/3x3_s2"
  pooling_param {
    pool: MAX
    kernel_size: 3
    stride: 2
  }
}
layer {
  name: "pool1/norm1"
  type: "LRN"
  bottom: "pool1/3x3_s2"
  top: "pool1/norm1"
  lrn_param {
    local_size: 5
    alpha: 0.0001
    beta: 0.75
  }
}
layer {
  name: "conv2/3x3_reduce"
  type: "Convolution"
  bottom: "pool1/norm1"
  top: "conv2/3x3_reduce"
  param {
    lr_mult: 1
    decay_mult: 1
  }
  param {
    lr_mult: 2
    decay_mult: 0
  }
  convolution_param {
    num_output: 64
    kernel_size: 1
    weight_filler {
      type: "xavier"
      std: 0.1
    }
    bias_filler {
      type: "constant"
      value: 0.2
    }
  }
}
layer {
  name: "conv2/relu_3x3_reduce"
  type: "ReLU"
  bottom: "conv2/3x3_reduce"
  top: "conv2/3x3_reduce"
}
layer {
  name: "conv2/3x3"
  type: "Convolution"
  bottom: "conv2/3x3_reduce"
  top: "conv2/3x3"
  param {
    lr_mult: 1
    decay_mult: 1
  }
  param {
    lr_mult: 2
    decay_mult: 0
  }
  convolution_param {
    num_output: 192
    pad: 1
    kernel_size: 3
    weight_filler {
      type: "xavier"
      std: 0.03
    }
    bias_filler {
      type: "constant"
      value: 0.2
    }
  }
}
layer {
  name: "conv2/relu_3x3"
  type: "ReLU"
  bottom: "conv2/3x3"
  top: "conv2/3x3"
}
layer {
  name: "conv2/norm2"
  type: "LRN"
  bottom: "conv2/3x3"
  top: "conv2/norm2"
  lrn_param {
    local_size: 5
    alpha: 0.0001
    beta: 0.75
  }
}
layer {
  name: "pool2/3x3_s2"
  type: "Pooling"
  bottom: "conv2/norm2"
  top: "pool2/3x3_s2"
  pooling_param {
    pool: MAX
    kernel_size: 3
    stride: 2
  }
}
layer {
  name: "inception_3a/1x1"
  type: "Convolution"
  bottom: "pool2/3x3_s2"
  top: "inception_3a/1x1"
  param {
    lr_mult: 1
    decay_mult: 1
  }
  param {
    lr_mult: 2
    decay_mult: 0
  }
  convolution_param {
    num_output: 64
    kernel_size: 1
    weight_filler {
      type: "xavier"
      std: 0.03
    }
    bias_filler {
      type: "constant"
      value: 0.2
    }
  }
}
layer {
  name: "inception_3a/relu_1x1"
  type: "ReLU"
  bottom: "inception_3a/1x1"
  top: "inception_3a/1x1"
}
layer {
  name: "inception_3a/3x3_reduce"
  type: "Convolution"
  bottom: "pool2/3x3_s2"
  top: "inception_3a/3x3_reduce"
  param {
    lr_mult: 1
    decay_mult: 1
  }
  param {
    lr_mult: 2
    decay_mult: 0
  }
  convolution_param {
    num_output: 96
    kernel_size: 1
    weight_filler {
      type: "xavier"
      std: 0.09
    }
    bias_filler {
      type: "constant"
      value: 0.2
    }
  }
}
layer {
  name: "inception_3a/relu_3x3_reduce"
  type: "ReLU"
  bottom: "inception_3a/3x3_reduce"
  top: "inception_3a/3x3_reduce"
}
layer {
  name: "inception_3a/3x3"
  type: "Convolution"
  bottom: "inception_3a/3x3_reduce"
  top: "inception_3a/3x3"
  param {
    lr_mult: 1
    decay_mult: 1
  }
  param {
    lr_mult: 2
    decay_mult: 0
  }
  convolution_param {
    num_output: 128
    pad: 1
    kernel_size: 3
    weight_filler {
      type: "xavier"
      std: 0.03
    }
    bias_filler {
      type: "constant"
      value: 0.2
    }
  }
}
layer {
  name: "inception_3a/relu_3x3"
  type: "ReLU"
  bottom: "inception_3a/3x3"
  top: "inception_3a/3x3"
}
layer {
  name: "inception_3a/5x5_reduce"
  type: "Convolution"
  bottom: "pool2/3x3_s2"
  top: "inception_3a/5x5_reduce"
  param {
    lr_mult: 1
    decay_mult: 1
  }
  param {
    lr_mult: 2
    decay_mult: 0
  }
  convolution_param {
    num_output: 16
    kernel_size: 1
    weight_filler {
      type: "xavier"
      std: 0.2
    }
    bias_filler {
      type: "constant"
      value: 0.2
    }
  }
}
layer {
  name: "inception_3a/relu_5x5_reduce"
  type: "ReLU"
  bottom: "inception_3a/5x5_reduce"
  top: "inception_3a/5x5_reduce"
}
layer {
  name: "inception_3a/5x5"
  type: "Convolution"
  bottom: "inception_3a/5x5_reduce"
  top: "inception_3a/5x5"
  param {
    lr_mult: 1
    decay_mult: 1
  }
  param {
    lr_mult: 2
    decay_mult: 0
  }
  convolution_param {
    num_output: 32
    pad: 2
    kernel_size: 5
    weight_filler {
      type: "xavier"
      std: 0.03
    }
    bias_filler {
      type: "constant"
      value: 0.2
    }
  }
}
layer {
  name: "inception_3a/relu_5x5"
  type: "ReLU"
  bottom: "inception_3a/5x5"
  top: "inception_3a/5x5"
}
layer {
  name: "inception_3a/pool"
  type: "Pooling"
  bottom: "pool2/3x3_s2"
  top: "inception_3a/pool"
  pooling_param {
    pool: MAX
    kernel_size: 3
    stride: 1
    pad: 1
  }
}
layer {
  name: "inception_3a/pool_proj"
  type: "Convolution"
  bottom: "inception_3a/pool"
  top: "inception_3a/pool_proj"
  param {
    lr_mult: 1
    decay_mult: 1
  }
  param {
    lr_mult: 2
    decay_mult: 0
  }
  convolution_param {
    num_output: 32
    kernel_size: 1
    weight_filler {
      type: "xavier"
      std: 0.1
    }
    bias_filler {
      type: "constant"
      value: 0.2
    }
  }
}
layer {
  name: "inception_3a/relu_pool_proj"
  type: "ReLU"
  bottom: "inception_3a/pool_proj"
  top: "inception_3a/pool_proj"
}
layer {
  name: "inception_3a/output"
  type: "Concat"
  bottom: "inception_3a/1x1"
  bottom: "inception_3a/3x3"
  bottom: "inception_3a/5x5"
  bottom: "inception_3a/pool_proj"
  top: "inception_3a/output"
}
layer {
  name: "inception_3b/1x1"
  type: "Convolution"
  bottom: "inception_3a/output"
  top: "inception_3b/1x1"
  param {
    lr_mult: 1
    decay_mult: 1
  }
  param {
    lr_mult: 2
    decay_mult: 0
  }
  convolution_param {
    num_output: 128
    kernel_size: 1
    weight_filler {
      type: "xavier"
      std: 0.03
    }
    bias_filler {
      type: "constant"
      value: 0.2
    }
  }
}
layer {
  name: "inception_3b/relu_1x1"
  type: "ReLU"
  bottom: "inception_3b/1x1"
  top: "inception_3b/1x1"
}
layer {
  name: "inception_3b/3x3_reduce"
  type: "Convolution"
  bottom: "inception_3a/output"
  top: "inception_3b/3x3_reduce"
  param {
    lr_mult: 1
    decay_mult: 1
  }
  param {
    lr_mult: 2
    decay_mult: 0
  }
  convolution_param {
    num_output: 128
    kernel_size: 1
    weight_filler {
      type: "xavier"
      std: 0.09
    }
    bias_filler {
      type: "constant"
      value: 0.2
    }
  }
}
layer {
  name: "inception_3b/relu_3x3_reduce"
  type: "ReLU"
  bottom: "inception_3b/3x3_reduce"
  top: "inception_3b/3x3_reduce"
}
layer {
  name: "inception_3b/3x3"
  type: "Convolution"
  bottom: "inception_3b/3x3_reduce"
  top: "inception_3b/3x3"
  param {
    lr_mult: 1
    decay_mult: 1
  }
  param {
    lr_mult: 2
    decay_mult: 0
  }
  convolution_param {
    num_output: 192
    pad: 1
    kernel_size: 3
    weight_filler {
      type: "xavier"
      std: 0.03
    }
    bias_filler {
      type: "constant"
      value: 0.2
    }
  }
}
layer {
  name: "inception_3b/relu_3x3"
  type: "ReLU"
  bottom: "inception_3b/3x3"
  top: "inception_3b/3x3"
}
layer {
  name: "inception_3b/5x5_reduce"
  type: "Convolution"
  bottom: "inception_3a/output"
  top: "inception_3b/5x5_reduce"
  param {
    lr_mult: 1
    decay_mult: 1
  }
  param {
    lr_mult: 2
    decay_mult: 0
  }
  convolution_param {
    num_output: 32
    kernel_size: 1
    weight_filler {
      type: "xavier"
      std: 0.2
    }
    bias_filler {
      type: "constant"
      value: 0.2
    }
  }
}
layer {
  name: "inception_3b/relu_5x5_reduce"
  type: "ReLU"
  bottom: "inception_3b/5x5_reduce"
  top: "inception_3b/5x5_reduce"
}
layer {
  name: "inception_3b/5x5"
  type: "Convolution"
  bottom: "inception_3b/5x5_reduce"
  top: "inception_3b/5x5"
  param {
    lr_mult: 1
    decay_mult: 1
  }
  param {
    lr_mult: 2
    decay_mult: 0
  }
  convolution_param {
    num_output: 96
    pad: 2
    kernel_size: 5
    weight_filler {
      type: "xavier"
      std: 0.03
    }
    bias_filler {
      type: "constant"
      value: 0.2
    }
  }
}
layer {
  name: "inception_3b/relu_5x5"
  type: "ReLU"
  bottom: "inception_3b/5x5"
  top: "inception_3b/5x5"
}
layer {
  name: "inception_3b/pool"
  type: "Pooling"
  bottom: "inception_3a/output"
  top: "inception_3b/pool"
  pooling_param {
    pool: MAX
    kernel_size: 3
    stride: 1
    pad: 1
  }
}
layer {
  name: "inception_3b/pool_proj"
  type: "Convolution"
  bottom: "inception_3b/pool"
  top: "inception_3b/pool_proj"
  param {
    lr_mult: 1
    decay_mult: 1
  }
  param {
    lr_mult: 2
    decay_mult: 0
  }
  convolution_param {
    num_output: 64
    kernel_size: 1
    weight_filler {
      type: "xavier"
      std: 0.1
    }
    bias_filler {
      type: "constant"
      value: 0.2
    }
  }
}
layer {
  name: "inception_3b/relu_pool_proj"
  type: "ReLU"
  bottom: "inception_3b/pool_proj"
  top: "inception_3b/pool_proj"
}
layer {
  name: "inception_3b/output"
  type: "Concat"
  bottom: "inception_3b/1x1"
  bottom: "inception_3b/3x3"
  bottom: "inception_3b/5x5"
  bottom: "inception_3b/pool_proj"
  top: "inception_3b/output"
}
layer {
  name: "pool3/3x3_s2"
  type: "Pooling"
  bottom: "inception_3b/output"
  top: "pool3/3x3_s2"
  pooling_param {
    pool: MAX
    kernel_size: 3
    stride: 2
  }
}
layer {
  name: "inception_4a/1x1"
  type: "Convolution"
  bottom: "pool3/3x3_s2"
  top: "inception_4a/1x1"
  param {
    lr_mult: 1
    decay_mult: 1
  }
  param {
    lr_mult: 2
    decay_mult: 0
  }
  convolution_param {
    num_output: 192
    kernel_size: 1
    weight_filler {
      type: "xavier"
      std: 0.03
    }
    bias_filler {
      type: "constant"
      value: 0.2
    }
  }
}
layer {
  name: "inception_4a/relu_1x1"
  type: "ReLU"
  bottom: "inception_4a/1x1"
  top: "inception_4a/1x1"
}
layer {
  name: "inception_4a/3x3_reduce"
  type: "Convolution"
  bottom: "pool3/3x3_s2"
  top: "inception_4a/3x3_reduce"
  param {
    lr_mult: 1
    decay_mult: 1
  }
  param {
    lr_mult: 2
    decay_mult: 0
  }
  convolution_param {
    num_output: 96
    kernel_size: 1
    weight_filler {
      type: "xavier"
      std: 0.09
    }
    bias_filler {
      type: "constant"
      value: 0.2
    }
  }
}
layer {
  name: "inception_4a/relu_3x3_reduce"
  type: "ReLU"
  bottom: "inception_4a/3x3_reduce"
  top: "inception_4a/3x3_reduce"
}
layer {
  name: "inception_4a/3x3"
  type: "Convolution"
  bottom: "inception_4a/3x3_reduce"
  top: "inception_4a/3x3"
  param {
    lr_mult: 1
    decay_mult: 1
  }
  param {
    lr_mult: 2
    decay_mult: 0
  }
  convolution_param {
    num_output: 208
    pad: 1
    kernel_size: 3
    weight_filler {
      type: "xavier"
      std: 0.03
    }
    bias_filler {
      type: "constant"
      value: 0.2
    }
  }
}
layer {
  name: "inception_4a/relu_3x3"
  type: "ReLU"
  bottom: "inception_4a/3x3"
  top: "inception_4a/3x3"
}
layer {
  name: "inception_4a/5x5_reduce"
  type: "Convolution"
  bottom: "pool3/3x3_s2"
  top: "inception_4a/5x5_reduce"
  param {
    lr_mult: 1
    decay_mult: 1
  }
  param {
    lr_mult: 2
    decay_mult: 0
  }
  convolution_param {
    num_output: 16
    kernel_size: 1
    weight_filler {
      type: "xavier"
      std: 0.2
    }
    bias_filler {
      type: "constant"
      value: 0.2
    }
  }
}
layer {
  name: "inception_4a/relu_5x5_reduce"
  type: "ReLU"
  bottom: "inception_4a/5x5_reduce"
  top: "inception_4a/5x5_reduce"
}
layer {
  name: "inception_4a/5x5"
  type: "Convolution"
  bottom: "inception_4a/5x5_reduce"
  top: "inception_4a/5x5"
  param {
    lr_mult: 1
    decay_mult: 1
  }
  param {
    lr_mult: 2
    decay_mult: 0
  }
  convolution_param {
    num_output: 48
    pad: 2
    kernel_size: 5
    weight_filler {
      type: "xavier"
      std: 0.03
    }
    bias_filler {
      type: "constant"
      value: 0.2
    }
  }
}
layer {
  name: "inception_4a/relu_5x5"
  type: "ReLU"
  bottom: "inception_4a/5x5"
  top: "inception_4a/5x5"
}
layer {
  name: "inception_4a/pool"
  type: "Pooling"
  bottom: "pool3/3x3_s2"
  top: "inception_4a/pool"
  pooling_param {
    pool: MAX
    kernel_size: 3
    stride: 1
    pad: 1
  }
}
layer {
  name: "inception_4a/pool_proj"
  type: "Convolution"
  bottom: "inception_4a/pool"
  top: "inception_4a/pool_proj"
  param {
    lr_mult: 1
    decay_mult: 1
  }
  param {
    lr_mult: 2
    decay_mult: 0
  }
  convolution_param {
    num_output: 64
    kernel_size: 1
    weight_filler {
      type: "xavier"
      std: 0.1
    }
    bias_filler {
      type: "constant"
      value: 0.2
    }
  }
}
layer {
  name: "inception_4a/relu_pool_proj"
  type: "ReLU"
  bottom: "inception_4a/pool_proj"
  top: "inception_4a/pool_proj"
}
layer {
  name: "inception_4a/output"
  type: "Concat"
  bottom: "inception_4a/1x1"
  bottom: "inception_4a/3x3"
  bottom: "inception_4a/5x5"
  bottom: "inception_4a/pool_proj"
  top: "inception_4a/output"
}
layer {
  name: "loss1/ave_pool"
  type: "Pooling"
  bottom: "inception_4a/output"
  top: "loss1/ave_pool"
  pooling_param {
    pool: AVE
    kernel_size: 5
    stride: 3
  }
}
layer {
  name: "loss1/conv"
  type: "Convolution"
  bottom: "loss1/ave_pool"
  top: "loss1/conv"
  param {
    lr_mult: 1
    decay_mult: 1
  }
  param {
    lr_mult: 2
    decay_mult: 0
  }
  convolution_param {
    num_output: 128
    kernel_size: 1
    weight_filler {
      type: "xavier"
      std: 0.08
    }
    bias_filler {
      type: "constant"
      value: 0.2
    }
  }
}
layer {
  name: "loss1/relu_conv"
  type: "ReLU"
  bottom: "loss1/conv"
  top: "loss1/conv"
}
layer {
  name: "loss1/fc"
  type: "InnerProduct"
  bottom: "loss1/conv"
  top: "loss1/fc"
  param {
    lr_mult: 1
    decay_mult: 1
  }
  param {
    lr_mult: 2
    decay_mult: 0
  }
  inner_product_param {
    num_output: 1024
    weight_filler {
      type: "xavier"
      std: 0.02
    }
    bias_filler {
      type: "constant"
      value: 0.2
    }
  }
}
layer {
  name: "loss1/relu_fc"
  type: "ReLU"
  bottom: "loss1/fc"
  top: "loss1/fc"
}
layer {
  name: "loss1/drop_fc"
  type: "Dropout"
  bottom: "loss1/fc"
  top: "loss1/fc"
  dropout_param {
    dropout_ratio: 0.7
  }
}
layer {
  name: "loss1/classifier_plantvillage"
  type: "InnerProduct"
  bottom: "loss1/fc"
  top: "loss1/classifier_plantvillage"
  param {
    lr_mult: 1
    decay_mult: 1
  }
  param {
    lr_mult: 2
    decay_mult: 0
  }
  inner_product_param {
    num_output: 38
    weight_filler {
      type: "xavier"
      std: 0.0009765625
    }
    bias_filler {
      type: "constant"
      value: 0
    }
  }
}
layer {
  name: "inception_4b/1x1"
  type: "Convolution"
  bottom: "inception_4a/output"
  top: "inception_4b/1x1"
  param {
    lr_mult: 1
    decay_mult: 1
  }
  param {
    lr_mult: 2
    decay_mult: 0
  }
  convolution_param {
    num_output: 160
    kernel_size: 1
    weight_filler {
      type: "xavier"
      std: 0.03
    }
    bias_filler {
      type: "constant"
      value: 0.2
    }
  }
}
layer {
  name: "inception_4b/relu_1x1"
  type: "ReLU"
  bottom: "inception_4b/1x1"
  top: "inception_4b/1x1"
}
layer {
  name: "inception_4b/3x3_reduce"
  type: "Convolution"
  bottom: "inception_4a/output"
  top: "inception_4b/3x3_reduce"
  param {
    lr_mult: 1
    decay_mult: 1
  }
  param {
    lr_mult: 2
    decay_mult: 0
  }
  convolution_param {
    num_output: 112
    kernel_size: 1
    weight_filler {
      type: "xavier"
      std: 0.09
    }
    bias_filler {
      type: "constant"
      value: 0.2
    }
  }
}
layer {
  name: "inception_4b/relu_3x3_reduce"
  type: "ReLU"
  bottom: "inception_4b/3x3_reduce"
  top: "inception_4b/3x3_reduce"
}
layer {
  name: "inception_4b/3x3"
  type: "Convolution"
  bottom: "inception_4b/3x3_reduce"
  top: "inception_4b/3x3"
  param {
    lr_mult: 1
    decay_mult: 1
  }
  param {
    lr_mult: 2
    decay_mult: 0
  }
  convolution_param {
    num_output: 224
    pad: 1
    kernel_size: 3
    weight_filler {
      type: "xavier"
      std: 0.03
    }
    bias_filler {
      type: "constant"
      value: 0.2
    }
  }
}
layer {
  name: "inception_4b/relu_3x3"
  type: "ReLU"
  bottom: "inception_4b/3x3"
  top: "inception_4b/3x3"
}
layer {
  name: "inception_4b/5x5_reduce"
  type: "Convolution"
  bottom: "inception_4a/output"
  top: "inception_4b/5x5_reduce"
  param {
    lr_mult: 1
    decay_mult: 1
  }
  param {
    lr_mult: 2
    decay_mult: 0
  }
  convolution_param {
    num_output: 24
    kernel_size: 1
    weight_filler {
      type: "xavier"
      std: 0.2
    }
    bias_filler {
      type: "constant"
      value: 0.2
    }
  }
}
layer {
  name: "inception_4b/relu_5x5_reduce"
  type: "ReLU"
  bottom: "inception_4b/5x5_reduce"
  top: "inception_4b/5x5_reduce"
}
layer {
  name: "inception_4b/5x5"
  type: "Convolution"
  bottom: "inception_4b/5x5_reduce"
  top: "inception_4b/5x5"
  param {
    lr_mult: 1
    decay_mult: 1
  }
  param {
    lr_mult: 2
    decay_mult: 0
  }
  convolution_param {
    num_output: 64
    pad: 2
    kernel_size: 5
    weight_filler {
      type: "xavier"
      std: 0.03
    }
    bias_filler {
      type: "constant"
      value: 0.2
    }
  }
}
layer {
  name: "inception_4b/relu_5x5"
  type: "ReLU"
  bottom: "inception_4b/5x5"
  top: "inception_4b/5x5"
}
layer {
  name: "inception_4b/pool"
  type: "Pooling"
  bottom: "inception_4a/output"
  top: "inception_4b/pool"
  pooling_param {
    pool: MAX
    kernel_size: 3
    stride: 1
    pad: 1
  }
}
layer {
  name: "inception_4b/pool_proj"
  type: "Convolution"
  bottom: "inception_4b/pool"
  top: "inception_4b/pool_proj"
  param {
    lr_mult: 1
    decay_mult: 1
  }
  param {
    lr_mult: 2
    decay_mult: 0
  }
  convolution_param {
    num_output: 64
    kernel_size: 1
    weight_filler {
      type: "xavier"
      std: 0.1
    }
    bias_filler {
      type: "constant"
      value: 0.2
    }
  }
}
layer {
  name: "inception_4b/relu_pool_proj"
  type: "ReLU"
  bottom: "inception_4b/pool_proj"
  top: "inception_4b/pool_proj"
}
layer {
  name: "inception_4b/output"
  type: "Concat"
  bottom: "inception_4b/1x1"
  bottom: "inception_4b/3x3"
  bottom: "inception_4b/5x5"
  bottom: "inception_4b/pool_proj"
  top: "inception_4b/output"
}
layer {
  name: "inception_4c/1x1"
  type: "Convolution"
  bottom: "inception_4b/output"
  top: "inception_4c/1x1"
  param {
    lr_mult: 1
    decay_mult: 1
  }
  param {
    lr_mult: 2
    decay_mult: 0
  }
  convolution_param {
    num_output: 128
    kernel_size: 1
    weight_filler {
      type: "xavier"
      std: 0.03
    }
    bias_filler {
      type: "constant"
      value: 0.2
    }
  }
}
layer {
  name: "inception_4c/relu_1x1"
  type: "ReLU"
  bottom: "inception_4c/1x1"
  top: "inception_4c/1x1"
}
layer {
  name: "inception_4c/3x3_reduce"
  type: "Convolution"
  bottom: "inception_4b/output"
  top: "inception_4c/3x3_reduce"
  param {
    lr_mult: 1
    decay_mult: 1
  }
  param {
    lr_mult: 2
    decay_mult: 0
  }
  convolution_param {
    num_output: 128
    kernel_size: 1
    weight_filler {
      type: "xavier"
      std: 0.09
    }
    bias_filler {
      type: "constant"
      value: 0.2
    }
  }
}
layer {
  name: "inception_4c/relu_3x3_reduce"
  type: "ReLU"
  bottom: "inception_4c/3x3_reduce"
  top: "inception_4c/3x3_reduce"
}
layer {
  name: "inception_4c/3x3"
  type: "Convolution"
  bottom: "inception_4c/3x3_reduce"
  top: "inception_4c/3x3"
  param {
    lr_mult: 1
    decay_mult: 1
  }
  param {
    lr_mult: 2
    decay_mult: 0
  }
  convolution_param {
    num_output: 256
    pad: 1
    kernel_size: 3
    weight_filler {
      type: "xavier"
      std: 0.03
    }
    bias_filler {
      type: "constant"
      value: 0.2
    }
  }
}
layer {
  name: "inception_4c/relu_3x3"
  type: "ReLU"
  bottom: "inception_4c/3x3"
  top: "inception_4c/3x3"
}
layer {
  name: "inception_4c/5x5_reduce"
  type: "Convolution"
  bottom: "inception_4b/output"
  top: "inception_4c/5x5_reduce"
  param {
    lr_mult: 1
    decay_mult: 1
  }
  param {
    lr_mult: 2
    decay_mult: 0
  }
  convolution_param {
    num_output: 24
    kernel_size: 1
    weight_filler {
      type: "xavier"
      std: 0.2
    }
    bias_filler {
      type: "constant"
      value: 0.2
    }
  }
}
layer {
  name: "inception_4c/relu_5x5_reduce"
  type: "ReLU"
  bottom: "inception_4c/5x5_reduce"
  top: "inception_4c/5x5_reduce"
}
layer {
  name: "inception_4c/5x5"
  type: "Convolution"
  bottom: "inception_4c/5x5_reduce"
  top: "inception_4c/5x5"
  param {
    lr_mult: 1
    decay_mult: 1
  }
  param {
    lr_mult: 2
    decay_mult: 0
  }
  convolution_param {
    num_output: 64
    pad: 2
    kernel_size: 5
    weight_filler {
      type: "xavier"
      std: 0.03
    }
    bias_filler {
      type: "constant"
      value: 0.2
    }
  }
}
layer {
  name: "inception_4c/relu_5x5"
  type: "ReLU"
  bottom: "inception_4c/5x5"
  top: "inception_4c/5x5"
}
layer {
  name: "inception_4c/pool"
  type: "Pooling"
  bottom: "inception_4b/output"
  top: "inception_4c/pool"
  pooling_param {
    pool: MAX
    kernel_size: 3
    stride: 1
    pad: 1
  }
}
layer {
  name: "inception_4c/pool_proj"
  type: "Convolution"
  bottom: "inception_4c/pool"
  top: "inception_4c/pool_proj"
  param {
    lr_mult: 1
    decay_mult: 1
  }
  param {
    lr_mult: 2
    decay_mult: 0
  }
  convolution_param {
    num_output: 64
    kernel_size: 1
    weight_filler {
      type: "xavier"
      std: 0.1
    }
    bias_filler {
      type: "constant"
      value: 0.2
    }
  }
}
layer {
  name: "inception_4c/relu_pool_proj"
  type: "ReLU"
  bottom: "inception_4c/pool_proj"
  top: "inception_4c/pool_proj"
}
layer {
  name: "inception_4c/output"
  type: "Concat"
  bottom: "inception_4c/1x1"
  bottom: "inception_4c/3x3"
  bottom: "inception_4c/5x5"
  bottom: "inception_4c/pool_proj"
  top: "inception_4c/output"
}
layer {
  name: "inception_4d/1x1"
  type: "Convolution"
  bottom: "inception_4c/output"
  top: "inception_4d/1x1"
  param {
    lr_mult: 1
    decay_mult: 1
  }
  param {
    lr_mult: 2
    decay_mult: 0
  }
  convolution_param {
    num_output: 112
    kernel_size: 1
    weight_filler {
      type: "xavier"
      std: 0.03
    }
    bias_filler {
      type: "constant"
      value: 0.2
    }
  }
}
layer {
  name: "inception_4d/relu_1x1"
  type: "ReLU"
  bottom: "inception_4d/1x1"
  top: "inception_4d/1x1"
}
layer {
  name: "inception_4d/3x3_reduce"
  type: "Convolution"
  bottom: "inception_4c/output"
  top: "inception_4d/3x3_reduce"
  param {
    lr_mult: 1
    decay_mult: 1
  }
  param {
    lr_mult: 2
    decay_mult: 0
  }
  convolution_param {
    num_output: 144
    kernel_size: 1
    weight_filler {
      type: "xavier"
      std: 0.09
    }
    bias_filler {
      type: "constant"
      value: 0.2
    }
  }
}
layer {
  name: "inception_4d/relu_3x3_reduce"
  type: "ReLU"
  bottom: "inception_4d/3x3_reduce"
  top: "inception_4d/3x3_reduce"
}
layer {
  name: "inception_4d/3x3"
  type: "Convolution"
  bottom: "inception_4d/3x3_reduce"
  top: "inception_4d/3x3"
  param {
    lr_mult: 1
    decay_mult: 1
  }
  param {
    lr_mult: 2
    decay_mult: 0
  }
  convolution_param {
    num_output: 288
    pad: 1
    kernel_size: 3
    weight_filler {
      type: "xavier"
      std: 0.03
    }
    bias_filler {
      type: "constant"
      value: 0.2
    }
  }
}
layer {
  name: "inception_4d/relu_3x3"
  type: "ReLU"
  bottom: "inception_4d/3x3"
  top: "inception_4d/3x3"
}
layer {
  name: "inception_4d/5x5_reduce"
  type: "Convolution"
  bottom: "inception_4c/output"
  top: "inception_4d/5x5_reduce"
  param {
    lr_mult: 1
    decay_mult: 1
  }
  param {
    lr_mult: 2
    decay_mult: 0
  }
  convolution_param {
    num_output: 32
    kernel_size: 1
    weight_filler {
      type: "xavier"
      std: 0.2
    }
    bias_filler {
      type: "constant"
      value: 0.2
    }
  }
}
layer {
  name: "inception_4d/relu_5x5_reduce"
  type: "ReLU"
  bottom: "inception_4d/5x5_reduce"
  top: "inception_4d/5x5_reduce"
}
layer {
  name: "inception_4d/5x5"
  type: "Convolution"
  bottom: "inception_4d/5x5_reduce"
  top: "inception_4d/5x5"
  param {
    lr_mult: 1
    decay_mult: 1
  }
  param {
    lr_mult: 2
    decay_mult: 0
  }
  convolution_param {
    num_output: 64
    pad: 2
    kernel_size: 5
    weight_filler {
      type: "xavier"
      std: 0.03
    }
    bias_filler {
      type: "constant"
      value: 0.2
    }
  }
}
layer {
  name: "inception_4d/relu_5x5"
  type: "ReLU"
  bottom: "inception_4d/5x5"
  top: "inception_4d/5x5"
}
layer {
  name: "inception_4d/pool"
  type: "Pooling"
  bottom: "inception_4c/output"
  top: "inception_4d/pool"
  pooling_param {
    pool: MAX
    kernel_size: 3
    stride: 1
    pad: 1
  }
}
layer {
  name: "inception_4d/pool_proj"
  type: "Convolution"
  bottom: "inception_4d/pool"
  top: "inception_4d/pool_proj"
  param {
    lr_mult: 1
    decay_mult: 1
  }
  param {
    lr_mult: 2
    decay_mult: 0
  }
  convolution_param {
    num_output: 64
    kernel_size: 1
    weight_filler {
      type: "xavier"
      std: 0.1
    }
    bias_filler {
      type: "constant"
      value: 0.2
    }
  }
}
layer {
  name: "inception_4d/relu_pool_proj"
  type: "ReLU"
  bottom: "inception_4d/pool_proj"
  top: "inception_4d/pool_proj"
}
layer {
  name: "inception_4d/output"
  type: "Concat"
  bottom: "inception_4d/1x1"
  bottom: "inception_4d/3x3"
  bottom: "inception_4d/5x5"
  bottom: "inception_4d/pool_proj"
  top: "inception_4d/output"
}
layer {
  name: "loss2/ave_pool"
  type: "Pooling"
  bottom: "inception_4d/output"
  top: "loss2/ave_pool"
  pooling_param {
    pool: AVE
    kernel_size: 5
    stride: 3
  }
}
layer {
  name: "loss2/conv"
  type: "Convolution"
  bottom: "loss2/ave_pool"
  top: "loss2/conv"
  param {
    lr_mult: 1
    decay_mult: 1
  }
  param {
    lr_mult: 2
    decay_mult: 0
  }
  convolution_param {
    num_output: 128
    kernel_size: 1
    weight_filler {
      type: "xavier"
      std: 0.08
    }
    bias_filler {
      type: "constant"
      value: 0.2
    }
  }
}
layer {
  name: "loss2/relu_conv"
  type: "ReLU"
  bottom: "loss2/conv"
  top: "loss2/conv"
}
layer {
  name: "loss2/fc"
  type: "InnerProduct"
  bottom: "loss2/conv"
  top: "loss2/fc"
  param {
    lr_mult: 1
    decay_mult: 1
  }
  param {
    lr_mult: 2
    decay_mult: 0
  }
  inner_product_param {
    num_output: 1024
    weight_filler {
      type: "xavier"
      std: 0.02
    }
    bias_filler {
      type: "constant"
      value: 0.2
    }
  }
}
layer {
  name: "loss2/relu_fc"
  type: "ReLU"
  bottom: "loss2/fc"
  top: "loss2/fc"
}
layer {
  name: "loss2/drop_fc"
  type: "Dropout"
  bottom: "loss2/fc"
  top: "loss2/fc"
  dropout_param {
    dropout_ratio: 0.7
  }
}
layer {
  name: "loss2/classifier_plantvillage"
  type: "InnerProduct"
  bottom: "loss2/fc"
  top: "loss2/classifier_plantvillage"
  param {
    lr_mult: 1
    decay_mult: 1
  }
  param {
    lr_mult: 2
    decay_mult: 0
  }
  inner_product_param {
    num_output: 38
    weight_filler {
      type: "xavier"
      std: 0.0009765625
    }
    bias_filler {
      type: "constant"
      value: 0
    }
  }
}
layer {
  name: "inception_4e/1x1"
  type: "Convolution"
  bottom: "inception_4d/output"
  top: "inception_4e/1x1"
  param {
    lr_mult: 1
    decay_mult: 1
  }
  param {
    lr_mult: 2
    decay_mult: 0
  }
  convolution_param {
    num_output: 256
    kernel_size: 1
    weight_filler {
      type: "xavier"
      std: 0.03
    }
    bias_filler {
      type: "constant"
      value: 0.2
    }
  }
}
layer {
  name: "inception_4e/relu_1x1"
  type: "ReLU"
  bottom: "inception_4e/1x1"
  top: "inception_4e/1x1"
}
layer {
  name: "inception_4e/3x3_reduce"
  type: "Convolution"
  bottom: "inception_4d/output"
  top: "inception_4e/3x3_reduce"
  param {
    lr_mult: 1
    decay_mult: 1
  }
  param {
    lr_mult: 2
    decay_mult: 0
  }
  convolution_param {
    num_output: 160
    kernel_size: 1
    weight_filler {
      type: "xavier"
      std: 0.09
    }
    bias_filler {
      type: "constant"
      value: 0.2
    }
  }
}
layer {
  name: "inception_4e/relu_3x3_reduce"
  type: "ReLU"
  bottom: "inception_4e/3x3_reduce"
  top: "inception_4e/3x3_reduce"
}
layer {
  name: "inception_4e/3x3"
  type: "Convolution"
  bottom: "inception_4e/3x3_reduce"
  top: "inception_4e/3x3"
  param {
    lr_mult: 1
    decay_mult: 1
  }
  param {
    lr_mult: 2
    decay_mult: 0
  }
  convolution_param {
    num_output: 320
    pad: 1
    kernel_size: 3
    weight_filler {
      type: "xavier"
      std: 0.03
    }
    bias_filler {
      type: "constant"
      value: 0.2
    }
  }
}
layer {
  name: "inception_4e/relu_3x3"
  type: "ReLU"
  bottom: "inception_4e/3x3"
  top: "inception_4e/3x3"
}
layer {
  name: "inception_4e/5x5_reduce"
  type: "Convolution"
  bottom: "inception_4d/output"
  top: "inception_4e/5x5_reduce"
  param {
    lr_mult: 1
    decay_mult: 1
  }
  param {
    lr_mult: 2
    decay_mult: 0
  }
  convolution_param {
    num_output: 32
    kernel_size: 1
    weight_filler {
      type: "xavier"
      std: 0.2
    }
    bias_filler {
      type: "constant"
      value: 0.2
    }
  }
}
layer {
  name: "inception_4e/relu_5x5_reduce"
  type: "ReLU"
  bottom: "inception_4e/5x5_reduce"
  top: "inception_4e/5x5_reduce"
}
layer {
  name: "inception_4e/5x5"
  type: "Convolution"
  bottom: "inception_4e/5x5_reduce"
  top: "inception_4e/
I0403 18:14:34.954896  6726 layer_factory.hpp:77] Creating layer data
I0403 18:14:34.955549  6726 net.cpp:91] Creating Layer data
I0403 18:14:34.955586  6726 net.cpp:399] data -> data
I0403 18:14:34.955641  6726 net.cpp:399] data -> label
I0403 18:14:34.955698  6726 data_transformer.cpp:25] Loading mean file from: /home/mohanty/data/final_dataset/lmdb/segmented-50-50/mean.binaryproto
I0403 18:14:34.969383  6729 db_lmdb.cpp:38] Opened lmdb /home/mohanty/data/final_dataset/lmdb/segmented-50-50/test_db
I0403 18:14:34.972951  6726 data_layer.cpp:41] output data size: 24,3,224,224
I0403 18:14:35.003340  6726 net.cpp:141] Setting up data
I0403 18:14:35.003412  6726 net.cpp:148] Top shape: 24 3 224 224 (3612672)
I0403 18:14:35.003434  6726 net.cpp:148] Top shape: 24 (24)
I0403 18:14:35.003450  6726 net.cpp:156] Memory required for data: 14450784
I0403 18:14:35.003479  6726 layer_factory.hpp:77] Creating layer label_data_1_split
I0403 18:14:35.003506  6726 net.cpp:91] Creating Layer label_data_1_split
I0403 18:14:35.003525  6726 net.cpp:425] label_data_1_split <- label
I0403 18:14:35.003557  6726 net.cpp:399] label_data_1_split -> label_data_1_split_0
I0403 18:14:35.003585  6726 net.cpp:399] label_data_1_split -> label_data_1_split_1
I0403 18:14:35.003608  6726 net.cpp:399] label_data_1_split -> label_data_1_split_2
I0403 18:14:35.003630  6726 net.cpp:399] label_data_1_split -> label_data_1_split_3
I0403 18:14:35.003651  6726 net.cpp:399] label_data_1_split -> label_data_1_split_4
I0403 18:14:35.003671  6726 net.cpp:399] label_data_1_split -> label_data_1_split_5
I0403 18:14:35.003691  6726 net.cpp:399] label_data_1_split -> label_data_1_split_6
I0403 18:14:35.003712  6726 net.cpp:399] label_data_1_split -> label_data_1_split_7
I0403 18:14:35.003732  6726 net.cpp:399] label_data_1_split -> label_data_1_split_8
I0403 18:14:35.003752  6726 net.cpp:399] label_data_1_split -> label_data_1_split_9
I0403 18:14:35.003871  6726 net.cpp:141] Setting up label_data_1_split
I0403 18:14:35.003895  6726 net.cpp:148] Top shape: 24 (24)
I0403 18:14:35.003913  6726 net.cpp:148] Top shape: 24 (24)
I0403 18:14:35.003929  6726 net.cpp:148] Top shape: 24 (24)
I0403 18:14:35.003945  6726 net.cpp:148] Top shape: 24 (24)
I0403 18:14:35.003962  6726 net.cpp:148] Top shape: 24 (24)
I0403 18:14:35.003978  6726 net.cpp:148] Top shape: 24 (24)
I0403 18:14:35.003994  6726 net.cpp:148] Top shape: 24 (24)
I0403 18:14:35.004010  6726 net.cpp:148] Top shape: 24 (24)
I0403 18:14:35.004026  6726 net.cpp:148] Top shape: 24 (24)
I0403 18:14:35.004045  6726 net.cpp:148] Top shape: 24 (24)
I0403 18:14:35.004092  6726 net.cpp:156] Memory required for data: 14451744
I0403 18:14:35.004109  6726 layer_factory.hpp:77] Creating layer conv1/7x7_s2
I0403 18:14:35.004142  6726 net.cpp:91] Creating Layer conv1/7x7_s2
I0403 18:14:35.004161  6726 net.cpp:425] conv1/7x7_s2 <- data
I0403 18:14:35.004185  6726 net.cpp:399] conv1/7x7_s2 -> conv1/7x7_s2
I0403 18:14:35.178850  6726 net.cpp:141] Setting up conv1/7x7_s2
I0403 18:14:35.178951  6726 net.cpp:148] Top shape: 24 64 112 112 (19267584)
I0403 18:14:35.178969  6726 net.cpp:156] Memory required for data: 91522080
I0403 18:14:35.179002  6726 layer_factory.hpp:77] Creating layer conv1/relu_7x7
I0403 18:14:35.179029  6726 net.cpp:91] Creating Layer conv1/relu_7x7
I0403 18:14:35.179049  6726 net.cpp:425] conv1/relu_7x7 <- conv1/7x7_s2
I0403 18:14:35.179067  6726 net.cpp:386] conv1/relu_7x7 -> conv1/7x7_s2 (in-place)
I0403 18:14:35.179352  6726 net.cpp:141] Setting up conv1/relu_7x7
I0403 18:14:35.179381  6726 net.cpp:148] Top shape: 24 64 112 112 (19267584)
I0403 18:14:35.179397  6726 net.cpp:156] Memory required for data: 168592416
I0403 18:14:35.179414  6726 layer_factory.hpp:77] Creating layer pool1/3x3_s2
I0403 18:14:35.179441  6726 net.cpp:91] Creating Layer pool1/3x3_s2
I0403 18:14:35.179461  6726 net.cpp:425] pool1/3x3_s2 <- conv1/7x7_s2
I0403 18:14:35.179482  6726 net.cpp:399] pool1/3x3_s2 -> pool1/3x3_s2
I0403 18:14:35.179564  6726 net.cpp:141] Setting up pool1/3x3_s2
I0403 18:14:35.179589  6726 net.cpp:148] Top shape: 24 64 56 56 (4816896)
I0403 18:14:35.179605  6726 net.cpp:156] Memory required for data: 187860000
I0403 18:14:35.179621  6726 layer_factory.hpp:77] Creating layer pool1/norm1
I0403 18:14:35.179648  6726 net.cpp:91] Creating Layer pool1/norm1
I0403 18:14:35.179667  6726 net.cpp:425] pool1/norm1 <- pool1/3x3_s2
I0403 18:14:35.179685  6726 net.cpp:399] pool1/norm1 -> pool1/norm1
I0403 18:14:35.179999  6726 net.cpp:141] Setting up pool1/norm1
I0403 18:14:35.180030  6726 net.cpp:148] Top shape: 24 64 56 56 (4816896)
I0403 18:14:35.180047  6726 net.cpp:156] Memory required for data: 207127584
I0403 18:14:35.180065  6726 layer_factory.hpp:77] Creating layer conv2/3x3_reduce
I0403 18:14:35.180091  6726 net.cpp:91] Creating Layer conv2/3x3_reduce
I0403 18:14:35.180110  6726 net.cpp:425] conv2/3x3_reduce <- pool1/norm1
I0403 18:14:35.180130  6726 net.cpp:399] conv2/3x3_reduce -> conv2/3x3_reduce
I0403 18:14:35.181615  6726 net.cpp:141] Setting up conv2/3x3_reduce
I0403 18:14:35.181646  6726 net.cpp:148] Top shape: 24 64 56 56 (4816896)
I0403 18:14:35.181663  6726 net.cpp:156] Memory required for data: 226395168
I0403 18:14:35.181685  6726 layer_factory.hpp:77] Creating layer conv2/relu_3x3_reduce
I0403 18:14:35.181707  6726 net.cpp:91] Creating Layer conv2/relu_3x3_reduce
I0403 18:14:35.181725  6726 net.cpp:425] conv2/relu_3x3_reduce <- conv2/3x3_reduce
I0403 18:14:35.181743  6726 net.cpp:386] conv2/relu_3x3_reduce -> conv2/3x3_reduce (in-place)
I0403 18:14:35.182025  6726 net.cpp:141] Setting up conv2/relu_3x3_reduce
I0403 18:14:35.182054  6726 net.cpp:148] Top shape: 24 64 56 56 (4816896)
I0403 18:14:35.182070  6726 net.cpp:156] Memory required for data: 245662752
I0403 18:14:35.182085  6726 layer_factory.hpp:77] Creating layer conv2/3x3
I0403 18:14:35.182111  6726 net.cpp:91] Creating Layer conv2/3x3
I0403 18:14:35.182131  6726 net.cpp:425] conv2/3x3 <- conv2/3x3_reduce
I0403 18:14:35.182154  6726 net.cpp:399] conv2/3x3 -> conv2/3x3
I0403 18:14:35.184594  6726 net.cpp:141] Setting up conv2/3x3
I0403 18:14:35.184626  6726 net.cpp:148] Top shape: 24 192 56 56 (14450688)
I0403 18:14:35.184643  6726 net.cpp:156] Memory required for data: 303465504
I0403 18:14:35.184665  6726 layer_factory.hpp:77] Creating layer conv2/relu_3x3
I0403 18:14:35.184689  6726 net.cpp:91] Creating Layer conv2/relu_3x3
I0403 18:14:35.184706  6726 net.cpp:425] conv2/relu_3x3 <- conv2/3x3
I0403 18:14:35.184725  6726 net.cpp:386] conv2/relu_3x3 -> conv2/3x3 (in-place)
I0403 18:14:35.184907  6726 net.cpp:141] Setting up conv2/relu_3x3
I0403 18:14:35.184937  6726 net.cpp:148] Top shape: 24 192 56 56 (14450688)
I0403 18:14:35.184983  6726 net.cpp:156] Memory required for data: 361268256
I0403 18:14:35.185000  6726 layer_factory.hpp:77] Creating layer conv2/norm2
I0403 18:14:35.185020  6726 net.cpp:91] Creating Layer conv2/norm2
I0403 18:14:35.185037  6726 net.cpp:425] conv2/norm2 <- conv2/3x3
I0403 18:14:35.185057  6726 net.cpp:399] conv2/norm2 -> conv2/norm2
I0403 18:14:35.185380  6726 net.cpp:141] Setting up conv2/norm2
I0403 18:14:35.185410  6726 net.cpp:148] Top shape: 24 192 56 56 (14450688)
I0403 18:14:35.185425  6726 net.cpp:156] Memory required for data: 419071008
I0403 18:14:35.185442  6726 layer_factory.hpp:77] Creating layer pool2/3x3_s2
I0403 18:14:35.185461  6726 net.cpp:91] Creating Layer pool2/3x3_s2
I0403 18:14:35.185478  6726 net.cpp:425] pool2/3x3_s2 <- conv2/norm2
I0403 18:14:35.185503  6726 net.cpp:399] pool2/3x3_s2 -> pool2/3x3_s2
I0403 18:14:35.185559  6726 net.cpp:141] Setting up pool2/3x3_s2
I0403 18:14:35.185585  6726 net.cpp:148] Top shape: 24 192 28 28 (3612672)
I0403 18:14:35.185600  6726 net.cpp:156] Memory required for data: 433521696
I0403 18:14:35.185616  6726 layer_factory.hpp:77] Creating layer pool2/3x3_s2_pool2/3x3_s2_0_split
I0403 18:14:35.185639  6726 net.cpp:91] Creating Layer pool2/3x3_s2_pool2/3x3_s2_0_split
I0403 18:14:35.185657  6726 net.cpp:425] pool2/3x3_s2_pool2/3x3_s2_0_split <- pool2/3x3_s2
I0403 18:14:35.185678  6726 net.cpp:399] pool2/3x3_s2_pool2/3x3_s2_0_split -> pool2/3x3_s2_pool2/3x3_s2_0_split_0
I0403 18:14:35.185699  6726 net.cpp:399] pool2/3x3_s2_pool2/3x3_s2_0_split -> pool2/3x3_s2_pool2/3x3_s2_0_split_1
I0403 18:14:35.185721  6726 net.cpp:399] pool2/3x3_s2_pool2/3x3_s2_0_split -> pool2/3x3_s2_pool2/3x3_s2_0_split_2
I0403 18:14:35.185742  6726 net.cpp:399] pool2/3x3_s2_pool2/3x3_s2_0_split -> pool2/3x3_s2_pool2/3x3_s2_0_split_3
I0403 18:14:35.185817  6726 net.cpp:141] Setting up pool2/3x3_s2_pool2/3x3_s2_0_split
I0403 18:14:35.185840  6726 net.cpp:148] Top shape: 24 192 28 28 (3612672)
I0403 18:14:35.185859  6726 net.cpp:148] Top shape: 24 192 28 28 (3612672)
I0403 18:14:35.185875  6726 net.cpp:148] Top shape: 24 192 28 28 (3612672)
I0403 18:14:35.185892  6726 net.cpp:148] Top shape: 24 192 28 28 (3612672)
I0403 18:14:35.185906  6726 net.cpp:156] Memory required for data: 491324448
I0403 18:14:35.185921  6726 layer_factory.hpp:77] Creating layer inception_3a/1x1
I0403 18:14:35.185945  6726 net.cpp:91] Creating Layer inception_3a/1x1
I0403 18:14:35.185963  6726 net.cpp:425] inception_3a/1x1 <- pool2/3x3_s2_pool2/3x3_s2_0_split_0
I0403 18:14:35.185986  6726 net.cpp:399] inception_3a/1x1 -> inception_3a/1x1
I0403 18:14:35.187613  6726 net.cpp:141] Setting up inception_3a/1x1
I0403 18:14:35.187644  6726 net.cpp:148] Top shape: 24 64 28 28 (1204224)
I0403 18:14:35.187661  6726 net.cpp:156] Memory required for data: 496141344
I0403 18:14:35.187682  6726 layer_factory.hpp:77] Creating layer inception_3a/relu_1x1
I0403 18:14:35.187705  6726 net.cpp:91] Creating Layer inception_3a/relu_1x1
I0403 18:14:35.187721  6726 net.cpp:425] inception_3a/relu_1x1 <- inception_3a/1x1
I0403 18:14:35.187741  6726 net.cpp:386] inception_3a/relu_1x1 -> inception_3a/1x1 (in-place)
I0403 18:14:35.187921  6726 net.cpp:141] Setting up inception_3a/relu_1x1
I0403 18:14:35.187947  6726 net.cpp:148] Top shape: 24 64 28 28 (1204224)
I0403 18:14:35.187963  6726 net.cpp:156] Memory required for data: 500958240
I0403 18:14:35.187978  6726 layer_factory.hpp:77] Creating layer inception_3a/3x3_reduce
I0403 18:14:35.188004  6726 net.cpp:91] Creating Layer inception_3a/3x3_reduce
I0403 18:14:35.188024  6726 net.cpp:425] inception_3a/3x3_reduce <- pool2/3x3_s2_pool2/3x3_s2_0_split_1
I0403 18:14:35.188045  6726 net.cpp:399] inception_3a/3x3_reduce -> inception_3a/3x3_reduce
I0403 18:14:35.189842  6726 net.cpp:141] Setting up inception_3a/3x3_reduce
I0403 18:14:35.189874  6726 net.cpp:148] Top shape: 24 96 28 28 (1806336)
I0403 18:14:35.189891  6726 net.cpp:156] Memory required for data: 508183584
I0403 18:14:35.189914  6726 layer_factory.hpp:77] Creating layer inception_3a/relu_3x3_reduce
I0403 18:14:35.189954  6726 net.cpp:91] Creating Layer inception_3a/relu_3x3_reduce
I0403 18:14:35.189975  6726 net.cpp:425] inception_3a/relu_3x3_reduce <- inception_3a/3x3_reduce
I0403 18:14:35.189993  6726 net.cpp:386] inception_3a/relu_3x3_reduce -> inception_3a/3x3_reduce (in-place)
I0403 18:14:35.190186  6726 net.cpp:141] Setting up inception_3a/relu_3x3_reduce
I0403 18:14:35.190217  6726 net.cpp:148] Top shape: 24 96 28 28 (1806336)
I0403 18:14:35.190233  6726 net.cpp:156] Memory required for data: 515408928
I0403 18:14:35.190253  6726 layer_factory.hpp:77] Creating layer inception_3a/3x3
I0403 18:14:35.190275  6726 net.cpp:91] Creating Layer inception_3a/3x3
I0403 18:14:35.190294  6726 net.cpp:425] inception_3a/3x3 <- inception_3a/3x3_reduce
I0403 18:14:35.190318  6726 net.cpp:399] inception_3a/3x3 -> inception_3a/3x3
I0403 18:14:35.192059  6726 net.cpp:141] Setting up inception_3a/3x3
I0403 18:14:35.192088  6726 net.cpp:148] Top shape: 24 128 28 28 (2408448)
I0403 18:14:35.192104  6726 net.cpp:156] Memory required for data: 525042720
I0403 18:14:35.192123  6726 layer_factory.hpp:77] Creating layer inception_3a/relu_3x3
I0403 18:14:35.192145  6726 net.cpp:91] Creating Layer inception_3a/relu_3x3
I0403 18:14:35.192163  6726 net.cpp:425] inception_3a/relu_3x3 <- inception_3a/3x3
I0403 18:14:35.192181  6726 net.cpp:386] inception_3a/relu_3x3 -> inception_3a/3x3 (in-place)
I0403 18:14:35.192476  6726 net.cpp:141] Setting up inception_3a/relu_3x3
I0403 18:14:35.192504  6726 net.cpp:148] Top shape: 24 128 28 28 (2408448)
I0403 18:14:35.192520  6726 net.cpp:156] Memory required for data: 534676512
I0403 18:14:35.192536  6726 layer_factory.hpp:77] Creating layer inception_3a/5x5_reduce
I0403 18:14:35.192560  6726 net.cpp:91] Creating Layer inception_3a/5x5_reduce
I0403 18:14:35.192579  6726 net.cpp:425] inception_3a/5x5_reduce <- pool2/3x3_s2_pool2/3x3_s2_0_split_2
I0403 18:14:35.192601  6726 net.cpp:399] inception_3a/5x5_reduce -> inception_3a/5x5_reduce
I0403 18:14:35.193613  6726 net.cpp:141] Setting up inception_3a/5x5_reduce
I0403 18:14:35.193645  6726 net.cpp:148] Top shape: 24 16 28 28 (301056)
I0403 18:14:35.193662  6726 net.cpp:156] Memory required for data: 535880736
I0403 18:14:35.193682  6726 layer_factory.hpp:77] Creating layer inception_3a/relu_5x5_reduce
I0403 18:14:35.193701  6726 net.cpp:91] Creating Layer inception_3a/relu_5x5_reduce
I0403 18:14:35.193718  6726 net.cpp:425] inception_3a/relu_5x5_reduce <- inception_3a/5x5_reduce
I0403 18:14:35.193737  6726 net.cpp:386] inception_3a/relu_5x5_reduce -> inception_3a/5x5_reduce (in-place)
I0403 18:14:35.194033  6726 net.cpp:141] Setting up inception_3a/relu_5x5_reduce
I0403 18:14:35.194064  6726 net.cpp:148] Top shape: 24 16 28 28 (301056)
I0403 18:14:35.194082  6726 net.cpp:156] Memory required for data: 537084960
I0403 18:14:35.194097  6726 layer_factory.hpp:77] Creating layer inception_3a/5x5
I0403 18:14:35.194121  6726 net.cpp:91] Creating Layer inception_3a/5x5
I0403 18:14:35.194140  6726 net.cpp:425] inception_3a/5x5 <- inception_3a/5x5_reduce
I0403 18:14:35.194161  6726 net.cpp:399] inception_3a/5x5 -> inception_3a/5x5
I0403 18:14:35.195225  6726 net.cpp:141] Setting up inception_3a/5x5
I0403 18:14:35.195253  6726 net.cpp:148] Top shape: 24 32 28 28 (602112)
I0403 18:14:35.195271  6726 net.cpp:156] Memory required for data: 539493408
I0403 18:14:35.195291  6726 layer_factory.hpp:77] Creating layer inception_3a/relu_5x5
I0403 18:14:35.195312  6726 net.cpp:91] Creating Layer inception_3a/relu_5x5
I0403 18:14:35.195330  6726 net.cpp:425] inception_3a/relu_5x5 <- inception_3a/5x5
I0403 18:14:35.195349  6726 net.cpp:386] inception_3a/relu_5x5 -> inception_3a/5x5 (in-place)
I0403 18:14:35.195536  6726 net.cpp:141] Setting up inception_3a/relu_5x5
I0403 18:14:35.195561  6726 net.cpp:148] Top shape: 24 32 28 28 (602112)
I0403 18:14:35.195577  6726 net.cpp:156] Memory required for data: 541901856
I0403 18:14:35.195593  6726 layer_factory.hpp:77] Creating layer inception_3a/pool
I0403 18:14:35.195616  6726 net.cpp:91] Creating Layer inception_3a/pool
I0403 18:14:35.195647  6726 net.cpp:425] inception_3a/pool <- pool2/3x3_s2_pool2/3x3_s2_0_split_3
I0403 18:14:35.195670  6726 net.cpp:399] inception_3a/pool -> inception_3a/pool
I0403 18:14:35.195730  6726 net.cpp:141] Setting up inception_3a/pool
I0403 18:14:35.195755  6726 net.cpp:148] Top shape: 24 192 28 28 (3612672)
I0403 18:14:35.195771  6726 net.cpp:156] Memory required for data: 556352544
I0403 18:14:35.195788  6726 layer_factory.hpp:77] Creating layer inception_3a/pool_proj
I0403 18:14:35.195812  6726 net.cpp:91] Creating Layer inception_3a/pool_proj
I0403 18:14:35.195832  6726 net.cpp:425] inception_3a/pool_proj <- inception_3a/pool
I0403 18:14:35.195854  6726 net.cpp:399] inception_3a/pool_proj -> inception_3a/pool_proj
I0403 18:14:35.196858  6726 net.cpp:141] Setting up inception_3a/pool_proj
I0403 18:14:35.196887  6726 net.cpp:148] Top shape: 24 32 28 28 (602112)
I0403 18:14:35.196904  6726 net.cpp:156] Memory required for data: 558760992
I0403 18:14:35.196929  6726 layer_factory.hpp:77] Creating layer inception_3a/relu_pool_proj
I0403 18:14:35.196950  6726 net.cpp:91] Creating Layer inception_3a/relu_pool_proj
I0403 18:14:35.196967  6726 net.cpp:425] inception_3a/relu_pool_proj <- inception_3a/pool_proj
I0403 18:14:35.196986  6726 net.cpp:386] inception_3a/relu_pool_proj -> inception_3a/pool_proj (in-place)
I0403 18:14:35.197275  6726 net.cpp:141] Setting up inception_3a/relu_pool_proj
I0403 18:14:35.197304  6726 net.cpp:148] Top shape: 24 32 28 28 (602112)
I0403 18:14:35.197319  6726 net.cpp:156] Memory required for data: 561169440
I0403 18:14:35.197335  6726 layer_factory.hpp:77] Creating layer inception_3a/output
I0403 18:14:35.197358  6726 net.cpp:91] Creating Layer inception_3a/output
I0403 18:14:35.197376  6726 net.cpp:425] inception_3a/output <- inception_3a/1x1
I0403 18:14:35.197393  6726 net.cpp:425] inception_3a/output <- inception_3a/3x3
I0403 18:14:35.197409  6726 net.cpp:425] inception_3a/output <- inception_3a/5x5
I0403 18:14:35.197427  6726 net.cpp:425] inception_3a/output <- inception_3a/pool_proj
I0403 18:14:35.197445  6726 net.cpp:399] inception_3a/output -> inception_3a/output
I0403 18:14:35.197496  6726 net.cpp:141] Setting up inception_3a/output
I0403 18:14:35.197520  6726 net.cpp:148] Top shape: 24 256 28 28 (4816896)
I0403 18:14:35.197536  6726 net.cpp:156] Memory required for data: 580437024
I0403 18:14:35.197551  6726 layer_factory.hpp:77] Creating layer inception_3a/output_inception_3a/output_0_split
I0403 18:14:35.197569  6726 net.cpp:91] Creating Layer inception_3a/output_inception_3a/output_0_split
I0403 18:14:35.197587  6726 net.cpp:425] inception_3a/output_inception_3a/output_0_split <- inception_3a/output
I0403 18:14:35.197607  6726 net.cpp:399] inception_3a/output_inception_3a/output_0_split -> inception_3a/output_inception_3a/output_0_split_0
I0403 18:14:35.197630  6726 net.cpp:399] inception_3a/output_inception_3a/output_0_split -> inception_3a/output_inception_3a/output_0_split_1
I0403 18:14:35.197654  6726 net.cpp:399] inception_3a/output_inception_3a/output_0_split -> inception_3a/output_inception_3a/output_0_split_2
I0403 18:14:35.197677  6726 net.cpp:399] inception_3a/output_inception_3a/output_0_split -> inception_3a/output_inception_3a/output_0_split_3
I0403 18:14:35.197759  6726 net.cpp:141] Setting up inception_3a/output_inception_3a/output_0_split
I0403 18:14:35.197783  6726 net.cpp:148] Top shape: 24 256 28 28 (4816896)
I0403 18:14:35.197801  6726 net.cpp:148] Top shape: 24 256 28 28 (4816896)
I0403 18:14:35.197819  6726 net.cpp:148] Top shape: 24 256 28 28 (4816896)
I0403 18:14:35.197835  6726 net.cpp:148] Top shape: 24 256 28 28 (4816896)
I0403 18:14:35.197851  6726 net.cpp:156] Memory required for data: 657507360
I0403 18:14:35.197866  6726 layer_factory.hpp:77] Creating layer inception_3b/1x1
I0403 18:14:35.197891  6726 net.cpp:91] Creating Layer inception_3b/1x1
I0403 18:14:35.197909  6726 net.cpp:425] inception_3b/1x1 <- inception_3a/output_inception_3a/output_0_split_0
I0403 18:14:35.197931  6726 net.cpp:399] inception_3b/1x1 -> inception_3b/1x1
I0403 18:14:35.199120  6726 net.cpp:141] Setting up inception_3b/1x1
I0403 18:14:35.199163  6726 net.cpp:148] Top shape: 24 128 28 28 (2408448)
I0403 18:14:35.199180  6726 net.cpp:156] Memory required for data: 667141152
I0403 18:14:35.199201  6726 layer_factory.hpp:77] Creating layer inception_3b/relu_1x1
I0403 18:14:35.199225  6726 net.cpp:91] Creating Layer inception_3b/relu_1x1
I0403 18:14:35.199244  6726 net.cpp:425] inception_3b/relu_1x1 <- inception_3b/1x1
I0403 18:14:35.199265  6726 net.cpp:386] inception_3b/relu_1x1 -> inception_3b/1x1 (in-place)
I0403 18:14:35.199452  6726 net.cpp:141] Setting up inception_3b/relu_1x1
I0403 18:14:35.199478  6726 net.cpp:148] Top shape: 24 128 28 28 (2408448)
I0403 18:14:35.199496  6726 net.cpp:156] Memory required for data: 676774944
I0403 18:14:35.199511  6726 layer_factory.hpp:77] Creating layer inception_3b/3x3_reduce
I0403 18:14:35.199534  6726 net.cpp:91] Creating Layer inception_3b/3x3_reduce
I0403 18:14:35.199553  6726 net.cpp:425] inception_3b/3x3_reduce <- inception_3a/output_inception_3a/output_0_split_1
I0403 18:14:35.199575  6726 net.cpp:399] inception_3b/3x3_reduce -> inception_3b/3x3_reduce
I0403 18:14:35.200773  6726 net.cpp:141] Setting up inception_3b/3x3_reduce
I0403 18:14:35.200803  6726 net.cpp:148] Top shape: 24 128 28 28 (2408448)
I0403 18:14:35.200820  6726 net.cpp:156] Memory required for data: 686408736
I0403 18:14:35.200839  6726 layer_factory.hpp:77] Creating layer inception_3b/relu_3x3_reduce
I0403 18:14:35.200861  6726 net.cpp:91] Creating Layer inception_3b/relu_3x3_reduce
I0403 18:14:35.200880  6726 net.cpp:425] inception_3b/relu_3x3_reduce <- inception_3b/3x3_reduce
I0403 18:14:35.200898  6726 net.cpp:386] inception_3b/relu_3x3_reduce -> inception_3b/3x3_reduce (in-place)
I0403 18:14:35.201077  6726 net.cpp:141] Setting up inception_3b/relu_3x3_reduce
I0403 18:14:35.201103  6726 net.cpp:148] Top shape: 24 128 28 28 (2408448)
I0403 18:14:35.201119  6726 net.cpp:156] Memory required for data: 696042528
I0403 18:14:35.201135  6726 layer_factory.hpp:77] Creating layer inception_3b/3x3
I0403 18:14:35.201164  6726 net.cpp:91] Creating Layer inception_3b/3x3
I0403 18:14:35.201184  6726 net.cpp:425] inception_3b/3x3 <- inception_3b/3x3_reduce
I0403 18:14:35.201205  6726 net.cpp:399] inception_3b/3x3 -> inception_3b/3x3
I0403 18:14:35.204308  6726 net.cpp:141] Setting up inception_3b/3x3
I0403 18:14:35.204339  6726 net.cpp:148] Top shape: 24 192 28 28 (3612672)
I0403 18:14:35.204355  6726 net.cpp:156] Memory required for data: 710493216
I0403 18:14:35.204375  6726 layer_factory.hpp:77] Creating layer inception_3b/relu_3x3
I0403 18:14:35.204397  6726 net.cpp:91] Creating Layer inception_3b/relu_3x3
I0403 18:14:35.204416  6726 net.cpp:425] inception_3b/relu_3x3 <- inception_3b/3x3
I0403 18:14:35.204434  6726 net.cpp:386] inception_3b/relu_3x3 -> inception_3b/3x3 (in-place)
I0403 18:14:35.204723  6726 net.cpp:141] Setting up inception_3b/relu_3x3
I0403 18:14:35.204751  6726 net.cpp:148] Top shape: 24 192 28 28 (3612672)
I0403 18:14:35.204767  6726 net.cpp:156] Memory required for data: 724943904
I0403 18:14:35.204783  6726 layer_factory.hpp:77] Creating layer inception_3b/5x5_reduce
I0403 18:14:35.204807  6726 net.cpp:91] Creating Layer inception_3b/5x5_reduce
I0403 18:14:35.204828  6726 net.cpp:425] inception_3b/5x5_reduce <- inception_3a/output_inception_3a/output_0_split_2
I0403 18:14:35.204850  6726 net.cpp:399] inception_3b/5x5_reduce -> inception_3b/5x5_reduce
I0403 18:14:35.205895  6726 net.cpp:141] Setting up inception_3b/5x5_reduce
I0403 18:14:35.205925  6726 net.cpp:148] Top shape: 24 32 28 28 (602112)
I0403 18:14:35.205942  6726 net.cpp:156] Memory required for data: 727352352
I0403 18:14:35.205962  6726 layer_factory.hpp:77] Creating layer inception_3b/relu_5x5_reduce
I0403 18:14:35.205986  6726 net.cpp:91] Creating Layer inception_3b/relu_5x5_reduce
I0403 18:14:35.206003  6726 net.cpp:425] inception_3b/relu_5x5_reduce <- inception_3b/5x5_reduce
I0403 18:14:35.206022  6726 net.cpp:386] inception_3b/relu_5x5_reduce -> inception_3b/5x5_reduce (in-place)
I0403 18:14:35.206228  6726 net.cpp:141] Setting up inception_3b/relu_5x5_reduce
I0403 18:14:35.206257  6726 net.cpp:148] Top shape: 24 32 28 28 (602112)
I0403 18:14:35.206274  6726 net.cpp:156] Memory required for data: 729760800
I0403 18:14:35.206290  6726 layer_factory.hpp:77] Creating layer inception_3b/5x5
I0403 18:14:35.206313  6726 net.cpp:91] Creating Layer inception_3b/5x5
I0403 18:14:35.206332  6726 net.cpp:425] inception_3b/5x5 <- inception_3b/5x5_reduce
I0403 18:14:35.206351  6726 net.cpp:399] inception_3b/5x5 -> inception_3b/5x5
I0403 18:14:35.208446  6726 net.cpp:141] Setting up inception_3b/5x5
I0403 18:14:35.208477  6726 net.cpp:148] Top shape: 24 96 28 28 (1806336)
I0403 18:14:35.208494  6726 net.cpp:156] Memory required for data: 736986144
I0403 18:14:35.208514  6726 layer_factory.hpp:77] Creating layer inception_3b/relu_5x5
I0403 18:14:35.208535  6726 net.cpp:91] Creating Layer inception_3b/relu_5x5
I0403 18:14:35.208554  6726 net.cpp:425] inception_3b/relu_5x5 <- inception_3b/5x5
I0403 18:14:35.208572  6726 net.cpp:386] inception_3b/relu_5x5 -> inception_3b/5x5 (in-place)
I0403 18:14:35.208772  6726 net.cpp:141] Setting up inception_3b/relu_5x5
I0403 18:14:35.208798  6726 net.cpp:148] Top shape: 24 96 28 28 (1806336)
I0403 18:14:35.208814  6726 net.cpp:156] Memory required for data: 744211488
I0403 18:14:35.208830  6726 layer_factory.hpp:77] Creating layer inception_3b/pool
I0403 18:14:35.208849  6726 net.cpp:91] Creating Layer inception_3b/pool
I0403 18:14:35.208866  6726 net.cpp:425] inception_3b/pool <- inception_3a/output_inception_3a/output_0_split_3
I0403 18:14:35.208886  6726 net.cpp:399] inception_3b/pool -> inception_3b/pool
I0403 18:14:35.208947  6726 net.cpp:141] Setting up inception_3b/pool
I0403 18:14:35.208972  6726 net.cpp:148] Top shape: 24 256 28 28 (4816896)
I0403 18:14:35.208988  6726 net.cpp:156] Memory required for data: 763479072
I0403 18:14:35.209003  6726 layer_factory.hpp:77] Creating layer inception_3b/pool_proj
I0403 18:14:35.209028  6726 net.cpp:91] Creating Layer inception_3b/pool_proj
I0403 18:14:35.209045  6726 net.cpp:425] inception_3b/pool_proj <- inception_3b/pool
I0403 18:14:35.209067  6726 net.cpp:399] inception_3b/pool_proj -> inception_3b/pool_proj
I0403 18:14:35.210166  6726 net.cpp:141] Setting up inception_3b/pool_proj
I0403 18:14:35.210198  6726 net.cpp:148] Top shape: 24 64 28 28 (1204224)
I0403 18:14:35.210221  6726 net.cpp:156] Memory required for data: 768295968
I0403 18:14:35.210240  6726 layer_factory.hpp:77] Creating layer inception_3b/relu_pool_proj
I0403 18:14:35.210259  6726 net.cpp:91] Creating Layer inception_3b/relu_pool_proj
I0403 18:14:35.210276  6726 net.cpp:425] inception_3b/relu_pool_proj <- inception_3b/pool_proj
I0403 18:14:35.210297  6726 net.cpp:386] inception_3b/relu_pool_proj -> inception_3b/pool_proj (in-place)
I0403 18:14:35.210695  6726 net.cpp:141] Setting up inception_3b/relu_pool_proj
I0403 18:14:35.210726  6726 net.cpp:148] Top shape: 24 64 28 28 (1204224)
I0403 18:14:35.210742  6726 net.cpp:156] Memory required for data: 773112864
I0403 18:14:35.210757  6726 layer_factory.hpp:77] Creating layer inception_3b/output
I0403 18:14:35.210777  6726 net.cpp:91] Creating Layer inception_3b/output
I0403 18:14:35.210794  6726 net.cpp:425] inception_3b/output <- inception_3b/1x1
I0403 18:14:35.210813  6726 net.cpp:425] inception_3b/output <- inception_3b/3x3
I0403 18:14:35.210830  6726 net.cpp:425] inception_3b/output <- inception_3b/5x5
I0403 18:14:35.210846  6726 net.cpp:425] inception_3b/output <- inception_3b/pool_proj
I0403 18:14:35.210865  6726 net.cpp:399] inception_3b/output -> inception_3b/output
I0403 18:14:35.210914  6726 net.cpp:141] Setting up inception_3b/output
I0403 18:14:35.210938  6726 net.cpp:148] Top shape: 24 480 28 28 (9031680)
I0403 18:14:35.210954  6726 net.cpp:156] Memory required for data: 809239584
I0403 18:14:35.210969  6726 layer_factory.hpp:77] Creating layer pool3/3x3_s2
I0403 18:14:35.210990  6726 net.cpp:91] Creating Layer pool3/3x3_s2
I0403 18:14:35.211009  6726 net.cpp:425] pool3/3x3_s2 <- inception_3b/output
I0403 18:14:35.211043  6726 net.cpp:399] pool3/3x3_s2 -> pool3/3x3_s2
I0403 18:14:35.211107  6726 net.cpp:141] Setting up pool3/3x3_s2
I0403 18:14:35.211132  6726 net.cpp:148] Top shape: 24 480 14 14 (2257920)
I0403 18:14:35.211146  6726 net.cpp:156] Memory required for data: 818271264
I0403 18:14:35.211163  6726 layer_factory.hpp:77] Creating layer pool3/3x3_s2_pool3/3x3_s2_0_split
I0403 18:14:35.211180  6726 net.cpp:91] Creating Layer pool3/3x3_s2_pool3/3x3_s2_0_split
I0403 18:14:35.211196  6726 net.cpp:425] pool3/3x3_s2_pool3/3x3_s2_0_split <- pool3/3x3_s2
I0403 18:14:35.211222  6726 net.cpp:399] pool3/3x3_s2_pool3/3x3_s2_0_split -> pool3/3x3_s2_pool3/3x3_s2_0_split_0
I0403 18:14:35.211248  6726 net.cpp:399] pool3/3x3_s2_pool3/3x3_s2_0_split -> pool3/3x3_s2_pool3/3x3_s2_0_split_1
I0403 18:14:35.211271  6726 net.cpp:399] pool3/3x3_s2_pool3/3x3_s2_0_split -> pool3/3x3_s2_pool3/3x3_s2_0_split_2
I0403 18:14:35.211292  6726 net.cpp:399] pool3/3x3_s2_pool3/3x3_s2_0_split -> pool3/3x3_s2_pool3/3x3_s2_0_split_3
I0403 18:14:35.211374  6726 net.cpp:141] Setting up pool3/3x3_s2_pool3/3x3_s2_0_split
I0403 18:14:35.211400  6726 net.cpp:148] Top shape: 24 480 14 14 (2257920)
I0403 18:14:35.211419  6726 net.cpp:148] Top shape: 24 480 14 14 (2257920)
I0403 18:14:35.211436  6726 net.cpp:148] Top shape: 24 480 14 14 (2257920)
I0403 18:14:35.211453  6726 net.cpp:148] Top shape: 24 480 14 14 (2257920)
I0403 18:14:35.211467  6726 net.cpp:156] Memory required for data: 854397984
I0403 18:14:35.211483  6726 layer_factory.hpp:77] Creating layer inception_4a/1x1
I0403 18:14:35.211506  6726 net.cpp:91] Creating Layer inception_4a/1x1
I0403 18:14:35.211525  6726 net.cpp:425] inception_4a/1x1 <- pool3/3x3_s2_pool3/3x3_s2_0_split_0
I0403 18:14:35.211546  6726 net.cpp:399] inception_4a/1x1 -> inception_4a/1x1
I0403 18:14:35.213189  6726 net.cpp:141] Setting up inception_4a/1x1
I0403 18:14:35.213232  6726 net.cpp:148] Top shape: 24 192 14 14 (903168)
I0403 18:14:35.213251  6726 net.cpp:156] Memory required for data: 858010656
I0403 18:14:35.213273  6726 layer_factory.hpp:77] Creating layer inception_4a/relu_1x1
I0403 18:14:35.213291  6726 net.cpp:91] Creating Layer inception_4a/relu_1x1
I0403 18:14:35.213309  6726 net.cpp:425] inception_4a/relu_1x1 <- inception_4a/1x1
I0403 18:14:35.213330  6726 net.cpp:386] inception_4a/relu_1x1 -> inception_4a/1x1 (in-place)
I0403 18:14:35.213513  6726 net.cpp:141] Setting up inception_4a/relu_1x1
I0403 18:14:35.213539  6726 net.cpp:148] Top shape: 24 192 14 14 (903168)
I0403 18:14:35.213556  6726 net.cpp:156] Memory required for data: 861623328
I0403 18:14:35.213572  6726 layer_factory.hpp:77] Creating layer inception_4a/3x3_reduce
I0403 18:14:35.213595  6726 net.cpp:91] Creating Layer inception_4a/3x3_reduce
I0403 18:14:35.213613  6726 net.cpp:425] inception_4a/3x3_reduce <- pool3/3x3_s2_pool3/3x3_s2_0_split_1
I0403 18:14:35.213635  6726 net.cpp:399] inception_4a/3x3_reduce -> inception_4a/3x3_reduce
I0403 18:14:35.214977  6726 net.cpp:141] Setting up inception_4a/3x3_reduce
I0403 18:14:35.215008  6726 net.cpp:148] Top shape: 24 96 14 14 (451584)
I0403 18:14:35.215024  6726 net.cpp:156] Memory required for data: 863429664
I0403 18:14:35.215049  6726 layer_factory.hpp:77] Creating layer inception_4a/relu_3x3_reduce
I0403 18:14:35.215072  6726 net.cpp:91] Creating Layer inception_4a/relu_3x3_reduce
I0403 18:14:35.215090  6726 net.cpp:425] inception_4a/relu_3x3_reduce <- inception_4a/3x3_reduce
I0403 18:14:35.215108  6726 net.cpp:386] inception_4a/relu_3x3_reduce -> inception_4a/3x3_reduce (in-place)
I0403 18:14:35.215302  6726 net.cpp:141] Setting up inception_4a/relu_3x3_reduce
I0403 18:14:35.215329  6726 net.cpp:148] Top shape: 24 96 14 14 (451584)
I0403 18:14:35.215345  6726 net.cpp:156] Memory required for data: 865236000
I0403 18:14:35.215363  6726 layer_factory.hpp:77] Creating layer inception_4a/3x3
I0403 18:14:35.215385  6726 net.cpp:91] Creating Layer inception_4a/3x3
I0403 18:14:35.215404  6726 net.cpp:425] inception_4a/3x3 <- inception_4a/3x3_reduce
I0403 18:14:35.215427  6726 net.cpp:399] inception_4a/3x3 -> inception_4a/3x3
I0403 18:14:35.218293  6726 net.cpp:141] Setting up inception_4a/3x3
I0403 18:14:35.218323  6726 net.cpp:148] Top shape: 24 208 14 14 (978432)
I0403 18:14:35.218339  6726 net.cpp:156] Memory required for data: 869149728
I0403 18:14:35.218360  6726 layer_factory.hpp:77] Creating layer inception_4a/relu_3x3
I0403 18:14:35.218382  6726 net.cpp:91] Creating Layer inception_4a/relu_3x3
I0403 18:14:35.218400  6726 net.cpp:425] inception_4a/relu_3x3 <- inception_4a/3x3
I0403 18:14:35.218420  6726 net.cpp:386] inception_4a/relu_3x3 -> inception_4a/3x3 (in-place)
I0403 18:14:35.218718  6726 net.cpp:141] Setting up inception_4a/relu_3x3
I0403 18:14:35.218746  6726 net.cpp:148] Top shape: 24 208 14 14 (978432)
I0403 18:14:35.218762  6726 net.cpp:156] Memory required for data: 873063456
I0403 18:14:35.218778  6726 layer_factory.hpp:77] Creating layer inception_4a/5x5_reduce
I0403 18:14:35.218803  6726 net.cpp:91] Creating Layer inception_4a/5x5_reduce
I0403 18:14:35.218823  6726 net.cpp:425] inception_4a/5x5_reduce <- pool3/3x3_s2_pool3/3x3_s2_0_split_2
I0403 18:14:35.218847  6726 net.cpp:399] inception_4a/5x5_reduce -> inception_4a/5x5_reduce
I0403 18:14:35.219930  6726 net.cpp:141] Setting up inception_4a/5x5_reduce
I0403 18:14:35.219959  6726 net.cpp:148] Top shape: 24 16 14 14 (75264)
I0403 18:14:35.219975  6726 net.cpp:156] Memory required for data: 873364512
I0403 18:14:35.219995  6726 layer_factory.hpp:77] Creating layer inception_4a/relu_5x5_reduce
I0403 18:14:35.220018  6726 net.cpp:91] Creating Layer inception_4a/relu_5x5_reduce
I0403 18:14:35.220036  6726 net.cpp:425] inception_4a/relu_5x5_reduce <- inception_4a/5x5_reduce
I0403 18:14:35.220055  6726 net.cpp:386] inception_4a/relu_5x5_reduce -> inception_4a/5x5_reduce (in-place)
I0403 18:14:35.220252  6726 net.cpp:141] Setting up inception_4a/relu_5x5_reduce
I0403 18:14:35.220278  6726 net.cpp:148] Top shape: 24 16 14 14 (75264)
I0403 18:14:35.220293  6726 net.cpp:156] Memory required for data: 873665568
I0403 18:14:35.220309  6726 layer_factory.hpp:77] Creating layer inception_4a/5x5
I0403 18:14:35.220335  6726 net.cpp:91] Creating Layer inception_4a/5x5
I0403 18:14:35.220353  6726 net.cpp:425] inception_4a/5x5 <- inception_4a/5x5_reduce
I0403 18:14:35.220373  6726 net.cpp:399] inception_4a/5x5 -> inception_4a/5x5
I0403 18:14:35.221523  6726 net.cpp:141] Setting up inception_4a/5x5
I0403 18:14:35.221554  6726 net.cpp:148] Top shape: 24 48 14 14 (225792)
I0403 18:14:35.221571  6726 net.cpp:156] Memory required for data: 874568736
I0403 18:14:35.221591  6726 layer_factory.hpp:77] Creating layer inception_4a/relu_5x5
I0403 18:14:35.221609  6726 net.cpp:91] Creating Layer inception_4a/relu_5x5
I0403 18:14:35.221626  6726 net.cpp:425] inception_4a/relu_5x5 <- inception_4a/5x5
I0403 18:14:35.221644  6726 net.cpp:386] inception_4a/relu_5x5 -> inception_4a/5x5 (in-place)
I0403 18:14:35.221839  6726 net.cpp:141] Setting up inception_4a/relu_5x5
I0403 18:14:35.221865  6726 net.cpp:148] Top shape: 24 48 14 14 (225792)
I0403 18:14:35.221882  6726 net.cpp:156] Memory required for data: 875471904
I0403 18:14:35.221897  6726 layer_factory.hpp:77] Creating layer inception_4a/pool
I0403 18:14:35.221916  6726 net.cpp:91] Creating Layer inception_4a/pool
I0403 18:14:35.221933  6726 net.cpp:425] inception_4a/pool <- pool3/3x3_s2_pool3/3x3_s2_0_split_3
I0403 18:14:35.221954  6726 net.cpp:399] inception_4a/pool -> inception_4a/pool
I0403 18:14:35.222019  6726 net.cpp:141] Setting up inception_4a/pool
I0403 18:14:35.222046  6726 net.cpp:148] Top shape: 24 480 14 14 (2257920)
I0403 18:14:35.222064  6726 net.cpp:156] Memory required for data: 884503584
I0403 18:14:35.222080  6726 layer_factory.hpp:77] Creating layer inception_4a/pool_proj
I0403 18:14:35.222102  6726 net.cpp:91] Creating Layer inception_4a/pool_proj
I0403 18:14:35.222122  6726 net.cpp:425] inception_4a/pool_proj <- inception_4a/pool
I0403 18:14:35.222141  6726 net.cpp:399] inception_4a/pool_proj -> inception_4a/pool_proj
I0403 18:14:35.223388  6726 net.cpp:141] Setting up inception_4a/pool_proj
I0403 18:14:35.223425  6726 net.cpp:148] Top shape: 24 64 14 14 (301056)
I0403 18:14:35.223458  6726 net.cpp:156] Memory required for data: 885707808
I0403 18:14:35.223477  6726 layer_factory.hpp:77] Creating layer inception_4a/relu_pool_proj
I0403 18:14:35.223496  6726 net.cpp:91] Creating Layer inception_4a/relu_pool_proj
I0403 18:14:35.223515  6726 net.cpp:425] inception_4a/relu_pool_proj <- inception_4a/pool_proj
I0403 18:14:35.223536  6726 net.cpp:386] inception_4a/relu_pool_proj -> inception_4a/pool_proj (in-place)
I0403 18:14:35.223832  6726 net.cpp:141] Setting up inception_4a/relu_pool_proj
I0403 18:14:35.223863  6726 net.cpp:148] Top shape: 24 64 14 14 (301056)
I0403 18:14:35.223880  6726 net.cpp:156] Memory required for data: 886912032
I0403 18:14:35.223896  6726 layer_factory.hpp:77] Creating layer inception_4a/output
I0403 18:14:35.223914  6726 net.cpp:91] Creating Layer inception_4a/output
I0403 18:14:35.223930  6726 net.cpp:425] inception_4a/output <- inception_4a/1x1
I0403 18:14:35.223948  6726 net.cpp:425] inception_4a/output <- inception_4a/3x3
I0403 18:14:35.223964  6726 net.cpp:425] inception_4a/output <- inception_4a/5x5
I0403 18:14:35.223983  6726 net.cpp:425] inception_4a/output <- inception_4a/pool_proj
I0403 18:14:35.224000  6726 net.cpp:399] inception_4a/output -> inception_4a/output
I0403 18:14:35.224050  6726 net.cpp:141] Setting up inception_4a/output
I0403 18:14:35.224073  6726 net.cpp:148] Top shape: 24 512 14 14 (2408448)
I0403 18:14:35.224089  6726 net.cpp:156] Memory required for data: 896545824
I0403 18:14:35.224105  6726 layer_factory.hpp:77] Creating layer inception_4a/output_inception_4a/output_0_split
I0403 18:14:35.224126  6726 net.cpp:91] Creating Layer inception_4a/output_inception_4a/output_0_split
I0403 18:14:35.224144  6726 net.cpp:425] inception_4a/output_inception_4a/output_0_split <- inception_4a/output
I0403 18:14:35.224164  6726 net.cpp:399] inception_4a/output_inception_4a/output_0_split -> inception_4a/output_inception_4a/output_0_split_0
I0403 18:14:35.224185  6726 net.cpp:399] inception_4a/output_inception_4a/output_0_split -> inception_4a/output_inception_4a/output_0_split_1
I0403 18:14:35.224215  6726 net.cpp:399] inception_4a/output_inception_4a/output_0_split -> inception_4a/output_inception_4a/output_0_split_2
I0403 18:14:35.224239  6726 net.cpp:399] inception_4a/output_inception_4a/output_0_split -> inception_4a/output_inception_4a/output_0_split_3
I0403 18:14:35.224261  6726 net.cpp:399] inception_4a/output_inception_4a/output_0_split -> inception_4a/output_inception_4a/output_0_split_4
I0403 18:14:35.224360  6726 net.cpp:141] Setting up inception_4a/output_inception_4a/output_0_split
I0403 18:14:35.224385  6726 net.cpp:148] Top shape: 24 512 14 14 (2408448)
I0403 18:14:35.224403  6726 net.cpp:148] Top shape: 24 512 14 14 (2408448)
I0403 18:14:35.224419  6726 net.cpp:148] Top shape: 24 512 14 14 (2408448)
I0403 18:14:35.224436  6726 net.cpp:148] Top shape: 24 512 14 14 (2408448)
I0403 18:14:35.224452  6726 net.cpp:148] Top shape: 24 512 14 14 (2408448)
I0403 18:14:35.224467  6726 net.cpp:156] Memory required for data: 944714784
I0403 18:14:35.224483  6726 layer_factory.hpp:77] Creating layer loss1/ave_pool
I0403 18:14:35.224504  6726 net.cpp:91] Creating Layer loss1/ave_pool
I0403 18:14:35.224522  6726 net.cpp:425] loss1/ave_pool <- inception_4a/output_inception_4a/output_0_split_0
I0403 18:14:35.224541  6726 net.cpp:399] loss1/ave_pool -> loss1/ave_pool
I0403 18:14:35.224759  6726 net.cpp:141] Setting up loss1/ave_pool
I0403 18:14:35.224786  6726 net.cpp:148] Top shape: 24 512 4 4 (196608)
I0403 18:14:35.224802  6726 net.cpp:156] Memory required for data: 945501216
I0403 18:14:35.224818  6726 layer_factory.hpp:77] Creating layer loss1/conv
I0403 18:14:35.224841  6726 net.cpp:91] Creating Layer loss1/conv
I0403 18:14:35.224860  6726 net.cpp:425] loss1/conv <- loss1/ave_pool
I0403 18:14:35.224885  6726 net.cpp:399] loss1/conv -> loss1/conv
I0403 18:14:35.226379  6726 net.cpp:141] Setting up loss1/conv
I0403 18:14:35.226409  6726 net.cpp:148] Top shape: 24 128 4 4 (49152)
I0403 18:14:35.226443  6726 net.cpp:156] Memory required for data: 945697824
I0403 18:14:35.226464  6726 layer_factory.hpp:77] Creating layer loss1/relu_conv
I0403 18:14:35.226485  6726 net.cpp:91] Creating Layer loss1/relu_conv
I0403 18:14:35.226502  6726 net.cpp:425] loss1/relu_conv <- loss1/conv
I0403 18:14:35.226521  6726 net.cpp:386] loss1/relu_conv -> loss1/conv (in-place)
I0403 18:14:35.226815  6726 net.cpp:141] Setting up loss1/relu_conv
I0403 18:14:35.226843  6726 net.cpp:148] Top shape: 24 128 4 4 (49152)
I0403 18:14:35.226860  6726 net.cpp:156] Memory required for data: 945894432
I0403 18:14:35.226876  6726 layer_factory.hpp:77] Creating layer loss1/fc
I0403 18:14:35.226903  6726 net.cpp:91] Creating Layer loss1/fc
I0403 18:14:35.226922  6726 net.cpp:425] loss1/fc <- loss1/conv
I0403 18:14:35.226943  6726 net.cpp:399] loss1/fc -> loss1/fc
I0403 18:14:35.246091  6726 net.cpp:141] Setting up loss1/fc
I0403 18:14:35.246176  6726 net.cpp:148] Top shape: 24 1024 (24576)
I0403 18:14:35.246192  6726 net.cpp:156] Memory required for data: 945992736
I0403 18:14:35.246218  6726 layer_factory.hpp:77] Creating layer loss1/relu_fc
I0403 18:14:35.246243  6726 net.cpp:91] Creating Layer loss1/relu_fc
I0403 18:14:35.246260  6726 net.cpp:425] loss1/relu_fc <- loss1/fc
I0403 18:14:35.246282  6726 net.cpp:386] loss1/relu_fc -> loss1/fc (in-place)
I0403 18:14:35.246508  6726 net.cpp:141] Setting up loss1/relu_fc
I0403 18:14:35.246534  6726 net.cpp:148] Top shape: 24 1024 (24576)
I0403 18:14:35.246551  6726 net.cpp:156] Memory required for data: 946091040
I0403 18:14:35.246567  6726 layer_factory.hpp:77] Creating layer loss1/drop_fc
I0403 18:14:35.246598  6726 net.cpp:91] Creating Layer loss1/drop_fc
I0403 18:14:35.246618  6726 net.cpp:425] loss1/drop_fc <- loss1/fc
I0403 18:14:35.246636  6726 net.cpp:386] loss1/drop_fc -> loss1/fc (in-place)
I0403 18:14:35.246690  6726 net.cpp:141] Setting up loss1/drop_fc
I0403 18:14:35.246714  6726 net.cpp:148] Top shape: 24 1024 (24576)
I0403 18:14:35.246729  6726 net.cpp:156] Memory required for data: 946189344
I0403 18:14:35.246745  6726 layer_factory.hpp:77] Creating layer loss1/classifier_plantvillage
I0403 18:14:35.246774  6726 net.cpp:91] Creating Layer loss1/classifier_plantvillage
I0403 18:14:35.246793  6726 net.cpp:425] loss1/classifier_plantvillage <- loss1/fc
I0403 18:14:35.246815  6726 net.cpp:399] loss1/classifier_plantvillage -> loss1/classifier_plantvillage
I0403 18:14:35.247845  6726 net.cpp:141] Setting up loss1/classifier_plantvillage
I0403 18:14:35.247874  6726 net.cpp:148] Top shape: 24 38 (912)
I0403 18:14:35.247890  6726 net.cpp:156] Memory required for data: 946192992
I0403 18:14:35.247910  6726 layer_factory.hpp:77] Creating layer loss1/classifier_plantvillage_loss1/classifier_plantvillage_0_split
I0403 18:14:35.247930  6726 net.cpp:91] Creating Layer loss1/classifier_plantvillage_loss1/classifier_plantvillage_0_split
I0403 18:14:35.247946  6726 net.cpp:425] loss1/classifier_plantvillage_loss1/classifier_plantvillage_0_split <- loss1/classifier_plantvillage
I0403 18:14:35.247967  6726 net.cpp:399] loss1/classifier_plantvillage_loss1/classifier_plantvillage_0_split -> loss1/classifier_plantvillage_loss1/classifier_plantvillage_0_split_0
I0403 18:14:35.247990  6726 net.cpp:399] loss1/classifier_plantvillage_loss1/classifier_plantvillage_0_split -> loss1/classifier_plantvillage_loss1/classifier_plantvillage_0_split_1
I0403 18:14:35.248011  6726 net.cpp:399] loss1/classifier_plantvillage_loss1/classifier_plantvillage_0_split -> loss1/classifier_plantvillage_loss1/classifier_plantvillage_0_split_2
I0403 18:14:35.248083  6726 net.cpp:141] Setting up loss1/classifier_plantvillage_loss1/classifier_plantvillage_0_split
I0403 18:14:35.248111  6726 net.cpp:148] Top shape: 24 38 (912)
I0403 18:14:35.248128  6726 net.cpp:148] Top shape: 24 38 (912)
I0403 18:14:35.248145  6726 net.cpp:148] Top shape: 24 38 (912)
I0403 18:14:35.248160  6726 net.cpp:156] Memory required for data: 946203936
I0403 18:14:35.248175  6726 layer_factory.hpp:77] Creating layer inception_4b/1x1
I0403 18:14:35.248198  6726 net.cpp:91] Creating Layer inception_4b/1x1
I0403 18:14:35.248247  6726 net.cpp:425] inception_4b/1x1 <- inception_4a/output_inception_4a/output_0_split_1
I0403 18:14:35.248270  6726 net.cpp:399] inception_4b/1x1 -> inception_4b/1x1
I0403 18:14:35.250049  6726 net.cpp:141] Setting up inception_4b/1x1
I0403 18:14:35.250080  6726 net.cpp:148] Top shape: 24 160 14 14 (752640)
I0403 18:14:35.250097  6726 net.cpp:156] Memory required for data: 949214496
I0403 18:14:35.250116  6726 layer_factory.hpp:77] Creating layer inception_4b/relu_1x1
I0403 18:14:35.250138  6726 net.cpp:91] Creating Layer inception_4b/relu_1x1
I0403 18:14:35.250156  6726 net.cpp:425] inception_4b/relu_1x1 <- inception_4b/1x1
I0403 18:14:35.250174  6726 net.cpp:386] inception_4b/relu_1x1 -> inception_4b/1x1 (in-place)
I0403 18:14:35.250372  6726 net.cpp:141] Setting up inception_4b/relu_1x1
I0403 18:14:35.250398  6726 net.cpp:148] Top shape: 24 160 14 14 (752640)
I0403 18:14:35.250414  6726 net.cpp:156] Memory required for data: 952225056
I0403 18:14:35.250430  6726 layer_factory.hpp:77] Creating layer inception_4b/3x3_reduce
I0403 18:14:35.250457  6726 net.cpp:91] Creating Layer inception_4b/3x3_reduce
I0403 18:14:35.250475  6726 net.cpp:425] inception_4b/3x3_reduce <- inception_4a/output_inception_4a/output_0_split_2
I0403 18:14:35.250496  6726 net.cpp:399] inception_4b/3x3_reduce -> inception_4b/3x3_reduce
I0403 18:14:35.251946  6726 net.cpp:141] Setting up inception_4b/3x3_reduce
I0403 18:14:35.251976  6726 net.cpp:148] Top shape: 24 112 14 14 (526848)
I0403 18:14:35.251992  6726 net.cpp:156] Memory required for data: 954332448
I0403 18:14:35.252012  6726 layer_factory.hpp:77] Creating layer inception_4b/relu_3x3_reduce
I0403 18:14:35.252035  6726 net.cpp:91] Creating Layer inception_4b/relu_3x3_reduce
I0403 18:14:35.252054  6726 net.cpp:425] inception_4b/relu_3x3_reduce <- inception_4b/3x3_reduce
I0403 18:14:35.252074  6726 net.cpp:386] inception_4b/relu_3x3_reduce -> inception_4b/3x3_reduce (in-place)
I0403 18:14:35.252379  6726 net.cpp:141] Setting up inception_4b/relu_3x3_reduce
I0403 18:14:35.252406  6726 net.cpp:148] Top shape: 24 112 14 14 (526848)
I0403 18:14:35.252423  6726 net.cpp:156] Memory required for data: 956439840
I0403 18:14:35.252437  6726 layer_factory.hpp:77] Creating layer inception_4b/3x3
I0403 18:14:35.252463  6726 net.cpp:91] Creating Layer inception_4b/3x3
I0403 18:14:35.252481  6726 net.cpp:425] inception_4b/3x3 <- inception_4b/3x3_reduce
I0403 18:14:35.252502  6726 net.cpp:399] inception_4b/3x3 -> inception_4b/3x3
I0403 18:14:35.255700  6726 net.cpp:141] Setting up inception_4b/3x3
I0403 18:14:35.255733  6726 net.cpp:148] Top shape: 24 224 14 14 (1053696)
I0403 18:14:35.255753  6726 net.cpp:156] Memory required for data: 960654624
I0403 18:14:35.255774  6726 layer_factory.hpp:77] Creating layer inception_4b/relu_3x3
I0403 18:14:35.255792  6726 net.cpp:91] Creating Layer inception_4b/relu_3x3
I0403 18:14:35.255810  6726 net.cpp:425] inception_4b/relu_3x3 <- inception_4b/3x3
I0403 18:14:35.255831  6726 net.cpp:386] inception_4b/relu_3x3 -> inception_4b/3x3 (in-place)
I0403 18:14:35.256028  6726 net.cpp:141] Setting up inception_4b/relu_3x3
I0403 18:14:35.256054  6726 net.cpp:148] Top shape: 24 224 14 14 (1053696)
I0403 18:14:35.256070  6726 net.cpp:156] Memory required for data: 964869408
I0403 18:14:35.256086  6726 layer_factory.hpp:77] Creating layer inception_4b/5x5_reduce
I0403 18:14:35.256110  6726 net.cpp:91] Creating Layer inception_4b/5x5_reduce
I0403 18:14:35.256129  6726 net.cpp:425] inception_4b/5x5_reduce <- inception_4a/output_inception_4a/output_0_split_3
I0403 18:14:35.256152  6726 net.cpp:399] inception_4b/5x5_reduce -> inception_4b/5x5_reduce
I0403 18:14:35.257315  6726 net.cpp:141] Setting up inception_4b/5x5_reduce
I0403 18:14:35.257345  6726 net.cpp:148] Top shape: 24 24 14 14 (112896)
I0403 18:14:35.257361  6726 net.cpp:156] Memory required for data: 965320992
I0403 18:14:35.257381  6726 layer_factory.hpp:77] Creating layer inception_4b/relu_5x5_reduce
I0403 18:14:35.257403  6726 net.cpp:91] Creating Layer inception_4b/relu_5x5_reduce
I0403 18:14:35.257436  6726 net.cpp:425] inception_4b/relu_5x5_reduce <- inception_4b/5x5_reduce
I0403 18:14:35.257457  6726 net.cpp:386] inception_4b/relu_5x5_reduce -> inception_4b/5x5_reduce (in-place)
I0403 18:14:35.257650  6726 net.cpp:141] Setting up inception_4b/relu_5x5_reduce
I0403 18:14:35.257679  6726 net.cpp:148] Top shape: 24 24 14 14 (112896)
I0403 18:14:35.257695  6726 net.cpp:156] Memory required for data: 965772576
I0403 18:14:35.257712  6726 layer_factory.hpp:77] Creating layer inception_4b/5x5
I0403 18:14:35.257735  6726 net.cpp:91] Creating Layer inception_4b/5x5
I0403 18:14:35.257753  6726 net.cpp:425] inception_4b/5x5 <- inception_4b/5x5_reduce
I0403 18:14:35.257773  6726 net.cpp:399] inception_4b/5x5 -> inception_4b/5x5
I0403 18:14:35.259078  6726 net.cpp:141] Setting up inception_4b/5x5
I0403 18:14:35.259107  6726 net.cpp:148] Top shape: 24 64 14 14 (301056)
I0403 18:14:35.259124  6726 net.cpp:156] Memory required for data: 966976800
I0403 18:14:35.259143  6726 layer_factory.hpp:77] Creating layer inception_4b/relu_5x5
I0403 18:14:35.259165  6726 net.cpp:91] Creating Layer inception_4b/relu_5x5
I0403 18:14:35.259182  6726 net.cpp:425] inception_4b/relu_5x5 <- inception_4b/5x5
I0403 18:14:35.259201  6726 net.cpp:386] inception_4b/relu_5x5 -> inception_4b/5x5 (in-place)
I0403 18:14:35.259506  6726 net.cpp:141] Setting up inception_4b/relu_5x5
I0403 18:14:35.259534  6726 net.cpp:148] Top shape: 24 64 14 14 (301056)
I0403 18:14:35.259549  6726 net.cpp:156] Memory required for data: 968181024
I0403 18:14:35.259565  6726 layer_factory.hpp:77] Creating layer inception_4b/pool
I0403 18:14:35.259593  6726 net.cpp:91] Creating Layer inception_4b/pool
I0403 18:14:35.259611  6726 net.cpp:425] inception_4b/pool <- inception_4a/output_inception_4a/output_0_split_4
I0403 18:14:35.259630  6726 net.cpp:399] inception_4b/pool -> inception_4b/pool
I0403 18:14:35.259701  6726 net.cpp:141] Setting up inception_4b/pool
I0403 18:14:35.259724  6726 net.cpp:148] Top shape: 24 512 14 14 (2408448)
I0403 18:14:35.259739  6726 net.cpp:156] Memory required for data: 977814816
I0403 18:14:35.259755  6726 layer_factory.hpp:77] Creating layer inception_4b/pool_proj
I0403 18:14:35.259780  6726 net.cpp:91] Creating Layer inception_4b/pool_proj
I0403 18:14:35.259799  6726 net.cpp:425] inception_4b/pool_proj <- inception_4b/pool
I0403 18:14:35.259820  6726 net.cpp:399] inception_4b/pool_proj -> inception_4b/pool_proj
I0403 18:14:35.261106  6726 net.cpp:141] Setting up inception_4b/pool_proj
I0403 18:14:35.261135  6726 net.cpp:148] Top shape: 24 64 14 14 (301056)
I0403 18:14:35.261152  6726 net.cpp:156] Memory required for data: 979019040
I0403 18:14:35.261170  6726 layer_factory.hpp:77] Creating layer inception_4b/relu_pool_proj
I0403 18:14:35.261193  6726 net.cpp:91] Creating Layer inception_4b/relu_pool_proj
I0403 18:14:35.261216  6726 net.cpp:425] inception_4b/relu_pool_proj <- inception_4b/pool_proj
I0403 18:14:35.261236  6726 net.cpp:386] inception_4b/relu_pool_proj -> inception_4b/pool_proj (in-place)
I0403 18:14:35.261433  6726 net.cpp:141] Setting up inception_4b/relu_pool_proj
I0403 18:14:35.261462  6726 net.cpp:148] Top shape: 24 64 14 14 (301056)
I0403 18:14:35.261477  6726 net.cpp:156] Memory required for data: 980223264
I0403 18:14:35.261494  6726 layer_factory.hpp:77] Creating layer inception_4b/output
I0403 18:14:35.261513  6726 net.cpp:91] Creating Layer inception_4b/output
I0403 18:14:35.261529  6726 net.cpp:425] inception_4b/output <- inception_4b/1x1
I0403 18:14:35.261548  6726 net.cpp:425] inception_4b/output <- inception_4b/3x3
I0403 18:14:35.261565  6726 net.cpp:425] inception_4b/output <- inception_4b/5x5
I0403 18:14:35.261581  6726 net.cpp:425] inception_4b/output <- inception_4b/pool_proj
I0403 18:14:35.261600  6726 net.cpp:399] inception_4b/output -> inception_4b/output
I0403 18:14:35.261651  6726 net.cpp:141] Setting up inception_4b/output
I0403 18:14:35.261674  6726 net.cpp:148] Top shape: 24 512 14 14 (2408448)
I0403 18:14:35.261690  6726 net.cpp:156] Memory required for data: 989857056
I0403 18:14:35.261721  6726 layer_factory.hpp:77] Creating layer inception_4b/output_inception_4b/output_0_split
I0403 18:14:35.261740  6726 net.cpp:91] Creating Layer inception_4b/output_inception_4b/output_0_split
I0403 18:14:35.261757  6726 net.cpp:425] inception_4b/output_inception_4b/output_0_split <- inception_4b/output
I0403 18:14:35.261780  6726 net.cpp:399] inception_4b/output_inception_4b/output_0_split -> inception_4b/output_inception_4b/output_0_split_0
I0403 18:14:35.261801  6726 net.cpp:399] inception_4b/output_inception_4b/output_0_split -> inception_4b/output_inception_4b/output_0_split_1
I0403 18:14:35.261822  6726 net.cpp:399] inception_4b/output_inception_4b/output_0_split -> inception_4b/output_inception_4b/output_0_split_2
I0403 18:14:35.261847  6726 net.cpp:399] inception_4b/output_inception_4b/output_0_split -> inception_4b/output_inception_4b/output_0_split_3
I0403 18:14:35.261937  6726 net.cpp:141] Setting up inception_4b/output_inception_4b/output_0_split
I0403 18:14:35.261962  6726 net.cpp:148] Top shape: 24 512 14 14 (2408448)
I0403 18:14:35.261981  6726 net.cpp:148] Top shape: 24 512 14 14 (2408448)
I0403 18:14:35.261997  6726 net.cpp:148] Top shape: 24 512 14 14 (2408448)
I0403 18:14:35.262015  6726 net.cpp:148] Top shape: 24 512 14 14 (2408448)
I0403 18:14:35.262030  6726 net.cpp:156] Memory required for data: 1028392224
I0403 18:14:35.262045  6726 layer_factory.hpp:77] Creating layer inception_4c/1x1
I0403 18:14:35.262069  6726 net.cpp:91] Creating Layer inception_4c/1x1
I0403 18:14:35.262089  6726 net.cpp:425] inception_4c/1x1 <- inception_4b/output_inception_4b/output_0_split_0
I0403 18:14:35.262110  6726 net.cpp:399] inception_4c/1x1 -> inception_4c/1x1
I0403 18:14:35.263660  6726 net.cpp:141] Setting up inception_4c/1x1
I0403 18:14:35.263695  6726 net.cpp:148] Top shape: 24 128 14 14 (602112)
I0403 18:14:35.263712  6726 net.cpp:156] Memory required for data: 1030800672
I0403 18:14:35.263731  6726 layer_factory.hpp:77] Creating layer inception_4c/relu_1x1
I0403 18:14:35.263751  6726 net.cpp:91] Creating Layer inception_4c/relu_1x1
I0403 18:14:35.263768  6726 net.cpp:425] inception_4c/relu_1x1 <- inception_4c/1x1
I0403 18:14:35.263789  6726 net.cpp:386] inception_4c/relu_1x1 -> inception_4c/1x1 (in-place)
I0403 18:14:35.263983  6726 net.cpp:141] Setting up inception_4c/relu_1x1
I0403 18:14:35.264009  6726 net.cpp:148] Top shape: 24 128 14 14 (602112)
I0403 18:14:35.264025  6726 net.cpp:156] Memory required for data: 1033209120
I0403 18:14:35.264041  6726 layer_factory.hpp:77] Creating layer inception_4c/3x3_reduce
I0403 18:14:35.264065  6726 net.cpp:91] Creating Layer inception_4c/3x3_reduce
I0403 18:14:35.264084  6726 net.cpp:425] inception_4c/3x3_reduce <- inception_4b/output_inception_4b/output_0_split_1
I0403 18:14:35.264106  6726 net.cpp:399] inception_4c/3x3_reduce -> inception_4c/3x3_reduce
I0403 18:14:35.266202  6726 net.cpp:141] Setting up inception_4c/3x3_reduce
I0403 18:14:35.266239  6726 net.cpp:148] Top shape: 24 128 14 14 (602112)
I0403 18:14:35.266257  6726 net.cpp:156] Memory required for data: 1035617568
I0403 18:14:35.266276  6726 layer_factory.hpp:77] Creating layer inception_4c/relu_3x3_reduce
I0403 18:14:35.266297  6726 net.cpp:91] Creating Layer inception_4c/relu_3x3_reduce
I0403 18:14:35.266316  6726 net.cpp:425] inception_4c/relu_3x3_reduce <- inception_4c/3x3_reduce
I0403 18:14:35.266335  6726 net.cpp:386] inception_4c/relu_3x3_reduce -> inception_4c/3x3_reduce (in-place)
I0403 18:14:35.266645  6726 net.cpp:141] Setting up inception_4c/relu_3x3_reduce
I0403 18:14:35.266674  6726 net.cpp:148] Top shape: 24 128 14 14 (602112)
I0403 18:14:35.266690  6726 net.cpp:156] Memory required for data: 1038026016
I0403 18:14:35.266705  6726 layer_factory.hpp:77] Creating layer inception_4c/3x3
I0403 18:14:35.266729  6726 net.cpp:91] Creating Layer inception_4c/3x3
I0403 18:14:35.266747  6726 net.cpp:425] inception_4c/3x3 <- inception_4c/3x3_reduce
I0403 18:14:35.266772  6726 net.cpp:399] inception_4c/3x3 -> inception_4c/3x3
I0403 18:14:35.270625  6726 net.cpp:141] Setting up inception_4c/3x3
I0403 18:14:35.270668  6726 net.cpp:148] Top shape: 24 256 14 14 (1204224)
I0403 18:14:35.270684  6726 net.cpp:156] Memory required for data: 1042842912
I0403 18:14:35.270720  6726 layer_factory.hpp:77] Creating layer inception_4c/relu_3x3
I0403 18:14:35.270745  6726 net.cpp:91] Creating Layer inception_4c/relu_3x3
I0403 18:14:35.270762  6726 net.cpp:425] inception_4c/relu_3x3 <- inception_4c/3x3
I0403 18:14:35.270781  6726 net.cpp:386] inception_4c/relu_3x3 -> inception_4c/3x3 (in-place)
I0403 18:14:35.270977  6726 net.cpp:141] Setting up inception_4c/relu_3x3
I0403 18:14:35.271003  6726 net.cpp:148] Top shape: 24 256 14 14 (1204224)
I0403 18:14:35.271019  6726 net.cpp:156] Memory required for data: 1047659808
I0403 18:14:35.271035  6726 layer_factory.hpp:77] Creating layer inception_4c/5x5_reduce
I0403 18:14:35.271059  6726 net.cpp:91] Creating Layer inception_4c/5x5_reduce
I0403 18:14:35.271077  6726 net.cpp:425] inception_4c/5x5_reduce <- inception_4b/output_inception_4b/output_0_split_2
I0403 18:14:35.271102  6726 net.cpp:399] inception_4c/5x5_reduce -> inception_4c/5x5_reduce
I0403 18:14:35.272276  6726 net.cpp:141] Setting up inception_4c/5x5_reduce
I0403 18:14:35.272305  6726 net.cpp:148] Top shape: 24 24 14 14 (112896)
I0403 18:14:35.272322  6726 net.cpp:156] Memory required for data: 1048111392
I0403 18:14:35.272342  6726 layer_factory.hpp:77] Creating layer inception_4c/relu_5x5_reduce
I0403 18:14:35.272363  6726 net.cpp:91] Creating Layer inception_4c/relu_5x5_reduce
I0403 18:14:35.272382  6726 net.cpp:425] inception_4c/relu_5x5_reduce <- inception_4c/5x5_reduce
I0403 18:14:35.272400  6726 net.cpp:386] inception_4c/relu_5x5_reduce -> inception_4c/5x5_reduce (in-place)
I0403 18:14:35.272598  6726 net.cpp:141] Setting up inception_4c/relu_5x5_reduce
I0403 18:14:35.272627  6726 net.cpp:148] Top shape: 24 24 14 14 (112896)
I0403 18:14:35.272644  6726 net.cpp:156] Memory required for data: 1048562976
I0403 18:14:35.272660  6726 layer_factory.hpp:77] Creating layer inception_4c/5x5
I0403 18:14:35.272683  6726 net.cpp:91] Creating Layer inception_4c/5x5
I0403 18:14:35.272701  6726 net.cpp:425] inception_4c/5x5 <- inception_4c/5x5_reduce
I0403 18:14:35.272722  6726 net.cpp:399] inception_4c/5x5 -> inception_4c/5x5
I0403 18:14:35.274060  6726 net.cpp:141] Setting up inception_4c/5x5
I0403 18:14:35.274091  6726 net.cpp:148] Top shape: 24 64 14 14 (301056)
I0403 18:14:35.274108  6726 net.cpp:156] Memory required for data: 1049767200
I0403 18:14:35.274129  6726 layer_factory.hpp:77] Creating layer inception_4c/relu_5x5
I0403 18:14:35.274148  6726 net.cpp:91] Creating Layer inception_4c/relu_5x5
I0403 18:14:35.274166  6726 net.cpp:425] inception_4c/relu_5x5 <- inception_4c/5x5
I0403 18:14:35.274186  6726 net.cpp:386] inception_4c/relu_5x5 -> inception_4c/5x5 (in-place)
I0403 18:14:35.274497  6726 net.cpp:141] Setting up inception_4c/relu_5x5
I0403 18:14:35.274526  6726 net.cpp:148] Top shape: 24 64 14 14 (301056)
I0403 18:14:35.274544  6726 net.cpp:156] Memory required for data: 1050971424
I0403 18:14:35.274560  6726 layer_factory.hpp:77] Creating layer inception_4c/pool
I0403 18:14:35.274580  6726 net.cpp:91] Creating Layer inception_4c/pool
I0403 18:14:35.274597  6726 net.cpp:425] inception_4c/pool <- inception_4b/output_inception_4b/output_0_split_3
I0403 18:14:35.274619  6726 net.cpp:399] inception_4c/pool -> inception_4c/pool
I0403 18:14:35.274688  6726 net.cpp:141] Setting up inception_4c/pool
I0403 18:14:35.274713  6726 net.cpp:148] Top shape: 24 512 14 14 (2408448)
I0403 18:14:35.274729  6726 net.cpp:156] Memory required for data: 1060605216
I0403 18:14:35.274745  6726 layer_factory.hpp:77] Creating layer inception_4c/pool_proj
I0403 18:14:35.274768  6726 net.cpp:91] Creating Layer inception_4c/pool_proj
I0403 18:14:35.274787  6726 net.cpp:425] inception_4c/pool_proj <- inception_4c/pool
I0403 18:14:35.274809  6726 net.cpp:399] inception_4c/pool_proj -> inception_4c/pool_proj
I0403 18:14:35.276216  6726 net.cpp:141] Setting up inception_4c/pool_proj
I0403 18:14:35.276255  6726 net.cpp:148] Top shape: 24 64 14 14 (301056)
I0403 18:14:35.276293  6726 net.cpp:156] Memory required for data: 1061809440
I0403 18:14:35.276315  6726 layer_factory.hpp:77] Creating layer inception_4c/relu_pool_proj
I0403 18:14:35.276338  6726 net.cpp:91] Creating Layer inception_4c/relu_pool_proj
I0403 18:14:35.276357  6726 net.cpp:425] inception_4c/relu_pool_proj <- inception_4c/pool_proj
I0403 18:14:35.276376  6726 net.cpp:386] inception_4c/relu_pool_proj -> inception_4c/pool_proj (in-place)
I0403 18:14:35.276582  6726 net.cpp:141] Setting up inception_4c/relu_pool_proj
I0403 18:14:35.276612  6726 net.cpp:148] Top shape: 24 64 14 14 (301056)
I0403 18:14:35.276628  6726 net.cpp:156] Memory required for data: 1063013664
I0403 18:14:35.276644  6726 layer_factory.hpp:77] Creating layer inception_4c/output
I0403 18:14:35.276664  6726 net.cpp:91] Creating Layer inception_4c/output
I0403 18:14:35.276680  6726 net.cpp:425] inception_4c/output <- inception_4c/1x1
I0403 18:14:35.276697  6726 net.cpp:425] inception_4c/output <- inception_4c/3x3
I0403 18:14:35.276715  6726 net.cpp:425] inception_4c/output <- inception_4c/5x5
I0403 18:14:35.276733  6726 net.cpp:425] inception_4c/output <- inception_4c/pool_proj
I0403 18:14:35.276752  6726 net.cpp:399] inception_4c/output -> inception_4c/output
I0403 18:14:35.276803  6726 net.cpp:141] Setting up inception_4c/output
I0403 18:14:35.276829  6726 net.cpp:148] Top shape: 24 512 14 14 (2408448)
I0403 18:14:35.276844  6726 net.cpp:156] Memory required for data: 1072647456
I0403 18:14:35.276860  6726 layer_factory.hpp:77] Creating layer inception_4c/output_inception_4c/output_0_split
I0403 18:14:35.276880  6726 net.cpp:91] Creating Layer inception_4c/output_inception_4c/output_0_split
I0403 18:14:35.276896  6726 net.cpp:425] inception_4c/output_inception_4c/output_0_split <- inception_4c/output
I0403 18:14:35.276917  6726 net.cpp:399] inception_4c/output_inception_4c/output_0_split -> inception_4c/output_inception_4c/output_0_split_0
I0403 18:14:35.276942  6726 net.cpp:399] inception_4c/output_inception_4c/output_0_split -> inception_4c/output_inception_4c/output_0_split_1
I0403 18:14:35.276963  6726 net.cpp:399] inception_4c/output_inception_4c/output_0_split -> inception_4c/output_inception_4c/output_0_split_2
I0403 18:14:35.276988  6726 net.cpp:399] inception_4c/output_inception_4c/output_0_split -> inception_4c/output_inception_4c/output_0_split_3
I0403 18:14:35.277086  6726 net.cpp:141] Setting up inception_4c/output_inception_4c/output_0_split
I0403 18:14:35.277112  6726 net.cpp:148] Top shape: 24 512 14 14 (2408448)
I0403 18:14:35.277129  6726 net.cpp:148] Top shape: 24 512 14 14 (2408448)
I0403 18:14:35.277148  6726 net.cpp:148] Top shape: 24 512 14 14 (2408448)
I0403 18:14:35.277165  6726 net.cpp:148] Top shape: 24 512 14 14 (2408448)
I0403 18:14:35.277184  6726 net.cpp:156] Memory required for data: 1111182624
I0403 18:14:35.277200  6726 layer_factory.hpp:77] Creating layer inception_4d/1x1
I0403 18:14:35.277225  6726 net.cpp:91] Creating Layer inception_4d/1x1
I0403 18:14:35.277245  6726 net.cpp:425] inception_4d/1x1 <- inception_4c/output_inception_4c/output_0_split_0
I0403 18:14:35.277267  6726 net.cpp:399] inception_4d/1x1 -> inception_4d/1x1
I0403 18:14:35.278764  6726 net.cpp:141] Setting up inception_4d/1x1
I0403 18:14:35.278794  6726 net.cpp:148] Top shape: 24 112 14 14 (526848)
I0403 18:14:35.278810  6726 net.cpp:156] Memory required for data: 1113290016
I0403 18:14:35.278830  6726 layer_factory.hpp:77] Creating layer inception_4d/relu_1x1
I0403 18:14:35.278851  6726 net.cpp:91] Creating Layer inception_4d/relu_1x1
I0403 18:14:35.278867  6726 net.cpp:425] inception_4d/relu_1x1 <- inception_4d/1x1
I0403 18:14:35.278888  6726 net.cpp:386] inception_4d/relu_1x1 -> inception_4d/1x1 (in-place)
I0403 18:14:35.279089  6726 net.cpp:141] Setting up inception_4d/relu_1x1
I0403 18:14:35.279116  6726 net.cpp:148] Top shape: 24 112 14 14 (526848)
I0403 18:14:35.279132  6726 net.cpp:156] Memory required for data: 1115397408
I0403 18:14:35.279148  6726 layer_factory.hpp:77] Creating layer inception_4d/3x3_reduce
I0403 18:14:35.279192  6726 net.cpp:91] Creating Layer inception_4d/3x3_reduce
I0403 18:14:35.279213  6726 net.cpp:425] inception_4d/3x3_reduce <- inception_4c/output_inception_4c/output_0_split_1
I0403 18:14:35.279237  6726 net.cpp:399] inception_4d/3x3_reduce -> inception_4d/3x3_reduce
I0403 18:14:35.280864  6726 net.cpp:141] Setting up inception_4d/3x3_reduce
I0403 18:14:35.280897  6726 net.cpp:148] Top shape: 24 144 14 14 (677376)
I0403 18:14:35.280915  6726 net.cpp:156] Memory required for data: 1118106912
I0403 18:14:35.280935  6726 layer_factory.hpp:77] Creating layer inception_4d/relu_3x3_reduce
I0403 18:14:35.280954  6726 net.cpp:91] Creating Layer inception_4d/relu_3x3_reduce
I0403 18:14:35.280972  6726 net.cpp:425] inception_4d/relu_3x3_reduce <- inception_4d/3x3_reduce
I0403 18:14:35.280988  6726 net.cpp:386] inception_4d/relu_3x3_reduce -> inception_4d/3x3_reduce (in-place)
I0403 18:14:35.281307  6726 net.cpp:141] Setting up inception_4d/relu_3x3_reduce
I0403 18:14:35.281338  6726 net.cpp:148] Top shape: 24 144 14 14 (677376)
I0403 18:14:35.281355  6726 net.cpp:156] Memory required for data: 1120816416
I0403 18:14:35.281371  6726 layer_factory.hpp:77] Creating layer inception_4d/3x3
I0403 18:14:35.281395  6726 net.cpp:91] Creating Layer inception_4d/3x3
I0403 18:14:35.281414  6726 net.cpp:425] inception_4d/3x3 <- inception_4d/3x3_reduce
I0403 18:14:35.281435  6726 net.cpp:399] inception_4d/3x3 -> inception_4d/3x3
I0403 18:14:35.286032  6726 net.cpp:141] Setting up inception_4d/3x3
I0403 18:14:35.286063  6726 net.cpp:148] Top shape: 24 288 14 14 (1354752)
I0403 18:14:35.286080  6726 net.cpp:156] Memory required for data: 1126235424
I0403 18:14:35.286100  6726 layer_factory.hpp:77] Creating layer inception_4d/relu_3x3
I0403 18:14:35.286119  6726 net.cpp:91] Creating Layer inception_4d/relu_3x3
I0403 18:14:35.286137  6726 net.cpp:425] inception_4d/relu_3x3 <- inception_4d/3x3
I0403 18:14:35.286157  6726 net.cpp:386] inception_4d/relu_3x3 -> inception_4d/3x3 (in-place)
I0403 18:14:35.286362  6726 net.cpp:141] Setting up inception_4d/relu_3x3
I0403 18:14:35.286388  6726 net.cpp:148] Top shape: 24 288 14 14 (1354752)
I0403 18:14:35.286404  6726 net.cpp:156] Memory required for data: 1131654432
I0403 18:14:35.286422  6726 layer_factory.hpp:77] Creating layer inception_4d/5x5_reduce
I0403 18:14:35.286445  6726 net.cpp:91] Creating Layer inception_4d/5x5_reduce
I0403 18:14:35.286464  6726 net.cpp:425] inception_4d/5x5_reduce <- inception_4c/output_inception_4c/output_0_split_2
I0403 18:14:35.286487  6726 net.cpp:399] inception_4d/5x5_reduce -> inception_4d/5x5_reduce
I0403 18:14:35.287730  6726 net.cpp:141] Setting up inception_4d/5x5_reduce
I0403 18:14:35.287760  6726 net.cpp:148] Top shape: 24 32 14 14 (150528)
I0403 18:14:35.287778  6726 net.cpp:156] Memory required for data: 1132256544
I0403 18:14:35.287798  6726 layer_factory.hpp:77] Creating layer inception_4d/relu_5x5_reduce
I0403 18:14:35.287819  6726 net.cpp:91] Creating Layer inception_4d/relu_5x5_reduce
I0403 18:14:35.287838  6726 net.cpp:425] inception_4d/relu_5x5_reduce <- inception_4d/5x5_reduce
I0403 18:14:35.287858  6726 net.cpp:386] inception_4d/relu_5x5_reduce -> inception_4d/5x5_reduce (in-place)
I0403 18:14:35.288058  6726 net.cpp:141] Setting up inception_4d/relu_5x5_reduce
I0403 18:14:35.288084  6726 net.cpp:148] Top shape: 24 32 14 14 (150528)
I0403 18:14:35.288100  6726 net.cpp:156] Memory required for data: 1132858656
I0403 18:14:35.288115  6726 layer_factory.hpp:77] Creating layer inception_4d/5x5
I0403 18:14:35.288141  6726 net.cpp:91] Creating Layer inception_4d/5x5
I0403 18:14:35.288159  6726 net.cpp:425] inception_4d/5x5 <- inception_4d/5x5_reduce
I0403 18:14:35.288185  6726 net.cpp:399] inception_4d/5x5 -> inception_4d/5x5
I0403 18:14:35.289760  6726 net.cpp:141] Setting up inception_4d/5x5
I0403 18:14:35.289790  6726 net.cpp:148] Top shape: 24 64 14 14 (301056)
I0403 18:14:35.289808  6726 net.cpp:156] Memory required for data: 1134062880
I0403 18:14:35.289829  6726 layer_factory.hpp:77] Creating layer inception_4d/relu_5x5
I0403 18:14:35.289866  6726 net.cpp:91] Creating Layer inception_4d/relu_5x5
I0403 18:14:35.289885  6726 net.cpp:425] inception_4d/relu_5x5 <- inception_4d/5x5
I0403 18:14:35.289904  6726 net.cpp:386] inception_4d/relu_5x5 -> inception_4d/5x5 (in-place)
I0403 18:14:35.290233  6726 net.cpp:141] Setting up inception_4d/relu_5x5
I0403 18:14:35.290262  6726 net.cpp:148] Top shape: 24 64 14 14 (301056)
I0403 18:14:35.290279  6726 net.cpp:156] Memory required for data: 1135267104
I0403 18:14:35.290295  6726 layer_factory.hpp:77] Creating layer inception_4d/pool
I0403 18:14:35.290318  6726 net.cpp:91] Creating Layer inception_4d/pool
I0403 18:14:35.290336  6726 net.cpp:425] inception_4d/pool <- inception_4c/output_inception_4c/output_0_split_3
I0403 18:14:35.290356  6726 net.cpp:399] inception_4d/pool -> inception_4d/pool
I0403 18:14:35.290429  6726 net.cpp:141] Setting up inception_4d/pool
I0403 18:14:35.290455  6726 net.cpp:148] Top shape: 24 512 14 14 (2408448)
I0403 18:14:35.290470  6726 net.cpp:156] Memory required for data: 1144900896
I0403 18:14:35.290487  6726 layer_factory.hpp:77] Creating layer inception_4d/pool_proj
I0403 18:14:35.290510  6726 net.cpp:91] Creating Layer inception_4d/pool_proj
I0403 18:14:35.290530  6726 net.cpp:425] inception_4d/pool_proj <- inception_4d/pool
I0403 18:14:35.290552  6726 net.cpp:399] inception_4d/pool_proj -> inception_4d/pool_proj
I0403 18:14:35.292469  6726 net.cpp:141] Setting up inception_4d/pool_proj
I0403 18:14:35.292500  6726 net.cpp:148] Top shape: 24 64 14 14 (301056)
I0403 18:14:35.292515  6726 net.cpp:156] Memory required for data: 1146105120
I0403 18:14:35.292536  6726 layer_factory.hpp:77] Creating layer inception_4d/relu_pool_proj
I0403 18:14:35.292557  6726 net.cpp:91] Creating Layer inception_4d/relu_pool_proj
I0403 18:14:35.292573  6726 net.cpp:425] inception_4d/relu_pool_proj <- inception_4d/pool_proj
I0403 18:14:35.292594  6726 net.cpp:386] inception_4d/relu_pool_proj -> inception_4d/pool_proj (in-place)
I0403 18:14:35.292794  6726 net.cpp:141] Setting up inception_4d/relu_pool_proj
I0403 18:14:35.292820  6726 net.cpp:148] Top shape: 24 64 14 14 (301056)
I0403 18:14:35.292837  6726 net.cpp:156] Memory required for data: 1147309344
I0403 18:14:35.292855  6726 layer_factory.hpp:77] Creating layer inception_4d/output
I0403 18:14:35.292875  6726 net.cpp:91] Creating Layer inception_4d/output
I0403 18:14:35.292891  6726 net.cpp:425] inception_4d/output <- inception_4d/1x1
I0403 18:14:35.292908  6726 net.cpp:425] inception_4d/output <- inception_4d/3x3
I0403 18:14:35.292927  6726 net.cpp:425] inception_4d/output <- inception_4d/5x5
I0403 18:14:35.292944  6726 net.cpp:425] inception_4d/output <- inception_4d/pool_proj
I0403 18:14:35.292963  6726 net.cpp:399] inception_4d/output -> inception_4d/output
I0403 18:14:35.293015  6726 net.cpp:141] Setting up inception_4d/output
I0403 18:14:35.293040  6726 net.cpp:148] Top shape: 24 528 14 14 (2483712)
I0403 18:14:35.293056  6726 net.cpp:156] Memory required for data: 1157244192
I0403 18:14:35.293071  6726 layer_factory.hpp:77] Creating layer inception_4d/output_inception_4d/output_0_split
I0403 18:14:35.293090  6726 net.cpp:91] Creating Layer inception_4d/output_inception_4d/output_0_split
I0403 18:14:35.293108  6726 net.cpp:425] inception_4d/output_inception_4d/output_0_split <- inception_4d/output
I0403 18:14:35.293129  6726 net.cpp:399] inception_4d/output_inception_4d/output_0_split -> inception_4d/output_inception_4d/output_0_split_0
I0403 18:14:35.293154  6726 net.cpp:399] inception_4d/output_inception_4d/output_0_split -> inception_4d/output_inception_4d/output_0_split_1
I0403 18:14:35.293176  6726 net.cpp:399] inception_4d/output_inception_4d/output_0_split -> inception_4d/output_inception_4d/output_0_split_2
I0403 18:14:35.293211  6726 net.cpp:399] inception_4d/output_inception_4d/output_0_split -> inception_4d/output_inception_4d/output_0_split_3
I0403 18:14:35.293233  6726 net.cpp:399] inception_4d/output_inception_4d/output_0_split -> inception_4d/output_inception_4d/output_0_split_4
I0403 18:14:35.293347  6726 net.cpp:141] Setting up inception_4d/output_inception_4d/output_0_split
I0403 18:14:35.293385  6726 net.cpp:148] Top shape: 24 528 14 14 (2483712)
I0403 18:14:35.293411  6726 net.cpp:148] Top shape: 24 528 14 14 (2483712)
I0403 18:14:35.293428  6726 net.cpp:148] Top shape: 24 528 14 14 (2483712)
I0403 18:14:35.293445  6726 net.cpp:148] Top shape: 24 528 14 14 (2483712)
I0403 18:14:35.293462  6726 net.cpp:148] Top shape: 24 528 14 14 (2483712)
I0403 18:14:35.293478  6726 net.cpp:156] Memory required for data: 1206918432
I0403 18:14:35.293493  6726 layer_factory.hpp:77] Creating layer loss2/ave_pool
I0403 18:14:35.293512  6726 net.cpp:91] Creating Layer loss2/ave_pool
I0403 18:14:35.293529  6726 net.cpp:425] loss2/ave_pool <- inception_4d/output_inception_4d/output_0_split_0
I0403 18:14:35.293551  6726 net.cpp:399] loss2/ave_pool -> loss2/ave_pool
I0403 18:14:35.293889  6726 net.cpp:141] Setting up loss2/ave_pool
I0403 18:14:35.293916  6726 net.cpp:148] Top shape: 24 528 4 4 (202752)
I0403 18:14:35.293932  6726 net.cpp:156] Memory required for data: 1207729440
I0403 18:14:35.293948  6726 layer_factory.hpp:77] Creating layer loss2/conv
I0403 18:14:35.293972  6726 net.cpp:91] Creating Layer loss2/conv
I0403 18:14:35.293992  6726 net.cpp:425] loss2/conv <- loss2/ave_pool
I0403 18:14:35.294014  6726 net.cpp:399] loss2/conv -> loss2/conv
I0403 18:14:35.296087  6726 net.cpp:141] Setting up loss2/conv
I0403 18:14:35.296118  6726 net.cpp:148] Top shape: 24 128 4 4 (49152)
I0403 18:14:35.296139  6726 net.cpp:156] Memory required for data: 1207926048
I0403 18:14:35.296159  6726 layer_factory.hpp:77] Creating layer loss2/relu_conv
I0403 18:14:35.296182  6726 net.cpp:91] Creating Layer loss2/relu_conv
I0403 18:14:35.296201  6726 net.cpp:425] loss2/relu_conv <- loss2/conv
I0403 18:14:35.296221  6726 net.cpp:386] loss2/relu_conv -> loss2/conv (in-place)
I0403 18:14:35.296530  6726 net.cpp:141] Setting up loss2/relu_conv
I0403 18:14:35.296557  6726 net.cpp:148] Top shape: 24 128 4 4 (49152)
I0403 18:14:35.296576  6726 net.cpp:156] Memory required for data: 1208122656
I0403 18:14:35.296593  6726 layer_factory.hpp:77] Creating layer loss2/fc
I0403 18:14:35.296613  6726 net.cpp:91] Creating Layer loss2/fc
I0403 18:14:35.296632  6726 net.cpp:425] loss2/fc <- loss2/conv
I0403 18:14:35.296656  6726 net.cpp:399] loss2/fc -> loss2/fc
I0403 18:14:35.315484  6726 net.cpp:141] Setting up loss2/fc
I0403 18:14:35.315536  6726 net.cpp:148] Top shape: 24 1024 (24576)
I0403 18:14:35.315552  6726 net.cpp:156] Memory required for data: 1208220960
I0403 18:14:35.315572  6726 layer_factory.hpp:77] Creating layer loss2/relu_fc
I0403 18:14:35.315594  6726 net.cpp:91] Creating Layer loss2/relu_fc
I0403 18:14:35.315613  6726 net.cpp:425] loss2/relu_fc <- loss2/fc
I0403 18:14:35.315630  6726 net.cpp:386] loss2/relu_fc -> loss2/fc (in-place)
I0403 18:14:35.315954  6726 net.cpp:141] Setting up loss2/relu_fc
I0403 18:14:35.315981  6726 net.cpp:148] Top shape: 24 1024 (24576)
I0403 18:14:35.315997  6726 net.cpp:156] Memory required for data: 1208319264
I0403 18:14:35.316012  6726 layer_factory.hpp:77] Creating layer loss2/drop_fc
I0403 18:14:35.316033  6726 net.cpp:91] Creating Layer loss2/drop_fc
I0403 18:14:35.316051  6726 net.cpp:425] loss2/drop_fc <- loss2/fc
I0403 18:14:35.316069  6726 net.cpp:386] loss2/drop_fc -> loss2/fc (in-place)
I0403 18:14:35.316120  6726 net.cpp:141] Setting up loss2/drop_fc
I0403 18:14:35.316145  6726 net.cpp:148] Top shape: 24 1024 (24576)
I0403 18:14:35.316161  6726 net.cpp:156] Memory required for data: 1208417568
I0403 18:14:35.316182  6726 layer_factory.hpp:77] Creating layer loss2/classifier_plantvillage
I0403 18:14:35.316202  6726 net.cpp:91] Creating Layer loss2/classifier_plantvillage
I0403 18:14:35.316223  6726 net.cpp:425] loss2/classifier_plantvillage <- loss2/fc
I0403 18:14:35.316246  6726 net.cpp:399] loss2/classifier_plantvillage -> loss2/classifier_plantvillage
I0403 18:14:35.316668  6726 net.cpp:141] Setting up loss2/classifier_plantvillage
I0403 18:14:35.316695  6726 net.cpp:148] Top shape: 24 38 (912)
I0403 18:14:35.316730  6726 net.cpp:156] Memory required for data: 1208421216
I0403 18:14:35.316750  6726 layer_factory.hpp:77] Creating layer loss2/classifier_plantvillage_loss2/classifier_plantvillage_0_split
I0403 18:14:35.316768  6726 net.cpp:91] Creating Layer loss2/classifier_plantvillage_loss2/classifier_plantvillage_0_split
I0403 18:14:35.316786  6726 net.cpp:425] loss2/classifier_plantvillage_loss2/classifier_plantvillage_0_split <- loss2/classifier_plantvillage
I0403 18:14:35.316803  6726 net.cpp:399] loss2/classifier_plantvillage_loss2/classifier_plantvillage_0_split -> loss2/classifier_plantvillage_loss2/classifier_plantvillage_0_split_0
I0403 18:14:35.316824  6726 net.cpp:399] loss2/classifier_plantvillage_loss2/classifier_plantvillage_0_split -> loss2/classifier_plantvillage_loss2/classifier_plantvillage_0_split_1
I0403 18:14:35.316848  6726 net.cpp:399] loss2/classifier_plantvillage_loss2/classifier_plantvillage_0_split -> loss2/classifier_plantvillage_loss2/classifier_plantvillage_0_split_2
I0403 18:14:35.316928  6726 net.cpp:141] Setting up loss2/classifier_plantvillage_loss2/classifier_plantvillage_0_split
I0403 18:14:35.316952  6726 net.cpp:148] Top shape: 24 38 (912)
I0403 18:14:35.316969  6726 net.cpp:148] Top shape: 24 38 (912)
I0403 18:14:35.316985  6726 net.cpp:148] Top shape: 24 38 (912)
I0403 18:14:35.316999  6726 net.cpp:156] Memory required for data: 1208432160
I0403 18:14:35.317015  6726 layer_factory.hpp:77] Creating layer inception_4e/1x1
I0403 18:14:35.317039  6726 net.cpp:91] Creating Layer inception_4e/1x1
I0403 18:14:35.317057  6726 net.cpp:425] inception_4e/1x1 <- inception_4d/output_inception_4d/output_0_split_1
I0403 18:14:35.317080  6726 net.cpp:399] inception_4e/1x1 -> inception_4e/1x1
I0403 18:14:35.319000  6726 net.cpp:141] Setting up inception_4e/1x1
I0403 18:14:35.319027  6726 net.cpp:148] Top shape: 24 256 14 14 (1204224)
I0403 18:14:35.319044  6726 net.cpp:156] Memory required for data: 1213249056
I0403 18:14:35.319063  6726 layer_factory.hpp:77] Creating layer inception_4e/relu_1x1
I0403 18:14:35.319083  6726 net.cpp:91] Creating Layer inception_4e/relu_1x1
I0403 18:14:35.319100  6726 net.cpp:425] inception_4e/relu_1x1 <- inception_4e/1x1
I0403 18:14:35.319118  6726 net.cpp:386] inception_4e/relu_1x1 -> inception_4e/1x1 (in-place)
I0403 18:14:35.319432  6726 net.cpp:141] Setting up inception_4e/relu_1x1
I0403 18:14:35.319459  6726 net.cpp:148] Top shape: 24 256 14 14 (1204224)
I0403 18:14:35.319475  6726 net.cpp:156] Memory required for data: 1218065952
I0403 18:14:35.319491  6726 layer_factory.hpp:77] Creating layer inception_4e/3x3_reduce
I0403 18:14:35.319516  6726 net.cpp:91] Creating Layer inception_4e/3x3_reduce
I0403 18:14:35.319535  6726 net.cpp:425] inception_4e/3x3_reduce <- inception_4d/output_inception_4d/output_0_split_2
I0403 18:14:35.319555  6726 net.cpp:399] inception_4e/3x3_reduce -> inception_4e/3x3_reduce
I0403 18:14:35.321784  6726 net.cpp:141] Setting up inception_4e/3x3_reduce
I0403 18:14:35.321815  6726 net.cpp:148] Top shape: 24 160 14 14 (752640)
I0403 18:14:35.321831  6726 net.cpp:156] Memory required for data: 1221076512
I0403 18:14:35.321851  6726 layer_factory.hpp:77] Creating layer inception_4e/relu_3x3_reduce
I0403 18:14:35.321871  6726 net.cpp:91] Creating Layer inception_4e/relu_3x3_reduce
I0403 18:14:35.321888  6726 net.cpp:425] inception_4e/relu_3x3_reduce <- inception_4e/3x3_reduce
I0403 18:14:35.321907  6726 net.cpp:386] inception_4e/relu_3x3_reduce -> inception_4e/3x3_reduce (in-place)
I0403 18:14:35.322100  6726 net.cpp:141] Setting up inception_4e/relu_3x3_reduce
I0403 18:14:35.322129  6726 net.cpp:148] Top shape: 24 160 14 14 (752640)
I0403 18:14:35.322145  6726 net.cpp:156] Memory required for data: 1224087072
I0403 18:14:35.322161  6726 layer_factory.hpp:77] Creating layer inception_4e/3x3
I0403 18:14:35.322187  6726 net.cpp:91] Creating Layer inception_4e/3x3
I0403 18:14:35.322206  6726 net.cpp:425] inception_4e/3x3 <- inception_4e/3x3_reduce
I0403 18:14:35.322227  6726 net.cpp:399] inception_4e/3x3 -> inception_4e/3x3
I0403 18:14:35.327467  6726 net.cpp:141] Setting up inception_4e/3x3
I0403 18:14:35.327515  6726 net.cpp:148] Top shape: 24 320 14 14 (1505280)
I0403 18:14:35.327533  6726 net.cpp:156] Memory required for data: 1230108192
I0403 18:14:35.327551  6726 layer_factory.hpp:77] Creating layer inception_4e/relu_3x3
I0403 18:14:35.327570  6726 net.cpp:91] Creating Layer inception_4e/relu_3x3
I0403 18:14:35.327587  6726 net.cpp:425] inception_4e/relu_3x3 <- inception_4e/3x3
I0403 18:14:35.327608  6726 net.cpp:386] inception_4e/relu_3x3 -> inception_4e/3x3 (in-place)
I0403 18:14:35.327920  6726 net.cpp:141] Setting up inception_4e/relu_3x3
I0403 18:14:35.327947  6726 net.cpp:148] Top shape: 24 320 14 14 (1505280)
I0403 18:14:35.327963  6726 net.cpp:156] Memory required for data: 1236129312
I0403 18:14:35.327978  6726 layer_factory.hpp:77] Creating layer inception_4e/5x5_reduce
I0403 18:14:35.328003  6726 net.cpp:91] Creating Layer inception_4e/5x5_reduce
I0403 18:14:35.328022  6726 net.cpp:425] inception_4e/5x5_reduce <- inception_4d/output_inception_4d/output_0_split_3
I0403 18:14:35.328043  6726 net.cpp:399] inception_4e/5x5_reduce -> inception_4e/5x5_reduce
I0403 18:14:35.329175  6726 net.cpp:141] Setting up inception_4e/5x5_reduce
I0403 18:14:35.329208  6726 net.cpp:148] Top shape: 24 32 14 14 (150528)
I0403 18:14:35.329226  6726 net.cpp:156] Memory required for data: 1236731424
I0403 18:14:35.329246  6726 layer_factory.hpp:77] Creating layer inception_4e/relu_5x5_reduce
I0403 18:14:35.329267  6726 net.cpp:91] Creating Layer inception_4e/relu_5x5_reduce
I0403 18:14:35.329283  6726 net.cpp:425] inception_4e/relu_5x5_reduce <- inception_4e/5x5_reduce
I0403 18:14:35.329303  6726 net.cpp:386] inception_4e/relu_5x5_reduce -> inception_4e/5x5_reduce (in-place)
I0403 18:14:35.329612  6726 net.cpp:141] Setting up inception_4e/relu_5x5_reduce
I0403 18:14:35.329638  6726 net.cpp:148] Top shape: 24 32 14 14 (150528)
I0403 18:14:35.329653  6726 net.cpp:156] Memory required for data: 1237333536
I0403 18:14:35.329669  6726 layer_factory.hpp:77] Creating layer inception_4e/5x5
I0403 18:14:35.329710  6726 net.cpp:91] Creating Layer inception_4e/5x5
I0403 18:14:35.329730  6726 net.cpp:425] inception_4e/5x5 <- inception_4e/5x5_reduce
I0403 18:14:35.329751  6726 net.cpp:399] inception_4e/5x5 -> inception_4e/5x5
I0403 18:14:35.331665  6726 net.cpp:141] Setting up inception_4e/5x5
I0403 18:14:35.331692  6726 net.cpp:148] Top shape: 24 128 14 14 (602112)
I0403 18:14:35.331708  6726 net.cpp:156] Memory required for data: 1239741984
I0403 18:14:35.331728  6726 layer_factory.hpp:77] Creating layer inception_4e/relu_5x5
I0403 18:14:35.331750  6726 net.cpp:91] Creating Layer inception_4e/relu_5x5
I0403 18:14:35.331768  6726 net.cpp:425] inception_4e/relu_5x5 <- inception_4e/5x5
I0403 18:14:35.331785  6726 net.cpp:386] inception_4e/relu_5x5 -> inception_4e/5x5 (in-place)
I0403 18:14:35.331990  6726 net.cpp:141] Setting up inception_4e/relu_5x5
I0403 18:14:35.332017  6726 net.cpp:148] Top shape: 24 128 14 14 (602112)
I0403 18:14:35.332036  6726 net.cpp:156] Memory required for data: 1242150432
I0403 18:14:35.332051  6726 layer_factory.hpp:77] Creating layer inception_4e/pool
I0403 18:14:35.332070  6726 net.cpp:91] Creating Layer inception_4e/pool
I0403 18:14:35.332088  6726 net.cpp:425] inception_4e/pool <- inception_4d/output_inception_4d/output_0_split_4
I0403 18:14:35.332106  6726 net.cpp:399] inception_4e/pool -> inception_4e/pool
I0403 18:14:35.332185  6726 net.cpp:141] Setting up inception_4e/pool
I0403 18:14:35.332209  6726 net.cpp:148] Top shape: 24 528 14 14 (2483712)
I0403 18:14:35.332224  6726 net.cpp:156] Memory required for data: 1252085280
I0403 18:14:35.332240  6726 layer_factory.hpp:77] Creating layer inception_4e/pool_proj
I0403 18:14:35.332263  6726 net.cpp:91] Creating Layer inception_4e/pool_proj
I0403 18:14:35.332283  6726 net.cpp:425] inception_4e/pool_proj <- inception_4e/pool
I0403 18:14:35.332304  6726 net.cpp:399] inception_4e/pool_proj -> inception_4e/pool_proj
I0403 18:14:35.333880  6726 net.cpp:141] Setting up inception_4e/pool_proj
I0403 18:14:35.333921  6726 net.cpp:148] Top shape: 24 128 14 14 (602112)
I0403 18:14:35.333938  6726 net.cpp:156] Memory required for data: 1254493728
I0403 18:14:35.333957  6726 layer_factory.hpp:77] Creating layer inception_4e/relu_pool_proj
I0403 18:14:35.333977  6726 net.cpp:91] Creating Layer inception_4e/relu_pool_proj
I0403 18:14:35.333993  6726 net.cpp:425] inception_4e/relu_pool_proj <- inception_4e/pool_proj
I0403 18:14:35.334013  6726 net.cpp:386] inception_4e/relu_pool_proj -> inception_4e/pool_proj (in-place)
I0403 18:14:35.334321  6726 net.cpp:141] Setting up inception_4e/relu_pool_proj
I0403 18:14:35.334349  6726 net.cpp:148] Top shape: 24 128 14 14 (602112)
I0403 18:14:35.334365  6726 net.cpp:156] Memory required for data: 1256902176
I0403 18:14:35.334380  6726 layer_factory.hpp:77] Creating layer inception_4e/output
I0403 18:14:35.334398  6726 net.cpp:91] Creating Layer inception_4e/output
I0403 18:14:35.334414  6726 net.cpp:425] inception_4e/output <- inception_4e/1x1
I0403 18:14:35.334434  6726 net.cpp:425] inception_4e/output <- inception_4e/3x3
I0403 18:14:35.334451  6726 net.cpp:425] inception_4e/output <- inception_4e/5x5
I0403 18:14:35.334467  6726 net.cpp:425] inception_4e/output <- inception_4e/pool_proj
I0403 18:14:35.334488  6726 net.cpp:399] inception_4e/output -> inception_4e/output
I0403 18:14:35.334539  6726 net.cpp:141] Setting up inception_4e/output
I0403 18:14:35.334566  6726 net.cpp:148] Top shape: 24 832 14 14 (3913728)
I0403 18:14:35.334583  6726 net.cpp:156] Memory required for data: 1272557088
I0403 18:14:35.334599  6726 layer_factory.hpp:77] Creating layer pool4/3x3_s2
I0403 18:14:35.334616  6726 net.cpp:91] Creating Layer pool4/3x3_s2
I0403 18:14:35.334631  6726 net.cpp:425] pool4/3x3_s2 <- inception_4e/output
I0403 18:14:35.334653  6726 net.cpp:399] pool4/3x3_s2 -> pool4/3x3_s2
I0403 18:14:35.334724  6726 net.cpp:141] Setting up pool4/3x3_s2
I0403 18:14:35.334748  6726 net.cpp:148] Top shape: 24 832 7 7 (978432)
I0403 18:14:35.334764  6726 net.cpp:156] Memory required for data: 1276470816
I0403 18:14:35.334779  6726 layer_factory.hpp:77] Creating layer pool4/3x3_s2_pool4/3x3_s2_0_split
I0403 18:14:35.334800  6726 net.cpp:91] Creating Layer pool4/3x3_s2_pool4/3x3_s2_0_split
I0403 18:14:35.334816  6726 net.cpp:425] pool4/3x3_s2_pool4/3x3_s2_0_split <- pool4/3x3_s2
I0403 18:14:35.334835  6726 net.cpp:399] pool4/3x3_s2_pool4/3x3_s2_0_split -> pool4/3x3_s2_pool4/3x3_s2_0_split_0
I0403 18:14:35.334854  6726 net.cpp:399] pool4/3x3_s2_pool4/3x3_s2_0_split -> pool4/3x3_s2_pool4/3x3_s2_0_split_1
I0403 18:14:35.334878  6726 net.cpp:399] pool4/3x3_s2_pool4/3x3_s2_0_split -> pool4/3x3_s2_pool4/3x3_s2_0_split_2
I0403 18:14:35.334900  6726 net.cpp:399] pool4/3x3_s2_pool4/3x3_s2_0_split -> pool4/3x3_s2_pool4/3x3_s2_0_split_3
I0403 18:14:35.334995  6726 net.cpp:141] Setting up pool4/3x3_s2_pool4/3x3_s2_0_split
I0403 18:14:35.335018  6726 net.cpp:148] Top shape: 24 832 7 7 (978432)
I0403 18:14:35.335036  6726 net.cpp:148] Top shape: 24 832 7 7 (978432)
I0403 18:14:35.335052  6726 net.cpp:148] Top shape: 24 832 7 7 (978432)
I0403 18:14:35.335067  6726 net.cpp:148] Top shape: 24 832 7 7 (978432)
I0403 18:14:35.335083  6726 net.cpp:156] Memory required for data: 1292125728
I0403 18:14:35.335098  6726 layer_factory.hpp:77] Creating layer inception_5a/1x1
I0403 18:14:35.335120  6726 net.cpp:91] Creating Layer inception_5a/1x1
I0403 18:14:35.335139  6726 net.cpp:425] inception_5a/1x1 <- pool4/3x3_s2_pool4/3x3_s2_0_split_0
I0403 18:14:35.335160  6726 net.cpp:399] inception_5a/1x1 -> inception_5a/1x1
I0403 18:14:35.338230  6726 net.cpp:141] Setting up inception_5a/1x1
I0403 18:14:35.338263  6726 net.cpp:148] Top shape: 24 256 7 7 (301056)
I0403 18:14:35.338280  6726 net.cpp:156] Memory required for data: 1293329952
I0403 18:14:35.338300  6726 layer_factory.hpp:77] Creating layer inception_5a/relu_1x1
I0403 18:14:35.338321  6726 net.cpp:91] Creating Layer inception_5a/relu_1x1
I0403 18:14:35.338340  6726 net.cpp:425] inception_5a/relu_1x1 <- inception_5a/1x1
I0403 18:14:35.338358  6726 net.cpp:386] inception_5a/relu_1x1 -> inception_5a/1x1 (in-place)
I0403 18:14:35.338695  6726 net.cpp:141] Setting up inception_5a/relu_1x1
I0403 18:14:35.338722  6726 net.cpp:148] Top shape: 24 256 7 7 (301056)
I0403 18:14:35.338738  6726 net.cpp:156] Memory required for data: 1294534176
I0403 18:14:35.338754  6726 layer_factory.hpp:77] Creating layer inception_5a/3x3_reduce
I0403 18:14:35.338778  6726 net.cpp:91] Creating Layer inception_5a/3x3_reduce
I0403 18:14:35.338798  6726 net.cpp:425] inception_5a/3x3_reduce <- pool4/3x3_s2_pool4/3x3_s2_0_split_1
I0403 18:14:35.338820  6726 net.cpp:399] inception_5a/3x3_reduce -> inception_5a/3x3_reduce
I0403 18:14:35.341475  6726 net.cpp:141] Setting up inception_5a/3x3_reduce
I0403 18:14:35.341506  6726 net.cpp:148] Top shape: 24 160 7 7 (188160)
I0403 18:14:35.341523  6726 net.cpp:156] Memory required for data: 1295286816
I0403 18:14:35.341543  6726 layer_factory.hpp:77] Creating layer inception_5a/relu_3x3_reduce
I0403 18:14:35.341562  6726 net.cpp:91] Creating Layer inception_5a/relu_3x3_reduce
I0403 18:14:35.341579  6726 net.cpp:425] inception_5a/relu_3x3_reduce <- inception_5a/3x3_reduce
I0403 18:14:35.341600  6726 net.cpp:386] inception_5a/relu_3x3_reduce -> inception_5a/3x3_reduce (in-place)
I0403 18:14:35.341801  6726 net.cpp:141] Setting up inception_5a/relu_3x3_reduce
I0403 18:14:35.341827  6726 net.cpp:148] Top shape: 24 160 7 7 (188160)
I0403 18:14:35.341843  6726 net.cpp:156] Memory required for data: 1296039456
I0403 18:14:35.341858  6726 layer_factory.hpp:77] Creating layer inception_5a/3x3
I0403 18:14:35.341881  6726 net.cpp:91] Creating Layer inception_5a/3x3
I0403 18:14:35.341900  6726 net.cpp:425] inception_5a/3x3 <- inception_5a/3x3_reduce
I0403 18:14:35.341925  6726 net.cpp:399] inception_5a/3x3 -> inception_5a/3x3
I0403 18:14:35.347378  6726 net.cpp:141] Setting up inception_5a/3x3
I0403 18:14:35.347410  6726 net.cpp:148] Top shape: 24 320 7 7 (376320)
I0403 18:14:35.347427  6726 net.cpp:156] Memory required for data: 1297544736
I0403 18:14:35.347448  6726 layer_factory.hpp:77] Creating layer inception_5a/relu_3x3
I0403 18:14:35.347470  6726 net.cpp:91] Creating Layer inception_5a/relu_3x3
I0403 18:14:35.347488  6726 net.cpp:425] inception_5a/relu_3x3 <- inception_5a/3x3
I0403 18:14:35.347507  6726 net.cpp:386] inception_5a/relu_3x3 -> inception_5a/3x3 (in-place)
I0403 18:14:35.347820  6726 net.cpp:141] Setting up inception_5a/relu_3x3
I0403 18:14:35.347847  6726 net.cpp:148] Top shape: 24 320 7 7 (376320)
I0403 18:14:35.347863  6726 net.cpp:156] Memory required for data: 1299050016
I0403 18:14:35.347879  6726 layer_factory.hpp:77] Creating layer inception_5a/5x5_reduce
I0403 18:14:35.347904  6726 net.cpp:91] Creating Layer inception_5a/5x5_reduce
I0403 18:14:35.347923  6726 net.cpp:425] inception_5a/5x5_reduce <- pool4/3x3_s2_pool4/3x3_s2_0_split_2
I0403 18:14:35.347950  6726 net.cpp:399] inception_5a/5x5_reduce -> inception_5a/5x5_reduce
I0403 18:14:35.349246  6726 net.cpp:141] Setting up inception_5a/5x5_reduce
I0403 18:14:35.349278  6726 net.cpp:148] Top shape: 24 32 7 7 (37632)
I0403 18:14:35.349298  6726 net.cpp:156] Memory required for data: 1299200544
I0403 18:14:35.349316  6726 layer_factory.hpp:77] Creating layer inception_5a/relu_5x5_reduce
I0403 18:14:35.349335  6726 net.cpp:91] Creating Layer inception_5a/relu_5x5_reduce
I0403 18:14:35.349354  6726 net.cpp:425] inception_5a/relu_5x5_reduce <- inception_5a/5x5_reduce
I0403 18:14:35.349371  6726 net.cpp:386] inception_5a/relu_5x5_reduce -> inception_5a/5x5_reduce (in-place)
I0403 18:14:35.349690  6726 net.cpp:141] Setting up inception_5a/relu_5x5_reduce
I0403 18:14:35.349721  6726 net.cpp:148] Top shape: 24 32 7 7 (37632)
I0403 18:14:35.349738  6726 net.cpp:156] Memory required for data: 1299351072
I0403 18:14:35.349753  6726 layer_factory.hpp:77] Creating layer inception_5a/5x5
I0403 18:14:35.349774  6726 net.cpp:91] Creating Layer inception_5a/5x5
I0403 18:14:35.349792  6726 net.cpp:425] inception_5a/5x5 <- inception_5a/5x5_reduce
I0403 18:14:35.349815  6726 net.cpp:399] inception_5a/5x5 -> inception_5a/5x5
I0403 18:14:35.351670  6726 net.cpp:141] Setting up inception_5a/5x5
I0403 18:14:35.351716  6726 net.cpp:148] Top shape: 24 128 7 7 (150528)
I0403 18:14:35.351733  6726 net.cpp:156] Memory required for data: 1299953184
I0403 18:14:35.351752  6726 layer_factory.hpp:77] Creating layer inception_5a/relu_5x5
I0403 18:14:35.351773  6726 net.cpp:91] Creating Layer inception_5a/relu_5x5
I0403 18:14:35.351791  6726 net.cpp:425] inception_5a/relu_5x5 <- inception_5a/5x5
I0403 18:14:35.351810  6726 net.cpp:386] inception_5a/relu_5x5 -> inception_5a/5x5 (in-place)
I0403 18:14:35.352015  6726 net.cpp:141] Setting up inception_5a/relu_5x5
I0403 18:14:35.352044  6726 net.cpp:148] Top shape: 24 128 7 7 (150528)
I0403 18:14:35.352061  6726 net.cpp:156] Memory required for data: 1300555296
I0403 18:14:35.352077  6726 layer_factory.hpp:77] Creating layer inception_5a/pool
I0403 18:14:35.352097  6726 net.cpp:91] Creating Layer inception_5a/pool
I0403 18:14:35.352113  6726 net.cpp:425] inception_5a/pool <- pool4/3x3_s2_pool4/3x3_s2_0_split_3
I0403 18:14:35.352133  6726 net.cpp:399] inception_5a/pool -> inception_5a/pool
I0403 18:14:35.352217  6726 net.cpp:141] Setting up inception_5a/pool
I0403 18:14:35.352243  6726 net.cpp:148] Top shape: 24 832 7 7 (978432)
I0403 18:14:35.352259  6726 net.cpp:156] Memory required for data: 1304469024
I0403 18:14:35.352274  6726 layer_factory.hpp:77] Creating layer inception_5a/pool_proj
I0403 18:14:35.352299  6726 net.cpp:91] Creating Layer inception_5a/pool_proj
I0403 18:14:35.352319  6726 net.cpp:425] inception_5a/pool_proj <- inception_5a/pool
I0403 18:14:35.352341  6726 net.cpp:399] inception_5a/pool_proj -> inception_5a/pool_proj
I0403 18:14:35.354761  6726 net.cpp:141] Setting up inception_5a/pool_proj
I0403 18:14:35.354792  6726 net.cpp:148] Top shape: 24 128 7 7 (150528)
I0403 18:14:35.354809  6726 net.cpp:156] Memory required for data: 1305071136
I0403 18:14:35.354827  6726 layer_factory.hpp:77] Creating layer inception_5a/relu_pool_proj
I0403 18:14:35.354849  6726 net.cpp:91] Creating Layer inception_5a/relu_pool_proj
I0403 18:14:35.354867  6726 net.cpp:425] inception_5a/relu_pool_proj <- inception_5a/pool_proj
I0403 18:14:35.354885  6726 net.cpp:386] inception_5a/relu_pool_proj -> inception_5a/pool_proj (in-place)
I0403 18:14:35.355216  6726 net.cpp:141] Setting up inception_5a/relu_pool_proj
I0403 18:14:35.355242  6726 net.cpp:148] Top shape: 24 128 7 7 (150528)
I0403 18:14:35.355257  6726 net.cpp:156] Memory required for data: 1305673248
I0403 18:14:35.355273  6726 layer_factory.hpp:77] Creating layer inception_5a/output
I0403 18:14:35.355291  6726 net.cpp:91] Creating Layer inception_5a/output
I0403 18:14:35.355309  6726 net.cpp:425] inception_5a/output <- inception_5a/1x1
I0403 18:14:35.355325  6726 net.cpp:425] inception_5a/output <- inception_5a/3x3
I0403 18:14:35.355341  6726 net.cpp:425] inception_5a/output <- inception_5a/5x5
I0403 18:14:35.355357  6726 net.cpp:425] inception_5a/output <- inception_5a/pool_proj
I0403 18:14:35.355377  6726 net.cpp:399] inception_5a/output -> inception_5a/output
I0403 18:14:35.355429  6726 net.cpp:141] Setting up inception_5a/output
I0403 18:14:35.355456  6726 net.cpp:148] Top shape: 24 832 7 7 (978432)
I0403 18:14:35.355473  6726 net.cpp:156] Memory required for data: 1309586976
I0403 18:14:35.355486  6726 layer_factory.hpp:77] Creating layer inception_5a/output_inception_5a/output_0_split
I0403 18:14:35.355504  6726 net.cpp:91] Creating Layer inception_5a/output_inception_5a/output_0_split
I0403 18:14:35.355520  6726 net.cpp:425] inception_5a/output_inception_5a/output_0_split <- inception_5a/output
I0403 18:14:35.355540  6726 net.cpp:399] inception_5a/output_inception_5a/output_0_split -> inception_5a/output_inception_5a/output_0_split_0
I0403 18:14:35.355564  6726 net.cpp:399] inception_5a/output_inception_5a/output_0_split -> inception_5a/output_inception_5a/output_0_split_1
I0403 18:14:35.355584  6726 net.cpp:399] inception_5a/output_inception_5a/output_0_split -> inception_5a/output_inception_5a/output_0_split_2
I0403 18:14:35.355604  6726 net.cpp:399] inception_5a/output_inception_5a/output_0_split -> inception_5a/output_inception_5a/output_0_split_3
I0403 18:14:35.355716  6726 net.cpp:141] Setting up inception_5a/output_inception_5a/output_0_split
I0403 18:14:35.355741  6726 net.cpp:148] Top shape: 24 832 7 7 (978432)
I0403 18:14:35.355761  6726 net.cpp:148] Top shape: 24 832 7 7 (978432)
I0403 18:14:35.355777  6726 net.cpp:148] Top shape: 24 832 7 7 (978432)
I0403 18:14:35.355792  6726 net.cpp:148] Top shape: 24 832 7 7 (978432)
I0403 18:14:35.355805  6726 net.cpp:156] Memory required for data: 1325241888
I0403 18:14:35.355820  6726 layer_factory.hpp:77] Creating layer inception_5b/1x1
I0403 18:14:35.355840  6726 net.cpp:91] Creating Layer inception_5b/1x1
I0403 18:14:35.355859  6726 net.cpp:425] inception_5b/1x1 <- inception_5a/output_inception_5a/output_0_split_0
I0403 18:14:35.355880  6726 net.cpp:399] inception_5b/1x1 -> inception_5b/1x1
I0403 18:14:35.359699  6726 net.cpp:141] Setting up inception_5b/1x1
I0403 18:14:35.359730  6726 net.cpp:148] Top shape: 24 384 7 7 (451584)
I0403 18:14:35.359746  6726 net.cpp:156] Memory required for data: 1327048224
I0403 18:14:35.359766  6726 layer_factory.hpp:77] Creating layer inception_5b/relu_1x1
I0403 18:14:35.359783  6726 net.cpp:91] Creating Layer inception_5b/relu_1x1
I0403 18:14:35.359799  6726 net.cpp:425] inception_5b/relu_1x1 <- inception_5b/1x1
I0403 18:14:35.359819  6726 net.cpp:386] inception_5b/relu_1x1 -> inception_5b/1x1 (in-place)
I0403 18:14:35.360128  6726 net.cpp:141] Setting up inception_5b/relu_1x1
I0403 18:14:35.360154  6726 net.cpp:148] Top shape: 24 384 7 7 (451584)
I0403 18:14:35.360170  6726 net.cpp:156] Memory required for data: 1328854560
I0403 18:14:35.360189  6726 layer_factory.hpp:77] Creating layer inception_5b/3x3_reduce
I0403 18:14:35.360213  6726 net.cpp:91] Creating Layer inception_5b/3x3_reduce
I0403 18:14:35.360232  6726 net.cpp:425] inception_5b/3x3_reduce <- inception_5a/output_inception_5a/output_0_split_1
I0403 18:14:35.360255  6726 net.cpp:399] inception_5b/3x3_reduce -> inception_5b/3x3_reduce
I0403 18:14:35.362954  6726 net.cpp:141] Setting up inception_5b/3x3_reduce
I0403 18:14:35.362984  6726 net.cpp:148] Top shape: 24 192 7 7 (225792)
I0403 18:14:35.362999  6726 net.cpp:156] Memory required for data: 1329757728
I0403 18:14:35.363019  6726 layer_factory.hpp:77] Creating layer inception_5b/relu_3x3_reduce
I0403 18:14:35.363039  6726 net.cpp:91] Creating Layer inception_5b/relu_3x3_reduce
I0403 18:14:35.363055  6726 net.cpp:425] inception_5b/relu_3x3_reduce <- inception_5b/3x3_reduce
I0403 18:14:35.363073  6726 net.cpp:386] inception_5b/relu_3x3_reduce -> inception_5b/3x3_reduce (in-place)
I0403 18:14:35.363281  6726 net.cpp:141] Setting up inception_5b/relu_3x3_reduce
I0403 18:14:35.363307  6726 net.cpp:148] Top shape: 24 192 7 7 (225792)
I0403 18:14:35.363322  6726 net.cpp:156] Memory required for data: 1330660896
I0403 18:14:35.363337  6726 layer_factory.hpp:77] Creating layer inception_5b/3x3
I0403 18:14:35.363359  6726 net.cpp:91] Creating Layer inception_5b/3x3
I0403 18:14:35.363378  6726 net.cpp:425] inception_5b/3x3 <- inception_5b/3x3_reduce
I0403 18:14:35.363400  6726 net.cpp:399] inception_5b/3x3 -> inception_5b/3x3
I0403 18:14:35.370218  6726 net.cpp:141] Setting up inception_5b/3x3
I0403 18:14:35.370249  6726 net.cpp:148] Top shape: 24 384 7 7 (451584)
I0403 18:14:35.370265  6726 net.cpp:156] Memory required for data: 1332467232
I0403 18:14:35.370283  6726 layer_factory.hpp:77] Creating layer inception_5b/relu_3x3
I0403 18:14:35.370304  6726 net.cpp:91] Creating Layer inception_5b/relu_3x3
I0403 18:14:35.370321  6726 net.cpp:425] inception_5b/relu_3x3 <- inception_5b/3x3
I0403 18:14:35.370338  6726 net.cpp:386] inception_5b/relu_3x3 -> inception_5b/3x3 (in-place)
I0403 18:14:35.370640  6726 net.cpp:141] Setting up inception_5b/relu_3x3
I0403 18:14:35.370666  6726 net.cpp:148] Top shape: 24 384 7 7 (451584)
I0403 18:14:35.370682  6726 net.cpp:156] Memory required for data: 1334273568
I0403 18:14:35.370697  6726 layer_factory.hpp:77] Creating layer inception_5b/5x5_reduce
I0403 18:14:35.370734  6726 net.cpp:91] Creating Layer inception_5b/5x5_reduce
I0403 18:14:35.370754  6726 net.cpp:425] inception_5b/5x5_reduce <- inception_5a/output_inception_5a/output_0_split_2
I0403 18:14:35.370776  6726 net.cpp:399] inception_5b/5x5_reduce -> inception_5b/5x5_reduce
I0403 18:14:35.372071  6726 net.cpp:141] Setting up inception_5b/5x5_reduce
I0403 18:14:35.372098  6726 net.cpp:148] Top shape: 24 48 7 7 (56448)
I0403 18:14:35.372115  6726 net.cpp:156] Memory required for data: 1334499360
I0403 18:14:35.372133  6726 layer_factory.hpp:77] Creating layer inception_5b/relu_5x5_reduce
I0403 18:14:35.372153  6726 net.cpp:91] Creating Layer inception_5b/relu_5x5_reduce
I0403 18:14:35.372169  6726 net.cpp:425] inception_5b/relu_5x5_reduce <- inception_5b/5x5_reduce
I0403 18:14:35.372195  6726 net.cpp:386] inception_5b/relu_5x5_reduce -> inception_5b/5x5_reduce (in-place)
I0403 18:14:35.372577  6726 net.cpp:141] Setting up inception_5b/relu_5x5_reduce
I0403 18:14:35.372603  6726 net.cpp:148] Top shape: 24 48 7 7 (56448)
I0403 18:14:35.372619  6726 net.cpp:156] Memory required for data: 1334725152
I0403 18:14:35.372635  6726 layer_factory.hpp:77] Creating layer inception_5b/5x5
I0403 18:14:35.372655  6726 net.cpp:91] Creating Layer inception_5b/5x5
I0403 18:14:35.372673  6726 net.cpp:425] inception_5b/5x5 <- inception_5b/5x5_reduce
I0403 18:14:35.372691  6726 net.cpp:399] inception_5b/5x5 -> inception_5b/5x5
I0403 18:14:35.374776  6726 net.cpp:141] Setting up inception_5b/5x5
I0403 18:14:35.374804  6726 net.cpp:148] Top shape: 24 128 7 7 (150528)
I0403 18:14:35.374819  6726 net.cpp:156] Memory required for data: 1335327264
I0403 18:14:35.374838  6726 layer_factory.hpp:77] Creating layer inception_5b/relu_5x5
I0403 18:14:35.374858  6726 net.cpp:91] Creating Layer inception_5b/relu_5x5
I0403 18:14:35.374876  6726 net.cpp:425] inception_5b/relu_5x5 <- inception_5b/5x5
I0403 18:14:35.374893  6726 net.cpp:386] inception_5b/relu_5x5 -> inception_5b/5x5 (in-place)
I0403 18:14:35.375090  6726 net.cpp:141] Setting up inception_5b/relu_5x5
I0403 18:14:35.375116  6726 net.cpp:148] Top shape: 24 128 7 7 (150528)
I0403 18:14:35.375131  6726 net.cpp:156] Memory required for data: 1335929376
I0403 18:14:35.375147  6726 layer_factory.hpp:77] Creating layer inception_5b/pool
I0403 18:14:35.375165  6726 net.cpp:91] Creating Layer inception_5b/pool
I0403 18:14:35.375186  6726 net.cpp:425] inception_5b/pool <- inception_5a/output_inception_5a/output_0_split_3
I0403 18:14:35.375208  6726 net.cpp:399] inception_5b/pool -> inception_5b/pool
I0403 18:14:35.375283  6726 net.cpp:141] Setting up inception_5b/pool
I0403 18:14:35.375308  6726 net.cpp:148] Top shape: 24 832 7 7 (978432)
I0403 18:14:35.375321  6726 net.cpp:156] Memory required for data: 1339843104
I0403 18:14:35.375336  6726 layer_factory.hpp:77] Creating layer inception_5b/pool_proj
I0403 18:14:35.375360  6726 net.cpp:91] Creating Layer inception_5b/pool_proj
I0403 18:14:35.375378  6726 net.cpp:425] inception_5b/pool_proj <- inception_5b/pool
I0403 18:14:35.375401  6726 net.cpp:399] inception_5b/pool_proj -> inception_5b/pool_proj
I0403 18:14:35.377744  6726 net.cpp:141] Setting up inception_5b/pool_proj
I0403 18:14:35.377774  6726 net.cpp:148] Top shape: 24 128 7 7 (150528)
I0403 18:14:35.377791  6726 net.cpp:156] Memory required for data: 1340445216
I0403 18:14:35.377810  6726 layer_factory.hpp:77] Creating layer inception_5b/relu_pool_proj
I0403 18:14:35.377830  6726 net.cpp:91] Creating Layer inception_5b/relu_pool_proj
I0403 18:14:35.377847  6726 net.cpp:425] inception_5b/relu_pool_proj <- inception_5b/pool_proj
I0403 18:14:35.377864  6726 net.cpp:386] inception_5b/relu_pool_proj -> inception_5b/pool_proj (in-place)
I0403 18:14:35.378165  6726 net.cpp:141] Setting up inception_5b/relu_pool_proj
I0403 18:14:35.378196  6726 net.cpp:148] Top shape: 24 128 7 7 (150528)
I0403 18:14:35.378211  6726 net.cpp:156] Memory required for data: 1341047328
I0403 18:14:35.378226  6726 layer_factory.hpp:77] Creating layer inception_5b/output
I0403 18:14:35.378244  6726 net.cpp:91] Creating Layer inception_5b/output
I0403 18:14:35.378274  6726 net.cpp:425] inception_5b/output <- inception_5b/1x1
I0403 18:14:35.378293  6726 net.cpp:425] inception_5b/output <- inception_5b/3x3
I0403 18:14:35.378310  6726 net.cpp:425] inception_5b/output <- inception_5b/5x5
I0403 18:14:35.378326  6726 net.cpp:425] inception_5b/output <- inception_5b/pool_proj
I0403 18:14:35.378346  6726 net.cpp:399] inception_5b/output -> inception_5b/output
I0403 18:14:35.378401  6726 net.cpp:141] Setting up inception_5b/output
I0403 18:14:35.378425  6726 net.cpp:148] Top shape: 24 1024 7 7 (1204224)
I0403 18:14:35.378440  6726 net.cpp:156] Memory required for data: 1345864224
I0403 18:14:35.378455  6726 layer_factory.hpp:77] Creating layer pool5/7x7_s1
I0403 18:14:35.378473  6726 net.cpp:91] Creating Layer pool5/7x7_s1
I0403 18:14:35.378489  6726 net.cpp:425] pool5/7x7_s1 <- inception_5b/output
I0403 18:14:35.378510  6726 net.cpp:399] pool5/7x7_s1 -> pool5/7x7_s1
I0403 18:14:35.378733  6726 net.cpp:141] Setting up pool5/7x7_s1
I0403 18:14:35.378759  6726 net.cpp:148] Top shape: 24 1024 1 1 (24576)
I0403 18:14:35.378775  6726 net.cpp:156] Memory required for data: 1345962528
I0403 18:14:35.378790  6726 layer_factory.hpp:77] Creating layer pool5/drop_7x7_s1
I0403 18:14:35.378811  6726 net.cpp:91] Creating Layer pool5/drop_7x7_s1
I0403 18:14:35.378828  6726 net.cpp:425] pool5/drop_7x7_s1 <- pool5/7x7_s1
I0403 18:14:35.378844  6726 net.cpp:386] pool5/drop_7x7_s1 -> pool5/7x7_s1 (in-place)
I0403 18:14:35.378896  6726 net.cpp:141] Setting up pool5/drop_7x7_s1
I0403 18:14:35.378919  6726 net.cpp:148] Top shape: 24 1024 1 1 (24576)
I0403 18:14:35.378933  6726 net.cpp:156] Memory required for data: 1346060832
I0403 18:14:35.378949  6726 layer_factory.hpp:77] Creating layer loss3/classifier_plantvillage
I0403 18:14:35.378969  6726 net.cpp:91] Creating Layer loss3/classifier_plantvillage
I0403 18:14:35.378984  6726 net.cpp:425] loss3/classifier_plantvillage <- pool5/7x7_s1
I0403 18:14:35.379005  6726 net.cpp:399] loss3/classifier_plantvillage -> loss3/classifier_plantvillage
I0403 18:14:35.379441  6726 net.cpp:141] Setting up loss3/classifier_plantvillage
I0403 18:14:35.379465  6726 net.cpp:148] Top shape: 24 38 (912)
I0403 18:14:35.379482  6726 net.cpp:156] Memory required for data: 1346064480
I0403 18:14:35.379499  6726 layer_factory.hpp:77] Creating layer loss3/classifier_plantvillage_loss3/classifier_plantvillage_0_split
I0403 18:14:35.379520  6726 net.cpp:91] Creating Layer loss3/classifier_plantvillage_loss3/classifier_plantvillage_0_split
I0403 18:14:35.379537  6726 net.cpp:425] loss3/classifier_plantvillage_loss3/classifier_plantvillage_0_split <- loss3/classifier_plantvillage
I0403 18:14:35.379557  6726 net.cpp:399] loss3/classifier_plantvillage_loss3/classifier_plantvillage_0_split -> loss3/classifier_plantvillage_loss3/classifier_plantvillage_0_split_0
I0403 18:14:35.379578  6726 net.cpp:399] loss3/classifier_plantvillage_loss3/classifier_plantvillage_0_split -> loss3/classifier_plantvillage_loss3/classifier_plantvillage_0_split_1
I0403 18:14:35.379600  6726 net.cpp:399] loss3/classifier_plantvillage_loss3/classifier_plantvillage_0_split -> loss3/classifier_plantvillage_loss3/classifier_plantvillage_0_split_2
I0403 18:14:35.379621  6726 net.cpp:399] loss3/classifier_plantvillage_loss3/classifier_plantvillage_0_split -> loss3/classifier_plantvillage_loss3/classifier_plantvillage_0_split_3
I0403 18:14:35.379722  6726 net.cpp:141] Setting up loss3/classifier_plantvillage_loss3/classifier_plantvillage_0_split
I0403 18:14:35.379746  6726 net.cpp:148] Top shape: 24 38 (912)
I0403 18:14:35.379763  6726 net.cpp:148] Top shape: 24 38 (912)
I0403 18:14:35.379779  6726 net.cpp:148] Top shape: 24 38 (912)
I0403 18:14:35.379796  6726 net.cpp:148] Top shape: 24 38 (912)
I0403 18:14:35.379808  6726 net.cpp:156] Memory required for data: 1346079072
I0403 18:14:35.379823  6726 layer_factory.hpp:77] Creating layer loss1/loss
I0403 18:14:35.379847  6726 net.cpp:91] Creating Layer loss1/loss
I0403 18:14:35.379863  6726 net.cpp:425] loss1/loss <- loss1/classifier_plantvillage_loss1/classifier_plantvillage_0_split_0
I0403 18:14:35.379894  6726 net.cpp:425] loss1/loss <- label_data_1_split_0
…
