…
I0403 18:03:59.135547  6537 net.cpp:313] The NetState phase (1) differed from the phase (0) specified by a rule in layer data
I0403 18:03:59.136798  6537 net.cpp:49] Initializing net from parameters: 
state {
  phase: TEST
}
layer {
  name: "data"
  type: "Data"
  top: "data"
  top: "label"
  include {
    phase: TEST
  }
  transform_param {
    mirror: false
    crop_size: 224
    mean_file: "/home/mohanty/data/final_dataset/lmdb/segmented-50-50/mean.binaryproto"
  }
  data_param {
    source: "/home/mohanty/data/final_dataset/lmdb/segmented-50-50/test_db"
    batch_size: 24
    backend: LMDB
  }
}
layer {
  name: "conv1/7x7_s2"
  type: "Convolution"
  bottom: "data"
  top: "conv1/7x7_s2"
  param {
    lr_mult: 1
    decay_mult: 1
  }
  param {
    lr_mult: 2
    decay_mult: 0
  }
  convolution_param {
    num_output: 64
    pad: 3
    kernel_size: 7
    stride: 2
    weight_filler {
      type: "xavier"
      std: 0.1
    }
    bias_filler {
      type: "constant"
      value: 0.2
    }
  }
}
layer {
  name: "conv1/relu_7x7"
  type: "ReLU"
  bottom: "conv1/7x7_s2"
  top: "conv1/7x7_s2"
}
layer {
  name: "pool1/3x3_s2"
  type: "Pooling"
  bottom: "conv1/7x7_s2"
  top: "pool1/3x3_s2"
  pooling_param {
    pool: MAX
    kernel_size: 3
    stride: 2
  }
}
layer {
  name: "pool1/norm1"
  type: "LRN"
  bottom: "pool1/3x3_s2"
  top: "pool1/norm1"
  lrn_param {
    local_size: 5
    alpha: 0.0001
    beta: 0.75
  }
}
layer {
  name: "conv2/3x3_reduce"
  type: "Convolution"
  bottom: "pool1/norm1"
  top: "conv2/3x3_reduce"
  param {
    lr_mult: 1
    decay_mult: 1
  }
  param {
    lr_mult: 2
    decay_mult: 0
  }
  convolution_param {
    num_output: 64
    kernel_size: 1
    weight_filler {
      type: "xavier"
      std: 0.1
    }
    bias_filler {
      type: "constant"
      value: 0.2
    }
  }
}
layer {
  name: "conv2/relu_3x3_reduce"
  type: "ReLU"
  bottom: "conv2/3x3_reduce"
  top: "conv2/3x3_reduce"
}
layer {
  name: "conv2/3x3"
  type: "Convolution"
  bottom: "conv2/3x3_reduce"
  top: "conv2/3x3"
  param {
    lr_mult: 1
    decay_mult: 1
  }
  param {
    lr_mult: 2
    decay_mult: 0
  }
  convolution_param {
    num_output: 192
    pad: 1
    kernel_size: 3
    weight_filler {
      type: "xavier"
      std: 0.03
    }
    bias_filler {
      type: "constant"
      value: 0.2
    }
  }
}
layer {
  name: "conv2/relu_3x3"
  type: "ReLU"
  bottom: "conv2/3x3"
  top: "conv2/3x3"
}
layer {
  name: "conv2/norm2"
  type: "LRN"
  bottom: "conv2/3x3"
  top: "conv2/norm2"
  lrn_param {
    local_size: 5
    alpha: 0.0001
    beta: 0.75
  }
}
layer {
  name: "pool2/3x3_s2"
  type: "Pooling"
  bottom: "conv2/norm2"
  top: "pool2/3x3_s2"
  pooling_param {
    pool: MAX
    kernel_size: 3
    stride: 2
  }
}
layer {
  name: "inception_3a/1x1"
  type: "Convolution"
  bottom: "pool2/3x3_s2"
  top: "inception_3a/1x1"
  param {
    lr_mult: 1
    decay_mult: 1
  }
  param {
    lr_mult: 2
    decay_mult: 0
  }
  convolution_param {
    num_output: 64
    kernel_size: 1
    weight_filler {
      type: "xavier"
      std: 0.03
    }
    bias_filler {
      type: "constant"
      value: 0.2
    }
  }
}
layer {
  name: "inception_3a/relu_1x1"
  type: "ReLU"
  bottom: "inception_3a/1x1"
  top: "inception_3a/1x1"
}
layer {
  name: "inception_3a/3x3_reduce"
  type: "Convolution"
  bottom: "pool2/3x3_s2"
  top: "inception_3a/3x3_reduce"
  param {
    lr_mult: 1
    decay_mult: 1
  }
  param {
    lr_mult: 2
    decay_mult: 0
  }
  convolution_param {
    num_output: 96
    kernel_size: 1
    weight_filler {
      type: "xavier"
      std: 0.09
    }
    bias_filler {
      type: "constant"
      value: 0.2
    }
  }
}
layer {
  name: "inception_3a/relu_3x3_reduce"
  type: "ReLU"
  bottom: "inception_3a/3x3_reduce"
  top: "inception_3a/3x3_reduce"
}
layer {
  name: "inception_3a/3x3"
  type: "Convolution"
  bottom: "inception_3a/3x3_reduce"
  top: "inception_3a/3x3"
  param {
    lr_mult: 1
    decay_mult: 1
  }
  param {
    lr_mult: 2
    decay_mult: 0
  }
  convolution_param {
    num_output: 128
    pad: 1
    kernel_size: 3
    weight_filler {
      type: "xavier"
      std: 0.03
    }
    bias_filler {
      type: "constant"
      value: 0.2
    }
  }
}
layer {
  name: "inception_3a/relu_3x3"
  type: "ReLU"
  bottom: "inception_3a/3x3"
  top: "inception_3a/3x3"
}
layer {
  name: "inception_3a/5x5_reduce"
  type: "Convolution"
  bottom: "pool2/3x3_s2"
  top: "inception_3a/5x5_reduce"
  param {
    lr_mult: 1
    decay_mult: 1
  }
  param {
    lr_mult: 2
    decay_mult: 0
  }
  convolution_param {
    num_output: 16
    kernel_size: 1
    weight_filler {
      type: "xavier"
      std: 0.2
    }
    bias_filler {
      type: "constant"
      value: 0.2
    }
  }
}
layer {
  name: "inception_3a/relu_5x5_reduce"
  type: "ReLU"
  bottom: "inception_3a/5x5_reduce"
  top: "inception_3a/5x5_reduce"
}
layer {
  name: "inception_3a/5x5"
  type: "Convolution"
  bottom: "inception_3a/5x5_reduce"
  top: "inception_3a/5x5"
  param {
    lr_mult: 1
    decay_mult: 1
  }
  param {
    lr_mult: 2
    decay_mult: 0
  }
  convolution_param {
    num_output: 32
    pad: 2
    kernel_size: 5
    weight_filler {
      type: "xavier"
      std: 0.03
    }
    bias_filler {
      type: "constant"
      value: 0.2
    }
  }
}
layer {
  name: "inception_3a/relu_5x5"
  type: "ReLU"
  bottom: "inception_3a/5x5"
  top: "inception_3a/5x5"
}
layer {
  name: "inception_3a/pool"
  type: "Pooling"
  bottom: "pool2/3x3_s2"
  top: "inception_3a/pool"
  pooling_param {
    pool: MAX
    kernel_size: 3
    stride: 1
    pad: 1
  }
}
layer {
  name: "inception_3a/pool_proj"
  type: "Convolution"
  bottom: "inception_3a/pool"
  top: "inception_3a/pool_proj"
  param {
    lr_mult: 1
    decay_mult: 1
  }
  param {
    lr_mult: 2
    decay_mult: 0
  }
  convolution_param {
    num_output: 32
    kernel_size: 1
    weight_filler {
      type: "xavier"
      std: 0.1
    }
    bias_filler {
      type: "constant"
      value: 0.2
    }
  }
}
layer {
  name: "inception_3a/relu_pool_proj"
  type: "ReLU"
  bottom: "inception_3a/pool_proj"
  top: "inception_3a/pool_proj"
}
layer {
  name: "inception_3a/output"
  type: "Concat"
  bottom: "inception_3a/1x1"
  bottom: "inception_3a/3x3"
  bottom: "inception_3a/5x5"
  bottom: "inception_3a/pool_proj"
  top: "inception_3a/output"
}
layer {
  name: "inception_3b/1x1"
  type: "Convolution"
  bottom: "inception_3a/output"
  top: "inception_3b/1x1"
  param {
    lr_mult: 1
    decay_mult: 1
  }
  param {
    lr_mult: 2
    decay_mult: 0
  }
  convolution_param {
    num_output: 128
    kernel_size: 1
    weight_filler {
      type: "xavier"
      std: 0.03
    }
    bias_filler {
      type: "constant"
      value: 0.2
    }
  }
}
layer {
  name: "inception_3b/relu_1x1"
  type: "ReLU"
  bottom: "inception_3b/1x1"
  top: "inception_3b/1x1"
}
layer {
  name: "inception_3b/3x3_reduce"
  type: "Convolution"
  bottom: "inception_3a/output"
  top: "inception_3b/3x3_reduce"
  param {
    lr_mult: 1
    decay_mult: 1
  }
  param {
    lr_mult: 2
    decay_mult: 0
  }
  convolution_param {
    num_output: 128
    kernel_size: 1
    weight_filler {
      type: "xavier"
      std: 0.09
    }
    bias_filler {
      type: "constant"
      value: 0.2
    }
  }
}
layer {
  name: "inception_3b/relu_3x3_reduce"
  type: "ReLU"
  bottom: "inception_3b/3x3_reduce"
  top: "inception_3b/3x3_reduce"
}
layer {
  name: "inception_3b/3x3"
  type: "Convolution"
  bottom: "inception_3b/3x3_reduce"
  top: "inception_3b/3x3"
  param {
    lr_mult: 1
    decay_mult: 1
  }
  param {
    lr_mult: 2
    decay_mult: 0
  }
  convolution_param {
    num_output: 192
    pad: 1
    kernel_size: 3
    weight_filler {
      type: "xavier"
      std: 0.03
    }
    bias_filler {
      type: "constant"
      value: 0.2
    }
  }
}
layer {
  name: "inception_3b/relu_3x3"
  type: "ReLU"
  bottom: "inception_3b/3x3"
  top: "inception_3b/3x3"
}
layer {
  name: "inception_3b/5x5_reduce"
  type: "Convolution"
  bottom: "inception_3a/output"
  top: "inception_3b/5x5_reduce"
  param {
    lr_mult: 1
    decay_mult: 1
  }
  param {
    lr_mult: 2
    decay_mult: 0
  }
  convolution_param {
    num_output: 32
    kernel_size: 1
    weight_filler {
      type: "xavier"
      std: 0.2
    }
    bias_filler {
      type: "constant"
      value: 0.2
    }
  }
}
layer {
  name: "inception_3b/relu_5x5_reduce"
  type: "ReLU"
  bottom: "inception_3b/5x5_reduce"
  top: "inception_3b/5x5_reduce"
}
layer {
  name: "inception_3b/5x5"
  type: "Convolution"
  bottom: "inception_3b/5x5_reduce"
  top: "inception_3b/5x5"
  param {
    lr_mult: 1
    decay_mult: 1
  }
  param {
    lr_mult: 2
    decay_mult: 0
  }
  convolution_param {
    num_output: 96
    pad: 2
    kernel_size: 5
    weight_filler {
      type: "xavier"
      std: 0.03
    }
    bias_filler {
      type: "constant"
      value: 0.2
    }
  }
}
layer {
  name: "inception_3b/relu_5x5"
  type: "ReLU"
  bottom: "inception_3b/5x5"
  top: "inception_3b/5x5"
}
layer {
  name: "inception_3b/pool"
  type: "Pooling"
  bottom: "inception_3a/output"
  top: "inception_3b/pool"
  pooling_param {
    pool: MAX
    kernel_size: 3
    stride: 1
    pad: 1
  }
}
layer {
  name: "inception_3b/pool_proj"
  type: "Convolution"
  bottom: "inception_3b/pool"
  top: "inception_3b/pool_proj"
  param {
    lr_mult: 1
    decay_mult: 1
  }
  param {
    lr_mult: 2
    decay_mult: 0
  }
  convolution_param {
    num_output: 64
    kernel_size: 1
    weight_filler {
      type: "xavier"
      std: 0.1
    }
    bias_filler {
      type: "constant"
      value: 0.2
    }
  }
}
layer {
  name: "inception_3b/relu_pool_proj"
  type: "ReLU"
  bottom: "inception_3b/pool_proj"
  top: "inception_3b/pool_proj"
}
layer {
  name: "inception_3b/output"
  type: "Concat"
  bottom: "inception_3b/1x1"
  bottom: "inception_3b/3x3"
  bottom: "inception_3b/5x5"
  bottom: "inception_3b/pool_proj"
  top: "inception_3b/output"
}
layer {
  name: "pool3/3x3_s2"
  type: "Pooling"
  bottom: "inception_3b/output"
  top: "pool3/3x3_s2"
  pooling_param {
    pool: MAX
    kernel_size: 3
    stride: 2
  }
}
layer {
  name: "inception_4a/1x1"
  type: "Convolution"
  bottom: "pool3/3x3_s2"
  top: "inception_4a/1x1"
  param {
    lr_mult: 1
    decay_mult: 1
  }
  param {
    lr_mult: 2
    decay_mult: 0
  }
  convolution_param {
    num_output: 192
    kernel_size: 1
    weight_filler {
      type: "xavier"
      std: 0.03
    }
    bias_filler {
      type: "constant"
      value: 0.2
    }
  }
}
layer {
  name: "inception_4a/relu_1x1"
  type: "ReLU"
  bottom: "inception_4a/1x1"
  top: "inception_4a/1x1"
}
layer {
  name: "inception_4a/3x3_reduce"
  type: "Convolution"
  bottom: "pool3/3x3_s2"
  top: "inception_4a/3x3_reduce"
  param {
    lr_mult: 1
    decay_mult: 1
  }
  param {
    lr_mult: 2
    decay_mult: 0
  }
  convolution_param {
    num_output: 96
    kernel_size: 1
    weight_filler {
      type: "xavier"
      std: 0.09
    }
    bias_filler {
      type: "constant"
      value: 0.2
    }
  }
}
layer {
  name: "inception_4a/relu_3x3_reduce"
  type: "ReLU"
  bottom: "inception_4a/3x3_reduce"
  top: "inception_4a/3x3_reduce"
}
layer {
  name: "inception_4a/3x3"
  type: "Convolution"
  bottom: "inception_4a/3x3_reduce"
  top: "inception_4a/3x3"
  param {
    lr_mult: 1
    decay_mult: 1
  }
  param {
    lr_mult: 2
    decay_mult: 0
  }
  convolution_param {
    num_output: 208
    pad: 1
    kernel_size: 3
    weight_filler {
      type: "xavier"
      std: 0.03
    }
    bias_filler {
      type: "constant"
      value: 0.2
    }
  }
}
layer {
  name: "inception_4a/relu_3x3"
  type: "ReLU"
  bottom: "inception_4a/3x3"
  top: "inception_4a/3x3"
}
layer {
  name: "inception_4a/5x5_reduce"
  type: "Convolution"
  bottom: "pool3/3x3_s2"
  top: "inception_4a/5x5_reduce"
  param {
    lr_mult: 1
    decay_mult: 1
  }
  param {
    lr_mult: 2
    decay_mult: 0
  }
  convolution_param {
    num_output: 16
    kernel_size: 1
    weight_filler {
      type: "xavier"
      std: 0.2
    }
    bias_filler {
      type: "constant"
      value: 0.2
    }
  }
}
layer {
  name: "inception_4a/relu_5x5_reduce"
  type: "ReLU"
  bottom: "inception_4a/5x5_reduce"
  top: "inception_4a/5x5_reduce"
}
layer {
  name: "inception_4a/5x5"
  type: "Convolution"
  bottom: "inception_4a/5x5_reduce"
  top: "inception_4a/5x5"
  param {
    lr_mult: 1
    decay_mult: 1
  }
  param {
    lr_mult: 2
    decay_mult: 0
  }
  convolution_param {
    num_output: 48
    pad: 2
    kernel_size: 5
    weight_filler {
      type: "xavier"
      std: 0.03
    }
    bias_filler {
      type: "constant"
      value: 0.2
    }
  }
}
layer {
  name: "inception_4a/relu_5x5"
  type: "ReLU"
  bottom: "inception_4a/5x5"
  top: "inception_4a/5x5"
}
layer {
  name: "inception_4a/pool"
  type: "Pooling"
  bottom: "pool3/3x3_s2"
  top: "inception_4a/pool"
  pooling_param {
    pool: MAX
    kernel_size: 3
    stride: 1
    pad: 1
  }
}
layer {
  name: "inception_4a/pool_proj"
  type: "Convolution"
  bottom: "inception_4a/pool"
  top: "inception_4a/pool_proj"
  param {
    lr_mult: 1
    decay_mult: 1
  }
  param {
    lr_mult: 2
    decay_mult: 0
  }
  convolution_param {
    num_output: 64
    kernel_size: 1
    weight_filler {
      type: "xavier"
      std: 0.1
    }
    bias_filler {
      type: "constant"
      value: 0.2
    }
  }
}
layer {
  name: "inception_4a/relu_pool_proj"
  type: "ReLU"
  bottom: "inception_4a/pool_proj"
  top: "inception_4a/pool_proj"
}
layer {
  name: "inception_4a/output"
  type: "Concat"
  bottom: "inception_4a/1x1"
  bottom: "inception_4a/3x3"
  bottom: "inception_4a/5x5"
  bottom: "inception_4a/pool_proj"
  top: "inception_4a/output"
}
layer {
  name: "loss1/ave_pool"
  type: "Pooling"
  bottom: "inception_4a/output"
  top: "loss1/ave_pool"
  pooling_param {
    pool: AVE
    kernel_size: 5
    stride: 3
  }
}
layer {
  name: "loss1/conv"
  type: "Convolution"
  bottom: "loss1/ave_pool"
  top: "loss1/conv"
  param {
    lr_mult: 1
    decay_mult: 1
  }
  param {
    lr_mult: 2
    decay_mult: 0
  }
  convolution_param {
    num_output: 128
    kernel_size: 1
    weight_filler {
      type: "xavier"
      std: 0.08
    }
    bias_filler {
      type: "constant"
      value: 0.2
    }
  }
}
layer {
  name: "loss1/relu_conv"
  type: "ReLU"
  bottom: "loss1/conv"
  top: "loss1/conv"
}
layer {
  name: "loss1/fc"
  type: "InnerProduct"
  bottom: "loss1/conv"
  top: "loss1/fc"
  param {
    lr_mult: 1
    decay_mult: 1
  }
  param {
    lr_mult: 2
    decay_mult: 0
  }
  inner_product_param {
    num_output: 1024
    weight_filler {
      type: "xavier"
      std: 0.02
    }
    bias_filler {
      type: "constant"
      value: 0.2
    }
  }
}
layer {
  name: "loss1/relu_fc"
  type: "ReLU"
  bottom: "loss1/fc"
  top: "loss1/fc"
}
layer {
  name: "loss1/drop_fc"
  type: "Dropout"
  bottom: "loss1/fc"
  top: "loss1/fc"
  dropout_param {
    dropout_ratio: 0.7
  }
}
layer {
  name: "loss1/classifier_plantvillage"
  type: "InnerProduct"
  bottom: "loss1/fc"
  top: "loss1/classifier_plantvillage"
  param {
    lr_mult: 1
    decay_mult: 1
  }
  param {
    lr_mult: 2
    decay_mult: 0
  }
  inner_product_param {
    num_output: 38
    weight_filler {
      type: "xavier"
      std: 0.0009765625
    }
    bias_filler {
      type: "constant"
      value: 0
    }
  }
}
layer {
  name: "inception_4b/1x1"
  type: "Convolution"
  bottom: "inception_4a/output"
  top: "inception_4b/1x1"
  param {
    lr_mult: 1
    decay_mult: 1
  }
  param {
    lr_mult: 2
    decay_mult: 0
  }
  convolution_param {
    num_output: 160
    kernel_size: 1
    weight_filler {
      type: "xavier"
      std: 0.03
    }
    bias_filler {
      type: "constant"
      value: 0.2
    }
  }
}
layer {
  name: "inception_4b/relu_1x1"
  type: "ReLU"
  bottom: "inception_4b/1x1"
  top: "inception_4b/1x1"
}
layer {
  name: "inception_4b/3x3_reduce"
  type: "Convolution"
  bottom: "inception_4a/output"
  top: "inception_4b/3x3_reduce"
  param {
    lr_mult: 1
    decay_mult: 1
  }
  param {
    lr_mult: 2
    decay_mult: 0
  }
  convolution_param {
    num_output: 112
    kernel_size: 1
    weight_filler {
      type: "xavier"
      std: 0.09
    }
    bias_filler {
      type: "constant"
      value: 0.2
    }
  }
}
layer {
  name: "inception_4b/relu_3x3_reduce"
  type: "ReLU"
  bottom: "inception_4b/3x3_reduce"
  top: "inception_4b/3x3_reduce"
}
layer {
  name: "inception_4b/3x3"
  type: "Convolution"
  bottom: "inception_4b/3x3_reduce"
  top: "inception_4b/3x3"
  param {
    lr_mult: 1
    decay_mult: 1
  }
  param {
    lr_mult: 2
    decay_mult: 0
  }
  convolution_param {
    num_output: 224
    pad: 1
    kernel_size: 3
    weight_filler {
      type: "xavier"
      std: 0.03
    }
    bias_filler {
      type: "constant"
      value: 0.2
    }
  }
}
layer {
  name: "inception_4b/relu_3x3"
  type: "ReLU"
  bottom: "inception_4b/3x3"
  top: "inception_4b/3x3"
}
layer {
  name: "inception_4b/5x5_reduce"
  type: "Convolution"
  bottom: "inception_4a/output"
  top: "inception_4b/5x5_reduce"
  param {
    lr_mult: 1
    decay_mult: 1
  }
  param {
    lr_mult: 2
    decay_mult: 0
  }
  convolution_param {
    num_output: 24
    kernel_size: 1
    weight_filler {
      type: "xavier"
      std: 0.2
    }
    bias_filler {
      type: "constant"
      value: 0.2
    }
  }
}
layer {
  name: "inception_4b/relu_5x5_reduce"
  type: "ReLU"
  bottom: "inception_4b/5x5_reduce"
  top: "inception_4b/5x5_reduce"
}
layer {
  name: "inception_4b/5x5"
  type: "Convolution"
  bottom: "inception_4b/5x5_reduce"
  top: "inception_4b/5x5"
  param {
    lr_mult: 1
    decay_mult: 1
  }
  param {
    lr_mult: 2
    decay_mult: 0
  }
  convolution_param {
    num_output: 64
    pad: 2
    kernel_size: 5
    weight_filler {
      type: "xavier"
      std: 0.03
    }
    bias_filler {
      type: "constant"
      value: 0.2
    }
  }
}
layer {
  name: "inception_4b/relu_5x5"
  type: "ReLU"
  bottom: "inception_4b/5x5"
  top: "inception_4b/5x5"
}
layer {
  name: "inception_4b/pool"
  type: "Pooling"
  bottom: "inception_4a/output"
  top: "inception_4b/pool"
  pooling_param {
    pool: MAX
    kernel_size: 3
    stride: 1
    pad: 1
  }
}
layer {
  name: "inception_4b/pool_proj"
  type: "Convolution"
  bottom: "inception_4b/pool"
  top: "inception_4b/pool_proj"
  param {
    lr_mult: 1
    decay_mult: 1
  }
  param {
    lr_mult: 2
    decay_mult: 0
  }
  convolution_param {
    num_output: 64
    kernel_size: 1
    weight_filler {
      type: "xavier"
      std: 0.1
    }
    bias_filler {
      type: "constant"
      value: 0.2
    }
  }
}
layer {
  name: "inception_4b/relu_pool_proj"
  type: "ReLU"
  bottom: "inception_4b/pool_proj"
  top: "inception_4b/pool_proj"
}
layer {
  name: "inception_4b/output"
  type: "Concat"
  bottom: "inception_4b/1x1"
  bottom: "inception_4b/3x3"
  bottom: "inception_4b/5x5"
  bottom: "inception_4b/pool_proj"
  top: "inception_4b/output"
}
layer {
  name: "inception_4c/1x1"
  type: "Convolution"
  bottom: "inception_4b/output"
  top: "inception_4c/1x1"
  param {
    lr_mult: 1
    decay_mult: 1
  }
  param {
    lr_mult: 2
    decay_mult: 0
  }
  convolution_param {
    num_output: 128
    kernel_size: 1
    weight_filler {
      type: "xavier"
      std: 0.03
    }
    bias_filler {
      type: "constant"
      value: 0.2
    }
  }
}
layer {
  name: "inception_4c/relu_1x1"
  type: "ReLU"
  bottom: "inception_4c/1x1"
  top: "inception_4c/1x1"
}
layer {
  name: "inception_4c/3x3_reduce"
  type: "Convolution"
  bottom: "inception_4b/output"
  top: "inception_4c/3x3_reduce"
  param {
    lr_mult: 1
    decay_mult: 1
  }
  param {
    lr_mult: 2
    decay_mult: 0
  }
  convolution_param {
    num_output: 128
    kernel_size: 1
    weight_filler {
      type: "xavier"
      std: 0.09
    }
    bias_filler {
      type: "constant"
      value: 0.2
    }
  }
}
layer {
  name: "inception_4c/relu_3x3_reduce"
  type: "ReLU"
  bottom: "inception_4c/3x3_reduce"
  top: "inception_4c/3x3_reduce"
}
layer {
  name: "inception_4c/3x3"
  type: "Convolution"
  bottom: "inception_4c/3x3_reduce"
  top: "inception_4c/3x3"
  param {
    lr_mult: 1
    decay_mult: 1
  }
  param {
    lr_mult: 2
    decay_mult: 0
  }
  convolution_param {
    num_output: 256
    pad: 1
    kernel_size: 3
    weight_filler {
      type: "xavier"
      std: 0.03
    }
    bias_filler {
      type: "constant"
      value: 0.2
    }
  }
}
layer {
  name: "inception_4c/relu_3x3"
  type: "ReLU"
  bottom: "inception_4c/3x3"
  top: "inception_4c/3x3"
}
layer {
  name: "inception_4c/5x5_reduce"
  type: "Convolution"
  bottom: "inception_4b/output"
  top: "inception_4c/5x5_reduce"
  param {
    lr_mult: 1
    decay_mult: 1
  }
  param {
    lr_mult: 2
    decay_mult: 0
  }
  convolution_param {
    num_output: 24
    kernel_size: 1
    weight_filler {
      type: "xavier"
      std: 0.2
    }
    bias_filler {
      type: "constant"
      value: 0.2
    }
  }
}
layer {
  name: "inception_4c/relu_5x5_reduce"
  type: "ReLU"
  bottom: "inception_4c/5x5_reduce"
  top: "inception_4c/5x5_reduce"
}
layer {
  name: "inception_4c/5x5"
  type: "Convolution"
  bottom: "inception_4c/5x5_reduce"
  top: "inception_4c/5x5"
  param {
    lr_mult: 1
    decay_mult: 1
  }
  param {
    lr_mult: 2
    decay_mult: 0
  }
  convolution_param {
    num_output: 64
    pad: 2
    kernel_size: 5
    weight_filler {
      type: "xavier"
      std: 0.03
    }
    bias_filler {
      type: "constant"
      value: 0.2
    }
  }
}
layer {
  name: "inception_4c/relu_5x5"
  type: "ReLU"
  bottom: "inception_4c/5x5"
  top: "inception_4c/5x5"
}
layer {
  name: "inception_4c/pool"
  type: "Pooling"
  bottom: "inception_4b/output"
  top: "inception_4c/pool"
  pooling_param {
    pool: MAX
    kernel_size: 3
    stride: 1
    pad: 1
  }
}
layer {
  name: "inception_4c/pool_proj"
  type: "Convolution"
  bottom: "inception_4c/pool"
  top: "inception_4c/pool_proj"
  param {
    lr_mult: 1
    decay_mult: 1
  }
  param {
    lr_mult: 2
    decay_mult: 0
  }
  convolution_param {
    num_output: 64
    kernel_size: 1
    weight_filler {
      type: "xavier"
      std: 0.1
    }
    bias_filler {
      type: "constant"
      value: 0.2
    }
  }
}
layer {
  name: "inception_4c/relu_pool_proj"
  type: "ReLU"
  bottom: "inception_4c/pool_proj"
  top: "inception_4c/pool_proj"
}
layer {
  name: "inception_4c/output"
  type: "Concat"
  bottom: "inception_4c/1x1"
  bottom: "inception_4c/3x3"
  bottom: "inception_4c/5x5"
  bottom: "inception_4c/pool_proj"
  top: "inception_4c/output"
}
layer {
  name: "inception_4d/1x1"
  type: "Convolution"
  bottom: "inception_4c/output"
  top: "inception_4d/1x1"
  param {
    lr_mult: 1
    decay_mult: 1
  }
  param {
    lr_mult: 2
    decay_mult: 0
  }
  convolution_param {
    num_output: 112
    kernel_size: 1
    weight_filler {
      type: "xavier"
      std: 0.03
    }
    bias_filler {
      type: "constant"
      value: 0.2
    }
  }
}
layer {
  name: "inception_4d/relu_1x1"
  type: "ReLU"
  bottom: "inception_4d/1x1"
  top: "inception_4d/1x1"
}
layer {
  name: "inception_4d/3x3_reduce"
  type: "Convolution"
  bottom: "inception_4c/output"
  top: "inception_4d/3x3_reduce"
  param {
    lr_mult: 1
    decay_mult: 1
  }
  param {
    lr_mult: 2
    decay_mult: 0
  }
  convolution_param {
    num_output: 144
    kernel_size: 1
    weight_filler {
      type: "xavier"
      std: 0.09
    }
    bias_filler {
      type: "constant"
      value: 0.2
    }
  }
}
layer {
  name: "inception_4d/relu_3x3_reduce"
  type: "ReLU"
  bottom: "inception_4d/3x3_reduce"
  top: "inception_4d/3x3_reduce"
}
layer {
  name: "inception_4d/3x3"
  type: "Convolution"
  bottom: "inception_4d/3x3_reduce"
  top: "inception_4d/3x3"
  param {
    lr_mult: 1
    decay_mult: 1
  }
  param {
    lr_mult: 2
    decay_mult: 0
  }
  convolution_param {
    num_output: 288
    pad: 1
    kernel_size: 3
    weight_filler {
      type: "xavier"
      std: 0.03
    }
    bias_filler {
      type: "constant"
      value: 0.2
    }
  }
}
layer {
  name: "inception_4d/relu_3x3"
  type: "ReLU"
  bottom: "inception_4d/3x3"
  top: "inception_4d/3x3"
}
layer {
  name: "inception_4d/5x5_reduce"
  type: "Convolution"
  bottom: "inception_4c/output"
  top: "inception_4d/5x5_reduce"
  param {
    lr_mult: 1
    decay_mult: 1
  }
  param {
    lr_mult: 2
    decay_mult: 0
  }
  convolution_param {
    num_output: 32
    kernel_size: 1
    weight_filler {
      type: "xavier"
      std: 0.2
    }
    bias_filler {
      type: "constant"
      value: 0.2
    }
  }
}
layer {
  name: "inception_4d/relu_5x5_reduce"
  type: "ReLU"
  bottom: "inception_4d/5x5_reduce"
  top: "inception_4d/5x5_reduce"
}
layer {
  name: "inception_4d/5x5"
  type: "Convolution"
  bottom: "inception_4d/5x5_reduce"
  top: "inception_4d/5x5"
  param {
    lr_mult: 1
    decay_mult: 1
  }
  param {
    lr_mult: 2
    decay_mult: 0
  }
  convolution_param {
    num_output: 64
    pad: 2
    kernel_size: 5
    weight_filler {
      type: "xavier"
      std: 0.03
    }
    bias_filler {
      type: "constant"
      value: 0.2
    }
  }
}
layer {
  name: "inception_4d/relu_5x5"
  type: "ReLU"
  bottom: "inception_4d/5x5"
  top: "inception_4d/5x5"
}
layer {
  name: "inception_4d/pool"
  type: "Pooling"
  bottom: "inception_4c/output"
  top: "inception_4d/pool"
  pooling_param {
    pool: MAX
    kernel_size: 3
    stride: 1
    pad: 1
  }
}
layer {
  name: "inception_4d/pool_proj"
  type: "Convolution"
  bottom: "inception_4d/pool"
  top: "inception_4d/pool_proj"
  param {
    lr_mult: 1
    decay_mult: 1
  }
  param {
    lr_mult: 2
    decay_mult: 0
  }
  convolution_param {
    num_output: 64
    kernel_size: 1
    weight_filler {
      type: "xavier"
      std: 0.1
    }
    bias_filler {
      type: "constant"
      value: 0.2
    }
  }
}
layer {
  name: "inception_4d/relu_pool_proj"
  type: "ReLU"
  bottom: "inception_4d/pool_proj"
  top: "inception_4d/pool_proj"
}
layer {
  name: "inception_4d/output"
  type: "Concat"
  bottom: "inception_4d/1x1"
  bottom: "inception_4d/3x3"
  bottom: "inception_4d/5x5"
  bottom: "inception_4d/pool_proj"
  top: "inception_4d/output"
}
layer {
  name: "loss2/ave_pool"
  type: "Pooling"
  bottom: "inception_4d/output"
  top: "loss2/ave_pool"
  pooling_param {
    pool: AVE
    kernel_size: 5
    stride: 3
  }
}
layer {
  name: "loss2/conv"
  type: "Convolution"
  bottom: "loss2/ave_pool"
  top: "loss2/conv"
  param {
    lr_mult: 1
    decay_mult: 1
  }
  param {
    lr_mult: 2
    decay_mult: 0
  }
  convolution_param {
    num_output: 128
    kernel_size: 1
    weight_filler {
      type: "xavier"
      std: 0.08
    }
    bias_filler {
      type: "constant"
      value: 0.2
    }
  }
}
layer {
  name: "loss2/relu_conv"
  type: "ReLU"
  bottom: "loss2/conv"
  top: "loss2/conv"
}
layer {
  name: "loss2/fc"
  type: "InnerProduct"
  bottom: "loss2/conv"
  top: "loss2/fc"
  param {
    lr_mult: 1
    decay_mult: 1
  }
  param {
    lr_mult: 2
    decay_mult: 0
  }
  inner_product_param {
    num_output: 1024
    weight_filler {
      type: "xavier"
      std: 0.02
    }
    bias_filler {
      type: "constant"
      value: 0.2
    }
  }
}
layer {
  name: "loss2/relu_fc"
  type: "ReLU"
  bottom: "loss2/fc"
  top: "loss2/fc"
}
layer {
  name: "loss2/drop_fc"
  type: "Dropout"
  bottom: "loss2/fc"
  top: "loss2/fc"
  dropout_param {
    dropout_ratio: 0.7
  }
}
layer {
  name: "loss2/classifier_plantvillage"
  type: "InnerProduct"
  bottom: "loss2/fc"
  top: "loss2/classifier_plantvillage"
  param {
    lr_mult: 1
    decay_mult: 1
  }
  param {
    lr_mult: 2
    decay_mult: 0
  }
  inner_product_param {
    num_output: 38
    weight_filler {
      type: "xavier"
      std: 0.0009765625
    }
    bias_filler {
      type: "constant"
      value: 0
    }
  }
}
layer {
  name: "inception_4e/1x1"
  type: "Convolution"
  bottom: "inception_4d/output"
  top: "inception_4e/1x1"
  param {
    lr_mult: 1
    decay_mult: 1
  }
  param {
    lr_mult: 2
    decay_mult: 0
  }
  convolution_param {
    num_output: 256
    kernel_size: 1
    weight_filler {
      type: "xavier"
      std: 0.03
    }
    bias_filler {
      type: "constant"
      value: 0.2
    }
  }
}
layer {
  name: "inception_4e/relu_1x1"
  type: "ReLU"
  bottom: "inception_4e/1x1"
  top: "inception_4e/1x1"
}
layer {
  name: "inception_4e/3x3_reduce"
  type: "Convolution"
  bottom: "inception_4d/output"
  top: "inception_4e/3x3_reduce"
  param {
    lr_mult: 1
    decay_mult: 1
  }
  param {
    lr_mult: 2
    decay_mult: 0
  }
  convolution_param {
    num_output: 160
    kernel_size: 1
    weight_filler {
      type: "xavier"
      std: 0.09
    }
    bias_filler {
      type: "constant"
      value: 0.2
    }
  }
}
layer {
  name: "inception_4e/relu_3x3_reduce"
  type: "ReLU"
  bottom: "inception_4e/3x3_reduce"
  top: "inception_4e/3x3_reduce"
}
layer {
  name: "inception_4e/3x3"
  type: "Convolution"
  bottom: "inception_4e/3x3_reduce"
  top: "inception_4e/3x3"
  param {
    lr_mult: 1
    decay_mult: 1
  }
  param {
    lr_mult: 2
    decay_mult: 0
  }
  convolution_param {
    num_output: 320
    pad: 1
    kernel_size: 3
    weight_filler {
      type: "xavier"
      std: 0.03
    }
    bias_filler {
      type: "constant"
      value: 0.2
    }
  }
}
layer {
  name: "inception_4e/relu_3x3"
  type: "ReLU"
  bottom: "inception_4e/3x3"
  top: "inception_4e/3x3"
}
layer {
  name: "inception_4e/5x5_reduce"
  type: "Convolution"
  bottom: "inception_4d/output"
  top: "inception_4e/5x5_reduce"
  param {
    lr_mult: 1
    decay_mult: 1
  }
  param {
    lr_mult: 2
    decay_mult: 0
  }
  convolution_param {
    num_output: 32
    kernel_size: 1
    weight_filler {
      type: "xavier"
      std: 0.2
    }
    bias_filler {
      type: "constant"
      value: 0.2
    }
  }
}
layer {
  name: "inception_4e/relu_5x5_reduce"
  type: "ReLU"
  bottom: "inception_4e/5x5_reduce"
  top: "inception_4e/5x5_reduce"
}
layer {
  name: "inception_4e/5x5"
  type: "Convolution"
  bottom: "inception_4e/5x5_reduce"
  top: "inception_4e/
I0403 18:03:59.138507  6537 layer_factory.hpp:77] Creating layer data
I0403 18:03:59.139138  6537 net.cpp:91] Creating Layer data
I0403 18:03:59.139173  6537 net.cpp:399] data -> data
I0403 18:03:59.139235  6537 net.cpp:399] data -> label
I0403 18:03:59.139274  6537 data_transformer.cpp:25] Loading mean file from: /home/mohanty/data/final_dataset/lmdb/segmented-50-50/mean.binaryproto
I0403 18:03:59.140377  6540 db_lmdb.cpp:38] Opened lmdb /home/mohanty/data/final_dataset/lmdb/segmented-50-50/test_db
I0403 18:03:59.152971  6537 data_layer.cpp:41] output data size: 24,3,224,224
I0403 18:03:59.182626  6537 net.cpp:141] Setting up data
I0403 18:03:59.182741  6537 net.cpp:148] Top shape: 24 3 224 224 (3612672)
I0403 18:03:59.182765  6537 net.cpp:148] Top shape: 24 (24)
I0403 18:03:59.182781  6537 net.cpp:156] Memory required for data: 14450784
I0403 18:03:59.182809  6537 layer_factory.hpp:77] Creating layer label_data_1_split
I0403 18:03:59.182837  6537 net.cpp:91] Creating Layer label_data_1_split
I0403 18:03:59.182857  6537 net.cpp:425] label_data_1_split <- label
I0403 18:03:59.182891  6537 net.cpp:399] label_data_1_split -> label_data_1_split_0
I0403 18:03:59.182920  6537 net.cpp:399] label_data_1_split -> label_data_1_split_1
I0403 18:03:59.182942  6537 net.cpp:399] label_data_1_split -> label_data_1_split_2
I0403 18:03:59.182965  6537 net.cpp:399] label_data_1_split -> label_data_1_split_3
I0403 18:03:59.182986  6537 net.cpp:399] label_data_1_split -> label_data_1_split_4
I0403 18:03:59.183007  6537 net.cpp:399] label_data_1_split -> label_data_1_split_5
I0403 18:03:59.183029  6537 net.cpp:399] label_data_1_split -> label_data_1_split_6
I0403 18:03:59.183051  6537 net.cpp:399] label_data_1_split -> label_data_1_split_7
I0403 18:03:59.183071  6537 net.cpp:399] label_data_1_split -> label_data_1_split_8
I0403 18:03:59.183092  6537 net.cpp:399] label_data_1_split -> label_data_1_split_9
I0403 18:03:59.183220  6537 net.cpp:141] Setting up label_data_1_split
I0403 18:03:59.183246  6537 net.cpp:148] Top shape: 24 (24)
I0403 18:03:59.183266  6537 net.cpp:148] Top shape: 24 (24)
I0403 18:03:59.183284  6537 net.cpp:148] Top shape: 24 (24)
I0403 18:03:59.183300  6537 net.cpp:148] Top shape: 24 (24)
I0403 18:03:59.183317  6537 net.cpp:148] Top shape: 24 (24)
I0403 18:03:59.183333  6537 net.cpp:148] Top shape: 24 (24)
I0403 18:03:59.183351  6537 net.cpp:148] Top shape: 24 (24)
I0403 18:03:59.183367  6537 net.cpp:148] Top shape: 24 (24)
I0403 18:03:59.183384  6537 net.cpp:148] Top shape: 24 (24)
I0403 18:03:59.183403  6537 net.cpp:148] Top shape: 24 (24)
I0403 18:03:59.183450  6537 net.cpp:156] Memory required for data: 14451744
I0403 18:03:59.183466  6537 layer_factory.hpp:77] Creating layer conv1/7x7_s2
I0403 18:03:59.183501  6537 net.cpp:91] Creating Layer conv1/7x7_s2
I0403 18:03:59.183521  6537 net.cpp:425] conv1/7x7_s2 <- data
I0403 18:03:59.183542  6537 net.cpp:399] conv1/7x7_s2 -> conv1/7x7_s2
I0403 18:03:59.329648  6537 net.cpp:141] Setting up conv1/7x7_s2
I0403 18:03:59.329756  6537 net.cpp:148] Top shape: 24 64 112 112 (19267584)
I0403 18:03:59.329774  6537 net.cpp:156] Memory required for data: 91522080
I0403 18:03:59.329805  6537 layer_factory.hpp:77] Creating layer conv1/relu_7x7
I0403 18:03:59.329833  6537 net.cpp:91] Creating Layer conv1/relu_7x7
I0403 18:03:59.329852  6537 net.cpp:425] conv1/relu_7x7 <- conv1/7x7_s2
I0403 18:03:59.329871  6537 net.cpp:386] conv1/relu_7x7 -> conv1/7x7_s2 (in-place)
I0403 18:03:59.330133  6537 net.cpp:141] Setting up conv1/relu_7x7
I0403 18:03:59.330162  6537 net.cpp:148] Top shape: 24 64 112 112 (19267584)
I0403 18:03:59.330178  6537 net.cpp:156] Memory required for data: 168592416
I0403 18:03:59.330193  6537 layer_factory.hpp:77] Creating layer pool1/3x3_s2
I0403 18:03:59.330224  6537 net.cpp:91] Creating Layer pool1/3x3_s2
I0403 18:03:59.330243  6537 net.cpp:425] pool1/3x3_s2 <- conv1/7x7_s2
I0403 18:03:59.330262  6537 net.cpp:399] pool1/3x3_s2 -> pool1/3x3_s2
I0403 18:03:59.330338  6537 net.cpp:141] Setting up pool1/3x3_s2
I0403 18:03:59.330361  6537 net.cpp:148] Top shape: 24 64 56 56 (4816896)
I0403 18:03:59.330377  6537 net.cpp:156] Memory required for data: 187860000
I0403 18:03:59.330394  6537 layer_factory.hpp:77] Creating layer pool1/norm1
I0403 18:03:59.330417  6537 net.cpp:91] Creating Layer pool1/norm1
I0403 18:03:59.330438  6537 net.cpp:425] pool1/norm1 <- pool1/3x3_s2
I0403 18:03:59.330456  6537 net.cpp:399] pool1/norm1 -> pool1/norm1
I0403 18:03:59.330751  6537 net.cpp:141] Setting up pool1/norm1
I0403 18:03:59.330778  6537 net.cpp:148] Top shape: 24 64 56 56 (4816896)
I0403 18:03:59.330795  6537 net.cpp:156] Memory required for data: 207127584
I0403 18:03:59.330811  6537 layer_factory.hpp:77] Creating layer conv2/3x3_reduce
I0403 18:03:59.330837  6537 net.cpp:91] Creating Layer conv2/3x3_reduce
I0403 18:03:59.330854  6537 net.cpp:425] conv2/3x3_reduce <- pool1/norm1
I0403 18:03:59.330873  6537 net.cpp:399] conv2/3x3_reduce -> conv2/3x3_reduce
I0403 18:03:59.332320  6537 net.cpp:141] Setting up conv2/3x3_reduce
I0403 18:03:59.332351  6537 net.cpp:148] Top shape: 24 64 56 56 (4816896)
I0403 18:03:59.332368  6537 net.cpp:156] Memory required for data: 226395168
I0403 18:03:59.332391  6537 layer_factory.hpp:77] Creating layer conv2/relu_3x3_reduce
I0403 18:03:59.332412  6537 net.cpp:91] Creating Layer conv2/relu_3x3_reduce
I0403 18:03:59.332428  6537 net.cpp:425] conv2/relu_3x3_reduce <- conv2/3x3_reduce
I0403 18:03:59.332448  6537 net.cpp:386] conv2/relu_3x3_reduce -> conv2/3x3_reduce (in-place)
I0403 18:03:59.332737  6537 net.cpp:141] Setting up conv2/relu_3x3_reduce
I0403 18:03:59.332765  6537 net.cpp:148] Top shape: 24 64 56 56 (4816896)
I0403 18:03:59.332780  6537 net.cpp:156] Memory required for data: 245662752
I0403 18:03:59.332797  6537 layer_factory.hpp:77] Creating layer conv2/3x3
I0403 18:03:59.332819  6537 net.cpp:91] Creating Layer conv2/3x3
I0403 18:03:59.332837  6537 net.cpp:425] conv2/3x3 <- conv2/3x3_reduce
I0403 18:03:59.332859  6537 net.cpp:399] conv2/3x3 -> conv2/3x3
I0403 18:03:59.335290  6537 net.cpp:141] Setting up conv2/3x3
I0403 18:03:59.335322  6537 net.cpp:148] Top shape: 24 192 56 56 (14450688)
I0403 18:03:59.335340  6537 net.cpp:156] Memory required for data: 303465504
I0403 18:03:59.335363  6537 layer_factory.hpp:77] Creating layer conv2/relu_3x3
I0403 18:03:59.335386  6537 net.cpp:91] Creating Layer conv2/relu_3x3
I0403 18:03:59.335403  6537 net.cpp:425] conv2/relu_3x3 <- conv2/3x3
I0403 18:03:59.335422  6537 net.cpp:386] conv2/relu_3x3 -> conv2/3x3 (in-place)
I0403 18:03:59.335608  6537 net.cpp:141] Setting up conv2/relu_3x3
I0403 18:03:59.335636  6537 net.cpp:148] Top shape: 24 192 56 56 (14450688)
I0403 18:03:59.335686  6537 net.cpp:156] Memory required for data: 361268256
I0403 18:03:59.335705  6537 layer_factory.hpp:77] Creating layer conv2/norm2
I0403 18:03:59.335723  6537 net.cpp:91] Creating Layer conv2/norm2
I0403 18:03:59.335741  6537 net.cpp:425] conv2/norm2 <- conv2/3x3
I0403 18:03:59.335762  6537 net.cpp:399] conv2/norm2 -> conv2/norm2
I0403 18:03:59.336084  6537 net.cpp:141] Setting up conv2/norm2
I0403 18:03:59.336113  6537 net.cpp:148] Top shape: 24 192 56 56 (14450688)
I0403 18:03:59.336129  6537 net.cpp:156] Memory required for data: 419071008
I0403 18:03:59.336146  6537 layer_factory.hpp:77] Creating layer pool2/3x3_s2
I0403 18:03:59.336165  6537 net.cpp:91] Creating Layer pool2/3x3_s2
I0403 18:03:59.336182  6537 net.cpp:425] pool2/3x3_s2 <- conv2/norm2
I0403 18:03:59.336206  6537 net.cpp:399] pool2/3x3_s2 -> pool2/3x3_s2
I0403 18:03:59.336269  6537 net.cpp:141] Setting up pool2/3x3_s2
I0403 18:03:59.336297  6537 net.cpp:148] Top shape: 24 192 28 28 (3612672)
I0403 18:03:59.336313  6537 net.cpp:156] Memory required for data: 433521696
I0403 18:03:59.336329  6537 layer_factory.hpp:77] Creating layer pool2/3x3_s2_pool2/3x3_s2_0_split
I0403 18:03:59.336349  6537 net.cpp:91] Creating Layer pool2/3x3_s2_pool2/3x3_s2_0_split
I0403 18:03:59.336364  6537 net.cpp:425] pool2/3x3_s2_pool2/3x3_s2_0_split <- pool2/3x3_s2
I0403 18:03:59.336385  6537 net.cpp:399] pool2/3x3_s2_pool2/3x3_s2_0_split -> pool2/3x3_s2_pool2/3x3_s2_0_split_0
I0403 18:03:59.336405  6537 net.cpp:399] pool2/3x3_s2_pool2/3x3_s2_0_split -> pool2/3x3_s2_pool2/3x3_s2_0_split_1
I0403 18:03:59.336431  6537 net.cpp:399] pool2/3x3_s2_pool2/3x3_s2_0_split -> pool2/3x3_s2_pool2/3x3_s2_0_split_2
I0403 18:03:59.336452  6537 net.cpp:399] pool2/3x3_s2_pool2/3x3_s2_0_split -> pool2/3x3_s2_pool2/3x3_s2_0_split_3
I0403 18:03:59.336530  6537 net.cpp:141] Setting up pool2/3x3_s2_pool2/3x3_s2_0_split
I0403 18:03:59.336554  6537 net.cpp:148] Top shape: 24 192 28 28 (3612672)
I0403 18:03:59.336572  6537 net.cpp:148] Top shape: 24 192 28 28 (3612672)
I0403 18:03:59.336588  6537 net.cpp:148] Top shape: 24 192 28 28 (3612672)
I0403 18:03:59.336606  6537 net.cpp:148] Top shape: 24 192 28 28 (3612672)
I0403 18:03:59.336621  6537 net.cpp:156] Memory required for data: 491324448
I0403 18:03:59.336637  6537 layer_factory.hpp:77] Creating layer inception_3a/1x1
I0403 18:03:59.336661  6537 net.cpp:91] Creating Layer inception_3a/1x1
I0403 18:03:59.336680  6537 net.cpp:425] inception_3a/1x1 <- pool2/3x3_s2_pool2/3x3_s2_0_split_0
I0403 18:03:59.336704  6537 net.cpp:399] inception_3a/1x1 -> inception_3a/1x1
I0403 18:03:59.338342  6537 net.cpp:141] Setting up inception_3a/1x1
I0403 18:03:59.338371  6537 net.cpp:148] Top shape: 24 64 28 28 (1204224)
I0403 18:03:59.338388  6537 net.cpp:156] Memory required for data: 496141344
I0403 18:03:59.338408  6537 layer_factory.hpp:77] Creating layer inception_3a/relu_1x1
I0403 18:03:59.338428  6537 net.cpp:91] Creating Layer inception_3a/relu_1x1
I0403 18:03:59.338444  6537 net.cpp:425] inception_3a/relu_1x1 <- inception_3a/1x1
I0403 18:03:59.338464  6537 net.cpp:386] inception_3a/relu_1x1 -> inception_3a/1x1 (in-place)
I0403 18:03:59.338644  6537 net.cpp:141] Setting up inception_3a/relu_1x1
I0403 18:03:59.338668  6537 net.cpp:148] Top shape: 24 64 28 28 (1204224)
I0403 18:03:59.338685  6537 net.cpp:156] Memory required for data: 500958240
I0403 18:03:59.338699  6537 layer_factory.hpp:77] Creating layer inception_3a/3x3_reduce
I0403 18:03:59.338722  6537 net.cpp:91] Creating Layer inception_3a/3x3_reduce
I0403 18:03:59.338742  6537 net.cpp:425] inception_3a/3x3_reduce <- pool2/3x3_s2_pool2/3x3_s2_0_split_1
I0403 18:03:59.338763  6537 net.cpp:399] inception_3a/3x3_reduce -> inception_3a/3x3_reduce
I0403 18:03:59.340495  6537 net.cpp:141] Setting up inception_3a/3x3_reduce
I0403 18:03:59.340525  6537 net.cpp:148] Top shape: 24 96 28 28 (1806336)
I0403 18:03:59.340543  6537 net.cpp:156] Memory required for data: 508183584
I0403 18:03:59.340565  6537 layer_factory.hpp:77] Creating layer inception_3a/relu_3x3_reduce
I0403 18:03:59.340603  6537 net.cpp:91] Creating Layer inception_3a/relu_3x3_reduce
I0403 18:03:59.340623  6537 net.cpp:425] inception_3a/relu_3x3_reduce <- inception_3a/3x3_reduce
I0403 18:03:59.340641  6537 net.cpp:386] inception_3a/relu_3x3_reduce -> inception_3a/3x3_reduce (in-place)
I0403 18:03:59.340822  6537 net.cpp:141] Setting up inception_3a/relu_3x3_reduce
I0403 18:03:59.340850  6537 net.cpp:148] Top shape: 24 96 28 28 (1806336)
I0403 18:03:59.340867  6537 net.cpp:156] Memory required for data: 515408928
I0403 18:03:59.340883  6537 layer_factory.hpp:77] Creating layer inception_3a/3x3
I0403 18:03:59.340908  6537 net.cpp:91] Creating Layer inception_3a/3x3
I0403 18:03:59.340926  6537 net.cpp:425] inception_3a/3x3 <- inception_3a/3x3_reduce
I0403 18:03:59.340948  6537 net.cpp:399] inception_3a/3x3 -> inception_3a/3x3
I0403 18:03:59.342648  6537 net.cpp:141] Setting up inception_3a/3x3
I0403 18:03:59.342679  6537 net.cpp:148] Top shape: 24 128 28 28 (2408448)
I0403 18:03:59.342695  6537 net.cpp:156] Memory required for data: 525042720
I0403 18:03:59.342715  6537 layer_factory.hpp:77] Creating layer inception_3a/relu_3x3
I0403 18:03:59.342736  6537 net.cpp:91] Creating Layer inception_3a/relu_3x3
I0403 18:03:59.342753  6537 net.cpp:425] inception_3a/relu_3x3 <- inception_3a/3x3
I0403 18:03:59.342772  6537 net.cpp:386] inception_3a/relu_3x3 -> inception_3a/3x3 (in-place)
I0403 18:03:59.343055  6537 net.cpp:141] Setting up inception_3a/relu_3x3
I0403 18:03:59.343081  6537 net.cpp:148] Top shape: 24 128 28 28 (2408448)
I0403 18:03:59.343097  6537 net.cpp:156] Memory required for data: 534676512
I0403 18:03:59.343113  6537 layer_factory.hpp:77] Creating layer inception_3a/5x5_reduce
I0403 18:03:59.343137  6537 net.cpp:91] Creating Layer inception_3a/5x5_reduce
I0403 18:03:59.343157  6537 net.cpp:425] inception_3a/5x5_reduce <- pool2/3x3_s2_pool2/3x3_s2_0_split_2
I0403 18:03:59.343179  6537 net.cpp:399] inception_3a/5x5_reduce -> inception_3a/5x5_reduce
I0403 18:03:59.344172  6537 net.cpp:141] Setting up inception_3a/5x5_reduce
I0403 18:03:59.344200  6537 net.cpp:148] Top shape: 24 16 28 28 (301056)
I0403 18:03:59.344221  6537 net.cpp:156] Memory required for data: 535880736
I0403 18:03:59.344243  6537 layer_factory.hpp:77] Creating layer inception_3a/relu_5x5_reduce
I0403 18:03:59.344264  6537 net.cpp:91] Creating Layer inception_3a/relu_5x5_reduce
I0403 18:03:59.344281  6537 net.cpp:425] inception_3a/relu_5x5_reduce <- inception_3a/5x5_reduce
I0403 18:03:59.344300  6537 net.cpp:386] inception_3a/relu_5x5_reduce -> inception_3a/5x5_reduce (in-place)
I0403 18:03:59.344597  6537 net.cpp:141] Setting up inception_3a/relu_5x5_reduce
I0403 18:03:59.344627  6537 net.cpp:148] Top shape: 24 16 28 28 (301056)
I0403 18:03:59.344643  6537 net.cpp:156] Memory required for data: 537084960
I0403 18:03:59.344660  6537 layer_factory.hpp:77] Creating layer inception_3a/5x5
I0403 18:03:59.344682  6537 net.cpp:91] Creating Layer inception_3a/5x5
I0403 18:03:59.344701  6537 net.cpp:425] inception_3a/5x5 <- inception_3a/5x5_reduce
I0403 18:03:59.344722  6537 net.cpp:399] inception_3a/5x5 -> inception_3a/5x5
I0403 18:03:59.345760  6537 net.cpp:141] Setting up inception_3a/5x5
I0403 18:03:59.345789  6537 net.cpp:148] Top shape: 24 32 28 28 (602112)
I0403 18:03:59.345804  6537 net.cpp:156] Memory required for data: 539493408
I0403 18:03:59.345824  6537 layer_factory.hpp:77] Creating layer inception_3a/relu_5x5
I0403 18:03:59.345849  6537 net.cpp:91] Creating Layer inception_3a/relu_5x5
I0403 18:03:59.345867  6537 net.cpp:425] inception_3a/relu_5x5 <- inception_3a/5x5
I0403 18:03:59.345886  6537 net.cpp:386] inception_3a/relu_5x5 -> inception_3a/5x5 (in-place)
I0403 18:03:59.346063  6537 net.cpp:141] Setting up inception_3a/relu_5x5
I0403 18:03:59.346088  6537 net.cpp:148] Top shape: 24 32 28 28 (602112)
I0403 18:03:59.346107  6537 net.cpp:156] Memory required for data: 541901856
I0403 18:03:59.346122  6537 layer_factory.hpp:77] Creating layer inception_3a/pool
I0403 18:03:59.346141  6537 net.cpp:91] Creating Layer inception_3a/pool
I0403 18:03:59.346173  6537 net.cpp:425] inception_3a/pool <- pool2/3x3_s2_pool2/3x3_s2_0_split_3
I0403 18:03:59.346192  6537 net.cpp:399] inception_3a/pool -> inception_3a/pool
I0403 18:03:59.346256  6537 net.cpp:141] Setting up inception_3a/pool
I0403 18:03:59.346281  6537 net.cpp:148] Top shape: 24 192 28 28 (3612672)
I0403 18:03:59.346295  6537 net.cpp:156] Memory required for data: 556352544
I0403 18:03:59.346312  6537 layer_factory.hpp:77] Creating layer inception_3a/pool_proj
I0403 18:03:59.346335  6537 net.cpp:91] Creating Layer inception_3a/pool_proj
I0403 18:03:59.346354  6537 net.cpp:425] inception_3a/pool_proj <- inception_3a/pool
I0403 18:03:59.346377  6537 net.cpp:399] inception_3a/pool_proj -> inception_3a/pool_proj
I0403 18:03:59.347388  6537 net.cpp:141] Setting up inception_3a/pool_proj
I0403 18:03:59.347416  6537 net.cpp:148] Top shape: 24 32 28 28 (602112)
I0403 18:03:59.347434  6537 net.cpp:156] Memory required for data: 558760992
I0403 18:03:59.347457  6537 layer_factory.hpp:77] Creating layer inception_3a/relu_pool_proj
I0403 18:03:59.347481  6537 net.cpp:91] Creating Layer inception_3a/relu_pool_proj
I0403 18:03:59.347499  6537 net.cpp:425] inception_3a/relu_pool_proj <- inception_3a/pool_proj
I0403 18:03:59.347517  6537 net.cpp:386] inception_3a/relu_pool_proj -> inception_3a/pool_proj (in-place)
I0403 18:03:59.347808  6537 net.cpp:141] Setting up inception_3a/relu_pool_proj
I0403 18:03:59.347836  6537 net.cpp:148] Top shape: 24 32 28 28 (602112)
I0403 18:03:59.347851  6537 net.cpp:156] Memory required for data: 561169440
I0403 18:03:59.347868  6537 layer_factory.hpp:77] Creating layer inception_3a/output
I0403 18:03:59.347887  6537 net.cpp:91] Creating Layer inception_3a/output
I0403 18:03:59.347905  6537 net.cpp:425] inception_3a/output <- inception_3a/1x1
I0403 18:03:59.347923  6537 net.cpp:425] inception_3a/output <- inception_3a/3x3
I0403 18:03:59.347940  6537 net.cpp:425] inception_3a/output <- inception_3a/5x5
I0403 18:03:59.347957  6537 net.cpp:425] inception_3a/output <- inception_3a/pool_proj
I0403 18:03:59.347978  6537 net.cpp:399] inception_3a/output -> inception_3a/output
I0403 18:03:59.348031  6537 net.cpp:141] Setting up inception_3a/output
I0403 18:03:59.348054  6537 net.cpp:148] Top shape: 24 256 28 28 (4816896)
I0403 18:03:59.348070  6537 net.cpp:156] Memory required for data: 580437024
I0403 18:03:59.348086  6537 layer_factory.hpp:77] Creating layer inception_3a/output_inception_3a/output_0_split
I0403 18:03:59.348104  6537 net.cpp:91] Creating Layer inception_3a/output_inception_3a/output_0_split
I0403 18:03:59.348121  6537 net.cpp:425] inception_3a/output_inception_3a/output_0_split <- inception_3a/output
I0403 18:03:59.348143  6537 net.cpp:399] inception_3a/output_inception_3a/output_0_split -> inception_3a/output_inception_3a/output_0_split_0
I0403 18:03:59.348165  6537 net.cpp:399] inception_3a/output_inception_3a/output_0_split -> inception_3a/output_inception_3a/output_0_split_1
I0403 18:03:59.348188  6537 net.cpp:399] inception_3a/output_inception_3a/output_0_split -> inception_3a/output_inception_3a/output_0_split_2
I0403 18:03:59.348220  6537 net.cpp:399] inception_3a/output_inception_3a/output_0_split -> inception_3a/output_inception_3a/output_0_split_3
I0403 18:03:59.348304  6537 net.cpp:141] Setting up inception_3a/output_inception_3a/output_0_split
I0403 18:03:59.348327  6537 net.cpp:148] Top shape: 24 256 28 28 (4816896)
I0403 18:03:59.348346  6537 net.cpp:148] Top shape: 24 256 28 28 (4816896)
I0403 18:03:59.348363  6537 net.cpp:148] Top shape: 24 256 28 28 (4816896)
I0403 18:03:59.348381  6537 net.cpp:148] Top shape: 24 256 28 28 (4816896)
I0403 18:03:59.348395  6537 net.cpp:156] Memory required for data: 657507360
I0403 18:03:59.348410  6537 layer_factory.hpp:77] Creating layer inception_3b/1x1
I0403 18:03:59.348434  6537 net.cpp:91] Creating Layer inception_3b/1x1
I0403 18:03:59.348453  6537 net.cpp:425] inception_3b/1x1 <- inception_3a/output_inception_3a/output_0_split_0
I0403 18:03:59.348475  6537 net.cpp:399] inception_3b/1x1 -> inception_3b/1x1
I0403 18:03:59.349653  6537 net.cpp:141] Setting up inception_3b/1x1
I0403 18:03:59.349694  6537 net.cpp:148] Top shape: 24 128 28 28 (2408448)
I0403 18:03:59.349709  6537 net.cpp:156] Memory required for data: 667141152
I0403 18:03:59.349730  6537 layer_factory.hpp:77] Creating layer inception_3b/relu_1x1
I0403 18:03:59.349748  6537 net.cpp:91] Creating Layer inception_3b/relu_1x1
I0403 18:03:59.349766  6537 net.cpp:425] inception_3b/relu_1x1 <- inception_3b/1x1
I0403 18:03:59.349787  6537 net.cpp:386] inception_3b/relu_1x1 -> inception_3b/1x1 (in-place)
I0403 18:03:59.349980  6537 net.cpp:141] Setting up inception_3b/relu_1x1
I0403 18:03:59.350008  6537 net.cpp:148] Top shape: 24 128 28 28 (2408448)
I0403 18:03:59.350023  6537 net.cpp:156] Memory required for data: 676774944
I0403 18:03:59.350039  6537 layer_factory.hpp:77] Creating layer inception_3b/3x3_reduce
I0403 18:03:59.350064  6537 net.cpp:91] Creating Layer inception_3b/3x3_reduce
I0403 18:03:59.350082  6537 net.cpp:425] inception_3b/3x3_reduce <- inception_3a/output_inception_3a/output_0_split_1
I0403 18:03:59.350106  6537 net.cpp:399] inception_3b/3x3_reduce -> inception_3b/3x3_reduce
I0403 18:03:59.351312  6537 net.cpp:141] Setting up inception_3b/3x3_reduce
I0403 18:03:59.351341  6537 net.cpp:148] Top shape: 24 128 28 28 (2408448)
I0403 18:03:59.351357  6537 net.cpp:156] Memory required for data: 686408736
I0403 18:03:59.351377  6537 layer_factory.hpp:77] Creating layer inception_3b/relu_3x3_reduce
I0403 18:03:59.351397  6537 net.cpp:91] Creating Layer inception_3b/relu_3x3_reduce
I0403 18:03:59.351415  6537 net.cpp:425] inception_3b/relu_3x3_reduce <- inception_3b/3x3_reduce
I0403 18:03:59.351436  6537 net.cpp:386] inception_3b/relu_3x3_reduce -> inception_3b/3x3_reduce (in-place)
I0403 18:03:59.351624  6537 net.cpp:141] Setting up inception_3b/relu_3x3_reduce
I0403 18:03:59.351650  6537 net.cpp:148] Top shape: 24 128 28 28 (2408448)
I0403 18:03:59.351665  6537 net.cpp:156] Memory required for data: 696042528
I0403 18:03:59.351682  6537 layer_factory.hpp:77] Creating layer inception_3b/3x3
I0403 18:03:59.351708  6537 net.cpp:91] Creating Layer inception_3b/3x3
I0403 18:03:59.351727  6537 net.cpp:425] inception_3b/3x3 <- inception_3b/3x3_reduce
I0403 18:03:59.351747  6537 net.cpp:399] inception_3b/3x3 -> inception_3b/3x3
I0403 18:03:59.354672  6537 net.cpp:141] Setting up inception_3b/3x3
I0403 18:03:59.354701  6537 net.cpp:148] Top shape: 24 192 28 28 (3612672)
I0403 18:03:59.354717  6537 net.cpp:156] Memory required for data: 710493216
I0403 18:03:59.354737  6537 layer_factory.hpp:77] Creating layer inception_3b/relu_3x3
I0403 18:03:59.354758  6537 net.cpp:91] Creating Layer inception_3b/relu_3x3
I0403 18:03:59.354774  6537 net.cpp:425] inception_3b/relu_3x3 <- inception_3b/3x3
I0403 18:03:59.354792  6537 net.cpp:386] inception_3b/relu_3x3 -> inception_3b/3x3 (in-place)
I0403 18:03:59.355067  6537 net.cpp:141] Setting up inception_3b/relu_3x3
I0403 18:03:59.355093  6537 net.cpp:148] Top shape: 24 192 28 28 (3612672)
I0403 18:03:59.355108  6537 net.cpp:156] Memory required for data: 724943904
I0403 18:03:59.355123  6537 layer_factory.hpp:77] Creating layer inception_3b/5x5_reduce
I0403 18:03:59.355147  6537 net.cpp:91] Creating Layer inception_3b/5x5_reduce
I0403 18:03:59.355165  6537 net.cpp:425] inception_3b/5x5_reduce <- inception_3a/output_inception_3a/output_0_split_2
I0403 18:03:59.355187  6537 net.cpp:399] inception_3b/5x5_reduce -> inception_3b/5x5_reduce
I0403 18:03:59.356163  6537 net.cpp:141] Setting up inception_3b/5x5_reduce
I0403 18:03:59.356191  6537 net.cpp:148] Top shape: 24 32 28 28 (602112)
I0403 18:03:59.356206  6537 net.cpp:156] Memory required for data: 727352352
I0403 18:03:59.356230  6537 layer_factory.hpp:77] Creating layer inception_3b/relu_5x5_reduce
I0403 18:03:59.356251  6537 net.cpp:91] Creating Layer inception_3b/relu_5x5_reduce
I0403 18:03:59.356268  6537 net.cpp:425] inception_3b/relu_5x5_reduce <- inception_3b/5x5_reduce
I0403 18:03:59.356287  6537 net.cpp:386] inception_3b/relu_5x5_reduce -> inception_3b/5x5_reduce (in-place)
I0403 18:03:59.356480  6537 net.cpp:141] Setting up inception_3b/relu_5x5_reduce
I0403 18:03:59.356508  6537 net.cpp:148] Top shape: 24 32 28 28 (602112)
I0403 18:03:59.356524  6537 net.cpp:156] Memory required for data: 729760800
I0403 18:03:59.356539  6537 layer_factory.hpp:77] Creating layer inception_3b/5x5
I0403 18:03:59.356559  6537 net.cpp:91] Creating Layer inception_3b/5x5
I0403 18:03:59.356576  6537 net.cpp:425] inception_3b/5x5 <- inception_3b/5x5_reduce
I0403 18:03:59.356600  6537 net.cpp:399] inception_3b/5x5 -> inception_3b/5x5
I0403 18:03:59.358588  6537 net.cpp:141] Setting up inception_3b/5x5
I0403 18:03:59.358618  6537 net.cpp:148] Top shape: 24 96 28 28 (1806336)
I0403 18:03:59.358634  6537 net.cpp:156] Memory required for data: 736986144
I0403 18:03:59.358652  6537 layer_factory.hpp:77] Creating layer inception_3b/relu_5x5
I0403 18:03:59.358671  6537 net.cpp:91] Creating Layer inception_3b/relu_5x5
I0403 18:03:59.358688  6537 net.cpp:425] inception_3b/relu_5x5 <- inception_3b/5x5
I0403 18:03:59.358710  6537 net.cpp:386] inception_3b/relu_5x5 -> inception_3b/5x5 (in-place)
I0403 18:03:59.358901  6537 net.cpp:141] Setting up inception_3b/relu_5x5
I0403 18:03:59.358927  6537 net.cpp:148] Top shape: 24 96 28 28 (1806336)
I0403 18:03:59.358942  6537 net.cpp:156] Memory required for data: 744211488
I0403 18:03:59.358957  6537 layer_factory.hpp:77] Creating layer inception_3b/pool
I0403 18:03:59.358975  6537 net.cpp:91] Creating Layer inception_3b/pool
I0403 18:03:59.358992  6537 net.cpp:425] inception_3b/pool <- inception_3a/output_inception_3a/output_0_split_3
I0403 18:03:59.359011  6537 net.cpp:399] inception_3b/pool -> inception_3b/pool
I0403 18:03:59.359066  6537 net.cpp:141] Setting up inception_3b/pool
I0403 18:03:59.359088  6537 net.cpp:148] Top shape: 24 256 28 28 (4816896)
I0403 18:03:59.359103  6537 net.cpp:156] Memory required for data: 763479072
I0403 18:03:59.359117  6537 layer_factory.hpp:77] Creating layer inception_3b/pool_proj
I0403 18:03:59.359143  6537 net.cpp:91] Creating Layer inception_3b/pool_proj
I0403 18:03:59.359160  6537 net.cpp:425] inception_3b/pool_proj <- inception_3b/pool
I0403 18:03:59.359182  6537 net.cpp:399] inception_3b/pool_proj -> inception_3b/pool_proj
I0403 18:03:59.360234  6537 net.cpp:141] Setting up inception_3b/pool_proj
I0403 18:03:59.360263  6537 net.cpp:148] Top shape: 24 64 28 28 (1204224)
I0403 18:03:59.360280  6537 net.cpp:156] Memory required for data: 768295968
I0403 18:03:59.360299  6537 layer_factory.hpp:77] Creating layer inception_3b/relu_pool_proj
I0403 18:03:59.360318  6537 net.cpp:91] Creating Layer inception_3b/relu_pool_proj
I0403 18:03:59.360333  6537 net.cpp:425] inception_3b/relu_pool_proj <- inception_3b/pool_proj
I0403 18:03:59.360352  6537 net.cpp:386] inception_3b/relu_pool_proj -> inception_3b/pool_proj (in-place)
I0403 18:03:59.360736  6537 net.cpp:141] Setting up inception_3b/relu_pool_proj
I0403 18:03:59.360764  6537 net.cpp:148] Top shape: 24 64 28 28 (1204224)
I0403 18:03:59.360780  6537 net.cpp:156] Memory required for data: 773112864
I0403 18:03:59.360795  6537 layer_factory.hpp:77] Creating layer inception_3b/output
I0403 18:03:59.360816  6537 net.cpp:91] Creating Layer inception_3b/output
I0403 18:03:59.360832  6537 net.cpp:425] inception_3b/output <- inception_3b/1x1
I0403 18:03:59.360849  6537 net.cpp:425] inception_3b/output <- inception_3b/3x3
I0403 18:03:59.360867  6537 net.cpp:425] inception_3b/output <- inception_3b/5x5
I0403 18:03:59.360882  6537 net.cpp:425] inception_3b/output <- inception_3b/pool_proj
I0403 18:03:59.360899  6537 net.cpp:399] inception_3b/output -> inception_3b/output
I0403 18:03:59.360946  6537 net.cpp:141] Setting up inception_3b/output
I0403 18:03:59.360970  6537 net.cpp:148] Top shape: 24 480 28 28 (9031680)
I0403 18:03:59.360983  6537 net.cpp:156] Memory required for data: 809239584
I0403 18:03:59.360998  6537 layer_factory.hpp:77] Creating layer pool3/3x3_s2
I0403 18:03:59.361016  6537 net.cpp:91] Creating Layer pool3/3x3_s2
I0403 18:03:59.361032  6537 net.cpp:425] pool3/3x3_s2 <- inception_3b/output
I0403 18:03:59.361068  6537 net.cpp:399] pool3/3x3_s2 -> pool3/3x3_s2
I0403 18:03:59.361127  6537 net.cpp:141] Setting up pool3/3x3_s2
I0403 18:03:59.361150  6537 net.cpp:148] Top shape: 24 480 14 14 (2257920)
I0403 18:03:59.361165  6537 net.cpp:156] Memory required for data: 818271264
I0403 18:03:59.361178  6537 layer_factory.hpp:77] Creating layer pool3/3x3_s2_pool3/3x3_s2_0_split
I0403 18:03:59.361198  6537 net.cpp:91] Creating Layer pool3/3x3_s2_pool3/3x3_s2_0_split
I0403 18:03:59.361219  6537 net.cpp:425] pool3/3x3_s2_pool3/3x3_s2_0_split <- pool3/3x3_s2
I0403 18:03:59.361241  6537 net.cpp:399] pool3/3x3_s2_pool3/3x3_s2_0_split -> pool3/3x3_s2_pool3/3x3_s2_0_split_0
I0403 18:03:59.361261  6537 net.cpp:399] pool3/3x3_s2_pool3/3x3_s2_0_split -> pool3/3x3_s2_pool3/3x3_s2_0_split_1
I0403 18:03:59.361280  6537 net.cpp:399] pool3/3x3_s2_pool3/3x3_s2_0_split -> pool3/3x3_s2_pool3/3x3_s2_0_split_2
I0403 18:03:59.361300  6537 net.cpp:399] pool3/3x3_s2_pool3/3x3_s2_0_split -> pool3/3x3_s2_pool3/3x3_s2_0_split_3
I0403 18:03:59.361376  6537 net.cpp:141] Setting up pool3/3x3_s2_pool3/3x3_s2_0_split
I0403 18:03:59.361400  6537 net.cpp:148] Top shape: 24 480 14 14 (2257920)
I0403 18:03:59.361418  6537 net.cpp:148] Top shape: 24 480 14 14 (2257920)
I0403 18:03:59.361433  6537 net.cpp:148] Top shape: 24 480 14 14 (2257920)
I0403 18:03:59.361449  6537 net.cpp:148] Top shape: 24 480 14 14 (2257920)
I0403 18:03:59.361462  6537 net.cpp:156] Memory required for data: 854397984
I0403 18:03:59.361477  6537 layer_factory.hpp:77] Creating layer inception_4a/1x1
I0403 18:03:59.361500  6537 net.cpp:91] Creating Layer inception_4a/1x1
I0403 18:03:59.361517  6537 net.cpp:425] inception_4a/1x1 <- pool3/3x3_s2_pool3/3x3_s2_0_split_0
I0403 18:03:59.361536  6537 net.cpp:399] inception_4a/1x1 -> inception_4a/1x1
I0403 18:03:59.363123  6537 net.cpp:141] Setting up inception_4a/1x1
I0403 18:03:59.363154  6537 net.cpp:148] Top shape: 24 192 14 14 (903168)
I0403 18:03:59.363170  6537 net.cpp:156] Memory required for data: 858010656
I0403 18:03:59.363191  6537 layer_factory.hpp:77] Creating layer inception_4a/relu_1x1
I0403 18:03:59.363215  6537 net.cpp:91] Creating Layer inception_4a/relu_1x1
I0403 18:03:59.363246  6537 net.cpp:425] inception_4a/relu_1x1 <- inception_4a/1x1
I0403 18:03:59.363265  6537 net.cpp:386] inception_4a/relu_1x1 -> inception_4a/1x1 (in-place)
I0403 18:03:59.363451  6537 net.cpp:141] Setting up inception_4a/relu_1x1
I0403 18:03:59.363477  6537 net.cpp:148] Top shape: 24 192 14 14 (903168)
I0403 18:03:59.363493  6537 net.cpp:156] Memory required for data: 861623328
I0403 18:03:59.363509  6537 layer_factory.hpp:77] Creating layer inception_4a/3x3_reduce
I0403 18:03:59.363533  6537 net.cpp:91] Creating Layer inception_4a/3x3_reduce
I0403 18:03:59.363550  6537 net.cpp:425] inception_4a/3x3_reduce <- pool3/3x3_s2_pool3/3x3_s2_0_split_1
I0403 18:03:59.363574  6537 net.cpp:399] inception_4a/3x3_reduce -> inception_4a/3x3_reduce
I0403 18:03:59.364873  6537 net.cpp:141] Setting up inception_4a/3x3_reduce
I0403 18:03:59.364904  6537 net.cpp:148] Top shape: 24 96 14 14 (451584)
I0403 18:03:59.364922  6537 net.cpp:156] Memory required for data: 863429664
I0403 18:03:59.364948  6537 layer_factory.hpp:77] Creating layer inception_4a/relu_3x3_reduce
I0403 18:03:59.364969  6537 net.cpp:91] Creating Layer inception_4a/relu_3x3_reduce
I0403 18:03:59.364985  6537 net.cpp:425] inception_4a/relu_3x3_reduce <- inception_4a/3x3_reduce
I0403 18:03:59.365005  6537 net.cpp:386] inception_4a/relu_3x3_reduce -> inception_4a/3x3_reduce (in-place)
I0403 18:03:59.365185  6537 net.cpp:141] Setting up inception_4a/relu_3x3_reduce
I0403 18:03:59.365219  6537 net.cpp:148] Top shape: 24 96 14 14 (451584)
I0403 18:03:59.365237  6537 net.cpp:156] Memory required for data: 865236000
I0403 18:03:59.365252  6537 layer_factory.hpp:77] Creating layer inception_4a/3x3
I0403 18:03:59.365275  6537 net.cpp:91] Creating Layer inception_4a/3x3
I0403 18:03:59.365294  6537 net.cpp:425] inception_4a/3x3 <- inception_4a/3x3_reduce
I0403 18:03:59.365317  6537 net.cpp:399] inception_4a/3x3 -> inception_4a/3x3
I0403 18:03:59.368114  6537 net.cpp:141] Setting up inception_4a/3x3
I0403 18:03:59.368145  6537 net.cpp:148] Top shape: 24 208 14 14 (978432)
I0403 18:03:59.368161  6537 net.cpp:156] Memory required for data: 869149728
I0403 18:03:59.368181  6537 layer_factory.hpp:77] Creating layer inception_4a/relu_3x3
I0403 18:03:59.368201  6537 net.cpp:91] Creating Layer inception_4a/relu_3x3
I0403 18:03:59.368223  6537 net.cpp:425] inception_4a/relu_3x3 <- inception_4a/3x3
I0403 18:03:59.368247  6537 net.cpp:386] inception_4a/relu_3x3 -> inception_4a/3x3 (in-place)
I0403 18:03:59.368533  6537 net.cpp:141] Setting up inception_4a/relu_3x3
I0403 18:03:59.368561  6537 net.cpp:148] Top shape: 24 208 14 14 (978432)
I0403 18:03:59.368576  6537 net.cpp:156] Memory required for data: 873063456
I0403 18:03:59.368590  6537 layer_factory.hpp:77] Creating layer inception_4a/5x5_reduce
I0403 18:03:59.368614  6537 net.cpp:91] Creating Layer inception_4a/5x5_reduce
I0403 18:03:59.368633  6537 net.cpp:425] inception_4a/5x5_reduce <- pool3/3x3_s2_pool3/3x3_s2_0_split_2
I0403 18:03:59.368656  6537 net.cpp:399] inception_4a/5x5_reduce -> inception_4a/5x5_reduce
I0403 18:03:59.369704  6537 net.cpp:141] Setting up inception_4a/5x5_reduce
I0403 18:03:59.369731  6537 net.cpp:148] Top shape: 24 16 14 14 (75264)
I0403 18:03:59.369747  6537 net.cpp:156] Memory required for data: 873364512
I0403 18:03:59.369766  6537 layer_factory.hpp:77] Creating layer inception_4a/relu_5x5_reduce
I0403 18:03:59.369788  6537 net.cpp:91] Creating Layer inception_4a/relu_5x5_reduce
I0403 18:03:59.369806  6537 net.cpp:425] inception_4a/relu_5x5_reduce <- inception_4a/5x5_reduce
I0403 18:03:59.369824  6537 net.cpp:386] inception_4a/relu_5x5_reduce -> inception_4a/5x5_reduce (in-place)
I0403 18:03:59.370004  6537 net.cpp:141] Setting up inception_4a/relu_5x5_reduce
I0403 18:03:59.370031  6537 net.cpp:148] Top shape: 24 16 14 14 (75264)
I0403 18:03:59.370050  6537 net.cpp:156] Memory required for data: 873665568
I0403 18:03:59.370066  6537 layer_factory.hpp:77] Creating layer inception_4a/5x5
I0403 18:03:59.370087  6537 net.cpp:91] Creating Layer inception_4a/5x5
I0403 18:03:59.370105  6537 net.cpp:425] inception_4a/5x5 <- inception_4a/5x5_reduce
I0403 18:03:59.370128  6537 net.cpp:399] inception_4a/5x5 -> inception_4a/5x5
I0403 18:03:59.371285  6537 net.cpp:141] Setting up inception_4a/5x5
I0403 18:03:59.371314  6537 net.cpp:148] Top shape: 24 48 14 14 (225792)
I0403 18:03:59.371330  6537 net.cpp:156] Memory required for data: 874568736
I0403 18:03:59.371348  6537 layer_factory.hpp:77] Creating layer inception_4a/relu_5x5
I0403 18:03:59.371371  6537 net.cpp:91] Creating Layer inception_4a/relu_5x5
I0403 18:03:59.371389  6537 net.cpp:425] inception_4a/relu_5x5 <- inception_4a/5x5
I0403 18:03:59.371407  6537 net.cpp:386] inception_4a/relu_5x5 -> inception_4a/5x5 (in-place)
I0403 18:03:59.371597  6537 net.cpp:141] Setting up inception_4a/relu_5x5
I0403 18:03:59.371621  6537 net.cpp:148] Top shape: 24 48 14 14 (225792)
I0403 18:03:59.371637  6537 net.cpp:156] Memory required for data: 875471904
I0403 18:03:59.371652  6537 layer_factory.hpp:77] Creating layer inception_4a/pool
I0403 18:03:59.371671  6537 net.cpp:91] Creating Layer inception_4a/pool
I0403 18:03:59.371688  6537 net.cpp:425] inception_4a/pool <- pool3/3x3_s2_pool3/3x3_s2_0_split_3
I0403 18:03:59.371709  6537 net.cpp:399] inception_4a/pool -> inception_4a/pool
I0403 18:03:59.371773  6537 net.cpp:141] Setting up inception_4a/pool
I0403 18:03:59.371795  6537 net.cpp:148] Top shape: 24 480 14 14 (2257920)
I0403 18:03:59.371810  6537 net.cpp:156] Memory required for data: 884503584
I0403 18:03:59.371826  6537 layer_factory.hpp:77] Creating layer inception_4a/pool_proj
I0403 18:03:59.371850  6537 net.cpp:91] Creating Layer inception_4a/pool_proj
I0403 18:03:59.371868  6537 net.cpp:425] inception_4a/pool_proj <- inception_4a/pool
I0403 18:03:59.371888  6537 net.cpp:399] inception_4a/pool_proj -> inception_4a/pool_proj
I0403 18:03:59.373100  6537 net.cpp:141] Setting up inception_4a/pool_proj
I0403 18:03:59.373132  6537 net.cpp:148] Top shape: 24 64 14 14 (301056)
I0403 18:03:59.373163  6537 net.cpp:156] Memory required for data: 885707808
I0403 18:03:59.373184  6537 layer_factory.hpp:77] Creating layer inception_4a/relu_pool_proj
I0403 18:03:59.373203  6537 net.cpp:91] Creating Layer inception_4a/relu_pool_proj
I0403 18:03:59.373226  6537 net.cpp:425] inception_4a/relu_pool_proj <- inception_4a/pool_proj
I0403 18:03:59.373250  6537 net.cpp:386] inception_4a/relu_pool_proj -> inception_4a/pool_proj (in-place)
I0403 18:03:59.373539  6537 net.cpp:141] Setting up inception_4a/relu_pool_proj
I0403 18:03:59.373569  6537 net.cpp:148] Top shape: 24 64 14 14 (301056)
I0403 18:03:59.373585  6537 net.cpp:156] Memory required for data: 886912032
I0403 18:03:59.373601  6537 layer_factory.hpp:77] Creating layer inception_4a/output
I0403 18:03:59.373620  6537 net.cpp:91] Creating Layer inception_4a/output
I0403 18:03:59.373636  6537 net.cpp:425] inception_4a/output <- inception_4a/1x1
I0403 18:03:59.373654  6537 net.cpp:425] inception_4a/output <- inception_4a/3x3
I0403 18:03:59.373672  6537 net.cpp:425] inception_4a/output <- inception_4a/5x5
I0403 18:03:59.373689  6537 net.cpp:425] inception_4a/output <- inception_4a/pool_proj
I0403 18:03:59.373706  6537 net.cpp:399] inception_4a/output -> inception_4a/output
I0403 18:03:59.373754  6537 net.cpp:141] Setting up inception_4a/output
I0403 18:03:59.373777  6537 net.cpp:148] Top shape: 24 512 14 14 (2408448)
I0403 18:03:59.373793  6537 net.cpp:156] Memory required for data: 896545824
I0403 18:03:59.373808  6537 layer_factory.hpp:77] Creating layer inception_4a/output_inception_4a/output_0_split
I0403 18:03:59.373829  6537 net.cpp:91] Creating Layer inception_4a/output_inception_4a/output_0_split
I0403 18:03:59.373847  6537 net.cpp:425] inception_4a/output_inception_4a/output_0_split <- inception_4a/output
I0403 18:03:59.373865  6537 net.cpp:399] inception_4a/output_inception_4a/output_0_split -> inception_4a/output_inception_4a/output_0_split_0
I0403 18:03:59.373886  6537 net.cpp:399] inception_4a/output_inception_4a/output_0_split -> inception_4a/output_inception_4a/output_0_split_1
I0403 18:03:59.373909  6537 net.cpp:399] inception_4a/output_inception_4a/output_0_split -> inception_4a/output_inception_4a/output_0_split_2
I0403 18:03:59.373931  6537 net.cpp:399] inception_4a/output_inception_4a/output_0_split -> inception_4a/output_inception_4a/output_0_split_3
I0403 18:03:59.373952  6537 net.cpp:399] inception_4a/output_inception_4a/output_0_split -> inception_4a/output_inception_4a/output_0_split_4
I0403 18:03:59.374047  6537 net.cpp:141] Setting up inception_4a/output_inception_4a/output_0_split
I0403 18:03:59.374069  6537 net.cpp:148] Top shape: 24 512 14 14 (2408448)
I0403 18:03:59.374085  6537 net.cpp:148] Top shape: 24 512 14 14 (2408448)
I0403 18:03:59.374101  6537 net.cpp:148] Top shape: 24 512 14 14 (2408448)
I0403 18:03:59.374119  6537 net.cpp:148] Top shape: 24 512 14 14 (2408448)
I0403 18:03:59.374135  6537 net.cpp:148] Top shape: 24 512 14 14 (2408448)
I0403 18:03:59.374150  6537 net.cpp:156] Memory required for data: 944714784
I0403 18:03:59.374166  6537 layer_factory.hpp:77] Creating layer loss1/ave_pool
I0403 18:03:59.374183  6537 net.cpp:91] Creating Layer loss1/ave_pool
I0403 18:03:59.374200  6537 net.cpp:425] loss1/ave_pool <- inception_4a/output_inception_4a/output_0_split_0
I0403 18:03:59.374228  6537 net.cpp:399] loss1/ave_pool -> loss1/ave_pool
I0403 18:03:59.374442  6537 net.cpp:141] Setting up loss1/ave_pool
I0403 18:03:59.374471  6537 net.cpp:148] Top shape: 24 512 4 4 (196608)
I0403 18:03:59.374487  6537 net.cpp:156] Memory required for data: 945501216
I0403 18:03:59.374503  6537 layer_factory.hpp:77] Creating layer loss1/conv
I0403 18:03:59.374526  6537 net.cpp:91] Creating Layer loss1/conv
I0403 18:03:59.374543  6537 net.cpp:425] loss1/conv <- loss1/ave_pool
I0403 18:03:59.374563  6537 net.cpp:399] loss1/conv -> loss1/conv
I0403 18:03:59.376013  6537 net.cpp:141] Setting up loss1/conv
I0403 18:03:59.376044  6537 net.cpp:148] Top shape: 24 128 4 4 (49152)
I0403 18:03:59.376073  6537 net.cpp:156] Memory required for data: 945697824
I0403 18:03:59.376094  6537 layer_factory.hpp:77] Creating layer loss1/relu_conv
I0403 18:03:59.376112  6537 net.cpp:91] Creating Layer loss1/relu_conv
I0403 18:03:59.376128  6537 net.cpp:425] loss1/relu_conv <- loss1/conv
I0403 18:03:59.376149  6537 net.cpp:386] loss1/relu_conv -> loss1/conv (in-place)
I0403 18:03:59.376444  6537 net.cpp:141] Setting up loss1/relu_conv
I0403 18:03:59.376471  6537 net.cpp:148] Top shape: 24 128 4 4 (49152)
I0403 18:03:59.376487  6537 net.cpp:156] Memory required for data: 945894432
I0403 18:03:59.376502  6537 layer_factory.hpp:77] Creating layer loss1/fc
I0403 18:03:59.376525  6537 net.cpp:91] Creating Layer loss1/fc
I0403 18:03:59.376544  6537 net.cpp:425] loss1/fc <- loss1/conv
I0403 18:03:59.376566  6537 net.cpp:399] loss1/fc -> loss1/fc
I0403 18:03:59.395179  6537 net.cpp:141] Setting up loss1/fc
I0403 18:03:59.395222  6537 net.cpp:148] Top shape: 24 1024 (24576)
I0403 18:03:59.395241  6537 net.cpp:156] Memory required for data: 945992736
I0403 18:03:59.395261  6537 layer_factory.hpp:77] Creating layer loss1/relu_fc
I0403 18:03:59.395282  6537 net.cpp:91] Creating Layer loss1/relu_fc
I0403 18:03:59.395298  6537 net.cpp:425] loss1/relu_fc <- loss1/fc
I0403 18:03:59.395318  6537 net.cpp:386] loss1/relu_fc -> loss1/fc (in-place)
I0403 18:03:59.395539  6537 net.cpp:141] Setting up loss1/relu_fc
I0403 18:03:59.395563  6537 net.cpp:148] Top shape: 24 1024 (24576)
I0403 18:03:59.395581  6537 net.cpp:156] Memory required for data: 946091040
I0403 18:03:59.395596  6537 layer_factory.hpp:77] Creating layer loss1/drop_fc
I0403 18:03:59.395625  6537 net.cpp:91] Creating Layer loss1/drop_fc
I0403 18:03:59.395643  6537 net.cpp:425] loss1/drop_fc <- loss1/fc
I0403 18:03:59.395664  6537 net.cpp:386] loss1/drop_fc -> loss1/fc (in-place)
I0403 18:03:59.395719  6537 net.cpp:141] Setting up loss1/drop_fc
I0403 18:03:59.395741  6537 net.cpp:148] Top shape: 24 1024 (24576)
I0403 18:03:59.395757  6537 net.cpp:156] Memory required for data: 946189344
I0403 18:03:59.395772  6537 layer_factory.hpp:77] Creating layer loss1/classifier_plantvillage
I0403 18:03:59.395795  6537 net.cpp:91] Creating Layer loss1/classifier_plantvillage
I0403 18:03:59.395813  6537 net.cpp:425] loss1/classifier_plantvillage <- loss1/fc
I0403 18:03:59.395834  6537 net.cpp:399] loss1/classifier_plantvillage -> loss1/classifier_plantvillage
I0403 18:03:59.396816  6537 net.cpp:141] Setting up loss1/classifier_plantvillage
I0403 18:03:59.396847  6537 net.cpp:148] Top shape: 24 38 (912)
I0403 18:03:59.396862  6537 net.cpp:156] Memory required for data: 946192992
I0403 18:03:59.396881  6537 layer_factory.hpp:77] Creating layer loss1/classifier_plantvillage_loss1/classifier_plantvillage_0_split
I0403 18:03:59.396899  6537 net.cpp:91] Creating Layer loss1/classifier_plantvillage_loss1/classifier_plantvillage_0_split
I0403 18:03:59.396917  6537 net.cpp:425] loss1/classifier_plantvillage_loss1/classifier_plantvillage_0_split <- loss1/classifier_plantvillage
I0403 18:03:59.396940  6537 net.cpp:399] loss1/classifier_plantvillage_loss1/classifier_plantvillage_0_split -> loss1/classifier_plantvillage_loss1/classifier_plantvillage_0_split_0
I0403 18:03:59.396962  6537 net.cpp:399] loss1/classifier_plantvillage_loss1/classifier_plantvillage_0_split -> loss1/classifier_plantvillage_loss1/classifier_plantvillage_0_split_1
I0403 18:03:59.396984  6537 net.cpp:399] loss1/classifier_plantvillage_loss1/classifier_plantvillage_0_split -> loss1/classifier_plantvillage_loss1/classifier_plantvillage_0_split_2
I0403 18:03:59.397053  6537 net.cpp:141] Setting up loss1/classifier_plantvillage_loss1/classifier_plantvillage_0_split
I0403 18:03:59.397076  6537 net.cpp:148] Top shape: 24 38 (912)
I0403 18:03:59.397094  6537 net.cpp:148] Top shape: 24 38 (912)
I0403 18:03:59.397109  6537 net.cpp:148] Top shape: 24 38 (912)
I0403 18:03:59.397125  6537 net.cpp:156] Memory required for data: 946203936
I0403 18:03:59.397138  6537 layer_factory.hpp:77] Creating layer inception_4b/1x1
I0403 18:03:59.397162  6537 net.cpp:91] Creating Layer inception_4b/1x1
I0403 18:03:59.397197  6537 net.cpp:425] inception_4b/1x1 <- inception_4a/output_inception_4a/output_0_split_1
I0403 18:03:59.397227  6537 net.cpp:399] inception_4b/1x1 -> inception_4b/1x1
I0403 18:03:59.398941  6537 net.cpp:141] Setting up inception_4b/1x1
I0403 18:03:59.398972  6537 net.cpp:148] Top shape: 24 160 14 14 (752640)
I0403 18:03:59.398988  6537 net.cpp:156] Memory required for data: 949214496
I0403 18:03:59.399006  6537 layer_factory.hpp:77] Creating layer inception_4b/relu_1x1
I0403 18:03:59.399025  6537 net.cpp:91] Creating Layer inception_4b/relu_1x1
I0403 18:03:59.399042  6537 net.cpp:425] inception_4b/relu_1x1 <- inception_4b/1x1
I0403 18:03:59.399063  6537 net.cpp:386] inception_4b/relu_1x1 -> inception_4b/1x1 (in-place)
I0403 18:03:59.399258  6537 net.cpp:141] Setting up inception_4b/relu_1x1
I0403 18:03:59.399286  6537 net.cpp:148] Top shape: 24 160 14 14 (752640)
I0403 18:03:59.399302  6537 net.cpp:156] Memory required for data: 952225056
I0403 18:03:59.399317  6537 layer_factory.hpp:77] Creating layer inception_4b/3x3_reduce
I0403 18:03:59.399341  6537 net.cpp:91] Creating Layer inception_4b/3x3_reduce
I0403 18:03:59.399358  6537 net.cpp:425] inception_4b/3x3_reduce <- inception_4a/output_inception_4a/output_0_split_2
I0403 18:03:59.399382  6537 net.cpp:399] inception_4b/3x3_reduce -> inception_4b/3x3_reduce
I0403 18:03:59.400799  6537 net.cpp:141] Setting up inception_4b/3x3_reduce
I0403 18:03:59.400826  6537 net.cpp:148] Top shape: 24 112 14 14 (526848)
I0403 18:03:59.400843  6537 net.cpp:156] Memory required for data: 954332448
I0403 18:03:59.400862  6537 layer_factory.hpp:77] Creating layer inception_4b/relu_3x3_reduce
I0403 18:03:59.400883  6537 net.cpp:91] Creating Layer inception_4b/relu_3x3_reduce
I0403 18:03:59.400902  6537 net.cpp:425] inception_4b/relu_3x3_reduce <- inception_4b/3x3_reduce
I0403 18:03:59.400920  6537 net.cpp:386] inception_4b/relu_3x3_reduce -> inception_4b/3x3_reduce (in-place)
I0403 18:03:59.401218  6537 net.cpp:141] Setting up inception_4b/relu_3x3_reduce
I0403 18:03:59.401247  6537 net.cpp:148] Top shape: 24 112 14 14 (526848)
I0403 18:03:59.401262  6537 net.cpp:156] Memory required for data: 956439840
I0403 18:03:59.401276  6537 layer_factory.hpp:77] Creating layer inception_4b/3x3
I0403 18:03:59.401300  6537 net.cpp:91] Creating Layer inception_4b/3x3
I0403 18:03:59.401319  6537 net.cpp:425] inception_4b/3x3 <- inception_4b/3x3_reduce
I0403 18:03:59.401341  6537 net.cpp:399] inception_4b/3x3 -> inception_4b/3x3
I0403 18:03:59.404458  6537 net.cpp:141] Setting up inception_4b/3x3
I0403 18:03:59.404495  6537 net.cpp:148] Top shape: 24 224 14 14 (1053696)
I0403 18:03:59.404512  6537 net.cpp:156] Memory required for data: 960654624
I0403 18:03:59.404531  6537 layer_factory.hpp:77] Creating layer inception_4b/relu_3x3
I0403 18:03:59.404551  6537 net.cpp:91] Creating Layer inception_4b/relu_3x3
I0403 18:03:59.404567  6537 net.cpp:425] inception_4b/relu_3x3 <- inception_4b/3x3
I0403 18:03:59.404589  6537 net.cpp:386] inception_4b/relu_3x3 -> inception_4b/3x3 (in-place)
I0403 18:03:59.404780  6537 net.cpp:141] Setting up inception_4b/relu_3x3
I0403 18:03:59.404806  6537 net.cpp:148] Top shape: 24 224 14 14 (1053696)
I0403 18:03:59.404821  6537 net.cpp:156] Memory required for data: 964869408
I0403 18:03:59.404836  6537 layer_factory.hpp:77] Creating layer inception_4b/5x5_reduce
I0403 18:03:59.404861  6537 net.cpp:91] Creating Layer inception_4b/5x5_reduce
I0403 18:03:59.404880  6537 net.cpp:425] inception_4b/5x5_reduce <- inception_4a/output_inception_4a/output_0_split_3
I0403 18:03:59.404903  6537 net.cpp:399] inception_4b/5x5_reduce -> inception_4b/5x5_reduce
I0403 18:03:59.406033  6537 net.cpp:141] Setting up inception_4b/5x5_reduce
I0403 18:03:59.406062  6537 net.cpp:148] Top shape: 24 24 14 14 (112896)
I0403 18:03:59.406078  6537 net.cpp:156] Memory required for data: 965320992
I0403 18:03:59.406097  6537 layer_factory.hpp:77] Creating layer inception_4b/relu_5x5_reduce
I0403 18:03:59.406119  6537 net.cpp:91] Creating Layer inception_4b/relu_5x5_reduce
I0403 18:03:59.406152  6537 net.cpp:425] inception_4b/relu_5x5_reduce <- inception_4b/5x5_reduce
I0403 18:03:59.406172  6537 net.cpp:386] inception_4b/relu_5x5_reduce -> inception_4b/5x5_reduce (in-place)
I0403 18:03:59.406370  6537 net.cpp:141] Setting up inception_4b/relu_5x5_reduce
I0403 18:03:59.406395  6537 net.cpp:148] Top shape: 24 24 14 14 (112896)
I0403 18:03:59.406411  6537 net.cpp:156] Memory required for data: 965772576
I0403 18:03:59.406426  6537 layer_factory.hpp:77] Creating layer inception_4b/5x5
I0403 18:03:59.406451  6537 net.cpp:91] Creating Layer inception_4b/5x5
I0403 18:03:59.406471  6537 net.cpp:425] inception_4b/5x5 <- inception_4b/5x5_reduce
I0403 18:03:59.406491  6537 net.cpp:399] inception_4b/5x5 -> inception_4b/5x5
I0403 18:03:59.407763  6537 net.cpp:141] Setting up inception_4b/5x5
I0403 18:03:59.407791  6537 net.cpp:148] Top shape: 24 64 14 14 (301056)
I0403 18:03:59.407807  6537 net.cpp:156] Memory required for data: 966976800
I0403 18:03:59.407827  6537 layer_factory.hpp:77] Creating layer inception_4b/relu_5x5
I0403 18:03:59.407846  6537 net.cpp:91] Creating Layer inception_4b/relu_5x5
I0403 18:03:59.407863  6537 net.cpp:425] inception_4b/relu_5x5 <- inception_4b/5x5
I0403 18:03:59.407886  6537 net.cpp:386] inception_4b/relu_5x5 -> inception_4b/5x5 (in-place)
I0403 18:03:59.408185  6537 net.cpp:141] Setting up inception_4b/relu_5x5
I0403 18:03:59.408216  6537 net.cpp:148] Top shape: 24 64 14 14 (301056)
I0403 18:03:59.408232  6537 net.cpp:156] Memory required for data: 968181024
I0403 18:03:59.408248  6537 layer_factory.hpp:77] Creating layer inception_4b/pool
I0403 18:03:59.408268  6537 net.cpp:91] Creating Layer inception_4b/pool
I0403 18:03:59.408285  6537 net.cpp:425] inception_4b/pool <- inception_4a/output_inception_4a/output_0_split_4
I0403 18:03:59.408308  6537 net.cpp:399] inception_4b/pool -> inception_4b/pool
I0403 18:03:59.408375  6537 net.cpp:141] Setting up inception_4b/pool
I0403 18:03:59.408398  6537 net.cpp:148] Top shape: 24 512 14 14 (2408448)
I0403 18:03:59.408413  6537 net.cpp:156] Memory required for data: 977814816
I0403 18:03:59.408429  6537 layer_factory.hpp:77] Creating layer inception_4b/pool_proj
I0403 18:03:59.408454  6537 net.cpp:91] Creating Layer inception_4b/pool_proj
I0403 18:03:59.408473  6537 net.cpp:425] inception_4b/pool_proj <- inception_4b/pool
I0403 18:03:59.408493  6537 net.cpp:399] inception_4b/pool_proj -> inception_4b/pool_proj
I0403 18:03:59.409744  6537 net.cpp:141] Setting up inception_4b/pool_proj
I0403 18:03:59.409773  6537 net.cpp:148] Top shape: 24 64 14 14 (301056)
I0403 18:03:59.409790  6537 net.cpp:156] Memory required for data: 979019040
I0403 18:03:59.409811  6537 layer_factory.hpp:77] Creating layer inception_4b/relu_pool_proj
I0403 18:03:59.409832  6537 net.cpp:91] Creating Layer inception_4b/relu_pool_proj
I0403 18:03:59.409848  6537 net.cpp:425] inception_4b/relu_pool_proj <- inception_4b/pool_proj
I0403 18:03:59.409868  6537 net.cpp:386] inception_4b/relu_pool_proj -> inception_4b/pool_proj (in-place)
I0403 18:03:59.410056  6537 net.cpp:141] Setting up inception_4b/relu_pool_proj
I0403 18:03:59.410084  6537 net.cpp:148] Top shape: 24 64 14 14 (301056)
I0403 18:03:59.410100  6537 net.cpp:156] Memory required for data: 980223264
I0403 18:03:59.410115  6537 layer_factory.hpp:77] Creating layer inception_4b/output
I0403 18:03:59.410133  6537 net.cpp:91] Creating Layer inception_4b/output
I0403 18:03:59.410151  6537 net.cpp:425] inception_4b/output <- inception_4b/1x1
I0403 18:03:59.410167  6537 net.cpp:425] inception_4b/output <- inception_4b/3x3
I0403 18:03:59.410183  6537 net.cpp:425] inception_4b/output <- inception_4b/5x5
I0403 18:03:59.410200  6537 net.cpp:425] inception_4b/output <- inception_4b/pool_proj
I0403 18:03:59.410223  6537 net.cpp:399] inception_4b/output -> inception_4b/output
I0403 18:03:59.410274  6537 net.cpp:141] Setting up inception_4b/output
I0403 18:03:59.410298  6537 net.cpp:148] Top shape: 24 512 14 14 (2408448)
I0403 18:03:59.410315  6537 net.cpp:156] Memory required for data: 989857056
I0403 18:03:59.410343  6537 layer_factory.hpp:77] Creating layer inception_4b/output_inception_4b/output_0_split
I0403 18:03:59.410365  6537 net.cpp:91] Creating Layer inception_4b/output_inception_4b/output_0_split
I0403 18:03:59.410383  6537 net.cpp:425] inception_4b/output_inception_4b/output_0_split <- inception_4b/output
I0403 18:03:59.410401  6537 net.cpp:399] inception_4b/output_inception_4b/output_0_split -> inception_4b/output_inception_4b/output_0_split_0
I0403 18:03:59.410424  6537 net.cpp:399] inception_4b/output_inception_4b/output_0_split -> inception_4b/output_inception_4b/output_0_split_1
I0403 18:03:59.410447  6537 net.cpp:399] inception_4b/output_inception_4b/output_0_split -> inception_4b/output_inception_4b/output_0_split_2
I0403 18:03:59.410468  6537 net.cpp:399] inception_4b/output_inception_4b/output_0_split -> inception_4b/output_inception_4b/output_0_split_3
I0403 18:03:59.410555  6537 net.cpp:141] Setting up inception_4b/output_inception_4b/output_0_split
I0403 18:03:59.410579  6537 net.cpp:148] Top shape: 24 512 14 14 (2408448)
I0403 18:03:59.410598  6537 net.cpp:148] Top shape: 24 512 14 14 (2408448)
I0403 18:03:59.410614  6537 net.cpp:148] Top shape: 24 512 14 14 (2408448)
I0403 18:03:59.410630  6537 net.cpp:148] Top shape: 24 512 14 14 (2408448)
I0403 18:03:59.410645  6537 net.cpp:156] Memory required for data: 1028392224
I0403 18:03:59.410660  6537 layer_factory.hpp:77] Creating layer inception_4c/1x1
I0403 18:03:59.410684  6537 net.cpp:91] Creating Layer inception_4c/1x1
I0403 18:03:59.410703  6537 net.cpp:425] inception_4c/1x1 <- inception_4b/output_inception_4b/output_0_split_0
I0403 18:03:59.410727  6537 net.cpp:399] inception_4c/1x1 -> inception_4c/1x1
I0403 18:03:59.412281  6537 net.cpp:141] Setting up inception_4c/1x1
I0403 18:03:59.412314  6537 net.cpp:148] Top shape: 24 128 14 14 (602112)
I0403 18:03:59.412333  6537 net.cpp:156] Memory required for data: 1030800672
I0403 18:03:59.412353  6537 layer_factory.hpp:77] Creating layer inception_4c/relu_1x1
I0403 18:03:59.412372  6537 net.cpp:91] Creating Layer inception_4c/relu_1x1
I0403 18:03:59.412391  6537 net.cpp:425] inception_4c/relu_1x1 <- inception_4c/1x1
I0403 18:03:59.412410  6537 net.cpp:386] inception_4c/relu_1x1 -> inception_4c/1x1 (in-place)
I0403 18:03:59.412607  6537 net.cpp:141] Setting up inception_4c/relu_1x1
I0403 18:03:59.412633  6537 net.cpp:148] Top shape: 24 128 14 14 (602112)
I0403 18:03:59.412649  6537 net.cpp:156] Memory required for data: 1033209120
I0403 18:03:59.412664  6537 layer_factory.hpp:77] Creating layer inception_4c/3x3_reduce
I0403 18:03:59.412688  6537 net.cpp:91] Creating Layer inception_4c/3x3_reduce
I0403 18:03:59.412708  6537 net.cpp:425] inception_4c/3x3_reduce <- inception_4b/output_inception_4b/output_0_split_1
I0403 18:03:59.412730  6537 net.cpp:399] inception_4c/3x3_reduce -> inception_4c/3x3_reduce
I0403 18:03:59.414840  6537 net.cpp:141] Setting up inception_4c/3x3_reduce
I0403 18:03:59.414871  6537 net.cpp:148] Top shape: 24 128 14 14 (602112)
I0403 18:03:59.414888  6537 net.cpp:156] Memory required for data: 1035617568
I0403 18:03:59.414911  6537 layer_factory.hpp:77] Creating layer inception_4c/relu_3x3_reduce
I0403 18:03:59.414932  6537 net.cpp:91] Creating Layer inception_4c/relu_3x3_reduce
I0403 18:03:59.414952  6537 net.cpp:425] inception_4c/relu_3x3_reduce <- inception_4c/3x3_reduce
I0403 18:03:59.414973  6537 net.cpp:386] inception_4c/relu_3x3_reduce -> inception_4c/3x3_reduce (in-place)
I0403 18:03:59.415282  6537 net.cpp:141] Setting up inception_4c/relu_3x3_reduce
I0403 18:03:59.415310  6537 net.cpp:148] Top shape: 24 128 14 14 (602112)
I0403 18:03:59.415328  6537 net.cpp:156] Memory required for data: 1038026016
I0403 18:03:59.415344  6537 layer_factory.hpp:77] Creating layer inception_4c/3x3
I0403 18:03:59.415369  6537 net.cpp:91] Creating Layer inception_4c/3x3
I0403 18:03:59.415390  6537 net.cpp:425] inception_4c/3x3 <- inception_4c/3x3_reduce
I0403 18:03:59.415415  6537 net.cpp:399] inception_4c/3x3 -> inception_4c/3x3
I0403 18:03:59.419296  6537 net.cpp:141] Setting up inception_4c/3x3
I0403 18:03:59.419342  6537 net.cpp:148] Top shape: 24 256 14 14 (1204224)
I0403 18:03:59.419361  6537 net.cpp:156] Memory required for data: 1042842912
I0403 18:03:59.419395  6537 layer_factory.hpp:77] Creating layer inception_4c/relu_3x3
I0403 18:03:59.419420  6537 net.cpp:91] Creating Layer inception_4c/relu_3x3
I0403 18:03:59.419440  6537 net.cpp:425] inception_4c/relu_3x3 <- inception_4c/3x3
I0403 18:03:59.419458  6537 net.cpp:386] inception_4c/relu_3x3 -> inception_4c/3x3 (in-place)
I0403 18:03:59.419659  6537 net.cpp:141] Setting up inception_4c/relu_3x3
I0403 18:03:59.419687  6537 net.cpp:148] Top shape: 24 256 14 14 (1204224)
I0403 18:03:59.419703  6537 net.cpp:156] Memory required for data: 1047659808
I0403 18:03:59.419718  6537 layer_factory.hpp:77] Creating layer inception_4c/5x5_reduce
I0403 18:03:59.419744  6537 net.cpp:91] Creating Layer inception_4c/5x5_reduce
I0403 18:03:59.419764  6537 net.cpp:425] inception_4c/5x5_reduce <- inception_4b/output_inception_4b/output_0_split_2
I0403 18:03:59.419787  6537 net.cpp:399] inception_4c/5x5_reduce -> inception_4c/5x5_reduce
I0403 18:03:59.420961  6537 net.cpp:141] Setting up inception_4c/5x5_reduce
I0403 18:03:59.420991  6537 net.cpp:148] Top shape: 24 24 14 14 (112896)
I0403 18:03:59.421008  6537 net.cpp:156] Memory required for data: 1048111392
I0403 18:03:59.421028  6537 layer_factory.hpp:77] Creating layer inception_4c/relu_5x5_reduce
I0403 18:03:59.421051  6537 net.cpp:91] Creating Layer inception_4c/relu_5x5_reduce
I0403 18:03:59.421068  6537 net.cpp:425] inception_4c/relu_5x5_reduce <- inception_4c/5x5_reduce
I0403 18:03:59.421087  6537 net.cpp:386] inception_4c/relu_5x5_reduce -> inception_4c/5x5_reduce (in-place)
I0403 18:03:59.421294  6537 net.cpp:141] Setting up inception_4c/relu_5x5_reduce
I0403 18:03:59.421320  6537 net.cpp:148] Top shape: 24 24 14 14 (112896)
I0403 18:03:59.421336  6537 net.cpp:156] Memory required for data: 1048562976
I0403 18:03:59.421353  6537 layer_factory.hpp:77] Creating layer inception_4c/5x5
I0403 18:03:59.421380  6537 net.cpp:91] Creating Layer inception_4c/5x5
I0403 18:03:59.421399  6537 net.cpp:425] inception_4c/5x5 <- inception_4c/5x5_reduce
I0403 18:03:59.421421  6537 net.cpp:399] inception_4c/5x5 -> inception_4c/5x5
I0403 18:03:59.422758  6537 net.cpp:141] Setting up inception_4c/5x5
I0403 18:03:59.422792  6537 net.cpp:148] Top shape: 24 64 14 14 (301056)
I0403 18:03:59.422809  6537 net.cpp:156] Memory required for data: 1049767200
I0403 18:03:59.422830  6537 layer_factory.hpp:77] Creating layer inception_4c/relu_5x5
I0403 18:03:59.422850  6537 net.cpp:91] Creating Layer inception_4c/relu_5x5
I0403 18:03:59.422869  6537 net.cpp:425] inception_4c/relu_5x5 <- inception_4c/5x5
I0403 18:03:59.422888  6537 net.cpp:386] inception_4c/relu_5x5 -> inception_4c/5x5 (in-place)
I0403 18:03:59.423197  6537 net.cpp:141] Setting up inception_4c/relu_5x5
I0403 18:03:59.423236  6537 net.cpp:148] Top shape: 24 64 14 14 (301056)
I0403 18:03:59.423255  6537 net.cpp:156] Memory required for data: 1050971424
I0403 18:03:59.423271  6537 layer_factory.hpp:77] Creating layer inception_4c/pool
I0403 18:03:59.423291  6537 net.cpp:91] Creating Layer inception_4c/pool
I0403 18:03:59.423307  6537 net.cpp:425] inception_4c/pool <- inception_4b/output_inception_4b/output_0_split_3
I0403 18:03:59.423327  6537 net.cpp:399] inception_4c/pool -> inception_4c/pool
I0403 18:03:59.423399  6537 net.cpp:141] Setting up inception_4c/pool
I0403 18:03:59.423426  6537 net.cpp:148] Top shape: 24 512 14 14 (2408448)
I0403 18:03:59.423442  6537 net.cpp:156] Memory required for data: 1060605216
I0403 18:03:59.423460  6537 layer_factory.hpp:77] Creating layer inception_4c/pool_proj
I0403 18:03:59.423485  6537 net.cpp:91] Creating Layer inception_4c/pool_proj
I0403 18:03:59.423502  6537 net.cpp:425] inception_4c/pool_proj <- inception_4c/pool
I0403 18:03:59.423527  6537 net.cpp:399] inception_4c/pool_proj -> inception_4c/pool_proj
I0403 18:03:59.424829  6537 net.cpp:141] Setting up inception_4c/pool_proj
I0403 18:03:59.424860  6537 net.cpp:148] Top shape: 24 64 14 14 (301056)
I0403 18:03:59.424890  6537 net.cpp:156] Memory required for data: 1061809440
I0403 18:03:59.424912  6537 layer_factory.hpp:77] Creating layer inception_4c/relu_pool_proj
I0403 18:03:59.424935  6537 net.cpp:91] Creating Layer inception_4c/relu_pool_proj
I0403 18:03:59.424953  6537 net.cpp:425] inception_4c/relu_pool_proj <- inception_4c/pool_proj
I0403 18:03:59.424971  6537 net.cpp:386] inception_4c/relu_pool_proj -> inception_4c/pool_proj (in-place)
I0403 18:03:59.425170  6537 net.cpp:141] Setting up inception_4c/relu_pool_proj
I0403 18:03:59.425199  6537 net.cpp:148] Top shape: 24 64 14 14 (301056)
I0403 18:03:59.425221  6537 net.cpp:156] Memory required for data: 1063013664
I0403 18:03:59.425238  6537 layer_factory.hpp:77] Creating layer inception_4c/output
I0403 18:03:59.425257  6537 net.cpp:91] Creating Layer inception_4c/output
I0403 18:03:59.425274  6537 net.cpp:425] inception_4c/output <- inception_4c/1x1
I0403 18:03:59.425292  6537 net.cpp:425] inception_4c/output <- inception_4c/3x3
I0403 18:03:59.425309  6537 net.cpp:425] inception_4c/output <- inception_4c/5x5
I0403 18:03:59.425326  6537 net.cpp:425] inception_4c/output <- inception_4c/pool_proj
I0403 18:03:59.425345  6537 net.cpp:399] inception_4c/output -> inception_4c/output
I0403 18:03:59.425396  6537 net.cpp:141] Setting up inception_4c/output
I0403 18:03:59.425421  6537 net.cpp:148] Top shape: 24 512 14 14 (2408448)
I0403 18:03:59.425437  6537 net.cpp:156] Memory required for data: 1072647456
I0403 18:03:59.425453  6537 layer_factory.hpp:77] Creating layer inception_4c/output_inception_4c/output_0_split
I0403 18:03:59.425472  6537 net.cpp:91] Creating Layer inception_4c/output_inception_4c/output_0_split
I0403 18:03:59.425488  6537 net.cpp:425] inception_4c/output_inception_4c/output_0_split <- inception_4c/output
I0403 18:03:59.425510  6537 net.cpp:399] inception_4c/output_inception_4c/output_0_split -> inception_4c/output_inception_4c/output_0_split_0
I0403 18:03:59.425532  6537 net.cpp:399] inception_4c/output_inception_4c/output_0_split -> inception_4c/output_inception_4c/output_0_split_1
I0403 18:03:59.425554  6537 net.cpp:399] inception_4c/output_inception_4c/output_0_split -> inception_4c/output_inception_4c/output_0_split_2
I0403 18:03:59.425576  6537 net.cpp:399] inception_4c/output_inception_4c/output_0_split -> inception_4c/output_inception_4c/output_0_split_3
I0403 18:03:59.425668  6537 net.cpp:141] Setting up inception_4c/output_inception_4c/output_0_split
I0403 18:03:59.425693  6537 net.cpp:148] Top shape: 24 512 14 14 (2408448)
I0403 18:03:59.425709  6537 net.cpp:148] Top shape: 24 512 14 14 (2408448)
I0403 18:03:59.425727  6537 net.cpp:148] Top shape: 24 512 14 14 (2408448)
I0403 18:03:59.425743  6537 net.cpp:148] Top shape: 24 512 14 14 (2408448)
I0403 18:03:59.425758  6537 net.cpp:156] Memory required for data: 1111182624
I0403 18:03:59.425775  6537 layer_factory.hpp:77] Creating layer inception_4d/1x1
I0403 18:03:59.425799  6537 net.cpp:91] Creating Layer inception_4d/1x1
I0403 18:03:59.425818  6537 net.cpp:425] inception_4d/1x1 <- inception_4c/output_inception_4c/output_0_split_0
I0403 18:03:59.425842  6537 net.cpp:399] inception_4d/1x1 -> inception_4d/1x1
I0403 18:03:59.427333  6537 net.cpp:141] Setting up inception_4d/1x1
I0403 18:03:59.427363  6537 net.cpp:148] Top shape: 24 112 14 14 (526848)
I0403 18:03:59.427381  6537 net.cpp:156] Memory required for data: 1113290016
I0403 18:03:59.427400  6537 layer_factory.hpp:77] Creating layer inception_4d/relu_1x1
I0403 18:03:59.427420  6537 net.cpp:91] Creating Layer inception_4d/relu_1x1
I0403 18:03:59.427438  6537 net.cpp:425] inception_4d/relu_1x1 <- inception_4d/1x1
I0403 18:03:59.427460  6537 net.cpp:386] inception_4d/relu_1x1 -> inception_4d/1x1 (in-place)
I0403 18:03:59.427662  6537 net.cpp:141] Setting up inception_4d/relu_1x1
I0403 18:03:59.427691  6537 net.cpp:148] Top shape: 24 112 14 14 (526848)
I0403 18:03:59.427707  6537 net.cpp:156] Memory required for data: 1115397408
I0403 18:03:59.427723  6537 layer_factory.hpp:77] Creating layer inception_4d/3x3_reduce
I0403 18:03:59.427762  6537 net.cpp:91] Creating Layer inception_4d/3x3_reduce
I0403 18:03:59.427783  6537 net.cpp:425] inception_4d/3x3_reduce <- inception_4c/output_inception_4c/output_0_split_1
I0403 18:03:59.427806  6537 net.cpp:399] inception_4d/3x3_reduce -> inception_4d/3x3_reduce
I0403 18:03:59.429396  6537 net.cpp:141] Setting up inception_4d/3x3_reduce
I0403 18:03:59.429427  6537 net.cpp:148] Top shape: 24 144 14 14 (677376)
I0403 18:03:59.429445  6537 net.cpp:156] Memory required for data: 1118106912
I0403 18:03:59.429464  6537 layer_factory.hpp:77] Creating layer inception_4d/relu_3x3_reduce
I0403 18:03:59.429483  6537 net.cpp:91] Creating Layer inception_4d/relu_3x3_reduce
I0403 18:03:59.429500  6537 net.cpp:425] inception_4d/relu_3x3_reduce <- inception_4d/3x3_reduce
I0403 18:03:59.429522  6537 net.cpp:386] inception_4d/relu_3x3_reduce -> inception_4d/3x3_reduce (in-place)
I0403 18:03:59.429817  6537 net.cpp:141] Setting up inception_4d/relu_3x3_reduce
I0403 18:03:59.429847  6537 net.cpp:148] Top shape: 24 144 14 14 (677376)
I0403 18:03:59.429865  6537 net.cpp:156] Memory required for data: 1120816416
I0403 18:03:59.429880  6537 layer_factory.hpp:77] Creating layer inception_4d/3x3
I0403 18:03:59.429903  6537 net.cpp:91] Creating Layer inception_4d/3x3
I0403 18:03:59.429921  6537 net.cpp:425] inception_4d/3x3 <- inception_4d/3x3_reduce
I0403 18:03:59.429942  6537 net.cpp:399] inception_4d/3x3 -> inception_4d/3x3
I0403 18:03:59.434351  6537 net.cpp:141] Setting up inception_4d/3x3
I0403 18:03:59.434381  6537 net.cpp:148] Top shape: 24 288 14 14 (1354752)
I0403 18:03:59.434397  6537 net.cpp:156] Memory required for data: 1126235424
I0403 18:03:59.434415  6537 layer_factory.hpp:77] Creating layer inception_4d/relu_3x3
I0403 18:03:59.434434  6537 net.cpp:91] Creating Layer inception_4d/relu_3x3
I0403 18:03:59.434450  6537 net.cpp:425] inception_4d/relu_3x3 <- inception_4d/3x3
I0403 18:03:59.434470  6537 net.cpp:386] inception_4d/relu_3x3 -> inception_4d/3x3 (in-place)
I0403 18:03:59.434656  6537 net.cpp:141] Setting up inception_4d/relu_3x3
I0403 18:03:59.434681  6537 net.cpp:148] Top shape: 24 288 14 14 (1354752)
I0403 18:03:59.434696  6537 net.cpp:156] Memory required for data: 1131654432
I0403 18:03:59.434712  6537 layer_factory.hpp:77] Creating layer inception_4d/5x5_reduce
I0403 18:03:59.434736  6537 net.cpp:91] Creating Layer inception_4d/5x5_reduce
I0403 18:03:59.434753  6537 net.cpp:425] inception_4d/5x5_reduce <- inception_4c/output_inception_4c/output_0_split_2
I0403 18:03:59.434775  6537 net.cpp:399] inception_4d/5x5_reduce -> inception_4d/5x5_reduce
I0403 18:03:59.435957  6537 net.cpp:141] Setting up inception_4d/5x5_reduce
I0403 18:03:59.435986  6537 net.cpp:148] Top shape: 24 32 14 14 (150528)
I0403 18:03:59.436002  6537 net.cpp:156] Memory required for data: 1132256544
I0403 18:03:59.436023  6537 layer_factory.hpp:77] Creating layer inception_4d/relu_5x5_reduce
I0403 18:03:59.436041  6537 net.cpp:91] Creating Layer inception_4d/relu_5x5_reduce
I0403 18:03:59.436059  6537 net.cpp:425] inception_4d/relu_5x5_reduce <- inception_4d/5x5_reduce
I0403 18:03:59.436084  6537 net.cpp:386] inception_4d/relu_5x5_reduce -> inception_4d/5x5_reduce (in-place)
I0403 18:03:59.436285  6537 net.cpp:141] Setting up inception_4d/relu_5x5_reduce
I0403 18:03:59.436311  6537 net.cpp:148] Top shape: 24 32 14 14 (150528)
I0403 18:03:59.436328  6537 net.cpp:156] Memory required for data: 1132858656
I0403 18:03:59.436343  6537 layer_factory.hpp:77] Creating layer inception_4d/5x5
I0403 18:03:59.436367  6537 net.cpp:91] Creating Layer inception_4d/5x5
I0403 18:03:59.436385  6537 net.cpp:425] inception_4d/5x5 <- inception_4d/5x5_reduce
I0403 18:03:59.436408  6537 net.cpp:399] inception_4d/5x5 -> inception_4d/5x5
I0403 18:03:59.437930  6537 net.cpp:141] Setting up inception_4d/5x5
I0403 18:03:59.437958  6537 net.cpp:148] Top shape: 24 64 14 14 (301056)
I0403 18:03:59.437976  6537 net.cpp:156] Memory required for data: 1134062880
I0403 18:03:59.437999  6537 layer_factory.hpp:77] Creating layer inception_4d/relu_5x5
I0403 18:03:59.438035  6537 net.cpp:91] Creating Layer inception_4d/relu_5x5
I0403 18:03:59.438053  6537 net.cpp:425] inception_4d/relu_5x5 <- inception_4d/5x5
I0403 18:03:59.438071  6537 net.cpp:386] inception_4d/relu_5x5 -> inception_4d/5x5 (in-place)
I0403 18:03:59.438379  6537 net.cpp:141] Setting up inception_4d/relu_5x5
I0403 18:03:59.438405  6537 net.cpp:148] Top shape: 24 64 14 14 (301056)
I0403 18:03:59.438421  6537 net.cpp:156] Memory required for data: 1135267104
I0403 18:03:59.438436  6537 layer_factory.hpp:77] Creating layer inception_4d/pool
I0403 18:03:59.438457  6537 net.cpp:91] Creating Layer inception_4d/pool
I0403 18:03:59.438474  6537 net.cpp:425] inception_4d/pool <- inception_4c/output_inception_4c/output_0_split_3
I0403 18:03:59.438493  6537 net.cpp:399] inception_4d/pool -> inception_4d/pool
I0403 18:03:59.438562  6537 net.cpp:141] Setting up inception_4d/pool
I0403 18:03:59.438586  6537 net.cpp:148] Top shape: 24 512 14 14 (2408448)
I0403 18:03:59.438603  6537 net.cpp:156] Memory required for data: 1144900896
I0403 18:03:59.438617  6537 layer_factory.hpp:77] Creating layer inception_4d/pool_proj
I0403 18:03:59.438640  6537 net.cpp:91] Creating Layer inception_4d/pool_proj
I0403 18:03:59.438658  6537 net.cpp:425] inception_4d/pool_proj <- inception_4d/pool
I0403 18:03:59.438680  6537 net.cpp:399] inception_4d/pool_proj -> inception_4d/pool_proj
I0403 18:03:59.440490  6537 net.cpp:141] Setting up inception_4d/pool_proj
I0403 18:03:59.440520  6537 net.cpp:148] Top shape: 24 64 14 14 (301056)
I0403 18:03:59.440534  6537 net.cpp:156] Memory required for data: 1146105120
I0403 18:03:59.440553  6537 layer_factory.hpp:77] Creating layer inception_4d/relu_pool_proj
I0403 18:03:59.440572  6537 net.cpp:91] Creating Layer inception_4d/relu_pool_proj
I0403 18:03:59.440588  6537 net.cpp:425] inception_4d/relu_pool_proj <- inception_4d/pool_proj
I0403 18:03:59.440609  6537 net.cpp:386] inception_4d/relu_pool_proj -> inception_4d/pool_proj (in-place)
I0403 18:03:59.440798  6537 net.cpp:141] Setting up inception_4d/relu_pool_proj
I0403 18:03:59.440821  6537 net.cpp:148] Top shape: 24 64 14 14 (301056)
I0403 18:03:59.440837  6537 net.cpp:156] Memory required for data: 1147309344
I0403 18:03:59.440853  6537 layer_factory.hpp:77] Creating layer inception_4d/output
I0403 18:03:59.440871  6537 net.cpp:91] Creating Layer inception_4d/output
I0403 18:03:59.440886  6537 net.cpp:425] inception_4d/output <- inception_4d/1x1
I0403 18:03:59.440907  6537 net.cpp:425] inception_4d/output <- inception_4d/3x3
I0403 18:03:59.440924  6537 net.cpp:425] inception_4d/output <- inception_4d/5x5
I0403 18:03:59.440942  6537 net.cpp:425] inception_4d/output <- inception_4d/pool_proj
I0403 18:03:59.440958  6537 net.cpp:399] inception_4d/output -> inception_4d/output
I0403 18:03:59.441007  6537 net.cpp:141] Setting up inception_4d/output
I0403 18:03:59.441031  6537 net.cpp:148] Top shape: 24 528 14 14 (2483712)
I0403 18:03:59.441045  6537 net.cpp:156] Memory required for data: 1157244192
I0403 18:03:59.441061  6537 layer_factory.hpp:77] Creating layer inception_4d/output_inception_4d/output_0_split
I0403 18:03:59.441079  6537 net.cpp:91] Creating Layer inception_4d/output_inception_4d/output_0_split
I0403 18:03:59.441094  6537 net.cpp:425] inception_4d/output_inception_4d/output_0_split <- inception_4d/output
I0403 18:03:59.441114  6537 net.cpp:399] inception_4d/output_inception_4d/output_0_split -> inception_4d/output_inception_4d/output_0_split_0
I0403 18:03:59.441136  6537 net.cpp:399] inception_4d/output_inception_4d/output_0_split -> inception_4d/output_inception_4d/output_0_split_1
I0403 18:03:59.441157  6537 net.cpp:399] inception_4d/output_inception_4d/output_0_split -> inception_4d/output_inception_4d/output_0_split_2
I0403 18:03:59.441177  6537 net.cpp:399] inception_4d/output_inception_4d/output_0_split -> inception_4d/output_inception_4d/output_0_split_3
I0403 18:03:59.441198  6537 net.cpp:399] inception_4d/output_inception_4d/output_0_split -> inception_4d/output_inception_4d/output_0_split_4
I0403 18:03:59.441309  6537 net.cpp:141] Setting up inception_4d/output_inception_4d/output_0_split
I0403 18:03:59.441344  6537 net.cpp:148] Top shape: 24 528 14 14 (2483712)
I0403 18:03:59.441362  6537 net.cpp:148] Top shape: 24 528 14 14 (2483712)
I0403 18:03:59.441378  6537 net.cpp:148] Top shape: 24 528 14 14 (2483712)
I0403 18:03:59.441395  6537 net.cpp:148] Top shape: 24 528 14 14 (2483712)
I0403 18:03:59.441411  6537 net.cpp:148] Top shape: 24 528 14 14 (2483712)
I0403 18:03:59.441424  6537 net.cpp:156] Memory required for data: 1206918432
I0403 18:03:59.441439  6537 layer_factory.hpp:77] Creating layer loss2/ave_pool
I0403 18:03:59.441457  6537 net.cpp:91] Creating Layer loss2/ave_pool
I0403 18:03:59.441473  6537 net.cpp:425] loss2/ave_pool <- inception_4d/output_inception_4d/output_0_split_0
I0403 18:03:59.441494  6537 net.cpp:399] loss2/ave_pool -> loss2/ave_pool
I0403 18:03:59.441810  6537 net.cpp:141] Setting up loss2/ave_pool
I0403 18:03:59.441838  6537 net.cpp:148] Top shape: 24 528 4 4 (202752)
I0403 18:03:59.441854  6537 net.cpp:156] Memory required for data: 1207729440
I0403 18:03:59.441870  6537 layer_factory.hpp:77] Creating layer loss2/conv
I0403 18:03:59.441896  6537 net.cpp:91] Creating Layer loss2/conv
I0403 18:03:59.441915  6537 net.cpp:425] loss2/conv <- loss2/ave_pool
I0403 18:03:59.441936  6537 net.cpp:399] loss2/conv -> loss2/conv
I0403 18:03:59.443950  6537 net.cpp:141] Setting up loss2/conv
I0403 18:03:59.443980  6537 net.cpp:148] Top shape: 24 128 4 4 (49152)
I0403 18:03:59.443996  6537 net.cpp:156] Memory required for data: 1207926048
I0403 18:03:59.444015  6537 layer_factory.hpp:77] Creating layer loss2/relu_conv
I0403 18:03:59.444036  6537 net.cpp:91] Creating Layer loss2/relu_conv
I0403 18:03:59.444053  6537 net.cpp:425] loss2/relu_conv <- loss2/conv
I0403 18:03:59.444070  6537 net.cpp:386] loss2/relu_conv -> loss2/conv (in-place)
I0403 18:03:59.444363  6537 net.cpp:141] Setting up loss2/relu_conv
I0403 18:03:59.444389  6537 net.cpp:148] Top shape: 24 128 4 4 (49152)
I0403 18:03:59.444406  6537 net.cpp:156] Memory required for data: 1208122656
I0403 18:03:59.444422  6537 layer_factory.hpp:77] Creating layer loss2/fc
I0403 18:03:59.444443  6537 net.cpp:91] Creating Layer loss2/fc
I0403 18:03:59.444460  6537 net.cpp:425] loss2/fc <- loss2/conv
I0403 18:03:59.444483  6537 net.cpp:399] loss2/fc -> loss2/fc
I0403 18:03:59.462348  6537 net.cpp:141] Setting up loss2/fc
I0403 18:03:59.462386  6537 net.cpp:148] Top shape: 24 1024 (24576)
I0403 18:03:59.462402  6537 net.cpp:156] Memory required for data: 1208220960
I0403 18:03:59.462421  6537 layer_factory.hpp:77] Creating layer loss2/relu_fc
I0403 18:03:59.462440  6537 net.cpp:91] Creating Layer loss2/relu_fc
I0403 18:03:59.462456  6537 net.cpp:425] loss2/relu_fc <- loss2/fc
I0403 18:03:59.462489  6537 net.cpp:386] loss2/relu_fc -> loss2/fc (in-place)
I0403 18:03:59.462785  6537 net.cpp:141] Setting up loss2/relu_fc
I0403 18:03:59.462811  6537 net.cpp:148] Top shape: 24 1024 (24576)
I0403 18:03:59.462826  6537 net.cpp:156] Memory required for data: 1208319264
I0403 18:03:59.462841  6537 layer_factory.hpp:77] Creating layer loss2/drop_fc
I0403 18:03:59.462858  6537 net.cpp:91] Creating Layer loss2/drop_fc
I0403 18:03:59.462875  6537 net.cpp:425] loss2/drop_fc <- loss2/fc
I0403 18:03:59.462894  6537 net.cpp:386] loss2/drop_fc -> loss2/fc (in-place)
I0403 18:03:59.462944  6537 net.cpp:141] Setting up loss2/drop_fc
I0403 18:03:59.462968  6537 net.cpp:148] Top shape: 24 1024 (24576)
I0403 18:03:59.462983  6537 net.cpp:156] Memory required for data: 1208417568
I0403 18:03:59.462998  6537 layer_factory.hpp:77] Creating layer loss2/classifier_plantvillage
I0403 18:03:59.463016  6537 net.cpp:91] Creating Layer loss2/classifier_plantvillage
I0403 18:03:59.463032  6537 net.cpp:425] loss2/classifier_plantvillage <- loss2/fc
I0403 18:03:59.463053  6537 net.cpp:399] loss2/classifier_plantvillage -> loss2/classifier_plantvillage
I0403 18:03:59.463454  6537 net.cpp:141] Setting up loss2/classifier_plantvillage
I0403 18:03:59.463479  6537 net.cpp:148] Top shape: 24 38 (912)
I0403 18:03:59.463510  6537 net.cpp:156] Memory required for data: 1208421216
I0403 18:03:59.463529  6537 layer_factory.hpp:77] Creating layer loss2/classifier_plantvillage_loss2/classifier_plantvillage_0_split
I0403 18:03:59.463549  6537 net.cpp:91] Creating Layer loss2/classifier_plantvillage_loss2/classifier_plantvillage_0_split
I0403 18:03:59.463567  6537 net.cpp:425] loss2/classifier_plantvillage_loss2/classifier_plantvillage_0_split <- loss2/classifier_plantvillage
I0403 18:03:59.463583  6537 net.cpp:399] loss2/classifier_plantvillage_loss2/classifier_plantvillage_0_split -> loss2/classifier_plantvillage_loss2/classifier_plantvillage_0_split_0
I0403 18:03:59.463608  6537 net.cpp:399] loss2/classifier_plantvillage_loss2/classifier_plantvillage_0_split -> loss2/classifier_plantvillage_loss2/classifier_plantvillage_0_split_1
I0403 18:03:59.463629  6537 net.cpp:399] loss2/classifier_plantvillage_loss2/classifier_plantvillage_0_split -> loss2/classifier_plantvillage_loss2/classifier_plantvillage_0_split_2
I0403 18:03:59.463704  6537 net.cpp:141] Setting up loss2/classifier_plantvillage_loss2/classifier_plantvillage_0_split
I0403 18:03:59.463726  6537 net.cpp:148] Top shape: 24 38 (912)
I0403 18:03:59.463742  6537 net.cpp:148] Top shape: 24 38 (912)
I0403 18:03:59.463758  6537 net.cpp:148] Top shape: 24 38 (912)
I0403 18:03:59.463773  6537 net.cpp:156] Memory required for data: 1208432160
I0403 18:03:59.463788  6537 layer_factory.hpp:77] Creating layer inception_4e/1x1
I0403 18:03:59.463809  6537 net.cpp:91] Creating Layer inception_4e/1x1
I0403 18:03:59.463826  6537 net.cpp:425] inception_4e/1x1 <- inception_4d/output_inception_4d/output_0_split_1
I0403 18:03:59.463845  6537 net.cpp:399] inception_4e/1x1 -> inception_4e/1x1
I0403 18:03:59.465622  6537 net.cpp:141] Setting up inception_4e/1x1
I0403 18:03:59.465649  6537 net.cpp:148] Top shape: 24 256 14 14 (1204224)
I0403 18:03:59.465667  6537 net.cpp:156] Memory required for data: 1213249056
I0403 18:03:59.465685  6537 layer_factory.hpp:77] Creating layer inception_4e/relu_1x1
I0403 18:03:59.465703  6537 net.cpp:91] Creating Layer inception_4e/relu_1x1
I0403 18:03:59.465719  6537 net.cpp:425] inception_4e/relu_1x1 <- inception_4e/1x1
I0403 18:03:59.465736  6537 net.cpp:386] inception_4e/relu_1x1 -> inception_4e/1x1 (in-place)
I0403 18:03:59.466027  6537 net.cpp:141] Setting up inception_4e/relu_1x1
I0403 18:03:59.466053  6537 net.cpp:148] Top shape: 24 256 14 14 (1204224)
I0403 18:03:59.466070  6537 net.cpp:156] Memory required for data: 1218065952
I0403 18:03:59.466085  6537 layer_factory.hpp:77] Creating layer inception_4e/3x3_reduce
I0403 18:03:59.466104  6537 net.cpp:91] Creating Layer inception_4e/3x3_reduce
I0403 18:03:59.466122  6537 net.cpp:425] inception_4e/3x3_reduce <- inception_4d/output_inception_4d/output_0_split_2
I0403 18:03:59.466143  6537 net.cpp:399] inception_4e/3x3_reduce -> inception_4e/3x3_reduce
I0403 18:03:59.468345  6537 net.cpp:141] Setting up inception_4e/3x3_reduce
I0403 18:03:59.468375  6537 net.cpp:148] Top shape: 24 160 14 14 (752640)
I0403 18:03:59.468391  6537 net.cpp:156] Memory required for data: 1221076512
I0403 18:03:59.468410  6537 layer_factory.hpp:77] Creating layer inception_4e/relu_3x3_reduce
I0403 18:03:59.468430  6537 net.cpp:91] Creating Layer inception_4e/relu_3x3_reduce
I0403 18:03:59.468447  6537 net.cpp:425] inception_4e/relu_3x3_reduce <- inception_4e/3x3_reduce
I0403 18:03:59.468466  6537 net.cpp:386] inception_4e/relu_3x3_reduce -> inception_4e/3x3_reduce (in-place)
I0403 18:03:59.468683  6537 net.cpp:141] Setting up inception_4e/relu_3x3_reduce
I0403 18:03:59.468713  6537 net.cpp:148] Top shape: 24 160 14 14 (752640)
I0403 18:03:59.468729  6537 net.cpp:156] Memory required for data: 1224087072
I0403 18:03:59.468744  6537 layer_factory.hpp:77] Creating layer inception_4e/3x3
I0403 18:03:59.468768  6537 net.cpp:91] Creating Layer inception_4e/3x3
I0403 18:03:59.468786  6537 net.cpp:425] inception_4e/3x3 <- inception_4e/3x3_reduce
I0403 18:03:59.468808  6537 net.cpp:399] inception_4e/3x3 -> inception_4e/3x3
I0403 18:03:59.474033  6537 net.cpp:141] Setting up inception_4e/3x3
I0403 18:03:59.474082  6537 net.cpp:148] Top shape: 24 320 14 14 (1505280)
I0403 18:03:59.474099  6537 net.cpp:156] Memory required for data: 1230108192
I0403 18:03:59.474119  6537 layer_factory.hpp:77] Creating layer inception_4e/relu_3x3
I0403 18:03:59.474139  6537 net.cpp:91] Creating Layer inception_4e/relu_3x3
I0403 18:03:59.474156  6537 net.cpp:425] inception_4e/relu_3x3 <- inception_4e/3x3
I0403 18:03:59.474175  6537 net.cpp:386] inception_4e/relu_3x3 -> inception_4e/3x3 (in-place)
I0403 18:03:59.474493  6537 net.cpp:141] Setting up inception_4e/relu_3x3
I0403 18:03:59.474521  6537 net.cpp:148] Top shape: 24 320 14 14 (1505280)
I0403 18:03:59.474537  6537 net.cpp:156] Memory required for data: 1236129312
I0403 18:03:59.474553  6537 layer_factory.hpp:77] Creating layer inception_4e/5x5_reduce
I0403 18:03:59.474578  6537 net.cpp:91] Creating Layer inception_4e/5x5_reduce
I0403 18:03:59.474598  6537 net.cpp:425] inception_4e/5x5_reduce <- inception_4d/output_inception_4d/output_0_split_3
I0403 18:03:59.474622  6537 net.cpp:399] inception_4e/5x5_reduce -> inception_4e/5x5_reduce
I0403 18:03:59.475744  6537 net.cpp:141] Setting up inception_4e/5x5_reduce
I0403 18:03:59.475774  6537 net.cpp:148] Top shape: 24 32 14 14 (150528)
I0403 18:03:59.475790  6537 net.cpp:156] Memory required for data: 1236731424
I0403 18:03:59.475811  6537 layer_factory.hpp:77] Creating layer inception_4e/relu_5x5_reduce
I0403 18:03:59.475832  6537 net.cpp:91] Creating Layer inception_4e/relu_5x5_reduce
I0403 18:03:59.475849  6537 net.cpp:425] inception_4e/relu_5x5_reduce <- inception_4e/5x5_reduce
I0403 18:03:59.475868  6537 net.cpp:386] inception_4e/relu_5x5_reduce -> inception_4e/5x5_reduce (in-place)
I0403 18:03:59.476182  6537 net.cpp:141] Setting up inception_4e/relu_5x5_reduce
I0403 18:03:59.476214  6537 net.cpp:148] Top shape: 24 32 14 14 (150528)
I0403 18:03:59.476232  6537 net.cpp:156] Memory required for data: 1237333536
I0403 18:03:59.476246  6537 layer_factory.hpp:77] Creating layer inception_4e/5x5
I0403 18:03:59.476289  6537 net.cpp:91] Creating Layer inception_4e/5x5
I0403 18:03:59.476310  6537 net.cpp:425] inception_4e/5x5 <- inception_4e/5x5_reduce
I0403 18:03:59.476330  6537 net.cpp:399] inception_4e/5x5 -> inception_4e/5x5
I0403 18:03:59.478248  6537 net.cpp:141] Setting up inception_4e/5x5
I0403 18:03:59.478277  6537 net.cpp:148] Top shape: 24 128 14 14 (602112)
I0403 18:03:59.478293  6537 net.cpp:156] Memory required for data: 1239741984
I0403 18:03:59.478313  6537 layer_factory.hpp:77] Creating layer inception_4e/relu_5x5
I0403 18:03:59.478334  6537 net.cpp:91] Creating Layer inception_4e/relu_5x5
I0403 18:03:59.478353  6537 net.cpp:425] inception_4e/relu_5x5 <- inception_4e/5x5
I0403 18:03:59.478370  6537 net.cpp:386] inception_4e/relu_5x5 -> inception_4e/5x5 (in-place)
I0403 18:03:59.478579  6537 net.cpp:141] Setting up inception_4e/relu_5x5
I0403 18:03:59.478605  6537 net.cpp:148] Top shape: 24 128 14 14 (602112)
I0403 18:03:59.478621  6537 net.cpp:156] Memory required for data: 1242150432
I0403 18:03:59.478636  6537 layer_factory.hpp:77] Creating layer inception_4e/pool
I0403 18:03:59.478658  6537 net.cpp:91] Creating Layer inception_4e/pool
I0403 18:03:59.478677  6537 net.cpp:425] inception_4e/pool <- inception_4d/output_inception_4d/output_0_split_4
I0403 18:03:59.478695  6537 net.cpp:399] inception_4e/pool -> inception_4e/pool
I0403 18:03:59.478770  6537 net.cpp:141] Setting up inception_4e/pool
I0403 18:03:59.478795  6537 net.cpp:148] Top shape: 24 528 14 14 (2483712)
I0403 18:03:59.478809  6537 net.cpp:156] Memory required for data: 1252085280
I0403 18:03:59.478826  6537 layer_factory.hpp:77] Creating layer inception_4e/pool_proj
I0403 18:03:59.478849  6537 net.cpp:91] Creating Layer inception_4e/pool_proj
I0403 18:03:59.478866  6537 net.cpp:425] inception_4e/pool_proj <- inception_4e/pool
I0403 18:03:59.478888  6537 net.cpp:399] inception_4e/pool_proj -> inception_4e/pool_proj
I0403 18:03:59.480468  6537 net.cpp:141] Setting up inception_4e/pool_proj
I0403 18:03:59.480509  6537 net.cpp:148] Top shape: 24 128 14 14 (602112)
I0403 18:03:59.480525  6537 net.cpp:156] Memory required for data: 1254493728
I0403 18:03:59.480545  6537 layer_factory.hpp:77] Creating layer inception_4e/relu_pool_proj
I0403 18:03:59.480563  6537 net.cpp:91] Creating Layer inception_4e/relu_pool_proj
I0403 18:03:59.480583  6537 net.cpp:425] inception_4e/relu_pool_proj <- inception_4e/pool_proj
I0403 18:03:59.480602  6537 net.cpp:386] inception_4e/relu_pool_proj -> inception_4e/pool_proj (in-place)
I0403 18:03:59.480911  6537 net.cpp:141] Setting up inception_4e/relu_pool_proj
I0403 18:03:59.480937  6537 net.cpp:148] Top shape: 24 128 14 14 (602112)
I0403 18:03:59.480953  6537 net.cpp:156] Memory required for data: 1256902176
I0403 18:03:59.480969  6537 layer_factory.hpp:77] Creating layer inception_4e/output
I0403 18:03:59.480988  6537 net.cpp:91] Creating Layer inception_4e/output
I0403 18:03:59.481004  6537 net.cpp:425] inception_4e/output <- inception_4e/1x1
I0403 18:03:59.481021  6537 net.cpp:425] inception_4e/output <- inception_4e/3x3
I0403 18:03:59.481040  6537 net.cpp:425] inception_4e/output <- inception_4e/5x5
I0403 18:03:59.481056  6537 net.cpp:425] inception_4e/output <- inception_4e/pool_proj
I0403 18:03:59.481077  6537 net.cpp:399] inception_4e/output -> inception_4e/output
I0403 18:03:59.481127  6537 net.cpp:141] Setting up inception_4e/output
I0403 18:03:59.481155  6537 net.cpp:148] Top shape: 24 832 14 14 (3913728)
I0403 18:03:59.481173  6537 net.cpp:156] Memory required for data: 1272557088
I0403 18:03:59.481187  6537 layer_factory.hpp:77] Creating layer pool4/3x3_s2
I0403 18:03:59.481205  6537 net.cpp:91] Creating Layer pool4/3x3_s2
I0403 18:03:59.481227  6537 net.cpp:425] pool4/3x3_s2 <- inception_4e/output
I0403 18:03:59.481251  6537 net.cpp:399] pool4/3x3_s2 -> pool4/3x3_s2
I0403 18:03:59.481322  6537 net.cpp:141] Setting up pool4/3x3_s2
I0403 18:03:59.481346  6537 net.cpp:148] Top shape: 24 832 7 7 (978432)
I0403 18:03:59.481362  6537 net.cpp:156] Memory required for data: 1276470816
I0403 18:03:59.481377  6537 layer_factory.hpp:77] Creating layer pool4/3x3_s2_pool4/3x3_s2_0_split
I0403 18:03:59.481398  6537 net.cpp:91] Creating Layer pool4/3x3_s2_pool4/3x3_s2_0_split
I0403 18:03:59.481415  6537 net.cpp:425] pool4/3x3_s2_pool4/3x3_s2_0_split <- pool4/3x3_s2
I0403 18:03:59.481434  6537 net.cpp:399] pool4/3x3_s2_pool4/3x3_s2_0_split -> pool4/3x3_s2_pool4/3x3_s2_0_split_0
I0403 18:03:59.481456  6537 net.cpp:399] pool4/3x3_s2_pool4/3x3_s2_0_split -> pool4/3x3_s2_pool4/3x3_s2_0_split_1
I0403 18:03:59.481477  6537 net.cpp:399] pool4/3x3_s2_pool4/3x3_s2_0_split -> pool4/3x3_s2_pool4/3x3_s2_0_split_2
I0403 18:03:59.481498  6537 net.cpp:399] pool4/3x3_s2_pool4/3x3_s2_0_split -> pool4/3x3_s2_pool4/3x3_s2_0_split_3
I0403 18:03:59.481591  6537 net.cpp:141] Setting up pool4/3x3_s2_pool4/3x3_s2_0_split
I0403 18:03:59.481616  6537 net.cpp:148] Top shape: 24 832 7 7 (978432)
I0403 18:03:59.481633  6537 net.cpp:148] Top shape: 24 832 7 7 (978432)
I0403 18:03:59.481650  6537 net.cpp:148] Top shape: 24 832 7 7 (978432)
I0403 18:03:59.481667  6537 net.cpp:148] Top shape: 24 832 7 7 (978432)
I0403 18:03:59.481681  6537 net.cpp:156] Memory required for data: 1292125728
I0403 18:03:59.481695  6537 layer_factory.hpp:77] Creating layer inception_5a/1x1
I0403 18:03:59.481719  6537 net.cpp:91] Creating Layer inception_5a/1x1
I0403 18:03:59.481737  6537 net.cpp:425] inception_5a/1x1 <- pool4/3x3_s2_pool4/3x3_s2_0_split_0
I0403 18:03:59.481760  6537 net.cpp:399] inception_5a/1x1 -> inception_5a/1x1
I0403 18:03:59.484794  6537 net.cpp:141] Setting up inception_5a/1x1
I0403 18:03:59.484824  6537 net.cpp:148] Top shape: 24 256 7 7 (301056)
I0403 18:03:59.484840  6537 net.cpp:156] Memory required for data: 1293329952
I0403 18:03:59.484859  6537 layer_factory.hpp:77] Creating layer inception_5a/relu_1x1
I0403 18:03:59.484879  6537 net.cpp:91] Creating Layer inception_5a/relu_1x1
I0403 18:03:59.484896  6537 net.cpp:425] inception_5a/relu_1x1 <- inception_5a/1x1
I0403 18:03:59.484915  6537 net.cpp:386] inception_5a/relu_1x1 -> inception_5a/1x1 (in-place)
I0403 18:03:59.485235  6537 net.cpp:141] Setting up inception_5a/relu_1x1
I0403 18:03:59.485262  6537 net.cpp:148] Top shape: 24 256 7 7 (301056)
I0403 18:03:59.485278  6537 net.cpp:156] Memory required for data: 1294534176
I0403 18:03:59.485293  6537 layer_factory.hpp:77] Creating layer inception_5a/3x3_reduce
I0403 18:03:59.485316  6537 net.cpp:91] Creating Layer inception_5a/3x3_reduce
I0403 18:03:59.485335  6537 net.cpp:425] inception_5a/3x3_reduce <- pool4/3x3_s2_pool4/3x3_s2_0_split_1
I0403 18:03:59.485362  6537 net.cpp:399] inception_5a/3x3_reduce -> inception_5a/3x3_reduce
I0403 18:03:59.487865  6537 net.cpp:141] Setting up inception_5a/3x3_reduce
I0403 18:03:59.487896  6537 net.cpp:148] Top shape: 24 160 7 7 (188160)
I0403 18:03:59.487912  6537 net.cpp:156] Memory required for data: 1295286816
I0403 18:03:59.487931  6537 layer_factory.hpp:77] Creating layer inception_5a/relu_3x3_reduce
I0403 18:03:59.487951  6537 net.cpp:91] Creating Layer inception_5a/relu_3x3_reduce
I0403 18:03:59.487967  6537 net.cpp:425] inception_5a/relu_3x3_reduce <- inception_5a/3x3_reduce
I0403 18:03:59.487987  6537 net.cpp:386] inception_5a/relu_3x3_reduce -> inception_5a/3x3_reduce (in-place)
I0403 18:03:59.488179  6537 net.cpp:141] Setting up inception_5a/relu_3x3_reduce
I0403 18:03:59.488204  6537 net.cpp:148] Top shape: 24 160 7 7 (188160)
I0403 18:03:59.488224  6537 net.cpp:156] Memory required for data: 1296039456
I0403 18:03:59.488241  6537 layer_factory.hpp:77] Creating layer inception_5a/3x3
I0403 18:03:59.488263  6537 net.cpp:91] Creating Layer inception_5a/3x3
I0403 18:03:59.488282  6537 net.cpp:425] inception_5a/3x3 <- inception_5a/3x3_reduce
I0403 18:03:59.488304  6537 net.cpp:399] inception_5a/3x3 -> inception_5a/3x3
I0403 18:03:59.493427  6537 net.cpp:141] Setting up inception_5a/3x3
I0403 18:03:59.493459  6537 net.cpp:148] Top shape: 24 320 7 7 (376320)
I0403 18:03:59.493474  6537 net.cpp:156] Memory required for data: 1297544736
I0403 18:03:59.493494  6537 layer_factory.hpp:77] Creating layer inception_5a/relu_3x3
I0403 18:03:59.493515  6537 net.cpp:91] Creating Layer inception_5a/relu_3x3
I0403 18:03:59.493531  6537 net.cpp:425] inception_5a/relu_3x3 <- inception_5a/3x3
I0403 18:03:59.493549  6537 net.cpp:386] inception_5a/relu_3x3 -> inception_5a/3x3 (in-place)
I0403 18:03:59.493854  6537 net.cpp:141] Setting up inception_5a/relu_3x3
I0403 18:03:59.493880  6537 net.cpp:148] Top shape: 24 320 7 7 (376320)
I0403 18:03:59.493896  6537 net.cpp:156] Memory required for data: 1299050016
I0403 18:03:59.493911  6537 layer_factory.hpp:77] Creating layer inception_5a/5x5_reduce
I0403 18:03:59.493933  6537 net.cpp:91] Creating Layer inception_5a/5x5_reduce
I0403 18:03:59.493952  6537 net.cpp:425] inception_5a/5x5_reduce <- pool4/3x3_s2_pool4/3x3_s2_0_split_2
I0403 18:03:59.493973  6537 net.cpp:399] inception_5a/5x5_reduce -> inception_5a/5x5_reduce
I0403 18:03:59.495172  6537 net.cpp:141] Setting up inception_5a/5x5_reduce
I0403 18:03:59.495201  6537 net.cpp:148] Top shape: 24 32 7 7 (37632)
I0403 18:03:59.495221  6537 net.cpp:156] Memory required for data: 1299200544
I0403 18:03:59.495242  6537 layer_factory.hpp:77] Creating layer inception_5a/relu_5x5_reduce
I0403 18:03:59.495262  6537 net.cpp:91] Creating Layer inception_5a/relu_5x5_reduce
I0403 18:03:59.495280  6537 net.cpp:425] inception_5a/relu_5x5_reduce <- inception_5a/5x5_reduce
I0403 18:03:59.495298  6537 net.cpp:386] inception_5a/relu_5x5_reduce -> inception_5a/5x5_reduce (in-place)
I0403 18:03:59.495607  6537 net.cpp:141] Setting up inception_5a/relu_5x5_reduce
I0403 18:03:59.495633  6537 net.cpp:148] Top shape: 24 32 7 7 (37632)
I0403 18:03:59.495648  6537 net.cpp:156] Memory required for data: 1299351072
I0403 18:03:59.495664  6537 layer_factory.hpp:77] Creating layer inception_5a/5x5
I0403 18:03:59.495687  6537 net.cpp:91] Creating Layer inception_5a/5x5
I0403 18:03:59.495707  6537 net.cpp:425] inception_5a/5x5 <- inception_5a/5x5_reduce
I0403 18:03:59.495726  6537 net.cpp:399] inception_5a/5x5 -> inception_5a/5x5
I0403 18:03:59.497478  6537 net.cpp:141] Setting up inception_5a/5x5
I0403 18:03:59.497517  6537 net.cpp:148] Top shape: 24 128 7 7 (150528)
I0403 18:03:59.497534  6537 net.cpp:156] Memory required for data: 1299953184
I0403 18:03:59.497552  6537 layer_factory.hpp:77] Creating layer inception_5a/relu_5x5
I0403 18:03:59.497573  6537 net.cpp:91] Creating Layer inception_5a/relu_5x5
I0403 18:03:59.497591  6537 net.cpp:425] inception_5a/relu_5x5 <- inception_5a/5x5
I0403 18:03:59.497608  6537 net.cpp:386] inception_5a/relu_5x5 -> inception_5a/5x5 (in-place)
I0403 18:03:59.497800  6537 net.cpp:141] Setting up inception_5a/relu_5x5
I0403 18:03:59.497825  6537 net.cpp:148] Top shape: 24 128 7 7 (150528)
I0403 18:03:59.497840  6537 net.cpp:156] Memory required for data: 1300555296
I0403 18:03:59.497855  6537 layer_factory.hpp:77] Creating layer inception_5a/pool
I0403 18:03:59.497876  6537 net.cpp:91] Creating Layer inception_5a/pool
I0403 18:03:59.497894  6537 net.cpp:425] inception_5a/pool <- pool4/3x3_s2_pool4/3x3_s2_0_split_3
I0403 18:03:59.497913  6537 net.cpp:399] inception_5a/pool -> inception_5a/pool
I0403 18:03:59.497985  6537 net.cpp:141] Setting up inception_5a/pool
I0403 18:03:59.498009  6537 net.cpp:148] Top shape: 24 832 7 7 (978432)
I0403 18:03:59.498024  6537 net.cpp:156] Memory required for data: 1304469024
I0403 18:03:59.498039  6537 layer_factory.hpp:77] Creating layer inception_5a/pool_proj
I0403 18:03:59.498061  6537 net.cpp:91] Creating Layer inception_5a/pool_proj
I0403 18:03:59.498080  6537 net.cpp:425] inception_5a/pool_proj <- inception_5a/pool
I0403 18:03:59.498100  6537 net.cpp:399] inception_5a/pool_proj -> inception_5a/pool_proj
I0403 18:03:59.500429  6537 net.cpp:141] Setting up inception_5a/pool_proj
I0403 18:03:59.500459  6537 net.cpp:148] Top shape: 24 128 7 7 (150528)
I0403 18:03:59.500474  6537 net.cpp:156] Memory required for data: 1305071136
I0403 18:03:59.500494  6537 layer_factory.hpp:77] Creating layer inception_5a/relu_pool_proj
I0403 18:03:59.500512  6537 net.cpp:91] Creating Layer inception_5a/relu_pool_proj
I0403 18:03:59.500529  6537 net.cpp:425] inception_5a/relu_pool_proj <- inception_5a/pool_proj
I0403 18:03:59.500547  6537 net.cpp:386] inception_5a/relu_pool_proj -> inception_5a/pool_proj (in-place)
I0403 18:03:59.500844  6537 net.cpp:141] Setting up inception_5a/relu_pool_proj
I0403 18:03:59.500869  6537 net.cpp:148] Top shape: 24 128 7 7 (150528)
I0403 18:03:59.500885  6537 net.cpp:156] Memory required for data: 1305673248
I0403 18:03:59.500900  6537 layer_factory.hpp:77] Creating layer inception_5a/output
I0403 18:03:59.500917  6537 net.cpp:91] Creating Layer inception_5a/output
I0403 18:03:59.500933  6537 net.cpp:425] inception_5a/output <- inception_5a/1x1
I0403 18:03:59.500951  6537 net.cpp:425] inception_5a/output <- inception_5a/3x3
I0403 18:03:59.500967  6537 net.cpp:425] inception_5a/output <- inception_5a/5x5
I0403 18:03:59.500982  6537 net.cpp:425] inception_5a/output <- inception_5a/pool_proj
I0403 18:03:59.501003  6537 net.cpp:399] inception_5a/output -> inception_5a/output
I0403 18:03:59.501052  6537 net.cpp:141] Setting up inception_5a/output
I0403 18:03:59.501080  6537 net.cpp:148] Top shape: 24 832 7 7 (978432)
I0403 18:03:59.501094  6537 net.cpp:156] Memory required for data: 1309586976
I0403 18:03:59.501109  6537 layer_factory.hpp:77] Creating layer inception_5a/output_inception_5a/output_0_split
I0403 18:03:59.501127  6537 net.cpp:91] Creating Layer inception_5a/output_inception_5a/output_0_split
I0403 18:03:59.501143  6537 net.cpp:425] inception_5a/output_inception_5a/output_0_split <- inception_5a/output
I0403 18:03:59.501160  6537 net.cpp:399] inception_5a/output_inception_5a/output_0_split -> inception_5a/output_inception_5a/output_0_split_0
I0403 18:03:59.501181  6537 net.cpp:399] inception_5a/output_inception_5a/output_0_split -> inception_5a/output_inception_5a/output_0_split_1
I0403 18:03:59.501205  6537 net.cpp:399] inception_5a/output_inception_5a/output_0_split -> inception_5a/output_inception_5a/output_0_split_2
I0403 18:03:59.501233  6537 net.cpp:399] inception_5a/output_inception_5a/output_0_split -> inception_5a/output_inception_5a/output_0_split_3
I0403 18:03:59.501349  6537 net.cpp:141] Setting up inception_5a/output_inception_5a/output_0_split
I0403 18:03:59.501374  6537 net.cpp:148] Top shape: 24 832 7 7 (978432)
I0403 18:03:59.501390  6537 net.cpp:148] Top shape: 24 832 7 7 (978432)
I0403 18:03:59.501407  6537 net.cpp:148] Top shape: 24 832 7 7 (978432)
I0403 18:03:59.501422  6537 net.cpp:148] Top shape: 24 832 7 7 (978432)
I0403 18:03:59.501437  6537 net.cpp:156] Memory required for data: 1325241888
I0403 18:03:59.501451  6537 layer_factory.hpp:77] Creating layer inception_5b/1x1
I0403 18:03:59.501474  6537 net.cpp:91] Creating Layer inception_5b/1x1
I0403 18:03:59.501492  6537 net.cpp:425] inception_5b/1x1 <- inception_5a/output_inception_5a/output_0_split_0
I0403 18:03:59.501516  6537 net.cpp:399] inception_5b/1x1 -> inception_5b/1x1
I0403 18:03:59.505331  6537 net.cpp:141] Setting up inception_5b/1x1
I0403 18:03:59.505362  6537 net.cpp:148] Top shape: 24 384 7 7 (451584)
I0403 18:03:59.505379  6537 net.cpp:156] Memory required for data: 1327048224
I0403 18:03:59.505398  6537 layer_factory.hpp:77] Creating layer inception_5b/relu_1x1
I0403 18:03:59.505416  6537 net.cpp:91] Creating Layer inception_5b/relu_1x1
I0403 18:03:59.505432  6537 net.cpp:425] inception_5b/relu_1x1 <- inception_5b/1x1
I0403 18:03:59.505453  6537 net.cpp:386] inception_5b/relu_1x1 -> inception_5b/1x1 (in-place)
I0403 18:03:59.505760  6537 net.cpp:141] Setting up inception_5b/relu_1x1
I0403 18:03:59.505789  6537 net.cpp:148] Top shape: 24 384 7 7 (451584)
I0403 18:03:59.505805  6537 net.cpp:156] Memory required for data: 1328854560
I0403 18:03:59.505820  6537 layer_factory.hpp:77] Creating layer inception_5b/3x3_reduce
I0403 18:03:59.505842  6537 net.cpp:91] Creating Layer inception_5b/3x3_reduce
I0403 18:03:59.505861  6537 net.cpp:425] inception_5b/3x3_reduce <- inception_5a/output_inception_5a/output_0_split_1
I0403 18:03:59.505882  6537 net.cpp:399] inception_5b/3x3_reduce -> inception_5b/3x3_reduce
I0403 18:03:59.508602  6537 net.cpp:141] Setting up inception_5b/3x3_reduce
I0403 18:03:59.508631  6537 net.cpp:148] Top shape: 24 192 7 7 (225792)
I0403 18:03:59.508646  6537 net.cpp:156] Memory required for data: 1329757728
I0403 18:03:59.508666  6537 layer_factory.hpp:77] Creating layer inception_5b/relu_3x3_reduce
I0403 18:03:59.508684  6537 net.cpp:91] Creating Layer inception_5b/relu_3x3_reduce
I0403 18:03:59.508700  6537 net.cpp:425] inception_5b/relu_3x3_reduce <- inception_5b/3x3_reduce
I0403 18:03:59.508721  6537 net.cpp:386] inception_5b/relu_3x3_reduce -> inception_5b/3x3_reduce (in-place)
I0403 18:03:59.508913  6537 net.cpp:141] Setting up inception_5b/relu_3x3_reduce
I0403 18:03:59.508937  6537 net.cpp:148] Top shape: 24 192 7 7 (225792)
I0403 18:03:59.508952  6537 net.cpp:156] Memory required for data: 1330660896
I0403 18:03:59.508970  6537 layer_factory.hpp:77] Creating layer inception_5b/3x3
I0403 18:03:59.508992  6537 net.cpp:91] Creating Layer inception_5b/3x3
I0403 18:03:59.509011  6537 net.cpp:425] inception_5b/3x3 <- inception_5b/3x3_reduce
I0403 18:03:59.509032  6537 net.cpp:399] inception_5b/3x3 -> inception_5b/3x3
I0403 18:03:59.515858  6537 net.cpp:141] Setting up inception_5b/3x3
I0403 18:03:59.515889  6537 net.cpp:148] Top shape: 24 384 7 7 (451584)
I0403 18:03:59.515905  6537 net.cpp:156] Memory required for data: 1332467232
I0403 18:03:59.515923  6537 layer_factory.hpp:77] Creating layer inception_5b/relu_3x3
I0403 18:03:59.515941  6537 net.cpp:91] Creating Layer inception_5b/relu_3x3
I0403 18:03:59.515957  6537 net.cpp:425] inception_5b/relu_3x3 <- inception_5b/3x3
I0403 18:03:59.515977  6537 net.cpp:386] inception_5b/relu_3x3 -> inception_5b/3x3 (in-place)
I0403 18:03:59.516281  6537 net.cpp:141] Setting up inception_5b/relu_3x3
I0403 18:03:59.516307  6537 net.cpp:148] Top shape: 24 384 7 7 (451584)
I0403 18:03:59.516321  6537 net.cpp:156] Memory required for data: 1334273568
I0403 18:03:59.516336  6537 layer_factory.hpp:77] Creating layer inception_5b/5x5_reduce
I0403 18:03:59.516376  6537 net.cpp:91] Creating Layer inception_5b/5x5_reduce
I0403 18:03:59.516396  6537 net.cpp:425] inception_5b/5x5_reduce <- inception_5a/output_inception_5a/output_0_split_2
I0403 18:03:59.516418  6537 net.cpp:399] inception_5b/5x5_reduce -> inception_5b/5x5_reduce
I0403 18:03:59.517679  6537 net.cpp:141] Setting up inception_5b/5x5_reduce
I0403 18:03:59.517706  6537 net.cpp:148] Top shape: 24 48 7 7 (56448)
I0403 18:03:59.517721  6537 net.cpp:156] Memory required for data: 1334499360
I0403 18:03:59.517740  6537 layer_factory.hpp:77] Creating layer inception_5b/relu_5x5_reduce
I0403 18:03:59.517757  6537 net.cpp:91] Creating Layer inception_5b/relu_5x5_reduce
I0403 18:03:59.517776  6537 net.cpp:425] inception_5b/relu_5x5_reduce <- inception_5b/5x5_reduce
I0403 18:03:59.517794  6537 net.cpp:386] inception_5b/relu_5x5_reduce -> inception_5b/5x5_reduce (in-place)
I0403 18:03:59.518170  6537 net.cpp:141] Setting up inception_5b/relu_5x5_reduce
I0403 18:03:59.518196  6537 net.cpp:148] Top shape: 24 48 7 7 (56448)
I0403 18:03:59.518216  6537 net.cpp:156] Memory required for data: 1334725152
I0403 18:03:59.518232  6537 layer_factory.hpp:77] Creating layer inception_5b/5x5
I0403 18:03:59.518252  6537 net.cpp:91] Creating Layer inception_5b/5x5
I0403 18:03:59.518270  6537 net.cpp:425] inception_5b/5x5 <- inception_5b/5x5_reduce
I0403 18:03:59.518290  6537 net.cpp:399] inception_5b/5x5 -> inception_5b/5x5
I0403 18:03:59.520321  6537 net.cpp:141] Setting up inception_5b/5x5
I0403 18:03:59.520349  6537 net.cpp:148] Top shape: 24 128 7 7 (150528)
I0403 18:03:59.520364  6537 net.cpp:156] Memory required for data: 1335327264
I0403 18:03:59.520383  6537 layer_factory.hpp:77] Creating layer inception_5b/relu_5x5
I0403 18:03:59.520403  6537 net.cpp:91] Creating Layer inception_5b/relu_5x5
I0403 18:03:59.520421  6537 net.cpp:425] inception_5b/relu_5x5 <- inception_5b/5x5
I0403 18:03:59.520439  6537 net.cpp:386] inception_5b/relu_5x5 -> inception_5b/5x5 (in-place)
I0403 18:03:59.520632  6537 net.cpp:141] Setting up inception_5b/relu_5x5
I0403 18:03:59.520658  6537 net.cpp:148] Top shape: 24 128 7 7 (150528)
I0403 18:03:59.520673  6537 net.cpp:156] Memory required for data: 1335929376
I0403 18:03:59.520689  6537 layer_factory.hpp:77] Creating layer inception_5b/pool
I0403 18:03:59.520705  6537 net.cpp:91] Creating Layer inception_5b/pool
I0403 18:03:59.520721  6537 net.cpp:425] inception_5b/pool <- inception_5a/output_inception_5a/output_0_split_3
I0403 18:03:59.520740  6537 net.cpp:399] inception_5b/pool -> inception_5b/pool
I0403 18:03:59.520813  6537 net.cpp:141] Setting up inception_5b/pool
I0403 18:03:59.520836  6537 net.cpp:148] Top shape: 24 832 7 7 (978432)
I0403 18:03:59.520850  6537 net.cpp:156] Memory required for data: 1339843104
I0403 18:03:59.520864  6537 layer_factory.hpp:77] Creating layer inception_5b/pool_proj
I0403 18:03:59.520887  6537 net.cpp:91] Creating Layer inception_5b/pool_proj
I0403 18:03:59.520905  6537 net.cpp:425] inception_5b/pool_proj <- inception_5b/pool
I0403 18:03:59.520926  6537 net.cpp:399] inception_5b/pool_proj -> inception_5b/pool_proj
I0403 18:03:59.523365  6537 net.cpp:141] Setting up inception_5b/pool_proj
I0403 18:03:59.523396  6537 net.cpp:148] Top shape: 24 128 7 7 (150528)
I0403 18:03:59.523411  6537 net.cpp:156] Memory required for data: 1340445216
I0403 18:03:59.523430  6537 layer_factory.hpp:77] Creating layer inception_5b/relu_pool_proj
I0403 18:03:59.523452  6537 net.cpp:91] Creating Layer inception_5b/relu_pool_proj
I0403 18:03:59.523469  6537 net.cpp:425] inception_5b/relu_pool_proj <- inception_5b/pool_proj
I0403 18:03:59.523488  6537 net.cpp:386] inception_5b/relu_pool_proj -> inception_5b/pool_proj (in-place)
I0403 18:03:59.523797  6537 net.cpp:141] Setting up inception_5b/relu_pool_proj
I0403 18:03:59.523823  6537 net.cpp:148] Top shape: 24 128 7 7 (150528)
I0403 18:03:59.523838  6537 net.cpp:156] Memory required for data: 1341047328
I0403 18:03:59.523854  6537 layer_factory.hpp:77] Creating layer inception_5b/output
I0403 18:03:59.523872  6537 net.cpp:91] Creating Layer inception_5b/output
I0403 18:03:59.523903  6537 net.cpp:425] inception_5b/output <- inception_5b/1x1
I0403 18:03:59.523921  6537 net.cpp:425] inception_5b/output <- inception_5b/3x3
I0403 18:03:59.523938  6537 net.cpp:425] inception_5b/output <- inception_5b/5x5
I0403 18:03:59.523955  6537 net.cpp:425] inception_5b/output <- inception_5b/pool_proj
I0403 18:03:59.523975  6537 net.cpp:399] inception_5b/output -> inception_5b/output
I0403 18:03:59.524029  6537 net.cpp:141] Setting up inception_5b/output
I0403 18:03:59.524055  6537 net.cpp:148] Top shape: 24 1024 7 7 (1204224)
I0403 18:03:59.524070  6537 net.cpp:156] Memory required for data: 1345864224
I0403 18:03:59.524085  6537 layer_factory.hpp:77] Creating layer pool5/7x7_s1
I0403 18:03:59.524102  6537 net.cpp:91] Creating Layer pool5/7x7_s1
I0403 18:03:59.524118  6537 net.cpp:425] pool5/7x7_s1 <- inception_5b/output
I0403 18:03:59.524140  6537 net.cpp:399] pool5/7x7_s1 -> pool5/7x7_s1
I0403 18:03:59.524366  6537 net.cpp:141] Setting up pool5/7x7_s1
I0403 18:03:59.524392  6537 net.cpp:148] Top shape: 24 1024 1 1 (24576)
I0403 18:03:59.524408  6537 net.cpp:156] Memory required for data: 1345962528
I0403 18:03:59.524423  6537 layer_factory.hpp:77] Creating layer pool5/drop_7x7_s1
I0403 18:03:59.524456  6537 net.cpp:91] Creating Layer pool5/drop_7x7_s1
I0403 18:03:59.524474  6537 net.cpp:425] pool5/drop_7x7_s1 <- pool5/7x7_s1
I0403 18:03:59.524492  6537 net.cpp:386] pool5/drop_7x7_s1 -> pool5/7x7_s1 (in-place)
I0403 18:03:59.524544  6537 net.cpp:141] Setting up pool5/drop_7x7_s1
I0403 18:03:59.524569  6537 net.cpp:148] Top shape: 24 1024 1 1 (24576)
I0403 18:03:59.524585  6537 net.cpp:156] Memory required for data: 1346060832
I0403 18:03:59.524601  6537 layer_factory.hpp:77] Creating layer loss3/classifier_plantvillage
I0403 18:03:59.524622  6537 net.cpp:91] Creating Layer loss3/classifier_plantvillage
I0403 18:03:59.524639  6537 net.cpp:425] loss3/classifier_plantvillage <- pool5/7x7_s1
I0403 18:03:59.524662  6537 net.cpp:399] loss3/classifier_plantvillage -> loss3/classifier_plantvillage
I0403 18:03:59.525107  6537 net.cpp:141] Setting up loss3/classifier_plantvillage
I0403 18:03:59.525133  6537 net.cpp:148] Top shape: 24 38 (912)
I0403 18:03:59.525148  6537 net.cpp:156] Memory required for data: 1346064480
I0403 18:03:59.525168  6537 layer_factory.hpp:77] Creating layer loss3/classifier_plantvillage_loss3/classifier_plantvillage_0_split
I0403 18:03:59.525187  6537 net.cpp:91] Creating Layer loss3/classifier_plantvillage_loss3/classifier_plantvillage_0_split
I0403 18:03:59.525205  6537 net.cpp:425] loss3/classifier_plantvillage_loss3/classifier_plantvillage_0_split <- loss3/classifier_plantvillage
I0403 18:03:59.525230  6537 net.cpp:399] loss3/classifier_plantvillage_loss3/classifier_plantvillage_0_split -> loss3/classifier_plantvillage_loss3/classifier_plantvillage_0_split_0
I0403 18:03:59.525256  6537 net.cpp:399] loss3/classifier_plantvillage_loss3/classifier_plantvillage_0_split -> loss3/classifier_plantvillage_loss3/classifier_plantvillage_0_split_1
I0403 18:03:59.525279  6537 net.cpp:399] loss3/classifier_plantvillage_loss3/classifier_plantvillage_0_split -> loss3/classifier_plantvillage_loss3/classifier_plantvillage_0_split_2
I0403 18:03:59.525303  6537 net.cpp:399] loss3/classifier_plantvillage_loss3/classifier_plantvillage_0_split -> loss3/classifier_plantvillage_loss3/classifier_plantvillage_0_split_3
I0403 18:03:59.525415  6537 net.cpp:141] Setting up loss3/classifier_plantvillage_loss3/classifier_plantvillage_0_split
I0403 18:03:59.525439  6537 net.cpp:148] Top shape: 24 38 (912)
I0403 18:03:59.525457  6537 net.cpp:148] Top shape: 24 38 (912)
I0403 18:03:59.525475  6537 net.cpp:148] Top shape: 24 38 (912)
I0403 18:03:59.525490  6537 net.cpp:148] Top shape: 24 38 (912)
I0403 18:03:59.525504  6537 net.cpp:156] Memory required for data: 1346079072
I0403 18:03:59.525521  6537 layer_factory.hpp:77] Creating layer loss1/loss
I0403 18:03:59.525544  6537 net.cpp:91] Creating Layer loss1/loss
I0403 18:03:59.525563  6537 net.cpp:425] loss1/loss <- loss1/classifier_plantvillage_loss1/classifier_plantvillage_0_split_0
I0403 18:03:59.525595  6537 net.cpp:425] loss1/loss <- label_data_1_split_0
…
