…
I0403 18:25:07.511966  6939 net.cpp:313] The NetState phase (1) differed from the phase (0) specified by a rule in layer data
I0403 18:25:07.513077  6939 net.cpp:49] Initializing net from parameters: 
state {
  phase: TEST
}
layer {
  name: "data"
  type: "Data"
  top: "data"
  top: "label"
  include {
    phase: TEST
  }
  transform_param {
    mirror: false
    crop_size: 224
    mean_file: "/home/mohanty/data/final_dataset/lmdb/segmented-50-50/mean.binaryproto"
  }
  data_param {
    source: "/home/mohanty/data/final_dataset/lmdb/segmented-50-50/test_db"
    batch_size: 24
    backend: LMDB
  }
}
layer {
  name: "conv1/7x7_s2"
  type: "Convolution"
  bottom: "data"
  top: "conv1/7x7_s2"
  param {
    lr_mult: 1
    decay_mult: 1
  }
  param {
    lr_mult: 2
    decay_mult: 0
  }
  convolution_param {
    num_output: 64
    pad: 3
    kernel_size: 7
    stride: 2
    weight_filler {
      type: "xavier"
      std: 0.1
    }
    bias_filler {
      type: "constant"
      value: 0.2
    }
  }
}
layer {
  name: "conv1/relu_7x7"
  type: "ReLU"
  bottom: "conv1/7x7_s2"
  top: "conv1/7x7_s2"
}
layer {
  name: "pool1/3x3_s2"
  type: "Pooling"
  bottom: "conv1/7x7_s2"
  top: "pool1/3x3_s2"
  pooling_param {
    pool: MAX
    kernel_size: 3
    stride: 2
  }
}
layer {
  name: "pool1/norm1"
  type: "LRN"
  bottom: "pool1/3x3_s2"
  top: "pool1/norm1"
  lrn_param {
    local_size: 5
    alpha: 0.0001
    beta: 0.75
  }
}
layer {
  name: "conv2/3x3_reduce"
  type: "Convolution"
  bottom: "pool1/norm1"
  top: "conv2/3x3_reduce"
  param {
    lr_mult: 1
    decay_mult: 1
  }
  param {
    lr_mult: 2
    decay_mult: 0
  }
  convolution_param {
    num_output: 64
    kernel_size: 1
    weight_filler {
      type: "xavier"
      std: 0.1
    }
    bias_filler {
      type: "constant"
      value: 0.2
    }
  }
}
layer {
  name: "conv2/relu_3x3_reduce"
  type: "ReLU"
  bottom: "conv2/3x3_reduce"
  top: "conv2/3x3_reduce"
}
layer {
  name: "conv2/3x3"
  type: "Convolution"
  bottom: "conv2/3x3_reduce"
  top: "conv2/3x3"
  param {
    lr_mult: 1
    decay_mult: 1
  }
  param {
    lr_mult: 2
    decay_mult: 0
  }
  convolution_param {
    num_output: 192
    pad: 1
    kernel_size: 3
    weight_filler {
      type: "xavier"
      std: 0.03
    }
    bias_filler {
      type: "constant"
      value: 0.2
    }
  }
}
layer {
  name: "conv2/relu_3x3"
  type: "ReLU"
  bottom: "conv2/3x3"
  top: "conv2/3x3"
}
layer {
  name: "conv2/norm2"
  type: "LRN"
  bottom: "conv2/3x3"
  top: "conv2/norm2"
  lrn_param {
    local_size: 5
    alpha: 0.0001
    beta: 0.75
  }
}
layer {
  name: "pool2/3x3_s2"
  type: "Pooling"
  bottom: "conv2/norm2"
  top: "pool2/3x3_s2"
  pooling_param {
    pool: MAX
    kernel_size: 3
    stride: 2
  }
}
layer {
  name: "inception_3a/1x1"
  type: "Convolution"
  bottom: "pool2/3x3_s2"
  top: "inception_3a/1x1"
  param {
    lr_mult: 1
    decay_mult: 1
  }
  param {
    lr_mult: 2
    decay_mult: 0
  }
  convolution_param {
    num_output: 64
    kernel_size: 1
    weight_filler {
      type: "xavier"
      std: 0.03
    }
    bias_filler {
      type: "constant"
      value: 0.2
    }
  }
}
layer {
  name: "inception_3a/relu_1x1"
  type: "ReLU"
  bottom: "inception_3a/1x1"
  top: "inception_3a/1x1"
}
layer {
  name: "inception_3a/3x3_reduce"
  type: "Convolution"
  bottom: "pool2/3x3_s2"
  top: "inception_3a/3x3_reduce"
  param {
    lr_mult: 1
    decay_mult: 1
  }
  param {
    lr_mult: 2
    decay_mult: 0
  }
  convolution_param {
    num_output: 96
    kernel_size: 1
    weight_filler {
      type: "xavier"
      std: 0.09
    }
    bias_filler {
      type: "constant"
      value: 0.2
    }
  }
}
layer {
  name: "inception_3a/relu_3x3_reduce"
  type: "ReLU"
  bottom: "inception_3a/3x3_reduce"
  top: "inception_3a/3x3_reduce"
}
layer {
  name: "inception_3a/3x3"
  type: "Convolution"
  bottom: "inception_3a/3x3_reduce"
  top: "inception_3a/3x3"
  param {
    lr_mult: 1
    decay_mult: 1
  }
  param {
    lr_mult: 2
    decay_mult: 0
  }
  convolution_param {
    num_output: 128
    pad: 1
    kernel_size: 3
    weight_filler {
      type: "xavier"
      std: 0.03
    }
    bias_filler {
      type: "constant"
      value: 0.2
    }
  }
}
layer {
  name: "inception_3a/relu_3x3"
  type: "ReLU"
  bottom: "inception_3a/3x3"
  top: "inception_3a/3x3"
}
layer {
  name: "inception_3a/5x5_reduce"
  type: "Convolution"
  bottom: "pool2/3x3_s2"
  top: "inception_3a/5x5_reduce"
  param {
    lr_mult: 1
    decay_mult: 1
  }
  param {
    lr_mult: 2
    decay_mult: 0
  }
  convolution_param {
    num_output: 16
    kernel_size: 1
    weight_filler {
      type: "xavier"
      std: 0.2
    }
    bias_filler {
      type: "constant"
      value: 0.2
    }
  }
}
layer {
  name: "inception_3a/relu_5x5_reduce"
  type: "ReLU"
  bottom: "inception_3a/5x5_reduce"
  top: "inception_3a/5x5_reduce"
}
layer {
  name: "inception_3a/5x5"
  type: "Convolution"
  bottom: "inception_3a/5x5_reduce"
  top: "inception_3a/5x5"
  param {
    lr_mult: 1
    decay_mult: 1
  }
  param {
    lr_mult: 2
    decay_mult: 0
  }
  convolution_param {
    num_output: 32
    pad: 2
    kernel_size: 5
    weight_filler {
      type: "xavier"
      std: 0.03
    }
    bias_filler {
      type: "constant"
      value: 0.2
    }
  }
}
layer {
  name: "inception_3a/relu_5x5"
  type: "ReLU"
  bottom: "inception_3a/5x5"
  top: "inception_3a/5x5"
}
layer {
  name: "inception_3a/pool"
  type: "Pooling"
  bottom: "pool2/3x3_s2"
  top: "inception_3a/pool"
  pooling_param {
    pool: MAX
    kernel_size: 3
    stride: 1
    pad: 1
  }
}
layer {
  name: "inception_3a/pool_proj"
  type: "Convolution"
  bottom: "inception_3a/pool"
  top: "inception_3a/pool_proj"
  param {
    lr_mult: 1
    decay_mult: 1
  }
  param {
    lr_mult: 2
    decay_mult: 0
  }
  convolution_param {
    num_output: 32
    kernel_size: 1
    weight_filler {
      type: "xavier"
      std: 0.1
    }
    bias_filler {
      type: "constant"
      value: 0.2
    }
  }
}
layer {
  name: "inception_3a/relu_pool_proj"
  type: "ReLU"
  bottom: "inception_3a/pool_proj"
  top: "inception_3a/pool_proj"
}
layer {
  name: "inception_3a/output"
  type: "Concat"
  bottom: "inception_3a/1x1"
  bottom: "inception_3a/3x3"
  bottom: "inception_3a/5x5"
  bottom: "inception_3a/pool_proj"
  top: "inception_3a/output"
}
layer {
  name: "inception_3b/1x1"
  type: "Convolution"
  bottom: "inception_3a/output"
  top: "inception_3b/1x1"
  param {
    lr_mult: 1
    decay_mult: 1
  }
  param {
    lr_mult: 2
    decay_mult: 0
  }
  convolution_param {
    num_output: 128
    kernel_size: 1
    weight_filler {
      type: "xavier"
      std: 0.03
    }
    bias_filler {
      type: "constant"
      value: 0.2
    }
  }
}
layer {
  name: "inception_3b/relu_1x1"
  type: "ReLU"
  bottom: "inception_3b/1x1"
  top: "inception_3b/1x1"
}
layer {
  name: "inception_3b/3x3_reduce"
  type: "Convolution"
  bottom: "inception_3a/output"
  top: "inception_3b/3x3_reduce"
  param {
    lr_mult: 1
    decay_mult: 1
  }
  param {
    lr_mult: 2
    decay_mult: 0
  }
  convolution_param {
    num_output: 128
    kernel_size: 1
    weight_filler {
      type: "xavier"
      std: 0.09
    }
    bias_filler {
      type: "constant"
      value: 0.2
    }
  }
}
layer {
  name: "inception_3b/relu_3x3_reduce"
  type: "ReLU"
  bottom: "inception_3b/3x3_reduce"
  top: "inception_3b/3x3_reduce"
}
layer {
  name: "inception_3b/3x3"
  type: "Convolution"
  bottom: "inception_3b/3x3_reduce"
  top: "inception_3b/3x3"
  param {
    lr_mult: 1
    decay_mult: 1
  }
  param {
    lr_mult: 2
    decay_mult: 0
  }
  convolution_param {
    num_output: 192
    pad: 1
    kernel_size: 3
    weight_filler {
      type: "xavier"
      std: 0.03
    }
    bias_filler {
      type: "constant"
      value: 0.2
    }
  }
}
layer {
  name: "inception_3b/relu_3x3"
  type: "ReLU"
  bottom: "inception_3b/3x3"
  top: "inception_3b/3x3"
}
layer {
  name: "inception_3b/5x5_reduce"
  type: "Convolution"
  bottom: "inception_3a/output"
  top: "inception_3b/5x5_reduce"
  param {
    lr_mult: 1
    decay_mult: 1
  }
  param {
    lr_mult: 2
    decay_mult: 0
  }
  convolution_param {
    num_output: 32
    kernel_size: 1
    weight_filler {
      type: "xavier"
      std: 0.2
    }
    bias_filler {
      type: "constant"
      value: 0.2
    }
  }
}
layer {
  name: "inception_3b/relu_5x5_reduce"
  type: "ReLU"
  bottom: "inception_3b/5x5_reduce"
  top: "inception_3b/5x5_reduce"
}
layer {
  name: "inception_3b/5x5"
  type: "Convolution"
  bottom: "inception_3b/5x5_reduce"
  top: "inception_3b/5x5"
  param {
    lr_mult: 1
    decay_mult: 1
  }
  param {
    lr_mult: 2
    decay_mult: 0
  }
  convolution_param {
    num_output: 96
    pad: 2
    kernel_size: 5
    weight_filler {
      type: "xavier"
      std: 0.03
    }
    bias_filler {
      type: "constant"
      value: 0.2
    }
  }
}
layer {
  name: "inception_3b/relu_5x5"
  type: "ReLU"
  bottom: "inception_3b/5x5"
  top: "inception_3b/5x5"
}
layer {
  name: "inception_3b/pool"
  type: "Pooling"
  bottom: "inception_3a/output"
  top: "inception_3b/pool"
  pooling_param {
    pool: MAX
    kernel_size: 3
    stride: 1
    pad: 1
  }
}
layer {
  name: "inception_3b/pool_proj"
  type: "Convolution"
  bottom: "inception_3b/pool"
  top: "inception_3b/pool_proj"
  param {
    lr_mult: 1
    decay_mult: 1
  }
  param {
    lr_mult: 2
    decay_mult: 0
  }
  convolution_param {
    num_output: 64
    kernel_size: 1
    weight_filler {
      type: "xavier"
      std: 0.1
    }
    bias_filler {
      type: "constant"
      value: 0.2
    }
  }
}
layer {
  name: "inception_3b/relu_pool_proj"
  type: "ReLU"
  bottom: "inception_3b/pool_proj"
  top: "inception_3b/pool_proj"
}
layer {
  name: "inception_3b/output"
  type: "Concat"
  bottom: "inception_3b/1x1"
  bottom: "inception_3b/3x3"
  bottom: "inception_3b/5x5"
  bottom: "inception_3b/pool_proj"
  top: "inception_3b/output"
}
layer {
  name: "pool3/3x3_s2"
  type: "Pooling"
  bottom: "inception_3b/output"
  top: "pool3/3x3_s2"
  pooling_param {
    pool: MAX
    kernel_size: 3
    stride: 2
  }
}
layer {
  name: "inception_4a/1x1"
  type: "Convolution"
  bottom: "pool3/3x3_s2"
  top: "inception_4a/1x1"
  param {
    lr_mult: 1
    decay_mult: 1
  }
  param {
    lr_mult: 2
    decay_mult: 0
  }
  convolution_param {
    num_output: 192
    kernel_size: 1
    weight_filler {
      type: "xavier"
      std: 0.03
    }
    bias_filler {
      type: "constant"
      value: 0.2
    }
  }
}
layer {
  name: "inception_4a/relu_1x1"
  type: "ReLU"
  bottom: "inception_4a/1x1"
  top: "inception_4a/1x1"
}
layer {
  name: "inception_4a/3x3_reduce"
  type: "Convolution"
  bottom: "pool3/3x3_s2"
  top: "inception_4a/3x3_reduce"
  param {
    lr_mult: 1
    decay_mult: 1
  }
  param {
    lr_mult: 2
    decay_mult: 0
  }
  convolution_param {
    num_output: 96
    kernel_size: 1
    weight_filler {
      type: "xavier"
      std: 0.09
    }
    bias_filler {
      type: "constant"
      value: 0.2
    }
  }
}
layer {
  name: "inception_4a/relu_3x3_reduce"
  type: "ReLU"
  bottom: "inception_4a/3x3_reduce"
  top: "inception_4a/3x3_reduce"
}
layer {
  name: "inception_4a/3x3"
  type: "Convolution"
  bottom: "inception_4a/3x3_reduce"
  top: "inception_4a/3x3"
  param {
    lr_mult: 1
    decay_mult: 1
  }
  param {
    lr_mult: 2
    decay_mult: 0
  }
  convolution_param {
    num_output: 208
    pad: 1
    kernel_size: 3
    weight_filler {
      type: "xavier"
      std: 0.03
    }
    bias_filler {
      type: "constant"
      value: 0.2
    }
  }
}
layer {
  name: "inception_4a/relu_3x3"
  type: "ReLU"
  bottom: "inception_4a/3x3"
  top: "inception_4a/3x3"
}
layer {
  name: "inception_4a/5x5_reduce"
  type: "Convolution"
  bottom: "pool3/3x3_s2"
  top: "inception_4a/5x5_reduce"
  param {
    lr_mult: 1
    decay_mult: 1
  }
  param {
    lr_mult: 2
    decay_mult: 0
  }
  convolution_param {
    num_output: 16
    kernel_size: 1
    weight_filler {
      type: "xavier"
      std: 0.2
    }
    bias_filler {
      type: "constant"
      value: 0.2
    }
  }
}
layer {
  name: "inception_4a/relu_5x5_reduce"
  type: "ReLU"
  bottom: "inception_4a/5x5_reduce"
  top: "inception_4a/5x5_reduce"
}
layer {
  name: "inception_4a/5x5"
  type: "Convolution"
  bottom: "inception_4a/5x5_reduce"
  top: "inception_4a/5x5"
  param {
    lr_mult: 1
    decay_mult: 1
  }
  param {
    lr_mult: 2
    decay_mult: 0
  }
  convolution_param {
    num_output: 48
    pad: 2
    kernel_size: 5
    weight_filler {
      type: "xavier"
      std: 0.03
    }
    bias_filler {
      type: "constant"
      value: 0.2
    }
  }
}
layer {
  name: "inception_4a/relu_5x5"
  type: "ReLU"
  bottom: "inception_4a/5x5"
  top: "inception_4a/5x5"
}
layer {
  name: "inception_4a/pool"
  type: "Pooling"
  bottom: "pool3/3x3_s2"
  top: "inception_4a/pool"
  pooling_param {
    pool: MAX
    kernel_size: 3
    stride: 1
    pad: 1
  }
}
layer {
  name: "inception_4a/pool_proj"
  type: "Convolution"
  bottom: "inception_4a/pool"
  top: "inception_4a/pool_proj"
  param {
    lr_mult: 1
    decay_mult: 1
  }
  param {
    lr_mult: 2
    decay_mult: 0
  }
  convolution_param {
    num_output: 64
    kernel_size: 1
    weight_filler {
      type: "xavier"
      std: 0.1
    }
    bias_filler {
      type: "constant"
      value: 0.2
    }
  }
}
layer {
  name: "inception_4a/relu_pool_proj"
  type: "ReLU"
  bottom: "inception_4a/pool_proj"
  top: "inception_4a/pool_proj"
}
layer {
  name: "inception_4a/output"
  type: "Concat"
  bottom: "inception_4a/1x1"
  bottom: "inception_4a/3x3"
  bottom: "inception_4a/5x5"
  bottom: "inception_4a/pool_proj"
  top: "inception_4a/output"
}
layer {
  name: "loss1/ave_pool"
  type: "Pooling"
  bottom: "inception_4a/output"
  top: "loss1/ave_pool"
  pooling_param {
    pool: AVE
    kernel_size: 5
    stride: 3
  }
}
layer {
  name: "loss1/conv"
  type: "Convolution"
  bottom: "loss1/ave_pool"
  top: "loss1/conv"
  param {
    lr_mult: 1
    decay_mult: 1
  }
  param {
    lr_mult: 2
    decay_mult: 0
  }
  convolution_param {
    num_output: 128
    kernel_size: 1
    weight_filler {
      type: "xavier"
      std: 0.08
    }
    bias_filler {
      type: "constant"
      value: 0.2
    }
  }
}
layer {
  name: "loss1/relu_conv"
  type: "ReLU"
  bottom: "loss1/conv"
  top: "loss1/conv"
}
layer {
  name: "loss1/fc"
  type: "InnerProduct"
  bottom: "loss1/conv"
  top: "loss1/fc"
  param {
    lr_mult: 1
    decay_mult: 1
  }
  param {
    lr_mult: 2
    decay_mult: 0
  }
  inner_product_param {
    num_output: 1024
    weight_filler {
      type: "xavier"
      std: 0.02
    }
    bias_filler {
      type: "constant"
      value: 0.2
    }
  }
}
layer {
  name: "loss1/relu_fc"
  type: "ReLU"
  bottom: "loss1/fc"
  top: "loss1/fc"
}
layer {
  name: "loss1/drop_fc"
  type: "Dropout"
  bottom: "loss1/fc"
  top: "loss1/fc"
  dropout_param {
    dropout_ratio: 0.7
  }
}
layer {
  name: "loss1/classifier_plantvillage"
  type: "InnerProduct"
  bottom: "loss1/fc"
  top: "loss1/classifier_plantvillage"
  param {
    lr_mult: 1
    decay_mult: 1
  }
  param {
    lr_mult: 2
    decay_mult: 0
  }
  inner_product_param {
    num_output: 38
    weight_filler {
      type: "xavier"
      std: 0.0009765625
    }
    bias_filler {
      type: "constant"
      value: 0
    }
  }
}
layer {
  name: "inception_4b/1x1"
  type: "Convolution"
  bottom: "inception_4a/output"
  top: "inception_4b/1x1"
  param {
    lr_mult: 1
    decay_mult: 1
  }
  param {
    lr_mult: 2
    decay_mult: 0
  }
  convolution_param {
    num_output: 160
    kernel_size: 1
    weight_filler {
      type: "xavier"
      std: 0.03
    }
    bias_filler {
      type: "constant"
      value: 0.2
    }
  }
}
layer {
  name: "inception_4b/relu_1x1"
  type: "ReLU"
  bottom: "inception_4b/1x1"
  top: "inception_4b/1x1"
}
layer {
  name: "inception_4b/3x3_reduce"
  type: "Convolution"
  bottom: "inception_4a/output"
  top: "inception_4b/3x3_reduce"
  param {
    lr_mult: 1
    decay_mult: 1
  }
  param {
    lr_mult: 2
    decay_mult: 0
  }
  convolution_param {
    num_output: 112
    kernel_size: 1
    weight_filler {
      type: "xavier"
      std: 0.09
    }
    bias_filler {
      type: "constant"
      value: 0.2
    }
  }
}
layer {
  name: "inception_4b/relu_3x3_reduce"
  type: "ReLU"
  bottom: "inception_4b/3x3_reduce"
  top: "inception_4b/3x3_reduce"
}
layer {
  name: "inception_4b/3x3"
  type: "Convolution"
  bottom: "inception_4b/3x3_reduce"
  top: "inception_4b/3x3"
  param {
    lr_mult: 1
    decay_mult: 1
  }
  param {
    lr_mult: 2
    decay_mult: 0
  }
  convolution_param {
    num_output: 224
    pad: 1
    kernel_size: 3
    weight_filler {
      type: "xavier"
      std: 0.03
    }
    bias_filler {
      type: "constant"
      value: 0.2
    }
  }
}
layer {
  name: "inception_4b/relu_3x3"
  type: "ReLU"
  bottom: "inception_4b/3x3"
  top: "inception_4b/3x3"
}
layer {
  name: "inception_4b/5x5_reduce"
  type: "Convolution"
  bottom: "inception_4a/output"
  top: "inception_4b/5x5_reduce"
  param {
    lr_mult: 1
    decay_mult: 1
  }
  param {
    lr_mult: 2
    decay_mult: 0
  }
  convolution_param {
    num_output: 24
    kernel_size: 1
    weight_filler {
      type: "xavier"
      std: 0.2
    }
    bias_filler {
      type: "constant"
      value: 0.2
    }
  }
}
layer {
  name: "inception_4b/relu_5x5_reduce"
  type: "ReLU"
  bottom: "inception_4b/5x5_reduce"
  top: "inception_4b/5x5_reduce"
}
layer {
  name: "inception_4b/5x5"
  type: "Convolution"
  bottom: "inception_4b/5x5_reduce"
  top: "inception_4b/5x5"
  param {
    lr_mult: 1
    decay_mult: 1
  }
  param {
    lr_mult: 2
    decay_mult: 0
  }
  convolution_param {
    num_output: 64
    pad: 2
    kernel_size: 5
    weight_filler {
      type: "xavier"
      std: 0.03
    }
    bias_filler {
      type: "constant"
      value: 0.2
    }
  }
}
layer {
  name: "inception_4b/relu_5x5"
  type: "ReLU"
  bottom: "inception_4b/5x5"
  top: "inception_4b/5x5"
}
layer {
  name: "inception_4b/pool"
  type: "Pooling"
  bottom: "inception_4a/output"
  top: "inception_4b/pool"
  pooling_param {
    pool: MAX
    kernel_size: 3
    stride: 1
    pad: 1
  }
}
layer {
  name: "inception_4b/pool_proj"
  type: "Convolution"
  bottom: "inception_4b/pool"
  top: "inception_4b/pool_proj"
  param {
    lr_mult: 1
    decay_mult: 1
  }
  param {
    lr_mult: 2
    decay_mult: 0
  }
  convolution_param {
    num_output: 64
    kernel_size: 1
    weight_filler {
      type: "xavier"
      std: 0.1
    }
    bias_filler {
      type: "constant"
      value: 0.2
    }
  }
}
layer {
  name: "inception_4b/relu_pool_proj"
  type: "ReLU"
  bottom: "inception_4b/pool_proj"
  top: "inception_4b/pool_proj"
}
layer {
  name: "inception_4b/output"
  type: "Concat"
  bottom: "inception_4b/1x1"
  bottom: "inception_4b/3x3"
  bottom: "inception_4b/5x5"
  bottom: "inception_4b/pool_proj"
  top: "inception_4b/output"
}
layer {
  name: "inception_4c/1x1"
  type: "Convolution"
  bottom: "inception_4b/output"
  top: "inception_4c/1x1"
  param {
    lr_mult: 1
    decay_mult: 1
  }
  param {
    lr_mult: 2
    decay_mult: 0
  }
  convolution_param {
    num_output: 128
    kernel_size: 1
    weight_filler {
      type: "xavier"
      std: 0.03
    }
    bias_filler {
      type: "constant"
      value: 0.2
    }
  }
}
layer {
  name: "inception_4c/relu_1x1"
  type: "ReLU"
  bottom: "inception_4c/1x1"
  top: "inception_4c/1x1"
}
layer {
  name: "inception_4c/3x3_reduce"
  type: "Convolution"
  bottom: "inception_4b/output"
  top: "inception_4c/3x3_reduce"
  param {
    lr_mult: 1
    decay_mult: 1
  }
  param {
    lr_mult: 2
    decay_mult: 0
  }
  convolution_param {
    num_output: 128
    kernel_size: 1
    weight_filler {
      type: "xavier"
      std: 0.09
    }
    bias_filler {
      type: "constant"
      value: 0.2
    }
  }
}
layer {
  name: "inception_4c/relu_3x3_reduce"
  type: "ReLU"
  bottom: "inception_4c/3x3_reduce"
  top: "inception_4c/3x3_reduce"
}
layer {
  name: "inception_4c/3x3"
  type: "Convolution"
  bottom: "inception_4c/3x3_reduce"
  top: "inception_4c/3x3"
  param {
    lr_mult: 1
    decay_mult: 1
  }
  param {
    lr_mult: 2
    decay_mult: 0
  }
  convolution_param {
    num_output: 256
    pad: 1
    kernel_size: 3
    weight_filler {
      type: "xavier"
      std: 0.03
    }
    bias_filler {
      type: "constant"
      value: 0.2
    }
  }
}
layer {
  name: "inception_4c/relu_3x3"
  type: "ReLU"
  bottom: "inception_4c/3x3"
  top: "inception_4c/3x3"
}
layer {
  name: "inception_4c/5x5_reduce"
  type: "Convolution"
  bottom: "inception_4b/output"
  top: "inception_4c/5x5_reduce"
  param {
    lr_mult: 1
    decay_mult: 1
  }
  param {
    lr_mult: 2
    decay_mult: 0
  }
  convolution_param {
    num_output: 24
    kernel_size: 1
    weight_filler {
      type: "xavier"
      std: 0.2
    }
    bias_filler {
      type: "constant"
      value: 0.2
    }
  }
}
layer {
  name: "inception_4c/relu_5x5_reduce"
  type: "ReLU"
  bottom: "inception_4c/5x5_reduce"
  top: "inception_4c/5x5_reduce"
}
layer {
  name: "inception_4c/5x5"
  type: "Convolution"
  bottom: "inception_4c/5x5_reduce"
  top: "inception_4c/5x5"
  param {
    lr_mult: 1
    decay_mult: 1
  }
  param {
    lr_mult: 2
    decay_mult: 0
  }
  convolution_param {
    num_output: 64
    pad: 2
    kernel_size: 5
    weight_filler {
      type: "xavier"
      std: 0.03
    }
    bias_filler {
      type: "constant"
      value: 0.2
    }
  }
}
layer {
  name: "inception_4c/relu_5x5"
  type: "ReLU"
  bottom: "inception_4c/5x5"
  top: "inception_4c/5x5"
}
layer {
  name: "inception_4c/pool"
  type: "Pooling"
  bottom: "inception_4b/output"
  top: "inception_4c/pool"
  pooling_param {
    pool: MAX
    kernel_size: 3
    stride: 1
    pad: 1
  }
}
layer {
  name: "inception_4c/pool_proj"
  type: "Convolution"
  bottom: "inception_4c/pool"
  top: "inception_4c/pool_proj"
  param {
    lr_mult: 1
    decay_mult: 1
  }
  param {
    lr_mult: 2
    decay_mult: 0
  }
  convolution_param {
    num_output: 64
    kernel_size: 1
    weight_filler {
      type: "xavier"
      std: 0.1
    }
    bias_filler {
      type: "constant"
      value: 0.2
    }
  }
}
layer {
  name: "inception_4c/relu_pool_proj"
  type: "ReLU"
  bottom: "inception_4c/pool_proj"
  top: "inception_4c/pool_proj"
}
layer {
  name: "inception_4c/output"
  type: "Concat"
  bottom: "inception_4c/1x1"
  bottom: "inception_4c/3x3"
  bottom: "inception_4c/5x5"
  bottom: "inception_4c/pool_proj"
  top: "inception_4c/output"
}
layer {
  name: "inception_4d/1x1"
  type: "Convolution"
  bottom: "inception_4c/output"
  top: "inception_4d/1x1"
  param {
    lr_mult: 1
    decay_mult: 1
  }
  param {
    lr_mult: 2
    decay_mult: 0
  }
  convolution_param {
    num_output: 112
    kernel_size: 1
    weight_filler {
      type: "xavier"
      std: 0.03
    }
    bias_filler {
      type: "constant"
      value: 0.2
    }
  }
}
layer {
  name: "inception_4d/relu_1x1"
  type: "ReLU"
  bottom: "inception_4d/1x1"
  top: "inception_4d/1x1"
}
layer {
  name: "inception_4d/3x3_reduce"
  type: "Convolution"
  bottom: "inception_4c/output"
  top: "inception_4d/3x3_reduce"
  param {
    lr_mult: 1
    decay_mult: 1
  }
  param {
    lr_mult: 2
    decay_mult: 0
  }
  convolution_param {
    num_output: 144
    kernel_size: 1
    weight_filler {
      type: "xavier"
      std: 0.09
    }
    bias_filler {
      type: "constant"
      value: 0.2
    }
  }
}
layer {
  name: "inception_4d/relu_3x3_reduce"
  type: "ReLU"
  bottom: "inception_4d/3x3_reduce"
  top: "inception_4d/3x3_reduce"
}
layer {
  name: "inception_4d/3x3"
  type: "Convolution"
  bottom: "inception_4d/3x3_reduce"
  top: "inception_4d/3x3"
  param {
    lr_mult: 1
    decay_mult: 1
  }
  param {
    lr_mult: 2
    decay_mult: 0
  }
  convolution_param {
    num_output: 288
    pad: 1
    kernel_size: 3
    weight_filler {
      type: "xavier"
      std: 0.03
    }
    bias_filler {
      type: "constant"
      value: 0.2
    }
  }
}
layer {
  name: "inception_4d/relu_3x3"
  type: "ReLU"
  bottom: "inception_4d/3x3"
  top: "inception_4d/3x3"
}
layer {
  name: "inception_4d/5x5_reduce"
  type: "Convolution"
  bottom: "inception_4c/output"
  top: "inception_4d/5x5_reduce"
  param {
    lr_mult: 1
    decay_mult: 1
  }
  param {
    lr_mult: 2
    decay_mult: 0
  }
  convolution_param {
    num_output: 32
    kernel_size: 1
    weight_filler {
      type: "xavier"
      std: 0.2
    }
    bias_filler {
      type: "constant"
      value: 0.2
    }
  }
}
layer {
  name: "inception_4d/relu_5x5_reduce"
  type: "ReLU"
  bottom: "inception_4d/5x5_reduce"
  top: "inception_4d/5x5_reduce"
}
layer {
  name: "inception_4d/5x5"
  type: "Convolution"
  bottom: "inception_4d/5x5_reduce"
  top: "inception_4d/5x5"
  param {
    lr_mult: 1
    decay_mult: 1
  }
  param {
    lr_mult: 2
    decay_mult: 0
  }
  convolution_param {
    num_output: 64
    pad: 2
    kernel_size: 5
    weight_filler {
      type: "xavier"
      std: 0.03
    }
    bias_filler {
      type: "constant"
      value: 0.2
    }
  }
}
layer {
  name: "inception_4d/relu_5x5"
  type: "ReLU"
  bottom: "inception_4d/5x5"
  top: "inception_4d/5x5"
}
layer {
  name: "inception_4d/pool"
  type: "Pooling"
  bottom: "inception_4c/output"
  top: "inception_4d/pool"
  pooling_param {
    pool: MAX
    kernel_size: 3
    stride: 1
    pad: 1
  }
}
layer {
  name: "inception_4d/pool_proj"
  type: "Convolution"
  bottom: "inception_4d/pool"
  top: "inception_4d/pool_proj"
  param {
    lr_mult: 1
    decay_mult: 1
  }
  param {
    lr_mult: 2
    decay_mult: 0
  }
  convolution_param {
    num_output: 64
    kernel_size: 1
    weight_filler {
      type: "xavier"
      std: 0.1
    }
    bias_filler {
      type: "constant"
      value: 0.2
    }
  }
}
layer {
  name: "inception_4d/relu_pool_proj"
  type: "ReLU"
  bottom: "inception_4d/pool_proj"
  top: "inception_4d/pool_proj"
}
layer {
  name: "inception_4d/output"
  type: "Concat"
  bottom: "inception_4d/1x1"
  bottom: "inception_4d/3x3"
  bottom: "inception_4d/5x5"
  bottom: "inception_4d/pool_proj"
  top: "inception_4d/output"
}
layer {
  name: "loss2/ave_pool"
  type: "Pooling"
  bottom: "inception_4d/output"
  top: "loss2/ave_pool"
  pooling_param {
    pool: AVE
    kernel_size: 5
    stride: 3
  }
}
layer {
  name: "loss2/conv"
  type: "Convolution"
  bottom: "loss2/ave_pool"
  top: "loss2/conv"
  param {
    lr_mult: 1
    decay_mult: 1
  }
  param {
    lr_mult: 2
    decay_mult: 0
  }
  convolution_param {
    num_output: 128
    kernel_size: 1
    weight_filler {
      type: "xavier"
      std: 0.08
    }
    bias_filler {
      type: "constant"
      value: 0.2
    }
  }
}
layer {
  name: "loss2/relu_conv"
  type: "ReLU"
  bottom: "loss2/conv"
  top: "loss2/conv"
}
layer {
  name: "loss2/fc"
  type: "InnerProduct"
  bottom: "loss2/conv"
  top: "loss2/fc"
  param {
    lr_mult: 1
    decay_mult: 1
  }
  param {
    lr_mult: 2
    decay_mult: 0
  }
  inner_product_param {
    num_output: 1024
    weight_filler {
      type: "xavier"
      std: 0.02
    }
    bias_filler {
      type: "constant"
      value: 0.2
    }
  }
}
layer {
  name: "loss2/relu_fc"
  type: "ReLU"
  bottom: "loss2/fc"
  top: "loss2/fc"
}
layer {
  name: "loss2/drop_fc"
  type: "Dropout"
  bottom: "loss2/fc"
  top: "loss2/fc"
  dropout_param {
    dropout_ratio: 0.7
  }
}
layer {
  name: "loss2/classifier_plantvillage"
  type: "InnerProduct"
  bottom: "loss2/fc"
  top: "loss2/classifier_plantvillage"
  param {
    lr_mult: 1
    decay_mult: 1
  }
  param {
    lr_mult: 2
    decay_mult: 0
  }
  inner_product_param {
    num_output: 38
    weight_filler {
      type: "xavier"
      std: 0.0009765625
    }
    bias_filler {
      type: "constant"
      value: 0
    }
  }
}
layer {
  name: "inception_4e/1x1"
  type: "Convolution"
  bottom: "inception_4d/output"
  top: "inception_4e/1x1"
  param {
    lr_mult: 1
    decay_mult: 1
  }
  param {
    lr_mult: 2
    decay_mult: 0
  }
  convolution_param {
    num_output: 256
    kernel_size: 1
    weight_filler {
      type: "xavier"
      std: 0.03
    }
    bias_filler {
      type: "constant"
      value: 0.2
    }
  }
}
layer {
  name: "inception_4e/relu_1x1"
  type: "ReLU"
  bottom: "inception_4e/1x1"
  top: "inception_4e/1x1"
}
layer {
  name: "inception_4e/3x3_reduce"
  type: "Convolution"
  bottom: "inception_4d/output"
  top: "inception_4e/3x3_reduce"
  param {
    lr_mult: 1
    decay_mult: 1
  }
  param {
    lr_mult: 2
    decay_mult: 0
  }
  convolution_param {
    num_output: 160
    kernel_size: 1
    weight_filler {
      type: "xavier"
      std: 0.09
    }
    bias_filler {
      type: "constant"
      value: 0.2
    }
  }
}
layer {
  name: "inception_4e/relu_3x3_reduce"
  type: "ReLU"
  bottom: "inception_4e/3x3_reduce"
  top: "inception_4e/3x3_reduce"
}
layer {
  name: "inception_4e/3x3"
  type: "Convolution"
  bottom: "inception_4e/3x3_reduce"
  top: "inception_4e/3x3"
  param {
    lr_mult: 1
    decay_mult: 1
  }
  param {
    lr_mult: 2
    decay_mult: 0
  }
  convolution_param {
    num_output: 320
    pad: 1
    kernel_size: 3
    weight_filler {
      type: "xavier"
      std: 0.03
    }
    bias_filler {
      type: "constant"
      value: 0.2
    }
  }
}
layer {
  name: "inception_4e/relu_3x3"
  type: "ReLU"
  bottom: "inception_4e/3x3"
  top: "inception_4e/3x3"
}
layer {
  name: "inception_4e/5x5_reduce"
  type: "Convolution"
  bottom: "inception_4d/output"
  top: "inception_4e/5x5_reduce"
  param {
    lr_mult: 1
    decay_mult: 1
  }
  param {
    lr_mult: 2
    decay_mult: 0
  }
  convolution_param {
    num_output: 32
    kernel_size: 1
    weight_filler {
      type: "xavier"
      std: 0.2
    }
    bias_filler {
      type: "constant"
      value: 0.2
    }
  }
}
layer {
  name: "inception_4e/relu_5x5_reduce"
  type: "ReLU"
  bottom: "inception_4e/5x5_reduce"
  top: "inception_4e/5x5_reduce"
}
layer {
  name: "inception_4e/5x5"
  type: "Convolution"
  bottom: "inception_4e/5x5_reduce"
  top: "inception_4e/
I0403 18:25:07.514703  6939 layer_factory.hpp:77] Creating layer data
I0403 18:25:07.515286  6939 net.cpp:91] Creating Layer data
I0403 18:25:07.515316  6939 net.cpp:399] data -> data
I0403 18:25:07.515364  6939 net.cpp:399] data -> label
I0403 18:25:07.515400  6939 data_transformer.cpp:25] Loading mean file from: /home/mohanty/data/final_dataset/lmdb/segmented-50-50/mean.binaryproto
I0403 18:25:07.516494  6945 db_lmdb.cpp:38] Opened lmdb /home/mohanty/data/final_dataset/lmdb/segmented-50-50/test_db
I0403 18:25:07.528470  6939 data_layer.cpp:41] output data size: 24,3,224,224
I0403 18:25:07.557431  6939 net.cpp:141] Setting up data
I0403 18:25:07.557498  6939 net.cpp:148] Top shape: 24 3 224 224 (3612672)
I0403 18:25:07.557523  6939 net.cpp:148] Top shape: 24 (24)
I0403 18:25:07.557538  6939 net.cpp:156] Memory required for data: 14450784
I0403 18:25:07.557569  6939 layer_factory.hpp:77] Creating layer label_data_1_split
I0403 18:25:07.557596  6939 net.cpp:91] Creating Layer label_data_1_split
I0403 18:25:07.557615  6939 net.cpp:425] label_data_1_split <- label
I0403 18:25:07.557647  6939 net.cpp:399] label_data_1_split -> label_data_1_split_0
I0403 18:25:07.557675  6939 net.cpp:399] label_data_1_split -> label_data_1_split_1
I0403 18:25:07.557696  6939 net.cpp:399] label_data_1_split -> label_data_1_split_2
I0403 18:25:07.557718  6939 net.cpp:399] label_data_1_split -> label_data_1_split_3
I0403 18:25:07.557737  6939 net.cpp:399] label_data_1_split -> label_data_1_split_4
I0403 18:25:07.557757  6939 net.cpp:399] label_data_1_split -> label_data_1_split_5
I0403 18:25:07.557778  6939 net.cpp:399] label_data_1_split -> label_data_1_split_6
I0403 18:25:07.557799  6939 net.cpp:399] label_data_1_split -> label_data_1_split_7
I0403 18:25:07.557818  6939 net.cpp:399] label_data_1_split -> label_data_1_split_8
I0403 18:25:07.557839  6939 net.cpp:399] label_data_1_split -> label_data_1_split_9
I0403 18:25:07.557953  6939 net.cpp:141] Setting up label_data_1_split
I0403 18:25:07.557977  6939 net.cpp:148] Top shape: 24 (24)
I0403 18:25:07.557996  6939 net.cpp:148] Top shape: 24 (24)
I0403 18:25:07.558012  6939 net.cpp:148] Top shape: 24 (24)
I0403 18:25:07.558027  6939 net.cpp:148] Top shape: 24 (24)
I0403 18:25:07.558043  6939 net.cpp:148] Top shape: 24 (24)
I0403 18:25:07.558058  6939 net.cpp:148] Top shape: 24 (24)
I0403 18:25:07.558075  6939 net.cpp:148] Top shape: 24 (24)
I0403 18:25:07.558091  6939 net.cpp:148] Top shape: 24 (24)
I0403 18:25:07.558107  6939 net.cpp:148] Top shape: 24 (24)
I0403 18:25:07.558126  6939 net.cpp:148] Top shape: 24 (24)
I0403 18:25:07.558172  6939 net.cpp:156] Memory required for data: 14451744
I0403 18:25:07.558195  6939 layer_factory.hpp:77] Creating layer conv1/7x7_s2
I0403 18:25:07.558228  6939 net.cpp:91] Creating Layer conv1/7x7_s2
I0403 18:25:07.558245  6939 net.cpp:425] conv1/7x7_s2 <- data
I0403 18:25:07.558265  6939 net.cpp:399] conv1/7x7_s2 -> conv1/7x7_s2
I0403 18:25:07.700881  6939 net.cpp:141] Setting up conv1/7x7_s2
I0403 18:25:07.700989  6939 net.cpp:148] Top shape: 24 64 112 112 (19267584)
I0403 18:25:07.701006  6939 net.cpp:156] Memory required for data: 91522080
I0403 18:25:07.701037  6939 layer_factory.hpp:77] Creating layer conv1/relu_7x7
I0403 18:25:07.701064  6939 net.cpp:91] Creating Layer conv1/relu_7x7
I0403 18:25:07.701081  6939 net.cpp:425] conv1/relu_7x7 <- conv1/7x7_s2
I0403 18:25:07.701100  6939 net.cpp:386] conv1/relu_7x7 -> conv1/7x7_s2 (in-place)
I0403 18:25:07.701352  6939 net.cpp:141] Setting up conv1/relu_7x7
I0403 18:25:07.701380  6939 net.cpp:148] Top shape: 24 64 112 112 (19267584)
I0403 18:25:07.701395  6939 net.cpp:156] Memory required for data: 168592416
I0403 18:25:07.701411  6939 layer_factory.hpp:77] Creating layer pool1/3x3_s2
I0403 18:25:07.701436  6939 net.cpp:91] Creating Layer pool1/3x3_s2
I0403 18:25:07.701453  6939 net.cpp:425] pool1/3x3_s2 <- conv1/7x7_s2
I0403 18:25:07.701472  6939 net.cpp:399] pool1/3x3_s2 -> pool1/3x3_s2
I0403 18:25:07.701544  6939 net.cpp:141] Setting up pool1/3x3_s2
I0403 18:25:07.701567  6939 net.cpp:148] Top shape: 24 64 56 56 (4816896)
I0403 18:25:07.701582  6939 net.cpp:156] Memory required for data: 187860000
I0403 18:25:07.701597  6939 layer_factory.hpp:77] Creating layer pool1/norm1
I0403 18:25:07.701620  6939 net.cpp:91] Creating Layer pool1/norm1
I0403 18:25:07.701637  6939 net.cpp:425] pool1/norm1 <- pool1/3x3_s2
I0403 18:25:07.701655  6939 net.cpp:399] pool1/norm1 -> pool1/norm1
I0403 18:25:07.701933  6939 net.cpp:141] Setting up pool1/norm1
I0403 18:25:07.701961  6939 net.cpp:148] Top shape: 24 64 56 56 (4816896)
I0403 18:25:07.701975  6939 net.cpp:156] Memory required for data: 207127584
I0403 18:25:07.701992  6939 layer_factory.hpp:77] Creating layer conv2/3x3_reduce
I0403 18:25:07.702015  6939 net.cpp:91] Creating Layer conv2/3x3_reduce
I0403 18:25:07.702033  6939 net.cpp:425] conv2/3x3_reduce <- pool1/norm1
I0403 18:25:07.702050  6939 net.cpp:399] conv2/3x3_reduce -> conv2/3x3_reduce
I0403 18:25:07.703404  6939 net.cpp:141] Setting up conv2/3x3_reduce
I0403 18:25:07.703438  6939 net.cpp:148] Top shape: 24 64 56 56 (4816896)
I0403 18:25:07.703454  6939 net.cpp:156] Memory required for data: 226395168
I0403 18:25:07.703476  6939 layer_factory.hpp:77] Creating layer conv2/relu_3x3_reduce
I0403 18:25:07.703495  6939 net.cpp:91] Creating Layer conv2/relu_3x3_reduce
I0403 18:25:07.703510  6939 net.cpp:425] conv2/relu_3x3_reduce <- conv2/3x3_reduce
I0403 18:25:07.703528  6939 net.cpp:386] conv2/relu_3x3_reduce -> conv2/3x3_reduce (in-place)
I0403 18:25:07.703796  6939 net.cpp:141] Setting up conv2/relu_3x3_reduce
I0403 18:25:07.703825  6939 net.cpp:148] Top shape: 24 64 56 56 (4816896)
I0403 18:25:07.703841  6939 net.cpp:156] Memory required for data: 245662752
I0403 18:25:07.703856  6939 layer_factory.hpp:77] Creating layer conv2/3x3
I0403 18:25:07.703881  6939 net.cpp:91] Creating Layer conv2/3x3
I0403 18:25:07.703898  6939 net.cpp:425] conv2/3x3 <- conv2/3x3_reduce
I0403 18:25:07.703917  6939 net.cpp:399] conv2/3x3 -> conv2/3x3
I0403 18:25:07.706254  6939 net.cpp:141] Setting up conv2/3x3
I0403 18:25:07.706289  6939 net.cpp:148] Top shape: 24 192 56 56 (14450688)
I0403 18:25:07.706307  6939 net.cpp:156] Memory required for data: 303465504
I0403 18:25:07.706331  6939 layer_factory.hpp:77] Creating layer conv2/relu_3x3
I0403 18:25:07.706349  6939 net.cpp:91] Creating Layer conv2/relu_3x3
I0403 18:25:07.706365  6939 net.cpp:425] conv2/relu_3x3 <- conv2/3x3
I0403 18:25:07.706385  6939 net.cpp:386] conv2/relu_3x3 -> conv2/3x3 (in-place)
I0403 18:25:07.706559  6939 net.cpp:141] Setting up conv2/relu_3x3
I0403 18:25:07.706584  6939 net.cpp:148] Top shape: 24 192 56 56 (14450688)
I0403 18:25:07.706631  6939 net.cpp:156] Memory required for data: 361268256
I0403 18:25:07.706646  6939 layer_factory.hpp:77] Creating layer conv2/norm2
I0403 18:25:07.706667  6939 net.cpp:91] Creating Layer conv2/norm2
I0403 18:25:07.706683  6939 net.cpp:425] conv2/norm2 <- conv2/3x3
I0403 18:25:07.706701  6939 net.cpp:399] conv2/norm2 -> conv2/norm2
I0403 18:25:07.707000  6939 net.cpp:141] Setting up conv2/norm2
I0403 18:25:07.707026  6939 net.cpp:148] Top shape: 24 192 56 56 (14450688)
I0403 18:25:07.707041  6939 net.cpp:156] Memory required for data: 419071008
I0403 18:25:07.707056  6939 layer_factory.hpp:77] Creating layer pool2/3x3_s2
I0403 18:25:07.707077  6939 net.cpp:91] Creating Layer pool2/3x3_s2
I0403 18:25:07.707093  6939 net.cpp:425] pool2/3x3_s2 <- conv2/norm2
I0403 18:25:07.707109  6939 net.cpp:399] pool2/3x3_s2 -> pool2/3x3_s2
I0403 18:25:07.707161  6939 net.cpp:141] Setting up pool2/3x3_s2
I0403 18:25:07.707191  6939 net.cpp:148] Top shape: 24 192 28 28 (3612672)
I0403 18:25:07.707207  6939 net.cpp:156] Memory required for data: 433521696
I0403 18:25:07.707221  6939 layer_factory.hpp:77] Creating layer pool2/3x3_s2_pool2/3x3_s2_0_split
I0403 18:25:07.707239  6939 net.cpp:91] Creating Layer pool2/3x3_s2_pool2/3x3_s2_0_split
I0403 18:25:07.707258  6939 net.cpp:425] pool2/3x3_s2_pool2/3x3_s2_0_split <- pool2/3x3_s2
I0403 18:25:07.707275  6939 net.cpp:399] pool2/3x3_s2_pool2/3x3_s2_0_split -> pool2/3x3_s2_pool2/3x3_s2_0_split_0
I0403 18:25:07.707296  6939 net.cpp:399] pool2/3x3_s2_pool2/3x3_s2_0_split -> pool2/3x3_s2_pool2/3x3_s2_0_split_1
I0403 18:25:07.707315  6939 net.cpp:399] pool2/3x3_s2_pool2/3x3_s2_0_split -> pool2/3x3_s2_pool2/3x3_s2_0_split_2
I0403 18:25:07.707334  6939 net.cpp:399] pool2/3x3_s2_pool2/3x3_s2_0_split -> pool2/3x3_s2_pool2/3x3_s2_0_split_3
I0403 18:25:07.707406  6939 net.cpp:141] Setting up pool2/3x3_s2_pool2/3x3_s2_0_split
I0403 18:25:07.707428  6939 net.cpp:148] Top shape: 24 192 28 28 (3612672)
I0403 18:25:07.707444  6939 net.cpp:148] Top shape: 24 192 28 28 (3612672)
I0403 18:25:07.707460  6939 net.cpp:148] Top shape: 24 192 28 28 (3612672)
I0403 18:25:07.707476  6939 net.cpp:148] Top shape: 24 192 28 28 (3612672)
I0403 18:25:07.707490  6939 net.cpp:156] Memory required for data: 491324448
I0403 18:25:07.707505  6939 layer_factory.hpp:77] Creating layer inception_3a/1x1
I0403 18:25:07.707531  6939 net.cpp:91] Creating Layer inception_3a/1x1
I0403 18:25:07.707550  6939 net.cpp:425] inception_3a/1x1 <- pool2/3x3_s2_pool2/3x3_s2_0_split_0
I0403 18:25:07.707571  6939 net.cpp:399] inception_3a/1x1 -> inception_3a/1x1
I0403 18:25:07.709108  6939 net.cpp:141] Setting up inception_3a/1x1
I0403 18:25:07.709141  6939 net.cpp:148] Top shape: 24 64 28 28 (1204224)
I0403 18:25:07.709158  6939 net.cpp:156] Memory required for data: 496141344
I0403 18:25:07.709182  6939 layer_factory.hpp:77] Creating layer inception_3a/relu_1x1
I0403 18:25:07.709203  6939 net.cpp:91] Creating Layer inception_3a/relu_1x1
I0403 18:25:07.709219  6939 net.cpp:425] inception_3a/relu_1x1 <- inception_3a/1x1
I0403 18:25:07.709236  6939 net.cpp:386] inception_3a/relu_1x1 -> inception_3a/1x1 (in-place)
I0403 18:25:07.709411  6939 net.cpp:141] Setting up inception_3a/relu_1x1
I0403 18:25:07.709436  6939 net.cpp:148] Top shape: 24 64 28 28 (1204224)
I0403 18:25:07.709451  6939 net.cpp:156] Memory required for data: 500958240
I0403 18:25:07.709465  6939 layer_factory.hpp:77] Creating layer inception_3a/3x3_reduce
I0403 18:25:07.709487  6939 net.cpp:91] Creating Layer inception_3a/3x3_reduce
I0403 18:25:07.709504  6939 net.cpp:425] inception_3a/3x3_reduce <- pool2/3x3_s2_pool2/3x3_s2_0_split_1
I0403 18:25:07.709527  6939 net.cpp:399] inception_3a/3x3_reduce -> inception_3a/3x3_reduce
I0403 18:25:07.711237  6939 net.cpp:141] Setting up inception_3a/3x3_reduce
I0403 18:25:07.711272  6939 net.cpp:148] Top shape: 24 96 28 28 (1806336)
I0403 18:25:07.711290  6939 net.cpp:156] Memory required for data: 508183584
I0403 18:25:07.711313  6939 layer_factory.hpp:77] Creating layer inception_3a/relu_3x3_reduce
I0403 18:25:07.711351  6939 net.cpp:91] Creating Layer inception_3a/relu_3x3_reduce
I0403 18:25:07.711369  6939 net.cpp:425] inception_3a/relu_3x3_reduce <- inception_3a/3x3_reduce
I0403 18:25:07.711387  6939 net.cpp:386] inception_3a/relu_3x3_reduce -> inception_3a/3x3_reduce (in-place)
I0403 18:25:07.711565  6939 net.cpp:141] Setting up inception_3a/relu_3x3_reduce
I0403 18:25:07.711591  6939 net.cpp:148] Top shape: 24 96 28 28 (1806336)
I0403 18:25:07.711606  6939 net.cpp:156] Memory required for data: 515408928
I0403 18:25:07.711619  6939 layer_factory.hpp:77] Creating layer inception_3a/3x3
I0403 18:25:07.711644  6939 net.cpp:91] Creating Layer inception_3a/3x3
I0403 18:25:07.711663  6939 net.cpp:425] inception_3a/3x3 <- inception_3a/3x3_reduce
I0403 18:25:07.711683  6939 net.cpp:399] inception_3a/3x3 -> inception_3a/3x3
I0403 18:25:07.713328  6939 net.cpp:141] Setting up inception_3a/3x3
I0403 18:25:07.713358  6939 net.cpp:148] Top shape: 24 128 28 28 (2408448)
I0403 18:25:07.713376  6939 net.cpp:156] Memory required for data: 525042720
I0403 18:25:07.713394  6939 layer_factory.hpp:77] Creating layer inception_3a/relu_3x3
I0403 18:25:07.713413  6939 net.cpp:91] Creating Layer inception_3a/relu_3x3
I0403 18:25:07.713431  6939 net.cpp:425] inception_3a/relu_3x3 <- inception_3a/3x3
I0403 18:25:07.713451  6939 net.cpp:386] inception_3a/relu_3x3 -> inception_3a/3x3 (in-place)
I0403 18:25:07.713721  6939 net.cpp:141] Setting up inception_3a/relu_3x3
I0403 18:25:07.713748  6939 net.cpp:148] Top shape: 24 128 28 28 (2408448)
I0403 18:25:07.713764  6939 net.cpp:156] Memory required for data: 534676512
I0403 18:25:07.713779  6939 layer_factory.hpp:77] Creating layer inception_3a/5x5_reduce
I0403 18:25:07.713803  6939 net.cpp:91] Creating Layer inception_3a/5x5_reduce
I0403 18:25:07.713820  6939 net.cpp:425] inception_3a/5x5_reduce <- pool2/3x3_s2_pool2/3x3_s2_0_split_2
I0403 18:25:07.713841  6939 net.cpp:399] inception_3a/5x5_reduce -> inception_3a/5x5_reduce
I0403 18:25:07.714805  6939 net.cpp:141] Setting up inception_3a/5x5_reduce
I0403 18:25:07.714835  6939 net.cpp:148] Top shape: 24 16 28 28 (301056)
I0403 18:25:07.714851  6939 net.cpp:156] Memory required for data: 535880736
I0403 18:25:07.714869  6939 layer_factory.hpp:77] Creating layer inception_3a/relu_5x5_reduce
I0403 18:25:07.714887  6939 net.cpp:91] Creating Layer inception_3a/relu_5x5_reduce
I0403 18:25:07.714903  6939 net.cpp:425] inception_3a/relu_5x5_reduce <- inception_3a/5x5_reduce
I0403 18:25:07.714923  6939 net.cpp:386] inception_3a/relu_5x5_reduce -> inception_3a/5x5_reduce (in-place)
I0403 18:25:07.715209  6939 net.cpp:141] Setting up inception_3a/relu_5x5_reduce
I0403 18:25:07.715235  6939 net.cpp:148] Top shape: 24 16 28 28 (301056)
I0403 18:25:07.715250  6939 net.cpp:156] Memory required for data: 537084960
I0403 18:25:07.715265  6939 layer_factory.hpp:77] Creating layer inception_3a/5x5
I0403 18:25:07.715286  6939 net.cpp:91] Creating Layer inception_3a/5x5
I0403 18:25:07.715303  6939 net.cpp:425] inception_3a/5x5 <- inception_3a/5x5_reduce
I0403 18:25:07.715324  6939 net.cpp:399] inception_3a/5x5 -> inception_3a/5x5
I0403 18:25:07.716323  6939 net.cpp:141] Setting up inception_3a/5x5
I0403 18:25:07.716356  6939 net.cpp:148] Top shape: 24 32 28 28 (602112)
I0403 18:25:07.716372  6939 net.cpp:156] Memory required for data: 539493408
I0403 18:25:07.716392  6939 layer_factory.hpp:77] Creating layer inception_3a/relu_5x5
I0403 18:25:07.716409  6939 net.cpp:91] Creating Layer inception_3a/relu_5x5
I0403 18:25:07.716425  6939 net.cpp:425] inception_3a/relu_5x5 <- inception_3a/5x5
I0403 18:25:07.716444  6939 net.cpp:386] inception_3a/relu_5x5 -> inception_3a/5x5 (in-place)
I0403 18:25:07.716617  6939 net.cpp:141] Setting up inception_3a/relu_5x5
I0403 18:25:07.716642  6939 net.cpp:148] Top shape: 24 32 28 28 (602112)
I0403 18:25:07.716657  6939 net.cpp:156] Memory required for data: 541901856
I0403 18:25:07.716672  6939 layer_factory.hpp:77] Creating layer inception_3a/pool
I0403 18:25:07.716691  6939 net.cpp:91] Creating Layer inception_3a/pool
I0403 18:25:07.716722  6939 net.cpp:425] inception_3a/pool <- pool2/3x3_s2_pool2/3x3_s2_0_split_3
I0403 18:25:07.716742  6939 net.cpp:399] inception_3a/pool -> inception_3a/pool
I0403 18:25:07.716801  6939 net.cpp:141] Setting up inception_3a/pool
I0403 18:25:07.716825  6939 net.cpp:148] Top shape: 24 192 28 28 (3612672)
I0403 18:25:07.716838  6939 net.cpp:156] Memory required for data: 556352544
I0403 18:25:07.716852  6939 layer_factory.hpp:77] Creating layer inception_3a/pool_proj
I0403 18:25:07.716878  6939 net.cpp:91] Creating Layer inception_3a/pool_proj
I0403 18:25:07.716897  6939 net.cpp:425] inception_3a/pool_proj <- inception_3a/pool
I0403 18:25:07.716918  6939 net.cpp:399] inception_3a/pool_proj -> inception_3a/pool_proj
I0403 18:25:07.717860  6939 net.cpp:141] Setting up inception_3a/pool_proj
I0403 18:25:07.717890  6939 net.cpp:148] Top shape: 24 32 28 28 (602112)
I0403 18:25:07.717906  6939 net.cpp:156] Memory required for data: 558760992
I0403 18:25:07.717931  6939 layer_factory.hpp:77] Creating layer inception_3a/relu_pool_proj
I0403 18:25:07.717949  6939 net.cpp:91] Creating Layer inception_3a/relu_pool_proj
I0403 18:25:07.717965  6939 net.cpp:425] inception_3a/relu_pool_proj <- inception_3a/pool_proj
I0403 18:25:07.717985  6939 net.cpp:386] inception_3a/relu_pool_proj -> inception_3a/pool_proj (in-place)
I0403 18:25:07.718261  6939 net.cpp:141] Setting up inception_3a/relu_pool_proj
I0403 18:25:07.718287  6939 net.cpp:148] Top shape: 24 32 28 28 (602112)
I0403 18:25:07.718302  6939 net.cpp:156] Memory required for data: 561169440
I0403 18:25:07.718317  6939 layer_factory.hpp:77] Creating layer inception_3a/output
I0403 18:25:07.718334  6939 net.cpp:91] Creating Layer inception_3a/output
I0403 18:25:07.718350  6939 net.cpp:425] inception_3a/output <- inception_3a/1x1
I0403 18:25:07.718366  6939 net.cpp:425] inception_3a/output <- inception_3a/3x3
I0403 18:25:07.718382  6939 net.cpp:425] inception_3a/output <- inception_3a/5x5
I0403 18:25:07.718399  6939 net.cpp:425] inception_3a/output <- inception_3a/pool_proj
I0403 18:25:07.718418  6939 net.cpp:399] inception_3a/output -> inception_3a/output
I0403 18:25:07.718466  6939 net.cpp:141] Setting up inception_3a/output
I0403 18:25:07.718493  6939 net.cpp:148] Top shape: 24 256 28 28 (4816896)
I0403 18:25:07.718509  6939 net.cpp:156] Memory required for data: 580437024
I0403 18:25:07.718524  6939 layer_factory.hpp:77] Creating layer inception_3a/output_inception_3a/output_0_split
I0403 18:25:07.718540  6939 net.cpp:91] Creating Layer inception_3a/output_inception_3a/output_0_split
I0403 18:25:07.718556  6939 net.cpp:425] inception_3a/output_inception_3a/output_0_split <- inception_3a/output
I0403 18:25:07.718574  6939 net.cpp:399] inception_3a/output_inception_3a/output_0_split -> inception_3a/output_inception_3a/output_0_split_0
I0403 18:25:07.718595  6939 net.cpp:399] inception_3a/output_inception_3a/output_0_split -> inception_3a/output_inception_3a/output_0_split_1
I0403 18:25:07.718618  6939 net.cpp:399] inception_3a/output_inception_3a/output_0_split -> inception_3a/output_inception_3a/output_0_split_2
I0403 18:25:07.718641  6939 net.cpp:399] inception_3a/output_inception_3a/output_0_split -> inception_3a/output_inception_3a/output_0_split_3
I0403 18:25:07.718715  6939 net.cpp:141] Setting up inception_3a/output_inception_3a/output_0_split
I0403 18:25:07.718739  6939 net.cpp:148] Top shape: 24 256 28 28 (4816896)
I0403 18:25:07.718757  6939 net.cpp:148] Top shape: 24 256 28 28 (4816896)
I0403 18:25:07.718773  6939 net.cpp:148] Top shape: 24 256 28 28 (4816896)
I0403 18:25:07.718788  6939 net.cpp:148] Top shape: 24 256 28 28 (4816896)
I0403 18:25:07.718802  6939 net.cpp:156] Memory required for data: 657507360
I0403 18:25:07.718816  6939 layer_factory.hpp:77] Creating layer inception_3b/1x1
I0403 18:25:07.718840  6939 net.cpp:91] Creating Layer inception_3b/1x1
I0403 18:25:07.718858  6939 net.cpp:425] inception_3b/1x1 <- inception_3a/output_inception_3a/output_0_split_0
I0403 18:25:07.718876  6939 net.cpp:399] inception_3b/1x1 -> inception_3b/1x1
I0403 18:25:07.720016  6939 net.cpp:141] Setting up inception_3b/1x1
I0403 18:25:07.720057  6939 net.cpp:148] Top shape: 24 128 28 28 (2408448)
I0403 18:25:07.720072  6939 net.cpp:156] Memory required for data: 667141152
I0403 18:25:07.720091  6939 layer_factory.hpp:77] Creating layer inception_3b/relu_1x1
I0403 18:25:07.720111  6939 net.cpp:91] Creating Layer inception_3b/relu_1x1
I0403 18:25:07.720127  6939 net.cpp:425] inception_3b/relu_1x1 <- inception_3b/1x1
I0403 18:25:07.720144  6939 net.cpp:386] inception_3b/relu_1x1 -> inception_3b/1x1 (in-place)
I0403 18:25:07.720341  6939 net.cpp:141] Setting up inception_3b/relu_1x1
I0403 18:25:07.720367  6939 net.cpp:148] Top shape: 24 128 28 28 (2408448)
I0403 18:25:07.720383  6939 net.cpp:156] Memory required for data: 676774944
I0403 18:25:07.720398  6939 layer_factory.hpp:77] Creating layer inception_3b/3x3_reduce
I0403 18:25:07.720424  6939 net.cpp:91] Creating Layer inception_3b/3x3_reduce
I0403 18:25:07.720443  6939 net.cpp:425] inception_3b/3x3_reduce <- inception_3a/output_inception_3a/output_0_split_1
I0403 18:25:07.720464  6939 net.cpp:399] inception_3b/3x3_reduce -> inception_3b/3x3_reduce
I0403 18:25:07.721596  6939 net.cpp:141] Setting up inception_3b/3x3_reduce
I0403 18:25:07.721627  6939 net.cpp:148] Top shape: 24 128 28 28 (2408448)
I0403 18:25:07.721642  6939 net.cpp:156] Memory required for data: 686408736
I0403 18:25:07.721662  6939 layer_factory.hpp:77] Creating layer inception_3b/relu_3x3_reduce
I0403 18:25:07.721679  6939 net.cpp:91] Creating Layer inception_3b/relu_3x3_reduce
I0403 18:25:07.721694  6939 net.cpp:425] inception_3b/relu_3x3_reduce <- inception_3b/3x3_reduce
I0403 18:25:07.721712  6939 net.cpp:386] inception_3b/relu_3x3_reduce -> inception_3b/3x3_reduce (in-place)
I0403 18:25:07.721881  6939 net.cpp:141] Setting up inception_3b/relu_3x3_reduce
I0403 18:25:07.721909  6939 net.cpp:148] Top shape: 24 128 28 28 (2408448)
I0403 18:25:07.721925  6939 net.cpp:156] Memory required for data: 696042528
I0403 18:25:07.721938  6939 layer_factory.hpp:77] Creating layer inception_3b/3x3
I0403 18:25:07.721963  6939 net.cpp:91] Creating Layer inception_3b/3x3
I0403 18:25:07.721982  6939 net.cpp:425] inception_3b/3x3 <- inception_3b/3x3_reduce
I0403 18:25:07.722002  6939 net.cpp:399] inception_3b/3x3 -> inception_3b/3x3
I0403 18:25:07.724961  6939 net.cpp:141] Setting up inception_3b/3x3
I0403 18:25:07.724989  6939 net.cpp:148] Top shape: 24 192 28 28 (3612672)
I0403 18:25:07.725005  6939 net.cpp:156] Memory required for data: 710493216
I0403 18:25:07.725023  6939 layer_factory.hpp:77] Creating layer inception_3b/relu_3x3
I0403 18:25:07.725042  6939 net.cpp:91] Creating Layer inception_3b/relu_3x3
I0403 18:25:07.725057  6939 net.cpp:425] inception_3b/relu_3x3 <- inception_3b/3x3
I0403 18:25:07.725078  6939 net.cpp:386] inception_3b/relu_3x3 -> inception_3b/3x3 (in-place)
I0403 18:25:07.725368  6939 net.cpp:141] Setting up inception_3b/relu_3x3
I0403 18:25:07.725394  6939 net.cpp:148] Top shape: 24 192 28 28 (3612672)
I0403 18:25:07.725409  6939 net.cpp:156] Memory required for data: 724943904
I0403 18:25:07.725425  6939 layer_factory.hpp:77] Creating layer inception_3b/5x5_reduce
I0403 18:25:07.725447  6939 net.cpp:91] Creating Layer inception_3b/5x5_reduce
I0403 18:25:07.725464  6939 net.cpp:425] inception_3b/5x5_reduce <- inception_3a/output_inception_3a/output_0_split_2
I0403 18:25:07.725487  6939 net.cpp:399] inception_3b/5x5_reduce -> inception_3b/5x5_reduce
I0403 18:25:07.726539  6939 net.cpp:141] Setting up inception_3b/5x5_reduce
I0403 18:25:07.726569  6939 net.cpp:148] Top shape: 24 32 28 28 (602112)
I0403 18:25:07.726584  6939 net.cpp:156] Memory required for data: 727352352
I0403 18:25:07.726604  6939 layer_factory.hpp:77] Creating layer inception_3b/relu_5x5_reduce
I0403 18:25:07.726622  6939 net.cpp:91] Creating Layer inception_3b/relu_5x5_reduce
I0403 18:25:07.726639  6939 net.cpp:425] inception_3b/relu_5x5_reduce <- inception_3b/5x5_reduce
I0403 18:25:07.726657  6939 net.cpp:386] inception_3b/relu_5x5_reduce -> inception_3b/5x5_reduce (in-place)
I0403 18:25:07.726852  6939 net.cpp:141] Setting up inception_3b/relu_5x5_reduce
I0403 18:25:07.726878  6939 net.cpp:148] Top shape: 24 32 28 28 (602112)
I0403 18:25:07.726893  6939 net.cpp:156] Memory required for data: 729760800
I0403 18:25:07.726908  6939 layer_factory.hpp:77] Creating layer inception_3b/5x5
I0403 18:25:07.726932  6939 net.cpp:91] Creating Layer inception_3b/5x5
I0403 18:25:07.726949  6939 net.cpp:425] inception_3b/5x5 <- inception_3b/5x5_reduce
I0403 18:25:07.726970  6939 net.cpp:399] inception_3b/5x5 -> inception_3b/5x5
I0403 18:25:07.728989  6939 net.cpp:141] Setting up inception_3b/5x5
I0403 18:25:07.729022  6939 net.cpp:148] Top shape: 24 96 28 28 (1806336)
I0403 18:25:07.729039  6939 net.cpp:156] Memory required for data: 736986144
I0403 18:25:07.729060  6939 layer_factory.hpp:77] Creating layer inception_3b/relu_5x5
I0403 18:25:07.729079  6939 net.cpp:91] Creating Layer inception_3b/relu_5x5
I0403 18:25:07.729094  6939 net.cpp:425] inception_3b/relu_5x5 <- inception_3b/5x5
I0403 18:25:07.729113  6939 net.cpp:386] inception_3b/relu_5x5 -> inception_3b/5x5 (in-place)
I0403 18:25:07.729315  6939 net.cpp:141] Setting up inception_3b/relu_5x5
I0403 18:25:07.729342  6939 net.cpp:148] Top shape: 24 96 28 28 (1806336)
I0403 18:25:07.729358  6939 net.cpp:156] Memory required for data: 744211488
I0403 18:25:07.729373  6939 layer_factory.hpp:77] Creating layer inception_3b/pool
I0403 18:25:07.729392  6939 net.cpp:91] Creating Layer inception_3b/pool
I0403 18:25:07.729408  6939 net.cpp:425] inception_3b/pool <- inception_3a/output_inception_3a/output_0_split_3
I0403 18:25:07.729425  6939 net.cpp:399] inception_3b/pool -> inception_3b/pool
I0403 18:25:07.729481  6939 net.cpp:141] Setting up inception_3b/pool
I0403 18:25:07.729507  6939 net.cpp:148] Top shape: 24 256 28 28 (4816896)
I0403 18:25:07.729522  6939 net.cpp:156] Memory required for data: 763479072
I0403 18:25:07.729537  6939 layer_factory.hpp:77] Creating layer inception_3b/pool_proj
I0403 18:25:07.729558  6939 net.cpp:91] Creating Layer inception_3b/pool_proj
I0403 18:25:07.729575  6939 net.cpp:425] inception_3b/pool_proj <- inception_3b/pool
I0403 18:25:07.729595  6939 net.cpp:399] inception_3b/pool_proj -> inception_3b/pool_proj
I0403 18:25:07.730664  6939 net.cpp:141] Setting up inception_3b/pool_proj
I0403 18:25:07.730692  6939 net.cpp:148] Top shape: 24 64 28 28 (1204224)
I0403 18:25:07.730708  6939 net.cpp:156] Memory required for data: 768295968
I0403 18:25:07.730726  6939 layer_factory.hpp:77] Creating layer inception_3b/relu_pool_proj
I0403 18:25:07.730747  6939 net.cpp:91] Creating Layer inception_3b/relu_pool_proj
I0403 18:25:07.730764  6939 net.cpp:425] inception_3b/relu_pool_proj <- inception_3b/pool_proj
I0403 18:25:07.730782  6939 net.cpp:386] inception_3b/relu_pool_proj -> inception_3b/pool_proj (in-place)
I0403 18:25:07.731171  6939 net.cpp:141] Setting up inception_3b/relu_pool_proj
I0403 18:25:07.731204  6939 net.cpp:148] Top shape: 24 64 28 28 (1204224)
I0403 18:25:07.731220  6939 net.cpp:156] Memory required for data: 773112864
I0403 18:25:07.731235  6939 layer_factory.hpp:77] Creating layer inception_3b/output
I0403 18:25:07.731251  6939 net.cpp:91] Creating Layer inception_3b/output
I0403 18:25:07.731267  6939 net.cpp:425] inception_3b/output <- inception_3b/1x1
I0403 18:25:07.731283  6939 net.cpp:425] inception_3b/output <- inception_3b/3x3
I0403 18:25:07.731299  6939 net.cpp:425] inception_3b/output <- inception_3b/5x5
I0403 18:25:07.731315  6939 net.cpp:425] inception_3b/output <- inception_3b/pool_proj
I0403 18:25:07.731334  6939 net.cpp:399] inception_3b/output -> inception_3b/output
I0403 18:25:07.731379  6939 net.cpp:141] Setting up inception_3b/output
I0403 18:25:07.731405  6939 net.cpp:148] Top shape: 24 480 28 28 (9031680)
I0403 18:25:07.731420  6939 net.cpp:156] Memory required for data: 809239584
I0403 18:25:07.731436  6939 layer_factory.hpp:77] Creating layer pool3/3x3_s2
I0403 18:25:07.731452  6939 net.cpp:91] Creating Layer pool3/3x3_s2
I0403 18:25:07.731467  6939 net.cpp:425] pool3/3x3_s2 <- inception_3b/output
I0403 18:25:07.731504  6939 net.cpp:399] pool3/3x3_s2 -> pool3/3x3_s2
I0403 18:25:07.731564  6939 net.cpp:141] Setting up pool3/3x3_s2
I0403 18:25:07.731586  6939 net.cpp:148] Top shape: 24 480 14 14 (2257920)
I0403 18:25:07.731601  6939 net.cpp:156] Memory required for data: 818271264
I0403 18:25:07.731616  6939 layer_factory.hpp:77] Creating layer pool3/3x3_s2_pool3/3x3_s2_0_split
I0403 18:25:07.731636  6939 net.cpp:91] Creating Layer pool3/3x3_s2_pool3/3x3_s2_0_split
I0403 18:25:07.731652  6939 net.cpp:425] pool3/3x3_s2_pool3/3x3_s2_0_split <- pool3/3x3_s2
I0403 18:25:07.731668  6939 net.cpp:399] pool3/3x3_s2_pool3/3x3_s2_0_split -> pool3/3x3_s2_pool3/3x3_s2_0_split_0
I0403 18:25:07.731688  6939 net.cpp:399] pool3/3x3_s2_pool3/3x3_s2_0_split -> pool3/3x3_s2_pool3/3x3_s2_0_split_1
I0403 18:25:07.731709  6939 net.cpp:399] pool3/3x3_s2_pool3/3x3_s2_0_split -> pool3/3x3_s2_pool3/3x3_s2_0_split_2
I0403 18:25:07.731729  6939 net.cpp:399] pool3/3x3_s2_pool3/3x3_s2_0_split -> pool3/3x3_s2_pool3/3x3_s2_0_split_3
I0403 18:25:07.731806  6939 net.cpp:141] Setting up pool3/3x3_s2_pool3/3x3_s2_0_split
I0403 18:25:07.731828  6939 net.cpp:148] Top shape: 24 480 14 14 (2257920)
I0403 18:25:07.731845  6939 net.cpp:148] Top shape: 24 480 14 14 (2257920)
I0403 18:25:07.731861  6939 net.cpp:148] Top shape: 24 480 14 14 (2257920)
I0403 18:25:07.731876  6939 net.cpp:148] Top shape: 24 480 14 14 (2257920)
I0403 18:25:07.731890  6939 net.cpp:156] Memory required for data: 854397984
I0403 18:25:07.731905  6939 layer_factory.hpp:77] Creating layer inception_4a/1x1
I0403 18:25:07.731927  6939 net.cpp:91] Creating Layer inception_4a/1x1
I0403 18:25:07.731945  6939 net.cpp:425] inception_4a/1x1 <- pool3/3x3_s2_pool3/3x3_s2_0_split_0
I0403 18:25:07.731966  6939 net.cpp:399] inception_4a/1x1 -> inception_4a/1x1
I0403 18:25:07.733572  6939 net.cpp:141] Setting up inception_4a/1x1
I0403 18:25:07.733603  6939 net.cpp:148] Top shape: 24 192 14 14 (903168)
I0403 18:25:07.733618  6939 net.cpp:156] Memory required for data: 858010656
I0403 18:25:07.733638  6939 layer_factory.hpp:77] Creating layer inception_4a/relu_1x1
I0403 18:25:07.733659  6939 net.cpp:91] Creating Layer inception_4a/relu_1x1
I0403 18:25:07.733675  6939 net.cpp:425] inception_4a/relu_1x1 <- inception_4a/1x1
I0403 18:25:07.733693  6939 net.cpp:386] inception_4a/relu_1x1 -> inception_4a/1x1 (in-place)
I0403 18:25:07.733872  6939 net.cpp:141] Setting up inception_4a/relu_1x1
I0403 18:25:07.733901  6939 net.cpp:148] Top shape: 24 192 14 14 (903168)
I0403 18:25:07.733916  6939 net.cpp:156] Memory required for data: 861623328
I0403 18:25:07.733932  6939 layer_factory.hpp:77] Creating layer inception_4a/3x3_reduce
I0403 18:25:07.733954  6939 net.cpp:91] Creating Layer inception_4a/3x3_reduce
I0403 18:25:07.733971  6939 net.cpp:425] inception_4a/3x3_reduce <- pool3/3x3_s2_pool3/3x3_s2_0_split_1
I0403 18:25:07.733990  6939 net.cpp:399] inception_4a/3x3_reduce -> inception_4a/3x3_reduce
I0403 18:25:07.735281  6939 net.cpp:141] Setting up inception_4a/3x3_reduce
I0403 18:25:07.735312  6939 net.cpp:148] Top shape: 24 96 14 14 (451584)
I0403 18:25:07.735328  6939 net.cpp:156] Memory required for data: 863429664
I0403 18:25:07.735354  6939 layer_factory.hpp:77] Creating layer inception_4a/relu_3x3_reduce
I0403 18:25:07.735378  6939 net.cpp:91] Creating Layer inception_4a/relu_3x3_reduce
I0403 18:25:07.735394  6939 net.cpp:425] inception_4a/relu_3x3_reduce <- inception_4a/3x3_reduce
I0403 18:25:07.735412  6939 net.cpp:386] inception_4a/relu_3x3_reduce -> inception_4a/3x3_reduce (in-place)
I0403 18:25:07.735591  6939 net.cpp:141] Setting up inception_4a/relu_3x3_reduce
I0403 18:25:07.735617  6939 net.cpp:148] Top shape: 24 96 14 14 (451584)
I0403 18:25:07.735632  6939 net.cpp:156] Memory required for data: 865236000
I0403 18:25:07.735646  6939 layer_factory.hpp:77] Creating layer inception_4a/3x3
I0403 18:25:07.735671  6939 net.cpp:91] Creating Layer inception_4a/3x3
I0403 18:25:07.735687  6939 net.cpp:425] inception_4a/3x3 <- inception_4a/3x3_reduce
I0403 18:25:07.735707  6939 net.cpp:399] inception_4a/3x3 -> inception_4a/3x3
I0403 18:25:07.738451  6939 net.cpp:141] Setting up inception_4a/3x3
I0403 18:25:07.738486  6939 net.cpp:148] Top shape: 24 208 14 14 (978432)
I0403 18:25:07.738504  6939 net.cpp:156] Memory required for data: 869149728
I0403 18:25:07.738524  6939 layer_factory.hpp:77] Creating layer inception_4a/relu_3x3
I0403 18:25:07.738543  6939 net.cpp:91] Creating Layer inception_4a/relu_3x3
I0403 18:25:07.738559  6939 net.cpp:425] inception_4a/relu_3x3 <- inception_4a/3x3
I0403 18:25:07.738576  6939 net.cpp:386] inception_4a/relu_3x3 -> inception_4a/3x3 (in-place)
I0403 18:25:07.738868  6939 net.cpp:141] Setting up inception_4a/relu_3x3
I0403 18:25:07.738898  6939 net.cpp:148] Top shape: 24 208 14 14 (978432)
I0403 18:25:07.738916  6939 net.cpp:156] Memory required for data: 873063456
I0403 18:25:07.738934  6939 layer_factory.hpp:77] Creating layer inception_4a/5x5_reduce
I0403 18:25:07.738956  6939 net.cpp:91] Creating Layer inception_4a/5x5_reduce
I0403 18:25:07.738976  6939 net.cpp:425] inception_4a/5x5_reduce <- pool3/3x3_s2_pool3/3x3_s2_0_split_2
I0403 18:25:07.738996  6939 net.cpp:399] inception_4a/5x5_reduce -> inception_4a/5x5_reduce
I0403 18:25:07.740028  6939 net.cpp:141] Setting up inception_4a/5x5_reduce
I0403 18:25:07.740061  6939 net.cpp:148] Top shape: 24 16 14 14 (75264)
I0403 18:25:07.740078  6939 net.cpp:156] Memory required for data: 873364512
I0403 18:25:07.740098  6939 layer_factory.hpp:77] Creating layer inception_4a/relu_5x5_reduce
I0403 18:25:07.740118  6939 net.cpp:91] Creating Layer inception_4a/relu_5x5_reduce
I0403 18:25:07.740134  6939 net.cpp:425] inception_4a/relu_5x5_reduce <- inception_4a/5x5_reduce
I0403 18:25:07.740155  6939 net.cpp:386] inception_4a/relu_5x5_reduce -> inception_4a/5x5_reduce (in-place)
I0403 18:25:07.740344  6939 net.cpp:141] Setting up inception_4a/relu_5x5_reduce
I0403 18:25:07.740370  6939 net.cpp:148] Top shape: 24 16 14 14 (75264)
I0403 18:25:07.740386  6939 net.cpp:156] Memory required for data: 873665568
I0403 18:25:07.740402  6939 layer_factory.hpp:77] Creating layer inception_4a/5x5
I0403 18:25:07.740425  6939 net.cpp:91] Creating Layer inception_4a/5x5
I0403 18:25:07.740445  6939 net.cpp:425] inception_4a/5x5 <- inception_4a/5x5_reduce
I0403 18:25:07.740468  6939 net.cpp:399] inception_4a/5x5 -> inception_4a/5x5
I0403 18:25:07.741570  6939 net.cpp:141] Setting up inception_4a/5x5
I0403 18:25:07.741600  6939 net.cpp:148] Top shape: 24 48 14 14 (225792)
I0403 18:25:07.741617  6939 net.cpp:156] Memory required for data: 874568736
I0403 18:25:07.741637  6939 layer_factory.hpp:77] Creating layer inception_4a/relu_5x5
I0403 18:25:07.741657  6939 net.cpp:91] Creating Layer inception_4a/relu_5x5
I0403 18:25:07.741673  6939 net.cpp:425] inception_4a/relu_5x5 <- inception_4a/5x5
I0403 18:25:07.741693  6939 net.cpp:386] inception_4a/relu_5x5 -> inception_4a/5x5 (in-place)
I0403 18:25:07.741875  6939 net.cpp:141] Setting up inception_4a/relu_5x5
I0403 18:25:07.741901  6939 net.cpp:148] Top shape: 24 48 14 14 (225792)
I0403 18:25:07.741917  6939 net.cpp:156] Memory required for data: 875471904
I0403 18:25:07.741933  6939 layer_factory.hpp:77] Creating layer inception_4a/pool
I0403 18:25:07.741953  6939 net.cpp:91] Creating Layer inception_4a/pool
I0403 18:25:07.741969  6939 net.cpp:425] inception_4a/pool <- pool3/3x3_s2_pool3/3x3_s2_0_split_3
I0403 18:25:07.741988  6939 net.cpp:399] inception_4a/pool -> inception_4a/pool
I0403 18:25:07.742049  6939 net.cpp:141] Setting up inception_4a/pool
I0403 18:25:07.742074  6939 net.cpp:148] Top shape: 24 480 14 14 (2257920)
I0403 18:25:07.742089  6939 net.cpp:156] Memory required for data: 884503584
I0403 18:25:07.742105  6939 layer_factory.hpp:77] Creating layer inception_4a/pool_proj
I0403 18:25:07.742126  6939 net.cpp:91] Creating Layer inception_4a/pool_proj
I0403 18:25:07.742143  6939 net.cpp:425] inception_4a/pool_proj <- inception_4a/pool
I0403 18:25:07.742164  6939 net.cpp:399] inception_4a/pool_proj -> inception_4a/pool_proj
I0403 18:25:07.743384  6939 net.cpp:141] Setting up inception_4a/pool_proj
I0403 18:25:07.743417  6939 net.cpp:148] Top shape: 24 64 14 14 (301056)
I0403 18:25:07.743453  6939 net.cpp:156] Memory required for data: 885707808
I0403 18:25:07.743474  6939 layer_factory.hpp:77] Creating layer inception_4a/relu_pool_proj
I0403 18:25:07.743496  6939 net.cpp:91] Creating Layer inception_4a/relu_pool_proj
I0403 18:25:07.743518  6939 net.cpp:425] inception_4a/relu_pool_proj <- inception_4a/pool_proj
I0403 18:25:07.743536  6939 net.cpp:386] inception_4a/relu_pool_proj -> inception_4a/pool_proj (in-place)
I0403 18:25:07.743824  6939 net.cpp:141] Setting up inception_4a/relu_pool_proj
I0403 18:25:07.743852  6939 net.cpp:148] Top shape: 24 64 14 14 (301056)
I0403 18:25:07.743868  6939 net.cpp:156] Memory required for data: 886912032
I0403 18:25:07.743885  6939 layer_factory.hpp:77] Creating layer inception_4a/output
I0403 18:25:07.743902  6939 net.cpp:91] Creating Layer inception_4a/output
I0403 18:25:07.743918  6939 net.cpp:425] inception_4a/output <- inception_4a/1x1
I0403 18:25:07.743938  6939 net.cpp:425] inception_4a/output <- inception_4a/3x3
I0403 18:25:07.743957  6939 net.cpp:425] inception_4a/output <- inception_4a/5x5
I0403 18:25:07.743973  6939 net.cpp:425] inception_4a/output <- inception_4a/pool_proj
I0403 18:25:07.743993  6939 net.cpp:399] inception_4a/output -> inception_4a/output
I0403 18:25:07.744040  6939 net.cpp:141] Setting up inception_4a/output
I0403 18:25:07.744065  6939 net.cpp:148] Top shape: 24 512 14 14 (2408448)
I0403 18:25:07.744081  6939 net.cpp:156] Memory required for data: 896545824
I0403 18:25:07.744096  6939 layer_factory.hpp:77] Creating layer inception_4a/output_inception_4a/output_0_split
I0403 18:25:07.744115  6939 net.cpp:91] Creating Layer inception_4a/output_inception_4a/output_0_split
I0403 18:25:07.744132  6939 net.cpp:425] inception_4a/output_inception_4a/output_0_split <- inception_4a/output
I0403 18:25:07.744151  6939 net.cpp:399] inception_4a/output_inception_4a/output_0_split -> inception_4a/output_inception_4a/output_0_split_0
I0403 18:25:07.744174  6939 net.cpp:399] inception_4a/output_inception_4a/output_0_split -> inception_4a/output_inception_4a/output_0_split_1
I0403 18:25:07.744201  6939 net.cpp:399] inception_4a/output_inception_4a/output_0_split -> inception_4a/output_inception_4a/output_0_split_2
I0403 18:25:07.744222  6939 net.cpp:399] inception_4a/output_inception_4a/output_0_split -> inception_4a/output_inception_4a/output_0_split_3
I0403 18:25:07.744242  6939 net.cpp:399] inception_4a/output_inception_4a/output_0_split -> inception_4a/output_inception_4a/output_0_split_4
I0403 18:25:07.744335  6939 net.cpp:141] Setting up inception_4a/output_inception_4a/output_0_split
I0403 18:25:07.744361  6939 net.cpp:148] Top shape: 24 512 14 14 (2408448)
I0403 18:25:07.744379  6939 net.cpp:148] Top shape: 24 512 14 14 (2408448)
I0403 18:25:07.744395  6939 net.cpp:148] Top shape: 24 512 14 14 (2408448)
I0403 18:25:07.744410  6939 net.cpp:148] Top shape: 24 512 14 14 (2408448)
I0403 18:25:07.744426  6939 net.cpp:148] Top shape: 24 512 14 14 (2408448)
I0403 18:25:07.744441  6939 net.cpp:156] Memory required for data: 944714784
I0403 18:25:07.744457  6939 layer_factory.hpp:77] Creating layer loss1/ave_pool
I0403 18:25:07.744475  6939 net.cpp:91] Creating Layer loss1/ave_pool
I0403 18:25:07.744491  6939 net.cpp:425] loss1/ave_pool <- inception_4a/output_inception_4a/output_0_split_0
I0403 18:25:07.744513  6939 net.cpp:399] loss1/ave_pool -> loss1/ave_pool
I0403 18:25:07.744722  6939 net.cpp:141] Setting up loss1/ave_pool
I0403 18:25:07.744748  6939 net.cpp:148] Top shape: 24 512 4 4 (196608)
I0403 18:25:07.744763  6939 net.cpp:156] Memory required for data: 945501216
I0403 18:25:07.744781  6939 layer_factory.hpp:77] Creating layer loss1/conv
I0403 18:25:07.744802  6939 net.cpp:91] Creating Layer loss1/conv
I0403 18:25:07.744820  6939 net.cpp:425] loss1/conv <- loss1/ave_pool
I0403 18:25:07.744843  6939 net.cpp:399] loss1/conv -> loss1/conv
I0403 18:25:07.746276  6939 net.cpp:141] Setting up loss1/conv
I0403 18:25:07.746310  6939 net.cpp:148] Top shape: 24 128 4 4 (49152)
I0403 18:25:07.746341  6939 net.cpp:156] Memory required for data: 945697824
I0403 18:25:07.746362  6939 layer_factory.hpp:77] Creating layer loss1/relu_conv
I0403 18:25:07.746381  6939 net.cpp:91] Creating Layer loss1/relu_conv
I0403 18:25:07.746397  6939 net.cpp:425] loss1/relu_conv <- loss1/conv
I0403 18:25:07.746413  6939 net.cpp:386] loss1/relu_conv -> loss1/conv (in-place)
I0403 18:25:07.746704  6939 net.cpp:141] Setting up loss1/relu_conv
I0403 18:25:07.746734  6939 net.cpp:148] Top shape: 24 128 4 4 (49152)
I0403 18:25:07.746750  6939 net.cpp:156] Memory required for data: 945894432
I0403 18:25:07.746767  6939 layer_factory.hpp:77] Creating layer loss1/fc
I0403 18:25:07.746789  6939 net.cpp:91] Creating Layer loss1/fc
I0403 18:25:07.746809  6939 net.cpp:425] loss1/fc <- loss1/conv
I0403 18:25:07.746830  6939 net.cpp:399] loss1/fc -> loss1/fc
I0403 18:25:07.765560  6939 net.cpp:141] Setting up loss1/fc
I0403 18:25:07.765635  6939 net.cpp:148] Top shape: 24 1024 (24576)
I0403 18:25:07.765651  6939 net.cpp:156] Memory required for data: 945992736
I0403 18:25:07.765671  6939 layer_factory.hpp:77] Creating layer loss1/relu_fc
I0403 18:25:07.765694  6939 net.cpp:91] Creating Layer loss1/relu_fc
I0403 18:25:07.765713  6939 net.cpp:425] loss1/relu_fc <- loss1/fc
I0403 18:25:07.765733  6939 net.cpp:386] loss1/relu_fc -> loss1/fc (in-place)
I0403 18:25:07.765954  6939 net.cpp:141] Setting up loss1/relu_fc
I0403 18:25:07.765983  6939 net.cpp:148] Top shape: 24 1024 (24576)
I0403 18:25:07.766001  6939 net.cpp:156] Memory required for data: 946091040
I0403 18:25:07.766018  6939 layer_factory.hpp:77] Creating layer loss1/drop_fc
I0403 18:25:07.766048  6939 net.cpp:91] Creating Layer loss1/drop_fc
I0403 18:25:07.766065  6939 net.cpp:425] loss1/drop_fc <- loss1/fc
I0403 18:25:07.766084  6939 net.cpp:386] loss1/drop_fc -> loss1/fc (in-place)
I0403 18:25:07.766139  6939 net.cpp:141] Setting up loss1/drop_fc
I0403 18:25:07.766165  6939 net.cpp:148] Top shape: 24 1024 (24576)
I0403 18:25:07.766188  6939 net.cpp:156] Memory required for data: 946189344
I0403 18:25:07.766207  6939 layer_factory.hpp:77] Creating layer loss1/classifier_plantvillage
I0403 18:25:07.766234  6939 net.cpp:91] Creating Layer loss1/classifier_plantvillage
I0403 18:25:07.766258  6939 net.cpp:425] loss1/classifier_plantvillage <- loss1/fc
I0403 18:25:07.766278  6939 net.cpp:399] loss1/classifier_plantvillage -> loss1/classifier_plantvillage
I0403 18:25:07.767282  6939 net.cpp:141] Setting up loss1/classifier_plantvillage
I0403 18:25:07.767314  6939 net.cpp:148] Top shape: 24 38 (912)
I0403 18:25:07.767331  6939 net.cpp:156] Memory required for data: 946192992
I0403 18:25:07.767352  6939 layer_factory.hpp:77] Creating layer loss1/classifier_plantvillage_loss1/classifier_plantvillage_0_split
I0403 18:25:07.767372  6939 net.cpp:91] Creating Layer loss1/classifier_plantvillage_loss1/classifier_plantvillage_0_split
I0403 18:25:07.767388  6939 net.cpp:425] loss1/classifier_plantvillage_loss1/classifier_plantvillage_0_split <- loss1/classifier_plantvillage
I0403 18:25:07.767407  6939 net.cpp:399] loss1/classifier_plantvillage_loss1/classifier_plantvillage_0_split -> loss1/classifier_plantvillage_loss1/classifier_plantvillage_0_split_0
I0403 18:25:07.767427  6939 net.cpp:399] loss1/classifier_plantvillage_loss1/classifier_plantvillage_0_split -> loss1/classifier_plantvillage_loss1/classifier_plantvillage_0_split_1
I0403 18:25:07.767449  6939 net.cpp:399] loss1/classifier_plantvillage_loss1/classifier_plantvillage_0_split -> loss1/classifier_plantvillage_loss1/classifier_plantvillage_0_split_2
I0403 18:25:07.767519  6939 net.cpp:141] Setting up loss1/classifier_plantvillage_loss1/classifier_plantvillage_0_split
I0403 18:25:07.767544  6939 net.cpp:148] Top shape: 24 38 (912)
I0403 18:25:07.767561  6939 net.cpp:148] Top shape: 24 38 (912)
I0403 18:25:07.767577  6939 net.cpp:148] Top shape: 24 38 (912)
I0403 18:25:07.767591  6939 net.cpp:156] Memory required for data: 946203936
I0403 18:25:07.767606  6939 layer_factory.hpp:77] Creating layer inception_4b/1x1
I0403 18:25:07.767629  6939 net.cpp:91] Creating Layer inception_4b/1x1
I0403 18:25:07.767673  6939 net.cpp:425] inception_4b/1x1 <- inception_4a/output_inception_4a/output_0_split_1
I0403 18:25:07.767698  6939 net.cpp:399] inception_4b/1x1 -> inception_4b/1x1
I0403 18:25:07.769466  6939 net.cpp:141] Setting up inception_4b/1x1
I0403 18:25:07.769500  6939 net.cpp:148] Top shape: 24 160 14 14 (752640)
I0403 18:25:07.769518  6939 net.cpp:156] Memory required for data: 949214496
I0403 18:25:07.769537  6939 layer_factory.hpp:77] Creating layer inception_4b/relu_1x1
I0403 18:25:07.769556  6939 net.cpp:91] Creating Layer inception_4b/relu_1x1
I0403 18:25:07.769572  6939 net.cpp:425] inception_4b/relu_1x1 <- inception_4b/1x1
I0403 18:25:07.769589  6939 net.cpp:386] inception_4b/relu_1x1 -> inception_4b/1x1 (in-place)
I0403 18:25:07.769773  6939 net.cpp:141] Setting up inception_4b/relu_1x1
I0403 18:25:07.769799  6939 net.cpp:148] Top shape: 24 160 14 14 (752640)
I0403 18:25:07.769814  6939 net.cpp:156] Memory required for data: 952225056
I0403 18:25:07.769829  6939 layer_factory.hpp:77] Creating layer inception_4b/3x3_reduce
I0403 18:25:07.769852  6939 net.cpp:91] Creating Layer inception_4b/3x3_reduce
I0403 18:25:07.769870  6939 net.cpp:425] inception_4b/3x3_reduce <- inception_4a/output_inception_4a/output_0_split_2
I0403 18:25:07.769894  6939 net.cpp:399] inception_4b/3x3_reduce -> inception_4b/3x3_reduce
I0403 18:25:07.771283  6939 net.cpp:141] Setting up inception_4b/3x3_reduce
I0403 18:25:07.771313  6939 net.cpp:148] Top shape: 24 112 14 14 (526848)
I0403 18:25:07.771329  6939 net.cpp:156] Memory required for data: 954332448
I0403 18:25:07.771349  6939 layer_factory.hpp:77] Creating layer inception_4b/relu_3x3_reduce
I0403 18:25:07.771368  6939 net.cpp:91] Creating Layer inception_4b/relu_3x3_reduce
I0403 18:25:07.771390  6939 net.cpp:425] inception_4b/relu_3x3_reduce <- inception_4b/3x3_reduce
I0403 18:25:07.771409  6939 net.cpp:386] inception_4b/relu_3x3_reduce -> inception_4b/3x3_reduce (in-place)
I0403 18:25:07.771703  6939 net.cpp:141] Setting up inception_4b/relu_3x3_reduce
I0403 18:25:07.771731  6939 net.cpp:148] Top shape: 24 112 14 14 (526848)
I0403 18:25:07.771749  6939 net.cpp:156] Memory required for data: 956439840
I0403 18:25:07.771764  6939 layer_factory.hpp:77] Creating layer inception_4b/3x3
I0403 18:25:07.771790  6939 net.cpp:91] Creating Layer inception_4b/3x3
I0403 18:25:07.771808  6939 net.cpp:425] inception_4b/3x3 <- inception_4b/3x3_reduce
I0403 18:25:07.771831  6939 net.cpp:399] inception_4b/3x3 -> inception_4b/3x3
I0403 18:25:07.774945  6939 net.cpp:141] Setting up inception_4b/3x3
I0403 18:25:07.774976  6939 net.cpp:148] Top shape: 24 224 14 14 (1053696)
I0403 18:25:07.774992  6939 net.cpp:156] Memory required for data: 960654624
I0403 18:25:07.775012  6939 layer_factory.hpp:77] Creating layer inception_4b/relu_3x3
I0403 18:25:07.775032  6939 net.cpp:91] Creating Layer inception_4b/relu_3x3
I0403 18:25:07.775049  6939 net.cpp:425] inception_4b/relu_3x3 <- inception_4b/3x3
I0403 18:25:07.775068  6939 net.cpp:386] inception_4b/relu_3x3 -> inception_4b/3x3 (in-place)
I0403 18:25:07.775259  6939 net.cpp:141] Setting up inception_4b/relu_3x3
I0403 18:25:07.775286  6939 net.cpp:148] Top shape: 24 224 14 14 (1053696)
I0403 18:25:07.775302  6939 net.cpp:156] Memory required for data: 964869408
I0403 18:25:07.775317  6939 layer_factory.hpp:77] Creating layer inception_4b/5x5_reduce
I0403 18:25:07.775341  6939 net.cpp:91] Creating Layer inception_4b/5x5_reduce
I0403 18:25:07.775357  6939 net.cpp:425] inception_4b/5x5_reduce <- inception_4a/output_inception_4a/output_0_split_3
I0403 18:25:07.775377  6939 net.cpp:399] inception_4b/5x5_reduce -> inception_4b/5x5_reduce
I0403 18:25:07.776509  6939 net.cpp:141] Setting up inception_4b/5x5_reduce
I0403 18:25:07.776541  6939 net.cpp:148] Top shape: 24 24 14 14 (112896)
I0403 18:25:07.776559  6939 net.cpp:156] Memory required for data: 965320992
I0403 18:25:07.776581  6939 layer_factory.hpp:77] Creating layer inception_4b/relu_5x5_reduce
I0403 18:25:07.776599  6939 net.cpp:91] Creating Layer inception_4b/relu_5x5_reduce
I0403 18:25:07.776633  6939 net.cpp:425] inception_4b/relu_5x5_reduce <- inception_4b/5x5_reduce
I0403 18:25:07.776655  6939 net.cpp:386] inception_4b/relu_5x5_reduce -> inception_4b/5x5_reduce (in-place)
I0403 18:25:07.776849  6939 net.cpp:141] Setting up inception_4b/relu_5x5_reduce
I0403 18:25:07.776876  6939 net.cpp:148] Top shape: 24 24 14 14 (112896)
I0403 18:25:07.776892  6939 net.cpp:156] Memory required for data: 965772576
I0403 18:25:07.776908  6939 layer_factory.hpp:77] Creating layer inception_4b/5x5
I0403 18:25:07.776932  6939 net.cpp:91] Creating Layer inception_4b/5x5
I0403 18:25:07.776952  6939 net.cpp:425] inception_4b/5x5 <- inception_4b/5x5_reduce
I0403 18:25:07.776974  6939 net.cpp:399] inception_4b/5x5 -> inception_4b/5x5
I0403 18:25:07.778269  6939 net.cpp:141] Setting up inception_4b/5x5
I0403 18:25:07.778302  6939 net.cpp:148] Top shape: 24 64 14 14 (301056)
I0403 18:25:07.778332  6939 net.cpp:156] Memory required for data: 966976800
I0403 18:25:07.778352  6939 layer_factory.hpp:77] Creating layer inception_4b/relu_5x5
I0403 18:25:07.778372  6939 net.cpp:91] Creating Layer inception_4b/relu_5x5
I0403 18:25:07.778389  6939 net.cpp:425] inception_4b/relu_5x5 <- inception_4b/5x5
I0403 18:25:07.778406  6939 net.cpp:386] inception_4b/relu_5x5 -> inception_4b/5x5 (in-place)
I0403 18:25:07.778695  6939 net.cpp:141] Setting up inception_4b/relu_5x5
I0403 18:25:07.778724  6939 net.cpp:148] Top shape: 24 64 14 14 (301056)
I0403 18:25:07.778741  6939 net.cpp:156] Memory required for data: 968181024
I0403 18:25:07.778758  6939 layer_factory.hpp:77] Creating layer inception_4b/pool
I0403 18:25:07.778776  6939 net.cpp:91] Creating Layer inception_4b/pool
I0403 18:25:07.778792  6939 net.cpp:425] inception_4b/pool <- inception_4a/output_inception_4a/output_0_split_4
I0403 18:25:07.778813  6939 net.cpp:399] inception_4b/pool -> inception_4b/pool
I0403 18:25:07.778879  6939 net.cpp:141] Setting up inception_4b/pool
I0403 18:25:07.778903  6939 net.cpp:148] Top shape: 24 512 14 14 (2408448)
I0403 18:25:07.778918  6939 net.cpp:156] Memory required for data: 977814816
I0403 18:25:07.778933  6939 layer_factory.hpp:77] Creating layer inception_4b/pool_proj
I0403 18:25:07.778954  6939 net.cpp:91] Creating Layer inception_4b/pool_proj
I0403 18:25:07.778972  6939 net.cpp:425] inception_4b/pool_proj <- inception_4b/pool
I0403 18:25:07.778993  6939 net.cpp:399] inception_4b/pool_proj -> inception_4b/pool_proj
I0403 18:25:07.780228  6939 net.cpp:141] Setting up inception_4b/pool_proj
I0403 18:25:07.780258  6939 net.cpp:148] Top shape: 24 64 14 14 (301056)
I0403 18:25:07.780273  6939 net.cpp:156] Memory required for data: 979019040
I0403 18:25:07.780292  6939 layer_factory.hpp:77] Creating layer inception_4b/relu_pool_proj
I0403 18:25:07.780310  6939 net.cpp:91] Creating Layer inception_4b/relu_pool_proj
I0403 18:25:07.780328  6939 net.cpp:425] inception_4b/relu_pool_proj <- inception_4b/pool_proj
I0403 18:25:07.780349  6939 net.cpp:386] inception_4b/relu_pool_proj -> inception_4b/pool_proj (in-place)
I0403 18:25:07.780531  6939 net.cpp:141] Setting up inception_4b/relu_pool_proj
I0403 18:25:07.780556  6939 net.cpp:148] Top shape: 24 64 14 14 (301056)
I0403 18:25:07.780571  6939 net.cpp:156] Memory required for data: 980223264
I0403 18:25:07.780587  6939 layer_factory.hpp:77] Creating layer inception_4b/output
I0403 18:25:07.780606  6939 net.cpp:91] Creating Layer inception_4b/output
I0403 18:25:07.780622  6939 net.cpp:425] inception_4b/output <- inception_4b/1x1
I0403 18:25:07.780640  6939 net.cpp:425] inception_4b/output <- inception_4b/3x3
I0403 18:25:07.780657  6939 net.cpp:425] inception_4b/output <- inception_4b/5x5
I0403 18:25:07.780673  6939 net.cpp:425] inception_4b/output <- inception_4b/pool_proj
I0403 18:25:07.780689  6939 net.cpp:399] inception_4b/output -> inception_4b/output
I0403 18:25:07.780735  6939 net.cpp:141] Setting up inception_4b/output
I0403 18:25:07.780761  6939 net.cpp:148] Top shape: 24 512 14 14 (2408448)
I0403 18:25:07.780776  6939 net.cpp:156] Memory required for data: 989857056
I0403 18:25:07.780805  6939 layer_factory.hpp:77] Creating layer inception_4b/output_inception_4b/output_0_split
I0403 18:25:07.780823  6939 net.cpp:91] Creating Layer inception_4b/output_inception_4b/output_0_split
I0403 18:25:07.780838  6939 net.cpp:425] inception_4b/output_inception_4b/output_0_split <- inception_4b/output
I0403 18:25:07.780858  6939 net.cpp:399] inception_4b/output_inception_4b/output_0_split -> inception_4b/output_inception_4b/output_0_split_0
I0403 18:25:07.780879  6939 net.cpp:399] inception_4b/output_inception_4b/output_0_split -> inception_4b/output_inception_4b/output_0_split_1
I0403 18:25:07.780900  6939 net.cpp:399] inception_4b/output_inception_4b/output_0_split -> inception_4b/output_inception_4b/output_0_split_2
I0403 18:25:07.780920  6939 net.cpp:399] inception_4b/output_inception_4b/output_0_split -> inception_4b/output_inception_4b/output_0_split_3
I0403 18:25:07.781002  6939 net.cpp:141] Setting up inception_4b/output_inception_4b/output_0_split
I0403 18:25:07.781028  6939 net.cpp:148] Top shape: 24 512 14 14 (2408448)
I0403 18:25:07.781044  6939 net.cpp:148] Top shape: 24 512 14 14 (2408448)
I0403 18:25:07.781060  6939 net.cpp:148] Top shape: 24 512 14 14 (2408448)
I0403 18:25:07.781075  6939 net.cpp:148] Top shape: 24 512 14 14 (2408448)
I0403 18:25:07.781090  6939 net.cpp:156] Memory required for data: 1028392224
I0403 18:25:07.781105  6939 layer_factory.hpp:77] Creating layer inception_4c/1x1
I0403 18:25:07.781127  6939 net.cpp:91] Creating Layer inception_4c/1x1
I0403 18:25:07.781146  6939 net.cpp:425] inception_4c/1x1 <- inception_4b/output_inception_4b/output_0_split_0
I0403 18:25:07.781164  6939 net.cpp:399] inception_4c/1x1 -> inception_4c/1x1
I0403 18:25:07.782649  6939 net.cpp:141] Setting up inception_4c/1x1
I0403 18:25:07.782678  6939 net.cpp:148] Top shape: 24 128 14 14 (602112)
I0403 18:25:07.782694  6939 net.cpp:156] Memory required for data: 1030800672
I0403 18:25:07.782713  6939 layer_factory.hpp:77] Creating layer inception_4c/relu_1x1
I0403 18:25:07.782734  6939 net.cpp:91] Creating Layer inception_4c/relu_1x1
I0403 18:25:07.782750  6939 net.cpp:425] inception_4c/relu_1x1 <- inception_4c/1x1
I0403 18:25:07.782768  6939 net.cpp:386] inception_4c/relu_1x1 -> inception_4c/1x1 (in-place)
I0403 18:25:07.782958  6939 net.cpp:141] Setting up inception_4c/relu_1x1
I0403 18:25:07.782984  6939 net.cpp:148] Top shape: 24 128 14 14 (602112)
I0403 18:25:07.782999  6939 net.cpp:156] Memory required for data: 1033209120
I0403 18:25:07.783013  6939 layer_factory.hpp:77] Creating layer inception_4c/3x3_reduce
I0403 18:25:07.783037  6939 net.cpp:91] Creating Layer inception_4c/3x3_reduce
I0403 18:25:07.783056  6939 net.cpp:425] inception_4c/3x3_reduce <- inception_4b/output_inception_4b/output_0_split_1
I0403 18:25:07.783074  6939 net.cpp:399] inception_4c/3x3_reduce -> inception_4c/3x3_reduce
I0403 18:25:07.785068  6939 net.cpp:141] Setting up inception_4c/3x3_reduce
I0403 18:25:07.785100  6939 net.cpp:148] Top shape: 24 128 14 14 (602112)
I0403 18:25:07.785117  6939 net.cpp:156] Memory required for data: 1035617568
I0403 18:25:07.785137  6939 layer_factory.hpp:77] Creating layer inception_4c/relu_3x3_reduce
I0403 18:25:07.785156  6939 net.cpp:91] Creating Layer inception_4c/relu_3x3_reduce
I0403 18:25:07.785174  6939 net.cpp:425] inception_4c/relu_3x3_reduce <- inception_4c/3x3_reduce
I0403 18:25:07.785202  6939 net.cpp:386] inception_4c/relu_3x3_reduce -> inception_4c/3x3_reduce (in-place)
I0403 18:25:07.785493  6939 net.cpp:141] Setting up inception_4c/relu_3x3_reduce
I0403 18:25:07.785522  6939 net.cpp:148] Top shape: 24 128 14 14 (602112)
I0403 18:25:07.785538  6939 net.cpp:156] Memory required for data: 1038026016
I0403 18:25:07.785554  6939 layer_factory.hpp:77] Creating layer inception_4c/3x3
I0403 18:25:07.785578  6939 net.cpp:91] Creating Layer inception_4c/3x3
I0403 18:25:07.785596  6939 net.cpp:425] inception_4c/3x3 <- inception_4c/3x3_reduce
I0403 18:25:07.785615  6939 net.cpp:399] inception_4c/3x3 -> inception_4c/3x3
I0403 18:25:07.789340  6939 net.cpp:141] Setting up inception_4c/3x3
I0403 18:25:07.789384  6939 net.cpp:148] Top shape: 24 256 14 14 (1204224)
I0403 18:25:07.789402  6939 net.cpp:156] Memory required for data: 1042842912
I0403 18:25:07.789435  6939 layer_factory.hpp:77] Creating layer inception_4c/relu_3x3
I0403 18:25:07.789456  6939 net.cpp:91] Creating Layer inception_4c/relu_3x3
I0403 18:25:07.789474  6939 net.cpp:425] inception_4c/relu_3x3 <- inception_4c/3x3
I0403 18:25:07.789492  6939 net.cpp:386] inception_4c/relu_3x3 -> inception_4c/3x3 (in-place)
I0403 18:25:07.789679  6939 net.cpp:141] Setting up inception_4c/relu_3x3
I0403 18:25:07.789706  6939 net.cpp:148] Top shape: 24 256 14 14 (1204224)
I0403 18:25:07.789723  6939 net.cpp:156] Memory required for data: 1047659808
I0403 18:25:07.789738  6939 layer_factory.hpp:77] Creating layer inception_4c/5x5_reduce
I0403 18:25:07.789762  6939 net.cpp:91] Creating Layer inception_4c/5x5_reduce
I0403 18:25:07.789779  6939 net.cpp:425] inception_4c/5x5_reduce <- inception_4b/output_inception_4b/output_0_split_2
I0403 18:25:07.789798  6939 net.cpp:399] inception_4c/5x5_reduce -> inception_4c/5x5_reduce
I0403 18:25:07.790913  6939 net.cpp:141] Setting up inception_4c/5x5_reduce
I0403 18:25:07.790946  6939 net.cpp:148] Top shape: 24 24 14 14 (112896)
I0403 18:25:07.790963  6939 net.cpp:156] Memory required for data: 1048111392
I0403 18:25:07.790982  6939 layer_factory.hpp:77] Creating layer inception_4c/relu_5x5_reduce
I0403 18:25:07.790999  6939 net.cpp:91] Creating Layer inception_4c/relu_5x5_reduce
I0403 18:25:07.791015  6939 net.cpp:425] inception_4c/relu_5x5_reduce <- inception_4c/5x5_reduce
I0403 18:25:07.791034  6939 net.cpp:386] inception_4c/relu_5x5_reduce -> inception_4c/5x5_reduce (in-place)
I0403 18:25:07.791232  6939 net.cpp:141] Setting up inception_4c/relu_5x5_reduce
I0403 18:25:07.791259  6939 net.cpp:148] Top shape: 24 24 14 14 (112896)
I0403 18:25:07.791273  6939 net.cpp:156] Memory required for data: 1048562976
I0403 18:25:07.791290  6939 layer_factory.hpp:77] Creating layer inception_4c/5x5
I0403 18:25:07.791311  6939 net.cpp:91] Creating Layer inception_4c/5x5
I0403 18:25:07.791329  6939 net.cpp:425] inception_4c/5x5 <- inception_4c/5x5_reduce
I0403 18:25:07.791350  6939 net.cpp:399] inception_4c/5x5 -> inception_4c/5x5
I0403 18:25:07.792642  6939 net.cpp:141] Setting up inception_4c/5x5
I0403 18:25:07.792673  6939 net.cpp:148] Top shape: 24 64 14 14 (301056)
I0403 18:25:07.792690  6939 net.cpp:156] Memory required for data: 1049767200
I0403 18:25:07.792709  6939 layer_factory.hpp:77] Creating layer inception_4c/relu_5x5
I0403 18:25:07.792731  6939 net.cpp:91] Creating Layer inception_4c/relu_5x5
I0403 18:25:07.792748  6939 net.cpp:425] inception_4c/relu_5x5 <- inception_4c/5x5
I0403 18:25:07.792768  6939 net.cpp:386] inception_4c/relu_5x5 -> inception_4c/5x5 (in-place)
I0403 18:25:07.793058  6939 net.cpp:141] Setting up inception_4c/relu_5x5
I0403 18:25:07.793086  6939 net.cpp:148] Top shape: 24 64 14 14 (301056)
I0403 18:25:07.793102  6939 net.cpp:156] Memory required for data: 1050971424
I0403 18:25:07.793117  6939 layer_factory.hpp:77] Creating layer inception_4c/pool
I0403 18:25:07.793138  6939 net.cpp:91] Creating Layer inception_4c/pool
I0403 18:25:07.793155  6939 net.cpp:425] inception_4c/pool <- inception_4b/output_inception_4b/output_0_split_3
I0403 18:25:07.793175  6939 net.cpp:399] inception_4c/pool -> inception_4c/pool
I0403 18:25:07.793251  6939 net.cpp:141] Setting up inception_4c/pool
I0403 18:25:07.793274  6939 net.cpp:148] Top shape: 24 512 14 14 (2408448)
I0403 18:25:07.793289  6939 net.cpp:156] Memory required for data: 1060605216
I0403 18:25:07.793305  6939 layer_factory.hpp:77] Creating layer inception_4c/pool_proj
I0403 18:25:07.793329  6939 net.cpp:91] Creating Layer inception_4c/pool_proj
I0403 18:25:07.793346  6939 net.cpp:425] inception_4c/pool_proj <- inception_4c/pool
I0403 18:25:07.793367  6939 net.cpp:399] inception_4c/pool_proj -> inception_4c/pool_proj
I0403 18:25:07.794615  6939 net.cpp:141] Setting up inception_4c/pool_proj
I0403 18:25:07.794649  6939 net.cpp:148] Top shape: 24 64 14 14 (301056)
I0403 18:25:07.794682  6939 net.cpp:156] Memory required for data: 1061809440
I0403 18:25:07.794703  6939 layer_factory.hpp:77] Creating layer inception_4c/relu_pool_proj
I0403 18:25:07.794721  6939 net.cpp:91] Creating Layer inception_4c/relu_pool_proj
I0403 18:25:07.794739  6939 net.cpp:425] inception_4c/relu_pool_proj <- inception_4c/pool_proj
I0403 18:25:07.794759  6939 net.cpp:386] inception_4c/relu_pool_proj -> inception_4c/pool_proj (in-place)
I0403 18:25:07.794952  6939 net.cpp:141] Setting up inception_4c/relu_pool_proj
I0403 18:25:07.794978  6939 net.cpp:148] Top shape: 24 64 14 14 (301056)
I0403 18:25:07.794993  6939 net.cpp:156] Memory required for data: 1063013664
I0403 18:25:07.795009  6939 layer_factory.hpp:77] Creating layer inception_4c/output
I0403 18:25:07.795027  6939 net.cpp:91] Creating Layer inception_4c/output
I0403 18:25:07.795042  6939 net.cpp:425] inception_4c/output <- inception_4c/1x1
I0403 18:25:07.795058  6939 net.cpp:425] inception_4c/output <- inception_4c/3x3
I0403 18:25:07.795074  6939 net.cpp:425] inception_4c/output <- inception_4c/5x5
I0403 18:25:07.795092  6939 net.cpp:425] inception_4c/output <- inception_4c/pool_proj
I0403 18:25:07.795112  6939 net.cpp:399] inception_4c/output -> inception_4c/output
I0403 18:25:07.795159  6939 net.cpp:141] Setting up inception_4c/output
I0403 18:25:07.795204  6939 net.cpp:148] Top shape: 24 512 14 14 (2408448)
I0403 18:25:07.795222  6939 net.cpp:156] Memory required for data: 1072647456
I0403 18:25:07.795238  6939 layer_factory.hpp:77] Creating layer inception_4c/output_inception_4c/output_0_split
I0403 18:25:07.795255  6939 net.cpp:91] Creating Layer inception_4c/output_inception_4c/output_0_split
I0403 18:25:07.795272  6939 net.cpp:425] inception_4c/output_inception_4c/output_0_split <- inception_4c/output
I0403 18:25:07.795294  6939 net.cpp:399] inception_4c/output_inception_4c/output_0_split -> inception_4c/output_inception_4c/output_0_split_0
I0403 18:25:07.795313  6939 net.cpp:399] inception_4c/output_inception_4c/output_0_split -> inception_4c/output_inception_4c/output_0_split_1
I0403 18:25:07.795334  6939 net.cpp:399] inception_4c/output_inception_4c/output_0_split -> inception_4c/output_inception_4c/output_0_split_2
I0403 18:25:07.795356  6939 net.cpp:399] inception_4c/output_inception_4c/output_0_split -> inception_4c/output_inception_4c/output_0_split_3
I0403 18:25:07.795446  6939 net.cpp:141] Setting up inception_4c/output_inception_4c/output_0_split
I0403 18:25:07.795474  6939 net.cpp:148] Top shape: 24 512 14 14 (2408448)
I0403 18:25:07.795491  6939 net.cpp:148] Top shape: 24 512 14 14 (2408448)
I0403 18:25:07.795509  6939 net.cpp:148] Top shape: 24 512 14 14 (2408448)
I0403 18:25:07.795527  6939 net.cpp:148] Top shape: 24 512 14 14 (2408448)
I0403 18:25:07.795542  6939 net.cpp:156] Memory required for data: 1111182624
I0403 18:25:07.795557  6939 layer_factory.hpp:77] Creating layer inception_4d/1x1
I0403 18:25:07.795578  6939 net.cpp:91] Creating Layer inception_4d/1x1
I0403 18:25:07.795594  6939 net.cpp:425] inception_4d/1x1 <- inception_4c/output_inception_4c/output_0_split_0
I0403 18:25:07.795616  6939 net.cpp:399] inception_4d/1x1 -> inception_4d/1x1
I0403 18:25:07.797091  6939 net.cpp:141] Setting up inception_4d/1x1
I0403 18:25:07.797122  6939 net.cpp:148] Top shape: 24 112 14 14 (526848)
I0403 18:25:07.797139  6939 net.cpp:156] Memory required for data: 1113290016
I0403 18:25:07.797158  6939 layer_factory.hpp:77] Creating layer inception_4d/relu_1x1
I0403 18:25:07.797185  6939 net.cpp:91] Creating Layer inception_4d/relu_1x1
I0403 18:25:07.797209  6939 net.cpp:425] inception_4d/relu_1x1 <- inception_4d/1x1
I0403 18:25:07.797227  6939 net.cpp:386] inception_4d/relu_1x1 -> inception_4d/1x1 (in-place)
I0403 18:25:07.797418  6939 net.cpp:141] Setting up inception_4d/relu_1x1
I0403 18:25:07.797448  6939 net.cpp:148] Top shape: 24 112 14 14 (526848)
I0403 18:25:07.797466  6939 net.cpp:156] Memory required for data: 1115397408
I0403 18:25:07.797482  6939 layer_factory.hpp:77] Creating layer inception_4d/3x3_reduce
I0403 18:25:07.797519  6939 net.cpp:91] Creating Layer inception_4d/3x3_reduce
I0403 18:25:07.797538  6939 net.cpp:425] inception_4d/3x3_reduce <- inception_4c/output_inception_4c/output_0_split_1
I0403 18:25:07.797557  6939 net.cpp:399] inception_4d/3x3_reduce -> inception_4d/3x3_reduce
I0403 18:25:07.799109  6939 net.cpp:141] Setting up inception_4d/3x3_reduce
I0403 18:25:07.799140  6939 net.cpp:148] Top shape: 24 144 14 14 (677376)
I0403 18:25:07.799156  6939 net.cpp:156] Memory required for data: 1118106912
I0403 18:25:07.799183  6939 layer_factory.hpp:77] Creating layer inception_4d/relu_3x3_reduce
I0403 18:25:07.799206  6939 net.cpp:91] Creating Layer inception_4d/relu_3x3_reduce
I0403 18:25:07.799226  6939 net.cpp:425] inception_4d/relu_3x3_reduce <- inception_4d/3x3_reduce
I0403 18:25:07.799244  6939 net.cpp:386] inception_4d/relu_3x3_reduce -> inception_4d/3x3_reduce (in-place)
I0403 18:25:07.799542  6939 net.cpp:141] Setting up inception_4d/relu_3x3_reduce
I0403 18:25:07.799571  6939 net.cpp:148] Top shape: 24 144 14 14 (677376)
I0403 18:25:07.799588  6939 net.cpp:156] Memory required for data: 1120816416
I0403 18:25:07.799604  6939 layer_factory.hpp:77] Creating layer inception_4d/3x3
I0403 18:25:07.799628  6939 net.cpp:91] Creating Layer inception_4d/3x3
I0403 18:25:07.799646  6939 net.cpp:425] inception_4d/3x3 <- inception_4d/3x3_reduce
I0403 18:25:07.799667  6939 net.cpp:399] inception_4d/3x3 -> inception_4d/3x3
I0403 18:25:07.804122  6939 net.cpp:141] Setting up inception_4d/3x3
I0403 18:25:07.804154  6939 net.cpp:148] Top shape: 24 288 14 14 (1354752)
I0403 18:25:07.804172  6939 net.cpp:156] Memory required for data: 1126235424
I0403 18:25:07.804198  6939 layer_factory.hpp:77] Creating layer inception_4d/relu_3x3
I0403 18:25:07.804221  6939 net.cpp:91] Creating Layer inception_4d/relu_3x3
I0403 18:25:07.804240  6939 net.cpp:425] inception_4d/relu_3x3 <- inception_4d/3x3
I0403 18:25:07.804257  6939 net.cpp:386] inception_4d/relu_3x3 -> inception_4d/3x3 (in-place)
I0403 18:25:07.804450  6939 net.cpp:141] Setting up inception_4d/relu_3x3
I0403 18:25:07.804476  6939 net.cpp:148] Top shape: 24 288 14 14 (1354752)
I0403 18:25:07.804492  6939 net.cpp:156] Memory required for data: 1131654432
I0403 18:25:07.804507  6939 layer_factory.hpp:77] Creating layer inception_4d/5x5_reduce
I0403 18:25:07.804529  6939 net.cpp:91] Creating Layer inception_4d/5x5_reduce
I0403 18:25:07.804548  6939 net.cpp:425] inception_4d/5x5_reduce <- inception_4c/output_inception_4c/output_0_split_2
I0403 18:25:07.804571  6939 net.cpp:399] inception_4d/5x5_reduce -> inception_4d/5x5_reduce
I0403 18:25:07.805752  6939 net.cpp:141] Setting up inception_4d/5x5_reduce
I0403 18:25:07.805783  6939 net.cpp:148] Top shape: 24 32 14 14 (150528)
I0403 18:25:07.805804  6939 net.cpp:156] Memory required for data: 1132256544
I0403 18:25:07.805822  6939 layer_factory.hpp:77] Creating layer inception_4d/relu_5x5_reduce
I0403 18:25:07.805840  6939 net.cpp:91] Creating Layer inception_4d/relu_5x5_reduce
I0403 18:25:07.805858  6939 net.cpp:425] inception_4d/relu_5x5_reduce <- inception_4d/5x5_reduce
I0403 18:25:07.805876  6939 net.cpp:386] inception_4d/relu_5x5_reduce -> inception_4d/5x5_reduce (in-place)
I0403 18:25:07.806068  6939 net.cpp:141] Setting up inception_4d/relu_5x5_reduce
I0403 18:25:07.806097  6939 net.cpp:148] Top shape: 24 32 14 14 (150528)
I0403 18:25:07.806113  6939 net.cpp:156] Memory required for data: 1132858656
I0403 18:25:07.806128  6939 layer_factory.hpp:77] Creating layer inception_4d/5x5
I0403 18:25:07.806150  6939 net.cpp:91] Creating Layer inception_4d/5x5
I0403 18:25:07.806169  6939 net.cpp:425] inception_4d/5x5 <- inception_4d/5x5_reduce
I0403 18:25:07.806197  6939 net.cpp:399] inception_4d/5x5 -> inception_4d/5x5
I0403 18:25:07.807713  6939 net.cpp:141] Setting up inception_4d/5x5
I0403 18:25:07.807742  6939 net.cpp:148] Top shape: 24 64 14 14 (301056)
I0403 18:25:07.807760  6939 net.cpp:156] Memory required for data: 1134062880
I0403 18:25:07.807780  6939 layer_factory.hpp:77] Creating layer inception_4d/relu_5x5
I0403 18:25:07.807816  6939 net.cpp:91] Creating Layer inception_4d/relu_5x5
I0403 18:25:07.807832  6939 net.cpp:425] inception_4d/relu_5x5 <- inception_4d/5x5
I0403 18:25:07.807853  6939 net.cpp:386] inception_4d/relu_5x5 -> inception_4d/5x5 (in-place)
I0403 18:25:07.808161  6939 net.cpp:141] Setting up inception_4d/relu_5x5
I0403 18:25:07.808194  6939 net.cpp:148] Top shape: 24 64 14 14 (301056)
I0403 18:25:07.808212  6939 net.cpp:156] Memory required for data: 1135267104
I0403 18:25:07.808228  6939 layer_factory.hpp:77] Creating layer inception_4d/pool
I0403 18:25:07.808245  6939 net.cpp:91] Creating Layer inception_4d/pool
I0403 18:25:07.808261  6939 net.cpp:425] inception_4d/pool <- inception_4c/output_inception_4c/output_0_split_3
I0403 18:25:07.808284  6939 net.cpp:399] inception_4d/pool -> inception_4d/pool
I0403 18:25:07.808351  6939 net.cpp:141] Setting up inception_4d/pool
I0403 18:25:07.808380  6939 net.cpp:148] Top shape: 24 512 14 14 (2408448)
I0403 18:25:07.808396  6939 net.cpp:156] Memory required for data: 1144900896
I0403 18:25:07.808413  6939 layer_factory.hpp:77] Creating layer inception_4d/pool_proj
I0403 18:25:07.808435  6939 net.cpp:91] Creating Layer inception_4d/pool_proj
I0403 18:25:07.808454  6939 net.cpp:425] inception_4d/pool_proj <- inception_4d/pool
I0403 18:25:07.808472  6939 net.cpp:399] inception_4d/pool_proj -> inception_4d/pool_proj
I0403 18:25:07.810328  6939 net.cpp:141] Setting up inception_4d/pool_proj
I0403 18:25:07.810359  6939 net.cpp:148] Top shape: 24 64 14 14 (301056)
I0403 18:25:07.810375  6939 net.cpp:156] Memory required for data: 1146105120
I0403 18:25:07.810396  6939 layer_factory.hpp:77] Creating layer inception_4d/relu_pool_proj
I0403 18:25:07.810417  6939 net.cpp:91] Creating Layer inception_4d/relu_pool_proj
I0403 18:25:07.810436  6939 net.cpp:425] inception_4d/relu_pool_proj <- inception_4d/pool_proj
I0403 18:25:07.810453  6939 net.cpp:386] inception_4d/relu_pool_proj -> inception_4d/pool_proj (in-place)
I0403 18:25:07.810649  6939 net.cpp:141] Setting up inception_4d/relu_pool_proj
I0403 18:25:07.810678  6939 net.cpp:148] Top shape: 24 64 14 14 (301056)
I0403 18:25:07.810693  6939 net.cpp:156] Memory required for data: 1147309344
I0403 18:25:07.810708  6939 layer_factory.hpp:77] Creating layer inception_4d/output
I0403 18:25:07.810726  6939 net.cpp:91] Creating Layer inception_4d/output
I0403 18:25:07.810741  6939 net.cpp:425] inception_4d/output <- inception_4d/1x1
I0403 18:25:07.810758  6939 net.cpp:425] inception_4d/output <- inception_4d/3x3
I0403 18:25:07.810775  6939 net.cpp:425] inception_4d/output <- inception_4d/5x5
I0403 18:25:07.810791  6939 net.cpp:425] inception_4d/output <- inception_4d/pool_proj
I0403 18:25:07.810811  6939 net.cpp:399] inception_4d/output -> inception_4d/output
I0403 18:25:07.810858  6939 net.cpp:141] Setting up inception_4d/output
I0403 18:25:07.810884  6939 net.cpp:148] Top shape: 24 528 14 14 (2483712)
I0403 18:25:07.810900  6939 net.cpp:156] Memory required for data: 1157244192
I0403 18:25:07.810915  6939 layer_factory.hpp:77] Creating layer inception_4d/output_inception_4d/output_0_split
I0403 18:25:07.810933  6939 net.cpp:91] Creating Layer inception_4d/output_inception_4d/output_0_split
I0403 18:25:07.810950  6939 net.cpp:425] inception_4d/output_inception_4d/output_0_split <- inception_4d/output
I0403 18:25:07.810967  6939 net.cpp:399] inception_4d/output_inception_4d/output_0_split -> inception_4d/output_inception_4d/output_0_split_0
I0403 18:25:07.810988  6939 net.cpp:399] inception_4d/output_inception_4d/output_0_split -> inception_4d/output_inception_4d/output_0_split_1
I0403 18:25:07.811012  6939 net.cpp:399] inception_4d/output_inception_4d/output_0_split -> inception_4d/output_inception_4d/output_0_split_2
I0403 18:25:07.811033  6939 net.cpp:399] inception_4d/output_inception_4d/output_0_split -> inception_4d/output_inception_4d/output_0_split_3
I0403 18:25:07.811054  6939 net.cpp:399] inception_4d/output_inception_4d/output_0_split -> inception_4d/output_inception_4d/output_0_split_4
I0403 18:25:07.811161  6939 net.cpp:141] Setting up inception_4d/output_inception_4d/output_0_split
I0403 18:25:07.811203  6939 net.cpp:148] Top shape: 24 528 14 14 (2483712)
I0403 18:25:07.811220  6939 net.cpp:148] Top shape: 24 528 14 14 (2483712)
I0403 18:25:07.811238  6939 net.cpp:148] Top shape: 24 528 14 14 (2483712)
I0403 18:25:07.811252  6939 net.cpp:148] Top shape: 24 528 14 14 (2483712)
I0403 18:25:07.811269  6939 net.cpp:148] Top shape: 24 528 14 14 (2483712)
I0403 18:25:07.811283  6939 net.cpp:156] Memory required for data: 1206918432
I0403 18:25:07.811298  6939 layer_factory.hpp:77] Creating layer loss2/ave_pool
I0403 18:25:07.811321  6939 net.cpp:91] Creating Layer loss2/ave_pool
I0403 18:25:07.811337  6939 net.cpp:425] loss2/ave_pool <- inception_4d/output_inception_4d/output_0_split_0
I0403 18:25:07.811355  6939 net.cpp:399] loss2/ave_pool -> loss2/ave_pool
I0403 18:25:07.811684  6939 net.cpp:141] Setting up loss2/ave_pool
I0403 18:25:07.811710  6939 net.cpp:148] Top shape: 24 528 4 4 (202752)
I0403 18:25:07.811727  6939 net.cpp:156] Memory required for data: 1207729440
I0403 18:25:07.811741  6939 layer_factory.hpp:77] Creating layer loss2/conv
I0403 18:25:07.811764  6939 net.cpp:91] Creating Layer loss2/conv
I0403 18:25:07.811784  6939 net.cpp:425] loss2/conv <- loss2/ave_pool
I0403 18:25:07.811802  6939 net.cpp:399] loss2/conv -> loss2/conv
I0403 18:25:07.813781  6939 net.cpp:141] Setting up loss2/conv
I0403 18:25:07.813812  6939 net.cpp:148] Top shape: 24 128 4 4 (49152)
I0403 18:25:07.813827  6939 net.cpp:156] Memory required for data: 1207926048
I0403 18:25:07.813845  6939 layer_factory.hpp:77] Creating layer loss2/relu_conv
I0403 18:25:07.813864  6939 net.cpp:91] Creating Layer loss2/relu_conv
I0403 18:25:07.813880  6939 net.cpp:425] loss2/relu_conv <- loss2/conv
I0403 18:25:07.813905  6939 net.cpp:386] loss2/relu_conv -> loss2/conv (in-place)
I0403 18:25:07.814201  6939 net.cpp:141] Setting up loss2/relu_conv
I0403 18:25:07.814229  6939 net.cpp:148] Top shape: 24 128 4 4 (49152)
I0403 18:25:07.814244  6939 net.cpp:156] Memory required for data: 1208122656
I0403 18:25:07.814259  6939 layer_factory.hpp:77] Creating layer loss2/fc
I0403 18:25:07.814277  6939 net.cpp:91] Creating Layer loss2/fc
I0403 18:25:07.814294  6939 net.cpp:425] loss2/fc <- loss2/conv
I0403 18:25:07.814316  6939 net.cpp:399] loss2/fc -> loss2/fc
I0403 18:25:07.832940  6939 net.cpp:141] Setting up loss2/fc
I0403 18:25:07.833010  6939 net.cpp:148] Top shape: 24 1024 (24576)
I0403 18:25:07.833027  6939 net.cpp:156] Memory required for data: 1208220960
I0403 18:25:07.833047  6939 layer_factory.hpp:77] Creating layer loss2/relu_fc
I0403 18:25:07.833070  6939 net.cpp:91] Creating Layer loss2/relu_fc
I0403 18:25:07.833086  6939 net.cpp:425] loss2/relu_fc <- loss2/fc
I0403 18:25:07.833106  6939 net.cpp:386] loss2/relu_fc -> loss2/fc (in-place)
I0403 18:25:07.833482  6939 net.cpp:141] Setting up loss2/relu_fc
I0403 18:25:07.833514  6939 net.cpp:148] Top shape: 24 1024 (24576)
I0403 18:25:07.833531  6939 net.cpp:156] Memory required for data: 1208319264
I0403 18:25:07.833547  6939 layer_factory.hpp:77] Creating layer loss2/drop_fc
I0403 18:25:07.833566  6939 net.cpp:91] Creating Layer loss2/drop_fc
I0403 18:25:07.833582  6939 net.cpp:425] loss2/drop_fc <- loss2/fc
I0403 18:25:07.833600  6939 net.cpp:386] loss2/drop_fc -> loss2/fc (in-place)
I0403 18:25:07.833653  6939 net.cpp:141] Setting up loss2/drop_fc
I0403 18:25:07.833676  6939 net.cpp:148] Top shape: 24 1024 (24576)
I0403 18:25:07.833691  6939 net.cpp:156] Memory required for data: 1208417568
I0403 18:25:07.833708  6939 layer_factory.hpp:77] Creating layer loss2/classifier_plantvillage
I0403 18:25:07.833730  6939 net.cpp:91] Creating Layer loss2/classifier_plantvillage
I0403 18:25:07.833748  6939 net.cpp:425] loss2/classifier_plantvillage <- loss2/fc
I0403 18:25:07.833767  6939 net.cpp:399] loss2/classifier_plantvillage -> loss2/classifier_plantvillage
I0403 18:25:07.834198  6939 net.cpp:141] Setting up loss2/classifier_plantvillage
I0403 18:25:07.834226  6939 net.cpp:148] Top shape: 24 38 (912)
I0403 18:25:07.834266  6939 net.cpp:156] Memory required for data: 1208421216
I0403 18:25:07.834286  6939 layer_factory.hpp:77] Creating layer loss2/classifier_plantvillage_loss2/classifier_plantvillage_0_split
I0403 18:25:07.834306  6939 net.cpp:91] Creating Layer loss2/classifier_plantvillage_loss2/classifier_plantvillage_0_split
I0403 18:25:07.834322  6939 net.cpp:425] loss2/classifier_plantvillage_loss2/classifier_plantvillage_0_split <- loss2/classifier_plantvillage
I0403 18:25:07.834347  6939 net.cpp:399] loss2/classifier_plantvillage_loss2/classifier_plantvillage_0_split -> loss2/classifier_plantvillage_loss2/classifier_plantvillage_0_split_0
I0403 18:25:07.834370  6939 net.cpp:399] loss2/classifier_plantvillage_loss2/classifier_plantvillage_0_split -> loss2/classifier_plantvillage_loss2/classifier_plantvillage_0_split_1
I0403 18:25:07.834391  6939 net.cpp:399] loss2/classifier_plantvillage_loss2/classifier_plantvillage_0_split -> loss2/classifier_plantvillage_loss2/classifier_plantvillage_0_split_2
I0403 18:25:07.834471  6939 net.cpp:141] Setting up loss2/classifier_plantvillage_loss2/classifier_plantvillage_0_split
I0403 18:25:07.834496  6939 net.cpp:148] Top shape: 24 38 (912)
I0403 18:25:07.834513  6939 net.cpp:148] Top shape: 24 38 (912)
I0403 18:25:07.834529  6939 net.cpp:148] Top shape: 24 38 (912)
I0403 18:25:07.834543  6939 net.cpp:156] Memory required for data: 1208432160
I0403 18:25:07.834558  6939 layer_factory.hpp:77] Creating layer inception_4e/1x1
I0403 18:25:07.834583  6939 net.cpp:91] Creating Layer inception_4e/1x1
I0403 18:25:07.834600  6939 net.cpp:425] inception_4e/1x1 <- inception_4d/output_inception_4d/output_0_split_1
I0403 18:25:07.834621  6939 net.cpp:399] inception_4e/1x1 -> inception_4e/1x1
I0403 18:25:07.836545  6939 net.cpp:141] Setting up inception_4e/1x1
I0403 18:25:07.836575  6939 net.cpp:148] Top shape: 24 256 14 14 (1204224)
I0403 18:25:07.836591  6939 net.cpp:156] Memory required for data: 1213249056
I0403 18:25:07.836612  6939 layer_factory.hpp:77] Creating layer inception_4e/relu_1x1
I0403 18:25:07.836634  6939 net.cpp:91] Creating Layer inception_4e/relu_1x1
I0403 18:25:07.836653  6939 net.cpp:425] inception_4e/relu_1x1 <- inception_4e/1x1
I0403 18:25:07.836671  6939 net.cpp:386] inception_4e/relu_1x1 -> inception_4e/1x1 (in-place)
I0403 18:25:07.836979  6939 net.cpp:141] Setting up inception_4e/relu_1x1
I0403 18:25:07.837007  6939 net.cpp:148] Top shape: 24 256 14 14 (1204224)
I0403 18:25:07.837023  6939 net.cpp:156] Memory required for data: 1218065952
I0403 18:25:07.837038  6939 layer_factory.hpp:77] Creating layer inception_4e/3x3_reduce
I0403 18:25:07.837062  6939 net.cpp:91] Creating Layer inception_4e/3x3_reduce
I0403 18:25:07.837081  6939 net.cpp:425] inception_4e/3x3_reduce <- inception_4d/output_inception_4d/output_0_split_2
I0403 18:25:07.837105  6939 net.cpp:399] inception_4e/3x3_reduce -> inception_4e/3x3_reduce
I0403 18:25:07.839349  6939 net.cpp:141] Setting up inception_4e/3x3_reduce
I0403 18:25:07.839380  6939 net.cpp:148] Top shape: 24 160 14 14 (752640)
I0403 18:25:07.839395  6939 net.cpp:156] Memory required for data: 1221076512
I0403 18:25:07.839416  6939 layer_factory.hpp:77] Creating layer inception_4e/relu_3x3_reduce
I0403 18:25:07.839434  6939 net.cpp:91] Creating Layer inception_4e/relu_3x3_reduce
I0403 18:25:07.839450  6939 net.cpp:425] inception_4e/relu_3x3_reduce <- inception_4e/3x3_reduce
I0403 18:25:07.839470  6939 net.cpp:386] inception_4e/relu_3x3_reduce -> inception_4e/3x3_reduce (in-place)
I0403 18:25:07.839665  6939 net.cpp:141] Setting up inception_4e/relu_3x3_reduce
I0403 18:25:07.839691  6939 net.cpp:148] Top shape: 24 160 14 14 (752640)
I0403 18:25:07.839706  6939 net.cpp:156] Memory required for data: 1224087072
I0403 18:25:07.839722  6939 layer_factory.hpp:77] Creating layer inception_4e/3x3
I0403 18:25:07.839745  6939 net.cpp:91] Creating Layer inception_4e/3x3
I0403 18:25:07.839762  6939 net.cpp:425] inception_4e/3x3 <- inception_4e/3x3_reduce
I0403 18:25:07.839784  6939 net.cpp:399] inception_4e/3x3 -> inception_4e/3x3
I0403 18:25:07.845031  6939 net.cpp:141] Setting up inception_4e/3x3
I0403 18:25:07.845077  6939 net.cpp:148] Top shape: 24 320 14 14 (1505280)
I0403 18:25:07.845093  6939 net.cpp:156] Memory required for data: 1230108192
I0403 18:25:07.845113  6939 layer_factory.hpp:77] Creating layer inception_4e/relu_3x3
I0403 18:25:07.845134  6939 net.cpp:91] Creating Layer inception_4e/relu_3x3
I0403 18:25:07.845150  6939 net.cpp:425] inception_4e/relu_3x3 <- inception_4e/3x3
I0403 18:25:07.845170  6939 net.cpp:386] inception_4e/relu_3x3 -> inception_4e/3x3 (in-place)
I0403 18:25:07.848820  6939 net.cpp:141] Setting up inception_4e/relu_3x3
I0403 18:25:07.848856  6939 net.cpp:148] Top shape: 24 320 14 14 (1505280)
I0403 18:25:07.848878  6939 net.cpp:156] Memory required for data: 1236129312
I0403 18:25:07.848896  6939 layer_factory.hpp:77] Creating layer inception_4e/5x5_reduce
I0403 18:25:07.848917  6939 net.cpp:91] Creating Layer inception_4e/5x5_reduce
I0403 18:25:07.848934  6939 net.cpp:425] inception_4e/5x5_reduce <- inception_4d/output_inception_4d/output_0_split_3
I0403 18:25:07.848958  6939 net.cpp:399] inception_4e/5x5_reduce -> inception_4e/5x5_reduce
I0403 18:25:07.850095  6939 net.cpp:141] Setting up inception_4e/5x5_reduce
I0403 18:25:07.850126  6939 net.cpp:148] Top shape: 24 32 14 14 (150528)
I0403 18:25:07.850143  6939 net.cpp:156] Memory required for data: 1236731424
I0403 18:25:07.850164  6939 layer_factory.hpp:77] Creating layer inception_4e/relu_5x5_reduce
I0403 18:25:07.850190  6939 net.cpp:91] Creating Layer inception_4e/relu_5x5_reduce
I0403 18:25:07.850210  6939 net.cpp:425] inception_4e/relu_5x5_reduce <- inception_4e/5x5_reduce
I0403 18:25:07.850232  6939 net.cpp:386] inception_4e/relu_5x5_reduce -> inception_4e/5x5_reduce (in-place)
I0403 18:25:07.850550  6939 net.cpp:141] Setting up inception_4e/relu_5x5_reduce
I0403 18:25:07.850579  6939 net.cpp:148] Top shape: 24 32 14 14 (150528)
I0403 18:25:07.850594  6939 net.cpp:156] Memory required for data: 1237333536
I0403 18:25:07.850610  6939 layer_factory.hpp:77] Creating layer inception_4e/5x5
I0403 18:25:07.850652  6939 net.cpp:91] Creating Layer inception_4e/5x5
I0403 18:25:07.850673  6939 net.cpp:425] inception_4e/5x5 <- inception_4e/5x5_reduce
I0403 18:25:07.850693  6939 net.cpp:399] inception_4e/5x5 -> inception_4e/5x5
I0403 18:25:07.852593  6939 net.cpp:141] Setting up inception_4e/5x5
I0403 18:25:07.852627  6939 net.cpp:148] Top shape: 24 128 14 14 (602112)
I0403 18:25:07.852643  6939 net.cpp:156] Memory required for data: 1239741984
I0403 18:25:07.852665  6939 layer_factory.hpp:77] Creating layer inception_4e/relu_5x5
I0403 18:25:07.852686  6939 net.cpp:91] Creating Layer inception_4e/relu_5x5
I0403 18:25:07.852704  6939 net.cpp:425] inception_4e/relu_5x5 <- inception_4e/5x5
I0403 18:25:07.852725  6939 net.cpp:386] inception_4e/relu_5x5 -> inception_4e/5x5 (in-place)
I0403 18:25:07.852932  6939 net.cpp:141] Setting up inception_4e/relu_5x5
I0403 18:25:07.852960  6939 net.cpp:148] Top shape: 24 128 14 14 (602112)
I0403 18:25:07.852977  6939 net.cpp:156] Memory required for data: 1242150432
I0403 18:25:07.852993  6939 layer_factory.hpp:77] Creating layer inception_4e/pool
I0403 18:25:07.853013  6939 net.cpp:91] Creating Layer inception_4e/pool
I0403 18:25:07.853031  6939 net.cpp:425] inception_4e/pool <- inception_4d/output_inception_4d/output_0_split_4
I0403 18:25:07.853054  6939 net.cpp:399] inception_4e/pool -> inception_4e/pool
I0403 18:25:07.853128  6939 net.cpp:141] Setting up inception_4e/pool
I0403 18:25:07.853153  6939 net.cpp:148] Top shape: 24 528 14 14 (2483712)
I0403 18:25:07.853168  6939 net.cpp:156] Memory required for data: 1252085280
I0403 18:25:07.853200  6939 layer_factory.hpp:77] Creating layer inception_4e/pool_proj
I0403 18:25:07.853229  6939 net.cpp:91] Creating Layer inception_4e/pool_proj
I0403 18:25:07.853248  6939 net.cpp:425] inception_4e/pool_proj <- inception_4e/pool
I0403 18:25:07.853267  6939 net.cpp:399] inception_4e/pool_proj -> inception_4e/pool_proj
I0403 18:25:07.855007  6939 net.cpp:141] Setting up inception_4e/pool_proj
I0403 18:25:07.855052  6939 net.cpp:148] Top shape: 24 128 14 14 (602112)
I0403 18:25:07.855070  6939 net.cpp:156] Memory required for data: 1254493728
I0403 18:25:07.855092  6939 layer_factory.hpp:77] Creating layer inception_4e/relu_pool_proj
I0403 18:25:07.855113  6939 net.cpp:91] Creating Layer inception_4e/relu_pool_proj
I0403 18:25:07.855129  6939 net.cpp:425] inception_4e/relu_pool_proj <- inception_4e/pool_proj
I0403 18:25:07.855149  6939 net.cpp:386] inception_4e/relu_pool_proj -> inception_4e/pool_proj (in-place)
I0403 18:25:07.855454  6939 net.cpp:141] Setting up inception_4e/relu_pool_proj
I0403 18:25:07.855484  6939 net.cpp:148] Top shape: 24 128 14 14 (602112)
I0403 18:25:07.855501  6939 net.cpp:156] Memory required for data: 1256902176
I0403 18:25:07.855518  6939 layer_factory.hpp:77] Creating layer inception_4e/output
I0403 18:25:07.855540  6939 net.cpp:91] Creating Layer inception_4e/output
I0403 18:25:07.855557  6939 net.cpp:425] inception_4e/output <- inception_4e/1x1
I0403 18:25:07.855576  6939 net.cpp:425] inception_4e/output <- inception_4e/3x3
I0403 18:25:07.855593  6939 net.cpp:425] inception_4e/output <- inception_4e/5x5
I0403 18:25:07.855609  6939 net.cpp:425] inception_4e/output <- inception_4e/pool_proj
I0403 18:25:07.855628  6939 net.cpp:399] inception_4e/output -> inception_4e/output
I0403 18:25:07.855682  6939 net.cpp:141] Setting up inception_4e/output
I0403 18:25:07.855708  6939 net.cpp:148] Top shape: 24 832 14 14 (3913728)
I0403 18:25:07.855725  6939 net.cpp:156] Memory required for data: 1272557088
I0403 18:25:07.855738  6939 layer_factory.hpp:77] Creating layer pool4/3x3_s2
I0403 18:25:07.855757  6939 net.cpp:91] Creating Layer pool4/3x3_s2
I0403 18:25:07.855773  6939 net.cpp:425] pool4/3x3_s2 <- inception_4e/output
I0403 18:25:07.855797  6939 net.cpp:399] pool4/3x3_s2 -> pool4/3x3_s2
I0403 18:25:07.855867  6939 net.cpp:141] Setting up pool4/3x3_s2
I0403 18:25:07.855892  6939 net.cpp:148] Top shape: 24 832 7 7 (978432)
I0403 18:25:07.855907  6939 net.cpp:156] Memory required for data: 1276470816
I0403 18:25:07.855922  6939 layer_factory.hpp:77] Creating layer pool4/3x3_s2_pool4/3x3_s2_0_split
I0403 18:25:07.855942  6939 net.cpp:91] Creating Layer pool4/3x3_s2_pool4/3x3_s2_0_split
I0403 18:25:07.855958  6939 net.cpp:425] pool4/3x3_s2_pool4/3x3_s2_0_split <- pool4/3x3_s2
I0403 18:25:07.855978  6939 net.cpp:399] pool4/3x3_s2_pool4/3x3_s2_0_split -> pool4/3x3_s2_pool4/3x3_s2_0_split_0
I0403 18:25:07.855999  6939 net.cpp:399] pool4/3x3_s2_pool4/3x3_s2_0_split -> pool4/3x3_s2_pool4/3x3_s2_0_split_1
I0403 18:25:07.856019  6939 net.cpp:399] pool4/3x3_s2_pool4/3x3_s2_0_split -> pool4/3x3_s2_pool4/3x3_s2_0_split_2
I0403 18:25:07.856040  6939 net.cpp:399] pool4/3x3_s2_pool4/3x3_s2_0_split -> pool4/3x3_s2_pool4/3x3_s2_0_split_3
I0403 18:25:07.856132  6939 net.cpp:141] Setting up pool4/3x3_s2_pool4/3x3_s2_0_split
I0403 18:25:07.856159  6939 net.cpp:148] Top shape: 24 832 7 7 (978432)
I0403 18:25:07.856180  6939 net.cpp:148] Top shape: 24 832 7 7 (978432)
I0403 18:25:07.856199  6939 net.cpp:148] Top shape: 24 832 7 7 (978432)
I0403 18:25:07.856215  6939 net.cpp:148] Top shape: 24 832 7 7 (978432)
I0403 18:25:07.856230  6939 net.cpp:156] Memory required for data: 1292125728
I0403 18:25:07.856246  6939 layer_factory.hpp:77] Creating layer inception_5a/1x1
I0403 18:25:07.856271  6939 net.cpp:91] Creating Layer inception_5a/1x1
I0403 18:25:07.856288  6939 net.cpp:425] inception_5a/1x1 <- pool4/3x3_s2_pool4/3x3_s2_0_split_0
I0403 18:25:07.856307  6939 net.cpp:399] inception_5a/1x1 -> inception_5a/1x1
I0403 18:25:07.859274  6939 net.cpp:141] Setting up inception_5a/1x1
I0403 18:25:07.859307  6939 net.cpp:148] Top shape: 24 256 7 7 (301056)
I0403 18:25:07.859323  6939 net.cpp:156] Memory required for data: 1293329952
I0403 18:25:07.859343  6939 layer_factory.hpp:77] Creating layer inception_5a/relu_1x1
I0403 18:25:07.859360  6939 net.cpp:91] Creating Layer inception_5a/relu_1x1
I0403 18:25:07.859377  6939 net.cpp:425] inception_5a/relu_1x1 <- inception_5a/1x1
I0403 18:25:07.859400  6939 net.cpp:386] inception_5a/relu_1x1 -> inception_5a/1x1 (in-place)
I0403 18:25:07.859714  6939 net.cpp:141] Setting up inception_5a/relu_1x1
I0403 18:25:07.859741  6939 net.cpp:148] Top shape: 24 256 7 7 (301056)
I0403 18:25:07.859757  6939 net.cpp:156] Memory required for data: 1294534176
I0403 18:25:07.859772  6939 layer_factory.hpp:77] Creating layer inception_5a/3x3_reduce
I0403 18:25:07.859796  6939 net.cpp:91] Creating Layer inception_5a/3x3_reduce
I0403 18:25:07.859813  6939 net.cpp:425] inception_5a/3x3_reduce <- pool4/3x3_s2_pool4/3x3_s2_0_split_1
I0403 18:25:07.859835  6939 net.cpp:399] inception_5a/3x3_reduce -> inception_5a/3x3_reduce
I0403 18:25:07.862371  6939 net.cpp:141] Setting up inception_5a/3x3_reduce
I0403 18:25:07.862402  6939 net.cpp:148] Top shape: 24 160 7 7 (188160)
I0403 18:25:07.862418  6939 net.cpp:156] Memory required for data: 1295286816
I0403 18:25:07.862437  6939 layer_factory.hpp:77] Creating layer inception_5a/relu_3x3_reduce
I0403 18:25:07.862460  6939 net.cpp:91] Creating Layer inception_5a/relu_3x3_reduce
I0403 18:25:07.862478  6939 net.cpp:425] inception_5a/relu_3x3_reduce <- inception_5a/3x3_reduce
I0403 18:25:07.862495  6939 net.cpp:386] inception_5a/relu_3x3_reduce -> inception_5a/3x3_reduce (in-place)
I0403 18:25:07.862684  6939 net.cpp:141] Setting up inception_5a/relu_3x3_reduce
I0403 18:25:07.862711  6939 net.cpp:148] Top shape: 24 160 7 7 (188160)
I0403 18:25:07.862726  6939 net.cpp:156] Memory required for data: 1296039456
I0403 18:25:07.862742  6939 layer_factory.hpp:77] Creating layer inception_5a/3x3
I0403 18:25:07.862766  6939 net.cpp:91] Creating Layer inception_5a/3x3
I0403 18:25:07.862782  6939 net.cpp:425] inception_5a/3x3 <- inception_5a/3x3_reduce
I0403 18:25:07.862800  6939 net.cpp:399] inception_5a/3x3 -> inception_5a/3x3
I0403 18:25:07.867966  6939 net.cpp:141] Setting up inception_5a/3x3
I0403 18:25:07.868000  6939 net.cpp:148] Top shape: 24 320 7 7 (376320)
I0403 18:25:07.868017  6939 net.cpp:156] Memory required for data: 1297544736
I0403 18:25:07.868038  6939 layer_factory.hpp:77] Creating layer inception_5a/relu_3x3
I0403 18:25:07.868058  6939 net.cpp:91] Creating Layer inception_5a/relu_3x3
I0403 18:25:07.868075  6939 net.cpp:425] inception_5a/relu_3x3 <- inception_5a/3x3
I0403 18:25:07.868098  6939 net.cpp:386] inception_5a/relu_3x3 -> inception_5a/3x3 (in-place)
I0403 18:25:07.868402  6939 net.cpp:141] Setting up inception_5a/relu_3x3
I0403 18:25:07.868430  6939 net.cpp:148] Top shape: 24 320 7 7 (376320)
I0403 18:25:07.868448  6939 net.cpp:156] Memory required for data: 1299050016
I0403 18:25:07.868463  6939 layer_factory.hpp:77] Creating layer inception_5a/5x5_reduce
I0403 18:25:07.868485  6939 net.cpp:91] Creating Layer inception_5a/5x5_reduce
I0403 18:25:07.868505  6939 net.cpp:425] inception_5a/5x5_reduce <- pool4/3x3_s2_pool4/3x3_s2_0_split_2
I0403 18:25:07.868525  6939 net.cpp:399] inception_5a/5x5_reduce -> inception_5a/5x5_reduce
I0403 18:25:07.869700  6939 net.cpp:141] Setting up inception_5a/5x5_reduce
I0403 18:25:07.869735  6939 net.cpp:148] Top shape: 24 32 7 7 (37632)
I0403 18:25:07.869752  6939 net.cpp:156] Memory required for data: 1299200544
I0403 18:25:07.869772  6939 layer_factory.hpp:77] Creating layer inception_5a/relu_5x5_reduce
I0403 18:25:07.869791  6939 net.cpp:91] Creating Layer inception_5a/relu_5x5_reduce
I0403 18:25:07.869808  6939 net.cpp:425] inception_5a/relu_5x5_reduce <- inception_5a/5x5_reduce
I0403 18:25:07.869828  6939 net.cpp:386] inception_5a/relu_5x5_reduce -> inception_5a/5x5_reduce (in-place)
I0403 18:25:07.870128  6939 net.cpp:141] Setting up inception_5a/relu_5x5_reduce
I0403 18:25:07.870157  6939 net.cpp:148] Top shape: 24 32 7 7 (37632)
I0403 18:25:07.870172  6939 net.cpp:156] Memory required for data: 1299351072
I0403 18:25:07.870194  6939 layer_factory.hpp:77] Creating layer inception_5a/5x5
I0403 18:25:07.870219  6939 net.cpp:91] Creating Layer inception_5a/5x5
I0403 18:25:07.870240  6939 net.cpp:425] inception_5a/5x5 <- inception_5a/5x5_reduce
I0403 18:25:07.870263  6939 net.cpp:399] inception_5a/5x5 -> inception_5a/5x5
I0403 18:25:07.871984  6939 net.cpp:141] Setting up inception_5a/5x5
I0403 18:25:07.872028  6939 net.cpp:148] Top shape: 24 128 7 7 (150528)
I0403 18:25:07.872047  6939 net.cpp:156] Memory required for data: 1299953184
I0403 18:25:07.872067  6939 layer_factory.hpp:77] Creating layer inception_5a/relu_5x5
I0403 18:25:07.872086  6939 net.cpp:91] Creating Layer inception_5a/relu_5x5
I0403 18:25:07.872103  6939 net.cpp:425] inception_5a/relu_5x5 <- inception_5a/5x5
I0403 18:25:07.872123  6939 net.cpp:386] inception_5a/relu_5x5 -> inception_5a/5x5 (in-place)
I0403 18:25:07.872334  6939 net.cpp:141] Setting up inception_5a/relu_5x5
I0403 18:25:07.872360  6939 net.cpp:148] Top shape: 24 128 7 7 (150528)
I0403 18:25:07.872375  6939 net.cpp:156] Memory required for data: 1300555296
I0403 18:25:07.872390  6939 layer_factory.hpp:77] Creating layer inception_5a/pool
I0403 18:25:07.872408  6939 net.cpp:91] Creating Layer inception_5a/pool
I0403 18:25:07.872423  6939 net.cpp:425] inception_5a/pool <- pool4/3x3_s2_pool4/3x3_s2_0_split_3
I0403 18:25:07.872444  6939 net.cpp:399] inception_5a/pool -> inception_5a/pool
I0403 18:25:07.872515  6939 net.cpp:141] Setting up inception_5a/pool
I0403 18:25:07.872540  6939 net.cpp:148] Top shape: 24 832 7 7 (978432)
I0403 18:25:07.872556  6939 net.cpp:156] Memory required for data: 1304469024
I0403 18:25:07.872570  6939 layer_factory.hpp:77] Creating layer inception_5a/pool_proj
I0403 18:25:07.872596  6939 net.cpp:91] Creating Layer inception_5a/pool_proj
I0403 18:25:07.872613  6939 net.cpp:425] inception_5a/pool_proj <- inception_5a/pool
I0403 18:25:07.872632  6939 net.cpp:399] inception_5a/pool_proj -> inception_5a/pool_proj
I0403 18:25:07.874915  6939 net.cpp:141] Setting up inception_5a/pool_proj
I0403 18:25:07.874949  6939 net.cpp:148] Top shape: 24 128 7 7 (150528)
I0403 18:25:07.874968  6939 net.cpp:156] Memory required for data: 1305071136
I0403 18:25:07.874986  6939 layer_factory.hpp:77] Creating layer inception_5a/relu_pool_proj
I0403 18:25:07.875006  6939 net.cpp:91] Creating Layer inception_5a/relu_pool_proj
I0403 18:25:07.875022  6939 net.cpp:425] inception_5a/relu_pool_proj <- inception_5a/pool_proj
I0403 18:25:07.875039  6939 net.cpp:386] inception_5a/relu_pool_proj -> inception_5a/pool_proj (in-place)
I0403 18:25:07.875341  6939 net.cpp:141] Setting up inception_5a/relu_pool_proj
I0403 18:25:07.875371  6939 net.cpp:148] Top shape: 24 128 7 7 (150528)
I0403 18:25:07.875388  6939 net.cpp:156] Memory required for data: 1305673248
I0403 18:25:07.875404  6939 layer_factory.hpp:77] Creating layer inception_5a/output
I0403 18:25:07.875422  6939 net.cpp:91] Creating Layer inception_5a/output
I0403 18:25:07.875437  6939 net.cpp:425] inception_5a/output <- inception_5a/1x1
I0403 18:25:07.875454  6939 net.cpp:425] inception_5a/output <- inception_5a/3x3
I0403 18:25:07.875470  6939 net.cpp:425] inception_5a/output <- inception_5a/5x5
I0403 18:25:07.875486  6939 net.cpp:425] inception_5a/output <- inception_5a/pool_proj
I0403 18:25:07.875504  6939 net.cpp:399] inception_5a/output -> inception_5a/output
I0403 18:25:07.875558  6939 net.cpp:141] Setting up inception_5a/output
I0403 18:25:07.875582  6939 net.cpp:148] Top shape: 24 832 7 7 (978432)
I0403 18:25:07.875597  6939 net.cpp:156] Memory required for data: 1309586976
I0403 18:25:07.875612  6939 layer_factory.hpp:77] Creating layer inception_5a/output_inception_5a/output_0_split
I0403 18:25:07.875632  6939 net.cpp:91] Creating Layer inception_5a/output_inception_5a/output_0_split
I0403 18:25:07.875648  6939 net.cpp:425] inception_5a/output_inception_5a/output_0_split <- inception_5a/output
I0403 18:25:07.875664  6939 net.cpp:399] inception_5a/output_inception_5a/output_0_split -> inception_5a/output_inception_5a/output_0_split_0
I0403 18:25:07.875684  6939 net.cpp:399] inception_5a/output_inception_5a/output_0_split -> inception_5a/output_inception_5a/output_0_split_1
I0403 18:25:07.875702  6939 net.cpp:399] inception_5a/output_inception_5a/output_0_split -> inception_5a/output_inception_5a/output_0_split_2
I0403 18:25:07.875722  6939 net.cpp:399] inception_5a/output_inception_5a/output_0_split -> inception_5a/output_inception_5a/output_0_split_3
I0403 18:25:07.875834  6939 net.cpp:141] Setting up inception_5a/output_inception_5a/output_0_split
I0403 18:25:07.875859  6939 net.cpp:148] Top shape: 24 832 7 7 (978432)
I0403 18:25:07.875874  6939 net.cpp:148] Top shape: 24 832 7 7 (978432)
I0403 18:25:07.875890  6939 net.cpp:148] Top shape: 24 832 7 7 (978432)
I0403 18:25:07.875905  6939 net.cpp:148] Top shape: 24 832 7 7 (978432)
I0403 18:25:07.875918  6939 net.cpp:156] Memory required for data: 1325241888
I0403 18:25:07.875932  6939 layer_factory.hpp:77] Creating layer inception_5b/1x1
I0403 18:25:07.875954  6939 net.cpp:91] Creating Layer inception_5b/1x1
I0403 18:25:07.875972  6939 net.cpp:425] inception_5b/1x1 <- inception_5a/output_inception_5a/output_0_split_0
I0403 18:25:07.875993  6939 net.cpp:399] inception_5b/1x1 -> inception_5b/1x1
I0403 18:25:07.879788  6939 net.cpp:141] Setting up inception_5b/1x1
I0403 18:25:07.879820  6939 net.cpp:148] Top shape: 24 384 7 7 (451584)
I0403 18:25:07.879835  6939 net.cpp:156] Memory required for data: 1327048224
I0403 18:25:07.879854  6939 layer_factory.hpp:77] Creating layer inception_5b/relu_1x1
I0403 18:25:07.879875  6939 net.cpp:91] Creating Layer inception_5b/relu_1x1
I0403 18:25:07.879892  6939 net.cpp:425] inception_5b/relu_1x1 <- inception_5b/1x1
I0403 18:25:07.879910  6939 net.cpp:386] inception_5b/relu_1x1 -> inception_5b/1x1 (in-place)
I0403 18:25:07.880220  6939 net.cpp:141] Setting up inception_5b/relu_1x1
I0403 18:25:07.880249  6939 net.cpp:148] Top shape: 24 384 7 7 (451584)
I0403 18:25:07.880264  6939 net.cpp:156] Memory required for data: 1328854560
I0403 18:25:07.880278  6939 layer_factory.hpp:77] Creating layer inception_5b/3x3_reduce
I0403 18:25:07.880301  6939 net.cpp:91] Creating Layer inception_5b/3x3_reduce
I0403 18:25:07.880322  6939 net.cpp:425] inception_5b/3x3_reduce <- inception_5a/output_inception_5a/output_0_split_1
I0403 18:25:07.880342  6939 net.cpp:399] inception_5b/3x3_reduce -> inception_5b/3x3_reduce
I0403 18:25:07.883013  6939 net.cpp:141] Setting up inception_5b/3x3_reduce
I0403 18:25:07.883046  6939 net.cpp:148] Top shape: 24 192 7 7 (225792)
I0403 18:25:07.883064  6939 net.cpp:156] Memory required for data: 1329757728
I0403 18:25:07.883085  6939 layer_factory.hpp:77] Creating layer inception_5b/relu_3x3_reduce
I0403 18:25:07.883101  6939 net.cpp:91] Creating Layer inception_5b/relu_3x3_reduce
I0403 18:25:07.883117  6939 net.cpp:425] inception_5b/relu_3x3_reduce <- inception_5b/3x3_reduce
I0403 18:25:07.883136  6939 net.cpp:386] inception_5b/relu_3x3_reduce -> inception_5b/3x3_reduce (in-place)
I0403 18:25:07.883334  6939 net.cpp:141] Setting up inception_5b/relu_3x3_reduce
I0403 18:25:07.883363  6939 net.cpp:148] Top shape: 24 192 7 7 (225792)
I0403 18:25:07.883379  6939 net.cpp:156] Memory required for data: 1330660896
I0403 18:25:07.883395  6939 layer_factory.hpp:77] Creating layer inception_5b/3x3
I0403 18:25:07.883417  6939 net.cpp:91] Creating Layer inception_5b/3x3
I0403 18:25:07.883435  6939 net.cpp:425] inception_5b/3x3 <- inception_5b/3x3_reduce
I0403 18:25:07.883455  6939 net.cpp:399] inception_5b/3x3 -> inception_5b/3x3
I0403 18:25:07.890207  6939 net.cpp:141] Setting up inception_5b/3x3
I0403 18:25:07.890241  6939 net.cpp:148] Top shape: 24 384 7 7 (451584)
I0403 18:25:07.890259  6939 net.cpp:156] Memory required for data: 1332467232
I0403 18:25:07.890277  6939 layer_factory.hpp:77] Creating layer inception_5b/relu_3x3
I0403 18:25:07.890296  6939 net.cpp:91] Creating Layer inception_5b/relu_3x3
I0403 18:25:07.890312  6939 net.cpp:425] inception_5b/relu_3x3 <- inception_5b/3x3
I0403 18:25:07.890329  6939 net.cpp:386] inception_5b/relu_3x3 -> inception_5b/3x3 (in-place)
I0403 18:25:07.890627  6939 net.cpp:141] Setting up inception_5b/relu_3x3
I0403 18:25:07.890658  6939 net.cpp:148] Top shape: 24 384 7 7 (451584)
I0403 18:25:07.890674  6939 net.cpp:156] Memory required for data: 1334273568
I0403 18:25:07.890689  6939 layer_factory.hpp:77] Creating layer inception_5b/5x5_reduce
I0403 18:25:07.890728  6939 net.cpp:91] Creating Layer inception_5b/5x5_reduce
I0403 18:25:07.890748  6939 net.cpp:425] inception_5b/5x5_reduce <- inception_5a/output_inception_5a/output_0_split_2
I0403 18:25:07.890768  6939 net.cpp:399] inception_5b/5x5_reduce -> inception_5b/5x5_reduce
I0403 18:25:07.892035  6939 net.cpp:141] Setting up inception_5b/5x5_reduce
I0403 18:25:07.892071  6939 net.cpp:148] Top shape: 24 48 7 7 (56448)
I0403 18:25:07.892098  6939 net.cpp:156] Memory required for data: 1334499360
I0403 18:25:07.892117  6939 layer_factory.hpp:77] Creating layer inception_5b/relu_5x5_reduce
I0403 18:25:07.892138  6939 net.cpp:91] Creating Layer inception_5b/relu_5x5_reduce
I0403 18:25:07.892155  6939 net.cpp:425] inception_5b/relu_5x5_reduce <- inception_5b/5x5_reduce
I0403 18:25:07.892174  6939 net.cpp:386] inception_5b/relu_5x5_reduce -> inception_5b/5x5_reduce (in-place)
I0403 18:25:07.892575  6939 net.cpp:141] Setting up inception_5b/relu_5x5_reduce
I0403 18:25:07.892602  6939 net.cpp:148] Top shape: 24 48 7 7 (56448)
I0403 18:25:07.892617  6939 net.cpp:156] Memory required for data: 1334725152
I0403 18:25:07.892633  6939 layer_factory.hpp:77] Creating layer inception_5b/5x5
I0403 18:25:07.892653  6939 net.cpp:91] Creating Layer inception_5b/5x5
I0403 18:25:07.892670  6939 net.cpp:425] inception_5b/5x5 <- inception_5b/5x5_reduce
I0403 18:25:07.892689  6939 net.cpp:399] inception_5b/5x5 -> inception_5b/5x5
I0403 18:25:07.894743  6939 net.cpp:141] Setting up inception_5b/5x5
I0403 18:25:07.894773  6939 net.cpp:148] Top shape: 24 128 7 7 (150528)
I0403 18:25:07.894788  6939 net.cpp:156] Memory required for data: 1335327264
I0403 18:25:07.894809  6939 layer_factory.hpp:77] Creating layer inception_5b/relu_5x5
I0403 18:25:07.894829  6939 net.cpp:91] Creating Layer inception_5b/relu_5x5
I0403 18:25:07.894846  6939 net.cpp:425] inception_5b/relu_5x5 <- inception_5b/5x5
I0403 18:25:07.894866  6939 net.cpp:386] inception_5b/relu_5x5 -> inception_5b/5x5 (in-place)
I0403 18:25:07.895064  6939 net.cpp:141] Setting up inception_5b/relu_5x5
I0403 18:25:07.895092  6939 net.cpp:148] Top shape: 24 128 7 7 (150528)
I0403 18:25:07.895107  6939 net.cpp:156] Memory required for data: 1335929376
I0403 18:25:07.895123  6939 layer_factory.hpp:77] Creating layer inception_5b/pool
I0403 18:25:07.895144  6939 net.cpp:91] Creating Layer inception_5b/pool
I0403 18:25:07.895162  6939 net.cpp:425] inception_5b/pool <- inception_5a/output_inception_5a/output_0_split_3
I0403 18:25:07.895187  6939 net.cpp:399] inception_5b/pool -> inception_5b/pool
I0403 18:25:07.895262  6939 net.cpp:141] Setting up inception_5b/pool
I0403 18:25:07.895287  6939 net.cpp:148] Top shape: 24 832 7 7 (978432)
I0403 18:25:07.895301  6939 net.cpp:156] Memory required for data: 1339843104
I0403 18:25:07.895318  6939 layer_factory.hpp:77] Creating layer inception_5b/pool_proj
I0403 18:25:07.895339  6939 net.cpp:91] Creating Layer inception_5b/pool_proj
I0403 18:25:07.895359  6939 net.cpp:425] inception_5b/pool_proj <- inception_5b/pool
I0403 18:25:07.895380  6939 net.cpp:399] inception_5b/pool_proj -> inception_5b/pool_proj
I0403 18:25:07.897719  6939 net.cpp:141] Setting up inception_5b/pool_proj
I0403 18:25:07.897753  6939 net.cpp:148] Top shape: 24 128 7 7 (150528)
I0403 18:25:07.897770  6939 net.cpp:156] Memory required for data: 1340445216
I0403 18:25:07.897789  6939 layer_factory.hpp:77] Creating layer inception_5b/relu_pool_proj
I0403 18:25:07.897807  6939 net.cpp:91] Creating Layer inception_5b/relu_pool_proj
I0403 18:25:07.897825  6939 net.cpp:425] inception_5b/relu_pool_proj <- inception_5b/pool_proj
I0403 18:25:07.897845  6939 net.cpp:386] inception_5b/relu_pool_proj -> inception_5b/pool_proj (in-place)
I0403 18:25:07.898143  6939 net.cpp:141] Setting up inception_5b/relu_pool_proj
I0403 18:25:07.898172  6939 net.cpp:148] Top shape: 24 128 7 7 (150528)
I0403 18:25:07.898195  6939 net.cpp:156] Memory required for data: 1341047328
I0403 18:25:07.898211  6939 layer_factory.hpp:77] Creating layer inception_5b/output
I0403 18:25:07.898228  6939 net.cpp:91] Creating Layer inception_5b/output
I0403 18:25:07.898263  6939 net.cpp:425] inception_5b/output <- inception_5b/1x1
I0403 18:25:07.898283  6939 net.cpp:425] inception_5b/output <- inception_5b/3x3
I0403 18:25:07.898299  6939 net.cpp:425] inception_5b/output <- inception_5b/5x5
I0403 18:25:07.898315  6939 net.cpp:425] inception_5b/output <- inception_5b/pool_proj
I0403 18:25:07.898334  6939 net.cpp:399] inception_5b/output -> inception_5b/output
I0403 18:25:07.898387  6939 net.cpp:141] Setting up inception_5b/output
I0403 18:25:07.898411  6939 net.cpp:148] Top shape: 24 1024 7 7 (1204224)
I0403 18:25:07.898427  6939 net.cpp:156] Memory required for data: 1345864224
I0403 18:25:07.898442  6939 layer_factory.hpp:77] Creating layer pool5/7x7_s1
I0403 18:25:07.898463  6939 net.cpp:91] Creating Layer pool5/7x7_s1
I0403 18:25:07.898478  6939 net.cpp:425] pool5/7x7_s1 <- inception_5b/output
I0403 18:25:07.898495  6939 net.cpp:399] pool5/7x7_s1 -> pool5/7x7_s1
I0403 18:25:07.898711  6939 net.cpp:141] Setting up pool5/7x7_s1
I0403 18:25:07.898741  6939 net.cpp:148] Top shape: 24 1024 1 1 (24576)
I0403 18:25:07.898756  6939 net.cpp:156] Memory required for data: 1345962528
I0403 18:25:07.898772  6939 layer_factory.hpp:77] Creating layer pool5/drop_7x7_s1
I0403 18:25:07.898790  6939 net.cpp:91] Creating Layer pool5/drop_7x7_s1
I0403 18:25:07.898805  6939 net.cpp:425] pool5/drop_7x7_s1 <- pool5/7x7_s1
I0403 18:25:07.898824  6939 net.cpp:386] pool5/drop_7x7_s1 -> pool5/7x7_s1 (in-place)
I0403 18:25:07.898875  6939 net.cpp:141] Setting up pool5/drop_7x7_s1
I0403 18:25:07.898900  6939 net.cpp:148] Top shape: 24 1024 1 1 (24576)
I0403 18:25:07.898916  6939 net.cpp:156] Memory required for data: 1346060832
I0403 18:25:07.898931  6939 layer_factory.hpp:77] Creating layer loss3/classifier_plantvillage
I0403 18:25:07.898953  6939 net.cpp:91] Creating Layer loss3/classifier_plantvillage
I0403 18:25:07.898970  6939 net.cpp:425] loss3/classifier_plantvillage <- pool5/7x7_s1
I0403 18:25:07.898993  6939 net.cpp:399] loss3/classifier_plantvillage -> loss3/classifier_plantvillage
I0403 18:25:07.899425  6939 net.cpp:141] Setting up loss3/classifier_plantvillage
I0403 18:25:07.899451  6939 net.cpp:148] Top shape: 24 38 (912)
I0403 18:25:07.899466  6939 net.cpp:156] Memory required for data: 1346064480
I0403 18:25:07.899485  6939 layer_factory.hpp:77] Creating layer loss3/classifier_plantvillage_loss3/classifier_plantvillage_0_split
I0403 18:25:07.899507  6939 net.cpp:91] Creating Layer loss3/classifier_plantvillage_loss3/classifier_plantvillage_0_split
I0403 18:25:07.899523  6939 net.cpp:425] loss3/classifier_plantvillage_loss3/classifier_plantvillage_0_split <- loss3/classifier_plantvillage
I0403 18:25:07.899540  6939 net.cpp:399] loss3/classifier_plantvillage_loss3/classifier_plantvillage_0_split -> loss3/classifier_plantvillage_loss3/classifier_plantvillage_0_split_0
I0403 18:25:07.899561  6939 net.cpp:399] loss3/classifier_plantvillage_loss3/classifier_plantvillage_0_split -> loss3/classifier_plantvillage_loss3/classifier_plantvillage_0_split_1
I0403 18:25:07.899581  6939 net.cpp:399] loss3/classifier_plantvillage_loss3/classifier_plantvillage_0_split -> loss3/classifier_plantvillage_loss3/classifier_plantvillage_0_split_2
I0403 18:25:07.899601  6939 net.cpp:399] loss3/classifier_plantvillage_loss3/classifier_plantvillage_0_split -> loss3/classifier_plantvillage_loss3/classifier_plantvillage_0_split_3
I0403 18:25:07.899700  6939 net.cpp:141] Setting up loss3/classifier_plantvillage_loss3/classifier_plantvillage_0_split
I0403 18:25:07.899724  6939 net.cpp:148] Top shape: 24 38 (912)
I0403 18:25:07.899740  6939 net.cpp:148] Top shape: 24 38 (912)
I0403 18:25:07.899755  6939 net.cpp:148] Top shape: 24 38 (912)
I0403 18:25:07.899770  6939 net.cpp:148] Top shape: 24 38 (912)
I0403 18:25:07.899785  6939 net.cpp:156] Memory required for data: 1346079072
I0403 18:25:07.899799  6939 layer_factory.hpp:77] Creating layer loss1/loss
I0403 18:25:07.899821  6939 net.cpp:91] Creating Layer loss1/loss
I0403 18:25:07.899839  6939 net.cpp:425] loss1/loss <- loss1/classifier_plantvillage_loss1/classifier_plantvillage_0_split_0
I0403 18:25:07.899869  6939 net.cpp:425] loss1/loss <- label_data_1_split_0
…
