…
I0403 18:26:52.557590  6980 net.cpp:313] The NetState phase (1) differed from the phase (0) specified by a rule in layer data
I0403 18:26:52.558810  6980 net.cpp:49] Initializing net from parameters: 
state {
  phase: TEST
}
layer {
  name: "data"
  type: "Data"
  top: "data"
  top: "label"
  include {
    phase: TEST
  }
  transform_param {
    mirror: false
    crop_size: 224
    mean_file: "/home/mohanty/data/final_dataset/lmdb/segmented-50-50/mean.binaryproto"
  }
  data_param {
    source: "/home/mohanty/data/final_dataset/lmdb/segmented-50-50/test_db"
    batch_size: 24
    backend: LMDB
  }
}
layer {
  name: "conv1/7x7_s2"
  type: "Convolution"
  bottom: "data"
  top: "conv1/7x7_s2"
  param {
    lr_mult: 1
    decay_mult: 1
  }
  param {
    lr_mult: 2
    decay_mult: 0
  }
  convolution_param {
    num_output: 64
    pad: 3
    kernel_size: 7
    stride: 2
    weight_filler {
      type: "xavier"
      std: 0.1
    }
    bias_filler {
      type: "constant"
      value: 0.2
    }
  }
}
layer {
  name: "conv1/relu_7x7"
  type: "ReLU"
  bottom: "conv1/7x7_s2"
  top: "conv1/7x7_s2"
}
layer {
  name: "pool1/3x3_s2"
  type: "Pooling"
  bottom: "conv1/7x7_s2"
  top: "pool1/3x3_s2"
  pooling_param {
    pool: MAX
    kernel_size: 3
    stride: 2
  }
}
layer {
  name: "pool1/norm1"
  type: "LRN"
  bottom: "pool1/3x3_s2"
  top: "pool1/norm1"
  lrn_param {
    local_size: 5
    alpha: 0.0001
    beta: 0.75
  }
}
layer {
  name: "conv2/3x3_reduce"
  type: "Convolution"
  bottom: "pool1/norm1"
  top: "conv2/3x3_reduce"
  param {
    lr_mult: 1
    decay_mult: 1
  }
  param {
    lr_mult: 2
    decay_mult: 0
  }
  convolution_param {
    num_output: 64
    kernel_size: 1
    weight_filler {
      type: "xavier"
      std: 0.1
    }
    bias_filler {
      type: "constant"
      value: 0.2
    }
  }
}
layer {
  name: "conv2/relu_3x3_reduce"
  type: "ReLU"
  bottom: "conv2/3x3_reduce"
  top: "conv2/3x3_reduce"
}
layer {
  name: "conv2/3x3"
  type: "Convolution"
  bottom: "conv2/3x3_reduce"
  top: "conv2/3x3"
  param {
    lr_mult: 1
    decay_mult: 1
  }
  param {
    lr_mult: 2
    decay_mult: 0
  }
  convolution_param {
    num_output: 192
    pad: 1
    kernel_size: 3
    weight_filler {
      type: "xavier"
      std: 0.03
    }
    bias_filler {
      type: "constant"
      value: 0.2
    }
  }
}
layer {
  name: "conv2/relu_3x3"
  type: "ReLU"
  bottom: "conv2/3x3"
  top: "conv2/3x3"
}
layer {
  name: "conv2/norm2"
  type: "LRN"
  bottom: "conv2/3x3"
  top: "conv2/norm2"
  lrn_param {
    local_size: 5
    alpha: 0.0001
    beta: 0.75
  }
}
layer {
  name: "pool2/3x3_s2"
  type: "Pooling"
  bottom: "conv2/norm2"
  top: "pool2/3x3_s2"
  pooling_param {
    pool: MAX
    kernel_size: 3
    stride: 2
  }
}
layer {
  name: "inception_3a/1x1"
  type: "Convolution"
  bottom: "pool2/3x3_s2"
  top: "inception_3a/1x1"
  param {
    lr_mult: 1
    decay_mult: 1
  }
  param {
    lr_mult: 2
    decay_mult: 0
  }
  convolution_param {
    num_output: 64
    kernel_size: 1
    weight_filler {
      type: "xavier"
      std: 0.03
    }
    bias_filler {
      type: "constant"
      value: 0.2
    }
  }
}
layer {
  name: "inception_3a/relu_1x1"
  type: "ReLU"
  bottom: "inception_3a/1x1"
  top: "inception_3a/1x1"
}
layer {
  name: "inception_3a/3x3_reduce"
  type: "Convolution"
  bottom: "pool2/3x3_s2"
  top: "inception_3a/3x3_reduce"
  param {
    lr_mult: 1
    decay_mult: 1
  }
  param {
    lr_mult: 2
    decay_mult: 0
  }
  convolution_param {
    num_output: 96
    kernel_size: 1
    weight_filler {
      type: "xavier"
      std: 0.09
    }
    bias_filler {
      type: "constant"
      value: 0.2
    }
  }
}
layer {
  name: "inception_3a/relu_3x3_reduce"
  type: "ReLU"
  bottom: "inception_3a/3x3_reduce"
  top: "inception_3a/3x3_reduce"
}
layer {
  name: "inception_3a/3x3"
  type: "Convolution"
  bottom: "inception_3a/3x3_reduce"
  top: "inception_3a/3x3"
  param {
    lr_mult: 1
    decay_mult: 1
  }
  param {
    lr_mult: 2
    decay_mult: 0
  }
  convolution_param {
    num_output: 128
    pad: 1
    kernel_size: 3
    weight_filler {
      type: "xavier"
      std: 0.03
    }
    bias_filler {
      type: "constant"
      value: 0.2
    }
  }
}
layer {
  name: "inception_3a/relu_3x3"
  type: "ReLU"
  bottom: "inception_3a/3x3"
  top: "inception_3a/3x3"
}
layer {
  name: "inception_3a/5x5_reduce"
  type: "Convolution"
  bottom: "pool2/3x3_s2"
  top: "inception_3a/5x5_reduce"
  param {
    lr_mult: 1
    decay_mult: 1
  }
  param {
    lr_mult: 2
    decay_mult: 0
  }
  convolution_param {
    num_output: 16
    kernel_size: 1
    weight_filler {
      type: "xavier"
      std: 0.2
    }
    bias_filler {
      type: "constant"
      value: 0.2
    }
  }
}
layer {
  name: "inception_3a/relu_5x5_reduce"
  type: "ReLU"
  bottom: "inception_3a/5x5_reduce"
  top: "inception_3a/5x5_reduce"
}
layer {
  name: "inception_3a/5x5"
  type: "Convolution"
  bottom: "inception_3a/5x5_reduce"
  top: "inception_3a/5x5"
  param {
    lr_mult: 1
    decay_mult: 1
  }
  param {
    lr_mult: 2
    decay_mult: 0
  }
  convolution_param {
    num_output: 32
    pad: 2
    kernel_size: 5
    weight_filler {
      type: "xavier"
      std: 0.03
    }
    bias_filler {
      type: "constant"
      value: 0.2
    }
  }
}
layer {
  name: "inception_3a/relu_5x5"
  type: "ReLU"
  bottom: "inception_3a/5x5"
  top: "inception_3a/5x5"
}
layer {
  name: "inception_3a/pool"
  type: "Pooling"
  bottom: "pool2/3x3_s2"
  top: "inception_3a/pool"
  pooling_param {
    pool: MAX
    kernel_size: 3
    stride: 1
    pad: 1
  }
}
layer {
  name: "inception_3a/pool_proj"
  type: "Convolution"
  bottom: "inception_3a/pool"
  top: "inception_3a/pool_proj"
  param {
    lr_mult: 1
    decay_mult: 1
  }
  param {
    lr_mult: 2
    decay_mult: 0
  }
  convolution_param {
    num_output: 32
    kernel_size: 1
    weight_filler {
      type: "xavier"
      std: 0.1
    }
    bias_filler {
      type: "constant"
      value: 0.2
    }
  }
}
layer {
  name: "inception_3a/relu_pool_proj"
  type: "ReLU"
  bottom: "inception_3a/pool_proj"
  top: "inception_3a/pool_proj"
}
layer {
  name: "inception_3a/output"
  type: "Concat"
  bottom: "inception_3a/1x1"
  bottom: "inception_3a/3x3"
  bottom: "inception_3a/5x5"
  bottom: "inception_3a/pool_proj"
  top: "inception_3a/output"
}
layer {
  name: "inception_3b/1x1"
  type: "Convolution"
  bottom: "inception_3a/output"
  top: "inception_3b/1x1"
  param {
    lr_mult: 1
    decay_mult: 1
  }
  param {
    lr_mult: 2
    decay_mult: 0
  }
  convolution_param {
    num_output: 128
    kernel_size: 1
    weight_filler {
      type: "xavier"
      std: 0.03
    }
    bias_filler {
      type: "constant"
      value: 0.2
    }
  }
}
layer {
  name: "inception_3b/relu_1x1"
  type: "ReLU"
  bottom: "inception_3b/1x1"
  top: "inception_3b/1x1"
}
layer {
  name: "inception_3b/3x3_reduce"
  type: "Convolution"
  bottom: "inception_3a/output"
  top: "inception_3b/3x3_reduce"
  param {
    lr_mult: 1
    decay_mult: 1
  }
  param {
    lr_mult: 2
    decay_mult: 0
  }
  convolution_param {
    num_output: 128
    kernel_size: 1
    weight_filler {
      type: "xavier"
      std: 0.09
    }
    bias_filler {
      type: "constant"
      value: 0.2
    }
  }
}
layer {
  name: "inception_3b/relu_3x3_reduce"
  type: "ReLU"
  bottom: "inception_3b/3x3_reduce"
  top: "inception_3b/3x3_reduce"
}
layer {
  name: "inception_3b/3x3"
  type: "Convolution"
  bottom: "inception_3b/3x3_reduce"
  top: "inception_3b/3x3"
  param {
    lr_mult: 1
    decay_mult: 1
  }
  param {
    lr_mult: 2
    decay_mult: 0
  }
  convolution_param {
    num_output: 192
    pad: 1
    kernel_size: 3
    weight_filler {
      type: "xavier"
      std: 0.03
    }
    bias_filler {
      type: "constant"
      value: 0.2
    }
  }
}
layer {
  name: "inception_3b/relu_3x3"
  type: "ReLU"
  bottom: "inception_3b/3x3"
  top: "inception_3b/3x3"
}
layer {
  name: "inception_3b/5x5_reduce"
  type: "Convolution"
  bottom: "inception_3a/output"
  top: "inception_3b/5x5_reduce"
  param {
    lr_mult: 1
    decay_mult: 1
  }
  param {
    lr_mult: 2
    decay_mult: 0
  }
  convolution_param {
    num_output: 32
    kernel_size: 1
    weight_filler {
      type: "xavier"
      std: 0.2
    }
    bias_filler {
      type: "constant"
      value: 0.2
    }
  }
}
layer {
  name: "inception_3b/relu_5x5_reduce"
  type: "ReLU"
  bottom: "inception_3b/5x5_reduce"
  top: "inception_3b/5x5_reduce"
}
layer {
  name: "inception_3b/5x5"
  type: "Convolution"
  bottom: "inception_3b/5x5_reduce"
  top: "inception_3b/5x5"
  param {
    lr_mult: 1
    decay_mult: 1
  }
  param {
    lr_mult: 2
    decay_mult: 0
  }
  convolution_param {
    num_output: 96
    pad: 2
    kernel_size: 5
    weight_filler {
      type: "xavier"
      std: 0.03
    }
    bias_filler {
      type: "constant"
      value: 0.2
    }
  }
}
layer {
  name: "inception_3b/relu_5x5"
  type: "ReLU"
  bottom: "inception_3b/5x5"
  top: "inception_3b/5x5"
}
layer {
  name: "inception_3b/pool"
  type: "Pooling"
  bottom: "inception_3a/output"
  top: "inception_3b/pool"
  pooling_param {
    pool: MAX
    kernel_size: 3
    stride: 1
    pad: 1
  }
}
layer {
  name: "inception_3b/pool_proj"
  type: "Convolution"
  bottom: "inception_3b/pool"
  top: "inception_3b/pool_proj"
  param {
    lr_mult: 1
    decay_mult: 1
  }
  param {
    lr_mult: 2
    decay_mult: 0
  }
  convolution_param {
    num_output: 64
    kernel_size: 1
    weight_filler {
      type: "xavier"
      std: 0.1
    }
    bias_filler {
      type: "constant"
      value: 0.2
    }
  }
}
layer {
  name: "inception_3b/relu_pool_proj"
  type: "ReLU"
  bottom: "inception_3b/pool_proj"
  top: "inception_3b/pool_proj"
}
layer {
  name: "inception_3b/output"
  type: "Concat"
  bottom: "inception_3b/1x1"
  bottom: "inception_3b/3x3"
  bottom: "inception_3b/5x5"
  bottom: "inception_3b/pool_proj"
  top: "inception_3b/output"
}
layer {
  name: "pool3/3x3_s2"
  type: "Pooling"
  bottom: "inception_3b/output"
  top: "pool3/3x3_s2"
  pooling_param {
    pool: MAX
    kernel_size: 3
    stride: 2
  }
}
layer {
  name: "inception_4a/1x1"
  type: "Convolution"
  bottom: "pool3/3x3_s2"
  top: "inception_4a/1x1"
  param {
    lr_mult: 1
    decay_mult: 1
  }
  param {
    lr_mult: 2
    decay_mult: 0
  }
  convolution_param {
    num_output: 192
    kernel_size: 1
    weight_filler {
      type: "xavier"
      std: 0.03
    }
    bias_filler {
      type: "constant"
      value: 0.2
    }
  }
}
layer {
  name: "inception_4a/relu_1x1"
  type: "ReLU"
  bottom: "inception_4a/1x1"
  top: "inception_4a/1x1"
}
layer {
  name: "inception_4a/3x3_reduce"
  type: "Convolution"
  bottom: "pool3/3x3_s2"
  top: "inception_4a/3x3_reduce"
  param {
    lr_mult: 1
    decay_mult: 1
  }
  param {
    lr_mult: 2
    decay_mult: 0
  }
  convolution_param {
    num_output: 96
    kernel_size: 1
    weight_filler {
      type: "xavier"
      std: 0.09
    }
    bias_filler {
      type: "constant"
      value: 0.2
    }
  }
}
layer {
  name: "inception_4a/relu_3x3_reduce"
  type: "ReLU"
  bottom: "inception_4a/3x3_reduce"
  top: "inception_4a/3x3_reduce"
}
layer {
  name: "inception_4a/3x3"
  type: "Convolution"
  bottom: "inception_4a/3x3_reduce"
  top: "inception_4a/3x3"
  param {
    lr_mult: 1
    decay_mult: 1
  }
  param {
    lr_mult: 2
    decay_mult: 0
  }
  convolution_param {
    num_output: 208
    pad: 1
    kernel_size: 3
    weight_filler {
      type: "xavier"
      std: 0.03
    }
    bias_filler {
      type: "constant"
      value: 0.2
    }
  }
}
layer {
  name: "inception_4a/relu_3x3"
  type: "ReLU"
  bottom: "inception_4a/3x3"
  top: "inception_4a/3x3"
}
layer {
  name: "inception_4a/5x5_reduce"
  type: "Convolution"
  bottom: "pool3/3x3_s2"
  top: "inception_4a/5x5_reduce"
  param {
    lr_mult: 1
    decay_mult: 1
  }
  param {
    lr_mult: 2
    decay_mult: 0
  }
  convolution_param {
    num_output: 16
    kernel_size: 1
    weight_filler {
      type: "xavier"
      std: 0.2
    }
    bias_filler {
      type: "constant"
      value: 0.2
    }
  }
}
layer {
  name: "inception_4a/relu_5x5_reduce"
  type: "ReLU"
  bottom: "inception_4a/5x5_reduce"
  top: "inception_4a/5x5_reduce"
}
layer {
  name: "inception_4a/5x5"
  type: "Convolution"
  bottom: "inception_4a/5x5_reduce"
  top: "inception_4a/5x5"
  param {
    lr_mult: 1
    decay_mult: 1
  }
  param {
    lr_mult: 2
    decay_mult: 0
  }
  convolution_param {
    num_output: 48
    pad: 2
    kernel_size: 5
    weight_filler {
      type: "xavier"
      std: 0.03
    }
    bias_filler {
      type: "constant"
      value: 0.2
    }
  }
}
layer {
  name: "inception_4a/relu_5x5"
  type: "ReLU"
  bottom: "inception_4a/5x5"
  top: "inception_4a/5x5"
}
layer {
  name: "inception_4a/pool"
  type: "Pooling"
  bottom: "pool3/3x3_s2"
  top: "inception_4a/pool"
  pooling_param {
    pool: MAX
    kernel_size: 3
    stride: 1
    pad: 1
  }
}
layer {
  name: "inception_4a/pool_proj"
  type: "Convolution"
  bottom: "inception_4a/pool"
  top: "inception_4a/pool_proj"
  param {
    lr_mult: 1
    decay_mult: 1
  }
  param {
    lr_mult: 2
    decay_mult: 0
  }
  convolution_param {
    num_output: 64
    kernel_size: 1
    weight_filler {
      type: "xavier"
      std: 0.1
    }
    bias_filler {
      type: "constant"
      value: 0.2
    }
  }
}
layer {
  name: "inception_4a/relu_pool_proj"
  type: "ReLU"
  bottom: "inception_4a/pool_proj"
  top: "inception_4a/pool_proj"
}
layer {
  name: "inception_4a/output"
  type: "Concat"
  bottom: "inception_4a/1x1"
  bottom: "inception_4a/3x3"
  bottom: "inception_4a/5x5"
  bottom: "inception_4a/pool_proj"
  top: "inception_4a/output"
}
layer {
  name: "loss1/ave_pool"
  type: "Pooling"
  bottom: "inception_4a/output"
  top: "loss1/ave_pool"
  pooling_param {
    pool: AVE
    kernel_size: 5
    stride: 3
  }
}
layer {
  name: "loss1/conv"
  type: "Convolution"
  bottom: "loss1/ave_pool"
  top: "loss1/conv"
  param {
    lr_mult: 1
    decay_mult: 1
  }
  param {
    lr_mult: 2
    decay_mult: 0
  }
  convolution_param {
    num_output: 128
    kernel_size: 1
    weight_filler {
      type: "xavier"
      std: 0.08
    }
    bias_filler {
      type: "constant"
      value: 0.2
    }
  }
}
layer {
  name: "loss1/relu_conv"
  type: "ReLU"
  bottom: "loss1/conv"
  top: "loss1/conv"
}
layer {
  name: "loss1/fc"
  type: "InnerProduct"
  bottom: "loss1/conv"
  top: "loss1/fc"
  param {
    lr_mult: 1
    decay_mult: 1
  }
  param {
    lr_mult: 2
    decay_mult: 0
  }
  inner_product_param {
    num_output: 1024
    weight_filler {
      type: "xavier"
      std: 0.02
    }
    bias_filler {
      type: "constant"
      value: 0.2
    }
  }
}
layer {
  name: "loss1/relu_fc"
  type: "ReLU"
  bottom: "loss1/fc"
  top: "loss1/fc"
}
layer {
  name: "loss1/drop_fc"
  type: "Dropout"
  bottom: "loss1/fc"
  top: "loss1/fc"
  dropout_param {
    dropout_ratio: 0.7
  }
}
layer {
  name: "loss1/classifier_plantvillage"
  type: "InnerProduct"
  bottom: "loss1/fc"
  top: "loss1/classifier_plantvillage"
  param {
    lr_mult: 1
    decay_mult: 1
  }
  param {
    lr_mult: 2
    decay_mult: 0
  }
  inner_product_param {
    num_output: 38
    weight_filler {
      type: "xavier"
      std: 0.0009765625
    }
    bias_filler {
      type: "constant"
      value: 0
    }
  }
}
layer {
  name: "inception_4b/1x1"
  type: "Convolution"
  bottom: "inception_4a/output"
  top: "inception_4b/1x1"
  param {
    lr_mult: 1
    decay_mult: 1
  }
  param {
    lr_mult: 2
    decay_mult: 0
  }
  convolution_param {
    num_output: 160
    kernel_size: 1
    weight_filler {
      type: "xavier"
      std: 0.03
    }
    bias_filler {
      type: "constant"
      value: 0.2
    }
  }
}
layer {
  name: "inception_4b/relu_1x1"
  type: "ReLU"
  bottom: "inception_4b/1x1"
  top: "inception_4b/1x1"
}
layer {
  name: "inception_4b/3x3_reduce"
  type: "Convolution"
  bottom: "inception_4a/output"
  top: "inception_4b/3x3_reduce"
  param {
    lr_mult: 1
    decay_mult: 1
  }
  param {
    lr_mult: 2
    decay_mult: 0
  }
  convolution_param {
    num_output: 112
    kernel_size: 1
    weight_filler {
      type: "xavier"
      std: 0.09
    }
    bias_filler {
      type: "constant"
      value: 0.2
    }
  }
}
layer {
  name: "inception_4b/relu_3x3_reduce"
  type: "ReLU"
  bottom: "inception_4b/3x3_reduce"
  top: "inception_4b/3x3_reduce"
}
layer {
  name: "inception_4b/3x3"
  type: "Convolution"
  bottom: "inception_4b/3x3_reduce"
  top: "inception_4b/3x3"
  param {
    lr_mult: 1
    decay_mult: 1
  }
  param {
    lr_mult: 2
    decay_mult: 0
  }
  convolution_param {
    num_output: 224
    pad: 1
    kernel_size: 3
    weight_filler {
      type: "xavier"
      std: 0.03
    }
    bias_filler {
      type: "constant"
      value: 0.2
    }
  }
}
layer {
  name: "inception_4b/relu_3x3"
  type: "ReLU"
  bottom: "inception_4b/3x3"
  top: "inception_4b/3x3"
}
layer {
  name: "inception_4b/5x5_reduce"
  type: "Convolution"
  bottom: "inception_4a/output"
  top: "inception_4b/5x5_reduce"
  param {
    lr_mult: 1
    decay_mult: 1
  }
  param {
    lr_mult: 2
    decay_mult: 0
  }
  convolution_param {
    num_output: 24
    kernel_size: 1
    weight_filler {
      type: "xavier"
      std: 0.2
    }
    bias_filler {
      type: "constant"
      value: 0.2
    }
  }
}
layer {
  name: "inception_4b/relu_5x5_reduce"
  type: "ReLU"
  bottom: "inception_4b/5x5_reduce"
  top: "inception_4b/5x5_reduce"
}
layer {
  name: "inception_4b/5x5"
  type: "Convolution"
  bottom: "inception_4b/5x5_reduce"
  top: "inception_4b/5x5"
  param {
    lr_mult: 1
    decay_mult: 1
  }
  param {
    lr_mult: 2
    decay_mult: 0
  }
  convolution_param {
    num_output: 64
    pad: 2
    kernel_size: 5
    weight_filler {
      type: "xavier"
      std: 0.03
    }
    bias_filler {
      type: "constant"
      value: 0.2
    }
  }
}
layer {
  name: "inception_4b/relu_5x5"
  type: "ReLU"
  bottom: "inception_4b/5x5"
  top: "inception_4b/5x5"
}
layer {
  name: "inception_4b/pool"
  type: "Pooling"
  bottom: "inception_4a/output"
  top: "inception_4b/pool"
  pooling_param {
    pool: MAX
    kernel_size: 3
    stride: 1
    pad: 1
  }
}
layer {
  name: "inception_4b/pool_proj"
  type: "Convolution"
  bottom: "inception_4b/pool"
  top: "inception_4b/pool_proj"
  param {
    lr_mult: 1
    decay_mult: 1
  }
  param {
    lr_mult: 2
    decay_mult: 0
  }
  convolution_param {
    num_output: 64
    kernel_size: 1
    weight_filler {
      type: "xavier"
      std: 0.1
    }
    bias_filler {
      type: "constant"
      value: 0.2
    }
  }
}
layer {
  name: "inception_4b/relu_pool_proj"
  type: "ReLU"
  bottom: "inception_4b/pool_proj"
  top: "inception_4b/pool_proj"
}
layer {
  name: "inception_4b/output"
  type: "Concat"
  bottom: "inception_4b/1x1"
  bottom: "inception_4b/3x3"
  bottom: "inception_4b/5x5"
  bottom: "inception_4b/pool_proj"
  top: "inception_4b/output"
}
layer {
  name: "inception_4c/1x1"
  type: "Convolution"
  bottom: "inception_4b/output"
  top: "inception_4c/1x1"
  param {
    lr_mult: 1
    decay_mult: 1
  }
  param {
    lr_mult: 2
    decay_mult: 0
  }
  convolution_param {
    num_output: 128
    kernel_size: 1
    weight_filler {
      type: "xavier"
      std: 0.03
    }
    bias_filler {
      type: "constant"
      value: 0.2
    }
  }
}
layer {
  name: "inception_4c/relu_1x1"
  type: "ReLU"
  bottom: "inception_4c/1x1"
  top: "inception_4c/1x1"
}
layer {
  name: "inception_4c/3x3_reduce"
  type: "Convolution"
  bottom: "inception_4b/output"
  top: "inception_4c/3x3_reduce"
  param {
    lr_mult: 1
    decay_mult: 1
  }
  param {
    lr_mult: 2
    decay_mult: 0
  }
  convolution_param {
    num_output: 128
    kernel_size: 1
    weight_filler {
      type: "xavier"
      std: 0.09
    }
    bias_filler {
      type: "constant"
      value: 0.2
    }
  }
}
layer {
  name: "inception_4c/relu_3x3_reduce"
  type: "ReLU"
  bottom: "inception_4c/3x3_reduce"
  top: "inception_4c/3x3_reduce"
}
layer {
  name: "inception_4c/3x3"
  type: "Convolution"
  bottom: "inception_4c/3x3_reduce"
  top: "inception_4c/3x3"
  param {
    lr_mult: 1
    decay_mult: 1
  }
  param {
    lr_mult: 2
    decay_mult: 0
  }
  convolution_param {
    num_output: 256
    pad: 1
    kernel_size: 3
    weight_filler {
      type: "xavier"
      std: 0.03
    }
    bias_filler {
      type: "constant"
      value: 0.2
    }
  }
}
layer {
  name: "inception_4c/relu_3x3"
  type: "ReLU"
  bottom: "inception_4c/3x3"
  top: "inception_4c/3x3"
}
layer {
  name: "inception_4c/5x5_reduce"
  type: "Convolution"
  bottom: "inception_4b/output"
  top: "inception_4c/5x5_reduce"
  param {
    lr_mult: 1
    decay_mult: 1
  }
  param {
    lr_mult: 2
    decay_mult: 0
  }
  convolution_param {
    num_output: 24
    kernel_size: 1
    weight_filler {
      type: "xavier"
      std: 0.2
    }
    bias_filler {
      type: "constant"
      value: 0.2
    }
  }
}
layer {
  name: "inception_4c/relu_5x5_reduce"
  type: "ReLU"
  bottom: "inception_4c/5x5_reduce"
  top: "inception_4c/5x5_reduce"
}
layer {
  name: "inception_4c/5x5"
  type: "Convolution"
  bottom: "inception_4c/5x5_reduce"
  top: "inception_4c/5x5"
  param {
    lr_mult: 1
    decay_mult: 1
  }
  param {
    lr_mult: 2
    decay_mult: 0
  }
  convolution_param {
    num_output: 64
    pad: 2
    kernel_size: 5
    weight_filler {
      type: "xavier"
      std: 0.03
    }
    bias_filler {
      type: "constant"
      value: 0.2
    }
  }
}
layer {
  name: "inception_4c/relu_5x5"
  type: "ReLU"
  bottom: "inception_4c/5x5"
  top: "inception_4c/5x5"
}
layer {
  name: "inception_4c/pool"
  type: "Pooling"
  bottom: "inception_4b/output"
  top: "inception_4c/pool"
  pooling_param {
    pool: MAX
    kernel_size: 3
    stride: 1
    pad: 1
  }
}
layer {
  name: "inception_4c/pool_proj"
  type: "Convolution"
  bottom: "inception_4c/pool"
  top: "inception_4c/pool_proj"
  param {
    lr_mult: 1
    decay_mult: 1
  }
  param {
    lr_mult: 2
    decay_mult: 0
  }
  convolution_param {
    num_output: 64
    kernel_size: 1
    weight_filler {
      type: "xavier"
      std: 0.1
    }
    bias_filler {
      type: "constant"
      value: 0.2
    }
  }
}
layer {
  name: "inception_4c/relu_pool_proj"
  type: "ReLU"
  bottom: "inception_4c/pool_proj"
  top: "inception_4c/pool_proj"
}
layer {
  name: "inception_4c/output"
  type: "Concat"
  bottom: "inception_4c/1x1"
  bottom: "inception_4c/3x3"
  bottom: "inception_4c/5x5"
  bottom: "inception_4c/pool_proj"
  top: "inception_4c/output"
}
layer {
  name: "inception_4d/1x1"
  type: "Convolution"
  bottom: "inception_4c/output"
  top: "inception_4d/1x1"
  param {
    lr_mult: 1
    decay_mult: 1
  }
  param {
    lr_mult: 2
    decay_mult: 0
  }
  convolution_param {
    num_output: 112
    kernel_size: 1
    weight_filler {
      type: "xavier"
      std: 0.03
    }
    bias_filler {
      type: "constant"
      value: 0.2
    }
  }
}
layer {
  name: "inception_4d/relu_1x1"
  type: "ReLU"
  bottom: "inception_4d/1x1"
  top: "inception_4d/1x1"
}
layer {
  name: "inception_4d/3x3_reduce"
  type: "Convolution"
  bottom: "inception_4c/output"
  top: "inception_4d/3x3_reduce"
  param {
    lr_mult: 1
    decay_mult: 1
  }
  param {
    lr_mult: 2
    decay_mult: 0
  }
  convolution_param {
    num_output: 144
    kernel_size: 1
    weight_filler {
      type: "xavier"
      std: 0.09
    }
    bias_filler {
      type: "constant"
      value: 0.2
    }
  }
}
layer {
  name: "inception_4d/relu_3x3_reduce"
  type: "ReLU"
  bottom: "inception_4d/3x3_reduce"
  top: "inception_4d/3x3_reduce"
}
layer {
  name: "inception_4d/3x3"
  type: "Convolution"
  bottom: "inception_4d/3x3_reduce"
  top: "inception_4d/3x3"
  param {
    lr_mult: 1
    decay_mult: 1
  }
  param {
    lr_mult: 2
    decay_mult: 0
  }
  convolution_param {
    num_output: 288
    pad: 1
    kernel_size: 3
    weight_filler {
      type: "xavier"
      std: 0.03
    }
    bias_filler {
      type: "constant"
      value: 0.2
    }
  }
}
layer {
  name: "inception_4d/relu_3x3"
  type: "ReLU"
  bottom: "inception_4d/3x3"
  top: "inception_4d/3x3"
}
layer {
  name: "inception_4d/5x5_reduce"
  type: "Convolution"
  bottom: "inception_4c/output"
  top: "inception_4d/5x5_reduce"
  param {
    lr_mult: 1
    decay_mult: 1
  }
  param {
    lr_mult: 2
    decay_mult: 0
  }
  convolution_param {
    num_output: 32
    kernel_size: 1
    weight_filler {
      type: "xavier"
      std: 0.2
    }
    bias_filler {
      type: "constant"
      value: 0.2
    }
  }
}
layer {
  name: "inception_4d/relu_5x5_reduce"
  type: "ReLU"
  bottom: "inception_4d/5x5_reduce"
  top: "inception_4d/5x5_reduce"
}
layer {
  name: "inception_4d/5x5"
  type: "Convolution"
  bottom: "inception_4d/5x5_reduce"
  top: "inception_4d/5x5"
  param {
    lr_mult: 1
    decay_mult: 1
  }
  param {
    lr_mult: 2
    decay_mult: 0
  }
  convolution_param {
    num_output: 64
    pad: 2
    kernel_size: 5
    weight_filler {
      type: "xavier"
      std: 0.03
    }
    bias_filler {
      type: "constant"
      value: 0.2
    }
  }
}
layer {
  name: "inception_4d/relu_5x5"
  type: "ReLU"
  bottom: "inception_4d/5x5"
  top: "inception_4d/5x5"
}
layer {
  name: "inception_4d/pool"
  type: "Pooling"
  bottom: "inception_4c/output"
  top: "inception_4d/pool"
  pooling_param {
    pool: MAX
    kernel_size: 3
    stride: 1
    pad: 1
  }
}
layer {
  name: "inception_4d/pool_proj"
  type: "Convolution"
  bottom: "inception_4d/pool"
  top: "inception_4d/pool_proj"
  param {
    lr_mult: 1
    decay_mult: 1
  }
  param {
    lr_mult: 2
    decay_mult: 0
  }
  convolution_param {
    num_output: 64
    kernel_size: 1
    weight_filler {
      type: "xavier"
      std: 0.1
    }
    bias_filler {
      type: "constant"
      value: 0.2
    }
  }
}
layer {
  name: "inception_4d/relu_pool_proj"
  type: "ReLU"
  bottom: "inception_4d/pool_proj"
  top: "inception_4d/pool_proj"
}
layer {
  name: "inception_4d/output"
  type: "Concat"
  bottom: "inception_4d/1x1"
  bottom: "inception_4d/3x3"
  bottom: "inception_4d/5x5"
  bottom: "inception_4d/pool_proj"
  top: "inception_4d/output"
}
layer {
  name: "loss2/ave_pool"
  type: "Pooling"
  bottom: "inception_4d/output"
  top: "loss2/ave_pool"
  pooling_param {
    pool: AVE
    kernel_size: 5
    stride: 3
  }
}
layer {
  name: "loss2/conv"
  type: "Convolution"
  bottom: "loss2/ave_pool"
  top: "loss2/conv"
  param {
    lr_mult: 1
    decay_mult: 1
  }
  param {
    lr_mult: 2
    decay_mult: 0
  }
  convolution_param {
    num_output: 128
    kernel_size: 1
    weight_filler {
      type: "xavier"
      std: 0.08
    }
    bias_filler {
      type: "constant"
      value: 0.2
    }
  }
}
layer {
  name: "loss2/relu_conv"
  type: "ReLU"
  bottom: "loss2/conv"
  top: "loss2/conv"
}
layer {
  name: "loss2/fc"
  type: "InnerProduct"
  bottom: "loss2/conv"
  top: "loss2/fc"
  param {
    lr_mult: 1
    decay_mult: 1
  }
  param {
    lr_mult: 2
    decay_mult: 0
  }
  inner_product_param {
    num_output: 1024
    weight_filler {
      type: "xavier"
      std: 0.02
    }
    bias_filler {
      type: "constant"
      value: 0.2
    }
  }
}
layer {
  name: "loss2/relu_fc"
  type: "ReLU"
  bottom: "loss2/fc"
  top: "loss2/fc"
}
layer {
  name: "loss2/drop_fc"
  type: "Dropout"
  bottom: "loss2/fc"
  top: "loss2/fc"
  dropout_param {
    dropout_ratio: 0.7
  }
}
layer {
  name: "loss2/classifier_plantvillage"
  type: "InnerProduct"
  bottom: "loss2/fc"
  top: "loss2/classifier_plantvillage"
  param {
    lr_mult: 1
    decay_mult: 1
  }
  param {
    lr_mult: 2
    decay_mult: 0
  }
  inner_product_param {
    num_output: 38
    weight_filler {
      type: "xavier"
      std: 0.0009765625
    }
    bias_filler {
      type: "constant"
      value: 0
    }
  }
}
layer {
  name: "inception_4e/1x1"
  type: "Convolution"
  bottom: "inception_4d/output"
  top: "inception_4e/1x1"
  param {
    lr_mult: 1
    decay_mult: 1
  }
  param {
    lr_mult: 2
    decay_mult: 0
  }
  convolution_param {
    num_output: 256
    kernel_size: 1
    weight_filler {
      type: "xavier"
      std: 0.03
    }
    bias_filler {
      type: "constant"
      value: 0.2
    }
  }
}
layer {
  name: "inception_4e/relu_1x1"
  type: "ReLU"
  bottom: "inception_4e/1x1"
  top: "inception_4e/1x1"
}
layer {
  name: "inception_4e/3x3_reduce"
  type: "Convolution"
  bottom: "inception_4d/output"
  top: "inception_4e/3x3_reduce"
  param {
    lr_mult: 1
    decay_mult: 1
  }
  param {
    lr_mult: 2
    decay_mult: 0
  }
  convolution_param {
    num_output: 160
    kernel_size: 1
    weight_filler {
      type: "xavier"
      std: 0.09
    }
    bias_filler {
      type: "constant"
      value: 0.2
    }
  }
}
layer {
  name: "inception_4e/relu_3x3_reduce"
  type: "ReLU"
  bottom: "inception_4e/3x3_reduce"
  top: "inception_4e/3x3_reduce"
}
layer {
  name: "inception_4e/3x3"
  type: "Convolution"
  bottom: "inception_4e/3x3_reduce"
  top: "inception_4e/3x3"
  param {
    lr_mult: 1
    decay_mult: 1
  }
  param {
    lr_mult: 2
    decay_mult: 0
  }
  convolution_param {
    num_output: 320
    pad: 1
    kernel_size: 3
    weight_filler {
      type: "xavier"
      std: 0.03
    }
    bias_filler {
      type: "constant"
      value: 0.2
    }
  }
}
layer {
  name: "inception_4e/relu_3x3"
  type: "ReLU"
  bottom: "inception_4e/3x3"
  top: "inception_4e/3x3"
}
layer {
  name: "inception_4e/5x5_reduce"
  type: "Convolution"
  bottom: "inception_4d/output"
  top: "inception_4e/5x5_reduce"
  param {
    lr_mult: 1
    decay_mult: 1
  }
  param {
    lr_mult: 2
    decay_mult: 0
  }
  convolution_param {
    num_output: 32
    kernel_size: 1
    weight_filler {
      type: "xavier"
      std: 0.2
    }
    bias_filler {
      type: "constant"
      value: 0.2
    }
  }
}
layer {
  name: "inception_4e/relu_5x5_reduce"
  type: "ReLU"
  bottom: "inception_4e/5x5_reduce"
  top: "inception_4e/5x5_reduce"
}
layer {
  name: "inception_4e/5x5"
  type: "Convolution"
  bottom: "inception_4e/5x5_reduce"
  top: "inception_4e/
I0403 18:26:52.560526  6980 layer_factory.hpp:77] Creating layer data
I0403 18:26:52.561147  6980 net.cpp:91] Creating Layer data
I0403 18:26:52.561185  6980 net.cpp:399] data -> data
I0403 18:26:52.561239  6980 net.cpp:399] data -> label
I0403 18:26:52.561276  6980 data_transformer.cpp:25] Loading mean file from: /home/mohanty/data/final_dataset/lmdb/segmented-50-50/mean.binaryproto
I0403 18:26:52.562293  6983 db_lmdb.cpp:38] Opened lmdb /home/mohanty/data/final_dataset/lmdb/segmented-50-50/test_db
I0403 18:26:52.574889  6980 data_layer.cpp:41] output data size: 24,3,224,224
I0403 18:26:52.604538  6980 net.cpp:141] Setting up data
I0403 18:26:52.604660  6980 net.cpp:148] Top shape: 24 3 224 224 (3612672)
I0403 18:26:52.604681  6980 net.cpp:148] Top shape: 24 (24)
I0403 18:26:52.604696  6980 net.cpp:156] Memory required for data: 14450784
I0403 18:26:52.604724  6980 layer_factory.hpp:77] Creating layer label_data_1_split
I0403 18:26:52.604750  6980 net.cpp:91] Creating Layer label_data_1_split
I0403 18:26:52.604768  6980 net.cpp:425] label_data_1_split <- label
I0403 18:26:52.604800  6980 net.cpp:399] label_data_1_split -> label_data_1_split_0
I0403 18:26:52.604827  6980 net.cpp:399] label_data_1_split -> label_data_1_split_1
I0403 18:26:52.604848  6980 net.cpp:399] label_data_1_split -> label_data_1_split_2
I0403 18:26:52.604868  6980 net.cpp:399] label_data_1_split -> label_data_1_split_3
I0403 18:26:52.604888  6980 net.cpp:399] label_data_1_split -> label_data_1_split_4
I0403 18:26:52.604907  6980 net.cpp:399] label_data_1_split -> label_data_1_split_5
I0403 18:26:52.604928  6980 net.cpp:399] label_data_1_split -> label_data_1_split_6
I0403 18:26:52.604948  6980 net.cpp:399] label_data_1_split -> label_data_1_split_7
I0403 18:26:52.604967  6980 net.cpp:399] label_data_1_split -> label_data_1_split_8
I0403 18:26:52.604987  6980 net.cpp:399] label_data_1_split -> label_data_1_split_9
I0403 18:26:52.605099  6980 net.cpp:141] Setting up label_data_1_split
I0403 18:26:52.605123  6980 net.cpp:148] Top shape: 24 (24)
I0403 18:26:52.605140  6980 net.cpp:148] Top shape: 24 (24)
I0403 18:26:52.605156  6980 net.cpp:148] Top shape: 24 (24)
I0403 18:26:52.605172  6980 net.cpp:148] Top shape: 24 (24)
I0403 18:26:52.605192  6980 net.cpp:148] Top shape: 24 (24)
I0403 18:26:52.605209  6980 net.cpp:148] Top shape: 24 (24)
I0403 18:26:52.605224  6980 net.cpp:148] Top shape: 24 (24)
I0403 18:26:52.605242  6980 net.cpp:148] Top shape: 24 (24)
I0403 18:26:52.605257  6980 net.cpp:148] Top shape: 24 (24)
I0403 18:26:52.605273  6980 net.cpp:148] Top shape: 24 (24)
I0403 18:26:52.605332  6980 net.cpp:156] Memory required for data: 14451744
I0403 18:26:52.605350  6980 layer_factory.hpp:77] Creating layer conv1/7x7_s2
I0403 18:26:52.605384  6980 net.cpp:91] Creating Layer conv1/7x7_s2
I0403 18:26:52.605404  6980 net.cpp:425] conv1/7x7_s2 <- data
I0403 18:26:52.605427  6980 net.cpp:399] conv1/7x7_s2 -> conv1/7x7_s2
I0403 18:26:52.747397  6980 net.cpp:141] Setting up conv1/7x7_s2
I0403 18:26:52.747485  6980 net.cpp:148] Top shape: 24 64 112 112 (19267584)
I0403 18:26:52.747503  6980 net.cpp:156] Memory required for data: 91522080
I0403 18:26:52.747534  6980 layer_factory.hpp:77] Creating layer conv1/relu_7x7
I0403 18:26:52.747560  6980 net.cpp:91] Creating Layer conv1/relu_7x7
I0403 18:26:52.747578  6980 net.cpp:425] conv1/relu_7x7 <- conv1/7x7_s2
I0403 18:26:52.747596  6980 net.cpp:386] conv1/relu_7x7 -> conv1/7x7_s2 (in-place)
I0403 18:26:52.747854  6980 net.cpp:141] Setting up conv1/relu_7x7
I0403 18:26:52.747881  6980 net.cpp:148] Top shape: 24 64 112 112 (19267584)
I0403 18:26:52.747897  6980 net.cpp:156] Memory required for data: 168592416
I0403 18:26:52.747912  6980 layer_factory.hpp:77] Creating layer pool1/3x3_s2
I0403 18:26:52.747938  6980 net.cpp:91] Creating Layer pool1/3x3_s2
I0403 18:26:52.747956  6980 net.cpp:425] pool1/3x3_s2 <- conv1/7x7_s2
I0403 18:26:52.747974  6980 net.cpp:399] pool1/3x3_s2 -> pool1/3x3_s2
I0403 18:26:52.748047  6980 net.cpp:141] Setting up pool1/3x3_s2
I0403 18:26:52.748071  6980 net.cpp:148] Top shape: 24 64 56 56 (4816896)
I0403 18:26:52.748087  6980 net.cpp:156] Memory required for data: 187860000
I0403 18:26:52.748102  6980 layer_factory.hpp:77] Creating layer pool1/norm1
I0403 18:26:52.748126  6980 net.cpp:91] Creating Layer pool1/norm1
I0403 18:26:52.748143  6980 net.cpp:425] pool1/norm1 <- pool1/3x3_s2
I0403 18:26:52.748162  6980 net.cpp:399] pool1/norm1 -> pool1/norm1
I0403 18:26:52.748445  6980 net.cpp:141] Setting up pool1/norm1
I0403 18:26:52.748471  6980 net.cpp:148] Top shape: 24 64 56 56 (4816896)
I0403 18:26:52.748488  6980 net.cpp:156] Memory required for data: 207127584
I0403 18:26:52.748504  6980 layer_factory.hpp:77] Creating layer conv2/3x3_reduce
I0403 18:26:52.748529  6980 net.cpp:91] Creating Layer conv2/3x3_reduce
I0403 18:26:52.748545  6980 net.cpp:425] conv2/3x3_reduce <- pool1/norm1
I0403 18:26:52.748564  6980 net.cpp:399] conv2/3x3_reduce -> conv2/3x3_reduce
I0403 18:26:52.749887  6980 net.cpp:141] Setting up conv2/3x3_reduce
I0403 18:26:52.749917  6980 net.cpp:148] Top shape: 24 64 56 56 (4816896)
I0403 18:26:52.749932  6980 net.cpp:156] Memory required for data: 226395168
I0403 18:26:52.749953  6980 layer_factory.hpp:77] Creating layer conv2/relu_3x3_reduce
I0403 18:26:52.749972  6980 net.cpp:91] Creating Layer conv2/relu_3x3_reduce
I0403 18:26:52.749989  6980 net.cpp:425] conv2/relu_3x3_reduce <- conv2/3x3_reduce
I0403 18:26:52.750006  6980 net.cpp:386] conv2/relu_3x3_reduce -> conv2/3x3_reduce (in-place)
I0403 18:26:52.750273  6980 net.cpp:141] Setting up conv2/relu_3x3_reduce
I0403 18:26:52.750300  6980 net.cpp:148] Top shape: 24 64 56 56 (4816896)
I0403 18:26:52.750315  6980 net.cpp:156] Memory required for data: 245662752
I0403 18:26:52.750332  6980 layer_factory.hpp:77] Creating layer conv2/3x3
I0403 18:26:52.750355  6980 net.cpp:91] Creating Layer conv2/3x3
I0403 18:26:52.750372  6980 net.cpp:425] conv2/3x3 <- conv2/3x3_reduce
I0403 18:26:52.750391  6980 net.cpp:399] conv2/3x3 -> conv2/3x3
I0403 18:26:52.752698  6980 net.cpp:141] Setting up conv2/3x3
I0403 18:26:52.752728  6980 net.cpp:148] Top shape: 24 192 56 56 (14450688)
I0403 18:26:52.752745  6980 net.cpp:156] Memory required for data: 303465504
I0403 18:26:52.752768  6980 layer_factory.hpp:77] Creating layer conv2/relu_3x3
I0403 18:26:52.752787  6980 net.cpp:91] Creating Layer conv2/relu_3x3
I0403 18:26:52.752804  6980 net.cpp:425] conv2/relu_3x3 <- conv2/3x3
I0403 18:26:52.752821  6980 net.cpp:386] conv2/relu_3x3 -> conv2/3x3 (in-place)
I0403 18:26:52.752982  6980 net.cpp:141] Setting up conv2/relu_3x3
I0403 18:26:52.753008  6980 net.cpp:148] Top shape: 24 192 56 56 (14450688)
I0403 18:26:52.753057  6980 net.cpp:156] Memory required for data: 361268256
I0403 18:26:52.753074  6980 layer_factory.hpp:77] Creating layer conv2/norm2
I0403 18:26:52.753093  6980 net.cpp:91] Creating Layer conv2/norm2
I0403 18:26:52.753110  6980 net.cpp:425] conv2/norm2 <- conv2/3x3
I0403 18:26:52.753129  6980 net.cpp:399] conv2/norm2 -> conv2/norm2
I0403 18:26:52.753425  6980 net.cpp:141] Setting up conv2/norm2
I0403 18:26:52.753454  6980 net.cpp:148] Top shape: 24 192 56 56 (14450688)
I0403 18:26:52.753471  6980 net.cpp:156] Memory required for data: 419071008
I0403 18:26:52.753487  6980 layer_factory.hpp:77] Creating layer pool2/3x3_s2
I0403 18:26:52.753507  6980 net.cpp:91] Creating Layer pool2/3x3_s2
I0403 18:26:52.753525  6980 net.cpp:425] pool2/3x3_s2 <- conv2/norm2
I0403 18:26:52.753542  6980 net.cpp:399] pool2/3x3_s2 -> pool2/3x3_s2
I0403 18:26:52.753592  6980 net.cpp:141] Setting up pool2/3x3_s2
I0403 18:26:52.753615  6980 net.cpp:148] Top shape: 24 192 28 28 (3612672)
I0403 18:26:52.753630  6980 net.cpp:156] Memory required for data: 433521696
I0403 18:26:52.753648  6980 layer_factory.hpp:77] Creating layer pool2/3x3_s2_pool2/3x3_s2_0_split
I0403 18:26:52.753667  6980 net.cpp:91] Creating Layer pool2/3x3_s2_pool2/3x3_s2_0_split
I0403 18:26:52.753684  6980 net.cpp:425] pool2/3x3_s2_pool2/3x3_s2_0_split <- pool2/3x3_s2
I0403 18:26:52.753702  6980 net.cpp:399] pool2/3x3_s2_pool2/3x3_s2_0_split -> pool2/3x3_s2_pool2/3x3_s2_0_split_0
I0403 18:26:52.753726  6980 net.cpp:399] pool2/3x3_s2_pool2/3x3_s2_0_split -> pool2/3x3_s2_pool2/3x3_s2_0_split_1
I0403 18:26:52.753748  6980 net.cpp:399] pool2/3x3_s2_pool2/3x3_s2_0_split -> pool2/3x3_s2_pool2/3x3_s2_0_split_2
I0403 18:26:52.753769  6980 net.cpp:399] pool2/3x3_s2_pool2/3x3_s2_0_split -> pool2/3x3_s2_pool2/3x3_s2_0_split_3
I0403 18:26:52.753834  6980 net.cpp:141] Setting up pool2/3x3_s2_pool2/3x3_s2_0_split
I0403 18:26:52.753857  6980 net.cpp:148] Top shape: 24 192 28 28 (3612672)
I0403 18:26:52.753875  6980 net.cpp:148] Top shape: 24 192 28 28 (3612672)
I0403 18:26:52.753891  6980 net.cpp:148] Top shape: 24 192 28 28 (3612672)
I0403 18:26:52.753909  6980 net.cpp:148] Top shape: 24 192 28 28 (3612672)
I0403 18:26:52.753923  6980 net.cpp:156] Memory required for data: 491324448
I0403 18:26:52.753940  6980 layer_factory.hpp:77] Creating layer inception_3a/1x1
I0403 18:26:52.753962  6980 net.cpp:91] Creating Layer inception_3a/1x1
I0403 18:26:52.753979  6980 net.cpp:425] inception_3a/1x1 <- pool2/3x3_s2_pool2/3x3_s2_0_split_0
I0403 18:26:52.753998  6980 net.cpp:399] inception_3a/1x1 -> inception_3a/1x1
I0403 18:26:52.755539  6980 net.cpp:141] Setting up inception_3a/1x1
I0403 18:26:52.755569  6980 net.cpp:148] Top shape: 24 64 28 28 (1204224)
I0403 18:26:52.755586  6980 net.cpp:156] Memory required for data: 496141344
I0403 18:26:52.755606  6980 layer_factory.hpp:77] Creating layer inception_3a/relu_1x1
I0403 18:26:52.755625  6980 net.cpp:91] Creating Layer inception_3a/relu_1x1
I0403 18:26:52.755641  6980 net.cpp:425] inception_3a/relu_1x1 <- inception_3a/1x1
I0403 18:26:52.755659  6980 net.cpp:386] inception_3a/relu_1x1 -> inception_3a/1x1 (in-place)
I0403 18:26:52.755820  6980 net.cpp:141] Setting up inception_3a/relu_1x1
I0403 18:26:52.755846  6980 net.cpp:148] Top shape: 24 64 28 28 (1204224)
I0403 18:26:52.755862  6980 net.cpp:156] Memory required for data: 500958240
I0403 18:26:52.755877  6980 layer_factory.hpp:77] Creating layer inception_3a/3x3_reduce
I0403 18:26:52.755898  6980 net.cpp:91] Creating Layer inception_3a/3x3_reduce
I0403 18:26:52.755918  6980 net.cpp:425] inception_3a/3x3_reduce <- pool2/3x3_s2_pool2/3x3_s2_0_split_1
I0403 18:26:52.755936  6980 net.cpp:399] inception_3a/3x3_reduce -> inception_3a/3x3_reduce
I0403 18:26:52.757625  6980 net.cpp:141] Setting up inception_3a/3x3_reduce
I0403 18:26:52.757655  6980 net.cpp:148] Top shape: 24 96 28 28 (1806336)
I0403 18:26:52.757671  6980 net.cpp:156] Memory required for data: 508183584
I0403 18:26:52.757694  6980 layer_factory.hpp:77] Creating layer inception_3a/relu_3x3_reduce
I0403 18:26:52.757735  6980 net.cpp:91] Creating Layer inception_3a/relu_3x3_reduce
I0403 18:26:52.757753  6980 net.cpp:425] inception_3a/relu_3x3_reduce <- inception_3a/3x3_reduce
I0403 18:26:52.757771  6980 net.cpp:386] inception_3a/relu_3x3_reduce -> inception_3a/3x3_reduce (in-place)
I0403 18:26:52.757956  6980 net.cpp:141] Setting up inception_3a/relu_3x3_reduce
I0403 18:26:52.757984  6980 net.cpp:148] Top shape: 24 96 28 28 (1806336)
I0403 18:26:52.758000  6980 net.cpp:156] Memory required for data: 515408928
I0403 18:26:52.758016  6980 layer_factory.hpp:77] Creating layer inception_3a/3x3
I0403 18:26:52.758041  6980 net.cpp:91] Creating Layer inception_3a/3x3
I0403 18:26:52.758060  6980 net.cpp:425] inception_3a/3x3 <- inception_3a/3x3_reduce
I0403 18:26:52.758081  6980 net.cpp:399] inception_3a/3x3 -> inception_3a/3x3
I0403 18:26:52.759807  6980 net.cpp:141] Setting up inception_3a/3x3
I0403 18:26:52.759836  6980 net.cpp:148] Top shape: 24 128 28 28 (2408448)
I0403 18:26:52.759855  6980 net.cpp:156] Memory required for data: 525042720
I0403 18:26:52.759873  6980 layer_factory.hpp:77] Creating layer inception_3a/relu_3x3
I0403 18:26:52.759896  6980 net.cpp:91] Creating Layer inception_3a/relu_3x3
I0403 18:26:52.759913  6980 net.cpp:425] inception_3a/relu_3x3 <- inception_3a/3x3
I0403 18:26:52.759932  6980 net.cpp:386] inception_3a/relu_3x3 -> inception_3a/3x3 (in-place)
I0403 18:26:52.760224  6980 net.cpp:141] Setting up inception_3a/relu_3x3
I0403 18:26:52.760252  6980 net.cpp:148] Top shape: 24 128 28 28 (2408448)
I0403 18:26:52.760267  6980 net.cpp:156] Memory required for data: 534676512
I0403 18:26:52.760284  6980 layer_factory.hpp:77] Creating layer inception_3a/5x5_reduce
I0403 18:26:52.760309  6980 net.cpp:91] Creating Layer inception_3a/5x5_reduce
I0403 18:26:52.760327  6980 net.cpp:425] inception_3a/5x5_reduce <- pool2/3x3_s2_pool2/3x3_s2_0_split_2
I0403 18:26:52.760349  6980 net.cpp:399] inception_3a/5x5_reduce -> inception_3a/5x5_reduce
I0403 18:26:52.761340  6980 net.cpp:141] Setting up inception_3a/5x5_reduce
I0403 18:26:52.761369  6980 net.cpp:148] Top shape: 24 16 28 28 (301056)
I0403 18:26:52.761384  6980 net.cpp:156] Memory required for data: 535880736
I0403 18:26:52.761404  6980 layer_factory.hpp:77] Creating layer inception_3a/relu_5x5_reduce
I0403 18:26:52.761426  6980 net.cpp:91] Creating Layer inception_3a/relu_5x5_reduce
I0403 18:26:52.761445  6980 net.cpp:425] inception_3a/relu_5x5_reduce <- inception_3a/5x5_reduce
I0403 18:26:52.761463  6980 net.cpp:386] inception_3a/relu_5x5_reduce -> inception_3a/5x5_reduce (in-place)
I0403 18:26:52.761749  6980 net.cpp:141] Setting up inception_3a/relu_5x5_reduce
I0403 18:26:52.761780  6980 net.cpp:148] Top shape: 24 16 28 28 (301056)
I0403 18:26:52.761795  6980 net.cpp:156] Memory required for data: 537084960
I0403 18:26:52.761811  6980 layer_factory.hpp:77] Creating layer inception_3a/5x5
I0403 18:26:52.761834  6980 net.cpp:91] Creating Layer inception_3a/5x5
I0403 18:26:52.761852  6980 net.cpp:425] inception_3a/5x5 <- inception_3a/5x5_reduce
I0403 18:26:52.761873  6980 net.cpp:399] inception_3a/5x5 -> inception_3a/5x5
I0403 18:26:52.762922  6980 net.cpp:141] Setting up inception_3a/5x5
I0403 18:26:52.762950  6980 net.cpp:148] Top shape: 24 32 28 28 (602112)
I0403 18:26:52.762966  6980 net.cpp:156] Memory required for data: 539493408
I0403 18:26:52.762985  6980 layer_factory.hpp:77] Creating layer inception_3a/relu_5x5
I0403 18:26:52.763007  6980 net.cpp:91] Creating Layer inception_3a/relu_5x5
I0403 18:26:52.763025  6980 net.cpp:425] inception_3a/relu_5x5 <- inception_3a/5x5
I0403 18:26:52.763042  6980 net.cpp:386] inception_3a/relu_5x5 -> inception_3a/5x5 (in-place)
I0403 18:26:52.763231  6980 net.cpp:141] Setting up inception_3a/relu_5x5
I0403 18:26:52.763257  6980 net.cpp:148] Top shape: 24 32 28 28 (602112)
I0403 18:26:52.763280  6980 net.cpp:156] Memory required for data: 541901856
I0403 18:26:52.763296  6980 layer_factory.hpp:77] Creating layer inception_3a/pool
I0403 18:26:52.763316  6980 net.cpp:91] Creating Layer inception_3a/pool
I0403 18:26:52.763348  6980 net.cpp:425] inception_3a/pool <- pool2/3x3_s2_pool2/3x3_s2_0_split_3
I0403 18:26:52.763368  6980 net.cpp:399] inception_3a/pool -> inception_3a/pool
I0403 18:26:52.763428  6980 net.cpp:141] Setting up inception_3a/pool
I0403 18:26:52.763453  6980 net.cpp:148] Top shape: 24 192 28 28 (3612672)
I0403 18:26:52.763468  6980 net.cpp:156] Memory required for data: 556352544
I0403 18:26:52.763484  6980 layer_factory.hpp:77] Creating layer inception_3a/pool_proj
I0403 18:26:52.763506  6980 net.cpp:91] Creating Layer inception_3a/pool_proj
I0403 18:26:52.763525  6980 net.cpp:425] inception_3a/pool_proj <- inception_3a/pool
I0403 18:26:52.763547  6980 net.cpp:399] inception_3a/pool_proj -> inception_3a/pool_proj
I0403 18:26:52.764566  6980 net.cpp:141] Setting up inception_3a/pool_proj
I0403 18:26:52.764595  6980 net.cpp:148] Top shape: 24 32 28 28 (602112)
I0403 18:26:52.764611  6980 net.cpp:156] Memory required for data: 558760992
I0403 18:26:52.764633  6980 layer_factory.hpp:77] Creating layer inception_3a/relu_pool_proj
I0403 18:26:52.764655  6980 net.cpp:91] Creating Layer inception_3a/relu_pool_proj
I0403 18:26:52.764675  6980 net.cpp:425] inception_3a/relu_pool_proj <- inception_3a/pool_proj
I0403 18:26:52.764693  6980 net.cpp:386] inception_3a/relu_pool_proj -> inception_3a/pool_proj (in-place)
I0403 18:26:52.764974  6980 net.cpp:141] Setting up inception_3a/relu_pool_proj
I0403 18:26:52.765002  6980 net.cpp:148] Top shape: 24 32 28 28 (602112)
I0403 18:26:52.765017  6980 net.cpp:156] Memory required for data: 561169440
I0403 18:26:52.765033  6980 layer_factory.hpp:77] Creating layer inception_3a/output
I0403 18:26:52.765053  6980 net.cpp:91] Creating Layer inception_3a/output
I0403 18:26:52.765069  6980 net.cpp:425] inception_3a/output <- inception_3a/1x1
I0403 18:26:52.765085  6980 net.cpp:425] inception_3a/output <- inception_3a/3x3
I0403 18:26:52.765102  6980 net.cpp:425] inception_3a/output <- inception_3a/5x5
I0403 18:26:52.765118  6980 net.cpp:425] inception_3a/output <- inception_3a/pool_proj
I0403 18:26:52.765138  6980 net.cpp:399] inception_3a/output -> inception_3a/output
I0403 18:26:52.765195  6980 net.cpp:141] Setting up inception_3a/output
I0403 18:26:52.765219  6980 net.cpp:148] Top shape: 24 256 28 28 (4816896)
I0403 18:26:52.765235  6980 net.cpp:156] Memory required for data: 580437024
I0403 18:26:52.765250  6980 layer_factory.hpp:77] Creating layer inception_3a/output_inception_3a/output_0_split
I0403 18:26:52.765269  6980 net.cpp:91] Creating Layer inception_3a/output_inception_3a/output_0_split
I0403 18:26:52.765285  6980 net.cpp:425] inception_3a/output_inception_3a/output_0_split <- inception_3a/output
I0403 18:26:52.765306  6980 net.cpp:399] inception_3a/output_inception_3a/output_0_split -> inception_3a/output_inception_3a/output_0_split_0
I0403 18:26:52.765329  6980 net.cpp:399] inception_3a/output_inception_3a/output_0_split -> inception_3a/output_inception_3a/output_0_split_1
I0403 18:26:52.765352  6980 net.cpp:399] inception_3a/output_inception_3a/output_0_split -> inception_3a/output_inception_3a/output_0_split_2
I0403 18:26:52.765378  6980 net.cpp:399] inception_3a/output_inception_3a/output_0_split -> inception_3a/output_inception_3a/output_0_split_3
I0403 18:26:52.765456  6980 net.cpp:141] Setting up inception_3a/output_inception_3a/output_0_split
I0403 18:26:52.765480  6980 net.cpp:148] Top shape: 24 256 28 28 (4816896)
I0403 18:26:52.765497  6980 net.cpp:148] Top shape: 24 256 28 28 (4816896)
I0403 18:26:52.765514  6980 net.cpp:148] Top shape: 24 256 28 28 (4816896)
I0403 18:26:52.765530  6980 net.cpp:148] Top shape: 24 256 28 28 (4816896)
I0403 18:26:52.765547  6980 net.cpp:156] Memory required for data: 657507360
I0403 18:26:52.765560  6980 layer_factory.hpp:77] Creating layer inception_3b/1x1
I0403 18:26:52.765585  6980 net.cpp:91] Creating Layer inception_3b/1x1
I0403 18:26:52.765602  6980 net.cpp:425] inception_3b/1x1 <- inception_3a/output_inception_3a/output_0_split_0
I0403 18:26:52.765625  6980 net.cpp:399] inception_3b/1x1 -> inception_3b/1x1
I0403 18:26:52.766783  6980 net.cpp:141] Setting up inception_3b/1x1
I0403 18:26:52.766824  6980 net.cpp:148] Top shape: 24 128 28 28 (2408448)
I0403 18:26:52.766841  6980 net.cpp:156] Memory required for data: 667141152
I0403 18:26:52.766860  6980 layer_factory.hpp:77] Creating layer inception_3b/relu_1x1
I0403 18:26:52.766878  6980 net.cpp:91] Creating Layer inception_3b/relu_1x1
I0403 18:26:52.766896  6980 net.cpp:425] inception_3b/relu_1x1 <- inception_3b/1x1
I0403 18:26:52.766916  6980 net.cpp:386] inception_3b/relu_1x1 -> inception_3b/1x1 (in-place)
I0403 18:26:52.767099  6980 net.cpp:141] Setting up inception_3b/relu_1x1
I0403 18:26:52.767127  6980 net.cpp:148] Top shape: 24 128 28 28 (2408448)
I0403 18:26:52.767141  6980 net.cpp:156] Memory required for data: 676774944
I0403 18:26:52.767158  6980 layer_factory.hpp:77] Creating layer inception_3b/3x3_reduce
I0403 18:26:52.767184  6980 net.cpp:91] Creating Layer inception_3b/3x3_reduce
I0403 18:26:52.767204  6980 net.cpp:425] inception_3b/3x3_reduce <- inception_3a/output_inception_3a/output_0_split_1
I0403 18:26:52.767227  6980 net.cpp:399] inception_3b/3x3_reduce -> inception_3b/3x3_reduce
I0403 18:26:52.768394  6980 net.cpp:141] Setting up inception_3b/3x3_reduce
I0403 18:26:52.768422  6980 net.cpp:148] Top shape: 24 128 28 28 (2408448)
I0403 18:26:52.768440  6980 net.cpp:156] Memory required for data: 686408736
I0403 18:26:52.768458  6980 layer_factory.hpp:77] Creating layer inception_3b/relu_3x3_reduce
I0403 18:26:52.768477  6980 net.cpp:91] Creating Layer inception_3b/relu_3x3_reduce
I0403 18:26:52.768494  6980 net.cpp:425] inception_3b/relu_3x3_reduce <- inception_3b/3x3_reduce
I0403 18:26:52.768515  6980 net.cpp:386] inception_3b/relu_3x3_reduce -> inception_3b/3x3_reduce (in-place)
I0403 18:26:52.768694  6980 net.cpp:141] Setting up inception_3b/relu_3x3_reduce
I0403 18:26:52.768720  6980 net.cpp:148] Top shape: 24 128 28 28 (2408448)
I0403 18:26:52.768735  6980 net.cpp:156] Memory required for data: 696042528
I0403 18:26:52.768751  6980 layer_factory.hpp:77] Creating layer inception_3b/3x3
I0403 18:26:52.768779  6980 net.cpp:91] Creating Layer inception_3b/3x3
I0403 18:26:52.768798  6980 net.cpp:425] inception_3b/3x3 <- inception_3b/3x3_reduce
I0403 18:26:52.768818  6980 net.cpp:399] inception_3b/3x3 -> inception_3b/3x3
I0403 18:26:52.771782  6980 net.cpp:141] Setting up inception_3b/3x3
I0403 18:26:52.771811  6980 net.cpp:148] Top shape: 24 192 28 28 (3612672)
I0403 18:26:52.771826  6980 net.cpp:156] Memory required for data: 710493216
I0403 18:26:52.771847  6980 layer_factory.hpp:77] Creating layer inception_3b/relu_3x3
I0403 18:26:52.771867  6980 net.cpp:91] Creating Layer inception_3b/relu_3x3
I0403 18:26:52.771884  6980 net.cpp:425] inception_3b/relu_3x3 <- inception_3b/3x3
I0403 18:26:52.771903  6980 net.cpp:386] inception_3b/relu_3x3 -> inception_3b/3x3 (in-place)
I0403 18:26:52.772181  6980 net.cpp:141] Setting up inception_3b/relu_3x3
I0403 18:26:52.772207  6980 net.cpp:148] Top shape: 24 192 28 28 (3612672)
I0403 18:26:52.772223  6980 net.cpp:156] Memory required for data: 724943904
I0403 18:26:52.772238  6980 layer_factory.hpp:77] Creating layer inception_3b/5x5_reduce
I0403 18:26:52.772263  6980 net.cpp:91] Creating Layer inception_3b/5x5_reduce
I0403 18:26:52.772281  6980 net.cpp:425] inception_3b/5x5_reduce <- inception_3a/output_inception_3a/output_0_split_2
I0403 18:26:52.772303  6980 net.cpp:399] inception_3b/5x5_reduce -> inception_3b/5x5_reduce
I0403 18:26:52.773313  6980 net.cpp:141] Setting up inception_3b/5x5_reduce
I0403 18:26:52.773341  6980 net.cpp:148] Top shape: 24 32 28 28 (602112)
I0403 18:26:52.773357  6980 net.cpp:156] Memory required for data: 727352352
I0403 18:26:52.773377  6980 layer_factory.hpp:77] Creating layer inception_3b/relu_5x5_reduce
I0403 18:26:52.773399  6980 net.cpp:91] Creating Layer inception_3b/relu_5x5_reduce
I0403 18:26:52.773417  6980 net.cpp:425] inception_3b/relu_5x5_reduce <- inception_3b/5x5_reduce
I0403 18:26:52.773434  6980 net.cpp:386] inception_3b/relu_5x5_reduce -> inception_3b/5x5_reduce (in-place)
I0403 18:26:52.773638  6980 net.cpp:141] Setting up inception_3b/relu_5x5_reduce
I0403 18:26:52.773665  6980 net.cpp:148] Top shape: 24 32 28 28 (602112)
I0403 18:26:52.773681  6980 net.cpp:156] Memory required for data: 729760800
I0403 18:26:52.773696  6980 layer_factory.hpp:77] Creating layer inception_3b/5x5
I0403 18:26:52.773716  6980 net.cpp:91] Creating Layer inception_3b/5x5
I0403 18:26:52.773732  6980 net.cpp:425] inception_3b/5x5 <- inception_3b/5x5_reduce
I0403 18:26:52.773756  6980 net.cpp:399] inception_3b/5x5 -> inception_3b/5x5
I0403 18:26:52.775779  6980 net.cpp:141] Setting up inception_3b/5x5
I0403 18:26:52.775806  6980 net.cpp:148] Top shape: 24 96 28 28 (1806336)
I0403 18:26:52.775822  6980 net.cpp:156] Memory required for data: 736986144
I0403 18:26:52.775841  6980 layer_factory.hpp:77] Creating layer inception_3b/relu_5x5
I0403 18:26:52.775859  6980 net.cpp:91] Creating Layer inception_3b/relu_5x5
I0403 18:26:52.775874  6980 net.cpp:425] inception_3b/relu_5x5 <- inception_3b/5x5
I0403 18:26:52.775895  6980 net.cpp:386] inception_3b/relu_5x5 -> inception_3b/5x5 (in-place)
I0403 18:26:52.776080  6980 net.cpp:141] Setting up inception_3b/relu_5x5
I0403 18:26:52.776106  6980 net.cpp:148] Top shape: 24 96 28 28 (1806336)
I0403 18:26:52.776120  6980 net.cpp:156] Memory required for data: 744211488
I0403 18:26:52.776134  6980 layer_factory.hpp:77] Creating layer inception_3b/pool
I0403 18:26:52.776152  6980 net.cpp:91] Creating Layer inception_3b/pool
I0403 18:26:52.776168  6980 net.cpp:425] inception_3b/pool <- inception_3a/output_inception_3a/output_0_split_3
I0403 18:26:52.776192  6980 net.cpp:399] inception_3b/pool -> inception_3b/pool
I0403 18:26:52.776248  6980 net.cpp:141] Setting up inception_3b/pool
I0403 18:26:52.776271  6980 net.cpp:148] Top shape: 24 256 28 28 (4816896)
I0403 18:26:52.776286  6980 net.cpp:156] Memory required for data: 763479072
I0403 18:26:52.776300  6980 layer_factory.hpp:77] Creating layer inception_3b/pool_proj
I0403 18:26:52.776324  6980 net.cpp:91] Creating Layer inception_3b/pool_proj
I0403 18:26:52.776340  6980 net.cpp:425] inception_3b/pool_proj <- inception_3b/pool
I0403 18:26:52.776361  6980 net.cpp:399] inception_3b/pool_proj -> inception_3b/pool_proj
I0403 18:26:52.777410  6980 net.cpp:141] Setting up inception_3b/pool_proj
I0403 18:26:52.777439  6980 net.cpp:148] Top shape: 24 64 28 28 (1204224)
I0403 18:26:52.777456  6980 net.cpp:156] Memory required for data: 768295968
I0403 18:26:52.777475  6980 layer_factory.hpp:77] Creating layer inception_3b/relu_pool_proj
I0403 18:26:52.777494  6980 net.cpp:91] Creating Layer inception_3b/relu_pool_proj
I0403 18:26:52.777510  6980 net.cpp:425] inception_3b/relu_pool_proj <- inception_3b/pool_proj
I0403 18:26:52.777529  6980 net.cpp:386] inception_3b/relu_pool_proj -> inception_3b/pool_proj (in-place)
I0403 18:26:52.777923  6980 net.cpp:141] Setting up inception_3b/relu_pool_proj
I0403 18:26:52.777951  6980 net.cpp:148] Top shape: 24 64 28 28 (1204224)
I0403 18:26:52.777966  6980 net.cpp:156] Memory required for data: 773112864
I0403 18:26:52.777981  6980 layer_factory.hpp:77] Creating layer inception_3b/output
I0403 18:26:52.778002  6980 net.cpp:91] Creating Layer inception_3b/output
I0403 18:26:52.778019  6980 net.cpp:425] inception_3b/output <- inception_3b/1x1
I0403 18:26:52.778035  6980 net.cpp:425] inception_3b/output <- inception_3b/3x3
I0403 18:26:52.778053  6980 net.cpp:425] inception_3b/output <- inception_3b/5x5
I0403 18:26:52.778069  6980 net.cpp:425] inception_3b/output <- inception_3b/pool_proj
I0403 18:26:52.778085  6980 net.cpp:399] inception_3b/output -> inception_3b/output
I0403 18:26:52.778131  6980 net.cpp:141] Setting up inception_3b/output
I0403 18:26:52.778156  6980 net.cpp:148] Top shape: 24 480 28 28 (9031680)
I0403 18:26:52.778170  6980 net.cpp:156] Memory required for data: 809239584
I0403 18:26:52.778190  6980 layer_factory.hpp:77] Creating layer pool3/3x3_s2
I0403 18:26:52.778209  6980 net.cpp:91] Creating Layer pool3/3x3_s2
I0403 18:26:52.778225  6980 net.cpp:425] pool3/3x3_s2 <- inception_3b/output
I0403 18:26:52.778261  6980 net.cpp:399] pool3/3x3_s2 -> pool3/3x3_s2
I0403 18:26:52.778322  6980 net.cpp:141] Setting up pool3/3x3_s2
I0403 18:26:52.778347  6980 net.cpp:148] Top shape: 24 480 14 14 (2257920)
I0403 18:26:52.778360  6980 net.cpp:156] Memory required for data: 818271264
I0403 18:26:52.778375  6980 layer_factory.hpp:77] Creating layer pool3/3x3_s2_pool3/3x3_s2_0_split
I0403 18:26:52.778395  6980 net.cpp:91] Creating Layer pool3/3x3_s2_pool3/3x3_s2_0_split
I0403 18:26:52.778412  6980 net.cpp:425] pool3/3x3_s2_pool3/3x3_s2_0_split <- pool3/3x3_s2
I0403 18:26:52.778432  6980 net.cpp:399] pool3/3x3_s2_pool3/3x3_s2_0_split -> pool3/3x3_s2_pool3/3x3_s2_0_split_0
I0403 18:26:52.778452  6980 net.cpp:399] pool3/3x3_s2_pool3/3x3_s2_0_split -> pool3/3x3_s2_pool3/3x3_s2_0_split_1
I0403 18:26:52.778473  6980 net.cpp:399] pool3/3x3_s2_pool3/3x3_s2_0_split -> pool3/3x3_s2_pool3/3x3_s2_0_split_2
I0403 18:26:52.778493  6980 net.cpp:399] pool3/3x3_s2_pool3/3x3_s2_0_split -> pool3/3x3_s2_pool3/3x3_s2_0_split_3
I0403 18:26:52.778569  6980 net.cpp:141] Setting up pool3/3x3_s2_pool3/3x3_s2_0_split
I0403 18:26:52.778596  6980 net.cpp:148] Top shape: 24 480 14 14 (2257920)
I0403 18:26:52.778614  6980 net.cpp:148] Top shape: 24 480 14 14 (2257920)
I0403 18:26:52.778631  6980 net.cpp:148] Top shape: 24 480 14 14 (2257920)
I0403 18:26:52.778647  6980 net.cpp:148] Top shape: 24 480 14 14 (2257920)
I0403 18:26:52.778662  6980 net.cpp:156] Memory required for data: 854397984
I0403 18:26:52.778676  6980 layer_factory.hpp:77] Creating layer inception_4a/1x1
I0403 18:26:52.778699  6980 net.cpp:91] Creating Layer inception_4a/1x1
I0403 18:26:52.778717  6980 net.cpp:425] inception_4a/1x1 <- pool3/3x3_s2_pool3/3x3_s2_0_split_0
I0403 18:26:52.778738  6980 net.cpp:399] inception_4a/1x1 -> inception_4a/1x1
I0403 18:26:52.780298  6980 net.cpp:141] Setting up inception_4a/1x1
I0403 18:26:52.780328  6980 net.cpp:148] Top shape: 24 192 14 14 (903168)
I0403 18:26:52.780345  6980 net.cpp:156] Memory required for data: 858010656
I0403 18:26:52.780364  6980 layer_factory.hpp:77] Creating layer inception_4a/relu_1x1
I0403 18:26:52.780385  6980 net.cpp:91] Creating Layer inception_4a/relu_1x1
I0403 18:26:52.780400  6980 net.cpp:425] inception_4a/relu_1x1 <- inception_4a/1x1
I0403 18:26:52.780418  6980 net.cpp:386] inception_4a/relu_1x1 -> inception_4a/1x1 (in-place)
I0403 18:26:52.780598  6980 net.cpp:141] Setting up inception_4a/relu_1x1
I0403 18:26:52.780623  6980 net.cpp:148] Top shape: 24 192 14 14 (903168)
I0403 18:26:52.780638  6980 net.cpp:156] Memory required for data: 861623328
I0403 18:26:52.780654  6980 layer_factory.hpp:77] Creating layer inception_4a/3x3_reduce
I0403 18:26:52.780678  6980 net.cpp:91] Creating Layer inception_4a/3x3_reduce
I0403 18:26:52.780696  6980 net.cpp:425] inception_4a/3x3_reduce <- pool3/3x3_s2_pool3/3x3_s2_0_split_1
I0403 18:26:52.780717  6980 net.cpp:399] inception_4a/3x3_reduce -> inception_4a/3x3_reduce
I0403 18:26:52.781983  6980 net.cpp:141] Setting up inception_4a/3x3_reduce
I0403 18:26:52.782016  6980 net.cpp:148] Top shape: 24 96 14 14 (451584)
I0403 18:26:52.782033  6980 net.cpp:156] Memory required for data: 863429664
I0403 18:26:52.782059  6980 layer_factory.hpp:77] Creating layer inception_4a/relu_3x3_reduce
I0403 18:26:52.782078  6980 net.cpp:91] Creating Layer inception_4a/relu_3x3_reduce
I0403 18:26:52.782095  6980 net.cpp:425] inception_4a/relu_3x3_reduce <- inception_4a/3x3_reduce
I0403 18:26:52.782112  6980 net.cpp:386] inception_4a/relu_3x3_reduce -> inception_4a/3x3_reduce (in-place)
I0403 18:26:52.782326  6980 net.cpp:141] Setting up inception_4a/relu_3x3_reduce
I0403 18:26:52.782356  6980 net.cpp:148] Top shape: 24 96 14 14 (451584)
I0403 18:26:52.782373  6980 net.cpp:156] Memory required for data: 865236000
I0403 18:26:52.782388  6980 layer_factory.hpp:77] Creating layer inception_4a/3x3
I0403 18:26:52.782413  6980 net.cpp:91] Creating Layer inception_4a/3x3
I0403 18:26:52.782430  6980 net.cpp:425] inception_4a/3x3 <- inception_4a/3x3_reduce
I0403 18:26:52.782454  6980 net.cpp:399] inception_4a/3x3 -> inception_4a/3x3
I0403 18:26:52.785336  6980 net.cpp:141] Setting up inception_4a/3x3
I0403 18:26:52.785365  6980 net.cpp:148] Top shape: 24 208 14 14 (978432)
I0403 18:26:52.785382  6980 net.cpp:156] Memory required for data: 869149728
I0403 18:26:52.785401  6980 layer_factory.hpp:77] Creating layer inception_4a/relu_3x3
I0403 18:26:52.785420  6980 net.cpp:91] Creating Layer inception_4a/relu_3x3
I0403 18:26:52.785437  6980 net.cpp:425] inception_4a/relu_3x3 <- inception_4a/3x3
I0403 18:26:52.785457  6980 net.cpp:386] inception_4a/relu_3x3 -> inception_4a/3x3 (in-place)
I0403 18:26:52.785745  6980 net.cpp:141] Setting up inception_4a/relu_3x3
I0403 18:26:52.785773  6980 net.cpp:148] Top shape: 24 208 14 14 (978432)
I0403 18:26:52.785789  6980 net.cpp:156] Memory required for data: 873063456
I0403 18:26:52.785805  6980 layer_factory.hpp:77] Creating layer inception_4a/5x5_reduce
I0403 18:26:52.785830  6980 net.cpp:91] Creating Layer inception_4a/5x5_reduce
I0403 18:26:52.785847  6980 net.cpp:425] inception_4a/5x5_reduce <- pool3/3x3_s2_pool3/3x3_s2_0_split_2
I0403 18:26:52.785869  6980 net.cpp:399] inception_4a/5x5_reduce -> inception_4a/5x5_reduce
I0403 18:26:52.786923  6980 net.cpp:141] Setting up inception_4a/5x5_reduce
I0403 18:26:52.786952  6980 net.cpp:148] Top shape: 24 16 14 14 (75264)
I0403 18:26:52.786968  6980 net.cpp:156] Memory required for data: 873364512
I0403 18:26:52.786988  6980 layer_factory.hpp:77] Creating layer inception_4a/relu_5x5_reduce
I0403 18:26:52.787010  6980 net.cpp:91] Creating Layer inception_4a/relu_5x5_reduce
I0403 18:26:52.787027  6980 net.cpp:425] inception_4a/relu_5x5_reduce <- inception_4a/5x5_reduce
I0403 18:26:52.787046  6980 net.cpp:386] inception_4a/relu_5x5_reduce -> inception_4a/5x5_reduce (in-place)
I0403 18:26:52.787232  6980 net.cpp:141] Setting up inception_4a/relu_5x5_reduce
I0403 18:26:52.787258  6980 net.cpp:148] Top shape: 24 16 14 14 (75264)
I0403 18:26:52.787278  6980 net.cpp:156] Memory required for data: 873665568
I0403 18:26:52.787294  6980 layer_factory.hpp:77] Creating layer inception_4a/5x5
I0403 18:26:52.787315  6980 net.cpp:91] Creating Layer inception_4a/5x5
I0403 18:26:52.787333  6980 net.cpp:425] inception_4a/5x5 <- inception_4a/5x5_reduce
I0403 18:26:52.787356  6980 net.cpp:399] inception_4a/5x5 -> inception_4a/5x5
I0403 18:26:52.788475  6980 net.cpp:141] Setting up inception_4a/5x5
I0403 18:26:52.788503  6980 net.cpp:148] Top shape: 24 48 14 14 (225792)
I0403 18:26:52.788519  6980 net.cpp:156] Memory required for data: 874568736
I0403 18:26:52.788539  6980 layer_factory.hpp:77] Creating layer inception_4a/relu_5x5
I0403 18:26:52.788561  6980 net.cpp:91] Creating Layer inception_4a/relu_5x5
I0403 18:26:52.788578  6980 net.cpp:425] inception_4a/relu_5x5 <- inception_4a/5x5
I0403 18:26:52.788597  6980 net.cpp:386] inception_4a/relu_5x5 -> inception_4a/5x5 (in-place)
I0403 18:26:52.788784  6980 net.cpp:141] Setting up inception_4a/relu_5x5
I0403 18:26:52.788810  6980 net.cpp:148] Top shape: 24 48 14 14 (225792)
I0403 18:26:52.788825  6980 net.cpp:156] Memory required for data: 875471904
I0403 18:26:52.788841  6980 layer_factory.hpp:77] Creating layer inception_4a/pool
I0403 18:26:52.788858  6980 net.cpp:91] Creating Layer inception_4a/pool
I0403 18:26:52.788875  6980 net.cpp:425] inception_4a/pool <- pool3/3x3_s2_pool3/3x3_s2_0_split_3
I0403 18:26:52.788897  6980 net.cpp:399] inception_4a/pool -> inception_4a/pool
I0403 18:26:52.788964  6980 net.cpp:141] Setting up inception_4a/pool
I0403 18:26:52.788987  6980 net.cpp:148] Top shape: 24 480 14 14 (2257920)
I0403 18:26:52.789002  6980 net.cpp:156] Memory required for data: 884503584
I0403 18:26:52.789018  6980 layer_factory.hpp:77] Creating layer inception_4a/pool_proj
I0403 18:26:52.789043  6980 net.cpp:91] Creating Layer inception_4a/pool_proj
I0403 18:26:52.789062  6980 net.cpp:425] inception_4a/pool_proj <- inception_4a/pool
I0403 18:26:52.789082  6980 net.cpp:399] inception_4a/pool_proj -> inception_4a/pool_proj
I0403 18:26:52.790312  6980 net.cpp:141] Setting up inception_4a/pool_proj
I0403 18:26:52.790344  6980 net.cpp:148] Top shape: 24 64 14 14 (301056)
I0403 18:26:52.790375  6980 net.cpp:156] Memory required for data: 885707808
I0403 18:26:52.790396  6980 layer_factory.hpp:77] Creating layer inception_4a/relu_pool_proj
I0403 18:26:52.790416  6980 net.cpp:91] Creating Layer inception_4a/relu_pool_proj
I0403 18:26:52.790433  6980 net.cpp:425] inception_4a/relu_pool_proj <- inception_4a/pool_proj
I0403 18:26:52.790457  6980 net.cpp:386] inception_4a/relu_pool_proj -> inception_4a/pool_proj (in-place)
I0403 18:26:52.790762  6980 net.cpp:141] Setting up inception_4a/relu_pool_proj
I0403 18:26:52.790791  6980 net.cpp:148] Top shape: 24 64 14 14 (301056)
I0403 18:26:52.790807  6980 net.cpp:156] Memory required for data: 886912032
I0403 18:26:52.790823  6980 layer_factory.hpp:77] Creating layer inception_4a/output
I0403 18:26:52.790841  6980 net.cpp:91] Creating Layer inception_4a/output
I0403 18:26:52.790858  6980 net.cpp:425] inception_4a/output <- inception_4a/1x1
I0403 18:26:52.790876  6980 net.cpp:425] inception_4a/output <- inception_4a/3x3
I0403 18:26:52.790892  6980 net.cpp:425] inception_4a/output <- inception_4a/5x5
I0403 18:26:52.790910  6980 net.cpp:425] inception_4a/output <- inception_4a/pool_proj
I0403 18:26:52.790927  6980 net.cpp:399] inception_4a/output -> inception_4a/output
I0403 18:26:52.790977  6980 net.cpp:141] Setting up inception_4a/output
I0403 18:26:52.790999  6980 net.cpp:148] Top shape: 24 512 14 14 (2408448)
I0403 18:26:52.791015  6980 net.cpp:156] Memory required for data: 896545824
I0403 18:26:52.791030  6980 layer_factory.hpp:77] Creating layer inception_4a/output_inception_4a/output_0_split
I0403 18:26:52.791052  6980 net.cpp:91] Creating Layer inception_4a/output_inception_4a/output_0_split
I0403 18:26:52.791070  6980 net.cpp:425] inception_4a/output_inception_4a/output_0_split <- inception_4a/output
I0403 18:26:52.791090  6980 net.cpp:399] inception_4a/output_inception_4a/output_0_split -> inception_4a/output_inception_4a/output_0_split_0
I0403 18:26:52.791111  6980 net.cpp:399] inception_4a/output_inception_4a/output_0_split -> inception_4a/output_inception_4a/output_0_split_1
I0403 18:26:52.791136  6980 net.cpp:399] inception_4a/output_inception_4a/output_0_split -> inception_4a/output_inception_4a/output_0_split_2
I0403 18:26:52.791160  6980 net.cpp:399] inception_4a/output_inception_4a/output_0_split -> inception_4a/output_inception_4a/output_0_split_3
I0403 18:26:52.791188  6980 net.cpp:399] inception_4a/output_inception_4a/output_0_split -> inception_4a/output_inception_4a/output_0_split_4
I0403 18:26:52.791297  6980 net.cpp:141] Setting up inception_4a/output_inception_4a/output_0_split
I0403 18:26:52.791322  6980 net.cpp:148] Top shape: 24 512 14 14 (2408448)
I0403 18:26:52.791340  6980 net.cpp:148] Top shape: 24 512 14 14 (2408448)
I0403 18:26:52.791357  6980 net.cpp:148] Top shape: 24 512 14 14 (2408448)
I0403 18:26:52.791375  6980 net.cpp:148] Top shape: 24 512 14 14 (2408448)
I0403 18:26:52.791391  6980 net.cpp:148] Top shape: 24 512 14 14 (2408448)
I0403 18:26:52.791407  6980 net.cpp:156] Memory required for data: 944714784
I0403 18:26:52.791424  6980 layer_factory.hpp:77] Creating layer loss1/ave_pool
I0403 18:26:52.791442  6980 net.cpp:91] Creating Layer loss1/ave_pool
I0403 18:26:52.791460  6980 net.cpp:425] loss1/ave_pool <- inception_4a/output_inception_4a/output_0_split_0
I0403 18:26:52.791481  6980 net.cpp:399] loss1/ave_pool -> loss1/ave_pool
I0403 18:26:52.791715  6980 net.cpp:141] Setting up loss1/ave_pool
I0403 18:26:52.791744  6980 net.cpp:148] Top shape: 24 512 4 4 (196608)
I0403 18:26:52.791761  6980 net.cpp:156] Memory required for data: 945501216
I0403 18:26:52.791777  6980 layer_factory.hpp:77] Creating layer loss1/conv
I0403 18:26:52.791800  6980 net.cpp:91] Creating Layer loss1/conv
I0403 18:26:52.791820  6980 net.cpp:425] loss1/conv <- loss1/ave_pool
I0403 18:26:52.791838  6980 net.cpp:399] loss1/conv -> loss1/conv
I0403 18:26:52.793328  6980 net.cpp:141] Setting up loss1/conv
I0403 18:26:52.793356  6980 net.cpp:148] Top shape: 24 128 4 4 (49152)
I0403 18:26:52.793386  6980 net.cpp:156] Memory required for data: 945697824
I0403 18:26:52.793407  6980 layer_factory.hpp:77] Creating layer loss1/relu_conv
I0403 18:26:52.793426  6980 net.cpp:91] Creating Layer loss1/relu_conv
I0403 18:26:52.793442  6980 net.cpp:425] loss1/relu_conv <- loss1/conv
I0403 18:26:52.793462  6980 net.cpp:386] loss1/relu_conv -> loss1/conv (in-place)
I0403 18:26:52.793756  6980 net.cpp:141] Setting up loss1/relu_conv
I0403 18:26:52.793783  6980 net.cpp:148] Top shape: 24 128 4 4 (49152)
I0403 18:26:52.793798  6980 net.cpp:156] Memory required for data: 945894432
I0403 18:26:52.793815  6980 layer_factory.hpp:77] Creating layer loss1/fc
I0403 18:26:52.793839  6980 net.cpp:91] Creating Layer loss1/fc
I0403 18:26:52.793859  6980 net.cpp:425] loss1/fc <- loss1/conv
I0403 18:26:52.793880  6980 net.cpp:399] loss1/fc -> loss1/fc
I0403 18:26:52.812214  6980 net.cpp:141] Setting up loss1/fc
I0403 18:26:52.812253  6980 net.cpp:148] Top shape: 24 1024 (24576)
I0403 18:26:52.812268  6980 net.cpp:156] Memory required for data: 945992736
I0403 18:26:52.812288  6980 layer_factory.hpp:77] Creating layer loss1/relu_fc
I0403 18:26:52.812306  6980 net.cpp:91] Creating Layer loss1/relu_fc
I0403 18:26:52.812322  6980 net.cpp:425] loss1/relu_fc <- loss1/fc
I0403 18:26:52.812340  6980 net.cpp:386] loss1/relu_fc -> loss1/fc (in-place)
I0403 18:26:52.812530  6980 net.cpp:141] Setting up loss1/relu_fc
I0403 18:26:52.812554  6980 net.cpp:148] Top shape: 24 1024 (24576)
I0403 18:26:52.812571  6980 net.cpp:156] Memory required for data: 946091040
I0403 18:26:52.812587  6980 layer_factory.hpp:77] Creating layer loss1/drop_fc
I0403 18:26:52.812613  6980 net.cpp:91] Creating Layer loss1/drop_fc
I0403 18:26:52.812631  6980 net.cpp:425] loss1/drop_fc <- loss1/fc
I0403 18:26:52.812652  6980 net.cpp:386] loss1/drop_fc -> loss1/fc (in-place)
I0403 18:26:52.812702  6980 net.cpp:141] Setting up loss1/drop_fc
I0403 18:26:52.812726  6980 net.cpp:148] Top shape: 24 1024 (24576)
I0403 18:26:52.812741  6980 net.cpp:156] Memory required for data: 946189344
I0403 18:26:52.812755  6980 layer_factory.hpp:77] Creating layer loss1/classifier_plantvillage
I0403 18:26:52.812778  6980 net.cpp:91] Creating Layer loss1/classifier_plantvillage
I0403 18:26:52.812796  6980 net.cpp:425] loss1/classifier_plantvillage <- loss1/fc
I0403 18:26:52.812820  6980 net.cpp:399] loss1/classifier_plantvillage -> loss1/classifier_plantvillage
I0403 18:26:52.813760  6980 net.cpp:141] Setting up loss1/classifier_plantvillage
I0403 18:26:52.813786  6980 net.cpp:148] Top shape: 24 38 (912)
I0403 18:26:52.813802  6980 net.cpp:156] Memory required for data: 946192992
I0403 18:26:52.813820  6980 layer_factory.hpp:77] Creating layer loss1/classifier_plantvillage_loss1/classifier_plantvillage_0_split
I0403 18:26:52.813838  6980 net.cpp:91] Creating Layer loss1/classifier_plantvillage_loss1/classifier_plantvillage_0_split
I0403 18:26:52.813854  6980 net.cpp:425] loss1/classifier_plantvillage_loss1/classifier_plantvillage_0_split <- loss1/classifier_plantvillage
I0403 18:26:52.813876  6980 net.cpp:399] loss1/classifier_plantvillage_loss1/classifier_plantvillage_0_split -> loss1/classifier_plantvillage_loss1/classifier_plantvillage_0_split_0
I0403 18:26:52.813899  6980 net.cpp:399] loss1/classifier_plantvillage_loss1/classifier_plantvillage_0_split -> loss1/classifier_plantvillage_loss1/classifier_plantvillage_0_split_1
I0403 18:26:52.813920  6980 net.cpp:399] loss1/classifier_plantvillage_loss1/classifier_plantvillage_0_split -> loss1/classifier_plantvillage_loss1/classifier_plantvillage_0_split_2
I0403 18:26:52.813985  6980 net.cpp:141] Setting up loss1/classifier_plantvillage_loss1/classifier_plantvillage_0_split
I0403 18:26:52.814008  6980 net.cpp:148] Top shape: 24 38 (912)
I0403 18:26:52.814024  6980 net.cpp:148] Top shape: 24 38 (912)
I0403 18:26:52.814040  6980 net.cpp:148] Top shape: 24 38 (912)
I0403 18:26:52.814054  6980 net.cpp:156] Memory required for data: 946203936
I0403 18:26:52.814069  6980 layer_factory.hpp:77] Creating layer inception_4b/1x1
I0403 18:26:52.814091  6980 net.cpp:91] Creating Layer inception_4b/1x1
I0403 18:26:52.814126  6980 net.cpp:425] inception_4b/1x1 <- inception_4a/output_inception_4a/output_0_split_1
I0403 18:26:52.814146  6980 net.cpp:399] inception_4b/1x1 -> inception_4b/1x1
I0403 18:26:52.815894  6980 net.cpp:141] Setting up inception_4b/1x1
I0403 18:26:52.815922  6980 net.cpp:148] Top shape: 24 160 14 14 (752640)
I0403 18:26:52.815938  6980 net.cpp:156] Memory required for data: 949214496
I0403 18:26:52.815956  6980 layer_factory.hpp:77] Creating layer inception_4b/relu_1x1
I0403 18:26:52.815974  6980 net.cpp:91] Creating Layer inception_4b/relu_1x1
I0403 18:26:52.815990  6980 net.cpp:425] inception_4b/relu_1x1 <- inception_4b/1x1
I0403 18:26:52.816011  6980 net.cpp:386] inception_4b/relu_1x1 -> inception_4b/1x1 (in-place)
I0403 18:26:52.816197  6980 net.cpp:141] Setting up inception_4b/relu_1x1
I0403 18:26:52.816222  6980 net.cpp:148] Top shape: 24 160 14 14 (752640)
I0403 18:26:52.816237  6980 net.cpp:156] Memory required for data: 952225056
I0403 18:26:52.816252  6980 layer_factory.hpp:77] Creating layer inception_4b/3x3_reduce
I0403 18:26:52.816275  6980 net.cpp:91] Creating Layer inception_4b/3x3_reduce
I0403 18:26:52.816305  6980 net.cpp:425] inception_4b/3x3_reduce <- inception_4a/output_inception_4a/output_0_split_2
I0403 18:26:52.816329  6980 net.cpp:399] inception_4b/3x3_reduce -> inception_4b/3x3_reduce
I0403 18:26:52.817708  6980 net.cpp:141] Setting up inception_4b/3x3_reduce
I0403 18:26:52.817734  6980 net.cpp:148] Top shape: 24 112 14 14 (526848)
I0403 18:26:52.817750  6980 net.cpp:156] Memory required for data: 954332448
I0403 18:26:52.817769  6980 layer_factory.hpp:77] Creating layer inception_4b/relu_3x3_reduce
I0403 18:26:52.817792  6980 net.cpp:91] Creating Layer inception_4b/relu_3x3_reduce
I0403 18:26:52.817809  6980 net.cpp:425] inception_4b/relu_3x3_reduce <- inception_4b/3x3_reduce
I0403 18:26:52.817827  6980 net.cpp:386] inception_4b/relu_3x3_reduce -> inception_4b/3x3_reduce (in-place)
I0403 18:26:52.818102  6980 net.cpp:141] Setting up inception_4b/relu_3x3_reduce
I0403 18:26:52.818128  6980 net.cpp:148] Top shape: 24 112 14 14 (526848)
I0403 18:26:52.818143  6980 net.cpp:156] Memory required for data: 956439840
I0403 18:26:52.818158  6980 layer_factory.hpp:77] Creating layer inception_4b/3x3
I0403 18:26:52.818186  6980 net.cpp:91] Creating Layer inception_4b/3x3
I0403 18:26:52.818204  6980 net.cpp:425] inception_4b/3x3 <- inception_4b/3x3_reduce
I0403 18:26:52.818227  6980 net.cpp:399] inception_4b/3x3 -> inception_4b/3x3
I0403 18:26:52.821349  6980 net.cpp:141] Setting up inception_4b/3x3
I0403 18:26:52.821382  6980 net.cpp:148] Top shape: 24 224 14 14 (1053696)
I0403 18:26:52.821400  6980 net.cpp:156] Memory required for data: 960654624
I0403 18:26:52.821434  6980 layer_factory.hpp:77] Creating layer inception_4b/relu_3x3
I0403 18:26:52.821455  6980 net.cpp:91] Creating Layer inception_4b/relu_3x3
I0403 18:26:52.821476  6980 net.cpp:425] inception_4b/relu_3x3 <- inception_4b/3x3
I0403 18:26:52.821498  6980 net.cpp:386] inception_4b/relu_3x3 -> inception_4b/3x3 (in-place)
I0403 18:26:52.821743  6980 net.cpp:141] Setting up inception_4b/relu_3x3
I0403 18:26:52.821771  6980 net.cpp:148] Top shape: 24 224 14 14 (1053696)
I0403 18:26:52.821789  6980 net.cpp:156] Memory required for data: 964869408
I0403 18:26:52.821805  6980 layer_factory.hpp:77] Creating layer inception_4b/5x5_reduce
I0403 18:26:52.821830  6980 net.cpp:91] Creating Layer inception_4b/5x5_reduce
I0403 18:26:52.821851  6980 net.cpp:425] inception_4b/5x5_reduce <- inception_4a/output_inception_4a/output_0_split_3
I0403 18:26:52.821874  6980 net.cpp:399] inception_4b/5x5_reduce -> inception_4b/5x5_reduce
I0403 18:26:52.823308  6980 net.cpp:141] Setting up inception_4b/5x5_reduce
I0403 18:26:52.823371  6980 net.cpp:148] Top shape: 24 24 14 14 (112896)
I0403 18:26:52.823392  6980 net.cpp:156] Memory required for data: 965320992
I0403 18:26:52.823418  6980 layer_factory.hpp:77] Creating layer inception_4b/relu_5x5_reduce
I0403 18:26:52.823447  6980 net.cpp:91] Creating Layer inception_4b/relu_5x5_reduce
I0403 18:26:52.823487  6980 net.cpp:425] inception_4b/relu_5x5_reduce <- inception_4b/5x5_reduce
I0403 18:26:52.823511  6980 net.cpp:386] inception_4b/relu_5x5_reduce -> inception_4b/5x5_reduce (in-place)
I0403 18:26:52.823854  6980 net.cpp:141] Setting up inception_4b/relu_5x5_reduce
I0403 18:26:52.823940  6980 net.cpp:148] Top shape: 24 24 14 14 (112896)
I0403 18:26:52.823989  6980 net.cpp:156] Memory required for data: 965772576
I0403 18:26:52.824039  6980 layer_factory.hpp:77] Creating layer inception_4b/5x5
I0403 18:26:52.824079  6980 net.cpp:91] Creating Layer inception_4b/5x5
I0403 18:26:52.824100  6980 net.cpp:425] inception_4b/5x5 <- inception_4b/5x5_reduce
I0403 18:26:52.824126  6980 net.cpp:399] inception_4b/5x5 -> inception_4b/5x5
I0403 18:26:52.826297  6980 net.cpp:141] Setting up inception_4b/5x5
I0403 18:26:52.826328  6980 net.cpp:148] Top shape: 24 64 14 14 (301056)
I0403 18:26:52.826344  6980 net.cpp:156] Memory required for data: 966976800
I0403 18:26:52.826366  6980 layer_factory.hpp:77] Creating layer inception_4b/relu_5x5
I0403 18:26:52.826385  6980 net.cpp:91] Creating Layer inception_4b/relu_5x5
I0403 18:26:52.826403  6980 net.cpp:425] inception_4b/relu_5x5 <- inception_4b/5x5
I0403 18:26:52.826424  6980 net.cpp:386] inception_4b/relu_5x5 -> inception_4b/5x5 (in-place)
I0403 18:26:52.826728  6980 net.cpp:141] Setting up inception_4b/relu_5x5
I0403 18:26:52.826756  6980 net.cpp:148] Top shape: 24 64 14 14 (301056)
I0403 18:26:52.826772  6980 net.cpp:156] Memory required for data: 968181024
I0403 18:26:52.826788  6980 layer_factory.hpp:77] Creating layer inception_4b/pool
I0403 18:26:52.826809  6980 net.cpp:91] Creating Layer inception_4b/pool
I0403 18:26:52.826828  6980 net.cpp:425] inception_4b/pool <- inception_4a/output_inception_4a/output_0_split_4
I0403 18:26:52.826850  6980 net.cpp:399] inception_4b/pool -> inception_4b/pool
I0403 18:26:52.826922  6980 net.cpp:141] Setting up inception_4b/pool
I0403 18:26:52.826947  6980 net.cpp:148] Top shape: 24 512 14 14 (2408448)
I0403 18:26:52.826963  6980 net.cpp:156] Memory required for data: 977814816
I0403 18:26:52.826978  6980 layer_factory.hpp:77] Creating layer inception_4b/pool_proj
I0403 18:26:52.827006  6980 net.cpp:91] Creating Layer inception_4b/pool_proj
I0403 18:26:52.827025  6980 net.cpp:425] inception_4b/pool_proj <- inception_4b/pool
I0403 18:26:52.827045  6980 net.cpp:399] inception_4b/pool_proj -> inception_4b/pool_proj
I0403 18:26:52.828344  6980 net.cpp:141] Setting up inception_4b/pool_proj
I0403 18:26:52.828374  6980 net.cpp:148] Top shape: 24 64 14 14 (301056)
I0403 18:26:52.828390  6980 net.cpp:156] Memory required for data: 979019040
I0403 18:26:52.828410  6980 layer_factory.hpp:77] Creating layer inception_4b/relu_pool_proj
I0403 18:26:52.828433  6980 net.cpp:91] Creating Layer inception_4b/relu_pool_proj
I0403 18:26:52.828451  6980 net.cpp:425] inception_4b/relu_pool_proj <- inception_4b/pool_proj
I0403 18:26:52.828470  6980 net.cpp:386] inception_4b/relu_pool_proj -> inception_4b/pool_proj (in-place)
I0403 18:26:52.828663  6980 net.cpp:141] Setting up inception_4b/relu_pool_proj
I0403 18:26:52.828693  6980 net.cpp:148] Top shape: 24 64 14 14 (301056)
I0403 18:26:52.828711  6980 net.cpp:156] Memory required for data: 980223264
I0403 18:26:52.828725  6980 layer_factory.hpp:77] Creating layer inception_4b/output
I0403 18:26:52.828744  6980 net.cpp:91] Creating Layer inception_4b/output
I0403 18:26:52.828761  6980 net.cpp:425] inception_4b/output <- inception_4b/1x1
I0403 18:26:52.828779  6980 net.cpp:425] inception_4b/output <- inception_4b/3x3
I0403 18:26:52.828799  6980 net.cpp:425] inception_4b/output <- inception_4b/5x5
I0403 18:26:52.828815  6980 net.cpp:425] inception_4b/output <- inception_4b/pool_proj
I0403 18:26:52.828835  6980 net.cpp:399] inception_4b/output -> inception_4b/output
I0403 18:26:52.828886  6980 net.cpp:141] Setting up inception_4b/output
I0403 18:26:52.828909  6980 net.cpp:148] Top shape: 24 512 14 14 (2408448)
I0403 18:26:52.828927  6980 net.cpp:156] Memory required for data: 989857056
I0403 18:26:52.828958  6980 layer_factory.hpp:77] Creating layer inception_4b/output_inception_4b/output_0_split
I0403 18:26:52.828977  6980 net.cpp:91] Creating Layer inception_4b/output_inception_4b/output_0_split
I0403 18:26:52.828999  6980 net.cpp:425] inception_4b/output_inception_4b/output_0_split <- inception_4b/output
I0403 18:26:52.829017  6980 net.cpp:399] inception_4b/output_inception_4b/output_0_split -> inception_4b/output_inception_4b/output_0_split_0
I0403 18:26:52.829040  6980 net.cpp:399] inception_4b/output_inception_4b/output_0_split -> inception_4b/output_inception_4b/output_0_split_1
I0403 18:26:52.829061  6980 net.cpp:399] inception_4b/output_inception_4b/output_0_split -> inception_4b/output_inception_4b/output_0_split_2
I0403 18:26:52.829083  6980 net.cpp:399] inception_4b/output_inception_4b/output_0_split -> inception_4b/output_inception_4b/output_0_split_3
I0403 18:26:52.829174  6980 net.cpp:141] Setting up inception_4b/output_inception_4b/output_0_split
I0403 18:26:52.829205  6980 net.cpp:148] Top shape: 24 512 14 14 (2408448)
I0403 18:26:52.829222  6980 net.cpp:148] Top shape: 24 512 14 14 (2408448)
I0403 18:26:52.829239  6980 net.cpp:148] Top shape: 24 512 14 14 (2408448)
I0403 18:26:52.829257  6980 net.cpp:148] Top shape: 24 512 14 14 (2408448)
I0403 18:26:52.829272  6980 net.cpp:156] Memory required for data: 1028392224
I0403 18:26:52.829288  6980 layer_factory.hpp:77] Creating layer inception_4c/1x1
I0403 18:26:52.829313  6980 net.cpp:91] Creating Layer inception_4c/1x1
I0403 18:26:52.829332  6980 net.cpp:425] inception_4c/1x1 <- inception_4b/output_inception_4b/output_0_split_0
I0403 18:26:52.829355  6980 net.cpp:399] inception_4c/1x1 -> inception_4c/1x1
I0403 18:26:52.830899  6980 net.cpp:141] Setting up inception_4c/1x1
I0403 18:26:52.830937  6980 net.cpp:148] Top shape: 24 128 14 14 (602112)
I0403 18:26:52.830955  6980 net.cpp:156] Memory required for data: 1030800672
I0403 18:26:52.830974  6980 layer_factory.hpp:77] Creating layer inception_4c/relu_1x1
I0403 18:26:52.830994  6980 net.cpp:91] Creating Layer inception_4c/relu_1x1
I0403 18:26:52.831012  6980 net.cpp:425] inception_4c/relu_1x1 <- inception_4c/1x1
I0403 18:26:52.831030  6980 net.cpp:386] inception_4c/relu_1x1 -> inception_4c/1x1 (in-place)
I0403 18:26:52.831238  6980 net.cpp:141] Setting up inception_4c/relu_1x1
I0403 18:26:52.831264  6980 net.cpp:148] Top shape: 24 128 14 14 (602112)
I0403 18:26:52.831279  6980 net.cpp:156] Memory required for data: 1033209120
I0403 18:26:52.831295  6980 layer_factory.hpp:77] Creating layer inception_4c/3x3_reduce
I0403 18:26:52.831320  6980 net.cpp:91] Creating Layer inception_4c/3x3_reduce
I0403 18:26:52.831337  6980 net.cpp:425] inception_4c/3x3_reduce <- inception_4b/output_inception_4b/output_0_split_1
I0403 18:26:52.831362  6980 net.cpp:399] inception_4c/3x3_reduce -> inception_4c/3x3_reduce
I0403 18:26:52.833508  6980 net.cpp:141] Setting up inception_4c/3x3_reduce
I0403 18:26:52.833539  6980 net.cpp:148] Top shape: 24 128 14 14 (602112)
I0403 18:26:52.833555  6980 net.cpp:156] Memory required for data: 1035617568
I0403 18:26:52.833575  6980 layer_factory.hpp:77] Creating layer inception_4c/relu_3x3_reduce
I0403 18:26:52.833597  6980 net.cpp:91] Creating Layer inception_4c/relu_3x3_reduce
I0403 18:26:52.833616  6980 net.cpp:425] inception_4c/relu_3x3_reduce <- inception_4c/3x3_reduce
I0403 18:26:52.833636  6980 net.cpp:386] inception_4c/relu_3x3_reduce -> inception_4c/3x3_reduce (in-place)
I0403 18:26:52.833945  6980 net.cpp:141] Setting up inception_4c/relu_3x3_reduce
I0403 18:26:52.833973  6980 net.cpp:148] Top shape: 24 128 14 14 (602112)
I0403 18:26:52.833989  6980 net.cpp:156] Memory required for data: 1038026016
I0403 18:26:52.834005  6980 layer_factory.hpp:77] Creating layer inception_4c/3x3
I0403 18:26:52.834030  6980 net.cpp:91] Creating Layer inception_4c/3x3
I0403 18:26:52.834049  6980 net.cpp:425] inception_4c/3x3 <- inception_4c/3x3_reduce
I0403 18:26:52.834072  6980 net.cpp:399] inception_4c/3x3 -> inception_4c/3x3
I0403 18:26:52.837954  6980 net.cpp:141] Setting up inception_4c/3x3
I0403 18:26:52.837999  6980 net.cpp:148] Top shape: 24 256 14 14 (1204224)
I0403 18:26:52.838017  6980 net.cpp:156] Memory required for data: 1042842912
I0403 18:26:52.838053  6980 layer_factory.hpp:77] Creating layer inception_4c/relu_3x3
I0403 18:26:52.838078  6980 net.cpp:91] Creating Layer inception_4c/relu_3x3
I0403 18:26:52.838095  6980 net.cpp:425] inception_4c/relu_3x3 <- inception_4c/3x3
I0403 18:26:52.838114  6980 net.cpp:386] inception_4c/relu_3x3 -> inception_4c/3x3 (in-place)
I0403 18:26:52.838315  6980 net.cpp:141] Setting up inception_4c/relu_3x3
I0403 18:26:52.838343  6980 net.cpp:148] Top shape: 24 256 14 14 (1204224)
I0403 18:26:52.838359  6980 net.cpp:156] Memory required for data: 1047659808
I0403 18:26:52.838376  6980 layer_factory.hpp:77] Creating layer inception_4c/5x5_reduce
I0403 18:26:52.838402  6980 net.cpp:91] Creating Layer inception_4c/5x5_reduce
I0403 18:26:52.838420  6980 net.cpp:425] inception_4c/5x5_reduce <- inception_4b/output_inception_4b/output_0_split_2
I0403 18:26:52.838443  6980 net.cpp:399] inception_4c/5x5_reduce -> inception_4c/5x5_reduce
I0403 18:26:52.839650  6980 net.cpp:141] Setting up inception_4c/5x5_reduce
I0403 18:26:52.839680  6980 net.cpp:148] Top shape: 24 24 14 14 (112896)
I0403 18:26:52.839699  6980 net.cpp:156] Memory required for data: 1048111392
I0403 18:26:52.839717  6980 layer_factory.hpp:77] Creating layer inception_4c/relu_5x5_reduce
I0403 18:26:52.839742  6980 net.cpp:91] Creating Layer inception_4c/relu_5x5_reduce
I0403 18:26:52.839761  6980 net.cpp:425] inception_4c/relu_5x5_reduce <- inception_4c/5x5_reduce
I0403 18:26:52.839779  6980 net.cpp:386] inception_4c/relu_5x5_reduce -> inception_4c/5x5_reduce (in-place)
I0403 18:26:52.839989  6980 net.cpp:141] Setting up inception_4c/relu_5x5_reduce
I0403 18:26:52.840015  6980 net.cpp:148] Top shape: 24 24 14 14 (112896)
I0403 18:26:52.840031  6980 net.cpp:156] Memory required for data: 1048562976
I0403 18:26:52.840049  6980 layer_factory.hpp:77] Creating layer inception_4c/5x5
I0403 18:26:52.840073  6980 net.cpp:91] Creating Layer inception_4c/5x5
I0403 18:26:52.840092  6980 net.cpp:425] inception_4c/5x5 <- inception_4c/5x5_reduce
I0403 18:26:52.840111  6980 net.cpp:399] inception_4c/5x5 -> inception_4c/5x5
I0403 18:26:52.841470  6980 net.cpp:141] Setting up inception_4c/5x5
I0403 18:26:52.841501  6980 net.cpp:148] Top shape: 24 64 14 14 (301056)
I0403 18:26:52.841517  6980 net.cpp:156] Memory required for data: 1049767200
I0403 18:26:52.841538  6980 layer_factory.hpp:77] Creating layer inception_4c/relu_5x5
I0403 18:26:52.841557  6980 net.cpp:91] Creating Layer inception_4c/relu_5x5
I0403 18:26:52.841572  6980 net.cpp:425] inception_4c/relu_5x5 <- inception_4c/5x5
I0403 18:26:52.841591  6980 net.cpp:386] inception_4c/relu_5x5 -> inception_4c/5x5 (in-place)
I0403 18:26:52.841892  6980 net.cpp:141] Setting up inception_4c/relu_5x5
I0403 18:26:52.841920  6980 net.cpp:148] Top shape: 24 64 14 14 (301056)
I0403 18:26:52.841938  6980 net.cpp:156] Memory required for data: 1050971424
I0403 18:26:52.841953  6980 layer_factory.hpp:77] Creating layer inception_4c/pool
I0403 18:26:52.841972  6980 net.cpp:91] Creating Layer inception_4c/pool
I0403 18:26:52.841989  6980 net.cpp:425] inception_4c/pool <- inception_4b/output_inception_4b/output_0_split_3
I0403 18:26:52.842010  6980 net.cpp:399] inception_4c/pool -> inception_4c/pool
I0403 18:26:52.842079  6980 net.cpp:141] Setting up inception_4c/pool
I0403 18:26:52.842103  6980 net.cpp:148] Top shape: 24 512 14 14 (2408448)
I0403 18:26:52.842118  6980 net.cpp:156] Memory required for data: 1060605216
I0403 18:26:52.842134  6980 layer_factory.hpp:77] Creating layer inception_4c/pool_proj
I0403 18:26:52.842157  6980 net.cpp:91] Creating Layer inception_4c/pool_proj
I0403 18:26:52.842176  6980 net.cpp:425] inception_4c/pool_proj <- inception_4c/pool
I0403 18:26:52.842211  6980 net.cpp:399] inception_4c/pool_proj -> inception_4c/pool_proj
I0403 18:26:52.843497  6980 net.cpp:141] Setting up inception_4c/pool_proj
I0403 18:26:52.843526  6980 net.cpp:148] Top shape: 24 64 14 14 (301056)
I0403 18:26:52.843559  6980 net.cpp:156] Memory required for data: 1061809440
I0403 18:26:52.843578  6980 layer_factory.hpp:77] Creating layer inception_4c/relu_pool_proj
I0403 18:26:52.843605  6980 net.cpp:91] Creating Layer inception_4c/relu_pool_proj
I0403 18:26:52.843623  6980 net.cpp:425] inception_4c/relu_pool_proj <- inception_4c/pool_proj
I0403 18:26:52.843654  6980 net.cpp:386] inception_4c/relu_pool_proj -> inception_4c/pool_proj (in-place)
I0403 18:26:52.843845  6980 net.cpp:141] Setting up inception_4c/relu_pool_proj
I0403 18:26:52.843873  6980 net.cpp:148] Top shape: 24 64 14 14 (301056)
I0403 18:26:52.843889  6980 net.cpp:156] Memory required for data: 1063013664
I0403 18:26:52.843904  6980 layer_factory.hpp:77] Creating layer inception_4c/output
I0403 18:26:52.843922  6980 net.cpp:91] Creating Layer inception_4c/output
I0403 18:26:52.843938  6980 net.cpp:425] inception_4c/output <- inception_4c/1x1
I0403 18:26:52.843957  6980 net.cpp:425] inception_4c/output <- inception_4c/3x3
I0403 18:26:52.843973  6980 net.cpp:425] inception_4c/output <- inception_4c/5x5
I0403 18:26:52.843989  6980 net.cpp:425] inception_4c/output <- inception_4c/pool_proj
I0403 18:26:52.844007  6980 net.cpp:399] inception_4c/output -> inception_4c/output
I0403 18:26:52.844058  6980 net.cpp:141] Setting up inception_4c/output
I0403 18:26:52.844080  6980 net.cpp:148] Top shape: 24 512 14 14 (2408448)
I0403 18:26:52.844095  6980 net.cpp:156] Memory required for data: 1072647456
I0403 18:26:52.844111  6980 layer_factory.hpp:77] Creating layer inception_4c/output_inception_4c/output_0_split
I0403 18:26:52.844130  6980 net.cpp:91] Creating Layer inception_4c/output_inception_4c/output_0_split
I0403 18:26:52.844146  6980 net.cpp:425] inception_4c/output_inception_4c/output_0_split <- inception_4c/output
I0403 18:26:52.844167  6980 net.cpp:399] inception_4c/output_inception_4c/output_0_split -> inception_4c/output_inception_4c/output_0_split_0
I0403 18:26:52.844195  6980 net.cpp:399] inception_4c/output_inception_4c/output_0_split -> inception_4c/output_inception_4c/output_0_split_1
I0403 18:26:52.844218  6980 net.cpp:399] inception_4c/output_inception_4c/output_0_split -> inception_4c/output_inception_4c/output_0_split_2
I0403 18:26:52.844238  6980 net.cpp:399] inception_4c/output_inception_4c/output_0_split -> inception_4c/output_inception_4c/output_0_split_3
I0403 18:26:52.844341  6980 net.cpp:141] Setting up inception_4c/output_inception_4c/output_0_split
I0403 18:26:52.844367  6980 net.cpp:148] Top shape: 24 512 14 14 (2408448)
I0403 18:26:52.844383  6980 net.cpp:148] Top shape: 24 512 14 14 (2408448)
I0403 18:26:52.844401  6980 net.cpp:148] Top shape: 24 512 14 14 (2408448)
I0403 18:26:52.844418  6980 net.cpp:148] Top shape: 24 512 14 14 (2408448)
I0403 18:26:52.844434  6980 net.cpp:156] Memory required for data: 1111182624
I0403 18:26:52.844449  6980 layer_factory.hpp:77] Creating layer inception_4d/1x1
I0403 18:26:52.844473  6980 net.cpp:91] Creating Layer inception_4d/1x1
I0403 18:26:52.844493  6980 net.cpp:425] inception_4d/1x1 <- inception_4c/output_inception_4c/output_0_split_0
I0403 18:26:52.844516  6980 net.cpp:399] inception_4d/1x1 -> inception_4d/1x1
I0403 18:26:52.845962  6980 net.cpp:141] Setting up inception_4d/1x1
I0403 18:26:52.845990  6980 net.cpp:148] Top shape: 24 112 14 14 (526848)
I0403 18:26:52.846006  6980 net.cpp:156] Memory required for data: 1113290016
I0403 18:26:52.846025  6980 layer_factory.hpp:77] Creating layer inception_4d/relu_1x1
I0403 18:26:52.846045  6980 net.cpp:91] Creating Layer inception_4d/relu_1x1
I0403 18:26:52.846060  6980 net.cpp:425] inception_4d/relu_1x1 <- inception_4d/1x1
I0403 18:26:52.846081  6980 net.cpp:386] inception_4d/relu_1x1 -> inception_4d/1x1 (in-place)
I0403 18:26:52.846277  6980 net.cpp:141] Setting up inception_4d/relu_1x1
I0403 18:26:52.846304  6980 net.cpp:148] Top shape: 24 112 14 14 (526848)
I0403 18:26:52.846320  6980 net.cpp:156] Memory required for data: 1115397408
I0403 18:26:52.846335  6980 layer_factory.hpp:77] Creating layer inception_4d/3x3_reduce
I0403 18:26:52.846374  6980 net.cpp:91] Creating Layer inception_4d/3x3_reduce
I0403 18:26:52.846395  6980 net.cpp:425] inception_4d/3x3_reduce <- inception_4c/output_inception_4c/output_0_split_1
I0403 18:26:52.846417  6980 net.cpp:399] inception_4d/3x3_reduce -> inception_4d/3x3_reduce
I0403 18:26:52.848017  6980 net.cpp:141] Setting up inception_4d/3x3_reduce
I0403 18:26:52.848044  6980 net.cpp:148] Top shape: 24 144 14 14 (677376)
I0403 18:26:52.848062  6980 net.cpp:156] Memory required for data: 1118106912
I0403 18:26:52.848080  6980 layer_factory.hpp:77] Creating layer inception_4d/relu_3x3_reduce
I0403 18:26:52.848103  6980 net.cpp:91] Creating Layer inception_4d/relu_3x3_reduce
I0403 18:26:52.848120  6980 net.cpp:425] inception_4d/relu_3x3_reduce <- inception_4d/3x3_reduce
I0403 18:26:52.848139  6980 net.cpp:386] inception_4d/relu_3x3_reduce -> inception_4d/3x3_reduce (in-place)
I0403 18:26:52.848459  6980 net.cpp:141] Setting up inception_4d/relu_3x3_reduce
I0403 18:26:52.848487  6980 net.cpp:148] Top shape: 24 144 14 14 (677376)
I0403 18:26:52.848503  6980 net.cpp:156] Memory required for data: 1120816416
I0403 18:26:52.848520  6980 layer_factory.hpp:77] Creating layer inception_4d/3x3
I0403 18:26:52.848557  6980 net.cpp:91] Creating Layer inception_4d/3x3
I0403 18:26:52.848577  6980 net.cpp:425] inception_4d/3x3 <- inception_4d/3x3_reduce
I0403 18:26:52.848597  6980 net.cpp:399] inception_4d/3x3 -> inception_4d/3x3
I0403 18:26:52.853020  6980 net.cpp:141] Setting up inception_4d/3x3
I0403 18:26:52.853052  6980 net.cpp:148] Top shape: 24 288 14 14 (1354752)
I0403 18:26:52.853068  6980 net.cpp:156] Memory required for data: 1126235424
I0403 18:26:52.853087  6980 layer_factory.hpp:77] Creating layer inception_4d/relu_3x3
I0403 18:26:52.853106  6980 net.cpp:91] Creating Layer inception_4d/relu_3x3
I0403 18:26:52.853122  6980 net.cpp:425] inception_4d/relu_3x3 <- inception_4d/3x3
I0403 18:26:52.853142  6980 net.cpp:386] inception_4d/relu_3x3 -> inception_4d/3x3 (in-place)
I0403 18:26:52.853334  6980 net.cpp:141] Setting up inception_4d/relu_3x3
I0403 18:26:52.853360  6980 net.cpp:148] Top shape: 24 288 14 14 (1354752)
I0403 18:26:52.853375  6980 net.cpp:156] Memory required for data: 1131654432
I0403 18:26:52.853390  6980 layer_factory.hpp:77] Creating layer inception_4d/5x5_reduce
I0403 18:26:52.853412  6980 net.cpp:91] Creating Layer inception_4d/5x5_reduce
I0403 18:26:52.853430  6980 net.cpp:425] inception_4d/5x5_reduce <- inception_4c/output_inception_4c/output_0_split_2
I0403 18:26:52.853451  6980 net.cpp:399] inception_4d/5x5_reduce -> inception_4d/5x5_reduce
I0403 18:26:52.854621  6980 net.cpp:141] Setting up inception_4d/5x5_reduce
I0403 18:26:52.854650  6980 net.cpp:148] Top shape: 24 32 14 14 (150528)
I0403 18:26:52.854665  6980 net.cpp:156] Memory required for data: 1132256544
I0403 18:26:52.854683  6980 layer_factory.hpp:77] Creating layer inception_4d/relu_5x5_reduce
I0403 18:26:52.854701  6980 net.cpp:91] Creating Layer inception_4d/relu_5x5_reduce
I0403 18:26:52.854719  6980 net.cpp:425] inception_4d/relu_5x5_reduce <- inception_4d/5x5_reduce
I0403 18:26:52.854739  6980 net.cpp:386] inception_4d/relu_5x5_reduce -> inception_4d/5x5_reduce (in-place)
I0403 18:26:52.854933  6980 net.cpp:141] Setting up inception_4d/relu_5x5_reduce
I0403 18:26:52.854957  6980 net.cpp:148] Top shape: 24 32 14 14 (150528)
I0403 18:26:52.854972  6980 net.cpp:156] Memory required for data: 1132858656
I0403 18:26:52.854987  6980 layer_factory.hpp:77] Creating layer inception_4d/5x5
I0403 18:26:52.855015  6980 net.cpp:91] Creating Layer inception_4d/5x5
I0403 18:26:52.855031  6980 net.cpp:425] inception_4d/5x5 <- inception_4d/5x5_reduce
I0403 18:26:52.855052  6980 net.cpp:399] inception_4d/5x5 -> inception_4d/5x5
I0403 18:26:52.856607  6980 net.cpp:141] Setting up inception_4d/5x5
I0403 18:26:52.856636  6980 net.cpp:148] Top shape: 24 64 14 14 (301056)
I0403 18:26:52.856650  6980 net.cpp:156] Memory required for data: 1134062880
I0403 18:26:52.856672  6980 layer_factory.hpp:77] Creating layer inception_4d/relu_5x5
I0403 18:26:52.856708  6980 net.cpp:91] Creating Layer inception_4d/relu_5x5
I0403 18:26:52.856725  6980 net.cpp:425] inception_4d/relu_5x5 <- inception_4d/5x5
I0403 18:26:52.856744  6980 net.cpp:386] inception_4d/relu_5x5 -> inception_4d/5x5 (in-place)
I0403 18:26:52.857045  6980 net.cpp:141] Setting up inception_4d/relu_5x5
I0403 18:26:52.857072  6980 net.cpp:148] Top shape: 24 64 14 14 (301056)
I0403 18:26:52.857087  6980 net.cpp:156] Memory required for data: 1135267104
I0403 18:26:52.857103  6980 layer_factory.hpp:77] Creating layer inception_4d/pool
I0403 18:26:52.857123  6980 net.cpp:91] Creating Layer inception_4d/pool
I0403 18:26:52.857141  6980 net.cpp:425] inception_4d/pool <- inception_4c/output_inception_4c/output_0_split_3
I0403 18:26:52.857158  6980 net.cpp:399] inception_4d/pool -> inception_4d/pool
I0403 18:26:52.857230  6980 net.cpp:141] Setting up inception_4d/pool
I0403 18:26:52.857254  6980 net.cpp:148] Top shape: 24 512 14 14 (2408448)
I0403 18:26:52.857270  6980 net.cpp:156] Memory required for data: 1144900896
I0403 18:26:52.857285  6980 layer_factory.hpp:77] Creating layer inception_4d/pool_proj
I0403 18:26:52.857309  6980 net.cpp:91] Creating Layer inception_4d/pool_proj
I0403 18:26:52.857326  6980 net.cpp:425] inception_4d/pool_proj <- inception_4d/pool
I0403 18:26:52.857347  6980 net.cpp:399] inception_4d/pool_proj -> inception_4d/pool_proj
I0403 18:26:52.859174  6980 net.cpp:141] Setting up inception_4d/pool_proj
I0403 18:26:52.859207  6980 net.cpp:148] Top shape: 24 64 14 14 (301056)
I0403 18:26:52.859223  6980 net.cpp:156] Memory required for data: 1146105120
I0403 18:26:52.859242  6980 layer_factory.hpp:77] Creating layer inception_4d/relu_pool_proj
I0403 18:26:52.859262  6980 net.cpp:91] Creating Layer inception_4d/relu_pool_proj
I0403 18:26:52.859279  6980 net.cpp:425] inception_4d/relu_pool_proj <- inception_4d/pool_proj
I0403 18:26:52.859303  6980 net.cpp:386] inception_4d/relu_pool_proj -> inception_4d/pool_proj (in-place)
I0403 18:26:52.859499  6980 net.cpp:141] Setting up inception_4d/relu_pool_proj
I0403 18:26:52.859525  6980 net.cpp:148] Top shape: 24 64 14 14 (301056)
I0403 18:26:52.859541  6980 net.cpp:156] Memory required for data: 1147309344
I0403 18:26:52.859558  6980 layer_factory.hpp:77] Creating layer inception_4d/output
I0403 18:26:52.859576  6980 net.cpp:91] Creating Layer inception_4d/output
I0403 18:26:52.859593  6980 net.cpp:425] inception_4d/output <- inception_4d/1x1
I0403 18:26:52.859611  6980 net.cpp:425] inception_4d/output <- inception_4d/3x3
I0403 18:26:52.859628  6980 net.cpp:425] inception_4d/output <- inception_4d/5x5
I0403 18:26:52.859645  6980 net.cpp:425] inception_4d/output <- inception_4d/pool_proj
I0403 18:26:52.859665  6980 net.cpp:399] inception_4d/output -> inception_4d/output
I0403 18:26:52.859730  6980 net.cpp:141] Setting up inception_4d/output
I0403 18:26:52.859753  6980 net.cpp:148] Top shape: 24 528 14 14 (2483712)
I0403 18:26:52.859767  6980 net.cpp:156] Memory required for data: 1157244192
I0403 18:26:52.859796  6980 layer_factory.hpp:77] Creating layer inception_4d/output_inception_4d/output_0_split
I0403 18:26:52.859813  6980 net.cpp:91] Creating Layer inception_4d/output_inception_4d/output_0_split
I0403 18:26:52.859830  6980 net.cpp:425] inception_4d/output_inception_4d/output_0_split <- inception_4d/output
I0403 18:26:52.859853  6980 net.cpp:399] inception_4d/output_inception_4d/output_0_split -> inception_4d/output_inception_4d/output_0_split_0
I0403 18:26:52.859876  6980 net.cpp:399] inception_4d/output_inception_4d/output_0_split -> inception_4d/output_inception_4d/output_0_split_1
I0403 18:26:52.859899  6980 net.cpp:399] inception_4d/output_inception_4d/output_0_split -> inception_4d/output_inception_4d/output_0_split_2
I0403 18:26:52.859920  6980 net.cpp:399] inception_4d/output_inception_4d/output_0_split -> inception_4d/output_inception_4d/output_0_split_3
I0403 18:26:52.859941  6980 net.cpp:399] inception_4d/output_inception_4d/output_0_split -> inception_4d/output_inception_4d/output_0_split_4
I0403 18:26:52.860047  6980 net.cpp:141] Setting up inception_4d/output_inception_4d/output_0_split
I0403 18:26:52.860088  6980 net.cpp:148] Top shape: 24 528 14 14 (2483712)
I0403 18:26:52.860106  6980 net.cpp:148] Top shape: 24 528 14 14 (2483712)
I0403 18:26:52.860123  6980 net.cpp:148] Top shape: 24 528 14 14 (2483712)
I0403 18:26:52.860139  6980 net.cpp:148] Top shape: 24 528 14 14 (2483712)
I0403 18:26:52.860157  6980 net.cpp:148] Top shape: 24 528 14 14 (2483712)
I0403 18:26:52.860172  6980 net.cpp:156] Memory required for data: 1206918432
I0403 18:26:52.860193  6980 layer_factory.hpp:77] Creating layer loss2/ave_pool
I0403 18:26:52.860213  6980 net.cpp:91] Creating Layer loss2/ave_pool
I0403 18:26:52.860229  6980 net.cpp:425] loss2/ave_pool <- inception_4d/output_inception_4d/output_0_split_0
I0403 18:26:52.860252  6980 net.cpp:399] loss2/ave_pool -> loss2/ave_pool
I0403 18:26:52.860582  6980 net.cpp:141] Setting up loss2/ave_pool
I0403 18:26:52.860610  6980 net.cpp:148] Top shape: 24 528 4 4 (202752)
I0403 18:26:52.860626  6980 net.cpp:156] Memory required for data: 1207729440
I0403 18:26:52.860641  6980 layer_factory.hpp:77] Creating layer loss2/conv
I0403 18:26:52.860664  6980 net.cpp:91] Creating Layer loss2/conv
I0403 18:26:52.860682  6980 net.cpp:425] loss2/conv <- loss2/ave_pool
I0403 18:26:52.860704  6980 net.cpp:399] loss2/conv -> loss2/conv
I0403 18:26:52.862668  6980 net.cpp:141] Setting up loss2/conv
I0403 18:26:52.862697  6980 net.cpp:148] Top shape: 24 128 4 4 (49152)
I0403 18:26:52.862714  6980 net.cpp:156] Memory required for data: 1207926048
I0403 18:26:52.862732  6980 layer_factory.hpp:77] Creating layer loss2/relu_conv
I0403 18:26:52.862754  6980 net.cpp:91] Creating Layer loss2/relu_conv
I0403 18:26:52.862772  6980 net.cpp:425] loss2/relu_conv <- loss2/conv
I0403 18:26:52.862790  6980 net.cpp:386] loss2/relu_conv -> loss2/conv (in-place)
I0403 18:26:52.863078  6980 net.cpp:141] Setting up loss2/relu_conv
I0403 18:26:52.863104  6980 net.cpp:148] Top shape: 24 128 4 4 (49152)
I0403 18:26:52.863121  6980 net.cpp:156] Memory required for data: 1208122656
I0403 18:26:52.863137  6980 layer_factory.hpp:77] Creating layer loss2/fc
I0403 18:26:52.863159  6980 net.cpp:91] Creating Layer loss2/fc
I0403 18:26:52.863180  6980 net.cpp:425] loss2/fc <- loss2/conv
I0403 18:26:52.863204  6980 net.cpp:399] loss2/fc -> loss2/fc
I0403 18:26:52.882236  6980 net.cpp:141] Setting up loss2/fc
I0403 18:26:52.882279  6980 net.cpp:148] Top shape: 24 1024 (24576)
I0403 18:26:52.882295  6980 net.cpp:156] Memory required for data: 1208220960
I0403 18:26:52.882314  6980 layer_factory.hpp:77] Creating layer loss2/relu_fc
I0403 18:26:52.882333  6980 net.cpp:91] Creating Layer loss2/relu_fc
I0403 18:26:52.882349  6980 net.cpp:425] loss2/relu_fc <- loss2/fc
I0403 18:26:52.882369  6980 net.cpp:386] loss2/relu_fc -> loss2/fc (in-place)
I0403 18:26:52.882685  6980 net.cpp:141] Setting up loss2/relu_fc
I0403 18:26:52.882711  6980 net.cpp:148] Top shape: 24 1024 (24576)
I0403 18:26:52.882728  6980 net.cpp:156] Memory required for data: 1208319264
I0403 18:26:52.882742  6980 layer_factory.hpp:77] Creating layer loss2/drop_fc
I0403 18:26:52.882761  6980 net.cpp:91] Creating Layer loss2/drop_fc
I0403 18:26:52.882777  6980 net.cpp:425] loss2/drop_fc <- loss2/fc
I0403 18:26:52.882798  6980 net.cpp:386] loss2/drop_fc -> loss2/fc (in-place)
I0403 18:26:52.882849  6980 net.cpp:141] Setting up loss2/drop_fc
I0403 18:26:52.882875  6980 net.cpp:148] Top shape: 24 1024 (24576)
I0403 18:26:52.882891  6980 net.cpp:156] Memory required for data: 1208417568
I0403 18:26:52.882906  6980 layer_factory.hpp:77] Creating layer loss2/classifier_plantvillage
I0403 18:26:52.882925  6980 net.cpp:91] Creating Layer loss2/classifier_plantvillage
I0403 18:26:52.882941  6980 net.cpp:425] loss2/classifier_plantvillage <- loss2/fc
I0403 18:26:52.882967  6980 net.cpp:399] loss2/classifier_plantvillage -> loss2/classifier_plantvillage
I0403 18:26:52.883409  6980 net.cpp:141] Setting up loss2/classifier_plantvillage
I0403 18:26:52.883436  6980 net.cpp:148] Top shape: 24 38 (912)
I0403 18:26:52.883471  6980 net.cpp:156] Memory required for data: 1208421216
I0403 18:26:52.883502  6980 layer_factory.hpp:77] Creating layer loss2/classifier_plantvillage_loss2/classifier_plantvillage_0_split
I0403 18:26:52.883524  6980 net.cpp:91] Creating Layer loss2/classifier_plantvillage_loss2/classifier_plantvillage_0_split
I0403 18:26:52.883543  6980 net.cpp:425] loss2/classifier_plantvillage_loss2/classifier_plantvillage_0_split <- loss2/classifier_plantvillage
I0403 18:26:52.883560  6980 net.cpp:399] loss2/classifier_plantvillage_loss2/classifier_plantvillage_0_split -> loss2/classifier_plantvillage_loss2/classifier_plantvillage_0_split_0
I0403 18:26:52.883584  6980 net.cpp:399] loss2/classifier_plantvillage_loss2/classifier_plantvillage_0_split -> loss2/classifier_plantvillage_loss2/classifier_plantvillage_0_split_1
I0403 18:26:52.883607  6980 net.cpp:399] loss2/classifier_plantvillage_loss2/classifier_plantvillage_0_split -> loss2/classifier_plantvillage_loss2/classifier_plantvillage_0_split_2
I0403 18:26:52.883687  6980 net.cpp:141] Setting up loss2/classifier_plantvillage_loss2/classifier_plantvillage_0_split
I0403 18:26:52.883710  6980 net.cpp:148] Top shape: 24 38 (912)
I0403 18:26:52.883728  6980 net.cpp:148] Top shape: 24 38 (912)
I0403 18:26:52.883744  6980 net.cpp:148] Top shape: 24 38 (912)
I0403 18:26:52.883759  6980 net.cpp:156] Memory required for data: 1208432160
I0403 18:26:52.883774  6980 layer_factory.hpp:77] Creating layer inception_4e/1x1
I0403 18:26:52.883797  6980 net.cpp:91] Creating Layer inception_4e/1x1
I0403 18:26:52.883816  6980 net.cpp:425] inception_4e/1x1 <- inception_4d/output_inception_4d/output_0_split_1
I0403 18:26:52.883837  6980 net.cpp:399] inception_4e/1x1 -> inception_4e/1x1
I0403 18:26:52.885740  6980 net.cpp:141] Setting up inception_4e/1x1
I0403 18:26:52.885769  6980 net.cpp:148] Top shape: 24 256 14 14 (1204224)
I0403 18:26:52.885785  6980 net.cpp:156] Memory required for data: 1213249056
I0403 18:26:52.885805  6980 layer_factory.hpp:77] Creating layer inception_4e/relu_1x1
I0403 18:26:52.885828  6980 net.cpp:91] Creating Layer inception_4e/relu_1x1
I0403 18:26:52.885844  6980 net.cpp:425] inception_4e/relu_1x1 <- inception_4e/1x1
I0403 18:26:52.885864  6980 net.cpp:386] inception_4e/relu_1x1 -> inception_4e/1x1 (in-place)
I0403 18:26:52.886169  6980 net.cpp:141] Setting up inception_4e/relu_1x1
I0403 18:26:52.886200  6980 net.cpp:148] Top shape: 24 256 14 14 (1204224)
I0403 18:26:52.886216  6980 net.cpp:156] Memory required for data: 1218065952
I0403 18:26:52.886234  6980 layer_factory.hpp:77] Creating layer inception_4e/3x3_reduce
I0403 18:26:52.886257  6980 net.cpp:91] Creating Layer inception_4e/3x3_reduce
I0403 18:26:52.886288  6980 net.cpp:425] inception_4e/3x3_reduce <- inception_4d/output_inception_4d/output_0_split_2
I0403 18:26:52.886312  6980 net.cpp:399] inception_4e/3x3_reduce -> inception_4e/3x3_reduce
I0403 18:26:52.888612  6980 net.cpp:141] Setting up inception_4e/3x3_reduce
I0403 18:26:52.888640  6980 net.cpp:148] Top shape: 24 160 14 14 (752640)
I0403 18:26:52.888658  6980 net.cpp:156] Memory required for data: 1221076512
I0403 18:26:52.888676  6980 layer_factory.hpp:77] Creating layer inception_4e/relu_3x3_reduce
I0403 18:26:52.888697  6980 net.cpp:91] Creating Layer inception_4e/relu_3x3_reduce
I0403 18:26:52.888715  6980 net.cpp:425] inception_4e/relu_3x3_reduce <- inception_4e/3x3_reduce
I0403 18:26:52.888734  6980 net.cpp:386] inception_4e/relu_3x3_reduce -> inception_4e/3x3_reduce (in-place)
I0403 18:26:52.888931  6980 net.cpp:141] Setting up inception_4e/relu_3x3_reduce
I0403 18:26:52.888958  6980 net.cpp:148] Top shape: 24 160 14 14 (752640)
I0403 18:26:52.888975  6980 net.cpp:156] Memory required for data: 1224087072
I0403 18:26:52.888991  6980 layer_factory.hpp:77] Creating layer inception_4e/3x3
I0403 18:26:52.889015  6980 net.cpp:91] Creating Layer inception_4e/3x3
I0403 18:26:52.889034  6980 net.cpp:425] inception_4e/3x3 <- inception_4e/3x3_reduce
I0403 18:26:52.889052  6980 net.cpp:399] inception_4e/3x3 -> inception_4e/3x3
I0403 18:26:52.894354  6980 net.cpp:141] Setting up inception_4e/3x3
I0403 18:26:52.894404  6980 net.cpp:148] Top shape: 24 320 14 14 (1505280)
I0403 18:26:52.894423  6980 net.cpp:156] Memory required for data: 1230108192
I0403 18:26:52.894441  6980 layer_factory.hpp:77] Creating layer inception_4e/relu_3x3
I0403 18:26:52.894461  6980 net.cpp:91] Creating Layer inception_4e/relu_3x3
I0403 18:26:52.894477  6980 net.cpp:425] inception_4e/relu_3x3 <- inception_4e/3x3
I0403 18:26:52.894496  6980 net.cpp:386] inception_4e/relu_3x3 -> inception_4e/3x3 (in-place)
I0403 18:26:52.894809  6980 net.cpp:141] Setting up inception_4e/relu_3x3
I0403 18:26:52.894836  6980 net.cpp:148] Top shape: 24 320 14 14 (1505280)
I0403 18:26:52.894852  6980 net.cpp:156] Memory required for data: 1236129312
I0403 18:26:52.894868  6980 layer_factory.hpp:77] Creating layer inception_4e/5x5_reduce
I0403 18:26:52.894893  6980 net.cpp:91] Creating Layer inception_4e/5x5_reduce
I0403 18:26:52.894912  6980 net.cpp:425] inception_4e/5x5_reduce <- inception_4d/output_inception_4d/output_0_split_3
I0403 18:26:52.894935  6980 net.cpp:399] inception_4e/5x5_reduce -> inception_4e/5x5_reduce
I0403 18:26:52.896091  6980 net.cpp:141] Setting up inception_4e/5x5_reduce
I0403 18:26:52.896121  6980 net.cpp:148] Top shape: 24 32 14 14 (150528)
I0403 18:26:52.896136  6980 net.cpp:156] Memory required for data: 1236731424
I0403 18:26:52.896155  6980 layer_factory.hpp:77] Creating layer inception_4e/relu_5x5_reduce
I0403 18:26:52.896180  6980 net.cpp:91] Creating Layer inception_4e/relu_5x5_reduce
I0403 18:26:52.896199  6980 net.cpp:425] inception_4e/relu_5x5_reduce <- inception_4e/5x5_reduce
I0403 18:26:52.896219  6980 net.cpp:386] inception_4e/relu_5x5_reduce -> inception_4e/5x5_reduce (in-place)
I0403 18:26:52.896531  6980 net.cpp:141] Setting up inception_4e/relu_5x5_reduce
I0403 18:26:52.896559  6980 net.cpp:148] Top shape: 24 32 14 14 (150528)
I0403 18:26:52.896574  6980 net.cpp:156] Memory required for data: 1237333536
I0403 18:26:52.896591  6980 layer_factory.hpp:77] Creating layer inception_4e/5x5
I0403 18:26:52.896633  6980 net.cpp:91] Creating Layer inception_4e/5x5
I0403 18:26:52.896654  6980 net.cpp:425] inception_4e/5x5 <- inception_4e/5x5_reduce
I0403 18:26:52.896674  6980 net.cpp:399] inception_4e/5x5 -> inception_4e/5x5
I0403 18:26:52.898684  6980 net.cpp:141] Setting up inception_4e/5x5
I0403 18:26:52.898713  6980 net.cpp:148] Top shape: 24 128 14 14 (602112)
I0403 18:26:52.898730  6980 net.cpp:156] Memory required for data: 1239741984
I0403 18:26:52.898751  6980 layer_factory.hpp:77] Creating layer inception_4e/relu_5x5
I0403 18:26:52.898772  6980 net.cpp:91] Creating Layer inception_4e/relu_5x5
I0403 18:26:52.898790  6980 net.cpp:425] inception_4e/relu_5x5 <- inception_4e/5x5
I0403 18:26:52.898808  6980 net.cpp:386] inception_4e/relu_5x5 -> inception_4e/5x5 (in-place)
I0403 18:26:52.899016  6980 net.cpp:141] Setting up inception_4e/relu_5x5
I0403 18:26:52.899042  6980 net.cpp:148] Top shape: 24 128 14 14 (602112)
I0403 18:26:52.899058  6980 net.cpp:156] Memory required for data: 1242150432
I0403 18:26:52.899073  6980 layer_factory.hpp:77] Creating layer inception_4e/pool
I0403 18:26:52.899096  6980 net.cpp:91] Creating Layer inception_4e/pool
I0403 18:26:52.899113  6980 net.cpp:425] inception_4e/pool <- inception_4d/output_inception_4d/output_0_split_4
I0403 18:26:52.899132  6980 net.cpp:399] inception_4e/pool -> inception_4e/pool
I0403 18:26:52.899214  6980 net.cpp:141] Setting up inception_4e/pool
I0403 18:26:52.899237  6980 net.cpp:148] Top shape: 24 528 14 14 (2483712)
I0403 18:26:52.899253  6980 net.cpp:156] Memory required for data: 1252085280
I0403 18:26:52.899269  6980 layer_factory.hpp:77] Creating layer inception_4e/pool_proj
I0403 18:26:52.899292  6980 net.cpp:91] Creating Layer inception_4e/pool_proj
I0403 18:26:52.899310  6980 net.cpp:425] inception_4e/pool_proj <- inception_4e/pool
I0403 18:26:52.899333  6980 net.cpp:399] inception_4e/pool_proj -> inception_4e/pool_proj
I0403 18:26:52.901037  6980 net.cpp:141] Setting up inception_4e/pool_proj
I0403 18:26:52.901089  6980 net.cpp:148] Top shape: 24 128 14 14 (602112)
I0403 18:26:52.901121  6980 net.cpp:156] Memory required for data: 1254493728
I0403 18:26:52.901141  6980 layer_factory.hpp:77] Creating layer inception_4e/relu_pool_proj
I0403 18:26:52.901202  6980 net.cpp:91] Creating Layer inception_4e/relu_pool_proj
I0403 18:26:52.901226  6980 net.cpp:425] inception_4e/relu_pool_proj <- inception_4e/pool_proj
I0403 18:26:52.901249  6980 net.cpp:386] inception_4e/relu_pool_proj -> inception_4e/pool_proj (in-place)
I0403 18:26:52.901562  6980 net.cpp:141] Setting up inception_4e/relu_pool_proj
I0403 18:26:52.901592  6980 net.cpp:148] Top shape: 24 128 14 14 (602112)
I0403 18:26:52.901607  6980 net.cpp:156] Memory required for data: 1256902176
I0403 18:26:52.901623  6980 layer_factory.hpp:77] Creating layer inception_4e/output
I0403 18:26:52.901661  6980 net.cpp:91] Creating Layer inception_4e/output
I0403 18:26:52.901684  6980 net.cpp:425] inception_4e/output <- inception_4e/1x1
I0403 18:26:52.901703  6980 net.cpp:425] inception_4e/output <- inception_4e/3x3
I0403 18:26:52.901721  6980 net.cpp:425] inception_4e/output <- inception_4e/5x5
I0403 18:26:52.901737  6980 net.cpp:425] inception_4e/output <- inception_4e/pool_proj
I0403 18:26:52.901769  6980 net.cpp:399] inception_4e/output -> inception_4e/output
I0403 18:26:52.901823  6980 net.cpp:141] Setting up inception_4e/output
I0403 18:26:52.901860  6980 net.cpp:148] Top shape: 24 832 14 14 (3913728)
I0403 18:26:52.901878  6980 net.cpp:156] Memory required for data: 1272557088
I0403 18:26:52.901895  6980 layer_factory.hpp:77] Creating layer pool4/3x3_s2
I0403 18:26:52.901914  6980 net.cpp:91] Creating Layer pool4/3x3_s2
I0403 18:26:52.901932  6980 net.cpp:425] pool4/3x3_s2 <- inception_4e/output
I0403 18:26:52.901954  6980 net.cpp:399] pool4/3x3_s2 -> pool4/3x3_s2
I0403 18:26:52.902025  6980 net.cpp:141] Setting up pool4/3x3_s2
I0403 18:26:52.902050  6980 net.cpp:148] Top shape: 24 832 7 7 (978432)
I0403 18:26:52.902070  6980 net.cpp:156] Memory required for data: 1276470816
I0403 18:26:52.902091  6980 layer_factory.hpp:77] Creating layer pool4/3x3_s2_pool4/3x3_s2_0_split
I0403 18:26:52.902118  6980 net.cpp:91] Creating Layer pool4/3x3_s2_pool4/3x3_s2_0_split
I0403 18:26:52.902168  6980 net.cpp:425] pool4/3x3_s2_pool4/3x3_s2_0_split <- pool4/3x3_s2
I0403 18:26:52.902220  6980 net.cpp:399] pool4/3x3_s2_pool4/3x3_s2_0_split -> pool4/3x3_s2_pool4/3x3_s2_0_split_0
I0403 18:26:52.902281  6980 net.cpp:399] pool4/3x3_s2_pool4/3x3_s2_0_split -> pool4/3x3_s2_pool4/3x3_s2_0_split_1
I0403 18:26:52.902304  6980 net.cpp:399] pool4/3x3_s2_pool4/3x3_s2_0_split -> pool4/3x3_s2_pool4/3x3_s2_0_split_2
I0403 18:26:52.902345  6980 net.cpp:399] pool4/3x3_s2_pool4/3x3_s2_0_split -> pool4/3x3_s2_pool4/3x3_s2_0_split_3
I0403 18:26:52.902475  6980 net.cpp:141] Setting up pool4/3x3_s2_pool4/3x3_s2_0_split
I0403 18:26:52.902535  6980 net.cpp:148] Top shape: 24 832 7 7 (978432)
I0403 18:26:52.902556  6980 net.cpp:148] Top shape: 24 832 7 7 (978432)
I0403 18:26:52.902587  6980 net.cpp:148] Top shape: 24 832 7 7 (978432)
I0403 18:26:52.902631  6980 net.cpp:148] Top shape: 24 832 7 7 (978432)
I0403 18:26:52.902650  6980 net.cpp:156] Memory required for data: 1292125728
I0403 18:26:52.902679  6980 layer_factory.hpp:77] Creating layer inception_5a/1x1
I0403 18:26:52.902712  6980 net.cpp:91] Creating Layer inception_5a/1x1
I0403 18:26:52.902745  6980 net.cpp:425] inception_5a/1x1 <- pool4/3x3_s2_pool4/3x3_s2_0_split_0
I0403 18:26:52.902783  6980 net.cpp:399] inception_5a/1x1 -> inception_5a/1x1
I0403 18:26:52.906241  6980 net.cpp:141] Setting up inception_5a/1x1
I0403 18:26:52.906275  6980 net.cpp:148] Top shape: 24 256 7 7 (301056)
I0403 18:26:52.906294  6980 net.cpp:156] Memory required for data: 1293329952
I0403 18:26:52.906333  6980 layer_factory.hpp:77] Creating layer inception_5a/relu_1x1
I0403 18:26:52.906359  6980 net.cpp:91] Creating Layer inception_5a/relu_1x1
I0403 18:26:52.906378  6980 net.cpp:425] inception_5a/relu_1x1 <- inception_5a/1x1
I0403 18:26:52.906420  6980 net.cpp:386] inception_5a/relu_1x1 -> inception_5a/1x1 (in-place)
I0403 18:26:52.906823  6980 net.cpp:141] Setting up inception_5a/relu_1x1
I0403 18:26:52.906858  6980 net.cpp:148] Top shape: 24 256 7 7 (301056)
I0403 18:26:52.906899  6980 net.cpp:156] Memory required for data: 1294534176
I0403 18:26:52.906939  6980 layer_factory.hpp:77] Creating layer inception_5a/3x3_reduce
I0403 18:26:52.906970  6980 net.cpp:91] Creating Layer inception_5a/3x3_reduce
I0403 18:26:52.906990  6980 net.cpp:425] inception_5a/3x3_reduce <- pool4/3x3_s2_pool4/3x3_s2_0_split_1
I0403 18:26:52.907026  6980 net.cpp:399] inception_5a/3x3_reduce -> inception_5a/3x3_reduce
I0403 18:26:52.910011  6980 net.cpp:141] Setting up inception_5a/3x3_reduce
I0403 18:26:52.910053  6980 net.cpp:148] Top shape: 24 160 7 7 (188160)
I0403 18:26:52.910102  6980 net.cpp:156] Memory required for data: 1295286816
I0403 18:26:52.910130  6980 layer_factory.hpp:77] Creating layer inception_5a/relu_3x3_reduce
I0403 18:26:52.910176  6980 net.cpp:91] Creating Layer inception_5a/relu_3x3_reduce
I0403 18:26:52.910209  6980 net.cpp:425] inception_5a/relu_3x3_reduce <- inception_5a/3x3_reduce
I0403 18:26:52.910257  6980 net.cpp:386] inception_5a/relu_3x3_reduce -> inception_5a/3x3_reduce (in-place)
I0403 18:26:52.910506  6980 net.cpp:141] Setting up inception_5a/relu_3x3_reduce
I0403 18:26:52.910544  6980 net.cpp:148] Top shape: 24 160 7 7 (188160)
I0403 18:26:52.910560  6980 net.cpp:156] Memory required for data: 1296039456
I0403 18:26:52.910595  6980 layer_factory.hpp:77] Creating layer inception_5a/3x3
I0403 18:26:52.910639  6980 net.cpp:91] Creating Layer inception_5a/3x3
I0403 18:26:52.910660  6980 net.cpp:425] inception_5a/3x3 <- inception_5a/3x3_reduce
I0403 18:26:52.910684  6980 net.cpp:399] inception_5a/3x3 -> inception_5a/3x3
I0403 18:26:52.916846  6980 net.cpp:141] Setting up inception_5a/3x3
I0403 18:26:52.916882  6980 net.cpp:148] Top shape: 24 320 7 7 (376320)
I0403 18:26:52.916899  6980 net.cpp:156] Memory required for data: 1297544736
I0403 18:26:52.916934  6980 layer_factory.hpp:77] Creating layer inception_5a/relu_3x3
I0403 18:26:52.916971  6980 net.cpp:91] Creating Layer inception_5a/relu_3x3
I0403 18:26:52.916993  6980 net.cpp:425] inception_5a/relu_3x3 <- inception_5a/3x3
I0403 18:26:52.917019  6980 net.cpp:386] inception_5a/relu_3x3 -> inception_5a/3x3 (in-place)
I0403 18:26:52.917409  6980 net.cpp:141] Setting up inception_5a/relu_3x3
I0403 18:26:52.917448  6980 net.cpp:148] Top shape: 24 320 7 7 (376320)
I0403 18:26:52.917490  6980 net.cpp:156] Memory required for data: 1299050016
I0403 18:26:52.917508  6980 layer_factory.hpp:77] Creating layer inception_5a/5x5_reduce
I0403 18:26:52.917541  6980 net.cpp:91] Creating Layer inception_5a/5x5_reduce
I0403 18:26:52.917569  6980 net.cpp:425] inception_5a/5x5_reduce <- pool4/3x3_s2_pool4/3x3_s2_0_split_2
I0403 18:26:52.917594  6980 net.cpp:399] inception_5a/5x5_reduce -> inception_5a/5x5_reduce
I0403 18:26:52.919095  6980 net.cpp:141] Setting up inception_5a/5x5_reduce
I0403 18:26:52.919162  6980 net.cpp:148] Top shape: 24 32 7 7 (37632)
I0403 18:26:52.919198  6980 net.cpp:156] Memory required for data: 1299200544
I0403 18:26:52.919229  6980 layer_factory.hpp:77] Creating layer inception_5a/relu_5x5_reduce
I0403 18:26:52.919270  6980 net.cpp:91] Creating Layer inception_5a/relu_5x5_reduce
I0403 18:26:52.919293  6980 net.cpp:425] inception_5a/relu_5x5_reduce <- inception_5a/5x5_reduce
I0403 18:26:52.919322  6980 net.cpp:386] inception_5a/relu_5x5_reduce -> inception_5a/5x5_reduce (in-place)
I0403 18:26:52.919700  6980 net.cpp:141] Setting up inception_5a/relu_5x5_reduce
I0403 18:26:52.919733  6980 net.cpp:148] Top shape: 24 32 7 7 (37632)
I0403 18:26:52.919749  6980 net.cpp:156] Memory required for data: 1299351072
I0403 18:26:52.919770  6980 layer_factory.hpp:77] Creating layer inception_5a/5x5
I0403 18:26:52.919821  6980 net.cpp:91] Creating Layer inception_5a/5x5
I0403 18:26:52.919859  6980 net.cpp:425] inception_5a/5x5 <- inception_5a/5x5_reduce
I0403 18:26:52.919903  6980 net.cpp:399] inception_5a/5x5 -> inception_5a/5x5
I0403 18:26:52.922062  6980 net.cpp:141] Setting up inception_5a/5x5
I0403 18:26:52.922114  6980 net.cpp:148] Top shape: 24 128 7 7 (150528)
I0403 18:26:52.922145  6980 net.cpp:156] Memory required for data: 1299953184
I0403 18:26:52.922199  6980 layer_factory.hpp:77] Creating layer inception_5a/relu_5x5
I0403 18:26:52.922245  6980 net.cpp:91] Creating Layer inception_5a/relu_5x5
I0403 18:26:52.922288  6980 net.cpp:425] inception_5a/relu_5x5 <- inception_5a/5x5
I0403 18:26:52.922317  6980 net.cpp:386] inception_5a/relu_5x5 -> inception_5a/5x5 (in-place)
I0403 18:26:52.922574  6980 net.cpp:141] Setting up inception_5a/relu_5x5
I0403 18:26:52.922629  6980 net.cpp:148] Top shape: 24 128 7 7 (150528)
I0403 18:26:52.922655  6980 net.cpp:156] Memory required for data: 1300555296
I0403 18:26:52.922674  6980 layer_factory.hpp:77] Creating layer inception_5a/pool
I0403 18:26:52.922710  6980 net.cpp:91] Creating Layer inception_5a/pool
I0403 18:26:52.922747  6980 net.cpp:425] inception_5a/pool <- pool4/3x3_s2_pool4/3x3_s2_0_split_3
I0403 18:26:52.922776  6980 net.cpp:399] inception_5a/pool -> inception_5a/pool
I0403 18:26:52.922855  6980 net.cpp:141] Setting up inception_5a/pool
I0403 18:26:52.922895  6980 net.cpp:148] Top shape: 24 832 7 7 (978432)
I0403 18:26:52.922935  6980 net.cpp:156] Memory required for data: 1304469024
I0403 18:26:52.922972  6980 layer_factory.hpp:77] Creating layer inception_5a/pool_proj
I0403 18:26:52.923033  6980 net.cpp:91] Creating Layer inception_5a/pool_proj
I0403 18:26:52.923055  6980 net.cpp:425] inception_5a/pool_proj <- inception_5a/pool
I0403 18:26:52.923097  6980 net.cpp:399] inception_5a/pool_proj -> inception_5a/pool_proj
I0403 18:26:52.925926  6980 net.cpp:141] Setting up inception_5a/pool_proj
I0403 18:26:52.925966  6980 net.cpp:148] Top shape: 24 128 7 7 (150528)
I0403 18:26:52.925984  6980 net.cpp:156] Memory required for data: 1305071136
I0403 18:26:52.926036  6980 layer_factory.hpp:77] Creating layer inception_5a/relu_pool_proj
I0403 18:26:52.926069  6980 net.cpp:91] Creating Layer inception_5a/relu_pool_proj
I0403 18:26:52.926120  6980 net.cpp:425] inception_5a/relu_pool_proj <- inception_5a/pool_proj
I0403 18:26:52.926143  6980 net.cpp:386] inception_5a/relu_pool_proj -> inception_5a/pool_proj (in-place)
I0403 18:26:52.926558  6980 net.cpp:141] Setting up inception_5a/relu_pool_proj
I0403 18:26:52.926601  6980 net.cpp:148] Top shape: 24 128 7 7 (150528)
I0403 18:26:52.926653  6980 net.cpp:156] Memory required for data: 1305673248
I0403 18:26:52.926672  6980 layer_factory.hpp:77] Creating layer inception_5a/output
I0403 18:26:52.926692  6980 net.cpp:91] Creating Layer inception_5a/output
I0403 18:26:52.926712  6980 net.cpp:425] inception_5a/output <- inception_5a/1x1
I0403 18:26:52.926743  6980 net.cpp:425] inception_5a/output <- inception_5a/3x3
I0403 18:26:52.926767  6980 net.cpp:425] inception_5a/output <- inception_5a/5x5
I0403 18:26:52.926795  6980 net.cpp:425] inception_5a/output <- inception_5a/pool_proj
I0403 18:26:52.926820  6980 net.cpp:399] inception_5a/output -> inception_5a/output
I0403 18:26:52.926895  6980 net.cpp:141] Setting up inception_5a/output
I0403 18:26:52.926985  6980 net.cpp:148] Top shape: 24 832 7 7 (978432)
I0403 18:26:52.927014  6980 net.cpp:156] Memory required for data: 1309586976
I0403 18:26:52.927037  6980 layer_factory.hpp:77] Creating layer inception_5a/output_inception_5a/output_0_split
I0403 18:26:52.927073  6980 net.cpp:91] Creating Layer inception_5a/output_inception_5a/output_0_split
I0403 18:26:52.927103  6980 net.cpp:425] inception_5a/output_inception_5a/output_0_split <- inception_5a/output
I0403 18:26:52.927155  6980 net.cpp:399] inception_5a/output_inception_5a/output_0_split -> inception_5a/output_inception_5a/output_0_split_0
I0403 18:26:52.927204  6980 net.cpp:399] inception_5a/output_inception_5a/output_0_split -> inception_5a/output_inception_5a/output_0_split_1
I0403 18:26:52.927245  6980 net.cpp:399] inception_5a/output_inception_5a/output_0_split -> inception_5a/output_inception_5a/output_0_split_2
I0403 18:26:52.927271  6980 net.cpp:399] inception_5a/output_inception_5a/output_0_split -> inception_5a/output_inception_5a/output_0_split_3
I0403 18:26:52.927415  6980 net.cpp:141] Setting up inception_5a/output_inception_5a/output_0_split
I0403 18:26:52.927453  6980 net.cpp:148] Top shape: 24 832 7 7 (978432)
I0403 18:26:52.927479  6980 net.cpp:148] Top shape: 24 832 7 7 (978432)
I0403 18:26:52.927496  6980 net.cpp:148] Top shape: 24 832 7 7 (978432)
I0403 18:26:52.927513  6980 net.cpp:148] Top shape: 24 832 7 7 (978432)
I0403 18:26:52.927541  6980 net.cpp:156] Memory required for data: 1325241888
I0403 18:26:52.927570  6980 layer_factory.hpp:77] Creating layer inception_5b/1x1
I0403 18:26:52.927603  6980 net.cpp:91] Creating Layer inception_5b/1x1
I0403 18:26:52.927623  6980 net.cpp:425] inception_5b/1x1 <- inception_5a/output_inception_5a/output_0_split_0
I0403 18:26:52.927661  6980 net.cpp:399] inception_5b/1x1 -> inception_5b/1x1
I0403 18:26:52.932238  6980 net.cpp:141] Setting up inception_5b/1x1
I0403 18:26:52.932301  6980 net.cpp:148] Top shape: 24 384 7 7 (451584)
I0403 18:26:52.932332  6980 net.cpp:156] Memory required for data: 1327048224
I0403 18:26:52.932401  6980 layer_factory.hpp:77] Creating layer inception_5b/relu_1x1
I0403 18:26:52.932430  6980 net.cpp:91] Creating Layer inception_5b/relu_1x1
I0403 18:26:52.932449  6980 net.cpp:425] inception_5b/relu_1x1 <- inception_5b/1x1
I0403 18:26:52.932471  6980 net.cpp:386] inception_5b/relu_1x1 -> inception_5b/1x1 (in-place)
I0403 18:26:52.932862  6980 net.cpp:141] Setting up inception_5b/relu_1x1
I0403 18:26:52.932912  6980 net.cpp:148] Top shape: 24 384 7 7 (451584)
I0403 18:26:52.932939  6980 net.cpp:156] Memory required for data: 1328854560
I0403 18:26:52.932957  6980 layer_factory.hpp:77] Creating layer inception_5b/3x3_reduce
I0403 18:26:52.932984  6980 net.cpp:91] Creating Layer inception_5b/3x3_reduce
I0403 18:26:52.933032  6980 net.cpp:425] inception_5b/3x3_reduce <- inception_5a/output_inception_5a/output_0_split_1
I0403 18:26:52.933059  6980 net.cpp:399] inception_5b/3x3_reduce -> inception_5b/3x3_reduce
I0403 18:26:52.936398  6980 net.cpp:141] Setting up inception_5b/3x3_reduce
I0403 18:26:52.936441  6980 net.cpp:148] Top shape: 24 192 7 7 (225792)
I0403 18:26:52.936507  6980 net.cpp:156] Memory required for data: 1329757728
I0403 18:26:52.936538  6980 layer_factory.hpp:77] Creating layer inception_5b/relu_3x3_reduce
I0403 18:26:52.936578  6980 net.cpp:91] Creating Layer inception_5b/relu_3x3_reduce
I0403 18:26:52.936604  6980 net.cpp:425] inception_5b/relu_3x3_reduce <- inception_5b/3x3_reduce
I0403 18:26:52.936642  6980 net.cpp:386] inception_5b/relu_3x3_reduce -> inception_5b/3x3_reduce (in-place)
I0403 18:26:52.936890  6980 net.cpp:141] Setting up inception_5b/relu_3x3_reduce
I0403 18:26:52.936918  6980 net.cpp:148] Top shape: 24 192 7 7 (225792)
I0403 18:26:52.936938  6980 net.cpp:156] Memory required for data: 1330660896
I0403 18:26:52.936955  6980 layer_factory.hpp:77] Creating layer inception_5b/3x3
I0403 18:26:52.936990  6980 net.cpp:91] Creating Layer inception_5b/3x3
I0403 18:26:52.937032  6980 net.cpp:425] inception_5b/3x3 <- inception_5b/3x3_reduce
I0403 18:26:52.937096  6980 net.cpp:399] inception_5b/3x3 -> inception_5b/3x3
I0403 18:26:52.945395  6980 net.cpp:141] Setting up inception_5b/3x3
I0403 18:26:52.945446  6980 net.cpp:148] Top shape: 24 384 7 7 (451584)
I0403 18:26:52.945466  6980 net.cpp:156] Memory required for data: 1332467232
I0403 18:26:52.945487  6980 layer_factory.hpp:77] Creating layer inception_5b/relu_3x3
I0403 18:26:52.945519  6980 net.cpp:91] Creating Layer inception_5b/relu_3x3
I0403 18:26:52.945544  6980 net.cpp:425] inception_5b/relu_3x3 <- inception_5b/3x3
I0403 18:26:52.945574  6980 net.cpp:386] inception_5b/relu_3x3 -> inception_5b/3x3 (in-place)
I0403 18:26:52.945936  6980 net.cpp:141] Setting up inception_5b/relu_3x3
I0403 18:26:52.945977  6980 net.cpp:148] Top shape: 24 384 7 7 (451584)
I0403 18:26:52.946004  6980 net.cpp:156] Memory required for data: 1334273568
I0403 18:26:52.946069  6980 layer_factory.hpp:77] Creating layer inception_5b/5x5_reduce
I0403 18:26:52.946147  6980 net.cpp:91] Creating Layer inception_5b/5x5_reduce
I0403 18:26:52.946171  6980 net.cpp:425] inception_5b/5x5_reduce <- inception_5a/output_inception_5a/output_0_split_2
I0403 18:26:52.946223  6980 net.cpp:399] inception_5b/5x5_reduce -> inception_5b/5x5_reduce
I0403 18:26:52.947861  6980 net.cpp:141] Setting up inception_5b/5x5_reduce
I0403 18:26:52.947896  6980 net.cpp:148] Top shape: 24 48 7 7 (56448)
I0403 18:26:52.947927  6980 net.cpp:156] Memory required for data: 1334499360
I0403 18:26:52.947952  6980 layer_factory.hpp:77] Creating layer inception_5b/relu_5x5_reduce
I0403 18:26:52.947973  6980 net.cpp:91] Creating Layer inception_5b/relu_5x5_reduce
I0403 18:26:52.947999  6980 net.cpp:425] inception_5b/relu_5x5_reduce <- inception_5b/5x5_reduce
I0403 18:26:52.948042  6980 net.cpp:386] inception_5b/relu_5x5_reduce -> inception_5b/5x5_reduce (in-place)
I0403 18:26:52.948597  6980 net.cpp:141] Setting up inception_5b/relu_5x5_reduce
I0403 18:26:52.948627  6980 net.cpp:148] Top shape: 24 48 7 7 (56448)
I0403 18:26:52.948662  6980 net.cpp:156] Memory required for data: 1334725152
I0403 18:26:52.948683  6980 layer_factory.hpp:77] Creating layer inception_5b/5x5
I0403 18:26:52.948707  6980 net.cpp:91] Creating Layer inception_5b/5x5
I0403 18:26:52.948740  6980 net.cpp:425] inception_5b/5x5 <- inception_5b/5x5_reduce
I0403 18:26:52.948761  6980 net.cpp:399] inception_5b/5x5 -> inception_5b/5x5
I0403 18:26:52.951357  6980 net.cpp:141] Setting up inception_5b/5x5
I0403 18:26:52.951388  6980 net.cpp:148] Top shape: 24 128 7 7 (150528)
I0403 18:26:52.951406  6980 net.cpp:156] Memory required for data: 1335327264
I0403 18:26:52.951426  6980 layer_factory.hpp:77] Creating layer inception_5b/relu_5x5
I0403 18:26:52.951464  6980 net.cpp:91] Creating Layer inception_5b/relu_5x5
I0403 18:26:52.951498  6980 net.cpp:425] inception_5b/relu_5x5 <- inception_5b/5x5
I0403 18:26:52.951535  6980 net.cpp:386] inception_5b/relu_5x5 -> inception_5b/5x5 (in-place)
I0403 18:26:52.951804  6980 net.cpp:141] Setting up inception_5b/relu_5x5
I0403 18:26:52.951846  6980 net.cpp:148] Top shape: 24 128 7 7 (150528)
I0403 18:26:52.951871  6980 net.cpp:156] Memory required for data: 1335929376
I0403 18:26:52.951906  6980 layer_factory.hpp:77] Creating layer inception_5b/pool
I0403 18:26:52.951930  6980 net.cpp:91] Creating Layer inception_5b/pool
I0403 18:26:52.951947  6980 net.cpp:425] inception_5b/pool <- inception_5a/output_inception_5a/output_0_split_3
I0403 18:26:52.951967  6980 net.cpp:399] inception_5b/pool -> inception_5b/pool
I0403 18:26:52.952049  6980 net.cpp:141] Setting up inception_5b/pool
I0403 18:26:52.952085  6980 net.cpp:148] Top shape: 24 832 7 7 (978432)
I0403 18:26:52.952117  6980 net.cpp:156] Memory required for data: 1339843104
I0403 18:26:52.952138  6980 layer_factory.hpp:77] Creating layer inception_5b/pool_proj
I0403 18:26:52.952168  6980 net.cpp:91] Creating Layer inception_5b/pool_proj
I0403 18:26:52.952232  6980 net.cpp:425] inception_5b/pool_proj <- inception_5b/pool
I0403 18:26:52.952281  6980 net.cpp:399] inception_5b/pool_proj -> inception_5b/pool_proj
I0403 18:26:52.955134  6980 net.cpp:141] Setting up inception_5b/pool_proj
I0403 18:26:52.955198  6980 net.cpp:148] Top shape: 24 128 7 7 (150528)
I0403 18:26:52.955250  6980 net.cpp:156] Memory required for data: 1340445216
I0403 18:26:52.955296  6980 layer_factory.hpp:77] Creating layer inception_5b/relu_pool_proj
I0403 18:26:52.955328  6980 net.cpp:91] Creating Layer inception_5b/relu_pool_proj
I0403 18:26:52.955348  6980 net.cpp:425] inception_5b/relu_pool_proj <- inception_5b/pool_proj
I0403 18:26:52.955395  6980 net.cpp:386] inception_5b/relu_pool_proj -> inception_5b/pool_proj (in-place)
I0403 18:26:52.955765  6980 net.cpp:141] Setting up inception_5b/relu_pool_proj
I0403 18:26:52.955823  6980 net.cpp:148] Top shape: 24 128 7 7 (150528)
I0403 18:26:52.955870  6980 net.cpp:156] Memory required for data: 1341047328
I0403 18:26:52.955891  6980 layer_factory.hpp:77] Creating layer inception_5b/output
I0403 18:26:52.955911  6980 net.cpp:91] Creating Layer inception_5b/output
I0403 18:26:52.955968  6980 net.cpp:425] inception_5b/output <- inception_5b/1x1
I0403 18:26:52.955989  6980 net.cpp:425] inception_5b/output <- inception_5b/3x3
I0403 18:26:52.956029  6980 net.cpp:425] inception_5b/output <- inception_5b/5x5
I0403 18:26:52.956071  6980 net.cpp:425] inception_5b/output <- inception_5b/pool_proj
I0403 18:26:52.956115  6980 net.cpp:399] inception_5b/output -> inception_5b/output
I0403 18:26:52.956204  6980 net.cpp:141] Setting up inception_5b/output
I0403 18:26:52.956234  6980 net.cpp:148] Top shape: 24 1024 7 7 (1204224)
I0403 18:26:52.956253  6980 net.cpp:156] Memory required for data: 1345864224
I0403 18:26:52.956269  6980 layer_factory.hpp:77] Creating layer pool5/7x7_s1
I0403 18:26:52.956289  6980 net.cpp:91] Creating Layer pool5/7x7_s1
I0403 18:26:52.956307  6980 net.cpp:425] pool5/7x7_s1 <- inception_5b/output
I0403 18:26:52.956358  6980 net.cpp:399] pool5/7x7_s1 -> pool5/7x7_s1
I0403 18:26:52.956640  6980 net.cpp:141] Setting up pool5/7x7_s1
I0403 18:26:52.956678  6980 net.cpp:148] Top shape: 24 1024 1 1 (24576)
I0403 18:26:52.956734  6980 net.cpp:156] Memory required for data: 1345962528
I0403 18:26:52.956766  6980 layer_factory.hpp:77] Creating layer pool5/drop_7x7_s1
I0403 18:26:52.956800  6980 net.cpp:91] Creating Layer pool5/drop_7x7_s1
I0403 18:26:52.956851  6980 net.cpp:425] pool5/drop_7x7_s1 <- pool5/7x7_s1
I0403 18:26:52.956881  6980 net.cpp:386] pool5/drop_7x7_s1 -> pool5/7x7_s1 (in-place)
I0403 18:26:52.956954  6980 net.cpp:141] Setting up pool5/drop_7x7_s1
I0403 18:26:52.956990  6980 net.cpp:148] Top shape: 24 1024 1 1 (24576)
I0403 18:26:52.957012  6980 net.cpp:156] Memory required for data: 1346060832
I0403 18:26:52.957036  6980 layer_factory.hpp:77] Creating layer loss3/classifier_plantvillage
I0403 18:26:52.957059  6980 net.cpp:91] Creating Layer loss3/classifier_plantvillage
I0403 18:26:52.957077  6980 net.cpp:425] loss3/classifier_plantvillage <- pool5/7x7_s1
I0403 18:26:52.957113  6980 net.cpp:399] loss3/classifier_plantvillage -> loss3/classifier_plantvillage
I0403 18:26:52.957660  6980 net.cpp:141] Setting up loss3/classifier_plantvillage
I0403 18:26:52.957691  6980 net.cpp:148] Top shape: 24 38 (912)
I0403 18:26:52.957707  6980 net.cpp:156] Memory required for data: 1346064480
I0403 18:26:52.957764  6980 layer_factory.hpp:77] Creating layer loss3/classifier_plantvillage_loss3/classifier_plantvillage_0_split
I0403 18:26:52.957792  6980 net.cpp:91] Creating Layer loss3/classifier_plantvillage_loss3/classifier_plantvillage_0_split
I0403 18:26:52.957809  6980 net.cpp:425] loss3/classifier_plantvillage_loss3/classifier_plantvillage_0_split <- loss3/classifier_plantvillage
I0403 18:26:52.957841  6980 net.cpp:399] loss3/classifier_plantvillage_loss3/classifier_plantvillage_0_split -> loss3/classifier_plantvillage_loss3/classifier_plantvillage_0_split_0
I0403 18:26:52.957880  6980 net.cpp:399] loss3/classifier_plantvillage_loss3/classifier_plantvillage_0_split -> loss3/classifier_plantvillage_loss3/classifier_plantvillage_0_split_1
I0403 18:26:52.957916  6980 net.cpp:399] loss3/classifier_plantvillage_loss3/classifier_plantvillage_0_split -> loss3/classifier_plantvillage_loss3/classifier_plantvillage_0_split_2
I0403 18:26:52.957939  6980 net.cpp:399] loss3/classifier_plantvillage_loss3/classifier_plantvillage_0_split -> loss3/classifier_plantvillage_loss3/classifier_plantvillage_0_split_3
I0403 18:26:52.958061  6980 net.cpp:141] Setting up loss3/classifier_plantvillage_loss3/classifier_plantvillage_0_split
I0403 18:26:52.958123  6980 net.cpp:148] Top shape: 24 38 (912)
I0403 18:26:52.958154  6980 net.cpp:148] Top shape: 24 38 (912)
I0403 18:26:52.958199  6980 net.cpp:148] Top shape: 24 38 (912)
I0403 18:26:52.958261  6980 net.cpp:148] Top shape: 24 38 (912)
I0403 18:26:52.958297  6980 net.cpp:156] Memory required for data: 1346079072
I0403 18:26:52.958348  6980 layer_factory.hpp:77] Creating layer loss1/loss
I0403 18:26:52.958411  6980 net.cpp:91] Creating Layer loss1/loss
I0403 18:26:52.958456  6980 net.cpp:425] loss1/loss <- loss1/classifier_plantvillage_loss1/classifier_plantvillage_0_split_0
I0403 18:26:52.958501  6980 net.cpp:425] loss1/loss <- label_data_1_split_0
…
