…
I0403 17:56:58.491878  6328 net.cpp:313] The NetState phase (1) differed from the phase (0) specified by a rule in layer data
I0403 17:56:58.493090  6328 net.cpp:49] Initializing net from parameters: 
state {
  phase: TEST
}
layer {
  name: "data"
  type: "Data"
  top: "data"
  top: "label"
  include {
    phase: TEST
  }
  transform_param {
    mirror: false
    crop_size: 224
    mean_file: "/home/mohanty/data/final_dataset/lmdb/segmented-50-50/mean.binaryproto"
  }
  data_param {
    source: "/home/mohanty/data/final_dataset/lmdb/segmented-50-50/test_db"
    batch_size: 24
    backend: LMDB
  }
}
layer {
  name: "conv1/7x7_s2"
  type: "Convolution"
  bottom: "data"
  top: "conv1/7x7_s2"
  param {
    lr_mult: 1
    decay_mult: 1
  }
  param {
    lr_mult: 2
    decay_mult: 0
  }
  convolution_param {
    num_output: 64
    pad: 3
    kernel_size: 7
    stride: 2
    weight_filler {
      type: "xavier"
      std: 0.1
    }
    bias_filler {
      type: "constant"
      value: 0.2
    }
  }
}
layer {
  name: "conv1/relu_7x7"
  type: "ReLU"
  bottom: "conv1/7x7_s2"
  top: "conv1/7x7_s2"
}
layer {
  name: "pool1/3x3_s2"
  type: "Pooling"
  bottom: "conv1/7x7_s2"
  top: "pool1/3x3_s2"
  pooling_param {
    pool: MAX
    kernel_size: 3
    stride: 2
  }
}
layer {
  name: "pool1/norm1"
  type: "LRN"
  bottom: "pool1/3x3_s2"
  top: "pool1/norm1"
  lrn_param {
    local_size: 5
    alpha: 0.0001
    beta: 0.75
  }
}
layer {
  name: "conv2/3x3_reduce"
  type: "Convolution"
  bottom: "pool1/norm1"
  top: "conv2/3x3_reduce"
  param {
    lr_mult: 1
    decay_mult: 1
  }
  param {
    lr_mult: 2
    decay_mult: 0
  }
  convolution_param {
    num_output: 64
    kernel_size: 1
    weight_filler {
      type: "xavier"
      std: 0.1
    }
    bias_filler {
      type: "constant"
      value: 0.2
    }
  }
}
layer {
  name: "conv2/relu_3x3_reduce"
  type: "ReLU"
  bottom: "conv2/3x3_reduce"
  top: "conv2/3x3_reduce"
}
layer {
  name: "conv2/3x3"
  type: "Convolution"
  bottom: "conv2/3x3_reduce"
  top: "conv2/3x3"
  param {
    lr_mult: 1
    decay_mult: 1
  }
  param {
    lr_mult: 2
    decay_mult: 0
  }
  convolution_param {
    num_output: 192
    pad: 1
    kernel_size: 3
    weight_filler {
      type: "xavier"
      std: 0.03
    }
    bias_filler {
      type: "constant"
      value: 0.2
    }
  }
}
layer {
  name: "conv2/relu_3x3"
  type: "ReLU"
  bottom: "conv2/3x3"
  top: "conv2/3x3"
}
layer {
  name: "conv2/norm2"
  type: "LRN"
  bottom: "conv2/3x3"
  top: "conv2/norm2"
  lrn_param {
    local_size: 5
    alpha: 0.0001
    beta: 0.75
  }
}
layer {
  name: "pool2/3x3_s2"
  type: "Pooling"
  bottom: "conv2/norm2"
  top: "pool2/3x3_s2"
  pooling_param {
    pool: MAX
    kernel_size: 3
    stride: 2
  }
}
layer {
  name: "inception_3a/1x1"
  type: "Convolution"
  bottom: "pool2/3x3_s2"
  top: "inception_3a/1x1"
  param {
    lr_mult: 1
    decay_mult: 1
  }
  param {
    lr_mult: 2
    decay_mult: 0
  }
  convolution_param {
    num_output: 64
    kernel_size: 1
    weight_filler {
      type: "xavier"
      std: 0.03
    }
    bias_filler {
      type: "constant"
      value: 0.2
    }
  }
}
layer {
  name: "inception_3a/relu_1x1"
  type: "ReLU"
  bottom: "inception_3a/1x1"
  top: "inception_3a/1x1"
}
layer {
  name: "inception_3a/3x3_reduce"
  type: "Convolution"
  bottom: "pool2/3x3_s2"
  top: "inception_3a/3x3_reduce"
  param {
    lr_mult: 1
    decay_mult: 1
  }
  param {
    lr_mult: 2
    decay_mult: 0
  }
  convolution_param {
    num_output: 96
    kernel_size: 1
    weight_filler {
      type: "xavier"
      std: 0.09
    }
    bias_filler {
      type: "constant"
      value: 0.2
    }
  }
}
layer {
  name: "inception_3a/relu_3x3_reduce"
  type: "ReLU"
  bottom: "inception_3a/3x3_reduce"
  top: "inception_3a/3x3_reduce"
}
layer {
  name: "inception_3a/3x3"
  type: "Convolution"
  bottom: "inception_3a/3x3_reduce"
  top: "inception_3a/3x3"
  param {
    lr_mult: 1
    decay_mult: 1
  }
  param {
    lr_mult: 2
    decay_mult: 0
  }
  convolution_param {
    num_output: 128
    pad: 1
    kernel_size: 3
    weight_filler {
      type: "xavier"
      std: 0.03
    }
    bias_filler {
      type: "constant"
      value: 0.2
    }
  }
}
layer {
  name: "inception_3a/relu_3x3"
  type: "ReLU"
  bottom: "inception_3a/3x3"
  top: "inception_3a/3x3"
}
layer {
  name: "inception_3a/5x5_reduce"
  type: "Convolution"
  bottom: "pool2/3x3_s2"
  top: "inception_3a/5x5_reduce"
  param {
    lr_mult: 1
    decay_mult: 1
  }
  param {
    lr_mult: 2
    decay_mult: 0
  }
  convolution_param {
    num_output: 16
    kernel_size: 1
    weight_filler {
      type: "xavier"
      std: 0.2
    }
    bias_filler {
      type: "constant"
      value: 0.2
    }
  }
}
layer {
  name: "inception_3a/relu_5x5_reduce"
  type: "ReLU"
  bottom: "inception_3a/5x5_reduce"
  top: "inception_3a/5x5_reduce"
}
layer {
  name: "inception_3a/5x5"
  type: "Convolution"
  bottom: "inception_3a/5x5_reduce"
  top: "inception_3a/5x5"
  param {
    lr_mult: 1
    decay_mult: 1
  }
  param {
    lr_mult: 2
    decay_mult: 0
  }
  convolution_param {
    num_output: 32
    pad: 2
    kernel_size: 5
    weight_filler {
      type: "xavier"
      std: 0.03
    }
    bias_filler {
      type: "constant"
      value: 0.2
    }
  }
}
layer {
  name: "inception_3a/relu_5x5"
  type: "ReLU"
  bottom: "inception_3a/5x5"
  top: "inception_3a/5x5"
}
layer {
  name: "inception_3a/pool"
  type: "Pooling"
  bottom: "pool2/3x3_s2"
  top: "inception_3a/pool"
  pooling_param {
    pool: MAX
    kernel_size: 3
    stride: 1
    pad: 1
  }
}
layer {
  name: "inception_3a/pool_proj"
  type: "Convolution"
  bottom: "inception_3a/pool"
  top: "inception_3a/pool_proj"
  param {
    lr_mult: 1
    decay_mult: 1
  }
  param {
    lr_mult: 2
    decay_mult: 0
  }
  convolution_param {
    num_output: 32
    kernel_size: 1
    weight_filler {
      type: "xavier"
      std: 0.1
    }
    bias_filler {
      type: "constant"
      value: 0.2
    }
  }
}
layer {
  name: "inception_3a/relu_pool_proj"
  type: "ReLU"
  bottom: "inception_3a/pool_proj"
  top: "inception_3a/pool_proj"
}
layer {
  name: "inception_3a/output"
  type: "Concat"
  bottom: "inception_3a/1x1"
  bottom: "inception_3a/3x3"
  bottom: "inception_3a/5x5"
  bottom: "inception_3a/pool_proj"
  top: "inception_3a/output"
}
layer {
  name: "inception_3b/1x1"
  type: "Convolution"
  bottom: "inception_3a/output"
  top: "inception_3b/1x1"
  param {
    lr_mult: 1
    decay_mult: 1
  }
  param {
    lr_mult: 2
    decay_mult: 0
  }
  convolution_param {
    num_output: 128
    kernel_size: 1
    weight_filler {
      type: "xavier"
      std: 0.03
    }
    bias_filler {
      type: "constant"
      value: 0.2
    }
  }
}
layer {
  name: "inception_3b/relu_1x1"
  type: "ReLU"
  bottom: "inception_3b/1x1"
  top: "inception_3b/1x1"
}
layer {
  name: "inception_3b/3x3_reduce"
  type: "Convolution"
  bottom: "inception_3a/output"
  top: "inception_3b/3x3_reduce"
  param {
    lr_mult: 1
    decay_mult: 1
  }
  param {
    lr_mult: 2
    decay_mult: 0
  }
  convolution_param {
    num_output: 128
    kernel_size: 1
    weight_filler {
      type: "xavier"
      std: 0.09
    }
    bias_filler {
      type: "constant"
      value: 0.2
    }
  }
}
layer {
  name: "inception_3b/relu_3x3_reduce"
  type: "ReLU"
  bottom: "inception_3b/3x3_reduce"
  top: "inception_3b/3x3_reduce"
}
layer {
  name: "inception_3b/3x3"
  type: "Convolution"
  bottom: "inception_3b/3x3_reduce"
  top: "inception_3b/3x3"
  param {
    lr_mult: 1
    decay_mult: 1
  }
  param {
    lr_mult: 2
    decay_mult: 0
  }
  convolution_param {
    num_output: 192
    pad: 1
    kernel_size: 3
    weight_filler {
      type: "xavier"
      std: 0.03
    }
    bias_filler {
      type: "constant"
      value: 0.2
    }
  }
}
layer {
  name: "inception_3b/relu_3x3"
  type: "ReLU"
  bottom: "inception_3b/3x3"
  top: "inception_3b/3x3"
}
layer {
  name: "inception_3b/5x5_reduce"
  type: "Convolution"
  bottom: "inception_3a/output"
  top: "inception_3b/5x5_reduce"
  param {
    lr_mult: 1
    decay_mult: 1
  }
  param {
    lr_mult: 2
    decay_mult: 0
  }
  convolution_param {
    num_output: 32
    kernel_size: 1
    weight_filler {
      type: "xavier"
      std: 0.2
    }
    bias_filler {
      type: "constant"
      value: 0.2
    }
  }
}
layer {
  name: "inception_3b/relu_5x5_reduce"
  type: "ReLU"
  bottom: "inception_3b/5x5_reduce"
  top: "inception_3b/5x5_reduce"
}
layer {
  name: "inception_3b/5x5"
  type: "Convolution"
  bottom: "inception_3b/5x5_reduce"
  top: "inception_3b/5x5"
  param {
    lr_mult: 1
    decay_mult: 1
  }
  param {
    lr_mult: 2
    decay_mult: 0
  }
  convolution_param {
    num_output: 96
    pad: 2
    kernel_size: 5
    weight_filler {
      type: "xavier"
      std: 0.03
    }
    bias_filler {
      type: "constant"
      value: 0.2
    }
  }
}
layer {
  name: "inception_3b/relu_5x5"
  type: "ReLU"
  bottom: "inception_3b/5x5"
  top: "inception_3b/5x5"
}
layer {
  name: "inception_3b/pool"
  type: "Pooling"
  bottom: "inception_3a/output"
  top: "inception_3b/pool"
  pooling_param {
    pool: MAX
    kernel_size: 3
    stride: 1
    pad: 1
  }
}
layer {
  name: "inception_3b/pool_proj"
  type: "Convolution"
  bottom: "inception_3b/pool"
  top: "inception_3b/pool_proj"
  param {
    lr_mult: 1
    decay_mult: 1
  }
  param {
    lr_mult: 2
    decay_mult: 0
  }
  convolution_param {
    num_output: 64
    kernel_size: 1
    weight_filler {
      type: "xavier"
      std: 0.1
    }
    bias_filler {
      type: "constant"
      value: 0.2
    }
  }
}
layer {
  name: "inception_3b/relu_pool_proj"
  type: "ReLU"
  bottom: "inception_3b/pool_proj"
  top: "inception_3b/pool_proj"
}
layer {
  name: "inception_3b/output"
  type: "Concat"
  bottom: "inception_3b/1x1"
  bottom: "inception_3b/3x3"
  bottom: "inception_3b/5x5"
  bottom: "inception_3b/pool_proj"
  top: "inception_3b/output"
}
layer {
  name: "pool3/3x3_s2"
  type: "Pooling"
  bottom: "inception_3b/output"
  top: "pool3/3x3_s2"
  pooling_param {
    pool: MAX
    kernel_size: 3
    stride: 2
  }
}
layer {
  name: "inception_4a/1x1"
  type: "Convolution"
  bottom: "pool3/3x3_s2"
  top: "inception_4a/1x1"
  param {
    lr_mult: 1
    decay_mult: 1
  }
  param {
    lr_mult: 2
    decay_mult: 0
  }
  convolution_param {
    num_output: 192
    kernel_size: 1
    weight_filler {
      type: "xavier"
      std: 0.03
    }
    bias_filler {
      type: "constant"
      value: 0.2
    }
  }
}
layer {
  name: "inception_4a/relu_1x1"
  type: "ReLU"
  bottom: "inception_4a/1x1"
  top: "inception_4a/1x1"
}
layer {
  name: "inception_4a/3x3_reduce"
  type: "Convolution"
  bottom: "pool3/3x3_s2"
  top: "inception_4a/3x3_reduce"
  param {
    lr_mult: 1
    decay_mult: 1
  }
  param {
    lr_mult: 2
    decay_mult: 0
  }
  convolution_param {
    num_output: 96
    kernel_size: 1
    weight_filler {
      type: "xavier"
      std: 0.09
    }
    bias_filler {
      type: "constant"
      value: 0.2
    }
  }
}
layer {
  name: "inception_4a/relu_3x3_reduce"
  type: "ReLU"
  bottom: "inception_4a/3x3_reduce"
  top: "inception_4a/3x3_reduce"
}
layer {
  name: "inception_4a/3x3"
  type: "Convolution"
  bottom: "inception_4a/3x3_reduce"
  top: "inception_4a/3x3"
  param {
    lr_mult: 1
    decay_mult: 1
  }
  param {
    lr_mult: 2
    decay_mult: 0
  }
  convolution_param {
    num_output: 208
    pad: 1
    kernel_size: 3
    weight_filler {
      type: "xavier"
      std: 0.03
    }
    bias_filler {
      type: "constant"
      value: 0.2
    }
  }
}
layer {
  name: "inception_4a/relu_3x3"
  type: "ReLU"
  bottom: "inception_4a/3x3"
  top: "inception_4a/3x3"
}
layer {
  name: "inception_4a/5x5_reduce"
  type: "Convolution"
  bottom: "pool3/3x3_s2"
  top: "inception_4a/5x5_reduce"
  param {
    lr_mult: 1
    decay_mult: 1
  }
  param {
    lr_mult: 2
    decay_mult: 0
  }
  convolution_param {
    num_output: 16
    kernel_size: 1
    weight_filler {
      type: "xavier"
      std: 0.2
    }
    bias_filler {
      type: "constant"
      value: 0.2
    }
  }
}
layer {
  name: "inception_4a/relu_5x5_reduce"
  type: "ReLU"
  bottom: "inception_4a/5x5_reduce"
  top: "inception_4a/5x5_reduce"
}
layer {
  name: "inception_4a/5x5"
  type: "Convolution"
  bottom: "inception_4a/5x5_reduce"
  top: "inception_4a/5x5"
  param {
    lr_mult: 1
    decay_mult: 1
  }
  param {
    lr_mult: 2
    decay_mult: 0
  }
  convolution_param {
    num_output: 48
    pad: 2
    kernel_size: 5
    weight_filler {
      type: "xavier"
      std: 0.03
    }
    bias_filler {
      type: "constant"
      value: 0.2
    }
  }
}
layer {
  name: "inception_4a/relu_5x5"
  type: "ReLU"
  bottom: "inception_4a/5x5"
  top: "inception_4a/5x5"
}
layer {
  name: "inception_4a/pool"
  type: "Pooling"
  bottom: "pool3/3x3_s2"
  top: "inception_4a/pool"
  pooling_param {
    pool: MAX
    kernel_size: 3
    stride: 1
    pad: 1
  }
}
layer {
  name: "inception_4a/pool_proj"
  type: "Convolution"
  bottom: "inception_4a/pool"
  top: "inception_4a/pool_proj"
  param {
    lr_mult: 1
    decay_mult: 1
  }
  param {
    lr_mult: 2
    decay_mult: 0
  }
  convolution_param {
    num_output: 64
    kernel_size: 1
    weight_filler {
      type: "xavier"
      std: 0.1
    }
    bias_filler {
      type: "constant"
      value: 0.2
    }
  }
}
layer {
  name: "inception_4a/relu_pool_proj"
  type: "ReLU"
  bottom: "inception_4a/pool_proj"
  top: "inception_4a/pool_proj"
}
layer {
  name: "inception_4a/output"
  type: "Concat"
  bottom: "inception_4a/1x1"
  bottom: "inception_4a/3x3"
  bottom: "inception_4a/5x5"
  bottom: "inception_4a/pool_proj"
  top: "inception_4a/output"
}
layer {
  name: "loss1/ave_pool"
  type: "Pooling"
  bottom: "inception_4a/output"
  top: "loss1/ave_pool"
  pooling_param {
    pool: AVE
    kernel_size: 5
    stride: 3
  }
}
layer {
  name: "loss1/conv"
  type: "Convolution"
  bottom: "loss1/ave_pool"
  top: "loss1/conv"
  param {
    lr_mult: 1
    decay_mult: 1
  }
  param {
    lr_mult: 2
    decay_mult: 0
  }
  convolution_param {
    num_output: 128
    kernel_size: 1
    weight_filler {
      type: "xavier"
      std: 0.08
    }
    bias_filler {
      type: "constant"
      value: 0.2
    }
  }
}
layer {
  name: "loss1/relu_conv"
  type: "ReLU"
  bottom: "loss1/conv"
  top: "loss1/conv"
}
layer {
  name: "loss1/fc"
  type: "InnerProduct"
  bottom: "loss1/conv"
  top: "loss1/fc"
  param {
    lr_mult: 1
    decay_mult: 1
  }
  param {
    lr_mult: 2
    decay_mult: 0
  }
  inner_product_param {
    num_output: 1024
    weight_filler {
      type: "xavier"
      std: 0.02
    }
    bias_filler {
      type: "constant"
      value: 0.2
    }
  }
}
layer {
  name: "loss1/relu_fc"
  type: "ReLU"
  bottom: "loss1/fc"
  top: "loss1/fc"
}
layer {
  name: "loss1/drop_fc"
  type: "Dropout"
  bottom: "loss1/fc"
  top: "loss1/fc"
  dropout_param {
    dropout_ratio: 0.7
  }
}
layer {
  name: "loss1/classifier_plantvillage"
  type: "InnerProduct"
  bottom: "loss1/fc"
  top: "loss1/classifier_plantvillage"
  param {
    lr_mult: 1
    decay_mult: 1
  }
  param {
    lr_mult: 2
    decay_mult: 0
  }
  inner_product_param {
    num_output: 38
    weight_filler {
      type: "xavier"
      std: 0.0009765625
    }
    bias_filler {
      type: "constant"
      value: 0
    }
  }
}
layer {
  name: "inception_4b/1x1"
  type: "Convolution"
  bottom: "inception_4a/output"
  top: "inception_4b/1x1"
  param {
    lr_mult: 1
    decay_mult: 1
  }
  param {
    lr_mult: 2
    decay_mult: 0
  }
  convolution_param {
    num_output: 160
    kernel_size: 1
    weight_filler {
      type: "xavier"
      std: 0.03
    }
    bias_filler {
      type: "constant"
      value: 0.2
    }
  }
}
layer {
  name: "inception_4b/relu_1x1"
  type: "ReLU"
  bottom: "inception_4b/1x1"
  top: "inception_4b/1x1"
}
layer {
  name: "inception_4b/3x3_reduce"
  type: "Convolution"
  bottom: "inception_4a/output"
  top: "inception_4b/3x3_reduce"
  param {
    lr_mult: 1
    decay_mult: 1
  }
  param {
    lr_mult: 2
    decay_mult: 0
  }
  convolution_param {
    num_output: 112
    kernel_size: 1
    weight_filler {
      type: "xavier"
      std: 0.09
    }
    bias_filler {
      type: "constant"
      value: 0.2
    }
  }
}
layer {
  name: "inception_4b/relu_3x3_reduce"
  type: "ReLU"
  bottom: "inception_4b/3x3_reduce"
  top: "inception_4b/3x3_reduce"
}
layer {
  name: "inception_4b/3x3"
  type: "Convolution"
  bottom: "inception_4b/3x3_reduce"
  top: "inception_4b/3x3"
  param {
    lr_mult: 1
    decay_mult: 1
  }
  param {
    lr_mult: 2
    decay_mult: 0
  }
  convolution_param {
    num_output: 224
    pad: 1
    kernel_size: 3
    weight_filler {
      type: "xavier"
      std: 0.03
    }
    bias_filler {
      type: "constant"
      value: 0.2
    }
  }
}
layer {
  name: "inception_4b/relu_3x3"
  type: "ReLU"
  bottom: "inception_4b/3x3"
  top: "inception_4b/3x3"
}
layer {
  name: "inception_4b/5x5_reduce"
  type: "Convolution"
  bottom: "inception_4a/output"
  top: "inception_4b/5x5_reduce"
  param {
    lr_mult: 1
    decay_mult: 1
  }
  param {
    lr_mult: 2
    decay_mult: 0
  }
  convolution_param {
    num_output: 24
    kernel_size: 1
    weight_filler {
      type: "xavier"
      std: 0.2
    }
    bias_filler {
      type: "constant"
      value: 0.2
    }
  }
}
layer {
  name: "inception_4b/relu_5x5_reduce"
  type: "ReLU"
  bottom: "inception_4b/5x5_reduce"
  top: "inception_4b/5x5_reduce"
}
layer {
  name: "inception_4b/5x5"
  type: "Convolution"
  bottom: "inception_4b/5x5_reduce"
  top: "inception_4b/5x5"
  param {
    lr_mult: 1
    decay_mult: 1
  }
  param {
    lr_mult: 2
    decay_mult: 0
  }
  convolution_param {
    num_output: 64
    pad: 2
    kernel_size: 5
    weight_filler {
      type: "xavier"
      std: 0.03
    }
    bias_filler {
      type: "constant"
      value: 0.2
    }
  }
}
layer {
  name: "inception_4b/relu_5x5"
  type: "ReLU"
  bottom: "inception_4b/5x5"
  top: "inception_4b/5x5"
}
layer {
  name: "inception_4b/pool"
  type: "Pooling"
  bottom: "inception_4a/output"
  top: "inception_4b/pool"
  pooling_param {
    pool: MAX
    kernel_size: 3
    stride: 1
    pad: 1
  }
}
layer {
  name: "inception_4b/pool_proj"
  type: "Convolution"
  bottom: "inception_4b/pool"
  top: "inception_4b/pool_proj"
  param {
    lr_mult: 1
    decay_mult: 1
  }
  param {
    lr_mult: 2
    decay_mult: 0
  }
  convolution_param {
    num_output: 64
    kernel_size: 1
    weight_filler {
      type: "xavier"
      std: 0.1
    }
    bias_filler {
      type: "constant"
      value: 0.2
    }
  }
}
layer {
  name: "inception_4b/relu_pool_proj"
  type: "ReLU"
  bottom: "inception_4b/pool_proj"
  top: "inception_4b/pool_proj"
}
layer {
  name: "inception_4b/output"
  type: "Concat"
  bottom: "inception_4b/1x1"
  bottom: "inception_4b/3x3"
  bottom: "inception_4b/5x5"
  bottom: "inception_4b/pool_proj"
  top: "inception_4b/output"
}
layer {
  name: "inception_4c/1x1"
  type: "Convolution"
  bottom: "inception_4b/output"
  top: "inception_4c/1x1"
  param {
    lr_mult: 1
    decay_mult: 1
  }
  param {
    lr_mult: 2
    decay_mult: 0
  }
  convolution_param {
    num_output: 128
    kernel_size: 1
    weight_filler {
      type: "xavier"
      std: 0.03
    }
    bias_filler {
      type: "constant"
      value: 0.2
    }
  }
}
layer {
  name: "inception_4c/relu_1x1"
  type: "ReLU"
  bottom: "inception_4c/1x1"
  top: "inception_4c/1x1"
}
layer {
  name: "inception_4c/3x3_reduce"
  type: "Convolution"
  bottom: "inception_4b/output"
  top: "inception_4c/3x3_reduce"
  param {
    lr_mult: 1
    decay_mult: 1
  }
  param {
    lr_mult: 2
    decay_mult: 0
  }
  convolution_param {
    num_output: 128
    kernel_size: 1
    weight_filler {
      type: "xavier"
      std: 0.09
    }
    bias_filler {
      type: "constant"
      value: 0.2
    }
  }
}
layer {
  name: "inception_4c/relu_3x3_reduce"
  type: "ReLU"
  bottom: "inception_4c/3x3_reduce"
  top: "inception_4c/3x3_reduce"
}
layer {
  name: "inception_4c/3x3"
  type: "Convolution"
  bottom: "inception_4c/3x3_reduce"
  top: "inception_4c/3x3"
  param {
    lr_mult: 1
    decay_mult: 1
  }
  param {
    lr_mult: 2
    decay_mult: 0
  }
  convolution_param {
    num_output: 256
    pad: 1
    kernel_size: 3
    weight_filler {
      type: "xavier"
      std: 0.03
    }
    bias_filler {
      type: "constant"
      value: 0.2
    }
  }
}
layer {
  name: "inception_4c/relu_3x3"
  type: "ReLU"
  bottom: "inception_4c/3x3"
  top: "inception_4c/3x3"
}
layer {
  name: "inception_4c/5x5_reduce"
  type: "Convolution"
  bottom: "inception_4b/output"
  top: "inception_4c/5x5_reduce"
  param {
    lr_mult: 1
    decay_mult: 1
  }
  param {
    lr_mult: 2
    decay_mult: 0
  }
  convolution_param {
    num_output: 24
    kernel_size: 1
    weight_filler {
      type: "xavier"
      std: 0.2
    }
    bias_filler {
      type: "constant"
      value: 0.2
    }
  }
}
layer {
  name: "inception_4c/relu_5x5_reduce"
  type: "ReLU"
  bottom: "inception_4c/5x5_reduce"
  top: "inception_4c/5x5_reduce"
}
layer {
  name: "inception_4c/5x5"
  type: "Convolution"
  bottom: "inception_4c/5x5_reduce"
  top: "inception_4c/5x5"
  param {
    lr_mult: 1
    decay_mult: 1
  }
  param {
    lr_mult: 2
    decay_mult: 0
  }
  convolution_param {
    num_output: 64
    pad: 2
    kernel_size: 5
    weight_filler {
      type: "xavier"
      std: 0.03
    }
    bias_filler {
      type: "constant"
      value: 0.2
    }
  }
}
layer {
  name: "inception_4c/relu_5x5"
  type: "ReLU"
  bottom: "inception_4c/5x5"
  top: "inception_4c/5x5"
}
layer {
  name: "inception_4c/pool"
  type: "Pooling"
  bottom: "inception_4b/output"
  top: "inception_4c/pool"
  pooling_param {
    pool: MAX
    kernel_size: 3
    stride: 1
    pad: 1
  }
}
layer {
  name: "inception_4c/pool_proj"
  type: "Convolution"
  bottom: "inception_4c/pool"
  top: "inception_4c/pool_proj"
  param {
    lr_mult: 1
    decay_mult: 1
  }
  param {
    lr_mult: 2
    decay_mult: 0
  }
  convolution_param {
    num_output: 64
    kernel_size: 1
    weight_filler {
      type: "xavier"
      std: 0.1
    }
    bias_filler {
      type: "constant"
      value: 0.2
    }
  }
}
layer {
  name: "inception_4c/relu_pool_proj"
  type: "ReLU"
  bottom: "inception_4c/pool_proj"
  top: "inception_4c/pool_proj"
}
layer {
  name: "inception_4c/output"
  type: "Concat"
  bottom: "inception_4c/1x1"
  bottom: "inception_4c/3x3"
  bottom: "inception_4c/5x5"
  bottom: "inception_4c/pool_proj"
  top: "inception_4c/output"
}
layer {
  name: "inception_4d/1x1"
  type: "Convolution"
  bottom: "inception_4c/output"
  top: "inception_4d/1x1"
  param {
    lr_mult: 1
    decay_mult: 1
  }
  param {
    lr_mult: 2
    decay_mult: 0
  }
  convolution_param {
    num_output: 112
    kernel_size: 1
    weight_filler {
      type: "xavier"
      std: 0.03
    }
    bias_filler {
      type: "constant"
      value: 0.2
    }
  }
}
layer {
  name: "inception_4d/relu_1x1"
  type: "ReLU"
  bottom: "inception_4d/1x1"
  top: "inception_4d/1x1"
}
layer {
  name: "inception_4d/3x3_reduce"
  type: "Convolution"
  bottom: "inception_4c/output"
  top: "inception_4d/3x3_reduce"
  param {
    lr_mult: 1
    decay_mult: 1
  }
  param {
    lr_mult: 2
    decay_mult: 0
  }
  convolution_param {
    num_output: 144
    kernel_size: 1
    weight_filler {
      type: "xavier"
      std: 0.09
    }
    bias_filler {
      type: "constant"
      value: 0.2
    }
  }
}
layer {
  name: "inception_4d/relu_3x3_reduce"
  type: "ReLU"
  bottom: "inception_4d/3x3_reduce"
  top: "inception_4d/3x3_reduce"
}
layer {
  name: "inception_4d/3x3"
  type: "Convolution"
  bottom: "inception_4d/3x3_reduce"
  top: "inception_4d/3x3"
  param {
    lr_mult: 1
    decay_mult: 1
  }
  param {
    lr_mult: 2
    decay_mult: 0
  }
  convolution_param {
    num_output: 288
    pad: 1
    kernel_size: 3
    weight_filler {
      type: "xavier"
      std: 0.03
    }
    bias_filler {
      type: "constant"
      value: 0.2
    }
  }
}
layer {
  name: "inception_4d/relu_3x3"
  type: "ReLU"
  bottom: "inception_4d/3x3"
  top: "inception_4d/3x3"
}
layer {
  name: "inception_4d/5x5_reduce"
  type: "Convolution"
  bottom: "inception_4c/output"
  top: "inception_4d/5x5_reduce"
  param {
    lr_mult: 1
    decay_mult: 1
  }
  param {
    lr_mult: 2
    decay_mult: 0
  }
  convolution_param {
    num_output: 32
    kernel_size: 1
    weight_filler {
      type: "xavier"
      std: 0.2
    }
    bias_filler {
      type: "constant"
      value: 0.2
    }
  }
}
layer {
  name: "inception_4d/relu_5x5_reduce"
  type: "ReLU"
  bottom: "inception_4d/5x5_reduce"
  top: "inception_4d/5x5_reduce"
}
layer {
  name: "inception_4d/5x5"
  type: "Convolution"
  bottom: "inception_4d/5x5_reduce"
  top: "inception_4d/5x5"
  param {
    lr_mult: 1
    decay_mult: 1
  }
  param {
    lr_mult: 2
    decay_mult: 0
  }
  convolution_param {
    num_output: 64
    pad: 2
    kernel_size: 5
    weight_filler {
      type: "xavier"
      std: 0.03
    }
    bias_filler {
      type: "constant"
      value: 0.2
    }
  }
}
layer {
  name: "inception_4d/relu_5x5"
  type: "ReLU"
  bottom: "inception_4d/5x5"
  top: "inception_4d/5x5"
}
layer {
  name: "inception_4d/pool"
  type: "Pooling"
  bottom: "inception_4c/output"
  top: "inception_4d/pool"
  pooling_param {
    pool: MAX
    kernel_size: 3
    stride: 1
    pad: 1
  }
}
layer {
  name: "inception_4d/pool_proj"
  type: "Convolution"
  bottom: "inception_4d/pool"
  top: "inception_4d/pool_proj"
  param {
    lr_mult: 1
    decay_mult: 1
  }
  param {
    lr_mult: 2
    decay_mult: 0
  }
  convolution_param {
    num_output: 64
    kernel_size: 1
    weight_filler {
      type: "xavier"
      std: 0.1
    }
    bias_filler {
      type: "constant"
      value: 0.2
    }
  }
}
layer {
  name: "inception_4d/relu_pool_proj"
  type: "ReLU"
  bottom: "inception_4d/pool_proj"
  top: "inception_4d/pool_proj"
}
layer {
  name: "inception_4d/output"
  type: "Concat"
  bottom: "inception_4d/1x1"
  bottom: "inception_4d/3x3"
  bottom: "inception_4d/5x5"
  bottom: "inception_4d/pool_proj"
  top: "inception_4d/output"
}
layer {
  name: "loss2/ave_pool"
  type: "Pooling"
  bottom: "inception_4d/output"
  top: "loss2/ave_pool"
  pooling_param {
    pool: AVE
    kernel_size: 5
    stride: 3
  }
}
layer {
  name: "loss2/conv"
  type: "Convolution"
  bottom: "loss2/ave_pool"
  top: "loss2/conv"
  param {
    lr_mult: 1
    decay_mult: 1
  }
  param {
    lr_mult: 2
    decay_mult: 0
  }
  convolution_param {
    num_output: 128
    kernel_size: 1
    weight_filler {
      type: "xavier"
      std: 0.08
    }
    bias_filler {
      type: "constant"
      value: 0.2
    }
  }
}
layer {
  name: "loss2/relu_conv"
  type: "ReLU"
  bottom: "loss2/conv"
  top: "loss2/conv"
}
layer {
  name: "loss2/fc"
  type: "InnerProduct"
  bottom: "loss2/conv"
  top: "loss2/fc"
  param {
    lr_mult: 1
    decay_mult: 1
  }
  param {
    lr_mult: 2
    decay_mult: 0
  }
  inner_product_param {
    num_output: 1024
    weight_filler {
      type: "xavier"
      std: 0.02
    }
    bias_filler {
      type: "constant"
      value: 0.2
    }
  }
}
layer {
  name: "loss2/relu_fc"
  type: "ReLU"
  bottom: "loss2/fc"
  top: "loss2/fc"
}
layer {
  name: "loss2/drop_fc"
  type: "Dropout"
  bottom: "loss2/fc"
  top: "loss2/fc"
  dropout_param {
    dropout_ratio: 0.7
  }
}
layer {
  name: "loss2/classifier_plantvillage"
  type: "InnerProduct"
  bottom: "loss2/fc"
  top: "loss2/classifier_plantvillage"
  param {
    lr_mult: 1
    decay_mult: 1
  }
  param {
    lr_mult: 2
    decay_mult: 0
  }
  inner_product_param {
    num_output: 38
    weight_filler {
      type: "xavier"
      std: 0.0009765625
    }
    bias_filler {
      type: "constant"
      value: 0
    }
  }
}
layer {
  name: "inception_4e/1x1"
  type: "Convolution"
  bottom: "inception_4d/output"
  top: "inception_4e/1x1"
  param {
    lr_mult: 1
    decay_mult: 1
  }
  param {
    lr_mult: 2
    decay_mult: 0
  }
  convolution_param {
    num_output: 256
    kernel_size: 1
    weight_filler {
      type: "xavier"
      std: 0.03
    }
    bias_filler {
      type: "constant"
      value: 0.2
    }
  }
}
layer {
  name: "inception_4e/relu_1x1"
  type: "ReLU"
  bottom: "inception_4e/1x1"
  top: "inception_4e/1x1"
}
layer {
  name: "inception_4e/3x3_reduce"
  type: "Convolution"
  bottom: "inception_4d/output"
  top: "inception_4e/3x3_reduce"
  param {
    lr_mult: 1
    decay_mult: 1
  }
  param {
    lr_mult: 2
    decay_mult: 0
  }
  convolution_param {
    num_output: 160
    kernel_size: 1
    weight_filler {
      type: "xavier"
      std: 0.09
    }
    bias_filler {
      type: "constant"
      value: 0.2
    }
  }
}
layer {
  name: "inception_4e/relu_3x3_reduce"
  type: "ReLU"
  bottom: "inception_4e/3x3_reduce"
  top: "inception_4e/3x3_reduce"
}
layer {
  name: "inception_4e/3x3"
  type: "Convolution"
  bottom: "inception_4e/3x3_reduce"
  top: "inception_4e/3x3"
  param {
    lr_mult: 1
    decay_mult: 1
  }
  param {
    lr_mult: 2
    decay_mult: 0
  }
  convolution_param {
    num_output: 320
    pad: 1
    kernel_size: 3
    weight_filler {
      type: "xavier"
      std: 0.03
    }
    bias_filler {
      type: "constant"
      value: 0.2
    }
  }
}
layer {
  name: "inception_4e/relu_3x3"
  type: "ReLU"
  bottom: "inception_4e/3x3"
  top: "inception_4e/3x3"
}
layer {
  name: "inception_4e/5x5_reduce"
  type: "Convolution"
  bottom: "inception_4d/output"
  top: "inception_4e/5x5_reduce"
  param {
    lr_mult: 1
    decay_mult: 1
  }
  param {
    lr_mult: 2
    decay_mult: 0
  }
  convolution_param {
    num_output: 32
    kernel_size: 1
    weight_filler {
      type: "xavier"
      std: 0.2
    }
    bias_filler {
      type: "constant"
      value: 0.2
    }
  }
}
layer {
  name: "inception_4e/relu_5x5_reduce"
  type: "ReLU"
  bottom: "inception_4e/5x5_reduce"
  top: "inception_4e/5x5_reduce"
}
layer {
  name: "inception_4e/5x5"
  type: "Convolution"
  bottom: "inception_4e/5x5_reduce"
  top: "inception_4e/
I0403 17:56:58.494496  6328 layer_factory.hpp:77] Creating layer data
I0403 17:56:58.495110  6328 net.cpp:91] Creating Layer data
I0403 17:56:58.495142  6328 net.cpp:399] data -> data
I0403 17:56:58.495198  6328 net.cpp:399] data -> label
I0403 17:56:58.495237  6328 data_transformer.cpp:25] Loading mean file from: /home/mohanty/data/final_dataset/lmdb/segmented-50-50/mean.binaryproto
I0403 17:56:58.496486  6331 db_lmdb.cpp:38] Opened lmdb /home/mohanty/data/final_dataset/lmdb/segmented-50-50/test_db
I0403 17:56:58.508400  6328 data_layer.cpp:41] output data size: 24,3,224,224
I0403 17:56:58.536353  6328 net.cpp:141] Setting up data
I0403 17:56:58.536419  6328 net.cpp:148] Top shape: 24 3 224 224 (3612672)
I0403 17:56:58.536443  6328 net.cpp:148] Top shape: 24 (24)
I0403 17:56:58.536460  6328 net.cpp:156] Memory required for data: 14450784
I0403 17:56:58.536489  6328 layer_factory.hpp:77] Creating layer label_data_1_split
I0403 17:56:58.536516  6328 net.cpp:91] Creating Layer label_data_1_split
I0403 17:56:58.536535  6328 net.cpp:425] label_data_1_split <- label
I0403 17:56:58.536567  6328 net.cpp:399] label_data_1_split -> label_data_1_split_0
I0403 17:56:58.536597  6328 net.cpp:399] label_data_1_split -> label_data_1_split_1
I0403 17:56:58.536617  6328 net.cpp:399] label_data_1_split -> label_data_1_split_2
I0403 17:56:58.536639  6328 net.cpp:399] label_data_1_split -> label_data_1_split_3
I0403 17:56:58.536660  6328 net.cpp:399] label_data_1_split -> label_data_1_split_4
I0403 17:56:58.536680  6328 net.cpp:399] label_data_1_split -> label_data_1_split_5
I0403 17:56:58.536700  6328 net.cpp:399] label_data_1_split -> label_data_1_split_6
I0403 17:56:58.536721  6328 net.cpp:399] label_data_1_split -> label_data_1_split_7
I0403 17:56:58.536741  6328 net.cpp:399] label_data_1_split -> label_data_1_split_8
I0403 17:56:58.536762  6328 net.cpp:399] label_data_1_split -> label_data_1_split_9
I0403 17:56:58.536881  6328 net.cpp:141] Setting up label_data_1_split
I0403 17:56:58.536906  6328 net.cpp:148] Top shape: 24 (24)
I0403 17:56:58.536923  6328 net.cpp:148] Top shape: 24 (24)
I0403 17:56:58.536939  6328 net.cpp:148] Top shape: 24 (24)
I0403 17:56:58.536957  6328 net.cpp:148] Top shape: 24 (24)
I0403 17:56:58.536972  6328 net.cpp:148] Top shape: 24 (24)
I0403 17:56:58.536988  6328 net.cpp:148] Top shape: 24 (24)
I0403 17:56:58.537004  6328 net.cpp:148] Top shape: 24 (24)
I0403 17:56:58.537020  6328 net.cpp:148] Top shape: 24 (24)
I0403 17:56:58.537036  6328 net.cpp:148] Top shape: 24 (24)
I0403 17:56:58.537053  6328 net.cpp:148] Top shape: 24 (24)
I0403 17:56:58.537096  6328 net.cpp:156] Memory required for data: 14451744
I0403 17:56:58.537112  6328 layer_factory.hpp:77] Creating layer conv1/7x7_s2
I0403 17:56:58.537145  6328 net.cpp:91] Creating Layer conv1/7x7_s2
I0403 17:56:58.537164  6328 net.cpp:425] conv1/7x7_s2 <- data
I0403 17:56:58.537199  6328 net.cpp:399] conv1/7x7_s2 -> conv1/7x7_s2
I0403 17:56:58.681013  6328 net.cpp:141] Setting up conv1/7x7_s2
I0403 17:56:58.681083  6328 net.cpp:148] Top shape: 24 64 112 112 (19267584)
I0403 17:56:58.681102  6328 net.cpp:156] Memory required for data: 91522080
I0403 17:56:58.681159  6328 layer_factory.hpp:77] Creating layer conv1/relu_7x7
I0403 17:56:58.681196  6328 net.cpp:91] Creating Layer conv1/relu_7x7
I0403 17:56:58.681221  6328 net.cpp:425] conv1/relu_7x7 <- conv1/7x7_s2
I0403 17:56:58.681241  6328 net.cpp:386] conv1/relu_7x7 -> conv1/7x7_s2 (in-place)
I0403 17:56:58.681515  6328 net.cpp:141] Setting up conv1/relu_7x7
I0403 17:56:58.681545  6328 net.cpp:148] Top shape: 24 64 112 112 (19267584)
I0403 17:56:58.681562  6328 net.cpp:156] Memory required for data: 168592416
I0403 17:56:58.681579  6328 layer_factory.hpp:77] Creating layer pool1/3x3_s2
I0403 17:56:58.681607  6328 net.cpp:91] Creating Layer pool1/3x3_s2
I0403 17:56:58.681627  6328 net.cpp:425] pool1/3x3_s2 <- conv1/7x7_s2
I0403 17:56:58.681645  6328 net.cpp:399] pool1/3x3_s2 -> pool1/3x3_s2
I0403 17:56:58.681722  6328 net.cpp:141] Setting up pool1/3x3_s2
I0403 17:56:58.681749  6328 net.cpp:148] Top shape: 24 64 56 56 (4816896)
I0403 17:56:58.681766  6328 net.cpp:156] Memory required for data: 187860000
I0403 17:56:58.681782  6328 layer_factory.hpp:77] Creating layer pool1/norm1
I0403 17:56:58.681808  6328 net.cpp:91] Creating Layer pool1/norm1
I0403 17:56:58.681828  6328 net.cpp:425] pool1/norm1 <- pool1/3x3_s2
I0403 17:56:58.681848  6328 net.cpp:399] pool1/norm1 -> pool1/norm1
I0403 17:56:58.682170  6328 net.cpp:141] Setting up pool1/norm1
I0403 17:56:58.682204  6328 net.cpp:148] Top shape: 24 64 56 56 (4816896)
I0403 17:56:58.682224  6328 net.cpp:156] Memory required for data: 207127584
I0403 17:56:58.682240  6328 layer_factory.hpp:77] Creating layer conv2/3x3_reduce
I0403 17:56:58.682270  6328 net.cpp:91] Creating Layer conv2/3x3_reduce
I0403 17:56:58.682288  6328 net.cpp:425] conv2/3x3_reduce <- pool1/norm1
I0403 17:56:58.682312  6328 net.cpp:399] conv2/3x3_reduce -> conv2/3x3_reduce
I0403 17:56:58.683773  6328 net.cpp:141] Setting up conv2/3x3_reduce
I0403 17:56:58.683804  6328 net.cpp:148] Top shape: 24 64 56 56 (4816896)
I0403 17:56:58.683821  6328 net.cpp:156] Memory required for data: 226395168
I0403 17:56:58.683843  6328 layer_factory.hpp:77] Creating layer conv2/relu_3x3_reduce
I0403 17:56:58.683864  6328 net.cpp:91] Creating Layer conv2/relu_3x3_reduce
I0403 17:56:58.683881  6328 net.cpp:425] conv2/relu_3x3_reduce <- conv2/3x3_reduce
I0403 17:56:58.683898  6328 net.cpp:386] conv2/relu_3x3_reduce -> conv2/3x3_reduce (in-place)
I0403 17:56:58.684172  6328 net.cpp:141] Setting up conv2/relu_3x3_reduce
I0403 17:56:58.684206  6328 net.cpp:148] Top shape: 24 64 56 56 (4816896)
I0403 17:56:58.684222  6328 net.cpp:156] Memory required for data: 245662752
I0403 17:56:58.684237  6328 layer_factory.hpp:77] Creating layer conv2/3x3
I0403 17:56:58.684264  6328 net.cpp:91] Creating Layer conv2/3x3
I0403 17:56:58.684283  6328 net.cpp:425] conv2/3x3 <- conv2/3x3_reduce
I0403 17:56:58.684301  6328 net.cpp:399] conv2/3x3 -> conv2/3x3
I0403 17:56:58.686647  6328 net.cpp:141] Setting up conv2/3x3
I0403 17:56:58.686678  6328 net.cpp:148] Top shape: 24 192 56 56 (14450688)
I0403 17:56:58.686696  6328 net.cpp:156] Memory required for data: 303465504
I0403 17:56:58.686717  6328 layer_factory.hpp:77] Creating layer conv2/relu_3x3
I0403 17:56:58.686741  6328 net.cpp:91] Creating Layer conv2/relu_3x3
I0403 17:56:58.686760  6328 net.cpp:425] conv2/relu_3x3 <- conv2/3x3
I0403 17:56:58.686779  6328 net.cpp:386] conv2/relu_3x3 -> conv2/3x3 (in-place)
I0403 17:56:58.686959  6328 net.cpp:141] Setting up conv2/relu_3x3
I0403 17:56:58.686986  6328 net.cpp:148] Top shape: 24 192 56 56 (14450688)
I0403 17:56:58.687032  6328 net.cpp:156] Memory required for data: 361268256
I0403 17:56:58.687049  6328 layer_factory.hpp:77] Creating layer conv2/norm2
I0403 17:56:58.687068  6328 net.cpp:91] Creating Layer conv2/norm2
I0403 17:56:58.687085  6328 net.cpp:425] conv2/norm2 <- conv2/3x3
I0403 17:56:58.687105  6328 net.cpp:399] conv2/norm2 -> conv2/norm2
I0403 17:56:58.687422  6328 net.cpp:141] Setting up conv2/norm2
I0403 17:56:58.687448  6328 net.cpp:148] Top shape: 24 192 56 56 (14450688)
I0403 17:56:58.687464  6328 net.cpp:156] Memory required for data: 419071008
I0403 17:56:58.687479  6328 layer_factory.hpp:77] Creating layer pool2/3x3_s2
I0403 17:56:58.687497  6328 net.cpp:91] Creating Layer pool2/3x3_s2
I0403 17:56:58.687512  6328 net.cpp:425] pool2/3x3_s2 <- conv2/norm2
I0403 17:56:58.687532  6328 net.cpp:399] pool2/3x3_s2 -> pool2/3x3_s2
I0403 17:56:58.687587  6328 net.cpp:141] Setting up pool2/3x3_s2
I0403 17:56:58.687609  6328 net.cpp:148] Top shape: 24 192 28 28 (3612672)
I0403 17:56:58.687624  6328 net.cpp:156] Memory required for data: 433521696
I0403 17:56:58.687639  6328 layer_factory.hpp:77] Creating layer pool2/3x3_s2_pool2/3x3_s2_0_split
I0403 17:56:58.687659  6328 net.cpp:91] Creating Layer pool2/3x3_s2_pool2/3x3_s2_0_split
I0403 17:56:58.687675  6328 net.cpp:425] pool2/3x3_s2_pool2/3x3_s2_0_split <- pool2/3x3_s2
I0403 17:56:58.687695  6328 net.cpp:399] pool2/3x3_s2_pool2/3x3_s2_0_split -> pool2/3x3_s2_pool2/3x3_s2_0_split_0
I0403 17:56:58.687714  6328 net.cpp:399] pool2/3x3_s2_pool2/3x3_s2_0_split -> pool2/3x3_s2_pool2/3x3_s2_0_split_1
I0403 17:56:58.687736  6328 net.cpp:399] pool2/3x3_s2_pool2/3x3_s2_0_split -> pool2/3x3_s2_pool2/3x3_s2_0_split_2
I0403 17:56:58.687755  6328 net.cpp:399] pool2/3x3_s2_pool2/3x3_s2_0_split -> pool2/3x3_s2_pool2/3x3_s2_0_split_3
I0403 17:56:58.687825  6328 net.cpp:141] Setting up pool2/3x3_s2_pool2/3x3_s2_0_split
I0403 17:56:58.687851  6328 net.cpp:148] Top shape: 24 192 28 28 (3612672)
I0403 17:56:58.687868  6328 net.cpp:148] Top shape: 24 192 28 28 (3612672)
I0403 17:56:58.687885  6328 net.cpp:148] Top shape: 24 192 28 28 (3612672)
I0403 17:56:58.687899  6328 net.cpp:148] Top shape: 24 192 28 28 (3612672)
I0403 17:56:58.687913  6328 net.cpp:156] Memory required for data: 491324448
I0403 17:56:58.687929  6328 layer_factory.hpp:77] Creating layer inception_3a/1x1
I0403 17:56:58.687952  6328 net.cpp:91] Creating Layer inception_3a/1x1
I0403 17:56:58.687969  6328 net.cpp:425] inception_3a/1x1 <- pool2/3x3_s2_pool2/3x3_s2_0_split_0
I0403 17:56:58.687988  6328 net.cpp:399] inception_3a/1x1 -> inception_3a/1x1
I0403 17:56:58.689573  6328 net.cpp:141] Setting up inception_3a/1x1
I0403 17:56:58.689604  6328 net.cpp:148] Top shape: 24 64 28 28 (1204224)
I0403 17:56:58.689620  6328 net.cpp:156] Memory required for data: 496141344
I0403 17:56:58.689640  6328 layer_factory.hpp:77] Creating layer inception_3a/relu_1x1
I0403 17:56:58.689661  6328 net.cpp:91] Creating Layer inception_3a/relu_1x1
I0403 17:56:58.689680  6328 net.cpp:425] inception_3a/relu_1x1 <- inception_3a/1x1
I0403 17:56:58.689698  6328 net.cpp:386] inception_3a/relu_1x1 -> inception_3a/1x1 (in-place)
I0403 17:56:58.689877  6328 net.cpp:141] Setting up inception_3a/relu_1x1
I0403 17:56:58.689905  6328 net.cpp:148] Top shape: 24 64 28 28 (1204224)
I0403 17:56:58.689921  6328 net.cpp:156] Memory required for data: 500958240
I0403 17:56:58.689935  6328 layer_factory.hpp:77] Creating layer inception_3a/3x3_reduce
I0403 17:56:58.689957  6328 net.cpp:91] Creating Layer inception_3a/3x3_reduce
I0403 17:56:58.689975  6328 net.cpp:425] inception_3a/3x3_reduce <- pool2/3x3_s2_pool2/3x3_s2_0_split_1
I0403 17:56:58.689995  6328 net.cpp:399] inception_3a/3x3_reduce -> inception_3a/3x3_reduce
I0403 17:56:58.691745  6328 net.cpp:141] Setting up inception_3a/3x3_reduce
I0403 17:56:58.691777  6328 net.cpp:148] Top shape: 24 96 28 28 (1806336)
I0403 17:56:58.691793  6328 net.cpp:156] Memory required for data: 508183584
I0403 17:56:58.691817  6328 layer_factory.hpp:77] Creating layer inception_3a/relu_3x3_reduce
I0403 17:56:58.691854  6328 net.cpp:91] Creating Layer inception_3a/relu_3x3_reduce
I0403 17:56:58.691875  6328 net.cpp:425] inception_3a/relu_3x3_reduce <- inception_3a/3x3_reduce
I0403 17:56:58.691900  6328 net.cpp:386] inception_3a/relu_3x3_reduce -> inception_3a/3x3_reduce (in-place)
I0403 17:56:58.692085  6328 net.cpp:141] Setting up inception_3a/relu_3x3_reduce
I0403 17:56:58.692111  6328 net.cpp:148] Top shape: 24 96 28 28 (1806336)
I0403 17:56:58.692126  6328 net.cpp:156] Memory required for data: 515408928
I0403 17:56:58.692140  6328 layer_factory.hpp:77] Creating layer inception_3a/3x3
I0403 17:56:58.692170  6328 net.cpp:91] Creating Layer inception_3a/3x3
I0403 17:56:58.692203  6328 net.cpp:425] inception_3a/3x3 <- inception_3a/3x3_reduce
I0403 17:56:58.692227  6328 net.cpp:399] inception_3a/3x3 -> inception_3a/3x3
I0403 17:56:58.693909  6328 net.cpp:141] Setting up inception_3a/3x3
I0403 17:56:58.693941  6328 net.cpp:148] Top shape: 24 128 28 28 (2408448)
I0403 17:56:58.693960  6328 net.cpp:156] Memory required for data: 525042720
I0403 17:56:58.693979  6328 layer_factory.hpp:77] Creating layer inception_3a/relu_3x3
I0403 17:56:58.693999  6328 net.cpp:91] Creating Layer inception_3a/relu_3x3
I0403 17:56:58.694013  6328 net.cpp:425] inception_3a/relu_3x3 <- inception_3a/3x3
I0403 17:56:58.694031  6328 net.cpp:386] inception_3a/relu_3x3 -> inception_3a/3x3 (in-place)
I0403 17:56:58.694316  6328 net.cpp:141] Setting up inception_3a/relu_3x3
I0403 17:56:58.694345  6328 net.cpp:148] Top shape: 24 128 28 28 (2408448)
I0403 17:56:58.694361  6328 net.cpp:156] Memory required for data: 534676512
I0403 17:56:58.694376  6328 layer_factory.hpp:77] Creating layer inception_3a/5x5_reduce
I0403 17:56:58.694396  6328 net.cpp:91] Creating Layer inception_3a/5x5_reduce
I0403 17:56:58.694413  6328 net.cpp:425] inception_3a/5x5_reduce <- pool2/3x3_s2_pool2/3x3_s2_0_split_2
I0403 17:56:58.694435  6328 net.cpp:399] inception_3a/5x5_reduce -> inception_3a/5x5_reduce
I0403 17:56:58.695423  6328 net.cpp:141] Setting up inception_3a/5x5_reduce
I0403 17:56:58.695456  6328 net.cpp:148] Top shape: 24 16 28 28 (301056)
I0403 17:56:58.695473  6328 net.cpp:156] Memory required for data: 535880736
I0403 17:56:58.695492  6328 layer_factory.hpp:77] Creating layer inception_3a/relu_5x5_reduce
I0403 17:56:58.695510  6328 net.cpp:91] Creating Layer inception_3a/relu_5x5_reduce
I0403 17:56:58.695528  6328 net.cpp:425] inception_3a/relu_5x5_reduce <- inception_3a/5x5_reduce
I0403 17:56:58.695544  6328 net.cpp:386] inception_3a/relu_5x5_reduce -> inception_3a/5x5_reduce (in-place)
I0403 17:56:58.695853  6328 net.cpp:141] Setting up inception_3a/relu_5x5_reduce
I0403 17:56:58.695879  6328 net.cpp:148] Top shape: 24 16 28 28 (301056)
I0403 17:56:58.695894  6328 net.cpp:156] Memory required for data: 537084960
I0403 17:56:58.695910  6328 layer_factory.hpp:77] Creating layer inception_3a/5x5
I0403 17:56:58.695933  6328 net.cpp:91] Creating Layer inception_3a/5x5
I0403 17:56:58.695951  6328 net.cpp:425] inception_3a/5x5 <- inception_3a/5x5_reduce
I0403 17:56:58.695972  6328 net.cpp:399] inception_3a/5x5 -> inception_3a/5x5
I0403 17:56:58.697005  6328 net.cpp:141] Setting up inception_3a/5x5
I0403 17:56:58.697034  6328 net.cpp:148] Top shape: 24 32 28 28 (602112)
I0403 17:56:58.697051  6328 net.cpp:156] Memory required for data: 539493408
I0403 17:56:58.697069  6328 layer_factory.hpp:77] Creating layer inception_3a/relu_5x5
I0403 17:56:58.697090  6328 net.cpp:91] Creating Layer inception_3a/relu_5x5
I0403 17:56:58.697109  6328 net.cpp:425] inception_3a/relu_5x5 <- inception_3a/5x5
I0403 17:56:58.697126  6328 net.cpp:386] inception_3a/relu_5x5 -> inception_3a/5x5 (in-place)
I0403 17:56:58.697309  6328 net.cpp:141] Setting up inception_3a/relu_5x5
I0403 17:56:58.697336  6328 net.cpp:148] Top shape: 24 32 28 28 (602112)
I0403 17:56:58.697352  6328 net.cpp:156] Memory required for data: 541901856
I0403 17:56:58.697367  6328 layer_factory.hpp:77] Creating layer inception_3a/pool
I0403 17:56:58.697386  6328 net.cpp:91] Creating Layer inception_3a/pool
I0403 17:56:58.697417  6328 net.cpp:425] inception_3a/pool <- pool2/3x3_s2_pool2/3x3_s2_0_split_3
I0403 17:56:58.697438  6328 net.cpp:399] inception_3a/pool -> inception_3a/pool
I0403 17:56:58.697496  6328 net.cpp:141] Setting up inception_3a/pool
I0403 17:56:58.697520  6328 net.cpp:148] Top shape: 24 192 28 28 (3612672)
I0403 17:56:58.697535  6328 net.cpp:156] Memory required for data: 556352544
I0403 17:56:58.697551  6328 layer_factory.hpp:77] Creating layer inception_3a/pool_proj
I0403 17:56:58.697572  6328 net.cpp:91] Creating Layer inception_3a/pool_proj
I0403 17:56:58.697590  6328 net.cpp:425] inception_3a/pool_proj <- inception_3a/pool
I0403 17:56:58.697612  6328 net.cpp:399] inception_3a/pool_proj -> inception_3a/pool_proj
I0403 17:56:58.698598  6328 net.cpp:141] Setting up inception_3a/pool_proj
I0403 17:56:58.698628  6328 net.cpp:148] Top shape: 24 32 28 28 (602112)
I0403 17:56:58.698644  6328 net.cpp:156] Memory required for data: 558760992
I0403 17:56:58.698668  6328 layer_factory.hpp:77] Creating layer inception_3a/relu_pool_proj
I0403 17:56:58.698688  6328 net.cpp:91] Creating Layer inception_3a/relu_pool_proj
I0403 17:56:58.698704  6328 net.cpp:425] inception_3a/relu_pool_proj <- inception_3a/pool_proj
I0403 17:56:58.698721  6328 net.cpp:386] inception_3a/relu_pool_proj -> inception_3a/pool_proj (in-place)
I0403 17:56:58.699003  6328 net.cpp:141] Setting up inception_3a/relu_pool_proj
I0403 17:56:58.699033  6328 net.cpp:148] Top shape: 24 32 28 28 (602112)
I0403 17:56:58.699048  6328 net.cpp:156] Memory required for data: 561169440
I0403 17:56:58.699064  6328 layer_factory.hpp:77] Creating layer inception_3a/output
I0403 17:56:58.699081  6328 net.cpp:91] Creating Layer inception_3a/output
I0403 17:56:58.699096  6328 net.cpp:425] inception_3a/output <- inception_3a/1x1
I0403 17:56:58.699113  6328 net.cpp:425] inception_3a/output <- inception_3a/3x3
I0403 17:56:58.699131  6328 net.cpp:425] inception_3a/output <- inception_3a/5x5
I0403 17:56:58.699146  6328 net.cpp:425] inception_3a/output <- inception_3a/pool_proj
I0403 17:56:58.699162  6328 net.cpp:399] inception_3a/output -> inception_3a/output
I0403 17:56:58.699216  6328 net.cpp:141] Setting up inception_3a/output
I0403 17:56:58.699240  6328 net.cpp:148] Top shape: 24 256 28 28 (4816896)
I0403 17:56:58.699254  6328 net.cpp:156] Memory required for data: 580437024
I0403 17:56:58.699270  6328 layer_factory.hpp:77] Creating layer inception_3a/output_inception_3a/output_0_split
I0403 17:56:58.699286  6328 net.cpp:91] Creating Layer inception_3a/output_inception_3a/output_0_split
I0403 17:56:58.699301  6328 net.cpp:425] inception_3a/output_inception_3a/output_0_split <- inception_3a/output
I0403 17:56:58.699321  6328 net.cpp:399] inception_3a/output_inception_3a/output_0_split -> inception_3a/output_inception_3a/output_0_split_0
I0403 17:56:58.699342  6328 net.cpp:399] inception_3a/output_inception_3a/output_0_split -> inception_3a/output_inception_3a/output_0_split_1
I0403 17:56:58.699367  6328 net.cpp:399] inception_3a/output_inception_3a/output_0_split -> inception_3a/output_inception_3a/output_0_split_2
I0403 17:56:58.699388  6328 net.cpp:399] inception_3a/output_inception_3a/output_0_split -> inception_3a/output_inception_3a/output_0_split_3
I0403 17:56:58.699463  6328 net.cpp:141] Setting up inception_3a/output_inception_3a/output_0_split
I0403 17:56:58.699486  6328 net.cpp:148] Top shape: 24 256 28 28 (4816896)
I0403 17:56:58.699503  6328 net.cpp:148] Top shape: 24 256 28 28 (4816896)
I0403 17:56:58.699518  6328 net.cpp:148] Top shape: 24 256 28 28 (4816896)
I0403 17:56:58.699534  6328 net.cpp:148] Top shape: 24 256 28 28 (4816896)
I0403 17:56:58.699548  6328 net.cpp:156] Memory required for data: 657507360
I0403 17:56:58.699563  6328 layer_factory.hpp:77] Creating layer inception_3b/1x1
I0403 17:56:58.699586  6328 net.cpp:91] Creating Layer inception_3b/1x1
I0403 17:56:58.699604  6328 net.cpp:425] inception_3b/1x1 <- inception_3a/output_inception_3a/output_0_split_0
I0403 17:56:58.699625  6328 net.cpp:399] inception_3b/1x1 -> inception_3b/1x1
I0403 17:56:58.700788  6328 net.cpp:141] Setting up inception_3b/1x1
I0403 17:56:58.700829  6328 net.cpp:148] Top shape: 24 128 28 28 (2408448)
I0403 17:56:58.700847  6328 net.cpp:156] Memory required for data: 667141152
I0403 17:56:58.700866  6328 layer_factory.hpp:77] Creating layer inception_3b/relu_1x1
I0403 17:56:58.700888  6328 net.cpp:91] Creating Layer inception_3b/relu_1x1
I0403 17:56:58.700906  6328 net.cpp:425] inception_3b/relu_1x1 <- inception_3b/1x1
I0403 17:56:58.700924  6328 net.cpp:386] inception_3b/relu_1x1 -> inception_3b/1x1 (in-place)
I0403 17:56:58.701103  6328 net.cpp:141] Setting up inception_3b/relu_1x1
I0403 17:56:58.701131  6328 net.cpp:148] Top shape: 24 128 28 28 (2408448)
I0403 17:56:58.701148  6328 net.cpp:156] Memory required for data: 676774944
I0403 17:56:58.701170  6328 layer_factory.hpp:77] Creating layer inception_3b/3x3_reduce
I0403 17:56:58.701200  6328 net.cpp:91] Creating Layer inception_3b/3x3_reduce
I0403 17:56:58.701220  6328 net.cpp:425] inception_3b/3x3_reduce <- inception_3a/output_inception_3a/output_0_split_1
I0403 17:56:58.701238  6328 net.cpp:399] inception_3b/3x3_reduce -> inception_3b/3x3_reduce
I0403 17:56:58.702404  6328 net.cpp:141] Setting up inception_3b/3x3_reduce
I0403 17:56:58.702433  6328 net.cpp:148] Top shape: 24 128 28 28 (2408448)
I0403 17:56:58.702448  6328 net.cpp:156] Memory required for data: 686408736
I0403 17:56:58.702466  6328 layer_factory.hpp:77] Creating layer inception_3b/relu_3x3_reduce
I0403 17:56:58.702486  6328 net.cpp:91] Creating Layer inception_3b/relu_3x3_reduce
I0403 17:56:58.702503  6328 net.cpp:425] inception_3b/relu_3x3_reduce <- inception_3b/3x3_reduce
I0403 17:56:58.702522  6328 net.cpp:386] inception_3b/relu_3x3_reduce -> inception_3b/3x3_reduce (in-place)
I0403 17:56:58.702700  6328 net.cpp:141] Setting up inception_3b/relu_3x3_reduce
I0403 17:56:58.702726  6328 net.cpp:148] Top shape: 24 128 28 28 (2408448)
I0403 17:56:58.702741  6328 net.cpp:156] Memory required for data: 696042528
I0403 17:56:58.702760  6328 layer_factory.hpp:77] Creating layer inception_3b/3x3
I0403 17:56:58.702786  6328 net.cpp:91] Creating Layer inception_3b/3x3
I0403 17:56:58.702805  6328 net.cpp:425] inception_3b/3x3 <- inception_3b/3x3_reduce
I0403 17:56:58.702831  6328 net.cpp:399] inception_3b/3x3 -> inception_3b/3x3
I0403 17:56:58.705931  6328 net.cpp:141] Setting up inception_3b/3x3
I0403 17:56:58.705965  6328 net.cpp:148] Top shape: 24 192 28 28 (3612672)
I0403 17:56:58.705983  6328 net.cpp:156] Memory required for data: 710493216
I0403 17:56:58.706003  6328 layer_factory.hpp:77] Creating layer inception_3b/relu_3x3
I0403 17:56:58.706023  6328 net.cpp:91] Creating Layer inception_3b/relu_3x3
I0403 17:56:58.706043  6328 net.cpp:425] inception_3b/relu_3x3 <- inception_3b/3x3
I0403 17:56:58.706061  6328 net.cpp:386] inception_3b/relu_3x3 -> inception_3b/3x3 (in-place)
I0403 17:56:58.706377  6328 net.cpp:141] Setting up inception_3b/relu_3x3
I0403 17:56:58.706411  6328 net.cpp:148] Top shape: 24 192 28 28 (3612672)
I0403 17:56:58.706429  6328 net.cpp:156] Memory required for data: 724943904
I0403 17:56:58.706444  6328 layer_factory.hpp:77] Creating layer inception_3b/5x5_reduce
I0403 17:56:58.706475  6328 net.cpp:91] Creating Layer inception_3b/5x5_reduce
I0403 17:56:58.706493  6328 net.cpp:425] inception_3b/5x5_reduce <- inception_3a/output_inception_3a/output_0_split_2
I0403 17:56:58.706516  6328 net.cpp:399] inception_3b/5x5_reduce -> inception_3b/5x5_reduce
I0403 17:56:58.707574  6328 net.cpp:141] Setting up inception_3b/5x5_reduce
I0403 17:56:58.707605  6328 net.cpp:148] Top shape: 24 32 28 28 (602112)
I0403 17:56:58.707623  6328 net.cpp:156] Memory required for data: 727352352
I0403 17:56:58.707641  6328 layer_factory.hpp:77] Creating layer inception_3b/relu_5x5_reduce
I0403 17:56:58.707664  6328 net.cpp:91] Creating Layer inception_3b/relu_5x5_reduce
I0403 17:56:58.707680  6328 net.cpp:425] inception_3b/relu_5x5_reduce <- inception_3b/5x5_reduce
I0403 17:56:58.707698  6328 net.cpp:386] inception_3b/relu_5x5_reduce -> inception_3b/5x5_reduce (in-place)
I0403 17:56:58.707901  6328 net.cpp:141] Setting up inception_3b/relu_5x5_reduce
I0403 17:56:58.707929  6328 net.cpp:148] Top shape: 24 32 28 28 (602112)
I0403 17:56:58.707945  6328 net.cpp:156] Memory required for data: 729760800
I0403 17:56:58.707962  6328 layer_factory.hpp:77] Creating layer inception_3b/5x5
I0403 17:56:58.707984  6328 net.cpp:91] Creating Layer inception_3b/5x5
I0403 17:56:58.708003  6328 net.cpp:425] inception_3b/5x5 <- inception_3b/5x5_reduce
I0403 17:56:58.708021  6328 net.cpp:399] inception_3b/5x5 -> inception_3b/5x5
I0403 17:56:58.710110  6328 net.cpp:141] Setting up inception_3b/5x5
I0403 17:56:58.710142  6328 net.cpp:148] Top shape: 24 96 28 28 (1806336)
I0403 17:56:58.710160  6328 net.cpp:156] Memory required for data: 736986144
I0403 17:56:58.710188  6328 layer_factory.hpp:77] Creating layer inception_3b/relu_5x5
I0403 17:56:58.710212  6328 net.cpp:91] Creating Layer inception_3b/relu_5x5
I0403 17:56:58.710232  6328 net.cpp:425] inception_3b/relu_5x5 <- inception_3b/5x5
I0403 17:56:58.710252  6328 net.cpp:386] inception_3b/relu_5x5 -> inception_3b/5x5 (in-place)
I0403 17:56:58.710458  6328 net.cpp:141] Setting up inception_3b/relu_5x5
I0403 17:56:58.710484  6328 net.cpp:148] Top shape: 24 96 28 28 (1806336)
I0403 17:56:58.710500  6328 net.cpp:156] Memory required for data: 744211488
I0403 17:56:58.710513  6328 layer_factory.hpp:77] Creating layer inception_3b/pool
I0403 17:56:58.710533  6328 net.cpp:91] Creating Layer inception_3b/pool
I0403 17:56:58.710549  6328 net.cpp:425] inception_3b/pool <- inception_3a/output_inception_3a/output_0_split_3
I0403 17:56:58.710568  6328 net.cpp:399] inception_3b/pool -> inception_3b/pool
I0403 17:56:58.710628  6328 net.cpp:141] Setting up inception_3b/pool
I0403 17:56:58.710651  6328 net.cpp:148] Top shape: 24 256 28 28 (4816896)
I0403 17:56:58.710666  6328 net.cpp:156] Memory required for data: 763479072
I0403 17:56:58.710681  6328 layer_factory.hpp:77] Creating layer inception_3b/pool_proj
I0403 17:56:58.710705  6328 net.cpp:91] Creating Layer inception_3b/pool_proj
I0403 17:56:58.710721  6328 net.cpp:425] inception_3b/pool_proj <- inception_3b/pool
I0403 17:56:58.710743  6328 net.cpp:399] inception_3b/pool_proj -> inception_3b/pool_proj
I0403 17:56:58.711849  6328 net.cpp:141] Setting up inception_3b/pool_proj
I0403 17:56:58.711882  6328 net.cpp:148] Top shape: 24 64 28 28 (1204224)
I0403 17:56:58.711900  6328 net.cpp:156] Memory required for data: 768295968
I0403 17:56:58.711920  6328 layer_factory.hpp:77] Creating layer inception_3b/relu_pool_proj
I0403 17:56:58.711940  6328 net.cpp:91] Creating Layer inception_3b/relu_pool_proj
I0403 17:56:58.711956  6328 net.cpp:425] inception_3b/relu_pool_proj <- inception_3b/pool_proj
I0403 17:56:58.711977  6328 net.cpp:386] inception_3b/relu_pool_proj -> inception_3b/pool_proj (in-place)
I0403 17:56:58.712400  6328 net.cpp:141] Setting up inception_3b/relu_pool_proj
I0403 17:56:58.712430  6328 net.cpp:148] Top shape: 24 64 28 28 (1204224)
I0403 17:56:58.712446  6328 net.cpp:156] Memory required for data: 773112864
I0403 17:56:58.712462  6328 layer_factory.hpp:77] Creating layer inception_3b/output
I0403 17:56:58.712481  6328 net.cpp:91] Creating Layer inception_3b/output
I0403 17:56:58.712497  6328 net.cpp:425] inception_3b/output <- inception_3b/1x1
I0403 17:56:58.712514  6328 net.cpp:425] inception_3b/output <- inception_3b/3x3
I0403 17:56:58.712532  6328 net.cpp:425] inception_3b/output <- inception_3b/5x5
I0403 17:56:58.712546  6328 net.cpp:425] inception_3b/output <- inception_3b/pool_proj
I0403 17:56:58.712563  6328 net.cpp:399] inception_3b/output -> inception_3b/output
I0403 17:56:58.712611  6328 net.cpp:141] Setting up inception_3b/output
I0403 17:56:58.712635  6328 net.cpp:148] Top shape: 24 480 28 28 (9031680)
I0403 17:56:58.712651  6328 net.cpp:156] Memory required for data: 809239584
I0403 17:56:58.712664  6328 layer_factory.hpp:77] Creating layer pool3/3x3_s2
I0403 17:56:58.712685  6328 net.cpp:91] Creating Layer pool3/3x3_s2
I0403 17:56:58.712703  6328 net.cpp:425] pool3/3x3_s2 <- inception_3b/output
I0403 17:56:58.712738  6328 net.cpp:399] pool3/3x3_s2 -> pool3/3x3_s2
I0403 17:56:58.712805  6328 net.cpp:141] Setting up pool3/3x3_s2
I0403 17:56:58.712829  6328 net.cpp:148] Top shape: 24 480 14 14 (2257920)
I0403 17:56:58.712843  6328 net.cpp:156] Memory required for data: 818271264
I0403 17:56:58.712858  6328 layer_factory.hpp:77] Creating layer pool3/3x3_s2_pool3/3x3_s2_0_split
I0403 17:56:58.712877  6328 net.cpp:91] Creating Layer pool3/3x3_s2_pool3/3x3_s2_0_split
I0403 17:56:58.712893  6328 net.cpp:425] pool3/3x3_s2_pool3/3x3_s2_0_split <- pool3/3x3_s2
I0403 17:56:58.712913  6328 net.cpp:399] pool3/3x3_s2_pool3/3x3_s2_0_split -> pool3/3x3_s2_pool3/3x3_s2_0_split_0
I0403 17:56:58.712934  6328 net.cpp:399] pool3/3x3_s2_pool3/3x3_s2_0_split -> pool3/3x3_s2_pool3/3x3_s2_0_split_1
I0403 17:56:58.712954  6328 net.cpp:399] pool3/3x3_s2_pool3/3x3_s2_0_split -> pool3/3x3_s2_pool3/3x3_s2_0_split_2
I0403 17:56:58.712975  6328 net.cpp:399] pool3/3x3_s2_pool3/3x3_s2_0_split -> pool3/3x3_s2_pool3/3x3_s2_0_split_3
I0403 17:56:58.713055  6328 net.cpp:141] Setting up pool3/3x3_s2_pool3/3x3_s2_0_split
I0403 17:56:58.713081  6328 net.cpp:148] Top shape: 24 480 14 14 (2257920)
I0403 17:56:58.713099  6328 net.cpp:148] Top shape: 24 480 14 14 (2257920)
I0403 17:56:58.713116  6328 net.cpp:148] Top shape: 24 480 14 14 (2257920)
I0403 17:56:58.713132  6328 net.cpp:148] Top shape: 24 480 14 14 (2257920)
I0403 17:56:58.713146  6328 net.cpp:156] Memory required for data: 854397984
I0403 17:56:58.713161  6328 layer_factory.hpp:77] Creating layer inception_4a/1x1
I0403 17:56:58.713191  6328 net.cpp:91] Creating Layer inception_4a/1x1
I0403 17:56:58.713210  6328 net.cpp:425] inception_4a/1x1 <- pool3/3x3_s2_pool3/3x3_s2_0_split_0
I0403 17:56:58.713229  6328 net.cpp:399] inception_4a/1x1 -> inception_4a/1x1
I0403 17:56:58.714879  6328 net.cpp:141] Setting up inception_4a/1x1
I0403 17:56:58.714910  6328 net.cpp:148] Top shape: 24 192 14 14 (903168)
I0403 17:56:58.714926  6328 net.cpp:156] Memory required for data: 858010656
I0403 17:56:58.714946  6328 layer_factory.hpp:77] Creating layer inception_4a/relu_1x1
I0403 17:56:58.714964  6328 net.cpp:91] Creating Layer inception_4a/relu_1x1
I0403 17:56:58.714982  6328 net.cpp:425] inception_4a/relu_1x1 <- inception_4a/1x1
I0403 17:56:58.715003  6328 net.cpp:386] inception_4a/relu_1x1 -> inception_4a/1x1 (in-place)
I0403 17:56:58.715196  6328 net.cpp:141] Setting up inception_4a/relu_1x1
I0403 17:56:58.715224  6328 net.cpp:148] Top shape: 24 192 14 14 (903168)
I0403 17:56:58.715240  6328 net.cpp:156] Memory required for data: 861623328
I0403 17:56:58.715255  6328 layer_factory.hpp:77] Creating layer inception_4a/3x3_reduce
I0403 17:56:58.715277  6328 net.cpp:91] Creating Layer inception_4a/3x3_reduce
I0403 17:56:58.715296  6328 net.cpp:425] inception_4a/3x3_reduce <- pool3/3x3_s2_pool3/3x3_s2_0_split_1
I0403 17:56:58.715318  6328 net.cpp:399] inception_4a/3x3_reduce -> inception_4a/3x3_reduce
I0403 17:56:58.716656  6328 net.cpp:141] Setting up inception_4a/3x3_reduce
I0403 17:56:58.716686  6328 net.cpp:148] Top shape: 24 96 14 14 (451584)
I0403 17:56:58.716704  6328 net.cpp:156] Memory required for data: 863429664
I0403 17:56:58.716732  6328 layer_factory.hpp:77] Creating layer inception_4a/relu_3x3_reduce
I0403 17:56:58.716753  6328 net.cpp:91] Creating Layer inception_4a/relu_3x3_reduce
I0403 17:56:58.716771  6328 net.cpp:425] inception_4a/relu_3x3_reduce <- inception_4a/3x3_reduce
I0403 17:56:58.716792  6328 net.cpp:386] inception_4a/relu_3x3_reduce -> inception_4a/3x3_reduce (in-place)
I0403 17:56:58.716979  6328 net.cpp:141] Setting up inception_4a/relu_3x3_reduce
I0403 17:56:58.717006  6328 net.cpp:148] Top shape: 24 96 14 14 (451584)
I0403 17:56:58.717022  6328 net.cpp:156] Memory required for data: 865236000
I0403 17:56:58.717037  6328 layer_factory.hpp:77] Creating layer inception_4a/3x3
I0403 17:56:58.717061  6328 net.cpp:91] Creating Layer inception_4a/3x3
I0403 17:56:58.717080  6328 net.cpp:425] inception_4a/3x3 <- inception_4a/3x3_reduce
I0403 17:56:58.717108  6328 net.cpp:399] inception_4a/3x3 -> inception_4a/3x3
I0403 17:56:58.719959  6328 net.cpp:141] Setting up inception_4a/3x3
I0403 17:56:58.719990  6328 net.cpp:148] Top shape: 24 208 14 14 (978432)
I0403 17:56:58.720008  6328 net.cpp:156] Memory required for data: 869149728
I0403 17:56:58.720028  6328 layer_factory.hpp:77] Creating layer inception_4a/relu_3x3
I0403 17:56:58.720051  6328 net.cpp:91] Creating Layer inception_4a/relu_3x3
I0403 17:56:58.720069  6328 net.cpp:425] inception_4a/relu_3x3 <- inception_4a/3x3
I0403 17:56:58.720088  6328 net.cpp:386] inception_4a/relu_3x3 -> inception_4a/3x3 (in-place)
I0403 17:56:58.720389  6328 net.cpp:141] Setting up inception_4a/relu_3x3
I0403 17:56:58.720418  6328 net.cpp:148] Top shape: 24 208 14 14 (978432)
I0403 17:56:58.720434  6328 net.cpp:156] Memory required for data: 873063456
I0403 17:56:58.720451  6328 layer_factory.hpp:77] Creating layer inception_4a/5x5_reduce
I0403 17:56:58.720474  6328 net.cpp:91] Creating Layer inception_4a/5x5_reduce
I0403 17:56:58.720494  6328 net.cpp:425] inception_4a/5x5_reduce <- pool3/3x3_s2_pool3/3x3_s2_0_split_2
I0403 17:56:58.720515  6328 net.cpp:399] inception_4a/5x5_reduce -> inception_4a/5x5_reduce
I0403 17:56:58.721596  6328 net.cpp:141] Setting up inception_4a/5x5_reduce
I0403 17:56:58.721626  6328 net.cpp:148] Top shape: 24 16 14 14 (75264)
I0403 17:56:58.721642  6328 net.cpp:156] Memory required for data: 873364512
I0403 17:56:58.721663  6328 layer_factory.hpp:77] Creating layer inception_4a/relu_5x5_reduce
I0403 17:56:58.721686  6328 net.cpp:91] Creating Layer inception_4a/relu_5x5_reduce
I0403 17:56:58.721704  6328 net.cpp:425] inception_4a/relu_5x5_reduce <- inception_4a/5x5_reduce
I0403 17:56:58.721724  6328 net.cpp:386] inception_4a/relu_5x5_reduce -> inception_4a/5x5_reduce (in-place)
I0403 17:56:58.721915  6328 net.cpp:141] Setting up inception_4a/relu_5x5_reduce
I0403 17:56:58.721946  6328 net.cpp:148] Top shape: 24 16 14 14 (75264)
I0403 17:56:58.721962  6328 net.cpp:156] Memory required for data: 873665568
I0403 17:56:58.721978  6328 layer_factory.hpp:77] Creating layer inception_4a/5x5
I0403 17:56:58.722002  6328 net.cpp:91] Creating Layer inception_4a/5x5
I0403 17:56:58.722021  6328 net.cpp:425] inception_4a/5x5 <- inception_4a/5x5_reduce
I0403 17:56:58.722041  6328 net.cpp:399] inception_4a/5x5 -> inception_4a/5x5
I0403 17:56:58.723215  6328 net.cpp:141] Setting up inception_4a/5x5
I0403 17:56:58.723249  6328 net.cpp:148] Top shape: 24 48 14 14 (225792)
I0403 17:56:58.723266  6328 net.cpp:156] Memory required for data: 874568736
I0403 17:56:58.723287  6328 layer_factory.hpp:77] Creating layer inception_4a/relu_5x5
I0403 17:56:58.723309  6328 net.cpp:91] Creating Layer inception_4a/relu_5x5
I0403 17:56:58.723327  6328 net.cpp:425] inception_4a/relu_5x5 <- inception_4a/5x5
I0403 17:56:58.723348  6328 net.cpp:386] inception_4a/relu_5x5 -> inception_4a/5x5 (in-place)
I0403 17:56:58.723536  6328 net.cpp:141] Setting up inception_4a/relu_5x5
I0403 17:56:58.723563  6328 net.cpp:148] Top shape: 24 48 14 14 (225792)
I0403 17:56:58.723579  6328 net.cpp:156] Memory required for data: 875471904
I0403 17:56:58.723595  6328 layer_factory.hpp:77] Creating layer inception_4a/pool
I0403 17:56:58.723614  6328 net.cpp:91] Creating Layer inception_4a/pool
I0403 17:56:58.723631  6328 net.cpp:425] inception_4a/pool <- pool3/3x3_s2_pool3/3x3_s2_0_split_3
I0403 17:56:58.723652  6328 net.cpp:399] inception_4a/pool -> inception_4a/pool
I0403 17:56:58.723717  6328 net.cpp:141] Setting up inception_4a/pool
I0403 17:56:58.723743  6328 net.cpp:148] Top shape: 24 480 14 14 (2257920)
I0403 17:56:58.723759  6328 net.cpp:156] Memory required for data: 884503584
I0403 17:56:58.723776  6328 layer_factory.hpp:77] Creating layer inception_4a/pool_proj
I0403 17:56:58.723799  6328 net.cpp:91] Creating Layer inception_4a/pool_proj
I0403 17:56:58.723819  6328 net.cpp:425] inception_4a/pool_proj <- inception_4a/pool
I0403 17:56:58.723841  6328 net.cpp:399] inception_4a/pool_proj -> inception_4a/pool_proj
I0403 17:56:58.725074  6328 net.cpp:141] Setting up inception_4a/pool_proj
I0403 17:56:58.725106  6328 net.cpp:148] Top shape: 24 64 14 14 (301056)
I0403 17:56:58.725137  6328 net.cpp:156] Memory required for data: 885707808
I0403 17:56:58.725158  6328 layer_factory.hpp:77] Creating layer inception_4a/relu_pool_proj
I0403 17:56:58.725184  6328 net.cpp:91] Creating Layer inception_4a/relu_pool_proj
I0403 17:56:58.725203  6328 net.cpp:425] inception_4a/relu_pool_proj <- inception_4a/pool_proj
I0403 17:56:58.725225  6328 net.cpp:386] inception_4a/relu_pool_proj -> inception_4a/pool_proj (in-place)
I0403 17:56:58.725529  6328 net.cpp:141] Setting up inception_4a/relu_pool_proj
I0403 17:56:58.725558  6328 net.cpp:148] Top shape: 24 64 14 14 (301056)
I0403 17:56:58.725575  6328 net.cpp:156] Memory required for data: 886912032
I0403 17:56:58.725591  6328 layer_factory.hpp:77] Creating layer inception_4a/output
I0403 17:56:58.725610  6328 net.cpp:91] Creating Layer inception_4a/output
I0403 17:56:58.725626  6328 net.cpp:425] inception_4a/output <- inception_4a/1x1
I0403 17:56:58.725643  6328 net.cpp:425] inception_4a/output <- inception_4a/3x3
I0403 17:56:58.725661  6328 net.cpp:425] inception_4a/output <- inception_4a/5x5
I0403 17:56:58.725679  6328 net.cpp:425] inception_4a/output <- inception_4a/pool_proj
I0403 17:56:58.725699  6328 net.cpp:399] inception_4a/output -> inception_4a/output
I0403 17:56:58.725749  6328 net.cpp:141] Setting up inception_4a/output
I0403 17:56:58.725775  6328 net.cpp:148] Top shape: 24 512 14 14 (2408448)
I0403 17:56:58.725790  6328 net.cpp:156] Memory required for data: 896545824
I0403 17:56:58.725806  6328 layer_factory.hpp:77] Creating layer inception_4a/output_inception_4a/output_0_split
I0403 17:56:58.725826  6328 net.cpp:91] Creating Layer inception_4a/output_inception_4a/output_0_split
I0403 17:56:58.725842  6328 net.cpp:425] inception_4a/output_inception_4a/output_0_split <- inception_4a/output
I0403 17:56:58.725860  6328 net.cpp:399] inception_4a/output_inception_4a/output_0_split -> inception_4a/output_inception_4a/output_0_split_0
I0403 17:56:58.725883  6328 net.cpp:399] inception_4a/output_inception_4a/output_0_split -> inception_4a/output_inception_4a/output_0_split_1
I0403 17:56:58.725905  6328 net.cpp:399] inception_4a/output_inception_4a/output_0_split -> inception_4a/output_inception_4a/output_0_split_2
I0403 17:56:58.725927  6328 net.cpp:399] inception_4a/output_inception_4a/output_0_split -> inception_4a/output_inception_4a/output_0_split_3
I0403 17:56:58.725949  6328 net.cpp:399] inception_4a/output_inception_4a/output_0_split -> inception_4a/output_inception_4a/output_0_split_4
I0403 17:56:58.726047  6328 net.cpp:141] Setting up inception_4a/output_inception_4a/output_0_split
I0403 17:56:58.726070  6328 net.cpp:148] Top shape: 24 512 14 14 (2408448)
I0403 17:56:58.726088  6328 net.cpp:148] Top shape: 24 512 14 14 (2408448)
I0403 17:56:58.726104  6328 net.cpp:148] Top shape: 24 512 14 14 (2408448)
I0403 17:56:58.726119  6328 net.cpp:148] Top shape: 24 512 14 14 (2408448)
I0403 17:56:58.726136  6328 net.cpp:148] Top shape: 24 512 14 14 (2408448)
I0403 17:56:58.726151  6328 net.cpp:156] Memory required for data: 944714784
I0403 17:56:58.726166  6328 layer_factory.hpp:77] Creating layer loss1/ave_pool
I0403 17:56:58.726194  6328 net.cpp:91] Creating Layer loss1/ave_pool
I0403 17:56:58.726213  6328 net.cpp:425] loss1/ave_pool <- inception_4a/output_inception_4a/output_0_split_0
I0403 17:56:58.726233  6328 net.cpp:399] loss1/ave_pool -> loss1/ave_pool
I0403 17:56:58.726451  6328 net.cpp:141] Setting up loss1/ave_pool
I0403 17:56:58.726478  6328 net.cpp:148] Top shape: 24 512 4 4 (196608)
I0403 17:56:58.726495  6328 net.cpp:156] Memory required for data: 945501216
I0403 17:56:58.726511  6328 layer_factory.hpp:77] Creating layer loss1/conv
I0403 17:56:58.726534  6328 net.cpp:91] Creating Layer loss1/conv
I0403 17:56:58.726552  6328 net.cpp:425] loss1/conv <- loss1/ave_pool
I0403 17:56:58.726574  6328 net.cpp:399] loss1/conv -> loss1/conv
I0403 17:56:58.728062  6328 net.cpp:141] Setting up loss1/conv
I0403 17:56:58.728094  6328 net.cpp:148] Top shape: 24 128 4 4 (49152)
I0403 17:56:58.728126  6328 net.cpp:156] Memory required for data: 945697824
I0403 17:56:58.728147  6328 layer_factory.hpp:77] Creating layer loss1/relu_conv
I0403 17:56:58.728170  6328 net.cpp:91] Creating Layer loss1/relu_conv
I0403 17:56:58.728198  6328 net.cpp:425] loss1/relu_conv <- loss1/conv
I0403 17:56:58.728217  6328 net.cpp:386] loss1/relu_conv -> loss1/conv (in-place)
I0403 17:56:58.728516  6328 net.cpp:141] Setting up loss1/relu_conv
I0403 17:56:58.728545  6328 net.cpp:148] Top shape: 24 128 4 4 (49152)
I0403 17:56:58.728562  6328 net.cpp:156] Memory required for data: 945894432
I0403 17:56:58.728579  6328 layer_factory.hpp:77] Creating layer loss1/fc
I0403 17:56:58.728605  6328 net.cpp:91] Creating Layer loss1/fc
I0403 17:56:58.728624  6328 net.cpp:425] loss1/fc <- loss1/conv
I0403 17:56:58.728643  6328 net.cpp:399] loss1/fc -> loss1/fc
I0403 17:56:58.747745  6328 net.cpp:141] Setting up loss1/fc
I0403 17:56:58.747807  6328 net.cpp:148] Top shape: 24 1024 (24576)
I0403 17:56:58.747824  6328 net.cpp:156] Memory required for data: 945992736
I0403 17:56:58.747845  6328 layer_factory.hpp:77] Creating layer loss1/relu_fc
I0403 17:56:58.747867  6328 net.cpp:91] Creating Layer loss1/relu_fc
I0403 17:56:58.747886  6328 net.cpp:425] loss1/relu_fc <- loss1/fc
I0403 17:56:58.747910  6328 net.cpp:386] loss1/relu_fc -> loss1/fc (in-place)
I0403 17:56:58.748136  6328 net.cpp:141] Setting up loss1/relu_fc
I0403 17:56:58.748162  6328 net.cpp:148] Top shape: 24 1024 (24576)
I0403 17:56:58.748183  6328 net.cpp:156] Memory required for data: 946091040
I0403 17:56:58.748200  6328 layer_factory.hpp:77] Creating layer loss1/drop_fc
I0403 17:56:58.748231  6328 net.cpp:91] Creating Layer loss1/drop_fc
I0403 17:56:58.748250  6328 net.cpp:425] loss1/drop_fc <- loss1/fc
I0403 17:56:58.748268  6328 net.cpp:386] loss1/drop_fc -> loss1/fc (in-place)
I0403 17:56:58.748324  6328 net.cpp:141] Setting up loss1/drop_fc
I0403 17:56:58.748353  6328 net.cpp:148] Top shape: 24 1024 (24576)
I0403 17:56:58.748369  6328 net.cpp:156] Memory required for data: 946189344
I0403 17:56:58.748384  6328 layer_factory.hpp:77] Creating layer loss1/classifier_plantvillage
I0403 17:56:58.748404  6328 net.cpp:91] Creating Layer loss1/classifier_plantvillage
I0403 17:56:58.748420  6328 net.cpp:425] loss1/classifier_plantvillage <- loss1/fc
I0403 17:56:58.748441  6328 net.cpp:399] loss1/classifier_plantvillage -> loss1/classifier_plantvillage
I0403 17:56:58.749440  6328 net.cpp:141] Setting up loss1/classifier_plantvillage
I0403 17:56:58.749470  6328 net.cpp:148] Top shape: 24 38 (912)
I0403 17:56:58.749486  6328 net.cpp:156] Memory required for data: 946192992
I0403 17:56:58.749505  6328 layer_factory.hpp:77] Creating layer loss1/classifier_plantvillage_loss1/classifier_plantvillage_0_split
I0403 17:56:58.749526  6328 net.cpp:91] Creating Layer loss1/classifier_plantvillage_loss1/classifier_plantvillage_0_split
I0403 17:56:58.749544  6328 net.cpp:425] loss1/classifier_plantvillage_loss1/classifier_plantvillage_0_split <- loss1/classifier_plantvillage
I0403 17:56:58.749562  6328 net.cpp:399] loss1/classifier_plantvillage_loss1/classifier_plantvillage_0_split -> loss1/classifier_plantvillage_loss1/classifier_plantvillage_0_split_0
I0403 17:56:58.749583  6328 net.cpp:399] loss1/classifier_plantvillage_loss1/classifier_plantvillage_0_split -> loss1/classifier_plantvillage_loss1/classifier_plantvillage_0_split_1
I0403 17:56:58.749603  6328 net.cpp:399] loss1/classifier_plantvillage_loss1/classifier_plantvillage_0_split -> loss1/classifier_plantvillage_loss1/classifier_plantvillage_0_split_2
I0403 17:56:58.749671  6328 net.cpp:141] Setting up loss1/classifier_plantvillage_loss1/classifier_plantvillage_0_split
I0403 17:56:58.749697  6328 net.cpp:148] Top shape: 24 38 (912)
I0403 17:56:58.749714  6328 net.cpp:148] Top shape: 24 38 (912)
I0403 17:56:58.749730  6328 net.cpp:148] Top shape: 24 38 (912)
I0403 17:56:58.749744  6328 net.cpp:156] Memory required for data: 946203936
I0403 17:56:58.749759  6328 layer_factory.hpp:77] Creating layer inception_4b/1x1
I0403 17:56:58.749781  6328 net.cpp:91] Creating Layer inception_4b/1x1
I0403 17:56:58.749822  6328 net.cpp:425] inception_4b/1x1 <- inception_4a/output_inception_4a/output_0_split_1
I0403 17:56:58.749843  6328 net.cpp:399] inception_4b/1x1 -> inception_4b/1x1
I0403 17:56:58.751585  6328 net.cpp:141] Setting up inception_4b/1x1
I0403 17:56:58.751616  6328 net.cpp:148] Top shape: 24 160 14 14 (752640)
I0403 17:56:58.751631  6328 net.cpp:156] Memory required for data: 949214496
I0403 17:56:58.751652  6328 layer_factory.hpp:77] Creating layer inception_4b/relu_1x1
I0403 17:56:58.751672  6328 net.cpp:91] Creating Layer inception_4b/relu_1x1
I0403 17:56:58.751691  6328 net.cpp:425] inception_4b/relu_1x1 <- inception_4b/1x1
I0403 17:56:58.751709  6328 net.cpp:386] inception_4b/relu_1x1 -> inception_4b/1x1 (in-place)
I0403 17:56:58.751893  6328 net.cpp:141] Setting up inception_4b/relu_1x1
I0403 17:56:58.751921  6328 net.cpp:148] Top shape: 24 160 14 14 (752640)
I0403 17:56:58.751936  6328 net.cpp:156] Memory required for data: 952225056
I0403 17:56:58.751951  6328 layer_factory.hpp:77] Creating layer inception_4b/3x3_reduce
I0403 17:56:58.751973  6328 net.cpp:91] Creating Layer inception_4b/3x3_reduce
I0403 17:56:58.751991  6328 net.cpp:425] inception_4b/3x3_reduce <- inception_4a/output_inception_4a/output_0_split_2
I0403 17:56:58.752010  6328 net.cpp:399] inception_4b/3x3_reduce -> inception_4b/3x3_reduce
I0403 17:56:58.753422  6328 net.cpp:141] Setting up inception_4b/3x3_reduce
I0403 17:56:58.753454  6328 net.cpp:148] Top shape: 24 112 14 14 (526848)
I0403 17:56:58.753473  6328 net.cpp:156] Memory required for data: 954332448
I0403 17:56:58.753492  6328 layer_factory.hpp:77] Creating layer inception_4b/relu_3x3_reduce
I0403 17:56:58.753510  6328 net.cpp:91] Creating Layer inception_4b/relu_3x3_reduce
I0403 17:56:58.753526  6328 net.cpp:425] inception_4b/relu_3x3_reduce <- inception_4b/3x3_reduce
I0403 17:56:58.753546  6328 net.cpp:386] inception_4b/relu_3x3_reduce -> inception_4b/3x3_reduce (in-place)
I0403 17:56:58.753837  6328 net.cpp:141] Setting up inception_4b/relu_3x3_reduce
I0403 17:56:58.753866  6328 net.cpp:148] Top shape: 24 112 14 14 (526848)
I0403 17:56:58.753882  6328 net.cpp:156] Memory required for data: 956439840
I0403 17:56:58.753898  6328 layer_factory.hpp:77] Creating layer inception_4b/3x3
I0403 17:56:58.753924  6328 net.cpp:91] Creating Layer inception_4b/3x3
I0403 17:56:58.753942  6328 net.cpp:425] inception_4b/3x3 <- inception_4b/3x3_reduce
I0403 17:56:58.753962  6328 net.cpp:399] inception_4b/3x3 -> inception_4b/3x3
I0403 17:56:58.757118  6328 net.cpp:141] Setting up inception_4b/3x3
I0403 17:56:58.757150  6328 net.cpp:148] Top shape: 24 224 14 14 (1053696)
I0403 17:56:58.757169  6328 net.cpp:156] Memory required for data: 960654624
I0403 17:56:58.757195  6328 layer_factory.hpp:77] Creating layer inception_4b/relu_3x3
I0403 17:56:58.757218  6328 net.cpp:91] Creating Layer inception_4b/relu_3x3
I0403 17:56:58.757236  6328 net.cpp:425] inception_4b/relu_3x3 <- inception_4b/3x3
I0403 17:56:58.757256  6328 net.cpp:386] inception_4b/relu_3x3 -> inception_4b/3x3 (in-place)
I0403 17:56:58.757441  6328 net.cpp:141] Setting up inception_4b/relu_3x3
I0403 17:56:58.757468  6328 net.cpp:148] Top shape: 24 224 14 14 (1053696)
I0403 17:56:58.757483  6328 net.cpp:156] Memory required for data: 964869408
I0403 17:56:58.757498  6328 layer_factory.hpp:77] Creating layer inception_4b/5x5_reduce
I0403 17:56:58.757521  6328 net.cpp:91] Creating Layer inception_4b/5x5_reduce
I0403 17:56:58.757541  6328 net.cpp:425] inception_4b/5x5_reduce <- inception_4a/output_inception_4a/output_0_split_3
I0403 17:56:58.757565  6328 net.cpp:399] inception_4b/5x5_reduce -> inception_4b/5x5_reduce
I0403 17:56:58.758682  6328 net.cpp:141] Setting up inception_4b/5x5_reduce
I0403 17:56:58.758711  6328 net.cpp:148] Top shape: 24 24 14 14 (112896)
I0403 17:56:58.758728  6328 net.cpp:156] Memory required for data: 965320992
I0403 17:56:58.758746  6328 layer_factory.hpp:77] Creating layer inception_4b/relu_5x5_reduce
I0403 17:56:58.758767  6328 net.cpp:91] Creating Layer inception_4b/relu_5x5_reduce
I0403 17:56:58.758800  6328 net.cpp:425] inception_4b/relu_5x5_reduce <- inception_4b/5x5_reduce
I0403 17:56:58.758819  6328 net.cpp:386] inception_4b/relu_5x5_reduce -> inception_4b/5x5_reduce (in-place)
I0403 17:56:58.759013  6328 net.cpp:141] Setting up inception_4b/relu_5x5_reduce
I0403 17:56:58.759039  6328 net.cpp:148] Top shape: 24 24 14 14 (112896)
I0403 17:56:58.759053  6328 net.cpp:156] Memory required for data: 965772576
I0403 17:56:58.759068  6328 layer_factory.hpp:77] Creating layer inception_4b/5x5
I0403 17:56:58.759090  6328 net.cpp:91] Creating Layer inception_4b/5x5
I0403 17:56:58.759109  6328 net.cpp:425] inception_4b/5x5 <- inception_4b/5x5_reduce
I0403 17:56:58.759130  6328 net.cpp:399] inception_4b/5x5 -> inception_4b/5x5
I0403 17:56:58.760397  6328 net.cpp:141] Setting up inception_4b/5x5
I0403 17:56:58.760426  6328 net.cpp:148] Top shape: 24 64 14 14 (301056)
I0403 17:56:58.760442  6328 net.cpp:156] Memory required for data: 966976800
I0403 17:56:58.760462  6328 layer_factory.hpp:77] Creating layer inception_4b/relu_5x5
I0403 17:56:58.760483  6328 net.cpp:91] Creating Layer inception_4b/relu_5x5
I0403 17:56:58.760501  6328 net.cpp:425] inception_4b/relu_5x5 <- inception_4b/5x5
I0403 17:56:58.760519  6328 net.cpp:386] inception_4b/relu_5x5 -> inception_4b/5x5 (in-place)
I0403 17:56:58.760810  6328 net.cpp:141] Setting up inception_4b/relu_5x5
I0403 17:56:58.760836  6328 net.cpp:148] Top shape: 24 64 14 14 (301056)
I0403 17:56:58.760851  6328 net.cpp:156] Memory required for data: 968181024
I0403 17:56:58.760866  6328 layer_factory.hpp:77] Creating layer inception_4b/pool
I0403 17:56:58.760887  6328 net.cpp:91] Creating Layer inception_4b/pool
I0403 17:56:58.760905  6328 net.cpp:425] inception_4b/pool <- inception_4a/output_inception_4a/output_0_split_4
I0403 17:56:58.760923  6328 net.cpp:399] inception_4b/pool -> inception_4b/pool
I0403 17:56:58.760992  6328 net.cpp:141] Setting up inception_4b/pool
I0403 17:56:58.761015  6328 net.cpp:148] Top shape: 24 512 14 14 (2408448)
I0403 17:56:58.761030  6328 net.cpp:156] Memory required for data: 977814816
I0403 17:56:58.761045  6328 layer_factory.hpp:77] Creating layer inception_4b/pool_proj
I0403 17:56:58.761067  6328 net.cpp:91] Creating Layer inception_4b/pool_proj
I0403 17:56:58.761085  6328 net.cpp:425] inception_4b/pool_proj <- inception_4b/pool
I0403 17:56:58.761106  6328 net.cpp:399] inception_4b/pool_proj -> inception_4b/pool_proj
I0403 17:56:58.762362  6328 net.cpp:141] Setting up inception_4b/pool_proj
I0403 17:56:58.762393  6328 net.cpp:148] Top shape: 24 64 14 14 (301056)
I0403 17:56:58.762413  6328 net.cpp:156] Memory required for data: 979019040
I0403 17:56:58.762431  6328 layer_factory.hpp:77] Creating layer inception_4b/relu_pool_proj
I0403 17:56:58.762450  6328 net.cpp:91] Creating Layer inception_4b/relu_pool_proj
I0403 17:56:58.762466  6328 net.cpp:425] inception_4b/relu_pool_proj <- inception_4b/pool_proj
I0403 17:56:58.762485  6328 net.cpp:386] inception_4b/relu_pool_proj -> inception_4b/pool_proj (in-place)
I0403 17:56:58.762676  6328 net.cpp:141] Setting up inception_4b/relu_pool_proj
I0403 17:56:58.762703  6328 net.cpp:148] Top shape: 24 64 14 14 (301056)
I0403 17:56:58.762722  6328 net.cpp:156] Memory required for data: 980223264
I0403 17:56:58.762737  6328 layer_factory.hpp:77] Creating layer inception_4b/output
I0403 17:56:58.762756  6328 net.cpp:91] Creating Layer inception_4b/output
I0403 17:56:58.762771  6328 net.cpp:425] inception_4b/output <- inception_4b/1x1
I0403 17:56:58.762789  6328 net.cpp:425] inception_4b/output <- inception_4b/3x3
I0403 17:56:58.762806  6328 net.cpp:425] inception_4b/output <- inception_4b/5x5
I0403 17:56:58.762823  6328 net.cpp:425] inception_4b/output <- inception_4b/pool_proj
I0403 17:56:58.762843  6328 net.cpp:399] inception_4b/output -> inception_4b/output
I0403 17:56:58.762892  6328 net.cpp:141] Setting up inception_4b/output
I0403 17:56:58.762917  6328 net.cpp:148] Top shape: 24 512 14 14 (2408448)
I0403 17:56:58.762931  6328 net.cpp:156] Memory required for data: 989857056
I0403 17:56:58.762962  6328 layer_factory.hpp:77] Creating layer inception_4b/output_inception_4b/output_0_split
I0403 17:56:58.762984  6328 net.cpp:91] Creating Layer inception_4b/output_inception_4b/output_0_split
I0403 17:56:58.763002  6328 net.cpp:425] inception_4b/output_inception_4b/output_0_split <- inception_4b/output
I0403 17:56:58.763022  6328 net.cpp:399] inception_4b/output_inception_4b/output_0_split -> inception_4b/output_inception_4b/output_0_split_0
I0403 17:56:58.763043  6328 net.cpp:399] inception_4b/output_inception_4b/output_0_split -> inception_4b/output_inception_4b/output_0_split_1
I0403 17:56:58.763067  6328 net.cpp:399] inception_4b/output_inception_4b/output_0_split -> inception_4b/output_inception_4b/output_0_split_2
I0403 17:56:58.763088  6328 net.cpp:399] inception_4b/output_inception_4b/output_0_split -> inception_4b/output_inception_4b/output_0_split_3
I0403 17:56:58.763173  6328 net.cpp:141] Setting up inception_4b/output_inception_4b/output_0_split
I0403 17:56:58.763203  6328 net.cpp:148] Top shape: 24 512 14 14 (2408448)
I0403 17:56:58.763221  6328 net.cpp:148] Top shape: 24 512 14 14 (2408448)
I0403 17:56:58.763236  6328 net.cpp:148] Top shape: 24 512 14 14 (2408448)
I0403 17:56:58.763252  6328 net.cpp:148] Top shape: 24 512 14 14 (2408448)
I0403 17:56:58.763264  6328 net.cpp:156] Memory required for data: 1028392224
I0403 17:56:58.763279  6328 layer_factory.hpp:77] Creating layer inception_4c/1x1
I0403 17:56:58.763303  6328 net.cpp:91] Creating Layer inception_4c/1x1
I0403 17:56:58.763319  6328 net.cpp:425] inception_4c/1x1 <- inception_4b/output_inception_4b/output_0_split_0
I0403 17:56:58.763340  6328 net.cpp:399] inception_4c/1x1 -> inception_4c/1x1
I0403 17:56:58.764822  6328 net.cpp:141] Setting up inception_4c/1x1
I0403 17:56:58.764855  6328 net.cpp:148] Top shape: 24 128 14 14 (602112)
I0403 17:56:58.764873  6328 net.cpp:156] Memory required for data: 1030800672
I0403 17:56:58.764894  6328 layer_factory.hpp:77] Creating layer inception_4c/relu_1x1
I0403 17:56:58.764912  6328 net.cpp:91] Creating Layer inception_4c/relu_1x1
I0403 17:56:58.764930  6328 net.cpp:425] inception_4c/relu_1x1 <- inception_4c/1x1
I0403 17:56:58.764950  6328 net.cpp:386] inception_4c/relu_1x1 -> inception_4c/1x1 (in-place)
I0403 17:56:58.765133  6328 net.cpp:141] Setting up inception_4c/relu_1x1
I0403 17:56:58.765159  6328 net.cpp:148] Top shape: 24 128 14 14 (602112)
I0403 17:56:58.765174  6328 net.cpp:156] Memory required for data: 1033209120
I0403 17:56:58.765197  6328 layer_factory.hpp:77] Creating layer inception_4c/3x3_reduce
I0403 17:56:58.765219  6328 net.cpp:91] Creating Layer inception_4c/3x3_reduce
I0403 17:56:58.765238  6328 net.cpp:425] inception_4c/3x3_reduce <- inception_4b/output_inception_4b/output_0_split_1
I0403 17:56:58.765261  6328 net.cpp:399] inception_4c/3x3_reduce -> inception_4c/3x3_reduce
I0403 17:56:58.767282  6328 net.cpp:141] Setting up inception_4c/3x3_reduce
I0403 17:56:58.767313  6328 net.cpp:148] Top shape: 24 128 14 14 (602112)
I0403 17:56:58.767331  6328 net.cpp:156] Memory required for data: 1035617568
I0403 17:56:58.767350  6328 layer_factory.hpp:77] Creating layer inception_4c/relu_3x3_reduce
I0403 17:56:58.767371  6328 net.cpp:91] Creating Layer inception_4c/relu_3x3_reduce
I0403 17:56:58.767388  6328 net.cpp:425] inception_4c/relu_3x3_reduce <- inception_4c/3x3_reduce
I0403 17:56:58.767405  6328 net.cpp:386] inception_4c/relu_3x3_reduce -> inception_4c/3x3_reduce (in-place)
I0403 17:56:58.767699  6328 net.cpp:141] Setting up inception_4c/relu_3x3_reduce
I0403 17:56:58.767725  6328 net.cpp:148] Top shape: 24 128 14 14 (602112)
I0403 17:56:58.767740  6328 net.cpp:156] Memory required for data: 1038026016
I0403 17:56:58.767755  6328 layer_factory.hpp:77] Creating layer inception_4c/3x3
I0403 17:56:58.767777  6328 net.cpp:91] Creating Layer inception_4c/3x3
I0403 17:56:58.767794  6328 net.cpp:425] inception_4c/3x3 <- inception_4c/3x3_reduce
I0403 17:56:58.767817  6328 net.cpp:399] inception_4c/3x3 -> inception_4c/3x3
I0403 17:56:58.771750  6328 net.cpp:141] Setting up inception_4c/3x3
I0403 17:56:58.771793  6328 net.cpp:148] Top shape: 24 256 14 14 (1204224)
I0403 17:56:58.771811  6328 net.cpp:156] Memory required for data: 1042842912
I0403 17:56:58.771843  6328 layer_factory.hpp:77] Creating layer inception_4c/relu_3x3
I0403 17:56:58.771868  6328 net.cpp:91] Creating Layer inception_4c/relu_3x3
I0403 17:56:58.771885  6328 net.cpp:425] inception_4c/relu_3x3 <- inception_4c/3x3
I0403 17:56:58.771904  6328 net.cpp:386] inception_4c/relu_3x3 -> inception_4c/3x3 (in-place)
I0403 17:56:58.772091  6328 net.cpp:141] Setting up inception_4c/relu_3x3
I0403 17:56:58.772116  6328 net.cpp:148] Top shape: 24 256 14 14 (1204224)
I0403 17:56:58.772131  6328 net.cpp:156] Memory required for data: 1047659808
I0403 17:56:58.772146  6328 layer_factory.hpp:77] Creating layer inception_4c/5x5_reduce
I0403 17:56:58.772172  6328 net.cpp:91] Creating Layer inception_4c/5x5_reduce
I0403 17:56:58.772203  6328 net.cpp:425] inception_4c/5x5_reduce <- inception_4b/output_inception_4b/output_0_split_2
I0403 17:56:58.772227  6328 net.cpp:399] inception_4c/5x5_reduce -> inception_4c/5x5_reduce
I0403 17:56:58.773349  6328 net.cpp:141] Setting up inception_4c/5x5_reduce
I0403 17:56:58.773377  6328 net.cpp:148] Top shape: 24 24 14 14 (112896)
I0403 17:56:58.773396  6328 net.cpp:156] Memory required for data: 1048111392
I0403 17:56:58.773416  6328 layer_factory.hpp:77] Creating layer inception_4c/relu_5x5_reduce
I0403 17:56:58.773437  6328 net.cpp:91] Creating Layer inception_4c/relu_5x5_reduce
I0403 17:56:58.773457  6328 net.cpp:425] inception_4c/relu_5x5_reduce <- inception_4c/5x5_reduce
I0403 17:56:58.773474  6328 net.cpp:386] inception_4c/relu_5x5_reduce -> inception_4c/5x5_reduce (in-place)
I0403 17:56:58.773665  6328 net.cpp:141] Setting up inception_4c/relu_5x5_reduce
I0403 17:56:58.773691  6328 net.cpp:148] Top shape: 24 24 14 14 (112896)
I0403 17:56:58.773706  6328 net.cpp:156] Memory required for data: 1048562976
I0403 17:56:58.773721  6328 layer_factory.hpp:77] Creating layer inception_4c/5x5
I0403 17:56:58.773743  6328 net.cpp:91] Creating Layer inception_4c/5x5
I0403 17:56:58.773762  6328 net.cpp:425] inception_4c/5x5 <- inception_4c/5x5_reduce
I0403 17:56:58.773787  6328 net.cpp:399] inception_4c/5x5 -> inception_4c/5x5
I0403 17:56:58.775073  6328 net.cpp:141] Setting up inception_4c/5x5
I0403 17:56:58.775102  6328 net.cpp:148] Top shape: 24 64 14 14 (301056)
I0403 17:56:58.775120  6328 net.cpp:156] Memory required for data: 1049767200
I0403 17:56:58.775138  6328 layer_factory.hpp:77] Creating layer inception_4c/relu_5x5
I0403 17:56:58.775157  6328 net.cpp:91] Creating Layer inception_4c/relu_5x5
I0403 17:56:58.775174  6328 net.cpp:425] inception_4c/relu_5x5 <- inception_4c/5x5
I0403 17:56:58.775213  6328 net.cpp:386] inception_4c/relu_5x5 -> inception_4c/5x5 (in-place)
I0403 17:56:58.775508  6328 net.cpp:141] Setting up inception_4c/relu_5x5
I0403 17:56:58.775537  6328 net.cpp:148] Top shape: 24 64 14 14 (301056)
I0403 17:56:58.775553  6328 net.cpp:156] Memory required for data: 1050971424
I0403 17:56:58.775568  6328 layer_factory.hpp:77] Creating layer inception_4c/pool
I0403 17:56:58.775588  6328 net.cpp:91] Creating Layer inception_4c/pool
I0403 17:56:58.775604  6328 net.cpp:425] inception_4c/pool <- inception_4b/output_inception_4b/output_0_split_3
I0403 17:56:58.775624  6328 net.cpp:399] inception_4c/pool -> inception_4c/pool
I0403 17:56:58.775691  6328 net.cpp:141] Setting up inception_4c/pool
I0403 17:56:58.775717  6328 net.cpp:148] Top shape: 24 512 14 14 (2408448)
I0403 17:56:58.775732  6328 net.cpp:156] Memory required for data: 1060605216
I0403 17:56:58.775748  6328 layer_factory.hpp:77] Creating layer inception_4c/pool_proj
I0403 17:56:58.775768  6328 net.cpp:91] Creating Layer inception_4c/pool_proj
I0403 17:56:58.775784  6328 net.cpp:425] inception_4c/pool_proj <- inception_4c/pool
I0403 17:56:58.775804  6328 net.cpp:399] inception_4c/pool_proj -> inception_4c/pool_proj
I0403 17:56:58.777062  6328 net.cpp:141] Setting up inception_4c/pool_proj
I0403 17:56:58.777092  6328 net.cpp:148] Top shape: 24 64 14 14 (301056)
I0403 17:56:58.777123  6328 net.cpp:156] Memory required for data: 1061809440
I0403 17:56:58.777143  6328 layer_factory.hpp:77] Creating layer inception_4c/relu_pool_proj
I0403 17:56:58.777166  6328 net.cpp:91] Creating Layer inception_4c/relu_pool_proj
I0403 17:56:58.777192  6328 net.cpp:425] inception_4c/relu_pool_proj <- inception_4c/pool_proj
I0403 17:56:58.777211  6328 net.cpp:386] inception_4c/relu_pool_proj -> inception_4c/pool_proj (in-place)
I0403 17:56:58.777402  6328 net.cpp:141] Setting up inception_4c/relu_pool_proj
I0403 17:56:58.777431  6328 net.cpp:148] Top shape: 24 64 14 14 (301056)
I0403 17:56:58.777448  6328 net.cpp:156] Memory required for data: 1063013664
I0403 17:56:58.777463  6328 layer_factory.hpp:77] Creating layer inception_4c/output
I0403 17:56:58.777482  6328 net.cpp:91] Creating Layer inception_4c/output
I0403 17:56:58.777497  6328 net.cpp:425] inception_4c/output <- inception_4c/1x1
I0403 17:56:58.777513  6328 net.cpp:425] inception_4c/output <- inception_4c/3x3
I0403 17:56:58.777529  6328 net.cpp:425] inception_4c/output <- inception_4c/5x5
I0403 17:56:58.777545  6328 net.cpp:425] inception_4c/output <- inception_4c/pool_proj
I0403 17:56:58.777565  6328 net.cpp:399] inception_4c/output -> inception_4c/output
I0403 17:56:58.777612  6328 net.cpp:141] Setting up inception_4c/output
I0403 17:56:58.777637  6328 net.cpp:148] Top shape: 24 512 14 14 (2408448)
I0403 17:56:58.777652  6328 net.cpp:156] Memory required for data: 1072647456
I0403 17:56:58.777667  6328 layer_factory.hpp:77] Creating layer inception_4c/output_inception_4c/output_0_split
I0403 17:56:58.777690  6328 net.cpp:91] Creating Layer inception_4c/output_inception_4c/output_0_split
I0403 17:56:58.777706  6328 net.cpp:425] inception_4c/output_inception_4c/output_0_split <- inception_4c/output
I0403 17:56:58.777724  6328 net.cpp:399] inception_4c/output_inception_4c/output_0_split -> inception_4c/output_inception_4c/output_0_split_0
I0403 17:56:58.777745  6328 net.cpp:399] inception_4c/output_inception_4c/output_0_split -> inception_4c/output_inception_4c/output_0_split_1
I0403 17:56:58.777768  6328 net.cpp:399] inception_4c/output_inception_4c/output_0_split -> inception_4c/output_inception_4c/output_0_split_2
I0403 17:56:58.777791  6328 net.cpp:399] inception_4c/output_inception_4c/output_0_split -> inception_4c/output_inception_4c/output_0_split_3
I0403 17:56:58.777878  6328 net.cpp:141] Setting up inception_4c/output_inception_4c/output_0_split
I0403 17:56:58.777901  6328 net.cpp:148] Top shape: 24 512 14 14 (2408448)
I0403 17:56:58.777917  6328 net.cpp:148] Top shape: 24 512 14 14 (2408448)
I0403 17:56:58.777933  6328 net.cpp:148] Top shape: 24 512 14 14 (2408448)
I0403 17:56:58.777948  6328 net.cpp:148] Top shape: 24 512 14 14 (2408448)
I0403 17:56:58.777962  6328 net.cpp:156] Memory required for data: 1111182624
I0403 17:56:58.777977  6328 layer_factory.hpp:77] Creating layer inception_4d/1x1
I0403 17:56:58.778002  6328 net.cpp:91] Creating Layer inception_4d/1x1
I0403 17:56:58.778018  6328 net.cpp:425] inception_4d/1x1 <- inception_4c/output_inception_4c/output_0_split_0
I0403 17:56:58.778040  6328 net.cpp:399] inception_4d/1x1 -> inception_4d/1x1
I0403 17:56:58.779485  6328 net.cpp:141] Setting up inception_4d/1x1
I0403 17:56:58.779516  6328 net.cpp:148] Top shape: 24 112 14 14 (526848)
I0403 17:56:58.779533  6328 net.cpp:156] Memory required for data: 1113290016
I0403 17:56:58.779553  6328 layer_factory.hpp:77] Creating layer inception_4d/relu_1x1
I0403 17:56:58.779574  6328 net.cpp:91] Creating Layer inception_4d/relu_1x1
I0403 17:56:58.779592  6328 net.cpp:425] inception_4d/relu_1x1 <- inception_4d/1x1
I0403 17:56:58.779610  6328 net.cpp:386] inception_4d/relu_1x1 -> inception_4d/1x1 (in-place)
I0403 17:56:58.779814  6328 net.cpp:141] Setting up inception_4d/relu_1x1
I0403 17:56:58.779840  6328 net.cpp:148] Top shape: 24 112 14 14 (526848)
I0403 17:56:58.779855  6328 net.cpp:156] Memory required for data: 1115397408
I0403 17:56:58.779870  6328 layer_factory.hpp:77] Creating layer inception_4d/3x3_reduce
I0403 17:56:58.779907  6328 net.cpp:91] Creating Layer inception_4d/3x3_reduce
I0403 17:56:58.779927  6328 net.cpp:425] inception_4d/3x3_reduce <- inception_4c/output_inception_4c/output_0_split_1
I0403 17:56:58.779947  6328 net.cpp:399] inception_4d/3x3_reduce -> inception_4d/3x3_reduce
I0403 17:56:58.781512  6328 net.cpp:141] Setting up inception_4d/3x3_reduce
I0403 17:56:58.781541  6328 net.cpp:148] Top shape: 24 144 14 14 (677376)
I0403 17:56:58.781558  6328 net.cpp:156] Memory required for data: 1118106912
I0403 17:56:58.781576  6328 layer_factory.hpp:77] Creating layer inception_4d/relu_3x3_reduce
I0403 17:56:58.781595  6328 net.cpp:91] Creating Layer inception_4d/relu_3x3_reduce
I0403 17:56:58.781612  6328 net.cpp:425] inception_4d/relu_3x3_reduce <- inception_4d/3x3_reduce
I0403 17:56:58.781633  6328 net.cpp:386] inception_4d/relu_3x3_reduce -> inception_4d/3x3_reduce (in-place)
I0403 17:56:58.781932  6328 net.cpp:141] Setting up inception_4d/relu_3x3_reduce
I0403 17:56:58.781960  6328 net.cpp:148] Top shape: 24 144 14 14 (677376)
I0403 17:56:58.781976  6328 net.cpp:156] Memory required for data: 1120816416
I0403 17:56:58.781991  6328 layer_factory.hpp:77] Creating layer inception_4d/3x3
I0403 17:56:58.782018  6328 net.cpp:91] Creating Layer inception_4d/3x3
I0403 17:56:58.782037  6328 net.cpp:425] inception_4d/3x3 <- inception_4d/3x3_reduce
I0403 17:56:58.782058  6328 net.cpp:399] inception_4d/3x3 -> inception_4d/3x3
I0403 17:56:58.786479  6328 net.cpp:141] Setting up inception_4d/3x3
I0403 17:56:58.786510  6328 net.cpp:148] Top shape: 24 288 14 14 (1354752)
I0403 17:56:58.786526  6328 net.cpp:156] Memory required for data: 1126235424
I0403 17:56:58.786545  6328 layer_factory.hpp:77] Creating layer inception_4d/relu_3x3
I0403 17:56:58.786567  6328 net.cpp:91] Creating Layer inception_4d/relu_3x3
I0403 17:56:58.786586  6328 net.cpp:425] inception_4d/relu_3x3 <- inception_4d/3x3
I0403 17:56:58.786602  6328 net.cpp:386] inception_4d/relu_3x3 -> inception_4d/3x3 (in-place)
I0403 17:56:58.786793  6328 net.cpp:141] Setting up inception_4d/relu_3x3
I0403 17:56:58.786820  6328 net.cpp:148] Top shape: 24 288 14 14 (1354752)
I0403 17:56:58.786836  6328 net.cpp:156] Memory required for data: 1131654432
I0403 17:56:58.786851  6328 layer_factory.hpp:77] Creating layer inception_4d/5x5_reduce
I0403 17:56:58.786873  6328 net.cpp:91] Creating Layer inception_4d/5x5_reduce
I0403 17:56:58.786891  6328 net.cpp:425] inception_4d/5x5_reduce <- inception_4c/output_inception_4c/output_0_split_2
I0403 17:56:58.786911  6328 net.cpp:399] inception_4d/5x5_reduce -> inception_4d/5x5_reduce
I0403 17:56:58.788097  6328 net.cpp:141] Setting up inception_4d/5x5_reduce
I0403 17:56:58.788126  6328 net.cpp:148] Top shape: 24 32 14 14 (150528)
I0403 17:56:58.788142  6328 net.cpp:156] Memory required for data: 1132256544
I0403 17:56:58.788161  6328 layer_factory.hpp:77] Creating layer inception_4d/relu_5x5_reduce
I0403 17:56:58.788187  6328 net.cpp:91] Creating Layer inception_4d/relu_5x5_reduce
I0403 17:56:58.788208  6328 net.cpp:425] inception_4d/relu_5x5_reduce <- inception_4d/5x5_reduce
I0403 17:56:58.788225  6328 net.cpp:386] inception_4d/relu_5x5_reduce -> inception_4d/5x5_reduce (in-place)
I0403 17:56:58.788421  6328 net.cpp:141] Setting up inception_4d/relu_5x5_reduce
I0403 17:56:58.788447  6328 net.cpp:148] Top shape: 24 32 14 14 (150528)
I0403 17:56:58.788462  6328 net.cpp:156] Memory required for data: 1132858656
I0403 17:56:58.788480  6328 layer_factory.hpp:77] Creating layer inception_4d/5x5
I0403 17:56:58.788504  6328 net.cpp:91] Creating Layer inception_4d/5x5
I0403 17:56:58.788523  6328 net.cpp:425] inception_4d/5x5 <- inception_4d/5x5_reduce
I0403 17:56:58.788543  6328 net.cpp:399] inception_4d/5x5 -> inception_4d/5x5
I0403 17:56:58.790065  6328 net.cpp:141] Setting up inception_4d/5x5
I0403 17:56:58.790096  6328 net.cpp:148] Top shape: 24 64 14 14 (301056)
I0403 17:56:58.790115  6328 net.cpp:156] Memory required for data: 1134062880
I0403 17:56:58.790135  6328 layer_factory.hpp:77] Creating layer inception_4d/relu_5x5
I0403 17:56:58.790169  6328 net.cpp:91] Creating Layer inception_4d/relu_5x5
I0403 17:56:58.790192  6328 net.cpp:425] inception_4d/relu_5x5 <- inception_4d/5x5
I0403 17:56:58.790213  6328 net.cpp:386] inception_4d/relu_5x5 -> inception_4d/5x5 (in-place)
I0403 17:56:58.790527  6328 net.cpp:141] Setting up inception_4d/relu_5x5
I0403 17:56:58.790556  6328 net.cpp:148] Top shape: 24 64 14 14 (301056)
I0403 17:56:58.790573  6328 net.cpp:156] Memory required for data: 1135267104
I0403 17:56:58.790591  6328 layer_factory.hpp:77] Creating layer inception_4d/pool
I0403 17:56:58.790607  6328 net.cpp:91] Creating Layer inception_4d/pool
I0403 17:56:58.790624  6328 net.cpp:425] inception_4d/pool <- inception_4c/output_inception_4c/output_0_split_3
I0403 17:56:58.790644  6328 net.cpp:399] inception_4d/pool -> inception_4d/pool
I0403 17:56:58.790714  6328 net.cpp:141] Setting up inception_4d/pool
I0403 17:56:58.790740  6328 net.cpp:148] Top shape: 24 512 14 14 (2408448)
I0403 17:56:58.790753  6328 net.cpp:156] Memory required for data: 1144900896
I0403 17:56:58.790768  6328 layer_factory.hpp:77] Creating layer inception_4d/pool_proj
I0403 17:56:58.790791  6328 net.cpp:91] Creating Layer inception_4d/pool_proj
I0403 17:56:58.790809  6328 net.cpp:425] inception_4d/pool_proj <- inception_4d/pool
I0403 17:56:58.790830  6328 net.cpp:399] inception_4d/pool_proj -> inception_4d/pool_proj
I0403 17:56:58.792752  6328 net.cpp:141] Setting up inception_4d/pool_proj
I0403 17:56:58.792781  6328 net.cpp:148] Top shape: 24 64 14 14 (301056)
I0403 17:56:58.792798  6328 net.cpp:156] Memory required for data: 1146105120
I0403 17:56:58.792817  6328 layer_factory.hpp:77] Creating layer inception_4d/relu_pool_proj
I0403 17:56:58.792840  6328 net.cpp:91] Creating Layer inception_4d/relu_pool_proj
I0403 17:56:58.792857  6328 net.cpp:425] inception_4d/relu_pool_proj <- inception_4d/pool_proj
I0403 17:56:58.792876  6328 net.cpp:386] inception_4d/relu_pool_proj -> inception_4d/pool_proj (in-place)
I0403 17:56:58.793072  6328 net.cpp:141] Setting up inception_4d/relu_pool_proj
I0403 17:56:58.793102  6328 net.cpp:148] Top shape: 24 64 14 14 (301056)
I0403 17:56:58.793118  6328 net.cpp:156] Memory required for data: 1147309344
I0403 17:56:58.793133  6328 layer_factory.hpp:77] Creating layer inception_4d/output
I0403 17:56:58.793150  6328 net.cpp:91] Creating Layer inception_4d/output
I0403 17:56:58.793167  6328 net.cpp:425] inception_4d/output <- inception_4d/1x1
I0403 17:56:58.793191  6328 net.cpp:425] inception_4d/output <- inception_4d/3x3
I0403 17:56:58.793210  6328 net.cpp:425] inception_4d/output <- inception_4d/5x5
I0403 17:56:58.793226  6328 net.cpp:425] inception_4d/output <- inception_4d/pool_proj
I0403 17:56:58.793243  6328 net.cpp:399] inception_4d/output -> inception_4d/output
I0403 17:56:58.793295  6328 net.cpp:141] Setting up inception_4d/output
I0403 17:56:58.793320  6328 net.cpp:148] Top shape: 24 528 14 14 (2483712)
I0403 17:56:58.793336  6328 net.cpp:156] Memory required for data: 1157244192
I0403 17:56:58.793359  6328 layer_factory.hpp:77] Creating layer inception_4d/output_inception_4d/output_0_split
I0403 17:56:58.793380  6328 net.cpp:91] Creating Layer inception_4d/output_inception_4d/output_0_split
I0403 17:56:58.793397  6328 net.cpp:425] inception_4d/output_inception_4d/output_0_split <- inception_4d/output
I0403 17:56:58.793416  6328 net.cpp:399] inception_4d/output_inception_4d/output_0_split -> inception_4d/output_inception_4d/output_0_split_0
I0403 17:56:58.793437  6328 net.cpp:399] inception_4d/output_inception_4d/output_0_split -> inception_4d/output_inception_4d/output_0_split_1
I0403 17:56:58.793460  6328 net.cpp:399] inception_4d/output_inception_4d/output_0_split -> inception_4d/output_inception_4d/output_0_split_2
I0403 17:56:58.793483  6328 net.cpp:399] inception_4d/output_inception_4d/output_0_split -> inception_4d/output_inception_4d/output_0_split_3
I0403 17:56:58.793509  6328 net.cpp:399] inception_4d/output_inception_4d/output_0_split -> inception_4d/output_inception_4d/output_0_split_4
I0403 17:56:58.793619  6328 net.cpp:141] Setting up inception_4d/output_inception_4d/output_0_split
I0403 17:56:58.793658  6328 net.cpp:148] Top shape: 24 528 14 14 (2483712)
I0403 17:56:58.793684  6328 net.cpp:148] Top shape: 24 528 14 14 (2483712)
I0403 17:56:58.793701  6328 net.cpp:148] Top shape: 24 528 14 14 (2483712)
I0403 17:56:58.793717  6328 net.cpp:148] Top shape: 24 528 14 14 (2483712)
I0403 17:56:58.793735  6328 net.cpp:148] Top shape: 24 528 14 14 (2483712)
I0403 17:56:58.793748  6328 net.cpp:156] Memory required for data: 1206918432
I0403 17:56:58.793763  6328 layer_factory.hpp:77] Creating layer loss2/ave_pool
I0403 17:56:58.793781  6328 net.cpp:91] Creating Layer loss2/ave_pool
I0403 17:56:58.793797  6328 net.cpp:425] loss2/ave_pool <- inception_4d/output_inception_4d/output_0_split_0
I0403 17:56:58.793820  6328 net.cpp:399] loss2/ave_pool -> loss2/ave_pool
I0403 17:56:58.794152  6328 net.cpp:141] Setting up loss2/ave_pool
I0403 17:56:58.794185  6328 net.cpp:148] Top shape: 24 528 4 4 (202752)
I0403 17:56:58.794203  6328 net.cpp:156] Memory required for data: 1207729440
I0403 17:56:58.794219  6328 layer_factory.hpp:77] Creating layer loss2/conv
I0403 17:56:58.794244  6328 net.cpp:91] Creating Layer loss2/conv
I0403 17:56:58.794262  6328 net.cpp:425] loss2/conv <- loss2/ave_pool
I0403 17:56:58.794284  6328 net.cpp:399] loss2/conv -> loss2/conv
I0403 17:56:58.796324  6328 net.cpp:141] Setting up loss2/conv
I0403 17:56:58.796360  6328 net.cpp:148] Top shape: 24 128 4 4 (49152)
I0403 17:56:58.796377  6328 net.cpp:156] Memory required for data: 1207926048
I0403 17:56:58.796397  6328 layer_factory.hpp:77] Creating layer loss2/relu_conv
I0403 17:56:58.796416  6328 net.cpp:91] Creating Layer loss2/relu_conv
I0403 17:56:58.796435  6328 net.cpp:425] loss2/relu_conv <- loss2/conv
I0403 17:56:58.796454  6328 net.cpp:386] loss2/relu_conv -> loss2/conv (in-place)
I0403 17:56:58.796762  6328 net.cpp:141] Setting up loss2/relu_conv
I0403 17:56:58.796794  6328 net.cpp:148] Top shape: 24 128 4 4 (49152)
I0403 17:56:58.796811  6328 net.cpp:156] Memory required for data: 1208122656
I0403 17:56:58.796828  6328 layer_factory.hpp:77] Creating layer loss2/fc
I0403 17:56:58.796849  6328 net.cpp:91] Creating Layer loss2/fc
I0403 17:56:58.796865  6328 net.cpp:425] loss2/fc <- loss2/conv
I0403 17:56:58.796887  6328 net.cpp:399] loss2/fc -> loss2/fc
I0403 17:56:58.815851  6328 net.cpp:141] Setting up loss2/fc
I0403 17:56:58.815912  6328 net.cpp:148] Top shape: 24 1024 (24576)
I0403 17:56:58.815928  6328 net.cpp:156] Memory required for data: 1208220960
I0403 17:56:58.815950  6328 layer_factory.hpp:77] Creating layer loss2/relu_fc
I0403 17:56:58.815974  6328 net.cpp:91] Creating Layer loss2/relu_fc
I0403 17:56:58.815994  6328 net.cpp:425] loss2/relu_fc <- loss2/fc
I0403 17:56:58.816014  6328 net.cpp:386] loss2/relu_fc -> loss2/fc (in-place)
I0403 17:56:58.816375  6328 net.cpp:141] Setting up loss2/relu_fc
I0403 17:56:58.816403  6328 net.cpp:148] Top shape: 24 1024 (24576)
I0403 17:56:58.816421  6328 net.cpp:156] Memory required for data: 1208319264
I0403 17:56:58.816436  6328 layer_factory.hpp:77] Creating layer loss2/drop_fc
I0403 17:56:58.816457  6328 net.cpp:91] Creating Layer loss2/drop_fc
I0403 17:56:58.816475  6328 net.cpp:425] loss2/drop_fc <- loss2/fc
I0403 17:56:58.816495  6328 net.cpp:386] loss2/drop_fc -> loss2/fc (in-place)
I0403 17:56:58.816551  6328 net.cpp:141] Setting up loss2/drop_fc
I0403 17:56:58.816577  6328 net.cpp:148] Top shape: 24 1024 (24576)
I0403 17:56:58.816592  6328 net.cpp:156] Memory required for data: 1208417568
I0403 17:56:58.816607  6328 layer_factory.hpp:77] Creating layer loss2/classifier_plantvillage
I0403 17:56:58.816627  6328 net.cpp:91] Creating Layer loss2/classifier_plantvillage
I0403 17:56:58.816648  6328 net.cpp:425] loss2/classifier_plantvillage <- loss2/fc
I0403 17:56:58.816668  6328 net.cpp:399] loss2/classifier_plantvillage -> loss2/classifier_plantvillage
I0403 17:56:58.817107  6328 net.cpp:141] Setting up loss2/classifier_plantvillage
I0403 17:56:58.817136  6328 net.cpp:148] Top shape: 24 38 (912)
I0403 17:56:58.817175  6328 net.cpp:156] Memory required for data: 1208421216
I0403 17:56:58.817203  6328 layer_factory.hpp:77] Creating layer loss2/classifier_plantvillage_loss2/classifier_plantvillage_0_split
I0403 17:56:58.817221  6328 net.cpp:91] Creating Layer loss2/classifier_plantvillage_loss2/classifier_plantvillage_0_split
I0403 17:56:58.817239  6328 net.cpp:425] loss2/classifier_plantvillage_loss2/classifier_plantvillage_0_split <- loss2/classifier_plantvillage
I0403 17:56:58.817260  6328 net.cpp:399] loss2/classifier_plantvillage_loss2/classifier_plantvillage_0_split -> loss2/classifier_plantvillage_loss2/classifier_plantvillage_0_split_0
I0403 17:56:58.817283  6328 net.cpp:399] loss2/classifier_plantvillage_loss2/classifier_plantvillage_0_split -> loss2/classifier_plantvillage_loss2/classifier_plantvillage_0_split_1
I0403 17:56:58.817304  6328 net.cpp:399] loss2/classifier_plantvillage_loss2/classifier_plantvillage_0_split -> loss2/classifier_plantvillage_loss2/classifier_plantvillage_0_split_2
I0403 17:56:58.817387  6328 net.cpp:141] Setting up loss2/classifier_plantvillage_loss2/classifier_plantvillage_0_split
I0403 17:56:58.817414  6328 net.cpp:148] Top shape: 24 38 (912)
I0403 17:56:58.817430  6328 net.cpp:148] Top shape: 24 38 (912)
I0403 17:56:58.817446  6328 net.cpp:148] Top shape: 24 38 (912)
I0403 17:56:58.817461  6328 net.cpp:156] Memory required for data: 1208432160
I0403 17:56:58.817476  6328 layer_factory.hpp:77] Creating layer inception_4e/1x1
I0403 17:56:58.817500  6328 net.cpp:91] Creating Layer inception_4e/1x1
I0403 17:56:58.817519  6328 net.cpp:425] inception_4e/1x1 <- inception_4d/output_inception_4d/output_0_split_1
I0403 17:56:58.817551  6328 net.cpp:399] inception_4e/1x1 -> inception_4e/1x1
I0403 17:56:58.819479  6328 net.cpp:141] Setting up inception_4e/1x1
I0403 17:56:58.819511  6328 net.cpp:148] Top shape: 24 256 14 14 (1204224)
I0403 17:56:58.819528  6328 net.cpp:156] Memory required for data: 1213249056
I0403 17:56:58.819548  6328 layer_factory.hpp:77] Creating layer inception_4e/relu_1x1
I0403 17:56:58.819567  6328 net.cpp:91] Creating Layer inception_4e/relu_1x1
I0403 17:56:58.819583  6328 net.cpp:425] inception_4e/relu_1x1 <- inception_4e/1x1
I0403 17:56:58.819607  6328 net.cpp:386] inception_4e/relu_1x1 -> inception_4e/1x1 (in-place)
I0403 17:56:58.819911  6328 net.cpp:141] Setting up inception_4e/relu_1x1
I0403 17:56:58.819941  6328 net.cpp:148] Top shape: 24 256 14 14 (1204224)
I0403 17:56:58.819958  6328 net.cpp:156] Memory required for data: 1218065952
I0403 17:56:58.819974  6328 layer_factory.hpp:77] Creating layer inception_4e/3x3_reduce
I0403 17:56:58.819998  6328 net.cpp:91] Creating Layer inception_4e/3x3_reduce
I0403 17:56:58.820015  6328 net.cpp:425] inception_4e/3x3_reduce <- inception_4d/output_inception_4d/output_0_split_2
I0403 17:56:58.820034  6328 net.cpp:399] inception_4e/3x3_reduce -> inception_4e/3x3_reduce
I0403 17:56:58.822391  6328 net.cpp:141] Setting up inception_4e/3x3_reduce
I0403 17:56:58.822427  6328 net.cpp:148] Top shape: 24 160 14 14 (752640)
I0403 17:56:58.822445  6328 net.cpp:156] Memory required for data: 1221076512
I0403 17:56:58.822465  6328 layer_factory.hpp:77] Creating layer inception_4e/relu_3x3_reduce
I0403 17:56:58.822489  6328 net.cpp:91] Creating Layer inception_4e/relu_3x3_reduce
I0403 17:56:58.822505  6328 net.cpp:425] inception_4e/relu_3x3_reduce <- inception_4e/3x3_reduce
I0403 17:56:58.822523  6328 net.cpp:386] inception_4e/relu_3x3_reduce -> inception_4e/3x3_reduce (in-place)
I0403 17:56:58.822726  6328 net.cpp:141] Setting up inception_4e/relu_3x3_reduce
I0403 17:56:58.822754  6328 net.cpp:148] Top shape: 24 160 14 14 (752640)
I0403 17:56:58.822770  6328 net.cpp:156] Memory required for data: 1224087072
I0403 17:56:58.822787  6328 layer_factory.hpp:77] Creating layer inception_4e/3x3
I0403 17:56:58.822813  6328 net.cpp:91] Creating Layer inception_4e/3x3
I0403 17:56:58.822834  6328 net.cpp:425] inception_4e/3x3 <- inception_4e/3x3_reduce
I0403 17:56:58.822856  6328 net.cpp:399] inception_4e/3x3 -> inception_4e/3x3
I0403 17:56:58.828228  6328 net.cpp:141] Setting up inception_4e/3x3
I0403 17:56:58.828274  6328 net.cpp:148] Top shape: 24 320 14 14 (1505280)
I0403 17:56:58.828292  6328 net.cpp:156] Memory required for data: 1230108192
I0403 17:56:58.828312  6328 layer_factory.hpp:77] Creating layer inception_4e/relu_3x3
I0403 17:56:58.828332  6328 net.cpp:91] Creating Layer inception_4e/relu_3x3
I0403 17:56:58.828351  6328 net.cpp:425] inception_4e/relu_3x3 <- inception_4e/3x3
I0403 17:56:58.828372  6328 net.cpp:386] inception_4e/relu_3x3 -> inception_4e/3x3 (in-place)
I0403 17:56:58.828701  6328 net.cpp:141] Setting up inception_4e/relu_3x3
I0403 17:56:58.828730  6328 net.cpp:148] Top shape: 24 320 14 14 (1505280)
I0403 17:56:58.828747  6328 net.cpp:156] Memory required for data: 1236129312
I0403 17:56:58.828763  6328 layer_factory.hpp:77] Creating layer inception_4e/5x5_reduce
I0403 17:56:58.828790  6328 net.cpp:91] Creating Layer inception_4e/5x5_reduce
I0403 17:56:58.828810  6328 net.cpp:425] inception_4e/5x5_reduce <- inception_4d/output_inception_4d/output_0_split_3
I0403 17:56:58.828832  6328 net.cpp:399] inception_4e/5x5_reduce -> inception_4e/5x5_reduce
I0403 17:56:58.829983  6328 net.cpp:141] Setting up inception_4e/5x5_reduce
I0403 17:56:58.830014  6328 net.cpp:148] Top shape: 24 32 14 14 (150528)
I0403 17:56:58.830034  6328 net.cpp:156] Memory required for data: 1236731424
I0403 17:56:58.830052  6328 layer_factory.hpp:77] Creating layer inception_4e/relu_5x5_reduce
I0403 17:56:58.830071  6328 net.cpp:91] Creating Layer inception_4e/relu_5x5_reduce
I0403 17:56:58.830090  6328 net.cpp:425] inception_4e/relu_5x5_reduce <- inception_4e/5x5_reduce
I0403 17:56:58.830111  6328 net.cpp:386] inception_4e/relu_5x5_reduce -> inception_4e/5x5_reduce (in-place)
I0403 17:56:58.830423  6328 net.cpp:141] Setting up inception_4e/relu_5x5_reduce
I0403 17:56:58.830453  6328 net.cpp:148] Top shape: 24 32 14 14 (150528)
I0403 17:56:58.830471  6328 net.cpp:156] Memory required for data: 1237333536
I0403 17:56:58.830487  6328 layer_factory.hpp:77] Creating layer inception_4e/5x5
I0403 17:56:58.830529  6328 net.cpp:91] Creating Layer inception_4e/5x5
I0403 17:56:58.830549  6328 net.cpp:425] inception_4e/5x5 <- inception_4e/5x5_reduce
I0403 17:56:58.830569  6328 net.cpp:399] inception_4e/5x5 -> inception_4e/5x5
I0403 17:56:58.832506  6328 net.cpp:141] Setting up inception_4e/5x5
I0403 17:56:58.832536  6328 net.cpp:148] Top shape: 24 128 14 14 (602112)
I0403 17:56:58.832553  6328 net.cpp:156] Memory required for data: 1239741984
I0403 17:56:58.832572  6328 layer_factory.hpp:77] Creating layer inception_4e/relu_5x5
I0403 17:56:58.832594  6328 net.cpp:91] Creating Layer inception_4e/relu_5x5
I0403 17:56:58.832613  6328 net.cpp:425] inception_4e/relu_5x5 <- inception_4e/5x5
I0403 17:56:58.832631  6328 net.cpp:386] inception_4e/relu_5x5 -> inception_4e/5x5 (in-place)
I0403 17:56:58.832835  6328 net.cpp:141] Setting up inception_4e/relu_5x5
I0403 17:56:58.832865  6328 net.cpp:148] Top shape: 24 128 14 14 (602112)
I0403 17:56:58.832880  6328 net.cpp:156] Memory required for data: 1242150432
I0403 17:56:58.832896  6328 layer_factory.hpp:77] Creating layer inception_4e/pool
I0403 17:56:58.832917  6328 net.cpp:91] Creating Layer inception_4e/pool
I0403 17:56:58.832933  6328 net.cpp:425] inception_4e/pool <- inception_4d/output_inception_4d/output_0_split_4
I0403 17:56:58.832954  6328 net.cpp:399] inception_4e/pool -> inception_4e/pool
I0403 17:56:58.833031  6328 net.cpp:141] Setting up inception_4e/pool
I0403 17:56:58.833057  6328 net.cpp:148] Top shape: 24 528 14 14 (2483712)
I0403 17:56:58.833073  6328 net.cpp:156] Memory required for data: 1252085280
I0403 17:56:58.833088  6328 layer_factory.hpp:77] Creating layer inception_4e/pool_proj
I0403 17:56:58.833112  6328 net.cpp:91] Creating Layer inception_4e/pool_proj
I0403 17:56:58.833133  6328 net.cpp:425] inception_4e/pool_proj <- inception_4e/pool
I0403 17:56:58.833153  6328 net.cpp:399] inception_4e/pool_proj -> inception_4e/pool_proj
I0403 17:56:58.834722  6328 net.cpp:141] Setting up inception_4e/pool_proj
I0403 17:56:58.834764  6328 net.cpp:148] Top shape: 24 128 14 14 (602112)
I0403 17:56:58.834780  6328 net.cpp:156] Memory required for data: 1254493728
I0403 17:56:58.834800  6328 layer_factory.hpp:77] Creating layer inception_4e/relu_pool_proj
I0403 17:56:58.834821  6328 net.cpp:91] Creating Layer inception_4e/relu_pool_proj
I0403 17:56:58.834841  6328 net.cpp:425] inception_4e/relu_pool_proj <- inception_4e/pool_proj
I0403 17:56:58.834858  6328 net.cpp:386] inception_4e/relu_pool_proj -> inception_4e/pool_proj (in-place)
I0403 17:56:58.835160  6328 net.cpp:141] Setting up inception_4e/relu_pool_proj
I0403 17:56:58.835194  6328 net.cpp:148] Top shape: 24 128 14 14 (602112)
I0403 17:56:58.835213  6328 net.cpp:156] Memory required for data: 1256902176
I0403 17:56:58.835230  6328 layer_factory.hpp:77] Creating layer inception_4e/output
I0403 17:56:58.835249  6328 net.cpp:91] Creating Layer inception_4e/output
I0403 17:56:58.835264  6328 net.cpp:425] inception_4e/output <- inception_4e/1x1
I0403 17:56:58.835283  6328 net.cpp:425] inception_4e/output <- inception_4e/3x3
I0403 17:56:58.835301  6328 net.cpp:425] inception_4e/output <- inception_4e/5x5
I0403 17:56:58.835319  6328 net.cpp:425] inception_4e/output <- inception_4e/pool_proj
I0403 17:56:58.835335  6328 net.cpp:399] inception_4e/output -> inception_4e/output
I0403 17:56:58.835388  6328 net.cpp:141] Setting up inception_4e/output
I0403 17:56:58.835413  6328 net.cpp:148] Top shape: 24 832 14 14 (3913728)
I0403 17:56:58.835427  6328 net.cpp:156] Memory required for data: 1272557088
I0403 17:56:58.835441  6328 layer_factory.hpp:77] Creating layer pool4/3x3_s2
I0403 17:56:58.835459  6328 net.cpp:91] Creating Layer pool4/3x3_s2
I0403 17:56:58.835475  6328 net.cpp:425] pool4/3x3_s2 <- inception_4e/output
I0403 17:56:58.835496  6328 net.cpp:399] pool4/3x3_s2 -> pool4/3x3_s2
I0403 17:56:58.835566  6328 net.cpp:141] Setting up pool4/3x3_s2
I0403 17:56:58.835590  6328 net.cpp:148] Top shape: 24 832 7 7 (978432)
I0403 17:56:58.835605  6328 net.cpp:156] Memory required for data: 1276470816
I0403 17:56:58.835619  6328 layer_factory.hpp:77] Creating layer pool4/3x3_s2_pool4/3x3_s2_0_split
I0403 17:56:58.835640  6328 net.cpp:91] Creating Layer pool4/3x3_s2_pool4/3x3_s2_0_split
I0403 17:56:58.835657  6328 net.cpp:425] pool4/3x3_s2_pool4/3x3_s2_0_split <- pool4/3x3_s2
I0403 17:56:58.835675  6328 net.cpp:399] pool4/3x3_s2_pool4/3x3_s2_0_split -> pool4/3x3_s2_pool4/3x3_s2_0_split_0
I0403 17:56:58.835700  6328 net.cpp:399] pool4/3x3_s2_pool4/3x3_s2_0_split -> pool4/3x3_s2_pool4/3x3_s2_0_split_1
I0403 17:56:58.835719  6328 net.cpp:399] pool4/3x3_s2_pool4/3x3_s2_0_split -> pool4/3x3_s2_pool4/3x3_s2_0_split_2
I0403 17:56:58.835741  6328 net.cpp:399] pool4/3x3_s2_pool4/3x3_s2_0_split -> pool4/3x3_s2_pool4/3x3_s2_0_split_3
I0403 17:56:58.835834  6328 net.cpp:141] Setting up pool4/3x3_s2_pool4/3x3_s2_0_split
I0403 17:56:58.835856  6328 net.cpp:148] Top shape: 24 832 7 7 (978432)
I0403 17:56:58.835873  6328 net.cpp:148] Top shape: 24 832 7 7 (978432)
I0403 17:56:58.835889  6328 net.cpp:148] Top shape: 24 832 7 7 (978432)
I0403 17:56:58.835904  6328 net.cpp:148] Top shape: 24 832 7 7 (978432)
I0403 17:56:58.835918  6328 net.cpp:156] Memory required for data: 1292125728
I0403 17:56:58.835933  6328 layer_factory.hpp:77] Creating layer inception_5a/1x1
I0403 17:56:58.835955  6328 net.cpp:91] Creating Layer inception_5a/1x1
I0403 17:56:58.835973  6328 net.cpp:425] inception_5a/1x1 <- pool4/3x3_s2_pool4/3x3_s2_0_split_0
I0403 17:56:58.835994  6328 net.cpp:399] inception_5a/1x1 -> inception_5a/1x1
I0403 17:56:58.838937  6328 net.cpp:141] Setting up inception_5a/1x1
I0403 17:56:58.838969  6328 net.cpp:148] Top shape: 24 256 7 7 (301056)
I0403 17:56:58.838987  6328 net.cpp:156] Memory required for data: 1293329952
I0403 17:56:58.839006  6328 layer_factory.hpp:77] Creating layer inception_5a/relu_1x1
I0403 17:56:58.839025  6328 net.cpp:91] Creating Layer inception_5a/relu_1x1
I0403 17:56:58.839041  6328 net.cpp:425] inception_5a/relu_1x1 <- inception_5a/1x1
I0403 17:56:58.839059  6328 net.cpp:386] inception_5a/relu_1x1 -> inception_5a/1x1 (in-place)
I0403 17:56:58.839380  6328 net.cpp:141] Setting up inception_5a/relu_1x1
I0403 17:56:58.839407  6328 net.cpp:148] Top shape: 24 256 7 7 (301056)
I0403 17:56:58.839423  6328 net.cpp:156] Memory required for data: 1294534176
I0403 17:56:58.839437  6328 layer_factory.hpp:77] Creating layer inception_5a/3x3_reduce
I0403 17:56:58.839458  6328 net.cpp:91] Creating Layer inception_5a/3x3_reduce
I0403 17:56:58.839475  6328 net.cpp:425] inception_5a/3x3_reduce <- pool4/3x3_s2_pool4/3x3_s2_0_split_1
I0403 17:56:58.839495  6328 net.cpp:399] inception_5a/3x3_reduce -> inception_5a/3x3_reduce
I0403 17:56:58.841970  6328 net.cpp:141] Setting up inception_5a/3x3_reduce
I0403 17:56:58.842001  6328 net.cpp:148] Top shape: 24 160 7 7 (188160)
I0403 17:56:58.842017  6328 net.cpp:156] Memory required for data: 1295286816
I0403 17:56:58.842036  6328 layer_factory.hpp:77] Creating layer inception_5a/relu_3x3_reduce
I0403 17:56:58.842054  6328 net.cpp:91] Creating Layer inception_5a/relu_3x3_reduce
I0403 17:56:58.842072  6328 net.cpp:425] inception_5a/relu_3x3_reduce <- inception_5a/3x3_reduce
I0403 17:56:58.842093  6328 net.cpp:386] inception_5a/relu_3x3_reduce -> inception_5a/3x3_reduce (in-place)
I0403 17:56:58.842299  6328 net.cpp:141] Setting up inception_5a/relu_3x3_reduce
I0403 17:56:58.842326  6328 net.cpp:148] Top shape: 24 160 7 7 (188160)
I0403 17:56:58.842341  6328 net.cpp:156] Memory required for data: 1296039456
I0403 17:56:58.842357  6328 layer_factory.hpp:77] Creating layer inception_5a/3x3
I0403 17:56:58.842380  6328 net.cpp:91] Creating Layer inception_5a/3x3
I0403 17:56:58.842397  6328 net.cpp:425] inception_5a/3x3 <- inception_5a/3x3_reduce
I0403 17:56:58.842420  6328 net.cpp:399] inception_5a/3x3 -> inception_5a/3x3
I0403 17:56:58.847630  6328 net.cpp:141] Setting up inception_5a/3x3
I0403 17:56:58.847661  6328 net.cpp:148] Top shape: 24 320 7 7 (376320)
I0403 17:56:58.847676  6328 net.cpp:156] Memory required for data: 1297544736
I0403 17:56:58.847695  6328 layer_factory.hpp:77] Creating layer inception_5a/relu_3x3
I0403 17:56:58.847717  6328 net.cpp:91] Creating Layer inception_5a/relu_3x3
I0403 17:56:58.847734  6328 net.cpp:425] inception_5a/relu_3x3 <- inception_5a/3x3
I0403 17:56:58.847751  6328 net.cpp:386] inception_5a/relu_3x3 -> inception_5a/3x3 (in-place)
I0403 17:56:58.848052  6328 net.cpp:141] Setting up inception_5a/relu_3x3
I0403 17:56:58.848078  6328 net.cpp:148] Top shape: 24 320 7 7 (376320)
I0403 17:56:58.848093  6328 net.cpp:156] Memory required for data: 1299050016
I0403 17:56:58.848109  6328 layer_factory.hpp:77] Creating layer inception_5a/5x5_reduce
I0403 17:56:58.848134  6328 net.cpp:91] Creating Layer inception_5a/5x5_reduce
I0403 17:56:58.848150  6328 net.cpp:425] inception_5a/5x5_reduce <- pool4/3x3_s2_pool4/3x3_s2_0_split_2
I0403 17:56:58.848170  6328 net.cpp:399] inception_5a/5x5_reduce -> inception_5a/5x5_reduce
I0403 17:56:58.849390  6328 net.cpp:141] Setting up inception_5a/5x5_reduce
I0403 17:56:58.849421  6328 net.cpp:148] Top shape: 24 32 7 7 (37632)
I0403 17:56:58.849438  6328 net.cpp:156] Memory required for data: 1299200544
I0403 17:56:58.849457  6328 layer_factory.hpp:77] Creating layer inception_5a/relu_5x5_reduce
I0403 17:56:58.849473  6328 net.cpp:91] Creating Layer inception_5a/relu_5x5_reduce
I0403 17:56:58.849489  6328 net.cpp:425] inception_5a/relu_5x5_reduce <- inception_5a/5x5_reduce
I0403 17:56:58.849505  6328 net.cpp:386] inception_5a/relu_5x5_reduce -> inception_5a/5x5_reduce (in-place)
I0403 17:56:58.849807  6328 net.cpp:141] Setting up inception_5a/relu_5x5_reduce
I0403 17:56:58.849835  6328 net.cpp:148] Top shape: 24 32 7 7 (37632)
I0403 17:56:58.849851  6328 net.cpp:156] Memory required for data: 1299351072
I0403 17:56:58.849865  6328 layer_factory.hpp:77] Creating layer inception_5a/5x5
I0403 17:56:58.849887  6328 net.cpp:91] Creating Layer inception_5a/5x5
I0403 17:56:58.849906  6328 net.cpp:425] inception_5a/5x5 <- inception_5a/5x5_reduce
I0403 17:56:58.849925  6328 net.cpp:399] inception_5a/5x5 -> inception_5a/5x5
I0403 17:56:58.851661  6328 net.cpp:141] Setting up inception_5a/5x5
I0403 17:56:58.851701  6328 net.cpp:148] Top shape: 24 128 7 7 (150528)
I0403 17:56:58.851717  6328 net.cpp:156] Memory required for data: 1299953184
I0403 17:56:58.851735  6328 layer_factory.hpp:77] Creating layer inception_5a/relu_5x5
I0403 17:56:58.851757  6328 net.cpp:91] Creating Layer inception_5a/relu_5x5
I0403 17:56:58.851774  6328 net.cpp:425] inception_5a/relu_5x5 <- inception_5a/5x5
I0403 17:56:58.851794  6328 net.cpp:386] inception_5a/relu_5x5 -> inception_5a/5x5 (in-place)
I0403 17:56:58.851986  6328 net.cpp:141] Setting up inception_5a/relu_5x5
I0403 17:56:58.852013  6328 net.cpp:148] Top shape: 24 128 7 7 (150528)
I0403 17:56:58.852028  6328 net.cpp:156] Memory required for data: 1300555296
I0403 17:56:58.852043  6328 layer_factory.hpp:77] Creating layer inception_5a/pool
I0403 17:56:58.852061  6328 net.cpp:91] Creating Layer inception_5a/pool
I0403 17:56:58.852077  6328 net.cpp:425] inception_5a/pool <- pool4/3x3_s2_pool4/3x3_s2_0_split_3
I0403 17:56:58.852097  6328 net.cpp:399] inception_5a/pool -> inception_5a/pool
I0403 17:56:58.852167  6328 net.cpp:141] Setting up inception_5a/pool
I0403 17:56:58.852203  6328 net.cpp:148] Top shape: 24 832 7 7 (978432)
I0403 17:56:58.852219  6328 net.cpp:156] Memory required for data: 1304469024
I0403 17:56:58.852234  6328 layer_factory.hpp:77] Creating layer inception_5a/pool_proj
I0403 17:56:58.852257  6328 net.cpp:91] Creating Layer inception_5a/pool_proj
I0403 17:56:58.852274  6328 net.cpp:425] inception_5a/pool_proj <- inception_5a/pool
I0403 17:56:58.852293  6328 net.cpp:399] inception_5a/pool_proj -> inception_5a/pool_proj
I0403 17:56:58.854591  6328 net.cpp:141] Setting up inception_5a/pool_proj
I0403 17:56:58.854624  6328 net.cpp:148] Top shape: 24 128 7 7 (150528)
I0403 17:56:58.854640  6328 net.cpp:156] Memory required for data: 1305071136
I0403 17:56:58.854660  6328 layer_factory.hpp:77] Creating layer inception_5a/relu_pool_proj
I0403 17:56:58.854681  6328 net.cpp:91] Creating Layer inception_5a/relu_pool_proj
I0403 17:56:58.854698  6328 net.cpp:425] inception_5a/relu_pool_proj <- inception_5a/pool_proj
I0403 17:56:58.854715  6328 net.cpp:386] inception_5a/relu_pool_proj -> inception_5a/pool_proj (in-place)
I0403 17:56:58.855010  6328 net.cpp:141] Setting up inception_5a/relu_pool_proj
I0403 17:56:58.855036  6328 net.cpp:148] Top shape: 24 128 7 7 (150528)
I0403 17:56:58.855051  6328 net.cpp:156] Memory required for data: 1305673248
I0403 17:56:58.855065  6328 layer_factory.hpp:77] Creating layer inception_5a/output
I0403 17:56:58.855085  6328 net.cpp:91] Creating Layer inception_5a/output
I0403 17:56:58.855101  6328 net.cpp:425] inception_5a/output <- inception_5a/1x1
I0403 17:56:58.855118  6328 net.cpp:425] inception_5a/output <- inception_5a/3x3
I0403 17:56:58.855134  6328 net.cpp:425] inception_5a/output <- inception_5a/5x5
I0403 17:56:58.855149  6328 net.cpp:425] inception_5a/output <- inception_5a/pool_proj
I0403 17:56:58.855165  6328 net.cpp:399] inception_5a/output -> inception_5a/output
I0403 17:56:58.855223  6328 net.cpp:141] Setting up inception_5a/output
I0403 17:56:58.855247  6328 net.cpp:148] Top shape: 24 832 7 7 (978432)
I0403 17:56:58.855262  6328 net.cpp:156] Memory required for data: 1309586976
I0403 17:56:58.855275  6328 layer_factory.hpp:77] Creating layer inception_5a/output_inception_5a/output_0_split
I0403 17:56:58.855293  6328 net.cpp:91] Creating Layer inception_5a/output_inception_5a/output_0_split
I0403 17:56:58.855307  6328 net.cpp:425] inception_5a/output_inception_5a/output_0_split <- inception_5a/output
I0403 17:56:58.855327  6328 net.cpp:399] inception_5a/output_inception_5a/output_0_split -> inception_5a/output_inception_5a/output_0_split_0
I0403 17:56:58.855347  6328 net.cpp:399] inception_5a/output_inception_5a/output_0_split -> inception_5a/output_inception_5a/output_0_split_1
I0403 17:56:58.855367  6328 net.cpp:399] inception_5a/output_inception_5a/output_0_split -> inception_5a/output_inception_5a/output_0_split_2
I0403 17:56:58.855387  6328 net.cpp:399] inception_5a/output_inception_5a/output_0_split -> inception_5a/output_inception_5a/output_0_split_3
I0403 17:56:58.855499  6328 net.cpp:141] Setting up inception_5a/output_inception_5a/output_0_split
I0403 17:56:58.855526  6328 net.cpp:148] Top shape: 24 832 7 7 (978432)
I0403 17:56:58.855543  6328 net.cpp:148] Top shape: 24 832 7 7 (978432)
I0403 17:56:58.855559  6328 net.cpp:148] Top shape: 24 832 7 7 (978432)
I0403 17:56:58.855574  6328 net.cpp:148] Top shape: 24 832 7 7 (978432)
I0403 17:56:58.855587  6328 net.cpp:156] Memory required for data: 1325241888
I0403 17:56:58.855602  6328 layer_factory.hpp:77] Creating layer inception_5b/1x1
I0403 17:56:58.855623  6328 net.cpp:91] Creating Layer inception_5b/1x1
I0403 17:56:58.855641  6328 net.cpp:425] inception_5b/1x1 <- inception_5a/output_inception_5a/output_0_split_0
I0403 17:56:58.855659  6328 net.cpp:399] inception_5b/1x1 -> inception_5b/1x1
I0403 17:56:58.859468  6328 net.cpp:141] Setting up inception_5b/1x1
I0403 17:56:58.859499  6328 net.cpp:148] Top shape: 24 384 7 7 (451584)
I0403 17:56:58.859515  6328 net.cpp:156] Memory required for data: 1327048224
I0403 17:56:58.859534  6328 layer_factory.hpp:77] Creating layer inception_5b/relu_1x1
I0403 17:56:58.859552  6328 net.cpp:91] Creating Layer inception_5b/relu_1x1
I0403 17:56:58.859570  6328 net.cpp:425] inception_5b/relu_1x1 <- inception_5b/1x1
I0403 17:56:58.859591  6328 net.cpp:386] inception_5b/relu_1x1 -> inception_5b/1x1 (in-place)
I0403 17:56:58.859899  6328 net.cpp:141] Setting up inception_5b/relu_1x1
I0403 17:56:58.859925  6328 net.cpp:148] Top shape: 24 384 7 7 (451584)
I0403 17:56:58.859938  6328 net.cpp:156] Memory required for data: 1328854560
I0403 17:56:58.859954  6328 layer_factory.hpp:77] Creating layer inception_5b/3x3_reduce
I0403 17:56:58.859977  6328 net.cpp:91] Creating Layer inception_5b/3x3_reduce
I0403 17:56:58.859994  6328 net.cpp:425] inception_5b/3x3_reduce <- inception_5a/output_inception_5a/output_0_split_1
I0403 17:56:58.860016  6328 net.cpp:399] inception_5b/3x3_reduce -> inception_5b/3x3_reduce
I0403 17:56:58.862790  6328 net.cpp:141] Setting up inception_5b/3x3_reduce
I0403 17:56:58.862821  6328 net.cpp:148] Top shape: 24 192 7 7 (225792)
I0403 17:56:58.862838  6328 net.cpp:156] Memory required for data: 1329757728
I0403 17:56:58.862856  6328 layer_factory.hpp:77] Creating layer inception_5b/relu_3x3_reduce
I0403 17:56:58.862876  6328 net.cpp:91] Creating Layer inception_5b/relu_3x3_reduce
I0403 17:56:58.862893  6328 net.cpp:425] inception_5b/relu_3x3_reduce <- inception_5b/3x3_reduce
I0403 17:56:58.862910  6328 net.cpp:386] inception_5b/relu_3x3_reduce -> inception_5b/3x3_reduce (in-place)
I0403 17:56:58.863106  6328 net.cpp:141] Setting up inception_5b/relu_3x3_reduce
I0403 17:56:58.863131  6328 net.cpp:148] Top shape: 24 192 7 7 (225792)
I0403 17:56:58.863144  6328 net.cpp:156] Memory required for data: 1330660896
I0403 17:56:58.863158  6328 layer_factory.hpp:77] Creating layer inception_5b/3x3
I0403 17:56:58.863188  6328 net.cpp:91] Creating Layer inception_5b/3x3
I0403 17:56:58.863206  6328 net.cpp:425] inception_5b/3x3 <- inception_5b/3x3_reduce
I0403 17:56:58.863225  6328 net.cpp:399] inception_5b/3x3 -> inception_5b/3x3
I0403 17:56:58.870117  6328 net.cpp:141] Setting up inception_5b/3x3
I0403 17:56:58.870160  6328 net.cpp:148] Top shape: 24 384 7 7 (451584)
I0403 17:56:58.870182  6328 net.cpp:156] Memory required for data: 1332467232
I0403 17:56:58.870204  6328 layer_factory.hpp:77] Creating layer inception_5b/relu_3x3
I0403 17:56:58.870226  6328 net.cpp:91] Creating Layer inception_5b/relu_3x3
I0403 17:56:58.870244  6328 net.cpp:425] inception_5b/relu_3x3 <- inception_5b/3x3
I0403 17:56:58.870273  6328 net.cpp:386] inception_5b/relu_3x3 -> inception_5b/3x3 (in-place)
I0403 17:56:58.870628  6328 net.cpp:141] Setting up inception_5b/relu_3x3
I0403 17:56:58.870666  6328 net.cpp:148] Top shape: 24 384 7 7 (451584)
I0403 17:56:58.870700  6328 net.cpp:156] Memory required for data: 1334273568
I0403 17:56:58.870717  6328 layer_factory.hpp:77] Creating layer inception_5b/5x5_reduce
I0403 17:56:58.870756  6328 net.cpp:91] Creating Layer inception_5b/5x5_reduce
I0403 17:56:58.870779  6328 net.cpp:425] inception_5b/5x5_reduce <- inception_5a/output_inception_5a/output_0_split_2
I0403 17:56:58.870803  6328 net.cpp:399] inception_5b/5x5_reduce -> inception_5b/5x5_reduce
I0403 17:56:58.872836  6328 net.cpp:141] Setting up inception_5b/5x5_reduce
I0403 17:56:58.872869  6328 net.cpp:148] Top shape: 24 48 7 7 (56448)
I0403 17:56:58.872884  6328 net.cpp:156] Memory required for data: 1334499360
I0403 17:56:58.872905  6328 layer_factory.hpp:77] Creating layer inception_5b/relu_5x5_reduce
I0403 17:56:58.872925  6328 net.cpp:91] Creating Layer inception_5b/relu_5x5_reduce
I0403 17:56:58.872944  6328 net.cpp:425] inception_5b/relu_5x5_reduce <- inception_5b/5x5_reduce
I0403 17:56:58.872963  6328 net.cpp:386] inception_5b/relu_5x5_reduce -> inception_5b/5x5_reduce (in-place)
I0403 17:56:58.873610  6328 net.cpp:141] Setting up inception_5b/relu_5x5_reduce
I0403 17:56:58.873638  6328 net.cpp:148] Top shape: 24 48 7 7 (56448)
I0403 17:56:58.873654  6328 net.cpp:156] Memory required for data: 1334725152
I0403 17:56:58.873726  6328 layer_factory.hpp:77] Creating layer inception_5b/5x5
I0403 17:56:58.873776  6328 net.cpp:91] Creating Layer inception_5b/5x5
I0403 17:56:58.873814  6328 net.cpp:425] inception_5b/5x5 <- inception_5b/5x5_reduce
I0403 17:56:58.873837  6328 net.cpp:399] inception_5b/5x5 -> inception_5b/5x5
I0403 17:56:58.876246  6328 net.cpp:141] Setting up inception_5b/5x5
I0403 17:56:58.876277  6328 net.cpp:148] Top shape: 24 128 7 7 (150528)
I0403 17:56:58.876297  6328 net.cpp:156] Memory required for data: 1335327264
I0403 17:56:58.876317  6328 layer_factory.hpp:77] Creating layer inception_5b/relu_5x5
I0403 17:56:58.876337  6328 net.cpp:91] Creating Layer inception_5b/relu_5x5
I0403 17:56:58.876353  6328 net.cpp:425] inception_5b/relu_5x5 <- inception_5b/5x5
I0403 17:56:58.876374  6328 net.cpp:386] inception_5b/relu_5x5 -> inception_5b/5x5 (in-place)
I0403 17:56:58.876610  6328 net.cpp:141] Setting up inception_5b/relu_5x5
I0403 17:56:58.876639  6328 net.cpp:148] Top shape: 24 128 7 7 (150528)
I0403 17:56:58.876657  6328 net.cpp:156] Memory required for data: 1335929376
I0403 17:56:58.876672  6328 layer_factory.hpp:77] Creating layer inception_5b/pool
I0403 17:56:58.876690  6328 net.cpp:91] Creating Layer inception_5b/pool
I0403 17:56:58.876718  6328 net.cpp:425] inception_5b/pool <- inception_5a/output_inception_5a/output_0_split_3
I0403 17:56:58.876747  6328 net.cpp:399] inception_5b/pool -> inception_5b/pool
I0403 17:56:58.876839  6328 net.cpp:141] Setting up inception_5b/pool
I0403 17:56:58.876868  6328 net.cpp:148] Top shape: 24 832 7 7 (978432)
I0403 17:56:58.876893  6328 net.cpp:156] Memory required for data: 1339843104
I0403 17:56:58.876911  6328 layer_factory.hpp:77] Creating layer inception_5b/pool_proj
I0403 17:56:58.876935  6328 net.cpp:91] Creating Layer inception_5b/pool_proj
I0403 17:56:58.876955  6328 net.cpp:425] inception_5b/pool_proj <- inception_5b/pool
I0403 17:56:58.876976  6328 net.cpp:399] inception_5b/pool_proj -> inception_5b/pool_proj
I0403 17:56:58.879612  6328 net.cpp:141] Setting up inception_5b/pool_proj
I0403 17:56:58.879644  6328 net.cpp:148] Top shape: 24 128 7 7 (150528)
I0403 17:56:58.879667  6328 net.cpp:156] Memory required for data: 1340445216
I0403 17:56:58.879686  6328 layer_factory.hpp:77] Creating layer inception_5b/relu_pool_proj
I0403 17:56:58.879709  6328 net.cpp:91] Creating Layer inception_5b/relu_pool_proj
I0403 17:56:58.879729  6328 net.cpp:425] inception_5b/relu_pool_proj <- inception_5b/pool_proj
I0403 17:56:58.879746  6328 net.cpp:386] inception_5b/relu_pool_proj -> inception_5b/pool_proj (in-place)
I0403 17:56:58.880091  6328 net.cpp:141] Setting up inception_5b/relu_pool_proj
I0403 17:56:58.880122  6328 net.cpp:148] Top shape: 24 128 7 7 (150528)
I0403 17:56:58.880149  6328 net.cpp:156] Memory required for data: 1341047328
I0403 17:56:58.880172  6328 layer_factory.hpp:77] Creating layer inception_5b/output
I0403 17:56:58.880203  6328 net.cpp:91] Creating Layer inception_5b/output
I0403 17:56:58.880249  6328 net.cpp:425] inception_5b/output <- inception_5b/1x1
I0403 17:56:58.880270  6328 net.cpp:425] inception_5b/output <- inception_5b/3x3
I0403 17:56:58.880287  6328 net.cpp:425] inception_5b/output <- inception_5b/5x5
I0403 17:56:58.880313  6328 net.cpp:425] inception_5b/output <- inception_5b/pool_proj
I0403 17:56:58.880333  6328 net.cpp:399] inception_5b/output -> inception_5b/output
I0403 17:56:58.880391  6328 net.cpp:141] Setting up inception_5b/output
I0403 17:56:58.880416  6328 net.cpp:148] Top shape: 24 1024 7 7 (1204224)
I0403 17:56:58.880431  6328 net.cpp:156] Memory required for data: 1345864224
I0403 17:56:58.880447  6328 layer_factory.hpp:77] Creating layer pool5/7x7_s1
I0403 17:56:58.880477  6328 net.cpp:91] Creating Layer pool5/7x7_s1
I0403 17:56:58.880501  6328 net.cpp:425] pool5/7x7_s1 <- inception_5b/output
I0403 17:56:58.880523  6328 net.cpp:399] pool5/7x7_s1 -> pool5/7x7_s1
I0403 17:56:58.880791  6328 net.cpp:141] Setting up pool5/7x7_s1
I0403 17:56:58.880823  6328 net.cpp:148] Top shape: 24 1024 1 1 (24576)
I0403 17:56:58.880841  6328 net.cpp:156] Memory required for data: 1345962528
I0403 17:56:58.880856  6328 layer_factory.hpp:77] Creating layer pool5/drop_7x7_s1
I0403 17:56:58.880890  6328 net.cpp:91] Creating Layer pool5/drop_7x7_s1
I0403 17:56:58.880916  6328 net.cpp:425] pool5/drop_7x7_s1 <- pool5/7x7_s1
I0403 17:56:58.880936  6328 net.cpp:386] pool5/drop_7x7_s1 -> pool5/7x7_s1 (in-place)
I0403 17:56:58.880993  6328 net.cpp:141] Setting up pool5/drop_7x7_s1
I0403 17:56:58.881017  6328 net.cpp:148] Top shape: 24 1024 1 1 (24576)
I0403 17:56:58.881032  6328 net.cpp:156] Memory required for data: 1346060832
I0403 17:56:58.881047  6328 layer_factory.hpp:77] Creating layer loss3/classifier_plantvillage
I0403 17:56:58.881067  6328 net.cpp:91] Creating Layer loss3/classifier_plantvillage
I0403 17:56:58.881099  6328 net.cpp:425] loss3/classifier_plantvillage <- pool5/7x7_s1
I0403 17:56:58.881124  6328 net.cpp:399] loss3/classifier_plantvillage -> loss3/classifier_plantvillage
I0403 17:56:58.881631  6328 net.cpp:141] Setting up loss3/classifier_plantvillage
I0403 17:56:58.881659  6328 net.cpp:148] Top shape: 24 38 (912)
I0403 17:56:58.881686  6328 net.cpp:156] Memory required for data: 1346064480
I0403 17:56:58.881712  6328 layer_factory.hpp:77] Creating layer loss3/classifier_plantvillage_loss3/classifier_plantvillage_0_split
I0403 17:56:58.881731  6328 net.cpp:91] Creating Layer loss3/classifier_plantvillage_loss3/classifier_plantvillage_0_split
I0403 17:56:58.881748  6328 net.cpp:425] loss3/classifier_plantvillage_loss3/classifier_plantvillage_0_split <- loss3/classifier_plantvillage
I0403 17:56:58.881769  6328 net.cpp:399] loss3/classifier_plantvillage_loss3/classifier_plantvillage_0_split -> loss3/classifier_plantvillage_loss3/classifier_plantvillage_0_split_0
I0403 17:56:58.881804  6328 net.cpp:399] loss3/classifier_plantvillage_loss3/classifier_plantvillage_0_split -> loss3/classifier_plantvillage_loss3/classifier_plantvillage_0_split_1
I0403 17:56:58.881832  6328 net.cpp:399] loss3/classifier_plantvillage_loss3/classifier_plantvillage_0_split -> loss3/classifier_plantvillage_loss3/classifier_plantvillage_0_split_2
I0403 17:56:58.881857  6328 net.cpp:399] loss3/classifier_plantvillage_loss3/classifier_plantvillage_0_split -> loss3/classifier_plantvillage_loss3/classifier_plantvillage_0_split_3
I0403 17:56:58.881980  6328 net.cpp:141] Setting up loss3/classifier_plantvillage_loss3/classifier_plantvillage_0_split
I0403 17:56:58.882016  6328 net.cpp:148] Top shape: 24 38 (912)
I0403 17:56:58.882042  6328 net.cpp:148] Top shape: 24 38 (912)
I0403 17:56:58.882061  6328 net.cpp:148] Top shape: 24 38 (912)
I0403 17:56:58.882077  6328 net.cpp:148] Top shape: 24 38 (912)
I0403 17:56:58.882102  6328 net.cpp:156] Memory required for data: 1346079072
I0403 17:56:58.882118  6328 layer_factory.hpp:77] Creating layer loss1/loss
I0403 17:56:58.882143  6328 net.cpp:91] Creating Layer loss1/loss
I0403 17:56:58.882160  6328 net.cpp:425] loss1/loss <- loss1/classifier_plantvillage_loss1/classifier_plantvillage_0_split_0
I0403 17:56:58.882207  6328 net.cpp:425] loss1/loss <- label_data_1_split_0
…
