…
I0403 18:23:22.182641  6884 net.cpp:313] The NetState phase (1) differed from the phase (0) specified by a rule in layer data
I0403 18:23:22.183857  6884 net.cpp:49] Initializing net from parameters: 
state {
  phase: TEST
}
layer {
  name: "data"
  type: "Data"
  top: "data"
  top: "label"
  include {
    phase: TEST
  }
  transform_param {
    mirror: false
    crop_size: 224
    mean_file: "/home/mohanty/data/final_dataset/lmdb/segmented-50-50/mean.binaryproto"
  }
  data_param {
    source: "/home/mohanty/data/final_dataset/lmdb/segmented-50-50/test_db"
    batch_size: 24
    backend: LMDB
  }
}
layer {
  name: "conv1/7x7_s2"
  type: "Convolution"
  bottom: "data"
  top: "conv1/7x7_s2"
  param {
    lr_mult: 1
    decay_mult: 1
  }
  param {
    lr_mult: 2
    decay_mult: 0
  }
  convolution_param {
    num_output: 64
    pad: 3
    kernel_size: 7
    stride: 2
    weight_filler {
      type: "xavier"
      std: 0.1
    }
    bias_filler {
      type: "constant"
      value: 0.2
    }
  }
}
layer {
  name: "conv1/relu_7x7"
  type: "ReLU"
  bottom: "conv1/7x7_s2"
  top: "conv1/7x7_s2"
}
layer {
  name: "pool1/3x3_s2"
  type: "Pooling"
  bottom: "conv1/7x7_s2"
  top: "pool1/3x3_s2"
  pooling_param {
    pool: MAX
    kernel_size: 3
    stride: 2
  }
}
layer {
  name: "pool1/norm1"
  type: "LRN"
  bottom: "pool1/3x3_s2"
  top: "pool1/norm1"
  lrn_param {
    local_size: 5
    alpha: 0.0001
    beta: 0.75
  }
}
layer {
  name: "conv2/3x3_reduce"
  type: "Convolution"
  bottom: "pool1/norm1"
  top: "conv2/3x3_reduce"
  param {
    lr_mult: 1
    decay_mult: 1
  }
  param {
    lr_mult: 2
    decay_mult: 0
  }
  convolution_param {
    num_output: 64
    kernel_size: 1
    weight_filler {
      type: "xavier"
      std: 0.1
    }
    bias_filler {
      type: "constant"
      value: 0.2
    }
  }
}
layer {
  name: "conv2/relu_3x3_reduce"
  type: "ReLU"
  bottom: "conv2/3x3_reduce"
  top: "conv2/3x3_reduce"
}
layer {
  name: "conv2/3x3"
  type: "Convolution"
  bottom: "conv2/3x3_reduce"
  top: "conv2/3x3"
  param {
    lr_mult: 1
    decay_mult: 1
  }
  param {
    lr_mult: 2
    decay_mult: 0
  }
  convolution_param {
    num_output: 192
    pad: 1
    kernel_size: 3
    weight_filler {
      type: "xavier"
      std: 0.03
    }
    bias_filler {
      type: "constant"
      value: 0.2
    }
  }
}
layer {
  name: "conv2/relu_3x3"
  type: "ReLU"
  bottom: "conv2/3x3"
  top: "conv2/3x3"
}
layer {
  name: "conv2/norm2"
  type: "LRN"
  bottom: "conv2/3x3"
  top: "conv2/norm2"
  lrn_param {
    local_size: 5
    alpha: 0.0001
    beta: 0.75
  }
}
layer {
  name: "pool2/3x3_s2"
  type: "Pooling"
  bottom: "conv2/norm2"
  top: "pool2/3x3_s2"
  pooling_param {
    pool: MAX
    kernel_size: 3
    stride: 2
  }
}
layer {
  name: "inception_3a/1x1"
  type: "Convolution"
  bottom: "pool2/3x3_s2"
  top: "inception_3a/1x1"
  param {
    lr_mult: 1
    decay_mult: 1
  }
  param {
    lr_mult: 2
    decay_mult: 0
  }
  convolution_param {
    num_output: 64
    kernel_size: 1
    weight_filler {
      type: "xavier"
      std: 0.03
    }
    bias_filler {
      type: "constant"
      value: 0.2
    }
  }
}
layer {
  name: "inception_3a/relu_1x1"
  type: "ReLU"
  bottom: "inception_3a/1x1"
  top: "inception_3a/1x1"
}
layer {
  name: "inception_3a/3x3_reduce"
  type: "Convolution"
  bottom: "pool2/3x3_s2"
  top: "inception_3a/3x3_reduce"
  param {
    lr_mult: 1
    decay_mult: 1
  }
  param {
    lr_mult: 2
    decay_mult: 0
  }
  convolution_param {
    num_output: 96
    kernel_size: 1
    weight_filler {
      type: "xavier"
      std: 0.09
    }
    bias_filler {
      type: "constant"
      value: 0.2
    }
  }
}
layer {
  name: "inception_3a/relu_3x3_reduce"
  type: "ReLU"
  bottom: "inception_3a/3x3_reduce"
  top: "inception_3a/3x3_reduce"
}
layer {
  name: "inception_3a/3x3"
  type: "Convolution"
  bottom: "inception_3a/3x3_reduce"
  top: "inception_3a/3x3"
  param {
    lr_mult: 1
    decay_mult: 1
  }
  param {
    lr_mult: 2
    decay_mult: 0
  }
  convolution_param {
    num_output: 128
    pad: 1
    kernel_size: 3
    weight_filler {
      type: "xavier"
      std: 0.03
    }
    bias_filler {
      type: "constant"
      value: 0.2
    }
  }
}
layer {
  name: "inception_3a/relu_3x3"
  type: "ReLU"
  bottom: "inception_3a/3x3"
  top: "inception_3a/3x3"
}
layer {
  name: "inception_3a/5x5_reduce"
  type: "Convolution"
  bottom: "pool2/3x3_s2"
  top: "inception_3a/5x5_reduce"
  param {
    lr_mult: 1
    decay_mult: 1
  }
  param {
    lr_mult: 2
    decay_mult: 0
  }
  convolution_param {
    num_output: 16
    kernel_size: 1
    weight_filler {
      type: "xavier"
      std: 0.2
    }
    bias_filler {
      type: "constant"
      value: 0.2
    }
  }
}
layer {
  name: "inception_3a/relu_5x5_reduce"
  type: "ReLU"
  bottom: "inception_3a/5x5_reduce"
  top: "inception_3a/5x5_reduce"
}
layer {
  name: "inception_3a/5x5"
  type: "Convolution"
  bottom: "inception_3a/5x5_reduce"
  top: "inception_3a/5x5"
  param {
    lr_mult: 1
    decay_mult: 1
  }
  param {
    lr_mult: 2
    decay_mult: 0
  }
  convolution_param {
    num_output: 32
    pad: 2
    kernel_size: 5
    weight_filler {
      type: "xavier"
      std: 0.03
    }
    bias_filler {
      type: "constant"
      value: 0.2
    }
  }
}
layer {
  name: "inception_3a/relu_5x5"
  type: "ReLU"
  bottom: "inception_3a/5x5"
  top: "inception_3a/5x5"
}
layer {
  name: "inception_3a/pool"
  type: "Pooling"
  bottom: "pool2/3x3_s2"
  top: "inception_3a/pool"
  pooling_param {
    pool: MAX
    kernel_size: 3
    stride: 1
    pad: 1
  }
}
layer {
  name: "inception_3a/pool_proj"
  type: "Convolution"
  bottom: "inception_3a/pool"
  top: "inception_3a/pool_proj"
  param {
    lr_mult: 1
    decay_mult: 1
  }
  param {
    lr_mult: 2
    decay_mult: 0
  }
  convolution_param {
    num_output: 32
    kernel_size: 1
    weight_filler {
      type: "xavier"
      std: 0.1
    }
    bias_filler {
      type: "constant"
      value: 0.2
    }
  }
}
layer {
  name: "inception_3a/relu_pool_proj"
  type: "ReLU"
  bottom: "inception_3a/pool_proj"
  top: "inception_3a/pool_proj"
}
layer {
  name: "inception_3a/output"
  type: "Concat"
  bottom: "inception_3a/1x1"
  bottom: "inception_3a/3x3"
  bottom: "inception_3a/5x5"
  bottom: "inception_3a/pool_proj"
  top: "inception_3a/output"
}
layer {
  name: "inception_3b/1x1"
  type: "Convolution"
  bottom: "inception_3a/output"
  top: "inception_3b/1x1"
  param {
    lr_mult: 1
    decay_mult: 1
  }
  param {
    lr_mult: 2
    decay_mult: 0
  }
  convolution_param {
    num_output: 128
    kernel_size: 1
    weight_filler {
      type: "xavier"
      std: 0.03
    }
    bias_filler {
      type: "constant"
      value: 0.2
    }
  }
}
layer {
  name: "inception_3b/relu_1x1"
  type: "ReLU"
  bottom: "inception_3b/1x1"
  top: "inception_3b/1x1"
}
layer {
  name: "inception_3b/3x3_reduce"
  type: "Convolution"
  bottom: "inception_3a/output"
  top: "inception_3b/3x3_reduce"
  param {
    lr_mult: 1
    decay_mult: 1
  }
  param {
    lr_mult: 2
    decay_mult: 0
  }
  convolution_param {
    num_output: 128
    kernel_size: 1
    weight_filler {
      type: "xavier"
      std: 0.09
    }
    bias_filler {
      type: "constant"
      value: 0.2
    }
  }
}
layer {
  name: "inception_3b/relu_3x3_reduce"
  type: "ReLU"
  bottom: "inception_3b/3x3_reduce"
  top: "inception_3b/3x3_reduce"
}
layer {
  name: "inception_3b/3x3"
  type: "Convolution"
  bottom: "inception_3b/3x3_reduce"
  top: "inception_3b/3x3"
  param {
    lr_mult: 1
    decay_mult: 1
  }
  param {
    lr_mult: 2
    decay_mult: 0
  }
  convolution_param {
    num_output: 192
    pad: 1
    kernel_size: 3
    weight_filler {
      type: "xavier"
      std: 0.03
    }
    bias_filler {
      type: "constant"
      value: 0.2
    }
  }
}
layer {
  name: "inception_3b/relu_3x3"
  type: "ReLU"
  bottom: "inception_3b/3x3"
  top: "inception_3b/3x3"
}
layer {
  name: "inception_3b/5x5_reduce"
  type: "Convolution"
  bottom: "inception_3a/output"
  top: "inception_3b/5x5_reduce"
  param {
    lr_mult: 1
    decay_mult: 1
  }
  param {
    lr_mult: 2
    decay_mult: 0
  }
  convolution_param {
    num_output: 32
    kernel_size: 1
    weight_filler {
      type: "xavier"
      std: 0.2
    }
    bias_filler {
      type: "constant"
      value: 0.2
    }
  }
}
layer {
  name: "inception_3b/relu_5x5_reduce"
  type: "ReLU"
  bottom: "inception_3b/5x5_reduce"
  top: "inception_3b/5x5_reduce"
}
layer {
  name: "inception_3b/5x5"
  type: "Convolution"
  bottom: "inception_3b/5x5_reduce"
  top: "inception_3b/5x5"
  param {
    lr_mult: 1
    decay_mult: 1
  }
  param {
    lr_mult: 2
    decay_mult: 0
  }
  convolution_param {
    num_output: 96
    pad: 2
    kernel_size: 5
    weight_filler {
      type: "xavier"
      std: 0.03
    }
    bias_filler {
      type: "constant"
      value: 0.2
    }
  }
}
layer {
  name: "inception_3b/relu_5x5"
  type: "ReLU"
  bottom: "inception_3b/5x5"
  top: "inception_3b/5x5"
}
layer {
  name: "inception_3b/pool"
  type: "Pooling"
  bottom: "inception_3a/output"
  top: "inception_3b/pool"
  pooling_param {
    pool: MAX
    kernel_size: 3
    stride: 1
    pad: 1
  }
}
layer {
  name: "inception_3b/pool_proj"
  type: "Convolution"
  bottom: "inception_3b/pool"
  top: "inception_3b/pool_proj"
  param {
    lr_mult: 1
    decay_mult: 1
  }
  param {
    lr_mult: 2
    decay_mult: 0
  }
  convolution_param {
    num_output: 64
    kernel_size: 1
    weight_filler {
      type: "xavier"
      std: 0.1
    }
    bias_filler {
      type: "constant"
      value: 0.2
    }
  }
}
layer {
  name: "inception_3b/relu_pool_proj"
  type: "ReLU"
  bottom: "inception_3b/pool_proj"
  top: "inception_3b/pool_proj"
}
layer {
  name: "inception_3b/output"
  type: "Concat"
  bottom: "inception_3b/1x1"
  bottom: "inception_3b/3x3"
  bottom: "inception_3b/5x5"
  bottom: "inception_3b/pool_proj"
  top: "inception_3b/output"
}
layer {
  name: "pool3/3x3_s2"
  type: "Pooling"
  bottom: "inception_3b/output"
  top: "pool3/3x3_s2"
  pooling_param {
    pool: MAX
    kernel_size: 3
    stride: 2
  }
}
layer {
  name: "inception_4a/1x1"
  type: "Convolution"
  bottom: "pool3/3x3_s2"
  top: "inception_4a/1x1"
  param {
    lr_mult: 1
    decay_mult: 1
  }
  param {
    lr_mult: 2
    decay_mult: 0
  }
  convolution_param {
    num_output: 192
    kernel_size: 1
    weight_filler {
      type: "xavier"
      std: 0.03
    }
    bias_filler {
      type: "constant"
      value: 0.2
    }
  }
}
layer {
  name: "inception_4a/relu_1x1"
  type: "ReLU"
  bottom: "inception_4a/1x1"
  top: "inception_4a/1x1"
}
layer {
  name: "inception_4a/3x3_reduce"
  type: "Convolution"
  bottom: "pool3/3x3_s2"
  top: "inception_4a/3x3_reduce"
  param {
    lr_mult: 1
    decay_mult: 1
  }
  param {
    lr_mult: 2
    decay_mult: 0
  }
  convolution_param {
    num_output: 96
    kernel_size: 1
    weight_filler {
      type: "xavier"
      std: 0.09
    }
    bias_filler {
      type: "constant"
      value: 0.2
    }
  }
}
layer {
  name: "inception_4a/relu_3x3_reduce"
  type: "ReLU"
  bottom: "inception_4a/3x3_reduce"
  top: "inception_4a/3x3_reduce"
}
layer {
  name: "inception_4a/3x3"
  type: "Convolution"
  bottom: "inception_4a/3x3_reduce"
  top: "inception_4a/3x3"
  param {
    lr_mult: 1
    decay_mult: 1
  }
  param {
    lr_mult: 2
    decay_mult: 0
  }
  convolution_param {
    num_output: 208
    pad: 1
    kernel_size: 3
    weight_filler {
      type: "xavier"
      std: 0.03
    }
    bias_filler {
      type: "constant"
      value: 0.2
    }
  }
}
layer {
  name: "inception_4a/relu_3x3"
  type: "ReLU"
  bottom: "inception_4a/3x3"
  top: "inception_4a/3x3"
}
layer {
  name: "inception_4a/5x5_reduce"
  type: "Convolution"
  bottom: "pool3/3x3_s2"
  top: "inception_4a/5x5_reduce"
  param {
    lr_mult: 1
    decay_mult: 1
  }
  param {
    lr_mult: 2
    decay_mult: 0
  }
  convolution_param {
    num_output: 16
    kernel_size: 1
    weight_filler {
      type: "xavier"
      std: 0.2
    }
    bias_filler {
      type: "constant"
      value: 0.2
    }
  }
}
layer {
  name: "inception_4a/relu_5x5_reduce"
  type: "ReLU"
  bottom: "inception_4a/5x5_reduce"
  top: "inception_4a/5x5_reduce"
}
layer {
  name: "inception_4a/5x5"
  type: "Convolution"
  bottom: "inception_4a/5x5_reduce"
  top: "inception_4a/5x5"
  param {
    lr_mult: 1
    decay_mult: 1
  }
  param {
    lr_mult: 2
    decay_mult: 0
  }
  convolution_param {
    num_output: 48
    pad: 2
    kernel_size: 5
    weight_filler {
      type: "xavier"
      std: 0.03
    }
    bias_filler {
      type: "constant"
      value: 0.2
    }
  }
}
layer {
  name: "inception_4a/relu_5x5"
  type: "ReLU"
  bottom: "inception_4a/5x5"
  top: "inception_4a/5x5"
}
layer {
  name: "inception_4a/pool"
  type: "Pooling"
  bottom: "pool3/3x3_s2"
  top: "inception_4a/pool"
  pooling_param {
    pool: MAX
    kernel_size: 3
    stride: 1
    pad: 1
  }
}
layer {
  name: "inception_4a/pool_proj"
  type: "Convolution"
  bottom: "inception_4a/pool"
  top: "inception_4a/pool_proj"
  param {
    lr_mult: 1
    decay_mult: 1
  }
  param {
    lr_mult: 2
    decay_mult: 0
  }
  convolution_param {
    num_output: 64
    kernel_size: 1
    weight_filler {
      type: "xavier"
      std: 0.1
    }
    bias_filler {
      type: "constant"
      value: 0.2
    }
  }
}
layer {
  name: "inception_4a/relu_pool_proj"
  type: "ReLU"
  bottom: "inception_4a/pool_proj"
  top: "inception_4a/pool_proj"
}
layer {
  name: "inception_4a/output"
  type: "Concat"
  bottom: "inception_4a/1x1"
  bottom: "inception_4a/3x3"
  bottom: "inception_4a/5x5"
  bottom: "inception_4a/pool_proj"
  top: "inception_4a/output"
}
layer {
  name: "loss1/ave_pool"
  type: "Pooling"
  bottom: "inception_4a/output"
  top: "loss1/ave_pool"
  pooling_param {
    pool: AVE
    kernel_size: 5
    stride: 3
  }
}
layer {
  name: "loss1/conv"
  type: "Convolution"
  bottom: "loss1/ave_pool"
  top: "loss1/conv"
  param {
    lr_mult: 1
    decay_mult: 1
  }
  param {
    lr_mult: 2
    decay_mult: 0
  }
  convolution_param {
    num_output: 128
    kernel_size: 1
    weight_filler {
      type: "xavier"
      std: 0.08
    }
    bias_filler {
      type: "constant"
      value: 0.2
    }
  }
}
layer {
  name: "loss1/relu_conv"
  type: "ReLU"
  bottom: "loss1/conv"
  top: "loss1/conv"
}
layer {
  name: "loss1/fc"
  type: "InnerProduct"
  bottom: "loss1/conv"
  top: "loss1/fc"
  param {
    lr_mult: 1
    decay_mult: 1
  }
  param {
    lr_mult: 2
    decay_mult: 0
  }
  inner_product_param {
    num_output: 1024
    weight_filler {
      type: "xavier"
      std: 0.02
    }
    bias_filler {
      type: "constant"
      value: 0.2
    }
  }
}
layer {
  name: "loss1/relu_fc"
  type: "ReLU"
  bottom: "loss1/fc"
  top: "loss1/fc"
}
layer {
  name: "loss1/drop_fc"
  type: "Dropout"
  bottom: "loss1/fc"
  top: "loss1/fc"
  dropout_param {
    dropout_ratio: 0.7
  }
}
layer {
  name: "loss1/classifier_plantvillage"
  type: "InnerProduct"
  bottom: "loss1/fc"
  top: "loss1/classifier_plantvillage"
  param {
    lr_mult: 1
    decay_mult: 1
  }
  param {
    lr_mult: 2
    decay_mult: 0
  }
  inner_product_param {
    num_output: 38
    weight_filler {
      type: "xavier"
      std: 0.0009765625
    }
    bias_filler {
      type: "constant"
      value: 0
    }
  }
}
layer {
  name: "inception_4b/1x1"
  type: "Convolution"
  bottom: "inception_4a/output"
  top: "inception_4b/1x1"
  param {
    lr_mult: 1
    decay_mult: 1
  }
  param {
    lr_mult: 2
    decay_mult: 0
  }
  convolution_param {
    num_output: 160
    kernel_size: 1
    weight_filler {
      type: "xavier"
      std: 0.03
    }
    bias_filler {
      type: "constant"
      value: 0.2
    }
  }
}
layer {
  name: "inception_4b/relu_1x1"
  type: "ReLU"
  bottom: "inception_4b/1x1"
  top: "inception_4b/1x1"
}
layer {
  name: "inception_4b/3x3_reduce"
  type: "Convolution"
  bottom: "inception_4a/output"
  top: "inception_4b/3x3_reduce"
  param {
    lr_mult: 1
    decay_mult: 1
  }
  param {
    lr_mult: 2
    decay_mult: 0
  }
  convolution_param {
    num_output: 112
    kernel_size: 1
    weight_filler {
      type: "xavier"
      std: 0.09
    }
    bias_filler {
      type: "constant"
      value: 0.2
    }
  }
}
layer {
  name: "inception_4b/relu_3x3_reduce"
  type: "ReLU"
  bottom: "inception_4b/3x3_reduce"
  top: "inception_4b/3x3_reduce"
}
layer {
  name: "inception_4b/3x3"
  type: "Convolution"
  bottom: "inception_4b/3x3_reduce"
  top: "inception_4b/3x3"
  param {
    lr_mult: 1
    decay_mult: 1
  }
  param {
    lr_mult: 2
    decay_mult: 0
  }
  convolution_param {
    num_output: 224
    pad: 1
    kernel_size: 3
    weight_filler {
      type: "xavier"
      std: 0.03
    }
    bias_filler {
      type: "constant"
      value: 0.2
    }
  }
}
layer {
  name: "inception_4b/relu_3x3"
  type: "ReLU"
  bottom: "inception_4b/3x3"
  top: "inception_4b/3x3"
}
layer {
  name: "inception_4b/5x5_reduce"
  type: "Convolution"
  bottom: "inception_4a/output"
  top: "inception_4b/5x5_reduce"
  param {
    lr_mult: 1
    decay_mult: 1
  }
  param {
    lr_mult: 2
    decay_mult: 0
  }
  convolution_param {
    num_output: 24
    kernel_size: 1
    weight_filler {
      type: "xavier"
      std: 0.2
    }
    bias_filler {
      type: "constant"
      value: 0.2
    }
  }
}
layer {
  name: "inception_4b/relu_5x5_reduce"
  type: "ReLU"
  bottom: "inception_4b/5x5_reduce"
  top: "inception_4b/5x5_reduce"
}
layer {
  name: "inception_4b/5x5"
  type: "Convolution"
  bottom: "inception_4b/5x5_reduce"
  top: "inception_4b/5x5"
  param {
    lr_mult: 1
    decay_mult: 1
  }
  param {
    lr_mult: 2
    decay_mult: 0
  }
  convolution_param {
    num_output: 64
    pad: 2
    kernel_size: 5
    weight_filler {
      type: "xavier"
      std: 0.03
    }
    bias_filler {
      type: "constant"
      value: 0.2
    }
  }
}
layer {
  name: "inception_4b/relu_5x5"
  type: "ReLU"
  bottom: "inception_4b/5x5"
  top: "inception_4b/5x5"
}
layer {
  name: "inception_4b/pool"
  type: "Pooling"
  bottom: "inception_4a/output"
  top: "inception_4b/pool"
  pooling_param {
    pool: MAX
    kernel_size: 3
    stride: 1
    pad: 1
  }
}
layer {
  name: "inception_4b/pool_proj"
  type: "Convolution"
  bottom: "inception_4b/pool"
  top: "inception_4b/pool_proj"
  param {
    lr_mult: 1
    decay_mult: 1
  }
  param {
    lr_mult: 2
    decay_mult: 0
  }
  convolution_param {
    num_output: 64
    kernel_size: 1
    weight_filler {
      type: "xavier"
      std: 0.1
    }
    bias_filler {
      type: "constant"
      value: 0.2
    }
  }
}
layer {
  name: "inception_4b/relu_pool_proj"
  type: "ReLU"
  bottom: "inception_4b/pool_proj"
  top: "inception_4b/pool_proj"
}
layer {
  name: "inception_4b/output"
  type: "Concat"
  bottom: "inception_4b/1x1"
  bottom: "inception_4b/3x3"
  bottom: "inception_4b/5x5"
  bottom: "inception_4b/pool_proj"
  top: "inception_4b/output"
}
layer {
  name: "inception_4c/1x1"
  type: "Convolution"
  bottom: "inception_4b/output"
  top: "inception_4c/1x1"
  param {
    lr_mult: 1
    decay_mult: 1
  }
  param {
    lr_mult: 2
    decay_mult: 0
  }
  convolution_param {
    num_output: 128
    kernel_size: 1
    weight_filler {
      type: "xavier"
      std: 0.03
    }
    bias_filler {
      type: "constant"
      value: 0.2
    }
  }
}
layer {
  name: "inception_4c/relu_1x1"
  type: "ReLU"
  bottom: "inception_4c/1x1"
  top: "inception_4c/1x1"
}
layer {
  name: "inception_4c/3x3_reduce"
  type: "Convolution"
  bottom: "inception_4b/output"
  top: "inception_4c/3x3_reduce"
  param {
    lr_mult: 1
    decay_mult: 1
  }
  param {
    lr_mult: 2
    decay_mult: 0
  }
  convolution_param {
    num_output: 128
    kernel_size: 1
    weight_filler {
      type: "xavier"
      std: 0.09
    }
    bias_filler {
      type: "constant"
      value: 0.2
    }
  }
}
layer {
  name: "inception_4c/relu_3x3_reduce"
  type: "ReLU"
  bottom: "inception_4c/3x3_reduce"
  top: "inception_4c/3x3_reduce"
}
layer {
  name: "inception_4c/3x3"
  type: "Convolution"
  bottom: "inception_4c/3x3_reduce"
  top: "inception_4c/3x3"
  param {
    lr_mult: 1
    decay_mult: 1
  }
  param {
    lr_mult: 2
    decay_mult: 0
  }
  convolution_param {
    num_output: 256
    pad: 1
    kernel_size: 3
    weight_filler {
      type: "xavier"
      std: 0.03
    }
    bias_filler {
      type: "constant"
      value: 0.2
    }
  }
}
layer {
  name: "inception_4c/relu_3x3"
  type: "ReLU"
  bottom: "inception_4c/3x3"
  top: "inception_4c/3x3"
}
layer {
  name: "inception_4c/5x5_reduce"
  type: "Convolution"
  bottom: "inception_4b/output"
  top: "inception_4c/5x5_reduce"
  param {
    lr_mult: 1
    decay_mult: 1
  }
  param {
    lr_mult: 2
    decay_mult: 0
  }
  convolution_param {
    num_output: 24
    kernel_size: 1
    weight_filler {
      type: "xavier"
      std: 0.2
    }
    bias_filler {
      type: "constant"
      value: 0.2
    }
  }
}
layer {
  name: "inception_4c/relu_5x5_reduce"
  type: "ReLU"
  bottom: "inception_4c/5x5_reduce"
  top: "inception_4c/5x5_reduce"
}
layer {
  name: "inception_4c/5x5"
  type: "Convolution"
  bottom: "inception_4c/5x5_reduce"
  top: "inception_4c/5x5"
  param {
    lr_mult: 1
    decay_mult: 1
  }
  param {
    lr_mult: 2
    decay_mult: 0
  }
  convolution_param {
    num_output: 64
    pad: 2
    kernel_size: 5
    weight_filler {
      type: "xavier"
      std: 0.03
    }
    bias_filler {
      type: "constant"
      value: 0.2
    }
  }
}
layer {
  name: "inception_4c/relu_5x5"
  type: "ReLU"
  bottom: "inception_4c/5x5"
  top: "inception_4c/5x5"
}
layer {
  name: "inception_4c/pool"
  type: "Pooling"
  bottom: "inception_4b/output"
  top: "inception_4c/pool"
  pooling_param {
    pool: MAX
    kernel_size: 3
    stride: 1
    pad: 1
  }
}
layer {
  name: "inception_4c/pool_proj"
  type: "Convolution"
  bottom: "inception_4c/pool"
  top: "inception_4c/pool_proj"
  param {
    lr_mult: 1
    decay_mult: 1
  }
  param {
    lr_mult: 2
    decay_mult: 0
  }
  convolution_param {
    num_output: 64
    kernel_size: 1
    weight_filler {
      type: "xavier"
      std: 0.1
    }
    bias_filler {
      type: "constant"
      value: 0.2
    }
  }
}
layer {
  name: "inception_4c/relu_pool_proj"
  type: "ReLU"
  bottom: "inception_4c/pool_proj"
  top: "inception_4c/pool_proj"
}
layer {
  name: "inception_4c/output"
  type: "Concat"
  bottom: "inception_4c/1x1"
  bottom: "inception_4c/3x3"
  bottom: "inception_4c/5x5"
  bottom: "inception_4c/pool_proj"
  top: "inception_4c/output"
}
layer {
  name: "inception_4d/1x1"
  type: "Convolution"
  bottom: "inception_4c/output"
  top: "inception_4d/1x1"
  param {
    lr_mult: 1
    decay_mult: 1
  }
  param {
    lr_mult: 2
    decay_mult: 0
  }
  convolution_param {
    num_output: 112
    kernel_size: 1
    weight_filler {
      type: "xavier"
      std: 0.03
    }
    bias_filler {
      type: "constant"
      value: 0.2
    }
  }
}
layer {
  name: "inception_4d/relu_1x1"
  type: "ReLU"
  bottom: "inception_4d/1x1"
  top: "inception_4d/1x1"
}
layer {
  name: "inception_4d/3x3_reduce"
  type: "Convolution"
  bottom: "inception_4c/output"
  top: "inception_4d/3x3_reduce"
  param {
    lr_mult: 1
    decay_mult: 1
  }
  param {
    lr_mult: 2
    decay_mult: 0
  }
  convolution_param {
    num_output: 144
    kernel_size: 1
    weight_filler {
      type: "xavier"
      std: 0.09
    }
    bias_filler {
      type: "constant"
      value: 0.2
    }
  }
}
layer {
  name: "inception_4d/relu_3x3_reduce"
  type: "ReLU"
  bottom: "inception_4d/3x3_reduce"
  top: "inception_4d/3x3_reduce"
}
layer {
  name: "inception_4d/3x3"
  type: "Convolution"
  bottom: "inception_4d/3x3_reduce"
  top: "inception_4d/3x3"
  param {
    lr_mult: 1
    decay_mult: 1
  }
  param {
    lr_mult: 2
    decay_mult: 0
  }
  convolution_param {
    num_output: 288
    pad: 1
    kernel_size: 3
    weight_filler {
      type: "xavier"
      std: 0.03
    }
    bias_filler {
      type: "constant"
      value: 0.2
    }
  }
}
layer {
  name: "inception_4d/relu_3x3"
  type: "ReLU"
  bottom: "inception_4d/3x3"
  top: "inception_4d/3x3"
}
layer {
  name: "inception_4d/5x5_reduce"
  type: "Convolution"
  bottom: "inception_4c/output"
  top: "inception_4d/5x5_reduce"
  param {
    lr_mult: 1
    decay_mult: 1
  }
  param {
    lr_mult: 2
    decay_mult: 0
  }
  convolution_param {
    num_output: 32
    kernel_size: 1
    weight_filler {
      type: "xavier"
      std: 0.2
    }
    bias_filler {
      type: "constant"
      value: 0.2
    }
  }
}
layer {
  name: "inception_4d/relu_5x5_reduce"
  type: "ReLU"
  bottom: "inception_4d/5x5_reduce"
  top: "inception_4d/5x5_reduce"
}
layer {
  name: "inception_4d/5x5"
  type: "Convolution"
  bottom: "inception_4d/5x5_reduce"
  top: "inception_4d/5x5"
  param {
    lr_mult: 1
    decay_mult: 1
  }
  param {
    lr_mult: 2
    decay_mult: 0
  }
  convolution_param {
    num_output: 64
    pad: 2
    kernel_size: 5
    weight_filler {
      type: "xavier"
      std: 0.03
    }
    bias_filler {
      type: "constant"
      value: 0.2
    }
  }
}
layer {
  name: "inception_4d/relu_5x5"
  type: "ReLU"
  bottom: "inception_4d/5x5"
  top: "inception_4d/5x5"
}
layer {
  name: "inception_4d/pool"
  type: "Pooling"
  bottom: "inception_4c/output"
  top: "inception_4d/pool"
  pooling_param {
    pool: MAX
    kernel_size: 3
    stride: 1
    pad: 1
  }
}
layer {
  name: "inception_4d/pool_proj"
  type: "Convolution"
  bottom: "inception_4d/pool"
  top: "inception_4d/pool_proj"
  param {
    lr_mult: 1
    decay_mult: 1
  }
  param {
    lr_mult: 2
    decay_mult: 0
  }
  convolution_param {
    num_output: 64
    kernel_size: 1
    weight_filler {
      type: "xavier"
      std: 0.1
    }
    bias_filler {
      type: "constant"
      value: 0.2
    }
  }
}
layer {
  name: "inception_4d/relu_pool_proj"
  type: "ReLU"
  bottom: "inception_4d/pool_proj"
  top: "inception_4d/pool_proj"
}
layer {
  name: "inception_4d/output"
  type: "Concat"
  bottom: "inception_4d/1x1"
  bottom: "inception_4d/3x3"
  bottom: "inception_4d/5x5"
  bottom: "inception_4d/pool_proj"
  top: "inception_4d/output"
}
layer {
  name: "loss2/ave_pool"
  type: "Pooling"
  bottom: "inception_4d/output"
  top: "loss2/ave_pool"
  pooling_param {
    pool: AVE
    kernel_size: 5
    stride: 3
  }
}
layer {
  name: "loss2/conv"
  type: "Convolution"
  bottom: "loss2/ave_pool"
  top: "loss2/conv"
  param {
    lr_mult: 1
    decay_mult: 1
  }
  param {
    lr_mult: 2
    decay_mult: 0
  }
  convolution_param {
    num_output: 128
    kernel_size: 1
    weight_filler {
      type: "xavier"
      std: 0.08
    }
    bias_filler {
      type: "constant"
      value: 0.2
    }
  }
}
layer {
  name: "loss2/relu_conv"
  type: "ReLU"
  bottom: "loss2/conv"
  top: "loss2/conv"
}
layer {
  name: "loss2/fc"
  type: "InnerProduct"
  bottom: "loss2/conv"
  top: "loss2/fc"
  param {
    lr_mult: 1
    decay_mult: 1
  }
  param {
    lr_mult: 2
    decay_mult: 0
  }
  inner_product_param {
    num_output: 1024
    weight_filler {
      type: "xavier"
      std: 0.02
    }
    bias_filler {
      type: "constant"
      value: 0.2
    }
  }
}
layer {
  name: "loss2/relu_fc"
  type: "ReLU"
  bottom: "loss2/fc"
  top: "loss2/fc"
}
layer {
  name: "loss2/drop_fc"
  type: "Dropout"
  bottom: "loss2/fc"
  top: "loss2/fc"
  dropout_param {
    dropout_ratio: 0.7
  }
}
layer {
  name: "loss2/classifier_plantvillage"
  type: "InnerProduct"
  bottom: "loss2/fc"
  top: "loss2/classifier_plantvillage"
  param {
    lr_mult: 1
    decay_mult: 1
  }
  param {
    lr_mult: 2
    decay_mult: 0
  }
  inner_product_param {
    num_output: 38
    weight_filler {
      type: "xavier"
      std: 0.0009765625
    }
    bias_filler {
      type: "constant"
      value: 0
    }
  }
}
layer {
  name: "inception_4e/1x1"
  type: "Convolution"
  bottom: "inception_4d/output"
  top: "inception_4e/1x1"
  param {
    lr_mult: 1
    decay_mult: 1
  }
  param {
    lr_mult: 2
    decay_mult: 0
  }
  convolution_param {
    num_output: 256
    kernel_size: 1
    weight_filler {
      type: "xavier"
      std: 0.03
    }
    bias_filler {
      type: "constant"
      value: 0.2
    }
  }
}
layer {
  name: "inception_4e/relu_1x1"
  type: "ReLU"
  bottom: "inception_4e/1x1"
  top: "inception_4e/1x1"
}
layer {
  name: "inception_4e/3x3_reduce"
  type: "Convolution"
  bottom: "inception_4d/output"
  top: "inception_4e/3x3_reduce"
  param {
    lr_mult: 1
    decay_mult: 1
  }
  param {
    lr_mult: 2
    decay_mult: 0
  }
  convolution_param {
    num_output: 160
    kernel_size: 1
    weight_filler {
      type: "xavier"
      std: 0.09
    }
    bias_filler {
      type: "constant"
      value: 0.2
    }
  }
}
layer {
  name: "inception_4e/relu_3x3_reduce"
  type: "ReLU"
  bottom: "inception_4e/3x3_reduce"
  top: "inception_4e/3x3_reduce"
}
layer {
  name: "inception_4e/3x3"
  type: "Convolution"
  bottom: "inception_4e/3x3_reduce"
  top: "inception_4e/3x3"
  param {
    lr_mult: 1
    decay_mult: 1
  }
  param {
    lr_mult: 2
    decay_mult: 0
  }
  convolution_param {
    num_output: 320
    pad: 1
    kernel_size: 3
    weight_filler {
      type: "xavier"
      std: 0.03
    }
    bias_filler {
      type: "constant"
      value: 0.2
    }
  }
}
layer {
  name: "inception_4e/relu_3x3"
  type: "ReLU"
  bottom: "inception_4e/3x3"
  top: "inception_4e/3x3"
}
layer {
  name: "inception_4e/5x5_reduce"
  type: "Convolution"
  bottom: "inception_4d/output"
  top: "inception_4e/5x5_reduce"
  param {
    lr_mult: 1
    decay_mult: 1
  }
  param {
    lr_mult: 2
    decay_mult: 0
  }
  convolution_param {
    num_output: 32
    kernel_size: 1
    weight_filler {
      type: "xavier"
      std: 0.2
    }
    bias_filler {
      type: "constant"
      value: 0.2
    }
  }
}
layer {
  name: "inception_4e/relu_5x5_reduce"
  type: "ReLU"
  bottom: "inception_4e/5x5_reduce"
  top: "inception_4e/5x5_reduce"
}
layer {
  name: "inception_4e/5x5"
  type: "Convolution"
  bottom: "inception_4e/5x5_reduce"
  top: "inception_4e/
I0403 18:23:22.185566  6884 layer_factory.hpp:77] Creating layer data
I0403 18:23:22.186183  6884 net.cpp:91] Creating Layer data
I0403 18:23:22.186223  6884 net.cpp:399] data -> data
I0403 18:23:22.186277  6884 net.cpp:399] data -> label
I0403 18:23:22.186316  6884 data_transformer.cpp:25] Loading mean file from: /home/mohanty/data/final_dataset/lmdb/segmented-50-50/mean.binaryproto
I0403 18:23:22.187455  6887 db_lmdb.cpp:38] Opened lmdb /home/mohanty/data/final_dataset/lmdb/segmented-50-50/test_db
I0403 18:23:22.199713  6884 data_layer.cpp:41] output data size: 24,3,224,224
I0403 18:23:22.229590  6884 net.cpp:141] Setting up data
I0403 18:23:22.229712  6884 net.cpp:148] Top shape: 24 3 224 224 (3612672)
I0403 18:23:22.229734  6884 net.cpp:148] Top shape: 24 (24)
I0403 18:23:22.229750  6884 net.cpp:156] Memory required for data: 14450784
I0403 18:23:22.229778  6884 layer_factory.hpp:77] Creating layer label_data_1_split
I0403 18:23:22.229804  6884 net.cpp:91] Creating Layer label_data_1_split
I0403 18:23:22.229823  6884 net.cpp:425] label_data_1_split <- label
I0403 18:23:22.229856  6884 net.cpp:399] label_data_1_split -> label_data_1_split_0
I0403 18:23:22.229884  6884 net.cpp:399] label_data_1_split -> label_data_1_split_1
I0403 18:23:22.229907  6884 net.cpp:399] label_data_1_split -> label_data_1_split_2
I0403 18:23:22.229928  6884 net.cpp:399] label_data_1_split -> label_data_1_split_3
I0403 18:23:22.229948  6884 net.cpp:399] label_data_1_split -> label_data_1_split_4
I0403 18:23:22.229967  6884 net.cpp:399] label_data_1_split -> label_data_1_split_5
I0403 18:23:22.229987  6884 net.cpp:399] label_data_1_split -> label_data_1_split_6
I0403 18:23:22.230008  6884 net.cpp:399] label_data_1_split -> label_data_1_split_7
I0403 18:23:22.230028  6884 net.cpp:399] label_data_1_split -> label_data_1_split_8
I0403 18:23:22.230048  6884 net.cpp:399] label_data_1_split -> label_data_1_split_9
I0403 18:23:22.230168  6884 net.cpp:141] Setting up label_data_1_split
I0403 18:23:22.230193  6884 net.cpp:148] Top shape: 24 (24)
I0403 18:23:22.230217  6884 net.cpp:148] Top shape: 24 (24)
I0403 18:23:22.230235  6884 net.cpp:148] Top shape: 24 (24)
I0403 18:23:22.230253  6884 net.cpp:148] Top shape: 24 (24)
I0403 18:23:22.230269  6884 net.cpp:148] Top shape: 24 (24)
I0403 18:23:22.230286  6884 net.cpp:148] Top shape: 24 (24)
I0403 18:23:22.230304  6884 net.cpp:148] Top shape: 24 (24)
I0403 18:23:22.230320  6884 net.cpp:148] Top shape: 24 (24)
I0403 18:23:22.230336  6884 net.cpp:148] Top shape: 24 (24)
I0403 18:23:22.230356  6884 net.cpp:148] Top shape: 24 (24)
I0403 18:23:22.230404  6884 net.cpp:156] Memory required for data: 14451744
I0403 18:23:22.230422  6884 layer_factory.hpp:77] Creating layer conv1/7x7_s2
I0403 18:23:22.230456  6884 net.cpp:91] Creating Layer conv1/7x7_s2
I0403 18:23:22.230478  6884 net.cpp:425] conv1/7x7_s2 <- data
I0403 18:23:22.230499  6884 net.cpp:399] conv1/7x7_s2 -> conv1/7x7_s2
I0403 18:23:22.375505  6884 net.cpp:141] Setting up conv1/7x7_s2
I0403 18:23:22.375579  6884 net.cpp:148] Top shape: 24 64 112 112 (19267584)
I0403 18:23:22.375597  6884 net.cpp:156] Memory required for data: 91522080
I0403 18:23:22.375628  6884 layer_factory.hpp:77] Creating layer conv1/relu_7x7
I0403 18:23:22.375655  6884 net.cpp:91] Creating Layer conv1/relu_7x7
I0403 18:23:22.375674  6884 net.cpp:425] conv1/relu_7x7 <- conv1/7x7_s2
I0403 18:23:22.375694  6884 net.cpp:386] conv1/relu_7x7 -> conv1/7x7_s2 (in-place)
I0403 18:23:22.375954  6884 net.cpp:141] Setting up conv1/relu_7x7
I0403 18:23:22.375982  6884 net.cpp:148] Top shape: 24 64 112 112 (19267584)
I0403 18:23:22.375998  6884 net.cpp:156] Memory required for data: 168592416
I0403 18:23:22.376015  6884 layer_factory.hpp:77] Creating layer pool1/3x3_s2
I0403 18:23:22.376041  6884 net.cpp:91] Creating Layer pool1/3x3_s2
I0403 18:23:22.376060  6884 net.cpp:425] pool1/3x3_s2 <- conv1/7x7_s2
I0403 18:23:22.376078  6884 net.cpp:399] pool1/3x3_s2 -> pool1/3x3_s2
I0403 18:23:22.376152  6884 net.cpp:141] Setting up pool1/3x3_s2
I0403 18:23:22.376176  6884 net.cpp:148] Top shape: 24 64 56 56 (4816896)
I0403 18:23:22.376193  6884 net.cpp:156] Memory required for data: 187860000
I0403 18:23:22.376212  6884 layer_factory.hpp:77] Creating layer pool1/norm1
I0403 18:23:22.376240  6884 net.cpp:91] Creating Layer pool1/norm1
I0403 18:23:22.376257  6884 net.cpp:425] pool1/norm1 <- pool1/3x3_s2
I0403 18:23:22.376276  6884 net.cpp:399] pool1/norm1 -> pool1/norm1
I0403 18:23:22.376564  6884 net.cpp:141] Setting up pool1/norm1
I0403 18:23:22.376591  6884 net.cpp:148] Top shape: 24 64 56 56 (4816896)
I0403 18:23:22.376607  6884 net.cpp:156] Memory required for data: 207127584
I0403 18:23:22.376624  6884 layer_factory.hpp:77] Creating layer conv2/3x3_reduce
I0403 18:23:22.376649  6884 net.cpp:91] Creating Layer conv2/3x3_reduce
I0403 18:23:22.376667  6884 net.cpp:425] conv2/3x3_reduce <- pool1/norm1
I0403 18:23:22.376684  6884 net.cpp:399] conv2/3x3_reduce -> conv2/3x3_reduce
I0403 18:23:22.378031  6884 net.cpp:141] Setting up conv2/3x3_reduce
I0403 18:23:22.378060  6884 net.cpp:148] Top shape: 24 64 56 56 (4816896)
I0403 18:23:22.378077  6884 net.cpp:156] Memory required for data: 226395168
I0403 18:23:22.378098  6884 layer_factory.hpp:77] Creating layer conv2/relu_3x3_reduce
I0403 18:23:22.378118  6884 net.cpp:91] Creating Layer conv2/relu_3x3_reduce
I0403 18:23:22.378132  6884 net.cpp:425] conv2/relu_3x3_reduce <- conv2/3x3_reduce
I0403 18:23:22.378149  6884 net.cpp:386] conv2/relu_3x3_reduce -> conv2/3x3_reduce (in-place)
I0403 18:23:22.378412  6884 net.cpp:141] Setting up conv2/relu_3x3_reduce
I0403 18:23:22.378439  6884 net.cpp:148] Top shape: 24 64 56 56 (4816896)
I0403 18:23:22.378454  6884 net.cpp:156] Memory required for data: 245662752
I0403 18:23:22.378470  6884 layer_factory.hpp:77] Creating layer conv2/3x3
I0403 18:23:22.378492  6884 net.cpp:91] Creating Layer conv2/3x3
I0403 18:23:22.378509  6884 net.cpp:425] conv2/3x3 <- conv2/3x3_reduce
I0403 18:23:22.378528  6884 net.cpp:399] conv2/3x3 -> conv2/3x3
I0403 18:23:22.380846  6884 net.cpp:141] Setting up conv2/3x3
I0403 18:23:22.380877  6884 net.cpp:148] Top shape: 24 192 56 56 (14450688)
I0403 18:23:22.380892  6884 net.cpp:156] Memory required for data: 303465504
I0403 18:23:22.380915  6884 layer_factory.hpp:77] Creating layer conv2/relu_3x3
I0403 18:23:22.380936  6884 net.cpp:91] Creating Layer conv2/relu_3x3
I0403 18:23:22.380954  6884 net.cpp:425] conv2/relu_3x3 <- conv2/3x3
I0403 18:23:22.380972  6884 net.cpp:386] conv2/relu_3x3 -> conv2/3x3 (in-place)
I0403 18:23:22.381150  6884 net.cpp:141] Setting up conv2/relu_3x3
I0403 18:23:22.381178  6884 net.cpp:148] Top shape: 24 192 56 56 (14450688)
I0403 18:23:22.381233  6884 net.cpp:156] Memory required for data: 361268256
I0403 18:23:22.381250  6884 layer_factory.hpp:77] Creating layer conv2/norm2
I0403 18:23:22.381269  6884 net.cpp:91] Creating Layer conv2/norm2
I0403 18:23:22.381285  6884 net.cpp:425] conv2/norm2 <- conv2/3x3
I0403 18:23:22.381306  6884 net.cpp:399] conv2/norm2 -> conv2/norm2
I0403 18:23:22.381623  6884 net.cpp:141] Setting up conv2/norm2
I0403 18:23:22.381649  6884 net.cpp:148] Top shape: 24 192 56 56 (14450688)
I0403 18:23:22.381665  6884 net.cpp:156] Memory required for data: 419071008
I0403 18:23:22.381682  6884 layer_factory.hpp:77] Creating layer pool2/3x3_s2
I0403 18:23:22.381700  6884 net.cpp:91] Creating Layer pool2/3x3_s2
I0403 18:23:22.381716  6884 net.cpp:425] pool2/3x3_s2 <- conv2/norm2
I0403 18:23:22.381738  6884 net.cpp:399] pool2/3x3_s2 -> pool2/3x3_s2
I0403 18:23:22.381793  6884 net.cpp:141] Setting up pool2/3x3_s2
I0403 18:23:22.381817  6884 net.cpp:148] Top shape: 24 192 28 28 (3612672)
I0403 18:23:22.381834  6884 net.cpp:156] Memory required for data: 433521696
I0403 18:23:22.381850  6884 layer_factory.hpp:77] Creating layer pool2/3x3_s2_pool2/3x3_s2_0_split
I0403 18:23:22.381870  6884 net.cpp:91] Creating Layer pool2/3x3_s2_pool2/3x3_s2_0_split
I0403 18:23:22.381887  6884 net.cpp:425] pool2/3x3_s2_pool2/3x3_s2_0_split <- pool2/3x3_s2
I0403 18:23:22.381906  6884 net.cpp:399] pool2/3x3_s2_pool2/3x3_s2_0_split -> pool2/3x3_s2_pool2/3x3_s2_0_split_0
I0403 18:23:22.381928  6884 net.cpp:399] pool2/3x3_s2_pool2/3x3_s2_0_split -> pool2/3x3_s2_pool2/3x3_s2_0_split_1
I0403 18:23:22.381947  6884 net.cpp:399] pool2/3x3_s2_pool2/3x3_s2_0_split -> pool2/3x3_s2_pool2/3x3_s2_0_split_2
I0403 18:23:22.381968  6884 net.cpp:399] pool2/3x3_s2_pool2/3x3_s2_0_split -> pool2/3x3_s2_pool2/3x3_s2_0_split_3
I0403 18:23:22.382040  6884 net.cpp:141] Setting up pool2/3x3_s2_pool2/3x3_s2_0_split
I0403 18:23:22.382062  6884 net.cpp:148] Top shape: 24 192 28 28 (3612672)
I0403 18:23:22.382078  6884 net.cpp:148] Top shape: 24 192 28 28 (3612672)
I0403 18:23:22.382094  6884 net.cpp:148] Top shape: 24 192 28 28 (3612672)
I0403 18:23:22.382112  6884 net.cpp:148] Top shape: 24 192 28 28 (3612672)
I0403 18:23:22.382125  6884 net.cpp:156] Memory required for data: 491324448
I0403 18:23:22.382141  6884 layer_factory.hpp:77] Creating layer inception_3a/1x1
I0403 18:23:22.382164  6884 net.cpp:91] Creating Layer inception_3a/1x1
I0403 18:23:22.382181  6884 net.cpp:425] inception_3a/1x1 <- pool2/3x3_s2_pool2/3x3_s2_0_split_0
I0403 18:23:22.382203  6884 net.cpp:399] inception_3a/1x1 -> inception_3a/1x1
I0403 18:23:22.383821  6884 net.cpp:141] Setting up inception_3a/1x1
I0403 18:23:22.383851  6884 net.cpp:148] Top shape: 24 64 28 28 (1204224)
I0403 18:23:22.383867  6884 net.cpp:156] Memory required for data: 496141344
I0403 18:23:22.383885  6884 layer_factory.hpp:77] Creating layer inception_3a/relu_1x1
I0403 18:23:22.383908  6884 net.cpp:91] Creating Layer inception_3a/relu_1x1
I0403 18:23:22.383925  6884 net.cpp:425] inception_3a/relu_1x1 <- inception_3a/1x1
I0403 18:23:22.383944  6884 net.cpp:386] inception_3a/relu_1x1 -> inception_3a/1x1 (in-place)
I0403 18:23:22.384125  6884 net.cpp:141] Setting up inception_3a/relu_1x1
I0403 18:23:22.384151  6884 net.cpp:148] Top shape: 24 64 28 28 (1204224)
I0403 18:23:22.384166  6884 net.cpp:156] Memory required for data: 500958240
I0403 18:23:22.384181  6884 layer_factory.hpp:77] Creating layer inception_3a/3x3_reduce
I0403 18:23:22.384203  6884 net.cpp:91] Creating Layer inception_3a/3x3_reduce
I0403 18:23:22.384227  6884 net.cpp:425] inception_3a/3x3_reduce <- pool2/3x3_s2_pool2/3x3_s2_0_split_1
I0403 18:23:22.384253  6884 net.cpp:399] inception_3a/3x3_reduce -> inception_3a/3x3_reduce
I0403 18:23:22.385995  6884 net.cpp:141] Setting up inception_3a/3x3_reduce
I0403 18:23:22.386025  6884 net.cpp:148] Top shape: 24 96 28 28 (1806336)
I0403 18:23:22.386041  6884 net.cpp:156] Memory required for data: 508183584
I0403 18:23:22.386064  6884 layer_factory.hpp:77] Creating layer inception_3a/relu_3x3_reduce
I0403 18:23:22.386102  6884 net.cpp:91] Creating Layer inception_3a/relu_3x3_reduce
I0403 18:23:22.386121  6884 net.cpp:425] inception_3a/relu_3x3_reduce <- inception_3a/3x3_reduce
I0403 18:23:22.386139  6884 net.cpp:386] inception_3a/relu_3x3_reduce -> inception_3a/3x3_reduce (in-place)
I0403 18:23:22.386334  6884 net.cpp:141] Setting up inception_3a/relu_3x3_reduce
I0403 18:23:22.386360  6884 net.cpp:148] Top shape: 24 96 28 28 (1806336)
I0403 18:23:22.386375  6884 net.cpp:156] Memory required for data: 515408928
I0403 18:23:22.386391  6884 layer_factory.hpp:77] Creating layer inception_3a/3x3
I0403 18:23:22.386415  6884 net.cpp:91] Creating Layer inception_3a/3x3
I0403 18:23:22.386435  6884 net.cpp:425] inception_3a/3x3 <- inception_3a/3x3_reduce
I0403 18:23:22.386458  6884 net.cpp:399] inception_3a/3x3 -> inception_3a/3x3
I0403 18:23:22.388139  6884 net.cpp:141] Setting up inception_3a/3x3
I0403 18:23:22.388167  6884 net.cpp:148] Top shape: 24 128 28 28 (2408448)
I0403 18:23:22.388183  6884 net.cpp:156] Memory required for data: 525042720
I0403 18:23:22.388202  6884 layer_factory.hpp:77] Creating layer inception_3a/relu_3x3
I0403 18:23:22.388231  6884 net.cpp:91] Creating Layer inception_3a/relu_3x3
I0403 18:23:22.388248  6884 net.cpp:425] inception_3a/relu_3x3 <- inception_3a/3x3
I0403 18:23:22.388267  6884 net.cpp:386] inception_3a/relu_3x3 -> inception_3a/3x3 (in-place)
I0403 18:23:22.388546  6884 net.cpp:141] Setting up inception_3a/relu_3x3
I0403 18:23:22.388573  6884 net.cpp:148] Top shape: 24 128 28 28 (2408448)
I0403 18:23:22.388589  6884 net.cpp:156] Memory required for data: 534676512
I0403 18:23:22.388605  6884 layer_factory.hpp:77] Creating layer inception_3a/5x5_reduce
I0403 18:23:22.388628  6884 net.cpp:91] Creating Layer inception_3a/5x5_reduce
I0403 18:23:22.388646  6884 net.cpp:425] inception_3a/5x5_reduce <- pool2/3x3_s2_pool2/3x3_s2_0_split_2
I0403 18:23:22.388671  6884 net.cpp:399] inception_3a/5x5_reduce -> inception_3a/5x5_reduce
I0403 18:23:22.389657  6884 net.cpp:141] Setting up inception_3a/5x5_reduce
I0403 18:23:22.389686  6884 net.cpp:148] Top shape: 24 16 28 28 (301056)
I0403 18:23:22.389703  6884 net.cpp:156] Memory required for data: 535880736
I0403 18:23:22.389720  6884 layer_factory.hpp:77] Creating layer inception_3a/relu_5x5_reduce
I0403 18:23:22.389742  6884 net.cpp:91] Creating Layer inception_3a/relu_5x5_reduce
I0403 18:23:22.389760  6884 net.cpp:425] inception_3a/relu_5x5_reduce <- inception_3a/5x5_reduce
I0403 18:23:22.389777  6884 net.cpp:386] inception_3a/relu_5x5_reduce -> inception_3a/5x5_reduce (in-place)
I0403 18:23:22.390066  6884 net.cpp:141] Setting up inception_3a/relu_5x5_reduce
I0403 18:23:22.390095  6884 net.cpp:148] Top shape: 24 16 28 28 (301056)
I0403 18:23:22.390111  6884 net.cpp:156] Memory required for data: 537084960
I0403 18:23:22.390127  6884 layer_factory.hpp:77] Creating layer inception_3a/5x5
I0403 18:23:22.390151  6884 net.cpp:91] Creating Layer inception_3a/5x5
I0403 18:23:22.390168  6884 net.cpp:425] inception_3a/5x5 <- inception_3a/5x5_reduce
I0403 18:23:22.390189  6884 net.cpp:399] inception_3a/5x5 -> inception_3a/5x5
I0403 18:23:22.391235  6884 net.cpp:141] Setting up inception_3a/5x5
I0403 18:23:22.391263  6884 net.cpp:148] Top shape: 24 32 28 28 (602112)
I0403 18:23:22.391280  6884 net.cpp:156] Memory required for data: 539493408
I0403 18:23:22.391299  6884 layer_factory.hpp:77] Creating layer inception_3a/relu_5x5
I0403 18:23:22.391321  6884 net.cpp:91] Creating Layer inception_3a/relu_5x5
I0403 18:23:22.391338  6884 net.cpp:425] inception_3a/relu_5x5 <- inception_3a/5x5
I0403 18:23:22.391355  6884 net.cpp:386] inception_3a/relu_5x5 -> inception_3a/5x5 (in-place)
I0403 18:23:22.391535  6884 net.cpp:141] Setting up inception_3a/relu_5x5
I0403 18:23:22.391559  6884 net.cpp:148] Top shape: 24 32 28 28 (602112)
I0403 18:23:22.391574  6884 net.cpp:156] Memory required for data: 541901856
I0403 18:23:22.391590  6884 layer_factory.hpp:77] Creating layer inception_3a/pool
I0403 18:23:22.391612  6884 net.cpp:91] Creating Layer inception_3a/pool
I0403 18:23:22.391643  6884 net.cpp:425] inception_3a/pool <- pool2/3x3_s2_pool2/3x3_s2_0_split_3
I0403 18:23:22.391664  6884 net.cpp:399] inception_3a/pool -> inception_3a/pool
I0403 18:23:22.391726  6884 net.cpp:141] Setting up inception_3a/pool
I0403 18:23:22.391751  6884 net.cpp:148] Top shape: 24 192 28 28 (3612672)
I0403 18:23:22.391765  6884 net.cpp:156] Memory required for data: 556352544
I0403 18:23:22.391780  6884 layer_factory.hpp:77] Creating layer inception_3a/pool_proj
I0403 18:23:22.391803  6884 net.cpp:91] Creating Layer inception_3a/pool_proj
I0403 18:23:22.391821  6884 net.cpp:425] inception_3a/pool_proj <- inception_3a/pool
I0403 18:23:22.391844  6884 net.cpp:399] inception_3a/pool_proj -> inception_3a/pool_proj
I0403 18:23:22.392844  6884 net.cpp:141] Setting up inception_3a/pool_proj
I0403 18:23:22.392876  6884 net.cpp:148] Top shape: 24 32 28 28 (602112)
I0403 18:23:22.392892  6884 net.cpp:156] Memory required for data: 558760992
I0403 18:23:22.392916  6884 layer_factory.hpp:77] Creating layer inception_3a/relu_pool_proj
I0403 18:23:22.392937  6884 net.cpp:91] Creating Layer inception_3a/relu_pool_proj
I0403 18:23:22.392954  6884 net.cpp:425] inception_3a/relu_pool_proj <- inception_3a/pool_proj
I0403 18:23:22.392972  6884 net.cpp:386] inception_3a/relu_pool_proj -> inception_3a/pool_proj (in-place)
I0403 18:23:22.393255  6884 net.cpp:141] Setting up inception_3a/relu_pool_proj
I0403 18:23:22.393281  6884 net.cpp:148] Top shape: 24 32 28 28 (602112)
I0403 18:23:22.393298  6884 net.cpp:156] Memory required for data: 561169440
I0403 18:23:22.393313  6884 layer_factory.hpp:77] Creating layer inception_3a/output
I0403 18:23:22.393335  6884 net.cpp:91] Creating Layer inception_3a/output
I0403 18:23:22.393352  6884 net.cpp:425] inception_3a/output <- inception_3a/1x1
I0403 18:23:22.393369  6884 net.cpp:425] inception_3a/output <- inception_3a/3x3
I0403 18:23:22.393386  6884 net.cpp:425] inception_3a/output <- inception_3a/5x5
I0403 18:23:22.393404  6884 net.cpp:425] inception_3a/output <- inception_3a/pool_proj
I0403 18:23:22.393420  6884 net.cpp:399] inception_3a/output -> inception_3a/output
I0403 18:23:22.393470  6884 net.cpp:141] Setting up inception_3a/output
I0403 18:23:22.393507  6884 net.cpp:148] Top shape: 24 256 28 28 (4816896)
I0403 18:23:22.393522  6884 net.cpp:156] Memory required for data: 580437024
I0403 18:23:22.393537  6884 layer_factory.hpp:77] Creating layer inception_3a/output_inception_3a/output_0_split
I0403 18:23:22.393553  6884 net.cpp:91] Creating Layer inception_3a/output_inception_3a/output_0_split
I0403 18:23:22.393569  6884 net.cpp:425] inception_3a/output_inception_3a/output_0_split <- inception_3a/output
I0403 18:23:22.393589  6884 net.cpp:399] inception_3a/output_inception_3a/output_0_split -> inception_3a/output_inception_3a/output_0_split_0
I0403 18:23:22.393610  6884 net.cpp:399] inception_3a/output_inception_3a/output_0_split -> inception_3a/output_inception_3a/output_0_split_1
I0403 18:23:22.393632  6884 net.cpp:399] inception_3a/output_inception_3a/output_0_split -> inception_3a/output_inception_3a/output_0_split_2
I0403 18:23:22.393653  6884 net.cpp:399] inception_3a/output_inception_3a/output_0_split -> inception_3a/output_inception_3a/output_0_split_3
I0403 18:23:22.393728  6884 net.cpp:141] Setting up inception_3a/output_inception_3a/output_0_split
I0403 18:23:22.393749  6884 net.cpp:148] Top shape: 24 256 28 28 (4816896)
I0403 18:23:22.393766  6884 net.cpp:148] Top shape: 24 256 28 28 (4816896)
I0403 18:23:22.393782  6884 net.cpp:148] Top shape: 24 256 28 28 (4816896)
I0403 18:23:22.393798  6884 net.cpp:148] Top shape: 24 256 28 28 (4816896)
I0403 18:23:22.393812  6884 net.cpp:156] Memory required for data: 657507360
I0403 18:23:22.393827  6884 layer_factory.hpp:77] Creating layer inception_3b/1x1
I0403 18:23:22.393851  6884 net.cpp:91] Creating Layer inception_3b/1x1
I0403 18:23:22.393869  6884 net.cpp:425] inception_3b/1x1 <- inception_3a/output_inception_3a/output_0_split_0
I0403 18:23:22.393890  6884 net.cpp:399] inception_3b/1x1 -> inception_3b/1x1
I0403 18:23:22.395032  6884 net.cpp:141] Setting up inception_3b/1x1
I0403 18:23:22.395072  6884 net.cpp:148] Top shape: 24 128 28 28 (2408448)
I0403 18:23:22.395088  6884 net.cpp:156] Memory required for data: 667141152
I0403 18:23:22.395107  6884 layer_factory.hpp:77] Creating layer inception_3b/relu_1x1
I0403 18:23:22.395125  6884 net.cpp:91] Creating Layer inception_3b/relu_1x1
I0403 18:23:22.395141  6884 net.cpp:425] inception_3b/relu_1x1 <- inception_3b/1x1
I0403 18:23:22.395160  6884 net.cpp:386] inception_3b/relu_1x1 -> inception_3b/1x1 (in-place)
I0403 18:23:22.395347  6884 net.cpp:141] Setting up inception_3b/relu_1x1
I0403 18:23:22.395373  6884 net.cpp:148] Top shape: 24 128 28 28 (2408448)
I0403 18:23:22.395388  6884 net.cpp:156] Memory required for data: 676774944
I0403 18:23:22.395403  6884 layer_factory.hpp:77] Creating layer inception_3b/3x3_reduce
I0403 18:23:22.395426  6884 net.cpp:91] Creating Layer inception_3b/3x3_reduce
I0403 18:23:22.395442  6884 net.cpp:425] inception_3b/3x3_reduce <- inception_3a/output_inception_3a/output_0_split_1
I0403 18:23:22.395464  6884 net.cpp:399] inception_3b/3x3_reduce -> inception_3b/3x3_reduce
I0403 18:23:22.396611  6884 net.cpp:141] Setting up inception_3b/3x3_reduce
I0403 18:23:22.396639  6884 net.cpp:148] Top shape: 24 128 28 28 (2408448)
I0403 18:23:22.396654  6884 net.cpp:156] Memory required for data: 686408736
I0403 18:23:22.396672  6884 layer_factory.hpp:77] Creating layer inception_3b/relu_3x3_reduce
I0403 18:23:22.396692  6884 net.cpp:91] Creating Layer inception_3b/relu_3x3_reduce
I0403 18:23:22.396708  6884 net.cpp:425] inception_3b/relu_3x3_reduce <- inception_3b/3x3_reduce
I0403 18:23:22.396728  6884 net.cpp:386] inception_3b/relu_3x3_reduce -> inception_3b/3x3_reduce (in-place)
I0403 18:23:22.396899  6884 net.cpp:141] Setting up inception_3b/relu_3x3_reduce
I0403 18:23:22.396924  6884 net.cpp:148] Top shape: 24 128 28 28 (2408448)
I0403 18:23:22.396939  6884 net.cpp:156] Memory required for data: 696042528
I0403 18:23:22.396955  6884 layer_factory.hpp:77] Creating layer inception_3b/3x3
I0403 18:23:22.396981  6884 net.cpp:91] Creating Layer inception_3b/3x3
I0403 18:23:22.396998  6884 net.cpp:425] inception_3b/3x3 <- inception_3b/3x3_reduce
I0403 18:23:22.397018  6884 net.cpp:399] inception_3b/3x3 -> inception_3b/3x3
I0403 18:23:22.399947  6884 net.cpp:141] Setting up inception_3b/3x3
I0403 18:23:22.399976  6884 net.cpp:148] Top shape: 24 192 28 28 (3612672)
I0403 18:23:22.399991  6884 net.cpp:156] Memory required for data: 710493216
I0403 18:23:22.400010  6884 layer_factory.hpp:77] Creating layer inception_3b/relu_3x3
I0403 18:23:22.400032  6884 net.cpp:91] Creating Layer inception_3b/relu_3x3
I0403 18:23:22.400049  6884 net.cpp:425] inception_3b/relu_3x3 <- inception_3b/3x3
I0403 18:23:22.400066  6884 net.cpp:386] inception_3b/relu_3x3 -> inception_3b/3x3 (in-place)
I0403 18:23:22.400354  6884 net.cpp:141] Setting up inception_3b/relu_3x3
I0403 18:23:22.400380  6884 net.cpp:148] Top shape: 24 192 28 28 (3612672)
I0403 18:23:22.400396  6884 net.cpp:156] Memory required for data: 724943904
I0403 18:23:22.400411  6884 layer_factory.hpp:77] Creating layer inception_3b/5x5_reduce
I0403 18:23:22.400434  6884 net.cpp:91] Creating Layer inception_3b/5x5_reduce
I0403 18:23:22.400454  6884 net.cpp:425] inception_3b/5x5_reduce <- inception_3a/output_inception_3a/output_0_split_2
I0403 18:23:22.400475  6884 net.cpp:399] inception_3b/5x5_reduce -> inception_3b/5x5_reduce
I0403 18:23:22.401473  6884 net.cpp:141] Setting up inception_3b/5x5_reduce
I0403 18:23:22.401501  6884 net.cpp:148] Top shape: 24 32 28 28 (602112)
I0403 18:23:22.401517  6884 net.cpp:156] Memory required for data: 727352352
I0403 18:23:22.401535  6884 layer_factory.hpp:77] Creating layer inception_3b/relu_5x5_reduce
I0403 18:23:22.401556  6884 net.cpp:91] Creating Layer inception_3b/relu_5x5_reduce
I0403 18:23:22.401574  6884 net.cpp:425] inception_3b/relu_5x5_reduce <- inception_3b/5x5_reduce
I0403 18:23:22.401592  6884 net.cpp:386] inception_3b/relu_5x5_reduce -> inception_3b/5x5_reduce (in-place)
I0403 18:23:22.401787  6884 net.cpp:141] Setting up inception_3b/relu_5x5_reduce
I0403 18:23:22.401811  6884 net.cpp:148] Top shape: 24 32 28 28 (602112)
I0403 18:23:22.401825  6884 net.cpp:156] Memory required for data: 729760800
I0403 18:23:22.401840  6884 layer_factory.hpp:77] Creating layer inception_3b/5x5
I0403 18:23:22.401865  6884 net.cpp:91] Creating Layer inception_3b/5x5
I0403 18:23:22.401881  6884 net.cpp:425] inception_3b/5x5 <- inception_3b/5x5_reduce
I0403 18:23:22.401901  6884 net.cpp:399] inception_3b/5x5 -> inception_3b/5x5
I0403 18:23:22.403990  6884 net.cpp:141] Setting up inception_3b/5x5
I0403 18:23:22.404023  6884 net.cpp:148] Top shape: 24 96 28 28 (1806336)
I0403 18:23:22.404041  6884 net.cpp:156] Memory required for data: 736986144
I0403 18:23:22.404059  6884 layer_factory.hpp:77] Creating layer inception_3b/relu_5x5
I0403 18:23:22.404078  6884 net.cpp:91] Creating Layer inception_3b/relu_5x5
I0403 18:23:22.404094  6884 net.cpp:425] inception_3b/relu_5x5 <- inception_3b/5x5
I0403 18:23:22.404115  6884 net.cpp:386] inception_3b/relu_5x5 -> inception_3b/5x5 (in-place)
I0403 18:23:22.404322  6884 net.cpp:141] Setting up inception_3b/relu_5x5
I0403 18:23:22.404348  6884 net.cpp:148] Top shape: 24 96 28 28 (1806336)
I0403 18:23:22.404363  6884 net.cpp:156] Memory required for data: 744211488
I0403 18:23:22.404379  6884 layer_factory.hpp:77] Creating layer inception_3b/pool
I0403 18:23:22.404397  6884 net.cpp:91] Creating Layer inception_3b/pool
I0403 18:23:22.404415  6884 net.cpp:425] inception_3b/pool <- inception_3a/output_inception_3a/output_0_split_3
I0403 18:23:22.404435  6884 net.cpp:399] inception_3b/pool -> inception_3b/pool
I0403 18:23:22.404495  6884 net.cpp:141] Setting up inception_3b/pool
I0403 18:23:22.404517  6884 net.cpp:148] Top shape: 24 256 28 28 (4816896)
I0403 18:23:22.404533  6884 net.cpp:156] Memory required for data: 763479072
I0403 18:23:22.404548  6884 layer_factory.hpp:77] Creating layer inception_3b/pool_proj
I0403 18:23:22.404572  6884 net.cpp:91] Creating Layer inception_3b/pool_proj
I0403 18:23:22.404589  6884 net.cpp:425] inception_3b/pool_proj <- inception_3b/pool
I0403 18:23:22.404611  6884 net.cpp:399] inception_3b/pool_proj -> inception_3b/pool_proj
I0403 18:23:22.405699  6884 net.cpp:141] Setting up inception_3b/pool_proj
I0403 18:23:22.405728  6884 net.cpp:148] Top shape: 24 64 28 28 (1204224)
I0403 18:23:22.405745  6884 net.cpp:156] Memory required for data: 768295968
I0403 18:23:22.405766  6884 layer_factory.hpp:77] Creating layer inception_3b/relu_pool_proj
I0403 18:23:22.405786  6884 net.cpp:91] Creating Layer inception_3b/relu_pool_proj
I0403 18:23:22.405802  6884 net.cpp:425] inception_3b/relu_pool_proj <- inception_3b/pool_proj
I0403 18:23:22.405820  6884 net.cpp:386] inception_3b/relu_pool_proj -> inception_3b/pool_proj (in-place)
I0403 18:23:22.406224  6884 net.cpp:141] Setting up inception_3b/relu_pool_proj
I0403 18:23:22.406251  6884 net.cpp:148] Top shape: 24 64 28 28 (1204224)
I0403 18:23:22.406270  6884 net.cpp:156] Memory required for data: 773112864
I0403 18:23:22.406286  6884 layer_factory.hpp:77] Creating layer inception_3b/output
I0403 18:23:22.406304  6884 net.cpp:91] Creating Layer inception_3b/output
I0403 18:23:22.406322  6884 net.cpp:425] inception_3b/output <- inception_3b/1x1
I0403 18:23:22.406339  6884 net.cpp:425] inception_3b/output <- inception_3b/3x3
I0403 18:23:22.406355  6884 net.cpp:425] inception_3b/output <- inception_3b/5x5
I0403 18:23:22.406373  6884 net.cpp:425] inception_3b/output <- inception_3b/pool_proj
I0403 18:23:22.406389  6884 net.cpp:399] inception_3b/output -> inception_3b/output
I0403 18:23:22.406436  6884 net.cpp:141] Setting up inception_3b/output
I0403 18:23:22.406461  6884 net.cpp:148] Top shape: 24 480 28 28 (9031680)
I0403 18:23:22.406476  6884 net.cpp:156] Memory required for data: 809239584
I0403 18:23:22.406491  6884 layer_factory.hpp:77] Creating layer pool3/3x3_s2
I0403 18:23:22.406509  6884 net.cpp:91] Creating Layer pool3/3x3_s2
I0403 18:23:22.406528  6884 net.cpp:425] pool3/3x3_s2 <- inception_3b/output
I0403 18:23:22.406563  6884 net.cpp:399] pool3/3x3_s2 -> pool3/3x3_s2
I0403 18:23:22.406623  6884 net.cpp:141] Setting up pool3/3x3_s2
I0403 18:23:22.406647  6884 net.cpp:148] Top shape: 24 480 14 14 (2257920)
I0403 18:23:22.406662  6884 net.cpp:156] Memory required for data: 818271264
I0403 18:23:22.406677  6884 layer_factory.hpp:77] Creating layer pool3/3x3_s2_pool3/3x3_s2_0_split
I0403 18:23:22.406694  6884 net.cpp:91] Creating Layer pool3/3x3_s2_pool3/3x3_s2_0_split
I0403 18:23:22.406710  6884 net.cpp:425] pool3/3x3_s2_pool3/3x3_s2_0_split <- pool3/3x3_s2
I0403 18:23:22.406730  6884 net.cpp:399] pool3/3x3_s2_pool3/3x3_s2_0_split -> pool3/3x3_s2_pool3/3x3_s2_0_split_0
I0403 18:23:22.406751  6884 net.cpp:399] pool3/3x3_s2_pool3/3x3_s2_0_split -> pool3/3x3_s2_pool3/3x3_s2_0_split_1
I0403 18:23:22.406771  6884 net.cpp:399] pool3/3x3_s2_pool3/3x3_s2_0_split -> pool3/3x3_s2_pool3/3x3_s2_0_split_2
I0403 18:23:22.406791  6884 net.cpp:399] pool3/3x3_s2_pool3/3x3_s2_0_split -> pool3/3x3_s2_pool3/3x3_s2_0_split_3
I0403 18:23:22.406870  6884 net.cpp:141] Setting up pool3/3x3_s2_pool3/3x3_s2_0_split
I0403 18:23:22.406894  6884 net.cpp:148] Top shape: 24 480 14 14 (2257920)
I0403 18:23:22.406911  6884 net.cpp:148] Top shape: 24 480 14 14 (2257920)
I0403 18:23:22.406929  6884 net.cpp:148] Top shape: 24 480 14 14 (2257920)
I0403 18:23:22.406944  6884 net.cpp:148] Top shape: 24 480 14 14 (2257920)
I0403 18:23:22.406960  6884 net.cpp:156] Memory required for data: 854397984
I0403 18:23:22.406975  6884 layer_factory.hpp:77] Creating layer inception_4a/1x1
I0403 18:23:22.406999  6884 net.cpp:91] Creating Layer inception_4a/1x1
I0403 18:23:22.407018  6884 net.cpp:425] inception_4a/1x1 <- pool3/3x3_s2_pool3/3x3_s2_0_split_0
I0403 18:23:22.407039  6884 net.cpp:399] inception_4a/1x1 -> inception_4a/1x1
I0403 18:23:22.408663  6884 net.cpp:141] Setting up inception_4a/1x1
I0403 18:23:22.408694  6884 net.cpp:148] Top shape: 24 192 14 14 (903168)
I0403 18:23:22.408710  6884 net.cpp:156] Memory required for data: 858010656
I0403 18:23:22.408731  6884 layer_factory.hpp:77] Creating layer inception_4a/relu_1x1
I0403 18:23:22.408749  6884 net.cpp:91] Creating Layer inception_4a/relu_1x1
I0403 18:23:22.408766  6884 net.cpp:425] inception_4a/relu_1x1 <- inception_4a/1x1
I0403 18:23:22.408785  6884 net.cpp:386] inception_4a/relu_1x1 -> inception_4a/1x1 (in-place)
I0403 18:23:22.408970  6884 net.cpp:141] Setting up inception_4a/relu_1x1
I0403 18:23:22.408996  6884 net.cpp:148] Top shape: 24 192 14 14 (903168)
I0403 18:23:22.409013  6884 net.cpp:156] Memory required for data: 861623328
I0403 18:23:22.409027  6884 layer_factory.hpp:77] Creating layer inception_4a/3x3_reduce
I0403 18:23:22.409051  6884 net.cpp:91] Creating Layer inception_4a/3x3_reduce
I0403 18:23:22.409070  6884 net.cpp:425] inception_4a/3x3_reduce <- pool3/3x3_s2_pool3/3x3_s2_0_split_1
I0403 18:23:22.409092  6884 net.cpp:399] inception_4a/3x3_reduce -> inception_4a/3x3_reduce
I0403 18:23:22.410449  6884 net.cpp:141] Setting up inception_4a/3x3_reduce
I0403 18:23:22.410480  6884 net.cpp:148] Top shape: 24 96 14 14 (451584)
I0403 18:23:22.410498  6884 net.cpp:156] Memory required for data: 863429664
I0403 18:23:22.410523  6884 layer_factory.hpp:77] Creating layer inception_4a/relu_3x3_reduce
I0403 18:23:22.410545  6884 net.cpp:91] Creating Layer inception_4a/relu_3x3_reduce
I0403 18:23:22.410563  6884 net.cpp:425] inception_4a/relu_3x3_reduce <- inception_4a/3x3_reduce
I0403 18:23:22.410581  6884 net.cpp:386] inception_4a/relu_3x3_reduce -> inception_4a/3x3_reduce (in-place)
I0403 18:23:22.410774  6884 net.cpp:141] Setting up inception_4a/relu_3x3_reduce
I0403 18:23:22.410801  6884 net.cpp:148] Top shape: 24 96 14 14 (451584)
I0403 18:23:22.410817  6884 net.cpp:156] Memory required for data: 865236000
I0403 18:23:22.410832  6884 layer_factory.hpp:77] Creating layer inception_4a/3x3
I0403 18:23:22.410856  6884 net.cpp:91] Creating Layer inception_4a/3x3
I0403 18:23:22.410874  6884 net.cpp:425] inception_4a/3x3 <- inception_4a/3x3_reduce
I0403 18:23:22.410898  6884 net.cpp:399] inception_4a/3x3 -> inception_4a/3x3
I0403 18:23:22.413806  6884 net.cpp:141] Setting up inception_4a/3x3
I0403 18:23:22.413837  6884 net.cpp:148] Top shape: 24 208 14 14 (978432)
I0403 18:23:22.413853  6884 net.cpp:156] Memory required for data: 869149728
I0403 18:23:22.413873  6884 layer_factory.hpp:77] Creating layer inception_4a/relu_3x3
I0403 18:23:22.413892  6884 net.cpp:91] Creating Layer inception_4a/relu_3x3
I0403 18:23:22.413913  6884 net.cpp:425] inception_4a/relu_3x3 <- inception_4a/3x3
I0403 18:23:22.413933  6884 net.cpp:386] inception_4a/relu_3x3 -> inception_4a/3x3 (in-place)
I0403 18:23:22.414233  6884 net.cpp:141] Setting up inception_4a/relu_3x3
I0403 18:23:22.414261  6884 net.cpp:148] Top shape: 24 208 14 14 (978432)
I0403 18:23:22.414278  6884 net.cpp:156] Memory required for data: 873063456
I0403 18:23:22.414294  6884 layer_factory.hpp:77] Creating layer inception_4a/5x5_reduce
I0403 18:23:22.414324  6884 net.cpp:91] Creating Layer inception_4a/5x5_reduce
I0403 18:23:22.414345  6884 net.cpp:425] inception_4a/5x5_reduce <- pool3/3x3_s2_pool3/3x3_s2_0_split_2
I0403 18:23:22.414367  6884 net.cpp:399] inception_4a/5x5_reduce -> inception_4a/5x5_reduce
I0403 18:23:22.415454  6884 net.cpp:141] Setting up inception_4a/5x5_reduce
I0403 18:23:22.415483  6884 net.cpp:148] Top shape: 24 16 14 14 (75264)
I0403 18:23:22.415499  6884 net.cpp:156] Memory required for data: 873364512
I0403 18:23:22.415518  6884 layer_factory.hpp:77] Creating layer inception_4a/relu_5x5_reduce
I0403 18:23:22.415541  6884 net.cpp:91] Creating Layer inception_4a/relu_5x5_reduce
I0403 18:23:22.415560  6884 net.cpp:425] inception_4a/relu_5x5_reduce <- inception_4a/5x5_reduce
I0403 18:23:22.415578  6884 net.cpp:386] inception_4a/relu_5x5_reduce -> inception_4a/5x5_reduce (in-place)
I0403 18:23:22.415769  6884 net.cpp:141] Setting up inception_4a/relu_5x5_reduce
I0403 18:23:22.415796  6884 net.cpp:148] Top shape: 24 16 14 14 (75264)
I0403 18:23:22.415810  6884 net.cpp:156] Memory required for data: 873665568
I0403 18:23:22.415825  6884 layer_factory.hpp:77] Creating layer inception_4a/5x5
I0403 18:23:22.415851  6884 net.cpp:91] Creating Layer inception_4a/5x5
I0403 18:23:22.415869  6884 net.cpp:425] inception_4a/5x5 <- inception_4a/5x5_reduce
I0403 18:23:22.415890  6884 net.cpp:399] inception_4a/5x5 -> inception_4a/5x5
I0403 18:23:22.417043  6884 net.cpp:141] Setting up inception_4a/5x5
I0403 18:23:22.417071  6884 net.cpp:148] Top shape: 24 48 14 14 (225792)
I0403 18:23:22.417091  6884 net.cpp:156] Memory required for data: 874568736
I0403 18:23:22.417114  6884 layer_factory.hpp:77] Creating layer inception_4a/relu_5x5
I0403 18:23:22.417132  6884 net.cpp:91] Creating Layer inception_4a/relu_5x5
I0403 18:23:22.417150  6884 net.cpp:425] inception_4a/relu_5x5 <- inception_4a/5x5
I0403 18:23:22.417168  6884 net.cpp:386] inception_4a/relu_5x5 -> inception_4a/5x5 (in-place)
I0403 18:23:22.417362  6884 net.cpp:141] Setting up inception_4a/relu_5x5
I0403 18:23:22.417392  6884 net.cpp:148] Top shape: 24 48 14 14 (225792)
I0403 18:23:22.417408  6884 net.cpp:156] Memory required for data: 875471904
I0403 18:23:22.417424  6884 layer_factory.hpp:77] Creating layer inception_4a/pool
I0403 18:23:22.417443  6884 net.cpp:91] Creating Layer inception_4a/pool
I0403 18:23:22.417461  6884 net.cpp:425] inception_4a/pool <- pool3/3x3_s2_pool3/3x3_s2_0_split_3
I0403 18:23:22.417482  6884 net.cpp:399] inception_4a/pool -> inception_4a/pool
I0403 18:23:22.417546  6884 net.cpp:141] Setting up inception_4a/pool
I0403 18:23:22.417573  6884 net.cpp:148] Top shape: 24 480 14 14 (2257920)
I0403 18:23:22.417588  6884 net.cpp:156] Memory required for data: 884503584
I0403 18:23:22.417604  6884 layer_factory.hpp:77] Creating layer inception_4a/pool_proj
I0403 18:23:22.417625  6884 net.cpp:91] Creating Layer inception_4a/pool_proj
I0403 18:23:22.417644  6884 net.cpp:425] inception_4a/pool_proj <- inception_4a/pool
I0403 18:23:22.417670  6884 net.cpp:399] inception_4a/pool_proj -> inception_4a/pool_proj
I0403 18:23:22.418916  6884 net.cpp:141] Setting up inception_4a/pool_proj
I0403 18:23:22.418953  6884 net.cpp:148] Top shape: 24 64 14 14 (301056)
I0403 18:23:22.418987  6884 net.cpp:156] Memory required for data: 885707808
I0403 18:23:22.419008  6884 layer_factory.hpp:77] Creating layer inception_4a/relu_pool_proj
I0403 18:23:22.419028  6884 net.cpp:91] Creating Layer inception_4a/relu_pool_proj
I0403 18:23:22.419044  6884 net.cpp:425] inception_4a/relu_pool_proj <- inception_4a/pool_proj
I0403 18:23:22.419064  6884 net.cpp:386] inception_4a/relu_pool_proj -> inception_4a/pool_proj (in-place)
I0403 18:23:22.419368  6884 net.cpp:141] Setting up inception_4a/relu_pool_proj
I0403 18:23:22.419399  6884 net.cpp:148] Top shape: 24 64 14 14 (301056)
I0403 18:23:22.419416  6884 net.cpp:156] Memory required for data: 886912032
I0403 18:23:22.419432  6884 layer_factory.hpp:77] Creating layer inception_4a/output
I0403 18:23:22.419451  6884 net.cpp:91] Creating Layer inception_4a/output
I0403 18:23:22.419467  6884 net.cpp:425] inception_4a/output <- inception_4a/1x1
I0403 18:23:22.419486  6884 net.cpp:425] inception_4a/output <- inception_4a/3x3
I0403 18:23:22.419502  6884 net.cpp:425] inception_4a/output <- inception_4a/5x5
I0403 18:23:22.419519  6884 net.cpp:425] inception_4a/output <- inception_4a/pool_proj
I0403 18:23:22.419538  6884 net.cpp:399] inception_4a/output -> inception_4a/output
I0403 18:23:22.419586  6884 net.cpp:141] Setting up inception_4a/output
I0403 18:23:22.419611  6884 net.cpp:148] Top shape: 24 512 14 14 (2408448)
I0403 18:23:22.419627  6884 net.cpp:156] Memory required for data: 896545824
I0403 18:23:22.419643  6884 layer_factory.hpp:77] Creating layer inception_4a/output_inception_4a/output_0_split
I0403 18:23:22.419666  6884 net.cpp:91] Creating Layer inception_4a/output_inception_4a/output_0_split
I0403 18:23:22.419682  6884 net.cpp:425] inception_4a/output_inception_4a/output_0_split <- inception_4a/output
I0403 18:23:22.419702  6884 net.cpp:399] inception_4a/output_inception_4a/output_0_split -> inception_4a/output_inception_4a/output_0_split_0
I0403 18:23:22.419723  6884 net.cpp:399] inception_4a/output_inception_4a/output_0_split -> inception_4a/output_inception_4a/output_0_split_1
I0403 18:23:22.419745  6884 net.cpp:399] inception_4a/output_inception_4a/output_0_split -> inception_4a/output_inception_4a/output_0_split_2
I0403 18:23:22.419770  6884 net.cpp:399] inception_4a/output_inception_4a/output_0_split -> inception_4a/output_inception_4a/output_0_split_3
I0403 18:23:22.419790  6884 net.cpp:399] inception_4a/output_inception_4a/output_0_split -> inception_4a/output_inception_4a/output_0_split_4
I0403 18:23:22.419889  6884 net.cpp:141] Setting up inception_4a/output_inception_4a/output_0_split
I0403 18:23:22.419914  6884 net.cpp:148] Top shape: 24 512 14 14 (2408448)
I0403 18:23:22.419932  6884 net.cpp:148] Top shape: 24 512 14 14 (2408448)
I0403 18:23:22.419950  6884 net.cpp:148] Top shape: 24 512 14 14 (2408448)
I0403 18:23:22.419966  6884 net.cpp:148] Top shape: 24 512 14 14 (2408448)
I0403 18:23:22.419982  6884 net.cpp:148] Top shape: 24 512 14 14 (2408448)
I0403 18:23:22.419997  6884 net.cpp:156] Memory required for data: 944714784
I0403 18:23:22.420013  6884 layer_factory.hpp:77] Creating layer loss1/ave_pool
I0403 18:23:22.420035  6884 net.cpp:91] Creating Layer loss1/ave_pool
I0403 18:23:22.420053  6884 net.cpp:425] loss1/ave_pool <- inception_4a/output_inception_4a/output_0_split_0
I0403 18:23:22.420073  6884 net.cpp:399] loss1/ave_pool -> loss1/ave_pool
I0403 18:23:22.420305  6884 net.cpp:141] Setting up loss1/ave_pool
I0403 18:23:22.420334  6884 net.cpp:148] Top shape: 24 512 4 4 (196608)
I0403 18:23:22.420351  6884 net.cpp:156] Memory required for data: 945501216
I0403 18:23:22.420367  6884 layer_factory.hpp:77] Creating layer loss1/conv
I0403 18:23:22.420392  6884 net.cpp:91] Creating Layer loss1/conv
I0403 18:23:22.420409  6884 net.cpp:425] loss1/conv <- loss1/ave_pool
I0403 18:23:22.420430  6884 net.cpp:399] loss1/conv -> loss1/conv
I0403 18:23:22.421960  6884 net.cpp:141] Setting up loss1/conv
I0403 18:23:22.421989  6884 net.cpp:148] Top shape: 24 128 4 4 (49152)
I0403 18:23:22.422020  6884 net.cpp:156] Memory required for data: 945697824
I0403 18:23:22.422040  6884 layer_factory.hpp:77] Creating layer loss1/relu_conv
I0403 18:23:22.422061  6884 net.cpp:91] Creating Layer loss1/relu_conv
I0403 18:23:22.422080  6884 net.cpp:425] loss1/relu_conv <- loss1/conv
I0403 18:23:22.422096  6884 net.cpp:386] loss1/relu_conv -> loss1/conv (in-place)
I0403 18:23:22.422389  6884 net.cpp:141] Setting up loss1/relu_conv
I0403 18:23:22.422416  6884 net.cpp:148] Top shape: 24 128 4 4 (49152)
I0403 18:23:22.422432  6884 net.cpp:156] Memory required for data: 945894432
I0403 18:23:22.422448  6884 layer_factory.hpp:77] Creating layer loss1/fc
I0403 18:23:22.422474  6884 net.cpp:91] Creating Layer loss1/fc
I0403 18:23:22.422493  6884 net.cpp:425] loss1/fc <- loss1/conv
I0403 18:23:22.422513  6884 net.cpp:399] loss1/fc -> loss1/fc
I0403 18:23:22.440662  6884 net.cpp:141] Setting up loss1/fc
I0403 18:23:22.440697  6884 net.cpp:148] Top shape: 24 1024 (24576)
I0403 18:23:22.440712  6884 net.cpp:156] Memory required for data: 945992736
I0403 18:23:22.440732  6884 layer_factory.hpp:77] Creating layer loss1/relu_fc
I0403 18:23:22.440752  6884 net.cpp:91] Creating Layer loss1/relu_fc
I0403 18:23:22.440769  6884 net.cpp:425] loss1/relu_fc <- loss1/fc
I0403 18:23:22.440789  6884 net.cpp:386] loss1/relu_fc -> loss1/fc (in-place)
I0403 18:23:22.440980  6884 net.cpp:141] Setting up loss1/relu_fc
I0403 18:23:22.441005  6884 net.cpp:148] Top shape: 24 1024 (24576)
I0403 18:23:22.441020  6884 net.cpp:156] Memory required for data: 946091040
I0403 18:23:22.441035  6884 layer_factory.hpp:77] Creating layer loss1/drop_fc
I0403 18:23:22.441063  6884 net.cpp:91] Creating Layer loss1/drop_fc
I0403 18:23:22.441082  6884 net.cpp:425] loss1/drop_fc <- loss1/fc
I0403 18:23:22.441102  6884 net.cpp:386] loss1/drop_fc -> loss1/fc (in-place)
I0403 18:23:22.441151  6884 net.cpp:141] Setting up loss1/drop_fc
I0403 18:23:22.441174  6884 net.cpp:148] Top shape: 24 1024 (24576)
I0403 18:23:22.441189  6884 net.cpp:156] Memory required for data: 946189344
I0403 18:23:22.441203  6884 layer_factory.hpp:77] Creating layer loss1/classifier_plantvillage
I0403 18:23:22.441233  6884 net.cpp:91] Creating Layer loss1/classifier_plantvillage
I0403 18:23:22.441251  6884 net.cpp:425] loss1/classifier_plantvillage <- loss1/fc
I0403 18:23:22.441272  6884 net.cpp:399] loss1/classifier_plantvillage -> loss1/classifier_plantvillage
I0403 18:23:22.442241  6884 net.cpp:141] Setting up loss1/classifier_plantvillage
I0403 18:23:22.442272  6884 net.cpp:148] Top shape: 24 38 (912)
I0403 18:23:22.442288  6884 net.cpp:156] Memory required for data: 946192992
I0403 18:23:22.442307  6884 layer_factory.hpp:77] Creating layer loss1/classifier_plantvillage_loss1/classifier_plantvillage_0_split
I0403 18:23:22.442327  6884 net.cpp:91] Creating Layer loss1/classifier_plantvillage_loss1/classifier_plantvillage_0_split
I0403 18:23:22.442342  6884 net.cpp:425] loss1/classifier_plantvillage_loss1/classifier_plantvillage_0_split <- loss1/classifier_plantvillage
I0403 18:23:22.442363  6884 net.cpp:399] loss1/classifier_plantvillage_loss1/classifier_plantvillage_0_split -> loss1/classifier_plantvillage_loss1/classifier_plantvillage_0_split_0
I0403 18:23:22.442384  6884 net.cpp:399] loss1/classifier_plantvillage_loss1/classifier_plantvillage_0_split -> loss1/classifier_plantvillage_loss1/classifier_plantvillage_0_split_1
I0403 18:23:22.442404  6884 net.cpp:399] loss1/classifier_plantvillage_loss1/classifier_plantvillage_0_split -> loss1/classifier_plantvillage_loss1/classifier_plantvillage_0_split_2
I0403 18:23:22.442471  6884 net.cpp:141] Setting up loss1/classifier_plantvillage_loss1/classifier_plantvillage_0_split
I0403 18:23:22.442493  6884 net.cpp:148] Top shape: 24 38 (912)
I0403 18:23:22.442508  6884 net.cpp:148] Top shape: 24 38 (912)
I0403 18:23:22.442524  6884 net.cpp:148] Top shape: 24 38 (912)
I0403 18:23:22.442538  6884 net.cpp:156] Memory required for data: 946203936
I0403 18:23:22.442553  6884 layer_factory.hpp:77] Creating layer inception_4b/1x1
I0403 18:23:22.442575  6884 net.cpp:91] Creating Layer inception_4b/1x1
I0403 18:23:22.442610  6884 net.cpp:425] inception_4b/1x1 <- inception_4a/output_inception_4a/output_0_split_1
I0403 18:23:22.442630  6884 net.cpp:399] inception_4b/1x1 -> inception_4b/1x1
I0403 18:23:22.444289  6884 net.cpp:141] Setting up inception_4b/1x1
I0403 18:23:22.444317  6884 net.cpp:148] Top shape: 24 160 14 14 (752640)
I0403 18:23:22.444334  6884 net.cpp:156] Memory required for data: 949214496
I0403 18:23:22.444352  6884 layer_factory.hpp:77] Creating layer inception_4b/relu_1x1
I0403 18:23:22.444373  6884 net.cpp:91] Creating Layer inception_4b/relu_1x1
I0403 18:23:22.444391  6884 net.cpp:425] inception_4b/relu_1x1 <- inception_4b/1x1
I0403 18:23:22.444408  6884 net.cpp:386] inception_4b/relu_1x1 -> inception_4b/1x1 (in-place)
I0403 18:23:22.444588  6884 net.cpp:141] Setting up inception_4b/relu_1x1
I0403 18:23:22.444612  6884 net.cpp:148] Top shape: 24 160 14 14 (752640)
I0403 18:23:22.444628  6884 net.cpp:156] Memory required for data: 952225056
I0403 18:23:22.444643  6884 layer_factory.hpp:77] Creating layer inception_4b/3x3_reduce
I0403 18:23:22.444669  6884 net.cpp:91] Creating Layer inception_4b/3x3_reduce
I0403 18:23:22.444685  6884 net.cpp:425] inception_4b/3x3_reduce <- inception_4a/output_inception_4a/output_0_split_2
I0403 18:23:22.444705  6884 net.cpp:399] inception_4b/3x3_reduce -> inception_4b/3x3_reduce
I0403 18:23:22.446064  6884 net.cpp:141] Setting up inception_4b/3x3_reduce
I0403 18:23:22.446092  6884 net.cpp:148] Top shape: 24 112 14 14 (526848)
I0403 18:23:22.446107  6884 net.cpp:156] Memory required for data: 954332448
I0403 18:23:22.446126  6884 layer_factory.hpp:77] Creating layer inception_4b/relu_3x3_reduce
I0403 18:23:22.446147  6884 net.cpp:91] Creating Layer inception_4b/relu_3x3_reduce
I0403 18:23:22.446163  6884 net.cpp:425] inception_4b/relu_3x3_reduce <- inception_4b/3x3_reduce
I0403 18:23:22.446182  6884 net.cpp:386] inception_4b/relu_3x3_reduce -> inception_4b/3x3_reduce (in-place)
I0403 18:23:22.446476  6884 net.cpp:141] Setting up inception_4b/relu_3x3_reduce
I0403 18:23:22.446503  6884 net.cpp:148] Top shape: 24 112 14 14 (526848)
I0403 18:23:22.446518  6884 net.cpp:156] Memory required for data: 956439840
I0403 18:23:22.446534  6884 layer_factory.hpp:77] Creating layer inception_4b/3x3
I0403 18:23:22.446557  6884 net.cpp:91] Creating Layer inception_4b/3x3
I0403 18:23:22.446573  6884 net.cpp:425] inception_4b/3x3 <- inception_4b/3x3_reduce
I0403 18:23:22.446595  6884 net.cpp:399] inception_4b/3x3 -> inception_4b/3x3
I0403 18:23:22.449626  6884 net.cpp:141] Setting up inception_4b/3x3
I0403 18:23:22.449657  6884 net.cpp:148] Top shape: 24 224 14 14 (1053696)
I0403 18:23:22.449674  6884 net.cpp:156] Memory required for data: 960654624
I0403 18:23:22.449693  6884 layer_factory.hpp:77] Creating layer inception_4b/relu_3x3
I0403 18:23:22.449712  6884 net.cpp:91] Creating Layer inception_4b/relu_3x3
I0403 18:23:22.449728  6884 net.cpp:425] inception_4b/relu_3x3 <- inception_4b/3x3
I0403 18:23:22.449748  6884 net.cpp:386] inception_4b/relu_3x3 -> inception_4b/3x3 (in-place)
I0403 18:23:22.449934  6884 net.cpp:141] Setting up inception_4b/relu_3x3
I0403 18:23:22.449959  6884 net.cpp:148] Top shape: 24 224 14 14 (1053696)
I0403 18:23:22.449972  6884 net.cpp:156] Memory required for data: 964869408
I0403 18:23:22.449988  6884 layer_factory.hpp:77] Creating layer inception_4b/5x5_reduce
I0403 18:23:22.450011  6884 net.cpp:91] Creating Layer inception_4b/5x5_reduce
I0403 18:23:22.450028  6884 net.cpp:425] inception_4b/5x5_reduce <- inception_4a/output_inception_4a/output_0_split_3
I0403 18:23:22.450057  6884 net.cpp:399] inception_4b/5x5_reduce -> inception_4b/5x5_reduce
I0403 18:23:22.451153  6884 net.cpp:141] Setting up inception_4b/5x5_reduce
I0403 18:23:22.451179  6884 net.cpp:148] Top shape: 24 24 14 14 (112896)
I0403 18:23:22.451195  6884 net.cpp:156] Memory required for data: 965320992
I0403 18:23:22.451217  6884 layer_factory.hpp:77] Creating layer inception_4b/relu_5x5_reduce
I0403 18:23:22.451241  6884 net.cpp:91] Creating Layer inception_4b/relu_5x5_reduce
I0403 18:23:22.451272  6884 net.cpp:425] inception_4b/relu_5x5_reduce <- inception_4b/5x5_reduce
I0403 18:23:22.451290  6884 net.cpp:386] inception_4b/relu_5x5_reduce -> inception_4b/5x5_reduce (in-place)
I0403 18:23:22.451474  6884 net.cpp:141] Setting up inception_4b/relu_5x5_reduce
I0403 18:23:22.451501  6884 net.cpp:148] Top shape: 24 24 14 14 (112896)
I0403 18:23:22.451516  6884 net.cpp:156] Memory required for data: 965772576
I0403 18:23:22.451531  6884 layer_factory.hpp:77] Creating layer inception_4b/5x5
I0403 18:23:22.451553  6884 net.cpp:91] Creating Layer inception_4b/5x5
I0403 18:23:22.451570  6884 net.cpp:425] inception_4b/5x5 <- inception_4b/5x5_reduce
I0403 18:23:22.451589  6884 net.cpp:399] inception_4b/5x5 -> inception_4b/5x5
I0403 18:23:22.452872  6884 net.cpp:141] Setting up inception_4b/5x5
I0403 18:23:22.452900  6884 net.cpp:148] Top shape: 24 64 14 14 (301056)
I0403 18:23:22.452916  6884 net.cpp:156] Memory required for data: 966976800
I0403 18:23:22.452935  6884 layer_factory.hpp:77] Creating layer inception_4b/relu_5x5
I0403 18:23:22.452957  6884 net.cpp:91] Creating Layer inception_4b/relu_5x5
I0403 18:23:22.452975  6884 net.cpp:425] inception_4b/relu_5x5 <- inception_4b/5x5
I0403 18:23:22.452993  6884 net.cpp:386] inception_4b/relu_5x5 -> inception_4b/5x5 (in-place)
I0403 18:23:22.453294  6884 net.cpp:141] Setting up inception_4b/relu_5x5
I0403 18:23:22.453320  6884 net.cpp:148] Top shape: 24 64 14 14 (301056)
I0403 18:23:22.453336  6884 net.cpp:156] Memory required for data: 968181024
I0403 18:23:22.453352  6884 layer_factory.hpp:77] Creating layer inception_4b/pool
I0403 18:23:22.453372  6884 net.cpp:91] Creating Layer inception_4b/pool
I0403 18:23:22.453393  6884 net.cpp:425] inception_4b/pool <- inception_4a/output_inception_4a/output_0_split_4
I0403 18:23:22.453411  6884 net.cpp:399] inception_4b/pool -> inception_4b/pool
I0403 18:23:22.453479  6884 net.cpp:141] Setting up inception_4b/pool
I0403 18:23:22.453503  6884 net.cpp:148] Top shape: 24 512 14 14 (2408448)
I0403 18:23:22.453518  6884 net.cpp:156] Memory required for data: 977814816
I0403 18:23:22.453534  6884 layer_factory.hpp:77] Creating layer inception_4b/pool_proj
I0403 18:23:22.453563  6884 net.cpp:91] Creating Layer inception_4b/pool_proj
I0403 18:23:22.453583  6884 net.cpp:425] inception_4b/pool_proj <- inception_4b/pool
I0403 18:23:22.453604  6884 net.cpp:399] inception_4b/pool_proj -> inception_4b/pool_proj
I0403 18:23:22.454849  6884 net.cpp:141] Setting up inception_4b/pool_proj
I0403 18:23:22.454877  6884 net.cpp:148] Top shape: 24 64 14 14 (301056)
I0403 18:23:22.454895  6884 net.cpp:156] Memory required for data: 979019040
I0403 18:23:22.454913  6884 layer_factory.hpp:77] Creating layer inception_4b/relu_pool_proj
I0403 18:23:22.454936  6884 net.cpp:91] Creating Layer inception_4b/relu_pool_proj
I0403 18:23:22.454952  6884 net.cpp:425] inception_4b/relu_pool_proj <- inception_4b/pool_proj
I0403 18:23:22.454970  6884 net.cpp:386] inception_4b/relu_pool_proj -> inception_4b/pool_proj (in-place)
I0403 18:23:22.455159  6884 net.cpp:141] Setting up inception_4b/relu_pool_proj
I0403 18:23:22.455185  6884 net.cpp:148] Top shape: 24 64 14 14 (301056)
I0403 18:23:22.455200  6884 net.cpp:156] Memory required for data: 980223264
I0403 18:23:22.455221  6884 layer_factory.hpp:77] Creating layer inception_4b/output
I0403 18:23:22.455242  6884 net.cpp:91] Creating Layer inception_4b/output
I0403 18:23:22.455260  6884 net.cpp:425] inception_4b/output <- inception_4b/1x1
I0403 18:23:22.455277  6884 net.cpp:425] inception_4b/output <- inception_4b/3x3
I0403 18:23:22.455294  6884 net.cpp:425] inception_4b/output <- inception_4b/5x5
I0403 18:23:22.455310  6884 net.cpp:425] inception_4b/output <- inception_4b/pool_proj
I0403 18:23:22.455329  6884 net.cpp:399] inception_4b/output -> inception_4b/output
I0403 18:23:22.455377  6884 net.cpp:141] Setting up inception_4b/output
I0403 18:23:22.455400  6884 net.cpp:148] Top shape: 24 512 14 14 (2408448)
I0403 18:23:22.455416  6884 net.cpp:156] Memory required for data: 989857056
I0403 18:23:22.455446  6884 layer_factory.hpp:77] Creating layer inception_4b/output_inception_4b/output_0_split
I0403 18:23:22.455466  6884 net.cpp:91] Creating Layer inception_4b/output_inception_4b/output_0_split
I0403 18:23:22.455482  6884 net.cpp:425] inception_4b/output_inception_4b/output_0_split <- inception_4b/output
I0403 18:23:22.455502  6884 net.cpp:399] inception_4b/output_inception_4b/output_0_split -> inception_4b/output_inception_4b/output_0_split_0
I0403 18:23:22.455525  6884 net.cpp:399] inception_4b/output_inception_4b/output_0_split -> inception_4b/output_inception_4b/output_0_split_1
I0403 18:23:22.455546  6884 net.cpp:399] inception_4b/output_inception_4b/output_0_split -> inception_4b/output_inception_4b/output_0_split_2
I0403 18:23:22.455566  6884 net.cpp:399] inception_4b/output_inception_4b/output_0_split -> inception_4b/output_inception_4b/output_0_split_3
I0403 18:23:22.455658  6884 net.cpp:141] Setting up inception_4b/output_inception_4b/output_0_split
I0403 18:23:22.455682  6884 net.cpp:148] Top shape: 24 512 14 14 (2408448)
I0403 18:23:22.455700  6884 net.cpp:148] Top shape: 24 512 14 14 (2408448)
I0403 18:23:22.455716  6884 net.cpp:148] Top shape: 24 512 14 14 (2408448)
I0403 18:23:22.455731  6884 net.cpp:148] Top shape: 24 512 14 14 (2408448)
I0403 18:23:22.455745  6884 net.cpp:156] Memory required for data: 1028392224
I0403 18:23:22.455760  6884 layer_factory.hpp:77] Creating layer inception_4c/1x1
I0403 18:23:22.455785  6884 net.cpp:91] Creating Layer inception_4c/1x1
I0403 18:23:22.455801  6884 net.cpp:425] inception_4c/1x1 <- inception_4b/output_inception_4b/output_0_split_0
I0403 18:23:22.455824  6884 net.cpp:399] inception_4c/1x1 -> inception_4c/1x1
I0403 18:23:22.457324  6884 net.cpp:141] Setting up inception_4c/1x1
I0403 18:23:22.457356  6884 net.cpp:148] Top shape: 24 128 14 14 (602112)
I0403 18:23:22.457375  6884 net.cpp:156] Memory required for data: 1030800672
I0403 18:23:22.457393  6884 layer_factory.hpp:77] Creating layer inception_4c/relu_1x1
I0403 18:23:22.457412  6884 net.cpp:91] Creating Layer inception_4c/relu_1x1
I0403 18:23:22.457429  6884 net.cpp:425] inception_4c/relu_1x1 <- inception_4c/1x1
I0403 18:23:22.457449  6884 net.cpp:386] inception_4c/relu_1x1 -> inception_4c/1x1 (in-place)
I0403 18:23:22.457645  6884 net.cpp:141] Setting up inception_4c/relu_1x1
I0403 18:23:22.457670  6884 net.cpp:148] Top shape: 24 128 14 14 (602112)
I0403 18:23:22.457686  6884 net.cpp:156] Memory required for data: 1033209120
I0403 18:23:22.457702  6884 layer_factory.hpp:77] Creating layer inception_4c/3x3_reduce
I0403 18:23:22.457726  6884 net.cpp:91] Creating Layer inception_4c/3x3_reduce
I0403 18:23:22.457744  6884 net.cpp:425] inception_4c/3x3_reduce <- inception_4b/output_inception_4b/output_0_split_1
I0403 18:23:22.457767  6884 net.cpp:399] inception_4c/3x3_reduce -> inception_4c/3x3_reduce
I0403 18:23:22.459848  6884 net.cpp:141] Setting up inception_4c/3x3_reduce
I0403 18:23:22.459878  6884 net.cpp:148] Top shape: 24 128 14 14 (602112)
I0403 18:23:22.459894  6884 net.cpp:156] Memory required for data: 1035617568
I0403 18:23:22.459913  6884 layer_factory.hpp:77] Creating layer inception_4c/relu_3x3_reduce
I0403 18:23:22.459931  6884 net.cpp:91] Creating Layer inception_4c/relu_3x3_reduce
I0403 18:23:22.459949  6884 net.cpp:425] inception_4c/relu_3x3_reduce <- inception_4c/3x3_reduce
I0403 18:23:22.459969  6884 net.cpp:386] inception_4c/relu_3x3_reduce -> inception_4c/3x3_reduce (in-place)
I0403 18:23:22.460275  6884 net.cpp:141] Setting up inception_4c/relu_3x3_reduce
I0403 18:23:22.460302  6884 net.cpp:148] Top shape: 24 128 14 14 (602112)
I0403 18:23:22.460317  6884 net.cpp:156] Memory required for data: 1038026016
I0403 18:23:22.460332  6884 layer_factory.hpp:77] Creating layer inception_4c/3x3
I0403 18:23:22.460357  6884 net.cpp:91] Creating Layer inception_4c/3x3
I0403 18:23:22.460376  6884 net.cpp:425] inception_4c/3x3 <- inception_4c/3x3_reduce
I0403 18:23:22.460402  6884 net.cpp:399] inception_4c/3x3 -> inception_4c/3x3
I0403 18:23:22.464174  6884 net.cpp:141] Setting up inception_4c/3x3
I0403 18:23:22.464221  6884 net.cpp:148] Top shape: 24 256 14 14 (1204224)
I0403 18:23:22.464241  6884 net.cpp:156] Memory required for data: 1042842912
I0403 18:23:22.464274  6884 layer_factory.hpp:77] Creating layer inception_4c/relu_3x3
I0403 18:23:22.464298  6884 net.cpp:91] Creating Layer inception_4c/relu_3x3
I0403 18:23:22.464316  6884 net.cpp:425] inception_4c/relu_3x3 <- inception_4c/3x3
I0403 18:23:22.464335  6884 net.cpp:386] inception_4c/relu_3x3 -> inception_4c/3x3 (in-place)
I0403 18:23:22.464534  6884 net.cpp:141] Setting up inception_4c/relu_3x3
I0403 18:23:22.464561  6884 net.cpp:148] Top shape: 24 256 14 14 (1204224)
I0403 18:23:22.464576  6884 net.cpp:156] Memory required for data: 1047659808
I0403 18:23:22.464593  6884 layer_factory.hpp:77] Creating layer inception_4c/5x5_reduce
I0403 18:23:22.464617  6884 net.cpp:91] Creating Layer inception_4c/5x5_reduce
I0403 18:23:22.464637  6884 net.cpp:425] inception_4c/5x5_reduce <- inception_4b/output_inception_4b/output_0_split_2
I0403 18:23:22.464661  6884 net.cpp:399] inception_4c/5x5_reduce -> inception_4c/5x5_reduce
I0403 18:23:22.465831  6884 net.cpp:141] Setting up inception_4c/5x5_reduce
I0403 18:23:22.465859  6884 net.cpp:148] Top shape: 24 24 14 14 (112896)
I0403 18:23:22.465875  6884 net.cpp:156] Memory required for data: 1048111392
I0403 18:23:22.465895  6884 layer_factory.hpp:77] Creating layer inception_4c/relu_5x5_reduce
I0403 18:23:22.465917  6884 net.cpp:91] Creating Layer inception_4c/relu_5x5_reduce
I0403 18:23:22.465934  6884 net.cpp:425] inception_4c/relu_5x5_reduce <- inception_4c/5x5_reduce
I0403 18:23:22.465953  6884 net.cpp:386] inception_4c/relu_5x5_reduce -> inception_4c/5x5_reduce (in-place)
I0403 18:23:22.466156  6884 net.cpp:141] Setting up inception_4c/relu_5x5_reduce
I0403 18:23:22.466183  6884 net.cpp:148] Top shape: 24 24 14 14 (112896)
I0403 18:23:22.466199  6884 net.cpp:156] Memory required for data: 1048562976
I0403 18:23:22.466223  6884 layer_factory.hpp:77] Creating layer inception_4c/5x5
I0403 18:23:22.466246  6884 net.cpp:91] Creating Layer inception_4c/5x5
I0403 18:23:22.466264  6884 net.cpp:425] inception_4c/5x5 <- inception_4c/5x5_reduce
I0403 18:23:22.466284  6884 net.cpp:399] inception_4c/5x5 -> inception_4c/5x5
I0403 18:23:22.467612  6884 net.cpp:141] Setting up inception_4c/5x5
I0403 18:23:22.467641  6884 net.cpp:148] Top shape: 24 64 14 14 (301056)
I0403 18:23:22.467658  6884 net.cpp:156] Memory required for data: 1049767200
I0403 18:23:22.467679  6884 layer_factory.hpp:77] Creating layer inception_4c/relu_5x5
I0403 18:23:22.467700  6884 net.cpp:91] Creating Layer inception_4c/relu_5x5
I0403 18:23:22.467718  6884 net.cpp:425] inception_4c/relu_5x5 <- inception_4c/5x5
I0403 18:23:22.467736  6884 net.cpp:386] inception_4c/relu_5x5 -> inception_4c/5x5 (in-place)
I0403 18:23:22.468044  6884 net.cpp:141] Setting up inception_4c/relu_5x5
I0403 18:23:22.468070  6884 net.cpp:148] Top shape: 24 64 14 14 (301056)
I0403 18:23:22.468087  6884 net.cpp:156] Memory required for data: 1050971424
I0403 18:23:22.468103  6884 layer_factory.hpp:77] Creating layer inception_4c/pool
I0403 18:23:22.468125  6884 net.cpp:91] Creating Layer inception_4c/pool
I0403 18:23:22.468142  6884 net.cpp:425] inception_4c/pool <- inception_4b/output_inception_4b/output_0_split_3
I0403 18:23:22.468165  6884 net.cpp:399] inception_4c/pool -> inception_4c/pool
I0403 18:23:22.468238  6884 net.cpp:141] Setting up inception_4c/pool
I0403 18:23:22.468264  6884 net.cpp:148] Top shape: 24 512 14 14 (2408448)
I0403 18:23:22.468282  6884 net.cpp:156] Memory required for data: 1060605216
I0403 18:23:22.468297  6884 layer_factory.hpp:77] Creating layer inception_4c/pool_proj
I0403 18:23:22.468322  6884 net.cpp:91] Creating Layer inception_4c/pool_proj
I0403 18:23:22.468340  6884 net.cpp:425] inception_4c/pool_proj <- inception_4c/pool
I0403 18:23:22.468364  6884 net.cpp:399] inception_4c/pool_proj -> inception_4c/pool_proj
I0403 18:23:22.469666  6884 net.cpp:141] Setting up inception_4c/pool_proj
I0403 18:23:22.469696  6884 net.cpp:148] Top shape: 24 64 14 14 (301056)
I0403 18:23:22.469727  6884 net.cpp:156] Memory required for data: 1061809440
I0403 18:23:22.469748  6884 layer_factory.hpp:77] Creating layer inception_4c/relu_pool_proj
I0403 18:23:22.469770  6884 net.cpp:91] Creating Layer inception_4c/relu_pool_proj
I0403 18:23:22.469789  6884 net.cpp:425] inception_4c/relu_pool_proj <- inception_4c/pool_proj
I0403 18:23:22.469807  6884 net.cpp:386] inception_4c/relu_pool_proj -> inception_4c/pool_proj (in-place)
I0403 18:23:22.470008  6884 net.cpp:141] Setting up inception_4c/relu_pool_proj
I0403 18:23:22.470036  6884 net.cpp:148] Top shape: 24 64 14 14 (301056)
I0403 18:23:22.470052  6884 net.cpp:156] Memory required for data: 1063013664
I0403 18:23:22.470067  6884 layer_factory.hpp:77] Creating layer inception_4c/output
I0403 18:23:22.470088  6884 net.cpp:91] Creating Layer inception_4c/output
I0403 18:23:22.470105  6884 net.cpp:425] inception_4c/output <- inception_4c/1x1
I0403 18:23:22.470124  6884 net.cpp:425] inception_4c/output <- inception_4c/3x3
I0403 18:23:22.470140  6884 net.cpp:425] inception_4c/output <- inception_4c/5x5
I0403 18:23:22.470158  6884 net.cpp:425] inception_4c/output <- inception_4c/pool_proj
I0403 18:23:22.470177  6884 net.cpp:399] inception_4c/output -> inception_4c/output
I0403 18:23:22.470232  6884 net.cpp:141] Setting up inception_4c/output
I0403 18:23:22.470257  6884 net.cpp:148] Top shape: 24 512 14 14 (2408448)
I0403 18:23:22.470273  6884 net.cpp:156] Memory required for data: 1072647456
I0403 18:23:22.470288  6884 layer_factory.hpp:77] Creating layer inception_4c/output_inception_4c/output_0_split
I0403 18:23:22.470306  6884 net.cpp:91] Creating Layer inception_4c/output_inception_4c/output_0_split
I0403 18:23:22.470324  6884 net.cpp:425] inception_4c/output_inception_4c/output_0_split <- inception_4c/output
I0403 18:23:22.470343  6884 net.cpp:399] inception_4c/output_inception_4c/output_0_split -> inception_4c/output_inception_4c/output_0_split_0
I0403 18:23:22.470367  6884 net.cpp:399] inception_4c/output_inception_4c/output_0_split -> inception_4c/output_inception_4c/output_0_split_1
I0403 18:23:22.470388  6884 net.cpp:399] inception_4c/output_inception_4c/output_0_split -> inception_4c/output_inception_4c/output_0_split_2
I0403 18:23:22.470409  6884 net.cpp:399] inception_4c/output_inception_4c/output_0_split -> inception_4c/output_inception_4c/output_0_split_3
I0403 18:23:22.470504  6884 net.cpp:141] Setting up inception_4c/output_inception_4c/output_0_split
I0403 18:23:22.470528  6884 net.cpp:148] Top shape: 24 512 14 14 (2408448)
I0403 18:23:22.470546  6884 net.cpp:148] Top shape: 24 512 14 14 (2408448)
I0403 18:23:22.470562  6884 net.cpp:148] Top shape: 24 512 14 14 (2408448)
I0403 18:23:22.470579  6884 net.cpp:148] Top shape: 24 512 14 14 (2408448)
I0403 18:23:22.470593  6884 net.cpp:156] Memory required for data: 1111182624
I0403 18:23:22.470608  6884 layer_factory.hpp:77] Creating layer inception_4d/1x1
I0403 18:23:22.470633  6884 net.cpp:91] Creating Layer inception_4d/1x1
I0403 18:23:22.470650  6884 net.cpp:425] inception_4d/1x1 <- inception_4c/output_inception_4c/output_0_split_0
I0403 18:23:22.470674  6884 net.cpp:399] inception_4d/1x1 -> inception_4d/1x1
I0403 18:23:22.472172  6884 net.cpp:141] Setting up inception_4d/1x1
I0403 18:23:22.472203  6884 net.cpp:148] Top shape: 24 112 14 14 (526848)
I0403 18:23:22.472234  6884 net.cpp:156] Memory required for data: 1113290016
I0403 18:23:22.472254  6884 layer_factory.hpp:77] Creating layer inception_4d/relu_1x1
I0403 18:23:22.472271  6884 net.cpp:91] Creating Layer inception_4d/relu_1x1
I0403 18:23:22.472290  6884 net.cpp:425] inception_4d/relu_1x1 <- inception_4d/1x1
I0403 18:23:22.472309  6884 net.cpp:386] inception_4d/relu_1x1 -> inception_4d/1x1 (in-place)
I0403 18:23:22.472503  6884 net.cpp:141] Setting up inception_4d/relu_1x1
I0403 18:23:22.472529  6884 net.cpp:148] Top shape: 24 112 14 14 (526848)
I0403 18:23:22.472544  6884 net.cpp:156] Memory required for data: 1115397408
I0403 18:23:22.472560  6884 layer_factory.hpp:77] Creating layer inception_4d/3x3_reduce
I0403 18:23:22.472597  6884 net.cpp:91] Creating Layer inception_4d/3x3_reduce
I0403 18:23:22.472617  6884 net.cpp:425] inception_4d/3x3_reduce <- inception_4c/output_inception_4c/output_0_split_1
I0403 18:23:22.472640  6884 net.cpp:399] inception_4d/3x3_reduce -> inception_4d/3x3_reduce
I0403 18:23:22.474233  6884 net.cpp:141] Setting up inception_4d/3x3_reduce
I0403 18:23:22.474266  6884 net.cpp:148] Top shape: 24 144 14 14 (677376)
I0403 18:23:22.474283  6884 net.cpp:156] Memory required for data: 1118106912
I0403 18:23:22.474303  6884 layer_factory.hpp:77] Creating layer inception_4d/relu_3x3_reduce
I0403 18:23:22.474323  6884 net.cpp:91] Creating Layer inception_4d/relu_3x3_reduce
I0403 18:23:22.474340  6884 net.cpp:425] inception_4d/relu_3x3_reduce <- inception_4d/3x3_reduce
I0403 18:23:22.474359  6884 net.cpp:386] inception_4d/relu_3x3_reduce -> inception_4d/3x3_reduce (in-place)
I0403 18:23:22.474678  6884 net.cpp:141] Setting up inception_4d/relu_3x3_reduce
I0403 18:23:22.474707  6884 net.cpp:148] Top shape: 24 144 14 14 (677376)
I0403 18:23:22.474725  6884 net.cpp:156] Memory required for data: 1120816416
I0403 18:23:22.474740  6884 layer_factory.hpp:77] Creating layer inception_4d/3x3
I0403 18:23:22.474763  6884 net.cpp:91] Creating Layer inception_4d/3x3
I0403 18:23:22.474781  6884 net.cpp:425] inception_4d/3x3 <- inception_4d/3x3_reduce
I0403 18:23:22.474800  6884 net.cpp:399] inception_4d/3x3 -> inception_4d/3x3
I0403 18:23:22.479307  6884 net.cpp:141] Setting up inception_4d/3x3
I0403 18:23:22.479337  6884 net.cpp:148] Top shape: 24 288 14 14 (1354752)
I0403 18:23:22.479353  6884 net.cpp:156] Memory required for data: 1126235424
I0403 18:23:22.479373  6884 layer_factory.hpp:77] Creating layer inception_4d/relu_3x3
I0403 18:23:22.479393  6884 net.cpp:91] Creating Layer inception_4d/relu_3x3
I0403 18:23:22.479408  6884 net.cpp:425] inception_4d/relu_3x3 <- inception_4d/3x3
I0403 18:23:22.479429  6884 net.cpp:386] inception_4d/relu_3x3 -> inception_4d/3x3 (in-place)
I0403 18:23:22.479624  6884 net.cpp:141] Setting up inception_4d/relu_3x3
I0403 18:23:22.479650  6884 net.cpp:148] Top shape: 24 288 14 14 (1354752)
I0403 18:23:22.479665  6884 net.cpp:156] Memory required for data: 1131654432
I0403 18:23:22.479681  6884 layer_factory.hpp:77] Creating layer inception_4d/5x5_reduce
I0403 18:23:22.479703  6884 net.cpp:91] Creating Layer inception_4d/5x5_reduce
I0403 18:23:22.479722  6884 net.cpp:425] inception_4d/5x5_reduce <- inception_4c/output_inception_4c/output_0_split_2
I0403 18:23:22.479743  6884 net.cpp:399] inception_4d/5x5_reduce -> inception_4d/5x5_reduce
I0403 18:23:22.480938  6884 net.cpp:141] Setting up inception_4d/5x5_reduce
I0403 18:23:22.480967  6884 net.cpp:148] Top shape: 24 32 14 14 (150528)
I0403 18:23:22.480983  6884 net.cpp:156] Memory required for data: 1132256544
I0403 18:23:22.481003  6884 layer_factory.hpp:77] Creating layer inception_4d/relu_5x5_reduce
I0403 18:23:22.481020  6884 net.cpp:91] Creating Layer inception_4d/relu_5x5_reduce
I0403 18:23:22.481037  6884 net.cpp:425] inception_4d/relu_5x5_reduce <- inception_4d/5x5_reduce
I0403 18:23:22.481058  6884 net.cpp:386] inception_4d/relu_5x5_reduce -> inception_4d/5x5_reduce (in-place)
I0403 18:23:22.481261  6884 net.cpp:141] Setting up inception_4d/relu_5x5_reduce
I0403 18:23:22.481287  6884 net.cpp:148] Top shape: 24 32 14 14 (150528)
I0403 18:23:22.481302  6884 net.cpp:156] Memory required for data: 1132858656
I0403 18:23:22.481317  6884 layer_factory.hpp:77] Creating layer inception_4d/5x5
I0403 18:23:22.481338  6884 net.cpp:91] Creating Layer inception_4d/5x5
I0403 18:23:22.481356  6884 net.cpp:425] inception_4d/5x5 <- inception_4d/5x5_reduce
I0403 18:23:22.481379  6884 net.cpp:399] inception_4d/5x5 -> inception_4d/5x5
I0403 18:23:22.482908  6884 net.cpp:141] Setting up inception_4d/5x5
I0403 18:23:22.482936  6884 net.cpp:148] Top shape: 24 64 14 14 (301056)
I0403 18:23:22.482952  6884 net.cpp:156] Memory required for data: 1134062880
I0403 18:23:22.482972  6884 layer_factory.hpp:77] Creating layer inception_4d/relu_5x5
I0403 18:23:22.483009  6884 net.cpp:91] Creating Layer inception_4d/relu_5x5
I0403 18:23:22.483028  6884 net.cpp:425] inception_4d/relu_5x5 <- inception_4d/5x5
I0403 18:23:22.483047  6884 net.cpp:386] inception_4d/relu_5x5 -> inception_4d/5x5 (in-place)
I0403 18:23:22.483364  6884 net.cpp:141] Setting up inception_4d/relu_5x5
I0403 18:23:22.483392  6884 net.cpp:148] Top shape: 24 64 14 14 (301056)
I0403 18:23:22.483407  6884 net.cpp:156] Memory required for data: 1135267104
I0403 18:23:22.483423  6884 layer_factory.hpp:77] Creating layer inception_4d/pool
I0403 18:23:22.483444  6884 net.cpp:91] Creating Layer inception_4d/pool
I0403 18:23:22.483464  6884 net.cpp:425] inception_4d/pool <- inception_4c/output_inception_4c/output_0_split_3
I0403 18:23:22.483482  6884 net.cpp:399] inception_4d/pool -> inception_4d/pool
I0403 18:23:22.483554  6884 net.cpp:141] Setting up inception_4d/pool
I0403 18:23:22.483578  6884 net.cpp:148] Top shape: 24 512 14 14 (2408448)
I0403 18:23:22.483594  6884 net.cpp:156] Memory required for data: 1144900896
I0403 18:23:22.483609  6884 layer_factory.hpp:77] Creating layer inception_4d/pool_proj
I0403 18:23:22.483633  6884 net.cpp:91] Creating Layer inception_4d/pool_proj
I0403 18:23:22.483652  6884 net.cpp:425] inception_4d/pool_proj <- inception_4d/pool
I0403 18:23:22.483675  6884 net.cpp:399] inception_4d/pool_proj -> inception_4d/pool_proj
I0403 18:23:22.485519  6884 net.cpp:141] Setting up inception_4d/pool_proj
I0403 18:23:22.485549  6884 net.cpp:148] Top shape: 24 64 14 14 (301056)
I0403 18:23:22.485565  6884 net.cpp:156] Memory required for data: 1146105120
I0403 18:23:22.485585  6884 layer_factory.hpp:77] Creating layer inception_4d/relu_pool_proj
I0403 18:23:22.485605  6884 net.cpp:91] Creating Layer inception_4d/relu_pool_proj
I0403 18:23:22.485622  6884 net.cpp:425] inception_4d/relu_pool_proj <- inception_4d/pool_proj
I0403 18:23:22.485642  6884 net.cpp:386] inception_4d/relu_pool_proj -> inception_4d/pool_proj (in-place)
I0403 18:23:22.485839  6884 net.cpp:141] Setting up inception_4d/relu_pool_proj
I0403 18:23:22.485865  6884 net.cpp:148] Top shape: 24 64 14 14 (301056)
I0403 18:23:22.485882  6884 net.cpp:156] Memory required for data: 1147309344
I0403 18:23:22.485896  6884 layer_factory.hpp:77] Creating layer inception_4d/output
I0403 18:23:22.485918  6884 net.cpp:91] Creating Layer inception_4d/output
I0403 18:23:22.485935  6884 net.cpp:425] inception_4d/output <- inception_4d/1x1
I0403 18:23:22.485952  6884 net.cpp:425] inception_4d/output <- inception_4d/3x3
I0403 18:23:22.485970  6884 net.cpp:425] inception_4d/output <- inception_4d/5x5
I0403 18:23:22.485987  6884 net.cpp:425] inception_4d/output <- inception_4d/pool_proj
I0403 18:23:22.486006  6884 net.cpp:399] inception_4d/output -> inception_4d/output
I0403 18:23:22.486057  6884 net.cpp:141] Setting up inception_4d/output
I0403 18:23:22.486079  6884 net.cpp:148] Top shape: 24 528 14 14 (2483712)
I0403 18:23:22.486094  6884 net.cpp:156] Memory required for data: 1157244192
I0403 18:23:22.486110  6884 layer_factory.hpp:77] Creating layer inception_4d/output_inception_4d/output_0_split
I0403 18:23:22.486129  6884 net.cpp:91] Creating Layer inception_4d/output_inception_4d/output_0_split
I0403 18:23:22.486146  6884 net.cpp:425] inception_4d/output_inception_4d/output_0_split <- inception_4d/output
I0403 18:23:22.486166  6884 net.cpp:399] inception_4d/output_inception_4d/output_0_split -> inception_4d/output_inception_4d/output_0_split_0
I0403 18:23:22.486189  6884 net.cpp:399] inception_4d/output_inception_4d/output_0_split -> inception_4d/output_inception_4d/output_0_split_1
I0403 18:23:22.486214  6884 net.cpp:399] inception_4d/output_inception_4d/output_0_split -> inception_4d/output_inception_4d/output_0_split_2
I0403 18:23:22.486238  6884 net.cpp:399] inception_4d/output_inception_4d/output_0_split -> inception_4d/output_inception_4d/output_0_split_3
I0403 18:23:22.486259  6884 net.cpp:399] inception_4d/output_inception_4d/output_0_split -> inception_4d/output_inception_4d/output_0_split_4
I0403 18:23:22.486366  6884 net.cpp:141] Setting up inception_4d/output_inception_4d/output_0_split
I0403 18:23:22.486403  6884 net.cpp:148] Top shape: 24 528 14 14 (2483712)
I0403 18:23:22.486423  6884 net.cpp:148] Top shape: 24 528 14 14 (2483712)
I0403 18:23:22.486440  6884 net.cpp:148] Top shape: 24 528 14 14 (2483712)
I0403 18:23:22.486456  6884 net.cpp:148] Top shape: 24 528 14 14 (2483712)
I0403 18:23:22.486472  6884 net.cpp:148] Top shape: 24 528 14 14 (2483712)
I0403 18:23:22.486487  6884 net.cpp:156] Memory required for data: 1206918432
I0403 18:23:22.486502  6884 layer_factory.hpp:77] Creating layer loss2/ave_pool
I0403 18:23:22.486521  6884 net.cpp:91] Creating Layer loss2/ave_pool
I0403 18:23:22.486537  6884 net.cpp:425] loss2/ave_pool <- inception_4d/output_inception_4d/output_0_split_0
I0403 18:23:22.486559  6884 net.cpp:399] loss2/ave_pool -> loss2/ave_pool
I0403 18:23:22.486882  6884 net.cpp:141] Setting up loss2/ave_pool
I0403 18:23:22.486909  6884 net.cpp:148] Top shape: 24 528 4 4 (202752)
I0403 18:23:22.486925  6884 net.cpp:156] Memory required for data: 1207729440
I0403 18:23:22.486942  6884 layer_factory.hpp:77] Creating layer loss2/conv
I0403 18:23:22.486964  6884 net.cpp:91] Creating Layer loss2/conv
I0403 18:23:22.486984  6884 net.cpp:425] loss2/conv <- loss2/ave_pool
I0403 18:23:22.487006  6884 net.cpp:399] loss2/conv -> loss2/conv
I0403 18:23:22.489065  6884 net.cpp:141] Setting up loss2/conv
I0403 18:23:22.489096  6884 net.cpp:148] Top shape: 24 128 4 4 (49152)
I0403 18:23:22.489114  6884 net.cpp:156] Memory required for data: 1207926048
I0403 18:23:22.489133  6884 layer_factory.hpp:77] Creating layer loss2/relu_conv
I0403 18:23:22.489156  6884 net.cpp:91] Creating Layer loss2/relu_conv
I0403 18:23:22.489173  6884 net.cpp:425] loss2/relu_conv <- loss2/conv
I0403 18:23:22.489192  6884 net.cpp:386] loss2/relu_conv -> loss2/conv (in-place)
I0403 18:23:22.489505  6884 net.cpp:141] Setting up loss2/relu_conv
I0403 18:23:22.489532  6884 net.cpp:148] Top shape: 24 128 4 4 (49152)
I0403 18:23:22.489549  6884 net.cpp:156] Memory required for data: 1208122656
I0403 18:23:22.489567  6884 layer_factory.hpp:77] Creating layer loss2/fc
I0403 18:23:22.489589  6884 net.cpp:91] Creating Layer loss2/fc
I0403 18:23:22.489609  6884 net.cpp:425] loss2/fc <- loss2/conv
I0403 18:23:22.489631  6884 net.cpp:399] loss2/fc -> loss2/fc
I0403 18:23:22.508637  6884 net.cpp:141] Setting up loss2/fc
I0403 18:23:22.508682  6884 net.cpp:148] Top shape: 24 1024 (24576)
I0403 18:23:22.508697  6884 net.cpp:156] Memory required for data: 1208220960
I0403 18:23:22.508718  6884 layer_factory.hpp:77] Creating layer loss2/relu_fc
I0403 18:23:22.508739  6884 net.cpp:91] Creating Layer loss2/relu_fc
I0403 18:23:22.508756  6884 net.cpp:425] loss2/relu_fc <- loss2/fc
I0403 18:23:22.508780  6884 net.cpp:386] loss2/relu_fc -> loss2/fc (in-place)
I0403 18:23:22.509145  6884 net.cpp:141] Setting up loss2/relu_fc
I0403 18:23:22.509172  6884 net.cpp:148] Top shape: 24 1024 (24576)
I0403 18:23:22.509188  6884 net.cpp:156] Memory required for data: 1208319264
I0403 18:23:22.509204  6884 layer_factory.hpp:77] Creating layer loss2/drop_fc
I0403 18:23:22.509229  6884 net.cpp:91] Creating Layer loss2/drop_fc
I0403 18:23:22.509246  6884 net.cpp:425] loss2/drop_fc <- loss2/fc
I0403 18:23:22.509268  6884 net.cpp:386] loss2/drop_fc -> loss2/fc (in-place)
I0403 18:23:22.509320  6884 net.cpp:141] Setting up loss2/drop_fc
I0403 18:23:22.509346  6884 net.cpp:148] Top shape: 24 1024 (24576)
I0403 18:23:22.509362  6884 net.cpp:156] Memory required for data: 1208417568
I0403 18:23:22.509378  6884 layer_factory.hpp:77] Creating layer loss2/classifier_plantvillage
I0403 18:23:22.509399  6884 net.cpp:91] Creating Layer loss2/classifier_plantvillage
I0403 18:23:22.509415  6884 net.cpp:425] loss2/classifier_plantvillage <- loss2/fc
I0403 18:23:22.509438  6884 net.cpp:399] loss2/classifier_plantvillage -> loss2/classifier_plantvillage
I0403 18:23:22.509867  6884 net.cpp:141] Setting up loss2/classifier_plantvillage
I0403 18:23:22.509896  6884 net.cpp:148] Top shape: 24 38 (912)
I0403 18:23:22.509939  6884 net.cpp:156] Memory required for data: 1208421216
I0403 18:23:22.509960  6884 layer_factory.hpp:77] Creating layer loss2/classifier_plantvillage_loss2/classifier_plantvillage_0_split
I0403 18:23:22.509980  6884 net.cpp:91] Creating Layer loss2/classifier_plantvillage_loss2/classifier_plantvillage_0_split
I0403 18:23:22.509996  6884 net.cpp:425] loss2/classifier_plantvillage_loss2/classifier_plantvillage_0_split <- loss2/classifier_plantvillage
I0403 18:23:22.510015  6884 net.cpp:399] loss2/classifier_plantvillage_loss2/classifier_plantvillage_0_split -> loss2/classifier_plantvillage_loss2/classifier_plantvillage_0_split_0
I0403 18:23:22.510035  6884 net.cpp:399] loss2/classifier_plantvillage_loss2/classifier_plantvillage_0_split -> loss2/classifier_plantvillage_loss2/classifier_plantvillage_0_split_1
I0403 18:23:22.510058  6884 net.cpp:399] loss2/classifier_plantvillage_loss2/classifier_plantvillage_0_split -> loss2/classifier_plantvillage_loss2/classifier_plantvillage_0_split_2
I0403 18:23:22.510154  6884 net.cpp:141] Setting up loss2/classifier_plantvillage_loss2/classifier_plantvillage_0_split
I0403 18:23:22.510176  6884 net.cpp:148] Top shape: 24 38 (912)
I0403 18:23:22.510192  6884 net.cpp:148] Top shape: 24 38 (912)
I0403 18:23:22.510212  6884 net.cpp:148] Top shape: 24 38 (912)
I0403 18:23:22.510227  6884 net.cpp:156] Memory required for data: 1208432160
I0403 18:23:22.510242  6884 layer_factory.hpp:77] Creating layer inception_4e/1x1
I0403 18:23:22.510264  6884 net.cpp:91] Creating Layer inception_4e/1x1
I0403 18:23:22.510282  6884 net.cpp:425] inception_4e/1x1 <- inception_4d/output_inception_4d/output_0_split_1
I0403 18:23:22.510304  6884 net.cpp:399] inception_4e/1x1 -> inception_4e/1x1
I0403 18:23:22.512181  6884 net.cpp:141] Setting up inception_4e/1x1
I0403 18:23:22.512218  6884 net.cpp:148] Top shape: 24 256 14 14 (1204224)
I0403 18:23:22.512236  6884 net.cpp:156] Memory required for data: 1213249056
I0403 18:23:22.512256  6884 layer_factory.hpp:77] Creating layer inception_4e/relu_1x1
I0403 18:23:22.512276  6884 net.cpp:91] Creating Layer inception_4e/relu_1x1
I0403 18:23:22.512292  6884 net.cpp:425] inception_4e/relu_1x1 <- inception_4e/1x1
I0403 18:23:22.512310  6884 net.cpp:386] inception_4e/relu_1x1 -> inception_4e/1x1 (in-place)
I0403 18:23:22.512610  6884 net.cpp:141] Setting up inception_4e/relu_1x1
I0403 18:23:22.512636  6884 net.cpp:148] Top shape: 24 256 14 14 (1204224)
I0403 18:23:22.512651  6884 net.cpp:156] Memory required for data: 1218065952
I0403 18:23:22.512667  6884 layer_factory.hpp:77] Creating layer inception_4e/3x3_reduce
I0403 18:23:22.512691  6884 net.cpp:91] Creating Layer inception_4e/3x3_reduce
I0403 18:23:22.512709  6884 net.cpp:425] inception_4e/3x3_reduce <- inception_4d/output_inception_4d/output_0_split_2
I0403 18:23:22.512729  6884 net.cpp:399] inception_4e/3x3_reduce -> inception_4e/3x3_reduce
I0403 18:23:22.514910  6884 net.cpp:141] Setting up inception_4e/3x3_reduce
I0403 18:23:22.514940  6884 net.cpp:148] Top shape: 24 160 14 14 (752640)
I0403 18:23:22.514956  6884 net.cpp:156] Memory required for data: 1221076512
I0403 18:23:22.514976  6884 layer_factory.hpp:77] Creating layer inception_4e/relu_3x3_reduce
I0403 18:23:22.514997  6884 net.cpp:91] Creating Layer inception_4e/relu_3x3_reduce
I0403 18:23:22.515013  6884 net.cpp:425] inception_4e/relu_3x3_reduce <- inception_4e/3x3_reduce
I0403 18:23:22.515030  6884 net.cpp:386] inception_4e/relu_3x3_reduce -> inception_4e/3x3_reduce (in-place)
I0403 18:23:22.515229  6884 net.cpp:141] Setting up inception_4e/relu_3x3_reduce
I0403 18:23:22.515256  6884 net.cpp:148] Top shape: 24 160 14 14 (752640)
I0403 18:23:22.515274  6884 net.cpp:156] Memory required for data: 1224087072
I0403 18:23:22.515288  6884 layer_factory.hpp:77] Creating layer inception_4e/3x3
I0403 18:23:22.515311  6884 net.cpp:91] Creating Layer inception_4e/3x3
I0403 18:23:22.515328  6884 net.cpp:425] inception_4e/3x3 <- inception_4e/3x3_reduce
I0403 18:23:22.515347  6884 net.cpp:399] inception_4e/3x3 -> inception_4e/3x3
I0403 18:23:22.520452  6884 net.cpp:141] Setting up inception_4e/3x3
I0403 18:23:22.520495  6884 net.cpp:148] Top shape: 24 320 14 14 (1505280)
I0403 18:23:22.520512  6884 net.cpp:156] Memory required for data: 1230108192
I0403 18:23:22.520532  6884 layer_factory.hpp:77] Creating layer inception_4e/relu_3x3
I0403 18:23:22.520550  6884 net.cpp:91] Creating Layer inception_4e/relu_3x3
I0403 18:23:22.520565  6884 net.cpp:425] inception_4e/relu_3x3 <- inception_4e/3x3
I0403 18:23:22.520589  6884 net.cpp:386] inception_4e/relu_3x3 -> inception_4e/3x3 (in-place)
I0403 18:23:22.520894  6884 net.cpp:141] Setting up inception_4e/relu_3x3
I0403 18:23:22.520922  6884 net.cpp:148] Top shape: 24 320 14 14 (1505280)
I0403 18:23:22.520937  6884 net.cpp:156] Memory required for data: 1236129312
I0403 18:23:22.520952  6884 layer_factory.hpp:77] Creating layer inception_4e/5x5_reduce
I0403 18:23:22.520977  6884 net.cpp:91] Creating Layer inception_4e/5x5_reduce
I0403 18:23:22.520994  6884 net.cpp:425] inception_4e/5x5_reduce <- inception_4d/output_inception_4d/output_0_split_3
I0403 18:23:22.521015  6884 net.cpp:399] inception_4e/5x5_reduce -> inception_4e/5x5_reduce
I0403 18:23:22.522141  6884 net.cpp:141] Setting up inception_4e/5x5_reduce
I0403 18:23:22.522168  6884 net.cpp:148] Top shape: 24 32 14 14 (150528)
I0403 18:23:22.522184  6884 net.cpp:156] Memory required for data: 1236731424
I0403 18:23:22.522202  6884 layer_factory.hpp:77] Creating layer inception_4e/relu_5x5_reduce
I0403 18:23:22.522235  6884 net.cpp:91] Creating Layer inception_4e/relu_5x5_reduce
I0403 18:23:22.522254  6884 net.cpp:425] inception_4e/relu_5x5_reduce <- inception_4e/5x5_reduce
I0403 18:23:22.522274  6884 net.cpp:386] inception_4e/relu_5x5_reduce -> inception_4e/5x5_reduce (in-place)
I0403 18:23:22.522577  6884 net.cpp:141] Setting up inception_4e/relu_5x5_reduce
I0403 18:23:22.522603  6884 net.cpp:148] Top shape: 24 32 14 14 (150528)
I0403 18:23:22.522617  6884 net.cpp:156] Memory required for data: 1237333536
I0403 18:23:22.522634  6884 layer_factory.hpp:77] Creating layer inception_4e/5x5
I0403 18:23:22.522671  6884 net.cpp:91] Creating Layer inception_4e/5x5
I0403 18:23:22.522691  6884 net.cpp:425] inception_4e/5x5 <- inception_4e/5x5_reduce
I0403 18:23:22.522713  6884 net.cpp:399] inception_4e/5x5 -> inception_4e/5x5
I0403 18:23:22.524574  6884 net.cpp:141] Setting up inception_4e/5x5
I0403 18:23:22.524601  6884 net.cpp:148] Top shape: 24 128 14 14 (602112)
I0403 18:23:22.524616  6884 net.cpp:156] Memory required for data: 1239741984
I0403 18:23:22.524636  6884 layer_factory.hpp:77] Creating layer inception_4e/relu_5x5
I0403 18:23:22.524655  6884 net.cpp:91] Creating Layer inception_4e/relu_5x5
I0403 18:23:22.524670  6884 net.cpp:425] inception_4e/relu_5x5 <- inception_4e/5x5
I0403 18:23:22.524690  6884 net.cpp:386] inception_4e/relu_5x5 -> inception_4e/5x5 (in-place)
I0403 18:23:22.524896  6884 net.cpp:141] Setting up inception_4e/relu_5x5
I0403 18:23:22.524920  6884 net.cpp:148] Top shape: 24 128 14 14 (602112)
I0403 18:23:22.524935  6884 net.cpp:156] Memory required for data: 1242150432
I0403 18:23:22.524950  6884 layer_factory.hpp:77] Creating layer inception_4e/pool
I0403 18:23:22.524971  6884 net.cpp:91] Creating Layer inception_4e/pool
I0403 18:23:22.524987  6884 net.cpp:425] inception_4e/pool <- inception_4d/output_inception_4d/output_0_split_4
I0403 18:23:22.525005  6884 net.cpp:399] inception_4e/pool -> inception_4e/pool
I0403 18:23:22.525079  6884 net.cpp:141] Setting up inception_4e/pool
I0403 18:23:22.525102  6884 net.cpp:148] Top shape: 24 528 14 14 (2483712)
I0403 18:23:22.525117  6884 net.cpp:156] Memory required for data: 1252085280
I0403 18:23:22.525131  6884 layer_factory.hpp:77] Creating layer inception_4e/pool_proj
I0403 18:23:22.525153  6884 net.cpp:91] Creating Layer inception_4e/pool_proj
I0403 18:23:22.525171  6884 net.cpp:425] inception_4e/pool_proj <- inception_4e/pool
I0403 18:23:22.525192  6884 net.cpp:399] inception_4e/pool_proj -> inception_4e/pool_proj
I0403 18:23:22.526722  6884 net.cpp:141] Setting up inception_4e/pool_proj
I0403 18:23:22.526762  6884 net.cpp:148] Top shape: 24 128 14 14 (602112)
I0403 18:23:22.526779  6884 net.cpp:156] Memory required for data: 1254493728
I0403 18:23:22.526798  6884 layer_factory.hpp:77] Creating layer inception_4e/relu_pool_proj
I0403 18:23:22.526816  6884 net.cpp:91] Creating Layer inception_4e/relu_pool_proj
I0403 18:23:22.526832  6884 net.cpp:425] inception_4e/relu_pool_proj <- inception_4e/pool_proj
I0403 18:23:22.526852  6884 net.cpp:386] inception_4e/relu_pool_proj -> inception_4e/pool_proj (in-place)
I0403 18:23:22.527150  6884 net.cpp:141] Setting up inception_4e/relu_pool_proj
I0403 18:23:22.527176  6884 net.cpp:148] Top shape: 24 128 14 14 (602112)
I0403 18:23:22.527190  6884 net.cpp:156] Memory required for data: 1256902176
I0403 18:23:22.527206  6884 layer_factory.hpp:77] Creating layer inception_4e/output
I0403 18:23:22.527230  6884 net.cpp:91] Creating Layer inception_4e/output
I0403 18:23:22.527245  6884 net.cpp:425] inception_4e/output <- inception_4e/1x1
I0403 18:23:22.527263  6884 net.cpp:425] inception_4e/output <- inception_4e/3x3
I0403 18:23:22.527281  6884 net.cpp:425] inception_4e/output <- inception_4e/5x5
I0403 18:23:22.527297  6884 net.cpp:425] inception_4e/output <- inception_4e/pool_proj
I0403 18:23:22.527317  6884 net.cpp:399] inception_4e/output -> inception_4e/output
I0403 18:23:22.527366  6884 net.cpp:141] Setting up inception_4e/output
I0403 18:23:22.527391  6884 net.cpp:148] Top shape: 24 832 14 14 (3913728)
I0403 18:23:22.527406  6884 net.cpp:156] Memory required for data: 1272557088
I0403 18:23:22.527421  6884 layer_factory.hpp:77] Creating layer pool4/3x3_s2
I0403 18:23:22.527439  6884 net.cpp:91] Creating Layer pool4/3x3_s2
I0403 18:23:22.527456  6884 net.cpp:425] pool4/3x3_s2 <- inception_4e/output
I0403 18:23:22.527474  6884 net.cpp:399] pool4/3x3_s2 -> pool4/3x3_s2
I0403 18:23:22.527542  6884 net.cpp:141] Setting up pool4/3x3_s2
I0403 18:23:22.527566  6884 net.cpp:148] Top shape: 24 832 7 7 (978432)
I0403 18:23:22.527581  6884 net.cpp:156] Memory required for data: 1276470816
I0403 18:23:22.527595  6884 layer_factory.hpp:77] Creating layer pool4/3x3_s2_pool4/3x3_s2_0_split
I0403 18:23:22.527616  6884 net.cpp:91] Creating Layer pool4/3x3_s2_pool4/3x3_s2_0_split
I0403 18:23:22.527633  6884 net.cpp:425] pool4/3x3_s2_pool4/3x3_s2_0_split <- pool4/3x3_s2
I0403 18:23:22.527650  6884 net.cpp:399] pool4/3x3_s2_pool4/3x3_s2_0_split -> pool4/3x3_s2_pool4/3x3_s2_0_split_0
I0403 18:23:22.527670  6884 net.cpp:399] pool4/3x3_s2_pool4/3x3_s2_0_split -> pool4/3x3_s2_pool4/3x3_s2_0_split_1
I0403 18:23:22.527691  6884 net.cpp:399] pool4/3x3_s2_pool4/3x3_s2_0_split -> pool4/3x3_s2_pool4/3x3_s2_0_split_2
I0403 18:23:22.527714  6884 net.cpp:399] pool4/3x3_s2_pool4/3x3_s2_0_split -> pool4/3x3_s2_pool4/3x3_s2_0_split_3
I0403 18:23:22.527808  6884 net.cpp:141] Setting up pool4/3x3_s2_pool4/3x3_s2_0_split
I0403 18:23:22.527832  6884 net.cpp:148] Top shape: 24 832 7 7 (978432)
I0403 18:23:22.527848  6884 net.cpp:148] Top shape: 24 832 7 7 (978432)
I0403 18:23:22.527863  6884 net.cpp:148] Top shape: 24 832 7 7 (978432)
I0403 18:23:22.527879  6884 net.cpp:148] Top shape: 24 832 7 7 (978432)
I0403 18:23:22.527894  6884 net.cpp:156] Memory required for data: 1292125728
I0403 18:23:22.527909  6884 layer_factory.hpp:77] Creating layer inception_5a/1x1
I0403 18:23:22.527931  6884 net.cpp:91] Creating Layer inception_5a/1x1
I0403 18:23:22.527950  6884 net.cpp:425] inception_5a/1x1 <- pool4/3x3_s2_pool4/3x3_s2_0_split_0
I0403 18:23:22.527971  6884 net.cpp:399] inception_5a/1x1 -> inception_5a/1x1
I0403 18:23:22.530867  6884 net.cpp:141] Setting up inception_5a/1x1
I0403 18:23:22.530896  6884 net.cpp:148] Top shape: 24 256 7 7 (301056)
I0403 18:23:22.530912  6884 net.cpp:156] Memory required for data: 1293329952
I0403 18:23:22.530932  6884 layer_factory.hpp:77] Creating layer inception_5a/relu_1x1
I0403 18:23:22.530952  6884 net.cpp:91] Creating Layer inception_5a/relu_1x1
I0403 18:23:22.530968  6884 net.cpp:425] inception_5a/relu_1x1 <- inception_5a/1x1
I0403 18:23:22.530987  6884 net.cpp:386] inception_5a/relu_1x1 -> inception_5a/1x1 (in-place)
I0403 18:23:22.531308  6884 net.cpp:141] Setting up inception_5a/relu_1x1
I0403 18:23:22.531334  6884 net.cpp:148] Top shape: 24 256 7 7 (301056)
I0403 18:23:22.531350  6884 net.cpp:156] Memory required for data: 1294534176
I0403 18:23:22.531365  6884 layer_factory.hpp:77] Creating layer inception_5a/3x3_reduce
I0403 18:23:22.531388  6884 net.cpp:91] Creating Layer inception_5a/3x3_reduce
I0403 18:23:22.531405  6884 net.cpp:425] inception_5a/3x3_reduce <- pool4/3x3_s2_pool4/3x3_s2_0_split_1
I0403 18:23:22.531427  6884 net.cpp:399] inception_5a/3x3_reduce -> inception_5a/3x3_reduce
I0403 18:23:22.533975  6884 net.cpp:141] Setting up inception_5a/3x3_reduce
I0403 18:23:22.534004  6884 net.cpp:148] Top shape: 24 160 7 7 (188160)
I0403 18:23:22.534020  6884 net.cpp:156] Memory required for data: 1295286816
I0403 18:23:22.534039  6884 layer_factory.hpp:77] Creating layer inception_5a/relu_3x3_reduce
I0403 18:23:22.534056  6884 net.cpp:91] Creating Layer inception_5a/relu_3x3_reduce
I0403 18:23:22.534072  6884 net.cpp:425] inception_5a/relu_3x3_reduce <- inception_5a/3x3_reduce
I0403 18:23:22.534093  6884 net.cpp:386] inception_5a/relu_3x3_reduce -> inception_5a/3x3_reduce (in-place)
I0403 18:23:22.534291  6884 net.cpp:141] Setting up inception_5a/relu_3x3_reduce
I0403 18:23:22.534317  6884 net.cpp:148] Top shape: 24 160 7 7 (188160)
I0403 18:23:22.534332  6884 net.cpp:156] Memory required for data: 1296039456
I0403 18:23:22.534348  6884 layer_factory.hpp:77] Creating layer inception_5a/3x3
I0403 18:23:22.534369  6884 net.cpp:91] Creating Layer inception_5a/3x3
I0403 18:23:22.534389  6884 net.cpp:425] inception_5a/3x3 <- inception_5a/3x3_reduce
I0403 18:23:22.534410  6884 net.cpp:399] inception_5a/3x3 -> inception_5a/3x3
I0403 18:23:22.539502  6884 net.cpp:141] Setting up inception_5a/3x3
I0403 18:23:22.539531  6884 net.cpp:148] Top shape: 24 320 7 7 (376320)
I0403 18:23:22.539547  6884 net.cpp:156] Memory required for data: 1297544736
I0403 18:23:22.539566  6884 layer_factory.hpp:77] Creating layer inception_5a/relu_3x3
I0403 18:23:22.539587  6884 net.cpp:91] Creating Layer inception_5a/relu_3x3
I0403 18:23:22.539604  6884 net.cpp:425] inception_5a/relu_3x3 <- inception_5a/3x3
I0403 18:23:22.539621  6884 net.cpp:386] inception_5a/relu_3x3 -> inception_5a/3x3 (in-place)
I0403 18:23:22.539918  6884 net.cpp:141] Setting up inception_5a/relu_3x3
I0403 18:23:22.539945  6884 net.cpp:148] Top shape: 24 320 7 7 (376320)
I0403 18:23:22.539961  6884 net.cpp:156] Memory required for data: 1299050016
I0403 18:23:22.539976  6884 layer_factory.hpp:77] Creating layer inception_5a/5x5_reduce
I0403 18:23:22.539999  6884 net.cpp:91] Creating Layer inception_5a/5x5_reduce
I0403 18:23:22.540017  6884 net.cpp:425] inception_5a/5x5_reduce <- pool4/3x3_s2_pool4/3x3_s2_0_split_2
I0403 18:23:22.540040  6884 net.cpp:399] inception_5a/5x5_reduce -> inception_5a/5x5_reduce
I0403 18:23:22.541235  6884 net.cpp:141] Setting up inception_5a/5x5_reduce
I0403 18:23:22.541266  6884 net.cpp:148] Top shape: 24 32 7 7 (37632)
I0403 18:23:22.541283  6884 net.cpp:156] Memory required for data: 1299200544
I0403 18:23:22.541302  6884 layer_factory.hpp:77] Creating layer inception_5a/relu_5x5_reduce
I0403 18:23:22.541321  6884 net.cpp:91] Creating Layer inception_5a/relu_5x5_reduce
I0403 18:23:22.541337  6884 net.cpp:425] inception_5a/relu_5x5_reduce <- inception_5a/5x5_reduce
I0403 18:23:22.541353  6884 net.cpp:386] inception_5a/relu_5x5_reduce -> inception_5a/5x5_reduce (in-place)
I0403 18:23:22.541656  6884 net.cpp:141] Setting up inception_5a/relu_5x5_reduce
I0403 18:23:22.541682  6884 net.cpp:148] Top shape: 24 32 7 7 (37632)
I0403 18:23:22.541698  6884 net.cpp:156] Memory required for data: 1299351072
I0403 18:23:22.541714  6884 layer_factory.hpp:77] Creating layer inception_5a/5x5
I0403 18:23:22.541738  6884 net.cpp:91] Creating Layer inception_5a/5x5
I0403 18:23:22.541755  6884 net.cpp:425] inception_5a/5x5 <- inception_5a/5x5_reduce
I0403 18:23:22.541777  6884 net.cpp:399] inception_5a/5x5 -> inception_5a/5x5
I0403 18:23:22.543527  6884 net.cpp:141] Setting up inception_5a/5x5
I0403 18:23:22.543570  6884 net.cpp:148] Top shape: 24 128 7 7 (150528)
I0403 18:23:22.543586  6884 net.cpp:156] Memory required for data: 1299953184
I0403 18:23:22.543604  6884 layer_factory.hpp:77] Creating layer inception_5a/relu_5x5
I0403 18:23:22.543624  6884 net.cpp:91] Creating Layer inception_5a/relu_5x5
I0403 18:23:22.543642  6884 net.cpp:425] inception_5a/relu_5x5 <- inception_5a/5x5
I0403 18:23:22.543658  6884 net.cpp:386] inception_5a/relu_5x5 -> inception_5a/5x5 (in-place)
I0403 18:23:22.543851  6884 net.cpp:141] Setting up inception_5a/relu_5x5
I0403 18:23:22.543879  6884 net.cpp:148] Top shape: 24 128 7 7 (150528)
I0403 18:23:22.543895  6884 net.cpp:156] Memory required for data: 1300555296
I0403 18:23:22.543910  6884 layer_factory.hpp:77] Creating layer inception_5a/pool
I0403 18:23:22.543927  6884 net.cpp:91] Creating Layer inception_5a/pool
I0403 18:23:22.543943  6884 net.cpp:425] inception_5a/pool <- pool4/3x3_s2_pool4/3x3_s2_0_split_3
I0403 18:23:22.543962  6884 net.cpp:399] inception_5a/pool -> inception_5a/pool
I0403 18:23:22.544034  6884 net.cpp:141] Setting up inception_5a/pool
I0403 18:23:22.544059  6884 net.cpp:148] Top shape: 24 832 7 7 (978432)
I0403 18:23:22.544073  6884 net.cpp:156] Memory required for data: 1304469024
I0403 18:23:22.544087  6884 layer_factory.hpp:77] Creating layer inception_5a/pool_proj
I0403 18:23:22.544109  6884 net.cpp:91] Creating Layer inception_5a/pool_proj
I0403 18:23:22.544128  6884 net.cpp:425] inception_5a/pool_proj <- inception_5a/pool
I0403 18:23:22.544149  6884 net.cpp:399] inception_5a/pool_proj -> inception_5a/pool_proj
I0403 18:23:22.546476  6884 net.cpp:141] Setting up inception_5a/pool_proj
I0403 18:23:22.546505  6884 net.cpp:148] Top shape: 24 128 7 7 (150528)
I0403 18:23:22.546521  6884 net.cpp:156] Memory required for data: 1305071136
I0403 18:23:22.546540  6884 layer_factory.hpp:77] Creating layer inception_5a/relu_pool_proj
I0403 18:23:22.546561  6884 net.cpp:91] Creating Layer inception_5a/relu_pool_proj
I0403 18:23:22.546577  6884 net.cpp:425] inception_5a/relu_pool_proj <- inception_5a/pool_proj
I0403 18:23:22.546597  6884 net.cpp:386] inception_5a/relu_pool_proj -> inception_5a/pool_proj (in-place)
I0403 18:23:22.546896  6884 net.cpp:141] Setting up inception_5a/relu_pool_proj
I0403 18:23:22.546923  6884 net.cpp:148] Top shape: 24 128 7 7 (150528)
I0403 18:23:22.546937  6884 net.cpp:156] Memory required for data: 1305673248
I0403 18:23:22.546953  6884 layer_factory.hpp:77] Creating layer inception_5a/output
I0403 18:23:22.546970  6884 net.cpp:91] Creating Layer inception_5a/output
I0403 18:23:22.546986  6884 net.cpp:425] inception_5a/output <- inception_5a/1x1
I0403 18:23:22.547003  6884 net.cpp:425] inception_5a/output <- inception_5a/3x3
I0403 18:23:22.547019  6884 net.cpp:425] inception_5a/output <- inception_5a/5x5
I0403 18:23:22.547036  6884 net.cpp:425] inception_5a/output <- inception_5a/pool_proj
I0403 18:23:22.547056  6884 net.cpp:399] inception_5a/output -> inception_5a/output
I0403 18:23:22.547106  6884 net.cpp:141] Setting up inception_5a/output
I0403 18:23:22.547132  6884 net.cpp:148] Top shape: 24 832 7 7 (978432)
I0403 18:23:22.547147  6884 net.cpp:156] Memory required for data: 1309586976
I0403 18:23:22.547163  6884 layer_factory.hpp:77] Creating layer inception_5a/output_inception_5a/output_0_split
I0403 18:23:22.547179  6884 net.cpp:91] Creating Layer inception_5a/output_inception_5a/output_0_split
I0403 18:23:22.547196  6884 net.cpp:425] inception_5a/output_inception_5a/output_0_split <- inception_5a/output
I0403 18:23:22.547219  6884 net.cpp:399] inception_5a/output_inception_5a/output_0_split -> inception_5a/output_inception_5a/output_0_split_0
I0403 18:23:22.547245  6884 net.cpp:399] inception_5a/output_inception_5a/output_0_split -> inception_5a/output_inception_5a/output_0_split_1
I0403 18:23:22.547266  6884 net.cpp:399] inception_5a/output_inception_5a/output_0_split -> inception_5a/output_inception_5a/output_0_split_2
I0403 18:23:22.547287  6884 net.cpp:399] inception_5a/output_inception_5a/output_0_split -> inception_5a/output_inception_5a/output_0_split_3
I0403 18:23:22.547399  6884 net.cpp:141] Setting up inception_5a/output_inception_5a/output_0_split
I0403 18:23:22.547422  6884 net.cpp:148] Top shape: 24 832 7 7 (978432)
I0403 18:23:22.547438  6884 net.cpp:148] Top shape: 24 832 7 7 (978432)
I0403 18:23:22.547454  6884 net.cpp:148] Top shape: 24 832 7 7 (978432)
I0403 18:23:22.547469  6884 net.cpp:148] Top shape: 24 832 7 7 (978432)
I0403 18:23:22.547484  6884 net.cpp:156] Memory required for data: 1325241888
I0403 18:23:22.547502  6884 layer_factory.hpp:77] Creating layer inception_5b/1x1
I0403 18:23:22.547523  6884 net.cpp:91] Creating Layer inception_5b/1x1
I0403 18:23:22.547540  6884 net.cpp:425] inception_5b/1x1 <- inception_5a/output_inception_5a/output_0_split_0
I0403 18:23:22.547562  6884 net.cpp:399] inception_5b/1x1 -> inception_5b/1x1
I0403 18:23:22.551501  6884 net.cpp:141] Setting up inception_5b/1x1
I0403 18:23:22.551533  6884 net.cpp:148] Top shape: 24 384 7 7 (451584)
I0403 18:23:22.551549  6884 net.cpp:156] Memory required for data: 1327048224
I0403 18:23:22.551569  6884 layer_factory.hpp:77] Creating layer inception_5b/relu_1x1
I0403 18:23:22.551589  6884 net.cpp:91] Creating Layer inception_5b/relu_1x1
I0403 18:23:22.551606  6884 net.cpp:425] inception_5b/relu_1x1 <- inception_5b/1x1
I0403 18:23:22.551627  6884 net.cpp:386] inception_5b/relu_1x1 -> inception_5b/1x1 (in-place)
I0403 18:23:22.551946  6884 net.cpp:141] Setting up inception_5b/relu_1x1
I0403 18:23:22.551975  6884 net.cpp:148] Top shape: 24 384 7 7 (451584)
I0403 18:23:22.551991  6884 net.cpp:156] Memory required for data: 1328854560
I0403 18:23:22.552006  6884 layer_factory.hpp:77] Creating layer inception_5b/3x3_reduce
I0403 18:23:22.552031  6884 net.cpp:91] Creating Layer inception_5b/3x3_reduce
I0403 18:23:22.552048  6884 net.cpp:425] inception_5b/3x3_reduce <- inception_5a/output_inception_5a/output_0_split_1
I0403 18:23:22.552073  6884 net.cpp:399] inception_5b/3x3_reduce -> inception_5b/3x3_reduce
I0403 18:23:22.554965  6884 net.cpp:141] Setting up inception_5b/3x3_reduce
I0403 18:23:22.554996  6884 net.cpp:148] Top shape: 24 192 7 7 (225792)
I0403 18:23:22.555013  6884 net.cpp:156] Memory required for data: 1329757728
I0403 18:23:22.555033  6884 layer_factory.hpp:77] Creating layer inception_5b/relu_3x3_reduce
I0403 18:23:22.555053  6884 net.cpp:91] Creating Layer inception_5b/relu_3x3_reduce
I0403 18:23:22.555070  6884 net.cpp:425] inception_5b/relu_3x3_reduce <- inception_5b/3x3_reduce
I0403 18:23:22.555094  6884 net.cpp:386] inception_5b/relu_3x3_reduce -> inception_5b/3x3_reduce (in-place)
I0403 18:23:22.555306  6884 net.cpp:141] Setting up inception_5b/relu_3x3_reduce
I0403 18:23:22.555333  6884 net.cpp:148] Top shape: 24 192 7 7 (225792)
I0403 18:23:22.555349  6884 net.cpp:156] Memory required for data: 1330660896
I0403 18:23:22.555366  6884 layer_factory.hpp:77] Creating layer inception_5b/3x3
I0403 18:23:22.555388  6884 net.cpp:91] Creating Layer inception_5b/3x3
I0403 18:23:22.555408  6884 net.cpp:425] inception_5b/3x3 <- inception_5b/3x3_reduce
I0403 18:23:22.555433  6884 net.cpp:399] inception_5b/3x3 -> inception_5b/3x3
I0403 18:23:22.562670  6884 net.cpp:141] Setting up inception_5b/3x3
I0403 18:23:22.562705  6884 net.cpp:148] Top shape: 24 384 7 7 (451584)
I0403 18:23:22.562721  6884 net.cpp:156] Memory required for data: 1332467232
I0403 18:23:22.562741  6884 layer_factory.hpp:77] Creating layer inception_5b/relu_3x3
I0403 18:23:22.562763  6884 net.cpp:91] Creating Layer inception_5b/relu_3x3
I0403 18:23:22.562783  6884 net.cpp:425] inception_5b/relu_3x3 <- inception_5b/3x3
I0403 18:23:22.562801  6884 net.cpp:386] inception_5b/relu_3x3 -> inception_5b/3x3 (in-place)
I0403 18:23:22.563122  6884 net.cpp:141] Setting up inception_5b/relu_3x3
I0403 18:23:22.563149  6884 net.cpp:148] Top shape: 24 384 7 7 (451584)
I0403 18:23:22.563165  6884 net.cpp:156] Memory required for data: 1334273568
I0403 18:23:22.563181  6884 layer_factory.hpp:77] Creating layer inception_5b/5x5_reduce
I0403 18:23:22.563231  6884 net.cpp:91] Creating Layer inception_5b/5x5_reduce
I0403 18:23:22.563252  6884 net.cpp:425] inception_5b/5x5_reduce <- inception_5a/output_inception_5a/output_0_split_2
I0403 18:23:22.563277  6884 net.cpp:399] inception_5b/5x5_reduce -> inception_5b/5x5_reduce
I0403 18:23:22.564661  6884 net.cpp:141] Setting up inception_5b/5x5_reduce
I0403 18:23:22.564690  6884 net.cpp:148] Top shape: 24 48 7 7 (56448)
I0403 18:23:22.564707  6884 net.cpp:156] Memory required for data: 1334499360
I0403 18:23:22.564726  6884 layer_factory.hpp:77] Creating layer inception_5b/relu_5x5_reduce
I0403 18:23:22.564744  6884 net.cpp:91] Creating Layer inception_5b/relu_5x5_reduce
I0403 18:23:22.564762  6884 net.cpp:425] inception_5b/relu_5x5_reduce <- inception_5b/5x5_reduce
I0403 18:23:22.564784  6884 net.cpp:386] inception_5b/relu_5x5_reduce -> inception_5b/5x5_reduce (in-place)
I0403 18:23:22.565187  6884 net.cpp:141] Setting up inception_5b/relu_5x5_reduce
I0403 18:23:22.565222  6884 net.cpp:148] Top shape: 24 48 7 7 (56448)
I0403 18:23:22.565239  6884 net.cpp:156] Memory required for data: 1334725152
I0403 18:23:22.565255  6884 layer_factory.hpp:77] Creating layer inception_5b/5x5
I0403 18:23:22.565277  6884 net.cpp:91] Creating Layer inception_5b/5x5
I0403 18:23:22.565295  6884 net.cpp:425] inception_5b/5x5 <- inception_5b/5x5_reduce
I0403 18:23:22.565315  6884 net.cpp:399] inception_5b/5x5 -> inception_5b/5x5
I0403 18:23:22.567571  6884 net.cpp:141] Setting up inception_5b/5x5
I0403 18:23:22.567601  6884 net.cpp:148] Top shape: 24 128 7 7 (150528)
I0403 18:23:22.567617  6884 net.cpp:156] Memory required for data: 1335327264
I0403 18:23:22.567636  6884 layer_factory.hpp:77] Creating layer inception_5b/relu_5x5
I0403 18:23:22.567661  6884 net.cpp:91] Creating Layer inception_5b/relu_5x5
I0403 18:23:22.567679  6884 net.cpp:425] inception_5b/relu_5x5 <- inception_5b/5x5
I0403 18:23:22.567698  6884 net.cpp:386] inception_5b/relu_5x5 -> inception_5b/5x5 (in-place)
I0403 18:23:22.567903  6884 net.cpp:141] Setting up inception_5b/relu_5x5
I0403 18:23:22.567929  6884 net.cpp:148] Top shape: 24 128 7 7 (150528)
I0403 18:23:22.567945  6884 net.cpp:156] Memory required for data: 1335929376
I0403 18:23:22.567961  6884 layer_factory.hpp:77] Creating layer inception_5b/pool
I0403 18:23:22.567982  6884 net.cpp:91] Creating Layer inception_5b/pool
I0403 18:23:22.567999  6884 net.cpp:425] inception_5b/pool <- inception_5a/output_inception_5a/output_0_split_3
I0403 18:23:22.568017  6884 net.cpp:399] inception_5b/pool -> inception_5b/pool
I0403 18:23:22.568096  6884 net.cpp:141] Setting up inception_5b/pool
I0403 18:23:22.568120  6884 net.cpp:148] Top shape: 24 832 7 7 (978432)
I0403 18:23:22.568135  6884 net.cpp:156] Memory required for data: 1339843104
I0403 18:23:22.568150  6884 layer_factory.hpp:77] Creating layer inception_5b/pool_proj
I0403 18:23:22.568173  6884 net.cpp:91] Creating Layer inception_5b/pool_proj
I0403 18:23:22.568192  6884 net.cpp:425] inception_5b/pool_proj <- inception_5b/pool
I0403 18:23:22.568218  6884 net.cpp:399] inception_5b/pool_proj -> inception_5b/pool_proj
I0403 18:23:22.570641  6884 net.cpp:141] Setting up inception_5b/pool_proj
I0403 18:23:22.570670  6884 net.cpp:148] Top shape: 24 128 7 7 (150528)
I0403 18:23:22.570686  6884 net.cpp:156] Memory required for data: 1340445216
I0403 18:23:22.570706  6884 layer_factory.hpp:77] Creating layer inception_5b/relu_pool_proj
I0403 18:23:22.570724  6884 net.cpp:91] Creating Layer inception_5b/relu_pool_proj
I0403 18:23:22.570741  6884 net.cpp:425] inception_5b/relu_pool_proj <- inception_5b/pool_proj
I0403 18:23:22.570761  6884 net.cpp:386] inception_5b/relu_pool_proj -> inception_5b/pool_proj (in-place)
I0403 18:23:22.571075  6884 net.cpp:141] Setting up inception_5b/relu_pool_proj
I0403 18:23:22.571104  6884 net.cpp:148] Top shape: 24 128 7 7 (150528)
I0403 18:23:22.571118  6884 net.cpp:156] Memory required for data: 1341047328
I0403 18:23:22.571135  6884 layer_factory.hpp:77] Creating layer inception_5b/output
I0403 18:23:22.571152  6884 net.cpp:91] Creating Layer inception_5b/output
I0403 18:23:22.571184  6884 net.cpp:425] inception_5b/output <- inception_5b/1x1
I0403 18:23:22.571202  6884 net.cpp:425] inception_5b/output <- inception_5b/3x3
I0403 18:23:22.571224  6884 net.cpp:425] inception_5b/output <- inception_5b/5x5
I0403 18:23:22.571241  6884 net.cpp:425] inception_5b/output <- inception_5b/pool_proj
I0403 18:23:22.571261  6884 net.cpp:399] inception_5b/output -> inception_5b/output
I0403 18:23:22.571315  6884 net.cpp:141] Setting up inception_5b/output
I0403 18:23:22.571341  6884 net.cpp:148] Top shape: 24 1024 7 7 (1204224)
I0403 18:23:22.571357  6884 net.cpp:156] Memory required for data: 1345864224
I0403 18:23:22.571372  6884 layer_factory.hpp:77] Creating layer pool5/7x7_s1
I0403 18:23:22.571391  6884 net.cpp:91] Creating Layer pool5/7x7_s1
I0403 18:23:22.571408  6884 net.cpp:425] pool5/7x7_s1 <- inception_5b/output
I0403 18:23:22.571429  6884 net.cpp:399] pool5/7x7_s1 -> pool5/7x7_s1
I0403 18:23:22.571658  6884 net.cpp:141] Setting up pool5/7x7_s1
I0403 18:23:22.571683  6884 net.cpp:148] Top shape: 24 1024 1 1 (24576)
I0403 18:23:22.571698  6884 net.cpp:156] Memory required for data: 1345962528
I0403 18:23:22.571713  6884 layer_factory.hpp:77] Creating layer pool5/drop_7x7_s1
I0403 18:23:22.571732  6884 net.cpp:91] Creating Layer pool5/drop_7x7_s1
I0403 18:23:22.571748  6884 net.cpp:425] pool5/drop_7x7_s1 <- pool5/7x7_s1
I0403 18:23:22.571768  6884 net.cpp:386] pool5/drop_7x7_s1 -> pool5/7x7_s1 (in-place)
I0403 18:23:22.571823  6884 net.cpp:141] Setting up pool5/drop_7x7_s1
I0403 18:23:22.571847  6884 net.cpp:148] Top shape: 24 1024 1 1 (24576)
I0403 18:23:22.571861  6884 net.cpp:156] Memory required for data: 1346060832
I0403 18:23:22.571877  6884 layer_factory.hpp:77] Creating layer loss3/classifier_plantvillage
I0403 18:23:22.571897  6884 net.cpp:91] Creating Layer loss3/classifier_plantvillage
I0403 18:23:22.571913  6884 net.cpp:425] loss3/classifier_plantvillage <- pool5/7x7_s1
I0403 18:23:22.571934  6884 net.cpp:399] loss3/classifier_plantvillage -> loss3/classifier_plantvillage
I0403 18:23:22.572392  6884 net.cpp:141] Setting up loss3/classifier_plantvillage
I0403 18:23:22.572418  6884 net.cpp:148] Top shape: 24 38 (912)
I0403 18:23:22.572433  6884 net.cpp:156] Memory required for data: 1346064480
I0403 18:23:22.572453  6884 layer_factory.hpp:77] Creating layer loss3/classifier_plantvillage_loss3/classifier_plantvillage_0_split
I0403 18:23:22.572474  6884 net.cpp:91] Creating Layer loss3/classifier_plantvillage_loss3/classifier_plantvillage_0_split
I0403 18:23:22.572494  6884 net.cpp:425] loss3/classifier_plantvillage_loss3/classifier_plantvillage_0_split <- loss3/classifier_plantvillage
I0403 18:23:22.572515  6884 net.cpp:399] loss3/classifier_plantvillage_loss3/classifier_plantvillage_0_split -> loss3/classifier_plantvillage_loss3/classifier_plantvillage_0_split_0
I0403 18:23:22.572536  6884 net.cpp:399] loss3/classifier_plantvillage_loss3/classifier_plantvillage_0_split -> loss3/classifier_plantvillage_loss3/classifier_plantvillage_0_split_1
I0403 18:23:22.572557  6884 net.cpp:399] loss3/classifier_plantvillage_loss3/classifier_plantvillage_0_split -> loss3/classifier_plantvillage_loss3/classifier_plantvillage_0_split_2
I0403 18:23:22.572578  6884 net.cpp:399] loss3/classifier_plantvillage_loss3/classifier_plantvillage_0_split -> loss3/classifier_plantvillage_loss3/classifier_plantvillage_0_split_3
I0403 18:23:22.572682  6884 net.cpp:141] Setting up loss3/classifier_plantvillage_loss3/classifier_plantvillage_0_split
I0403 18:23:22.572706  6884 net.cpp:148] Top shape: 24 38 (912)
I0403 18:23:22.572723  6884 net.cpp:148] Top shape: 24 38 (912)
I0403 18:23:22.572739  6884 net.cpp:148] Top shape: 24 38 (912)
I0403 18:23:22.572756  6884 net.cpp:148] Top shape: 24 38 (912)
I0403 18:23:22.572770  6884 net.cpp:156] Memory required for data: 1346079072
I0403 18:23:22.572785  6884 layer_factory.hpp:77] Creating layer loss1/loss
I0403 18:23:22.572809  6884 net.cpp:91] Creating Layer loss1/loss
I0403 18:23:22.572826  6884 net.cpp:425] loss1/loss <- loss1/classifier_plantvillage_loss1/classifier_plantvillage_0_split_0
I0403 18:23:22.572860  6884 net.cpp:425] loss1/loss <- label_data_1_split_0
…
