…
I0403 17:55:13.400544  6288 net.cpp:313] The NetState phase (1) differed from the phase (0) specified by a rule in layer data
I0403 17:55:13.401759  6288 net.cpp:49] Initializing net from parameters: 
state {
  phase: TEST
}
layer {
  name: "data"
  type: "Data"
  top: "data"
  top: "label"
  include {
    phase: TEST
  }
  transform_param {
    mirror: false
    crop_size: 224
    mean_file: "/home/mohanty/data/final_dataset/lmdb/segmented-50-50/mean.binaryproto"
  }
  data_param {
    source: "/home/mohanty/data/final_dataset/lmdb/segmented-50-50/test_db"
    batch_size: 24
    backend: LMDB
  }
}
layer {
  name: "conv1/7x7_s2"
  type: "Convolution"
  bottom: "data"
  top: "conv1/7x7_s2"
  param {
    lr_mult: 1
    decay_mult: 1
  }
  param {
    lr_mult: 2
    decay_mult: 0
  }
  convolution_param {
    num_output: 64
    pad: 3
    kernel_size: 7
    stride: 2
    weight_filler {
      type: "xavier"
      std: 0.1
    }
    bias_filler {
      type: "constant"
      value: 0.2
    }
  }
}
layer {
  name: "conv1/relu_7x7"
  type: "ReLU"
  bottom: "conv1/7x7_s2"
  top: "conv1/7x7_s2"
}
layer {
  name: "pool1/3x3_s2"
  type: "Pooling"
  bottom: "conv1/7x7_s2"
  top: "pool1/3x3_s2"
  pooling_param {
    pool: MAX
    kernel_size: 3
    stride: 2
  }
}
layer {
  name: "pool1/norm1"
  type: "LRN"
  bottom: "pool1/3x3_s2"
  top: "pool1/norm1"
  lrn_param {
    local_size: 5
    alpha: 0.0001
    beta: 0.75
  }
}
layer {
  name: "conv2/3x3_reduce"
  type: "Convolution"
  bottom: "pool1/norm1"
  top: "conv2/3x3_reduce"
  param {
    lr_mult: 1
    decay_mult: 1
  }
  param {
    lr_mult: 2
    decay_mult: 0
  }
  convolution_param {
    num_output: 64
    kernel_size: 1
    weight_filler {
      type: "xavier"
      std: 0.1
    }
    bias_filler {
      type: "constant"
      value: 0.2
    }
  }
}
layer {
  name: "conv2/relu_3x3_reduce"
  type: "ReLU"
  bottom: "conv2/3x3_reduce"
  top: "conv2/3x3_reduce"
}
layer {
  name: "conv2/3x3"
  type: "Convolution"
  bottom: "conv2/3x3_reduce"
  top: "conv2/3x3"
  param {
    lr_mult: 1
    decay_mult: 1
  }
  param {
    lr_mult: 2
    decay_mult: 0
  }
  convolution_param {
    num_output: 192
    pad: 1
    kernel_size: 3
    weight_filler {
      type: "xavier"
      std: 0.03
    }
    bias_filler {
      type: "constant"
      value: 0.2
    }
  }
}
layer {
  name: "conv2/relu_3x3"
  type: "ReLU"
  bottom: "conv2/3x3"
  top: "conv2/3x3"
}
layer {
  name: "conv2/norm2"
  type: "LRN"
  bottom: "conv2/3x3"
  top: "conv2/norm2"
  lrn_param {
    local_size: 5
    alpha: 0.0001
    beta: 0.75
  }
}
layer {
  name: "pool2/3x3_s2"
  type: "Pooling"
  bottom: "conv2/norm2"
  top: "pool2/3x3_s2"
  pooling_param {
    pool: MAX
    kernel_size: 3
    stride: 2
  }
}
layer {
  name: "inception_3a/1x1"
  type: "Convolution"
  bottom: "pool2/3x3_s2"
  top: "inception_3a/1x1"
  param {
    lr_mult: 1
    decay_mult: 1
  }
  param {
    lr_mult: 2
    decay_mult: 0
  }
  convolution_param {
    num_output: 64
    kernel_size: 1
    weight_filler {
      type: "xavier"
      std: 0.03
    }
    bias_filler {
      type: "constant"
      value: 0.2
    }
  }
}
layer {
  name: "inception_3a/relu_1x1"
  type: "ReLU"
  bottom: "inception_3a/1x1"
  top: "inception_3a/1x1"
}
layer {
  name: "inception_3a/3x3_reduce"
  type: "Convolution"
  bottom: "pool2/3x3_s2"
  top: "inception_3a/3x3_reduce"
  param {
    lr_mult: 1
    decay_mult: 1
  }
  param {
    lr_mult: 2
    decay_mult: 0
  }
  convolution_param {
    num_output: 96
    kernel_size: 1
    weight_filler {
      type: "xavier"
      std: 0.09
    }
    bias_filler {
      type: "constant"
      value: 0.2
    }
  }
}
layer {
  name: "inception_3a/relu_3x3_reduce"
  type: "ReLU"
  bottom: "inception_3a/3x3_reduce"
  top: "inception_3a/3x3_reduce"
}
layer {
  name: "inception_3a/3x3"
  type: "Convolution"
  bottom: "inception_3a/3x3_reduce"
  top: "inception_3a/3x3"
  param {
    lr_mult: 1
    decay_mult: 1
  }
  param {
    lr_mult: 2
    decay_mult: 0
  }
  convolution_param {
    num_output: 128
    pad: 1
    kernel_size: 3
    weight_filler {
      type: "xavier"
      std: 0.03
    }
    bias_filler {
      type: "constant"
      value: 0.2
    }
  }
}
layer {
  name: "inception_3a/relu_3x3"
  type: "ReLU"
  bottom: "inception_3a/3x3"
  top: "inception_3a/3x3"
}
layer {
  name: "inception_3a/5x5_reduce"
  type: "Convolution"
  bottom: "pool2/3x3_s2"
  top: "inception_3a/5x5_reduce"
  param {
    lr_mult: 1
    decay_mult: 1
  }
  param {
    lr_mult: 2
    decay_mult: 0
  }
  convolution_param {
    num_output: 16
    kernel_size: 1
    weight_filler {
      type: "xavier"
      std: 0.2
    }
    bias_filler {
      type: "constant"
      value: 0.2
    }
  }
}
layer {
  name: "inception_3a/relu_5x5_reduce"
  type: "ReLU"
  bottom: "inception_3a/5x5_reduce"
  top: "inception_3a/5x5_reduce"
}
layer {
  name: "inception_3a/5x5"
  type: "Convolution"
  bottom: "inception_3a/5x5_reduce"
  top: "inception_3a/5x5"
  param {
    lr_mult: 1
    decay_mult: 1
  }
  param {
    lr_mult: 2
    decay_mult: 0
  }
  convolution_param {
    num_output: 32
    pad: 2
    kernel_size: 5
    weight_filler {
      type: "xavier"
      std: 0.03
    }
    bias_filler {
      type: "constant"
      value: 0.2
    }
  }
}
layer {
  name: "inception_3a/relu_5x5"
  type: "ReLU"
  bottom: "inception_3a/5x5"
  top: "inception_3a/5x5"
}
layer {
  name: "inception_3a/pool"
  type: "Pooling"
  bottom: "pool2/3x3_s2"
  top: "inception_3a/pool"
  pooling_param {
    pool: MAX
    kernel_size: 3
    stride: 1
    pad: 1
  }
}
layer {
  name: "inception_3a/pool_proj"
  type: "Convolution"
  bottom: "inception_3a/pool"
  top: "inception_3a/pool_proj"
  param {
    lr_mult: 1
    decay_mult: 1
  }
  param {
    lr_mult: 2
    decay_mult: 0
  }
  convolution_param {
    num_output: 32
    kernel_size: 1
    weight_filler {
      type: "xavier"
      std: 0.1
    }
    bias_filler {
      type: "constant"
      value: 0.2
    }
  }
}
layer {
  name: "inception_3a/relu_pool_proj"
  type: "ReLU"
  bottom: "inception_3a/pool_proj"
  top: "inception_3a/pool_proj"
}
layer {
  name: "inception_3a/output"
  type: "Concat"
  bottom: "inception_3a/1x1"
  bottom: "inception_3a/3x3"
  bottom: "inception_3a/5x5"
  bottom: "inception_3a/pool_proj"
  top: "inception_3a/output"
}
layer {
  name: "inception_3b/1x1"
  type: "Convolution"
  bottom: "inception_3a/output"
  top: "inception_3b/1x1"
  param {
    lr_mult: 1
    decay_mult: 1
  }
  param {
    lr_mult: 2
    decay_mult: 0
  }
  convolution_param {
    num_output: 128
    kernel_size: 1
    weight_filler {
      type: "xavier"
      std: 0.03
    }
    bias_filler {
      type: "constant"
      value: 0.2
    }
  }
}
layer {
  name: "inception_3b/relu_1x1"
  type: "ReLU"
  bottom: "inception_3b/1x1"
  top: "inception_3b/1x1"
}
layer {
  name: "inception_3b/3x3_reduce"
  type: "Convolution"
  bottom: "inception_3a/output"
  top: "inception_3b/3x3_reduce"
  param {
    lr_mult: 1
    decay_mult: 1
  }
  param {
    lr_mult: 2
    decay_mult: 0
  }
  convolution_param {
    num_output: 128
    kernel_size: 1
    weight_filler {
      type: "xavier"
      std: 0.09
    }
    bias_filler {
      type: "constant"
      value: 0.2
    }
  }
}
layer {
  name: "inception_3b/relu_3x3_reduce"
  type: "ReLU"
  bottom: "inception_3b/3x3_reduce"
  top: "inception_3b/3x3_reduce"
}
layer {
  name: "inception_3b/3x3"
  type: "Convolution"
  bottom: "inception_3b/3x3_reduce"
  top: "inception_3b/3x3"
  param {
    lr_mult: 1
    decay_mult: 1
  }
  param {
    lr_mult: 2
    decay_mult: 0
  }
  convolution_param {
    num_output: 192
    pad: 1
    kernel_size: 3
    weight_filler {
      type: "xavier"
      std: 0.03
    }
    bias_filler {
      type: "constant"
      value: 0.2
    }
  }
}
layer {
  name: "inception_3b/relu_3x3"
  type: "ReLU"
  bottom: "inception_3b/3x3"
  top: "inception_3b/3x3"
}
layer {
  name: "inception_3b/5x5_reduce"
  type: "Convolution"
  bottom: "inception_3a/output"
  top: "inception_3b/5x5_reduce"
  param {
    lr_mult: 1
    decay_mult: 1
  }
  param {
    lr_mult: 2
    decay_mult: 0
  }
  convolution_param {
    num_output: 32
    kernel_size: 1
    weight_filler {
      type: "xavier"
      std: 0.2
    }
    bias_filler {
      type: "constant"
      value: 0.2
    }
  }
}
layer {
  name: "inception_3b/relu_5x5_reduce"
  type: "ReLU"
  bottom: "inception_3b/5x5_reduce"
  top: "inception_3b/5x5_reduce"
}
layer {
  name: "inception_3b/5x5"
  type: "Convolution"
  bottom: "inception_3b/5x5_reduce"
  top: "inception_3b/5x5"
  param {
    lr_mult: 1
    decay_mult: 1
  }
  param {
    lr_mult: 2
    decay_mult: 0
  }
  convolution_param {
    num_output: 96
    pad: 2
    kernel_size: 5
    weight_filler {
      type: "xavier"
      std: 0.03
    }
    bias_filler {
      type: "constant"
      value: 0.2
    }
  }
}
layer {
  name: "inception_3b/relu_5x5"
  type: "ReLU"
  bottom: "inception_3b/5x5"
  top: "inception_3b/5x5"
}
layer {
  name: "inception_3b/pool"
  type: "Pooling"
  bottom: "inception_3a/output"
  top: "inception_3b/pool"
  pooling_param {
    pool: MAX
    kernel_size: 3
    stride: 1
    pad: 1
  }
}
layer {
  name: "inception_3b/pool_proj"
  type: "Convolution"
  bottom: "inception_3b/pool"
  top: "inception_3b/pool_proj"
  param {
    lr_mult: 1
    decay_mult: 1
  }
  param {
    lr_mult: 2
    decay_mult: 0
  }
  convolution_param {
    num_output: 64
    kernel_size: 1
    weight_filler {
      type: "xavier"
      std: 0.1
    }
    bias_filler {
      type: "constant"
      value: 0.2
    }
  }
}
layer {
  name: "inception_3b/relu_pool_proj"
  type: "ReLU"
  bottom: "inception_3b/pool_proj"
  top: "inception_3b/pool_proj"
}
layer {
  name: "inception_3b/output"
  type: "Concat"
  bottom: "inception_3b/1x1"
  bottom: "inception_3b/3x3"
  bottom: "inception_3b/5x5"
  bottom: "inception_3b/pool_proj"
  top: "inception_3b/output"
}
layer {
  name: "pool3/3x3_s2"
  type: "Pooling"
  bottom: "inception_3b/output"
  top: "pool3/3x3_s2"
  pooling_param {
    pool: MAX
    kernel_size: 3
    stride: 2
  }
}
layer {
  name: "inception_4a/1x1"
  type: "Convolution"
  bottom: "pool3/3x3_s2"
  top: "inception_4a/1x1"
  param {
    lr_mult: 1
    decay_mult: 1
  }
  param {
    lr_mult: 2
    decay_mult: 0
  }
  convolution_param {
    num_output: 192
    kernel_size: 1
    weight_filler {
      type: "xavier"
      std: 0.03
    }
    bias_filler {
      type: "constant"
      value: 0.2
    }
  }
}
layer {
  name: "inception_4a/relu_1x1"
  type: "ReLU"
  bottom: "inception_4a/1x1"
  top: "inception_4a/1x1"
}
layer {
  name: "inception_4a/3x3_reduce"
  type: "Convolution"
  bottom: "pool3/3x3_s2"
  top: "inception_4a/3x3_reduce"
  param {
    lr_mult: 1
    decay_mult: 1
  }
  param {
    lr_mult: 2
    decay_mult: 0
  }
  convolution_param {
    num_output: 96
    kernel_size: 1
    weight_filler {
      type: "xavier"
      std: 0.09
    }
    bias_filler {
      type: "constant"
      value: 0.2
    }
  }
}
layer {
  name: "inception_4a/relu_3x3_reduce"
  type: "ReLU"
  bottom: "inception_4a/3x3_reduce"
  top: "inception_4a/3x3_reduce"
}
layer {
  name: "inception_4a/3x3"
  type: "Convolution"
  bottom: "inception_4a/3x3_reduce"
  top: "inception_4a/3x3"
  param {
    lr_mult: 1
    decay_mult: 1
  }
  param {
    lr_mult: 2
    decay_mult: 0
  }
  convolution_param {
    num_output: 208
    pad: 1
    kernel_size: 3
    weight_filler {
      type: "xavier"
      std: 0.03
    }
    bias_filler {
      type: "constant"
      value: 0.2
    }
  }
}
layer {
  name: "inception_4a/relu_3x3"
  type: "ReLU"
  bottom: "inception_4a/3x3"
  top: "inception_4a/3x3"
}
layer {
  name: "inception_4a/5x5_reduce"
  type: "Convolution"
  bottom: "pool3/3x3_s2"
  top: "inception_4a/5x5_reduce"
  param {
    lr_mult: 1
    decay_mult: 1
  }
  param {
    lr_mult: 2
    decay_mult: 0
  }
  convolution_param {
    num_output: 16
    kernel_size: 1
    weight_filler {
      type: "xavier"
      std: 0.2
    }
    bias_filler {
      type: "constant"
      value: 0.2
    }
  }
}
layer {
  name: "inception_4a/relu_5x5_reduce"
  type: "ReLU"
  bottom: "inception_4a/5x5_reduce"
  top: "inception_4a/5x5_reduce"
}
layer {
  name: "inception_4a/5x5"
  type: "Convolution"
  bottom: "inception_4a/5x5_reduce"
  top: "inception_4a/5x5"
  param {
    lr_mult: 1
    decay_mult: 1
  }
  param {
    lr_mult: 2
    decay_mult: 0
  }
  convolution_param {
    num_output: 48
    pad: 2
    kernel_size: 5
    weight_filler {
      type: "xavier"
      std: 0.03
    }
    bias_filler {
      type: "constant"
      value: 0.2
    }
  }
}
layer {
  name: "inception_4a/relu_5x5"
  type: "ReLU"
  bottom: "inception_4a/5x5"
  top: "inception_4a/5x5"
}
layer {
  name: "inception_4a/pool"
  type: "Pooling"
  bottom: "pool3/3x3_s2"
  top: "inception_4a/pool"
  pooling_param {
    pool: MAX
    kernel_size: 3
    stride: 1
    pad: 1
  }
}
layer {
  name: "inception_4a/pool_proj"
  type: "Convolution"
  bottom: "inception_4a/pool"
  top: "inception_4a/pool_proj"
  param {
    lr_mult: 1
    decay_mult: 1
  }
  param {
    lr_mult: 2
    decay_mult: 0
  }
  convolution_param {
    num_output: 64
    kernel_size: 1
    weight_filler {
      type: "xavier"
      std: 0.1
    }
    bias_filler {
      type: "constant"
      value: 0.2
    }
  }
}
layer {
  name: "inception_4a/relu_pool_proj"
  type: "ReLU"
  bottom: "inception_4a/pool_proj"
  top: "inception_4a/pool_proj"
}
layer {
  name: "inception_4a/output"
  type: "Concat"
  bottom: "inception_4a/1x1"
  bottom: "inception_4a/3x3"
  bottom: "inception_4a/5x5"
  bottom: "inception_4a/pool_proj"
  top: "inception_4a/output"
}
layer {
  name: "loss1/ave_pool"
  type: "Pooling"
  bottom: "inception_4a/output"
  top: "loss1/ave_pool"
  pooling_param {
    pool: AVE
    kernel_size: 5
    stride: 3
  }
}
layer {
  name: "loss1/conv"
  type: "Convolution"
  bottom: "loss1/ave_pool"
  top: "loss1/conv"
  param {
    lr_mult: 1
    decay_mult: 1
  }
  param {
    lr_mult: 2
    decay_mult: 0
  }
  convolution_param {
    num_output: 128
    kernel_size: 1
    weight_filler {
      type: "xavier"
      std: 0.08
    }
    bias_filler {
      type: "constant"
      value: 0.2
    }
  }
}
layer {
  name: "loss1/relu_conv"
  type: "ReLU"
  bottom: "loss1/conv"
  top: "loss1/conv"
}
layer {
  name: "loss1/fc"
  type: "InnerProduct"
  bottom: "loss1/conv"
  top: "loss1/fc"
  param {
    lr_mult: 1
    decay_mult: 1
  }
  param {
    lr_mult: 2
    decay_mult: 0
  }
  inner_product_param {
    num_output: 1024
    weight_filler {
      type: "xavier"
      std: 0.02
    }
    bias_filler {
      type: "constant"
      value: 0.2
    }
  }
}
layer {
  name: "loss1/relu_fc"
  type: "ReLU"
  bottom: "loss1/fc"
  top: "loss1/fc"
}
layer {
  name: "loss1/drop_fc"
  type: "Dropout"
  bottom: "loss1/fc"
  top: "loss1/fc"
  dropout_param {
    dropout_ratio: 0.7
  }
}
layer {
  name: "loss1/classifier_plantvillage"
  type: "InnerProduct"
  bottom: "loss1/fc"
  top: "loss1/classifier_plantvillage"
  param {
    lr_mult: 1
    decay_mult: 1
  }
  param {
    lr_mult: 2
    decay_mult: 0
  }
  inner_product_param {
    num_output: 38
    weight_filler {
      type: "xavier"
      std: 0.0009765625
    }
    bias_filler {
      type: "constant"
      value: 0
    }
  }
}
layer {
  name: "inception_4b/1x1"
  type: "Convolution"
  bottom: "inception_4a/output"
  top: "inception_4b/1x1"
  param {
    lr_mult: 1
    decay_mult: 1
  }
  param {
    lr_mult: 2
    decay_mult: 0
  }
  convolution_param {
    num_output: 160
    kernel_size: 1
    weight_filler {
      type: "xavier"
      std: 0.03
    }
    bias_filler {
      type: "constant"
      value: 0.2
    }
  }
}
layer {
  name: "inception_4b/relu_1x1"
  type: "ReLU"
  bottom: "inception_4b/1x1"
  top: "inception_4b/1x1"
}
layer {
  name: "inception_4b/3x3_reduce"
  type: "Convolution"
  bottom: "inception_4a/output"
  top: "inception_4b/3x3_reduce"
  param {
    lr_mult: 1
    decay_mult: 1
  }
  param {
    lr_mult: 2
    decay_mult: 0
  }
  convolution_param {
    num_output: 112
    kernel_size: 1
    weight_filler {
      type: "xavier"
      std: 0.09
    }
    bias_filler {
      type: "constant"
      value: 0.2
    }
  }
}
layer {
  name: "inception_4b/relu_3x3_reduce"
  type: "ReLU"
  bottom: "inception_4b/3x3_reduce"
  top: "inception_4b/3x3_reduce"
}
layer {
  name: "inception_4b/3x3"
  type: "Convolution"
  bottom: "inception_4b/3x3_reduce"
  top: "inception_4b/3x3"
  param {
    lr_mult: 1
    decay_mult: 1
  }
  param {
    lr_mult: 2
    decay_mult: 0
  }
  convolution_param {
    num_output: 224
    pad: 1
    kernel_size: 3
    weight_filler {
      type: "xavier"
      std: 0.03
    }
    bias_filler {
      type: "constant"
      value: 0.2
    }
  }
}
layer {
  name: "inception_4b/relu_3x3"
  type: "ReLU"
  bottom: "inception_4b/3x3"
  top: "inception_4b/3x3"
}
layer {
  name: "inception_4b/5x5_reduce"
  type: "Convolution"
  bottom: "inception_4a/output"
  top: "inception_4b/5x5_reduce"
  param {
    lr_mult: 1
    decay_mult: 1
  }
  param {
    lr_mult: 2
    decay_mult: 0
  }
  convolution_param {
    num_output: 24
    kernel_size: 1
    weight_filler {
      type: "xavier"
      std: 0.2
    }
    bias_filler {
      type: "constant"
      value: 0.2
    }
  }
}
layer {
  name: "inception_4b/relu_5x5_reduce"
  type: "ReLU"
  bottom: "inception_4b/5x5_reduce"
  top: "inception_4b/5x5_reduce"
}
layer {
  name: "inception_4b/5x5"
  type: "Convolution"
  bottom: "inception_4b/5x5_reduce"
  top: "inception_4b/5x5"
  param {
    lr_mult: 1
    decay_mult: 1
  }
  param {
    lr_mult: 2
    decay_mult: 0
  }
  convolution_param {
    num_output: 64
    pad: 2
    kernel_size: 5
    weight_filler {
      type: "xavier"
      std: 0.03
    }
    bias_filler {
      type: "constant"
      value: 0.2
    }
  }
}
layer {
  name: "inception_4b/relu_5x5"
  type: "ReLU"
  bottom: "inception_4b/5x5"
  top: "inception_4b/5x5"
}
layer {
  name: "inception_4b/pool"
  type: "Pooling"
  bottom: "inception_4a/output"
  top: "inception_4b/pool"
  pooling_param {
    pool: MAX
    kernel_size: 3
    stride: 1
    pad: 1
  }
}
layer {
  name: "inception_4b/pool_proj"
  type: "Convolution"
  bottom: "inception_4b/pool"
  top: "inception_4b/pool_proj"
  param {
    lr_mult: 1
    decay_mult: 1
  }
  param {
    lr_mult: 2
    decay_mult: 0
  }
  convolution_param {
    num_output: 64
    kernel_size: 1
    weight_filler {
      type: "xavier"
      std: 0.1
    }
    bias_filler {
      type: "constant"
      value: 0.2
    }
  }
}
layer {
  name: "inception_4b/relu_pool_proj"
  type: "ReLU"
  bottom: "inception_4b/pool_proj"
  top: "inception_4b/pool_proj"
}
layer {
  name: "inception_4b/output"
  type: "Concat"
  bottom: "inception_4b/1x1"
  bottom: "inception_4b/3x3"
  bottom: "inception_4b/5x5"
  bottom: "inception_4b/pool_proj"
  top: "inception_4b/output"
}
layer {
  name: "inception_4c/1x1"
  type: "Convolution"
  bottom: "inception_4b/output"
  top: "inception_4c/1x1"
  param {
    lr_mult: 1
    decay_mult: 1
  }
  param {
    lr_mult: 2
    decay_mult: 0
  }
  convolution_param {
    num_output: 128
    kernel_size: 1
    weight_filler {
      type: "xavier"
      std: 0.03
    }
    bias_filler {
      type: "constant"
      value: 0.2
    }
  }
}
layer {
  name: "inception_4c/relu_1x1"
  type: "ReLU"
  bottom: "inception_4c/1x1"
  top: "inception_4c/1x1"
}
layer {
  name: "inception_4c/3x3_reduce"
  type: "Convolution"
  bottom: "inception_4b/output"
  top: "inception_4c/3x3_reduce"
  param {
    lr_mult: 1
    decay_mult: 1
  }
  param {
    lr_mult: 2
    decay_mult: 0
  }
  convolution_param {
    num_output: 128
    kernel_size: 1
    weight_filler {
      type: "xavier"
      std: 0.09
    }
    bias_filler {
      type: "constant"
      value: 0.2
    }
  }
}
layer {
  name: "inception_4c/relu_3x3_reduce"
  type: "ReLU"
  bottom: "inception_4c/3x3_reduce"
  top: "inception_4c/3x3_reduce"
}
layer {
  name: "inception_4c/3x3"
  type: "Convolution"
  bottom: "inception_4c/3x3_reduce"
  top: "inception_4c/3x3"
  param {
    lr_mult: 1
    decay_mult: 1
  }
  param {
    lr_mult: 2
    decay_mult: 0
  }
  convolution_param {
    num_output: 256
    pad: 1
    kernel_size: 3
    weight_filler {
      type: "xavier"
      std: 0.03
    }
    bias_filler {
      type: "constant"
      value: 0.2
    }
  }
}
layer {
  name: "inception_4c/relu_3x3"
  type: "ReLU"
  bottom: "inception_4c/3x3"
  top: "inception_4c/3x3"
}
layer {
  name: "inception_4c/5x5_reduce"
  type: "Convolution"
  bottom: "inception_4b/output"
  top: "inception_4c/5x5_reduce"
  param {
    lr_mult: 1
    decay_mult: 1
  }
  param {
    lr_mult: 2
    decay_mult: 0
  }
  convolution_param {
    num_output: 24
    kernel_size: 1
    weight_filler {
      type: "xavier"
      std: 0.2
    }
    bias_filler {
      type: "constant"
      value: 0.2
    }
  }
}
layer {
  name: "inception_4c/relu_5x5_reduce"
  type: "ReLU"
  bottom: "inception_4c/5x5_reduce"
  top: "inception_4c/5x5_reduce"
}
layer {
  name: "inception_4c/5x5"
  type: "Convolution"
  bottom: "inception_4c/5x5_reduce"
  top: "inception_4c/5x5"
  param {
    lr_mult: 1
    decay_mult: 1
  }
  param {
    lr_mult: 2
    decay_mult: 0
  }
  convolution_param {
    num_output: 64
    pad: 2
    kernel_size: 5
    weight_filler {
      type: "xavier"
      std: 0.03
    }
    bias_filler {
      type: "constant"
      value: 0.2
    }
  }
}
layer {
  name: "inception_4c/relu_5x5"
  type: "ReLU"
  bottom: "inception_4c/5x5"
  top: "inception_4c/5x5"
}
layer {
  name: "inception_4c/pool"
  type: "Pooling"
  bottom: "inception_4b/output"
  top: "inception_4c/pool"
  pooling_param {
    pool: MAX
    kernel_size: 3
    stride: 1
    pad: 1
  }
}
layer {
  name: "inception_4c/pool_proj"
  type: "Convolution"
  bottom: "inception_4c/pool"
  top: "inception_4c/pool_proj"
  param {
    lr_mult: 1
    decay_mult: 1
  }
  param {
    lr_mult: 2
    decay_mult: 0
  }
  convolution_param {
    num_output: 64
    kernel_size: 1
    weight_filler {
      type: "xavier"
      std: 0.1
    }
    bias_filler {
      type: "constant"
      value: 0.2
    }
  }
}
layer {
  name: "inception_4c/relu_pool_proj"
  type: "ReLU"
  bottom: "inception_4c/pool_proj"
  top: "inception_4c/pool_proj"
}
layer {
  name: "inception_4c/output"
  type: "Concat"
  bottom: "inception_4c/1x1"
  bottom: "inception_4c/3x3"
  bottom: "inception_4c/5x5"
  bottom: "inception_4c/pool_proj"
  top: "inception_4c/output"
}
layer {
  name: "inception_4d/1x1"
  type: "Convolution"
  bottom: "inception_4c/output"
  top: "inception_4d/1x1"
  param {
    lr_mult: 1
    decay_mult: 1
  }
  param {
    lr_mult: 2
    decay_mult: 0
  }
  convolution_param {
    num_output: 112
    kernel_size: 1
    weight_filler {
      type: "xavier"
      std: 0.03
    }
    bias_filler {
      type: "constant"
      value: 0.2
    }
  }
}
layer {
  name: "inception_4d/relu_1x1"
  type: "ReLU"
  bottom: "inception_4d/1x1"
  top: "inception_4d/1x1"
}
layer {
  name: "inception_4d/3x3_reduce"
  type: "Convolution"
  bottom: "inception_4c/output"
  top: "inception_4d/3x3_reduce"
  param {
    lr_mult: 1
    decay_mult: 1
  }
  param {
    lr_mult: 2
    decay_mult: 0
  }
  convolution_param {
    num_output: 144
    kernel_size: 1
    weight_filler {
      type: "xavier"
      std: 0.09
    }
    bias_filler {
      type: "constant"
      value: 0.2
    }
  }
}
layer {
  name: "inception_4d/relu_3x3_reduce"
  type: "ReLU"
  bottom: "inception_4d/3x3_reduce"
  top: "inception_4d/3x3_reduce"
}
layer {
  name: "inception_4d/3x3"
  type: "Convolution"
  bottom: "inception_4d/3x3_reduce"
  top: "inception_4d/3x3"
  param {
    lr_mult: 1
    decay_mult: 1
  }
  param {
    lr_mult: 2
    decay_mult: 0
  }
  convolution_param {
    num_output: 288
    pad: 1
    kernel_size: 3
    weight_filler {
      type: "xavier"
      std: 0.03
    }
    bias_filler {
      type: "constant"
      value: 0.2
    }
  }
}
layer {
  name: "inception_4d/relu_3x3"
  type: "ReLU"
  bottom: "inception_4d/3x3"
  top: "inception_4d/3x3"
}
layer {
  name: "inception_4d/5x5_reduce"
  type: "Convolution"
  bottom: "inception_4c/output"
  top: "inception_4d/5x5_reduce"
  param {
    lr_mult: 1
    decay_mult: 1
  }
  param {
    lr_mult: 2
    decay_mult: 0
  }
  convolution_param {
    num_output: 32
    kernel_size: 1
    weight_filler {
      type: "xavier"
      std: 0.2
    }
    bias_filler {
      type: "constant"
      value: 0.2
    }
  }
}
layer {
  name: "inception_4d/relu_5x5_reduce"
  type: "ReLU"
  bottom: "inception_4d/5x5_reduce"
  top: "inception_4d/5x5_reduce"
}
layer {
  name: "inception_4d/5x5"
  type: "Convolution"
  bottom: "inception_4d/5x5_reduce"
  top: "inception_4d/5x5"
  param {
    lr_mult: 1
    decay_mult: 1
  }
  param {
    lr_mult: 2
    decay_mult: 0
  }
  convolution_param {
    num_output: 64
    pad: 2
    kernel_size: 5
    weight_filler {
      type: "xavier"
      std: 0.03
    }
    bias_filler {
      type: "constant"
      value: 0.2
    }
  }
}
layer {
  name: "inception_4d/relu_5x5"
  type: "ReLU"
  bottom: "inception_4d/5x5"
  top: "inception_4d/5x5"
}
layer {
  name: "inception_4d/pool"
  type: "Pooling"
  bottom: "inception_4c/output"
  top: "inception_4d/pool"
  pooling_param {
    pool: MAX
    kernel_size: 3
    stride: 1
    pad: 1
  }
}
layer {
  name: "inception_4d/pool_proj"
  type: "Convolution"
  bottom: "inception_4d/pool"
  top: "inception_4d/pool_proj"
  param {
    lr_mult: 1
    decay_mult: 1
  }
  param {
    lr_mult: 2
    decay_mult: 0
  }
  convolution_param {
    num_output: 64
    kernel_size: 1
    weight_filler {
      type: "xavier"
      std: 0.1
    }
    bias_filler {
      type: "constant"
      value: 0.2
    }
  }
}
layer {
  name: "inception_4d/relu_pool_proj"
  type: "ReLU"
  bottom: "inception_4d/pool_proj"
  top: "inception_4d/pool_proj"
}
layer {
  name: "inception_4d/output"
  type: "Concat"
  bottom: "inception_4d/1x1"
  bottom: "inception_4d/3x3"
  bottom: "inception_4d/5x5"
  bottom: "inception_4d/pool_proj"
  top: "inception_4d/output"
}
layer {
  name: "loss2/ave_pool"
  type: "Pooling"
  bottom: "inception_4d/output"
  top: "loss2/ave_pool"
  pooling_param {
    pool: AVE
    kernel_size: 5
    stride: 3
  }
}
layer {
  name: "loss2/conv"
  type: "Convolution"
  bottom: "loss2/ave_pool"
  top: "loss2/conv"
  param {
    lr_mult: 1
    decay_mult: 1
  }
  param {
    lr_mult: 2
    decay_mult: 0
  }
  convolution_param {
    num_output: 128
    kernel_size: 1
    weight_filler {
      type: "xavier"
      std: 0.08
    }
    bias_filler {
      type: "constant"
      value: 0.2
    }
  }
}
layer {
  name: "loss2/relu_conv"
  type: "ReLU"
  bottom: "loss2/conv"
  top: "loss2/conv"
}
layer {
  name: "loss2/fc"
  type: "InnerProduct"
  bottom: "loss2/conv"
  top: "loss2/fc"
  param {
    lr_mult: 1
    decay_mult: 1
  }
  param {
    lr_mult: 2
    decay_mult: 0
  }
  inner_product_param {
    num_output: 1024
    weight_filler {
      type: "xavier"
      std: 0.02
    }
    bias_filler {
      type: "constant"
      value: 0.2
    }
  }
}
layer {
  name: "loss2/relu_fc"
  type: "ReLU"
  bottom: "loss2/fc"
  top: "loss2/fc"
}
layer {
  name: "loss2/drop_fc"
  type: "Dropout"
  bottom: "loss2/fc"
  top: "loss2/fc"
  dropout_param {
    dropout_ratio: 0.7
  }
}
layer {
  name: "loss2/classifier_plantvillage"
  type: "InnerProduct"
  bottom: "loss2/fc"
  top: "loss2/classifier_plantvillage"
  param {
    lr_mult: 1
    decay_mult: 1
  }
  param {
    lr_mult: 2
    decay_mult: 0
  }
  inner_product_param {
    num_output: 38
    weight_filler {
      type: "xavier"
      std: 0.0009765625
    }
    bias_filler {
      type: "constant"
      value: 0
    }
  }
}
layer {
  name: "inception_4e/1x1"
  type: "Convolution"
  bottom: "inception_4d/output"
  top: "inception_4e/1x1"
  param {
    lr_mult: 1
    decay_mult: 1
  }
  param {
    lr_mult: 2
    decay_mult: 0
  }
  convolution_param {
    num_output: 256
    kernel_size: 1
    weight_filler {
      type: "xavier"
      std: 0.03
    }
    bias_filler {
      type: "constant"
      value: 0.2
    }
  }
}
layer {
  name: "inception_4e/relu_1x1"
  type: "ReLU"
  bottom: "inception_4e/1x1"
  top: "inception_4e/1x1"
}
layer {
  name: "inception_4e/3x3_reduce"
  type: "Convolution"
  bottom: "inception_4d/output"
  top: "inception_4e/3x3_reduce"
  param {
    lr_mult: 1
    decay_mult: 1
  }
  param {
    lr_mult: 2
    decay_mult: 0
  }
  convolution_param {
    num_output: 160
    kernel_size: 1
    weight_filler {
      type: "xavier"
      std: 0.09
    }
    bias_filler {
      type: "constant"
      value: 0.2
    }
  }
}
layer {
  name: "inception_4e/relu_3x3_reduce"
  type: "ReLU"
  bottom: "inception_4e/3x3_reduce"
  top: "inception_4e/3x3_reduce"
}
layer {
  name: "inception_4e/3x3"
  type: "Convolution"
  bottom: "inception_4e/3x3_reduce"
  top: "inception_4e/3x3"
  param {
    lr_mult: 1
    decay_mult: 1
  }
  param {
    lr_mult: 2
    decay_mult: 0
  }
  convolution_param {
    num_output: 320
    pad: 1
    kernel_size: 3
    weight_filler {
      type: "xavier"
      std: 0.03
    }
    bias_filler {
      type: "constant"
      value: 0.2
    }
  }
}
layer {
  name: "inception_4e/relu_3x3"
  type: "ReLU"
  bottom: "inception_4e/3x3"
  top: "inception_4e/3x3"
}
layer {
  name: "inception_4e/5x5_reduce"
  type: "Convolution"
  bottom: "inception_4d/output"
  top: "inception_4e/5x5_reduce"
  param {
    lr_mult: 1
    decay_mult: 1
  }
  param {
    lr_mult: 2
    decay_mult: 0
  }
  convolution_param {
    num_output: 32
    kernel_size: 1
    weight_filler {
      type: "xavier"
      std: 0.2
    }
    bias_filler {
      type: "constant"
      value: 0.2
    }
  }
}
layer {
  name: "inception_4e/relu_5x5_reduce"
  type: "ReLU"
  bottom: "inception_4e/5x5_reduce"
  top: "inception_4e/5x5_reduce"
}
layer {
  name: "inception_4e/5x5"
  type: "Convolution"
  bottom: "inception_4e/5x5_reduce"
  top: "inception_4e/
I0403 17:55:13.403048  6288 layer_factory.hpp:77] Creating layer data
I0403 17:55:13.403697  6288 net.cpp:91] Creating Layer data
I0403 17:55:13.403726  6288 net.cpp:399] data -> data
I0403 17:55:13.403779  6288 net.cpp:399] data -> label
I0403 17:55:13.403815  6288 data_transformer.cpp:25] Loading mean file from: /home/mohanty/data/final_dataset/lmdb/segmented-50-50/mean.binaryproto
I0403 17:55:13.416991  6290 db_lmdb.cpp:38] Opened lmdb /home/mohanty/data/final_dataset/lmdb/segmented-50-50/test_db
I0403 17:55:13.420387  6288 data_layer.cpp:41] output data size: 24,3,224,224
I0403 17:55:13.448616  6288 net.cpp:141] Setting up data
I0403 17:55:13.448706  6288 net.cpp:148] Top shape: 24 3 224 224 (3612672)
I0403 17:55:13.448729  6288 net.cpp:148] Top shape: 24 (24)
I0403 17:55:13.448745  6288 net.cpp:156] Memory required for data: 14450784
I0403 17:55:13.448773  6288 layer_factory.hpp:77] Creating layer label_data_1_split
I0403 17:55:13.448801  6288 net.cpp:91] Creating Layer label_data_1_split
I0403 17:55:13.448819  6288 net.cpp:425] label_data_1_split <- label
I0403 17:55:13.448850  6288 net.cpp:399] label_data_1_split -> label_data_1_split_0
I0403 17:55:13.448879  6288 net.cpp:399] label_data_1_split -> label_data_1_split_1
I0403 17:55:13.448900  6288 net.cpp:399] label_data_1_split -> label_data_1_split_2
I0403 17:55:13.448922  6288 net.cpp:399] label_data_1_split -> label_data_1_split_3
I0403 17:55:13.448943  6288 net.cpp:399] label_data_1_split -> label_data_1_split_4
I0403 17:55:13.448963  6288 net.cpp:399] label_data_1_split -> label_data_1_split_5
I0403 17:55:13.448983  6288 net.cpp:399] label_data_1_split -> label_data_1_split_6
I0403 17:55:13.449004  6288 net.cpp:399] label_data_1_split -> label_data_1_split_7
I0403 17:55:13.449024  6288 net.cpp:399] label_data_1_split -> label_data_1_split_8
I0403 17:55:13.449045  6288 net.cpp:399] label_data_1_split -> label_data_1_split_9
I0403 17:55:13.449165  6288 net.cpp:141] Setting up label_data_1_split
I0403 17:55:13.449189  6288 net.cpp:148] Top shape: 24 (24)
I0403 17:55:13.449211  6288 net.cpp:148] Top shape: 24 (24)
I0403 17:55:13.449230  6288 net.cpp:148] Top shape: 24 (24)
I0403 17:55:13.449247  6288 net.cpp:148] Top shape: 24 (24)
I0403 17:55:13.449265  6288 net.cpp:148] Top shape: 24 (24)
I0403 17:55:13.449283  6288 net.cpp:148] Top shape: 24 (24)
I0403 17:55:13.449301  6288 net.cpp:148] Top shape: 24 (24)
I0403 17:55:13.449316  6288 net.cpp:148] Top shape: 24 (24)
I0403 17:55:13.449333  6288 net.cpp:148] Top shape: 24 (24)
I0403 17:55:13.449350  6288 net.cpp:148] Top shape: 24 (24)
I0403 17:55:13.449396  6288 net.cpp:156] Memory required for data: 14451744
I0403 17:55:13.449414  6288 layer_factory.hpp:77] Creating layer conv1/7x7_s2
I0403 17:55:13.449446  6288 net.cpp:91] Creating Layer conv1/7x7_s2
I0403 17:55:13.449466  6288 net.cpp:425] conv1/7x7_s2 <- data
I0403 17:55:13.449494  6288 net.cpp:399] conv1/7x7_s2 -> conv1/7x7_s2
I0403 17:55:13.596235  6288 net.cpp:141] Setting up conv1/7x7_s2
I0403 17:55:13.596310  6288 net.cpp:148] Top shape: 24 64 112 112 (19267584)
I0403 17:55:13.596328  6288 net.cpp:156] Memory required for data: 91522080
I0403 17:55:13.596360  6288 layer_factory.hpp:77] Creating layer conv1/relu_7x7
I0403 17:55:13.596387  6288 net.cpp:91] Creating Layer conv1/relu_7x7
I0403 17:55:13.596406  6288 net.cpp:425] conv1/relu_7x7 <- conv1/7x7_s2
I0403 17:55:13.596426  6288 net.cpp:386] conv1/relu_7x7 -> conv1/7x7_s2 (in-place)
I0403 17:55:13.596688  6288 net.cpp:141] Setting up conv1/relu_7x7
I0403 17:55:13.596716  6288 net.cpp:148] Top shape: 24 64 112 112 (19267584)
I0403 17:55:13.596732  6288 net.cpp:156] Memory required for data: 168592416
I0403 17:55:13.596747  6288 layer_factory.hpp:77] Creating layer pool1/3x3_s2
I0403 17:55:13.596773  6288 net.cpp:91] Creating Layer pool1/3x3_s2
I0403 17:55:13.596792  6288 net.cpp:425] pool1/3x3_s2 <- conv1/7x7_s2
I0403 17:55:13.596812  6288 net.cpp:399] pool1/3x3_s2 -> pool1/3x3_s2
I0403 17:55:13.596882  6288 net.cpp:141] Setting up pool1/3x3_s2
I0403 17:55:13.596907  6288 net.cpp:148] Top shape: 24 64 56 56 (4816896)
I0403 17:55:13.596923  6288 net.cpp:156] Memory required for data: 187860000
I0403 17:55:13.596938  6288 layer_factory.hpp:77] Creating layer pool1/norm1
I0403 17:55:13.596964  6288 net.cpp:91] Creating Layer pool1/norm1
I0403 17:55:13.596982  6288 net.cpp:425] pool1/norm1 <- pool1/3x3_s2
I0403 17:55:13.597000  6288 net.cpp:399] pool1/norm1 -> pool1/norm1
I0403 17:55:13.597291  6288 net.cpp:141] Setting up pool1/norm1
I0403 17:55:13.597319  6288 net.cpp:148] Top shape: 24 64 56 56 (4816896)
I0403 17:55:13.597335  6288 net.cpp:156] Memory required for data: 207127584
I0403 17:55:13.597352  6288 layer_factory.hpp:77] Creating layer conv2/3x3_reduce
I0403 17:55:13.597378  6288 net.cpp:91] Creating Layer conv2/3x3_reduce
I0403 17:55:13.597394  6288 net.cpp:425] conv2/3x3_reduce <- pool1/norm1
I0403 17:55:13.597414  6288 net.cpp:399] conv2/3x3_reduce -> conv2/3x3_reduce
I0403 17:55:13.598767  6288 net.cpp:141] Setting up conv2/3x3_reduce
I0403 17:55:13.598796  6288 net.cpp:148] Top shape: 24 64 56 56 (4816896)
I0403 17:55:13.598814  6288 net.cpp:156] Memory required for data: 226395168
I0403 17:55:13.598835  6288 layer_factory.hpp:77] Creating layer conv2/relu_3x3_reduce
I0403 17:55:13.598855  6288 net.cpp:91] Creating Layer conv2/relu_3x3_reduce
I0403 17:55:13.598871  6288 net.cpp:425] conv2/relu_3x3_reduce <- conv2/3x3_reduce
I0403 17:55:13.598889  6288 net.cpp:386] conv2/relu_3x3_reduce -> conv2/3x3_reduce (in-place)
I0403 17:55:13.599143  6288 net.cpp:141] Setting up conv2/relu_3x3_reduce
I0403 17:55:13.599170  6288 net.cpp:148] Top shape: 24 64 56 56 (4816896)
I0403 17:55:13.599186  6288 net.cpp:156] Memory required for data: 245662752
I0403 17:55:13.599202  6288 layer_factory.hpp:77] Creating layer conv2/3x3
I0403 17:55:13.599232  6288 net.cpp:91] Creating Layer conv2/3x3
I0403 17:55:13.599251  6288 net.cpp:425] conv2/3x3 <- conv2/3x3_reduce
I0403 17:55:13.599270  6288 net.cpp:399] conv2/3x3 -> conv2/3x3
I0403 17:55:13.601604  6288 net.cpp:141] Setting up conv2/3x3
I0403 17:55:13.601634  6288 net.cpp:148] Top shape: 24 192 56 56 (14450688)
I0403 17:55:13.601650  6288 net.cpp:156] Memory required for data: 303465504
I0403 17:55:13.601673  6288 layer_factory.hpp:77] Creating layer conv2/relu_3x3
I0403 17:55:13.601692  6288 net.cpp:91] Creating Layer conv2/relu_3x3
I0403 17:55:13.601709  6288 net.cpp:425] conv2/relu_3x3 <- conv2/3x3
I0403 17:55:13.601727  6288 net.cpp:386] conv2/relu_3x3 -> conv2/3x3 (in-place)
I0403 17:55:13.601889  6288 net.cpp:141] Setting up conv2/relu_3x3
I0403 17:55:13.601914  6288 net.cpp:148] Top shape: 24 192 56 56 (14450688)
I0403 17:55:13.601961  6288 net.cpp:156] Memory required for data: 361268256
I0403 17:55:13.601979  6288 layer_factory.hpp:77] Creating layer conv2/norm2
I0403 17:55:13.601997  6288 net.cpp:91] Creating Layer conv2/norm2
I0403 17:55:13.602013  6288 net.cpp:425] conv2/norm2 <- conv2/3x3
I0403 17:55:13.602031  6288 net.cpp:399] conv2/norm2 -> conv2/norm2
I0403 17:55:13.602344  6288 net.cpp:141] Setting up conv2/norm2
I0403 17:55:13.602372  6288 net.cpp:148] Top shape: 24 192 56 56 (14450688)
I0403 17:55:13.602390  6288 net.cpp:156] Memory required for data: 419071008
I0403 17:55:13.602406  6288 layer_factory.hpp:77] Creating layer pool2/3x3_s2
I0403 17:55:13.602423  6288 net.cpp:91] Creating Layer pool2/3x3_s2
I0403 17:55:13.602439  6288 net.cpp:425] pool2/3x3_s2 <- conv2/norm2
I0403 17:55:13.602458  6288 net.cpp:399] pool2/3x3_s2 -> pool2/3x3_s2
I0403 17:55:13.602506  6288 net.cpp:141] Setting up pool2/3x3_s2
I0403 17:55:13.602530  6288 net.cpp:148] Top shape: 24 192 28 28 (3612672)
I0403 17:55:13.602545  6288 net.cpp:156] Memory required for data: 433521696
I0403 17:55:13.602561  6288 layer_factory.hpp:77] Creating layer pool2/3x3_s2_pool2/3x3_s2_0_split
I0403 17:55:13.602586  6288 net.cpp:91] Creating Layer pool2/3x3_s2_pool2/3x3_s2_0_split
I0403 17:55:13.602602  6288 net.cpp:425] pool2/3x3_s2_pool2/3x3_s2_0_split <- pool2/3x3_s2
I0403 17:55:13.602619  6288 net.cpp:399] pool2/3x3_s2_pool2/3x3_s2_0_split -> pool2/3x3_s2_pool2/3x3_s2_0_split_0
I0403 17:55:13.602639  6288 net.cpp:399] pool2/3x3_s2_pool2/3x3_s2_0_split -> pool2/3x3_s2_pool2/3x3_s2_0_split_1
I0403 17:55:13.602659  6288 net.cpp:399] pool2/3x3_s2_pool2/3x3_s2_0_split -> pool2/3x3_s2_pool2/3x3_s2_0_split_2
I0403 17:55:13.602679  6288 net.cpp:399] pool2/3x3_s2_pool2/3x3_s2_0_split -> pool2/3x3_s2_pool2/3x3_s2_0_split_3
I0403 17:55:13.602742  6288 net.cpp:141] Setting up pool2/3x3_s2_pool2/3x3_s2_0_split
I0403 17:55:13.602764  6288 net.cpp:148] Top shape: 24 192 28 28 (3612672)
I0403 17:55:13.602782  6288 net.cpp:148] Top shape: 24 192 28 28 (3612672)
I0403 17:55:13.602798  6288 net.cpp:148] Top shape: 24 192 28 28 (3612672)
I0403 17:55:13.602815  6288 net.cpp:148] Top shape: 24 192 28 28 (3612672)
I0403 17:55:13.602830  6288 net.cpp:156] Memory required for data: 491324448
I0403 17:55:13.602845  6288 layer_factory.hpp:77] Creating layer inception_3a/1x1
I0403 17:55:13.602866  6288 net.cpp:91] Creating Layer inception_3a/1x1
I0403 17:55:13.602882  6288 net.cpp:425] inception_3a/1x1 <- pool2/3x3_s2_pool2/3x3_s2_0_split_0
I0403 17:55:13.602902  6288 net.cpp:399] inception_3a/1x1 -> inception_3a/1x1
I0403 17:55:13.604423  6288 net.cpp:141] Setting up inception_3a/1x1
I0403 17:55:13.604454  6288 net.cpp:148] Top shape: 24 64 28 28 (1204224)
I0403 17:55:13.604482  6288 net.cpp:156] Memory required for data: 496141344
I0403 17:55:13.604502  6288 layer_factory.hpp:77] Creating layer inception_3a/relu_1x1
I0403 17:55:13.604521  6288 net.cpp:91] Creating Layer inception_3a/relu_1x1
I0403 17:55:13.604537  6288 net.cpp:425] inception_3a/relu_1x1 <- inception_3a/1x1
I0403 17:55:13.604554  6288 net.cpp:386] inception_3a/relu_1x1 -> inception_3a/1x1 (in-place)
I0403 17:55:13.604717  6288 net.cpp:141] Setting up inception_3a/relu_1x1
I0403 17:55:13.604743  6288 net.cpp:148] Top shape: 24 64 28 28 (1204224)
I0403 17:55:13.604758  6288 net.cpp:156] Memory required for data: 500958240
I0403 17:55:13.604773  6288 layer_factory.hpp:77] Creating layer inception_3a/3x3_reduce
I0403 17:55:13.604794  6288 net.cpp:91] Creating Layer inception_3a/3x3_reduce
I0403 17:55:13.604811  6288 net.cpp:425] inception_3a/3x3_reduce <- pool2/3x3_s2_pool2/3x3_s2_0_split_1
I0403 17:55:13.604830  6288 net.cpp:399] inception_3a/3x3_reduce -> inception_3a/3x3_reduce
I0403 17:55:13.606550  6288 net.cpp:141] Setting up inception_3a/3x3_reduce
I0403 17:55:13.606580  6288 net.cpp:148] Top shape: 24 96 28 28 (1806336)
I0403 17:55:13.606596  6288 net.cpp:156] Memory required for data: 508183584
I0403 17:55:13.606619  6288 layer_factory.hpp:77] Creating layer inception_3a/relu_3x3_reduce
I0403 17:55:13.606657  6288 net.cpp:91] Creating Layer inception_3a/relu_3x3_reduce
I0403 17:55:13.606676  6288 net.cpp:425] inception_3a/relu_3x3_reduce <- inception_3a/3x3_reduce
I0403 17:55:13.606694  6288 net.cpp:386] inception_3a/relu_3x3_reduce -> inception_3a/3x3_reduce (in-place)
I0403 17:55:13.606881  6288 net.cpp:141] Setting up inception_3a/relu_3x3_reduce
I0403 17:55:13.606910  6288 net.cpp:148] Top shape: 24 96 28 28 (1806336)
I0403 17:55:13.606926  6288 net.cpp:156] Memory required for data: 515408928
I0403 17:55:13.606941  6288 layer_factory.hpp:77] Creating layer inception_3a/3x3
I0403 17:55:13.606964  6288 net.cpp:91] Creating Layer inception_3a/3x3
I0403 17:55:13.606982  6288 net.cpp:425] inception_3a/3x3 <- inception_3a/3x3_reduce
I0403 17:55:13.607002  6288 net.cpp:399] inception_3a/3x3 -> inception_3a/3x3
I0403 17:55:13.608700  6288 net.cpp:141] Setting up inception_3a/3x3
I0403 17:55:13.608729  6288 net.cpp:148] Top shape: 24 128 28 28 (2408448)
I0403 17:55:13.608744  6288 net.cpp:156] Memory required for data: 525042720
I0403 17:55:13.608763  6288 layer_factory.hpp:77] Creating layer inception_3a/relu_3x3
I0403 17:55:13.608788  6288 net.cpp:91] Creating Layer inception_3a/relu_3x3
I0403 17:55:13.608806  6288 net.cpp:425] inception_3a/relu_3x3 <- inception_3a/3x3
I0403 17:55:13.608824  6288 net.cpp:386] inception_3a/relu_3x3 -> inception_3a/3x3 (in-place)
I0403 17:55:13.609107  6288 net.cpp:141] Setting up inception_3a/relu_3x3
I0403 17:55:13.609133  6288 net.cpp:148] Top shape: 24 128 28 28 (2408448)
I0403 17:55:13.609148  6288 net.cpp:156] Memory required for data: 534676512
I0403 17:55:13.609163  6288 layer_factory.hpp:77] Creating layer inception_3a/5x5_reduce
I0403 17:55:13.609186  6288 net.cpp:91] Creating Layer inception_3a/5x5_reduce
I0403 17:55:13.609205  6288 net.cpp:425] inception_3a/5x5_reduce <- pool2/3x3_s2_pool2/3x3_s2_0_split_2
I0403 17:55:13.609235  6288 net.cpp:399] inception_3a/5x5_reduce -> inception_3a/5x5_reduce
I0403 17:55:13.610219  6288 net.cpp:141] Setting up inception_3a/5x5_reduce
I0403 17:55:13.610247  6288 net.cpp:148] Top shape: 24 16 28 28 (301056)
I0403 17:55:13.610265  6288 net.cpp:156] Memory required for data: 535880736
I0403 17:55:13.610282  6288 layer_factory.hpp:77] Creating layer inception_3a/relu_5x5_reduce
I0403 17:55:13.610304  6288 net.cpp:91] Creating Layer inception_3a/relu_5x5_reduce
I0403 17:55:13.610321  6288 net.cpp:425] inception_3a/relu_5x5_reduce <- inception_3a/5x5_reduce
I0403 17:55:13.610339  6288 net.cpp:386] inception_3a/relu_5x5_reduce -> inception_3a/5x5_reduce (in-place)
I0403 17:55:13.610643  6288 net.cpp:141] Setting up inception_3a/relu_5x5_reduce
I0403 17:55:13.610669  6288 net.cpp:148] Top shape: 24 16 28 28 (301056)
I0403 17:55:13.610688  6288 net.cpp:156] Memory required for data: 537084960
I0403 17:55:13.610704  6288 layer_factory.hpp:77] Creating layer inception_3a/5x5
I0403 17:55:13.610725  6288 net.cpp:91] Creating Layer inception_3a/5x5
I0403 17:55:13.610743  6288 net.cpp:425] inception_3a/5x5 <- inception_3a/5x5_reduce
I0403 17:55:13.610764  6288 net.cpp:399] inception_3a/5x5 -> inception_3a/5x5
I0403 17:55:13.611850  6288 net.cpp:141] Setting up inception_3a/5x5
I0403 17:55:13.611876  6288 net.cpp:148] Top shape: 24 32 28 28 (602112)
I0403 17:55:13.611891  6288 net.cpp:156] Memory required for data: 539493408
I0403 17:55:13.611910  6288 layer_factory.hpp:77] Creating layer inception_3a/relu_5x5
I0403 17:55:13.611928  6288 net.cpp:91] Creating Layer inception_3a/relu_5x5
I0403 17:55:13.611948  6288 net.cpp:425] inception_3a/relu_5x5 <- inception_3a/5x5
I0403 17:55:13.611965  6288 net.cpp:386] inception_3a/relu_5x5 -> inception_3a/5x5 (in-place)
I0403 17:55:13.612141  6288 net.cpp:141] Setting up inception_3a/relu_5x5
I0403 17:55:13.612165  6288 net.cpp:148] Top shape: 24 32 28 28 (602112)
I0403 17:55:13.612180  6288 net.cpp:156] Memory required for data: 541901856
I0403 17:55:13.612196  6288 layer_factory.hpp:77] Creating layer inception_3a/pool
I0403 17:55:13.612229  6288 net.cpp:91] Creating Layer inception_3a/pool
I0403 17:55:13.612262  6288 net.cpp:425] inception_3a/pool <- pool2/3x3_s2_pool2/3x3_s2_0_split_3
I0403 17:55:13.612280  6288 net.cpp:399] inception_3a/pool -> inception_3a/pool
I0403 17:55:13.612339  6288 net.cpp:141] Setting up inception_3a/pool
I0403 17:55:13.612363  6288 net.cpp:148] Top shape: 24 192 28 28 (3612672)
I0403 17:55:13.612377  6288 net.cpp:156] Memory required for data: 556352544
I0403 17:55:13.612392  6288 layer_factory.hpp:77] Creating layer inception_3a/pool_proj
I0403 17:55:13.612416  6288 net.cpp:91] Creating Layer inception_3a/pool_proj
I0403 17:55:13.612432  6288 net.cpp:425] inception_3a/pool_proj <- inception_3a/pool
I0403 17:55:13.612452  6288 net.cpp:399] inception_3a/pool_proj -> inception_3a/pool_proj
I0403 17:55:13.613417  6288 net.cpp:141] Setting up inception_3a/pool_proj
I0403 17:55:13.613446  6288 net.cpp:148] Top shape: 24 32 28 28 (602112)
I0403 17:55:13.613463  6288 net.cpp:156] Memory required for data: 558760992
I0403 17:55:13.613486  6288 layer_factory.hpp:77] Creating layer inception_3a/relu_pool_proj
I0403 17:55:13.613505  6288 net.cpp:91] Creating Layer inception_3a/relu_pool_proj
I0403 17:55:13.613523  6288 net.cpp:425] inception_3a/relu_pool_proj <- inception_3a/pool_proj
I0403 17:55:13.613539  6288 net.cpp:386] inception_3a/relu_pool_proj -> inception_3a/pool_proj (in-place)
I0403 17:55:13.613811  6288 net.cpp:141] Setting up inception_3a/relu_pool_proj
I0403 17:55:13.613837  6288 net.cpp:148] Top shape: 24 32 28 28 (602112)
I0403 17:55:13.613852  6288 net.cpp:156] Memory required for data: 561169440
I0403 17:55:13.613867  6288 layer_factory.hpp:77] Creating layer inception_3a/output
I0403 17:55:13.613885  6288 net.cpp:91] Creating Layer inception_3a/output
I0403 17:55:13.613900  6288 net.cpp:425] inception_3a/output <- inception_3a/1x1
I0403 17:55:13.613917  6288 net.cpp:425] inception_3a/output <- inception_3a/3x3
I0403 17:55:13.613934  6288 net.cpp:425] inception_3a/output <- inception_3a/5x5
I0403 17:55:13.613950  6288 net.cpp:425] inception_3a/output <- inception_3a/pool_proj
I0403 17:55:13.613968  6288 net.cpp:399] inception_3a/output -> inception_3a/output
I0403 17:55:13.614013  6288 net.cpp:141] Setting up inception_3a/output
I0403 17:55:13.614038  6288 net.cpp:148] Top shape: 24 256 28 28 (4816896)
I0403 17:55:13.614054  6288 net.cpp:156] Memory required for data: 580437024
I0403 17:55:13.614068  6288 layer_factory.hpp:77] Creating layer inception_3a/output_inception_3a/output_0_split
I0403 17:55:13.614085  6288 net.cpp:91] Creating Layer inception_3a/output_inception_3a/output_0_split
I0403 17:55:13.614100  6288 net.cpp:425] inception_3a/output_inception_3a/output_0_split <- inception_3a/output
I0403 17:55:13.614120  6288 net.cpp:399] inception_3a/output_inception_3a/output_0_split -> inception_3a/output_inception_3a/output_0_split_0
I0403 17:55:13.614140  6288 net.cpp:399] inception_3a/output_inception_3a/output_0_split -> inception_3a/output_inception_3a/output_0_split_1
I0403 17:55:13.614161  6288 net.cpp:399] inception_3a/output_inception_3a/output_0_split -> inception_3a/output_inception_3a/output_0_split_2
I0403 17:55:13.614181  6288 net.cpp:399] inception_3a/output_inception_3a/output_0_split -> inception_3a/output_inception_3a/output_0_split_3
I0403 17:55:13.614262  6288 net.cpp:141] Setting up inception_3a/output_inception_3a/output_0_split
I0403 17:55:13.614286  6288 net.cpp:148] Top shape: 24 256 28 28 (4816896)
I0403 17:55:13.614303  6288 net.cpp:148] Top shape: 24 256 28 28 (4816896)
I0403 17:55:13.614320  6288 net.cpp:148] Top shape: 24 256 28 28 (4816896)
I0403 17:55:13.614336  6288 net.cpp:148] Top shape: 24 256 28 28 (4816896)
I0403 17:55:13.614351  6288 net.cpp:156] Memory required for data: 657507360
I0403 17:55:13.614365  6288 layer_factory.hpp:77] Creating layer inception_3b/1x1
I0403 17:55:13.614390  6288 net.cpp:91] Creating Layer inception_3b/1x1
I0403 17:55:13.614409  6288 net.cpp:425] inception_3b/1x1 <- inception_3a/output_inception_3a/output_0_split_0
I0403 17:55:13.614429  6288 net.cpp:399] inception_3b/1x1 -> inception_3b/1x1
I0403 17:55:13.615556  6288 net.cpp:141] Setting up inception_3b/1x1
I0403 17:55:13.615594  6288 net.cpp:148] Top shape: 24 128 28 28 (2408448)
I0403 17:55:13.615612  6288 net.cpp:156] Memory required for data: 667141152
I0403 17:55:13.615630  6288 layer_factory.hpp:77] Creating layer inception_3b/relu_1x1
I0403 17:55:13.615648  6288 net.cpp:91] Creating Layer inception_3b/relu_1x1
I0403 17:55:13.615664  6288 net.cpp:425] inception_3b/relu_1x1 <- inception_3b/1x1
I0403 17:55:13.615684  6288 net.cpp:386] inception_3b/relu_1x1 -> inception_3b/1x1 (in-place)
I0403 17:55:13.615859  6288 net.cpp:141] Setting up inception_3b/relu_1x1
I0403 17:55:13.615885  6288 net.cpp:148] Top shape: 24 128 28 28 (2408448)
I0403 17:55:13.615900  6288 net.cpp:156] Memory required for data: 676774944
I0403 17:55:13.615914  6288 layer_factory.hpp:77] Creating layer inception_3b/3x3_reduce
I0403 17:55:13.615936  6288 net.cpp:91] Creating Layer inception_3b/3x3_reduce
I0403 17:55:13.615953  6288 net.cpp:425] inception_3b/3x3_reduce <- inception_3a/output_inception_3a/output_0_split_1
I0403 17:55:13.615974  6288 net.cpp:399] inception_3b/3x3_reduce -> inception_3b/3x3_reduce
I0403 17:55:13.617107  6288 net.cpp:141] Setting up inception_3b/3x3_reduce
I0403 17:55:13.617137  6288 net.cpp:148] Top shape: 24 128 28 28 (2408448)
I0403 17:55:13.617153  6288 net.cpp:156] Memory required for data: 686408736
I0403 17:55:13.617172  6288 layer_factory.hpp:77] Creating layer inception_3b/relu_3x3_reduce
I0403 17:55:13.617189  6288 net.cpp:91] Creating Layer inception_3b/relu_3x3_reduce
I0403 17:55:13.617205  6288 net.cpp:425] inception_3b/relu_3x3_reduce <- inception_3b/3x3_reduce
I0403 17:55:13.617233  6288 net.cpp:386] inception_3b/relu_3x3_reduce -> inception_3b/3x3_reduce (in-place)
I0403 17:55:13.617408  6288 net.cpp:141] Setting up inception_3b/relu_3x3_reduce
I0403 17:55:13.617431  6288 net.cpp:148] Top shape: 24 128 28 28 (2408448)
I0403 17:55:13.617446  6288 net.cpp:156] Memory required for data: 696042528
I0403 17:55:13.617461  6288 layer_factory.hpp:77] Creating layer inception_3b/3x3
I0403 17:55:13.617487  6288 net.cpp:91] Creating Layer inception_3b/3x3
I0403 17:55:13.617506  6288 net.cpp:425] inception_3b/3x3 <- inception_3b/3x3_reduce
I0403 17:55:13.617523  6288 net.cpp:399] inception_3b/3x3 -> inception_3b/3x3
I0403 17:55:13.620437  6288 net.cpp:141] Setting up inception_3b/3x3
I0403 17:55:13.620465  6288 net.cpp:148] Top shape: 24 192 28 28 (3612672)
I0403 17:55:13.620481  6288 net.cpp:156] Memory required for data: 710493216
I0403 17:55:13.620501  6288 layer_factory.hpp:77] Creating layer inception_3b/relu_3x3
I0403 17:55:13.620520  6288 net.cpp:91] Creating Layer inception_3b/relu_3x3
I0403 17:55:13.620537  6288 net.cpp:425] inception_3b/relu_3x3 <- inception_3b/3x3
I0403 17:55:13.620554  6288 net.cpp:386] inception_3b/relu_3x3 -> inception_3b/3x3 (in-place)
I0403 17:55:13.620836  6288 net.cpp:141] Setting up inception_3b/relu_3x3
I0403 17:55:13.620862  6288 net.cpp:148] Top shape: 24 192 28 28 (3612672)
I0403 17:55:13.620877  6288 net.cpp:156] Memory required for data: 724943904
I0403 17:55:13.620893  6288 layer_factory.hpp:77] Creating layer inception_3b/5x5_reduce
I0403 17:55:13.620916  6288 net.cpp:91] Creating Layer inception_3b/5x5_reduce
I0403 17:55:13.620934  6288 net.cpp:425] inception_3b/5x5_reduce <- inception_3a/output_inception_3a/output_0_split_2
I0403 17:55:13.620955  6288 net.cpp:399] inception_3b/5x5_reduce -> inception_3b/5x5_reduce
I0403 17:55:13.621945  6288 net.cpp:141] Setting up inception_3b/5x5_reduce
I0403 17:55:13.621973  6288 net.cpp:148] Top shape: 24 32 28 28 (602112)
I0403 17:55:13.621989  6288 net.cpp:156] Memory required for data: 727352352
I0403 17:55:13.622006  6288 layer_factory.hpp:77] Creating layer inception_3b/relu_5x5_reduce
I0403 17:55:13.622027  6288 net.cpp:91] Creating Layer inception_3b/relu_5x5_reduce
I0403 17:55:13.622045  6288 net.cpp:425] inception_3b/relu_5x5_reduce <- inception_3b/5x5_reduce
I0403 17:55:13.622061  6288 net.cpp:386] inception_3b/relu_5x5_reduce -> inception_3b/5x5_reduce (in-place)
I0403 17:55:13.622267  6288 net.cpp:141] Setting up inception_3b/relu_5x5_reduce
I0403 17:55:13.622297  6288 net.cpp:148] Top shape: 24 32 28 28 (602112)
I0403 17:55:13.622311  6288 net.cpp:156] Memory required for data: 729760800
I0403 17:55:13.622328  6288 layer_factory.hpp:77] Creating layer inception_3b/5x5
I0403 17:55:13.622349  6288 net.cpp:91] Creating Layer inception_3b/5x5
I0403 17:55:13.622366  6288 net.cpp:425] inception_3b/5x5 <- inception_3b/5x5_reduce
I0403 17:55:13.622387  6288 net.cpp:399] inception_3b/5x5 -> inception_3b/5x5
I0403 17:55:13.624364  6288 net.cpp:141] Setting up inception_3b/5x5
I0403 17:55:13.624395  6288 net.cpp:148] Top shape: 24 96 28 28 (1806336)
I0403 17:55:13.624410  6288 net.cpp:156] Memory required for data: 736986144
I0403 17:55:13.624429  6288 layer_factory.hpp:77] Creating layer inception_3b/relu_5x5
I0403 17:55:13.624447  6288 net.cpp:91] Creating Layer inception_3b/relu_5x5
I0403 17:55:13.624464  6288 net.cpp:425] inception_3b/relu_5x5 <- inception_3b/5x5
I0403 17:55:13.624482  6288 net.cpp:386] inception_3b/relu_5x5 -> inception_3b/5x5 (in-place)
I0403 17:55:13.624672  6288 net.cpp:141] Setting up inception_3b/relu_5x5
I0403 17:55:13.624697  6288 net.cpp:148] Top shape: 24 96 28 28 (1806336)
I0403 17:55:13.624712  6288 net.cpp:156] Memory required for data: 744211488
I0403 17:55:13.624727  6288 layer_factory.hpp:77] Creating layer inception_3b/pool
I0403 17:55:13.624745  6288 net.cpp:91] Creating Layer inception_3b/pool
I0403 17:55:13.624761  6288 net.cpp:425] inception_3b/pool <- inception_3a/output_inception_3a/output_0_split_3
I0403 17:55:13.624779  6288 net.cpp:399] inception_3b/pool -> inception_3b/pool
I0403 17:55:13.624833  6288 net.cpp:141] Setting up inception_3b/pool
I0403 17:55:13.624856  6288 net.cpp:148] Top shape: 24 256 28 28 (4816896)
I0403 17:55:13.624871  6288 net.cpp:156] Memory required for data: 763479072
I0403 17:55:13.624886  6288 layer_factory.hpp:77] Creating layer inception_3b/pool_proj
I0403 17:55:13.624910  6288 net.cpp:91] Creating Layer inception_3b/pool_proj
I0403 17:55:13.624928  6288 net.cpp:425] inception_3b/pool_proj <- inception_3b/pool
I0403 17:55:13.624946  6288 net.cpp:399] inception_3b/pool_proj -> inception_3b/pool_proj
I0403 17:55:13.626006  6288 net.cpp:141] Setting up inception_3b/pool_proj
I0403 17:55:13.626034  6288 net.cpp:148] Top shape: 24 64 28 28 (1204224)
I0403 17:55:13.626049  6288 net.cpp:156] Memory required for data: 768295968
I0403 17:55:13.626068  6288 layer_factory.hpp:77] Creating layer inception_3b/relu_pool_proj
I0403 17:55:13.626087  6288 net.cpp:91] Creating Layer inception_3b/relu_pool_proj
I0403 17:55:13.626104  6288 net.cpp:425] inception_3b/relu_pool_proj <- inception_3b/pool_proj
I0403 17:55:13.626122  6288 net.cpp:386] inception_3b/relu_pool_proj -> inception_3b/pool_proj (in-place)
I0403 17:55:13.626524  6288 net.cpp:141] Setting up inception_3b/relu_pool_proj
I0403 17:55:13.626550  6288 net.cpp:148] Top shape: 24 64 28 28 (1204224)
I0403 17:55:13.626565  6288 net.cpp:156] Memory required for data: 773112864
I0403 17:55:13.626580  6288 layer_factory.hpp:77] Creating layer inception_3b/output
I0403 17:55:13.626600  6288 net.cpp:91] Creating Layer inception_3b/output
I0403 17:55:13.626616  6288 net.cpp:425] inception_3b/output <- inception_3b/1x1
I0403 17:55:13.626634  6288 net.cpp:425] inception_3b/output <- inception_3b/3x3
I0403 17:55:13.626651  6288 net.cpp:425] inception_3b/output <- inception_3b/5x5
I0403 17:55:13.626667  6288 net.cpp:425] inception_3b/output <- inception_3b/pool_proj
I0403 17:55:13.626683  6288 net.cpp:399] inception_3b/output -> inception_3b/output
I0403 17:55:13.626729  6288 net.cpp:141] Setting up inception_3b/output
I0403 17:55:13.626751  6288 net.cpp:148] Top shape: 24 480 28 28 (9031680)
I0403 17:55:13.626765  6288 net.cpp:156] Memory required for data: 809239584
I0403 17:55:13.626781  6288 layer_factory.hpp:77] Creating layer pool3/3x3_s2
I0403 17:55:13.626798  6288 net.cpp:91] Creating Layer pool3/3x3_s2
I0403 17:55:13.626814  6288 net.cpp:425] pool3/3x3_s2 <- inception_3b/output
I0403 17:55:13.626848  6288 net.cpp:399] pool3/3x3_s2 -> pool3/3x3_s2
I0403 17:55:13.626909  6288 net.cpp:141] Setting up pool3/3x3_s2
I0403 17:55:13.626934  6288 net.cpp:148] Top shape: 24 480 14 14 (2257920)
I0403 17:55:13.626948  6288 net.cpp:156] Memory required for data: 818271264
I0403 17:55:13.626963  6288 layer_factory.hpp:77] Creating layer pool3/3x3_s2_pool3/3x3_s2_0_split
I0403 17:55:13.626981  6288 net.cpp:91] Creating Layer pool3/3x3_s2_pool3/3x3_s2_0_split
I0403 17:55:13.626994  6288 net.cpp:425] pool3/3x3_s2_pool3/3x3_s2_0_split <- pool3/3x3_s2
I0403 17:55:13.627012  6288 net.cpp:399] pool3/3x3_s2_pool3/3x3_s2_0_split -> pool3/3x3_s2_pool3/3x3_s2_0_split_0
I0403 17:55:13.627032  6288 net.cpp:399] pool3/3x3_s2_pool3/3x3_s2_0_split -> pool3/3x3_s2_pool3/3x3_s2_0_split_1
I0403 17:55:13.627053  6288 net.cpp:399] pool3/3x3_s2_pool3/3x3_s2_0_split -> pool3/3x3_s2_pool3/3x3_s2_0_split_2
I0403 17:55:13.627073  6288 net.cpp:399] pool3/3x3_s2_pool3/3x3_s2_0_split -> pool3/3x3_s2_pool3/3x3_s2_0_split_3
I0403 17:55:13.627148  6288 net.cpp:141] Setting up pool3/3x3_s2_pool3/3x3_s2_0_split
I0403 17:55:13.627171  6288 net.cpp:148] Top shape: 24 480 14 14 (2257920)
I0403 17:55:13.627187  6288 net.cpp:148] Top shape: 24 480 14 14 (2257920)
I0403 17:55:13.627202  6288 net.cpp:148] Top shape: 24 480 14 14 (2257920)
I0403 17:55:13.627240  6288 net.cpp:148] Top shape: 24 480 14 14 (2257920)
I0403 17:55:13.627256  6288 net.cpp:156] Memory required for data: 854397984
I0403 17:55:13.627272  6288 layer_factory.hpp:77] Creating layer inception_4a/1x1
I0403 17:55:13.627295  6288 net.cpp:91] Creating Layer inception_4a/1x1
I0403 17:55:13.627315  6288 net.cpp:425] inception_4a/1x1 <- pool3/3x3_s2_pool3/3x3_s2_0_split_0
I0403 17:55:13.627336  6288 net.cpp:399] inception_4a/1x1 -> inception_4a/1x1
I0403 17:55:13.628940  6288 net.cpp:141] Setting up inception_4a/1x1
I0403 17:55:13.628969  6288 net.cpp:148] Top shape: 24 192 14 14 (903168)
I0403 17:55:13.628985  6288 net.cpp:156] Memory required for data: 858010656
I0403 17:55:13.629004  6288 layer_factory.hpp:77] Creating layer inception_4a/relu_1x1
I0403 17:55:13.629025  6288 net.cpp:91] Creating Layer inception_4a/relu_1x1
I0403 17:55:13.629042  6288 net.cpp:425] inception_4a/relu_1x1 <- inception_4a/1x1
I0403 17:55:13.629060  6288 net.cpp:386] inception_4a/relu_1x1 -> inception_4a/1x1 (in-place)
I0403 17:55:13.629269  6288 net.cpp:141] Setting up inception_4a/relu_1x1
I0403 17:55:13.629297  6288 net.cpp:148] Top shape: 24 192 14 14 (903168)
I0403 17:55:13.629312  6288 net.cpp:156] Memory required for data: 861623328
I0403 17:55:13.629328  6288 layer_factory.hpp:77] Creating layer inception_4a/3x3_reduce
I0403 17:55:13.629353  6288 net.cpp:91] Creating Layer inception_4a/3x3_reduce
I0403 17:55:13.629370  6288 net.cpp:425] inception_4a/3x3_reduce <- pool3/3x3_s2_pool3/3x3_s2_0_split_1
I0403 17:55:13.629393  6288 net.cpp:399] inception_4a/3x3_reduce -> inception_4a/3x3_reduce
I0403 17:55:13.630795  6288 net.cpp:141] Setting up inception_4a/3x3_reduce
I0403 17:55:13.630825  6288 net.cpp:148] Top shape: 24 96 14 14 (451584)
I0403 17:55:13.630841  6288 net.cpp:156] Memory required for data: 863429664
I0403 17:55:13.630866  6288 layer_factory.hpp:77] Creating layer inception_4a/relu_3x3_reduce
I0403 17:55:13.630887  6288 net.cpp:91] Creating Layer inception_4a/relu_3x3_reduce
I0403 17:55:13.630904  6288 net.cpp:425] inception_4a/relu_3x3_reduce <- inception_4a/3x3_reduce
I0403 17:55:13.630923  6288 net.cpp:386] inception_4a/relu_3x3_reduce -> inception_4a/3x3_reduce (in-place)
I0403 17:55:13.631103  6288 net.cpp:141] Setting up inception_4a/relu_3x3_reduce
I0403 17:55:13.631130  6288 net.cpp:148] Top shape: 24 96 14 14 (451584)
I0403 17:55:13.631146  6288 net.cpp:156] Memory required for data: 865236000
I0403 17:55:13.631161  6288 layer_factory.hpp:77] Creating layer inception_4a/3x3
I0403 17:55:13.631184  6288 net.cpp:91] Creating Layer inception_4a/3x3
I0403 17:55:13.631202  6288 net.cpp:425] inception_4a/3x3 <- inception_4a/3x3_reduce
I0403 17:55:13.631229  6288 net.cpp:399] inception_4a/3x3 -> inception_4a/3x3
I0403 17:55:13.634002  6288 net.cpp:141] Setting up inception_4a/3x3
I0403 17:55:13.634035  6288 net.cpp:148] Top shape: 24 208 14 14 (978432)
I0403 17:55:13.634053  6288 net.cpp:156] Memory required for data: 869149728
I0403 17:55:13.634073  6288 layer_factory.hpp:77] Creating layer inception_4a/relu_3x3
I0403 17:55:13.634090  6288 net.cpp:91] Creating Layer inception_4a/relu_3x3
I0403 17:55:13.634109  6288 net.cpp:425] inception_4a/relu_3x3 <- inception_4a/3x3
I0403 17:55:13.634132  6288 net.cpp:386] inception_4a/relu_3x3 -> inception_4a/3x3 (in-place)
I0403 17:55:13.634423  6288 net.cpp:141] Setting up inception_4a/relu_3x3
I0403 17:55:13.634451  6288 net.cpp:148] Top shape: 24 208 14 14 (978432)
I0403 17:55:13.634469  6288 net.cpp:156] Memory required for data: 873063456
I0403 17:55:13.634485  6288 layer_factory.hpp:77] Creating layer inception_4a/5x5_reduce
I0403 17:55:13.634508  6288 net.cpp:91] Creating Layer inception_4a/5x5_reduce
I0403 17:55:13.634527  6288 net.cpp:425] inception_4a/5x5_reduce <- pool3/3x3_s2_pool3/3x3_s2_0_split_2
I0403 17:55:13.634546  6288 net.cpp:399] inception_4a/5x5_reduce -> inception_4a/5x5_reduce
I0403 17:55:13.635594  6288 net.cpp:141] Setting up inception_4a/5x5_reduce
I0403 17:55:13.635625  6288 net.cpp:148] Top shape: 24 16 14 14 (75264)
I0403 17:55:13.635648  6288 net.cpp:156] Memory required for data: 873364512
I0403 17:55:13.635668  6288 layer_factory.hpp:77] Creating layer inception_4a/relu_5x5_reduce
I0403 17:55:13.635687  6288 net.cpp:91] Creating Layer inception_4a/relu_5x5_reduce
I0403 17:55:13.635707  6288 net.cpp:425] inception_4a/relu_5x5_reduce <- inception_4a/5x5_reduce
I0403 17:55:13.635725  6288 net.cpp:386] inception_4a/relu_5x5_reduce -> inception_4a/5x5_reduce (in-place)
I0403 17:55:13.635910  6288 net.cpp:141] Setting up inception_4a/relu_5x5_reduce
I0403 17:55:13.635939  6288 net.cpp:148] Top shape: 24 16 14 14 (75264)
I0403 17:55:13.635962  6288 net.cpp:156] Memory required for data: 873665568
I0403 17:55:13.635984  6288 layer_factory.hpp:77] Creating layer inception_4a/5x5
I0403 17:55:13.636013  6288 net.cpp:91] Creating Layer inception_4a/5x5
I0403 17:55:13.636036  6288 net.cpp:425] inception_4a/5x5 <- inception_4a/5x5_reduce
I0403 17:55:13.636066  6288 net.cpp:399] inception_4a/5x5 -> inception_4a/5x5
I0403 17:55:13.637228  6288 net.cpp:141] Setting up inception_4a/5x5
I0403 17:55:13.637255  6288 net.cpp:148] Top shape: 24 48 14 14 (225792)
I0403 17:55:13.637272  6288 net.cpp:156] Memory required for data: 874568736
I0403 17:55:13.637292  6288 layer_factory.hpp:77] Creating layer inception_4a/relu_5x5
I0403 17:55:13.637313  6288 net.cpp:91] Creating Layer inception_4a/relu_5x5
I0403 17:55:13.637331  6288 net.cpp:425] inception_4a/relu_5x5 <- inception_4a/5x5
I0403 17:55:13.637349  6288 net.cpp:386] inception_4a/relu_5x5 -> inception_4a/5x5 (in-place)
I0403 17:55:13.637542  6288 net.cpp:141] Setting up inception_4a/relu_5x5
I0403 17:55:13.637573  6288 net.cpp:148] Top shape: 24 48 14 14 (225792)
I0403 17:55:13.637590  6288 net.cpp:156] Memory required for data: 875471904
I0403 17:55:13.637606  6288 layer_factory.hpp:77] Creating layer inception_4a/pool
I0403 17:55:13.637624  6288 net.cpp:91] Creating Layer inception_4a/pool
I0403 17:55:13.637641  6288 net.cpp:425] inception_4a/pool <- pool3/3x3_s2_pool3/3x3_s2_0_split_3
I0403 17:55:13.637662  6288 net.cpp:399] inception_4a/pool -> inception_4a/pool
I0403 17:55:13.637727  6288 net.cpp:141] Setting up inception_4a/pool
I0403 17:55:13.637751  6288 net.cpp:148] Top shape: 24 480 14 14 (2257920)
I0403 17:55:13.637768  6288 net.cpp:156] Memory required for data: 884503584
I0403 17:55:13.637783  6288 layer_factory.hpp:77] Creating layer inception_4a/pool_proj
I0403 17:55:13.637805  6288 net.cpp:91] Creating Layer inception_4a/pool_proj
I0403 17:55:13.637823  6288 net.cpp:425] inception_4a/pool_proj <- inception_4a/pool
I0403 17:55:13.637846  6288 net.cpp:399] inception_4a/pool_proj -> inception_4a/pool_proj
I0403 17:55:13.639086  6288 net.cpp:141] Setting up inception_4a/pool_proj
I0403 17:55:13.639119  6288 net.cpp:148] Top shape: 24 64 14 14 (301056)
I0403 17:55:13.639152  6288 net.cpp:156] Memory required for data: 885707808
I0403 17:55:13.639173  6288 layer_factory.hpp:77] Creating layer inception_4a/relu_pool_proj
I0403 17:55:13.639192  6288 net.cpp:91] Creating Layer inception_4a/relu_pool_proj
I0403 17:55:13.639215  6288 net.cpp:425] inception_4a/relu_pool_proj <- inception_4a/pool_proj
I0403 17:55:13.639236  6288 net.cpp:386] inception_4a/relu_pool_proj -> inception_4a/pool_proj (in-place)
I0403 17:55:13.639538  6288 net.cpp:141] Setting up inception_4a/relu_pool_proj
I0403 17:55:13.639567  6288 net.cpp:148] Top shape: 24 64 14 14 (301056)
I0403 17:55:13.639585  6288 net.cpp:156] Memory required for data: 886912032
I0403 17:55:13.639601  6288 layer_factory.hpp:77] Creating layer inception_4a/output
I0403 17:55:13.639619  6288 net.cpp:91] Creating Layer inception_4a/output
I0403 17:55:13.639637  6288 net.cpp:425] inception_4a/output <- inception_4a/1x1
I0403 17:55:13.639655  6288 net.cpp:425] inception_4a/output <- inception_4a/3x3
I0403 17:55:13.639677  6288 net.cpp:425] inception_4a/output <- inception_4a/5x5
I0403 17:55:13.639695  6288 net.cpp:425] inception_4a/output <- inception_4a/pool_proj
I0403 17:55:13.639721  6288 net.cpp:399] inception_4a/output -> inception_4a/output
I0403 17:55:13.639777  6288 net.cpp:141] Setting up inception_4a/output
I0403 17:55:13.639801  6288 net.cpp:148] Top shape: 24 512 14 14 (2408448)
I0403 17:55:13.639817  6288 net.cpp:156] Memory required for data: 896545824
I0403 17:55:13.639832  6288 layer_factory.hpp:77] Creating layer inception_4a/output_inception_4a/output_0_split
I0403 17:55:13.639853  6288 net.cpp:91] Creating Layer inception_4a/output_inception_4a/output_0_split
I0403 17:55:13.639869  6288 net.cpp:425] inception_4a/output_inception_4a/output_0_split <- inception_4a/output
I0403 17:55:13.639889  6288 net.cpp:399] inception_4a/output_inception_4a/output_0_split -> inception_4a/output_inception_4a/output_0_split_0
I0403 17:55:13.639909  6288 net.cpp:399] inception_4a/output_inception_4a/output_0_split -> inception_4a/output_inception_4a/output_0_split_1
I0403 17:55:13.639930  6288 net.cpp:399] inception_4a/output_inception_4a/output_0_split -> inception_4a/output_inception_4a/output_0_split_2
I0403 17:55:13.639951  6288 net.cpp:399] inception_4a/output_inception_4a/output_0_split -> inception_4a/output_inception_4a/output_0_split_3
I0403 17:55:13.639974  6288 net.cpp:399] inception_4a/output_inception_4a/output_0_split -> inception_4a/output_inception_4a/output_0_split_4
I0403 17:55:13.640074  6288 net.cpp:141] Setting up inception_4a/output_inception_4a/output_0_split
I0403 17:55:13.640100  6288 net.cpp:148] Top shape: 24 512 14 14 (2408448)
I0403 17:55:13.640116  6288 net.cpp:148] Top shape: 24 512 14 14 (2408448)
I0403 17:55:13.640132  6288 net.cpp:148] Top shape: 24 512 14 14 (2408448)
I0403 17:55:13.640149  6288 net.cpp:148] Top shape: 24 512 14 14 (2408448)
I0403 17:55:13.640166  6288 net.cpp:148] Top shape: 24 512 14 14 (2408448)
I0403 17:55:13.640180  6288 net.cpp:156] Memory required for data: 944714784
I0403 17:55:13.640197  6288 layer_factory.hpp:77] Creating layer loss1/ave_pool
I0403 17:55:13.640223  6288 net.cpp:91] Creating Layer loss1/ave_pool
I0403 17:55:13.640241  6288 net.cpp:425] loss1/ave_pool <- inception_4a/output_inception_4a/output_0_split_0
I0403 17:55:13.640262  6288 net.cpp:399] loss1/ave_pool -> loss1/ave_pool
I0403 17:55:13.640485  6288 net.cpp:141] Setting up loss1/ave_pool
I0403 17:55:13.640513  6288 net.cpp:148] Top shape: 24 512 4 4 (196608)
I0403 17:55:13.640529  6288 net.cpp:156] Memory required for data: 945501216
I0403 17:55:13.640547  6288 layer_factory.hpp:77] Creating layer loss1/conv
I0403 17:55:13.640566  6288 net.cpp:91] Creating Layer loss1/conv
I0403 17:55:13.640584  6288 net.cpp:425] loss1/conv <- loss1/ave_pool
I0403 17:55:13.640605  6288 net.cpp:399] loss1/conv -> loss1/conv
I0403 17:55:13.642098  6288 net.cpp:141] Setting up loss1/conv
I0403 17:55:13.642130  6288 net.cpp:148] Top shape: 24 128 4 4 (49152)
I0403 17:55:13.642161  6288 net.cpp:156] Memory required for data: 945697824
I0403 17:55:13.642184  6288 layer_factory.hpp:77] Creating layer loss1/relu_conv
I0403 17:55:13.642202  6288 net.cpp:91] Creating Layer loss1/relu_conv
I0403 17:55:13.642235  6288 net.cpp:425] loss1/relu_conv <- loss1/conv
I0403 17:55:13.642261  6288 net.cpp:386] loss1/relu_conv -> loss1/conv (in-place)
I0403 17:55:13.642562  6288 net.cpp:141] Setting up loss1/relu_conv
I0403 17:55:13.642593  6288 net.cpp:148] Top shape: 24 128 4 4 (49152)
I0403 17:55:13.642611  6288 net.cpp:156] Memory required for data: 945894432
I0403 17:55:13.642627  6288 layer_factory.hpp:77] Creating layer loss1/fc
I0403 17:55:13.642650  6288 net.cpp:91] Creating Layer loss1/fc
I0403 17:55:13.642669  6288 net.cpp:425] loss1/fc <- loss1/conv
I0403 17:55:13.642691  6288 net.cpp:399] loss1/fc -> loss1/fc
I0403 17:55:13.661273  6288 net.cpp:141] Setting up loss1/fc
I0403 17:55:13.661324  6288 net.cpp:148] Top shape: 24 1024 (24576)
I0403 17:55:13.661340  6288 net.cpp:156] Memory required for data: 945992736
I0403 17:55:13.661361  6288 layer_factory.hpp:77] Creating layer loss1/relu_fc
I0403 17:55:13.661383  6288 net.cpp:91] Creating Layer loss1/relu_fc
I0403 17:55:13.661401  6288 net.cpp:425] loss1/relu_fc <- loss1/fc
I0403 17:55:13.661420  6288 net.cpp:386] loss1/relu_fc -> loss1/fc (in-place)
I0403 17:55:13.661643  6288 net.cpp:141] Setting up loss1/relu_fc
I0403 17:55:13.661667  6288 net.cpp:148] Top shape: 24 1024 (24576)
I0403 17:55:13.661682  6288 net.cpp:156] Memory required for data: 946091040
I0403 17:55:13.661697  6288 layer_factory.hpp:77] Creating layer loss1/drop_fc
I0403 17:55:13.661726  6288 net.cpp:91] Creating Layer loss1/drop_fc
I0403 17:55:13.661746  6288 net.cpp:425] loss1/drop_fc <- loss1/fc
I0403 17:55:13.661766  6288 net.cpp:386] loss1/drop_fc -> loss1/fc (in-place)
I0403 17:55:13.661820  6288 net.cpp:141] Setting up loss1/drop_fc
I0403 17:55:13.661844  6288 net.cpp:148] Top shape: 24 1024 (24576)
I0403 17:55:13.661859  6288 net.cpp:156] Memory required for data: 946189344
I0403 17:55:13.661873  6288 layer_factory.hpp:77] Creating layer loss1/classifier_plantvillage
I0403 17:55:13.661898  6288 net.cpp:91] Creating Layer loss1/classifier_plantvillage
I0403 17:55:13.661916  6288 net.cpp:425] loss1/classifier_plantvillage <- loss1/fc
I0403 17:55:13.661936  6288 net.cpp:399] loss1/classifier_plantvillage -> loss1/classifier_plantvillage
I0403 17:55:13.662922  6288 net.cpp:141] Setting up loss1/classifier_plantvillage
I0403 17:55:13.662953  6288 net.cpp:148] Top shape: 24 38 (912)
I0403 17:55:13.662971  6288 net.cpp:156] Memory required for data: 946192992
I0403 17:55:13.662989  6288 layer_factory.hpp:77] Creating layer loss1/classifier_plantvillage_loss1/classifier_plantvillage_0_split
I0403 17:55:13.663008  6288 net.cpp:91] Creating Layer loss1/classifier_plantvillage_loss1/classifier_plantvillage_0_split
I0403 17:55:13.663024  6288 net.cpp:425] loss1/classifier_plantvillage_loss1/classifier_plantvillage_0_split <- loss1/classifier_plantvillage
I0403 17:55:13.663045  6288 net.cpp:399] loss1/classifier_plantvillage_loss1/classifier_plantvillage_0_split -> loss1/classifier_plantvillage_loss1/classifier_plantvillage_0_split_0
I0403 17:55:13.663067  6288 net.cpp:399] loss1/classifier_plantvillage_loss1/classifier_plantvillage_0_split -> loss1/classifier_plantvillage_loss1/classifier_plantvillage_0_split_1
I0403 17:55:13.663087  6288 net.cpp:399] loss1/classifier_plantvillage_loss1/classifier_plantvillage_0_split -> loss1/classifier_plantvillage_loss1/classifier_plantvillage_0_split_2
I0403 17:55:13.663154  6288 net.cpp:141] Setting up loss1/classifier_plantvillage_loss1/classifier_plantvillage_0_split
I0403 17:55:13.663178  6288 net.cpp:148] Top shape: 24 38 (912)
I0403 17:55:13.663194  6288 net.cpp:148] Top shape: 24 38 (912)
I0403 17:55:13.663216  6288 net.cpp:148] Top shape: 24 38 (912)
I0403 17:55:13.663233  6288 net.cpp:156] Memory required for data: 946203936
I0403 17:55:13.663249  6288 layer_factory.hpp:77] Creating layer inception_4b/1x1
I0403 17:55:13.663272  6288 net.cpp:91] Creating Layer inception_4b/1x1
I0403 17:55:13.663313  6288 net.cpp:425] inception_4b/1x1 <- inception_4a/output_inception_4a/output_0_split_1
I0403 17:55:13.663336  6288 net.cpp:399] inception_4b/1x1 -> inception_4b/1x1
I0403 17:55:13.665109  6288 net.cpp:141] Setting up inception_4b/1x1
I0403 17:55:13.665138  6288 net.cpp:148] Top shape: 24 160 14 14 (752640)
I0403 17:55:13.665154  6288 net.cpp:156] Memory required for data: 949214496
I0403 17:55:13.665174  6288 layer_factory.hpp:77] Creating layer inception_4b/relu_1x1
I0403 17:55:13.665192  6288 net.cpp:91] Creating Layer inception_4b/relu_1x1
I0403 17:55:13.665215  6288 net.cpp:425] inception_4b/relu_1x1 <- inception_4b/1x1
I0403 17:55:13.665237  6288 net.cpp:386] inception_4b/relu_1x1 -> inception_4b/1x1 (in-place)
I0403 17:55:13.665429  6288 net.cpp:141] Setting up inception_4b/relu_1x1
I0403 17:55:13.665457  6288 net.cpp:148] Top shape: 24 160 14 14 (752640)
I0403 17:55:13.665472  6288 net.cpp:156] Memory required for data: 952225056
I0403 17:55:13.665488  6288 layer_factory.hpp:77] Creating layer inception_4b/3x3_reduce
I0403 17:55:13.665513  6288 net.cpp:91] Creating Layer inception_4b/3x3_reduce
I0403 17:55:13.665530  6288 net.cpp:425] inception_4b/3x3_reduce <- inception_4a/output_inception_4a/output_0_split_2
I0403 17:55:13.665552  6288 net.cpp:399] inception_4b/3x3_reduce -> inception_4b/3x3_reduce
I0403 17:55:13.667001  6288 net.cpp:141] Setting up inception_4b/3x3_reduce
I0403 17:55:13.667031  6288 net.cpp:148] Top shape: 24 112 14 14 (526848)
I0403 17:55:13.667047  6288 net.cpp:156] Memory required for data: 954332448
I0403 17:55:13.667067  6288 layer_factory.hpp:77] Creating layer inception_4b/relu_3x3_reduce
I0403 17:55:13.667088  6288 net.cpp:91] Creating Layer inception_4b/relu_3x3_reduce
I0403 17:55:13.667106  6288 net.cpp:425] inception_4b/relu_3x3_reduce <- inception_4b/3x3_reduce
I0403 17:55:13.667124  6288 net.cpp:386] inception_4b/relu_3x3_reduce -> inception_4b/3x3_reduce (in-place)
I0403 17:55:13.667430  6288 net.cpp:141] Setting up inception_4b/relu_3x3_reduce
I0403 17:55:13.667464  6288 net.cpp:148] Top shape: 24 112 14 14 (526848)
I0403 17:55:13.667508  6288 net.cpp:156] Memory required for data: 956439840
I0403 17:55:13.667533  6288 layer_factory.hpp:77] Creating layer inception_4b/3x3
I0403 17:55:13.667573  6288 net.cpp:91] Creating Layer inception_4b/3x3
I0403 17:55:13.667601  6288 net.cpp:425] inception_4b/3x3 <- inception_4b/3x3_reduce
I0403 17:55:13.667632  6288 net.cpp:399] inception_4b/3x3 -> inception_4b/3x3
I0403 17:55:13.670824  6288 net.cpp:141] Setting up inception_4b/3x3
I0403 17:55:13.670856  6288 net.cpp:148] Top shape: 24 224 14 14 (1053696)
I0403 17:55:13.670873  6288 net.cpp:156] Memory required for data: 960654624
I0403 17:55:13.670893  6288 layer_factory.hpp:77] Creating layer inception_4b/relu_3x3
I0403 17:55:13.670912  6288 net.cpp:91] Creating Layer inception_4b/relu_3x3
I0403 17:55:13.670929  6288 net.cpp:425] inception_4b/relu_3x3 <- inception_4b/3x3
I0403 17:55:13.670953  6288 net.cpp:386] inception_4b/relu_3x3 -> inception_4b/3x3 (in-place)
I0403 17:55:13.671149  6288 net.cpp:141] Setting up inception_4b/relu_3x3
I0403 17:55:13.671175  6288 net.cpp:148] Top shape: 24 224 14 14 (1053696)
I0403 17:55:13.671190  6288 net.cpp:156] Memory required for data: 964869408
I0403 17:55:13.671213  6288 layer_factory.hpp:77] Creating layer inception_4b/5x5_reduce
I0403 17:55:13.671239  6288 net.cpp:91] Creating Layer inception_4b/5x5_reduce
I0403 17:55:13.671259  6288 net.cpp:425] inception_4b/5x5_reduce <- inception_4a/output_inception_4a/output_0_split_3
I0403 17:55:13.671283  6288 net.cpp:399] inception_4b/5x5_reduce -> inception_4b/5x5_reduce
I0403 17:55:13.672449  6288 net.cpp:141] Setting up inception_4b/5x5_reduce
I0403 17:55:13.672479  6288 net.cpp:148] Top shape: 24 24 14 14 (112896)
I0403 17:55:13.672495  6288 net.cpp:156] Memory required for data: 965320992
I0403 17:55:13.672514  6288 layer_factory.hpp:77] Creating layer inception_4b/relu_5x5_reduce
I0403 17:55:13.672534  6288 net.cpp:91] Creating Layer inception_4b/relu_5x5_reduce
I0403 17:55:13.672567  6288 net.cpp:425] inception_4b/relu_5x5_reduce <- inception_4b/5x5_reduce
I0403 17:55:13.672590  6288 net.cpp:386] inception_4b/relu_5x5_reduce -> inception_4b/5x5_reduce (in-place)
I0403 17:55:13.672787  6288 net.cpp:141] Setting up inception_4b/relu_5x5_reduce
I0403 17:55:13.672813  6288 net.cpp:148] Top shape: 24 24 14 14 (112896)
I0403 17:55:13.672828  6288 net.cpp:156] Memory required for data: 965772576
I0403 17:55:13.672844  6288 layer_factory.hpp:77] Creating layer inception_4b/5x5
I0403 17:55:13.672868  6288 net.cpp:91] Creating Layer inception_4b/5x5
I0403 17:55:13.672888  6288 net.cpp:425] inception_4b/5x5 <- inception_4b/5x5_reduce
I0403 17:55:13.672909  6288 net.cpp:399] inception_4b/5x5 -> inception_4b/5x5
I0403 17:55:13.674226  6288 net.cpp:141] Setting up inception_4b/5x5
I0403 17:55:13.674255  6288 net.cpp:148] Top shape: 24 64 14 14 (301056)
I0403 17:55:13.674271  6288 net.cpp:156] Memory required for data: 966976800
I0403 17:55:13.674291  6288 layer_factory.hpp:77] Creating layer inception_4b/relu_5x5
I0403 17:55:13.674310  6288 net.cpp:91] Creating Layer inception_4b/relu_5x5
I0403 17:55:13.674327  6288 net.cpp:425] inception_4b/relu_5x5 <- inception_4b/5x5
I0403 17:55:13.674350  6288 net.cpp:386] inception_4b/relu_5x5 -> inception_4b/5x5 (in-place)
I0403 17:55:13.674657  6288 net.cpp:141] Setting up inception_4b/relu_5x5
I0403 17:55:13.674685  6288 net.cpp:148] Top shape: 24 64 14 14 (301056)
I0403 17:55:13.674701  6288 net.cpp:156] Memory required for data: 968181024
I0403 17:55:13.674718  6288 layer_factory.hpp:77] Creating layer inception_4b/pool
I0403 17:55:13.674737  6288 net.cpp:91] Creating Layer inception_4b/pool
I0403 17:55:13.674756  6288 net.cpp:425] inception_4b/pool <- inception_4a/output_inception_4a/output_0_split_4
I0403 17:55:13.674777  6288 net.cpp:399] inception_4b/pool -> inception_4b/pool
I0403 17:55:13.674846  6288 net.cpp:141] Setting up inception_4b/pool
I0403 17:55:13.674875  6288 net.cpp:148] Top shape: 24 512 14 14 (2408448)
I0403 17:55:13.674891  6288 net.cpp:156] Memory required for data: 977814816
I0403 17:55:13.674907  6288 layer_factory.hpp:77] Creating layer inception_4b/pool_proj
I0403 17:55:13.674932  6288 net.cpp:91] Creating Layer inception_4b/pool_proj
I0403 17:55:13.674949  6288 net.cpp:425] inception_4b/pool_proj <- inception_4b/pool
I0403 17:55:13.674969  6288 net.cpp:399] inception_4b/pool_proj -> inception_4b/pool_proj
I0403 17:55:13.676259  6288 net.cpp:141] Setting up inception_4b/pool_proj
I0403 17:55:13.676287  6288 net.cpp:148] Top shape: 24 64 14 14 (301056)
I0403 17:55:13.676303  6288 net.cpp:156] Memory required for data: 979019040
I0403 17:55:13.676323  6288 layer_factory.hpp:77] Creating layer inception_4b/relu_pool_proj
I0403 17:55:13.676345  6288 net.cpp:91] Creating Layer inception_4b/relu_pool_proj
I0403 17:55:13.676363  6288 net.cpp:425] inception_4b/relu_pool_proj <- inception_4b/pool_proj
I0403 17:55:13.676381  6288 net.cpp:386] inception_4b/relu_pool_proj -> inception_4b/pool_proj (in-place)
I0403 17:55:13.676575  6288 net.cpp:141] Setting up inception_4b/relu_pool_proj
I0403 17:55:13.676602  6288 net.cpp:148] Top shape: 24 64 14 14 (301056)
I0403 17:55:13.676617  6288 net.cpp:156] Memory required for data: 980223264
I0403 17:55:13.676633  6288 layer_factory.hpp:77] Creating layer inception_4b/output
I0403 17:55:13.676654  6288 net.cpp:91] Creating Layer inception_4b/output
I0403 17:55:13.676672  6288 net.cpp:425] inception_4b/output <- inception_4b/1x1
I0403 17:55:13.676690  6288 net.cpp:425] inception_4b/output <- inception_4b/3x3
I0403 17:55:13.676707  6288 net.cpp:425] inception_4b/output <- inception_4b/5x5
I0403 17:55:13.676723  6288 net.cpp:425] inception_4b/output <- inception_4b/pool_proj
I0403 17:55:13.676741  6288 net.cpp:399] inception_4b/output -> inception_4b/output
I0403 17:55:13.676792  6288 net.cpp:141] Setting up inception_4b/output
I0403 17:55:13.676816  6288 net.cpp:148] Top shape: 24 512 14 14 (2408448)
I0403 17:55:13.676832  6288 net.cpp:156] Memory required for data: 989857056
I0403 17:55:13.676863  6288 layer_factory.hpp:77] Creating layer inception_4b/output_inception_4b/output_0_split
I0403 17:55:13.676882  6288 net.cpp:91] Creating Layer inception_4b/output_inception_4b/output_0_split
I0403 17:55:13.676899  6288 net.cpp:425] inception_4b/output_inception_4b/output_0_split <- inception_4b/output
I0403 17:55:13.676920  6288 net.cpp:399] inception_4b/output_inception_4b/output_0_split -> inception_4b/output_inception_4b/output_0_split_0
I0403 17:55:13.676942  6288 net.cpp:399] inception_4b/output_inception_4b/output_0_split -> inception_4b/output_inception_4b/output_0_split_1
I0403 17:55:13.676964  6288 net.cpp:399] inception_4b/output_inception_4b/output_0_split -> inception_4b/output_inception_4b/output_0_split_2
I0403 17:55:13.676992  6288 net.cpp:399] inception_4b/output_inception_4b/output_0_split -> inception_4b/output_inception_4b/output_0_split_3
I0403 17:55:13.677103  6288 net.cpp:141] Setting up inception_4b/output_inception_4b/output_0_split
I0403 17:55:13.677129  6288 net.cpp:148] Top shape: 24 512 14 14 (2408448)
I0403 17:55:13.677148  6288 net.cpp:148] Top shape: 24 512 14 14 (2408448)
I0403 17:55:13.677165  6288 net.cpp:148] Top shape: 24 512 14 14 (2408448)
I0403 17:55:13.677181  6288 net.cpp:148] Top shape: 24 512 14 14 (2408448)
I0403 17:55:13.677196  6288 net.cpp:156] Memory required for data: 1028392224
I0403 17:55:13.677219  6288 layer_factory.hpp:77] Creating layer inception_4c/1x1
I0403 17:55:13.677244  6288 net.cpp:91] Creating Layer inception_4c/1x1
I0403 17:55:13.677264  6288 net.cpp:425] inception_4c/1x1 <- inception_4b/output_inception_4b/output_0_split_0
I0403 17:55:13.677284  6288 net.cpp:399] inception_4c/1x1 -> inception_4c/1x1
I0403 17:55:13.678825  6288 net.cpp:141] Setting up inception_4c/1x1
I0403 17:55:13.678861  6288 net.cpp:148] Top shape: 24 128 14 14 (602112)
I0403 17:55:13.678884  6288 net.cpp:156] Memory required for data: 1030800672
I0403 17:55:13.678911  6288 layer_factory.hpp:77] Creating layer inception_4c/relu_1x1
I0403 17:55:13.678942  6288 net.cpp:91] Creating Layer inception_4c/relu_1x1
I0403 17:55:13.678961  6288 net.cpp:425] inception_4c/relu_1x1 <- inception_4c/1x1
I0403 17:55:13.678980  6288 net.cpp:386] inception_4c/relu_1x1 -> inception_4c/1x1 (in-place)
I0403 17:55:13.679173  6288 net.cpp:141] Setting up inception_4c/relu_1x1
I0403 17:55:13.679200  6288 net.cpp:148] Top shape: 24 128 14 14 (602112)
I0403 17:55:13.679224  6288 net.cpp:156] Memory required for data: 1033209120
I0403 17:55:13.679240  6288 layer_factory.hpp:77] Creating layer inception_4c/3x3_reduce
I0403 17:55:13.679265  6288 net.cpp:91] Creating Layer inception_4c/3x3_reduce
I0403 17:55:13.679283  6288 net.cpp:425] inception_4c/3x3_reduce <- inception_4b/output_inception_4b/output_0_split_1
I0403 17:55:13.679307  6288 net.cpp:399] inception_4c/3x3_reduce -> inception_4c/3x3_reduce
I0403 17:55:13.681391  6288 net.cpp:141] Setting up inception_4c/3x3_reduce
I0403 17:55:13.681421  6288 net.cpp:148] Top shape: 24 128 14 14 (602112)
I0403 17:55:13.681437  6288 net.cpp:156] Memory required for data: 1035617568
I0403 17:55:13.681457  6288 layer_factory.hpp:77] Creating layer inception_4c/relu_3x3_reduce
I0403 17:55:13.681475  6288 net.cpp:91] Creating Layer inception_4c/relu_3x3_reduce
I0403 17:55:13.681493  6288 net.cpp:425] inception_4c/relu_3x3_reduce <- inception_4c/3x3_reduce
I0403 17:55:13.681514  6288 net.cpp:386] inception_4c/relu_3x3_reduce -> inception_4c/3x3_reduce (in-place)
I0403 17:55:13.681819  6288 net.cpp:141] Setting up inception_4c/relu_3x3_reduce
I0403 17:55:13.681848  6288 net.cpp:148] Top shape: 24 128 14 14 (602112)
I0403 17:55:13.681864  6288 net.cpp:156] Memory required for data: 1038026016
I0403 17:55:13.681879  6288 layer_factory.hpp:77] Creating layer inception_4c/3x3
I0403 17:55:13.681903  6288 net.cpp:91] Creating Layer inception_4c/3x3
I0403 17:55:13.681923  6288 net.cpp:425] inception_4c/3x3 <- inception_4c/3x3_reduce
I0403 17:55:13.681946  6288 net.cpp:399] inception_4c/3x3 -> inception_4c/3x3
I0403 17:55:13.685739  6288 net.cpp:141] Setting up inception_4c/3x3
I0403 17:55:13.685781  6288 net.cpp:148] Top shape: 24 256 14 14 (1204224)
I0403 17:55:13.685798  6288 net.cpp:156] Memory required for data: 1042842912
I0403 17:55:13.685832  6288 layer_factory.hpp:77] Creating layer inception_4c/relu_3x3
I0403 17:55:13.685854  6288 net.cpp:91] Creating Layer inception_4c/relu_3x3
I0403 17:55:13.685871  6288 net.cpp:425] inception_4c/relu_3x3 <- inception_4c/3x3
I0403 17:55:13.685889  6288 net.cpp:386] inception_4c/relu_3x3 -> inception_4c/3x3 (in-place)
I0403 17:55:13.686089  6288 net.cpp:141] Setting up inception_4c/relu_3x3
I0403 17:55:13.686115  6288 net.cpp:148] Top shape: 24 256 14 14 (1204224)
I0403 17:55:13.686130  6288 net.cpp:156] Memory required for data: 1047659808
I0403 17:55:13.686146  6288 layer_factory.hpp:77] Creating layer inception_4c/5x5_reduce
I0403 17:55:13.686169  6288 net.cpp:91] Creating Layer inception_4c/5x5_reduce
I0403 17:55:13.686187  6288 net.cpp:425] inception_4c/5x5_reduce <- inception_4b/output_inception_4b/output_0_split_2
I0403 17:55:13.686215  6288 net.cpp:399] inception_4c/5x5_reduce -> inception_4c/5x5_reduce
I0403 17:55:13.687347  6288 net.cpp:141] Setting up inception_4c/5x5_reduce
I0403 17:55:13.687376  6288 net.cpp:148] Top shape: 24 24 14 14 (112896)
I0403 17:55:13.687391  6288 net.cpp:156] Memory required for data: 1048111392
I0403 17:55:13.687409  6288 layer_factory.hpp:77] Creating layer inception_4c/relu_5x5_reduce
I0403 17:55:13.687427  6288 net.cpp:91] Creating Layer inception_4c/relu_5x5_reduce
I0403 17:55:13.687443  6288 net.cpp:425] inception_4c/relu_5x5_reduce <- inception_4c/5x5_reduce
I0403 17:55:13.687463  6288 net.cpp:386] inception_4c/relu_5x5_reduce -> inception_4c/5x5_reduce (in-place)
I0403 17:55:13.687664  6288 net.cpp:141] Setting up inception_4c/relu_5x5_reduce
I0403 17:55:13.687690  6288 net.cpp:148] Top shape: 24 24 14 14 (112896)
I0403 17:55:13.687705  6288 net.cpp:156] Memory required for data: 1048562976
I0403 17:55:13.687721  6288 layer_factory.hpp:77] Creating layer inception_4c/5x5
I0403 17:55:13.687742  6288 net.cpp:91] Creating Layer inception_4c/5x5
I0403 17:55:13.687762  6288 net.cpp:425] inception_4c/5x5 <- inception_4c/5x5_reduce
I0403 17:55:13.687783  6288 net.cpp:399] inception_4c/5x5 -> inception_4c/5x5
I0403 17:55:13.689064  6288 net.cpp:141] Setting up inception_4c/5x5
I0403 17:55:13.689092  6288 net.cpp:148] Top shape: 24 64 14 14 (301056)
I0403 17:55:13.689108  6288 net.cpp:156] Memory required for data: 1049767200
I0403 17:55:13.689127  6288 layer_factory.hpp:77] Creating layer inception_4c/relu_5x5
I0403 17:55:13.689148  6288 net.cpp:91] Creating Layer inception_4c/relu_5x5
I0403 17:55:13.689167  6288 net.cpp:425] inception_4c/relu_5x5 <- inception_4c/5x5
I0403 17:55:13.689184  6288 net.cpp:386] inception_4c/relu_5x5 -> inception_4c/5x5 (in-place)
I0403 17:55:13.689492  6288 net.cpp:141] Setting up inception_4c/relu_5x5
I0403 17:55:13.689517  6288 net.cpp:148] Top shape: 24 64 14 14 (301056)
I0403 17:55:13.689532  6288 net.cpp:156] Memory required for data: 1050971424
I0403 17:55:13.689548  6288 layer_factory.hpp:77] Creating layer inception_4c/pool
I0403 17:55:13.689568  6288 net.cpp:91] Creating Layer inception_4c/pool
I0403 17:55:13.689586  6288 net.cpp:425] inception_4c/pool <- inception_4b/output_inception_4b/output_0_split_3
I0403 17:55:13.689604  6288 net.cpp:399] inception_4c/pool -> inception_4c/pool
I0403 17:55:13.689674  6288 net.cpp:141] Setting up inception_4c/pool
I0403 17:55:13.689698  6288 net.cpp:148] Top shape: 24 512 14 14 (2408448)
I0403 17:55:13.689713  6288 net.cpp:156] Memory required for data: 1060605216
I0403 17:55:13.689728  6288 layer_factory.hpp:77] Creating layer inception_4c/pool_proj
I0403 17:55:13.689750  6288 net.cpp:91] Creating Layer inception_4c/pool_proj
I0403 17:55:13.689766  6288 net.cpp:425] inception_4c/pool_proj <- inception_4c/pool
I0403 17:55:13.689787  6288 net.cpp:399] inception_4c/pool_proj -> inception_4c/pool_proj
I0403 17:55:13.691011  6288 net.cpp:141] Setting up inception_4c/pool_proj
I0403 17:55:13.691038  6288 net.cpp:148] Top shape: 24 64 14 14 (301056)
I0403 17:55:13.691067  6288 net.cpp:156] Memory required for data: 1061809440
I0403 17:55:13.691087  6288 layer_factory.hpp:77] Creating layer inception_4c/relu_pool_proj
I0403 17:55:13.691107  6288 net.cpp:91] Creating Layer inception_4c/relu_pool_proj
I0403 17:55:13.691124  6288 net.cpp:425] inception_4c/relu_pool_proj <- inception_4c/pool_proj
I0403 17:55:13.691141  6288 net.cpp:386] inception_4c/relu_pool_proj -> inception_4c/pool_proj (in-place)
I0403 17:55:13.691331  6288 net.cpp:141] Setting up inception_4c/relu_pool_proj
I0403 17:55:13.691357  6288 net.cpp:148] Top shape: 24 64 14 14 (301056)
I0403 17:55:13.691371  6288 net.cpp:156] Memory required for data: 1063013664
I0403 17:55:13.691387  6288 layer_factory.hpp:77] Creating layer inception_4c/output
I0403 17:55:13.691406  6288 net.cpp:91] Creating Layer inception_4c/output
I0403 17:55:13.691422  6288 net.cpp:425] inception_4c/output <- inception_4c/1x1
I0403 17:55:13.691439  6288 net.cpp:425] inception_4c/output <- inception_4c/3x3
I0403 17:55:13.691455  6288 net.cpp:425] inception_4c/output <- inception_4c/5x5
I0403 17:55:13.691471  6288 net.cpp:425] inception_4c/output <- inception_4c/pool_proj
I0403 17:55:13.691488  6288 net.cpp:399] inception_4c/output -> inception_4c/output
I0403 17:55:13.691537  6288 net.cpp:141] Setting up inception_4c/output
I0403 17:55:13.691560  6288 net.cpp:148] Top shape: 24 512 14 14 (2408448)
I0403 17:55:13.691575  6288 net.cpp:156] Memory required for data: 1072647456
I0403 17:55:13.691589  6288 layer_factory.hpp:77] Creating layer inception_4c/output_inception_4c/output_0_split
I0403 17:55:13.691606  6288 net.cpp:91] Creating Layer inception_4c/output_inception_4c/output_0_split
I0403 17:55:13.691622  6288 net.cpp:425] inception_4c/output_inception_4c/output_0_split <- inception_4c/output
I0403 17:55:13.691642  6288 net.cpp:399] inception_4c/output_inception_4c/output_0_split -> inception_4c/output_inception_4c/output_0_split_0
I0403 17:55:13.691663  6288 net.cpp:399] inception_4c/output_inception_4c/output_0_split -> inception_4c/output_inception_4c/output_0_split_1
I0403 17:55:13.691682  6288 net.cpp:399] inception_4c/output_inception_4c/output_0_split -> inception_4c/output_inception_4c/output_0_split_2
I0403 17:55:13.691702  6288 net.cpp:399] inception_4c/output_inception_4c/output_0_split -> inception_4c/output_inception_4c/output_0_split_3
I0403 17:55:13.691788  6288 net.cpp:141] Setting up inception_4c/output_inception_4c/output_0_split
I0403 17:55:13.691814  6288 net.cpp:148] Top shape: 24 512 14 14 (2408448)
I0403 17:55:13.691831  6288 net.cpp:148] Top shape: 24 512 14 14 (2408448)
I0403 17:55:13.691848  6288 net.cpp:148] Top shape: 24 512 14 14 (2408448)
I0403 17:55:13.691862  6288 net.cpp:148] Top shape: 24 512 14 14 (2408448)
I0403 17:55:13.691876  6288 net.cpp:156] Memory required for data: 1111182624
I0403 17:55:13.691891  6288 layer_factory.hpp:77] Creating layer inception_4d/1x1
I0403 17:55:13.691913  6288 net.cpp:91] Creating Layer inception_4d/1x1
I0403 17:55:13.691931  6288 net.cpp:425] inception_4d/1x1 <- inception_4c/output_inception_4c/output_0_split_0
I0403 17:55:13.691949  6288 net.cpp:399] inception_4d/1x1 -> inception_4d/1x1
I0403 17:55:13.693357  6288 net.cpp:141] Setting up inception_4d/1x1
I0403 17:55:13.693387  6288 net.cpp:148] Top shape: 24 112 14 14 (526848)
I0403 17:55:13.693403  6288 net.cpp:156] Memory required for data: 1113290016
I0403 17:55:13.693421  6288 layer_factory.hpp:77] Creating layer inception_4d/relu_1x1
I0403 17:55:13.693439  6288 net.cpp:91] Creating Layer inception_4d/relu_1x1
I0403 17:55:13.693455  6288 net.cpp:425] inception_4d/relu_1x1 <- inception_4d/1x1
I0403 17:55:13.693475  6288 net.cpp:386] inception_4d/relu_1x1 -> inception_4d/1x1 (in-place)
I0403 17:55:13.693662  6288 net.cpp:141] Setting up inception_4d/relu_1x1
I0403 17:55:13.693687  6288 net.cpp:148] Top shape: 24 112 14 14 (526848)
I0403 17:55:13.693702  6288 net.cpp:156] Memory required for data: 1115397408
I0403 17:55:13.693717  6288 layer_factory.hpp:77] Creating layer inception_4d/3x3_reduce
I0403 17:55:13.693753  6288 net.cpp:91] Creating Layer inception_4d/3x3_reduce
I0403 17:55:13.693773  6288 net.cpp:425] inception_4d/3x3_reduce <- inception_4c/output_inception_4c/output_0_split_1
I0403 17:55:13.693794  6288 net.cpp:399] inception_4d/3x3_reduce -> inception_4d/3x3_reduce
I0403 17:55:13.695325  6288 net.cpp:141] Setting up inception_4d/3x3_reduce
I0403 17:55:13.695351  6288 net.cpp:148] Top shape: 24 144 14 14 (677376)
I0403 17:55:13.695368  6288 net.cpp:156] Memory required for data: 1118106912
I0403 17:55:13.695386  6288 layer_factory.hpp:77] Creating layer inception_4d/relu_3x3_reduce
I0403 17:55:13.695407  6288 net.cpp:91] Creating Layer inception_4d/relu_3x3_reduce
I0403 17:55:13.695425  6288 net.cpp:425] inception_4d/relu_3x3_reduce <- inception_4d/3x3_reduce
I0403 17:55:13.695441  6288 net.cpp:386] inception_4d/relu_3x3_reduce -> inception_4d/3x3_reduce (in-place)
I0403 17:55:13.695749  6288 net.cpp:141] Setting up inception_4d/relu_3x3_reduce
I0403 17:55:13.695775  6288 net.cpp:148] Top shape: 24 144 14 14 (677376)
I0403 17:55:13.695791  6288 net.cpp:156] Memory required for data: 1120816416
I0403 17:55:13.695806  6288 layer_factory.hpp:77] Creating layer inception_4d/3x3
I0403 17:55:13.695829  6288 net.cpp:91] Creating Layer inception_4d/3x3
I0403 17:55:13.695847  6288 net.cpp:425] inception_4d/3x3 <- inception_4d/3x3_reduce
I0403 17:55:13.695870  6288 net.cpp:399] inception_4d/3x3 -> inception_4d/3x3
I0403 17:55:13.700366  6288 net.cpp:141] Setting up inception_4d/3x3
I0403 17:55:13.700397  6288 net.cpp:148] Top shape: 24 288 14 14 (1354752)
I0403 17:55:13.700412  6288 net.cpp:156] Memory required for data: 1126235424
I0403 17:55:13.700431  6288 layer_factory.hpp:77] Creating layer inception_4d/relu_3x3
I0403 17:55:13.700449  6288 net.cpp:91] Creating Layer inception_4d/relu_3x3
I0403 17:55:13.700467  6288 net.cpp:425] inception_4d/relu_3x3 <- inception_4d/3x3
I0403 17:55:13.700487  6288 net.cpp:386] inception_4d/relu_3x3 -> inception_4d/3x3 (in-place)
I0403 17:55:13.700683  6288 net.cpp:141] Setting up inception_4d/relu_3x3
I0403 17:55:13.700708  6288 net.cpp:148] Top shape: 24 288 14 14 (1354752)
I0403 17:55:13.700723  6288 net.cpp:156] Memory required for data: 1131654432
I0403 17:55:13.700738  6288 layer_factory.hpp:77] Creating layer inception_4d/5x5_reduce
I0403 17:55:13.700760  6288 net.cpp:91] Creating Layer inception_4d/5x5_reduce
I0403 17:55:13.700779  6288 net.cpp:425] inception_4d/5x5_reduce <- inception_4c/output_inception_4c/output_0_split_2
I0403 17:55:13.700803  6288 net.cpp:399] inception_4d/5x5_reduce -> inception_4d/5x5_reduce
I0403 17:55:13.701988  6288 net.cpp:141] Setting up inception_4d/5x5_reduce
I0403 17:55:13.702019  6288 net.cpp:148] Top shape: 24 32 14 14 (150528)
I0403 17:55:13.702035  6288 net.cpp:156] Memory required for data: 1132256544
I0403 17:55:13.702054  6288 layer_factory.hpp:77] Creating layer inception_4d/relu_5x5_reduce
I0403 17:55:13.702074  6288 net.cpp:91] Creating Layer inception_4d/relu_5x5_reduce
I0403 17:55:13.702090  6288 net.cpp:425] inception_4d/relu_5x5_reduce <- inception_4d/5x5_reduce
I0403 17:55:13.702111  6288 net.cpp:386] inception_4d/relu_5x5_reduce -> inception_4d/5x5_reduce (in-place)
I0403 17:55:13.702329  6288 net.cpp:141] Setting up inception_4d/relu_5x5_reduce
I0403 17:55:13.702356  6288 net.cpp:148] Top shape: 24 32 14 14 (150528)
I0403 17:55:13.702371  6288 net.cpp:156] Memory required for data: 1132858656
I0403 17:55:13.702388  6288 layer_factory.hpp:77] Creating layer inception_4d/5x5
I0403 17:55:13.702409  6288 net.cpp:91] Creating Layer inception_4d/5x5
I0403 17:55:13.702428  6288 net.cpp:425] inception_4d/5x5 <- inception_4d/5x5_reduce
I0403 17:55:13.702450  6288 net.cpp:399] inception_4d/5x5 -> inception_4d/5x5
I0403 17:55:13.703972  6288 net.cpp:141] Setting up inception_4d/5x5
I0403 17:55:13.704001  6288 net.cpp:148] Top shape: 24 64 14 14 (301056)
I0403 17:55:13.704017  6288 net.cpp:156] Memory required for data: 1134062880
I0403 17:55:13.704037  6288 layer_factory.hpp:77] Creating layer inception_4d/relu_5x5
I0403 17:55:13.704073  6288 net.cpp:91] Creating Layer inception_4d/relu_5x5
I0403 17:55:13.704092  6288 net.cpp:425] inception_4d/relu_5x5 <- inception_4d/5x5
I0403 17:55:13.704110  6288 net.cpp:386] inception_4d/relu_5x5 -> inception_4d/5x5 (in-place)
I0403 17:55:13.704426  6288 net.cpp:141] Setting up inception_4d/relu_5x5
I0403 17:55:13.704452  6288 net.cpp:148] Top shape: 24 64 14 14 (301056)
I0403 17:55:13.704468  6288 net.cpp:156] Memory required for data: 1135267104
I0403 17:55:13.704483  6288 layer_factory.hpp:77] Creating layer inception_4d/pool
I0403 17:55:13.704501  6288 net.cpp:91] Creating Layer inception_4d/pool
I0403 17:55:13.704517  6288 net.cpp:425] inception_4d/pool <- inception_4c/output_inception_4c/output_0_split_3
I0403 17:55:13.704538  6288 net.cpp:399] inception_4d/pool -> inception_4d/pool
I0403 17:55:13.704608  6288 net.cpp:141] Setting up inception_4d/pool
I0403 17:55:13.704633  6288 net.cpp:148] Top shape: 24 512 14 14 (2408448)
I0403 17:55:13.704648  6288 net.cpp:156] Memory required for data: 1144900896
I0403 17:55:13.704680  6288 layer_factory.hpp:77] Creating layer inception_4d/pool_proj
I0403 17:55:13.704705  6288 net.cpp:91] Creating Layer inception_4d/pool_proj
I0403 17:55:13.704725  6288 net.cpp:425] inception_4d/pool_proj <- inception_4d/pool
I0403 17:55:13.704746  6288 net.cpp:399] inception_4d/pool_proj -> inception_4d/pool_proj
I0403 17:55:13.706640  6288 net.cpp:141] Setting up inception_4d/pool_proj
I0403 17:55:13.706670  6288 net.cpp:148] Top shape: 24 64 14 14 (301056)
I0403 17:55:13.706687  6288 net.cpp:156] Memory required for data: 1146105120
I0403 17:55:13.706707  6288 layer_factory.hpp:77] Creating layer inception_4d/relu_pool_proj
I0403 17:55:13.706724  6288 net.cpp:91] Creating Layer inception_4d/relu_pool_proj
I0403 17:55:13.706740  6288 net.cpp:425] inception_4d/relu_pool_proj <- inception_4d/pool_proj
I0403 17:55:13.706760  6288 net.cpp:386] inception_4d/relu_pool_proj -> inception_4d/pool_proj (in-place)
I0403 17:55:13.706954  6288 net.cpp:141] Setting up inception_4d/relu_pool_proj
I0403 17:55:13.706979  6288 net.cpp:148] Top shape: 24 64 14 14 (301056)
I0403 17:55:13.706995  6288 net.cpp:156] Memory required for data: 1147309344
I0403 17:55:13.707010  6288 layer_factory.hpp:77] Creating layer inception_4d/output
I0403 17:55:13.707027  6288 net.cpp:91] Creating Layer inception_4d/output
I0403 17:55:13.707043  6288 net.cpp:425] inception_4d/output <- inception_4d/1x1
I0403 17:55:13.707062  6288 net.cpp:425] inception_4d/output <- inception_4d/3x3
I0403 17:55:13.707082  6288 net.cpp:425] inception_4d/output <- inception_4d/5x5
I0403 17:55:13.707098  6288 net.cpp:425] inception_4d/output <- inception_4d/pool_proj
I0403 17:55:13.707114  6288 net.cpp:399] inception_4d/output -> inception_4d/output
I0403 17:55:13.707164  6288 net.cpp:141] Setting up inception_4d/output
I0403 17:55:13.707190  6288 net.cpp:148] Top shape: 24 528 14 14 (2483712)
I0403 17:55:13.707206  6288 net.cpp:156] Memory required for data: 1157244192
I0403 17:55:13.707228  6288 layer_factory.hpp:77] Creating layer inception_4d/output_inception_4d/output_0_split
I0403 17:55:13.707248  6288 net.cpp:91] Creating Layer inception_4d/output_inception_4d/output_0_split
I0403 17:55:13.707264  6288 net.cpp:425] inception_4d/output_inception_4d/output_0_split <- inception_4d/output
I0403 17:55:13.707285  6288 net.cpp:399] inception_4d/output_inception_4d/output_0_split -> inception_4d/output_inception_4d/output_0_split_0
I0403 17:55:13.707307  6288 net.cpp:399] inception_4d/output_inception_4d/output_0_split -> inception_4d/output_inception_4d/output_0_split_1
I0403 17:55:13.707329  6288 net.cpp:399] inception_4d/output_inception_4d/output_0_split -> inception_4d/output_inception_4d/output_0_split_2
I0403 17:55:13.707350  6288 net.cpp:399] inception_4d/output_inception_4d/output_0_split -> inception_4d/output_inception_4d/output_0_split_3
I0403 17:55:13.707370  6288 net.cpp:399] inception_4d/output_inception_4d/output_0_split -> inception_4d/output_inception_4d/output_0_split_4
I0403 17:55:13.707478  6288 net.cpp:141] Setting up inception_4d/output_inception_4d/output_0_split
I0403 17:55:13.707515  6288 net.cpp:148] Top shape: 24 528 14 14 (2483712)
I0403 17:55:13.707535  6288 net.cpp:148] Top shape: 24 528 14 14 (2483712)
I0403 17:55:13.707552  6288 net.cpp:148] Top shape: 24 528 14 14 (2483712)
I0403 17:55:13.707568  6288 net.cpp:148] Top shape: 24 528 14 14 (2483712)
I0403 17:55:13.707584  6288 net.cpp:148] Top shape: 24 528 14 14 (2483712)
I0403 17:55:13.707599  6288 net.cpp:156] Memory required for data: 1206918432
I0403 17:55:13.707614  6288 layer_factory.hpp:77] Creating layer loss2/ave_pool
I0403 17:55:13.707631  6288 net.cpp:91] Creating Layer loss2/ave_pool
I0403 17:55:13.707648  6288 net.cpp:425] loss2/ave_pool <- inception_4d/output_inception_4d/output_0_split_0
I0403 17:55:13.707670  6288 net.cpp:399] loss2/ave_pool -> loss2/ave_pool
I0403 17:55:13.707993  6288 net.cpp:141] Setting up loss2/ave_pool
I0403 17:55:13.708019  6288 net.cpp:148] Top shape: 24 528 4 4 (202752)
I0403 17:55:13.708034  6288 net.cpp:156] Memory required for data: 1207729440
I0403 17:55:13.708050  6288 layer_factory.hpp:77] Creating layer loss2/conv
I0403 17:55:13.708072  6288 net.cpp:91] Creating Layer loss2/conv
I0403 17:55:13.708091  6288 net.cpp:425] loss2/conv <- loss2/ave_pool
I0403 17:55:13.708112  6288 net.cpp:399] loss2/conv -> loss2/conv
I0403 17:55:13.710095  6288 net.cpp:141] Setting up loss2/conv
I0403 17:55:13.710124  6288 net.cpp:148] Top shape: 24 128 4 4 (49152)
I0403 17:55:13.710141  6288 net.cpp:156] Memory required for data: 1207926048
I0403 17:55:13.710160  6288 layer_factory.hpp:77] Creating layer loss2/relu_conv
I0403 17:55:13.710181  6288 net.cpp:91] Creating Layer loss2/relu_conv
I0403 17:55:13.710199  6288 net.cpp:425] loss2/relu_conv <- loss2/conv
I0403 17:55:13.710224  6288 net.cpp:386] loss2/relu_conv -> loss2/conv (in-place)
I0403 17:55:13.710525  6288 net.cpp:141] Setting up loss2/relu_conv
I0403 17:55:13.710551  6288 net.cpp:148] Top shape: 24 128 4 4 (49152)
I0403 17:55:13.710566  6288 net.cpp:156] Memory required for data: 1208122656
I0403 17:55:13.710582  6288 layer_factory.hpp:77] Creating layer loss2/fc
I0403 17:55:13.710604  6288 net.cpp:91] Creating Layer loss2/fc
I0403 17:55:13.710623  6288 net.cpp:425] loss2/fc <- loss2/conv
I0403 17:55:13.710643  6288 net.cpp:399] loss2/fc -> loss2/fc
I0403 17:55:13.728782  6288 net.cpp:141] Setting up loss2/fc
I0403 17:55:13.728816  6288 net.cpp:148] Top shape: 24 1024 (24576)
I0403 17:55:13.728832  6288 net.cpp:156] Memory required for data: 1208220960
I0403 17:55:13.728852  6288 layer_factory.hpp:77] Creating layer loss2/relu_fc
I0403 17:55:13.728871  6288 net.cpp:91] Creating Layer loss2/relu_fc
I0403 17:55:13.728888  6288 net.cpp:425] loss2/relu_fc <- loss2/fc
I0403 17:55:13.728909  6288 net.cpp:386] loss2/relu_fc -> loss2/fc (in-place)
I0403 17:55:13.729243  6288 net.cpp:141] Setting up loss2/relu_fc
I0403 17:55:13.729270  6288 net.cpp:148] Top shape: 24 1024 (24576)
I0403 17:55:13.729286  6288 net.cpp:156] Memory required for data: 1208319264
I0403 17:55:13.729301  6288 layer_factory.hpp:77] Creating layer loss2/drop_fc
I0403 17:55:13.729321  6288 net.cpp:91] Creating Layer loss2/drop_fc
I0403 17:55:13.729337  6288 net.cpp:425] loss2/drop_fc <- loss2/fc
I0403 17:55:13.729357  6288 net.cpp:386] loss2/drop_fc -> loss2/fc (in-place)
I0403 17:55:13.729408  6288 net.cpp:141] Setting up loss2/drop_fc
I0403 17:55:13.729432  6288 net.cpp:148] Top shape: 24 1024 (24576)
I0403 17:55:13.729447  6288 net.cpp:156] Memory required for data: 1208417568
I0403 17:55:13.729463  6288 layer_factory.hpp:77] Creating layer loss2/classifier_plantvillage
I0403 17:55:13.729485  6288 net.cpp:91] Creating Layer loss2/classifier_plantvillage
I0403 17:55:13.729503  6288 net.cpp:425] loss2/classifier_plantvillage <- loss2/fc
I0403 17:55:13.729526  6288 net.cpp:399] loss2/classifier_plantvillage -> loss2/classifier_plantvillage
I0403 17:55:13.729941  6288 net.cpp:141] Setting up loss2/classifier_plantvillage
I0403 17:55:13.729969  6288 net.cpp:148] Top shape: 24 38 (912)
I0403 17:55:13.730005  6288 net.cpp:156] Memory required for data: 1208421216
I0403 17:55:13.730026  6288 layer_factory.hpp:77] Creating layer loss2/classifier_plantvillage_loss2/classifier_plantvillage_0_split
I0403 17:55:13.730044  6288 net.cpp:91] Creating Layer loss2/classifier_plantvillage_loss2/classifier_plantvillage_0_split
I0403 17:55:13.730060  6288 net.cpp:425] loss2/classifier_plantvillage_loss2/classifier_plantvillage_0_split <- loss2/classifier_plantvillage
I0403 17:55:13.730079  6288 net.cpp:399] loss2/classifier_plantvillage_loss2/classifier_plantvillage_0_split -> loss2/classifier_plantvillage_loss2/classifier_plantvillage_0_split_0
I0403 17:55:13.730100  6288 net.cpp:399] loss2/classifier_plantvillage_loss2/classifier_plantvillage_0_split -> loss2/classifier_plantvillage_loss2/classifier_plantvillage_0_split_1
I0403 17:55:13.730123  6288 net.cpp:399] loss2/classifier_plantvillage_loss2/classifier_plantvillage_0_split -> loss2/classifier_plantvillage_loss2/classifier_plantvillage_0_split_2
I0403 17:55:13.730203  6288 net.cpp:141] Setting up loss2/classifier_plantvillage_loss2/classifier_plantvillage_0_split
I0403 17:55:13.730235  6288 net.cpp:148] Top shape: 24 38 (912)
I0403 17:55:13.730253  6288 net.cpp:148] Top shape: 24 38 (912)
I0403 17:55:13.730269  6288 net.cpp:148] Top shape: 24 38 (912)
I0403 17:55:13.730284  6288 net.cpp:156] Memory required for data: 1208432160
I0403 17:55:13.730300  6288 layer_factory.hpp:77] Creating layer inception_4e/1x1
I0403 17:55:13.730321  6288 net.cpp:91] Creating Layer inception_4e/1x1
I0403 17:55:13.730340  6288 net.cpp:425] inception_4e/1x1 <- inception_4d/output_inception_4d/output_0_split_1
I0403 17:55:13.730361  6288 net.cpp:399] inception_4e/1x1 -> inception_4e/1x1
I0403 17:55:13.732277  6288 net.cpp:141] Setting up inception_4e/1x1
I0403 17:55:13.732311  6288 net.cpp:148] Top shape: 24 256 14 14 (1204224)
I0403 17:55:13.732332  6288 net.cpp:156] Memory required for data: 1213249056
I0403 17:55:13.732358  6288 layer_factory.hpp:77] Creating layer inception_4e/relu_1x1
I0403 17:55:13.732388  6288 net.cpp:91] Creating Layer inception_4e/relu_1x1
I0403 17:55:13.732405  6288 net.cpp:425] inception_4e/relu_1x1 <- inception_4e/1x1
I0403 17:55:13.732424  6288 net.cpp:386] inception_4e/relu_1x1 -> inception_4e/1x1 (in-place)
I0403 17:55:13.732733  6288 net.cpp:141] Setting up inception_4e/relu_1x1
I0403 17:55:13.732759  6288 net.cpp:148] Top shape: 24 256 14 14 (1204224)
I0403 17:55:13.732774  6288 net.cpp:156] Memory required for data: 1218065952
I0403 17:55:13.732790  6288 layer_factory.hpp:77] Creating layer inception_4e/3x3_reduce
I0403 17:55:13.732813  6288 net.cpp:91] Creating Layer inception_4e/3x3_reduce
I0403 17:55:13.732832  6288 net.cpp:425] inception_4e/3x3_reduce <- inception_4d/output_inception_4d/output_0_split_2
I0403 17:55:13.732854  6288 net.cpp:399] inception_4e/3x3_reduce -> inception_4e/3x3_reduce
I0403 17:55:13.735069  6288 net.cpp:141] Setting up inception_4e/3x3_reduce
I0403 17:55:13.735100  6288 net.cpp:148] Top shape: 24 160 14 14 (752640)
I0403 17:55:13.735116  6288 net.cpp:156] Memory required for data: 1221076512
I0403 17:55:13.735136  6288 layer_factory.hpp:77] Creating layer inception_4e/relu_3x3_reduce
I0403 17:55:13.735157  6288 net.cpp:91] Creating Layer inception_4e/relu_3x3_reduce
I0403 17:55:13.735174  6288 net.cpp:425] inception_4e/relu_3x3_reduce <- inception_4e/3x3_reduce
I0403 17:55:13.735193  6288 net.cpp:386] inception_4e/relu_3x3_reduce -> inception_4e/3x3_reduce (in-place)
I0403 17:55:13.735393  6288 net.cpp:141] Setting up inception_4e/relu_3x3_reduce
I0403 17:55:13.735419  6288 net.cpp:148] Top shape: 24 160 14 14 (752640)
I0403 17:55:13.735433  6288 net.cpp:156] Memory required for data: 1224087072
I0403 17:55:13.735448  6288 layer_factory.hpp:77] Creating layer inception_4e/3x3
I0403 17:55:13.735472  6288 net.cpp:91] Creating Layer inception_4e/3x3
I0403 17:55:13.735491  6288 net.cpp:425] inception_4e/3x3 <- inception_4e/3x3_reduce
I0403 17:55:13.735510  6288 net.cpp:399] inception_4e/3x3 -> inception_4e/3x3
I0403 17:55:13.740708  6288 net.cpp:141] Setting up inception_4e/3x3
I0403 17:55:13.740752  6288 net.cpp:148] Top shape: 24 320 14 14 (1505280)
I0403 17:55:13.740768  6288 net.cpp:156] Memory required for data: 1230108192
I0403 17:55:13.740788  6288 layer_factory.hpp:77] Creating layer inception_4e/relu_3x3
I0403 17:55:13.740809  6288 net.cpp:91] Creating Layer inception_4e/relu_3x3
I0403 17:55:13.740828  6288 net.cpp:425] inception_4e/relu_3x3 <- inception_4e/3x3
I0403 17:55:13.740845  6288 net.cpp:386] inception_4e/relu_3x3 -> inception_4e/3x3 (in-place)
I0403 17:55:13.741163  6288 net.cpp:141] Setting up inception_4e/relu_3x3
I0403 17:55:13.741191  6288 net.cpp:148] Top shape: 24 320 14 14 (1505280)
I0403 17:55:13.741214  6288 net.cpp:156] Memory required for data: 1236129312
I0403 17:55:13.741232  6288 layer_factory.hpp:77] Creating layer inception_4e/5x5_reduce
I0403 17:55:13.741258  6288 net.cpp:91] Creating Layer inception_4e/5x5_reduce
I0403 17:55:13.741276  6288 net.cpp:425] inception_4e/5x5_reduce <- inception_4d/output_inception_4d/output_0_split_3
I0403 17:55:13.741297  6288 net.cpp:399] inception_4e/5x5_reduce -> inception_4e/5x5_reduce
I0403 17:55:13.742429  6288 net.cpp:141] Setting up inception_4e/5x5_reduce
I0403 17:55:13.742458  6288 net.cpp:148] Top shape: 24 32 14 14 (150528)
I0403 17:55:13.742475  6288 net.cpp:156] Memory required for data: 1236731424
I0403 17:55:13.742493  6288 layer_factory.hpp:77] Creating layer inception_4e/relu_5x5_reduce
I0403 17:55:13.742516  6288 net.cpp:91] Creating Layer inception_4e/relu_5x5_reduce
I0403 17:55:13.742533  6288 net.cpp:425] inception_4e/relu_5x5_reduce <- inception_4e/5x5_reduce
I0403 17:55:13.742552  6288 net.cpp:386] inception_4e/relu_5x5_reduce -> inception_4e/5x5_reduce (in-place)
I0403 17:55:13.742857  6288 net.cpp:141] Setting up inception_4e/relu_5x5_reduce
I0403 17:55:13.742892  6288 net.cpp:148] Top shape: 24 32 14 14 (150528)
I0403 17:55:13.742910  6288 net.cpp:156] Memory required for data: 1237333536
I0403 17:55:13.742926  6288 layer_factory.hpp:77] Creating layer inception_4e/5x5
I0403 17:55:13.742967  6288 net.cpp:91] Creating Layer inception_4e/5x5
I0403 17:55:13.742987  6288 net.cpp:425] inception_4e/5x5 <- inception_4e/5x5_reduce
I0403 17:55:13.743007  6288 net.cpp:399] inception_4e/5x5 -> inception_4e/5x5
I0403 17:55:13.744940  6288 net.cpp:141] Setting up inception_4e/5x5
I0403 17:55:13.744967  6288 net.cpp:148] Top shape: 24 128 14 14 (602112)
I0403 17:55:13.744983  6288 net.cpp:156] Memory required for data: 1239741984
I0403 17:55:13.745003  6288 layer_factory.hpp:77] Creating layer inception_4e/relu_5x5
I0403 17:55:13.745021  6288 net.cpp:91] Creating Layer inception_4e/relu_5x5
I0403 17:55:13.745038  6288 net.cpp:425] inception_4e/relu_5x5 <- inception_4e/5x5
I0403 17:55:13.745059  6288 net.cpp:386] inception_4e/relu_5x5 -> inception_4e/5x5 (in-place)
I0403 17:55:13.745270  6288 net.cpp:141] Setting up inception_4e/relu_5x5
I0403 17:55:13.745296  6288 net.cpp:148] Top shape: 24 128 14 14 (602112)
I0403 17:55:13.745311  6288 net.cpp:156] Memory required for data: 1242150432
I0403 17:55:13.745326  6288 layer_factory.hpp:77] Creating layer inception_4e/pool
I0403 17:55:13.745348  6288 net.cpp:91] Creating Layer inception_4e/pool
I0403 17:55:13.745365  6288 net.cpp:425] inception_4e/pool <- inception_4d/output_inception_4d/output_0_split_4
I0403 17:55:13.745383  6288 net.cpp:399] inception_4e/pool -> inception_4e/pool
I0403 17:55:13.745458  6288 net.cpp:141] Setting up inception_4e/pool
I0403 17:55:13.745482  6288 net.cpp:148] Top shape: 24 528 14 14 (2483712)
I0403 17:55:13.745497  6288 net.cpp:156] Memory required for data: 1252085280
I0403 17:55:13.745513  6288 layer_factory.hpp:77] Creating layer inception_4e/pool_proj
I0403 17:55:13.745537  6288 net.cpp:91] Creating Layer inception_4e/pool_proj
I0403 17:55:13.745554  6288 net.cpp:425] inception_4e/pool_proj <- inception_4e/pool
I0403 17:55:13.745575  6288 net.cpp:399] inception_4e/pool_proj -> inception_4e/pool_proj
I0403 17:55:13.747139  6288 net.cpp:141] Setting up inception_4e/pool_proj
I0403 17:55:13.747179  6288 net.cpp:148] Top shape: 24 128 14 14 (602112)
I0403 17:55:13.747196  6288 net.cpp:156] Memory required for data: 1254493728
I0403 17:55:13.747222  6288 layer_factory.hpp:77] Creating layer inception_4e/relu_pool_proj
I0403 17:55:13.747243  6288 net.cpp:91] Creating Layer inception_4e/relu_pool_proj
I0403 17:55:13.747262  6288 net.cpp:425] inception_4e/relu_pool_proj <- inception_4e/pool_proj
I0403 17:55:13.747282  6288 net.cpp:386] inception_4e/relu_pool_proj -> inception_4e/pool_proj (in-place)
I0403 17:55:13.747587  6288 net.cpp:141] Setting up inception_4e/relu_pool_proj
I0403 17:55:13.747614  6288 net.cpp:148] Top shape: 24 128 14 14 (602112)
I0403 17:55:13.747630  6288 net.cpp:156] Memory required for data: 1256902176
I0403 17:55:13.747647  6288 layer_factory.hpp:77] Creating layer inception_4e/output
I0403 17:55:13.747664  6288 net.cpp:91] Creating Layer inception_4e/output
I0403 17:55:13.747680  6288 net.cpp:425] inception_4e/output <- inception_4e/1x1
I0403 17:55:13.747697  6288 net.cpp:425] inception_4e/output <- inception_4e/3x3
I0403 17:55:13.747714  6288 net.cpp:425] inception_4e/output <- inception_4e/5x5
I0403 17:55:13.747730  6288 net.cpp:425] inception_4e/output <- inception_4e/pool_proj
I0403 17:55:13.747750  6288 net.cpp:399] inception_4e/output -> inception_4e/output
I0403 17:55:13.747802  6288 net.cpp:141] Setting up inception_4e/output
I0403 17:55:13.747827  6288 net.cpp:148] Top shape: 24 832 14 14 (3913728)
I0403 17:55:13.747845  6288 net.cpp:156] Memory required for data: 1272557088
I0403 17:55:13.747860  6288 layer_factory.hpp:77] Creating layer pool4/3x3_s2
I0403 17:55:13.747879  6288 net.cpp:91] Creating Layer pool4/3x3_s2
I0403 17:55:13.747895  6288 net.cpp:425] pool4/3x3_s2 <- inception_4e/output
I0403 17:55:13.747915  6288 net.cpp:399] pool4/3x3_s2 -> pool4/3x3_s2
I0403 17:55:13.747984  6288 net.cpp:141] Setting up pool4/3x3_s2
I0403 17:55:13.748008  6288 net.cpp:148] Top shape: 24 832 7 7 (978432)
I0403 17:55:13.748023  6288 net.cpp:156] Memory required for data: 1276470816
I0403 17:55:13.748039  6288 layer_factory.hpp:77] Creating layer pool4/3x3_s2_pool4/3x3_s2_0_split
I0403 17:55:13.748056  6288 net.cpp:91] Creating Layer pool4/3x3_s2_pool4/3x3_s2_0_split
I0403 17:55:13.748072  6288 net.cpp:425] pool4/3x3_s2_pool4/3x3_s2_0_split <- pool4/3x3_s2
I0403 17:55:13.748093  6288 net.cpp:399] pool4/3x3_s2_pool4/3x3_s2_0_split -> pool4/3x3_s2_pool4/3x3_s2_0_split_0
I0403 17:55:13.748116  6288 net.cpp:399] pool4/3x3_s2_pool4/3x3_s2_0_split -> pool4/3x3_s2_pool4/3x3_s2_0_split_1
I0403 17:55:13.748136  6288 net.cpp:399] pool4/3x3_s2_pool4/3x3_s2_0_split -> pool4/3x3_s2_pool4/3x3_s2_0_split_2
I0403 17:55:13.748154  6288 net.cpp:399] pool4/3x3_s2_pool4/3x3_s2_0_split -> pool4/3x3_s2_pool4/3x3_s2_0_split_3
I0403 17:55:13.748276  6288 net.cpp:141] Setting up pool4/3x3_s2_pool4/3x3_s2_0_split
I0403 17:55:13.748302  6288 net.cpp:148] Top shape: 24 832 7 7 (978432)
I0403 17:55:13.748320  6288 net.cpp:148] Top shape: 24 832 7 7 (978432)
I0403 17:55:13.748337  6288 net.cpp:148] Top shape: 24 832 7 7 (978432)
I0403 17:55:13.748354  6288 net.cpp:148] Top shape: 24 832 7 7 (978432)
I0403 17:55:13.748369  6288 net.cpp:156] Memory required for data: 1292125728
I0403 17:55:13.748385  6288 layer_factory.hpp:77] Creating layer inception_5a/1x1
I0403 17:55:13.748409  6288 net.cpp:91] Creating Layer inception_5a/1x1
I0403 17:55:13.748430  6288 net.cpp:425] inception_5a/1x1 <- pool4/3x3_s2_pool4/3x3_s2_0_split_0
I0403 17:55:13.748451  6288 net.cpp:399] inception_5a/1x1 -> inception_5a/1x1
I0403 17:55:13.751505  6288 net.cpp:141] Setting up inception_5a/1x1
I0403 17:55:13.751536  6288 net.cpp:148] Top shape: 24 256 7 7 (301056)
I0403 17:55:13.751554  6288 net.cpp:156] Memory required for data: 1293329952
I0403 17:55:13.751574  6288 layer_factory.hpp:77] Creating layer inception_5a/relu_1x1
I0403 17:55:13.751595  6288 net.cpp:91] Creating Layer inception_5a/relu_1x1
I0403 17:55:13.751612  6288 net.cpp:425] inception_5a/relu_1x1 <- inception_5a/1x1
I0403 17:55:13.751631  6288 net.cpp:386] inception_5a/relu_1x1 -> inception_5a/1x1 (in-place)
I0403 17:55:13.751965  6288 net.cpp:141] Setting up inception_5a/relu_1x1
I0403 17:55:13.751992  6288 net.cpp:148] Top shape: 24 256 7 7 (301056)
I0403 17:55:13.752008  6288 net.cpp:156] Memory required for data: 1294534176
I0403 17:55:13.752024  6288 layer_factory.hpp:77] Creating layer inception_5a/3x3_reduce
I0403 17:55:13.752049  6288 net.cpp:91] Creating Layer inception_5a/3x3_reduce
I0403 17:55:13.752068  6288 net.cpp:425] inception_5a/3x3_reduce <- pool4/3x3_s2_pool4/3x3_s2_0_split_1
I0403 17:55:13.752090  6288 net.cpp:399] inception_5a/3x3_reduce -> inception_5a/3x3_reduce
I0403 17:55:13.754729  6288 net.cpp:141] Setting up inception_5a/3x3_reduce
I0403 17:55:13.754761  6288 net.cpp:148] Top shape: 24 160 7 7 (188160)
I0403 17:55:13.754779  6288 net.cpp:156] Memory required for data: 1295286816
I0403 17:55:13.754799  6288 layer_factory.hpp:77] Creating layer inception_5a/relu_3x3_reduce
I0403 17:55:13.754818  6288 net.cpp:91] Creating Layer inception_5a/relu_3x3_reduce
I0403 17:55:13.754835  6288 net.cpp:425] inception_5a/relu_3x3_reduce <- inception_5a/3x3_reduce
I0403 17:55:13.754854  6288 net.cpp:386] inception_5a/relu_3x3_reduce -> inception_5a/3x3_reduce (in-place)
I0403 17:55:13.755058  6288 net.cpp:141] Setting up inception_5a/relu_3x3_reduce
I0403 17:55:13.755084  6288 net.cpp:148] Top shape: 24 160 7 7 (188160)
I0403 17:55:13.755100  6288 net.cpp:156] Memory required for data: 1296039456
I0403 17:55:13.755116  6288 layer_factory.hpp:77] Creating layer inception_5a/3x3
I0403 17:55:13.755141  6288 net.cpp:91] Creating Layer inception_5a/3x3
I0403 17:55:13.755161  6288 net.cpp:425] inception_5a/3x3 <- inception_5a/3x3_reduce
I0403 17:55:13.755184  6288 net.cpp:399] inception_5a/3x3 -> inception_5a/3x3
I0403 17:55:13.760551  6288 net.cpp:141] Setting up inception_5a/3x3
I0403 17:55:13.760582  6288 net.cpp:148] Top shape: 24 320 7 7 (376320)
I0403 17:55:13.760599  6288 net.cpp:156] Memory required for data: 1297544736
I0403 17:55:13.760619  6288 layer_factory.hpp:77] Creating layer inception_5a/relu_3x3
I0403 17:55:13.760638  6288 net.cpp:91] Creating Layer inception_5a/relu_3x3
I0403 17:55:13.760656  6288 net.cpp:425] inception_5a/relu_3x3 <- inception_5a/3x3
I0403 17:55:13.760678  6288 net.cpp:386] inception_5a/relu_3x3 -> inception_5a/3x3 (in-place)
I0403 17:55:13.760992  6288 net.cpp:141] Setting up inception_5a/relu_3x3
I0403 17:55:13.761019  6288 net.cpp:148] Top shape: 24 320 7 7 (376320)
I0403 17:55:13.761035  6288 net.cpp:156] Memory required for data: 1299050016
I0403 17:55:13.761052  6288 layer_factory.hpp:77] Creating layer inception_5a/5x5_reduce
I0403 17:55:13.761076  6288 net.cpp:91] Creating Layer inception_5a/5x5_reduce
I0403 17:55:13.761096  6288 net.cpp:425] inception_5a/5x5_reduce <- pool4/3x3_s2_pool4/3x3_s2_0_split_2
I0403 17:55:13.761119  6288 net.cpp:399] inception_5a/5x5_reduce -> inception_5a/5x5_reduce
I0403 17:55:13.762394  6288 net.cpp:141] Setting up inception_5a/5x5_reduce
I0403 17:55:13.762424  6288 net.cpp:148] Top shape: 24 32 7 7 (37632)
I0403 17:55:13.762441  6288 net.cpp:156] Memory required for data: 1299200544
I0403 17:55:13.762461  6288 layer_factory.hpp:77] Creating layer inception_5a/relu_5x5_reduce
I0403 17:55:13.762482  6288 net.cpp:91] Creating Layer inception_5a/relu_5x5_reduce
I0403 17:55:13.762501  6288 net.cpp:425] inception_5a/relu_5x5_reduce <- inception_5a/5x5_reduce
I0403 17:55:13.762518  6288 net.cpp:386] inception_5a/relu_5x5_reduce -> inception_5a/5x5_reduce (in-place)
I0403 17:55:13.762841  6288 net.cpp:141] Setting up inception_5a/relu_5x5_reduce
I0403 17:55:13.762868  6288 net.cpp:148] Top shape: 24 32 7 7 (37632)
I0403 17:55:13.762886  6288 net.cpp:156] Memory required for data: 1299351072
I0403 17:55:13.762900  6288 layer_factory.hpp:77] Creating layer inception_5a/5x5
I0403 17:55:13.762924  6288 net.cpp:91] Creating Layer inception_5a/5x5
I0403 17:55:13.762943  6288 net.cpp:425] inception_5a/5x5 <- inception_5a/5x5_reduce
I0403 17:55:13.762966  6288 net.cpp:399] inception_5a/5x5 -> inception_5a/5x5
I0403 17:55:13.764829  6288 net.cpp:141] Setting up inception_5a/5x5
I0403 17:55:13.764873  6288 net.cpp:148] Top shape: 24 128 7 7 (150528)
I0403 17:55:13.764889  6288 net.cpp:156] Memory required for data: 1299953184
I0403 17:55:13.764910  6288 layer_factory.hpp:77] Creating layer inception_5a/relu_5x5
I0403 17:55:13.764930  6288 net.cpp:91] Creating Layer inception_5a/relu_5x5
I0403 17:55:13.764946  6288 net.cpp:425] inception_5a/relu_5x5 <- inception_5a/5x5
I0403 17:55:13.764967  6288 net.cpp:386] inception_5a/relu_5x5 -> inception_5a/5x5 (in-place)
I0403 17:55:13.765172  6288 net.cpp:141] Setting up inception_5a/relu_5x5
I0403 17:55:13.765198  6288 net.cpp:148] Top shape: 24 128 7 7 (150528)
I0403 17:55:13.765220  6288 net.cpp:156] Memory required for data: 1300555296
I0403 17:55:13.765238  6288 layer_factory.hpp:77] Creating layer inception_5a/pool
I0403 17:55:13.765259  6288 net.cpp:91] Creating Layer inception_5a/pool
I0403 17:55:13.765277  6288 net.cpp:425] inception_5a/pool <- pool4/3x3_s2_pool4/3x3_s2_0_split_3
I0403 17:55:13.765296  6288 net.cpp:399] inception_5a/pool -> inception_5a/pool
I0403 17:55:13.765373  6288 net.cpp:141] Setting up inception_5a/pool
I0403 17:55:13.765399  6288 net.cpp:148] Top shape: 24 832 7 7 (978432)
I0403 17:55:13.765414  6288 net.cpp:156] Memory required for data: 1304469024
I0403 17:55:13.765430  6288 layer_factory.hpp:77] Creating layer inception_5a/pool_proj
I0403 17:55:13.765453  6288 net.cpp:91] Creating Layer inception_5a/pool_proj
I0403 17:55:13.765472  6288 net.cpp:425] inception_5a/pool_proj <- inception_5a/pool
I0403 17:55:13.765496  6288 net.cpp:399] inception_5a/pool_proj -> inception_5a/pool_proj
I0403 17:55:13.767940  6288 net.cpp:141] Setting up inception_5a/pool_proj
I0403 17:55:13.767973  6288 net.cpp:148] Top shape: 24 128 7 7 (150528)
I0403 17:55:13.767992  6288 net.cpp:156] Memory required for data: 1305071136
I0403 17:55:13.768012  6288 layer_factory.hpp:77] Creating layer inception_5a/relu_pool_proj
I0403 17:55:13.768029  6288 net.cpp:91] Creating Layer inception_5a/relu_pool_proj
I0403 17:55:13.768048  6288 net.cpp:425] inception_5a/relu_pool_proj <- inception_5a/pool_proj
I0403 17:55:13.768069  6288 net.cpp:386] inception_5a/relu_pool_proj -> inception_5a/pool_proj (in-place)
I0403 17:55:13.768402  6288 net.cpp:141] Setting up inception_5a/relu_pool_proj
I0403 17:55:13.768432  6288 net.cpp:148] Top shape: 24 128 7 7 (150528)
I0403 17:55:13.768450  6288 net.cpp:156] Memory required for data: 1305673248
I0403 17:55:13.768465  6288 layer_factory.hpp:77] Creating layer inception_5a/output
I0403 17:55:13.768483  6288 net.cpp:91] Creating Layer inception_5a/output
I0403 17:55:13.768501  6288 net.cpp:425] inception_5a/output <- inception_5a/1x1
I0403 17:55:13.768517  6288 net.cpp:425] inception_5a/output <- inception_5a/3x3
I0403 17:55:13.768535  6288 net.cpp:425] inception_5a/output <- inception_5a/5x5
I0403 17:55:13.768558  6288 net.cpp:425] inception_5a/output <- inception_5a/pool_proj
I0403 17:55:13.768584  6288 net.cpp:399] inception_5a/output -> inception_5a/output
I0403 17:55:13.768642  6288 net.cpp:141] Setting up inception_5a/output
I0403 17:55:13.768666  6288 net.cpp:148] Top shape: 24 832 7 7 (978432)
I0403 17:55:13.768682  6288 net.cpp:156] Memory required for data: 1309586976
I0403 17:55:13.768697  6288 layer_factory.hpp:77] Creating layer inception_5a/output_inception_5a/output_0_split
I0403 17:55:13.768718  6288 net.cpp:91] Creating Layer inception_5a/output_inception_5a/output_0_split
I0403 17:55:13.768736  6288 net.cpp:425] inception_5a/output_inception_5a/output_0_split <- inception_5a/output
I0403 17:55:13.768754  6288 net.cpp:399] inception_5a/output_inception_5a/output_0_split -> inception_5a/output_inception_5a/output_0_split_0
I0403 17:55:13.768776  6288 net.cpp:399] inception_5a/output_inception_5a/output_0_split -> inception_5a/output_inception_5a/output_0_split_1
I0403 17:55:13.768801  6288 net.cpp:399] inception_5a/output_inception_5a/output_0_split -> inception_5a/output_inception_5a/output_0_split_2
I0403 17:55:13.768822  6288 net.cpp:399] inception_5a/output_inception_5a/output_0_split -> inception_5a/output_inception_5a/output_0_split_3
I0403 17:55:13.768949  6288 net.cpp:141] Setting up inception_5a/output_inception_5a/output_0_split
I0403 17:55:13.768972  6288 net.cpp:148] Top shape: 24 832 7 7 (978432)
I0403 17:55:13.768990  6288 net.cpp:148] Top shape: 24 832 7 7 (978432)
I0403 17:55:13.769006  6288 net.cpp:148] Top shape: 24 832 7 7 (978432)
I0403 17:55:13.769022  6288 net.cpp:148] Top shape: 24 832 7 7 (978432)
I0403 17:55:13.769037  6288 net.cpp:156] Memory required for data: 1325241888
I0403 17:55:13.769050  6288 layer_factory.hpp:77] Creating layer inception_5b/1x1
I0403 17:55:13.769073  6288 net.cpp:91] Creating Layer inception_5b/1x1
I0403 17:55:13.769091  6288 net.cpp:425] inception_5b/1x1 <- inception_5a/output_inception_5a/output_0_split_0
I0403 17:55:13.769112  6288 net.cpp:399] inception_5b/1x1 -> inception_5b/1x1
I0403 17:55:13.772917  6288 net.cpp:141] Setting up inception_5b/1x1
I0403 17:55:13.772948  6288 net.cpp:148] Top shape: 24 384 7 7 (451584)
I0403 17:55:13.772965  6288 net.cpp:156] Memory required for data: 1327048224
I0403 17:55:13.772984  6288 layer_factory.hpp:77] Creating layer inception_5b/relu_1x1
I0403 17:55:13.773002  6288 net.cpp:91] Creating Layer inception_5b/relu_1x1
I0403 17:55:13.773018  6288 net.cpp:425] inception_5b/relu_1x1 <- inception_5b/1x1
I0403 17:55:13.773036  6288 net.cpp:386] inception_5b/relu_1x1 -> inception_5b/1x1 (in-place)
I0403 17:55:13.773353  6288 net.cpp:141] Setting up inception_5b/relu_1x1
I0403 17:55:13.773382  6288 net.cpp:148] Top shape: 24 384 7 7 (451584)
I0403 17:55:13.773398  6288 net.cpp:156] Memory required for data: 1328854560
I0403 17:55:13.773413  6288 layer_factory.hpp:77] Creating layer inception_5b/3x3_reduce
I0403 17:55:13.773435  6288 net.cpp:91] Creating Layer inception_5b/3x3_reduce
I0403 17:55:13.773453  6288 net.cpp:425] inception_5b/3x3_reduce <- inception_5a/output_inception_5a/output_0_split_1
I0403 17:55:13.773473  6288 net.cpp:399] inception_5b/3x3_reduce -> inception_5b/3x3_reduce
I0403 17:55:13.776144  6288 net.cpp:141] Setting up inception_5b/3x3_reduce
I0403 17:55:13.776187  6288 net.cpp:148] Top shape: 24 192 7 7 (225792)
I0403 17:55:13.776206  6288 net.cpp:156] Memory required for data: 1329757728
I0403 17:55:13.776231  6288 layer_factory.hpp:77] Creating layer inception_5b/relu_3x3_reduce
I0403 17:55:13.776249  6288 net.cpp:91] Creating Layer inception_5b/relu_3x3_reduce
I0403 17:55:13.776268  6288 net.cpp:425] inception_5b/relu_3x3_reduce <- inception_5b/3x3_reduce
I0403 17:55:13.776288  6288 net.cpp:386] inception_5b/relu_3x3_reduce -> inception_5b/3x3_reduce (in-place)
I0403 17:55:13.776484  6288 net.cpp:141] Setting up inception_5b/relu_3x3_reduce
I0403 17:55:13.776510  6288 net.cpp:148] Top shape: 24 192 7 7 (225792)
I0403 17:55:13.776525  6288 net.cpp:156] Memory required for data: 1330660896
I0403 17:55:13.776540  6288 layer_factory.hpp:77] Creating layer inception_5b/3x3
I0403 17:55:13.776563  6288 net.cpp:91] Creating Layer inception_5b/3x3
I0403 17:55:13.776582  6288 net.cpp:425] inception_5b/3x3 <- inception_5b/3x3_reduce
I0403 17:55:13.776605  6288 net.cpp:399] inception_5b/3x3 -> inception_5b/3x3
I0403 17:55:13.783401  6288 net.cpp:141] Setting up inception_5b/3x3
I0403 17:55:13.783432  6288 net.cpp:148] Top shape: 24 384 7 7 (451584)
I0403 17:55:13.783447  6288 net.cpp:156] Memory required for data: 1332467232
I0403 17:55:13.783466  6288 layer_factory.hpp:77] Creating layer inception_5b/relu_3x3
I0403 17:55:13.783484  6288 net.cpp:91] Creating Layer inception_5b/relu_3x3
I0403 17:55:13.783500  6288 net.cpp:425] inception_5b/relu_3x3 <- inception_5b/3x3
I0403 17:55:13.783520  6288 net.cpp:386] inception_5b/relu_3x3 -> inception_5b/3x3 (in-place)
I0403 17:55:13.783823  6288 net.cpp:141] Setting up inception_5b/relu_3x3
I0403 17:55:13.783851  6288 net.cpp:148] Top shape: 24 384 7 7 (451584)
I0403 17:55:13.783867  6288 net.cpp:156] Memory required for data: 1334273568
I0403 17:55:13.783882  6288 layer_factory.hpp:77] Creating layer inception_5b/5x5_reduce
I0403 17:55:13.783920  6288 net.cpp:91] Creating Layer inception_5b/5x5_reduce
I0403 17:55:13.783938  6288 net.cpp:425] inception_5b/5x5_reduce <- inception_5a/output_inception_5a/output_0_split_2
I0403 17:55:13.783957  6288 net.cpp:399] inception_5b/5x5_reduce -> inception_5b/5x5_reduce
I0403 17:55:13.785257  6288 net.cpp:141] Setting up inception_5b/5x5_reduce
I0403 17:55:13.785284  6288 net.cpp:148] Top shape: 24 48 7 7 (56448)
I0403 17:55:13.785300  6288 net.cpp:156] Memory required for data: 1334499360
I0403 17:55:13.785320  6288 layer_factory.hpp:77] Creating layer inception_5b/relu_5x5_reduce
I0403 17:55:13.785337  6288 net.cpp:91] Creating Layer inception_5b/relu_5x5_reduce
I0403 17:55:13.785353  6288 net.cpp:425] inception_5b/relu_5x5_reduce <- inception_5b/5x5_reduce
I0403 17:55:13.785373  6288 net.cpp:386] inception_5b/relu_5x5_reduce -> inception_5b/5x5_reduce (in-place)
I0403 17:55:13.785751  6288 net.cpp:141] Setting up inception_5b/relu_5x5_reduce
I0403 17:55:13.785778  6288 net.cpp:148] Top shape: 24 48 7 7 (56448)
I0403 17:55:13.785794  6288 net.cpp:156] Memory required for data: 1334725152
I0403 17:55:13.785809  6288 layer_factory.hpp:77] Creating layer inception_5b/5x5
I0403 17:55:13.785828  6288 net.cpp:91] Creating Layer inception_5b/5x5
I0403 17:55:13.785846  6288 net.cpp:425] inception_5b/5x5 <- inception_5b/5x5_reduce
I0403 17:55:13.785866  6288 net.cpp:399] inception_5b/5x5 -> inception_5b/5x5
I0403 17:55:13.787946  6288 net.cpp:141] Setting up inception_5b/5x5
I0403 17:55:13.787974  6288 net.cpp:148] Top shape: 24 128 7 7 (150528)
I0403 17:55:13.787989  6288 net.cpp:156] Memory required for data: 1335327264
I0403 17:55:13.788008  6288 layer_factory.hpp:77] Creating layer inception_5b/relu_5x5
I0403 17:55:13.788028  6288 net.cpp:91] Creating Layer inception_5b/relu_5x5
I0403 17:55:13.788045  6288 net.cpp:425] inception_5b/relu_5x5 <- inception_5b/5x5
I0403 17:55:13.788063  6288 net.cpp:386] inception_5b/relu_5x5 -> inception_5b/5x5 (in-place)
I0403 17:55:13.788267  6288 net.cpp:141] Setting up inception_5b/relu_5x5
I0403 17:55:13.788293  6288 net.cpp:148] Top shape: 24 128 7 7 (150528)
I0403 17:55:13.788308  6288 net.cpp:156] Memory required for data: 1335929376
I0403 17:55:13.788322  6288 layer_factory.hpp:77] Creating layer inception_5b/pool
I0403 17:55:13.788343  6288 net.cpp:91] Creating Layer inception_5b/pool
I0403 17:55:13.788360  6288 net.cpp:425] inception_5b/pool <- inception_5a/output_inception_5a/output_0_split_3
I0403 17:55:13.788378  6288 net.cpp:399] inception_5b/pool -> inception_5b/pool
I0403 17:55:13.788453  6288 net.cpp:141] Setting up inception_5b/pool
I0403 17:55:13.788476  6288 net.cpp:148] Top shape: 24 832 7 7 (978432)
I0403 17:55:13.788491  6288 net.cpp:156] Memory required for data: 1339843104
I0403 17:55:13.788506  6288 layer_factory.hpp:77] Creating layer inception_5b/pool_proj
I0403 17:55:13.788528  6288 net.cpp:91] Creating Layer inception_5b/pool_proj
I0403 17:55:13.788547  6288 net.cpp:425] inception_5b/pool_proj <- inception_5b/pool
I0403 17:55:13.788568  6288 net.cpp:399] inception_5b/pool_proj -> inception_5b/pool_proj
I0403 17:55:13.790894  6288 net.cpp:141] Setting up inception_5b/pool_proj
I0403 17:55:13.790922  6288 net.cpp:148] Top shape: 24 128 7 7 (150528)
I0403 17:55:13.790938  6288 net.cpp:156] Memory required for data: 1340445216
I0403 17:55:13.790958  6288 layer_factory.hpp:77] Creating layer inception_5b/relu_pool_proj
I0403 17:55:13.790977  6288 net.cpp:91] Creating Layer inception_5b/relu_pool_proj
I0403 17:55:13.790994  6288 net.cpp:425] inception_5b/relu_pool_proj <- inception_5b/pool_proj
I0403 17:55:13.791014  6288 net.cpp:386] inception_5b/relu_pool_proj -> inception_5b/pool_proj (in-place)
I0403 17:55:13.791339  6288 net.cpp:141] Setting up inception_5b/relu_pool_proj
I0403 17:55:13.791368  6288 net.cpp:148] Top shape: 24 128 7 7 (150528)
I0403 17:55:13.791383  6288 net.cpp:156] Memory required for data: 1341047328
I0403 17:55:13.791399  6288 layer_factory.hpp:77] Creating layer inception_5b/output
I0403 17:55:13.791416  6288 net.cpp:91] Creating Layer inception_5b/output
I0403 17:55:13.791448  6288 net.cpp:425] inception_5b/output <- inception_5b/1x1
I0403 17:55:13.791467  6288 net.cpp:425] inception_5b/output <- inception_5b/3x3
I0403 17:55:13.791484  6288 net.cpp:425] inception_5b/output <- inception_5b/5x5
I0403 17:55:13.791501  6288 net.cpp:425] inception_5b/output <- inception_5b/pool_proj
I0403 17:55:13.791522  6288 net.cpp:399] inception_5b/output -> inception_5b/output
I0403 17:55:13.791576  6288 net.cpp:141] Setting up inception_5b/output
I0403 17:55:13.791604  6288 net.cpp:148] Top shape: 24 1024 7 7 (1204224)
I0403 17:55:13.791620  6288 net.cpp:156] Memory required for data: 1345864224
I0403 17:55:13.791635  6288 layer_factory.hpp:77] Creating layer pool5/7x7_s1
I0403 17:55:13.791653  6288 net.cpp:91] Creating Layer pool5/7x7_s1
I0403 17:55:13.791671  6288 net.cpp:425] pool5/7x7_s1 <- inception_5b/output
I0403 17:55:13.791689  6288 net.cpp:399] pool5/7x7_s1 -> pool5/7x7_s1
I0403 17:55:13.791915  6288 net.cpp:141] Setting up pool5/7x7_s1
I0403 17:55:13.791941  6288 net.cpp:148] Top shape: 24 1024 1 1 (24576)
I0403 17:55:13.791956  6288 net.cpp:156] Memory required for data: 1345962528
I0403 17:55:13.791971  6288 layer_factory.hpp:77] Creating layer pool5/drop_7x7_s1
I0403 17:55:13.791990  6288 net.cpp:91] Creating Layer pool5/drop_7x7_s1
I0403 17:55:13.792006  6288 net.cpp:425] pool5/drop_7x7_s1 <- pool5/7x7_s1
I0403 17:55:13.792026  6288 net.cpp:386] pool5/drop_7x7_s1 -> pool5/7x7_s1 (in-place)
I0403 17:55:13.792078  6288 net.cpp:141] Setting up pool5/drop_7x7_s1
I0403 17:55:13.792104  6288 net.cpp:148] Top shape: 24 1024 1 1 (24576)
I0403 17:55:13.792120  6288 net.cpp:156] Memory required for data: 1346060832
I0403 17:55:13.792135  6288 layer_factory.hpp:77] Creating layer loss3/classifier_plantvillage
I0403 17:55:13.792155  6288 net.cpp:91] Creating Layer loss3/classifier_plantvillage
I0403 17:55:13.792172  6288 net.cpp:425] loss3/classifier_plantvillage <- pool5/7x7_s1
I0403 17:55:13.792193  6288 net.cpp:399] loss3/classifier_plantvillage -> loss3/classifier_plantvillage
I0403 17:55:13.792650  6288 net.cpp:141] Setting up loss3/classifier_plantvillage
I0403 17:55:13.792676  6288 net.cpp:148] Top shape: 24 38 (912)
I0403 17:55:13.792692  6288 net.cpp:156] Memory required for data: 1346064480
I0403 17:55:13.792711  6288 layer_factory.hpp:77] Creating layer loss3/classifier_plantvillage_loss3/classifier_plantvillage_0_split
I0403 17:55:13.792739  6288 net.cpp:91] Creating Layer loss3/classifier_plantvillage_loss3/classifier_plantvillage_0_split
I0403 17:55:13.792758  6288 net.cpp:425] loss3/classifier_plantvillage_loss3/classifier_plantvillage_0_split <- loss3/classifier_plantvillage
I0403 17:55:13.792778  6288 net.cpp:399] loss3/classifier_plantvillage_loss3/classifier_plantvillage_0_split -> loss3/classifier_plantvillage_loss3/classifier_plantvillage_0_split_0
I0403 17:55:13.792798  6288 net.cpp:399] loss3/classifier_plantvillage_loss3/classifier_plantvillage_0_split -> loss3/classifier_plantvillage_loss3/classifier_plantvillage_0_split_1
I0403 17:55:13.792821  6288 net.cpp:399] loss3/classifier_plantvillage_loss3/classifier_plantvillage_0_split -> loss3/classifier_plantvillage_loss3/classifier_plantvillage_0_split_2
I0403 17:55:13.792842  6288 net.cpp:399] loss3/classifier_plantvillage_loss3/classifier_plantvillage_0_split -> loss3/classifier_plantvillage_loss3/classifier_plantvillage_0_split_3
I0403 17:55:13.792950  6288 net.cpp:141] Setting up loss3/classifier_plantvillage_loss3/classifier_plantvillage_0_split
I0403 17:55:13.792975  6288 net.cpp:148] Top shape: 24 38 (912)
I0403 17:55:13.792992  6288 net.cpp:148] Top shape: 24 38 (912)
I0403 17:55:13.793009  6288 net.cpp:148] Top shape: 24 38 (912)
I0403 17:55:13.793025  6288 net.cpp:148] Top shape: 24 38 (912)
I0403 17:55:13.793040  6288 net.cpp:156] Memory required for data: 1346079072
I0403 17:55:13.793054  6288 layer_factory.hpp:77] Creating layer loss1/loss
I0403 17:55:13.793077  6288 net.cpp:91] Creating Layer loss1/loss
I0403 17:55:13.793095  6288 net.cpp:425] loss1/loss <- loss1/classifier_plantvillage_loss1/classifier_plantvillage_0_split_0
I0403 17:55:13.793128  6288 net.cpp:425] loss1/loss <- label_data_1_split_0
…
