…
I0403 18:18:05.474474  6788 net.cpp:313] The NetState phase (1) differed from the phase (0) specified by a rule in layer data
I0403 18:18:05.475718  6788 net.cpp:49] Initializing net from parameters: 
state {
  phase: TEST
}
layer {
  name: "data"
  type: "Data"
  top: "data"
  top: "label"
  include {
    phase: TEST
  }
  transform_param {
    mirror: false
    crop_size: 224
    mean_file: "/home/mohanty/data/final_dataset/lmdb/segmented-50-50/mean.binaryproto"
  }
  data_param {
    source: "/home/mohanty/data/final_dataset/lmdb/segmented-50-50/test_db"
    batch_size: 24
    backend: LMDB
  }
}
layer {
  name: "conv1/7x7_s2"
  type: "Convolution"
  bottom: "data"
  top: "conv1/7x7_s2"
  param {
    lr_mult: 1
    decay_mult: 1
  }
  param {
    lr_mult: 2
    decay_mult: 0
  }
  convolution_param {
    num_output: 64
    pad: 3
    kernel_size: 7
    stride: 2
    weight_filler {
      type: "xavier"
      std: 0.1
    }
    bias_filler {
      type: "constant"
      value: 0.2
    }
  }
}
layer {
  name: "conv1/relu_7x7"
  type: "ReLU"
  bottom: "conv1/7x7_s2"
  top: "conv1/7x7_s2"
}
layer {
  name: "pool1/3x3_s2"
  type: "Pooling"
  bottom: "conv1/7x7_s2"
  top: "pool1/3x3_s2"
  pooling_param {
    pool: MAX
    kernel_size: 3
    stride: 2
  }
}
layer {
  name: "pool1/norm1"
  type: "LRN"
  bottom: "pool1/3x3_s2"
  top: "pool1/norm1"
  lrn_param {
    local_size: 5
    alpha: 0.0001
    beta: 0.75
  }
}
layer {
  name: "conv2/3x3_reduce"
  type: "Convolution"
  bottom: "pool1/norm1"
  top: "conv2/3x3_reduce"
  param {
    lr_mult: 1
    decay_mult: 1
  }
  param {
    lr_mult: 2
    decay_mult: 0
  }
  convolution_param {
    num_output: 64
    kernel_size: 1
    weight_filler {
      type: "xavier"
      std: 0.1
    }
    bias_filler {
      type: "constant"
      value: 0.2
    }
  }
}
layer {
  name: "conv2/relu_3x3_reduce"
  type: "ReLU"
  bottom: "conv2/3x3_reduce"
  top: "conv2/3x3_reduce"
}
layer {
  name: "conv2/3x3"
  type: "Convolution"
  bottom: "conv2/3x3_reduce"
  top: "conv2/3x3"
  param {
    lr_mult: 1
    decay_mult: 1
  }
  param {
    lr_mult: 2
    decay_mult: 0
  }
  convolution_param {
    num_output: 192
    pad: 1
    kernel_size: 3
    weight_filler {
      type: "xavier"
      std: 0.03
    }
    bias_filler {
      type: "constant"
      value: 0.2
    }
  }
}
layer {
  name: "conv2/relu_3x3"
  type: "ReLU"
  bottom: "conv2/3x3"
  top: "conv2/3x3"
}
layer {
  name: "conv2/norm2"
  type: "LRN"
  bottom: "conv2/3x3"
  top: "conv2/norm2"
  lrn_param {
    local_size: 5
    alpha: 0.0001
    beta: 0.75
  }
}
layer {
  name: "pool2/3x3_s2"
  type: "Pooling"
  bottom: "conv2/norm2"
  top: "pool2/3x3_s2"
  pooling_param {
    pool: MAX
    kernel_size: 3
    stride: 2
  }
}
layer {
  name: "inception_3a/1x1"
  type: "Convolution"
  bottom: "pool2/3x3_s2"
  top: "inception_3a/1x1"
  param {
    lr_mult: 1
    decay_mult: 1
  }
  param {
    lr_mult: 2
    decay_mult: 0
  }
  convolution_param {
    num_output: 64
    kernel_size: 1
    weight_filler {
      type: "xavier"
      std: 0.03
    }
    bias_filler {
      type: "constant"
      value: 0.2
    }
  }
}
layer {
  name: "inception_3a/relu_1x1"
  type: "ReLU"
  bottom: "inception_3a/1x1"
  top: "inception_3a/1x1"
}
layer {
  name: "inception_3a/3x3_reduce"
  type: "Convolution"
  bottom: "pool2/3x3_s2"
  top: "inception_3a/3x3_reduce"
  param {
    lr_mult: 1
    decay_mult: 1
  }
  param {
    lr_mult: 2
    decay_mult: 0
  }
  convolution_param {
    num_output: 96
    kernel_size: 1
    weight_filler {
      type: "xavier"
      std: 0.09
    }
    bias_filler {
      type: "constant"
      value: 0.2
    }
  }
}
layer {
  name: "inception_3a/relu_3x3_reduce"
  type: "ReLU"
  bottom: "inception_3a/3x3_reduce"
  top: "inception_3a/3x3_reduce"
}
layer {
  name: "inception_3a/3x3"
  type: "Convolution"
  bottom: "inception_3a/3x3_reduce"
  top: "inception_3a/3x3"
  param {
    lr_mult: 1
    decay_mult: 1
  }
  param {
    lr_mult: 2
    decay_mult: 0
  }
  convolution_param {
    num_output: 128
    pad: 1
    kernel_size: 3
    weight_filler {
      type: "xavier"
      std: 0.03
    }
    bias_filler {
      type: "constant"
      value: 0.2
    }
  }
}
layer {
  name: "inception_3a/relu_3x3"
  type: "ReLU"
  bottom: "inception_3a/3x3"
  top: "inception_3a/3x3"
}
layer {
  name: "inception_3a/5x5_reduce"
  type: "Convolution"
  bottom: "pool2/3x3_s2"
  top: "inception_3a/5x5_reduce"
  param {
    lr_mult: 1
    decay_mult: 1
  }
  param {
    lr_mult: 2
    decay_mult: 0
  }
  convolution_param {
    num_output: 16
    kernel_size: 1
    weight_filler {
      type: "xavier"
      std: 0.2
    }
    bias_filler {
      type: "constant"
      value: 0.2
    }
  }
}
layer {
  name: "inception_3a/relu_5x5_reduce"
  type: "ReLU"
  bottom: "inception_3a/5x5_reduce"
  top: "inception_3a/5x5_reduce"
}
layer {
  name: "inception_3a/5x5"
  type: "Convolution"
  bottom: "inception_3a/5x5_reduce"
  top: "inception_3a/5x5"
  param {
    lr_mult: 1
    decay_mult: 1
  }
  param {
    lr_mult: 2
    decay_mult: 0
  }
  convolution_param {
    num_output: 32
    pad: 2
    kernel_size: 5
    weight_filler {
      type: "xavier"
      std: 0.03
    }
    bias_filler {
      type: "constant"
      value: 0.2
    }
  }
}
layer {
  name: "inception_3a/relu_5x5"
  type: "ReLU"
  bottom: "inception_3a/5x5"
  top: "inception_3a/5x5"
}
layer {
  name: "inception_3a/pool"
  type: "Pooling"
  bottom: "pool2/3x3_s2"
  top: "inception_3a/pool"
  pooling_param {
    pool: MAX
    kernel_size: 3
    stride: 1
    pad: 1
  }
}
layer {
  name: "inception_3a/pool_proj"
  type: "Convolution"
  bottom: "inception_3a/pool"
  top: "inception_3a/pool_proj"
  param {
    lr_mult: 1
    decay_mult: 1
  }
  param {
    lr_mult: 2
    decay_mult: 0
  }
  convolution_param {
    num_output: 32
    kernel_size: 1
    weight_filler {
      type: "xavier"
      std: 0.1
    }
    bias_filler {
      type: "constant"
      value: 0.2
    }
  }
}
layer {
  name: "inception_3a/relu_pool_proj"
  type: "ReLU"
  bottom: "inception_3a/pool_proj"
  top: "inception_3a/pool_proj"
}
layer {
  name: "inception_3a/output"
  type: "Concat"
  bottom: "inception_3a/1x1"
  bottom: "inception_3a/3x3"
  bottom: "inception_3a/5x5"
  bottom: "inception_3a/pool_proj"
  top: "inception_3a/output"
}
layer {
  name: "inception_3b/1x1"
  type: "Convolution"
  bottom: "inception_3a/output"
  top: "inception_3b/1x1"
  param {
    lr_mult: 1
    decay_mult: 1
  }
  param {
    lr_mult: 2
    decay_mult: 0
  }
  convolution_param {
    num_output: 128
    kernel_size: 1
    weight_filler {
      type: "xavier"
      std: 0.03
    }
    bias_filler {
      type: "constant"
      value: 0.2
    }
  }
}
layer {
  name: "inception_3b/relu_1x1"
  type: "ReLU"
  bottom: "inception_3b/1x1"
  top: "inception_3b/1x1"
}
layer {
  name: "inception_3b/3x3_reduce"
  type: "Convolution"
  bottom: "inception_3a/output"
  top: "inception_3b/3x3_reduce"
  param {
    lr_mult: 1
    decay_mult: 1
  }
  param {
    lr_mult: 2
    decay_mult: 0
  }
  convolution_param {
    num_output: 128
    kernel_size: 1
    weight_filler {
      type: "xavier"
      std: 0.09
    }
    bias_filler {
      type: "constant"
      value: 0.2
    }
  }
}
layer {
  name: "inception_3b/relu_3x3_reduce"
  type: "ReLU"
  bottom: "inception_3b/3x3_reduce"
  top: "inception_3b/3x3_reduce"
}
layer {
  name: "inception_3b/3x3"
  type: "Convolution"
  bottom: "inception_3b/3x3_reduce"
  top: "inception_3b/3x3"
  param {
    lr_mult: 1
    decay_mult: 1
  }
  param {
    lr_mult: 2
    decay_mult: 0
  }
  convolution_param {
    num_output: 192
    pad: 1
    kernel_size: 3
    weight_filler {
      type: "xavier"
      std: 0.03
    }
    bias_filler {
      type: "constant"
      value: 0.2
    }
  }
}
layer {
  name: "inception_3b/relu_3x3"
  type: "ReLU"
  bottom: "inception_3b/3x3"
  top: "inception_3b/3x3"
}
layer {
  name: "inception_3b/5x5_reduce"
  type: "Convolution"
  bottom: "inception_3a/output"
  top: "inception_3b/5x5_reduce"
  param {
    lr_mult: 1
    decay_mult: 1
  }
  param {
    lr_mult: 2
    decay_mult: 0
  }
  convolution_param {
    num_output: 32
    kernel_size: 1
    weight_filler {
      type: "xavier"
      std: 0.2
    }
    bias_filler {
      type: "constant"
      value: 0.2
    }
  }
}
layer {
  name: "inception_3b/relu_5x5_reduce"
  type: "ReLU"
  bottom: "inception_3b/5x5_reduce"
  top: "inception_3b/5x5_reduce"
}
layer {
  name: "inception_3b/5x5"
  type: "Convolution"
  bottom: "inception_3b/5x5_reduce"
  top: "inception_3b/5x5"
  param {
    lr_mult: 1
    decay_mult: 1
  }
  param {
    lr_mult: 2
    decay_mult: 0
  }
  convolution_param {
    num_output: 96
    pad: 2
    kernel_size: 5
    weight_filler {
      type: "xavier"
      std: 0.03
    }
    bias_filler {
      type: "constant"
      value: 0.2
    }
  }
}
layer {
  name: "inception_3b/relu_5x5"
  type: "ReLU"
  bottom: "inception_3b/5x5"
  top: "inception_3b/5x5"
}
layer {
  name: "inception_3b/pool"
  type: "Pooling"
  bottom: "inception_3a/output"
  top: "inception_3b/pool"
  pooling_param {
    pool: MAX
    kernel_size: 3
    stride: 1
    pad: 1
  }
}
layer {
  name: "inception_3b/pool_proj"
  type: "Convolution"
  bottom: "inception_3b/pool"
  top: "inception_3b/pool_proj"
  param {
    lr_mult: 1
    decay_mult: 1
  }
  param {
    lr_mult: 2
    decay_mult: 0
  }
  convolution_param {
    num_output: 64
    kernel_size: 1
    weight_filler {
      type: "xavier"
      std: 0.1
    }
    bias_filler {
      type: "constant"
      value: 0.2
    }
  }
}
layer {
  name: "inception_3b/relu_pool_proj"
  type: "ReLU"
  bottom: "inception_3b/pool_proj"
  top: "inception_3b/pool_proj"
}
layer {
  name: "inception_3b/output"
  type: "Concat"
  bottom: "inception_3b/1x1"
  bottom: "inception_3b/3x3"
  bottom: "inception_3b/5x5"
  bottom: "inception_3b/pool_proj"
  top: "inception_3b/output"
}
layer {
  name: "pool3/3x3_s2"
  type: "Pooling"
  bottom: "inception_3b/output"
  top: "pool3/3x3_s2"
  pooling_param {
    pool: MAX
    kernel_size: 3
    stride: 2
  }
}
layer {
  name: "inception_4a/1x1"
  type: "Convolution"
  bottom: "pool3/3x3_s2"
  top: "inception_4a/1x1"
  param {
    lr_mult: 1
    decay_mult: 1
  }
  param {
    lr_mult: 2
    decay_mult: 0
  }
  convolution_param {
    num_output: 192
    kernel_size: 1
    weight_filler {
      type: "xavier"
      std: 0.03
    }
    bias_filler {
      type: "constant"
      value: 0.2
    }
  }
}
layer {
  name: "inception_4a/relu_1x1"
  type: "ReLU"
  bottom: "inception_4a/1x1"
  top: "inception_4a/1x1"
}
layer {
  name: "inception_4a/3x3_reduce"
  type: "Convolution"
  bottom: "pool3/3x3_s2"
  top: "inception_4a/3x3_reduce"
  param {
    lr_mult: 1
    decay_mult: 1
  }
  param {
    lr_mult: 2
    decay_mult: 0
  }
  convolution_param {
    num_output: 96
    kernel_size: 1
    weight_filler {
      type: "xavier"
      std: 0.09
    }
    bias_filler {
      type: "constant"
      value: 0.2
    }
  }
}
layer {
  name: "inception_4a/relu_3x3_reduce"
  type: "ReLU"
  bottom: "inception_4a/3x3_reduce"
  top: "inception_4a/3x3_reduce"
}
layer {
  name: "inception_4a/3x3"
  type: "Convolution"
  bottom: "inception_4a/3x3_reduce"
  top: "inception_4a/3x3"
  param {
    lr_mult: 1
    decay_mult: 1
  }
  param {
    lr_mult: 2
    decay_mult: 0
  }
  convolution_param {
    num_output: 208
    pad: 1
    kernel_size: 3
    weight_filler {
      type: "xavier"
      std: 0.03
    }
    bias_filler {
      type: "constant"
      value: 0.2
    }
  }
}
layer {
  name: "inception_4a/relu_3x3"
  type: "ReLU"
  bottom: "inception_4a/3x3"
  top: "inception_4a/3x3"
}
layer {
  name: "inception_4a/5x5_reduce"
  type: "Convolution"
  bottom: "pool3/3x3_s2"
  top: "inception_4a/5x5_reduce"
  param {
    lr_mult: 1
    decay_mult: 1
  }
  param {
    lr_mult: 2
    decay_mult: 0
  }
  convolution_param {
    num_output: 16
    kernel_size: 1
    weight_filler {
      type: "xavier"
      std: 0.2
    }
    bias_filler {
      type: "constant"
      value: 0.2
    }
  }
}
layer {
  name: "inception_4a/relu_5x5_reduce"
  type: "ReLU"
  bottom: "inception_4a/5x5_reduce"
  top: "inception_4a/5x5_reduce"
}
layer {
  name: "inception_4a/5x5"
  type: "Convolution"
  bottom: "inception_4a/5x5_reduce"
  top: "inception_4a/5x5"
  param {
    lr_mult: 1
    decay_mult: 1
  }
  param {
    lr_mult: 2
    decay_mult: 0
  }
  convolution_param {
    num_output: 48
    pad: 2
    kernel_size: 5
    weight_filler {
      type: "xavier"
      std: 0.03
    }
    bias_filler {
      type: "constant"
      value: 0.2
    }
  }
}
layer {
  name: "inception_4a/relu_5x5"
  type: "ReLU"
  bottom: "inception_4a/5x5"
  top: "inception_4a/5x5"
}
layer {
  name: "inception_4a/pool"
  type: "Pooling"
  bottom: "pool3/3x3_s2"
  top: "inception_4a/pool"
  pooling_param {
    pool: MAX
    kernel_size: 3
    stride: 1
    pad: 1
  }
}
layer {
  name: "inception_4a/pool_proj"
  type: "Convolution"
  bottom: "inception_4a/pool"
  top: "inception_4a/pool_proj"
  param {
    lr_mult: 1
    decay_mult: 1
  }
  param {
    lr_mult: 2
    decay_mult: 0
  }
  convolution_param {
    num_output: 64
    kernel_size: 1
    weight_filler {
      type: "xavier"
      std: 0.1
    }
    bias_filler {
      type: "constant"
      value: 0.2
    }
  }
}
layer {
  name: "inception_4a/relu_pool_proj"
  type: "ReLU"
  bottom: "inception_4a/pool_proj"
  top: "inception_4a/pool_proj"
}
layer {
  name: "inception_4a/output"
  type: "Concat"
  bottom: "inception_4a/1x1"
  bottom: "inception_4a/3x3"
  bottom: "inception_4a/5x5"
  bottom: "inception_4a/pool_proj"
  top: "inception_4a/output"
}
layer {
  name: "loss1/ave_pool"
  type: "Pooling"
  bottom: "inception_4a/output"
  top: "loss1/ave_pool"
  pooling_param {
    pool: AVE
    kernel_size: 5
    stride: 3
  }
}
layer {
  name: "loss1/conv"
  type: "Convolution"
  bottom: "loss1/ave_pool"
  top: "loss1/conv"
  param {
    lr_mult: 1
    decay_mult: 1
  }
  param {
    lr_mult: 2
    decay_mult: 0
  }
  convolution_param {
    num_output: 128
    kernel_size: 1
    weight_filler {
      type: "xavier"
      std: 0.08
    }
    bias_filler {
      type: "constant"
      value: 0.2
    }
  }
}
layer {
  name: "loss1/relu_conv"
  type: "ReLU"
  bottom: "loss1/conv"
  top: "loss1/conv"
}
layer {
  name: "loss1/fc"
  type: "InnerProduct"
  bottom: "loss1/conv"
  top: "loss1/fc"
  param {
    lr_mult: 1
    decay_mult: 1
  }
  param {
    lr_mult: 2
    decay_mult: 0
  }
  inner_product_param {
    num_output: 1024
    weight_filler {
      type: "xavier"
      std: 0.02
    }
    bias_filler {
      type: "constant"
      value: 0.2
    }
  }
}
layer {
  name: "loss1/relu_fc"
  type: "ReLU"
  bottom: "loss1/fc"
  top: "loss1/fc"
}
layer {
  name: "loss1/drop_fc"
  type: "Dropout"
  bottom: "loss1/fc"
  top: "loss1/fc"
  dropout_param {
    dropout_ratio: 0.7
  }
}
layer {
  name: "loss1/classifier_plantvillage"
  type: "InnerProduct"
  bottom: "loss1/fc"
  top: "loss1/classifier_plantvillage"
  param {
    lr_mult: 1
    decay_mult: 1
  }
  param {
    lr_mult: 2
    decay_mult: 0
  }
  inner_product_param {
    num_output: 38
    weight_filler {
      type: "xavier"
      std: 0.0009765625
    }
    bias_filler {
      type: "constant"
      value: 0
    }
  }
}
layer {
  name: "inception_4b/1x1"
  type: "Convolution"
  bottom: "inception_4a/output"
  top: "inception_4b/1x1"
  param {
    lr_mult: 1
    decay_mult: 1
  }
  param {
    lr_mult: 2
    decay_mult: 0
  }
  convolution_param {
    num_output: 160
    kernel_size: 1
    weight_filler {
      type: "xavier"
      std: 0.03
    }
    bias_filler {
      type: "constant"
      value: 0.2
    }
  }
}
layer {
  name: "inception_4b/relu_1x1"
  type: "ReLU"
  bottom: "inception_4b/1x1"
  top: "inception_4b/1x1"
}
layer {
  name: "inception_4b/3x3_reduce"
  type: "Convolution"
  bottom: "inception_4a/output"
  top: "inception_4b/3x3_reduce"
  param {
    lr_mult: 1
    decay_mult: 1
  }
  param {
    lr_mult: 2
    decay_mult: 0
  }
  convolution_param {
    num_output: 112
    kernel_size: 1
    weight_filler {
      type: "xavier"
      std: 0.09
    }
    bias_filler {
      type: "constant"
      value: 0.2
    }
  }
}
layer {
  name: "inception_4b/relu_3x3_reduce"
  type: "ReLU"
  bottom: "inception_4b/3x3_reduce"
  top: "inception_4b/3x3_reduce"
}
layer {
  name: "inception_4b/3x3"
  type: "Convolution"
  bottom: "inception_4b/3x3_reduce"
  top: "inception_4b/3x3"
  param {
    lr_mult: 1
    decay_mult: 1
  }
  param {
    lr_mult: 2
    decay_mult: 0
  }
  convolution_param {
    num_output: 224
    pad: 1
    kernel_size: 3
    weight_filler {
      type: "xavier"
      std: 0.03
    }
    bias_filler {
      type: "constant"
      value: 0.2
    }
  }
}
layer {
  name: "inception_4b/relu_3x3"
  type: "ReLU"
  bottom: "inception_4b/3x3"
  top: "inception_4b/3x3"
}
layer {
  name: "inception_4b/5x5_reduce"
  type: "Convolution"
  bottom: "inception_4a/output"
  top: "inception_4b/5x5_reduce"
  param {
    lr_mult: 1
    decay_mult: 1
  }
  param {
    lr_mult: 2
    decay_mult: 0
  }
  convolution_param {
    num_output: 24
    kernel_size: 1
    weight_filler {
      type: "xavier"
      std: 0.2
    }
    bias_filler {
      type: "constant"
      value: 0.2
    }
  }
}
layer {
  name: "inception_4b/relu_5x5_reduce"
  type: "ReLU"
  bottom: "inception_4b/5x5_reduce"
  top: "inception_4b/5x5_reduce"
}
layer {
  name: "inception_4b/5x5"
  type: "Convolution"
  bottom: "inception_4b/5x5_reduce"
  top: "inception_4b/5x5"
  param {
    lr_mult: 1
    decay_mult: 1
  }
  param {
    lr_mult: 2
    decay_mult: 0
  }
  convolution_param {
    num_output: 64
    pad: 2
    kernel_size: 5
    weight_filler {
      type: "xavier"
      std: 0.03
    }
    bias_filler {
      type: "constant"
      value: 0.2
    }
  }
}
layer {
  name: "inception_4b/relu_5x5"
  type: "ReLU"
  bottom: "inception_4b/5x5"
  top: "inception_4b/5x5"
}
layer {
  name: "inception_4b/pool"
  type: "Pooling"
  bottom: "inception_4a/output"
  top: "inception_4b/pool"
  pooling_param {
    pool: MAX
    kernel_size: 3
    stride: 1
    pad: 1
  }
}
layer {
  name: "inception_4b/pool_proj"
  type: "Convolution"
  bottom: "inception_4b/pool"
  top: "inception_4b/pool_proj"
  param {
    lr_mult: 1
    decay_mult: 1
  }
  param {
    lr_mult: 2
    decay_mult: 0
  }
  convolution_param {
    num_output: 64
    kernel_size: 1
    weight_filler {
      type: "xavier"
      std: 0.1
    }
    bias_filler {
      type: "constant"
      value: 0.2
    }
  }
}
layer {
  name: "inception_4b/relu_pool_proj"
  type: "ReLU"
  bottom: "inception_4b/pool_proj"
  top: "inception_4b/pool_proj"
}
layer {
  name: "inception_4b/output"
  type: "Concat"
  bottom: "inception_4b/1x1"
  bottom: "inception_4b/3x3"
  bottom: "inception_4b/5x5"
  bottom: "inception_4b/pool_proj"
  top: "inception_4b/output"
}
layer {
  name: "inception_4c/1x1"
  type: "Convolution"
  bottom: "inception_4b/output"
  top: "inception_4c/1x1"
  param {
    lr_mult: 1
    decay_mult: 1
  }
  param {
    lr_mult: 2
    decay_mult: 0
  }
  convolution_param {
    num_output: 128
    kernel_size: 1
    weight_filler {
      type: "xavier"
      std: 0.03
    }
    bias_filler {
      type: "constant"
      value: 0.2
    }
  }
}
layer {
  name: "inception_4c/relu_1x1"
  type: "ReLU"
  bottom: "inception_4c/1x1"
  top: "inception_4c/1x1"
}
layer {
  name: "inception_4c/3x3_reduce"
  type: "Convolution"
  bottom: "inception_4b/output"
  top: "inception_4c/3x3_reduce"
  param {
    lr_mult: 1
    decay_mult: 1
  }
  param {
    lr_mult: 2
    decay_mult: 0
  }
  convolution_param {
    num_output: 128
    kernel_size: 1
    weight_filler {
      type: "xavier"
      std: 0.09
    }
    bias_filler {
      type: "constant"
      value: 0.2
    }
  }
}
layer {
  name: "inception_4c/relu_3x3_reduce"
  type: "ReLU"
  bottom: "inception_4c/3x3_reduce"
  top: "inception_4c/3x3_reduce"
}
layer {
  name: "inception_4c/3x3"
  type: "Convolution"
  bottom: "inception_4c/3x3_reduce"
  top: "inception_4c/3x3"
  param {
    lr_mult: 1
    decay_mult: 1
  }
  param {
    lr_mult: 2
    decay_mult: 0
  }
  convolution_param {
    num_output: 256
    pad: 1
    kernel_size: 3
    weight_filler {
      type: "xavier"
      std: 0.03
    }
    bias_filler {
      type: "constant"
      value: 0.2
    }
  }
}
layer {
  name: "inception_4c/relu_3x3"
  type: "ReLU"
  bottom: "inception_4c/3x3"
  top: "inception_4c/3x3"
}
layer {
  name: "inception_4c/5x5_reduce"
  type: "Convolution"
  bottom: "inception_4b/output"
  top: "inception_4c/5x5_reduce"
  param {
    lr_mult: 1
    decay_mult: 1
  }
  param {
    lr_mult: 2
    decay_mult: 0
  }
  convolution_param {
    num_output: 24
    kernel_size: 1
    weight_filler {
      type: "xavier"
      std: 0.2
    }
    bias_filler {
      type: "constant"
      value: 0.2
    }
  }
}
layer {
  name: "inception_4c/relu_5x5_reduce"
  type: "ReLU"
  bottom: "inception_4c/5x5_reduce"
  top: "inception_4c/5x5_reduce"
}
layer {
  name: "inception_4c/5x5"
  type: "Convolution"
  bottom: "inception_4c/5x5_reduce"
  top: "inception_4c/5x5"
  param {
    lr_mult: 1
    decay_mult: 1
  }
  param {
    lr_mult: 2
    decay_mult: 0
  }
  convolution_param {
    num_output: 64
    pad: 2
    kernel_size: 5
    weight_filler {
      type: "xavier"
      std: 0.03
    }
    bias_filler {
      type: "constant"
      value: 0.2
    }
  }
}
layer {
  name: "inception_4c/relu_5x5"
  type: "ReLU"
  bottom: "inception_4c/5x5"
  top: "inception_4c/5x5"
}
layer {
  name: "inception_4c/pool"
  type: "Pooling"
  bottom: "inception_4b/output"
  top: "inception_4c/pool"
  pooling_param {
    pool: MAX
    kernel_size: 3
    stride: 1
    pad: 1
  }
}
layer {
  name: "inception_4c/pool_proj"
  type: "Convolution"
  bottom: "inception_4c/pool"
  top: "inception_4c/pool_proj"
  param {
    lr_mult: 1
    decay_mult: 1
  }
  param {
    lr_mult: 2
    decay_mult: 0
  }
  convolution_param {
    num_output: 64
    kernel_size: 1
    weight_filler {
      type: "xavier"
      std: 0.1
    }
    bias_filler {
      type: "constant"
      value: 0.2
    }
  }
}
layer {
  name: "inception_4c/relu_pool_proj"
  type: "ReLU"
  bottom: "inception_4c/pool_proj"
  top: "inception_4c/pool_proj"
}
layer {
  name: "inception_4c/output"
  type: "Concat"
  bottom: "inception_4c/1x1"
  bottom: "inception_4c/3x3"
  bottom: "inception_4c/5x5"
  bottom: "inception_4c/pool_proj"
  top: "inception_4c/output"
}
layer {
  name: "inception_4d/1x1"
  type: "Convolution"
  bottom: "inception_4c/output"
  top: "inception_4d/1x1"
  param {
    lr_mult: 1
    decay_mult: 1
  }
  param {
    lr_mult: 2
    decay_mult: 0
  }
  convolution_param {
    num_output: 112
    kernel_size: 1
    weight_filler {
      type: "xavier"
      std: 0.03
    }
    bias_filler {
      type: "constant"
      value: 0.2
    }
  }
}
layer {
  name: "inception_4d/relu_1x1"
  type: "ReLU"
  bottom: "inception_4d/1x1"
  top: "inception_4d/1x1"
}
layer {
  name: "inception_4d/3x3_reduce"
  type: "Convolution"
  bottom: "inception_4c/output"
  top: "inception_4d/3x3_reduce"
  param {
    lr_mult: 1
    decay_mult: 1
  }
  param {
    lr_mult: 2
    decay_mult: 0
  }
  convolution_param {
    num_output: 144
    kernel_size: 1
    weight_filler {
      type: "xavier"
      std: 0.09
    }
    bias_filler {
      type: "constant"
      value: 0.2
    }
  }
}
layer {
  name: "inception_4d/relu_3x3_reduce"
  type: "ReLU"
  bottom: "inception_4d/3x3_reduce"
  top: "inception_4d/3x3_reduce"
}
layer {
  name: "inception_4d/3x3"
  type: "Convolution"
  bottom: "inception_4d/3x3_reduce"
  top: "inception_4d/3x3"
  param {
    lr_mult: 1
    decay_mult: 1
  }
  param {
    lr_mult: 2
    decay_mult: 0
  }
  convolution_param {
    num_output: 288
    pad: 1
    kernel_size: 3
    weight_filler {
      type: "xavier"
      std: 0.03
    }
    bias_filler {
      type: "constant"
      value: 0.2
    }
  }
}
layer {
  name: "inception_4d/relu_3x3"
  type: "ReLU"
  bottom: "inception_4d/3x3"
  top: "inception_4d/3x3"
}
layer {
  name: "inception_4d/5x5_reduce"
  type: "Convolution"
  bottom: "inception_4c/output"
  top: "inception_4d/5x5_reduce"
  param {
    lr_mult: 1
    decay_mult: 1
  }
  param {
    lr_mult: 2
    decay_mult: 0
  }
  convolution_param {
    num_output: 32
    kernel_size: 1
    weight_filler {
      type: "xavier"
      std: 0.2
    }
    bias_filler {
      type: "constant"
      value: 0.2
    }
  }
}
layer {
  name: "inception_4d/relu_5x5_reduce"
  type: "ReLU"
  bottom: "inception_4d/5x5_reduce"
  top: "inception_4d/5x5_reduce"
}
layer {
  name: "inception_4d/5x5"
  type: "Convolution"
  bottom: "inception_4d/5x5_reduce"
  top: "inception_4d/5x5"
  param {
    lr_mult: 1
    decay_mult: 1
  }
  param {
    lr_mult: 2
    decay_mult: 0
  }
  convolution_param {
    num_output: 64
    pad: 2
    kernel_size: 5
    weight_filler {
      type: "xavier"
      std: 0.03
    }
    bias_filler {
      type: "constant"
      value: 0.2
    }
  }
}
layer {
  name: "inception_4d/relu_5x5"
  type: "ReLU"
  bottom: "inception_4d/5x5"
  top: "inception_4d/5x5"
}
layer {
  name: "inception_4d/pool"
  type: "Pooling"
  bottom: "inception_4c/output"
  top: "inception_4d/pool"
  pooling_param {
    pool: MAX
    kernel_size: 3
    stride: 1
    pad: 1
  }
}
layer {
  name: "inception_4d/pool_proj"
  type: "Convolution"
  bottom: "inception_4d/pool"
  top: "inception_4d/pool_proj"
  param {
    lr_mult: 1
    decay_mult: 1
  }
  param {
    lr_mult: 2
    decay_mult: 0
  }
  convolution_param {
    num_output: 64
    kernel_size: 1
    weight_filler {
      type: "xavier"
      std: 0.1
    }
    bias_filler {
      type: "constant"
      value: 0.2
    }
  }
}
layer {
  name: "inception_4d/relu_pool_proj"
  type: "ReLU"
  bottom: "inception_4d/pool_proj"
  top: "inception_4d/pool_proj"
}
layer {
  name: "inception_4d/output"
  type: "Concat"
  bottom: "inception_4d/1x1"
  bottom: "inception_4d/3x3"
  bottom: "inception_4d/5x5"
  bottom: "inception_4d/pool_proj"
  top: "inception_4d/output"
}
layer {
  name: "loss2/ave_pool"
  type: "Pooling"
  bottom: "inception_4d/output"
  top: "loss2/ave_pool"
  pooling_param {
    pool: AVE
    kernel_size: 5
    stride: 3
  }
}
layer {
  name: "loss2/conv"
  type: "Convolution"
  bottom: "loss2/ave_pool"
  top: "loss2/conv"
  param {
    lr_mult: 1
    decay_mult: 1
  }
  param {
    lr_mult: 2
    decay_mult: 0
  }
  convolution_param {
    num_output: 128
    kernel_size: 1
    weight_filler {
      type: "xavier"
      std: 0.08
    }
    bias_filler {
      type: "constant"
      value: 0.2
    }
  }
}
layer {
  name: "loss2/relu_conv"
  type: "ReLU"
  bottom: "loss2/conv"
  top: "loss2/conv"
}
layer {
  name: "loss2/fc"
  type: "InnerProduct"
  bottom: "loss2/conv"
  top: "loss2/fc"
  param {
    lr_mult: 1
    decay_mult: 1
  }
  param {
    lr_mult: 2
    decay_mult: 0
  }
  inner_product_param {
    num_output: 1024
    weight_filler {
      type: "xavier"
      std: 0.02
    }
    bias_filler {
      type: "constant"
      value: 0.2
    }
  }
}
layer {
  name: "loss2/relu_fc"
  type: "ReLU"
  bottom: "loss2/fc"
  top: "loss2/fc"
}
layer {
  name: "loss2/drop_fc"
  type: "Dropout"
  bottom: "loss2/fc"
  top: "loss2/fc"
  dropout_param {
    dropout_ratio: 0.7
  }
}
layer {
  name: "loss2/classifier_plantvillage"
  type: "InnerProduct"
  bottom: "loss2/fc"
  top: "loss2/classifier_plantvillage"
  param {
    lr_mult: 1
    decay_mult: 1
  }
  param {
    lr_mult: 2
    decay_mult: 0
  }
  inner_product_param {
    num_output: 38
    weight_filler {
      type: "xavier"
      std: 0.0009765625
    }
    bias_filler {
      type: "constant"
      value: 0
    }
  }
}
layer {
  name: "inception_4e/1x1"
  type: "Convolution"
  bottom: "inception_4d/output"
  top: "inception_4e/1x1"
  param {
    lr_mult: 1
    decay_mult: 1
  }
  param {
    lr_mult: 2
    decay_mult: 0
  }
  convolution_param {
    num_output: 256
    kernel_size: 1
    weight_filler {
      type: "xavier"
      std: 0.03
    }
    bias_filler {
      type: "constant"
      value: 0.2
    }
  }
}
layer {
  name: "inception_4e/relu_1x1"
  type: "ReLU"
  bottom: "inception_4e/1x1"
  top: "inception_4e/1x1"
}
layer {
  name: "inception_4e/3x3_reduce"
  type: "Convolution"
  bottom: "inception_4d/output"
  top: "inception_4e/3x3_reduce"
  param {
    lr_mult: 1
    decay_mult: 1
  }
  param {
    lr_mult: 2
    decay_mult: 0
  }
  convolution_param {
    num_output: 160
    kernel_size: 1
    weight_filler {
      type: "xavier"
      std: 0.09
    }
    bias_filler {
      type: "constant"
      value: 0.2
    }
  }
}
layer {
  name: "inception_4e/relu_3x3_reduce"
  type: "ReLU"
  bottom: "inception_4e/3x3_reduce"
  top: "inception_4e/3x3_reduce"
}
layer {
  name: "inception_4e/3x3"
  type: "Convolution"
  bottom: "inception_4e/3x3_reduce"
  top: "inception_4e/3x3"
  param {
    lr_mult: 1
    decay_mult: 1
  }
  param {
    lr_mult: 2
    decay_mult: 0
  }
  convolution_param {
    num_output: 320
    pad: 1
    kernel_size: 3
    weight_filler {
      type: "xavier"
      std: 0.03
    }
    bias_filler {
      type: "constant"
      value: 0.2
    }
  }
}
layer {
  name: "inception_4e/relu_3x3"
  type: "ReLU"
  bottom: "inception_4e/3x3"
  top: "inception_4e/3x3"
}
layer {
  name: "inception_4e/5x5_reduce"
  type: "Convolution"
  bottom: "inception_4d/output"
  top: "inception_4e/5x5_reduce"
  param {
    lr_mult: 1
    decay_mult: 1
  }
  param {
    lr_mult: 2
    decay_mult: 0
  }
  convolution_param {
    num_output: 32
    kernel_size: 1
    weight_filler {
      type: "xavier"
      std: 0.2
    }
    bias_filler {
      type: "constant"
      value: 0.2
    }
  }
}
layer {
  name: "inception_4e/relu_5x5_reduce"
  type: "ReLU"
  bottom: "inception_4e/5x5_reduce"
  top: "inception_4e/5x5_reduce"
}
layer {
  name: "inception_4e/5x5"
  type: "Convolution"
  bottom: "inception_4e/5x5_reduce"
  top: "inception_4e/
I0403 18:18:05.477453  6788 layer_factory.hpp:77] Creating layer data
I0403 18:18:05.478080  6788 net.cpp:91] Creating Layer data
I0403 18:18:05.478111  6788 net.cpp:399] data -> data
I0403 18:18:05.478164  6788 net.cpp:399] data -> label
I0403 18:18:05.478202  6788 data_transformer.cpp:25] Loading mean file from: /home/mohanty/data/final_dataset/lmdb/segmented-50-50/mean.binaryproto
I0403 18:18:05.479393  6791 db_lmdb.cpp:38] Opened lmdb /home/mohanty/data/final_dataset/lmdb/segmented-50-50/test_db
I0403 18:18:05.491837  6788 data_layer.cpp:41] output data size: 24,3,224,224
I0403 18:18:05.520798  6788 net.cpp:141] Setting up data
I0403 18:18:05.520854  6788 net.cpp:148] Top shape: 24 3 224 224 (3612672)
I0403 18:18:05.520877  6788 net.cpp:148] Top shape: 24 (24)
I0403 18:18:05.520894  6788 net.cpp:156] Memory required for data: 14450784
I0403 18:18:05.520920  6788 layer_factory.hpp:77] Creating layer label_data_1_split
I0403 18:18:05.520948  6788 net.cpp:91] Creating Layer label_data_1_split
I0403 18:18:05.520967  6788 net.cpp:425] label_data_1_split <- label
I0403 18:18:05.520998  6788 net.cpp:399] label_data_1_split -> label_data_1_split_0
I0403 18:18:05.521026  6788 net.cpp:399] label_data_1_split -> label_data_1_split_1
I0403 18:18:05.521047  6788 net.cpp:399] label_data_1_split -> label_data_1_split_2
I0403 18:18:05.521070  6788 net.cpp:399] label_data_1_split -> label_data_1_split_3
I0403 18:18:05.521090  6788 net.cpp:399] label_data_1_split -> label_data_1_split_4
I0403 18:18:05.521109  6788 net.cpp:399] label_data_1_split -> label_data_1_split_5
I0403 18:18:05.521129  6788 net.cpp:399] label_data_1_split -> label_data_1_split_6
I0403 18:18:05.521150  6788 net.cpp:399] label_data_1_split -> label_data_1_split_7
I0403 18:18:05.521172  6788 net.cpp:399] label_data_1_split -> label_data_1_split_8
I0403 18:18:05.521193  6788 net.cpp:399] label_data_1_split -> label_data_1_split_9
I0403 18:18:05.521317  6788 net.cpp:141] Setting up label_data_1_split
I0403 18:18:05.521342  6788 net.cpp:148] Top shape: 24 (24)
I0403 18:18:05.521360  6788 net.cpp:148] Top shape: 24 (24)
I0403 18:18:05.521378  6788 net.cpp:148] Top shape: 24 (24)
I0403 18:18:05.521395  6788 net.cpp:148] Top shape: 24 (24)
I0403 18:18:05.521411  6788 net.cpp:148] Top shape: 24 (24)
I0403 18:18:05.521428  6788 net.cpp:148] Top shape: 24 (24)
I0403 18:18:05.521445  6788 net.cpp:148] Top shape: 24 (24)
I0403 18:18:05.521462  6788 net.cpp:148] Top shape: 24 (24)
I0403 18:18:05.521478  6788 net.cpp:148] Top shape: 24 (24)
I0403 18:18:05.521497  6788 net.cpp:148] Top shape: 24 (24)
I0403 18:18:05.521544  6788 net.cpp:156] Memory required for data: 14451744
I0403 18:18:05.521563  6788 layer_factory.hpp:77] Creating layer conv1/7x7_s2
I0403 18:18:05.521595  6788 net.cpp:91] Creating Layer conv1/7x7_s2
I0403 18:18:05.521615  6788 net.cpp:425] conv1/7x7_s2 <- data
I0403 18:18:05.521636  6788 net.cpp:399] conv1/7x7_s2 -> conv1/7x7_s2
I0403 18:18:05.668644  6788 net.cpp:141] Setting up conv1/7x7_s2
I0403 18:18:05.668730  6788 net.cpp:148] Top shape: 24 64 112 112 (19267584)
I0403 18:18:05.668747  6788 net.cpp:156] Memory required for data: 91522080
I0403 18:18:05.668778  6788 layer_factory.hpp:77] Creating layer conv1/relu_7x7
I0403 18:18:05.668807  6788 net.cpp:91] Creating Layer conv1/relu_7x7
I0403 18:18:05.668824  6788 net.cpp:425] conv1/relu_7x7 <- conv1/7x7_s2
I0403 18:18:05.668843  6788 net.cpp:386] conv1/relu_7x7 -> conv1/7x7_s2 (in-place)
I0403 18:18:05.669101  6788 net.cpp:141] Setting up conv1/relu_7x7
I0403 18:18:05.669128  6788 net.cpp:148] Top shape: 24 64 112 112 (19267584)
I0403 18:18:05.669144  6788 net.cpp:156] Memory required for data: 168592416
I0403 18:18:05.669159  6788 layer_factory.hpp:77] Creating layer pool1/3x3_s2
I0403 18:18:05.669183  6788 net.cpp:91] Creating Layer pool1/3x3_s2
I0403 18:18:05.669201  6788 net.cpp:425] pool1/3x3_s2 <- conv1/7x7_s2
I0403 18:18:05.669229  6788 net.cpp:399] pool1/3x3_s2 -> pool1/3x3_s2
I0403 18:18:05.669301  6788 net.cpp:141] Setting up pool1/3x3_s2
I0403 18:18:05.669325  6788 net.cpp:148] Top shape: 24 64 56 56 (4816896)
I0403 18:18:05.669342  6788 net.cpp:156] Memory required for data: 187860000
I0403 18:18:05.669356  6788 layer_factory.hpp:77] Creating layer pool1/norm1
I0403 18:18:05.669380  6788 net.cpp:91] Creating Layer pool1/norm1
I0403 18:18:05.669399  6788 net.cpp:425] pool1/norm1 <- pool1/3x3_s2
I0403 18:18:05.669416  6788 net.cpp:399] pool1/norm1 -> pool1/norm1
I0403 18:18:05.669704  6788 net.cpp:141] Setting up pool1/norm1
I0403 18:18:05.669731  6788 net.cpp:148] Top shape: 24 64 56 56 (4816896)
I0403 18:18:05.669747  6788 net.cpp:156] Memory required for data: 207127584
I0403 18:18:05.669764  6788 layer_factory.hpp:77] Creating layer conv2/3x3_reduce
I0403 18:18:05.669788  6788 net.cpp:91] Creating Layer conv2/3x3_reduce
I0403 18:18:05.669806  6788 net.cpp:425] conv2/3x3_reduce <- pool1/norm1
I0403 18:18:05.669824  6788 net.cpp:399] conv2/3x3_reduce -> conv2/3x3_reduce
I0403 18:18:05.671214  6788 net.cpp:141] Setting up conv2/3x3_reduce
I0403 18:18:05.671247  6788 net.cpp:148] Top shape: 24 64 56 56 (4816896)
I0403 18:18:05.671262  6788 net.cpp:156] Memory required for data: 226395168
I0403 18:18:05.671284  6788 layer_factory.hpp:77] Creating layer conv2/relu_3x3_reduce
I0403 18:18:05.671303  6788 net.cpp:91] Creating Layer conv2/relu_3x3_reduce
I0403 18:18:05.671320  6788 net.cpp:425] conv2/relu_3x3_reduce <- conv2/3x3_reduce
I0403 18:18:05.671339  6788 net.cpp:386] conv2/relu_3x3_reduce -> conv2/3x3_reduce (in-place)
I0403 18:18:05.671593  6788 net.cpp:141] Setting up conv2/relu_3x3_reduce
I0403 18:18:05.671622  6788 net.cpp:148] Top shape: 24 64 56 56 (4816896)
I0403 18:18:05.671638  6788 net.cpp:156] Memory required for data: 245662752
I0403 18:18:05.671653  6788 layer_factory.hpp:77] Creating layer conv2/3x3
I0403 18:18:05.671675  6788 net.cpp:91] Creating Layer conv2/3x3
I0403 18:18:05.671692  6788 net.cpp:425] conv2/3x3 <- conv2/3x3_reduce
I0403 18:18:05.671712  6788 net.cpp:399] conv2/3x3 -> conv2/3x3
I0403 18:18:05.674021  6788 net.cpp:141] Setting up conv2/3x3
I0403 18:18:05.674052  6788 net.cpp:148] Top shape: 24 192 56 56 (14450688)
I0403 18:18:05.674069  6788 net.cpp:156] Memory required for data: 303465504
I0403 18:18:05.674091  6788 layer_factory.hpp:77] Creating layer conv2/relu_3x3
I0403 18:18:05.674110  6788 net.cpp:91] Creating Layer conv2/relu_3x3
I0403 18:18:05.674127  6788 net.cpp:425] conv2/relu_3x3 <- conv2/3x3
I0403 18:18:05.674144  6788 net.cpp:386] conv2/relu_3x3 -> conv2/3x3 (in-place)
I0403 18:18:05.674314  6788 net.cpp:141] Setting up conv2/relu_3x3
I0403 18:18:05.674341  6788 net.cpp:148] Top shape: 24 192 56 56 (14450688)
I0403 18:18:05.674389  6788 net.cpp:156] Memory required for data: 361268256
I0403 18:18:05.674407  6788 layer_factory.hpp:77] Creating layer conv2/norm2
I0403 18:18:05.674425  6788 net.cpp:91] Creating Layer conv2/norm2
I0403 18:18:05.674442  6788 net.cpp:425] conv2/norm2 <- conv2/3x3
I0403 18:18:05.674460  6788 net.cpp:399] conv2/norm2 -> conv2/norm2
I0403 18:18:05.674752  6788 net.cpp:141] Setting up conv2/norm2
I0403 18:18:05.674782  6788 net.cpp:148] Top shape: 24 192 56 56 (14450688)
I0403 18:18:05.674796  6788 net.cpp:156] Memory required for data: 419071008
I0403 18:18:05.674813  6788 layer_factory.hpp:77] Creating layer pool2/3x3_s2
I0403 18:18:05.674830  6788 net.cpp:91] Creating Layer pool2/3x3_s2
I0403 18:18:05.674847  6788 net.cpp:425] pool2/3x3_s2 <- conv2/norm2
I0403 18:18:05.674866  6788 net.cpp:399] pool2/3x3_s2 -> pool2/3x3_s2
I0403 18:18:05.674916  6788 net.cpp:141] Setting up pool2/3x3_s2
I0403 18:18:05.674939  6788 net.cpp:148] Top shape: 24 192 28 28 (3612672)
I0403 18:18:05.674954  6788 net.cpp:156] Memory required for data: 433521696
I0403 18:18:05.674970  6788 layer_factory.hpp:77] Creating layer pool2/3x3_s2_pool2/3x3_s2_0_split
I0403 18:18:05.674989  6788 net.cpp:91] Creating Layer pool2/3x3_s2_pool2/3x3_s2_0_split
I0403 18:18:05.675005  6788 net.cpp:425] pool2/3x3_s2_pool2/3x3_s2_0_split <- pool2/3x3_s2
I0403 18:18:05.675024  6788 net.cpp:399] pool2/3x3_s2_pool2/3x3_s2_0_split -> pool2/3x3_s2_pool2/3x3_s2_0_split_0
I0403 18:18:05.675043  6788 net.cpp:399] pool2/3x3_s2_pool2/3x3_s2_0_split -> pool2/3x3_s2_pool2/3x3_s2_0_split_1
I0403 18:18:05.675063  6788 net.cpp:399] pool2/3x3_s2_pool2/3x3_s2_0_split -> pool2/3x3_s2_pool2/3x3_s2_0_split_2
I0403 18:18:05.675083  6788 net.cpp:399] pool2/3x3_s2_pool2/3x3_s2_0_split -> pool2/3x3_s2_pool2/3x3_s2_0_split_3
I0403 18:18:05.675148  6788 net.cpp:141] Setting up pool2/3x3_s2_pool2/3x3_s2_0_split
I0403 18:18:05.675171  6788 net.cpp:148] Top shape: 24 192 28 28 (3612672)
I0403 18:18:05.675189  6788 net.cpp:148] Top shape: 24 192 28 28 (3612672)
I0403 18:18:05.675205  6788 net.cpp:148] Top shape: 24 192 28 28 (3612672)
I0403 18:18:05.675230  6788 net.cpp:148] Top shape: 24 192 28 28 (3612672)
I0403 18:18:05.675245  6788 net.cpp:156] Memory required for data: 491324448
I0403 18:18:05.675261  6788 layer_factory.hpp:77] Creating layer inception_3a/1x1
I0403 18:18:05.675282  6788 net.cpp:91] Creating Layer inception_3a/1x1
I0403 18:18:05.675298  6788 net.cpp:425] inception_3a/1x1 <- pool2/3x3_s2_pool2/3x3_s2_0_split_0
I0403 18:18:05.675318  6788 net.cpp:399] inception_3a/1x1 -> inception_3a/1x1
I0403 18:18:05.676856  6788 net.cpp:141] Setting up inception_3a/1x1
I0403 18:18:05.676885  6788 net.cpp:148] Top shape: 24 64 28 28 (1204224)
I0403 18:18:05.676903  6788 net.cpp:156] Memory required for data: 496141344
I0403 18:18:05.676921  6788 layer_factory.hpp:77] Creating layer inception_3a/relu_1x1
I0403 18:18:05.676940  6788 net.cpp:91] Creating Layer inception_3a/relu_1x1
I0403 18:18:05.676957  6788 net.cpp:425] inception_3a/relu_1x1 <- inception_3a/1x1
I0403 18:18:05.676975  6788 net.cpp:386] inception_3a/relu_1x1 -> inception_3a/1x1 (in-place)
I0403 18:18:05.677155  6788 net.cpp:141] Setting up inception_3a/relu_1x1
I0403 18:18:05.677184  6788 net.cpp:148] Top shape: 24 64 28 28 (1204224)
I0403 18:18:05.677201  6788 net.cpp:156] Memory required for data: 500958240
I0403 18:18:05.677222  6788 layer_factory.hpp:77] Creating layer inception_3a/3x3_reduce
I0403 18:18:05.677247  6788 net.cpp:91] Creating Layer inception_3a/3x3_reduce
I0403 18:18:05.677264  6788 net.cpp:425] inception_3a/3x3_reduce <- pool2/3x3_s2_pool2/3x3_s2_0_split_1
I0403 18:18:05.677284  6788 net.cpp:399] inception_3a/3x3_reduce -> inception_3a/3x3_reduce
I0403 18:18:05.679050  6788 net.cpp:141] Setting up inception_3a/3x3_reduce
I0403 18:18:05.679080  6788 net.cpp:148] Top shape: 24 96 28 28 (1806336)
I0403 18:18:05.679096  6788 net.cpp:156] Memory required for data: 508183584
I0403 18:18:05.679121  6788 layer_factory.hpp:77] Creating layer inception_3a/relu_3x3_reduce
I0403 18:18:05.679157  6788 net.cpp:91] Creating Layer inception_3a/relu_3x3_reduce
I0403 18:18:05.679175  6788 net.cpp:425] inception_3a/relu_3x3_reduce <- inception_3a/3x3_reduce
I0403 18:18:05.679196  6788 net.cpp:386] inception_3a/relu_3x3_reduce -> inception_3a/3x3_reduce (in-place)
I0403 18:18:05.679390  6788 net.cpp:141] Setting up inception_3a/relu_3x3_reduce
I0403 18:18:05.679416  6788 net.cpp:148] Top shape: 24 96 28 28 (1806336)
I0403 18:18:05.679430  6788 net.cpp:156] Memory required for data: 515408928
I0403 18:18:05.679445  6788 layer_factory.hpp:77] Creating layer inception_3a/3x3
I0403 18:18:05.679469  6788 net.cpp:91] Creating Layer inception_3a/3x3
I0403 18:18:05.679487  6788 net.cpp:425] inception_3a/3x3 <- inception_3a/3x3_reduce
I0403 18:18:05.679510  6788 net.cpp:399] inception_3a/3x3 -> inception_3a/3x3
I0403 18:18:05.681206  6788 net.cpp:141] Setting up inception_3a/3x3
I0403 18:18:05.681239  6788 net.cpp:148] Top shape: 24 128 28 28 (2408448)
I0403 18:18:05.681255  6788 net.cpp:156] Memory required for data: 525042720
I0403 18:18:05.681274  6788 layer_factory.hpp:77] Creating layer inception_3a/relu_3x3
I0403 18:18:05.681296  6788 net.cpp:91] Creating Layer inception_3a/relu_3x3
I0403 18:18:05.681313  6788 net.cpp:425] inception_3a/relu_3x3 <- inception_3a/3x3
I0403 18:18:05.681330  6788 net.cpp:386] inception_3a/relu_3x3 -> inception_3a/3x3 (in-place)
I0403 18:18:05.681615  6788 net.cpp:141] Setting up inception_3a/relu_3x3
I0403 18:18:05.681643  6788 net.cpp:148] Top shape: 24 128 28 28 (2408448)
I0403 18:18:05.681658  6788 net.cpp:156] Memory required for data: 534676512
I0403 18:18:05.681674  6788 layer_factory.hpp:77] Creating layer inception_3a/5x5_reduce
I0403 18:18:05.681699  6788 net.cpp:91] Creating Layer inception_3a/5x5_reduce
I0403 18:18:05.681717  6788 net.cpp:425] inception_3a/5x5_reduce <- pool2/3x3_s2_pool2/3x3_s2_0_split_2
I0403 18:18:05.681736  6788 net.cpp:399] inception_3a/5x5_reduce -> inception_3a/5x5_reduce
I0403 18:18:05.682744  6788 net.cpp:141] Setting up inception_3a/5x5_reduce
I0403 18:18:05.682776  6788 net.cpp:148] Top shape: 24 16 28 28 (301056)
I0403 18:18:05.682793  6788 net.cpp:156] Memory required for data: 535880736
I0403 18:18:05.682812  6788 layer_factory.hpp:77] Creating layer inception_3a/relu_5x5_reduce
I0403 18:18:05.682832  6788 net.cpp:91] Creating Layer inception_3a/relu_5x5_reduce
I0403 18:18:05.682847  6788 net.cpp:425] inception_3a/relu_5x5_reduce <- inception_3a/5x5_reduce
I0403 18:18:05.682868  6788 net.cpp:386] inception_3a/relu_5x5_reduce -> inception_3a/5x5_reduce (in-place)
I0403 18:18:05.683158  6788 net.cpp:141] Setting up inception_3a/relu_5x5_reduce
I0403 18:18:05.683185  6788 net.cpp:148] Top shape: 24 16 28 28 (301056)
I0403 18:18:05.683202  6788 net.cpp:156] Memory required for data: 537084960
I0403 18:18:05.683223  6788 layer_factory.hpp:77] Creating layer inception_3a/5x5
I0403 18:18:05.683248  6788 net.cpp:91] Creating Layer inception_3a/5x5
I0403 18:18:05.683265  6788 net.cpp:425] inception_3a/5x5 <- inception_3a/5x5_reduce
I0403 18:18:05.683287  6788 net.cpp:399] inception_3a/5x5 -> inception_3a/5x5
I0403 18:18:05.684340  6788 net.cpp:141] Setting up inception_3a/5x5
I0403 18:18:05.684368  6788 net.cpp:148] Top shape: 24 32 28 28 (602112)
I0403 18:18:05.684386  6788 net.cpp:156] Memory required for data: 539493408
I0403 18:18:05.684403  6788 layer_factory.hpp:77] Creating layer inception_3a/relu_5x5
I0403 18:18:05.684424  6788 net.cpp:91] Creating Layer inception_3a/relu_5x5
I0403 18:18:05.684442  6788 net.cpp:425] inception_3a/relu_5x5 <- inception_3a/5x5
I0403 18:18:05.684460  6788 net.cpp:386] inception_3a/relu_5x5 -> inception_3a/5x5 (in-place)
I0403 18:18:05.684641  6788 net.cpp:141] Setting up inception_3a/relu_5x5
I0403 18:18:05.684669  6788 net.cpp:148] Top shape: 24 32 28 28 (602112)
I0403 18:18:05.684684  6788 net.cpp:156] Memory required for data: 541901856
I0403 18:18:05.684698  6788 layer_factory.hpp:77] Creating layer inception_3a/pool
I0403 18:18:05.684717  6788 net.cpp:91] Creating Layer inception_3a/pool
I0403 18:18:05.684756  6788 net.cpp:425] inception_3a/pool <- pool2/3x3_s2_pool2/3x3_s2_0_split_3
I0403 18:18:05.684777  6788 net.cpp:399] inception_3a/pool -> inception_3a/pool
I0403 18:18:05.684837  6788 net.cpp:141] Setting up inception_3a/pool
I0403 18:18:05.684861  6788 net.cpp:148] Top shape: 24 192 28 28 (3612672)
I0403 18:18:05.684876  6788 net.cpp:156] Memory required for data: 556352544
I0403 18:18:05.684891  6788 layer_factory.hpp:77] Creating layer inception_3a/pool_proj
I0403 18:18:05.684917  6788 net.cpp:91] Creating Layer inception_3a/pool_proj
I0403 18:18:05.684936  6788 net.cpp:425] inception_3a/pool_proj <- inception_3a/pool
I0403 18:18:05.684954  6788 net.cpp:399] inception_3a/pool_proj -> inception_3a/pool_proj
I0403 18:18:05.685959  6788 net.cpp:141] Setting up inception_3a/pool_proj
I0403 18:18:05.685988  6788 net.cpp:148] Top shape: 24 32 28 28 (602112)
I0403 18:18:05.686004  6788 net.cpp:156] Memory required for data: 558760992
I0403 18:18:05.686030  6788 layer_factory.hpp:77] Creating layer inception_3a/relu_pool_proj
I0403 18:18:05.686051  6788 net.cpp:91] Creating Layer inception_3a/relu_pool_proj
I0403 18:18:05.686069  6788 net.cpp:425] inception_3a/relu_pool_proj <- inception_3a/pool_proj
I0403 18:18:05.686090  6788 net.cpp:386] inception_3a/relu_pool_proj -> inception_3a/pool_proj (in-place)
I0403 18:18:05.686378  6788 net.cpp:141] Setting up inception_3a/relu_pool_proj
I0403 18:18:05.686404  6788 net.cpp:148] Top shape: 24 32 28 28 (602112)
I0403 18:18:05.686420  6788 net.cpp:156] Memory required for data: 561169440
I0403 18:18:05.686436  6788 layer_factory.hpp:77] Creating layer inception_3a/output
I0403 18:18:05.686458  6788 net.cpp:91] Creating Layer inception_3a/output
I0403 18:18:05.686476  6788 net.cpp:425] inception_3a/output <- inception_3a/1x1
I0403 18:18:05.686494  6788 net.cpp:425] inception_3a/output <- inception_3a/3x3
I0403 18:18:05.686511  6788 net.cpp:425] inception_3a/output <- inception_3a/5x5
I0403 18:18:05.686527  6788 net.cpp:425] inception_3a/output <- inception_3a/pool_proj
I0403 18:18:05.686544  6788 net.cpp:399] inception_3a/output -> inception_3a/output
I0403 18:18:05.686594  6788 net.cpp:141] Setting up inception_3a/output
I0403 18:18:05.686619  6788 net.cpp:148] Top shape: 24 256 28 28 (4816896)
I0403 18:18:05.686635  6788 net.cpp:156] Memory required for data: 580437024
I0403 18:18:05.686650  6788 layer_factory.hpp:77] Creating layer inception_3a/output_inception_3a/output_0_split
I0403 18:18:05.686667  6788 net.cpp:91] Creating Layer inception_3a/output_inception_3a/output_0_split
I0403 18:18:05.686684  6788 net.cpp:425] inception_3a/output_inception_3a/output_0_split <- inception_3a/output
I0403 18:18:05.686705  6788 net.cpp:399] inception_3a/output_inception_3a/output_0_split -> inception_3a/output_inception_3a/output_0_split_0
I0403 18:18:05.686728  6788 net.cpp:399] inception_3a/output_inception_3a/output_0_split -> inception_3a/output_inception_3a/output_0_split_1
I0403 18:18:05.686753  6788 net.cpp:399] inception_3a/output_inception_3a/output_0_split -> inception_3a/output_inception_3a/output_0_split_2
I0403 18:18:05.686777  6788 net.cpp:399] inception_3a/output_inception_3a/output_0_split -> inception_3a/output_inception_3a/output_0_split_3
I0403 18:18:05.686854  6788 net.cpp:141] Setting up inception_3a/output_inception_3a/output_0_split
I0403 18:18:05.686877  6788 net.cpp:148] Top shape: 24 256 28 28 (4816896)
I0403 18:18:05.686897  6788 net.cpp:148] Top shape: 24 256 28 28 (4816896)
I0403 18:18:05.686915  6788 net.cpp:148] Top shape: 24 256 28 28 (4816896)
I0403 18:18:05.686931  6788 net.cpp:148] Top shape: 24 256 28 28 (4816896)
I0403 18:18:05.686946  6788 net.cpp:156] Memory required for data: 657507360
I0403 18:18:05.686961  6788 layer_factory.hpp:77] Creating layer inception_3b/1x1
I0403 18:18:05.686982  6788 net.cpp:91] Creating Layer inception_3b/1x1
I0403 18:18:05.687000  6788 net.cpp:425] inception_3b/1x1 <- inception_3a/output_inception_3a/output_0_split_0
I0403 18:18:05.687021  6788 net.cpp:399] inception_3b/1x1 -> inception_3b/1x1
I0403 18:18:05.688202  6788 net.cpp:141] Setting up inception_3b/1x1
I0403 18:18:05.688248  6788 net.cpp:148] Top shape: 24 128 28 28 (2408448)
I0403 18:18:05.688264  6788 net.cpp:156] Memory required for data: 667141152
I0403 18:18:05.688283  6788 layer_factory.hpp:77] Creating layer inception_3b/relu_1x1
I0403 18:18:05.688305  6788 net.cpp:91] Creating Layer inception_3b/relu_1x1
I0403 18:18:05.688323  6788 net.cpp:425] inception_3b/relu_1x1 <- inception_3b/1x1
I0403 18:18:05.688339  6788 net.cpp:386] inception_3b/relu_1x1 -> inception_3b/1x1 (in-place)
I0403 18:18:05.688527  6788 net.cpp:141] Setting up inception_3b/relu_1x1
I0403 18:18:05.688554  6788 net.cpp:148] Top shape: 24 128 28 28 (2408448)
I0403 18:18:05.688568  6788 net.cpp:156] Memory required for data: 676774944
I0403 18:18:05.688583  6788 layer_factory.hpp:77] Creating layer inception_3b/3x3_reduce
I0403 18:18:05.688609  6788 net.cpp:91] Creating Layer inception_3b/3x3_reduce
I0403 18:18:05.688627  6788 net.cpp:425] inception_3b/3x3_reduce <- inception_3a/output_inception_3a/output_0_split_1
I0403 18:18:05.688647  6788 net.cpp:399] inception_3b/3x3_reduce -> inception_3b/3x3_reduce
I0403 18:18:05.689822  6788 net.cpp:141] Setting up inception_3b/3x3_reduce
I0403 18:18:05.689851  6788 net.cpp:148] Top shape: 24 128 28 28 (2408448)
I0403 18:18:05.689867  6788 net.cpp:156] Memory required for data: 686408736
I0403 18:18:05.689885  6788 layer_factory.hpp:77] Creating layer inception_3b/relu_3x3_reduce
I0403 18:18:05.689906  6788 net.cpp:91] Creating Layer inception_3b/relu_3x3_reduce
I0403 18:18:05.689924  6788 net.cpp:425] inception_3b/relu_3x3_reduce <- inception_3b/3x3_reduce
I0403 18:18:05.689942  6788 net.cpp:386] inception_3b/relu_3x3_reduce -> inception_3b/3x3_reduce (in-place)
I0403 18:18:05.690124  6788 net.cpp:141] Setting up inception_3b/relu_3x3_reduce
I0403 18:18:05.690152  6788 net.cpp:148] Top shape: 24 128 28 28 (2408448)
I0403 18:18:05.690167  6788 net.cpp:156] Memory required for data: 696042528
I0403 18:18:05.690184  6788 layer_factory.hpp:77] Creating layer inception_3b/3x3
I0403 18:18:05.690212  6788 net.cpp:91] Creating Layer inception_3b/3x3
I0403 18:18:05.690233  6788 net.cpp:425] inception_3b/3x3 <- inception_3b/3x3_reduce
I0403 18:18:05.690255  6788 net.cpp:399] inception_3b/3x3 -> inception_3b/3x3
I0403 18:18:05.693312  6788 net.cpp:141] Setting up inception_3b/3x3
I0403 18:18:05.693342  6788 net.cpp:148] Top shape: 24 192 28 28 (3612672)
I0403 18:18:05.693358  6788 net.cpp:156] Memory required for data: 710493216
I0403 18:18:05.693377  6788 layer_factory.hpp:77] Creating layer inception_3b/relu_3x3
I0403 18:18:05.693398  6788 net.cpp:91] Creating Layer inception_3b/relu_3x3
I0403 18:18:05.693416  6788 net.cpp:425] inception_3b/relu_3x3 <- inception_3b/3x3
I0403 18:18:05.693434  6788 net.cpp:386] inception_3b/relu_3x3 -> inception_3b/3x3 (in-place)
I0403 18:18:05.693717  6788 net.cpp:141] Setting up inception_3b/relu_3x3
I0403 18:18:05.693743  6788 net.cpp:148] Top shape: 24 192 28 28 (3612672)
I0403 18:18:05.693758  6788 net.cpp:156] Memory required for data: 724943904
I0403 18:18:05.693774  6788 layer_factory.hpp:77] Creating layer inception_3b/5x5_reduce
I0403 18:18:05.693800  6788 net.cpp:91] Creating Layer inception_3b/5x5_reduce
I0403 18:18:05.693820  6788 net.cpp:425] inception_3b/5x5_reduce <- inception_3a/output_inception_3a/output_0_split_2
I0403 18:18:05.693840  6788 net.cpp:399] inception_3b/5x5_reduce -> inception_3b/5x5_reduce
I0403 18:18:05.694895  6788 net.cpp:141] Setting up inception_3b/5x5_reduce
I0403 18:18:05.694923  6788 net.cpp:148] Top shape: 24 32 28 28 (602112)
I0403 18:18:05.694939  6788 net.cpp:156] Memory required for data: 727352352
I0403 18:18:05.694959  6788 layer_factory.hpp:77] Creating layer inception_3b/relu_5x5_reduce
I0403 18:18:05.694982  6788 net.cpp:91] Creating Layer inception_3b/relu_5x5_reduce
I0403 18:18:05.694998  6788 net.cpp:425] inception_3b/relu_5x5_reduce <- inception_3b/5x5_reduce
I0403 18:18:05.695015  6788 net.cpp:386] inception_3b/relu_5x5_reduce -> inception_3b/5x5_reduce (in-place)
I0403 18:18:05.695219  6788 net.cpp:141] Setting up inception_3b/relu_5x5_reduce
I0403 18:18:05.695246  6788 net.cpp:148] Top shape: 24 32 28 28 (602112)
I0403 18:18:05.695261  6788 net.cpp:156] Memory required for data: 729760800
I0403 18:18:05.695276  6788 layer_factory.hpp:77] Creating layer inception_3b/5x5
I0403 18:18:05.695299  6788 net.cpp:91] Creating Layer inception_3b/5x5
I0403 18:18:05.695317  6788 net.cpp:425] inception_3b/5x5 <- inception_3b/5x5_reduce
I0403 18:18:05.695340  6788 net.cpp:399] inception_3b/5x5 -> inception_3b/5x5
I0403 18:18:05.697412  6788 net.cpp:141] Setting up inception_3b/5x5
I0403 18:18:05.697441  6788 net.cpp:148] Top shape: 24 96 28 28 (1806336)
I0403 18:18:05.697458  6788 net.cpp:156] Memory required for data: 736986144
I0403 18:18:05.697481  6788 layer_factory.hpp:77] Creating layer inception_3b/relu_5x5
I0403 18:18:05.697507  6788 net.cpp:91] Creating Layer inception_3b/relu_5x5
I0403 18:18:05.697525  6788 net.cpp:425] inception_3b/relu_5x5 <- inception_3b/5x5
I0403 18:18:05.697543  6788 net.cpp:386] inception_3b/relu_5x5 -> inception_3b/5x5 (in-place)
I0403 18:18:05.697751  6788 net.cpp:141] Setting up inception_3b/relu_5x5
I0403 18:18:05.697777  6788 net.cpp:148] Top shape: 24 96 28 28 (1806336)
I0403 18:18:05.697793  6788 net.cpp:156] Memory required for data: 744211488
I0403 18:18:05.697815  6788 layer_factory.hpp:77] Creating layer inception_3b/pool
I0403 18:18:05.697839  6788 net.cpp:91] Creating Layer inception_3b/pool
I0403 18:18:05.697862  6788 net.cpp:425] inception_3b/pool <- inception_3a/output_inception_3a/output_0_split_3
I0403 18:18:05.697887  6788 net.cpp:399] inception_3b/pool -> inception_3b/pool
I0403 18:18:05.697953  6788 net.cpp:141] Setting up inception_3b/pool
I0403 18:18:05.697983  6788 net.cpp:148] Top shape: 24 256 28 28 (4816896)
I0403 18:18:05.697999  6788 net.cpp:156] Memory required for data: 763479072
I0403 18:18:05.698015  6788 layer_factory.hpp:77] Creating layer inception_3b/pool_proj
I0403 18:18:05.698037  6788 net.cpp:91] Creating Layer inception_3b/pool_proj
I0403 18:18:05.698056  6788 net.cpp:425] inception_3b/pool_proj <- inception_3b/pool
I0403 18:18:05.698078  6788 net.cpp:399] inception_3b/pool_proj -> inception_3b/pool_proj
I0403 18:18:05.699208  6788 net.cpp:141] Setting up inception_3b/pool_proj
I0403 18:18:05.699240  6788 net.cpp:148] Top shape: 24 64 28 28 (1204224)
I0403 18:18:05.699257  6788 net.cpp:156] Memory required for data: 768295968
I0403 18:18:05.699276  6788 layer_factory.hpp:77] Creating layer inception_3b/relu_pool_proj
I0403 18:18:05.699295  6788 net.cpp:91] Creating Layer inception_3b/relu_pool_proj
I0403 18:18:05.699312  6788 net.cpp:425] inception_3b/relu_pool_proj <- inception_3b/pool_proj
I0403 18:18:05.699333  6788 net.cpp:386] inception_3b/relu_pool_proj -> inception_3b/pool_proj (in-place)
I0403 18:18:05.699744  6788 net.cpp:141] Setting up inception_3b/relu_pool_proj
I0403 18:18:05.699774  6788 net.cpp:148] Top shape: 24 64 28 28 (1204224)
I0403 18:18:05.699791  6788 net.cpp:156] Memory required for data: 773112864
I0403 18:18:05.699807  6788 layer_factory.hpp:77] Creating layer inception_3b/output
I0403 18:18:05.699826  6788 net.cpp:91] Creating Layer inception_3b/output
I0403 18:18:05.699842  6788 net.cpp:425] inception_3b/output <- inception_3b/1x1
I0403 18:18:05.699859  6788 net.cpp:425] inception_3b/output <- inception_3b/3x3
I0403 18:18:05.699877  6788 net.cpp:425] inception_3b/output <- inception_3b/5x5
I0403 18:18:05.699892  6788 net.cpp:425] inception_3b/output <- inception_3b/pool_proj
I0403 18:18:05.699914  6788 net.cpp:399] inception_3b/output -> inception_3b/output
I0403 18:18:05.699961  6788 net.cpp:141] Setting up inception_3b/output
I0403 18:18:05.699985  6788 net.cpp:148] Top shape: 24 480 28 28 (9031680)
I0403 18:18:05.700001  6788 net.cpp:156] Memory required for data: 809239584
I0403 18:18:05.700016  6788 layer_factory.hpp:77] Creating layer pool3/3x3_s2
I0403 18:18:05.700037  6788 net.cpp:91] Creating Layer pool3/3x3_s2
I0403 18:18:05.700054  6788 net.cpp:425] pool3/3x3_s2 <- inception_3b/output
I0403 18:18:05.700091  6788 net.cpp:399] pool3/3x3_s2 -> pool3/3x3_s2
I0403 18:18:05.700155  6788 net.cpp:141] Setting up pool3/3x3_s2
I0403 18:18:05.700179  6788 net.cpp:148] Top shape: 24 480 14 14 (2257920)
I0403 18:18:05.700196  6788 net.cpp:156] Memory required for data: 818271264
I0403 18:18:05.700217  6788 layer_factory.hpp:77] Creating layer pool3/3x3_s2_pool3/3x3_s2_0_split
I0403 18:18:05.700235  6788 net.cpp:91] Creating Layer pool3/3x3_s2_pool3/3x3_s2_0_split
I0403 18:18:05.700253  6788 net.cpp:425] pool3/3x3_s2_pool3/3x3_s2_0_split <- pool3/3x3_s2
I0403 18:18:05.700273  6788 net.cpp:399] pool3/3x3_s2_pool3/3x3_s2_0_split -> pool3/3x3_s2_pool3/3x3_s2_0_split_0
I0403 18:18:05.700294  6788 net.cpp:399] pool3/3x3_s2_pool3/3x3_s2_0_split -> pool3/3x3_s2_pool3/3x3_s2_0_split_1
I0403 18:18:05.700315  6788 net.cpp:399] pool3/3x3_s2_pool3/3x3_s2_0_split -> pool3/3x3_s2_pool3/3x3_s2_0_split_2
I0403 18:18:05.700335  6788 net.cpp:399] pool3/3x3_s2_pool3/3x3_s2_0_split -> pool3/3x3_s2_pool3/3x3_s2_0_split_3
I0403 18:18:05.700417  6788 net.cpp:141] Setting up pool3/3x3_s2_pool3/3x3_s2_0_split
I0403 18:18:05.700441  6788 net.cpp:148] Top shape: 24 480 14 14 (2257920)
I0403 18:18:05.700459  6788 net.cpp:148] Top shape: 24 480 14 14 (2257920)
I0403 18:18:05.700476  6788 net.cpp:148] Top shape: 24 480 14 14 (2257920)
I0403 18:18:05.700492  6788 net.cpp:148] Top shape: 24 480 14 14 (2257920)
I0403 18:18:05.700507  6788 net.cpp:156] Memory required for data: 854397984
I0403 18:18:05.700523  6788 layer_factory.hpp:77] Creating layer inception_4a/1x1
I0403 18:18:05.700546  6788 net.cpp:91] Creating Layer inception_4a/1x1
I0403 18:18:05.700565  6788 net.cpp:425] inception_4a/1x1 <- pool3/3x3_s2_pool3/3x3_s2_0_split_0
I0403 18:18:05.700588  6788 net.cpp:399] inception_4a/1x1 -> inception_4a/1x1
I0403 18:18:05.702265  6788 net.cpp:141] Setting up inception_4a/1x1
I0403 18:18:05.702294  6788 net.cpp:148] Top shape: 24 192 14 14 (903168)
I0403 18:18:05.702311  6788 net.cpp:156] Memory required for data: 858010656
I0403 18:18:05.702332  6788 layer_factory.hpp:77] Creating layer inception_4a/relu_1x1
I0403 18:18:05.702352  6788 net.cpp:91] Creating Layer inception_4a/relu_1x1
I0403 18:18:05.702368  6788 net.cpp:425] inception_4a/relu_1x1 <- inception_4a/1x1
I0403 18:18:05.702389  6788 net.cpp:386] inception_4a/relu_1x1 -> inception_4a/1x1 (in-place)
I0403 18:18:05.702577  6788 net.cpp:141] Setting up inception_4a/relu_1x1
I0403 18:18:05.702603  6788 net.cpp:148] Top shape: 24 192 14 14 (903168)
I0403 18:18:05.702618  6788 net.cpp:156] Memory required for data: 861623328
I0403 18:18:05.702635  6788 layer_factory.hpp:77] Creating layer inception_4a/3x3_reduce
I0403 18:18:05.702659  6788 net.cpp:91] Creating Layer inception_4a/3x3_reduce
I0403 18:18:05.702678  6788 net.cpp:425] inception_4a/3x3_reduce <- pool3/3x3_s2_pool3/3x3_s2_0_split_1
I0403 18:18:05.702700  6788 net.cpp:399] inception_4a/3x3_reduce -> inception_4a/3x3_reduce
I0403 18:18:05.704078  6788 net.cpp:141] Setting up inception_4a/3x3_reduce
I0403 18:18:05.704120  6788 net.cpp:148] Top shape: 24 96 14 14 (451584)
I0403 18:18:05.704138  6788 net.cpp:156] Memory required for data: 863429664
I0403 18:18:05.704169  6788 layer_factory.hpp:77] Creating layer inception_4a/relu_3x3_reduce
I0403 18:18:05.704203  6788 net.cpp:91] Creating Layer inception_4a/relu_3x3_reduce
I0403 18:18:05.704226  6788 net.cpp:425] inception_4a/relu_3x3_reduce <- inception_4a/3x3_reduce
I0403 18:18:05.704247  6788 net.cpp:386] inception_4a/relu_3x3_reduce -> inception_4a/3x3_reduce (in-place)
I0403 18:18:05.704438  6788 net.cpp:141] Setting up inception_4a/relu_3x3_reduce
I0403 18:18:05.704466  6788 net.cpp:148] Top shape: 24 96 14 14 (451584)
I0403 18:18:05.704494  6788 net.cpp:156] Memory required for data: 865236000
I0403 18:18:05.704510  6788 layer_factory.hpp:77] Creating layer inception_4a/3x3
I0403 18:18:05.704533  6788 net.cpp:91] Creating Layer inception_4a/3x3
I0403 18:18:05.704551  6788 net.cpp:425] inception_4a/3x3 <- inception_4a/3x3_reduce
I0403 18:18:05.704574  6788 net.cpp:399] inception_4a/3x3 -> inception_4a/3x3
I0403 18:18:05.707377  6788 net.cpp:141] Setting up inception_4a/3x3
I0403 18:18:05.707407  6788 net.cpp:148] Top shape: 24 208 14 14 (978432)
I0403 18:18:05.707422  6788 net.cpp:156] Memory required for data: 869149728
I0403 18:18:05.707442  6788 layer_factory.hpp:77] Creating layer inception_4a/relu_3x3
I0403 18:18:05.707463  6788 net.cpp:91] Creating Layer inception_4a/relu_3x3
I0403 18:18:05.707479  6788 net.cpp:425] inception_4a/relu_3x3 <- inception_4a/3x3
I0403 18:18:05.707497  6788 net.cpp:386] inception_4a/relu_3x3 -> inception_4a/3x3 (in-place)
I0403 18:18:05.707789  6788 net.cpp:141] Setting up inception_4a/relu_3x3
I0403 18:18:05.707818  6788 net.cpp:148] Top shape: 24 208 14 14 (978432)
I0403 18:18:05.707834  6788 net.cpp:156] Memory required for data: 873063456
I0403 18:18:05.707849  6788 layer_factory.hpp:77] Creating layer inception_4a/5x5_reduce
I0403 18:18:05.707872  6788 net.cpp:91] Creating Layer inception_4a/5x5_reduce
I0403 18:18:05.707891  6788 net.cpp:425] inception_4a/5x5_reduce <- pool3/3x3_s2_pool3/3x3_s2_0_split_2
I0403 18:18:05.707916  6788 net.cpp:399] inception_4a/5x5_reduce -> inception_4a/5x5_reduce
I0403 18:18:05.708978  6788 net.cpp:141] Setting up inception_4a/5x5_reduce
I0403 18:18:05.709007  6788 net.cpp:148] Top shape: 24 16 14 14 (75264)
I0403 18:18:05.709023  6788 net.cpp:156] Memory required for data: 873364512
I0403 18:18:05.709043  6788 layer_factory.hpp:77] Creating layer inception_4a/relu_5x5_reduce
I0403 18:18:05.709064  6788 net.cpp:91] Creating Layer inception_4a/relu_5x5_reduce
I0403 18:18:05.709080  6788 net.cpp:425] inception_4a/relu_5x5_reduce <- inception_4a/5x5_reduce
I0403 18:18:05.709102  6788 net.cpp:386] inception_4a/relu_5x5_reduce -> inception_4a/5x5_reduce (in-place)
I0403 18:18:05.709291  6788 net.cpp:141] Setting up inception_4a/relu_5x5_reduce
I0403 18:18:05.709318  6788 net.cpp:148] Top shape: 24 16 14 14 (75264)
I0403 18:18:05.709333  6788 net.cpp:156] Memory required for data: 873665568
I0403 18:18:05.709349  6788 layer_factory.hpp:77] Creating layer inception_4a/5x5
I0403 18:18:05.709373  6788 net.cpp:91] Creating Layer inception_4a/5x5
I0403 18:18:05.709393  6788 net.cpp:425] inception_4a/5x5 <- inception_4a/5x5_reduce
I0403 18:18:05.709415  6788 net.cpp:399] inception_4a/5x5 -> inception_4a/5x5
I0403 18:18:05.710542  6788 net.cpp:141] Setting up inception_4a/5x5
I0403 18:18:05.710574  6788 net.cpp:148] Top shape: 24 48 14 14 (225792)
I0403 18:18:05.710592  6788 net.cpp:156] Memory required for data: 874568736
I0403 18:18:05.710611  6788 layer_factory.hpp:77] Creating layer inception_4a/relu_5x5
I0403 18:18:05.710629  6788 net.cpp:91] Creating Layer inception_4a/relu_5x5
I0403 18:18:05.710645  6788 net.cpp:425] inception_4a/relu_5x5 <- inception_4a/5x5
I0403 18:18:05.710666  6788 net.cpp:386] inception_4a/relu_5x5 -> inception_4a/5x5 (in-place)
I0403 18:18:05.710852  6788 net.cpp:141] Setting up inception_4a/relu_5x5
I0403 18:18:05.710878  6788 net.cpp:148] Top shape: 24 48 14 14 (225792)
I0403 18:18:05.710896  6788 net.cpp:156] Memory required for data: 875471904
I0403 18:18:05.710911  6788 layer_factory.hpp:77] Creating layer inception_4a/pool
I0403 18:18:05.710928  6788 net.cpp:91] Creating Layer inception_4a/pool
I0403 18:18:05.710945  6788 net.cpp:425] inception_4a/pool <- pool3/3x3_s2_pool3/3x3_s2_0_split_3
I0403 18:18:05.710966  6788 net.cpp:399] inception_4a/pool -> inception_4a/pool
I0403 18:18:05.711030  6788 net.cpp:141] Setting up inception_4a/pool
I0403 18:18:05.711053  6788 net.cpp:148] Top shape: 24 480 14 14 (2257920)
I0403 18:18:05.711068  6788 net.cpp:156] Memory required for data: 884503584
I0403 18:18:05.711083  6788 layer_factory.hpp:77] Creating layer inception_4a/pool_proj
I0403 18:18:05.711113  6788 net.cpp:91] Creating Layer inception_4a/pool_proj
I0403 18:18:05.711132  6788 net.cpp:425] inception_4a/pool_proj <- inception_4a/pool
I0403 18:18:05.711150  6788 net.cpp:399] inception_4a/pool_proj -> inception_4a/pool_proj
I0403 18:18:05.712374  6788 net.cpp:141] Setting up inception_4a/pool_proj
I0403 18:18:05.712405  6788 net.cpp:148] Top shape: 24 64 14 14 (301056)
I0403 18:18:05.712437  6788 net.cpp:156] Memory required for data: 885707808
I0403 18:18:05.712457  6788 layer_factory.hpp:77] Creating layer inception_4a/relu_pool_proj
I0403 18:18:05.712476  6788 net.cpp:91] Creating Layer inception_4a/relu_pool_proj
I0403 18:18:05.712491  6788 net.cpp:425] inception_4a/relu_pool_proj <- inception_4a/pool_proj
I0403 18:18:05.712512  6788 net.cpp:386] inception_4a/relu_pool_proj -> inception_4a/pool_proj (in-place)
I0403 18:18:05.712800  6788 net.cpp:141] Setting up inception_4a/relu_pool_proj
I0403 18:18:05.712826  6788 net.cpp:148] Top shape: 24 64 14 14 (301056)
I0403 18:18:05.712842  6788 net.cpp:156] Memory required for data: 886912032
I0403 18:18:05.712857  6788 layer_factory.hpp:77] Creating layer inception_4a/output
I0403 18:18:05.712874  6788 net.cpp:91] Creating Layer inception_4a/output
I0403 18:18:05.712890  6788 net.cpp:425] inception_4a/output <- inception_4a/1x1
I0403 18:18:05.712908  6788 net.cpp:425] inception_4a/output <- inception_4a/3x3
I0403 18:18:05.712924  6788 net.cpp:425] inception_4a/output <- inception_4a/5x5
I0403 18:18:05.712940  6788 net.cpp:425] inception_4a/output <- inception_4a/pool_proj
I0403 18:18:05.712960  6788 net.cpp:399] inception_4a/output -> inception_4a/output
I0403 18:18:05.713006  6788 net.cpp:141] Setting up inception_4a/output
I0403 18:18:05.713032  6788 net.cpp:148] Top shape: 24 512 14 14 (2408448)
I0403 18:18:05.713048  6788 net.cpp:156] Memory required for data: 896545824
I0403 18:18:05.713063  6788 layer_factory.hpp:77] Creating layer inception_4a/output_inception_4a/output_0_split
I0403 18:18:05.713081  6788 net.cpp:91] Creating Layer inception_4a/output_inception_4a/output_0_split
I0403 18:18:05.713098  6788 net.cpp:425] inception_4a/output_inception_4a/output_0_split <- inception_4a/output
I0403 18:18:05.713117  6788 net.cpp:399] inception_4a/output_inception_4a/output_0_split -> inception_4a/output_inception_4a/output_0_split_0
I0403 18:18:05.713140  6788 net.cpp:399] inception_4a/output_inception_4a/output_0_split -> inception_4a/output_inception_4a/output_0_split_1
I0403 18:18:05.713160  6788 net.cpp:399] inception_4a/output_inception_4a/output_0_split -> inception_4a/output_inception_4a/output_0_split_2
I0403 18:18:05.713181  6788 net.cpp:399] inception_4a/output_inception_4a/output_0_split -> inception_4a/output_inception_4a/output_0_split_3
I0403 18:18:05.713202  6788 net.cpp:399] inception_4a/output_inception_4a/output_0_split -> inception_4a/output_inception_4a/output_0_split_4
I0403 18:18:05.713304  6788 net.cpp:141] Setting up inception_4a/output_inception_4a/output_0_split
I0403 18:18:05.713330  6788 net.cpp:148] Top shape: 24 512 14 14 (2408448)
I0403 18:18:05.713346  6788 net.cpp:148] Top shape: 24 512 14 14 (2408448)
I0403 18:18:05.713362  6788 net.cpp:148] Top shape: 24 512 14 14 (2408448)
I0403 18:18:05.713378  6788 net.cpp:148] Top shape: 24 512 14 14 (2408448)
I0403 18:18:05.713394  6788 net.cpp:148] Top shape: 24 512 14 14 (2408448)
I0403 18:18:05.713409  6788 net.cpp:156] Memory required for data: 944714784
I0403 18:18:05.713424  6788 layer_factory.hpp:77] Creating layer loss1/ave_pool
I0403 18:18:05.713445  6788 net.cpp:91] Creating Layer loss1/ave_pool
I0403 18:18:05.713462  6788 net.cpp:425] loss1/ave_pool <- inception_4a/output_inception_4a/output_0_split_0
I0403 18:18:05.713481  6788 net.cpp:399] loss1/ave_pool -> loss1/ave_pool
I0403 18:18:05.713695  6788 net.cpp:141] Setting up loss1/ave_pool
I0403 18:18:05.713721  6788 net.cpp:148] Top shape: 24 512 4 4 (196608)
I0403 18:18:05.713737  6788 net.cpp:156] Memory required for data: 945501216
I0403 18:18:05.713752  6788 layer_factory.hpp:77] Creating layer loss1/conv
I0403 18:18:05.713774  6788 net.cpp:91] Creating Layer loss1/conv
I0403 18:18:05.713793  6788 net.cpp:425] loss1/conv <- loss1/ave_pool
I0403 18:18:05.713815  6788 net.cpp:399] loss1/conv -> loss1/conv
I0403 18:18:05.715335  6788 net.cpp:141] Setting up loss1/conv
I0403 18:18:05.715368  6788 net.cpp:148] Top shape: 24 128 4 4 (49152)
I0403 18:18:05.715399  6788 net.cpp:156] Memory required for data: 945697824
I0403 18:18:05.715421  6788 layer_factory.hpp:77] Creating layer loss1/relu_conv
I0403 18:18:05.715443  6788 net.cpp:91] Creating Layer loss1/relu_conv
I0403 18:18:05.715463  6788 net.cpp:425] loss1/relu_conv <- loss1/conv
I0403 18:18:05.715481  6788 net.cpp:386] loss1/relu_conv -> loss1/conv (in-place)
I0403 18:18:05.715780  6788 net.cpp:141] Setting up loss1/relu_conv
I0403 18:18:05.715809  6788 net.cpp:148] Top shape: 24 128 4 4 (49152)
I0403 18:18:05.715826  6788 net.cpp:156] Memory required for data: 945894432
I0403 18:18:05.715842  6788 layer_factory.hpp:77] Creating layer loss1/fc
I0403 18:18:05.715869  6788 net.cpp:91] Creating Layer loss1/fc
I0403 18:18:05.715889  6788 net.cpp:425] loss1/fc <- loss1/conv
I0403 18:18:05.715912  6788 net.cpp:399] loss1/fc -> loss1/fc
I0403 18:18:05.735241  6788 net.cpp:141] Setting up loss1/fc
I0403 18:18:05.735321  6788 net.cpp:148] Top shape: 24 1024 (24576)
I0403 18:18:05.735337  6788 net.cpp:156] Memory required for data: 945992736
I0403 18:18:05.735358  6788 layer_factory.hpp:77] Creating layer loss1/relu_fc
I0403 18:18:05.735381  6788 net.cpp:91] Creating Layer loss1/relu_fc
I0403 18:18:05.735399  6788 net.cpp:425] loss1/relu_fc <- loss1/fc
I0403 18:18:05.735421  6788 net.cpp:386] loss1/relu_fc -> loss1/fc (in-place)
I0403 18:18:05.735666  6788 net.cpp:141] Setting up loss1/relu_fc
I0403 18:18:05.735693  6788 net.cpp:148] Top shape: 24 1024 (24576)
I0403 18:18:05.735709  6788 net.cpp:156] Memory required for data: 946091040
I0403 18:18:05.735725  6788 layer_factory.hpp:77] Creating layer loss1/drop_fc
I0403 18:18:05.735759  6788 net.cpp:91] Creating Layer loss1/drop_fc
I0403 18:18:05.735777  6788 net.cpp:425] loss1/drop_fc <- loss1/fc
I0403 18:18:05.735796  6788 net.cpp:386] loss1/drop_fc -> loss1/fc (in-place)
I0403 18:18:05.735853  6788 net.cpp:141] Setting up loss1/drop_fc
I0403 18:18:05.735882  6788 net.cpp:148] Top shape: 24 1024 (24576)
I0403 18:18:05.735899  6788 net.cpp:156] Memory required for data: 946189344
I0403 18:18:05.735915  6788 layer_factory.hpp:77] Creating layer loss1/classifier_plantvillage
I0403 18:18:05.735936  6788 net.cpp:91] Creating Layer loss1/classifier_plantvillage
I0403 18:18:05.735954  6788 net.cpp:425] loss1/classifier_plantvillage <- loss1/fc
I0403 18:18:05.735977  6788 net.cpp:399] loss1/classifier_plantvillage -> loss1/classifier_plantvillage
I0403 18:18:05.737048  6788 net.cpp:141] Setting up loss1/classifier_plantvillage
I0403 18:18:05.737079  6788 net.cpp:148] Top shape: 24 38 (912)
I0403 18:18:05.737095  6788 net.cpp:156] Memory required for data: 946192992
I0403 18:18:05.737115  6788 layer_factory.hpp:77] Creating layer loss1/classifier_plantvillage_loss1/classifier_plantvillage_0_split
I0403 18:18:05.737134  6788 net.cpp:91] Creating Layer loss1/classifier_plantvillage_loss1/classifier_plantvillage_0_split
I0403 18:18:05.737151  6788 net.cpp:425] loss1/classifier_plantvillage_loss1/classifier_plantvillage_0_split <- loss1/classifier_plantvillage
I0403 18:18:05.737174  6788 net.cpp:399] loss1/classifier_plantvillage_loss1/classifier_plantvillage_0_split -> loss1/classifier_plantvillage_loss1/classifier_plantvillage_0_split_0
I0403 18:18:05.737196  6788 net.cpp:399] loss1/classifier_plantvillage_loss1/classifier_plantvillage_0_split -> loss1/classifier_plantvillage_loss1/classifier_plantvillage_0_split_1
I0403 18:18:05.737224  6788 net.cpp:399] loss1/classifier_plantvillage_loss1/classifier_plantvillage_0_split -> loss1/classifier_plantvillage_loss1/classifier_plantvillage_0_split_2
I0403 18:18:05.737299  6788 net.cpp:141] Setting up loss1/classifier_plantvillage_loss1/classifier_plantvillage_0_split
I0403 18:18:05.737324  6788 net.cpp:148] Top shape: 24 38 (912)
I0403 18:18:05.737341  6788 net.cpp:148] Top shape: 24 38 (912)
I0403 18:18:05.737359  6788 net.cpp:148] Top shape: 24 38 (912)
I0403 18:18:05.737373  6788 net.cpp:156] Memory required for data: 946203936
I0403 18:18:05.737390  6788 layer_factory.hpp:77] Creating layer inception_4b/1x1
I0403 18:18:05.737416  6788 net.cpp:91] Creating Layer inception_4b/1x1
I0403 18:18:05.737463  6788 net.cpp:425] inception_4b/1x1 <- inception_4a/output_inception_4a/output_0_split_1
I0403 18:18:05.737484  6788 net.cpp:399] inception_4b/1x1 -> inception_4b/1x1
I0403 18:18:05.739295  6788 net.cpp:141] Setting up inception_4b/1x1
I0403 18:18:05.739326  6788 net.cpp:148] Top shape: 24 160 14 14 (752640)
I0403 18:18:05.739342  6788 net.cpp:156] Memory required for data: 949214496
I0403 18:18:05.739362  6788 layer_factory.hpp:77] Creating layer inception_4b/relu_1x1
I0403 18:18:05.739383  6788 net.cpp:91] Creating Layer inception_4b/relu_1x1
I0403 18:18:05.739400  6788 net.cpp:425] inception_4b/relu_1x1 <- inception_4b/1x1
I0403 18:18:05.739419  6788 net.cpp:386] inception_4b/relu_1x1 -> inception_4b/1x1 (in-place)
I0403 18:18:05.739611  6788 net.cpp:141] Setting up inception_4b/relu_1x1
I0403 18:18:05.739640  6788 net.cpp:148] Top shape: 24 160 14 14 (752640)
I0403 18:18:05.739657  6788 net.cpp:156] Memory required for data: 952225056
I0403 18:18:05.739675  6788 layer_factory.hpp:77] Creating layer inception_4b/3x3_reduce
I0403 18:18:05.739701  6788 net.cpp:91] Creating Layer inception_4b/3x3_reduce
I0403 18:18:05.739722  6788 net.cpp:425] inception_4b/3x3_reduce <- inception_4a/output_inception_4a/output_0_split_2
I0403 18:18:05.739743  6788 net.cpp:399] inception_4b/3x3_reduce -> inception_4b/3x3_reduce
I0403 18:18:05.741195  6788 net.cpp:141] Setting up inception_4b/3x3_reduce
I0403 18:18:05.741233  6788 net.cpp:148] Top shape: 24 112 14 14 (526848)
I0403 18:18:05.741252  6788 net.cpp:156] Memory required for data: 954332448
I0403 18:18:05.741273  6788 layer_factory.hpp:77] Creating layer inception_4b/relu_3x3_reduce
I0403 18:18:05.741292  6788 net.cpp:91] Creating Layer inception_4b/relu_3x3_reduce
I0403 18:18:05.741309  6788 net.cpp:425] inception_4b/relu_3x3_reduce <- inception_4b/3x3_reduce
I0403 18:18:05.741328  6788 net.cpp:386] inception_4b/relu_3x3_reduce -> inception_4b/3x3_reduce (in-place)
I0403 18:18:05.741632  6788 net.cpp:141] Setting up inception_4b/relu_3x3_reduce
I0403 18:18:05.741664  6788 net.cpp:148] Top shape: 24 112 14 14 (526848)
I0403 18:18:05.741683  6788 net.cpp:156] Memory required for data: 956439840
I0403 18:18:05.741700  6788 layer_factory.hpp:77] Creating layer inception_4b/3x3
I0403 18:18:05.741724  6788 net.cpp:91] Creating Layer inception_4b/3x3
I0403 18:18:05.741744  6788 net.cpp:425] inception_4b/3x3 <- inception_4b/3x3_reduce
I0403 18:18:05.741765  6788 net.cpp:399] inception_4b/3x3 -> inception_4b/3x3
I0403 18:18:05.745000  6788 net.cpp:141] Setting up inception_4b/3x3
I0403 18:18:05.745031  6788 net.cpp:148] Top shape: 24 224 14 14 (1053696)
I0403 18:18:05.745048  6788 net.cpp:156] Memory required for data: 960654624
I0403 18:18:05.745069  6788 layer_factory.hpp:77] Creating layer inception_4b/relu_3x3
I0403 18:18:05.745087  6788 net.cpp:91] Creating Layer inception_4b/relu_3x3
I0403 18:18:05.745103  6788 net.cpp:425] inception_4b/relu_3x3 <- inception_4b/3x3
I0403 18:18:05.745123  6788 net.cpp:386] inception_4b/relu_3x3 -> inception_4b/3x3 (in-place)
I0403 18:18:05.745319  6788 net.cpp:141] Setting up inception_4b/relu_3x3
I0403 18:18:05.745347  6788 net.cpp:148] Top shape: 24 224 14 14 (1053696)
I0403 18:18:05.745362  6788 net.cpp:156] Memory required for data: 964869408
I0403 18:18:05.745378  6788 layer_factory.hpp:77] Creating layer inception_4b/5x5_reduce
I0403 18:18:05.745406  6788 net.cpp:91] Creating Layer inception_4b/5x5_reduce
I0403 18:18:05.745424  6788 net.cpp:425] inception_4b/5x5_reduce <- inception_4a/output_inception_4a/output_0_split_3
I0403 18:18:05.745447  6788 net.cpp:399] inception_4b/5x5_reduce -> inception_4b/5x5_reduce
I0403 18:18:05.746582  6788 net.cpp:141] Setting up inception_4b/5x5_reduce
I0403 18:18:05.746613  6788 net.cpp:148] Top shape: 24 24 14 14 (112896)
I0403 18:18:05.746629  6788 net.cpp:156] Memory required for data: 965320992
I0403 18:18:05.746649  6788 layer_factory.hpp:77] Creating layer inception_4b/relu_5x5_reduce
I0403 18:18:05.746667  6788 net.cpp:91] Creating Layer inception_4b/relu_5x5_reduce
I0403 18:18:05.746700  6788 net.cpp:425] inception_4b/relu_5x5_reduce <- inception_4b/5x5_reduce
I0403 18:18:05.746718  6788 net.cpp:386] inception_4b/relu_5x5_reduce -> inception_4b/5x5_reduce (in-place)
I0403 18:18:05.746912  6788 net.cpp:141] Setting up inception_4b/relu_5x5_reduce
I0403 18:18:05.746939  6788 net.cpp:148] Top shape: 24 24 14 14 (112896)
I0403 18:18:05.746955  6788 net.cpp:156] Memory required for data: 965772576
I0403 18:18:05.746971  6788 layer_factory.hpp:77] Creating layer inception_4b/5x5
I0403 18:18:05.746994  6788 net.cpp:91] Creating Layer inception_4b/5x5
I0403 18:18:05.747012  6788 net.cpp:425] inception_4b/5x5 <- inception_4b/5x5_reduce
I0403 18:18:05.747035  6788 net.cpp:399] inception_4b/5x5 -> inception_4b/5x5
I0403 18:18:05.748328  6788 net.cpp:141] Setting up inception_4b/5x5
I0403 18:18:05.748358  6788 net.cpp:148] Top shape: 24 64 14 14 (301056)
I0403 18:18:05.748374  6788 net.cpp:156] Memory required for data: 966976800
I0403 18:18:05.748397  6788 layer_factory.hpp:77] Creating layer inception_4b/relu_5x5
I0403 18:18:05.748419  6788 net.cpp:91] Creating Layer inception_4b/relu_5x5
I0403 18:18:05.748435  6788 net.cpp:425] inception_4b/relu_5x5 <- inception_4b/5x5
I0403 18:18:05.748455  6788 net.cpp:386] inception_4b/relu_5x5 -> inception_4b/5x5 (in-place)
I0403 18:18:05.748754  6788 net.cpp:141] Setting up inception_4b/relu_5x5
I0403 18:18:05.748782  6788 net.cpp:148] Top shape: 24 64 14 14 (301056)
I0403 18:18:05.748800  6788 net.cpp:156] Memory required for data: 968181024
I0403 18:18:05.748816  6788 layer_factory.hpp:77] Creating layer inception_4b/pool
I0403 18:18:05.748836  6788 net.cpp:91] Creating Layer inception_4b/pool
I0403 18:18:05.748857  6788 net.cpp:425] inception_4b/pool <- inception_4a/output_inception_4a/output_0_split_4
I0403 18:18:05.748875  6788 net.cpp:399] inception_4b/pool -> inception_4b/pool
I0403 18:18:05.748949  6788 net.cpp:141] Setting up inception_4b/pool
I0403 18:18:05.748973  6788 net.cpp:148] Top shape: 24 512 14 14 (2408448)
I0403 18:18:05.748989  6788 net.cpp:156] Memory required for data: 977814816
I0403 18:18:05.749004  6788 layer_factory.hpp:77] Creating layer inception_4b/pool_proj
I0403 18:18:05.749028  6788 net.cpp:91] Creating Layer inception_4b/pool_proj
I0403 18:18:05.749047  6788 net.cpp:425] inception_4b/pool_proj <- inception_4b/pool
I0403 18:18:05.749068  6788 net.cpp:399] inception_4b/pool_proj -> inception_4b/pool_proj
I0403 18:18:05.750365  6788 net.cpp:141] Setting up inception_4b/pool_proj
I0403 18:18:05.750396  6788 net.cpp:148] Top shape: 24 64 14 14 (301056)
I0403 18:18:05.750416  6788 net.cpp:156] Memory required for data: 979019040
I0403 18:18:05.750435  6788 layer_factory.hpp:77] Creating layer inception_4b/relu_pool_proj
I0403 18:18:05.750458  6788 net.cpp:91] Creating Layer inception_4b/relu_pool_proj
I0403 18:18:05.750478  6788 net.cpp:425] inception_4b/relu_pool_proj <- inception_4b/pool_proj
I0403 18:18:05.750499  6788 net.cpp:386] inception_4b/relu_pool_proj -> inception_4b/pool_proj (in-place)
I0403 18:18:05.750695  6788 net.cpp:141] Setting up inception_4b/relu_pool_proj
I0403 18:18:05.750722  6788 net.cpp:148] Top shape: 24 64 14 14 (301056)
I0403 18:18:05.750740  6788 net.cpp:156] Memory required for data: 980223264
I0403 18:18:05.750756  6788 layer_factory.hpp:77] Creating layer inception_4b/output
I0403 18:18:05.750773  6788 net.cpp:91] Creating Layer inception_4b/output
I0403 18:18:05.750790  6788 net.cpp:425] inception_4b/output <- inception_4b/1x1
I0403 18:18:05.750809  6788 net.cpp:425] inception_4b/output <- inception_4b/3x3
I0403 18:18:05.750828  6788 net.cpp:425] inception_4b/output <- inception_4b/5x5
I0403 18:18:05.750844  6788 net.cpp:425] inception_4b/output <- inception_4b/pool_proj
I0403 18:18:05.750865  6788 net.cpp:399] inception_4b/output -> inception_4b/output
I0403 18:18:05.750915  6788 net.cpp:141] Setting up inception_4b/output
I0403 18:18:05.750942  6788 net.cpp:148] Top shape: 24 512 14 14 (2408448)
I0403 18:18:05.750960  6788 net.cpp:156] Memory required for data: 989857056
I0403 18:18:05.750993  6788 layer_factory.hpp:77] Creating layer inception_4b/output_inception_4b/output_0_split
I0403 18:18:05.751010  6788 net.cpp:91] Creating Layer inception_4b/output_inception_4b/output_0_split
I0403 18:18:05.751027  6788 net.cpp:425] inception_4b/output_inception_4b/output_0_split <- inception_4b/output
I0403 18:18:05.751045  6788 net.cpp:399] inception_4b/output_inception_4b/output_0_split -> inception_4b/output_inception_4b/output_0_split_0
I0403 18:18:05.751066  6788 net.cpp:399] inception_4b/output_inception_4b/output_0_split -> inception_4b/output_inception_4b/output_0_split_1
I0403 18:18:05.751087  6788 net.cpp:399] inception_4b/output_inception_4b/output_0_split -> inception_4b/output_inception_4b/output_0_split_2
I0403 18:18:05.751113  6788 net.cpp:399] inception_4b/output_inception_4b/output_0_split -> inception_4b/output_inception_4b/output_0_split_3
I0403 18:18:05.751205  6788 net.cpp:141] Setting up inception_4b/output_inception_4b/output_0_split
I0403 18:18:05.751236  6788 net.cpp:148] Top shape: 24 512 14 14 (2408448)
I0403 18:18:05.751255  6788 net.cpp:148] Top shape: 24 512 14 14 (2408448)
I0403 18:18:05.751271  6788 net.cpp:148] Top shape: 24 512 14 14 (2408448)
I0403 18:18:05.751287  6788 net.cpp:148] Top shape: 24 512 14 14 (2408448)
I0403 18:18:05.751302  6788 net.cpp:156] Memory required for data: 1028392224
I0403 18:18:05.751317  6788 layer_factory.hpp:77] Creating layer inception_4c/1x1
I0403 18:18:05.751341  6788 net.cpp:91] Creating Layer inception_4c/1x1
I0403 18:18:05.751359  6788 net.cpp:425] inception_4c/1x1 <- inception_4b/output_inception_4b/output_0_split_0
I0403 18:18:05.751382  6788 net.cpp:399] inception_4c/1x1 -> inception_4c/1x1
I0403 18:18:05.752894  6788 net.cpp:141] Setting up inception_4c/1x1
I0403 18:18:05.752923  6788 net.cpp:148] Top shape: 24 128 14 14 (602112)
I0403 18:18:05.752938  6788 net.cpp:156] Memory required for data: 1030800672
I0403 18:18:05.752957  6788 layer_factory.hpp:77] Creating layer inception_4c/relu_1x1
I0403 18:18:05.752976  6788 net.cpp:91] Creating Layer inception_4c/relu_1x1
I0403 18:18:05.752993  6788 net.cpp:425] inception_4c/relu_1x1 <- inception_4c/1x1
I0403 18:18:05.753018  6788 net.cpp:386] inception_4c/relu_1x1 -> inception_4c/1x1 (in-place)
I0403 18:18:05.753216  6788 net.cpp:141] Setting up inception_4c/relu_1x1
I0403 18:18:05.753242  6788 net.cpp:148] Top shape: 24 128 14 14 (602112)
I0403 18:18:05.753257  6788 net.cpp:156] Memory required for data: 1033209120
I0403 18:18:05.753271  6788 layer_factory.hpp:77] Creating layer inception_4c/3x3_reduce
I0403 18:18:05.753294  6788 net.cpp:91] Creating Layer inception_4c/3x3_reduce
I0403 18:18:05.753312  6788 net.cpp:425] inception_4c/3x3_reduce <- inception_4b/output_inception_4b/output_0_split_1
I0403 18:18:05.753334  6788 net.cpp:399] inception_4c/3x3_reduce -> inception_4c/3x3_reduce
I0403 18:18:05.755403  6788 net.cpp:141] Setting up inception_4c/3x3_reduce
I0403 18:18:05.755434  6788 net.cpp:148] Top shape: 24 128 14 14 (602112)
I0403 18:18:05.755451  6788 net.cpp:156] Memory required for data: 1035617568
I0403 18:18:05.755471  6788 layer_factory.hpp:77] Creating layer inception_4c/relu_3x3_reduce
I0403 18:18:05.755493  6788 net.cpp:91] Creating Layer inception_4c/relu_3x3_reduce
I0403 18:18:05.755511  6788 net.cpp:425] inception_4c/relu_3x3_reduce <- inception_4c/3x3_reduce
I0403 18:18:05.755530  6788 net.cpp:386] inception_4c/relu_3x3_reduce -> inception_4c/3x3_reduce (in-place)
I0403 18:18:05.755825  6788 net.cpp:141] Setting up inception_4c/relu_3x3_reduce
I0403 18:18:05.755853  6788 net.cpp:148] Top shape: 24 128 14 14 (602112)
I0403 18:18:05.755870  6788 net.cpp:156] Memory required for data: 1038026016
I0403 18:18:05.755887  6788 layer_factory.hpp:77] Creating layer inception_4c/3x3
I0403 18:18:05.755914  6788 net.cpp:91] Creating Layer inception_4c/3x3
I0403 18:18:05.755933  6788 net.cpp:425] inception_4c/3x3 <- inception_4c/3x3_reduce
I0403 18:18:05.755955  6788 net.cpp:399] inception_4c/3x3 -> inception_4c/3x3
I0403 18:18:05.759727  6788 net.cpp:141] Setting up inception_4c/3x3
I0403 18:18:05.759770  6788 net.cpp:148] Top shape: 24 256 14 14 (1204224)
I0403 18:18:05.759788  6788 net.cpp:156] Memory required for data: 1042842912
I0403 18:18:05.759820  6788 layer_factory.hpp:77] Creating layer inception_4c/relu_3x3
I0403 18:18:05.759843  6788 net.cpp:91] Creating Layer inception_4c/relu_3x3
I0403 18:18:05.759861  6788 net.cpp:425] inception_4c/relu_3x3 <- inception_4c/3x3
I0403 18:18:05.759881  6788 net.cpp:386] inception_4c/relu_3x3 -> inception_4c/3x3 (in-place)
I0403 18:18:05.760069  6788 net.cpp:141] Setting up inception_4c/relu_3x3
I0403 18:18:05.760098  6788 net.cpp:148] Top shape: 24 256 14 14 (1204224)
I0403 18:18:05.760114  6788 net.cpp:156] Memory required for data: 1047659808
I0403 18:18:05.760130  6788 layer_factory.hpp:77] Creating layer inception_4c/5x5_reduce
I0403 18:18:05.760154  6788 net.cpp:91] Creating Layer inception_4c/5x5_reduce
I0403 18:18:05.760172  6788 net.cpp:425] inception_4c/5x5_reduce <- inception_4b/output_inception_4b/output_0_split_2
I0403 18:18:05.760193  6788 net.cpp:399] inception_4c/5x5_reduce -> inception_4c/5x5_reduce
I0403 18:18:05.761337  6788 net.cpp:141] Setting up inception_4c/5x5_reduce
I0403 18:18:05.761368  6788 net.cpp:148] Top shape: 24 24 14 14 (112896)
I0403 18:18:05.761386  6788 net.cpp:156] Memory required for data: 1048111392
I0403 18:18:05.761406  6788 layer_factory.hpp:77] Creating layer inception_4c/relu_5x5_reduce
I0403 18:18:05.761425  6788 net.cpp:91] Creating Layer inception_4c/relu_5x5_reduce
I0403 18:18:05.761441  6788 net.cpp:425] inception_4c/relu_5x5_reduce <- inception_4c/5x5_reduce
I0403 18:18:05.761459  6788 net.cpp:386] inception_4c/relu_5x5_reduce -> inception_4c/5x5_reduce (in-place)
I0403 18:18:05.761661  6788 net.cpp:141] Setting up inception_4c/relu_5x5_reduce
I0403 18:18:05.761689  6788 net.cpp:148] Top shape: 24 24 14 14 (112896)
I0403 18:18:05.761705  6788 net.cpp:156] Memory required for data: 1048562976
I0403 18:18:05.761720  6788 layer_factory.hpp:77] Creating layer inception_4c/5x5
I0403 18:18:05.761744  6788 net.cpp:91] Creating Layer inception_4c/5x5
I0403 18:18:05.761760  6788 net.cpp:425] inception_4c/5x5 <- inception_4c/5x5_reduce
I0403 18:18:05.761780  6788 net.cpp:399] inception_4c/5x5 -> inception_4c/5x5
I0403 18:18:05.763095  6788 net.cpp:141] Setting up inception_4c/5x5
I0403 18:18:05.763123  6788 net.cpp:148] Top shape: 24 64 14 14 (301056)
I0403 18:18:05.763140  6788 net.cpp:156] Memory required for data: 1049767200
I0403 18:18:05.763159  6788 layer_factory.hpp:77] Creating layer inception_4c/relu_5x5
I0403 18:18:05.763177  6788 net.cpp:91] Creating Layer inception_4c/relu_5x5
I0403 18:18:05.763195  6788 net.cpp:425] inception_4c/relu_5x5 <- inception_4c/5x5
I0403 18:18:05.763219  6788 net.cpp:386] inception_4c/relu_5x5 -> inception_4c/5x5 (in-place)
I0403 18:18:05.763525  6788 net.cpp:141] Setting up inception_4c/relu_5x5
I0403 18:18:05.763552  6788 net.cpp:148] Top shape: 24 64 14 14 (301056)
I0403 18:18:05.763568  6788 net.cpp:156] Memory required for data: 1050971424
I0403 18:18:05.763583  6788 layer_factory.hpp:77] Creating layer inception_4c/pool
I0403 18:18:05.763602  6788 net.cpp:91] Creating Layer inception_4c/pool
I0403 18:18:05.763618  6788 net.cpp:425] inception_4c/pool <- inception_4b/output_inception_4b/output_0_split_3
I0403 18:18:05.763640  6788 net.cpp:399] inception_4c/pool -> inception_4c/pool
I0403 18:18:05.763708  6788 net.cpp:141] Setting up inception_4c/pool
I0403 18:18:05.763732  6788 net.cpp:148] Top shape: 24 512 14 14 (2408448)
I0403 18:18:05.763748  6788 net.cpp:156] Memory required for data: 1060605216
I0403 18:18:05.763764  6788 layer_factory.hpp:77] Creating layer inception_4c/pool_proj
I0403 18:18:05.763789  6788 net.cpp:91] Creating Layer inception_4c/pool_proj
I0403 18:18:05.763808  6788 net.cpp:425] inception_4c/pool_proj <- inception_4c/pool
I0403 18:18:05.763826  6788 net.cpp:399] inception_4c/pool_proj -> inception_4c/pool_proj
I0403 18:18:05.765110  6788 net.cpp:141] Setting up inception_4c/pool_proj
I0403 18:18:05.765138  6788 net.cpp:148] Top shape: 24 64 14 14 (301056)
I0403 18:18:05.765171  6788 net.cpp:156] Memory required for data: 1061809440
I0403 18:18:05.765190  6788 layer_factory.hpp:77] Creating layer inception_4c/relu_pool_proj
I0403 18:18:05.765218  6788 net.cpp:91] Creating Layer inception_4c/relu_pool_proj
I0403 18:18:05.765236  6788 net.cpp:425] inception_4c/relu_pool_proj <- inception_4c/pool_proj
I0403 18:18:05.765254  6788 net.cpp:386] inception_4c/relu_pool_proj -> inception_4c/pool_proj (in-place)
I0403 18:18:05.765452  6788 net.cpp:141] Setting up inception_4c/relu_pool_proj
I0403 18:18:05.765478  6788 net.cpp:148] Top shape: 24 64 14 14 (301056)
I0403 18:18:05.765493  6788 net.cpp:156] Memory required for data: 1063013664
I0403 18:18:05.765509  6788 layer_factory.hpp:77] Creating layer inception_4c/output
I0403 18:18:05.765527  6788 net.cpp:91] Creating Layer inception_4c/output
I0403 18:18:05.765542  6788 net.cpp:425] inception_4c/output <- inception_4c/1x1
I0403 18:18:05.765559  6788 net.cpp:425] inception_4c/output <- inception_4c/3x3
I0403 18:18:05.765576  6788 net.cpp:425] inception_4c/output <- inception_4c/5x5
I0403 18:18:05.765593  6788 net.cpp:425] inception_4c/output <- inception_4c/pool_proj
I0403 18:18:05.765610  6788 net.cpp:399] inception_4c/output -> inception_4c/output
I0403 18:18:05.765661  6788 net.cpp:141] Setting up inception_4c/output
I0403 18:18:05.765684  6788 net.cpp:148] Top shape: 24 512 14 14 (2408448)
I0403 18:18:05.765699  6788 net.cpp:156] Memory required for data: 1072647456
I0403 18:18:05.765714  6788 layer_factory.hpp:77] Creating layer inception_4c/output_inception_4c/output_0_split
I0403 18:18:05.765733  6788 net.cpp:91] Creating Layer inception_4c/output_inception_4c/output_0_split
I0403 18:18:05.765750  6788 net.cpp:425] inception_4c/output_inception_4c/output_0_split <- inception_4c/output
I0403 18:18:05.765769  6788 net.cpp:399] inception_4c/output_inception_4c/output_0_split -> inception_4c/output_inception_4c/output_0_split_0
I0403 18:18:05.765789  6788 net.cpp:399] inception_4c/output_inception_4c/output_0_split -> inception_4c/output_inception_4c/output_0_split_1
I0403 18:18:05.765810  6788 net.cpp:399] inception_4c/output_inception_4c/output_0_split -> inception_4c/output_inception_4c/output_0_split_2
I0403 18:18:05.765832  6788 net.cpp:399] inception_4c/output_inception_4c/output_0_split -> inception_4c/output_inception_4c/output_0_split_3
I0403 18:18:05.765925  6788 net.cpp:141] Setting up inception_4c/output_inception_4c/output_0_split
I0403 18:18:05.765950  6788 net.cpp:148] Top shape: 24 512 14 14 (2408448)
I0403 18:18:05.765966  6788 net.cpp:148] Top shape: 24 512 14 14 (2408448)
I0403 18:18:05.765985  6788 net.cpp:148] Top shape: 24 512 14 14 (2408448)
I0403 18:18:05.766001  6788 net.cpp:148] Top shape: 24 512 14 14 (2408448)
I0403 18:18:05.766016  6788 net.cpp:156] Memory required for data: 1111182624
I0403 18:18:05.766029  6788 layer_factory.hpp:77] Creating layer inception_4d/1x1
I0403 18:18:05.766052  6788 net.cpp:91] Creating Layer inception_4d/1x1
I0403 18:18:05.766070  6788 net.cpp:425] inception_4d/1x1 <- inception_4c/output_inception_4c/output_0_split_0
I0403 18:18:05.766093  6788 net.cpp:399] inception_4d/1x1 -> inception_4d/1x1
I0403 18:18:05.767545  6788 net.cpp:141] Setting up inception_4d/1x1
I0403 18:18:05.767575  6788 net.cpp:148] Top shape: 24 112 14 14 (526848)
I0403 18:18:05.767590  6788 net.cpp:156] Memory required for data: 1113290016
I0403 18:18:05.767608  6788 layer_factory.hpp:77] Creating layer inception_4d/relu_1x1
I0403 18:18:05.767628  6788 net.cpp:91] Creating Layer inception_4d/relu_1x1
I0403 18:18:05.767647  6788 net.cpp:425] inception_4d/relu_1x1 <- inception_4d/1x1
I0403 18:18:05.767664  6788 net.cpp:386] inception_4d/relu_1x1 -> inception_4d/1x1 (in-place)
I0403 18:18:05.767856  6788 net.cpp:141] Setting up inception_4d/relu_1x1
I0403 18:18:05.767882  6788 net.cpp:148] Top shape: 24 112 14 14 (526848)
I0403 18:18:05.767897  6788 net.cpp:156] Memory required for data: 1115397408
I0403 18:18:05.767913  6788 layer_factory.hpp:77] Creating layer inception_4d/3x3_reduce
I0403 18:18:05.767951  6788 net.cpp:91] Creating Layer inception_4d/3x3_reduce
I0403 18:18:05.767971  6788 net.cpp:425] inception_4d/3x3_reduce <- inception_4c/output_inception_4c/output_0_split_1
I0403 18:18:05.767993  6788 net.cpp:399] inception_4d/3x3_reduce -> inception_4d/3x3_reduce
I0403 18:18:05.769574  6788 net.cpp:141] Setting up inception_4d/3x3_reduce
I0403 18:18:05.769610  6788 net.cpp:148] Top shape: 24 144 14 14 (677376)
I0403 18:18:05.769628  6788 net.cpp:156] Memory required for data: 1118106912
I0403 18:18:05.769649  6788 layer_factory.hpp:77] Creating layer inception_4d/relu_3x3_reduce
I0403 18:18:05.769667  6788 net.cpp:91] Creating Layer inception_4d/relu_3x3_reduce
I0403 18:18:05.769685  6788 net.cpp:425] inception_4d/relu_3x3_reduce <- inception_4d/3x3_reduce
I0403 18:18:05.769704  6788 net.cpp:386] inception_4d/relu_3x3_reduce -> inception_4d/3x3_reduce (in-place)
I0403 18:18:05.770001  6788 net.cpp:141] Setting up inception_4d/relu_3x3_reduce
I0403 18:18:05.770031  6788 net.cpp:148] Top shape: 24 144 14 14 (677376)
I0403 18:18:05.770047  6788 net.cpp:156] Memory required for data: 1120816416
I0403 18:18:05.770063  6788 layer_factory.hpp:77] Creating layer inception_4d/3x3
I0403 18:18:05.770087  6788 net.cpp:91] Creating Layer inception_4d/3x3
I0403 18:18:05.770104  6788 net.cpp:425] inception_4d/3x3 <- inception_4d/3x3_reduce
I0403 18:18:05.770125  6788 net.cpp:399] inception_4d/3x3 -> inception_4d/3x3
I0403 18:18:05.774778  6788 net.cpp:141] Setting up inception_4d/3x3
I0403 18:18:05.774811  6788 net.cpp:148] Top shape: 24 288 14 14 (1354752)
I0403 18:18:05.774827  6788 net.cpp:156] Memory required for data: 1126235424
I0403 18:18:05.774847  6788 layer_factory.hpp:77] Creating layer inception_4d/relu_3x3
I0403 18:18:05.774869  6788 net.cpp:91] Creating Layer inception_4d/relu_3x3
I0403 18:18:05.774888  6788 net.cpp:425] inception_4d/relu_3x3 <- inception_4d/3x3
I0403 18:18:05.774906  6788 net.cpp:386] inception_4d/relu_3x3 -> inception_4d/3x3 (in-place)
I0403 18:18:05.775106  6788 net.cpp:141] Setting up inception_4d/relu_3x3
I0403 18:18:05.775132  6788 net.cpp:148] Top shape: 24 288 14 14 (1354752)
I0403 18:18:05.775148  6788 net.cpp:156] Memory required for data: 1131654432
I0403 18:18:05.775166  6788 layer_factory.hpp:77] Creating layer inception_4d/5x5_reduce
I0403 18:18:05.775190  6788 net.cpp:91] Creating Layer inception_4d/5x5_reduce
I0403 18:18:05.775214  6788 net.cpp:425] inception_4d/5x5_reduce <- inception_4c/output_inception_4c/output_0_split_2
I0403 18:18:05.775238  6788 net.cpp:399] inception_4d/5x5_reduce -> inception_4d/5x5_reduce
I0403 18:18:05.776471  6788 net.cpp:141] Setting up inception_4d/5x5_reduce
I0403 18:18:05.776501  6788 net.cpp:148] Top shape: 24 32 14 14 (150528)
I0403 18:18:05.776520  6788 net.cpp:156] Memory required for data: 1132256544
I0403 18:18:05.776538  6788 layer_factory.hpp:77] Creating layer inception_4d/relu_5x5_reduce
I0403 18:18:05.776561  6788 net.cpp:91] Creating Layer inception_4d/relu_5x5_reduce
I0403 18:18:05.776578  6788 net.cpp:425] inception_4d/relu_5x5_reduce <- inception_4d/5x5_reduce
I0403 18:18:05.776598  6788 net.cpp:386] inception_4d/relu_5x5_reduce -> inception_4d/5x5_reduce (in-place)
I0403 18:18:05.776798  6788 net.cpp:141] Setting up inception_4d/relu_5x5_reduce
I0403 18:18:05.776829  6788 net.cpp:148] Top shape: 24 32 14 14 (150528)
I0403 18:18:05.776845  6788 net.cpp:156] Memory required for data: 1132858656
I0403 18:18:05.776860  6788 layer_factory.hpp:77] Creating layer inception_4d/5x5
I0403 18:18:05.776881  6788 net.cpp:91] Creating Layer inception_4d/5x5
I0403 18:18:05.776901  6788 net.cpp:425] inception_4d/5x5 <- inception_4d/5x5_reduce
I0403 18:18:05.776928  6788 net.cpp:399] inception_4d/5x5 -> inception_4d/5x5
I0403 18:18:05.778512  6788 net.cpp:141] Setting up inception_4d/5x5
I0403 18:18:05.778545  6788 net.cpp:148] Top shape: 24 64 14 14 (301056)
I0403 18:18:05.778563  6788 net.cpp:156] Memory required for data: 1134062880
I0403 18:18:05.778585  6788 layer_factory.hpp:77] Creating layer inception_4d/relu_5x5
I0403 18:18:05.778620  6788 net.cpp:91] Creating Layer inception_4d/relu_5x5
I0403 18:18:05.778640  6788 net.cpp:425] inception_4d/relu_5x5 <- inception_4d/5x5
I0403 18:18:05.778658  6788 net.cpp:386] inception_4d/relu_5x5 -> inception_4d/5x5 (in-place)
I0403 18:18:05.778980  6788 net.cpp:141] Setting up inception_4d/relu_5x5
I0403 18:18:05.779009  6788 net.cpp:148] Top shape: 24 64 14 14 (301056)
I0403 18:18:05.779026  6788 net.cpp:156] Memory required for data: 1135267104
I0403 18:18:05.779042  6788 layer_factory.hpp:77] Creating layer inception_4d/pool
I0403 18:18:05.779062  6788 net.cpp:91] Creating Layer inception_4d/pool
I0403 18:18:05.779079  6788 net.cpp:425] inception_4d/pool <- inception_4c/output_inception_4c/output_0_split_3
I0403 18:18:05.779098  6788 net.cpp:399] inception_4d/pool -> inception_4d/pool
I0403 18:18:05.779170  6788 net.cpp:141] Setting up inception_4d/pool
I0403 18:18:05.779196  6788 net.cpp:148] Top shape: 24 512 14 14 (2408448)
I0403 18:18:05.779217  6788 net.cpp:156] Memory required for data: 1144900896
I0403 18:18:05.779234  6788 layer_factory.hpp:77] Creating layer inception_4d/pool_proj
I0403 18:18:05.779258  6788 net.cpp:91] Creating Layer inception_4d/pool_proj
I0403 18:18:05.779278  6788 net.cpp:425] inception_4d/pool_proj <- inception_4d/pool
I0403 18:18:05.779300  6788 net.cpp:399] inception_4d/pool_proj -> inception_4d/pool_proj
I0403 18:18:05.781244  6788 net.cpp:141] Setting up inception_4d/pool_proj
I0403 18:18:05.781275  6788 net.cpp:148] Top shape: 24 64 14 14 (301056)
I0403 18:18:05.781291  6788 net.cpp:156] Memory required for data: 1146105120
I0403 18:18:05.781311  6788 layer_factory.hpp:77] Creating layer inception_4d/relu_pool_proj
I0403 18:18:05.781332  6788 net.cpp:91] Creating Layer inception_4d/relu_pool_proj
I0403 18:18:05.781350  6788 net.cpp:425] inception_4d/relu_pool_proj <- inception_4d/pool_proj
I0403 18:18:05.781368  6788 net.cpp:386] inception_4d/relu_pool_proj -> inception_4d/pool_proj (in-place)
I0403 18:18:05.781576  6788 net.cpp:141] Setting up inception_4d/relu_pool_proj
I0403 18:18:05.781602  6788 net.cpp:148] Top shape: 24 64 14 14 (301056)
I0403 18:18:05.781620  6788 net.cpp:156] Memory required for data: 1147309344
I0403 18:18:05.781635  6788 layer_factory.hpp:77] Creating layer inception_4d/output
I0403 18:18:05.781656  6788 net.cpp:91] Creating Layer inception_4d/output
I0403 18:18:05.781673  6788 net.cpp:425] inception_4d/output <- inception_4d/1x1
I0403 18:18:05.781690  6788 net.cpp:425] inception_4d/output <- inception_4d/3x3
I0403 18:18:05.781708  6788 net.cpp:425] inception_4d/output <- inception_4d/5x5
I0403 18:18:05.781725  6788 net.cpp:425] inception_4d/output <- inception_4d/pool_proj
I0403 18:18:05.781743  6788 net.cpp:399] inception_4d/output -> inception_4d/output
I0403 18:18:05.781796  6788 net.cpp:141] Setting up inception_4d/output
I0403 18:18:05.781821  6788 net.cpp:148] Top shape: 24 528 14 14 (2483712)
I0403 18:18:05.781836  6788 net.cpp:156] Memory required for data: 1157244192
I0403 18:18:05.781852  6788 layer_factory.hpp:77] Creating layer inception_4d/output_inception_4d/output_0_split
I0403 18:18:05.781872  6788 net.cpp:91] Creating Layer inception_4d/output_inception_4d/output_0_split
I0403 18:18:05.781888  6788 net.cpp:425] inception_4d/output_inception_4d/output_0_split <- inception_4d/output
I0403 18:18:05.781909  6788 net.cpp:399] inception_4d/output_inception_4d/output_0_split -> inception_4d/output_inception_4d/output_0_split_0
I0403 18:18:05.781931  6788 net.cpp:399] inception_4d/output_inception_4d/output_0_split -> inception_4d/output_inception_4d/output_0_split_1
I0403 18:18:05.781952  6788 net.cpp:399] inception_4d/output_inception_4d/output_0_split -> inception_4d/output_inception_4d/output_0_split_2
I0403 18:18:05.781980  6788 net.cpp:399] inception_4d/output_inception_4d/output_0_split -> inception_4d/output_inception_4d/output_0_split_3
I0403 18:18:05.782001  6788 net.cpp:399] inception_4d/output_inception_4d/output_0_split -> inception_4d/output_inception_4d/output_0_split_4
I0403 18:18:05.782111  6788 net.cpp:141] Setting up inception_4d/output_inception_4d/output_0_split
I0403 18:18:05.782150  6788 net.cpp:148] Top shape: 24 528 14 14 (2483712)
I0403 18:18:05.782168  6788 net.cpp:148] Top shape: 24 528 14 14 (2483712)
I0403 18:18:05.782184  6788 net.cpp:148] Top shape: 24 528 14 14 (2483712)
I0403 18:18:05.782202  6788 net.cpp:148] Top shape: 24 528 14 14 (2483712)
I0403 18:18:05.782232  6788 net.cpp:148] Top shape: 24 528 14 14 (2483712)
I0403 18:18:05.782248  6788 net.cpp:156] Memory required for data: 1206918432
I0403 18:18:05.782264  6788 layer_factory.hpp:77] Creating layer loss2/ave_pool
I0403 18:18:05.782284  6788 net.cpp:91] Creating Layer loss2/ave_pool
I0403 18:18:05.782300  6788 net.cpp:425] loss2/ave_pool <- inception_4d/output_inception_4d/output_0_split_0
I0403 18:18:05.782323  6788 net.cpp:399] loss2/ave_pool -> loss2/ave_pool
I0403 18:18:05.782656  6788 net.cpp:141] Setting up loss2/ave_pool
I0403 18:18:05.782685  6788 net.cpp:148] Top shape: 24 528 4 4 (202752)
I0403 18:18:05.782702  6788 net.cpp:156] Memory required for data: 1207729440
I0403 18:18:05.782719  6788 layer_factory.hpp:77] Creating layer loss2/conv
I0403 18:18:05.782743  6788 net.cpp:91] Creating Layer loss2/conv
I0403 18:18:05.782762  6788 net.cpp:425] loss2/conv <- loss2/ave_pool
I0403 18:18:05.782784  6788 net.cpp:399] loss2/conv -> loss2/conv
I0403 18:18:05.784858  6788 net.cpp:141] Setting up loss2/conv
I0403 18:18:05.784891  6788 net.cpp:148] Top shape: 24 128 4 4 (49152)
I0403 18:18:05.784909  6788 net.cpp:156] Memory required for data: 1207926048
I0403 18:18:05.784929  6788 layer_factory.hpp:77] Creating layer loss2/relu_conv
I0403 18:18:05.784950  6788 net.cpp:91] Creating Layer loss2/relu_conv
I0403 18:18:05.784966  6788 net.cpp:425] loss2/relu_conv <- loss2/conv
I0403 18:18:05.784986  6788 net.cpp:386] loss2/relu_conv -> loss2/conv (in-place)
I0403 18:18:05.785295  6788 net.cpp:141] Setting up loss2/relu_conv
I0403 18:18:05.785325  6788 net.cpp:148] Top shape: 24 128 4 4 (49152)
I0403 18:18:05.785341  6788 net.cpp:156] Memory required for data: 1208122656
I0403 18:18:05.785357  6788 layer_factory.hpp:77] Creating layer loss2/fc
I0403 18:18:05.785377  6788 net.cpp:91] Creating Layer loss2/fc
I0403 18:18:05.785395  6788 net.cpp:425] loss2/fc <- loss2/conv
I0403 18:18:05.785419  6788 net.cpp:399] loss2/fc -> loss2/fc
I0403 18:18:05.804641  6788 net.cpp:141] Setting up loss2/fc
I0403 18:18:05.804710  6788 net.cpp:148] Top shape: 24 1024 (24576)
I0403 18:18:05.804730  6788 net.cpp:156] Memory required for data: 1208220960
I0403 18:18:05.804764  6788 layer_factory.hpp:77] Creating layer loss2/relu_fc
I0403 18:18:05.804788  6788 net.cpp:91] Creating Layer loss2/relu_fc
I0403 18:18:05.804807  6788 net.cpp:425] loss2/relu_fc <- loss2/fc
I0403 18:18:05.804841  6788 net.cpp:386] loss2/relu_fc -> loss2/fc (in-place)
I0403 18:18:05.805217  6788 net.cpp:141] Setting up loss2/relu_fc
I0403 18:18:05.805245  6788 net.cpp:148] Top shape: 24 1024 (24576)
I0403 18:18:05.805263  6788 net.cpp:156] Memory required for data: 1208319264
I0403 18:18:05.805277  6788 layer_factory.hpp:77] Creating layer loss2/drop_fc
I0403 18:18:05.805299  6788 net.cpp:91] Creating Layer loss2/drop_fc
I0403 18:18:05.805317  6788 net.cpp:425] loss2/drop_fc <- loss2/fc
I0403 18:18:05.805335  6788 net.cpp:386] loss2/drop_fc -> loss2/fc (in-place)
I0403 18:18:05.805402  6788 net.cpp:141] Setting up loss2/drop_fc
I0403 18:18:05.805425  6788 net.cpp:148] Top shape: 24 1024 (24576)
I0403 18:18:05.805440  6788 net.cpp:156] Memory required for data: 1208417568
I0403 18:18:05.805456  6788 layer_factory.hpp:77] Creating layer loss2/classifier_plantvillage
I0403 18:18:05.805477  6788 net.cpp:91] Creating Layer loss2/classifier_plantvillage
I0403 18:18:05.805495  6788 net.cpp:425] loss2/classifier_plantvillage <- loss2/fc
I0403 18:18:05.805516  6788 net.cpp:399] loss2/classifier_plantvillage -> loss2/classifier_plantvillage
I0403 18:18:05.805948  6788 net.cpp:141] Setting up loss2/classifier_plantvillage
I0403 18:18:05.805974  6788 net.cpp:148] Top shape: 24 38 (912)
I0403 18:18:05.806010  6788 net.cpp:156] Memory required for data: 1208421216
I0403 18:18:05.806030  6788 layer_factory.hpp:77] Creating layer loss2/classifier_plantvillage_loss2/classifier_plantvillage_0_split
I0403 18:18:05.806049  6788 net.cpp:91] Creating Layer loss2/classifier_plantvillage_loss2/classifier_plantvillage_0_split
I0403 18:18:05.806066  6788 net.cpp:425] loss2/classifier_plantvillage_loss2/classifier_plantvillage_0_split <- loss2/classifier_plantvillage
I0403 18:18:05.806087  6788 net.cpp:399] loss2/classifier_plantvillage_loss2/classifier_plantvillage_0_split -> loss2/classifier_plantvillage_loss2/classifier_plantvillage_0_split_0
I0403 18:18:05.806110  6788 net.cpp:399] loss2/classifier_plantvillage_loss2/classifier_plantvillage_0_split -> loss2/classifier_plantvillage_loss2/classifier_plantvillage_0_split_1
I0403 18:18:05.806133  6788 net.cpp:399] loss2/classifier_plantvillage_loss2/classifier_plantvillage_0_split -> loss2/classifier_plantvillage_loss2/classifier_plantvillage_0_split_2
I0403 18:18:05.806217  6788 net.cpp:141] Setting up loss2/classifier_plantvillage_loss2/classifier_plantvillage_0_split
I0403 18:18:05.806242  6788 net.cpp:148] Top shape: 24 38 (912)
I0403 18:18:05.806259  6788 net.cpp:148] Top shape: 24 38 (912)
I0403 18:18:05.806277  6788 net.cpp:148] Top shape: 24 38 (912)
I0403 18:18:05.806291  6788 net.cpp:156] Memory required for data: 1208432160
I0403 18:18:05.806305  6788 layer_factory.hpp:77] Creating layer inception_4e/1x1
I0403 18:18:05.806330  6788 net.cpp:91] Creating Layer inception_4e/1x1
I0403 18:18:05.806349  6788 net.cpp:425] inception_4e/1x1 <- inception_4d/output_inception_4d/output_0_split_1
I0403 18:18:05.806368  6788 net.cpp:399] inception_4e/1x1 -> inception_4e/1x1
I0403 18:18:05.808320  6788 net.cpp:141] Setting up inception_4e/1x1
I0403 18:18:05.808352  6788 net.cpp:148] Top shape: 24 256 14 14 (1204224)
I0403 18:18:05.808369  6788 net.cpp:156] Memory required for data: 1213249056
I0403 18:18:05.808389  6788 layer_factory.hpp:77] Creating layer inception_4e/relu_1x1
I0403 18:18:05.808408  6788 net.cpp:91] Creating Layer inception_4e/relu_1x1
I0403 18:18:05.808425  6788 net.cpp:425] inception_4e/relu_1x1 <- inception_4e/1x1
I0403 18:18:05.808449  6788 net.cpp:386] inception_4e/relu_1x1 -> inception_4e/1x1 (in-place)
I0403 18:18:05.808770  6788 net.cpp:141] Setting up inception_4e/relu_1x1
I0403 18:18:05.808800  6788 net.cpp:148] Top shape: 24 256 14 14 (1204224)
I0403 18:18:05.808817  6788 net.cpp:156] Memory required for data: 1218065952
I0403 18:18:05.808832  6788 layer_factory.hpp:77] Creating layer inception_4e/3x3_reduce
I0403 18:18:05.808856  6788 net.cpp:91] Creating Layer inception_4e/3x3_reduce
I0403 18:18:05.808874  6788 net.cpp:425] inception_4e/3x3_reduce <- inception_4d/output_inception_4d/output_0_split_2
I0403 18:18:05.808897  6788 net.cpp:399] inception_4e/3x3_reduce -> inception_4e/3x3_reduce
I0403 18:18:05.811154  6788 net.cpp:141] Setting up inception_4e/3x3_reduce
I0403 18:18:05.811184  6788 net.cpp:148] Top shape: 24 160 14 14 (752640)
I0403 18:18:05.811202  6788 net.cpp:156] Memory required for data: 1221076512
I0403 18:18:05.811226  6788 layer_factory.hpp:77] Creating layer inception_4e/relu_3x3_reduce
I0403 18:18:05.811265  6788 net.cpp:91] Creating Layer inception_4e/relu_3x3_reduce
I0403 18:18:05.811285  6788 net.cpp:425] inception_4e/relu_3x3_reduce <- inception_4e/3x3_reduce
I0403 18:18:05.811303  6788 net.cpp:386] inception_4e/relu_3x3_reduce -> inception_4e/3x3_reduce (in-place)
I0403 18:18:05.811506  6788 net.cpp:141] Setting up inception_4e/relu_3x3_reduce
I0403 18:18:05.811545  6788 net.cpp:148] Top shape: 24 160 14 14 (752640)
I0403 18:18:05.811560  6788 net.cpp:156] Memory required for data: 1224087072
I0403 18:18:05.811578  6788 layer_factory.hpp:77] Creating layer inception_4e/3x3
I0403 18:18:05.811612  6788 net.cpp:91] Creating Layer inception_4e/3x3
I0403 18:18:05.811630  6788 net.cpp:425] inception_4e/3x3 <- inception_4e/3x3_reduce
I0403 18:18:05.811653  6788 net.cpp:399] inception_4e/3x3 -> inception_4e/3x3
I0403 18:18:05.816854  6788 net.cpp:141] Setting up inception_4e/3x3
I0403 18:18:05.816900  6788 net.cpp:148] Top shape: 24 320 14 14 (1505280)
I0403 18:18:05.816915  6788 net.cpp:156] Memory required for data: 1230108192
I0403 18:18:05.816934  6788 layer_factory.hpp:77] Creating layer inception_4e/relu_3x3
I0403 18:18:05.816952  6788 net.cpp:91] Creating Layer inception_4e/relu_3x3
I0403 18:18:05.816968  6788 net.cpp:425] inception_4e/relu_3x3 <- inception_4e/3x3
I0403 18:18:05.816988  6788 net.cpp:386] inception_4e/relu_3x3 -> inception_4e/3x3 (in-place)
I0403 18:18:05.817296  6788 net.cpp:141] Setting up inception_4e/relu_3x3
I0403 18:18:05.817323  6788 net.cpp:148] Top shape: 24 320 14 14 (1505280)
I0403 18:18:05.817338  6788 net.cpp:156] Memory required for data: 1236129312
I0403 18:18:05.817353  6788 layer_factory.hpp:77] Creating layer inception_4e/5x5_reduce
I0403 18:18:05.817379  6788 net.cpp:91] Creating Layer inception_4e/5x5_reduce
I0403 18:18:05.817396  6788 net.cpp:425] inception_4e/5x5_reduce <- inception_4d/output_inception_4d/output_0_split_3
I0403 18:18:05.817420  6788 net.cpp:399] inception_4e/5x5_reduce -> inception_4e/5x5_reduce
I0403 18:18:05.818511  6788 net.cpp:141] Setting up inception_4e/5x5_reduce
I0403 18:18:05.818542  6788 net.cpp:148] Top shape: 24 32 14 14 (150528)
I0403 18:18:05.818558  6788 net.cpp:156] Memory required for data: 1236731424
I0403 18:18:05.818578  6788 layer_factory.hpp:77] Creating layer inception_4e/relu_5x5_reduce
I0403 18:18:05.818596  6788 net.cpp:91] Creating Layer inception_4e/relu_5x5_reduce
I0403 18:18:05.818613  6788 net.cpp:425] inception_4e/relu_5x5_reduce <- inception_4e/5x5_reduce
I0403 18:18:05.818630  6788 net.cpp:386] inception_4e/relu_5x5_reduce -> inception_4e/5x5_reduce (in-place)
I0403 18:18:05.818933  6788 net.cpp:141] Setting up inception_4e/relu_5x5_reduce
I0403 18:18:05.818960  6788 net.cpp:148] Top shape: 24 32 14 14 (150528)
I0403 18:18:05.818976  6788 net.cpp:156] Memory required for data: 1237333536
I0403 18:18:05.818991  6788 layer_factory.hpp:77] Creating layer inception_4e/5x5
I0403 18:18:05.819031  6788 net.cpp:91] Creating Layer inception_4e/5x5
I0403 18:18:05.819051  6788 net.cpp:425] inception_4e/5x5 <- inception_4e/5x5_reduce
I0403 18:18:05.819073  6788 net.cpp:399] inception_4e/5x5 -> inception_4e/5x5
I0403 18:18:05.820960  6788 net.cpp:141] Setting up inception_4e/5x5
I0403 18:18:05.820988  6788 net.cpp:148] Top shape: 24 128 14 14 (602112)
I0403 18:18:05.821003  6788 net.cpp:156] Memory required for data: 1239741984
I0403 18:18:05.821024  6788 layer_factory.hpp:77] Creating layer inception_4e/relu_5x5
I0403 18:18:05.821044  6788 net.cpp:91] Creating Layer inception_4e/relu_5x5
I0403 18:18:05.821060  6788 net.cpp:425] inception_4e/relu_5x5 <- inception_4e/5x5
I0403 18:18:05.821079  6788 net.cpp:386] inception_4e/relu_5x5 -> inception_4e/5x5 (in-place)
I0403 18:18:05.821286  6788 net.cpp:141] Setting up inception_4e/relu_5x5
I0403 18:18:05.821315  6788 net.cpp:148] Top shape: 24 128 14 14 (602112)
I0403 18:18:05.821329  6788 net.cpp:156] Memory required for data: 1242150432
I0403 18:18:05.821344  6788 layer_factory.hpp:77] Creating layer inception_4e/pool
I0403 18:18:05.821364  6788 net.cpp:91] Creating Layer inception_4e/pool
I0403 18:18:05.821382  6788 net.cpp:425] inception_4e/pool <- inception_4d/output_inception_4d/output_0_split_4
I0403 18:18:05.821401  6788 net.cpp:399] inception_4e/pool -> inception_4e/pool
I0403 18:18:05.821473  6788 net.cpp:141] Setting up inception_4e/pool
I0403 18:18:05.821497  6788 net.cpp:148] Top shape: 24 528 14 14 (2483712)
I0403 18:18:05.821512  6788 net.cpp:156] Memory required for data: 1252085280
I0403 18:18:05.821527  6788 layer_factory.hpp:77] Creating layer inception_4e/pool_proj
I0403 18:18:05.821549  6788 net.cpp:91] Creating Layer inception_4e/pool_proj
I0403 18:18:05.821568  6788 net.cpp:425] inception_4e/pool_proj <- inception_4e/pool
I0403 18:18:05.821588  6788 net.cpp:399] inception_4e/pool_proj -> inception_4e/pool_proj
I0403 18:18:05.823113  6788 net.cpp:141] Setting up inception_4e/pool_proj
I0403 18:18:05.823153  6788 net.cpp:148] Top shape: 24 128 14 14 (602112)
I0403 18:18:05.823169  6788 net.cpp:156] Memory required for data: 1254493728
I0403 18:18:05.823187  6788 layer_factory.hpp:77] Creating layer inception_4e/relu_pool_proj
I0403 18:18:05.823212  6788 net.cpp:91] Creating Layer inception_4e/relu_pool_proj
I0403 18:18:05.823230  6788 net.cpp:425] inception_4e/relu_pool_proj <- inception_4e/pool_proj
I0403 18:18:05.823248  6788 net.cpp:386] inception_4e/relu_pool_proj -> inception_4e/pool_proj (in-place)
I0403 18:18:05.823549  6788 net.cpp:141] Setting up inception_4e/relu_pool_proj
I0403 18:18:05.823575  6788 net.cpp:148] Top shape: 24 128 14 14 (602112)
I0403 18:18:05.823590  6788 net.cpp:156] Memory required for data: 1256902176
I0403 18:18:05.823604  6788 layer_factory.hpp:77] Creating layer inception_4e/output
I0403 18:18:05.823624  6788 net.cpp:91] Creating Layer inception_4e/output
I0403 18:18:05.823642  6788 net.cpp:425] inception_4e/output <- inception_4e/1x1
I0403 18:18:05.823658  6788 net.cpp:425] inception_4e/output <- inception_4e/3x3
I0403 18:18:05.823675  6788 net.cpp:425] inception_4e/output <- inception_4e/5x5
I0403 18:18:05.823690  6788 net.cpp:425] inception_4e/output <- inception_4e/pool_proj
I0403 18:18:05.823709  6788 net.cpp:399] inception_4e/output -> inception_4e/output
I0403 18:18:05.823760  6788 net.cpp:141] Setting up inception_4e/output
I0403 18:18:05.823783  6788 net.cpp:148] Top shape: 24 832 14 14 (3913728)
I0403 18:18:05.823799  6788 net.cpp:156] Memory required for data: 1272557088
I0403 18:18:05.823814  6788 layer_factory.hpp:77] Creating layer pool4/3x3_s2
I0403 18:18:05.823832  6788 net.cpp:91] Creating Layer pool4/3x3_s2
I0403 18:18:05.823848  6788 net.cpp:425] pool4/3x3_s2 <- inception_4e/output
I0403 18:18:05.823869  6788 net.cpp:399] pool4/3x3_s2 -> pool4/3x3_s2
I0403 18:18:05.823937  6788 net.cpp:141] Setting up pool4/3x3_s2
I0403 18:18:05.823963  6788 net.cpp:148] Top shape: 24 832 7 7 (978432)
I0403 18:18:05.823978  6788 net.cpp:156] Memory required for data: 1276470816
I0403 18:18:05.823993  6788 layer_factory.hpp:77] Creating layer pool4/3x3_s2_pool4/3x3_s2_0_split
I0403 18:18:05.824012  6788 net.cpp:91] Creating Layer pool4/3x3_s2_pool4/3x3_s2_0_split
I0403 18:18:05.824026  6788 net.cpp:425] pool4/3x3_s2_pool4/3x3_s2_0_split <- pool4/3x3_s2
I0403 18:18:05.824044  6788 net.cpp:399] pool4/3x3_s2_pool4/3x3_s2_0_split -> pool4/3x3_s2_pool4/3x3_s2_0_split_0
I0403 18:18:05.824064  6788 net.cpp:399] pool4/3x3_s2_pool4/3x3_s2_0_split -> pool4/3x3_s2_pool4/3x3_s2_0_split_1
I0403 18:18:05.824087  6788 net.cpp:399] pool4/3x3_s2_pool4/3x3_s2_0_split -> pool4/3x3_s2_pool4/3x3_s2_0_split_2
I0403 18:18:05.824108  6788 net.cpp:399] pool4/3x3_s2_pool4/3x3_s2_0_split -> pool4/3x3_s2_pool4/3x3_s2_0_split_3
I0403 18:18:05.824204  6788 net.cpp:141] Setting up pool4/3x3_s2_pool4/3x3_s2_0_split
I0403 18:18:05.824234  6788 net.cpp:148] Top shape: 24 832 7 7 (978432)
I0403 18:18:05.824249  6788 net.cpp:148] Top shape: 24 832 7 7 (978432)
I0403 18:18:05.824265  6788 net.cpp:148] Top shape: 24 832 7 7 (978432)
I0403 18:18:05.824281  6788 net.cpp:148] Top shape: 24 832 7 7 (978432)
I0403 18:18:05.824295  6788 net.cpp:156] Memory required for data: 1292125728
I0403 18:18:05.824309  6788 layer_factory.hpp:77] Creating layer inception_5a/1x1
I0403 18:18:05.824332  6788 net.cpp:91] Creating Layer inception_5a/1x1
I0403 18:18:05.824349  6788 net.cpp:425] inception_5a/1x1 <- pool4/3x3_s2_pool4/3x3_s2_0_split_0
I0403 18:18:05.824372  6788 net.cpp:399] inception_5a/1x1 -> inception_5a/1x1
I0403 18:18:05.827283  6788 net.cpp:141] Setting up inception_5a/1x1
I0403 18:18:05.827313  6788 net.cpp:148] Top shape: 24 256 7 7 (301056)
I0403 18:18:05.827329  6788 net.cpp:156] Memory required for data: 1293329952
I0403 18:18:05.827348  6788 layer_factory.hpp:77] Creating layer inception_5a/relu_1x1
I0403 18:18:05.827368  6788 net.cpp:91] Creating Layer inception_5a/relu_1x1
I0403 18:18:05.827386  6788 net.cpp:425] inception_5a/relu_1x1 <- inception_5a/1x1
I0403 18:18:05.827405  6788 net.cpp:386] inception_5a/relu_1x1 -> inception_5a/1x1 (in-place)
I0403 18:18:05.827721  6788 net.cpp:141] Setting up inception_5a/relu_1x1
I0403 18:18:05.827747  6788 net.cpp:148] Top shape: 24 256 7 7 (301056)
I0403 18:18:05.827762  6788 net.cpp:156] Memory required for data: 1294534176
I0403 18:18:05.827777  6788 layer_factory.hpp:77] Creating layer inception_5a/3x3_reduce
I0403 18:18:05.827801  6788 net.cpp:91] Creating Layer inception_5a/3x3_reduce
I0403 18:18:05.827818  6788 net.cpp:425] inception_5a/3x3_reduce <- pool4/3x3_s2_pool4/3x3_s2_0_split_1
I0403 18:18:05.827838  6788 net.cpp:399] inception_5a/3x3_reduce -> inception_5a/3x3_reduce
I0403 18:18:05.830454  6788 net.cpp:141] Setting up inception_5a/3x3_reduce
I0403 18:18:05.830485  6788 net.cpp:148] Top shape: 24 160 7 7 (188160)
I0403 18:18:05.830502  6788 net.cpp:156] Memory required for data: 1295286816
I0403 18:18:05.830520  6788 layer_factory.hpp:77] Creating layer inception_5a/relu_3x3_reduce
I0403 18:18:05.830541  6788 net.cpp:91] Creating Layer inception_5a/relu_3x3_reduce
I0403 18:18:05.830559  6788 net.cpp:425] inception_5a/relu_3x3_reduce <- inception_5a/3x3_reduce
I0403 18:18:05.830579  6788 net.cpp:386] inception_5a/relu_3x3_reduce -> inception_5a/3x3_reduce (in-place)
I0403 18:18:05.830776  6788 net.cpp:141] Setting up inception_5a/relu_3x3_reduce
I0403 18:18:05.830801  6788 net.cpp:148] Top shape: 24 160 7 7 (188160)
I0403 18:18:05.830817  6788 net.cpp:156] Memory required for data: 1296039456
I0403 18:18:05.830833  6788 layer_factory.hpp:77] Creating layer inception_5a/3x3
I0403 18:18:05.830855  6788 net.cpp:91] Creating Layer inception_5a/3x3
I0403 18:18:05.830878  6788 net.cpp:425] inception_5a/3x3 <- inception_5a/3x3_reduce
I0403 18:18:05.830896  6788 net.cpp:399] inception_5a/3x3 -> inception_5a/3x3
I0403 18:18:05.836051  6788 net.cpp:141] Setting up inception_5a/3x3
I0403 18:18:05.836081  6788 net.cpp:148] Top shape: 24 320 7 7 (376320)
I0403 18:18:05.836097  6788 net.cpp:156] Memory required for data: 1297544736
I0403 18:18:05.836115  6788 layer_factory.hpp:77] Creating layer inception_5a/relu_3x3
I0403 18:18:05.836136  6788 net.cpp:91] Creating Layer inception_5a/relu_3x3
I0403 18:18:05.836153  6788 net.cpp:425] inception_5a/relu_3x3 <- inception_5a/3x3
I0403 18:18:05.836170  6788 net.cpp:386] inception_5a/relu_3x3 -> inception_5a/3x3 (in-place)
I0403 18:18:05.836472  6788 net.cpp:141] Setting up inception_5a/relu_3x3
I0403 18:18:05.836498  6788 net.cpp:148] Top shape: 24 320 7 7 (376320)
I0403 18:18:05.836514  6788 net.cpp:156] Memory required for data: 1299050016
I0403 18:18:05.836529  6788 layer_factory.hpp:77] Creating layer inception_5a/5x5_reduce
I0403 18:18:05.836552  6788 net.cpp:91] Creating Layer inception_5a/5x5_reduce
I0403 18:18:05.836570  6788 net.cpp:425] inception_5a/5x5_reduce <- pool4/3x3_s2_pool4/3x3_s2_0_split_2
I0403 18:18:05.836591  6788 net.cpp:399] inception_5a/5x5_reduce -> inception_5a/5x5_reduce
I0403 18:18:05.837779  6788 net.cpp:141] Setting up inception_5a/5x5_reduce
I0403 18:18:05.837811  6788 net.cpp:148] Top shape: 24 32 7 7 (37632)
I0403 18:18:05.837827  6788 net.cpp:156] Memory required for data: 1299200544
I0403 18:18:05.837847  6788 layer_factory.hpp:77] Creating layer inception_5a/relu_5x5_reduce
I0403 18:18:05.837867  6788 net.cpp:91] Creating Layer inception_5a/relu_5x5_reduce
I0403 18:18:05.837882  6788 net.cpp:425] inception_5a/relu_5x5_reduce <- inception_5a/5x5_reduce
I0403 18:18:05.837901  6788 net.cpp:386] inception_5a/relu_5x5_reduce -> inception_5a/5x5_reduce (in-place)
I0403 18:18:05.838204  6788 net.cpp:141] Setting up inception_5a/relu_5x5_reduce
I0403 18:18:05.838237  6788 net.cpp:148] Top shape: 24 32 7 7 (37632)
I0403 18:18:05.838253  6788 net.cpp:156] Memory required for data: 1299351072
I0403 18:18:05.838269  6788 layer_factory.hpp:77] Creating layer inception_5a/5x5
I0403 18:18:05.838304  6788 net.cpp:91] Creating Layer inception_5a/5x5
I0403 18:18:05.838321  6788 net.cpp:425] inception_5a/5x5 <- inception_5a/5x5_reduce
I0403 18:18:05.838341  6788 net.cpp:399] inception_5a/5x5 -> inception_5a/5x5
I0403 18:18:05.840172  6788 net.cpp:141] Setting up inception_5a/5x5
I0403 18:18:05.840217  6788 net.cpp:148] Top shape: 24 128 7 7 (150528)
I0403 18:18:05.840235  6788 net.cpp:156] Memory required for data: 1299953184
I0403 18:18:05.840255  6788 layer_factory.hpp:77] Creating layer inception_5a/relu_5x5
I0403 18:18:05.840276  6788 net.cpp:91] Creating Layer inception_5a/relu_5x5
I0403 18:18:05.840294  6788 net.cpp:425] inception_5a/relu_5x5 <- inception_5a/5x5
I0403 18:18:05.840312  6788 net.cpp:386] inception_5a/relu_5x5 -> inception_5a/5x5 (in-place)
I0403 18:18:05.840523  6788 net.cpp:141] Setting up inception_5a/relu_5x5
I0403 18:18:05.840550  6788 net.cpp:148] Top shape: 24 128 7 7 (150528)
I0403 18:18:05.840567  6788 net.cpp:156] Memory required for data: 1300555296
I0403 18:18:05.840582  6788 layer_factory.hpp:77] Creating layer inception_5a/pool
I0403 18:18:05.840600  6788 net.cpp:91] Creating Layer inception_5a/pool
I0403 18:18:05.840615  6788 net.cpp:425] inception_5a/pool <- pool4/3x3_s2_pool4/3x3_s2_0_split_3
I0403 18:18:05.840636  6788 net.cpp:399] inception_5a/pool -> inception_5a/pool
I0403 18:18:05.840706  6788 net.cpp:141] Setting up inception_5a/pool
I0403 18:18:05.840730  6788 net.cpp:148] Top shape: 24 832 7 7 (978432)
I0403 18:18:05.840745  6788 net.cpp:156] Memory required for data: 1304469024
I0403 18:18:05.840759  6788 layer_factory.hpp:77] Creating layer inception_5a/pool_proj
I0403 18:18:05.840781  6788 net.cpp:91] Creating Layer inception_5a/pool_proj
I0403 18:18:05.840798  6788 net.cpp:425] inception_5a/pool_proj <- inception_5a/pool
I0403 18:18:05.840819  6788 net.cpp:399] inception_5a/pool_proj -> inception_5a/pool_proj
I0403 18:18:05.843150  6788 net.cpp:141] Setting up inception_5a/pool_proj
I0403 18:18:05.843180  6788 net.cpp:148] Top shape: 24 128 7 7 (150528)
I0403 18:18:05.843195  6788 net.cpp:156] Memory required for data: 1305071136
I0403 18:18:05.843219  6788 layer_factory.hpp:77] Creating layer inception_5a/relu_pool_proj
I0403 18:18:05.843242  6788 net.cpp:91] Creating Layer inception_5a/relu_pool_proj
I0403 18:18:05.843260  6788 net.cpp:425] inception_5a/relu_pool_proj <- inception_5a/pool_proj
I0403 18:18:05.843277  6788 net.cpp:386] inception_5a/relu_pool_proj -> inception_5a/pool_proj (in-place)
I0403 18:18:05.843575  6788 net.cpp:141] Setting up inception_5a/relu_pool_proj
I0403 18:18:05.843602  6788 net.cpp:148] Top shape: 24 128 7 7 (150528)
I0403 18:18:05.843617  6788 net.cpp:156] Memory required for data: 1305673248
I0403 18:18:05.843632  6788 layer_factory.hpp:77] Creating layer inception_5a/output
I0403 18:18:05.843649  6788 net.cpp:91] Creating Layer inception_5a/output
I0403 18:18:05.843667  6788 net.cpp:425] inception_5a/output <- inception_5a/1x1
I0403 18:18:05.843688  6788 net.cpp:425] inception_5a/output <- inception_5a/3x3
I0403 18:18:05.843704  6788 net.cpp:425] inception_5a/output <- inception_5a/5x5
I0403 18:18:05.843720  6788 net.cpp:425] inception_5a/output <- inception_5a/pool_proj
I0403 18:18:05.843737  6788 net.cpp:399] inception_5a/output -> inception_5a/output
I0403 18:18:05.843791  6788 net.cpp:141] Setting up inception_5a/output
I0403 18:18:05.843816  6788 net.cpp:148] Top shape: 24 832 7 7 (978432)
I0403 18:18:05.843830  6788 net.cpp:156] Memory required for data: 1309586976
I0403 18:18:05.843847  6788 layer_factory.hpp:77] Creating layer inception_5a/output_inception_5a/output_0_split
I0403 18:18:05.843863  6788 net.cpp:91] Creating Layer inception_5a/output_inception_5a/output_0_split
I0403 18:18:05.843879  6788 net.cpp:425] inception_5a/output_inception_5a/output_0_split <- inception_5a/output
I0403 18:18:05.843899  6788 net.cpp:399] inception_5a/output_inception_5a/output_0_split -> inception_5a/output_inception_5a/output_0_split_0
I0403 18:18:05.843922  6788 net.cpp:399] inception_5a/output_inception_5a/output_0_split -> inception_5a/output_inception_5a/output_0_split_1
I0403 18:18:05.843942  6788 net.cpp:399] inception_5a/output_inception_5a/output_0_split -> inception_5a/output_inception_5a/output_0_split_2
I0403 18:18:05.843963  6788 net.cpp:399] inception_5a/output_inception_5a/output_0_split -> inception_5a/output_inception_5a/output_0_split_3
I0403 18:18:05.844079  6788 net.cpp:141] Setting up inception_5a/output_inception_5a/output_0_split
I0403 18:18:05.844105  6788 net.cpp:148] Top shape: 24 832 7 7 (978432)
I0403 18:18:05.844122  6788 net.cpp:148] Top shape: 24 832 7 7 (978432)
I0403 18:18:05.844138  6788 net.cpp:148] Top shape: 24 832 7 7 (978432)
I0403 18:18:05.844153  6788 net.cpp:148] Top shape: 24 832 7 7 (978432)
I0403 18:18:05.844168  6788 net.cpp:156] Memory required for data: 1325241888
I0403 18:18:05.844184  6788 layer_factory.hpp:77] Creating layer inception_5b/1x1
I0403 18:18:05.844207  6788 net.cpp:91] Creating Layer inception_5b/1x1
I0403 18:18:05.844230  6788 net.cpp:425] inception_5b/1x1 <- inception_5a/output_inception_5a/output_0_split_0
I0403 18:18:05.844249  6788 net.cpp:399] inception_5b/1x1 -> inception_5b/1x1
I0403 18:18:05.848057  6788 net.cpp:141] Setting up inception_5b/1x1
I0403 18:18:05.848085  6788 net.cpp:148] Top shape: 24 384 7 7 (451584)
I0403 18:18:05.848101  6788 net.cpp:156] Memory required for data: 1327048224
I0403 18:18:05.848120  6788 layer_factory.hpp:77] Creating layer inception_5b/relu_1x1
I0403 18:18:05.848141  6788 net.cpp:91] Creating Layer inception_5b/relu_1x1
I0403 18:18:05.848157  6788 net.cpp:425] inception_5b/relu_1x1 <- inception_5b/1x1
I0403 18:18:05.848175  6788 net.cpp:386] inception_5b/relu_1x1 -> inception_5b/1x1 (in-place)
I0403 18:18:05.848479  6788 net.cpp:141] Setting up inception_5b/relu_1x1
I0403 18:18:05.848505  6788 net.cpp:148] Top shape: 24 384 7 7 (451584)
I0403 18:18:05.848520  6788 net.cpp:156] Memory required for data: 1328854560
I0403 18:18:05.848534  6788 layer_factory.hpp:77] Creating layer inception_5b/3x3_reduce
I0403 18:18:05.848556  6788 net.cpp:91] Creating Layer inception_5b/3x3_reduce
I0403 18:18:05.848574  6788 net.cpp:425] inception_5b/3x3_reduce <- inception_5a/output_inception_5a/output_0_split_1
I0403 18:18:05.848598  6788 net.cpp:399] inception_5b/3x3_reduce -> inception_5b/3x3_reduce
I0403 18:18:05.851238  6788 net.cpp:141] Setting up inception_5b/3x3_reduce
I0403 18:18:05.851268  6788 net.cpp:148] Top shape: 24 192 7 7 (225792)
I0403 18:18:05.851282  6788 net.cpp:156] Memory required for data: 1329757728
I0403 18:18:05.851301  6788 layer_factory.hpp:77] Creating layer inception_5b/relu_3x3_reduce
I0403 18:18:05.851320  6788 net.cpp:91] Creating Layer inception_5b/relu_3x3_reduce
I0403 18:18:05.851337  6788 net.cpp:425] inception_5b/relu_3x3_reduce <- inception_5b/3x3_reduce
I0403 18:18:05.851356  6788 net.cpp:386] inception_5b/relu_3x3_reduce -> inception_5b/3x3_reduce (in-place)
I0403 18:18:05.851541  6788 net.cpp:141] Setting up inception_5b/relu_3x3_reduce
I0403 18:18:05.851567  6788 net.cpp:148] Top shape: 24 192 7 7 (225792)
I0403 18:18:05.851582  6788 net.cpp:156] Memory required for data: 1330660896
I0403 18:18:05.851596  6788 layer_factory.hpp:77] Creating layer inception_5b/3x3
I0403 18:18:05.851615  6788 net.cpp:91] Creating Layer inception_5b/3x3
I0403 18:18:05.851632  6788 net.cpp:425] inception_5b/3x3 <- inception_5b/3x3_reduce
I0403 18:18:05.851652  6788 net.cpp:399] inception_5b/3x3 -> inception_5b/3x3
I0403 18:18:05.858307  6788 net.cpp:141] Setting up inception_5b/3x3
I0403 18:18:05.858336  6788 net.cpp:148] Top shape: 24 384 7 7 (451584)
I0403 18:18:05.858352  6788 net.cpp:156] Memory required for data: 1332467232
I0403 18:18:05.858371  6788 layer_factory.hpp:77] Creating layer inception_5b/relu_3x3
I0403 18:18:05.858392  6788 net.cpp:91] Creating Layer inception_5b/relu_3x3
I0403 18:18:05.858408  6788 net.cpp:425] inception_5b/relu_3x3 <- inception_5b/3x3
I0403 18:18:05.858427  6788 net.cpp:386] inception_5b/relu_3x3 -> inception_5b/3x3 (in-place)
I0403 18:18:05.858732  6788 net.cpp:141] Setting up inception_5b/relu_3x3
I0403 18:18:05.858759  6788 net.cpp:148] Top shape: 24 384 7 7 (451584)
I0403 18:18:05.858773  6788 net.cpp:156] Memory required for data: 1334273568
I0403 18:18:05.858788  6788 layer_factory.hpp:77] Creating layer inception_5b/5x5_reduce
I0403 18:18:05.858826  6788 net.cpp:91] Creating Layer inception_5b/5x5_reduce
I0403 18:18:05.858844  6788 net.cpp:425] inception_5b/5x5_reduce <- inception_5a/output_inception_5a/output_0_split_2
I0403 18:18:05.858866  6788 net.cpp:399] inception_5b/5x5_reduce -> inception_5b/5x5_reduce
I0403 18:18:05.860123  6788 net.cpp:141] Setting up inception_5b/5x5_reduce
I0403 18:18:05.860151  6788 net.cpp:148] Top shape: 24 48 7 7 (56448)
I0403 18:18:05.860167  6788 net.cpp:156] Memory required for data: 1334499360
I0403 18:18:05.860184  6788 layer_factory.hpp:77] Creating layer inception_5b/relu_5x5_reduce
I0403 18:18:05.860203  6788 net.cpp:91] Creating Layer inception_5b/relu_5x5_reduce
I0403 18:18:05.860226  6788 net.cpp:425] inception_5b/relu_5x5_reduce <- inception_5b/5x5_reduce
I0403 18:18:05.860244  6788 net.cpp:386] inception_5b/relu_5x5_reduce -> inception_5b/5x5_reduce (in-place)
I0403 18:18:05.860615  6788 net.cpp:141] Setting up inception_5b/relu_5x5_reduce
I0403 18:18:05.860641  6788 net.cpp:148] Top shape: 24 48 7 7 (56448)
I0403 18:18:05.860656  6788 net.cpp:156] Memory required for data: 1334725152
I0403 18:18:05.860671  6788 layer_factory.hpp:77] Creating layer inception_5b/5x5
I0403 18:18:05.860690  6788 net.cpp:91] Creating Layer inception_5b/5x5
I0403 18:18:05.860708  6788 net.cpp:425] inception_5b/5x5 <- inception_5b/5x5_reduce
I0403 18:18:05.860726  6788 net.cpp:399] inception_5b/5x5 -> inception_5b/5x5
I0403 18:18:05.862741  6788 net.cpp:141] Setting up inception_5b/5x5
I0403 18:18:05.862769  6788 net.cpp:148] Top shape: 24 128 7 7 (150528)
I0403 18:18:05.862784  6788 net.cpp:156] Memory required for data: 1335327264
I0403 18:18:05.862802  6788 layer_factory.hpp:77] Creating layer inception_5b/relu_5x5
I0403 18:18:05.862823  6788 net.cpp:91] Creating Layer inception_5b/relu_5x5
I0403 18:18:05.862839  6788 net.cpp:425] inception_5b/relu_5x5 <- inception_5b/5x5
I0403 18:18:05.862856  6788 net.cpp:386] inception_5b/relu_5x5 -> inception_5b/5x5 (in-place)
I0403 18:18:05.863050  6788 net.cpp:141] Setting up inception_5b/relu_5x5
I0403 18:18:05.863073  6788 net.cpp:148] Top shape: 24 128 7 7 (150528)
I0403 18:18:05.863087  6788 net.cpp:156] Memory required for data: 1335929376
I0403 18:18:05.863102  6788 layer_factory.hpp:77] Creating layer inception_5b/pool
I0403 18:18:05.863119  6788 net.cpp:91] Creating Layer inception_5b/pool
I0403 18:18:05.863136  6788 net.cpp:425] inception_5b/pool <- inception_5a/output_inception_5a/output_0_split_3
I0403 18:18:05.863157  6788 net.cpp:399] inception_5b/pool -> inception_5b/pool
I0403 18:18:05.863232  6788 net.cpp:141] Setting up inception_5b/pool
I0403 18:18:05.863256  6788 net.cpp:148] Top shape: 24 832 7 7 (978432)
I0403 18:18:05.863270  6788 net.cpp:156] Memory required for data: 1339843104
I0403 18:18:05.863284  6788 layer_factory.hpp:77] Creating layer inception_5b/pool_proj
I0403 18:18:05.863307  6788 net.cpp:91] Creating Layer inception_5b/pool_proj
I0403 18:18:05.863324  6788 net.cpp:425] inception_5b/pool_proj <- inception_5b/pool
I0403 18:18:05.863343  6788 net.cpp:399] inception_5b/pool_proj -> inception_5b/pool_proj
I0403 18:18:05.865622  6788 net.cpp:141] Setting up inception_5b/pool_proj
I0403 18:18:05.865649  6788 net.cpp:148] Top shape: 24 128 7 7 (150528)
I0403 18:18:05.865664  6788 net.cpp:156] Memory required for data: 1340445216
I0403 18:18:05.865682  6788 layer_factory.hpp:77] Creating layer inception_5b/relu_pool_proj
I0403 18:18:05.865702  6788 net.cpp:91] Creating Layer inception_5b/relu_pool_proj
I0403 18:18:05.865720  6788 net.cpp:425] inception_5b/relu_pool_proj <- inception_5b/pool_proj
I0403 18:18:05.865736  6788 net.cpp:386] inception_5b/relu_pool_proj -> inception_5b/pool_proj (in-place)
I0403 18:18:05.866034  6788 net.cpp:141] Setting up inception_5b/relu_pool_proj
I0403 18:18:05.866060  6788 net.cpp:148] Top shape: 24 128 7 7 (150528)
I0403 18:18:05.866073  6788 net.cpp:156] Memory required for data: 1341047328
I0403 18:18:05.866087  6788 layer_factory.hpp:77] Creating layer inception_5b/output
I0403 18:18:05.866107  6788 net.cpp:91] Creating Layer inception_5b/output
I0403 18:18:05.866137  6788 net.cpp:425] inception_5b/output <- inception_5b/1x1
I0403 18:18:05.866155  6788 net.cpp:425] inception_5b/output <- inception_5b/3x3
I0403 18:18:05.866184  6788 net.cpp:425] inception_5b/output <- inception_5b/5x5
I0403 18:18:05.866200  6788 net.cpp:425] inception_5b/output <- inception_5b/pool_proj
I0403 18:18:05.866222  6788 net.cpp:399] inception_5b/output -> inception_5b/output
I0403 18:18:05.866277  6788 net.cpp:141] Setting up inception_5b/output
I0403 18:18:05.866302  6788 net.cpp:148] Top shape: 24 1024 7 7 (1204224)
I0403 18:18:05.866317  6788 net.cpp:156] Memory required for data: 1345864224
I0403 18:18:05.866331  6788 layer_factory.hpp:77] Creating layer pool5/7x7_s1
I0403 18:18:05.866349  6788 net.cpp:91] Creating Layer pool5/7x7_s1
I0403 18:18:05.866365  6788 net.cpp:425] pool5/7x7_s1 <- inception_5b/output
I0403 18:18:05.866385  6788 net.cpp:399] pool5/7x7_s1 -> pool5/7x7_s1
I0403 18:18:05.866614  6788 net.cpp:141] Setting up pool5/7x7_s1
I0403 18:18:05.866642  6788 net.cpp:148] Top shape: 24 1024 1 1 (24576)
I0403 18:18:05.866658  6788 net.cpp:156] Memory required for data: 1345962528
I0403 18:18:05.866672  6788 layer_factory.hpp:77] Creating layer pool5/drop_7x7_s1
I0403 18:18:05.866690  6788 net.cpp:91] Creating Layer pool5/drop_7x7_s1
I0403 18:18:05.866706  6788 net.cpp:425] pool5/drop_7x7_s1 <- pool5/7x7_s1
I0403 18:18:05.866724  6788 net.cpp:386] pool5/drop_7x7_s1 -> pool5/7x7_s1 (in-place)
I0403 18:18:05.866775  6788 net.cpp:141] Setting up pool5/drop_7x7_s1
I0403 18:18:05.866797  6788 net.cpp:148] Top shape: 24 1024 1 1 (24576)
I0403 18:18:05.866812  6788 net.cpp:156] Memory required for data: 1346060832
I0403 18:18:05.866828  6788 layer_factory.hpp:77] Creating layer loss3/classifier_plantvillage
I0403 18:18:05.866848  6788 net.cpp:91] Creating Layer loss3/classifier_plantvillage
I0403 18:18:05.866865  6788 net.cpp:425] loss3/classifier_plantvillage <- pool5/7x7_s1
I0403 18:18:05.866883  6788 net.cpp:399] loss3/classifier_plantvillage -> loss3/classifier_plantvillage
I0403 18:18:05.867305  6788 net.cpp:141] Setting up loss3/classifier_plantvillage
I0403 18:18:05.867329  6788 net.cpp:148] Top shape: 24 38 (912)
I0403 18:18:05.867344  6788 net.cpp:156] Memory required for data: 1346064480
I0403 18:18:05.867362  6788 layer_factory.hpp:77] Creating layer loss3/classifier_plantvillage_loss3/classifier_plantvillage_0_split
I0403 18:18:05.867379  6788 net.cpp:91] Creating Layer loss3/classifier_plantvillage_loss3/classifier_plantvillage_0_split
I0403 18:18:05.867394  6788 net.cpp:425] loss3/classifier_plantvillage_loss3/classifier_plantvillage_0_split <- loss3/classifier_plantvillage
I0403 18:18:05.867415  6788 net.cpp:399] loss3/classifier_plantvillage_loss3/classifier_plantvillage_0_split -> loss3/classifier_plantvillage_loss3/classifier_plantvillage_0_split_0
I0403 18:18:05.867436  6788 net.cpp:399] loss3/classifier_plantvillage_loss3/classifier_plantvillage_0_split -> loss3/classifier_plantvillage_loss3/classifier_plantvillage_0_split_1
I0403 18:18:05.867457  6788 net.cpp:399] loss3/classifier_plantvillage_loss3/classifier_plantvillage_0_split -> loss3/classifier_plantvillage_loss3/classifier_plantvillage_0_split_2
I0403 18:18:05.867477  6788 net.cpp:399] loss3/classifier_plantvillage_loss3/classifier_plantvillage_0_split -> loss3/classifier_plantvillage_loss3/classifier_plantvillage_0_split_3
I0403 18:18:05.867579  6788 net.cpp:141] Setting up loss3/classifier_plantvillage_loss3/classifier_plantvillage_0_split
I0403 18:18:05.867604  6788 net.cpp:148] Top shape: 24 38 (912)
I0403 18:18:05.867622  6788 net.cpp:148] Top shape: 24 38 (912)
I0403 18:18:05.867638  6788 net.cpp:148] Top shape: 24 38 (912)
I0403 18:18:05.867653  6788 net.cpp:148] Top shape: 24 38 (912)
I0403 18:18:05.867667  6788 net.cpp:156] Memory required for data: 1346079072
I0403 18:18:05.867681  6788 layer_factory.hpp:77] Creating layer loss1/loss
I0403 18:18:05.867705  6788 net.cpp:91] Creating Layer loss1/loss
I0403 18:18:05.867722  6788 net.cpp:425] loss1/loss <- loss1/classifier_plantvillage_loss1/classifier_plantvillage_0_split_0
I0403 18:18:05.867753  6788 net.cpp:425] loss1/loss <- label_data_1_split_0
…
