…
I0403 18:07:30.623908  6602 net.cpp:313] The NetState phase (1) differed from the phase (0) specified by a rule in layer data
I0403 18:07:30.625125  6602 net.cpp:49] Initializing net from parameters: 
state {
  phase: TEST
}
layer {
  name: "data"
  type: "Data"
  top: "data"
  top: "label"
  include {
    phase: TEST
  }
  transform_param {
    mirror: false
    crop_size: 224
    mean_file: "/home/mohanty/data/final_dataset/lmdb/segmented-50-50/mean.binaryproto"
  }
  data_param {
    source: "/home/mohanty/data/final_dataset/lmdb/segmented-50-50/test_db"
    batch_size: 24
    backend: LMDB
  }
}
layer {
  name: "conv1/7x7_s2"
  type: "Convolution"
  bottom: "data"
  top: "conv1/7x7_s2"
  param {
    lr_mult: 1
    decay_mult: 1
  }
  param {
    lr_mult: 2
    decay_mult: 0
  }
  convolution_param {
    num_output: 64
    pad: 3
    kernel_size: 7
    stride: 2
    weight_filler {
      type: "xavier"
      std: 0.1
    }
    bias_filler {
      type: "constant"
      value: 0.2
    }
  }
}
layer {
  name: "conv1/relu_7x7"
  type: "ReLU"
  bottom: "conv1/7x7_s2"
  top: "conv1/7x7_s2"
}
layer {
  name: "pool1/3x3_s2"
  type: "Pooling"
  bottom: "conv1/7x7_s2"
  top: "pool1/3x3_s2"
  pooling_param {
    pool: MAX
    kernel_size: 3
    stride: 2
  }
}
layer {
  name: "pool1/norm1"
  type: "LRN"
  bottom: "pool1/3x3_s2"
  top: "pool1/norm1"
  lrn_param {
    local_size: 5
    alpha: 0.0001
    beta: 0.75
  }
}
layer {
  name: "conv2/3x3_reduce"
  type: "Convolution"
  bottom: "pool1/norm1"
  top: "conv2/3x3_reduce"
  param {
    lr_mult: 1
    decay_mult: 1
  }
  param {
    lr_mult: 2
    decay_mult: 0
  }
  convolution_param {
    num_output: 64
    kernel_size: 1
    weight_filler {
      type: "xavier"
      std: 0.1
    }
    bias_filler {
      type: "constant"
      value: 0.2
    }
  }
}
layer {
  name: "conv2/relu_3x3_reduce"
  type: "ReLU"
  bottom: "conv2/3x3_reduce"
  top: "conv2/3x3_reduce"
}
layer {
  name: "conv2/3x3"
  type: "Convolution"
  bottom: "conv2/3x3_reduce"
  top: "conv2/3x3"
  param {
    lr_mult: 1
    decay_mult: 1
  }
  param {
    lr_mult: 2
    decay_mult: 0
  }
  convolution_param {
    num_output: 192
    pad: 1
    kernel_size: 3
    weight_filler {
      type: "xavier"
      std: 0.03
    }
    bias_filler {
      type: "constant"
      value: 0.2
    }
  }
}
layer {
  name: "conv2/relu_3x3"
  type: "ReLU"
  bottom: "conv2/3x3"
  top: "conv2/3x3"
}
layer {
  name: "conv2/norm2"
  type: "LRN"
  bottom: "conv2/3x3"
  top: "conv2/norm2"
  lrn_param {
    local_size: 5
    alpha: 0.0001
    beta: 0.75
  }
}
layer {
  name: "pool2/3x3_s2"
  type: "Pooling"
  bottom: "conv2/norm2"
  top: "pool2/3x3_s2"
  pooling_param {
    pool: MAX
    kernel_size: 3
    stride: 2
  }
}
layer {
  name: "inception_3a/1x1"
  type: "Convolution"
  bottom: "pool2/3x3_s2"
  top: "inception_3a/1x1"
  param {
    lr_mult: 1
    decay_mult: 1
  }
  param {
    lr_mult: 2
    decay_mult: 0
  }
  convolution_param {
    num_output: 64
    kernel_size: 1
    weight_filler {
      type: "xavier"
      std: 0.03
    }
    bias_filler {
      type: "constant"
      value: 0.2
    }
  }
}
layer {
  name: "inception_3a/relu_1x1"
  type: "ReLU"
  bottom: "inception_3a/1x1"
  top: "inception_3a/1x1"
}
layer {
  name: "inception_3a/3x3_reduce"
  type: "Convolution"
  bottom: "pool2/3x3_s2"
  top: "inception_3a/3x3_reduce"
  param {
    lr_mult: 1
    decay_mult: 1
  }
  param {
    lr_mult: 2
    decay_mult: 0
  }
  convolution_param {
    num_output: 96
    kernel_size: 1
    weight_filler {
      type: "xavier"
      std: 0.09
    }
    bias_filler {
      type: "constant"
      value: 0.2
    }
  }
}
layer {
  name: "inception_3a/relu_3x3_reduce"
  type: "ReLU"
  bottom: "inception_3a/3x3_reduce"
  top: "inception_3a/3x3_reduce"
}
layer {
  name: "inception_3a/3x3"
  type: "Convolution"
  bottom: "inception_3a/3x3_reduce"
  top: "inception_3a/3x3"
  param {
    lr_mult: 1
    decay_mult: 1
  }
  param {
    lr_mult: 2
    decay_mult: 0
  }
  convolution_param {
    num_output: 128
    pad: 1
    kernel_size: 3
    weight_filler {
      type: "xavier"
      std: 0.03
    }
    bias_filler {
      type: "constant"
      value: 0.2
    }
  }
}
layer {
  name: "inception_3a/relu_3x3"
  type: "ReLU"
  bottom: "inception_3a/3x3"
  top: "inception_3a/3x3"
}
layer {
  name: "inception_3a/5x5_reduce"
  type: "Convolution"
  bottom: "pool2/3x3_s2"
  top: "inception_3a/5x5_reduce"
  param {
    lr_mult: 1
    decay_mult: 1
  }
  param {
    lr_mult: 2
    decay_mult: 0
  }
  convolution_param {
    num_output: 16
    kernel_size: 1
    weight_filler {
      type: "xavier"
      std: 0.2
    }
    bias_filler {
      type: "constant"
      value: 0.2
    }
  }
}
layer {
  name: "inception_3a/relu_5x5_reduce"
  type: "ReLU"
  bottom: "inception_3a/5x5_reduce"
  top: "inception_3a/5x5_reduce"
}
layer {
  name: "inception_3a/5x5"
  type: "Convolution"
  bottom: "inception_3a/5x5_reduce"
  top: "inception_3a/5x5"
  param {
    lr_mult: 1
    decay_mult: 1
  }
  param {
    lr_mult: 2
    decay_mult: 0
  }
  convolution_param {
    num_output: 32
    pad: 2
    kernel_size: 5
    weight_filler {
      type: "xavier"
      std: 0.03
    }
    bias_filler {
      type: "constant"
      value: 0.2
    }
  }
}
layer {
  name: "inception_3a/relu_5x5"
  type: "ReLU"
  bottom: "inception_3a/5x5"
  top: "inception_3a/5x5"
}
layer {
  name: "inception_3a/pool"
  type: "Pooling"
  bottom: "pool2/3x3_s2"
  top: "inception_3a/pool"
  pooling_param {
    pool: MAX
    kernel_size: 3
    stride: 1
    pad: 1
  }
}
layer {
  name: "inception_3a/pool_proj"
  type: "Convolution"
  bottom: "inception_3a/pool"
  top: "inception_3a/pool_proj"
  param {
    lr_mult: 1
    decay_mult: 1
  }
  param {
    lr_mult: 2
    decay_mult: 0
  }
  convolution_param {
    num_output: 32
    kernel_size: 1
    weight_filler {
      type: "xavier"
      std: 0.1
    }
    bias_filler {
      type: "constant"
      value: 0.2
    }
  }
}
layer {
  name: "inception_3a/relu_pool_proj"
  type: "ReLU"
  bottom: "inception_3a/pool_proj"
  top: "inception_3a/pool_proj"
}
layer {
  name: "inception_3a/output"
  type: "Concat"
  bottom: "inception_3a/1x1"
  bottom: "inception_3a/3x3"
  bottom: "inception_3a/5x5"
  bottom: "inception_3a/pool_proj"
  top: "inception_3a/output"
}
layer {
  name: "inception_3b/1x1"
  type: "Convolution"
  bottom: "inception_3a/output"
  top: "inception_3b/1x1"
  param {
    lr_mult: 1
    decay_mult: 1
  }
  param {
    lr_mult: 2
    decay_mult: 0
  }
  convolution_param {
    num_output: 128
    kernel_size: 1
    weight_filler {
      type: "xavier"
      std: 0.03
    }
    bias_filler {
      type: "constant"
      value: 0.2
    }
  }
}
layer {
  name: "inception_3b/relu_1x1"
  type: "ReLU"
  bottom: "inception_3b/1x1"
  top: "inception_3b/1x1"
}
layer {
  name: "inception_3b/3x3_reduce"
  type: "Convolution"
  bottom: "inception_3a/output"
  top: "inception_3b/3x3_reduce"
  param {
    lr_mult: 1
    decay_mult: 1
  }
  param {
    lr_mult: 2
    decay_mult: 0
  }
  convolution_param {
    num_output: 128
    kernel_size: 1
    weight_filler {
      type: "xavier"
      std: 0.09
    }
    bias_filler {
      type: "constant"
      value: 0.2
    }
  }
}
layer {
  name: "inception_3b/relu_3x3_reduce"
  type: "ReLU"
  bottom: "inception_3b/3x3_reduce"
  top: "inception_3b/3x3_reduce"
}
layer {
  name: "inception_3b/3x3"
  type: "Convolution"
  bottom: "inception_3b/3x3_reduce"
  top: "inception_3b/3x3"
  param {
    lr_mult: 1
    decay_mult: 1
  }
  param {
    lr_mult: 2
    decay_mult: 0
  }
  convolution_param {
    num_output: 192
    pad: 1
    kernel_size: 3
    weight_filler {
      type: "xavier"
      std: 0.03
    }
    bias_filler {
      type: "constant"
      value: 0.2
    }
  }
}
layer {
  name: "inception_3b/relu_3x3"
  type: "ReLU"
  bottom: "inception_3b/3x3"
  top: "inception_3b/3x3"
}
layer {
  name: "inception_3b/5x5_reduce"
  type: "Convolution"
  bottom: "inception_3a/output"
  top: "inception_3b/5x5_reduce"
  param {
    lr_mult: 1
    decay_mult: 1
  }
  param {
    lr_mult: 2
    decay_mult: 0
  }
  convolution_param {
    num_output: 32
    kernel_size: 1
    weight_filler {
      type: "xavier"
      std: 0.2
    }
    bias_filler {
      type: "constant"
      value: 0.2
    }
  }
}
layer {
  name: "inception_3b/relu_5x5_reduce"
  type: "ReLU"
  bottom: "inception_3b/5x5_reduce"
  top: "inception_3b/5x5_reduce"
}
layer {
  name: "inception_3b/5x5"
  type: "Convolution"
  bottom: "inception_3b/5x5_reduce"
  top: "inception_3b/5x5"
  param {
    lr_mult: 1
    decay_mult: 1
  }
  param {
    lr_mult: 2
    decay_mult: 0
  }
  convolution_param {
    num_output: 96
    pad: 2
    kernel_size: 5
    weight_filler {
      type: "xavier"
      std: 0.03
    }
    bias_filler {
      type: "constant"
      value: 0.2
    }
  }
}
layer {
  name: "inception_3b/relu_5x5"
  type: "ReLU"
  bottom: "inception_3b/5x5"
  top: "inception_3b/5x5"
}
layer {
  name: "inception_3b/pool"
  type: "Pooling"
  bottom: "inception_3a/output"
  top: "inception_3b/pool"
  pooling_param {
    pool: MAX
    kernel_size: 3
    stride: 1
    pad: 1
  }
}
layer {
  name: "inception_3b/pool_proj"
  type: "Convolution"
  bottom: "inception_3b/pool"
  top: "inception_3b/pool_proj"
  param {
    lr_mult: 1
    decay_mult: 1
  }
  param {
    lr_mult: 2
    decay_mult: 0
  }
  convolution_param {
    num_output: 64
    kernel_size: 1
    weight_filler {
      type: "xavier"
      std: 0.1
    }
    bias_filler {
      type: "constant"
      value: 0.2
    }
  }
}
layer {
  name: "inception_3b/relu_pool_proj"
  type: "ReLU"
  bottom: "inception_3b/pool_proj"
  top: "inception_3b/pool_proj"
}
layer {
  name: "inception_3b/output"
  type: "Concat"
  bottom: "inception_3b/1x1"
  bottom: "inception_3b/3x3"
  bottom: "inception_3b/5x5"
  bottom: "inception_3b/pool_proj"
  top: "inception_3b/output"
}
layer {
  name: "pool3/3x3_s2"
  type: "Pooling"
  bottom: "inception_3b/output"
  top: "pool3/3x3_s2"
  pooling_param {
    pool: MAX
    kernel_size: 3
    stride: 2
  }
}
layer {
  name: "inception_4a/1x1"
  type: "Convolution"
  bottom: "pool3/3x3_s2"
  top: "inception_4a/1x1"
  param {
    lr_mult: 1
    decay_mult: 1
  }
  param {
    lr_mult: 2
    decay_mult: 0
  }
  convolution_param {
    num_output: 192
    kernel_size: 1
    weight_filler {
      type: "xavier"
      std: 0.03
    }
    bias_filler {
      type: "constant"
      value: 0.2
    }
  }
}
layer {
  name: "inception_4a/relu_1x1"
  type: "ReLU"
  bottom: "inception_4a/1x1"
  top: "inception_4a/1x1"
}
layer {
  name: "inception_4a/3x3_reduce"
  type: "Convolution"
  bottom: "pool3/3x3_s2"
  top: "inception_4a/3x3_reduce"
  param {
    lr_mult: 1
    decay_mult: 1
  }
  param {
    lr_mult: 2
    decay_mult: 0
  }
  convolution_param {
    num_output: 96
    kernel_size: 1
    weight_filler {
      type: "xavier"
      std: 0.09
    }
    bias_filler {
      type: "constant"
      value: 0.2
    }
  }
}
layer {
  name: "inception_4a/relu_3x3_reduce"
  type: "ReLU"
  bottom: "inception_4a/3x3_reduce"
  top: "inception_4a/3x3_reduce"
}
layer {
  name: "inception_4a/3x3"
  type: "Convolution"
  bottom: "inception_4a/3x3_reduce"
  top: "inception_4a/3x3"
  param {
    lr_mult: 1
    decay_mult: 1
  }
  param {
    lr_mult: 2
    decay_mult: 0
  }
  convolution_param {
    num_output: 208
    pad: 1
    kernel_size: 3
    weight_filler {
      type: "xavier"
      std: 0.03
    }
    bias_filler {
      type: "constant"
      value: 0.2
    }
  }
}
layer {
  name: "inception_4a/relu_3x3"
  type: "ReLU"
  bottom: "inception_4a/3x3"
  top: "inception_4a/3x3"
}
layer {
  name: "inception_4a/5x5_reduce"
  type: "Convolution"
  bottom: "pool3/3x3_s2"
  top: "inception_4a/5x5_reduce"
  param {
    lr_mult: 1
    decay_mult: 1
  }
  param {
    lr_mult: 2
    decay_mult: 0
  }
  convolution_param {
    num_output: 16
    kernel_size: 1
    weight_filler {
      type: "xavier"
      std: 0.2
    }
    bias_filler {
      type: "constant"
      value: 0.2
    }
  }
}
layer {
  name: "inception_4a/relu_5x5_reduce"
  type: "ReLU"
  bottom: "inception_4a/5x5_reduce"
  top: "inception_4a/5x5_reduce"
}
layer {
  name: "inception_4a/5x5"
  type: "Convolution"
  bottom: "inception_4a/5x5_reduce"
  top: "inception_4a/5x5"
  param {
    lr_mult: 1
    decay_mult: 1
  }
  param {
    lr_mult: 2
    decay_mult: 0
  }
  convolution_param {
    num_output: 48
    pad: 2
    kernel_size: 5
    weight_filler {
      type: "xavier"
      std: 0.03
    }
    bias_filler {
      type: "constant"
      value: 0.2
    }
  }
}
layer {
  name: "inception_4a/relu_5x5"
  type: "ReLU"
  bottom: "inception_4a/5x5"
  top: "inception_4a/5x5"
}
layer {
  name: "inception_4a/pool"
  type: "Pooling"
  bottom: "pool3/3x3_s2"
  top: "inception_4a/pool"
  pooling_param {
    pool: MAX
    kernel_size: 3
    stride: 1
    pad: 1
  }
}
layer {
  name: "inception_4a/pool_proj"
  type: "Convolution"
  bottom: "inception_4a/pool"
  top: "inception_4a/pool_proj"
  param {
    lr_mult: 1
    decay_mult: 1
  }
  param {
    lr_mult: 2
    decay_mult: 0
  }
  convolution_param {
    num_output: 64
    kernel_size: 1
    weight_filler {
      type: "xavier"
      std: 0.1
    }
    bias_filler {
      type: "constant"
      value: 0.2
    }
  }
}
layer {
  name: "inception_4a/relu_pool_proj"
  type: "ReLU"
  bottom: "inception_4a/pool_proj"
  top: "inception_4a/pool_proj"
}
layer {
  name: "inception_4a/output"
  type: "Concat"
  bottom: "inception_4a/1x1"
  bottom: "inception_4a/3x3"
  bottom: "inception_4a/5x5"
  bottom: "inception_4a/pool_proj"
  top: "inception_4a/output"
}
layer {
  name: "loss1/ave_pool"
  type: "Pooling"
  bottom: "inception_4a/output"
  top: "loss1/ave_pool"
  pooling_param {
    pool: AVE
    kernel_size: 5
    stride: 3
  }
}
layer {
  name: "loss1/conv"
  type: "Convolution"
  bottom: "loss1/ave_pool"
  top: "loss1/conv"
  param {
    lr_mult: 1
    decay_mult: 1
  }
  param {
    lr_mult: 2
    decay_mult: 0
  }
  convolution_param {
    num_output: 128
    kernel_size: 1
    weight_filler {
      type: "xavier"
      std: 0.08
    }
    bias_filler {
      type: "constant"
      value: 0.2
    }
  }
}
layer {
  name: "loss1/relu_conv"
  type: "ReLU"
  bottom: "loss1/conv"
  top: "loss1/conv"
}
layer {
  name: "loss1/fc"
  type: "InnerProduct"
  bottom: "loss1/conv"
  top: "loss1/fc"
  param {
    lr_mult: 1
    decay_mult: 1
  }
  param {
    lr_mult: 2
    decay_mult: 0
  }
  inner_product_param {
    num_output: 1024
    weight_filler {
      type: "xavier"
      std: 0.02
    }
    bias_filler {
      type: "constant"
      value: 0.2
    }
  }
}
layer {
  name: "loss1/relu_fc"
  type: "ReLU"
  bottom: "loss1/fc"
  top: "loss1/fc"
}
layer {
  name: "loss1/drop_fc"
  type: "Dropout"
  bottom: "loss1/fc"
  top: "loss1/fc"
  dropout_param {
    dropout_ratio: 0.7
  }
}
layer {
  name: "loss1/classifier_plantvillage"
  type: "InnerProduct"
  bottom: "loss1/fc"
  top: "loss1/classifier_plantvillage"
  param {
    lr_mult: 1
    decay_mult: 1
  }
  param {
    lr_mult: 2
    decay_mult: 0
  }
  inner_product_param {
    num_output: 38
    weight_filler {
      type: "xavier"
      std: 0.0009765625
    }
    bias_filler {
      type: "constant"
      value: 0
    }
  }
}
layer {
  name: "inception_4b/1x1"
  type: "Convolution"
  bottom: "inception_4a/output"
  top: "inception_4b/1x1"
  param {
    lr_mult: 1
    decay_mult: 1
  }
  param {
    lr_mult: 2
    decay_mult: 0
  }
  convolution_param {
    num_output: 160
    kernel_size: 1
    weight_filler {
      type: "xavier"
      std: 0.03
    }
    bias_filler {
      type: "constant"
      value: 0.2
    }
  }
}
layer {
  name: "inception_4b/relu_1x1"
  type: "ReLU"
  bottom: "inception_4b/1x1"
  top: "inception_4b/1x1"
}
layer {
  name: "inception_4b/3x3_reduce"
  type: "Convolution"
  bottom: "inception_4a/output"
  top: "inception_4b/3x3_reduce"
  param {
    lr_mult: 1
    decay_mult: 1
  }
  param {
    lr_mult: 2
    decay_mult: 0
  }
  convolution_param {
    num_output: 112
    kernel_size: 1
    weight_filler {
      type: "xavier"
      std: 0.09
    }
    bias_filler {
      type: "constant"
      value: 0.2
    }
  }
}
layer {
  name: "inception_4b/relu_3x3_reduce"
  type: "ReLU"
  bottom: "inception_4b/3x3_reduce"
  top: "inception_4b/3x3_reduce"
}
layer {
  name: "inception_4b/3x3"
  type: "Convolution"
  bottom: "inception_4b/3x3_reduce"
  top: "inception_4b/3x3"
  param {
    lr_mult: 1
    decay_mult: 1
  }
  param {
    lr_mult: 2
    decay_mult: 0
  }
  convolution_param {
    num_output: 224
    pad: 1
    kernel_size: 3
    weight_filler {
      type: "xavier"
      std: 0.03
    }
    bias_filler {
      type: "constant"
      value: 0.2
    }
  }
}
layer {
  name: "inception_4b/relu_3x3"
  type: "ReLU"
  bottom: "inception_4b/3x3"
  top: "inception_4b/3x3"
}
layer {
  name: "inception_4b/5x5_reduce"
  type: "Convolution"
  bottom: "inception_4a/output"
  top: "inception_4b/5x5_reduce"
  param {
    lr_mult: 1
    decay_mult: 1
  }
  param {
    lr_mult: 2
    decay_mult: 0
  }
  convolution_param {
    num_output: 24
    kernel_size: 1
    weight_filler {
      type: "xavier"
      std: 0.2
    }
    bias_filler {
      type: "constant"
      value: 0.2
    }
  }
}
layer {
  name: "inception_4b/relu_5x5_reduce"
  type: "ReLU"
  bottom: "inception_4b/5x5_reduce"
  top: "inception_4b/5x5_reduce"
}
layer {
  name: "inception_4b/5x5"
  type: "Convolution"
  bottom: "inception_4b/5x5_reduce"
  top: "inception_4b/5x5"
  param {
    lr_mult: 1
    decay_mult: 1
  }
  param {
    lr_mult: 2
    decay_mult: 0
  }
  convolution_param {
    num_output: 64
    pad: 2
    kernel_size: 5
    weight_filler {
      type: "xavier"
      std: 0.03
    }
    bias_filler {
      type: "constant"
      value: 0.2
    }
  }
}
layer {
  name: "inception_4b/relu_5x5"
  type: "ReLU"
  bottom: "inception_4b/5x5"
  top: "inception_4b/5x5"
}
layer {
  name: "inception_4b/pool"
  type: "Pooling"
  bottom: "inception_4a/output"
  top: "inception_4b/pool"
  pooling_param {
    pool: MAX
    kernel_size: 3
    stride: 1
    pad: 1
  }
}
layer {
  name: "inception_4b/pool_proj"
  type: "Convolution"
  bottom: "inception_4b/pool"
  top: "inception_4b/pool_proj"
  param {
    lr_mult: 1
    decay_mult: 1
  }
  param {
    lr_mult: 2
    decay_mult: 0
  }
  convolution_param {
    num_output: 64
    kernel_size: 1
    weight_filler {
      type: "xavier"
      std: 0.1
    }
    bias_filler {
      type: "constant"
      value: 0.2
    }
  }
}
layer {
  name: "inception_4b/relu_pool_proj"
  type: "ReLU"
  bottom: "inception_4b/pool_proj"
  top: "inception_4b/pool_proj"
}
layer {
  name: "inception_4b/output"
  type: "Concat"
  bottom: "inception_4b/1x1"
  bottom: "inception_4b/3x3"
  bottom: "inception_4b/5x5"
  bottom: "inception_4b/pool_proj"
  top: "inception_4b/output"
}
layer {
  name: "inception_4c/1x1"
  type: "Convolution"
  bottom: "inception_4b/output"
  top: "inception_4c/1x1"
  param {
    lr_mult: 1
    decay_mult: 1
  }
  param {
    lr_mult: 2
    decay_mult: 0
  }
  convolution_param {
    num_output: 128
    kernel_size: 1
    weight_filler {
      type: "xavier"
      std: 0.03
    }
    bias_filler {
      type: "constant"
      value: 0.2
    }
  }
}
layer {
  name: "inception_4c/relu_1x1"
  type: "ReLU"
  bottom: "inception_4c/1x1"
  top: "inception_4c/1x1"
}
layer {
  name: "inception_4c/3x3_reduce"
  type: "Convolution"
  bottom: "inception_4b/output"
  top: "inception_4c/3x3_reduce"
  param {
    lr_mult: 1
    decay_mult: 1
  }
  param {
    lr_mult: 2
    decay_mult: 0
  }
  convolution_param {
    num_output: 128
    kernel_size: 1
    weight_filler {
      type: "xavier"
      std: 0.09
    }
    bias_filler {
      type: "constant"
      value: 0.2
    }
  }
}
layer {
  name: "inception_4c/relu_3x3_reduce"
  type: "ReLU"
  bottom: "inception_4c/3x3_reduce"
  top: "inception_4c/3x3_reduce"
}
layer {
  name: "inception_4c/3x3"
  type: "Convolution"
  bottom: "inception_4c/3x3_reduce"
  top: "inception_4c/3x3"
  param {
    lr_mult: 1
    decay_mult: 1
  }
  param {
    lr_mult: 2
    decay_mult: 0
  }
  convolution_param {
    num_output: 256
    pad: 1
    kernel_size: 3
    weight_filler {
      type: "xavier"
      std: 0.03
    }
    bias_filler {
      type: "constant"
      value: 0.2
    }
  }
}
layer {
  name: "inception_4c/relu_3x3"
  type: "ReLU"
  bottom: "inception_4c/3x3"
  top: "inception_4c/3x3"
}
layer {
  name: "inception_4c/5x5_reduce"
  type: "Convolution"
  bottom: "inception_4b/output"
  top: "inception_4c/5x5_reduce"
  param {
    lr_mult: 1
    decay_mult: 1
  }
  param {
    lr_mult: 2
    decay_mult: 0
  }
  convolution_param {
    num_output: 24
    kernel_size: 1
    weight_filler {
      type: "xavier"
      std: 0.2
    }
    bias_filler {
      type: "constant"
      value: 0.2
    }
  }
}
layer {
  name: "inception_4c/relu_5x5_reduce"
  type: "ReLU"
  bottom: "inception_4c/5x5_reduce"
  top: "inception_4c/5x5_reduce"
}
layer {
  name: "inception_4c/5x5"
  type: "Convolution"
  bottom: "inception_4c/5x5_reduce"
  top: "inception_4c/5x5"
  param {
    lr_mult: 1
    decay_mult: 1
  }
  param {
    lr_mult: 2
    decay_mult: 0
  }
  convolution_param {
    num_output: 64
    pad: 2
    kernel_size: 5
    weight_filler {
      type: "xavier"
      std: 0.03
    }
    bias_filler {
      type: "constant"
      value: 0.2
    }
  }
}
layer {
  name: "inception_4c/relu_5x5"
  type: "ReLU"
  bottom: "inception_4c/5x5"
  top: "inception_4c/5x5"
}
layer {
  name: "inception_4c/pool"
  type: "Pooling"
  bottom: "inception_4b/output"
  top: "inception_4c/pool"
  pooling_param {
    pool: MAX
    kernel_size: 3
    stride: 1
    pad: 1
  }
}
layer {
  name: "inception_4c/pool_proj"
  type: "Convolution"
  bottom: "inception_4c/pool"
  top: "inception_4c/pool_proj"
  param {
    lr_mult: 1
    decay_mult: 1
  }
  param {
    lr_mult: 2
    decay_mult: 0
  }
  convolution_param {
    num_output: 64
    kernel_size: 1
    weight_filler {
      type: "xavier"
      std: 0.1
    }
    bias_filler {
      type: "constant"
      value: 0.2
    }
  }
}
layer {
  name: "inception_4c/relu_pool_proj"
  type: "ReLU"
  bottom: "inception_4c/pool_proj"
  top: "inception_4c/pool_proj"
}
layer {
  name: "inception_4c/output"
  type: "Concat"
  bottom: "inception_4c/1x1"
  bottom: "inception_4c/3x3"
  bottom: "inception_4c/5x5"
  bottom: "inception_4c/pool_proj"
  top: "inception_4c/output"
}
layer {
  name: "inception_4d/1x1"
  type: "Convolution"
  bottom: "inception_4c/output"
  top: "inception_4d/1x1"
  param {
    lr_mult: 1
    decay_mult: 1
  }
  param {
    lr_mult: 2
    decay_mult: 0
  }
  convolution_param {
    num_output: 112
    kernel_size: 1
    weight_filler {
      type: "xavier"
      std: 0.03
    }
    bias_filler {
      type: "constant"
      value: 0.2
    }
  }
}
layer {
  name: "inception_4d/relu_1x1"
  type: "ReLU"
  bottom: "inception_4d/1x1"
  top: "inception_4d/1x1"
}
layer {
  name: "inception_4d/3x3_reduce"
  type: "Convolution"
  bottom: "inception_4c/output"
  top: "inception_4d/3x3_reduce"
  param {
    lr_mult: 1
    decay_mult: 1
  }
  param {
    lr_mult: 2
    decay_mult: 0
  }
  convolution_param {
    num_output: 144
    kernel_size: 1
    weight_filler {
      type: "xavier"
      std: 0.09
    }
    bias_filler {
      type: "constant"
      value: 0.2
    }
  }
}
layer {
  name: "inception_4d/relu_3x3_reduce"
  type: "ReLU"
  bottom: "inception_4d/3x3_reduce"
  top: "inception_4d/3x3_reduce"
}
layer {
  name: "inception_4d/3x3"
  type: "Convolution"
  bottom: "inception_4d/3x3_reduce"
  top: "inception_4d/3x3"
  param {
    lr_mult: 1
    decay_mult: 1
  }
  param {
    lr_mult: 2
    decay_mult: 0
  }
  convolution_param {
    num_output: 288
    pad: 1
    kernel_size: 3
    weight_filler {
      type: "xavier"
      std: 0.03
    }
    bias_filler {
      type: "constant"
      value: 0.2
    }
  }
}
layer {
  name: "inception_4d/relu_3x3"
  type: "ReLU"
  bottom: "inception_4d/3x3"
  top: "inception_4d/3x3"
}
layer {
  name: "inception_4d/5x5_reduce"
  type: "Convolution"
  bottom: "inception_4c/output"
  top: "inception_4d/5x5_reduce"
  param {
    lr_mult: 1
    decay_mult: 1
  }
  param {
    lr_mult: 2
    decay_mult: 0
  }
  convolution_param {
    num_output: 32
    kernel_size: 1
    weight_filler {
      type: "xavier"
      std: 0.2
    }
    bias_filler {
      type: "constant"
      value: 0.2
    }
  }
}
layer {
  name: "inception_4d/relu_5x5_reduce"
  type: "ReLU"
  bottom: "inception_4d/5x5_reduce"
  top: "inception_4d/5x5_reduce"
}
layer {
  name: "inception_4d/5x5"
  type: "Convolution"
  bottom: "inception_4d/5x5_reduce"
  top: "inception_4d/5x5"
  param {
    lr_mult: 1
    decay_mult: 1
  }
  param {
    lr_mult: 2
    decay_mult: 0
  }
  convolution_param {
    num_output: 64
    pad: 2
    kernel_size: 5
    weight_filler {
      type: "xavier"
      std: 0.03
    }
    bias_filler {
      type: "constant"
      value: 0.2
    }
  }
}
layer {
  name: "inception_4d/relu_5x5"
  type: "ReLU"
  bottom: "inception_4d/5x5"
  top: "inception_4d/5x5"
}
layer {
  name: "inception_4d/pool"
  type: "Pooling"
  bottom: "inception_4c/output"
  top: "inception_4d/pool"
  pooling_param {
    pool: MAX
    kernel_size: 3
    stride: 1
    pad: 1
  }
}
layer {
  name: "inception_4d/pool_proj"
  type: "Convolution"
  bottom: "inception_4d/pool"
  top: "inception_4d/pool_proj"
  param {
    lr_mult: 1
    decay_mult: 1
  }
  param {
    lr_mult: 2
    decay_mult: 0
  }
  convolution_param {
    num_output: 64
    kernel_size: 1
    weight_filler {
      type: "xavier"
      std: 0.1
    }
    bias_filler {
      type: "constant"
      value: 0.2
    }
  }
}
layer {
  name: "inception_4d/relu_pool_proj"
  type: "ReLU"
  bottom: "inception_4d/pool_proj"
  top: "inception_4d/pool_proj"
}
layer {
  name: "inception_4d/output"
  type: "Concat"
  bottom: "inception_4d/1x1"
  bottom: "inception_4d/3x3"
  bottom: "inception_4d/5x5"
  bottom: "inception_4d/pool_proj"
  top: "inception_4d/output"
}
layer {
  name: "loss2/ave_pool"
  type: "Pooling"
  bottom: "inception_4d/output"
  top: "loss2/ave_pool"
  pooling_param {
    pool: AVE
    kernel_size: 5
    stride: 3
  }
}
layer {
  name: "loss2/conv"
  type: "Convolution"
  bottom: "loss2/ave_pool"
  top: "loss2/conv"
  param {
    lr_mult: 1
    decay_mult: 1
  }
  param {
    lr_mult: 2
    decay_mult: 0
  }
  convolution_param {
    num_output: 128
    kernel_size: 1
    weight_filler {
      type: "xavier"
      std: 0.08
    }
    bias_filler {
      type: "constant"
      value: 0.2
    }
  }
}
layer {
  name: "loss2/relu_conv"
  type: "ReLU"
  bottom: "loss2/conv"
  top: "loss2/conv"
}
layer {
  name: "loss2/fc"
  type: "InnerProduct"
  bottom: "loss2/conv"
  top: "loss2/fc"
  param {
    lr_mult: 1
    decay_mult: 1
  }
  param {
    lr_mult: 2
    decay_mult: 0
  }
  inner_product_param {
    num_output: 1024
    weight_filler {
      type: "xavier"
      std: 0.02
    }
    bias_filler {
      type: "constant"
      value: 0.2
    }
  }
}
layer {
  name: "loss2/relu_fc"
  type: "ReLU"
  bottom: "loss2/fc"
  top: "loss2/fc"
}
layer {
  name: "loss2/drop_fc"
  type: "Dropout"
  bottom: "loss2/fc"
  top: "loss2/fc"
  dropout_param {
    dropout_ratio: 0.7
  }
}
layer {
  name: "loss2/classifier_plantvillage"
  type: "InnerProduct"
  bottom: "loss2/fc"
  top: "loss2/classifier_plantvillage"
  param {
    lr_mult: 1
    decay_mult: 1
  }
  param {
    lr_mult: 2
    decay_mult: 0
  }
  inner_product_param {
    num_output: 38
    weight_filler {
      type: "xavier"
      std: 0.0009765625
    }
    bias_filler {
      type: "constant"
      value: 0
    }
  }
}
layer {
  name: "inception_4e/1x1"
  type: "Convolution"
  bottom: "inception_4d/output"
  top: "inception_4e/1x1"
  param {
    lr_mult: 1
    decay_mult: 1
  }
  param {
    lr_mult: 2
    decay_mult: 0
  }
  convolution_param {
    num_output: 256
    kernel_size: 1
    weight_filler {
      type: "xavier"
      std: 0.03
    }
    bias_filler {
      type: "constant"
      value: 0.2
    }
  }
}
layer {
  name: "inception_4e/relu_1x1"
  type: "ReLU"
  bottom: "inception_4e/1x1"
  top: "inception_4e/1x1"
}
layer {
  name: "inception_4e/3x3_reduce"
  type: "Convolution"
  bottom: "inception_4d/output"
  top: "inception_4e/3x3_reduce"
  param {
    lr_mult: 1
    decay_mult: 1
  }
  param {
    lr_mult: 2
    decay_mult: 0
  }
  convolution_param {
    num_output: 160
    kernel_size: 1
    weight_filler {
      type: "xavier"
      std: 0.09
    }
    bias_filler {
      type: "constant"
      value: 0.2
    }
  }
}
layer {
  name: "inception_4e/relu_3x3_reduce"
  type: "ReLU"
  bottom: "inception_4e/3x3_reduce"
  top: "inception_4e/3x3_reduce"
}
layer {
  name: "inception_4e/3x3"
  type: "Convolution"
  bottom: "inception_4e/3x3_reduce"
  top: "inception_4e/3x3"
  param {
    lr_mult: 1
    decay_mult: 1
  }
  param {
    lr_mult: 2
    decay_mult: 0
  }
  convolution_param {
    num_output: 320
    pad: 1
    kernel_size: 3
    weight_filler {
      type: "xavier"
      std: 0.03
    }
    bias_filler {
      type: "constant"
      value: 0.2
    }
  }
}
layer {
  name: "inception_4e/relu_3x3"
  type: "ReLU"
  bottom: "inception_4e/3x3"
  top: "inception_4e/3x3"
}
layer {
  name: "inception_4e/5x5_reduce"
  type: "Convolution"
  bottom: "inception_4d/output"
  top: "inception_4e/5x5_reduce"
  param {
    lr_mult: 1
    decay_mult: 1
  }
  param {
    lr_mult: 2
    decay_mult: 0
  }
  convolution_param {
    num_output: 32
    kernel_size: 1
    weight_filler {
      type: "xavier"
      std: 0.2
    }
    bias_filler {
      type: "constant"
      value: 0.2
    }
  }
}
layer {
  name: "inception_4e/relu_5x5_reduce"
  type: "ReLU"
  bottom: "inception_4e/5x5_reduce"
  top: "inception_4e/5x5_reduce"
}
layer {
  name: "inception_4e/5x5"
  type: "Convolution"
  bottom: "inception_4e/5x5_reduce"
  top: "inception_4e/
I0403 18:07:30.626826  6602 layer_factory.hpp:77] Creating layer data
I0403 18:07:30.627461  6602 net.cpp:91] Creating Layer data
I0403 18:07:30.627496  6602 net.cpp:399] data -> data
I0403 18:07:30.627549  6602 net.cpp:399] data -> label
I0403 18:07:30.627586  6602 data_transformer.cpp:25] Loading mean file from: /home/mohanty/data/final_dataset/lmdb/segmented-50-50/mean.binaryproto
I0403 18:07:30.628717  6604 db_lmdb.cpp:38] Opened lmdb /home/mohanty/data/final_dataset/lmdb/segmented-50-50/test_db
I0403 18:07:30.641212  6602 data_layer.cpp:41] output data size: 24,3,224,224
I0403 18:07:30.671213  6602 net.cpp:141] Setting up data
I0403 18:07:30.671334  6602 net.cpp:148] Top shape: 24 3 224 224 (3612672)
I0403 18:07:30.671360  6602 net.cpp:148] Top shape: 24 (24)
I0403 18:07:30.671376  6602 net.cpp:156] Memory required for data: 14450784
I0403 18:07:30.671404  6602 layer_factory.hpp:77] Creating layer label_data_1_split
I0403 18:07:30.671432  6602 net.cpp:91] Creating Layer label_data_1_split
I0403 18:07:30.671450  6602 net.cpp:425] label_data_1_split <- label
I0403 18:07:30.671483  6602 net.cpp:399] label_data_1_split -> label_data_1_split_0
I0403 18:07:30.671512  6602 net.cpp:399] label_data_1_split -> label_data_1_split_1
I0403 18:07:30.671535  6602 net.cpp:399] label_data_1_split -> label_data_1_split_2
I0403 18:07:30.671555  6602 net.cpp:399] label_data_1_split -> label_data_1_split_3
I0403 18:07:30.671576  6602 net.cpp:399] label_data_1_split -> label_data_1_split_4
I0403 18:07:30.671597  6602 net.cpp:399] label_data_1_split -> label_data_1_split_5
I0403 18:07:30.671617  6602 net.cpp:399] label_data_1_split -> label_data_1_split_6
I0403 18:07:30.671638  6602 net.cpp:399] label_data_1_split -> label_data_1_split_7
I0403 18:07:30.671658  6602 net.cpp:399] label_data_1_split -> label_data_1_split_8
I0403 18:07:30.671679  6602 net.cpp:399] label_data_1_split -> label_data_1_split_9
I0403 18:07:30.671800  6602 net.cpp:141] Setting up label_data_1_split
I0403 18:07:30.671826  6602 net.cpp:148] Top shape: 24 (24)
I0403 18:07:30.671844  6602 net.cpp:148] Top shape: 24 (24)
I0403 18:07:30.671861  6602 net.cpp:148] Top shape: 24 (24)
I0403 18:07:30.671877  6602 net.cpp:148] Top shape: 24 (24)
I0403 18:07:30.671893  6602 net.cpp:148] Top shape: 24 (24)
I0403 18:07:30.671911  6602 net.cpp:148] Top shape: 24 (24)
I0403 18:07:30.671927  6602 net.cpp:148] Top shape: 24 (24)
I0403 18:07:30.671946  6602 net.cpp:148] Top shape: 24 (24)
I0403 18:07:30.671962  6602 net.cpp:148] Top shape: 24 (24)
I0403 18:07:30.671980  6602 net.cpp:148] Top shape: 24 (24)
I0403 18:07:30.672026  6602 net.cpp:156] Memory required for data: 14451744
I0403 18:07:30.672044  6602 layer_factory.hpp:77] Creating layer conv1/7x7_s2
I0403 18:07:30.672077  6602 net.cpp:91] Creating Layer conv1/7x7_s2
I0403 18:07:30.672096  6602 net.cpp:425] conv1/7x7_s2 <- data
I0403 18:07:30.672118  6602 net.cpp:399] conv1/7x7_s2 -> conv1/7x7_s2
I0403 18:07:30.820384  6602 net.cpp:141] Setting up conv1/7x7_s2
I0403 18:07:30.820433  6602 net.cpp:148] Top shape: 24 64 112 112 (19267584)
I0403 18:07:30.820461  6602 net.cpp:156] Memory required for data: 91522080
I0403 18:07:30.820500  6602 layer_factory.hpp:77] Creating layer conv1/relu_7x7
I0403 18:07:30.820534  6602 net.cpp:91] Creating Layer conv1/relu_7x7
I0403 18:07:30.820554  6602 net.cpp:425] conv1/relu_7x7 <- conv1/7x7_s2
I0403 18:07:30.820574  6602 net.cpp:386] conv1/relu_7x7 -> conv1/7x7_s2 (in-place)
I0403 18:07:30.820858  6602 net.cpp:141] Setting up conv1/relu_7x7
I0403 18:07:30.820888  6602 net.cpp:148] Top shape: 24 64 112 112 (19267584)
I0403 18:07:30.820904  6602 net.cpp:156] Memory required for data: 168592416
I0403 18:07:30.820920  6602 layer_factory.hpp:77] Creating layer pool1/3x3_s2
I0403 18:07:30.820947  6602 net.cpp:91] Creating Layer pool1/3x3_s2
I0403 18:07:30.820966  6602 net.cpp:425] pool1/3x3_s2 <- conv1/7x7_s2
I0403 18:07:30.820986  6602 net.cpp:399] pool1/3x3_s2 -> pool1/3x3_s2
I0403 18:07:30.821061  6602 net.cpp:141] Setting up pool1/3x3_s2
I0403 18:07:30.821086  6602 net.cpp:148] Top shape: 24 64 56 56 (4816896)
I0403 18:07:30.821104  6602 net.cpp:156] Memory required for data: 187860000
I0403 18:07:30.821118  6602 layer_factory.hpp:77] Creating layer pool1/norm1
I0403 18:07:30.821143  6602 net.cpp:91] Creating Layer pool1/norm1
I0403 18:07:30.821162  6602 net.cpp:425] pool1/norm1 <- pool1/3x3_s2
I0403 18:07:30.821182  6602 net.cpp:399] pool1/norm1 -> pool1/norm1
I0403 18:07:30.821491  6602 net.cpp:141] Setting up pool1/norm1
I0403 18:07:30.821521  6602 net.cpp:148] Top shape: 24 64 56 56 (4816896)
I0403 18:07:30.821537  6602 net.cpp:156] Memory required for data: 207127584
I0403 18:07:30.821554  6602 layer_factory.hpp:77] Creating layer conv2/3x3_reduce
I0403 18:07:30.821580  6602 net.cpp:91] Creating Layer conv2/3x3_reduce
I0403 18:07:30.821599  6602 net.cpp:425] conv2/3x3_reduce <- pool1/norm1
I0403 18:07:30.821619  6602 net.cpp:399] conv2/3x3_reduce -> conv2/3x3_reduce
I0403 18:07:30.823060  6602 net.cpp:141] Setting up conv2/3x3_reduce
I0403 18:07:30.823091  6602 net.cpp:148] Top shape: 24 64 56 56 (4816896)
I0403 18:07:30.823108  6602 net.cpp:156] Memory required for data: 226395168
I0403 18:07:30.823132  6602 layer_factory.hpp:77] Creating layer conv2/relu_3x3_reduce
I0403 18:07:30.823150  6602 net.cpp:91] Creating Layer conv2/relu_3x3_reduce
I0403 18:07:30.823168  6602 net.cpp:425] conv2/relu_3x3_reduce <- conv2/3x3_reduce
I0403 18:07:30.823185  6602 net.cpp:386] conv2/relu_3x3_reduce -> conv2/3x3_reduce (in-place)
I0403 18:07:30.823454  6602 net.cpp:141] Setting up conv2/relu_3x3_reduce
I0403 18:07:30.823483  6602 net.cpp:148] Top shape: 24 64 56 56 (4816896)
I0403 18:07:30.823499  6602 net.cpp:156] Memory required for data: 245662752
I0403 18:07:30.823516  6602 layer_factory.hpp:77] Creating layer conv2/3x3
I0403 18:07:30.823540  6602 net.cpp:91] Creating Layer conv2/3x3
I0403 18:07:30.823559  6602 net.cpp:425] conv2/3x3 <- conv2/3x3_reduce
I0403 18:07:30.823577  6602 net.cpp:399] conv2/3x3 -> conv2/3x3
I0403 18:07:30.825965  6602 net.cpp:141] Setting up conv2/3x3
I0403 18:07:30.825999  6602 net.cpp:148] Top shape: 24 192 56 56 (14450688)
I0403 18:07:30.826015  6602 net.cpp:156] Memory required for data: 303465504
I0403 18:07:30.826040  6602 layer_factory.hpp:77] Creating layer conv2/relu_3x3
I0403 18:07:30.826058  6602 net.cpp:91] Creating Layer conv2/relu_3x3
I0403 18:07:30.826076  6602 net.cpp:425] conv2/relu_3x3 <- conv2/3x3
I0403 18:07:30.826094  6602 net.cpp:386] conv2/relu_3x3 -> conv2/3x3 (in-place)
I0403 18:07:30.826269  6602 net.cpp:141] Setting up conv2/relu_3x3
I0403 18:07:30.826295  6602 net.cpp:148] Top shape: 24 192 56 56 (14450688)
I0403 18:07:30.826346  6602 net.cpp:156] Memory required for data: 361268256
I0403 18:07:30.826364  6602 layer_factory.hpp:77] Creating layer conv2/norm2
I0403 18:07:30.826385  6602 net.cpp:91] Creating Layer conv2/norm2
I0403 18:07:30.826402  6602 net.cpp:425] conv2/norm2 <- conv2/3x3
I0403 18:07:30.826423  6602 net.cpp:399] conv2/norm2 -> conv2/norm2
I0403 18:07:30.826719  6602 net.cpp:141] Setting up conv2/norm2
I0403 18:07:30.826750  6602 net.cpp:148] Top shape: 24 192 56 56 (14450688)
I0403 18:07:30.826766  6602 net.cpp:156] Memory required for data: 419071008
I0403 18:07:30.826782  6602 layer_factory.hpp:77] Creating layer pool2/3x3_s2
I0403 18:07:30.826802  6602 net.cpp:91] Creating Layer pool2/3x3_s2
I0403 18:07:30.826820  6602 net.cpp:425] pool2/3x3_s2 <- conv2/norm2
I0403 18:07:30.826839  6602 net.cpp:399] pool2/3x3_s2 -> pool2/3x3_s2
I0403 18:07:30.826892  6602 net.cpp:141] Setting up pool2/3x3_s2
I0403 18:07:30.826916  6602 net.cpp:148] Top shape: 24 192 28 28 (3612672)
I0403 18:07:30.826932  6602 net.cpp:156] Memory required for data: 433521696
I0403 18:07:30.826948  6602 layer_factory.hpp:77] Creating layer pool2/3x3_s2_pool2/3x3_s2_0_split
I0403 18:07:30.826967  6602 net.cpp:91] Creating Layer pool2/3x3_s2_pool2/3x3_s2_0_split
I0403 18:07:30.826983  6602 net.cpp:425] pool2/3x3_s2_pool2/3x3_s2_0_split <- pool2/3x3_s2
I0403 18:07:30.827003  6602 net.cpp:399] pool2/3x3_s2_pool2/3x3_s2_0_split -> pool2/3x3_s2_pool2/3x3_s2_0_split_0
I0403 18:07:30.827023  6602 net.cpp:399] pool2/3x3_s2_pool2/3x3_s2_0_split -> pool2/3x3_s2_pool2/3x3_s2_0_split_1
I0403 18:07:30.827044  6602 net.cpp:399] pool2/3x3_s2_pool2/3x3_s2_0_split -> pool2/3x3_s2_pool2/3x3_s2_0_split_2
I0403 18:07:30.827064  6602 net.cpp:399] pool2/3x3_s2_pool2/3x3_s2_0_split -> pool2/3x3_s2_pool2/3x3_s2_0_split_3
I0403 18:07:30.827133  6602 net.cpp:141] Setting up pool2/3x3_s2_pool2/3x3_s2_0_split
I0403 18:07:30.827157  6602 net.cpp:148] Top shape: 24 192 28 28 (3612672)
I0403 18:07:30.827177  6602 net.cpp:148] Top shape: 24 192 28 28 (3612672)
I0403 18:07:30.827194  6602 net.cpp:148] Top shape: 24 192 28 28 (3612672)
I0403 18:07:30.827219  6602 net.cpp:148] Top shape: 24 192 28 28 (3612672)
I0403 18:07:30.827236  6602 net.cpp:156] Memory required for data: 491324448
I0403 18:07:30.827252  6602 layer_factory.hpp:77] Creating layer inception_3a/1x1
I0403 18:07:30.827275  6602 net.cpp:91] Creating Layer inception_3a/1x1
I0403 18:07:30.827291  6602 net.cpp:425] inception_3a/1x1 <- pool2/3x3_s2_pool2/3x3_s2_0_split_0
I0403 18:07:30.827312  6602 net.cpp:399] inception_3a/1x1 -> inception_3a/1x1
I0403 18:07:30.828948  6602 net.cpp:141] Setting up inception_3a/1x1
I0403 18:07:30.828984  6602 net.cpp:148] Top shape: 24 64 28 28 (1204224)
I0403 18:07:30.829001  6602 net.cpp:156] Memory required for data: 496141344
I0403 18:07:30.829023  6602 layer_factory.hpp:77] Creating layer inception_3a/relu_1x1
I0403 18:07:30.829043  6602 net.cpp:91] Creating Layer inception_3a/relu_1x1
I0403 18:07:30.829061  6602 net.cpp:425] inception_3a/relu_1x1 <- inception_3a/1x1
I0403 18:07:30.829082  6602 net.cpp:386] inception_3a/relu_1x1 -> inception_3a/1x1 (in-place)
I0403 18:07:30.829303  6602 net.cpp:141] Setting up inception_3a/relu_1x1
I0403 18:07:30.829330  6602 net.cpp:148] Top shape: 24 64 28 28 (1204224)
I0403 18:07:30.829347  6602 net.cpp:156] Memory required for data: 500958240
I0403 18:07:30.829365  6602 layer_factory.hpp:77] Creating layer inception_3a/3x3_reduce
I0403 18:07:30.829388  6602 net.cpp:91] Creating Layer inception_3a/3x3_reduce
I0403 18:07:30.829408  6602 net.cpp:425] inception_3a/3x3_reduce <- pool2/3x3_s2_pool2/3x3_s2_0_split_1
I0403 18:07:30.829432  6602 net.cpp:399] inception_3a/3x3_reduce -> inception_3a/3x3_reduce
I0403 18:07:30.831245  6602 net.cpp:141] Setting up inception_3a/3x3_reduce
I0403 18:07:30.831276  6602 net.cpp:148] Top shape: 24 96 28 28 (1806336)
I0403 18:07:30.831293  6602 net.cpp:156] Memory required for data: 508183584
I0403 18:07:30.831316  6602 layer_factory.hpp:77] Creating layer inception_3a/relu_3x3_reduce
I0403 18:07:30.831358  6602 net.cpp:91] Creating Layer inception_3a/relu_3x3_reduce
I0403 18:07:30.831378  6602 net.cpp:425] inception_3a/relu_3x3_reduce <- inception_3a/3x3_reduce
I0403 18:07:30.831398  6602 net.cpp:386] inception_3a/relu_3x3_reduce -> inception_3a/3x3_reduce (in-place)
I0403 18:07:30.831593  6602 net.cpp:141] Setting up inception_3a/relu_3x3_reduce
I0403 18:07:30.831622  6602 net.cpp:148] Top shape: 24 96 28 28 (1806336)
I0403 18:07:30.831640  6602 net.cpp:156] Memory required for data: 515408928
I0403 18:07:30.831656  6602 layer_factory.hpp:77] Creating layer inception_3a/3x3
I0403 18:07:30.831681  6602 net.cpp:91] Creating Layer inception_3a/3x3
I0403 18:07:30.831699  6602 net.cpp:425] inception_3a/3x3 <- inception_3a/3x3_reduce
I0403 18:07:30.831718  6602 net.cpp:399] inception_3a/3x3 -> inception_3a/3x3
I0403 18:07:30.833487  6602 net.cpp:141] Setting up inception_3a/3x3
I0403 18:07:30.833518  6602 net.cpp:148] Top shape: 24 128 28 28 (2408448)
I0403 18:07:30.833536  6602 net.cpp:156] Memory required for data: 525042720
I0403 18:07:30.833557  6602 layer_factory.hpp:77] Creating layer inception_3a/relu_3x3
I0403 18:07:30.833580  6602 net.cpp:91] Creating Layer inception_3a/relu_3x3
I0403 18:07:30.833597  6602 net.cpp:425] inception_3a/relu_3x3 <- inception_3a/3x3
I0403 18:07:30.833616  6602 net.cpp:386] inception_3a/relu_3x3 -> inception_3a/3x3 (in-place)
I0403 18:07:30.833904  6602 net.cpp:141] Setting up inception_3a/relu_3x3
I0403 18:07:30.833932  6602 net.cpp:148] Top shape: 24 128 28 28 (2408448)
I0403 18:07:30.833948  6602 net.cpp:156] Memory required for data: 534676512
I0403 18:07:30.833964  6602 layer_factory.hpp:77] Creating layer inception_3a/5x5_reduce
I0403 18:07:30.833988  6602 net.cpp:91] Creating Layer inception_3a/5x5_reduce
I0403 18:07:30.834007  6602 net.cpp:425] inception_3a/5x5_reduce <- pool2/3x3_s2_pool2/3x3_s2_0_split_2
I0403 18:07:30.834030  6602 net.cpp:399] inception_3a/5x5_reduce -> inception_3a/5x5_reduce
I0403 18:07:30.835068  6602 net.cpp:141] Setting up inception_3a/5x5_reduce
I0403 18:07:30.835098  6602 net.cpp:148] Top shape: 24 16 28 28 (301056)
I0403 18:07:30.835115  6602 net.cpp:156] Memory required for data: 535880736
I0403 18:07:30.835134  6602 layer_factory.hpp:77] Creating layer inception_3a/relu_5x5_reduce
I0403 18:07:30.835156  6602 net.cpp:91] Creating Layer inception_3a/relu_5x5_reduce
I0403 18:07:30.835175  6602 net.cpp:425] inception_3a/relu_5x5_reduce <- inception_3a/5x5_reduce
I0403 18:07:30.835196  6602 net.cpp:386] inception_3a/relu_5x5_reduce -> inception_3a/5x5_reduce (in-place)
I0403 18:07:30.835510  6602 net.cpp:141] Setting up inception_3a/relu_5x5_reduce
I0403 18:07:30.835538  6602 net.cpp:148] Top shape: 24 16 28 28 (301056)
I0403 18:07:30.835554  6602 net.cpp:156] Memory required for data: 537084960
I0403 18:07:30.835571  6602 layer_factory.hpp:77] Creating layer inception_3a/5x5
I0403 18:07:30.835593  6602 net.cpp:91] Creating Layer inception_3a/5x5
I0403 18:07:30.835613  6602 net.cpp:425] inception_3a/5x5 <- inception_3a/5x5_reduce
I0403 18:07:30.835635  6602 net.cpp:399] inception_3a/5x5 -> inception_3a/5x5
I0403 18:07:30.836727  6602 net.cpp:141] Setting up inception_3a/5x5
I0403 18:07:30.836756  6602 net.cpp:148] Top shape: 24 32 28 28 (602112)
I0403 18:07:30.836773  6602 net.cpp:156] Memory required for data: 539493408
I0403 18:07:30.836793  6602 layer_factory.hpp:77] Creating layer inception_3a/relu_5x5
I0403 18:07:30.836813  6602 net.cpp:91] Creating Layer inception_3a/relu_5x5
I0403 18:07:30.836832  6602 net.cpp:425] inception_3a/relu_5x5 <- inception_3a/5x5
I0403 18:07:30.836853  6602 net.cpp:386] inception_3a/relu_5x5 -> inception_3a/5x5 (in-place)
I0403 18:07:30.837038  6602 net.cpp:141] Setting up inception_3a/relu_5x5
I0403 18:07:30.837064  6602 net.cpp:148] Top shape: 24 32 28 28 (602112)
I0403 18:07:30.837080  6602 net.cpp:156] Memory required for data: 541901856
I0403 18:07:30.837097  6602 layer_factory.hpp:77] Creating layer inception_3a/pool
I0403 18:07:30.837121  6602 net.cpp:91] Creating Layer inception_3a/pool
I0403 18:07:30.837153  6602 net.cpp:425] inception_3a/pool <- pool2/3x3_s2_pool2/3x3_s2_0_split_3
I0403 18:07:30.837174  6602 net.cpp:399] inception_3a/pool -> inception_3a/pool
I0403 18:07:30.837242  6602 net.cpp:141] Setting up inception_3a/pool
I0403 18:07:30.837267  6602 net.cpp:148] Top shape: 24 192 28 28 (3612672)
I0403 18:07:30.837285  6602 net.cpp:156] Memory required for data: 556352544
I0403 18:07:30.837299  6602 layer_factory.hpp:77] Creating layer inception_3a/pool_proj
I0403 18:07:30.837323  6602 net.cpp:91] Creating Layer inception_3a/pool_proj
I0403 18:07:30.837344  6602 net.cpp:425] inception_3a/pool_proj <- inception_3a/pool
I0403 18:07:30.837368  6602 net.cpp:399] inception_3a/pool_proj -> inception_3a/pool_proj
I0403 18:07:30.838392  6602 net.cpp:141] Setting up inception_3a/pool_proj
I0403 18:07:30.838424  6602 net.cpp:148] Top shape: 24 32 28 28 (602112)
I0403 18:07:30.838441  6602 net.cpp:156] Memory required for data: 558760992
I0403 18:07:30.838464  6602 layer_factory.hpp:77] Creating layer inception_3a/relu_pool_proj
I0403 18:07:30.838486  6602 net.cpp:91] Creating Layer inception_3a/relu_pool_proj
I0403 18:07:30.838505  6602 net.cpp:425] inception_3a/relu_pool_proj <- inception_3a/pool_proj
I0403 18:07:30.838523  6602 net.cpp:386] inception_3a/relu_pool_proj -> inception_3a/pool_proj (in-place)
I0403 18:07:30.838816  6602 net.cpp:141] Setting up inception_3a/relu_pool_proj
I0403 18:07:30.838845  6602 net.cpp:148] Top shape: 24 32 28 28 (602112)
I0403 18:07:30.838861  6602 net.cpp:156] Memory required for data: 561169440
I0403 18:07:30.838877  6602 layer_factory.hpp:77] Creating layer inception_3a/output
I0403 18:07:30.838897  6602 net.cpp:91] Creating Layer inception_3a/output
I0403 18:07:30.838914  6602 net.cpp:425] inception_3a/output <- inception_3a/1x1
I0403 18:07:30.838932  6602 net.cpp:425] inception_3a/output <- inception_3a/3x3
I0403 18:07:30.838949  6602 net.cpp:425] inception_3a/output <- inception_3a/5x5
I0403 18:07:30.838968  6602 net.cpp:425] inception_3a/output <- inception_3a/pool_proj
I0403 18:07:30.838989  6602 net.cpp:399] inception_3a/output -> inception_3a/output
I0403 18:07:30.839038  6602 net.cpp:141] Setting up inception_3a/output
I0403 18:07:30.839066  6602 net.cpp:148] Top shape: 24 256 28 28 (4816896)
I0403 18:07:30.839082  6602 net.cpp:156] Memory required for data: 580437024
I0403 18:07:30.839097  6602 layer_factory.hpp:77] Creating layer inception_3a/output_inception_3a/output_0_split
I0403 18:07:30.839115  6602 net.cpp:91] Creating Layer inception_3a/output_inception_3a/output_0_split
I0403 18:07:30.839133  6602 net.cpp:425] inception_3a/output_inception_3a/output_0_split <- inception_3a/output
I0403 18:07:30.839154  6602 net.cpp:399] inception_3a/output_inception_3a/output_0_split -> inception_3a/output_inception_3a/output_0_split_0
I0403 18:07:30.839176  6602 net.cpp:399] inception_3a/output_inception_3a/output_0_split -> inception_3a/output_inception_3a/output_0_split_1
I0403 18:07:30.839200  6602 net.cpp:399] inception_3a/output_inception_3a/output_0_split -> inception_3a/output_inception_3a/output_0_split_2
I0403 18:07:30.839231  6602 net.cpp:399] inception_3a/output_inception_3a/output_0_split -> inception_3a/output_inception_3a/output_0_split_3
I0403 18:07:30.839314  6602 net.cpp:141] Setting up inception_3a/output_inception_3a/output_0_split
I0403 18:07:30.839339  6602 net.cpp:148] Top shape: 24 256 28 28 (4816896)
I0403 18:07:30.839356  6602 net.cpp:148] Top shape: 24 256 28 28 (4816896)
I0403 18:07:30.839375  6602 net.cpp:148] Top shape: 24 256 28 28 (4816896)
I0403 18:07:30.839390  6602 net.cpp:148] Top shape: 24 256 28 28 (4816896)
I0403 18:07:30.839406  6602 net.cpp:156] Memory required for data: 657507360
I0403 18:07:30.839421  6602 layer_factory.hpp:77] Creating layer inception_3b/1x1
I0403 18:07:30.839444  6602 net.cpp:91] Creating Layer inception_3b/1x1
I0403 18:07:30.839464  6602 net.cpp:425] inception_3b/1x1 <- inception_3a/output_inception_3a/output_0_split_0
I0403 18:07:30.839488  6602 net.cpp:399] inception_3b/1x1 -> inception_3b/1x1
I0403 18:07:30.840698  6602 net.cpp:141] Setting up inception_3b/1x1
I0403 18:07:30.840740  6602 net.cpp:148] Top shape: 24 128 28 28 (2408448)
I0403 18:07:30.840759  6602 net.cpp:156] Memory required for data: 667141152
I0403 18:07:30.840777  6602 layer_factory.hpp:77] Creating layer inception_3b/relu_1x1
I0403 18:07:30.840796  6602 net.cpp:91] Creating Layer inception_3b/relu_1x1
I0403 18:07:30.840813  6602 net.cpp:425] inception_3b/relu_1x1 <- inception_3b/1x1
I0403 18:07:30.840834  6602 net.cpp:386] inception_3b/relu_1x1 -> inception_3b/1x1 (in-place)
I0403 18:07:30.841022  6602 net.cpp:141] Setting up inception_3b/relu_1x1
I0403 18:07:30.841049  6602 net.cpp:148] Top shape: 24 128 28 28 (2408448)
I0403 18:07:30.841065  6602 net.cpp:156] Memory required for data: 676774944
I0403 18:07:30.841081  6602 layer_factory.hpp:77] Creating layer inception_3b/3x3_reduce
I0403 18:07:30.841105  6602 net.cpp:91] Creating Layer inception_3b/3x3_reduce
I0403 18:07:30.841123  6602 net.cpp:425] inception_3b/3x3_reduce <- inception_3a/output_inception_3a/output_0_split_1
I0403 18:07:30.841147  6602 net.cpp:399] inception_3b/3x3_reduce -> inception_3b/3x3_reduce
I0403 18:07:30.842370  6602 net.cpp:141] Setting up inception_3b/3x3_reduce
I0403 18:07:30.842402  6602 net.cpp:148] Top shape: 24 128 28 28 (2408448)
I0403 18:07:30.842419  6602 net.cpp:156] Memory required for data: 686408736
I0403 18:07:30.842440  6602 layer_factory.hpp:77] Creating layer inception_3b/relu_3x3_reduce
I0403 18:07:30.842460  6602 net.cpp:91] Creating Layer inception_3b/relu_3x3_reduce
I0403 18:07:30.842476  6602 net.cpp:425] inception_3b/relu_3x3_reduce <- inception_3b/3x3_reduce
I0403 18:07:30.842497  6602 net.cpp:386] inception_3b/relu_3x3_reduce -> inception_3b/3x3_reduce (in-place)
I0403 18:07:30.842685  6602 net.cpp:141] Setting up inception_3b/relu_3x3_reduce
I0403 18:07:30.842712  6602 net.cpp:148] Top shape: 24 128 28 28 (2408448)
I0403 18:07:30.842730  6602 net.cpp:156] Memory required for data: 696042528
I0403 18:07:30.842746  6602 layer_factory.hpp:77] Creating layer inception_3b/3x3
I0403 18:07:30.842773  6602 net.cpp:91] Creating Layer inception_3b/3x3
I0403 18:07:30.842793  6602 net.cpp:425] inception_3b/3x3 <- inception_3b/3x3_reduce
I0403 18:07:30.842813  6602 net.cpp:399] inception_3b/3x3 -> inception_3b/3x3
I0403 18:07:30.845942  6602 net.cpp:141] Setting up inception_3b/3x3
I0403 18:07:30.845971  6602 net.cpp:148] Top shape: 24 192 28 28 (3612672)
I0403 18:07:30.845988  6602 net.cpp:156] Memory required for data: 710493216
I0403 18:07:30.846009  6602 layer_factory.hpp:77] Creating layer inception_3b/relu_3x3
I0403 18:07:30.846031  6602 net.cpp:91] Creating Layer inception_3b/relu_3x3
I0403 18:07:30.846050  6602 net.cpp:425] inception_3b/relu_3x3 <- inception_3b/3x3
I0403 18:07:30.846068  6602 net.cpp:386] inception_3b/relu_3x3 -> inception_3b/3x3 (in-place)
I0403 18:07:30.846366  6602 net.cpp:141] Setting up inception_3b/relu_3x3
I0403 18:07:30.846393  6602 net.cpp:148] Top shape: 24 192 28 28 (3612672)
I0403 18:07:30.846410  6602 net.cpp:156] Memory required for data: 724943904
I0403 18:07:30.846426  6602 layer_factory.hpp:77] Creating layer inception_3b/5x5_reduce
I0403 18:07:30.846452  6602 net.cpp:91] Creating Layer inception_3b/5x5_reduce
I0403 18:07:30.846472  6602 net.cpp:425] inception_3b/5x5_reduce <- inception_3a/output_inception_3a/output_0_split_2
I0403 18:07:30.846500  6602 net.cpp:399] inception_3b/5x5_reduce -> inception_3b/5x5_reduce
I0403 18:07:30.847564  6602 net.cpp:141] Setting up inception_3b/5x5_reduce
I0403 18:07:30.847595  6602 net.cpp:148] Top shape: 24 32 28 28 (602112)
I0403 18:07:30.847611  6602 net.cpp:156] Memory required for data: 727352352
I0403 18:07:30.847632  6602 layer_factory.hpp:77] Creating layer inception_3b/relu_5x5_reduce
I0403 18:07:30.847654  6602 net.cpp:91] Creating Layer inception_3b/relu_5x5_reduce
I0403 18:07:30.847673  6602 net.cpp:425] inception_3b/relu_5x5_reduce <- inception_3b/5x5_reduce
I0403 18:07:30.847693  6602 net.cpp:386] inception_3b/relu_5x5_reduce -> inception_3b/5x5_reduce (in-place)
I0403 18:07:30.847897  6602 net.cpp:141] Setting up inception_3b/relu_5x5_reduce
I0403 18:07:30.847924  6602 net.cpp:148] Top shape: 24 32 28 28 (602112)
I0403 18:07:30.847940  6602 net.cpp:156] Memory required for data: 729760800
I0403 18:07:30.847955  6602 layer_factory.hpp:77] Creating layer inception_3b/5x5
I0403 18:07:30.847980  6602 net.cpp:91] Creating Layer inception_3b/5x5
I0403 18:07:30.847998  6602 net.cpp:425] inception_3b/5x5 <- inception_3b/5x5_reduce
I0403 18:07:30.848021  6602 net.cpp:399] inception_3b/5x5 -> inception_3b/5x5
I0403 18:07:30.850167  6602 net.cpp:141] Setting up inception_3b/5x5
I0403 18:07:30.850200  6602 net.cpp:148] Top shape: 24 96 28 28 (1806336)
I0403 18:07:30.850224  6602 net.cpp:156] Memory required for data: 736986144
I0403 18:07:30.850245  6602 layer_factory.hpp:77] Creating layer inception_3b/relu_5x5
I0403 18:07:30.850266  6602 net.cpp:91] Creating Layer inception_3b/relu_5x5
I0403 18:07:30.850283  6602 net.cpp:425] inception_3b/relu_5x5 <- inception_3b/5x5
I0403 18:07:30.850306  6602 net.cpp:386] inception_3b/relu_5x5 -> inception_3b/5x5 (in-place)
I0403 18:07:30.850517  6602 net.cpp:141] Setting up inception_3b/relu_5x5
I0403 18:07:30.850543  6602 net.cpp:148] Top shape: 24 96 28 28 (1806336)
I0403 18:07:30.850559  6602 net.cpp:156] Memory required for data: 744211488
I0403 18:07:30.850574  6602 layer_factory.hpp:77] Creating layer inception_3b/pool
I0403 18:07:30.850592  6602 net.cpp:91] Creating Layer inception_3b/pool
I0403 18:07:30.850610  6602 net.cpp:425] inception_3b/pool <- inception_3a/output_inception_3a/output_0_split_3
I0403 18:07:30.850631  6602 net.cpp:399] inception_3b/pool -> inception_3b/pool
I0403 18:07:30.850692  6602 net.cpp:141] Setting up inception_3b/pool
I0403 18:07:30.850716  6602 net.cpp:148] Top shape: 24 256 28 28 (4816896)
I0403 18:07:30.850731  6602 net.cpp:156] Memory required for data: 763479072
I0403 18:07:30.850747  6602 layer_factory.hpp:77] Creating layer inception_3b/pool_proj
I0403 18:07:30.850774  6602 net.cpp:91] Creating Layer inception_3b/pool_proj
I0403 18:07:30.850792  6602 net.cpp:425] inception_3b/pool_proj <- inception_3b/pool
I0403 18:07:30.850812  6602 net.cpp:399] inception_3b/pool_proj -> inception_3b/pool_proj
I0403 18:07:30.851948  6602 net.cpp:141] Setting up inception_3b/pool_proj
I0403 18:07:30.851976  6602 net.cpp:148] Top shape: 24 64 28 28 (1204224)
I0403 18:07:30.851994  6602 net.cpp:156] Memory required for data: 768295968
I0403 18:07:30.852015  6602 layer_factory.hpp:77] Creating layer inception_3b/relu_pool_proj
I0403 18:07:30.852036  6602 net.cpp:91] Creating Layer inception_3b/relu_pool_proj
I0403 18:07:30.852054  6602 net.cpp:425] inception_3b/relu_pool_proj <- inception_3b/pool_proj
I0403 18:07:30.852073  6602 net.cpp:386] inception_3b/relu_pool_proj -> inception_3b/pool_proj (in-place)
I0403 18:07:30.852499  6602 net.cpp:141] Setting up inception_3b/relu_pool_proj
I0403 18:07:30.852527  6602 net.cpp:148] Top shape: 24 64 28 28 (1204224)
I0403 18:07:30.852545  6602 net.cpp:156] Memory required for data: 773112864
I0403 18:07:30.852560  6602 layer_factory.hpp:77] Creating layer inception_3b/output
I0403 18:07:30.852582  6602 net.cpp:91] Creating Layer inception_3b/output
I0403 18:07:30.852601  6602 net.cpp:425] inception_3b/output <- inception_3b/1x1
I0403 18:07:30.852618  6602 net.cpp:425] inception_3b/output <- inception_3b/3x3
I0403 18:07:30.852637  6602 net.cpp:425] inception_3b/output <- inception_3b/5x5
I0403 18:07:30.852653  6602 net.cpp:425] inception_3b/output <- inception_3b/pool_proj
I0403 18:07:30.852671  6602 net.cpp:399] inception_3b/output -> inception_3b/output
I0403 18:07:30.852720  6602 net.cpp:141] Setting up inception_3b/output
I0403 18:07:30.852744  6602 net.cpp:148] Top shape: 24 480 28 28 (9031680)
I0403 18:07:30.852761  6602 net.cpp:156] Memory required for data: 809239584
I0403 18:07:30.852777  6602 layer_factory.hpp:77] Creating layer pool3/3x3_s2
I0403 18:07:30.852797  6602 net.cpp:91] Creating Layer pool3/3x3_s2
I0403 18:07:30.852813  6602 net.cpp:425] pool3/3x3_s2 <- inception_3b/output
I0403 18:07:30.852851  6602 net.cpp:399] pool3/3x3_s2 -> pool3/3x3_s2
I0403 18:07:30.852916  6602 net.cpp:141] Setting up pool3/3x3_s2
I0403 18:07:30.852943  6602 net.cpp:148] Top shape: 24 480 14 14 (2257920)
I0403 18:07:30.852960  6602 net.cpp:156] Memory required for data: 818271264
I0403 18:07:30.852977  6602 layer_factory.hpp:77] Creating layer pool3/3x3_s2_pool3/3x3_s2_0_split
I0403 18:07:30.852995  6602 net.cpp:91] Creating Layer pool3/3x3_s2_pool3/3x3_s2_0_split
I0403 18:07:30.853013  6602 net.cpp:425] pool3/3x3_s2_pool3/3x3_s2_0_split <- pool3/3x3_s2
I0403 18:07:30.853030  6602 net.cpp:399] pool3/3x3_s2_pool3/3x3_s2_0_split -> pool3/3x3_s2_pool3/3x3_s2_0_split_0
I0403 18:07:30.853050  6602 net.cpp:399] pool3/3x3_s2_pool3/3x3_s2_0_split -> pool3/3x3_s2_pool3/3x3_s2_0_split_1
I0403 18:07:30.853073  6602 net.cpp:399] pool3/3x3_s2_pool3/3x3_s2_0_split -> pool3/3x3_s2_pool3/3x3_s2_0_split_2
I0403 18:07:30.853096  6602 net.cpp:399] pool3/3x3_s2_pool3/3x3_s2_0_split -> pool3/3x3_s2_pool3/3x3_s2_0_split_3
I0403 18:07:30.853184  6602 net.cpp:141] Setting up pool3/3x3_s2_pool3/3x3_s2_0_split
I0403 18:07:30.853214  6602 net.cpp:148] Top shape: 24 480 14 14 (2257920)
I0403 18:07:30.853235  6602 net.cpp:148] Top shape: 24 480 14 14 (2257920)
I0403 18:07:30.853251  6602 net.cpp:148] Top shape: 24 480 14 14 (2257920)
I0403 18:07:30.853268  6602 net.cpp:148] Top shape: 24 480 14 14 (2257920)
I0403 18:07:30.853283  6602 net.cpp:156] Memory required for data: 854397984
I0403 18:07:30.853299  6602 layer_factory.hpp:77] Creating layer inception_4a/1x1
I0403 18:07:30.853323  6602 net.cpp:91] Creating Layer inception_4a/1x1
I0403 18:07:30.853343  6602 net.cpp:425] inception_4a/1x1 <- pool3/3x3_s2_pool3/3x3_s2_0_split_0
I0403 18:07:30.853364  6602 net.cpp:399] inception_4a/1x1 -> inception_4a/1x1
I0403 18:07:30.855032  6602 net.cpp:141] Setting up inception_4a/1x1
I0403 18:07:30.855063  6602 net.cpp:148] Top shape: 24 192 14 14 (903168)
I0403 18:07:30.855079  6602 net.cpp:156] Memory required for data: 858010656
I0403 18:07:30.855100  6602 layer_factory.hpp:77] Creating layer inception_4a/relu_1x1
I0403 18:07:30.855123  6602 net.cpp:91] Creating Layer inception_4a/relu_1x1
I0403 18:07:30.855140  6602 net.cpp:425] inception_4a/relu_1x1 <- inception_4a/1x1
I0403 18:07:30.855159  6602 net.cpp:386] inception_4a/relu_1x1 -> inception_4a/1x1 (in-place)
I0403 18:07:30.855352  6602 net.cpp:141] Setting up inception_4a/relu_1x1
I0403 18:07:30.855379  6602 net.cpp:148] Top shape: 24 192 14 14 (903168)
I0403 18:07:30.855396  6602 net.cpp:156] Memory required for data: 861623328
I0403 18:07:30.855413  6602 layer_factory.hpp:77] Creating layer inception_4a/3x3_reduce
I0403 18:07:30.855438  6602 net.cpp:91] Creating Layer inception_4a/3x3_reduce
I0403 18:07:30.855456  6602 net.cpp:425] inception_4a/3x3_reduce <- pool3/3x3_s2_pool3/3x3_s2_0_split_1
I0403 18:07:30.855479  6602 net.cpp:399] inception_4a/3x3_reduce -> inception_4a/3x3_reduce
I0403 18:07:30.856832  6602 net.cpp:141] Setting up inception_4a/3x3_reduce
I0403 18:07:30.856863  6602 net.cpp:148] Top shape: 24 96 14 14 (451584)
I0403 18:07:30.856881  6602 net.cpp:156] Memory required for data: 863429664
I0403 18:07:30.856905  6602 layer_factory.hpp:77] Creating layer inception_4a/relu_3x3_reduce
I0403 18:07:30.856928  6602 net.cpp:91] Creating Layer inception_4a/relu_3x3_reduce
I0403 18:07:30.856946  6602 net.cpp:425] inception_4a/relu_3x3_reduce <- inception_4a/3x3_reduce
I0403 18:07:30.856966  6602 net.cpp:386] inception_4a/relu_3x3_reduce -> inception_4a/3x3_reduce (in-place)
I0403 18:07:30.857151  6602 net.cpp:141] Setting up inception_4a/relu_3x3_reduce
I0403 18:07:30.857180  6602 net.cpp:148] Top shape: 24 96 14 14 (451584)
I0403 18:07:30.857197  6602 net.cpp:156] Memory required for data: 865236000
I0403 18:07:30.857219  6602 layer_factory.hpp:77] Creating layer inception_4a/3x3
I0403 18:07:30.857244  6602 net.cpp:91] Creating Layer inception_4a/3x3
I0403 18:07:30.857264  6602 net.cpp:425] inception_4a/3x3 <- inception_4a/3x3_reduce
I0403 18:07:30.857285  6602 net.cpp:399] inception_4a/3x3 -> inception_4a/3x3
I0403 18:07:30.860167  6602 net.cpp:141] Setting up inception_4a/3x3
I0403 18:07:30.860199  6602 net.cpp:148] Top shape: 24 208 14 14 (978432)
I0403 18:07:30.860224  6602 net.cpp:156] Memory required for data: 869149728
I0403 18:07:30.860244  6602 layer_factory.hpp:77] Creating layer inception_4a/relu_3x3
I0403 18:07:30.860265  6602 net.cpp:91] Creating Layer inception_4a/relu_3x3
I0403 18:07:30.860282  6602 net.cpp:425] inception_4a/relu_3x3 <- inception_4a/3x3
I0403 18:07:30.860304  6602 net.cpp:386] inception_4a/relu_3x3 -> inception_4a/3x3 (in-place)
I0403 18:07:30.860595  6602 net.cpp:141] Setting up inception_4a/relu_3x3
I0403 18:07:30.860626  6602 net.cpp:148] Top shape: 24 208 14 14 (978432)
I0403 18:07:30.860644  6602 net.cpp:156] Memory required for data: 873063456
I0403 18:07:30.860661  6602 layer_factory.hpp:77] Creating layer inception_4a/5x5_reduce
I0403 18:07:30.860687  6602 net.cpp:91] Creating Layer inception_4a/5x5_reduce
I0403 18:07:30.860707  6602 net.cpp:425] inception_4a/5x5_reduce <- pool3/3x3_s2_pool3/3x3_s2_0_split_2
I0403 18:07:30.860726  6602 net.cpp:399] inception_4a/5x5_reduce -> inception_4a/5x5_reduce
I0403 18:07:30.861817  6602 net.cpp:141] Setting up inception_4a/5x5_reduce
I0403 18:07:30.861846  6602 net.cpp:148] Top shape: 24 16 14 14 (75264)
I0403 18:07:30.861862  6602 net.cpp:156] Memory required for data: 873364512
I0403 18:07:30.861882  6602 layer_factory.hpp:77] Creating layer inception_4a/relu_5x5_reduce
I0403 18:07:30.861901  6602 net.cpp:91] Creating Layer inception_4a/relu_5x5_reduce
I0403 18:07:30.861918  6602 net.cpp:425] inception_4a/relu_5x5_reduce <- inception_4a/5x5_reduce
I0403 18:07:30.861940  6602 net.cpp:386] inception_4a/relu_5x5_reduce -> inception_4a/5x5_reduce (in-place)
I0403 18:07:30.862138  6602 net.cpp:141] Setting up inception_4a/relu_5x5_reduce
I0403 18:07:30.862165  6602 net.cpp:148] Top shape: 24 16 14 14 (75264)
I0403 18:07:30.862182  6602 net.cpp:156] Memory required for data: 873665568
I0403 18:07:30.862200  6602 layer_factory.hpp:77] Creating layer inception_4a/5x5
I0403 18:07:30.862238  6602 net.cpp:91] Creating Layer inception_4a/5x5
I0403 18:07:30.862259  6602 net.cpp:425] inception_4a/5x5 <- inception_4a/5x5_reduce
I0403 18:07:30.862282  6602 net.cpp:399] inception_4a/5x5 -> inception_4a/5x5
I0403 18:07:30.863448  6602 net.cpp:141] Setting up inception_4a/5x5
I0403 18:07:30.863477  6602 net.cpp:148] Top shape: 24 48 14 14 (225792)
I0403 18:07:30.863493  6602 net.cpp:156] Memory required for data: 874568736
I0403 18:07:30.863513  6602 layer_factory.hpp:77] Creating layer inception_4a/relu_5x5
I0403 18:07:30.863535  6602 net.cpp:91] Creating Layer inception_4a/relu_5x5
I0403 18:07:30.863554  6602 net.cpp:425] inception_4a/relu_5x5 <- inception_4a/5x5
I0403 18:07:30.863572  6602 net.cpp:386] inception_4a/relu_5x5 -> inception_4a/5x5 (in-place)
I0403 18:07:30.863766  6602 net.cpp:141] Setting up inception_4a/relu_5x5
I0403 18:07:30.863795  6602 net.cpp:148] Top shape: 24 48 14 14 (225792)
I0403 18:07:30.863812  6602 net.cpp:156] Memory required for data: 875471904
I0403 18:07:30.863827  6602 layer_factory.hpp:77] Creating layer inception_4a/pool
I0403 18:07:30.863847  6602 net.cpp:91] Creating Layer inception_4a/pool
I0403 18:07:30.863863  6602 net.cpp:425] inception_4a/pool <- pool3/3x3_s2_pool3/3x3_s2_0_split_3
I0403 18:07:30.863885  6602 net.cpp:399] inception_4a/pool -> inception_4a/pool
I0403 18:07:30.863950  6602 net.cpp:141] Setting up inception_4a/pool
I0403 18:07:30.863975  6602 net.cpp:148] Top shape: 24 480 14 14 (2257920)
I0403 18:07:30.863991  6602 net.cpp:156] Memory required for data: 884503584
I0403 18:07:30.864007  6602 layer_factory.hpp:77] Creating layer inception_4a/pool_proj
I0403 18:07:30.864032  6602 net.cpp:91] Creating Layer inception_4a/pool_proj
I0403 18:07:30.864050  6602 net.cpp:425] inception_4a/pool_proj <- inception_4a/pool
I0403 18:07:30.864073  6602 net.cpp:399] inception_4a/pool_proj -> inception_4a/pool_proj
I0403 18:07:30.865344  6602 net.cpp:141] Setting up inception_4a/pool_proj
I0403 18:07:30.865376  6602 net.cpp:148] Top shape: 24 64 14 14 (301056)
I0403 18:07:30.865412  6602 net.cpp:156] Memory required for data: 885707808
I0403 18:07:30.865433  6602 layer_factory.hpp:77] Creating layer inception_4a/relu_pool_proj
I0403 18:07:30.865453  6602 net.cpp:91] Creating Layer inception_4a/relu_pool_proj
I0403 18:07:30.865470  6602 net.cpp:425] inception_4a/relu_pool_proj <- inception_4a/pool_proj
I0403 18:07:30.865490  6602 net.cpp:386] inception_4a/relu_pool_proj -> inception_4a/pool_proj (in-place)
I0403 18:07:30.865797  6602 net.cpp:141] Setting up inception_4a/relu_pool_proj
I0403 18:07:30.865824  6602 net.cpp:148] Top shape: 24 64 14 14 (301056)
I0403 18:07:30.865844  6602 net.cpp:156] Memory required for data: 886912032
I0403 18:07:30.865859  6602 layer_factory.hpp:77] Creating layer inception_4a/output
I0403 18:07:30.865880  6602 net.cpp:91] Creating Layer inception_4a/output
I0403 18:07:30.865895  6602 net.cpp:425] inception_4a/output <- inception_4a/1x1
I0403 18:07:30.865913  6602 net.cpp:425] inception_4a/output <- inception_4a/3x3
I0403 18:07:30.865929  6602 net.cpp:425] inception_4a/output <- inception_4a/5x5
I0403 18:07:30.865947  6602 net.cpp:425] inception_4a/output <- inception_4a/pool_proj
I0403 18:07:30.865965  6602 net.cpp:399] inception_4a/output -> inception_4a/output
I0403 18:07:30.866014  6602 net.cpp:141] Setting up inception_4a/output
I0403 18:07:30.866039  6602 net.cpp:148] Top shape: 24 512 14 14 (2408448)
I0403 18:07:30.866055  6602 net.cpp:156] Memory required for data: 896545824
I0403 18:07:30.866071  6602 layer_factory.hpp:77] Creating layer inception_4a/output_inception_4a/output_0_split
I0403 18:07:30.866091  6602 net.cpp:91] Creating Layer inception_4a/output_inception_4a/output_0_split
I0403 18:07:30.866109  6602 net.cpp:425] inception_4a/output_inception_4a/output_0_split <- inception_4a/output
I0403 18:07:30.866128  6602 net.cpp:399] inception_4a/output_inception_4a/output_0_split -> inception_4a/output_inception_4a/output_0_split_0
I0403 18:07:30.866153  6602 net.cpp:399] inception_4a/output_inception_4a/output_0_split -> inception_4a/output_inception_4a/output_0_split_1
I0403 18:07:30.866175  6602 net.cpp:399] inception_4a/output_inception_4a/output_0_split -> inception_4a/output_inception_4a/output_0_split_2
I0403 18:07:30.866196  6602 net.cpp:399] inception_4a/output_inception_4a/output_0_split -> inception_4a/output_inception_4a/output_0_split_3
I0403 18:07:30.866225  6602 net.cpp:399] inception_4a/output_inception_4a/output_0_split -> inception_4a/output_inception_4a/output_0_split_4
I0403 18:07:30.866328  6602 net.cpp:141] Setting up inception_4a/output_inception_4a/output_0_split
I0403 18:07:30.866353  6602 net.cpp:148] Top shape: 24 512 14 14 (2408448)
I0403 18:07:30.866370  6602 net.cpp:148] Top shape: 24 512 14 14 (2408448)
I0403 18:07:30.866389  6602 net.cpp:148] Top shape: 24 512 14 14 (2408448)
I0403 18:07:30.866405  6602 net.cpp:148] Top shape: 24 512 14 14 (2408448)
I0403 18:07:30.866421  6602 net.cpp:148] Top shape: 24 512 14 14 (2408448)
I0403 18:07:30.866436  6602 net.cpp:156] Memory required for data: 944714784
I0403 18:07:30.866452  6602 layer_factory.hpp:77] Creating layer loss1/ave_pool
I0403 18:07:30.866472  6602 net.cpp:91] Creating Layer loss1/ave_pool
I0403 18:07:30.866489  6602 net.cpp:425] loss1/ave_pool <- inception_4a/output_inception_4a/output_0_split_0
I0403 18:07:30.866513  6602 net.cpp:399] loss1/ave_pool -> loss1/ave_pool
I0403 18:07:30.866739  6602 net.cpp:141] Setting up loss1/ave_pool
I0403 18:07:30.866770  6602 net.cpp:148] Top shape: 24 512 4 4 (196608)
I0403 18:07:30.866786  6602 net.cpp:156] Memory required for data: 945501216
I0403 18:07:30.866802  6602 layer_factory.hpp:77] Creating layer loss1/conv
I0403 18:07:30.866823  6602 net.cpp:91] Creating Layer loss1/conv
I0403 18:07:30.866842  6602 net.cpp:425] loss1/conv <- loss1/ave_pool
I0403 18:07:30.866863  6602 net.cpp:399] loss1/conv -> loss1/conv
I0403 18:07:30.868396  6602 net.cpp:141] Setting up loss1/conv
I0403 18:07:30.868427  6602 net.cpp:148] Top shape: 24 128 4 4 (49152)
I0403 18:07:30.868460  6602 net.cpp:156] Memory required for data: 945697824
I0403 18:07:30.868482  6602 layer_factory.hpp:77] Creating layer loss1/relu_conv
I0403 18:07:30.868502  6602 net.cpp:91] Creating Layer loss1/relu_conv
I0403 18:07:30.868520  6602 net.cpp:425] loss1/relu_conv <- loss1/conv
I0403 18:07:30.868540  6602 net.cpp:386] loss1/relu_conv -> loss1/conv (in-place)
I0403 18:07:30.868839  6602 net.cpp:141] Setting up loss1/relu_conv
I0403 18:07:30.868875  6602 net.cpp:148] Top shape: 24 128 4 4 (49152)
I0403 18:07:30.868892  6602 net.cpp:156] Memory required for data: 945894432
I0403 18:07:30.868908  6602 layer_factory.hpp:77] Creating layer loss1/fc
I0403 18:07:30.868933  6602 net.cpp:91] Creating Layer loss1/fc
I0403 18:07:30.868953  6602 net.cpp:425] loss1/fc <- loss1/conv
I0403 18:07:30.868978  6602 net.cpp:399] loss1/fc -> loss1/fc
I0403 18:07:30.888010  6602 net.cpp:141] Setting up loss1/fc
I0403 18:07:30.888053  6602 net.cpp:148] Top shape: 24 1024 (24576)
I0403 18:07:30.888069  6602 net.cpp:156] Memory required for data: 945992736
I0403 18:07:30.888088  6602 layer_factory.hpp:77] Creating layer loss1/relu_fc
I0403 18:07:30.888109  6602 net.cpp:91] Creating Layer loss1/relu_fc
I0403 18:07:30.888128  6602 net.cpp:425] loss1/relu_fc <- loss1/fc
I0403 18:07:30.888145  6602 net.cpp:386] loss1/relu_fc -> loss1/fc (in-place)
I0403 18:07:30.888346  6602 net.cpp:141] Setting up loss1/relu_fc
I0403 18:07:30.888375  6602 net.cpp:148] Top shape: 24 1024 (24576)
I0403 18:07:30.888391  6602 net.cpp:156] Memory required for data: 946091040
I0403 18:07:30.888406  6602 layer_factory.hpp:77] Creating layer loss1/drop_fc
I0403 18:07:30.888435  6602 net.cpp:91] Creating Layer loss1/drop_fc
I0403 18:07:30.888453  6602 net.cpp:425] loss1/drop_fc <- loss1/fc
I0403 18:07:30.888473  6602 net.cpp:386] loss1/drop_fc -> loss1/fc (in-place)
I0403 18:07:30.888540  6602 net.cpp:141] Setting up loss1/drop_fc
I0403 18:07:30.888566  6602 net.cpp:148] Top shape: 24 1024 (24576)
I0403 18:07:30.888581  6602 net.cpp:156] Memory required for data: 946189344
I0403 18:07:30.888598  6602 layer_factory.hpp:77] Creating layer loss1/classifier_plantvillage
I0403 18:07:30.888623  6602 net.cpp:91] Creating Layer loss1/classifier_plantvillage
I0403 18:07:30.888643  6602 net.cpp:425] loss1/classifier_plantvillage <- loss1/fc
I0403 18:07:30.888661  6602 net.cpp:399] loss1/classifier_plantvillage -> loss1/classifier_plantvillage
I0403 18:07:30.889632  6602 net.cpp:141] Setting up loss1/classifier_plantvillage
I0403 18:07:30.889665  6602 net.cpp:148] Top shape: 24 38 (912)
I0403 18:07:30.889683  6602 net.cpp:156] Memory required for data: 946192992
I0403 18:07:30.889701  6602 layer_factory.hpp:77] Creating layer loss1/classifier_plantvillage_loss1/classifier_plantvillage_0_split
I0403 18:07:30.889720  6602 net.cpp:91] Creating Layer loss1/classifier_plantvillage_loss1/classifier_plantvillage_0_split
I0403 18:07:30.889736  6602 net.cpp:425] loss1/classifier_plantvillage_loss1/classifier_plantvillage_0_split <- loss1/classifier_plantvillage
I0403 18:07:30.889755  6602 net.cpp:399] loss1/classifier_plantvillage_loss1/classifier_plantvillage_0_split -> loss1/classifier_plantvillage_loss1/classifier_plantvillage_0_split_0
I0403 18:07:30.889781  6602 net.cpp:399] loss1/classifier_plantvillage_loss1/classifier_plantvillage_0_split -> loss1/classifier_plantvillage_loss1/classifier_plantvillage_0_split_1
I0403 18:07:30.889803  6602 net.cpp:399] loss1/classifier_plantvillage_loss1/classifier_plantvillage_0_split -> loss1/classifier_plantvillage_loss1/classifier_plantvillage_0_split_2
I0403 18:07:30.889873  6602 net.cpp:141] Setting up loss1/classifier_plantvillage_loss1/classifier_plantvillage_0_split
I0403 18:07:30.889909  6602 net.cpp:148] Top shape: 24 38 (912)
I0403 18:07:30.889926  6602 net.cpp:148] Top shape: 24 38 (912)
I0403 18:07:30.889943  6602 net.cpp:148] Top shape: 24 38 (912)
I0403 18:07:30.889957  6602 net.cpp:156] Memory required for data: 946203936
I0403 18:07:30.889972  6602 layer_factory.hpp:77] Creating layer inception_4b/1x1
I0403 18:07:30.889997  6602 net.cpp:91] Creating Layer inception_4b/1x1
I0403 18:07:30.890033  6602 net.cpp:425] inception_4b/1x1 <- inception_4a/output_inception_4a/output_0_split_1
I0403 18:07:30.890054  6602 net.cpp:399] inception_4b/1x1 -> inception_4b/1x1
I0403 18:07:30.891849  6602 net.cpp:141] Setting up inception_4b/1x1
I0403 18:07:30.891880  6602 net.cpp:148] Top shape: 24 160 14 14 (752640)
I0403 18:07:30.891897  6602 net.cpp:156] Memory required for data: 949214496
I0403 18:07:30.891918  6602 layer_factory.hpp:77] Creating layer inception_4b/relu_1x1
I0403 18:07:30.891937  6602 net.cpp:91] Creating Layer inception_4b/relu_1x1
I0403 18:07:30.891953  6602 net.cpp:425] inception_4b/relu_1x1 <- inception_4b/1x1
I0403 18:07:30.891973  6602 net.cpp:386] inception_4b/relu_1x1 -> inception_4b/1x1 (in-place)
I0403 18:07:30.892160  6602 net.cpp:141] Setting up inception_4b/relu_1x1
I0403 18:07:30.892186  6602 net.cpp:148] Top shape: 24 160 14 14 (752640)
I0403 18:07:30.892201  6602 net.cpp:156] Memory required for data: 952225056
I0403 18:07:30.892228  6602 layer_factory.hpp:77] Creating layer inception_4b/3x3_reduce
I0403 18:07:30.892256  6602 net.cpp:91] Creating Layer inception_4b/3x3_reduce
I0403 18:07:30.892274  6602 net.cpp:425] inception_4b/3x3_reduce <- inception_4a/output_inception_4a/output_0_split_2
I0403 18:07:30.892297  6602 net.cpp:399] inception_4b/3x3_reduce -> inception_4b/3x3_reduce
I0403 18:07:30.893702  6602 net.cpp:141] Setting up inception_4b/3x3_reduce
I0403 18:07:30.893729  6602 net.cpp:148] Top shape: 24 112 14 14 (526848)
I0403 18:07:30.893745  6602 net.cpp:156] Memory required for data: 954332448
I0403 18:07:30.893765  6602 layer_factory.hpp:77] Creating layer inception_4b/relu_3x3_reduce
I0403 18:07:30.893786  6602 net.cpp:91] Creating Layer inception_4b/relu_3x3_reduce
I0403 18:07:30.893803  6602 net.cpp:425] inception_4b/relu_3x3_reduce <- inception_4b/3x3_reduce
I0403 18:07:30.893821  6602 net.cpp:386] inception_4b/relu_3x3_reduce -> inception_4b/3x3_reduce (in-place)
I0403 18:07:30.894111  6602 net.cpp:141] Setting up inception_4b/relu_3x3_reduce
I0403 18:07:30.894139  6602 net.cpp:148] Top shape: 24 112 14 14 (526848)
I0403 18:07:30.894153  6602 net.cpp:156] Memory required for data: 956439840
I0403 18:07:30.894168  6602 layer_factory.hpp:77] Creating layer inception_4b/3x3
I0403 18:07:30.894193  6602 net.cpp:91] Creating Layer inception_4b/3x3
I0403 18:07:30.894217  6602 net.cpp:425] inception_4b/3x3 <- inception_4b/3x3_reduce
I0403 18:07:30.894240  6602 net.cpp:399] inception_4b/3x3 -> inception_4b/3x3
I0403 18:07:30.897341  6602 net.cpp:141] Setting up inception_4b/3x3
I0403 18:07:30.897370  6602 net.cpp:148] Top shape: 24 224 14 14 (1053696)
I0403 18:07:30.897387  6602 net.cpp:156] Memory required for data: 960654624
I0403 18:07:30.897405  6602 layer_factory.hpp:77] Creating layer inception_4b/relu_3x3
I0403 18:07:30.897429  6602 net.cpp:91] Creating Layer inception_4b/relu_3x3
I0403 18:07:30.897447  6602 net.cpp:425] inception_4b/relu_3x3 <- inception_4b/3x3
I0403 18:07:30.897465  6602 net.cpp:386] inception_4b/relu_3x3 -> inception_4b/3x3 (in-place)
I0403 18:07:30.897655  6602 net.cpp:141] Setting up inception_4b/relu_3x3
I0403 18:07:30.897680  6602 net.cpp:148] Top shape: 24 224 14 14 (1053696)
I0403 18:07:30.897697  6602 net.cpp:156] Memory required for data: 964869408
I0403 18:07:30.897712  6602 layer_factory.hpp:77] Creating layer inception_4b/5x5_reduce
I0403 18:07:30.897737  6602 net.cpp:91] Creating Layer inception_4b/5x5_reduce
I0403 18:07:30.897755  6602 net.cpp:425] inception_4b/5x5_reduce <- inception_4a/output_inception_4a/output_0_split_3
I0403 18:07:30.897778  6602 net.cpp:399] inception_4b/5x5_reduce -> inception_4b/5x5_reduce
I0403 18:07:30.898913  6602 net.cpp:141] Setting up inception_4b/5x5_reduce
I0403 18:07:30.898942  6602 net.cpp:148] Top shape: 24 24 14 14 (112896)
I0403 18:07:30.898958  6602 net.cpp:156] Memory required for data: 965320992
I0403 18:07:30.898979  6602 layer_factory.hpp:77] Creating layer inception_4b/relu_5x5_reduce
I0403 18:07:30.898999  6602 net.cpp:91] Creating Layer inception_4b/relu_5x5_reduce
I0403 18:07:30.899031  6602 net.cpp:425] inception_4b/relu_5x5_reduce <- inception_4b/5x5_reduce
I0403 18:07:30.899055  6602 net.cpp:386] inception_4b/relu_5x5_reduce -> inception_4b/5x5_reduce (in-place)
I0403 18:07:30.899253  6602 net.cpp:141] Setting up inception_4b/relu_5x5_reduce
I0403 18:07:30.899279  6602 net.cpp:148] Top shape: 24 24 14 14 (112896)
I0403 18:07:30.899296  6602 net.cpp:156] Memory required for data: 965772576
I0403 18:07:30.899312  6602 layer_factory.hpp:77] Creating layer inception_4b/5x5
I0403 18:07:30.899334  6602 net.cpp:91] Creating Layer inception_4b/5x5
I0403 18:07:30.899353  6602 net.cpp:425] inception_4b/5x5 <- inception_4b/5x5_reduce
I0403 18:07:30.899375  6602 net.cpp:399] inception_4b/5x5 -> inception_4b/5x5
I0403 18:07:30.900676  6602 net.cpp:141] Setting up inception_4b/5x5
I0403 18:07:30.900707  6602 net.cpp:148] Top shape: 24 64 14 14 (301056)
I0403 18:07:30.900725  6602 net.cpp:156] Memory required for data: 966976800
I0403 18:07:30.900745  6602 layer_factory.hpp:77] Creating layer inception_4b/relu_5x5
I0403 18:07:30.900764  6602 net.cpp:91] Creating Layer inception_4b/relu_5x5
I0403 18:07:30.900780  6602 net.cpp:425] inception_4b/relu_5x5 <- inception_4b/5x5
I0403 18:07:30.900801  6602 net.cpp:386] inception_4b/relu_5x5 -> inception_4b/5x5 (in-place)
I0403 18:07:30.901093  6602 net.cpp:141] Setting up inception_4b/relu_5x5
I0403 18:07:30.901121  6602 net.cpp:148] Top shape: 24 64 14 14 (301056)
I0403 18:07:30.901137  6602 net.cpp:156] Memory required for data: 968181024
I0403 18:07:30.901154  6602 layer_factory.hpp:77] Creating layer inception_4b/pool
I0403 18:07:30.901173  6602 net.cpp:91] Creating Layer inception_4b/pool
I0403 18:07:30.901190  6602 net.cpp:425] inception_4b/pool <- inception_4a/output_inception_4a/output_0_split_4
I0403 18:07:30.901216  6602 net.cpp:399] inception_4b/pool -> inception_4b/pool
I0403 18:07:30.901283  6602 net.cpp:141] Setting up inception_4b/pool
I0403 18:07:30.901310  6602 net.cpp:148] Top shape: 24 512 14 14 (2408448)
I0403 18:07:30.901326  6602 net.cpp:156] Memory required for data: 977814816
I0403 18:07:30.901342  6602 layer_factory.hpp:77] Creating layer inception_4b/pool_proj
I0403 18:07:30.901365  6602 net.cpp:91] Creating Layer inception_4b/pool_proj
I0403 18:07:30.901383  6602 net.cpp:425] inception_4b/pool_proj <- inception_4b/pool
I0403 18:07:30.901403  6602 net.cpp:399] inception_4b/pool_proj -> inception_4b/pool_proj
I0403 18:07:30.902662  6602 net.cpp:141] Setting up inception_4b/pool_proj
I0403 18:07:30.902691  6602 net.cpp:148] Top shape: 24 64 14 14 (301056)
I0403 18:07:30.902709  6602 net.cpp:156] Memory required for data: 979019040
I0403 18:07:30.902729  6602 layer_factory.hpp:77] Creating layer inception_4b/relu_pool_proj
I0403 18:07:30.902750  6602 net.cpp:91] Creating Layer inception_4b/relu_pool_proj
I0403 18:07:30.902766  6602 net.cpp:425] inception_4b/relu_pool_proj <- inception_4b/pool_proj
I0403 18:07:30.902784  6602 net.cpp:386] inception_4b/relu_pool_proj -> inception_4b/pool_proj (in-place)
I0403 18:07:30.902990  6602 net.cpp:141] Setting up inception_4b/relu_pool_proj
I0403 18:07:30.903017  6602 net.cpp:148] Top shape: 24 64 14 14 (301056)
I0403 18:07:30.903033  6602 net.cpp:156] Memory required for data: 980223264
I0403 18:07:30.903048  6602 layer_factory.hpp:77] Creating layer inception_4b/output
I0403 18:07:30.903070  6602 net.cpp:91] Creating Layer inception_4b/output
I0403 18:07:30.903090  6602 net.cpp:425] inception_4b/output <- inception_4b/1x1
I0403 18:07:30.903108  6602 net.cpp:425] inception_4b/output <- inception_4b/3x3
I0403 18:07:30.903125  6602 net.cpp:425] inception_4b/output <- inception_4b/5x5
I0403 18:07:30.903141  6602 net.cpp:425] inception_4b/output <- inception_4b/pool_proj
I0403 18:07:30.903159  6602 net.cpp:399] inception_4b/output -> inception_4b/output
I0403 18:07:30.903228  6602 net.cpp:141] Setting up inception_4b/output
I0403 18:07:30.903252  6602 net.cpp:148] Top shape: 24 512 14 14 (2408448)
I0403 18:07:30.903270  6602 net.cpp:156] Memory required for data: 989857056
I0403 18:07:30.903300  6602 layer_factory.hpp:77] Creating layer inception_4b/output_inception_4b/output_0_split
I0403 18:07:30.903318  6602 net.cpp:91] Creating Layer inception_4b/output_inception_4b/output_0_split
I0403 18:07:30.903334  6602 net.cpp:425] inception_4b/output_inception_4b/output_0_split <- inception_4b/output
I0403 18:07:30.903355  6602 net.cpp:399] inception_4b/output_inception_4b/output_0_split -> inception_4b/output_inception_4b/output_0_split_0
I0403 18:07:30.903378  6602 net.cpp:399] inception_4b/output_inception_4b/output_0_split -> inception_4b/output_inception_4b/output_0_split_1
I0403 18:07:30.903399  6602 net.cpp:399] inception_4b/output_inception_4b/output_0_split -> inception_4b/output_inception_4b/output_0_split_2
I0403 18:07:30.903420  6602 net.cpp:399] inception_4b/output_inception_4b/output_0_split -> inception_4b/output_inception_4b/output_0_split_3
I0403 18:07:30.903507  6602 net.cpp:141] Setting up inception_4b/output_inception_4b/output_0_split
I0403 18:07:30.903534  6602 net.cpp:148] Top shape: 24 512 14 14 (2408448)
I0403 18:07:30.903553  6602 net.cpp:148] Top shape: 24 512 14 14 (2408448)
I0403 18:07:30.903570  6602 net.cpp:148] Top shape: 24 512 14 14 (2408448)
I0403 18:07:30.903587  6602 net.cpp:148] Top shape: 24 512 14 14 (2408448)
I0403 18:07:30.903601  6602 net.cpp:156] Memory required for data: 1028392224
I0403 18:07:30.903617  6602 layer_factory.hpp:77] Creating layer inception_4c/1x1
I0403 18:07:30.903640  6602 net.cpp:91] Creating Layer inception_4c/1x1
I0403 18:07:30.903659  6602 net.cpp:425] inception_4c/1x1 <- inception_4b/output_inception_4b/output_0_split_0
I0403 18:07:30.903679  6602 net.cpp:399] inception_4c/1x1 -> inception_4c/1x1
I0403 18:07:30.905165  6602 net.cpp:141] Setting up inception_4c/1x1
I0403 18:07:30.905195  6602 net.cpp:148] Top shape: 24 128 14 14 (602112)
I0403 18:07:30.905216  6602 net.cpp:156] Memory required for data: 1030800672
I0403 18:07:30.905237  6602 layer_factory.hpp:77] Creating layer inception_4c/relu_1x1
I0403 18:07:30.905259  6602 net.cpp:91] Creating Layer inception_4c/relu_1x1
I0403 18:07:30.905279  6602 net.cpp:425] inception_4c/relu_1x1 <- inception_4c/1x1
I0403 18:07:30.905299  6602 net.cpp:386] inception_4c/relu_1x1 -> inception_4c/1x1 (in-place)
I0403 18:07:30.905488  6602 net.cpp:141] Setting up inception_4c/relu_1x1
I0403 18:07:30.905515  6602 net.cpp:148] Top shape: 24 128 14 14 (602112)
I0403 18:07:30.905531  6602 net.cpp:156] Memory required for data: 1033209120
I0403 18:07:30.905547  6602 layer_factory.hpp:77] Creating layer inception_4c/3x3_reduce
I0403 18:07:30.905572  6602 net.cpp:91] Creating Layer inception_4c/3x3_reduce
I0403 18:07:30.905591  6602 net.cpp:425] inception_4c/3x3_reduce <- inception_4b/output_inception_4b/output_0_split_1
I0403 18:07:30.905612  6602 net.cpp:399] inception_4c/3x3_reduce -> inception_4c/3x3_reduce
I0403 18:07:30.907623  6602 net.cpp:141] Setting up inception_4c/3x3_reduce
I0403 18:07:30.907651  6602 net.cpp:148] Top shape: 24 128 14 14 (602112)
I0403 18:07:30.907668  6602 net.cpp:156] Memory required for data: 1035617568
I0403 18:07:30.907688  6602 layer_factory.hpp:77] Creating layer inception_4c/relu_3x3_reduce
I0403 18:07:30.907707  6602 net.cpp:91] Creating Layer inception_4c/relu_3x3_reduce
I0403 18:07:30.907724  6602 net.cpp:425] inception_4c/relu_3x3_reduce <- inception_4c/3x3_reduce
I0403 18:07:30.907745  6602 net.cpp:386] inception_4c/relu_3x3_reduce -> inception_4c/3x3_reduce (in-place)
I0403 18:07:30.908040  6602 net.cpp:141] Setting up inception_4c/relu_3x3_reduce
I0403 18:07:30.908068  6602 net.cpp:148] Top shape: 24 128 14 14 (602112)
I0403 18:07:30.908083  6602 net.cpp:156] Memory required for data: 1038026016
I0403 18:07:30.908099  6602 layer_factory.hpp:77] Creating layer inception_4c/3x3
I0403 18:07:30.908123  6602 net.cpp:91] Creating Layer inception_4c/3x3
I0403 18:07:30.908143  6602 net.cpp:425] inception_4c/3x3 <- inception_4c/3x3_reduce
I0403 18:07:30.908166  6602 net.cpp:399] inception_4c/3x3 -> inception_4c/3x3
I0403 18:07:30.912012  6602 net.cpp:141] Setting up inception_4c/3x3
I0403 18:07:30.912057  6602 net.cpp:148] Top shape: 24 256 14 14 (1204224)
I0403 18:07:30.912076  6602 net.cpp:156] Memory required for data: 1042842912
I0403 18:07:30.912111  6602 layer_factory.hpp:77] Creating layer inception_4c/relu_3x3
I0403 18:07:30.912132  6602 net.cpp:91] Creating Layer inception_4c/relu_3x3
I0403 18:07:30.912153  6602 net.cpp:425] inception_4c/relu_3x3 <- inception_4c/3x3
I0403 18:07:30.912173  6602 net.cpp:386] inception_4c/relu_3x3 -> inception_4c/3x3 (in-place)
I0403 18:07:30.912384  6602 net.cpp:141] Setting up inception_4c/relu_3x3
I0403 18:07:30.912411  6602 net.cpp:148] Top shape: 24 256 14 14 (1204224)
I0403 18:07:30.912427  6602 net.cpp:156] Memory required for data: 1047659808
I0403 18:07:30.912443  6602 layer_factory.hpp:77] Creating layer inception_4c/5x5_reduce
I0403 18:07:30.912468  6602 net.cpp:91] Creating Layer inception_4c/5x5_reduce
I0403 18:07:30.912489  6602 net.cpp:425] inception_4c/5x5_reduce <- inception_4b/output_inception_4b/output_0_split_2
I0403 18:07:30.912513  6602 net.cpp:399] inception_4c/5x5_reduce -> inception_4c/5x5_reduce
I0403 18:07:30.913696  6602 net.cpp:141] Setting up inception_4c/5x5_reduce
I0403 18:07:30.913725  6602 net.cpp:148] Top shape: 24 24 14 14 (112896)
I0403 18:07:30.913743  6602 net.cpp:156] Memory required for data: 1048111392
I0403 18:07:30.913763  6602 layer_factory.hpp:77] Creating layer inception_4c/relu_5x5_reduce
I0403 18:07:30.913784  6602 net.cpp:91] Creating Layer inception_4c/relu_5x5_reduce
I0403 18:07:30.913800  6602 net.cpp:425] inception_4c/relu_5x5_reduce <- inception_4c/5x5_reduce
I0403 18:07:30.913821  6602 net.cpp:386] inception_4c/relu_5x5_reduce -> inception_4c/5x5_reduce (in-place)
I0403 18:07:30.914022  6602 net.cpp:141] Setting up inception_4c/relu_5x5_reduce
I0403 18:07:30.914050  6602 net.cpp:148] Top shape: 24 24 14 14 (112896)
I0403 18:07:30.914068  6602 net.cpp:156] Memory required for data: 1048562976
I0403 18:07:30.914085  6602 layer_factory.hpp:77] Creating layer inception_4c/5x5
I0403 18:07:30.914109  6602 net.cpp:91] Creating Layer inception_4c/5x5
I0403 18:07:30.914127  6602 net.cpp:425] inception_4c/5x5 <- inception_4c/5x5_reduce
I0403 18:07:30.914150  6602 net.cpp:399] inception_4c/5x5 -> inception_4c/5x5
I0403 18:07:30.915494  6602 net.cpp:141] Setting up inception_4c/5x5
I0403 18:07:30.915524  6602 net.cpp:148] Top shape: 24 64 14 14 (301056)
I0403 18:07:30.915539  6602 net.cpp:156] Memory required for data: 1049767200
I0403 18:07:30.915560  6602 layer_factory.hpp:77] Creating layer inception_4c/relu_5x5
I0403 18:07:30.915581  6602 net.cpp:91] Creating Layer inception_4c/relu_5x5
I0403 18:07:30.915601  6602 net.cpp:425] inception_4c/relu_5x5 <- inception_4c/5x5
I0403 18:07:30.915619  6602 net.cpp:386] inception_4c/relu_5x5 -> inception_4c/5x5 (in-place)
I0403 18:07:30.915926  6602 net.cpp:141] Setting up inception_4c/relu_5x5
I0403 18:07:30.915956  6602 net.cpp:148] Top shape: 24 64 14 14 (301056)
I0403 18:07:30.915973  6602 net.cpp:156] Memory required for data: 1050971424
I0403 18:07:30.915990  6602 layer_factory.hpp:77] Creating layer inception_4c/pool
I0403 18:07:30.916013  6602 net.cpp:91] Creating Layer inception_4c/pool
I0403 18:07:30.916030  6602 net.cpp:425] inception_4c/pool <- inception_4b/output_inception_4b/output_0_split_3
I0403 18:07:30.916049  6602 net.cpp:399] inception_4c/pool -> inception_4c/pool
I0403 18:07:30.916121  6602 net.cpp:141] Setting up inception_4c/pool
I0403 18:07:30.916147  6602 net.cpp:148] Top shape: 24 512 14 14 (2408448)
I0403 18:07:30.916167  6602 net.cpp:156] Memory required for data: 1060605216
I0403 18:07:30.916183  6602 layer_factory.hpp:77] Creating layer inception_4c/pool_proj
I0403 18:07:30.916208  6602 net.cpp:91] Creating Layer inception_4c/pool_proj
I0403 18:07:30.916232  6602 net.cpp:425] inception_4c/pool_proj <- inception_4c/pool
I0403 18:07:30.916256  6602 net.cpp:399] inception_4c/pool_proj -> inception_4c/pool_proj
I0403 18:07:30.917574  6602 net.cpp:141] Setting up inception_4c/pool_proj
I0403 18:07:30.917604  6602 net.cpp:148] Top shape: 24 64 14 14 (301056)
I0403 18:07:30.917636  6602 net.cpp:156] Memory required for data: 1061809440
I0403 18:07:30.917659  6602 layer_factory.hpp:77] Creating layer inception_4c/relu_pool_proj
I0403 18:07:30.917680  6602 net.cpp:91] Creating Layer inception_4c/relu_pool_proj
I0403 18:07:30.917701  6602 net.cpp:425] inception_4c/relu_pool_proj <- inception_4c/pool_proj
I0403 18:07:30.917721  6602 net.cpp:386] inception_4c/relu_pool_proj -> inception_4c/pool_proj (in-place)
I0403 18:07:30.917915  6602 net.cpp:141] Setting up inception_4c/relu_pool_proj
I0403 18:07:30.917943  6602 net.cpp:148] Top shape: 24 64 14 14 (301056)
I0403 18:07:30.917959  6602 net.cpp:156] Memory required for data: 1063013664
I0403 18:07:30.917974  6602 layer_factory.hpp:77] Creating layer inception_4c/output
I0403 18:07:30.917994  6602 net.cpp:91] Creating Layer inception_4c/output
I0403 18:07:30.918012  6602 net.cpp:425] inception_4c/output <- inception_4c/1x1
I0403 18:07:30.918030  6602 net.cpp:425] inception_4c/output <- inception_4c/3x3
I0403 18:07:30.918047  6602 net.cpp:425] inception_4c/output <- inception_4c/5x5
I0403 18:07:30.918066  6602 net.cpp:425] inception_4c/output <- inception_4c/pool_proj
I0403 18:07:30.918083  6602 net.cpp:399] inception_4c/output -> inception_4c/output
I0403 18:07:30.918135  6602 net.cpp:141] Setting up inception_4c/output
I0403 18:07:30.918160  6602 net.cpp:148] Top shape: 24 512 14 14 (2408448)
I0403 18:07:30.918175  6602 net.cpp:156] Memory required for data: 1072647456
I0403 18:07:30.918191  6602 layer_factory.hpp:77] Creating layer inception_4c/output_inception_4c/output_0_split
I0403 18:07:30.918215  6602 net.cpp:91] Creating Layer inception_4c/output_inception_4c/output_0_split
I0403 18:07:30.918233  6602 net.cpp:425] inception_4c/output_inception_4c/output_0_split <- inception_4c/output
I0403 18:07:30.918254  6602 net.cpp:399] inception_4c/output_inception_4c/output_0_split -> inception_4c/output_inception_4c/output_0_split_0
I0403 18:07:30.918279  6602 net.cpp:399] inception_4c/output_inception_4c/output_0_split -> inception_4c/output_inception_4c/output_0_split_1
I0403 18:07:30.918303  6602 net.cpp:399] inception_4c/output_inception_4c/output_0_split -> inception_4c/output_inception_4c/output_0_split_2
I0403 18:07:30.918323  6602 net.cpp:399] inception_4c/output_inception_4c/output_0_split -> inception_4c/output_inception_4c/output_0_split_3
I0403 18:07:30.918419  6602 net.cpp:141] Setting up inception_4c/output_inception_4c/output_0_split
I0403 18:07:30.918447  6602 net.cpp:148] Top shape: 24 512 14 14 (2408448)
I0403 18:07:30.918465  6602 net.cpp:148] Top shape: 24 512 14 14 (2408448)
I0403 18:07:30.918483  6602 net.cpp:148] Top shape: 24 512 14 14 (2408448)
I0403 18:07:30.918500  6602 net.cpp:148] Top shape: 24 512 14 14 (2408448)
I0403 18:07:30.918514  6602 net.cpp:156] Memory required for data: 1111182624
I0403 18:07:30.918530  6602 layer_factory.hpp:77] Creating layer inception_4d/1x1
I0403 18:07:30.918555  6602 net.cpp:91] Creating Layer inception_4d/1x1
I0403 18:07:30.918573  6602 net.cpp:425] inception_4d/1x1 <- inception_4c/output_inception_4c/output_0_split_0
I0403 18:07:30.918593  6602 net.cpp:399] inception_4d/1x1 -> inception_4d/1x1
I0403 18:07:30.920078  6602 net.cpp:141] Setting up inception_4d/1x1
I0403 18:07:30.920109  6602 net.cpp:148] Top shape: 24 112 14 14 (526848)
I0403 18:07:30.920126  6602 net.cpp:156] Memory required for data: 1113290016
I0403 18:07:30.920146  6602 layer_factory.hpp:77] Creating layer inception_4d/relu_1x1
I0403 18:07:30.920166  6602 net.cpp:91] Creating Layer inception_4d/relu_1x1
I0403 18:07:30.920184  6602 net.cpp:425] inception_4d/relu_1x1 <- inception_4d/1x1
I0403 18:07:30.920207  6602 net.cpp:386] inception_4d/relu_1x1 -> inception_4d/1x1 (in-place)
I0403 18:07:30.920411  6602 net.cpp:141] Setting up inception_4d/relu_1x1
I0403 18:07:30.920439  6602 net.cpp:148] Top shape: 24 112 14 14 (526848)
I0403 18:07:30.920454  6602 net.cpp:156] Memory required for data: 1115397408
I0403 18:07:30.920471  6602 layer_factory.hpp:77] Creating layer inception_4d/3x3_reduce
I0403 18:07:30.920511  6602 net.cpp:91] Creating Layer inception_4d/3x3_reduce
I0403 18:07:30.920531  6602 net.cpp:425] inception_4d/3x3_reduce <- inception_4c/output_inception_4c/output_0_split_1
I0403 18:07:30.920553  6602 net.cpp:399] inception_4d/3x3_reduce -> inception_4d/3x3_reduce
I0403 18:07:30.922174  6602 net.cpp:141] Setting up inception_4d/3x3_reduce
I0403 18:07:30.922204  6602 net.cpp:148] Top shape: 24 144 14 14 (677376)
I0403 18:07:30.922233  6602 net.cpp:156] Memory required for data: 1118106912
I0403 18:07:30.922255  6602 layer_factory.hpp:77] Creating layer inception_4d/relu_3x3_reduce
I0403 18:07:30.922277  6602 net.cpp:91] Creating Layer inception_4d/relu_3x3_reduce
I0403 18:07:30.922296  6602 net.cpp:425] inception_4d/relu_3x3_reduce <- inception_4d/3x3_reduce
I0403 18:07:30.922315  6602 net.cpp:386] inception_4d/relu_3x3_reduce -> inception_4d/3x3_reduce (in-place)
I0403 18:07:30.922621  6602 net.cpp:141] Setting up inception_4d/relu_3x3_reduce
I0403 18:07:30.922649  6602 net.cpp:148] Top shape: 24 144 14 14 (677376)
I0403 18:07:30.922665  6602 net.cpp:156] Memory required for data: 1120816416
I0403 18:07:30.922682  6602 layer_factory.hpp:77] Creating layer inception_4d/3x3
I0403 18:07:30.922705  6602 net.cpp:91] Creating Layer inception_4d/3x3
I0403 18:07:30.922724  6602 net.cpp:425] inception_4d/3x3 <- inception_4d/3x3_reduce
I0403 18:07:30.922746  6602 net.cpp:399] inception_4d/3x3 -> inception_4d/3x3
I0403 18:07:30.927327  6602 net.cpp:141] Setting up inception_4d/3x3
I0403 18:07:30.927363  6602 net.cpp:148] Top shape: 24 288 14 14 (1354752)
I0403 18:07:30.927381  6602 net.cpp:156] Memory required for data: 1126235424
I0403 18:07:30.927400  6602 layer_factory.hpp:77] Creating layer inception_4d/relu_3x3
I0403 18:07:30.927419  6602 net.cpp:91] Creating Layer inception_4d/relu_3x3
I0403 18:07:30.927436  6602 net.cpp:425] inception_4d/relu_3x3 <- inception_4d/3x3
I0403 18:07:30.927458  6602 net.cpp:386] inception_4d/relu_3x3 -> inception_4d/3x3 (in-place)
I0403 18:07:30.927660  6602 net.cpp:141] Setting up inception_4d/relu_3x3
I0403 18:07:30.927687  6602 net.cpp:148] Top shape: 24 288 14 14 (1354752)
I0403 18:07:30.927703  6602 net.cpp:156] Memory required for data: 1131654432
I0403 18:07:30.927718  6602 layer_factory.hpp:77] Creating layer inception_4d/5x5_reduce
I0403 18:07:30.927742  6602 net.cpp:91] Creating Layer inception_4d/5x5_reduce
I0403 18:07:30.927762  6602 net.cpp:425] inception_4d/5x5_reduce <- inception_4c/output_inception_4c/output_0_split_2
I0403 18:07:30.927785  6602 net.cpp:399] inception_4d/5x5_reduce -> inception_4d/5x5_reduce
I0403 18:07:30.929030  6602 net.cpp:141] Setting up inception_4d/5x5_reduce
I0403 18:07:30.929062  6602 net.cpp:148] Top shape: 24 32 14 14 (150528)
I0403 18:07:30.929080  6602 net.cpp:156] Memory required for data: 1132256544
I0403 18:07:30.929100  6602 layer_factory.hpp:77] Creating layer inception_4d/relu_5x5_reduce
I0403 18:07:30.929119  6602 net.cpp:91] Creating Layer inception_4d/relu_5x5_reduce
I0403 18:07:30.929137  6602 net.cpp:425] inception_4d/relu_5x5_reduce <- inception_4d/5x5_reduce
I0403 18:07:30.929158  6602 net.cpp:386] inception_4d/relu_5x5_reduce -> inception_4d/5x5_reduce (in-place)
I0403 18:07:30.929365  6602 net.cpp:141] Setting up inception_4d/relu_5x5_reduce
I0403 18:07:30.929393  6602 net.cpp:148] Top shape: 24 32 14 14 (150528)
I0403 18:07:30.929409  6602 net.cpp:156] Memory required for data: 1132858656
I0403 18:07:30.929425  6602 layer_factory.hpp:77] Creating layer inception_4d/5x5
I0403 18:07:30.929450  6602 net.cpp:91] Creating Layer inception_4d/5x5
I0403 18:07:30.929468  6602 net.cpp:425] inception_4d/5x5 <- inception_4d/5x5_reduce
I0403 18:07:30.929491  6602 net.cpp:399] inception_4d/5x5 -> inception_4d/5x5
I0403 18:07:30.931064  6602 net.cpp:141] Setting up inception_4d/5x5
I0403 18:07:30.931094  6602 net.cpp:148] Top shape: 24 64 14 14 (301056)
I0403 18:07:30.931112  6602 net.cpp:156] Memory required for data: 1134062880
I0403 18:07:30.931133  6602 layer_factory.hpp:77] Creating layer inception_4d/relu_5x5
I0403 18:07:30.931172  6602 net.cpp:91] Creating Layer inception_4d/relu_5x5
I0403 18:07:30.931192  6602 net.cpp:425] inception_4d/relu_5x5 <- inception_4d/5x5
I0403 18:07:30.931217  6602 net.cpp:386] inception_4d/relu_5x5 -> inception_4d/5x5 (in-place)
I0403 18:07:30.931543  6602 net.cpp:141] Setting up inception_4d/relu_5x5
I0403 18:07:30.931571  6602 net.cpp:148] Top shape: 24 64 14 14 (301056)
I0403 18:07:30.931587  6602 net.cpp:156] Memory required for data: 1135267104
I0403 18:07:30.931604  6602 layer_factory.hpp:77] Creating layer inception_4d/pool
I0403 18:07:30.931622  6602 net.cpp:91] Creating Layer inception_4d/pool
I0403 18:07:30.931640  6602 net.cpp:425] inception_4d/pool <- inception_4c/output_inception_4c/output_0_split_3
I0403 18:07:30.931661  6602 net.cpp:399] inception_4d/pool -> inception_4d/pool
I0403 18:07:30.931736  6602 net.cpp:141] Setting up inception_4d/pool
I0403 18:07:30.931762  6602 net.cpp:148] Top shape: 24 512 14 14 (2408448)
I0403 18:07:30.931778  6602 net.cpp:156] Memory required for data: 1144900896
I0403 18:07:30.931794  6602 layer_factory.hpp:77] Creating layer inception_4d/pool_proj
I0403 18:07:30.931820  6602 net.cpp:91] Creating Layer inception_4d/pool_proj
I0403 18:07:30.931839  6602 net.cpp:425] inception_4d/pool_proj <- inception_4d/pool
I0403 18:07:30.931862  6602 net.cpp:399] inception_4d/pool_proj -> inception_4d/pool_proj
I0403 18:07:30.933780  6602 net.cpp:141] Setting up inception_4d/pool_proj
I0403 18:07:30.933814  6602 net.cpp:148] Top shape: 24 64 14 14 (301056)
I0403 18:07:30.933831  6602 net.cpp:156] Memory required for data: 1146105120
I0403 18:07:30.933851  6602 layer_factory.hpp:77] Creating layer inception_4d/relu_pool_proj
I0403 18:07:30.933871  6602 net.cpp:91] Creating Layer inception_4d/relu_pool_proj
I0403 18:07:30.933887  6602 net.cpp:425] inception_4d/relu_pool_proj <- inception_4d/pool_proj
I0403 18:07:30.933908  6602 net.cpp:386] inception_4d/relu_pool_proj -> inception_4d/pool_proj (in-place)
I0403 18:07:30.934110  6602 net.cpp:141] Setting up inception_4d/relu_pool_proj
I0403 18:07:30.934136  6602 net.cpp:148] Top shape: 24 64 14 14 (301056)
I0403 18:07:30.934154  6602 net.cpp:156] Memory required for data: 1147309344
I0403 18:07:30.934168  6602 layer_factory.hpp:77] Creating layer inception_4d/output
I0403 18:07:30.934187  6602 net.cpp:91] Creating Layer inception_4d/output
I0403 18:07:30.934204  6602 net.cpp:425] inception_4d/output <- inception_4d/1x1
I0403 18:07:30.934228  6602 net.cpp:425] inception_4d/output <- inception_4d/3x3
I0403 18:07:30.934247  6602 net.cpp:425] inception_4d/output <- inception_4d/5x5
I0403 18:07:30.934264  6602 net.cpp:425] inception_4d/output <- inception_4d/pool_proj
I0403 18:07:30.934285  6602 net.cpp:399] inception_4d/output -> inception_4d/output
I0403 18:07:30.934336  6602 net.cpp:141] Setting up inception_4d/output
I0403 18:07:30.934363  6602 net.cpp:148] Top shape: 24 528 14 14 (2483712)
I0403 18:07:30.934381  6602 net.cpp:156] Memory required for data: 1157244192
I0403 18:07:30.934397  6602 layer_factory.hpp:77] Creating layer inception_4d/output_inception_4d/output_0_split
I0403 18:07:30.934417  6602 net.cpp:91] Creating Layer inception_4d/output_inception_4d/output_0_split
I0403 18:07:30.934433  6602 net.cpp:425] inception_4d/output_inception_4d/output_0_split <- inception_4d/output
I0403 18:07:30.934454  6602 net.cpp:399] inception_4d/output_inception_4d/output_0_split -> inception_4d/output_inception_4d/output_0_split_0
I0403 18:07:30.934478  6602 net.cpp:399] inception_4d/output_inception_4d/output_0_split -> inception_4d/output_inception_4d/output_0_split_1
I0403 18:07:30.934500  6602 net.cpp:399] inception_4d/output_inception_4d/output_0_split -> inception_4d/output_inception_4d/output_0_split_2
I0403 18:07:30.934521  6602 net.cpp:399] inception_4d/output_inception_4d/output_0_split -> inception_4d/output_inception_4d/output_0_split_3
I0403 18:07:30.934543  6602 net.cpp:399] inception_4d/output_inception_4d/output_0_split -> inception_4d/output_inception_4d/output_0_split_4
I0403 18:07:30.934659  6602 net.cpp:141] Setting up inception_4d/output_inception_4d/output_0_split
I0403 18:07:30.934697  6602 net.cpp:148] Top shape: 24 528 14 14 (2483712)
I0403 18:07:30.934715  6602 net.cpp:148] Top shape: 24 528 14 14 (2483712)
I0403 18:07:30.934732  6602 net.cpp:148] Top shape: 24 528 14 14 (2483712)
I0403 18:07:30.934749  6602 net.cpp:148] Top shape: 24 528 14 14 (2483712)
I0403 18:07:30.934765  6602 net.cpp:148] Top shape: 24 528 14 14 (2483712)
I0403 18:07:30.934780  6602 net.cpp:156] Memory required for data: 1206918432
I0403 18:07:30.934795  6602 layer_factory.hpp:77] Creating layer loss2/ave_pool
I0403 18:07:30.934818  6602 net.cpp:91] Creating Layer loss2/ave_pool
I0403 18:07:30.934835  6602 net.cpp:425] loss2/ave_pool <- inception_4d/output_inception_4d/output_0_split_0
I0403 18:07:30.934857  6602 net.cpp:399] loss2/ave_pool -> loss2/ave_pool
I0403 18:07:30.935190  6602 net.cpp:141] Setting up loss2/ave_pool
I0403 18:07:30.935225  6602 net.cpp:148] Top shape: 24 528 4 4 (202752)
I0403 18:07:30.935242  6602 net.cpp:156] Memory required for data: 1207729440
I0403 18:07:30.935258  6602 layer_factory.hpp:77] Creating layer loss2/conv
I0403 18:07:30.935282  6602 net.cpp:91] Creating Layer loss2/conv
I0403 18:07:30.935300  6602 net.cpp:425] loss2/conv <- loss2/ave_pool
I0403 18:07:30.935322  6602 net.cpp:399] loss2/conv -> loss2/conv
I0403 18:07:30.937374  6602 net.cpp:141] Setting up loss2/conv
I0403 18:07:30.937407  6602 net.cpp:148] Top shape: 24 128 4 4 (49152)
I0403 18:07:30.937424  6602 net.cpp:156] Memory required for data: 1207926048
I0403 18:07:30.937444  6602 layer_factory.hpp:77] Creating layer loss2/relu_conv
I0403 18:07:30.937465  6602 net.cpp:91] Creating Layer loss2/relu_conv
I0403 18:07:30.937484  6602 net.cpp:425] loss2/relu_conv <- loss2/conv
I0403 18:07:30.937502  6602 net.cpp:386] loss2/relu_conv -> loss2/conv (in-place)
I0403 18:07:30.937806  6602 net.cpp:141] Setting up loss2/relu_conv
I0403 18:07:30.937834  6602 net.cpp:148] Top shape: 24 128 4 4 (49152)
I0403 18:07:30.937850  6602 net.cpp:156] Memory required for data: 1208122656
I0403 18:07:30.937867  6602 layer_factory.hpp:77] Creating layer loss2/fc
I0403 18:07:30.937891  6602 net.cpp:91] Creating Layer loss2/fc
I0403 18:07:30.937908  6602 net.cpp:425] loss2/fc <- loss2/conv
I0403 18:07:30.937928  6602 net.cpp:399] loss2/fc -> loss2/fc
I0403 18:07:30.956459  6602 net.cpp:141] Setting up loss2/fc
I0403 18:07:30.956524  6602 net.cpp:148] Top shape: 24 1024 (24576)
I0403 18:07:30.956540  6602 net.cpp:156] Memory required for data: 1208220960
I0403 18:07:30.956560  6602 layer_factory.hpp:77] Creating layer loss2/relu_fc
I0403 18:07:30.956579  6602 net.cpp:91] Creating Layer loss2/relu_fc
I0403 18:07:30.956596  6602 net.cpp:425] loss2/relu_fc <- loss2/fc
I0403 18:07:30.956616  6602 net.cpp:386] loss2/relu_fc -> loss2/fc (in-place)
I0403 18:07:30.956969  6602 net.cpp:141] Setting up loss2/relu_fc
I0403 18:07:30.956997  6602 net.cpp:148] Top shape: 24 1024 (24576)
I0403 18:07:30.957013  6602 net.cpp:156] Memory required for data: 1208319264
I0403 18:07:30.957028  6602 layer_factory.hpp:77] Creating layer loss2/drop_fc
I0403 18:07:30.957047  6602 net.cpp:91] Creating Layer loss2/drop_fc
I0403 18:07:30.957064  6602 net.cpp:425] loss2/drop_fc <- loss2/fc
I0403 18:07:30.957085  6602 net.cpp:386] loss2/drop_fc -> loss2/fc (in-place)
I0403 18:07:30.957135  6602 net.cpp:141] Setting up loss2/drop_fc
I0403 18:07:30.957159  6602 net.cpp:148] Top shape: 24 1024 (24576)
I0403 18:07:30.957173  6602 net.cpp:156] Memory required for data: 1208417568
I0403 18:07:30.957187  6602 layer_factory.hpp:77] Creating layer loss2/classifier_plantvillage
I0403 18:07:30.957213  6602 net.cpp:91] Creating Layer loss2/classifier_plantvillage
I0403 18:07:30.957231  6602 net.cpp:425] loss2/classifier_plantvillage <- loss2/fc
I0403 18:07:30.957252  6602 net.cpp:399] loss2/classifier_plantvillage -> loss2/classifier_plantvillage
I0403 18:07:30.957662  6602 net.cpp:141] Setting up loss2/classifier_plantvillage
I0403 18:07:30.957689  6602 net.cpp:148] Top shape: 24 38 (912)
I0403 18:07:30.957726  6602 net.cpp:156] Memory required for data: 1208421216
I0403 18:07:30.957746  6602 layer_factory.hpp:77] Creating layer loss2/classifier_plantvillage_loss2/classifier_plantvillage_0_split
I0403 18:07:30.957767  6602 net.cpp:91] Creating Layer loss2/classifier_plantvillage_loss2/classifier_plantvillage_0_split
I0403 18:07:30.957783  6602 net.cpp:425] loss2/classifier_plantvillage_loss2/classifier_plantvillage_0_split <- loss2/classifier_plantvillage
I0403 18:07:30.957800  6602 net.cpp:399] loss2/classifier_plantvillage_loss2/classifier_plantvillage_0_split -> loss2/classifier_plantvillage_loss2/classifier_plantvillage_0_split_0
I0403 18:07:30.957820  6602 net.cpp:399] loss2/classifier_plantvillage_loss2/classifier_plantvillage_0_split -> loss2/classifier_plantvillage_loss2/classifier_plantvillage_0_split_1
I0403 18:07:30.957840  6602 net.cpp:399] loss2/classifier_plantvillage_loss2/classifier_plantvillage_0_split -> loss2/classifier_plantvillage_loss2/classifier_plantvillage_0_split_2
I0403 18:07:30.957921  6602 net.cpp:141] Setting up loss2/classifier_plantvillage_loss2/classifier_plantvillage_0_split
I0403 18:07:30.957944  6602 net.cpp:148] Top shape: 24 38 (912)
I0403 18:07:30.957960  6602 net.cpp:148] Top shape: 24 38 (912)
I0403 18:07:30.957975  6602 net.cpp:148] Top shape: 24 38 (912)
I0403 18:07:30.957989  6602 net.cpp:156] Memory required for data: 1208432160
I0403 18:07:30.958004  6602 layer_factory.hpp:77] Creating layer inception_4e/1x1
I0403 18:07:30.958025  6602 net.cpp:91] Creating Layer inception_4e/1x1
I0403 18:07:30.958042  6602 net.cpp:425] inception_4e/1x1 <- inception_4d/output_inception_4d/output_0_split_1
I0403 18:07:30.958065  6602 net.cpp:399] inception_4e/1x1 -> inception_4e/1x1
I0403 18:07:30.959929  6602 net.cpp:141] Setting up inception_4e/1x1
I0403 18:07:30.959959  6602 net.cpp:148] Top shape: 24 256 14 14 (1204224)
I0403 18:07:30.959974  6602 net.cpp:156] Memory required for data: 1213249056
I0403 18:07:30.959992  6602 layer_factory.hpp:77] Creating layer inception_4e/relu_1x1
I0403 18:07:30.960013  6602 net.cpp:91] Creating Layer inception_4e/relu_1x1
I0403 18:07:30.960031  6602 net.cpp:425] inception_4e/relu_1x1 <- inception_4e/1x1
I0403 18:07:30.960048  6602 net.cpp:386] inception_4e/relu_1x1 -> inception_4e/1x1 (in-place)
I0403 18:07:30.960352  6602 net.cpp:141] Setting up inception_4e/relu_1x1
I0403 18:07:30.960379  6602 net.cpp:148] Top shape: 24 256 14 14 (1204224)
I0403 18:07:30.960393  6602 net.cpp:156] Memory required for data: 1218065952
I0403 18:07:30.960408  6602 layer_factory.hpp:77] Creating layer inception_4e/3x3_reduce
I0403 18:07:30.960433  6602 net.cpp:91] Creating Layer inception_4e/3x3_reduce
I0403 18:07:30.960450  6602 net.cpp:425] inception_4e/3x3_reduce <- inception_4d/output_inception_4d/output_0_split_2
I0403 18:07:30.960471  6602 net.cpp:399] inception_4e/3x3_reduce -> inception_4e/3x3_reduce
I0403 18:07:30.962705  6602 net.cpp:141] Setting up inception_4e/3x3_reduce
I0403 18:07:30.962746  6602 net.cpp:148] Top shape: 24 160 14 14 (752640)
I0403 18:07:30.962761  6602 net.cpp:156] Memory required for data: 1221076512
I0403 18:07:30.962780  6602 layer_factory.hpp:77] Creating layer inception_4e/relu_3x3_reduce
I0403 18:07:30.962800  6602 net.cpp:91] Creating Layer inception_4e/relu_3x3_reduce
I0403 18:07:30.962818  6602 net.cpp:425] inception_4e/relu_3x3_reduce <- inception_4e/3x3_reduce
I0403 18:07:30.962836  6602 net.cpp:386] inception_4e/relu_3x3_reduce -> inception_4e/3x3_reduce (in-place)
I0403 18:07:30.963026  6602 net.cpp:141] Setting up inception_4e/relu_3x3_reduce
I0403 18:07:30.963050  6602 net.cpp:148] Top shape: 24 160 14 14 (752640)
I0403 18:07:30.963065  6602 net.cpp:156] Memory required for data: 1224087072
I0403 18:07:30.963080  6602 layer_factory.hpp:77] Creating layer inception_4e/3x3
I0403 18:07:30.963102  6602 net.cpp:91] Creating Layer inception_4e/3x3
I0403 18:07:30.963121  6602 net.cpp:425] inception_4e/3x3 <- inception_4e/3x3_reduce
I0403 18:07:30.963140  6602 net.cpp:399] inception_4e/3x3 -> inception_4e/3x3
I0403 18:07:30.968205  6602 net.cpp:141] Setting up inception_4e/3x3
I0403 18:07:30.968251  6602 net.cpp:148] Top shape: 24 320 14 14 (1505280)
I0403 18:07:30.968268  6602 net.cpp:156] Memory required for data: 1230108192
I0403 18:07:30.968286  6602 layer_factory.hpp:77] Creating layer inception_4e/relu_3x3
I0403 18:07:30.968307  6602 net.cpp:91] Creating Layer inception_4e/relu_3x3
I0403 18:07:30.968324  6602 net.cpp:425] inception_4e/relu_3x3 <- inception_4e/3x3
I0403 18:07:30.968343  6602 net.cpp:386] inception_4e/relu_3x3 -> inception_4e/3x3 (in-place)
I0403 18:07:30.968644  6602 net.cpp:141] Setting up inception_4e/relu_3x3
I0403 18:07:30.968672  6602 net.cpp:148] Top shape: 24 320 14 14 (1505280)
I0403 18:07:30.968689  6602 net.cpp:156] Memory required for data: 1236129312
I0403 18:07:30.968704  6602 layer_factory.hpp:77] Creating layer inception_4e/5x5_reduce
I0403 18:07:30.968727  6602 net.cpp:91] Creating Layer inception_4e/5x5_reduce
I0403 18:07:30.968745  6602 net.cpp:425] inception_4e/5x5_reduce <- inception_4d/output_inception_4d/output_0_split_3
I0403 18:07:30.968765  6602 net.cpp:399] inception_4e/5x5_reduce -> inception_4e/5x5_reduce
I0403 18:07:30.969899  6602 net.cpp:141] Setting up inception_4e/5x5_reduce
I0403 18:07:30.969928  6602 net.cpp:148] Top shape: 24 32 14 14 (150528)
I0403 18:07:30.969945  6602 net.cpp:156] Memory required for data: 1236731424
I0403 18:07:30.969964  6602 layer_factory.hpp:77] Creating layer inception_4e/relu_5x5_reduce
I0403 18:07:30.969986  6602 net.cpp:91] Creating Layer inception_4e/relu_5x5_reduce
I0403 18:07:30.970003  6602 net.cpp:425] inception_4e/relu_5x5_reduce <- inception_4e/5x5_reduce
I0403 18:07:30.970022  6602 net.cpp:386] inception_4e/relu_5x5_reduce -> inception_4e/5x5_reduce (in-place)
I0403 18:07:30.970345  6602 net.cpp:141] Setting up inception_4e/relu_5x5_reduce
I0403 18:07:30.970371  6602 net.cpp:148] Top shape: 24 32 14 14 (150528)
I0403 18:07:30.970386  6602 net.cpp:156] Memory required for data: 1237333536
I0403 18:07:30.970402  6602 layer_factory.hpp:77] Creating layer inception_4e/5x5
I0403 18:07:30.970441  6602 net.cpp:91] Creating Layer inception_4e/5x5
I0403 18:07:30.970461  6602 net.cpp:425] inception_4e/5x5 <- inception_4e/5x5_reduce
I0403 18:07:30.970481  6602 net.cpp:399] inception_4e/5x5 -> inception_4e/5x5
I0403 18:07:30.972419  6602 net.cpp:141] Setting up inception_4e/5x5
I0403 18:07:30.972447  6602 net.cpp:148] Top shape: 24 128 14 14 (602112)
I0403 18:07:30.972465  6602 net.cpp:156] Memory required for data: 1239741984
I0403 18:07:30.972491  6602 layer_factory.hpp:77] Creating layer inception_4e/relu_5x5
I0403 18:07:30.972509  6602 net.cpp:91] Creating Layer inception_4e/relu_5x5
I0403 18:07:30.972525  6602 net.cpp:425] inception_4e/relu_5x5 <- inception_4e/5x5
I0403 18:07:30.972546  6602 net.cpp:386] inception_4e/relu_5x5 -> inception_4e/5x5 (in-place)
I0403 18:07:30.972751  6602 net.cpp:141] Setting up inception_4e/relu_5x5
I0403 18:07:30.972776  6602 net.cpp:148] Top shape: 24 128 14 14 (602112)
I0403 18:07:30.972791  6602 net.cpp:156] Memory required for data: 1242150432
I0403 18:07:30.972807  6602 layer_factory.hpp:77] Creating layer inception_4e/pool
I0403 18:07:30.972828  6602 net.cpp:91] Creating Layer inception_4e/pool
I0403 18:07:30.972846  6602 net.cpp:425] inception_4e/pool <- inception_4d/output_inception_4d/output_0_split_4
I0403 18:07:30.972864  6602 net.cpp:399] inception_4e/pool -> inception_4e/pool
I0403 18:07:30.972936  6602 net.cpp:141] Setting up inception_4e/pool
I0403 18:07:30.972961  6602 net.cpp:148] Top shape: 24 528 14 14 (2483712)
I0403 18:07:30.972975  6602 net.cpp:156] Memory required for data: 1252085280
I0403 18:07:30.972990  6602 layer_factory.hpp:77] Creating layer inception_4e/pool_proj
I0403 18:07:30.973013  6602 net.cpp:91] Creating Layer inception_4e/pool_proj
I0403 18:07:30.973031  6602 net.cpp:425] inception_4e/pool_proj <- inception_4e/pool
I0403 18:07:30.973054  6602 net.cpp:399] inception_4e/pool_proj -> inception_4e/pool_proj
I0403 18:07:30.974634  6602 net.cpp:141] Setting up inception_4e/pool_proj
I0403 18:07:30.974678  6602 net.cpp:148] Top shape: 24 128 14 14 (602112)
I0403 18:07:30.974695  6602 net.cpp:156] Memory required for data: 1254493728
I0403 18:07:30.974714  6602 layer_factory.hpp:77] Creating layer inception_4e/relu_pool_proj
I0403 18:07:30.974732  6602 net.cpp:91] Creating Layer inception_4e/relu_pool_proj
I0403 18:07:30.974750  6602 net.cpp:425] inception_4e/relu_pool_proj <- inception_4e/pool_proj
I0403 18:07:30.974769  6602 net.cpp:386] inception_4e/relu_pool_proj -> inception_4e/pool_proj (in-place)
I0403 18:07:30.975072  6602 net.cpp:141] Setting up inception_4e/relu_pool_proj
I0403 18:07:30.975101  6602 net.cpp:148] Top shape: 24 128 14 14 (602112)
I0403 18:07:30.975117  6602 net.cpp:156] Memory required for data: 1256902176
I0403 18:07:30.975133  6602 layer_factory.hpp:77] Creating layer inception_4e/output
I0403 18:07:30.975152  6602 net.cpp:91] Creating Layer inception_4e/output
I0403 18:07:30.975167  6602 net.cpp:425] inception_4e/output <- inception_4e/1x1
I0403 18:07:30.975185  6602 net.cpp:425] inception_4e/output <- inception_4e/3x3
I0403 18:07:30.975203  6602 net.cpp:425] inception_4e/output <- inception_4e/5x5
I0403 18:07:30.975225  6602 net.cpp:425] inception_4e/output <- inception_4e/pool_proj
I0403 18:07:30.975244  6602 net.cpp:399] inception_4e/output -> inception_4e/output
I0403 18:07:30.975297  6602 net.cpp:141] Setting up inception_4e/output
I0403 18:07:30.975322  6602 net.cpp:148] Top shape: 24 832 14 14 (3913728)
I0403 18:07:30.975338  6602 net.cpp:156] Memory required for data: 1272557088
I0403 18:07:30.975353  6602 layer_factory.hpp:77] Creating layer pool4/3x3_s2
I0403 18:07:30.975374  6602 net.cpp:91] Creating Layer pool4/3x3_s2
I0403 18:07:30.975390  6602 net.cpp:425] pool4/3x3_s2 <- inception_4e/output
I0403 18:07:30.975409  6602 net.cpp:399] pool4/3x3_s2 -> pool4/3x3_s2
I0403 18:07:30.975482  6602 net.cpp:141] Setting up pool4/3x3_s2
I0403 18:07:30.975507  6602 net.cpp:148] Top shape: 24 832 7 7 (978432)
I0403 18:07:30.975522  6602 net.cpp:156] Memory required for data: 1276470816
I0403 18:07:30.975538  6602 layer_factory.hpp:77] Creating layer pool4/3x3_s2_pool4/3x3_s2_0_split
I0403 18:07:30.975554  6602 net.cpp:91] Creating Layer pool4/3x3_s2_pool4/3x3_s2_0_split
I0403 18:07:30.975570  6602 net.cpp:425] pool4/3x3_s2_pool4/3x3_s2_0_split <- pool4/3x3_s2
I0403 18:07:30.975590  6602 net.cpp:399] pool4/3x3_s2_pool4/3x3_s2_0_split -> pool4/3x3_s2_pool4/3x3_s2_0_split_0
I0403 18:07:30.975612  6602 net.cpp:399] pool4/3x3_s2_pool4/3x3_s2_0_split -> pool4/3x3_s2_pool4/3x3_s2_0_split_1
I0403 18:07:30.975633  6602 net.cpp:399] pool4/3x3_s2_pool4/3x3_s2_0_split -> pool4/3x3_s2_pool4/3x3_s2_0_split_2
I0403 18:07:30.975654  6602 net.cpp:399] pool4/3x3_s2_pool4/3x3_s2_0_split -> pool4/3x3_s2_pool4/3x3_s2_0_split_3
I0403 18:07:30.975750  6602 net.cpp:141] Setting up pool4/3x3_s2_pool4/3x3_s2_0_split
I0403 18:07:30.975777  6602 net.cpp:148] Top shape: 24 832 7 7 (978432)
I0403 18:07:30.975795  6602 net.cpp:148] Top shape: 24 832 7 7 (978432)
I0403 18:07:30.975812  6602 net.cpp:148] Top shape: 24 832 7 7 (978432)
I0403 18:07:30.975828  6602 net.cpp:148] Top shape: 24 832 7 7 (978432)
I0403 18:07:30.975843  6602 net.cpp:156] Memory required for data: 1292125728
I0403 18:07:30.975858  6602 layer_factory.hpp:77] Creating layer inception_5a/1x1
I0403 18:07:30.975881  6602 net.cpp:91] Creating Layer inception_5a/1x1
I0403 18:07:30.975900  6602 net.cpp:425] inception_5a/1x1 <- pool4/3x3_s2_pool4/3x3_s2_0_split_0
I0403 18:07:30.975921  6602 net.cpp:399] inception_5a/1x1 -> inception_5a/1x1
I0403 18:07:30.978904  6602 net.cpp:141] Setting up inception_5a/1x1
I0403 18:07:30.978934  6602 net.cpp:148] Top shape: 24 256 7 7 (301056)
I0403 18:07:30.978950  6602 net.cpp:156] Memory required for data: 1293329952
I0403 18:07:30.978970  6602 layer_factory.hpp:77] Creating layer inception_5a/relu_1x1
I0403 18:07:30.978992  6602 net.cpp:91] Creating Layer inception_5a/relu_1x1
I0403 18:07:30.979010  6602 net.cpp:425] inception_5a/relu_1x1 <- inception_5a/1x1
I0403 18:07:30.979029  6602 net.cpp:386] inception_5a/relu_1x1 -> inception_5a/1x1 (in-place)
I0403 18:07:30.979357  6602 net.cpp:141] Setting up inception_5a/relu_1x1
I0403 18:07:30.979384  6602 net.cpp:148] Top shape: 24 256 7 7 (301056)
I0403 18:07:30.979400  6602 net.cpp:156] Memory required for data: 1294534176
I0403 18:07:30.979416  6602 layer_factory.hpp:77] Creating layer inception_5a/3x3_reduce
I0403 18:07:30.979439  6602 net.cpp:91] Creating Layer inception_5a/3x3_reduce
I0403 18:07:30.979457  6602 net.cpp:425] inception_5a/3x3_reduce <- pool4/3x3_s2_pool4/3x3_s2_0_split_1
I0403 18:07:30.979480  6602 net.cpp:399] inception_5a/3x3_reduce -> inception_5a/3x3_reduce
I0403 18:07:30.982048  6602 net.cpp:141] Setting up inception_5a/3x3_reduce
I0403 18:07:30.982080  6602 net.cpp:148] Top shape: 24 160 7 7 (188160)
I0403 18:07:30.982097  6602 net.cpp:156] Memory required for data: 1295286816
I0403 18:07:30.982117  6602 layer_factory.hpp:77] Creating layer inception_5a/relu_3x3_reduce
I0403 18:07:30.982136  6602 net.cpp:91] Creating Layer inception_5a/relu_3x3_reduce
I0403 18:07:30.982153  6602 net.cpp:425] inception_5a/relu_3x3_reduce <- inception_5a/3x3_reduce
I0403 18:07:30.982170  6602 net.cpp:386] inception_5a/relu_3x3_reduce -> inception_5a/3x3_reduce (in-place)
I0403 18:07:30.982384  6602 net.cpp:141] Setting up inception_5a/relu_3x3_reduce
I0403 18:07:30.982411  6602 net.cpp:148] Top shape: 24 160 7 7 (188160)
I0403 18:07:30.982426  6602 net.cpp:156] Memory required for data: 1296039456
I0403 18:07:30.982442  6602 layer_factory.hpp:77] Creating layer inception_5a/3x3
I0403 18:07:30.982465  6602 net.cpp:91] Creating Layer inception_5a/3x3
I0403 18:07:30.982483  6602 net.cpp:425] inception_5a/3x3 <- inception_5a/3x3_reduce
I0403 18:07:30.982507  6602 net.cpp:399] inception_5a/3x3 -> inception_5a/3x3
I0403 18:07:30.987831  6602 net.cpp:141] Setting up inception_5a/3x3
I0403 18:07:30.987861  6602 net.cpp:148] Top shape: 24 320 7 7 (376320)
I0403 18:07:30.987879  6602 net.cpp:156] Memory required for data: 1297544736
I0403 18:07:30.987897  6602 layer_factory.hpp:77] Creating layer inception_5a/relu_3x3
I0403 18:07:30.987916  6602 net.cpp:91] Creating Layer inception_5a/relu_3x3
I0403 18:07:30.987944  6602 net.cpp:425] inception_5a/relu_3x3 <- inception_5a/3x3
I0403 18:07:30.987964  6602 net.cpp:386] inception_5a/relu_3x3 -> inception_5a/3x3 (in-place)
I0403 18:07:30.988283  6602 net.cpp:141] Setting up inception_5a/relu_3x3
I0403 18:07:30.988309  6602 net.cpp:148] Top shape: 24 320 7 7 (376320)
I0403 18:07:30.988324  6602 net.cpp:156] Memory required for data: 1299050016
I0403 18:07:30.988338  6602 layer_factory.hpp:77] Creating layer inception_5a/5x5_reduce
I0403 18:07:30.988361  6602 net.cpp:91] Creating Layer inception_5a/5x5_reduce
I0403 18:07:30.988379  6602 net.cpp:425] inception_5a/5x5_reduce <- pool4/3x3_s2_pool4/3x3_s2_0_split_2
I0403 18:07:30.988401  6602 net.cpp:399] inception_5a/5x5_reduce -> inception_5a/5x5_reduce
I0403 18:07:30.989630  6602 net.cpp:141] Setting up inception_5a/5x5_reduce
I0403 18:07:30.989660  6602 net.cpp:148] Top shape: 24 32 7 7 (37632)
I0403 18:07:30.989675  6602 net.cpp:156] Memory required for data: 1299200544
I0403 18:07:30.989694  6602 layer_factory.hpp:77] Creating layer inception_5a/relu_5x5_reduce
I0403 18:07:30.989714  6602 net.cpp:91] Creating Layer inception_5a/relu_5x5_reduce
I0403 18:07:30.989732  6602 net.cpp:425] inception_5a/relu_5x5_reduce <- inception_5a/5x5_reduce
I0403 18:07:30.989749  6602 net.cpp:386] inception_5a/relu_5x5_reduce -> inception_5a/5x5_reduce (in-place)
I0403 18:07:30.990053  6602 net.cpp:141] Setting up inception_5a/relu_5x5_reduce
I0403 18:07:30.990079  6602 net.cpp:148] Top shape: 24 32 7 7 (37632)
I0403 18:07:30.990095  6602 net.cpp:156] Memory required for data: 1299351072
I0403 18:07:30.990110  6602 layer_factory.hpp:77] Creating layer inception_5a/5x5
I0403 18:07:30.990133  6602 net.cpp:91] Creating Layer inception_5a/5x5
I0403 18:07:30.990151  6602 net.cpp:425] inception_5a/5x5 <- inception_5a/5x5_reduce
I0403 18:07:30.990172  6602 net.cpp:399] inception_5a/5x5 -> inception_5a/5x5
I0403 18:07:30.991925  6602 net.cpp:141] Setting up inception_5a/5x5
I0403 18:07:30.991964  6602 net.cpp:148] Top shape: 24 128 7 7 (150528)
I0403 18:07:30.991981  6602 net.cpp:156] Memory required for data: 1299953184
I0403 18:07:30.992000  6602 layer_factory.hpp:77] Creating layer inception_5a/relu_5x5
I0403 18:07:30.992018  6602 net.cpp:91] Creating Layer inception_5a/relu_5x5
I0403 18:07:30.992035  6602 net.cpp:425] inception_5a/relu_5x5 <- inception_5a/5x5
I0403 18:07:30.992056  6602 net.cpp:386] inception_5a/relu_5x5 -> inception_5a/5x5 (in-place)
I0403 18:07:30.992291  6602 net.cpp:141] Setting up inception_5a/relu_5x5
I0403 18:07:30.992318  6602 net.cpp:148] Top shape: 24 128 7 7 (150528)
I0403 18:07:30.992336  6602 net.cpp:156] Memory required for data: 1300555296
I0403 18:07:30.992352  6602 layer_factory.hpp:77] Creating layer inception_5a/pool
I0403 18:07:30.992372  6602 net.cpp:91] Creating Layer inception_5a/pool
I0403 18:07:30.992390  6602 net.cpp:425] inception_5a/pool <- pool4/3x3_s2_pool4/3x3_s2_0_split_3
I0403 18:07:30.992410  6602 net.cpp:399] inception_5a/pool -> inception_5a/pool
I0403 18:07:30.992501  6602 net.cpp:141] Setting up inception_5a/pool
I0403 18:07:30.992537  6602 net.cpp:148] Top shape: 24 832 7 7 (978432)
I0403 18:07:30.992552  6602 net.cpp:156] Memory required for data: 1304469024
I0403 18:07:30.992566  6602 layer_factory.hpp:77] Creating layer inception_5a/pool_proj
I0403 18:07:30.992589  6602 net.cpp:91] Creating Layer inception_5a/pool_proj
I0403 18:07:30.992607  6602 net.cpp:425] inception_5a/pool_proj <- inception_5a/pool
I0403 18:07:30.992627  6602 net.cpp:399] inception_5a/pool_proj -> inception_5a/pool_proj
I0403 18:07:30.994956  6602 net.cpp:141] Setting up inception_5a/pool_proj
I0403 18:07:30.994987  6602 net.cpp:148] Top shape: 24 128 7 7 (150528)
I0403 18:07:30.995003  6602 net.cpp:156] Memory required for data: 1305071136
I0403 18:07:30.995023  6602 layer_factory.hpp:77] Creating layer inception_5a/relu_pool_proj
I0403 18:07:30.995040  6602 net.cpp:91] Creating Layer inception_5a/relu_pool_proj
I0403 18:07:30.995057  6602 net.cpp:425] inception_5a/relu_pool_proj <- inception_5a/pool_proj
I0403 18:07:30.995077  6602 net.cpp:386] inception_5a/relu_pool_proj -> inception_5a/pool_proj (in-place)
I0403 18:07:30.995379  6602 net.cpp:141] Setting up inception_5a/relu_pool_proj
I0403 18:07:30.995409  6602 net.cpp:148] Top shape: 24 128 7 7 (150528)
I0403 18:07:30.995424  6602 net.cpp:156] Memory required for data: 1305673248
I0403 18:07:30.995440  6602 layer_factory.hpp:77] Creating layer inception_5a/output
I0403 18:07:30.995456  6602 net.cpp:91] Creating Layer inception_5a/output
I0403 18:07:30.995473  6602 net.cpp:425] inception_5a/output <- inception_5a/1x1
I0403 18:07:30.995491  6602 net.cpp:425] inception_5a/output <- inception_5a/3x3
I0403 18:07:30.995507  6602 net.cpp:425] inception_5a/output <- inception_5a/5x5
I0403 18:07:30.995523  6602 net.cpp:425] inception_5a/output <- inception_5a/pool_proj
I0403 18:07:30.995543  6602 net.cpp:399] inception_5a/output -> inception_5a/output
I0403 18:07:30.995594  6602 net.cpp:141] Setting up inception_5a/output
I0403 18:07:30.995616  6602 net.cpp:148] Top shape: 24 832 7 7 (978432)
I0403 18:07:30.995630  6602 net.cpp:156] Memory required for data: 1309586976
I0403 18:07:30.995645  6602 layer_factory.hpp:77] Creating layer inception_5a/output_inception_5a/output_0_split
I0403 18:07:30.995666  6602 net.cpp:91] Creating Layer inception_5a/output_inception_5a/output_0_split
I0403 18:07:30.995683  6602 net.cpp:425] inception_5a/output_inception_5a/output_0_split <- inception_5a/output
I0403 18:07:30.995700  6602 net.cpp:399] inception_5a/output_inception_5a/output_0_split -> inception_5a/output_inception_5a/output_0_split_0
I0403 18:07:30.995721  6602 net.cpp:399] inception_5a/output_inception_5a/output_0_split -> inception_5a/output_inception_5a/output_0_split_1
I0403 18:07:30.995745  6602 net.cpp:399] inception_5a/output_inception_5a/output_0_split -> inception_5a/output_inception_5a/output_0_split_2
I0403 18:07:30.995769  6602 net.cpp:399] inception_5a/output_inception_5a/output_0_split -> inception_5a/output_inception_5a/output_0_split_3
I0403 18:07:30.995882  6602 net.cpp:141] Setting up inception_5a/output_inception_5a/output_0_split
I0403 18:07:30.995908  6602 net.cpp:148] Top shape: 24 832 7 7 (978432)
I0403 18:07:30.995923  6602 net.cpp:148] Top shape: 24 832 7 7 (978432)
I0403 18:07:30.995939  6602 net.cpp:148] Top shape: 24 832 7 7 (978432)
I0403 18:07:30.995955  6602 net.cpp:148] Top shape: 24 832 7 7 (978432)
I0403 18:07:30.995970  6602 net.cpp:156] Memory required for data: 1325241888
I0403 18:07:30.995985  6602 layer_factory.hpp:77] Creating layer inception_5b/1x1
I0403 18:07:30.996007  6602 net.cpp:91] Creating Layer inception_5b/1x1
I0403 18:07:30.996024  6602 net.cpp:425] inception_5b/1x1 <- inception_5a/output_inception_5a/output_0_split_0
I0403 18:07:30.996050  6602 net.cpp:399] inception_5b/1x1 -> inception_5b/1x1
I0403 18:07:30.999941  6602 net.cpp:141] Setting up inception_5b/1x1
I0403 18:07:30.999974  6602 net.cpp:148] Top shape: 24 384 7 7 (451584)
I0403 18:07:30.999991  6602 net.cpp:156] Memory required for data: 1327048224
I0403 18:07:31.000011  6602 layer_factory.hpp:77] Creating layer inception_5b/relu_1x1
I0403 18:07:31.000031  6602 net.cpp:91] Creating Layer inception_5b/relu_1x1
I0403 18:07:31.000048  6602 net.cpp:425] inception_5b/relu_1x1 <- inception_5b/1x1
I0403 18:07:31.000067  6602 net.cpp:386] inception_5b/relu_1x1 -> inception_5b/1x1 (in-place)
I0403 18:07:31.000391  6602 net.cpp:141] Setting up inception_5b/relu_1x1
I0403 18:07:31.000422  6602 net.cpp:148] Top shape: 24 384 7 7 (451584)
I0403 18:07:31.000438  6602 net.cpp:156] Memory required for data: 1328854560
I0403 18:07:31.000453  6602 layer_factory.hpp:77] Creating layer inception_5b/3x3_reduce
I0403 18:07:31.000476  6602 net.cpp:91] Creating Layer inception_5b/3x3_reduce
I0403 18:07:31.000496  6602 net.cpp:425] inception_5b/3x3_reduce <- inception_5a/output_inception_5a/output_0_split_1
I0403 18:07:31.000517  6602 net.cpp:399] inception_5b/3x3_reduce -> inception_5b/3x3_reduce
I0403 18:07:31.003335  6602 net.cpp:141] Setting up inception_5b/3x3_reduce
I0403 18:07:31.003368  6602 net.cpp:148] Top shape: 24 192 7 7 (225792)
I0403 18:07:31.003386  6602 net.cpp:156] Memory required for data: 1329757728
I0403 18:07:31.003406  6602 layer_factory.hpp:77] Creating layer inception_5b/relu_3x3_reduce
I0403 18:07:31.003423  6602 net.cpp:91] Creating Layer inception_5b/relu_3x3_reduce
I0403 18:07:31.003440  6602 net.cpp:425] inception_5b/relu_3x3_reduce <- inception_5b/3x3_reduce
I0403 18:07:31.003461  6602 net.cpp:386] inception_5b/relu_3x3_reduce -> inception_5b/3x3_reduce (in-place)
I0403 18:07:31.003665  6602 net.cpp:141] Setting up inception_5b/relu_3x3_reduce
I0403 18:07:31.003691  6602 net.cpp:148] Top shape: 24 192 7 7 (225792)
I0403 18:07:31.003706  6602 net.cpp:156] Memory required for data: 1330660896
I0403 18:07:31.003722  6602 layer_factory.hpp:77] Creating layer inception_5b/3x3
I0403 18:07:31.003744  6602 net.cpp:91] Creating Layer inception_5b/3x3
I0403 18:07:31.003765  6602 net.cpp:425] inception_5b/3x3 <- inception_5b/3x3_reduce
I0403 18:07:31.003787  6602 net.cpp:399] inception_5b/3x3 -> inception_5b/3x3
I0403 18:07:31.010812  6602 net.cpp:141] Setting up inception_5b/3x3
I0403 18:07:31.010848  6602 net.cpp:148] Top shape: 24 384 7 7 (451584)
I0403 18:07:31.010864  6602 net.cpp:156] Memory required for data: 1332467232
I0403 18:07:31.010885  6602 layer_factory.hpp:77] Creating layer inception_5b/relu_3x3
I0403 18:07:31.010903  6602 net.cpp:91] Creating Layer inception_5b/relu_3x3
I0403 18:07:31.010921  6602 net.cpp:425] inception_5b/relu_3x3 <- inception_5b/3x3
I0403 18:07:31.010941  6602 net.cpp:386] inception_5b/relu_3x3 -> inception_5b/3x3 (in-place)
I0403 18:07:31.011255  6602 net.cpp:141] Setting up inception_5b/relu_3x3
I0403 18:07:31.011284  6602 net.cpp:148] Top shape: 24 384 7 7 (451584)
I0403 18:07:31.011301  6602 net.cpp:156] Memory required for data: 1334273568
I0403 18:07:31.011317  6602 layer_factory.hpp:77] Creating layer inception_5b/5x5_reduce
I0403 18:07:31.011359  6602 net.cpp:91] Creating Layer inception_5b/5x5_reduce
I0403 18:07:31.011379  6602 net.cpp:425] inception_5b/5x5_reduce <- inception_5a/output_inception_5a/output_0_split_2
I0403 18:07:31.011399  6602 net.cpp:399] inception_5b/5x5_reduce -> inception_5b/5x5_reduce
I0403 18:07:31.012754  6602 net.cpp:141] Setting up inception_5b/5x5_reduce
I0403 18:07:31.012785  6602 net.cpp:148] Top shape: 24 48 7 7 (56448)
I0403 18:07:31.012802  6602 net.cpp:156] Memory required for data: 1334499360
I0403 18:07:31.012821  6602 layer_factory.hpp:77] Creating layer inception_5b/relu_5x5_reduce
I0403 18:07:31.012840  6602 net.cpp:91] Creating Layer inception_5b/relu_5x5_reduce
I0403 18:07:31.012856  6602 net.cpp:425] inception_5b/relu_5x5_reduce <- inception_5b/5x5_reduce
I0403 18:07:31.012876  6602 net.cpp:386] inception_5b/relu_5x5_reduce -> inception_5b/5x5_reduce (in-place)
I0403 18:07:31.013276  6602 net.cpp:141] Setting up inception_5b/relu_5x5_reduce
I0403 18:07:31.013303  6602 net.cpp:148] Top shape: 24 48 7 7 (56448)
I0403 18:07:31.013320  6602 net.cpp:156] Memory required for data: 1334725152
I0403 18:07:31.013337  6602 layer_factory.hpp:77] Creating layer inception_5b/5x5
I0403 18:07:31.013358  6602 net.cpp:91] Creating Layer inception_5b/5x5
I0403 18:07:31.013375  6602 net.cpp:425] inception_5b/5x5 <- inception_5b/5x5_reduce
I0403 18:07:31.013396  6602 net.cpp:399] inception_5b/5x5 -> inception_5b/5x5
I0403 18:07:31.015564  6602 net.cpp:141] Setting up inception_5b/5x5
I0403 18:07:31.015594  6602 net.cpp:148] Top shape: 24 128 7 7 (150528)
I0403 18:07:31.015609  6602 net.cpp:156] Memory required for data: 1335327264
I0403 18:07:31.015630  6602 layer_factory.hpp:77] Creating layer inception_5b/relu_5x5
I0403 18:07:31.015650  6602 net.cpp:91] Creating Layer inception_5b/relu_5x5
I0403 18:07:31.015667  6602 net.cpp:425] inception_5b/relu_5x5 <- inception_5b/5x5
I0403 18:07:31.015686  6602 net.cpp:386] inception_5b/relu_5x5 -> inception_5b/5x5 (in-place)
I0403 18:07:31.015889  6602 net.cpp:141] Setting up inception_5b/relu_5x5
I0403 18:07:31.015914  6602 net.cpp:148] Top shape: 24 128 7 7 (150528)
I0403 18:07:31.015930  6602 net.cpp:156] Memory required for data: 1335929376
I0403 18:07:31.015945  6602 layer_factory.hpp:77] Creating layer inception_5b/pool
I0403 18:07:31.015967  6602 net.cpp:91] Creating Layer inception_5b/pool
I0403 18:07:31.015985  6602 net.cpp:425] inception_5b/pool <- inception_5a/output_inception_5a/output_0_split_3
I0403 18:07:31.016005  6602 net.cpp:399] inception_5b/pool -> inception_5b/pool
I0403 18:07:31.016086  6602 net.cpp:141] Setting up inception_5b/pool
I0403 18:07:31.016110  6602 net.cpp:148] Top shape: 24 832 7 7 (978432)
I0403 18:07:31.016126  6602 net.cpp:156] Memory required for data: 1339843104
I0403 18:07:31.016141  6602 layer_factory.hpp:77] Creating layer inception_5b/pool_proj
I0403 18:07:31.016165  6602 net.cpp:91] Creating Layer inception_5b/pool_proj
I0403 18:07:31.016182  6602 net.cpp:425] inception_5b/pool_proj <- inception_5b/pool
I0403 18:07:31.016206  6602 net.cpp:399] inception_5b/pool_proj -> inception_5b/pool_proj
I0403 18:07:31.018636  6602 net.cpp:141] Setting up inception_5b/pool_proj
I0403 18:07:31.018666  6602 net.cpp:148] Top shape: 24 128 7 7 (150528)
I0403 18:07:31.018682  6602 net.cpp:156] Memory required for data: 1340445216
I0403 18:07:31.018702  6602 layer_factory.hpp:77] Creating layer inception_5b/relu_pool_proj
I0403 18:07:31.018721  6602 net.cpp:91] Creating Layer inception_5b/relu_pool_proj
I0403 18:07:31.018738  6602 net.cpp:425] inception_5b/relu_pool_proj <- inception_5b/pool_proj
I0403 18:07:31.018759  6602 net.cpp:386] inception_5b/relu_pool_proj -> inception_5b/pool_proj (in-place)
I0403 18:07:31.019073  6602 net.cpp:141] Setting up inception_5b/relu_pool_proj
I0403 18:07:31.019100  6602 net.cpp:148] Top shape: 24 128 7 7 (150528)
I0403 18:07:31.019116  6602 net.cpp:156] Memory required for data: 1341047328
I0403 18:07:31.019132  6602 layer_factory.hpp:77] Creating layer inception_5b/output
I0403 18:07:31.019151  6602 net.cpp:91] Creating Layer inception_5b/output
I0403 18:07:31.019182  6602 net.cpp:425] inception_5b/output <- inception_5b/1x1
I0403 18:07:31.019201  6602 net.cpp:425] inception_5b/output <- inception_5b/3x3
I0403 18:07:31.019224  6602 net.cpp:425] inception_5b/output <- inception_5b/5x5
I0403 18:07:31.019243  6602 net.cpp:425] inception_5b/output <- inception_5b/pool_proj
I0403 18:07:31.019264  6602 net.cpp:399] inception_5b/output -> inception_5b/output
I0403 18:07:31.019320  6602 net.cpp:141] Setting up inception_5b/output
I0403 18:07:31.019348  6602 net.cpp:148] Top shape: 24 1024 7 7 (1204224)
I0403 18:07:31.019364  6602 net.cpp:156] Memory required for data: 1345864224
I0403 18:07:31.019381  6602 layer_factory.hpp:77] Creating layer pool5/7x7_s1
I0403 18:07:31.019398  6602 net.cpp:91] Creating Layer pool5/7x7_s1
I0403 18:07:31.019415  6602 net.cpp:425] pool5/7x7_s1 <- inception_5b/output
I0403 18:07:31.019434  6602 net.cpp:399] pool5/7x7_s1 -> pool5/7x7_s1
I0403 18:07:31.019665  6602 net.cpp:141] Setting up pool5/7x7_s1
I0403 18:07:31.019691  6602 net.cpp:148] Top shape: 24 1024 1 1 (24576)
I0403 18:07:31.019707  6602 net.cpp:156] Memory required for data: 1345962528
I0403 18:07:31.019722  6602 layer_factory.hpp:77] Creating layer pool5/drop_7x7_s1
I0403 18:07:31.019742  6602 net.cpp:91] Creating Layer pool5/drop_7x7_s1
I0403 18:07:31.019757  6602 net.cpp:425] pool5/drop_7x7_s1 <- pool5/7x7_s1
I0403 18:07:31.019778  6602 net.cpp:386] pool5/drop_7x7_s1 -> pool5/7x7_s1 (in-place)
I0403 18:07:31.019831  6602 net.cpp:141] Setting up pool5/drop_7x7_s1
I0403 18:07:31.019857  6602 net.cpp:148] Top shape: 24 1024 1 1 (24576)
I0403 18:07:31.019876  6602 net.cpp:156] Memory required for data: 1346060832
I0403 18:07:31.019891  6602 layer_factory.hpp:77] Creating layer loss3/classifier_plantvillage
I0403 18:07:31.019912  6602 net.cpp:91] Creating Layer loss3/classifier_plantvillage
I0403 18:07:31.019927  6602 net.cpp:425] loss3/classifier_plantvillage <- pool5/7x7_s1
I0403 18:07:31.019949  6602 net.cpp:399] loss3/classifier_plantvillage -> loss3/classifier_plantvillage
I0403 18:07:31.020432  6602 net.cpp:141] Setting up loss3/classifier_plantvillage
I0403 18:07:31.020459  6602 net.cpp:148] Top shape: 24 38 (912)
I0403 18:07:31.020476  6602 net.cpp:156] Memory required for data: 1346064480
I0403 18:07:31.020496  6602 layer_factory.hpp:77] Creating layer loss3/classifier_plantvillage_loss3/classifier_plantvillage_0_split
I0403 18:07:31.020519  6602 net.cpp:91] Creating Layer loss3/classifier_plantvillage_loss3/classifier_plantvillage_0_split
I0403 18:07:31.020539  6602 net.cpp:425] loss3/classifier_plantvillage_loss3/classifier_plantvillage_0_split <- loss3/classifier_plantvillage
I0403 18:07:31.020558  6602 net.cpp:399] loss3/classifier_plantvillage_loss3/classifier_plantvillage_0_split -> loss3/classifier_plantvillage_loss3/classifier_plantvillage_0_split_0
I0403 18:07:31.020579  6602 net.cpp:399] loss3/classifier_plantvillage_loss3/classifier_plantvillage_0_split -> loss3/classifier_plantvillage_loss3/classifier_plantvillage_0_split_1
I0403 18:07:31.020604  6602 net.cpp:399] loss3/classifier_plantvillage_loss3/classifier_plantvillage_0_split -> loss3/classifier_plantvillage_loss3/classifier_plantvillage_0_split_2
I0403 18:07:31.020627  6602 net.cpp:399] loss3/classifier_plantvillage_loss3/classifier_plantvillage_0_split -> loss3/classifier_plantvillage_loss3/classifier_plantvillage_0_split_3
I0403 18:07:31.020737  6602 net.cpp:141] Setting up loss3/classifier_plantvillage_loss3/classifier_plantvillage_0_split
I0403 18:07:31.020762  6602 net.cpp:148] Top shape: 24 38 (912)
I0403 18:07:31.020781  6602 net.cpp:148] Top shape: 24 38 (912)
I0403 18:07:31.020798  6602 net.cpp:148] Top shape: 24 38 (912)
I0403 18:07:31.020814  6602 net.cpp:148] Top shape: 24 38 (912)
I0403 18:07:31.020829  6602 net.cpp:156] Memory required for data: 1346079072
I0403 18:07:31.020845  6602 layer_factory.hpp:77] Creating layer loss1/loss
I0403 18:07:31.020869  6602 net.cpp:91] Creating Layer loss1/loss
I0403 18:07:31.020886  6602 net.cpp:425] loss1/loss <- loss1/classifier_plantvillage_loss1/classifier_plantvillage_0_split_0
I0403 18:07:31.020920  6602 net.cpp:425] loss1/loss <- label_data_1_split_0
…
