…
I0403 18:40:58.054400  7257 net.cpp:313] The NetState phase (1) differed from the phase (0) specified by a rule in layer data
I0403 18:40:58.055558  7257 net.cpp:49] Initializing net from parameters: 
state {
  phase: TEST
}
layer {
  name: "data"
  type: "Data"
  top: "data"
  top: "label"
  include {
    phase: TEST
  }
  transform_param {
    mirror: false
    crop_size: 224
    mean_file: "/home/mohanty/data/final_dataset/lmdb/segmented-50-50/mean.binaryproto"
  }
  data_param {
    source: "/home/mohanty/data/final_dataset/lmdb/segmented-50-50/test_db"
    batch_size: 24
    backend: LMDB
  }
}
layer {
  name: "conv1/7x7_s2"
  type: "Convolution"
  bottom: "data"
  top: "conv1/7x7_s2"
  param {
    lr_mult: 1
    decay_mult: 1
  }
  param {
    lr_mult: 2
    decay_mult: 0
  }
  convolution_param {
    num_output: 64
    pad: 3
    kernel_size: 7
    stride: 2
    weight_filler {
      type: "xavier"
      std: 0.1
    }
    bias_filler {
      type: "constant"
      value: 0.2
    }
  }
}
layer {
  name: "conv1/relu_7x7"
  type: "ReLU"
  bottom: "conv1/7x7_s2"
  top: "conv1/7x7_s2"
}
layer {
  name: "pool1/3x3_s2"
  type: "Pooling"
  bottom: "conv1/7x7_s2"
  top: "pool1/3x3_s2"
  pooling_param {
    pool: MAX
    kernel_size: 3
    stride: 2
  }
}
layer {
  name: "pool1/norm1"
  type: "LRN"
  bottom: "pool1/3x3_s2"
  top: "pool1/norm1"
  lrn_param {
    local_size: 5
    alpha: 0.0001
    beta: 0.75
  }
}
layer {
  name: "conv2/3x3_reduce"
  type: "Convolution"
  bottom: "pool1/norm1"
  top: "conv2/3x3_reduce"
  param {
    lr_mult: 1
    decay_mult: 1
  }
  param {
    lr_mult: 2
    decay_mult: 0
  }
  convolution_param {
    num_output: 64
    kernel_size: 1
    weight_filler {
      type: "xavier"
      std: 0.1
    }
    bias_filler {
      type: "constant"
      value: 0.2
    }
  }
}
layer {
  name: "conv2/relu_3x3_reduce"
  type: "ReLU"
  bottom: "conv2/3x3_reduce"
  top: "conv2/3x3_reduce"
}
layer {
  name: "conv2/3x3"
  type: "Convolution"
  bottom: "conv2/3x3_reduce"
  top: "conv2/3x3"
  param {
    lr_mult: 1
    decay_mult: 1
  }
  param {
    lr_mult: 2
    decay_mult: 0
  }
  convolution_param {
    num_output: 192
    pad: 1
    kernel_size: 3
    weight_filler {
      type: "xavier"
      std: 0.03
    }
    bias_filler {
      type: "constant"
      value: 0.2
    }
  }
}
layer {
  name: "conv2/relu_3x3"
  type: "ReLU"
  bottom: "conv2/3x3"
  top: "conv2/3x3"
}
layer {
  name: "conv2/norm2"
  type: "LRN"
  bottom: "conv2/3x3"
  top: "conv2/norm2"
  lrn_param {
    local_size: 5
    alpha: 0.0001
    beta: 0.75
  }
}
layer {
  name: "pool2/3x3_s2"
  type: "Pooling"
  bottom: "conv2/norm2"
  top: "pool2/3x3_s2"
  pooling_param {
    pool: MAX
    kernel_size: 3
    stride: 2
  }
}
layer {
  name: "inception_3a/1x1"
  type: "Convolution"
  bottom: "pool2/3x3_s2"
  top: "inception_3a/1x1"
  param {
    lr_mult: 1
    decay_mult: 1
  }
  param {
    lr_mult: 2
    decay_mult: 0
  }
  convolution_param {
    num_output: 64
    kernel_size: 1
    weight_filler {
      type: "xavier"
      std: 0.03
    }
    bias_filler {
      type: "constant"
      value: 0.2
    }
  }
}
layer {
  name: "inception_3a/relu_1x1"
  type: "ReLU"
  bottom: "inception_3a/1x1"
  top: "inception_3a/1x1"
}
layer {
  name: "inception_3a/3x3_reduce"
  type: "Convolution"
  bottom: "pool2/3x3_s2"
  top: "inception_3a/3x3_reduce"
  param {
    lr_mult: 1
    decay_mult: 1
  }
  param {
    lr_mult: 2
    decay_mult: 0
  }
  convolution_param {
    num_output: 96
    kernel_size: 1
    weight_filler {
      type: "xavier"
      std: 0.09
    }
    bias_filler {
      type: "constant"
      value: 0.2
    }
  }
}
layer {
  name: "inception_3a/relu_3x3_reduce"
  type: "ReLU"
  bottom: "inception_3a/3x3_reduce"
  top: "inception_3a/3x3_reduce"
}
layer {
  name: "inception_3a/3x3"
  type: "Convolution"
  bottom: "inception_3a/3x3_reduce"
  top: "inception_3a/3x3"
  param {
    lr_mult: 1
    decay_mult: 1
  }
  param {
    lr_mult: 2
    decay_mult: 0
  }
  convolution_param {
    num_output: 128
    pad: 1
    kernel_size: 3
    weight_filler {
      type: "xavier"
      std: 0.03
    }
    bias_filler {
      type: "constant"
      value: 0.2
    }
  }
}
layer {
  name: "inception_3a/relu_3x3"
  type: "ReLU"
  bottom: "inception_3a/3x3"
  top: "inception_3a/3x3"
}
layer {
  name: "inception_3a/5x5_reduce"
  type: "Convolution"
  bottom: "pool2/3x3_s2"
  top: "inception_3a/5x5_reduce"
  param {
    lr_mult: 1
    decay_mult: 1
  }
  param {
    lr_mult: 2
    decay_mult: 0
  }
  convolution_param {
    num_output: 16
    kernel_size: 1
    weight_filler {
      type: "xavier"
      std: 0.2
    }
    bias_filler {
      type: "constant"
      value: 0.2
    }
  }
}
layer {
  name: "inception_3a/relu_5x5_reduce"
  type: "ReLU"
  bottom: "inception_3a/5x5_reduce"
  top: "inception_3a/5x5_reduce"
}
layer {
  name: "inception_3a/5x5"
  type: "Convolution"
  bottom: "inception_3a/5x5_reduce"
  top: "inception_3a/5x5"
  param {
    lr_mult: 1
    decay_mult: 1
  }
  param {
    lr_mult: 2
    decay_mult: 0
  }
  convolution_param {
    num_output: 32
    pad: 2
    kernel_size: 5
    weight_filler {
      type: "xavier"
      std: 0.03
    }
    bias_filler {
      type: "constant"
      value: 0.2
    }
  }
}
layer {
  name: "inception_3a/relu_5x5"
  type: "ReLU"
  bottom: "inception_3a/5x5"
  top: "inception_3a/5x5"
}
layer {
  name: "inception_3a/pool"
  type: "Pooling"
  bottom: "pool2/3x3_s2"
  top: "inception_3a/pool"
  pooling_param {
    pool: MAX
    kernel_size: 3
    stride: 1
    pad: 1
  }
}
layer {
  name: "inception_3a/pool_proj"
  type: "Convolution"
  bottom: "inception_3a/pool"
  top: "inception_3a/pool_proj"
  param {
    lr_mult: 1
    decay_mult: 1
  }
  param {
    lr_mult: 2
    decay_mult: 0
  }
  convolution_param {
    num_output: 32
    kernel_size: 1
    weight_filler {
      type: "xavier"
      std: 0.1
    }
    bias_filler {
      type: "constant"
      value: 0.2
    }
  }
}
layer {
  name: "inception_3a/relu_pool_proj"
  type: "ReLU"
  bottom: "inception_3a/pool_proj"
  top: "inception_3a/pool_proj"
}
layer {
  name: "inception_3a/output"
  type: "Concat"
  bottom: "inception_3a/1x1"
  bottom: "inception_3a/3x3"
  bottom: "inception_3a/5x5"
  bottom: "inception_3a/pool_proj"
  top: "inception_3a/output"
}
layer {
  name: "inception_3b/1x1"
  type: "Convolution"
  bottom: "inception_3a/output"
  top: "inception_3b/1x1"
  param {
    lr_mult: 1
    decay_mult: 1
  }
  param {
    lr_mult: 2
    decay_mult: 0
  }
  convolution_param {
    num_output: 128
    kernel_size: 1
    weight_filler {
      type: "xavier"
      std: 0.03
    }
    bias_filler {
      type: "constant"
      value: 0.2
    }
  }
}
layer {
  name: "inception_3b/relu_1x1"
  type: "ReLU"
  bottom: "inception_3b/1x1"
  top: "inception_3b/1x1"
}
layer {
  name: "inception_3b/3x3_reduce"
  type: "Convolution"
  bottom: "inception_3a/output"
  top: "inception_3b/3x3_reduce"
  param {
    lr_mult: 1
    decay_mult: 1
  }
  param {
    lr_mult: 2
    decay_mult: 0
  }
  convolution_param {
    num_output: 128
    kernel_size: 1
    weight_filler {
      type: "xavier"
      std: 0.09
    }
    bias_filler {
      type: "constant"
      value: 0.2
    }
  }
}
layer {
  name: "inception_3b/relu_3x3_reduce"
  type: "ReLU"
  bottom: "inception_3b/3x3_reduce"
  top: "inception_3b/3x3_reduce"
}
layer {
  name: "inception_3b/3x3"
  type: "Convolution"
  bottom: "inception_3b/3x3_reduce"
  top: "inception_3b/3x3"
  param {
    lr_mult: 1
    decay_mult: 1
  }
  param {
    lr_mult: 2
    decay_mult: 0
  }
  convolution_param {
    num_output: 192
    pad: 1
    kernel_size: 3
    weight_filler {
      type: "xavier"
      std: 0.03
    }
    bias_filler {
      type: "constant"
      value: 0.2
    }
  }
}
layer {
  name: "inception_3b/relu_3x3"
  type: "ReLU"
  bottom: "inception_3b/3x3"
  top: "inception_3b/3x3"
}
layer {
  name: "inception_3b/5x5_reduce"
  type: "Convolution"
  bottom: "inception_3a/output"
  top: "inception_3b/5x5_reduce"
  param {
    lr_mult: 1
    decay_mult: 1
  }
  param {
    lr_mult: 2
    decay_mult: 0
  }
  convolution_param {
    num_output: 32
    kernel_size: 1
    weight_filler {
      type: "xavier"
      std: 0.2
    }
    bias_filler {
      type: "constant"
      value: 0.2
    }
  }
}
layer {
  name: "inception_3b/relu_5x5_reduce"
  type: "ReLU"
  bottom: "inception_3b/5x5_reduce"
  top: "inception_3b/5x5_reduce"
}
layer {
  name: "inception_3b/5x5"
  type: "Convolution"
  bottom: "inception_3b/5x5_reduce"
  top: "inception_3b/5x5"
  param {
    lr_mult: 1
    decay_mult: 1
  }
  param {
    lr_mult: 2
    decay_mult: 0
  }
  convolution_param {
    num_output: 96
    pad: 2
    kernel_size: 5
    weight_filler {
      type: "xavier"
      std: 0.03
    }
    bias_filler {
      type: "constant"
      value: 0.2
    }
  }
}
layer {
  name: "inception_3b/relu_5x5"
  type: "ReLU"
  bottom: "inception_3b/5x5"
  top: "inception_3b/5x5"
}
layer {
  name: "inception_3b/pool"
  type: "Pooling"
  bottom: "inception_3a/output"
  top: "inception_3b/pool"
  pooling_param {
    pool: MAX
    kernel_size: 3
    stride: 1
    pad: 1
  }
}
layer {
  name: "inception_3b/pool_proj"
  type: "Convolution"
  bottom: "inception_3b/pool"
  top: "inception_3b/pool_proj"
  param {
    lr_mult: 1
    decay_mult: 1
  }
  param {
    lr_mult: 2
    decay_mult: 0
  }
  convolution_param {
    num_output: 64
    kernel_size: 1
    weight_filler {
      type: "xavier"
      std: 0.1
    }
    bias_filler {
      type: "constant"
      value: 0.2
    }
  }
}
layer {
  name: "inception_3b/relu_pool_proj"
  type: "ReLU"
  bottom: "inception_3b/pool_proj"
  top: "inception_3b/pool_proj"
}
layer {
  name: "inception_3b/output"
  type: "Concat"
  bottom: "inception_3b/1x1"
  bottom: "inception_3b/3x3"
  bottom: "inception_3b/5x5"
  bottom: "inception_3b/pool_proj"
  top: "inception_3b/output"
}
layer {
  name: "pool3/3x3_s2"
  type: "Pooling"
  bottom: "inception_3b/output"
  top: "pool3/3x3_s2"
  pooling_param {
    pool: MAX
    kernel_size: 3
    stride: 2
  }
}
layer {
  name: "inception_4a/1x1"
  type: "Convolution"
  bottom: "pool3/3x3_s2"
  top: "inception_4a/1x1"
  param {
    lr_mult: 1
    decay_mult: 1
  }
  param {
    lr_mult: 2
    decay_mult: 0
  }
  convolution_param {
    num_output: 192
    kernel_size: 1
    weight_filler {
      type: "xavier"
      std: 0.03
    }
    bias_filler {
      type: "constant"
      value: 0.2
    }
  }
}
layer {
  name: "inception_4a/relu_1x1"
  type: "ReLU"
  bottom: "inception_4a/1x1"
  top: "inception_4a/1x1"
}
layer {
  name: "inception_4a/3x3_reduce"
  type: "Convolution"
  bottom: "pool3/3x3_s2"
  top: "inception_4a/3x3_reduce"
  param {
    lr_mult: 1
    decay_mult: 1
  }
  param {
    lr_mult: 2
    decay_mult: 0
  }
  convolution_param {
    num_output: 96
    kernel_size: 1
    weight_filler {
      type: "xavier"
      std: 0.09
    }
    bias_filler {
      type: "constant"
      value: 0.2
    }
  }
}
layer {
  name: "inception_4a/relu_3x3_reduce"
  type: "ReLU"
  bottom: "inception_4a/3x3_reduce"
  top: "inception_4a/3x3_reduce"
}
layer {
  name: "inception_4a/3x3"
  type: "Convolution"
  bottom: "inception_4a/3x3_reduce"
  top: "inception_4a/3x3"
  param {
    lr_mult: 1
    decay_mult: 1
  }
  param {
    lr_mult: 2
    decay_mult: 0
  }
  convolution_param {
    num_output: 208
    pad: 1
    kernel_size: 3
    weight_filler {
      type: "xavier"
      std: 0.03
    }
    bias_filler {
      type: "constant"
      value: 0.2
    }
  }
}
layer {
  name: "inception_4a/relu_3x3"
  type: "ReLU"
  bottom: "inception_4a/3x3"
  top: "inception_4a/3x3"
}
layer {
  name: "inception_4a/5x5_reduce"
  type: "Convolution"
  bottom: "pool3/3x3_s2"
  top: "inception_4a/5x5_reduce"
  param {
    lr_mult: 1
    decay_mult: 1
  }
  param {
    lr_mult: 2
    decay_mult: 0
  }
  convolution_param {
    num_output: 16
    kernel_size: 1
    weight_filler {
      type: "xavier"
      std: 0.2
    }
    bias_filler {
      type: "constant"
      value: 0.2
    }
  }
}
layer {
  name: "inception_4a/relu_5x5_reduce"
  type: "ReLU"
  bottom: "inception_4a/5x5_reduce"
  top: "inception_4a/5x5_reduce"
}
layer {
  name: "inception_4a/5x5"
  type: "Convolution"
  bottom: "inception_4a/5x5_reduce"
  top: "inception_4a/5x5"
  param {
    lr_mult: 1
    decay_mult: 1
  }
  param {
    lr_mult: 2
    decay_mult: 0
  }
  convolution_param {
    num_output: 48
    pad: 2
    kernel_size: 5
    weight_filler {
      type: "xavier"
      std: 0.03
    }
    bias_filler {
      type: "constant"
      value: 0.2
    }
  }
}
layer {
  name: "inception_4a/relu_5x5"
  type: "ReLU"
  bottom: "inception_4a/5x5"
  top: "inception_4a/5x5"
}
layer {
  name: "inception_4a/pool"
  type: "Pooling"
  bottom: "pool3/3x3_s2"
  top: "inception_4a/pool"
  pooling_param {
    pool: MAX
    kernel_size: 3
    stride: 1
    pad: 1
  }
}
layer {
  name: "inception_4a/pool_proj"
  type: "Convolution"
  bottom: "inception_4a/pool"
  top: "inception_4a/pool_proj"
  param {
    lr_mult: 1
    decay_mult: 1
  }
  param {
    lr_mult: 2
    decay_mult: 0
  }
  convolution_param {
    num_output: 64
    kernel_size: 1
    weight_filler {
      type: "xavier"
      std: 0.1
    }
    bias_filler {
      type: "constant"
      value: 0.2
    }
  }
}
layer {
  name: "inception_4a/relu_pool_proj"
  type: "ReLU"
  bottom: "inception_4a/pool_proj"
  top: "inception_4a/pool_proj"
}
layer {
  name: "inception_4a/output"
  type: "Concat"
  bottom: "inception_4a/1x1"
  bottom: "inception_4a/3x3"
  bottom: "inception_4a/5x5"
  bottom: "inception_4a/pool_proj"
  top: "inception_4a/output"
}
layer {
  name: "loss1/ave_pool"
  type: "Pooling"
  bottom: "inception_4a/output"
  top: "loss1/ave_pool"
  pooling_param {
    pool: AVE
    kernel_size: 5
    stride: 3
  }
}
layer {
  name: "loss1/conv"
  type: "Convolution"
  bottom: "loss1/ave_pool"
  top: "loss1/conv"
  param {
    lr_mult: 1
    decay_mult: 1
  }
  param {
    lr_mult: 2
    decay_mult: 0
  }
  convolution_param {
    num_output: 128
    kernel_size: 1
    weight_filler {
      type: "xavier"
      std: 0.08
    }
    bias_filler {
      type: "constant"
      value: 0.2
    }
  }
}
layer {
  name: "loss1/relu_conv"
  type: "ReLU"
  bottom: "loss1/conv"
  top: "loss1/conv"
}
layer {
  name: "loss1/fc"
  type: "InnerProduct"
  bottom: "loss1/conv"
  top: "loss1/fc"
  param {
    lr_mult: 1
    decay_mult: 1
  }
  param {
    lr_mult: 2
    decay_mult: 0
  }
  inner_product_param {
    num_output: 1024
    weight_filler {
      type: "xavier"
      std: 0.02
    }
    bias_filler {
      type: "constant"
      value: 0.2
    }
  }
}
layer {
  name: "loss1/relu_fc"
  type: "ReLU"
  bottom: "loss1/fc"
  top: "loss1/fc"
}
layer {
  name: "loss1/drop_fc"
  type: "Dropout"
  bottom: "loss1/fc"
  top: "loss1/fc"
  dropout_param {
    dropout_ratio: 0.7
  }
}
layer {
  name: "loss1/classifier_plantvillage"
  type: "InnerProduct"
  bottom: "loss1/fc"
  top: "loss1/classifier_plantvillage"
  param {
    lr_mult: 1
    decay_mult: 1
  }
  param {
    lr_mult: 2
    decay_mult: 0
  }
  inner_product_param {
    num_output: 38
    weight_filler {
      type: "xavier"
      std: 0.0009765625
    }
    bias_filler {
      type: "constant"
      value: 0
    }
  }
}
layer {
  name: "inception_4b/1x1"
  type: "Convolution"
  bottom: "inception_4a/output"
  top: "inception_4b/1x1"
  param {
    lr_mult: 1
    decay_mult: 1
  }
  param {
    lr_mult: 2
    decay_mult: 0
  }
  convolution_param {
    num_output: 160
    kernel_size: 1
    weight_filler {
      type: "xavier"
      std: 0.03
    }
    bias_filler {
      type: "constant"
      value: 0.2
    }
  }
}
layer {
  name: "inception_4b/relu_1x1"
  type: "ReLU"
  bottom: "inception_4b/1x1"
  top: "inception_4b/1x1"
}
layer {
  name: "inception_4b/3x3_reduce"
  type: "Convolution"
  bottom: "inception_4a/output"
  top: "inception_4b/3x3_reduce"
  param {
    lr_mult: 1
    decay_mult: 1
  }
  param {
    lr_mult: 2
    decay_mult: 0
  }
  convolution_param {
    num_output: 112
    kernel_size: 1
    weight_filler {
      type: "xavier"
      std: 0.09
    }
    bias_filler {
      type: "constant"
      value: 0.2
    }
  }
}
layer {
  name: "inception_4b/relu_3x3_reduce"
  type: "ReLU"
  bottom: "inception_4b/3x3_reduce"
  top: "inception_4b/3x3_reduce"
}
layer {
  name: "inception_4b/3x3"
  type: "Convolution"
  bottom: "inception_4b/3x3_reduce"
  top: "inception_4b/3x3"
  param {
    lr_mult: 1
    decay_mult: 1
  }
  param {
    lr_mult: 2
    decay_mult: 0
  }
  convolution_param {
    num_output: 224
    pad: 1
    kernel_size: 3
    weight_filler {
      type: "xavier"
      std: 0.03
    }
    bias_filler {
      type: "constant"
      value: 0.2
    }
  }
}
layer {
  name: "inception_4b/relu_3x3"
  type: "ReLU"
  bottom: "inception_4b/3x3"
  top: "inception_4b/3x3"
}
layer {
  name: "inception_4b/5x5_reduce"
  type: "Convolution"
  bottom: "inception_4a/output"
  top: "inception_4b/5x5_reduce"
  param {
    lr_mult: 1
    decay_mult: 1
  }
  param {
    lr_mult: 2
    decay_mult: 0
  }
  convolution_param {
    num_output: 24
    kernel_size: 1
    weight_filler {
      type: "xavier"
      std: 0.2
    }
    bias_filler {
      type: "constant"
      value: 0.2
    }
  }
}
layer {
  name: "inception_4b/relu_5x5_reduce"
  type: "ReLU"
  bottom: "inception_4b/5x5_reduce"
  top: "inception_4b/5x5_reduce"
}
layer {
  name: "inception_4b/5x5"
  type: "Convolution"
  bottom: "inception_4b/5x5_reduce"
  top: "inception_4b/5x5"
  param {
    lr_mult: 1
    decay_mult: 1
  }
  param {
    lr_mult: 2
    decay_mult: 0
  }
  convolution_param {
    num_output: 64
    pad: 2
    kernel_size: 5
    weight_filler {
      type: "xavier"
      std: 0.03
    }
    bias_filler {
      type: "constant"
      value: 0.2
    }
  }
}
layer {
  name: "inception_4b/relu_5x5"
  type: "ReLU"
  bottom: "inception_4b/5x5"
  top: "inception_4b/5x5"
}
layer {
  name: "inception_4b/pool"
  type: "Pooling"
  bottom: "inception_4a/output"
  top: "inception_4b/pool"
  pooling_param {
    pool: MAX
    kernel_size: 3
    stride: 1
    pad: 1
  }
}
layer {
  name: "inception_4b/pool_proj"
  type: "Convolution"
  bottom: "inception_4b/pool"
  top: "inception_4b/pool_proj"
  param {
    lr_mult: 1
    decay_mult: 1
  }
  param {
    lr_mult: 2
    decay_mult: 0
  }
  convolution_param {
    num_output: 64
    kernel_size: 1
    weight_filler {
      type: "xavier"
      std: 0.1
    }
    bias_filler {
      type: "constant"
      value: 0.2
    }
  }
}
layer {
  name: "inception_4b/relu_pool_proj"
  type: "ReLU"
  bottom: "inception_4b/pool_proj"
  top: "inception_4b/pool_proj"
}
layer {
  name: "inception_4b/output"
  type: "Concat"
  bottom: "inception_4b/1x1"
  bottom: "inception_4b/3x3"
  bottom: "inception_4b/5x5"
  bottom: "inception_4b/pool_proj"
  top: "inception_4b/output"
}
layer {
  name: "inception_4c/1x1"
  type: "Convolution"
  bottom: "inception_4b/output"
  top: "inception_4c/1x1"
  param {
    lr_mult: 1
    decay_mult: 1
  }
  param {
    lr_mult: 2
    decay_mult: 0
  }
  convolution_param {
    num_output: 128
    kernel_size: 1
    weight_filler {
      type: "xavier"
      std: 0.03
    }
    bias_filler {
      type: "constant"
      value: 0.2
    }
  }
}
layer {
  name: "inception_4c/relu_1x1"
  type: "ReLU"
  bottom: "inception_4c/1x1"
  top: "inception_4c/1x1"
}
layer {
  name: "inception_4c/3x3_reduce"
  type: "Convolution"
  bottom: "inception_4b/output"
  top: "inception_4c/3x3_reduce"
  param {
    lr_mult: 1
    decay_mult: 1
  }
  param {
    lr_mult: 2
    decay_mult: 0
  }
  convolution_param {
    num_output: 128
    kernel_size: 1
    weight_filler {
      type: "xavier"
      std: 0.09
    }
    bias_filler {
      type: "constant"
      value: 0.2
    }
  }
}
layer {
  name: "inception_4c/relu_3x3_reduce"
  type: "ReLU"
  bottom: "inception_4c/3x3_reduce"
  top: "inception_4c/3x3_reduce"
}
layer {
  name: "inception_4c/3x3"
  type: "Convolution"
  bottom: "inception_4c/3x3_reduce"
  top: "inception_4c/3x3"
  param {
    lr_mult: 1
    decay_mult: 1
  }
  param {
    lr_mult: 2
    decay_mult: 0
  }
  convolution_param {
    num_output: 256
    pad: 1
    kernel_size: 3
    weight_filler {
      type: "xavier"
      std: 0.03
    }
    bias_filler {
      type: "constant"
      value: 0.2
    }
  }
}
layer {
  name: "inception_4c/relu_3x3"
  type: "ReLU"
  bottom: "inception_4c/3x3"
  top: "inception_4c/3x3"
}
layer {
  name: "inception_4c/5x5_reduce"
  type: "Convolution"
  bottom: "inception_4b/output"
  top: "inception_4c/5x5_reduce"
  param {
    lr_mult: 1
    decay_mult: 1
  }
  param {
    lr_mult: 2
    decay_mult: 0
  }
  convolution_param {
    num_output: 24
    kernel_size: 1
    weight_filler {
      type: "xavier"
      std: 0.2
    }
    bias_filler {
      type: "constant"
      value: 0.2
    }
  }
}
layer {
  name: "inception_4c/relu_5x5_reduce"
  type: "ReLU"
  bottom: "inception_4c/5x5_reduce"
  top: "inception_4c/5x5_reduce"
}
layer {
  name: "inception_4c/5x5"
  type: "Convolution"
  bottom: "inception_4c/5x5_reduce"
  top: "inception_4c/5x5"
  param {
    lr_mult: 1
    decay_mult: 1
  }
  param {
    lr_mult: 2
    decay_mult: 0
  }
  convolution_param {
    num_output: 64
    pad: 2
    kernel_size: 5
    weight_filler {
      type: "xavier"
      std: 0.03
    }
    bias_filler {
      type: "constant"
      value: 0.2
    }
  }
}
layer {
  name: "inception_4c/relu_5x5"
  type: "ReLU"
  bottom: "inception_4c/5x5"
  top: "inception_4c/5x5"
}
layer {
  name: "inception_4c/pool"
  type: "Pooling"
  bottom: "inception_4b/output"
  top: "inception_4c/pool"
  pooling_param {
    pool: MAX
    kernel_size: 3
    stride: 1
    pad: 1
  }
}
layer {
  name: "inception_4c/pool_proj"
  type: "Convolution"
  bottom: "inception_4c/pool"
  top: "inception_4c/pool_proj"
  param {
    lr_mult: 1
    decay_mult: 1
  }
  param {
    lr_mult: 2
    decay_mult: 0
  }
  convolution_param {
    num_output: 64
    kernel_size: 1
    weight_filler {
      type: "xavier"
      std: 0.1
    }
    bias_filler {
      type: "constant"
      value: 0.2
    }
  }
}
layer {
  name: "inception_4c/relu_pool_proj"
  type: "ReLU"
  bottom: "inception_4c/pool_proj"
  top: "inception_4c/pool_proj"
}
layer {
  name: "inception_4c/output"
  type: "Concat"
  bottom: "inception_4c/1x1"
  bottom: "inception_4c/3x3"
  bottom: "inception_4c/5x5"
  bottom: "inception_4c/pool_proj"
  top: "inception_4c/output"
}
layer {
  name: "inception_4d/1x1"
  type: "Convolution"
  bottom: "inception_4c/output"
  top: "inception_4d/1x1"
  param {
    lr_mult: 1
    decay_mult: 1
  }
  param {
    lr_mult: 2
    decay_mult: 0
  }
  convolution_param {
    num_output: 112
    kernel_size: 1
    weight_filler {
      type: "xavier"
      std: 0.03
    }
    bias_filler {
      type: "constant"
      value: 0.2
    }
  }
}
layer {
  name: "inception_4d/relu_1x1"
  type: "ReLU"
  bottom: "inception_4d/1x1"
  top: "inception_4d/1x1"
}
layer {
  name: "inception_4d/3x3_reduce"
  type: "Convolution"
  bottom: "inception_4c/output"
  top: "inception_4d/3x3_reduce"
  param {
    lr_mult: 1
    decay_mult: 1
  }
  param {
    lr_mult: 2
    decay_mult: 0
  }
  convolution_param {
    num_output: 144
    kernel_size: 1
    weight_filler {
      type: "xavier"
      std: 0.09
    }
    bias_filler {
      type: "constant"
      value: 0.2
    }
  }
}
layer {
  name: "inception_4d/relu_3x3_reduce"
  type: "ReLU"
  bottom: "inception_4d/3x3_reduce"
  top: "inception_4d/3x3_reduce"
}
layer {
  name: "inception_4d/3x3"
  type: "Convolution"
  bottom: "inception_4d/3x3_reduce"
  top: "inception_4d/3x3"
  param {
    lr_mult: 1
    decay_mult: 1
  }
  param {
    lr_mult: 2
    decay_mult: 0
  }
  convolution_param {
    num_output: 288
    pad: 1
    kernel_size: 3
    weight_filler {
      type: "xavier"
      std: 0.03
    }
    bias_filler {
      type: "constant"
      value: 0.2
    }
  }
}
layer {
  name: "inception_4d/relu_3x3"
  type: "ReLU"
  bottom: "inception_4d/3x3"
  top: "inception_4d/3x3"
}
layer {
  name: "inception_4d/5x5_reduce"
  type: "Convolution"
  bottom: "inception_4c/output"
  top: "inception_4d/5x5_reduce"
  param {
    lr_mult: 1
    decay_mult: 1
  }
  param {
    lr_mult: 2
    decay_mult: 0
  }
  convolution_param {
    num_output: 32
    kernel_size: 1
    weight_filler {
      type: "xavier"
      std: 0.2
    }
    bias_filler {
      type: "constant"
      value: 0.2
    }
  }
}
layer {
  name: "inception_4d/relu_5x5_reduce"
  type: "ReLU"
  bottom: "inception_4d/5x5_reduce"
  top: "inception_4d/5x5_reduce"
}
layer {
  name: "inception_4d/5x5"
  type: "Convolution"
  bottom: "inception_4d/5x5_reduce"
  top: "inception_4d/5x5"
  param {
    lr_mult: 1
    decay_mult: 1
  }
  param {
    lr_mult: 2
    decay_mult: 0
  }
  convolution_param {
    num_output: 64
    pad: 2
    kernel_size: 5
    weight_filler {
      type: "xavier"
      std: 0.03
    }
    bias_filler {
      type: "constant"
      value: 0.2
    }
  }
}
layer {
  name: "inception_4d/relu_5x5"
  type: "ReLU"
  bottom: "inception_4d/5x5"
  top: "inception_4d/5x5"
}
layer {
  name: "inception_4d/pool"
  type: "Pooling"
  bottom: "inception_4c/output"
  top: "inception_4d/pool"
  pooling_param {
    pool: MAX
    kernel_size: 3
    stride: 1
    pad: 1
  }
}
layer {
  name: "inception_4d/pool_proj"
  type: "Convolution"
  bottom: "inception_4d/pool"
  top: "inception_4d/pool_proj"
  param {
    lr_mult: 1
    decay_mult: 1
  }
  param {
    lr_mult: 2
    decay_mult: 0
  }
  convolution_param {
    num_output: 64
    kernel_size: 1
    weight_filler {
      type: "xavier"
      std: 0.1
    }
    bias_filler {
      type: "constant"
      value: 0.2
    }
  }
}
layer {
  name: "inception_4d/relu_pool_proj"
  type: "ReLU"
  bottom: "inception_4d/pool_proj"
  top: "inception_4d/pool_proj"
}
layer {
  name: "inception_4d/output"
  type: "Concat"
  bottom: "inception_4d/1x1"
  bottom: "inception_4d/3x3"
  bottom: "inception_4d/5x5"
  bottom: "inception_4d/pool_proj"
  top: "inception_4d/output"
}
layer {
  name: "loss2/ave_pool"
  type: "Pooling"
  bottom: "inception_4d/output"
  top: "loss2/ave_pool"
  pooling_param {
    pool: AVE
    kernel_size: 5
    stride: 3
  }
}
layer {
  name: "loss2/conv"
  type: "Convolution"
  bottom: "loss2/ave_pool"
  top: "loss2/conv"
  param {
    lr_mult: 1
    decay_mult: 1
  }
  param {
    lr_mult: 2
    decay_mult: 0
  }
  convolution_param {
    num_output: 128
    kernel_size: 1
    weight_filler {
      type: "xavier"
      std: 0.08
    }
    bias_filler {
      type: "constant"
      value: 0.2
    }
  }
}
layer {
  name: "loss2/relu_conv"
  type: "ReLU"
  bottom: "loss2/conv"
  top: "loss2/conv"
}
layer {
  name: "loss2/fc"
  type: "InnerProduct"
  bottom: "loss2/conv"
  top: "loss2/fc"
  param {
    lr_mult: 1
    decay_mult: 1
  }
  param {
    lr_mult: 2
    decay_mult: 0
  }
  inner_product_param {
    num_output: 1024
    weight_filler {
      type: "xavier"
      std: 0.02
    }
    bias_filler {
      type: "constant"
      value: 0.2
    }
  }
}
layer {
  name: "loss2/relu_fc"
  type: "ReLU"
  bottom: "loss2/fc"
  top: "loss2/fc"
}
layer {
  name: "loss2/drop_fc"
  type: "Dropout"
  bottom: "loss2/fc"
  top: "loss2/fc"
  dropout_param {
    dropout_ratio: 0.7
  }
}
layer {
  name: "loss2/classifier_plantvillage"
  type: "InnerProduct"
  bottom: "loss2/fc"
  top: "loss2/classifier_plantvillage"
  param {
    lr_mult: 1
    decay_mult: 1
  }
  param {
    lr_mult: 2
    decay_mult: 0
  }
  inner_product_param {
    num_output: 38
    weight_filler {
      type: "xavier"
      std: 0.0009765625
    }
    bias_filler {
      type: "constant"
      value: 0
    }
  }
}
layer {
  name: "inception_4e/1x1"
  type: "Convolution"
  bottom: "inception_4d/output"
  top: "inception_4e/1x1"
  param {
    lr_mult: 1
    decay_mult: 1
  }
  param {
    lr_mult: 2
    decay_mult: 0
  }
  convolution_param {
    num_output: 256
    kernel_size: 1
    weight_filler {
      type: "xavier"
      std: 0.03
    }
    bias_filler {
      type: "constant"
      value: 0.2
    }
  }
}
layer {
  name: "inception_4e/relu_1x1"
  type: "ReLU"
  bottom: "inception_4e/1x1"
  top: "inception_4e/1x1"
}
layer {
  name: "inception_4e/3x3_reduce"
  type: "Convolution"
  bottom: "inception_4d/output"
  top: "inception_4e/3x3_reduce"
  param {
    lr_mult: 1
    decay_mult: 1
  }
  param {
    lr_mult: 2
    decay_mult: 0
  }
  convolution_param {
    num_output: 160
    kernel_size: 1
    weight_filler {
      type: "xavier"
      std: 0.09
    }
    bias_filler {
      type: "constant"
      value: 0.2
    }
  }
}
layer {
  name: "inception_4e/relu_3x3_reduce"
  type: "ReLU"
  bottom: "inception_4e/3x3_reduce"
  top: "inception_4e/3x3_reduce"
}
layer {
  name: "inception_4e/3x3"
  type: "Convolution"
  bottom: "inception_4e/3x3_reduce"
  top: "inception_4e/3x3"
  param {
    lr_mult: 1
    decay_mult: 1
  }
  param {
    lr_mult: 2
    decay_mult: 0
  }
  convolution_param {
    num_output: 320
    pad: 1
    kernel_size: 3
    weight_filler {
      type: "xavier"
      std: 0.03
    }
    bias_filler {
      type: "constant"
      value: 0.2
    }
  }
}
layer {
  name: "inception_4e/relu_3x3"
  type: "ReLU"
  bottom: "inception_4e/3x3"
  top: "inception_4e/3x3"
}
layer {
  name: "inception_4e/5x5_reduce"
  type: "Convolution"
  bottom: "inception_4d/output"
  top: "inception_4e/5x5_reduce"
  param {
    lr_mult: 1
    decay_mult: 1
  }
  param {
    lr_mult: 2
    decay_mult: 0
  }
  convolution_param {
    num_output: 32
    kernel_size: 1
    weight_filler {
      type: "xavier"
      std: 0.2
    }
    bias_filler {
      type: "constant"
      value: 0.2
    }
  }
}
layer {
  name: "inception_4e/relu_5x5_reduce"
  type: "ReLU"
  bottom: "inception_4e/5x5_reduce"
  top: "inception_4e/5x5_reduce"
}
layer {
  name: "inception_4e/5x5"
  type: "Convolution"
  bottom: "inception_4e/5x5_reduce"
  top: "inception_4e/
I0403 18:40:58.057397  7257 layer_factory.hpp:77] Creating layer data
I0403 18:40:58.058027  7257 net.cpp:91] Creating Layer data
I0403 18:40:58.058059  7257 net.cpp:399] data -> data
I0403 18:40:58.058112  7257 net.cpp:399] data -> label
I0403 18:40:58.058148  7257 data_transformer.cpp:25] Loading mean file from: /home/mohanty/data/final_dataset/lmdb/segmented-50-50/mean.binaryproto
I0403 18:40:58.059319  7262 db_lmdb.cpp:38] Opened lmdb /home/mohanty/data/final_dataset/lmdb/segmented-50-50/test_db
I0403 18:40:58.071476  7257 data_layer.cpp:41] output data size: 24,3,224,224
I0403 18:40:58.098605  7257 net.cpp:141] Setting up data
I0403 18:40:58.098706  7257 net.cpp:148] Top shape: 24 3 224 224 (3612672)
I0403 18:40:58.098728  7257 net.cpp:148] Top shape: 24 (24)
I0403 18:40:58.098743  7257 net.cpp:156] Memory required for data: 14450784
I0403 18:40:58.098769  7257 layer_factory.hpp:77] Creating layer label_data_1_split
I0403 18:40:58.098795  7257 net.cpp:91] Creating Layer label_data_1_split
I0403 18:40:58.098814  7257 net.cpp:425] label_data_1_split <- label
I0403 18:40:58.098845  7257 net.cpp:399] label_data_1_split -> label_data_1_split_0
I0403 18:40:58.098870  7257 net.cpp:399] label_data_1_split -> label_data_1_split_1
I0403 18:40:58.098891  7257 net.cpp:399] label_data_1_split -> label_data_1_split_2
I0403 18:40:58.098912  7257 net.cpp:399] label_data_1_split -> label_data_1_split_3
I0403 18:40:58.098930  7257 net.cpp:399] label_data_1_split -> label_data_1_split_4
I0403 18:40:58.098950  7257 net.cpp:399] label_data_1_split -> label_data_1_split_5
I0403 18:40:58.098969  7257 net.cpp:399] label_data_1_split -> label_data_1_split_6
I0403 18:40:58.098989  7257 net.cpp:399] label_data_1_split -> label_data_1_split_7
I0403 18:40:58.099009  7257 net.cpp:399] label_data_1_split -> label_data_1_split_8
I0403 18:40:58.099030  7257 net.cpp:399] label_data_1_split -> label_data_1_split_9
I0403 18:40:58.099141  7257 net.cpp:141] Setting up label_data_1_split
I0403 18:40:58.099164  7257 net.cpp:148] Top shape: 24 (24)
I0403 18:40:58.099181  7257 net.cpp:148] Top shape: 24 (24)
I0403 18:40:58.099197  7257 net.cpp:148] Top shape: 24 (24)
I0403 18:40:58.099218  7257 net.cpp:148] Top shape: 24 (24)
I0403 18:40:58.099234  7257 net.cpp:148] Top shape: 24 (24)
I0403 18:40:58.099251  7257 net.cpp:148] Top shape: 24 (24)
I0403 18:40:58.099266  7257 net.cpp:148] Top shape: 24 (24)
I0403 18:40:58.099282  7257 net.cpp:148] Top shape: 24 (24)
I0403 18:40:58.099298  7257 net.cpp:148] Top shape: 24 (24)
I0403 18:40:58.099315  7257 net.cpp:148] Top shape: 24 (24)
I0403 18:40:58.099360  7257 net.cpp:156] Memory required for data: 14451744
I0403 18:40:58.099376  7257 layer_factory.hpp:77] Creating layer conv1/7x7_s2
I0403 18:40:58.099408  7257 net.cpp:91] Creating Layer conv1/7x7_s2
I0403 18:40:58.099426  7257 net.cpp:425] conv1/7x7_s2 <- data
I0403 18:40:58.099448  7257 net.cpp:399] conv1/7x7_s2 -> conv1/7x7_s2
I0403 18:40:58.246153  7257 net.cpp:141] Setting up conv1/7x7_s2
I0403 18:40:58.246264  7257 net.cpp:148] Top shape: 24 64 112 112 (19267584)
I0403 18:40:58.246284  7257 net.cpp:156] Memory required for data: 91522080
I0403 18:40:58.246312  7257 layer_factory.hpp:77] Creating layer conv1/relu_7x7
I0403 18:40:58.246340  7257 net.cpp:91] Creating Layer conv1/relu_7x7
I0403 18:40:58.246359  7257 net.cpp:425] conv1/relu_7x7 <- conv1/7x7_s2
I0403 18:40:58.246379  7257 net.cpp:386] conv1/relu_7x7 -> conv1/7x7_s2 (in-place)
I0403 18:40:58.246634  7257 net.cpp:141] Setting up conv1/relu_7x7
I0403 18:40:58.246661  7257 net.cpp:148] Top shape: 24 64 112 112 (19267584)
I0403 18:40:58.246676  7257 net.cpp:156] Memory required for data: 168592416
I0403 18:40:58.246691  7257 layer_factory.hpp:77] Creating layer pool1/3x3_s2
I0403 18:40:58.246717  7257 net.cpp:91] Creating Layer pool1/3x3_s2
I0403 18:40:58.246737  7257 net.cpp:425] pool1/3x3_s2 <- conv1/7x7_s2
I0403 18:40:58.246753  7257 net.cpp:399] pool1/3x3_s2 -> pool1/3x3_s2
I0403 18:40:58.246829  7257 net.cpp:141] Setting up pool1/3x3_s2
I0403 18:40:58.246852  7257 net.cpp:148] Top shape: 24 64 56 56 (4816896)
I0403 18:40:58.246867  7257 net.cpp:156] Memory required for data: 187860000
I0403 18:40:58.246882  7257 layer_factory.hpp:77] Creating layer pool1/norm1
I0403 18:40:58.246908  7257 net.cpp:91] Creating Layer pool1/norm1
I0403 18:40:58.246927  7257 net.cpp:425] pool1/norm1 <- pool1/3x3_s2
I0403 18:40:58.246943  7257 net.cpp:399] pool1/norm1 -> pool1/norm1
I0403 18:40:58.247234  7257 net.cpp:141] Setting up pool1/norm1
I0403 18:40:58.247263  7257 net.cpp:148] Top shape: 24 64 56 56 (4816896)
I0403 18:40:58.247279  7257 net.cpp:156] Memory required for data: 207127584
I0403 18:40:58.247294  7257 layer_factory.hpp:77] Creating layer conv2/3x3_reduce
I0403 18:40:58.247321  7257 net.cpp:91] Creating Layer conv2/3x3_reduce
I0403 18:40:58.247339  7257 net.cpp:425] conv2/3x3_reduce <- pool1/norm1
I0403 18:40:58.247356  7257 net.cpp:399] conv2/3x3_reduce -> conv2/3x3_reduce
I0403 18:40:58.248744  7257 net.cpp:141] Setting up conv2/3x3_reduce
I0403 18:40:58.248771  7257 net.cpp:148] Top shape: 24 64 56 56 (4816896)
I0403 18:40:58.248787  7257 net.cpp:156] Memory required for data: 226395168
I0403 18:40:58.248807  7257 layer_factory.hpp:77] Creating layer conv2/relu_3x3_reduce
I0403 18:40:58.248826  7257 net.cpp:91] Creating Layer conv2/relu_3x3_reduce
I0403 18:40:58.248842  7257 net.cpp:425] conv2/relu_3x3_reduce <- conv2/3x3_reduce
I0403 18:40:58.248860  7257 net.cpp:386] conv2/relu_3x3_reduce -> conv2/3x3_reduce (in-place)
I0403 18:40:58.249119  7257 net.cpp:141] Setting up conv2/relu_3x3_reduce
I0403 18:40:58.249143  7257 net.cpp:148] Top shape: 24 64 56 56 (4816896)
I0403 18:40:58.249158  7257 net.cpp:156] Memory required for data: 245662752
I0403 18:40:58.249173  7257 layer_factory.hpp:77] Creating layer conv2/3x3
I0403 18:40:58.249197  7257 net.cpp:91] Creating Layer conv2/3x3
I0403 18:40:58.249217  7257 net.cpp:425] conv2/3x3 <- conv2/3x3_reduce
I0403 18:40:58.249241  7257 net.cpp:399] conv2/3x3 -> conv2/3x3
I0403 18:40:58.251592  7257 net.cpp:141] Setting up conv2/3x3
I0403 18:40:58.251623  7257 net.cpp:148] Top shape: 24 192 56 56 (14450688)
I0403 18:40:58.251641  7257 net.cpp:156] Memory required for data: 303465504
I0403 18:40:58.251662  7257 layer_factory.hpp:77] Creating layer conv2/relu_3x3
I0403 18:40:58.251685  7257 net.cpp:91] Creating Layer conv2/relu_3x3
I0403 18:40:58.251703  7257 net.cpp:425] conv2/relu_3x3 <- conv2/3x3
I0403 18:40:58.251723  7257 net.cpp:386] conv2/relu_3x3 -> conv2/3x3 (in-place)
I0403 18:40:58.251895  7257 net.cpp:141] Setting up conv2/relu_3x3
I0403 18:40:58.251925  7257 net.cpp:148] Top shape: 24 192 56 56 (14450688)
I0403 18:40:58.251976  7257 net.cpp:156] Memory required for data: 361268256
I0403 18:40:58.251991  7257 layer_factory.hpp:77] Creating layer conv2/norm2
I0403 18:40:58.252012  7257 net.cpp:91] Creating Layer conv2/norm2
I0403 18:40:58.252028  7257 net.cpp:425] conv2/norm2 <- conv2/3x3
I0403 18:40:58.252051  7257 net.cpp:399] conv2/norm2 -> conv2/norm2
I0403 18:40:58.252370  7257 net.cpp:141] Setting up conv2/norm2
I0403 18:40:58.252399  7257 net.cpp:148] Top shape: 24 192 56 56 (14450688)
I0403 18:40:58.252416  7257 net.cpp:156] Memory required for data: 419071008
I0403 18:40:58.252432  7257 layer_factory.hpp:77] Creating layer pool2/3x3_s2
I0403 18:40:58.252450  7257 net.cpp:91] Creating Layer pool2/3x3_s2
I0403 18:40:58.252477  7257 net.cpp:425] pool2/3x3_s2 <- conv2/norm2
I0403 18:40:58.252497  7257 net.cpp:399] pool2/3x3_s2 -> pool2/3x3_s2
I0403 18:40:58.252549  7257 net.cpp:141] Setting up pool2/3x3_s2
I0403 18:40:58.252573  7257 net.cpp:148] Top shape: 24 192 28 28 (3612672)
I0403 18:40:58.252588  7257 net.cpp:156] Memory required for data: 433521696
I0403 18:40:58.252612  7257 layer_factory.hpp:77] Creating layer pool2/3x3_s2_pool2/3x3_s2_0_split
I0403 18:40:58.252634  7257 net.cpp:91] Creating Layer pool2/3x3_s2_pool2/3x3_s2_0_split
I0403 18:40:58.252650  7257 net.cpp:425] pool2/3x3_s2_pool2/3x3_s2_0_split <- pool2/3x3_s2
I0403 18:40:58.252665  7257 net.cpp:399] pool2/3x3_s2_pool2/3x3_s2_0_split -> pool2/3x3_s2_pool2/3x3_s2_0_split_0
I0403 18:40:58.252688  7257 net.cpp:399] pool2/3x3_s2_pool2/3x3_s2_0_split -> pool2/3x3_s2_pool2/3x3_s2_0_split_1
I0403 18:40:58.252708  7257 net.cpp:399] pool2/3x3_s2_pool2/3x3_s2_0_split -> pool2/3x3_s2_pool2/3x3_s2_0_split_2
I0403 18:40:58.252728  7257 net.cpp:399] pool2/3x3_s2_pool2/3x3_s2_0_split -> pool2/3x3_s2_pool2/3x3_s2_0_split_3
I0403 18:40:58.252795  7257 net.cpp:141] Setting up pool2/3x3_s2_pool2/3x3_s2_0_split
I0403 18:40:58.252818  7257 net.cpp:148] Top shape: 24 192 28 28 (3612672)
I0403 18:40:58.252835  7257 net.cpp:148] Top shape: 24 192 28 28 (3612672)
I0403 18:40:58.252851  7257 net.cpp:148] Top shape: 24 192 28 28 (3612672)
I0403 18:40:58.252866  7257 net.cpp:148] Top shape: 24 192 28 28 (3612672)
I0403 18:40:58.252882  7257 net.cpp:156] Memory required for data: 491324448
I0403 18:40:58.252897  7257 layer_factory.hpp:77] Creating layer inception_3a/1x1
I0403 18:40:58.252918  7257 net.cpp:91] Creating Layer inception_3a/1x1
I0403 18:40:58.252934  7257 net.cpp:425] inception_3a/1x1 <- pool2/3x3_s2_pool2/3x3_s2_0_split_0
I0403 18:40:58.252955  7257 net.cpp:399] inception_3a/1x1 -> inception_3a/1x1
I0403 18:40:58.254552  7257 net.cpp:141] Setting up inception_3a/1x1
I0403 18:40:58.254582  7257 net.cpp:148] Top shape: 24 64 28 28 (1204224)
I0403 18:40:58.254598  7257 net.cpp:156] Memory required for data: 496141344
I0403 18:40:58.254617  7257 layer_factory.hpp:77] Creating layer inception_3a/relu_1x1
I0403 18:40:58.254637  7257 net.cpp:91] Creating Layer inception_3a/relu_1x1
I0403 18:40:58.254653  7257 net.cpp:425] inception_3a/relu_1x1 <- inception_3a/1x1
I0403 18:40:58.254670  7257 net.cpp:386] inception_3a/relu_1x1 -> inception_3a/1x1 (in-place)
I0403 18:40:58.254837  7257 net.cpp:141] Setting up inception_3a/relu_1x1
I0403 18:40:58.254861  7257 net.cpp:148] Top shape: 24 64 28 28 (1204224)
I0403 18:40:58.254876  7257 net.cpp:156] Memory required for data: 500958240
I0403 18:40:58.254891  7257 layer_factory.hpp:77] Creating layer inception_3a/3x3_reduce
I0403 18:40:58.254914  7257 net.cpp:91] Creating Layer inception_3a/3x3_reduce
I0403 18:40:58.254930  7257 net.cpp:425] inception_3a/3x3_reduce <- pool2/3x3_s2_pool2/3x3_s2_0_split_1
I0403 18:40:58.254951  7257 net.cpp:399] inception_3a/3x3_reduce -> inception_3a/3x3_reduce
I0403 18:40:58.256625  7257 net.cpp:141] Setting up inception_3a/3x3_reduce
I0403 18:40:58.256654  7257 net.cpp:148] Top shape: 24 96 28 28 (1806336)
I0403 18:40:58.256671  7257 net.cpp:156] Memory required for data: 508183584
I0403 18:40:58.256693  7257 layer_factory.hpp:77] Creating layer inception_3a/relu_3x3_reduce
I0403 18:40:58.256733  7257 net.cpp:91] Creating Layer inception_3a/relu_3x3_reduce
I0403 18:40:58.256765  7257 net.cpp:425] inception_3a/relu_3x3_reduce <- inception_3a/3x3_reduce
I0403 18:40:58.256783  7257 net.cpp:386] inception_3a/relu_3x3_reduce -> inception_3a/3x3_reduce (in-place)
I0403 18:40:58.256961  7257 net.cpp:141] Setting up inception_3a/relu_3x3_reduce
I0403 18:40:58.256988  7257 net.cpp:148] Top shape: 24 96 28 28 (1806336)
I0403 18:40:58.257002  7257 net.cpp:156] Memory required for data: 515408928
I0403 18:40:58.257017  7257 layer_factory.hpp:77] Creating layer inception_3a/3x3
I0403 18:40:58.257040  7257 net.cpp:91] Creating Layer inception_3a/3x3
I0403 18:40:58.257071  7257 net.cpp:425] inception_3a/3x3 <- inception_3a/3x3_reduce
I0403 18:40:58.257091  7257 net.cpp:399] inception_3a/3x3 -> inception_3a/3x3
I0403 18:40:58.258702  7257 net.cpp:141] Setting up inception_3a/3x3
I0403 18:40:58.258731  7257 net.cpp:148] Top shape: 24 128 28 28 (2408448)
I0403 18:40:58.258749  7257 net.cpp:156] Memory required for data: 525042720
I0403 18:40:58.258769  7257 layer_factory.hpp:77] Creating layer inception_3a/relu_3x3
I0403 18:40:58.258788  7257 net.cpp:91] Creating Layer inception_3a/relu_3x3
I0403 18:40:58.258805  7257 net.cpp:425] inception_3a/relu_3x3 <- inception_3a/3x3
I0403 18:40:58.258821  7257 net.cpp:386] inception_3a/relu_3x3 -> inception_3a/3x3 (in-place)
I0403 18:40:58.259080  7257 net.cpp:141] Setting up inception_3a/relu_3x3
I0403 18:40:58.259107  7257 net.cpp:148] Top shape: 24 128 28 28 (2408448)
I0403 18:40:58.259124  7257 net.cpp:156] Memory required for data: 534676512
I0403 18:40:58.259140  7257 layer_factory.hpp:77] Creating layer inception_3a/5x5_reduce
I0403 18:40:58.259161  7257 net.cpp:91] Creating Layer inception_3a/5x5_reduce
I0403 18:40:58.259178  7257 net.cpp:425] inception_3a/5x5_reduce <- pool2/3x3_s2_pool2/3x3_s2_0_split_2
I0403 18:40:58.259201  7257 net.cpp:399] inception_3a/5x5_reduce -> inception_3a/5x5_reduce
I0403 18:40:58.260118  7257 net.cpp:141] Setting up inception_3a/5x5_reduce
I0403 18:40:58.260144  7257 net.cpp:148] Top shape: 24 16 28 28 (301056)
I0403 18:40:58.260159  7257 net.cpp:156] Memory required for data: 535880736
I0403 18:40:58.260177  7257 layer_factory.hpp:77] Creating layer inception_3a/relu_5x5_reduce
I0403 18:40:58.260201  7257 net.cpp:91] Creating Layer inception_3a/relu_5x5_reduce
I0403 18:40:58.260223  7257 net.cpp:425] inception_3a/relu_5x5_reduce <- inception_3a/5x5_reduce
I0403 18:40:58.260241  7257 net.cpp:386] inception_3a/relu_5x5_reduce -> inception_3a/5x5_reduce (in-place)
I0403 18:40:58.260543  7257 net.cpp:141] Setting up inception_3a/relu_5x5_reduce
I0403 18:40:58.260571  7257 net.cpp:148] Top shape: 24 16 28 28 (301056)
I0403 18:40:58.260587  7257 net.cpp:156] Memory required for data: 537084960
I0403 18:40:58.260601  7257 layer_factory.hpp:77] Creating layer inception_3a/5x5
I0403 18:40:58.260624  7257 net.cpp:91] Creating Layer inception_3a/5x5
I0403 18:40:58.260642  7257 net.cpp:425] inception_3a/5x5 <- inception_3a/5x5_reduce
I0403 18:40:58.260660  7257 net.cpp:399] inception_3a/5x5 -> inception_3a/5x5
I0403 18:40:58.261661  7257 net.cpp:141] Setting up inception_3a/5x5
I0403 18:40:58.261689  7257 net.cpp:148] Top shape: 24 32 28 28 (602112)
I0403 18:40:58.261706  7257 net.cpp:156] Memory required for data: 539493408
I0403 18:40:58.261724  7257 layer_factory.hpp:77] Creating layer inception_3a/relu_5x5
I0403 18:40:58.261746  7257 net.cpp:91] Creating Layer inception_3a/relu_5x5
I0403 18:40:58.261764  7257 net.cpp:425] inception_3a/relu_5x5 <- inception_3a/5x5
I0403 18:40:58.261781  7257 net.cpp:386] inception_3a/relu_5x5 -> inception_3a/5x5 (in-place)
I0403 18:40:58.261945  7257 net.cpp:141] Setting up inception_3a/relu_5x5
I0403 18:40:58.261970  7257 net.cpp:148] Top shape: 24 32 28 28 (602112)
I0403 18:40:58.261984  7257 net.cpp:156] Memory required for data: 541901856
I0403 18:40:58.261999  7257 layer_factory.hpp:77] Creating layer inception_3a/pool
I0403 18:40:58.262018  7257 net.cpp:91] Creating Layer inception_3a/pool
I0403 18:40:58.262048  7257 net.cpp:425] inception_3a/pool <- pool2/3x3_s2_pool2/3x3_s2_0_split_3
I0403 18:40:58.262066  7257 net.cpp:399] inception_3a/pool -> inception_3a/pool
I0403 18:40:58.262122  7257 net.cpp:141] Setting up inception_3a/pool
I0403 18:40:58.262145  7257 net.cpp:148] Top shape: 24 192 28 28 (3612672)
I0403 18:40:58.262158  7257 net.cpp:156] Memory required for data: 556352544
I0403 18:40:58.262173  7257 layer_factory.hpp:77] Creating layer inception_3a/pool_proj
I0403 18:40:58.262195  7257 net.cpp:91] Creating Layer inception_3a/pool_proj
I0403 18:40:58.262224  7257 net.cpp:425] inception_3a/pool_proj <- inception_3a/pool
I0403 18:40:58.262261  7257 net.cpp:399] inception_3a/pool_proj -> inception_3a/pool_proj
I0403 18:40:58.263200  7257 net.cpp:141] Setting up inception_3a/pool_proj
I0403 18:40:58.263241  7257 net.cpp:148] Top shape: 24 32 28 28 (602112)
I0403 18:40:58.263258  7257 net.cpp:156] Memory required for data: 558760992
I0403 18:40:58.263279  7257 layer_factory.hpp:77] Creating layer inception_3a/relu_pool_proj
I0403 18:40:58.263300  7257 net.cpp:91] Creating Layer inception_3a/relu_pool_proj
I0403 18:40:58.263316  7257 net.cpp:425] inception_3a/relu_pool_proj <- inception_3a/pool_proj
I0403 18:40:58.263332  7257 net.cpp:386] inception_3a/relu_pool_proj -> inception_3a/pool_proj (in-place)
I0403 18:40:58.263591  7257 net.cpp:141] Setting up inception_3a/relu_pool_proj
I0403 18:40:58.263615  7257 net.cpp:148] Top shape: 24 32 28 28 (602112)
I0403 18:40:58.263630  7257 net.cpp:156] Memory required for data: 561169440
I0403 18:40:58.263645  7257 layer_factory.hpp:77] Creating layer inception_3a/output
I0403 18:40:58.263665  7257 net.cpp:91] Creating Layer inception_3a/output
I0403 18:40:58.263681  7257 net.cpp:425] inception_3a/output <- inception_3a/1x1
I0403 18:40:58.263697  7257 net.cpp:425] inception_3a/output <- inception_3a/3x3
I0403 18:40:58.263712  7257 net.cpp:425] inception_3a/output <- inception_3a/5x5
I0403 18:40:58.263728  7257 net.cpp:425] inception_3a/output <- inception_3a/pool_proj
I0403 18:40:58.263744  7257 net.cpp:399] inception_3a/output -> inception_3a/output
I0403 18:40:58.263790  7257 net.cpp:141] Setting up inception_3a/output
I0403 18:40:58.263813  7257 net.cpp:148] Top shape: 24 256 28 28 (4816896)
I0403 18:40:58.263826  7257 net.cpp:156] Memory required for data: 580437024
I0403 18:40:58.263841  7257 layer_factory.hpp:77] Creating layer inception_3a/output_inception_3a/output_0_split
I0403 18:40:58.263859  7257 net.cpp:91] Creating Layer inception_3a/output_inception_3a/output_0_split
I0403 18:40:58.263872  7257 net.cpp:425] inception_3a/output_inception_3a/output_0_split <- inception_3a/output
I0403 18:40:58.263891  7257 net.cpp:399] inception_3a/output_inception_3a/output_0_split -> inception_3a/output_inception_3a/output_0_split_0
I0403 18:40:58.263911  7257 net.cpp:399] inception_3a/output_inception_3a/output_0_split -> inception_3a/output_inception_3a/output_0_split_1
I0403 18:40:58.263932  7257 net.cpp:399] inception_3a/output_inception_3a/output_0_split -> inception_3a/output_inception_3a/output_0_split_2
I0403 18:40:58.263952  7257 net.cpp:399] inception_3a/output_inception_3a/output_0_split -> inception_3a/output_inception_3a/output_0_split_3
I0403 18:40:58.264024  7257 net.cpp:141] Setting up inception_3a/output_inception_3a/output_0_split
I0403 18:40:58.264046  7257 net.cpp:148] Top shape: 24 256 28 28 (4816896)
I0403 18:40:58.264063  7257 net.cpp:148] Top shape: 24 256 28 28 (4816896)
I0403 18:40:58.264078  7257 net.cpp:148] Top shape: 24 256 28 28 (4816896)
I0403 18:40:58.264093  7257 net.cpp:148] Top shape: 24 256 28 28 (4816896)
I0403 18:40:58.264106  7257 net.cpp:156] Memory required for data: 657507360
I0403 18:40:58.264120  7257 layer_factory.hpp:77] Creating layer inception_3b/1x1
I0403 18:40:58.264142  7257 net.cpp:91] Creating Layer inception_3b/1x1
I0403 18:40:58.264158  7257 net.cpp:425] inception_3b/1x1 <- inception_3a/output_inception_3a/output_0_split_0
I0403 18:40:58.264178  7257 net.cpp:399] inception_3b/1x1 -> inception_3b/1x1
I0403 18:40:58.265270  7257 net.cpp:141] Setting up inception_3b/1x1
I0403 18:40:58.265310  7257 net.cpp:148] Top shape: 24 128 28 28 (2408448)
I0403 18:40:58.265326  7257 net.cpp:156] Memory required for data: 667141152
I0403 18:40:58.265343  7257 layer_factory.hpp:77] Creating layer inception_3b/relu_1x1
I0403 18:40:58.265360  7257 net.cpp:91] Creating Layer inception_3b/relu_1x1
I0403 18:40:58.265375  7257 net.cpp:425] inception_3b/relu_1x1 <- inception_3b/1x1
I0403 18:40:58.265394  7257 net.cpp:386] inception_3b/relu_1x1 -> inception_3b/1x1 (in-place)
I0403 18:40:58.265563  7257 net.cpp:141] Setting up inception_3b/relu_1x1
I0403 18:40:58.265586  7257 net.cpp:148] Top shape: 24 128 28 28 (2408448)
I0403 18:40:58.265601  7257 net.cpp:156] Memory required for data: 676774944
I0403 18:40:58.265615  7257 layer_factory.hpp:77] Creating layer inception_3b/3x3_reduce
I0403 18:40:58.265638  7257 net.cpp:91] Creating Layer inception_3b/3x3_reduce
I0403 18:40:58.265655  7257 net.cpp:425] inception_3b/3x3_reduce <- inception_3a/output_inception_3a/output_0_split_1
I0403 18:40:58.265676  7257 net.cpp:399] inception_3b/3x3_reduce -> inception_3b/3x3_reduce
I0403 18:40:58.266800  7257 net.cpp:141] Setting up inception_3b/3x3_reduce
I0403 18:40:58.266827  7257 net.cpp:148] Top shape: 24 128 28 28 (2408448)
I0403 18:40:58.266842  7257 net.cpp:156] Memory required for data: 686408736
I0403 18:40:58.266861  7257 layer_factory.hpp:77] Creating layer inception_3b/relu_3x3_reduce
I0403 18:40:58.266878  7257 net.cpp:91] Creating Layer inception_3b/relu_3x3_reduce
I0403 18:40:58.266893  7257 net.cpp:425] inception_3b/relu_3x3_reduce <- inception_3b/3x3_reduce
I0403 18:40:58.266912  7257 net.cpp:386] inception_3b/relu_3x3_reduce -> inception_3b/3x3_reduce (in-place)
I0403 18:40:58.267076  7257 net.cpp:141] Setting up inception_3b/relu_3x3_reduce
I0403 18:40:58.267098  7257 net.cpp:148] Top shape: 24 128 28 28 (2408448)
I0403 18:40:58.267113  7257 net.cpp:156] Memory required for data: 696042528
I0403 18:40:58.267128  7257 layer_factory.hpp:77] Creating layer inception_3b/3x3
I0403 18:40:58.267153  7257 net.cpp:91] Creating Layer inception_3b/3x3
I0403 18:40:58.267171  7257 net.cpp:425] inception_3b/3x3 <- inception_3b/3x3_reduce
I0403 18:40:58.267189  7257 net.cpp:399] inception_3b/3x3 -> inception_3b/3x3
I0403 18:40:58.270036  7257 net.cpp:141] Setting up inception_3b/3x3
I0403 18:40:58.270064  7257 net.cpp:148] Top shape: 24 192 28 28 (3612672)
I0403 18:40:58.270079  7257 net.cpp:156] Memory required for data: 710493216
I0403 18:40:58.270097  7257 layer_factory.hpp:77] Creating layer inception_3b/relu_3x3
I0403 18:40:58.270117  7257 net.cpp:91] Creating Layer inception_3b/relu_3x3
I0403 18:40:58.270133  7257 net.cpp:425] inception_3b/relu_3x3 <- inception_3b/3x3
I0403 18:40:58.270150  7257 net.cpp:386] inception_3b/relu_3x3 -> inception_3b/3x3 (in-place)
I0403 18:40:58.270437  7257 net.cpp:141] Setting up inception_3b/relu_3x3
I0403 18:40:58.270463  7257 net.cpp:148] Top shape: 24 192 28 28 (3612672)
I0403 18:40:58.270478  7257 net.cpp:156] Memory required for data: 724943904
I0403 18:40:58.270493  7257 layer_factory.hpp:77] Creating layer inception_3b/5x5_reduce
I0403 18:40:58.270515  7257 net.cpp:91] Creating Layer inception_3b/5x5_reduce
I0403 18:40:58.270545  7257 net.cpp:425] inception_3b/5x5_reduce <- inception_3a/output_inception_3a/output_0_split_2
I0403 18:40:58.270567  7257 net.cpp:399] inception_3b/5x5_reduce -> inception_3b/5x5_reduce
I0403 18:40:58.271520  7257 net.cpp:141] Setting up inception_3b/5x5_reduce
I0403 18:40:58.271548  7257 net.cpp:148] Top shape: 24 32 28 28 (602112)
I0403 18:40:58.271564  7257 net.cpp:156] Memory required for data: 727352352
I0403 18:40:58.271581  7257 layer_factory.hpp:77] Creating layer inception_3b/relu_5x5_reduce
I0403 18:40:58.271601  7257 net.cpp:91] Creating Layer inception_3b/relu_5x5_reduce
I0403 18:40:58.271616  7257 net.cpp:425] inception_3b/relu_5x5_reduce <- inception_3b/5x5_reduce
I0403 18:40:58.271633  7257 net.cpp:386] inception_3b/relu_5x5_reduce -> inception_3b/5x5_reduce (in-place)
I0403 18:40:58.271819  7257 net.cpp:141] Setting up inception_3b/relu_5x5_reduce
I0403 18:40:58.271843  7257 net.cpp:148] Top shape: 24 32 28 28 (602112)
I0403 18:40:58.271858  7257 net.cpp:156] Memory required for data: 729760800
I0403 18:40:58.271872  7257 layer_factory.hpp:77] Creating layer inception_3b/5x5
I0403 18:40:58.271896  7257 net.cpp:91] Creating Layer inception_3b/5x5
I0403 18:40:58.271913  7257 net.cpp:425] inception_3b/5x5 <- inception_3b/5x5_reduce
I0403 18:40:58.271931  7257 net.cpp:399] inception_3b/5x5 -> inception_3b/5x5
I0403 18:40:58.273969  7257 net.cpp:141] Setting up inception_3b/5x5
I0403 18:40:58.274004  7257 net.cpp:148] Top shape: 24 96 28 28 (1806336)
I0403 18:40:58.274021  7257 net.cpp:156] Memory required for data: 736986144
I0403 18:40:58.274041  7257 layer_factory.hpp:77] Creating layer inception_3b/relu_5x5
I0403 18:40:58.274060  7257 net.cpp:91] Creating Layer inception_3b/relu_5x5
I0403 18:40:58.274076  7257 net.cpp:425] inception_3b/relu_5x5 <- inception_3b/5x5
I0403 18:40:58.274096  7257 net.cpp:386] inception_3b/relu_5x5 -> inception_3b/5x5 (in-place)
I0403 18:40:58.274299  7257 net.cpp:141] Setting up inception_3b/relu_5x5
I0403 18:40:58.274327  7257 net.cpp:148] Top shape: 24 96 28 28 (1806336)
I0403 18:40:58.274341  7257 net.cpp:156] Memory required for data: 744211488
I0403 18:40:58.274358  7257 layer_factory.hpp:77] Creating layer inception_3b/pool
I0403 18:40:58.274376  7257 net.cpp:91] Creating Layer inception_3b/pool
I0403 18:40:58.274391  7257 net.cpp:425] inception_3b/pool <- inception_3a/output_inception_3a/output_0_split_3
I0403 18:40:58.274410  7257 net.cpp:399] inception_3b/pool -> inception_3b/pool
I0403 18:40:58.274466  7257 net.cpp:141] Setting up inception_3b/pool
I0403 18:40:58.274489  7257 net.cpp:148] Top shape: 24 256 28 28 (4816896)
I0403 18:40:58.274504  7257 net.cpp:156] Memory required for data: 763479072
I0403 18:40:58.274519  7257 layer_factory.hpp:77] Creating layer inception_3b/pool_proj
I0403 18:40:58.274552  7257 net.cpp:91] Creating Layer inception_3b/pool_proj
I0403 18:40:58.274569  7257 net.cpp:425] inception_3b/pool_proj <- inception_3b/pool
I0403 18:40:58.274590  7257 net.cpp:399] inception_3b/pool_proj -> inception_3b/pool_proj
I0403 18:40:58.275601  7257 net.cpp:141] Setting up inception_3b/pool_proj
I0403 18:40:58.275629  7257 net.cpp:148] Top shape: 24 64 28 28 (1204224)
I0403 18:40:58.275645  7257 net.cpp:156] Memory required for data: 768295968
I0403 18:40:58.275666  7257 layer_factory.hpp:77] Creating layer inception_3b/relu_pool_proj
I0403 18:40:58.275683  7257 net.cpp:91] Creating Layer inception_3b/relu_pool_proj
I0403 18:40:58.275698  7257 net.cpp:425] inception_3b/relu_pool_proj <- inception_3b/pool_proj
I0403 18:40:58.275715  7257 net.cpp:386] inception_3b/relu_pool_proj -> inception_3b/pool_proj (in-place)
I0403 18:40:58.276083  7257 net.cpp:141] Setting up inception_3b/relu_pool_proj
I0403 18:40:58.276111  7257 net.cpp:148] Top shape: 24 64 28 28 (1204224)
I0403 18:40:58.276129  7257 net.cpp:156] Memory required for data: 773112864
I0403 18:40:58.276145  7257 layer_factory.hpp:77] Creating layer inception_3b/output
I0403 18:40:58.276162  7257 net.cpp:91] Creating Layer inception_3b/output
I0403 18:40:58.276177  7257 net.cpp:425] inception_3b/output <- inception_3b/1x1
I0403 18:40:58.276193  7257 net.cpp:425] inception_3b/output <- inception_3b/3x3
I0403 18:40:58.276213  7257 net.cpp:425] inception_3b/output <- inception_3b/5x5
I0403 18:40:58.276232  7257 net.cpp:425] inception_3b/output <- inception_3b/pool_proj
I0403 18:40:58.276248  7257 net.cpp:399] inception_3b/output -> inception_3b/output
I0403 18:40:58.276291  7257 net.cpp:141] Setting up inception_3b/output
I0403 18:40:58.276314  7257 net.cpp:148] Top shape: 24 480 28 28 (9031680)
I0403 18:40:58.276329  7257 net.cpp:156] Memory required for data: 809239584
I0403 18:40:58.276342  7257 layer_factory.hpp:77] Creating layer pool3/3x3_s2
I0403 18:40:58.276360  7257 net.cpp:91] Creating Layer pool3/3x3_s2
I0403 18:40:58.276378  7257 net.cpp:425] pool3/3x3_s2 <- inception_3b/output
I0403 18:40:58.276413  7257 net.cpp:399] pool3/3x3_s2 -> pool3/3x3_s2
I0403 18:40:58.276469  7257 net.cpp:141] Setting up pool3/3x3_s2
I0403 18:40:58.276492  7257 net.cpp:148] Top shape: 24 480 14 14 (2257920)
I0403 18:40:58.276506  7257 net.cpp:156] Memory required for data: 818271264
I0403 18:40:58.276521  7257 layer_factory.hpp:77] Creating layer pool3/3x3_s2_pool3/3x3_s2_0_split
I0403 18:40:58.276538  7257 net.cpp:91] Creating Layer pool3/3x3_s2_pool3/3x3_s2_0_split
I0403 18:40:58.276552  7257 net.cpp:425] pool3/3x3_s2_pool3/3x3_s2_0_split <- pool3/3x3_s2
I0403 18:40:58.276571  7257 net.cpp:399] pool3/3x3_s2_pool3/3x3_s2_0_split -> pool3/3x3_s2_pool3/3x3_s2_0_split_0
I0403 18:40:58.276589  7257 net.cpp:399] pool3/3x3_s2_pool3/3x3_s2_0_split -> pool3/3x3_s2_pool3/3x3_s2_0_split_1
I0403 18:40:58.276608  7257 net.cpp:399] pool3/3x3_s2_pool3/3x3_s2_0_split -> pool3/3x3_s2_pool3/3x3_s2_0_split_2
I0403 18:40:58.276626  7257 net.cpp:399] pool3/3x3_s2_pool3/3x3_s2_0_split -> pool3/3x3_s2_pool3/3x3_s2_0_split_3
I0403 18:40:58.276700  7257 net.cpp:141] Setting up pool3/3x3_s2_pool3/3x3_s2_0_split
I0403 18:40:58.276721  7257 net.cpp:148] Top shape: 24 480 14 14 (2257920)
I0403 18:40:58.276736  7257 net.cpp:148] Top shape: 24 480 14 14 (2257920)
I0403 18:40:58.276751  7257 net.cpp:148] Top shape: 24 480 14 14 (2257920)
I0403 18:40:58.276767  7257 net.cpp:148] Top shape: 24 480 14 14 (2257920)
I0403 18:40:58.276780  7257 net.cpp:156] Memory required for data: 854397984
I0403 18:40:58.276794  7257 layer_factory.hpp:77] Creating layer inception_4a/1x1
I0403 18:40:58.276818  7257 net.cpp:91] Creating Layer inception_4a/1x1
I0403 18:40:58.276834  7257 net.cpp:425] inception_4a/1x1 <- pool3/3x3_s2_pool3/3x3_s2_0_split_0
I0403 18:40:58.276852  7257 net.cpp:399] inception_4a/1x1 -> inception_4a/1x1
I0403 18:40:58.278412  7257 net.cpp:141] Setting up inception_4a/1x1
I0403 18:40:58.278445  7257 net.cpp:148] Top shape: 24 192 14 14 (903168)
I0403 18:40:58.278461  7257 net.cpp:156] Memory required for data: 858010656
I0403 18:40:58.278481  7257 layer_factory.hpp:77] Creating layer inception_4a/relu_1x1
I0403 18:40:58.278498  7257 net.cpp:91] Creating Layer inception_4a/relu_1x1
I0403 18:40:58.278513  7257 net.cpp:425] inception_4a/relu_1x1 <- inception_4a/1x1
I0403 18:40:58.278533  7257 net.cpp:386] inception_4a/relu_1x1 -> inception_4a/1x1 (in-place)
I0403 18:40:58.278717  7257 net.cpp:141] Setting up inception_4a/relu_1x1
I0403 18:40:58.278740  7257 net.cpp:148] Top shape: 24 192 14 14 (903168)
I0403 18:40:58.278755  7257 net.cpp:156] Memory required for data: 861623328
I0403 18:40:58.278769  7257 layer_factory.hpp:77] Creating layer inception_4a/3x3_reduce
I0403 18:40:58.278790  7257 net.cpp:91] Creating Layer inception_4a/3x3_reduce
I0403 18:40:58.278807  7257 net.cpp:425] inception_4a/3x3_reduce <- pool3/3x3_s2_pool3/3x3_s2_0_split_1
I0403 18:40:58.278828  7257 net.cpp:399] inception_4a/3x3_reduce -> inception_4a/3x3_reduce
I0403 18:40:58.280045  7257 net.cpp:141] Setting up inception_4a/3x3_reduce
I0403 18:40:58.280074  7257 net.cpp:148] Top shape: 24 96 14 14 (451584)
I0403 18:40:58.280092  7257 net.cpp:156] Memory required for data: 863429664
I0403 18:40:58.280113  7257 layer_factory.hpp:77] Creating layer inception_4a/relu_3x3_reduce
I0403 18:40:58.280133  7257 net.cpp:91] Creating Layer inception_4a/relu_3x3_reduce
I0403 18:40:58.280148  7257 net.cpp:425] inception_4a/relu_3x3_reduce <- inception_4a/3x3_reduce
I0403 18:40:58.280165  7257 net.cpp:386] inception_4a/relu_3x3_reduce -> inception_4a/3x3_reduce (in-place)
I0403 18:40:58.280357  7257 net.cpp:141] Setting up inception_4a/relu_3x3_reduce
I0403 18:40:58.280390  7257 net.cpp:148] Top shape: 24 96 14 14 (451584)
I0403 18:40:58.280405  7257 net.cpp:156] Memory required for data: 865236000
I0403 18:40:58.280421  7257 layer_factory.hpp:77] Creating layer inception_4a/3x3
I0403 18:40:58.280443  7257 net.cpp:91] Creating Layer inception_4a/3x3
I0403 18:40:58.280462  7257 net.cpp:425] inception_4a/3x3 <- inception_4a/3x3_reduce
I0403 18:40:58.280496  7257 net.cpp:399] inception_4a/3x3 -> inception_4a/3x3
I0403 18:40:58.283193  7257 net.cpp:141] Setting up inception_4a/3x3
I0403 18:40:58.283228  7257 net.cpp:148] Top shape: 24 208 14 14 (978432)
I0403 18:40:58.283257  7257 net.cpp:156] Memory required for data: 869149728
I0403 18:40:58.283277  7257 layer_factory.hpp:77] Creating layer inception_4a/relu_3x3
I0403 18:40:58.283294  7257 net.cpp:91] Creating Layer inception_4a/relu_3x3
I0403 18:40:58.283314  7257 net.cpp:425] inception_4a/relu_3x3 <- inception_4a/3x3
I0403 18:40:58.283332  7257 net.cpp:386] inception_4a/relu_3x3 -> inception_4a/3x3 (in-place)
I0403 18:40:58.283624  7257 net.cpp:141] Setting up inception_4a/relu_3x3
I0403 18:40:58.283651  7257 net.cpp:148] Top shape: 24 208 14 14 (978432)
I0403 18:40:58.283666  7257 net.cpp:156] Memory required for data: 873063456
I0403 18:40:58.283681  7257 layer_factory.hpp:77] Creating layer inception_4a/5x5_reduce
I0403 18:40:58.283704  7257 net.cpp:91] Creating Layer inception_4a/5x5_reduce
I0403 18:40:58.283721  7257 net.cpp:425] inception_4a/5x5_reduce <- pool3/3x3_s2_pool3/3x3_s2_0_split_2
I0403 18:40:58.283745  7257 net.cpp:399] inception_4a/5x5_reduce -> inception_4a/5x5_reduce
I0403 18:40:58.284742  7257 net.cpp:141] Setting up inception_4a/5x5_reduce
I0403 18:40:58.284770  7257 net.cpp:148] Top shape: 24 16 14 14 (75264)
I0403 18:40:58.284783  7257 net.cpp:156] Memory required for data: 873364512
I0403 18:40:58.284801  7257 layer_factory.hpp:77] Creating layer inception_4a/relu_5x5_reduce
I0403 18:40:58.284821  7257 net.cpp:91] Creating Layer inception_4a/relu_5x5_reduce
I0403 18:40:58.284837  7257 net.cpp:425] inception_4a/relu_5x5_reduce <- inception_4a/5x5_reduce
I0403 18:40:58.284854  7257 net.cpp:386] inception_4a/relu_5x5_reduce -> inception_4a/5x5_reduce (in-place)
I0403 18:40:58.285027  7257 net.cpp:141] Setting up inception_4a/relu_5x5_reduce
I0403 18:40:58.285051  7257 net.cpp:148] Top shape: 24 16 14 14 (75264)
I0403 18:40:58.285065  7257 net.cpp:156] Memory required for data: 873665568
I0403 18:40:58.285080  7257 layer_factory.hpp:77] Creating layer inception_4a/5x5
I0403 18:40:58.285104  7257 net.cpp:91] Creating Layer inception_4a/5x5
I0403 18:40:58.285120  7257 net.cpp:425] inception_4a/5x5 <- inception_4a/5x5_reduce
I0403 18:40:58.285140  7257 net.cpp:399] inception_4a/5x5 -> inception_4a/5x5
I0403 18:40:58.286207  7257 net.cpp:141] Setting up inception_4a/5x5
I0403 18:40:58.286238  7257 net.cpp:148] Top shape: 24 48 14 14 (225792)
I0403 18:40:58.286269  7257 net.cpp:156] Memory required for data: 874568736
I0403 18:40:58.286288  7257 layer_factory.hpp:77] Creating layer inception_4a/relu_5x5
I0403 18:40:58.286306  7257 net.cpp:91] Creating Layer inception_4a/relu_5x5
I0403 18:40:58.286321  7257 net.cpp:425] inception_4a/relu_5x5 <- inception_4a/5x5
I0403 18:40:58.286339  7257 net.cpp:386] inception_4a/relu_5x5 -> inception_4a/5x5 (in-place)
I0403 18:40:58.286514  7257 net.cpp:141] Setting up inception_4a/relu_5x5
I0403 18:40:58.286552  7257 net.cpp:148] Top shape: 24 48 14 14 (225792)
I0403 18:40:58.286566  7257 net.cpp:156] Memory required for data: 875471904
I0403 18:40:58.286581  7257 layer_factory.hpp:77] Creating layer inception_4a/pool
I0403 18:40:58.286599  7257 net.cpp:91] Creating Layer inception_4a/pool
I0403 18:40:58.286614  7257 net.cpp:425] inception_4a/pool <- pool3/3x3_s2_pool3/3x3_s2_0_split_3
I0403 18:40:58.286634  7257 net.cpp:399] inception_4a/pool -> inception_4a/pool
I0403 18:40:58.286695  7257 net.cpp:141] Setting up inception_4a/pool
I0403 18:40:58.286721  7257 net.cpp:148] Top shape: 24 480 14 14 (2257920)
I0403 18:40:58.286736  7257 net.cpp:156] Memory required for data: 884503584
I0403 18:40:58.286751  7257 layer_factory.hpp:77] Creating layer inception_4a/pool_proj
I0403 18:40:58.286770  7257 net.cpp:91] Creating Layer inception_4a/pool_proj
I0403 18:40:58.286792  7257 net.cpp:425] inception_4a/pool_proj <- inception_4a/pool
I0403 18:40:58.286815  7257 net.cpp:399] inception_4a/pool_proj -> inception_4a/pool_proj
I0403 18:40:58.287986  7257 net.cpp:141] Setting up inception_4a/pool_proj
I0403 18:40:58.288018  7257 net.cpp:148] Top shape: 24 64 14 14 (301056)
I0403 18:40:58.288048  7257 net.cpp:156] Memory required for data: 885707808
I0403 18:40:58.288069  7257 layer_factory.hpp:77] Creating layer inception_4a/relu_pool_proj
I0403 18:40:58.288086  7257 net.cpp:91] Creating Layer inception_4a/relu_pool_proj
I0403 18:40:58.288101  7257 net.cpp:425] inception_4a/relu_pool_proj <- inception_4a/pool_proj
I0403 18:40:58.288120  7257 net.cpp:386] inception_4a/relu_pool_proj -> inception_4a/pool_proj (in-place)
I0403 18:40:58.288424  7257 net.cpp:141] Setting up inception_4a/relu_pool_proj
I0403 18:40:58.288455  7257 net.cpp:148] Top shape: 24 64 14 14 (301056)
I0403 18:40:58.288470  7257 net.cpp:156] Memory required for data: 886912032
I0403 18:40:58.288487  7257 layer_factory.hpp:77] Creating layer inception_4a/output
I0403 18:40:58.288506  7257 net.cpp:91] Creating Layer inception_4a/output
I0403 18:40:58.288522  7257 net.cpp:425] inception_4a/output <- inception_4a/1x1
I0403 18:40:58.288552  7257 net.cpp:425] inception_4a/output <- inception_4a/3x3
I0403 18:40:58.288568  7257 net.cpp:425] inception_4a/output <- inception_4a/5x5
I0403 18:40:58.288583  7257 net.cpp:425] inception_4a/output <- inception_4a/pool_proj
I0403 18:40:58.288600  7257 net.cpp:399] inception_4a/output -> inception_4a/output
I0403 18:40:58.288645  7257 net.cpp:141] Setting up inception_4a/output
I0403 18:40:58.288668  7257 net.cpp:148] Top shape: 24 512 14 14 (2408448)
I0403 18:40:58.288683  7257 net.cpp:156] Memory required for data: 896545824
I0403 18:40:58.288698  7257 layer_factory.hpp:77] Creating layer inception_4a/output_inception_4a/output_0_split
I0403 18:40:58.288718  7257 net.cpp:91] Creating Layer inception_4a/output_inception_4a/output_0_split
I0403 18:40:58.288734  7257 net.cpp:425] inception_4a/output_inception_4a/output_0_split <- inception_4a/output
I0403 18:40:58.288751  7257 net.cpp:399] inception_4a/output_inception_4a/output_0_split -> inception_4a/output_inception_4a/output_0_split_0
I0403 18:40:58.288771  7257 net.cpp:399] inception_4a/output_inception_4a/output_0_split -> inception_4a/output_inception_4a/output_0_split_1
I0403 18:40:58.288790  7257 net.cpp:399] inception_4a/output_inception_4a/output_0_split -> inception_4a/output_inception_4a/output_0_split_2
I0403 18:40:58.288813  7257 net.cpp:399] inception_4a/output_inception_4a/output_0_split -> inception_4a/output_inception_4a/output_0_split_3
I0403 18:40:58.288836  7257 net.cpp:399] inception_4a/output_inception_4a/output_0_split -> inception_4a/output_inception_4a/output_0_split_4
I0403 18:40:58.288928  7257 net.cpp:141] Setting up inception_4a/output_inception_4a/output_0_split
I0403 18:40:58.288952  7257 net.cpp:148] Top shape: 24 512 14 14 (2408448)
I0403 18:40:58.288969  7257 net.cpp:148] Top shape: 24 512 14 14 (2408448)
I0403 18:40:58.288985  7257 net.cpp:148] Top shape: 24 512 14 14 (2408448)
I0403 18:40:58.289000  7257 net.cpp:148] Top shape: 24 512 14 14 (2408448)
I0403 18:40:58.289016  7257 net.cpp:148] Top shape: 24 512 14 14 (2408448)
I0403 18:40:58.289029  7257 net.cpp:156] Memory required for data: 944714784
I0403 18:40:58.289044  7257 layer_factory.hpp:77] Creating layer loss1/ave_pool
I0403 18:40:58.289064  7257 net.cpp:91] Creating Layer loss1/ave_pool
I0403 18:40:58.289082  7257 net.cpp:425] loss1/ave_pool <- inception_4a/output_inception_4a/output_0_split_0
I0403 18:40:58.289099  7257 net.cpp:399] loss1/ave_pool -> loss1/ave_pool
I0403 18:40:58.289309  7257 net.cpp:141] Setting up loss1/ave_pool
I0403 18:40:58.289336  7257 net.cpp:148] Top shape: 24 512 4 4 (196608)
I0403 18:40:58.289352  7257 net.cpp:156] Memory required for data: 945501216
I0403 18:40:58.289367  7257 layer_factory.hpp:77] Creating layer loss1/conv
I0403 18:40:58.289389  7257 net.cpp:91] Creating Layer loss1/conv
I0403 18:40:58.289407  7257 net.cpp:425] loss1/conv <- loss1/ave_pool
I0403 18:40:58.289427  7257 net.cpp:399] loss1/conv -> loss1/conv
I0403 18:40:58.290850  7257 net.cpp:141] Setting up loss1/conv
I0403 18:40:58.290879  7257 net.cpp:148] Top shape: 24 128 4 4 (49152)
I0403 18:40:58.290910  7257 net.cpp:156] Memory required for data: 945697824
I0403 18:40:58.290931  7257 layer_factory.hpp:77] Creating layer loss1/relu_conv
I0403 18:40:58.290952  7257 net.cpp:91] Creating Layer loss1/relu_conv
I0403 18:40:58.290968  7257 net.cpp:425] loss1/relu_conv <- loss1/conv
I0403 18:40:58.290985  7257 net.cpp:386] loss1/relu_conv -> loss1/conv (in-place)
I0403 18:40:58.291270  7257 net.cpp:141] Setting up loss1/relu_conv
I0403 18:40:58.291298  7257 net.cpp:148] Top shape: 24 128 4 4 (49152)
I0403 18:40:58.291314  7257 net.cpp:156] Memory required for data: 945894432
I0403 18:40:58.291331  7257 layer_factory.hpp:77] Creating layer loss1/fc
I0403 18:40:58.291357  7257 net.cpp:91] Creating Layer loss1/fc
I0403 18:40:58.291378  7257 net.cpp:425] loss1/fc <- loss1/conv
I0403 18:40:58.291395  7257 net.cpp:399] loss1/fc -> loss1/fc
I0403 18:40:58.309752  7257 net.cpp:141] Setting up loss1/fc
I0403 18:40:58.309825  7257 net.cpp:148] Top shape: 24 1024 (24576)
I0403 18:40:58.309842  7257 net.cpp:156] Memory required for data: 945992736
I0403 18:40:58.309864  7257 layer_factory.hpp:77] Creating layer loss1/relu_fc
I0403 18:40:58.309898  7257 net.cpp:91] Creating Layer loss1/relu_fc
I0403 18:40:58.309916  7257 net.cpp:425] loss1/relu_fc <- loss1/fc
I0403 18:40:58.309937  7257 net.cpp:386] loss1/relu_fc -> loss1/fc (in-place)
I0403 18:40:58.310180  7257 net.cpp:141] Setting up loss1/relu_fc
I0403 18:40:58.310206  7257 net.cpp:148] Top shape: 24 1024 (24576)
I0403 18:40:58.310227  7257 net.cpp:156] Memory required for data: 946091040
I0403 18:40:58.310242  7257 layer_factory.hpp:77] Creating layer loss1/drop_fc
I0403 18:40:58.310283  7257 net.cpp:91] Creating Layer loss1/drop_fc
I0403 18:40:58.310302  7257 net.cpp:425] loss1/drop_fc <- loss1/fc
I0403 18:40:58.310323  7257 net.cpp:386] loss1/drop_fc -> loss1/fc (in-place)
I0403 18:40:58.310376  7257 net.cpp:141] Setting up loss1/drop_fc
I0403 18:40:58.310401  7257 net.cpp:148] Top shape: 24 1024 (24576)
I0403 18:40:58.310418  7257 net.cpp:156] Memory required for data: 946189344
I0403 18:40:58.310434  7257 layer_factory.hpp:77] Creating layer loss1/classifier_plantvillage
I0403 18:40:58.310457  7257 net.cpp:91] Creating Layer loss1/classifier_plantvillage
I0403 18:40:58.310475  7257 net.cpp:425] loss1/classifier_plantvillage <- loss1/fc
I0403 18:40:58.310497  7257 net.cpp:399] loss1/classifier_plantvillage -> loss1/classifier_plantvillage
I0403 18:40:58.311489  7257 net.cpp:141] Setting up loss1/classifier_plantvillage
I0403 18:40:58.311520  7257 net.cpp:148] Top shape: 24 38 (912)
I0403 18:40:58.311537  7257 net.cpp:156] Memory required for data: 946192992
I0403 18:40:58.311556  7257 layer_factory.hpp:77] Creating layer loss1/classifier_plantvillage_loss1/classifier_plantvillage_0_split
I0403 18:40:58.311575  7257 net.cpp:91] Creating Layer loss1/classifier_plantvillage_loss1/classifier_plantvillage_0_split
I0403 18:40:58.311591  7257 net.cpp:425] loss1/classifier_plantvillage_loss1/classifier_plantvillage_0_split <- loss1/classifier_plantvillage
I0403 18:40:58.311612  7257 net.cpp:399] loss1/classifier_plantvillage_loss1/classifier_plantvillage_0_split -> loss1/classifier_plantvillage_loss1/classifier_plantvillage_0_split_0
I0403 18:40:58.311635  7257 net.cpp:399] loss1/classifier_plantvillage_loss1/classifier_plantvillage_0_split -> loss1/classifier_plantvillage_loss1/classifier_plantvillage_0_split_1
I0403 18:40:58.311655  7257 net.cpp:399] loss1/classifier_plantvillage_loss1/classifier_plantvillage_0_split -> loss1/classifier_plantvillage_loss1/classifier_plantvillage_0_split_2
I0403 18:40:58.311722  7257 net.cpp:141] Setting up loss1/classifier_plantvillage_loss1/classifier_plantvillage_0_split
I0403 18:40:58.311744  7257 net.cpp:148] Top shape: 24 38 (912)
I0403 18:40:58.311761  7257 net.cpp:148] Top shape: 24 38 (912)
I0403 18:40:58.311777  7257 net.cpp:148] Top shape: 24 38 (912)
I0403 18:40:58.311792  7257 net.cpp:156] Memory required for data: 946203936
I0403 18:40:58.311807  7257 layer_factory.hpp:77] Creating layer inception_4b/1x1
I0403 18:40:58.311830  7257 net.cpp:91] Creating Layer inception_4b/1x1
I0403 18:40:58.311872  7257 net.cpp:425] inception_4b/1x1 <- inception_4a/output_inception_4a/output_0_split_1
I0403 18:40:58.311892  7257 net.cpp:399] inception_4b/1x1 -> inception_4b/1x1
I0403 18:40:58.313591  7257 net.cpp:141] Setting up inception_4b/1x1
I0403 18:40:58.313621  7257 net.cpp:148] Top shape: 24 160 14 14 (752640)
I0403 18:40:58.313638  7257 net.cpp:156] Memory required for data: 949214496
I0403 18:40:58.313658  7257 layer_factory.hpp:77] Creating layer inception_4b/relu_1x1
I0403 18:40:58.313680  7257 net.cpp:91] Creating Layer inception_4b/relu_1x1
I0403 18:40:58.313699  7257 net.cpp:425] inception_4b/relu_1x1 <- inception_4b/1x1
I0403 18:40:58.313716  7257 net.cpp:386] inception_4b/relu_1x1 -> inception_4b/1x1 (in-place)
I0403 18:40:58.313895  7257 net.cpp:141] Setting up inception_4b/relu_1x1
I0403 18:40:58.313922  7257 net.cpp:148] Top shape: 24 160 14 14 (752640)
I0403 18:40:58.313937  7257 net.cpp:156] Memory required for data: 952225056
I0403 18:40:58.313952  7257 layer_factory.hpp:77] Creating layer inception_4b/3x3_reduce
I0403 18:40:58.313977  7257 net.cpp:91] Creating Layer inception_4b/3x3_reduce
I0403 18:40:58.313995  7257 net.cpp:425] inception_4b/3x3_reduce <- inception_4a/output_inception_4a/output_0_split_2
I0403 18:40:58.314015  7257 net.cpp:399] inception_4b/3x3_reduce -> inception_4b/3x3_reduce
I0403 18:40:58.315430  7257 net.cpp:141] Setting up inception_4b/3x3_reduce
I0403 18:40:58.315460  7257 net.cpp:148] Top shape: 24 112 14 14 (526848)
I0403 18:40:58.315477  7257 net.cpp:156] Memory required for data: 954332448
I0403 18:40:58.315498  7257 layer_factory.hpp:77] Creating layer inception_4b/relu_3x3_reduce
I0403 18:40:58.315521  7257 net.cpp:91] Creating Layer inception_4b/relu_3x3_reduce
I0403 18:40:58.315551  7257 net.cpp:425] inception_4b/relu_3x3_reduce <- inception_4b/3x3_reduce
I0403 18:40:58.315568  7257 net.cpp:386] inception_4b/relu_3x3_reduce -> inception_4b/3x3_reduce (in-place)
I0403 18:40:58.315852  7257 net.cpp:141] Setting up inception_4b/relu_3x3_reduce
I0403 18:40:58.315879  7257 net.cpp:148] Top shape: 24 112 14 14 (526848)
I0403 18:40:58.315897  7257 net.cpp:156] Memory required for data: 956439840
I0403 18:40:58.315913  7257 layer_factory.hpp:77] Creating layer inception_4b/3x3
I0403 18:40:58.315935  7257 net.cpp:91] Creating Layer inception_4b/3x3
I0403 18:40:58.315954  7257 net.cpp:425] inception_4b/3x3 <- inception_4b/3x3_reduce
I0403 18:40:58.315975  7257 net.cpp:399] inception_4b/3x3 -> inception_4b/3x3
I0403 18:40:58.319053  7257 net.cpp:141] Setting up inception_4b/3x3
I0403 18:40:58.319087  7257 net.cpp:148] Top shape: 24 224 14 14 (1053696)
I0403 18:40:58.319104  7257 net.cpp:156] Memory required for data: 960654624
I0403 18:40:58.319123  7257 layer_factory.hpp:77] Creating layer inception_4b/relu_3x3
I0403 18:40:58.319142  7257 net.cpp:91] Creating Layer inception_4b/relu_3x3
I0403 18:40:58.319159  7257 net.cpp:425] inception_4b/relu_3x3 <- inception_4b/3x3
I0403 18:40:58.319180  7257 net.cpp:386] inception_4b/relu_3x3 -> inception_4b/3x3 (in-place)
I0403 18:40:58.319366  7257 net.cpp:141] Setting up inception_4b/relu_3x3
I0403 18:40:58.319394  7257 net.cpp:148] Top shape: 24 224 14 14 (1053696)
I0403 18:40:58.319409  7257 net.cpp:156] Memory required for data: 964869408
I0403 18:40:58.319427  7257 layer_factory.hpp:77] Creating layer inception_4b/5x5_reduce
I0403 18:40:58.319449  7257 net.cpp:91] Creating Layer inception_4b/5x5_reduce
I0403 18:40:58.319468  7257 net.cpp:425] inception_4b/5x5_reduce <- inception_4a/output_inception_4a/output_0_split_3
I0403 18:40:58.319494  7257 net.cpp:399] inception_4b/5x5_reduce -> inception_4b/5x5_reduce
I0403 18:40:58.320605  7257 net.cpp:141] Setting up inception_4b/5x5_reduce
I0403 18:40:58.320636  7257 net.cpp:148] Top shape: 24 24 14 14 (112896)
I0403 18:40:58.320652  7257 net.cpp:156] Memory required for data: 965320992
I0403 18:40:58.320669  7257 layer_factory.hpp:77] Creating layer inception_4b/relu_5x5_reduce
I0403 18:40:58.320691  7257 net.cpp:91] Creating Layer inception_4b/relu_5x5_reduce
I0403 18:40:58.320724  7257 net.cpp:425] inception_4b/relu_5x5_reduce <- inception_4b/5x5_reduce
I0403 18:40:58.320744  7257 net.cpp:386] inception_4b/relu_5x5_reduce -> inception_4b/5x5_reduce (in-place)
I0403 18:40:58.320930  7257 net.cpp:141] Setting up inception_4b/relu_5x5_reduce
I0403 18:40:58.320958  7257 net.cpp:148] Top shape: 24 24 14 14 (112896)
I0403 18:40:58.320974  7257 net.cpp:156] Memory required for data: 965772576
I0403 18:40:58.320989  7257 layer_factory.hpp:77] Creating layer inception_4b/5x5
I0403 18:40:58.321012  7257 net.cpp:91] Creating Layer inception_4b/5x5
I0403 18:40:58.321032  7257 net.cpp:425] inception_4b/5x5 <- inception_4b/5x5_reduce
I0403 18:40:58.321050  7257 net.cpp:399] inception_4b/5x5 -> inception_4b/5x5
I0403 18:40:58.322304  7257 net.cpp:141] Setting up inception_4b/5x5
I0403 18:40:58.322335  7257 net.cpp:148] Top shape: 24 64 14 14 (301056)
I0403 18:40:58.322351  7257 net.cpp:156] Memory required for data: 966976800
I0403 18:40:58.322371  7257 layer_factory.hpp:77] Creating layer inception_4b/relu_5x5
I0403 18:40:58.322396  7257 net.cpp:91] Creating Layer inception_4b/relu_5x5
I0403 18:40:58.322413  7257 net.cpp:425] inception_4b/relu_5x5 <- inception_4b/5x5
I0403 18:40:58.322433  7257 net.cpp:386] inception_4b/relu_5x5 -> inception_4b/5x5 (in-place)
I0403 18:40:58.322734  7257 net.cpp:141] Setting up inception_4b/relu_5x5
I0403 18:40:58.322763  7257 net.cpp:148] Top shape: 24 64 14 14 (301056)
I0403 18:40:58.322779  7257 net.cpp:156] Memory required for data: 968181024
I0403 18:40:58.322796  7257 layer_factory.hpp:77] Creating layer inception_4b/pool
I0403 18:40:58.322818  7257 net.cpp:91] Creating Layer inception_4b/pool
I0403 18:40:58.322839  7257 net.cpp:425] inception_4b/pool <- inception_4a/output_inception_4a/output_0_split_4
I0403 18:40:58.322859  7257 net.cpp:399] inception_4b/pool -> inception_4b/pool
I0403 18:40:58.322924  7257 net.cpp:141] Setting up inception_4b/pool
I0403 18:40:58.322948  7257 net.cpp:148] Top shape: 24 512 14 14 (2408448)
I0403 18:40:58.322962  7257 net.cpp:156] Memory required for data: 977814816
I0403 18:40:58.322978  7257 layer_factory.hpp:77] Creating layer inception_4b/pool_proj
I0403 18:40:58.322999  7257 net.cpp:91] Creating Layer inception_4b/pool_proj
I0403 18:40:58.323017  7257 net.cpp:425] inception_4b/pool_proj <- inception_4b/pool
I0403 18:40:58.323040  7257 net.cpp:399] inception_4b/pool_proj -> inception_4b/pool_proj
I0403 18:40:58.324242  7257 net.cpp:141] Setting up inception_4b/pool_proj
I0403 18:40:58.324285  7257 net.cpp:148] Top shape: 24 64 14 14 (301056)
I0403 18:40:58.324303  7257 net.cpp:156] Memory required for data: 979019040
I0403 18:40:58.324322  7257 layer_factory.hpp:77] Creating layer inception_4b/relu_pool_proj
I0403 18:40:58.324345  7257 net.cpp:91] Creating Layer inception_4b/relu_pool_proj
I0403 18:40:58.324365  7257 net.cpp:425] inception_4b/relu_pool_proj <- inception_4b/pool_proj
I0403 18:40:58.324383  7257 net.cpp:386] inception_4b/relu_pool_proj -> inception_4b/pool_proj (in-place)
I0403 18:40:58.324584  7257 net.cpp:141] Setting up inception_4b/relu_pool_proj
I0403 18:40:58.324609  7257 net.cpp:148] Top shape: 24 64 14 14 (301056)
I0403 18:40:58.324625  7257 net.cpp:156] Memory required for data: 980223264
I0403 18:40:58.324642  7257 layer_factory.hpp:77] Creating layer inception_4b/output
I0403 18:40:58.324664  7257 net.cpp:91] Creating Layer inception_4b/output
I0403 18:40:58.324682  7257 net.cpp:425] inception_4b/output <- inception_4b/1x1
I0403 18:40:58.324700  7257 net.cpp:425] inception_4b/output <- inception_4b/3x3
I0403 18:40:58.324717  7257 net.cpp:425] inception_4b/output <- inception_4b/5x5
I0403 18:40:58.324733  7257 net.cpp:425] inception_4b/output <- inception_4b/pool_proj
I0403 18:40:58.324751  7257 net.cpp:399] inception_4b/output -> inception_4b/output
I0403 18:40:58.324800  7257 net.cpp:141] Setting up inception_4b/output
I0403 18:40:58.324825  7257 net.cpp:148] Top shape: 24 512 14 14 (2408448)
I0403 18:40:58.324841  7257 net.cpp:156] Memory required for data: 989857056
I0403 18:40:58.324869  7257 layer_factory.hpp:77] Creating layer inception_4b/output_inception_4b/output_0_split
I0403 18:40:58.324887  7257 net.cpp:91] Creating Layer inception_4b/output_inception_4b/output_0_split
I0403 18:40:58.324903  7257 net.cpp:425] inception_4b/output_inception_4b/output_0_split <- inception_4b/output
I0403 18:40:58.324924  7257 net.cpp:399] inception_4b/output_inception_4b/output_0_split -> inception_4b/output_inception_4b/output_0_split_0
I0403 18:40:58.324944  7257 net.cpp:399] inception_4b/output_inception_4b/output_0_split -> inception_4b/output_inception_4b/output_0_split_1
I0403 18:40:58.324965  7257 net.cpp:399] inception_4b/output_inception_4b/output_0_split -> inception_4b/output_inception_4b/output_0_split_2
I0403 18:40:58.324986  7257 net.cpp:399] inception_4b/output_inception_4b/output_0_split -> inception_4b/output_inception_4b/output_0_split_3
I0403 18:40:58.325075  7257 net.cpp:141] Setting up inception_4b/output_inception_4b/output_0_split
I0403 18:40:58.325099  7257 net.cpp:148] Top shape: 24 512 14 14 (2408448)
I0403 18:40:58.325116  7257 net.cpp:148] Top shape: 24 512 14 14 (2408448)
I0403 18:40:58.325132  7257 net.cpp:148] Top shape: 24 512 14 14 (2408448)
I0403 18:40:58.325148  7257 net.cpp:148] Top shape: 24 512 14 14 (2408448)
I0403 18:40:58.325162  7257 net.cpp:156] Memory required for data: 1028392224
I0403 18:40:58.325177  7257 layer_factory.hpp:77] Creating layer inception_4c/1x1
I0403 18:40:58.325199  7257 net.cpp:91] Creating Layer inception_4c/1x1
I0403 18:40:58.325222  7257 net.cpp:425] inception_4c/1x1 <- inception_4b/output_inception_4b/output_0_split_0
I0403 18:40:58.325258  7257 net.cpp:399] inception_4c/1x1 -> inception_4c/1x1
I0403 18:40:58.326746  7257 net.cpp:141] Setting up inception_4c/1x1
I0403 18:40:58.326778  7257 net.cpp:148] Top shape: 24 128 14 14 (602112)
I0403 18:40:58.326797  7257 net.cpp:156] Memory required for data: 1030800672
I0403 18:40:58.326817  7257 layer_factory.hpp:77] Creating layer inception_4c/relu_1x1
I0403 18:40:58.326835  7257 net.cpp:91] Creating Layer inception_4c/relu_1x1
I0403 18:40:58.326853  7257 net.cpp:425] inception_4c/relu_1x1 <- inception_4c/1x1
I0403 18:40:58.326872  7257 net.cpp:386] inception_4c/relu_1x1 -> inception_4c/1x1 (in-place)
I0403 18:40:58.327056  7257 net.cpp:141] Setting up inception_4c/relu_1x1
I0403 18:40:58.327085  7257 net.cpp:148] Top shape: 24 128 14 14 (602112)
I0403 18:40:58.327100  7257 net.cpp:156] Memory required for data: 1033209120
I0403 18:40:58.327116  7257 layer_factory.hpp:77] Creating layer inception_4c/3x3_reduce
I0403 18:40:58.327141  7257 net.cpp:91] Creating Layer inception_4c/3x3_reduce
I0403 18:40:58.327159  7257 net.cpp:425] inception_4c/3x3_reduce <- inception_4b/output_inception_4b/output_0_split_1
I0403 18:40:58.327183  7257 net.cpp:399] inception_4c/3x3_reduce -> inception_4c/3x3_reduce
I0403 18:40:58.329180  7257 net.cpp:141] Setting up inception_4c/3x3_reduce
I0403 18:40:58.329216  7257 net.cpp:148] Top shape: 24 128 14 14 (602112)
I0403 18:40:58.329236  7257 net.cpp:156] Memory required for data: 1035617568
I0403 18:40:58.329255  7257 layer_factory.hpp:77] Creating layer inception_4c/relu_3x3_reduce
I0403 18:40:58.329273  7257 net.cpp:91] Creating Layer inception_4c/relu_3x3_reduce
I0403 18:40:58.329291  7257 net.cpp:425] inception_4c/relu_3x3_reduce <- inception_4c/3x3_reduce
I0403 18:40:58.329313  7257 net.cpp:386] inception_4c/relu_3x3_reduce -> inception_4c/3x3_reduce (in-place)
I0403 18:40:58.329599  7257 net.cpp:141] Setting up inception_4c/relu_3x3_reduce
I0403 18:40:58.329627  7257 net.cpp:148] Top shape: 24 128 14 14 (602112)
I0403 18:40:58.329643  7257 net.cpp:156] Memory required for data: 1038026016
I0403 18:40:58.329661  7257 layer_factory.hpp:77] Creating layer inception_4c/3x3
I0403 18:40:58.329686  7257 net.cpp:91] Creating Layer inception_4c/3x3
I0403 18:40:58.329705  7257 net.cpp:425] inception_4c/3x3 <- inception_4c/3x3_reduce
I0403 18:40:58.329727  7257 net.cpp:399] inception_4c/3x3 -> inception_4c/3x3
I0403 18:40:58.333369  7257 net.cpp:141] Setting up inception_4c/3x3
I0403 18:40:58.333412  7257 net.cpp:148] Top shape: 24 256 14 14 (1204224)
I0403 18:40:58.333430  7257 net.cpp:156] Memory required for data: 1042842912
I0403 18:40:58.333462  7257 layer_factory.hpp:77] Creating layer inception_4c/relu_3x3
I0403 18:40:58.333487  7257 net.cpp:91] Creating Layer inception_4c/relu_3x3
I0403 18:40:58.333506  7257 net.cpp:425] inception_4c/relu_3x3 <- inception_4c/3x3
I0403 18:40:58.333524  7257 net.cpp:386] inception_4c/relu_3x3 -> inception_4c/3x3 (in-place)
I0403 18:40:58.333716  7257 net.cpp:141] Setting up inception_4c/relu_3x3
I0403 18:40:58.333742  7257 net.cpp:148] Top shape: 24 256 14 14 (1204224)
I0403 18:40:58.333758  7257 net.cpp:156] Memory required for data: 1047659808
I0403 18:40:58.333773  7257 layer_factory.hpp:77] Creating layer inception_4c/5x5_reduce
I0403 18:40:58.333796  7257 net.cpp:91] Creating Layer inception_4c/5x5_reduce
I0403 18:40:58.333816  7257 net.cpp:425] inception_4c/5x5_reduce <- inception_4b/output_inception_4b/output_0_split_2
I0403 18:40:58.333839  7257 net.cpp:399] inception_4c/5x5_reduce -> inception_4c/5x5_reduce
I0403 18:40:58.334936  7257 net.cpp:141] Setting up inception_4c/5x5_reduce
I0403 18:40:58.334964  7257 net.cpp:148] Top shape: 24 24 14 14 (112896)
I0403 18:40:58.334978  7257 net.cpp:156] Memory required for data: 1048111392
I0403 18:40:58.334997  7257 layer_factory.hpp:77] Creating layer inception_4c/relu_5x5_reduce
I0403 18:40:58.335016  7257 net.cpp:91] Creating Layer inception_4c/relu_5x5_reduce
I0403 18:40:58.335033  7257 net.cpp:425] inception_4c/relu_5x5_reduce <- inception_4c/5x5_reduce
I0403 18:40:58.335052  7257 net.cpp:386] inception_4c/relu_5x5_reduce -> inception_4c/5x5_reduce (in-place)
I0403 18:40:58.335234  7257 net.cpp:141] Setting up inception_4c/relu_5x5_reduce
I0403 18:40:58.335265  7257 net.cpp:148] Top shape: 24 24 14 14 (112896)
I0403 18:40:58.335280  7257 net.cpp:156] Memory required for data: 1048562976
I0403 18:40:58.335295  7257 layer_factory.hpp:77] Creating layer inception_4c/5x5
I0403 18:40:58.335317  7257 net.cpp:91] Creating Layer inception_4c/5x5
I0403 18:40:58.335335  7257 net.cpp:425] inception_4c/5x5 <- inception_4c/5x5_reduce
I0403 18:40:58.335353  7257 net.cpp:399] inception_4c/5x5 -> inception_4c/5x5
I0403 18:40:58.336591  7257 net.cpp:141] Setting up inception_4c/5x5
I0403 18:40:58.336618  7257 net.cpp:148] Top shape: 24 64 14 14 (301056)
I0403 18:40:58.336634  7257 net.cpp:156] Memory required for data: 1049767200
I0403 18:40:58.336652  7257 layer_factory.hpp:77] Creating layer inception_4c/relu_5x5
I0403 18:40:58.336671  7257 net.cpp:91] Creating Layer inception_4c/relu_5x5
I0403 18:40:58.336688  7257 net.cpp:425] inception_4c/relu_5x5 <- inception_4c/5x5
I0403 18:40:58.336705  7257 net.cpp:386] inception_4c/relu_5x5 -> inception_4c/5x5 (in-place)
I0403 18:40:58.336984  7257 net.cpp:141] Setting up inception_4c/relu_5x5
I0403 18:40:58.337009  7257 net.cpp:148] Top shape: 24 64 14 14 (301056)
I0403 18:40:58.337024  7257 net.cpp:156] Memory required for data: 1050971424
I0403 18:40:58.337039  7257 layer_factory.hpp:77] Creating layer inception_4c/pool
I0403 18:40:58.337060  7257 net.cpp:91] Creating Layer inception_4c/pool
I0403 18:40:58.337076  7257 net.cpp:425] inception_4c/pool <- inception_4b/output_inception_4b/output_0_split_3
I0403 18:40:58.337096  7257 net.cpp:399] inception_4c/pool -> inception_4c/pool
I0403 18:40:58.337160  7257 net.cpp:141] Setting up inception_4c/pool
I0403 18:40:58.337184  7257 net.cpp:148] Top shape: 24 512 14 14 (2408448)
I0403 18:40:58.337199  7257 net.cpp:156] Memory required for data: 1060605216
I0403 18:40:58.337219  7257 layer_factory.hpp:77] Creating layer inception_4c/pool_proj
I0403 18:40:58.337242  7257 net.cpp:91] Creating Layer inception_4c/pool_proj
I0403 18:40:58.337260  7257 net.cpp:425] inception_4c/pool_proj <- inception_4c/pool
I0403 18:40:58.337281  7257 net.cpp:399] inception_4c/pool_proj -> inception_4c/pool_proj
I0403 18:40:58.338487  7257 net.cpp:141] Setting up inception_4c/pool_proj
I0403 18:40:58.338516  7257 net.cpp:148] Top shape: 24 64 14 14 (301056)
I0403 18:40:58.338559  7257 net.cpp:156] Memory required for data: 1061809440
I0403 18:40:58.338580  7257 layer_factory.hpp:77] Creating layer inception_4c/relu_pool_proj
I0403 18:40:58.338603  7257 net.cpp:91] Creating Layer inception_4c/relu_pool_proj
I0403 18:40:58.338620  7257 net.cpp:425] inception_4c/relu_pool_proj <- inception_4c/pool_proj
I0403 18:40:58.338639  7257 net.cpp:386] inception_4c/relu_pool_proj -> inception_4c/pool_proj (in-place)
I0403 18:40:58.338815  7257 net.cpp:141] Setting up inception_4c/relu_pool_proj
I0403 18:40:58.338840  7257 net.cpp:148] Top shape: 24 64 14 14 (301056)
I0403 18:40:58.338855  7257 net.cpp:156] Memory required for data: 1063013664
I0403 18:40:58.338870  7257 layer_factory.hpp:77] Creating layer inception_4c/output
I0403 18:40:58.338892  7257 net.cpp:91] Creating Layer inception_4c/output
I0403 18:40:58.338909  7257 net.cpp:425] inception_4c/output <- inception_4c/1x1
I0403 18:40:58.338924  7257 net.cpp:425] inception_4c/output <- inception_4c/3x3
I0403 18:40:58.338940  7257 net.cpp:425] inception_4c/output <- inception_4c/5x5
I0403 18:40:58.338958  7257 net.cpp:425] inception_4c/output <- inception_4c/pool_proj
I0403 18:40:58.338973  7257 net.cpp:399] inception_4c/output -> inception_4c/output
I0403 18:40:58.339020  7257 net.cpp:141] Setting up inception_4c/output
I0403 18:40:58.339045  7257 net.cpp:148] Top shape: 24 512 14 14 (2408448)
I0403 18:40:58.339058  7257 net.cpp:156] Memory required for data: 1072647456
I0403 18:40:58.339085  7257 layer_factory.hpp:77] Creating layer inception_4c/output_inception_4c/output_0_split
I0403 18:40:58.339102  7257 net.cpp:91] Creating Layer inception_4c/output_inception_4c/output_0_split
I0403 18:40:58.339118  7257 net.cpp:425] inception_4c/output_inception_4c/output_0_split <- inception_4c/output
I0403 18:40:58.339169  7257 net.cpp:399] inception_4c/output_inception_4c/output_0_split -> inception_4c/output_inception_4c/output_0_split_0
I0403 18:40:58.339193  7257 net.cpp:399] inception_4c/output_inception_4c/output_0_split -> inception_4c/output_inception_4c/output_0_split_1
I0403 18:40:58.339221  7257 net.cpp:399] inception_4c/output_inception_4c/output_0_split -> inception_4c/output_inception_4c/output_0_split_2
I0403 18:40:58.339243  7257 net.cpp:399] inception_4c/output_inception_4c/output_0_split -> inception_4c/output_inception_4c/output_0_split_3
I0403 18:40:58.339349  7257 net.cpp:141] Setting up inception_4c/output_inception_4c/output_0_split
I0403 18:40:58.339373  7257 net.cpp:148] Top shape: 24 512 14 14 (2408448)
I0403 18:40:58.339391  7257 net.cpp:148] Top shape: 24 512 14 14 (2408448)
I0403 18:40:58.339407  7257 net.cpp:148] Top shape: 24 512 14 14 (2408448)
I0403 18:40:58.339422  7257 net.cpp:148] Top shape: 24 512 14 14 (2408448)
I0403 18:40:58.339437  7257 net.cpp:156] Memory required for data: 1111182624
I0403 18:40:58.339452  7257 layer_factory.hpp:77] Creating layer inception_4d/1x1
I0403 18:40:58.339476  7257 net.cpp:91] Creating Layer inception_4d/1x1
I0403 18:40:58.339494  7257 net.cpp:425] inception_4d/1x1 <- inception_4c/output_inception_4c/output_0_split_0
I0403 18:40:58.339517  7257 net.cpp:399] inception_4d/1x1 -> inception_4d/1x1
I0403 18:40:58.340940  7257 net.cpp:141] Setting up inception_4d/1x1
I0403 18:40:58.340971  7257 net.cpp:148] Top shape: 24 112 14 14 (526848)
I0403 18:40:58.340988  7257 net.cpp:156] Memory required for data: 1113290016
I0403 18:40:58.341019  7257 layer_factory.hpp:77] Creating layer inception_4d/relu_1x1
I0403 18:40:58.341037  7257 net.cpp:91] Creating Layer inception_4d/relu_1x1
I0403 18:40:58.341053  7257 net.cpp:425] inception_4d/relu_1x1 <- inception_4d/1x1
I0403 18:40:58.341073  7257 net.cpp:386] inception_4d/relu_1x1 -> inception_4d/1x1 (in-place)
I0403 18:40:58.341275  7257 net.cpp:141] Setting up inception_4d/relu_1x1
I0403 18:40:58.341300  7257 net.cpp:148] Top shape: 24 112 14 14 (526848)
I0403 18:40:58.341315  7257 net.cpp:156] Memory required for data: 1115397408
I0403 18:40:58.341331  7257 layer_factory.hpp:77] Creating layer inception_4d/3x3_reduce
I0403 18:40:58.341369  7257 net.cpp:91] Creating Layer inception_4d/3x3_reduce
I0403 18:40:58.341388  7257 net.cpp:425] inception_4d/3x3_reduce <- inception_4c/output_inception_4c/output_0_split_1
I0403 18:40:58.341411  7257 net.cpp:399] inception_4d/3x3_reduce -> inception_4d/3x3_reduce
I0403 18:40:58.342979  7257 net.cpp:141] Setting up inception_4d/3x3_reduce
I0403 18:40:58.343010  7257 net.cpp:148] Top shape: 24 144 14 14 (677376)
I0403 18:40:58.343029  7257 net.cpp:156] Memory required for data: 1118106912
I0403 18:40:58.343047  7257 layer_factory.hpp:77] Creating layer inception_4d/relu_3x3_reduce
I0403 18:40:58.343066  7257 net.cpp:91] Creating Layer inception_4d/relu_3x3_reduce
I0403 18:40:58.343086  7257 net.cpp:425] inception_4d/relu_3x3_reduce <- inception_4d/3x3_reduce
I0403 18:40:58.343104  7257 net.cpp:386] inception_4d/relu_3x3_reduce -> inception_4d/3x3_reduce (in-place)
I0403 18:40:58.343403  7257 net.cpp:141] Setting up inception_4d/relu_3x3_reduce
I0403 18:40:58.343431  7257 net.cpp:148] Top shape: 24 144 14 14 (677376)
I0403 18:40:58.343447  7257 net.cpp:156] Memory required for data: 1120816416
I0403 18:40:58.343462  7257 layer_factory.hpp:77] Creating layer inception_4d/3x3
I0403 18:40:58.343485  7257 net.cpp:91] Creating Layer inception_4d/3x3
I0403 18:40:58.343502  7257 net.cpp:425] inception_4d/3x3 <- inception_4d/3x3_reduce
I0403 18:40:58.343521  7257 net.cpp:399] inception_4d/3x3 -> inception_4d/3x3
I0403 18:40:58.347854  7257 net.cpp:141] Setting up inception_4d/3x3
I0403 18:40:58.347884  7257 net.cpp:148] Top shape: 24 288 14 14 (1354752)
I0403 18:40:58.347900  7257 net.cpp:156] Memory required for data: 1126235424
I0403 18:40:58.347919  7257 layer_factory.hpp:77] Creating layer inception_4d/relu_3x3
I0403 18:40:58.347937  7257 net.cpp:91] Creating Layer inception_4d/relu_3x3
I0403 18:40:58.347954  7257 net.cpp:425] inception_4d/relu_3x3 <- inception_4d/3x3
I0403 18:40:58.347977  7257 net.cpp:386] inception_4d/relu_3x3 -> inception_4d/3x3 (in-place)
I0403 18:40:58.348160  7257 net.cpp:141] Setting up inception_4d/relu_3x3
I0403 18:40:58.348186  7257 net.cpp:148] Top shape: 24 288 14 14 (1354752)
I0403 18:40:58.348201  7257 net.cpp:156] Memory required for data: 1131654432
I0403 18:40:58.348224  7257 layer_factory.hpp:77] Creating layer inception_4d/5x5_reduce
I0403 18:40:58.348249  7257 net.cpp:91] Creating Layer inception_4d/5x5_reduce
I0403 18:40:58.348269  7257 net.cpp:425] inception_4d/5x5_reduce <- inception_4c/output_inception_4c/output_0_split_2
I0403 18:40:58.348291  7257 net.cpp:399] inception_4d/5x5_reduce -> inception_4d/5x5_reduce
I0403 18:40:58.349455  7257 net.cpp:141] Setting up inception_4d/5x5_reduce
I0403 18:40:58.349485  7257 net.cpp:148] Top shape: 24 32 14 14 (150528)
I0403 18:40:58.349503  7257 net.cpp:156] Memory required for data: 1132256544
I0403 18:40:58.349524  7257 layer_factory.hpp:77] Creating layer inception_4d/relu_5x5_reduce
I0403 18:40:58.349553  7257 net.cpp:91] Creating Layer inception_4d/relu_5x5_reduce
I0403 18:40:58.349570  7257 net.cpp:425] inception_4d/relu_5x5_reduce <- inception_4d/5x5_reduce
I0403 18:40:58.349589  7257 net.cpp:386] inception_4d/relu_5x5_reduce -> inception_4d/5x5_reduce (in-place)
I0403 18:40:58.349776  7257 net.cpp:141] Setting up inception_4d/relu_5x5_reduce
I0403 18:40:58.349802  7257 net.cpp:148] Top shape: 24 32 14 14 (150528)
I0403 18:40:58.349817  7257 net.cpp:156] Memory required for data: 1132858656
I0403 18:40:58.349833  7257 layer_factory.hpp:77] Creating layer inception_4d/5x5
I0403 18:40:58.349855  7257 net.cpp:91] Creating Layer inception_4d/5x5
I0403 18:40:58.349874  7257 net.cpp:425] inception_4d/5x5 <- inception_4d/5x5_reduce
I0403 18:40:58.349895  7257 net.cpp:399] inception_4d/5x5 -> inception_4d/5x5
I0403 18:40:58.351380  7257 net.cpp:141] Setting up inception_4d/5x5
I0403 18:40:58.351409  7257 net.cpp:148] Top shape: 24 64 14 14 (301056)
I0403 18:40:58.351426  7257 net.cpp:156] Memory required for data: 1134062880
I0403 18:40:58.351446  7257 layer_factory.hpp:77] Creating layer inception_4d/relu_5x5
I0403 18:40:58.351482  7257 net.cpp:91] Creating Layer inception_4d/relu_5x5
I0403 18:40:58.351500  7257 net.cpp:425] inception_4d/relu_5x5 <- inception_4d/5x5
I0403 18:40:58.351518  7257 net.cpp:386] inception_4d/relu_5x5 -> inception_4d/5x5 (in-place)
I0403 18:40:58.351819  7257 net.cpp:141] Setting up inception_4d/relu_5x5
I0403 18:40:58.351845  7257 net.cpp:148] Top shape: 24 64 14 14 (301056)
I0403 18:40:58.351860  7257 net.cpp:156] Memory required for data: 1135267104
I0403 18:40:58.351874  7257 layer_factory.hpp:77] Creating layer inception_4d/pool
I0403 18:40:58.351896  7257 net.cpp:91] Creating Layer inception_4d/pool
I0403 18:40:58.351913  7257 net.cpp:425] inception_4d/pool <- inception_4c/output_inception_4c/output_0_split_3
I0403 18:40:58.351932  7257 net.cpp:399] inception_4d/pool -> inception_4d/pool
I0403 18:40:58.351999  7257 net.cpp:141] Setting up inception_4d/pool
I0403 18:40:58.352022  7257 net.cpp:148] Top shape: 24 512 14 14 (2408448)
I0403 18:40:58.352037  7257 net.cpp:156] Memory required for data: 1144900896
I0403 18:40:58.352052  7257 layer_factory.hpp:77] Creating layer inception_4d/pool_proj
I0403 18:40:58.352074  7257 net.cpp:91] Creating Layer inception_4d/pool_proj
I0403 18:40:58.352092  7257 net.cpp:425] inception_4d/pool_proj <- inception_4d/pool
I0403 18:40:58.352113  7257 net.cpp:399] inception_4d/pool_proj -> inception_4d/pool_proj
I0403 18:40:58.353924  7257 net.cpp:141] Setting up inception_4d/pool_proj
I0403 18:40:58.353955  7257 net.cpp:148] Top shape: 24 64 14 14 (301056)
I0403 18:40:58.353971  7257 net.cpp:156] Memory required for data: 1146105120
I0403 18:40:58.353987  7257 layer_factory.hpp:77] Creating layer inception_4d/relu_pool_proj
I0403 18:40:58.354007  7257 net.cpp:91] Creating Layer inception_4d/relu_pool_proj
I0403 18:40:58.354022  7257 net.cpp:425] inception_4d/relu_pool_proj <- inception_4d/pool_proj
I0403 18:40:58.354043  7257 net.cpp:386] inception_4d/relu_pool_proj -> inception_4d/pool_proj (in-place)
I0403 18:40:58.354231  7257 net.cpp:141] Setting up inception_4d/relu_pool_proj
I0403 18:40:58.354269  7257 net.cpp:148] Top shape: 24 64 14 14 (301056)
I0403 18:40:58.354285  7257 net.cpp:156] Memory required for data: 1147309344
I0403 18:40:58.354300  7257 layer_factory.hpp:77] Creating layer inception_4d/output
I0403 18:40:58.354321  7257 net.cpp:91] Creating Layer inception_4d/output
I0403 18:40:58.354338  7257 net.cpp:425] inception_4d/output <- inception_4d/1x1
I0403 18:40:58.354357  7257 net.cpp:425] inception_4d/output <- inception_4d/3x3
I0403 18:40:58.354372  7257 net.cpp:425] inception_4d/output <- inception_4d/5x5
I0403 18:40:58.354388  7257 net.cpp:425] inception_4d/output <- inception_4d/pool_proj
I0403 18:40:58.354406  7257 net.cpp:399] inception_4d/output -> inception_4d/output
I0403 18:40:58.354460  7257 net.cpp:141] Setting up inception_4d/output
I0403 18:40:58.354485  7257 net.cpp:148] Top shape: 24 528 14 14 (2483712)
I0403 18:40:58.354501  7257 net.cpp:156] Memory required for data: 1157244192
I0403 18:40:58.354516  7257 layer_factory.hpp:77] Creating layer inception_4d/output_inception_4d/output_0_split
I0403 18:40:58.354547  7257 net.cpp:91] Creating Layer inception_4d/output_inception_4d/output_0_split
I0403 18:40:58.354562  7257 net.cpp:425] inception_4d/output_inception_4d/output_0_split <- inception_4d/output
I0403 18:40:58.354583  7257 net.cpp:399] inception_4d/output_inception_4d/output_0_split -> inception_4d/output_inception_4d/output_0_split_0
I0403 18:40:58.354604  7257 net.cpp:399] inception_4d/output_inception_4d/output_0_split -> inception_4d/output_inception_4d/output_0_split_1
I0403 18:40:58.354624  7257 net.cpp:399] inception_4d/output_inception_4d/output_0_split -> inception_4d/output_inception_4d/output_0_split_2
I0403 18:40:58.354643  7257 net.cpp:399] inception_4d/output_inception_4d/output_0_split -> inception_4d/output_inception_4d/output_0_split_3
I0403 18:40:58.354663  7257 net.cpp:399] inception_4d/output_inception_4d/output_0_split -> inception_4d/output_inception_4d/output_0_split_4
I0403 18:40:58.354766  7257 net.cpp:141] Setting up inception_4d/output_inception_4d/output_0_split
I0403 18:40:58.354802  7257 net.cpp:148] Top shape: 24 528 14 14 (2483712)
I0403 18:40:58.354822  7257 net.cpp:148] Top shape: 24 528 14 14 (2483712)
I0403 18:40:58.354838  7257 net.cpp:148] Top shape: 24 528 14 14 (2483712)
I0403 18:40:58.354854  7257 net.cpp:148] Top shape: 24 528 14 14 (2483712)
I0403 18:40:58.354869  7257 net.cpp:148] Top shape: 24 528 14 14 (2483712)
I0403 18:40:58.354883  7257 net.cpp:156] Memory required for data: 1206918432
I0403 18:40:58.354898  7257 layer_factory.hpp:77] Creating layer loss2/ave_pool
I0403 18:40:58.354917  7257 net.cpp:91] Creating Layer loss2/ave_pool
I0403 18:40:58.354933  7257 net.cpp:425] loss2/ave_pool <- inception_4d/output_inception_4d/output_0_split_0
I0403 18:40:58.354954  7257 net.cpp:399] loss2/ave_pool -> loss2/ave_pool
I0403 18:40:58.355269  7257 net.cpp:141] Setting up loss2/ave_pool
I0403 18:40:58.355296  7257 net.cpp:148] Top shape: 24 528 4 4 (202752)
I0403 18:40:58.355310  7257 net.cpp:156] Memory required for data: 1207729440
I0403 18:40:58.355326  7257 layer_factory.hpp:77] Creating layer loss2/conv
I0403 18:40:58.355348  7257 net.cpp:91] Creating Layer loss2/conv
I0403 18:40:58.355366  7257 net.cpp:425] loss2/conv <- loss2/ave_pool
I0403 18:40:58.355387  7257 net.cpp:399] loss2/conv -> loss2/conv
I0403 18:40:58.357369  7257 net.cpp:141] Setting up loss2/conv
I0403 18:40:58.357399  7257 net.cpp:148] Top shape: 24 128 4 4 (49152)
I0403 18:40:58.357416  7257 net.cpp:156] Memory required for data: 1207926048
I0403 18:40:58.357436  7257 layer_factory.hpp:77] Creating layer loss2/relu_conv
I0403 18:40:58.357460  7257 net.cpp:91] Creating Layer loss2/relu_conv
I0403 18:40:58.357477  7257 net.cpp:425] loss2/relu_conv <- loss2/conv
I0403 18:40:58.357496  7257 net.cpp:386] loss2/relu_conv -> loss2/conv (in-place)
I0403 18:40:58.357800  7257 net.cpp:141] Setting up loss2/relu_conv
I0403 18:40:58.357828  7257 net.cpp:148] Top shape: 24 128 4 4 (49152)
I0403 18:40:58.357843  7257 net.cpp:156] Memory required for data: 1208122656
I0403 18:40:58.357859  7257 layer_factory.hpp:77] Creating layer loss2/fc
I0403 18:40:58.357882  7257 net.cpp:91] Creating Layer loss2/fc
I0403 18:40:58.357898  7257 net.cpp:425] loss2/fc <- loss2/conv
I0403 18:40:58.357920  7257 net.cpp:399] loss2/fc -> loss2/fc
I0403 18:40:58.376099  7257 net.cpp:141] Setting up loss2/fc
I0403 18:40:58.376130  7257 net.cpp:148] Top shape: 24 1024 (24576)
I0403 18:40:58.376147  7257 net.cpp:156] Memory required for data: 1208220960
I0403 18:40:58.376165  7257 layer_factory.hpp:77] Creating layer loss2/relu_fc
I0403 18:40:58.376183  7257 net.cpp:91] Creating Layer loss2/relu_fc
I0403 18:40:58.376199  7257 net.cpp:425] loss2/relu_fc <- loss2/fc
I0403 18:40:58.376224  7257 net.cpp:386] loss2/relu_fc -> loss2/fc (in-place)
I0403 18:40:58.376530  7257 net.cpp:141] Setting up loss2/relu_fc
I0403 18:40:58.376557  7257 net.cpp:148] Top shape: 24 1024 (24576)
I0403 18:40:58.376572  7257 net.cpp:156] Memory required for data: 1208319264
I0403 18:40:58.376587  7257 layer_factory.hpp:77] Creating layer loss2/drop_fc
I0403 18:40:58.376606  7257 net.cpp:91] Creating Layer loss2/drop_fc
I0403 18:40:58.376622  7257 net.cpp:425] loss2/drop_fc <- loss2/fc
I0403 18:40:58.376643  7257 net.cpp:386] loss2/drop_fc -> loss2/fc (in-place)
I0403 18:40:58.376693  7257 net.cpp:141] Setting up loss2/drop_fc
I0403 18:40:58.376718  7257 net.cpp:148] Top shape: 24 1024 (24576)
I0403 18:40:58.376734  7257 net.cpp:156] Memory required for data: 1208417568
I0403 18:40:58.376749  7257 layer_factory.hpp:77] Creating layer loss2/classifier_plantvillage
I0403 18:40:58.376768  7257 net.cpp:91] Creating Layer loss2/classifier_plantvillage
I0403 18:40:58.376785  7257 net.cpp:425] loss2/classifier_plantvillage <- loss2/fc
I0403 18:40:58.376806  7257 net.cpp:399] loss2/classifier_plantvillage -> loss2/classifier_plantvillage
I0403 18:40:58.377213  7257 net.cpp:141] Setting up loss2/classifier_plantvillage
I0403 18:40:58.377243  7257 net.cpp:148] Top shape: 24 38 (912)
I0403 18:40:58.377275  7257 net.cpp:156] Memory required for data: 1208421216
I0403 18:40:58.377295  7257 layer_factory.hpp:77] Creating layer loss2/classifier_plantvillage_loss2/classifier_plantvillage_0_split
I0403 18:40:58.377315  7257 net.cpp:91] Creating Layer loss2/classifier_plantvillage_loss2/classifier_plantvillage_0_split
I0403 18:40:58.377331  7257 net.cpp:425] loss2/classifier_plantvillage_loss2/classifier_plantvillage_0_split <- loss2/classifier_plantvillage
I0403 18:40:58.377349  7257 net.cpp:399] loss2/classifier_plantvillage_loss2/classifier_plantvillage_0_split -> loss2/classifier_plantvillage_loss2/classifier_plantvillage_0_split_0
I0403 18:40:58.377370  7257 net.cpp:399] loss2/classifier_plantvillage_loss2/classifier_plantvillage_0_split -> loss2/classifier_plantvillage_loss2/classifier_plantvillage_0_split_1
I0403 18:40:58.377393  7257 net.cpp:399] loss2/classifier_plantvillage_loss2/classifier_plantvillage_0_split -> loss2/classifier_plantvillage_loss2/classifier_plantvillage_0_split_2
I0403 18:40:58.377475  7257 net.cpp:141] Setting up loss2/classifier_plantvillage_loss2/classifier_plantvillage_0_split
I0403 18:40:58.377499  7257 net.cpp:148] Top shape: 24 38 (912)
I0403 18:40:58.377516  7257 net.cpp:148] Top shape: 24 38 (912)
I0403 18:40:58.377532  7257 net.cpp:148] Top shape: 24 38 (912)
I0403 18:40:58.377547  7257 net.cpp:156] Memory required for data: 1208432160
I0403 18:40:58.377562  7257 layer_factory.hpp:77] Creating layer inception_4e/1x1
I0403 18:40:58.377583  7257 net.cpp:91] Creating Layer inception_4e/1x1
I0403 18:40:58.377599  7257 net.cpp:425] inception_4e/1x1 <- inception_4d/output_inception_4d/output_0_split_1
I0403 18:40:58.377621  7257 net.cpp:399] inception_4e/1x1 -> inception_4e/1x1
I0403 18:40:58.379506  7257 net.cpp:141] Setting up inception_4e/1x1
I0403 18:40:58.379550  7257 net.cpp:148] Top shape: 24 256 14 14 (1204224)
I0403 18:40:58.379568  7257 net.cpp:156] Memory required for data: 1213249056
I0403 18:40:58.379588  7257 layer_factory.hpp:77] Creating layer inception_4e/relu_1x1
I0403 18:40:58.379609  7257 net.cpp:91] Creating Layer inception_4e/relu_1x1
I0403 18:40:58.379627  7257 net.cpp:425] inception_4e/relu_1x1 <- inception_4e/1x1
I0403 18:40:58.379644  7257 net.cpp:386] inception_4e/relu_1x1 -> inception_4e/1x1 (in-place)
I0403 18:40:58.379940  7257 net.cpp:141] Setting up inception_4e/relu_1x1
I0403 18:40:58.379966  7257 net.cpp:148] Top shape: 24 256 14 14 (1204224)
I0403 18:40:58.379982  7257 net.cpp:156] Memory required for data: 1218065952
I0403 18:40:58.379998  7257 layer_factory.hpp:77] Creating layer inception_4e/3x3_reduce
I0403 18:40:58.380024  7257 net.cpp:91] Creating Layer inception_4e/3x3_reduce
I0403 18:40:58.380043  7257 net.cpp:425] inception_4e/3x3_reduce <- inception_4d/output_inception_4d/output_0_split_2
I0403 18:40:58.380064  7257 net.cpp:399] inception_4e/3x3_reduce -> inception_4e/3x3_reduce
I0403 18:40:58.382289  7257 net.cpp:141] Setting up inception_4e/3x3_reduce
I0403 18:40:58.382321  7257 net.cpp:148] Top shape: 24 160 14 14 (752640)
I0403 18:40:58.382339  7257 net.cpp:156] Memory required for data: 1221076512
I0403 18:40:58.382359  7257 layer_factory.hpp:77] Creating layer inception_4e/relu_3x3_reduce
I0403 18:40:58.382382  7257 net.cpp:91] Creating Layer inception_4e/relu_3x3_reduce
I0403 18:40:58.382400  7257 net.cpp:425] inception_4e/relu_3x3_reduce <- inception_4e/3x3_reduce
I0403 18:40:58.382418  7257 net.cpp:386] inception_4e/relu_3x3_reduce -> inception_4e/3x3_reduce (in-place)
I0403 18:40:58.382627  7257 net.cpp:141] Setting up inception_4e/relu_3x3_reduce
I0403 18:40:58.382655  7257 net.cpp:148] Top shape: 24 160 14 14 (752640)
I0403 18:40:58.382673  7257 net.cpp:156] Memory required for data: 1224087072
I0403 18:40:58.382690  7257 layer_factory.hpp:77] Creating layer inception_4e/3x3
I0403 18:40:58.382714  7257 net.cpp:91] Creating Layer inception_4e/3x3
I0403 18:40:58.382730  7257 net.cpp:425] inception_4e/3x3 <- inception_4e/3x3_reduce
I0403 18:40:58.382750  7257 net.cpp:399] inception_4e/3x3 -> inception_4e/3x3
I0403 18:40:58.387926  7257 net.cpp:141] Setting up inception_4e/3x3
I0403 18:40:58.387974  7257 net.cpp:148] Top shape: 24 320 14 14 (1505280)
I0403 18:40:58.387991  7257 net.cpp:156] Memory required for data: 1230108192
I0403 18:40:58.388011  7257 layer_factory.hpp:77] Creating layer inception_4e/relu_3x3
I0403 18:40:58.388031  7257 net.cpp:91] Creating Layer inception_4e/relu_3x3
I0403 18:40:58.388049  7257 net.cpp:425] inception_4e/relu_3x3 <- inception_4e/3x3
I0403 18:40:58.388070  7257 net.cpp:386] inception_4e/relu_3x3 -> inception_4e/3x3 (in-place)
I0403 18:40:58.388406  7257 net.cpp:141] Setting up inception_4e/relu_3x3
I0403 18:40:58.388437  7257 net.cpp:148] Top shape: 24 320 14 14 (1505280)
I0403 18:40:58.388453  7257 net.cpp:156] Memory required for data: 1236129312
I0403 18:40:58.388469  7257 layer_factory.hpp:77] Creating layer inception_4e/5x5_reduce
I0403 18:40:58.388494  7257 net.cpp:91] Creating Layer inception_4e/5x5_reduce
I0403 18:40:58.388512  7257 net.cpp:425] inception_4e/5x5_reduce <- inception_4d/output_inception_4d/output_0_split_3
I0403 18:40:58.388547  7257 net.cpp:399] inception_4e/5x5_reduce -> inception_4e/5x5_reduce
I0403 18:40:58.389680  7257 net.cpp:141] Setting up inception_4e/5x5_reduce
I0403 18:40:58.389713  7257 net.cpp:148] Top shape: 24 32 14 14 (150528)
I0403 18:40:58.389730  7257 net.cpp:156] Memory required for data: 1236731424
I0403 18:40:58.389750  7257 layer_factory.hpp:77] Creating layer inception_4e/relu_5x5_reduce
I0403 18:40:58.389771  7257 net.cpp:91] Creating Layer inception_4e/relu_5x5_reduce
I0403 18:40:58.389789  7257 net.cpp:425] inception_4e/relu_5x5_reduce <- inception_4e/5x5_reduce
I0403 18:40:58.389808  7257 net.cpp:386] inception_4e/relu_5x5_reduce -> inception_4e/5x5_reduce (in-place)
I0403 18:40:58.390128  7257 net.cpp:141] Setting up inception_4e/relu_5x5_reduce
I0403 18:40:58.390156  7257 net.cpp:148] Top shape: 24 32 14 14 (150528)
I0403 18:40:58.390172  7257 net.cpp:156] Memory required for data: 1237333536
I0403 18:40:58.390187  7257 layer_factory.hpp:77] Creating layer inception_4e/5x5
I0403 18:40:58.390233  7257 net.cpp:91] Creating Layer inception_4e/5x5
I0403 18:40:58.390265  7257 net.cpp:425] inception_4e/5x5 <- inception_4e/5x5_reduce
I0403 18:40:58.390290  7257 net.cpp:399] inception_4e/5x5 -> inception_4e/5x5
I0403 18:40:58.392180  7257 net.cpp:141] Setting up inception_4e/5x5
I0403 18:40:58.392221  7257 net.cpp:148] Top shape: 24 128 14 14 (602112)
I0403 18:40:58.392242  7257 net.cpp:156] Memory required for data: 1239741984
I0403 18:40:58.392264  7257 layer_factory.hpp:77] Creating layer inception_4e/relu_5x5
I0403 18:40:58.392282  7257 net.cpp:91] Creating Layer inception_4e/relu_5x5
I0403 18:40:58.392302  7257 net.cpp:425] inception_4e/relu_5x5 <- inception_4e/5x5
I0403 18:40:58.392321  7257 net.cpp:386] inception_4e/relu_5x5 -> inception_4e/5x5 (in-place)
I0403 18:40:58.392520  7257 net.cpp:141] Setting up inception_4e/relu_5x5
I0403 18:40:58.392549  7257 net.cpp:148] Top shape: 24 128 14 14 (602112)
I0403 18:40:58.392567  7257 net.cpp:156] Memory required for data: 1242150432
I0403 18:40:58.392582  7257 layer_factory.hpp:77] Creating layer inception_4e/pool
I0403 18:40:58.392616  7257 net.cpp:91] Creating Layer inception_4e/pool
I0403 18:40:58.392633  7257 net.cpp:425] inception_4e/pool <- inception_4d/output_inception_4d/output_0_split_4
I0403 18:40:58.392652  7257 net.cpp:399] inception_4e/pool -> inception_4e/pool
I0403 18:40:58.392722  7257 net.cpp:141] Setting up inception_4e/pool
I0403 18:40:58.392746  7257 net.cpp:148] Top shape: 24 528 14 14 (2483712)
I0403 18:40:58.392761  7257 net.cpp:156] Memory required for data: 1252085280
I0403 18:40:58.392776  7257 layer_factory.hpp:77] Creating layer inception_4e/pool_proj
I0403 18:40:58.392798  7257 net.cpp:91] Creating Layer inception_4e/pool_proj
I0403 18:40:58.392815  7257 net.cpp:425] inception_4e/pool_proj <- inception_4e/pool
I0403 18:40:58.392837  7257 net.cpp:399] inception_4e/pool_proj -> inception_4e/pool_proj
I0403 18:40:58.394362  7257 net.cpp:141] Setting up inception_4e/pool_proj
I0403 18:40:58.394404  7257 net.cpp:148] Top shape: 24 128 14 14 (602112)
I0403 18:40:58.394423  7257 net.cpp:156] Memory required for data: 1254493728
I0403 18:40:58.394443  7257 layer_factory.hpp:77] Creating layer inception_4e/relu_pool_proj
I0403 18:40:58.394462  7257 net.cpp:91] Creating Layer inception_4e/relu_pool_proj
I0403 18:40:58.394479  7257 net.cpp:425] inception_4e/relu_pool_proj <- inception_4e/pool_proj
I0403 18:40:58.394500  7257 net.cpp:386] inception_4e/relu_pool_proj -> inception_4e/pool_proj (in-place)
I0403 18:40:58.394805  7257 net.cpp:141] Setting up inception_4e/relu_pool_proj
I0403 18:40:58.394834  7257 net.cpp:148] Top shape: 24 128 14 14 (602112)
I0403 18:40:58.394850  7257 net.cpp:156] Memory required for data: 1256902176
I0403 18:40:58.394865  7257 layer_factory.hpp:77] Creating layer inception_4e/output
I0403 18:40:58.394884  7257 net.cpp:91] Creating Layer inception_4e/output
I0403 18:40:58.394901  7257 net.cpp:425] inception_4e/output <- inception_4e/1x1
I0403 18:40:58.394917  7257 net.cpp:425] inception_4e/output <- inception_4e/3x3
I0403 18:40:58.394932  7257 net.cpp:425] inception_4e/output <- inception_4e/5x5
I0403 18:40:58.394948  7257 net.cpp:425] inception_4e/output <- inception_4e/pool_proj
I0403 18:40:58.394968  7257 net.cpp:399] inception_4e/output -> inception_4e/output
I0403 18:40:58.395017  7257 net.cpp:141] Setting up inception_4e/output
I0403 18:40:58.395045  7257 net.cpp:148] Top shape: 24 832 14 14 (3913728)
I0403 18:40:58.395059  7257 net.cpp:156] Memory required for data: 1272557088
I0403 18:40:58.395074  7257 layer_factory.hpp:77] Creating layer pool4/3x3_s2
I0403 18:40:58.395092  7257 net.cpp:91] Creating Layer pool4/3x3_s2
I0403 18:40:58.395107  7257 net.cpp:425] pool4/3x3_s2 <- inception_4e/output
I0403 18:40:58.395125  7257 net.cpp:399] pool4/3x3_s2 -> pool4/3x3_s2
I0403 18:40:58.395193  7257 net.cpp:141] Setting up pool4/3x3_s2
I0403 18:40:58.395222  7257 net.cpp:148] Top shape: 24 832 7 7 (978432)
I0403 18:40:58.395238  7257 net.cpp:156] Memory required for data: 1276470816
I0403 18:40:58.395253  7257 layer_factory.hpp:77] Creating layer pool4/3x3_s2_pool4/3x3_s2_0_split
I0403 18:40:58.395273  7257 net.cpp:91] Creating Layer pool4/3x3_s2_pool4/3x3_s2_0_split
I0403 18:40:58.395289  7257 net.cpp:425] pool4/3x3_s2_pool4/3x3_s2_0_split <- pool4/3x3_s2
I0403 18:40:58.395306  7257 net.cpp:399] pool4/3x3_s2_pool4/3x3_s2_0_split -> pool4/3x3_s2_pool4/3x3_s2_0_split_0
I0403 18:40:58.395325  7257 net.cpp:399] pool4/3x3_s2_pool4/3x3_s2_0_split -> pool4/3x3_s2_pool4/3x3_s2_0_split_1
I0403 18:40:58.395345  7257 net.cpp:399] pool4/3x3_s2_pool4/3x3_s2_0_split -> pool4/3x3_s2_pool4/3x3_s2_0_split_2
I0403 18:40:58.395370  7257 net.cpp:399] pool4/3x3_s2_pool4/3x3_s2_0_split -> pool4/3x3_s2_pool4/3x3_s2_0_split_3
I0403 18:40:58.395460  7257 net.cpp:141] Setting up pool4/3x3_s2_pool4/3x3_s2_0_split
I0403 18:40:58.395484  7257 net.cpp:148] Top shape: 24 832 7 7 (978432)
I0403 18:40:58.395501  7257 net.cpp:148] Top shape: 24 832 7 7 (978432)
I0403 18:40:58.395516  7257 net.cpp:148] Top shape: 24 832 7 7 (978432)
I0403 18:40:58.395532  7257 net.cpp:148] Top shape: 24 832 7 7 (978432)
I0403 18:40:58.395546  7257 net.cpp:156] Memory required for data: 1292125728
I0403 18:40:58.395562  7257 layer_factory.hpp:77] Creating layer inception_5a/1x1
I0403 18:40:58.395584  7257 net.cpp:91] Creating Layer inception_5a/1x1
I0403 18:40:58.395601  7257 net.cpp:425] inception_5a/1x1 <- pool4/3x3_s2_pool4/3x3_s2_0_split_0
I0403 18:40:58.395622  7257 net.cpp:399] inception_5a/1x1 -> inception_5a/1x1
I0403 18:40:58.398596  7257 net.cpp:141] Setting up inception_5a/1x1
I0403 18:40:58.398627  7257 net.cpp:148] Top shape: 24 256 7 7 (301056)
I0403 18:40:58.398643  7257 net.cpp:156] Memory required for data: 1293329952
I0403 18:40:58.398663  7257 layer_factory.hpp:77] Creating layer inception_5a/relu_1x1
I0403 18:40:58.398684  7257 net.cpp:91] Creating Layer inception_5a/relu_1x1
I0403 18:40:58.398701  7257 net.cpp:425] inception_5a/relu_1x1 <- inception_5a/1x1
I0403 18:40:58.398720  7257 net.cpp:386] inception_5a/relu_1x1 -> inception_5a/1x1 (in-place)
I0403 18:40:58.399032  7257 net.cpp:141] Setting up inception_5a/relu_1x1
I0403 18:40:58.399058  7257 net.cpp:148] Top shape: 24 256 7 7 (301056)
I0403 18:40:58.399075  7257 net.cpp:156] Memory required for data: 1294534176
I0403 18:40:58.399088  7257 layer_factory.hpp:77] Creating layer inception_5a/3x3_reduce
I0403 18:40:58.399111  7257 net.cpp:91] Creating Layer inception_5a/3x3_reduce
I0403 18:40:58.399129  7257 net.cpp:425] inception_5a/3x3_reduce <- pool4/3x3_s2_pool4/3x3_s2_0_split_1
I0403 18:40:58.399150  7257 net.cpp:399] inception_5a/3x3_reduce -> inception_5a/3x3_reduce
I0403 18:40:58.401657  7257 net.cpp:141] Setting up inception_5a/3x3_reduce
I0403 18:40:58.401687  7257 net.cpp:148] Top shape: 24 160 7 7 (188160)
I0403 18:40:58.401706  7257 net.cpp:156] Memory required for data: 1295286816
I0403 18:40:58.401726  7257 layer_factory.hpp:77] Creating layer inception_5a/relu_3x3_reduce
I0403 18:40:58.401744  7257 net.cpp:91] Creating Layer inception_5a/relu_3x3_reduce
I0403 18:40:58.401760  7257 net.cpp:425] inception_5a/relu_3x3_reduce <- inception_5a/3x3_reduce
I0403 18:40:58.401782  7257 net.cpp:386] inception_5a/relu_3x3_reduce -> inception_5a/3x3_reduce (in-place)
I0403 18:40:58.401973  7257 net.cpp:141] Setting up inception_5a/relu_3x3_reduce
I0403 18:40:58.401998  7257 net.cpp:148] Top shape: 24 160 7 7 (188160)
I0403 18:40:58.402012  7257 net.cpp:156] Memory required for data: 1296039456
I0403 18:40:58.402027  7257 layer_factory.hpp:77] Creating layer inception_5a/3x3
I0403 18:40:58.402050  7257 net.cpp:91] Creating Layer inception_5a/3x3
I0403 18:40:58.402067  7257 net.cpp:425] inception_5a/3x3 <- inception_5a/3x3_reduce
I0403 18:40:58.402091  7257 net.cpp:399] inception_5a/3x3 -> inception_5a/3x3
I0403 18:40:58.407337  7257 net.cpp:141] Setting up inception_5a/3x3
I0403 18:40:58.407368  7257 net.cpp:148] Top shape: 24 320 7 7 (376320)
I0403 18:40:58.407385  7257 net.cpp:156] Memory required for data: 1297544736
I0403 18:40:58.407403  7257 layer_factory.hpp:77] Creating layer inception_5a/relu_3x3
I0403 18:40:58.407425  7257 net.cpp:91] Creating Layer inception_5a/relu_3x3
I0403 18:40:58.407444  7257 net.cpp:425] inception_5a/relu_3x3 <- inception_5a/3x3
I0403 18:40:58.407464  7257 net.cpp:386] inception_5a/relu_3x3 -> inception_5a/3x3 (in-place)
I0403 18:40:58.407763  7257 net.cpp:141] Setting up inception_5a/relu_3x3
I0403 18:40:58.407790  7257 net.cpp:148] Top shape: 24 320 7 7 (376320)
I0403 18:40:58.407806  7257 net.cpp:156] Memory required for data: 1299050016
I0403 18:40:58.407822  7257 layer_factory.hpp:77] Creating layer inception_5a/5x5_reduce
I0403 18:40:58.407845  7257 net.cpp:91] Creating Layer inception_5a/5x5_reduce
I0403 18:40:58.407865  7257 net.cpp:425] inception_5a/5x5_reduce <- pool4/3x3_s2_pool4/3x3_s2_0_split_2
I0403 18:40:58.407888  7257 net.cpp:399] inception_5a/5x5_reduce -> inception_5a/5x5_reduce
I0403 18:40:58.409068  7257 net.cpp:141] Setting up inception_5a/5x5_reduce
I0403 18:40:58.409101  7257 net.cpp:148] Top shape: 24 32 7 7 (37632)
I0403 18:40:58.409119  7257 net.cpp:156] Memory required for data: 1299200544
I0403 18:40:58.409138  7257 layer_factory.hpp:77] Creating layer inception_5a/relu_5x5_reduce
I0403 18:40:58.409159  7257 net.cpp:91] Creating Layer inception_5a/relu_5x5_reduce
I0403 18:40:58.409178  7257 net.cpp:425] inception_5a/relu_5x5_reduce <- inception_5a/5x5_reduce
I0403 18:40:58.409194  7257 net.cpp:386] inception_5a/relu_5x5_reduce -> inception_5a/5x5_reduce (in-place)
I0403 18:40:58.409499  7257 net.cpp:141] Setting up inception_5a/relu_5x5_reduce
I0403 18:40:58.409526  7257 net.cpp:148] Top shape: 24 32 7 7 (37632)
I0403 18:40:58.409543  7257 net.cpp:156] Memory required for data: 1299351072
I0403 18:40:58.409559  7257 layer_factory.hpp:77] Creating layer inception_5a/5x5
I0403 18:40:58.409584  7257 net.cpp:91] Creating Layer inception_5a/5x5
I0403 18:40:58.409600  7257 net.cpp:425] inception_5a/5x5 <- inception_5a/5x5_reduce
I0403 18:40:58.409622  7257 net.cpp:399] inception_5a/5x5 -> inception_5a/5x5
I0403 18:40:58.411402  7257 net.cpp:141] Setting up inception_5a/5x5
I0403 18:40:58.411445  7257 net.cpp:148] Top shape: 24 128 7 7 (150528)
I0403 18:40:58.411463  7257 net.cpp:156] Memory required for data: 1299953184
I0403 18:40:58.411484  7257 layer_factory.hpp:77] Creating layer inception_5a/relu_5x5
I0403 18:40:58.411504  7257 net.cpp:91] Creating Layer inception_5a/relu_5x5
I0403 18:40:58.411522  7257 net.cpp:425] inception_5a/relu_5x5 <- inception_5a/5x5
I0403 18:40:58.411555  7257 net.cpp:386] inception_5a/relu_5x5 -> inception_5a/5x5 (in-place)
I0403 18:40:58.411749  7257 net.cpp:141] Setting up inception_5a/relu_5x5
I0403 18:40:58.411777  7257 net.cpp:148] Top shape: 24 128 7 7 (150528)
I0403 18:40:58.411793  7257 net.cpp:156] Memory required for data: 1300555296
I0403 18:40:58.411808  7257 layer_factory.hpp:77] Creating layer inception_5a/pool
I0403 18:40:58.411826  7257 net.cpp:91] Creating Layer inception_5a/pool
I0403 18:40:58.411847  7257 net.cpp:425] inception_5a/pool <- pool4/3x3_s2_pool4/3x3_s2_0_split_3
I0403 18:40:58.411866  7257 net.cpp:399] inception_5a/pool -> inception_5a/pool
I0403 18:40:58.411950  7257 net.cpp:141] Setting up inception_5a/pool
I0403 18:40:58.411975  7257 net.cpp:148] Top shape: 24 832 7 7 (978432)
I0403 18:40:58.411990  7257 net.cpp:156] Memory required for data: 1304469024
I0403 18:40:58.412006  7257 layer_factory.hpp:77] Creating layer inception_5a/pool_proj
I0403 18:40:58.412029  7257 net.cpp:91] Creating Layer inception_5a/pool_proj
I0403 18:40:58.412048  7257 net.cpp:425] inception_5a/pool_proj <- inception_5a/pool
I0403 18:40:58.412070  7257 net.cpp:399] inception_5a/pool_proj -> inception_5a/pool_proj
I0403 18:40:58.414494  7257 net.cpp:141] Setting up inception_5a/pool_proj
I0403 18:40:58.414527  7257 net.cpp:148] Top shape: 24 128 7 7 (150528)
I0403 18:40:58.414556  7257 net.cpp:156] Memory required for data: 1305071136
I0403 18:40:58.414575  7257 layer_factory.hpp:77] Creating layer inception_5a/relu_pool_proj
I0403 18:40:58.414597  7257 net.cpp:91] Creating Layer inception_5a/relu_pool_proj
I0403 18:40:58.414616  7257 net.cpp:425] inception_5a/relu_pool_proj <- inception_5a/pool_proj
I0403 18:40:58.414636  7257 net.cpp:386] inception_5a/relu_pool_proj -> inception_5a/pool_proj (in-place)
I0403 18:40:58.414932  7257 net.cpp:141] Setting up inception_5a/relu_pool_proj
I0403 18:40:58.414959  7257 net.cpp:148] Top shape: 24 128 7 7 (150528)
I0403 18:40:58.414975  7257 net.cpp:156] Memory required for data: 1305673248
I0403 18:40:58.414990  7257 layer_factory.hpp:77] Creating layer inception_5a/output
I0403 18:40:58.415007  7257 net.cpp:91] Creating Layer inception_5a/output
I0403 18:40:58.415024  7257 net.cpp:425] inception_5a/output <- inception_5a/1x1
I0403 18:40:58.415042  7257 net.cpp:425] inception_5a/output <- inception_5a/3x3
I0403 18:40:58.415060  7257 net.cpp:425] inception_5a/output <- inception_5a/5x5
I0403 18:40:58.415076  7257 net.cpp:425] inception_5a/output <- inception_5a/pool_proj
I0403 18:40:58.415096  7257 net.cpp:399] inception_5a/output -> inception_5a/output
I0403 18:40:58.415148  7257 net.cpp:141] Setting up inception_5a/output
I0403 18:40:58.415174  7257 net.cpp:148] Top shape: 24 832 7 7 (978432)
I0403 18:40:58.415189  7257 net.cpp:156] Memory required for data: 1309586976
I0403 18:40:58.415206  7257 layer_factory.hpp:77] Creating layer inception_5a/output_inception_5a/output_0_split
I0403 18:40:58.415230  7257 net.cpp:91] Creating Layer inception_5a/output_inception_5a/output_0_split
I0403 18:40:58.415246  7257 net.cpp:425] inception_5a/output_inception_5a/output_0_split <- inception_5a/output
I0403 18:40:58.415264  7257 net.cpp:399] inception_5a/output_inception_5a/output_0_split -> inception_5a/output_inception_5a/output_0_split_0
I0403 18:40:58.415292  7257 net.cpp:399] inception_5a/output_inception_5a/output_0_split -> inception_5a/output_inception_5a/output_0_split_1
I0403 18:40:58.415314  7257 net.cpp:399] inception_5a/output_inception_5a/output_0_split -> inception_5a/output_inception_5a/output_0_split_2
I0403 18:40:58.415334  7257 net.cpp:399] inception_5a/output_inception_5a/output_0_split -> inception_5a/output_inception_5a/output_0_split_3
I0403 18:40:58.415451  7257 net.cpp:141] Setting up inception_5a/output_inception_5a/output_0_split
I0403 18:40:58.415475  7257 net.cpp:148] Top shape: 24 832 7 7 (978432)
I0403 18:40:58.415493  7257 net.cpp:148] Top shape: 24 832 7 7 (978432)
I0403 18:40:58.415508  7257 net.cpp:148] Top shape: 24 832 7 7 (978432)
I0403 18:40:58.415524  7257 net.cpp:148] Top shape: 24 832 7 7 (978432)
I0403 18:40:58.415539  7257 net.cpp:156] Memory required for data: 1325241888
I0403 18:40:58.415554  7257 layer_factory.hpp:77] Creating layer inception_5b/1x1
I0403 18:40:58.415576  7257 net.cpp:91] Creating Layer inception_5b/1x1
I0403 18:40:58.415596  7257 net.cpp:425] inception_5b/1x1 <- inception_5a/output_inception_5a/output_0_split_0
I0403 18:40:58.415617  7257 net.cpp:399] inception_5b/1x1 -> inception_5b/1x1
I0403 18:40:58.419504  7257 net.cpp:141] Setting up inception_5b/1x1
I0403 18:40:58.419534  7257 net.cpp:148] Top shape: 24 384 7 7 (451584)
I0403 18:40:58.419550  7257 net.cpp:156] Memory required for data: 1327048224
I0403 18:40:58.419570  7257 layer_factory.hpp:77] Creating layer inception_5b/relu_1x1
I0403 18:40:58.419589  7257 net.cpp:91] Creating Layer inception_5b/relu_1x1
I0403 18:40:58.419607  7257 net.cpp:425] inception_5b/relu_1x1 <- inception_5b/1x1
I0403 18:40:58.419627  7257 net.cpp:386] inception_5b/relu_1x1 -> inception_5b/1x1 (in-place)
I0403 18:40:58.419931  7257 net.cpp:141] Setting up inception_5b/relu_1x1
I0403 18:40:58.419958  7257 net.cpp:148] Top shape: 24 384 7 7 (451584)
I0403 18:40:58.419975  7257 net.cpp:156] Memory required for data: 1328854560
I0403 18:40:58.419991  7257 layer_factory.hpp:77] Creating layer inception_5b/3x3_reduce
I0403 18:40:58.420014  7257 net.cpp:91] Creating Layer inception_5b/3x3_reduce
I0403 18:40:58.420033  7257 net.cpp:425] inception_5b/3x3_reduce <- inception_5a/output_inception_5a/output_0_split_1
I0403 18:40:58.420056  7257 net.cpp:399] inception_5b/3x3_reduce -> inception_5b/3x3_reduce
I0403 18:40:58.422816  7257 net.cpp:141] Setting up inception_5b/3x3_reduce
I0403 18:40:58.422847  7257 net.cpp:148] Top shape: 24 192 7 7 (225792)
I0403 18:40:58.422863  7257 net.cpp:156] Memory required for data: 1329757728
I0403 18:40:58.422883  7257 layer_factory.hpp:77] Creating layer inception_5b/relu_3x3_reduce
I0403 18:40:58.422901  7257 net.cpp:91] Creating Layer inception_5b/relu_3x3_reduce
I0403 18:40:58.422917  7257 net.cpp:425] inception_5b/relu_3x3_reduce <- inception_5b/3x3_reduce
I0403 18:40:58.422936  7257 net.cpp:386] inception_5b/relu_3x3_reduce -> inception_5b/3x3_reduce (in-place)
I0403 18:40:58.423123  7257 net.cpp:141] Setting up inception_5b/relu_3x3_reduce
I0403 18:40:58.423147  7257 net.cpp:148] Top shape: 24 192 7 7 (225792)
I0403 18:40:58.423162  7257 net.cpp:156] Memory required for data: 1330660896
I0403 18:40:58.423178  7257 layer_factory.hpp:77] Creating layer inception_5b/3x3
I0403 18:40:58.423202  7257 net.cpp:91] Creating Layer inception_5b/3x3
I0403 18:40:58.423224  7257 net.cpp:425] inception_5b/3x3 <- inception_5b/3x3_reduce
I0403 18:40:58.423248  7257 net.cpp:399] inception_5b/3x3 -> inception_5b/3x3
I0403 18:40:58.430093  7257 net.cpp:141] Setting up inception_5b/3x3
I0403 18:40:58.430121  7257 net.cpp:148] Top shape: 24 384 7 7 (451584)
I0403 18:40:58.430136  7257 net.cpp:156] Memory required for data: 1332467232
I0403 18:40:58.430155  7257 layer_factory.hpp:77] Creating layer inception_5b/relu_3x3
I0403 18:40:58.430176  7257 net.cpp:91] Creating Layer inception_5b/relu_3x3
I0403 18:40:58.430191  7257 net.cpp:425] inception_5b/relu_3x3 <- inception_5b/3x3
I0403 18:40:58.430214  7257 net.cpp:386] inception_5b/relu_3x3 -> inception_5b/3x3 (in-place)
I0403 18:40:58.430526  7257 net.cpp:141] Setting up inception_5b/relu_3x3
I0403 18:40:58.430564  7257 net.cpp:148] Top shape: 24 384 7 7 (451584)
I0403 18:40:58.430580  7257 net.cpp:156] Memory required for data: 1334273568
I0403 18:40:58.430595  7257 layer_factory.hpp:77] Creating layer inception_5b/5x5_reduce
I0403 18:40:58.430634  7257 net.cpp:91] Creating Layer inception_5b/5x5_reduce
I0403 18:40:58.430652  7257 net.cpp:425] inception_5b/5x5_reduce <- inception_5a/output_inception_5a/output_0_split_2
I0403 18:40:58.430675  7257 net.cpp:399] inception_5b/5x5_reduce -> inception_5b/5x5_reduce
I0403 18:40:58.431913  7257 net.cpp:141] Setting up inception_5b/5x5_reduce
I0403 18:40:58.431941  7257 net.cpp:148] Top shape: 24 48 7 7 (56448)
I0403 18:40:58.431958  7257 net.cpp:156] Memory required for data: 1334499360
I0403 18:40:58.431977  7257 layer_factory.hpp:77] Creating layer inception_5b/relu_5x5_reduce
I0403 18:40:58.431994  7257 net.cpp:91] Creating Layer inception_5b/relu_5x5_reduce
I0403 18:40:58.432011  7257 net.cpp:425] inception_5b/relu_5x5_reduce <- inception_5b/5x5_reduce
I0403 18:40:58.432031  7257 net.cpp:386] inception_5b/relu_5x5_reduce -> inception_5b/5x5_reduce (in-place)
I0403 18:40:58.432435  7257 net.cpp:141] Setting up inception_5b/relu_5x5_reduce
I0403 18:40:58.432461  7257 net.cpp:148] Top shape: 24 48 7 7 (56448)
I0403 18:40:58.432476  7257 net.cpp:156] Memory required for data: 1334725152
I0403 18:40:58.432492  7257 layer_factory.hpp:77] Creating layer inception_5b/5x5
I0403 18:40:58.432514  7257 net.cpp:91] Creating Layer inception_5b/5x5
I0403 18:40:58.432531  7257 net.cpp:425] inception_5b/5x5 <- inception_5b/5x5_reduce
I0403 18:40:58.432564  7257 net.cpp:399] inception_5b/5x5 -> inception_5b/5x5
I0403 18:40:58.434608  7257 net.cpp:141] Setting up inception_5b/5x5
I0403 18:40:58.434636  7257 net.cpp:148] Top shape: 24 128 7 7 (150528)
I0403 18:40:58.434653  7257 net.cpp:156] Memory required for data: 1335327264
I0403 18:40:58.434671  7257 layer_factory.hpp:77] Creating layer inception_5b/relu_5x5
I0403 18:40:58.434692  7257 net.cpp:91] Creating Layer inception_5b/relu_5x5
I0403 18:40:58.434711  7257 net.cpp:425] inception_5b/relu_5x5 <- inception_5b/5x5
I0403 18:40:58.434731  7257 net.cpp:386] inception_5b/relu_5x5 -> inception_5b/5x5 (in-place)
I0403 18:40:58.434924  7257 net.cpp:141] Setting up inception_5b/relu_5x5
I0403 18:40:58.434948  7257 net.cpp:148] Top shape: 24 128 7 7 (150528)
I0403 18:40:58.434963  7257 net.cpp:156] Memory required for data: 1335929376
I0403 18:40:58.434979  7257 layer_factory.hpp:77] Creating layer inception_5b/pool
I0403 18:40:58.434999  7257 net.cpp:91] Creating Layer inception_5b/pool
I0403 18:40:58.435016  7257 net.cpp:425] inception_5b/pool <- inception_5a/output_inception_5a/output_0_split_3
I0403 18:40:58.435034  7257 net.cpp:399] inception_5b/pool -> inception_5b/pool
I0403 18:40:58.435106  7257 net.cpp:141] Setting up inception_5b/pool
I0403 18:40:58.435129  7257 net.cpp:148] Top shape: 24 832 7 7 (978432)
I0403 18:40:58.435144  7257 net.cpp:156] Memory required for data: 1339843104
I0403 18:40:58.435159  7257 layer_factory.hpp:77] Creating layer inception_5b/pool_proj
I0403 18:40:58.435181  7257 net.cpp:91] Creating Layer inception_5b/pool_proj
I0403 18:40:58.435199  7257 net.cpp:425] inception_5b/pool_proj <- inception_5b/pool
I0403 18:40:58.435225  7257 net.cpp:399] inception_5b/pool_proj -> inception_5b/pool_proj
I0403 18:40:58.437546  7257 net.cpp:141] Setting up inception_5b/pool_proj
I0403 18:40:58.437577  7257 net.cpp:148] Top shape: 24 128 7 7 (150528)
I0403 18:40:58.437594  7257 net.cpp:156] Memory required for data: 1340445216
I0403 18:40:58.437614  7257 layer_factory.hpp:77] Creating layer inception_5b/relu_pool_proj
I0403 18:40:58.437633  7257 net.cpp:91] Creating Layer inception_5b/relu_pool_proj
I0403 18:40:58.437649  7257 net.cpp:425] inception_5b/relu_pool_proj <- inception_5b/pool_proj
I0403 18:40:58.437681  7257 net.cpp:386] inception_5b/relu_pool_proj -> inception_5b/pool_proj (in-place)
I0403 18:40:58.437973  7257 net.cpp:141] Setting up inception_5b/relu_pool_proj
I0403 18:40:58.438001  7257 net.cpp:148] Top shape: 24 128 7 7 (150528)
I0403 18:40:58.438019  7257 net.cpp:156] Memory required for data: 1341047328
I0403 18:40:58.438035  7257 layer_factory.hpp:77] Creating layer inception_5b/output
I0403 18:40:58.438052  7257 net.cpp:91] Creating Layer inception_5b/output
I0403 18:40:58.438083  7257 net.cpp:425] inception_5b/output <- inception_5b/1x1
I0403 18:40:58.438102  7257 net.cpp:425] inception_5b/output <- inception_5b/3x3
I0403 18:40:58.438118  7257 net.cpp:425] inception_5b/output <- inception_5b/5x5
I0403 18:40:58.438134  7257 net.cpp:425] inception_5b/output <- inception_5b/pool_proj
I0403 18:40:58.438153  7257 net.cpp:399] inception_5b/output -> inception_5b/output
I0403 18:40:58.438204  7257 net.cpp:141] Setting up inception_5b/output
I0403 18:40:58.438233  7257 net.cpp:148] Top shape: 24 1024 7 7 (1204224)
I0403 18:40:58.438261  7257 net.cpp:156] Memory required for data: 1345864224
I0403 18:40:58.438277  7257 layer_factory.hpp:77] Creating layer pool5/7x7_s1
I0403 18:40:58.438294  7257 net.cpp:91] Creating Layer pool5/7x7_s1
I0403 18:40:58.438313  7257 net.cpp:425] pool5/7x7_s1 <- inception_5b/output
I0403 18:40:58.438334  7257 net.cpp:399] pool5/7x7_s1 -> pool5/7x7_s1
I0403 18:40:58.438565  7257 net.cpp:141] Setting up pool5/7x7_s1
I0403 18:40:58.438590  7257 net.cpp:148] Top shape: 24 1024 1 1 (24576)
I0403 18:40:58.438604  7257 net.cpp:156] Memory required for data: 1345962528
I0403 18:40:58.438619  7257 layer_factory.hpp:77] Creating layer pool5/drop_7x7_s1
I0403 18:40:58.438637  7257 net.cpp:91] Creating Layer pool5/drop_7x7_s1
I0403 18:40:58.438653  7257 net.cpp:425] pool5/drop_7x7_s1 <- pool5/7x7_s1
I0403 18:40:58.438673  7257 net.cpp:386] pool5/drop_7x7_s1 -> pool5/7x7_s1 (in-place)
I0403 18:40:58.438724  7257 net.cpp:141] Setting up pool5/drop_7x7_s1
I0403 18:40:58.438746  7257 net.cpp:148] Top shape: 24 1024 1 1 (24576)
I0403 18:40:58.438762  7257 net.cpp:156] Memory required for data: 1346060832
I0403 18:40:58.438777  7257 layer_factory.hpp:77] Creating layer loss3/classifier_plantvillage
I0403 18:40:58.438797  7257 net.cpp:91] Creating Layer loss3/classifier_plantvillage
I0403 18:40:58.438813  7257 net.cpp:425] loss3/classifier_plantvillage <- pool5/7x7_s1
I0403 18:40:58.438834  7257 net.cpp:399] loss3/classifier_plantvillage -> loss3/classifier_plantvillage
I0403 18:40:58.439263  7257 net.cpp:141] Setting up loss3/classifier_plantvillage
I0403 18:40:58.439298  7257 net.cpp:148] Top shape: 24 38 (912)
I0403 18:40:58.439312  7257 net.cpp:156] Memory required for data: 1346064480
I0403 18:40:58.439330  7257 layer_factory.hpp:77] Creating layer loss3/classifier_plantvillage_loss3/classifier_plantvillage_0_split
I0403 18:40:58.439352  7257 net.cpp:91] Creating Layer loss3/classifier_plantvillage_loss3/classifier_plantvillage_0_split
I0403 18:40:58.439368  7257 net.cpp:425] loss3/classifier_plantvillage_loss3/classifier_plantvillage_0_split <- loss3/classifier_plantvillage
I0403 18:40:58.439388  7257 net.cpp:399] loss3/classifier_plantvillage_loss3/classifier_plantvillage_0_split -> loss3/classifier_plantvillage_loss3/classifier_plantvillage_0_split_0
I0403 18:40:58.439409  7257 net.cpp:399] loss3/classifier_plantvillage_loss3/classifier_plantvillage_0_split -> loss3/classifier_plantvillage_loss3/classifier_plantvillage_0_split_1
I0403 18:40:58.439429  7257 net.cpp:399] loss3/classifier_plantvillage_loss3/classifier_plantvillage_0_split -> loss3/classifier_plantvillage_loss3/classifier_plantvillage_0_split_2
I0403 18:40:58.439448  7257 net.cpp:399] loss3/classifier_plantvillage_loss3/classifier_plantvillage_0_split -> loss3/classifier_plantvillage_loss3/classifier_plantvillage_0_split_3
I0403 18:40:58.439548  7257 net.cpp:141] Setting up loss3/classifier_plantvillage_loss3/classifier_plantvillage_0_split
I0403 18:40:58.439571  7257 net.cpp:148] Top shape: 24 38 (912)
I0403 18:40:58.439587  7257 net.cpp:148] Top shape: 24 38 (912)
I0403 18:40:58.439607  7257 net.cpp:148] Top shape: 24 38 (912)
I0403 18:40:58.439623  7257 net.cpp:148] Top shape: 24 38 (912)
I0403 18:40:58.439637  7257 net.cpp:156] Memory required for data: 1346079072
I0403 18:40:58.439652  7257 layer_factory.hpp:77] Creating layer loss1/loss
I0403 18:40:58.439674  7257 net.cpp:91] Creating Layer loss1/loss
I0403 18:40:58.439692  7257 net.cpp:425] loss1/loss <- loss1/classifier_plantvillage_loss1/classifier_plantvillage_0_split_0
I0403 18:40:58.439723  7257 net.cpp:425] loss1/loss <- label_data_1_split_0
…
