…
I0403 17:58:43.620719  6355 net.cpp:313] The NetState phase (1) differed from the phase (0) specified by a rule in layer data
I0403 17:58:43.621927  6355 net.cpp:49] Initializing net from parameters: 
state {
  phase: TEST
}
layer {
  name: "data"
  type: "Data"
  top: "data"
  top: "label"
  include {
    phase: TEST
  }
  transform_param {
    mirror: false
    crop_size: 224
    mean_file: "/home/mohanty/data/final_dataset/lmdb/segmented-50-50/mean.binaryproto"
  }
  data_param {
    source: "/home/mohanty/data/final_dataset/lmdb/segmented-50-50/test_db"
    batch_size: 24
    backend: LMDB
  }
}
layer {
  name: "conv1/7x7_s2"
  type: "Convolution"
  bottom: "data"
  top: "conv1/7x7_s2"
  param {
    lr_mult: 1
    decay_mult: 1
  }
  param {
    lr_mult: 2
    decay_mult: 0
  }
  convolution_param {
    num_output: 64
    pad: 3
    kernel_size: 7
    stride: 2
    weight_filler {
      type: "xavier"
      std: 0.1
    }
    bias_filler {
      type: "constant"
      value: 0.2
    }
  }
}
layer {
  name: "conv1/relu_7x7"
  type: "ReLU"
  bottom: "conv1/7x7_s2"
  top: "conv1/7x7_s2"
}
layer {
  name: "pool1/3x3_s2"
  type: "Pooling"
  bottom: "conv1/7x7_s2"
  top: "pool1/3x3_s2"
  pooling_param {
    pool: MAX
    kernel_size: 3
    stride: 2
  }
}
layer {
  name: "pool1/norm1"
  type: "LRN"
  bottom: "pool1/3x3_s2"
  top: "pool1/norm1"
  lrn_param {
    local_size: 5
    alpha: 0.0001
    beta: 0.75
  }
}
layer {
  name: "conv2/3x3_reduce"
  type: "Convolution"
  bottom: "pool1/norm1"
  top: "conv2/3x3_reduce"
  param {
    lr_mult: 1
    decay_mult: 1
  }
  param {
    lr_mult: 2
    decay_mult: 0
  }
  convolution_param {
    num_output: 64
    kernel_size: 1
    weight_filler {
      type: "xavier"
      std: 0.1
    }
    bias_filler {
      type: "constant"
      value: 0.2
    }
  }
}
layer {
  name: "conv2/relu_3x3_reduce"
  type: "ReLU"
  bottom: "conv2/3x3_reduce"
  top: "conv2/3x3_reduce"
}
layer {
  name: "conv2/3x3"
  type: "Convolution"
  bottom: "conv2/3x3_reduce"
  top: "conv2/3x3"
  param {
    lr_mult: 1
    decay_mult: 1
  }
  param {
    lr_mult: 2
    decay_mult: 0
  }
  convolution_param {
    num_output: 192
    pad: 1
    kernel_size: 3
    weight_filler {
      type: "xavier"
      std: 0.03
    }
    bias_filler {
      type: "constant"
      value: 0.2
    }
  }
}
layer {
  name: "conv2/relu_3x3"
  type: "ReLU"
  bottom: "conv2/3x3"
  top: "conv2/3x3"
}
layer {
  name: "conv2/norm2"
  type: "LRN"
  bottom: "conv2/3x3"
  top: "conv2/norm2"
  lrn_param {
    local_size: 5
    alpha: 0.0001
    beta: 0.75
  }
}
layer {
  name: "pool2/3x3_s2"
  type: "Pooling"
  bottom: "conv2/norm2"
  top: "pool2/3x3_s2"
  pooling_param {
    pool: MAX
    kernel_size: 3
    stride: 2
  }
}
layer {
  name: "inception_3a/1x1"
  type: "Convolution"
  bottom: "pool2/3x3_s2"
  top: "inception_3a/1x1"
  param {
    lr_mult: 1
    decay_mult: 1
  }
  param {
    lr_mult: 2
    decay_mult: 0
  }
  convolution_param {
    num_output: 64
    kernel_size: 1
    weight_filler {
      type: "xavier"
      std: 0.03
    }
    bias_filler {
      type: "constant"
      value: 0.2
    }
  }
}
layer {
  name: "inception_3a/relu_1x1"
  type: "ReLU"
  bottom: "inception_3a/1x1"
  top: "inception_3a/1x1"
}
layer {
  name: "inception_3a/3x3_reduce"
  type: "Convolution"
  bottom: "pool2/3x3_s2"
  top: "inception_3a/3x3_reduce"
  param {
    lr_mult: 1
    decay_mult: 1
  }
  param {
    lr_mult: 2
    decay_mult: 0
  }
  convolution_param {
    num_output: 96
    kernel_size: 1
    weight_filler {
      type: "xavier"
      std: 0.09
    }
    bias_filler {
      type: "constant"
      value: 0.2
    }
  }
}
layer {
  name: "inception_3a/relu_3x3_reduce"
  type: "ReLU"
  bottom: "inception_3a/3x3_reduce"
  top: "inception_3a/3x3_reduce"
}
layer {
  name: "inception_3a/3x3"
  type: "Convolution"
  bottom: "inception_3a/3x3_reduce"
  top: "inception_3a/3x3"
  param {
    lr_mult: 1
    decay_mult: 1
  }
  param {
    lr_mult: 2
    decay_mult: 0
  }
  convolution_param {
    num_output: 128
    pad: 1
    kernel_size: 3
    weight_filler {
      type: "xavier"
      std: 0.03
    }
    bias_filler {
      type: "constant"
      value: 0.2
    }
  }
}
layer {
  name: "inception_3a/relu_3x3"
  type: "ReLU"
  bottom: "inception_3a/3x3"
  top: "inception_3a/3x3"
}
layer {
  name: "inception_3a/5x5_reduce"
  type: "Convolution"
  bottom: "pool2/3x3_s2"
  top: "inception_3a/5x5_reduce"
  param {
    lr_mult: 1
    decay_mult: 1
  }
  param {
    lr_mult: 2
    decay_mult: 0
  }
  convolution_param {
    num_output: 16
    kernel_size: 1
    weight_filler {
      type: "xavier"
      std: 0.2
    }
    bias_filler {
      type: "constant"
      value: 0.2
    }
  }
}
layer {
  name: "inception_3a/relu_5x5_reduce"
  type: "ReLU"
  bottom: "inception_3a/5x5_reduce"
  top: "inception_3a/5x5_reduce"
}
layer {
  name: "inception_3a/5x5"
  type: "Convolution"
  bottom: "inception_3a/5x5_reduce"
  top: "inception_3a/5x5"
  param {
    lr_mult: 1
    decay_mult: 1
  }
  param {
    lr_mult: 2
    decay_mult: 0
  }
  convolution_param {
    num_output: 32
    pad: 2
    kernel_size: 5
    weight_filler {
      type: "xavier"
      std: 0.03
    }
    bias_filler {
      type: "constant"
      value: 0.2
    }
  }
}
layer {
  name: "inception_3a/relu_5x5"
  type: "ReLU"
  bottom: "inception_3a/5x5"
  top: "inception_3a/5x5"
}
layer {
  name: "inception_3a/pool"
  type: "Pooling"
  bottom: "pool2/3x3_s2"
  top: "inception_3a/pool"
  pooling_param {
    pool: MAX
    kernel_size: 3
    stride: 1
    pad: 1
  }
}
layer {
  name: "inception_3a/pool_proj"
  type: "Convolution"
  bottom: "inception_3a/pool"
  top: "inception_3a/pool_proj"
  param {
    lr_mult: 1
    decay_mult: 1
  }
  param {
    lr_mult: 2
    decay_mult: 0
  }
  convolution_param {
    num_output: 32
    kernel_size: 1
    weight_filler {
      type: "xavier"
      std: 0.1
    }
    bias_filler {
      type: "constant"
      value: 0.2
    }
  }
}
layer {
  name: "inception_3a/relu_pool_proj"
  type: "ReLU"
  bottom: "inception_3a/pool_proj"
  top: "inception_3a/pool_proj"
}
layer {
  name: "inception_3a/output"
  type: "Concat"
  bottom: "inception_3a/1x1"
  bottom: "inception_3a/3x3"
  bottom: "inception_3a/5x5"
  bottom: "inception_3a/pool_proj"
  top: "inception_3a/output"
}
layer {
  name: "inception_3b/1x1"
  type: "Convolution"
  bottom: "inception_3a/output"
  top: "inception_3b/1x1"
  param {
    lr_mult: 1
    decay_mult: 1
  }
  param {
    lr_mult: 2
    decay_mult: 0
  }
  convolution_param {
    num_output: 128
    kernel_size: 1
    weight_filler {
      type: "xavier"
      std: 0.03
    }
    bias_filler {
      type: "constant"
      value: 0.2
    }
  }
}
layer {
  name: "inception_3b/relu_1x1"
  type: "ReLU"
  bottom: "inception_3b/1x1"
  top: "inception_3b/1x1"
}
layer {
  name: "inception_3b/3x3_reduce"
  type: "Convolution"
  bottom: "inception_3a/output"
  top: "inception_3b/3x3_reduce"
  param {
    lr_mult: 1
    decay_mult: 1
  }
  param {
    lr_mult: 2
    decay_mult: 0
  }
  convolution_param {
    num_output: 128
    kernel_size: 1
    weight_filler {
      type: "xavier"
      std: 0.09
    }
    bias_filler {
      type: "constant"
      value: 0.2
    }
  }
}
layer {
  name: "inception_3b/relu_3x3_reduce"
  type: "ReLU"
  bottom: "inception_3b/3x3_reduce"
  top: "inception_3b/3x3_reduce"
}
layer {
  name: "inception_3b/3x3"
  type: "Convolution"
  bottom: "inception_3b/3x3_reduce"
  top: "inception_3b/3x3"
  param {
    lr_mult: 1
    decay_mult: 1
  }
  param {
    lr_mult: 2
    decay_mult: 0
  }
  convolution_param {
    num_output: 192
    pad: 1
    kernel_size: 3
    weight_filler {
      type: "xavier"
      std: 0.03
    }
    bias_filler {
      type: "constant"
      value: 0.2
    }
  }
}
layer {
  name: "inception_3b/relu_3x3"
  type: "ReLU"
  bottom: "inception_3b/3x3"
  top: "inception_3b/3x3"
}
layer {
  name: "inception_3b/5x5_reduce"
  type: "Convolution"
  bottom: "inception_3a/output"
  top: "inception_3b/5x5_reduce"
  param {
    lr_mult: 1
    decay_mult: 1
  }
  param {
    lr_mult: 2
    decay_mult: 0
  }
  convolution_param {
    num_output: 32
    kernel_size: 1
    weight_filler {
      type: "xavier"
      std: 0.2
    }
    bias_filler {
      type: "constant"
      value: 0.2
    }
  }
}
layer {
  name: "inception_3b/relu_5x5_reduce"
  type: "ReLU"
  bottom: "inception_3b/5x5_reduce"
  top: "inception_3b/5x5_reduce"
}
layer {
  name: "inception_3b/5x5"
  type: "Convolution"
  bottom: "inception_3b/5x5_reduce"
  top: "inception_3b/5x5"
  param {
    lr_mult: 1
    decay_mult: 1
  }
  param {
    lr_mult: 2
    decay_mult: 0
  }
  convolution_param {
    num_output: 96
    pad: 2
    kernel_size: 5
    weight_filler {
      type: "xavier"
      std: 0.03
    }
    bias_filler {
      type: "constant"
      value: 0.2
    }
  }
}
layer {
  name: "inception_3b/relu_5x5"
  type: "ReLU"
  bottom: "inception_3b/5x5"
  top: "inception_3b/5x5"
}
layer {
  name: "inception_3b/pool"
  type: "Pooling"
  bottom: "inception_3a/output"
  top: "inception_3b/pool"
  pooling_param {
    pool: MAX
    kernel_size: 3
    stride: 1
    pad: 1
  }
}
layer {
  name: "inception_3b/pool_proj"
  type: "Convolution"
  bottom: "inception_3b/pool"
  top: "inception_3b/pool_proj"
  param {
    lr_mult: 1
    decay_mult: 1
  }
  param {
    lr_mult: 2
    decay_mult: 0
  }
  convolution_param {
    num_output: 64
    kernel_size: 1
    weight_filler {
      type: "xavier"
      std: 0.1
    }
    bias_filler {
      type: "constant"
      value: 0.2
    }
  }
}
layer {
  name: "inception_3b/relu_pool_proj"
  type: "ReLU"
  bottom: "inception_3b/pool_proj"
  top: "inception_3b/pool_proj"
}
layer {
  name: "inception_3b/output"
  type: "Concat"
  bottom: "inception_3b/1x1"
  bottom: "inception_3b/3x3"
  bottom: "inception_3b/5x5"
  bottom: "inception_3b/pool_proj"
  top: "inception_3b/output"
}
layer {
  name: "pool3/3x3_s2"
  type: "Pooling"
  bottom: "inception_3b/output"
  top: "pool3/3x3_s2"
  pooling_param {
    pool: MAX
    kernel_size: 3
    stride: 2
  }
}
layer {
  name: "inception_4a/1x1"
  type: "Convolution"
  bottom: "pool3/3x3_s2"
  top: "inception_4a/1x1"
  param {
    lr_mult: 1
    decay_mult: 1
  }
  param {
    lr_mult: 2
    decay_mult: 0
  }
  convolution_param {
    num_output: 192
    kernel_size: 1
    weight_filler {
      type: "xavier"
      std: 0.03
    }
    bias_filler {
      type: "constant"
      value: 0.2
    }
  }
}
layer {
  name: "inception_4a/relu_1x1"
  type: "ReLU"
  bottom: "inception_4a/1x1"
  top: "inception_4a/1x1"
}
layer {
  name: "inception_4a/3x3_reduce"
  type: "Convolution"
  bottom: "pool3/3x3_s2"
  top: "inception_4a/3x3_reduce"
  param {
    lr_mult: 1
    decay_mult: 1
  }
  param {
    lr_mult: 2
    decay_mult: 0
  }
  convolution_param {
    num_output: 96
    kernel_size: 1
    weight_filler {
      type: "xavier"
      std: 0.09
    }
    bias_filler {
      type: "constant"
      value: 0.2
    }
  }
}
layer {
  name: "inception_4a/relu_3x3_reduce"
  type: "ReLU"
  bottom: "inception_4a/3x3_reduce"
  top: "inception_4a/3x3_reduce"
}
layer {
  name: "inception_4a/3x3"
  type: "Convolution"
  bottom: "inception_4a/3x3_reduce"
  top: "inception_4a/3x3"
  param {
    lr_mult: 1
    decay_mult: 1
  }
  param {
    lr_mult: 2
    decay_mult: 0
  }
  convolution_param {
    num_output: 208
    pad: 1
    kernel_size: 3
    weight_filler {
      type: "xavier"
      std: 0.03
    }
    bias_filler {
      type: "constant"
      value: 0.2
    }
  }
}
layer {
  name: "inception_4a/relu_3x3"
  type: "ReLU"
  bottom: "inception_4a/3x3"
  top: "inception_4a/3x3"
}
layer {
  name: "inception_4a/5x5_reduce"
  type: "Convolution"
  bottom: "pool3/3x3_s2"
  top: "inception_4a/5x5_reduce"
  param {
    lr_mult: 1
    decay_mult: 1
  }
  param {
    lr_mult: 2
    decay_mult: 0
  }
  convolution_param {
    num_output: 16
    kernel_size: 1
    weight_filler {
      type: "xavier"
      std: 0.2
    }
    bias_filler {
      type: "constant"
      value: 0.2
    }
  }
}
layer {
  name: "inception_4a/relu_5x5_reduce"
  type: "ReLU"
  bottom: "inception_4a/5x5_reduce"
  top: "inception_4a/5x5_reduce"
}
layer {
  name: "inception_4a/5x5"
  type: "Convolution"
  bottom: "inception_4a/5x5_reduce"
  top: "inception_4a/5x5"
  param {
    lr_mult: 1
    decay_mult: 1
  }
  param {
    lr_mult: 2
    decay_mult: 0
  }
  convolution_param {
    num_output: 48
    pad: 2
    kernel_size: 5
    weight_filler {
      type: "xavier"
      std: 0.03
    }
    bias_filler {
      type: "constant"
      value: 0.2
    }
  }
}
layer {
  name: "inception_4a/relu_5x5"
  type: "ReLU"
  bottom: "inception_4a/5x5"
  top: "inception_4a/5x5"
}
layer {
  name: "inception_4a/pool"
  type: "Pooling"
  bottom: "pool3/3x3_s2"
  top: "inception_4a/pool"
  pooling_param {
    pool: MAX
    kernel_size: 3
    stride: 1
    pad: 1
  }
}
layer {
  name: "inception_4a/pool_proj"
  type: "Convolution"
  bottom: "inception_4a/pool"
  top: "inception_4a/pool_proj"
  param {
    lr_mult: 1
    decay_mult: 1
  }
  param {
    lr_mult: 2
    decay_mult: 0
  }
  convolution_param {
    num_output: 64
    kernel_size: 1
    weight_filler {
      type: "xavier"
      std: 0.1
    }
    bias_filler {
      type: "constant"
      value: 0.2
    }
  }
}
layer {
  name: "inception_4a/relu_pool_proj"
  type: "ReLU"
  bottom: "inception_4a/pool_proj"
  top: "inception_4a/pool_proj"
}
layer {
  name: "inception_4a/output"
  type: "Concat"
  bottom: "inception_4a/1x1"
  bottom: "inception_4a/3x3"
  bottom: "inception_4a/5x5"
  bottom: "inception_4a/pool_proj"
  top: "inception_4a/output"
}
layer {
  name: "loss1/ave_pool"
  type: "Pooling"
  bottom: "inception_4a/output"
  top: "loss1/ave_pool"
  pooling_param {
    pool: AVE
    kernel_size: 5
    stride: 3
  }
}
layer {
  name: "loss1/conv"
  type: "Convolution"
  bottom: "loss1/ave_pool"
  top: "loss1/conv"
  param {
    lr_mult: 1
    decay_mult: 1
  }
  param {
    lr_mult: 2
    decay_mult: 0
  }
  convolution_param {
    num_output: 128
    kernel_size: 1
    weight_filler {
      type: "xavier"
      std: 0.08
    }
    bias_filler {
      type: "constant"
      value: 0.2
    }
  }
}
layer {
  name: "loss1/relu_conv"
  type: "ReLU"
  bottom: "loss1/conv"
  top: "loss1/conv"
}
layer {
  name: "loss1/fc"
  type: "InnerProduct"
  bottom: "loss1/conv"
  top: "loss1/fc"
  param {
    lr_mult: 1
    decay_mult: 1
  }
  param {
    lr_mult: 2
    decay_mult: 0
  }
  inner_product_param {
    num_output: 1024
    weight_filler {
      type: "xavier"
      std: 0.02
    }
    bias_filler {
      type: "constant"
      value: 0.2
    }
  }
}
layer {
  name: "loss1/relu_fc"
  type: "ReLU"
  bottom: "loss1/fc"
  top: "loss1/fc"
}
layer {
  name: "loss1/drop_fc"
  type: "Dropout"
  bottom: "loss1/fc"
  top: "loss1/fc"
  dropout_param {
    dropout_ratio: 0.7
  }
}
layer {
  name: "loss1/classifier_plantvillage"
  type: "InnerProduct"
  bottom: "loss1/fc"
  top: "loss1/classifier_plantvillage"
  param {
    lr_mult: 1
    decay_mult: 1
  }
  param {
    lr_mult: 2
    decay_mult: 0
  }
  inner_product_param {
    num_output: 38
    weight_filler {
      type: "xavier"
      std: 0.0009765625
    }
    bias_filler {
      type: "constant"
      value: 0
    }
  }
}
layer {
  name: "inception_4b/1x1"
  type: "Convolution"
  bottom: "inception_4a/output"
  top: "inception_4b/1x1"
  param {
    lr_mult: 1
    decay_mult: 1
  }
  param {
    lr_mult: 2
    decay_mult: 0
  }
  convolution_param {
    num_output: 160
    kernel_size: 1
    weight_filler {
      type: "xavier"
      std: 0.03
    }
    bias_filler {
      type: "constant"
      value: 0.2
    }
  }
}
layer {
  name: "inception_4b/relu_1x1"
  type: "ReLU"
  bottom: "inception_4b/1x1"
  top: "inception_4b/1x1"
}
layer {
  name: "inception_4b/3x3_reduce"
  type: "Convolution"
  bottom: "inception_4a/output"
  top: "inception_4b/3x3_reduce"
  param {
    lr_mult: 1
    decay_mult: 1
  }
  param {
    lr_mult: 2
    decay_mult: 0
  }
  convolution_param {
    num_output: 112
    kernel_size: 1
    weight_filler {
      type: "xavier"
      std: 0.09
    }
    bias_filler {
      type: "constant"
      value: 0.2
    }
  }
}
layer {
  name: "inception_4b/relu_3x3_reduce"
  type: "ReLU"
  bottom: "inception_4b/3x3_reduce"
  top: "inception_4b/3x3_reduce"
}
layer {
  name: "inception_4b/3x3"
  type: "Convolution"
  bottom: "inception_4b/3x3_reduce"
  top: "inception_4b/3x3"
  param {
    lr_mult: 1
    decay_mult: 1
  }
  param {
    lr_mult: 2
    decay_mult: 0
  }
  convolution_param {
    num_output: 224
    pad: 1
    kernel_size: 3
    weight_filler {
      type: "xavier"
      std: 0.03
    }
    bias_filler {
      type: "constant"
      value: 0.2
    }
  }
}
layer {
  name: "inception_4b/relu_3x3"
  type: "ReLU"
  bottom: "inception_4b/3x3"
  top: "inception_4b/3x3"
}
layer {
  name: "inception_4b/5x5_reduce"
  type: "Convolution"
  bottom: "inception_4a/output"
  top: "inception_4b/5x5_reduce"
  param {
    lr_mult: 1
    decay_mult: 1
  }
  param {
    lr_mult: 2
    decay_mult: 0
  }
  convolution_param {
    num_output: 24
    kernel_size: 1
    weight_filler {
      type: "xavier"
      std: 0.2
    }
    bias_filler {
      type: "constant"
      value: 0.2
    }
  }
}
layer {
  name: "inception_4b/relu_5x5_reduce"
  type: "ReLU"
  bottom: "inception_4b/5x5_reduce"
  top: "inception_4b/5x5_reduce"
}
layer {
  name: "inception_4b/5x5"
  type: "Convolution"
  bottom: "inception_4b/5x5_reduce"
  top: "inception_4b/5x5"
  param {
    lr_mult: 1
    decay_mult: 1
  }
  param {
    lr_mult: 2
    decay_mult: 0
  }
  convolution_param {
    num_output: 64
    pad: 2
    kernel_size: 5
    weight_filler {
      type: "xavier"
      std: 0.03
    }
    bias_filler {
      type: "constant"
      value: 0.2
    }
  }
}
layer {
  name: "inception_4b/relu_5x5"
  type: "ReLU"
  bottom: "inception_4b/5x5"
  top: "inception_4b/5x5"
}
layer {
  name: "inception_4b/pool"
  type: "Pooling"
  bottom: "inception_4a/output"
  top: "inception_4b/pool"
  pooling_param {
    pool: MAX
    kernel_size: 3
    stride: 1
    pad: 1
  }
}
layer {
  name: "inception_4b/pool_proj"
  type: "Convolution"
  bottom: "inception_4b/pool"
  top: "inception_4b/pool_proj"
  param {
    lr_mult: 1
    decay_mult: 1
  }
  param {
    lr_mult: 2
    decay_mult: 0
  }
  convolution_param {
    num_output: 64
    kernel_size: 1
    weight_filler {
      type: "xavier"
      std: 0.1
    }
    bias_filler {
      type: "constant"
      value: 0.2
    }
  }
}
layer {
  name: "inception_4b/relu_pool_proj"
  type: "ReLU"
  bottom: "inception_4b/pool_proj"
  top: "inception_4b/pool_proj"
}
layer {
  name: "inception_4b/output"
  type: "Concat"
  bottom: "inception_4b/1x1"
  bottom: "inception_4b/3x3"
  bottom: "inception_4b/5x5"
  bottom: "inception_4b/pool_proj"
  top: "inception_4b/output"
}
layer {
  name: "inception_4c/1x1"
  type: "Convolution"
  bottom: "inception_4b/output"
  top: "inception_4c/1x1"
  param {
    lr_mult: 1
    decay_mult: 1
  }
  param {
    lr_mult: 2
    decay_mult: 0
  }
  convolution_param {
    num_output: 128
    kernel_size: 1
    weight_filler {
      type: "xavier"
      std: 0.03
    }
    bias_filler {
      type: "constant"
      value: 0.2
    }
  }
}
layer {
  name: "inception_4c/relu_1x1"
  type: "ReLU"
  bottom: "inception_4c/1x1"
  top: "inception_4c/1x1"
}
layer {
  name: "inception_4c/3x3_reduce"
  type: "Convolution"
  bottom: "inception_4b/output"
  top: "inception_4c/3x3_reduce"
  param {
    lr_mult: 1
    decay_mult: 1
  }
  param {
    lr_mult: 2
    decay_mult: 0
  }
  convolution_param {
    num_output: 128
    kernel_size: 1
    weight_filler {
      type: "xavier"
      std: 0.09
    }
    bias_filler {
      type: "constant"
      value: 0.2
    }
  }
}
layer {
  name: "inception_4c/relu_3x3_reduce"
  type: "ReLU"
  bottom: "inception_4c/3x3_reduce"
  top: "inception_4c/3x3_reduce"
}
layer {
  name: "inception_4c/3x3"
  type: "Convolution"
  bottom: "inception_4c/3x3_reduce"
  top: "inception_4c/3x3"
  param {
    lr_mult: 1
    decay_mult: 1
  }
  param {
    lr_mult: 2
    decay_mult: 0
  }
  convolution_param {
    num_output: 256
    pad: 1
    kernel_size: 3
    weight_filler {
      type: "xavier"
      std: 0.03
    }
    bias_filler {
      type: "constant"
      value: 0.2
    }
  }
}
layer {
  name: "inception_4c/relu_3x3"
  type: "ReLU"
  bottom: "inception_4c/3x3"
  top: "inception_4c/3x3"
}
layer {
  name: "inception_4c/5x5_reduce"
  type: "Convolution"
  bottom: "inception_4b/output"
  top: "inception_4c/5x5_reduce"
  param {
    lr_mult: 1
    decay_mult: 1
  }
  param {
    lr_mult: 2
    decay_mult: 0
  }
  convolution_param {
    num_output: 24
    kernel_size: 1
    weight_filler {
      type: "xavier"
      std: 0.2
    }
    bias_filler {
      type: "constant"
      value: 0.2
    }
  }
}
layer {
  name: "inception_4c/relu_5x5_reduce"
  type: "ReLU"
  bottom: "inception_4c/5x5_reduce"
  top: "inception_4c/5x5_reduce"
}
layer {
  name: "inception_4c/5x5"
  type: "Convolution"
  bottom: "inception_4c/5x5_reduce"
  top: "inception_4c/5x5"
  param {
    lr_mult: 1
    decay_mult: 1
  }
  param {
    lr_mult: 2
    decay_mult: 0
  }
  convolution_param {
    num_output: 64
    pad: 2
    kernel_size: 5
    weight_filler {
      type: "xavier"
      std: 0.03
    }
    bias_filler {
      type: "constant"
      value: 0.2
    }
  }
}
layer {
  name: "inception_4c/relu_5x5"
  type: "ReLU"
  bottom: "inception_4c/5x5"
  top: "inception_4c/5x5"
}
layer {
  name: "inception_4c/pool"
  type: "Pooling"
  bottom: "inception_4b/output"
  top: "inception_4c/pool"
  pooling_param {
    pool: MAX
    kernel_size: 3
    stride: 1
    pad: 1
  }
}
layer {
  name: "inception_4c/pool_proj"
  type: "Convolution"
  bottom: "inception_4c/pool"
  top: "inception_4c/pool_proj"
  param {
    lr_mult: 1
    decay_mult: 1
  }
  param {
    lr_mult: 2
    decay_mult: 0
  }
  convolution_param {
    num_output: 64
    kernel_size: 1
    weight_filler {
      type: "xavier"
      std: 0.1
    }
    bias_filler {
      type: "constant"
      value: 0.2
    }
  }
}
layer {
  name: "inception_4c/relu_pool_proj"
  type: "ReLU"
  bottom: "inception_4c/pool_proj"
  top: "inception_4c/pool_proj"
}
layer {
  name: "inception_4c/output"
  type: "Concat"
  bottom: "inception_4c/1x1"
  bottom: "inception_4c/3x3"
  bottom: "inception_4c/5x5"
  bottom: "inception_4c/pool_proj"
  top: "inception_4c/output"
}
layer {
  name: "inception_4d/1x1"
  type: "Convolution"
  bottom: "inception_4c/output"
  top: "inception_4d/1x1"
  param {
    lr_mult: 1
    decay_mult: 1
  }
  param {
    lr_mult: 2
    decay_mult: 0
  }
  convolution_param {
    num_output: 112
    kernel_size: 1
    weight_filler {
      type: "xavier"
      std: 0.03
    }
    bias_filler {
      type: "constant"
      value: 0.2
    }
  }
}
layer {
  name: "inception_4d/relu_1x1"
  type: "ReLU"
  bottom: "inception_4d/1x1"
  top: "inception_4d/1x1"
}
layer {
  name: "inception_4d/3x3_reduce"
  type: "Convolution"
  bottom: "inception_4c/output"
  top: "inception_4d/3x3_reduce"
  param {
    lr_mult: 1
    decay_mult: 1
  }
  param {
    lr_mult: 2
    decay_mult: 0
  }
  convolution_param {
    num_output: 144
    kernel_size: 1
    weight_filler {
      type: "xavier"
      std: 0.09
    }
    bias_filler {
      type: "constant"
      value: 0.2
    }
  }
}
layer {
  name: "inception_4d/relu_3x3_reduce"
  type: "ReLU"
  bottom: "inception_4d/3x3_reduce"
  top: "inception_4d/3x3_reduce"
}
layer {
  name: "inception_4d/3x3"
  type: "Convolution"
  bottom: "inception_4d/3x3_reduce"
  top: "inception_4d/3x3"
  param {
    lr_mult: 1
    decay_mult: 1
  }
  param {
    lr_mult: 2
    decay_mult: 0
  }
  convolution_param {
    num_output: 288
    pad: 1
    kernel_size: 3
    weight_filler {
      type: "xavier"
      std: 0.03
    }
    bias_filler {
      type: "constant"
      value: 0.2
    }
  }
}
layer {
  name: "inception_4d/relu_3x3"
  type: "ReLU"
  bottom: "inception_4d/3x3"
  top: "inception_4d/3x3"
}
layer {
  name: "inception_4d/5x5_reduce"
  type: "Convolution"
  bottom: "inception_4c/output"
  top: "inception_4d/5x5_reduce"
  param {
    lr_mult: 1
    decay_mult: 1
  }
  param {
    lr_mult: 2
    decay_mult: 0
  }
  convolution_param {
    num_output: 32
    kernel_size: 1
    weight_filler {
      type: "xavier"
      std: 0.2
    }
    bias_filler {
      type: "constant"
      value: 0.2
    }
  }
}
layer {
  name: "inception_4d/relu_5x5_reduce"
  type: "ReLU"
  bottom: "inception_4d/5x5_reduce"
  top: "inception_4d/5x5_reduce"
}
layer {
  name: "inception_4d/5x5"
  type: "Convolution"
  bottom: "inception_4d/5x5_reduce"
  top: "inception_4d/5x5"
  param {
    lr_mult: 1
    decay_mult: 1
  }
  param {
    lr_mult: 2
    decay_mult: 0
  }
  convolution_param {
    num_output: 64
    pad: 2
    kernel_size: 5
    weight_filler {
      type: "xavier"
      std: 0.03
    }
    bias_filler {
      type: "constant"
      value: 0.2
    }
  }
}
layer {
  name: "inception_4d/relu_5x5"
  type: "ReLU"
  bottom: "inception_4d/5x5"
  top: "inception_4d/5x5"
}
layer {
  name: "inception_4d/pool"
  type: "Pooling"
  bottom: "inception_4c/output"
  top: "inception_4d/pool"
  pooling_param {
    pool: MAX
    kernel_size: 3
    stride: 1
    pad: 1
  }
}
layer {
  name: "inception_4d/pool_proj"
  type: "Convolution"
  bottom: "inception_4d/pool"
  top: "inception_4d/pool_proj"
  param {
    lr_mult: 1
    decay_mult: 1
  }
  param {
    lr_mult: 2
    decay_mult: 0
  }
  convolution_param {
    num_output: 64
    kernel_size: 1
    weight_filler {
      type: "xavier"
      std: 0.1
    }
    bias_filler {
      type: "constant"
      value: 0.2
    }
  }
}
layer {
  name: "inception_4d/relu_pool_proj"
  type: "ReLU"
  bottom: "inception_4d/pool_proj"
  top: "inception_4d/pool_proj"
}
layer {
  name: "inception_4d/output"
  type: "Concat"
  bottom: "inception_4d/1x1"
  bottom: "inception_4d/3x3"
  bottom: "inception_4d/5x5"
  bottom: "inception_4d/pool_proj"
  top: "inception_4d/output"
}
layer {
  name: "loss2/ave_pool"
  type: "Pooling"
  bottom: "inception_4d/output"
  top: "loss2/ave_pool"
  pooling_param {
    pool: AVE
    kernel_size: 5
    stride: 3
  }
}
layer {
  name: "loss2/conv"
  type: "Convolution"
  bottom: "loss2/ave_pool"
  top: "loss2/conv"
  param {
    lr_mult: 1
    decay_mult: 1
  }
  param {
    lr_mult: 2
    decay_mult: 0
  }
  convolution_param {
    num_output: 128
    kernel_size: 1
    weight_filler {
      type: "xavier"
      std: 0.08
    }
    bias_filler {
      type: "constant"
      value: 0.2
    }
  }
}
layer {
  name: "loss2/relu_conv"
  type: "ReLU"
  bottom: "loss2/conv"
  top: "loss2/conv"
}
layer {
  name: "loss2/fc"
  type: "InnerProduct"
  bottom: "loss2/conv"
  top: "loss2/fc"
  param {
    lr_mult: 1
    decay_mult: 1
  }
  param {
    lr_mult: 2
    decay_mult: 0
  }
  inner_product_param {
    num_output: 1024
    weight_filler {
      type: "xavier"
      std: 0.02
    }
    bias_filler {
      type: "constant"
      value: 0.2
    }
  }
}
layer {
  name: "loss2/relu_fc"
  type: "ReLU"
  bottom: "loss2/fc"
  top: "loss2/fc"
}
layer {
  name: "loss2/drop_fc"
  type: "Dropout"
  bottom: "loss2/fc"
  top: "loss2/fc"
  dropout_param {
    dropout_ratio: 0.7
  }
}
layer {
  name: "loss2/classifier_plantvillage"
  type: "InnerProduct"
  bottom: "loss2/fc"
  top: "loss2/classifier_plantvillage"
  param {
    lr_mult: 1
    decay_mult: 1
  }
  param {
    lr_mult: 2
    decay_mult: 0
  }
  inner_product_param {
    num_output: 38
    weight_filler {
      type: "xavier"
      std: 0.0009765625
    }
    bias_filler {
      type: "constant"
      value: 0
    }
  }
}
layer {
  name: "inception_4e/1x1"
  type: "Convolution"
  bottom: "inception_4d/output"
  top: "inception_4e/1x1"
  param {
    lr_mult: 1
    decay_mult: 1
  }
  param {
    lr_mult: 2
    decay_mult: 0
  }
  convolution_param {
    num_output: 256
    kernel_size: 1
    weight_filler {
      type: "xavier"
      std: 0.03
    }
    bias_filler {
      type: "constant"
      value: 0.2
    }
  }
}
layer {
  name: "inception_4e/relu_1x1"
  type: "ReLU"
  bottom: "inception_4e/1x1"
  top: "inception_4e/1x1"
}
layer {
  name: "inception_4e/3x3_reduce"
  type: "Convolution"
  bottom: "inception_4d/output"
  top: "inception_4e/3x3_reduce"
  param {
    lr_mult: 1
    decay_mult: 1
  }
  param {
    lr_mult: 2
    decay_mult: 0
  }
  convolution_param {
    num_output: 160
    kernel_size: 1
    weight_filler {
      type: "xavier"
      std: 0.09
    }
    bias_filler {
      type: "constant"
      value: 0.2
    }
  }
}
layer {
  name: "inception_4e/relu_3x3_reduce"
  type: "ReLU"
  bottom: "inception_4e/3x3_reduce"
  top: "inception_4e/3x3_reduce"
}
layer {
  name: "inception_4e/3x3"
  type: "Convolution"
  bottom: "inception_4e/3x3_reduce"
  top: "inception_4e/3x3"
  param {
    lr_mult: 1
    decay_mult: 1
  }
  param {
    lr_mult: 2
    decay_mult: 0
  }
  convolution_param {
    num_output: 320
    pad: 1
    kernel_size: 3
    weight_filler {
      type: "xavier"
      std: 0.03
    }
    bias_filler {
      type: "constant"
      value: 0.2
    }
  }
}
layer {
  name: "inception_4e/relu_3x3"
  type: "ReLU"
  bottom: "inception_4e/3x3"
  top: "inception_4e/3x3"
}
layer {
  name: "inception_4e/5x5_reduce"
  type: "Convolution"
  bottom: "inception_4d/output"
  top: "inception_4e/5x5_reduce"
  param {
    lr_mult: 1
    decay_mult: 1
  }
  param {
    lr_mult: 2
    decay_mult: 0
  }
  convolution_param {
    num_output: 32
    kernel_size: 1
    weight_filler {
      type: "xavier"
      std: 0.2
    }
    bias_filler {
      type: "constant"
      value: 0.2
    }
  }
}
layer {
  name: "inception_4e/relu_5x5_reduce"
  type: "ReLU"
  bottom: "inception_4e/5x5_reduce"
  top: "inception_4e/5x5_reduce"
}
layer {
  name: "inception_4e/5x5"
  type: "Convolution"
  bottom: "inception_4e/5x5_reduce"
  top: "inception_4e/
I0403 17:58:43.623190  6355 layer_factory.hpp:77] Creating layer data
I0403 17:58:43.623800  6355 net.cpp:91] Creating Layer data
I0403 17:58:43.623832  6355 net.cpp:399] data -> data
I0403 17:58:43.623884  6355 net.cpp:399] data -> label
I0403 17:58:43.623921  6355 data_transformer.cpp:25] Loading mean file from: /home/mohanty/data/final_dataset/lmdb/segmented-50-50/mean.binaryproto
I0403 17:58:43.625558  6359 db_lmdb.cpp:38] Opened lmdb /home/mohanty/data/final_dataset/lmdb/segmented-50-50/test_db
I0403 17:58:43.637061  6355 data_layer.cpp:41] output data size: 24,3,224,224
I0403 17:58:43.664196  6355 net.cpp:141] Setting up data
I0403 17:58:43.664276  6355 net.cpp:148] Top shape: 24 3 224 224 (3612672)
I0403 17:58:43.664299  6355 net.cpp:148] Top shape: 24 (24)
I0403 17:58:43.664314  6355 net.cpp:156] Memory required for data: 14450784
I0403 17:58:43.664341  6355 layer_factory.hpp:77] Creating layer label_data_1_split
I0403 17:58:43.664368  6355 net.cpp:91] Creating Layer label_data_1_split
I0403 17:58:43.664386  6355 net.cpp:425] label_data_1_split <- label
I0403 17:58:43.664417  6355 net.cpp:399] label_data_1_split -> label_data_1_split_0
I0403 17:58:43.664444  6355 net.cpp:399] label_data_1_split -> label_data_1_split_1
I0403 17:58:43.664464  6355 net.cpp:399] label_data_1_split -> label_data_1_split_2
I0403 17:58:43.664485  6355 net.cpp:399] label_data_1_split -> label_data_1_split_3
I0403 17:58:43.664506  6355 net.cpp:399] label_data_1_split -> label_data_1_split_4
I0403 17:58:43.664526  6355 net.cpp:399] label_data_1_split -> label_data_1_split_5
I0403 17:58:43.664546  6355 net.cpp:399] label_data_1_split -> label_data_1_split_6
I0403 17:58:43.664566  6355 net.cpp:399] label_data_1_split -> label_data_1_split_7
I0403 17:58:43.664584  6355 net.cpp:399] label_data_1_split -> label_data_1_split_8
I0403 17:58:43.664605  6355 net.cpp:399] label_data_1_split -> label_data_1_split_9
I0403 17:58:43.664719  6355 net.cpp:141] Setting up label_data_1_split
I0403 17:58:43.664742  6355 net.cpp:148] Top shape: 24 (24)
I0403 17:58:43.664759  6355 net.cpp:148] Top shape: 24 (24)
I0403 17:58:43.664775  6355 net.cpp:148] Top shape: 24 (24)
I0403 17:58:43.664791  6355 net.cpp:148] Top shape: 24 (24)
I0403 17:58:43.664808  6355 net.cpp:148] Top shape: 24 (24)
I0403 17:58:43.664824  6355 net.cpp:148] Top shape: 24 (24)
I0403 17:58:43.664840  6355 net.cpp:148] Top shape: 24 (24)
I0403 17:58:43.664856  6355 net.cpp:148] Top shape: 24 (24)
I0403 17:58:43.664872  6355 net.cpp:148] Top shape: 24 (24)
I0403 17:58:43.664888  6355 net.cpp:148] Top shape: 24 (24)
I0403 17:58:43.664932  6355 net.cpp:156] Memory required for data: 14451744
I0403 17:58:43.664948  6355 layer_factory.hpp:77] Creating layer conv1/7x7_s2
I0403 17:58:43.664979  6355 net.cpp:91] Creating Layer conv1/7x7_s2
I0403 17:58:43.664997  6355 net.cpp:425] conv1/7x7_s2 <- data
I0403 17:58:43.665017  6355 net.cpp:399] conv1/7x7_s2 -> conv1/7x7_s2
I0403 17:58:43.804561  6355 net.cpp:141] Setting up conv1/7x7_s2
I0403 17:58:43.804606  6355 net.cpp:148] Top shape: 24 64 112 112 (19267584)
I0403 17:58:43.804623  6355 net.cpp:156] Memory required for data: 91522080
I0403 17:58:43.804656  6355 layer_factory.hpp:77] Creating layer conv1/relu_7x7
I0403 17:58:43.804682  6355 net.cpp:91] Creating Layer conv1/relu_7x7
I0403 17:58:43.804702  6355 net.cpp:425] conv1/relu_7x7 <- conv1/7x7_s2
I0403 17:58:43.804720  6355 net.cpp:386] conv1/relu_7x7 -> conv1/7x7_s2 (in-place)
I0403 17:58:43.804992  6355 net.cpp:141] Setting up conv1/relu_7x7
I0403 17:58:43.805018  6355 net.cpp:148] Top shape: 24 64 112 112 (19267584)
I0403 17:58:43.805034  6355 net.cpp:156] Memory required for data: 168592416
I0403 17:58:43.805049  6355 layer_factory.hpp:77] Creating layer pool1/3x3_s2
I0403 17:58:43.805073  6355 net.cpp:91] Creating Layer pool1/3x3_s2
I0403 17:58:43.805091  6355 net.cpp:425] pool1/3x3_s2 <- conv1/7x7_s2
I0403 17:58:43.805109  6355 net.cpp:399] pool1/3x3_s2 -> pool1/3x3_s2
I0403 17:58:43.805198  6355 net.cpp:141] Setting up pool1/3x3_s2
I0403 17:58:43.805223  6355 net.cpp:148] Top shape: 24 64 56 56 (4816896)
I0403 17:58:43.805238  6355 net.cpp:156] Memory required for data: 187860000
I0403 17:58:43.805253  6355 layer_factory.hpp:77] Creating layer pool1/norm1
I0403 17:58:43.805279  6355 net.cpp:91] Creating Layer pool1/norm1
I0403 17:58:43.805296  6355 net.cpp:425] pool1/norm1 <- pool1/3x3_s2
I0403 17:58:43.805315  6355 net.cpp:399] pool1/norm1 -> pool1/norm1
I0403 17:58:43.805618  6355 net.cpp:141] Setting up pool1/norm1
I0403 17:58:43.805644  6355 net.cpp:148] Top shape: 24 64 56 56 (4816896)
I0403 17:58:43.805660  6355 net.cpp:156] Memory required for data: 207127584
I0403 17:58:43.805675  6355 layer_factory.hpp:77] Creating layer conv2/3x3_reduce
I0403 17:58:43.805699  6355 net.cpp:91] Creating Layer conv2/3x3_reduce
I0403 17:58:43.805716  6355 net.cpp:425] conv2/3x3_reduce <- pool1/norm1
I0403 17:58:43.805734  6355 net.cpp:399] conv2/3x3_reduce -> conv2/3x3_reduce
I0403 17:58:43.807070  6355 net.cpp:141] Setting up conv2/3x3_reduce
I0403 17:58:43.807102  6355 net.cpp:148] Top shape: 24 64 56 56 (4816896)
I0403 17:58:43.807118  6355 net.cpp:156] Memory required for data: 226395168
I0403 17:58:43.807139  6355 layer_factory.hpp:77] Creating layer conv2/relu_3x3_reduce
I0403 17:58:43.807158  6355 net.cpp:91] Creating Layer conv2/relu_3x3_reduce
I0403 17:58:43.807174  6355 net.cpp:425] conv2/relu_3x3_reduce <- conv2/3x3_reduce
I0403 17:58:43.807199  6355 net.cpp:386] conv2/relu_3x3_reduce -> conv2/3x3_reduce (in-place)
I0403 17:58:43.807466  6355 net.cpp:141] Setting up conv2/relu_3x3_reduce
I0403 17:58:43.807494  6355 net.cpp:148] Top shape: 24 64 56 56 (4816896)
I0403 17:58:43.807510  6355 net.cpp:156] Memory required for data: 245662752
I0403 17:58:43.807525  6355 layer_factory.hpp:77] Creating layer conv2/3x3
I0403 17:58:43.807549  6355 net.cpp:91] Creating Layer conv2/3x3
I0403 17:58:43.807567  6355 net.cpp:425] conv2/3x3 <- conv2/3x3_reduce
I0403 17:58:43.807588  6355 net.cpp:399] conv2/3x3 -> conv2/3x3
I0403 17:58:43.809875  6355 net.cpp:141] Setting up conv2/3x3
I0403 17:58:43.809907  6355 net.cpp:148] Top shape: 24 192 56 56 (14450688)
I0403 17:58:43.809923  6355 net.cpp:156] Memory required for data: 303465504
I0403 17:58:43.809945  6355 layer_factory.hpp:77] Creating layer conv2/relu_3x3
I0403 17:58:43.809964  6355 net.cpp:91] Creating Layer conv2/relu_3x3
I0403 17:58:43.809980  6355 net.cpp:425] conv2/relu_3x3 <- conv2/3x3
I0403 17:58:43.809999  6355 net.cpp:386] conv2/relu_3x3 -> conv2/3x3 (in-place)
I0403 17:58:43.810173  6355 net.cpp:141] Setting up conv2/relu_3x3
I0403 17:58:43.810204  6355 net.cpp:148] Top shape: 24 192 56 56 (14450688)
I0403 17:58:43.810248  6355 net.cpp:156] Memory required for data: 361268256
I0403 17:58:43.810264  6355 layer_factory.hpp:77] Creating layer conv2/norm2
I0403 17:58:43.810284  6355 net.cpp:91] Creating Layer conv2/norm2
I0403 17:58:43.810302  6355 net.cpp:425] conv2/norm2 <- conv2/3x3
I0403 17:58:43.810319  6355 net.cpp:399] conv2/norm2 -> conv2/norm2
I0403 17:58:43.810624  6355 net.cpp:141] Setting up conv2/norm2
I0403 17:58:43.810653  6355 net.cpp:148] Top shape: 24 192 56 56 (14450688)
I0403 17:58:43.810670  6355 net.cpp:156] Memory required for data: 419071008
I0403 17:58:43.810685  6355 layer_factory.hpp:77] Creating layer pool2/3x3_s2
I0403 17:58:43.810703  6355 net.cpp:91] Creating Layer pool2/3x3_s2
I0403 17:58:43.810719  6355 net.cpp:425] pool2/3x3_s2 <- conv2/norm2
I0403 17:58:43.810737  6355 net.cpp:399] pool2/3x3_s2 -> pool2/3x3_s2
I0403 17:58:43.810791  6355 net.cpp:141] Setting up pool2/3x3_s2
I0403 17:58:43.810813  6355 net.cpp:148] Top shape: 24 192 28 28 (3612672)
I0403 17:58:43.810828  6355 net.cpp:156] Memory required for data: 433521696
I0403 17:58:43.810842  6355 layer_factory.hpp:77] Creating layer pool2/3x3_s2_pool2/3x3_s2_0_split
I0403 17:58:43.810860  6355 net.cpp:91] Creating Layer pool2/3x3_s2_pool2/3x3_s2_0_split
I0403 17:58:43.810876  6355 net.cpp:425] pool2/3x3_s2_pool2/3x3_s2_0_split <- pool2/3x3_s2
I0403 17:58:43.810896  6355 net.cpp:399] pool2/3x3_s2_pool2/3x3_s2_0_split -> pool2/3x3_s2_pool2/3x3_s2_0_split_0
I0403 17:58:43.810917  6355 net.cpp:399] pool2/3x3_s2_pool2/3x3_s2_0_split -> pool2/3x3_s2_pool2/3x3_s2_0_split_1
I0403 17:58:43.810936  6355 net.cpp:399] pool2/3x3_s2_pool2/3x3_s2_0_split -> pool2/3x3_s2_pool2/3x3_s2_0_split_2
I0403 17:58:43.810958  6355 net.cpp:399] pool2/3x3_s2_pool2/3x3_s2_0_split -> pool2/3x3_s2_pool2/3x3_s2_0_split_3
I0403 17:58:43.811033  6355 net.cpp:141] Setting up pool2/3x3_s2_pool2/3x3_s2_0_split
I0403 17:58:43.811055  6355 net.cpp:148] Top shape: 24 192 28 28 (3612672)
I0403 17:58:43.811072  6355 net.cpp:148] Top shape: 24 192 28 28 (3612672)
I0403 17:58:43.811089  6355 net.cpp:148] Top shape: 24 192 28 28 (3612672)
I0403 17:58:43.811105  6355 net.cpp:148] Top shape: 24 192 28 28 (3612672)
I0403 17:58:43.811120  6355 net.cpp:156] Memory required for data: 491324448
I0403 17:58:43.811133  6355 layer_factory.hpp:77] Creating layer inception_3a/1x1
I0403 17:58:43.811156  6355 net.cpp:91] Creating Layer inception_3a/1x1
I0403 17:58:43.811190  6355 net.cpp:425] inception_3a/1x1 <- pool2/3x3_s2_pool2/3x3_s2_0_split_0
I0403 17:58:43.811215  6355 net.cpp:399] inception_3a/1x1 -> inception_3a/1x1
I0403 17:58:43.812782  6355 net.cpp:141] Setting up inception_3a/1x1
I0403 17:58:43.812811  6355 net.cpp:148] Top shape: 24 64 28 28 (1204224)
I0403 17:58:43.812827  6355 net.cpp:156] Memory required for data: 496141344
I0403 17:58:43.812846  6355 layer_factory.hpp:77] Creating layer inception_3a/relu_1x1
I0403 17:58:43.812865  6355 net.cpp:91] Creating Layer inception_3a/relu_1x1
I0403 17:58:43.812880  6355 net.cpp:425] inception_3a/relu_1x1 <- inception_3a/1x1
I0403 17:58:43.812898  6355 net.cpp:386] inception_3a/relu_1x1 -> inception_3a/1x1 (in-place)
I0403 17:58:43.813066  6355 net.cpp:141] Setting up inception_3a/relu_1x1
I0403 17:58:43.813091  6355 net.cpp:148] Top shape: 24 64 28 28 (1204224)
I0403 17:58:43.813104  6355 net.cpp:156] Memory required for data: 500958240
I0403 17:58:43.813118  6355 layer_factory.hpp:77] Creating layer inception_3a/3x3_reduce
I0403 17:58:43.813140  6355 net.cpp:91] Creating Layer inception_3a/3x3_reduce
I0403 17:58:43.813158  6355 net.cpp:425] inception_3a/3x3_reduce <- pool2/3x3_s2_pool2/3x3_s2_0_split_1
I0403 17:58:43.813189  6355 net.cpp:399] inception_3a/3x3_reduce -> inception_3a/3x3_reduce
I0403 17:58:43.814827  6355 net.cpp:141] Setting up inception_3a/3x3_reduce
I0403 17:58:43.814858  6355 net.cpp:148] Top shape: 24 96 28 28 (1806336)
I0403 17:58:43.814874  6355 net.cpp:156] Memory required for data: 508183584
I0403 17:58:43.814895  6355 layer_factory.hpp:77] Creating layer inception_3a/relu_3x3_reduce
I0403 17:58:43.814929  6355 net.cpp:91] Creating Layer inception_3a/relu_3x3_reduce
I0403 17:58:43.814947  6355 net.cpp:425] inception_3a/relu_3x3_reduce <- inception_3a/3x3_reduce
I0403 17:58:43.814966  6355 net.cpp:386] inception_3a/relu_3x3_reduce -> inception_3a/3x3_reduce (in-place)
I0403 17:58:43.815140  6355 net.cpp:141] Setting up inception_3a/relu_3x3_reduce
I0403 17:58:43.815167  6355 net.cpp:148] Top shape: 24 96 28 28 (1806336)
I0403 17:58:43.815186  6355 net.cpp:156] Memory required for data: 515408928
I0403 17:58:43.815202  6355 layer_factory.hpp:77] Creating layer inception_3a/3x3
I0403 17:58:43.815224  6355 net.cpp:91] Creating Layer inception_3a/3x3
I0403 17:58:43.815242  6355 net.cpp:425] inception_3a/3x3 <- inception_3a/3x3_reduce
I0403 17:58:43.815260  6355 net.cpp:399] inception_3a/3x3 -> inception_3a/3x3
I0403 17:58:43.816846  6355 net.cpp:141] Setting up inception_3a/3x3
I0403 17:58:43.816874  6355 net.cpp:148] Top shape: 24 128 28 28 (2408448)
I0403 17:58:43.816889  6355 net.cpp:156] Memory required for data: 525042720
I0403 17:58:43.816906  6355 layer_factory.hpp:77] Creating layer inception_3a/relu_3x3
I0403 17:58:43.816925  6355 net.cpp:91] Creating Layer inception_3a/relu_3x3
I0403 17:58:43.816939  6355 net.cpp:425] inception_3a/relu_3x3 <- inception_3a/3x3
I0403 17:58:43.816959  6355 net.cpp:386] inception_3a/relu_3x3 -> inception_3a/3x3 (in-place)
I0403 17:58:43.817234  6355 net.cpp:141] Setting up inception_3a/relu_3x3
I0403 17:58:43.817258  6355 net.cpp:148] Top shape: 24 128 28 28 (2408448)
I0403 17:58:43.817273  6355 net.cpp:156] Memory required for data: 534676512
I0403 17:58:43.817288  6355 layer_factory.hpp:77] Creating layer inception_3a/5x5_reduce
I0403 17:58:43.817311  6355 net.cpp:91] Creating Layer inception_3a/5x5_reduce
I0403 17:58:43.817328  6355 net.cpp:425] inception_3a/5x5_reduce <- pool2/3x3_s2_pool2/3x3_s2_0_split_2
I0403 17:58:43.817353  6355 net.cpp:399] inception_3a/5x5_reduce -> inception_3a/5x5_reduce
I0403 17:58:43.818307  6355 net.cpp:141] Setting up inception_3a/5x5_reduce
I0403 17:58:43.818334  6355 net.cpp:148] Top shape: 24 16 28 28 (301056)
I0403 17:58:43.818351  6355 net.cpp:156] Memory required for data: 535880736
I0403 17:58:43.818369  6355 layer_factory.hpp:77] Creating layer inception_3a/relu_5x5_reduce
I0403 17:58:43.818390  6355 net.cpp:91] Creating Layer inception_3a/relu_5x5_reduce
I0403 17:58:43.818408  6355 net.cpp:425] inception_3a/relu_5x5_reduce <- inception_3a/5x5_reduce
I0403 17:58:43.818425  6355 net.cpp:386] inception_3a/relu_5x5_reduce -> inception_3a/5x5_reduce (in-place)
I0403 17:58:43.818735  6355 net.cpp:141] Setting up inception_3a/relu_5x5_reduce
I0403 17:58:43.818761  6355 net.cpp:148] Top shape: 24 16 28 28 (301056)
I0403 17:58:43.818776  6355 net.cpp:156] Memory required for data: 537084960
I0403 17:58:43.818792  6355 layer_factory.hpp:77] Creating layer inception_3a/5x5
I0403 17:58:43.818814  6355 net.cpp:91] Creating Layer inception_3a/5x5
I0403 17:58:43.818832  6355 net.cpp:425] inception_3a/5x5 <- inception_3a/5x5_reduce
I0403 17:58:43.818853  6355 net.cpp:399] inception_3a/5x5 -> inception_3a/5x5
I0403 17:58:43.819865  6355 net.cpp:141] Setting up inception_3a/5x5
I0403 17:58:43.819895  6355 net.cpp:148] Top shape: 24 32 28 28 (602112)
I0403 17:58:43.819911  6355 net.cpp:156] Memory required for data: 539493408
I0403 17:58:43.819929  6355 layer_factory.hpp:77] Creating layer inception_3a/relu_5x5
I0403 17:58:43.819947  6355 net.cpp:91] Creating Layer inception_3a/relu_5x5
I0403 17:58:43.819963  6355 net.cpp:425] inception_3a/relu_5x5 <- inception_3a/5x5
I0403 17:58:43.819983  6355 net.cpp:386] inception_3a/relu_5x5 -> inception_3a/5x5 (in-place)
I0403 17:58:43.820155  6355 net.cpp:141] Setting up inception_3a/relu_5x5
I0403 17:58:43.820183  6355 net.cpp:148] Top shape: 24 32 28 28 (602112)
I0403 17:58:43.820200  6355 net.cpp:156] Memory required for data: 541901856
I0403 17:58:43.820215  6355 layer_factory.hpp:77] Creating layer inception_3a/pool
I0403 17:58:43.820233  6355 net.cpp:91] Creating Layer inception_3a/pool
I0403 17:58:43.820263  6355 net.cpp:425] inception_3a/pool <- pool2/3x3_s2_pool2/3x3_s2_0_split_3
I0403 17:58:43.820284  6355 net.cpp:399] inception_3a/pool -> inception_3a/pool
I0403 17:58:43.820343  6355 net.cpp:141] Setting up inception_3a/pool
I0403 17:58:43.820365  6355 net.cpp:148] Top shape: 24 192 28 28 (3612672)
I0403 17:58:43.820380  6355 net.cpp:156] Memory required for data: 556352544
I0403 17:58:43.820395  6355 layer_factory.hpp:77] Creating layer inception_3a/pool_proj
I0403 17:58:43.820422  6355 net.cpp:91] Creating Layer inception_3a/pool_proj
I0403 17:58:43.820441  6355 net.cpp:425] inception_3a/pool_proj <- inception_3a/pool
I0403 17:58:43.820461  6355 net.cpp:399] inception_3a/pool_proj -> inception_3a/pool_proj
I0403 17:58:43.821449  6355 net.cpp:141] Setting up inception_3a/pool_proj
I0403 17:58:43.821477  6355 net.cpp:148] Top shape: 24 32 28 28 (602112)
I0403 17:58:43.821493  6355 net.cpp:156] Memory required for data: 558760992
I0403 17:58:43.821517  6355 layer_factory.hpp:77] Creating layer inception_3a/relu_pool_proj
I0403 17:58:43.821538  6355 net.cpp:91] Creating Layer inception_3a/relu_pool_proj
I0403 17:58:43.821555  6355 net.cpp:425] inception_3a/relu_pool_proj <- inception_3a/pool_proj
I0403 17:58:43.821574  6355 net.cpp:386] inception_3a/relu_pool_proj -> inception_3a/pool_proj (in-place)
I0403 17:58:43.821846  6355 net.cpp:141] Setting up inception_3a/relu_pool_proj
I0403 17:58:43.821872  6355 net.cpp:148] Top shape: 24 32 28 28 (602112)
I0403 17:58:43.821887  6355 net.cpp:156] Memory required for data: 561169440
I0403 17:58:43.821902  6355 layer_factory.hpp:77] Creating layer inception_3a/output
I0403 17:58:43.821920  6355 net.cpp:91] Creating Layer inception_3a/output
I0403 17:58:43.821936  6355 net.cpp:425] inception_3a/output <- inception_3a/1x1
I0403 17:58:43.821954  6355 net.cpp:425] inception_3a/output <- inception_3a/3x3
I0403 17:58:43.821969  6355 net.cpp:425] inception_3a/output <- inception_3a/5x5
I0403 17:58:43.821985  6355 net.cpp:425] inception_3a/output <- inception_3a/pool_proj
I0403 17:58:43.822005  6355 net.cpp:399] inception_3a/output -> inception_3a/output
I0403 17:58:43.822051  6355 net.cpp:141] Setting up inception_3a/output
I0403 17:58:43.822072  6355 net.cpp:148] Top shape: 24 256 28 28 (4816896)
I0403 17:58:43.822088  6355 net.cpp:156] Memory required for data: 580437024
I0403 17:58:43.822103  6355 layer_factory.hpp:77] Creating layer inception_3a/output_inception_3a/output_0_split
I0403 17:58:43.822123  6355 net.cpp:91] Creating Layer inception_3a/output_inception_3a/output_0_split
I0403 17:58:43.822139  6355 net.cpp:425] inception_3a/output_inception_3a/output_0_split <- inception_3a/output
I0403 17:58:43.822156  6355 net.cpp:399] inception_3a/output_inception_3a/output_0_split -> inception_3a/output_inception_3a/output_0_split_0
I0403 17:58:43.822196  6355 net.cpp:399] inception_3a/output_inception_3a/output_0_split -> inception_3a/output_inception_3a/output_0_split_1
I0403 17:58:43.822221  6355 net.cpp:399] inception_3a/output_inception_3a/output_0_split -> inception_3a/output_inception_3a/output_0_split_2
I0403 17:58:43.822243  6355 net.cpp:399] inception_3a/output_inception_3a/output_0_split -> inception_3a/output_inception_3a/output_0_split_3
I0403 17:58:43.822317  6355 net.cpp:141] Setting up inception_3a/output_inception_3a/output_0_split
I0403 17:58:43.822345  6355 net.cpp:148] Top shape: 24 256 28 28 (4816896)
I0403 17:58:43.822362  6355 net.cpp:148] Top shape: 24 256 28 28 (4816896)
I0403 17:58:43.822381  6355 net.cpp:148] Top shape: 24 256 28 28 (4816896)
I0403 17:58:43.822396  6355 net.cpp:148] Top shape: 24 256 28 28 (4816896)
I0403 17:58:43.822412  6355 net.cpp:156] Memory required for data: 657507360
I0403 17:58:43.822427  6355 layer_factory.hpp:77] Creating layer inception_3b/1x1
I0403 17:58:43.822450  6355 net.cpp:91] Creating Layer inception_3b/1x1
I0403 17:58:43.822468  6355 net.cpp:425] inception_3b/1x1 <- inception_3a/output_inception_3a/output_0_split_0
I0403 17:58:43.822502  6355 net.cpp:399] inception_3b/1x1 -> inception_3b/1x1
I0403 17:58:43.823634  6355 net.cpp:141] Setting up inception_3b/1x1
I0403 17:58:43.823675  6355 net.cpp:148] Top shape: 24 128 28 28 (2408448)
I0403 17:58:43.823693  6355 net.cpp:156] Memory required for data: 667141152
I0403 17:58:43.823711  6355 layer_factory.hpp:77] Creating layer inception_3b/relu_1x1
I0403 17:58:43.823729  6355 net.cpp:91] Creating Layer inception_3b/relu_1x1
I0403 17:58:43.823745  6355 net.cpp:425] inception_3b/relu_1x1 <- inception_3b/1x1
I0403 17:58:43.823762  6355 net.cpp:386] inception_3b/relu_1x1 -> inception_3b/1x1 (in-place)
I0403 17:58:43.823945  6355 net.cpp:141] Setting up inception_3b/relu_1x1
I0403 17:58:43.823969  6355 net.cpp:148] Top shape: 24 128 28 28 (2408448)
I0403 17:58:43.823984  6355 net.cpp:156] Memory required for data: 676774944
I0403 17:58:43.823999  6355 layer_factory.hpp:77] Creating layer inception_3b/3x3_reduce
I0403 17:58:43.824021  6355 net.cpp:91] Creating Layer inception_3b/3x3_reduce
I0403 17:58:43.824039  6355 net.cpp:425] inception_3b/3x3_reduce <- inception_3a/output_inception_3a/output_0_split_1
I0403 17:58:43.824061  6355 net.cpp:399] inception_3b/3x3_reduce -> inception_3b/3x3_reduce
I0403 17:58:43.825188  6355 net.cpp:141] Setting up inception_3b/3x3_reduce
I0403 17:58:43.825217  6355 net.cpp:148] Top shape: 24 128 28 28 (2408448)
I0403 17:58:43.825234  6355 net.cpp:156] Memory required for data: 686408736
I0403 17:58:43.825253  6355 layer_factory.hpp:77] Creating layer inception_3b/relu_3x3_reduce
I0403 17:58:43.825270  6355 net.cpp:91] Creating Layer inception_3b/relu_3x3_reduce
I0403 17:58:43.825286  6355 net.cpp:425] inception_3b/relu_3x3_reduce <- inception_3b/3x3_reduce
I0403 17:58:43.825306  6355 net.cpp:386] inception_3b/relu_3x3_reduce -> inception_3b/3x3_reduce (in-place)
I0403 17:58:43.825477  6355 net.cpp:141] Setting up inception_3b/relu_3x3_reduce
I0403 17:58:43.825502  6355 net.cpp:148] Top shape: 24 128 28 28 (2408448)
I0403 17:58:43.825517  6355 net.cpp:156] Memory required for data: 696042528
I0403 17:58:43.825532  6355 layer_factory.hpp:77] Creating layer inception_3b/3x3
I0403 17:58:43.825557  6355 net.cpp:91] Creating Layer inception_3b/3x3
I0403 17:58:43.825575  6355 net.cpp:425] inception_3b/3x3 <- inception_3b/3x3_reduce
I0403 17:58:43.825595  6355 net.cpp:399] inception_3b/3x3 -> inception_3b/3x3
I0403 17:58:43.828498  6355 net.cpp:141] Setting up inception_3b/3x3
I0403 17:58:43.828528  6355 net.cpp:148] Top shape: 24 192 28 28 (3612672)
I0403 17:58:43.828544  6355 net.cpp:156] Memory required for data: 710493216
I0403 17:58:43.828563  6355 layer_factory.hpp:77] Creating layer inception_3b/relu_3x3
I0403 17:58:43.828583  6355 net.cpp:91] Creating Layer inception_3b/relu_3x3
I0403 17:58:43.828598  6355 net.cpp:425] inception_3b/relu_3x3 <- inception_3b/3x3
I0403 17:58:43.828619  6355 net.cpp:386] inception_3b/relu_3x3 -> inception_3b/3x3 (in-place)
I0403 17:58:43.828912  6355 net.cpp:141] Setting up inception_3b/relu_3x3
I0403 17:58:43.828939  6355 net.cpp:148] Top shape: 24 192 28 28 (3612672)
I0403 17:58:43.828954  6355 net.cpp:156] Memory required for data: 724943904
I0403 17:58:43.828969  6355 layer_factory.hpp:77] Creating layer inception_3b/5x5_reduce
I0403 17:58:43.828994  6355 net.cpp:91] Creating Layer inception_3b/5x5_reduce
I0403 17:58:43.829011  6355 net.cpp:425] inception_3b/5x5_reduce <- inception_3a/output_inception_3a/output_0_split_2
I0403 17:58:43.829033  6355 net.cpp:399] inception_3b/5x5_reduce -> inception_3b/5x5_reduce
I0403 17:58:43.830014  6355 net.cpp:141] Setting up inception_3b/5x5_reduce
I0403 17:58:43.830044  6355 net.cpp:148] Top shape: 24 32 28 28 (602112)
I0403 17:58:43.830060  6355 net.cpp:156] Memory required for data: 727352352
I0403 17:58:43.830080  6355 layer_factory.hpp:77] Creating layer inception_3b/relu_5x5_reduce
I0403 17:58:43.830097  6355 net.cpp:91] Creating Layer inception_3b/relu_5x5_reduce
I0403 17:58:43.830114  6355 net.cpp:425] inception_3b/relu_5x5_reduce <- inception_3b/5x5_reduce
I0403 17:58:43.830133  6355 net.cpp:386] inception_3b/relu_5x5_reduce -> inception_3b/5x5_reduce (in-place)
I0403 17:58:43.830330  6355 net.cpp:141] Setting up inception_3b/relu_5x5_reduce
I0403 17:58:43.830355  6355 net.cpp:148] Top shape: 24 32 28 28 (602112)
I0403 17:58:43.830371  6355 net.cpp:156] Memory required for data: 729760800
I0403 17:58:43.830386  6355 layer_factory.hpp:77] Creating layer inception_3b/5x5
I0403 17:58:43.830410  6355 net.cpp:91] Creating Layer inception_3b/5x5
I0403 17:58:43.830427  6355 net.cpp:425] inception_3b/5x5 <- inception_3b/5x5_reduce
I0403 17:58:43.830448  6355 net.cpp:399] inception_3b/5x5 -> inception_3b/5x5
I0403 17:58:43.832420  6355 net.cpp:141] Setting up inception_3b/5x5
I0403 17:58:43.832449  6355 net.cpp:148] Top shape: 24 96 28 28 (1806336)
I0403 17:58:43.832465  6355 net.cpp:156] Memory required for data: 736986144
I0403 17:58:43.832484  6355 layer_factory.hpp:77] Creating layer inception_3b/relu_5x5
I0403 17:58:43.832504  6355 net.cpp:91] Creating Layer inception_3b/relu_5x5
I0403 17:58:43.832521  6355 net.cpp:425] inception_3b/relu_5x5 <- inception_3b/5x5
I0403 17:58:43.832540  6355 net.cpp:386] inception_3b/relu_5x5 -> inception_3b/5x5 (in-place)
I0403 17:58:43.832731  6355 net.cpp:141] Setting up inception_3b/relu_5x5
I0403 17:58:43.832756  6355 net.cpp:148] Top shape: 24 96 28 28 (1806336)
I0403 17:58:43.832772  6355 net.cpp:156] Memory required for data: 744211488
I0403 17:58:43.832787  6355 layer_factory.hpp:77] Creating layer inception_3b/pool
I0403 17:58:43.832804  6355 net.cpp:91] Creating Layer inception_3b/pool
I0403 17:58:43.832820  6355 net.cpp:425] inception_3b/pool <- inception_3a/output_inception_3a/output_0_split_3
I0403 17:58:43.832839  6355 net.cpp:399] inception_3b/pool -> inception_3b/pool
I0403 17:58:43.832893  6355 net.cpp:141] Setting up inception_3b/pool
I0403 17:58:43.832916  6355 net.cpp:148] Top shape: 24 256 28 28 (4816896)
I0403 17:58:43.832931  6355 net.cpp:156] Memory required for data: 763479072
I0403 17:58:43.832945  6355 layer_factory.hpp:77] Creating layer inception_3b/pool_proj
I0403 17:58:43.832969  6355 net.cpp:91] Creating Layer inception_3b/pool_proj
I0403 17:58:43.832988  6355 net.cpp:425] inception_3b/pool_proj <- inception_3b/pool
I0403 17:58:43.833006  6355 net.cpp:399] inception_3b/pool_proj -> inception_3b/pool_proj
I0403 17:58:43.834069  6355 net.cpp:141] Setting up inception_3b/pool_proj
I0403 17:58:43.834096  6355 net.cpp:148] Top shape: 24 64 28 28 (1204224)
I0403 17:58:43.834111  6355 net.cpp:156] Memory required for data: 768295968
I0403 17:58:43.834131  6355 layer_factory.hpp:77] Creating layer inception_3b/relu_pool_proj
I0403 17:58:43.834151  6355 net.cpp:91] Creating Layer inception_3b/relu_pool_proj
I0403 17:58:43.834167  6355 net.cpp:425] inception_3b/relu_pool_proj <- inception_3b/pool_proj
I0403 17:58:43.834192  6355 net.cpp:386] inception_3b/relu_pool_proj -> inception_3b/pool_proj (in-place)
I0403 17:58:43.834617  6355 net.cpp:141] Setting up inception_3b/relu_pool_proj
I0403 17:58:43.834645  6355 net.cpp:148] Top shape: 24 64 28 28 (1204224)
I0403 17:58:43.834661  6355 net.cpp:156] Memory required for data: 773112864
I0403 17:58:43.834676  6355 layer_factory.hpp:77] Creating layer inception_3b/output
I0403 17:58:43.834693  6355 net.cpp:91] Creating Layer inception_3b/output
I0403 17:58:43.834709  6355 net.cpp:425] inception_3b/output <- inception_3b/1x1
I0403 17:58:43.834725  6355 net.cpp:425] inception_3b/output <- inception_3b/3x3
I0403 17:58:43.834744  6355 net.cpp:425] inception_3b/output <- inception_3b/5x5
I0403 17:58:43.834761  6355 net.cpp:425] inception_3b/output <- inception_3b/pool_proj
I0403 17:58:43.834779  6355 net.cpp:399] inception_3b/output -> inception_3b/output
I0403 17:58:43.834820  6355 net.cpp:141] Setting up inception_3b/output
I0403 17:58:43.834846  6355 net.cpp:148] Top shape: 24 480 28 28 (9031680)
I0403 17:58:43.834861  6355 net.cpp:156] Memory required for data: 809239584
I0403 17:58:43.834877  6355 layer_factory.hpp:77] Creating layer pool3/3x3_s2
I0403 17:58:43.834893  6355 net.cpp:91] Creating Layer pool3/3x3_s2
I0403 17:58:43.834909  6355 net.cpp:425] pool3/3x3_s2 <- inception_3b/output
I0403 17:58:43.834945  6355 net.cpp:399] pool3/3x3_s2 -> pool3/3x3_s2
I0403 17:58:43.835003  6355 net.cpp:141] Setting up pool3/3x3_s2
I0403 17:58:43.835026  6355 net.cpp:148] Top shape: 24 480 14 14 (2257920)
I0403 17:58:43.835041  6355 net.cpp:156] Memory required for data: 818271264
I0403 17:58:43.835055  6355 layer_factory.hpp:77] Creating layer pool3/3x3_s2_pool3/3x3_s2_0_split
I0403 17:58:43.835075  6355 net.cpp:91] Creating Layer pool3/3x3_s2_pool3/3x3_s2_0_split
I0403 17:58:43.835091  6355 net.cpp:425] pool3/3x3_s2_pool3/3x3_s2_0_split <- pool3/3x3_s2
I0403 17:58:43.835108  6355 net.cpp:399] pool3/3x3_s2_pool3/3x3_s2_0_split -> pool3/3x3_s2_pool3/3x3_s2_0_split_0
I0403 17:58:43.835129  6355 net.cpp:399] pool3/3x3_s2_pool3/3x3_s2_0_split -> pool3/3x3_s2_pool3/3x3_s2_0_split_1
I0403 17:58:43.835147  6355 net.cpp:399] pool3/3x3_s2_pool3/3x3_s2_0_split -> pool3/3x3_s2_pool3/3x3_s2_0_split_2
I0403 17:58:43.835170  6355 net.cpp:399] pool3/3x3_s2_pool3/3x3_s2_0_split -> pool3/3x3_s2_pool3/3x3_s2_0_split_3
I0403 17:58:43.835253  6355 net.cpp:141] Setting up pool3/3x3_s2_pool3/3x3_s2_0_split
I0403 17:58:43.835276  6355 net.cpp:148] Top shape: 24 480 14 14 (2257920)
I0403 17:58:43.835292  6355 net.cpp:148] Top shape: 24 480 14 14 (2257920)
I0403 17:58:43.835309  6355 net.cpp:148] Top shape: 24 480 14 14 (2257920)
I0403 17:58:43.835325  6355 net.cpp:148] Top shape: 24 480 14 14 (2257920)
I0403 17:58:43.835340  6355 net.cpp:156] Memory required for data: 854397984
I0403 17:58:43.835355  6355 layer_factory.hpp:77] Creating layer inception_4a/1x1
I0403 17:58:43.835376  6355 net.cpp:91] Creating Layer inception_4a/1x1
I0403 17:58:43.835394  6355 net.cpp:425] inception_4a/1x1 <- pool3/3x3_s2_pool3/3x3_s2_0_split_0
I0403 17:58:43.835415  6355 net.cpp:399] inception_4a/1x1 -> inception_4a/1x1
I0403 17:58:43.837028  6355 net.cpp:141] Setting up inception_4a/1x1
I0403 17:58:43.837054  6355 net.cpp:148] Top shape: 24 192 14 14 (903168)
I0403 17:58:43.837069  6355 net.cpp:156] Memory required for data: 858010656
I0403 17:58:43.837087  6355 layer_factory.hpp:77] Creating layer inception_4a/relu_1x1
I0403 17:58:43.837107  6355 net.cpp:91] Creating Layer inception_4a/relu_1x1
I0403 17:58:43.837124  6355 net.cpp:425] inception_4a/relu_1x1 <- inception_4a/1x1
I0403 17:58:43.837141  6355 net.cpp:386] inception_4a/relu_1x1 -> inception_4a/1x1 (in-place)
I0403 17:58:43.837316  6355 net.cpp:141] Setting up inception_4a/relu_1x1
I0403 17:58:43.837343  6355 net.cpp:148] Top shape: 24 192 14 14 (903168)
I0403 17:58:43.837358  6355 net.cpp:156] Memory required for data: 861623328
I0403 17:58:43.837373  6355 layer_factory.hpp:77] Creating layer inception_4a/3x3_reduce
I0403 17:58:43.837395  6355 net.cpp:91] Creating Layer inception_4a/3x3_reduce
I0403 17:58:43.837412  6355 net.cpp:425] inception_4a/3x3_reduce <- pool3/3x3_s2_pool3/3x3_s2_0_split_1
I0403 17:58:43.837431  6355 net.cpp:399] inception_4a/3x3_reduce -> inception_4a/3x3_reduce
I0403 17:58:43.838657  6355 net.cpp:141] Setting up inception_4a/3x3_reduce
I0403 17:58:43.838685  6355 net.cpp:148] Top shape: 24 96 14 14 (451584)
I0403 17:58:43.838699  6355 net.cpp:156] Memory required for data: 863429664
I0403 17:58:43.838724  6355 layer_factory.hpp:77] Creating layer inception_4a/relu_3x3_reduce
I0403 17:58:43.838743  6355 net.cpp:91] Creating Layer inception_4a/relu_3x3_reduce
I0403 17:58:43.838759  6355 net.cpp:425] inception_4a/relu_3x3_reduce <- inception_4a/3x3_reduce
I0403 17:58:43.838778  6355 net.cpp:386] inception_4a/relu_3x3_reduce -> inception_4a/3x3_reduce (in-place)
I0403 17:58:43.838951  6355 net.cpp:141] Setting up inception_4a/relu_3x3_reduce
I0403 17:58:43.838978  6355 net.cpp:148] Top shape: 24 96 14 14 (451584)
I0403 17:58:43.838994  6355 net.cpp:156] Memory required for data: 865236000
I0403 17:58:43.839009  6355 layer_factory.hpp:77] Creating layer inception_4a/3x3
I0403 17:58:43.839030  6355 net.cpp:91] Creating Layer inception_4a/3x3
I0403 17:58:43.839046  6355 net.cpp:425] inception_4a/3x3 <- inception_4a/3x3_reduce
I0403 17:58:43.839066  6355 net.cpp:399] inception_4a/3x3 -> inception_4a/3x3
I0403 17:58:43.841691  6355 net.cpp:141] Setting up inception_4a/3x3
I0403 17:58:43.841722  6355 net.cpp:148] Top shape: 24 208 14 14 (978432)
I0403 17:58:43.841737  6355 net.cpp:156] Memory required for data: 869149728
I0403 17:58:43.841755  6355 layer_factory.hpp:77] Creating layer inception_4a/relu_3x3
I0403 17:58:43.841773  6355 net.cpp:91] Creating Layer inception_4a/relu_3x3
I0403 17:58:43.841789  6355 net.cpp:425] inception_4a/relu_3x3 <- inception_4a/3x3
I0403 17:58:43.841807  6355 net.cpp:386] inception_4a/relu_3x3 -> inception_4a/3x3 (in-place)
I0403 17:58:43.842075  6355 net.cpp:141] Setting up inception_4a/relu_3x3
I0403 17:58:43.842103  6355 net.cpp:148] Top shape: 24 208 14 14 (978432)
I0403 17:58:43.842119  6355 net.cpp:156] Memory required for data: 873063456
I0403 17:58:43.842134  6355 layer_factory.hpp:77] Creating layer inception_4a/5x5_reduce
I0403 17:58:43.842157  6355 net.cpp:91] Creating Layer inception_4a/5x5_reduce
I0403 17:58:43.842175  6355 net.cpp:425] inception_4a/5x5_reduce <- pool3/3x3_s2_pool3/3x3_s2_0_split_2
I0403 17:58:43.842200  6355 net.cpp:399] inception_4a/5x5_reduce -> inception_4a/5x5_reduce
I0403 17:58:43.843174  6355 net.cpp:141] Setting up inception_4a/5x5_reduce
I0403 17:58:43.843212  6355 net.cpp:148] Top shape: 24 16 14 14 (75264)
I0403 17:58:43.843230  6355 net.cpp:156] Memory required for data: 873364512
I0403 17:58:43.843248  6355 layer_factory.hpp:77] Creating layer inception_4a/relu_5x5_reduce
I0403 17:58:43.843266  6355 net.cpp:91] Creating Layer inception_4a/relu_5x5_reduce
I0403 17:58:43.843284  6355 net.cpp:425] inception_4a/relu_5x5_reduce <- inception_4a/5x5_reduce
I0403 17:58:43.843304  6355 net.cpp:386] inception_4a/relu_5x5_reduce -> inception_4a/5x5_reduce (in-place)
I0403 17:58:43.843477  6355 net.cpp:141] Setting up inception_4a/relu_5x5_reduce
I0403 17:58:43.843500  6355 net.cpp:148] Top shape: 24 16 14 14 (75264)
I0403 17:58:43.843515  6355 net.cpp:156] Memory required for data: 873665568
I0403 17:58:43.843529  6355 layer_factory.hpp:77] Creating layer inception_4a/5x5
I0403 17:58:43.843551  6355 net.cpp:91] Creating Layer inception_4a/5x5
I0403 17:58:43.843569  6355 net.cpp:425] inception_4a/5x5 <- inception_4a/5x5_reduce
I0403 17:58:43.843590  6355 net.cpp:399] inception_4a/5x5 -> inception_4a/5x5
I0403 17:58:43.844656  6355 net.cpp:141] Setting up inception_4a/5x5
I0403 17:58:43.844683  6355 net.cpp:148] Top shape: 24 48 14 14 (225792)
I0403 17:58:43.844699  6355 net.cpp:156] Memory required for data: 874568736
I0403 17:58:43.844718  6355 layer_factory.hpp:77] Creating layer inception_4a/relu_5x5
I0403 17:58:43.844750  6355 net.cpp:91] Creating Layer inception_4a/relu_5x5
I0403 17:58:43.844768  6355 net.cpp:425] inception_4a/relu_5x5 <- inception_4a/5x5
I0403 17:58:43.844785  6355 net.cpp:386] inception_4a/relu_5x5 -> inception_4a/5x5 (in-place)
I0403 17:58:43.844955  6355 net.cpp:141] Setting up inception_4a/relu_5x5
I0403 17:58:43.844980  6355 net.cpp:148] Top shape: 24 48 14 14 (225792)
I0403 17:58:43.844995  6355 net.cpp:156] Memory required for data: 875471904
I0403 17:58:43.845008  6355 layer_factory.hpp:77] Creating layer inception_4a/pool
I0403 17:58:43.845028  6355 net.cpp:91] Creating Layer inception_4a/pool
I0403 17:58:43.845044  6355 net.cpp:425] inception_4a/pool <- pool3/3x3_s2_pool3/3x3_s2_0_split_3
I0403 17:58:43.845062  6355 net.cpp:399] inception_4a/pool -> inception_4a/pool
I0403 17:58:43.845121  6355 net.cpp:141] Setting up inception_4a/pool
I0403 17:58:43.845144  6355 net.cpp:148] Top shape: 24 480 14 14 (2257920)
I0403 17:58:43.845158  6355 net.cpp:156] Memory required for data: 884503584
I0403 17:58:43.845172  6355 layer_factory.hpp:77] Creating layer inception_4a/pool_proj
I0403 17:58:43.845199  6355 net.cpp:91] Creating Layer inception_4a/pool_proj
I0403 17:58:43.845216  6355 net.cpp:425] inception_4a/pool_proj <- inception_4a/pool
I0403 17:58:43.845237  6355 net.cpp:399] inception_4a/pool_proj -> inception_4a/pool_proj
I0403 17:58:43.846361  6355 net.cpp:141] Setting up inception_4a/pool_proj
I0403 17:58:43.846390  6355 net.cpp:148] Top shape: 24 64 14 14 (301056)
I0403 17:58:43.846418  6355 net.cpp:156] Memory required for data: 885707808
I0403 17:58:43.846437  6355 layer_factory.hpp:77] Creating layer inception_4a/relu_pool_proj
I0403 17:58:43.846458  6355 net.cpp:91] Creating Layer inception_4a/relu_pool_proj
I0403 17:58:43.846475  6355 net.cpp:425] inception_4a/relu_pool_proj <- inception_4a/pool_proj
I0403 17:58:43.846493  6355 net.cpp:386] inception_4a/relu_pool_proj -> inception_4a/pool_proj (in-place)
I0403 17:58:43.846766  6355 net.cpp:141] Setting up inception_4a/relu_pool_proj
I0403 17:58:43.846791  6355 net.cpp:148] Top shape: 24 64 14 14 (301056)
I0403 17:58:43.846807  6355 net.cpp:156] Memory required for data: 886912032
I0403 17:58:43.846822  6355 layer_factory.hpp:77] Creating layer inception_4a/output
I0403 17:58:43.846840  6355 net.cpp:91] Creating Layer inception_4a/output
I0403 17:58:43.846856  6355 net.cpp:425] inception_4a/output <- inception_4a/1x1
I0403 17:58:43.846873  6355 net.cpp:425] inception_4a/output <- inception_4a/3x3
I0403 17:58:43.846889  6355 net.cpp:425] inception_4a/output <- inception_4a/5x5
I0403 17:58:43.846905  6355 net.cpp:425] inception_4a/output <- inception_4a/pool_proj
I0403 17:58:43.846921  6355 net.cpp:399] inception_4a/output -> inception_4a/output
I0403 17:58:43.846966  6355 net.cpp:141] Setting up inception_4a/output
I0403 17:58:43.846988  6355 net.cpp:148] Top shape: 24 512 14 14 (2408448)
I0403 17:58:43.847002  6355 net.cpp:156] Memory required for data: 896545824
I0403 17:58:43.847017  6355 layer_factory.hpp:77] Creating layer inception_4a/output_inception_4a/output_0_split
I0403 17:58:43.847033  6355 net.cpp:91] Creating Layer inception_4a/output_inception_4a/output_0_split
I0403 17:58:43.847048  6355 net.cpp:425] inception_4a/output_inception_4a/output_0_split <- inception_4a/output
I0403 17:58:43.847069  6355 net.cpp:399] inception_4a/output_inception_4a/output_0_split -> inception_4a/output_inception_4a/output_0_split_0
I0403 17:58:43.847089  6355 net.cpp:399] inception_4a/output_inception_4a/output_0_split -> inception_4a/output_inception_4a/output_0_split_1
I0403 17:58:43.847110  6355 net.cpp:399] inception_4a/output_inception_4a/output_0_split -> inception_4a/output_inception_4a/output_0_split_2
I0403 17:58:43.847129  6355 net.cpp:399] inception_4a/output_inception_4a/output_0_split -> inception_4a/output_inception_4a/output_0_split_3
I0403 17:58:43.847149  6355 net.cpp:399] inception_4a/output_inception_4a/output_0_split -> inception_4a/output_inception_4a/output_0_split_4
I0403 17:58:43.847241  6355 net.cpp:141] Setting up inception_4a/output_inception_4a/output_0_split
I0403 17:58:43.847265  6355 net.cpp:148] Top shape: 24 512 14 14 (2408448)
I0403 17:58:43.847286  6355 net.cpp:148] Top shape: 24 512 14 14 (2408448)
I0403 17:58:43.847302  6355 net.cpp:148] Top shape: 24 512 14 14 (2408448)
I0403 17:58:43.847318  6355 net.cpp:148] Top shape: 24 512 14 14 (2408448)
I0403 17:58:43.847334  6355 net.cpp:148] Top shape: 24 512 14 14 (2408448)
I0403 17:58:43.847348  6355 net.cpp:156] Memory required for data: 944714784
I0403 17:58:43.847363  6355 layer_factory.hpp:77] Creating layer loss1/ave_pool
I0403 17:58:43.847380  6355 net.cpp:91] Creating Layer loss1/ave_pool
I0403 17:58:43.847396  6355 net.cpp:425] loss1/ave_pool <- inception_4a/output_inception_4a/output_0_split_0
I0403 17:58:43.847416  6355 net.cpp:399] loss1/ave_pool -> loss1/ave_pool
I0403 17:58:43.847614  6355 net.cpp:141] Setting up loss1/ave_pool
I0403 17:58:43.847638  6355 net.cpp:148] Top shape: 24 512 4 4 (196608)
I0403 17:58:43.847652  6355 net.cpp:156] Memory required for data: 945501216
I0403 17:58:43.847666  6355 layer_factory.hpp:77] Creating layer loss1/conv
I0403 17:58:43.847688  6355 net.cpp:91] Creating Layer loss1/conv
I0403 17:58:43.847705  6355 net.cpp:425] loss1/conv <- loss1/ave_pool
I0403 17:58:43.847725  6355 net.cpp:399] loss1/conv -> loss1/conv
I0403 17:58:43.849156  6355 net.cpp:141] Setting up loss1/conv
I0403 17:58:43.849190  6355 net.cpp:148] Top shape: 24 128 4 4 (49152)
I0403 17:58:43.849223  6355 net.cpp:156] Memory required for data: 945697824
I0403 17:58:43.849243  6355 layer_factory.hpp:77] Creating layer loss1/relu_conv
I0403 17:58:43.849262  6355 net.cpp:91] Creating Layer loss1/relu_conv
I0403 17:58:43.849280  6355 net.cpp:425] loss1/relu_conv <- loss1/conv
I0403 17:58:43.849300  6355 net.cpp:386] loss1/relu_conv -> loss1/conv (in-place)
I0403 17:58:43.849581  6355 net.cpp:141] Setting up loss1/relu_conv
I0403 17:58:43.849611  6355 net.cpp:148] Top shape: 24 128 4 4 (49152)
I0403 17:58:43.849627  6355 net.cpp:156] Memory required for data: 945894432
I0403 17:58:43.849642  6355 layer_factory.hpp:77] Creating layer loss1/fc
I0403 17:58:43.849664  6355 net.cpp:91] Creating Layer loss1/fc
I0403 17:58:43.849681  6355 net.cpp:425] loss1/fc <- loss1/conv
I0403 17:58:43.849704  6355 net.cpp:399] loss1/fc -> loss1/fc
I0403 17:58:43.868027  6355 net.cpp:141] Setting up loss1/fc
I0403 17:58:43.868073  6355 net.cpp:148] Top shape: 24 1024 (24576)
I0403 17:58:43.868089  6355 net.cpp:156] Memory required for data: 945992736
I0403 17:58:43.868109  6355 layer_factory.hpp:77] Creating layer loss1/relu_fc
I0403 17:58:43.868131  6355 net.cpp:91] Creating Layer loss1/relu_fc
I0403 17:58:43.868149  6355 net.cpp:425] loss1/relu_fc <- loss1/fc
I0403 17:58:43.868168  6355 net.cpp:386] loss1/relu_fc -> loss1/fc (in-place)
I0403 17:58:43.868377  6355 net.cpp:141] Setting up loss1/relu_fc
I0403 17:58:43.868405  6355 net.cpp:148] Top shape: 24 1024 (24576)
I0403 17:58:43.868422  6355 net.cpp:156] Memory required for data: 946091040
I0403 17:58:43.868448  6355 layer_factory.hpp:77] Creating layer loss1/drop_fc
I0403 17:58:43.868476  6355 net.cpp:91] Creating Layer loss1/drop_fc
I0403 17:58:43.868494  6355 net.cpp:425] loss1/drop_fc <- loss1/fc
I0403 17:58:43.868513  6355 net.cpp:386] loss1/drop_fc -> loss1/fc (in-place)
I0403 17:58:43.868568  6355 net.cpp:141] Setting up loss1/drop_fc
I0403 17:58:43.868592  6355 net.cpp:148] Top shape: 24 1024 (24576)
I0403 17:58:43.868607  6355 net.cpp:156] Memory required for data: 946189344
I0403 17:58:43.868623  6355 layer_factory.hpp:77] Creating layer loss1/classifier_plantvillage
I0403 17:58:43.868645  6355 net.cpp:91] Creating Layer loss1/classifier_plantvillage
I0403 17:58:43.868664  6355 net.cpp:425] loss1/classifier_plantvillage <- loss1/fc
I0403 17:58:43.868683  6355 net.cpp:399] loss1/classifier_plantvillage -> loss1/classifier_plantvillage
I0403 17:58:43.869631  6355 net.cpp:141] Setting up loss1/classifier_plantvillage
I0403 17:58:43.869657  6355 net.cpp:148] Top shape: 24 38 (912)
I0403 17:58:43.869673  6355 net.cpp:156] Memory required for data: 946192992
I0403 17:58:43.869693  6355 layer_factory.hpp:77] Creating layer loss1/classifier_plantvillage_loss1/classifier_plantvillage_0_split
I0403 17:58:43.869714  6355 net.cpp:91] Creating Layer loss1/classifier_plantvillage_loss1/classifier_plantvillage_0_split
I0403 17:58:43.869730  6355 net.cpp:425] loss1/classifier_plantvillage_loss1/classifier_plantvillage_0_split <- loss1/classifier_plantvillage
I0403 17:58:43.869748  6355 net.cpp:399] loss1/classifier_plantvillage_loss1/classifier_plantvillage_0_split -> loss1/classifier_plantvillage_loss1/classifier_plantvillage_0_split_0
I0403 17:58:43.869768  6355 net.cpp:399] loss1/classifier_plantvillage_loss1/classifier_plantvillage_0_split -> loss1/classifier_plantvillage_loss1/classifier_plantvillage_0_split_1
I0403 17:58:43.869792  6355 net.cpp:399] loss1/classifier_plantvillage_loss1/classifier_plantvillage_0_split -> loss1/classifier_plantvillage_loss1/classifier_plantvillage_0_split_2
I0403 17:58:43.869859  6355 net.cpp:141] Setting up loss1/classifier_plantvillage_loss1/classifier_plantvillage_0_split
I0403 17:58:43.869882  6355 net.cpp:148] Top shape: 24 38 (912)
I0403 17:58:43.869899  6355 net.cpp:148] Top shape: 24 38 (912)
I0403 17:58:43.869915  6355 net.cpp:148] Top shape: 24 38 (912)
I0403 17:58:43.869930  6355 net.cpp:156] Memory required for data: 946203936
I0403 17:58:43.869945  6355 layer_factory.hpp:77] Creating layer inception_4b/1x1
I0403 17:58:43.869967  6355 net.cpp:91] Creating Layer inception_4b/1x1
I0403 17:58:43.870004  6355 net.cpp:425] inception_4b/1x1 <- inception_4a/output_inception_4a/output_0_split_1
I0403 17:58:43.870026  6355 net.cpp:399] inception_4b/1x1 -> inception_4b/1x1
I0403 17:58:43.871697  6355 net.cpp:141] Setting up inception_4b/1x1
I0403 17:58:43.871727  6355 net.cpp:148] Top shape: 24 160 14 14 (752640)
I0403 17:58:43.871743  6355 net.cpp:156] Memory required for data: 949214496
I0403 17:58:43.871762  6355 layer_factory.hpp:77] Creating layer inception_4b/relu_1x1
I0403 17:58:43.871780  6355 net.cpp:91] Creating Layer inception_4b/relu_1x1
I0403 17:58:43.871796  6355 net.cpp:425] inception_4b/relu_1x1 <- inception_4b/1x1
I0403 17:58:43.871816  6355 net.cpp:386] inception_4b/relu_1x1 -> inception_4b/1x1 (in-place)
I0403 17:58:43.871996  6355 net.cpp:141] Setting up inception_4b/relu_1x1
I0403 17:58:43.872021  6355 net.cpp:148] Top shape: 24 160 14 14 (752640)
I0403 17:58:43.872036  6355 net.cpp:156] Memory required for data: 952225056
I0403 17:58:43.872052  6355 layer_factory.hpp:77] Creating layer inception_4b/3x3_reduce
I0403 17:58:43.872074  6355 net.cpp:91] Creating Layer inception_4b/3x3_reduce
I0403 17:58:43.872092  6355 net.cpp:425] inception_4b/3x3_reduce <- inception_4a/output_inception_4a/output_0_split_2
I0403 17:58:43.872114  6355 net.cpp:399] inception_4b/3x3_reduce -> inception_4b/3x3_reduce
I0403 17:58:43.873519  6355 net.cpp:141] Setting up inception_4b/3x3_reduce
I0403 17:58:43.873546  6355 net.cpp:148] Top shape: 24 112 14 14 (526848)
I0403 17:58:43.873563  6355 net.cpp:156] Memory required for data: 954332448
I0403 17:58:43.873581  6355 layer_factory.hpp:77] Creating layer inception_4b/relu_3x3_reduce
I0403 17:58:43.873600  6355 net.cpp:91] Creating Layer inception_4b/relu_3x3_reduce
I0403 17:58:43.873616  6355 net.cpp:425] inception_4b/relu_3x3_reduce <- inception_4b/3x3_reduce
I0403 17:58:43.873636  6355 net.cpp:386] inception_4b/relu_3x3_reduce -> inception_4b/3x3_reduce (in-place)
I0403 17:58:43.873921  6355 net.cpp:141] Setting up inception_4b/relu_3x3_reduce
I0403 17:58:43.873947  6355 net.cpp:148] Top shape: 24 112 14 14 (526848)
I0403 17:58:43.873962  6355 net.cpp:156] Memory required for data: 956439840
I0403 17:58:43.873978  6355 layer_factory.hpp:77] Creating layer inception_4b/3x3
I0403 17:58:43.874001  6355 net.cpp:91] Creating Layer inception_4b/3x3
I0403 17:58:43.874018  6355 net.cpp:425] inception_4b/3x3 <- inception_4b/3x3_reduce
I0403 17:58:43.874040  6355 net.cpp:399] inception_4b/3x3 -> inception_4b/3x3
I0403 17:58:43.877104  6355 net.cpp:141] Setting up inception_4b/3x3
I0403 17:58:43.877132  6355 net.cpp:148] Top shape: 24 224 14 14 (1053696)
I0403 17:58:43.877148  6355 net.cpp:156] Memory required for data: 960654624
I0403 17:58:43.877167  6355 layer_factory.hpp:77] Creating layer inception_4b/relu_3x3
I0403 17:58:43.877197  6355 net.cpp:91] Creating Layer inception_4b/relu_3x3
I0403 17:58:43.877214  6355 net.cpp:425] inception_4b/relu_3x3 <- inception_4b/3x3
I0403 17:58:43.877233  6355 net.cpp:386] inception_4b/relu_3x3 -> inception_4b/3x3 (in-place)
I0403 17:58:43.877413  6355 net.cpp:141] Setting up inception_4b/relu_3x3
I0403 17:58:43.877440  6355 net.cpp:148] Top shape: 24 224 14 14 (1053696)
I0403 17:58:43.877455  6355 net.cpp:156] Memory required for data: 964869408
I0403 17:58:43.877470  6355 layer_factory.hpp:77] Creating layer inception_4b/5x5_reduce
I0403 17:58:43.877492  6355 net.cpp:91] Creating Layer inception_4b/5x5_reduce
I0403 17:58:43.877511  6355 net.cpp:425] inception_4b/5x5_reduce <- inception_4a/output_inception_4a/output_0_split_3
I0403 17:58:43.877533  6355 net.cpp:399] inception_4b/5x5_reduce -> inception_4b/5x5_reduce
I0403 17:58:43.878631  6355 net.cpp:141] Setting up inception_4b/5x5_reduce
I0403 17:58:43.878659  6355 net.cpp:148] Top shape: 24 24 14 14 (112896)
I0403 17:58:43.878675  6355 net.cpp:156] Memory required for data: 965320992
I0403 17:58:43.878693  6355 layer_factory.hpp:77] Creating layer inception_4b/relu_5x5_reduce
I0403 17:58:43.878711  6355 net.cpp:91] Creating Layer inception_4b/relu_5x5_reduce
I0403 17:58:43.878743  6355 net.cpp:425] inception_4b/relu_5x5_reduce <- inception_4b/5x5_reduce
I0403 17:58:43.878765  6355 net.cpp:386] inception_4b/relu_5x5_reduce -> inception_4b/5x5_reduce (in-place)
I0403 17:58:43.878948  6355 net.cpp:141] Setting up inception_4b/relu_5x5_reduce
I0403 17:58:43.878973  6355 net.cpp:148] Top shape: 24 24 14 14 (112896)
I0403 17:58:43.878988  6355 net.cpp:156] Memory required for data: 965772576
I0403 17:58:43.879004  6355 layer_factory.hpp:77] Creating layer inception_4b/5x5
I0403 17:58:43.879026  6355 net.cpp:91] Creating Layer inception_4b/5x5
I0403 17:58:43.879045  6355 net.cpp:425] inception_4b/5x5 <- inception_4b/5x5_reduce
I0403 17:58:43.879065  6355 net.cpp:399] inception_4b/5x5 -> inception_4b/5x5
I0403 17:58:43.880312  6355 net.cpp:141] Setting up inception_4b/5x5
I0403 17:58:43.880342  6355 net.cpp:148] Top shape: 24 64 14 14 (301056)
I0403 17:58:43.880359  6355 net.cpp:156] Memory required for data: 966976800
I0403 17:58:43.880378  6355 layer_factory.hpp:77] Creating layer inception_4b/relu_5x5
I0403 17:58:43.880398  6355 net.cpp:91] Creating Layer inception_4b/relu_5x5
I0403 17:58:43.880415  6355 net.cpp:425] inception_4b/relu_5x5 <- inception_4b/5x5
I0403 17:58:43.880446  6355 net.cpp:386] inception_4b/relu_5x5 -> inception_4b/5x5 (in-place)
I0403 17:58:43.880753  6355 net.cpp:141] Setting up inception_4b/relu_5x5
I0403 17:58:43.880784  6355 net.cpp:148] Top shape: 24 64 14 14 (301056)
I0403 17:58:43.880800  6355 net.cpp:156] Memory required for data: 968181024
I0403 17:58:43.880815  6355 layer_factory.hpp:77] Creating layer inception_4b/pool
I0403 17:58:43.880833  6355 net.cpp:91] Creating Layer inception_4b/pool
I0403 17:58:43.880851  6355 net.cpp:425] inception_4b/pool <- inception_4a/output_inception_4a/output_0_split_4
I0403 17:58:43.880870  6355 net.cpp:399] inception_4b/pool -> inception_4b/pool
I0403 17:58:43.880934  6355 net.cpp:141] Setting up inception_4b/pool
I0403 17:58:43.880959  6355 net.cpp:148] Top shape: 24 512 14 14 (2408448)
I0403 17:58:43.880975  6355 net.cpp:156] Memory required for data: 977814816
I0403 17:58:43.880990  6355 layer_factory.hpp:77] Creating layer inception_4b/pool_proj
I0403 17:58:43.881011  6355 net.cpp:91] Creating Layer inception_4b/pool_proj
I0403 17:58:43.881029  6355 net.cpp:425] inception_4b/pool_proj <- inception_4b/pool
I0403 17:58:43.881050  6355 net.cpp:399] inception_4b/pool_proj -> inception_4b/pool_proj
I0403 17:58:43.882272  6355 net.cpp:141] Setting up inception_4b/pool_proj
I0403 17:58:43.882302  6355 net.cpp:148] Top shape: 24 64 14 14 (301056)
I0403 17:58:43.882319  6355 net.cpp:156] Memory required for data: 979019040
I0403 17:58:43.882339  6355 layer_factory.hpp:77] Creating layer inception_4b/relu_pool_proj
I0403 17:58:43.882356  6355 net.cpp:91] Creating Layer inception_4b/relu_pool_proj
I0403 17:58:43.882374  6355 net.cpp:425] inception_4b/relu_pool_proj <- inception_4b/pool_proj
I0403 17:58:43.882392  6355 net.cpp:386] inception_4b/relu_pool_proj -> inception_4b/pool_proj (in-place)
I0403 17:58:43.882573  6355 net.cpp:141] Setting up inception_4b/relu_pool_proj
I0403 17:58:43.882598  6355 net.cpp:148] Top shape: 24 64 14 14 (301056)
I0403 17:58:43.882613  6355 net.cpp:156] Memory required for data: 980223264
I0403 17:58:43.882628  6355 layer_factory.hpp:77] Creating layer inception_4b/output
I0403 17:58:43.882647  6355 net.cpp:91] Creating Layer inception_4b/output
I0403 17:58:43.882663  6355 net.cpp:425] inception_4b/output <- inception_4b/1x1
I0403 17:58:43.882678  6355 net.cpp:425] inception_4b/output <- inception_4b/3x3
I0403 17:58:43.882695  6355 net.cpp:425] inception_4b/output <- inception_4b/5x5
I0403 17:58:43.882711  6355 net.cpp:425] inception_4b/output <- inception_4b/pool_proj
I0403 17:58:43.882731  6355 net.cpp:399] inception_4b/output -> inception_4b/output
I0403 17:58:43.882779  6355 net.cpp:141] Setting up inception_4b/output
I0403 17:58:43.882802  6355 net.cpp:148] Top shape: 24 512 14 14 (2408448)
I0403 17:58:43.882817  6355 net.cpp:156] Memory required for data: 989857056
I0403 17:58:43.882845  6355 layer_factory.hpp:77] Creating layer inception_4b/output_inception_4b/output_0_split
I0403 17:58:43.882864  6355 net.cpp:91] Creating Layer inception_4b/output_inception_4b/output_0_split
I0403 17:58:43.882880  6355 net.cpp:425] inception_4b/output_inception_4b/output_0_split <- inception_4b/output
I0403 17:58:43.882900  6355 net.cpp:399] inception_4b/output_inception_4b/output_0_split -> inception_4b/output_inception_4b/output_0_split_0
I0403 17:58:43.882921  6355 net.cpp:399] inception_4b/output_inception_4b/output_0_split -> inception_4b/output_inception_4b/output_0_split_1
I0403 17:58:43.882941  6355 net.cpp:399] inception_4b/output_inception_4b/output_0_split -> inception_4b/output_inception_4b/output_0_split_2
I0403 17:58:43.882962  6355 net.cpp:399] inception_4b/output_inception_4b/output_0_split -> inception_4b/output_inception_4b/output_0_split_3
I0403 17:58:43.883047  6355 net.cpp:141] Setting up inception_4b/output_inception_4b/output_0_split
I0403 17:58:43.883074  6355 net.cpp:148] Top shape: 24 512 14 14 (2408448)
I0403 17:58:43.883090  6355 net.cpp:148] Top shape: 24 512 14 14 (2408448)
I0403 17:58:43.883107  6355 net.cpp:148] Top shape: 24 512 14 14 (2408448)
I0403 17:58:43.883123  6355 net.cpp:148] Top shape: 24 512 14 14 (2408448)
I0403 17:58:43.883137  6355 net.cpp:156] Memory required for data: 1028392224
I0403 17:58:43.883152  6355 layer_factory.hpp:77] Creating layer inception_4c/1x1
I0403 17:58:43.883174  6355 net.cpp:91] Creating Layer inception_4c/1x1
I0403 17:58:43.883200  6355 net.cpp:425] inception_4c/1x1 <- inception_4b/output_inception_4b/output_0_split_0
I0403 17:58:43.883219  6355 net.cpp:399] inception_4c/1x1 -> inception_4c/1x1
I0403 17:58:43.884676  6355 net.cpp:141] Setting up inception_4c/1x1
I0403 17:58:43.884706  6355 net.cpp:148] Top shape: 24 128 14 14 (602112)
I0403 17:58:43.884721  6355 net.cpp:156] Memory required for data: 1030800672
I0403 17:58:43.884752  6355 layer_factory.hpp:77] Creating layer inception_4c/relu_1x1
I0403 17:58:43.884773  6355 net.cpp:91] Creating Layer inception_4c/relu_1x1
I0403 17:58:43.884791  6355 net.cpp:425] inception_4c/relu_1x1 <- inception_4c/1x1
I0403 17:58:43.884809  6355 net.cpp:386] inception_4c/relu_1x1 -> inception_4c/1x1 (in-place)
I0403 17:58:43.884992  6355 net.cpp:141] Setting up inception_4c/relu_1x1
I0403 17:58:43.885020  6355 net.cpp:148] Top shape: 24 128 14 14 (602112)
I0403 17:58:43.885035  6355 net.cpp:156] Memory required for data: 1033209120
I0403 17:58:43.885051  6355 layer_factory.hpp:77] Creating layer inception_4c/3x3_reduce
I0403 17:58:43.885072  6355 net.cpp:91] Creating Layer inception_4c/3x3_reduce
I0403 17:58:43.885090  6355 net.cpp:425] inception_4c/3x3_reduce <- inception_4b/output_inception_4b/output_0_split_1
I0403 17:58:43.885109  6355 net.cpp:399] inception_4c/3x3_reduce -> inception_4c/3x3_reduce
I0403 17:58:43.887080  6355 net.cpp:141] Setting up inception_4c/3x3_reduce
I0403 17:58:43.887111  6355 net.cpp:148] Top shape: 24 128 14 14 (602112)
I0403 17:58:43.887127  6355 net.cpp:156] Memory required for data: 1035617568
I0403 17:58:43.887146  6355 layer_factory.hpp:77] Creating layer inception_4c/relu_3x3_reduce
I0403 17:58:43.887164  6355 net.cpp:91] Creating Layer inception_4c/relu_3x3_reduce
I0403 17:58:43.887194  6355 net.cpp:425] inception_4c/relu_3x3_reduce <- inception_4c/3x3_reduce
I0403 17:58:43.887215  6355 net.cpp:386] inception_4c/relu_3x3_reduce -> inception_4c/3x3_reduce (in-place)
I0403 17:58:43.887501  6355 net.cpp:141] Setting up inception_4c/relu_3x3_reduce
I0403 17:58:43.887528  6355 net.cpp:148] Top shape: 24 128 14 14 (602112)
I0403 17:58:43.887545  6355 net.cpp:156] Memory required for data: 1038026016
I0403 17:58:43.887560  6355 layer_factory.hpp:77] Creating layer inception_4c/3x3
I0403 17:58:43.887583  6355 net.cpp:91] Creating Layer inception_4c/3x3
I0403 17:58:43.887603  6355 net.cpp:425] inception_4c/3x3 <- inception_4c/3x3_reduce
I0403 17:58:43.887620  6355 net.cpp:399] inception_4c/3x3 -> inception_4c/3x3
I0403 17:58:43.891293  6355 net.cpp:141] Setting up inception_4c/3x3
I0403 17:58:43.891336  6355 net.cpp:148] Top shape: 24 256 14 14 (1204224)
I0403 17:58:43.891353  6355 net.cpp:156] Memory required for data: 1042842912
I0403 17:58:43.891387  6355 layer_factory.hpp:77] Creating layer inception_4c/relu_3x3
I0403 17:58:43.891408  6355 net.cpp:91] Creating Layer inception_4c/relu_3x3
I0403 17:58:43.891424  6355 net.cpp:425] inception_4c/relu_3x3 <- inception_4c/3x3
I0403 17:58:43.891444  6355 net.cpp:386] inception_4c/relu_3x3 -> inception_4c/3x3 (in-place)
I0403 17:58:43.891626  6355 net.cpp:141] Setting up inception_4c/relu_3x3
I0403 17:58:43.891652  6355 net.cpp:148] Top shape: 24 256 14 14 (1204224)
I0403 17:58:43.891667  6355 net.cpp:156] Memory required for data: 1047659808
I0403 17:58:43.891682  6355 layer_factory.hpp:77] Creating layer inception_4c/5x5_reduce
I0403 17:58:43.891705  6355 net.cpp:91] Creating Layer inception_4c/5x5_reduce
I0403 17:58:43.891724  6355 net.cpp:425] inception_4c/5x5_reduce <- inception_4b/output_inception_4b/output_0_split_2
I0403 17:58:43.891746  6355 net.cpp:399] inception_4c/5x5_reduce -> inception_4c/5x5_reduce
I0403 17:58:43.892894  6355 net.cpp:141] Setting up inception_4c/5x5_reduce
I0403 17:58:43.892925  6355 net.cpp:148] Top shape: 24 24 14 14 (112896)
I0403 17:58:43.892941  6355 net.cpp:156] Memory required for data: 1048111392
I0403 17:58:43.892961  6355 layer_factory.hpp:77] Creating layer inception_4c/relu_5x5_reduce
I0403 17:58:43.892979  6355 net.cpp:91] Creating Layer inception_4c/relu_5x5_reduce
I0403 17:58:43.892995  6355 net.cpp:425] inception_4c/relu_5x5_reduce <- inception_4c/5x5_reduce
I0403 17:58:43.893015  6355 net.cpp:386] inception_4c/relu_5x5_reduce -> inception_4c/5x5_reduce (in-place)
I0403 17:58:43.893211  6355 net.cpp:141] Setting up inception_4c/relu_5x5_reduce
I0403 17:58:43.893236  6355 net.cpp:148] Top shape: 24 24 14 14 (112896)
I0403 17:58:43.893252  6355 net.cpp:156] Memory required for data: 1048562976
I0403 17:58:43.893266  6355 layer_factory.hpp:77] Creating layer inception_4c/5x5
I0403 17:58:43.893290  6355 net.cpp:91] Creating Layer inception_4c/5x5
I0403 17:58:43.893306  6355 net.cpp:425] inception_4c/5x5 <- inception_4c/5x5_reduce
I0403 17:58:43.893328  6355 net.cpp:399] inception_4c/5x5 -> inception_4c/5x5
I0403 17:58:43.894672  6355 net.cpp:141] Setting up inception_4c/5x5
I0403 17:58:43.894701  6355 net.cpp:148] Top shape: 24 64 14 14 (301056)
I0403 17:58:43.894716  6355 net.cpp:156] Memory required for data: 1049767200
I0403 17:58:43.894736  6355 layer_factory.hpp:77] Creating layer inception_4c/relu_5x5
I0403 17:58:43.894757  6355 net.cpp:91] Creating Layer inception_4c/relu_5x5
I0403 17:58:43.894773  6355 net.cpp:425] inception_4c/relu_5x5 <- inception_4c/5x5
I0403 17:58:43.894793  6355 net.cpp:386] inception_4c/relu_5x5 -> inception_4c/5x5 (in-place)
I0403 17:58:43.895082  6355 net.cpp:141] Setting up inception_4c/relu_5x5
I0403 17:58:43.895108  6355 net.cpp:148] Top shape: 24 64 14 14 (301056)
I0403 17:58:43.895123  6355 net.cpp:156] Memory required for data: 1050971424
I0403 17:58:43.895138  6355 layer_factory.hpp:77] Creating layer inception_4c/pool
I0403 17:58:43.895171  6355 net.cpp:91] Creating Layer inception_4c/pool
I0403 17:58:43.895198  6355 net.cpp:425] inception_4c/pool <- inception_4b/output_inception_4b/output_0_split_3
I0403 17:58:43.895231  6355 net.cpp:399] inception_4c/pool -> inception_4c/pool
I0403 17:58:43.895303  6355 net.cpp:141] Setting up inception_4c/pool
I0403 17:58:43.895329  6355 net.cpp:148] Top shape: 24 512 14 14 (2408448)
I0403 17:58:43.895345  6355 net.cpp:156] Memory required for data: 1060605216
I0403 17:58:43.895361  6355 layer_factory.hpp:77] Creating layer inception_4c/pool_proj
I0403 17:58:43.895385  6355 net.cpp:91] Creating Layer inception_4c/pool_proj
I0403 17:58:43.895406  6355 net.cpp:425] inception_4c/pool_proj <- inception_4c/pool
I0403 17:58:43.895427  6355 net.cpp:399] inception_4c/pool_proj -> inception_4c/pool_proj
I0403 17:58:43.896705  6355 net.cpp:141] Setting up inception_4c/pool_proj
I0403 17:58:43.896747  6355 net.cpp:148] Top shape: 24 64 14 14 (301056)
I0403 17:58:43.896777  6355 net.cpp:156] Memory required for data: 1061809440
I0403 17:58:43.896797  6355 layer_factory.hpp:77] Creating layer inception_4c/relu_pool_proj
I0403 17:58:43.896816  6355 net.cpp:91] Creating Layer inception_4c/relu_pool_proj
I0403 17:58:43.896832  6355 net.cpp:425] inception_4c/relu_pool_proj <- inception_4c/pool_proj
I0403 17:58:43.896852  6355 net.cpp:386] inception_4c/relu_pool_proj -> inception_4c/pool_proj (in-place)
I0403 17:58:43.897042  6355 net.cpp:141] Setting up inception_4c/relu_pool_proj
I0403 17:58:43.897065  6355 net.cpp:148] Top shape: 24 64 14 14 (301056)
I0403 17:58:43.897080  6355 net.cpp:156] Memory required for data: 1063013664
I0403 17:58:43.897095  6355 layer_factory.hpp:77] Creating layer inception_4c/output
I0403 17:58:43.897112  6355 net.cpp:91] Creating Layer inception_4c/output
I0403 17:58:43.897128  6355 net.cpp:425] inception_4c/output <- inception_4c/1x1
I0403 17:58:43.897145  6355 net.cpp:425] inception_4c/output <- inception_4c/3x3
I0403 17:58:43.897161  6355 net.cpp:425] inception_4c/output <- inception_4c/5x5
I0403 17:58:43.897183  6355 net.cpp:425] inception_4c/output <- inception_4c/pool_proj
I0403 17:58:43.897205  6355 net.cpp:399] inception_4c/output -> inception_4c/output
I0403 17:58:43.897254  6355 net.cpp:141] Setting up inception_4c/output
I0403 17:58:43.897277  6355 net.cpp:148] Top shape: 24 512 14 14 (2408448)
I0403 17:58:43.897292  6355 net.cpp:156] Memory required for data: 1072647456
I0403 17:58:43.897307  6355 layer_factory.hpp:77] Creating layer inception_4c/output_inception_4c/output_0_split
I0403 17:58:43.897325  6355 net.cpp:91] Creating Layer inception_4c/output_inception_4c/output_0_split
I0403 17:58:43.897341  6355 net.cpp:425] inception_4c/output_inception_4c/output_0_split <- inception_4c/output
I0403 17:58:43.897361  6355 net.cpp:399] inception_4c/output_inception_4c/output_0_split -> inception_4c/output_inception_4c/output_0_split_0
I0403 17:58:43.897382  6355 net.cpp:399] inception_4c/output_inception_4c/output_0_split -> inception_4c/output_inception_4c/output_0_split_1
I0403 17:58:43.897403  6355 net.cpp:399] inception_4c/output_inception_4c/output_0_split -> inception_4c/output_inception_4c/output_0_split_2
I0403 17:58:43.897423  6355 net.cpp:399] inception_4c/output_inception_4c/output_0_split -> inception_4c/output_inception_4c/output_0_split_3
I0403 17:58:43.897511  6355 net.cpp:141] Setting up inception_4c/output_inception_4c/output_0_split
I0403 17:58:43.897533  6355 net.cpp:148] Top shape: 24 512 14 14 (2408448)
I0403 17:58:43.897549  6355 net.cpp:148] Top shape: 24 512 14 14 (2408448)
I0403 17:58:43.897565  6355 net.cpp:148] Top shape: 24 512 14 14 (2408448)
I0403 17:58:43.897581  6355 net.cpp:148] Top shape: 24 512 14 14 (2408448)
I0403 17:58:43.897595  6355 net.cpp:156] Memory required for data: 1111182624
I0403 17:58:43.897610  6355 layer_factory.hpp:77] Creating layer inception_4d/1x1
I0403 17:58:43.897634  6355 net.cpp:91] Creating Layer inception_4d/1x1
I0403 17:58:43.897653  6355 net.cpp:425] inception_4d/1x1 <- inception_4c/output_inception_4c/output_0_split_0
I0403 17:58:43.897672  6355 net.cpp:399] inception_4d/1x1 -> inception_4d/1x1
I0403 17:58:43.899139  6355 net.cpp:141] Setting up inception_4d/1x1
I0403 17:58:43.899168  6355 net.cpp:148] Top shape: 24 112 14 14 (526848)
I0403 17:58:43.899191  6355 net.cpp:156] Memory required for data: 1113290016
I0403 17:58:43.899211  6355 layer_factory.hpp:77] Creating layer inception_4d/relu_1x1
I0403 17:58:43.899232  6355 net.cpp:91] Creating Layer inception_4d/relu_1x1
I0403 17:58:43.899251  6355 net.cpp:425] inception_4d/relu_1x1 <- inception_4d/1x1
I0403 17:58:43.899271  6355 net.cpp:386] inception_4d/relu_1x1 -> inception_4d/1x1 (in-place)
I0403 17:58:43.899461  6355 net.cpp:141] Setting up inception_4d/relu_1x1
I0403 17:58:43.899487  6355 net.cpp:148] Top shape: 24 112 14 14 (526848)
I0403 17:58:43.899502  6355 net.cpp:156] Memory required for data: 1115397408
I0403 17:58:43.899518  6355 layer_factory.hpp:77] Creating layer inception_4d/3x3_reduce
I0403 17:58:43.899556  6355 net.cpp:91] Creating Layer inception_4d/3x3_reduce
I0403 17:58:43.899575  6355 net.cpp:425] inception_4d/3x3_reduce <- inception_4c/output_inception_4c/output_0_split_1
I0403 17:58:43.899598  6355 net.cpp:399] inception_4d/3x3_reduce -> inception_4d/3x3_reduce
I0403 17:58:43.901171  6355 net.cpp:141] Setting up inception_4d/3x3_reduce
I0403 17:58:43.901206  6355 net.cpp:148] Top shape: 24 144 14 14 (677376)
I0403 17:58:43.901221  6355 net.cpp:156] Memory required for data: 1118106912
I0403 17:58:43.901239  6355 layer_factory.hpp:77] Creating layer inception_4d/relu_3x3_reduce
I0403 17:58:43.901260  6355 net.cpp:91] Creating Layer inception_4d/relu_3x3_reduce
I0403 17:58:43.901278  6355 net.cpp:425] inception_4d/relu_3x3_reduce <- inception_4d/3x3_reduce
I0403 17:58:43.901295  6355 net.cpp:386] inception_4d/relu_3x3_reduce -> inception_4d/3x3_reduce (in-place)
I0403 17:58:43.901587  6355 net.cpp:141] Setting up inception_4d/relu_3x3_reduce
I0403 17:58:43.901614  6355 net.cpp:148] Top shape: 24 144 14 14 (677376)
I0403 17:58:43.901629  6355 net.cpp:156] Memory required for data: 1120816416
I0403 17:58:43.901645  6355 layer_factory.hpp:77] Creating layer inception_4d/3x3
I0403 17:58:43.901669  6355 net.cpp:91] Creating Layer inception_4d/3x3
I0403 17:58:43.901686  6355 net.cpp:425] inception_4d/3x3 <- inception_4d/3x3_reduce
I0403 17:58:43.901707  6355 net.cpp:399] inception_4d/3x3 -> inception_4d/3x3
I0403 17:58:43.906033  6355 net.cpp:141] Setting up inception_4d/3x3
I0403 17:58:43.906065  6355 net.cpp:148] Top shape: 24 288 14 14 (1354752)
I0403 17:58:43.906081  6355 net.cpp:156] Memory required for data: 1126235424
I0403 17:58:43.906101  6355 layer_factory.hpp:77] Creating layer inception_4d/relu_3x3
I0403 17:58:43.906119  6355 net.cpp:91] Creating Layer inception_4d/relu_3x3
I0403 17:58:43.906136  6355 net.cpp:425] inception_4d/relu_3x3 <- inception_4d/3x3
I0403 17:58:43.906153  6355 net.cpp:386] inception_4d/relu_3x3 -> inception_4d/3x3 (in-place)
I0403 17:58:43.906347  6355 net.cpp:141] Setting up inception_4d/relu_3x3
I0403 17:58:43.906371  6355 net.cpp:148] Top shape: 24 288 14 14 (1354752)
I0403 17:58:43.906388  6355 net.cpp:156] Memory required for data: 1131654432
I0403 17:58:43.906402  6355 layer_factory.hpp:77] Creating layer inception_4d/5x5_reduce
I0403 17:58:43.906424  6355 net.cpp:91] Creating Layer inception_4d/5x5_reduce
I0403 17:58:43.906442  6355 net.cpp:425] inception_4d/5x5_reduce <- inception_4c/output_inception_4c/output_0_split_2
I0403 17:58:43.906464  6355 net.cpp:399] inception_4d/5x5_reduce -> inception_4d/5x5_reduce
I0403 17:58:43.907621  6355 net.cpp:141] Setting up inception_4d/5x5_reduce
I0403 17:58:43.907649  6355 net.cpp:148] Top shape: 24 32 14 14 (150528)
I0403 17:58:43.907665  6355 net.cpp:156] Memory required for data: 1132256544
I0403 17:58:43.907686  6355 layer_factory.hpp:77] Creating layer inception_4d/relu_5x5_reduce
I0403 17:58:43.907706  6355 net.cpp:91] Creating Layer inception_4d/relu_5x5_reduce
I0403 17:58:43.907722  6355 net.cpp:425] inception_4d/relu_5x5_reduce <- inception_4d/5x5_reduce
I0403 17:58:43.907740  6355 net.cpp:386] inception_4d/relu_5x5_reduce -> inception_4d/5x5_reduce (in-place)
I0403 17:58:43.907930  6355 net.cpp:141] Setting up inception_4d/relu_5x5_reduce
I0403 17:58:43.907955  6355 net.cpp:148] Top shape: 24 32 14 14 (150528)
I0403 17:58:43.907970  6355 net.cpp:156] Memory required for data: 1132858656
I0403 17:58:43.907984  6355 layer_factory.hpp:77] Creating layer inception_4d/5x5
I0403 17:58:43.908007  6355 net.cpp:91] Creating Layer inception_4d/5x5
I0403 17:58:43.908025  6355 net.cpp:425] inception_4d/5x5 <- inception_4d/5x5_reduce
I0403 17:58:43.908047  6355 net.cpp:399] inception_4d/5x5 -> inception_4d/5x5
I0403 17:58:43.909590  6355 net.cpp:141] Setting up inception_4d/5x5
I0403 17:58:43.909617  6355 net.cpp:148] Top shape: 24 64 14 14 (301056)
I0403 17:58:43.909633  6355 net.cpp:156] Memory required for data: 1134062880
I0403 17:58:43.909652  6355 layer_factory.hpp:77] Creating layer inception_4d/relu_5x5
I0403 17:58:43.909685  6355 net.cpp:91] Creating Layer inception_4d/relu_5x5
I0403 17:58:43.909703  6355 net.cpp:425] inception_4d/relu_5x5 <- inception_4d/5x5
I0403 17:58:43.909724  6355 net.cpp:386] inception_4d/relu_5x5 -> inception_4d/5x5 (in-place)
I0403 17:58:43.910032  6355 net.cpp:141] Setting up inception_4d/relu_5x5
I0403 17:58:43.910058  6355 net.cpp:148] Top shape: 24 64 14 14 (301056)
I0403 17:58:43.910074  6355 net.cpp:156] Memory required for data: 1135267104
I0403 17:58:43.910089  6355 layer_factory.hpp:77] Creating layer inception_4d/pool
I0403 17:58:43.910107  6355 net.cpp:91] Creating Layer inception_4d/pool
I0403 17:58:43.910125  6355 net.cpp:425] inception_4d/pool <- inception_4c/output_inception_4c/output_0_split_3
I0403 17:58:43.910145  6355 net.cpp:399] inception_4d/pool -> inception_4d/pool
I0403 17:58:43.910218  6355 net.cpp:141] Setting up inception_4d/pool
I0403 17:58:43.910241  6355 net.cpp:148] Top shape: 24 512 14 14 (2408448)
I0403 17:58:43.910256  6355 net.cpp:156] Memory required for data: 1144900896
I0403 17:58:43.910271  6355 layer_factory.hpp:77] Creating layer inception_4d/pool_proj
I0403 17:58:43.910295  6355 net.cpp:91] Creating Layer inception_4d/pool_proj
I0403 17:58:43.910313  6355 net.cpp:425] inception_4d/pool_proj <- inception_4d/pool
I0403 17:58:43.910332  6355 net.cpp:399] inception_4d/pool_proj -> inception_4d/pool_proj
I0403 17:58:43.912116  6355 net.cpp:141] Setting up inception_4d/pool_proj
I0403 17:58:43.912147  6355 net.cpp:148] Top shape: 24 64 14 14 (301056)
I0403 17:58:43.912163  6355 net.cpp:156] Memory required for data: 1146105120
I0403 17:58:43.912194  6355 layer_factory.hpp:77] Creating layer inception_4d/relu_pool_proj
I0403 17:58:43.912216  6355 net.cpp:91] Creating Layer inception_4d/relu_pool_proj
I0403 17:58:43.912233  6355 net.cpp:425] inception_4d/relu_pool_proj <- inception_4d/pool_proj
I0403 17:58:43.912250  6355 net.cpp:386] inception_4d/relu_pool_proj -> inception_4d/pool_proj (in-place)
I0403 17:58:43.912454  6355 net.cpp:141] Setting up inception_4d/relu_pool_proj
I0403 17:58:43.912480  6355 net.cpp:148] Top shape: 24 64 14 14 (301056)
I0403 17:58:43.912497  6355 net.cpp:156] Memory required for data: 1147309344
I0403 17:58:43.912513  6355 layer_factory.hpp:77] Creating layer inception_4d/output
I0403 17:58:43.912529  6355 net.cpp:91] Creating Layer inception_4d/output
I0403 17:58:43.912546  6355 net.cpp:425] inception_4d/output <- inception_4d/1x1
I0403 17:58:43.912564  6355 net.cpp:425] inception_4d/output <- inception_4d/3x3
I0403 17:58:43.912580  6355 net.cpp:425] inception_4d/output <- inception_4d/5x5
I0403 17:58:43.912597  6355 net.cpp:425] inception_4d/output <- inception_4d/pool_proj
I0403 17:58:43.912617  6355 net.cpp:399] inception_4d/output -> inception_4d/output
I0403 17:58:43.912667  6355 net.cpp:141] Setting up inception_4d/output
I0403 17:58:43.912693  6355 net.cpp:148] Top shape: 24 528 14 14 (2483712)
I0403 17:58:43.912709  6355 net.cpp:156] Memory required for data: 1157244192
I0403 17:58:43.912737  6355 layer_factory.hpp:77] Creating layer inception_4d/output_inception_4d/output_0_split
I0403 17:58:43.912755  6355 net.cpp:91] Creating Layer inception_4d/output_inception_4d/output_0_split
I0403 17:58:43.912771  6355 net.cpp:425] inception_4d/output_inception_4d/output_0_split <- inception_4d/output
I0403 17:58:43.912792  6355 net.cpp:399] inception_4d/output_inception_4d/output_0_split -> inception_4d/output_inception_4d/output_0_split_0
I0403 17:58:43.912813  6355 net.cpp:399] inception_4d/output_inception_4d/output_0_split -> inception_4d/output_inception_4d/output_0_split_1
I0403 17:58:43.912834  6355 net.cpp:399] inception_4d/output_inception_4d/output_0_split -> inception_4d/output_inception_4d/output_0_split_2
I0403 17:58:43.912855  6355 net.cpp:399] inception_4d/output_inception_4d/output_0_split -> inception_4d/output_inception_4d/output_0_split_3
I0403 17:58:43.912876  6355 net.cpp:399] inception_4d/output_inception_4d/output_0_split -> inception_4d/output_inception_4d/output_0_split_4
I0403 17:58:43.912979  6355 net.cpp:141] Setting up inception_4d/output_inception_4d/output_0_split
I0403 17:58:43.913015  6355 net.cpp:148] Top shape: 24 528 14 14 (2483712)
I0403 17:58:43.913033  6355 net.cpp:148] Top shape: 24 528 14 14 (2483712)
I0403 17:58:43.913050  6355 net.cpp:148] Top shape: 24 528 14 14 (2483712)
I0403 17:58:43.913066  6355 net.cpp:148] Top shape: 24 528 14 14 (2483712)
I0403 17:58:43.913082  6355 net.cpp:148] Top shape: 24 528 14 14 (2483712)
I0403 17:58:43.913096  6355 net.cpp:156] Memory required for data: 1206918432
I0403 17:58:43.913111  6355 layer_factory.hpp:77] Creating layer loss2/ave_pool
I0403 17:58:43.913131  6355 net.cpp:91] Creating Layer loss2/ave_pool
I0403 17:58:43.913148  6355 net.cpp:425] loss2/ave_pool <- inception_4d/output_inception_4d/output_0_split_0
I0403 17:58:43.913167  6355 net.cpp:399] loss2/ave_pool -> loss2/ave_pool
I0403 17:58:43.913486  6355 net.cpp:141] Setting up loss2/ave_pool
I0403 17:58:43.913514  6355 net.cpp:148] Top shape: 24 528 4 4 (202752)
I0403 17:58:43.913530  6355 net.cpp:156] Memory required for data: 1207729440
I0403 17:58:43.913547  6355 layer_factory.hpp:77] Creating layer loss2/conv
I0403 17:58:43.913568  6355 net.cpp:91] Creating Layer loss2/conv
I0403 17:58:43.913586  6355 net.cpp:425] loss2/conv <- loss2/ave_pool
I0403 17:58:43.913606  6355 net.cpp:399] loss2/conv -> loss2/conv
I0403 17:58:43.915529  6355 net.cpp:141] Setting up loss2/conv
I0403 17:58:43.915557  6355 net.cpp:148] Top shape: 24 128 4 4 (49152)
I0403 17:58:43.915572  6355 net.cpp:156] Memory required for data: 1207926048
I0403 17:58:43.915591  6355 layer_factory.hpp:77] Creating layer loss2/relu_conv
I0403 17:58:43.915611  6355 net.cpp:91] Creating Layer loss2/relu_conv
I0403 17:58:43.915629  6355 net.cpp:425] loss2/relu_conv <- loss2/conv
I0403 17:58:43.915647  6355 net.cpp:386] loss2/relu_conv -> loss2/conv (in-place)
I0403 17:58:43.915932  6355 net.cpp:141] Setting up loss2/relu_conv
I0403 17:58:43.915966  6355 net.cpp:148] Top shape: 24 128 4 4 (49152)
I0403 17:58:43.915982  6355 net.cpp:156] Memory required for data: 1208122656
I0403 17:58:43.915997  6355 layer_factory.hpp:77] Creating layer loss2/fc
I0403 17:58:43.916020  6355 net.cpp:91] Creating Layer loss2/fc
I0403 17:58:43.916039  6355 net.cpp:425] loss2/fc <- loss2/conv
I0403 17:58:43.916059  6355 net.cpp:399] loss2/fc -> loss2/fc
I0403 17:58:43.933522  6355 net.cpp:141] Setting up loss2/fc
I0403 17:58:43.933553  6355 net.cpp:148] Top shape: 24 1024 (24576)
I0403 17:58:43.933568  6355 net.cpp:156] Memory required for data: 1208220960
I0403 17:58:43.933588  6355 layer_factory.hpp:77] Creating layer loss2/relu_fc
I0403 17:58:43.933604  6355 net.cpp:91] Creating Layer loss2/relu_fc
I0403 17:58:43.933620  6355 net.cpp:425] loss2/relu_fc <- loss2/fc
I0403 17:58:43.933640  6355 net.cpp:386] loss2/relu_fc -> loss2/fc (in-place)
I0403 17:58:43.933928  6355 net.cpp:141] Setting up loss2/relu_fc
I0403 17:58:43.933954  6355 net.cpp:148] Top shape: 24 1024 (24576)
I0403 17:58:43.933970  6355 net.cpp:156] Memory required for data: 1208319264
I0403 17:58:43.933985  6355 layer_factory.hpp:77] Creating layer loss2/drop_fc
I0403 17:58:43.934002  6355 net.cpp:91] Creating Layer loss2/drop_fc
I0403 17:58:43.934018  6355 net.cpp:425] loss2/drop_fc <- loss2/fc
I0403 17:58:43.934038  6355 net.cpp:386] loss2/drop_fc -> loss2/fc (in-place)
I0403 17:58:43.934087  6355 net.cpp:141] Setting up loss2/drop_fc
I0403 17:58:43.934109  6355 net.cpp:148] Top shape: 24 1024 (24576)
I0403 17:58:43.934123  6355 net.cpp:156] Memory required for data: 1208417568
I0403 17:58:43.934137  6355 layer_factory.hpp:77] Creating layer loss2/classifier_plantvillage
I0403 17:58:43.934159  6355 net.cpp:91] Creating Layer loss2/classifier_plantvillage
I0403 17:58:43.934175  6355 net.cpp:425] loss2/classifier_plantvillage <- loss2/fc
I0403 17:58:43.934203  6355 net.cpp:399] loss2/classifier_plantvillage -> loss2/classifier_plantvillage
I0403 17:58:43.934594  6355 net.cpp:141] Setting up loss2/classifier_plantvillage
I0403 17:58:43.934618  6355 net.cpp:148] Top shape: 24 38 (912)
I0403 17:58:43.934649  6355 net.cpp:156] Memory required for data: 1208421216
I0403 17:58:43.934669  6355 layer_factory.hpp:77] Creating layer loss2/classifier_plantvillage_loss2/classifier_plantvillage_0_split
I0403 17:58:43.934689  6355 net.cpp:91] Creating Layer loss2/classifier_plantvillage_loss2/classifier_plantvillage_0_split
I0403 17:58:43.934705  6355 net.cpp:425] loss2/classifier_plantvillage_loss2/classifier_plantvillage_0_split <- loss2/classifier_plantvillage
I0403 17:58:43.934722  6355 net.cpp:399] loss2/classifier_plantvillage_loss2/classifier_plantvillage_0_split -> loss2/classifier_plantvillage_loss2/classifier_plantvillage_0_split_0
I0403 17:58:43.934742  6355 net.cpp:399] loss2/classifier_plantvillage_loss2/classifier_plantvillage_0_split -> loss2/classifier_plantvillage_loss2/classifier_plantvillage_0_split_1
I0403 17:58:43.934762  6355 net.cpp:399] loss2/classifier_plantvillage_loss2/classifier_plantvillage_0_split -> loss2/classifier_plantvillage_loss2/classifier_plantvillage_0_split_2
I0403 17:58:43.934837  6355 net.cpp:141] Setting up loss2/classifier_plantvillage_loss2/classifier_plantvillage_0_split
I0403 17:58:43.934860  6355 net.cpp:148] Top shape: 24 38 (912)
I0403 17:58:43.934875  6355 net.cpp:148] Top shape: 24 38 (912)
I0403 17:58:43.934891  6355 net.cpp:148] Top shape: 24 38 (912)
I0403 17:58:43.934905  6355 net.cpp:156] Memory required for data: 1208432160
I0403 17:58:43.934919  6355 layer_factory.hpp:77] Creating layer inception_4e/1x1
I0403 17:58:43.934937  6355 net.cpp:91] Creating Layer inception_4e/1x1
I0403 17:58:43.934954  6355 net.cpp:425] inception_4e/1x1 <- inception_4d/output_inception_4d/output_0_split_1
I0403 17:58:43.934975  6355 net.cpp:399] inception_4e/1x1 -> inception_4e/1x1
I0403 17:58:43.936784  6355 net.cpp:141] Setting up inception_4e/1x1
I0403 17:58:43.936810  6355 net.cpp:148] Top shape: 24 256 14 14 (1204224)
I0403 17:58:43.936825  6355 net.cpp:156] Memory required for data: 1213249056
I0403 17:58:43.936842  6355 layer_factory.hpp:77] Creating layer inception_4e/relu_1x1
I0403 17:58:43.936863  6355 net.cpp:91] Creating Layer inception_4e/relu_1x1
I0403 17:58:43.936880  6355 net.cpp:425] inception_4e/relu_1x1 <- inception_4e/1x1
I0403 17:58:43.936897  6355 net.cpp:386] inception_4e/relu_1x1 -> inception_4e/1x1 (in-place)
I0403 17:58:43.937191  6355 net.cpp:141] Setting up inception_4e/relu_1x1
I0403 17:58:43.937216  6355 net.cpp:148] Top shape: 24 256 14 14 (1204224)
I0403 17:58:43.937229  6355 net.cpp:156] Memory required for data: 1218065952
I0403 17:58:43.937244  6355 layer_factory.hpp:77] Creating layer inception_4e/3x3_reduce
I0403 17:58:43.937266  6355 net.cpp:91] Creating Layer inception_4e/3x3_reduce
I0403 17:58:43.937283  6355 net.cpp:425] inception_4e/3x3_reduce <- inception_4d/output_inception_4d/output_0_split_2
I0403 17:58:43.937304  6355 net.cpp:399] inception_4e/3x3_reduce -> inception_4e/3x3_reduce
I0403 17:58:43.939613  6355 net.cpp:141] Setting up inception_4e/3x3_reduce
I0403 17:58:43.939641  6355 net.cpp:148] Top shape: 24 160 14 14 (752640)
I0403 17:58:43.939657  6355 net.cpp:156] Memory required for data: 1221076512
I0403 17:58:43.939676  6355 layer_factory.hpp:77] Creating layer inception_4e/relu_3x3_reduce
I0403 17:58:43.939693  6355 net.cpp:91] Creating Layer inception_4e/relu_3x3_reduce
I0403 17:58:43.939712  6355 net.cpp:425] inception_4e/relu_3x3_reduce <- inception_4e/3x3_reduce
I0403 17:58:43.939729  6355 net.cpp:386] inception_4e/relu_3x3_reduce -> inception_4e/3x3_reduce (in-place)
I0403 17:58:43.939913  6355 net.cpp:141] Setting up inception_4e/relu_3x3_reduce
I0403 17:58:43.939939  6355 net.cpp:148] Top shape: 24 160 14 14 (752640)
I0403 17:58:43.939952  6355 net.cpp:156] Memory required for data: 1224087072
I0403 17:58:43.939967  6355 layer_factory.hpp:77] Creating layer inception_4e/3x3
I0403 17:58:43.939990  6355 net.cpp:91] Creating Layer inception_4e/3x3
I0403 17:58:43.940006  6355 net.cpp:425] inception_4e/3x3 <- inception_4e/3x3_reduce
I0403 17:58:43.940026  6355 net.cpp:399] inception_4e/3x3 -> inception_4e/3x3
I0403 17:58:43.945083  6355 net.cpp:141] Setting up inception_4e/3x3
I0403 17:58:43.945125  6355 net.cpp:148] Top shape: 24 320 14 14 (1505280)
I0403 17:58:43.945142  6355 net.cpp:156] Memory required for data: 1230108192
I0403 17:58:43.945161  6355 layer_factory.hpp:77] Creating layer inception_4e/relu_3x3
I0403 17:58:43.945188  6355 net.cpp:91] Creating Layer inception_4e/relu_3x3
I0403 17:58:43.945207  6355 net.cpp:425] inception_4e/relu_3x3 <- inception_4e/3x3
I0403 17:58:43.945225  6355 net.cpp:386] inception_4e/relu_3x3 -> inception_4e/3x3 (in-place)
I0403 17:58:43.945533  6355 net.cpp:141] Setting up inception_4e/relu_3x3
I0403 17:58:43.945560  6355 net.cpp:148] Top shape: 24 320 14 14 (1505280)
I0403 17:58:43.945575  6355 net.cpp:156] Memory required for data: 1236129312
I0403 17:58:43.945590  6355 layer_factory.hpp:77] Creating layer inception_4e/5x5_reduce
I0403 17:58:43.945616  6355 net.cpp:91] Creating Layer inception_4e/5x5_reduce
I0403 17:58:43.945634  6355 net.cpp:425] inception_4e/5x5_reduce <- inception_4d/output_inception_4d/output_0_split_3
I0403 17:58:43.945654  6355 net.cpp:399] inception_4e/5x5_reduce -> inception_4e/5x5_reduce
I0403 17:58:43.946732  6355 net.cpp:141] Setting up inception_4e/5x5_reduce
I0403 17:58:43.946759  6355 net.cpp:148] Top shape: 24 32 14 14 (150528)
I0403 17:58:43.946774  6355 net.cpp:156] Memory required for data: 1236731424
I0403 17:58:43.946792  6355 layer_factory.hpp:77] Creating layer inception_4e/relu_5x5_reduce
I0403 17:58:43.946811  6355 net.cpp:91] Creating Layer inception_4e/relu_5x5_reduce
I0403 17:58:43.946827  6355 net.cpp:425] inception_4e/relu_5x5_reduce <- inception_4e/5x5_reduce
I0403 17:58:43.946847  6355 net.cpp:386] inception_4e/relu_5x5_reduce -> inception_4e/5x5_reduce (in-place)
I0403 17:58:43.947145  6355 net.cpp:141] Setting up inception_4e/relu_5x5_reduce
I0403 17:58:43.947171  6355 net.cpp:148] Top shape: 24 32 14 14 (150528)
I0403 17:58:43.947196  6355 net.cpp:156] Memory required for data: 1237333536
I0403 17:58:43.947211  6355 layer_factory.hpp:77] Creating layer inception_4e/5x5
I0403 17:58:43.947250  6355 net.cpp:91] Creating Layer inception_4e/5x5
I0403 17:58:43.947270  6355 net.cpp:425] inception_4e/5x5 <- inception_4e/5x5_reduce
I0403 17:58:43.947290  6355 net.cpp:399] inception_4e/5x5 -> inception_4e/5x5
I0403 17:58:43.949175  6355 net.cpp:141] Setting up inception_4e/5x5
I0403 17:58:43.949211  6355 net.cpp:148] Top shape: 24 128 14 14 (602112)
I0403 17:58:43.949229  6355 net.cpp:156] Memory required for data: 1239741984
I0403 17:58:43.949247  6355 layer_factory.hpp:77] Creating layer inception_4e/relu_5x5
I0403 17:58:43.949266  6355 net.cpp:91] Creating Layer inception_4e/relu_5x5
I0403 17:58:43.949283  6355 net.cpp:425] inception_4e/relu_5x5 <- inception_4e/5x5
I0403 17:58:43.949302  6355 net.cpp:386] inception_4e/relu_5x5 -> inception_4e/5x5 (in-place)
I0403 17:58:43.949506  6355 net.cpp:141] Setting up inception_4e/relu_5x5
I0403 17:58:43.949530  6355 net.cpp:148] Top shape: 24 128 14 14 (602112)
I0403 17:58:43.949545  6355 net.cpp:156] Memory required for data: 1242150432
I0403 17:58:43.949560  6355 layer_factory.hpp:77] Creating layer inception_4e/pool
I0403 17:58:43.949579  6355 net.cpp:91] Creating Layer inception_4e/pool
I0403 17:58:43.949599  6355 net.cpp:425] inception_4e/pool <- inception_4d/output_inception_4d/output_0_split_4
I0403 17:58:43.949617  6355 net.cpp:399] inception_4e/pool -> inception_4e/pool
I0403 17:58:43.949689  6355 net.cpp:141] Setting up inception_4e/pool
I0403 17:58:43.949712  6355 net.cpp:148] Top shape: 24 528 14 14 (2483712)
I0403 17:58:43.949728  6355 net.cpp:156] Memory required for data: 1252085280
I0403 17:58:43.949743  6355 layer_factory.hpp:77] Creating layer inception_4e/pool_proj
I0403 17:58:43.949764  6355 net.cpp:91] Creating Layer inception_4e/pool_proj
I0403 17:58:43.949782  6355 net.cpp:425] inception_4e/pool_proj <- inception_4e/pool
I0403 17:58:43.949805  6355 net.cpp:399] inception_4e/pool_proj -> inception_4e/pool_proj
I0403 17:58:43.951319  6355 net.cpp:141] Setting up inception_4e/pool_proj
I0403 17:58:43.951362  6355 net.cpp:148] Top shape: 24 128 14 14 (602112)
I0403 17:58:43.951380  6355 net.cpp:156] Memory required for data: 1254493728
I0403 17:58:43.951398  6355 layer_factory.hpp:77] Creating layer inception_4e/relu_pool_proj
I0403 17:58:43.951416  6355 net.cpp:91] Creating Layer inception_4e/relu_pool_proj
I0403 17:58:43.951433  6355 net.cpp:425] inception_4e/relu_pool_proj <- inception_4e/pool_proj
I0403 17:58:43.951452  6355 net.cpp:386] inception_4e/relu_pool_proj -> inception_4e/pool_proj (in-place)
I0403 17:58:43.951747  6355 net.cpp:141] Setting up inception_4e/relu_pool_proj
I0403 17:58:43.951776  6355 net.cpp:148] Top shape: 24 128 14 14 (602112)
I0403 17:58:43.951793  6355 net.cpp:156] Memory required for data: 1256902176
I0403 17:58:43.951808  6355 layer_factory.hpp:77] Creating layer inception_4e/output
I0403 17:58:43.951827  6355 net.cpp:91] Creating Layer inception_4e/output
I0403 17:58:43.951843  6355 net.cpp:425] inception_4e/output <- inception_4e/1x1
I0403 17:58:43.951860  6355 net.cpp:425] inception_4e/output <- inception_4e/3x3
I0403 17:58:43.951876  6355 net.cpp:425] inception_4e/output <- inception_4e/5x5
I0403 17:58:43.951892  6355 net.cpp:425] inception_4e/output <- inception_4e/pool_proj
I0403 17:58:43.951910  6355 net.cpp:399] inception_4e/output -> inception_4e/output
I0403 17:58:43.951961  6355 net.cpp:141] Setting up inception_4e/output
I0403 17:58:43.951984  6355 net.cpp:148] Top shape: 24 832 14 14 (3913728)
I0403 17:58:43.951999  6355 net.cpp:156] Memory required for data: 1272557088
I0403 17:58:43.952014  6355 layer_factory.hpp:77] Creating layer pool4/3x3_s2
I0403 17:58:43.952034  6355 net.cpp:91] Creating Layer pool4/3x3_s2
I0403 17:58:43.952051  6355 net.cpp:425] pool4/3x3_s2 <- inception_4e/output
I0403 17:58:43.952070  6355 net.cpp:399] pool4/3x3_s2 -> pool4/3x3_s2
I0403 17:58:43.952141  6355 net.cpp:141] Setting up pool4/3x3_s2
I0403 17:58:43.952164  6355 net.cpp:148] Top shape: 24 832 7 7 (978432)
I0403 17:58:43.952190  6355 net.cpp:156] Memory required for data: 1276470816
I0403 17:58:43.952208  6355 layer_factory.hpp:77] Creating layer pool4/3x3_s2_pool4/3x3_s2_0_split
I0403 17:58:43.952226  6355 net.cpp:91] Creating Layer pool4/3x3_s2_pool4/3x3_s2_0_split
I0403 17:58:43.952242  6355 net.cpp:425] pool4/3x3_s2_pool4/3x3_s2_0_split <- pool4/3x3_s2
I0403 17:58:43.952262  6355 net.cpp:399] pool4/3x3_s2_pool4/3x3_s2_0_split -> pool4/3x3_s2_pool4/3x3_s2_0_split_0
I0403 17:58:43.952285  6355 net.cpp:399] pool4/3x3_s2_pool4/3x3_s2_0_split -> pool4/3x3_s2_pool4/3x3_s2_0_split_1
I0403 17:58:43.952306  6355 net.cpp:399] pool4/3x3_s2_pool4/3x3_s2_0_split -> pool4/3x3_s2_pool4/3x3_s2_0_split_2
I0403 17:58:43.952325  6355 net.cpp:399] pool4/3x3_s2_pool4/3x3_s2_0_split -> pool4/3x3_s2_pool4/3x3_s2_0_split_3
I0403 17:58:43.952419  6355 net.cpp:141] Setting up pool4/3x3_s2_pool4/3x3_s2_0_split
I0403 17:58:43.952443  6355 net.cpp:148] Top shape: 24 832 7 7 (978432)
I0403 17:58:43.952461  6355 net.cpp:148] Top shape: 24 832 7 7 (978432)
I0403 17:58:43.952479  6355 net.cpp:148] Top shape: 24 832 7 7 (978432)
I0403 17:58:43.952497  6355 net.cpp:148] Top shape: 24 832 7 7 (978432)
I0403 17:58:43.952510  6355 net.cpp:156] Memory required for data: 1292125728
I0403 17:58:43.952533  6355 layer_factory.hpp:77] Creating layer inception_5a/1x1
I0403 17:58:43.952558  6355 net.cpp:91] Creating Layer inception_5a/1x1
I0403 17:58:43.952575  6355 net.cpp:425] inception_5a/1x1 <- pool4/3x3_s2_pool4/3x3_s2_0_split_0
I0403 17:58:43.952595  6355 net.cpp:399] inception_5a/1x1 -> inception_5a/1x1
I0403 17:58:43.955561  6355 net.cpp:141] Setting up inception_5a/1x1
I0403 17:58:43.955593  6355 net.cpp:148] Top shape: 24 256 7 7 (301056)
I0403 17:58:43.955610  6355 net.cpp:156] Memory required for data: 1293329952
I0403 17:58:43.955631  6355 layer_factory.hpp:77] Creating layer inception_5a/relu_1x1
I0403 17:58:43.955649  6355 net.cpp:91] Creating Layer inception_5a/relu_1x1
I0403 17:58:43.955667  6355 net.cpp:425] inception_5a/relu_1x1 <- inception_5a/1x1
I0403 17:58:43.955687  6355 net.cpp:386] inception_5a/relu_1x1 -> inception_5a/1x1 (in-place)
I0403 17:58:43.956013  6355 net.cpp:141] Setting up inception_5a/relu_1x1
I0403 17:58:43.956043  6355 net.cpp:148] Top shape: 24 256 7 7 (301056)
I0403 17:58:43.956059  6355 net.cpp:156] Memory required for data: 1294534176
I0403 17:58:43.956075  6355 layer_factory.hpp:77] Creating layer inception_5a/3x3_reduce
I0403 17:58:43.956099  6355 net.cpp:91] Creating Layer inception_5a/3x3_reduce
I0403 17:58:43.956116  6355 net.cpp:425] inception_5a/3x3_reduce <- pool4/3x3_s2_pool4/3x3_s2_0_split_1
I0403 17:58:43.956140  6355 net.cpp:399] inception_5a/3x3_reduce -> inception_5a/3x3_reduce
I0403 17:58:43.958726  6355 net.cpp:141] Setting up inception_5a/3x3_reduce
I0403 17:58:43.958755  6355 net.cpp:148] Top shape: 24 160 7 7 (188160)
I0403 17:58:43.958775  6355 net.cpp:156] Memory required for data: 1295286816
I0403 17:58:43.958793  6355 layer_factory.hpp:77] Creating layer inception_5a/relu_3x3_reduce
I0403 17:58:43.958812  6355 net.cpp:91] Creating Layer inception_5a/relu_3x3_reduce
I0403 17:58:43.958829  6355 net.cpp:425] inception_5a/relu_3x3_reduce <- inception_5a/3x3_reduce
I0403 17:58:43.958847  6355 net.cpp:386] inception_5a/relu_3x3_reduce -> inception_5a/3x3_reduce (in-place)
I0403 17:58:43.959043  6355 net.cpp:141] Setting up inception_5a/relu_3x3_reduce
I0403 17:58:43.959071  6355 net.cpp:148] Top shape: 24 160 7 7 (188160)
I0403 17:58:43.959087  6355 net.cpp:156] Memory required for data: 1296039456
I0403 17:58:43.959103  6355 layer_factory.hpp:77] Creating layer inception_5a/3x3
I0403 17:58:43.959126  6355 net.cpp:91] Creating Layer inception_5a/3x3
I0403 17:58:43.959146  6355 net.cpp:425] inception_5a/3x3 <- inception_5a/3x3_reduce
I0403 17:58:43.959164  6355 net.cpp:399] inception_5a/3x3 -> inception_5a/3x3
I0403 17:58:43.965212  6355 net.cpp:141] Setting up inception_5a/3x3
I0403 17:58:43.965243  6355 net.cpp:148] Top shape: 24 320 7 7 (376320)
I0403 17:58:43.965260  6355 net.cpp:156] Memory required for data: 1297544736
I0403 17:58:43.965281  6355 layer_factory.hpp:77] Creating layer inception_5a/relu_3x3
I0403 17:58:43.965299  6355 net.cpp:91] Creating Layer inception_5a/relu_3x3
I0403 17:58:43.965317  6355 net.cpp:425] inception_5a/relu_3x3 <- inception_5a/3x3
I0403 17:58:43.965337  6355 net.cpp:386] inception_5a/relu_3x3 -> inception_5a/3x3 (in-place)
I0403 17:58:43.965643  6355 net.cpp:141] Setting up inception_5a/relu_3x3
I0403 17:58:43.965672  6355 net.cpp:148] Top shape: 24 320 7 7 (376320)
I0403 17:58:43.965687  6355 net.cpp:156] Memory required for data: 1299050016
I0403 17:58:43.965703  6355 layer_factory.hpp:77] Creating layer inception_5a/5x5_reduce
I0403 17:58:43.965726  6355 net.cpp:91] Creating Layer inception_5a/5x5_reduce
I0403 17:58:43.965746  6355 net.cpp:425] inception_5a/5x5_reduce <- pool4/3x3_s2_pool4/3x3_s2_0_split_2
I0403 17:58:43.965770  6355 net.cpp:399] inception_5a/5x5_reduce -> inception_5a/5x5_reduce
I0403 17:58:43.966995  6355 net.cpp:141] Setting up inception_5a/5x5_reduce
I0403 17:58:43.967027  6355 net.cpp:148] Top shape: 24 32 7 7 (37632)
I0403 17:58:43.967044  6355 net.cpp:156] Memory required for data: 1299200544
I0403 17:58:43.967064  6355 layer_factory.hpp:77] Creating layer inception_5a/relu_5x5_reduce
I0403 17:58:43.967085  6355 net.cpp:91] Creating Layer inception_5a/relu_5x5_reduce
I0403 17:58:43.967103  6355 net.cpp:425] inception_5a/relu_5x5_reduce <- inception_5a/5x5_reduce
I0403 17:58:43.967123  6355 net.cpp:386] inception_5a/relu_5x5_reduce -> inception_5a/5x5_reduce (in-place)
I0403 17:58:43.967440  6355 net.cpp:141] Setting up inception_5a/relu_5x5_reduce
I0403 17:58:43.967466  6355 net.cpp:148] Top shape: 24 32 7 7 (37632)
I0403 17:58:43.967483  6355 net.cpp:156] Memory required for data: 1299351072
I0403 17:58:43.967499  6355 layer_factory.hpp:77] Creating layer inception_5a/5x5
I0403 17:58:43.967521  6355 net.cpp:91] Creating Layer inception_5a/5x5
I0403 17:58:43.967540  6355 net.cpp:425] inception_5a/5x5 <- inception_5a/5x5_reduce
I0403 17:58:43.967562  6355 net.cpp:399] inception_5a/5x5 -> inception_5a/5x5
I0403 17:58:43.969372  6355 net.cpp:141] Setting up inception_5a/5x5
I0403 17:58:43.969415  6355 net.cpp:148] Top shape: 24 128 7 7 (150528)
I0403 17:58:43.969432  6355 net.cpp:156] Memory required for data: 1299953184
I0403 17:58:43.969451  6355 layer_factory.hpp:77] Creating layer inception_5a/relu_5x5
I0403 17:58:43.969470  6355 net.cpp:91] Creating Layer inception_5a/relu_5x5
I0403 17:58:43.969486  6355 net.cpp:425] inception_5a/relu_5x5 <- inception_5a/5x5
I0403 17:58:43.969511  6355 net.cpp:386] inception_5a/relu_5x5 -> inception_5a/5x5 (in-place)
I0403 17:58:43.969713  6355 net.cpp:141] Setting up inception_5a/relu_5x5
I0403 17:58:43.969739  6355 net.cpp:148] Top shape: 24 128 7 7 (150528)
I0403 17:58:43.969754  6355 net.cpp:156] Memory required for data: 1300555296
I0403 17:58:43.969770  6355 layer_factory.hpp:77] Creating layer inception_5a/pool
I0403 17:58:43.969791  6355 net.cpp:91] Creating Layer inception_5a/pool
I0403 17:58:43.969810  6355 net.cpp:425] inception_5a/pool <- pool4/3x3_s2_pool4/3x3_s2_0_split_3
I0403 17:58:43.969828  6355 net.cpp:399] inception_5a/pool -> inception_5a/pool
I0403 17:58:43.969902  6355 net.cpp:141] Setting up inception_5a/pool
I0403 17:58:43.969926  6355 net.cpp:148] Top shape: 24 832 7 7 (978432)
I0403 17:58:43.969943  6355 net.cpp:156] Memory required for data: 1304469024
I0403 17:58:43.969957  6355 layer_factory.hpp:77] Creating layer inception_5a/pool_proj
I0403 17:58:43.969980  6355 net.cpp:91] Creating Layer inception_5a/pool_proj
I0403 17:58:43.969997  6355 net.cpp:425] inception_5a/pool_proj <- inception_5a/pool
I0403 17:58:43.970021  6355 net.cpp:399] inception_5a/pool_proj -> inception_5a/pool_proj
I0403 17:58:43.972424  6355 net.cpp:141] Setting up inception_5a/pool_proj
I0403 17:58:43.972456  6355 net.cpp:148] Top shape: 24 128 7 7 (150528)
I0403 17:58:43.972475  6355 net.cpp:156] Memory required for data: 1305071136
I0403 17:58:43.972493  6355 layer_factory.hpp:77] Creating layer inception_5a/relu_pool_proj
I0403 17:58:43.972512  6355 net.cpp:91] Creating Layer inception_5a/relu_pool_proj
I0403 17:58:43.972529  6355 net.cpp:425] inception_5a/relu_pool_proj <- inception_5a/pool_proj
I0403 17:58:43.972561  6355 net.cpp:386] inception_5a/relu_pool_proj -> inception_5a/pool_proj (in-place)
I0403 17:58:43.972859  6355 net.cpp:141] Setting up inception_5a/relu_pool_proj
I0403 17:58:43.972887  6355 net.cpp:148] Top shape: 24 128 7 7 (150528)
I0403 17:58:43.972904  6355 net.cpp:156] Memory required for data: 1305673248
I0403 17:58:43.972919  6355 layer_factory.hpp:77] Creating layer inception_5a/output
I0403 17:58:43.972937  6355 net.cpp:91] Creating Layer inception_5a/output
I0403 17:58:43.972954  6355 net.cpp:425] inception_5a/output <- inception_5a/1x1
I0403 17:58:43.972970  6355 net.cpp:425] inception_5a/output <- inception_5a/3x3
I0403 17:58:43.972986  6355 net.cpp:425] inception_5a/output <- inception_5a/5x5
I0403 17:58:43.973002  6355 net.cpp:425] inception_5a/output <- inception_5a/pool_proj
I0403 17:58:43.973021  6355 net.cpp:399] inception_5a/output -> inception_5a/output
I0403 17:58:43.973073  6355 net.cpp:141] Setting up inception_5a/output
I0403 17:58:43.973096  6355 net.cpp:148] Top shape: 24 832 7 7 (978432)
I0403 17:58:43.973111  6355 net.cpp:156] Memory required for data: 1309586976
I0403 17:58:43.973126  6355 layer_factory.hpp:77] Creating layer inception_5a/output_inception_5a/output_0_split
I0403 17:58:43.973143  6355 net.cpp:91] Creating Layer inception_5a/output_inception_5a/output_0_split
I0403 17:58:43.973160  6355 net.cpp:425] inception_5a/output_inception_5a/output_0_split <- inception_5a/output
I0403 17:58:43.973187  6355 net.cpp:399] inception_5a/output_inception_5a/output_0_split -> inception_5a/output_inception_5a/output_0_split_0
I0403 17:58:43.973211  6355 net.cpp:399] inception_5a/output_inception_5a/output_0_split -> inception_5a/output_inception_5a/output_0_split_1
I0403 17:58:43.973232  6355 net.cpp:399] inception_5a/output_inception_5a/output_0_split -> inception_5a/output_inception_5a/output_0_split_2
I0403 17:58:43.973255  6355 net.cpp:399] inception_5a/output_inception_5a/output_0_split -> inception_5a/output_inception_5a/output_0_split_3
I0403 17:58:43.973367  6355 net.cpp:141] Setting up inception_5a/output_inception_5a/output_0_split
I0403 17:58:43.973392  6355 net.cpp:148] Top shape: 24 832 7 7 (978432)
I0403 17:58:43.973408  6355 net.cpp:148] Top shape: 24 832 7 7 (978432)
I0403 17:58:43.973424  6355 net.cpp:148] Top shape: 24 832 7 7 (978432)
I0403 17:58:43.973440  6355 net.cpp:148] Top shape: 24 832 7 7 (978432)
I0403 17:58:43.973455  6355 net.cpp:156] Memory required for data: 1325241888
I0403 17:58:43.973470  6355 layer_factory.hpp:77] Creating layer inception_5b/1x1
I0403 17:58:43.973494  6355 net.cpp:91] Creating Layer inception_5b/1x1
I0403 17:58:43.973510  6355 net.cpp:425] inception_5b/1x1 <- inception_5a/output_inception_5a/output_0_split_0
I0403 17:58:43.973532  6355 net.cpp:399] inception_5b/1x1 -> inception_5b/1x1
I0403 17:58:43.977362  6355 net.cpp:141] Setting up inception_5b/1x1
I0403 17:58:43.977394  6355 net.cpp:148] Top shape: 24 384 7 7 (451584)
I0403 17:58:43.977411  6355 net.cpp:156] Memory required for data: 1327048224
I0403 17:58:43.977430  6355 layer_factory.hpp:77] Creating layer inception_5b/relu_1x1
I0403 17:58:43.977448  6355 net.cpp:91] Creating Layer inception_5b/relu_1x1
I0403 17:58:43.977465  6355 net.cpp:425] inception_5b/relu_1x1 <- inception_5b/1x1
I0403 17:58:43.977483  6355 net.cpp:386] inception_5b/relu_1x1 -> inception_5b/1x1 (in-place)
I0403 17:58:43.977790  6355 net.cpp:141] Setting up inception_5b/relu_1x1
I0403 17:58:43.977818  6355 net.cpp:148] Top shape: 24 384 7 7 (451584)
I0403 17:58:43.977835  6355 net.cpp:156] Memory required for data: 1328854560
I0403 17:58:43.977850  6355 layer_factory.hpp:77] Creating layer inception_5b/3x3_reduce
I0403 17:58:43.977870  6355 net.cpp:91] Creating Layer inception_5b/3x3_reduce
I0403 17:58:43.977888  6355 net.cpp:425] inception_5b/3x3_reduce <- inception_5a/output_inception_5a/output_0_split_1
I0403 17:58:43.977910  6355 net.cpp:399] inception_5b/3x3_reduce -> inception_5b/3x3_reduce
I0403 17:58:43.980635  6355 net.cpp:141] Setting up inception_5b/3x3_reduce
I0403 17:58:43.980664  6355 net.cpp:148] Top shape: 24 192 7 7 (225792)
I0403 17:58:43.980680  6355 net.cpp:156] Memory required for data: 1329757728
I0403 17:58:43.980701  6355 layer_factory.hpp:77] Creating layer inception_5b/relu_3x3_reduce
I0403 17:58:43.980721  6355 net.cpp:91] Creating Layer inception_5b/relu_3x3_reduce
I0403 17:58:43.980738  6355 net.cpp:425] inception_5b/relu_3x3_reduce <- inception_5b/3x3_reduce
I0403 17:58:43.980756  6355 net.cpp:386] inception_5b/relu_3x3_reduce -> inception_5b/3x3_reduce (in-place)
I0403 17:58:43.980950  6355 net.cpp:141] Setting up inception_5b/relu_3x3_reduce
I0403 17:58:43.980975  6355 net.cpp:148] Top shape: 24 192 7 7 (225792)
I0403 17:58:43.980991  6355 net.cpp:156] Memory required for data: 1330660896
I0403 17:58:43.981006  6355 layer_factory.hpp:77] Creating layer inception_5b/3x3
I0403 17:58:43.981029  6355 net.cpp:91] Creating Layer inception_5b/3x3
I0403 17:58:43.981046  6355 net.cpp:425] inception_5b/3x3 <- inception_5b/3x3_reduce
I0403 17:58:43.981070  6355 net.cpp:399] inception_5b/3x3 -> inception_5b/3x3
I0403 17:58:43.987840  6355 net.cpp:141] Setting up inception_5b/3x3
I0403 17:58:43.987872  6355 net.cpp:148] Top shape: 24 384 7 7 (451584)
I0403 17:58:43.987890  6355 net.cpp:156] Memory required for data: 1332467232
I0403 17:58:43.987908  6355 layer_factory.hpp:77] Creating layer inception_5b/relu_3x3
I0403 17:58:43.987927  6355 net.cpp:91] Creating Layer inception_5b/relu_3x3
I0403 17:58:43.987943  6355 net.cpp:425] inception_5b/relu_3x3 <- inception_5b/3x3
I0403 17:58:43.987964  6355 net.cpp:386] inception_5b/relu_3x3 -> inception_5b/3x3 (in-place)
I0403 17:58:43.988289  6355 net.cpp:141] Setting up inception_5b/relu_3x3
I0403 17:58:43.988319  6355 net.cpp:148] Top shape: 24 384 7 7 (451584)
I0403 17:58:43.988337  6355 net.cpp:156] Memory required for data: 1334273568
I0403 17:58:43.988353  6355 layer_factory.hpp:77] Creating layer inception_5b/5x5_reduce
I0403 17:58:43.988392  6355 net.cpp:91] Creating Layer inception_5b/5x5_reduce
I0403 17:58:43.988412  6355 net.cpp:425] inception_5b/5x5_reduce <- inception_5a/output_inception_5a/output_0_split_2
I0403 17:58:43.988433  6355 net.cpp:399] inception_5b/5x5_reduce -> inception_5b/5x5_reduce
I0403 17:58:43.989718  6355 net.cpp:141] Setting up inception_5b/5x5_reduce
I0403 17:58:43.989749  6355 net.cpp:148] Top shape: 24 48 7 7 (56448)
I0403 17:58:43.989766  6355 net.cpp:156] Memory required for data: 1334499360
I0403 17:58:43.989784  6355 layer_factory.hpp:77] Creating layer inception_5b/relu_5x5_reduce
I0403 17:58:43.989802  6355 net.cpp:91] Creating Layer inception_5b/relu_5x5_reduce
I0403 17:58:43.989819  6355 net.cpp:425] inception_5b/relu_5x5_reduce <- inception_5b/5x5_reduce
I0403 17:58:43.989836  6355 net.cpp:386] inception_5b/relu_5x5_reduce -> inception_5b/5x5_reduce (in-place)
I0403 17:58:43.990211  6355 net.cpp:141] Setting up inception_5b/relu_5x5_reduce
I0403 17:58:43.990249  6355 net.cpp:148] Top shape: 24 48 7 7 (56448)
I0403 17:58:43.990264  6355 net.cpp:156] Memory required for data: 1334725152
I0403 17:58:43.990280  6355 layer_factory.hpp:77] Creating layer inception_5b/5x5
I0403 17:58:43.990301  6355 net.cpp:91] Creating Layer inception_5b/5x5
I0403 17:58:43.990319  6355 net.cpp:425] inception_5b/5x5 <- inception_5b/5x5_reduce
I0403 17:58:43.990339  6355 net.cpp:399] inception_5b/5x5 -> inception_5b/5x5
I0403 17:58:43.992425  6355 net.cpp:141] Setting up inception_5b/5x5
I0403 17:58:43.992457  6355 net.cpp:148] Top shape: 24 128 7 7 (150528)
I0403 17:58:43.992475  6355 net.cpp:156] Memory required for data: 1335327264
I0403 17:58:43.992506  6355 layer_factory.hpp:77] Creating layer inception_5b/relu_5x5
I0403 17:58:43.992525  6355 net.cpp:91] Creating Layer inception_5b/relu_5x5
I0403 17:58:43.992555  6355 net.cpp:425] inception_5b/relu_5x5 <- inception_5b/5x5
I0403 17:58:43.992578  6355 net.cpp:386] inception_5b/relu_5x5 -> inception_5b/5x5 (in-place)
I0403 17:58:43.992769  6355 net.cpp:141] Setting up inception_5b/relu_5x5
I0403 17:58:43.992794  6355 net.cpp:148] Top shape: 24 128 7 7 (150528)
I0403 17:58:43.992808  6355 net.cpp:156] Memory required for data: 1335929376
I0403 17:58:43.992822  6355 layer_factory.hpp:77] Creating layer inception_5b/pool
I0403 17:58:43.992842  6355 net.cpp:91] Creating Layer inception_5b/pool
I0403 17:58:43.992859  6355 net.cpp:425] inception_5b/pool <- inception_5a/output_inception_5a/output_0_split_3
I0403 17:58:43.992877  6355 net.cpp:399] inception_5b/pool -> inception_5b/pool
I0403 17:58:43.992950  6355 net.cpp:141] Setting up inception_5b/pool
I0403 17:58:43.992974  6355 net.cpp:148] Top shape: 24 832 7 7 (978432)
I0403 17:58:43.992988  6355 net.cpp:156] Memory required for data: 1339843104
I0403 17:58:43.993003  6355 layer_factory.hpp:77] Creating layer inception_5b/pool_proj
I0403 17:58:43.993026  6355 net.cpp:91] Creating Layer inception_5b/pool_proj
I0403 17:58:43.993042  6355 net.cpp:425] inception_5b/pool_proj <- inception_5b/pool
I0403 17:58:43.993063  6355 net.cpp:399] inception_5b/pool_proj -> inception_5b/pool_proj
I0403 17:58:43.995337  6355 net.cpp:141] Setting up inception_5b/pool_proj
I0403 17:58:43.995368  6355 net.cpp:148] Top shape: 24 128 7 7 (150528)
I0403 17:58:43.995383  6355 net.cpp:156] Memory required for data: 1340445216
I0403 17:58:43.995401  6355 layer_factory.hpp:77] Creating layer inception_5b/relu_pool_proj
I0403 17:58:43.995419  6355 net.cpp:91] Creating Layer inception_5b/relu_pool_proj
I0403 17:58:43.995435  6355 net.cpp:425] inception_5b/relu_pool_proj <- inception_5b/pool_proj
I0403 17:58:43.995455  6355 net.cpp:386] inception_5b/relu_pool_proj -> inception_5b/pool_proj (in-place)
I0403 17:58:43.995748  6355 net.cpp:141] Setting up inception_5b/relu_pool_proj
I0403 17:58:43.995777  6355 net.cpp:148] Top shape: 24 128 7 7 (150528)
I0403 17:58:43.995795  6355 net.cpp:156] Memory required for data: 1341047328
I0403 17:58:43.995808  6355 layer_factory.hpp:77] Creating layer inception_5b/output
I0403 17:58:43.995826  6355 net.cpp:91] Creating Layer inception_5b/output
I0403 17:58:43.995857  6355 net.cpp:425] inception_5b/output <- inception_5b/1x1
I0403 17:58:43.995874  6355 net.cpp:425] inception_5b/output <- inception_5b/3x3
I0403 17:58:43.995890  6355 net.cpp:425] inception_5b/output <- inception_5b/5x5
I0403 17:58:43.995906  6355 net.cpp:425] inception_5b/output <- inception_5b/pool_proj
I0403 17:58:43.995923  6355 net.cpp:399] inception_5b/output -> inception_5b/output
I0403 17:58:43.995975  6355 net.cpp:141] Setting up inception_5b/output
I0403 17:58:43.995998  6355 net.cpp:148] Top shape: 24 1024 7 7 (1204224)
I0403 17:58:43.996013  6355 net.cpp:156] Memory required for data: 1345864224
I0403 17:58:43.996027  6355 layer_factory.hpp:77] Creating layer pool5/7x7_s1
I0403 17:58:43.996047  6355 net.cpp:91] Creating Layer pool5/7x7_s1
I0403 17:58:43.996064  6355 net.cpp:425] pool5/7x7_s1 <- inception_5b/output
I0403 17:58:43.996083  6355 net.cpp:399] pool5/7x7_s1 -> pool5/7x7_s1
I0403 17:58:43.996318  6355 net.cpp:141] Setting up pool5/7x7_s1
I0403 17:58:43.996343  6355 net.cpp:148] Top shape: 24 1024 1 1 (24576)
I0403 17:58:43.996358  6355 net.cpp:156] Memory required for data: 1345962528
I0403 17:58:43.996373  6355 layer_factory.hpp:77] Creating layer pool5/drop_7x7_s1
I0403 17:58:43.996392  6355 net.cpp:91] Creating Layer pool5/drop_7x7_s1
I0403 17:58:43.996407  6355 net.cpp:425] pool5/drop_7x7_s1 <- pool5/7x7_s1
I0403 17:58:43.996426  6355 net.cpp:386] pool5/drop_7x7_s1 -> pool5/7x7_s1 (in-place)
I0403 17:58:43.996476  6355 net.cpp:141] Setting up pool5/drop_7x7_s1
I0403 17:58:43.996502  6355 net.cpp:148] Top shape: 24 1024 1 1 (24576)
I0403 17:58:43.996518  6355 net.cpp:156] Memory required for data: 1346060832
I0403 17:58:43.996533  6355 layer_factory.hpp:77] Creating layer loss3/classifier_plantvillage
I0403 17:58:43.996552  6355 net.cpp:91] Creating Layer loss3/classifier_plantvillage
I0403 17:58:43.996582  6355 net.cpp:425] loss3/classifier_plantvillage <- pool5/7x7_s1
I0403 17:58:43.996601  6355 net.cpp:399] loss3/classifier_plantvillage -> loss3/classifier_plantvillage
I0403 17:58:43.997017  6355 net.cpp:141] Setting up loss3/classifier_plantvillage
I0403 17:58:43.997041  6355 net.cpp:148] Top shape: 24 38 (912)
I0403 17:58:43.997056  6355 net.cpp:156] Memory required for data: 1346064480
I0403 17:58:43.997073  6355 layer_factory.hpp:77] Creating layer loss3/classifier_plantvillage_loss3/classifier_plantvillage_0_split
I0403 17:58:43.997094  6355 net.cpp:91] Creating Layer loss3/classifier_plantvillage_loss3/classifier_plantvillage_0_split
I0403 17:58:43.997112  6355 net.cpp:425] loss3/classifier_plantvillage_loss3/classifier_plantvillage_0_split <- loss3/classifier_plantvillage
I0403 17:58:43.997129  6355 net.cpp:399] loss3/classifier_plantvillage_loss3/classifier_plantvillage_0_split -> loss3/classifier_plantvillage_loss3/classifier_plantvillage_0_split_0
I0403 17:58:43.997148  6355 net.cpp:399] loss3/classifier_plantvillage_loss3/classifier_plantvillage_0_split -> loss3/classifier_plantvillage_loss3/classifier_plantvillage_0_split_1
I0403 17:58:43.997169  6355 net.cpp:399] loss3/classifier_plantvillage_loss3/classifier_plantvillage_0_split -> loss3/classifier_plantvillage_loss3/classifier_plantvillage_0_split_2
I0403 17:58:43.997200  6355 net.cpp:399] loss3/classifier_plantvillage_loss3/classifier_plantvillage_0_split -> loss3/classifier_plantvillage_loss3/classifier_plantvillage_0_split_3
I0403 17:58:43.997301  6355 net.cpp:141] Setting up loss3/classifier_plantvillage_loss3/classifier_plantvillage_0_split
I0403 17:58:43.997324  6355 net.cpp:148] Top shape: 24 38 (912)
I0403 17:58:43.997340  6355 net.cpp:148] Top shape: 24 38 (912)
I0403 17:58:43.997355  6355 net.cpp:148] Top shape: 24 38 (912)
I0403 17:58:43.997371  6355 net.cpp:148] Top shape: 24 38 (912)
I0403 17:58:43.997385  6355 net.cpp:156] Memory required for data: 1346079072
I0403 17:58:43.997400  6355 layer_factory.hpp:77] Creating layer loss1/loss
I0403 17:58:43.997421  6355 net.cpp:91] Creating Layer loss1/loss
I0403 17:58:43.997438  6355 net.cpp:425] loss1/loss <- loss1/classifier_plantvillage_loss1/classifier_plantvillage_0_split_0
I0403 17:58:43.997467  6355 net.cpp:425] loss1/loss <- label_data_1_split_0
…
