…
I0403 18:05:44.351303  6576 net.cpp:313] The NetState phase (1) differed from the phase (0) specified by a rule in layer data
I0403 18:05:44.352481  6576 net.cpp:49] Initializing net from parameters: 
state {
  phase: TEST
}
layer {
  name: "data"
  type: "Data"
  top: "data"
  top: "label"
  include {
    phase: TEST
  }
  transform_param {
    mirror: false
    crop_size: 224
    mean_file: "/home/mohanty/data/final_dataset/lmdb/segmented-50-50/mean.binaryproto"
  }
  data_param {
    source: "/home/mohanty/data/final_dataset/lmdb/segmented-50-50/test_db"
    batch_size: 24
    backend: LMDB
  }
}
layer {
  name: "conv1/7x7_s2"
  type: "Convolution"
  bottom: "data"
  top: "conv1/7x7_s2"
  param {
    lr_mult: 1
    decay_mult: 1
  }
  param {
    lr_mult: 2
    decay_mult: 0
  }
  convolution_param {
    num_output: 64
    pad: 3
    kernel_size: 7
    stride: 2
    weight_filler {
      type: "xavier"
      std: 0.1
    }
    bias_filler {
      type: "constant"
      value: 0.2
    }
  }
}
layer {
  name: "conv1/relu_7x7"
  type: "ReLU"
  bottom: "conv1/7x7_s2"
  top: "conv1/7x7_s2"
}
layer {
  name: "pool1/3x3_s2"
  type: "Pooling"
  bottom: "conv1/7x7_s2"
  top: "pool1/3x3_s2"
  pooling_param {
    pool: MAX
    kernel_size: 3
    stride: 2
  }
}
layer {
  name: "pool1/norm1"
  type: "LRN"
  bottom: "pool1/3x3_s2"
  top: "pool1/norm1"
  lrn_param {
    local_size: 5
    alpha: 0.0001
    beta: 0.75
  }
}
layer {
  name: "conv2/3x3_reduce"
  type: "Convolution"
  bottom: "pool1/norm1"
  top: "conv2/3x3_reduce"
  param {
    lr_mult: 1
    decay_mult: 1
  }
  param {
    lr_mult: 2
    decay_mult: 0
  }
  convolution_param {
    num_output: 64
    kernel_size: 1
    weight_filler {
      type: "xavier"
      std: 0.1
    }
    bias_filler {
      type: "constant"
      value: 0.2
    }
  }
}
layer {
  name: "conv2/relu_3x3_reduce"
  type: "ReLU"
  bottom: "conv2/3x3_reduce"
  top: "conv2/3x3_reduce"
}
layer {
  name: "conv2/3x3"
  type: "Convolution"
  bottom: "conv2/3x3_reduce"
  top: "conv2/3x3"
  param {
    lr_mult: 1
    decay_mult: 1
  }
  param {
    lr_mult: 2
    decay_mult: 0
  }
  convolution_param {
    num_output: 192
    pad: 1
    kernel_size: 3
    weight_filler {
      type: "xavier"
      std: 0.03
    }
    bias_filler {
      type: "constant"
      value: 0.2
    }
  }
}
layer {
  name: "conv2/relu_3x3"
  type: "ReLU"
  bottom: "conv2/3x3"
  top: "conv2/3x3"
}
layer {
  name: "conv2/norm2"
  type: "LRN"
  bottom: "conv2/3x3"
  top: "conv2/norm2"
  lrn_param {
    local_size: 5
    alpha: 0.0001
    beta: 0.75
  }
}
layer {
  name: "pool2/3x3_s2"
  type: "Pooling"
  bottom: "conv2/norm2"
  top: "pool2/3x3_s2"
  pooling_param {
    pool: MAX
    kernel_size: 3
    stride: 2
  }
}
layer {
  name: "inception_3a/1x1"
  type: "Convolution"
  bottom: "pool2/3x3_s2"
  top: "inception_3a/1x1"
  param {
    lr_mult: 1
    decay_mult: 1
  }
  param {
    lr_mult: 2
    decay_mult: 0
  }
  convolution_param {
    num_output: 64
    kernel_size: 1
    weight_filler {
      type: "xavier"
      std: 0.03
    }
    bias_filler {
      type: "constant"
      value: 0.2
    }
  }
}
layer {
  name: "inception_3a/relu_1x1"
  type: "ReLU"
  bottom: "inception_3a/1x1"
  top: "inception_3a/1x1"
}
layer {
  name: "inception_3a/3x3_reduce"
  type: "Convolution"
  bottom: "pool2/3x3_s2"
  top: "inception_3a/3x3_reduce"
  param {
    lr_mult: 1
    decay_mult: 1
  }
  param {
    lr_mult: 2
    decay_mult: 0
  }
  convolution_param {
    num_output: 96
    kernel_size: 1
    weight_filler {
      type: "xavier"
      std: 0.09
    }
    bias_filler {
      type: "constant"
      value: 0.2
    }
  }
}
layer {
  name: "inception_3a/relu_3x3_reduce"
  type: "ReLU"
  bottom: "inception_3a/3x3_reduce"
  top: "inception_3a/3x3_reduce"
}
layer {
  name: "inception_3a/3x3"
  type: "Convolution"
  bottom: "inception_3a/3x3_reduce"
  top: "inception_3a/3x3"
  param {
    lr_mult: 1
    decay_mult: 1
  }
  param {
    lr_mult: 2
    decay_mult: 0
  }
  convolution_param {
    num_output: 128
    pad: 1
    kernel_size: 3
    weight_filler {
      type: "xavier"
      std: 0.03
    }
    bias_filler {
      type: "constant"
      value: 0.2
    }
  }
}
layer {
  name: "inception_3a/relu_3x3"
  type: "ReLU"
  bottom: "inception_3a/3x3"
  top: "inception_3a/3x3"
}
layer {
  name: "inception_3a/5x5_reduce"
  type: "Convolution"
  bottom: "pool2/3x3_s2"
  top: "inception_3a/5x5_reduce"
  param {
    lr_mult: 1
    decay_mult: 1
  }
  param {
    lr_mult: 2
    decay_mult: 0
  }
  convolution_param {
    num_output: 16
    kernel_size: 1
    weight_filler {
      type: "xavier"
      std: 0.2
    }
    bias_filler {
      type: "constant"
      value: 0.2
    }
  }
}
layer {
  name: "inception_3a/relu_5x5_reduce"
  type: "ReLU"
  bottom: "inception_3a/5x5_reduce"
  top: "inception_3a/5x5_reduce"
}
layer {
  name: "inception_3a/5x5"
  type: "Convolution"
  bottom: "inception_3a/5x5_reduce"
  top: "inception_3a/5x5"
  param {
    lr_mult: 1
    decay_mult: 1
  }
  param {
    lr_mult: 2
    decay_mult: 0
  }
  convolution_param {
    num_output: 32
    pad: 2
    kernel_size: 5
    weight_filler {
      type: "xavier"
      std: 0.03
    }
    bias_filler {
      type: "constant"
      value: 0.2
    }
  }
}
layer {
  name: "inception_3a/relu_5x5"
  type: "ReLU"
  bottom: "inception_3a/5x5"
  top: "inception_3a/5x5"
}
layer {
  name: "inception_3a/pool"
  type: "Pooling"
  bottom: "pool2/3x3_s2"
  top: "inception_3a/pool"
  pooling_param {
    pool: MAX
    kernel_size: 3
    stride: 1
    pad: 1
  }
}
layer {
  name: "inception_3a/pool_proj"
  type: "Convolution"
  bottom: "inception_3a/pool"
  top: "inception_3a/pool_proj"
  param {
    lr_mult: 1
    decay_mult: 1
  }
  param {
    lr_mult: 2
    decay_mult: 0
  }
  convolution_param {
    num_output: 32
    kernel_size: 1
    weight_filler {
      type: "xavier"
      std: 0.1
    }
    bias_filler {
      type: "constant"
      value: 0.2
    }
  }
}
layer {
  name: "inception_3a/relu_pool_proj"
  type: "ReLU"
  bottom: "inception_3a/pool_proj"
  top: "inception_3a/pool_proj"
}
layer {
  name: "inception_3a/output"
  type: "Concat"
  bottom: "inception_3a/1x1"
  bottom: "inception_3a/3x3"
  bottom: "inception_3a/5x5"
  bottom: "inception_3a/pool_proj"
  top: "inception_3a/output"
}
layer {
  name: "inception_3b/1x1"
  type: "Convolution"
  bottom: "inception_3a/output"
  top: "inception_3b/1x1"
  param {
    lr_mult: 1
    decay_mult: 1
  }
  param {
    lr_mult: 2
    decay_mult: 0
  }
  convolution_param {
    num_output: 128
    kernel_size: 1
    weight_filler {
      type: "xavier"
      std: 0.03
    }
    bias_filler {
      type: "constant"
      value: 0.2
    }
  }
}
layer {
  name: "inception_3b/relu_1x1"
  type: "ReLU"
  bottom: "inception_3b/1x1"
  top: "inception_3b/1x1"
}
layer {
  name: "inception_3b/3x3_reduce"
  type: "Convolution"
  bottom: "inception_3a/output"
  top: "inception_3b/3x3_reduce"
  param {
    lr_mult: 1
    decay_mult: 1
  }
  param {
    lr_mult: 2
    decay_mult: 0
  }
  convolution_param {
    num_output: 128
    kernel_size: 1
    weight_filler {
      type: "xavier"
      std: 0.09
    }
    bias_filler {
      type: "constant"
      value: 0.2
    }
  }
}
layer {
  name: "inception_3b/relu_3x3_reduce"
  type: "ReLU"
  bottom: "inception_3b/3x3_reduce"
  top: "inception_3b/3x3_reduce"
}
layer {
  name: "inception_3b/3x3"
  type: "Convolution"
  bottom: "inception_3b/3x3_reduce"
  top: "inception_3b/3x3"
  param {
    lr_mult: 1
    decay_mult: 1
  }
  param {
    lr_mult: 2
    decay_mult: 0
  }
  convolution_param {
    num_output: 192
    pad: 1
    kernel_size: 3
    weight_filler {
      type: "xavier"
      std: 0.03
    }
    bias_filler {
      type: "constant"
      value: 0.2
    }
  }
}
layer {
  name: "inception_3b/relu_3x3"
  type: "ReLU"
  bottom: "inception_3b/3x3"
  top: "inception_3b/3x3"
}
layer {
  name: "inception_3b/5x5_reduce"
  type: "Convolution"
  bottom: "inception_3a/output"
  top: "inception_3b/5x5_reduce"
  param {
    lr_mult: 1
    decay_mult: 1
  }
  param {
    lr_mult: 2
    decay_mult: 0
  }
  convolution_param {
    num_output: 32
    kernel_size: 1
    weight_filler {
      type: "xavier"
      std: 0.2
    }
    bias_filler {
      type: "constant"
      value: 0.2
    }
  }
}
layer {
  name: "inception_3b/relu_5x5_reduce"
  type: "ReLU"
  bottom: "inception_3b/5x5_reduce"
  top: "inception_3b/5x5_reduce"
}
layer {
  name: "inception_3b/5x5"
  type: "Convolution"
  bottom: "inception_3b/5x5_reduce"
  top: "inception_3b/5x5"
  param {
    lr_mult: 1
    decay_mult: 1
  }
  param {
    lr_mult: 2
    decay_mult: 0
  }
  convolution_param {
    num_output: 96
    pad: 2
    kernel_size: 5
    weight_filler {
      type: "xavier"
      std: 0.03
    }
    bias_filler {
      type: "constant"
      value: 0.2
    }
  }
}
layer {
  name: "inception_3b/relu_5x5"
  type: "ReLU"
  bottom: "inception_3b/5x5"
  top: "inception_3b/5x5"
}
layer {
  name: "inception_3b/pool"
  type: "Pooling"
  bottom: "inception_3a/output"
  top: "inception_3b/pool"
  pooling_param {
    pool: MAX
    kernel_size: 3
    stride: 1
    pad: 1
  }
}
layer {
  name: "inception_3b/pool_proj"
  type: "Convolution"
  bottom: "inception_3b/pool"
  top: "inception_3b/pool_proj"
  param {
    lr_mult: 1
    decay_mult: 1
  }
  param {
    lr_mult: 2
    decay_mult: 0
  }
  convolution_param {
    num_output: 64
    kernel_size: 1
    weight_filler {
      type: "xavier"
      std: 0.1
    }
    bias_filler {
      type: "constant"
      value: 0.2
    }
  }
}
layer {
  name: "inception_3b/relu_pool_proj"
  type: "ReLU"
  bottom: "inception_3b/pool_proj"
  top: "inception_3b/pool_proj"
}
layer {
  name: "inception_3b/output"
  type: "Concat"
  bottom: "inception_3b/1x1"
  bottom: "inception_3b/3x3"
  bottom: "inception_3b/5x5"
  bottom: "inception_3b/pool_proj"
  top: "inception_3b/output"
}
layer {
  name: "pool3/3x3_s2"
  type: "Pooling"
  bottom: "inception_3b/output"
  top: "pool3/3x3_s2"
  pooling_param {
    pool: MAX
    kernel_size: 3
    stride: 2
  }
}
layer {
  name: "inception_4a/1x1"
  type: "Convolution"
  bottom: "pool3/3x3_s2"
  top: "inception_4a/1x1"
  param {
    lr_mult: 1
    decay_mult: 1
  }
  param {
    lr_mult: 2
    decay_mult: 0
  }
  convolution_param {
    num_output: 192
    kernel_size: 1
    weight_filler {
      type: "xavier"
      std: 0.03
    }
    bias_filler {
      type: "constant"
      value: 0.2
    }
  }
}
layer {
  name: "inception_4a/relu_1x1"
  type: "ReLU"
  bottom: "inception_4a/1x1"
  top: "inception_4a/1x1"
}
layer {
  name: "inception_4a/3x3_reduce"
  type: "Convolution"
  bottom: "pool3/3x3_s2"
  top: "inception_4a/3x3_reduce"
  param {
    lr_mult: 1
    decay_mult: 1
  }
  param {
    lr_mult: 2
    decay_mult: 0
  }
  convolution_param {
    num_output: 96
    kernel_size: 1
    weight_filler {
      type: "xavier"
      std: 0.09
    }
    bias_filler {
      type: "constant"
      value: 0.2
    }
  }
}
layer {
  name: "inception_4a/relu_3x3_reduce"
  type: "ReLU"
  bottom: "inception_4a/3x3_reduce"
  top: "inception_4a/3x3_reduce"
}
layer {
  name: "inception_4a/3x3"
  type: "Convolution"
  bottom: "inception_4a/3x3_reduce"
  top: "inception_4a/3x3"
  param {
    lr_mult: 1
    decay_mult: 1
  }
  param {
    lr_mult: 2
    decay_mult: 0
  }
  convolution_param {
    num_output: 208
    pad: 1
    kernel_size: 3
    weight_filler {
      type: "xavier"
      std: 0.03
    }
    bias_filler {
      type: "constant"
      value: 0.2
    }
  }
}
layer {
  name: "inception_4a/relu_3x3"
  type: "ReLU"
  bottom: "inception_4a/3x3"
  top: "inception_4a/3x3"
}
layer {
  name: "inception_4a/5x5_reduce"
  type: "Convolution"
  bottom: "pool3/3x3_s2"
  top: "inception_4a/5x5_reduce"
  param {
    lr_mult: 1
    decay_mult: 1
  }
  param {
    lr_mult: 2
    decay_mult: 0
  }
  convolution_param {
    num_output: 16
    kernel_size: 1
    weight_filler {
      type: "xavier"
      std: 0.2
    }
    bias_filler {
      type: "constant"
      value: 0.2
    }
  }
}
layer {
  name: "inception_4a/relu_5x5_reduce"
  type: "ReLU"
  bottom: "inception_4a/5x5_reduce"
  top: "inception_4a/5x5_reduce"
}
layer {
  name: "inception_4a/5x5"
  type: "Convolution"
  bottom: "inception_4a/5x5_reduce"
  top: "inception_4a/5x5"
  param {
    lr_mult: 1
    decay_mult: 1
  }
  param {
    lr_mult: 2
    decay_mult: 0
  }
  convolution_param {
    num_output: 48
    pad: 2
    kernel_size: 5
    weight_filler {
      type: "xavier"
      std: 0.03
    }
    bias_filler {
      type: "constant"
      value: 0.2
    }
  }
}
layer {
  name: "inception_4a/relu_5x5"
  type: "ReLU"
  bottom: "inception_4a/5x5"
  top: "inception_4a/5x5"
}
layer {
  name: "inception_4a/pool"
  type: "Pooling"
  bottom: "pool3/3x3_s2"
  top: "inception_4a/pool"
  pooling_param {
    pool: MAX
    kernel_size: 3
    stride: 1
    pad: 1
  }
}
layer {
  name: "inception_4a/pool_proj"
  type: "Convolution"
  bottom: "inception_4a/pool"
  top: "inception_4a/pool_proj"
  param {
    lr_mult: 1
    decay_mult: 1
  }
  param {
    lr_mult: 2
    decay_mult: 0
  }
  convolution_param {
    num_output: 64
    kernel_size: 1
    weight_filler {
      type: "xavier"
      std: 0.1
    }
    bias_filler {
      type: "constant"
      value: 0.2
    }
  }
}
layer {
  name: "inception_4a/relu_pool_proj"
  type: "ReLU"
  bottom: "inception_4a/pool_proj"
  top: "inception_4a/pool_proj"
}
layer {
  name: "inception_4a/output"
  type: "Concat"
  bottom: "inception_4a/1x1"
  bottom: "inception_4a/3x3"
  bottom: "inception_4a/5x5"
  bottom: "inception_4a/pool_proj"
  top: "inception_4a/output"
}
layer {
  name: "loss1/ave_pool"
  type: "Pooling"
  bottom: "inception_4a/output"
  top: "loss1/ave_pool"
  pooling_param {
    pool: AVE
    kernel_size: 5
    stride: 3
  }
}
layer {
  name: "loss1/conv"
  type: "Convolution"
  bottom: "loss1/ave_pool"
  top: "loss1/conv"
  param {
    lr_mult: 1
    decay_mult: 1
  }
  param {
    lr_mult: 2
    decay_mult: 0
  }
  convolution_param {
    num_output: 128
    kernel_size: 1
    weight_filler {
      type: "xavier"
      std: 0.08
    }
    bias_filler {
      type: "constant"
      value: 0.2
    }
  }
}
layer {
  name: "loss1/relu_conv"
  type: "ReLU"
  bottom: "loss1/conv"
  top: "loss1/conv"
}
layer {
  name: "loss1/fc"
  type: "InnerProduct"
  bottom: "loss1/conv"
  top: "loss1/fc"
  param {
    lr_mult: 1
    decay_mult: 1
  }
  param {
    lr_mult: 2
    decay_mult: 0
  }
  inner_product_param {
    num_output: 1024
    weight_filler {
      type: "xavier"
      std: 0.02
    }
    bias_filler {
      type: "constant"
      value: 0.2
    }
  }
}
layer {
  name: "loss1/relu_fc"
  type: "ReLU"
  bottom: "loss1/fc"
  top: "loss1/fc"
}
layer {
  name: "loss1/drop_fc"
  type: "Dropout"
  bottom: "loss1/fc"
  top: "loss1/fc"
  dropout_param {
    dropout_ratio: 0.7
  }
}
layer {
  name: "loss1/classifier_plantvillage"
  type: "InnerProduct"
  bottom: "loss1/fc"
  top: "loss1/classifier_plantvillage"
  param {
    lr_mult: 1
    decay_mult: 1
  }
  param {
    lr_mult: 2
    decay_mult: 0
  }
  inner_product_param {
    num_output: 38
    weight_filler {
      type: "xavier"
      std: 0.0009765625
    }
    bias_filler {
      type: "constant"
      value: 0
    }
  }
}
layer {
  name: "inception_4b/1x1"
  type: "Convolution"
  bottom: "inception_4a/output"
  top: "inception_4b/1x1"
  param {
    lr_mult: 1
    decay_mult: 1
  }
  param {
    lr_mult: 2
    decay_mult: 0
  }
  convolution_param {
    num_output: 160
    kernel_size: 1
    weight_filler {
      type: "xavier"
      std: 0.03
    }
    bias_filler {
      type: "constant"
      value: 0.2
    }
  }
}
layer {
  name: "inception_4b/relu_1x1"
  type: "ReLU"
  bottom: "inception_4b/1x1"
  top: "inception_4b/1x1"
}
layer {
  name: "inception_4b/3x3_reduce"
  type: "Convolution"
  bottom: "inception_4a/output"
  top: "inception_4b/3x3_reduce"
  param {
    lr_mult: 1
    decay_mult: 1
  }
  param {
    lr_mult: 2
    decay_mult: 0
  }
  convolution_param {
    num_output: 112
    kernel_size: 1
    weight_filler {
      type: "xavier"
      std: 0.09
    }
    bias_filler {
      type: "constant"
      value: 0.2
    }
  }
}
layer {
  name: "inception_4b/relu_3x3_reduce"
  type: "ReLU"
  bottom: "inception_4b/3x3_reduce"
  top: "inception_4b/3x3_reduce"
}
layer {
  name: "inception_4b/3x3"
  type: "Convolution"
  bottom: "inception_4b/3x3_reduce"
  top: "inception_4b/3x3"
  param {
    lr_mult: 1
    decay_mult: 1
  }
  param {
    lr_mult: 2
    decay_mult: 0
  }
  convolution_param {
    num_output: 224
    pad: 1
    kernel_size: 3
    weight_filler {
      type: "xavier"
      std: 0.03
    }
    bias_filler {
      type: "constant"
      value: 0.2
    }
  }
}
layer {
  name: "inception_4b/relu_3x3"
  type: "ReLU"
  bottom: "inception_4b/3x3"
  top: "inception_4b/3x3"
}
layer {
  name: "inception_4b/5x5_reduce"
  type: "Convolution"
  bottom: "inception_4a/output"
  top: "inception_4b/5x5_reduce"
  param {
    lr_mult: 1
    decay_mult: 1
  }
  param {
    lr_mult: 2
    decay_mult: 0
  }
  convolution_param {
    num_output: 24
    kernel_size: 1
    weight_filler {
      type: "xavier"
      std: 0.2
    }
    bias_filler {
      type: "constant"
      value: 0.2
    }
  }
}
layer {
  name: "inception_4b/relu_5x5_reduce"
  type: "ReLU"
  bottom: "inception_4b/5x5_reduce"
  top: "inception_4b/5x5_reduce"
}
layer {
  name: "inception_4b/5x5"
  type: "Convolution"
  bottom: "inception_4b/5x5_reduce"
  top: "inception_4b/5x5"
  param {
    lr_mult: 1
    decay_mult: 1
  }
  param {
    lr_mult: 2
    decay_mult: 0
  }
  convolution_param {
    num_output: 64
    pad: 2
    kernel_size: 5
    weight_filler {
      type: "xavier"
      std: 0.03
    }
    bias_filler {
      type: "constant"
      value: 0.2
    }
  }
}
layer {
  name: "inception_4b/relu_5x5"
  type: "ReLU"
  bottom: "inception_4b/5x5"
  top: "inception_4b/5x5"
}
layer {
  name: "inception_4b/pool"
  type: "Pooling"
  bottom: "inception_4a/output"
  top: "inception_4b/pool"
  pooling_param {
    pool: MAX
    kernel_size: 3
    stride: 1
    pad: 1
  }
}
layer {
  name: "inception_4b/pool_proj"
  type: "Convolution"
  bottom: "inception_4b/pool"
  top: "inception_4b/pool_proj"
  param {
    lr_mult: 1
    decay_mult: 1
  }
  param {
    lr_mult: 2
    decay_mult: 0
  }
  convolution_param {
    num_output: 64
    kernel_size: 1
    weight_filler {
      type: "xavier"
      std: 0.1
    }
    bias_filler {
      type: "constant"
      value: 0.2
    }
  }
}
layer {
  name: "inception_4b/relu_pool_proj"
  type: "ReLU"
  bottom: "inception_4b/pool_proj"
  top: "inception_4b/pool_proj"
}
layer {
  name: "inception_4b/output"
  type: "Concat"
  bottom: "inception_4b/1x1"
  bottom: "inception_4b/3x3"
  bottom: "inception_4b/5x5"
  bottom: "inception_4b/pool_proj"
  top: "inception_4b/output"
}
layer {
  name: "inception_4c/1x1"
  type: "Convolution"
  bottom: "inception_4b/output"
  top: "inception_4c/1x1"
  param {
    lr_mult: 1
    decay_mult: 1
  }
  param {
    lr_mult: 2
    decay_mult: 0
  }
  convolution_param {
    num_output: 128
    kernel_size: 1
    weight_filler {
      type: "xavier"
      std: 0.03
    }
    bias_filler {
      type: "constant"
      value: 0.2
    }
  }
}
layer {
  name: "inception_4c/relu_1x1"
  type: "ReLU"
  bottom: "inception_4c/1x1"
  top: "inception_4c/1x1"
}
layer {
  name: "inception_4c/3x3_reduce"
  type: "Convolution"
  bottom: "inception_4b/output"
  top: "inception_4c/3x3_reduce"
  param {
    lr_mult: 1
    decay_mult: 1
  }
  param {
    lr_mult: 2
    decay_mult: 0
  }
  convolution_param {
    num_output: 128
    kernel_size: 1
    weight_filler {
      type: "xavier"
      std: 0.09
    }
    bias_filler {
      type: "constant"
      value: 0.2
    }
  }
}
layer {
  name: "inception_4c/relu_3x3_reduce"
  type: "ReLU"
  bottom: "inception_4c/3x3_reduce"
  top: "inception_4c/3x3_reduce"
}
layer {
  name: "inception_4c/3x3"
  type: "Convolution"
  bottom: "inception_4c/3x3_reduce"
  top: "inception_4c/3x3"
  param {
    lr_mult: 1
    decay_mult: 1
  }
  param {
    lr_mult: 2
    decay_mult: 0
  }
  convolution_param {
    num_output: 256
    pad: 1
    kernel_size: 3
    weight_filler {
      type: "xavier"
      std: 0.03
    }
    bias_filler {
      type: "constant"
      value: 0.2
    }
  }
}
layer {
  name: "inception_4c/relu_3x3"
  type: "ReLU"
  bottom: "inception_4c/3x3"
  top: "inception_4c/3x3"
}
layer {
  name: "inception_4c/5x5_reduce"
  type: "Convolution"
  bottom: "inception_4b/output"
  top: "inception_4c/5x5_reduce"
  param {
    lr_mult: 1
    decay_mult: 1
  }
  param {
    lr_mult: 2
    decay_mult: 0
  }
  convolution_param {
    num_output: 24
    kernel_size: 1
    weight_filler {
      type: "xavier"
      std: 0.2
    }
    bias_filler {
      type: "constant"
      value: 0.2
    }
  }
}
layer {
  name: "inception_4c/relu_5x5_reduce"
  type: "ReLU"
  bottom: "inception_4c/5x5_reduce"
  top: "inception_4c/5x5_reduce"
}
layer {
  name: "inception_4c/5x5"
  type: "Convolution"
  bottom: "inception_4c/5x5_reduce"
  top: "inception_4c/5x5"
  param {
    lr_mult: 1
    decay_mult: 1
  }
  param {
    lr_mult: 2
    decay_mult: 0
  }
  convolution_param {
    num_output: 64
    pad: 2
    kernel_size: 5
    weight_filler {
      type: "xavier"
      std: 0.03
    }
    bias_filler {
      type: "constant"
      value: 0.2
    }
  }
}
layer {
  name: "inception_4c/relu_5x5"
  type: "ReLU"
  bottom: "inception_4c/5x5"
  top: "inception_4c/5x5"
}
layer {
  name: "inception_4c/pool"
  type: "Pooling"
  bottom: "inception_4b/output"
  top: "inception_4c/pool"
  pooling_param {
    pool: MAX
    kernel_size: 3
    stride: 1
    pad: 1
  }
}
layer {
  name: "inception_4c/pool_proj"
  type: "Convolution"
  bottom: "inception_4c/pool"
  top: "inception_4c/pool_proj"
  param {
    lr_mult: 1
    decay_mult: 1
  }
  param {
    lr_mult: 2
    decay_mult: 0
  }
  convolution_param {
    num_output: 64
    kernel_size: 1
    weight_filler {
      type: "xavier"
      std: 0.1
    }
    bias_filler {
      type: "constant"
      value: 0.2
    }
  }
}
layer {
  name: "inception_4c/relu_pool_proj"
  type: "ReLU"
  bottom: "inception_4c/pool_proj"
  top: "inception_4c/pool_proj"
}
layer {
  name: "inception_4c/output"
  type: "Concat"
  bottom: "inception_4c/1x1"
  bottom: "inception_4c/3x3"
  bottom: "inception_4c/5x5"
  bottom: "inception_4c/pool_proj"
  top: "inception_4c/output"
}
layer {
  name: "inception_4d/1x1"
  type: "Convolution"
  bottom: "inception_4c/output"
  top: "inception_4d/1x1"
  param {
    lr_mult: 1
    decay_mult: 1
  }
  param {
    lr_mult: 2
    decay_mult: 0
  }
  convolution_param {
    num_output: 112
    kernel_size: 1
    weight_filler {
      type: "xavier"
      std: 0.03
    }
    bias_filler {
      type: "constant"
      value: 0.2
    }
  }
}
layer {
  name: "inception_4d/relu_1x1"
  type: "ReLU"
  bottom: "inception_4d/1x1"
  top: "inception_4d/1x1"
}
layer {
  name: "inception_4d/3x3_reduce"
  type: "Convolution"
  bottom: "inception_4c/output"
  top: "inception_4d/3x3_reduce"
  param {
    lr_mult: 1
    decay_mult: 1
  }
  param {
    lr_mult: 2
    decay_mult: 0
  }
  convolution_param {
    num_output: 144
    kernel_size: 1
    weight_filler {
      type: "xavier"
      std: 0.09
    }
    bias_filler {
      type: "constant"
      value: 0.2
    }
  }
}
layer {
  name: "inception_4d/relu_3x3_reduce"
  type: "ReLU"
  bottom: "inception_4d/3x3_reduce"
  top: "inception_4d/3x3_reduce"
}
layer {
  name: "inception_4d/3x3"
  type: "Convolution"
  bottom: "inception_4d/3x3_reduce"
  top: "inception_4d/3x3"
  param {
    lr_mult: 1
    decay_mult: 1
  }
  param {
    lr_mult: 2
    decay_mult: 0
  }
  convolution_param {
    num_output: 288
    pad: 1
    kernel_size: 3
    weight_filler {
      type: "xavier"
      std: 0.03
    }
    bias_filler {
      type: "constant"
      value: 0.2
    }
  }
}
layer {
  name: "inception_4d/relu_3x3"
  type: "ReLU"
  bottom: "inception_4d/3x3"
  top: "inception_4d/3x3"
}
layer {
  name: "inception_4d/5x5_reduce"
  type: "Convolution"
  bottom: "inception_4c/output"
  top: "inception_4d/5x5_reduce"
  param {
    lr_mult: 1
    decay_mult: 1
  }
  param {
    lr_mult: 2
    decay_mult: 0
  }
  convolution_param {
    num_output: 32
    kernel_size: 1
    weight_filler {
      type: "xavier"
      std: 0.2
    }
    bias_filler {
      type: "constant"
      value: 0.2
    }
  }
}
layer {
  name: "inception_4d/relu_5x5_reduce"
  type: "ReLU"
  bottom: "inception_4d/5x5_reduce"
  top: "inception_4d/5x5_reduce"
}
layer {
  name: "inception_4d/5x5"
  type: "Convolution"
  bottom: "inception_4d/5x5_reduce"
  top: "inception_4d/5x5"
  param {
    lr_mult: 1
    decay_mult: 1
  }
  param {
    lr_mult: 2
    decay_mult: 0
  }
  convolution_param {
    num_output: 64
    pad: 2
    kernel_size: 5
    weight_filler {
      type: "xavier"
      std: 0.03
    }
    bias_filler {
      type: "constant"
      value: 0.2
    }
  }
}
layer {
  name: "inception_4d/relu_5x5"
  type: "ReLU"
  bottom: "inception_4d/5x5"
  top: "inception_4d/5x5"
}
layer {
  name: "inception_4d/pool"
  type: "Pooling"
  bottom: "inception_4c/output"
  top: "inception_4d/pool"
  pooling_param {
    pool: MAX
    kernel_size: 3
    stride: 1
    pad: 1
  }
}
layer {
  name: "inception_4d/pool_proj"
  type: "Convolution"
  bottom: "inception_4d/pool"
  top: "inception_4d/pool_proj"
  param {
    lr_mult: 1
    decay_mult: 1
  }
  param {
    lr_mult: 2
    decay_mult: 0
  }
  convolution_param {
    num_output: 64
    kernel_size: 1
    weight_filler {
      type: "xavier"
      std: 0.1
    }
    bias_filler {
      type: "constant"
      value: 0.2
    }
  }
}
layer {
  name: "inception_4d/relu_pool_proj"
  type: "ReLU"
  bottom: "inception_4d/pool_proj"
  top: "inception_4d/pool_proj"
}
layer {
  name: "inception_4d/output"
  type: "Concat"
  bottom: "inception_4d/1x1"
  bottom: "inception_4d/3x3"
  bottom: "inception_4d/5x5"
  bottom: "inception_4d/pool_proj"
  top: "inception_4d/output"
}
layer {
  name: "loss2/ave_pool"
  type: "Pooling"
  bottom: "inception_4d/output"
  top: "loss2/ave_pool"
  pooling_param {
    pool: AVE
    kernel_size: 5
    stride: 3
  }
}
layer {
  name: "loss2/conv"
  type: "Convolution"
  bottom: "loss2/ave_pool"
  top: "loss2/conv"
  param {
    lr_mult: 1
    decay_mult: 1
  }
  param {
    lr_mult: 2
    decay_mult: 0
  }
  convolution_param {
    num_output: 128
    kernel_size: 1
    weight_filler {
      type: "xavier"
      std: 0.08
    }
    bias_filler {
      type: "constant"
      value: 0.2
    }
  }
}
layer {
  name: "loss2/relu_conv"
  type: "ReLU"
  bottom: "loss2/conv"
  top: "loss2/conv"
}
layer {
  name: "loss2/fc"
  type: "InnerProduct"
  bottom: "loss2/conv"
  top: "loss2/fc"
  param {
    lr_mult: 1
    decay_mult: 1
  }
  param {
    lr_mult: 2
    decay_mult: 0
  }
  inner_product_param {
    num_output: 1024
    weight_filler {
      type: "xavier"
      std: 0.02
    }
    bias_filler {
      type: "constant"
      value: 0.2
    }
  }
}
layer {
  name: "loss2/relu_fc"
  type: "ReLU"
  bottom: "loss2/fc"
  top: "loss2/fc"
}
layer {
  name: "loss2/drop_fc"
  type: "Dropout"
  bottom: "loss2/fc"
  top: "loss2/fc"
  dropout_param {
    dropout_ratio: 0.7
  }
}
layer {
  name: "loss2/classifier_plantvillage"
  type: "InnerProduct"
  bottom: "loss2/fc"
  top: "loss2/classifier_plantvillage"
  param {
    lr_mult: 1
    decay_mult: 1
  }
  param {
    lr_mult: 2
    decay_mult: 0
  }
  inner_product_param {
    num_output: 38
    weight_filler {
      type: "xavier"
      std: 0.0009765625
    }
    bias_filler {
      type: "constant"
      value: 0
    }
  }
}
layer {
  name: "inception_4e/1x1"
  type: "Convolution"
  bottom: "inception_4d/output"
  top: "inception_4e/1x1"
  param {
    lr_mult: 1
    decay_mult: 1
  }
  param {
    lr_mult: 2
    decay_mult: 0
  }
  convolution_param {
    num_output: 256
    kernel_size: 1
    weight_filler {
      type: "xavier"
      std: 0.03
    }
    bias_filler {
      type: "constant"
      value: 0.2
    }
  }
}
layer {
  name: "inception_4e/relu_1x1"
  type: "ReLU"
  bottom: "inception_4e/1x1"
  top: "inception_4e/1x1"
}
layer {
  name: "inception_4e/3x3_reduce"
  type: "Convolution"
  bottom: "inception_4d/output"
  top: "inception_4e/3x3_reduce"
  param {
    lr_mult: 1
    decay_mult: 1
  }
  param {
    lr_mult: 2
    decay_mult: 0
  }
  convolution_param {
    num_output: 160
    kernel_size: 1
    weight_filler {
      type: "xavier"
      std: 0.09
    }
    bias_filler {
      type: "constant"
      value: 0.2
    }
  }
}
layer {
  name: "inception_4e/relu_3x3_reduce"
  type: "ReLU"
  bottom: "inception_4e/3x3_reduce"
  top: "inception_4e/3x3_reduce"
}
layer {
  name: "inception_4e/3x3"
  type: "Convolution"
  bottom: "inception_4e/3x3_reduce"
  top: "inception_4e/3x3"
  param {
    lr_mult: 1
    decay_mult: 1
  }
  param {
    lr_mult: 2
    decay_mult: 0
  }
  convolution_param {
    num_output: 320
    pad: 1
    kernel_size: 3
    weight_filler {
      type: "xavier"
      std: 0.03
    }
    bias_filler {
      type: "constant"
      value: 0.2
    }
  }
}
layer {
  name: "inception_4e/relu_3x3"
  type: "ReLU"
  bottom: "inception_4e/3x3"
  top: "inception_4e/3x3"
}
layer {
  name: "inception_4e/5x5_reduce"
  type: "Convolution"
  bottom: "inception_4d/output"
  top: "inception_4e/5x5_reduce"
  param {
    lr_mult: 1
    decay_mult: 1
  }
  param {
    lr_mult: 2
    decay_mult: 0
  }
  convolution_param {
    num_output: 32
    kernel_size: 1
    weight_filler {
      type: "xavier"
      std: 0.2
    }
    bias_filler {
      type: "constant"
      value: 0.2
    }
  }
}
layer {
  name: "inception_4e/relu_5x5_reduce"
  type: "ReLU"
  bottom: "inception_4e/5x5_reduce"
  top: "inception_4e/5x5_reduce"
}
layer {
  name: "inception_4e/5x5"
  type: "Convolution"
  bottom: "inception_4e/5x5_reduce"
  top: "inception_4e/
I0403 18:05:44.354172  6576 layer_factory.hpp:77] Creating layer data
I0403 18:05:44.354794  6576 net.cpp:91] Creating Layer data
I0403 18:05:44.354828  6576 net.cpp:399] data -> data
I0403 18:05:44.354879  6576 net.cpp:399] data -> label
I0403 18:05:44.354919  6576 data_transformer.cpp:25] Loading mean file from: /home/mohanty/data/final_dataset/lmdb/segmented-50-50/mean.binaryproto
I0403 18:05:44.356034  6579 db_lmdb.cpp:38] Opened lmdb /home/mohanty/data/final_dataset/lmdb/segmented-50-50/test_db
I0403 18:05:44.367991  6576 data_layer.cpp:41] output data size: 24,3,224,224
I0403 18:05:44.396672  6576 net.cpp:141] Setting up data
I0403 18:05:44.396788  6576 net.cpp:148] Top shape: 24 3 224 224 (3612672)
I0403 18:05:44.396809  6576 net.cpp:148] Top shape: 24 (24)
I0403 18:05:44.396824  6576 net.cpp:156] Memory required for data: 14450784
I0403 18:05:44.396850  6576 layer_factory.hpp:77] Creating layer label_data_1_split
I0403 18:05:44.396878  6576 net.cpp:91] Creating Layer label_data_1_split
I0403 18:05:44.396896  6576 net.cpp:425] label_data_1_split <- label
I0403 18:05:44.396929  6576 net.cpp:399] label_data_1_split -> label_data_1_split_0
I0403 18:05:44.396957  6576 net.cpp:399] label_data_1_split -> label_data_1_split_1
I0403 18:05:44.396978  6576 net.cpp:399] label_data_1_split -> label_data_1_split_2
I0403 18:05:44.396998  6576 net.cpp:399] label_data_1_split -> label_data_1_split_3
I0403 18:05:44.397019  6576 net.cpp:399] label_data_1_split -> label_data_1_split_4
I0403 18:05:44.397038  6576 net.cpp:399] label_data_1_split -> label_data_1_split_5
I0403 18:05:44.397058  6576 net.cpp:399] label_data_1_split -> label_data_1_split_6
I0403 18:05:44.397078  6576 net.cpp:399] label_data_1_split -> label_data_1_split_7
I0403 18:05:44.397097  6576 net.cpp:399] label_data_1_split -> label_data_1_split_8
I0403 18:05:44.397117  6576 net.cpp:399] label_data_1_split -> label_data_1_split_9
I0403 18:05:44.397236  6576 net.cpp:141] Setting up label_data_1_split
I0403 18:05:44.397260  6576 net.cpp:148] Top shape: 24 (24)
I0403 18:05:44.397277  6576 net.cpp:148] Top shape: 24 (24)
I0403 18:05:44.397294  6576 net.cpp:148] Top shape: 24 (24)
I0403 18:05:44.397311  6576 net.cpp:148] Top shape: 24 (24)
I0403 18:05:44.397326  6576 net.cpp:148] Top shape: 24 (24)
I0403 18:05:44.397342  6576 net.cpp:148] Top shape: 24 (24)
I0403 18:05:44.397358  6576 net.cpp:148] Top shape: 24 (24)
I0403 18:05:44.397374  6576 net.cpp:148] Top shape: 24 (24)
I0403 18:05:44.397390  6576 net.cpp:148] Top shape: 24 (24)
I0403 18:05:44.397409  6576 net.cpp:148] Top shape: 24 (24)
I0403 18:05:44.397456  6576 net.cpp:156] Memory required for data: 14451744
I0403 18:05:44.397472  6576 layer_factory.hpp:77] Creating layer conv1/7x7_s2
I0403 18:05:44.397505  6576 net.cpp:91] Creating Layer conv1/7x7_s2
I0403 18:05:44.397524  6576 net.cpp:425] conv1/7x7_s2 <- data
I0403 18:05:44.397544  6576 net.cpp:399] conv1/7x7_s2 -> conv1/7x7_s2
I0403 18:05:44.541918  6576 net.cpp:141] Setting up conv1/7x7_s2
I0403 18:05:44.541997  6576 net.cpp:148] Top shape: 24 64 112 112 (19267584)
I0403 18:05:44.542014  6576 net.cpp:156] Memory required for data: 91522080
I0403 18:05:44.542045  6576 layer_factory.hpp:77] Creating layer conv1/relu_7x7
I0403 18:05:44.542071  6576 net.cpp:91] Creating Layer conv1/relu_7x7
I0403 18:05:44.542089  6576 net.cpp:425] conv1/relu_7x7 <- conv1/7x7_s2
I0403 18:05:44.542109  6576 net.cpp:386] conv1/relu_7x7 -> conv1/7x7_s2 (in-place)
I0403 18:05:44.542373  6576 net.cpp:141] Setting up conv1/relu_7x7
I0403 18:05:44.542400  6576 net.cpp:148] Top shape: 24 64 112 112 (19267584)
I0403 18:05:44.542417  6576 net.cpp:156] Memory required for data: 168592416
I0403 18:05:44.542433  6576 layer_factory.hpp:77] Creating layer pool1/3x3_s2
I0403 18:05:44.542456  6576 net.cpp:91] Creating Layer pool1/3x3_s2
I0403 18:05:44.542475  6576 net.cpp:425] pool1/3x3_s2 <- conv1/7x7_s2
I0403 18:05:44.542495  6576 net.cpp:399] pool1/3x3_s2 -> pool1/3x3_s2
I0403 18:05:44.542567  6576 net.cpp:141] Setting up pool1/3x3_s2
I0403 18:05:44.542592  6576 net.cpp:148] Top shape: 24 64 56 56 (4816896)
I0403 18:05:44.542608  6576 net.cpp:156] Memory required for data: 187860000
I0403 18:05:44.542623  6576 layer_factory.hpp:77] Creating layer pool1/norm1
I0403 18:05:44.542646  6576 net.cpp:91] Creating Layer pool1/norm1
I0403 18:05:44.542665  6576 net.cpp:425] pool1/norm1 <- pool1/3x3_s2
I0403 18:05:44.542682  6576 net.cpp:399] pool1/norm1 -> pool1/norm1
I0403 18:05:44.542961  6576 net.cpp:141] Setting up pool1/norm1
I0403 18:05:44.542989  6576 net.cpp:148] Top shape: 24 64 56 56 (4816896)
I0403 18:05:44.543004  6576 net.cpp:156] Memory required for data: 207127584
I0403 18:05:44.543018  6576 layer_factory.hpp:77] Creating layer conv2/3x3_reduce
I0403 18:05:44.543042  6576 net.cpp:91] Creating Layer conv2/3x3_reduce
I0403 18:05:44.543058  6576 net.cpp:425] conv2/3x3_reduce <- pool1/norm1
I0403 18:05:44.543077  6576 net.cpp:399] conv2/3x3_reduce -> conv2/3x3_reduce
I0403 18:05:44.544478  6576 net.cpp:141] Setting up conv2/3x3_reduce
I0403 18:05:44.544507  6576 net.cpp:148] Top shape: 24 64 56 56 (4816896)
I0403 18:05:44.544523  6576 net.cpp:156] Memory required for data: 226395168
I0403 18:05:44.544544  6576 layer_factory.hpp:77] Creating layer conv2/relu_3x3_reduce
I0403 18:05:44.544564  6576 net.cpp:91] Creating Layer conv2/relu_3x3_reduce
I0403 18:05:44.544579  6576 net.cpp:425] conv2/relu_3x3_reduce <- conv2/3x3_reduce
I0403 18:05:44.544600  6576 net.cpp:386] conv2/relu_3x3_reduce -> conv2/3x3_reduce (in-place)
I0403 18:05:44.544867  6576 net.cpp:141] Setting up conv2/relu_3x3_reduce
I0403 18:05:44.544893  6576 net.cpp:148] Top shape: 24 64 56 56 (4816896)
I0403 18:05:44.544909  6576 net.cpp:156] Memory required for data: 245662752
I0403 18:05:44.544924  6576 layer_factory.hpp:77] Creating layer conv2/3x3
I0403 18:05:44.544947  6576 net.cpp:91] Creating Layer conv2/3x3
I0403 18:05:44.544965  6576 net.cpp:425] conv2/3x3 <- conv2/3x3_reduce
I0403 18:05:44.544991  6576 net.cpp:399] conv2/3x3 -> conv2/3x3
I0403 18:05:44.547374  6576 net.cpp:141] Setting up conv2/3x3
I0403 18:05:44.547405  6576 net.cpp:148] Top shape: 24 192 56 56 (14450688)
I0403 18:05:44.547420  6576 net.cpp:156] Memory required for data: 303465504
I0403 18:05:44.547441  6576 layer_factory.hpp:77] Creating layer conv2/relu_3x3
I0403 18:05:44.547461  6576 net.cpp:91] Creating Layer conv2/relu_3x3
I0403 18:05:44.547477  6576 net.cpp:425] conv2/relu_3x3 <- conv2/3x3
I0403 18:05:44.547497  6576 net.cpp:386] conv2/relu_3x3 -> conv2/3x3 (in-place)
I0403 18:05:44.547672  6576 net.cpp:141] Setting up conv2/relu_3x3
I0403 18:05:44.547698  6576 net.cpp:148] Top shape: 24 192 56 56 (14450688)
I0403 18:05:44.547744  6576 net.cpp:156] Memory required for data: 361268256
I0403 18:05:44.547760  6576 layer_factory.hpp:77] Creating layer conv2/norm2
I0403 18:05:44.547781  6576 net.cpp:91] Creating Layer conv2/norm2
I0403 18:05:44.547797  6576 net.cpp:425] conv2/norm2 <- conv2/3x3
I0403 18:05:44.547816  6576 net.cpp:399] conv2/norm2 -> conv2/norm2
I0403 18:05:44.548118  6576 net.cpp:141] Setting up conv2/norm2
I0403 18:05:44.548148  6576 net.cpp:148] Top shape: 24 192 56 56 (14450688)
I0403 18:05:44.548164  6576 net.cpp:156] Memory required for data: 419071008
I0403 18:05:44.548180  6576 layer_factory.hpp:77] Creating layer pool2/3x3_s2
I0403 18:05:44.548197  6576 net.cpp:91] Creating Layer pool2/3x3_s2
I0403 18:05:44.548218  6576 net.cpp:425] pool2/3x3_s2 <- conv2/norm2
I0403 18:05:44.548238  6576 net.cpp:399] pool2/3x3_s2 -> pool2/3x3_s2
I0403 18:05:44.548295  6576 net.cpp:141] Setting up pool2/3x3_s2
I0403 18:05:44.548318  6576 net.cpp:148] Top shape: 24 192 28 28 (3612672)
I0403 18:05:44.548332  6576 net.cpp:156] Memory required for data: 433521696
I0403 18:05:44.548348  6576 layer_factory.hpp:77] Creating layer pool2/3x3_s2_pool2/3x3_s2_0_split
I0403 18:05:44.548368  6576 net.cpp:91] Creating Layer pool2/3x3_s2_pool2/3x3_s2_0_split
I0403 18:05:44.548385  6576 net.cpp:425] pool2/3x3_s2_pool2/3x3_s2_0_split <- pool2/3x3_s2
I0403 18:05:44.548403  6576 net.cpp:399] pool2/3x3_s2_pool2/3x3_s2_0_split -> pool2/3x3_s2_pool2/3x3_s2_0_split_0
I0403 18:05:44.548423  6576 net.cpp:399] pool2/3x3_s2_pool2/3x3_s2_0_split -> pool2/3x3_s2_pool2/3x3_s2_0_split_1
I0403 18:05:44.548444  6576 net.cpp:399] pool2/3x3_s2_pool2/3x3_s2_0_split -> pool2/3x3_s2_pool2/3x3_s2_0_split_2
I0403 18:05:44.548465  6576 net.cpp:399] pool2/3x3_s2_pool2/3x3_s2_0_split -> pool2/3x3_s2_pool2/3x3_s2_0_split_3
I0403 18:05:44.548535  6576 net.cpp:141] Setting up pool2/3x3_s2_pool2/3x3_s2_0_split
I0403 18:05:44.548558  6576 net.cpp:148] Top shape: 24 192 28 28 (3612672)
I0403 18:05:44.548575  6576 net.cpp:148] Top shape: 24 192 28 28 (3612672)
I0403 18:05:44.548590  6576 net.cpp:148] Top shape: 24 192 28 28 (3612672)
I0403 18:05:44.548607  6576 net.cpp:148] Top shape: 24 192 28 28 (3612672)
I0403 18:05:44.548620  6576 net.cpp:156] Memory required for data: 491324448
I0403 18:05:44.548636  6576 layer_factory.hpp:77] Creating layer inception_3a/1x1
I0403 18:05:44.548660  6576 net.cpp:91] Creating Layer inception_3a/1x1
I0403 18:05:44.548676  6576 net.cpp:425] inception_3a/1x1 <- pool2/3x3_s2_pool2/3x3_s2_0_split_0
I0403 18:05:44.548698  6576 net.cpp:399] inception_3a/1x1 -> inception_3a/1x1
I0403 18:05:44.550282  6576 net.cpp:141] Setting up inception_3a/1x1
I0403 18:05:44.550314  6576 net.cpp:148] Top shape: 24 64 28 28 (1204224)
I0403 18:05:44.550330  6576 net.cpp:156] Memory required for data: 496141344
I0403 18:05:44.550350  6576 layer_factory.hpp:77] Creating layer inception_3a/relu_1x1
I0403 18:05:44.550369  6576 net.cpp:91] Creating Layer inception_3a/relu_1x1
I0403 18:05:44.550385  6576 net.cpp:425] inception_3a/relu_1x1 <- inception_3a/1x1
I0403 18:05:44.550406  6576 net.cpp:386] inception_3a/relu_1x1 -> inception_3a/1x1 (in-place)
I0403 18:05:44.550580  6576 net.cpp:141] Setting up inception_3a/relu_1x1
I0403 18:05:44.550606  6576 net.cpp:148] Top shape: 24 64 28 28 (1204224)
I0403 18:05:44.550621  6576 net.cpp:156] Memory required for data: 500958240
I0403 18:05:44.550637  6576 layer_factory.hpp:77] Creating layer inception_3a/3x3_reduce
I0403 18:05:44.550658  6576 net.cpp:91] Creating Layer inception_3a/3x3_reduce
I0403 18:05:44.550678  6576 net.cpp:425] inception_3a/3x3_reduce <- pool2/3x3_s2_pool2/3x3_s2_0_split_1
I0403 18:05:44.550699  6576 net.cpp:399] inception_3a/3x3_reduce -> inception_3a/3x3_reduce
I0403 18:05:44.552543  6576 net.cpp:141] Setting up inception_3a/3x3_reduce
I0403 18:05:44.552572  6576 net.cpp:148] Top shape: 24 96 28 28 (1806336)
I0403 18:05:44.552588  6576 net.cpp:156] Memory required for data: 508183584
I0403 18:05:44.552610  6576 layer_factory.hpp:77] Creating layer inception_3a/relu_3x3_reduce
I0403 18:05:44.552649  6576 net.cpp:91] Creating Layer inception_3a/relu_3x3_reduce
I0403 18:05:44.552669  6576 net.cpp:425] inception_3a/relu_3x3_reduce <- inception_3a/3x3_reduce
I0403 18:05:44.552686  6576 net.cpp:386] inception_3a/relu_3x3_reduce -> inception_3a/3x3_reduce (in-place)
I0403 18:05:44.552865  6576 net.cpp:141] Setting up inception_3a/relu_3x3_reduce
I0403 18:05:44.552892  6576 net.cpp:148] Top shape: 24 96 28 28 (1806336)
I0403 18:05:44.552908  6576 net.cpp:156] Memory required for data: 515408928
I0403 18:05:44.552923  6576 layer_factory.hpp:77] Creating layer inception_3a/3x3
I0403 18:05:44.552947  6576 net.cpp:91] Creating Layer inception_3a/3x3
I0403 18:05:44.552965  6576 net.cpp:425] inception_3a/3x3 <- inception_3a/3x3_reduce
I0403 18:05:44.552983  6576 net.cpp:399] inception_3a/3x3 -> inception_3a/3x3
I0403 18:05:44.554631  6576 net.cpp:141] Setting up inception_3a/3x3
I0403 18:05:44.554659  6576 net.cpp:148] Top shape: 24 128 28 28 (2408448)
I0403 18:05:44.554677  6576 net.cpp:156] Memory required for data: 525042720
I0403 18:05:44.554695  6576 layer_factory.hpp:77] Creating layer inception_3a/relu_3x3
I0403 18:05:44.554713  6576 net.cpp:91] Creating Layer inception_3a/relu_3x3
I0403 18:05:44.554733  6576 net.cpp:425] inception_3a/relu_3x3 <- inception_3a/3x3
I0403 18:05:44.554750  6576 net.cpp:386] inception_3a/relu_3x3 -> inception_3a/3x3 (in-place)
I0403 18:05:44.555025  6576 net.cpp:141] Setting up inception_3a/relu_3x3
I0403 18:05:44.555052  6576 net.cpp:148] Top shape: 24 128 28 28 (2408448)
I0403 18:05:44.555066  6576 net.cpp:156] Memory required for data: 534676512
I0403 18:05:44.555083  6576 layer_factory.hpp:77] Creating layer inception_3a/5x5_reduce
I0403 18:05:44.555105  6576 net.cpp:91] Creating Layer inception_3a/5x5_reduce
I0403 18:05:44.555121  6576 net.cpp:425] inception_3a/5x5_reduce <- pool2/3x3_s2_pool2/3x3_s2_0_split_2
I0403 18:05:44.555145  6576 net.cpp:399] inception_3a/5x5_reduce -> inception_3a/5x5_reduce
I0403 18:05:44.556097  6576 net.cpp:141] Setting up inception_3a/5x5_reduce
I0403 18:05:44.556126  6576 net.cpp:148] Top shape: 24 16 28 28 (301056)
I0403 18:05:44.556141  6576 net.cpp:156] Memory required for data: 535880736
I0403 18:05:44.556160  6576 layer_factory.hpp:77] Creating layer inception_3a/relu_5x5_reduce
I0403 18:05:44.556180  6576 net.cpp:91] Creating Layer inception_3a/relu_5x5_reduce
I0403 18:05:44.556196  6576 net.cpp:425] inception_3a/relu_5x5_reduce <- inception_3a/5x5_reduce
I0403 18:05:44.556221  6576 net.cpp:386] inception_3a/relu_5x5_reduce -> inception_3a/5x5_reduce (in-place)
I0403 18:05:44.556500  6576 net.cpp:141] Setting up inception_3a/relu_5x5_reduce
I0403 18:05:44.556527  6576 net.cpp:148] Top shape: 24 16 28 28 (301056)
I0403 18:05:44.556542  6576 net.cpp:156] Memory required for data: 537084960
I0403 18:05:44.556557  6576 layer_factory.hpp:77] Creating layer inception_3a/5x5
I0403 18:05:44.556581  6576 net.cpp:91] Creating Layer inception_3a/5x5
I0403 18:05:44.556598  6576 net.cpp:425] inception_3a/5x5 <- inception_3a/5x5_reduce
I0403 18:05:44.556619  6576 net.cpp:399] inception_3a/5x5 -> inception_3a/5x5
I0403 18:05:44.557626  6576 net.cpp:141] Setting up inception_3a/5x5
I0403 18:05:44.557657  6576 net.cpp:148] Top shape: 24 32 28 28 (602112)
I0403 18:05:44.557673  6576 net.cpp:156] Memory required for data: 539493408
I0403 18:05:44.557693  6576 layer_factory.hpp:77] Creating layer inception_3a/relu_5x5
I0403 18:05:44.557709  6576 net.cpp:91] Creating Layer inception_3a/relu_5x5
I0403 18:05:44.557725  6576 net.cpp:425] inception_3a/relu_5x5 <- inception_3a/5x5
I0403 18:05:44.557745  6576 net.cpp:386] inception_3a/relu_5x5 -> inception_3a/5x5 (in-place)
I0403 18:05:44.557924  6576 net.cpp:141] Setting up inception_3a/relu_5x5
I0403 18:05:44.557948  6576 net.cpp:148] Top shape: 24 32 28 28 (602112)
I0403 18:05:44.557962  6576 net.cpp:156] Memory required for data: 541901856
I0403 18:05:44.557978  6576 layer_factory.hpp:77] Creating layer inception_3a/pool
I0403 18:05:44.557996  6576 net.cpp:91] Creating Layer inception_3a/pool
I0403 18:05:44.558027  6576 net.cpp:425] inception_3a/pool <- pool2/3x3_s2_pool2/3x3_s2_0_split_3
I0403 18:05:44.558048  6576 net.cpp:399] inception_3a/pool -> inception_3a/pool
I0403 18:05:44.558109  6576 net.cpp:141] Setting up inception_3a/pool
I0403 18:05:44.558131  6576 net.cpp:148] Top shape: 24 192 28 28 (3612672)
I0403 18:05:44.558145  6576 net.cpp:156] Memory required for data: 556352544
I0403 18:05:44.558161  6576 layer_factory.hpp:77] Creating layer inception_3a/pool_proj
I0403 18:05:44.558182  6576 net.cpp:91] Creating Layer inception_3a/pool_proj
I0403 18:05:44.558200  6576 net.cpp:425] inception_3a/pool_proj <- inception_3a/pool
I0403 18:05:44.558228  6576 net.cpp:399] inception_3a/pool_proj -> inception_3a/pool_proj
I0403 18:05:44.559182  6576 net.cpp:141] Setting up inception_3a/pool_proj
I0403 18:05:44.559216  6576 net.cpp:148] Top shape: 24 32 28 28 (602112)
I0403 18:05:44.559232  6576 net.cpp:156] Memory required for data: 558760992
I0403 18:05:44.559257  6576 layer_factory.hpp:77] Creating layer inception_3a/relu_pool_proj
I0403 18:05:44.559279  6576 net.cpp:91] Creating Layer inception_3a/relu_pool_proj
I0403 18:05:44.559296  6576 net.cpp:425] inception_3a/relu_pool_proj <- inception_3a/pool_proj
I0403 18:05:44.559314  6576 net.cpp:386] inception_3a/relu_pool_proj -> inception_3a/pool_proj (in-place)
I0403 18:05:44.559586  6576 net.cpp:141] Setting up inception_3a/relu_pool_proj
I0403 18:05:44.559612  6576 net.cpp:148] Top shape: 24 32 28 28 (602112)
I0403 18:05:44.559628  6576 net.cpp:156] Memory required for data: 561169440
I0403 18:05:44.559643  6576 layer_factory.hpp:77] Creating layer inception_3a/output
I0403 18:05:44.559661  6576 net.cpp:91] Creating Layer inception_3a/output
I0403 18:05:44.559677  6576 net.cpp:425] inception_3a/output <- inception_3a/1x1
I0403 18:05:44.559695  6576 net.cpp:425] inception_3a/output <- inception_3a/3x3
I0403 18:05:44.559711  6576 net.cpp:425] inception_3a/output <- inception_3a/5x5
I0403 18:05:44.559728  6576 net.cpp:425] inception_3a/output <- inception_3a/pool_proj
I0403 18:05:44.559747  6576 net.cpp:399] inception_3a/output -> inception_3a/output
I0403 18:05:44.559793  6576 net.cpp:141] Setting up inception_3a/output
I0403 18:05:44.559819  6576 net.cpp:148] Top shape: 24 256 28 28 (4816896)
I0403 18:05:44.559835  6576 net.cpp:156] Memory required for data: 580437024
I0403 18:05:44.559850  6576 layer_factory.hpp:77] Creating layer inception_3a/output_inception_3a/output_0_split
I0403 18:05:44.559867  6576 net.cpp:91] Creating Layer inception_3a/output_inception_3a/output_0_split
I0403 18:05:44.559883  6576 net.cpp:425] inception_3a/output_inception_3a/output_0_split <- inception_3a/output
I0403 18:05:44.559902  6576 net.cpp:399] inception_3a/output_inception_3a/output_0_split -> inception_3a/output_inception_3a/output_0_split_0
I0403 18:05:44.559926  6576 net.cpp:399] inception_3a/output_inception_3a/output_0_split -> inception_3a/output_inception_3a/output_0_split_1
I0403 18:05:44.559947  6576 net.cpp:399] inception_3a/output_inception_3a/output_0_split -> inception_3a/output_inception_3a/output_0_split_2
I0403 18:05:44.559968  6576 net.cpp:399] inception_3a/output_inception_3a/output_0_split -> inception_3a/output_inception_3a/output_0_split_3
I0403 18:05:44.560044  6576 net.cpp:141] Setting up inception_3a/output_inception_3a/output_0_split
I0403 18:05:44.560067  6576 net.cpp:148] Top shape: 24 256 28 28 (4816896)
I0403 18:05:44.560084  6576 net.cpp:148] Top shape: 24 256 28 28 (4816896)
I0403 18:05:44.560101  6576 net.cpp:148] Top shape: 24 256 28 28 (4816896)
I0403 18:05:44.560117  6576 net.cpp:148] Top shape: 24 256 28 28 (4816896)
I0403 18:05:44.560132  6576 net.cpp:156] Memory required for data: 657507360
I0403 18:05:44.560147  6576 layer_factory.hpp:77] Creating layer inception_3b/1x1
I0403 18:05:44.560169  6576 net.cpp:91] Creating Layer inception_3b/1x1
I0403 18:05:44.560187  6576 net.cpp:425] inception_3b/1x1 <- inception_3a/output_inception_3a/output_0_split_0
I0403 18:05:44.560212  6576 net.cpp:399] inception_3b/1x1 -> inception_3b/1x1
I0403 18:05:44.561343  6576 net.cpp:141] Setting up inception_3b/1x1
I0403 18:05:44.561385  6576 net.cpp:148] Top shape: 24 128 28 28 (2408448)
I0403 18:05:44.561401  6576 net.cpp:156] Memory required for data: 667141152
I0403 18:05:44.561420  6576 layer_factory.hpp:77] Creating layer inception_3b/relu_1x1
I0403 18:05:44.561439  6576 net.cpp:91] Creating Layer inception_3b/relu_1x1
I0403 18:05:44.561455  6576 net.cpp:425] inception_3b/relu_1x1 <- inception_3b/1x1
I0403 18:05:44.561471  6576 net.cpp:386] inception_3b/relu_1x1 -> inception_3b/1x1 (in-place)
I0403 18:05:44.561653  6576 net.cpp:141] Setting up inception_3b/relu_1x1
I0403 18:05:44.561679  6576 net.cpp:148] Top shape: 24 128 28 28 (2408448)
I0403 18:05:44.561693  6576 net.cpp:156] Memory required for data: 676774944
I0403 18:05:44.561709  6576 layer_factory.hpp:77] Creating layer inception_3b/3x3_reduce
I0403 18:05:44.561731  6576 net.cpp:91] Creating Layer inception_3b/3x3_reduce
I0403 18:05:44.561749  6576 net.cpp:425] inception_3b/3x3_reduce <- inception_3a/output_inception_3a/output_0_split_1
I0403 18:05:44.561771  6576 net.cpp:399] inception_3b/3x3_reduce -> inception_3b/3x3_reduce
I0403 18:05:44.562903  6576 net.cpp:141] Setting up inception_3b/3x3_reduce
I0403 18:05:44.562933  6576 net.cpp:148] Top shape: 24 128 28 28 (2408448)
I0403 18:05:44.562949  6576 net.cpp:156] Memory required for data: 686408736
I0403 18:05:44.562969  6576 layer_factory.hpp:77] Creating layer inception_3b/relu_3x3_reduce
I0403 18:05:44.562988  6576 net.cpp:91] Creating Layer inception_3b/relu_3x3_reduce
I0403 18:05:44.563004  6576 net.cpp:425] inception_3b/relu_3x3_reduce <- inception_3b/3x3_reduce
I0403 18:05:44.563025  6576 net.cpp:386] inception_3b/relu_3x3_reduce -> inception_3b/3x3_reduce (in-place)
I0403 18:05:44.563197  6576 net.cpp:141] Setting up inception_3b/relu_3x3_reduce
I0403 18:05:44.563228  6576 net.cpp:148] Top shape: 24 128 28 28 (2408448)
I0403 18:05:44.563244  6576 net.cpp:156] Memory required for data: 696042528
I0403 18:05:44.563261  6576 layer_factory.hpp:77] Creating layer inception_3b/3x3
I0403 18:05:44.563287  6576 net.cpp:91] Creating Layer inception_3b/3x3
I0403 18:05:44.563304  6576 net.cpp:425] inception_3b/3x3 <- inception_3b/3x3_reduce
I0403 18:05:44.563323  6576 net.cpp:399] inception_3b/3x3 -> inception_3b/3x3
I0403 18:05:44.566304  6576 net.cpp:141] Setting up inception_3b/3x3
I0403 18:05:44.566334  6576 net.cpp:148] Top shape: 24 192 28 28 (3612672)
I0403 18:05:44.566349  6576 net.cpp:156] Memory required for data: 710493216
I0403 18:05:44.566367  6576 layer_factory.hpp:77] Creating layer inception_3b/relu_3x3
I0403 18:05:44.566385  6576 net.cpp:91] Creating Layer inception_3b/relu_3x3
I0403 18:05:44.566404  6576 net.cpp:425] inception_3b/relu_3x3 <- inception_3b/3x3
I0403 18:05:44.566422  6576 net.cpp:386] inception_3b/relu_3x3 -> inception_3b/3x3 (in-place)
I0403 18:05:44.566700  6576 net.cpp:141] Setting up inception_3b/relu_3x3
I0403 18:05:44.566726  6576 net.cpp:148] Top shape: 24 192 28 28 (3612672)
I0403 18:05:44.566741  6576 net.cpp:156] Memory required for data: 724943904
I0403 18:05:44.566757  6576 layer_factory.hpp:77] Creating layer inception_3b/5x5_reduce
I0403 18:05:44.566781  6576 net.cpp:91] Creating Layer inception_3b/5x5_reduce
I0403 18:05:44.566799  6576 net.cpp:425] inception_3b/5x5_reduce <- inception_3a/output_inception_3a/output_0_split_2
I0403 18:05:44.566823  6576 net.cpp:399] inception_3b/5x5_reduce -> inception_3b/5x5_reduce
I0403 18:05:44.567814  6576 net.cpp:141] Setting up inception_3b/5x5_reduce
I0403 18:05:44.567843  6576 net.cpp:148] Top shape: 24 32 28 28 (602112)
I0403 18:05:44.567858  6576 net.cpp:156] Memory required for data: 727352352
I0403 18:05:44.567878  6576 layer_factory.hpp:77] Creating layer inception_3b/relu_5x5_reduce
I0403 18:05:44.567894  6576 net.cpp:91] Creating Layer inception_3b/relu_5x5_reduce
I0403 18:05:44.567910  6576 net.cpp:425] inception_3b/relu_5x5_reduce <- inception_3b/5x5_reduce
I0403 18:05:44.567932  6576 net.cpp:386] inception_3b/relu_5x5_reduce -> inception_3b/5x5_reduce (in-place)
I0403 18:05:44.568125  6576 net.cpp:141] Setting up inception_3b/relu_5x5_reduce
I0403 18:05:44.568150  6576 net.cpp:148] Top shape: 24 32 28 28 (602112)
I0403 18:05:44.568164  6576 net.cpp:156] Memory required for data: 729760800
I0403 18:05:44.568181  6576 layer_factory.hpp:77] Creating layer inception_3b/5x5
I0403 18:05:44.568203  6576 net.cpp:91] Creating Layer inception_3b/5x5
I0403 18:05:44.568243  6576 net.cpp:425] inception_3b/5x5 <- inception_3b/5x5_reduce
I0403 18:05:44.568265  6576 net.cpp:399] inception_3b/5x5 -> inception_3b/5x5
I0403 18:05:44.570336  6576 net.cpp:141] Setting up inception_3b/5x5
I0403 18:05:44.570369  6576 net.cpp:148] Top shape: 24 96 28 28 (1806336)
I0403 18:05:44.570385  6576 net.cpp:156] Memory required for data: 736986144
I0403 18:05:44.570405  6576 layer_factory.hpp:77] Creating layer inception_3b/relu_5x5
I0403 18:05:44.570425  6576 net.cpp:91] Creating Layer inception_3b/relu_5x5
I0403 18:05:44.570441  6576 net.cpp:425] inception_3b/relu_5x5 <- inception_3b/5x5
I0403 18:05:44.570462  6576 net.cpp:386] inception_3b/relu_5x5 -> inception_3b/5x5 (in-place)
I0403 18:05:44.570663  6576 net.cpp:141] Setting up inception_3b/relu_5x5
I0403 18:05:44.570689  6576 net.cpp:148] Top shape: 24 96 28 28 (1806336)
I0403 18:05:44.570705  6576 net.cpp:156] Memory required for data: 744211488
I0403 18:05:44.570720  6576 layer_factory.hpp:77] Creating layer inception_3b/pool
I0403 18:05:44.570739  6576 net.cpp:91] Creating Layer inception_3b/pool
I0403 18:05:44.570756  6576 net.cpp:425] inception_3b/pool <- inception_3a/output_inception_3a/output_0_split_3
I0403 18:05:44.570775  6576 net.cpp:399] inception_3b/pool -> inception_3b/pool
I0403 18:05:44.570832  6576 net.cpp:141] Setting up inception_3b/pool
I0403 18:05:44.570855  6576 net.cpp:148] Top shape: 24 256 28 28 (4816896)
I0403 18:05:44.570870  6576 net.cpp:156] Memory required for data: 763479072
I0403 18:05:44.570886  6576 layer_factory.hpp:77] Creating layer inception_3b/pool_proj
I0403 18:05:44.570912  6576 net.cpp:91] Creating Layer inception_3b/pool_proj
I0403 18:05:44.570930  6576 net.cpp:425] inception_3b/pool_proj <- inception_3b/pool
I0403 18:05:44.570950  6576 net.cpp:399] inception_3b/pool_proj -> inception_3b/pool_proj
I0403 18:05:44.572031  6576 net.cpp:141] Setting up inception_3b/pool_proj
I0403 18:05:44.572060  6576 net.cpp:148] Top shape: 24 64 28 28 (1204224)
I0403 18:05:44.572077  6576 net.cpp:156] Memory required for data: 768295968
I0403 18:05:44.572094  6576 layer_factory.hpp:77] Creating layer inception_3b/relu_pool_proj
I0403 18:05:44.572121  6576 net.cpp:91] Creating Layer inception_3b/relu_pool_proj
I0403 18:05:44.572139  6576 net.cpp:425] inception_3b/relu_pool_proj <- inception_3b/pool_proj
I0403 18:05:44.572157  6576 net.cpp:386] inception_3b/relu_pool_proj -> inception_3b/pool_proj (in-place)
I0403 18:05:44.572562  6576 net.cpp:141] Setting up inception_3b/relu_pool_proj
I0403 18:05:44.572590  6576 net.cpp:148] Top shape: 24 64 28 28 (1204224)
I0403 18:05:44.572605  6576 net.cpp:156] Memory required for data: 773112864
I0403 18:05:44.572620  6576 layer_factory.hpp:77] Creating layer inception_3b/output
I0403 18:05:44.572643  6576 net.cpp:91] Creating Layer inception_3b/output
I0403 18:05:44.572659  6576 net.cpp:425] inception_3b/output <- inception_3b/1x1
I0403 18:05:44.572676  6576 net.cpp:425] inception_3b/output <- inception_3b/3x3
I0403 18:05:44.572693  6576 net.cpp:425] inception_3b/output <- inception_3b/5x5
I0403 18:05:44.572710  6576 net.cpp:425] inception_3b/output <- inception_3b/pool_proj
I0403 18:05:44.572726  6576 net.cpp:399] inception_3b/output -> inception_3b/output
I0403 18:05:44.572783  6576 net.cpp:141] Setting up inception_3b/output
I0403 18:05:44.572808  6576 net.cpp:148] Top shape: 24 480 28 28 (9031680)
I0403 18:05:44.572824  6576 net.cpp:156] Memory required for data: 809239584
I0403 18:05:44.572839  6576 layer_factory.hpp:77] Creating layer pool3/3x3_s2
I0403 18:05:44.572857  6576 net.cpp:91] Creating Layer pool3/3x3_s2
I0403 18:05:44.572872  6576 net.cpp:425] pool3/3x3_s2 <- inception_3b/output
I0403 18:05:44.572908  6576 net.cpp:399] pool3/3x3_s2 -> pool3/3x3_s2
I0403 18:05:44.572967  6576 net.cpp:141] Setting up pool3/3x3_s2
I0403 18:05:44.572993  6576 net.cpp:148] Top shape: 24 480 14 14 (2257920)
I0403 18:05:44.573007  6576 net.cpp:156] Memory required for data: 818271264
I0403 18:05:44.573022  6576 layer_factory.hpp:77] Creating layer pool3/3x3_s2_pool3/3x3_s2_0_split
I0403 18:05:44.573041  6576 net.cpp:91] Creating Layer pool3/3x3_s2_pool3/3x3_s2_0_split
I0403 18:05:44.573057  6576 net.cpp:425] pool3/3x3_s2_pool3/3x3_s2_0_split <- pool3/3x3_s2
I0403 18:05:44.573076  6576 net.cpp:399] pool3/3x3_s2_pool3/3x3_s2_0_split -> pool3/3x3_s2_pool3/3x3_s2_0_split_0
I0403 18:05:44.573094  6576 net.cpp:399] pool3/3x3_s2_pool3/3x3_s2_0_split -> pool3/3x3_s2_pool3/3x3_s2_0_split_1
I0403 18:05:44.573115  6576 net.cpp:399] pool3/3x3_s2_pool3/3x3_s2_0_split -> pool3/3x3_s2_pool3/3x3_s2_0_split_2
I0403 18:05:44.573137  6576 net.cpp:399] pool3/3x3_s2_pool3/3x3_s2_0_split -> pool3/3x3_s2_pool3/3x3_s2_0_split_3
I0403 18:05:44.573218  6576 net.cpp:141] Setting up pool3/3x3_s2_pool3/3x3_s2_0_split
I0403 18:05:44.573241  6576 net.cpp:148] Top shape: 24 480 14 14 (2257920)
I0403 18:05:44.573258  6576 net.cpp:148] Top shape: 24 480 14 14 (2257920)
I0403 18:05:44.573274  6576 net.cpp:148] Top shape: 24 480 14 14 (2257920)
I0403 18:05:44.573292  6576 net.cpp:148] Top shape: 24 480 14 14 (2257920)
I0403 18:05:44.573305  6576 net.cpp:156] Memory required for data: 854397984
I0403 18:05:44.573320  6576 layer_factory.hpp:77] Creating layer inception_4a/1x1
I0403 18:05:44.573343  6576 net.cpp:91] Creating Layer inception_4a/1x1
I0403 18:05:44.573360  6576 net.cpp:425] inception_4a/1x1 <- pool3/3x3_s2_pool3/3x3_s2_0_split_0
I0403 18:05:44.573382  6576 net.cpp:399] inception_4a/1x1 -> inception_4a/1x1
I0403 18:05:44.574944  6576 net.cpp:141] Setting up inception_4a/1x1
I0403 18:05:44.574972  6576 net.cpp:148] Top shape: 24 192 14 14 (903168)
I0403 18:05:44.574987  6576 net.cpp:156] Memory required for data: 858010656
I0403 18:05:44.575007  6576 layer_factory.hpp:77] Creating layer inception_4a/relu_1x1
I0403 18:05:44.575027  6576 net.cpp:91] Creating Layer inception_4a/relu_1x1
I0403 18:05:44.575044  6576 net.cpp:425] inception_4a/relu_1x1 <- inception_4a/1x1
I0403 18:05:44.575062  6576 net.cpp:386] inception_4a/relu_1x1 -> inception_4a/1x1 (in-place)
I0403 18:05:44.575245  6576 net.cpp:141] Setting up inception_4a/relu_1x1
I0403 18:05:44.575274  6576 net.cpp:148] Top shape: 24 192 14 14 (903168)
I0403 18:05:44.575289  6576 net.cpp:156] Memory required for data: 861623328
I0403 18:05:44.575304  6576 layer_factory.hpp:77] Creating layer inception_4a/3x3_reduce
I0403 18:05:44.575327  6576 net.cpp:91] Creating Layer inception_4a/3x3_reduce
I0403 18:05:44.575343  6576 net.cpp:425] inception_4a/3x3_reduce <- pool3/3x3_s2_pool3/3x3_s2_0_split_1
I0403 18:05:44.575366  6576 net.cpp:399] inception_4a/3x3_reduce -> inception_4a/3x3_reduce
I0403 18:05:44.576644  6576 net.cpp:141] Setting up inception_4a/3x3_reduce
I0403 18:05:44.576673  6576 net.cpp:148] Top shape: 24 96 14 14 (451584)
I0403 18:05:44.576689  6576 net.cpp:156] Memory required for data: 863429664
I0403 18:05:44.576714  6576 layer_factory.hpp:77] Creating layer inception_4a/relu_3x3_reduce
I0403 18:05:44.576736  6576 net.cpp:91] Creating Layer inception_4a/relu_3x3_reduce
I0403 18:05:44.576753  6576 net.cpp:425] inception_4a/relu_3x3_reduce <- inception_4a/3x3_reduce
I0403 18:05:44.576771  6576 net.cpp:386] inception_4a/relu_3x3_reduce -> inception_4a/3x3_reduce (in-place)
I0403 18:05:44.576951  6576 net.cpp:141] Setting up inception_4a/relu_3x3_reduce
I0403 18:05:44.576979  6576 net.cpp:148] Top shape: 24 96 14 14 (451584)
I0403 18:05:44.576995  6576 net.cpp:156] Memory required for data: 865236000
I0403 18:05:44.577010  6576 layer_factory.hpp:77] Creating layer inception_4a/3x3
I0403 18:05:44.577033  6576 net.cpp:91] Creating Layer inception_4a/3x3
I0403 18:05:44.577049  6576 net.cpp:425] inception_4a/3x3 <- inception_4a/3x3_reduce
I0403 18:05:44.577069  6576 net.cpp:399] inception_4a/3x3 -> inception_4a/3x3
I0403 18:05:44.579790  6576 net.cpp:141] Setting up inception_4a/3x3
I0403 18:05:44.579821  6576 net.cpp:148] Top shape: 24 208 14 14 (978432)
I0403 18:05:44.579838  6576 net.cpp:156] Memory required for data: 869149728
I0403 18:05:44.579857  6576 layer_factory.hpp:77] Creating layer inception_4a/relu_3x3
I0403 18:05:44.579875  6576 net.cpp:91] Creating Layer inception_4a/relu_3x3
I0403 18:05:44.579891  6576 net.cpp:425] inception_4a/relu_3x3 <- inception_4a/3x3
I0403 18:05:44.579912  6576 net.cpp:386] inception_4a/relu_3x3 -> inception_4a/3x3 (in-place)
I0403 18:05:44.580214  6576 net.cpp:141] Setting up inception_4a/relu_3x3
I0403 18:05:44.580243  6576 net.cpp:148] Top shape: 24 208 14 14 (978432)
I0403 18:05:44.580260  6576 net.cpp:156] Memory required for data: 873063456
I0403 18:05:44.580276  6576 layer_factory.hpp:77] Creating layer inception_4a/5x5_reduce
I0403 18:05:44.580301  6576 net.cpp:91] Creating Layer inception_4a/5x5_reduce
I0403 18:05:44.580320  6576 net.cpp:425] inception_4a/5x5_reduce <- pool3/3x3_s2_pool3/3x3_s2_0_split_2
I0403 18:05:44.580340  6576 net.cpp:399] inception_4a/5x5_reduce -> inception_4a/5x5_reduce
I0403 18:05:44.581405  6576 net.cpp:141] Setting up inception_4a/5x5_reduce
I0403 18:05:44.581436  6576 net.cpp:148] Top shape: 24 16 14 14 (75264)
I0403 18:05:44.581454  6576 net.cpp:156] Memory required for data: 873364512
I0403 18:05:44.581473  6576 layer_factory.hpp:77] Creating layer inception_4a/relu_5x5_reduce
I0403 18:05:44.581492  6576 net.cpp:91] Creating Layer inception_4a/relu_5x5_reduce
I0403 18:05:44.581509  6576 net.cpp:425] inception_4a/relu_5x5_reduce <- inception_4a/5x5_reduce
I0403 18:05:44.581542  6576 net.cpp:386] inception_4a/relu_5x5_reduce -> inception_4a/5x5_reduce (in-place)
I0403 18:05:44.581718  6576 net.cpp:141] Setting up inception_4a/relu_5x5_reduce
I0403 18:05:44.581743  6576 net.cpp:148] Top shape: 24 16 14 14 (75264)
I0403 18:05:44.581758  6576 net.cpp:156] Memory required for data: 873665568
I0403 18:05:44.581773  6576 layer_factory.hpp:77] Creating layer inception_4a/5x5
I0403 18:05:44.581797  6576 net.cpp:91] Creating Layer inception_4a/5x5
I0403 18:05:44.581815  6576 net.cpp:425] inception_4a/5x5 <- inception_4a/5x5_reduce
I0403 18:05:44.581836  6576 net.cpp:399] inception_4a/5x5 -> inception_4a/5x5
I0403 18:05:44.582988  6576 net.cpp:141] Setting up inception_4a/5x5
I0403 18:05:44.583016  6576 net.cpp:148] Top shape: 24 48 14 14 (225792)
I0403 18:05:44.583032  6576 net.cpp:156] Memory required for data: 874568736
I0403 18:05:44.583051  6576 layer_factory.hpp:77] Creating layer inception_4a/relu_5x5
I0403 18:05:44.583073  6576 net.cpp:91] Creating Layer inception_4a/relu_5x5
I0403 18:05:44.583089  6576 net.cpp:425] inception_4a/relu_5x5 <- inception_4a/5x5
I0403 18:05:44.583107  6576 net.cpp:386] inception_4a/relu_5x5 -> inception_4a/5x5 (in-place)
I0403 18:05:44.583307  6576 net.cpp:141] Setting up inception_4a/relu_5x5
I0403 18:05:44.583333  6576 net.cpp:148] Top shape: 24 48 14 14 (225792)
I0403 18:05:44.583348  6576 net.cpp:156] Memory required for data: 875471904
I0403 18:05:44.583364  6576 layer_factory.hpp:77] Creating layer inception_4a/pool
I0403 18:05:44.583385  6576 net.cpp:91] Creating Layer inception_4a/pool
I0403 18:05:44.583402  6576 net.cpp:425] inception_4a/pool <- pool3/3x3_s2_pool3/3x3_s2_0_split_3
I0403 18:05:44.583421  6576 net.cpp:399] inception_4a/pool -> inception_4a/pool
I0403 18:05:44.583487  6576 net.cpp:141] Setting up inception_4a/pool
I0403 18:05:44.583510  6576 net.cpp:148] Top shape: 24 480 14 14 (2257920)
I0403 18:05:44.583525  6576 net.cpp:156] Memory required for data: 884503584
I0403 18:05:44.583540  6576 layer_factory.hpp:77] Creating layer inception_4a/pool_proj
I0403 18:05:44.583564  6576 net.cpp:91] Creating Layer inception_4a/pool_proj
I0403 18:05:44.583580  6576 net.cpp:425] inception_4a/pool_proj <- inception_4a/pool
I0403 18:05:44.583602  6576 net.cpp:399] inception_4a/pool_proj -> inception_4a/pool_proj
I0403 18:05:44.584784  6576 net.cpp:141] Setting up inception_4a/pool_proj
I0403 18:05:44.584815  6576 net.cpp:148] Top shape: 24 64 14 14 (301056)
I0403 18:05:44.584846  6576 net.cpp:156] Memory required for data: 885707808
I0403 18:05:44.584864  6576 layer_factory.hpp:77] Creating layer inception_4a/relu_pool_proj
I0403 18:05:44.584887  6576 net.cpp:91] Creating Layer inception_4a/relu_pool_proj
I0403 18:05:44.584903  6576 net.cpp:425] inception_4a/relu_pool_proj <- inception_4a/pool_proj
I0403 18:05:44.584920  6576 net.cpp:386] inception_4a/relu_pool_proj -> inception_4a/pool_proj (in-place)
I0403 18:05:44.585199  6576 net.cpp:141] Setting up inception_4a/relu_pool_proj
I0403 18:05:44.585230  6576 net.cpp:148] Top shape: 24 64 14 14 (301056)
I0403 18:05:44.585245  6576 net.cpp:156] Memory required for data: 886912032
I0403 18:05:44.585260  6576 layer_factory.hpp:77] Creating layer inception_4a/output
I0403 18:05:44.585281  6576 net.cpp:91] Creating Layer inception_4a/output
I0403 18:05:44.585299  6576 net.cpp:425] inception_4a/output <- inception_4a/1x1
I0403 18:05:44.585316  6576 net.cpp:425] inception_4a/output <- inception_4a/3x3
I0403 18:05:44.585332  6576 net.cpp:425] inception_4a/output <- inception_4a/5x5
I0403 18:05:44.585350  6576 net.cpp:425] inception_4a/output <- inception_4a/pool_proj
I0403 18:05:44.585366  6576 net.cpp:399] inception_4a/output -> inception_4a/output
I0403 18:05:44.585412  6576 net.cpp:141] Setting up inception_4a/output
I0403 18:05:44.585435  6576 net.cpp:148] Top shape: 24 512 14 14 (2408448)
I0403 18:05:44.585450  6576 net.cpp:156] Memory required for data: 896545824
I0403 18:05:44.585465  6576 layer_factory.hpp:77] Creating layer inception_4a/output_inception_4a/output_0_split
I0403 18:05:44.585484  6576 net.cpp:91] Creating Layer inception_4a/output_inception_4a/output_0_split
I0403 18:05:44.585499  6576 net.cpp:425] inception_4a/output_inception_4a/output_0_split <- inception_4a/output
I0403 18:05:44.585520  6576 net.cpp:399] inception_4a/output_inception_4a/output_0_split -> inception_4a/output_inception_4a/output_0_split_0
I0403 18:05:44.585541  6576 net.cpp:399] inception_4a/output_inception_4a/output_0_split -> inception_4a/output_inception_4a/output_0_split_1
I0403 18:05:44.585561  6576 net.cpp:399] inception_4a/output_inception_4a/output_0_split -> inception_4a/output_inception_4a/output_0_split_2
I0403 18:05:44.585582  6576 net.cpp:399] inception_4a/output_inception_4a/output_0_split -> inception_4a/output_inception_4a/output_0_split_3
I0403 18:05:44.585602  6576 net.cpp:399] inception_4a/output_inception_4a/output_0_split -> inception_4a/output_inception_4a/output_0_split_4
I0403 18:05:44.585696  6576 net.cpp:141] Setting up inception_4a/output_inception_4a/output_0_split
I0403 18:05:44.585721  6576 net.cpp:148] Top shape: 24 512 14 14 (2408448)
I0403 18:05:44.585736  6576 net.cpp:148] Top shape: 24 512 14 14 (2408448)
I0403 18:05:44.585752  6576 net.cpp:148] Top shape: 24 512 14 14 (2408448)
I0403 18:05:44.585769  6576 net.cpp:148] Top shape: 24 512 14 14 (2408448)
I0403 18:05:44.585784  6576 net.cpp:148] Top shape: 24 512 14 14 (2408448)
I0403 18:05:44.585799  6576 net.cpp:156] Memory required for data: 944714784
I0403 18:05:44.585814  6576 layer_factory.hpp:77] Creating layer loss1/ave_pool
I0403 18:05:44.585831  6576 net.cpp:91] Creating Layer loss1/ave_pool
I0403 18:05:44.585847  6576 net.cpp:425] loss1/ave_pool <- inception_4a/output_inception_4a/output_0_split_0
I0403 18:05:44.585870  6576 net.cpp:399] loss1/ave_pool -> loss1/ave_pool
I0403 18:05:44.586077  6576 net.cpp:141] Setting up loss1/ave_pool
I0403 18:05:44.586103  6576 net.cpp:148] Top shape: 24 512 4 4 (196608)
I0403 18:05:44.586118  6576 net.cpp:156] Memory required for data: 945501216
I0403 18:05:44.586134  6576 layer_factory.hpp:77] Creating layer loss1/conv
I0403 18:05:44.586163  6576 net.cpp:91] Creating Layer loss1/conv
I0403 18:05:44.586179  6576 net.cpp:425] loss1/conv <- loss1/ave_pool
I0403 18:05:44.586201  6576 net.cpp:399] loss1/conv -> loss1/conv
I0403 18:05:44.587641  6576 net.cpp:141] Setting up loss1/conv
I0403 18:05:44.587672  6576 net.cpp:148] Top shape: 24 128 4 4 (49152)
I0403 18:05:44.587702  6576 net.cpp:156] Memory required for data: 945697824
I0403 18:05:44.587721  6576 layer_factory.hpp:77] Creating layer loss1/relu_conv
I0403 18:05:44.587739  6576 net.cpp:91] Creating Layer loss1/relu_conv
I0403 18:05:44.587755  6576 net.cpp:425] loss1/relu_conv <- loss1/conv
I0403 18:05:44.587775  6576 net.cpp:386] loss1/relu_conv -> loss1/conv (in-place)
I0403 18:05:44.588048  6576 net.cpp:141] Setting up loss1/relu_conv
I0403 18:05:44.588076  6576 net.cpp:148] Top shape: 24 128 4 4 (49152)
I0403 18:05:44.588091  6576 net.cpp:156] Memory required for data: 945894432
I0403 18:05:44.588106  6576 layer_factory.hpp:77] Creating layer loss1/fc
I0403 18:05:44.588130  6576 net.cpp:91] Creating Layer loss1/fc
I0403 18:05:44.588147  6576 net.cpp:425] loss1/fc <- loss1/conv
I0403 18:05:44.588168  6576 net.cpp:399] loss1/fc -> loss1/fc
I0403 18:05:44.605852  6576 net.cpp:141] Setting up loss1/fc
I0403 18:05:44.605887  6576 net.cpp:148] Top shape: 24 1024 (24576)
I0403 18:05:44.605901  6576 net.cpp:156] Memory required for data: 945992736
I0403 18:05:44.605921  6576 layer_factory.hpp:77] Creating layer loss1/relu_fc
I0403 18:05:44.605940  6576 net.cpp:91] Creating Layer loss1/relu_fc
I0403 18:05:44.605957  6576 net.cpp:425] loss1/relu_fc <- loss1/fc
I0403 18:05:44.605974  6576 net.cpp:386] loss1/relu_fc -> loss1/fc (in-place)
I0403 18:05:44.606154  6576 net.cpp:141] Setting up loss1/relu_fc
I0403 18:05:44.606179  6576 net.cpp:148] Top shape: 24 1024 (24576)
I0403 18:05:44.606194  6576 net.cpp:156] Memory required for data: 946091040
I0403 18:05:44.606212  6576 layer_factory.hpp:77] Creating layer loss1/drop_fc
I0403 18:05:44.606246  6576 net.cpp:91] Creating Layer loss1/drop_fc
I0403 18:05:44.606264  6576 net.cpp:425] loss1/drop_fc <- loss1/fc
I0403 18:05:44.606283  6576 net.cpp:386] loss1/drop_fc -> loss1/fc (in-place)
I0403 18:05:44.606334  6576 net.cpp:141] Setting up loss1/drop_fc
I0403 18:05:44.606356  6576 net.cpp:148] Top shape: 24 1024 (24576)
I0403 18:05:44.606370  6576 net.cpp:156] Memory required for data: 946189344
I0403 18:05:44.606385  6576 layer_factory.hpp:77] Creating layer loss1/classifier_plantvillage
I0403 18:05:44.606406  6576 net.cpp:91] Creating Layer loss1/classifier_plantvillage
I0403 18:05:44.606423  6576 net.cpp:425] loss1/classifier_plantvillage <- loss1/fc
I0403 18:05:44.606441  6576 net.cpp:399] loss1/classifier_plantvillage -> loss1/classifier_plantvillage
I0403 18:05:44.607391  6576 net.cpp:141] Setting up loss1/classifier_plantvillage
I0403 18:05:44.607419  6576 net.cpp:148] Top shape: 24 38 (912)
I0403 18:05:44.607434  6576 net.cpp:156] Memory required for data: 946192992
I0403 18:05:44.607453  6576 layer_factory.hpp:77] Creating layer loss1/classifier_plantvillage_loss1/classifier_plantvillage_0_split
I0403 18:05:44.607472  6576 net.cpp:91] Creating Layer loss1/classifier_plantvillage_loss1/classifier_plantvillage_0_split
I0403 18:05:44.607489  6576 net.cpp:425] loss1/classifier_plantvillage_loss1/classifier_plantvillage_0_split <- loss1/classifier_plantvillage
I0403 18:05:44.607507  6576 net.cpp:399] loss1/classifier_plantvillage_loss1/classifier_plantvillage_0_split -> loss1/classifier_plantvillage_loss1/classifier_plantvillage_0_split_0
I0403 18:05:44.607530  6576 net.cpp:399] loss1/classifier_plantvillage_loss1/classifier_plantvillage_0_split -> loss1/classifier_plantvillage_loss1/classifier_plantvillage_0_split_1
I0403 18:05:44.607553  6576 net.cpp:399] loss1/classifier_plantvillage_loss1/classifier_plantvillage_0_split -> loss1/classifier_plantvillage_loss1/classifier_plantvillage_0_split_2
I0403 18:05:44.607617  6576 net.cpp:141] Setting up loss1/classifier_plantvillage_loss1/classifier_plantvillage_0_split
I0403 18:05:44.607640  6576 net.cpp:148] Top shape: 24 38 (912)
I0403 18:05:44.607656  6576 net.cpp:148] Top shape: 24 38 (912)
I0403 18:05:44.607672  6576 net.cpp:148] Top shape: 24 38 (912)
I0403 18:05:44.607686  6576 net.cpp:156] Memory required for data: 946203936
I0403 18:05:44.607702  6576 layer_factory.hpp:77] Creating layer inception_4b/1x1
I0403 18:05:44.607724  6576 net.cpp:91] Creating Layer inception_4b/1x1
I0403 18:05:44.607756  6576 net.cpp:425] inception_4b/1x1 <- inception_4a/output_inception_4a/output_0_split_1
I0403 18:05:44.607776  6576 net.cpp:399] inception_4b/1x1 -> inception_4b/1x1
I0403 18:05:44.609410  6576 net.cpp:141] Setting up inception_4b/1x1
I0403 18:05:44.609438  6576 net.cpp:148] Top shape: 24 160 14 14 (752640)
I0403 18:05:44.609454  6576 net.cpp:156] Memory required for data: 949214496
I0403 18:05:44.609473  6576 layer_factory.hpp:77] Creating layer inception_4b/relu_1x1
I0403 18:05:44.609490  6576 net.cpp:91] Creating Layer inception_4b/relu_1x1
I0403 18:05:44.609506  6576 net.cpp:425] inception_4b/relu_1x1 <- inception_4b/1x1
I0403 18:05:44.609525  6576 net.cpp:386] inception_4b/relu_1x1 -> inception_4b/1x1 (in-place)
I0403 18:05:44.609701  6576 net.cpp:141] Setting up inception_4b/relu_1x1
I0403 18:05:44.609726  6576 net.cpp:148] Top shape: 24 160 14 14 (752640)
I0403 18:05:44.609741  6576 net.cpp:156] Memory required for data: 952225056
I0403 18:05:44.609756  6576 layer_factory.hpp:77] Creating layer inception_4b/3x3_reduce
I0403 18:05:44.609781  6576 net.cpp:91] Creating Layer inception_4b/3x3_reduce
I0403 18:05:44.609799  6576 net.cpp:425] inception_4b/3x3_reduce <- inception_4a/output_inception_4a/output_0_split_2
I0403 18:05:44.609824  6576 net.cpp:399] inception_4b/3x3_reduce -> inception_4b/3x3_reduce
I0403 18:05:44.611150  6576 net.cpp:141] Setting up inception_4b/3x3_reduce
I0403 18:05:44.611178  6576 net.cpp:148] Top shape: 24 112 14 14 (526848)
I0403 18:05:44.611193  6576 net.cpp:156] Memory required for data: 954332448
I0403 18:05:44.611217  6576 layer_factory.hpp:77] Creating layer inception_4b/relu_3x3_reduce
I0403 18:05:44.611238  6576 net.cpp:91] Creating Layer inception_4b/relu_3x3_reduce
I0403 18:05:44.611255  6576 net.cpp:425] inception_4b/relu_3x3_reduce <- inception_4b/3x3_reduce
I0403 18:05:44.611273  6576 net.cpp:386] inception_4b/relu_3x3_reduce -> inception_4b/3x3_reduce (in-place)
I0403 18:05:44.611547  6576 net.cpp:141] Setting up inception_4b/relu_3x3_reduce
I0403 18:05:44.611573  6576 net.cpp:148] Top shape: 24 112 14 14 (526848)
I0403 18:05:44.611588  6576 net.cpp:156] Memory required for data: 956439840
I0403 18:05:44.611603  6576 layer_factory.hpp:77] Creating layer inception_4b/3x3
I0403 18:05:44.611624  6576 net.cpp:91] Creating Layer inception_4b/3x3
I0403 18:05:44.611642  6576 net.cpp:425] inception_4b/3x3 <- inception_4b/3x3_reduce
I0403 18:05:44.611665  6576 net.cpp:399] inception_4b/3x3 -> inception_4b/3x3
I0403 18:05:44.614624  6576 net.cpp:141] Setting up inception_4b/3x3
I0403 18:05:44.614652  6576 net.cpp:148] Top shape: 24 224 14 14 (1053696)
I0403 18:05:44.614667  6576 net.cpp:156] Memory required for data: 960654624
I0403 18:05:44.614684  6576 layer_factory.hpp:77] Creating layer inception_4b/relu_3x3
I0403 18:05:44.614706  6576 net.cpp:91] Creating Layer inception_4b/relu_3x3
I0403 18:05:44.614722  6576 net.cpp:425] inception_4b/relu_3x3 <- inception_4b/3x3
I0403 18:05:44.614739  6576 net.cpp:386] inception_4b/relu_3x3 -> inception_4b/3x3 (in-place)
I0403 18:05:44.614922  6576 net.cpp:141] Setting up inception_4b/relu_3x3
I0403 18:05:44.614945  6576 net.cpp:148] Top shape: 24 224 14 14 (1053696)
I0403 18:05:44.614959  6576 net.cpp:156] Memory required for data: 964869408
I0403 18:05:44.614974  6576 layer_factory.hpp:77] Creating layer inception_4b/5x5_reduce
I0403 18:05:44.614996  6576 net.cpp:91] Creating Layer inception_4b/5x5_reduce
I0403 18:05:44.615015  6576 net.cpp:425] inception_4b/5x5_reduce <- inception_4a/output_inception_4a/output_0_split_3
I0403 18:05:44.615036  6576 net.cpp:399] inception_4b/5x5_reduce -> inception_4b/5x5_reduce
I0403 18:05:44.616101  6576 net.cpp:141] Setting up inception_4b/5x5_reduce
I0403 18:05:44.616127  6576 net.cpp:148] Top shape: 24 24 14 14 (112896)
I0403 18:05:44.616142  6576 net.cpp:156] Memory required for data: 965320992
I0403 18:05:44.616160  6576 layer_factory.hpp:77] Creating layer inception_4b/relu_5x5_reduce
I0403 18:05:44.616178  6576 net.cpp:91] Creating Layer inception_4b/relu_5x5_reduce
I0403 18:05:44.616207  6576 net.cpp:425] inception_4b/relu_5x5_reduce <- inception_4b/5x5_reduce
I0403 18:05:44.616233  6576 net.cpp:386] inception_4b/relu_5x5_reduce -> inception_4b/5x5_reduce (in-place)
I0403 18:05:44.616413  6576 net.cpp:141] Setting up inception_4b/relu_5x5_reduce
I0403 18:05:44.616438  6576 net.cpp:148] Top shape: 24 24 14 14 (112896)
I0403 18:05:44.616452  6576 net.cpp:156] Memory required for data: 965772576
I0403 18:05:44.616467  6576 layer_factory.hpp:77] Creating layer inception_4b/5x5
I0403 18:05:44.616490  6576 net.cpp:91] Creating Layer inception_4b/5x5
I0403 18:05:44.616508  6576 net.cpp:425] inception_4b/5x5 <- inception_4b/5x5_reduce
I0403 18:05:44.616528  6576 net.cpp:399] inception_4b/5x5 -> inception_4b/5x5
I0403 18:05:44.617743  6576 net.cpp:141] Setting up inception_4b/5x5
I0403 18:05:44.617774  6576 net.cpp:148] Top shape: 24 64 14 14 (301056)
I0403 18:05:44.617789  6576 net.cpp:156] Memory required for data: 966976800
I0403 18:05:44.617810  6576 layer_factory.hpp:77] Creating layer inception_4b/relu_5x5
I0403 18:05:44.617828  6576 net.cpp:91] Creating Layer inception_4b/relu_5x5
I0403 18:05:44.617844  6576 net.cpp:425] inception_4b/relu_5x5 <- inception_4b/5x5
I0403 18:05:44.617864  6576 net.cpp:386] inception_4b/relu_5x5 -> inception_4b/5x5 (in-place)
I0403 18:05:44.618150  6576 net.cpp:141] Setting up inception_4b/relu_5x5
I0403 18:05:44.618185  6576 net.cpp:148] Top shape: 24 64 14 14 (301056)
I0403 18:05:44.618207  6576 net.cpp:156] Memory required for data: 968181024
I0403 18:05:44.618229  6576 layer_factory.hpp:77] Creating layer inception_4b/pool
I0403 18:05:44.618248  6576 net.cpp:91] Creating Layer inception_4b/pool
I0403 18:05:44.618264  6576 net.cpp:425] inception_4b/pool <- inception_4a/output_inception_4a/output_0_split_4
I0403 18:05:44.618288  6576 net.cpp:399] inception_4b/pool -> inception_4b/pool
I0403 18:05:44.618351  6576 net.cpp:141] Setting up inception_4b/pool
I0403 18:05:44.618378  6576 net.cpp:148] Top shape: 24 512 14 14 (2408448)
I0403 18:05:44.618393  6576 net.cpp:156] Memory required for data: 977814816
I0403 18:05:44.618410  6576 layer_factory.hpp:77] Creating layer inception_4b/pool_proj
I0403 18:05:44.618432  6576 net.cpp:91] Creating Layer inception_4b/pool_proj
I0403 18:05:44.618448  6576 net.cpp:425] inception_4b/pool_proj <- inception_4b/pool
I0403 18:05:44.618471  6576 net.cpp:399] inception_4b/pool_proj -> inception_4b/pool_proj
I0403 18:05:44.619714  6576 net.cpp:141] Setting up inception_4b/pool_proj
I0403 18:05:44.619742  6576 net.cpp:148] Top shape: 24 64 14 14 (301056)
I0403 18:05:44.619758  6576 net.cpp:156] Memory required for data: 979019040
I0403 18:05:44.619778  6576 layer_factory.hpp:77] Creating layer inception_4b/relu_pool_proj
I0403 18:05:44.619796  6576 net.cpp:91] Creating Layer inception_4b/relu_pool_proj
I0403 18:05:44.619817  6576 net.cpp:425] inception_4b/relu_pool_proj <- inception_4b/pool_proj
I0403 18:05:44.619835  6576 net.cpp:386] inception_4b/relu_pool_proj -> inception_4b/pool_proj (in-place)
I0403 18:05:44.620023  6576 net.cpp:141] Setting up inception_4b/relu_pool_proj
I0403 18:05:44.620048  6576 net.cpp:148] Top shape: 24 64 14 14 (301056)
I0403 18:05:44.620064  6576 net.cpp:156] Memory required for data: 980223264
I0403 18:05:44.620079  6576 layer_factory.hpp:77] Creating layer inception_4b/output
I0403 18:05:44.620096  6576 net.cpp:91] Creating Layer inception_4b/output
I0403 18:05:44.620112  6576 net.cpp:425] inception_4b/output <- inception_4b/1x1
I0403 18:05:44.620132  6576 net.cpp:425] inception_4b/output <- inception_4b/3x3
I0403 18:05:44.620151  6576 net.cpp:425] inception_4b/output <- inception_4b/5x5
I0403 18:05:44.620167  6576 net.cpp:425] inception_4b/output <- inception_4b/pool_proj
I0403 18:05:44.620184  6576 net.cpp:399] inception_4b/output -> inception_4b/output
I0403 18:05:44.620239  6576 net.cpp:141] Setting up inception_4b/output
I0403 18:05:44.620262  6576 net.cpp:148] Top shape: 24 512 14 14 (2408448)
I0403 18:05:44.620278  6576 net.cpp:156] Memory required for data: 989857056
I0403 18:05:44.620309  6576 layer_factory.hpp:77] Creating layer inception_4b/output_inception_4b/output_0_split
I0403 18:05:44.620327  6576 net.cpp:91] Creating Layer inception_4b/output_inception_4b/output_0_split
I0403 18:05:44.620343  6576 net.cpp:425] inception_4b/output_inception_4b/output_0_split <- inception_4b/output
I0403 18:05:44.620364  6576 net.cpp:399] inception_4b/output_inception_4b/output_0_split -> inception_4b/output_inception_4b/output_0_split_0
I0403 18:05:44.620385  6576 net.cpp:399] inception_4b/output_inception_4b/output_0_split -> inception_4b/output_inception_4b/output_0_split_1
I0403 18:05:44.620407  6576 net.cpp:399] inception_4b/output_inception_4b/output_0_split -> inception_4b/output_inception_4b/output_0_split_2
I0403 18:05:44.620429  6576 net.cpp:399] inception_4b/output_inception_4b/output_0_split -> inception_4b/output_inception_4b/output_0_split_3
I0403 18:05:44.620517  6576 net.cpp:141] Setting up inception_4b/output_inception_4b/output_0_split
I0403 18:05:44.620543  6576 net.cpp:148] Top shape: 24 512 14 14 (2408448)
I0403 18:05:44.620561  6576 net.cpp:148] Top shape: 24 512 14 14 (2408448)
I0403 18:05:44.620579  6576 net.cpp:148] Top shape: 24 512 14 14 (2408448)
I0403 18:05:44.620594  6576 net.cpp:148] Top shape: 24 512 14 14 (2408448)
I0403 18:05:44.620609  6576 net.cpp:156] Memory required for data: 1028392224
I0403 18:05:44.620625  6576 layer_factory.hpp:77] Creating layer inception_4c/1x1
I0403 18:05:44.620648  6576 net.cpp:91] Creating Layer inception_4c/1x1
I0403 18:05:44.620666  6576 net.cpp:425] inception_4c/1x1 <- inception_4b/output_inception_4b/output_0_split_0
I0403 18:05:44.620685  6576 net.cpp:399] inception_4c/1x1 -> inception_4c/1x1
I0403 18:05:44.622169  6576 net.cpp:141] Setting up inception_4c/1x1
I0403 18:05:44.622196  6576 net.cpp:148] Top shape: 24 128 14 14 (602112)
I0403 18:05:44.622225  6576 net.cpp:156] Memory required for data: 1030800672
I0403 18:05:44.622246  6576 layer_factory.hpp:77] Creating layer inception_4c/relu_1x1
I0403 18:05:44.622270  6576 net.cpp:91] Creating Layer inception_4c/relu_1x1
I0403 18:05:44.622287  6576 net.cpp:425] inception_4c/relu_1x1 <- inception_4c/1x1
I0403 18:05:44.622305  6576 net.cpp:386] inception_4c/relu_1x1 -> inception_4c/1x1 (in-place)
I0403 18:05:44.622493  6576 net.cpp:141] Setting up inception_4c/relu_1x1
I0403 18:05:44.622521  6576 net.cpp:148] Top shape: 24 128 14 14 (602112)
I0403 18:05:44.622537  6576 net.cpp:156] Memory required for data: 1033209120
I0403 18:05:44.622553  6576 layer_factory.hpp:77] Creating layer inception_4c/3x3_reduce
I0403 18:05:44.622577  6576 net.cpp:91] Creating Layer inception_4c/3x3_reduce
I0403 18:05:44.622596  6576 net.cpp:425] inception_4c/3x3_reduce <- inception_4b/output_inception_4b/output_0_split_1
I0403 18:05:44.622616  6576 net.cpp:399] inception_4c/3x3_reduce -> inception_4c/3x3_reduce
I0403 18:05:44.624656  6576 net.cpp:141] Setting up inception_4c/3x3_reduce
I0403 18:05:44.624688  6576 net.cpp:148] Top shape: 24 128 14 14 (602112)
I0403 18:05:44.624706  6576 net.cpp:156] Memory required for data: 1035617568
I0403 18:05:44.624725  6576 layer_factory.hpp:77] Creating layer inception_4c/relu_3x3_reduce
I0403 18:05:44.624743  6576 net.cpp:91] Creating Layer inception_4c/relu_3x3_reduce
I0403 18:05:44.624759  6576 net.cpp:425] inception_4c/relu_3x3_reduce <- inception_4c/3x3_reduce
I0403 18:05:44.624780  6576 net.cpp:386] inception_4c/relu_3x3_reduce -> inception_4c/3x3_reduce (in-place)
I0403 18:05:44.625082  6576 net.cpp:141] Setting up inception_4c/relu_3x3_reduce
I0403 18:05:44.625113  6576 net.cpp:148] Top shape: 24 128 14 14 (602112)
I0403 18:05:44.625128  6576 net.cpp:156] Memory required for data: 1038026016
I0403 18:05:44.625144  6576 layer_factory.hpp:77] Creating layer inception_4c/3x3
I0403 18:05:44.625167  6576 net.cpp:91] Creating Layer inception_4c/3x3
I0403 18:05:44.625186  6576 net.cpp:425] inception_4c/3x3 <- inception_4c/3x3_reduce
I0403 18:05:44.625213  6576 net.cpp:399] inception_4c/3x3 -> inception_4c/3x3
I0403 18:05:44.628993  6576 net.cpp:141] Setting up inception_4c/3x3
I0403 18:05:44.629036  6576 net.cpp:148] Top shape: 24 256 14 14 (1204224)
I0403 18:05:44.629052  6576 net.cpp:156] Memory required for data: 1042842912
I0403 18:05:44.629087  6576 layer_factory.hpp:77] Creating layer inception_4c/relu_3x3
I0403 18:05:44.629108  6576 net.cpp:91] Creating Layer inception_4c/relu_3x3
I0403 18:05:44.629125  6576 net.cpp:425] inception_4c/relu_3x3 <- inception_4c/3x3
I0403 18:05:44.629148  6576 net.cpp:386] inception_4c/relu_3x3 -> inception_4c/3x3 (in-place)
I0403 18:05:44.629341  6576 net.cpp:141] Setting up inception_4c/relu_3x3
I0403 18:05:44.629369  6576 net.cpp:148] Top shape: 24 256 14 14 (1204224)
I0403 18:05:44.629382  6576 net.cpp:156] Memory required for data: 1047659808
I0403 18:05:44.629397  6576 layer_factory.hpp:77] Creating layer inception_4c/5x5_reduce
I0403 18:05:44.629422  6576 net.cpp:91] Creating Layer inception_4c/5x5_reduce
I0403 18:05:44.629441  6576 net.cpp:425] inception_4c/5x5_reduce <- inception_4b/output_inception_4b/output_0_split_2
I0403 18:05:44.629468  6576 net.cpp:399] inception_4c/5x5_reduce -> inception_4c/5x5_reduce
I0403 18:05:44.630600  6576 net.cpp:141] Setting up inception_4c/5x5_reduce
I0403 18:05:44.630630  6576 net.cpp:148] Top shape: 24 24 14 14 (112896)
I0403 18:05:44.630646  6576 net.cpp:156] Memory required for data: 1048111392
I0403 18:05:44.630666  6576 layer_factory.hpp:77] Creating layer inception_4c/relu_5x5_reduce
I0403 18:05:44.630684  6576 net.cpp:91] Creating Layer inception_4c/relu_5x5_reduce
I0403 18:05:44.630702  6576 net.cpp:425] inception_4c/relu_5x5_reduce <- inception_4c/5x5_reduce
I0403 18:05:44.630722  6576 net.cpp:386] inception_4c/relu_5x5_reduce -> inception_4c/5x5_reduce (in-place)
I0403 18:05:44.630913  6576 net.cpp:141] Setting up inception_4c/relu_5x5_reduce
I0403 18:05:44.630939  6576 net.cpp:148] Top shape: 24 24 14 14 (112896)
I0403 18:05:44.630955  6576 net.cpp:156] Memory required for data: 1048562976
I0403 18:05:44.630971  6576 layer_factory.hpp:77] Creating layer inception_4c/5x5
I0403 18:05:44.630995  6576 net.cpp:91] Creating Layer inception_4c/5x5
I0403 18:05:44.631013  6576 net.cpp:425] inception_4c/5x5 <- inception_4c/5x5_reduce
I0403 18:05:44.631036  6576 net.cpp:399] inception_4c/5x5 -> inception_4c/5x5
I0403 18:05:44.632334  6576 net.cpp:141] Setting up inception_4c/5x5
I0403 18:05:44.632364  6576 net.cpp:148] Top shape: 24 64 14 14 (301056)
I0403 18:05:44.632380  6576 net.cpp:156] Memory required for data: 1049767200
I0403 18:05:44.632400  6576 layer_factory.hpp:77] Creating layer inception_4c/relu_5x5
I0403 18:05:44.632421  6576 net.cpp:91] Creating Layer inception_4c/relu_5x5
I0403 18:05:44.632438  6576 net.cpp:425] inception_4c/relu_5x5 <- inception_4c/5x5
I0403 18:05:44.632457  6576 net.cpp:386] inception_4c/relu_5x5 -> inception_4c/5x5 (in-place)
I0403 18:05:44.632755  6576 net.cpp:141] Setting up inception_4c/relu_5x5
I0403 18:05:44.632782  6576 net.cpp:148] Top shape: 24 64 14 14 (301056)
I0403 18:05:44.632799  6576 net.cpp:156] Memory required for data: 1050971424
I0403 18:05:44.632814  6576 layer_factory.hpp:77] Creating layer inception_4c/pool
I0403 18:05:44.632836  6576 net.cpp:91] Creating Layer inception_4c/pool
I0403 18:05:44.632854  6576 net.cpp:425] inception_4c/pool <- inception_4b/output_inception_4b/output_0_split_3
I0403 18:05:44.632874  6576 net.cpp:399] inception_4c/pool -> inception_4c/pool
I0403 18:05:44.632944  6576 net.cpp:141] Setting up inception_4c/pool
I0403 18:05:44.632968  6576 net.cpp:148] Top shape: 24 512 14 14 (2408448)
I0403 18:05:44.632983  6576 net.cpp:156] Memory required for data: 1060605216
I0403 18:05:44.632999  6576 layer_factory.hpp:77] Creating layer inception_4c/pool_proj
I0403 18:05:44.633023  6576 net.cpp:91] Creating Layer inception_4c/pool_proj
I0403 18:05:44.633040  6576 net.cpp:425] inception_4c/pool_proj <- inception_4c/pool
I0403 18:05:44.633069  6576 net.cpp:399] inception_4c/pool_proj -> inception_4c/pool_proj
I0403 18:05:44.634338  6576 net.cpp:141] Setting up inception_4c/pool_proj
I0403 18:05:44.634368  6576 net.cpp:148] Top shape: 24 64 14 14 (301056)
I0403 18:05:44.634398  6576 net.cpp:156] Memory required for data: 1061809440
I0403 18:05:44.634419  6576 layer_factory.hpp:77] Creating layer inception_4c/relu_pool_proj
I0403 18:05:44.634438  6576 net.cpp:91] Creating Layer inception_4c/relu_pool_proj
I0403 18:05:44.634454  6576 net.cpp:425] inception_4c/relu_pool_proj <- inception_4c/pool_proj
I0403 18:05:44.634474  6576 net.cpp:386] inception_4c/relu_pool_proj -> inception_4c/pool_proj (in-place)
I0403 18:05:44.634665  6576 net.cpp:141] Setting up inception_4c/relu_pool_proj
I0403 18:05:44.634691  6576 net.cpp:148] Top shape: 24 64 14 14 (301056)
I0403 18:05:44.634706  6576 net.cpp:156] Memory required for data: 1063013664
I0403 18:05:44.634721  6576 layer_factory.hpp:77] Creating layer inception_4c/output
I0403 18:05:44.634740  6576 net.cpp:91] Creating Layer inception_4c/output
I0403 18:05:44.634757  6576 net.cpp:425] inception_4c/output <- inception_4c/1x1
I0403 18:05:44.634774  6576 net.cpp:425] inception_4c/output <- inception_4c/3x3
I0403 18:05:44.634790  6576 net.cpp:425] inception_4c/output <- inception_4c/5x5
I0403 18:05:44.634807  6576 net.cpp:425] inception_4c/output <- inception_4c/pool_proj
I0403 18:05:44.634829  6576 net.cpp:399] inception_4c/output -> inception_4c/output
I0403 18:05:44.634879  6576 net.cpp:141] Setting up inception_4c/output
I0403 18:05:44.634905  6576 net.cpp:148] Top shape: 24 512 14 14 (2408448)
I0403 18:05:44.634922  6576 net.cpp:156] Memory required for data: 1072647456
I0403 18:05:44.634938  6576 layer_factory.hpp:77] Creating layer inception_4c/output_inception_4c/output_0_split
I0403 18:05:44.634956  6576 net.cpp:91] Creating Layer inception_4c/output_inception_4c/output_0_split
I0403 18:05:44.634971  6576 net.cpp:425] inception_4c/output_inception_4c/output_0_split <- inception_4c/output
I0403 18:05:44.634992  6576 net.cpp:399] inception_4c/output_inception_4c/output_0_split -> inception_4c/output_inception_4c/output_0_split_0
I0403 18:05:44.635015  6576 net.cpp:399] inception_4c/output_inception_4c/output_0_split -> inception_4c/output_inception_4c/output_0_split_1
I0403 18:05:44.635037  6576 net.cpp:399] inception_4c/output_inception_4c/output_0_split -> inception_4c/output_inception_4c/output_0_split_2
I0403 18:05:44.635057  6576 net.cpp:399] inception_4c/output_inception_4c/output_0_split -> inception_4c/output_inception_4c/output_0_split_3
I0403 18:05:44.635149  6576 net.cpp:141] Setting up inception_4c/output_inception_4c/output_0_split
I0403 18:05:44.635174  6576 net.cpp:148] Top shape: 24 512 14 14 (2408448)
I0403 18:05:44.635191  6576 net.cpp:148] Top shape: 24 512 14 14 (2408448)
I0403 18:05:44.635215  6576 net.cpp:148] Top shape: 24 512 14 14 (2408448)
I0403 18:05:44.635233  6576 net.cpp:148] Top shape: 24 512 14 14 (2408448)
I0403 18:05:44.635247  6576 net.cpp:156] Memory required for data: 1111182624
I0403 18:05:44.635262  6576 layer_factory.hpp:77] Creating layer inception_4d/1x1
I0403 18:05:44.635287  6576 net.cpp:91] Creating Layer inception_4d/1x1
I0403 18:05:44.635305  6576 net.cpp:425] inception_4d/1x1 <- inception_4c/output_inception_4c/output_0_split_0
I0403 18:05:44.635324  6576 net.cpp:399] inception_4d/1x1 -> inception_4d/1x1
I0403 18:05:44.636765  6576 net.cpp:141] Setting up inception_4d/1x1
I0403 18:05:44.636793  6576 net.cpp:148] Top shape: 24 112 14 14 (526848)
I0403 18:05:44.636808  6576 net.cpp:156] Memory required for data: 1113290016
I0403 18:05:44.636827  6576 layer_factory.hpp:77] Creating layer inception_4d/relu_1x1
I0403 18:05:44.636848  6576 net.cpp:91] Creating Layer inception_4d/relu_1x1
I0403 18:05:44.636865  6576 net.cpp:425] inception_4d/relu_1x1 <- inception_4d/1x1
I0403 18:05:44.636883  6576 net.cpp:386] inception_4d/relu_1x1 -> inception_4d/1x1 (in-place)
I0403 18:05:44.637071  6576 net.cpp:141] Setting up inception_4d/relu_1x1
I0403 18:05:44.637096  6576 net.cpp:148] Top shape: 24 112 14 14 (526848)
I0403 18:05:44.637111  6576 net.cpp:156] Memory required for data: 1115397408
I0403 18:05:44.637127  6576 layer_factory.hpp:77] Creating layer inception_4d/3x3_reduce
I0403 18:05:44.637166  6576 net.cpp:91] Creating Layer inception_4d/3x3_reduce
I0403 18:05:44.637186  6576 net.cpp:425] inception_4d/3x3_reduce <- inception_4c/output_inception_4c/output_0_split_1
I0403 18:05:44.637217  6576 net.cpp:399] inception_4d/3x3_reduce -> inception_4d/3x3_reduce
I0403 18:05:44.638741  6576 net.cpp:141] Setting up inception_4d/3x3_reduce
I0403 18:05:44.638769  6576 net.cpp:148] Top shape: 24 144 14 14 (677376)
I0403 18:05:44.638785  6576 net.cpp:156] Memory required for data: 1118106912
I0403 18:05:44.638804  6576 layer_factory.hpp:77] Creating layer inception_4d/relu_3x3_reduce
I0403 18:05:44.638825  6576 net.cpp:91] Creating Layer inception_4d/relu_3x3_reduce
I0403 18:05:44.638842  6576 net.cpp:425] inception_4d/relu_3x3_reduce <- inception_4d/3x3_reduce
I0403 18:05:44.638860  6576 net.cpp:386] inception_4d/relu_3x3_reduce -> inception_4d/3x3_reduce (in-place)
I0403 18:05:44.639152  6576 net.cpp:141] Setting up inception_4d/relu_3x3_reduce
I0403 18:05:44.639178  6576 net.cpp:148] Top shape: 24 144 14 14 (677376)
I0403 18:05:44.639194  6576 net.cpp:156] Memory required for data: 1120816416
I0403 18:05:44.639215  6576 layer_factory.hpp:77] Creating layer inception_4d/3x3
I0403 18:05:44.639240  6576 net.cpp:91] Creating Layer inception_4d/3x3
I0403 18:05:44.639258  6576 net.cpp:425] inception_4d/3x3 <- inception_4d/3x3_reduce
I0403 18:05:44.639281  6576 net.cpp:399] inception_4d/3x3 -> inception_4d/3x3
I0403 18:05:44.643692  6576 net.cpp:141] Setting up inception_4d/3x3
I0403 18:05:44.643724  6576 net.cpp:148] Top shape: 24 288 14 14 (1354752)
I0403 18:05:44.643740  6576 net.cpp:156] Memory required for data: 1126235424
I0403 18:05:44.643760  6576 layer_factory.hpp:77] Creating layer inception_4d/relu_3x3
I0403 18:05:44.643777  6576 net.cpp:91] Creating Layer inception_4d/relu_3x3
I0403 18:05:44.643795  6576 net.cpp:425] inception_4d/relu_3x3 <- inception_4d/3x3
I0403 18:05:44.643812  6576 net.cpp:386] inception_4d/relu_3x3 -> inception_4d/3x3 (in-place)
I0403 18:05:44.644001  6576 net.cpp:141] Setting up inception_4d/relu_3x3
I0403 18:05:44.644026  6576 net.cpp:148] Top shape: 24 288 14 14 (1354752)
I0403 18:05:44.644040  6576 net.cpp:156] Memory required for data: 1131654432
I0403 18:05:44.644055  6576 layer_factory.hpp:77] Creating layer inception_4d/5x5_reduce
I0403 18:05:44.644079  6576 net.cpp:91] Creating Layer inception_4d/5x5_reduce
I0403 18:05:44.644096  6576 net.cpp:425] inception_4d/5x5_reduce <- inception_4c/output_inception_4c/output_0_split_2
I0403 18:05:44.644119  6576 net.cpp:399] inception_4d/5x5_reduce -> inception_4d/5x5_reduce
I0403 18:05:44.645283  6576 net.cpp:141] Setting up inception_4d/5x5_reduce
I0403 18:05:44.645313  6576 net.cpp:148] Top shape: 24 32 14 14 (150528)
I0403 18:05:44.645329  6576 net.cpp:156] Memory required for data: 1132256544
I0403 18:05:44.645349  6576 layer_factory.hpp:77] Creating layer inception_4d/relu_5x5_reduce
I0403 18:05:44.645365  6576 net.cpp:91] Creating Layer inception_4d/relu_5x5_reduce
I0403 18:05:44.645382  6576 net.cpp:425] inception_4d/relu_5x5_reduce <- inception_4d/5x5_reduce
I0403 18:05:44.645403  6576 net.cpp:386] inception_4d/relu_5x5_reduce -> inception_4d/5x5_reduce (in-place)
I0403 18:05:44.645596  6576 net.cpp:141] Setting up inception_4d/relu_5x5_reduce
I0403 18:05:44.645620  6576 net.cpp:148] Top shape: 24 32 14 14 (150528)
I0403 18:05:44.645635  6576 net.cpp:156] Memory required for data: 1132858656
I0403 18:05:44.645649  6576 layer_factory.hpp:77] Creating layer inception_4d/5x5
I0403 18:05:44.645673  6576 net.cpp:91] Creating Layer inception_4d/5x5
I0403 18:05:44.645691  6576 net.cpp:425] inception_4d/5x5 <- inception_4d/5x5_reduce
I0403 18:05:44.645712  6576 net.cpp:399] inception_4d/5x5 -> inception_4d/5x5
I0403 18:05:44.647189  6576 net.cpp:141] Setting up inception_4d/5x5
I0403 18:05:44.647222  6576 net.cpp:148] Top shape: 24 64 14 14 (301056)
I0403 18:05:44.647239  6576 net.cpp:156] Memory required for data: 1134062880
I0403 18:05:44.647259  6576 layer_factory.hpp:77] Creating layer inception_4d/relu_5x5
I0403 18:05:44.647292  6576 net.cpp:91] Creating Layer inception_4d/relu_5x5
I0403 18:05:44.647310  6576 net.cpp:425] inception_4d/relu_5x5 <- inception_4d/5x5
I0403 18:05:44.647330  6576 net.cpp:386] inception_4d/relu_5x5 -> inception_4d/5x5 (in-place)
I0403 18:05:44.647631  6576 net.cpp:141] Setting up inception_4d/relu_5x5
I0403 18:05:44.647657  6576 net.cpp:148] Top shape: 24 64 14 14 (301056)
I0403 18:05:44.647672  6576 net.cpp:156] Memory required for data: 1135267104
I0403 18:05:44.647687  6576 layer_factory.hpp:77] Creating layer inception_4d/pool
I0403 18:05:44.647706  6576 net.cpp:91] Creating Layer inception_4d/pool
I0403 18:05:44.647723  6576 net.cpp:425] inception_4d/pool <- inception_4c/output_inception_4c/output_0_split_3
I0403 18:05:44.647744  6576 net.cpp:399] inception_4d/pool -> inception_4d/pool
I0403 18:05:44.647812  6576 net.cpp:141] Setting up inception_4d/pool
I0403 18:05:44.647836  6576 net.cpp:148] Top shape: 24 512 14 14 (2408448)
I0403 18:05:44.647850  6576 net.cpp:156] Memory required for data: 1144900896
I0403 18:05:44.647866  6576 layer_factory.hpp:77] Creating layer inception_4d/pool_proj
I0403 18:05:44.647891  6576 net.cpp:91] Creating Layer inception_4d/pool_proj
I0403 18:05:44.647907  6576 net.cpp:425] inception_4d/pool_proj <- inception_4d/pool
I0403 18:05:44.647927  6576 net.cpp:399] inception_4d/pool_proj -> inception_4d/pool_proj
I0403 18:05:44.649765  6576 net.cpp:141] Setting up inception_4d/pool_proj
I0403 18:05:44.649797  6576 net.cpp:148] Top shape: 24 64 14 14 (301056)
I0403 18:05:44.649813  6576 net.cpp:156] Memory required for data: 1146105120
I0403 18:05:44.649832  6576 layer_factory.hpp:77] Creating layer inception_4d/relu_pool_proj
I0403 18:05:44.649850  6576 net.cpp:91] Creating Layer inception_4d/relu_pool_proj
I0403 18:05:44.649866  6576 net.cpp:425] inception_4d/relu_pool_proj <- inception_4d/pool_proj
I0403 18:05:44.649884  6576 net.cpp:386] inception_4d/relu_pool_proj -> inception_4d/pool_proj (in-place)
I0403 18:05:44.650074  6576 net.cpp:141] Setting up inception_4d/relu_pool_proj
I0403 18:05:44.650099  6576 net.cpp:148] Top shape: 24 64 14 14 (301056)
I0403 18:05:44.650113  6576 net.cpp:156] Memory required for data: 1147309344
I0403 18:05:44.650130  6576 layer_factory.hpp:77] Creating layer inception_4d/output
I0403 18:05:44.650148  6576 net.cpp:91] Creating Layer inception_4d/output
I0403 18:05:44.650164  6576 net.cpp:425] inception_4d/output <- inception_4d/1x1
I0403 18:05:44.650182  6576 net.cpp:425] inception_4d/output <- inception_4d/3x3
I0403 18:05:44.650197  6576 net.cpp:425] inception_4d/output <- inception_4d/5x5
I0403 18:05:44.650219  6576 net.cpp:425] inception_4d/output <- inception_4d/pool_proj
I0403 18:05:44.650240  6576 net.cpp:399] inception_4d/output -> inception_4d/output
I0403 18:05:44.650288  6576 net.cpp:141] Setting up inception_4d/output
I0403 18:05:44.650315  6576 net.cpp:148] Top shape: 24 528 14 14 (2483712)
I0403 18:05:44.650329  6576 net.cpp:156] Memory required for data: 1157244192
I0403 18:05:44.650344  6576 layer_factory.hpp:77] Creating layer inception_4d/output_inception_4d/output_0_split
I0403 18:05:44.650363  6576 net.cpp:91] Creating Layer inception_4d/output_inception_4d/output_0_split
I0403 18:05:44.650379  6576 net.cpp:425] inception_4d/output_inception_4d/output_0_split <- inception_4d/output
I0403 18:05:44.650400  6576 net.cpp:399] inception_4d/output_inception_4d/output_0_split -> inception_4d/output_inception_4d/output_0_split_0
I0403 18:05:44.650423  6576 net.cpp:399] inception_4d/output_inception_4d/output_0_split -> inception_4d/output_inception_4d/output_0_split_1
I0403 18:05:44.650444  6576 net.cpp:399] inception_4d/output_inception_4d/output_0_split -> inception_4d/output_inception_4d/output_0_split_2
I0403 18:05:44.650463  6576 net.cpp:399] inception_4d/output_inception_4d/output_0_split -> inception_4d/output_inception_4d/output_0_split_3
I0403 18:05:44.650485  6576 net.cpp:399] inception_4d/output_inception_4d/output_0_split -> inception_4d/output_inception_4d/output_0_split_4
I0403 18:05:44.650586  6576 net.cpp:141] Setting up inception_4d/output_inception_4d/output_0_split
I0403 18:05:44.650622  6576 net.cpp:148] Top shape: 24 528 14 14 (2483712)
I0403 18:05:44.650640  6576 net.cpp:148] Top shape: 24 528 14 14 (2483712)
I0403 18:05:44.650655  6576 net.cpp:148] Top shape: 24 528 14 14 (2483712)
I0403 18:05:44.650671  6576 net.cpp:148] Top shape: 24 528 14 14 (2483712)
I0403 18:05:44.650687  6576 net.cpp:148] Top shape: 24 528 14 14 (2483712)
I0403 18:05:44.650701  6576 net.cpp:156] Memory required for data: 1206918432
I0403 18:05:44.650717  6576 layer_factory.hpp:77] Creating layer loss2/ave_pool
I0403 18:05:44.650738  6576 net.cpp:91] Creating Layer loss2/ave_pool
I0403 18:05:44.650754  6576 net.cpp:425] loss2/ave_pool <- inception_4d/output_inception_4d/output_0_split_0
I0403 18:05:44.650774  6576 net.cpp:399] loss2/ave_pool -> loss2/ave_pool
I0403 18:05:44.651085  6576 net.cpp:141] Setting up loss2/ave_pool
I0403 18:05:44.651115  6576 net.cpp:148] Top shape: 24 528 4 4 (202752)
I0403 18:05:44.651131  6576 net.cpp:156] Memory required for data: 1207729440
I0403 18:05:44.651146  6576 layer_factory.hpp:77] Creating layer loss2/conv
I0403 18:05:44.651170  6576 net.cpp:91] Creating Layer loss2/conv
I0403 18:05:44.651187  6576 net.cpp:425] loss2/conv <- loss2/ave_pool
I0403 18:05:44.651206  6576 net.cpp:399] loss2/conv -> loss2/conv
I0403 18:05:44.653264  6576 net.cpp:141] Setting up loss2/conv
I0403 18:05:44.653293  6576 net.cpp:148] Top shape: 24 128 4 4 (49152)
I0403 18:05:44.653311  6576 net.cpp:156] Memory required for data: 1207926048
I0403 18:05:44.653329  6576 layer_factory.hpp:77] Creating layer loss2/relu_conv
I0403 18:05:44.653350  6576 net.cpp:91] Creating Layer loss2/relu_conv
I0403 18:05:44.653368  6576 net.cpp:425] loss2/relu_conv <- loss2/conv
I0403 18:05:44.653388  6576 net.cpp:386] loss2/relu_conv -> loss2/conv (in-place)
I0403 18:05:44.653681  6576 net.cpp:141] Setting up loss2/relu_conv
I0403 18:05:44.653709  6576 net.cpp:148] Top shape: 24 128 4 4 (49152)
I0403 18:05:44.653725  6576 net.cpp:156] Memory required for data: 1208122656
I0403 18:05:44.653741  6576 layer_factory.hpp:77] Creating layer loss2/fc
I0403 18:05:44.653764  6576 net.cpp:91] Creating Layer loss2/fc
I0403 18:05:44.653782  6576 net.cpp:425] loss2/fc <- loss2/conv
I0403 18:05:44.653801  6576 net.cpp:399] loss2/fc -> loss2/fc
I0403 18:05:44.672905  6576 net.cpp:141] Setting up loss2/fc
I0403 18:05:44.672971  6576 net.cpp:148] Top shape: 24 1024 (24576)
I0403 18:05:44.672986  6576 net.cpp:156] Memory required for data: 1208220960
I0403 18:05:44.673007  6576 layer_factory.hpp:77] Creating layer loss2/relu_fc
I0403 18:05:44.673025  6576 net.cpp:91] Creating Layer loss2/relu_fc
I0403 18:05:44.673043  6576 net.cpp:425] loss2/relu_fc <- loss2/fc
I0403 18:05:44.673064  6576 net.cpp:386] loss2/relu_fc -> loss2/fc (in-place)
I0403 18:05:44.673410  6576 net.cpp:141] Setting up loss2/relu_fc
I0403 18:05:44.673439  6576 net.cpp:148] Top shape: 24 1024 (24576)
I0403 18:05:44.673454  6576 net.cpp:156] Memory required for data: 1208319264
I0403 18:05:44.673470  6576 layer_factory.hpp:77] Creating layer loss2/drop_fc
I0403 18:05:44.673490  6576 net.cpp:91] Creating Layer loss2/drop_fc
I0403 18:05:44.673504  6576 net.cpp:425] loss2/drop_fc <- loss2/fc
I0403 18:05:44.673524  6576 net.cpp:386] loss2/drop_fc -> loss2/fc (in-place)
I0403 18:05:44.673576  6576 net.cpp:141] Setting up loss2/drop_fc
I0403 18:05:44.673599  6576 net.cpp:148] Top shape: 24 1024 (24576)
I0403 18:05:44.673614  6576 net.cpp:156] Memory required for data: 1208417568
I0403 18:05:44.673629  6576 layer_factory.hpp:77] Creating layer loss2/classifier_plantvillage
I0403 18:05:44.673652  6576 net.cpp:91] Creating Layer loss2/classifier_plantvillage
I0403 18:05:44.673669  6576 net.cpp:425] loss2/classifier_plantvillage <- loss2/fc
I0403 18:05:44.673691  6576 net.cpp:399] loss2/classifier_plantvillage -> loss2/classifier_plantvillage
I0403 18:05:44.674100  6576 net.cpp:141] Setting up loss2/classifier_plantvillage
I0403 18:05:44.674125  6576 net.cpp:148] Top shape: 24 38 (912)
I0403 18:05:44.674165  6576 net.cpp:156] Memory required for data: 1208421216
I0403 18:05:44.674185  6576 layer_factory.hpp:77] Creating layer loss2/classifier_plantvillage_loss2/classifier_plantvillage_0_split
I0403 18:05:44.674206  6576 net.cpp:91] Creating Layer loss2/classifier_plantvillage_loss2/classifier_plantvillage_0_split
I0403 18:05:44.674228  6576 net.cpp:425] loss2/classifier_plantvillage_loss2/classifier_plantvillage_0_split <- loss2/classifier_plantvillage
I0403 18:05:44.674247  6576 net.cpp:399] loss2/classifier_plantvillage_loss2/classifier_plantvillage_0_split -> loss2/classifier_plantvillage_loss2/classifier_plantvillage_0_split_0
I0403 18:05:44.674268  6576 net.cpp:399] loss2/classifier_plantvillage_loss2/classifier_plantvillage_0_split -> loss2/classifier_plantvillage_loss2/classifier_plantvillage_0_split_1
I0403 18:05:44.674289  6576 net.cpp:399] loss2/classifier_plantvillage_loss2/classifier_plantvillage_0_split -> loss2/classifier_plantvillage_loss2/classifier_plantvillage_0_split_2
I0403 18:05:44.674367  6576 net.cpp:141] Setting up loss2/classifier_plantvillage_loss2/classifier_plantvillage_0_split
I0403 18:05:44.674391  6576 net.cpp:148] Top shape: 24 38 (912)
I0403 18:05:44.674407  6576 net.cpp:148] Top shape: 24 38 (912)
I0403 18:05:44.674422  6576 net.cpp:148] Top shape: 24 38 (912)
I0403 18:05:44.674435  6576 net.cpp:156] Memory required for data: 1208432160
I0403 18:05:44.674451  6576 layer_factory.hpp:77] Creating layer inception_4e/1x1
I0403 18:05:44.674471  6576 net.cpp:91] Creating Layer inception_4e/1x1
I0403 18:05:44.674489  6576 net.cpp:425] inception_4e/1x1 <- inception_4d/output_inception_4d/output_0_split_1
I0403 18:05:44.674510  6576 net.cpp:399] inception_4e/1x1 -> inception_4e/1x1
I0403 18:05:44.676363  6576 net.cpp:141] Setting up inception_4e/1x1
I0403 18:05:44.676391  6576 net.cpp:148] Top shape: 24 256 14 14 (1204224)
I0403 18:05:44.676408  6576 net.cpp:156] Memory required for data: 1213249056
I0403 18:05:44.676426  6576 layer_factory.hpp:77] Creating layer inception_4e/relu_1x1
I0403 18:05:44.676446  6576 net.cpp:91] Creating Layer inception_4e/relu_1x1
I0403 18:05:44.676462  6576 net.cpp:425] inception_4e/relu_1x1 <- inception_4e/1x1
I0403 18:05:44.676481  6576 net.cpp:386] inception_4e/relu_1x1 -> inception_4e/1x1 (in-place)
I0403 18:05:44.676780  6576 net.cpp:141] Setting up inception_4e/relu_1x1
I0403 18:05:44.676806  6576 net.cpp:148] Top shape: 24 256 14 14 (1204224)
I0403 18:05:44.676821  6576 net.cpp:156] Memory required for data: 1218065952
I0403 18:05:44.676836  6576 layer_factory.hpp:77] Creating layer inception_4e/3x3_reduce
I0403 18:05:44.676859  6576 net.cpp:91] Creating Layer inception_4e/3x3_reduce
I0403 18:05:44.676877  6576 net.cpp:425] inception_4e/3x3_reduce <- inception_4d/output_inception_4d/output_0_split_2
I0403 18:05:44.676898  6576 net.cpp:399] inception_4e/3x3_reduce -> inception_4e/3x3_reduce
I0403 18:05:44.679044  6576 net.cpp:141] Setting up inception_4e/3x3_reduce
I0403 18:05:44.679072  6576 net.cpp:148] Top shape: 24 160 14 14 (752640)
I0403 18:05:44.679087  6576 net.cpp:156] Memory required for data: 1221076512
I0403 18:05:44.679107  6576 layer_factory.hpp:77] Creating layer inception_4e/relu_3x3_reduce
I0403 18:05:44.679128  6576 net.cpp:91] Creating Layer inception_4e/relu_3x3_reduce
I0403 18:05:44.679146  6576 net.cpp:425] inception_4e/relu_3x3_reduce <- inception_4e/3x3_reduce
I0403 18:05:44.679163  6576 net.cpp:386] inception_4e/relu_3x3_reduce -> inception_4e/3x3_reduce (in-place)
I0403 18:05:44.679354  6576 net.cpp:141] Setting up inception_4e/relu_3x3_reduce
I0403 18:05:44.679379  6576 net.cpp:148] Top shape: 24 160 14 14 (752640)
I0403 18:05:44.679395  6576 net.cpp:156] Memory required for data: 1224087072
I0403 18:05:44.679410  6576 layer_factory.hpp:77] Creating layer inception_4e/3x3
I0403 18:05:44.679432  6576 net.cpp:91] Creating Layer inception_4e/3x3
I0403 18:05:44.679450  6576 net.cpp:425] inception_4e/3x3 <- inception_4e/3x3_reduce
I0403 18:05:44.679472  6576 net.cpp:399] inception_4e/3x3 -> inception_4e/3x3
I0403 18:05:44.684520  6576 net.cpp:141] Setting up inception_4e/3x3
I0403 18:05:44.684559  6576 net.cpp:148] Top shape: 24 320 14 14 (1505280)
I0403 18:05:44.684576  6576 net.cpp:156] Memory required for data: 1230108192
I0403 18:05:44.684594  6576 layer_factory.hpp:77] Creating layer inception_4e/relu_3x3
I0403 18:05:44.684614  6576 net.cpp:91] Creating Layer inception_4e/relu_3x3
I0403 18:05:44.684631  6576 net.cpp:425] inception_4e/relu_3x3 <- inception_4e/3x3
I0403 18:05:44.684649  6576 net.cpp:386] inception_4e/relu_3x3 -> inception_4e/3x3 (in-place)
I0403 18:05:44.684948  6576 net.cpp:141] Setting up inception_4e/relu_3x3
I0403 18:05:44.684976  6576 net.cpp:148] Top shape: 24 320 14 14 (1505280)
I0403 18:05:44.684993  6576 net.cpp:156] Memory required for data: 1236129312
I0403 18:05:44.685008  6576 layer_factory.hpp:77] Creating layer inception_4e/5x5_reduce
I0403 18:05:44.685031  6576 net.cpp:91] Creating Layer inception_4e/5x5_reduce
I0403 18:05:44.685050  6576 net.cpp:425] inception_4e/5x5_reduce <- inception_4d/output_inception_4d/output_0_split_3
I0403 18:05:44.685070  6576 net.cpp:399] inception_4e/5x5_reduce -> inception_4e/5x5_reduce
I0403 18:05:44.686149  6576 net.cpp:141] Setting up inception_4e/5x5_reduce
I0403 18:05:44.686177  6576 net.cpp:148] Top shape: 24 32 14 14 (150528)
I0403 18:05:44.686192  6576 net.cpp:156] Memory required for data: 1236731424
I0403 18:05:44.686215  6576 layer_factory.hpp:77] Creating layer inception_4e/relu_5x5_reduce
I0403 18:05:44.686235  6576 net.cpp:91] Creating Layer inception_4e/relu_5x5_reduce
I0403 18:05:44.686252  6576 net.cpp:425] inception_4e/relu_5x5_reduce <- inception_4e/5x5_reduce
I0403 18:05:44.686272  6576 net.cpp:386] inception_4e/relu_5x5_reduce -> inception_4e/5x5_reduce (in-place)
I0403 18:05:44.686574  6576 net.cpp:141] Setting up inception_4e/relu_5x5_reduce
I0403 18:05:44.686600  6576 net.cpp:148] Top shape: 24 32 14 14 (150528)
I0403 18:05:44.686615  6576 net.cpp:156] Memory required for data: 1237333536
I0403 18:05:44.686630  6576 layer_factory.hpp:77] Creating layer inception_4e/5x5
I0403 18:05:44.686671  6576 net.cpp:91] Creating Layer inception_4e/5x5
I0403 18:05:44.686688  6576 net.cpp:425] inception_4e/5x5 <- inception_4e/5x5_reduce
I0403 18:05:44.686708  6576 net.cpp:399] inception_4e/5x5 -> inception_4e/5x5
I0403 18:05:44.688566  6576 net.cpp:141] Setting up inception_4e/5x5
I0403 18:05:44.688594  6576 net.cpp:148] Top shape: 24 128 14 14 (602112)
I0403 18:05:44.688609  6576 net.cpp:156] Memory required for data: 1239741984
I0403 18:05:44.688629  6576 layer_factory.hpp:77] Creating layer inception_4e/relu_5x5
I0403 18:05:44.688648  6576 net.cpp:91] Creating Layer inception_4e/relu_5x5
I0403 18:05:44.688664  6576 net.cpp:425] inception_4e/relu_5x5 <- inception_4e/5x5
I0403 18:05:44.688683  6576 net.cpp:386] inception_4e/relu_5x5 -> inception_4e/5x5 (in-place)
I0403 18:05:44.688881  6576 net.cpp:141] Setting up inception_4e/relu_5x5
I0403 18:05:44.688907  6576 net.cpp:148] Top shape: 24 128 14 14 (602112)
I0403 18:05:44.688922  6576 net.cpp:156] Memory required for data: 1242150432
I0403 18:05:44.688937  6576 layer_factory.hpp:77] Creating layer inception_4e/pool
I0403 18:05:44.688958  6576 net.cpp:91] Creating Layer inception_4e/pool
I0403 18:05:44.688976  6576 net.cpp:425] inception_4e/pool <- inception_4d/output_inception_4d/output_0_split_4
I0403 18:05:44.688993  6576 net.cpp:399] inception_4e/pool -> inception_4e/pool
I0403 18:05:44.689064  6576 net.cpp:141] Setting up inception_4e/pool
I0403 18:05:44.689087  6576 net.cpp:148] Top shape: 24 528 14 14 (2483712)
I0403 18:05:44.689101  6576 net.cpp:156] Memory required for data: 1252085280
I0403 18:05:44.689117  6576 layer_factory.hpp:77] Creating layer inception_4e/pool_proj
I0403 18:05:44.689139  6576 net.cpp:91] Creating Layer inception_4e/pool_proj
I0403 18:05:44.689157  6576 net.cpp:425] inception_4e/pool_proj <- inception_4e/pool
I0403 18:05:44.689177  6576 net.cpp:399] inception_4e/pool_proj -> inception_4e/pool_proj
I0403 18:05:44.690685  6576 net.cpp:141] Setting up inception_4e/pool_proj
I0403 18:05:44.690726  6576 net.cpp:148] Top shape: 24 128 14 14 (602112)
I0403 18:05:44.690743  6576 net.cpp:156] Memory required for data: 1254493728
I0403 18:05:44.690762  6576 layer_factory.hpp:77] Creating layer inception_4e/relu_pool_proj
I0403 18:05:44.690779  6576 net.cpp:91] Creating Layer inception_4e/relu_pool_proj
I0403 18:05:44.690796  6576 net.cpp:425] inception_4e/relu_pool_proj <- inception_4e/pool_proj
I0403 18:05:44.690816  6576 net.cpp:386] inception_4e/relu_pool_proj -> inception_4e/pool_proj (in-place)
I0403 18:05:44.691107  6576 net.cpp:141] Setting up inception_4e/relu_pool_proj
I0403 18:05:44.691136  6576 net.cpp:148] Top shape: 24 128 14 14 (602112)
I0403 18:05:44.691151  6576 net.cpp:156] Memory required for data: 1256902176
I0403 18:05:44.691167  6576 layer_factory.hpp:77] Creating layer inception_4e/output
I0403 18:05:44.691184  6576 net.cpp:91] Creating Layer inception_4e/output
I0403 18:05:44.691200  6576 net.cpp:425] inception_4e/output <- inception_4e/1x1
I0403 18:05:44.691225  6576 net.cpp:425] inception_4e/output <- inception_4e/3x3
I0403 18:05:44.691241  6576 net.cpp:425] inception_4e/output <- inception_4e/5x5
I0403 18:05:44.691257  6576 net.cpp:425] inception_4e/output <- inception_4e/pool_proj
I0403 18:05:44.691274  6576 net.cpp:399] inception_4e/output -> inception_4e/output
I0403 18:05:44.691326  6576 net.cpp:141] Setting up inception_4e/output
I0403 18:05:44.691349  6576 net.cpp:148] Top shape: 24 832 14 14 (3913728)
I0403 18:05:44.691365  6576 net.cpp:156] Memory required for data: 1272557088
I0403 18:05:44.691380  6576 layer_factory.hpp:77] Creating layer pool4/3x3_s2
I0403 18:05:44.691400  6576 net.cpp:91] Creating Layer pool4/3x3_s2
I0403 18:05:44.691416  6576 net.cpp:425] pool4/3x3_s2 <- inception_4e/output
I0403 18:05:44.691434  6576 net.cpp:399] pool4/3x3_s2 -> pool4/3x3_s2
I0403 18:05:44.691505  6576 net.cpp:141] Setting up pool4/3x3_s2
I0403 18:05:44.691529  6576 net.cpp:148] Top shape: 24 832 7 7 (978432)
I0403 18:05:44.691543  6576 net.cpp:156] Memory required for data: 1276470816
I0403 18:05:44.691558  6576 layer_factory.hpp:77] Creating layer pool4/3x3_s2_pool4/3x3_s2_0_split
I0403 18:05:44.691576  6576 net.cpp:91] Creating Layer pool4/3x3_s2_pool4/3x3_s2_0_split
I0403 18:05:44.691591  6576 net.cpp:425] pool4/3x3_s2_pool4/3x3_s2_0_split <- pool4/3x3_s2
I0403 18:05:44.691611  6576 net.cpp:399] pool4/3x3_s2_pool4/3x3_s2_0_split -> pool4/3x3_s2_pool4/3x3_s2_0_split_0
I0403 18:05:44.691630  6576 net.cpp:399] pool4/3x3_s2_pool4/3x3_s2_0_split -> pool4/3x3_s2_pool4/3x3_s2_0_split_1
I0403 18:05:44.691651  6576 net.cpp:399] pool4/3x3_s2_pool4/3x3_s2_0_split -> pool4/3x3_s2_pool4/3x3_s2_0_split_2
I0403 18:05:44.691671  6576 net.cpp:399] pool4/3x3_s2_pool4/3x3_s2_0_split -> pool4/3x3_s2_pool4/3x3_s2_0_split_3
I0403 18:05:44.691763  6576 net.cpp:141] Setting up pool4/3x3_s2_pool4/3x3_s2_0_split
I0403 18:05:44.691788  6576 net.cpp:148] Top shape: 24 832 7 7 (978432)
I0403 18:05:44.691805  6576 net.cpp:148] Top shape: 24 832 7 7 (978432)
I0403 18:05:44.691823  6576 net.cpp:148] Top shape: 24 832 7 7 (978432)
I0403 18:05:44.691838  6576 net.cpp:148] Top shape: 24 832 7 7 (978432)
I0403 18:05:44.691851  6576 net.cpp:156] Memory required for data: 1292125728
I0403 18:05:44.691866  6576 layer_factory.hpp:77] Creating layer inception_5a/1x1
I0403 18:05:44.691889  6576 net.cpp:91] Creating Layer inception_5a/1x1
I0403 18:05:44.691906  6576 net.cpp:425] inception_5a/1x1 <- pool4/3x3_s2_pool4/3x3_s2_0_split_0
I0403 18:05:44.691926  6576 net.cpp:399] inception_5a/1x1 -> inception_5a/1x1
I0403 18:05:44.694807  6576 net.cpp:141] Setting up inception_5a/1x1
I0403 18:05:44.694834  6576 net.cpp:148] Top shape: 24 256 7 7 (301056)
I0403 18:05:44.694850  6576 net.cpp:156] Memory required for data: 1293329952
I0403 18:05:44.694869  6576 layer_factory.hpp:77] Creating layer inception_5a/relu_1x1
I0403 18:05:44.694886  6576 net.cpp:91] Creating Layer inception_5a/relu_1x1
I0403 18:05:44.694903  6576 net.cpp:425] inception_5a/relu_1x1 <- inception_5a/1x1
I0403 18:05:44.694924  6576 net.cpp:386] inception_5a/relu_1x1 -> inception_5a/1x1 (in-place)
I0403 18:05:44.695241  6576 net.cpp:141] Setting up inception_5a/relu_1x1
I0403 18:05:44.695267  6576 net.cpp:148] Top shape: 24 256 7 7 (301056)
I0403 18:05:44.695283  6576 net.cpp:156] Memory required for data: 1294534176
I0403 18:05:44.695298  6576 layer_factory.hpp:77] Creating layer inception_5a/3x3_reduce
I0403 18:05:44.695322  6576 net.cpp:91] Creating Layer inception_5a/3x3_reduce
I0403 18:05:44.695338  6576 net.cpp:425] inception_5a/3x3_reduce <- pool4/3x3_s2_pool4/3x3_s2_0_split_1
I0403 18:05:44.695360  6576 net.cpp:399] inception_5a/3x3_reduce -> inception_5a/3x3_reduce
I0403 18:05:44.697844  6576 net.cpp:141] Setting up inception_5a/3x3_reduce
I0403 18:05:44.697875  6576 net.cpp:148] Top shape: 24 160 7 7 (188160)
I0403 18:05:44.697890  6576 net.cpp:156] Memory required for data: 1295286816
I0403 18:05:44.697909  6576 layer_factory.hpp:77] Creating layer inception_5a/relu_3x3_reduce
I0403 18:05:44.697927  6576 net.cpp:91] Creating Layer inception_5a/relu_3x3_reduce
I0403 18:05:44.697943  6576 net.cpp:425] inception_5a/relu_3x3_reduce <- inception_5a/3x3_reduce
I0403 18:05:44.697962  6576 net.cpp:386] inception_5a/relu_3x3_reduce -> inception_5a/3x3_reduce (in-place)
I0403 18:05:44.698145  6576 net.cpp:141] Setting up inception_5a/relu_3x3_reduce
I0403 18:05:44.698173  6576 net.cpp:148] Top shape: 24 160 7 7 (188160)
I0403 18:05:44.698187  6576 net.cpp:156] Memory required for data: 1296039456
I0403 18:05:44.698202  6576 layer_factory.hpp:77] Creating layer inception_5a/3x3
I0403 18:05:44.698230  6576 net.cpp:91] Creating Layer inception_5a/3x3
I0403 18:05:44.698248  6576 net.cpp:425] inception_5a/3x3 <- inception_5a/3x3_reduce
I0403 18:05:44.698271  6576 net.cpp:399] inception_5a/3x3 -> inception_5a/3x3
I0403 18:05:44.703251  6576 net.cpp:141] Setting up inception_5a/3x3
I0403 18:05:44.703279  6576 net.cpp:148] Top shape: 24 320 7 7 (376320)
I0403 18:05:44.703294  6576 net.cpp:156] Memory required for data: 1297544736
I0403 18:05:44.703313  6576 layer_factory.hpp:77] Creating layer inception_5a/relu_3x3
I0403 18:05:44.703330  6576 net.cpp:91] Creating Layer inception_5a/relu_3x3
I0403 18:05:44.703347  6576 net.cpp:425] inception_5a/relu_3x3 <- inception_5a/3x3
I0403 18:05:44.703366  6576 net.cpp:386] inception_5a/relu_3x3 -> inception_5a/3x3 (in-place)
I0403 18:05:44.703657  6576 net.cpp:141] Setting up inception_5a/relu_3x3
I0403 18:05:44.703683  6576 net.cpp:148] Top shape: 24 320 7 7 (376320)
I0403 18:05:44.703698  6576 net.cpp:156] Memory required for data: 1299050016
I0403 18:05:44.703713  6576 layer_factory.hpp:77] Creating layer inception_5a/5x5_reduce
I0403 18:05:44.703737  6576 net.cpp:91] Creating Layer inception_5a/5x5_reduce
I0403 18:05:44.703754  6576 net.cpp:425] inception_5a/5x5_reduce <- pool4/3x3_s2_pool4/3x3_s2_0_split_2
I0403 18:05:44.703775  6576 net.cpp:399] inception_5a/5x5_reduce -> inception_5a/5x5_reduce
I0403 18:05:44.704915  6576 net.cpp:141] Setting up inception_5a/5x5_reduce
I0403 18:05:44.704946  6576 net.cpp:148] Top shape: 24 32 7 7 (37632)
I0403 18:05:44.704962  6576 net.cpp:156] Memory required for data: 1299200544
I0403 18:05:44.704982  6576 layer_factory.hpp:77] Creating layer inception_5a/relu_5x5_reduce
I0403 18:05:44.705000  6576 net.cpp:91] Creating Layer inception_5a/relu_5x5_reduce
I0403 18:05:44.705018  6576 net.cpp:425] inception_5a/relu_5x5_reduce <- inception_5a/5x5_reduce
I0403 18:05:44.705034  6576 net.cpp:386] inception_5a/relu_5x5_reduce -> inception_5a/5x5_reduce (in-place)
I0403 18:05:44.705334  6576 net.cpp:141] Setting up inception_5a/relu_5x5_reduce
I0403 18:05:44.705360  6576 net.cpp:148] Top shape: 24 32 7 7 (37632)
I0403 18:05:44.705375  6576 net.cpp:156] Memory required for data: 1299351072
I0403 18:05:44.705390  6576 layer_factory.hpp:77] Creating layer inception_5a/5x5
I0403 18:05:44.705411  6576 net.cpp:91] Creating Layer inception_5a/5x5
I0403 18:05:44.705430  6576 net.cpp:425] inception_5a/5x5 <- inception_5a/5x5_reduce
I0403 18:05:44.705451  6576 net.cpp:399] inception_5a/5x5 -> inception_5a/5x5
I0403 18:05:44.707120  6576 net.cpp:141] Setting up inception_5a/5x5
I0403 18:05:44.707159  6576 net.cpp:148] Top shape: 24 128 7 7 (150528)
I0403 18:05:44.707175  6576 net.cpp:156] Memory required for data: 1299953184
I0403 18:05:44.707193  6576 layer_factory.hpp:77] Creating layer inception_5a/relu_5x5
I0403 18:05:44.707214  6576 net.cpp:91] Creating Layer inception_5a/relu_5x5
I0403 18:05:44.707245  6576 net.cpp:425] inception_5a/relu_5x5 <- inception_5a/5x5
I0403 18:05:44.707267  6576 net.cpp:386] inception_5a/relu_5x5 -> inception_5a/5x5 (in-place)
I0403 18:05:44.707458  6576 net.cpp:141] Setting up inception_5a/relu_5x5
I0403 18:05:44.707484  6576 net.cpp:148] Top shape: 24 128 7 7 (150528)
I0403 18:05:44.707499  6576 net.cpp:156] Memory required for data: 1300555296
I0403 18:05:44.707515  6576 layer_factory.hpp:77] Creating layer inception_5a/pool
I0403 18:05:44.707535  6576 net.cpp:91] Creating Layer inception_5a/pool
I0403 18:05:44.707552  6576 net.cpp:425] inception_5a/pool <- pool4/3x3_s2_pool4/3x3_s2_0_split_3
I0403 18:05:44.707571  6576 net.cpp:399] inception_5a/pool -> inception_5a/pool
I0403 18:05:44.707643  6576 net.cpp:141] Setting up inception_5a/pool
I0403 18:05:44.707669  6576 net.cpp:148] Top shape: 24 832 7 7 (978432)
I0403 18:05:44.707684  6576 net.cpp:156] Memory required for data: 1304469024
I0403 18:05:44.707698  6576 layer_factory.hpp:77] Creating layer inception_5a/pool_proj
I0403 18:05:44.707721  6576 net.cpp:91] Creating Layer inception_5a/pool_proj
I0403 18:05:44.707738  6576 net.cpp:425] inception_5a/pool_proj <- inception_5a/pool
I0403 18:05:44.707761  6576 net.cpp:399] inception_5a/pool_proj -> inception_5a/pool_proj
I0403 18:05:44.710064  6576 net.cpp:141] Setting up inception_5a/pool_proj
I0403 18:05:44.710095  6576 net.cpp:148] Top shape: 24 128 7 7 (150528)
I0403 18:05:44.710111  6576 net.cpp:156] Memory required for data: 1305071136
I0403 18:05:44.710131  6576 layer_factory.hpp:77] Creating layer inception_5a/relu_pool_proj
I0403 18:05:44.710150  6576 net.cpp:91] Creating Layer inception_5a/relu_pool_proj
I0403 18:05:44.710165  6576 net.cpp:425] inception_5a/relu_pool_proj <- inception_5a/pool_proj
I0403 18:05:44.710188  6576 net.cpp:386] inception_5a/relu_pool_proj -> inception_5a/pool_proj (in-place)
I0403 18:05:44.710491  6576 net.cpp:141] Setting up inception_5a/relu_pool_proj
I0403 18:05:44.710520  6576 net.cpp:148] Top shape: 24 128 7 7 (150528)
I0403 18:05:44.710536  6576 net.cpp:156] Memory required for data: 1305673248
I0403 18:05:44.710551  6576 layer_factory.hpp:77] Creating layer inception_5a/output
I0403 18:05:44.710569  6576 net.cpp:91] Creating Layer inception_5a/output
I0403 18:05:44.710587  6576 net.cpp:425] inception_5a/output <- inception_5a/1x1
I0403 18:05:44.710603  6576 net.cpp:425] inception_5a/output <- inception_5a/3x3
I0403 18:05:44.710619  6576 net.cpp:425] inception_5a/output <- inception_5a/5x5
I0403 18:05:44.710636  6576 net.cpp:425] inception_5a/output <- inception_5a/pool_proj
I0403 18:05:44.710656  6576 net.cpp:399] inception_5a/output -> inception_5a/output
I0403 18:05:44.710706  6576 net.cpp:141] Setting up inception_5a/output
I0403 18:05:44.710729  6576 net.cpp:148] Top shape: 24 832 7 7 (978432)
I0403 18:05:44.710744  6576 net.cpp:156] Memory required for data: 1309586976
I0403 18:05:44.710759  6576 layer_factory.hpp:77] Creating layer inception_5a/output_inception_5a/output_0_split
I0403 18:05:44.710780  6576 net.cpp:91] Creating Layer inception_5a/output_inception_5a/output_0_split
I0403 18:05:44.710798  6576 net.cpp:425] inception_5a/output_inception_5a/output_0_split <- inception_5a/output
I0403 18:05:44.710815  6576 net.cpp:399] inception_5a/output_inception_5a/output_0_split -> inception_5a/output_inception_5a/output_0_split_0
I0403 18:05:44.710835  6576 net.cpp:399] inception_5a/output_inception_5a/output_0_split -> inception_5a/output_inception_5a/output_0_split_1
I0403 18:05:44.710855  6576 net.cpp:399] inception_5a/output_inception_5a/output_0_split -> inception_5a/output_inception_5a/output_0_split_2
I0403 18:05:44.710880  6576 net.cpp:399] inception_5a/output_inception_5a/output_0_split -> inception_5a/output_inception_5a/output_0_split_3
I0403 18:05:44.710994  6576 net.cpp:141] Setting up inception_5a/output_inception_5a/output_0_split
I0403 18:05:44.711017  6576 net.cpp:148] Top shape: 24 832 7 7 (978432)
I0403 18:05:44.711033  6576 net.cpp:148] Top shape: 24 832 7 7 (978432)
I0403 18:05:44.711050  6576 net.cpp:148] Top shape: 24 832 7 7 (978432)
I0403 18:05:44.711066  6576 net.cpp:148] Top shape: 24 832 7 7 (978432)
I0403 18:05:44.711079  6576 net.cpp:156] Memory required for data: 1325241888
I0403 18:05:44.711093  6576 layer_factory.hpp:77] Creating layer inception_5b/1x1
I0403 18:05:44.711115  6576 net.cpp:91] Creating Layer inception_5b/1x1
I0403 18:05:44.711133  6576 net.cpp:425] inception_5b/1x1 <- inception_5a/output_inception_5a/output_0_split_0
I0403 18:05:44.711154  6576 net.cpp:399] inception_5b/1x1 -> inception_5b/1x1
I0403 18:05:44.715095  6576 net.cpp:141] Setting up inception_5b/1x1
I0403 18:05:44.715127  6576 net.cpp:148] Top shape: 24 384 7 7 (451584)
I0403 18:05:44.715144  6576 net.cpp:156] Memory required for data: 1327048224
I0403 18:05:44.715165  6576 layer_factory.hpp:77] Creating layer inception_5b/relu_1x1
I0403 18:05:44.715183  6576 net.cpp:91] Creating Layer inception_5b/relu_1x1
I0403 18:05:44.715200  6576 net.cpp:425] inception_5b/relu_1x1 <- inception_5b/1x1
I0403 18:05:44.715224  6576 net.cpp:386] inception_5b/relu_1x1 -> inception_5b/1x1 (in-place)
I0403 18:05:44.715550  6576 net.cpp:141] Setting up inception_5b/relu_1x1
I0403 18:05:44.715579  6576 net.cpp:148] Top shape: 24 384 7 7 (451584)
I0403 18:05:44.715595  6576 net.cpp:156] Memory required for data: 1328854560
I0403 18:05:44.715611  6576 layer_factory.hpp:77] Creating layer inception_5b/3x3_reduce
I0403 18:05:44.715634  6576 net.cpp:91] Creating Layer inception_5b/3x3_reduce
I0403 18:05:44.715653  6576 net.cpp:425] inception_5b/3x3_reduce <- inception_5a/output_inception_5a/output_0_split_1
I0403 18:05:44.715673  6576 net.cpp:399] inception_5b/3x3_reduce -> inception_5b/3x3_reduce
I0403 18:05:44.718502  6576 net.cpp:141] Setting up inception_5b/3x3_reduce
I0403 18:05:44.718538  6576 net.cpp:148] Top shape: 24 192 7 7 (225792)
I0403 18:05:44.718554  6576 net.cpp:156] Memory required for data: 1329757728
I0403 18:05:44.718575  6576 layer_factory.hpp:77] Creating layer inception_5b/relu_3x3_reduce
I0403 18:05:44.718592  6576 net.cpp:91] Creating Layer inception_5b/relu_3x3_reduce
I0403 18:05:44.718610  6576 net.cpp:425] inception_5b/relu_3x3_reduce <- inception_5b/3x3_reduce
I0403 18:05:44.718631  6576 net.cpp:386] inception_5b/relu_3x3_reduce -> inception_5b/3x3_reduce (in-place)
I0403 18:05:44.718828  6576 net.cpp:141] Setting up inception_5b/relu_3x3_reduce
I0403 18:05:44.718854  6576 net.cpp:148] Top shape: 24 192 7 7 (225792)
I0403 18:05:44.718870  6576 net.cpp:156] Memory required for data: 1330660896
I0403 18:05:44.718886  6576 layer_factory.hpp:77] Creating layer inception_5b/3x3
I0403 18:05:44.718909  6576 net.cpp:91] Creating Layer inception_5b/3x3
I0403 18:05:44.718927  6576 net.cpp:425] inception_5b/3x3 <- inception_5b/3x3_reduce
I0403 18:05:44.718951  6576 net.cpp:399] inception_5b/3x3 -> inception_5b/3x3
I0403 18:05:44.725983  6576 net.cpp:141] Setting up inception_5b/3x3
I0403 18:05:44.726017  6576 net.cpp:148] Top shape: 24 384 7 7 (451584)
I0403 18:05:44.726034  6576 net.cpp:156] Memory required for data: 1332467232
I0403 18:05:44.726055  6576 layer_factory.hpp:77] Creating layer inception_5b/relu_3x3
I0403 18:05:44.726074  6576 net.cpp:91] Creating Layer inception_5b/relu_3x3
I0403 18:05:44.726090  6576 net.cpp:425] inception_5b/relu_3x3 <- inception_5b/3x3
I0403 18:05:44.726111  6576 net.cpp:386] inception_5b/relu_3x3 -> inception_5b/3x3 (in-place)
I0403 18:05:44.726428  6576 net.cpp:141] Setting up inception_5b/relu_3x3
I0403 18:05:44.726456  6576 net.cpp:148] Top shape: 24 384 7 7 (451584)
I0403 18:05:44.726474  6576 net.cpp:156] Memory required for data: 1334273568
I0403 18:05:44.726490  6576 layer_factory.hpp:77] Creating layer inception_5b/5x5_reduce
I0403 18:05:44.726532  6576 net.cpp:91] Creating Layer inception_5b/5x5_reduce
I0403 18:05:44.726552  6576 net.cpp:425] inception_5b/5x5_reduce <- inception_5a/output_inception_5a/output_0_split_2
I0403 18:05:44.726572  6576 net.cpp:399] inception_5b/5x5_reduce -> inception_5b/5x5_reduce
I0403 18:05:44.727890  6576 net.cpp:141] Setting up inception_5b/5x5_reduce
I0403 18:05:44.727921  6576 net.cpp:148] Top shape: 24 48 7 7 (56448)
I0403 18:05:44.727937  6576 net.cpp:156] Memory required for data: 1334499360
I0403 18:05:44.727957  6576 layer_factory.hpp:77] Creating layer inception_5b/relu_5x5_reduce
I0403 18:05:44.727975  6576 net.cpp:91] Creating Layer inception_5b/relu_5x5_reduce
I0403 18:05:44.727993  6576 net.cpp:425] inception_5b/relu_5x5_reduce <- inception_5b/5x5_reduce
I0403 18:05:44.728010  6576 net.cpp:386] inception_5b/relu_5x5_reduce -> inception_5b/5x5_reduce (in-place)
I0403 18:05:44.728404  6576 net.cpp:141] Setting up inception_5b/relu_5x5_reduce
I0403 18:05:44.728431  6576 net.cpp:148] Top shape: 24 48 7 7 (56448)
I0403 18:05:44.728446  6576 net.cpp:156] Memory required for data: 1334725152
I0403 18:05:44.728463  6576 layer_factory.hpp:77] Creating layer inception_5b/5x5
I0403 18:05:44.728484  6576 net.cpp:91] Creating Layer inception_5b/5x5
I0403 18:05:44.728502  6576 net.cpp:425] inception_5b/5x5 <- inception_5b/5x5_reduce
I0403 18:05:44.728523  6576 net.cpp:399] inception_5b/5x5 -> inception_5b/5x5
I0403 18:05:44.730685  6576 net.cpp:141] Setting up inception_5b/5x5
I0403 18:05:44.730713  6576 net.cpp:148] Top shape: 24 128 7 7 (150528)
I0403 18:05:44.730728  6576 net.cpp:156] Memory required for data: 1335327264
I0403 18:05:44.730747  6576 layer_factory.hpp:77] Creating layer inception_5b/relu_5x5
I0403 18:05:44.730764  6576 net.cpp:91] Creating Layer inception_5b/relu_5x5
I0403 18:05:44.730780  6576 net.cpp:425] inception_5b/relu_5x5 <- inception_5b/5x5
I0403 18:05:44.730801  6576 net.cpp:386] inception_5b/relu_5x5 -> inception_5b/5x5 (in-place)
I0403 18:05:44.730996  6576 net.cpp:141] Setting up inception_5b/relu_5x5
I0403 18:05:44.731021  6576 net.cpp:148] Top shape: 24 128 7 7 (150528)
I0403 18:05:44.731036  6576 net.cpp:156] Memory required for data: 1335929376
I0403 18:05:44.731052  6576 layer_factory.hpp:77] Creating layer inception_5b/pool
I0403 18:05:44.731072  6576 net.cpp:91] Creating Layer inception_5b/pool
I0403 18:05:44.731091  6576 net.cpp:425] inception_5b/pool <- inception_5a/output_inception_5a/output_0_split_3
I0403 18:05:44.731108  6576 net.cpp:399] inception_5b/pool -> inception_5b/pool
I0403 18:05:44.731185  6576 net.cpp:141] Setting up inception_5b/pool
I0403 18:05:44.731216  6576 net.cpp:148] Top shape: 24 832 7 7 (978432)
I0403 18:05:44.731232  6576 net.cpp:156] Memory required for data: 1339843104
I0403 18:05:44.731247  6576 layer_factory.hpp:77] Creating layer inception_5b/pool_proj
I0403 18:05:44.731271  6576 net.cpp:91] Creating Layer inception_5b/pool_proj
I0403 18:05:44.731288  6576 net.cpp:425] inception_5b/pool_proj <- inception_5b/pool
I0403 18:05:44.731309  6576 net.cpp:399] inception_5b/pool_proj -> inception_5b/pool_proj
I0403 18:05:44.733660  6576 net.cpp:141] Setting up inception_5b/pool_proj
I0403 18:05:44.733691  6576 net.cpp:148] Top shape: 24 128 7 7 (150528)
I0403 18:05:44.733706  6576 net.cpp:156] Memory required for data: 1340445216
I0403 18:05:44.733726  6576 layer_factory.hpp:77] Creating layer inception_5b/relu_pool_proj
I0403 18:05:44.733744  6576 net.cpp:91] Creating Layer inception_5b/relu_pool_proj
I0403 18:05:44.733762  6576 net.cpp:425] inception_5b/relu_pool_proj <- inception_5b/pool_proj
I0403 18:05:44.733782  6576 net.cpp:386] inception_5b/relu_pool_proj -> inception_5b/pool_proj (in-place)
I0403 18:05:44.734086  6576 net.cpp:141] Setting up inception_5b/relu_pool_proj
I0403 18:05:44.734114  6576 net.cpp:148] Top shape: 24 128 7 7 (150528)
I0403 18:05:44.734129  6576 net.cpp:156] Memory required for data: 1341047328
I0403 18:05:44.734144  6576 layer_factory.hpp:77] Creating layer inception_5b/output
I0403 18:05:44.734163  6576 net.cpp:91] Creating Layer inception_5b/output
I0403 18:05:44.734194  6576 net.cpp:425] inception_5b/output <- inception_5b/1x1
I0403 18:05:44.734218  6576 net.cpp:425] inception_5b/output <- inception_5b/3x3
I0403 18:05:44.734237  6576 net.cpp:425] inception_5b/output <- inception_5b/5x5
I0403 18:05:44.734254  6576 net.cpp:425] inception_5b/output <- inception_5b/pool_proj
I0403 18:05:44.734272  6576 net.cpp:399] inception_5b/output -> inception_5b/output
I0403 18:05:44.734326  6576 net.cpp:141] Setting up inception_5b/output
I0403 18:05:44.734350  6576 net.cpp:148] Top shape: 24 1024 7 7 (1204224)
I0403 18:05:44.734365  6576 net.cpp:156] Memory required for data: 1345864224
I0403 18:05:44.734380  6576 layer_factory.hpp:77] Creating layer pool5/7x7_s1
I0403 18:05:44.734400  6576 net.cpp:91] Creating Layer pool5/7x7_s1
I0403 18:05:44.734416  6576 net.cpp:425] pool5/7x7_s1 <- inception_5b/output
I0403 18:05:44.734436  6576 net.cpp:399] pool5/7x7_s1 -> pool5/7x7_s1
I0403 18:05:44.734658  6576 net.cpp:141] Setting up pool5/7x7_s1
I0403 18:05:44.734683  6576 net.cpp:148] Top shape: 24 1024 1 1 (24576)
I0403 18:05:44.734697  6576 net.cpp:156] Memory required for data: 1345962528
I0403 18:05:44.734714  6576 layer_factory.hpp:77] Creating layer pool5/drop_7x7_s1
I0403 18:05:44.734731  6576 net.cpp:91] Creating Layer pool5/drop_7x7_s1
I0403 18:05:44.734748  6576 net.cpp:425] pool5/drop_7x7_s1 <- pool5/7x7_s1
I0403 18:05:44.734768  6576 net.cpp:386] pool5/drop_7x7_s1 -> pool5/7x7_s1 (in-place)
I0403 18:05:44.734819  6576 net.cpp:141] Setting up pool5/drop_7x7_s1
I0403 18:05:44.734845  6576 net.cpp:148] Top shape: 24 1024 1 1 (24576)
I0403 18:05:44.734860  6576 net.cpp:156] Memory required for data: 1346060832
I0403 18:05:44.734875  6576 layer_factory.hpp:77] Creating layer loss3/classifier_plantvillage
I0403 18:05:44.734895  6576 net.cpp:91] Creating Layer loss3/classifier_plantvillage
I0403 18:05:44.734912  6576 net.cpp:425] loss3/classifier_plantvillage <- pool5/7x7_s1
I0403 18:05:44.734935  6576 net.cpp:399] loss3/classifier_plantvillage -> loss3/classifier_plantvillage
I0403 18:05:44.735370  6576 net.cpp:141] Setting up loss3/classifier_plantvillage
I0403 18:05:44.735395  6576 net.cpp:148] Top shape: 24 38 (912)
I0403 18:05:44.735410  6576 net.cpp:156] Memory required for data: 1346064480
I0403 18:05:44.735429  6576 layer_factory.hpp:77] Creating layer loss3/classifier_plantvillage_loss3/classifier_plantvillage_0_split
I0403 18:05:44.735451  6576 net.cpp:91] Creating Layer loss3/classifier_plantvillage_loss3/classifier_plantvillage_0_split
I0403 18:05:44.735469  6576 net.cpp:425] loss3/classifier_plantvillage_loss3/classifier_plantvillage_0_split <- loss3/classifier_plantvillage
I0403 18:05:44.735486  6576 net.cpp:399] loss3/classifier_plantvillage_loss3/classifier_plantvillage_0_split -> loss3/classifier_plantvillage_loss3/classifier_plantvillage_0_split_0
I0403 18:05:44.735507  6576 net.cpp:399] loss3/classifier_plantvillage_loss3/classifier_plantvillage_0_split -> loss3/classifier_plantvillage_loss3/classifier_plantvillage_0_split_1
I0403 18:05:44.735530  6576 net.cpp:399] loss3/classifier_plantvillage_loss3/classifier_plantvillage_0_split -> loss3/classifier_plantvillage_loss3/classifier_plantvillage_0_split_2
I0403 18:05:44.735550  6576 net.cpp:399] loss3/classifier_plantvillage_loss3/classifier_plantvillage_0_split -> loss3/classifier_plantvillage_loss3/classifier_plantvillage_0_split_3
I0403 18:05:44.735654  6576 net.cpp:141] Setting up loss3/classifier_plantvillage_loss3/classifier_plantvillage_0_split
I0403 18:05:44.735677  6576 net.cpp:148] Top shape: 24 38 (912)
I0403 18:05:44.735693  6576 net.cpp:148] Top shape: 24 38 (912)
I0403 18:05:44.735709  6576 net.cpp:148] Top shape: 24 38 (912)
I0403 18:05:44.735724  6576 net.cpp:148] Top shape: 24 38 (912)
I0403 18:05:44.735738  6576 net.cpp:156] Memory required for data: 1346079072
I0403 18:05:44.735754  6576 layer_factory.hpp:77] Creating layer loss1/loss
I0403 18:05:44.735776  6576 net.cpp:91] Creating Layer loss1/loss
I0403 18:05:44.735795  6576 net.cpp:425] loss1/loss <- loss1/classifier_plantvillage_loss1/classifier_plantvillage_0_split_0
I0403 18:05:44.735826  6576 net.cpp:425] loss1/loss <- label_data_1_split_0
…
