…
I0403 18:02:14.269767  6514 net.cpp:313] The NetState phase (1) differed from the phase (0) specified by a rule in layer data
I0403 18:02:14.270895  6514 net.cpp:49] Initializing net from parameters: 
state {
  phase: TEST
}
layer {
  name: "data"
  type: "Data"
  top: "data"
  top: "label"
  include {
    phase: TEST
  }
  transform_param {
    mirror: false
    crop_size: 224
    mean_file: "/home/mohanty/data/final_dataset/lmdb/segmented-50-50/mean.binaryproto"
  }
  data_param {
    source: "/home/mohanty/data/final_dataset/lmdb/segmented-50-50/test_db"
    batch_size: 24
    backend: LMDB
  }
}
layer {
  name: "conv1/7x7_s2"
  type: "Convolution"
  bottom: "data"
  top: "conv1/7x7_s2"
  param {
    lr_mult: 1
    decay_mult: 1
  }
  param {
    lr_mult: 2
    decay_mult: 0
  }
  convolution_param {
    num_output: 64
    pad: 3
    kernel_size: 7
    stride: 2
    weight_filler {
      type: "xavier"
      std: 0.1
    }
    bias_filler {
      type: "constant"
      value: 0.2
    }
  }
}
layer {
  name: "conv1/relu_7x7"
  type: "ReLU"
  bottom: "conv1/7x7_s2"
  top: "conv1/7x7_s2"
}
layer {
  name: "pool1/3x3_s2"
  type: "Pooling"
  bottom: "conv1/7x7_s2"
  top: "pool1/3x3_s2"
  pooling_param {
    pool: MAX
    kernel_size: 3
    stride: 2
  }
}
layer {
  name: "pool1/norm1"
  type: "LRN"
  bottom: "pool1/3x3_s2"
  top: "pool1/norm1"
  lrn_param {
    local_size: 5
    alpha: 0.0001
    beta: 0.75
  }
}
layer {
  name: "conv2/3x3_reduce"
  type: "Convolution"
  bottom: "pool1/norm1"
  top: "conv2/3x3_reduce"
  param {
    lr_mult: 1
    decay_mult: 1
  }
  param {
    lr_mult: 2
    decay_mult: 0
  }
  convolution_param {
    num_output: 64
    kernel_size: 1
    weight_filler {
      type: "xavier"
      std: 0.1
    }
    bias_filler {
      type: "constant"
      value: 0.2
    }
  }
}
layer {
  name: "conv2/relu_3x3_reduce"
  type: "ReLU"
  bottom: "conv2/3x3_reduce"
  top: "conv2/3x3_reduce"
}
layer {
  name: "conv2/3x3"
  type: "Convolution"
  bottom: "conv2/3x3_reduce"
  top: "conv2/3x3"
  param {
    lr_mult: 1
    decay_mult: 1
  }
  param {
    lr_mult: 2
    decay_mult: 0
  }
  convolution_param {
    num_output: 192
    pad: 1
    kernel_size: 3
    weight_filler {
      type: "xavier"
      std: 0.03
    }
    bias_filler {
      type: "constant"
      value: 0.2
    }
  }
}
layer {
  name: "conv2/relu_3x3"
  type: "ReLU"
  bottom: "conv2/3x3"
  top: "conv2/3x3"
}
layer {
  name: "conv2/norm2"
  type: "LRN"
  bottom: "conv2/3x3"
  top: "conv2/norm2"
  lrn_param {
    local_size: 5
    alpha: 0.0001
    beta: 0.75
  }
}
layer {
  name: "pool2/3x3_s2"
  type: "Pooling"
  bottom: "conv2/norm2"
  top: "pool2/3x3_s2"
  pooling_param {
    pool: MAX
    kernel_size: 3
    stride: 2
  }
}
layer {
  name: "inception_3a/1x1"
  type: "Convolution"
  bottom: "pool2/3x3_s2"
  top: "inception_3a/1x1"
  param {
    lr_mult: 1
    decay_mult: 1
  }
  param {
    lr_mult: 2
    decay_mult: 0
  }
  convolution_param {
    num_output: 64
    kernel_size: 1
    weight_filler {
      type: "xavier"
      std: 0.03
    }
    bias_filler {
      type: "constant"
      value: 0.2
    }
  }
}
layer {
  name: "inception_3a/relu_1x1"
  type: "ReLU"
  bottom: "inception_3a/1x1"
  top: "inception_3a/1x1"
}
layer {
  name: "inception_3a/3x3_reduce"
  type: "Convolution"
  bottom: "pool2/3x3_s2"
  top: "inception_3a/3x3_reduce"
  param {
    lr_mult: 1
    decay_mult: 1
  }
  param {
    lr_mult: 2
    decay_mult: 0
  }
  convolution_param {
    num_output: 96
    kernel_size: 1
    weight_filler {
      type: "xavier"
      std: 0.09
    }
    bias_filler {
      type: "constant"
      value: 0.2
    }
  }
}
layer {
  name: "inception_3a/relu_3x3_reduce"
  type: "ReLU"
  bottom: "inception_3a/3x3_reduce"
  top: "inception_3a/3x3_reduce"
}
layer {
  name: "inception_3a/3x3"
  type: "Convolution"
  bottom: "inception_3a/3x3_reduce"
  top: "inception_3a/3x3"
  param {
    lr_mult: 1
    decay_mult: 1
  }
  param {
    lr_mult: 2
    decay_mult: 0
  }
  convolution_param {
    num_output: 128
    pad: 1
    kernel_size: 3
    weight_filler {
      type: "xavier"
      std: 0.03
    }
    bias_filler {
      type: "constant"
      value: 0.2
    }
  }
}
layer {
  name: "inception_3a/relu_3x3"
  type: "ReLU"
  bottom: "inception_3a/3x3"
  top: "inception_3a/3x3"
}
layer {
  name: "inception_3a/5x5_reduce"
  type: "Convolution"
  bottom: "pool2/3x3_s2"
  top: "inception_3a/5x5_reduce"
  param {
    lr_mult: 1
    decay_mult: 1
  }
  param {
    lr_mult: 2
    decay_mult: 0
  }
  convolution_param {
    num_output: 16
    kernel_size: 1
    weight_filler {
      type: "xavier"
      std: 0.2
    }
    bias_filler {
      type: "constant"
      value: 0.2
    }
  }
}
layer {
  name: "inception_3a/relu_5x5_reduce"
  type: "ReLU"
  bottom: "inception_3a/5x5_reduce"
  top: "inception_3a/5x5_reduce"
}
layer {
  name: "inception_3a/5x5"
  type: "Convolution"
  bottom: "inception_3a/5x5_reduce"
  top: "inception_3a/5x5"
  param {
    lr_mult: 1
    decay_mult: 1
  }
  param {
    lr_mult: 2
    decay_mult: 0
  }
  convolution_param {
    num_output: 32
    pad: 2
    kernel_size: 5
    weight_filler {
      type: "xavier"
      std: 0.03
    }
    bias_filler {
      type: "constant"
      value: 0.2
    }
  }
}
layer {
  name: "inception_3a/relu_5x5"
  type: "ReLU"
  bottom: "inception_3a/5x5"
  top: "inception_3a/5x5"
}
layer {
  name: "inception_3a/pool"
  type: "Pooling"
  bottom: "pool2/3x3_s2"
  top: "inception_3a/pool"
  pooling_param {
    pool: MAX
    kernel_size: 3
    stride: 1
    pad: 1
  }
}
layer {
  name: "inception_3a/pool_proj"
  type: "Convolution"
  bottom: "inception_3a/pool"
  top: "inception_3a/pool_proj"
  param {
    lr_mult: 1
    decay_mult: 1
  }
  param {
    lr_mult: 2
    decay_mult: 0
  }
  convolution_param {
    num_output: 32
    kernel_size: 1
    weight_filler {
      type: "xavier"
      std: 0.1
    }
    bias_filler {
      type: "constant"
      value: 0.2
    }
  }
}
layer {
  name: "inception_3a/relu_pool_proj"
  type: "ReLU"
  bottom: "inception_3a/pool_proj"
  top: "inception_3a/pool_proj"
}
layer {
  name: "inception_3a/output"
  type: "Concat"
  bottom: "inception_3a/1x1"
  bottom: "inception_3a/3x3"
  bottom: "inception_3a/5x5"
  bottom: "inception_3a/pool_proj"
  top: "inception_3a/output"
}
layer {
  name: "inception_3b/1x1"
  type: "Convolution"
  bottom: "inception_3a/output"
  top: "inception_3b/1x1"
  param {
    lr_mult: 1
    decay_mult: 1
  }
  param {
    lr_mult: 2
    decay_mult: 0
  }
  convolution_param {
    num_output: 128
    kernel_size: 1
    weight_filler {
      type: "xavier"
      std: 0.03
    }
    bias_filler {
      type: "constant"
      value: 0.2
    }
  }
}
layer {
  name: "inception_3b/relu_1x1"
  type: "ReLU"
  bottom: "inception_3b/1x1"
  top: "inception_3b/1x1"
}
layer {
  name: "inception_3b/3x3_reduce"
  type: "Convolution"
  bottom: "inception_3a/output"
  top: "inception_3b/3x3_reduce"
  param {
    lr_mult: 1
    decay_mult: 1
  }
  param {
    lr_mult: 2
    decay_mult: 0
  }
  convolution_param {
    num_output: 128
    kernel_size: 1
    weight_filler {
      type: "xavier"
      std: 0.09
    }
    bias_filler {
      type: "constant"
      value: 0.2
    }
  }
}
layer {
  name: "inception_3b/relu_3x3_reduce"
  type: "ReLU"
  bottom: "inception_3b/3x3_reduce"
  top: "inception_3b/3x3_reduce"
}
layer {
  name: "inception_3b/3x3"
  type: "Convolution"
  bottom: "inception_3b/3x3_reduce"
  top: "inception_3b/3x3"
  param {
    lr_mult: 1
    decay_mult: 1
  }
  param {
    lr_mult: 2
    decay_mult: 0
  }
  convolution_param {
    num_output: 192
    pad: 1
    kernel_size: 3
    weight_filler {
      type: "xavier"
      std: 0.03
    }
    bias_filler {
      type: "constant"
      value: 0.2
    }
  }
}
layer {
  name: "inception_3b/relu_3x3"
  type: "ReLU"
  bottom: "inception_3b/3x3"
  top: "inception_3b/3x3"
}
layer {
  name: "inception_3b/5x5_reduce"
  type: "Convolution"
  bottom: "inception_3a/output"
  top: "inception_3b/5x5_reduce"
  param {
    lr_mult: 1
    decay_mult: 1
  }
  param {
    lr_mult: 2
    decay_mult: 0
  }
  convolution_param {
    num_output: 32
    kernel_size: 1
    weight_filler {
      type: "xavier"
      std: 0.2
    }
    bias_filler {
      type: "constant"
      value: 0.2
    }
  }
}
layer {
  name: "inception_3b/relu_5x5_reduce"
  type: "ReLU"
  bottom: "inception_3b/5x5_reduce"
  top: "inception_3b/5x5_reduce"
}
layer {
  name: "inception_3b/5x5"
  type: "Convolution"
  bottom: "inception_3b/5x5_reduce"
  top: "inception_3b/5x5"
  param {
    lr_mult: 1
    decay_mult: 1
  }
  param {
    lr_mult: 2
    decay_mult: 0
  }
  convolution_param {
    num_output: 96
    pad: 2
    kernel_size: 5
    weight_filler {
      type: "xavier"
      std: 0.03
    }
    bias_filler {
      type: "constant"
      value: 0.2
    }
  }
}
layer {
  name: "inception_3b/relu_5x5"
  type: "ReLU"
  bottom: "inception_3b/5x5"
  top: "inception_3b/5x5"
}
layer {
  name: "inception_3b/pool"
  type: "Pooling"
  bottom: "inception_3a/output"
  top: "inception_3b/pool"
  pooling_param {
    pool: MAX
    kernel_size: 3
    stride: 1
    pad: 1
  }
}
layer {
  name: "inception_3b/pool_proj"
  type: "Convolution"
  bottom: "inception_3b/pool"
  top: "inception_3b/pool_proj"
  param {
    lr_mult: 1
    decay_mult: 1
  }
  param {
    lr_mult: 2
    decay_mult: 0
  }
  convolution_param {
    num_output: 64
    kernel_size: 1
    weight_filler {
      type: "xavier"
      std: 0.1
    }
    bias_filler {
      type: "constant"
      value: 0.2
    }
  }
}
layer {
  name: "inception_3b/relu_pool_proj"
  type: "ReLU"
  bottom: "inception_3b/pool_proj"
  top: "inception_3b/pool_proj"
}
layer {
  name: "inception_3b/output"
  type: "Concat"
  bottom: "inception_3b/1x1"
  bottom: "inception_3b/3x3"
  bottom: "inception_3b/5x5"
  bottom: "inception_3b/pool_proj"
  top: "inception_3b/output"
}
layer {
  name: "pool3/3x3_s2"
  type: "Pooling"
  bottom: "inception_3b/output"
  top: "pool3/3x3_s2"
  pooling_param {
    pool: MAX
    kernel_size: 3
    stride: 2
  }
}
layer {
  name: "inception_4a/1x1"
  type: "Convolution"
  bottom: "pool3/3x3_s2"
  top: "inception_4a/1x1"
  param {
    lr_mult: 1
    decay_mult: 1
  }
  param {
    lr_mult: 2
    decay_mult: 0
  }
  convolution_param {
    num_output: 192
    kernel_size: 1
    weight_filler {
      type: "xavier"
      std: 0.03
    }
    bias_filler {
      type: "constant"
      value: 0.2
    }
  }
}
layer {
  name: "inception_4a/relu_1x1"
  type: "ReLU"
  bottom: "inception_4a/1x1"
  top: "inception_4a/1x1"
}
layer {
  name: "inception_4a/3x3_reduce"
  type: "Convolution"
  bottom: "pool3/3x3_s2"
  top: "inception_4a/3x3_reduce"
  param {
    lr_mult: 1
    decay_mult: 1
  }
  param {
    lr_mult: 2
    decay_mult: 0
  }
  convolution_param {
    num_output: 96
    kernel_size: 1
    weight_filler {
      type: "xavier"
      std: 0.09
    }
    bias_filler {
      type: "constant"
      value: 0.2
    }
  }
}
layer {
  name: "inception_4a/relu_3x3_reduce"
  type: "ReLU"
  bottom: "inception_4a/3x3_reduce"
  top: "inception_4a/3x3_reduce"
}
layer {
  name: "inception_4a/3x3"
  type: "Convolution"
  bottom: "inception_4a/3x3_reduce"
  top: "inception_4a/3x3"
  param {
    lr_mult: 1
    decay_mult: 1
  }
  param {
    lr_mult: 2
    decay_mult: 0
  }
  convolution_param {
    num_output: 208
    pad: 1
    kernel_size: 3
    weight_filler {
      type: "xavier"
      std: 0.03
    }
    bias_filler {
      type: "constant"
      value: 0.2
    }
  }
}
layer {
  name: "inception_4a/relu_3x3"
  type: "ReLU"
  bottom: "inception_4a/3x3"
  top: "inception_4a/3x3"
}
layer {
  name: "inception_4a/5x5_reduce"
  type: "Convolution"
  bottom: "pool3/3x3_s2"
  top: "inception_4a/5x5_reduce"
  param {
    lr_mult: 1
    decay_mult: 1
  }
  param {
    lr_mult: 2
    decay_mult: 0
  }
  convolution_param {
    num_output: 16
    kernel_size: 1
    weight_filler {
      type: "xavier"
      std: 0.2
    }
    bias_filler {
      type: "constant"
      value: 0.2
    }
  }
}
layer {
  name: "inception_4a/relu_5x5_reduce"
  type: "ReLU"
  bottom: "inception_4a/5x5_reduce"
  top: "inception_4a/5x5_reduce"
}
layer {
  name: "inception_4a/5x5"
  type: "Convolution"
  bottom: "inception_4a/5x5_reduce"
  top: "inception_4a/5x5"
  param {
    lr_mult: 1
    decay_mult: 1
  }
  param {
    lr_mult: 2
    decay_mult: 0
  }
  convolution_param {
    num_output: 48
    pad: 2
    kernel_size: 5
    weight_filler {
      type: "xavier"
      std: 0.03
    }
    bias_filler {
      type: "constant"
      value: 0.2
    }
  }
}
layer {
  name: "inception_4a/relu_5x5"
  type: "ReLU"
  bottom: "inception_4a/5x5"
  top: "inception_4a/5x5"
}
layer {
  name: "inception_4a/pool"
  type: "Pooling"
  bottom: "pool3/3x3_s2"
  top: "inception_4a/pool"
  pooling_param {
    pool: MAX
    kernel_size: 3
    stride: 1
    pad: 1
  }
}
layer {
  name: "inception_4a/pool_proj"
  type: "Convolution"
  bottom: "inception_4a/pool"
  top: "inception_4a/pool_proj"
  param {
    lr_mult: 1
    decay_mult: 1
  }
  param {
    lr_mult: 2
    decay_mult: 0
  }
  convolution_param {
    num_output: 64
    kernel_size: 1
    weight_filler {
      type: "xavier"
      std: 0.1
    }
    bias_filler {
      type: "constant"
      value: 0.2
    }
  }
}
layer {
  name: "inception_4a/relu_pool_proj"
  type: "ReLU"
  bottom: "inception_4a/pool_proj"
  top: "inception_4a/pool_proj"
}
layer {
  name: "inception_4a/output"
  type: "Concat"
  bottom: "inception_4a/1x1"
  bottom: "inception_4a/3x3"
  bottom: "inception_4a/5x5"
  bottom: "inception_4a/pool_proj"
  top: "inception_4a/output"
}
layer {
  name: "loss1/ave_pool"
  type: "Pooling"
  bottom: "inception_4a/output"
  top: "loss1/ave_pool"
  pooling_param {
    pool: AVE
    kernel_size: 5
    stride: 3
  }
}
layer {
  name: "loss1/conv"
  type: "Convolution"
  bottom: "loss1/ave_pool"
  top: "loss1/conv"
  param {
    lr_mult: 1
    decay_mult: 1
  }
  param {
    lr_mult: 2
    decay_mult: 0
  }
  convolution_param {
    num_output: 128
    kernel_size: 1
    weight_filler {
      type: "xavier"
      std: 0.08
    }
    bias_filler {
      type: "constant"
      value: 0.2
    }
  }
}
layer {
  name: "loss1/relu_conv"
  type: "ReLU"
  bottom: "loss1/conv"
  top: "loss1/conv"
}
layer {
  name: "loss1/fc"
  type: "InnerProduct"
  bottom: "loss1/conv"
  top: "loss1/fc"
  param {
    lr_mult: 1
    decay_mult: 1
  }
  param {
    lr_mult: 2
    decay_mult: 0
  }
  inner_product_param {
    num_output: 1024
    weight_filler {
      type: "xavier"
      std: 0.02
    }
    bias_filler {
      type: "constant"
      value: 0.2
    }
  }
}
layer {
  name: "loss1/relu_fc"
  type: "ReLU"
  bottom: "loss1/fc"
  top: "loss1/fc"
}
layer {
  name: "loss1/drop_fc"
  type: "Dropout"
  bottom: "loss1/fc"
  top: "loss1/fc"
  dropout_param {
    dropout_ratio: 0.7
  }
}
layer {
  name: "loss1/classifier_plantvillage"
  type: "InnerProduct"
  bottom: "loss1/fc"
  top: "loss1/classifier_plantvillage"
  param {
    lr_mult: 1
    decay_mult: 1
  }
  param {
    lr_mult: 2
    decay_mult: 0
  }
  inner_product_param {
    num_output: 38
    weight_filler {
      type: "xavier"
      std: 0.0009765625
    }
    bias_filler {
      type: "constant"
      value: 0
    }
  }
}
layer {
  name: "inception_4b/1x1"
  type: "Convolution"
  bottom: "inception_4a/output"
  top: "inception_4b/1x1"
  param {
    lr_mult: 1
    decay_mult: 1
  }
  param {
    lr_mult: 2
    decay_mult: 0
  }
  convolution_param {
    num_output: 160
    kernel_size: 1
    weight_filler {
      type: "xavier"
      std: 0.03
    }
    bias_filler {
      type: "constant"
      value: 0.2
    }
  }
}
layer {
  name: "inception_4b/relu_1x1"
  type: "ReLU"
  bottom: "inception_4b/1x1"
  top: "inception_4b/1x1"
}
layer {
  name: "inception_4b/3x3_reduce"
  type: "Convolution"
  bottom: "inception_4a/output"
  top: "inception_4b/3x3_reduce"
  param {
    lr_mult: 1
    decay_mult: 1
  }
  param {
    lr_mult: 2
    decay_mult: 0
  }
  convolution_param {
    num_output: 112
    kernel_size: 1
    weight_filler {
      type: "xavier"
      std: 0.09
    }
    bias_filler {
      type: "constant"
      value: 0.2
    }
  }
}
layer {
  name: "inception_4b/relu_3x3_reduce"
  type: "ReLU"
  bottom: "inception_4b/3x3_reduce"
  top: "inception_4b/3x3_reduce"
}
layer {
  name: "inception_4b/3x3"
  type: "Convolution"
  bottom: "inception_4b/3x3_reduce"
  top: "inception_4b/3x3"
  param {
    lr_mult: 1
    decay_mult: 1
  }
  param {
    lr_mult: 2
    decay_mult: 0
  }
  convolution_param {
    num_output: 224
    pad: 1
    kernel_size: 3
    weight_filler {
      type: "xavier"
      std: 0.03
    }
    bias_filler {
      type: "constant"
      value: 0.2
    }
  }
}
layer {
  name: "inception_4b/relu_3x3"
  type: "ReLU"
  bottom: "inception_4b/3x3"
  top: "inception_4b/3x3"
}
layer {
  name: "inception_4b/5x5_reduce"
  type: "Convolution"
  bottom: "inception_4a/output"
  top: "inception_4b/5x5_reduce"
  param {
    lr_mult: 1
    decay_mult: 1
  }
  param {
    lr_mult: 2
    decay_mult: 0
  }
  convolution_param {
    num_output: 24
    kernel_size: 1
    weight_filler {
      type: "xavier"
      std: 0.2
    }
    bias_filler {
      type: "constant"
      value: 0.2
    }
  }
}
layer {
  name: "inception_4b/relu_5x5_reduce"
  type: "ReLU"
  bottom: "inception_4b/5x5_reduce"
  top: "inception_4b/5x5_reduce"
}
layer {
  name: "inception_4b/5x5"
  type: "Convolution"
  bottom: "inception_4b/5x5_reduce"
  top: "inception_4b/5x5"
  param {
    lr_mult: 1
    decay_mult: 1
  }
  param {
    lr_mult: 2
    decay_mult: 0
  }
  convolution_param {
    num_output: 64
    pad: 2
    kernel_size: 5
    weight_filler {
      type: "xavier"
      std: 0.03
    }
    bias_filler {
      type: "constant"
      value: 0.2
    }
  }
}
layer {
  name: "inception_4b/relu_5x5"
  type: "ReLU"
  bottom: "inception_4b/5x5"
  top: "inception_4b/5x5"
}
layer {
  name: "inception_4b/pool"
  type: "Pooling"
  bottom: "inception_4a/output"
  top: "inception_4b/pool"
  pooling_param {
    pool: MAX
    kernel_size: 3
    stride: 1
    pad: 1
  }
}
layer {
  name: "inception_4b/pool_proj"
  type: "Convolution"
  bottom: "inception_4b/pool"
  top: "inception_4b/pool_proj"
  param {
    lr_mult: 1
    decay_mult: 1
  }
  param {
    lr_mult: 2
    decay_mult: 0
  }
  convolution_param {
    num_output: 64
    kernel_size: 1
    weight_filler {
      type: "xavier"
      std: 0.1
    }
    bias_filler {
      type: "constant"
      value: 0.2
    }
  }
}
layer {
  name: "inception_4b/relu_pool_proj"
  type: "ReLU"
  bottom: "inception_4b/pool_proj"
  top: "inception_4b/pool_proj"
}
layer {
  name: "inception_4b/output"
  type: "Concat"
  bottom: "inception_4b/1x1"
  bottom: "inception_4b/3x3"
  bottom: "inception_4b/5x5"
  bottom: "inception_4b/pool_proj"
  top: "inception_4b/output"
}
layer {
  name: "inception_4c/1x1"
  type: "Convolution"
  bottom: "inception_4b/output"
  top: "inception_4c/1x1"
  param {
    lr_mult: 1
    decay_mult: 1
  }
  param {
    lr_mult: 2
    decay_mult: 0
  }
  convolution_param {
    num_output: 128
    kernel_size: 1
    weight_filler {
      type: "xavier"
      std: 0.03
    }
    bias_filler {
      type: "constant"
      value: 0.2
    }
  }
}
layer {
  name: "inception_4c/relu_1x1"
  type: "ReLU"
  bottom: "inception_4c/1x1"
  top: "inception_4c/1x1"
}
layer {
  name: "inception_4c/3x3_reduce"
  type: "Convolution"
  bottom: "inception_4b/output"
  top: "inception_4c/3x3_reduce"
  param {
    lr_mult: 1
    decay_mult: 1
  }
  param {
    lr_mult: 2
    decay_mult: 0
  }
  convolution_param {
    num_output: 128
    kernel_size: 1
    weight_filler {
      type: "xavier"
      std: 0.09
    }
    bias_filler {
      type: "constant"
      value: 0.2
    }
  }
}
layer {
  name: "inception_4c/relu_3x3_reduce"
  type: "ReLU"
  bottom: "inception_4c/3x3_reduce"
  top: "inception_4c/3x3_reduce"
}
layer {
  name: "inception_4c/3x3"
  type: "Convolution"
  bottom: "inception_4c/3x3_reduce"
  top: "inception_4c/3x3"
  param {
    lr_mult: 1
    decay_mult: 1
  }
  param {
    lr_mult: 2
    decay_mult: 0
  }
  convolution_param {
    num_output: 256
    pad: 1
    kernel_size: 3
    weight_filler {
      type: "xavier"
      std: 0.03
    }
    bias_filler {
      type: "constant"
      value: 0.2
    }
  }
}
layer {
  name: "inception_4c/relu_3x3"
  type: "ReLU"
  bottom: "inception_4c/3x3"
  top: "inception_4c/3x3"
}
layer {
  name: "inception_4c/5x5_reduce"
  type: "Convolution"
  bottom: "inception_4b/output"
  top: "inception_4c/5x5_reduce"
  param {
    lr_mult: 1
    decay_mult: 1
  }
  param {
    lr_mult: 2
    decay_mult: 0
  }
  convolution_param {
    num_output: 24
    kernel_size: 1
    weight_filler {
      type: "xavier"
      std: 0.2
    }
    bias_filler {
      type: "constant"
      value: 0.2
    }
  }
}
layer {
  name: "inception_4c/relu_5x5_reduce"
  type: "ReLU"
  bottom: "inception_4c/5x5_reduce"
  top: "inception_4c/5x5_reduce"
}
layer {
  name: "inception_4c/5x5"
  type: "Convolution"
  bottom: "inception_4c/5x5_reduce"
  top: "inception_4c/5x5"
  param {
    lr_mult: 1
    decay_mult: 1
  }
  param {
    lr_mult: 2
    decay_mult: 0
  }
  convolution_param {
    num_output: 64
    pad: 2
    kernel_size: 5
    weight_filler {
      type: "xavier"
      std: 0.03
    }
    bias_filler {
      type: "constant"
      value: 0.2
    }
  }
}
layer {
  name: "inception_4c/relu_5x5"
  type: "ReLU"
  bottom: "inception_4c/5x5"
  top: "inception_4c/5x5"
}
layer {
  name: "inception_4c/pool"
  type: "Pooling"
  bottom: "inception_4b/output"
  top: "inception_4c/pool"
  pooling_param {
    pool: MAX
    kernel_size: 3
    stride: 1
    pad: 1
  }
}
layer {
  name: "inception_4c/pool_proj"
  type: "Convolution"
  bottom: "inception_4c/pool"
  top: "inception_4c/pool_proj"
  param {
    lr_mult: 1
    decay_mult: 1
  }
  param {
    lr_mult: 2
    decay_mult: 0
  }
  convolution_param {
    num_output: 64
    kernel_size: 1
    weight_filler {
      type: "xavier"
      std: 0.1
    }
    bias_filler {
      type: "constant"
      value: 0.2
    }
  }
}
layer {
  name: "inception_4c/relu_pool_proj"
  type: "ReLU"
  bottom: "inception_4c/pool_proj"
  top: "inception_4c/pool_proj"
}
layer {
  name: "inception_4c/output"
  type: "Concat"
  bottom: "inception_4c/1x1"
  bottom: "inception_4c/3x3"
  bottom: "inception_4c/5x5"
  bottom: "inception_4c/pool_proj"
  top: "inception_4c/output"
}
layer {
  name: "inception_4d/1x1"
  type: "Convolution"
  bottom: "inception_4c/output"
  top: "inception_4d/1x1"
  param {
    lr_mult: 1
    decay_mult: 1
  }
  param {
    lr_mult: 2
    decay_mult: 0
  }
  convolution_param {
    num_output: 112
    kernel_size: 1
    weight_filler {
      type: "xavier"
      std: 0.03
    }
    bias_filler {
      type: "constant"
      value: 0.2
    }
  }
}
layer {
  name: "inception_4d/relu_1x1"
  type: "ReLU"
  bottom: "inception_4d/1x1"
  top: "inception_4d/1x1"
}
layer {
  name: "inception_4d/3x3_reduce"
  type: "Convolution"
  bottom: "inception_4c/output"
  top: "inception_4d/3x3_reduce"
  param {
    lr_mult: 1
    decay_mult: 1
  }
  param {
    lr_mult: 2
    decay_mult: 0
  }
  convolution_param {
    num_output: 144
    kernel_size: 1
    weight_filler {
      type: "xavier"
      std: 0.09
    }
    bias_filler {
      type: "constant"
      value: 0.2
    }
  }
}
layer {
  name: "inception_4d/relu_3x3_reduce"
  type: "ReLU"
  bottom: "inception_4d/3x3_reduce"
  top: "inception_4d/3x3_reduce"
}
layer {
  name: "inception_4d/3x3"
  type: "Convolution"
  bottom: "inception_4d/3x3_reduce"
  top: "inception_4d/3x3"
  param {
    lr_mult: 1
    decay_mult: 1
  }
  param {
    lr_mult: 2
    decay_mult: 0
  }
  convolution_param {
    num_output: 288
    pad: 1
    kernel_size: 3
    weight_filler {
      type: "xavier"
      std: 0.03
    }
    bias_filler {
      type: "constant"
      value: 0.2
    }
  }
}
layer {
  name: "inception_4d/relu_3x3"
  type: "ReLU"
  bottom: "inception_4d/3x3"
  top: "inception_4d/3x3"
}
layer {
  name: "inception_4d/5x5_reduce"
  type: "Convolution"
  bottom: "inception_4c/output"
  top: "inception_4d/5x5_reduce"
  param {
    lr_mult: 1
    decay_mult: 1
  }
  param {
    lr_mult: 2
    decay_mult: 0
  }
  convolution_param {
    num_output: 32
    kernel_size: 1
    weight_filler {
      type: "xavier"
      std: 0.2
    }
    bias_filler {
      type: "constant"
      value: 0.2
    }
  }
}
layer {
  name: "inception_4d/relu_5x5_reduce"
  type: "ReLU"
  bottom: "inception_4d/5x5_reduce"
  top: "inception_4d/5x5_reduce"
}
layer {
  name: "inception_4d/5x5"
  type: "Convolution"
  bottom: "inception_4d/5x5_reduce"
  top: "inception_4d/5x5"
  param {
    lr_mult: 1
    decay_mult: 1
  }
  param {
    lr_mult: 2
    decay_mult: 0
  }
  convolution_param {
    num_output: 64
    pad: 2
    kernel_size: 5
    weight_filler {
      type: "xavier"
      std: 0.03
    }
    bias_filler {
      type: "constant"
      value: 0.2
    }
  }
}
layer {
  name: "inception_4d/relu_5x5"
  type: "ReLU"
  bottom: "inception_4d/5x5"
  top: "inception_4d/5x5"
}
layer {
  name: "inception_4d/pool"
  type: "Pooling"
  bottom: "inception_4c/output"
  top: "inception_4d/pool"
  pooling_param {
    pool: MAX
    kernel_size: 3
    stride: 1
    pad: 1
  }
}
layer {
  name: "inception_4d/pool_proj"
  type: "Convolution"
  bottom: "inception_4d/pool"
  top: "inception_4d/pool_proj"
  param {
    lr_mult: 1
    decay_mult: 1
  }
  param {
    lr_mult: 2
    decay_mult: 0
  }
  convolution_param {
    num_output: 64
    kernel_size: 1
    weight_filler {
      type: "xavier"
      std: 0.1
    }
    bias_filler {
      type: "constant"
      value: 0.2
    }
  }
}
layer {
  name: "inception_4d/relu_pool_proj"
  type: "ReLU"
  bottom: "inception_4d/pool_proj"
  top: "inception_4d/pool_proj"
}
layer {
  name: "inception_4d/output"
  type: "Concat"
  bottom: "inception_4d/1x1"
  bottom: "inception_4d/3x3"
  bottom: "inception_4d/5x5"
  bottom: "inception_4d/pool_proj"
  top: "inception_4d/output"
}
layer {
  name: "loss2/ave_pool"
  type: "Pooling"
  bottom: "inception_4d/output"
  top: "loss2/ave_pool"
  pooling_param {
    pool: AVE
    kernel_size: 5
    stride: 3
  }
}
layer {
  name: "loss2/conv"
  type: "Convolution"
  bottom: "loss2/ave_pool"
  top: "loss2/conv"
  param {
    lr_mult: 1
    decay_mult: 1
  }
  param {
    lr_mult: 2
    decay_mult: 0
  }
  convolution_param {
    num_output: 128
    kernel_size: 1
    weight_filler {
      type: "xavier"
      std: 0.08
    }
    bias_filler {
      type: "constant"
      value: 0.2
    }
  }
}
layer {
  name: "loss2/relu_conv"
  type: "ReLU"
  bottom: "loss2/conv"
  top: "loss2/conv"
}
layer {
  name: "loss2/fc"
  type: "InnerProduct"
  bottom: "loss2/conv"
  top: "loss2/fc"
  param {
    lr_mult: 1
    decay_mult: 1
  }
  param {
    lr_mult: 2
    decay_mult: 0
  }
  inner_product_param {
    num_output: 1024
    weight_filler {
      type: "xavier"
      std: 0.02
    }
    bias_filler {
      type: "constant"
      value: 0.2
    }
  }
}
layer {
  name: "loss2/relu_fc"
  type: "ReLU"
  bottom: "loss2/fc"
  top: "loss2/fc"
}
layer {
  name: "loss2/drop_fc"
  type: "Dropout"
  bottom: "loss2/fc"
  top: "loss2/fc"
  dropout_param {
    dropout_ratio: 0.7
  }
}
layer {
  name: "loss2/classifier_plantvillage"
  type: "InnerProduct"
  bottom: "loss2/fc"
  top: "loss2/classifier_plantvillage"
  param {
    lr_mult: 1
    decay_mult: 1
  }
  param {
    lr_mult: 2
    decay_mult: 0
  }
  inner_product_param {
    num_output: 38
    weight_filler {
      type: "xavier"
      std: 0.0009765625
    }
    bias_filler {
      type: "constant"
      value: 0
    }
  }
}
layer {
  name: "inception_4e/1x1"
  type: "Convolution"
  bottom: "inception_4d/output"
  top: "inception_4e/1x1"
  param {
    lr_mult: 1
    decay_mult: 1
  }
  param {
    lr_mult: 2
    decay_mult: 0
  }
  convolution_param {
    num_output: 256
    kernel_size: 1
    weight_filler {
      type: "xavier"
      std: 0.03
    }
    bias_filler {
      type: "constant"
      value: 0.2
    }
  }
}
layer {
  name: "inception_4e/relu_1x1"
  type: "ReLU"
  bottom: "inception_4e/1x1"
  top: "inception_4e/1x1"
}
layer {
  name: "inception_4e/3x3_reduce"
  type: "Convolution"
  bottom: "inception_4d/output"
  top: "inception_4e/3x3_reduce"
  param {
    lr_mult: 1
    decay_mult: 1
  }
  param {
    lr_mult: 2
    decay_mult: 0
  }
  convolution_param {
    num_output: 160
    kernel_size: 1
    weight_filler {
      type: "xavier"
      std: 0.09
    }
    bias_filler {
      type: "constant"
      value: 0.2
    }
  }
}
layer {
  name: "inception_4e/relu_3x3_reduce"
  type: "ReLU"
  bottom: "inception_4e/3x3_reduce"
  top: "inception_4e/3x3_reduce"
}
layer {
  name: "inception_4e/3x3"
  type: "Convolution"
  bottom: "inception_4e/3x3_reduce"
  top: "inception_4e/3x3"
  param {
    lr_mult: 1
    decay_mult: 1
  }
  param {
    lr_mult: 2
    decay_mult: 0
  }
  convolution_param {
    num_output: 320
    pad: 1
    kernel_size: 3
    weight_filler {
      type: "xavier"
      std: 0.03
    }
    bias_filler {
      type: "constant"
      value: 0.2
    }
  }
}
layer {
  name: "inception_4e/relu_3x3"
  type: "ReLU"
  bottom: "inception_4e/3x3"
  top: "inception_4e/3x3"
}
layer {
  name: "inception_4e/5x5_reduce"
  type: "Convolution"
  bottom: "inception_4d/output"
  top: "inception_4e/5x5_reduce"
  param {
    lr_mult: 1
    decay_mult: 1
  }
  param {
    lr_mult: 2
    decay_mult: 0
  }
  convolution_param {
    num_output: 32
    kernel_size: 1
    weight_filler {
      type: "xavier"
      std: 0.2
    }
    bias_filler {
      type: "constant"
      value: 0.2
    }
  }
}
layer {
  name: "inception_4e/relu_5x5_reduce"
  type: "ReLU"
  bottom: "inception_4e/5x5_reduce"
  top: "inception_4e/5x5_reduce"
}
layer {
  name: "inception_4e/5x5"
  type: "Convolution"
  bottom: "inception_4e/5x5_reduce"
  top: "inception_4e/
I0403 18:02:14.272583  6514 layer_factory.hpp:77] Creating layer data
I0403 18:02:14.273203  6514 net.cpp:91] Creating Layer data
I0403 18:02:14.273249  6514 net.cpp:399] data -> data
I0403 18:02:14.273301  6514 net.cpp:399] data -> label
I0403 18:02:14.273340  6514 data_transformer.cpp:25] Loading mean file from: /home/mohanty/data/final_dataset/lmdb/segmented-50-50/mean.binaryproto
I0403 18:02:14.274407  6518 db_lmdb.cpp:38] Opened lmdb /home/mohanty/data/final_dataset/lmdb/segmented-50-50/test_db
I0403 18:02:14.286226  6514 data_layer.cpp:41] output data size: 24,3,224,224
I0403 18:02:14.314878  6514 net.cpp:141] Setting up data
I0403 18:02:14.314936  6514 net.cpp:148] Top shape: 24 3 224 224 (3612672)
I0403 18:02:14.314959  6514 net.cpp:148] Top shape: 24 (24)
I0403 18:02:14.314975  6514 net.cpp:156] Memory required for data: 14450784
I0403 18:02:14.315001  6514 layer_factory.hpp:77] Creating layer label_data_1_split
I0403 18:02:14.315027  6514 net.cpp:91] Creating Layer label_data_1_split
I0403 18:02:14.315045  6514 net.cpp:425] label_data_1_split <- label
I0403 18:02:14.315076  6514 net.cpp:399] label_data_1_split -> label_data_1_split_0
I0403 18:02:14.315106  6514 net.cpp:399] label_data_1_split -> label_data_1_split_1
I0403 18:02:14.315127  6514 net.cpp:399] label_data_1_split -> label_data_1_split_2
I0403 18:02:14.315148  6514 net.cpp:399] label_data_1_split -> label_data_1_split_3
I0403 18:02:14.315168  6514 net.cpp:399] label_data_1_split -> label_data_1_split_4
I0403 18:02:14.315188  6514 net.cpp:399] label_data_1_split -> label_data_1_split_5
I0403 18:02:14.315207  6514 net.cpp:399] label_data_1_split -> label_data_1_split_6
I0403 18:02:14.315233  6514 net.cpp:399] label_data_1_split -> label_data_1_split_7
I0403 18:02:14.315253  6514 net.cpp:399] label_data_1_split -> label_data_1_split_8
I0403 18:02:14.315274  6514 net.cpp:399] label_data_1_split -> label_data_1_split_9
I0403 18:02:14.315389  6514 net.cpp:141] Setting up label_data_1_split
I0403 18:02:14.315413  6514 net.cpp:148] Top shape: 24 (24)
I0403 18:02:14.315430  6514 net.cpp:148] Top shape: 24 (24)
I0403 18:02:14.315446  6514 net.cpp:148] Top shape: 24 (24)
I0403 18:02:14.315462  6514 net.cpp:148] Top shape: 24 (24)
I0403 18:02:14.315477  6514 net.cpp:148] Top shape: 24 (24)
I0403 18:02:14.315493  6514 net.cpp:148] Top shape: 24 (24)
I0403 18:02:14.315510  6514 net.cpp:148] Top shape: 24 (24)
I0403 18:02:14.315524  6514 net.cpp:148] Top shape: 24 (24)
I0403 18:02:14.315541  6514 net.cpp:148] Top shape: 24 (24)
I0403 18:02:14.315557  6514 net.cpp:148] Top shape: 24 (24)
I0403 18:02:14.315590  6514 net.cpp:156] Memory required for data: 14451744
I0403 18:02:14.315608  6514 layer_factory.hpp:77] Creating layer conv1/7x7_s2
I0403 18:02:14.315640  6514 net.cpp:91] Creating Layer conv1/7x7_s2
I0403 18:02:14.315659  6514 net.cpp:425] conv1/7x7_s2 <- data
I0403 18:02:14.315678  6514 net.cpp:399] conv1/7x7_s2 -> conv1/7x7_s2
I0403 18:02:14.456471  6514 net.cpp:141] Setting up conv1/7x7_s2
I0403 18:02:14.456580  6514 net.cpp:148] Top shape: 24 64 112 112 (19267584)
I0403 18:02:14.456596  6514 net.cpp:156] Memory required for data: 91522080
I0403 18:02:14.456629  6514 layer_factory.hpp:77] Creating layer conv1/relu_7x7
I0403 18:02:14.456657  6514 net.cpp:91] Creating Layer conv1/relu_7x7
I0403 18:02:14.456676  6514 net.cpp:425] conv1/relu_7x7 <- conv1/7x7_s2
I0403 18:02:14.456694  6514 net.cpp:386] conv1/relu_7x7 -> conv1/7x7_s2 (in-place)
I0403 18:02:14.456962  6514 net.cpp:141] Setting up conv1/relu_7x7
I0403 18:02:14.456990  6514 net.cpp:148] Top shape: 24 64 112 112 (19267584)
I0403 18:02:14.457005  6514 net.cpp:156] Memory required for data: 168592416
I0403 18:02:14.457018  6514 layer_factory.hpp:77] Creating layer pool1/3x3_s2
I0403 18:02:14.457044  6514 net.cpp:91] Creating Layer pool1/3x3_s2
I0403 18:02:14.457062  6514 net.cpp:425] pool1/3x3_s2 <- conv1/7x7_s2
I0403 18:02:14.457079  6514 net.cpp:399] pool1/3x3_s2 -> pool1/3x3_s2
I0403 18:02:14.457154  6514 net.cpp:141] Setting up pool1/3x3_s2
I0403 18:02:14.457177  6514 net.cpp:148] Top shape: 24 64 56 56 (4816896)
I0403 18:02:14.457191  6514 net.cpp:156] Memory required for data: 187860000
I0403 18:02:14.457206  6514 layer_factory.hpp:77] Creating layer pool1/norm1
I0403 18:02:14.457238  6514 net.cpp:91] Creating Layer pool1/norm1
I0403 18:02:14.457257  6514 net.cpp:425] pool1/norm1 <- pool1/3x3_s2
I0403 18:02:14.457274  6514 net.cpp:399] pool1/norm1 -> pool1/norm1
I0403 18:02:14.457569  6514 net.cpp:141] Setting up pool1/norm1
I0403 18:02:14.457597  6514 net.cpp:148] Top shape: 24 64 56 56 (4816896)
I0403 18:02:14.457612  6514 net.cpp:156] Memory required for data: 207127584
I0403 18:02:14.457625  6514 layer_factory.hpp:77] Creating layer conv2/3x3_reduce
I0403 18:02:14.457653  6514 net.cpp:91] Creating Layer conv2/3x3_reduce
I0403 18:02:14.457670  6514 net.cpp:425] conv2/3x3_reduce <- pool1/norm1
I0403 18:02:14.457690  6514 net.cpp:399] conv2/3x3_reduce -> conv2/3x3_reduce
I0403 18:02:14.459092  6514 net.cpp:141] Setting up conv2/3x3_reduce
I0403 18:02:14.459120  6514 net.cpp:148] Top shape: 24 64 56 56 (4816896)
I0403 18:02:14.459136  6514 net.cpp:156] Memory required for data: 226395168
I0403 18:02:14.459156  6514 layer_factory.hpp:77] Creating layer conv2/relu_3x3_reduce
I0403 18:02:14.459177  6514 net.cpp:91] Creating Layer conv2/relu_3x3_reduce
I0403 18:02:14.459192  6514 net.cpp:425] conv2/relu_3x3_reduce <- conv2/3x3_reduce
I0403 18:02:14.459214  6514 net.cpp:386] conv2/relu_3x3_reduce -> conv2/3x3_reduce (in-place)
I0403 18:02:14.459483  6514 net.cpp:141] Setting up conv2/relu_3x3_reduce
I0403 18:02:14.459509  6514 net.cpp:148] Top shape: 24 64 56 56 (4816896)
I0403 18:02:14.459523  6514 net.cpp:156] Memory required for data: 245662752
I0403 18:02:14.459537  6514 layer_factory.hpp:77] Creating layer conv2/3x3
I0403 18:02:14.459560  6514 net.cpp:91] Creating Layer conv2/3x3
I0403 18:02:14.459578  6514 net.cpp:425] conv2/3x3 <- conv2/3x3_reduce
I0403 18:02:14.459599  6514 net.cpp:399] conv2/3x3 -> conv2/3x3
I0403 18:02:14.461836  6514 net.cpp:141] Setting up conv2/3x3
I0403 18:02:14.461866  6514 net.cpp:148] Top shape: 24 192 56 56 (14450688)
I0403 18:02:14.461881  6514 net.cpp:156] Memory required for data: 303465504
I0403 18:02:14.461902  6514 layer_factory.hpp:77] Creating layer conv2/relu_3x3
I0403 18:02:14.461922  6514 net.cpp:91] Creating Layer conv2/relu_3x3
I0403 18:02:14.461938  6514 net.cpp:425] conv2/relu_3x3 <- conv2/3x3
I0403 18:02:14.461956  6514 net.cpp:386] conv2/relu_3x3 -> conv2/3x3 (in-place)
I0403 18:02:14.462122  6514 net.cpp:141] Setting up conv2/relu_3x3
I0403 18:02:14.462146  6514 net.cpp:148] Top shape: 24 192 56 56 (14450688)
I0403 18:02:14.462193  6514 net.cpp:156] Memory required for data: 361268256
I0403 18:02:14.462219  6514 layer_factory.hpp:77] Creating layer conv2/norm2
I0403 18:02:14.462244  6514 net.cpp:91] Creating Layer conv2/norm2
I0403 18:02:14.462260  6514 net.cpp:425] conv2/norm2 <- conv2/3x3
I0403 18:02:14.462280  6514 net.cpp:399] conv2/norm2 -> conv2/norm2
I0403 18:02:14.462576  6514 net.cpp:141] Setting up conv2/norm2
I0403 18:02:14.462605  6514 net.cpp:148] Top shape: 24 192 56 56 (14450688)
I0403 18:02:14.462621  6514 net.cpp:156] Memory required for data: 419071008
I0403 18:02:14.462636  6514 layer_factory.hpp:77] Creating layer pool2/3x3_s2
I0403 18:02:14.462653  6514 net.cpp:91] Creating Layer pool2/3x3_s2
I0403 18:02:14.462668  6514 net.cpp:425] pool2/3x3_s2 <- conv2/norm2
I0403 18:02:14.462688  6514 net.cpp:399] pool2/3x3_s2 -> pool2/3x3_s2
I0403 18:02:14.462741  6514 net.cpp:141] Setting up pool2/3x3_s2
I0403 18:02:14.462766  6514 net.cpp:148] Top shape: 24 192 28 28 (3612672)
I0403 18:02:14.462781  6514 net.cpp:156] Memory required for data: 433521696
I0403 18:02:14.462795  6514 layer_factory.hpp:77] Creating layer pool2/3x3_s2_pool2/3x3_s2_0_split
I0403 18:02:14.462813  6514 net.cpp:91] Creating Layer pool2/3x3_s2_pool2/3x3_s2_0_split
I0403 18:02:14.462828  6514 net.cpp:425] pool2/3x3_s2_pool2/3x3_s2_0_split <- pool2/3x3_s2
I0403 18:02:14.462846  6514 net.cpp:399] pool2/3x3_s2_pool2/3x3_s2_0_split -> pool2/3x3_s2_pool2/3x3_s2_0_split_0
I0403 18:02:14.462863  6514 net.cpp:399] pool2/3x3_s2_pool2/3x3_s2_0_split -> pool2/3x3_s2_pool2/3x3_s2_0_split_1
I0403 18:02:14.462885  6514 net.cpp:399] pool2/3x3_s2_pool2/3x3_s2_0_split -> pool2/3x3_s2_pool2/3x3_s2_0_split_2
I0403 18:02:14.462904  6514 net.cpp:399] pool2/3x3_s2_pool2/3x3_s2_0_split -> pool2/3x3_s2_pool2/3x3_s2_0_split_3
I0403 18:02:14.462973  6514 net.cpp:141] Setting up pool2/3x3_s2_pool2/3x3_s2_0_split
I0403 18:02:14.462996  6514 net.cpp:148] Top shape: 24 192 28 28 (3612672)
I0403 18:02:14.463011  6514 net.cpp:148] Top shape: 24 192 28 28 (3612672)
I0403 18:02:14.463027  6514 net.cpp:148] Top shape: 24 192 28 28 (3612672)
I0403 18:02:14.463042  6514 net.cpp:148] Top shape: 24 192 28 28 (3612672)
I0403 18:02:14.463054  6514 net.cpp:156] Memory required for data: 491324448
I0403 18:02:14.463068  6514 layer_factory.hpp:77] Creating layer inception_3a/1x1
I0403 18:02:14.463090  6514 net.cpp:91] Creating Layer inception_3a/1x1
I0403 18:02:14.463106  6514 net.cpp:425] inception_3a/1x1 <- pool2/3x3_s2_pool2/3x3_s2_0_split_0
I0403 18:02:14.463127  6514 net.cpp:399] inception_3a/1x1 -> inception_3a/1x1
I0403 18:02:14.464635  6514 net.cpp:141] Setting up inception_3a/1x1
I0403 18:02:14.464663  6514 net.cpp:148] Top shape: 24 64 28 28 (1204224)
I0403 18:02:14.464679  6514 net.cpp:156] Memory required for data: 496141344
I0403 18:02:14.464697  6514 layer_factory.hpp:77] Creating layer inception_3a/relu_1x1
I0403 18:02:14.464715  6514 net.cpp:91] Creating Layer inception_3a/relu_1x1
I0403 18:02:14.464730  6514 net.cpp:425] inception_3a/relu_1x1 <- inception_3a/1x1
I0403 18:02:14.464750  6514 net.cpp:386] inception_3a/relu_1x1 -> inception_3a/1x1 (in-place)
I0403 18:02:14.464920  6514 net.cpp:141] Setting up inception_3a/relu_1x1
I0403 18:02:14.464944  6514 net.cpp:148] Top shape: 24 64 28 28 (1204224)
I0403 18:02:14.464958  6514 net.cpp:156] Memory required for data: 500958240
I0403 18:02:14.464973  6514 layer_factory.hpp:77] Creating layer inception_3a/3x3_reduce
I0403 18:02:14.464994  6514 net.cpp:91] Creating Layer inception_3a/3x3_reduce
I0403 18:02:14.465011  6514 net.cpp:425] inception_3a/3x3_reduce <- pool2/3x3_s2_pool2/3x3_s2_0_split_1
I0403 18:02:14.465034  6514 net.cpp:399] inception_3a/3x3_reduce -> inception_3a/3x3_reduce
I0403 18:02:14.466693  6514 net.cpp:141] Setting up inception_3a/3x3_reduce
I0403 18:02:14.466722  6514 net.cpp:148] Top shape: 24 96 28 28 (1806336)
I0403 18:02:14.466737  6514 net.cpp:156] Memory required for data: 508183584
I0403 18:02:14.466758  6514 layer_factory.hpp:77] Creating layer inception_3a/relu_3x3_reduce
I0403 18:02:14.466794  6514 net.cpp:91] Creating Layer inception_3a/relu_3x3_reduce
I0403 18:02:14.466811  6514 net.cpp:425] inception_3a/relu_3x3_reduce <- inception_3a/3x3_reduce
I0403 18:02:14.466828  6514 net.cpp:386] inception_3a/relu_3x3_reduce -> inception_3a/3x3_reduce (in-place)
I0403 18:02:14.467000  6514 net.cpp:141] Setting up inception_3a/relu_3x3_reduce
I0403 18:02:14.467025  6514 net.cpp:148] Top shape: 24 96 28 28 (1806336)
I0403 18:02:14.467041  6514 net.cpp:156] Memory required for data: 515408928
I0403 18:02:14.467054  6514 layer_factory.hpp:77] Creating layer inception_3a/3x3
I0403 18:02:14.467077  6514 net.cpp:91] Creating Layer inception_3a/3x3
I0403 18:02:14.467093  6514 net.cpp:425] inception_3a/3x3 <- inception_3a/3x3_reduce
I0403 18:02:14.467111  6514 net.cpp:399] inception_3a/3x3 -> inception_3a/3x3
I0403 18:02:14.468705  6514 net.cpp:141] Setting up inception_3a/3x3
I0403 18:02:14.468734  6514 net.cpp:148] Top shape: 24 128 28 28 (2408448)
I0403 18:02:14.468749  6514 net.cpp:156] Memory required for data: 525042720
I0403 18:02:14.468766  6514 layer_factory.hpp:77] Creating layer inception_3a/relu_3x3
I0403 18:02:14.468791  6514 net.cpp:91] Creating Layer inception_3a/relu_3x3
I0403 18:02:14.468807  6514 net.cpp:425] inception_3a/relu_3x3 <- inception_3a/3x3
I0403 18:02:14.468824  6514 net.cpp:386] inception_3a/relu_3x3 -> inception_3a/3x3 (in-place)
I0403 18:02:14.469085  6514 net.cpp:141] Setting up inception_3a/relu_3x3
I0403 18:02:14.469111  6514 net.cpp:148] Top shape: 24 128 28 28 (2408448)
I0403 18:02:14.469126  6514 net.cpp:156] Memory required for data: 534676512
I0403 18:02:14.469141  6514 layer_factory.hpp:77] Creating layer inception_3a/5x5_reduce
I0403 18:02:14.469162  6514 net.cpp:91] Creating Layer inception_3a/5x5_reduce
I0403 18:02:14.469180  6514 net.cpp:425] inception_3a/5x5_reduce <- pool2/3x3_s2_pool2/3x3_s2_0_split_2
I0403 18:02:14.469202  6514 net.cpp:399] inception_3a/5x5_reduce -> inception_3a/5x5_reduce
I0403 18:02:14.470129  6514 net.cpp:141] Setting up inception_3a/5x5_reduce
I0403 18:02:14.470155  6514 net.cpp:148] Top shape: 24 16 28 28 (301056)
I0403 18:02:14.470170  6514 net.cpp:156] Memory required for data: 535880736
I0403 18:02:14.470188  6514 layer_factory.hpp:77] Creating layer inception_3a/relu_5x5_reduce
I0403 18:02:14.470216  6514 net.cpp:91] Creating Layer inception_3a/relu_5x5_reduce
I0403 18:02:14.470234  6514 net.cpp:425] inception_3a/relu_5x5_reduce <- inception_3a/5x5_reduce
I0403 18:02:14.470252  6514 net.cpp:386] inception_3a/relu_5x5_reduce -> inception_3a/5x5_reduce (in-place)
I0403 18:02:14.470525  6514 net.cpp:141] Setting up inception_3a/relu_5x5_reduce
I0403 18:02:14.470549  6514 net.cpp:148] Top shape: 24 16 28 28 (301056)
I0403 18:02:14.470564  6514 net.cpp:156] Memory required for data: 537084960
I0403 18:02:14.470578  6514 layer_factory.hpp:77] Creating layer inception_3a/5x5
I0403 18:02:14.470602  6514 net.cpp:91] Creating Layer inception_3a/5x5
I0403 18:02:14.470618  6514 net.cpp:425] inception_3a/5x5 <- inception_3a/5x5_reduce
I0403 18:02:14.470636  6514 net.cpp:399] inception_3a/5x5 -> inception_3a/5x5
I0403 18:02:14.471643  6514 net.cpp:141] Setting up inception_3a/5x5
I0403 18:02:14.471670  6514 net.cpp:148] Top shape: 24 32 28 28 (602112)
I0403 18:02:14.471685  6514 net.cpp:156] Memory required for data: 539493408
I0403 18:02:14.471704  6514 layer_factory.hpp:77] Creating layer inception_3a/relu_5x5
I0403 18:02:14.471721  6514 net.cpp:91] Creating Layer inception_3a/relu_5x5
I0403 18:02:14.471737  6514 net.cpp:425] inception_3a/relu_5x5 <- inception_3a/5x5
I0403 18:02:14.471756  6514 net.cpp:386] inception_3a/relu_5x5 -> inception_3a/5x5 (in-place)
I0403 18:02:14.471923  6514 net.cpp:141] Setting up inception_3a/relu_5x5
I0403 18:02:14.471947  6514 net.cpp:148] Top shape: 24 32 28 28 (602112)
I0403 18:02:14.471961  6514 net.cpp:156] Memory required for data: 541901856
I0403 18:02:14.471976  6514 layer_factory.hpp:77] Creating layer inception_3a/pool
I0403 18:02:14.471997  6514 net.cpp:91] Creating Layer inception_3a/pool
I0403 18:02:14.472024  6514 net.cpp:425] inception_3a/pool <- pool2/3x3_s2_pool2/3x3_s2_0_split_3
I0403 18:02:14.472043  6514 net.cpp:399] inception_3a/pool -> inception_3a/pool
I0403 18:02:14.472100  6514 net.cpp:141] Setting up inception_3a/pool
I0403 18:02:14.472121  6514 net.cpp:148] Top shape: 24 192 28 28 (3612672)
I0403 18:02:14.472134  6514 net.cpp:156] Memory required for data: 556352544
I0403 18:02:14.472148  6514 layer_factory.hpp:77] Creating layer inception_3a/pool_proj
I0403 18:02:14.472170  6514 net.cpp:91] Creating Layer inception_3a/pool_proj
I0403 18:02:14.472188  6514 net.cpp:425] inception_3a/pool_proj <- inception_3a/pool
I0403 18:02:14.472219  6514 net.cpp:399] inception_3a/pool_proj -> inception_3a/pool_proj
I0403 18:02:14.473153  6514 net.cpp:141] Setting up inception_3a/pool_proj
I0403 18:02:14.473182  6514 net.cpp:148] Top shape: 24 32 28 28 (602112)
I0403 18:02:14.473197  6514 net.cpp:156] Memory required for data: 558760992
I0403 18:02:14.473223  6514 layer_factory.hpp:77] Creating layer inception_3a/relu_pool_proj
I0403 18:02:14.473244  6514 net.cpp:91] Creating Layer inception_3a/relu_pool_proj
I0403 18:02:14.473263  6514 net.cpp:425] inception_3a/relu_pool_proj <- inception_3a/pool_proj
I0403 18:02:14.473279  6514 net.cpp:386] inception_3a/relu_pool_proj -> inception_3a/pool_proj (in-place)
I0403 18:02:14.473551  6514 net.cpp:141] Setting up inception_3a/relu_pool_proj
I0403 18:02:14.473575  6514 net.cpp:148] Top shape: 24 32 28 28 (602112)
I0403 18:02:14.473590  6514 net.cpp:156] Memory required for data: 561169440
I0403 18:02:14.473605  6514 layer_factory.hpp:77] Creating layer inception_3a/output
I0403 18:02:14.473623  6514 net.cpp:91] Creating Layer inception_3a/output
I0403 18:02:14.473637  6514 net.cpp:425] inception_3a/output <- inception_3a/1x1
I0403 18:02:14.473654  6514 net.cpp:425] inception_3a/output <- inception_3a/3x3
I0403 18:02:14.473669  6514 net.cpp:425] inception_3a/output <- inception_3a/5x5
I0403 18:02:14.473683  6514 net.cpp:425] inception_3a/output <- inception_3a/pool_proj
I0403 18:02:14.473701  6514 net.cpp:399] inception_3a/output -> inception_3a/output
I0403 18:02:14.473748  6514 net.cpp:141] Setting up inception_3a/output
I0403 18:02:14.473770  6514 net.cpp:148] Top shape: 24 256 28 28 (4816896)
I0403 18:02:14.473785  6514 net.cpp:156] Memory required for data: 580437024
I0403 18:02:14.473799  6514 layer_factory.hpp:77] Creating layer inception_3a/output_inception_3a/output_0_split
I0403 18:02:14.473815  6514 net.cpp:91] Creating Layer inception_3a/output_inception_3a/output_0_split
I0403 18:02:14.473830  6514 net.cpp:425] inception_3a/output_inception_3a/output_0_split <- inception_3a/output
I0403 18:02:14.473850  6514 net.cpp:399] inception_3a/output_inception_3a/output_0_split -> inception_3a/output_inception_3a/output_0_split_0
I0403 18:02:14.473870  6514 net.cpp:399] inception_3a/output_inception_3a/output_0_split -> inception_3a/output_inception_3a/output_0_split_1
I0403 18:02:14.473891  6514 net.cpp:399] inception_3a/output_inception_3a/output_0_split -> inception_3a/output_inception_3a/output_0_split_2
I0403 18:02:14.473911  6514 net.cpp:399] inception_3a/output_inception_3a/output_0_split -> inception_3a/output_inception_3a/output_0_split_3
I0403 18:02:14.473989  6514 net.cpp:141] Setting up inception_3a/output_inception_3a/output_0_split
I0403 18:02:14.474010  6514 net.cpp:148] Top shape: 24 256 28 28 (4816896)
I0403 18:02:14.474026  6514 net.cpp:148] Top shape: 24 256 28 28 (4816896)
I0403 18:02:14.474041  6514 net.cpp:148] Top shape: 24 256 28 28 (4816896)
I0403 18:02:14.474056  6514 net.cpp:148] Top shape: 24 256 28 28 (4816896)
I0403 18:02:14.474069  6514 net.cpp:156] Memory required for data: 657507360
I0403 18:02:14.474083  6514 layer_factory.hpp:77] Creating layer inception_3b/1x1
I0403 18:02:14.474104  6514 net.cpp:91] Creating Layer inception_3b/1x1
I0403 18:02:14.474122  6514 net.cpp:425] inception_3b/1x1 <- inception_3a/output_inception_3a/output_0_split_0
I0403 18:02:14.474141  6514 net.cpp:399] inception_3b/1x1 -> inception_3b/1x1
I0403 18:02:14.475296  6514 net.cpp:141] Setting up inception_3b/1x1
I0403 18:02:14.475338  6514 net.cpp:148] Top shape: 24 128 28 28 (2408448)
I0403 18:02:14.475356  6514 net.cpp:156] Memory required for data: 667141152
I0403 18:02:14.475374  6514 layer_factory.hpp:77] Creating layer inception_3b/relu_1x1
I0403 18:02:14.475392  6514 net.cpp:91] Creating Layer inception_3b/relu_1x1
I0403 18:02:14.475409  6514 net.cpp:425] inception_3b/relu_1x1 <- inception_3b/1x1
I0403 18:02:14.475430  6514 net.cpp:386] inception_3b/relu_1x1 -> inception_3b/1x1 (in-place)
I0403 18:02:14.475601  6514 net.cpp:141] Setting up inception_3b/relu_1x1
I0403 18:02:14.475627  6514 net.cpp:148] Top shape: 24 128 28 28 (2408448)
I0403 18:02:14.475641  6514 net.cpp:156] Memory required for data: 676774944
I0403 18:02:14.475656  6514 layer_factory.hpp:77] Creating layer inception_3b/3x3_reduce
I0403 18:02:14.475678  6514 net.cpp:91] Creating Layer inception_3b/3x3_reduce
I0403 18:02:14.475697  6514 net.cpp:425] inception_3b/3x3_reduce <- inception_3a/output_inception_3a/output_0_split_1
I0403 18:02:14.475718  6514 net.cpp:399] inception_3b/3x3_reduce -> inception_3b/3x3_reduce
I0403 18:02:14.476846  6514 net.cpp:141] Setting up inception_3b/3x3_reduce
I0403 18:02:14.476873  6514 net.cpp:148] Top shape: 24 128 28 28 (2408448)
I0403 18:02:14.476889  6514 net.cpp:156] Memory required for data: 686408736
I0403 18:02:14.476908  6514 layer_factory.hpp:77] Creating layer inception_3b/relu_3x3_reduce
I0403 18:02:14.476927  6514 net.cpp:91] Creating Layer inception_3b/relu_3x3_reduce
I0403 18:02:14.476943  6514 net.cpp:425] inception_3b/relu_3x3_reduce <- inception_3b/3x3_reduce
I0403 18:02:14.476964  6514 net.cpp:386] inception_3b/relu_3x3_reduce -> inception_3b/3x3_reduce (in-place)
I0403 18:02:14.477135  6514 net.cpp:141] Setting up inception_3b/relu_3x3_reduce
I0403 18:02:14.477160  6514 net.cpp:148] Top shape: 24 128 28 28 (2408448)
I0403 18:02:14.477175  6514 net.cpp:156] Memory required for data: 696042528
I0403 18:02:14.477191  6514 layer_factory.hpp:77] Creating layer inception_3b/3x3
I0403 18:02:14.477222  6514 net.cpp:91] Creating Layer inception_3b/3x3
I0403 18:02:14.477242  6514 net.cpp:425] inception_3b/3x3 <- inception_3b/3x3_reduce
I0403 18:02:14.477262  6514 net.cpp:399] inception_3b/3x3 -> inception_3b/3x3
I0403 18:02:14.480202  6514 net.cpp:141] Setting up inception_3b/3x3
I0403 18:02:14.480235  6514 net.cpp:148] Top shape: 24 192 28 28 (3612672)
I0403 18:02:14.480252  6514 net.cpp:156] Memory required for data: 710493216
I0403 18:02:14.480270  6514 layer_factory.hpp:77] Creating layer inception_3b/relu_3x3
I0403 18:02:14.480291  6514 net.cpp:91] Creating Layer inception_3b/relu_3x3
I0403 18:02:14.480309  6514 net.cpp:425] inception_3b/relu_3x3 <- inception_3b/3x3
I0403 18:02:14.480325  6514 net.cpp:386] inception_3b/relu_3x3 -> inception_3b/3x3 (in-place)
I0403 18:02:14.480597  6514 net.cpp:141] Setting up inception_3b/relu_3x3
I0403 18:02:14.480623  6514 net.cpp:148] Top shape: 24 192 28 28 (3612672)
I0403 18:02:14.480639  6514 net.cpp:156] Memory required for data: 724943904
I0403 18:02:14.480654  6514 layer_factory.hpp:77] Creating layer inception_3b/5x5_reduce
I0403 18:02:14.480679  6514 net.cpp:91] Creating Layer inception_3b/5x5_reduce
I0403 18:02:14.480696  6514 net.cpp:425] inception_3b/5x5_reduce <- inception_3a/output_inception_3a/output_0_split_2
I0403 18:02:14.480718  6514 net.cpp:399] inception_3b/5x5_reduce -> inception_3b/5x5_reduce
I0403 18:02:14.481703  6514 net.cpp:141] Setting up inception_3b/5x5_reduce
I0403 18:02:14.481732  6514 net.cpp:148] Top shape: 24 32 28 28 (602112)
I0403 18:02:14.481747  6514 net.cpp:156] Memory required for data: 727352352
I0403 18:02:14.481766  6514 layer_factory.hpp:77] Creating layer inception_3b/relu_5x5_reduce
I0403 18:02:14.481786  6514 net.cpp:91] Creating Layer inception_3b/relu_5x5_reduce
I0403 18:02:14.481802  6514 net.cpp:425] inception_3b/relu_5x5_reduce <- inception_3b/5x5_reduce
I0403 18:02:14.481820  6514 net.cpp:386] inception_3b/relu_5x5_reduce -> inception_3b/5x5_reduce (in-place)
I0403 18:02:14.482012  6514 net.cpp:141] Setting up inception_3b/relu_5x5_reduce
I0403 18:02:14.482038  6514 net.cpp:148] Top shape: 24 32 28 28 (602112)
I0403 18:02:14.482054  6514 net.cpp:156] Memory required for data: 729760800
I0403 18:02:14.482069  6514 layer_factory.hpp:77] Creating layer inception_3b/5x5
I0403 18:02:14.482089  6514 net.cpp:91] Creating Layer inception_3b/5x5
I0403 18:02:14.482105  6514 net.cpp:425] inception_3b/5x5 <- inception_3b/5x5_reduce
I0403 18:02:14.482126  6514 net.cpp:399] inception_3b/5x5 -> inception_3b/5x5
I0403 18:02:14.484118  6514 net.cpp:141] Setting up inception_3b/5x5
I0403 18:02:14.484148  6514 net.cpp:148] Top shape: 24 96 28 28 (1806336)
I0403 18:02:14.484163  6514 net.cpp:156] Memory required for data: 736986144
I0403 18:02:14.484181  6514 layer_factory.hpp:77] Creating layer inception_3b/relu_5x5
I0403 18:02:14.484200  6514 net.cpp:91] Creating Layer inception_3b/relu_5x5
I0403 18:02:14.484221  6514 net.cpp:425] inception_3b/relu_5x5 <- inception_3b/5x5
I0403 18:02:14.484243  6514 net.cpp:386] inception_3b/relu_5x5 -> inception_3b/5x5 (in-place)
I0403 18:02:14.484436  6514 net.cpp:141] Setting up inception_3b/relu_5x5
I0403 18:02:14.484459  6514 net.cpp:148] Top shape: 24 96 28 28 (1806336)
I0403 18:02:14.484473  6514 net.cpp:156] Memory required for data: 744211488
I0403 18:02:14.484488  6514 layer_factory.hpp:77] Creating layer inception_3b/pool
I0403 18:02:14.484505  6514 net.cpp:91] Creating Layer inception_3b/pool
I0403 18:02:14.484522  6514 net.cpp:425] inception_3b/pool <- inception_3a/output_inception_3a/output_0_split_3
I0403 18:02:14.484540  6514 net.cpp:399] inception_3b/pool -> inception_3b/pool
I0403 18:02:14.484602  6514 net.cpp:141] Setting up inception_3b/pool
I0403 18:02:14.484624  6514 net.cpp:148] Top shape: 24 256 28 28 (4816896)
I0403 18:02:14.484639  6514 net.cpp:156] Memory required for data: 763479072
I0403 18:02:14.484653  6514 layer_factory.hpp:77] Creating layer inception_3b/pool_proj
I0403 18:02:14.484676  6514 net.cpp:91] Creating Layer inception_3b/pool_proj
I0403 18:02:14.484694  6514 net.cpp:425] inception_3b/pool_proj <- inception_3b/pool
I0403 18:02:14.484715  6514 net.cpp:399] inception_3b/pool_proj -> inception_3b/pool_proj
I0403 18:02:14.485759  6514 net.cpp:141] Setting up inception_3b/pool_proj
I0403 18:02:14.485787  6514 net.cpp:148] Top shape: 24 64 28 28 (1204224)
I0403 18:02:14.485805  6514 net.cpp:156] Memory required for data: 768295968
I0403 18:02:14.485822  6514 layer_factory.hpp:77] Creating layer inception_3b/relu_pool_proj
I0403 18:02:14.485839  6514 net.cpp:91] Creating Layer inception_3b/relu_pool_proj
I0403 18:02:14.485855  6514 net.cpp:425] inception_3b/relu_pool_proj <- inception_3b/pool_proj
I0403 18:02:14.485872  6514 net.cpp:386] inception_3b/relu_pool_proj -> inception_3b/pool_proj (in-place)
I0403 18:02:14.486253  6514 net.cpp:141] Setting up inception_3b/relu_pool_proj
I0403 18:02:14.486279  6514 net.cpp:148] Top shape: 24 64 28 28 (1204224)
I0403 18:02:14.486294  6514 net.cpp:156] Memory required for data: 773112864
I0403 18:02:14.486310  6514 layer_factory.hpp:77] Creating layer inception_3b/output
I0403 18:02:14.486330  6514 net.cpp:91] Creating Layer inception_3b/output
I0403 18:02:14.486346  6514 net.cpp:425] inception_3b/output <- inception_3b/1x1
I0403 18:02:14.486362  6514 net.cpp:425] inception_3b/output <- inception_3b/3x3
I0403 18:02:14.486383  6514 net.cpp:425] inception_3b/output <- inception_3b/5x5
I0403 18:02:14.486399  6514 net.cpp:425] inception_3b/output <- inception_3b/pool_proj
I0403 18:02:14.486416  6514 net.cpp:399] inception_3b/output -> inception_3b/output
I0403 18:02:14.486461  6514 net.cpp:141] Setting up inception_3b/output
I0403 18:02:14.486485  6514 net.cpp:148] Top shape: 24 480 28 28 (9031680)
I0403 18:02:14.486498  6514 net.cpp:156] Memory required for data: 809239584
I0403 18:02:14.486513  6514 layer_factory.hpp:77] Creating layer pool3/3x3_s2
I0403 18:02:14.486532  6514 net.cpp:91] Creating Layer pool3/3x3_s2
I0403 18:02:14.486548  6514 net.cpp:425] pool3/3x3_s2 <- inception_3b/output
I0403 18:02:14.486583  6514 net.cpp:399] pool3/3x3_s2 -> pool3/3x3_s2
I0403 18:02:14.486642  6514 net.cpp:141] Setting up pool3/3x3_s2
I0403 18:02:14.486665  6514 net.cpp:148] Top shape: 24 480 14 14 (2257920)
I0403 18:02:14.486680  6514 net.cpp:156] Memory required for data: 818271264
I0403 18:02:14.486695  6514 layer_factory.hpp:77] Creating layer pool3/3x3_s2_pool3/3x3_s2_0_split
I0403 18:02:14.486712  6514 net.cpp:91] Creating Layer pool3/3x3_s2_pool3/3x3_s2_0_split
I0403 18:02:14.486728  6514 net.cpp:425] pool3/3x3_s2_pool3/3x3_s2_0_split <- pool3/3x3_s2
I0403 18:02:14.486749  6514 net.cpp:399] pool3/3x3_s2_pool3/3x3_s2_0_split -> pool3/3x3_s2_pool3/3x3_s2_0_split_0
I0403 18:02:14.486768  6514 net.cpp:399] pool3/3x3_s2_pool3/3x3_s2_0_split -> pool3/3x3_s2_pool3/3x3_s2_0_split_1
I0403 18:02:14.486788  6514 net.cpp:399] pool3/3x3_s2_pool3/3x3_s2_0_split -> pool3/3x3_s2_pool3/3x3_s2_0_split_2
I0403 18:02:14.486807  6514 net.cpp:399] pool3/3x3_s2_pool3/3x3_s2_0_split -> pool3/3x3_s2_pool3/3x3_s2_0_split_3
I0403 18:02:14.486886  6514 net.cpp:141] Setting up pool3/3x3_s2_pool3/3x3_s2_0_split
I0403 18:02:14.486919  6514 net.cpp:148] Top shape: 24 480 14 14 (2257920)
I0403 18:02:14.486943  6514 net.cpp:148] Top shape: 24 480 14 14 (2257920)
I0403 18:02:14.486964  6514 net.cpp:148] Top shape: 24 480 14 14 (2257920)
I0403 18:02:14.486987  6514 net.cpp:148] Top shape: 24 480 14 14 (2257920)
I0403 18:02:14.487011  6514 net.cpp:156] Memory required for data: 854397984
I0403 18:02:14.487026  6514 layer_factory.hpp:77] Creating layer inception_4a/1x1
I0403 18:02:14.487047  6514 net.cpp:91] Creating Layer inception_4a/1x1
I0403 18:02:14.487064  6514 net.cpp:425] inception_4a/1x1 <- pool3/3x3_s2_pool3/3x3_s2_0_split_0
I0403 18:02:14.487085  6514 net.cpp:399] inception_4a/1x1 -> inception_4a/1x1
I0403 18:02:14.488709  6514 net.cpp:141] Setting up inception_4a/1x1
I0403 18:02:14.488740  6514 net.cpp:148] Top shape: 24 192 14 14 (903168)
I0403 18:02:14.488757  6514 net.cpp:156] Memory required for data: 858010656
I0403 18:02:14.488776  6514 layer_factory.hpp:77] Creating layer inception_4a/relu_1x1
I0403 18:02:14.488795  6514 net.cpp:91] Creating Layer inception_4a/relu_1x1
I0403 18:02:14.488812  6514 net.cpp:425] inception_4a/relu_1x1 <- inception_4a/1x1
I0403 18:02:14.488829  6514 net.cpp:386] inception_4a/relu_1x1 -> inception_4a/1x1 (in-place)
I0403 18:02:14.489015  6514 net.cpp:141] Setting up inception_4a/relu_1x1
I0403 18:02:14.489042  6514 net.cpp:148] Top shape: 24 192 14 14 (903168)
I0403 18:02:14.489056  6514 net.cpp:156] Memory required for data: 861623328
I0403 18:02:14.489071  6514 layer_factory.hpp:77] Creating layer inception_4a/3x3_reduce
I0403 18:02:14.489095  6514 net.cpp:91] Creating Layer inception_4a/3x3_reduce
I0403 18:02:14.489114  6514 net.cpp:425] inception_4a/3x3_reduce <- pool3/3x3_s2_pool3/3x3_s2_0_split_1
I0403 18:02:14.489135  6514 net.cpp:399] inception_4a/3x3_reduce -> inception_4a/3x3_reduce
I0403 18:02:14.490433  6514 net.cpp:141] Setting up inception_4a/3x3_reduce
I0403 18:02:14.490464  6514 net.cpp:148] Top shape: 24 96 14 14 (451584)
I0403 18:02:14.490481  6514 net.cpp:156] Memory required for data: 863429664
I0403 18:02:14.490509  6514 layer_factory.hpp:77] Creating layer inception_4a/relu_3x3_reduce
I0403 18:02:14.490528  6514 net.cpp:91] Creating Layer inception_4a/relu_3x3_reduce
I0403 18:02:14.490545  6514 net.cpp:425] inception_4a/relu_3x3_reduce <- inception_4a/3x3_reduce
I0403 18:02:14.490562  6514 net.cpp:386] inception_4a/relu_3x3_reduce -> inception_4a/3x3_reduce (in-place)
I0403 18:02:14.490741  6514 net.cpp:141] Setting up inception_4a/relu_3x3_reduce
I0403 18:02:14.490770  6514 net.cpp:148] Top shape: 24 96 14 14 (451584)
I0403 18:02:14.490787  6514 net.cpp:156] Memory required for data: 865236000
I0403 18:02:14.490803  6514 layer_factory.hpp:77] Creating layer inception_4a/3x3
I0403 18:02:14.490824  6514 net.cpp:91] Creating Layer inception_4a/3x3
I0403 18:02:14.490842  6514 net.cpp:425] inception_4a/3x3 <- inception_4a/3x3_reduce
I0403 18:02:14.490861  6514 net.cpp:399] inception_4a/3x3 -> inception_4a/3x3
I0403 18:02:14.493643  6514 net.cpp:141] Setting up inception_4a/3x3
I0403 18:02:14.493672  6514 net.cpp:148] Top shape: 24 208 14 14 (978432)
I0403 18:02:14.493690  6514 net.cpp:156] Memory required for data: 869149728
I0403 18:02:14.493707  6514 layer_factory.hpp:77] Creating layer inception_4a/relu_3x3
I0403 18:02:14.493726  6514 net.cpp:91] Creating Layer inception_4a/relu_3x3
I0403 18:02:14.493742  6514 net.cpp:425] inception_4a/relu_3x3 <- inception_4a/3x3
I0403 18:02:14.493762  6514 net.cpp:386] inception_4a/relu_3x3 -> inception_4a/3x3 (in-place)
I0403 18:02:14.494036  6514 net.cpp:141] Setting up inception_4a/relu_3x3
I0403 18:02:14.494062  6514 net.cpp:148] Top shape: 24 208 14 14 (978432)
I0403 18:02:14.494077  6514 net.cpp:156] Memory required for data: 873063456
I0403 18:02:14.494093  6514 layer_factory.hpp:77] Creating layer inception_4a/5x5_reduce
I0403 18:02:14.494117  6514 net.cpp:91] Creating Layer inception_4a/5x5_reduce
I0403 18:02:14.494135  6514 net.cpp:425] inception_4a/5x5_reduce <- pool3/3x3_s2_pool3/3x3_s2_0_split_2
I0403 18:02:14.494158  6514 net.cpp:399] inception_4a/5x5_reduce -> inception_4a/5x5_reduce
I0403 18:02:14.495172  6514 net.cpp:141] Setting up inception_4a/5x5_reduce
I0403 18:02:14.495200  6514 net.cpp:148] Top shape: 24 16 14 14 (75264)
I0403 18:02:14.495221  6514 net.cpp:156] Memory required for data: 873364512
I0403 18:02:14.495241  6514 layer_factory.hpp:77] Creating layer inception_4a/relu_5x5_reduce
I0403 18:02:14.495259  6514 net.cpp:91] Creating Layer inception_4a/relu_5x5_reduce
I0403 18:02:14.495275  6514 net.cpp:425] inception_4a/relu_5x5_reduce <- inception_4a/5x5_reduce
I0403 18:02:14.495296  6514 net.cpp:386] inception_4a/relu_5x5_reduce -> inception_4a/5x5_reduce (in-place)
I0403 18:02:14.495473  6514 net.cpp:141] Setting up inception_4a/relu_5x5_reduce
I0403 18:02:14.495498  6514 net.cpp:148] Top shape: 24 16 14 14 (75264)
I0403 18:02:14.495513  6514 net.cpp:156] Memory required for data: 873665568
I0403 18:02:14.495529  6514 layer_factory.hpp:77] Creating layer inception_4a/5x5
I0403 18:02:14.495551  6514 net.cpp:91] Creating Layer inception_4a/5x5
I0403 18:02:14.495569  6514 net.cpp:425] inception_4a/5x5 <- inception_4a/5x5_reduce
I0403 18:02:14.495590  6514 net.cpp:399] inception_4a/5x5 -> inception_4a/5x5
I0403 18:02:14.496676  6514 net.cpp:141] Setting up inception_4a/5x5
I0403 18:02:14.496704  6514 net.cpp:148] Top shape: 24 48 14 14 (225792)
I0403 18:02:14.496719  6514 net.cpp:156] Memory required for data: 874568736
I0403 18:02:14.496738  6514 layer_factory.hpp:77] Creating layer inception_4a/relu_5x5
I0403 18:02:14.496759  6514 net.cpp:91] Creating Layer inception_4a/relu_5x5
I0403 18:02:14.496775  6514 net.cpp:425] inception_4a/relu_5x5 <- inception_4a/5x5
I0403 18:02:14.496793  6514 net.cpp:386] inception_4a/relu_5x5 -> inception_4a/5x5 (in-place)
I0403 18:02:14.496973  6514 net.cpp:141] Setting up inception_4a/relu_5x5
I0403 18:02:14.496999  6514 net.cpp:148] Top shape: 24 48 14 14 (225792)
I0403 18:02:14.497014  6514 net.cpp:156] Memory required for data: 875471904
I0403 18:02:14.497028  6514 layer_factory.hpp:77] Creating layer inception_4a/pool
I0403 18:02:14.497046  6514 net.cpp:91] Creating Layer inception_4a/pool
I0403 18:02:14.497062  6514 net.cpp:425] inception_4a/pool <- pool3/3x3_s2_pool3/3x3_s2_0_split_3
I0403 18:02:14.497082  6514 net.cpp:399] inception_4a/pool -> inception_4a/pool
I0403 18:02:14.497143  6514 net.cpp:141] Setting up inception_4a/pool
I0403 18:02:14.497166  6514 net.cpp:148] Top shape: 24 480 14 14 (2257920)
I0403 18:02:14.497180  6514 net.cpp:156] Memory required for data: 884503584
I0403 18:02:14.497196  6514 layer_factory.hpp:77] Creating layer inception_4a/pool_proj
I0403 18:02:14.497223  6514 net.cpp:91] Creating Layer inception_4a/pool_proj
I0403 18:02:14.497241  6514 net.cpp:425] inception_4a/pool_proj <- inception_4a/pool
I0403 18:02:14.497262  6514 net.cpp:399] inception_4a/pool_proj -> inception_4a/pool_proj
I0403 18:02:14.498426  6514 net.cpp:141] Setting up inception_4a/pool_proj
I0403 18:02:14.498458  6514 net.cpp:148] Top shape: 24 64 14 14 (301056)
I0403 18:02:14.498489  6514 net.cpp:156] Memory required for data: 885707808
I0403 18:02:14.498509  6514 layer_factory.hpp:77] Creating layer inception_4a/relu_pool_proj
I0403 18:02:14.498527  6514 net.cpp:91] Creating Layer inception_4a/relu_pool_proj
I0403 18:02:14.498543  6514 net.cpp:425] inception_4a/relu_pool_proj <- inception_4a/pool_proj
I0403 18:02:14.498564  6514 net.cpp:386] inception_4a/relu_pool_proj -> inception_4a/pool_proj (in-place)
I0403 18:02:14.498839  6514 net.cpp:141] Setting up inception_4a/relu_pool_proj
I0403 18:02:14.498868  6514 net.cpp:148] Top shape: 24 64 14 14 (301056)
I0403 18:02:14.498884  6514 net.cpp:156] Memory required for data: 886912032
I0403 18:02:14.498899  6514 layer_factory.hpp:77] Creating layer inception_4a/output
I0403 18:02:14.498917  6514 net.cpp:91] Creating Layer inception_4a/output
I0403 18:02:14.498932  6514 net.cpp:425] inception_4a/output <- inception_4a/1x1
I0403 18:02:14.498950  6514 net.cpp:425] inception_4a/output <- inception_4a/3x3
I0403 18:02:14.498965  6514 net.cpp:425] inception_4a/output <- inception_4a/5x5
I0403 18:02:14.498982  6514 net.cpp:425] inception_4a/output <- inception_4a/pool_proj
I0403 18:02:14.498999  6514 net.cpp:399] inception_4a/output -> inception_4a/output
I0403 18:02:14.499044  6514 net.cpp:141] Setting up inception_4a/output
I0403 18:02:14.499068  6514 net.cpp:148] Top shape: 24 512 14 14 (2408448)
I0403 18:02:14.499083  6514 net.cpp:156] Memory required for data: 896545824
I0403 18:02:14.499096  6514 layer_factory.hpp:77] Creating layer inception_4a/output_inception_4a/output_0_split
I0403 18:02:14.499114  6514 net.cpp:91] Creating Layer inception_4a/output_inception_4a/output_0_split
I0403 18:02:14.499130  6514 net.cpp:425] inception_4a/output_inception_4a/output_0_split <- inception_4a/output
I0403 18:02:14.499150  6514 net.cpp:399] inception_4a/output_inception_4a/output_0_split -> inception_4a/output_inception_4a/output_0_split_0
I0403 18:02:14.499171  6514 net.cpp:399] inception_4a/output_inception_4a/output_0_split -> inception_4a/output_inception_4a/output_0_split_1
I0403 18:02:14.499191  6514 net.cpp:399] inception_4a/output_inception_4a/output_0_split -> inception_4a/output_inception_4a/output_0_split_2
I0403 18:02:14.499220  6514 net.cpp:399] inception_4a/output_inception_4a/output_0_split -> inception_4a/output_inception_4a/output_0_split_3
I0403 18:02:14.499243  6514 net.cpp:399] inception_4a/output_inception_4a/output_0_split -> inception_4a/output_inception_4a/output_0_split_4
I0403 18:02:14.499336  6514 net.cpp:141] Setting up inception_4a/output_inception_4a/output_0_split
I0403 18:02:14.499358  6514 net.cpp:148] Top shape: 24 512 14 14 (2408448)
I0403 18:02:14.499375  6514 net.cpp:148] Top shape: 24 512 14 14 (2408448)
I0403 18:02:14.499390  6514 net.cpp:148] Top shape: 24 512 14 14 (2408448)
I0403 18:02:14.499407  6514 net.cpp:148] Top shape: 24 512 14 14 (2408448)
I0403 18:02:14.499421  6514 net.cpp:148] Top shape: 24 512 14 14 (2408448)
I0403 18:02:14.499435  6514 net.cpp:156] Memory required for data: 944714784
I0403 18:02:14.499450  6514 layer_factory.hpp:77] Creating layer loss1/ave_pool
I0403 18:02:14.499470  6514 net.cpp:91] Creating Layer loss1/ave_pool
I0403 18:02:14.499485  6514 net.cpp:425] loss1/ave_pool <- inception_4a/output_inception_4a/output_0_split_0
I0403 18:02:14.499510  6514 net.cpp:399] loss1/ave_pool -> loss1/ave_pool
I0403 18:02:14.499716  6514 net.cpp:141] Setting up loss1/ave_pool
I0403 18:02:14.499744  6514 net.cpp:148] Top shape: 24 512 4 4 (196608)
I0403 18:02:14.499760  6514 net.cpp:156] Memory required for data: 945501216
I0403 18:02:14.499778  6514 layer_factory.hpp:77] Creating layer loss1/conv
I0403 18:02:14.499799  6514 net.cpp:91] Creating Layer loss1/conv
I0403 18:02:14.499816  6514 net.cpp:425] loss1/conv <- loss1/ave_pool
I0403 18:02:14.499836  6514 net.cpp:399] loss1/conv -> loss1/conv
I0403 18:02:14.501250  6514 net.cpp:141] Setting up loss1/conv
I0403 18:02:14.501277  6514 net.cpp:148] Top shape: 24 128 4 4 (49152)
I0403 18:02:14.501307  6514 net.cpp:156] Memory required for data: 945697824
I0403 18:02:14.501327  6514 layer_factory.hpp:77] Creating layer loss1/relu_conv
I0403 18:02:14.501345  6514 net.cpp:91] Creating Layer loss1/relu_conv
I0403 18:02:14.501360  6514 net.cpp:425] loss1/relu_conv <- loss1/conv
I0403 18:02:14.501379  6514 net.cpp:386] loss1/relu_conv -> loss1/conv (in-place)
I0403 18:02:14.501659  6514 net.cpp:141] Setting up loss1/relu_conv
I0403 18:02:14.501684  6514 net.cpp:148] Top shape: 24 128 4 4 (49152)
I0403 18:02:14.501700  6514 net.cpp:156] Memory required for data: 945894432
I0403 18:02:14.501716  6514 layer_factory.hpp:77] Creating layer loss1/fc
I0403 18:02:14.501739  6514 net.cpp:91] Creating Layer loss1/fc
I0403 18:02:14.501757  6514 net.cpp:425] loss1/fc <- loss1/conv
I0403 18:02:14.501777  6514 net.cpp:399] loss1/fc -> loss1/fc
I0403 18:02:14.519871  6514 net.cpp:141] Setting up loss1/fc
I0403 18:02:14.519937  6514 net.cpp:148] Top shape: 24 1024 (24576)
I0403 18:02:14.519953  6514 net.cpp:156] Memory required for data: 945992736
I0403 18:02:14.519973  6514 layer_factory.hpp:77] Creating layer loss1/relu_fc
I0403 18:02:14.519991  6514 net.cpp:91] Creating Layer loss1/relu_fc
I0403 18:02:14.520009  6514 net.cpp:425] loss1/relu_fc <- loss1/fc
I0403 18:02:14.520026  6514 net.cpp:386] loss1/relu_fc -> loss1/fc (in-place)
I0403 18:02:14.520252  6514 net.cpp:141] Setting up loss1/relu_fc
I0403 18:02:14.520277  6514 net.cpp:148] Top shape: 24 1024 (24576)
I0403 18:02:14.520292  6514 net.cpp:156] Memory required for data: 946091040
I0403 18:02:14.520306  6514 layer_factory.hpp:77] Creating layer loss1/drop_fc
I0403 18:02:14.520337  6514 net.cpp:91] Creating Layer loss1/drop_fc
I0403 18:02:14.520355  6514 net.cpp:425] loss1/drop_fc <- loss1/fc
I0403 18:02:14.520375  6514 net.cpp:386] loss1/drop_fc -> loss1/fc (in-place)
I0403 18:02:14.520427  6514 net.cpp:141] Setting up loss1/drop_fc
I0403 18:02:14.520450  6514 net.cpp:148] Top shape: 24 1024 (24576)
I0403 18:02:14.520465  6514 net.cpp:156] Memory required for data: 946189344
I0403 18:02:14.520479  6514 layer_factory.hpp:77] Creating layer loss1/classifier_plantvillage
I0403 18:02:14.520504  6514 net.cpp:91] Creating Layer loss1/classifier_plantvillage
I0403 18:02:14.520520  6514 net.cpp:425] loss1/classifier_plantvillage <- loss1/fc
I0403 18:02:14.520539  6514 net.cpp:399] loss1/classifier_plantvillage -> loss1/classifier_plantvillage
I0403 18:02:14.521523  6514 net.cpp:141] Setting up loss1/classifier_plantvillage
I0403 18:02:14.521553  6514 net.cpp:148] Top shape: 24 38 (912)
I0403 18:02:14.521567  6514 net.cpp:156] Memory required for data: 946192992
I0403 18:02:14.521586  6514 layer_factory.hpp:77] Creating layer loss1/classifier_plantvillage_loss1/classifier_plantvillage_0_split
I0403 18:02:14.521605  6514 net.cpp:91] Creating Layer loss1/classifier_plantvillage_loss1/classifier_plantvillage_0_split
I0403 18:02:14.521622  6514 net.cpp:425] loss1/classifier_plantvillage_loss1/classifier_plantvillage_0_split <- loss1/classifier_plantvillage
I0403 18:02:14.521643  6514 net.cpp:399] loss1/classifier_plantvillage_loss1/classifier_plantvillage_0_split -> loss1/classifier_plantvillage_loss1/classifier_plantvillage_0_split_0
I0403 18:02:14.521666  6514 net.cpp:399] loss1/classifier_plantvillage_loss1/classifier_plantvillage_0_split -> loss1/classifier_plantvillage_loss1/classifier_plantvillage_0_split_1
I0403 18:02:14.521687  6514 net.cpp:399] loss1/classifier_plantvillage_loss1/classifier_plantvillage_0_split -> loss1/classifier_plantvillage_loss1/classifier_plantvillage_0_split_2
I0403 18:02:14.521754  6514 net.cpp:141] Setting up loss1/classifier_plantvillage_loss1/classifier_plantvillage_0_split
I0403 18:02:14.521778  6514 net.cpp:148] Top shape: 24 38 (912)
I0403 18:02:14.521795  6514 net.cpp:148] Top shape: 24 38 (912)
I0403 18:02:14.521811  6514 net.cpp:148] Top shape: 24 38 (912)
I0403 18:02:14.521824  6514 net.cpp:156] Memory required for data: 946203936
I0403 18:02:14.521839  6514 layer_factory.hpp:77] Creating layer inception_4b/1x1
I0403 18:02:14.521862  6514 net.cpp:91] Creating Layer inception_4b/1x1
I0403 18:02:14.521903  6514 net.cpp:425] inception_4b/1x1 <- inception_4a/output_inception_4a/output_0_split_1
I0403 18:02:14.521926  6514 net.cpp:399] inception_4b/1x1 -> inception_4b/1x1
I0403 18:02:14.523658  6514 net.cpp:141] Setting up inception_4b/1x1
I0403 18:02:14.523687  6514 net.cpp:148] Top shape: 24 160 14 14 (752640)
I0403 18:02:14.523704  6514 net.cpp:156] Memory required for data: 949214496
I0403 18:02:14.523722  6514 layer_factory.hpp:77] Creating layer inception_4b/relu_1x1
I0403 18:02:14.523741  6514 net.cpp:91] Creating Layer inception_4b/relu_1x1
I0403 18:02:14.523757  6514 net.cpp:425] inception_4b/relu_1x1 <- inception_4b/1x1
I0403 18:02:14.523777  6514 net.cpp:386] inception_4b/relu_1x1 -> inception_4b/1x1 (in-place)
I0403 18:02:14.523963  6514 net.cpp:141] Setting up inception_4b/relu_1x1
I0403 18:02:14.523989  6514 net.cpp:148] Top shape: 24 160 14 14 (752640)
I0403 18:02:14.524006  6514 net.cpp:156] Memory required for data: 952225056
I0403 18:02:14.524020  6514 layer_factory.hpp:77] Creating layer inception_4b/3x3_reduce
I0403 18:02:14.524044  6514 net.cpp:91] Creating Layer inception_4b/3x3_reduce
I0403 18:02:14.524063  6514 net.cpp:425] inception_4b/3x3_reduce <- inception_4a/output_inception_4a/output_0_split_2
I0403 18:02:14.524087  6514 net.cpp:399] inception_4b/3x3_reduce -> inception_4b/3x3_reduce
I0403 18:02:14.525487  6514 net.cpp:141] Setting up inception_4b/3x3_reduce
I0403 18:02:14.525516  6514 net.cpp:148] Top shape: 24 112 14 14 (526848)
I0403 18:02:14.525532  6514 net.cpp:156] Memory required for data: 954332448
I0403 18:02:14.525552  6514 layer_factory.hpp:77] Creating layer inception_4b/relu_3x3_reduce
I0403 18:02:14.525573  6514 net.cpp:91] Creating Layer inception_4b/relu_3x3_reduce
I0403 18:02:14.525591  6514 net.cpp:425] inception_4b/relu_3x3_reduce <- inception_4b/3x3_reduce
I0403 18:02:14.525609  6514 net.cpp:386] inception_4b/relu_3x3_reduce -> inception_4b/3x3_reduce (in-place)
I0403 18:02:14.525899  6514 net.cpp:141] Setting up inception_4b/relu_3x3_reduce
I0403 18:02:14.525926  6514 net.cpp:148] Top shape: 24 112 14 14 (526848)
I0403 18:02:14.525941  6514 net.cpp:156] Memory required for data: 956439840
I0403 18:02:14.525956  6514 layer_factory.hpp:77] Creating layer inception_4b/3x3
I0403 18:02:14.525979  6514 net.cpp:91] Creating Layer inception_4b/3x3
I0403 18:02:14.525997  6514 net.cpp:425] inception_4b/3x3 <- inception_4b/3x3_reduce
I0403 18:02:14.526020  6514 net.cpp:399] inception_4b/3x3 -> inception_4b/3x3
I0403 18:02:14.529119  6514 net.cpp:141] Setting up inception_4b/3x3
I0403 18:02:14.529151  6514 net.cpp:148] Top shape: 24 224 14 14 (1053696)
I0403 18:02:14.529168  6514 net.cpp:156] Memory required for data: 960654624
I0403 18:02:14.529187  6514 layer_factory.hpp:77] Creating layer inception_4b/relu_3x3
I0403 18:02:14.529206  6514 net.cpp:91] Creating Layer inception_4b/relu_3x3
I0403 18:02:14.529228  6514 net.cpp:425] inception_4b/relu_3x3 <- inception_4b/3x3
I0403 18:02:14.529247  6514 net.cpp:386] inception_4b/relu_3x3 -> inception_4b/3x3 (in-place)
I0403 18:02:14.529438  6514 net.cpp:141] Setting up inception_4b/relu_3x3
I0403 18:02:14.529464  6514 net.cpp:148] Top shape: 24 224 14 14 (1053696)
I0403 18:02:14.529479  6514 net.cpp:156] Memory required for data: 964869408
I0403 18:02:14.529494  6514 layer_factory.hpp:77] Creating layer inception_4b/5x5_reduce
I0403 18:02:14.529518  6514 net.cpp:91] Creating Layer inception_4b/5x5_reduce
I0403 18:02:14.529536  6514 net.cpp:425] inception_4b/5x5_reduce <- inception_4a/output_inception_4a/output_0_split_3
I0403 18:02:14.529558  6514 net.cpp:399] inception_4b/5x5_reduce -> inception_4b/5x5_reduce
I0403 18:02:14.530678  6514 net.cpp:141] Setting up inception_4b/5x5_reduce
I0403 18:02:14.530706  6514 net.cpp:148] Top shape: 24 24 14 14 (112896)
I0403 18:02:14.530725  6514 net.cpp:156] Memory required for data: 965320992
I0403 18:02:14.530745  6514 layer_factory.hpp:77] Creating layer inception_4b/relu_5x5_reduce
I0403 18:02:14.530766  6514 net.cpp:91] Creating Layer inception_4b/relu_5x5_reduce
I0403 18:02:14.530797  6514 net.cpp:425] inception_4b/relu_5x5_reduce <- inception_4b/5x5_reduce
I0403 18:02:14.530817  6514 net.cpp:386] inception_4b/relu_5x5_reduce -> inception_4b/5x5_reduce (in-place)
I0403 18:02:14.531018  6514 net.cpp:141] Setting up inception_4b/relu_5x5_reduce
I0403 18:02:14.531044  6514 net.cpp:148] Top shape: 24 24 14 14 (112896)
I0403 18:02:14.531059  6514 net.cpp:156] Memory required for data: 965772576
I0403 18:02:14.531075  6514 layer_factory.hpp:77] Creating layer inception_4b/5x5
I0403 18:02:14.531098  6514 net.cpp:91] Creating Layer inception_4b/5x5
I0403 18:02:14.531116  6514 net.cpp:425] inception_4b/5x5 <- inception_4b/5x5_reduce
I0403 18:02:14.531134  6514 net.cpp:399] inception_4b/5x5 -> inception_4b/5x5
I0403 18:02:14.532374  6514 net.cpp:141] Setting up inception_4b/5x5
I0403 18:02:14.532402  6514 net.cpp:148] Top shape: 24 64 14 14 (301056)
I0403 18:02:14.532418  6514 net.cpp:156] Memory required for data: 966976800
I0403 18:02:14.532436  6514 layer_factory.hpp:77] Creating layer inception_4b/relu_5x5
I0403 18:02:14.532454  6514 net.cpp:91] Creating Layer inception_4b/relu_5x5
I0403 18:02:14.532470  6514 net.cpp:425] inception_4b/relu_5x5 <- inception_4b/5x5
I0403 18:02:14.532490  6514 net.cpp:386] inception_4b/relu_5x5 -> inception_4b/5x5 (in-place)
I0403 18:02:14.532786  6514 net.cpp:141] Setting up inception_4b/relu_5x5
I0403 18:02:14.532812  6514 net.cpp:148] Top shape: 24 64 14 14 (301056)
I0403 18:02:14.532827  6514 net.cpp:156] Memory required for data: 968181024
I0403 18:02:14.532841  6514 layer_factory.hpp:77] Creating layer inception_4b/pool
I0403 18:02:14.532860  6514 net.cpp:91] Creating Layer inception_4b/pool
I0403 18:02:14.532876  6514 net.cpp:425] inception_4b/pool <- inception_4a/output_inception_4a/output_0_split_4
I0403 18:02:14.532897  6514 net.cpp:399] inception_4b/pool -> inception_4b/pool
I0403 18:02:14.532963  6514 net.cpp:141] Setting up inception_4b/pool
I0403 18:02:14.532987  6514 net.cpp:148] Top shape: 24 512 14 14 (2408448)
I0403 18:02:14.533001  6514 net.cpp:156] Memory required for data: 977814816
I0403 18:02:14.533016  6514 layer_factory.hpp:77] Creating layer inception_4b/pool_proj
I0403 18:02:14.533041  6514 net.cpp:91] Creating Layer inception_4b/pool_proj
I0403 18:02:14.533057  6514 net.cpp:425] inception_4b/pool_proj <- inception_4b/pool
I0403 18:02:14.533077  6514 net.cpp:399] inception_4b/pool_proj -> inception_4b/pool_proj
I0403 18:02:14.534304  6514 net.cpp:141] Setting up inception_4b/pool_proj
I0403 18:02:14.534332  6514 net.cpp:148] Top shape: 24 64 14 14 (301056)
I0403 18:02:14.534348  6514 net.cpp:156] Memory required for data: 979019040
I0403 18:02:14.534366  6514 layer_factory.hpp:77] Creating layer inception_4b/relu_pool_proj
I0403 18:02:14.534386  6514 net.cpp:91] Creating Layer inception_4b/relu_pool_proj
I0403 18:02:14.534404  6514 net.cpp:425] inception_4b/relu_pool_proj <- inception_4b/pool_proj
I0403 18:02:14.534421  6514 net.cpp:386] inception_4b/relu_pool_proj -> inception_4b/pool_proj (in-place)
I0403 18:02:14.534601  6514 net.cpp:141] Setting up inception_4b/relu_pool_proj
I0403 18:02:14.534628  6514 net.cpp:148] Top shape: 24 64 14 14 (301056)
I0403 18:02:14.534643  6514 net.cpp:156] Memory required for data: 980223264
I0403 18:02:14.534658  6514 layer_factory.hpp:77] Creating layer inception_4b/output
I0403 18:02:14.534675  6514 net.cpp:91] Creating Layer inception_4b/output
I0403 18:02:14.534692  6514 net.cpp:425] inception_4b/output <- inception_4b/1x1
I0403 18:02:14.534708  6514 net.cpp:425] inception_4b/output <- inception_4b/3x3
I0403 18:02:14.534724  6514 net.cpp:425] inception_4b/output <- inception_4b/5x5
I0403 18:02:14.534740  6514 net.cpp:425] inception_4b/output <- inception_4b/pool_proj
I0403 18:02:14.534756  6514 net.cpp:399] inception_4b/output -> inception_4b/output
I0403 18:02:14.534806  6514 net.cpp:141] Setting up inception_4b/output
I0403 18:02:14.534828  6514 net.cpp:148] Top shape: 24 512 14 14 (2408448)
I0403 18:02:14.534843  6514 net.cpp:156] Memory required for data: 989857056
I0403 18:02:14.534873  6514 layer_factory.hpp:77] Creating layer inception_4b/output_inception_4b/output_0_split
I0403 18:02:14.534890  6514 net.cpp:91] Creating Layer inception_4b/output_inception_4b/output_0_split
I0403 18:02:14.534905  6514 net.cpp:425] inception_4b/output_inception_4b/output_0_split <- inception_4b/output
I0403 18:02:14.534926  6514 net.cpp:399] inception_4b/output_inception_4b/output_0_split -> inception_4b/output_inception_4b/output_0_split_0
I0403 18:02:14.534946  6514 net.cpp:399] inception_4b/output_inception_4b/output_0_split -> inception_4b/output_inception_4b/output_0_split_1
I0403 18:02:14.534967  6514 net.cpp:399] inception_4b/output_inception_4b/output_0_split -> inception_4b/output_inception_4b/output_0_split_2
I0403 18:02:14.534987  6514 net.cpp:399] inception_4b/output_inception_4b/output_0_split -> inception_4b/output_inception_4b/output_0_split_3
I0403 18:02:14.535073  6514 net.cpp:141] Setting up inception_4b/output_inception_4b/output_0_split
I0403 18:02:14.535096  6514 net.cpp:148] Top shape: 24 512 14 14 (2408448)
I0403 18:02:14.535114  6514 net.cpp:148] Top shape: 24 512 14 14 (2408448)
I0403 18:02:14.535128  6514 net.cpp:148] Top shape: 24 512 14 14 (2408448)
I0403 18:02:14.535143  6514 net.cpp:148] Top shape: 24 512 14 14 (2408448)
I0403 18:02:14.535157  6514 net.cpp:156] Memory required for data: 1028392224
I0403 18:02:14.535171  6514 layer_factory.hpp:77] Creating layer inception_4c/1x1
I0403 18:02:14.535194  6514 net.cpp:91] Creating Layer inception_4c/1x1
I0403 18:02:14.535217  6514 net.cpp:425] inception_4c/1x1 <- inception_4b/output_inception_4b/output_0_split_0
I0403 18:02:14.535243  6514 net.cpp:399] inception_4c/1x1 -> inception_4c/1x1
I0403 18:02:14.536690  6514 net.cpp:141] Setting up inception_4c/1x1
I0403 18:02:14.536721  6514 net.cpp:148] Top shape: 24 128 14 14 (602112)
I0403 18:02:14.536738  6514 net.cpp:156] Memory required for data: 1030800672
I0403 18:02:14.536756  6514 layer_factory.hpp:77] Creating layer inception_4c/relu_1x1
I0403 18:02:14.536774  6514 net.cpp:91] Creating Layer inception_4c/relu_1x1
I0403 18:02:14.536792  6514 net.cpp:425] inception_4c/relu_1x1 <- inception_4c/1x1
I0403 18:02:14.536808  6514 net.cpp:386] inception_4c/relu_1x1 -> inception_4c/1x1 (in-place)
I0403 18:02:14.536990  6514 net.cpp:141] Setting up inception_4c/relu_1x1
I0403 18:02:14.537017  6514 net.cpp:148] Top shape: 24 128 14 14 (602112)
I0403 18:02:14.537032  6514 net.cpp:156] Memory required for data: 1033209120
I0403 18:02:14.537048  6514 layer_factory.hpp:77] Creating layer inception_4c/3x3_reduce
I0403 18:02:14.537071  6514 net.cpp:91] Creating Layer inception_4c/3x3_reduce
I0403 18:02:14.537089  6514 net.cpp:425] inception_4c/3x3_reduce <- inception_4b/output_inception_4b/output_0_split_1
I0403 18:02:14.537111  6514 net.cpp:399] inception_4c/3x3_reduce -> inception_4c/3x3_reduce
I0403 18:02:14.539091  6514 net.cpp:141] Setting up inception_4c/3x3_reduce
I0403 18:02:14.539120  6514 net.cpp:148] Top shape: 24 128 14 14 (602112)
I0403 18:02:14.539135  6514 net.cpp:156] Memory required for data: 1035617568
I0403 18:02:14.539155  6514 layer_factory.hpp:77] Creating layer inception_4c/relu_3x3_reduce
I0403 18:02:14.539172  6514 net.cpp:91] Creating Layer inception_4c/relu_3x3_reduce
I0403 18:02:14.539192  6514 net.cpp:425] inception_4c/relu_3x3_reduce <- inception_4c/3x3_reduce
I0403 18:02:14.539216  6514 net.cpp:386] inception_4c/relu_3x3_reduce -> inception_4c/3x3_reduce (in-place)
I0403 18:02:14.539523  6514 net.cpp:141] Setting up inception_4c/relu_3x3_reduce
I0403 18:02:14.539551  6514 net.cpp:148] Top shape: 24 128 14 14 (602112)
I0403 18:02:14.539566  6514 net.cpp:156] Memory required for data: 1038026016
I0403 18:02:14.539582  6514 layer_factory.hpp:77] Creating layer inception_4c/3x3
I0403 18:02:14.539607  6514 net.cpp:91] Creating Layer inception_4c/3x3
I0403 18:02:14.539623  6514 net.cpp:425] inception_4c/3x3 <- inception_4c/3x3_reduce
I0403 18:02:14.539646  6514 net.cpp:399] inception_4c/3x3 -> inception_4c/3x3
I0403 18:02:14.543285  6514 net.cpp:141] Setting up inception_4c/3x3
I0403 18:02:14.543328  6514 net.cpp:148] Top shape: 24 256 14 14 (1204224)
I0403 18:02:14.543344  6514 net.cpp:156] Memory required for data: 1042842912
I0403 18:02:14.543375  6514 layer_factory.hpp:77] Creating layer inception_4c/relu_3x3
I0403 18:02:14.543396  6514 net.cpp:91] Creating Layer inception_4c/relu_3x3
I0403 18:02:14.543413  6514 net.cpp:425] inception_4c/relu_3x3 <- inception_4c/3x3
I0403 18:02:14.543431  6514 net.cpp:386] inception_4c/relu_3x3 -> inception_4c/3x3 (in-place)
I0403 18:02:14.543609  6514 net.cpp:141] Setting up inception_4c/relu_3x3
I0403 18:02:14.543634  6514 net.cpp:148] Top shape: 24 256 14 14 (1204224)
I0403 18:02:14.543648  6514 net.cpp:156] Memory required for data: 1047659808
I0403 18:02:14.543663  6514 layer_factory.hpp:77] Creating layer inception_4c/5x5_reduce
I0403 18:02:14.543685  6514 net.cpp:91] Creating Layer inception_4c/5x5_reduce
I0403 18:02:14.543702  6514 net.cpp:425] inception_4c/5x5_reduce <- inception_4b/output_inception_4b/output_0_split_2
I0403 18:02:14.543725  6514 net.cpp:399] inception_4c/5x5_reduce -> inception_4c/5x5_reduce
I0403 18:02:14.544795  6514 net.cpp:141] Setting up inception_4c/5x5_reduce
I0403 18:02:14.544821  6514 net.cpp:148] Top shape: 24 24 14 14 (112896)
I0403 18:02:14.544836  6514 net.cpp:156] Memory required for data: 1048111392
I0403 18:02:14.544853  6514 layer_factory.hpp:77] Creating layer inception_4c/relu_5x5_reduce
I0403 18:02:14.544874  6514 net.cpp:91] Creating Layer inception_4c/relu_5x5_reduce
I0403 18:02:14.544890  6514 net.cpp:425] inception_4c/relu_5x5_reduce <- inception_4c/5x5_reduce
I0403 18:02:14.544906  6514 net.cpp:386] inception_4c/relu_5x5_reduce -> inception_4c/5x5_reduce (in-place)
I0403 18:02:14.545085  6514 net.cpp:141] Setting up inception_4c/relu_5x5_reduce
I0403 18:02:14.545109  6514 net.cpp:148] Top shape: 24 24 14 14 (112896)
I0403 18:02:14.545125  6514 net.cpp:156] Memory required for data: 1048562976
I0403 18:02:14.545140  6514 layer_factory.hpp:77] Creating layer inception_4c/5x5
I0403 18:02:14.545162  6514 net.cpp:91] Creating Layer inception_4c/5x5
I0403 18:02:14.545181  6514 net.cpp:425] inception_4c/5x5 <- inception_4c/5x5_reduce
I0403 18:02:14.545198  6514 net.cpp:399] inception_4c/5x5 -> inception_4c/5x5
I0403 18:02:14.546416  6514 net.cpp:141] Setting up inception_4c/5x5
I0403 18:02:14.546443  6514 net.cpp:148] Top shape: 24 64 14 14 (301056)
I0403 18:02:14.546461  6514 net.cpp:156] Memory required for data: 1049767200
I0403 18:02:14.546480  6514 layer_factory.hpp:77] Creating layer inception_4c/relu_5x5
I0403 18:02:14.546497  6514 net.cpp:91] Creating Layer inception_4c/relu_5x5
I0403 18:02:14.546514  6514 net.cpp:425] inception_4c/relu_5x5 <- inception_4c/5x5
I0403 18:02:14.546530  6514 net.cpp:386] inception_4c/relu_5x5 -> inception_4c/5x5 (in-place)
I0403 18:02:14.546815  6514 net.cpp:141] Setting up inception_4c/relu_5x5
I0403 18:02:14.546844  6514 net.cpp:148] Top shape: 24 64 14 14 (301056)
I0403 18:02:14.546859  6514 net.cpp:156] Memory required for data: 1050971424
I0403 18:02:14.546875  6514 layer_factory.hpp:77] Creating layer inception_4c/pool
I0403 18:02:14.546892  6514 net.cpp:91] Creating Layer inception_4c/pool
I0403 18:02:14.546908  6514 net.cpp:425] inception_4c/pool <- inception_4b/output_inception_4b/output_0_split_3
I0403 18:02:14.546926  6514 net.cpp:399] inception_4c/pool -> inception_4c/pool
I0403 18:02:14.546990  6514 net.cpp:141] Setting up inception_4c/pool
I0403 18:02:14.547013  6514 net.cpp:148] Top shape: 24 512 14 14 (2408448)
I0403 18:02:14.547029  6514 net.cpp:156] Memory required for data: 1060605216
I0403 18:02:14.547044  6514 layer_factory.hpp:77] Creating layer inception_4c/pool_proj
I0403 18:02:14.547065  6514 net.cpp:91] Creating Layer inception_4c/pool_proj
I0403 18:02:14.547080  6514 net.cpp:425] inception_4c/pool_proj <- inception_4c/pool
I0403 18:02:14.547102  6514 net.cpp:399] inception_4c/pool_proj -> inception_4c/pool_proj
I0403 18:02:14.548313  6514 net.cpp:141] Setting up inception_4c/pool_proj
I0403 18:02:14.548341  6514 net.cpp:148] Top shape: 24 64 14 14 (301056)
I0403 18:02:14.548370  6514 net.cpp:156] Memory required for data: 1061809440
I0403 18:02:14.548388  6514 layer_factory.hpp:77] Creating layer inception_4c/relu_pool_proj
I0403 18:02:14.548409  6514 net.cpp:91] Creating Layer inception_4c/relu_pool_proj
I0403 18:02:14.548426  6514 net.cpp:425] inception_4c/relu_pool_proj <- inception_4c/pool_proj
I0403 18:02:14.548444  6514 net.cpp:386] inception_4c/relu_pool_proj -> inception_4c/pool_proj (in-place)
I0403 18:02:14.548624  6514 net.cpp:141] Setting up inception_4c/relu_pool_proj
I0403 18:02:14.548647  6514 net.cpp:148] Top shape: 24 64 14 14 (301056)
I0403 18:02:14.548665  6514 net.cpp:156] Memory required for data: 1063013664
I0403 18:02:14.548678  6514 layer_factory.hpp:77] Creating layer inception_4c/output
I0403 18:02:14.548696  6514 net.cpp:91] Creating Layer inception_4c/output
I0403 18:02:14.548712  6514 net.cpp:425] inception_4c/output <- inception_4c/1x1
I0403 18:02:14.548727  6514 net.cpp:425] inception_4c/output <- inception_4c/3x3
I0403 18:02:14.548743  6514 net.cpp:425] inception_4c/output <- inception_4c/5x5
I0403 18:02:14.548758  6514 net.cpp:425] inception_4c/output <- inception_4c/pool_proj
I0403 18:02:14.548775  6514 net.cpp:399] inception_4c/output -> inception_4c/output
I0403 18:02:14.548821  6514 net.cpp:141] Setting up inception_4c/output
I0403 18:02:14.548843  6514 net.cpp:148] Top shape: 24 512 14 14 (2408448)
I0403 18:02:14.548858  6514 net.cpp:156] Memory required for data: 1072647456
I0403 18:02:14.548873  6514 layer_factory.hpp:77] Creating layer inception_4c/output_inception_4c/output_0_split
I0403 18:02:14.548890  6514 net.cpp:91] Creating Layer inception_4c/output_inception_4c/output_0_split
I0403 18:02:14.548905  6514 net.cpp:425] inception_4c/output_inception_4c/output_0_split <- inception_4c/output
I0403 18:02:14.548925  6514 net.cpp:399] inception_4c/output_inception_4c/output_0_split -> inception_4c/output_inception_4c/output_0_split_0
I0403 18:02:14.548946  6514 net.cpp:399] inception_4c/output_inception_4c/output_0_split -> inception_4c/output_inception_4c/output_0_split_1
I0403 18:02:14.548966  6514 net.cpp:399] inception_4c/output_inception_4c/output_0_split -> inception_4c/output_inception_4c/output_0_split_2
I0403 18:02:14.548985  6514 net.cpp:399] inception_4c/output_inception_4c/output_0_split -> inception_4c/output_inception_4c/output_0_split_3
I0403 18:02:14.549069  6514 net.cpp:141] Setting up inception_4c/output_inception_4c/output_0_split
I0403 18:02:14.549091  6514 net.cpp:148] Top shape: 24 512 14 14 (2408448)
I0403 18:02:14.549108  6514 net.cpp:148] Top shape: 24 512 14 14 (2408448)
I0403 18:02:14.549124  6514 net.cpp:148] Top shape: 24 512 14 14 (2408448)
I0403 18:02:14.549139  6514 net.cpp:148] Top shape: 24 512 14 14 (2408448)
I0403 18:02:14.549151  6514 net.cpp:156] Memory required for data: 1111182624
I0403 18:02:14.549166  6514 layer_factory.hpp:77] Creating layer inception_4d/1x1
I0403 18:02:14.549190  6514 net.cpp:91] Creating Layer inception_4d/1x1
I0403 18:02:14.549207  6514 net.cpp:425] inception_4d/1x1 <- inception_4c/output_inception_4c/output_0_split_0
I0403 18:02:14.549234  6514 net.cpp:399] inception_4d/1x1 -> inception_4d/1x1
I0403 18:02:14.550591  6514 net.cpp:141] Setting up inception_4d/1x1
I0403 18:02:14.550621  6514 net.cpp:148] Top shape: 24 112 14 14 (526848)
I0403 18:02:14.550637  6514 net.cpp:156] Memory required for data: 1113290016
I0403 18:02:14.550654  6514 layer_factory.hpp:77] Creating layer inception_4d/relu_1x1
I0403 18:02:14.550673  6514 net.cpp:91] Creating Layer inception_4d/relu_1x1
I0403 18:02:14.550688  6514 net.cpp:425] inception_4d/relu_1x1 <- inception_4d/1x1
I0403 18:02:14.550707  6514 net.cpp:386] inception_4d/relu_1x1 -> inception_4d/1x1 (in-place)
I0403 18:02:14.550892  6514 net.cpp:141] Setting up inception_4d/relu_1x1
I0403 18:02:14.550916  6514 net.cpp:148] Top shape: 24 112 14 14 (526848)
I0403 18:02:14.550931  6514 net.cpp:156] Memory required for data: 1115397408
I0403 18:02:14.550947  6514 layer_factory.hpp:77] Creating layer inception_4d/3x3_reduce
I0403 18:02:14.550982  6514 net.cpp:91] Creating Layer inception_4d/3x3_reduce
I0403 18:02:14.551002  6514 net.cpp:425] inception_4d/3x3_reduce <- inception_4c/output_inception_4c/output_0_split_1
I0403 18:02:14.551023  6514 net.cpp:399] inception_4d/3x3_reduce -> inception_4d/3x3_reduce
I0403 18:02:14.552510  6514 net.cpp:141] Setting up inception_4d/3x3_reduce
I0403 18:02:14.552537  6514 net.cpp:148] Top shape: 24 144 14 14 (677376)
I0403 18:02:14.552552  6514 net.cpp:156] Memory required for data: 1118106912
I0403 18:02:14.552570  6514 layer_factory.hpp:77] Creating layer inception_4d/relu_3x3_reduce
I0403 18:02:14.552590  6514 net.cpp:91] Creating Layer inception_4d/relu_3x3_reduce
I0403 18:02:14.552608  6514 net.cpp:425] inception_4d/relu_3x3_reduce <- inception_4d/3x3_reduce
I0403 18:02:14.552625  6514 net.cpp:386] inception_4d/relu_3x3_reduce -> inception_4d/3x3_reduce (in-place)
I0403 18:02:14.552907  6514 net.cpp:141] Setting up inception_4d/relu_3x3_reduce
I0403 18:02:14.552933  6514 net.cpp:148] Top shape: 24 144 14 14 (677376)
I0403 18:02:14.552948  6514 net.cpp:156] Memory required for data: 1120816416
I0403 18:02:14.552963  6514 layer_factory.hpp:77] Creating layer inception_4d/3x3
I0403 18:02:14.552985  6514 net.cpp:91] Creating Layer inception_4d/3x3
I0403 18:02:14.553004  6514 net.cpp:425] inception_4d/3x3 <- inception_4d/3x3_reduce
I0403 18:02:14.553021  6514 net.cpp:399] inception_4d/3x3 -> inception_4d/3x3
I0403 18:02:14.557205  6514 net.cpp:141] Setting up inception_4d/3x3
I0403 18:02:14.557242  6514 net.cpp:148] Top shape: 24 288 14 14 (1354752)
I0403 18:02:14.557260  6514 net.cpp:156] Memory required for data: 1126235424
I0403 18:02:14.557278  6514 layer_factory.hpp:77] Creating layer inception_4d/relu_3x3
I0403 18:02:14.557296  6514 net.cpp:91] Creating Layer inception_4d/relu_3x3
I0403 18:02:14.557312  6514 net.cpp:425] inception_4d/relu_3x3 <- inception_4d/3x3
I0403 18:02:14.557332  6514 net.cpp:386] inception_4d/relu_3x3 -> inception_4d/3x3 (in-place)
I0403 18:02:14.557512  6514 net.cpp:141] Setting up inception_4d/relu_3x3
I0403 18:02:14.557535  6514 net.cpp:148] Top shape: 24 288 14 14 (1354752)
I0403 18:02:14.557549  6514 net.cpp:156] Memory required for data: 1131654432
I0403 18:02:14.557564  6514 layer_factory.hpp:77] Creating layer inception_4d/5x5_reduce
I0403 18:02:14.557586  6514 net.cpp:91] Creating Layer inception_4d/5x5_reduce
I0403 18:02:14.557603  6514 net.cpp:425] inception_4d/5x5_reduce <- inception_4c/output_inception_4c/output_0_split_2
I0403 18:02:14.557626  6514 net.cpp:399] inception_4d/5x5_reduce -> inception_4d/5x5_reduce
I0403 18:02:14.558763  6514 net.cpp:141] Setting up inception_4d/5x5_reduce
I0403 18:02:14.558789  6514 net.cpp:148] Top shape: 24 32 14 14 (150528)
I0403 18:02:14.558804  6514 net.cpp:156] Memory required for data: 1132256544
I0403 18:02:14.558821  6514 layer_factory.hpp:77] Creating layer inception_4d/relu_5x5_reduce
I0403 18:02:14.558840  6514 net.cpp:91] Creating Layer inception_4d/relu_5x5_reduce
I0403 18:02:14.558856  6514 net.cpp:425] inception_4d/relu_5x5_reduce <- inception_4d/5x5_reduce
I0403 18:02:14.558876  6514 net.cpp:386] inception_4d/relu_5x5_reduce -> inception_4d/5x5_reduce (in-place)
I0403 18:02:14.559061  6514 net.cpp:141] Setting up inception_4d/relu_5x5_reduce
I0403 18:02:14.559084  6514 net.cpp:148] Top shape: 24 32 14 14 (150528)
I0403 18:02:14.559098  6514 net.cpp:156] Memory required for data: 1132858656
I0403 18:02:14.559113  6514 layer_factory.hpp:77] Creating layer inception_4d/5x5
I0403 18:02:14.559134  6514 net.cpp:91] Creating Layer inception_4d/5x5
I0403 18:02:14.559152  6514 net.cpp:425] inception_4d/5x5 <- inception_4d/5x5_reduce
I0403 18:02:14.559173  6514 net.cpp:399] inception_4d/5x5 -> inception_4d/5x5
I0403 18:02:14.560667  6514 net.cpp:141] Setting up inception_4d/5x5
I0403 18:02:14.560695  6514 net.cpp:148] Top shape: 24 64 14 14 (301056)
I0403 18:02:14.560710  6514 net.cpp:156] Memory required for data: 1134062880
I0403 18:02:14.560731  6514 layer_factory.hpp:77] Creating layer inception_4d/relu_5x5
I0403 18:02:14.560766  6514 net.cpp:91] Creating Layer inception_4d/relu_5x5
I0403 18:02:14.560786  6514 net.cpp:425] inception_4d/relu_5x5 <- inception_4d/5x5
I0403 18:02:14.560802  6514 net.cpp:386] inception_4d/relu_5x5 -> inception_4d/5x5 (in-place)
I0403 18:02:14.561105  6514 net.cpp:141] Setting up inception_4d/relu_5x5
I0403 18:02:14.561131  6514 net.cpp:148] Top shape: 24 64 14 14 (301056)
I0403 18:02:14.561146  6514 net.cpp:156] Memory required for data: 1135267104
I0403 18:02:14.561161  6514 layer_factory.hpp:77] Creating layer inception_4d/pool
I0403 18:02:14.561182  6514 net.cpp:91] Creating Layer inception_4d/pool
I0403 18:02:14.561197  6514 net.cpp:425] inception_4d/pool <- inception_4c/output_inception_4c/output_0_split_3
I0403 18:02:14.561221  6514 net.cpp:399] inception_4d/pool -> inception_4d/pool
I0403 18:02:14.561292  6514 net.cpp:141] Setting up inception_4d/pool
I0403 18:02:14.561316  6514 net.cpp:148] Top shape: 24 512 14 14 (2408448)
I0403 18:02:14.561332  6514 net.cpp:156] Memory required for data: 1144900896
I0403 18:02:14.561347  6514 layer_factory.hpp:77] Creating layer inception_4d/pool_proj
I0403 18:02:14.561369  6514 net.cpp:91] Creating Layer inception_4d/pool_proj
I0403 18:02:14.561388  6514 net.cpp:425] inception_4d/pool_proj <- inception_4d/pool
I0403 18:02:14.561408  6514 net.cpp:399] inception_4d/pool_proj -> inception_4d/pool_proj
I0403 18:02:14.563227  6514 net.cpp:141] Setting up inception_4d/pool_proj
I0403 18:02:14.563258  6514 net.cpp:148] Top shape: 24 64 14 14 (301056)
I0403 18:02:14.563276  6514 net.cpp:156] Memory required for data: 1146105120
I0403 18:02:14.563293  6514 layer_factory.hpp:77] Creating layer inception_4d/relu_pool_proj
I0403 18:02:14.563311  6514 net.cpp:91] Creating Layer inception_4d/relu_pool_proj
I0403 18:02:14.563328  6514 net.cpp:425] inception_4d/relu_pool_proj <- inception_4d/pool_proj
I0403 18:02:14.563346  6514 net.cpp:386] inception_4d/relu_pool_proj -> inception_4d/pool_proj (in-place)
I0403 18:02:14.563534  6514 net.cpp:141] Setting up inception_4d/relu_pool_proj
I0403 18:02:14.563560  6514 net.cpp:148] Top shape: 24 64 14 14 (301056)
I0403 18:02:14.563575  6514 net.cpp:156] Memory required for data: 1147309344
I0403 18:02:14.563590  6514 layer_factory.hpp:77] Creating layer inception_4d/output
I0403 18:02:14.563606  6514 net.cpp:91] Creating Layer inception_4d/output
I0403 18:02:14.563622  6514 net.cpp:425] inception_4d/output <- inception_4d/1x1
I0403 18:02:14.563639  6514 net.cpp:425] inception_4d/output <- inception_4d/3x3
I0403 18:02:14.563654  6514 net.cpp:425] inception_4d/output <- inception_4d/5x5
I0403 18:02:14.563671  6514 net.cpp:425] inception_4d/output <- inception_4d/pool_proj
I0403 18:02:14.563690  6514 net.cpp:399] inception_4d/output -> inception_4d/output
I0403 18:02:14.563740  6514 net.cpp:141] Setting up inception_4d/output
I0403 18:02:14.563763  6514 net.cpp:148] Top shape: 24 528 14 14 (2483712)
I0403 18:02:14.563777  6514 net.cpp:156] Memory required for data: 1157244192
I0403 18:02:14.563792  6514 layer_factory.hpp:77] Creating layer inception_4d/output_inception_4d/output_0_split
I0403 18:02:14.563810  6514 net.cpp:91] Creating Layer inception_4d/output_inception_4d/output_0_split
I0403 18:02:14.563827  6514 net.cpp:425] inception_4d/output_inception_4d/output_0_split <- inception_4d/output
I0403 18:02:14.563848  6514 net.cpp:399] inception_4d/output_inception_4d/output_0_split -> inception_4d/output_inception_4d/output_0_split_0
I0403 18:02:14.563871  6514 net.cpp:399] inception_4d/output_inception_4d/output_0_split -> inception_4d/output_inception_4d/output_0_split_1
I0403 18:02:14.563892  6514 net.cpp:399] inception_4d/output_inception_4d/output_0_split -> inception_4d/output_inception_4d/output_0_split_2
I0403 18:02:14.563912  6514 net.cpp:399] inception_4d/output_inception_4d/output_0_split -> inception_4d/output_inception_4d/output_0_split_3
I0403 18:02:14.563933  6514 net.cpp:399] inception_4d/output_inception_4d/output_0_split -> inception_4d/output_inception_4d/output_0_split_4
I0403 18:02:14.564038  6514 net.cpp:141] Setting up inception_4d/output_inception_4d/output_0_split
I0403 18:02:14.564075  6514 net.cpp:148] Top shape: 24 528 14 14 (2483712)
I0403 18:02:14.564093  6514 net.cpp:148] Top shape: 24 528 14 14 (2483712)
I0403 18:02:14.564110  6514 net.cpp:148] Top shape: 24 528 14 14 (2483712)
I0403 18:02:14.564124  6514 net.cpp:148] Top shape: 24 528 14 14 (2483712)
I0403 18:02:14.564141  6514 net.cpp:148] Top shape: 24 528 14 14 (2483712)
I0403 18:02:14.564154  6514 net.cpp:156] Memory required for data: 1206918432
I0403 18:02:14.564168  6514 layer_factory.hpp:77] Creating layer loss2/ave_pool
I0403 18:02:14.564187  6514 net.cpp:91] Creating Layer loss2/ave_pool
I0403 18:02:14.564203  6514 net.cpp:425] loss2/ave_pool <- inception_4d/output_inception_4d/output_0_split_0
I0403 18:02:14.564229  6514 net.cpp:399] loss2/ave_pool -> loss2/ave_pool
I0403 18:02:14.564544  6514 net.cpp:141] Setting up loss2/ave_pool
I0403 18:02:14.564575  6514 net.cpp:148] Top shape: 24 528 4 4 (202752)
I0403 18:02:14.564594  6514 net.cpp:156] Memory required for data: 1207729440
I0403 18:02:14.564610  6514 layer_factory.hpp:77] Creating layer loss2/conv
I0403 18:02:14.564631  6514 net.cpp:91] Creating Layer loss2/conv
I0403 18:02:14.564649  6514 net.cpp:425] loss2/conv <- loss2/ave_pool
I0403 18:02:14.564671  6514 net.cpp:399] loss2/conv -> loss2/conv
I0403 18:02:14.566617  6514 net.cpp:141] Setting up loss2/conv
I0403 18:02:14.566647  6514 net.cpp:148] Top shape: 24 128 4 4 (49152)
I0403 18:02:14.566663  6514 net.cpp:156] Memory required for data: 1207926048
I0403 18:02:14.566680  6514 layer_factory.hpp:77] Creating layer loss2/relu_conv
I0403 18:02:14.566701  6514 net.cpp:91] Creating Layer loss2/relu_conv
I0403 18:02:14.566717  6514 net.cpp:425] loss2/relu_conv <- loss2/conv
I0403 18:02:14.566735  6514 net.cpp:386] loss2/relu_conv -> loss2/conv (in-place)
I0403 18:02:14.567025  6514 net.cpp:141] Setting up loss2/relu_conv
I0403 18:02:14.567052  6514 net.cpp:148] Top shape: 24 128 4 4 (49152)
I0403 18:02:14.567067  6514 net.cpp:156] Memory required for data: 1208122656
I0403 18:02:14.567083  6514 layer_factory.hpp:77] Creating layer loss2/fc
I0403 18:02:14.567104  6514 net.cpp:91] Creating Layer loss2/fc
I0403 18:02:14.567122  6514 net.cpp:425] loss2/fc <- loss2/conv
I0403 18:02:14.567143  6514 net.cpp:399] loss2/fc -> loss2/fc
I0403 18:02:14.585211  6514 net.cpp:141] Setting up loss2/fc
I0403 18:02:14.585245  6514 net.cpp:148] Top shape: 24 1024 (24576)
I0403 18:02:14.585261  6514 net.cpp:156] Memory required for data: 1208220960
I0403 18:02:14.585280  6514 layer_factory.hpp:77] Creating layer loss2/relu_fc
I0403 18:02:14.585300  6514 net.cpp:91] Creating Layer loss2/relu_fc
I0403 18:02:14.585316  6514 net.cpp:425] loss2/relu_fc <- loss2/fc
I0403 18:02:14.585338  6514 net.cpp:386] loss2/relu_fc -> loss2/fc (in-place)
I0403 18:02:14.585669  6514 net.cpp:141] Setting up loss2/relu_fc
I0403 18:02:14.585695  6514 net.cpp:148] Top shape: 24 1024 (24576)
I0403 18:02:14.585710  6514 net.cpp:156] Memory required for data: 1208319264
I0403 18:02:14.585726  6514 layer_factory.hpp:77] Creating layer loss2/drop_fc
I0403 18:02:14.585743  6514 net.cpp:91] Creating Layer loss2/drop_fc
I0403 18:02:14.585759  6514 net.cpp:425] loss2/drop_fc <- loss2/fc
I0403 18:02:14.585778  6514 net.cpp:386] loss2/drop_fc -> loss2/fc (in-place)
I0403 18:02:14.585829  6514 net.cpp:141] Setting up loss2/drop_fc
I0403 18:02:14.585855  6514 net.cpp:148] Top shape: 24 1024 (24576)
I0403 18:02:14.585870  6514 net.cpp:156] Memory required for data: 1208417568
I0403 18:02:14.585883  6514 layer_factory.hpp:77] Creating layer loss2/classifier_plantvillage
I0403 18:02:14.585902  6514 net.cpp:91] Creating Layer loss2/classifier_plantvillage
I0403 18:02:14.585918  6514 net.cpp:425] loss2/classifier_plantvillage <- loss2/fc
I0403 18:02:14.585940  6514 net.cpp:399] loss2/classifier_plantvillage -> loss2/classifier_plantvillage
I0403 18:02:14.586357  6514 net.cpp:141] Setting up loss2/classifier_plantvillage
I0403 18:02:14.586385  6514 net.cpp:148] Top shape: 24 38 (912)
I0403 18:02:14.586421  6514 net.cpp:156] Memory required for data: 1208421216
I0403 18:02:14.586441  6514 layer_factory.hpp:77] Creating layer loss2/classifier_plantvillage_loss2/classifier_plantvillage_0_split
I0403 18:02:14.586462  6514 net.cpp:91] Creating Layer loss2/classifier_plantvillage_loss2/classifier_plantvillage_0_split
I0403 18:02:14.586477  6514 net.cpp:425] loss2/classifier_plantvillage_loss2/classifier_plantvillage_0_split <- loss2/classifier_plantvillage
I0403 18:02:14.586498  6514 net.cpp:399] loss2/classifier_plantvillage_loss2/classifier_plantvillage_0_split -> loss2/classifier_plantvillage_loss2/classifier_plantvillage_0_split_0
I0403 18:02:14.586519  6514 net.cpp:399] loss2/classifier_plantvillage_loss2/classifier_plantvillage_0_split -> loss2/classifier_plantvillage_loss2/classifier_plantvillage_0_split_1
I0403 18:02:14.586542  6514 net.cpp:399] loss2/classifier_plantvillage_loss2/classifier_plantvillage_0_split -> loss2/classifier_plantvillage_loss2/classifier_plantvillage_0_split_2
I0403 18:02:14.586619  6514 net.cpp:141] Setting up loss2/classifier_plantvillage_loss2/classifier_plantvillage_0_split
I0403 18:02:14.586642  6514 net.cpp:148] Top shape: 24 38 (912)
I0403 18:02:14.586658  6514 net.cpp:148] Top shape: 24 38 (912)
I0403 18:02:14.586673  6514 net.cpp:148] Top shape: 24 38 (912)
I0403 18:02:14.586688  6514 net.cpp:156] Memory required for data: 1208432160
I0403 18:02:14.586701  6514 layer_factory.hpp:77] Creating layer inception_4e/1x1
I0403 18:02:14.586725  6514 net.cpp:91] Creating Layer inception_4e/1x1
I0403 18:02:14.586742  6514 net.cpp:425] inception_4e/1x1 <- inception_4d/output_inception_4d/output_0_split_1
I0403 18:02:14.586767  6514 net.cpp:399] inception_4e/1x1 -> inception_4e/1x1
I0403 18:02:14.588623  6514 net.cpp:141] Setting up inception_4e/1x1
I0403 18:02:14.588650  6514 net.cpp:148] Top shape: 24 256 14 14 (1204224)
I0403 18:02:14.588665  6514 net.cpp:156] Memory required for data: 1213249056
I0403 18:02:14.588683  6514 layer_factory.hpp:77] Creating layer inception_4e/relu_1x1
I0403 18:02:14.588703  6514 net.cpp:91] Creating Layer inception_4e/relu_1x1
I0403 18:02:14.588721  6514 net.cpp:425] inception_4e/relu_1x1 <- inception_4e/1x1
I0403 18:02:14.588738  6514 net.cpp:386] inception_4e/relu_1x1 -> inception_4e/1x1 (in-place)
I0403 18:02:14.589036  6514 net.cpp:141] Setting up inception_4e/relu_1x1
I0403 18:02:14.589062  6514 net.cpp:148] Top shape: 24 256 14 14 (1204224)
I0403 18:02:14.589077  6514 net.cpp:156] Memory required for data: 1218065952
I0403 18:02:14.589092  6514 layer_factory.hpp:77] Creating layer inception_4e/3x3_reduce
I0403 18:02:14.589117  6514 net.cpp:91] Creating Layer inception_4e/3x3_reduce
I0403 18:02:14.589133  6514 net.cpp:425] inception_4e/3x3_reduce <- inception_4d/output_inception_4d/output_0_split_2
I0403 18:02:14.589155  6514 net.cpp:399] inception_4e/3x3_reduce -> inception_4e/3x3_reduce
I0403 18:02:14.591334  6514 net.cpp:141] Setting up inception_4e/3x3_reduce
I0403 18:02:14.591364  6514 net.cpp:148] Top shape: 24 160 14 14 (752640)
I0403 18:02:14.591380  6514 net.cpp:156] Memory required for data: 1221076512
I0403 18:02:14.591398  6514 layer_factory.hpp:77] Creating layer inception_4e/relu_3x3_reduce
I0403 18:02:14.591418  6514 net.cpp:91] Creating Layer inception_4e/relu_3x3_reduce
I0403 18:02:14.591435  6514 net.cpp:425] inception_4e/relu_3x3_reduce <- inception_4e/3x3_reduce
I0403 18:02:14.591454  6514 net.cpp:386] inception_4e/relu_3x3_reduce -> inception_4e/3x3_reduce (in-place)
I0403 18:02:14.591640  6514 net.cpp:141] Setting up inception_4e/relu_3x3_reduce
I0403 18:02:14.591668  6514 net.cpp:148] Top shape: 24 160 14 14 (752640)
I0403 18:02:14.591684  6514 net.cpp:156] Memory required for data: 1224087072
I0403 18:02:14.591699  6514 layer_factory.hpp:77] Creating layer inception_4e/3x3
I0403 18:02:14.591720  6514 net.cpp:91] Creating Layer inception_4e/3x3
I0403 18:02:14.591738  6514 net.cpp:425] inception_4e/3x3 <- inception_4e/3x3_reduce
I0403 18:02:14.591758  6514 net.cpp:399] inception_4e/3x3 -> inception_4e/3x3
I0403 18:02:14.596846  6514 net.cpp:141] Setting up inception_4e/3x3
I0403 18:02:14.596894  6514 net.cpp:148] Top shape: 24 320 14 14 (1505280)
I0403 18:02:14.596909  6514 net.cpp:156] Memory required for data: 1230108192
I0403 18:02:14.596928  6514 layer_factory.hpp:77] Creating layer inception_4e/relu_3x3
I0403 18:02:14.596946  6514 net.cpp:91] Creating Layer inception_4e/relu_3x3
I0403 18:02:14.596962  6514 net.cpp:425] inception_4e/relu_3x3 <- inception_4e/3x3
I0403 18:02:14.596981  6514 net.cpp:386] inception_4e/relu_3x3 -> inception_4e/3x3 (in-place)
I0403 18:02:14.597287  6514 net.cpp:141] Setting up inception_4e/relu_3x3
I0403 18:02:14.597314  6514 net.cpp:148] Top shape: 24 320 14 14 (1505280)
I0403 18:02:14.597329  6514 net.cpp:156] Memory required for data: 1236129312
I0403 18:02:14.597344  6514 layer_factory.hpp:77] Creating layer inception_4e/5x5_reduce
I0403 18:02:14.597368  6514 net.cpp:91] Creating Layer inception_4e/5x5_reduce
I0403 18:02:14.597386  6514 net.cpp:425] inception_4e/5x5_reduce <- inception_4d/output_inception_4d/output_0_split_3
I0403 18:02:14.597407  6514 net.cpp:399] inception_4e/5x5_reduce -> inception_4e/5x5_reduce
I0403 18:02:14.598495  6514 net.cpp:141] Setting up inception_4e/5x5_reduce
I0403 18:02:14.598522  6514 net.cpp:148] Top shape: 24 32 14 14 (150528)
I0403 18:02:14.598537  6514 net.cpp:156] Memory required for data: 1236731424
I0403 18:02:14.598556  6514 layer_factory.hpp:77] Creating layer inception_4e/relu_5x5_reduce
I0403 18:02:14.598577  6514 net.cpp:91] Creating Layer inception_4e/relu_5x5_reduce
I0403 18:02:14.598594  6514 net.cpp:425] inception_4e/relu_5x5_reduce <- inception_4e/5x5_reduce
I0403 18:02:14.598613  6514 net.cpp:386] inception_4e/relu_5x5_reduce -> inception_4e/5x5_reduce (in-place)
I0403 18:02:14.598917  6514 net.cpp:141] Setting up inception_4e/relu_5x5_reduce
I0403 18:02:14.598942  6514 net.cpp:148] Top shape: 24 32 14 14 (150528)
I0403 18:02:14.598958  6514 net.cpp:156] Memory required for data: 1237333536
I0403 18:02:14.598973  6514 layer_factory.hpp:77] Creating layer inception_4e/5x5
I0403 18:02:14.599014  6514 net.cpp:91] Creating Layer inception_4e/5x5
I0403 18:02:14.599035  6514 net.cpp:425] inception_4e/5x5 <- inception_4e/5x5_reduce
I0403 18:02:14.599053  6514 net.cpp:399] inception_4e/5x5 -> inception_4e/5x5
I0403 18:02:14.600901  6514 net.cpp:141] Setting up inception_4e/5x5
I0403 18:02:14.600929  6514 net.cpp:148] Top shape: 24 128 14 14 (602112)
I0403 18:02:14.600944  6514 net.cpp:156] Memory required for data: 1239741984
I0403 18:02:14.600962  6514 layer_factory.hpp:77] Creating layer inception_4e/relu_5x5
I0403 18:02:14.600982  6514 net.cpp:91] Creating Layer inception_4e/relu_5x5
I0403 18:02:14.600999  6514 net.cpp:425] inception_4e/relu_5x5 <- inception_4e/5x5
I0403 18:02:14.601017  6514 net.cpp:386] inception_4e/relu_5x5 -> inception_4e/5x5 (in-place)
I0403 18:02:14.601220  6514 net.cpp:141] Setting up inception_4e/relu_5x5
I0403 18:02:14.601245  6514 net.cpp:148] Top shape: 24 128 14 14 (602112)
I0403 18:02:14.601261  6514 net.cpp:156] Memory required for data: 1242150432
I0403 18:02:14.601277  6514 layer_factory.hpp:77] Creating layer inception_4e/pool
I0403 18:02:14.601297  6514 net.cpp:91] Creating Layer inception_4e/pool
I0403 18:02:14.601313  6514 net.cpp:425] inception_4e/pool <- inception_4d/output_inception_4d/output_0_split_4
I0403 18:02:14.601331  6514 net.cpp:399] inception_4e/pool -> inception_4e/pool
I0403 18:02:14.601405  6514 net.cpp:141] Setting up inception_4e/pool
I0403 18:02:14.601428  6514 net.cpp:148] Top shape: 24 528 14 14 (2483712)
I0403 18:02:14.601444  6514 net.cpp:156] Memory required for data: 1252085280
I0403 18:02:14.601459  6514 layer_factory.hpp:77] Creating layer inception_4e/pool_proj
I0403 18:02:14.601480  6514 net.cpp:91] Creating Layer inception_4e/pool_proj
I0403 18:02:14.601497  6514 net.cpp:425] inception_4e/pool_proj <- inception_4e/pool
I0403 18:02:14.601518  6514 net.cpp:399] inception_4e/pool_proj -> inception_4e/pool_proj
I0403 18:02:14.603031  6514 net.cpp:141] Setting up inception_4e/pool_proj
I0403 18:02:14.603070  6514 net.cpp:148] Top shape: 24 128 14 14 (602112)
I0403 18:02:14.603086  6514 net.cpp:156] Memory required for data: 1254493728
I0403 18:02:14.603104  6514 layer_factory.hpp:77] Creating layer inception_4e/relu_pool_proj
I0403 18:02:14.603122  6514 net.cpp:91] Creating Layer inception_4e/relu_pool_proj
I0403 18:02:14.603138  6514 net.cpp:425] inception_4e/relu_pool_proj <- inception_4e/pool_proj
I0403 18:02:14.603159  6514 net.cpp:386] inception_4e/relu_pool_proj -> inception_4e/pool_proj (in-place)
I0403 18:02:14.603459  6514 net.cpp:141] Setting up inception_4e/relu_pool_proj
I0403 18:02:14.603485  6514 net.cpp:148] Top shape: 24 128 14 14 (602112)
I0403 18:02:14.603500  6514 net.cpp:156] Memory required for data: 1256902176
I0403 18:02:14.603515  6514 layer_factory.hpp:77] Creating layer inception_4e/output
I0403 18:02:14.603533  6514 net.cpp:91] Creating Layer inception_4e/output
I0403 18:02:14.603549  6514 net.cpp:425] inception_4e/output <- inception_4e/1x1
I0403 18:02:14.603566  6514 net.cpp:425] inception_4e/output <- inception_4e/3x3
I0403 18:02:14.603584  6514 net.cpp:425] inception_4e/output <- inception_4e/5x5
I0403 18:02:14.603598  6514 net.cpp:425] inception_4e/output <- inception_4e/pool_proj
I0403 18:02:14.603618  6514 net.cpp:399] inception_4e/output -> inception_4e/output
I0403 18:02:14.603667  6514 net.cpp:141] Setting up inception_4e/output
I0403 18:02:14.603691  6514 net.cpp:148] Top shape: 24 832 14 14 (3913728)
I0403 18:02:14.603706  6514 net.cpp:156] Memory required for data: 1272557088
I0403 18:02:14.603721  6514 layer_factory.hpp:77] Creating layer pool4/3x3_s2
I0403 18:02:14.603741  6514 net.cpp:91] Creating Layer pool4/3x3_s2
I0403 18:02:14.603759  6514 net.cpp:425] pool4/3x3_s2 <- inception_4e/output
I0403 18:02:14.603776  6514 net.cpp:399] pool4/3x3_s2 -> pool4/3x3_s2
I0403 18:02:14.603848  6514 net.cpp:141] Setting up pool4/3x3_s2
I0403 18:02:14.603871  6514 net.cpp:148] Top shape: 24 832 7 7 (978432)
I0403 18:02:14.603885  6514 net.cpp:156] Memory required for data: 1276470816
I0403 18:02:14.603900  6514 layer_factory.hpp:77] Creating layer pool4/3x3_s2_pool4/3x3_s2_0_split
I0403 18:02:14.603920  6514 net.cpp:91] Creating Layer pool4/3x3_s2_pool4/3x3_s2_0_split
I0403 18:02:14.603937  6514 net.cpp:425] pool4/3x3_s2_pool4/3x3_s2_0_split <- pool4/3x3_s2
I0403 18:02:14.603955  6514 net.cpp:399] pool4/3x3_s2_pool4/3x3_s2_0_split -> pool4/3x3_s2_pool4/3x3_s2_0_split_0
I0403 18:02:14.603976  6514 net.cpp:399] pool4/3x3_s2_pool4/3x3_s2_0_split -> pool4/3x3_s2_pool4/3x3_s2_0_split_1
I0403 18:02:14.603996  6514 net.cpp:399] pool4/3x3_s2_pool4/3x3_s2_0_split -> pool4/3x3_s2_pool4/3x3_s2_0_split_2
I0403 18:02:14.604017  6514 net.cpp:399] pool4/3x3_s2_pool4/3x3_s2_0_split -> pool4/3x3_s2_pool4/3x3_s2_0_split_3
I0403 18:02:14.604109  6514 net.cpp:141] Setting up pool4/3x3_s2_pool4/3x3_s2_0_split
I0403 18:02:14.604132  6514 net.cpp:148] Top shape: 24 832 7 7 (978432)
I0403 18:02:14.604148  6514 net.cpp:148] Top shape: 24 832 7 7 (978432)
I0403 18:02:14.604166  6514 net.cpp:148] Top shape: 24 832 7 7 (978432)
I0403 18:02:14.604181  6514 net.cpp:148] Top shape: 24 832 7 7 (978432)
I0403 18:02:14.604194  6514 net.cpp:156] Memory required for data: 1292125728
I0403 18:02:14.604213  6514 layer_factory.hpp:77] Creating layer inception_5a/1x1
I0403 18:02:14.604238  6514 net.cpp:91] Creating Layer inception_5a/1x1
I0403 18:02:14.604256  6514 net.cpp:425] inception_5a/1x1 <- pool4/3x3_s2_pool4/3x3_s2_0_split_0
I0403 18:02:14.604277  6514 net.cpp:399] inception_5a/1x1 -> inception_5a/1x1
I0403 18:02:14.607158  6514 net.cpp:141] Setting up inception_5a/1x1
I0403 18:02:14.607187  6514 net.cpp:148] Top shape: 24 256 7 7 (301056)
I0403 18:02:14.607203  6514 net.cpp:156] Memory required for data: 1293329952
I0403 18:02:14.607226  6514 layer_factory.hpp:77] Creating layer inception_5a/relu_1x1
I0403 18:02:14.607249  6514 net.cpp:91] Creating Layer inception_5a/relu_1x1
I0403 18:02:14.607266  6514 net.cpp:425] inception_5a/relu_1x1 <- inception_5a/1x1
I0403 18:02:14.607285  6514 net.cpp:386] inception_5a/relu_1x1 -> inception_5a/1x1 (in-place)
I0403 18:02:14.607596  6514 net.cpp:141] Setting up inception_5a/relu_1x1
I0403 18:02:14.607623  6514 net.cpp:148] Top shape: 24 256 7 7 (301056)
I0403 18:02:14.607638  6514 net.cpp:156] Memory required for data: 1294534176
I0403 18:02:14.607653  6514 layer_factory.hpp:77] Creating layer inception_5a/3x3_reduce
I0403 18:02:14.607678  6514 net.cpp:91] Creating Layer inception_5a/3x3_reduce
I0403 18:02:14.607697  6514 net.cpp:425] inception_5a/3x3_reduce <- pool4/3x3_s2_pool4/3x3_s2_0_split_1
I0403 18:02:14.607717  6514 net.cpp:399] inception_5a/3x3_reduce -> inception_5a/3x3_reduce
I0403 18:02:14.610225  6514 net.cpp:141] Setting up inception_5a/3x3_reduce
I0403 18:02:14.610256  6514 net.cpp:148] Top shape: 24 160 7 7 (188160)
I0403 18:02:14.610273  6514 net.cpp:156] Memory required for data: 1295286816
I0403 18:02:14.610292  6514 layer_factory.hpp:77] Creating layer inception_5a/relu_3x3_reduce
I0403 18:02:14.610311  6514 net.cpp:91] Creating Layer inception_5a/relu_3x3_reduce
I0403 18:02:14.610326  6514 net.cpp:425] inception_5a/relu_3x3_reduce <- inception_5a/3x3_reduce
I0403 18:02:14.610347  6514 net.cpp:386] inception_5a/relu_3x3_reduce -> inception_5a/3x3_reduce (in-place)
I0403 18:02:14.610534  6514 net.cpp:141] Setting up inception_5a/relu_3x3_reduce
I0403 18:02:14.610559  6514 net.cpp:148] Top shape: 24 160 7 7 (188160)
I0403 18:02:14.610574  6514 net.cpp:156] Memory required for data: 1296039456
I0403 18:02:14.610589  6514 layer_factory.hpp:77] Creating layer inception_5a/3x3
I0403 18:02:14.610611  6514 net.cpp:91] Creating Layer inception_5a/3x3
I0403 18:02:14.610630  6514 net.cpp:425] inception_5a/3x3 <- inception_5a/3x3_reduce
I0403 18:02:14.610652  6514 net.cpp:399] inception_5a/3x3 -> inception_5a/3x3
I0403 18:02:14.615833  6514 net.cpp:141] Setting up inception_5a/3x3
I0403 18:02:14.615864  6514 net.cpp:148] Top shape: 24 320 7 7 (376320)
I0403 18:02:14.615880  6514 net.cpp:156] Memory required for data: 1297544736
I0403 18:02:14.615897  6514 layer_factory.hpp:77] Creating layer inception_5a/relu_3x3
I0403 18:02:14.615918  6514 net.cpp:91] Creating Layer inception_5a/relu_3x3
I0403 18:02:14.615936  6514 net.cpp:425] inception_5a/relu_3x3 <- inception_5a/3x3
I0403 18:02:14.615953  6514 net.cpp:386] inception_5a/relu_3x3 -> inception_5a/3x3 (in-place)
I0403 18:02:14.616271  6514 net.cpp:141] Setting up inception_5a/relu_3x3
I0403 18:02:14.616299  6514 net.cpp:148] Top shape: 24 320 7 7 (376320)
I0403 18:02:14.616314  6514 net.cpp:156] Memory required for data: 1299050016
I0403 18:02:14.616329  6514 layer_factory.hpp:77] Creating layer inception_5a/5x5_reduce
I0403 18:02:14.616353  6514 net.cpp:91] Creating Layer inception_5a/5x5_reduce
I0403 18:02:14.616371  6514 net.cpp:425] inception_5a/5x5_reduce <- pool4/3x3_s2_pool4/3x3_s2_0_split_2
I0403 18:02:14.616396  6514 net.cpp:399] inception_5a/5x5_reduce -> inception_5a/5x5_reduce
I0403 18:02:14.617645  6514 net.cpp:141] Setting up inception_5a/5x5_reduce
I0403 18:02:14.617676  6514 net.cpp:148] Top shape: 24 32 7 7 (37632)
I0403 18:02:14.617691  6514 net.cpp:156] Memory required for data: 1299200544
I0403 18:02:14.617709  6514 layer_factory.hpp:77] Creating layer inception_5a/relu_5x5_reduce
I0403 18:02:14.617730  6514 net.cpp:91] Creating Layer inception_5a/relu_5x5_reduce
I0403 18:02:14.617748  6514 net.cpp:425] inception_5a/relu_5x5_reduce <- inception_5a/5x5_reduce
I0403 18:02:14.617765  6514 net.cpp:386] inception_5a/relu_5x5_reduce -> inception_5a/5x5_reduce (in-place)
I0403 18:02:14.618080  6514 net.cpp:141] Setting up inception_5a/relu_5x5_reduce
I0403 18:02:14.618106  6514 net.cpp:148] Top shape: 24 32 7 7 (37632)
I0403 18:02:14.618122  6514 net.cpp:156] Memory required for data: 1299351072
I0403 18:02:14.618139  6514 layer_factory.hpp:77] Creating layer inception_5a/5x5
I0403 18:02:14.618161  6514 net.cpp:91] Creating Layer inception_5a/5x5
I0403 18:02:14.618180  6514 net.cpp:425] inception_5a/5x5 <- inception_5a/5x5_reduce
I0403 18:02:14.618202  6514 net.cpp:399] inception_5a/5x5 -> inception_5a/5x5
I0403 18:02:14.619983  6514 net.cpp:141] Setting up inception_5a/5x5
I0403 18:02:14.620025  6514 net.cpp:148] Top shape: 24 128 7 7 (150528)
I0403 18:02:14.620040  6514 net.cpp:156] Memory required for data: 1299953184
I0403 18:02:14.620059  6514 layer_factory.hpp:77] Creating layer inception_5a/relu_5x5
I0403 18:02:14.620079  6514 net.cpp:91] Creating Layer inception_5a/relu_5x5
I0403 18:02:14.620097  6514 net.cpp:425] inception_5a/relu_5x5 <- inception_5a/5x5
I0403 18:02:14.620115  6514 net.cpp:386] inception_5a/relu_5x5 -> inception_5a/5x5 (in-place)
I0403 18:02:14.620311  6514 net.cpp:141] Setting up inception_5a/relu_5x5
I0403 18:02:14.620337  6514 net.cpp:148] Top shape: 24 128 7 7 (150528)
I0403 18:02:14.620350  6514 net.cpp:156] Memory required for data: 1300555296
I0403 18:02:14.620365  6514 layer_factory.hpp:77] Creating layer inception_5a/pool
I0403 18:02:14.620386  6514 net.cpp:91] Creating Layer inception_5a/pool
I0403 18:02:14.620404  6514 net.cpp:425] inception_5a/pool <- pool4/3x3_s2_pool4/3x3_s2_0_split_3
I0403 18:02:14.620422  6514 net.cpp:399] inception_5a/pool -> inception_5a/pool
I0403 18:02:14.620496  6514 net.cpp:141] Setting up inception_5a/pool
I0403 18:02:14.620518  6514 net.cpp:148] Top shape: 24 832 7 7 (978432)
I0403 18:02:14.620533  6514 net.cpp:156] Memory required for data: 1304469024
I0403 18:02:14.620548  6514 layer_factory.hpp:77] Creating layer inception_5a/pool_proj
I0403 18:02:14.620570  6514 net.cpp:91] Creating Layer inception_5a/pool_proj
I0403 18:02:14.620589  6514 net.cpp:425] inception_5a/pool_proj <- inception_5a/pool
I0403 18:02:14.620610  6514 net.cpp:399] inception_5a/pool_proj -> inception_5a/pool_proj
I0403 18:02:14.622920  6514 net.cpp:141] Setting up inception_5a/pool_proj
I0403 18:02:14.622951  6514 net.cpp:148] Top shape: 24 128 7 7 (150528)
I0403 18:02:14.622967  6514 net.cpp:156] Memory required for data: 1305071136
I0403 18:02:14.622985  6514 layer_factory.hpp:77] Creating layer inception_5a/relu_pool_proj
I0403 18:02:14.623004  6514 net.cpp:91] Creating Layer inception_5a/relu_pool_proj
I0403 18:02:14.623020  6514 net.cpp:425] inception_5a/relu_pool_proj <- inception_5a/pool_proj
I0403 18:02:14.623040  6514 net.cpp:386] inception_5a/relu_pool_proj -> inception_5a/pool_proj (in-place)
I0403 18:02:14.623352  6514 net.cpp:141] Setting up inception_5a/relu_pool_proj
I0403 18:02:14.623378  6514 net.cpp:148] Top shape: 24 128 7 7 (150528)
I0403 18:02:14.623392  6514 net.cpp:156] Memory required for data: 1305673248
I0403 18:02:14.623409  6514 layer_factory.hpp:77] Creating layer inception_5a/output
I0403 18:02:14.623426  6514 net.cpp:91] Creating Layer inception_5a/output
I0403 18:02:14.623442  6514 net.cpp:425] inception_5a/output <- inception_5a/1x1
I0403 18:02:14.623458  6514 net.cpp:425] inception_5a/output <- inception_5a/3x3
I0403 18:02:14.623474  6514 net.cpp:425] inception_5a/output <- inception_5a/5x5
I0403 18:02:14.623491  6514 net.cpp:425] inception_5a/output <- inception_5a/pool_proj
I0403 18:02:14.623510  6514 net.cpp:399] inception_5a/output -> inception_5a/output
I0403 18:02:14.623560  6514 net.cpp:141] Setting up inception_5a/output
I0403 18:02:14.623586  6514 net.cpp:148] Top shape: 24 832 7 7 (978432)
I0403 18:02:14.623601  6514 net.cpp:156] Memory required for data: 1309586976
I0403 18:02:14.623616  6514 layer_factory.hpp:77] Creating layer inception_5a/output_inception_5a/output_0_split
I0403 18:02:14.623634  6514 net.cpp:91] Creating Layer inception_5a/output_inception_5a/output_0_split
I0403 18:02:14.623651  6514 net.cpp:425] inception_5a/output_inception_5a/output_0_split <- inception_5a/output
I0403 18:02:14.623668  6514 net.cpp:399] inception_5a/output_inception_5a/output_0_split -> inception_5a/output_inception_5a/output_0_split_0
I0403 18:02:14.623689  6514 net.cpp:399] inception_5a/output_inception_5a/output_0_split -> inception_5a/output_inception_5a/output_0_split_1
I0403 18:02:14.623713  6514 net.cpp:399] inception_5a/output_inception_5a/output_0_split -> inception_5a/output_inception_5a/output_0_split_2
I0403 18:02:14.623735  6514 net.cpp:399] inception_5a/output_inception_5a/output_0_split -> inception_5a/output_inception_5a/output_0_split_3
I0403 18:02:14.623848  6514 net.cpp:141] Setting up inception_5a/output_inception_5a/output_0_split
I0403 18:02:14.623872  6514 net.cpp:148] Top shape: 24 832 7 7 (978432)
I0403 18:02:14.623888  6514 net.cpp:148] Top shape: 24 832 7 7 (978432)
I0403 18:02:14.623904  6514 net.cpp:148] Top shape: 24 832 7 7 (978432)
I0403 18:02:14.623921  6514 net.cpp:148] Top shape: 24 832 7 7 (978432)
I0403 18:02:14.623935  6514 net.cpp:156] Memory required for data: 1325241888
I0403 18:02:14.623950  6514 layer_factory.hpp:77] Creating layer inception_5b/1x1
I0403 18:02:14.623972  6514 net.cpp:91] Creating Layer inception_5b/1x1
I0403 18:02:14.623991  6514 net.cpp:425] inception_5b/1x1 <- inception_5a/output_inception_5a/output_0_split_0
I0403 18:02:14.624013  6514 net.cpp:399] inception_5b/1x1 -> inception_5b/1x1
I0403 18:02:14.627923  6514 net.cpp:141] Setting up inception_5b/1x1
I0403 18:02:14.627957  6514 net.cpp:148] Top shape: 24 384 7 7 (451584)
I0403 18:02:14.627975  6514 net.cpp:156] Memory required for data: 1327048224
I0403 18:02:14.627995  6514 layer_factory.hpp:77] Creating layer inception_5b/relu_1x1
I0403 18:02:14.628015  6514 net.cpp:91] Creating Layer inception_5b/relu_1x1
I0403 18:02:14.628032  6514 net.cpp:425] inception_5b/relu_1x1 <- inception_5b/1x1
I0403 18:02:14.628058  6514 net.cpp:386] inception_5b/relu_1x1 -> inception_5b/1x1 (in-place)
I0403 18:02:14.628397  6514 net.cpp:141] Setting up inception_5b/relu_1x1
I0403 18:02:14.628428  6514 net.cpp:148] Top shape: 24 384 7 7 (451584)
I0403 18:02:14.628458  6514 net.cpp:156] Memory required for data: 1328854560
I0403 18:02:14.628474  6514 layer_factory.hpp:77] Creating layer inception_5b/3x3_reduce
I0403 18:02:14.628497  6514 net.cpp:91] Creating Layer inception_5b/3x3_reduce
I0403 18:02:14.628517  6514 net.cpp:425] inception_5b/3x3_reduce <- inception_5a/output_inception_5a/output_0_split_1
I0403 18:02:14.628537  6514 net.cpp:399] inception_5b/3x3_reduce -> inception_5b/3x3_reduce
I0403 18:02:14.631276  6514 net.cpp:141] Setting up inception_5b/3x3_reduce
I0403 18:02:14.631306  6514 net.cpp:148] Top shape: 24 192 7 7 (225792)
I0403 18:02:14.631322  6514 net.cpp:156] Memory required for data: 1329757728
I0403 18:02:14.631340  6514 layer_factory.hpp:77] Creating layer inception_5b/relu_3x3_reduce
I0403 18:02:14.631359  6514 net.cpp:91] Creating Layer inception_5b/relu_3x3_reduce
I0403 18:02:14.631376  6514 net.cpp:425] inception_5b/relu_3x3_reduce <- inception_5b/3x3_reduce
I0403 18:02:14.631397  6514 net.cpp:386] inception_5b/relu_3x3_reduce -> inception_5b/3x3_reduce (in-place)
I0403 18:02:14.631589  6514 net.cpp:141] Setting up inception_5b/relu_3x3_reduce
I0403 18:02:14.631614  6514 net.cpp:148] Top shape: 24 192 7 7 (225792)
I0403 18:02:14.631628  6514 net.cpp:156] Memory required for data: 1330660896
I0403 18:02:14.631644  6514 layer_factory.hpp:77] Creating layer inception_5b/3x3
I0403 18:02:14.631667  6514 net.cpp:91] Creating Layer inception_5b/3x3
I0403 18:02:14.631685  6514 net.cpp:425] inception_5b/3x3 <- inception_5b/3x3_reduce
I0403 18:02:14.631707  6514 net.cpp:399] inception_5b/3x3 -> inception_5b/3x3
I0403 18:02:14.638489  6514 net.cpp:141] Setting up inception_5b/3x3
I0403 18:02:14.638520  6514 net.cpp:148] Top shape: 24 384 7 7 (451584)
I0403 18:02:14.638535  6514 net.cpp:156] Memory required for data: 1332467232
I0403 18:02:14.638553  6514 layer_factory.hpp:77] Creating layer inception_5b/relu_3x3
I0403 18:02:14.638571  6514 net.cpp:91] Creating Layer inception_5b/relu_3x3
I0403 18:02:14.638586  6514 net.cpp:425] inception_5b/relu_3x3 <- inception_5b/3x3
I0403 18:02:14.638607  6514 net.cpp:386] inception_5b/relu_3x3 -> inception_5b/3x3 (in-place)
I0403 18:02:14.638916  6514 net.cpp:141] Setting up inception_5b/relu_3x3
I0403 18:02:14.638943  6514 net.cpp:148] Top shape: 24 384 7 7 (451584)
I0403 18:02:14.638957  6514 net.cpp:156] Memory required for data: 1334273568
I0403 18:02:14.638973  6514 layer_factory.hpp:77] Creating layer inception_5b/5x5_reduce
I0403 18:02:14.639014  6514 net.cpp:91] Creating Layer inception_5b/5x5_reduce
I0403 18:02:14.639034  6514 net.cpp:425] inception_5b/5x5_reduce <- inception_5a/output_inception_5a/output_0_split_2
I0403 18:02:14.639056  6514 net.cpp:399] inception_5b/5x5_reduce -> inception_5b/5x5_reduce
I0403 18:02:14.640359  6514 net.cpp:141] Setting up inception_5b/5x5_reduce
I0403 18:02:14.640389  6514 net.cpp:148] Top shape: 24 48 7 7 (56448)
I0403 18:02:14.640406  6514 net.cpp:156] Memory required for data: 1334499360
I0403 18:02:14.640425  6514 layer_factory.hpp:77] Creating layer inception_5b/relu_5x5_reduce
I0403 18:02:14.640442  6514 net.cpp:91] Creating Layer inception_5b/relu_5x5_reduce
I0403 18:02:14.640460  6514 net.cpp:425] inception_5b/relu_5x5_reduce <- inception_5b/5x5_reduce
I0403 18:02:14.640480  6514 net.cpp:386] inception_5b/relu_5x5_reduce -> inception_5b/5x5_reduce (in-place)
I0403 18:02:14.640863  6514 net.cpp:141] Setting up inception_5b/relu_5x5_reduce
I0403 18:02:14.640890  6514 net.cpp:148] Top shape: 24 48 7 7 (56448)
I0403 18:02:14.640905  6514 net.cpp:156] Memory required for data: 1334725152
I0403 18:02:14.640921  6514 layer_factory.hpp:77] Creating layer inception_5b/5x5
I0403 18:02:14.640940  6514 net.cpp:91] Creating Layer inception_5b/5x5
I0403 18:02:14.640959  6514 net.cpp:425] inception_5b/5x5 <- inception_5b/5x5_reduce
I0403 18:02:14.640979  6514 net.cpp:399] inception_5b/5x5 -> inception_5b/5x5
I0403 18:02:14.643059  6514 net.cpp:141] Setting up inception_5b/5x5
I0403 18:02:14.643087  6514 net.cpp:148] Top shape: 24 128 7 7 (150528)
I0403 18:02:14.643103  6514 net.cpp:156] Memory required for data: 1335327264
I0403 18:02:14.643121  6514 layer_factory.hpp:77] Creating layer inception_5b/relu_5x5
I0403 18:02:14.643141  6514 net.cpp:91] Creating Layer inception_5b/relu_5x5
I0403 18:02:14.643158  6514 net.cpp:425] inception_5b/relu_5x5 <- inception_5b/5x5
I0403 18:02:14.643177  6514 net.cpp:386] inception_5b/relu_5x5 -> inception_5b/5x5 (in-place)
I0403 18:02:14.643376  6514 net.cpp:141] Setting up inception_5b/relu_5x5
I0403 18:02:14.643402  6514 net.cpp:148] Top shape: 24 128 7 7 (150528)
I0403 18:02:14.643420  6514 net.cpp:156] Memory required for data: 1335929376
I0403 18:02:14.643435  6514 layer_factory.hpp:77] Creating layer inception_5b/pool
I0403 18:02:14.643453  6514 net.cpp:91] Creating Layer inception_5b/pool
I0403 18:02:14.643470  6514 net.cpp:425] inception_5b/pool <- inception_5a/output_inception_5a/output_0_split_3
I0403 18:02:14.643488  6514 net.cpp:399] inception_5b/pool -> inception_5b/pool
I0403 18:02:14.643563  6514 net.cpp:141] Setting up inception_5b/pool
I0403 18:02:14.643585  6514 net.cpp:148] Top shape: 24 832 7 7 (978432)
I0403 18:02:14.643599  6514 net.cpp:156] Memory required for data: 1339843104
I0403 18:02:14.643615  6514 layer_factory.hpp:77] Creating layer inception_5b/pool_proj
I0403 18:02:14.643635  6514 net.cpp:91] Creating Layer inception_5b/pool_proj
I0403 18:02:14.643652  6514 net.cpp:425] inception_5b/pool_proj <- inception_5b/pool
I0403 18:02:14.643674  6514 net.cpp:399] inception_5b/pool_proj -> inception_5b/pool_proj
I0403 18:02:14.646018  6514 net.cpp:141] Setting up inception_5b/pool_proj
I0403 18:02:14.646049  6514 net.cpp:148] Top shape: 24 128 7 7 (150528)
I0403 18:02:14.646064  6514 net.cpp:156] Memory required for data: 1340445216
I0403 18:02:14.646082  6514 layer_factory.hpp:77] Creating layer inception_5b/relu_pool_proj
I0403 18:02:14.646101  6514 net.cpp:91] Creating Layer inception_5b/relu_pool_proj
I0403 18:02:14.646121  6514 net.cpp:425] inception_5b/relu_pool_proj <- inception_5b/pool_proj
I0403 18:02:14.646137  6514 net.cpp:386] inception_5b/relu_pool_proj -> inception_5b/pool_proj (in-place)
I0403 18:02:14.646443  6514 net.cpp:141] Setting up inception_5b/relu_pool_proj
I0403 18:02:14.646469  6514 net.cpp:148] Top shape: 24 128 7 7 (150528)
I0403 18:02:14.646484  6514 net.cpp:156] Memory required for data: 1341047328
I0403 18:02:14.646499  6514 layer_factory.hpp:77] Creating layer inception_5b/output
I0403 18:02:14.646517  6514 net.cpp:91] Creating Layer inception_5b/output
I0403 18:02:14.646548  6514 net.cpp:425] inception_5b/output <- inception_5b/1x1
I0403 18:02:14.646565  6514 net.cpp:425] inception_5b/output <- inception_5b/3x3
I0403 18:02:14.646581  6514 net.cpp:425] inception_5b/output <- inception_5b/5x5
I0403 18:02:14.646597  6514 net.cpp:425] inception_5b/output <- inception_5b/pool_proj
I0403 18:02:14.646617  6514 net.cpp:399] inception_5b/output -> inception_5b/output
I0403 18:02:14.646669  6514 net.cpp:141] Setting up inception_5b/output
I0403 18:02:14.646695  6514 net.cpp:148] Top shape: 24 1024 7 7 (1204224)
I0403 18:02:14.646710  6514 net.cpp:156] Memory required for data: 1345864224
I0403 18:02:14.646726  6514 layer_factory.hpp:77] Creating layer pool5/7x7_s1
I0403 18:02:14.646744  6514 net.cpp:91] Creating Layer pool5/7x7_s1
I0403 18:02:14.646760  6514 net.cpp:425] pool5/7x7_s1 <- inception_5b/output
I0403 18:02:14.646781  6514 net.cpp:399] pool5/7x7_s1 -> pool5/7x7_s1
I0403 18:02:14.646997  6514 net.cpp:141] Setting up pool5/7x7_s1
I0403 18:02:14.647022  6514 net.cpp:148] Top shape: 24 1024 1 1 (24576)
I0403 18:02:14.647037  6514 net.cpp:156] Memory required for data: 1345962528
I0403 18:02:14.647053  6514 layer_factory.hpp:77] Creating layer pool5/drop_7x7_s1
I0403 18:02:14.647069  6514 net.cpp:91] Creating Layer pool5/drop_7x7_s1
I0403 18:02:14.647085  6514 net.cpp:425] pool5/drop_7x7_s1 <- pool5/7x7_s1
I0403 18:02:14.647105  6514 net.cpp:386] pool5/drop_7x7_s1 -> pool5/7x7_s1 (in-place)
I0403 18:02:14.647157  6514 net.cpp:141] Setting up pool5/drop_7x7_s1
I0403 18:02:14.647182  6514 net.cpp:148] Top shape: 24 1024 1 1 (24576)
I0403 18:02:14.647198  6514 net.cpp:156] Memory required for data: 1346060832
I0403 18:02:14.647217  6514 layer_factory.hpp:77] Creating layer loss3/classifier_plantvillage
I0403 18:02:14.647239  6514 net.cpp:91] Creating Layer loss3/classifier_plantvillage
I0403 18:02:14.647256  6514 net.cpp:425] loss3/classifier_plantvillage <- pool5/7x7_s1
I0403 18:02:14.647279  6514 net.cpp:399] loss3/classifier_plantvillage -> loss3/classifier_plantvillage
I0403 18:02:14.647703  6514 net.cpp:141] Setting up loss3/classifier_plantvillage
I0403 18:02:14.647732  6514 net.cpp:148] Top shape: 24 38 (912)
I0403 18:02:14.647747  6514 net.cpp:156] Memory required for data: 1346064480
I0403 18:02:14.647764  6514 layer_factory.hpp:77] Creating layer loss3/classifier_plantvillage_loss3/classifier_plantvillage_0_split
I0403 18:02:14.647783  6514 net.cpp:91] Creating Layer loss3/classifier_plantvillage_loss3/classifier_plantvillage_0_split
I0403 18:02:14.647799  6514 net.cpp:425] loss3/classifier_plantvillage_loss3/classifier_plantvillage_0_split <- loss3/classifier_plantvillage
I0403 18:02:14.647816  6514 net.cpp:399] loss3/classifier_plantvillage_loss3/classifier_plantvillage_0_split -> loss3/classifier_plantvillage_loss3/classifier_plantvillage_0_split_0
I0403 18:02:14.647837  6514 net.cpp:399] loss3/classifier_plantvillage_loss3/classifier_plantvillage_0_split -> loss3/classifier_plantvillage_loss3/classifier_plantvillage_0_split_1
I0403 18:02:14.647864  6514 net.cpp:399] loss3/classifier_plantvillage_loss3/classifier_plantvillage_0_split -> loss3/classifier_plantvillage_loss3/classifier_plantvillage_0_split_2
I0403 18:02:14.647886  6514 net.cpp:399] loss3/classifier_plantvillage_loss3/classifier_plantvillage_0_split -> loss3/classifier_plantvillage_loss3/classifier_plantvillage_0_split_3
I0403 18:02:14.647989  6514 net.cpp:141] Setting up loss3/classifier_plantvillage_loss3/classifier_plantvillage_0_split
I0403 18:02:14.648012  6514 net.cpp:148] Top shape: 24 38 (912)
I0403 18:02:14.648028  6514 net.cpp:148] Top shape: 24 38 (912)
I0403 18:02:14.648043  6514 net.cpp:148] Top shape: 24 38 (912)
I0403 18:02:14.648059  6514 net.cpp:148] Top shape: 24 38 (912)
I0403 18:02:14.648073  6514 net.cpp:156] Memory required for data: 1346079072
I0403 18:02:14.648088  6514 layer_factory.hpp:77] Creating layer loss1/loss
I0403 18:02:14.648113  6514 net.cpp:91] Creating Layer loss1/loss
I0403 18:02:14.648131  6514 net.cpp:425] loss1/loss <- loss1/classifier_plantvillage_loss1/classifier_plantvillage_0_split_0
I0403 18:02:14.648164  6514 net.cpp:425] loss1/loss <- label_data_1_split_0
…
