…
I0403 18:19:51.270391  6815 net.cpp:313] The NetState phase (1) differed from the phase (0) specified by a rule in layer data
I0403 18:19:51.271610  6815 net.cpp:49] Initializing net from parameters: 
state {
  phase: TEST
}
layer {
  name: "data"
  type: "Data"
  top: "data"
  top: "label"
  include {
    phase: TEST
  }
  transform_param {
    mirror: false
    crop_size: 224
    mean_file: "/home/mohanty/data/final_dataset/lmdb/segmented-50-50/mean.binaryproto"
  }
  data_param {
    source: "/home/mohanty/data/final_dataset/lmdb/segmented-50-50/test_db"
    batch_size: 24
    backend: LMDB
  }
}
layer {
  name: "conv1/7x7_s2"
  type: "Convolution"
  bottom: "data"
  top: "conv1/7x7_s2"
  param {
    lr_mult: 1
    decay_mult: 1
  }
  param {
    lr_mult: 2
    decay_mult: 0
  }
  convolution_param {
    num_output: 64
    pad: 3
    kernel_size: 7
    stride: 2
    weight_filler {
      type: "xavier"
      std: 0.1
    }
    bias_filler {
      type: "constant"
      value: 0.2
    }
  }
}
layer {
  name: "conv1/relu_7x7"
  type: "ReLU"
  bottom: "conv1/7x7_s2"
  top: "conv1/7x7_s2"
}
layer {
  name: "pool1/3x3_s2"
  type: "Pooling"
  bottom: "conv1/7x7_s2"
  top: "pool1/3x3_s2"
  pooling_param {
    pool: MAX
    kernel_size: 3
    stride: 2
  }
}
layer {
  name: "pool1/norm1"
  type: "LRN"
  bottom: "pool1/3x3_s2"
  top: "pool1/norm1"
  lrn_param {
    local_size: 5
    alpha: 0.0001
    beta: 0.75
  }
}
layer {
  name: "conv2/3x3_reduce"
  type: "Convolution"
  bottom: "pool1/norm1"
  top: "conv2/3x3_reduce"
  param {
    lr_mult: 1
    decay_mult: 1
  }
  param {
    lr_mult: 2
    decay_mult: 0
  }
  convolution_param {
    num_output: 64
    kernel_size: 1
    weight_filler {
      type: "xavier"
      std: 0.1
    }
    bias_filler {
      type: "constant"
      value: 0.2
    }
  }
}
layer {
  name: "conv2/relu_3x3_reduce"
  type: "ReLU"
  bottom: "conv2/3x3_reduce"
  top: "conv2/3x3_reduce"
}
layer {
  name: "conv2/3x3"
  type: "Convolution"
  bottom: "conv2/3x3_reduce"
  top: "conv2/3x3"
  param {
    lr_mult: 1
    decay_mult: 1
  }
  param {
    lr_mult: 2
    decay_mult: 0
  }
  convolution_param {
    num_output: 192
    pad: 1
    kernel_size: 3
    weight_filler {
      type: "xavier"
      std: 0.03
    }
    bias_filler {
      type: "constant"
      value: 0.2
    }
  }
}
layer {
  name: "conv2/relu_3x3"
  type: "ReLU"
  bottom: "conv2/3x3"
  top: "conv2/3x3"
}
layer {
  name: "conv2/norm2"
  type: "LRN"
  bottom: "conv2/3x3"
  top: "conv2/norm2"
  lrn_param {
    local_size: 5
    alpha: 0.0001
    beta: 0.75
  }
}
layer {
  name: "pool2/3x3_s2"
  type: "Pooling"
  bottom: "conv2/norm2"
  top: "pool2/3x3_s2"
  pooling_param {
    pool: MAX
    kernel_size: 3
    stride: 2
  }
}
layer {
  name: "inception_3a/1x1"
  type: "Convolution"
  bottom: "pool2/3x3_s2"
  top: "inception_3a/1x1"
  param {
    lr_mult: 1
    decay_mult: 1
  }
  param {
    lr_mult: 2
    decay_mult: 0
  }
  convolution_param {
    num_output: 64
    kernel_size: 1
    weight_filler {
      type: "xavier"
      std: 0.03
    }
    bias_filler {
      type: "constant"
      value: 0.2
    }
  }
}
layer {
  name: "inception_3a/relu_1x1"
  type: "ReLU"
  bottom: "inception_3a/1x1"
  top: "inception_3a/1x1"
}
layer {
  name: "inception_3a/3x3_reduce"
  type: "Convolution"
  bottom: "pool2/3x3_s2"
  top: "inception_3a/3x3_reduce"
  param {
    lr_mult: 1
    decay_mult: 1
  }
  param {
    lr_mult: 2
    decay_mult: 0
  }
  convolution_param {
    num_output: 96
    kernel_size: 1
    weight_filler {
      type: "xavier"
      std: 0.09
    }
    bias_filler {
      type: "constant"
      value: 0.2
    }
  }
}
layer {
  name: "inception_3a/relu_3x3_reduce"
  type: "ReLU"
  bottom: "inception_3a/3x3_reduce"
  top: "inception_3a/3x3_reduce"
}
layer {
  name: "inception_3a/3x3"
  type: "Convolution"
  bottom: "inception_3a/3x3_reduce"
  top: "inception_3a/3x3"
  param {
    lr_mult: 1
    decay_mult: 1
  }
  param {
    lr_mult: 2
    decay_mult: 0
  }
  convolution_param {
    num_output: 128
    pad: 1
    kernel_size: 3
    weight_filler {
      type: "xavier"
      std: 0.03
    }
    bias_filler {
      type: "constant"
      value: 0.2
    }
  }
}
layer {
  name: "inception_3a/relu_3x3"
  type: "ReLU"
  bottom: "inception_3a/3x3"
  top: "inception_3a/3x3"
}
layer {
  name: "inception_3a/5x5_reduce"
  type: "Convolution"
  bottom: "pool2/3x3_s2"
  top: "inception_3a/5x5_reduce"
  param {
    lr_mult: 1
    decay_mult: 1
  }
  param {
    lr_mult: 2
    decay_mult: 0
  }
  convolution_param {
    num_output: 16
    kernel_size: 1
    weight_filler {
      type: "xavier"
      std: 0.2
    }
    bias_filler {
      type: "constant"
      value: 0.2
    }
  }
}
layer {
  name: "inception_3a/relu_5x5_reduce"
  type: "ReLU"
  bottom: "inception_3a/5x5_reduce"
  top: "inception_3a/5x5_reduce"
}
layer {
  name: "inception_3a/5x5"
  type: "Convolution"
  bottom: "inception_3a/5x5_reduce"
  top: "inception_3a/5x5"
  param {
    lr_mult: 1
    decay_mult: 1
  }
  param {
    lr_mult: 2
    decay_mult: 0
  }
  convolution_param {
    num_output: 32
    pad: 2
    kernel_size: 5
    weight_filler {
      type: "xavier"
      std: 0.03
    }
    bias_filler {
      type: "constant"
      value: 0.2
    }
  }
}
layer {
  name: "inception_3a/relu_5x5"
  type: "ReLU"
  bottom: "inception_3a/5x5"
  top: "inception_3a/5x5"
}
layer {
  name: "inception_3a/pool"
  type: "Pooling"
  bottom: "pool2/3x3_s2"
  top: "inception_3a/pool"
  pooling_param {
    pool: MAX
    kernel_size: 3
    stride: 1
    pad: 1
  }
}
layer {
  name: "inception_3a/pool_proj"
  type: "Convolution"
  bottom: "inception_3a/pool"
  top: "inception_3a/pool_proj"
  param {
    lr_mult: 1
    decay_mult: 1
  }
  param {
    lr_mult: 2
    decay_mult: 0
  }
  convolution_param {
    num_output: 32
    kernel_size: 1
    weight_filler {
      type: "xavier"
      std: 0.1
    }
    bias_filler {
      type: "constant"
      value: 0.2
    }
  }
}
layer {
  name: "inception_3a/relu_pool_proj"
  type: "ReLU"
  bottom: "inception_3a/pool_proj"
  top: "inception_3a/pool_proj"
}
layer {
  name: "inception_3a/output"
  type: "Concat"
  bottom: "inception_3a/1x1"
  bottom: "inception_3a/3x3"
  bottom: "inception_3a/5x5"
  bottom: "inception_3a/pool_proj"
  top: "inception_3a/output"
}
layer {
  name: "inception_3b/1x1"
  type: "Convolution"
  bottom: "inception_3a/output"
  top: "inception_3b/1x1"
  param {
    lr_mult: 1
    decay_mult: 1
  }
  param {
    lr_mult: 2
    decay_mult: 0
  }
  convolution_param {
    num_output: 128
    kernel_size: 1
    weight_filler {
      type: "xavier"
      std: 0.03
    }
    bias_filler {
      type: "constant"
      value: 0.2
    }
  }
}
layer {
  name: "inception_3b/relu_1x1"
  type: "ReLU"
  bottom: "inception_3b/1x1"
  top: "inception_3b/1x1"
}
layer {
  name: "inception_3b/3x3_reduce"
  type: "Convolution"
  bottom: "inception_3a/output"
  top: "inception_3b/3x3_reduce"
  param {
    lr_mult: 1
    decay_mult: 1
  }
  param {
    lr_mult: 2
    decay_mult: 0
  }
  convolution_param {
    num_output: 128
    kernel_size: 1
    weight_filler {
      type: "xavier"
      std: 0.09
    }
    bias_filler {
      type: "constant"
      value: 0.2
    }
  }
}
layer {
  name: "inception_3b/relu_3x3_reduce"
  type: "ReLU"
  bottom: "inception_3b/3x3_reduce"
  top: "inception_3b/3x3_reduce"
}
layer {
  name: "inception_3b/3x3"
  type: "Convolution"
  bottom: "inception_3b/3x3_reduce"
  top: "inception_3b/3x3"
  param {
    lr_mult: 1
    decay_mult: 1
  }
  param {
    lr_mult: 2
    decay_mult: 0
  }
  convolution_param {
    num_output: 192
    pad: 1
    kernel_size: 3
    weight_filler {
      type: "xavier"
      std: 0.03
    }
    bias_filler {
      type: "constant"
      value: 0.2
    }
  }
}
layer {
  name: "inception_3b/relu_3x3"
  type: "ReLU"
  bottom: "inception_3b/3x3"
  top: "inception_3b/3x3"
}
layer {
  name: "inception_3b/5x5_reduce"
  type: "Convolution"
  bottom: "inception_3a/output"
  top: "inception_3b/5x5_reduce"
  param {
    lr_mult: 1
    decay_mult: 1
  }
  param {
    lr_mult: 2
    decay_mult: 0
  }
  convolution_param {
    num_output: 32
    kernel_size: 1
    weight_filler {
      type: "xavier"
      std: 0.2
    }
    bias_filler {
      type: "constant"
      value: 0.2
    }
  }
}
layer {
  name: "inception_3b/relu_5x5_reduce"
  type: "ReLU"
  bottom: "inception_3b/5x5_reduce"
  top: "inception_3b/5x5_reduce"
}
layer {
  name: "inception_3b/5x5"
  type: "Convolution"
  bottom: "inception_3b/5x5_reduce"
  top: "inception_3b/5x5"
  param {
    lr_mult: 1
    decay_mult: 1
  }
  param {
    lr_mult: 2
    decay_mult: 0
  }
  convolution_param {
    num_output: 96
    pad: 2
    kernel_size: 5
    weight_filler {
      type: "xavier"
      std: 0.03
    }
    bias_filler {
      type: "constant"
      value: 0.2
    }
  }
}
layer {
  name: "inception_3b/relu_5x5"
  type: "ReLU"
  bottom: "inception_3b/5x5"
  top: "inception_3b/5x5"
}
layer {
  name: "inception_3b/pool"
  type: "Pooling"
  bottom: "inception_3a/output"
  top: "inception_3b/pool"
  pooling_param {
    pool: MAX
    kernel_size: 3
    stride: 1
    pad: 1
  }
}
layer {
  name: "inception_3b/pool_proj"
  type: "Convolution"
  bottom: "inception_3b/pool"
  top: "inception_3b/pool_proj"
  param {
    lr_mult: 1
    decay_mult: 1
  }
  param {
    lr_mult: 2
    decay_mult: 0
  }
  convolution_param {
    num_output: 64
    kernel_size: 1
    weight_filler {
      type: "xavier"
      std: 0.1
    }
    bias_filler {
      type: "constant"
      value: 0.2
    }
  }
}
layer {
  name: "inception_3b/relu_pool_proj"
  type: "ReLU"
  bottom: "inception_3b/pool_proj"
  top: "inception_3b/pool_proj"
}
layer {
  name: "inception_3b/output"
  type: "Concat"
  bottom: "inception_3b/1x1"
  bottom: "inception_3b/3x3"
  bottom: "inception_3b/5x5"
  bottom: "inception_3b/pool_proj"
  top: "inception_3b/output"
}
layer {
  name: "pool3/3x3_s2"
  type: "Pooling"
  bottom: "inception_3b/output"
  top: "pool3/3x3_s2"
  pooling_param {
    pool: MAX
    kernel_size: 3
    stride: 2
  }
}
layer {
  name: "inception_4a/1x1"
  type: "Convolution"
  bottom: "pool3/3x3_s2"
  top: "inception_4a/1x1"
  param {
    lr_mult: 1
    decay_mult: 1
  }
  param {
    lr_mult: 2
    decay_mult: 0
  }
  convolution_param {
    num_output: 192
    kernel_size: 1
    weight_filler {
      type: "xavier"
      std: 0.03
    }
    bias_filler {
      type: "constant"
      value: 0.2
    }
  }
}
layer {
  name: "inception_4a/relu_1x1"
  type: "ReLU"
  bottom: "inception_4a/1x1"
  top: "inception_4a/1x1"
}
layer {
  name: "inception_4a/3x3_reduce"
  type: "Convolution"
  bottom: "pool3/3x3_s2"
  top: "inception_4a/3x3_reduce"
  param {
    lr_mult: 1
    decay_mult: 1
  }
  param {
    lr_mult: 2
    decay_mult: 0
  }
  convolution_param {
    num_output: 96
    kernel_size: 1
    weight_filler {
      type: "xavier"
      std: 0.09
    }
    bias_filler {
      type: "constant"
      value: 0.2
    }
  }
}
layer {
  name: "inception_4a/relu_3x3_reduce"
  type: "ReLU"
  bottom: "inception_4a/3x3_reduce"
  top: "inception_4a/3x3_reduce"
}
layer {
  name: "inception_4a/3x3"
  type: "Convolution"
  bottom: "inception_4a/3x3_reduce"
  top: "inception_4a/3x3"
  param {
    lr_mult: 1
    decay_mult: 1
  }
  param {
    lr_mult: 2
    decay_mult: 0
  }
  convolution_param {
    num_output: 208
    pad: 1
    kernel_size: 3
    weight_filler {
      type: "xavier"
      std: 0.03
    }
    bias_filler {
      type: "constant"
      value: 0.2
    }
  }
}
layer {
  name: "inception_4a/relu_3x3"
  type: "ReLU"
  bottom: "inception_4a/3x3"
  top: "inception_4a/3x3"
}
layer {
  name: "inception_4a/5x5_reduce"
  type: "Convolution"
  bottom: "pool3/3x3_s2"
  top: "inception_4a/5x5_reduce"
  param {
    lr_mult: 1
    decay_mult: 1
  }
  param {
    lr_mult: 2
    decay_mult: 0
  }
  convolution_param {
    num_output: 16
    kernel_size: 1
    weight_filler {
      type: "xavier"
      std: 0.2
    }
    bias_filler {
      type: "constant"
      value: 0.2
    }
  }
}
layer {
  name: "inception_4a/relu_5x5_reduce"
  type: "ReLU"
  bottom: "inception_4a/5x5_reduce"
  top: "inception_4a/5x5_reduce"
}
layer {
  name: "inception_4a/5x5"
  type: "Convolution"
  bottom: "inception_4a/5x5_reduce"
  top: "inception_4a/5x5"
  param {
    lr_mult: 1
    decay_mult: 1
  }
  param {
    lr_mult: 2
    decay_mult: 0
  }
  convolution_param {
    num_output: 48
    pad: 2
    kernel_size: 5
    weight_filler {
      type: "xavier"
      std: 0.03
    }
    bias_filler {
      type: "constant"
      value: 0.2
    }
  }
}
layer {
  name: "inception_4a/relu_5x5"
  type: "ReLU"
  bottom: "inception_4a/5x5"
  top: "inception_4a/5x5"
}
layer {
  name: "inception_4a/pool"
  type: "Pooling"
  bottom: "pool3/3x3_s2"
  top: "inception_4a/pool"
  pooling_param {
    pool: MAX
    kernel_size: 3
    stride: 1
    pad: 1
  }
}
layer {
  name: "inception_4a/pool_proj"
  type: "Convolution"
  bottom: "inception_4a/pool"
  top: "inception_4a/pool_proj"
  param {
    lr_mult: 1
    decay_mult: 1
  }
  param {
    lr_mult: 2
    decay_mult: 0
  }
  convolution_param {
    num_output: 64
    kernel_size: 1
    weight_filler {
      type: "xavier"
      std: 0.1
    }
    bias_filler {
      type: "constant"
      value: 0.2
    }
  }
}
layer {
  name: "inception_4a/relu_pool_proj"
  type: "ReLU"
  bottom: "inception_4a/pool_proj"
  top: "inception_4a/pool_proj"
}
layer {
  name: "inception_4a/output"
  type: "Concat"
  bottom: "inception_4a/1x1"
  bottom: "inception_4a/3x3"
  bottom: "inception_4a/5x5"
  bottom: "inception_4a/pool_proj"
  top: "inception_4a/output"
}
layer {
  name: "loss1/ave_pool"
  type: "Pooling"
  bottom: "inception_4a/output"
  top: "loss1/ave_pool"
  pooling_param {
    pool: AVE
    kernel_size: 5
    stride: 3
  }
}
layer {
  name: "loss1/conv"
  type: "Convolution"
  bottom: "loss1/ave_pool"
  top: "loss1/conv"
  param {
    lr_mult: 1
    decay_mult: 1
  }
  param {
    lr_mult: 2
    decay_mult: 0
  }
  convolution_param {
    num_output: 128
    kernel_size: 1
    weight_filler {
      type: "xavier"
      std: 0.08
    }
    bias_filler {
      type: "constant"
      value: 0.2
    }
  }
}
layer {
  name: "loss1/relu_conv"
  type: "ReLU"
  bottom: "loss1/conv"
  top: "loss1/conv"
}
layer {
  name: "loss1/fc"
  type: "InnerProduct"
  bottom: "loss1/conv"
  top: "loss1/fc"
  param {
    lr_mult: 1
    decay_mult: 1
  }
  param {
    lr_mult: 2
    decay_mult: 0
  }
  inner_product_param {
    num_output: 1024
    weight_filler {
      type: "xavier"
      std: 0.02
    }
    bias_filler {
      type: "constant"
      value: 0.2
    }
  }
}
layer {
  name: "loss1/relu_fc"
  type: "ReLU"
  bottom: "loss1/fc"
  top: "loss1/fc"
}
layer {
  name: "loss1/drop_fc"
  type: "Dropout"
  bottom: "loss1/fc"
  top: "loss1/fc"
  dropout_param {
    dropout_ratio: 0.7
  }
}
layer {
  name: "loss1/classifier_plantvillage"
  type: "InnerProduct"
  bottom: "loss1/fc"
  top: "loss1/classifier_plantvillage"
  param {
    lr_mult: 1
    decay_mult: 1
  }
  param {
    lr_mult: 2
    decay_mult: 0
  }
  inner_product_param {
    num_output: 38
    weight_filler {
      type: "xavier"
      std: 0.0009765625
    }
    bias_filler {
      type: "constant"
      value: 0
    }
  }
}
layer {
  name: "inception_4b/1x1"
  type: "Convolution"
  bottom: "inception_4a/output"
  top: "inception_4b/1x1"
  param {
    lr_mult: 1
    decay_mult: 1
  }
  param {
    lr_mult: 2
    decay_mult: 0
  }
  convolution_param {
    num_output: 160
    kernel_size: 1
    weight_filler {
      type: "xavier"
      std: 0.03
    }
    bias_filler {
      type: "constant"
      value: 0.2
    }
  }
}
layer {
  name: "inception_4b/relu_1x1"
  type: "ReLU"
  bottom: "inception_4b/1x1"
  top: "inception_4b/1x1"
}
layer {
  name: "inception_4b/3x3_reduce"
  type: "Convolution"
  bottom: "inception_4a/output"
  top: "inception_4b/3x3_reduce"
  param {
    lr_mult: 1
    decay_mult: 1
  }
  param {
    lr_mult: 2
    decay_mult: 0
  }
  convolution_param {
    num_output: 112
    kernel_size: 1
    weight_filler {
      type: "xavier"
      std: 0.09
    }
    bias_filler {
      type: "constant"
      value: 0.2
    }
  }
}
layer {
  name: "inception_4b/relu_3x3_reduce"
  type: "ReLU"
  bottom: "inception_4b/3x3_reduce"
  top: "inception_4b/3x3_reduce"
}
layer {
  name: "inception_4b/3x3"
  type: "Convolution"
  bottom: "inception_4b/3x3_reduce"
  top: "inception_4b/3x3"
  param {
    lr_mult: 1
    decay_mult: 1
  }
  param {
    lr_mult: 2
    decay_mult: 0
  }
  convolution_param {
    num_output: 224
    pad: 1
    kernel_size: 3
    weight_filler {
      type: "xavier"
      std: 0.03
    }
    bias_filler {
      type: "constant"
      value: 0.2
    }
  }
}
layer {
  name: "inception_4b/relu_3x3"
  type: "ReLU"
  bottom: "inception_4b/3x3"
  top: "inception_4b/3x3"
}
layer {
  name: "inception_4b/5x5_reduce"
  type: "Convolution"
  bottom: "inception_4a/output"
  top: "inception_4b/5x5_reduce"
  param {
    lr_mult: 1
    decay_mult: 1
  }
  param {
    lr_mult: 2
    decay_mult: 0
  }
  convolution_param {
    num_output: 24
    kernel_size: 1
    weight_filler {
      type: "xavier"
      std: 0.2
    }
    bias_filler {
      type: "constant"
      value: 0.2
    }
  }
}
layer {
  name: "inception_4b/relu_5x5_reduce"
  type: "ReLU"
  bottom: "inception_4b/5x5_reduce"
  top: "inception_4b/5x5_reduce"
}
layer {
  name: "inception_4b/5x5"
  type: "Convolution"
  bottom: "inception_4b/5x5_reduce"
  top: "inception_4b/5x5"
  param {
    lr_mult: 1
    decay_mult: 1
  }
  param {
    lr_mult: 2
    decay_mult: 0
  }
  convolution_param {
    num_output: 64
    pad: 2
    kernel_size: 5
    weight_filler {
      type: "xavier"
      std: 0.03
    }
    bias_filler {
      type: "constant"
      value: 0.2
    }
  }
}
layer {
  name: "inception_4b/relu_5x5"
  type: "ReLU"
  bottom: "inception_4b/5x5"
  top: "inception_4b/5x5"
}
layer {
  name: "inception_4b/pool"
  type: "Pooling"
  bottom: "inception_4a/output"
  top: "inception_4b/pool"
  pooling_param {
    pool: MAX
    kernel_size: 3
    stride: 1
    pad: 1
  }
}
layer {
  name: "inception_4b/pool_proj"
  type: "Convolution"
  bottom: "inception_4b/pool"
  top: "inception_4b/pool_proj"
  param {
    lr_mult: 1
    decay_mult: 1
  }
  param {
    lr_mult: 2
    decay_mult: 0
  }
  convolution_param {
    num_output: 64
    kernel_size: 1
    weight_filler {
      type: "xavier"
      std: 0.1
    }
    bias_filler {
      type: "constant"
      value: 0.2
    }
  }
}
layer {
  name: "inception_4b/relu_pool_proj"
  type: "ReLU"
  bottom: "inception_4b/pool_proj"
  top: "inception_4b/pool_proj"
}
layer {
  name: "inception_4b/output"
  type: "Concat"
  bottom: "inception_4b/1x1"
  bottom: "inception_4b/3x3"
  bottom: "inception_4b/5x5"
  bottom: "inception_4b/pool_proj"
  top: "inception_4b/output"
}
layer {
  name: "inception_4c/1x1"
  type: "Convolution"
  bottom: "inception_4b/output"
  top: "inception_4c/1x1"
  param {
    lr_mult: 1
    decay_mult: 1
  }
  param {
    lr_mult: 2
    decay_mult: 0
  }
  convolution_param {
    num_output: 128
    kernel_size: 1
    weight_filler {
      type: "xavier"
      std: 0.03
    }
    bias_filler {
      type: "constant"
      value: 0.2
    }
  }
}
layer {
  name: "inception_4c/relu_1x1"
  type: "ReLU"
  bottom: "inception_4c/1x1"
  top: "inception_4c/1x1"
}
layer {
  name: "inception_4c/3x3_reduce"
  type: "Convolution"
  bottom: "inception_4b/output"
  top: "inception_4c/3x3_reduce"
  param {
    lr_mult: 1
    decay_mult: 1
  }
  param {
    lr_mult: 2
    decay_mult: 0
  }
  convolution_param {
    num_output: 128
    kernel_size: 1
    weight_filler {
      type: "xavier"
      std: 0.09
    }
    bias_filler {
      type: "constant"
      value: 0.2
    }
  }
}
layer {
  name: "inception_4c/relu_3x3_reduce"
  type: "ReLU"
  bottom: "inception_4c/3x3_reduce"
  top: "inception_4c/3x3_reduce"
}
layer {
  name: "inception_4c/3x3"
  type: "Convolution"
  bottom: "inception_4c/3x3_reduce"
  top: "inception_4c/3x3"
  param {
    lr_mult: 1
    decay_mult: 1
  }
  param {
    lr_mult: 2
    decay_mult: 0
  }
  convolution_param {
    num_output: 256
    pad: 1
    kernel_size: 3
    weight_filler {
      type: "xavier"
      std: 0.03
    }
    bias_filler {
      type: "constant"
      value: 0.2
    }
  }
}
layer {
  name: "inception_4c/relu_3x3"
  type: "ReLU"
  bottom: "inception_4c/3x3"
  top: "inception_4c/3x3"
}
layer {
  name: "inception_4c/5x5_reduce"
  type: "Convolution"
  bottom: "inception_4b/output"
  top: "inception_4c/5x5_reduce"
  param {
    lr_mult: 1
    decay_mult: 1
  }
  param {
    lr_mult: 2
    decay_mult: 0
  }
  convolution_param {
    num_output: 24
    kernel_size: 1
    weight_filler {
      type: "xavier"
      std: 0.2
    }
    bias_filler {
      type: "constant"
      value: 0.2
    }
  }
}
layer {
  name: "inception_4c/relu_5x5_reduce"
  type: "ReLU"
  bottom: "inception_4c/5x5_reduce"
  top: "inception_4c/5x5_reduce"
}
layer {
  name: "inception_4c/5x5"
  type: "Convolution"
  bottom: "inception_4c/5x5_reduce"
  top: "inception_4c/5x5"
  param {
    lr_mult: 1
    decay_mult: 1
  }
  param {
    lr_mult: 2
    decay_mult: 0
  }
  convolution_param {
    num_output: 64
    pad: 2
    kernel_size: 5
    weight_filler {
      type: "xavier"
      std: 0.03
    }
    bias_filler {
      type: "constant"
      value: 0.2
    }
  }
}
layer {
  name: "inception_4c/relu_5x5"
  type: "ReLU"
  bottom: "inception_4c/5x5"
  top: "inception_4c/5x5"
}
layer {
  name: "inception_4c/pool"
  type: "Pooling"
  bottom: "inception_4b/output"
  top: "inception_4c/pool"
  pooling_param {
    pool: MAX
    kernel_size: 3
    stride: 1
    pad: 1
  }
}
layer {
  name: "inception_4c/pool_proj"
  type: "Convolution"
  bottom: "inception_4c/pool"
  top: "inception_4c/pool_proj"
  param {
    lr_mult: 1
    decay_mult: 1
  }
  param {
    lr_mult: 2
    decay_mult: 0
  }
  convolution_param {
    num_output: 64
    kernel_size: 1
    weight_filler {
      type: "xavier"
      std: 0.1
    }
    bias_filler {
      type: "constant"
      value: 0.2
    }
  }
}
layer {
  name: "inception_4c/relu_pool_proj"
  type: "ReLU"
  bottom: "inception_4c/pool_proj"
  top: "inception_4c/pool_proj"
}
layer {
  name: "inception_4c/output"
  type: "Concat"
  bottom: "inception_4c/1x1"
  bottom: "inception_4c/3x3"
  bottom: "inception_4c/5x5"
  bottom: "inception_4c/pool_proj"
  top: "inception_4c/output"
}
layer {
  name: "inception_4d/1x1"
  type: "Convolution"
  bottom: "inception_4c/output"
  top: "inception_4d/1x1"
  param {
    lr_mult: 1
    decay_mult: 1
  }
  param {
    lr_mult: 2
    decay_mult: 0
  }
  convolution_param {
    num_output: 112
    kernel_size: 1
    weight_filler {
      type: "xavier"
      std: 0.03
    }
    bias_filler {
      type: "constant"
      value: 0.2
    }
  }
}
layer {
  name: "inception_4d/relu_1x1"
  type: "ReLU"
  bottom: "inception_4d/1x1"
  top: "inception_4d/1x1"
}
layer {
  name: "inception_4d/3x3_reduce"
  type: "Convolution"
  bottom: "inception_4c/output"
  top: "inception_4d/3x3_reduce"
  param {
    lr_mult: 1
    decay_mult: 1
  }
  param {
    lr_mult: 2
    decay_mult: 0
  }
  convolution_param {
    num_output: 144
    kernel_size: 1
    weight_filler {
      type: "xavier"
      std: 0.09
    }
    bias_filler {
      type: "constant"
      value: 0.2
    }
  }
}
layer {
  name: "inception_4d/relu_3x3_reduce"
  type: "ReLU"
  bottom: "inception_4d/3x3_reduce"
  top: "inception_4d/3x3_reduce"
}
layer {
  name: "inception_4d/3x3"
  type: "Convolution"
  bottom: "inception_4d/3x3_reduce"
  top: "inception_4d/3x3"
  param {
    lr_mult: 1
    decay_mult: 1
  }
  param {
    lr_mult: 2
    decay_mult: 0
  }
  convolution_param {
    num_output: 288
    pad: 1
    kernel_size: 3
    weight_filler {
      type: "xavier"
      std: 0.03
    }
    bias_filler {
      type: "constant"
      value: 0.2
    }
  }
}
layer {
  name: "inception_4d/relu_3x3"
  type: "ReLU"
  bottom: "inception_4d/3x3"
  top: "inception_4d/3x3"
}
layer {
  name: "inception_4d/5x5_reduce"
  type: "Convolution"
  bottom: "inception_4c/output"
  top: "inception_4d/5x5_reduce"
  param {
    lr_mult: 1
    decay_mult: 1
  }
  param {
    lr_mult: 2
    decay_mult: 0
  }
  convolution_param {
    num_output: 32
    kernel_size: 1
    weight_filler {
      type: "xavier"
      std: 0.2
    }
    bias_filler {
      type: "constant"
      value: 0.2
    }
  }
}
layer {
  name: "inception_4d/relu_5x5_reduce"
  type: "ReLU"
  bottom: "inception_4d/5x5_reduce"
  top: "inception_4d/5x5_reduce"
}
layer {
  name: "inception_4d/5x5"
  type: "Convolution"
  bottom: "inception_4d/5x5_reduce"
  top: "inception_4d/5x5"
  param {
    lr_mult: 1
    decay_mult: 1
  }
  param {
    lr_mult: 2
    decay_mult: 0
  }
  convolution_param {
    num_output: 64
    pad: 2
    kernel_size: 5
    weight_filler {
      type: "xavier"
      std: 0.03
    }
    bias_filler {
      type: "constant"
      value: 0.2
    }
  }
}
layer {
  name: "inception_4d/relu_5x5"
  type: "ReLU"
  bottom: "inception_4d/5x5"
  top: "inception_4d/5x5"
}
layer {
  name: "inception_4d/pool"
  type: "Pooling"
  bottom: "inception_4c/output"
  top: "inception_4d/pool"
  pooling_param {
    pool: MAX
    kernel_size: 3
    stride: 1
    pad: 1
  }
}
layer {
  name: "inception_4d/pool_proj"
  type: "Convolution"
  bottom: "inception_4d/pool"
  top: "inception_4d/pool_proj"
  param {
    lr_mult: 1
    decay_mult: 1
  }
  param {
    lr_mult: 2
    decay_mult: 0
  }
  convolution_param {
    num_output: 64
    kernel_size: 1
    weight_filler {
      type: "xavier"
      std: 0.1
    }
    bias_filler {
      type: "constant"
      value: 0.2
    }
  }
}
layer {
  name: "inception_4d/relu_pool_proj"
  type: "ReLU"
  bottom: "inception_4d/pool_proj"
  top: "inception_4d/pool_proj"
}
layer {
  name: "inception_4d/output"
  type: "Concat"
  bottom: "inception_4d/1x1"
  bottom: "inception_4d/3x3"
  bottom: "inception_4d/5x5"
  bottom: "inception_4d/pool_proj"
  top: "inception_4d/output"
}
layer {
  name: "loss2/ave_pool"
  type: "Pooling"
  bottom: "inception_4d/output"
  top: "loss2/ave_pool"
  pooling_param {
    pool: AVE
    kernel_size: 5
    stride: 3
  }
}
layer {
  name: "loss2/conv"
  type: "Convolution"
  bottom: "loss2/ave_pool"
  top: "loss2/conv"
  param {
    lr_mult: 1
    decay_mult: 1
  }
  param {
    lr_mult: 2
    decay_mult: 0
  }
  convolution_param {
    num_output: 128
    kernel_size: 1
    weight_filler {
      type: "xavier"
      std: 0.08
    }
    bias_filler {
      type: "constant"
      value: 0.2
    }
  }
}
layer {
  name: "loss2/relu_conv"
  type: "ReLU"
  bottom: "loss2/conv"
  top: "loss2/conv"
}
layer {
  name: "loss2/fc"
  type: "InnerProduct"
  bottom: "loss2/conv"
  top: "loss2/fc"
  param {
    lr_mult: 1
    decay_mult: 1
  }
  param {
    lr_mult: 2
    decay_mult: 0
  }
  inner_product_param {
    num_output: 1024
    weight_filler {
      type: "xavier"
      std: 0.02
    }
    bias_filler {
      type: "constant"
      value: 0.2
    }
  }
}
layer {
  name: "loss2/relu_fc"
  type: "ReLU"
  bottom: "loss2/fc"
  top: "loss2/fc"
}
layer {
  name: "loss2/drop_fc"
  type: "Dropout"
  bottom: "loss2/fc"
  top: "loss2/fc"
  dropout_param {
    dropout_ratio: 0.7
  }
}
layer {
  name: "loss2/classifier_plantvillage"
  type: "InnerProduct"
  bottom: "loss2/fc"
  top: "loss2/classifier_plantvillage"
  param {
    lr_mult: 1
    decay_mult: 1
  }
  param {
    lr_mult: 2
    decay_mult: 0
  }
  inner_product_param {
    num_output: 38
    weight_filler {
      type: "xavier"
      std: 0.0009765625
    }
    bias_filler {
      type: "constant"
      value: 0
    }
  }
}
layer {
  name: "inception_4e/1x1"
  type: "Convolution"
  bottom: "inception_4d/output"
  top: "inception_4e/1x1"
  param {
    lr_mult: 1
    decay_mult: 1
  }
  param {
    lr_mult: 2
    decay_mult: 0
  }
  convolution_param {
    num_output: 256
    kernel_size: 1
    weight_filler {
      type: "xavier"
      std: 0.03
    }
    bias_filler {
      type: "constant"
      value: 0.2
    }
  }
}
layer {
  name: "inception_4e/relu_1x1"
  type: "ReLU"
  bottom: "inception_4e/1x1"
  top: "inception_4e/1x1"
}
layer {
  name: "inception_4e/3x3_reduce"
  type: "Convolution"
  bottom: "inception_4d/output"
  top: "inception_4e/3x3_reduce"
  param {
    lr_mult: 1
    decay_mult: 1
  }
  param {
    lr_mult: 2
    decay_mult: 0
  }
  convolution_param {
    num_output: 160
    kernel_size: 1
    weight_filler {
      type: "xavier"
      std: 0.09
    }
    bias_filler {
      type: "constant"
      value: 0.2
    }
  }
}
layer {
  name: "inception_4e/relu_3x3_reduce"
  type: "ReLU"
  bottom: "inception_4e/3x3_reduce"
  top: "inception_4e/3x3_reduce"
}
layer {
  name: "inception_4e/3x3"
  type: "Convolution"
  bottom: "inception_4e/3x3_reduce"
  top: "inception_4e/3x3"
  param {
    lr_mult: 1
    decay_mult: 1
  }
  param {
    lr_mult: 2
    decay_mult: 0
  }
  convolution_param {
    num_output: 320
    pad: 1
    kernel_size: 3
    weight_filler {
      type: "xavier"
      std: 0.03
    }
    bias_filler {
      type: "constant"
      value: 0.2
    }
  }
}
layer {
  name: "inception_4e/relu_3x3"
  type: "ReLU"
  bottom: "inception_4e/3x3"
  top: "inception_4e/3x3"
}
layer {
  name: "inception_4e/5x5_reduce"
  type: "Convolution"
  bottom: "inception_4d/output"
  top: "inception_4e/5x5_reduce"
  param {
    lr_mult: 1
    decay_mult: 1
  }
  param {
    lr_mult: 2
    decay_mult: 0
  }
  convolution_param {
    num_output: 32
    kernel_size: 1
    weight_filler {
      type: "xavier"
      std: 0.2
    }
    bias_filler {
      type: "constant"
      value: 0.2
    }
  }
}
layer {
  name: "inception_4e/relu_5x5_reduce"
  type: "ReLU"
  bottom: "inception_4e/5x5_reduce"
  top: "inception_4e/5x5_reduce"
}
layer {
  name: "inception_4e/5x5"
  type: "Convolution"
  bottom: "inception_4e/5x5_reduce"
  top: "inception_4e/
I0403 18:19:51.273401  6815 layer_factory.hpp:77] Creating layer data
I0403 18:19:51.273991  6815 net.cpp:91] Creating Layer data
I0403 18:19:51.274021  6815 net.cpp:399] data -> data
I0403 18:19:51.274071  6815 net.cpp:399] data -> label
I0403 18:19:51.274106  6815 data_transformer.cpp:25] Loading mean file from: /home/mohanty/data/final_dataset/lmdb/segmented-50-50/mean.binaryproto
I0403 18:19:51.275203  6819 db_lmdb.cpp:38] Opened lmdb /home/mohanty/data/final_dataset/lmdb/segmented-50-50/test_db
I0403 18:19:51.287076  6815 data_layer.cpp:41] output data size: 24,3,224,224
I0403 18:19:51.315047  6815 net.cpp:141] Setting up data
I0403 18:19:51.315104  6815 net.cpp:148] Top shape: 24 3 224 224 (3612672)
I0403 18:19:51.315127  6815 net.cpp:148] Top shape: 24 (24)
I0403 18:19:51.315142  6815 net.cpp:156] Memory required for data: 14450784
I0403 18:19:51.315168  6815 layer_factory.hpp:77] Creating layer label_data_1_split
I0403 18:19:51.315196  6815 net.cpp:91] Creating Layer label_data_1_split
I0403 18:19:51.315233  6815 net.cpp:425] label_data_1_split <- label
I0403 18:19:51.315280  6815 net.cpp:399] label_data_1_split -> label_data_1_split_0
I0403 18:19:51.315309  6815 net.cpp:399] label_data_1_split -> label_data_1_split_1
I0403 18:19:51.315330  6815 net.cpp:399] label_data_1_split -> label_data_1_split_2
I0403 18:19:51.315352  6815 net.cpp:399] label_data_1_split -> label_data_1_split_3
I0403 18:19:51.315372  6815 net.cpp:399] label_data_1_split -> label_data_1_split_4
I0403 18:19:51.315392  6815 net.cpp:399] label_data_1_split -> label_data_1_split_5
I0403 18:19:51.315412  6815 net.cpp:399] label_data_1_split -> label_data_1_split_6
I0403 18:19:51.315433  6815 net.cpp:399] label_data_1_split -> label_data_1_split_7
I0403 18:19:51.315455  6815 net.cpp:399] label_data_1_split -> label_data_1_split_8
I0403 18:19:51.315476  6815 net.cpp:399] label_data_1_split -> label_data_1_split_9
I0403 18:19:51.315605  6815 net.cpp:141] Setting up label_data_1_split
I0403 18:19:51.315629  6815 net.cpp:148] Top shape: 24 (24)
I0403 18:19:51.315649  6815 net.cpp:148] Top shape: 24 (24)
I0403 18:19:51.315665  6815 net.cpp:148] Top shape: 24 (24)
I0403 18:19:51.315681  6815 net.cpp:148] Top shape: 24 (24)
I0403 18:19:51.315697  6815 net.cpp:148] Top shape: 24 (24)
I0403 18:19:51.315713  6815 net.cpp:148] Top shape: 24 (24)
I0403 18:19:51.315729  6815 net.cpp:148] Top shape: 24 (24)
I0403 18:19:51.315745  6815 net.cpp:148] Top shape: 24 (24)
I0403 18:19:51.315762  6815 net.cpp:148] Top shape: 24 (24)
I0403 18:19:51.315778  6815 net.cpp:148] Top shape: 24 (24)
I0403 18:19:51.315824  6815 net.cpp:156] Memory required for data: 14451744
I0403 18:19:51.315841  6815 layer_factory.hpp:77] Creating layer conv1/7x7_s2
I0403 18:19:51.315874  6815 net.cpp:91] Creating Layer conv1/7x7_s2
I0403 18:19:51.315893  6815 net.cpp:425] conv1/7x7_s2 <- data
I0403 18:19:51.315914  6815 net.cpp:399] conv1/7x7_s2 -> conv1/7x7_s2
I0403 18:19:51.462663  6815 net.cpp:141] Setting up conv1/7x7_s2
I0403 18:19:51.462774  6815 net.cpp:148] Top shape: 24 64 112 112 (19267584)
I0403 18:19:51.462791  6815 net.cpp:156] Memory required for data: 91522080
I0403 18:19:51.462822  6815 layer_factory.hpp:77] Creating layer conv1/relu_7x7
I0403 18:19:51.462851  6815 net.cpp:91] Creating Layer conv1/relu_7x7
I0403 18:19:51.462870  6815 net.cpp:425] conv1/relu_7x7 <- conv1/7x7_s2
I0403 18:19:51.462888  6815 net.cpp:386] conv1/relu_7x7 -> conv1/7x7_s2 (in-place)
I0403 18:19:51.463155  6815 net.cpp:141] Setting up conv1/relu_7x7
I0403 18:19:51.463181  6815 net.cpp:148] Top shape: 24 64 112 112 (19267584)
I0403 18:19:51.463197  6815 net.cpp:156] Memory required for data: 168592416
I0403 18:19:51.463217  6815 layer_factory.hpp:77] Creating layer pool1/3x3_s2
I0403 18:19:51.463246  6815 net.cpp:91] Creating Layer pool1/3x3_s2
I0403 18:19:51.463264  6815 net.cpp:425] pool1/3x3_s2 <- conv1/7x7_s2
I0403 18:19:51.463284  6815 net.cpp:399] pool1/3x3_s2 -> pool1/3x3_s2
I0403 18:19:51.463357  6815 net.cpp:141] Setting up pool1/3x3_s2
I0403 18:19:51.463381  6815 net.cpp:148] Top shape: 24 64 56 56 (4816896)
I0403 18:19:51.463397  6815 net.cpp:156] Memory required for data: 187860000
I0403 18:19:51.463412  6815 layer_factory.hpp:77] Creating layer pool1/norm1
I0403 18:19:51.463438  6815 net.cpp:91] Creating Layer pool1/norm1
I0403 18:19:51.463455  6815 net.cpp:425] pool1/norm1 <- pool1/3x3_s2
I0403 18:19:51.463472  6815 net.cpp:399] pool1/norm1 -> pool1/norm1
I0403 18:19:51.463767  6815 net.cpp:141] Setting up pool1/norm1
I0403 18:19:51.463793  6815 net.cpp:148] Top shape: 24 64 56 56 (4816896)
I0403 18:19:51.463807  6815 net.cpp:156] Memory required for data: 207127584
I0403 18:19:51.463822  6815 layer_factory.hpp:77] Creating layer conv2/3x3_reduce
I0403 18:19:51.463850  6815 net.cpp:91] Creating Layer conv2/3x3_reduce
I0403 18:19:51.463870  6815 net.cpp:425] conv2/3x3_reduce <- pool1/norm1
I0403 18:19:51.463887  6815 net.cpp:399] conv2/3x3_reduce -> conv2/3x3_reduce
I0403 18:19:51.465291  6815 net.cpp:141] Setting up conv2/3x3_reduce
I0403 18:19:51.465319  6815 net.cpp:148] Top shape: 24 64 56 56 (4816896)
I0403 18:19:51.465335  6815 net.cpp:156] Memory required for data: 226395168
I0403 18:19:51.465355  6815 layer_factory.hpp:77] Creating layer conv2/relu_3x3_reduce
I0403 18:19:51.465374  6815 net.cpp:91] Creating Layer conv2/relu_3x3_reduce
I0403 18:19:51.465390  6815 net.cpp:425] conv2/relu_3x3_reduce <- conv2/3x3_reduce
I0403 18:19:51.465409  6815 net.cpp:386] conv2/relu_3x3_reduce -> conv2/3x3_reduce (in-place)
I0403 18:19:51.465669  6815 net.cpp:141] Setting up conv2/relu_3x3_reduce
I0403 18:19:51.465694  6815 net.cpp:148] Top shape: 24 64 56 56 (4816896)
I0403 18:19:51.465709  6815 net.cpp:156] Memory required for data: 245662752
I0403 18:19:51.465724  6815 layer_factory.hpp:77] Creating layer conv2/3x3
I0403 18:19:51.465747  6815 net.cpp:91] Creating Layer conv2/3x3
I0403 18:19:51.465764  6815 net.cpp:425] conv2/3x3 <- conv2/3x3_reduce
I0403 18:19:51.465786  6815 net.cpp:399] conv2/3x3 -> conv2/3x3
I0403 18:19:51.468041  6815 net.cpp:141] Setting up conv2/3x3
I0403 18:19:51.468070  6815 net.cpp:148] Top shape: 24 192 56 56 (14450688)
I0403 18:19:51.468086  6815 net.cpp:156] Memory required for data: 303465504
I0403 18:19:51.468106  6815 layer_factory.hpp:77] Creating layer conv2/relu_3x3
I0403 18:19:51.468128  6815 net.cpp:91] Creating Layer conv2/relu_3x3
I0403 18:19:51.468144  6815 net.cpp:425] conv2/relu_3x3 <- conv2/3x3
I0403 18:19:51.468161  6815 net.cpp:386] conv2/relu_3x3 -> conv2/3x3 (in-place)
I0403 18:19:51.468335  6815 net.cpp:141] Setting up conv2/relu_3x3
I0403 18:19:51.468360  6815 net.cpp:148] Top shape: 24 192 56 56 (14450688)
I0403 18:19:51.468406  6815 net.cpp:156] Memory required for data: 361268256
I0403 18:19:51.468422  6815 layer_factory.hpp:77] Creating layer conv2/norm2
I0403 18:19:51.468443  6815 net.cpp:91] Creating Layer conv2/norm2
I0403 18:19:51.468461  6815 net.cpp:425] conv2/norm2 <- conv2/3x3
I0403 18:19:51.468479  6815 net.cpp:399] conv2/norm2 -> conv2/norm2
I0403 18:19:51.468771  6815 net.cpp:141] Setting up conv2/norm2
I0403 18:19:51.468801  6815 net.cpp:148] Top shape: 24 192 56 56 (14450688)
I0403 18:19:51.468816  6815 net.cpp:156] Memory required for data: 419071008
I0403 18:19:51.468832  6815 layer_factory.hpp:77] Creating layer pool2/3x3_s2
I0403 18:19:51.468848  6815 net.cpp:91] Creating Layer pool2/3x3_s2
I0403 18:19:51.468864  6815 net.cpp:425] pool2/3x3_s2 <- conv2/norm2
I0403 18:19:51.468883  6815 net.cpp:399] pool2/3x3_s2 -> pool2/3x3_s2
I0403 18:19:51.468936  6815 net.cpp:141] Setting up pool2/3x3_s2
I0403 18:19:51.468960  6815 net.cpp:148] Top shape: 24 192 28 28 (3612672)
I0403 18:19:51.468974  6815 net.cpp:156] Memory required for data: 433521696
I0403 18:19:51.468988  6815 layer_factory.hpp:77] Creating layer pool2/3x3_s2_pool2/3x3_s2_0_split
I0403 18:19:51.469009  6815 net.cpp:91] Creating Layer pool2/3x3_s2_pool2/3x3_s2_0_split
I0403 18:19:51.469025  6815 net.cpp:425] pool2/3x3_s2_pool2/3x3_s2_0_split <- pool2/3x3_s2
I0403 18:19:51.469043  6815 net.cpp:399] pool2/3x3_s2_pool2/3x3_s2_0_split -> pool2/3x3_s2_pool2/3x3_s2_0_split_0
I0403 18:19:51.469063  6815 net.cpp:399] pool2/3x3_s2_pool2/3x3_s2_0_split -> pool2/3x3_s2_pool2/3x3_s2_0_split_1
I0403 18:19:51.469081  6815 net.cpp:399] pool2/3x3_s2_pool2/3x3_s2_0_split -> pool2/3x3_s2_pool2/3x3_s2_0_split_2
I0403 18:19:51.469104  6815 net.cpp:399] pool2/3x3_s2_pool2/3x3_s2_0_split -> pool2/3x3_s2_pool2/3x3_s2_0_split_3
I0403 18:19:51.469174  6815 net.cpp:141] Setting up pool2/3x3_s2_pool2/3x3_s2_0_split
I0403 18:19:51.469197  6815 net.cpp:148] Top shape: 24 192 28 28 (3612672)
I0403 18:19:51.469218  6815 net.cpp:148] Top shape: 24 192 28 28 (3612672)
I0403 18:19:51.469234  6815 net.cpp:148] Top shape: 24 192 28 28 (3612672)
I0403 18:19:51.469250  6815 net.cpp:148] Top shape: 24 192 28 28 (3612672)
I0403 18:19:51.469264  6815 net.cpp:156] Memory required for data: 491324448
I0403 18:19:51.469277  6815 layer_factory.hpp:77] Creating layer inception_3a/1x1
I0403 18:19:51.469305  6815 net.cpp:91] Creating Layer inception_3a/1x1
I0403 18:19:51.469321  6815 net.cpp:425] inception_3a/1x1 <- pool2/3x3_s2_pool2/3x3_s2_0_split_0
I0403 18:19:51.469341  6815 net.cpp:399] inception_3a/1x1 -> inception_3a/1x1
I0403 18:19:51.470880  6815 net.cpp:141] Setting up inception_3a/1x1
I0403 18:19:51.470907  6815 net.cpp:148] Top shape: 24 64 28 28 (1204224)
I0403 18:19:51.470923  6815 net.cpp:156] Memory required for data: 496141344
I0403 18:19:51.470942  6815 layer_factory.hpp:77] Creating layer inception_3a/relu_1x1
I0403 18:19:51.470958  6815 net.cpp:91] Creating Layer inception_3a/relu_1x1
I0403 18:19:51.470974  6815 net.cpp:425] inception_3a/relu_1x1 <- inception_3a/1x1
I0403 18:19:51.470994  6815 net.cpp:386] inception_3a/relu_1x1 -> inception_3a/1x1 (in-place)
I0403 18:19:51.471163  6815 net.cpp:141] Setting up inception_3a/relu_1x1
I0403 18:19:51.471187  6815 net.cpp:148] Top shape: 24 64 28 28 (1204224)
I0403 18:19:51.471204  6815 net.cpp:156] Memory required for data: 500958240
I0403 18:19:51.471225  6815 layer_factory.hpp:77] Creating layer inception_3a/3x3_reduce
I0403 18:19:51.471246  6815 net.cpp:91] Creating Layer inception_3a/3x3_reduce
I0403 18:19:51.471266  6815 net.cpp:425] inception_3a/3x3_reduce <- pool2/3x3_s2_pool2/3x3_s2_0_split_1
I0403 18:19:51.471287  6815 net.cpp:399] inception_3a/3x3_reduce -> inception_3a/3x3_reduce
I0403 18:19:51.472975  6815 net.cpp:141] Setting up inception_3a/3x3_reduce
I0403 18:19:51.473004  6815 net.cpp:148] Top shape: 24 96 28 28 (1806336)
I0403 18:19:51.473021  6815 net.cpp:156] Memory required for data: 508183584
I0403 18:19:51.473042  6815 layer_factory.hpp:77] Creating layer inception_3a/relu_3x3_reduce
I0403 18:19:51.473079  6815 net.cpp:91] Creating Layer inception_3a/relu_3x3_reduce
I0403 18:19:51.473098  6815 net.cpp:425] inception_3a/relu_3x3_reduce <- inception_3a/3x3_reduce
I0403 18:19:51.473115  6815 net.cpp:386] inception_3a/relu_3x3_reduce -> inception_3a/3x3_reduce (in-place)
I0403 18:19:51.473294  6815 net.cpp:141] Setting up inception_3a/relu_3x3_reduce
I0403 18:19:51.473321  6815 net.cpp:148] Top shape: 24 96 28 28 (1806336)
I0403 18:19:51.473337  6815 net.cpp:156] Memory required for data: 515408928
I0403 18:19:51.473352  6815 layer_factory.hpp:77] Creating layer inception_3a/3x3
I0403 18:19:51.473376  6815 net.cpp:91] Creating Layer inception_3a/3x3
I0403 18:19:51.473393  6815 net.cpp:425] inception_3a/3x3 <- inception_3a/3x3_reduce
I0403 18:19:51.473413  6815 net.cpp:399] inception_3a/3x3 -> inception_3a/3x3
I0403 18:19:51.475004  6815 net.cpp:141] Setting up inception_3a/3x3
I0403 18:19:51.475031  6815 net.cpp:148] Top shape: 24 128 28 28 (2408448)
I0403 18:19:51.475045  6815 net.cpp:156] Memory required for data: 525042720
I0403 18:19:51.475062  6815 layer_factory.hpp:77] Creating layer inception_3a/relu_3x3
I0403 18:19:51.475085  6815 net.cpp:91] Creating Layer inception_3a/relu_3x3
I0403 18:19:51.475101  6815 net.cpp:425] inception_3a/relu_3x3 <- inception_3a/3x3
I0403 18:19:51.475118  6815 net.cpp:386] inception_3a/relu_3x3 -> inception_3a/3x3 (in-place)
I0403 18:19:51.475389  6815 net.cpp:141] Setting up inception_3a/relu_3x3
I0403 18:19:51.475415  6815 net.cpp:148] Top shape: 24 128 28 28 (2408448)
I0403 18:19:51.475430  6815 net.cpp:156] Memory required for data: 534676512
I0403 18:19:51.475443  6815 layer_factory.hpp:77] Creating layer inception_3a/5x5_reduce
I0403 18:19:51.475466  6815 net.cpp:91] Creating Layer inception_3a/5x5_reduce
I0403 18:19:51.475484  6815 net.cpp:425] inception_3a/5x5_reduce <- pool2/3x3_s2_pool2/3x3_s2_0_split_2
I0403 18:19:51.475505  6815 net.cpp:399] inception_3a/5x5_reduce -> inception_3a/5x5_reduce
I0403 18:19:51.476444  6815 net.cpp:141] Setting up inception_3a/5x5_reduce
I0403 18:19:51.476471  6815 net.cpp:148] Top shape: 24 16 28 28 (301056)
I0403 18:19:51.476487  6815 net.cpp:156] Memory required for data: 535880736
I0403 18:19:51.476505  6815 layer_factory.hpp:77] Creating layer inception_3a/relu_5x5_reduce
I0403 18:19:51.476526  6815 net.cpp:91] Creating Layer inception_3a/relu_5x5_reduce
I0403 18:19:51.476542  6815 net.cpp:425] inception_3a/relu_5x5_reduce <- inception_3a/5x5_reduce
I0403 18:19:51.476559  6815 net.cpp:386] inception_3a/relu_5x5_reduce -> inception_3a/5x5_reduce (in-place)
I0403 18:19:51.476835  6815 net.cpp:141] Setting up inception_3a/relu_5x5_reduce
I0403 18:19:51.476861  6815 net.cpp:148] Top shape: 24 16 28 28 (301056)
I0403 18:19:51.476876  6815 net.cpp:156] Memory required for data: 537084960
I0403 18:19:51.476891  6815 layer_factory.hpp:77] Creating layer inception_3a/5x5
I0403 18:19:51.476913  6815 net.cpp:91] Creating Layer inception_3a/5x5
I0403 18:19:51.476930  6815 net.cpp:425] inception_3a/5x5 <- inception_3a/5x5_reduce
I0403 18:19:51.476948  6815 net.cpp:399] inception_3a/5x5 -> inception_3a/5x5
I0403 18:19:51.477932  6815 net.cpp:141] Setting up inception_3a/5x5
I0403 18:19:51.477958  6815 net.cpp:148] Top shape: 24 32 28 28 (602112)
I0403 18:19:51.477974  6815 net.cpp:156] Memory required for data: 539493408
I0403 18:19:51.477991  6815 layer_factory.hpp:77] Creating layer inception_3a/relu_5x5
I0403 18:19:51.478009  6815 net.cpp:91] Creating Layer inception_3a/relu_5x5
I0403 18:19:51.478024  6815 net.cpp:425] inception_3a/relu_5x5 <- inception_3a/5x5
I0403 18:19:51.478044  6815 net.cpp:386] inception_3a/relu_5x5 -> inception_3a/5x5 (in-place)
I0403 18:19:51.478217  6815 net.cpp:141] Setting up inception_3a/relu_5x5
I0403 18:19:51.478242  6815 net.cpp:148] Top shape: 24 32 28 28 (602112)
I0403 18:19:51.478256  6815 net.cpp:156] Memory required for data: 541901856
I0403 18:19:51.478271  6815 layer_factory.hpp:77] Creating layer inception_3a/pool
I0403 18:19:51.478291  6815 net.cpp:91] Creating Layer inception_3a/pool
I0403 18:19:51.478320  6815 net.cpp:425] inception_3a/pool <- pool2/3x3_s2_pool2/3x3_s2_0_split_3
I0403 18:19:51.478339  6815 net.cpp:399] inception_3a/pool -> inception_3a/pool
I0403 18:19:51.478395  6815 net.cpp:141] Setting up inception_3a/pool
I0403 18:19:51.478418  6815 net.cpp:148] Top shape: 24 192 28 28 (3612672)
I0403 18:19:51.478432  6815 net.cpp:156] Memory required for data: 556352544
I0403 18:19:51.478446  6815 layer_factory.hpp:77] Creating layer inception_3a/pool_proj
I0403 18:19:51.478468  6815 net.cpp:91] Creating Layer inception_3a/pool_proj
I0403 18:19:51.478487  6815 net.cpp:425] inception_3a/pool_proj <- inception_3a/pool
I0403 18:19:51.478507  6815 net.cpp:399] inception_3a/pool_proj -> inception_3a/pool_proj
I0403 18:19:51.479445  6815 net.cpp:141] Setting up inception_3a/pool_proj
I0403 18:19:51.479475  6815 net.cpp:148] Top shape: 24 32 28 28 (602112)
I0403 18:19:51.479491  6815 net.cpp:156] Memory required for data: 558760992
I0403 18:19:51.479514  6815 layer_factory.hpp:77] Creating layer inception_3a/relu_pool_proj
I0403 18:19:51.479534  6815 net.cpp:91] Creating Layer inception_3a/relu_pool_proj
I0403 18:19:51.479550  6815 net.cpp:425] inception_3a/relu_pool_proj <- inception_3a/pool_proj
I0403 18:19:51.479568  6815 net.cpp:386] inception_3a/relu_pool_proj -> inception_3a/pool_proj (in-place)
I0403 18:19:51.479831  6815 net.cpp:141] Setting up inception_3a/relu_pool_proj
I0403 18:19:51.479856  6815 net.cpp:148] Top shape: 24 32 28 28 (602112)
I0403 18:19:51.479871  6815 net.cpp:156] Memory required for data: 561169440
I0403 18:19:51.479885  6815 layer_factory.hpp:77] Creating layer inception_3a/output
I0403 18:19:51.479903  6815 net.cpp:91] Creating Layer inception_3a/output
I0403 18:19:51.479919  6815 net.cpp:425] inception_3a/output <- inception_3a/1x1
I0403 18:19:51.479935  6815 net.cpp:425] inception_3a/output <- inception_3a/3x3
I0403 18:19:51.479950  6815 net.cpp:425] inception_3a/output <- inception_3a/5x5
I0403 18:19:51.479967  6815 net.cpp:425] inception_3a/output <- inception_3a/pool_proj
I0403 18:19:51.479986  6815 net.cpp:399] inception_3a/output -> inception_3a/output
I0403 18:19:51.480031  6815 net.cpp:141] Setting up inception_3a/output
I0403 18:19:51.480057  6815 net.cpp:148] Top shape: 24 256 28 28 (4816896)
I0403 18:19:51.480072  6815 net.cpp:156] Memory required for data: 580437024
I0403 18:19:51.480085  6815 layer_factory.hpp:77] Creating layer inception_3a/output_inception_3a/output_0_split
I0403 18:19:51.480101  6815 net.cpp:91] Creating Layer inception_3a/output_inception_3a/output_0_split
I0403 18:19:51.480118  6815 net.cpp:425] inception_3a/output_inception_3a/output_0_split <- inception_3a/output
I0403 18:19:51.480137  6815 net.cpp:399] inception_3a/output_inception_3a/output_0_split -> inception_3a/output_inception_3a/output_0_split_0
I0403 18:19:51.480159  6815 net.cpp:399] inception_3a/output_inception_3a/output_0_split -> inception_3a/output_inception_3a/output_0_split_1
I0403 18:19:51.480181  6815 net.cpp:399] inception_3a/output_inception_3a/output_0_split -> inception_3a/output_inception_3a/output_0_split_2
I0403 18:19:51.480202  6815 net.cpp:399] inception_3a/output_inception_3a/output_0_split -> inception_3a/output_inception_3a/output_0_split_3
I0403 18:19:51.480283  6815 net.cpp:141] Setting up inception_3a/output_inception_3a/output_0_split
I0403 18:19:51.480307  6815 net.cpp:148] Top shape: 24 256 28 28 (4816896)
I0403 18:19:51.480324  6815 net.cpp:148] Top shape: 24 256 28 28 (4816896)
I0403 18:19:51.480340  6815 net.cpp:148] Top shape: 24 256 28 28 (4816896)
I0403 18:19:51.480355  6815 net.cpp:148] Top shape: 24 256 28 28 (4816896)
I0403 18:19:51.480367  6815 net.cpp:156] Memory required for data: 657507360
I0403 18:19:51.480381  6815 layer_factory.hpp:77] Creating layer inception_3b/1x1
I0403 18:19:51.480404  6815 net.cpp:91] Creating Layer inception_3b/1x1
I0403 18:19:51.480420  6815 net.cpp:425] inception_3b/1x1 <- inception_3a/output_inception_3a/output_0_split_0
I0403 18:19:51.480440  6815 net.cpp:399] inception_3b/1x1 -> inception_3b/1x1
I0403 18:19:51.481535  6815 net.cpp:141] Setting up inception_3b/1x1
I0403 18:19:51.481576  6815 net.cpp:148] Top shape: 24 128 28 28 (2408448)
I0403 18:19:51.481592  6815 net.cpp:156] Memory required for data: 667141152
I0403 18:19:51.481611  6815 layer_factory.hpp:77] Creating layer inception_3b/relu_1x1
I0403 18:19:51.481629  6815 net.cpp:91] Creating Layer inception_3b/relu_1x1
I0403 18:19:51.481645  6815 net.cpp:425] inception_3b/relu_1x1 <- inception_3b/1x1
I0403 18:19:51.481667  6815 net.cpp:386] inception_3b/relu_1x1 -> inception_3b/1x1 (in-place)
I0403 18:19:51.481837  6815 net.cpp:141] Setting up inception_3b/relu_1x1
I0403 18:19:51.481863  6815 net.cpp:148] Top shape: 24 128 28 28 (2408448)
I0403 18:19:51.481878  6815 net.cpp:156] Memory required for data: 676774944
I0403 18:19:51.481891  6815 layer_factory.hpp:77] Creating layer inception_3b/3x3_reduce
I0403 18:19:51.481914  6815 net.cpp:91] Creating Layer inception_3b/3x3_reduce
I0403 18:19:51.481930  6815 net.cpp:425] inception_3b/3x3_reduce <- inception_3a/output_inception_3a/output_0_split_1
I0403 18:19:51.481957  6815 net.cpp:399] inception_3b/3x3_reduce -> inception_3b/3x3_reduce
I0403 18:19:51.483106  6815 net.cpp:141] Setting up inception_3b/3x3_reduce
I0403 18:19:51.483134  6815 net.cpp:148] Top shape: 24 128 28 28 (2408448)
I0403 18:19:51.483150  6815 net.cpp:156] Memory required for data: 686408736
I0403 18:19:51.483170  6815 layer_factory.hpp:77] Creating layer inception_3b/relu_3x3_reduce
I0403 18:19:51.483189  6815 net.cpp:91] Creating Layer inception_3b/relu_3x3_reduce
I0403 18:19:51.483204  6815 net.cpp:425] inception_3b/relu_3x3_reduce <- inception_3b/3x3_reduce
I0403 18:19:51.483232  6815 net.cpp:386] inception_3b/relu_3x3_reduce -> inception_3b/3x3_reduce (in-place)
I0403 18:19:51.483407  6815 net.cpp:141] Setting up inception_3b/relu_3x3_reduce
I0403 18:19:51.483433  6815 net.cpp:148] Top shape: 24 128 28 28 (2408448)
I0403 18:19:51.483448  6815 net.cpp:156] Memory required for data: 696042528
I0403 18:19:51.483464  6815 layer_factory.hpp:77] Creating layer inception_3b/3x3
I0403 18:19:51.483491  6815 net.cpp:91] Creating Layer inception_3b/3x3
I0403 18:19:51.483512  6815 net.cpp:425] inception_3b/3x3 <- inception_3b/3x3_reduce
I0403 18:19:51.483533  6815 net.cpp:399] inception_3b/3x3 -> inception_3b/3x3
I0403 18:19:51.486594  6815 net.cpp:141] Setting up inception_3b/3x3
I0403 18:19:51.486625  6815 net.cpp:148] Top shape: 24 192 28 28 (3612672)
I0403 18:19:51.486642  6815 net.cpp:156] Memory required for data: 710493216
I0403 18:19:51.486662  6815 layer_factory.hpp:77] Creating layer inception_3b/relu_3x3
I0403 18:19:51.486685  6815 net.cpp:91] Creating Layer inception_3b/relu_3x3
I0403 18:19:51.486701  6815 net.cpp:425] inception_3b/relu_3x3 <- inception_3b/3x3
I0403 18:19:51.486721  6815 net.cpp:386] inception_3b/relu_3x3 -> inception_3b/3x3 (in-place)
I0403 18:19:51.487011  6815 net.cpp:141] Setting up inception_3b/relu_3x3
I0403 18:19:51.487040  6815 net.cpp:148] Top shape: 24 192 28 28 (3612672)
I0403 18:19:51.487056  6815 net.cpp:156] Memory required for data: 724943904
I0403 18:19:51.487072  6815 layer_factory.hpp:77] Creating layer inception_3b/5x5_reduce
I0403 18:19:51.487097  6815 net.cpp:91] Creating Layer inception_3b/5x5_reduce
I0403 18:19:51.487118  6815 net.cpp:425] inception_3b/5x5_reduce <- inception_3a/output_inception_3a/output_0_split_2
I0403 18:19:51.487140  6815 net.cpp:399] inception_3b/5x5_reduce -> inception_3b/5x5_reduce
I0403 18:19:51.488162  6815 net.cpp:141] Setting up inception_3b/5x5_reduce
I0403 18:19:51.488191  6815 net.cpp:148] Top shape: 24 32 28 28 (602112)
I0403 18:19:51.488206  6815 net.cpp:156] Memory required for data: 727352352
I0403 18:19:51.488231  6815 layer_factory.hpp:77] Creating layer inception_3b/relu_5x5_reduce
I0403 18:19:51.488251  6815 net.cpp:91] Creating Layer inception_3b/relu_5x5_reduce
I0403 18:19:51.488267  6815 net.cpp:425] inception_3b/relu_5x5_reduce <- inception_3b/5x5_reduce
I0403 18:19:51.488288  6815 net.cpp:386] inception_3b/relu_5x5_reduce -> inception_3b/5x5_reduce (in-place)
I0403 18:19:51.488487  6815 net.cpp:141] Setting up inception_3b/relu_5x5_reduce
I0403 18:19:51.488513  6815 net.cpp:148] Top shape: 24 32 28 28 (602112)
I0403 18:19:51.488528  6815 net.cpp:156] Memory required for data: 729760800
I0403 18:19:51.488543  6815 layer_factory.hpp:77] Creating layer inception_3b/5x5
I0403 18:19:51.488566  6815 net.cpp:91] Creating Layer inception_3b/5x5
I0403 18:19:51.488584  6815 net.cpp:425] inception_3b/5x5 <- inception_3b/5x5_reduce
I0403 18:19:51.488607  6815 net.cpp:399] inception_3b/5x5 -> inception_3b/5x5
I0403 18:19:51.490680  6815 net.cpp:141] Setting up inception_3b/5x5
I0403 18:19:51.490713  6815 net.cpp:148] Top shape: 24 96 28 28 (1806336)
I0403 18:19:51.490730  6815 net.cpp:156] Memory required for data: 736986144
I0403 18:19:51.490748  6815 layer_factory.hpp:77] Creating layer inception_3b/relu_5x5
I0403 18:19:51.490767  6815 net.cpp:91] Creating Layer inception_3b/relu_5x5
I0403 18:19:51.490782  6815 net.cpp:425] inception_3b/relu_5x5 <- inception_3b/5x5
I0403 18:19:51.490804  6815 net.cpp:386] inception_3b/relu_5x5 -> inception_3b/5x5 (in-place)
I0403 18:19:51.491006  6815 net.cpp:141] Setting up inception_3b/relu_5x5
I0403 18:19:51.491032  6815 net.cpp:148] Top shape: 24 96 28 28 (1806336)
I0403 18:19:51.491047  6815 net.cpp:156] Memory required for data: 744211488
I0403 18:19:51.491062  6815 layer_factory.hpp:77] Creating layer inception_3b/pool
I0403 18:19:51.491080  6815 net.cpp:91] Creating Layer inception_3b/pool
I0403 18:19:51.491097  6815 net.cpp:425] inception_3b/pool <- inception_3a/output_inception_3a/output_0_split_3
I0403 18:19:51.491117  6815 net.cpp:399] inception_3b/pool -> inception_3b/pool
I0403 18:19:51.491176  6815 net.cpp:141] Setting up inception_3b/pool
I0403 18:19:51.491200  6815 net.cpp:148] Top shape: 24 256 28 28 (4816896)
I0403 18:19:51.491221  6815 net.cpp:156] Memory required for data: 763479072
I0403 18:19:51.491237  6815 layer_factory.hpp:77] Creating layer inception_3b/pool_proj
I0403 18:19:51.491261  6815 net.cpp:91] Creating Layer inception_3b/pool_proj
I0403 18:19:51.491279  6815 net.cpp:425] inception_3b/pool_proj <- inception_3b/pool
I0403 18:19:51.491302  6815 net.cpp:399] inception_3b/pool_proj -> inception_3b/pool_proj
I0403 18:19:51.492393  6815 net.cpp:141] Setting up inception_3b/pool_proj
I0403 18:19:51.492420  6815 net.cpp:148] Top shape: 24 64 28 28 (1204224)
I0403 18:19:51.492436  6815 net.cpp:156] Memory required for data: 768295968
I0403 18:19:51.492455  6815 layer_factory.hpp:77] Creating layer inception_3b/relu_pool_proj
I0403 18:19:51.492478  6815 net.cpp:91] Creating Layer inception_3b/relu_pool_proj
I0403 18:19:51.492496  6815 net.cpp:425] inception_3b/relu_pool_proj <- inception_3b/pool_proj
I0403 18:19:51.492513  6815 net.cpp:386] inception_3b/relu_pool_proj -> inception_3b/pool_proj (in-place)
I0403 18:19:51.492907  6815 net.cpp:141] Setting up inception_3b/relu_pool_proj
I0403 18:19:51.492933  6815 net.cpp:148] Top shape: 24 64 28 28 (1204224)
I0403 18:19:51.492949  6815 net.cpp:156] Memory required for data: 773112864
I0403 18:19:51.492964  6815 layer_factory.hpp:77] Creating layer inception_3b/output
I0403 18:19:51.492991  6815 net.cpp:91] Creating Layer inception_3b/output
I0403 18:19:51.493010  6815 net.cpp:425] inception_3b/output <- inception_3b/1x1
I0403 18:19:51.493028  6815 net.cpp:425] inception_3b/output <- inception_3b/3x3
I0403 18:19:51.493044  6815 net.cpp:425] inception_3b/output <- inception_3b/5x5
I0403 18:19:51.493062  6815 net.cpp:425] inception_3b/output <- inception_3b/pool_proj
I0403 18:19:51.493078  6815 net.cpp:399] inception_3b/output -> inception_3b/output
I0403 18:19:51.493125  6815 net.cpp:141] Setting up inception_3b/output
I0403 18:19:51.493149  6815 net.cpp:148] Top shape: 24 480 28 28 (9031680)
I0403 18:19:51.493165  6815 net.cpp:156] Memory required for data: 809239584
I0403 18:19:51.493180  6815 layer_factory.hpp:77] Creating layer pool3/3x3_s2
I0403 18:19:51.493197  6815 net.cpp:91] Creating Layer pool3/3x3_s2
I0403 18:19:51.493221  6815 net.cpp:425] pool3/3x3_s2 <- inception_3b/output
I0403 18:19:51.493259  6815 net.cpp:399] pool3/3x3_s2 -> pool3/3x3_s2
I0403 18:19:51.493321  6815 net.cpp:141] Setting up pool3/3x3_s2
I0403 18:19:51.493345  6815 net.cpp:148] Top shape: 24 480 14 14 (2257920)
I0403 18:19:51.493361  6815 net.cpp:156] Memory required for data: 818271264
I0403 18:19:51.493376  6815 layer_factory.hpp:77] Creating layer pool3/3x3_s2_pool3/3x3_s2_0_split
I0403 18:19:51.493396  6815 net.cpp:91] Creating Layer pool3/3x3_s2_pool3/3x3_s2_0_split
I0403 18:19:51.493413  6815 net.cpp:425] pool3/3x3_s2_pool3/3x3_s2_0_split <- pool3/3x3_s2
I0403 18:19:51.493434  6815 net.cpp:399] pool3/3x3_s2_pool3/3x3_s2_0_split -> pool3/3x3_s2_pool3/3x3_s2_0_split_0
I0403 18:19:51.493455  6815 net.cpp:399] pool3/3x3_s2_pool3/3x3_s2_0_split -> pool3/3x3_s2_pool3/3x3_s2_0_split_1
I0403 18:19:51.493476  6815 net.cpp:399] pool3/3x3_s2_pool3/3x3_s2_0_split -> pool3/3x3_s2_pool3/3x3_s2_0_split_2
I0403 18:19:51.493496  6815 net.cpp:399] pool3/3x3_s2_pool3/3x3_s2_0_split -> pool3/3x3_s2_pool3/3x3_s2_0_split_3
I0403 18:19:51.493573  6815 net.cpp:141] Setting up pool3/3x3_s2_pool3/3x3_s2_0_split
I0403 18:19:51.493597  6815 net.cpp:148] Top shape: 24 480 14 14 (2257920)
I0403 18:19:51.493613  6815 net.cpp:148] Top shape: 24 480 14 14 (2257920)
I0403 18:19:51.493630  6815 net.cpp:148] Top shape: 24 480 14 14 (2257920)
I0403 18:19:51.493646  6815 net.cpp:148] Top shape: 24 480 14 14 (2257920)
I0403 18:19:51.493660  6815 net.cpp:156] Memory required for data: 854397984
I0403 18:19:51.493675  6815 layer_factory.hpp:77] Creating layer inception_4a/1x1
I0403 18:19:51.493698  6815 net.cpp:91] Creating Layer inception_4a/1x1
I0403 18:19:51.493716  6815 net.cpp:425] inception_4a/1x1 <- pool3/3x3_s2_pool3/3x3_s2_0_split_0
I0403 18:19:51.493739  6815 net.cpp:399] inception_4a/1x1 -> inception_4a/1x1
I0403 18:19:51.495347  6815 net.cpp:141] Setting up inception_4a/1x1
I0403 18:19:51.495378  6815 net.cpp:148] Top shape: 24 192 14 14 (903168)
I0403 18:19:51.495395  6815 net.cpp:156] Memory required for data: 858010656
I0403 18:19:51.495415  6815 layer_factory.hpp:77] Creating layer inception_4a/relu_1x1
I0403 18:19:51.495434  6815 net.cpp:91] Creating Layer inception_4a/relu_1x1
I0403 18:19:51.495450  6815 net.cpp:425] inception_4a/relu_1x1 <- inception_4a/1x1
I0403 18:19:51.495468  6815 net.cpp:386] inception_4a/relu_1x1 -> inception_4a/1x1 (in-place)
I0403 18:19:51.495652  6815 net.cpp:141] Setting up inception_4a/relu_1x1
I0403 18:19:51.495678  6815 net.cpp:148] Top shape: 24 192 14 14 (903168)
I0403 18:19:51.495694  6815 net.cpp:156] Memory required for data: 861623328
I0403 18:19:51.495709  6815 layer_factory.hpp:77] Creating layer inception_4a/3x3_reduce
I0403 18:19:51.495733  6815 net.cpp:91] Creating Layer inception_4a/3x3_reduce
I0403 18:19:51.495751  6815 net.cpp:425] inception_4a/3x3_reduce <- pool3/3x3_s2_pool3/3x3_s2_0_split_1
I0403 18:19:51.495774  6815 net.cpp:399] inception_4a/3x3_reduce -> inception_4a/3x3_reduce
I0403 18:19:51.497077  6815 net.cpp:141] Setting up inception_4a/3x3_reduce
I0403 18:19:51.497105  6815 net.cpp:148] Top shape: 24 96 14 14 (451584)
I0403 18:19:51.497123  6815 net.cpp:156] Memory required for data: 863429664
I0403 18:19:51.497151  6815 layer_factory.hpp:77] Creating layer inception_4a/relu_3x3_reduce
I0403 18:19:51.497174  6815 net.cpp:91] Creating Layer inception_4a/relu_3x3_reduce
I0403 18:19:51.497189  6815 net.cpp:425] inception_4a/relu_3x3_reduce <- inception_4a/3x3_reduce
I0403 18:19:51.497207  6815 net.cpp:386] inception_4a/relu_3x3_reduce -> inception_4a/3x3_reduce (in-place)
I0403 18:19:51.497398  6815 net.cpp:141] Setting up inception_4a/relu_3x3_reduce
I0403 18:19:51.497426  6815 net.cpp:148] Top shape: 24 96 14 14 (451584)
I0403 18:19:51.497442  6815 net.cpp:156] Memory required for data: 865236000
I0403 18:19:51.497459  6815 layer_factory.hpp:77] Creating layer inception_4a/3x3
I0403 18:19:51.497483  6815 net.cpp:91] Creating Layer inception_4a/3x3
I0403 18:19:51.497500  6815 net.cpp:425] inception_4a/3x3 <- inception_4a/3x3_reduce
I0403 18:19:51.497521  6815 net.cpp:399] inception_4a/3x3 -> inception_4a/3x3
I0403 18:19:51.500320  6815 net.cpp:141] Setting up inception_4a/3x3
I0403 18:19:51.500351  6815 net.cpp:148] Top shape: 24 208 14 14 (978432)
I0403 18:19:51.500367  6815 net.cpp:156] Memory required for data: 869149728
I0403 18:19:51.500386  6815 layer_factory.hpp:77] Creating layer inception_4a/relu_3x3
I0403 18:19:51.500406  6815 net.cpp:91] Creating Layer inception_4a/relu_3x3
I0403 18:19:51.500422  6815 net.cpp:425] inception_4a/relu_3x3 <- inception_4a/3x3
I0403 18:19:51.500455  6815 net.cpp:386] inception_4a/relu_3x3 -> inception_4a/3x3 (in-place)
I0403 18:19:51.500756  6815 net.cpp:141] Setting up inception_4a/relu_3x3
I0403 18:19:51.500783  6815 net.cpp:148] Top shape: 24 208 14 14 (978432)
I0403 18:19:51.500810  6815 net.cpp:156] Memory required for data: 873063456
I0403 18:19:51.500825  6815 layer_factory.hpp:77] Creating layer inception_4a/5x5_reduce
I0403 18:19:51.500849  6815 net.cpp:91] Creating Layer inception_4a/5x5_reduce
I0403 18:19:51.500866  6815 net.cpp:425] inception_4a/5x5_reduce <- pool3/3x3_s2_pool3/3x3_s2_0_split_2
I0403 18:19:51.500890  6815 net.cpp:399] inception_4a/5x5_reduce -> inception_4a/5x5_reduce
I0403 18:19:51.501911  6815 net.cpp:141] Setting up inception_4a/5x5_reduce
I0403 18:19:51.501940  6815 net.cpp:148] Top shape: 24 16 14 14 (75264)
I0403 18:19:51.501955  6815 net.cpp:156] Memory required for data: 873364512
I0403 18:19:51.501973  6815 layer_factory.hpp:77] Creating layer inception_4a/relu_5x5_reduce
I0403 18:19:51.501991  6815 net.cpp:91] Creating Layer inception_4a/relu_5x5_reduce
I0403 18:19:51.502008  6815 net.cpp:425] inception_4a/relu_5x5_reduce <- inception_4a/5x5_reduce
I0403 18:19:51.502029  6815 net.cpp:386] inception_4a/relu_5x5_reduce -> inception_4a/5x5_reduce (in-place)
I0403 18:19:51.502207  6815 net.cpp:141] Setting up inception_4a/relu_5x5_reduce
I0403 18:19:51.502243  6815 net.cpp:148] Top shape: 24 16 14 14 (75264)
I0403 18:19:51.502257  6815 net.cpp:156] Memory required for data: 873665568
I0403 18:19:51.502272  6815 layer_factory.hpp:77] Creating layer inception_4a/5x5
I0403 18:19:51.502295  6815 net.cpp:91] Creating Layer inception_4a/5x5
I0403 18:19:51.502315  6815 net.cpp:425] inception_4a/5x5 <- inception_4a/5x5_reduce
I0403 18:19:51.502336  6815 net.cpp:399] inception_4a/5x5 -> inception_4a/5x5
I0403 18:19:51.503432  6815 net.cpp:141] Setting up inception_4a/5x5
I0403 18:19:51.503458  6815 net.cpp:148] Top shape: 24 48 14 14 (225792)
I0403 18:19:51.503474  6815 net.cpp:156] Memory required for data: 874568736
I0403 18:19:51.503494  6815 layer_factory.hpp:77] Creating layer inception_4a/relu_5x5
I0403 18:19:51.503515  6815 net.cpp:91] Creating Layer inception_4a/relu_5x5
I0403 18:19:51.503531  6815 net.cpp:425] inception_4a/relu_5x5 <- inception_4a/5x5
I0403 18:19:51.503550  6815 net.cpp:386] inception_4a/relu_5x5 -> inception_4a/5x5 (in-place)
I0403 18:19:51.503726  6815 net.cpp:141] Setting up inception_4a/relu_5x5
I0403 18:19:51.503754  6815 net.cpp:148] Top shape: 24 48 14 14 (225792)
I0403 18:19:51.503769  6815 net.cpp:156] Memory required for data: 875471904
I0403 18:19:51.503784  6815 layer_factory.hpp:77] Creating layer inception_4a/pool
I0403 18:19:51.503803  6815 net.cpp:91] Creating Layer inception_4a/pool
I0403 18:19:51.503818  6815 net.cpp:425] inception_4a/pool <- pool3/3x3_s2_pool3/3x3_s2_0_split_3
I0403 18:19:51.503839  6815 net.cpp:399] inception_4a/pool -> inception_4a/pool
I0403 18:19:51.503900  6815 net.cpp:141] Setting up inception_4a/pool
I0403 18:19:51.503922  6815 net.cpp:148] Top shape: 24 480 14 14 (2257920)
I0403 18:19:51.503937  6815 net.cpp:156] Memory required for data: 884503584
I0403 18:19:51.503952  6815 layer_factory.hpp:77] Creating layer inception_4a/pool_proj
I0403 18:19:51.503974  6815 net.cpp:91] Creating Layer inception_4a/pool_proj
I0403 18:19:51.503991  6815 net.cpp:425] inception_4a/pool_proj <- inception_4a/pool
I0403 18:19:51.504012  6815 net.cpp:399] inception_4a/pool_proj -> inception_4a/pool_proj
I0403 18:19:51.505177  6815 net.cpp:141] Setting up inception_4a/pool_proj
I0403 18:19:51.505208  6815 net.cpp:148] Top shape: 24 64 14 14 (301056)
I0403 18:19:51.505242  6815 net.cpp:156] Memory required for data: 885707808
I0403 18:19:51.505262  6815 layer_factory.hpp:77] Creating layer inception_4a/relu_pool_proj
I0403 18:19:51.505290  6815 net.cpp:91] Creating Layer inception_4a/relu_pool_proj
I0403 18:19:51.505307  6815 net.cpp:425] inception_4a/relu_pool_proj <- inception_4a/pool_proj
I0403 18:19:51.505326  6815 net.cpp:386] inception_4a/relu_pool_proj -> inception_4a/pool_proj (in-place)
I0403 18:19:51.505602  6815 net.cpp:141] Setting up inception_4a/relu_pool_proj
I0403 18:19:51.505628  6815 net.cpp:148] Top shape: 24 64 14 14 (301056)
I0403 18:19:51.505643  6815 net.cpp:156] Memory required for data: 886912032
I0403 18:19:51.505659  6815 layer_factory.hpp:77] Creating layer inception_4a/output
I0403 18:19:51.505678  6815 net.cpp:91] Creating Layer inception_4a/output
I0403 18:19:51.505695  6815 net.cpp:425] inception_4a/output <- inception_4a/1x1
I0403 18:19:51.505712  6815 net.cpp:425] inception_4a/output <- inception_4a/3x3
I0403 18:19:51.505728  6815 net.cpp:425] inception_4a/output <- inception_4a/5x5
I0403 18:19:51.505744  6815 net.cpp:425] inception_4a/output <- inception_4a/pool_proj
I0403 18:19:51.505762  6815 net.cpp:399] inception_4a/output -> inception_4a/output
I0403 18:19:51.505808  6815 net.cpp:141] Setting up inception_4a/output
I0403 18:19:51.505831  6815 net.cpp:148] Top shape: 24 512 14 14 (2408448)
I0403 18:19:51.505846  6815 net.cpp:156] Memory required for data: 896545824
I0403 18:19:51.505861  6815 layer_factory.hpp:77] Creating layer inception_4a/output_inception_4a/output_0_split
I0403 18:19:51.505878  6815 net.cpp:91] Creating Layer inception_4a/output_inception_4a/output_0_split
I0403 18:19:51.505893  6815 net.cpp:425] inception_4a/output_inception_4a/output_0_split <- inception_4a/output
I0403 18:19:51.505913  6815 net.cpp:399] inception_4a/output_inception_4a/output_0_split -> inception_4a/output_inception_4a/output_0_split_0
I0403 18:19:51.505935  6815 net.cpp:399] inception_4a/output_inception_4a/output_0_split -> inception_4a/output_inception_4a/output_0_split_1
I0403 18:19:51.505955  6815 net.cpp:399] inception_4a/output_inception_4a/output_0_split -> inception_4a/output_inception_4a/output_0_split_2
I0403 18:19:51.505980  6815 net.cpp:399] inception_4a/output_inception_4a/output_0_split -> inception_4a/output_inception_4a/output_0_split_3
I0403 18:19:51.506000  6815 net.cpp:399] inception_4a/output_inception_4a/output_0_split -> inception_4a/output_inception_4a/output_0_split_4
I0403 18:19:51.506093  6815 net.cpp:141] Setting up inception_4a/output_inception_4a/output_0_split
I0403 18:19:51.506117  6815 net.cpp:148] Top shape: 24 512 14 14 (2408448)
I0403 18:19:51.506135  6815 net.cpp:148] Top shape: 24 512 14 14 (2408448)
I0403 18:19:51.506150  6815 net.cpp:148] Top shape: 24 512 14 14 (2408448)
I0403 18:19:51.506165  6815 net.cpp:148] Top shape: 24 512 14 14 (2408448)
I0403 18:19:51.506181  6815 net.cpp:148] Top shape: 24 512 14 14 (2408448)
I0403 18:19:51.506196  6815 net.cpp:156] Memory required for data: 944714784
I0403 18:19:51.506216  6815 layer_factory.hpp:77] Creating layer loss1/ave_pool
I0403 18:19:51.506233  6815 net.cpp:91] Creating Layer loss1/ave_pool
I0403 18:19:51.506250  6815 net.cpp:425] loss1/ave_pool <- inception_4a/output_inception_4a/output_0_split_0
I0403 18:19:51.506270  6815 net.cpp:399] loss1/ave_pool -> loss1/ave_pool
I0403 18:19:51.506480  6815 net.cpp:141] Setting up loss1/ave_pool
I0403 18:19:51.506505  6815 net.cpp:148] Top shape: 24 512 4 4 (196608)
I0403 18:19:51.506520  6815 net.cpp:156] Memory required for data: 945501216
I0403 18:19:51.506536  6815 layer_factory.hpp:77] Creating layer loss1/conv
I0403 18:19:51.506559  6815 net.cpp:91] Creating Layer loss1/conv
I0403 18:19:51.506577  6815 net.cpp:425] loss1/conv <- loss1/ave_pool
I0403 18:19:51.506595  6815 net.cpp:399] loss1/conv -> loss1/conv
I0403 18:19:51.507999  6815 net.cpp:141] Setting up loss1/conv
I0403 18:19:51.508026  6815 net.cpp:148] Top shape: 24 128 4 4 (49152)
I0403 18:19:51.508056  6815 net.cpp:156] Memory required for data: 945697824
I0403 18:19:51.508077  6815 layer_factory.hpp:77] Creating layer loss1/relu_conv
I0403 18:19:51.508095  6815 net.cpp:91] Creating Layer loss1/relu_conv
I0403 18:19:51.508111  6815 net.cpp:425] loss1/relu_conv <- loss1/conv
I0403 18:19:51.508129  6815 net.cpp:386] loss1/relu_conv -> loss1/conv (in-place)
I0403 18:19:51.508421  6815 net.cpp:141] Setting up loss1/relu_conv
I0403 18:19:51.508447  6815 net.cpp:148] Top shape: 24 128 4 4 (49152)
I0403 18:19:51.508462  6815 net.cpp:156] Memory required for data: 945894432
I0403 18:19:51.508478  6815 layer_factory.hpp:77] Creating layer loss1/fc
I0403 18:19:51.508502  6815 net.cpp:91] Creating Layer loss1/fc
I0403 18:19:51.508520  6815 net.cpp:425] loss1/fc <- loss1/conv
I0403 18:19:51.508543  6815 net.cpp:399] loss1/fc -> loss1/fc
I0403 18:19:51.526787  6815 net.cpp:141] Setting up loss1/fc
I0403 18:19:51.526883  6815 net.cpp:148] Top shape: 24 1024 (24576)
I0403 18:19:51.526900  6815 net.cpp:156] Memory required for data: 945992736
I0403 18:19:51.526921  6815 layer_factory.hpp:77] Creating layer loss1/relu_fc
I0403 18:19:51.526942  6815 net.cpp:91] Creating Layer loss1/relu_fc
I0403 18:19:51.526959  6815 net.cpp:425] loss1/relu_fc <- loss1/fc
I0403 18:19:51.526978  6815 net.cpp:386] loss1/relu_fc -> loss1/fc (in-place)
I0403 18:19:51.527226  6815 net.cpp:141] Setting up loss1/relu_fc
I0403 18:19:51.527251  6815 net.cpp:148] Top shape: 24 1024 (24576)
I0403 18:19:51.527266  6815 net.cpp:156] Memory required for data: 946091040
I0403 18:19:51.527281  6815 layer_factory.hpp:77] Creating layer loss1/drop_fc
I0403 18:19:51.527307  6815 net.cpp:91] Creating Layer loss1/drop_fc
I0403 18:19:51.527325  6815 net.cpp:425] loss1/drop_fc <- loss1/fc
I0403 18:19:51.527345  6815 net.cpp:386] loss1/drop_fc -> loss1/fc (in-place)
I0403 18:19:51.527395  6815 net.cpp:141] Setting up loss1/drop_fc
I0403 18:19:51.527418  6815 net.cpp:148] Top shape: 24 1024 (24576)
I0403 18:19:51.527431  6815 net.cpp:156] Memory required for data: 946189344
I0403 18:19:51.527447  6815 layer_factory.hpp:77] Creating layer loss1/classifier_plantvillage
I0403 18:19:51.527470  6815 net.cpp:91] Creating Layer loss1/classifier_plantvillage
I0403 18:19:51.527488  6815 net.cpp:425] loss1/classifier_plantvillage <- loss1/fc
I0403 18:19:51.527505  6815 net.cpp:399] loss1/classifier_plantvillage -> loss1/classifier_plantvillage
I0403 18:19:51.528453  6815 net.cpp:141] Setting up loss1/classifier_plantvillage
I0403 18:19:51.528483  6815 net.cpp:148] Top shape: 24 38 (912)
I0403 18:19:51.528499  6815 net.cpp:156] Memory required for data: 946192992
I0403 18:19:51.528519  6815 layer_factory.hpp:77] Creating layer loss1/classifier_plantvillage_loss1/classifier_plantvillage_0_split
I0403 18:19:51.528538  6815 net.cpp:91] Creating Layer loss1/classifier_plantvillage_loss1/classifier_plantvillage_0_split
I0403 18:19:51.528553  6815 net.cpp:425] loss1/classifier_plantvillage_loss1/classifier_plantvillage_0_split <- loss1/classifier_plantvillage
I0403 18:19:51.528573  6815 net.cpp:399] loss1/classifier_plantvillage_loss1/classifier_plantvillage_0_split -> loss1/classifier_plantvillage_loss1/classifier_plantvillage_0_split_0
I0403 18:19:51.528595  6815 net.cpp:399] loss1/classifier_plantvillage_loss1/classifier_plantvillage_0_split -> loss1/classifier_plantvillage_loss1/classifier_plantvillage_0_split_1
I0403 18:19:51.528619  6815 net.cpp:399] loss1/classifier_plantvillage_loss1/classifier_plantvillage_0_split -> loss1/classifier_plantvillage_loss1/classifier_plantvillage_0_split_2
I0403 18:19:51.528683  6815 net.cpp:141] Setting up loss1/classifier_plantvillage_loss1/classifier_plantvillage_0_split
I0403 18:19:51.528707  6815 net.cpp:148] Top shape: 24 38 (912)
I0403 18:19:51.528723  6815 net.cpp:148] Top shape: 24 38 (912)
I0403 18:19:51.528739  6815 net.cpp:148] Top shape: 24 38 (912)
I0403 18:19:51.528753  6815 net.cpp:156] Memory required for data: 946203936
I0403 18:19:51.528767  6815 layer_factory.hpp:77] Creating layer inception_4b/1x1
I0403 18:19:51.528789  6815 net.cpp:91] Creating Layer inception_4b/1x1
I0403 18:19:51.528827  6815 net.cpp:425] inception_4b/1x1 <- inception_4a/output_inception_4a/output_0_split_1
I0403 18:19:51.528851  6815 net.cpp:399] inception_4b/1x1 -> inception_4b/1x1
I0403 18:19:51.530529  6815 net.cpp:141] Setting up inception_4b/1x1
I0403 18:19:51.530557  6815 net.cpp:148] Top shape: 24 160 14 14 (752640)
I0403 18:19:51.530573  6815 net.cpp:156] Memory required for data: 949214496
I0403 18:19:51.530592  6815 layer_factory.hpp:77] Creating layer inception_4b/relu_1x1
I0403 18:19:51.530611  6815 net.cpp:91] Creating Layer inception_4b/relu_1x1
I0403 18:19:51.530627  6815 net.cpp:425] inception_4b/relu_1x1 <- inception_4b/1x1
I0403 18:19:51.530647  6815 net.cpp:386] inception_4b/relu_1x1 -> inception_4b/1x1 (in-place)
I0403 18:19:51.530827  6815 net.cpp:141] Setting up inception_4b/relu_1x1
I0403 18:19:51.530851  6815 net.cpp:148] Top shape: 24 160 14 14 (752640)
I0403 18:19:51.530866  6815 net.cpp:156] Memory required for data: 952225056
I0403 18:19:51.530881  6815 layer_factory.hpp:77] Creating layer inception_4b/3x3_reduce
I0403 18:19:51.530905  6815 net.cpp:91] Creating Layer inception_4b/3x3_reduce
I0403 18:19:51.530922  6815 net.cpp:425] inception_4b/3x3_reduce <- inception_4a/output_inception_4a/output_0_split_2
I0403 18:19:51.530946  6815 net.cpp:399] inception_4b/3x3_reduce -> inception_4b/3x3_reduce
I0403 18:19:51.532331  6815 net.cpp:141] Setting up inception_4b/3x3_reduce
I0403 18:19:51.532358  6815 net.cpp:148] Top shape: 24 112 14 14 (526848)
I0403 18:19:51.532374  6815 net.cpp:156] Memory required for data: 954332448
I0403 18:19:51.532393  6815 layer_factory.hpp:77] Creating layer inception_4b/relu_3x3_reduce
I0403 18:19:51.532415  6815 net.cpp:91] Creating Layer inception_4b/relu_3x3_reduce
I0403 18:19:51.532433  6815 net.cpp:425] inception_4b/relu_3x3_reduce <- inception_4b/3x3_reduce
I0403 18:19:51.532450  6815 net.cpp:386] inception_4b/relu_3x3_reduce -> inception_4b/3x3_reduce (in-place)
I0403 18:19:51.532742  6815 net.cpp:141] Setting up inception_4b/relu_3x3_reduce
I0403 18:19:51.532768  6815 net.cpp:148] Top shape: 24 112 14 14 (526848)
I0403 18:19:51.532783  6815 net.cpp:156] Memory required for data: 956439840
I0403 18:19:51.532799  6815 layer_factory.hpp:77] Creating layer inception_4b/3x3
I0403 18:19:51.532821  6815 net.cpp:91] Creating Layer inception_4b/3x3
I0403 18:19:51.532838  6815 net.cpp:425] inception_4b/3x3 <- inception_4b/3x3_reduce
I0403 18:19:51.532860  6815 net.cpp:399] inception_4b/3x3 -> inception_4b/3x3
I0403 18:19:51.535922  6815 net.cpp:141] Setting up inception_4b/3x3
I0403 18:19:51.535954  6815 net.cpp:148] Top shape: 24 224 14 14 (1053696)
I0403 18:19:51.535971  6815 net.cpp:156] Memory required for data: 960654624
I0403 18:19:51.535990  6815 layer_factory.hpp:77] Creating layer inception_4b/relu_3x3
I0403 18:19:51.536010  6815 net.cpp:91] Creating Layer inception_4b/relu_3x3
I0403 18:19:51.536026  6815 net.cpp:425] inception_4b/relu_3x3 <- inception_4b/3x3
I0403 18:19:51.536043  6815 net.cpp:386] inception_4b/relu_3x3 -> inception_4b/3x3 (in-place)
I0403 18:19:51.536239  6815 net.cpp:141] Setting up inception_4b/relu_3x3
I0403 18:19:51.536265  6815 net.cpp:148] Top shape: 24 224 14 14 (1053696)
I0403 18:19:51.536280  6815 net.cpp:156] Memory required for data: 964869408
I0403 18:19:51.536296  6815 layer_factory.hpp:77] Creating layer inception_4b/5x5_reduce
I0403 18:19:51.536320  6815 net.cpp:91] Creating Layer inception_4b/5x5_reduce
I0403 18:19:51.536339  6815 net.cpp:425] inception_4b/5x5_reduce <- inception_4a/output_inception_4a/output_0_split_3
I0403 18:19:51.536362  6815 net.cpp:399] inception_4b/5x5_reduce -> inception_4b/5x5_reduce
I0403 18:19:51.537497  6815 net.cpp:141] Setting up inception_4b/5x5_reduce
I0403 18:19:51.537538  6815 net.cpp:148] Top shape: 24 24 14 14 (112896)
I0403 18:19:51.537554  6815 net.cpp:156] Memory required for data: 965320992
I0403 18:19:51.537571  6815 layer_factory.hpp:77] Creating layer inception_4b/relu_5x5_reduce
I0403 18:19:51.537593  6815 net.cpp:91] Creating Layer inception_4b/relu_5x5_reduce
I0403 18:19:51.537623  6815 net.cpp:425] inception_4b/relu_5x5_reduce <- inception_4b/5x5_reduce
I0403 18:19:51.537643  6815 net.cpp:386] inception_4b/relu_5x5_reduce -> inception_4b/5x5_reduce (in-place)
I0403 18:19:51.537827  6815 net.cpp:141] Setting up inception_4b/relu_5x5_reduce
I0403 18:19:51.537852  6815 net.cpp:148] Top shape: 24 24 14 14 (112896)
I0403 18:19:51.537865  6815 net.cpp:156] Memory required for data: 965772576
I0403 18:19:51.537880  6815 layer_factory.hpp:77] Creating layer inception_4b/5x5
I0403 18:19:51.537904  6815 net.cpp:91] Creating Layer inception_4b/5x5
I0403 18:19:51.537922  6815 net.cpp:425] inception_4b/5x5 <- inception_4b/5x5_reduce
I0403 18:19:51.537941  6815 net.cpp:399] inception_4b/5x5 -> inception_4b/5x5
I0403 18:19:51.539176  6815 net.cpp:141] Setting up inception_4b/5x5
I0403 18:19:51.539203  6815 net.cpp:148] Top shape: 24 64 14 14 (301056)
I0403 18:19:51.539224  6815 net.cpp:156] Memory required for data: 966976800
I0403 18:19:51.539243  6815 layer_factory.hpp:77] Creating layer inception_4b/relu_5x5
I0403 18:19:51.539261  6815 net.cpp:91] Creating Layer inception_4b/relu_5x5
I0403 18:19:51.539278  6815 net.cpp:425] inception_4b/relu_5x5 <- inception_4b/5x5
I0403 18:19:51.539299  6815 net.cpp:386] inception_4b/relu_5x5 -> inception_4b/5x5 (in-place)
I0403 18:19:51.539583  6815 net.cpp:141] Setting up inception_4b/relu_5x5
I0403 18:19:51.539609  6815 net.cpp:148] Top shape: 24 64 14 14 (301056)
I0403 18:19:51.539624  6815 net.cpp:156] Memory required for data: 968181024
I0403 18:19:51.539640  6815 layer_factory.hpp:77] Creating layer inception_4b/pool
I0403 18:19:51.539659  6815 net.cpp:91] Creating Layer inception_4b/pool
I0403 18:19:51.539676  6815 net.cpp:425] inception_4b/pool <- inception_4a/output_inception_4a/output_0_split_4
I0403 18:19:51.539697  6815 net.cpp:399] inception_4b/pool -> inception_4b/pool
I0403 18:19:51.539762  6815 net.cpp:141] Setting up inception_4b/pool
I0403 18:19:51.539786  6815 net.cpp:148] Top shape: 24 512 14 14 (2408448)
I0403 18:19:51.539800  6815 net.cpp:156] Memory required for data: 977814816
I0403 18:19:51.539816  6815 layer_factory.hpp:77] Creating layer inception_4b/pool_proj
I0403 18:19:51.539840  6815 net.cpp:91] Creating Layer inception_4b/pool_proj
I0403 18:19:51.539857  6815 net.cpp:425] inception_4b/pool_proj <- inception_4b/pool
I0403 18:19:51.539876  6815 net.cpp:399] inception_4b/pool_proj -> inception_4b/pool_proj
I0403 18:19:51.541090  6815 net.cpp:141] Setting up inception_4b/pool_proj
I0403 18:19:51.541117  6815 net.cpp:148] Top shape: 24 64 14 14 (301056)
I0403 18:19:51.541133  6815 net.cpp:156] Memory required for data: 979019040
I0403 18:19:51.541152  6815 layer_factory.hpp:77] Creating layer inception_4b/relu_pool_proj
I0403 18:19:51.541169  6815 net.cpp:91] Creating Layer inception_4b/relu_pool_proj
I0403 18:19:51.541185  6815 net.cpp:425] inception_4b/relu_pool_proj <- inception_4b/pool_proj
I0403 18:19:51.541215  6815 net.cpp:386] inception_4b/relu_pool_proj -> inception_4b/pool_proj (in-place)
I0403 18:19:51.541401  6815 net.cpp:141] Setting up inception_4b/relu_pool_proj
I0403 18:19:51.541427  6815 net.cpp:148] Top shape: 24 64 14 14 (301056)
I0403 18:19:51.541441  6815 net.cpp:156] Memory required for data: 980223264
I0403 18:19:51.541457  6815 layer_factory.hpp:77] Creating layer inception_4b/output
I0403 18:19:51.541477  6815 net.cpp:91] Creating Layer inception_4b/output
I0403 18:19:51.541494  6815 net.cpp:425] inception_4b/output <- inception_4b/1x1
I0403 18:19:51.541510  6815 net.cpp:425] inception_4b/output <- inception_4b/3x3
I0403 18:19:51.541527  6815 net.cpp:425] inception_4b/output <- inception_4b/5x5
I0403 18:19:51.541543  6815 net.cpp:425] inception_4b/output <- inception_4b/pool_proj
I0403 18:19:51.541559  6815 net.cpp:399] inception_4b/output -> inception_4b/output
I0403 18:19:51.541606  6815 net.cpp:141] Setting up inception_4b/output
I0403 18:19:51.541630  6815 net.cpp:148] Top shape: 24 512 14 14 (2408448)
I0403 18:19:51.541645  6815 net.cpp:156] Memory required for data: 989857056
I0403 18:19:51.541672  6815 layer_factory.hpp:77] Creating layer inception_4b/output_inception_4b/output_0_split
I0403 18:19:51.541692  6815 net.cpp:91] Creating Layer inception_4b/output_inception_4b/output_0_split
I0403 18:19:51.541708  6815 net.cpp:425] inception_4b/output_inception_4b/output_0_split <- inception_4b/output
I0403 18:19:51.541728  6815 net.cpp:399] inception_4b/output_inception_4b/output_0_split -> inception_4b/output_inception_4b/output_0_split_0
I0403 18:19:51.541750  6815 net.cpp:399] inception_4b/output_inception_4b/output_0_split -> inception_4b/output_inception_4b/output_0_split_1
I0403 18:19:51.541772  6815 net.cpp:399] inception_4b/output_inception_4b/output_0_split -> inception_4b/output_inception_4b/output_0_split_2
I0403 18:19:51.541793  6815 net.cpp:399] inception_4b/output_inception_4b/output_0_split -> inception_4b/output_inception_4b/output_0_split_3
I0403 18:19:51.541878  6815 net.cpp:141] Setting up inception_4b/output_inception_4b/output_0_split
I0403 18:19:51.541901  6815 net.cpp:148] Top shape: 24 512 14 14 (2408448)
I0403 18:19:51.541918  6815 net.cpp:148] Top shape: 24 512 14 14 (2408448)
I0403 18:19:51.541934  6815 net.cpp:148] Top shape: 24 512 14 14 (2408448)
I0403 18:19:51.541949  6815 net.cpp:148] Top shape: 24 512 14 14 (2408448)
I0403 18:19:51.541963  6815 net.cpp:156] Memory required for data: 1028392224
I0403 18:19:51.541977  6815 layer_factory.hpp:77] Creating layer inception_4c/1x1
I0403 18:19:51.542001  6815 net.cpp:91] Creating Layer inception_4c/1x1
I0403 18:19:51.542017  6815 net.cpp:425] inception_4c/1x1 <- inception_4b/output_inception_4b/output_0_split_0
I0403 18:19:51.542039  6815 net.cpp:399] inception_4c/1x1 -> inception_4c/1x1
I0403 18:19:51.543493  6815 net.cpp:141] Setting up inception_4c/1x1
I0403 18:19:51.543520  6815 net.cpp:148] Top shape: 24 128 14 14 (602112)
I0403 18:19:51.543540  6815 net.cpp:156] Memory required for data: 1030800672
I0403 18:19:51.543560  6815 layer_factory.hpp:77] Creating layer inception_4c/relu_1x1
I0403 18:19:51.543578  6815 net.cpp:91] Creating Layer inception_4c/relu_1x1
I0403 18:19:51.543594  6815 net.cpp:425] inception_4c/relu_1x1 <- inception_4c/1x1
I0403 18:19:51.543612  6815 net.cpp:386] inception_4c/relu_1x1 -> inception_4c/1x1 (in-place)
I0403 18:19:51.543802  6815 net.cpp:141] Setting up inception_4c/relu_1x1
I0403 18:19:51.543829  6815 net.cpp:148] Top shape: 24 128 14 14 (602112)
I0403 18:19:51.543845  6815 net.cpp:156] Memory required for data: 1033209120
I0403 18:19:51.543861  6815 layer_factory.hpp:77] Creating layer inception_4c/3x3_reduce
I0403 18:19:51.543884  6815 net.cpp:91] Creating Layer inception_4c/3x3_reduce
I0403 18:19:51.543902  6815 net.cpp:425] inception_4c/3x3_reduce <- inception_4b/output_inception_4b/output_0_split_1
I0403 18:19:51.543921  6815 net.cpp:399] inception_4c/3x3_reduce -> inception_4c/3x3_reduce
I0403 18:19:51.545918  6815 net.cpp:141] Setting up inception_4c/3x3_reduce
I0403 18:19:51.545946  6815 net.cpp:148] Top shape: 24 128 14 14 (602112)
I0403 18:19:51.545963  6815 net.cpp:156] Memory required for data: 1035617568
I0403 18:19:51.545982  6815 layer_factory.hpp:77] Creating layer inception_4c/relu_3x3_reduce
I0403 18:19:51.546000  6815 net.cpp:91] Creating Layer inception_4c/relu_3x3_reduce
I0403 18:19:51.546016  6815 net.cpp:425] inception_4c/relu_3x3_reduce <- inception_4c/3x3_reduce
I0403 18:19:51.546037  6815 net.cpp:386] inception_4c/relu_3x3_reduce -> inception_4c/3x3_reduce (in-place)
I0403 18:19:51.546336  6815 net.cpp:141] Setting up inception_4c/relu_3x3_reduce
I0403 18:19:51.546363  6815 net.cpp:148] Top shape: 24 128 14 14 (602112)
I0403 18:19:51.546378  6815 net.cpp:156] Memory required for data: 1038026016
I0403 18:19:51.546393  6815 layer_factory.hpp:77] Creating layer inception_4c/3x3
I0403 18:19:51.546418  6815 net.cpp:91] Creating Layer inception_4c/3x3
I0403 18:19:51.546437  6815 net.cpp:425] inception_4c/3x3 <- inception_4c/3x3_reduce
I0403 18:19:51.546458  6815 net.cpp:399] inception_4c/3x3 -> inception_4c/3x3
I0403 18:19:51.550123  6815 net.cpp:141] Setting up inception_4c/3x3
I0403 18:19:51.550164  6815 net.cpp:148] Top shape: 24 256 14 14 (1204224)
I0403 18:19:51.550180  6815 net.cpp:156] Memory required for data: 1042842912
I0403 18:19:51.550217  6815 layer_factory.hpp:77] Creating layer inception_4c/relu_3x3
I0403 18:19:51.550238  6815 net.cpp:91] Creating Layer inception_4c/relu_3x3
I0403 18:19:51.550256  6815 net.cpp:425] inception_4c/relu_3x3 <- inception_4c/3x3
I0403 18:19:51.550276  6815 net.cpp:386] inception_4c/relu_3x3 -> inception_4c/3x3 (in-place)
I0403 18:19:51.550457  6815 net.cpp:141] Setting up inception_4c/relu_3x3
I0403 18:19:51.550482  6815 net.cpp:148] Top shape: 24 256 14 14 (1204224)
I0403 18:19:51.550496  6815 net.cpp:156] Memory required for data: 1047659808
I0403 18:19:51.550511  6815 layer_factory.hpp:77] Creating layer inception_4c/5x5_reduce
I0403 18:19:51.550532  6815 net.cpp:91] Creating Layer inception_4c/5x5_reduce
I0403 18:19:51.550549  6815 net.cpp:425] inception_4c/5x5_reduce <- inception_4b/output_inception_4b/output_0_split_2
I0403 18:19:51.550572  6815 net.cpp:399] inception_4c/5x5_reduce -> inception_4c/5x5_reduce
I0403 18:19:51.551638  6815 net.cpp:141] Setting up inception_4c/5x5_reduce
I0403 18:19:51.551666  6815 net.cpp:148] Top shape: 24 24 14 14 (112896)
I0403 18:19:51.551681  6815 net.cpp:156] Memory required for data: 1048111392
I0403 18:19:51.551697  6815 layer_factory.hpp:77] Creating layer inception_4c/relu_5x5_reduce
I0403 18:19:51.551718  6815 net.cpp:91] Creating Layer inception_4c/relu_5x5_reduce
I0403 18:19:51.551734  6815 net.cpp:425] inception_4c/relu_5x5_reduce <- inception_4c/5x5_reduce
I0403 18:19:51.551753  6815 net.cpp:386] inception_4c/relu_5x5_reduce -> inception_4c/5x5_reduce (in-place)
I0403 18:19:51.551936  6815 net.cpp:141] Setting up inception_4c/relu_5x5_reduce
I0403 18:19:51.551962  6815 net.cpp:148] Top shape: 24 24 14 14 (112896)
I0403 18:19:51.551976  6815 net.cpp:156] Memory required for data: 1048562976
I0403 18:19:51.551991  6815 layer_factory.hpp:77] Creating layer inception_4c/5x5
I0403 18:19:51.552012  6815 net.cpp:91] Creating Layer inception_4c/5x5
I0403 18:19:51.552031  6815 net.cpp:425] inception_4c/5x5 <- inception_4c/5x5_reduce
I0403 18:19:51.552052  6815 net.cpp:399] inception_4c/5x5 -> inception_4c/5x5
I0403 18:19:51.553278  6815 net.cpp:141] Setting up inception_4c/5x5
I0403 18:19:51.553305  6815 net.cpp:148] Top shape: 24 64 14 14 (301056)
I0403 18:19:51.553320  6815 net.cpp:156] Memory required for data: 1049767200
I0403 18:19:51.553339  6815 layer_factory.hpp:77] Creating layer inception_4c/relu_5x5
I0403 18:19:51.553359  6815 net.cpp:91] Creating Layer inception_4c/relu_5x5
I0403 18:19:51.553375  6815 net.cpp:425] inception_4c/relu_5x5 <- inception_4c/5x5
I0403 18:19:51.553392  6815 net.cpp:386] inception_4c/relu_5x5 -> inception_4c/5x5 (in-place)
I0403 18:19:51.553674  6815 net.cpp:141] Setting up inception_4c/relu_5x5
I0403 18:19:51.553700  6815 net.cpp:148] Top shape: 24 64 14 14 (301056)
I0403 18:19:51.553715  6815 net.cpp:156] Memory required for data: 1050971424
I0403 18:19:51.553730  6815 layer_factory.hpp:77] Creating layer inception_4c/pool
I0403 18:19:51.553750  6815 net.cpp:91] Creating Layer inception_4c/pool
I0403 18:19:51.553766  6815 net.cpp:425] inception_4c/pool <- inception_4b/output_inception_4b/output_0_split_3
I0403 18:19:51.553786  6815 net.cpp:399] inception_4c/pool -> inception_4c/pool
I0403 18:19:51.553849  6815 net.cpp:141] Setting up inception_4c/pool
I0403 18:19:51.553872  6815 net.cpp:148] Top shape: 24 512 14 14 (2408448)
I0403 18:19:51.553887  6815 net.cpp:156] Memory required for data: 1060605216
I0403 18:19:51.553902  6815 layer_factory.hpp:77] Creating layer inception_4c/pool_proj
I0403 18:19:51.553923  6815 net.cpp:91] Creating Layer inception_4c/pool_proj
I0403 18:19:51.553941  6815 net.cpp:425] inception_4c/pool_proj <- inception_4c/pool
I0403 18:19:51.553961  6815 net.cpp:399] inception_4c/pool_proj -> inception_4c/pool_proj
I0403 18:19:51.555162  6815 net.cpp:141] Setting up inception_4c/pool_proj
I0403 18:19:51.555189  6815 net.cpp:148] Top shape: 24 64 14 14 (301056)
I0403 18:19:51.555223  6815 net.cpp:156] Memory required for data: 1061809440
I0403 18:19:51.555243  6815 layer_factory.hpp:77] Creating layer inception_4c/relu_pool_proj
I0403 18:19:51.555260  6815 net.cpp:91] Creating Layer inception_4c/relu_pool_proj
I0403 18:19:51.555276  6815 net.cpp:425] inception_4c/relu_pool_proj <- inception_4c/pool_proj
I0403 18:19:51.555297  6815 net.cpp:386] inception_4c/relu_pool_proj -> inception_4c/pool_proj (in-place)
I0403 18:19:51.555483  6815 net.cpp:141] Setting up inception_4c/relu_pool_proj
I0403 18:19:51.555507  6815 net.cpp:148] Top shape: 24 64 14 14 (301056)
I0403 18:19:51.555521  6815 net.cpp:156] Memory required for data: 1063013664
I0403 18:19:51.555536  6815 layer_factory.hpp:77] Creating layer inception_4c/output
I0403 18:19:51.555554  6815 net.cpp:91] Creating Layer inception_4c/output
I0403 18:19:51.555570  6815 net.cpp:425] inception_4c/output <- inception_4c/1x1
I0403 18:19:51.555588  6815 net.cpp:425] inception_4c/output <- inception_4c/3x3
I0403 18:19:51.555603  6815 net.cpp:425] inception_4c/output <- inception_4c/5x5
I0403 18:19:51.555619  6815 net.cpp:425] inception_4c/output <- inception_4c/pool_proj
I0403 18:19:51.555634  6815 net.cpp:399] inception_4c/output -> inception_4c/output
I0403 18:19:51.555681  6815 net.cpp:141] Setting up inception_4c/output
I0403 18:19:51.555703  6815 net.cpp:148] Top shape: 24 512 14 14 (2408448)
I0403 18:19:51.555717  6815 net.cpp:156] Memory required for data: 1072647456
I0403 18:19:51.555732  6815 layer_factory.hpp:77] Creating layer inception_4c/output_inception_4c/output_0_split
I0403 18:19:51.555749  6815 net.cpp:91] Creating Layer inception_4c/output_inception_4c/output_0_split
I0403 18:19:51.555765  6815 net.cpp:425] inception_4c/output_inception_4c/output_0_split <- inception_4c/output
I0403 18:19:51.555785  6815 net.cpp:399] inception_4c/output_inception_4c/output_0_split -> inception_4c/output_inception_4c/output_0_split_0
I0403 18:19:51.555806  6815 net.cpp:399] inception_4c/output_inception_4c/output_0_split -> inception_4c/output_inception_4c/output_0_split_1
I0403 18:19:51.555826  6815 net.cpp:399] inception_4c/output_inception_4c/output_0_split -> inception_4c/output_inception_4c/output_0_split_2
I0403 18:19:51.555847  6815 net.cpp:399] inception_4c/output_inception_4c/output_0_split -> inception_4c/output_inception_4c/output_0_split_3
I0403 18:19:51.555929  6815 net.cpp:141] Setting up inception_4c/output_inception_4c/output_0_split
I0403 18:19:51.555953  6815 net.cpp:148] Top shape: 24 512 14 14 (2408448)
I0403 18:19:51.555969  6815 net.cpp:148] Top shape: 24 512 14 14 (2408448)
I0403 18:19:51.555985  6815 net.cpp:148] Top shape: 24 512 14 14 (2408448)
I0403 18:19:51.556001  6815 net.cpp:148] Top shape: 24 512 14 14 (2408448)
I0403 18:19:51.556015  6815 net.cpp:156] Memory required for data: 1111182624
I0403 18:19:51.556027  6815 layer_factory.hpp:77] Creating layer inception_4d/1x1
I0403 18:19:51.556051  6815 net.cpp:91] Creating Layer inception_4d/1x1
I0403 18:19:51.556067  6815 net.cpp:425] inception_4d/1x1 <- inception_4c/output_inception_4c/output_0_split_0
I0403 18:19:51.556088  6815 net.cpp:399] inception_4d/1x1 -> inception_4d/1x1
I0403 18:19:51.557446  6815 net.cpp:141] Setting up inception_4d/1x1
I0403 18:19:51.557476  6815 net.cpp:148] Top shape: 24 112 14 14 (526848)
I0403 18:19:51.557490  6815 net.cpp:156] Memory required for data: 1113290016
I0403 18:19:51.557508  6815 layer_factory.hpp:77] Creating layer inception_4d/relu_1x1
I0403 18:19:51.557528  6815 net.cpp:91] Creating Layer inception_4d/relu_1x1
I0403 18:19:51.557555  6815 net.cpp:425] inception_4d/relu_1x1 <- inception_4d/1x1
I0403 18:19:51.557572  6815 net.cpp:386] inception_4d/relu_1x1 -> inception_4d/1x1 (in-place)
I0403 18:19:51.557763  6815 net.cpp:141] Setting up inception_4d/relu_1x1
I0403 18:19:51.557788  6815 net.cpp:148] Top shape: 24 112 14 14 (526848)
I0403 18:19:51.557802  6815 net.cpp:156] Memory required for data: 1115397408
I0403 18:19:51.557818  6815 layer_factory.hpp:77] Creating layer inception_4d/3x3_reduce
I0403 18:19:51.557867  6815 net.cpp:91] Creating Layer inception_4d/3x3_reduce
I0403 18:19:51.557884  6815 net.cpp:425] inception_4d/3x3_reduce <- inception_4c/output_inception_4c/output_0_split_1
I0403 18:19:51.557906  6815 net.cpp:399] inception_4d/3x3_reduce -> inception_4d/3x3_reduce
I0403 18:19:51.559391  6815 net.cpp:141] Setting up inception_4d/3x3_reduce
I0403 18:19:51.559417  6815 net.cpp:148] Top shape: 24 144 14 14 (677376)
I0403 18:19:51.559432  6815 net.cpp:156] Memory required for data: 1118106912
I0403 18:19:51.559449  6815 layer_factory.hpp:77] Creating layer inception_4d/relu_3x3_reduce
I0403 18:19:51.559470  6815 net.cpp:91] Creating Layer inception_4d/relu_3x3_reduce
I0403 18:19:51.559487  6815 net.cpp:425] inception_4d/relu_3x3_reduce <- inception_4d/3x3_reduce
I0403 18:19:51.559504  6815 net.cpp:386] inception_4d/relu_3x3_reduce -> inception_4d/3x3_reduce (in-place)
I0403 18:19:51.559793  6815 net.cpp:141] Setting up inception_4d/relu_3x3_reduce
I0403 18:19:51.559819  6815 net.cpp:148] Top shape: 24 144 14 14 (677376)
I0403 18:19:51.559834  6815 net.cpp:156] Memory required for data: 1120816416
I0403 18:19:51.559849  6815 layer_factory.hpp:77] Creating layer inception_4d/3x3
I0403 18:19:51.559872  6815 net.cpp:91] Creating Layer inception_4d/3x3
I0403 18:19:51.559890  6815 net.cpp:425] inception_4d/3x3 <- inception_4d/3x3_reduce
I0403 18:19:51.559909  6815 net.cpp:399] inception_4d/3x3 -> inception_4d/3x3
I0403 18:19:51.564205  6815 net.cpp:141] Setting up inception_4d/3x3
I0403 18:19:51.564240  6815 net.cpp:148] Top shape: 24 288 14 14 (1354752)
I0403 18:19:51.564256  6815 net.cpp:156] Memory required for data: 1126235424
I0403 18:19:51.564275  6815 layer_factory.hpp:77] Creating layer inception_4d/relu_3x3
I0403 18:19:51.564293  6815 net.cpp:91] Creating Layer inception_4d/relu_3x3
I0403 18:19:51.564311  6815 net.cpp:425] inception_4d/relu_3x3 <- inception_4d/3x3
I0403 18:19:51.564328  6815 net.cpp:386] inception_4d/relu_3x3 -> inception_4d/3x3 (in-place)
I0403 18:19:51.564510  6815 net.cpp:141] Setting up inception_4d/relu_3x3
I0403 18:19:51.564535  6815 net.cpp:148] Top shape: 24 288 14 14 (1354752)
I0403 18:19:51.564549  6815 net.cpp:156] Memory required for data: 1131654432
I0403 18:19:51.564563  6815 layer_factory.hpp:77] Creating layer inception_4d/5x5_reduce
I0403 18:19:51.564585  6815 net.cpp:91] Creating Layer inception_4d/5x5_reduce
I0403 18:19:51.564601  6815 net.cpp:425] inception_4d/5x5_reduce <- inception_4c/output_inception_4c/output_0_split_2
I0403 18:19:51.564623  6815 net.cpp:399] inception_4d/5x5_reduce -> inception_4d/5x5_reduce
I0403 18:19:51.565752  6815 net.cpp:141] Setting up inception_4d/5x5_reduce
I0403 18:19:51.565781  6815 net.cpp:148] Top shape: 24 32 14 14 (150528)
I0403 18:19:51.565796  6815 net.cpp:156] Memory required for data: 1132256544
I0403 18:19:51.565815  6815 layer_factory.hpp:77] Creating layer inception_4d/relu_5x5_reduce
I0403 18:19:51.565831  6815 net.cpp:91] Creating Layer inception_4d/relu_5x5_reduce
I0403 18:19:51.565847  6815 net.cpp:425] inception_4d/relu_5x5_reduce <- inception_4d/5x5_reduce
I0403 18:19:51.565867  6815 net.cpp:386] inception_4d/relu_5x5_reduce -> inception_4d/5x5_reduce (in-place)
I0403 18:19:51.566052  6815 net.cpp:141] Setting up inception_4d/relu_5x5_reduce
I0403 18:19:51.566077  6815 net.cpp:148] Top shape: 24 32 14 14 (150528)
I0403 18:19:51.566092  6815 net.cpp:156] Memory required for data: 1132858656
I0403 18:19:51.566105  6815 layer_factory.hpp:77] Creating layer inception_4d/5x5
I0403 18:19:51.566128  6815 net.cpp:91] Creating Layer inception_4d/5x5
I0403 18:19:51.566146  6815 net.cpp:425] inception_4d/5x5 <- inception_4d/5x5_reduce
I0403 18:19:51.566167  6815 net.cpp:399] inception_4d/5x5 -> inception_4d/5x5
I0403 18:19:51.567601  6815 net.cpp:141] Setting up inception_4d/5x5
I0403 18:19:51.567630  6815 net.cpp:148] Top shape: 24 64 14 14 (301056)
I0403 18:19:51.567644  6815 net.cpp:156] Memory required for data: 1134062880
I0403 18:19:51.567663  6815 layer_factory.hpp:77] Creating layer inception_4d/relu_5x5
I0403 18:19:51.567703  6815 net.cpp:91] Creating Layer inception_4d/relu_5x5
I0403 18:19:51.567721  6815 net.cpp:425] inception_4d/relu_5x5 <- inception_4d/5x5
I0403 18:19:51.567739  6815 net.cpp:386] inception_4d/relu_5x5 -> inception_4d/5x5 (in-place)
I0403 18:19:51.568030  6815 net.cpp:141] Setting up inception_4d/relu_5x5
I0403 18:19:51.568056  6815 net.cpp:148] Top shape: 24 64 14 14 (301056)
I0403 18:19:51.568071  6815 net.cpp:156] Memory required for data: 1135267104
I0403 18:19:51.568085  6815 layer_factory.hpp:77] Creating layer inception_4d/pool
I0403 18:19:51.568105  6815 net.cpp:91] Creating Layer inception_4d/pool
I0403 18:19:51.568122  6815 net.cpp:425] inception_4d/pool <- inception_4c/output_inception_4c/output_0_split_3
I0403 18:19:51.568140  6815 net.cpp:399] inception_4d/pool -> inception_4d/pool
I0403 18:19:51.568212  6815 net.cpp:141] Setting up inception_4d/pool
I0403 18:19:51.568249  6815 net.cpp:148] Top shape: 24 512 14 14 (2408448)
I0403 18:19:51.568264  6815 net.cpp:156] Memory required for data: 1144900896
I0403 18:19:51.568279  6815 layer_factory.hpp:77] Creating layer inception_4d/pool_proj
I0403 18:19:51.568301  6815 net.cpp:91] Creating Layer inception_4d/pool_proj
I0403 18:19:51.568320  6815 net.cpp:425] inception_4d/pool_proj <- inception_4d/pool
I0403 18:19:51.568342  6815 net.cpp:399] inception_4d/pool_proj -> inception_4d/pool_proj
I0403 18:19:51.570152  6815 net.cpp:141] Setting up inception_4d/pool_proj
I0403 18:19:51.570183  6815 net.cpp:148] Top shape: 24 64 14 14 (301056)
I0403 18:19:51.570199  6815 net.cpp:156] Memory required for data: 1146105120
I0403 18:19:51.570224  6815 layer_factory.hpp:77] Creating layer inception_4d/relu_pool_proj
I0403 18:19:51.570243  6815 net.cpp:91] Creating Layer inception_4d/relu_pool_proj
I0403 18:19:51.570260  6815 net.cpp:425] inception_4d/relu_pool_proj <- inception_4d/pool_proj
I0403 18:19:51.570279  6815 net.cpp:386] inception_4d/relu_pool_proj -> inception_4d/pool_proj (in-place)
I0403 18:19:51.570474  6815 net.cpp:141] Setting up inception_4d/relu_pool_proj
I0403 18:19:51.570498  6815 net.cpp:148] Top shape: 24 64 14 14 (301056)
I0403 18:19:51.570514  6815 net.cpp:156] Memory required for data: 1147309344
I0403 18:19:51.570528  6815 layer_factory.hpp:77] Creating layer inception_4d/output
I0403 18:19:51.570545  6815 net.cpp:91] Creating Layer inception_4d/output
I0403 18:19:51.570561  6815 net.cpp:425] inception_4d/output <- inception_4d/1x1
I0403 18:19:51.570579  6815 net.cpp:425] inception_4d/output <- inception_4d/3x3
I0403 18:19:51.570595  6815 net.cpp:425] inception_4d/output <- inception_4d/5x5
I0403 18:19:51.570611  6815 net.cpp:425] inception_4d/output <- inception_4d/pool_proj
I0403 18:19:51.570631  6815 net.cpp:399] inception_4d/output -> inception_4d/output
I0403 18:19:51.570680  6815 net.cpp:141] Setting up inception_4d/output
I0403 18:19:51.570704  6815 net.cpp:148] Top shape: 24 528 14 14 (2483712)
I0403 18:19:51.570719  6815 net.cpp:156] Memory required for data: 1157244192
I0403 18:19:51.570732  6815 layer_factory.hpp:77] Creating layer inception_4d/output_inception_4d/output_0_split
I0403 18:19:51.570750  6815 net.cpp:91] Creating Layer inception_4d/output_inception_4d/output_0_split
I0403 18:19:51.570765  6815 net.cpp:425] inception_4d/output_inception_4d/output_0_split <- inception_4d/output
I0403 18:19:51.570786  6815 net.cpp:399] inception_4d/output_inception_4d/output_0_split -> inception_4d/output_inception_4d/output_0_split_0
I0403 18:19:51.570808  6815 net.cpp:399] inception_4d/output_inception_4d/output_0_split -> inception_4d/output_inception_4d/output_0_split_1
I0403 18:19:51.570829  6815 net.cpp:399] inception_4d/output_inception_4d/output_0_split -> inception_4d/output_inception_4d/output_0_split_2
I0403 18:19:51.570850  6815 net.cpp:399] inception_4d/output_inception_4d/output_0_split -> inception_4d/output_inception_4d/output_0_split_3
I0403 18:19:51.570870  6815 net.cpp:399] inception_4d/output_inception_4d/output_0_split -> inception_4d/output_inception_4d/output_0_split_4
I0403 18:19:51.570974  6815 net.cpp:141] Setting up inception_4d/output_inception_4d/output_0_split
I0403 18:19:51.571012  6815 net.cpp:148] Top shape: 24 528 14 14 (2483712)
I0403 18:19:51.571030  6815 net.cpp:148] Top shape: 24 528 14 14 (2483712)
I0403 18:19:51.571048  6815 net.cpp:148] Top shape: 24 528 14 14 (2483712)
I0403 18:19:51.571063  6815 net.cpp:148] Top shape: 24 528 14 14 (2483712)
I0403 18:19:51.571079  6815 net.cpp:148] Top shape: 24 528 14 14 (2483712)
I0403 18:19:51.571091  6815 net.cpp:156] Memory required for data: 1206918432
I0403 18:19:51.571106  6815 layer_factory.hpp:77] Creating layer loss2/ave_pool
I0403 18:19:51.571123  6815 net.cpp:91] Creating Layer loss2/ave_pool
I0403 18:19:51.571140  6815 net.cpp:425] loss2/ave_pool <- inception_4d/output_inception_4d/output_0_split_0
I0403 18:19:51.571157  6815 net.cpp:399] loss2/ave_pool -> loss2/ave_pool
I0403 18:19:51.571476  6815 net.cpp:141] Setting up loss2/ave_pool
I0403 18:19:51.571506  6815 net.cpp:148] Top shape: 24 528 4 4 (202752)
I0403 18:19:51.571526  6815 net.cpp:156] Memory required for data: 1207729440
I0403 18:19:51.571542  6815 layer_factory.hpp:77] Creating layer loss2/conv
I0403 18:19:51.571564  6815 net.cpp:91] Creating Layer loss2/conv
I0403 18:19:51.571583  6815 net.cpp:425] loss2/conv <- loss2/ave_pool
I0403 18:19:51.571601  6815 net.cpp:399] loss2/conv -> loss2/conv
I0403 18:19:51.573608  6815 net.cpp:141] Setting up loss2/conv
I0403 18:19:51.573639  6815 net.cpp:148] Top shape: 24 128 4 4 (49152)
I0403 18:19:51.573657  6815 net.cpp:156] Memory required for data: 1207926048
I0403 18:19:51.573675  6815 layer_factory.hpp:77] Creating layer loss2/relu_conv
I0403 18:19:51.573698  6815 net.cpp:91] Creating Layer loss2/relu_conv
I0403 18:19:51.573715  6815 net.cpp:425] loss2/relu_conv <- loss2/conv
I0403 18:19:51.573734  6815 net.cpp:386] loss2/relu_conv -> loss2/conv (in-place)
I0403 18:19:51.574034  6815 net.cpp:141] Setting up loss2/relu_conv
I0403 18:19:51.574062  6815 net.cpp:148] Top shape: 24 128 4 4 (49152)
I0403 18:19:51.574079  6815 net.cpp:156] Memory required for data: 1208122656
I0403 18:19:51.574095  6815 layer_factory.hpp:77] Creating layer loss2/fc
I0403 18:19:51.574116  6815 net.cpp:91] Creating Layer loss2/fc
I0403 18:19:51.574136  6815 net.cpp:425] loss2/fc <- loss2/conv
I0403 18:19:51.574156  6815 net.cpp:399] loss2/fc -> loss2/fc
I0403 18:19:51.592579  6815 net.cpp:141] Setting up loss2/fc
I0403 18:19:51.592648  6815 net.cpp:148] Top shape: 24 1024 (24576)
I0403 18:19:51.592664  6815 net.cpp:156] Memory required for data: 1208220960
I0403 18:19:51.592684  6815 layer_factory.hpp:77] Creating layer loss2/relu_fc
I0403 18:19:51.592703  6815 net.cpp:91] Creating Layer loss2/relu_fc
I0403 18:19:51.592720  6815 net.cpp:425] loss2/relu_fc <- loss2/fc
I0403 18:19:51.592741  6815 net.cpp:386] loss2/relu_fc -> loss2/fc (in-place)
I0403 18:19:51.593106  6815 net.cpp:141] Setting up loss2/relu_fc
I0403 18:19:51.593132  6815 net.cpp:148] Top shape: 24 1024 (24576)
I0403 18:19:51.593147  6815 net.cpp:156] Memory required for data: 1208319264
I0403 18:19:51.593161  6815 layer_factory.hpp:77] Creating layer loss2/drop_fc
I0403 18:19:51.593180  6815 net.cpp:91] Creating Layer loss2/drop_fc
I0403 18:19:51.593195  6815 net.cpp:425] loss2/drop_fc <- loss2/fc
I0403 18:19:51.593219  6815 net.cpp:386] loss2/drop_fc -> loss2/fc (in-place)
I0403 18:19:51.593271  6815 net.cpp:141] Setting up loss2/drop_fc
I0403 18:19:51.593298  6815 net.cpp:148] Top shape: 24 1024 (24576)
I0403 18:19:51.593313  6815 net.cpp:156] Memory required for data: 1208417568
I0403 18:19:51.593328  6815 layer_factory.hpp:77] Creating layer loss2/classifier_plantvillage
I0403 18:19:51.593348  6815 net.cpp:91] Creating Layer loss2/classifier_plantvillage
I0403 18:19:51.593364  6815 net.cpp:425] loss2/classifier_plantvillage <- loss2/fc
I0403 18:19:51.593384  6815 net.cpp:399] loss2/classifier_plantvillage -> loss2/classifier_plantvillage
I0403 18:19:51.593797  6815 net.cpp:141] Setting up loss2/classifier_plantvillage
I0403 18:19:51.593822  6815 net.cpp:148] Top shape: 24 38 (912)
I0403 18:19:51.593863  6815 net.cpp:156] Memory required for data: 1208421216
I0403 18:19:51.593883  6815 layer_factory.hpp:77] Creating layer loss2/classifier_plantvillage_loss2/classifier_plantvillage_0_split
I0403 18:19:51.593906  6815 net.cpp:91] Creating Layer loss2/classifier_plantvillage_loss2/classifier_plantvillage_0_split
I0403 18:19:51.593924  6815 net.cpp:425] loss2/classifier_plantvillage_loss2/classifier_plantvillage_0_split <- loss2/classifier_plantvillage
I0403 18:19:51.593945  6815 net.cpp:399] loss2/classifier_plantvillage_loss2/classifier_plantvillage_0_split -> loss2/classifier_plantvillage_loss2/classifier_plantvillage_0_split_0
I0403 18:19:51.593964  6815 net.cpp:399] loss2/classifier_plantvillage_loss2/classifier_plantvillage_0_split -> loss2/classifier_plantvillage_loss2/classifier_plantvillage_0_split_1
I0403 18:19:51.593989  6815 net.cpp:399] loss2/classifier_plantvillage_loss2/classifier_plantvillage_0_split -> loss2/classifier_plantvillage_loss2/classifier_plantvillage_0_split_2
I0403 18:19:51.594069  6815 net.cpp:141] Setting up loss2/classifier_plantvillage_loss2/classifier_plantvillage_0_split
I0403 18:19:51.594092  6815 net.cpp:148] Top shape: 24 38 (912)
I0403 18:19:51.594110  6815 net.cpp:148] Top shape: 24 38 (912)
I0403 18:19:51.594125  6815 net.cpp:148] Top shape: 24 38 (912)
I0403 18:19:51.594138  6815 net.cpp:156] Memory required for data: 1208432160
I0403 18:19:51.594153  6815 layer_factory.hpp:77] Creating layer inception_4e/1x1
I0403 18:19:51.594178  6815 net.cpp:91] Creating Layer inception_4e/1x1
I0403 18:19:51.594197  6815 net.cpp:425] inception_4e/1x1 <- inception_4d/output_inception_4d/output_0_split_1
I0403 18:19:51.594220  6815 net.cpp:399] inception_4e/1x1 -> inception_4e/1x1
I0403 18:19:51.596086  6815 net.cpp:141] Setting up inception_4e/1x1
I0403 18:19:51.596114  6815 net.cpp:148] Top shape: 24 256 14 14 (1204224)
I0403 18:19:51.596129  6815 net.cpp:156] Memory required for data: 1213249056
I0403 18:19:51.596148  6815 layer_factory.hpp:77] Creating layer inception_4e/relu_1x1
I0403 18:19:51.596168  6815 net.cpp:91] Creating Layer inception_4e/relu_1x1
I0403 18:19:51.596186  6815 net.cpp:425] inception_4e/relu_1x1 <- inception_4e/1x1
I0403 18:19:51.596204  6815 net.cpp:386] inception_4e/relu_1x1 -> inception_4e/1x1 (in-place)
I0403 18:19:51.596508  6815 net.cpp:141] Setting up inception_4e/relu_1x1
I0403 18:19:51.596534  6815 net.cpp:148] Top shape: 24 256 14 14 (1204224)
I0403 18:19:51.596549  6815 net.cpp:156] Memory required for data: 1218065952
I0403 18:19:51.596565  6815 layer_factory.hpp:77] Creating layer inception_4e/3x3_reduce
I0403 18:19:51.596586  6815 net.cpp:91] Creating Layer inception_4e/3x3_reduce
I0403 18:19:51.596604  6815 net.cpp:425] inception_4e/3x3_reduce <- inception_4d/output_inception_4d/output_0_split_2
I0403 18:19:51.596626  6815 net.cpp:399] inception_4e/3x3_reduce -> inception_4e/3x3_reduce
I0403 18:19:51.598785  6815 net.cpp:141] Setting up inception_4e/3x3_reduce
I0403 18:19:51.598814  6815 net.cpp:148] Top shape: 24 160 14 14 (752640)
I0403 18:19:51.598829  6815 net.cpp:156] Memory required for data: 1221076512
I0403 18:19:51.598847  6815 layer_factory.hpp:77] Creating layer inception_4e/relu_3x3_reduce
I0403 18:19:51.598868  6815 net.cpp:91] Creating Layer inception_4e/relu_3x3_reduce
I0403 18:19:51.598886  6815 net.cpp:425] inception_4e/relu_3x3_reduce <- inception_4e/3x3_reduce
I0403 18:19:51.598903  6815 net.cpp:386] inception_4e/relu_3x3_reduce -> inception_4e/3x3_reduce (in-place)
I0403 18:19:51.599092  6815 net.cpp:141] Setting up inception_4e/relu_3x3_reduce
I0403 18:19:51.599120  6815 net.cpp:148] Top shape: 24 160 14 14 (752640)
I0403 18:19:51.599138  6815 net.cpp:156] Memory required for data: 1224087072
I0403 18:19:51.599153  6815 layer_factory.hpp:77] Creating layer inception_4e/3x3
I0403 18:19:51.599174  6815 net.cpp:91] Creating Layer inception_4e/3x3
I0403 18:19:51.599189  6815 net.cpp:425] inception_4e/3x3 <- inception_4e/3x3_reduce
I0403 18:19:51.599215  6815 net.cpp:399] inception_4e/3x3 -> inception_4e/3x3
I0403 18:19:51.604305  6815 net.cpp:141] Setting up inception_4e/3x3
I0403 18:19:51.604351  6815 net.cpp:148] Top shape: 24 320 14 14 (1505280)
I0403 18:19:51.604367  6815 net.cpp:156] Memory required for data: 1230108192
I0403 18:19:51.604388  6815 layer_factory.hpp:77] Creating layer inception_4e/relu_3x3
I0403 18:19:51.604408  6815 net.cpp:91] Creating Layer inception_4e/relu_3x3
I0403 18:19:51.604423  6815 net.cpp:425] inception_4e/relu_3x3 <- inception_4e/3x3
I0403 18:19:51.604441  6815 net.cpp:386] inception_4e/relu_3x3 -> inception_4e/3x3 (in-place)
I0403 18:19:51.604781  6815 net.cpp:141] Setting up inception_4e/relu_3x3
I0403 18:19:51.604811  6815 net.cpp:148] Top shape: 24 320 14 14 (1505280)
I0403 18:19:51.604828  6815 net.cpp:156] Memory required for data: 1236129312
I0403 18:19:51.604845  6815 layer_factory.hpp:77] Creating layer inception_4e/5x5_reduce
I0403 18:19:51.604868  6815 net.cpp:91] Creating Layer inception_4e/5x5_reduce
I0403 18:19:51.604887  6815 net.cpp:425] inception_4e/5x5_reduce <- inception_4d/output_inception_4d/output_0_split_3
I0403 18:19:51.604908  6815 net.cpp:399] inception_4e/5x5_reduce -> inception_4e/5x5_reduce
I0403 18:19:51.606020  6815 net.cpp:141] Setting up inception_4e/5x5_reduce
I0403 18:19:51.606048  6815 net.cpp:148] Top shape: 24 32 14 14 (150528)
I0403 18:19:51.606063  6815 net.cpp:156] Memory required for data: 1236731424
I0403 18:19:51.606082  6815 layer_factory.hpp:77] Creating layer inception_4e/relu_5x5_reduce
I0403 18:19:51.606103  6815 net.cpp:91] Creating Layer inception_4e/relu_5x5_reduce
I0403 18:19:51.606120  6815 net.cpp:425] inception_4e/relu_5x5_reduce <- inception_4e/5x5_reduce
I0403 18:19:51.606138  6815 net.cpp:386] inception_4e/relu_5x5_reduce -> inception_4e/5x5_reduce (in-place)
I0403 18:19:51.606451  6815 net.cpp:141] Setting up inception_4e/relu_5x5_reduce
I0403 18:19:51.606478  6815 net.cpp:148] Top shape: 24 32 14 14 (150528)
I0403 18:19:51.606493  6815 net.cpp:156] Memory required for data: 1237333536
I0403 18:19:51.606509  6815 layer_factory.hpp:77] Creating layer inception_4e/5x5
I0403 18:19:51.606549  6815 net.cpp:91] Creating Layer inception_4e/5x5
I0403 18:19:51.606570  6815 net.cpp:425] inception_4e/5x5 <- inception_4e/5x5_reduce
I0403 18:19:51.606588  6815 net.cpp:399] inception_4e/5x5 -> inception_4e/5x5
I0403 18:19:51.608485  6815 net.cpp:141] Setting up inception_4e/5x5
I0403 18:19:51.608512  6815 net.cpp:148] Top shape: 24 128 14 14 (602112)
I0403 18:19:51.608528  6815 net.cpp:156] Memory required for data: 1239741984
I0403 18:19:51.608548  6815 layer_factory.hpp:77] Creating layer inception_4e/relu_5x5
I0403 18:19:51.608566  6815 net.cpp:91] Creating Layer inception_4e/relu_5x5
I0403 18:19:51.608582  6815 net.cpp:425] inception_4e/relu_5x5 <- inception_4e/5x5
I0403 18:19:51.608603  6815 net.cpp:386] inception_4e/relu_5x5 -> inception_4e/5x5 (in-place)
I0403 18:19:51.608803  6815 net.cpp:141] Setting up inception_4e/relu_5x5
I0403 18:19:51.608829  6815 net.cpp:148] Top shape: 24 128 14 14 (602112)
I0403 18:19:51.608844  6815 net.cpp:156] Memory required for data: 1242150432
I0403 18:19:51.608858  6815 layer_factory.hpp:77] Creating layer inception_4e/pool
I0403 18:19:51.608880  6815 net.cpp:91] Creating Layer inception_4e/pool
I0403 18:19:51.608897  6815 net.cpp:425] inception_4e/pool <- inception_4d/output_inception_4d/output_0_split_4
I0403 18:19:51.608916  6815 net.cpp:399] inception_4e/pool -> inception_4e/pool
I0403 18:19:51.608989  6815 net.cpp:141] Setting up inception_4e/pool
I0403 18:19:51.609012  6815 net.cpp:148] Top shape: 24 528 14 14 (2483712)
I0403 18:19:51.609027  6815 net.cpp:156] Memory required for data: 1252085280
I0403 18:19:51.609041  6815 layer_factory.hpp:77] Creating layer inception_4e/pool_proj
I0403 18:19:51.609063  6815 net.cpp:91] Creating Layer inception_4e/pool_proj
I0403 18:19:51.609081  6815 net.cpp:425] inception_4e/pool_proj <- inception_4e/pool
I0403 18:19:51.609102  6815 net.cpp:399] inception_4e/pool_proj -> inception_4e/pool_proj
I0403 18:19:51.610621  6815 net.cpp:141] Setting up inception_4e/pool_proj
I0403 18:19:51.610664  6815 net.cpp:148] Top shape: 24 128 14 14 (602112)
I0403 18:19:51.610682  6815 net.cpp:156] Memory required for data: 1254493728
I0403 18:19:51.610700  6815 layer_factory.hpp:77] Creating layer inception_4e/relu_pool_proj
I0403 18:19:51.610718  6815 net.cpp:91] Creating Layer inception_4e/relu_pool_proj
I0403 18:19:51.610733  6815 net.cpp:425] inception_4e/relu_pool_proj <- inception_4e/pool_proj
I0403 18:19:51.610754  6815 net.cpp:386] inception_4e/relu_pool_proj -> inception_4e/pool_proj (in-place)
I0403 18:19:51.611045  6815 net.cpp:141] Setting up inception_4e/relu_pool_proj
I0403 18:19:51.611074  6815 net.cpp:148] Top shape: 24 128 14 14 (602112)
I0403 18:19:51.611090  6815 net.cpp:156] Memory required for data: 1256902176
I0403 18:19:51.611105  6815 layer_factory.hpp:77] Creating layer inception_4e/output
I0403 18:19:51.611124  6815 net.cpp:91] Creating Layer inception_4e/output
I0403 18:19:51.611138  6815 net.cpp:425] inception_4e/output <- inception_4e/1x1
I0403 18:19:51.611155  6815 net.cpp:425] inception_4e/output <- inception_4e/3x3
I0403 18:19:51.611172  6815 net.cpp:425] inception_4e/output <- inception_4e/5x5
I0403 18:19:51.611188  6815 net.cpp:425] inception_4e/output <- inception_4e/pool_proj
I0403 18:19:51.611212  6815 net.cpp:399] inception_4e/output -> inception_4e/output
I0403 18:19:51.611263  6815 net.cpp:141] Setting up inception_4e/output
I0403 18:19:51.611287  6815 net.cpp:148] Top shape: 24 832 14 14 (3913728)
I0403 18:19:51.611302  6815 net.cpp:156] Memory required for data: 1272557088
I0403 18:19:51.611316  6815 layer_factory.hpp:77] Creating layer pool4/3x3_s2
I0403 18:19:51.611337  6815 net.cpp:91] Creating Layer pool4/3x3_s2
I0403 18:19:51.611354  6815 net.cpp:425] pool4/3x3_s2 <- inception_4e/output
I0403 18:19:51.611373  6815 net.cpp:399] pool4/3x3_s2 -> pool4/3x3_s2
I0403 18:19:51.611441  6815 net.cpp:141] Setting up pool4/3x3_s2
I0403 18:19:51.611464  6815 net.cpp:148] Top shape: 24 832 7 7 (978432)
I0403 18:19:51.611479  6815 net.cpp:156] Memory required for data: 1276470816
I0403 18:19:51.611495  6815 layer_factory.hpp:77] Creating layer pool4/3x3_s2_pool4/3x3_s2_0_split
I0403 18:19:51.611512  6815 net.cpp:91] Creating Layer pool4/3x3_s2_pool4/3x3_s2_0_split
I0403 18:19:51.611531  6815 net.cpp:425] pool4/3x3_s2_pool4/3x3_s2_0_split <- pool4/3x3_s2
I0403 18:19:51.611549  6815 net.cpp:399] pool4/3x3_s2_pool4/3x3_s2_0_split -> pool4/3x3_s2_pool4/3x3_s2_0_split_0
I0403 18:19:51.611569  6815 net.cpp:399] pool4/3x3_s2_pool4/3x3_s2_0_split -> pool4/3x3_s2_pool4/3x3_s2_0_split_1
I0403 18:19:51.611589  6815 net.cpp:399] pool4/3x3_s2_pool4/3x3_s2_0_split -> pool4/3x3_s2_pool4/3x3_s2_0_split_2
I0403 18:19:51.611608  6815 net.cpp:399] pool4/3x3_s2_pool4/3x3_s2_0_split -> pool4/3x3_s2_pool4/3x3_s2_0_split_3
I0403 18:19:51.611701  6815 net.cpp:141] Setting up pool4/3x3_s2_pool4/3x3_s2_0_split
I0403 18:19:51.611724  6815 net.cpp:148] Top shape: 24 832 7 7 (978432)
I0403 18:19:51.611740  6815 net.cpp:148] Top shape: 24 832 7 7 (978432)
I0403 18:19:51.611757  6815 net.cpp:148] Top shape: 24 832 7 7 (978432)
I0403 18:19:51.611773  6815 net.cpp:148] Top shape: 24 832 7 7 (978432)
I0403 18:19:51.611788  6815 net.cpp:156] Memory required for data: 1292125728
I0403 18:19:51.611801  6815 layer_factory.hpp:77] Creating layer inception_5a/1x1
I0403 18:19:51.611824  6815 net.cpp:91] Creating Layer inception_5a/1x1
I0403 18:19:51.611841  6815 net.cpp:425] inception_5a/1x1 <- pool4/3x3_s2_pool4/3x3_s2_0_split_0
I0403 18:19:51.611862  6815 net.cpp:399] inception_5a/1x1 -> inception_5a/1x1
I0403 18:19:51.614756  6815 net.cpp:141] Setting up inception_5a/1x1
I0403 18:19:51.614789  6815 net.cpp:148] Top shape: 24 256 7 7 (301056)
I0403 18:19:51.614804  6815 net.cpp:156] Memory required for data: 1293329952
I0403 18:19:51.614822  6815 layer_factory.hpp:77] Creating layer inception_5a/relu_1x1
I0403 18:19:51.614840  6815 net.cpp:91] Creating Layer inception_5a/relu_1x1
I0403 18:19:51.614856  6815 net.cpp:425] inception_5a/relu_1x1 <- inception_5a/1x1
I0403 18:19:51.614876  6815 net.cpp:386] inception_5a/relu_1x1 -> inception_5a/1x1 (in-place)
I0403 18:19:51.615216  6815 net.cpp:141] Setting up inception_5a/relu_1x1
I0403 18:19:51.615254  6815 net.cpp:148] Top shape: 24 256 7 7 (301056)
I0403 18:19:51.615270  6815 net.cpp:156] Memory required for data: 1294534176
I0403 18:19:51.615285  6815 layer_factory.hpp:77] Creating layer inception_5a/3x3_reduce
I0403 18:19:51.615309  6815 net.cpp:91] Creating Layer inception_5a/3x3_reduce
I0403 18:19:51.615326  6815 net.cpp:425] inception_5a/3x3_reduce <- pool4/3x3_s2_pool4/3x3_s2_0_split_1
I0403 18:19:51.615350  6815 net.cpp:399] inception_5a/3x3_reduce -> inception_5a/3x3_reduce
I0403 18:19:51.617796  6815 net.cpp:141] Setting up inception_5a/3x3_reduce
I0403 18:19:51.617830  6815 net.cpp:148] Top shape: 24 160 7 7 (188160)
I0403 18:19:51.617846  6815 net.cpp:156] Memory required for data: 1295286816
I0403 18:19:51.617863  6815 layer_factory.hpp:77] Creating layer inception_5a/relu_3x3_reduce
I0403 18:19:51.617882  6815 net.cpp:91] Creating Layer inception_5a/relu_3x3_reduce
I0403 18:19:51.617898  6815 net.cpp:425] inception_5a/relu_3x3_reduce <- inception_5a/3x3_reduce
I0403 18:19:51.617920  6815 net.cpp:386] inception_5a/relu_3x3_reduce -> inception_5a/3x3_reduce (in-place)
I0403 18:19:51.618105  6815 net.cpp:141] Setting up inception_5a/relu_3x3_reduce
I0403 18:19:51.618130  6815 net.cpp:148] Top shape: 24 160 7 7 (188160)
I0403 18:19:51.618144  6815 net.cpp:156] Memory required for data: 1296039456
I0403 18:19:51.618158  6815 layer_factory.hpp:77] Creating layer inception_5a/3x3
I0403 18:19:51.618180  6815 net.cpp:91] Creating Layer inception_5a/3x3
I0403 18:19:51.618198  6815 net.cpp:425] inception_5a/3x3 <- inception_5a/3x3_reduce
I0403 18:19:51.618226  6815 net.cpp:399] inception_5a/3x3 -> inception_5a/3x3
I0403 18:19:51.623170  6815 net.cpp:141] Setting up inception_5a/3x3
I0403 18:19:51.623199  6815 net.cpp:148] Top shape: 24 320 7 7 (376320)
I0403 18:19:51.623220  6815 net.cpp:156] Memory required for data: 1297544736
I0403 18:19:51.623239  6815 layer_factory.hpp:77] Creating layer inception_5a/relu_3x3
I0403 18:19:51.623260  6815 net.cpp:91] Creating Layer inception_5a/relu_3x3
I0403 18:19:51.623277  6815 net.cpp:425] inception_5a/relu_3x3 <- inception_5a/3x3
I0403 18:19:51.623293  6815 net.cpp:386] inception_5a/relu_3x3 -> inception_5a/3x3 (in-place)
I0403 18:19:51.623589  6815 net.cpp:141] Setting up inception_5a/relu_3x3
I0403 18:19:51.623615  6815 net.cpp:148] Top shape: 24 320 7 7 (376320)
I0403 18:19:51.623630  6815 net.cpp:156] Memory required for data: 1299050016
I0403 18:19:51.623644  6815 layer_factory.hpp:77] Creating layer inception_5a/5x5_reduce
I0403 18:19:51.623668  6815 net.cpp:91] Creating Layer inception_5a/5x5_reduce
I0403 18:19:51.623687  6815 net.cpp:425] inception_5a/5x5_reduce <- pool4/3x3_s2_pool4/3x3_s2_0_split_2
I0403 18:19:51.623708  6815 net.cpp:399] inception_5a/5x5_reduce -> inception_5a/5x5_reduce
I0403 18:19:51.624891  6815 net.cpp:141] Setting up inception_5a/5x5_reduce
I0403 18:19:51.624920  6815 net.cpp:148] Top shape: 24 32 7 7 (37632)
I0403 18:19:51.624935  6815 net.cpp:156] Memory required for data: 1299200544
I0403 18:19:51.624955  6815 layer_factory.hpp:77] Creating layer inception_5a/relu_5x5_reduce
I0403 18:19:51.624976  6815 net.cpp:91] Creating Layer inception_5a/relu_5x5_reduce
I0403 18:19:51.624994  6815 net.cpp:425] inception_5a/relu_5x5_reduce <- inception_5a/5x5_reduce
I0403 18:19:51.625012  6815 net.cpp:386] inception_5a/relu_5x5_reduce -> inception_5a/5x5_reduce (in-place)
I0403 18:19:51.625324  6815 net.cpp:141] Setting up inception_5a/relu_5x5_reduce
I0403 18:19:51.625350  6815 net.cpp:148] Top shape: 24 32 7 7 (37632)
I0403 18:19:51.625366  6815 net.cpp:156] Memory required for data: 1299351072
I0403 18:19:51.625381  6815 layer_factory.hpp:77] Creating layer inception_5a/5x5
I0403 18:19:51.625404  6815 net.cpp:91] Creating Layer inception_5a/5x5
I0403 18:19:51.625422  6815 net.cpp:425] inception_5a/5x5 <- inception_5a/5x5_reduce
I0403 18:19:51.625443  6815 net.cpp:399] inception_5a/5x5 -> inception_5a/5x5
I0403 18:19:51.627156  6815 net.cpp:141] Setting up inception_5a/5x5
I0403 18:19:51.627193  6815 net.cpp:148] Top shape: 24 128 7 7 (150528)
I0403 18:19:51.627218  6815 net.cpp:156] Memory required for data: 1299953184
I0403 18:19:51.627250  6815 layer_factory.hpp:77] Creating layer inception_5a/relu_5x5
I0403 18:19:51.627271  6815 net.cpp:91] Creating Layer inception_5a/relu_5x5
I0403 18:19:51.627290  6815 net.cpp:425] inception_5a/relu_5x5 <- inception_5a/5x5
I0403 18:19:51.627307  6815 net.cpp:386] inception_5a/relu_5x5 -> inception_5a/5x5 (in-place)
I0403 18:19:51.627504  6815 net.cpp:141] Setting up inception_5a/relu_5x5
I0403 18:19:51.627529  6815 net.cpp:148] Top shape: 24 128 7 7 (150528)
I0403 18:19:51.627544  6815 net.cpp:156] Memory required for data: 1300555296
I0403 18:19:51.627559  6815 layer_factory.hpp:77] Creating layer inception_5a/pool
I0403 18:19:51.627579  6815 net.cpp:91] Creating Layer inception_5a/pool
I0403 18:19:51.627596  6815 net.cpp:425] inception_5a/pool <- pool4/3x3_s2_pool4/3x3_s2_0_split_3
I0403 18:19:51.627615  6815 net.cpp:399] inception_5a/pool -> inception_5a/pool
I0403 18:19:51.627688  6815 net.cpp:141] Setting up inception_5a/pool
I0403 18:19:51.627713  6815 net.cpp:148] Top shape: 24 832 7 7 (978432)
I0403 18:19:51.627727  6815 net.cpp:156] Memory required for data: 1304469024
I0403 18:19:51.627742  6815 layer_factory.hpp:77] Creating layer inception_5a/pool_proj
I0403 18:19:51.627764  6815 net.cpp:91] Creating Layer inception_5a/pool_proj
I0403 18:19:51.627782  6815 net.cpp:425] inception_5a/pool_proj <- inception_5a/pool
I0403 18:19:51.627804  6815 net.cpp:399] inception_5a/pool_proj -> inception_5a/pool_proj
I0403 18:19:51.630123  6815 net.cpp:141] Setting up inception_5a/pool_proj
I0403 18:19:51.630152  6815 net.cpp:148] Top shape: 24 128 7 7 (150528)
I0403 18:19:51.630168  6815 net.cpp:156] Memory required for data: 1305071136
I0403 18:19:51.630187  6815 layer_factory.hpp:77] Creating layer inception_5a/relu_pool_proj
I0403 18:19:51.630205  6815 net.cpp:91] Creating Layer inception_5a/relu_pool_proj
I0403 18:19:51.630228  6815 net.cpp:425] inception_5a/relu_pool_proj <- inception_5a/pool_proj
I0403 18:19:51.630249  6815 net.cpp:386] inception_5a/relu_pool_proj -> inception_5a/pool_proj (in-place)
I0403 18:19:51.630545  6815 net.cpp:141] Setting up inception_5a/relu_pool_proj
I0403 18:19:51.630571  6815 net.cpp:148] Top shape: 24 128 7 7 (150528)
I0403 18:19:51.630586  6815 net.cpp:156] Memory required for data: 1305673248
I0403 18:19:51.630601  6815 layer_factory.hpp:77] Creating layer inception_5a/output
I0403 18:19:51.630620  6815 net.cpp:91] Creating Layer inception_5a/output
I0403 18:19:51.630636  6815 net.cpp:425] inception_5a/output <- inception_5a/1x1
I0403 18:19:51.630653  6815 net.cpp:425] inception_5a/output <- inception_5a/3x3
I0403 18:19:51.630671  6815 net.cpp:425] inception_5a/output <- inception_5a/5x5
I0403 18:19:51.630686  6815 net.cpp:425] inception_5a/output <- inception_5a/pool_proj
I0403 18:19:51.630705  6815 net.cpp:399] inception_5a/output -> inception_5a/output
I0403 18:19:51.630755  6815 net.cpp:141] Setting up inception_5a/output
I0403 18:19:51.630784  6815 net.cpp:148] Top shape: 24 832 7 7 (978432)
I0403 18:19:51.630800  6815 net.cpp:156] Memory required for data: 1309586976
I0403 18:19:51.630816  6815 layer_factory.hpp:77] Creating layer inception_5a/output_inception_5a/output_0_split
I0403 18:19:51.630833  6815 net.cpp:91] Creating Layer inception_5a/output_inception_5a/output_0_split
I0403 18:19:51.630849  6815 net.cpp:425] inception_5a/output_inception_5a/output_0_split <- inception_5a/output
I0403 18:19:51.630867  6815 net.cpp:399] inception_5a/output_inception_5a/output_0_split -> inception_5a/output_inception_5a/output_0_split_0
I0403 18:19:51.630889  6815 net.cpp:399] inception_5a/output_inception_5a/output_0_split -> inception_5a/output_inception_5a/output_0_split_1
I0403 18:19:51.630910  6815 net.cpp:399] inception_5a/output_inception_5a/output_0_split -> inception_5a/output_inception_5a/output_0_split_2
I0403 18:19:51.630934  6815 net.cpp:399] inception_5a/output_inception_5a/output_0_split -> inception_5a/output_inception_5a/output_0_split_3
I0403 18:19:51.631049  6815 net.cpp:141] Setting up inception_5a/output_inception_5a/output_0_split
I0403 18:19:51.631073  6815 net.cpp:148] Top shape: 24 832 7 7 (978432)
I0403 18:19:51.631089  6815 net.cpp:148] Top shape: 24 832 7 7 (978432)
I0403 18:19:51.631105  6815 net.cpp:148] Top shape: 24 832 7 7 (978432)
I0403 18:19:51.631121  6815 net.cpp:148] Top shape: 24 832 7 7 (978432)
I0403 18:19:51.631136  6815 net.cpp:156] Memory required for data: 1325241888
I0403 18:19:51.631151  6815 layer_factory.hpp:77] Creating layer inception_5b/1x1
I0403 18:19:51.631173  6815 net.cpp:91] Creating Layer inception_5b/1x1
I0403 18:19:51.631191  6815 net.cpp:425] inception_5b/1x1 <- inception_5a/output_inception_5a/output_0_split_0
I0403 18:19:51.631217  6815 net.cpp:399] inception_5b/1x1 -> inception_5b/1x1
I0403 18:19:51.635021  6815 net.cpp:141] Setting up inception_5b/1x1
I0403 18:19:51.635053  6815 net.cpp:148] Top shape: 24 384 7 7 (451584)
I0403 18:19:51.635069  6815 net.cpp:156] Memory required for data: 1327048224
I0403 18:19:51.635088  6815 layer_factory.hpp:77] Creating layer inception_5b/relu_1x1
I0403 18:19:51.635107  6815 net.cpp:91] Creating Layer inception_5b/relu_1x1
I0403 18:19:51.635124  6815 net.cpp:425] inception_5b/relu_1x1 <- inception_5b/1x1
I0403 18:19:51.635143  6815 net.cpp:386] inception_5b/relu_1x1 -> inception_5b/1x1 (in-place)
I0403 18:19:51.635455  6815 net.cpp:141] Setting up inception_5b/relu_1x1
I0403 18:19:51.635484  6815 net.cpp:148] Top shape: 24 384 7 7 (451584)
I0403 18:19:51.635500  6815 net.cpp:156] Memory required for data: 1328854560
I0403 18:19:51.635516  6815 layer_factory.hpp:77] Creating layer inception_5b/3x3_reduce
I0403 18:19:51.635540  6815 net.cpp:91] Creating Layer inception_5b/3x3_reduce
I0403 18:19:51.635557  6815 net.cpp:425] inception_5b/3x3_reduce <- inception_5a/output_inception_5a/output_0_split_1
I0403 18:19:51.635578  6815 net.cpp:399] inception_5b/3x3_reduce -> inception_5b/3x3_reduce
I0403 18:19:51.638285  6815 net.cpp:141] Setting up inception_5b/3x3_reduce
I0403 18:19:51.638316  6815 net.cpp:148] Top shape: 24 192 7 7 (225792)
I0403 18:19:51.638331  6815 net.cpp:156] Memory required for data: 1329757728
I0403 18:19:51.638351  6815 layer_factory.hpp:77] Creating layer inception_5b/relu_3x3_reduce
I0403 18:19:51.638370  6815 net.cpp:91] Creating Layer inception_5b/relu_3x3_reduce
I0403 18:19:51.638386  6815 net.cpp:425] inception_5b/relu_3x3_reduce <- inception_5b/3x3_reduce
I0403 18:19:51.638406  6815 net.cpp:386] inception_5b/relu_3x3_reduce -> inception_5b/3x3_reduce (in-place)
I0403 18:19:51.638599  6815 net.cpp:141] Setting up inception_5b/relu_3x3_reduce
I0403 18:19:51.638625  6815 net.cpp:148] Top shape: 24 192 7 7 (225792)
I0403 18:19:51.638639  6815 net.cpp:156] Memory required for data: 1330660896
I0403 18:19:51.638653  6815 layer_factory.hpp:77] Creating layer inception_5b/3x3
I0403 18:19:51.638676  6815 net.cpp:91] Creating Layer inception_5b/3x3
I0403 18:19:51.638695  6815 net.cpp:425] inception_5b/3x3 <- inception_5b/3x3_reduce
I0403 18:19:51.638717  6815 net.cpp:399] inception_5b/3x3 -> inception_5b/3x3
I0403 18:19:51.645575  6815 net.cpp:141] Setting up inception_5b/3x3
I0403 18:19:51.645603  6815 net.cpp:148] Top shape: 24 384 7 7 (451584)
I0403 18:19:51.645619  6815 net.cpp:156] Memory required for data: 1332467232
I0403 18:19:51.645638  6815 layer_factory.hpp:77] Creating layer inception_5b/relu_3x3
I0403 18:19:51.645656  6815 net.cpp:91] Creating Layer inception_5b/relu_3x3
I0403 18:19:51.645673  6815 net.cpp:425] inception_5b/relu_3x3 <- inception_5b/3x3
I0403 18:19:51.645694  6815 net.cpp:386] inception_5b/relu_3x3 -> inception_5b/3x3 (in-place)
I0403 18:19:51.645985  6815 net.cpp:141] Setting up inception_5b/relu_3x3
I0403 18:19:51.646011  6815 net.cpp:148] Top shape: 24 384 7 7 (451584)
I0403 18:19:51.646026  6815 net.cpp:156] Memory required for data: 1334273568
I0403 18:19:51.646041  6815 layer_factory.hpp:77] Creating layer inception_5b/5x5_reduce
I0403 18:19:51.646078  6815 net.cpp:91] Creating Layer inception_5b/5x5_reduce
I0403 18:19:51.646097  6815 net.cpp:425] inception_5b/5x5_reduce <- inception_5a/output_inception_5a/output_0_split_2
I0403 18:19:51.646121  6815 net.cpp:399] inception_5b/5x5_reduce -> inception_5b/5x5_reduce
I0403 18:19:51.647367  6815 net.cpp:141] Setting up inception_5b/5x5_reduce
I0403 18:19:51.647395  6815 net.cpp:148] Top shape: 24 48 7 7 (56448)
I0403 18:19:51.647411  6815 net.cpp:156] Memory required for data: 1334499360
I0403 18:19:51.647429  6815 layer_factory.hpp:77] Creating layer inception_5b/relu_5x5_reduce
I0403 18:19:51.647446  6815 net.cpp:91] Creating Layer inception_5b/relu_5x5_reduce
I0403 18:19:51.647462  6815 net.cpp:425] inception_5b/relu_5x5_reduce <- inception_5b/5x5_reduce
I0403 18:19:51.647482  6815 net.cpp:386] inception_5b/relu_5x5_reduce -> inception_5b/5x5_reduce (in-place)
I0403 18:19:51.647848  6815 net.cpp:141] Setting up inception_5b/relu_5x5_reduce
I0403 18:19:51.647873  6815 net.cpp:148] Top shape: 24 48 7 7 (56448)
I0403 18:19:51.647888  6815 net.cpp:156] Memory required for data: 1334725152
I0403 18:19:51.647903  6815 layer_factory.hpp:77] Creating layer inception_5b/5x5
I0403 18:19:51.647924  6815 net.cpp:91] Creating Layer inception_5b/5x5
I0403 18:19:51.647941  6815 net.cpp:425] inception_5b/5x5 <- inception_5b/5x5_reduce
I0403 18:19:51.647959  6815 net.cpp:399] inception_5b/5x5 -> inception_5b/5x5
I0403 18:19:51.649955  6815 net.cpp:141] Setting up inception_5b/5x5
I0403 18:19:51.649981  6815 net.cpp:148] Top shape: 24 128 7 7 (150528)
I0403 18:19:51.649996  6815 net.cpp:156] Memory required for data: 1335327264
I0403 18:19:51.650013  6815 layer_factory.hpp:77] Creating layer inception_5b/relu_5x5
I0403 18:19:51.650032  6815 net.cpp:91] Creating Layer inception_5b/relu_5x5
I0403 18:19:51.650048  6815 net.cpp:425] inception_5b/relu_5x5 <- inception_5b/5x5
I0403 18:19:51.650068  6815 net.cpp:386] inception_5b/relu_5x5 -> inception_5b/5x5 (in-place)
I0403 18:19:51.650265  6815 net.cpp:141] Setting up inception_5b/relu_5x5
I0403 18:19:51.650291  6815 net.cpp:148] Top shape: 24 128 7 7 (150528)
I0403 18:19:51.650306  6815 net.cpp:156] Memory required for data: 1335929376
I0403 18:19:51.650321  6815 layer_factory.hpp:77] Creating layer inception_5b/pool
I0403 18:19:51.650341  6815 net.cpp:91] Creating Layer inception_5b/pool
I0403 18:19:51.650358  6815 net.cpp:425] inception_5b/pool <- inception_5a/output_inception_5a/output_0_split_3
I0403 18:19:51.650377  6815 net.cpp:399] inception_5b/pool -> inception_5b/pool
I0403 18:19:51.650449  6815 net.cpp:141] Setting up inception_5b/pool
I0403 18:19:51.650471  6815 net.cpp:148] Top shape: 24 832 7 7 (978432)
I0403 18:19:51.650486  6815 net.cpp:156] Memory required for data: 1339843104
I0403 18:19:51.650501  6815 layer_factory.hpp:77] Creating layer inception_5b/pool_proj
I0403 18:19:51.650522  6815 net.cpp:91] Creating Layer inception_5b/pool_proj
I0403 18:19:51.650538  6815 net.cpp:425] inception_5b/pool_proj <- inception_5b/pool
I0403 18:19:51.650560  6815 net.cpp:399] inception_5b/pool_proj -> inception_5b/pool_proj
I0403 18:19:51.652845  6815 net.cpp:141] Setting up inception_5b/pool_proj
I0403 18:19:51.652874  6815 net.cpp:148] Top shape: 24 128 7 7 (150528)
I0403 18:19:51.652890  6815 net.cpp:156] Memory required for data: 1340445216
I0403 18:19:51.652909  6815 layer_factory.hpp:77] Creating layer inception_5b/relu_pool_proj
I0403 18:19:51.652926  6815 net.cpp:91] Creating Layer inception_5b/relu_pool_proj
I0403 18:19:51.652942  6815 net.cpp:425] inception_5b/relu_pool_proj <- inception_5b/pool_proj
I0403 18:19:51.652962  6815 net.cpp:386] inception_5b/relu_pool_proj -> inception_5b/pool_proj (in-place)
I0403 18:19:51.653262  6815 net.cpp:141] Setting up inception_5b/relu_pool_proj
I0403 18:19:51.653288  6815 net.cpp:148] Top shape: 24 128 7 7 (150528)
I0403 18:19:51.653303  6815 net.cpp:156] Memory required for data: 1341047328
I0403 18:19:51.653318  6815 layer_factory.hpp:77] Creating layer inception_5b/output
I0403 18:19:51.653336  6815 net.cpp:91] Creating Layer inception_5b/output
I0403 18:19:51.653365  6815 net.cpp:425] inception_5b/output <- inception_5b/1x1
I0403 18:19:51.653384  6815 net.cpp:425] inception_5b/output <- inception_5b/3x3
I0403 18:19:51.653400  6815 net.cpp:425] inception_5b/output <- inception_5b/5x5
I0403 18:19:51.653415  6815 net.cpp:425] inception_5b/output <- inception_5b/pool_proj
I0403 18:19:51.653436  6815 net.cpp:399] inception_5b/output -> inception_5b/output
I0403 18:19:51.653487  6815 net.cpp:141] Setting up inception_5b/output
I0403 18:19:51.653511  6815 net.cpp:148] Top shape: 24 1024 7 7 (1204224)
I0403 18:19:51.653524  6815 net.cpp:156] Memory required for data: 1345864224
I0403 18:19:51.653539  6815 layer_factory.hpp:77] Creating layer pool5/7x7_s1
I0403 18:19:51.653559  6815 net.cpp:91] Creating Layer pool5/7x7_s1
I0403 18:19:51.653576  6815 net.cpp:425] pool5/7x7_s1 <- inception_5b/output
I0403 18:19:51.653597  6815 net.cpp:399] pool5/7x7_s1 -> pool5/7x7_s1
I0403 18:19:51.653811  6815 net.cpp:141] Setting up pool5/7x7_s1
I0403 18:19:51.653836  6815 net.cpp:148] Top shape: 24 1024 1 1 (24576)
I0403 18:19:51.653851  6815 net.cpp:156] Memory required for data: 1345962528
I0403 18:19:51.653866  6815 layer_factory.hpp:77] Creating layer pool5/drop_7x7_s1
I0403 18:19:51.653883  6815 net.cpp:91] Creating Layer pool5/drop_7x7_s1
I0403 18:19:51.653899  6815 net.cpp:425] pool5/drop_7x7_s1 <- pool5/7x7_s1
I0403 18:19:51.653918  6815 net.cpp:386] pool5/drop_7x7_s1 -> pool5/7x7_s1 (in-place)
I0403 18:19:51.653966  6815 net.cpp:141] Setting up pool5/drop_7x7_s1
I0403 18:19:51.653991  6815 net.cpp:148] Top shape: 24 1024 1 1 (24576)
I0403 18:19:51.654006  6815 net.cpp:156] Memory required for data: 1346060832
I0403 18:19:51.654021  6815 layer_factory.hpp:77] Creating layer loss3/classifier_plantvillage
I0403 18:19:51.654038  6815 net.cpp:91] Creating Layer loss3/classifier_plantvillage
I0403 18:19:51.654053  6815 net.cpp:425] loss3/classifier_plantvillage <- pool5/7x7_s1
I0403 18:19:51.654075  6815 net.cpp:399] loss3/classifier_plantvillage -> loss3/classifier_plantvillage
I0403 18:19:51.654494  6815 net.cpp:141] Setting up loss3/classifier_plantvillage
I0403 18:19:51.654521  6815 net.cpp:148] Top shape: 24 38 (912)
I0403 18:19:51.654537  6815 net.cpp:156] Memory required for data: 1346064480
I0403 18:19:51.654556  6815 layer_factory.hpp:77] Creating layer loss3/classifier_plantvillage_loss3/classifier_plantvillage_0_split
I0403 18:19:51.654574  6815 net.cpp:91] Creating Layer loss3/classifier_plantvillage_loss3/classifier_plantvillage_0_split
I0403 18:19:51.654589  6815 net.cpp:425] loss3/classifier_plantvillage_loss3/classifier_plantvillage_0_split <- loss3/classifier_plantvillage
I0403 18:19:51.654608  6815 net.cpp:399] loss3/classifier_plantvillage_loss3/classifier_plantvillage_0_split -> loss3/classifier_plantvillage_loss3/classifier_plantvillage_0_split_0
I0403 18:19:51.654628  6815 net.cpp:399] loss3/classifier_plantvillage_loss3/classifier_plantvillage_0_split -> loss3/classifier_plantvillage_loss3/classifier_plantvillage_0_split_1
I0403 18:19:51.654650  6815 net.cpp:399] loss3/classifier_plantvillage_loss3/classifier_plantvillage_0_split -> loss3/classifier_plantvillage_loss3/classifier_plantvillage_0_split_2
I0403 18:19:51.654671  6815 net.cpp:399] loss3/classifier_plantvillage_loss3/classifier_plantvillage_0_split -> loss3/classifier_plantvillage_loss3/classifier_plantvillage_0_split_3
I0403 18:19:51.654770  6815 net.cpp:141] Setting up loss3/classifier_plantvillage_loss3/classifier_plantvillage_0_split
I0403 18:19:51.654793  6815 net.cpp:148] Top shape: 24 38 (912)
I0403 18:19:51.654808  6815 net.cpp:148] Top shape: 24 38 (912)
I0403 18:19:51.654824  6815 net.cpp:148] Top shape: 24 38 (912)
I0403 18:19:51.654839  6815 net.cpp:148] Top shape: 24 38 (912)
I0403 18:19:51.654853  6815 net.cpp:156] Memory required for data: 1346079072
I0403 18:19:51.654867  6815 layer_factory.hpp:77] Creating layer loss1/loss
I0403 18:19:51.654891  6815 net.cpp:91] Creating Layer loss1/loss
I0403 18:19:51.654908  6815 net.cpp:425] loss1/loss <- loss1/classifier_plantvillage_loss1/classifier_plantvillage_0_split_0
I0403 18:19:51.654938  6815 net.cpp:425] loss1/loss <- label_data_1_split_0
…
