…
I0403 18:39:12.069763  7220 net.cpp:313] The NetState phase (1) differed from the phase (0) specified by a rule in layer data
I0403 18:39:12.070979  7220 net.cpp:49] Initializing net from parameters: 
state {
  phase: TEST
}
layer {
  name: "data"
  type: "Data"
  top: "data"
  top: "label"
  include {
    phase: TEST
  }
  transform_param {
    mirror: false
    crop_size: 224
    mean_file: "/home/mohanty/data/final_dataset/lmdb/segmented-50-50/mean.binaryproto"
  }
  data_param {
    source: "/home/mohanty/data/final_dataset/lmdb/segmented-50-50/test_db"
    batch_size: 24
    backend: LMDB
  }
}
layer {
  name: "conv1/7x7_s2"
  type: "Convolution"
  bottom: "data"
  top: "conv1/7x7_s2"
  param {
    lr_mult: 1
    decay_mult: 1
  }
  param {
    lr_mult: 2
    decay_mult: 0
  }
  convolution_param {
    num_output: 64
    pad: 3
    kernel_size: 7
    stride: 2
    weight_filler {
      type: "xavier"
      std: 0.1
    }
    bias_filler {
      type: "constant"
      value: 0.2
    }
  }
}
layer {
  name: "conv1/relu_7x7"
  type: "ReLU"
  bottom: "conv1/7x7_s2"
  top: "conv1/7x7_s2"
}
layer {
  name: "pool1/3x3_s2"
  type: "Pooling"
  bottom: "conv1/7x7_s2"
  top: "pool1/3x3_s2"
  pooling_param {
    pool: MAX
    kernel_size: 3
    stride: 2
  }
}
layer {
  name: "pool1/norm1"
  type: "LRN"
  bottom: "pool1/3x3_s2"
  top: "pool1/norm1"
  lrn_param {
    local_size: 5
    alpha: 0.0001
    beta: 0.75
  }
}
layer {
  name: "conv2/3x3_reduce"
  type: "Convolution"
  bottom: "pool1/norm1"
  top: "conv2/3x3_reduce"
  param {
    lr_mult: 1
    decay_mult: 1
  }
  param {
    lr_mult: 2
    decay_mult: 0
  }
  convolution_param {
    num_output: 64
    kernel_size: 1
    weight_filler {
      type: "xavier"
      std: 0.1
    }
    bias_filler {
      type: "constant"
      value: 0.2
    }
  }
}
layer {
  name: "conv2/relu_3x3_reduce"
  type: "ReLU"
  bottom: "conv2/3x3_reduce"
  top: "conv2/3x3_reduce"
}
layer {
  name: "conv2/3x3"
  type: "Convolution"
  bottom: "conv2/3x3_reduce"
  top: "conv2/3x3"
  param {
    lr_mult: 1
    decay_mult: 1
  }
  param {
    lr_mult: 2
    decay_mult: 0
  }
  convolution_param {
    num_output: 192
    pad: 1
    kernel_size: 3
    weight_filler {
      type: "xavier"
      std: 0.03
    }
    bias_filler {
      type: "constant"
      value: 0.2
    }
  }
}
layer {
  name: "conv2/relu_3x3"
  type: "ReLU"
  bottom: "conv2/3x3"
  top: "conv2/3x3"
}
layer {
  name: "conv2/norm2"
  type: "LRN"
  bottom: "conv2/3x3"
  top: "conv2/norm2"
  lrn_param {
    local_size: 5
    alpha: 0.0001
    beta: 0.75
  }
}
layer {
  name: "pool2/3x3_s2"
  type: "Pooling"
  bottom: "conv2/norm2"
  top: "pool2/3x3_s2"
  pooling_param {
    pool: MAX
    kernel_size: 3
    stride: 2
  }
}
layer {
  name: "inception_3a/1x1"
  type: "Convolution"
  bottom: "pool2/3x3_s2"
  top: "inception_3a/1x1"
  param {
    lr_mult: 1
    decay_mult: 1
  }
  param {
    lr_mult: 2
    decay_mult: 0
  }
  convolution_param {
    num_output: 64
    kernel_size: 1
    weight_filler {
      type: "xavier"
      std: 0.03
    }
    bias_filler {
      type: "constant"
      value: 0.2
    }
  }
}
layer {
  name: "inception_3a/relu_1x1"
  type: "ReLU"
  bottom: "inception_3a/1x1"
  top: "inception_3a/1x1"
}
layer {
  name: "inception_3a/3x3_reduce"
  type: "Convolution"
  bottom: "pool2/3x3_s2"
  top: "inception_3a/3x3_reduce"
  param {
    lr_mult: 1
    decay_mult: 1
  }
  param {
    lr_mult: 2
    decay_mult: 0
  }
  convolution_param {
    num_output: 96
    kernel_size: 1
    weight_filler {
      type: "xavier"
      std: 0.09
    }
    bias_filler {
      type: "constant"
      value: 0.2
    }
  }
}
layer {
  name: "inception_3a/relu_3x3_reduce"
  type: "ReLU"
  bottom: "inception_3a/3x3_reduce"
  top: "inception_3a/3x3_reduce"
}
layer {
  name: "inception_3a/3x3"
  type: "Convolution"
  bottom: "inception_3a/3x3_reduce"
  top: "inception_3a/3x3"
  param {
    lr_mult: 1
    decay_mult: 1
  }
  param {
    lr_mult: 2
    decay_mult: 0
  }
  convolution_param {
    num_output: 128
    pad: 1
    kernel_size: 3
    weight_filler {
      type: "xavier"
      std: 0.03
    }
    bias_filler {
      type: "constant"
      value: 0.2
    }
  }
}
layer {
  name: "inception_3a/relu_3x3"
  type: "ReLU"
  bottom: "inception_3a/3x3"
  top: "inception_3a/3x3"
}
layer {
  name: "inception_3a/5x5_reduce"
  type: "Convolution"
  bottom: "pool2/3x3_s2"
  top: "inception_3a/5x5_reduce"
  param {
    lr_mult: 1
    decay_mult: 1
  }
  param {
    lr_mult: 2
    decay_mult: 0
  }
  convolution_param {
    num_output: 16
    kernel_size: 1
    weight_filler {
      type: "xavier"
      std: 0.2
    }
    bias_filler {
      type: "constant"
      value: 0.2
    }
  }
}
layer {
  name: "inception_3a/relu_5x5_reduce"
  type: "ReLU"
  bottom: "inception_3a/5x5_reduce"
  top: "inception_3a/5x5_reduce"
}
layer {
  name: "inception_3a/5x5"
  type: "Convolution"
  bottom: "inception_3a/5x5_reduce"
  top: "inception_3a/5x5"
  param {
    lr_mult: 1
    decay_mult: 1
  }
  param {
    lr_mult: 2
    decay_mult: 0
  }
  convolution_param {
    num_output: 32
    pad: 2
    kernel_size: 5
    weight_filler {
      type: "xavier"
      std: 0.03
    }
    bias_filler {
      type: "constant"
      value: 0.2
    }
  }
}
layer {
  name: "inception_3a/relu_5x5"
  type: "ReLU"
  bottom: "inception_3a/5x5"
  top: "inception_3a/5x5"
}
layer {
  name: "inception_3a/pool"
  type: "Pooling"
  bottom: "pool2/3x3_s2"
  top: "inception_3a/pool"
  pooling_param {
    pool: MAX
    kernel_size: 3
    stride: 1
    pad: 1
  }
}
layer {
  name: "inception_3a/pool_proj"
  type: "Convolution"
  bottom: "inception_3a/pool"
  top: "inception_3a/pool_proj"
  param {
    lr_mult: 1
    decay_mult: 1
  }
  param {
    lr_mult: 2
    decay_mult: 0
  }
  convolution_param {
    num_output: 32
    kernel_size: 1
    weight_filler {
      type: "xavier"
      std: 0.1
    }
    bias_filler {
      type: "constant"
      value: 0.2
    }
  }
}
layer {
  name: "inception_3a/relu_pool_proj"
  type: "ReLU"
  bottom: "inception_3a/pool_proj"
  top: "inception_3a/pool_proj"
}
layer {
  name: "inception_3a/output"
  type: "Concat"
  bottom: "inception_3a/1x1"
  bottom: "inception_3a/3x3"
  bottom: "inception_3a/5x5"
  bottom: "inception_3a/pool_proj"
  top: "inception_3a/output"
}
layer {
  name: "inception_3b/1x1"
  type: "Convolution"
  bottom: "inception_3a/output"
  top: "inception_3b/1x1"
  param {
    lr_mult: 1
    decay_mult: 1
  }
  param {
    lr_mult: 2
    decay_mult: 0
  }
  convolution_param {
    num_output: 128
    kernel_size: 1
    weight_filler {
      type: "xavier"
      std: 0.03
    }
    bias_filler {
      type: "constant"
      value: 0.2
    }
  }
}
layer {
  name: "inception_3b/relu_1x1"
  type: "ReLU"
  bottom: "inception_3b/1x1"
  top: "inception_3b/1x1"
}
layer {
  name: "inception_3b/3x3_reduce"
  type: "Convolution"
  bottom: "inception_3a/output"
  top: "inception_3b/3x3_reduce"
  param {
    lr_mult: 1
    decay_mult: 1
  }
  param {
    lr_mult: 2
    decay_mult: 0
  }
  convolution_param {
    num_output: 128
    kernel_size: 1
    weight_filler {
      type: "xavier"
      std: 0.09
    }
    bias_filler {
      type: "constant"
      value: 0.2
    }
  }
}
layer {
  name: "inception_3b/relu_3x3_reduce"
  type: "ReLU"
  bottom: "inception_3b/3x3_reduce"
  top: "inception_3b/3x3_reduce"
}
layer {
  name: "inception_3b/3x3"
  type: "Convolution"
  bottom: "inception_3b/3x3_reduce"
  top: "inception_3b/3x3"
  param {
    lr_mult: 1
    decay_mult: 1
  }
  param {
    lr_mult: 2
    decay_mult: 0
  }
  convolution_param {
    num_output: 192
    pad: 1
    kernel_size: 3
    weight_filler {
      type: "xavier"
      std: 0.03
    }
    bias_filler {
      type: "constant"
      value: 0.2
    }
  }
}
layer {
  name: "inception_3b/relu_3x3"
  type: "ReLU"
  bottom: "inception_3b/3x3"
  top: "inception_3b/3x3"
}
layer {
  name: "inception_3b/5x5_reduce"
  type: "Convolution"
  bottom: "inception_3a/output"
  top: "inception_3b/5x5_reduce"
  param {
    lr_mult: 1
    decay_mult: 1
  }
  param {
    lr_mult: 2
    decay_mult: 0
  }
  convolution_param {
    num_output: 32
    kernel_size: 1
    weight_filler {
      type: "xavier"
      std: 0.2
    }
    bias_filler {
      type: "constant"
      value: 0.2
    }
  }
}
layer {
  name: "inception_3b/relu_5x5_reduce"
  type: "ReLU"
  bottom: "inception_3b/5x5_reduce"
  top: "inception_3b/5x5_reduce"
}
layer {
  name: "inception_3b/5x5"
  type: "Convolution"
  bottom: "inception_3b/5x5_reduce"
  top: "inception_3b/5x5"
  param {
    lr_mult: 1
    decay_mult: 1
  }
  param {
    lr_mult: 2
    decay_mult: 0
  }
  convolution_param {
    num_output: 96
    pad: 2
    kernel_size: 5
    weight_filler {
      type: "xavier"
      std: 0.03
    }
    bias_filler {
      type: "constant"
      value: 0.2
    }
  }
}
layer {
  name: "inception_3b/relu_5x5"
  type: "ReLU"
  bottom: "inception_3b/5x5"
  top: "inception_3b/5x5"
}
layer {
  name: "inception_3b/pool"
  type: "Pooling"
  bottom: "inception_3a/output"
  top: "inception_3b/pool"
  pooling_param {
    pool: MAX
    kernel_size: 3
    stride: 1
    pad: 1
  }
}
layer {
  name: "inception_3b/pool_proj"
  type: "Convolution"
  bottom: "inception_3b/pool"
  top: "inception_3b/pool_proj"
  param {
    lr_mult: 1
    decay_mult: 1
  }
  param {
    lr_mult: 2
    decay_mult: 0
  }
  convolution_param {
    num_output: 64
    kernel_size: 1
    weight_filler {
      type: "xavier"
      std: 0.1
    }
    bias_filler {
      type: "constant"
      value: 0.2
    }
  }
}
layer {
  name: "inception_3b/relu_pool_proj"
  type: "ReLU"
  bottom: "inception_3b/pool_proj"
  top: "inception_3b/pool_proj"
}
layer {
  name: "inception_3b/output"
  type: "Concat"
  bottom: "inception_3b/1x1"
  bottom: "inception_3b/3x3"
  bottom: "inception_3b/5x5"
  bottom: "inception_3b/pool_proj"
  top: "inception_3b/output"
}
layer {
  name: "pool3/3x3_s2"
  type: "Pooling"
  bottom: "inception_3b/output"
  top: "pool3/3x3_s2"
  pooling_param {
    pool: MAX
    kernel_size: 3
    stride: 2
  }
}
layer {
  name: "inception_4a/1x1"
  type: "Convolution"
  bottom: "pool3/3x3_s2"
  top: "inception_4a/1x1"
  param {
    lr_mult: 1
    decay_mult: 1
  }
  param {
    lr_mult: 2
    decay_mult: 0
  }
  convolution_param {
    num_output: 192
    kernel_size: 1
    weight_filler {
      type: "xavier"
      std: 0.03
    }
    bias_filler {
      type: "constant"
      value: 0.2
    }
  }
}
layer {
  name: "inception_4a/relu_1x1"
  type: "ReLU"
  bottom: "inception_4a/1x1"
  top: "inception_4a/1x1"
}
layer {
  name: "inception_4a/3x3_reduce"
  type: "Convolution"
  bottom: "pool3/3x3_s2"
  top: "inception_4a/3x3_reduce"
  param {
    lr_mult: 1
    decay_mult: 1
  }
  param {
    lr_mult: 2
    decay_mult: 0
  }
  convolution_param {
    num_output: 96
    kernel_size: 1
    weight_filler {
      type: "xavier"
      std: 0.09
    }
    bias_filler {
      type: "constant"
      value: 0.2
    }
  }
}
layer {
  name: "inception_4a/relu_3x3_reduce"
  type: "ReLU"
  bottom: "inception_4a/3x3_reduce"
  top: "inception_4a/3x3_reduce"
}
layer {
  name: "inception_4a/3x3"
  type: "Convolution"
  bottom: "inception_4a/3x3_reduce"
  top: "inception_4a/3x3"
  param {
    lr_mult: 1
    decay_mult: 1
  }
  param {
    lr_mult: 2
    decay_mult: 0
  }
  convolution_param {
    num_output: 208
    pad: 1
    kernel_size: 3
    weight_filler {
      type: "xavier"
      std: 0.03
    }
    bias_filler {
      type: "constant"
      value: 0.2
    }
  }
}
layer {
  name: "inception_4a/relu_3x3"
  type: "ReLU"
  bottom: "inception_4a/3x3"
  top: "inception_4a/3x3"
}
layer {
  name: "inception_4a/5x5_reduce"
  type: "Convolution"
  bottom: "pool3/3x3_s2"
  top: "inception_4a/5x5_reduce"
  param {
    lr_mult: 1
    decay_mult: 1
  }
  param {
    lr_mult: 2
    decay_mult: 0
  }
  convolution_param {
    num_output: 16
    kernel_size: 1
    weight_filler {
      type: "xavier"
      std: 0.2
    }
    bias_filler {
      type: "constant"
      value: 0.2
    }
  }
}
layer {
  name: "inception_4a/relu_5x5_reduce"
  type: "ReLU"
  bottom: "inception_4a/5x5_reduce"
  top: "inception_4a/5x5_reduce"
}
layer {
  name: "inception_4a/5x5"
  type: "Convolution"
  bottom: "inception_4a/5x5_reduce"
  top: "inception_4a/5x5"
  param {
    lr_mult: 1
    decay_mult: 1
  }
  param {
    lr_mult: 2
    decay_mult: 0
  }
  convolution_param {
    num_output: 48
    pad: 2
    kernel_size: 5
    weight_filler {
      type: "xavier"
      std: 0.03
    }
    bias_filler {
      type: "constant"
      value: 0.2
    }
  }
}
layer {
  name: "inception_4a/relu_5x5"
  type: "ReLU"
  bottom: "inception_4a/5x5"
  top: "inception_4a/5x5"
}
layer {
  name: "inception_4a/pool"
  type: "Pooling"
  bottom: "pool3/3x3_s2"
  top: "inception_4a/pool"
  pooling_param {
    pool: MAX
    kernel_size: 3
    stride: 1
    pad: 1
  }
}
layer {
  name: "inception_4a/pool_proj"
  type: "Convolution"
  bottom: "inception_4a/pool"
  top: "inception_4a/pool_proj"
  param {
    lr_mult: 1
    decay_mult: 1
  }
  param {
    lr_mult: 2
    decay_mult: 0
  }
  convolution_param {
    num_output: 64
    kernel_size: 1
    weight_filler {
      type: "xavier"
      std: 0.1
    }
    bias_filler {
      type: "constant"
      value: 0.2
    }
  }
}
layer {
  name: "inception_4a/relu_pool_proj"
  type: "ReLU"
  bottom: "inception_4a/pool_proj"
  top: "inception_4a/pool_proj"
}
layer {
  name: "inception_4a/output"
  type: "Concat"
  bottom: "inception_4a/1x1"
  bottom: "inception_4a/3x3"
  bottom: "inception_4a/5x5"
  bottom: "inception_4a/pool_proj"
  top: "inception_4a/output"
}
layer {
  name: "loss1/ave_pool"
  type: "Pooling"
  bottom: "inception_4a/output"
  top: "loss1/ave_pool"
  pooling_param {
    pool: AVE
    kernel_size: 5
    stride: 3
  }
}
layer {
  name: "loss1/conv"
  type: "Convolution"
  bottom: "loss1/ave_pool"
  top: "loss1/conv"
  param {
    lr_mult: 1
    decay_mult: 1
  }
  param {
    lr_mult: 2
    decay_mult: 0
  }
  convolution_param {
    num_output: 128
    kernel_size: 1
    weight_filler {
      type: "xavier"
      std: 0.08
    }
    bias_filler {
      type: "constant"
      value: 0.2
    }
  }
}
layer {
  name: "loss1/relu_conv"
  type: "ReLU"
  bottom: "loss1/conv"
  top: "loss1/conv"
}
layer {
  name: "loss1/fc"
  type: "InnerProduct"
  bottom: "loss1/conv"
  top: "loss1/fc"
  param {
    lr_mult: 1
    decay_mult: 1
  }
  param {
    lr_mult: 2
    decay_mult: 0
  }
  inner_product_param {
    num_output: 1024
    weight_filler {
      type: "xavier"
      std: 0.02
    }
    bias_filler {
      type: "constant"
      value: 0.2
    }
  }
}
layer {
  name: "loss1/relu_fc"
  type: "ReLU"
  bottom: "loss1/fc"
  top: "loss1/fc"
}
layer {
  name: "loss1/drop_fc"
  type: "Dropout"
  bottom: "loss1/fc"
  top: "loss1/fc"
  dropout_param {
    dropout_ratio: 0.7
  }
}
layer {
  name: "loss1/classifier_plantvillage"
  type: "InnerProduct"
  bottom: "loss1/fc"
  top: "loss1/classifier_plantvillage"
  param {
    lr_mult: 1
    decay_mult: 1
  }
  param {
    lr_mult: 2
    decay_mult: 0
  }
  inner_product_param {
    num_output: 38
    weight_filler {
      type: "xavier"
      std: 0.0009765625
    }
    bias_filler {
      type: "constant"
      value: 0
    }
  }
}
layer {
  name: "inception_4b/1x1"
  type: "Convolution"
  bottom: "inception_4a/output"
  top: "inception_4b/1x1"
  param {
    lr_mult: 1
    decay_mult: 1
  }
  param {
    lr_mult: 2
    decay_mult: 0
  }
  convolution_param {
    num_output: 160
    kernel_size: 1
    weight_filler {
      type: "xavier"
      std: 0.03
    }
    bias_filler {
      type: "constant"
      value: 0.2
    }
  }
}
layer {
  name: "inception_4b/relu_1x1"
  type: "ReLU"
  bottom: "inception_4b/1x1"
  top: "inception_4b/1x1"
}
layer {
  name: "inception_4b/3x3_reduce"
  type: "Convolution"
  bottom: "inception_4a/output"
  top: "inception_4b/3x3_reduce"
  param {
    lr_mult: 1
    decay_mult: 1
  }
  param {
    lr_mult: 2
    decay_mult: 0
  }
  convolution_param {
    num_output: 112
    kernel_size: 1
    weight_filler {
      type: "xavier"
      std: 0.09
    }
    bias_filler {
      type: "constant"
      value: 0.2
    }
  }
}
layer {
  name: "inception_4b/relu_3x3_reduce"
  type: "ReLU"
  bottom: "inception_4b/3x3_reduce"
  top: "inception_4b/3x3_reduce"
}
layer {
  name: "inception_4b/3x3"
  type: "Convolution"
  bottom: "inception_4b/3x3_reduce"
  top: "inception_4b/3x3"
  param {
    lr_mult: 1
    decay_mult: 1
  }
  param {
    lr_mult: 2
    decay_mult: 0
  }
  convolution_param {
    num_output: 224
    pad: 1
    kernel_size: 3
    weight_filler {
      type: "xavier"
      std: 0.03
    }
    bias_filler {
      type: "constant"
      value: 0.2
    }
  }
}
layer {
  name: "inception_4b/relu_3x3"
  type: "ReLU"
  bottom: "inception_4b/3x3"
  top: "inception_4b/3x3"
}
layer {
  name: "inception_4b/5x5_reduce"
  type: "Convolution"
  bottom: "inception_4a/output"
  top: "inception_4b/5x5_reduce"
  param {
    lr_mult: 1
    decay_mult: 1
  }
  param {
    lr_mult: 2
    decay_mult: 0
  }
  convolution_param {
    num_output: 24
    kernel_size: 1
    weight_filler {
      type: "xavier"
      std: 0.2
    }
    bias_filler {
      type: "constant"
      value: 0.2
    }
  }
}
layer {
  name: "inception_4b/relu_5x5_reduce"
  type: "ReLU"
  bottom: "inception_4b/5x5_reduce"
  top: "inception_4b/5x5_reduce"
}
layer {
  name: "inception_4b/5x5"
  type: "Convolution"
  bottom: "inception_4b/5x5_reduce"
  top: "inception_4b/5x5"
  param {
    lr_mult: 1
    decay_mult: 1
  }
  param {
    lr_mult: 2
    decay_mult: 0
  }
  convolution_param {
    num_output: 64
    pad: 2
    kernel_size: 5
    weight_filler {
      type: "xavier"
      std: 0.03
    }
    bias_filler {
      type: "constant"
      value: 0.2
    }
  }
}
layer {
  name: "inception_4b/relu_5x5"
  type: "ReLU"
  bottom: "inception_4b/5x5"
  top: "inception_4b/5x5"
}
layer {
  name: "inception_4b/pool"
  type: "Pooling"
  bottom: "inception_4a/output"
  top: "inception_4b/pool"
  pooling_param {
    pool: MAX
    kernel_size: 3
    stride: 1
    pad: 1
  }
}
layer {
  name: "inception_4b/pool_proj"
  type: "Convolution"
  bottom: "inception_4b/pool"
  top: "inception_4b/pool_proj"
  param {
    lr_mult: 1
    decay_mult: 1
  }
  param {
    lr_mult: 2
    decay_mult: 0
  }
  convolution_param {
    num_output: 64
    kernel_size: 1
    weight_filler {
      type: "xavier"
      std: 0.1
    }
    bias_filler {
      type: "constant"
      value: 0.2
    }
  }
}
layer {
  name: "inception_4b/relu_pool_proj"
  type: "ReLU"
  bottom: "inception_4b/pool_proj"
  top: "inception_4b/pool_proj"
}
layer {
  name: "inception_4b/output"
  type: "Concat"
  bottom: "inception_4b/1x1"
  bottom: "inception_4b/3x3"
  bottom: "inception_4b/5x5"
  bottom: "inception_4b/pool_proj"
  top: "inception_4b/output"
}
layer {
  name: "inception_4c/1x1"
  type: "Convolution"
  bottom: "inception_4b/output"
  top: "inception_4c/1x1"
  param {
    lr_mult: 1
    decay_mult: 1
  }
  param {
    lr_mult: 2
    decay_mult: 0
  }
  convolution_param {
    num_output: 128
    kernel_size: 1
    weight_filler {
      type: "xavier"
      std: 0.03
    }
    bias_filler {
      type: "constant"
      value: 0.2
    }
  }
}
layer {
  name: "inception_4c/relu_1x1"
  type: "ReLU"
  bottom: "inception_4c/1x1"
  top: "inception_4c/1x1"
}
layer {
  name: "inception_4c/3x3_reduce"
  type: "Convolution"
  bottom: "inception_4b/output"
  top: "inception_4c/3x3_reduce"
  param {
    lr_mult: 1
    decay_mult: 1
  }
  param {
    lr_mult: 2
    decay_mult: 0
  }
  convolution_param {
    num_output: 128
    kernel_size: 1
    weight_filler {
      type: "xavier"
      std: 0.09
    }
    bias_filler {
      type: "constant"
      value: 0.2
    }
  }
}
layer {
  name: "inception_4c/relu_3x3_reduce"
  type: "ReLU"
  bottom: "inception_4c/3x3_reduce"
  top: "inception_4c/3x3_reduce"
}
layer {
  name: "inception_4c/3x3"
  type: "Convolution"
  bottom: "inception_4c/3x3_reduce"
  top: "inception_4c/3x3"
  param {
    lr_mult: 1
    decay_mult: 1
  }
  param {
    lr_mult: 2
    decay_mult: 0
  }
  convolution_param {
    num_output: 256
    pad: 1
    kernel_size: 3
    weight_filler {
      type: "xavier"
      std: 0.03
    }
    bias_filler {
      type: "constant"
      value: 0.2
    }
  }
}
layer {
  name: "inception_4c/relu_3x3"
  type: "ReLU"
  bottom: "inception_4c/3x3"
  top: "inception_4c/3x3"
}
layer {
  name: "inception_4c/5x5_reduce"
  type: "Convolution"
  bottom: "inception_4b/output"
  top: "inception_4c/5x5_reduce"
  param {
    lr_mult: 1
    decay_mult: 1
  }
  param {
    lr_mult: 2
    decay_mult: 0
  }
  convolution_param {
    num_output: 24
    kernel_size: 1
    weight_filler {
      type: "xavier"
      std: 0.2
    }
    bias_filler {
      type: "constant"
      value: 0.2
    }
  }
}
layer {
  name: "inception_4c/relu_5x5_reduce"
  type: "ReLU"
  bottom: "inception_4c/5x5_reduce"
  top: "inception_4c/5x5_reduce"
}
layer {
  name: "inception_4c/5x5"
  type: "Convolution"
  bottom: "inception_4c/5x5_reduce"
  top: "inception_4c/5x5"
  param {
    lr_mult: 1
    decay_mult: 1
  }
  param {
    lr_mult: 2
    decay_mult: 0
  }
  convolution_param {
    num_output: 64
    pad: 2
    kernel_size: 5
    weight_filler {
      type: "xavier"
      std: 0.03
    }
    bias_filler {
      type: "constant"
      value: 0.2
    }
  }
}
layer {
  name: "inception_4c/relu_5x5"
  type: "ReLU"
  bottom: "inception_4c/5x5"
  top: "inception_4c/5x5"
}
layer {
  name: "inception_4c/pool"
  type: "Pooling"
  bottom: "inception_4b/output"
  top: "inception_4c/pool"
  pooling_param {
    pool: MAX
    kernel_size: 3
    stride: 1
    pad: 1
  }
}
layer {
  name: "inception_4c/pool_proj"
  type: "Convolution"
  bottom: "inception_4c/pool"
  top: "inception_4c/pool_proj"
  param {
    lr_mult: 1
    decay_mult: 1
  }
  param {
    lr_mult: 2
    decay_mult: 0
  }
  convolution_param {
    num_output: 64
    kernel_size: 1
    weight_filler {
      type: "xavier"
      std: 0.1
    }
    bias_filler {
      type: "constant"
      value: 0.2
    }
  }
}
layer {
  name: "inception_4c/relu_pool_proj"
  type: "ReLU"
  bottom: "inception_4c/pool_proj"
  top: "inception_4c/pool_proj"
}
layer {
  name: "inception_4c/output"
  type: "Concat"
  bottom: "inception_4c/1x1"
  bottom: "inception_4c/3x3"
  bottom: "inception_4c/5x5"
  bottom: "inception_4c/pool_proj"
  top: "inception_4c/output"
}
layer {
  name: "inception_4d/1x1"
  type: "Convolution"
  bottom: "inception_4c/output"
  top: "inception_4d/1x1"
  param {
    lr_mult: 1
    decay_mult: 1
  }
  param {
    lr_mult: 2
    decay_mult: 0
  }
  convolution_param {
    num_output: 112
    kernel_size: 1
    weight_filler {
      type: "xavier"
      std: 0.03
    }
    bias_filler {
      type: "constant"
      value: 0.2
    }
  }
}
layer {
  name: "inception_4d/relu_1x1"
  type: "ReLU"
  bottom: "inception_4d/1x1"
  top: "inception_4d/1x1"
}
layer {
  name: "inception_4d/3x3_reduce"
  type: "Convolution"
  bottom: "inception_4c/output"
  top: "inception_4d/3x3_reduce"
  param {
    lr_mult: 1
    decay_mult: 1
  }
  param {
    lr_mult: 2
    decay_mult: 0
  }
  convolution_param {
    num_output: 144
    kernel_size: 1
    weight_filler {
      type: "xavier"
      std: 0.09
    }
    bias_filler {
      type: "constant"
      value: 0.2
    }
  }
}
layer {
  name: "inception_4d/relu_3x3_reduce"
  type: "ReLU"
  bottom: "inception_4d/3x3_reduce"
  top: "inception_4d/3x3_reduce"
}
layer {
  name: "inception_4d/3x3"
  type: "Convolution"
  bottom: "inception_4d/3x3_reduce"
  top: "inception_4d/3x3"
  param {
    lr_mult: 1
    decay_mult: 1
  }
  param {
    lr_mult: 2
    decay_mult: 0
  }
  convolution_param {
    num_output: 288
    pad: 1
    kernel_size: 3
    weight_filler {
      type: "xavier"
      std: 0.03
    }
    bias_filler {
      type: "constant"
      value: 0.2
    }
  }
}
layer {
  name: "inception_4d/relu_3x3"
  type: "ReLU"
  bottom: "inception_4d/3x3"
  top: "inception_4d/3x3"
}
layer {
  name: "inception_4d/5x5_reduce"
  type: "Convolution"
  bottom: "inception_4c/output"
  top: "inception_4d/5x5_reduce"
  param {
    lr_mult: 1
    decay_mult: 1
  }
  param {
    lr_mult: 2
    decay_mult: 0
  }
  convolution_param {
    num_output: 32
    kernel_size: 1
    weight_filler {
      type: "xavier"
      std: 0.2
    }
    bias_filler {
      type: "constant"
      value: 0.2
    }
  }
}
layer {
  name: "inception_4d/relu_5x5_reduce"
  type: "ReLU"
  bottom: "inception_4d/5x5_reduce"
  top: "inception_4d/5x5_reduce"
}
layer {
  name: "inception_4d/5x5"
  type: "Convolution"
  bottom: "inception_4d/5x5_reduce"
  top: "inception_4d/5x5"
  param {
    lr_mult: 1
    decay_mult: 1
  }
  param {
    lr_mult: 2
    decay_mult: 0
  }
  convolution_param {
    num_output: 64
    pad: 2
    kernel_size: 5
    weight_filler {
      type: "xavier"
      std: 0.03
    }
    bias_filler {
      type: "constant"
      value: 0.2
    }
  }
}
layer {
  name: "inception_4d/relu_5x5"
  type: "ReLU"
  bottom: "inception_4d/5x5"
  top: "inception_4d/5x5"
}
layer {
  name: "inception_4d/pool"
  type: "Pooling"
  bottom: "inception_4c/output"
  top: "inception_4d/pool"
  pooling_param {
    pool: MAX
    kernel_size: 3
    stride: 1
    pad: 1
  }
}
layer {
  name: "inception_4d/pool_proj"
  type: "Convolution"
  bottom: "inception_4d/pool"
  top: "inception_4d/pool_proj"
  param {
    lr_mult: 1
    decay_mult: 1
  }
  param {
    lr_mult: 2
    decay_mult: 0
  }
  convolution_param {
    num_output: 64
    kernel_size: 1
    weight_filler {
      type: "xavier"
      std: 0.1
    }
    bias_filler {
      type: "constant"
      value: 0.2
    }
  }
}
layer {
  name: "inception_4d/relu_pool_proj"
  type: "ReLU"
  bottom: "inception_4d/pool_proj"
  top: "inception_4d/pool_proj"
}
layer {
  name: "inception_4d/output"
  type: "Concat"
  bottom: "inception_4d/1x1"
  bottom: "inception_4d/3x3"
  bottom: "inception_4d/5x5"
  bottom: "inception_4d/pool_proj"
  top: "inception_4d/output"
}
layer {
  name: "loss2/ave_pool"
  type: "Pooling"
  bottom: "inception_4d/output"
  top: "loss2/ave_pool"
  pooling_param {
    pool: AVE
    kernel_size: 5
    stride: 3
  }
}
layer {
  name: "loss2/conv"
  type: "Convolution"
  bottom: "loss2/ave_pool"
  top: "loss2/conv"
  param {
    lr_mult: 1
    decay_mult: 1
  }
  param {
    lr_mult: 2
    decay_mult: 0
  }
  convolution_param {
    num_output: 128
    kernel_size: 1
    weight_filler {
      type: "xavier"
      std: 0.08
    }
    bias_filler {
      type: "constant"
      value: 0.2
    }
  }
}
layer {
  name: "loss2/relu_conv"
  type: "ReLU"
  bottom: "loss2/conv"
  top: "loss2/conv"
}
layer {
  name: "loss2/fc"
  type: "InnerProduct"
  bottom: "loss2/conv"
  top: "loss2/fc"
  param {
    lr_mult: 1
    decay_mult: 1
  }
  param {
    lr_mult: 2
    decay_mult: 0
  }
  inner_product_param {
    num_output: 1024
    weight_filler {
      type: "xavier"
      std: 0.02
    }
    bias_filler {
      type: "constant"
      value: 0.2
    }
  }
}
layer {
  name: "loss2/relu_fc"
  type: "ReLU"
  bottom: "loss2/fc"
  top: "loss2/fc"
}
layer {
  name: "loss2/drop_fc"
  type: "Dropout"
  bottom: "loss2/fc"
  top: "loss2/fc"
  dropout_param {
    dropout_ratio: 0.7
  }
}
layer {
  name: "loss2/classifier_plantvillage"
  type: "InnerProduct"
  bottom: "loss2/fc"
  top: "loss2/classifier_plantvillage"
  param {
    lr_mult: 1
    decay_mult: 1
  }
  param {
    lr_mult: 2
    decay_mult: 0
  }
  inner_product_param {
    num_output: 38
    weight_filler {
      type: "xavier"
      std: 0.0009765625
    }
    bias_filler {
      type: "constant"
      value: 0
    }
  }
}
layer {
  name: "inception_4e/1x1"
  type: "Convolution"
  bottom: "inception_4d/output"
  top: "inception_4e/1x1"
  param {
    lr_mult: 1
    decay_mult: 1
  }
  param {
    lr_mult: 2
    decay_mult: 0
  }
  convolution_param {
    num_output: 256
    kernel_size: 1
    weight_filler {
      type: "xavier"
      std: 0.03
    }
    bias_filler {
      type: "constant"
      value: 0.2
    }
  }
}
layer {
  name: "inception_4e/relu_1x1"
  type: "ReLU"
  bottom: "inception_4e/1x1"
  top: "inception_4e/1x1"
}
layer {
  name: "inception_4e/3x3_reduce"
  type: "Convolution"
  bottom: "inception_4d/output"
  top: "inception_4e/3x3_reduce"
  param {
    lr_mult: 1
    decay_mult: 1
  }
  param {
    lr_mult: 2
    decay_mult: 0
  }
  convolution_param {
    num_output: 160
    kernel_size: 1
    weight_filler {
      type: "xavier"
      std: 0.09
    }
    bias_filler {
      type: "constant"
      value: 0.2
    }
  }
}
layer {
  name: "inception_4e/relu_3x3_reduce"
  type: "ReLU"
  bottom: "inception_4e/3x3_reduce"
  top: "inception_4e/3x3_reduce"
}
layer {
  name: "inception_4e/3x3"
  type: "Convolution"
  bottom: "inception_4e/3x3_reduce"
  top: "inception_4e/3x3"
  param {
    lr_mult: 1
    decay_mult: 1
  }
  param {
    lr_mult: 2
    decay_mult: 0
  }
  convolution_param {
    num_output: 320
    pad: 1
    kernel_size: 3
    weight_filler {
      type: "xavier"
      std: 0.03
    }
    bias_filler {
      type: "constant"
      value: 0.2
    }
  }
}
layer {
  name: "inception_4e/relu_3x3"
  type: "ReLU"
  bottom: "inception_4e/3x3"
  top: "inception_4e/3x3"
}
layer {
  name: "inception_4e/5x5_reduce"
  type: "Convolution"
  bottom: "inception_4d/output"
  top: "inception_4e/5x5_reduce"
  param {
    lr_mult: 1
    decay_mult: 1
  }
  param {
    lr_mult: 2
    decay_mult: 0
  }
  convolution_param {
    num_output: 32
    kernel_size: 1
    weight_filler {
      type: "xavier"
      std: 0.2
    }
    bias_filler {
      type: "constant"
      value: 0.2
    }
  }
}
layer {
  name: "inception_4e/relu_5x5_reduce"
  type: "ReLU"
  bottom: "inception_4e/5x5_reduce"
  top: "inception_4e/5x5_reduce"
}
layer {
  name: "inception_4e/5x5"
  type: "Convolution"
  bottom: "inception_4e/5x5_reduce"
  top: "inception_4e/
I0403 18:39:12.072707  7220 layer_factory.hpp:77] Creating layer data
I0403 18:39:12.073361  7220 net.cpp:91] Creating Layer data
I0403 18:39:12.073393  7220 net.cpp:399] data -> data
I0403 18:39:12.073446  7220 net.cpp:399] data -> label
I0403 18:39:12.073487  7220 data_transformer.cpp:25] Loading mean file from: /home/mohanty/data/final_dataset/lmdb/segmented-50-50/mean.binaryproto
I0403 18:39:12.074609  7225 db_lmdb.cpp:38] Opened lmdb /home/mohanty/data/final_dataset/lmdb/segmented-50-50/test_db
I0403 18:39:12.087100  7220 data_layer.cpp:41] output data size: 24,3,224,224
I0403 18:39:12.116006  7220 net.cpp:141] Setting up data
I0403 18:39:12.116065  7220 net.cpp:148] Top shape: 24 3 224 224 (3612672)
I0403 18:39:12.116091  7220 net.cpp:148] Top shape: 24 (24)
I0403 18:39:12.116108  7220 net.cpp:156] Memory required for data: 14450784
I0403 18:39:12.116137  7220 layer_factory.hpp:77] Creating layer label_data_1_split
I0403 18:39:12.116165  7220 net.cpp:91] Creating Layer label_data_1_split
I0403 18:39:12.116185  7220 net.cpp:425] label_data_1_split <- label
I0403 18:39:12.116235  7220 net.cpp:399] label_data_1_split -> label_data_1_split_0
I0403 18:39:12.116266  7220 net.cpp:399] label_data_1_split -> label_data_1_split_1
I0403 18:39:12.116299  7220 net.cpp:399] label_data_1_split -> label_data_1_split_2
I0403 18:39:12.116322  7220 net.cpp:399] label_data_1_split -> label_data_1_split_3
I0403 18:39:12.116344  7220 net.cpp:399] label_data_1_split -> label_data_1_split_4
I0403 18:39:12.116366  7220 net.cpp:399] label_data_1_split -> label_data_1_split_5
I0403 18:39:12.116389  7220 net.cpp:399] label_data_1_split -> label_data_1_split_6
I0403 18:39:12.116410  7220 net.cpp:399] label_data_1_split -> label_data_1_split_7
I0403 18:39:12.116431  7220 net.cpp:399] label_data_1_split -> label_data_1_split_8
I0403 18:39:12.116453  7220 net.cpp:399] label_data_1_split -> label_data_1_split_9
I0403 18:39:12.116571  7220 net.cpp:141] Setting up label_data_1_split
I0403 18:39:12.116596  7220 net.cpp:148] Top shape: 24 (24)
I0403 18:39:12.116616  7220 net.cpp:148] Top shape: 24 (24)
I0403 18:39:12.116632  7220 net.cpp:148] Top shape: 24 (24)
I0403 18:39:12.116649  7220 net.cpp:148] Top shape: 24 (24)
I0403 18:39:12.116667  7220 net.cpp:148] Top shape: 24 (24)
I0403 18:39:12.116684  7220 net.cpp:148] Top shape: 24 (24)
I0403 18:39:12.116701  7220 net.cpp:148] Top shape: 24 (24)
I0403 18:39:12.116719  7220 net.cpp:148] Top shape: 24 (24)
I0403 18:39:12.116735  7220 net.cpp:148] Top shape: 24 (24)
I0403 18:39:12.116752  7220 net.cpp:148] Top shape: 24 (24)
I0403 18:39:12.116801  7220 net.cpp:156] Memory required for data: 14451744
I0403 18:39:12.116818  7220 layer_factory.hpp:77] Creating layer conv1/7x7_s2
I0403 18:39:12.116852  7220 net.cpp:91] Creating Layer conv1/7x7_s2
I0403 18:39:12.116871  7220 net.cpp:425] conv1/7x7_s2 <- data
I0403 18:39:12.116895  7220 net.cpp:399] conv1/7x7_s2 -> conv1/7x7_s2
I0403 18:39:12.259644  7220 net.cpp:141] Setting up conv1/7x7_s2
I0403 18:39:12.259753  7220 net.cpp:148] Top shape: 24 64 112 112 (19267584)
I0403 18:39:12.259771  7220 net.cpp:156] Memory required for data: 91522080
I0403 18:39:12.259804  7220 layer_factory.hpp:77] Creating layer conv1/relu_7x7
I0403 18:39:12.259830  7220 net.cpp:91] Creating Layer conv1/relu_7x7
I0403 18:39:12.259850  7220 net.cpp:425] conv1/relu_7x7 <- conv1/7x7_s2
I0403 18:39:12.259870  7220 net.cpp:386] conv1/relu_7x7 -> conv1/7x7_s2 (in-place)
I0403 18:39:12.260120  7220 net.cpp:141] Setting up conv1/relu_7x7
I0403 18:39:12.260148  7220 net.cpp:148] Top shape: 24 64 112 112 (19267584)
I0403 18:39:12.260164  7220 net.cpp:156] Memory required for data: 168592416
I0403 18:39:12.260179  7220 layer_factory.hpp:77] Creating layer pool1/3x3_s2
I0403 18:39:12.260205  7220 net.cpp:91] Creating Layer pool1/3x3_s2
I0403 18:39:12.260228  7220 net.cpp:425] pool1/3x3_s2 <- conv1/7x7_s2
I0403 18:39:12.260248  7220 net.cpp:399] pool1/3x3_s2 -> pool1/3x3_s2
I0403 18:39:12.260319  7220 net.cpp:141] Setting up pool1/3x3_s2
I0403 18:39:12.260344  7220 net.cpp:148] Top shape: 24 64 56 56 (4816896)
I0403 18:39:12.260360  7220 net.cpp:156] Memory required for data: 187860000
I0403 18:39:12.260375  7220 layer_factory.hpp:77] Creating layer pool1/norm1
I0403 18:39:12.260399  7220 net.cpp:91] Creating Layer pool1/norm1
I0403 18:39:12.260417  7220 net.cpp:425] pool1/norm1 <- pool1/3x3_s2
I0403 18:39:12.260435  7220 net.cpp:399] pool1/norm1 -> pool1/norm1
I0403 18:39:12.260715  7220 net.cpp:141] Setting up pool1/norm1
I0403 18:39:12.260742  7220 net.cpp:148] Top shape: 24 64 56 56 (4816896)
I0403 18:39:12.260757  7220 net.cpp:156] Memory required for data: 207127584
I0403 18:39:12.260773  7220 layer_factory.hpp:77] Creating layer conv2/3x3_reduce
I0403 18:39:12.260799  7220 net.cpp:91] Creating Layer conv2/3x3_reduce
I0403 18:39:12.260817  7220 net.cpp:425] conv2/3x3_reduce <- pool1/norm1
I0403 18:39:12.260835  7220 net.cpp:399] conv2/3x3_reduce -> conv2/3x3_reduce
I0403 18:39:12.262174  7220 net.cpp:141] Setting up conv2/3x3_reduce
I0403 18:39:12.262205  7220 net.cpp:148] Top shape: 24 64 56 56 (4816896)
I0403 18:39:12.262236  7220 net.cpp:156] Memory required for data: 226395168
I0403 18:39:12.262259  7220 layer_factory.hpp:77] Creating layer conv2/relu_3x3_reduce
I0403 18:39:12.262279  7220 net.cpp:91] Creating Layer conv2/relu_3x3_reduce
I0403 18:39:12.262295  7220 net.cpp:425] conv2/relu_3x3_reduce <- conv2/3x3_reduce
I0403 18:39:12.262313  7220 net.cpp:386] conv2/relu_3x3_reduce -> conv2/3x3_reduce (in-place)
I0403 18:39:12.262573  7220 net.cpp:141] Setting up conv2/relu_3x3_reduce
I0403 18:39:12.262600  7220 net.cpp:148] Top shape: 24 64 56 56 (4816896)
I0403 18:39:12.262616  7220 net.cpp:156] Memory required for data: 245662752
I0403 18:39:12.262634  7220 layer_factory.hpp:77] Creating layer conv2/3x3
I0403 18:39:12.262660  7220 net.cpp:91] Creating Layer conv2/3x3
I0403 18:39:12.262678  7220 net.cpp:425] conv2/3x3 <- conv2/3x3_reduce
I0403 18:39:12.262697  7220 net.cpp:399] conv2/3x3 -> conv2/3x3
I0403 18:39:12.264994  7220 net.cpp:141] Setting up conv2/3x3
I0403 18:39:12.265028  7220 net.cpp:148] Top shape: 24 192 56 56 (14450688)
I0403 18:39:12.265046  7220 net.cpp:156] Memory required for data: 303465504
I0403 18:39:12.265069  7220 layer_factory.hpp:77] Creating layer conv2/relu_3x3
I0403 18:39:12.265089  7220 net.cpp:91] Creating Layer conv2/relu_3x3
I0403 18:39:12.265106  7220 net.cpp:425] conv2/relu_3x3 <- conv2/3x3
I0403 18:39:12.265128  7220 net.cpp:386] conv2/relu_3x3 -> conv2/3x3 (in-place)
I0403 18:39:12.265308  7220 net.cpp:141] Setting up conv2/relu_3x3
I0403 18:39:12.265334  7220 net.cpp:148] Top shape: 24 192 56 56 (14450688)
I0403 18:39:12.265383  7220 net.cpp:156] Memory required for data: 361268256
I0403 18:39:12.265399  7220 layer_factory.hpp:77] Creating layer conv2/norm2
I0403 18:39:12.265420  7220 net.cpp:91] Creating Layer conv2/norm2
I0403 18:39:12.265437  7220 net.cpp:425] conv2/norm2 <- conv2/3x3
I0403 18:39:12.265456  7220 net.cpp:399] conv2/norm2 -> conv2/norm2
I0403 18:39:12.265755  7220 net.cpp:141] Setting up conv2/norm2
I0403 18:39:12.265782  7220 net.cpp:148] Top shape: 24 192 56 56 (14450688)
I0403 18:39:12.265797  7220 net.cpp:156] Memory required for data: 419071008
I0403 18:39:12.265813  7220 layer_factory.hpp:77] Creating layer pool2/3x3_s2
I0403 18:39:12.265835  7220 net.cpp:91] Creating Layer pool2/3x3_s2
I0403 18:39:12.265851  7220 net.cpp:425] pool2/3x3_s2 <- conv2/norm2
I0403 18:39:12.265871  7220 net.cpp:399] pool2/3x3_s2 -> pool2/3x3_s2
I0403 18:39:12.265928  7220 net.cpp:141] Setting up pool2/3x3_s2
I0403 18:39:12.265951  7220 net.cpp:148] Top shape: 24 192 28 28 (3612672)
I0403 18:39:12.265967  7220 net.cpp:156] Memory required for data: 433521696
I0403 18:39:12.265985  7220 layer_factory.hpp:77] Creating layer pool2/3x3_s2_pool2/3x3_s2_0_split
I0403 18:39:12.266002  7220 net.cpp:91] Creating Layer pool2/3x3_s2_pool2/3x3_s2_0_split
I0403 18:39:12.266017  7220 net.cpp:425] pool2/3x3_s2_pool2/3x3_s2_0_split <- pool2/3x3_s2
I0403 18:39:12.266037  7220 net.cpp:399] pool2/3x3_s2_pool2/3x3_s2_0_split -> pool2/3x3_s2_pool2/3x3_s2_0_split_0
I0403 18:39:12.266059  7220 net.cpp:399] pool2/3x3_s2_pool2/3x3_s2_0_split -> pool2/3x3_s2_pool2/3x3_s2_0_split_1
I0403 18:39:12.266079  7220 net.cpp:399] pool2/3x3_s2_pool2/3x3_s2_0_split -> pool2/3x3_s2_pool2/3x3_s2_0_split_2
I0403 18:39:12.266100  7220 net.cpp:399] pool2/3x3_s2_pool2/3x3_s2_0_split -> pool2/3x3_s2_pool2/3x3_s2_0_split_3
I0403 18:39:12.266170  7220 net.cpp:141] Setting up pool2/3x3_s2_pool2/3x3_s2_0_split
I0403 18:39:12.266193  7220 net.cpp:148] Top shape: 24 192 28 28 (3612672)
I0403 18:39:12.266214  7220 net.cpp:148] Top shape: 24 192 28 28 (3612672)
I0403 18:39:12.266233  7220 net.cpp:148] Top shape: 24 192 28 28 (3612672)
I0403 18:39:12.266250  7220 net.cpp:148] Top shape: 24 192 28 28 (3612672)
I0403 18:39:12.266265  7220 net.cpp:156] Memory required for data: 491324448
I0403 18:39:12.266281  7220 layer_factory.hpp:77] Creating layer inception_3a/1x1
I0403 18:39:12.266307  7220 net.cpp:91] Creating Layer inception_3a/1x1
I0403 18:39:12.266325  7220 net.cpp:425] inception_3a/1x1 <- pool2/3x3_s2_pool2/3x3_s2_0_split_0
I0403 18:39:12.266347  7220 net.cpp:399] inception_3a/1x1 -> inception_3a/1x1
I0403 18:39:12.267904  7220 net.cpp:141] Setting up inception_3a/1x1
I0403 18:39:12.267936  7220 net.cpp:148] Top shape: 24 64 28 28 (1204224)
I0403 18:39:12.267954  7220 net.cpp:156] Memory required for data: 496141344
I0403 18:39:12.267974  7220 layer_factory.hpp:77] Creating layer inception_3a/relu_1x1
I0403 18:39:12.267993  7220 net.cpp:91] Creating Layer inception_3a/relu_1x1
I0403 18:39:12.268009  7220 net.cpp:425] inception_3a/relu_1x1 <- inception_3a/1x1
I0403 18:39:12.268028  7220 net.cpp:386] inception_3a/relu_1x1 -> inception_3a/1x1 (in-place)
I0403 18:39:12.268220  7220 net.cpp:141] Setting up inception_3a/relu_1x1
I0403 18:39:12.268249  7220 net.cpp:148] Top shape: 24 64 28 28 (1204224)
I0403 18:39:12.268265  7220 net.cpp:156] Memory required for data: 500958240
I0403 18:39:12.268281  7220 layer_factory.hpp:77] Creating layer inception_3a/3x3_reduce
I0403 18:39:12.268304  7220 net.cpp:91] Creating Layer inception_3a/3x3_reduce
I0403 18:39:12.268321  7220 net.cpp:425] inception_3a/3x3_reduce <- pool2/3x3_s2_pool2/3x3_s2_0_split_1
I0403 18:39:12.268340  7220 net.cpp:399] inception_3a/3x3_reduce -> inception_3a/3x3_reduce
I0403 18:39:12.270046  7220 net.cpp:141] Setting up inception_3a/3x3_reduce
I0403 18:39:12.270077  7220 net.cpp:148] Top shape: 24 96 28 28 (1806336)
I0403 18:39:12.270095  7220 net.cpp:156] Memory required for data: 508183584
I0403 18:39:12.270120  7220 layer_factory.hpp:77] Creating layer inception_3a/relu_3x3_reduce
I0403 18:39:12.270155  7220 net.cpp:91] Creating Layer inception_3a/relu_3x3_reduce
I0403 18:39:12.270174  7220 net.cpp:425] inception_3a/relu_3x3_reduce <- inception_3a/3x3_reduce
I0403 18:39:12.270195  7220 net.cpp:386] inception_3a/relu_3x3_reduce -> inception_3a/3x3_reduce (in-place)
I0403 18:39:12.270378  7220 net.cpp:141] Setting up inception_3a/relu_3x3_reduce
I0403 18:39:12.270404  7220 net.cpp:148] Top shape: 24 96 28 28 (1806336)
I0403 18:39:12.270419  7220 net.cpp:156] Memory required for data: 515408928
I0403 18:39:12.270436  7220 layer_factory.hpp:77] Creating layer inception_3a/3x3
I0403 18:39:12.270458  7220 net.cpp:91] Creating Layer inception_3a/3x3
I0403 18:39:12.270475  7220 net.cpp:425] inception_3a/3x3 <- inception_3a/3x3_reduce
I0403 18:39:12.270499  7220 net.cpp:399] inception_3a/3x3 -> inception_3a/3x3
I0403 18:39:12.272115  7220 net.cpp:141] Setting up inception_3a/3x3
I0403 18:39:12.272147  7220 net.cpp:148] Top shape: 24 128 28 28 (2408448)
I0403 18:39:12.272166  7220 net.cpp:156] Memory required for data: 525042720
I0403 18:39:12.272186  7220 layer_factory.hpp:77] Creating layer inception_3a/relu_3x3
I0403 18:39:12.272207  7220 net.cpp:91] Creating Layer inception_3a/relu_3x3
I0403 18:39:12.272238  7220 net.cpp:425] inception_3a/relu_3x3 <- inception_3a/3x3
I0403 18:39:12.272261  7220 net.cpp:386] inception_3a/relu_3x3 -> inception_3a/3x3 (in-place)
I0403 18:39:12.272537  7220 net.cpp:141] Setting up inception_3a/relu_3x3
I0403 18:39:12.272567  7220 net.cpp:148] Top shape: 24 128 28 28 (2408448)
I0403 18:39:12.272583  7220 net.cpp:156] Memory required for data: 534676512
I0403 18:39:12.272598  7220 layer_factory.hpp:77] Creating layer inception_3a/5x5_reduce
I0403 18:39:12.272624  7220 net.cpp:91] Creating Layer inception_3a/5x5_reduce
I0403 18:39:12.272640  7220 net.cpp:425] inception_3a/5x5_reduce <- pool2/3x3_s2_pool2/3x3_s2_0_split_2
I0403 18:39:12.272660  7220 net.cpp:399] inception_3a/5x5_reduce -> inception_3a/5x5_reduce
I0403 18:39:12.273612  7220 net.cpp:141] Setting up inception_3a/5x5_reduce
I0403 18:39:12.273640  7220 net.cpp:148] Top shape: 24 16 28 28 (301056)
I0403 18:39:12.273658  7220 net.cpp:156] Memory required for data: 535880736
I0403 18:39:12.273676  7220 layer_factory.hpp:77] Creating layer inception_3a/relu_5x5_reduce
I0403 18:39:12.273696  7220 net.cpp:91] Creating Layer inception_3a/relu_5x5_reduce
I0403 18:39:12.273715  7220 net.cpp:425] inception_3a/relu_5x5_reduce <- inception_3a/5x5_reduce
I0403 18:39:12.273735  7220 net.cpp:386] inception_3a/relu_5x5_reduce -> inception_3a/5x5_reduce (in-place)
I0403 18:39:12.274016  7220 net.cpp:141] Setting up inception_3a/relu_5x5_reduce
I0403 18:39:12.274044  7220 net.cpp:148] Top shape: 24 16 28 28 (301056)
I0403 18:39:12.274060  7220 net.cpp:156] Memory required for data: 537084960
I0403 18:39:12.274075  7220 layer_factory.hpp:77] Creating layer inception_3a/5x5
I0403 18:39:12.274099  7220 net.cpp:91] Creating Layer inception_3a/5x5
I0403 18:39:12.274116  7220 net.cpp:425] inception_3a/5x5 <- inception_3a/5x5_reduce
I0403 18:39:12.274138  7220 net.cpp:399] inception_3a/5x5 -> inception_3a/5x5
I0403 18:39:12.275141  7220 net.cpp:141] Setting up inception_3a/5x5
I0403 18:39:12.275173  7220 net.cpp:148] Top shape: 24 32 28 28 (602112)
I0403 18:39:12.275190  7220 net.cpp:156] Memory required for data: 539493408
I0403 18:39:12.275215  7220 layer_factory.hpp:77] Creating layer inception_3a/relu_5x5
I0403 18:39:12.275236  7220 net.cpp:91] Creating Layer inception_3a/relu_5x5
I0403 18:39:12.275255  7220 net.cpp:425] inception_3a/relu_5x5 <- inception_3a/5x5
I0403 18:39:12.275274  7220 net.cpp:386] inception_3a/relu_5x5 -> inception_3a/5x5 (in-place)
I0403 18:39:12.275451  7220 net.cpp:141] Setting up inception_3a/relu_5x5
I0403 18:39:12.275476  7220 net.cpp:148] Top shape: 24 32 28 28 (602112)
I0403 18:39:12.275491  7220 net.cpp:156] Memory required for data: 541901856
I0403 18:39:12.275507  7220 layer_factory.hpp:77] Creating layer inception_3a/pool
I0403 18:39:12.275527  7220 net.cpp:91] Creating Layer inception_3a/pool
I0403 18:39:12.275557  7220 net.cpp:425] inception_3a/pool <- pool2/3x3_s2_pool2/3x3_s2_0_split_3
I0403 18:39:12.275580  7220 net.cpp:399] inception_3a/pool -> inception_3a/pool
I0403 18:39:12.275637  7220 net.cpp:141] Setting up inception_3a/pool
I0403 18:39:12.275665  7220 net.cpp:148] Top shape: 24 192 28 28 (3612672)
I0403 18:39:12.275681  7220 net.cpp:156] Memory required for data: 556352544
I0403 18:39:12.275696  7220 layer_factory.hpp:77] Creating layer inception_3a/pool_proj
I0403 18:39:12.275719  7220 net.cpp:91] Creating Layer inception_3a/pool_proj
I0403 18:39:12.275738  7220 net.cpp:425] inception_3a/pool_proj <- inception_3a/pool
I0403 18:39:12.275756  7220 net.cpp:399] inception_3a/pool_proj -> inception_3a/pool_proj
I0403 18:39:12.276711  7220 net.cpp:141] Setting up inception_3a/pool_proj
I0403 18:39:12.276741  7220 net.cpp:148] Top shape: 24 32 28 28 (602112)
I0403 18:39:12.276759  7220 net.cpp:156] Memory required for data: 558760992
I0403 18:39:12.276785  7220 layer_factory.hpp:77] Creating layer inception_3a/relu_pool_proj
I0403 18:39:12.276806  7220 net.cpp:91] Creating Layer inception_3a/relu_pool_proj
I0403 18:39:12.276823  7220 net.cpp:425] inception_3a/relu_pool_proj <- inception_3a/pool_proj
I0403 18:39:12.276844  7220 net.cpp:386] inception_3a/relu_pool_proj -> inception_3a/pool_proj (in-place)
I0403 18:39:12.277115  7220 net.cpp:141] Setting up inception_3a/relu_pool_proj
I0403 18:39:12.277145  7220 net.cpp:148] Top shape: 24 32 28 28 (602112)
I0403 18:39:12.277163  7220 net.cpp:156] Memory required for data: 561169440
I0403 18:39:12.277180  7220 layer_factory.hpp:77] Creating layer inception_3a/output
I0403 18:39:12.277199  7220 net.cpp:91] Creating Layer inception_3a/output
I0403 18:39:12.277222  7220 net.cpp:425] inception_3a/output <- inception_3a/1x1
I0403 18:39:12.277240  7220 net.cpp:425] inception_3a/output <- inception_3a/3x3
I0403 18:39:12.277257  7220 net.cpp:425] inception_3a/output <- inception_3a/5x5
I0403 18:39:12.277273  7220 net.cpp:425] inception_3a/output <- inception_3a/pool_proj
I0403 18:39:12.277292  7220 net.cpp:399] inception_3a/output -> inception_3a/output
I0403 18:39:12.277339  7220 net.cpp:141] Setting up inception_3a/output
I0403 18:39:12.277364  7220 net.cpp:148] Top shape: 24 256 28 28 (4816896)
I0403 18:39:12.277379  7220 net.cpp:156] Memory required for data: 580437024
I0403 18:39:12.277395  7220 layer_factory.hpp:77] Creating layer inception_3a/output_inception_3a/output_0_split
I0403 18:39:12.277416  7220 net.cpp:91] Creating Layer inception_3a/output_inception_3a/output_0_split
I0403 18:39:12.277433  7220 net.cpp:425] inception_3a/output_inception_3a/output_0_split <- inception_3a/output
I0403 18:39:12.277451  7220 net.cpp:399] inception_3a/output_inception_3a/output_0_split -> inception_3a/output_inception_3a/output_0_split_0
I0403 18:39:12.277472  7220 net.cpp:399] inception_3a/output_inception_3a/output_0_split -> inception_3a/output_inception_3a/output_0_split_1
I0403 18:39:12.277498  7220 net.cpp:399] inception_3a/output_inception_3a/output_0_split -> inception_3a/output_inception_3a/output_0_split_2
I0403 18:39:12.277519  7220 net.cpp:399] inception_3a/output_inception_3a/output_0_split -> inception_3a/output_inception_3a/output_0_split_3
I0403 18:39:12.277595  7220 net.cpp:141] Setting up inception_3a/output_inception_3a/output_0_split
I0403 18:39:12.277617  7220 net.cpp:148] Top shape: 24 256 28 28 (4816896)
I0403 18:39:12.277637  7220 net.cpp:148] Top shape: 24 256 28 28 (4816896)
I0403 18:39:12.277652  7220 net.cpp:148] Top shape: 24 256 28 28 (4816896)
I0403 18:39:12.277667  7220 net.cpp:148] Top shape: 24 256 28 28 (4816896)
I0403 18:39:12.277683  7220 net.cpp:156] Memory required for data: 657507360
I0403 18:39:12.277698  7220 layer_factory.hpp:77] Creating layer inception_3b/1x1
I0403 18:39:12.277722  7220 net.cpp:91] Creating Layer inception_3b/1x1
I0403 18:39:12.277740  7220 net.cpp:425] inception_3b/1x1 <- inception_3a/output_inception_3a/output_0_split_0
I0403 18:39:12.277760  7220 net.cpp:399] inception_3b/1x1 -> inception_3b/1x1
I0403 18:39:12.278924  7220 net.cpp:141] Setting up inception_3b/1x1
I0403 18:39:12.278965  7220 net.cpp:148] Top shape: 24 128 28 28 (2408448)
I0403 18:39:12.278981  7220 net.cpp:156] Memory required for data: 667141152
I0403 18:39:12.279002  7220 layer_factory.hpp:77] Creating layer inception_3b/relu_1x1
I0403 18:39:12.279023  7220 net.cpp:91] Creating Layer inception_3b/relu_1x1
I0403 18:39:12.279041  7220 net.cpp:425] inception_3b/relu_1x1 <- inception_3b/1x1
I0403 18:39:12.279057  7220 net.cpp:386] inception_3b/relu_1x1 -> inception_3b/1x1 (in-place)
I0403 18:39:12.279238  7220 net.cpp:141] Setting up inception_3b/relu_1x1
I0403 18:39:12.279268  7220 net.cpp:148] Top shape: 24 128 28 28 (2408448)
I0403 18:39:12.279284  7220 net.cpp:156] Memory required for data: 676774944
I0403 18:39:12.279299  7220 layer_factory.hpp:77] Creating layer inception_3b/3x3_reduce
I0403 18:39:12.279321  7220 net.cpp:91] Creating Layer inception_3b/3x3_reduce
I0403 18:39:12.279340  7220 net.cpp:425] inception_3b/3x3_reduce <- inception_3a/output_inception_3a/output_0_split_1
I0403 18:39:12.279361  7220 net.cpp:399] inception_3b/3x3_reduce -> inception_3b/3x3_reduce
I0403 18:39:12.280488  7220 net.cpp:141] Setting up inception_3b/3x3_reduce
I0403 18:39:12.280519  7220 net.cpp:148] Top shape: 24 128 28 28 (2408448)
I0403 18:39:12.280536  7220 net.cpp:156] Memory required for data: 686408736
I0403 18:39:12.280557  7220 layer_factory.hpp:77] Creating layer inception_3b/relu_3x3_reduce
I0403 18:39:12.280577  7220 net.cpp:91] Creating Layer inception_3b/relu_3x3_reduce
I0403 18:39:12.280594  7220 net.cpp:425] inception_3b/relu_3x3_reduce <- inception_3b/3x3_reduce
I0403 18:39:12.280611  7220 net.cpp:386] inception_3b/relu_3x3_reduce -> inception_3b/3x3_reduce (in-place)
I0403 18:39:12.280781  7220 net.cpp:141] Setting up inception_3b/relu_3x3_reduce
I0403 18:39:12.280809  7220 net.cpp:148] Top shape: 24 128 28 28 (2408448)
I0403 18:39:12.280825  7220 net.cpp:156] Memory required for data: 696042528
I0403 18:39:12.280840  7220 layer_factory.hpp:77] Creating layer inception_3b/3x3
I0403 18:39:12.280865  7220 net.cpp:91] Creating Layer inception_3b/3x3
I0403 18:39:12.280884  7220 net.cpp:425] inception_3b/3x3 <- inception_3b/3x3_reduce
I0403 18:39:12.280905  7220 net.cpp:399] inception_3b/3x3 -> inception_3b/3x3
I0403 18:39:12.283856  7220 net.cpp:141] Setting up inception_3b/3x3
I0403 18:39:12.283890  7220 net.cpp:148] Top shape: 24 192 28 28 (3612672)
I0403 18:39:12.283907  7220 net.cpp:156] Memory required for data: 710493216
I0403 18:39:12.283927  7220 layer_factory.hpp:77] Creating layer inception_3b/relu_3x3
I0403 18:39:12.283946  7220 net.cpp:91] Creating Layer inception_3b/relu_3x3
I0403 18:39:12.283963  7220 net.cpp:425] inception_3b/relu_3x3 <- inception_3b/3x3
I0403 18:39:12.283984  7220 net.cpp:386] inception_3b/relu_3x3 -> inception_3b/3x3 (in-place)
I0403 18:39:12.284271  7220 net.cpp:141] Setting up inception_3b/relu_3x3
I0403 18:39:12.284298  7220 net.cpp:148] Top shape: 24 192 28 28 (3612672)
I0403 18:39:12.284315  7220 net.cpp:156] Memory required for data: 724943904
I0403 18:39:12.284330  7220 layer_factory.hpp:77] Creating layer inception_3b/5x5_reduce
I0403 18:39:12.284353  7220 net.cpp:91] Creating Layer inception_3b/5x5_reduce
I0403 18:39:12.284369  7220 net.cpp:425] inception_3b/5x5_reduce <- inception_3a/output_inception_3a/output_0_split_2
I0403 18:39:12.284389  7220 net.cpp:399] inception_3b/5x5_reduce -> inception_3b/5x5_reduce
I0403 18:39:12.285372  7220 net.cpp:141] Setting up inception_3b/5x5_reduce
I0403 18:39:12.285401  7220 net.cpp:148] Top shape: 24 32 28 28 (602112)
I0403 18:39:12.285418  7220 net.cpp:156] Memory required for data: 727352352
I0403 18:39:12.285449  7220 layer_factory.hpp:77] Creating layer inception_3b/relu_5x5_reduce
I0403 18:39:12.285467  7220 net.cpp:91] Creating Layer inception_3b/relu_5x5_reduce
I0403 18:39:12.285485  7220 net.cpp:425] inception_3b/relu_5x5_reduce <- inception_3b/5x5_reduce
I0403 18:39:12.285502  7220 net.cpp:386] inception_3b/relu_5x5_reduce -> inception_3b/5x5_reduce (in-place)
I0403 18:39:12.285699  7220 net.cpp:141] Setting up inception_3b/relu_5x5_reduce
I0403 18:39:12.285725  7220 net.cpp:148] Top shape: 24 32 28 28 (602112)
I0403 18:39:12.285740  7220 net.cpp:156] Memory required for data: 729760800
I0403 18:39:12.285758  7220 layer_factory.hpp:77] Creating layer inception_3b/5x5
I0403 18:39:12.285780  7220 net.cpp:91] Creating Layer inception_3b/5x5
I0403 18:39:12.285799  7220 net.cpp:425] inception_3b/5x5 <- inception_3b/5x5_reduce
I0403 18:39:12.285820  7220 net.cpp:399] inception_3b/5x5 -> inception_3b/5x5
I0403 18:39:12.287838  7220 net.cpp:141] Setting up inception_3b/5x5
I0403 18:39:12.287868  7220 net.cpp:148] Top shape: 24 96 28 28 (1806336)
I0403 18:39:12.287886  7220 net.cpp:156] Memory required for data: 736986144
I0403 18:39:12.287904  7220 layer_factory.hpp:77] Creating layer inception_3b/relu_5x5
I0403 18:39:12.287926  7220 net.cpp:91] Creating Layer inception_3b/relu_5x5
I0403 18:39:12.287945  7220 net.cpp:425] inception_3b/relu_5x5 <- inception_3b/5x5
I0403 18:39:12.287963  7220 net.cpp:386] inception_3b/relu_5x5 -> inception_3b/5x5 (in-place)
I0403 18:39:12.288161  7220 net.cpp:141] Setting up inception_3b/relu_5x5
I0403 18:39:12.288187  7220 net.cpp:148] Top shape: 24 96 28 28 (1806336)
I0403 18:39:12.288202  7220 net.cpp:156] Memory required for data: 744211488
I0403 18:39:12.288223  7220 layer_factory.hpp:77] Creating layer inception_3b/pool
I0403 18:39:12.288244  7220 net.cpp:91] Creating Layer inception_3b/pool
I0403 18:39:12.288261  7220 net.cpp:425] inception_3b/pool <- inception_3a/output_inception_3a/output_0_split_3
I0403 18:39:12.288280  7220 net.cpp:399] inception_3b/pool -> inception_3b/pool
I0403 18:39:12.288337  7220 net.cpp:141] Setting up inception_3b/pool
I0403 18:39:12.288362  7220 net.cpp:148] Top shape: 24 256 28 28 (4816896)
I0403 18:39:12.288378  7220 net.cpp:156] Memory required for data: 763479072
I0403 18:39:12.288393  7220 layer_factory.hpp:77] Creating layer inception_3b/pool_proj
I0403 18:39:12.288415  7220 net.cpp:91] Creating Layer inception_3b/pool_proj
I0403 18:39:12.288434  7220 net.cpp:425] inception_3b/pool_proj <- inception_3b/pool
I0403 18:39:12.288455  7220 net.cpp:399] inception_3b/pool_proj -> inception_3b/pool_proj
I0403 18:39:12.289535  7220 net.cpp:141] Setting up inception_3b/pool_proj
I0403 18:39:12.289566  7220 net.cpp:148] Top shape: 24 64 28 28 (1204224)
I0403 18:39:12.289583  7220 net.cpp:156] Memory required for data: 768295968
I0403 18:39:12.289602  7220 layer_factory.hpp:77] Creating layer inception_3b/relu_pool_proj
I0403 18:39:12.289623  7220 net.cpp:91] Creating Layer inception_3b/relu_pool_proj
I0403 18:39:12.289641  7220 net.cpp:425] inception_3b/relu_pool_proj <- inception_3b/pool_proj
I0403 18:39:12.289659  7220 net.cpp:386] inception_3b/relu_pool_proj -> inception_3b/pool_proj (in-place)
I0403 18:39:12.290050  7220 net.cpp:141] Setting up inception_3b/relu_pool_proj
I0403 18:39:12.290078  7220 net.cpp:148] Top shape: 24 64 28 28 (1204224)
I0403 18:39:12.290093  7220 net.cpp:156] Memory required for data: 773112864
I0403 18:39:12.290109  7220 layer_factory.hpp:77] Creating layer inception_3b/output
I0403 18:39:12.290127  7220 net.cpp:91] Creating Layer inception_3b/output
I0403 18:39:12.290143  7220 net.cpp:425] inception_3b/output <- inception_3b/1x1
I0403 18:39:12.290161  7220 net.cpp:425] inception_3b/output <- inception_3b/3x3
I0403 18:39:12.290179  7220 net.cpp:425] inception_3b/output <- inception_3b/5x5
I0403 18:39:12.290195  7220 net.cpp:425] inception_3b/output <- inception_3b/pool_proj
I0403 18:39:12.290221  7220 net.cpp:399] inception_3b/output -> inception_3b/output
I0403 18:39:12.290268  7220 net.cpp:141] Setting up inception_3b/output
I0403 18:39:12.290295  7220 net.cpp:148] Top shape: 24 480 28 28 (9031680)
I0403 18:39:12.290312  7220 net.cpp:156] Memory required for data: 809239584
I0403 18:39:12.290328  7220 layer_factory.hpp:77] Creating layer pool3/3x3_s2
I0403 18:39:12.290345  7220 net.cpp:91] Creating Layer pool3/3x3_s2
I0403 18:39:12.290361  7220 net.cpp:425] pool3/3x3_s2 <- inception_3b/output
I0403 18:39:12.290395  7220 net.cpp:399] pool3/3x3_s2 -> pool3/3x3_s2
I0403 18:39:12.290457  7220 net.cpp:141] Setting up pool3/3x3_s2
I0403 18:39:12.290480  7220 net.cpp:148] Top shape: 24 480 14 14 (2257920)
I0403 18:39:12.290495  7220 net.cpp:156] Memory required for data: 818271264
I0403 18:39:12.290511  7220 layer_factory.hpp:77] Creating layer pool3/3x3_s2_pool3/3x3_s2_0_split
I0403 18:39:12.290529  7220 net.cpp:91] Creating Layer pool3/3x3_s2_pool3/3x3_s2_0_split
I0403 18:39:12.290544  7220 net.cpp:425] pool3/3x3_s2_pool3/3x3_s2_0_split <- pool3/3x3_s2
I0403 18:39:12.290565  7220 net.cpp:399] pool3/3x3_s2_pool3/3x3_s2_0_split -> pool3/3x3_s2_pool3/3x3_s2_0_split_0
I0403 18:39:12.290586  7220 net.cpp:399] pool3/3x3_s2_pool3/3x3_s2_0_split -> pool3/3x3_s2_pool3/3x3_s2_0_split_1
I0403 18:39:12.290606  7220 net.cpp:399] pool3/3x3_s2_pool3/3x3_s2_0_split -> pool3/3x3_s2_pool3/3x3_s2_0_split_2
I0403 18:39:12.290628  7220 net.cpp:399] pool3/3x3_s2_pool3/3x3_s2_0_split -> pool3/3x3_s2_pool3/3x3_s2_0_split_3
I0403 18:39:12.290709  7220 net.cpp:141] Setting up pool3/3x3_s2_pool3/3x3_s2_0_split
I0403 18:39:12.290732  7220 net.cpp:148] Top shape: 24 480 14 14 (2257920)
I0403 18:39:12.290750  7220 net.cpp:148] Top shape: 24 480 14 14 (2257920)
I0403 18:39:12.290766  7220 net.cpp:148] Top shape: 24 480 14 14 (2257920)
I0403 18:39:12.290782  7220 net.cpp:148] Top shape: 24 480 14 14 (2257920)
I0403 18:39:12.290797  7220 net.cpp:156] Memory required for data: 854397984
I0403 18:39:12.290812  7220 layer_factory.hpp:77] Creating layer inception_4a/1x1
I0403 18:39:12.290835  7220 net.cpp:91] Creating Layer inception_4a/1x1
I0403 18:39:12.290853  7220 net.cpp:425] inception_4a/1x1 <- pool3/3x3_s2_pool3/3x3_s2_0_split_0
I0403 18:39:12.290875  7220 net.cpp:399] inception_4a/1x1 -> inception_4a/1x1
I0403 18:39:12.292489  7220 net.cpp:141] Setting up inception_4a/1x1
I0403 18:39:12.292518  7220 net.cpp:148] Top shape: 24 192 14 14 (903168)
I0403 18:39:12.292536  7220 net.cpp:156] Memory required for data: 858010656
I0403 18:39:12.292556  7220 layer_factory.hpp:77] Creating layer inception_4a/relu_1x1
I0403 18:39:12.292577  7220 net.cpp:91] Creating Layer inception_4a/relu_1x1
I0403 18:39:12.292598  7220 net.cpp:425] inception_4a/relu_1x1 <- inception_4a/1x1
I0403 18:39:12.292616  7220 net.cpp:386] inception_4a/relu_1x1 -> inception_4a/1x1 (in-place)
I0403 18:39:12.292796  7220 net.cpp:141] Setting up inception_4a/relu_1x1
I0403 18:39:12.292822  7220 net.cpp:148] Top shape: 24 192 14 14 (903168)
I0403 18:39:12.292837  7220 net.cpp:156] Memory required for data: 861623328
I0403 18:39:12.292853  7220 layer_factory.hpp:77] Creating layer inception_4a/3x3_reduce
I0403 18:39:12.292879  7220 net.cpp:91] Creating Layer inception_4a/3x3_reduce
I0403 18:39:12.292897  7220 net.cpp:425] inception_4a/3x3_reduce <- pool3/3x3_s2_pool3/3x3_s2_0_split_1
I0403 18:39:12.292918  7220 net.cpp:399] inception_4a/3x3_reduce -> inception_4a/3x3_reduce
I0403 18:39:12.294224  7220 net.cpp:141] Setting up inception_4a/3x3_reduce
I0403 18:39:12.294252  7220 net.cpp:148] Top shape: 24 96 14 14 (451584)
I0403 18:39:12.294270  7220 net.cpp:156] Memory required for data: 863429664
I0403 18:39:12.294301  7220 layer_factory.hpp:77] Creating layer inception_4a/relu_3x3_reduce
I0403 18:39:12.294322  7220 net.cpp:91] Creating Layer inception_4a/relu_3x3_reduce
I0403 18:39:12.294342  7220 net.cpp:425] inception_4a/relu_3x3_reduce <- inception_4a/3x3_reduce
I0403 18:39:12.294363  7220 net.cpp:386] inception_4a/relu_3x3_reduce -> inception_4a/3x3_reduce (in-place)
I0403 18:39:12.294543  7220 net.cpp:141] Setting up inception_4a/relu_3x3_reduce
I0403 18:39:12.294570  7220 net.cpp:148] Top shape: 24 96 14 14 (451584)
I0403 18:39:12.294585  7220 net.cpp:156] Memory required for data: 865236000
I0403 18:39:12.294601  7220 layer_factory.hpp:77] Creating layer inception_4a/3x3
I0403 18:39:12.294626  7220 net.cpp:91] Creating Layer inception_4a/3x3
I0403 18:39:12.294647  7220 net.cpp:425] inception_4a/3x3 <- inception_4a/3x3_reduce
I0403 18:39:12.294672  7220 net.cpp:399] inception_4a/3x3 -> inception_4a/3x3
I0403 18:39:12.297453  7220 net.cpp:141] Setting up inception_4a/3x3
I0403 18:39:12.297497  7220 net.cpp:148] Top shape: 24 208 14 14 (978432)
I0403 18:39:12.297514  7220 net.cpp:156] Memory required for data: 869149728
I0403 18:39:12.297533  7220 layer_factory.hpp:77] Creating layer inception_4a/relu_3x3
I0403 18:39:12.297556  7220 net.cpp:91] Creating Layer inception_4a/relu_3x3
I0403 18:39:12.297575  7220 net.cpp:425] inception_4a/relu_3x3 <- inception_4a/3x3
I0403 18:39:12.297593  7220 net.cpp:386] inception_4a/relu_3x3 -> inception_4a/3x3 (in-place)
I0403 18:39:12.297880  7220 net.cpp:141] Setting up inception_4a/relu_3x3
I0403 18:39:12.297907  7220 net.cpp:148] Top shape: 24 208 14 14 (978432)
I0403 18:39:12.297924  7220 net.cpp:156] Memory required for data: 873063456
I0403 18:39:12.297940  7220 layer_factory.hpp:77] Creating layer inception_4a/5x5_reduce
I0403 18:39:12.297962  7220 net.cpp:91] Creating Layer inception_4a/5x5_reduce
I0403 18:39:12.297981  7220 net.cpp:425] inception_4a/5x5_reduce <- pool3/3x3_s2_pool3/3x3_s2_0_split_2
I0403 18:39:12.298003  7220 net.cpp:399] inception_4a/5x5_reduce -> inception_4a/5x5_reduce
I0403 18:39:12.299054  7220 net.cpp:141] Setting up inception_4a/5x5_reduce
I0403 18:39:12.299087  7220 net.cpp:148] Top shape: 24 16 14 14 (75264)
I0403 18:39:12.299105  7220 net.cpp:156] Memory required for data: 873364512
I0403 18:39:12.299125  7220 layer_factory.hpp:77] Creating layer inception_4a/relu_5x5_reduce
I0403 18:39:12.299144  7220 net.cpp:91] Creating Layer inception_4a/relu_5x5_reduce
I0403 18:39:12.299162  7220 net.cpp:425] inception_4a/relu_5x5_reduce <- inception_4a/5x5_reduce
I0403 18:39:12.299181  7220 net.cpp:386] inception_4a/relu_5x5_reduce -> inception_4a/5x5_reduce (in-place)
I0403 18:39:12.299370  7220 net.cpp:141] Setting up inception_4a/relu_5x5_reduce
I0403 18:39:12.299396  7220 net.cpp:148] Top shape: 24 16 14 14 (75264)
I0403 18:39:12.299413  7220 net.cpp:156] Memory required for data: 873665568
I0403 18:39:12.299429  7220 layer_factory.hpp:77] Creating layer inception_4a/5x5
I0403 18:39:12.299453  7220 net.cpp:91] Creating Layer inception_4a/5x5
I0403 18:39:12.299471  7220 net.cpp:425] inception_4a/5x5 <- inception_4a/5x5_reduce
I0403 18:39:12.299496  7220 net.cpp:399] inception_4a/5x5 -> inception_4a/5x5
I0403 18:39:12.300600  7220 net.cpp:141] Setting up inception_4a/5x5
I0403 18:39:12.300628  7220 net.cpp:148] Top shape: 24 48 14 14 (225792)
I0403 18:39:12.300645  7220 net.cpp:156] Memory required for data: 874568736
I0403 18:39:12.300664  7220 layer_factory.hpp:77] Creating layer inception_4a/relu_5x5
I0403 18:39:12.300684  7220 net.cpp:91] Creating Layer inception_4a/relu_5x5
I0403 18:39:12.300703  7220 net.cpp:425] inception_4a/relu_5x5 <- inception_4a/5x5
I0403 18:39:12.300724  7220 net.cpp:386] inception_4a/relu_5x5 -> inception_4a/5x5 (in-place)
I0403 18:39:12.300905  7220 net.cpp:141] Setting up inception_4a/relu_5x5
I0403 18:39:12.300932  7220 net.cpp:148] Top shape: 24 48 14 14 (225792)
I0403 18:39:12.300950  7220 net.cpp:156] Memory required for data: 875471904
I0403 18:39:12.300966  7220 layer_factory.hpp:77] Creating layer inception_4a/pool
I0403 18:39:12.300987  7220 net.cpp:91] Creating Layer inception_4a/pool
I0403 18:39:12.301004  7220 net.cpp:425] inception_4a/pool <- pool3/3x3_s2_pool3/3x3_s2_0_split_3
I0403 18:39:12.301025  7220 net.cpp:399] inception_4a/pool -> inception_4a/pool
I0403 18:39:12.301093  7220 net.cpp:141] Setting up inception_4a/pool
I0403 18:39:12.301120  7220 net.cpp:148] Top shape: 24 480 14 14 (2257920)
I0403 18:39:12.301136  7220 net.cpp:156] Memory required for data: 884503584
I0403 18:39:12.301152  7220 layer_factory.hpp:77] Creating layer inception_4a/pool_proj
I0403 18:39:12.301175  7220 net.cpp:91] Creating Layer inception_4a/pool_proj
I0403 18:39:12.301194  7220 net.cpp:425] inception_4a/pool_proj <- inception_4a/pool
I0403 18:39:12.301223  7220 net.cpp:399] inception_4a/pool_proj -> inception_4a/pool_proj
I0403 18:39:12.302446  7220 net.cpp:141] Setting up inception_4a/pool_proj
I0403 18:39:12.302477  7220 net.cpp:148] Top shape: 24 64 14 14 (301056)
I0403 18:39:12.302520  7220 net.cpp:156] Memory required for data: 885707808
I0403 18:39:12.302541  7220 layer_factory.hpp:77] Creating layer inception_4a/relu_pool_proj
I0403 18:39:12.302564  7220 net.cpp:91] Creating Layer inception_4a/relu_pool_proj
I0403 18:39:12.302582  7220 net.cpp:425] inception_4a/relu_pool_proj <- inception_4a/pool_proj
I0403 18:39:12.302602  7220 net.cpp:386] inception_4a/relu_pool_proj -> inception_4a/pool_proj (in-place)
I0403 18:39:12.302908  7220 net.cpp:141] Setting up inception_4a/relu_pool_proj
I0403 18:39:12.302935  7220 net.cpp:148] Top shape: 24 64 14 14 (301056)
I0403 18:39:12.302952  7220 net.cpp:156] Memory required for data: 886912032
I0403 18:39:12.302968  7220 layer_factory.hpp:77] Creating layer inception_4a/output
I0403 18:39:12.302985  7220 net.cpp:91] Creating Layer inception_4a/output
I0403 18:39:12.303002  7220 net.cpp:425] inception_4a/output <- inception_4a/1x1
I0403 18:39:12.303020  7220 net.cpp:425] inception_4a/output <- inception_4a/3x3
I0403 18:39:12.303037  7220 net.cpp:425] inception_4a/output <- inception_4a/5x5
I0403 18:39:12.303055  7220 net.cpp:425] inception_4a/output <- inception_4a/pool_proj
I0403 18:39:12.303074  7220 net.cpp:399] inception_4a/output -> inception_4a/output
I0403 18:39:12.303120  7220 net.cpp:141] Setting up inception_4a/output
I0403 18:39:12.303150  7220 net.cpp:148] Top shape: 24 512 14 14 (2408448)
I0403 18:39:12.303166  7220 net.cpp:156] Memory required for data: 896545824
I0403 18:39:12.303182  7220 layer_factory.hpp:77] Creating layer inception_4a/output_inception_4a/output_0_split
I0403 18:39:12.303200  7220 net.cpp:91] Creating Layer inception_4a/output_inception_4a/output_0_split
I0403 18:39:12.303223  7220 net.cpp:425] inception_4a/output_inception_4a/output_0_split <- inception_4a/output
I0403 18:39:12.303246  7220 net.cpp:399] inception_4a/output_inception_4a/output_0_split -> inception_4a/output_inception_4a/output_0_split_0
I0403 18:39:12.303268  7220 net.cpp:399] inception_4a/output_inception_4a/output_0_split -> inception_4a/output_inception_4a/output_0_split_1
I0403 18:39:12.303290  7220 net.cpp:399] inception_4a/output_inception_4a/output_0_split -> inception_4a/output_inception_4a/output_0_split_2
I0403 18:39:12.303313  7220 net.cpp:399] inception_4a/output_inception_4a/output_0_split -> inception_4a/output_inception_4a/output_0_split_3
I0403 18:39:12.303333  7220 net.cpp:399] inception_4a/output_inception_4a/output_0_split -> inception_4a/output_inception_4a/output_0_split_4
I0403 18:39:12.303426  7220 net.cpp:141] Setting up inception_4a/output_inception_4a/output_0_split
I0403 18:39:12.303452  7220 net.cpp:148] Top shape: 24 512 14 14 (2408448)
I0403 18:39:12.303470  7220 net.cpp:148] Top shape: 24 512 14 14 (2408448)
I0403 18:39:12.303488  7220 net.cpp:148] Top shape: 24 512 14 14 (2408448)
I0403 18:39:12.303504  7220 net.cpp:148] Top shape: 24 512 14 14 (2408448)
I0403 18:39:12.303521  7220 net.cpp:148] Top shape: 24 512 14 14 (2408448)
I0403 18:39:12.303535  7220 net.cpp:156] Memory required for data: 944714784
I0403 18:39:12.303551  7220 layer_factory.hpp:77] Creating layer loss1/ave_pool
I0403 18:39:12.303570  7220 net.cpp:91] Creating Layer loss1/ave_pool
I0403 18:39:12.303586  7220 net.cpp:425] loss1/ave_pool <- inception_4a/output_inception_4a/output_0_split_0
I0403 18:39:12.303604  7220 net.cpp:399] loss1/ave_pool -> loss1/ave_pool
I0403 18:39:12.303817  7220 net.cpp:141] Setting up loss1/ave_pool
I0403 18:39:12.303843  7220 net.cpp:148] Top shape: 24 512 4 4 (196608)
I0403 18:39:12.303859  7220 net.cpp:156] Memory required for data: 945501216
I0403 18:39:12.303875  7220 layer_factory.hpp:77] Creating layer loss1/conv
I0403 18:39:12.303899  7220 net.cpp:91] Creating Layer loss1/conv
I0403 18:39:12.303917  7220 net.cpp:425] loss1/conv <- loss1/ave_pool
I0403 18:39:12.303941  7220 net.cpp:399] loss1/conv -> loss1/conv
I0403 18:39:12.305394  7220 net.cpp:141] Setting up loss1/conv
I0403 18:39:12.305428  7220 net.cpp:148] Top shape: 24 128 4 4 (49152)
I0403 18:39:12.305459  7220 net.cpp:156] Memory required for data: 945697824
I0403 18:39:12.305481  7220 layer_factory.hpp:77] Creating layer loss1/relu_conv
I0403 18:39:12.305500  7220 net.cpp:91] Creating Layer loss1/relu_conv
I0403 18:39:12.305518  7220 net.cpp:425] loss1/relu_conv <- loss1/conv
I0403 18:39:12.305537  7220 net.cpp:386] loss1/relu_conv -> loss1/conv (in-place)
I0403 18:39:12.305829  7220 net.cpp:141] Setting up loss1/relu_conv
I0403 18:39:12.305857  7220 net.cpp:148] Top shape: 24 128 4 4 (49152)
I0403 18:39:12.305874  7220 net.cpp:156] Memory required for data: 945894432
I0403 18:39:12.305891  7220 layer_factory.hpp:77] Creating layer loss1/fc
I0403 18:39:12.305914  7220 net.cpp:91] Creating Layer loss1/fc
I0403 18:39:12.305934  7220 net.cpp:425] loss1/fc <- loss1/conv
I0403 18:39:12.305958  7220 net.cpp:399] loss1/fc -> loss1/fc
I0403 18:39:12.324597  7220 net.cpp:141] Setting up loss1/fc
I0403 18:39:12.324661  7220 net.cpp:148] Top shape: 24 1024 (24576)
I0403 18:39:12.324679  7220 net.cpp:156] Memory required for data: 945992736
I0403 18:39:12.324702  7220 layer_factory.hpp:77] Creating layer loss1/relu_fc
I0403 18:39:12.324724  7220 net.cpp:91] Creating Layer loss1/relu_fc
I0403 18:39:12.324744  7220 net.cpp:425] loss1/relu_fc <- loss1/fc
I0403 18:39:12.324764  7220 net.cpp:386] loss1/relu_fc -> loss1/fc (in-place)
I0403 18:39:12.324986  7220 net.cpp:141] Setting up loss1/relu_fc
I0403 18:39:12.325012  7220 net.cpp:148] Top shape: 24 1024 (24576)
I0403 18:39:12.325028  7220 net.cpp:156] Memory required for data: 946091040
I0403 18:39:12.325044  7220 layer_factory.hpp:77] Creating layer loss1/drop_fc
I0403 18:39:12.325078  7220 net.cpp:91] Creating Layer loss1/drop_fc
I0403 18:39:12.325098  7220 net.cpp:425] loss1/drop_fc <- loss1/fc
I0403 18:39:12.325116  7220 net.cpp:386] loss1/drop_fc -> loss1/fc (in-place)
I0403 18:39:12.325175  7220 net.cpp:141] Setting up loss1/drop_fc
I0403 18:39:12.325198  7220 net.cpp:148] Top shape: 24 1024 (24576)
I0403 18:39:12.325222  7220 net.cpp:156] Memory required for data: 946189344
I0403 18:39:12.325239  7220 layer_factory.hpp:77] Creating layer loss1/classifier_plantvillage
I0403 18:39:12.325260  7220 net.cpp:91] Creating Layer loss1/classifier_plantvillage
I0403 18:39:12.325287  7220 net.cpp:425] loss1/classifier_plantvillage <- loss1/fc
I0403 18:39:12.325309  7220 net.cpp:399] loss1/classifier_plantvillage -> loss1/classifier_plantvillage
I0403 18:39:12.326314  7220 net.cpp:141] Setting up loss1/classifier_plantvillage
I0403 18:39:12.326349  7220 net.cpp:148] Top shape: 24 38 (912)
I0403 18:39:12.326366  7220 net.cpp:156] Memory required for data: 946192992
I0403 18:39:12.326387  7220 layer_factory.hpp:77] Creating layer loss1/classifier_plantvillage_loss1/classifier_plantvillage_0_split
I0403 18:39:12.326409  7220 net.cpp:91] Creating Layer loss1/classifier_plantvillage_loss1/classifier_plantvillage_0_split
I0403 18:39:12.326428  7220 net.cpp:425] loss1/classifier_plantvillage_loss1/classifier_plantvillage_0_split <- loss1/classifier_plantvillage
I0403 18:39:12.326447  7220 net.cpp:399] loss1/classifier_plantvillage_loss1/classifier_plantvillage_0_split -> loss1/classifier_plantvillage_loss1/classifier_plantvillage_0_split_0
I0403 18:39:12.326468  7220 net.cpp:399] loss1/classifier_plantvillage_loss1/classifier_plantvillage_0_split -> loss1/classifier_plantvillage_loss1/classifier_plantvillage_0_split_1
I0403 18:39:12.326490  7220 net.cpp:399] loss1/classifier_plantvillage_loss1/classifier_plantvillage_0_split -> loss1/classifier_plantvillage_loss1/classifier_plantvillage_0_split_2
I0403 18:39:12.326560  7220 net.cpp:141] Setting up loss1/classifier_plantvillage_loss1/classifier_plantvillage_0_split
I0403 18:39:12.326586  7220 net.cpp:148] Top shape: 24 38 (912)
I0403 18:39:12.326602  7220 net.cpp:148] Top shape: 24 38 (912)
I0403 18:39:12.326619  7220 net.cpp:148] Top shape: 24 38 (912)
I0403 18:39:12.326633  7220 net.cpp:156] Memory required for data: 946203936
I0403 18:39:12.326649  7220 layer_factory.hpp:77] Creating layer inception_4b/1x1
I0403 18:39:12.326673  7220 net.cpp:91] Creating Layer inception_4b/1x1
I0403 18:39:12.326715  7220 net.cpp:425] inception_4b/1x1 <- inception_4a/output_inception_4a/output_0_split_1
I0403 18:39:12.326740  7220 net.cpp:399] inception_4b/1x1 -> inception_4b/1x1
I0403 18:39:12.328469  7220 net.cpp:141] Setting up inception_4b/1x1
I0403 18:39:12.328503  7220 net.cpp:148] Top shape: 24 160 14 14 (752640)
I0403 18:39:12.328522  7220 net.cpp:156] Memory required for data: 949214496
I0403 18:39:12.328543  7220 layer_factory.hpp:77] Creating layer inception_4b/relu_1x1
I0403 18:39:12.328564  7220 net.cpp:91] Creating Layer inception_4b/relu_1x1
I0403 18:39:12.328583  7220 net.cpp:425] inception_4b/relu_1x1 <- inception_4b/1x1
I0403 18:39:12.328605  7220 net.cpp:386] inception_4b/relu_1x1 -> inception_4b/1x1 (in-place)
I0403 18:39:12.328789  7220 net.cpp:141] Setting up inception_4b/relu_1x1
I0403 18:39:12.328817  7220 net.cpp:148] Top shape: 24 160 14 14 (752640)
I0403 18:39:12.328835  7220 net.cpp:156] Memory required for data: 952225056
I0403 18:39:12.328850  7220 layer_factory.hpp:77] Creating layer inception_4b/3x3_reduce
I0403 18:39:12.328874  7220 net.cpp:91] Creating Layer inception_4b/3x3_reduce
I0403 18:39:12.328893  7220 net.cpp:425] inception_4b/3x3_reduce <- inception_4a/output_inception_4a/output_0_split_2
I0403 18:39:12.328918  7220 net.cpp:399] inception_4b/3x3_reduce -> inception_4b/3x3_reduce
I0403 18:39:12.330320  7220 net.cpp:141] Setting up inception_4b/3x3_reduce
I0403 18:39:12.330355  7220 net.cpp:148] Top shape: 24 112 14 14 (526848)
I0403 18:39:12.330376  7220 net.cpp:156] Memory required for data: 954332448
I0403 18:39:12.330397  7220 layer_factory.hpp:77] Creating layer inception_4b/relu_3x3_reduce
I0403 18:39:12.330416  7220 net.cpp:91] Creating Layer inception_4b/relu_3x3_reduce
I0403 18:39:12.330433  7220 net.cpp:425] inception_4b/relu_3x3_reduce <- inception_4b/3x3_reduce
I0403 18:39:12.330454  7220 net.cpp:386] inception_4b/relu_3x3_reduce -> inception_4b/3x3_reduce (in-place)
I0403 18:39:12.330732  7220 net.cpp:141] Setting up inception_4b/relu_3x3_reduce
I0403 18:39:12.330762  7220 net.cpp:148] Top shape: 24 112 14 14 (526848)
I0403 18:39:12.330780  7220 net.cpp:156] Memory required for data: 956439840
I0403 18:39:12.330796  7220 layer_factory.hpp:77] Creating layer inception_4b/3x3
I0403 18:39:12.330818  7220 net.cpp:91] Creating Layer inception_4b/3x3
I0403 18:39:12.330837  7220 net.cpp:425] inception_4b/3x3 <- inception_4b/3x3_reduce
I0403 18:39:12.330858  7220 net.cpp:399] inception_4b/3x3 -> inception_4b/3x3
I0403 18:39:12.333878  7220 net.cpp:141] Setting up inception_4b/3x3
I0403 18:39:12.333909  7220 net.cpp:148] Top shape: 24 224 14 14 (1053696)
I0403 18:39:12.333925  7220 net.cpp:156] Memory required for data: 960654624
I0403 18:39:12.333945  7220 layer_factory.hpp:77] Creating layer inception_4b/relu_3x3
I0403 18:39:12.333966  7220 net.cpp:91] Creating Layer inception_4b/relu_3x3
I0403 18:39:12.333986  7220 net.cpp:425] inception_4b/relu_3x3 <- inception_4b/3x3
I0403 18:39:12.334005  7220 net.cpp:386] inception_4b/relu_3x3 -> inception_4b/3x3 (in-place)
I0403 18:39:12.334190  7220 net.cpp:141] Setting up inception_4b/relu_3x3
I0403 18:39:12.334220  7220 net.cpp:148] Top shape: 24 224 14 14 (1053696)
I0403 18:39:12.334236  7220 net.cpp:156] Memory required for data: 964869408
I0403 18:39:12.334252  7220 layer_factory.hpp:77] Creating layer inception_4b/5x5_reduce
I0403 18:39:12.334277  7220 net.cpp:91] Creating Layer inception_4b/5x5_reduce
I0403 18:39:12.334295  7220 net.cpp:425] inception_4b/5x5_reduce <- inception_4a/output_inception_4a/output_0_split_3
I0403 18:39:12.334314  7220 net.cpp:399] inception_4b/5x5_reduce -> inception_4b/5x5_reduce
I0403 18:39:12.335391  7220 net.cpp:141] Setting up inception_4b/5x5_reduce
I0403 18:39:12.335422  7220 net.cpp:148] Top shape: 24 24 14 14 (112896)
I0403 18:39:12.335440  7220 net.cpp:156] Memory required for data: 965320992
I0403 18:39:12.335461  7220 layer_factory.hpp:77] Creating layer inception_4b/relu_5x5_reduce
I0403 18:39:12.335480  7220 net.cpp:91] Creating Layer inception_4b/relu_5x5_reduce
I0403 18:39:12.335511  7220 net.cpp:425] inception_4b/relu_5x5_reduce <- inception_4b/5x5_reduce
I0403 18:39:12.335531  7220 net.cpp:386] inception_4b/relu_5x5_reduce -> inception_4b/5x5_reduce (in-place)
I0403 18:39:12.335716  7220 net.cpp:141] Setting up inception_4b/relu_5x5_reduce
I0403 18:39:12.335741  7220 net.cpp:148] Top shape: 24 24 14 14 (112896)
I0403 18:39:12.335755  7220 net.cpp:156] Memory required for data: 965772576
I0403 18:39:12.335770  7220 layer_factory.hpp:77] Creating layer inception_4b/5x5
I0403 18:39:12.335793  7220 net.cpp:91] Creating Layer inception_4b/5x5
I0403 18:39:12.335811  7220 net.cpp:425] inception_4b/5x5 <- inception_4b/5x5_reduce
I0403 18:39:12.335832  7220 net.cpp:399] inception_4b/5x5 -> inception_4b/5x5
I0403 18:39:12.337054  7220 net.cpp:141] Setting up inception_4b/5x5
I0403 18:39:12.337085  7220 net.cpp:148] Top shape: 24 64 14 14 (301056)
I0403 18:39:12.337116  7220 net.cpp:156] Memory required for data: 966976800
I0403 18:39:12.337137  7220 layer_factory.hpp:77] Creating layer inception_4b/relu_5x5
I0403 18:39:12.337157  7220 net.cpp:91] Creating Layer inception_4b/relu_5x5
I0403 18:39:12.337172  7220 net.cpp:425] inception_4b/relu_5x5 <- inception_4b/5x5
I0403 18:39:12.337191  7220 net.cpp:386] inception_4b/relu_5x5 -> inception_4b/5x5 (in-place)
I0403 18:39:12.337492  7220 net.cpp:141] Setting up inception_4b/relu_5x5
I0403 18:39:12.337522  7220 net.cpp:148] Top shape: 24 64 14 14 (301056)
I0403 18:39:12.337541  7220 net.cpp:156] Memory required for data: 968181024
I0403 18:39:12.337558  7220 layer_factory.hpp:77] Creating layer inception_4b/pool
I0403 18:39:12.337579  7220 net.cpp:91] Creating Layer inception_4b/pool
I0403 18:39:12.337596  7220 net.cpp:425] inception_4b/pool <- inception_4a/output_inception_4a/output_0_split_4
I0403 18:39:12.337616  7220 net.cpp:399] inception_4b/pool -> inception_4b/pool
I0403 18:39:12.337689  7220 net.cpp:141] Setting up inception_4b/pool
I0403 18:39:12.337715  7220 net.cpp:148] Top shape: 24 512 14 14 (2408448)
I0403 18:39:12.337731  7220 net.cpp:156] Memory required for data: 977814816
I0403 18:39:12.337746  7220 layer_factory.hpp:77] Creating layer inception_4b/pool_proj
I0403 18:39:12.337771  7220 net.cpp:91] Creating Layer inception_4b/pool_proj
I0403 18:39:12.337790  7220 net.cpp:425] inception_4b/pool_proj <- inception_4b/pool
I0403 18:39:12.337813  7220 net.cpp:399] inception_4b/pool_proj -> inception_4b/pool_proj
I0403 18:39:12.339052  7220 net.cpp:141] Setting up inception_4b/pool_proj
I0403 18:39:12.339084  7220 net.cpp:148] Top shape: 24 64 14 14 (301056)
I0403 18:39:12.339102  7220 net.cpp:156] Memory required for data: 979019040
I0403 18:39:12.339123  7220 layer_factory.hpp:77] Creating layer inception_4b/relu_pool_proj
I0403 18:39:12.339143  7220 net.cpp:91] Creating Layer inception_4b/relu_pool_proj
I0403 18:39:12.339160  7220 net.cpp:425] inception_4b/relu_pool_proj <- inception_4b/pool_proj
I0403 18:39:12.339179  7220 net.cpp:386] inception_4b/relu_pool_proj -> inception_4b/pool_proj (in-place)
I0403 18:39:12.339367  7220 net.cpp:141] Setting up inception_4b/relu_pool_proj
I0403 18:39:12.339392  7220 net.cpp:148] Top shape: 24 64 14 14 (301056)
I0403 18:39:12.339407  7220 net.cpp:156] Memory required for data: 980223264
I0403 18:39:12.339423  7220 layer_factory.hpp:77] Creating layer inception_4b/output
I0403 18:39:12.339442  7220 net.cpp:91] Creating Layer inception_4b/output
I0403 18:39:12.339457  7220 net.cpp:425] inception_4b/output <- inception_4b/1x1
I0403 18:39:12.339474  7220 net.cpp:425] inception_4b/output <- inception_4b/3x3
I0403 18:39:12.339490  7220 net.cpp:425] inception_4b/output <- inception_4b/5x5
I0403 18:39:12.339506  7220 net.cpp:425] inception_4b/output <- inception_4b/pool_proj
I0403 18:39:12.339526  7220 net.cpp:399] inception_4b/output -> inception_4b/output
I0403 18:39:12.339571  7220 net.cpp:141] Setting up inception_4b/output
I0403 18:39:12.339596  7220 net.cpp:148] Top shape: 24 512 14 14 (2408448)
I0403 18:39:12.339613  7220 net.cpp:156] Memory required for data: 989857056
I0403 18:39:12.339643  7220 layer_factory.hpp:77] Creating layer inception_4b/output_inception_4b/output_0_split
I0403 18:39:12.339661  7220 net.cpp:91] Creating Layer inception_4b/output_inception_4b/output_0_split
I0403 18:39:12.339676  7220 net.cpp:425] inception_4b/output_inception_4b/output_0_split <- inception_4b/output
I0403 18:39:12.339697  7220 net.cpp:399] inception_4b/output_inception_4b/output_0_split -> inception_4b/output_inception_4b/output_0_split_0
I0403 18:39:12.339720  7220 net.cpp:399] inception_4b/output_inception_4b/output_0_split -> inception_4b/output_inception_4b/output_0_split_1
I0403 18:39:12.339740  7220 net.cpp:399] inception_4b/output_inception_4b/output_0_split -> inception_4b/output_inception_4b/output_0_split_2
I0403 18:39:12.339761  7220 net.cpp:399] inception_4b/output_inception_4b/output_0_split -> inception_4b/output_inception_4b/output_0_split_3
I0403 18:39:12.339841  7220 net.cpp:141] Setting up inception_4b/output_inception_4b/output_0_split
I0403 18:39:12.339864  7220 net.cpp:148] Top shape: 24 512 14 14 (2408448)
I0403 18:39:12.339881  7220 net.cpp:148] Top shape: 24 512 14 14 (2408448)
I0403 18:39:12.339897  7220 net.cpp:148] Top shape: 24 512 14 14 (2408448)
I0403 18:39:12.339913  7220 net.cpp:148] Top shape: 24 512 14 14 (2408448)
I0403 18:39:12.339928  7220 net.cpp:156] Memory required for data: 1028392224
I0403 18:39:12.339943  7220 layer_factory.hpp:77] Creating layer inception_4c/1x1
I0403 18:39:12.339965  7220 net.cpp:91] Creating Layer inception_4c/1x1
I0403 18:39:12.339983  7220 net.cpp:425] inception_4c/1x1 <- inception_4b/output_inception_4b/output_0_split_0
I0403 18:39:12.340004  7220 net.cpp:399] inception_4c/1x1 -> inception_4c/1x1
I0403 18:39:12.341445  7220 net.cpp:141] Setting up inception_4c/1x1
I0403 18:39:12.341473  7220 net.cpp:148] Top shape: 24 128 14 14 (602112)
I0403 18:39:12.341488  7220 net.cpp:156] Memory required for data: 1030800672
I0403 18:39:12.341507  7220 layer_factory.hpp:77] Creating layer inception_4c/relu_1x1
I0403 18:39:12.341527  7220 net.cpp:91] Creating Layer inception_4c/relu_1x1
I0403 18:39:12.341544  7220 net.cpp:425] inception_4c/relu_1x1 <- inception_4c/1x1
I0403 18:39:12.341562  7220 net.cpp:386] inception_4c/relu_1x1 -> inception_4c/1x1 (in-place)
I0403 18:39:12.341743  7220 net.cpp:141] Setting up inception_4c/relu_1x1
I0403 18:39:12.341768  7220 net.cpp:148] Top shape: 24 128 14 14 (602112)
I0403 18:39:12.341783  7220 net.cpp:156] Memory required for data: 1033209120
I0403 18:39:12.341797  7220 layer_factory.hpp:77] Creating layer inception_4c/3x3_reduce
I0403 18:39:12.341820  7220 net.cpp:91] Creating Layer inception_4c/3x3_reduce
I0403 18:39:12.341840  7220 net.cpp:425] inception_4c/3x3_reduce <- inception_4b/output_inception_4b/output_0_split_1
I0403 18:39:12.341861  7220 net.cpp:399] inception_4c/3x3_reduce -> inception_4c/3x3_reduce
I0403 18:39:12.343819  7220 net.cpp:141] Setting up inception_4c/3x3_reduce
I0403 18:39:12.343849  7220 net.cpp:148] Top shape: 24 128 14 14 (602112)
I0403 18:39:12.343865  7220 net.cpp:156] Memory required for data: 1035617568
I0403 18:39:12.343885  7220 layer_factory.hpp:77] Creating layer inception_4c/relu_3x3_reduce
I0403 18:39:12.343907  7220 net.cpp:91] Creating Layer inception_4c/relu_3x3_reduce
I0403 18:39:12.343926  7220 net.cpp:425] inception_4c/relu_3x3_reduce <- inception_4c/3x3_reduce
I0403 18:39:12.343946  7220 net.cpp:386] inception_4c/relu_3x3_reduce -> inception_4c/3x3_reduce (in-place)
I0403 18:39:12.344244  7220 net.cpp:141] Setting up inception_4c/relu_3x3_reduce
I0403 18:39:12.344270  7220 net.cpp:148] Top shape: 24 128 14 14 (602112)
I0403 18:39:12.344286  7220 net.cpp:156] Memory required for data: 1038026016
I0403 18:39:12.344303  7220 layer_factory.hpp:77] Creating layer inception_4c/3x3
I0403 18:39:12.344331  7220 net.cpp:91] Creating Layer inception_4c/3x3
I0403 18:39:12.344348  7220 net.cpp:425] inception_4c/3x3 <- inception_4c/3x3_reduce
I0403 18:39:12.344368  7220 net.cpp:399] inception_4c/3x3 -> inception_4c/3x3
I0403 18:39:12.347954  7220 net.cpp:141] Setting up inception_4c/3x3
I0403 18:39:12.347997  7220 net.cpp:148] Top shape: 24 256 14 14 (1204224)
I0403 18:39:12.348016  7220 net.cpp:156] Memory required for data: 1042842912
I0403 18:39:12.348050  7220 layer_factory.hpp:77] Creating layer inception_4c/relu_3x3
I0403 18:39:12.348074  7220 net.cpp:91] Creating Layer inception_4c/relu_3x3
I0403 18:39:12.348091  7220 net.cpp:425] inception_4c/relu_3x3 <- inception_4c/3x3
I0403 18:39:12.348109  7220 net.cpp:386] inception_4c/relu_3x3 -> inception_4c/3x3 (in-place)
I0403 18:39:12.348297  7220 net.cpp:141] Setting up inception_4c/relu_3x3
I0403 18:39:12.348326  7220 net.cpp:148] Top shape: 24 256 14 14 (1204224)
I0403 18:39:12.348343  7220 net.cpp:156] Memory required for data: 1047659808
I0403 18:39:12.348361  7220 layer_factory.hpp:77] Creating layer inception_4c/5x5_reduce
I0403 18:39:12.348383  7220 net.cpp:91] Creating Layer inception_4c/5x5_reduce
I0403 18:39:12.348402  7220 net.cpp:425] inception_4c/5x5_reduce <- inception_4b/output_inception_4b/output_0_split_2
I0403 18:39:12.348423  7220 net.cpp:399] inception_4c/5x5_reduce -> inception_4c/5x5_reduce
I0403 18:39:12.349501  7220 net.cpp:141] Setting up inception_4c/5x5_reduce
I0403 18:39:12.349536  7220 net.cpp:148] Top shape: 24 24 14 14 (112896)
I0403 18:39:12.349556  7220 net.cpp:156] Memory required for data: 1048111392
I0403 18:39:12.349576  7220 layer_factory.hpp:77] Creating layer inception_4c/relu_5x5_reduce
I0403 18:39:12.349596  7220 net.cpp:91] Creating Layer inception_4c/relu_5x5_reduce
I0403 18:39:12.349611  7220 net.cpp:425] inception_4c/relu_5x5_reduce <- inception_4c/5x5_reduce
I0403 18:39:12.349634  7220 net.cpp:386] inception_4c/relu_5x5_reduce -> inception_4c/5x5_reduce (in-place)
I0403 18:39:12.349817  7220 net.cpp:141] Setting up inception_4c/relu_5x5_reduce
I0403 18:39:12.349843  7220 net.cpp:148] Top shape: 24 24 14 14 (112896)
I0403 18:39:12.349860  7220 net.cpp:156] Memory required for data: 1048562976
I0403 18:39:12.349875  7220 layer_factory.hpp:77] Creating layer inception_4c/5x5
I0403 18:39:12.349897  7220 net.cpp:91] Creating Layer inception_4c/5x5
I0403 18:39:12.349916  7220 net.cpp:425] inception_4c/5x5 <- inception_4c/5x5_reduce
I0403 18:39:12.349937  7220 net.cpp:399] inception_4c/5x5 -> inception_4c/5x5
I0403 18:39:12.351171  7220 net.cpp:141] Setting up inception_4c/5x5
I0403 18:39:12.351199  7220 net.cpp:148] Top shape: 24 64 14 14 (301056)
I0403 18:39:12.351222  7220 net.cpp:156] Memory required for data: 1049767200
I0403 18:39:12.351241  7220 layer_factory.hpp:77] Creating layer inception_4c/relu_5x5
I0403 18:39:12.351259  7220 net.cpp:91] Creating Layer inception_4c/relu_5x5
I0403 18:39:12.351279  7220 net.cpp:425] inception_4c/relu_5x5 <- inception_4c/5x5
I0403 18:39:12.351296  7220 net.cpp:386] inception_4c/relu_5x5 -> inception_4c/5x5 (in-place)
I0403 18:39:12.351601  7220 net.cpp:141] Setting up inception_4c/relu_5x5
I0403 18:39:12.351629  7220 net.cpp:148] Top shape: 24 64 14 14 (301056)
I0403 18:39:12.351644  7220 net.cpp:156] Memory required for data: 1050971424
I0403 18:39:12.351660  7220 layer_factory.hpp:77] Creating layer inception_4c/pool
I0403 18:39:12.351678  7220 net.cpp:91] Creating Layer inception_4c/pool
I0403 18:39:12.351707  7220 net.cpp:425] inception_4c/pool <- inception_4b/output_inception_4b/output_0_split_3
I0403 18:39:12.351729  7220 net.cpp:399] inception_4c/pool -> inception_4c/pool
I0403 18:39:12.351801  7220 net.cpp:141] Setting up inception_4c/pool
I0403 18:39:12.351829  7220 net.cpp:148] Top shape: 24 512 14 14 (2408448)
I0403 18:39:12.351843  7220 net.cpp:156] Memory required for data: 1060605216
I0403 18:39:12.351860  7220 layer_factory.hpp:77] Creating layer inception_4c/pool_proj
I0403 18:39:12.351882  7220 net.cpp:91] Creating Layer inception_4c/pool_proj
I0403 18:39:12.351900  7220 net.cpp:425] inception_4c/pool_proj <- inception_4c/pool
I0403 18:39:12.351919  7220 net.cpp:399] inception_4c/pool_proj -> inception_4c/pool_proj
I0403 18:39:12.353137  7220 net.cpp:141] Setting up inception_4c/pool_proj
I0403 18:39:12.353168  7220 net.cpp:148] Top shape: 24 64 14 14 (301056)
I0403 18:39:12.353200  7220 net.cpp:156] Memory required for data: 1061809440
I0403 18:39:12.353227  7220 layer_factory.hpp:77] Creating layer inception_4c/relu_pool_proj
I0403 18:39:12.353248  7220 net.cpp:91] Creating Layer inception_4c/relu_pool_proj
I0403 18:39:12.353267  7220 net.cpp:425] inception_4c/relu_pool_proj <- inception_4c/pool_proj
I0403 18:39:12.353284  7220 net.cpp:386] inception_4c/relu_pool_proj -> inception_4c/pool_proj (in-place)
I0403 18:39:12.353473  7220 net.cpp:141] Setting up inception_4c/relu_pool_proj
I0403 18:39:12.353498  7220 net.cpp:148] Top shape: 24 64 14 14 (301056)
I0403 18:39:12.353513  7220 net.cpp:156] Memory required for data: 1063013664
I0403 18:39:12.353529  7220 layer_factory.hpp:77] Creating layer inception_4c/output
I0403 18:39:12.353549  7220 net.cpp:91] Creating Layer inception_4c/output
I0403 18:39:12.353564  7220 net.cpp:425] inception_4c/output <- inception_4c/1x1
I0403 18:39:12.353581  7220 net.cpp:425] inception_4c/output <- inception_4c/3x3
I0403 18:39:12.353597  7220 net.cpp:425] inception_4c/output <- inception_4c/5x5
I0403 18:39:12.353615  7220 net.cpp:425] inception_4c/output <- inception_4c/pool_proj
I0403 18:39:12.353636  7220 net.cpp:399] inception_4c/output -> inception_4c/output
I0403 18:39:12.353682  7220 net.cpp:141] Setting up inception_4c/output
I0403 18:39:12.353708  7220 net.cpp:148] Top shape: 24 512 14 14 (2408448)
I0403 18:39:12.353724  7220 net.cpp:156] Memory required for data: 1072647456
I0403 18:39:12.353740  7220 layer_factory.hpp:77] Creating layer inception_4c/output_inception_4c/output_0_split
I0403 18:39:12.353759  7220 net.cpp:91] Creating Layer inception_4c/output_inception_4c/output_0_split
I0403 18:39:12.353775  7220 net.cpp:425] inception_4c/output_inception_4c/output_0_split <- inception_4c/output
I0403 18:39:12.353795  7220 net.cpp:399] inception_4c/output_inception_4c/output_0_split -> inception_4c/output_inception_4c/output_0_split_0
I0403 18:39:12.353819  7220 net.cpp:399] inception_4c/output_inception_4c/output_0_split -> inception_4c/output_inception_4c/output_0_split_1
I0403 18:39:12.353840  7220 net.cpp:399] inception_4c/output_inception_4c/output_0_split -> inception_4c/output_inception_4c/output_0_split_2
I0403 18:39:12.353863  7220 net.cpp:399] inception_4c/output_inception_4c/output_0_split -> inception_4c/output_inception_4c/output_0_split_3
I0403 18:39:12.353947  7220 net.cpp:141] Setting up inception_4c/output_inception_4c/output_0_split
I0403 18:39:12.353971  7220 net.cpp:148] Top shape: 24 512 14 14 (2408448)
I0403 18:39:12.353987  7220 net.cpp:148] Top shape: 24 512 14 14 (2408448)
I0403 18:39:12.354006  7220 net.cpp:148] Top shape: 24 512 14 14 (2408448)
I0403 18:39:12.354022  7220 net.cpp:148] Top shape: 24 512 14 14 (2408448)
I0403 18:39:12.354035  7220 net.cpp:156] Memory required for data: 1111182624
I0403 18:39:12.354050  7220 layer_factory.hpp:77] Creating layer inception_4d/1x1
I0403 18:39:12.354074  7220 net.cpp:91] Creating Layer inception_4d/1x1
I0403 18:39:12.354092  7220 net.cpp:425] inception_4d/1x1 <- inception_4c/output_inception_4c/output_0_split_0
I0403 18:39:12.354115  7220 net.cpp:399] inception_4d/1x1 -> inception_4d/1x1
I0403 18:39:12.355496  7220 net.cpp:141] Setting up inception_4d/1x1
I0403 18:39:12.355525  7220 net.cpp:148] Top shape: 24 112 14 14 (526848)
I0403 18:39:12.355543  7220 net.cpp:156] Memory required for data: 1113290016
I0403 18:39:12.355562  7220 layer_factory.hpp:77] Creating layer inception_4d/relu_1x1
I0403 18:39:12.355597  7220 net.cpp:91] Creating Layer inception_4d/relu_1x1
I0403 18:39:12.355618  7220 net.cpp:425] inception_4d/relu_1x1 <- inception_4d/1x1
I0403 18:39:12.355636  7220 net.cpp:386] inception_4d/relu_1x1 -> inception_4d/1x1 (in-place)
I0403 18:39:12.355826  7220 net.cpp:141] Setting up inception_4d/relu_1x1
I0403 18:39:12.355855  7220 net.cpp:148] Top shape: 24 112 14 14 (526848)
I0403 18:39:12.355872  7220 net.cpp:156] Memory required for data: 1115397408
I0403 18:39:12.355890  7220 layer_factory.hpp:77] Creating layer inception_4d/3x3_reduce
I0403 18:39:12.355937  7220 net.cpp:91] Creating Layer inception_4d/3x3_reduce
I0403 18:39:12.355957  7220 net.cpp:425] inception_4d/3x3_reduce <- inception_4c/output_inception_4c/output_0_split_1
I0403 18:39:12.355978  7220 net.cpp:399] inception_4d/3x3_reduce -> inception_4d/3x3_reduce
I0403 18:39:12.357499  7220 net.cpp:141] Setting up inception_4d/3x3_reduce
I0403 18:39:12.357528  7220 net.cpp:148] Top shape: 24 144 14 14 (677376)
I0403 18:39:12.357545  7220 net.cpp:156] Memory required for data: 1118106912
I0403 18:39:12.357564  7220 layer_factory.hpp:77] Creating layer inception_4d/relu_3x3_reduce
I0403 18:39:12.357583  7220 net.cpp:91] Creating Layer inception_4d/relu_3x3_reduce
I0403 18:39:12.357601  7220 net.cpp:425] inception_4d/relu_3x3_reduce <- inception_4d/3x3_reduce
I0403 18:39:12.357621  7220 net.cpp:386] inception_4d/relu_3x3_reduce -> inception_4d/3x3_reduce (in-place)
I0403 18:39:12.357913  7220 net.cpp:141] Setting up inception_4d/relu_3x3_reduce
I0403 18:39:12.357939  7220 net.cpp:148] Top shape: 24 144 14 14 (677376)
I0403 18:39:12.357956  7220 net.cpp:156] Memory required for data: 1120816416
I0403 18:39:12.357972  7220 layer_factory.hpp:77] Creating layer inception_4d/3x3
I0403 18:39:12.357995  7220 net.cpp:91] Creating Layer inception_4d/3x3
I0403 18:39:12.358012  7220 net.cpp:425] inception_4d/3x3 <- inception_4d/3x3_reduce
I0403 18:39:12.358036  7220 net.cpp:399] inception_4d/3x3 -> inception_4d/3x3
I0403 18:39:12.362362  7220 net.cpp:141] Setting up inception_4d/3x3
I0403 18:39:12.362396  7220 net.cpp:148] Top shape: 24 288 14 14 (1354752)
I0403 18:39:12.362412  7220 net.cpp:156] Memory required for data: 1126235424
I0403 18:39:12.362433  7220 layer_factory.hpp:77] Creating layer inception_4d/relu_3x3
I0403 18:39:12.362455  7220 net.cpp:91] Creating Layer inception_4d/relu_3x3
I0403 18:39:12.362474  7220 net.cpp:425] inception_4d/relu_3x3 <- inception_4d/3x3
I0403 18:39:12.362493  7220 net.cpp:386] inception_4d/relu_3x3 -> inception_4d/3x3 (in-place)
I0403 18:39:12.362676  7220 net.cpp:141] Setting up inception_4d/relu_3x3
I0403 18:39:12.362705  7220 net.cpp:148] Top shape: 24 288 14 14 (1354752)
I0403 18:39:12.362722  7220 net.cpp:156] Memory required for data: 1131654432
I0403 18:39:12.362740  7220 layer_factory.hpp:77] Creating layer inception_4d/5x5_reduce
I0403 18:39:12.362762  7220 net.cpp:91] Creating Layer inception_4d/5x5_reduce
I0403 18:39:12.362783  7220 net.cpp:425] inception_4d/5x5_reduce <- inception_4c/output_inception_4c/output_0_split_2
I0403 18:39:12.362803  7220 net.cpp:399] inception_4d/5x5_reduce -> inception_4d/5x5_reduce
I0403 18:39:12.363948  7220 net.cpp:141] Setting up inception_4d/5x5_reduce
I0403 18:39:12.363979  7220 net.cpp:148] Top shape: 24 32 14 14 (150528)
I0403 18:39:12.363996  7220 net.cpp:156] Memory required for data: 1132256544
I0403 18:39:12.364017  7220 layer_factory.hpp:77] Creating layer inception_4d/relu_5x5_reduce
I0403 18:39:12.364037  7220 net.cpp:91] Creating Layer inception_4d/relu_5x5_reduce
I0403 18:39:12.364056  7220 net.cpp:425] inception_4d/relu_5x5_reduce <- inception_4d/5x5_reduce
I0403 18:39:12.364078  7220 net.cpp:386] inception_4d/relu_5x5_reduce -> inception_4d/5x5_reduce (in-place)
I0403 18:39:12.364281  7220 net.cpp:141] Setting up inception_4d/relu_5x5_reduce
I0403 18:39:12.364315  7220 net.cpp:148] Top shape: 24 32 14 14 (150528)
I0403 18:39:12.364332  7220 net.cpp:156] Memory required for data: 1132858656
I0403 18:39:12.364347  7220 layer_factory.hpp:77] Creating layer inception_4d/5x5
I0403 18:39:12.364370  7220 net.cpp:91] Creating Layer inception_4d/5x5
I0403 18:39:12.364388  7220 net.cpp:425] inception_4d/5x5 <- inception_4d/5x5_reduce
I0403 18:39:12.364408  7220 net.cpp:399] inception_4d/5x5 -> inception_4d/5x5
I0403 18:39:12.365887  7220 net.cpp:141] Setting up inception_4d/5x5
I0403 18:39:12.365921  7220 net.cpp:148] Top shape: 24 64 14 14 (301056)
I0403 18:39:12.365954  7220 net.cpp:156] Memory required for data: 1134062880
I0403 18:39:12.365978  7220 layer_factory.hpp:77] Creating layer inception_4d/relu_5x5
I0403 18:39:12.366011  7220 net.cpp:91] Creating Layer inception_4d/relu_5x5
I0403 18:39:12.366030  7220 net.cpp:425] inception_4d/relu_5x5 <- inception_4d/5x5
I0403 18:39:12.366053  7220 net.cpp:386] inception_4d/relu_5x5 -> inception_4d/5x5 (in-place)
I0403 18:39:12.366358  7220 net.cpp:141] Setting up inception_4d/relu_5x5
I0403 18:39:12.366387  7220 net.cpp:148] Top shape: 24 64 14 14 (301056)
I0403 18:39:12.366405  7220 net.cpp:156] Memory required for data: 1135267104
I0403 18:39:12.366421  7220 layer_factory.hpp:77] Creating layer inception_4d/pool
I0403 18:39:12.366441  7220 net.cpp:91] Creating Layer inception_4d/pool
I0403 18:39:12.366457  7220 net.cpp:425] inception_4d/pool <- inception_4c/output_inception_4c/output_0_split_3
I0403 18:39:12.366480  7220 net.cpp:399] inception_4d/pool -> inception_4d/pool
I0403 18:39:12.366547  7220 net.cpp:141] Setting up inception_4d/pool
I0403 18:39:12.366575  7220 net.cpp:148] Top shape: 24 512 14 14 (2408448)
I0403 18:39:12.366590  7220 net.cpp:156] Memory required for data: 1144900896
I0403 18:39:12.366607  7220 layer_factory.hpp:77] Creating layer inception_4d/pool_proj
I0403 18:39:12.366627  7220 net.cpp:91] Creating Layer inception_4d/pool_proj
I0403 18:39:12.366644  7220 net.cpp:425] inception_4d/pool_proj <- inception_4d/pool
I0403 18:39:12.366665  7220 net.cpp:399] inception_4d/pool_proj -> inception_4d/pool_proj
I0403 18:39:12.368471  7220 net.cpp:141] Setting up inception_4d/pool_proj
I0403 18:39:12.368502  7220 net.cpp:148] Top shape: 24 64 14 14 (301056)
I0403 18:39:12.368518  7220 net.cpp:156] Memory required for data: 1146105120
I0403 18:39:12.368540  7220 layer_factory.hpp:77] Creating layer inception_4d/relu_pool_proj
I0403 18:39:12.368561  7220 net.cpp:91] Creating Layer inception_4d/relu_pool_proj
I0403 18:39:12.368579  7220 net.cpp:425] inception_4d/relu_pool_proj <- inception_4d/pool_proj
I0403 18:39:12.368597  7220 net.cpp:386] inception_4d/relu_pool_proj -> inception_4d/pool_proj (in-place)
I0403 18:39:12.368788  7220 net.cpp:141] Setting up inception_4d/relu_pool_proj
I0403 18:39:12.368816  7220 net.cpp:148] Top shape: 24 64 14 14 (301056)
I0403 18:39:12.368834  7220 net.cpp:156] Memory required for data: 1147309344
I0403 18:39:12.368850  7220 layer_factory.hpp:77] Creating layer inception_4d/output
I0403 18:39:12.368868  7220 net.cpp:91] Creating Layer inception_4d/output
I0403 18:39:12.368885  7220 net.cpp:425] inception_4d/output <- inception_4d/1x1
I0403 18:39:12.368901  7220 net.cpp:425] inception_4d/output <- inception_4d/3x3
I0403 18:39:12.368919  7220 net.cpp:425] inception_4d/output <- inception_4d/5x5
I0403 18:39:12.368935  7220 net.cpp:425] inception_4d/output <- inception_4d/pool_proj
I0403 18:39:12.368953  7220 net.cpp:399] inception_4d/output -> inception_4d/output
I0403 18:39:12.369004  7220 net.cpp:141] Setting up inception_4d/output
I0403 18:39:12.369027  7220 net.cpp:148] Top shape: 24 528 14 14 (2483712)
I0403 18:39:12.369042  7220 net.cpp:156] Memory required for data: 1157244192
I0403 18:39:12.369058  7220 layer_factory.hpp:77] Creating layer inception_4d/output_inception_4d/output_0_split
I0403 18:39:12.369079  7220 net.cpp:91] Creating Layer inception_4d/output_inception_4d/output_0_split
I0403 18:39:12.369096  7220 net.cpp:425] inception_4d/output_inception_4d/output_0_split <- inception_4d/output
I0403 18:39:12.369115  7220 net.cpp:399] inception_4d/output_inception_4d/output_0_split -> inception_4d/output_inception_4d/output_0_split_0
I0403 18:39:12.369135  7220 net.cpp:399] inception_4d/output_inception_4d/output_0_split -> inception_4d/output_inception_4d/output_0_split_1
I0403 18:39:12.369156  7220 net.cpp:399] inception_4d/output_inception_4d/output_0_split -> inception_4d/output_inception_4d/output_0_split_2
I0403 18:39:12.369181  7220 net.cpp:399] inception_4d/output_inception_4d/output_0_split -> inception_4d/output_inception_4d/output_0_split_3
I0403 18:39:12.369205  7220 net.cpp:399] inception_4d/output_inception_4d/output_0_split -> inception_4d/output_inception_4d/output_0_split_4
I0403 18:39:12.369318  7220 net.cpp:141] Setting up inception_4d/output_inception_4d/output_0_split
I0403 18:39:12.369354  7220 net.cpp:148] Top shape: 24 528 14 14 (2483712)
I0403 18:39:12.369371  7220 net.cpp:148] Top shape: 24 528 14 14 (2483712)
I0403 18:39:12.369387  7220 net.cpp:148] Top shape: 24 528 14 14 (2483712)
I0403 18:39:12.369403  7220 net.cpp:148] Top shape: 24 528 14 14 (2483712)
I0403 18:39:12.369420  7220 net.cpp:148] Top shape: 24 528 14 14 (2483712)
I0403 18:39:12.369433  7220 net.cpp:156] Memory required for data: 1206918432
I0403 18:39:12.369448  7220 layer_factory.hpp:77] Creating layer loss2/ave_pool
I0403 18:39:12.369469  7220 net.cpp:91] Creating Layer loss2/ave_pool
I0403 18:39:12.369487  7220 net.cpp:425] loss2/ave_pool <- inception_4d/output_inception_4d/output_0_split_0
I0403 18:39:12.369506  7220 net.cpp:399] loss2/ave_pool -> loss2/ave_pool
I0403 18:39:12.369819  7220 net.cpp:141] Setting up loss2/ave_pool
I0403 18:39:12.369846  7220 net.cpp:148] Top shape: 24 528 4 4 (202752)
I0403 18:39:12.369863  7220 net.cpp:156] Memory required for data: 1207729440
I0403 18:39:12.369879  7220 layer_factory.hpp:77] Creating layer loss2/conv
I0403 18:39:12.369902  7220 net.cpp:91] Creating Layer loss2/conv
I0403 18:39:12.369923  7220 net.cpp:425] loss2/conv <- loss2/ave_pool
I0403 18:39:12.369943  7220 net.cpp:399] loss2/conv -> loss2/conv
I0403 18:39:12.371886  7220 net.cpp:141] Setting up loss2/conv
I0403 18:39:12.371917  7220 net.cpp:148] Top shape: 24 128 4 4 (49152)
I0403 18:39:12.371934  7220 net.cpp:156] Memory required for data: 1207926048
I0403 18:39:12.371955  7220 layer_factory.hpp:77] Creating layer loss2/relu_conv
I0403 18:39:12.371973  7220 net.cpp:91] Creating Layer loss2/relu_conv
I0403 18:39:12.371991  7220 net.cpp:425] loss2/relu_conv <- loss2/conv
I0403 18:39:12.372012  7220 net.cpp:386] loss2/relu_conv -> loss2/conv (in-place)
I0403 18:39:12.372313  7220 net.cpp:141] Setting up loss2/relu_conv
I0403 18:39:12.372342  7220 net.cpp:148] Top shape: 24 128 4 4 (49152)
I0403 18:39:12.372359  7220 net.cpp:156] Memory required for data: 1208122656
I0403 18:39:12.372375  7220 layer_factory.hpp:77] Creating layer loss2/fc
I0403 18:39:12.372393  7220 net.cpp:91] Creating Layer loss2/fc
I0403 18:39:12.372411  7220 net.cpp:425] loss2/fc <- loss2/conv
I0403 18:39:12.372432  7220 net.cpp:399] loss2/fc -> loss2/fc
I0403 18:39:12.390916  7220 net.cpp:141] Setting up loss2/fc
I0403 18:39:12.390983  7220 net.cpp:148] Top shape: 24 1024 (24576)
I0403 18:39:12.391001  7220 net.cpp:156] Memory required for data: 1208220960
I0403 18:39:12.391022  7220 layer_factory.hpp:77] Creating layer loss2/relu_fc
I0403 18:39:12.391043  7220 net.cpp:91] Creating Layer loss2/relu_fc
I0403 18:39:12.391063  7220 net.cpp:425] loss2/relu_fc <- loss2/fc
I0403 18:39:12.391083  7220 net.cpp:386] loss2/relu_fc -> loss2/fc (in-place)
I0403 18:39:12.391444  7220 net.cpp:141] Setting up loss2/relu_fc
I0403 18:39:12.391474  7220 net.cpp:148] Top shape: 24 1024 (24576)
I0403 18:39:12.391491  7220 net.cpp:156] Memory required for data: 1208319264
I0403 18:39:12.391507  7220 layer_factory.hpp:77] Creating layer loss2/drop_fc
I0403 18:39:12.391526  7220 net.cpp:91] Creating Layer loss2/drop_fc
I0403 18:39:12.391544  7220 net.cpp:425] loss2/drop_fc <- loss2/fc
I0403 18:39:12.391562  7220 net.cpp:386] loss2/drop_fc -> loss2/fc (in-place)
I0403 18:39:12.391616  7220 net.cpp:141] Setting up loss2/drop_fc
I0403 18:39:12.391640  7220 net.cpp:148] Top shape: 24 1024 (24576)
I0403 18:39:12.391654  7220 net.cpp:156] Memory required for data: 1208417568
I0403 18:39:12.391670  7220 layer_factory.hpp:77] Creating layer loss2/classifier_plantvillage
I0403 18:39:12.391693  7220 net.cpp:91] Creating Layer loss2/classifier_plantvillage
I0403 18:39:12.391710  7220 net.cpp:425] loss2/classifier_plantvillage <- loss2/fc
I0403 18:39:12.391731  7220 net.cpp:399] loss2/classifier_plantvillage -> loss2/classifier_plantvillage
I0403 18:39:12.392160  7220 net.cpp:141] Setting up loss2/classifier_plantvillage
I0403 18:39:12.392186  7220 net.cpp:148] Top shape: 24 38 (912)
I0403 18:39:12.392241  7220 net.cpp:156] Memory required for data: 1208421216
I0403 18:39:12.392261  7220 layer_factory.hpp:77] Creating layer loss2/classifier_plantvillage_loss2/classifier_plantvillage_0_split
I0403 18:39:12.392282  7220 net.cpp:91] Creating Layer loss2/classifier_plantvillage_loss2/classifier_plantvillage_0_split
I0403 18:39:12.392300  7220 net.cpp:425] loss2/classifier_plantvillage_loss2/classifier_plantvillage_0_split <- loss2/classifier_plantvillage
I0403 18:39:12.392323  7220 net.cpp:399] loss2/classifier_plantvillage_loss2/classifier_plantvillage_0_split -> loss2/classifier_plantvillage_loss2/classifier_plantvillage_0_split_0
I0403 18:39:12.392344  7220 net.cpp:399] loss2/classifier_plantvillage_loss2/classifier_plantvillage_0_split -> loss2/classifier_plantvillage_loss2/classifier_plantvillage_0_split_1
I0403 18:39:12.392366  7220 net.cpp:399] loss2/classifier_plantvillage_loss2/classifier_plantvillage_0_split -> loss2/classifier_plantvillage_loss2/classifier_plantvillage_0_split_2
I0403 18:39:12.392447  7220 net.cpp:141] Setting up loss2/classifier_plantvillage_loss2/classifier_plantvillage_0_split
I0403 18:39:12.392473  7220 net.cpp:148] Top shape: 24 38 (912)
I0403 18:39:12.392493  7220 net.cpp:148] Top shape: 24 38 (912)
I0403 18:39:12.392509  7220 net.cpp:148] Top shape: 24 38 (912)
I0403 18:39:12.392525  7220 net.cpp:156] Memory required for data: 1208432160
I0403 18:39:12.392540  7220 layer_factory.hpp:77] Creating layer inception_4e/1x1
I0403 18:39:12.392565  7220 net.cpp:91] Creating Layer inception_4e/1x1
I0403 18:39:12.392582  7220 net.cpp:425] inception_4e/1x1 <- inception_4d/output_inception_4d/output_0_split_1
I0403 18:39:12.392603  7220 net.cpp:399] inception_4e/1x1 -> inception_4e/1x1
I0403 18:39:12.394503  7220 net.cpp:141] Setting up inception_4e/1x1
I0403 18:39:12.394532  7220 net.cpp:148] Top shape: 24 256 14 14 (1204224)
I0403 18:39:12.394549  7220 net.cpp:156] Memory required for data: 1213249056
I0403 18:39:12.394568  7220 layer_factory.hpp:77] Creating layer inception_4e/relu_1x1
I0403 18:39:12.394587  7220 net.cpp:91] Creating Layer inception_4e/relu_1x1
I0403 18:39:12.394605  7220 net.cpp:425] inception_4e/relu_1x1 <- inception_4e/1x1
I0403 18:39:12.394628  7220 net.cpp:386] inception_4e/relu_1x1 -> inception_4e/1x1 (in-place)
I0403 18:39:12.394924  7220 net.cpp:141] Setting up inception_4e/relu_1x1
I0403 18:39:12.394953  7220 net.cpp:148] Top shape: 24 256 14 14 (1204224)
I0403 18:39:12.394969  7220 net.cpp:156] Memory required for data: 1218065952
I0403 18:39:12.394984  7220 layer_factory.hpp:77] Creating layer inception_4e/3x3_reduce
I0403 18:39:12.395009  7220 net.cpp:91] Creating Layer inception_4e/3x3_reduce
I0403 18:39:12.395027  7220 net.cpp:425] inception_4e/3x3_reduce <- inception_4d/output_inception_4d/output_0_split_2
I0403 18:39:12.395051  7220 net.cpp:399] inception_4e/3x3_reduce -> inception_4e/3x3_reduce
I0403 18:39:12.397238  7220 net.cpp:141] Setting up inception_4e/3x3_reduce
I0403 18:39:12.397274  7220 net.cpp:148] Top shape: 24 160 14 14 (752640)
I0403 18:39:12.397291  7220 net.cpp:156] Memory required for data: 1221076512
I0403 18:39:12.397313  7220 layer_factory.hpp:77] Creating layer inception_4e/relu_3x3_reduce
I0403 18:39:12.397332  7220 net.cpp:91] Creating Layer inception_4e/relu_3x3_reduce
I0403 18:39:12.397351  7220 net.cpp:425] inception_4e/relu_3x3_reduce <- inception_4e/3x3_reduce
I0403 18:39:12.397372  7220 net.cpp:386] inception_4e/relu_3x3_reduce -> inception_4e/3x3_reduce (in-place)
I0403 18:39:12.397565  7220 net.cpp:141] Setting up inception_4e/relu_3x3_reduce
I0403 18:39:12.397593  7220 net.cpp:148] Top shape: 24 160 14 14 (752640)
I0403 18:39:12.397609  7220 net.cpp:156] Memory required for data: 1224087072
I0403 18:39:12.397625  7220 layer_factory.hpp:77] Creating layer inception_4e/3x3
I0403 18:39:12.397647  7220 net.cpp:91] Creating Layer inception_4e/3x3
I0403 18:39:12.397666  7220 net.cpp:425] inception_4e/3x3 <- inception_4e/3x3_reduce
I0403 18:39:12.397689  7220 net.cpp:399] inception_4e/3x3 -> inception_4e/3x3
I0403 18:39:12.402845  7220 net.cpp:141] Setting up inception_4e/3x3
I0403 18:39:12.402891  7220 net.cpp:148] Top shape: 24 320 14 14 (1505280)
I0403 18:39:12.402909  7220 net.cpp:156] Memory required for data: 1230108192
I0403 18:39:12.402930  7220 layer_factory.hpp:77] Creating layer inception_4e/relu_3x3
I0403 18:39:12.402951  7220 net.cpp:91] Creating Layer inception_4e/relu_3x3
I0403 18:39:12.402971  7220 net.cpp:425] inception_4e/relu_3x3 <- inception_4e/3x3
I0403 18:39:12.402992  7220 net.cpp:386] inception_4e/relu_3x3 -> inception_4e/3x3 (in-place)
I0403 18:39:12.403298  7220 net.cpp:141] Setting up inception_4e/relu_3x3
I0403 18:39:12.403324  7220 net.cpp:148] Top shape: 24 320 14 14 (1505280)
I0403 18:39:12.403342  7220 net.cpp:156] Memory required for data: 1236129312
I0403 18:39:12.403357  7220 layer_factory.hpp:77] Creating layer inception_4e/5x5_reduce
I0403 18:39:12.403381  7220 net.cpp:91] Creating Layer inception_4e/5x5_reduce
I0403 18:39:12.403398  7220 net.cpp:425] inception_4e/5x5_reduce <- inception_4d/output_inception_4d/output_0_split_3
I0403 18:39:12.403421  7220 net.cpp:399] inception_4e/5x5_reduce -> inception_4e/5x5_reduce
I0403 18:39:12.404498  7220 net.cpp:141] Setting up inception_4e/5x5_reduce
I0403 18:39:12.404531  7220 net.cpp:148] Top shape: 24 32 14 14 (150528)
I0403 18:39:12.404548  7220 net.cpp:156] Memory required for data: 1236731424
I0403 18:39:12.404569  7220 layer_factory.hpp:77] Creating layer inception_4e/relu_5x5_reduce
I0403 18:39:12.404589  7220 net.cpp:91] Creating Layer inception_4e/relu_5x5_reduce
I0403 18:39:12.404608  7220 net.cpp:425] inception_4e/relu_5x5_reduce <- inception_4e/5x5_reduce
I0403 18:39:12.404630  7220 net.cpp:386] inception_4e/relu_5x5_reduce -> inception_4e/5x5_reduce (in-place)
I0403 18:39:12.404933  7220 net.cpp:141] Setting up inception_4e/relu_5x5_reduce
I0403 18:39:12.404964  7220 net.cpp:148] Top shape: 24 32 14 14 (150528)
I0403 18:39:12.404983  7220 net.cpp:156] Memory required for data: 1237333536
I0403 18:39:12.404999  7220 layer_factory.hpp:77] Creating layer inception_4e/5x5
I0403 18:39:12.405040  7220 net.cpp:91] Creating Layer inception_4e/5x5
I0403 18:39:12.405061  7220 net.cpp:425] inception_4e/5x5 <- inception_4e/5x5_reduce
I0403 18:39:12.405082  7220 net.cpp:399] inception_4e/5x5 -> inception_4e/5x5
I0403 18:39:12.406914  7220 net.cpp:141] Setting up inception_4e/5x5
I0403 18:39:12.406944  7220 net.cpp:148] Top shape: 24 128 14 14 (602112)
I0403 18:39:12.406962  7220 net.cpp:156] Memory required for data: 1239741984
I0403 18:39:12.406981  7220 layer_factory.hpp:77] Creating layer inception_4e/relu_5x5
I0403 18:39:12.407008  7220 net.cpp:91] Creating Layer inception_4e/relu_5x5
I0403 18:39:12.407027  7220 net.cpp:425] inception_4e/relu_5x5 <- inception_4e/5x5
I0403 18:39:12.407044  7220 net.cpp:386] inception_4e/relu_5x5 -> inception_4e/5x5 (in-place)
I0403 18:39:12.407250  7220 net.cpp:141] Setting up inception_4e/relu_5x5
I0403 18:39:12.407277  7220 net.cpp:148] Top shape: 24 128 14 14 (602112)
I0403 18:39:12.407292  7220 net.cpp:156] Memory required for data: 1242150432
I0403 18:39:12.407308  7220 layer_factory.hpp:77] Creating layer inception_4e/pool
I0403 18:39:12.407328  7220 net.cpp:91] Creating Layer inception_4e/pool
I0403 18:39:12.407346  7220 net.cpp:425] inception_4e/pool <- inception_4d/output_inception_4d/output_0_split_4
I0403 18:39:12.407367  7220 net.cpp:399] inception_4e/pool -> inception_4e/pool
I0403 18:39:12.407438  7220 net.cpp:141] Setting up inception_4e/pool
I0403 18:39:12.407462  7220 net.cpp:148] Top shape: 24 528 14 14 (2483712)
I0403 18:39:12.407477  7220 net.cpp:156] Memory required for data: 1252085280
I0403 18:39:12.407493  7220 layer_factory.hpp:77] Creating layer inception_4e/pool_proj
I0403 18:39:12.407517  7220 net.cpp:91] Creating Layer inception_4e/pool_proj
I0403 18:39:12.407536  7220 net.cpp:425] inception_4e/pool_proj <- inception_4e/pool
I0403 18:39:12.407557  7220 net.cpp:399] inception_4e/pool_proj -> inception_4e/pool_proj
I0403 18:39:12.409108  7220 net.cpp:141] Setting up inception_4e/pool_proj
I0403 18:39:12.409149  7220 net.cpp:148] Top shape: 24 128 14 14 (602112)
I0403 18:39:12.409167  7220 net.cpp:156] Memory required for data: 1254493728
I0403 18:39:12.409185  7220 layer_factory.hpp:77] Creating layer inception_4e/relu_pool_proj
I0403 18:39:12.409212  7220 net.cpp:91] Creating Layer inception_4e/relu_pool_proj
I0403 18:39:12.409234  7220 net.cpp:425] inception_4e/relu_pool_proj <- inception_4e/pool_proj
I0403 18:39:12.409252  7220 net.cpp:386] inception_4e/relu_pool_proj -> inception_4e/pool_proj (in-place)
I0403 18:39:12.409554  7220 net.cpp:141] Setting up inception_4e/relu_pool_proj
I0403 18:39:12.409581  7220 net.cpp:148] Top shape: 24 128 14 14 (602112)
I0403 18:39:12.409597  7220 net.cpp:156] Memory required for data: 1256902176
I0403 18:39:12.409615  7220 layer_factory.hpp:77] Creating layer inception_4e/output
I0403 18:39:12.409649  7220 net.cpp:91] Creating Layer inception_4e/output
I0403 18:39:12.409668  7220 net.cpp:425] inception_4e/output <- inception_4e/1x1
I0403 18:39:12.409687  7220 net.cpp:425] inception_4e/output <- inception_4e/3x3
I0403 18:39:12.409704  7220 net.cpp:425] inception_4e/output <- inception_4e/5x5
I0403 18:39:12.409720  7220 net.cpp:425] inception_4e/output <- inception_4e/pool_proj
I0403 18:39:12.409739  7220 net.cpp:399] inception_4e/output -> inception_4e/output
I0403 18:39:12.409790  7220 net.cpp:141] Setting up inception_4e/output
I0403 18:39:12.409816  7220 net.cpp:148] Top shape: 24 832 14 14 (3913728)
I0403 18:39:12.409831  7220 net.cpp:156] Memory required for data: 1272557088
I0403 18:39:12.409847  7220 layer_factory.hpp:77] Creating layer pool4/3x3_s2
I0403 18:39:12.409864  7220 net.cpp:91] Creating Layer pool4/3x3_s2
I0403 18:39:12.409880  7220 net.cpp:425] pool4/3x3_s2 <- inception_4e/output
I0403 18:39:12.409903  7220 net.cpp:399] pool4/3x3_s2 -> pool4/3x3_s2
I0403 18:39:12.409970  7220 net.cpp:141] Setting up pool4/3x3_s2
I0403 18:39:12.409994  7220 net.cpp:148] Top shape: 24 832 7 7 (978432)
I0403 18:39:12.410009  7220 net.cpp:156] Memory required for data: 1276470816
I0403 18:39:12.410025  7220 layer_factory.hpp:77] Creating layer pool4/3x3_s2_pool4/3x3_s2_0_split
I0403 18:39:12.410048  7220 net.cpp:91] Creating Layer pool4/3x3_s2_pool4/3x3_s2_0_split
I0403 18:39:12.410065  7220 net.cpp:425] pool4/3x3_s2_pool4/3x3_s2_0_split <- pool4/3x3_s2
I0403 18:39:12.410086  7220 net.cpp:399] pool4/3x3_s2_pool4/3x3_s2_0_split -> pool4/3x3_s2_pool4/3x3_s2_0_split_0
I0403 18:39:12.410109  7220 net.cpp:399] pool4/3x3_s2_pool4/3x3_s2_0_split -> pool4/3x3_s2_pool4/3x3_s2_0_split_1
I0403 18:39:12.410130  7220 net.cpp:399] pool4/3x3_s2_pool4/3x3_s2_0_split -> pool4/3x3_s2_pool4/3x3_s2_0_split_2
I0403 18:39:12.410151  7220 net.cpp:399] pool4/3x3_s2_pool4/3x3_s2_0_split -> pool4/3x3_s2_pool4/3x3_s2_0_split_3
I0403 18:39:12.410251  7220 net.cpp:141] Setting up pool4/3x3_s2_pool4/3x3_s2_0_split
I0403 18:39:12.410277  7220 net.cpp:148] Top shape: 24 832 7 7 (978432)
I0403 18:39:12.410296  7220 net.cpp:148] Top shape: 24 832 7 7 (978432)
I0403 18:39:12.410312  7220 net.cpp:148] Top shape: 24 832 7 7 (978432)
I0403 18:39:12.410329  7220 net.cpp:148] Top shape: 24 832 7 7 (978432)
I0403 18:39:12.410357  7220 net.cpp:156] Memory required for data: 1292125728
I0403 18:39:12.410373  7220 layer_factory.hpp:77] Creating layer inception_5a/1x1
I0403 18:39:12.410394  7220 net.cpp:91] Creating Layer inception_5a/1x1
I0403 18:39:12.410413  7220 net.cpp:425] inception_5a/1x1 <- pool4/3x3_s2_pool4/3x3_s2_0_split_0
I0403 18:39:12.410436  7220 net.cpp:399] inception_5a/1x1 -> inception_5a/1x1
I0403 18:39:12.413444  7220 net.cpp:141] Setting up inception_5a/1x1
I0403 18:39:12.413478  7220 net.cpp:148] Top shape: 24 256 7 7 (301056)
I0403 18:39:12.413496  7220 net.cpp:156] Memory required for data: 1293329952
I0403 18:39:12.413517  7220 layer_factory.hpp:77] Creating layer inception_5a/relu_1x1
I0403 18:39:12.413537  7220 net.cpp:91] Creating Layer inception_5a/relu_1x1
I0403 18:39:12.413555  7220 net.cpp:425] inception_5a/relu_1x1 <- inception_5a/1x1
I0403 18:39:12.413573  7220 net.cpp:386] inception_5a/relu_1x1 -> inception_5a/1x1 (in-place)
I0403 18:39:12.413900  7220 net.cpp:141] Setting up inception_5a/relu_1x1
I0403 18:39:12.413928  7220 net.cpp:148] Top shape: 24 256 7 7 (301056)
I0403 18:39:12.413946  7220 net.cpp:156] Memory required for data: 1294534176
I0403 18:39:12.413962  7220 layer_factory.hpp:77] Creating layer inception_5a/3x3_reduce
I0403 18:39:12.413985  7220 net.cpp:91] Creating Layer inception_5a/3x3_reduce
I0403 18:39:12.414003  7220 net.cpp:425] inception_5a/3x3_reduce <- pool4/3x3_s2_pool4/3x3_s2_0_split_1
I0403 18:39:12.414023  7220 net.cpp:399] inception_5a/3x3_reduce -> inception_5a/3x3_reduce
I0403 18:39:12.416599  7220 net.cpp:141] Setting up inception_5a/3x3_reduce
I0403 18:39:12.416630  7220 net.cpp:148] Top shape: 24 160 7 7 (188160)
I0403 18:39:12.416661  7220 net.cpp:156] Memory required for data: 1295286816
I0403 18:39:12.416679  7220 layer_factory.hpp:77] Creating layer inception_5a/relu_3x3_reduce
I0403 18:39:12.416702  7220 net.cpp:91] Creating Layer inception_5a/relu_3x3_reduce
I0403 18:39:12.416720  7220 net.cpp:425] inception_5a/relu_3x3_reduce <- inception_5a/3x3_reduce
I0403 18:39:12.416740  7220 net.cpp:386] inception_5a/relu_3x3_reduce -> inception_5a/3x3_reduce (in-place)
I0403 18:39:12.416935  7220 net.cpp:141] Setting up inception_5a/relu_3x3_reduce
I0403 18:39:12.416965  7220 net.cpp:148] Top shape: 24 160 7 7 (188160)
I0403 18:39:12.416981  7220 net.cpp:156] Memory required for data: 1296039456
I0403 18:39:12.416997  7220 layer_factory.hpp:77] Creating layer inception_5a/3x3
I0403 18:39:12.417021  7220 net.cpp:91] Creating Layer inception_5a/3x3
I0403 18:39:12.417040  7220 net.cpp:425] inception_5a/3x3 <- inception_5a/3x3_reduce
I0403 18:39:12.417060  7220 net.cpp:399] inception_5a/3x3 -> inception_5a/3x3
I0403 18:39:12.421993  7220 net.cpp:141] Setting up inception_5a/3x3
I0403 18:39:12.422025  7220 net.cpp:148] Top shape: 24 320 7 7 (376320)
I0403 18:39:12.422044  7220 net.cpp:156] Memory required for data: 1297544736
I0403 18:39:12.422063  7220 layer_factory.hpp:77] Creating layer inception_5a/relu_3x3
I0403 18:39:12.422081  7220 net.cpp:91] Creating Layer inception_5a/relu_3x3
I0403 18:39:12.422099  7220 net.cpp:425] inception_5a/relu_3x3 <- inception_5a/3x3
I0403 18:39:12.422121  7220 net.cpp:386] inception_5a/relu_3x3 -> inception_5a/3x3 (in-place)
I0403 18:39:12.422418  7220 net.cpp:141] Setting up inception_5a/relu_3x3
I0403 18:39:12.422451  7220 net.cpp:148] Top shape: 24 320 7 7 (376320)
I0403 18:39:12.422467  7220 net.cpp:156] Memory required for data: 1299050016
I0403 18:39:12.422484  7220 layer_factory.hpp:77] Creating layer inception_5a/5x5_reduce
I0403 18:39:12.422508  7220 net.cpp:91] Creating Layer inception_5a/5x5_reduce
I0403 18:39:12.422525  7220 net.cpp:425] inception_5a/5x5_reduce <- pool4/3x3_s2_pool4/3x3_s2_0_split_2
I0403 18:39:12.422547  7220 net.cpp:399] inception_5a/5x5_reduce -> inception_5a/5x5_reduce
I0403 18:39:12.423697  7220 net.cpp:141] Setting up inception_5a/5x5_reduce
I0403 18:39:12.423730  7220 net.cpp:148] Top shape: 24 32 7 7 (37632)
I0403 18:39:12.423748  7220 net.cpp:156] Memory required for data: 1299200544
I0403 18:39:12.423768  7220 layer_factory.hpp:77] Creating layer inception_5a/relu_5x5_reduce
I0403 18:39:12.423786  7220 net.cpp:91] Creating Layer inception_5a/relu_5x5_reduce
I0403 18:39:12.423802  7220 net.cpp:425] inception_5a/relu_5x5_reduce <- inception_5a/5x5_reduce
I0403 18:39:12.423823  7220 net.cpp:386] inception_5a/relu_5x5_reduce -> inception_5a/5x5_reduce (in-place)
I0403 18:39:12.424118  7220 net.cpp:141] Setting up inception_5a/relu_5x5_reduce
I0403 18:39:12.424144  7220 net.cpp:148] Top shape: 24 32 7 7 (37632)
I0403 18:39:12.424160  7220 net.cpp:156] Memory required for data: 1299351072
I0403 18:39:12.424175  7220 layer_factory.hpp:77] Creating layer inception_5a/5x5
I0403 18:39:12.424196  7220 net.cpp:91] Creating Layer inception_5a/5x5
I0403 18:39:12.424221  7220 net.cpp:425] inception_5a/5x5 <- inception_5a/5x5_reduce
I0403 18:39:12.424245  7220 net.cpp:399] inception_5a/5x5 -> inception_5a/5x5
I0403 18:39:12.425948  7220 net.cpp:141] Setting up inception_5a/5x5
I0403 18:39:12.425992  7220 net.cpp:148] Top shape: 24 128 7 7 (150528)
I0403 18:39:12.426009  7220 net.cpp:156] Memory required for data: 1299953184
I0403 18:39:12.426033  7220 layer_factory.hpp:77] Creating layer inception_5a/relu_5x5
I0403 18:39:12.426054  7220 net.cpp:91] Creating Layer inception_5a/relu_5x5
I0403 18:39:12.426071  7220 net.cpp:425] inception_5a/relu_5x5 <- inception_5a/5x5
I0403 18:39:12.426090  7220 net.cpp:386] inception_5a/relu_5x5 -> inception_5a/5x5 (in-place)
I0403 18:39:12.426293  7220 net.cpp:141] Setting up inception_5a/relu_5x5
I0403 18:39:12.426321  7220 net.cpp:148] Top shape: 24 128 7 7 (150528)
I0403 18:39:12.426337  7220 net.cpp:156] Memory required for data: 1300555296
I0403 18:39:12.426352  7220 layer_factory.hpp:77] Creating layer inception_5a/pool
I0403 18:39:12.426372  7220 net.cpp:91] Creating Layer inception_5a/pool
I0403 18:39:12.426389  7220 net.cpp:425] inception_5a/pool <- pool4/3x3_s2_pool4/3x3_s2_0_split_3
I0403 18:39:12.426412  7220 net.cpp:399] inception_5a/pool -> inception_5a/pool
I0403 18:39:12.426487  7220 net.cpp:141] Setting up inception_5a/pool
I0403 18:39:12.426514  7220 net.cpp:148] Top shape: 24 832 7 7 (978432)
I0403 18:39:12.426532  7220 net.cpp:156] Memory required for data: 1304469024
I0403 18:39:12.426548  7220 layer_factory.hpp:77] Creating layer inception_5a/pool_proj
I0403 18:39:12.426573  7220 net.cpp:91] Creating Layer inception_5a/pool_proj
I0403 18:39:12.426592  7220 net.cpp:425] inception_5a/pool_proj <- inception_5a/pool
I0403 18:39:12.426614  7220 net.cpp:399] inception_5a/pool_proj -> inception_5a/pool_proj
I0403 18:39:12.428884  7220 net.cpp:141] Setting up inception_5a/pool_proj
I0403 18:39:12.428915  7220 net.cpp:148] Top shape: 24 128 7 7 (150528)
I0403 18:39:12.428932  7220 net.cpp:156] Memory required for data: 1305071136
I0403 18:39:12.428951  7220 layer_factory.hpp:77] Creating layer inception_5a/relu_pool_proj
I0403 18:39:12.429003  7220 net.cpp:91] Creating Layer inception_5a/relu_pool_proj
I0403 18:39:12.429023  7220 net.cpp:425] inception_5a/relu_pool_proj <- inception_5a/pool_proj
I0403 18:39:12.429040  7220 net.cpp:386] inception_5a/relu_pool_proj -> inception_5a/pool_proj (in-place)
I0403 18:39:12.429357  7220 net.cpp:141] Setting up inception_5a/relu_pool_proj
I0403 18:39:12.429383  7220 net.cpp:148] Top shape: 24 128 7 7 (150528)
I0403 18:39:12.429399  7220 net.cpp:156] Memory required for data: 1305673248
I0403 18:39:12.429415  7220 layer_factory.hpp:77] Creating layer inception_5a/output
I0403 18:39:12.429436  7220 net.cpp:91] Creating Layer inception_5a/output
I0403 18:39:12.429455  7220 net.cpp:425] inception_5a/output <- inception_5a/1x1
I0403 18:39:12.429471  7220 net.cpp:425] inception_5a/output <- inception_5a/3x3
I0403 18:39:12.429487  7220 net.cpp:425] inception_5a/output <- inception_5a/5x5
I0403 18:39:12.429504  7220 net.cpp:425] inception_5a/output <- inception_5a/pool_proj
I0403 18:39:12.429522  7220 net.cpp:399] inception_5a/output -> inception_5a/output
I0403 18:39:12.429572  7220 net.cpp:141] Setting up inception_5a/output
I0403 18:39:12.429596  7220 net.cpp:148] Top shape: 24 832 7 7 (978432)
I0403 18:39:12.429611  7220 net.cpp:156] Memory required for data: 1309586976
I0403 18:39:12.429625  7220 layer_factory.hpp:77] Creating layer inception_5a/output_inception_5a/output_0_split
I0403 18:39:12.429643  7220 net.cpp:91] Creating Layer inception_5a/output_inception_5a/output_0_split
I0403 18:39:12.429659  7220 net.cpp:425] inception_5a/output_inception_5a/output_0_split <- inception_5a/output
I0403 18:39:12.429680  7220 net.cpp:399] inception_5a/output_inception_5a/output_0_split -> inception_5a/output_inception_5a/output_0_split_0
I0403 18:39:12.429702  7220 net.cpp:399] inception_5a/output_inception_5a/output_0_split -> inception_5a/output_inception_5a/output_0_split_1
I0403 18:39:12.429723  7220 net.cpp:399] inception_5a/output_inception_5a/output_0_split -> inception_5a/output_inception_5a/output_0_split_2
I0403 18:39:12.429744  7220 net.cpp:399] inception_5a/output_inception_5a/output_0_split -> inception_5a/output_inception_5a/output_0_split_3
I0403 18:39:12.429854  7220 net.cpp:141] Setting up inception_5a/output_inception_5a/output_0_split
I0403 18:39:12.429878  7220 net.cpp:148] Top shape: 24 832 7 7 (978432)
I0403 18:39:12.429895  7220 net.cpp:148] Top shape: 24 832 7 7 (978432)
I0403 18:39:12.429913  7220 net.cpp:148] Top shape: 24 832 7 7 (978432)
I0403 18:39:12.429927  7220 net.cpp:148] Top shape: 24 832 7 7 (978432)
I0403 18:39:12.429941  7220 net.cpp:156] Memory required for data: 1325241888
I0403 18:39:12.429956  7220 layer_factory.hpp:77] Creating layer inception_5b/1x1
I0403 18:39:12.429980  7220 net.cpp:91] Creating Layer inception_5b/1x1
I0403 18:39:12.429998  7220 net.cpp:425] inception_5b/1x1 <- inception_5a/output_inception_5a/output_0_split_0
I0403 18:39:12.430021  7220 net.cpp:399] inception_5b/1x1 -> inception_5b/1x1
I0403 18:39:12.433728  7220 net.cpp:141] Setting up inception_5b/1x1
I0403 18:39:12.433758  7220 net.cpp:148] Top shape: 24 384 7 7 (451584)
I0403 18:39:12.433775  7220 net.cpp:156] Memory required for data: 1327048224
I0403 18:39:12.433794  7220 layer_factory.hpp:77] Creating layer inception_5b/relu_1x1
I0403 18:39:12.433815  7220 net.cpp:91] Creating Layer inception_5b/relu_1x1
I0403 18:39:12.433835  7220 net.cpp:425] inception_5b/relu_1x1 <- inception_5b/1x1
I0403 18:39:12.433853  7220 net.cpp:386] inception_5b/relu_1x1 -> inception_5b/1x1 (in-place)
I0403 18:39:12.434154  7220 net.cpp:141] Setting up inception_5b/relu_1x1
I0403 18:39:12.434180  7220 net.cpp:148] Top shape: 24 384 7 7 (451584)
I0403 18:39:12.434200  7220 net.cpp:156] Memory required for data: 1328854560
I0403 18:39:12.434221  7220 layer_factory.hpp:77] Creating layer inception_5b/3x3_reduce
I0403 18:39:12.434244  7220 net.cpp:91] Creating Layer inception_5b/3x3_reduce
I0403 18:39:12.434262  7220 net.cpp:425] inception_5b/3x3_reduce <- inception_5a/output_inception_5a/output_0_split_1
I0403 18:39:12.434285  7220 net.cpp:399] inception_5b/3x3_reduce -> inception_5b/3x3_reduce
I0403 18:39:12.436882  7220 net.cpp:141] Setting up inception_5b/3x3_reduce
I0403 18:39:12.436911  7220 net.cpp:148] Top shape: 24 192 7 7 (225792)
I0403 18:39:12.436928  7220 net.cpp:156] Memory required for data: 1329757728
I0403 18:39:12.436947  7220 layer_factory.hpp:77] Creating layer inception_5b/relu_3x3_reduce
I0403 18:39:12.436969  7220 net.cpp:91] Creating Layer inception_5b/relu_3x3_reduce
I0403 18:39:12.436987  7220 net.cpp:425] inception_5b/relu_3x3_reduce <- inception_5b/3x3_reduce
I0403 18:39:12.437005  7220 net.cpp:386] inception_5b/relu_3x3_reduce -> inception_5b/3x3_reduce (in-place)
I0403 18:39:12.437192  7220 net.cpp:141] Setting up inception_5b/relu_3x3_reduce
I0403 18:39:12.437223  7220 net.cpp:148] Top shape: 24 192 7 7 (225792)
I0403 18:39:12.437239  7220 net.cpp:156] Memory required for data: 1330660896
I0403 18:39:12.437255  7220 layer_factory.hpp:77] Creating layer inception_5b/3x3
I0403 18:39:12.437278  7220 net.cpp:91] Creating Layer inception_5b/3x3
I0403 18:39:12.437294  7220 net.cpp:425] inception_5b/3x3 <- inception_5b/3x3_reduce
I0403 18:39:12.437314  7220 net.cpp:399] inception_5b/3x3 -> inception_5b/3x3
I0403 18:39:12.443861  7220 net.cpp:141] Setting up inception_5b/3x3
I0403 18:39:12.443892  7220 net.cpp:148] Top shape: 24 384 7 7 (451584)
I0403 18:39:12.443909  7220 net.cpp:156] Memory required for data: 1332467232
I0403 18:39:12.443928  7220 layer_factory.hpp:77] Creating layer inception_5b/relu_3x3
I0403 18:39:12.443951  7220 net.cpp:91] Creating Layer inception_5b/relu_3x3
I0403 18:39:12.443969  7220 net.cpp:425] inception_5b/relu_3x3 <- inception_5b/3x3
I0403 18:39:12.443987  7220 net.cpp:386] inception_5b/relu_3x3 -> inception_5b/3x3 (in-place)
I0403 18:39:12.444281  7220 net.cpp:141] Setting up inception_5b/relu_3x3
I0403 18:39:12.444309  7220 net.cpp:148] Top shape: 24 384 7 7 (451584)
I0403 18:39:12.444325  7220 net.cpp:156] Memory required for data: 1334273568
I0403 18:39:12.444341  7220 layer_factory.hpp:77] Creating layer inception_5b/5x5_reduce
I0403 18:39:12.444380  7220 net.cpp:91] Creating Layer inception_5b/5x5_reduce
I0403 18:39:12.444399  7220 net.cpp:425] inception_5b/5x5_reduce <- inception_5a/output_inception_5a/output_0_split_2
I0403 18:39:12.444421  7220 net.cpp:399] inception_5b/5x5_reduce -> inception_5b/5x5_reduce
I0403 18:39:12.445663  7220 net.cpp:141] Setting up inception_5b/5x5_reduce
I0403 18:39:12.445693  7220 net.cpp:148] Top shape: 24 48 7 7 (56448)
I0403 18:39:12.445709  7220 net.cpp:156] Memory required for data: 1334499360
I0403 18:39:12.445727  7220 layer_factory.hpp:77] Creating layer inception_5b/relu_5x5_reduce
I0403 18:39:12.445747  7220 net.cpp:91] Creating Layer inception_5b/relu_5x5_reduce
I0403 18:39:12.445765  7220 net.cpp:425] inception_5b/relu_5x5_reduce <- inception_5b/5x5_reduce
I0403 18:39:12.445782  7220 net.cpp:386] inception_5b/relu_5x5_reduce -> inception_5b/5x5_reduce (in-place)
I0403 18:39:12.446146  7220 net.cpp:141] Setting up inception_5b/relu_5x5_reduce
I0403 18:39:12.446172  7220 net.cpp:148] Top shape: 24 48 7 7 (56448)
I0403 18:39:12.446187  7220 net.cpp:156] Memory required for data: 1334725152
I0403 18:39:12.446202  7220 layer_factory.hpp:77] Creating layer inception_5b/5x5
I0403 18:39:12.446228  7220 net.cpp:91] Creating Layer inception_5b/5x5
I0403 18:39:12.446246  7220 net.cpp:425] inception_5b/5x5 <- inception_5b/5x5_reduce
I0403 18:39:12.446265  7220 net.cpp:399] inception_5b/5x5 -> inception_5b/5x5
I0403 18:39:12.448295  7220 net.cpp:141] Setting up inception_5b/5x5
I0403 18:39:12.448325  7220 net.cpp:148] Top shape: 24 128 7 7 (150528)
I0403 18:39:12.448343  7220 net.cpp:156] Memory required for data: 1335327264
I0403 18:39:12.448361  7220 layer_factory.hpp:77] Creating layer inception_5b/relu_5x5
I0403 18:39:12.448380  7220 net.cpp:91] Creating Layer inception_5b/relu_5x5
I0403 18:39:12.448397  7220 net.cpp:425] inception_5b/relu_5x5 <- inception_5b/5x5
I0403 18:39:12.448415  7220 net.cpp:386] inception_5b/relu_5x5 -> inception_5b/5x5 (in-place)
I0403 18:39:12.448623  7220 net.cpp:141] Setting up inception_5b/relu_5x5
I0403 18:39:12.448647  7220 net.cpp:148] Top shape: 24 128 7 7 (150528)
I0403 18:39:12.448662  7220 net.cpp:156] Memory required for data: 1335929376
I0403 18:39:12.448678  7220 layer_factory.hpp:77] Creating layer inception_5b/pool
I0403 18:39:12.448695  7220 net.cpp:91] Creating Layer inception_5b/pool
I0403 18:39:12.448712  7220 net.cpp:425] inception_5b/pool <- inception_5a/output_inception_5a/output_0_split_3
I0403 18:39:12.448732  7220 net.cpp:399] inception_5b/pool -> inception_5b/pool
I0403 18:39:12.448803  7220 net.cpp:141] Setting up inception_5b/pool
I0403 18:39:12.448828  7220 net.cpp:148] Top shape: 24 832 7 7 (978432)
I0403 18:39:12.448843  7220 net.cpp:156] Memory required for data: 1339843104
I0403 18:39:12.448858  7220 layer_factory.hpp:77] Creating layer inception_5b/pool_proj
I0403 18:39:12.448880  7220 net.cpp:91] Creating Layer inception_5b/pool_proj
I0403 18:39:12.448897  7220 net.cpp:425] inception_5b/pool_proj <- inception_5b/pool
I0403 18:39:12.448915  7220 net.cpp:399] inception_5b/pool_proj -> inception_5b/pool_proj
I0403 18:39:12.451227  7220 net.cpp:141] Setting up inception_5b/pool_proj
I0403 18:39:12.451261  7220 net.cpp:148] Top shape: 24 128 7 7 (150528)
I0403 18:39:12.451277  7220 net.cpp:156] Memory required for data: 1340445216
I0403 18:39:12.451297  7220 layer_factory.hpp:77] Creating layer inception_5b/relu_pool_proj
I0403 18:39:12.451319  7220 net.cpp:91] Creating Layer inception_5b/relu_pool_proj
I0403 18:39:12.451339  7220 net.cpp:425] inception_5b/relu_pool_proj <- inception_5b/pool_proj
I0403 18:39:12.451357  7220 net.cpp:386] inception_5b/relu_pool_proj -> inception_5b/pool_proj (in-place)
I0403 18:39:12.451656  7220 net.cpp:141] Setting up inception_5b/relu_pool_proj
I0403 18:39:12.451683  7220 net.cpp:148] Top shape: 24 128 7 7 (150528)
I0403 18:39:12.451701  7220 net.cpp:156] Memory required for data: 1341047328
I0403 18:39:12.451717  7220 layer_factory.hpp:77] Creating layer inception_5b/output
I0403 18:39:12.451737  7220 net.cpp:91] Creating Layer inception_5b/output
I0403 18:39:12.451768  7220 net.cpp:425] inception_5b/output <- inception_5b/1x1
I0403 18:39:12.451787  7220 net.cpp:425] inception_5b/output <- inception_5b/3x3
I0403 18:39:12.451804  7220 net.cpp:425] inception_5b/output <- inception_5b/5x5
I0403 18:39:12.451822  7220 net.cpp:425] inception_5b/output <- inception_5b/pool_proj
I0403 18:39:12.451840  7220 net.cpp:399] inception_5b/output -> inception_5b/output
I0403 18:39:12.451894  7220 net.cpp:141] Setting up inception_5b/output
I0403 18:39:12.451917  7220 net.cpp:148] Top shape: 24 1024 7 7 (1204224)
I0403 18:39:12.451933  7220 net.cpp:156] Memory required for data: 1345864224
I0403 18:39:12.451949  7220 layer_factory.hpp:77] Creating layer pool5/7x7_s1
I0403 18:39:12.451969  7220 net.cpp:91] Creating Layer pool5/7x7_s1
I0403 18:39:12.451987  7220 net.cpp:425] pool5/7x7_s1 <- inception_5b/output
I0403 18:39:12.452008  7220 net.cpp:399] pool5/7x7_s1 -> pool5/7x7_s1
I0403 18:39:12.452234  7220 net.cpp:141] Setting up pool5/7x7_s1
I0403 18:39:12.452261  7220 net.cpp:148] Top shape: 24 1024 1 1 (24576)
I0403 18:39:12.452277  7220 net.cpp:156] Memory required for data: 1345962528
I0403 18:39:12.452293  7220 layer_factory.hpp:77] Creating layer pool5/drop_7x7_s1
I0403 18:39:12.452312  7220 net.cpp:91] Creating Layer pool5/drop_7x7_s1
I0403 18:39:12.452329  7220 net.cpp:425] pool5/drop_7x7_s1 <- pool5/7x7_s1
I0403 18:39:12.452345  7220 net.cpp:386] pool5/drop_7x7_s1 -> pool5/7x7_s1 (in-place)
I0403 18:39:12.452397  7220 net.cpp:141] Setting up pool5/drop_7x7_s1
I0403 18:39:12.452420  7220 net.cpp:148] Top shape: 24 1024 1 1 (24576)
I0403 18:39:12.452435  7220 net.cpp:156] Memory required for data: 1346060832
I0403 18:39:12.452451  7220 layer_factory.hpp:77] Creating layer loss3/classifier_plantvillage
I0403 18:39:12.452472  7220 net.cpp:91] Creating Layer loss3/classifier_plantvillage
I0403 18:39:12.452489  7220 net.cpp:425] loss3/classifier_plantvillage <- pool5/7x7_s1
I0403 18:39:12.452508  7220 net.cpp:399] loss3/classifier_plantvillage -> loss3/classifier_plantvillage
I0403 18:39:12.452925  7220 net.cpp:141] Setting up loss3/classifier_plantvillage
I0403 18:39:12.452951  7220 net.cpp:148] Top shape: 24 38 (912)
I0403 18:39:12.452967  7220 net.cpp:156] Memory required for data: 1346064480
I0403 18:39:12.452986  7220 layer_factory.hpp:77] Creating layer loss3/classifier_plantvillage_loss3/classifier_plantvillage_0_split
I0403 18:39:12.453006  7220 net.cpp:91] Creating Layer loss3/classifier_plantvillage_loss3/classifier_plantvillage_0_split
I0403 18:39:12.453021  7220 net.cpp:425] loss3/classifier_plantvillage_loss3/classifier_plantvillage_0_split <- loss3/classifier_plantvillage
I0403 18:39:12.453042  7220 net.cpp:399] loss3/classifier_plantvillage_loss3/classifier_plantvillage_0_split -> loss3/classifier_plantvillage_loss3/classifier_plantvillage_0_split_0
I0403 18:39:12.453065  7220 net.cpp:399] loss3/classifier_plantvillage_loss3/classifier_plantvillage_0_split -> loss3/classifier_plantvillage_loss3/classifier_plantvillage_0_split_1
I0403 18:39:12.453085  7220 net.cpp:399] loss3/classifier_plantvillage_loss3/classifier_plantvillage_0_split -> loss3/classifier_plantvillage_loss3/classifier_plantvillage_0_split_2
I0403 18:39:12.453107  7220 net.cpp:399] loss3/classifier_plantvillage_loss3/classifier_plantvillage_0_split -> loss3/classifier_plantvillage_loss3/classifier_plantvillage_0_split_3
I0403 18:39:12.453207  7220 net.cpp:141] Setting up loss3/classifier_plantvillage_loss3/classifier_plantvillage_0_split
I0403 18:39:12.453234  7220 net.cpp:148] Top shape: 24 38 (912)
I0403 18:39:12.453250  7220 net.cpp:148] Top shape: 24 38 (912)
I0403 18:39:12.453266  7220 net.cpp:148] Top shape: 24 38 (912)
I0403 18:39:12.453282  7220 net.cpp:148] Top shape: 24 38 (912)
I0403 18:39:12.453296  7220 net.cpp:156] Memory required for data: 1346079072
I0403 18:39:12.453312  7220 layer_factory.hpp:77] Creating layer loss1/loss
I0403 18:39:12.453336  7220 net.cpp:91] Creating Layer loss1/loss
I0403 18:39:12.453352  7220 net.cpp:425] loss1/loss <- loss1/classifier_plantvillage_loss1/classifier_plantvillage_0_split_0
I0403 18:39:12.453384  7220 net.cpp:425] loss1/loss <- label_data_1_split_0
…
