…
I0403 18:09:17.198976  6629 net.cpp:313] The NetState phase (1) differed from the phase (0) specified by a rule in layer data
I0403 18:09:17.200223  6629 net.cpp:49] Initializing net from parameters: 
state {
  phase: TEST
}
layer {
  name: "data"
  type: "Data"
  top: "data"
  top: "label"
  include {
    phase: TEST
  }
  transform_param {
    mirror: false
    crop_size: 224
    mean_file: "/home/mohanty/data/final_dataset/lmdb/segmented-50-50/mean.binaryproto"
  }
  data_param {
    source: "/home/mohanty/data/final_dataset/lmdb/segmented-50-50/test_db"
    batch_size: 24
    backend: LMDB
  }
}
layer {
  name: "conv1/7x7_s2"
  type: "Convolution"
  bottom: "data"
  top: "conv1/7x7_s2"
  param {
    lr_mult: 1
    decay_mult: 1
  }
  param {
    lr_mult: 2
    decay_mult: 0
  }
  convolution_param {
    num_output: 64
    pad: 3
    kernel_size: 7
    stride: 2
    weight_filler {
      type: "xavier"
      std: 0.1
    }
    bias_filler {
      type: "constant"
      value: 0.2
    }
  }
}
layer {
  name: "conv1/relu_7x7"
  type: "ReLU"
  bottom: "conv1/7x7_s2"
  top: "conv1/7x7_s2"
}
layer {
  name: "pool1/3x3_s2"
  type: "Pooling"
  bottom: "conv1/7x7_s2"
  top: "pool1/3x3_s2"
  pooling_param {
    pool: MAX
    kernel_size: 3
    stride: 2
  }
}
layer {
  name: "pool1/norm1"
  type: "LRN"
  bottom: "pool1/3x3_s2"
  top: "pool1/norm1"
  lrn_param {
    local_size: 5
    alpha: 0.0001
    beta: 0.75
  }
}
layer {
  name: "conv2/3x3_reduce"
  type: "Convolution"
  bottom: "pool1/norm1"
  top: "conv2/3x3_reduce"
  param {
    lr_mult: 1
    decay_mult: 1
  }
  param {
    lr_mult: 2
    decay_mult: 0
  }
  convolution_param {
    num_output: 64
    kernel_size: 1
    weight_filler {
      type: "xavier"
      std: 0.1
    }
    bias_filler {
      type: "constant"
      value: 0.2
    }
  }
}
layer {
  name: "conv2/relu_3x3_reduce"
  type: "ReLU"
  bottom: "conv2/3x3_reduce"
  top: "conv2/3x3_reduce"
}
layer {
  name: "conv2/3x3"
  type: "Convolution"
  bottom: "conv2/3x3_reduce"
  top: "conv2/3x3"
  param {
    lr_mult: 1
    decay_mult: 1
  }
  param {
    lr_mult: 2
    decay_mult: 0
  }
  convolution_param {
    num_output: 192
    pad: 1
    kernel_size: 3
    weight_filler {
      type: "xavier"
      std: 0.03
    }
    bias_filler {
      type: "constant"
      value: 0.2
    }
  }
}
layer {
  name: "conv2/relu_3x3"
  type: "ReLU"
  bottom: "conv2/3x3"
  top: "conv2/3x3"
}
layer {
  name: "conv2/norm2"
  type: "LRN"
  bottom: "conv2/3x3"
  top: "conv2/norm2"
  lrn_param {
    local_size: 5
    alpha: 0.0001
    beta: 0.75
  }
}
layer {
  name: "pool2/3x3_s2"
  type: "Pooling"
  bottom: "conv2/norm2"
  top: "pool2/3x3_s2"
  pooling_param {
    pool: MAX
    kernel_size: 3
    stride: 2
  }
}
layer {
  name: "inception_3a/1x1"
  type: "Convolution"
  bottom: "pool2/3x3_s2"
  top: "inception_3a/1x1"
  param {
    lr_mult: 1
    decay_mult: 1
  }
  param {
    lr_mult: 2
    decay_mult: 0
  }
  convolution_param {
    num_output: 64
    kernel_size: 1
    weight_filler {
      type: "xavier"
      std: 0.03
    }
    bias_filler {
      type: "constant"
      value: 0.2
    }
  }
}
layer {
  name: "inception_3a/relu_1x1"
  type: "ReLU"
  bottom: "inception_3a/1x1"
  top: "inception_3a/1x1"
}
layer {
  name: "inception_3a/3x3_reduce"
  type: "Convolution"
  bottom: "pool2/3x3_s2"
  top: "inception_3a/3x3_reduce"
  param {
    lr_mult: 1
    decay_mult: 1
  }
  param {
    lr_mult: 2
    decay_mult: 0
  }
  convolution_param {
    num_output: 96
    kernel_size: 1
    weight_filler {
      type: "xavier"
      std: 0.09
    }
    bias_filler {
      type: "constant"
      value: 0.2
    }
  }
}
layer {
  name: "inception_3a/relu_3x3_reduce"
  type: "ReLU"
  bottom: "inception_3a/3x3_reduce"
  top: "inception_3a/3x3_reduce"
}
layer {
  name: "inception_3a/3x3"
  type: "Convolution"
  bottom: "inception_3a/3x3_reduce"
  top: "inception_3a/3x3"
  param {
    lr_mult: 1
    decay_mult: 1
  }
  param {
    lr_mult: 2
    decay_mult: 0
  }
  convolution_param {
    num_output: 128
    pad: 1
    kernel_size: 3
    weight_filler {
      type: "xavier"
      std: 0.03
    }
    bias_filler {
      type: "constant"
      value: 0.2
    }
  }
}
layer {
  name: "inception_3a/relu_3x3"
  type: "ReLU"
  bottom: "inception_3a/3x3"
  top: "inception_3a/3x3"
}
layer {
  name: "inception_3a/5x5_reduce"
  type: "Convolution"
  bottom: "pool2/3x3_s2"
  top: "inception_3a/5x5_reduce"
  param {
    lr_mult: 1
    decay_mult: 1
  }
  param {
    lr_mult: 2
    decay_mult: 0
  }
  convolution_param {
    num_output: 16
    kernel_size: 1
    weight_filler {
      type: "xavier"
      std: 0.2
    }
    bias_filler {
      type: "constant"
      value: 0.2
    }
  }
}
layer {
  name: "inception_3a/relu_5x5_reduce"
  type: "ReLU"
  bottom: "inception_3a/5x5_reduce"
  top: "inception_3a/5x5_reduce"
}
layer {
  name: "inception_3a/5x5"
  type: "Convolution"
  bottom: "inception_3a/5x5_reduce"
  top: "inception_3a/5x5"
  param {
    lr_mult: 1
    decay_mult: 1
  }
  param {
    lr_mult: 2
    decay_mult: 0
  }
  convolution_param {
    num_output: 32
    pad: 2
    kernel_size: 5
    weight_filler {
      type: "xavier"
      std: 0.03
    }
    bias_filler {
      type: "constant"
      value: 0.2
    }
  }
}
layer {
  name: "inception_3a/relu_5x5"
  type: "ReLU"
  bottom: "inception_3a/5x5"
  top: "inception_3a/5x5"
}
layer {
  name: "inception_3a/pool"
  type: "Pooling"
  bottom: "pool2/3x3_s2"
  top: "inception_3a/pool"
  pooling_param {
    pool: MAX
    kernel_size: 3
    stride: 1
    pad: 1
  }
}
layer {
  name: "inception_3a/pool_proj"
  type: "Convolution"
  bottom: "inception_3a/pool"
  top: "inception_3a/pool_proj"
  param {
    lr_mult: 1
    decay_mult: 1
  }
  param {
    lr_mult: 2
    decay_mult: 0
  }
  convolution_param {
    num_output: 32
    kernel_size: 1
    weight_filler {
      type: "xavier"
      std: 0.1
    }
    bias_filler {
      type: "constant"
      value: 0.2
    }
  }
}
layer {
  name: "inception_3a/relu_pool_proj"
  type: "ReLU"
  bottom: "inception_3a/pool_proj"
  top: "inception_3a/pool_proj"
}
layer {
  name: "inception_3a/output"
  type: "Concat"
  bottom: "inception_3a/1x1"
  bottom: "inception_3a/3x3"
  bottom: "inception_3a/5x5"
  bottom: "inception_3a/pool_proj"
  top: "inception_3a/output"
}
layer {
  name: "inception_3b/1x1"
  type: "Convolution"
  bottom: "inception_3a/output"
  top: "inception_3b/1x1"
  param {
    lr_mult: 1
    decay_mult: 1
  }
  param {
    lr_mult: 2
    decay_mult: 0
  }
  convolution_param {
    num_output: 128
    kernel_size: 1
    weight_filler {
      type: "xavier"
      std: 0.03
    }
    bias_filler {
      type: "constant"
      value: 0.2
    }
  }
}
layer {
  name: "inception_3b/relu_1x1"
  type: "ReLU"
  bottom: "inception_3b/1x1"
  top: "inception_3b/1x1"
}
layer {
  name: "inception_3b/3x3_reduce"
  type: "Convolution"
  bottom: "inception_3a/output"
  top: "inception_3b/3x3_reduce"
  param {
    lr_mult: 1
    decay_mult: 1
  }
  param {
    lr_mult: 2
    decay_mult: 0
  }
  convolution_param {
    num_output: 128
    kernel_size: 1
    weight_filler {
      type: "xavier"
      std: 0.09
    }
    bias_filler {
      type: "constant"
      value: 0.2
    }
  }
}
layer {
  name: "inception_3b/relu_3x3_reduce"
  type: "ReLU"
  bottom: "inception_3b/3x3_reduce"
  top: "inception_3b/3x3_reduce"
}
layer {
  name: "inception_3b/3x3"
  type: "Convolution"
  bottom: "inception_3b/3x3_reduce"
  top: "inception_3b/3x3"
  param {
    lr_mult: 1
    decay_mult: 1
  }
  param {
    lr_mult: 2
    decay_mult: 0
  }
  convolution_param {
    num_output: 192
    pad: 1
    kernel_size: 3
    weight_filler {
      type: "xavier"
      std: 0.03
    }
    bias_filler {
      type: "constant"
      value: 0.2
    }
  }
}
layer {
  name: "inception_3b/relu_3x3"
  type: "ReLU"
  bottom: "inception_3b/3x3"
  top: "inception_3b/3x3"
}
layer {
  name: "inception_3b/5x5_reduce"
  type: "Convolution"
  bottom: "inception_3a/output"
  top: "inception_3b/5x5_reduce"
  param {
    lr_mult: 1
    decay_mult: 1
  }
  param {
    lr_mult: 2
    decay_mult: 0
  }
  convolution_param {
    num_output: 32
    kernel_size: 1
    weight_filler {
      type: "xavier"
      std: 0.2
    }
    bias_filler {
      type: "constant"
      value: 0.2
    }
  }
}
layer {
  name: "inception_3b/relu_5x5_reduce"
  type: "ReLU"
  bottom: "inception_3b/5x5_reduce"
  top: "inception_3b/5x5_reduce"
}
layer {
  name: "inception_3b/5x5"
  type: "Convolution"
  bottom: "inception_3b/5x5_reduce"
  top: "inception_3b/5x5"
  param {
    lr_mult: 1
    decay_mult: 1
  }
  param {
    lr_mult: 2
    decay_mult: 0
  }
  convolution_param {
    num_output: 96
    pad: 2
    kernel_size: 5
    weight_filler {
      type: "xavier"
      std: 0.03
    }
    bias_filler {
      type: "constant"
      value: 0.2
    }
  }
}
layer {
  name: "inception_3b/relu_5x5"
  type: "ReLU"
  bottom: "inception_3b/5x5"
  top: "inception_3b/5x5"
}
layer {
  name: "inception_3b/pool"
  type: "Pooling"
  bottom: "inception_3a/output"
  top: "inception_3b/pool"
  pooling_param {
    pool: MAX
    kernel_size: 3
    stride: 1
    pad: 1
  }
}
layer {
  name: "inception_3b/pool_proj"
  type: "Convolution"
  bottom: "inception_3b/pool"
  top: "inception_3b/pool_proj"
  param {
    lr_mult: 1
    decay_mult: 1
  }
  param {
    lr_mult: 2
    decay_mult: 0
  }
  convolution_param {
    num_output: 64
    kernel_size: 1
    weight_filler {
      type: "xavier"
      std: 0.1
    }
    bias_filler {
      type: "constant"
      value: 0.2
    }
  }
}
layer {
  name: "inception_3b/relu_pool_proj"
  type: "ReLU"
  bottom: "inception_3b/pool_proj"
  top: "inception_3b/pool_proj"
}
layer {
  name: "inception_3b/output"
  type: "Concat"
  bottom: "inception_3b/1x1"
  bottom: "inception_3b/3x3"
  bottom: "inception_3b/5x5"
  bottom: "inception_3b/pool_proj"
  top: "inception_3b/output"
}
layer {
  name: "pool3/3x3_s2"
  type: "Pooling"
  bottom: "inception_3b/output"
  top: "pool3/3x3_s2"
  pooling_param {
    pool: MAX
    kernel_size: 3
    stride: 2
  }
}
layer {
  name: "inception_4a/1x1"
  type: "Convolution"
  bottom: "pool3/3x3_s2"
  top: "inception_4a/1x1"
  param {
    lr_mult: 1
    decay_mult: 1
  }
  param {
    lr_mult: 2
    decay_mult: 0
  }
  convolution_param {
    num_output: 192
    kernel_size: 1
    weight_filler {
      type: "xavier"
      std: 0.03
    }
    bias_filler {
      type: "constant"
      value: 0.2
    }
  }
}
layer {
  name: "inception_4a/relu_1x1"
  type: "ReLU"
  bottom: "inception_4a/1x1"
  top: "inception_4a/1x1"
}
layer {
  name: "inception_4a/3x3_reduce"
  type: "Convolution"
  bottom: "pool3/3x3_s2"
  top: "inception_4a/3x3_reduce"
  param {
    lr_mult: 1
    decay_mult: 1
  }
  param {
    lr_mult: 2
    decay_mult: 0
  }
  convolution_param {
    num_output: 96
    kernel_size: 1
    weight_filler {
      type: "xavier"
      std: 0.09
    }
    bias_filler {
      type: "constant"
      value: 0.2
    }
  }
}
layer {
  name: "inception_4a/relu_3x3_reduce"
  type: "ReLU"
  bottom: "inception_4a/3x3_reduce"
  top: "inception_4a/3x3_reduce"
}
layer {
  name: "inception_4a/3x3"
  type: "Convolution"
  bottom: "inception_4a/3x3_reduce"
  top: "inception_4a/3x3"
  param {
    lr_mult: 1
    decay_mult: 1
  }
  param {
    lr_mult: 2
    decay_mult: 0
  }
  convolution_param {
    num_output: 208
    pad: 1
    kernel_size: 3
    weight_filler {
      type: "xavier"
      std: 0.03
    }
    bias_filler {
      type: "constant"
      value: 0.2
    }
  }
}
layer {
  name: "inception_4a/relu_3x3"
  type: "ReLU"
  bottom: "inception_4a/3x3"
  top: "inception_4a/3x3"
}
layer {
  name: "inception_4a/5x5_reduce"
  type: "Convolution"
  bottom: "pool3/3x3_s2"
  top: "inception_4a/5x5_reduce"
  param {
    lr_mult: 1
    decay_mult: 1
  }
  param {
    lr_mult: 2
    decay_mult: 0
  }
  convolution_param {
    num_output: 16
    kernel_size: 1
    weight_filler {
      type: "xavier"
      std: 0.2
    }
    bias_filler {
      type: "constant"
      value: 0.2
    }
  }
}
layer {
  name: "inception_4a/relu_5x5_reduce"
  type: "ReLU"
  bottom: "inception_4a/5x5_reduce"
  top: "inception_4a/5x5_reduce"
}
layer {
  name: "inception_4a/5x5"
  type: "Convolution"
  bottom: "inception_4a/5x5_reduce"
  top: "inception_4a/5x5"
  param {
    lr_mult: 1
    decay_mult: 1
  }
  param {
    lr_mult: 2
    decay_mult: 0
  }
  convolution_param {
    num_output: 48
    pad: 2
    kernel_size: 5
    weight_filler {
      type: "xavier"
      std: 0.03
    }
    bias_filler {
      type: "constant"
      value: 0.2
    }
  }
}
layer {
  name: "inception_4a/relu_5x5"
  type: "ReLU"
  bottom: "inception_4a/5x5"
  top: "inception_4a/5x5"
}
layer {
  name: "inception_4a/pool"
  type: "Pooling"
  bottom: "pool3/3x3_s2"
  top: "inception_4a/pool"
  pooling_param {
    pool: MAX
    kernel_size: 3
    stride: 1
    pad: 1
  }
}
layer {
  name: "inception_4a/pool_proj"
  type: "Convolution"
  bottom: "inception_4a/pool"
  top: "inception_4a/pool_proj"
  param {
    lr_mult: 1
    decay_mult: 1
  }
  param {
    lr_mult: 2
    decay_mult: 0
  }
  convolution_param {
    num_output: 64
    kernel_size: 1
    weight_filler {
      type: "xavier"
      std: 0.1
    }
    bias_filler {
      type: "constant"
      value: 0.2
    }
  }
}
layer {
  name: "inception_4a/relu_pool_proj"
  type: "ReLU"
  bottom: "inception_4a/pool_proj"
  top: "inception_4a/pool_proj"
}
layer {
  name: "inception_4a/output"
  type: "Concat"
  bottom: "inception_4a/1x1"
  bottom: "inception_4a/3x3"
  bottom: "inception_4a/5x5"
  bottom: "inception_4a/pool_proj"
  top: "inception_4a/output"
}
layer {
  name: "loss1/ave_pool"
  type: "Pooling"
  bottom: "inception_4a/output"
  top: "loss1/ave_pool"
  pooling_param {
    pool: AVE
    kernel_size: 5
    stride: 3
  }
}
layer {
  name: "loss1/conv"
  type: "Convolution"
  bottom: "loss1/ave_pool"
  top: "loss1/conv"
  param {
    lr_mult: 1
    decay_mult: 1
  }
  param {
    lr_mult: 2
    decay_mult: 0
  }
  convolution_param {
    num_output: 128
    kernel_size: 1
    weight_filler {
      type: "xavier"
      std: 0.08
    }
    bias_filler {
      type: "constant"
      value: 0.2
    }
  }
}
layer {
  name: "loss1/relu_conv"
  type: "ReLU"
  bottom: "loss1/conv"
  top: "loss1/conv"
}
layer {
  name: "loss1/fc"
  type: "InnerProduct"
  bottom: "loss1/conv"
  top: "loss1/fc"
  param {
    lr_mult: 1
    decay_mult: 1
  }
  param {
    lr_mult: 2
    decay_mult: 0
  }
  inner_product_param {
    num_output: 1024
    weight_filler {
      type: "xavier"
      std: 0.02
    }
    bias_filler {
      type: "constant"
      value: 0.2
    }
  }
}
layer {
  name: "loss1/relu_fc"
  type: "ReLU"
  bottom: "loss1/fc"
  top: "loss1/fc"
}
layer {
  name: "loss1/drop_fc"
  type: "Dropout"
  bottom: "loss1/fc"
  top: "loss1/fc"
  dropout_param {
    dropout_ratio: 0.7
  }
}
layer {
  name: "loss1/classifier_plantvillage"
  type: "InnerProduct"
  bottom: "loss1/fc"
  top: "loss1/classifier_plantvillage"
  param {
    lr_mult: 1
    decay_mult: 1
  }
  param {
    lr_mult: 2
    decay_mult: 0
  }
  inner_product_param {
    num_output: 38
    weight_filler {
      type: "xavier"
      std: 0.0009765625
    }
    bias_filler {
      type: "constant"
      value: 0
    }
  }
}
layer {
  name: "inception_4b/1x1"
  type: "Convolution"
  bottom: "inception_4a/output"
  top: "inception_4b/1x1"
  param {
    lr_mult: 1
    decay_mult: 1
  }
  param {
    lr_mult: 2
    decay_mult: 0
  }
  convolution_param {
    num_output: 160
    kernel_size: 1
    weight_filler {
      type: "xavier"
      std: 0.03
    }
    bias_filler {
      type: "constant"
      value: 0.2
    }
  }
}
layer {
  name: "inception_4b/relu_1x1"
  type: "ReLU"
  bottom: "inception_4b/1x1"
  top: "inception_4b/1x1"
}
layer {
  name: "inception_4b/3x3_reduce"
  type: "Convolution"
  bottom: "inception_4a/output"
  top: "inception_4b/3x3_reduce"
  param {
    lr_mult: 1
    decay_mult: 1
  }
  param {
    lr_mult: 2
    decay_mult: 0
  }
  convolution_param {
    num_output: 112
    kernel_size: 1
    weight_filler {
      type: "xavier"
      std: 0.09
    }
    bias_filler {
      type: "constant"
      value: 0.2
    }
  }
}
layer {
  name: "inception_4b/relu_3x3_reduce"
  type: "ReLU"
  bottom: "inception_4b/3x3_reduce"
  top: "inception_4b/3x3_reduce"
}
layer {
  name: "inception_4b/3x3"
  type: "Convolution"
  bottom: "inception_4b/3x3_reduce"
  top: "inception_4b/3x3"
  param {
    lr_mult: 1
    decay_mult: 1
  }
  param {
    lr_mult: 2
    decay_mult: 0
  }
  convolution_param {
    num_output: 224
    pad: 1
    kernel_size: 3
    weight_filler {
      type: "xavier"
      std: 0.03
    }
    bias_filler {
      type: "constant"
      value: 0.2
    }
  }
}
layer {
  name: "inception_4b/relu_3x3"
  type: "ReLU"
  bottom: "inception_4b/3x3"
  top: "inception_4b/3x3"
}
layer {
  name: "inception_4b/5x5_reduce"
  type: "Convolution"
  bottom: "inception_4a/output"
  top: "inception_4b/5x5_reduce"
  param {
    lr_mult: 1
    decay_mult: 1
  }
  param {
    lr_mult: 2
    decay_mult: 0
  }
  convolution_param {
    num_output: 24
    kernel_size: 1
    weight_filler {
      type: "xavier"
      std: 0.2
    }
    bias_filler {
      type: "constant"
      value: 0.2
    }
  }
}
layer {
  name: "inception_4b/relu_5x5_reduce"
  type: "ReLU"
  bottom: "inception_4b/5x5_reduce"
  top: "inception_4b/5x5_reduce"
}
layer {
  name: "inception_4b/5x5"
  type: "Convolution"
  bottom: "inception_4b/5x5_reduce"
  top: "inception_4b/5x5"
  param {
    lr_mult: 1
    decay_mult: 1
  }
  param {
    lr_mult: 2
    decay_mult: 0
  }
  convolution_param {
    num_output: 64
    pad: 2
    kernel_size: 5
    weight_filler {
      type: "xavier"
      std: 0.03
    }
    bias_filler {
      type: "constant"
      value: 0.2
    }
  }
}
layer {
  name: "inception_4b/relu_5x5"
  type: "ReLU"
  bottom: "inception_4b/5x5"
  top: "inception_4b/5x5"
}
layer {
  name: "inception_4b/pool"
  type: "Pooling"
  bottom: "inception_4a/output"
  top: "inception_4b/pool"
  pooling_param {
    pool: MAX
    kernel_size: 3
    stride: 1
    pad: 1
  }
}
layer {
  name: "inception_4b/pool_proj"
  type: "Convolution"
  bottom: "inception_4b/pool"
  top: "inception_4b/pool_proj"
  param {
    lr_mult: 1
    decay_mult: 1
  }
  param {
    lr_mult: 2
    decay_mult: 0
  }
  convolution_param {
    num_output: 64
    kernel_size: 1
    weight_filler {
      type: "xavier"
      std: 0.1
    }
    bias_filler {
      type: "constant"
      value: 0.2
    }
  }
}
layer {
  name: "inception_4b/relu_pool_proj"
  type: "ReLU"
  bottom: "inception_4b/pool_proj"
  top: "inception_4b/pool_proj"
}
layer {
  name: "inception_4b/output"
  type: "Concat"
  bottom: "inception_4b/1x1"
  bottom: "inception_4b/3x3"
  bottom: "inception_4b/5x5"
  bottom: "inception_4b/pool_proj"
  top: "inception_4b/output"
}
layer {
  name: "inception_4c/1x1"
  type: "Convolution"
  bottom: "inception_4b/output"
  top: "inception_4c/1x1"
  param {
    lr_mult: 1
    decay_mult: 1
  }
  param {
    lr_mult: 2
    decay_mult: 0
  }
  convolution_param {
    num_output: 128
    kernel_size: 1
    weight_filler {
      type: "xavier"
      std: 0.03
    }
    bias_filler {
      type: "constant"
      value: 0.2
    }
  }
}
layer {
  name: "inception_4c/relu_1x1"
  type: "ReLU"
  bottom: "inception_4c/1x1"
  top: "inception_4c/1x1"
}
layer {
  name: "inception_4c/3x3_reduce"
  type: "Convolution"
  bottom: "inception_4b/output"
  top: "inception_4c/3x3_reduce"
  param {
    lr_mult: 1
    decay_mult: 1
  }
  param {
    lr_mult: 2
    decay_mult: 0
  }
  convolution_param {
    num_output: 128
    kernel_size: 1
    weight_filler {
      type: "xavier"
      std: 0.09
    }
    bias_filler {
      type: "constant"
      value: 0.2
    }
  }
}
layer {
  name: "inception_4c/relu_3x3_reduce"
  type: "ReLU"
  bottom: "inception_4c/3x3_reduce"
  top: "inception_4c/3x3_reduce"
}
layer {
  name: "inception_4c/3x3"
  type: "Convolution"
  bottom: "inception_4c/3x3_reduce"
  top: "inception_4c/3x3"
  param {
    lr_mult: 1
    decay_mult: 1
  }
  param {
    lr_mult: 2
    decay_mult: 0
  }
  convolution_param {
    num_output: 256
    pad: 1
    kernel_size: 3
    weight_filler {
      type: "xavier"
      std: 0.03
    }
    bias_filler {
      type: "constant"
      value: 0.2
    }
  }
}
layer {
  name: "inception_4c/relu_3x3"
  type: "ReLU"
  bottom: "inception_4c/3x3"
  top: "inception_4c/3x3"
}
layer {
  name: "inception_4c/5x5_reduce"
  type: "Convolution"
  bottom: "inception_4b/output"
  top: "inception_4c/5x5_reduce"
  param {
    lr_mult: 1
    decay_mult: 1
  }
  param {
    lr_mult: 2
    decay_mult: 0
  }
  convolution_param {
    num_output: 24
    kernel_size: 1
    weight_filler {
      type: "xavier"
      std: 0.2
    }
    bias_filler {
      type: "constant"
      value: 0.2
    }
  }
}
layer {
  name: "inception_4c/relu_5x5_reduce"
  type: "ReLU"
  bottom: "inception_4c/5x5_reduce"
  top: "inception_4c/5x5_reduce"
}
layer {
  name: "inception_4c/5x5"
  type: "Convolution"
  bottom: "inception_4c/5x5_reduce"
  top: "inception_4c/5x5"
  param {
    lr_mult: 1
    decay_mult: 1
  }
  param {
    lr_mult: 2
    decay_mult: 0
  }
  convolution_param {
    num_output: 64
    pad: 2
    kernel_size: 5
    weight_filler {
      type: "xavier"
      std: 0.03
    }
    bias_filler {
      type: "constant"
      value: 0.2
    }
  }
}
layer {
  name: "inception_4c/relu_5x5"
  type: "ReLU"
  bottom: "inception_4c/5x5"
  top: "inception_4c/5x5"
}
layer {
  name: "inception_4c/pool"
  type: "Pooling"
  bottom: "inception_4b/output"
  top: "inception_4c/pool"
  pooling_param {
    pool: MAX
    kernel_size: 3
    stride: 1
    pad: 1
  }
}
layer {
  name: "inception_4c/pool_proj"
  type: "Convolution"
  bottom: "inception_4c/pool"
  top: "inception_4c/pool_proj"
  param {
    lr_mult: 1
    decay_mult: 1
  }
  param {
    lr_mult: 2
    decay_mult: 0
  }
  convolution_param {
    num_output: 64
    kernel_size: 1
    weight_filler {
      type: "xavier"
      std: 0.1
    }
    bias_filler {
      type: "constant"
      value: 0.2
    }
  }
}
layer {
  name: "inception_4c/relu_pool_proj"
  type: "ReLU"
  bottom: "inception_4c/pool_proj"
  top: "inception_4c/pool_proj"
}
layer {
  name: "inception_4c/output"
  type: "Concat"
  bottom: "inception_4c/1x1"
  bottom: "inception_4c/3x3"
  bottom: "inception_4c/5x5"
  bottom: "inception_4c/pool_proj"
  top: "inception_4c/output"
}
layer {
  name: "inception_4d/1x1"
  type: "Convolution"
  bottom: "inception_4c/output"
  top: "inception_4d/1x1"
  param {
    lr_mult: 1
    decay_mult: 1
  }
  param {
    lr_mult: 2
    decay_mult: 0
  }
  convolution_param {
    num_output: 112
    kernel_size: 1
    weight_filler {
      type: "xavier"
      std: 0.03
    }
    bias_filler {
      type: "constant"
      value: 0.2
    }
  }
}
layer {
  name: "inception_4d/relu_1x1"
  type: "ReLU"
  bottom: "inception_4d/1x1"
  top: "inception_4d/1x1"
}
layer {
  name: "inception_4d/3x3_reduce"
  type: "Convolution"
  bottom: "inception_4c/output"
  top: "inception_4d/3x3_reduce"
  param {
    lr_mult: 1
    decay_mult: 1
  }
  param {
    lr_mult: 2
    decay_mult: 0
  }
  convolution_param {
    num_output: 144
    kernel_size: 1
    weight_filler {
      type: "xavier"
      std: 0.09
    }
    bias_filler {
      type: "constant"
      value: 0.2
    }
  }
}
layer {
  name: "inception_4d/relu_3x3_reduce"
  type: "ReLU"
  bottom: "inception_4d/3x3_reduce"
  top: "inception_4d/3x3_reduce"
}
layer {
  name: "inception_4d/3x3"
  type: "Convolution"
  bottom: "inception_4d/3x3_reduce"
  top: "inception_4d/3x3"
  param {
    lr_mult: 1
    decay_mult: 1
  }
  param {
    lr_mult: 2
    decay_mult: 0
  }
  convolution_param {
    num_output: 288
    pad: 1
    kernel_size: 3
    weight_filler {
      type: "xavier"
      std: 0.03
    }
    bias_filler {
      type: "constant"
      value: 0.2
    }
  }
}
layer {
  name: "inception_4d/relu_3x3"
  type: "ReLU"
  bottom: "inception_4d/3x3"
  top: "inception_4d/3x3"
}
layer {
  name: "inception_4d/5x5_reduce"
  type: "Convolution"
  bottom: "inception_4c/output"
  top: "inception_4d/5x5_reduce"
  param {
    lr_mult: 1
    decay_mult: 1
  }
  param {
    lr_mult: 2
    decay_mult: 0
  }
  convolution_param {
    num_output: 32
    kernel_size: 1
    weight_filler {
      type: "xavier"
      std: 0.2
    }
    bias_filler {
      type: "constant"
      value: 0.2
    }
  }
}
layer {
  name: "inception_4d/relu_5x5_reduce"
  type: "ReLU"
  bottom: "inception_4d/5x5_reduce"
  top: "inception_4d/5x5_reduce"
}
layer {
  name: "inception_4d/5x5"
  type: "Convolution"
  bottom: "inception_4d/5x5_reduce"
  top: "inception_4d/5x5"
  param {
    lr_mult: 1
    decay_mult: 1
  }
  param {
    lr_mult: 2
    decay_mult: 0
  }
  convolution_param {
    num_output: 64
    pad: 2
    kernel_size: 5
    weight_filler {
      type: "xavier"
      std: 0.03
    }
    bias_filler {
      type: "constant"
      value: 0.2
    }
  }
}
layer {
  name: "inception_4d/relu_5x5"
  type: "ReLU"
  bottom: "inception_4d/5x5"
  top: "inception_4d/5x5"
}
layer {
  name: "inception_4d/pool"
  type: "Pooling"
  bottom: "inception_4c/output"
  top: "inception_4d/pool"
  pooling_param {
    pool: MAX
    kernel_size: 3
    stride: 1
    pad: 1
  }
}
layer {
  name: "inception_4d/pool_proj"
  type: "Convolution"
  bottom: "inception_4d/pool"
  top: "inception_4d/pool_proj"
  param {
    lr_mult: 1
    decay_mult: 1
  }
  param {
    lr_mult: 2
    decay_mult: 0
  }
  convolution_param {
    num_output: 64
    kernel_size: 1
    weight_filler {
      type: "xavier"
      std: 0.1
    }
    bias_filler {
      type: "constant"
      value: 0.2
    }
  }
}
layer {
  name: "inception_4d/relu_pool_proj"
  type: "ReLU"
  bottom: "inception_4d/pool_proj"
  top: "inception_4d/pool_proj"
}
layer {
  name: "inception_4d/output"
  type: "Concat"
  bottom: "inception_4d/1x1"
  bottom: "inception_4d/3x3"
  bottom: "inception_4d/5x5"
  bottom: "inception_4d/pool_proj"
  top: "inception_4d/output"
}
layer {
  name: "loss2/ave_pool"
  type: "Pooling"
  bottom: "inception_4d/output"
  top: "loss2/ave_pool"
  pooling_param {
    pool: AVE
    kernel_size: 5
    stride: 3
  }
}
layer {
  name: "loss2/conv"
  type: "Convolution"
  bottom: "loss2/ave_pool"
  top: "loss2/conv"
  param {
    lr_mult: 1
    decay_mult: 1
  }
  param {
    lr_mult: 2
    decay_mult: 0
  }
  convolution_param {
    num_output: 128
    kernel_size: 1
    weight_filler {
      type: "xavier"
      std: 0.08
    }
    bias_filler {
      type: "constant"
      value: 0.2
    }
  }
}
layer {
  name: "loss2/relu_conv"
  type: "ReLU"
  bottom: "loss2/conv"
  top: "loss2/conv"
}
layer {
  name: "loss2/fc"
  type: "InnerProduct"
  bottom: "loss2/conv"
  top: "loss2/fc"
  param {
    lr_mult: 1
    decay_mult: 1
  }
  param {
    lr_mult: 2
    decay_mult: 0
  }
  inner_product_param {
    num_output: 1024
    weight_filler {
      type: "xavier"
      std: 0.02
    }
    bias_filler {
      type: "constant"
      value: 0.2
    }
  }
}
layer {
  name: "loss2/relu_fc"
  type: "ReLU"
  bottom: "loss2/fc"
  top: "loss2/fc"
}
layer {
  name: "loss2/drop_fc"
  type: "Dropout"
  bottom: "loss2/fc"
  top: "loss2/fc"
  dropout_param {
    dropout_ratio: 0.7
  }
}
layer {
  name: "loss2/classifier_plantvillage"
  type: "InnerProduct"
  bottom: "loss2/fc"
  top: "loss2/classifier_plantvillage"
  param {
    lr_mult: 1
    decay_mult: 1
  }
  param {
    lr_mult: 2
    decay_mult: 0
  }
  inner_product_param {
    num_output: 38
    weight_filler {
      type: "xavier"
      std: 0.0009765625
    }
    bias_filler {
      type: "constant"
      value: 0
    }
  }
}
layer {
  name: "inception_4e/1x1"
  type: "Convolution"
  bottom: "inception_4d/output"
  top: "inception_4e/1x1"
  param {
    lr_mult: 1
    decay_mult: 1
  }
  param {
    lr_mult: 2
    decay_mult: 0
  }
  convolution_param {
    num_output: 256
    kernel_size: 1
    weight_filler {
      type: "xavier"
      std: 0.03
    }
    bias_filler {
      type: "constant"
      value: 0.2
    }
  }
}
layer {
  name: "inception_4e/relu_1x1"
  type: "ReLU"
  bottom: "inception_4e/1x1"
  top: "inception_4e/1x1"
}
layer {
  name: "inception_4e/3x3_reduce"
  type: "Convolution"
  bottom: "inception_4d/output"
  top: "inception_4e/3x3_reduce"
  param {
    lr_mult: 1
    decay_mult: 1
  }
  param {
    lr_mult: 2
    decay_mult: 0
  }
  convolution_param {
    num_output: 160
    kernel_size: 1
    weight_filler {
      type: "xavier"
      std: 0.09
    }
    bias_filler {
      type: "constant"
      value: 0.2
    }
  }
}
layer {
  name: "inception_4e/relu_3x3_reduce"
  type: "ReLU"
  bottom: "inception_4e/3x3_reduce"
  top: "inception_4e/3x3_reduce"
}
layer {
  name: "inception_4e/3x3"
  type: "Convolution"
  bottom: "inception_4e/3x3_reduce"
  top: "inception_4e/3x3"
  param {
    lr_mult: 1
    decay_mult: 1
  }
  param {
    lr_mult: 2
    decay_mult: 0
  }
  convolution_param {
    num_output: 320
    pad: 1
    kernel_size: 3
    weight_filler {
      type: "xavier"
      std: 0.03
    }
    bias_filler {
      type: "constant"
      value: 0.2
    }
  }
}
layer {
  name: "inception_4e/relu_3x3"
  type: "ReLU"
  bottom: "inception_4e/3x3"
  top: "inception_4e/3x3"
}
layer {
  name: "inception_4e/5x5_reduce"
  type: "Convolution"
  bottom: "inception_4d/output"
  top: "inception_4e/5x5_reduce"
  param {
    lr_mult: 1
    decay_mult: 1
  }
  param {
    lr_mult: 2
    decay_mult: 0
  }
  convolution_param {
    num_output: 32
    kernel_size: 1
    weight_filler {
      type: "xavier"
      std: 0.2
    }
    bias_filler {
      type: "constant"
      value: 0.2
    }
  }
}
layer {
  name: "inception_4e/relu_5x5_reduce"
  type: "ReLU"
  bottom: "inception_4e/5x5_reduce"
  top: "inception_4e/5x5_reduce"
}
layer {
  name: "inception_4e/5x5"
  type: "Convolution"
  bottom: "inception_4e/5x5_reduce"
  top: "inception_4e/
I0403 18:09:17.201889  6629 layer_factory.hpp:77] Creating layer data
I0403 18:09:17.202520  6629 net.cpp:91] Creating Layer data
I0403 18:09:17.202553  6629 net.cpp:399] data -> data
I0403 18:09:17.202606  6629 net.cpp:399] data -> label
I0403 18:09:17.202642  6629 data_transformer.cpp:25] Loading mean file from: /home/mohanty/data/final_dataset/lmdb/segmented-50-50/mean.binaryproto
I0403 18:09:17.203702  6632 db_lmdb.cpp:38] Opened lmdb /home/mohanty/data/final_dataset/lmdb/segmented-50-50/test_db
I0403 18:09:17.216200  6629 data_layer.cpp:41] output data size: 24,3,224,224
I0403 18:09:17.246670  6629 net.cpp:141] Setting up data
I0403 18:09:17.246794  6629 net.cpp:148] Top shape: 24 3 224 224 (3612672)
I0403 18:09:17.246817  6629 net.cpp:148] Top shape: 24 (24)
I0403 18:09:17.246834  6629 net.cpp:156] Memory required for data: 14450784
I0403 18:09:17.246861  6629 layer_factory.hpp:77] Creating layer label_data_1_split
I0403 18:09:17.246891  6629 net.cpp:91] Creating Layer label_data_1_split
I0403 18:09:17.246908  6629 net.cpp:425] label_data_1_split <- label
I0403 18:09:17.246940  6629 net.cpp:399] label_data_1_split -> label_data_1_split_0
I0403 18:09:17.246970  6629 net.cpp:399] label_data_1_split -> label_data_1_split_1
I0403 18:09:17.246992  6629 net.cpp:399] label_data_1_split -> label_data_1_split_2
I0403 18:09:17.247014  6629 net.cpp:399] label_data_1_split -> label_data_1_split_3
I0403 18:09:17.247035  6629 net.cpp:399] label_data_1_split -> label_data_1_split_4
I0403 18:09:17.247056  6629 net.cpp:399] label_data_1_split -> label_data_1_split_5
I0403 18:09:17.247076  6629 net.cpp:399] label_data_1_split -> label_data_1_split_6
I0403 18:09:17.247097  6629 net.cpp:399] label_data_1_split -> label_data_1_split_7
I0403 18:09:17.247118  6629 net.cpp:399] label_data_1_split -> label_data_1_split_8
I0403 18:09:17.247139  6629 net.cpp:399] label_data_1_split -> label_data_1_split_9
I0403 18:09:17.247267  6629 net.cpp:141] Setting up label_data_1_split
I0403 18:09:17.247292  6629 net.cpp:148] Top shape: 24 (24)
I0403 18:09:17.247310  6629 net.cpp:148] Top shape: 24 (24)
I0403 18:09:17.247328  6629 net.cpp:148] Top shape: 24 (24)
I0403 18:09:17.247344  6629 net.cpp:148] Top shape: 24 (24)
I0403 18:09:17.247360  6629 net.cpp:148] Top shape: 24 (24)
I0403 18:09:17.247377  6629 net.cpp:148] Top shape: 24 (24)
I0403 18:09:17.247393  6629 net.cpp:148] Top shape: 24 (24)
I0403 18:09:17.247409  6629 net.cpp:148] Top shape: 24 (24)
I0403 18:09:17.247426  6629 net.cpp:148] Top shape: 24 (24)
I0403 18:09:17.247443  6629 net.cpp:148] Top shape: 24 (24)
I0403 18:09:17.247491  6629 net.cpp:156] Memory required for data: 14451744
I0403 18:09:17.247508  6629 layer_factory.hpp:77] Creating layer conv1/7x7_s2
I0403 18:09:17.247542  6629 net.cpp:91] Creating Layer conv1/7x7_s2
I0403 18:09:17.247561  6629 net.cpp:425] conv1/7x7_s2 <- data
I0403 18:09:17.247581  6629 net.cpp:399] conv1/7x7_s2 -> conv1/7x7_s2
I0403 18:09:17.393864  6629 net.cpp:141] Setting up conv1/7x7_s2
I0403 18:09:17.393923  6629 net.cpp:148] Top shape: 24 64 112 112 (19267584)
I0403 18:09:17.393941  6629 net.cpp:156] Memory required for data: 91522080
I0403 18:09:17.393972  6629 layer_factory.hpp:77] Creating layer conv1/relu_7x7
I0403 18:09:17.394001  6629 net.cpp:91] Creating Layer conv1/relu_7x7
I0403 18:09:17.394018  6629 net.cpp:425] conv1/relu_7x7 <- conv1/7x7_s2
I0403 18:09:17.394038  6629 net.cpp:386] conv1/relu_7x7 -> conv1/7x7_s2 (in-place)
I0403 18:09:17.394301  6629 net.cpp:141] Setting up conv1/relu_7x7
I0403 18:09:17.394328  6629 net.cpp:148] Top shape: 24 64 112 112 (19267584)
I0403 18:09:17.394345  6629 net.cpp:156] Memory required for data: 168592416
I0403 18:09:17.394361  6629 layer_factory.hpp:77] Creating layer pool1/3x3_s2
I0403 18:09:17.394386  6629 net.cpp:91] Creating Layer pool1/3x3_s2
I0403 18:09:17.394403  6629 net.cpp:425] pool1/3x3_s2 <- conv1/7x7_s2
I0403 18:09:17.394423  6629 net.cpp:399] pool1/3x3_s2 -> pool1/3x3_s2
I0403 18:09:17.394498  6629 net.cpp:141] Setting up pool1/3x3_s2
I0403 18:09:17.394523  6629 net.cpp:148] Top shape: 24 64 56 56 (4816896)
I0403 18:09:17.394539  6629 net.cpp:156] Memory required for data: 187860000
I0403 18:09:17.394554  6629 layer_factory.hpp:77] Creating layer pool1/norm1
I0403 18:09:17.394578  6629 net.cpp:91] Creating Layer pool1/norm1
I0403 18:09:17.394596  6629 net.cpp:425] pool1/norm1 <- pool1/3x3_s2
I0403 18:09:17.394615  6629 net.cpp:399] pool1/norm1 -> pool1/norm1
I0403 18:09:17.394903  6629 net.cpp:141] Setting up pool1/norm1
I0403 18:09:17.394932  6629 net.cpp:148] Top shape: 24 64 56 56 (4816896)
I0403 18:09:17.394948  6629 net.cpp:156] Memory required for data: 207127584
I0403 18:09:17.394963  6629 layer_factory.hpp:77] Creating layer conv2/3x3_reduce
I0403 18:09:17.394989  6629 net.cpp:91] Creating Layer conv2/3x3_reduce
I0403 18:09:17.395005  6629 net.cpp:425] conv2/3x3_reduce <- pool1/norm1
I0403 18:09:17.395025  6629 net.cpp:399] conv2/3x3_reduce -> conv2/3x3_reduce
I0403 18:09:17.396406  6629 net.cpp:141] Setting up conv2/3x3_reduce
I0403 18:09:17.396437  6629 net.cpp:148] Top shape: 24 64 56 56 (4816896)
I0403 18:09:17.396455  6629 net.cpp:156] Memory required for data: 226395168
I0403 18:09:17.396476  6629 layer_factory.hpp:77] Creating layer conv2/relu_3x3_reduce
I0403 18:09:17.396498  6629 net.cpp:91] Creating Layer conv2/relu_3x3_reduce
I0403 18:09:17.396514  6629 net.cpp:425] conv2/relu_3x3_reduce <- conv2/3x3_reduce
I0403 18:09:17.396533  6629 net.cpp:386] conv2/relu_3x3_reduce -> conv2/3x3_reduce (in-place)
I0403 18:09:17.396812  6629 net.cpp:141] Setting up conv2/relu_3x3_reduce
I0403 18:09:17.396841  6629 net.cpp:148] Top shape: 24 64 56 56 (4816896)
I0403 18:09:17.396857  6629 net.cpp:156] Memory required for data: 245662752
I0403 18:09:17.396872  6629 layer_factory.hpp:77] Creating layer conv2/3x3
I0403 18:09:17.396898  6629 net.cpp:91] Creating Layer conv2/3x3
I0403 18:09:17.396915  6629 net.cpp:425] conv2/3x3 <- conv2/3x3_reduce
I0403 18:09:17.396937  6629 net.cpp:399] conv2/3x3 -> conv2/3x3
I0403 18:09:17.399307  6629 net.cpp:141] Setting up conv2/3x3
I0403 18:09:17.399338  6629 net.cpp:148] Top shape: 24 192 56 56 (14450688)
I0403 18:09:17.399354  6629 net.cpp:156] Memory required for data: 303465504
I0403 18:09:17.399377  6629 layer_factory.hpp:77] Creating layer conv2/relu_3x3
I0403 18:09:17.399399  6629 net.cpp:91] Creating Layer conv2/relu_3x3
I0403 18:09:17.399415  6629 net.cpp:425] conv2/relu_3x3 <- conv2/3x3
I0403 18:09:17.399433  6629 net.cpp:386] conv2/relu_3x3 -> conv2/3x3 (in-place)
I0403 18:09:17.399615  6629 net.cpp:141] Setting up conv2/relu_3x3
I0403 18:09:17.399643  6629 net.cpp:148] Top shape: 24 192 56 56 (14450688)
I0403 18:09:17.399690  6629 net.cpp:156] Memory required for data: 361268256
I0403 18:09:17.399708  6629 layer_factory.hpp:77] Creating layer conv2/norm2
I0403 18:09:17.399726  6629 net.cpp:91] Creating Layer conv2/norm2
I0403 18:09:17.399744  6629 net.cpp:425] conv2/norm2 <- conv2/3x3
I0403 18:09:17.399763  6629 net.cpp:399] conv2/norm2 -> conv2/norm2
I0403 18:09:17.400070  6629 net.cpp:141] Setting up conv2/norm2
I0403 18:09:17.400099  6629 net.cpp:148] Top shape: 24 192 56 56 (14450688)
I0403 18:09:17.400115  6629 net.cpp:156] Memory required for data: 419071008
I0403 18:09:17.400130  6629 layer_factory.hpp:77] Creating layer pool2/3x3_s2
I0403 18:09:17.400149  6629 net.cpp:91] Creating Layer pool2/3x3_s2
I0403 18:09:17.400164  6629 net.cpp:425] pool2/3x3_s2 <- conv2/norm2
I0403 18:09:17.400185  6629 net.cpp:399] pool2/3x3_s2 -> pool2/3x3_s2
I0403 18:09:17.400244  6629 net.cpp:141] Setting up pool2/3x3_s2
I0403 18:09:17.400269  6629 net.cpp:148] Top shape: 24 192 28 28 (3612672)
I0403 18:09:17.400285  6629 net.cpp:156] Memory required for data: 433521696
I0403 18:09:17.400300  6629 layer_factory.hpp:77] Creating layer pool2/3x3_s2_pool2/3x3_s2_0_split
I0403 18:09:17.400321  6629 net.cpp:91] Creating Layer pool2/3x3_s2_pool2/3x3_s2_0_split
I0403 18:09:17.400337  6629 net.cpp:425] pool2/3x3_s2_pool2/3x3_s2_0_split <- pool2/3x3_s2
I0403 18:09:17.400358  6629 net.cpp:399] pool2/3x3_s2_pool2/3x3_s2_0_split -> pool2/3x3_s2_pool2/3x3_s2_0_split_0
I0403 18:09:17.400379  6629 net.cpp:399] pool2/3x3_s2_pool2/3x3_s2_0_split -> pool2/3x3_s2_pool2/3x3_s2_0_split_1
I0403 18:09:17.400399  6629 net.cpp:399] pool2/3x3_s2_pool2/3x3_s2_0_split -> pool2/3x3_s2_pool2/3x3_s2_0_split_2
I0403 18:09:17.400418  6629 net.cpp:399] pool2/3x3_s2_pool2/3x3_s2_0_split -> pool2/3x3_s2_pool2/3x3_s2_0_split_3
I0403 18:09:17.400490  6629 net.cpp:141] Setting up pool2/3x3_s2_pool2/3x3_s2_0_split
I0403 18:09:17.400513  6629 net.cpp:148] Top shape: 24 192 28 28 (3612672)
I0403 18:09:17.400530  6629 net.cpp:148] Top shape: 24 192 28 28 (3612672)
I0403 18:09:17.400547  6629 net.cpp:148] Top shape: 24 192 28 28 (3612672)
I0403 18:09:17.400563  6629 net.cpp:148] Top shape: 24 192 28 28 (3612672)
I0403 18:09:17.400578  6629 net.cpp:156] Memory required for data: 491324448
I0403 18:09:17.400593  6629 layer_factory.hpp:77] Creating layer inception_3a/1x1
I0403 18:09:17.400616  6629 net.cpp:91] Creating Layer inception_3a/1x1
I0403 18:09:17.400634  6629 net.cpp:425] inception_3a/1x1 <- pool2/3x3_s2_pool2/3x3_s2_0_split_0
I0403 18:09:17.400655  6629 net.cpp:399] inception_3a/1x1 -> inception_3a/1x1
I0403 18:09:17.402290  6629 net.cpp:141] Setting up inception_3a/1x1
I0403 18:09:17.402323  6629 net.cpp:148] Top shape: 24 64 28 28 (1204224)
I0403 18:09:17.402341  6629 net.cpp:156] Memory required for data: 496141344
I0403 18:09:17.402361  6629 layer_factory.hpp:77] Creating layer inception_3a/relu_1x1
I0403 18:09:17.402384  6629 net.cpp:91] Creating Layer inception_3a/relu_1x1
I0403 18:09:17.402405  6629 net.cpp:425] inception_3a/relu_1x1 <- inception_3a/1x1
I0403 18:09:17.402425  6629 net.cpp:386] inception_3a/relu_1x1 -> inception_3a/1x1 (in-place)
I0403 18:09:17.402601  6629 net.cpp:141] Setting up inception_3a/relu_1x1
I0403 18:09:17.402628  6629 net.cpp:148] Top shape: 24 64 28 28 (1204224)
I0403 18:09:17.402643  6629 net.cpp:156] Memory required for data: 500958240
I0403 18:09:17.402659  6629 layer_factory.hpp:77] Creating layer inception_3a/3x3_reduce
I0403 18:09:17.402684  6629 net.cpp:91] Creating Layer inception_3a/3x3_reduce
I0403 18:09:17.402703  6629 net.cpp:425] inception_3a/3x3_reduce <- pool2/3x3_s2_pool2/3x3_s2_0_split_1
I0403 18:09:17.402724  6629 net.cpp:399] inception_3a/3x3_reduce -> inception_3a/3x3_reduce
I0403 18:09:17.404448  6629 net.cpp:141] Setting up inception_3a/3x3_reduce
I0403 18:09:17.404479  6629 net.cpp:148] Top shape: 24 96 28 28 (1806336)
I0403 18:09:17.404496  6629 net.cpp:156] Memory required for data: 508183584
I0403 18:09:17.404520  6629 layer_factory.hpp:77] Creating layer inception_3a/relu_3x3_reduce
I0403 18:09:17.404558  6629 net.cpp:91] Creating Layer inception_3a/relu_3x3_reduce
I0403 18:09:17.404580  6629 net.cpp:425] inception_3a/relu_3x3_reduce <- inception_3a/3x3_reduce
I0403 18:09:17.404598  6629 net.cpp:386] inception_3a/relu_3x3_reduce -> inception_3a/3x3_reduce (in-place)
I0403 18:09:17.404786  6629 net.cpp:141] Setting up inception_3a/relu_3x3_reduce
I0403 18:09:17.404811  6629 net.cpp:148] Top shape: 24 96 28 28 (1806336)
I0403 18:09:17.404827  6629 net.cpp:156] Memory required for data: 515408928
I0403 18:09:17.404844  6629 layer_factory.hpp:77] Creating layer inception_3a/3x3
I0403 18:09:17.404867  6629 net.cpp:91] Creating Layer inception_3a/3x3
I0403 18:09:17.404886  6629 net.cpp:425] inception_3a/3x3 <- inception_3a/3x3_reduce
I0403 18:09:17.404907  6629 net.cpp:399] inception_3a/3x3 -> inception_3a/3x3
I0403 18:09:17.406622  6629 net.cpp:141] Setting up inception_3a/3x3
I0403 18:09:17.406652  6629 net.cpp:148] Top shape: 24 128 28 28 (2408448)
I0403 18:09:17.406671  6629 net.cpp:156] Memory required for data: 525042720
I0403 18:09:17.406690  6629 layer_factory.hpp:77] Creating layer inception_3a/relu_3x3
I0403 18:09:17.406710  6629 net.cpp:91] Creating Layer inception_3a/relu_3x3
I0403 18:09:17.406728  6629 net.cpp:425] inception_3a/relu_3x3 <- inception_3a/3x3
I0403 18:09:17.406747  6629 net.cpp:386] inception_3a/relu_3x3 -> inception_3a/3x3 (in-place)
I0403 18:09:17.407024  6629 net.cpp:141] Setting up inception_3a/relu_3x3
I0403 18:09:17.407052  6629 net.cpp:148] Top shape: 24 128 28 28 (2408448)
I0403 18:09:17.407068  6629 net.cpp:156] Memory required for data: 534676512
I0403 18:09:17.407084  6629 layer_factory.hpp:77] Creating layer inception_3a/5x5_reduce
I0403 18:09:17.407107  6629 net.cpp:91] Creating Layer inception_3a/5x5_reduce
I0403 18:09:17.407124  6629 net.cpp:425] inception_3a/5x5_reduce <- pool2/3x3_s2_pool2/3x3_s2_0_split_2
I0403 18:09:17.407146  6629 net.cpp:399] inception_3a/5x5_reduce -> inception_3a/5x5_reduce
I0403 18:09:17.408125  6629 net.cpp:141] Setting up inception_3a/5x5_reduce
I0403 18:09:17.408157  6629 net.cpp:148] Top shape: 24 16 28 28 (301056)
I0403 18:09:17.408175  6629 net.cpp:156] Memory required for data: 535880736
I0403 18:09:17.408195  6629 layer_factory.hpp:77] Creating layer inception_3a/relu_5x5_reduce
I0403 18:09:17.408220  6629 net.cpp:91] Creating Layer inception_3a/relu_5x5_reduce
I0403 18:09:17.408238  6629 net.cpp:425] inception_3a/relu_5x5_reduce <- inception_3a/5x5_reduce
I0403 18:09:17.408258  6629 net.cpp:386] inception_3a/relu_5x5_reduce -> inception_3a/5x5_reduce (in-place)
I0403 18:09:17.408551  6629 net.cpp:141] Setting up inception_3a/relu_5x5_reduce
I0403 18:09:17.408582  6629 net.cpp:148] Top shape: 24 16 28 28 (301056)
I0403 18:09:17.408601  6629 net.cpp:156] Memory required for data: 537084960
I0403 18:09:17.408617  6629 layer_factory.hpp:77] Creating layer inception_3a/5x5
I0403 18:09:17.408641  6629 net.cpp:91] Creating Layer inception_3a/5x5
I0403 18:09:17.408660  6629 net.cpp:425] inception_3a/5x5 <- inception_3a/5x5_reduce
I0403 18:09:17.408680  6629 net.cpp:399] inception_3a/5x5 -> inception_3a/5x5
I0403 18:09:17.409710  6629 net.cpp:141] Setting up inception_3a/5x5
I0403 18:09:17.409740  6629 net.cpp:148] Top shape: 24 32 28 28 (602112)
I0403 18:09:17.409757  6629 net.cpp:156] Memory required for data: 539493408
I0403 18:09:17.409778  6629 layer_factory.hpp:77] Creating layer inception_3a/relu_5x5
I0403 18:09:17.409801  6629 net.cpp:91] Creating Layer inception_3a/relu_5x5
I0403 18:09:17.409819  6629 net.cpp:425] inception_3a/relu_5x5 <- inception_3a/5x5
I0403 18:09:17.409837  6629 net.cpp:386] inception_3a/relu_5x5 -> inception_3a/5x5 (in-place)
I0403 18:09:17.410017  6629 net.cpp:141] Setting up inception_3a/relu_5x5
I0403 18:09:17.410044  6629 net.cpp:148] Top shape: 24 32 28 28 (602112)
I0403 18:09:17.410060  6629 net.cpp:156] Memory required for data: 541901856
I0403 18:09:17.410079  6629 layer_factory.hpp:77] Creating layer inception_3a/pool
I0403 18:09:17.410100  6629 net.cpp:91] Creating Layer inception_3a/pool
I0403 18:09:17.410133  6629 net.cpp:425] inception_3a/pool <- pool2/3x3_s2_pool2/3x3_s2_0_split_3
I0403 18:09:17.410156  6629 net.cpp:399] inception_3a/pool -> inception_3a/pool
I0403 18:09:17.410221  6629 net.cpp:141] Setting up inception_3a/pool
I0403 18:09:17.410246  6629 net.cpp:148] Top shape: 24 192 28 28 (3612672)
I0403 18:09:17.410262  6629 net.cpp:156] Memory required for data: 556352544
I0403 18:09:17.410276  6629 layer_factory.hpp:77] Creating layer inception_3a/pool_proj
I0403 18:09:17.410300  6629 net.cpp:91] Creating Layer inception_3a/pool_proj
I0403 18:09:17.410320  6629 net.cpp:425] inception_3a/pool_proj <- inception_3a/pool
I0403 18:09:17.410342  6629 net.cpp:399] inception_3a/pool_proj -> inception_3a/pool_proj
I0403 18:09:17.411336  6629 net.cpp:141] Setting up inception_3a/pool_proj
I0403 18:09:17.411365  6629 net.cpp:148] Top shape: 24 32 28 28 (602112)
I0403 18:09:17.411381  6629 net.cpp:156] Memory required for data: 558760992
I0403 18:09:17.411406  6629 layer_factory.hpp:77] Creating layer inception_3a/relu_pool_proj
I0403 18:09:17.411429  6629 net.cpp:91] Creating Layer inception_3a/relu_pool_proj
I0403 18:09:17.411447  6629 net.cpp:425] inception_3a/relu_pool_proj <- inception_3a/pool_proj
I0403 18:09:17.411464  6629 net.cpp:386] inception_3a/relu_pool_proj -> inception_3a/pool_proj (in-place)
I0403 18:09:17.411748  6629 net.cpp:141] Setting up inception_3a/relu_pool_proj
I0403 18:09:17.411777  6629 net.cpp:148] Top shape: 24 32 28 28 (602112)
I0403 18:09:17.411792  6629 net.cpp:156] Memory required for data: 561169440
I0403 18:09:17.411808  6629 layer_factory.hpp:77] Creating layer inception_3a/output
I0403 18:09:17.411828  6629 net.cpp:91] Creating Layer inception_3a/output
I0403 18:09:17.411845  6629 net.cpp:425] inception_3a/output <- inception_3a/1x1
I0403 18:09:17.411862  6629 net.cpp:425] inception_3a/output <- inception_3a/3x3
I0403 18:09:17.411878  6629 net.cpp:425] inception_3a/output <- inception_3a/5x5
I0403 18:09:17.411895  6629 net.cpp:425] inception_3a/output <- inception_3a/pool_proj
I0403 18:09:17.411912  6629 net.cpp:399] inception_3a/output -> inception_3a/output
I0403 18:09:17.411962  6629 net.cpp:141] Setting up inception_3a/output
I0403 18:09:17.411988  6629 net.cpp:148] Top shape: 24 256 28 28 (4816896)
I0403 18:09:17.412003  6629 net.cpp:156] Memory required for data: 580437024
I0403 18:09:17.412020  6629 layer_factory.hpp:77] Creating layer inception_3a/output_inception_3a/output_0_split
I0403 18:09:17.412039  6629 net.cpp:91] Creating Layer inception_3a/output_inception_3a/output_0_split
I0403 18:09:17.412055  6629 net.cpp:425] inception_3a/output_inception_3a/output_0_split <- inception_3a/output
I0403 18:09:17.412075  6629 net.cpp:399] inception_3a/output_inception_3a/output_0_split -> inception_3a/output_inception_3a/output_0_split_0
I0403 18:09:17.412096  6629 net.cpp:399] inception_3a/output_inception_3a/output_0_split -> inception_3a/output_inception_3a/output_0_split_1
I0403 18:09:17.412118  6629 net.cpp:399] inception_3a/output_inception_3a/output_0_split -> inception_3a/output_inception_3a/output_0_split_2
I0403 18:09:17.412143  6629 net.cpp:399] inception_3a/output_inception_3a/output_0_split -> inception_3a/output_inception_3a/output_0_split_3
I0403 18:09:17.412236  6629 net.cpp:141] Setting up inception_3a/output_inception_3a/output_0_split
I0403 18:09:17.412262  6629 net.cpp:148] Top shape: 24 256 28 28 (4816896)
I0403 18:09:17.412279  6629 net.cpp:148] Top shape: 24 256 28 28 (4816896)
I0403 18:09:17.412297  6629 net.cpp:148] Top shape: 24 256 28 28 (4816896)
I0403 18:09:17.412312  6629 net.cpp:148] Top shape: 24 256 28 28 (4816896)
I0403 18:09:17.412328  6629 net.cpp:156] Memory required for data: 657507360
I0403 18:09:17.412343  6629 layer_factory.hpp:77] Creating layer inception_3b/1x1
I0403 18:09:17.412366  6629 net.cpp:91] Creating Layer inception_3b/1x1
I0403 18:09:17.412385  6629 net.cpp:425] inception_3b/1x1 <- inception_3a/output_inception_3a/output_0_split_0
I0403 18:09:17.412406  6629 net.cpp:399] inception_3b/1x1 -> inception_3b/1x1
I0403 18:09:17.413571  6629 net.cpp:141] Setting up inception_3b/1x1
I0403 18:09:17.413614  6629 net.cpp:148] Top shape: 24 128 28 28 (2408448)
I0403 18:09:17.413630  6629 net.cpp:156] Memory required for data: 667141152
I0403 18:09:17.413650  6629 layer_factory.hpp:77] Creating layer inception_3b/relu_1x1
I0403 18:09:17.413667  6629 net.cpp:91] Creating Layer inception_3b/relu_1x1
I0403 18:09:17.413683  6629 net.cpp:425] inception_3b/relu_1x1 <- inception_3b/1x1
I0403 18:09:17.413703  6629 net.cpp:386] inception_3b/relu_1x1 -> inception_3b/1x1 (in-place)
I0403 18:09:17.413882  6629 net.cpp:141] Setting up inception_3b/relu_1x1
I0403 18:09:17.413908  6629 net.cpp:148] Top shape: 24 128 28 28 (2408448)
I0403 18:09:17.413923  6629 net.cpp:156] Memory required for data: 676774944
I0403 18:09:17.413938  6629 layer_factory.hpp:77] Creating layer inception_3b/3x3_reduce
I0403 18:09:17.413962  6629 net.cpp:91] Creating Layer inception_3b/3x3_reduce
I0403 18:09:17.413980  6629 net.cpp:425] inception_3b/3x3_reduce <- inception_3a/output_inception_3a/output_0_split_1
I0403 18:09:17.414002  6629 net.cpp:399] inception_3b/3x3_reduce -> inception_3b/3x3_reduce
I0403 18:09:17.415160  6629 net.cpp:141] Setting up inception_3b/3x3_reduce
I0403 18:09:17.415190  6629 net.cpp:148] Top shape: 24 128 28 28 (2408448)
I0403 18:09:17.415206  6629 net.cpp:156] Memory required for data: 686408736
I0403 18:09:17.415232  6629 layer_factory.hpp:77] Creating layer inception_3b/relu_3x3_reduce
I0403 18:09:17.415254  6629 net.cpp:91] Creating Layer inception_3b/relu_3x3_reduce
I0403 18:09:17.415272  6629 net.cpp:425] inception_3b/relu_3x3_reduce <- inception_3b/3x3_reduce
I0403 18:09:17.415289  6629 net.cpp:386] inception_3b/relu_3x3_reduce -> inception_3b/3x3_reduce (in-place)
I0403 18:09:17.415467  6629 net.cpp:141] Setting up inception_3b/relu_3x3_reduce
I0403 18:09:17.415493  6629 net.cpp:148] Top shape: 24 128 28 28 (2408448)
I0403 18:09:17.415509  6629 net.cpp:156] Memory required for data: 696042528
I0403 18:09:17.415525  6629 layer_factory.hpp:77] Creating layer inception_3b/3x3
I0403 18:09:17.415552  6629 net.cpp:91] Creating Layer inception_3b/3x3
I0403 18:09:17.415570  6629 net.cpp:425] inception_3b/3x3 <- inception_3b/3x3_reduce
I0403 18:09:17.415590  6629 net.cpp:399] inception_3b/3x3 -> inception_3b/3x3
I0403 18:09:17.418608  6629 net.cpp:141] Setting up inception_3b/3x3
I0403 18:09:17.418637  6629 net.cpp:148] Top shape: 24 192 28 28 (3612672)
I0403 18:09:17.418653  6629 net.cpp:156] Memory required for data: 710493216
I0403 18:09:17.418673  6629 layer_factory.hpp:77] Creating layer inception_3b/relu_3x3
I0403 18:09:17.418694  6629 net.cpp:91] Creating Layer inception_3b/relu_3x3
I0403 18:09:17.418711  6629 net.cpp:425] inception_3b/relu_3x3 <- inception_3b/3x3
I0403 18:09:17.418730  6629 net.cpp:386] inception_3b/relu_3x3 -> inception_3b/3x3 (in-place)
I0403 18:09:17.419008  6629 net.cpp:141] Setting up inception_3b/relu_3x3
I0403 18:09:17.419035  6629 net.cpp:148] Top shape: 24 192 28 28 (3612672)
I0403 18:09:17.419050  6629 net.cpp:156] Memory required for data: 724943904
I0403 18:09:17.419065  6629 layer_factory.hpp:77] Creating layer inception_3b/5x5_reduce
I0403 18:09:17.419088  6629 net.cpp:91] Creating Layer inception_3b/5x5_reduce
I0403 18:09:17.419106  6629 net.cpp:425] inception_3b/5x5_reduce <- inception_3a/output_inception_3a/output_0_split_2
I0403 18:09:17.419131  6629 net.cpp:399] inception_3b/5x5_reduce -> inception_3b/5x5_reduce
I0403 18:09:17.420145  6629 net.cpp:141] Setting up inception_3b/5x5_reduce
I0403 18:09:17.420173  6629 net.cpp:148] Top shape: 24 32 28 28 (602112)
I0403 18:09:17.420189  6629 net.cpp:156] Memory required for data: 727352352
I0403 18:09:17.420213  6629 layer_factory.hpp:77] Creating layer inception_3b/relu_5x5_reduce
I0403 18:09:17.420243  6629 net.cpp:91] Creating Layer inception_3b/relu_5x5_reduce
I0403 18:09:17.420263  6629 net.cpp:425] inception_3b/relu_5x5_reduce <- inception_3b/5x5_reduce
I0403 18:09:17.420282  6629 net.cpp:386] inception_3b/relu_5x5_reduce -> inception_3b/5x5_reduce (in-place)
I0403 18:09:17.420480  6629 net.cpp:141] Setting up inception_3b/relu_5x5_reduce
I0403 18:09:17.420508  6629 net.cpp:148] Top shape: 24 32 28 28 (602112)
I0403 18:09:17.420526  6629 net.cpp:156] Memory required for data: 729760800
I0403 18:09:17.420541  6629 layer_factory.hpp:77] Creating layer inception_3b/5x5
I0403 18:09:17.420564  6629 net.cpp:91] Creating Layer inception_3b/5x5
I0403 18:09:17.420583  6629 net.cpp:425] inception_3b/5x5 <- inception_3b/5x5_reduce
I0403 18:09:17.420603  6629 net.cpp:399] inception_3b/5x5 -> inception_3b/5x5
I0403 18:09:17.422693  6629 net.cpp:141] Setting up inception_3b/5x5
I0403 18:09:17.422724  6629 net.cpp:148] Top shape: 24 96 28 28 (1806336)
I0403 18:09:17.422740  6629 net.cpp:156] Memory required for data: 736986144
I0403 18:09:17.422760  6629 layer_factory.hpp:77] Creating layer inception_3b/relu_5x5
I0403 18:09:17.422780  6629 net.cpp:91] Creating Layer inception_3b/relu_5x5
I0403 18:09:17.422799  6629 net.cpp:425] inception_3b/relu_5x5 <- inception_3b/5x5
I0403 18:09:17.422818  6629 net.cpp:386] inception_3b/relu_5x5 -> inception_3b/5x5 (in-place)
I0403 18:09:17.423020  6629 net.cpp:141] Setting up inception_3b/relu_5x5
I0403 18:09:17.423048  6629 net.cpp:148] Top shape: 24 96 28 28 (1806336)
I0403 18:09:17.423063  6629 net.cpp:156] Memory required for data: 744211488
I0403 18:09:17.423077  6629 layer_factory.hpp:77] Creating layer inception_3b/pool
I0403 18:09:17.423095  6629 net.cpp:91] Creating Layer inception_3b/pool
I0403 18:09:17.423112  6629 net.cpp:425] inception_3b/pool <- inception_3a/output_inception_3a/output_0_split_3
I0403 18:09:17.423131  6629 net.cpp:399] inception_3b/pool -> inception_3b/pool
I0403 18:09:17.423192  6629 net.cpp:141] Setting up inception_3b/pool
I0403 18:09:17.423220  6629 net.cpp:148] Top shape: 24 256 28 28 (4816896)
I0403 18:09:17.423238  6629 net.cpp:156] Memory required for data: 763479072
I0403 18:09:17.423255  6629 layer_factory.hpp:77] Creating layer inception_3b/pool_proj
I0403 18:09:17.423280  6629 net.cpp:91] Creating Layer inception_3b/pool_proj
I0403 18:09:17.423297  6629 net.cpp:425] inception_3b/pool_proj <- inception_3b/pool
I0403 18:09:17.423319  6629 net.cpp:399] inception_3b/pool_proj -> inception_3b/pool_proj
I0403 18:09:17.424401  6629 net.cpp:141] Setting up inception_3b/pool_proj
I0403 18:09:17.424433  6629 net.cpp:148] Top shape: 24 64 28 28 (1204224)
I0403 18:09:17.424451  6629 net.cpp:156] Memory required for data: 768295968
I0403 18:09:17.424470  6629 layer_factory.hpp:77] Creating layer inception_3b/relu_pool_proj
I0403 18:09:17.424489  6629 net.cpp:91] Creating Layer inception_3b/relu_pool_proj
I0403 18:09:17.424507  6629 net.cpp:425] inception_3b/relu_pool_proj <- inception_3b/pool_proj
I0403 18:09:17.424528  6629 net.cpp:386] inception_3b/relu_pool_proj -> inception_3b/pool_proj (in-place)
I0403 18:09:17.424924  6629 net.cpp:141] Setting up inception_3b/relu_pool_proj
I0403 18:09:17.424953  6629 net.cpp:148] Top shape: 24 64 28 28 (1204224)
I0403 18:09:17.424970  6629 net.cpp:156] Memory required for data: 773112864
I0403 18:09:17.424986  6629 layer_factory.hpp:77] Creating layer inception_3b/output
I0403 18:09:17.425005  6629 net.cpp:91] Creating Layer inception_3b/output
I0403 18:09:17.425021  6629 net.cpp:425] inception_3b/output <- inception_3b/1x1
I0403 18:09:17.425040  6629 net.cpp:425] inception_3b/output <- inception_3b/3x3
I0403 18:09:17.425056  6629 net.cpp:425] inception_3b/output <- inception_3b/5x5
I0403 18:09:17.425072  6629 net.cpp:425] inception_3b/output <- inception_3b/pool_proj
I0403 18:09:17.425091  6629 net.cpp:399] inception_3b/output -> inception_3b/output
I0403 18:09:17.425137  6629 net.cpp:141] Setting up inception_3b/output
I0403 18:09:17.425160  6629 net.cpp:148] Top shape: 24 480 28 28 (9031680)
I0403 18:09:17.425174  6629 net.cpp:156] Memory required for data: 809239584
I0403 18:09:17.425189  6629 layer_factory.hpp:77] Creating layer pool3/3x3_s2
I0403 18:09:17.425215  6629 net.cpp:91] Creating Layer pool3/3x3_s2
I0403 18:09:17.425235  6629 net.cpp:425] pool3/3x3_s2 <- inception_3b/output
I0403 18:09:17.425271  6629 net.cpp:399] pool3/3x3_s2 -> pool3/3x3_s2
I0403 18:09:17.425333  6629 net.cpp:141] Setting up pool3/3x3_s2
I0403 18:09:17.425359  6629 net.cpp:148] Top shape: 24 480 14 14 (2257920)
I0403 18:09:17.425374  6629 net.cpp:156] Memory required for data: 818271264
I0403 18:09:17.425389  6629 layer_factory.hpp:77] Creating layer pool3/3x3_s2_pool3/3x3_s2_0_split
I0403 18:09:17.425407  6629 net.cpp:91] Creating Layer pool3/3x3_s2_pool3/3x3_s2_0_split
I0403 18:09:17.425423  6629 net.cpp:425] pool3/3x3_s2_pool3/3x3_s2_0_split <- pool3/3x3_s2
I0403 18:09:17.425447  6629 net.cpp:399] pool3/3x3_s2_pool3/3x3_s2_0_split -> pool3/3x3_s2_pool3/3x3_s2_0_split_0
I0403 18:09:17.425467  6629 net.cpp:399] pool3/3x3_s2_pool3/3x3_s2_0_split -> pool3/3x3_s2_pool3/3x3_s2_0_split_1
I0403 18:09:17.425489  6629 net.cpp:399] pool3/3x3_s2_pool3/3x3_s2_0_split -> pool3/3x3_s2_pool3/3x3_s2_0_split_2
I0403 18:09:17.425509  6629 net.cpp:399] pool3/3x3_s2_pool3/3x3_s2_0_split -> pool3/3x3_s2_pool3/3x3_s2_0_split_3
I0403 18:09:17.425587  6629 net.cpp:141] Setting up pool3/3x3_s2_pool3/3x3_s2_0_split
I0403 18:09:17.425621  6629 net.cpp:148] Top shape: 24 480 14 14 (2257920)
I0403 18:09:17.425639  6629 net.cpp:148] Top shape: 24 480 14 14 (2257920)
I0403 18:09:17.425657  6629 net.cpp:148] Top shape: 24 480 14 14 (2257920)
I0403 18:09:17.425673  6629 net.cpp:148] Top shape: 24 480 14 14 (2257920)
I0403 18:09:17.425688  6629 net.cpp:156] Memory required for data: 854397984
I0403 18:09:17.425704  6629 layer_factory.hpp:77] Creating layer inception_4a/1x1
I0403 18:09:17.425726  6629 net.cpp:91] Creating Layer inception_4a/1x1
I0403 18:09:17.425745  6629 net.cpp:425] inception_4a/1x1 <- pool3/3x3_s2_pool3/3x3_s2_0_split_0
I0403 18:09:17.425763  6629 net.cpp:399] inception_4a/1x1 -> inception_4a/1x1
I0403 18:09:17.427374  6629 net.cpp:141] Setting up inception_4a/1x1
I0403 18:09:17.427407  6629 net.cpp:148] Top shape: 24 192 14 14 (903168)
I0403 18:09:17.427424  6629 net.cpp:156] Memory required for data: 858010656
I0403 18:09:17.427446  6629 layer_factory.hpp:77] Creating layer inception_4a/relu_1x1
I0403 18:09:17.427465  6629 net.cpp:91] Creating Layer inception_4a/relu_1x1
I0403 18:09:17.427481  6629 net.cpp:425] inception_4a/relu_1x1 <- inception_4a/1x1
I0403 18:09:17.427502  6629 net.cpp:386] inception_4a/relu_1x1 -> inception_4a/1x1 (in-place)
I0403 18:09:17.427685  6629 net.cpp:141] Setting up inception_4a/relu_1x1
I0403 18:09:17.427711  6629 net.cpp:148] Top shape: 24 192 14 14 (903168)
I0403 18:09:17.427726  6629 net.cpp:156] Memory required for data: 861623328
I0403 18:09:17.427742  6629 layer_factory.hpp:77] Creating layer inception_4a/3x3_reduce
I0403 18:09:17.427765  6629 net.cpp:91] Creating Layer inception_4a/3x3_reduce
I0403 18:09:17.427783  6629 net.cpp:425] inception_4a/3x3_reduce <- pool3/3x3_s2_pool3/3x3_s2_0_split_1
I0403 18:09:17.427806  6629 net.cpp:399] inception_4a/3x3_reduce -> inception_4a/3x3_reduce
I0403 18:09:17.429128  6629 net.cpp:141] Setting up inception_4a/3x3_reduce
I0403 18:09:17.429157  6629 net.cpp:148] Top shape: 24 96 14 14 (451584)
I0403 18:09:17.429173  6629 net.cpp:156] Memory required for data: 863429664
I0403 18:09:17.429196  6629 layer_factory.hpp:77] Creating layer inception_4a/relu_3x3_reduce
I0403 18:09:17.429222  6629 net.cpp:91] Creating Layer inception_4a/relu_3x3_reduce
I0403 18:09:17.429242  6629 net.cpp:425] inception_4a/relu_3x3_reduce <- inception_4a/3x3_reduce
I0403 18:09:17.429260  6629 net.cpp:386] inception_4a/relu_3x3_reduce -> inception_4a/3x3_reduce (in-place)
I0403 18:09:17.429437  6629 net.cpp:141] Setting up inception_4a/relu_3x3_reduce
I0403 18:09:17.429462  6629 net.cpp:148] Top shape: 24 96 14 14 (451584)
I0403 18:09:17.429477  6629 net.cpp:156] Memory required for data: 865236000
I0403 18:09:17.429492  6629 layer_factory.hpp:77] Creating layer inception_4a/3x3
I0403 18:09:17.429515  6629 net.cpp:91] Creating Layer inception_4a/3x3
I0403 18:09:17.429533  6629 net.cpp:425] inception_4a/3x3 <- inception_4a/3x3_reduce
I0403 18:09:17.429556  6629 net.cpp:399] inception_4a/3x3 -> inception_4a/3x3
I0403 18:09:17.432324  6629 net.cpp:141] Setting up inception_4a/3x3
I0403 18:09:17.432353  6629 net.cpp:148] Top shape: 24 208 14 14 (978432)
I0403 18:09:17.432368  6629 net.cpp:156] Memory required for data: 869149728
I0403 18:09:17.432385  6629 layer_factory.hpp:77] Creating layer inception_4a/relu_3x3
I0403 18:09:17.432405  6629 net.cpp:91] Creating Layer inception_4a/relu_3x3
I0403 18:09:17.432421  6629 net.cpp:425] inception_4a/relu_3x3 <- inception_4a/3x3
I0403 18:09:17.432440  6629 net.cpp:386] inception_4a/relu_3x3 -> inception_4a/3x3 (in-place)
I0403 18:09:17.432708  6629 net.cpp:141] Setting up inception_4a/relu_3x3
I0403 18:09:17.432734  6629 net.cpp:148] Top shape: 24 208 14 14 (978432)
I0403 18:09:17.432749  6629 net.cpp:156] Memory required for data: 873063456
I0403 18:09:17.432762  6629 layer_factory.hpp:77] Creating layer inception_4a/5x5_reduce
I0403 18:09:17.432786  6629 net.cpp:91] Creating Layer inception_4a/5x5_reduce
I0403 18:09:17.432803  6629 net.cpp:425] inception_4a/5x5_reduce <- pool3/3x3_s2_pool3/3x3_s2_0_split_2
I0403 18:09:17.432826  6629 net.cpp:399] inception_4a/5x5_reduce -> inception_4a/5x5_reduce
I0403 18:09:17.433810  6629 net.cpp:141] Setting up inception_4a/5x5_reduce
I0403 18:09:17.433836  6629 net.cpp:148] Top shape: 24 16 14 14 (75264)
I0403 18:09:17.433851  6629 net.cpp:156] Memory required for data: 873364512
I0403 18:09:17.433871  6629 layer_factory.hpp:77] Creating layer inception_4a/relu_5x5_reduce
I0403 18:09:17.433892  6629 net.cpp:91] Creating Layer inception_4a/relu_5x5_reduce
I0403 18:09:17.433908  6629 net.cpp:425] inception_4a/relu_5x5_reduce <- inception_4a/5x5_reduce
I0403 18:09:17.433926  6629 net.cpp:386] inception_4a/relu_5x5_reduce -> inception_4a/5x5_reduce (in-place)
I0403 18:09:17.434097  6629 net.cpp:141] Setting up inception_4a/relu_5x5_reduce
I0403 18:09:17.434120  6629 net.cpp:148] Top shape: 24 16 14 14 (75264)
I0403 18:09:17.434135  6629 net.cpp:156] Memory required for data: 873665568
I0403 18:09:17.434151  6629 layer_factory.hpp:77] Creating layer inception_4a/5x5
I0403 18:09:17.434178  6629 net.cpp:91] Creating Layer inception_4a/5x5
I0403 18:09:17.434196  6629 net.cpp:425] inception_4a/5x5 <- inception_4a/5x5_reduce
I0403 18:09:17.434219  6629 net.cpp:399] inception_4a/5x5 -> inception_4a/5x5
I0403 18:09:17.435266  6629 net.cpp:141] Setting up inception_4a/5x5
I0403 18:09:17.435297  6629 net.cpp:148] Top shape: 24 48 14 14 (225792)
I0403 18:09:17.435312  6629 net.cpp:156] Memory required for data: 874568736
I0403 18:09:17.435330  6629 layer_factory.hpp:77] Creating layer inception_4a/relu_5x5
I0403 18:09:17.435349  6629 net.cpp:91] Creating Layer inception_4a/relu_5x5
I0403 18:09:17.435365  6629 net.cpp:425] inception_4a/relu_5x5 <- inception_4a/5x5
I0403 18:09:17.435382  6629 net.cpp:386] inception_4a/relu_5x5 -> inception_4a/5x5 (in-place)
I0403 18:09:17.435555  6629 net.cpp:141] Setting up inception_4a/relu_5x5
I0403 18:09:17.435580  6629 net.cpp:148] Top shape: 24 48 14 14 (225792)
I0403 18:09:17.435595  6629 net.cpp:156] Memory required for data: 875471904
I0403 18:09:17.435609  6629 layer_factory.hpp:77] Creating layer inception_4a/pool
I0403 18:09:17.435628  6629 net.cpp:91] Creating Layer inception_4a/pool
I0403 18:09:17.435643  6629 net.cpp:425] inception_4a/pool <- pool3/3x3_s2_pool3/3x3_s2_0_split_3
I0403 18:09:17.435662  6629 net.cpp:399] inception_4a/pool -> inception_4a/pool
I0403 18:09:17.435721  6629 net.cpp:141] Setting up inception_4a/pool
I0403 18:09:17.435746  6629 net.cpp:148] Top shape: 24 480 14 14 (2257920)
I0403 18:09:17.435761  6629 net.cpp:156] Memory required for data: 884503584
I0403 18:09:17.435777  6629 layer_factory.hpp:77] Creating layer inception_4a/pool_proj
I0403 18:09:17.435799  6629 net.cpp:91] Creating Layer inception_4a/pool_proj
I0403 18:09:17.435817  6629 net.cpp:425] inception_4a/pool_proj <- inception_4a/pool
I0403 18:09:17.435834  6629 net.cpp:399] inception_4a/pool_proj -> inception_4a/pool_proj
I0403 18:09:17.436977  6629 net.cpp:141] Setting up inception_4a/pool_proj
I0403 18:09:17.437013  6629 net.cpp:148] Top shape: 24 64 14 14 (301056)
I0403 18:09:17.437047  6629 net.cpp:156] Memory required for data: 885707808
I0403 18:09:17.437067  6629 layer_factory.hpp:77] Creating layer inception_4a/relu_pool_proj
I0403 18:09:17.437083  6629 net.cpp:91] Creating Layer inception_4a/relu_pool_proj
I0403 18:09:17.437099  6629 net.cpp:425] inception_4a/relu_pool_proj <- inception_4a/pool_proj
I0403 18:09:17.437119  6629 net.cpp:386] inception_4a/relu_pool_proj -> inception_4a/pool_proj (in-place)
I0403 18:09:17.437404  6629 net.cpp:141] Setting up inception_4a/relu_pool_proj
I0403 18:09:17.437433  6629 net.cpp:148] Top shape: 24 64 14 14 (301056)
I0403 18:09:17.437448  6629 net.cpp:156] Memory required for data: 886912032
I0403 18:09:17.437464  6629 layer_factory.hpp:77] Creating layer inception_4a/output
I0403 18:09:17.437481  6629 net.cpp:91] Creating Layer inception_4a/output
I0403 18:09:17.437497  6629 net.cpp:425] inception_4a/output <- inception_4a/1x1
I0403 18:09:17.437515  6629 net.cpp:425] inception_4a/output <- inception_4a/3x3
I0403 18:09:17.437530  6629 net.cpp:425] inception_4a/output <- inception_4a/5x5
I0403 18:09:17.437547  6629 net.cpp:425] inception_4a/output <- inception_4a/pool_proj
I0403 18:09:17.437563  6629 net.cpp:399] inception_4a/output -> inception_4a/output
I0403 18:09:17.437615  6629 net.cpp:141] Setting up inception_4a/output
I0403 18:09:17.437640  6629 net.cpp:148] Top shape: 24 512 14 14 (2408448)
I0403 18:09:17.437655  6629 net.cpp:156] Memory required for data: 896545824
I0403 18:09:17.437670  6629 layer_factory.hpp:77] Creating layer inception_4a/output_inception_4a/output_0_split
I0403 18:09:17.437690  6629 net.cpp:91] Creating Layer inception_4a/output_inception_4a/output_0_split
I0403 18:09:17.437706  6629 net.cpp:425] inception_4a/output_inception_4a/output_0_split <- inception_4a/output
I0403 18:09:17.437724  6629 net.cpp:399] inception_4a/output_inception_4a/output_0_split -> inception_4a/output_inception_4a/output_0_split_0
I0403 18:09:17.437744  6629 net.cpp:399] inception_4a/output_inception_4a/output_0_split -> inception_4a/output_inception_4a/output_0_split_1
I0403 18:09:17.437765  6629 net.cpp:399] inception_4a/output_inception_4a/output_0_split -> inception_4a/output_inception_4a/output_0_split_2
I0403 18:09:17.437789  6629 net.cpp:399] inception_4a/output_inception_4a/output_0_split -> inception_4a/output_inception_4a/output_0_split_3
I0403 18:09:17.437813  6629 net.cpp:399] inception_4a/output_inception_4a/output_0_split -> inception_4a/output_inception_4a/output_0_split_4
I0403 18:09:17.437904  6629 net.cpp:141] Setting up inception_4a/output_inception_4a/output_0_split
I0403 18:09:17.437927  6629 net.cpp:148] Top shape: 24 512 14 14 (2408448)
I0403 18:09:17.437945  6629 net.cpp:148] Top shape: 24 512 14 14 (2408448)
I0403 18:09:17.437961  6629 net.cpp:148] Top shape: 24 512 14 14 (2408448)
I0403 18:09:17.437978  6629 net.cpp:148] Top shape: 24 512 14 14 (2408448)
I0403 18:09:17.437994  6629 net.cpp:148] Top shape: 24 512 14 14 (2408448)
I0403 18:09:17.438009  6629 net.cpp:156] Memory required for data: 944714784
I0403 18:09:17.438025  6629 layer_factory.hpp:77] Creating layer loss1/ave_pool
I0403 18:09:17.438045  6629 net.cpp:91] Creating Layer loss1/ave_pool
I0403 18:09:17.438062  6629 net.cpp:425] loss1/ave_pool <- inception_4a/output_inception_4a/output_0_split_0
I0403 18:09:17.438081  6629 net.cpp:399] loss1/ave_pool -> loss1/ave_pool
I0403 18:09:17.438292  6629 net.cpp:141] Setting up loss1/ave_pool
I0403 18:09:17.438318  6629 net.cpp:148] Top shape: 24 512 4 4 (196608)
I0403 18:09:17.438345  6629 net.cpp:156] Memory required for data: 945501216
I0403 18:09:17.438360  6629 layer_factory.hpp:77] Creating layer loss1/conv
I0403 18:09:17.438381  6629 net.cpp:91] Creating Layer loss1/conv
I0403 18:09:17.438400  6629 net.cpp:425] loss1/conv <- loss1/ave_pool
I0403 18:09:17.438419  6629 net.cpp:399] loss1/conv -> loss1/conv
I0403 18:09:17.439788  6629 net.cpp:141] Setting up loss1/conv
I0403 18:09:17.439817  6629 net.cpp:148] Top shape: 24 128 4 4 (49152)
I0403 18:09:17.439846  6629 net.cpp:156] Memory required for data: 945697824
I0403 18:09:17.439867  6629 layer_factory.hpp:77] Creating layer loss1/relu_conv
I0403 18:09:17.439887  6629 net.cpp:91] Creating Layer loss1/relu_conv
I0403 18:09:17.439903  6629 net.cpp:425] loss1/relu_conv <- loss1/conv
I0403 18:09:17.439920  6629 net.cpp:386] loss1/relu_conv -> loss1/conv (in-place)
I0403 18:09:17.440194  6629 net.cpp:141] Setting up loss1/relu_conv
I0403 18:09:17.440224  6629 net.cpp:148] Top shape: 24 128 4 4 (49152)
I0403 18:09:17.440240  6629 net.cpp:156] Memory required for data: 945894432
I0403 18:09:17.440254  6629 layer_factory.hpp:77] Creating layer loss1/fc
I0403 18:09:17.440280  6629 net.cpp:91] Creating Layer loss1/fc
I0403 18:09:17.440299  6629 net.cpp:425] loss1/fc <- loss1/conv
I0403 18:09:17.440317  6629 net.cpp:399] loss1/fc -> loss1/fc
I0403 18:09:17.457950  6629 net.cpp:141] Setting up loss1/fc
I0403 18:09:17.457986  6629 net.cpp:148] Top shape: 24 1024 (24576)
I0403 18:09:17.458003  6629 net.cpp:156] Memory required for data: 945992736
I0403 18:09:17.458020  6629 layer_factory.hpp:77] Creating layer loss1/relu_fc
I0403 18:09:17.458039  6629 net.cpp:91] Creating Layer loss1/relu_fc
I0403 18:09:17.458055  6629 net.cpp:425] loss1/relu_fc <- loss1/fc
I0403 18:09:17.458076  6629 net.cpp:386] loss1/relu_fc -> loss1/fc (in-place)
I0403 18:09:17.458262  6629 net.cpp:141] Setting up loss1/relu_fc
I0403 18:09:17.458288  6629 net.cpp:148] Top shape: 24 1024 (24576)
I0403 18:09:17.458302  6629 net.cpp:156] Memory required for data: 946091040
I0403 18:09:17.458318  6629 layer_factory.hpp:77] Creating layer loss1/drop_fc
I0403 18:09:17.458344  6629 net.cpp:91] Creating Layer loss1/drop_fc
I0403 18:09:17.458364  6629 net.cpp:425] loss1/drop_fc <- loss1/fc
I0403 18:09:17.458381  6629 net.cpp:386] loss1/drop_fc -> loss1/fc (in-place)
I0403 18:09:17.458431  6629 net.cpp:141] Setting up loss1/drop_fc
I0403 18:09:17.458453  6629 net.cpp:148] Top shape: 24 1024 (24576)
I0403 18:09:17.458467  6629 net.cpp:156] Memory required for data: 946189344
I0403 18:09:17.458483  6629 layer_factory.hpp:77] Creating layer loss1/classifier_plantvillage
I0403 18:09:17.458505  6629 net.cpp:91] Creating Layer loss1/classifier_plantvillage
I0403 18:09:17.458523  6629 net.cpp:425] loss1/classifier_plantvillage <- loss1/fc
I0403 18:09:17.458542  6629 net.cpp:399] loss1/classifier_plantvillage -> loss1/classifier_plantvillage
I0403 18:09:17.459487  6629 net.cpp:141] Setting up loss1/classifier_plantvillage
I0403 18:09:17.459517  6629 net.cpp:148] Top shape: 24 38 (912)
I0403 18:09:17.459532  6629 net.cpp:156] Memory required for data: 946192992
I0403 18:09:17.459550  6629 layer_factory.hpp:77] Creating layer loss1/classifier_plantvillage_loss1/classifier_plantvillage_0_split
I0403 18:09:17.459568  6629 net.cpp:91] Creating Layer loss1/classifier_plantvillage_loss1/classifier_plantvillage_0_split
I0403 18:09:17.459584  6629 net.cpp:425] loss1/classifier_plantvillage_loss1/classifier_plantvillage_0_split <- loss1/classifier_plantvillage
I0403 18:09:17.459604  6629 net.cpp:399] loss1/classifier_plantvillage_loss1/classifier_plantvillage_0_split -> loss1/classifier_plantvillage_loss1/classifier_plantvillage_0_split_0
I0403 18:09:17.459625  6629 net.cpp:399] loss1/classifier_plantvillage_loss1/classifier_plantvillage_0_split -> loss1/classifier_plantvillage_loss1/classifier_plantvillage_0_split_1
I0403 18:09:17.459647  6629 net.cpp:399] loss1/classifier_plantvillage_loss1/classifier_plantvillage_0_split -> loss1/classifier_plantvillage_loss1/classifier_plantvillage_0_split_2
I0403 18:09:17.459712  6629 net.cpp:141] Setting up loss1/classifier_plantvillage_loss1/classifier_plantvillage_0_split
I0403 18:09:17.459741  6629 net.cpp:148] Top shape: 24 38 (912)
I0403 18:09:17.459759  6629 net.cpp:148] Top shape: 24 38 (912)
I0403 18:09:17.459775  6629 net.cpp:148] Top shape: 24 38 (912)
I0403 18:09:17.459789  6629 net.cpp:156] Memory required for data: 946203936
I0403 18:09:17.459803  6629 layer_factory.hpp:77] Creating layer inception_4b/1x1
I0403 18:09:17.459825  6629 net.cpp:91] Creating Layer inception_4b/1x1
I0403 18:09:17.459857  6629 net.cpp:425] inception_4b/1x1 <- inception_4a/output_inception_4a/output_0_split_1
I0403 18:09:17.459877  6629 net.cpp:399] inception_4b/1x1 -> inception_4b/1x1
I0403 18:09:17.461511  6629 net.cpp:141] Setting up inception_4b/1x1
I0403 18:09:17.461540  6629 net.cpp:148] Top shape: 24 160 14 14 (752640)
I0403 18:09:17.461556  6629 net.cpp:156] Memory required for data: 949214496
I0403 18:09:17.461576  6629 layer_factory.hpp:77] Creating layer inception_4b/relu_1x1
I0403 18:09:17.461597  6629 net.cpp:91] Creating Layer inception_4b/relu_1x1
I0403 18:09:17.461614  6629 net.cpp:425] inception_4b/relu_1x1 <- inception_4b/1x1
I0403 18:09:17.461632  6629 net.cpp:386] inception_4b/relu_1x1 -> inception_4b/1x1 (in-place)
I0403 18:09:17.461814  6629 net.cpp:141] Setting up inception_4b/relu_1x1
I0403 18:09:17.461840  6629 net.cpp:148] Top shape: 24 160 14 14 (752640)
I0403 18:09:17.461858  6629 net.cpp:156] Memory required for data: 952225056
I0403 18:09:17.461872  6629 layer_factory.hpp:77] Creating layer inception_4b/3x3_reduce
I0403 18:09:17.461897  6629 net.cpp:91] Creating Layer inception_4b/3x3_reduce
I0403 18:09:17.461915  6629 net.cpp:425] inception_4b/3x3_reduce <- inception_4a/output_inception_4a/output_0_split_2
I0403 18:09:17.461935  6629 net.cpp:399] inception_4b/3x3_reduce -> inception_4b/3x3_reduce
I0403 18:09:17.463294  6629 net.cpp:141] Setting up inception_4b/3x3_reduce
I0403 18:09:17.463322  6629 net.cpp:148] Top shape: 24 112 14 14 (526848)
I0403 18:09:17.463338  6629 net.cpp:156] Memory required for data: 954332448
I0403 18:09:17.463357  6629 layer_factory.hpp:77] Creating layer inception_4b/relu_3x3_reduce
I0403 18:09:17.463379  6629 net.cpp:91] Creating Layer inception_4b/relu_3x3_reduce
I0403 18:09:17.463397  6629 net.cpp:425] inception_4b/relu_3x3_reduce <- inception_4b/3x3_reduce
I0403 18:09:17.463413  6629 net.cpp:386] inception_4b/relu_3x3_reduce -> inception_4b/3x3_reduce (in-place)
I0403 18:09:17.463695  6629 net.cpp:141] Setting up inception_4b/relu_3x3_reduce
I0403 18:09:17.463721  6629 net.cpp:148] Top shape: 24 112 14 14 (526848)
I0403 18:09:17.463737  6629 net.cpp:156] Memory required for data: 956439840
I0403 18:09:17.463752  6629 layer_factory.hpp:77] Creating layer inception_4b/3x3
I0403 18:09:17.463776  6629 net.cpp:91] Creating Layer inception_4b/3x3
I0403 18:09:17.463793  6629 net.cpp:425] inception_4b/3x3 <- inception_4b/3x3_reduce
I0403 18:09:17.463812  6629 net.cpp:399] inception_4b/3x3 -> inception_4b/3x3
I0403 18:09:17.466827  6629 net.cpp:141] Setting up inception_4b/3x3
I0403 18:09:17.466861  6629 net.cpp:148] Top shape: 24 224 14 14 (1053696)
I0403 18:09:17.466876  6629 net.cpp:156] Memory required for data: 960654624
I0403 18:09:17.466895  6629 layer_factory.hpp:77] Creating layer inception_4b/relu_3x3
I0403 18:09:17.466913  6629 net.cpp:91] Creating Layer inception_4b/relu_3x3
I0403 18:09:17.466929  6629 net.cpp:425] inception_4b/relu_3x3 <- inception_4b/3x3
I0403 18:09:17.466951  6629 net.cpp:386] inception_4b/relu_3x3 -> inception_4b/3x3 (in-place)
I0403 18:09:17.467133  6629 net.cpp:141] Setting up inception_4b/relu_3x3
I0403 18:09:17.467157  6629 net.cpp:148] Top shape: 24 224 14 14 (1053696)
I0403 18:09:17.467171  6629 net.cpp:156] Memory required for data: 964869408
I0403 18:09:17.467186  6629 layer_factory.hpp:77] Creating layer inception_4b/5x5_reduce
I0403 18:09:17.467214  6629 net.cpp:91] Creating Layer inception_4b/5x5_reduce
I0403 18:09:17.467234  6629 net.cpp:425] inception_4b/5x5_reduce <- inception_4a/output_inception_4a/output_0_split_3
I0403 18:09:17.467258  6629 net.cpp:399] inception_4b/5x5_reduce -> inception_4b/5x5_reduce
I0403 18:09:17.468343  6629 net.cpp:141] Setting up inception_4b/5x5_reduce
I0403 18:09:17.468370  6629 net.cpp:148] Top shape: 24 24 14 14 (112896)
I0403 18:09:17.468386  6629 net.cpp:156] Memory required for data: 965320992
I0403 18:09:17.468405  6629 layer_factory.hpp:77] Creating layer inception_4b/relu_5x5_reduce
I0403 18:09:17.468427  6629 net.cpp:91] Creating Layer inception_4b/relu_5x5_reduce
I0403 18:09:17.468457  6629 net.cpp:425] inception_4b/relu_5x5_reduce <- inception_4b/5x5_reduce
I0403 18:09:17.468478  6629 net.cpp:386] inception_4b/relu_5x5_reduce -> inception_4b/5x5_reduce (in-place)
I0403 18:09:17.468662  6629 net.cpp:141] Setting up inception_4b/relu_5x5_reduce
I0403 18:09:17.468696  6629 net.cpp:148] Top shape: 24 24 14 14 (112896)
I0403 18:09:17.468713  6629 net.cpp:156] Memory required for data: 965772576
I0403 18:09:17.468729  6629 layer_factory.hpp:77] Creating layer inception_4b/5x5
I0403 18:09:17.468751  6629 net.cpp:91] Creating Layer inception_4b/5x5
I0403 18:09:17.468770  6629 net.cpp:425] inception_4b/5x5 <- inception_4b/5x5_reduce
I0403 18:09:17.468791  6629 net.cpp:399] inception_4b/5x5 -> inception_4b/5x5
I0403 18:09:17.470013  6629 net.cpp:141] Setting up inception_4b/5x5
I0403 18:09:17.470041  6629 net.cpp:148] Top shape: 24 64 14 14 (301056)
I0403 18:09:17.470057  6629 net.cpp:156] Memory required for data: 966976800
I0403 18:09:17.470075  6629 layer_factory.hpp:77] Creating layer inception_4b/relu_5x5
I0403 18:09:17.470098  6629 net.cpp:91] Creating Layer inception_4b/relu_5x5
I0403 18:09:17.470115  6629 net.cpp:425] inception_4b/relu_5x5 <- inception_4b/5x5
I0403 18:09:17.470132  6629 net.cpp:386] inception_4b/relu_5x5 -> inception_4b/5x5 (in-place)
I0403 18:09:17.470428  6629 net.cpp:141] Setting up inception_4b/relu_5x5
I0403 18:09:17.470455  6629 net.cpp:148] Top shape: 24 64 14 14 (301056)
I0403 18:09:17.470471  6629 net.cpp:156] Memory required for data: 968181024
I0403 18:09:17.470486  6629 layer_factory.hpp:77] Creating layer inception_4b/pool
I0403 18:09:17.470509  6629 net.cpp:91] Creating Layer inception_4b/pool
I0403 18:09:17.470525  6629 net.cpp:425] inception_4b/pool <- inception_4a/output_inception_4a/output_0_split_4
I0403 18:09:17.470544  6629 net.cpp:399] inception_4b/pool -> inception_4b/pool
I0403 18:09:17.470608  6629 net.cpp:141] Setting up inception_4b/pool
I0403 18:09:17.470631  6629 net.cpp:148] Top shape: 24 512 14 14 (2408448)
I0403 18:09:17.470645  6629 net.cpp:156] Memory required for data: 977814816
I0403 18:09:17.470661  6629 layer_factory.hpp:77] Creating layer inception_4b/pool_proj
I0403 18:09:17.470684  6629 net.cpp:91] Creating Layer inception_4b/pool_proj
I0403 18:09:17.470700  6629 net.cpp:425] inception_4b/pool_proj <- inception_4b/pool
I0403 18:09:17.470723  6629 net.cpp:399] inception_4b/pool_proj -> inception_4b/pool_proj
I0403 18:09:17.471930  6629 net.cpp:141] Setting up inception_4b/pool_proj
I0403 18:09:17.471959  6629 net.cpp:148] Top shape: 24 64 14 14 (301056)
I0403 18:09:17.471976  6629 net.cpp:156] Memory required for data: 979019040
I0403 18:09:17.471994  6629 layer_factory.hpp:77] Creating layer inception_4b/relu_pool_proj
I0403 18:09:17.472015  6629 net.cpp:91] Creating Layer inception_4b/relu_pool_proj
I0403 18:09:17.472033  6629 net.cpp:425] inception_4b/relu_pool_proj <- inception_4b/pool_proj
I0403 18:09:17.472049  6629 net.cpp:386] inception_4b/relu_pool_proj -> inception_4b/pool_proj (in-place)
I0403 18:09:17.472244  6629 net.cpp:141] Setting up inception_4b/relu_pool_proj
I0403 18:09:17.472271  6629 net.cpp:148] Top shape: 24 64 14 14 (301056)
I0403 18:09:17.472287  6629 net.cpp:156] Memory required for data: 980223264
I0403 18:09:17.472302  6629 layer_factory.hpp:77] Creating layer inception_4b/output
I0403 18:09:17.472319  6629 net.cpp:91] Creating Layer inception_4b/output
I0403 18:09:17.472335  6629 net.cpp:425] inception_4b/output <- inception_4b/1x1
I0403 18:09:17.472352  6629 net.cpp:425] inception_4b/output <- inception_4b/3x3
I0403 18:09:17.472368  6629 net.cpp:425] inception_4b/output <- inception_4b/5x5
I0403 18:09:17.472383  6629 net.cpp:425] inception_4b/output <- inception_4b/pool_proj
I0403 18:09:17.472400  6629 net.cpp:399] inception_4b/output -> inception_4b/output
I0403 18:09:17.472452  6629 net.cpp:141] Setting up inception_4b/output
I0403 18:09:17.472476  6629 net.cpp:148] Top shape: 24 512 14 14 (2408448)
I0403 18:09:17.472496  6629 net.cpp:156] Memory required for data: 989857056
I0403 18:09:17.472525  6629 layer_factory.hpp:77] Creating layer inception_4b/output_inception_4b/output_0_split
I0403 18:09:17.472544  6629 net.cpp:91] Creating Layer inception_4b/output_inception_4b/output_0_split
I0403 18:09:17.472559  6629 net.cpp:425] inception_4b/output_inception_4b/output_0_split <- inception_4b/output
I0403 18:09:17.472579  6629 net.cpp:399] inception_4b/output_inception_4b/output_0_split -> inception_4b/output_inception_4b/output_0_split_0
I0403 18:09:17.472601  6629 net.cpp:399] inception_4b/output_inception_4b/output_0_split -> inception_4b/output_inception_4b/output_0_split_1
I0403 18:09:17.472621  6629 net.cpp:399] inception_4b/output_inception_4b/output_0_split -> inception_4b/output_inception_4b/output_0_split_2
I0403 18:09:17.472650  6629 net.cpp:399] inception_4b/output_inception_4b/output_0_split -> inception_4b/output_inception_4b/output_0_split_3
I0403 18:09:17.472735  6629 net.cpp:141] Setting up inception_4b/output_inception_4b/output_0_split
I0403 18:09:17.472759  6629 net.cpp:148] Top shape: 24 512 14 14 (2408448)
I0403 18:09:17.472775  6629 net.cpp:148] Top shape: 24 512 14 14 (2408448)
I0403 18:09:17.472791  6629 net.cpp:148] Top shape: 24 512 14 14 (2408448)
I0403 18:09:17.472807  6629 net.cpp:148] Top shape: 24 512 14 14 (2408448)
I0403 18:09:17.472820  6629 net.cpp:156] Memory required for data: 1028392224
I0403 18:09:17.472836  6629 layer_factory.hpp:77] Creating layer inception_4c/1x1
I0403 18:09:17.472859  6629 net.cpp:91] Creating Layer inception_4c/1x1
I0403 18:09:17.472877  6629 net.cpp:425] inception_4c/1x1 <- inception_4b/output_inception_4b/output_0_split_0
I0403 18:09:17.472899  6629 net.cpp:399] inception_4c/1x1 -> inception_4c/1x1
I0403 18:09:17.474479  6629 net.cpp:141] Setting up inception_4c/1x1
I0403 18:09:17.474512  6629 net.cpp:148] Top shape: 24 128 14 14 (602112)
I0403 18:09:17.474530  6629 net.cpp:156] Memory required for data: 1030800672
I0403 18:09:17.474550  6629 layer_factory.hpp:77] Creating layer inception_4c/relu_1x1
I0403 18:09:17.474567  6629 net.cpp:91] Creating Layer inception_4c/relu_1x1
I0403 18:09:17.474584  6629 net.cpp:425] inception_4c/relu_1x1 <- inception_4c/1x1
I0403 18:09:17.474604  6629 net.cpp:386] inception_4c/relu_1x1 -> inception_4c/1x1 (in-place)
I0403 18:09:17.474788  6629 net.cpp:141] Setting up inception_4c/relu_1x1
I0403 18:09:17.474814  6629 net.cpp:148] Top shape: 24 128 14 14 (602112)
I0403 18:09:17.474829  6629 net.cpp:156] Memory required for data: 1033209120
I0403 18:09:17.474846  6629 layer_factory.hpp:77] Creating layer inception_4c/3x3_reduce
I0403 18:09:17.474869  6629 net.cpp:91] Creating Layer inception_4c/3x3_reduce
I0403 18:09:17.474887  6629 net.cpp:425] inception_4c/3x3_reduce <- inception_4b/output_inception_4b/output_0_split_1
I0403 18:09:17.474910  6629 net.cpp:399] inception_4c/3x3_reduce -> inception_4c/3x3_reduce
I0403 18:09:17.476949  6629 net.cpp:141] Setting up inception_4c/3x3_reduce
I0403 18:09:17.476980  6629 net.cpp:148] Top shape: 24 128 14 14 (602112)
I0403 18:09:17.476997  6629 net.cpp:156] Memory required for data: 1035617568
I0403 18:09:17.477016  6629 layer_factory.hpp:77] Creating layer inception_4c/relu_3x3_reduce
I0403 18:09:17.477037  6629 net.cpp:91] Creating Layer inception_4c/relu_3x3_reduce
I0403 18:09:17.477054  6629 net.cpp:425] inception_4c/relu_3x3_reduce <- inception_4c/3x3_reduce
I0403 18:09:17.477073  6629 net.cpp:386] inception_4c/relu_3x3_reduce -> inception_4c/3x3_reduce (in-place)
I0403 18:09:17.477370  6629 net.cpp:141] Setting up inception_4c/relu_3x3_reduce
I0403 18:09:17.477397  6629 net.cpp:148] Top shape: 24 128 14 14 (602112)
I0403 18:09:17.477414  6629 net.cpp:156] Memory required for data: 1038026016
I0403 18:09:17.477429  6629 layer_factory.hpp:77] Creating layer inception_4c/3x3
I0403 18:09:17.477453  6629 net.cpp:91] Creating Layer inception_4c/3x3
I0403 18:09:17.477471  6629 net.cpp:425] inception_4c/3x3 <- inception_4c/3x3_reduce
I0403 18:09:17.477494  6629 net.cpp:399] inception_4c/3x3 -> inception_4c/3x3
I0403 18:09:17.481175  6629 net.cpp:141] Setting up inception_4c/3x3
I0403 18:09:17.481230  6629 net.cpp:148] Top shape: 24 256 14 14 (1204224)
I0403 18:09:17.481246  6629 net.cpp:156] Memory required for data: 1042842912
I0403 18:09:17.481278  6629 layer_factory.hpp:77] Creating layer inception_4c/relu_3x3
I0403 18:09:17.481302  6629 net.cpp:91] Creating Layer inception_4c/relu_3x3
I0403 18:09:17.481320  6629 net.cpp:425] inception_4c/relu_3x3 <- inception_4c/3x3
I0403 18:09:17.481340  6629 net.cpp:386] inception_4c/relu_3x3 -> inception_4c/3x3 (in-place)
I0403 18:09:17.481521  6629 net.cpp:141] Setting up inception_4c/relu_3x3
I0403 18:09:17.481546  6629 net.cpp:148] Top shape: 24 256 14 14 (1204224)
I0403 18:09:17.481562  6629 net.cpp:156] Memory required for data: 1047659808
I0403 18:09:17.481577  6629 layer_factory.hpp:77] Creating layer inception_4c/5x5_reduce
I0403 18:09:17.481601  6629 net.cpp:91] Creating Layer inception_4c/5x5_reduce
I0403 18:09:17.481621  6629 net.cpp:425] inception_4c/5x5_reduce <- inception_4b/output_inception_4b/output_0_split_2
I0403 18:09:17.481643  6629 net.cpp:399] inception_4c/5x5_reduce -> inception_4c/5x5_reduce
I0403 18:09:17.482777  6629 net.cpp:141] Setting up inception_4c/5x5_reduce
I0403 18:09:17.482806  6629 net.cpp:148] Top shape: 24 24 14 14 (112896)
I0403 18:09:17.482822  6629 net.cpp:156] Memory required for data: 1048111392
I0403 18:09:17.482841  6629 layer_factory.hpp:77] Creating layer inception_4c/relu_5x5_reduce
I0403 18:09:17.482863  6629 net.cpp:91] Creating Layer inception_4c/relu_5x5_reduce
I0403 18:09:17.482882  6629 net.cpp:425] inception_4c/relu_5x5_reduce <- inception_4c/5x5_reduce
I0403 18:09:17.482899  6629 net.cpp:386] inception_4c/relu_5x5_reduce -> inception_4c/5x5_reduce (in-place)
I0403 18:09:17.483079  6629 net.cpp:141] Setting up inception_4c/relu_5x5_reduce
I0403 18:09:17.483108  6629 net.cpp:148] Top shape: 24 24 14 14 (112896)
I0403 18:09:17.483124  6629 net.cpp:156] Memory required for data: 1048562976
I0403 18:09:17.483139  6629 layer_factory.hpp:77] Creating layer inception_4c/5x5
I0403 18:09:17.483161  6629 net.cpp:91] Creating Layer inception_4c/5x5
I0403 18:09:17.483180  6629 net.cpp:425] inception_4c/5x5 <- inception_4c/5x5_reduce
I0403 18:09:17.483198  6629 net.cpp:399] inception_4c/5x5 -> inception_4c/5x5
I0403 18:09:17.484447  6629 net.cpp:141] Setting up inception_4c/5x5
I0403 18:09:17.484478  6629 net.cpp:148] Top shape: 24 64 14 14 (301056)
I0403 18:09:17.484495  6629 net.cpp:156] Memory required for data: 1049767200
I0403 18:09:17.484513  6629 layer_factory.hpp:77] Creating layer inception_4c/relu_5x5
I0403 18:09:17.484532  6629 net.cpp:91] Creating Layer inception_4c/relu_5x5
I0403 18:09:17.484550  6629 net.cpp:425] inception_4c/relu_5x5 <- inception_4c/5x5
I0403 18:09:17.484575  6629 net.cpp:386] inception_4c/relu_5x5 -> inception_4c/5x5 (in-place)
I0403 18:09:17.484858  6629 net.cpp:141] Setting up inception_4c/relu_5x5
I0403 18:09:17.484889  6629 net.cpp:148] Top shape: 24 64 14 14 (301056)
I0403 18:09:17.484905  6629 net.cpp:156] Memory required for data: 1050971424
I0403 18:09:17.484918  6629 layer_factory.hpp:77] Creating layer inception_4c/pool
I0403 18:09:17.484938  6629 net.cpp:91] Creating Layer inception_4c/pool
I0403 18:09:17.484954  6629 net.cpp:425] inception_4c/pool <- inception_4b/output_inception_4b/output_0_split_3
I0403 18:09:17.484974  6629 net.cpp:399] inception_4c/pool -> inception_4c/pool
I0403 18:09:17.485039  6629 net.cpp:141] Setting up inception_4c/pool
I0403 18:09:17.485064  6629 net.cpp:148] Top shape: 24 512 14 14 (2408448)
I0403 18:09:17.485080  6629 net.cpp:156] Memory required for data: 1060605216
I0403 18:09:17.485095  6629 layer_factory.hpp:77] Creating layer inception_4c/pool_proj
I0403 18:09:17.485117  6629 net.cpp:91] Creating Layer inception_4c/pool_proj
I0403 18:09:17.485134  6629 net.cpp:425] inception_4c/pool_proj <- inception_4c/pool
I0403 18:09:17.485157  6629 net.cpp:399] inception_4c/pool_proj -> inception_4c/pool_proj
I0403 18:09:17.486378  6629 net.cpp:141] Setting up inception_4c/pool_proj
I0403 18:09:17.486407  6629 net.cpp:148] Top shape: 24 64 14 14 (301056)
I0403 18:09:17.486438  6629 net.cpp:156] Memory required for data: 1061809440
I0403 18:09:17.486456  6629 layer_factory.hpp:77] Creating layer inception_4c/relu_pool_proj
I0403 18:09:17.486479  6629 net.cpp:91] Creating Layer inception_4c/relu_pool_proj
I0403 18:09:17.486495  6629 net.cpp:425] inception_4c/relu_pool_proj <- inception_4c/pool_proj
I0403 18:09:17.486513  6629 net.cpp:386] inception_4c/relu_pool_proj -> inception_4c/pool_proj (in-place)
I0403 18:09:17.486692  6629 net.cpp:141] Setting up inception_4c/relu_pool_proj
I0403 18:09:17.486721  6629 net.cpp:148] Top shape: 24 64 14 14 (301056)
I0403 18:09:17.486737  6629 net.cpp:156] Memory required for data: 1063013664
I0403 18:09:17.486752  6629 layer_factory.hpp:77] Creating layer inception_4c/output
I0403 18:09:17.486769  6629 net.cpp:91] Creating Layer inception_4c/output
I0403 18:09:17.486785  6629 net.cpp:425] inception_4c/output <- inception_4c/1x1
I0403 18:09:17.486802  6629 net.cpp:425] inception_4c/output <- inception_4c/3x3
I0403 18:09:17.486819  6629 net.cpp:425] inception_4c/output <- inception_4c/5x5
I0403 18:09:17.486834  6629 net.cpp:425] inception_4c/output <- inception_4c/pool_proj
I0403 18:09:17.486850  6629 net.cpp:399] inception_4c/output -> inception_4c/output
I0403 18:09:17.486898  6629 net.cpp:141] Setting up inception_4c/output
I0403 18:09:17.486922  6629 net.cpp:148] Top shape: 24 512 14 14 (2408448)
I0403 18:09:17.486937  6629 net.cpp:156] Memory required for data: 1072647456
I0403 18:09:17.486951  6629 layer_factory.hpp:77] Creating layer inception_4c/output_inception_4c/output_0_split
I0403 18:09:17.486968  6629 net.cpp:91] Creating Layer inception_4c/output_inception_4c/output_0_split
I0403 18:09:17.486984  6629 net.cpp:425] inception_4c/output_inception_4c/output_0_split <- inception_4c/output
I0403 18:09:17.487004  6629 net.cpp:399] inception_4c/output_inception_4c/output_0_split -> inception_4c/output_inception_4c/output_0_split_0
I0403 18:09:17.487026  6629 net.cpp:399] inception_4c/output_inception_4c/output_0_split -> inception_4c/output_inception_4c/output_0_split_1
I0403 18:09:17.487047  6629 net.cpp:399] inception_4c/output_inception_4c/output_0_split -> inception_4c/output_inception_4c/output_0_split_2
I0403 18:09:17.487071  6629 net.cpp:399] inception_4c/output_inception_4c/output_0_split -> inception_4c/output_inception_4c/output_0_split_3
I0403 18:09:17.487157  6629 net.cpp:141] Setting up inception_4c/output_inception_4c/output_0_split
I0403 18:09:17.487181  6629 net.cpp:148] Top shape: 24 512 14 14 (2408448)
I0403 18:09:17.487196  6629 net.cpp:148] Top shape: 24 512 14 14 (2408448)
I0403 18:09:17.487218  6629 net.cpp:148] Top shape: 24 512 14 14 (2408448)
I0403 18:09:17.487236  6629 net.cpp:148] Top shape: 24 512 14 14 (2408448)
I0403 18:09:17.487251  6629 net.cpp:156] Memory required for data: 1111182624
I0403 18:09:17.487264  6629 layer_factory.hpp:77] Creating layer inception_4d/1x1
I0403 18:09:17.487292  6629 net.cpp:91] Creating Layer inception_4d/1x1
I0403 18:09:17.487310  6629 net.cpp:425] inception_4d/1x1 <- inception_4c/output_inception_4c/output_0_split_0
I0403 18:09:17.487331  6629 net.cpp:399] inception_4d/1x1 -> inception_4d/1x1
I0403 18:09:17.488718  6629 net.cpp:141] Setting up inception_4d/1x1
I0403 18:09:17.488745  6629 net.cpp:148] Top shape: 24 112 14 14 (526848)
I0403 18:09:17.488761  6629 net.cpp:156] Memory required for data: 1113290016
I0403 18:09:17.488780  6629 layer_factory.hpp:77] Creating layer inception_4d/relu_1x1
I0403 18:09:17.488797  6629 net.cpp:91] Creating Layer inception_4d/relu_1x1
I0403 18:09:17.488814  6629 net.cpp:425] inception_4d/relu_1x1 <- inception_4d/1x1
I0403 18:09:17.488833  6629 net.cpp:386] inception_4d/relu_1x1 -> inception_4d/1x1 (in-place)
I0403 18:09:17.489015  6629 net.cpp:141] Setting up inception_4d/relu_1x1
I0403 18:09:17.489040  6629 net.cpp:148] Top shape: 24 112 14 14 (526848)
I0403 18:09:17.489055  6629 net.cpp:156] Memory required for data: 1115397408
I0403 18:09:17.489070  6629 layer_factory.hpp:77] Creating layer inception_4d/3x3_reduce
I0403 18:09:17.489106  6629 net.cpp:91] Creating Layer inception_4d/3x3_reduce
I0403 18:09:17.489125  6629 net.cpp:425] inception_4d/3x3_reduce <- inception_4c/output_inception_4c/output_0_split_1
I0403 18:09:17.489146  6629 net.cpp:399] inception_4d/3x3_reduce -> inception_4d/3x3_reduce
I0403 18:09:17.490658  6629 net.cpp:141] Setting up inception_4d/3x3_reduce
I0403 18:09:17.490689  6629 net.cpp:148] Top shape: 24 144 14 14 (677376)
I0403 18:09:17.490705  6629 net.cpp:156] Memory required for data: 1118106912
I0403 18:09:17.490722  6629 layer_factory.hpp:77] Creating layer inception_4d/relu_3x3_reduce
I0403 18:09:17.490741  6629 net.cpp:91] Creating Layer inception_4d/relu_3x3_reduce
I0403 18:09:17.490756  6629 net.cpp:425] inception_4d/relu_3x3_reduce <- inception_4d/3x3_reduce
I0403 18:09:17.490774  6629 net.cpp:386] inception_4d/relu_3x3_reduce -> inception_4d/3x3_reduce (in-place)
I0403 18:09:17.491058  6629 net.cpp:141] Setting up inception_4d/relu_3x3_reduce
I0403 18:09:17.491087  6629 net.cpp:148] Top shape: 24 144 14 14 (677376)
I0403 18:09:17.491103  6629 net.cpp:156] Memory required for data: 1120816416
I0403 18:09:17.491118  6629 layer_factory.hpp:77] Creating layer inception_4d/3x3
I0403 18:09:17.491140  6629 net.cpp:91] Creating Layer inception_4d/3x3
I0403 18:09:17.491158  6629 net.cpp:425] inception_4d/3x3 <- inception_4d/3x3_reduce
I0403 18:09:17.491176  6629 net.cpp:399] inception_4d/3x3 -> inception_4d/3x3
I0403 18:09:17.495573  6629 net.cpp:141] Setting up inception_4d/3x3
I0403 18:09:17.495605  6629 net.cpp:148] Top shape: 24 288 14 14 (1354752)
I0403 18:09:17.495623  6629 net.cpp:156] Memory required for data: 1126235424
I0403 18:09:17.495648  6629 layer_factory.hpp:77] Creating layer inception_4d/relu_3x3
I0403 18:09:17.495669  6629 net.cpp:91] Creating Layer inception_4d/relu_3x3
I0403 18:09:17.495694  6629 net.cpp:425] inception_4d/relu_3x3 <- inception_4d/3x3
I0403 18:09:17.495720  6629 net.cpp:386] inception_4d/relu_3x3 -> inception_4d/3x3 (in-place)
I0403 18:09:17.495930  6629 net.cpp:141] Setting up inception_4d/relu_3x3
I0403 18:09:17.495957  6629 net.cpp:148] Top shape: 24 288 14 14 (1354752)
I0403 18:09:17.495972  6629 net.cpp:156] Memory required for data: 1131654432
I0403 18:09:17.496001  6629 layer_factory.hpp:77] Creating layer inception_4d/5x5_reduce
I0403 18:09:17.496024  6629 net.cpp:91] Creating Layer inception_4d/5x5_reduce
I0403 18:09:17.496042  6629 net.cpp:425] inception_4d/5x5_reduce <- inception_4c/output_inception_4c/output_0_split_2
I0403 18:09:17.496078  6629 net.cpp:399] inception_4d/5x5_reduce -> inception_4d/5x5_reduce
I0403 18:09:17.497318  6629 net.cpp:141] Setting up inception_4d/5x5_reduce
I0403 18:09:17.497346  6629 net.cpp:148] Top shape: 24 32 14 14 (150528)
I0403 18:09:17.497361  6629 net.cpp:156] Memory required for data: 1132256544
I0403 18:09:17.497380  6629 layer_factory.hpp:77] Creating layer inception_4d/relu_5x5_reduce
I0403 18:09:17.497401  6629 net.cpp:91] Creating Layer inception_4d/relu_5x5_reduce
I0403 18:09:17.497418  6629 net.cpp:425] inception_4d/relu_5x5_reduce <- inception_4d/5x5_reduce
I0403 18:09:17.497437  6629 net.cpp:386] inception_4d/relu_5x5_reduce -> inception_4d/5x5_reduce (in-place)
I0403 18:09:17.497627  6629 net.cpp:141] Setting up inception_4d/relu_5x5_reduce
I0403 18:09:17.497653  6629 net.cpp:148] Top shape: 24 32 14 14 (150528)
I0403 18:09:17.497666  6629 net.cpp:156] Memory required for data: 1132858656
I0403 18:09:17.497681  6629 layer_factory.hpp:77] Creating layer inception_4d/5x5
I0403 18:09:17.497704  6629 net.cpp:91] Creating Layer inception_4d/5x5
I0403 18:09:17.497722  6629 net.cpp:425] inception_4d/5x5 <- inception_4d/5x5_reduce
I0403 18:09:17.497743  6629 net.cpp:399] inception_4d/5x5 -> inception_4d/5x5
I0403 18:09:17.499264  6629 net.cpp:141] Setting up inception_4d/5x5
I0403 18:09:17.499292  6629 net.cpp:148] Top shape: 24 64 14 14 (301056)
I0403 18:09:17.499310  6629 net.cpp:156] Memory required for data: 1134062880
I0403 18:09:17.499330  6629 layer_factory.hpp:77] Creating layer inception_4d/relu_5x5
I0403 18:09:17.499367  6629 net.cpp:91] Creating Layer inception_4d/relu_5x5
I0403 18:09:17.499385  6629 net.cpp:425] inception_4d/relu_5x5 <- inception_4d/5x5
I0403 18:09:17.499403  6629 net.cpp:386] inception_4d/relu_5x5 -> inception_4d/5x5 (in-place)
I0403 18:09:17.499709  6629 net.cpp:141] Setting up inception_4d/relu_5x5
I0403 18:09:17.499735  6629 net.cpp:148] Top shape: 24 64 14 14 (301056)
I0403 18:09:17.499750  6629 net.cpp:156] Memory required for data: 1135267104
I0403 18:09:17.499766  6629 layer_factory.hpp:77] Creating layer inception_4d/pool
I0403 18:09:17.499793  6629 net.cpp:91] Creating Layer inception_4d/pool
I0403 18:09:17.499810  6629 net.cpp:425] inception_4d/pool <- inception_4c/output_inception_4c/output_0_split_3
I0403 18:09:17.499830  6629 net.cpp:399] inception_4d/pool -> inception_4d/pool
I0403 18:09:17.499899  6629 net.cpp:141] Setting up inception_4d/pool
I0403 18:09:17.499924  6629 net.cpp:148] Top shape: 24 512 14 14 (2408448)
I0403 18:09:17.499938  6629 net.cpp:156] Memory required for data: 1144900896
I0403 18:09:17.499953  6629 layer_factory.hpp:77] Creating layer inception_4d/pool_proj
I0403 18:09:17.499977  6629 net.cpp:91] Creating Layer inception_4d/pool_proj
I0403 18:09:17.499995  6629 net.cpp:425] inception_4d/pool_proj <- inception_4d/pool
I0403 18:09:17.500016  6629 net.cpp:399] inception_4d/pool_proj -> inception_4d/pool_proj
I0403 18:09:17.501910  6629 net.cpp:141] Setting up inception_4d/pool_proj
I0403 18:09:17.501940  6629 net.cpp:148] Top shape: 24 64 14 14 (301056)
I0403 18:09:17.501957  6629 net.cpp:156] Memory required for data: 1146105120
I0403 18:09:17.501976  6629 layer_factory.hpp:77] Creating layer inception_4d/relu_pool_proj
I0403 18:09:17.501994  6629 net.cpp:91] Creating Layer inception_4d/relu_pool_proj
I0403 18:09:17.502010  6629 net.cpp:425] inception_4d/relu_pool_proj <- inception_4d/pool_proj
I0403 18:09:17.502032  6629 net.cpp:386] inception_4d/relu_pool_proj -> inception_4d/pool_proj (in-place)
I0403 18:09:17.502235  6629 net.cpp:141] Setting up inception_4d/relu_pool_proj
I0403 18:09:17.502261  6629 net.cpp:148] Top shape: 24 64 14 14 (301056)
I0403 18:09:17.502276  6629 net.cpp:156] Memory required for data: 1147309344
I0403 18:09:17.502292  6629 layer_factory.hpp:77] Creating layer inception_4d/output
I0403 18:09:17.502312  6629 net.cpp:91] Creating Layer inception_4d/output
I0403 18:09:17.502331  6629 net.cpp:425] inception_4d/output <- inception_4d/1x1
I0403 18:09:17.502346  6629 net.cpp:425] inception_4d/output <- inception_4d/3x3
I0403 18:09:17.502362  6629 net.cpp:425] inception_4d/output <- inception_4d/5x5
I0403 18:09:17.502379  6629 net.cpp:425] inception_4d/output <- inception_4d/pool_proj
I0403 18:09:17.502396  6629 net.cpp:399] inception_4d/output -> inception_4d/output
I0403 18:09:17.502449  6629 net.cpp:141] Setting up inception_4d/output
I0403 18:09:17.502473  6629 net.cpp:148] Top shape: 24 528 14 14 (2483712)
I0403 18:09:17.502487  6629 net.cpp:156] Memory required for data: 1157244192
I0403 18:09:17.502502  6629 layer_factory.hpp:77] Creating layer inception_4d/output_inception_4d/output_0_split
I0403 18:09:17.502521  6629 net.cpp:91] Creating Layer inception_4d/output_inception_4d/output_0_split
I0403 18:09:17.502537  6629 net.cpp:425] inception_4d/output_inception_4d/output_0_split <- inception_4d/output
I0403 18:09:17.502557  6629 net.cpp:399] inception_4d/output_inception_4d/output_0_split -> inception_4d/output_inception_4d/output_0_split_0
I0403 18:09:17.502580  6629 net.cpp:399] inception_4d/output_inception_4d/output_0_split -> inception_4d/output_inception_4d/output_0_split_1
I0403 18:09:17.502602  6629 net.cpp:399] inception_4d/output_inception_4d/output_0_split -> inception_4d/output_inception_4d/output_0_split_2
I0403 18:09:17.502624  6629 net.cpp:399] inception_4d/output_inception_4d/output_0_split -> inception_4d/output_inception_4d/output_0_split_3
I0403 18:09:17.502645  6629 net.cpp:399] inception_4d/output_inception_4d/output_0_split -> inception_4d/output_inception_4d/output_0_split_4
I0403 18:09:17.502751  6629 net.cpp:141] Setting up inception_4d/output_inception_4d/output_0_split
I0403 18:09:17.502789  6629 net.cpp:148] Top shape: 24 528 14 14 (2483712)
I0403 18:09:17.502809  6629 net.cpp:148] Top shape: 24 528 14 14 (2483712)
I0403 18:09:17.502825  6629 net.cpp:148] Top shape: 24 528 14 14 (2483712)
I0403 18:09:17.502842  6629 net.cpp:148] Top shape: 24 528 14 14 (2483712)
I0403 18:09:17.502858  6629 net.cpp:148] Top shape: 24 528 14 14 (2483712)
I0403 18:09:17.502871  6629 net.cpp:156] Memory required for data: 1206918432
I0403 18:09:17.502887  6629 layer_factory.hpp:77] Creating layer loss2/ave_pool
I0403 18:09:17.502905  6629 net.cpp:91] Creating Layer loss2/ave_pool
I0403 18:09:17.502921  6629 net.cpp:425] loss2/ave_pool <- inception_4d/output_inception_4d/output_0_split_0
I0403 18:09:17.502948  6629 net.cpp:399] loss2/ave_pool -> loss2/ave_pool
I0403 18:09:17.503278  6629 net.cpp:141] Setting up loss2/ave_pool
I0403 18:09:17.503306  6629 net.cpp:148] Top shape: 24 528 4 4 (202752)
I0403 18:09:17.503321  6629 net.cpp:156] Memory required for data: 1207729440
I0403 18:09:17.503337  6629 layer_factory.hpp:77] Creating layer loss2/conv
I0403 18:09:17.503360  6629 net.cpp:91] Creating Layer loss2/conv
I0403 18:09:17.503378  6629 net.cpp:425] loss2/conv <- loss2/ave_pool
I0403 18:09:17.503401  6629 net.cpp:399] loss2/conv -> loss2/conv
I0403 18:09:17.505419  6629 net.cpp:141] Setting up loss2/conv
I0403 18:09:17.505447  6629 net.cpp:148] Top shape: 24 128 4 4 (49152)
I0403 18:09:17.505467  6629 net.cpp:156] Memory required for data: 1207926048
I0403 18:09:17.505486  6629 layer_factory.hpp:77] Creating layer loss2/relu_conv
I0403 18:09:17.505506  6629 net.cpp:91] Creating Layer loss2/relu_conv
I0403 18:09:17.505522  6629 net.cpp:425] loss2/relu_conv <- loss2/conv
I0403 18:09:17.505539  6629 net.cpp:386] loss2/relu_conv -> loss2/conv (in-place)
I0403 18:09:17.505832  6629 net.cpp:141] Setting up loss2/relu_conv
I0403 18:09:17.505861  6629 net.cpp:148] Top shape: 24 128 4 4 (49152)
I0403 18:09:17.505879  6629 net.cpp:156] Memory required for data: 1208122656
I0403 18:09:17.505894  6629 layer_factory.hpp:77] Creating layer loss2/fc
I0403 18:09:17.505913  6629 net.cpp:91] Creating Layer loss2/fc
I0403 18:09:17.505930  6629 net.cpp:425] loss2/fc <- loss2/conv
I0403 18:09:17.505951  6629 net.cpp:399] loss2/fc -> loss2/fc
I0403 18:09:17.524336  6629 net.cpp:141] Setting up loss2/fc
I0403 18:09:17.524395  6629 net.cpp:148] Top shape: 24 1024 (24576)
I0403 18:09:17.524410  6629 net.cpp:156] Memory required for data: 1208220960
I0403 18:09:17.524430  6629 layer_factory.hpp:77] Creating layer loss2/relu_fc
I0403 18:09:17.524451  6629 net.cpp:91] Creating Layer loss2/relu_fc
I0403 18:09:17.524469  6629 net.cpp:425] loss2/relu_fc <- loss2/fc
I0403 18:09:17.524487  6629 net.cpp:386] loss2/relu_fc -> loss2/fc (in-place)
I0403 18:09:17.524814  6629 net.cpp:141] Setting up loss2/relu_fc
I0403 18:09:17.524840  6629 net.cpp:148] Top shape: 24 1024 (24576)
I0403 18:09:17.524857  6629 net.cpp:156] Memory required for data: 1208319264
I0403 18:09:17.524871  6629 layer_factory.hpp:77] Creating layer loss2/drop_fc
I0403 18:09:17.524891  6629 net.cpp:91] Creating Layer loss2/drop_fc
I0403 18:09:17.524909  6629 net.cpp:425] loss2/drop_fc <- loss2/fc
I0403 18:09:17.524926  6629 net.cpp:386] loss2/drop_fc -> loss2/fc (in-place)
I0403 18:09:17.524974  6629 net.cpp:141] Setting up loss2/drop_fc
I0403 18:09:17.525001  6629 net.cpp:148] Top shape: 24 1024 (24576)
I0403 18:09:17.525015  6629 net.cpp:156] Memory required for data: 1208417568
I0403 18:09:17.525030  6629 layer_factory.hpp:77] Creating layer loss2/classifier_plantvillage
I0403 18:09:17.525048  6629 net.cpp:91] Creating Layer loss2/classifier_plantvillage
I0403 18:09:17.525064  6629 net.cpp:425] loss2/classifier_plantvillage <- loss2/fc
I0403 18:09:17.525084  6629 net.cpp:399] loss2/classifier_plantvillage -> loss2/classifier_plantvillage
I0403 18:09:17.525523  6629 net.cpp:141] Setting up loss2/classifier_plantvillage
I0403 18:09:17.525552  6629 net.cpp:148] Top shape: 24 38 (912)
I0403 18:09:17.525588  6629 net.cpp:156] Memory required for data: 1208421216
I0403 18:09:17.525609  6629 layer_factory.hpp:77] Creating layer loss2/classifier_plantvillage_loss2/classifier_plantvillage_0_split
I0403 18:09:17.525627  6629 net.cpp:91] Creating Layer loss2/classifier_plantvillage_loss2/classifier_plantvillage_0_split
I0403 18:09:17.525645  6629 net.cpp:425] loss2/classifier_plantvillage_loss2/classifier_plantvillage_0_split <- loss2/classifier_plantvillage
I0403 18:09:17.525663  6629 net.cpp:399] loss2/classifier_plantvillage_loss2/classifier_plantvillage_0_split -> loss2/classifier_plantvillage_loss2/classifier_plantvillage_0_split_0
I0403 18:09:17.525686  6629 net.cpp:399] loss2/classifier_plantvillage_loss2/classifier_plantvillage_0_split -> loss2/classifier_plantvillage_loss2/classifier_plantvillage_0_split_1
I0403 18:09:17.525710  6629 net.cpp:399] loss2/classifier_plantvillage_loss2/classifier_plantvillage_0_split -> loss2/classifier_plantvillage_loss2/classifier_plantvillage_0_split_2
I0403 18:09:17.525790  6629 net.cpp:141] Setting up loss2/classifier_plantvillage_loss2/classifier_plantvillage_0_split
I0403 18:09:17.525813  6629 net.cpp:148] Top shape: 24 38 (912)
I0403 18:09:17.525830  6629 net.cpp:148] Top shape: 24 38 (912)
I0403 18:09:17.525846  6629 net.cpp:148] Top shape: 24 38 (912)
I0403 18:09:17.525861  6629 net.cpp:156] Memory required for data: 1208432160
I0403 18:09:17.525874  6629 layer_factory.hpp:77] Creating layer inception_4e/1x1
I0403 18:09:17.525899  6629 net.cpp:91] Creating Layer inception_4e/1x1
I0403 18:09:17.525916  6629 net.cpp:425] inception_4e/1x1 <- inception_4d/output_inception_4d/output_0_split_1
I0403 18:09:17.525941  6629 net.cpp:399] inception_4e/1x1 -> inception_4e/1x1
I0403 18:09:17.527840  6629 net.cpp:141] Setting up inception_4e/1x1
I0403 18:09:17.527881  6629 net.cpp:148] Top shape: 24 256 14 14 (1204224)
I0403 18:09:17.527896  6629 net.cpp:156] Memory required for data: 1213249056
I0403 18:09:17.527916  6629 layer_factory.hpp:77] Creating layer inception_4e/relu_1x1
I0403 18:09:17.527936  6629 net.cpp:91] Creating Layer inception_4e/relu_1x1
I0403 18:09:17.527953  6629 net.cpp:425] inception_4e/relu_1x1 <- inception_4e/1x1
I0403 18:09:17.527971  6629 net.cpp:386] inception_4e/relu_1x1 -> inception_4e/1x1 (in-place)
I0403 18:09:17.528273  6629 net.cpp:141] Setting up inception_4e/relu_1x1
I0403 18:09:17.528301  6629 net.cpp:148] Top shape: 24 256 14 14 (1204224)
I0403 18:09:17.528316  6629 net.cpp:156] Memory required for data: 1218065952
I0403 18:09:17.528331  6629 layer_factory.hpp:77] Creating layer inception_4e/3x3_reduce
I0403 18:09:17.528355  6629 net.cpp:91] Creating Layer inception_4e/3x3_reduce
I0403 18:09:17.528374  6629 net.cpp:425] inception_4e/3x3_reduce <- inception_4d/output_inception_4d/output_0_split_2
I0403 18:09:17.528393  6629 net.cpp:399] inception_4e/3x3_reduce -> inception_4e/3x3_reduce
I0403 18:09:17.530553  6629 net.cpp:141] Setting up inception_4e/3x3_reduce
I0403 18:09:17.530581  6629 net.cpp:148] Top shape: 24 160 14 14 (752640)
I0403 18:09:17.530596  6629 net.cpp:156] Memory required for data: 1221076512
I0403 18:09:17.530616  6629 layer_factory.hpp:77] Creating layer inception_4e/relu_3x3_reduce
I0403 18:09:17.530635  6629 net.cpp:91] Creating Layer inception_4e/relu_3x3_reduce
I0403 18:09:17.530652  6629 net.cpp:425] inception_4e/relu_3x3_reduce <- inception_4e/3x3_reduce
I0403 18:09:17.530669  6629 net.cpp:386] inception_4e/relu_3x3_reduce -> inception_4e/3x3_reduce (in-place)
I0403 18:09:17.530858  6629 net.cpp:141] Setting up inception_4e/relu_3x3_reduce
I0403 18:09:17.530884  6629 net.cpp:148] Top shape: 24 160 14 14 (752640)
I0403 18:09:17.530900  6629 net.cpp:156] Memory required for data: 1224087072
I0403 18:09:17.530915  6629 layer_factory.hpp:77] Creating layer inception_4e/3x3
I0403 18:09:17.530936  6629 net.cpp:91] Creating Layer inception_4e/3x3
I0403 18:09:17.530953  6629 net.cpp:425] inception_4e/3x3 <- inception_4e/3x3_reduce
I0403 18:09:17.530985  6629 net.cpp:399] inception_4e/3x3 -> inception_4e/3x3
I0403 18:09:17.536061  6629 net.cpp:141] Setting up inception_4e/3x3
I0403 18:09:17.536105  6629 net.cpp:148] Top shape: 24 320 14 14 (1505280)
I0403 18:09:17.536123  6629 net.cpp:156] Memory required for data: 1230108192
I0403 18:09:17.536142  6629 layer_factory.hpp:77] Creating layer inception_4e/relu_3x3
I0403 18:09:17.536160  6629 net.cpp:91] Creating Layer inception_4e/relu_3x3
I0403 18:09:17.536177  6629 net.cpp:425] inception_4e/relu_3x3 <- inception_4e/3x3
I0403 18:09:17.536197  6629 net.cpp:386] inception_4e/relu_3x3 -> inception_4e/3x3 (in-place)
I0403 18:09:17.536542  6629 net.cpp:141] Setting up inception_4e/relu_3x3
I0403 18:09:17.536568  6629 net.cpp:148] Top shape: 24 320 14 14 (1505280)
I0403 18:09:17.536582  6629 net.cpp:156] Memory required for data: 1236129312
I0403 18:09:17.536597  6629 layer_factory.hpp:77] Creating layer inception_4e/5x5_reduce
I0403 18:09:17.536620  6629 net.cpp:91] Creating Layer inception_4e/5x5_reduce
I0403 18:09:17.536638  6629 net.cpp:425] inception_4e/5x5_reduce <- inception_4d/output_inception_4d/output_0_split_3
I0403 18:09:17.536660  6629 net.cpp:399] inception_4e/5x5_reduce -> inception_4e/5x5_reduce
I0403 18:09:17.537701  6629 net.cpp:141] Setting up inception_4e/5x5_reduce
I0403 18:09:17.537727  6629 net.cpp:148] Top shape: 24 32 14 14 (150528)
I0403 18:09:17.537742  6629 net.cpp:156] Memory required for data: 1236731424
I0403 18:09:17.537761  6629 layer_factory.hpp:77] Creating layer inception_4e/relu_5x5_reduce
I0403 18:09:17.537784  6629 net.cpp:91] Creating Layer inception_4e/relu_5x5_reduce
I0403 18:09:17.537801  6629 net.cpp:425] inception_4e/relu_5x5_reduce <- inception_4e/5x5_reduce
I0403 18:09:17.537817  6629 net.cpp:386] inception_4e/relu_5x5_reduce -> inception_4e/5x5_reduce (in-place)
I0403 18:09:17.538105  6629 net.cpp:141] Setting up inception_4e/relu_5x5_reduce
I0403 18:09:17.538130  6629 net.cpp:148] Top shape: 24 32 14 14 (150528)
I0403 18:09:17.538144  6629 net.cpp:156] Memory required for data: 1237333536
I0403 18:09:17.538159  6629 layer_factory.hpp:77] Creating layer inception_4e/5x5
I0403 18:09:17.538198  6629 net.cpp:91] Creating Layer inception_4e/5x5
I0403 18:09:17.538221  6629 net.cpp:425] inception_4e/5x5 <- inception_4e/5x5_reduce
I0403 18:09:17.538241  6629 net.cpp:399] inception_4e/5x5 -> inception_4e/5x5
I0403 18:09:17.540020  6629 net.cpp:141] Setting up inception_4e/5x5
I0403 18:09:17.540047  6629 net.cpp:148] Top shape: 24 128 14 14 (602112)
I0403 18:09:17.540062  6629 net.cpp:156] Memory required for data: 1239741984
I0403 18:09:17.540081  6629 layer_factory.hpp:77] Creating layer inception_4e/relu_5x5
I0403 18:09:17.540102  6629 net.cpp:91] Creating Layer inception_4e/relu_5x5
I0403 18:09:17.540117  6629 net.cpp:425] inception_4e/relu_5x5 <- inception_4e/5x5
I0403 18:09:17.540133  6629 net.cpp:386] inception_4e/relu_5x5 -> inception_4e/5x5 (in-place)
I0403 18:09:17.540329  6629 net.cpp:141] Setting up inception_4e/relu_5x5
I0403 18:09:17.540356  6629 net.cpp:148] Top shape: 24 128 14 14 (602112)
I0403 18:09:17.540372  6629 net.cpp:156] Memory required for data: 1242150432
I0403 18:09:17.540387  6629 layer_factory.hpp:77] Creating layer inception_4e/pool
I0403 18:09:17.540405  6629 net.cpp:91] Creating Layer inception_4e/pool
I0403 18:09:17.540421  6629 net.cpp:425] inception_4e/pool <- inception_4d/output_inception_4d/output_0_split_4
I0403 18:09:17.540437  6629 net.cpp:399] inception_4e/pool -> inception_4e/pool
I0403 18:09:17.540506  6629 net.cpp:141] Setting up inception_4e/pool
I0403 18:09:17.540529  6629 net.cpp:148] Top shape: 24 528 14 14 (2483712)
I0403 18:09:17.540544  6629 net.cpp:156] Memory required for data: 1252085280
I0403 18:09:17.540557  6629 layer_factory.hpp:77] Creating layer inception_4e/pool_proj
I0403 18:09:17.540580  6629 net.cpp:91] Creating Layer inception_4e/pool_proj
I0403 18:09:17.540596  6629 net.cpp:425] inception_4e/pool_proj <- inception_4e/pool
I0403 18:09:17.540617  6629 net.cpp:399] inception_4e/pool_proj -> inception_4e/pool_proj
I0403 18:09:17.542069  6629 net.cpp:141] Setting up inception_4e/pool_proj
I0403 18:09:17.542109  6629 net.cpp:148] Top shape: 24 128 14 14 (602112)
I0403 18:09:17.542124  6629 net.cpp:156] Memory required for data: 1254493728
I0403 18:09:17.542142  6629 layer_factory.hpp:77] Creating layer inception_4e/relu_pool_proj
I0403 18:09:17.542160  6629 net.cpp:91] Creating Layer inception_4e/relu_pool_proj
I0403 18:09:17.542176  6629 net.cpp:425] inception_4e/relu_pool_proj <- inception_4e/pool_proj
I0403 18:09:17.542196  6629 net.cpp:386] inception_4e/relu_pool_proj -> inception_4e/pool_proj (in-place)
I0403 18:09:17.542491  6629 net.cpp:141] Setting up inception_4e/relu_pool_proj
I0403 18:09:17.542516  6629 net.cpp:148] Top shape: 24 128 14 14 (602112)
I0403 18:09:17.542531  6629 net.cpp:156] Memory required for data: 1256902176
I0403 18:09:17.542544  6629 layer_factory.hpp:77] Creating layer inception_4e/output
I0403 18:09:17.542562  6629 net.cpp:91] Creating Layer inception_4e/output
I0403 18:09:17.542577  6629 net.cpp:425] inception_4e/output <- inception_4e/1x1
I0403 18:09:17.542593  6629 net.cpp:425] inception_4e/output <- inception_4e/3x3
I0403 18:09:17.542608  6629 net.cpp:425] inception_4e/output <- inception_4e/5x5
I0403 18:09:17.542623  6629 net.cpp:425] inception_4e/output <- inception_4e/pool_proj
I0403 18:09:17.542642  6629 net.cpp:399] inception_4e/output -> inception_4e/output
I0403 18:09:17.542690  6629 net.cpp:141] Setting up inception_4e/output
I0403 18:09:17.542716  6629 net.cpp:148] Top shape: 24 832 14 14 (3913728)
I0403 18:09:17.542732  6629 net.cpp:156] Memory required for data: 1272557088
I0403 18:09:17.542745  6629 layer_factory.hpp:77] Creating layer pool4/3x3_s2
I0403 18:09:17.542763  6629 net.cpp:91] Creating Layer pool4/3x3_s2
I0403 18:09:17.542778  6629 net.cpp:425] pool4/3x3_s2 <- inception_4e/output
I0403 18:09:17.542798  6629 net.cpp:399] pool4/3x3_s2 -> pool4/3x3_s2
I0403 18:09:17.542862  6629 net.cpp:141] Setting up pool4/3x3_s2
I0403 18:09:17.542884  6629 net.cpp:148] Top shape: 24 832 7 7 (978432)
I0403 18:09:17.542898  6629 net.cpp:156] Memory required for data: 1276470816
I0403 18:09:17.542913  6629 layer_factory.hpp:77] Creating layer pool4/3x3_s2_pool4/3x3_s2_0_split
I0403 18:09:17.542932  6629 net.cpp:91] Creating Layer pool4/3x3_s2_pool4/3x3_s2_0_split
I0403 18:09:17.542948  6629 net.cpp:425] pool4/3x3_s2_pool4/3x3_s2_0_split <- pool4/3x3_s2
I0403 18:09:17.542965  6629 net.cpp:399] pool4/3x3_s2_pool4/3x3_s2_0_split -> pool4/3x3_s2_pool4/3x3_s2_0_split_0
I0403 18:09:17.542985  6629 net.cpp:399] pool4/3x3_s2_pool4/3x3_s2_0_split -> pool4/3x3_s2_pool4/3x3_s2_0_split_1
I0403 18:09:17.543009  6629 net.cpp:399] pool4/3x3_s2_pool4/3x3_s2_0_split -> pool4/3x3_s2_pool4/3x3_s2_0_split_2
I0403 18:09:17.543028  6629 net.cpp:399] pool4/3x3_s2_pool4/3x3_s2_0_split -> pool4/3x3_s2_pool4/3x3_s2_0_split_3
I0403 18:09:17.543113  6629 net.cpp:141] Setting up pool4/3x3_s2_pool4/3x3_s2_0_split
I0403 18:09:17.543136  6629 net.cpp:148] Top shape: 24 832 7 7 (978432)
I0403 18:09:17.543153  6629 net.cpp:148] Top shape: 24 832 7 7 (978432)
I0403 18:09:17.543167  6629 net.cpp:148] Top shape: 24 832 7 7 (978432)
I0403 18:09:17.543182  6629 net.cpp:148] Top shape: 24 832 7 7 (978432)
I0403 18:09:17.543196  6629 net.cpp:156] Memory required for data: 1292125728
I0403 18:09:17.543213  6629 layer_factory.hpp:77] Creating layer inception_5a/1x1
I0403 18:09:17.543236  6629 net.cpp:91] Creating Layer inception_5a/1x1
I0403 18:09:17.543253  6629 net.cpp:425] inception_5a/1x1 <- pool4/3x3_s2_pool4/3x3_s2_0_split_0
I0403 18:09:17.543274  6629 net.cpp:399] inception_5a/1x1 -> inception_5a/1x1
I0403 18:09:17.546100  6629 net.cpp:141] Setting up inception_5a/1x1
I0403 18:09:17.546129  6629 net.cpp:148] Top shape: 24 256 7 7 (301056)
I0403 18:09:17.546144  6629 net.cpp:156] Memory required for data: 1293329952
I0403 18:09:17.546161  6629 layer_factory.hpp:77] Creating layer inception_5a/relu_1x1
I0403 18:09:17.546181  6629 net.cpp:91] Creating Layer inception_5a/relu_1x1
I0403 18:09:17.546197  6629 net.cpp:425] inception_5a/relu_1x1 <- inception_5a/1x1
I0403 18:09:17.546219  6629 net.cpp:386] inception_5a/relu_1x1 -> inception_5a/1x1 (in-place)
I0403 18:09:17.546532  6629 net.cpp:141] Setting up inception_5a/relu_1x1
I0403 18:09:17.546558  6629 net.cpp:148] Top shape: 24 256 7 7 (301056)
I0403 18:09:17.546573  6629 net.cpp:156] Memory required for data: 1294534176
I0403 18:09:17.546587  6629 layer_factory.hpp:77] Creating layer inception_5a/3x3_reduce
I0403 18:09:17.546609  6629 net.cpp:91] Creating Layer inception_5a/3x3_reduce
I0403 18:09:17.546627  6629 net.cpp:425] inception_5a/3x3_reduce <- pool4/3x3_s2_pool4/3x3_s2_0_split_1
I0403 18:09:17.546648  6629 net.cpp:399] inception_5a/3x3_reduce -> inception_5a/3x3_reduce
I0403 18:09:17.549073  6629 net.cpp:141] Setting up inception_5a/3x3_reduce
I0403 18:09:17.549101  6629 net.cpp:148] Top shape: 24 160 7 7 (188160)
I0403 18:09:17.549116  6629 net.cpp:156] Memory required for data: 1295286816
I0403 18:09:17.549134  6629 layer_factory.hpp:77] Creating layer inception_5a/relu_3x3_reduce
I0403 18:09:17.549151  6629 net.cpp:91] Creating Layer inception_5a/relu_3x3_reduce
I0403 18:09:17.549166  6629 net.cpp:425] inception_5a/relu_3x3_reduce <- inception_5a/3x3_reduce
I0403 18:09:17.549185  6629 net.cpp:386] inception_5a/relu_3x3_reduce -> inception_5a/3x3_reduce (in-place)
I0403 18:09:17.549372  6629 net.cpp:141] Setting up inception_5a/relu_3x3_reduce
I0403 18:09:17.549396  6629 net.cpp:148] Top shape: 24 160 7 7 (188160)
I0403 18:09:17.549410  6629 net.cpp:156] Memory required for data: 1296039456
I0403 18:09:17.549425  6629 layer_factory.hpp:77] Creating layer inception_5a/3x3
I0403 18:09:17.549446  6629 net.cpp:91] Creating Layer inception_5a/3x3
I0403 18:09:17.549463  6629 net.cpp:425] inception_5a/3x3 <- inception_5a/3x3_reduce
I0403 18:09:17.549484  6629 net.cpp:399] inception_5a/3x3 -> inception_5a/3x3
I0403 18:09:17.554435  6629 net.cpp:141] Setting up inception_5a/3x3
I0403 18:09:17.554466  6629 net.cpp:148] Top shape: 24 320 7 7 (376320)
I0403 18:09:17.554481  6629 net.cpp:156] Memory required for data: 1297544736
I0403 18:09:17.554498  6629 layer_factory.hpp:77] Creating layer inception_5a/relu_3x3
I0403 18:09:17.554519  6629 net.cpp:91] Creating Layer inception_5a/relu_3x3
I0403 18:09:17.554536  6629 net.cpp:425] inception_5a/relu_3x3 <- inception_5a/3x3
I0403 18:09:17.554553  6629 net.cpp:386] inception_5a/relu_3x3 -> inception_5a/3x3 (in-place)
I0403 18:09:17.554841  6629 net.cpp:141] Setting up inception_5a/relu_3x3
I0403 18:09:17.554865  6629 net.cpp:148] Top shape: 24 320 7 7 (376320)
I0403 18:09:17.554880  6629 net.cpp:156] Memory required for data: 1299050016
I0403 18:09:17.554895  6629 layer_factory.hpp:77] Creating layer inception_5a/5x5_reduce
I0403 18:09:17.554916  6629 net.cpp:91] Creating Layer inception_5a/5x5_reduce
I0403 18:09:17.554934  6629 net.cpp:425] inception_5a/5x5_reduce <- pool4/3x3_s2_pool4/3x3_s2_0_split_2
I0403 18:09:17.554955  6629 net.cpp:399] inception_5a/5x5_reduce -> inception_5a/5x5_reduce
I0403 18:09:17.556138  6629 net.cpp:141] Setting up inception_5a/5x5_reduce
I0403 18:09:17.556170  6629 net.cpp:148] Top shape: 24 32 7 7 (37632)
I0403 18:09:17.556186  6629 net.cpp:156] Memory required for data: 1299200544
I0403 18:09:17.556205  6629 layer_factory.hpp:77] Creating layer inception_5a/relu_5x5_reduce
I0403 18:09:17.556229  6629 net.cpp:91] Creating Layer inception_5a/relu_5x5_reduce
I0403 18:09:17.556246  6629 net.cpp:425] inception_5a/relu_5x5_reduce <- inception_5a/5x5_reduce
I0403 18:09:17.556263  6629 net.cpp:386] inception_5a/relu_5x5_reduce -> inception_5a/5x5_reduce (in-place)
I0403 18:09:17.556562  6629 net.cpp:141] Setting up inception_5a/relu_5x5_reduce
I0403 18:09:17.556591  6629 net.cpp:148] Top shape: 24 32 7 7 (37632)
I0403 18:09:17.556607  6629 net.cpp:156] Memory required for data: 1299351072
I0403 18:09:17.556622  6629 layer_factory.hpp:77] Creating layer inception_5a/5x5
I0403 18:09:17.556641  6629 net.cpp:91] Creating Layer inception_5a/5x5
I0403 18:09:17.556659  6629 net.cpp:425] inception_5a/5x5 <- inception_5a/5x5_reduce
I0403 18:09:17.556679  6629 net.cpp:399] inception_5a/5x5 -> inception_5a/5x5
I0403 18:09:17.558406  6629 net.cpp:141] Setting up inception_5a/5x5
I0403 18:09:17.558445  6629 net.cpp:148] Top shape: 24 128 7 7 (150528)
I0403 18:09:17.558461  6629 net.cpp:156] Memory required for data: 1299953184
I0403 18:09:17.558480  6629 layer_factory.hpp:77] Creating layer inception_5a/relu_5x5
I0403 18:09:17.558500  6629 net.cpp:91] Creating Layer inception_5a/relu_5x5
I0403 18:09:17.558517  6629 net.cpp:425] inception_5a/relu_5x5 <- inception_5a/5x5
I0403 18:09:17.558534  6629 net.cpp:386] inception_5a/relu_5x5 -> inception_5a/5x5 (in-place)
I0403 18:09:17.558722  6629 net.cpp:141] Setting up inception_5a/relu_5x5
I0403 18:09:17.558749  6629 net.cpp:148] Top shape: 24 128 7 7 (150528)
I0403 18:09:17.558764  6629 net.cpp:156] Memory required for data: 1300555296
I0403 18:09:17.558779  6629 layer_factory.hpp:77] Creating layer inception_5a/pool
I0403 18:09:17.558796  6629 net.cpp:91] Creating Layer inception_5a/pool
I0403 18:09:17.558812  6629 net.cpp:425] inception_5a/pool <- pool4/3x3_s2_pool4/3x3_s2_0_split_3
I0403 18:09:17.558831  6629 net.cpp:399] inception_5a/pool -> inception_5a/pool
I0403 18:09:17.558904  6629 net.cpp:141] Setting up inception_5a/pool
I0403 18:09:17.558928  6629 net.cpp:148] Top shape: 24 832 7 7 (978432)
I0403 18:09:17.558943  6629 net.cpp:156] Memory required for data: 1304469024
I0403 18:09:17.558957  6629 layer_factory.hpp:77] Creating layer inception_5a/pool_proj
I0403 18:09:17.558979  6629 net.cpp:91] Creating Layer inception_5a/pool_proj
I0403 18:09:17.558997  6629 net.cpp:425] inception_5a/pool_proj <- inception_5a/pool
I0403 18:09:17.559021  6629 net.cpp:399] inception_5a/pool_proj -> inception_5a/pool_proj
I0403 18:09:17.561339  6629 net.cpp:141] Setting up inception_5a/pool_proj
I0403 18:09:17.561368  6629 net.cpp:148] Top shape: 24 128 7 7 (150528)
I0403 18:09:17.561388  6629 net.cpp:156] Memory required for data: 1305071136
I0403 18:09:17.561408  6629 layer_factory.hpp:77] Creating layer inception_5a/relu_pool_proj
I0403 18:09:17.561429  6629 net.cpp:91] Creating Layer inception_5a/relu_pool_proj
I0403 18:09:17.561446  6629 net.cpp:425] inception_5a/relu_pool_proj <- inception_5a/pool_proj
I0403 18:09:17.561468  6629 net.cpp:386] inception_5a/relu_pool_proj -> inception_5a/pool_proj (in-place)
I0403 18:09:17.561766  6629 net.cpp:141] Setting up inception_5a/relu_pool_proj
I0403 18:09:17.561797  6629 net.cpp:148] Top shape: 24 128 7 7 (150528)
I0403 18:09:17.561817  6629 net.cpp:156] Memory required for data: 1305673248
I0403 18:09:17.561841  6629 layer_factory.hpp:77] Creating layer inception_5a/output
I0403 18:09:17.561868  6629 net.cpp:91] Creating Layer inception_5a/output
I0403 18:09:17.561893  6629 net.cpp:425] inception_5a/output <- inception_5a/1x1
I0403 18:09:17.561910  6629 net.cpp:425] inception_5a/output <- inception_5a/3x3
I0403 18:09:17.561926  6629 net.cpp:425] inception_5a/output <- inception_5a/5x5
I0403 18:09:17.561944  6629 net.cpp:425] inception_5a/output <- inception_5a/pool_proj
I0403 18:09:17.561962  6629 net.cpp:399] inception_5a/output -> inception_5a/output
I0403 18:09:17.562013  6629 net.cpp:141] Setting up inception_5a/output
I0403 18:09:17.562041  6629 net.cpp:148] Top shape: 24 832 7 7 (978432)
I0403 18:09:17.562057  6629 net.cpp:156] Memory required for data: 1309586976
I0403 18:09:17.562070  6629 layer_factory.hpp:77] Creating layer inception_5a/output_inception_5a/output_0_split
I0403 18:09:17.562088  6629 net.cpp:91] Creating Layer inception_5a/output_inception_5a/output_0_split
I0403 18:09:17.562115  6629 net.cpp:425] inception_5a/output_inception_5a/output_0_split <- inception_5a/output
I0403 18:09:17.562137  6629 net.cpp:399] inception_5a/output_inception_5a/output_0_split -> inception_5a/output_inception_5a/output_0_split_0
I0403 18:09:17.562158  6629 net.cpp:399] inception_5a/output_inception_5a/output_0_split -> inception_5a/output_inception_5a/output_0_split_1
I0403 18:09:17.562180  6629 net.cpp:399] inception_5a/output_inception_5a/output_0_split -> inception_5a/output_inception_5a/output_0_split_2
I0403 18:09:17.562201  6629 net.cpp:399] inception_5a/output_inception_5a/output_0_split -> inception_5a/output_inception_5a/output_0_split_3
I0403 18:09:17.562330  6629 net.cpp:141] Setting up inception_5a/output_inception_5a/output_0_split
I0403 18:09:17.562355  6629 net.cpp:148] Top shape: 24 832 7 7 (978432)
I0403 18:09:17.562376  6629 net.cpp:148] Top shape: 24 832 7 7 (978432)
I0403 18:09:17.562392  6629 net.cpp:148] Top shape: 24 832 7 7 (978432)
I0403 18:09:17.562409  6629 net.cpp:148] Top shape: 24 832 7 7 (978432)
I0403 18:09:17.562424  6629 net.cpp:156] Memory required for data: 1325241888
I0403 18:09:17.562439  6629 layer_factory.hpp:77] Creating layer inception_5b/1x1
I0403 18:09:17.562460  6629 net.cpp:91] Creating Layer inception_5b/1x1
I0403 18:09:17.562479  6629 net.cpp:425] inception_5b/1x1 <- inception_5a/output_inception_5a/output_0_split_0
I0403 18:09:17.562500  6629 net.cpp:399] inception_5b/1x1 -> inception_5b/1x1
I0403 18:09:17.566470  6629 net.cpp:141] Setting up inception_5b/1x1
I0403 18:09:17.566501  6629 net.cpp:148] Top shape: 24 384 7 7 (451584)
I0403 18:09:17.566516  6629 net.cpp:156] Memory required for data: 1327048224
I0403 18:09:17.566536  6629 layer_factory.hpp:77] Creating layer inception_5b/relu_1x1
I0403 18:09:17.566555  6629 net.cpp:91] Creating Layer inception_5b/relu_1x1
I0403 18:09:17.566570  6629 net.cpp:425] inception_5b/relu_1x1 <- inception_5b/1x1
I0403 18:09:17.566591  6629 net.cpp:386] inception_5b/relu_1x1 -> inception_5b/1x1 (in-place)
I0403 18:09:17.566906  6629 net.cpp:141] Setting up inception_5b/relu_1x1
I0403 18:09:17.566932  6629 net.cpp:148] Top shape: 24 384 7 7 (451584)
I0403 18:09:17.566947  6629 net.cpp:156] Memory required for data: 1328854560
I0403 18:09:17.566962  6629 layer_factory.hpp:77] Creating layer inception_5b/3x3_reduce
I0403 18:09:17.566985  6629 net.cpp:91] Creating Layer inception_5b/3x3_reduce
I0403 18:09:17.567004  6629 net.cpp:425] inception_5b/3x3_reduce <- inception_5a/output_inception_5a/output_0_split_1
I0403 18:09:17.567029  6629 net.cpp:399] inception_5b/3x3_reduce -> inception_5b/3x3_reduce
I0403 18:09:17.569800  6629 net.cpp:141] Setting up inception_5b/3x3_reduce
I0403 18:09:17.569830  6629 net.cpp:148] Top shape: 24 192 7 7 (225792)
I0403 18:09:17.569846  6629 net.cpp:156] Memory required for data: 1329757728
I0403 18:09:17.569865  6629 layer_factory.hpp:77] Creating layer inception_5b/relu_3x3_reduce
I0403 18:09:17.569886  6629 net.cpp:91] Creating Layer inception_5b/relu_3x3_reduce
I0403 18:09:17.569903  6629 net.cpp:425] inception_5b/relu_3x3_reduce <- inception_5b/3x3_reduce
I0403 18:09:17.569922  6629 net.cpp:386] inception_5b/relu_3x3_reduce -> inception_5b/3x3_reduce (in-place)
I0403 18:09:17.570121  6629 net.cpp:141] Setting up inception_5b/relu_3x3_reduce
I0403 18:09:17.570147  6629 net.cpp:148] Top shape: 24 192 7 7 (225792)
I0403 18:09:17.570161  6629 net.cpp:156] Memory required for data: 1330660896
I0403 18:09:17.570178  6629 layer_factory.hpp:77] Creating layer inception_5b/3x3
I0403 18:09:17.570200  6629 net.cpp:91] Creating Layer inception_5b/3x3
I0403 18:09:17.570225  6629 net.cpp:425] inception_5b/3x3 <- inception_5b/3x3_reduce
I0403 18:09:17.570250  6629 net.cpp:399] inception_5b/3x3 -> inception_5b/3x3
I0403 18:09:17.577219  6629 net.cpp:141] Setting up inception_5b/3x3
I0403 18:09:17.577252  6629 net.cpp:148] Top shape: 24 384 7 7 (451584)
I0403 18:09:17.577268  6629 net.cpp:156] Memory required for data: 1332467232
I0403 18:09:17.577287  6629 layer_factory.hpp:77] Creating layer inception_5b/relu_3x3
I0403 18:09:17.577307  6629 net.cpp:91] Creating Layer inception_5b/relu_3x3
I0403 18:09:17.577323  6629 net.cpp:425] inception_5b/relu_3x3 <- inception_5b/3x3
I0403 18:09:17.577342  6629 net.cpp:386] inception_5b/relu_3x3 -> inception_5b/3x3 (in-place)
I0403 18:09:17.577642  6629 net.cpp:141] Setting up inception_5b/relu_3x3
I0403 18:09:17.577668  6629 net.cpp:148] Top shape: 24 384 7 7 (451584)
I0403 18:09:17.577683  6629 net.cpp:156] Memory required for data: 1334273568
I0403 18:09:17.577697  6629 layer_factory.hpp:77] Creating layer inception_5b/5x5_reduce
I0403 18:09:17.577741  6629 net.cpp:91] Creating Layer inception_5b/5x5_reduce
I0403 18:09:17.577760  6629 net.cpp:425] inception_5b/5x5_reduce <- inception_5a/output_inception_5a/output_0_split_2
I0403 18:09:17.577782  6629 net.cpp:399] inception_5b/5x5_reduce -> inception_5b/5x5_reduce
I0403 18:09:17.579071  6629 net.cpp:141] Setting up inception_5b/5x5_reduce
I0403 18:09:17.579099  6629 net.cpp:148] Top shape: 24 48 7 7 (56448)
I0403 18:09:17.579114  6629 net.cpp:156] Memory required for data: 1334499360
I0403 18:09:17.579133  6629 layer_factory.hpp:77] Creating layer inception_5b/relu_5x5_reduce
I0403 18:09:17.579150  6629 net.cpp:91] Creating Layer inception_5b/relu_5x5_reduce
I0403 18:09:17.579166  6629 net.cpp:425] inception_5b/relu_5x5_reduce <- inception_5b/5x5_reduce
I0403 18:09:17.579185  6629 net.cpp:386] inception_5b/relu_5x5_reduce -> inception_5b/5x5_reduce (in-place)
I0403 18:09:17.579574  6629 net.cpp:141] Setting up inception_5b/relu_5x5_reduce
I0403 18:09:17.579602  6629 net.cpp:148] Top shape: 24 48 7 7 (56448)
I0403 18:09:17.579617  6629 net.cpp:156] Memory required for data: 1334725152
I0403 18:09:17.579632  6629 layer_factory.hpp:77] Creating layer inception_5b/5x5
I0403 18:09:17.579653  6629 net.cpp:91] Creating Layer inception_5b/5x5
I0403 18:09:17.579669  6629 net.cpp:425] inception_5b/5x5 <- inception_5b/5x5_reduce
I0403 18:09:17.579689  6629 net.cpp:399] inception_5b/5x5 -> inception_5b/5x5
I0403 18:09:17.581809  6629 net.cpp:141] Setting up inception_5b/5x5
I0403 18:09:17.581837  6629 net.cpp:148] Top shape: 24 128 7 7 (150528)
I0403 18:09:17.581853  6629 net.cpp:156] Memory required for data: 1335327264
I0403 18:09:17.581871  6629 layer_factory.hpp:77] Creating layer inception_5b/relu_5x5
I0403 18:09:17.581892  6629 net.cpp:91] Creating Layer inception_5b/relu_5x5
I0403 18:09:17.581909  6629 net.cpp:425] inception_5b/relu_5x5 <- inception_5b/5x5
I0403 18:09:17.581926  6629 net.cpp:386] inception_5b/relu_5x5 -> inception_5b/5x5 (in-place)
I0403 18:09:17.582120  6629 net.cpp:141] Setting up inception_5b/relu_5x5
I0403 18:09:17.582147  6629 net.cpp:148] Top shape: 24 128 7 7 (150528)
I0403 18:09:17.582162  6629 net.cpp:156] Memory required for data: 1335929376
I0403 18:09:17.582177  6629 layer_factory.hpp:77] Creating layer inception_5b/pool
I0403 18:09:17.582195  6629 net.cpp:91] Creating Layer inception_5b/pool
I0403 18:09:17.582222  6629 net.cpp:425] inception_5b/pool <- inception_5a/output_inception_5a/output_0_split_3
I0403 18:09:17.582247  6629 net.cpp:399] inception_5b/pool -> inception_5b/pool
I0403 18:09:17.582321  6629 net.cpp:141] Setting up inception_5b/pool
I0403 18:09:17.582345  6629 net.cpp:148] Top shape: 24 832 7 7 (978432)
I0403 18:09:17.582360  6629 net.cpp:156] Memory required for data: 1339843104
I0403 18:09:17.582376  6629 layer_factory.hpp:77] Creating layer inception_5b/pool_proj
I0403 18:09:17.582397  6629 net.cpp:91] Creating Layer inception_5b/pool_proj
I0403 18:09:17.582415  6629 net.cpp:425] inception_5b/pool_proj <- inception_5b/pool
I0403 18:09:17.582438  6629 net.cpp:399] inception_5b/pool_proj -> inception_5b/pool_proj
I0403 18:09:17.584777  6629 net.cpp:141] Setting up inception_5b/pool_proj
I0403 18:09:17.584807  6629 net.cpp:148] Top shape: 24 128 7 7 (150528)
I0403 18:09:17.584823  6629 net.cpp:156] Memory required for data: 1340445216
I0403 18:09:17.584844  6629 layer_factory.hpp:77] Creating layer inception_5b/relu_pool_proj
I0403 18:09:17.584866  6629 net.cpp:91] Creating Layer inception_5b/relu_pool_proj
I0403 18:09:17.584882  6629 net.cpp:425] inception_5b/relu_pool_proj <- inception_5b/pool_proj
I0403 18:09:17.584899  6629 net.cpp:386] inception_5b/relu_pool_proj -> inception_5b/pool_proj (in-place)
I0403 18:09:17.585197  6629 net.cpp:141] Setting up inception_5b/relu_pool_proj
I0403 18:09:17.585227  6629 net.cpp:148] Top shape: 24 128 7 7 (150528)
I0403 18:09:17.585243  6629 net.cpp:156] Memory required for data: 1341047328
I0403 18:09:17.585258  6629 layer_factory.hpp:77] Creating layer inception_5b/output
I0403 18:09:17.585275  6629 net.cpp:91] Creating Layer inception_5b/output
I0403 18:09:17.585305  6629 net.cpp:425] inception_5b/output <- inception_5b/1x1
I0403 18:09:17.585324  6629 net.cpp:425] inception_5b/output <- inception_5b/3x3
I0403 18:09:17.585340  6629 net.cpp:425] inception_5b/output <- inception_5b/5x5
I0403 18:09:17.585356  6629 net.cpp:425] inception_5b/output <- inception_5b/pool_proj
I0403 18:09:17.585376  6629 net.cpp:399] inception_5b/output -> inception_5b/output
I0403 18:09:17.585432  6629 net.cpp:141] Setting up inception_5b/output
I0403 18:09:17.585454  6629 net.cpp:148] Top shape: 24 1024 7 7 (1204224)
I0403 18:09:17.585470  6629 net.cpp:156] Memory required for data: 1345864224
I0403 18:09:17.585484  6629 layer_factory.hpp:77] Creating layer pool5/7x7_s1
I0403 18:09:17.585501  6629 net.cpp:91] Creating Layer pool5/7x7_s1
I0403 18:09:17.585518  6629 net.cpp:425] pool5/7x7_s1 <- inception_5b/output
I0403 18:09:17.585539  6629 net.cpp:399] pool5/7x7_s1 -> pool5/7x7_s1
I0403 18:09:17.585757  6629 net.cpp:141] Setting up pool5/7x7_s1
I0403 18:09:17.585783  6629 net.cpp:148] Top shape: 24 1024 1 1 (24576)
I0403 18:09:17.585798  6629 net.cpp:156] Memory required for data: 1345962528
I0403 18:09:17.585811  6629 layer_factory.hpp:77] Creating layer pool5/drop_7x7_s1
I0403 18:09:17.585834  6629 net.cpp:91] Creating Layer pool5/drop_7x7_s1
I0403 18:09:17.585851  6629 net.cpp:425] pool5/drop_7x7_s1 <- pool5/7x7_s1
I0403 18:09:17.585868  6629 net.cpp:386] pool5/drop_7x7_s1 -> pool5/7x7_s1 (in-place)
I0403 18:09:17.585919  6629 net.cpp:141] Setting up pool5/drop_7x7_s1
I0403 18:09:17.585942  6629 net.cpp:148] Top shape: 24 1024 1 1 (24576)
I0403 18:09:17.585958  6629 net.cpp:156] Memory required for data: 1346060832
I0403 18:09:17.585973  6629 layer_factory.hpp:77] Creating layer loss3/classifier_plantvillage
I0403 18:09:17.585991  6629 net.cpp:91] Creating Layer loss3/classifier_plantvillage
I0403 18:09:17.586009  6629 net.cpp:425] loss3/classifier_plantvillage <- pool5/7x7_s1
I0403 18:09:17.586030  6629 net.cpp:399] loss3/classifier_plantvillage -> loss3/classifier_plantvillage
I0403 18:09:17.586467  6629 net.cpp:141] Setting up loss3/classifier_plantvillage
I0403 18:09:17.586493  6629 net.cpp:148] Top shape: 24 38 (912)
I0403 18:09:17.586508  6629 net.cpp:156] Memory required for data: 1346064480
I0403 18:09:17.586525  6629 layer_factory.hpp:77] Creating layer loss3/classifier_plantvillage_loss3/classifier_plantvillage_0_split
I0403 18:09:17.586547  6629 net.cpp:91] Creating Layer loss3/classifier_plantvillage_loss3/classifier_plantvillage_0_split
I0403 18:09:17.586565  6629 net.cpp:425] loss3/classifier_plantvillage_loss3/classifier_plantvillage_0_split <- loss3/classifier_plantvillage
I0403 18:09:17.586585  6629 net.cpp:399] loss3/classifier_plantvillage_loss3/classifier_plantvillage_0_split -> loss3/classifier_plantvillage_loss3/classifier_plantvillage_0_split_0
I0403 18:09:17.586606  6629 net.cpp:399] loss3/classifier_plantvillage_loss3/classifier_plantvillage_0_split -> loss3/classifier_plantvillage_loss3/classifier_plantvillage_0_split_1
I0403 18:09:17.586627  6629 net.cpp:399] loss3/classifier_plantvillage_loss3/classifier_plantvillage_0_split -> loss3/classifier_plantvillage_loss3/classifier_plantvillage_0_split_2
I0403 18:09:17.586647  6629 net.cpp:399] loss3/classifier_plantvillage_loss3/classifier_plantvillage_0_split -> loss3/classifier_plantvillage_loss3/classifier_plantvillage_0_split_3
I0403 18:09:17.586747  6629 net.cpp:141] Setting up loss3/classifier_plantvillage_loss3/classifier_plantvillage_0_split
I0403 18:09:17.586771  6629 net.cpp:148] Top shape: 24 38 (912)
I0403 18:09:17.586787  6629 net.cpp:148] Top shape: 24 38 (912)
I0403 18:09:17.586803  6629 net.cpp:148] Top shape: 24 38 (912)
I0403 18:09:17.586818  6629 net.cpp:148] Top shape: 24 38 (912)
I0403 18:09:17.586832  6629 net.cpp:156] Memory required for data: 1346079072
I0403 18:09:17.586848  6629 layer_factory.hpp:77] Creating layer loss1/loss
I0403 18:09:17.586869  6629 net.cpp:91] Creating Layer loss1/loss
I0403 18:09:17.586886  6629 net.cpp:425] loss1/loss <- loss1/classifier_plantvillage_loss1/classifier_plantvillage_0_split_0
I0403 18:09:17.586916  6629 net.cpp:425] loss1/loss <- label_data_1_split_0
…
