…
I0403 18:12:48.623198  6696 net.cpp:313] The NetState phase (1) differed from the phase (0) specified by a rule in layer data
I0403 18:12:48.624411  6696 net.cpp:49] Initializing net from parameters: 
state {
  phase: TEST
}
layer {
  name: "data"
  type: "Data"
  top: "data"
  top: "label"
  include {
    phase: TEST
  }
  transform_param {
    mirror: false
    crop_size: 224
    mean_file: "/home/mohanty/data/final_dataset/lmdb/segmented-50-50/mean.binaryproto"
  }
  data_param {
    source: "/home/mohanty/data/final_dataset/lmdb/segmented-50-50/test_db"
    batch_size: 24
    backend: LMDB
  }
}
layer {
  name: "conv1/7x7_s2"
  type: "Convolution"
  bottom: "data"
  top: "conv1/7x7_s2"
  param {
    lr_mult: 1
    decay_mult: 1
  }
  param {
    lr_mult: 2
    decay_mult: 0
  }
  convolution_param {
    num_output: 64
    pad: 3
    kernel_size: 7
    stride: 2
    weight_filler {
      type: "xavier"
      std: 0.1
    }
    bias_filler {
      type: "constant"
      value: 0.2
    }
  }
}
layer {
  name: "conv1/relu_7x7"
  type: "ReLU"
  bottom: "conv1/7x7_s2"
  top: "conv1/7x7_s2"
}
layer {
  name: "pool1/3x3_s2"
  type: "Pooling"
  bottom: "conv1/7x7_s2"
  top: "pool1/3x3_s2"
  pooling_param {
    pool: MAX
    kernel_size: 3
    stride: 2
  }
}
layer {
  name: "pool1/norm1"
  type: "LRN"
  bottom: "pool1/3x3_s2"
  top: "pool1/norm1"
  lrn_param {
    local_size: 5
    alpha: 0.0001
    beta: 0.75
  }
}
layer {
  name: "conv2/3x3_reduce"
  type: "Convolution"
  bottom: "pool1/norm1"
  top: "conv2/3x3_reduce"
  param {
    lr_mult: 1
    decay_mult: 1
  }
  param {
    lr_mult: 2
    decay_mult: 0
  }
  convolution_param {
    num_output: 64
    kernel_size: 1
    weight_filler {
      type: "xavier"
      std: 0.1
    }
    bias_filler {
      type: "constant"
      value: 0.2
    }
  }
}
layer {
  name: "conv2/relu_3x3_reduce"
  type: "ReLU"
  bottom: "conv2/3x3_reduce"
  top: "conv2/3x3_reduce"
}
layer {
  name: "conv2/3x3"
  type: "Convolution"
  bottom: "conv2/3x3_reduce"
  top: "conv2/3x3"
  param {
    lr_mult: 1
    decay_mult: 1
  }
  param {
    lr_mult: 2
    decay_mult: 0
  }
  convolution_param {
    num_output: 192
    pad: 1
    kernel_size: 3
    weight_filler {
      type: "xavier"
      std: 0.03
    }
    bias_filler {
      type: "constant"
      value: 0.2
    }
  }
}
layer {
  name: "conv2/relu_3x3"
  type: "ReLU"
  bottom: "conv2/3x3"
  top: "conv2/3x3"
}
layer {
  name: "conv2/norm2"
  type: "LRN"
  bottom: "conv2/3x3"
  top: "conv2/norm2"
  lrn_param {
    local_size: 5
    alpha: 0.0001
    beta: 0.75
  }
}
layer {
  name: "pool2/3x3_s2"
  type: "Pooling"
  bottom: "conv2/norm2"
  top: "pool2/3x3_s2"
  pooling_param {
    pool: MAX
    kernel_size: 3
    stride: 2
  }
}
layer {
  name: "inception_3a/1x1"
  type: "Convolution"
  bottom: "pool2/3x3_s2"
  top: "inception_3a/1x1"
  param {
    lr_mult: 1
    decay_mult: 1
  }
  param {
    lr_mult: 2
    decay_mult: 0
  }
  convolution_param {
    num_output: 64
    kernel_size: 1
    weight_filler {
      type: "xavier"
      std: 0.03
    }
    bias_filler {
      type: "constant"
      value: 0.2
    }
  }
}
layer {
  name: "inception_3a/relu_1x1"
  type: "ReLU"
  bottom: "inception_3a/1x1"
  top: "inception_3a/1x1"
}
layer {
  name: "inception_3a/3x3_reduce"
  type: "Convolution"
  bottom: "pool2/3x3_s2"
  top: "inception_3a/3x3_reduce"
  param {
    lr_mult: 1
    decay_mult: 1
  }
  param {
    lr_mult: 2
    decay_mult: 0
  }
  convolution_param {
    num_output: 96
    kernel_size: 1
    weight_filler {
      type: "xavier"
      std: 0.09
    }
    bias_filler {
      type: "constant"
      value: 0.2
    }
  }
}
layer {
  name: "inception_3a/relu_3x3_reduce"
  type: "ReLU"
  bottom: "inception_3a/3x3_reduce"
  top: "inception_3a/3x3_reduce"
}
layer {
  name: "inception_3a/3x3"
  type: "Convolution"
  bottom: "inception_3a/3x3_reduce"
  top: "inception_3a/3x3"
  param {
    lr_mult: 1
    decay_mult: 1
  }
  param {
    lr_mult: 2
    decay_mult: 0
  }
  convolution_param {
    num_output: 128
    pad: 1
    kernel_size: 3
    weight_filler {
      type: "xavier"
      std: 0.03
    }
    bias_filler {
      type: "constant"
      value: 0.2
    }
  }
}
layer {
  name: "inception_3a/relu_3x3"
  type: "ReLU"
  bottom: "inception_3a/3x3"
  top: "inception_3a/3x3"
}
layer {
  name: "inception_3a/5x5_reduce"
  type: "Convolution"
  bottom: "pool2/3x3_s2"
  top: "inception_3a/5x5_reduce"
  param {
    lr_mult: 1
    decay_mult: 1
  }
  param {
    lr_mult: 2
    decay_mult: 0
  }
  convolution_param {
    num_output: 16
    kernel_size: 1
    weight_filler {
      type: "xavier"
      std: 0.2
    }
    bias_filler {
      type: "constant"
      value: 0.2
    }
  }
}
layer {
  name: "inception_3a/relu_5x5_reduce"
  type: "ReLU"
  bottom: "inception_3a/5x5_reduce"
  top: "inception_3a/5x5_reduce"
}
layer {
  name: "inception_3a/5x5"
  type: "Convolution"
  bottom: "inception_3a/5x5_reduce"
  top: "inception_3a/5x5"
  param {
    lr_mult: 1
    decay_mult: 1
  }
  param {
    lr_mult: 2
    decay_mult: 0
  }
  convolution_param {
    num_output: 32
    pad: 2
    kernel_size: 5
    weight_filler {
      type: "xavier"
      std: 0.03
    }
    bias_filler {
      type: "constant"
      value: 0.2
    }
  }
}
layer {
  name: "inception_3a/relu_5x5"
  type: "ReLU"
  bottom: "inception_3a/5x5"
  top: "inception_3a/5x5"
}
layer {
  name: "inception_3a/pool"
  type: "Pooling"
  bottom: "pool2/3x3_s2"
  top: "inception_3a/pool"
  pooling_param {
    pool: MAX
    kernel_size: 3
    stride: 1
    pad: 1
  }
}
layer {
  name: "inception_3a/pool_proj"
  type: "Convolution"
  bottom: "inception_3a/pool"
  top: "inception_3a/pool_proj"
  param {
    lr_mult: 1
    decay_mult: 1
  }
  param {
    lr_mult: 2
    decay_mult: 0
  }
  convolution_param {
    num_output: 32
    kernel_size: 1
    weight_filler {
      type: "xavier"
      std: 0.1
    }
    bias_filler {
      type: "constant"
      value: 0.2
    }
  }
}
layer {
  name: "inception_3a/relu_pool_proj"
  type: "ReLU"
  bottom: "inception_3a/pool_proj"
  top: "inception_3a/pool_proj"
}
layer {
  name: "inception_3a/output"
  type: "Concat"
  bottom: "inception_3a/1x1"
  bottom: "inception_3a/3x3"
  bottom: "inception_3a/5x5"
  bottom: "inception_3a/pool_proj"
  top: "inception_3a/output"
}
layer {
  name: "inception_3b/1x1"
  type: "Convolution"
  bottom: "inception_3a/output"
  top: "inception_3b/1x1"
  param {
    lr_mult: 1
    decay_mult: 1
  }
  param {
    lr_mult: 2
    decay_mult: 0
  }
  convolution_param {
    num_output: 128
    kernel_size: 1
    weight_filler {
      type: "xavier"
      std: 0.03
    }
    bias_filler {
      type: "constant"
      value: 0.2
    }
  }
}
layer {
  name: "inception_3b/relu_1x1"
  type: "ReLU"
  bottom: "inception_3b/1x1"
  top: "inception_3b/1x1"
}
layer {
  name: "inception_3b/3x3_reduce"
  type: "Convolution"
  bottom: "inception_3a/output"
  top: "inception_3b/3x3_reduce"
  param {
    lr_mult: 1
    decay_mult: 1
  }
  param {
    lr_mult: 2
    decay_mult: 0
  }
  convolution_param {
    num_output: 128
    kernel_size: 1
    weight_filler {
      type: "xavier"
      std: 0.09
    }
    bias_filler {
      type: "constant"
      value: 0.2
    }
  }
}
layer {
  name: "inception_3b/relu_3x3_reduce"
  type: "ReLU"
  bottom: "inception_3b/3x3_reduce"
  top: "inception_3b/3x3_reduce"
}
layer {
  name: "inception_3b/3x3"
  type: "Convolution"
  bottom: "inception_3b/3x3_reduce"
  top: "inception_3b/3x3"
  param {
    lr_mult: 1
    decay_mult: 1
  }
  param {
    lr_mult: 2
    decay_mult: 0
  }
  convolution_param {
    num_output: 192
    pad: 1
    kernel_size: 3
    weight_filler {
      type: "xavier"
      std: 0.03
    }
    bias_filler {
      type: "constant"
      value: 0.2
    }
  }
}
layer {
  name: "inception_3b/relu_3x3"
  type: "ReLU"
  bottom: "inception_3b/3x3"
  top: "inception_3b/3x3"
}
layer {
  name: "inception_3b/5x5_reduce"
  type: "Convolution"
  bottom: "inception_3a/output"
  top: "inception_3b/5x5_reduce"
  param {
    lr_mult: 1
    decay_mult: 1
  }
  param {
    lr_mult: 2
    decay_mult: 0
  }
  convolution_param {
    num_output: 32
    kernel_size: 1
    weight_filler {
      type: "xavier"
      std: 0.2
    }
    bias_filler {
      type: "constant"
      value: 0.2
    }
  }
}
layer {
  name: "inception_3b/relu_5x5_reduce"
  type: "ReLU"
  bottom: "inception_3b/5x5_reduce"
  top: "inception_3b/5x5_reduce"
}
layer {
  name: "inception_3b/5x5"
  type: "Convolution"
  bottom: "inception_3b/5x5_reduce"
  top: "inception_3b/5x5"
  param {
    lr_mult: 1
    decay_mult: 1
  }
  param {
    lr_mult: 2
    decay_mult: 0
  }
  convolution_param {
    num_output: 96
    pad: 2
    kernel_size: 5
    weight_filler {
      type: "xavier"
      std: 0.03
    }
    bias_filler {
      type: "constant"
      value: 0.2
    }
  }
}
layer {
  name: "inception_3b/relu_5x5"
  type: "ReLU"
  bottom: "inception_3b/5x5"
  top: "inception_3b/5x5"
}
layer {
  name: "inception_3b/pool"
  type: "Pooling"
  bottom: "inception_3a/output"
  top: "inception_3b/pool"
  pooling_param {
    pool: MAX
    kernel_size: 3
    stride: 1
    pad: 1
  }
}
layer {
  name: "inception_3b/pool_proj"
  type: "Convolution"
  bottom: "inception_3b/pool"
  top: "inception_3b/pool_proj"
  param {
    lr_mult: 1
    decay_mult: 1
  }
  param {
    lr_mult: 2
    decay_mult: 0
  }
  convolution_param {
    num_output: 64
    kernel_size: 1
    weight_filler {
      type: "xavier"
      std: 0.1
    }
    bias_filler {
      type: "constant"
      value: 0.2
    }
  }
}
layer {
  name: "inception_3b/relu_pool_proj"
  type: "ReLU"
  bottom: "inception_3b/pool_proj"
  top: "inception_3b/pool_proj"
}
layer {
  name: "inception_3b/output"
  type: "Concat"
  bottom: "inception_3b/1x1"
  bottom: "inception_3b/3x3"
  bottom: "inception_3b/5x5"
  bottom: "inception_3b/pool_proj"
  top: "inception_3b/output"
}
layer {
  name: "pool3/3x3_s2"
  type: "Pooling"
  bottom: "inception_3b/output"
  top: "pool3/3x3_s2"
  pooling_param {
    pool: MAX
    kernel_size: 3
    stride: 2
  }
}
layer {
  name: "inception_4a/1x1"
  type: "Convolution"
  bottom: "pool3/3x3_s2"
  top: "inception_4a/1x1"
  param {
    lr_mult: 1
    decay_mult: 1
  }
  param {
    lr_mult: 2
    decay_mult: 0
  }
  convolution_param {
    num_output: 192
    kernel_size: 1
    weight_filler {
      type: "xavier"
      std: 0.03
    }
    bias_filler {
      type: "constant"
      value: 0.2
    }
  }
}
layer {
  name: "inception_4a/relu_1x1"
  type: "ReLU"
  bottom: "inception_4a/1x1"
  top: "inception_4a/1x1"
}
layer {
  name: "inception_4a/3x3_reduce"
  type: "Convolution"
  bottom: "pool3/3x3_s2"
  top: "inception_4a/3x3_reduce"
  param {
    lr_mult: 1
    decay_mult: 1
  }
  param {
    lr_mult: 2
    decay_mult: 0
  }
  convolution_param {
    num_output: 96
    kernel_size: 1
    weight_filler {
      type: "xavier"
      std: 0.09
    }
    bias_filler {
      type: "constant"
      value: 0.2
    }
  }
}
layer {
  name: "inception_4a/relu_3x3_reduce"
  type: "ReLU"
  bottom: "inception_4a/3x3_reduce"
  top: "inception_4a/3x3_reduce"
}
layer {
  name: "inception_4a/3x3"
  type: "Convolution"
  bottom: "inception_4a/3x3_reduce"
  top: "inception_4a/3x3"
  param {
    lr_mult: 1
    decay_mult: 1
  }
  param {
    lr_mult: 2
    decay_mult: 0
  }
  convolution_param {
    num_output: 208
    pad: 1
    kernel_size: 3
    weight_filler {
      type: "xavier"
      std: 0.03
    }
    bias_filler {
      type: "constant"
      value: 0.2
    }
  }
}
layer {
  name: "inception_4a/relu_3x3"
  type: "ReLU"
  bottom: "inception_4a/3x3"
  top: "inception_4a/3x3"
}
layer {
  name: "inception_4a/5x5_reduce"
  type: "Convolution"
  bottom: "pool3/3x3_s2"
  top: "inception_4a/5x5_reduce"
  param {
    lr_mult: 1
    decay_mult: 1
  }
  param {
    lr_mult: 2
    decay_mult: 0
  }
  convolution_param {
    num_output: 16
    kernel_size: 1
    weight_filler {
      type: "xavier"
      std: 0.2
    }
    bias_filler {
      type: "constant"
      value: 0.2
    }
  }
}
layer {
  name: "inception_4a/relu_5x5_reduce"
  type: "ReLU"
  bottom: "inception_4a/5x5_reduce"
  top: "inception_4a/5x5_reduce"
}
layer {
  name: "inception_4a/5x5"
  type: "Convolution"
  bottom: "inception_4a/5x5_reduce"
  top: "inception_4a/5x5"
  param {
    lr_mult: 1
    decay_mult: 1
  }
  param {
    lr_mult: 2
    decay_mult: 0
  }
  convolution_param {
    num_output: 48
    pad: 2
    kernel_size: 5
    weight_filler {
      type: "xavier"
      std: 0.03
    }
    bias_filler {
      type: "constant"
      value: 0.2
    }
  }
}
layer {
  name: "inception_4a/relu_5x5"
  type: "ReLU"
  bottom: "inception_4a/5x5"
  top: "inception_4a/5x5"
}
layer {
  name: "inception_4a/pool"
  type: "Pooling"
  bottom: "pool3/3x3_s2"
  top: "inception_4a/pool"
  pooling_param {
    pool: MAX
    kernel_size: 3
    stride: 1
    pad: 1
  }
}
layer {
  name: "inception_4a/pool_proj"
  type: "Convolution"
  bottom: "inception_4a/pool"
  top: "inception_4a/pool_proj"
  param {
    lr_mult: 1
    decay_mult: 1
  }
  param {
    lr_mult: 2
    decay_mult: 0
  }
  convolution_param {
    num_output: 64
    kernel_size: 1
    weight_filler {
      type: "xavier"
      std: 0.1
    }
    bias_filler {
      type: "constant"
      value: 0.2
    }
  }
}
layer {
  name: "inception_4a/relu_pool_proj"
  type: "ReLU"
  bottom: "inception_4a/pool_proj"
  top: "inception_4a/pool_proj"
}
layer {
  name: "inception_4a/output"
  type: "Concat"
  bottom: "inception_4a/1x1"
  bottom: "inception_4a/3x3"
  bottom: "inception_4a/5x5"
  bottom: "inception_4a/pool_proj"
  top: "inception_4a/output"
}
layer {
  name: "loss1/ave_pool"
  type: "Pooling"
  bottom: "inception_4a/output"
  top: "loss1/ave_pool"
  pooling_param {
    pool: AVE
    kernel_size: 5
    stride: 3
  }
}
layer {
  name: "loss1/conv"
  type: "Convolution"
  bottom: "loss1/ave_pool"
  top: "loss1/conv"
  param {
    lr_mult: 1
    decay_mult: 1
  }
  param {
    lr_mult: 2
    decay_mult: 0
  }
  convolution_param {
    num_output: 128
    kernel_size: 1
    weight_filler {
      type: "xavier"
      std: 0.08
    }
    bias_filler {
      type: "constant"
      value: 0.2
    }
  }
}
layer {
  name: "loss1/relu_conv"
  type: "ReLU"
  bottom: "loss1/conv"
  top: "loss1/conv"
}
layer {
  name: "loss1/fc"
  type: "InnerProduct"
  bottom: "loss1/conv"
  top: "loss1/fc"
  param {
    lr_mult: 1
    decay_mult: 1
  }
  param {
    lr_mult: 2
    decay_mult: 0
  }
  inner_product_param {
    num_output: 1024
    weight_filler {
      type: "xavier"
      std: 0.02
    }
    bias_filler {
      type: "constant"
      value: 0.2
    }
  }
}
layer {
  name: "loss1/relu_fc"
  type: "ReLU"
  bottom: "loss1/fc"
  top: "loss1/fc"
}
layer {
  name: "loss1/drop_fc"
  type: "Dropout"
  bottom: "loss1/fc"
  top: "loss1/fc"
  dropout_param {
    dropout_ratio: 0.7
  }
}
layer {
  name: "loss1/classifier_plantvillage"
  type: "InnerProduct"
  bottom: "loss1/fc"
  top: "loss1/classifier_plantvillage"
  param {
    lr_mult: 1
    decay_mult: 1
  }
  param {
    lr_mult: 2
    decay_mult: 0
  }
  inner_product_param {
    num_output: 38
    weight_filler {
      type: "xavier"
      std: 0.0009765625
    }
    bias_filler {
      type: "constant"
      value: 0
    }
  }
}
layer {
  name: "inception_4b/1x1"
  type: "Convolution"
  bottom: "inception_4a/output"
  top: "inception_4b/1x1"
  param {
    lr_mult: 1
    decay_mult: 1
  }
  param {
    lr_mult: 2
    decay_mult: 0
  }
  convolution_param {
    num_output: 160
    kernel_size: 1
    weight_filler {
      type: "xavier"
      std: 0.03
    }
    bias_filler {
      type: "constant"
      value: 0.2
    }
  }
}
layer {
  name: "inception_4b/relu_1x1"
  type: "ReLU"
  bottom: "inception_4b/1x1"
  top: "inception_4b/1x1"
}
layer {
  name: "inception_4b/3x3_reduce"
  type: "Convolution"
  bottom: "inception_4a/output"
  top: "inception_4b/3x3_reduce"
  param {
    lr_mult: 1
    decay_mult: 1
  }
  param {
    lr_mult: 2
    decay_mult: 0
  }
  convolution_param {
    num_output: 112
    kernel_size: 1
    weight_filler {
      type: "xavier"
      std: 0.09
    }
    bias_filler {
      type: "constant"
      value: 0.2
    }
  }
}
layer {
  name: "inception_4b/relu_3x3_reduce"
  type: "ReLU"
  bottom: "inception_4b/3x3_reduce"
  top: "inception_4b/3x3_reduce"
}
layer {
  name: "inception_4b/3x3"
  type: "Convolution"
  bottom: "inception_4b/3x3_reduce"
  top: "inception_4b/3x3"
  param {
    lr_mult: 1
    decay_mult: 1
  }
  param {
    lr_mult: 2
    decay_mult: 0
  }
  convolution_param {
    num_output: 224
    pad: 1
    kernel_size: 3
    weight_filler {
      type: "xavier"
      std: 0.03
    }
    bias_filler {
      type: "constant"
      value: 0.2
    }
  }
}
layer {
  name: "inception_4b/relu_3x3"
  type: "ReLU"
  bottom: "inception_4b/3x3"
  top: "inception_4b/3x3"
}
layer {
  name: "inception_4b/5x5_reduce"
  type: "Convolution"
  bottom: "inception_4a/output"
  top: "inception_4b/5x5_reduce"
  param {
    lr_mult: 1
    decay_mult: 1
  }
  param {
    lr_mult: 2
    decay_mult: 0
  }
  convolution_param {
    num_output: 24
    kernel_size: 1
    weight_filler {
      type: "xavier"
      std: 0.2
    }
    bias_filler {
      type: "constant"
      value: 0.2
    }
  }
}
layer {
  name: "inception_4b/relu_5x5_reduce"
  type: "ReLU"
  bottom: "inception_4b/5x5_reduce"
  top: "inception_4b/5x5_reduce"
}
layer {
  name: "inception_4b/5x5"
  type: "Convolution"
  bottom: "inception_4b/5x5_reduce"
  top: "inception_4b/5x5"
  param {
    lr_mult: 1
    decay_mult: 1
  }
  param {
    lr_mult: 2
    decay_mult: 0
  }
  convolution_param {
    num_output: 64
    pad: 2
    kernel_size: 5
    weight_filler {
      type: "xavier"
      std: 0.03
    }
    bias_filler {
      type: "constant"
      value: 0.2
    }
  }
}
layer {
  name: "inception_4b/relu_5x5"
  type: "ReLU"
  bottom: "inception_4b/5x5"
  top: "inception_4b/5x5"
}
layer {
  name: "inception_4b/pool"
  type: "Pooling"
  bottom: "inception_4a/output"
  top: "inception_4b/pool"
  pooling_param {
    pool: MAX
    kernel_size: 3
    stride: 1
    pad: 1
  }
}
layer {
  name: "inception_4b/pool_proj"
  type: "Convolution"
  bottom: "inception_4b/pool"
  top: "inception_4b/pool_proj"
  param {
    lr_mult: 1
    decay_mult: 1
  }
  param {
    lr_mult: 2
    decay_mult: 0
  }
  convolution_param {
    num_output: 64
    kernel_size: 1
    weight_filler {
      type: "xavier"
      std: 0.1
    }
    bias_filler {
      type: "constant"
      value: 0.2
    }
  }
}
layer {
  name: "inception_4b/relu_pool_proj"
  type: "ReLU"
  bottom: "inception_4b/pool_proj"
  top: "inception_4b/pool_proj"
}
layer {
  name: "inception_4b/output"
  type: "Concat"
  bottom: "inception_4b/1x1"
  bottom: "inception_4b/3x3"
  bottom: "inception_4b/5x5"
  bottom: "inception_4b/pool_proj"
  top: "inception_4b/output"
}
layer {
  name: "inception_4c/1x1"
  type: "Convolution"
  bottom: "inception_4b/output"
  top: "inception_4c/1x1"
  param {
    lr_mult: 1
    decay_mult: 1
  }
  param {
    lr_mult: 2
    decay_mult: 0
  }
  convolution_param {
    num_output: 128
    kernel_size: 1
    weight_filler {
      type: "xavier"
      std: 0.03
    }
    bias_filler {
      type: "constant"
      value: 0.2
    }
  }
}
layer {
  name: "inception_4c/relu_1x1"
  type: "ReLU"
  bottom: "inception_4c/1x1"
  top: "inception_4c/1x1"
}
layer {
  name: "inception_4c/3x3_reduce"
  type: "Convolution"
  bottom: "inception_4b/output"
  top: "inception_4c/3x3_reduce"
  param {
    lr_mult: 1
    decay_mult: 1
  }
  param {
    lr_mult: 2
    decay_mult: 0
  }
  convolution_param {
    num_output: 128
    kernel_size: 1
    weight_filler {
      type: "xavier"
      std: 0.09
    }
    bias_filler {
      type: "constant"
      value: 0.2
    }
  }
}
layer {
  name: "inception_4c/relu_3x3_reduce"
  type: "ReLU"
  bottom: "inception_4c/3x3_reduce"
  top: "inception_4c/3x3_reduce"
}
layer {
  name: "inception_4c/3x3"
  type: "Convolution"
  bottom: "inception_4c/3x3_reduce"
  top: "inception_4c/3x3"
  param {
    lr_mult: 1
    decay_mult: 1
  }
  param {
    lr_mult: 2
    decay_mult: 0
  }
  convolution_param {
    num_output: 256
    pad: 1
    kernel_size: 3
    weight_filler {
      type: "xavier"
      std: 0.03
    }
    bias_filler {
      type: "constant"
      value: 0.2
    }
  }
}
layer {
  name: "inception_4c/relu_3x3"
  type: "ReLU"
  bottom: "inception_4c/3x3"
  top: "inception_4c/3x3"
}
layer {
  name: "inception_4c/5x5_reduce"
  type: "Convolution"
  bottom: "inception_4b/output"
  top: "inception_4c/5x5_reduce"
  param {
    lr_mult: 1
    decay_mult: 1
  }
  param {
    lr_mult: 2
    decay_mult: 0
  }
  convolution_param {
    num_output: 24
    kernel_size: 1
    weight_filler {
      type: "xavier"
      std: 0.2
    }
    bias_filler {
      type: "constant"
      value: 0.2
    }
  }
}
layer {
  name: "inception_4c/relu_5x5_reduce"
  type: "ReLU"
  bottom: "inception_4c/5x5_reduce"
  top: "inception_4c/5x5_reduce"
}
layer {
  name: "inception_4c/5x5"
  type: "Convolution"
  bottom: "inception_4c/5x5_reduce"
  top: "inception_4c/5x5"
  param {
    lr_mult: 1
    decay_mult: 1
  }
  param {
    lr_mult: 2
    decay_mult: 0
  }
  convolution_param {
    num_output: 64
    pad: 2
    kernel_size: 5
    weight_filler {
      type: "xavier"
      std: 0.03
    }
    bias_filler {
      type: "constant"
      value: 0.2
    }
  }
}
layer {
  name: "inception_4c/relu_5x5"
  type: "ReLU"
  bottom: "inception_4c/5x5"
  top: "inception_4c/5x5"
}
layer {
  name: "inception_4c/pool"
  type: "Pooling"
  bottom: "inception_4b/output"
  top: "inception_4c/pool"
  pooling_param {
    pool: MAX
    kernel_size: 3
    stride: 1
    pad: 1
  }
}
layer {
  name: "inception_4c/pool_proj"
  type: "Convolution"
  bottom: "inception_4c/pool"
  top: "inception_4c/pool_proj"
  param {
    lr_mult: 1
    decay_mult: 1
  }
  param {
    lr_mult: 2
    decay_mult: 0
  }
  convolution_param {
    num_output: 64
    kernel_size: 1
    weight_filler {
      type: "xavier"
      std: 0.1
    }
    bias_filler {
      type: "constant"
      value: 0.2
    }
  }
}
layer {
  name: "inception_4c/relu_pool_proj"
  type: "ReLU"
  bottom: "inception_4c/pool_proj"
  top: "inception_4c/pool_proj"
}
layer {
  name: "inception_4c/output"
  type: "Concat"
  bottom: "inception_4c/1x1"
  bottom: "inception_4c/3x3"
  bottom: "inception_4c/5x5"
  bottom: "inception_4c/pool_proj"
  top: "inception_4c/output"
}
layer {
  name: "inception_4d/1x1"
  type: "Convolution"
  bottom: "inception_4c/output"
  top: "inception_4d/1x1"
  param {
    lr_mult: 1
    decay_mult: 1
  }
  param {
    lr_mult: 2
    decay_mult: 0
  }
  convolution_param {
    num_output: 112
    kernel_size: 1
    weight_filler {
      type: "xavier"
      std: 0.03
    }
    bias_filler {
      type: "constant"
      value: 0.2
    }
  }
}
layer {
  name: "inception_4d/relu_1x1"
  type: "ReLU"
  bottom: "inception_4d/1x1"
  top: "inception_4d/1x1"
}
layer {
  name: "inception_4d/3x3_reduce"
  type: "Convolution"
  bottom: "inception_4c/output"
  top: "inception_4d/3x3_reduce"
  param {
    lr_mult: 1
    decay_mult: 1
  }
  param {
    lr_mult: 2
    decay_mult: 0
  }
  convolution_param {
    num_output: 144
    kernel_size: 1
    weight_filler {
      type: "xavier"
      std: 0.09
    }
    bias_filler {
      type: "constant"
      value: 0.2
    }
  }
}
layer {
  name: "inception_4d/relu_3x3_reduce"
  type: "ReLU"
  bottom: "inception_4d/3x3_reduce"
  top: "inception_4d/3x3_reduce"
}
layer {
  name: "inception_4d/3x3"
  type: "Convolution"
  bottom: "inception_4d/3x3_reduce"
  top: "inception_4d/3x3"
  param {
    lr_mult: 1
    decay_mult: 1
  }
  param {
    lr_mult: 2
    decay_mult: 0
  }
  convolution_param {
    num_output: 288
    pad: 1
    kernel_size: 3
    weight_filler {
      type: "xavier"
      std: 0.03
    }
    bias_filler {
      type: "constant"
      value: 0.2
    }
  }
}
layer {
  name: "inception_4d/relu_3x3"
  type: "ReLU"
  bottom: "inception_4d/3x3"
  top: "inception_4d/3x3"
}
layer {
  name: "inception_4d/5x5_reduce"
  type: "Convolution"
  bottom: "inception_4c/output"
  top: "inception_4d/5x5_reduce"
  param {
    lr_mult: 1
    decay_mult: 1
  }
  param {
    lr_mult: 2
    decay_mult: 0
  }
  convolution_param {
    num_output: 32
    kernel_size: 1
    weight_filler {
      type: "xavier"
      std: 0.2
    }
    bias_filler {
      type: "constant"
      value: 0.2
    }
  }
}
layer {
  name: "inception_4d/relu_5x5_reduce"
  type: "ReLU"
  bottom: "inception_4d/5x5_reduce"
  top: "inception_4d/5x5_reduce"
}
layer {
  name: "inception_4d/5x5"
  type: "Convolution"
  bottom: "inception_4d/5x5_reduce"
  top: "inception_4d/5x5"
  param {
    lr_mult: 1
    decay_mult: 1
  }
  param {
    lr_mult: 2
    decay_mult: 0
  }
  convolution_param {
    num_output: 64
    pad: 2
    kernel_size: 5
    weight_filler {
      type: "xavier"
      std: 0.03
    }
    bias_filler {
      type: "constant"
      value: 0.2
    }
  }
}
layer {
  name: "inception_4d/relu_5x5"
  type: "ReLU"
  bottom: "inception_4d/5x5"
  top: "inception_4d/5x5"
}
layer {
  name: "inception_4d/pool"
  type: "Pooling"
  bottom: "inception_4c/output"
  top: "inception_4d/pool"
  pooling_param {
    pool: MAX
    kernel_size: 3
    stride: 1
    pad: 1
  }
}
layer {
  name: "inception_4d/pool_proj"
  type: "Convolution"
  bottom: "inception_4d/pool"
  top: "inception_4d/pool_proj"
  param {
    lr_mult: 1
    decay_mult: 1
  }
  param {
    lr_mult: 2
    decay_mult: 0
  }
  convolution_param {
    num_output: 64
    kernel_size: 1
    weight_filler {
      type: "xavier"
      std: 0.1
    }
    bias_filler {
      type: "constant"
      value: 0.2
    }
  }
}
layer {
  name: "inception_4d/relu_pool_proj"
  type: "ReLU"
  bottom: "inception_4d/pool_proj"
  top: "inception_4d/pool_proj"
}
layer {
  name: "inception_4d/output"
  type: "Concat"
  bottom: "inception_4d/1x1"
  bottom: "inception_4d/3x3"
  bottom: "inception_4d/5x5"
  bottom: "inception_4d/pool_proj"
  top: "inception_4d/output"
}
layer {
  name: "loss2/ave_pool"
  type: "Pooling"
  bottom: "inception_4d/output"
  top: "loss2/ave_pool"
  pooling_param {
    pool: AVE
    kernel_size: 5
    stride: 3
  }
}
layer {
  name: "loss2/conv"
  type: "Convolution"
  bottom: "loss2/ave_pool"
  top: "loss2/conv"
  param {
    lr_mult: 1
    decay_mult: 1
  }
  param {
    lr_mult: 2
    decay_mult: 0
  }
  convolution_param {
    num_output: 128
    kernel_size: 1
    weight_filler {
      type: "xavier"
      std: 0.08
    }
    bias_filler {
      type: "constant"
      value: 0.2
    }
  }
}
layer {
  name: "loss2/relu_conv"
  type: "ReLU"
  bottom: "loss2/conv"
  top: "loss2/conv"
}
layer {
  name: "loss2/fc"
  type: "InnerProduct"
  bottom: "loss2/conv"
  top: "loss2/fc"
  param {
    lr_mult: 1
    decay_mult: 1
  }
  param {
    lr_mult: 2
    decay_mult: 0
  }
  inner_product_param {
    num_output: 1024
    weight_filler {
      type: "xavier"
      std: 0.02
    }
    bias_filler {
      type: "constant"
      value: 0.2
    }
  }
}
layer {
  name: "loss2/relu_fc"
  type: "ReLU"
  bottom: "loss2/fc"
  top: "loss2/fc"
}
layer {
  name: "loss2/drop_fc"
  type: "Dropout"
  bottom: "loss2/fc"
  top: "loss2/fc"
  dropout_param {
    dropout_ratio: 0.7
  }
}
layer {
  name: "loss2/classifier_plantvillage"
  type: "InnerProduct"
  bottom: "loss2/fc"
  top: "loss2/classifier_plantvillage"
  param {
    lr_mult: 1
    decay_mult: 1
  }
  param {
    lr_mult: 2
    decay_mult: 0
  }
  inner_product_param {
    num_output: 38
    weight_filler {
      type: "xavier"
      std: 0.0009765625
    }
    bias_filler {
      type: "constant"
      value: 0
    }
  }
}
layer {
  name: "inception_4e/1x1"
  type: "Convolution"
  bottom: "inception_4d/output"
  top: "inception_4e/1x1"
  param {
    lr_mult: 1
    decay_mult: 1
  }
  param {
    lr_mult: 2
    decay_mult: 0
  }
  convolution_param {
    num_output: 256
    kernel_size: 1
    weight_filler {
      type: "xavier"
      std: 0.03
    }
    bias_filler {
      type: "constant"
      value: 0.2
    }
  }
}
layer {
  name: "inception_4e/relu_1x1"
  type: "ReLU"
  bottom: "inception_4e/1x1"
  top: "inception_4e/1x1"
}
layer {
  name: "inception_4e/3x3_reduce"
  type: "Convolution"
  bottom: "inception_4d/output"
  top: "inception_4e/3x3_reduce"
  param {
    lr_mult: 1
    decay_mult: 1
  }
  param {
    lr_mult: 2
    decay_mult: 0
  }
  convolution_param {
    num_output: 160
    kernel_size: 1
    weight_filler {
      type: "xavier"
      std: 0.09
    }
    bias_filler {
      type: "constant"
      value: 0.2
    }
  }
}
layer {
  name: "inception_4e/relu_3x3_reduce"
  type: "ReLU"
  bottom: "inception_4e/3x3_reduce"
  top: "inception_4e/3x3_reduce"
}
layer {
  name: "inception_4e/3x3"
  type: "Convolution"
  bottom: "inception_4e/3x3_reduce"
  top: "inception_4e/3x3"
  param {
    lr_mult: 1
    decay_mult: 1
  }
  param {
    lr_mult: 2
    decay_mult: 0
  }
  convolution_param {
    num_output: 320
    pad: 1
    kernel_size: 3
    weight_filler {
      type: "xavier"
      std: 0.03
    }
    bias_filler {
      type: "constant"
      value: 0.2
    }
  }
}
layer {
  name: "inception_4e/relu_3x3"
  type: "ReLU"
  bottom: "inception_4e/3x3"
  top: "inception_4e/3x3"
}
layer {
  name: "inception_4e/5x5_reduce"
  type: "Convolution"
  bottom: "inception_4d/output"
  top: "inception_4e/5x5_reduce"
  param {
    lr_mult: 1
    decay_mult: 1
  }
  param {
    lr_mult: 2
    decay_mult: 0
  }
  convolution_param {
    num_output: 32
    kernel_size: 1
    weight_filler {
      type: "xavier"
      std: 0.2
    }
    bias_filler {
      type: "constant"
      value: 0.2
    }
  }
}
layer {
  name: "inception_4e/relu_5x5_reduce"
  type: "ReLU"
  bottom: "inception_4e/5x5_reduce"
  top: "inception_4e/5x5_reduce"
}
layer {
  name: "inception_4e/5x5"
  type: "Convolution"
  bottom: "inception_4e/5x5_reduce"
  top: "inception_4e/
I0403 18:12:48.626103  6696 layer_factory.hpp:77] Creating layer data
I0403 18:12:48.626736  6696 net.cpp:91] Creating Layer data
I0403 18:12:48.626767  6696 net.cpp:399] data -> data
I0403 18:12:48.626821  6696 net.cpp:399] data -> label
I0403 18:12:48.626859  6696 data_transformer.cpp:25] Loading mean file from: /home/mohanty/data/final_dataset/lmdb/segmented-50-50/mean.binaryproto
I0403 18:12:48.628065  6699 db_lmdb.cpp:38] Opened lmdb /home/mohanty/data/final_dataset/lmdb/segmented-50-50/test_db
I0403 18:12:48.640573  6696 data_layer.cpp:41] output data size: 24,3,224,224
I0403 18:12:48.670146  6696 net.cpp:141] Setting up data
I0403 18:12:48.670256  6696 net.cpp:148] Top shape: 24 3 224 224 (3612672)
I0403 18:12:48.670280  6696 net.cpp:148] Top shape: 24 (24)
I0403 18:12:48.670296  6696 net.cpp:156] Memory required for data: 14450784
I0403 18:12:48.670323  6696 layer_factory.hpp:77] Creating layer label_data_1_split
I0403 18:12:48.670351  6696 net.cpp:91] Creating Layer label_data_1_split
I0403 18:12:48.670368  6696 net.cpp:425] label_data_1_split <- label
I0403 18:12:48.670402  6696 net.cpp:399] label_data_1_split -> label_data_1_split_0
I0403 18:12:48.670428  6696 net.cpp:399] label_data_1_split -> label_data_1_split_1
I0403 18:12:48.670450  6696 net.cpp:399] label_data_1_split -> label_data_1_split_2
I0403 18:12:48.670472  6696 net.cpp:399] label_data_1_split -> label_data_1_split_3
I0403 18:12:48.670492  6696 net.cpp:399] label_data_1_split -> label_data_1_split_4
I0403 18:12:48.670512  6696 net.cpp:399] label_data_1_split -> label_data_1_split_5
I0403 18:12:48.670532  6696 net.cpp:399] label_data_1_split -> label_data_1_split_6
I0403 18:12:48.670553  6696 net.cpp:399] label_data_1_split -> label_data_1_split_7
I0403 18:12:48.670574  6696 net.cpp:399] label_data_1_split -> label_data_1_split_8
I0403 18:12:48.670595  6696 net.cpp:399] label_data_1_split -> label_data_1_split_9
I0403 18:12:48.670714  6696 net.cpp:141] Setting up label_data_1_split
I0403 18:12:48.670738  6696 net.cpp:148] Top shape: 24 (24)
I0403 18:12:48.670755  6696 net.cpp:148] Top shape: 24 (24)
I0403 18:12:48.670771  6696 net.cpp:148] Top shape: 24 (24)
I0403 18:12:48.670789  6696 net.cpp:148] Top shape: 24 (24)
I0403 18:12:48.670804  6696 net.cpp:148] Top shape: 24 (24)
I0403 18:12:48.670819  6696 net.cpp:148] Top shape: 24 (24)
I0403 18:12:48.670835  6696 net.cpp:148] Top shape: 24 (24)
I0403 18:12:48.670851  6696 net.cpp:148] Top shape: 24 (24)
I0403 18:12:48.670867  6696 net.cpp:148] Top shape: 24 (24)
I0403 18:12:48.670886  6696 net.cpp:148] Top shape: 24 (24)
I0403 18:12:48.670930  6696 net.cpp:156] Memory required for data: 14451744
I0403 18:12:48.670948  6696 layer_factory.hpp:77] Creating layer conv1/7x7_s2
I0403 18:12:48.670980  6696 net.cpp:91] Creating Layer conv1/7x7_s2
I0403 18:12:48.671000  6696 net.cpp:425] conv1/7x7_s2 <- data
I0403 18:12:48.671020  6696 net.cpp:399] conv1/7x7_s2 -> conv1/7x7_s2
I0403 18:12:48.818567  6696 net.cpp:141] Setting up conv1/7x7_s2
I0403 18:12:48.818676  6696 net.cpp:148] Top shape: 24 64 112 112 (19267584)
I0403 18:12:48.818693  6696 net.cpp:156] Memory required for data: 91522080
I0403 18:12:48.818723  6696 layer_factory.hpp:77] Creating layer conv1/relu_7x7
I0403 18:12:48.818749  6696 net.cpp:91] Creating Layer conv1/relu_7x7
I0403 18:12:48.818768  6696 net.cpp:425] conv1/relu_7x7 <- conv1/7x7_s2
I0403 18:12:48.818786  6696 net.cpp:386] conv1/relu_7x7 -> conv1/7x7_s2 (in-place)
I0403 18:12:48.819041  6696 net.cpp:141] Setting up conv1/relu_7x7
I0403 18:12:48.819068  6696 net.cpp:148] Top shape: 24 64 112 112 (19267584)
I0403 18:12:48.819084  6696 net.cpp:156] Memory required for data: 168592416
I0403 18:12:48.819099  6696 layer_factory.hpp:77] Creating layer pool1/3x3_s2
I0403 18:12:48.819125  6696 net.cpp:91] Creating Layer pool1/3x3_s2
I0403 18:12:48.819144  6696 net.cpp:425] pool1/3x3_s2 <- conv1/7x7_s2
I0403 18:12:48.819164  6696 net.cpp:399] pool1/3x3_s2 -> pool1/3x3_s2
I0403 18:12:48.819254  6696 net.cpp:141] Setting up pool1/3x3_s2
I0403 18:12:48.819281  6696 net.cpp:148] Top shape: 24 64 56 56 (4816896)
I0403 18:12:48.819298  6696 net.cpp:156] Memory required for data: 187860000
I0403 18:12:48.819313  6696 layer_factory.hpp:77] Creating layer pool1/norm1
I0403 18:12:48.819337  6696 net.cpp:91] Creating Layer pool1/norm1
I0403 18:12:48.819356  6696 net.cpp:425] pool1/norm1 <- pool1/3x3_s2
I0403 18:12:48.819375  6696 net.cpp:399] pool1/norm1 -> pool1/norm1
I0403 18:12:48.819669  6696 net.cpp:141] Setting up pool1/norm1
I0403 18:12:48.819697  6696 net.cpp:148] Top shape: 24 64 56 56 (4816896)
I0403 18:12:48.819713  6696 net.cpp:156] Memory required for data: 207127584
I0403 18:12:48.819728  6696 layer_factory.hpp:77] Creating layer conv2/3x3_reduce
I0403 18:12:48.819754  6696 net.cpp:91] Creating Layer conv2/3x3_reduce
I0403 18:12:48.819772  6696 net.cpp:425] conv2/3x3_reduce <- pool1/norm1
I0403 18:12:48.819792  6696 net.cpp:399] conv2/3x3_reduce -> conv2/3x3_reduce
I0403 18:12:48.821194  6696 net.cpp:141] Setting up conv2/3x3_reduce
I0403 18:12:48.821228  6696 net.cpp:148] Top shape: 24 64 56 56 (4816896)
I0403 18:12:48.821246  6696 net.cpp:156] Memory required for data: 226395168
I0403 18:12:48.821266  6696 layer_factory.hpp:77] Creating layer conv2/relu_3x3_reduce
I0403 18:12:48.821285  6696 net.cpp:91] Creating Layer conv2/relu_3x3_reduce
I0403 18:12:48.821302  6696 net.cpp:425] conv2/relu_3x3_reduce <- conv2/3x3_reduce
I0403 18:12:48.821319  6696 net.cpp:386] conv2/relu_3x3_reduce -> conv2/3x3_reduce (in-place)
I0403 18:12:48.821574  6696 net.cpp:141] Setting up conv2/relu_3x3_reduce
I0403 18:12:48.821601  6696 net.cpp:148] Top shape: 24 64 56 56 (4816896)
I0403 18:12:48.821616  6696 net.cpp:156] Memory required for data: 245662752
I0403 18:12:48.821631  6696 layer_factory.hpp:77] Creating layer conv2/3x3
I0403 18:12:48.821655  6696 net.cpp:91] Creating Layer conv2/3x3
I0403 18:12:48.821671  6696 net.cpp:425] conv2/3x3 <- conv2/3x3_reduce
I0403 18:12:48.821691  6696 net.cpp:399] conv2/3x3 -> conv2/3x3
I0403 18:12:48.824048  6696 net.cpp:141] Setting up conv2/3x3
I0403 18:12:48.824079  6696 net.cpp:148] Top shape: 24 192 56 56 (14450688)
I0403 18:12:48.824095  6696 net.cpp:156] Memory required for data: 303465504
I0403 18:12:48.824117  6696 layer_factory.hpp:77] Creating layer conv2/relu_3x3
I0403 18:12:48.824136  6696 net.cpp:91] Creating Layer conv2/relu_3x3
I0403 18:12:48.824151  6696 net.cpp:425] conv2/relu_3x3 <- conv2/3x3
I0403 18:12:48.824169  6696 net.cpp:386] conv2/relu_3x3 -> conv2/3x3 (in-place)
I0403 18:12:48.824338  6696 net.cpp:141] Setting up conv2/relu_3x3
I0403 18:12:48.824367  6696 net.cpp:148] Top shape: 24 192 56 56 (14450688)
I0403 18:12:48.824414  6696 net.cpp:156] Memory required for data: 361268256
I0403 18:12:48.824431  6696 layer_factory.hpp:77] Creating layer conv2/norm2
I0403 18:12:48.824450  6696 net.cpp:91] Creating Layer conv2/norm2
I0403 18:12:48.824467  6696 net.cpp:425] conv2/norm2 <- conv2/3x3
I0403 18:12:48.824486  6696 net.cpp:399] conv2/norm2 -> conv2/norm2
I0403 18:12:48.824775  6696 net.cpp:141] Setting up conv2/norm2
I0403 18:12:48.824803  6696 net.cpp:148] Top shape: 24 192 56 56 (14450688)
I0403 18:12:48.824820  6696 net.cpp:156] Memory required for data: 419071008
I0403 18:12:48.824836  6696 layer_factory.hpp:77] Creating layer pool2/3x3_s2
I0403 18:12:48.824854  6696 net.cpp:91] Creating Layer pool2/3x3_s2
I0403 18:12:48.824872  6696 net.cpp:425] pool2/3x3_s2 <- conv2/norm2
I0403 18:12:48.824890  6696 net.cpp:399] pool2/3x3_s2 -> pool2/3x3_s2
I0403 18:12:48.824939  6696 net.cpp:141] Setting up pool2/3x3_s2
I0403 18:12:48.824965  6696 net.cpp:148] Top shape: 24 192 28 28 (3612672)
I0403 18:12:48.824980  6696 net.cpp:156] Memory required for data: 433521696
I0403 18:12:48.824995  6696 layer_factory.hpp:77] Creating layer pool2/3x3_s2_pool2/3x3_s2_0_split
I0403 18:12:48.825014  6696 net.cpp:91] Creating Layer pool2/3x3_s2_pool2/3x3_s2_0_split
I0403 18:12:48.825031  6696 net.cpp:425] pool2/3x3_s2_pool2/3x3_s2_0_split <- pool2/3x3_s2
I0403 18:12:48.825047  6696 net.cpp:399] pool2/3x3_s2_pool2/3x3_s2_0_split -> pool2/3x3_s2_pool2/3x3_s2_0_split_0
I0403 18:12:48.825067  6696 net.cpp:399] pool2/3x3_s2_pool2/3x3_s2_0_split -> pool2/3x3_s2_pool2/3x3_s2_0_split_1
I0403 18:12:48.825088  6696 net.cpp:399] pool2/3x3_s2_pool2/3x3_s2_0_split -> pool2/3x3_s2_pool2/3x3_s2_0_split_2
I0403 18:12:48.825109  6696 net.cpp:399] pool2/3x3_s2_pool2/3x3_s2_0_split -> pool2/3x3_s2_pool2/3x3_s2_0_split_3
I0403 18:12:48.825186  6696 net.cpp:141] Setting up pool2/3x3_s2_pool2/3x3_s2_0_split
I0403 18:12:48.825217  6696 net.cpp:148] Top shape: 24 192 28 28 (3612672)
I0403 18:12:48.825237  6696 net.cpp:148] Top shape: 24 192 28 28 (3612672)
I0403 18:12:48.825255  6696 net.cpp:148] Top shape: 24 192 28 28 (3612672)
I0403 18:12:48.825273  6696 net.cpp:148] Top shape: 24 192 28 28 (3612672)
I0403 18:12:48.825287  6696 net.cpp:156] Memory required for data: 491324448
I0403 18:12:48.825304  6696 layer_factory.hpp:77] Creating layer inception_3a/1x1
I0403 18:12:48.825325  6696 net.cpp:91] Creating Layer inception_3a/1x1
I0403 18:12:48.825343  6696 net.cpp:425] inception_3a/1x1 <- pool2/3x3_s2_pool2/3x3_s2_0_split_0
I0403 18:12:48.825363  6696 net.cpp:399] inception_3a/1x1 -> inception_3a/1x1
I0403 18:12:48.826903  6696 net.cpp:141] Setting up inception_3a/1x1
I0403 18:12:48.826937  6696 net.cpp:148] Top shape: 24 64 28 28 (1204224)
I0403 18:12:48.826956  6696 net.cpp:156] Memory required for data: 496141344
I0403 18:12:48.826975  6696 layer_factory.hpp:77] Creating layer inception_3a/relu_1x1
I0403 18:12:48.826995  6696 net.cpp:91] Creating Layer inception_3a/relu_1x1
I0403 18:12:48.827013  6696 net.cpp:425] inception_3a/relu_1x1 <- inception_3a/1x1
I0403 18:12:48.827030  6696 net.cpp:386] inception_3a/relu_1x1 -> inception_3a/1x1 (in-place)
I0403 18:12:48.827221  6696 net.cpp:141] Setting up inception_3a/relu_1x1
I0403 18:12:48.827251  6696 net.cpp:148] Top shape: 24 64 28 28 (1204224)
I0403 18:12:48.827267  6696 net.cpp:156] Memory required for data: 500958240
I0403 18:12:48.827283  6696 layer_factory.hpp:77] Creating layer inception_3a/3x3_reduce
I0403 18:12:48.827307  6696 net.cpp:91] Creating Layer inception_3a/3x3_reduce
I0403 18:12:48.827327  6696 net.cpp:425] inception_3a/3x3_reduce <- pool2/3x3_s2_pool2/3x3_s2_0_split_1
I0403 18:12:48.827347  6696 net.cpp:399] inception_3a/3x3_reduce -> inception_3a/3x3_reduce
I0403 18:12:48.829134  6696 net.cpp:141] Setting up inception_3a/3x3_reduce
I0403 18:12:48.829164  6696 net.cpp:148] Top shape: 24 96 28 28 (1806336)
I0403 18:12:48.829181  6696 net.cpp:156] Memory required for data: 508183584
I0403 18:12:48.829206  6696 layer_factory.hpp:77] Creating layer inception_3a/relu_3x3_reduce
I0403 18:12:48.829259  6696 net.cpp:91] Creating Layer inception_3a/relu_3x3_reduce
I0403 18:12:48.829279  6696 net.cpp:425] inception_3a/relu_3x3_reduce <- inception_3a/3x3_reduce
I0403 18:12:48.829301  6696 net.cpp:386] inception_3a/relu_3x3_reduce -> inception_3a/3x3_reduce (in-place)
I0403 18:12:48.829493  6696 net.cpp:141] Setting up inception_3a/relu_3x3_reduce
I0403 18:12:48.829521  6696 net.cpp:148] Top shape: 24 96 28 28 (1806336)
I0403 18:12:48.829537  6696 net.cpp:156] Memory required for data: 515408928
I0403 18:12:48.829553  6696 layer_factory.hpp:77] Creating layer inception_3a/3x3
I0403 18:12:48.829578  6696 net.cpp:91] Creating Layer inception_3a/3x3
I0403 18:12:48.829596  6696 net.cpp:425] inception_3a/3x3 <- inception_3a/3x3_reduce
I0403 18:12:48.829622  6696 net.cpp:399] inception_3a/3x3 -> inception_3a/3x3
I0403 18:12:48.831359  6696 net.cpp:141] Setting up inception_3a/3x3
I0403 18:12:48.831393  6696 net.cpp:148] Top shape: 24 128 28 28 (2408448)
I0403 18:12:48.831410  6696 net.cpp:156] Memory required for data: 525042720
I0403 18:12:48.831430  6696 layer_factory.hpp:77] Creating layer inception_3a/relu_3x3
I0403 18:12:48.831449  6696 net.cpp:91] Creating Layer inception_3a/relu_3x3
I0403 18:12:48.831466  6696 net.cpp:425] inception_3a/relu_3x3 <- inception_3a/3x3
I0403 18:12:48.831487  6696 net.cpp:386] inception_3a/relu_3x3 -> inception_3a/3x3 (in-place)
I0403 18:12:48.831771  6696 net.cpp:141] Setting up inception_3a/relu_3x3
I0403 18:12:48.831802  6696 net.cpp:148] Top shape: 24 128 28 28 (2408448)
I0403 18:12:48.831820  6696 net.cpp:156] Memory required for data: 534676512
I0403 18:12:48.831836  6696 layer_factory.hpp:77] Creating layer inception_3a/5x5_reduce
I0403 18:12:48.831861  6696 net.cpp:91] Creating Layer inception_3a/5x5_reduce
I0403 18:12:48.831881  6696 net.cpp:425] inception_3a/5x5_reduce <- pool2/3x3_s2_pool2/3x3_s2_0_split_2
I0403 18:12:48.831902  6696 net.cpp:399] inception_3a/5x5_reduce -> inception_3a/5x5_reduce
I0403 18:12:48.832921  6696 net.cpp:141] Setting up inception_3a/5x5_reduce
I0403 18:12:48.832950  6696 net.cpp:148] Top shape: 24 16 28 28 (301056)
I0403 18:12:48.832967  6696 net.cpp:156] Memory required for data: 535880736
I0403 18:12:48.832986  6696 layer_factory.hpp:77] Creating layer inception_3a/relu_5x5_reduce
I0403 18:12:48.833005  6696 net.cpp:91] Creating Layer inception_3a/relu_5x5_reduce
I0403 18:12:48.833021  6696 net.cpp:425] inception_3a/relu_5x5_reduce <- inception_3a/5x5_reduce
I0403 18:12:48.833044  6696 net.cpp:386] inception_3a/relu_5x5_reduce -> inception_3a/5x5_reduce (in-place)
I0403 18:12:48.833344  6696 net.cpp:141] Setting up inception_3a/relu_5x5_reduce
I0403 18:12:48.833372  6696 net.cpp:148] Top shape: 24 16 28 28 (301056)
I0403 18:12:48.833389  6696 net.cpp:156] Memory required for data: 537084960
I0403 18:12:48.833405  6696 layer_factory.hpp:77] Creating layer inception_3a/5x5
I0403 18:12:48.833428  6696 net.cpp:91] Creating Layer inception_3a/5x5
I0403 18:12:48.833447  6696 net.cpp:425] inception_3a/5x5 <- inception_3a/5x5_reduce
I0403 18:12:48.833470  6696 net.cpp:399] inception_3a/5x5 -> inception_3a/5x5
I0403 18:12:48.834522  6696 net.cpp:141] Setting up inception_3a/5x5
I0403 18:12:48.834553  6696 net.cpp:148] Top shape: 24 32 28 28 (602112)
I0403 18:12:48.834571  6696 net.cpp:156] Memory required for data: 539493408
I0403 18:12:48.834591  6696 layer_factory.hpp:77] Creating layer inception_3a/relu_5x5
I0403 18:12:48.834610  6696 net.cpp:91] Creating Layer inception_3a/relu_5x5
I0403 18:12:48.834628  6696 net.cpp:425] inception_3a/relu_5x5 <- inception_3a/5x5
I0403 18:12:48.834646  6696 net.cpp:386] inception_3a/relu_5x5 -> inception_3a/5x5 (in-place)
I0403 18:12:48.834830  6696 net.cpp:141] Setting up inception_3a/relu_5x5
I0403 18:12:48.834857  6696 net.cpp:148] Top shape: 24 32 28 28 (602112)
I0403 18:12:48.834873  6696 net.cpp:156] Memory required for data: 541901856
I0403 18:12:48.834888  6696 layer_factory.hpp:77] Creating layer inception_3a/pool
I0403 18:12:48.834908  6696 net.cpp:91] Creating Layer inception_3a/pool
I0403 18:12:48.834940  6696 net.cpp:425] inception_3a/pool <- pool2/3x3_s2_pool2/3x3_s2_0_split_3
I0403 18:12:48.834964  6696 net.cpp:399] inception_3a/pool -> inception_3a/pool
I0403 18:12:48.835027  6696 net.cpp:141] Setting up inception_3a/pool
I0403 18:12:48.835055  6696 net.cpp:148] Top shape: 24 192 28 28 (3612672)
I0403 18:12:48.835072  6696 net.cpp:156] Memory required for data: 556352544
I0403 18:12:48.835086  6696 layer_factory.hpp:77] Creating layer inception_3a/pool_proj
I0403 18:12:48.835111  6696 net.cpp:91] Creating Layer inception_3a/pool_proj
I0403 18:12:48.835131  6696 net.cpp:425] inception_3a/pool_proj <- inception_3a/pool
I0403 18:12:48.835151  6696 net.cpp:399] inception_3a/pool_proj -> inception_3a/pool_proj
I0403 18:12:48.836163  6696 net.cpp:141] Setting up inception_3a/pool_proj
I0403 18:12:48.836191  6696 net.cpp:148] Top shape: 24 32 28 28 (602112)
I0403 18:12:48.836212  6696 net.cpp:156] Memory required for data: 558760992
I0403 18:12:48.836239  6696 layer_factory.hpp:77] Creating layer inception_3a/relu_pool_proj
I0403 18:12:48.836262  6696 net.cpp:91] Creating Layer inception_3a/relu_pool_proj
I0403 18:12:48.836279  6696 net.cpp:425] inception_3a/relu_pool_proj <- inception_3a/pool_proj
I0403 18:12:48.836302  6696 net.cpp:386] inception_3a/relu_pool_proj -> inception_3a/pool_proj (in-place)
I0403 18:12:48.836596  6696 net.cpp:141] Setting up inception_3a/relu_pool_proj
I0403 18:12:48.836626  6696 net.cpp:148] Top shape: 24 32 28 28 (602112)
I0403 18:12:48.836643  6696 net.cpp:156] Memory required for data: 561169440
I0403 18:12:48.836659  6696 layer_factory.hpp:77] Creating layer inception_3a/output
I0403 18:12:48.836679  6696 net.cpp:91] Creating Layer inception_3a/output
I0403 18:12:48.836695  6696 net.cpp:425] inception_3a/output <- inception_3a/1x1
I0403 18:12:48.836714  6696 net.cpp:425] inception_3a/output <- inception_3a/3x3
I0403 18:12:48.836730  6696 net.cpp:425] inception_3a/output <- inception_3a/5x5
I0403 18:12:48.836747  6696 net.cpp:425] inception_3a/output <- inception_3a/pool_proj
I0403 18:12:48.836766  6696 net.cpp:399] inception_3a/output -> inception_3a/output
I0403 18:12:48.836817  6696 net.cpp:141] Setting up inception_3a/output
I0403 18:12:48.836840  6696 net.cpp:148] Top shape: 24 256 28 28 (4816896)
I0403 18:12:48.836856  6696 net.cpp:156] Memory required for data: 580437024
I0403 18:12:48.836871  6696 layer_factory.hpp:77] Creating layer inception_3a/output_inception_3a/output_0_split
I0403 18:12:48.836892  6696 net.cpp:91] Creating Layer inception_3a/output_inception_3a/output_0_split
I0403 18:12:48.836910  6696 net.cpp:425] inception_3a/output_inception_3a/output_0_split <- inception_3a/output
I0403 18:12:48.836928  6696 net.cpp:399] inception_3a/output_inception_3a/output_0_split -> inception_3a/output_inception_3a/output_0_split_0
I0403 18:12:48.836951  6696 net.cpp:399] inception_3a/output_inception_3a/output_0_split -> inception_3a/output_inception_3a/output_0_split_1
I0403 18:12:48.836977  6696 net.cpp:399] inception_3a/output_inception_3a/output_0_split -> inception_3a/output_inception_3a/output_0_split_2
I0403 18:12:48.837000  6696 net.cpp:399] inception_3a/output_inception_3a/output_0_split -> inception_3a/output_inception_3a/output_0_split_3
I0403 18:12:48.837080  6696 net.cpp:141] Setting up inception_3a/output_inception_3a/output_0_split
I0403 18:12:48.837105  6696 net.cpp:148] Top shape: 24 256 28 28 (4816896)
I0403 18:12:48.837122  6696 net.cpp:148] Top shape: 24 256 28 28 (4816896)
I0403 18:12:48.837141  6696 net.cpp:148] Top shape: 24 256 28 28 (4816896)
I0403 18:12:48.837157  6696 net.cpp:148] Top shape: 24 256 28 28 (4816896)
I0403 18:12:48.837172  6696 net.cpp:156] Memory required for data: 657507360
I0403 18:12:48.837188  6696 layer_factory.hpp:77] Creating layer inception_3b/1x1
I0403 18:12:48.837218  6696 net.cpp:91] Creating Layer inception_3b/1x1
I0403 18:12:48.837239  6696 net.cpp:425] inception_3b/1x1 <- inception_3a/output_inception_3a/output_0_split_0
I0403 18:12:48.837260  6696 net.cpp:399] inception_3b/1x1 -> inception_3b/1x1
I0403 18:12:48.838456  6696 net.cpp:141] Setting up inception_3b/1x1
I0403 18:12:48.838498  6696 net.cpp:148] Top shape: 24 128 28 28 (2408448)
I0403 18:12:48.838516  6696 net.cpp:156] Memory required for data: 667141152
I0403 18:12:48.838536  6696 layer_factory.hpp:77] Creating layer inception_3b/relu_1x1
I0403 18:12:48.838558  6696 net.cpp:91] Creating Layer inception_3b/relu_1x1
I0403 18:12:48.838577  6696 net.cpp:425] inception_3b/relu_1x1 <- inception_3b/1x1
I0403 18:12:48.838595  6696 net.cpp:386] inception_3b/relu_1x1 -> inception_3b/1x1 (in-place)
I0403 18:12:48.838783  6696 net.cpp:141] Setting up inception_3b/relu_1x1
I0403 18:12:48.838811  6696 net.cpp:148] Top shape: 24 128 28 28 (2408448)
I0403 18:12:48.838827  6696 net.cpp:156] Memory required for data: 676774944
I0403 18:12:48.838842  6696 layer_factory.hpp:77] Creating layer inception_3b/3x3_reduce
I0403 18:12:48.838865  6696 net.cpp:91] Creating Layer inception_3b/3x3_reduce
I0403 18:12:48.838884  6696 net.cpp:425] inception_3b/3x3_reduce <- inception_3a/output_inception_3a/output_0_split_1
I0403 18:12:48.838907  6696 net.cpp:399] inception_3b/3x3_reduce -> inception_3b/3x3_reduce
I0403 18:12:48.840111  6696 net.cpp:141] Setting up inception_3b/3x3_reduce
I0403 18:12:48.840142  6696 net.cpp:148] Top shape: 24 128 28 28 (2408448)
I0403 18:12:48.840157  6696 net.cpp:156] Memory required for data: 686408736
I0403 18:12:48.840176  6696 layer_factory.hpp:77] Creating layer inception_3b/relu_3x3_reduce
I0403 18:12:48.840198  6696 net.cpp:91] Creating Layer inception_3b/relu_3x3_reduce
I0403 18:12:48.840222  6696 net.cpp:425] inception_3b/relu_3x3_reduce <- inception_3b/3x3_reduce
I0403 18:12:48.840243  6696 net.cpp:386] inception_3b/relu_3x3_reduce -> inception_3b/3x3_reduce (in-place)
I0403 18:12:48.840425  6696 net.cpp:141] Setting up inception_3b/relu_3x3_reduce
I0403 18:12:48.840454  6696 net.cpp:148] Top shape: 24 128 28 28 (2408448)
I0403 18:12:48.840471  6696 net.cpp:156] Memory required for data: 696042528
I0403 18:12:48.840487  6696 layer_factory.hpp:77] Creating layer inception_3b/3x3
I0403 18:12:48.840513  6696 net.cpp:91] Creating Layer inception_3b/3x3
I0403 18:12:48.840533  6696 net.cpp:425] inception_3b/3x3 <- inception_3b/3x3_reduce
I0403 18:12:48.840555  6696 net.cpp:399] inception_3b/3x3 -> inception_3b/3x3
I0403 18:12:48.843644  6696 net.cpp:141] Setting up inception_3b/3x3
I0403 18:12:48.843678  6696 net.cpp:148] Top shape: 24 192 28 28 (3612672)
I0403 18:12:48.843695  6696 net.cpp:156] Memory required for data: 710493216
I0403 18:12:48.843715  6696 layer_factory.hpp:77] Creating layer inception_3b/relu_3x3
I0403 18:12:48.843734  6696 net.cpp:91] Creating Layer inception_3b/relu_3x3
I0403 18:12:48.843751  6696 net.cpp:425] inception_3b/relu_3x3 <- inception_3b/3x3
I0403 18:12:48.843772  6696 net.cpp:386] inception_3b/relu_3x3 -> inception_3b/3x3 (in-place)
I0403 18:12:48.844065  6696 net.cpp:141] Setting up inception_3b/relu_3x3
I0403 18:12:48.844095  6696 net.cpp:148] Top shape: 24 192 28 28 (3612672)
I0403 18:12:48.844112  6696 net.cpp:156] Memory required for data: 724943904
I0403 18:12:48.844128  6696 layer_factory.hpp:77] Creating layer inception_3b/5x5_reduce
I0403 18:12:48.844153  6696 net.cpp:91] Creating Layer inception_3b/5x5_reduce
I0403 18:12:48.844172  6696 net.cpp:425] inception_3b/5x5_reduce <- inception_3a/output_inception_3a/output_0_split_2
I0403 18:12:48.844193  6696 net.cpp:399] inception_3b/5x5_reduce -> inception_3b/5x5_reduce
I0403 18:12:48.845266  6696 net.cpp:141] Setting up inception_3b/5x5_reduce
I0403 18:12:48.845299  6696 net.cpp:148] Top shape: 24 32 28 28 (602112)
I0403 18:12:48.845315  6696 net.cpp:156] Memory required for data: 727352352
I0403 18:12:48.845335  6696 layer_factory.hpp:77] Creating layer inception_3b/relu_5x5_reduce
I0403 18:12:48.845355  6696 net.cpp:91] Creating Layer inception_3b/relu_5x5_reduce
I0403 18:12:48.845372  6696 net.cpp:425] inception_3b/relu_5x5_reduce <- inception_3b/5x5_reduce
I0403 18:12:48.845391  6696 net.cpp:386] inception_3b/relu_5x5_reduce -> inception_3b/5x5_reduce (in-place)
I0403 18:12:48.845587  6696 net.cpp:141] Setting up inception_3b/relu_5x5_reduce
I0403 18:12:48.845614  6696 net.cpp:148] Top shape: 24 32 28 28 (602112)
I0403 18:12:48.845629  6696 net.cpp:156] Memory required for data: 729760800
I0403 18:12:48.845644  6696 layer_factory.hpp:77] Creating layer inception_3b/5x5
I0403 18:12:48.845667  6696 net.cpp:91] Creating Layer inception_3b/5x5
I0403 18:12:48.845686  6696 net.cpp:425] inception_3b/5x5 <- inception_3b/5x5_reduce
I0403 18:12:48.845708  6696 net.cpp:399] inception_3b/5x5 -> inception_3b/5x5
I0403 18:12:48.847738  6696 net.cpp:141] Setting up inception_3b/5x5
I0403 18:12:48.847769  6696 net.cpp:148] Top shape: 24 96 28 28 (1806336)
I0403 18:12:48.847784  6696 net.cpp:156] Memory required for data: 736986144
I0403 18:12:48.847802  6696 layer_factory.hpp:77] Creating layer inception_3b/relu_5x5
I0403 18:12:48.847823  6696 net.cpp:91] Creating Layer inception_3b/relu_5x5
I0403 18:12:48.847841  6696 net.cpp:425] inception_3b/relu_5x5 <- inception_3b/5x5
I0403 18:12:48.847861  6696 net.cpp:386] inception_3b/relu_5x5 -> inception_3b/5x5 (in-place)
I0403 18:12:48.848057  6696 net.cpp:141] Setting up inception_3b/relu_5x5
I0403 18:12:48.848083  6696 net.cpp:148] Top shape: 24 96 28 28 (1806336)
I0403 18:12:48.848099  6696 net.cpp:156] Memory required for data: 744211488
I0403 18:12:48.848114  6696 layer_factory.hpp:77] Creating layer inception_3b/pool
I0403 18:12:48.848132  6696 net.cpp:91] Creating Layer inception_3b/pool
I0403 18:12:48.848150  6696 net.cpp:425] inception_3b/pool <- inception_3a/output_inception_3a/output_0_split_3
I0403 18:12:48.848168  6696 net.cpp:399] inception_3b/pool -> inception_3b/pool
I0403 18:12:48.848230  6696 net.cpp:141] Setting up inception_3b/pool
I0403 18:12:48.848254  6696 net.cpp:148] Top shape: 24 256 28 28 (4816896)
I0403 18:12:48.848269  6696 net.cpp:156] Memory required for data: 763479072
I0403 18:12:48.848284  6696 layer_factory.hpp:77] Creating layer inception_3b/pool_proj
I0403 18:12:48.848309  6696 net.cpp:91] Creating Layer inception_3b/pool_proj
I0403 18:12:48.848326  6696 net.cpp:425] inception_3b/pool_proj <- inception_3b/pool
I0403 18:12:48.848350  6696 net.cpp:399] inception_3b/pool_proj -> inception_3b/pool_proj
I0403 18:12:48.849421  6696 net.cpp:141] Setting up inception_3b/pool_proj
I0403 18:12:48.849450  6696 net.cpp:148] Top shape: 24 64 28 28 (1204224)
I0403 18:12:48.849465  6696 net.cpp:156] Memory required for data: 768295968
I0403 18:12:48.849483  6696 layer_factory.hpp:77] Creating layer inception_3b/relu_pool_proj
I0403 18:12:48.849505  6696 net.cpp:91] Creating Layer inception_3b/relu_pool_proj
I0403 18:12:48.849522  6696 net.cpp:425] inception_3b/relu_pool_proj <- inception_3b/pool_proj
I0403 18:12:48.849540  6696 net.cpp:386] inception_3b/relu_pool_proj -> inception_3b/pool_proj (in-place)
I0403 18:12:48.849928  6696 net.cpp:141] Setting up inception_3b/relu_pool_proj
I0403 18:12:48.849956  6696 net.cpp:148] Top shape: 24 64 28 28 (1204224)
I0403 18:12:48.849972  6696 net.cpp:156] Memory required for data: 773112864
I0403 18:12:48.849987  6696 layer_factory.hpp:77] Creating layer inception_3b/output
I0403 18:12:48.850005  6696 net.cpp:91] Creating Layer inception_3b/output
I0403 18:12:48.850021  6696 net.cpp:425] inception_3b/output <- inception_3b/1x1
I0403 18:12:48.850039  6696 net.cpp:425] inception_3b/output <- inception_3b/3x3
I0403 18:12:48.850054  6696 net.cpp:425] inception_3b/output <- inception_3b/5x5
I0403 18:12:48.850070  6696 net.cpp:425] inception_3b/output <- inception_3b/pool_proj
I0403 18:12:48.850091  6696 net.cpp:399] inception_3b/output -> inception_3b/output
I0403 18:12:48.850137  6696 net.cpp:141] Setting up inception_3b/output
I0403 18:12:48.850162  6696 net.cpp:148] Top shape: 24 480 28 28 (9031680)
I0403 18:12:48.850179  6696 net.cpp:156] Memory required for data: 809239584
I0403 18:12:48.850194  6696 layer_factory.hpp:77] Creating layer pool3/3x3_s2
I0403 18:12:48.850216  6696 net.cpp:91] Creating Layer pool3/3x3_s2
I0403 18:12:48.850234  6696 net.cpp:425] pool3/3x3_s2 <- inception_3b/output
I0403 18:12:48.850270  6696 net.cpp:399] pool3/3x3_s2 -> pool3/3x3_s2
I0403 18:12:48.850330  6696 net.cpp:141] Setting up pool3/3x3_s2
I0403 18:12:48.850354  6696 net.cpp:148] Top shape: 24 480 14 14 (2257920)
I0403 18:12:48.850370  6696 net.cpp:156] Memory required for data: 818271264
I0403 18:12:48.850385  6696 layer_factory.hpp:77] Creating layer pool3/3x3_s2_pool3/3x3_s2_0_split
I0403 18:12:48.850402  6696 net.cpp:91] Creating Layer pool3/3x3_s2_pool3/3x3_s2_0_split
I0403 18:12:48.850417  6696 net.cpp:425] pool3/3x3_s2_pool3/3x3_s2_0_split <- pool3/3x3_s2
I0403 18:12:48.850438  6696 net.cpp:399] pool3/3x3_s2_pool3/3x3_s2_0_split -> pool3/3x3_s2_pool3/3x3_s2_0_split_0
I0403 18:12:48.850460  6696 net.cpp:399] pool3/3x3_s2_pool3/3x3_s2_0_split -> pool3/3x3_s2_pool3/3x3_s2_0_split_1
I0403 18:12:48.850481  6696 net.cpp:399] pool3/3x3_s2_pool3/3x3_s2_0_split -> pool3/3x3_s2_pool3/3x3_s2_0_split_2
I0403 18:12:48.850502  6696 net.cpp:399] pool3/3x3_s2_pool3/3x3_s2_0_split -> pool3/3x3_s2_pool3/3x3_s2_0_split_3
I0403 18:12:48.850580  6696 net.cpp:141] Setting up pool3/3x3_s2_pool3/3x3_s2_0_split
I0403 18:12:48.850605  6696 net.cpp:148] Top shape: 24 480 14 14 (2257920)
I0403 18:12:48.850621  6696 net.cpp:148] Top shape: 24 480 14 14 (2257920)
I0403 18:12:48.850638  6696 net.cpp:148] Top shape: 24 480 14 14 (2257920)
I0403 18:12:48.850653  6696 net.cpp:148] Top shape: 24 480 14 14 (2257920)
I0403 18:12:48.850667  6696 net.cpp:156] Memory required for data: 854397984
I0403 18:12:48.850682  6696 layer_factory.hpp:77] Creating layer inception_4a/1x1
I0403 18:12:48.850705  6696 net.cpp:91] Creating Layer inception_4a/1x1
I0403 18:12:48.850723  6696 net.cpp:425] inception_4a/1x1 <- pool3/3x3_s2_pool3/3x3_s2_0_split_0
I0403 18:12:48.850746  6696 net.cpp:399] inception_4a/1x1 -> inception_4a/1x1
I0403 18:12:48.852360  6696 net.cpp:141] Setting up inception_4a/1x1
I0403 18:12:48.852390  6696 net.cpp:148] Top shape: 24 192 14 14 (903168)
I0403 18:12:48.852406  6696 net.cpp:156] Memory required for data: 858010656
I0403 18:12:48.852424  6696 layer_factory.hpp:77] Creating layer inception_4a/relu_1x1
I0403 18:12:48.852447  6696 net.cpp:91] Creating Layer inception_4a/relu_1x1
I0403 18:12:48.852464  6696 net.cpp:425] inception_4a/relu_1x1 <- inception_4a/1x1
I0403 18:12:48.852483  6696 net.cpp:386] inception_4a/relu_1x1 -> inception_4a/1x1 (in-place)
I0403 18:12:48.852661  6696 net.cpp:141] Setting up inception_4a/relu_1x1
I0403 18:12:48.852687  6696 net.cpp:148] Top shape: 24 192 14 14 (903168)
I0403 18:12:48.852701  6696 net.cpp:156] Memory required for data: 861623328
I0403 18:12:48.852717  6696 layer_factory.hpp:77] Creating layer inception_4a/3x3_reduce
I0403 18:12:48.852743  6696 net.cpp:91] Creating Layer inception_4a/3x3_reduce
I0403 18:12:48.852762  6696 net.cpp:425] inception_4a/3x3_reduce <- pool3/3x3_s2_pool3/3x3_s2_0_split_1
I0403 18:12:48.852782  6696 net.cpp:399] inception_4a/3x3_reduce -> inception_4a/3x3_reduce
I0403 18:12:48.854071  6696 net.cpp:141] Setting up inception_4a/3x3_reduce
I0403 18:12:48.854100  6696 net.cpp:148] Top shape: 24 96 14 14 (451584)
I0403 18:12:48.854115  6696 net.cpp:156] Memory required for data: 863429664
I0403 18:12:48.854141  6696 layer_factory.hpp:77] Creating layer inception_4a/relu_3x3_reduce
I0403 18:12:48.854162  6696 net.cpp:91] Creating Layer inception_4a/relu_3x3_reduce
I0403 18:12:48.854178  6696 net.cpp:425] inception_4a/relu_3x3_reduce <- inception_4a/3x3_reduce
I0403 18:12:48.854198  6696 net.cpp:386] inception_4a/relu_3x3_reduce -> inception_4a/3x3_reduce (in-place)
I0403 18:12:48.854387  6696 net.cpp:141] Setting up inception_4a/relu_3x3_reduce
I0403 18:12:48.854413  6696 net.cpp:148] Top shape: 24 96 14 14 (451584)
I0403 18:12:48.854429  6696 net.cpp:156] Memory required for data: 865236000
I0403 18:12:48.854444  6696 layer_factory.hpp:77] Creating layer inception_4a/3x3
I0403 18:12:48.854466  6696 net.cpp:91] Creating Layer inception_4a/3x3
I0403 18:12:48.854485  6696 net.cpp:425] inception_4a/3x3 <- inception_4a/3x3_reduce
I0403 18:12:48.854506  6696 net.cpp:399] inception_4a/3x3 -> inception_4a/3x3
I0403 18:12:48.857339  6696 net.cpp:141] Setting up inception_4a/3x3
I0403 18:12:48.857369  6696 net.cpp:148] Top shape: 24 208 14 14 (978432)
I0403 18:12:48.857385  6696 net.cpp:156] Memory required for data: 869149728
I0403 18:12:48.857405  6696 layer_factory.hpp:77] Creating layer inception_4a/relu_3x3
I0403 18:12:48.857429  6696 net.cpp:91] Creating Layer inception_4a/relu_3x3
I0403 18:12:48.857445  6696 net.cpp:425] inception_4a/relu_3x3 <- inception_4a/3x3
I0403 18:12:48.857465  6696 net.cpp:386] inception_4a/relu_3x3 -> inception_4a/3x3 (in-place)
I0403 18:12:48.857758  6696 net.cpp:141] Setting up inception_4a/relu_3x3
I0403 18:12:48.857785  6696 net.cpp:148] Top shape: 24 208 14 14 (978432)
I0403 18:12:48.857805  6696 net.cpp:156] Memory required for data: 873063456
I0403 18:12:48.857820  6696 layer_factory.hpp:77] Creating layer inception_4a/5x5_reduce
I0403 18:12:48.857841  6696 net.cpp:91] Creating Layer inception_4a/5x5_reduce
I0403 18:12:48.857859  6696 net.cpp:425] inception_4a/5x5_reduce <- pool3/3x3_s2_pool3/3x3_s2_0_split_2
I0403 18:12:48.857882  6696 net.cpp:399] inception_4a/5x5_reduce -> inception_4a/5x5_reduce
I0403 18:12:48.858964  6696 net.cpp:141] Setting up inception_4a/5x5_reduce
I0403 18:12:48.858996  6696 net.cpp:148] Top shape: 24 16 14 14 (75264)
I0403 18:12:48.859014  6696 net.cpp:156] Memory required for data: 873364512
I0403 18:12:48.859033  6696 layer_factory.hpp:77] Creating layer inception_4a/relu_5x5_reduce
I0403 18:12:48.859053  6696 net.cpp:91] Creating Layer inception_4a/relu_5x5_reduce
I0403 18:12:48.859069  6696 net.cpp:425] inception_4a/relu_5x5_reduce <- inception_4a/5x5_reduce
I0403 18:12:48.859088  6696 net.cpp:386] inception_4a/relu_5x5_reduce -> inception_4a/5x5_reduce (in-place)
I0403 18:12:48.859288  6696 net.cpp:141] Setting up inception_4a/relu_5x5_reduce
I0403 18:12:48.859314  6696 net.cpp:148] Top shape: 24 16 14 14 (75264)
I0403 18:12:48.859330  6696 net.cpp:156] Memory required for data: 873665568
I0403 18:12:48.859347  6696 layer_factory.hpp:77] Creating layer inception_4a/5x5
I0403 18:12:48.859370  6696 net.cpp:91] Creating Layer inception_4a/5x5
I0403 18:12:48.859390  6696 net.cpp:425] inception_4a/5x5 <- inception_4a/5x5_reduce
I0403 18:12:48.859413  6696 net.cpp:399] inception_4a/5x5 -> inception_4a/5x5
I0403 18:12:48.860559  6696 net.cpp:141] Setting up inception_4a/5x5
I0403 18:12:48.860587  6696 net.cpp:148] Top shape: 24 48 14 14 (225792)
I0403 18:12:48.860604  6696 net.cpp:156] Memory required for data: 874568736
I0403 18:12:48.860623  6696 layer_factory.hpp:77] Creating layer inception_4a/relu_5x5
I0403 18:12:48.860641  6696 net.cpp:91] Creating Layer inception_4a/relu_5x5
I0403 18:12:48.860658  6696 net.cpp:425] inception_4a/relu_5x5 <- inception_4a/5x5
I0403 18:12:48.860680  6696 net.cpp:386] inception_4a/relu_5x5 -> inception_4a/5x5 (in-place)
I0403 18:12:48.860872  6696 net.cpp:141] Setting up inception_4a/relu_5x5
I0403 18:12:48.860898  6696 net.cpp:148] Top shape: 24 48 14 14 (225792)
I0403 18:12:48.860913  6696 net.cpp:156] Memory required for data: 875471904
I0403 18:12:48.860929  6696 layer_factory.hpp:77] Creating layer inception_4a/pool
I0403 18:12:48.860950  6696 net.cpp:91] Creating Layer inception_4a/pool
I0403 18:12:48.860968  6696 net.cpp:425] inception_4a/pool <- pool3/3x3_s2_pool3/3x3_s2_0_split_3
I0403 18:12:48.860987  6696 net.cpp:399] inception_4a/pool -> inception_4a/pool
I0403 18:12:48.861052  6696 net.cpp:141] Setting up inception_4a/pool
I0403 18:12:48.861078  6696 net.cpp:148] Top shape: 24 480 14 14 (2257920)
I0403 18:12:48.861094  6696 net.cpp:156] Memory required for data: 884503584
I0403 18:12:48.861110  6696 layer_factory.hpp:77] Creating layer inception_4a/pool_proj
I0403 18:12:48.861134  6696 net.cpp:91] Creating Layer inception_4a/pool_proj
I0403 18:12:48.861153  6696 net.cpp:425] inception_4a/pool_proj <- inception_4a/pool
I0403 18:12:48.861176  6696 net.cpp:399] inception_4a/pool_proj -> inception_4a/pool_proj
I0403 18:12:48.862429  6696 net.cpp:141] Setting up inception_4a/pool_proj
I0403 18:12:48.862462  6696 net.cpp:148] Top shape: 24 64 14 14 (301056)
I0403 18:12:48.862494  6696 net.cpp:156] Memory required for data: 885707808
I0403 18:12:48.862514  6696 layer_factory.hpp:77] Creating layer inception_4a/relu_pool_proj
I0403 18:12:48.862539  6696 net.cpp:91] Creating Layer inception_4a/relu_pool_proj
I0403 18:12:48.862557  6696 net.cpp:425] inception_4a/relu_pool_proj <- inception_4a/pool_proj
I0403 18:12:48.862576  6696 net.cpp:386] inception_4a/relu_pool_proj -> inception_4a/pool_proj (in-place)
I0403 18:12:48.862872  6696 net.cpp:141] Setting up inception_4a/relu_pool_proj
I0403 18:12:48.862900  6696 net.cpp:148] Top shape: 24 64 14 14 (301056)
I0403 18:12:48.862915  6696 net.cpp:156] Memory required for data: 886912032
I0403 18:12:48.862931  6696 layer_factory.hpp:77] Creating layer inception_4a/output
I0403 18:12:48.862948  6696 net.cpp:91] Creating Layer inception_4a/output
I0403 18:12:48.862964  6696 net.cpp:425] inception_4a/output <- inception_4a/1x1
I0403 18:12:48.862982  6696 net.cpp:425] inception_4a/output <- inception_4a/3x3
I0403 18:12:48.862999  6696 net.cpp:425] inception_4a/output <- inception_4a/5x5
I0403 18:12:48.863018  6696 net.cpp:425] inception_4a/output <- inception_4a/pool_proj
I0403 18:12:48.863037  6696 net.cpp:399] inception_4a/output -> inception_4a/output
I0403 18:12:48.863087  6696 net.cpp:141] Setting up inception_4a/output
I0403 18:12:48.863112  6696 net.cpp:148] Top shape: 24 512 14 14 (2408448)
I0403 18:12:48.863128  6696 net.cpp:156] Memory required for data: 896545824
I0403 18:12:48.863144  6696 layer_factory.hpp:77] Creating layer inception_4a/output_inception_4a/output_0_split
I0403 18:12:48.863163  6696 net.cpp:91] Creating Layer inception_4a/output_inception_4a/output_0_split
I0403 18:12:48.863180  6696 net.cpp:425] inception_4a/output_inception_4a/output_0_split <- inception_4a/output
I0403 18:12:48.863201  6696 net.cpp:399] inception_4a/output_inception_4a/output_0_split -> inception_4a/output_inception_4a/output_0_split_0
I0403 18:12:48.863231  6696 net.cpp:399] inception_4a/output_inception_4a/output_0_split -> inception_4a/output_inception_4a/output_0_split_1
I0403 18:12:48.863255  6696 net.cpp:399] inception_4a/output_inception_4a/output_0_split -> inception_4a/output_inception_4a/output_0_split_2
I0403 18:12:48.863276  6696 net.cpp:399] inception_4a/output_inception_4a/output_0_split -> inception_4a/output_inception_4a/output_0_split_3
I0403 18:12:48.863298  6696 net.cpp:399] inception_4a/output_inception_4a/output_0_split -> inception_4a/output_inception_4a/output_0_split_4
I0403 18:12:48.863395  6696 net.cpp:141] Setting up inception_4a/output_inception_4a/output_0_split
I0403 18:12:48.863423  6696 net.cpp:148] Top shape: 24 512 14 14 (2408448)
I0403 18:12:48.863442  6696 net.cpp:148] Top shape: 24 512 14 14 (2408448)
I0403 18:12:48.863459  6696 net.cpp:148] Top shape: 24 512 14 14 (2408448)
I0403 18:12:48.863476  6696 net.cpp:148] Top shape: 24 512 14 14 (2408448)
I0403 18:12:48.863492  6696 net.cpp:148] Top shape: 24 512 14 14 (2408448)
I0403 18:12:48.863507  6696 net.cpp:156] Memory required for data: 944714784
I0403 18:12:48.863523  6696 layer_factory.hpp:77] Creating layer loss1/ave_pool
I0403 18:12:48.863543  6696 net.cpp:91] Creating Layer loss1/ave_pool
I0403 18:12:48.863559  6696 net.cpp:425] loss1/ave_pool <- inception_4a/output_inception_4a/output_0_split_0
I0403 18:12:48.863579  6696 net.cpp:399] loss1/ave_pool -> loss1/ave_pool
I0403 18:12:48.863801  6696 net.cpp:141] Setting up loss1/ave_pool
I0403 18:12:48.863827  6696 net.cpp:148] Top shape: 24 512 4 4 (196608)
I0403 18:12:48.863843  6696 net.cpp:156] Memory required for data: 945501216
I0403 18:12:48.863859  6696 layer_factory.hpp:77] Creating layer loss1/conv
I0403 18:12:48.863883  6696 net.cpp:91] Creating Layer loss1/conv
I0403 18:12:48.863903  6696 net.cpp:425] loss1/conv <- loss1/ave_pool
I0403 18:12:48.863925  6696 net.cpp:399] loss1/conv -> loss1/conv
I0403 18:12:48.865424  6696 net.cpp:141] Setting up loss1/conv
I0403 18:12:48.865458  6696 net.cpp:148] Top shape: 24 128 4 4 (49152)
I0403 18:12:48.865492  6696 net.cpp:156] Memory required for data: 945697824
I0403 18:12:48.865514  6696 layer_factory.hpp:77] Creating layer loss1/relu_conv
I0403 18:12:48.865531  6696 net.cpp:91] Creating Layer loss1/relu_conv
I0403 18:12:48.865550  6696 net.cpp:425] loss1/relu_conv <- loss1/conv
I0403 18:12:48.865567  6696 net.cpp:386] loss1/relu_conv -> loss1/conv (in-place)
I0403 18:12:48.865865  6696 net.cpp:141] Setting up loss1/relu_conv
I0403 18:12:48.865895  6696 net.cpp:148] Top shape: 24 128 4 4 (49152)
I0403 18:12:48.865912  6696 net.cpp:156] Memory required for data: 945894432
I0403 18:12:48.865929  6696 layer_factory.hpp:77] Creating layer loss1/fc
I0403 18:12:48.865954  6696 net.cpp:91] Creating Layer loss1/fc
I0403 18:12:48.865973  6696 net.cpp:425] loss1/fc <- loss1/conv
I0403 18:12:48.865996  6696 net.cpp:399] loss1/fc -> loss1/fc
I0403 18:12:48.884917  6696 net.cpp:141] Setting up loss1/fc
I0403 18:12:48.884990  6696 net.cpp:148] Top shape: 24 1024 (24576)
I0403 18:12:48.885005  6696 net.cpp:156] Memory required for data: 945992736
I0403 18:12:48.885026  6696 layer_factory.hpp:77] Creating layer loss1/relu_fc
I0403 18:12:48.885048  6696 net.cpp:91] Creating Layer loss1/relu_fc
I0403 18:12:48.885067  6696 net.cpp:425] loss1/relu_fc <- loss1/fc
I0403 18:12:48.885087  6696 net.cpp:386] loss1/relu_fc -> loss1/fc (in-place)
I0403 18:12:48.885324  6696 net.cpp:141] Setting up loss1/relu_fc
I0403 18:12:48.885349  6696 net.cpp:148] Top shape: 24 1024 (24576)
I0403 18:12:48.885365  6696 net.cpp:156] Memory required for data: 946091040
I0403 18:12:48.885380  6696 layer_factory.hpp:77] Creating layer loss1/drop_fc
I0403 18:12:48.885411  6696 net.cpp:91] Creating Layer loss1/drop_fc
I0403 18:12:48.885432  6696 net.cpp:425] loss1/drop_fc <- loss1/fc
I0403 18:12:48.885449  6696 net.cpp:386] loss1/drop_fc -> loss1/fc (in-place)
I0403 18:12:48.885505  6696 net.cpp:141] Setting up loss1/drop_fc
I0403 18:12:48.885529  6696 net.cpp:148] Top shape: 24 1024 (24576)
I0403 18:12:48.885545  6696 net.cpp:156] Memory required for data: 946189344
I0403 18:12:48.885560  6696 layer_factory.hpp:77] Creating layer loss1/classifier_plantvillage
I0403 18:12:48.885581  6696 net.cpp:91] Creating Layer loss1/classifier_plantvillage
I0403 18:12:48.885596  6696 net.cpp:425] loss1/classifier_plantvillage <- loss1/fc
I0403 18:12:48.885620  6696 net.cpp:399] loss1/classifier_plantvillage -> loss1/classifier_plantvillage
I0403 18:12:48.886615  6696 net.cpp:141] Setting up loss1/classifier_plantvillage
I0403 18:12:48.886646  6696 net.cpp:148] Top shape: 24 38 (912)
I0403 18:12:48.886662  6696 net.cpp:156] Memory required for data: 946192992
I0403 18:12:48.886682  6696 layer_factory.hpp:77] Creating layer loss1/classifier_plantvillage_loss1/classifier_plantvillage_0_split
I0403 18:12:48.886700  6696 net.cpp:91] Creating Layer loss1/classifier_plantvillage_loss1/classifier_plantvillage_0_split
I0403 18:12:48.886718  6696 net.cpp:425] loss1/classifier_plantvillage_loss1/classifier_plantvillage_0_split <- loss1/classifier_plantvillage
I0403 18:12:48.886736  6696 net.cpp:399] loss1/classifier_plantvillage_loss1/classifier_plantvillage_0_split -> loss1/classifier_plantvillage_loss1/classifier_plantvillage_0_split_0
I0403 18:12:48.886759  6696 net.cpp:399] loss1/classifier_plantvillage_loss1/classifier_plantvillage_0_split -> loss1/classifier_plantvillage_loss1/classifier_plantvillage_0_split_1
I0403 18:12:48.886780  6696 net.cpp:399] loss1/classifier_plantvillage_loss1/classifier_plantvillage_0_split -> loss1/classifier_plantvillage_loss1/classifier_plantvillage_0_split_2
I0403 18:12:48.886849  6696 net.cpp:141] Setting up loss1/classifier_plantvillage_loss1/classifier_plantvillage_0_split
I0403 18:12:48.886874  6696 net.cpp:148] Top shape: 24 38 (912)
I0403 18:12:48.886891  6696 net.cpp:148] Top shape: 24 38 (912)
I0403 18:12:48.886907  6696 net.cpp:148] Top shape: 24 38 (912)
I0403 18:12:48.886921  6696 net.cpp:156] Memory required for data: 946203936
I0403 18:12:48.886936  6696 layer_factory.hpp:77] Creating layer inception_4b/1x1
I0403 18:12:48.886958  6696 net.cpp:91] Creating Layer inception_4b/1x1
I0403 18:12:48.887003  6696 net.cpp:425] inception_4b/1x1 <- inception_4a/output_inception_4a/output_0_split_1
I0403 18:12:48.887027  6696 net.cpp:399] inception_4b/1x1 -> inception_4b/1x1
I0403 18:12:48.888767  6696 net.cpp:141] Setting up inception_4b/1x1
I0403 18:12:48.888798  6696 net.cpp:148] Top shape: 24 160 14 14 (752640)
I0403 18:12:48.888815  6696 net.cpp:156] Memory required for data: 949214496
I0403 18:12:48.888833  6696 layer_factory.hpp:77] Creating layer inception_4b/relu_1x1
I0403 18:12:48.888852  6696 net.cpp:91] Creating Layer inception_4b/relu_1x1
I0403 18:12:48.888870  6696 net.cpp:425] inception_4b/relu_1x1 <- inception_4b/1x1
I0403 18:12:48.888887  6696 net.cpp:386] inception_4b/relu_1x1 -> inception_4b/1x1 (in-place)
I0403 18:12:48.889076  6696 net.cpp:141] Setting up inception_4b/relu_1x1
I0403 18:12:48.889102  6696 net.cpp:148] Top shape: 24 160 14 14 (752640)
I0403 18:12:48.889117  6696 net.cpp:156] Memory required for data: 952225056
I0403 18:12:48.889132  6696 layer_factory.hpp:77] Creating layer inception_4b/3x3_reduce
I0403 18:12:48.889156  6696 net.cpp:91] Creating Layer inception_4b/3x3_reduce
I0403 18:12:48.889174  6696 net.cpp:425] inception_4b/3x3_reduce <- inception_4a/output_inception_4a/output_0_split_2
I0403 18:12:48.889199  6696 net.cpp:399] inception_4b/3x3_reduce -> inception_4b/3x3_reduce
I0403 18:12:48.890604  6696 net.cpp:141] Setting up inception_4b/3x3_reduce
I0403 18:12:48.890636  6696 net.cpp:148] Top shape: 24 112 14 14 (526848)
I0403 18:12:48.890653  6696 net.cpp:156] Memory required for data: 954332448
I0403 18:12:48.890672  6696 layer_factory.hpp:77] Creating layer inception_4b/relu_3x3_reduce
I0403 18:12:48.890691  6696 net.cpp:91] Creating Layer inception_4b/relu_3x3_reduce
I0403 18:12:48.890707  6696 net.cpp:425] inception_4b/relu_3x3_reduce <- inception_4b/3x3_reduce
I0403 18:12:48.890727  6696 net.cpp:386] inception_4b/relu_3x3_reduce -> inception_4b/3x3_reduce (in-place)
I0403 18:12:48.891019  6696 net.cpp:141] Setting up inception_4b/relu_3x3_reduce
I0403 18:12:48.891049  6696 net.cpp:148] Top shape: 24 112 14 14 (526848)
I0403 18:12:48.891067  6696 net.cpp:156] Memory required for data: 956439840
I0403 18:12:48.891082  6696 layer_factory.hpp:77] Creating layer inception_4b/3x3
I0403 18:12:48.891104  6696 net.cpp:91] Creating Layer inception_4b/3x3
I0403 18:12:48.891124  6696 net.cpp:425] inception_4b/3x3 <- inception_4b/3x3_reduce
I0403 18:12:48.891142  6696 net.cpp:399] inception_4b/3x3 -> inception_4b/3x3
I0403 18:12:48.894256  6696 net.cpp:141] Setting up inception_4b/3x3
I0403 18:12:48.894287  6696 net.cpp:148] Top shape: 24 224 14 14 (1053696)
I0403 18:12:48.894302  6696 net.cpp:156] Memory required for data: 960654624
I0403 18:12:48.894321  6696 layer_factory.hpp:77] Creating layer inception_4b/relu_3x3
I0403 18:12:48.894343  6696 net.cpp:91] Creating Layer inception_4b/relu_3x3
I0403 18:12:48.894362  6696 net.cpp:425] inception_4b/relu_3x3 <- inception_4b/3x3
I0403 18:12:48.894381  6696 net.cpp:386] inception_4b/relu_3x3 -> inception_4b/3x3 (in-place)
I0403 18:12:48.894569  6696 net.cpp:141] Setting up inception_4b/relu_3x3
I0403 18:12:48.894595  6696 net.cpp:148] Top shape: 24 224 14 14 (1053696)
I0403 18:12:48.894610  6696 net.cpp:156] Memory required for data: 964869408
I0403 18:12:48.894626  6696 layer_factory.hpp:77] Creating layer inception_4b/5x5_reduce
I0403 18:12:48.894652  6696 net.cpp:91] Creating Layer inception_4b/5x5_reduce
I0403 18:12:48.894671  6696 net.cpp:425] inception_4b/5x5_reduce <- inception_4a/output_inception_4a/output_0_split_3
I0403 18:12:48.894692  6696 net.cpp:399] inception_4b/5x5_reduce -> inception_4b/5x5_reduce
I0403 18:12:48.895823  6696 net.cpp:141] Setting up inception_4b/5x5_reduce
I0403 18:12:48.895853  6696 net.cpp:148] Top shape: 24 24 14 14 (112896)
I0403 18:12:48.895869  6696 net.cpp:156] Memory required for data: 965320992
I0403 18:12:48.895889  6696 layer_factory.hpp:77] Creating layer inception_4b/relu_5x5_reduce
I0403 18:12:48.895907  6696 net.cpp:91] Creating Layer inception_4b/relu_5x5_reduce
I0403 18:12:48.895939  6696 net.cpp:425] inception_4b/relu_5x5_reduce <- inception_4b/5x5_reduce
I0403 18:12:48.895961  6696 net.cpp:386] inception_4b/relu_5x5_reduce -> inception_4b/5x5_reduce (in-place)
I0403 18:12:48.896152  6696 net.cpp:141] Setting up inception_4b/relu_5x5_reduce
I0403 18:12:48.896178  6696 net.cpp:148] Top shape: 24 24 14 14 (112896)
I0403 18:12:48.896193  6696 net.cpp:156] Memory required for data: 965772576
I0403 18:12:48.896212  6696 layer_factory.hpp:77] Creating layer inception_4b/5x5
I0403 18:12:48.896237  6696 net.cpp:91] Creating Layer inception_4b/5x5
I0403 18:12:48.896258  6696 net.cpp:425] inception_4b/5x5 <- inception_4b/5x5_reduce
I0403 18:12:48.896281  6696 net.cpp:399] inception_4b/5x5 -> inception_4b/5x5
I0403 18:12:48.897552  6696 net.cpp:141] Setting up inception_4b/5x5
I0403 18:12:48.897583  6696 net.cpp:148] Top shape: 24 64 14 14 (301056)
I0403 18:12:48.897599  6696 net.cpp:156] Memory required for data: 966976800
I0403 18:12:48.897619  6696 layer_factory.hpp:77] Creating layer inception_4b/relu_5x5
I0403 18:12:48.897639  6696 net.cpp:91] Creating Layer inception_4b/relu_5x5
I0403 18:12:48.897655  6696 net.cpp:425] inception_4b/relu_5x5 <- inception_4b/5x5
I0403 18:12:48.897673  6696 net.cpp:386] inception_4b/relu_5x5 -> inception_4b/5x5 (in-place)
I0403 18:12:48.897966  6696 net.cpp:141] Setting up inception_4b/relu_5x5
I0403 18:12:48.897996  6696 net.cpp:148] Top shape: 24 64 14 14 (301056)
I0403 18:12:48.898013  6696 net.cpp:156] Memory required for data: 968181024
I0403 18:12:48.898028  6696 layer_factory.hpp:77] Creating layer inception_4b/pool
I0403 18:12:48.898048  6696 net.cpp:91] Creating Layer inception_4b/pool
I0403 18:12:48.898066  6696 net.cpp:425] inception_4b/pool <- inception_4a/output_inception_4a/output_0_split_4
I0403 18:12:48.898084  6696 net.cpp:399] inception_4b/pool -> inception_4b/pool
I0403 18:12:48.898151  6696 net.cpp:141] Setting up inception_4b/pool
I0403 18:12:48.898175  6696 net.cpp:148] Top shape: 24 512 14 14 (2408448)
I0403 18:12:48.898191  6696 net.cpp:156] Memory required for data: 977814816
I0403 18:12:48.898206  6696 layer_factory.hpp:77] Creating layer inception_4b/pool_proj
I0403 18:12:48.898237  6696 net.cpp:91] Creating Layer inception_4b/pool_proj
I0403 18:12:48.898257  6696 net.cpp:425] inception_4b/pool_proj <- inception_4b/pool
I0403 18:12:48.898279  6696 net.cpp:399] inception_4b/pool_proj -> inception_4b/pool_proj
I0403 18:12:48.899538  6696 net.cpp:141] Setting up inception_4b/pool_proj
I0403 18:12:48.899571  6696 net.cpp:148] Top shape: 24 64 14 14 (301056)
I0403 18:12:48.899588  6696 net.cpp:156] Memory required for data: 979019040
I0403 18:12:48.899607  6696 layer_factory.hpp:77] Creating layer inception_4b/relu_pool_proj
I0403 18:12:48.899626  6696 net.cpp:91] Creating Layer inception_4b/relu_pool_proj
I0403 18:12:48.899643  6696 net.cpp:425] inception_4b/relu_pool_proj <- inception_4b/pool_proj
I0403 18:12:48.899660  6696 net.cpp:386] inception_4b/relu_pool_proj -> inception_4b/pool_proj (in-place)
I0403 18:12:48.899852  6696 net.cpp:141] Setting up inception_4b/relu_pool_proj
I0403 18:12:48.899878  6696 net.cpp:148] Top shape: 24 64 14 14 (301056)
I0403 18:12:48.899893  6696 net.cpp:156] Memory required for data: 980223264
I0403 18:12:48.899909  6696 layer_factory.hpp:77] Creating layer inception_4b/output
I0403 18:12:48.899927  6696 net.cpp:91] Creating Layer inception_4b/output
I0403 18:12:48.899943  6696 net.cpp:425] inception_4b/output <- inception_4b/1x1
I0403 18:12:48.899961  6696 net.cpp:425] inception_4b/output <- inception_4b/3x3
I0403 18:12:48.899977  6696 net.cpp:425] inception_4b/output <- inception_4b/5x5
I0403 18:12:48.899993  6696 net.cpp:425] inception_4b/output <- inception_4b/pool_proj
I0403 18:12:48.900014  6696 net.cpp:399] inception_4b/output -> inception_4b/output
I0403 18:12:48.900063  6696 net.cpp:141] Setting up inception_4b/output
I0403 18:12:48.900089  6696 net.cpp:148] Top shape: 24 512 14 14 (2408448)
I0403 18:12:48.900105  6696 net.cpp:156] Memory required for data: 989857056
I0403 18:12:48.900135  6696 layer_factory.hpp:77] Creating layer inception_4b/output_inception_4b/output_0_split
I0403 18:12:48.900153  6696 net.cpp:91] Creating Layer inception_4b/output_inception_4b/output_0_split
I0403 18:12:48.900169  6696 net.cpp:425] inception_4b/output_inception_4b/output_0_split <- inception_4b/output
I0403 18:12:48.900189  6696 net.cpp:399] inception_4b/output_inception_4b/output_0_split -> inception_4b/output_inception_4b/output_0_split_0
I0403 18:12:48.900229  6696 net.cpp:399] inception_4b/output_inception_4b/output_0_split -> inception_4b/output_inception_4b/output_0_split_1
I0403 18:12:48.900252  6696 net.cpp:399] inception_4b/output_inception_4b/output_0_split -> inception_4b/output_inception_4b/output_0_split_2
I0403 18:12:48.900274  6696 net.cpp:399] inception_4b/output_inception_4b/output_0_split -> inception_4b/output_inception_4b/output_0_split_3
I0403 18:12:48.900357  6696 net.cpp:141] Setting up inception_4b/output_inception_4b/output_0_split
I0403 18:12:48.900380  6696 net.cpp:148] Top shape: 24 512 14 14 (2408448)
I0403 18:12:48.900396  6696 net.cpp:148] Top shape: 24 512 14 14 (2408448)
I0403 18:12:48.900413  6696 net.cpp:148] Top shape: 24 512 14 14 (2408448)
I0403 18:12:48.900429  6696 net.cpp:148] Top shape: 24 512 14 14 (2408448)
I0403 18:12:48.900442  6696 net.cpp:156] Memory required for data: 1028392224
I0403 18:12:48.900456  6696 layer_factory.hpp:77] Creating layer inception_4c/1x1
I0403 18:12:48.900480  6696 net.cpp:91] Creating Layer inception_4c/1x1
I0403 18:12:48.900496  6696 net.cpp:425] inception_4c/1x1 <- inception_4b/output_inception_4b/output_0_split_0
I0403 18:12:48.900518  6696 net.cpp:399] inception_4c/1x1 -> inception_4c/1x1
I0403 18:12:48.901957  6696 net.cpp:141] Setting up inception_4c/1x1
I0403 18:12:48.901984  6696 net.cpp:148] Top shape: 24 128 14 14 (602112)
I0403 18:12:48.902000  6696 net.cpp:156] Memory required for data: 1030800672
I0403 18:12:48.902019  6696 layer_factory.hpp:77] Creating layer inception_4c/relu_1x1
I0403 18:12:48.902040  6696 net.cpp:91] Creating Layer inception_4c/relu_1x1
I0403 18:12:48.902056  6696 net.cpp:425] inception_4c/relu_1x1 <- inception_4c/1x1
I0403 18:12:48.902073  6696 net.cpp:386] inception_4c/relu_1x1 -> inception_4c/1x1 (in-place)
I0403 18:12:48.902271  6696 net.cpp:141] Setting up inception_4c/relu_1x1
I0403 18:12:48.902295  6696 net.cpp:148] Top shape: 24 128 14 14 (602112)
I0403 18:12:48.902310  6696 net.cpp:156] Memory required for data: 1033209120
I0403 18:12:48.902325  6696 layer_factory.hpp:77] Creating layer inception_4c/3x3_reduce
I0403 18:12:48.902348  6696 net.cpp:91] Creating Layer inception_4c/3x3_reduce
I0403 18:12:48.902366  6696 net.cpp:425] inception_4c/3x3_reduce <- inception_4b/output_inception_4b/output_0_split_1
I0403 18:12:48.902386  6696 net.cpp:399] inception_4c/3x3_reduce -> inception_4c/3x3_reduce
I0403 18:12:48.904366  6696 net.cpp:141] Setting up inception_4c/3x3_reduce
I0403 18:12:48.904395  6696 net.cpp:148] Top shape: 24 128 14 14 (602112)
I0403 18:12:48.904412  6696 net.cpp:156] Memory required for data: 1035617568
I0403 18:12:48.904430  6696 layer_factory.hpp:77] Creating layer inception_4c/relu_3x3_reduce
I0403 18:12:48.904450  6696 net.cpp:91] Creating Layer inception_4c/relu_3x3_reduce
I0403 18:12:48.904469  6696 net.cpp:425] inception_4c/relu_3x3_reduce <- inception_4c/3x3_reduce
I0403 18:12:48.904486  6696 net.cpp:386] inception_4c/relu_3x3_reduce -> inception_4c/3x3_reduce (in-place)
I0403 18:12:48.904772  6696 net.cpp:141] Setting up inception_4c/relu_3x3_reduce
I0403 18:12:48.904798  6696 net.cpp:148] Top shape: 24 128 14 14 (602112)
I0403 18:12:48.904814  6696 net.cpp:156] Memory required for data: 1038026016
I0403 18:12:48.904827  6696 layer_factory.hpp:77] Creating layer inception_4c/3x3
I0403 18:12:48.904853  6696 net.cpp:91] Creating Layer inception_4c/3x3
I0403 18:12:48.904871  6696 net.cpp:425] inception_4c/3x3 <- inception_4c/3x3_reduce
I0403 18:12:48.904891  6696 net.cpp:399] inception_4c/3x3 -> inception_4c/3x3
I0403 18:12:48.908558  6696 net.cpp:141] Setting up inception_4c/3x3
I0403 18:12:48.908603  6696 net.cpp:148] Top shape: 24 256 14 14 (1204224)
I0403 18:12:48.908622  6696 net.cpp:156] Memory required for data: 1042842912
I0403 18:12:48.908654  6696 layer_factory.hpp:77] Creating layer inception_4c/relu_3x3
I0403 18:12:48.908676  6696 net.cpp:91] Creating Layer inception_4c/relu_3x3
I0403 18:12:48.908694  6696 net.cpp:425] inception_4c/relu_3x3 <- inception_4c/3x3
I0403 18:12:48.908712  6696 net.cpp:386] inception_4c/relu_3x3 -> inception_4c/3x3 (in-place)
I0403 18:12:48.908901  6696 net.cpp:141] Setting up inception_4c/relu_3x3
I0403 18:12:48.908931  6696 net.cpp:148] Top shape: 24 256 14 14 (1204224)
I0403 18:12:48.908946  6696 net.cpp:156] Memory required for data: 1047659808
I0403 18:12:48.908962  6696 layer_factory.hpp:77] Creating layer inception_4c/5x5_reduce
I0403 18:12:48.908987  6696 net.cpp:91] Creating Layer inception_4c/5x5_reduce
I0403 18:12:48.909005  6696 net.cpp:425] inception_4c/5x5_reduce <- inception_4b/output_inception_4b/output_0_split_2
I0403 18:12:48.909024  6696 net.cpp:399] inception_4c/5x5_reduce -> inception_4c/5x5_reduce
I0403 18:12:48.910177  6696 net.cpp:141] Setting up inception_4c/5x5_reduce
I0403 18:12:48.910212  6696 net.cpp:148] Top shape: 24 24 14 14 (112896)
I0403 18:12:48.910233  6696 net.cpp:156] Memory required for data: 1048111392
I0403 18:12:48.910251  6696 layer_factory.hpp:77] Creating layer inception_4c/relu_5x5_reduce
I0403 18:12:48.910270  6696 net.cpp:91] Creating Layer inception_4c/relu_5x5_reduce
I0403 18:12:48.910287  6696 net.cpp:425] inception_4c/relu_5x5_reduce <- inception_4c/5x5_reduce
I0403 18:12:48.910308  6696 net.cpp:386] inception_4c/relu_5x5_reduce -> inception_4c/5x5_reduce (in-place)
I0403 18:12:48.910504  6696 net.cpp:141] Setting up inception_4c/relu_5x5_reduce
I0403 18:12:48.910529  6696 net.cpp:148] Top shape: 24 24 14 14 (112896)
I0403 18:12:48.910545  6696 net.cpp:156] Memory required for data: 1048562976
I0403 18:12:48.910562  6696 layer_factory.hpp:77] Creating layer inception_4c/5x5
I0403 18:12:48.910584  6696 net.cpp:91] Creating Layer inception_4c/5x5
I0403 18:12:48.910604  6696 net.cpp:425] inception_4c/5x5 <- inception_4c/5x5_reduce
I0403 18:12:48.910626  6696 net.cpp:399] inception_4c/5x5 -> inception_4c/5x5
I0403 18:12:48.911909  6696 net.cpp:141] Setting up inception_4c/5x5
I0403 18:12:48.911937  6696 net.cpp:148] Top shape: 24 64 14 14 (301056)
I0403 18:12:48.911953  6696 net.cpp:156] Memory required for data: 1049767200
I0403 18:12:48.911972  6696 layer_factory.hpp:77] Creating layer inception_4c/relu_5x5
I0403 18:12:48.911993  6696 net.cpp:91] Creating Layer inception_4c/relu_5x5
I0403 18:12:48.912011  6696 net.cpp:425] inception_4c/relu_5x5 <- inception_4c/5x5
I0403 18:12:48.912030  6696 net.cpp:386] inception_4c/relu_5x5 -> inception_4c/5x5 (in-place)
I0403 18:12:48.912338  6696 net.cpp:141] Setting up inception_4c/relu_5x5
I0403 18:12:48.912365  6696 net.cpp:148] Top shape: 24 64 14 14 (301056)
I0403 18:12:48.912381  6696 net.cpp:156] Memory required for data: 1050971424
I0403 18:12:48.912396  6696 layer_factory.hpp:77] Creating layer inception_4c/pool
I0403 18:12:48.912415  6696 net.cpp:91] Creating Layer inception_4c/pool
I0403 18:12:48.912431  6696 net.cpp:425] inception_4c/pool <- inception_4b/output_inception_4b/output_0_split_3
I0403 18:12:48.912454  6696 net.cpp:399] inception_4c/pool -> inception_4c/pool
I0403 18:12:48.912521  6696 net.cpp:141] Setting up inception_4c/pool
I0403 18:12:48.912549  6696 net.cpp:148] Top shape: 24 512 14 14 (2408448)
I0403 18:12:48.912565  6696 net.cpp:156] Memory required for data: 1060605216
I0403 18:12:48.912581  6696 layer_factory.hpp:77] Creating layer inception_4c/pool_proj
I0403 18:12:48.912605  6696 net.cpp:91] Creating Layer inception_4c/pool_proj
I0403 18:12:48.912623  6696 net.cpp:425] inception_4c/pool_proj <- inception_4c/pool
I0403 18:12:48.912643  6696 net.cpp:399] inception_4c/pool_proj -> inception_4c/pool_proj
I0403 18:12:48.913908  6696 net.cpp:141] Setting up inception_4c/pool_proj
I0403 18:12:48.913940  6696 net.cpp:148] Top shape: 24 64 14 14 (301056)
I0403 18:12:48.913971  6696 net.cpp:156] Memory required for data: 1061809440
I0403 18:12:48.913991  6696 layer_factory.hpp:77] Creating layer inception_4c/relu_pool_proj
I0403 18:12:48.914011  6696 net.cpp:91] Creating Layer inception_4c/relu_pool_proj
I0403 18:12:48.914026  6696 net.cpp:425] inception_4c/relu_pool_proj <- inception_4c/pool_proj
I0403 18:12:48.914044  6696 net.cpp:386] inception_4c/relu_pool_proj -> inception_4c/pool_proj (in-place)
I0403 18:12:48.914247  6696 net.cpp:141] Setting up inception_4c/relu_pool_proj
I0403 18:12:48.914273  6696 net.cpp:148] Top shape: 24 64 14 14 (301056)
I0403 18:12:48.914288  6696 net.cpp:156] Memory required for data: 1063013664
I0403 18:12:48.914302  6696 layer_factory.hpp:77] Creating layer inception_4c/output
I0403 18:12:48.914320  6696 net.cpp:91] Creating Layer inception_4c/output
I0403 18:12:48.914336  6696 net.cpp:425] inception_4c/output <- inception_4c/1x1
I0403 18:12:48.914353  6696 net.cpp:425] inception_4c/output <- inception_4c/3x3
I0403 18:12:48.914369  6696 net.cpp:425] inception_4c/output <- inception_4c/5x5
I0403 18:12:48.914384  6696 net.cpp:425] inception_4c/output <- inception_4c/pool_proj
I0403 18:12:48.914405  6696 net.cpp:399] inception_4c/output -> inception_4c/output
I0403 18:12:48.914453  6696 net.cpp:141] Setting up inception_4c/output
I0403 18:12:48.914479  6696 net.cpp:148] Top shape: 24 512 14 14 (2408448)
I0403 18:12:48.914495  6696 net.cpp:156] Memory required for data: 1072647456
I0403 18:12:48.914511  6696 layer_factory.hpp:77] Creating layer inception_4c/output_inception_4c/output_0_split
I0403 18:12:48.914530  6696 net.cpp:91] Creating Layer inception_4c/output_inception_4c/output_0_split
I0403 18:12:48.914546  6696 net.cpp:425] inception_4c/output_inception_4c/output_0_split <- inception_4c/output
I0403 18:12:48.914564  6696 net.cpp:399] inception_4c/output_inception_4c/output_0_split -> inception_4c/output_inception_4c/output_0_split_0
I0403 18:12:48.914589  6696 net.cpp:399] inception_4c/output_inception_4c/output_0_split -> inception_4c/output_inception_4c/output_0_split_1
I0403 18:12:48.914611  6696 net.cpp:399] inception_4c/output_inception_4c/output_0_split -> inception_4c/output_inception_4c/output_0_split_2
I0403 18:12:48.914633  6696 net.cpp:399] inception_4c/output_inception_4c/output_0_split -> inception_4c/output_inception_4c/output_0_split_3
I0403 18:12:48.914719  6696 net.cpp:141] Setting up inception_4c/output_inception_4c/output_0_split
I0403 18:12:48.914743  6696 net.cpp:148] Top shape: 24 512 14 14 (2408448)
I0403 18:12:48.914760  6696 net.cpp:148] Top shape: 24 512 14 14 (2408448)
I0403 18:12:48.914777  6696 net.cpp:148] Top shape: 24 512 14 14 (2408448)
I0403 18:12:48.914794  6696 net.cpp:148] Top shape: 24 512 14 14 (2408448)
I0403 18:12:48.914808  6696 net.cpp:156] Memory required for data: 1111182624
I0403 18:12:48.914822  6696 layer_factory.hpp:77] Creating layer inception_4d/1x1
I0403 18:12:48.914845  6696 net.cpp:91] Creating Layer inception_4d/1x1
I0403 18:12:48.914865  6696 net.cpp:425] inception_4d/1x1 <- inception_4c/output_inception_4c/output_0_split_0
I0403 18:12:48.914886  6696 net.cpp:399] inception_4d/1x1 -> inception_4d/1x1
I0403 18:12:48.916329  6696 net.cpp:141] Setting up inception_4d/1x1
I0403 18:12:48.916358  6696 net.cpp:148] Top shape: 24 112 14 14 (526848)
I0403 18:12:48.916373  6696 net.cpp:156] Memory required for data: 1113290016
I0403 18:12:48.916393  6696 layer_factory.hpp:77] Creating layer inception_4d/relu_1x1
I0403 18:12:48.916414  6696 net.cpp:91] Creating Layer inception_4d/relu_1x1
I0403 18:12:48.916432  6696 net.cpp:425] inception_4d/relu_1x1 <- inception_4d/1x1
I0403 18:12:48.916450  6696 net.cpp:386] inception_4d/relu_1x1 -> inception_4d/1x1 (in-place)
I0403 18:12:48.916642  6696 net.cpp:141] Setting up inception_4d/relu_1x1
I0403 18:12:48.916671  6696 net.cpp:148] Top shape: 24 112 14 14 (526848)
I0403 18:12:48.916687  6696 net.cpp:156] Memory required for data: 1115397408
I0403 18:12:48.916702  6696 layer_factory.hpp:77] Creating layer inception_4d/3x3_reduce
I0403 18:12:48.916739  6696 net.cpp:91] Creating Layer inception_4d/3x3_reduce
I0403 18:12:48.916759  6696 net.cpp:425] inception_4d/3x3_reduce <- inception_4c/output_inception_4c/output_0_split_1
I0403 18:12:48.916779  6696 net.cpp:399] inception_4d/3x3_reduce -> inception_4d/3x3_reduce
I0403 18:12:48.918342  6696 net.cpp:141] Setting up inception_4d/3x3_reduce
I0403 18:12:48.918370  6696 net.cpp:148] Top shape: 24 144 14 14 (677376)
I0403 18:12:48.918386  6696 net.cpp:156] Memory required for data: 1118106912
I0403 18:12:48.918406  6696 layer_factory.hpp:77] Creating layer inception_4d/relu_3x3_reduce
I0403 18:12:48.918424  6696 net.cpp:91] Creating Layer inception_4d/relu_3x3_reduce
I0403 18:12:48.918442  6696 net.cpp:425] inception_4d/relu_3x3_reduce <- inception_4d/3x3_reduce
I0403 18:12:48.918463  6696 net.cpp:386] inception_4d/relu_3x3_reduce -> inception_4d/3x3_reduce (in-place)
I0403 18:12:48.918764  6696 net.cpp:141] Setting up inception_4d/relu_3x3_reduce
I0403 18:12:48.918792  6696 net.cpp:148] Top shape: 24 144 14 14 (677376)
I0403 18:12:48.918808  6696 net.cpp:156] Memory required for data: 1120816416
I0403 18:12:48.918823  6696 layer_factory.hpp:77] Creating layer inception_4d/3x3
I0403 18:12:48.918846  6696 net.cpp:91] Creating Layer inception_4d/3x3
I0403 18:12:48.918865  6696 net.cpp:425] inception_4d/3x3 <- inception_4d/3x3_reduce
I0403 18:12:48.918887  6696 net.cpp:399] inception_4d/3x3 -> inception_4d/3x3
I0403 18:12:48.923322  6696 net.cpp:141] Setting up inception_4d/3x3
I0403 18:12:48.923352  6696 net.cpp:148] Top shape: 24 288 14 14 (1354752)
I0403 18:12:48.923367  6696 net.cpp:156] Memory required for data: 1126235424
I0403 18:12:48.923385  6696 layer_factory.hpp:77] Creating layer inception_4d/relu_3x3
I0403 18:12:48.923406  6696 net.cpp:91] Creating Layer inception_4d/relu_3x3
I0403 18:12:48.923424  6696 net.cpp:425] inception_4d/relu_3x3 <- inception_4d/3x3
I0403 18:12:48.923440  6696 net.cpp:386] inception_4d/relu_3x3 -> inception_4d/3x3 (in-place)
I0403 18:12:48.923625  6696 net.cpp:141] Setting up inception_4d/relu_3x3
I0403 18:12:48.923652  6696 net.cpp:148] Top shape: 24 288 14 14 (1354752)
I0403 18:12:48.923668  6696 net.cpp:156] Memory required for data: 1131654432
I0403 18:12:48.923683  6696 layer_factory.hpp:77] Creating layer inception_4d/5x5_reduce
I0403 18:12:48.923705  6696 net.cpp:91] Creating Layer inception_4d/5x5_reduce
I0403 18:12:48.923722  6696 net.cpp:425] inception_4d/5x5_reduce <- inception_4c/output_inception_4c/output_0_split_2
I0403 18:12:48.923741  6696 net.cpp:399] inception_4d/5x5_reduce -> inception_4d/5x5_reduce
I0403 18:12:48.924897  6696 net.cpp:141] Setting up inception_4d/5x5_reduce
I0403 18:12:48.924926  6696 net.cpp:148] Top shape: 24 32 14 14 (150528)
I0403 18:12:48.924940  6696 net.cpp:156] Memory required for data: 1132256544
I0403 18:12:48.924958  6696 layer_factory.hpp:77] Creating layer inception_4d/relu_5x5_reduce
I0403 18:12:48.924979  6696 net.cpp:91] Creating Layer inception_4d/relu_5x5_reduce
I0403 18:12:48.924995  6696 net.cpp:425] inception_4d/relu_5x5_reduce <- inception_4d/5x5_reduce
I0403 18:12:48.925014  6696 net.cpp:386] inception_4d/relu_5x5_reduce -> inception_4d/5x5_reduce (in-place)
I0403 18:12:48.925202  6696 net.cpp:141] Setting up inception_4d/relu_5x5_reduce
I0403 18:12:48.925236  6696 net.cpp:148] Top shape: 24 32 14 14 (150528)
I0403 18:12:48.925252  6696 net.cpp:156] Memory required for data: 1132858656
I0403 18:12:48.925267  6696 layer_factory.hpp:77] Creating layer inception_4d/5x5
I0403 18:12:48.925290  6696 net.cpp:91] Creating Layer inception_4d/5x5
I0403 18:12:48.925309  6696 net.cpp:425] inception_4d/5x5 <- inception_4d/5x5_reduce
I0403 18:12:48.925328  6696 net.cpp:399] inception_4d/5x5 -> inception_4d/5x5
I0403 18:12:48.926791  6696 net.cpp:141] Setting up inception_4d/5x5
I0403 18:12:48.926822  6696 net.cpp:148] Top shape: 24 64 14 14 (301056)
I0403 18:12:48.926839  6696 net.cpp:156] Memory required for data: 1134062880
I0403 18:12:48.926858  6696 layer_factory.hpp:77] Creating layer inception_4d/relu_5x5
I0403 18:12:48.926890  6696 net.cpp:91] Creating Layer inception_4d/relu_5x5
I0403 18:12:48.926908  6696 net.cpp:425] inception_4d/relu_5x5 <- inception_4d/5x5
I0403 18:12:48.926928  6696 net.cpp:386] inception_4d/relu_5x5 -> inception_4d/5x5 (in-place)
I0403 18:12:48.927235  6696 net.cpp:141] Setting up inception_4d/relu_5x5
I0403 18:12:48.927264  6696 net.cpp:148] Top shape: 24 64 14 14 (301056)
I0403 18:12:48.927280  6696 net.cpp:156] Memory required for data: 1135267104
I0403 18:12:48.927295  6696 layer_factory.hpp:77] Creating layer inception_4d/pool
I0403 18:12:48.927314  6696 net.cpp:91] Creating Layer inception_4d/pool
I0403 18:12:48.927330  6696 net.cpp:425] inception_4d/pool <- inception_4c/output_inception_4c/output_0_split_3
I0403 18:12:48.927350  6696 net.cpp:399] inception_4d/pool -> inception_4d/pool
I0403 18:12:48.927417  6696 net.cpp:141] Setting up inception_4d/pool
I0403 18:12:48.927443  6696 net.cpp:148] Top shape: 24 512 14 14 (2408448)
I0403 18:12:48.927459  6696 net.cpp:156] Memory required for data: 1144900896
I0403 18:12:48.927474  6696 layer_factory.hpp:77] Creating layer inception_4d/pool_proj
I0403 18:12:48.927494  6696 net.cpp:91] Creating Layer inception_4d/pool_proj
I0403 18:12:48.927510  6696 net.cpp:425] inception_4d/pool_proj <- inception_4d/pool
I0403 18:12:48.927531  6696 net.cpp:399] inception_4d/pool_proj -> inception_4d/pool_proj
I0403 18:12:48.929343  6696 net.cpp:141] Setting up inception_4d/pool_proj
I0403 18:12:48.929373  6696 net.cpp:148] Top shape: 24 64 14 14 (301056)
I0403 18:12:48.929388  6696 net.cpp:156] Memory required for data: 1146105120
I0403 18:12:48.929405  6696 layer_factory.hpp:77] Creating layer inception_4d/relu_pool_proj
I0403 18:12:48.929427  6696 net.cpp:91] Creating Layer inception_4d/relu_pool_proj
I0403 18:12:48.929445  6696 net.cpp:425] inception_4d/relu_pool_proj <- inception_4d/pool_proj
I0403 18:12:48.929463  6696 net.cpp:386] inception_4d/relu_pool_proj -> inception_4d/pool_proj (in-place)
I0403 18:12:48.929651  6696 net.cpp:141] Setting up inception_4d/relu_pool_proj
I0403 18:12:48.929678  6696 net.cpp:148] Top shape: 24 64 14 14 (301056)
I0403 18:12:48.929693  6696 net.cpp:156] Memory required for data: 1147309344
I0403 18:12:48.929708  6696 layer_factory.hpp:77] Creating layer inception_4d/output
I0403 18:12:48.929725  6696 net.cpp:91] Creating Layer inception_4d/output
I0403 18:12:48.929740  6696 net.cpp:425] inception_4d/output <- inception_4d/1x1
I0403 18:12:48.929757  6696 net.cpp:425] inception_4d/output <- inception_4d/3x3
I0403 18:12:48.929774  6696 net.cpp:425] inception_4d/output <- inception_4d/5x5
I0403 18:12:48.929788  6696 net.cpp:425] inception_4d/output <- inception_4d/pool_proj
I0403 18:12:48.929805  6696 net.cpp:399] inception_4d/output -> inception_4d/output
I0403 18:12:48.929854  6696 net.cpp:141] Setting up inception_4d/output
I0403 18:12:48.929877  6696 net.cpp:148] Top shape: 24 528 14 14 (2483712)
I0403 18:12:48.929893  6696 net.cpp:156] Memory required for data: 1157244192
I0403 18:12:48.929906  6696 layer_factory.hpp:77] Creating layer inception_4d/output_inception_4d/output_0_split
I0403 18:12:48.929926  6696 net.cpp:91] Creating Layer inception_4d/output_inception_4d/output_0_split
I0403 18:12:48.929944  6696 net.cpp:425] inception_4d/output_inception_4d/output_0_split <- inception_4d/output
I0403 18:12:48.929960  6696 net.cpp:399] inception_4d/output_inception_4d/output_0_split -> inception_4d/output_inception_4d/output_0_split_0
I0403 18:12:48.929980  6696 net.cpp:399] inception_4d/output_inception_4d/output_0_split -> inception_4d/output_inception_4d/output_0_split_1
I0403 18:12:48.930001  6696 net.cpp:399] inception_4d/output_inception_4d/output_0_split -> inception_4d/output_inception_4d/output_0_split_2
I0403 18:12:48.930023  6696 net.cpp:399] inception_4d/output_inception_4d/output_0_split -> inception_4d/output_inception_4d/output_0_split_3
I0403 18:12:48.930045  6696 net.cpp:399] inception_4d/output_inception_4d/output_0_split -> inception_4d/output_inception_4d/output_0_split_4
I0403 18:12:48.930148  6696 net.cpp:141] Setting up inception_4d/output_inception_4d/output_0_split
I0403 18:12:48.930184  6696 net.cpp:148] Top shape: 24 528 14 14 (2483712)
I0403 18:12:48.930202  6696 net.cpp:148] Top shape: 24 528 14 14 (2483712)
I0403 18:12:48.930224  6696 net.cpp:148] Top shape: 24 528 14 14 (2483712)
I0403 18:12:48.930241  6696 net.cpp:148] Top shape: 24 528 14 14 (2483712)
I0403 18:12:48.930256  6696 net.cpp:148] Top shape: 24 528 14 14 (2483712)
I0403 18:12:48.930269  6696 net.cpp:156] Memory required for data: 1206918432
I0403 18:12:48.930284  6696 layer_factory.hpp:77] Creating layer loss2/ave_pool
I0403 18:12:48.930305  6696 net.cpp:91] Creating Layer loss2/ave_pool
I0403 18:12:48.930321  6696 net.cpp:425] loss2/ave_pool <- inception_4d/output_inception_4d/output_0_split_0
I0403 18:12:48.930341  6696 net.cpp:399] loss2/ave_pool -> loss2/ave_pool
I0403 18:12:48.930656  6696 net.cpp:141] Setting up loss2/ave_pool
I0403 18:12:48.930682  6696 net.cpp:148] Top shape: 24 528 4 4 (202752)
I0403 18:12:48.930698  6696 net.cpp:156] Memory required for data: 1207729440
I0403 18:12:48.930714  6696 layer_factory.hpp:77] Creating layer loss2/conv
I0403 18:12:48.930737  6696 net.cpp:91] Creating Layer loss2/conv
I0403 18:12:48.930757  6696 net.cpp:425] loss2/conv <- loss2/ave_pool
I0403 18:12:48.930775  6696 net.cpp:399] loss2/conv -> loss2/conv
I0403 18:12:48.932720  6696 net.cpp:141] Setting up loss2/conv
I0403 18:12:48.932749  6696 net.cpp:148] Top shape: 24 128 4 4 (49152)
I0403 18:12:48.932763  6696 net.cpp:156] Memory required for data: 1207926048
I0403 18:12:48.932782  6696 layer_factory.hpp:77] Creating layer loss2/relu_conv
I0403 18:12:48.932799  6696 net.cpp:91] Creating Layer loss2/relu_conv
I0403 18:12:48.932816  6696 net.cpp:425] loss2/relu_conv <- loss2/conv
I0403 18:12:48.932837  6696 net.cpp:386] loss2/relu_conv -> loss2/conv (in-place)
I0403 18:12:48.933118  6696 net.cpp:141] Setting up loss2/relu_conv
I0403 18:12:48.933145  6696 net.cpp:148] Top shape: 24 128 4 4 (49152)
I0403 18:12:48.933159  6696 net.cpp:156] Memory required for data: 1208122656
I0403 18:12:48.933176  6696 layer_factory.hpp:77] Creating layer loss2/fc
I0403 18:12:48.933194  6696 net.cpp:91] Creating Layer loss2/fc
I0403 18:12:48.933218  6696 net.cpp:425] loss2/fc <- loss2/conv
I0403 18:12:48.933241  6696 net.cpp:399] loss2/fc -> loss2/fc
I0403 18:12:48.951565  6696 net.cpp:141] Setting up loss2/fc
I0403 18:12:48.951606  6696 net.cpp:148] Top shape: 24 1024 (24576)
I0403 18:12:48.951622  6696 net.cpp:156] Memory required for data: 1208220960
I0403 18:12:48.951642  6696 layer_factory.hpp:77] Creating layer loss2/relu_fc
I0403 18:12:48.951660  6696 net.cpp:91] Creating Layer loss2/relu_fc
I0403 18:12:48.951678  6696 net.cpp:425] loss2/relu_fc <- loss2/fc
I0403 18:12:48.951696  6696 net.cpp:386] loss2/relu_fc -> loss2/fc (in-place)
I0403 18:12:48.952024  6696 net.cpp:141] Setting up loss2/relu_fc
I0403 18:12:48.952054  6696 net.cpp:148] Top shape: 24 1024 (24576)
I0403 18:12:48.952070  6696 net.cpp:156] Memory required for data: 1208319264
I0403 18:12:48.952086  6696 layer_factory.hpp:77] Creating layer loss2/drop_fc
I0403 18:12:48.952105  6696 net.cpp:91] Creating Layer loss2/drop_fc
I0403 18:12:48.952122  6696 net.cpp:425] loss2/drop_fc <- loss2/fc
I0403 18:12:48.952142  6696 net.cpp:386] loss2/drop_fc -> loss2/fc (in-place)
I0403 18:12:48.952193  6696 net.cpp:141] Setting up loss2/drop_fc
I0403 18:12:48.952227  6696 net.cpp:148] Top shape: 24 1024 (24576)
I0403 18:12:48.952244  6696 net.cpp:156] Memory required for data: 1208417568
I0403 18:12:48.952260  6696 layer_factory.hpp:77] Creating layer loss2/classifier_plantvillage
I0403 18:12:48.952282  6696 net.cpp:91] Creating Layer loss2/classifier_plantvillage
I0403 18:12:48.952301  6696 net.cpp:425] loss2/classifier_plantvillage <- loss2/fc
I0403 18:12:48.952319  6696 net.cpp:399] loss2/classifier_plantvillage -> loss2/classifier_plantvillage
I0403 18:12:48.952739  6696 net.cpp:141] Setting up loss2/classifier_plantvillage
I0403 18:12:48.952765  6696 net.cpp:148] Top shape: 24 38 (912)
I0403 18:12:48.952813  6696 net.cpp:156] Memory required for data: 1208421216
I0403 18:12:48.952834  6696 layer_factory.hpp:77] Creating layer loss2/classifier_plantvillage_loss2/classifier_plantvillage_0_split
I0403 18:12:48.952854  6696 net.cpp:91] Creating Layer loss2/classifier_plantvillage_loss2/classifier_plantvillage_0_split
I0403 18:12:48.952872  6696 net.cpp:425] loss2/classifier_plantvillage_loss2/classifier_plantvillage_0_split <- loss2/classifier_plantvillage
I0403 18:12:48.952893  6696 net.cpp:399] loss2/classifier_plantvillage_loss2/classifier_plantvillage_0_split -> loss2/classifier_plantvillage_loss2/classifier_plantvillage_0_split_0
I0403 18:12:48.952918  6696 net.cpp:399] loss2/classifier_plantvillage_loss2/classifier_plantvillage_0_split -> loss2/classifier_plantvillage_loss2/classifier_plantvillage_0_split_1
I0403 18:12:48.952939  6696 net.cpp:399] loss2/classifier_plantvillage_loss2/classifier_plantvillage_0_split -> loss2/classifier_plantvillage_loss2/classifier_plantvillage_0_split_2
I0403 18:12:48.953022  6696 net.cpp:141] Setting up loss2/classifier_plantvillage_loss2/classifier_plantvillage_0_split
I0403 18:12:48.953052  6696 net.cpp:148] Top shape: 24 38 (912)
I0403 18:12:48.953069  6696 net.cpp:148] Top shape: 24 38 (912)
I0403 18:12:48.953086  6696 net.cpp:148] Top shape: 24 38 (912)
I0403 18:12:48.953100  6696 net.cpp:156] Memory required for data: 1208432160
I0403 18:12:48.953115  6696 layer_factory.hpp:77] Creating layer inception_4e/1x1
I0403 18:12:48.953140  6696 net.cpp:91] Creating Layer inception_4e/1x1
I0403 18:12:48.953160  6696 net.cpp:425] inception_4e/1x1 <- inception_4d/output_inception_4d/output_0_split_1
I0403 18:12:48.953181  6696 net.cpp:399] inception_4e/1x1 -> inception_4e/1x1
I0403 18:12:48.955142  6696 net.cpp:141] Setting up inception_4e/1x1
I0403 18:12:48.955173  6696 net.cpp:148] Top shape: 24 256 14 14 (1204224)
I0403 18:12:48.955189  6696 net.cpp:156] Memory required for data: 1213249056
I0403 18:12:48.955214  6696 layer_factory.hpp:77] Creating layer inception_4e/relu_1x1
I0403 18:12:48.955235  6696 net.cpp:91] Creating Layer inception_4e/relu_1x1
I0403 18:12:48.955251  6696 net.cpp:425] inception_4e/relu_1x1 <- inception_4e/1x1
I0403 18:12:48.955272  6696 net.cpp:386] inception_4e/relu_1x1 -> inception_4e/1x1 (in-place)
I0403 18:12:48.955586  6696 net.cpp:141] Setting up inception_4e/relu_1x1
I0403 18:12:48.955615  6696 net.cpp:148] Top shape: 24 256 14 14 (1204224)
I0403 18:12:48.955629  6696 net.cpp:156] Memory required for data: 1218065952
I0403 18:12:48.955646  6696 layer_factory.hpp:77] Creating layer inception_4e/3x3_reduce
I0403 18:12:48.955670  6696 net.cpp:91] Creating Layer inception_4e/3x3_reduce
I0403 18:12:48.955689  6696 net.cpp:425] inception_4e/3x3_reduce <- inception_4d/output_inception_4d/output_0_split_2
I0403 18:12:48.955713  6696 net.cpp:399] inception_4e/3x3_reduce -> inception_4e/3x3_reduce
I0403 18:12:48.958143  6696 net.cpp:141] Setting up inception_4e/3x3_reduce
I0403 18:12:48.958178  6696 net.cpp:148] Top shape: 24 160 14 14 (752640)
I0403 18:12:48.958195  6696 net.cpp:156] Memory required for data: 1221076512
I0403 18:12:48.958220  6696 layer_factory.hpp:77] Creating layer inception_4e/relu_3x3_reduce
I0403 18:12:48.958240  6696 net.cpp:91] Creating Layer inception_4e/relu_3x3_reduce
I0403 18:12:48.958257  6696 net.cpp:425] inception_4e/relu_3x3_reduce <- inception_4e/3x3_reduce
I0403 18:12:48.958278  6696 net.cpp:386] inception_4e/relu_3x3_reduce -> inception_4e/3x3_reduce (in-place)
I0403 18:12:48.958475  6696 net.cpp:141] Setting up inception_4e/relu_3x3_reduce
I0403 18:12:48.958503  6696 net.cpp:148] Top shape: 24 160 14 14 (752640)
I0403 18:12:48.958518  6696 net.cpp:156] Memory required for data: 1224087072
I0403 18:12:48.958534  6696 layer_factory.hpp:77] Creating layer inception_4e/3x3
I0403 18:12:48.958557  6696 net.cpp:91] Creating Layer inception_4e/3x3
I0403 18:12:48.958576  6696 net.cpp:425] inception_4e/3x3 <- inception_4e/3x3_reduce
I0403 18:12:48.958597  6696 net.cpp:399] inception_4e/3x3 -> inception_4e/3x3
I0403 18:12:48.963920  6696 net.cpp:141] Setting up inception_4e/3x3
I0403 18:12:48.963969  6696 net.cpp:148] Top shape: 24 320 14 14 (1505280)
I0403 18:12:48.963985  6696 net.cpp:156] Memory required for data: 1230108192
I0403 18:12:48.964004  6696 layer_factory.hpp:77] Creating layer inception_4e/relu_3x3
I0403 18:12:48.964026  6696 net.cpp:91] Creating Layer inception_4e/relu_3x3
I0403 18:12:48.964046  6696 net.cpp:425] inception_4e/relu_3x3 <- inception_4e/3x3
I0403 18:12:48.964063  6696 net.cpp:386] inception_4e/relu_3x3 -> inception_4e/3x3 (in-place)
I0403 18:12:48.964380  6696 net.cpp:141] Setting up inception_4e/relu_3x3
I0403 18:12:48.964406  6696 net.cpp:148] Top shape: 24 320 14 14 (1505280)
I0403 18:12:48.964422  6696 net.cpp:156] Memory required for data: 1236129312
I0403 18:12:48.964438  6696 layer_factory.hpp:77] Creating layer inception_4e/5x5_reduce
I0403 18:12:48.964462  6696 net.cpp:91] Creating Layer inception_4e/5x5_reduce
I0403 18:12:48.964480  6696 net.cpp:425] inception_4e/5x5_reduce <- inception_4d/output_inception_4d/output_0_split_3
I0403 18:12:48.964503  6696 net.cpp:399] inception_4e/5x5_reduce -> inception_4e/5x5_reduce
I0403 18:12:48.965644  6696 net.cpp:141] Setting up inception_4e/5x5_reduce
I0403 18:12:48.965675  6696 net.cpp:148] Top shape: 24 32 14 14 (150528)
I0403 18:12:48.965692  6696 net.cpp:156] Memory required for data: 1236731424
I0403 18:12:48.965711  6696 layer_factory.hpp:77] Creating layer inception_4e/relu_5x5_reduce
I0403 18:12:48.965730  6696 net.cpp:91] Creating Layer inception_4e/relu_5x5_reduce
I0403 18:12:48.965747  6696 net.cpp:425] inception_4e/relu_5x5_reduce <- inception_4e/5x5_reduce
I0403 18:12:48.965767  6696 net.cpp:386] inception_4e/relu_5x5_reduce -> inception_4e/5x5_reduce (in-place)
I0403 18:12:48.966069  6696 net.cpp:141] Setting up inception_4e/relu_5x5_reduce
I0403 18:12:48.966099  6696 net.cpp:148] Top shape: 24 32 14 14 (150528)
I0403 18:12:48.966115  6696 net.cpp:156] Memory required for data: 1237333536
I0403 18:12:48.966130  6696 layer_factory.hpp:77] Creating layer inception_4e/5x5
I0403 18:12:48.966172  6696 net.cpp:91] Creating Layer inception_4e/5x5
I0403 18:12:48.966192  6696 net.cpp:425] inception_4e/5x5 <- inception_4e/5x5_reduce
I0403 18:12:48.966218  6696 net.cpp:399] inception_4e/5x5 -> inception_4e/5x5
I0403 18:12:48.968112  6696 net.cpp:141] Setting up inception_4e/5x5
I0403 18:12:48.968140  6696 net.cpp:148] Top shape: 24 128 14 14 (602112)
I0403 18:12:48.968155  6696 net.cpp:156] Memory required for data: 1239741984
I0403 18:12:48.968175  6696 layer_factory.hpp:77] Creating layer inception_4e/relu_5x5
I0403 18:12:48.968196  6696 net.cpp:91] Creating Layer inception_4e/relu_5x5
I0403 18:12:48.968220  6696 net.cpp:425] inception_4e/relu_5x5 <- inception_4e/5x5
I0403 18:12:48.968240  6696 net.cpp:386] inception_4e/relu_5x5 -> inception_4e/5x5 (in-place)
I0403 18:12:48.968448  6696 net.cpp:141] Setting up inception_4e/relu_5x5
I0403 18:12:48.968475  6696 net.cpp:148] Top shape: 24 128 14 14 (602112)
I0403 18:12:48.968489  6696 net.cpp:156] Memory required for data: 1242150432
I0403 18:12:48.968505  6696 layer_factory.hpp:77] Creating layer inception_4e/pool
I0403 18:12:48.968523  6696 net.cpp:91] Creating Layer inception_4e/pool
I0403 18:12:48.968540  6696 net.cpp:425] inception_4e/pool <- inception_4d/output_inception_4d/output_0_split_4
I0403 18:12:48.968561  6696 net.cpp:399] inception_4e/pool -> inception_4e/pool
I0403 18:12:48.968636  6696 net.cpp:141] Setting up inception_4e/pool
I0403 18:12:48.968659  6696 net.cpp:148] Top shape: 24 528 14 14 (2483712)
I0403 18:12:48.968674  6696 net.cpp:156] Memory required for data: 1252085280
I0403 18:12:48.968689  6696 layer_factory.hpp:77] Creating layer inception_4e/pool_proj
I0403 18:12:48.968714  6696 net.cpp:91] Creating Layer inception_4e/pool_proj
I0403 18:12:48.968734  6696 net.cpp:425] inception_4e/pool_proj <- inception_4e/pool
I0403 18:12:48.968752  6696 net.cpp:399] inception_4e/pool_proj -> inception_4e/pool_proj
I0403 18:12:48.970309  6696 net.cpp:141] Setting up inception_4e/pool_proj
I0403 18:12:48.970348  6696 net.cpp:148] Top shape: 24 128 14 14 (602112)
I0403 18:12:48.970366  6696 net.cpp:156] Memory required for data: 1254493728
I0403 18:12:48.970383  6696 layer_factory.hpp:77] Creating layer inception_4e/relu_pool_proj
I0403 18:12:48.970404  6696 net.cpp:91] Creating Layer inception_4e/relu_pool_proj
I0403 18:12:48.970422  6696 net.cpp:425] inception_4e/relu_pool_proj <- inception_4e/pool_proj
I0403 18:12:48.970440  6696 net.cpp:386] inception_4e/relu_pool_proj -> inception_4e/pool_proj (in-place)
I0403 18:12:48.970741  6696 net.cpp:141] Setting up inception_4e/relu_pool_proj
I0403 18:12:48.970767  6696 net.cpp:148] Top shape: 24 128 14 14 (602112)
I0403 18:12:48.970782  6696 net.cpp:156] Memory required for data: 1256902176
I0403 18:12:48.970798  6696 layer_factory.hpp:77] Creating layer inception_4e/output
I0403 18:12:48.970818  6696 net.cpp:91] Creating Layer inception_4e/output
I0403 18:12:48.970834  6696 net.cpp:425] inception_4e/output <- inception_4e/1x1
I0403 18:12:48.970852  6696 net.cpp:425] inception_4e/output <- inception_4e/3x3
I0403 18:12:48.970868  6696 net.cpp:425] inception_4e/output <- inception_4e/5x5
I0403 18:12:48.970885  6696 net.cpp:425] inception_4e/output <- inception_4e/pool_proj
I0403 18:12:48.970901  6696 net.cpp:399] inception_4e/output -> inception_4e/output
I0403 18:12:48.970954  6696 net.cpp:141] Setting up inception_4e/output
I0403 18:12:48.970978  6696 net.cpp:148] Top shape: 24 832 14 14 (3913728)
I0403 18:12:48.970993  6696 net.cpp:156] Memory required for data: 1272557088
I0403 18:12:48.971009  6696 layer_factory.hpp:77] Creating layer pool4/3x3_s2
I0403 18:12:48.971025  6696 net.cpp:91] Creating Layer pool4/3x3_s2
I0403 18:12:48.971041  6696 net.cpp:425] pool4/3x3_s2 <- inception_4e/output
I0403 18:12:48.971063  6696 net.cpp:399] pool4/3x3_s2 -> pool4/3x3_s2
I0403 18:12:48.971133  6696 net.cpp:141] Setting up pool4/3x3_s2
I0403 18:12:48.971158  6696 net.cpp:148] Top shape: 24 832 7 7 (978432)
I0403 18:12:48.971171  6696 net.cpp:156] Memory required for data: 1276470816
I0403 18:12:48.971186  6696 layer_factory.hpp:77] Creating layer pool4/3x3_s2_pool4/3x3_s2_0_split
I0403 18:12:48.971215  6696 net.cpp:91] Creating Layer pool4/3x3_s2_pool4/3x3_s2_0_split
I0403 18:12:48.971233  6696 net.cpp:425] pool4/3x3_s2_pool4/3x3_s2_0_split <- pool4/3x3_s2
I0403 18:12:48.971254  6696 net.cpp:399] pool4/3x3_s2_pool4/3x3_s2_0_split -> pool4/3x3_s2_pool4/3x3_s2_0_split_0
I0403 18:12:48.971276  6696 net.cpp:399] pool4/3x3_s2_pool4/3x3_s2_0_split -> pool4/3x3_s2_pool4/3x3_s2_0_split_1
I0403 18:12:48.971298  6696 net.cpp:399] pool4/3x3_s2_pool4/3x3_s2_0_split -> pool4/3x3_s2_pool4/3x3_s2_0_split_2
I0403 18:12:48.971318  6696 net.cpp:399] pool4/3x3_s2_pool4/3x3_s2_0_split -> pool4/3x3_s2_pool4/3x3_s2_0_split_3
I0403 18:12:48.971410  6696 net.cpp:141] Setting up pool4/3x3_s2_pool4/3x3_s2_0_split
I0403 18:12:48.971438  6696 net.cpp:148] Top shape: 24 832 7 7 (978432)
I0403 18:12:48.971457  6696 net.cpp:148] Top shape: 24 832 7 7 (978432)
I0403 18:12:48.971473  6696 net.cpp:148] Top shape: 24 832 7 7 (978432)
I0403 18:12:48.971489  6696 net.cpp:148] Top shape: 24 832 7 7 (978432)
I0403 18:12:48.971503  6696 net.cpp:156] Memory required for data: 1292125728
I0403 18:12:48.971518  6696 layer_factory.hpp:77] Creating layer inception_5a/1x1
I0403 18:12:48.971545  6696 net.cpp:91] Creating Layer inception_5a/1x1
I0403 18:12:48.971565  6696 net.cpp:425] inception_5a/1x1 <- pool4/3x3_s2_pool4/3x3_s2_0_split_0
I0403 18:12:48.971585  6696 net.cpp:399] inception_5a/1x1 -> inception_5a/1x1
I0403 18:12:48.974576  6696 net.cpp:141] Setting up inception_5a/1x1
I0403 18:12:48.974608  6696 net.cpp:148] Top shape: 24 256 7 7 (301056)
I0403 18:12:48.974627  6696 net.cpp:156] Memory required for data: 1293329952
I0403 18:12:48.974645  6696 layer_factory.hpp:77] Creating layer inception_5a/relu_1x1
I0403 18:12:48.974665  6696 net.cpp:91] Creating Layer inception_5a/relu_1x1
I0403 18:12:48.974681  6696 net.cpp:425] inception_5a/relu_1x1 <- inception_5a/1x1
I0403 18:12:48.974699  6696 net.cpp:386] inception_5a/relu_1x1 -> inception_5a/1x1 (in-place)
I0403 18:12:48.975025  6696 net.cpp:141] Setting up inception_5a/relu_1x1
I0403 18:12:48.975054  6696 net.cpp:148] Top shape: 24 256 7 7 (301056)
I0403 18:12:48.975071  6696 net.cpp:156] Memory required for data: 1294534176
I0403 18:12:48.975086  6696 layer_factory.hpp:77] Creating layer inception_5a/3x3_reduce
I0403 18:12:48.975109  6696 net.cpp:91] Creating Layer inception_5a/3x3_reduce
I0403 18:12:48.975128  6696 net.cpp:425] inception_5a/3x3_reduce <- pool4/3x3_s2_pool4/3x3_s2_0_split_1
I0403 18:12:48.975148  6696 net.cpp:399] inception_5a/3x3_reduce -> inception_5a/3x3_reduce
I0403 18:12:48.977741  6696 net.cpp:141] Setting up inception_5a/3x3_reduce
I0403 18:12:48.977771  6696 net.cpp:148] Top shape: 24 160 7 7 (188160)
I0403 18:12:48.977787  6696 net.cpp:156] Memory required for data: 1295286816
I0403 18:12:48.977805  6696 layer_factory.hpp:77] Creating layer inception_5a/relu_3x3_reduce
I0403 18:12:48.977826  6696 net.cpp:91] Creating Layer inception_5a/relu_3x3_reduce
I0403 18:12:48.977844  6696 net.cpp:425] inception_5a/relu_3x3_reduce <- inception_5a/3x3_reduce
I0403 18:12:48.977862  6696 net.cpp:386] inception_5a/relu_3x3_reduce -> inception_5a/3x3_reduce (in-place)
I0403 18:12:48.978055  6696 net.cpp:141] Setting up inception_5a/relu_3x3_reduce
I0403 18:12:48.978083  6696 net.cpp:148] Top shape: 24 160 7 7 (188160)
I0403 18:12:48.978099  6696 net.cpp:156] Memory required for data: 1296039456
I0403 18:12:48.978116  6696 layer_factory.hpp:77] Creating layer inception_5a/3x3
I0403 18:12:48.978139  6696 net.cpp:91] Creating Layer inception_5a/3x3
I0403 18:12:48.978158  6696 net.cpp:425] inception_5a/3x3 <- inception_5a/3x3_reduce
I0403 18:12:48.978178  6696 net.cpp:399] inception_5a/3x3 -> inception_5a/3x3
I0403 18:12:48.983392  6696 net.cpp:141] Setting up inception_5a/3x3
I0403 18:12:48.983427  6696 net.cpp:148] Top shape: 24 320 7 7 (376320)
I0403 18:12:48.983444  6696 net.cpp:156] Memory required for data: 1297544736
I0403 18:12:48.983464  6696 layer_factory.hpp:77] Creating layer inception_5a/relu_3x3
I0403 18:12:48.983482  6696 net.cpp:91] Creating Layer inception_5a/relu_3x3
I0403 18:12:48.983500  6696 net.cpp:425] inception_5a/relu_3x3 <- inception_5a/3x3
I0403 18:12:48.983520  6696 net.cpp:386] inception_5a/relu_3x3 -> inception_5a/3x3 (in-place)
I0403 18:12:48.983820  6696 net.cpp:141] Setting up inception_5a/relu_3x3
I0403 18:12:48.983850  6696 net.cpp:148] Top shape: 24 320 7 7 (376320)
I0403 18:12:48.983866  6696 net.cpp:156] Memory required for data: 1299050016
I0403 18:12:48.983881  6696 layer_factory.hpp:77] Creating layer inception_5a/5x5_reduce
I0403 18:12:48.983906  6696 net.cpp:91] Creating Layer inception_5a/5x5_reduce
I0403 18:12:48.983927  6696 net.cpp:425] inception_5a/5x5_reduce <- pool4/3x3_s2_pool4/3x3_s2_0_split_2
I0403 18:12:48.983947  6696 net.cpp:399] inception_5a/5x5_reduce -> inception_5a/5x5_reduce
I0403 18:12:48.985155  6696 net.cpp:141] Setting up inception_5a/5x5_reduce
I0403 18:12:48.985186  6696 net.cpp:148] Top shape: 24 32 7 7 (37632)
I0403 18:12:48.985203  6696 net.cpp:156] Memory required for data: 1299200544
I0403 18:12:48.985229  6696 layer_factory.hpp:77] Creating layer inception_5a/relu_5x5_reduce
I0403 18:12:48.985249  6696 net.cpp:91] Creating Layer inception_5a/relu_5x5_reduce
I0403 18:12:48.985266  6696 net.cpp:425] inception_5a/relu_5x5_reduce <- inception_5a/5x5_reduce
I0403 18:12:48.985287  6696 net.cpp:386] inception_5a/relu_5x5_reduce -> inception_5a/5x5_reduce (in-place)
I0403 18:12:48.985594  6696 net.cpp:141] Setting up inception_5a/relu_5x5_reduce
I0403 18:12:48.985620  6696 net.cpp:148] Top shape: 24 32 7 7 (37632)
I0403 18:12:48.985636  6696 net.cpp:156] Memory required for data: 1299351072
I0403 18:12:48.985651  6696 layer_factory.hpp:77] Creating layer inception_5a/5x5
I0403 18:12:48.985674  6696 net.cpp:91] Creating Layer inception_5a/5x5
I0403 18:12:48.985693  6696 net.cpp:425] inception_5a/5x5 <- inception_5a/5x5_reduce
I0403 18:12:48.985716  6696 net.cpp:399] inception_5a/5x5 -> inception_5a/5x5
I0403 18:12:48.987495  6696 net.cpp:141] Setting up inception_5a/5x5
I0403 18:12:48.987542  6696 net.cpp:148] Top shape: 24 128 7 7 (150528)
I0403 18:12:48.987560  6696 net.cpp:156] Memory required for data: 1299953184
I0403 18:12:48.987579  6696 layer_factory.hpp:77] Creating layer inception_5a/relu_5x5
I0403 18:12:48.987598  6696 net.cpp:91] Creating Layer inception_5a/relu_5x5
I0403 18:12:48.987614  6696 net.cpp:425] inception_5a/relu_5x5 <- inception_5a/5x5
I0403 18:12:48.987635  6696 net.cpp:386] inception_5a/relu_5x5 -> inception_5a/5x5 (in-place)
I0403 18:12:48.987833  6696 net.cpp:141] Setting up inception_5a/relu_5x5
I0403 18:12:48.987859  6696 net.cpp:148] Top shape: 24 128 7 7 (150528)
I0403 18:12:48.987874  6696 net.cpp:156] Memory required for data: 1300555296
I0403 18:12:48.987890  6696 layer_factory.hpp:77] Creating layer inception_5a/pool
I0403 18:12:48.987908  6696 net.cpp:91] Creating Layer inception_5a/pool
I0403 18:12:48.987925  6696 net.cpp:425] inception_5a/pool <- pool4/3x3_s2_pool4/3x3_s2_0_split_3
I0403 18:12:48.987946  6696 net.cpp:399] inception_5a/pool -> inception_5a/pool
I0403 18:12:48.988021  6696 net.cpp:141] Setting up inception_5a/pool
I0403 18:12:48.988045  6696 net.cpp:148] Top shape: 24 832 7 7 (978432)
I0403 18:12:48.988060  6696 net.cpp:156] Memory required for data: 1304469024
I0403 18:12:48.988075  6696 layer_factory.hpp:77] Creating layer inception_5a/pool_proj
I0403 18:12:48.988100  6696 net.cpp:91] Creating Layer inception_5a/pool_proj
I0403 18:12:48.988118  6696 net.cpp:425] inception_5a/pool_proj <- inception_5a/pool
I0403 18:12:48.988137  6696 net.cpp:399] inception_5a/pool_proj -> inception_5a/pool_proj
I0403 18:12:48.990582  6696 net.cpp:141] Setting up inception_5a/pool_proj
I0403 18:12:48.990612  6696 net.cpp:148] Top shape: 24 128 7 7 (150528)
I0403 18:12:48.990627  6696 net.cpp:156] Memory required for data: 1305071136
I0403 18:12:48.990644  6696 layer_factory.hpp:77] Creating layer inception_5a/relu_pool_proj
I0403 18:12:48.990666  6696 net.cpp:91] Creating Layer inception_5a/relu_pool_proj
I0403 18:12:48.990684  6696 net.cpp:425] inception_5a/relu_pool_proj <- inception_5a/pool_proj
I0403 18:12:48.990701  6696 net.cpp:386] inception_5a/relu_pool_proj -> inception_5a/pool_proj (in-place)
I0403 18:12:48.991004  6696 net.cpp:141] Setting up inception_5a/relu_pool_proj
I0403 18:12:48.991030  6696 net.cpp:148] Top shape: 24 128 7 7 (150528)
I0403 18:12:48.991045  6696 net.cpp:156] Memory required for data: 1305673248
I0403 18:12:48.991060  6696 layer_factory.hpp:77] Creating layer inception_5a/output
I0403 18:12:48.991080  6696 net.cpp:91] Creating Layer inception_5a/output
I0403 18:12:48.991098  6696 net.cpp:425] inception_5a/output <- inception_5a/1x1
I0403 18:12:48.991117  6696 net.cpp:425] inception_5a/output <- inception_5a/3x3
I0403 18:12:48.991132  6696 net.cpp:425] inception_5a/output <- inception_5a/5x5
I0403 18:12:48.991147  6696 net.cpp:425] inception_5a/output <- inception_5a/pool_proj
I0403 18:12:48.991164  6696 net.cpp:399] inception_5a/output -> inception_5a/output
I0403 18:12:48.991221  6696 net.cpp:141] Setting up inception_5a/output
I0403 18:12:48.991245  6696 net.cpp:148] Top shape: 24 832 7 7 (978432)
I0403 18:12:48.991261  6696 net.cpp:156] Memory required for data: 1309586976
I0403 18:12:48.991276  6696 layer_factory.hpp:77] Creating layer inception_5a/output_inception_5a/output_0_split
I0403 18:12:48.991293  6696 net.cpp:91] Creating Layer inception_5a/output_inception_5a/output_0_split
I0403 18:12:48.991308  6696 net.cpp:425] inception_5a/output_inception_5a/output_0_split <- inception_5a/output
I0403 18:12:48.991329  6696 net.cpp:399] inception_5a/output_inception_5a/output_0_split -> inception_5a/output_inception_5a/output_0_split_0
I0403 18:12:48.991353  6696 net.cpp:399] inception_5a/output_inception_5a/output_0_split -> inception_5a/output_inception_5a/output_0_split_1
I0403 18:12:48.991374  6696 net.cpp:399] inception_5a/output_inception_5a/output_0_split -> inception_5a/output_inception_5a/output_0_split_2
I0403 18:12:48.991394  6696 net.cpp:399] inception_5a/output_inception_5a/output_0_split -> inception_5a/output_inception_5a/output_0_split_3
I0403 18:12:48.991508  6696 net.cpp:141] Setting up inception_5a/output_inception_5a/output_0_split
I0403 18:12:48.991531  6696 net.cpp:148] Top shape: 24 832 7 7 (978432)
I0403 18:12:48.991547  6696 net.cpp:148] Top shape: 24 832 7 7 (978432)
I0403 18:12:48.991564  6696 net.cpp:148] Top shape: 24 832 7 7 (978432)
I0403 18:12:48.991580  6696 net.cpp:148] Top shape: 24 832 7 7 (978432)
I0403 18:12:48.991593  6696 net.cpp:156] Memory required for data: 1325241888
I0403 18:12:48.991608  6696 layer_factory.hpp:77] Creating layer inception_5b/1x1
I0403 18:12:48.991631  6696 net.cpp:91] Creating Layer inception_5b/1x1
I0403 18:12:48.991649  6696 net.cpp:425] inception_5b/1x1 <- inception_5a/output_inception_5a/output_0_split_0
I0403 18:12:48.991672  6696 net.cpp:399] inception_5b/1x1 -> inception_5b/1x1
I0403 18:12:48.995522  6696 net.cpp:141] Setting up inception_5b/1x1
I0403 18:12:48.995551  6696 net.cpp:148] Top shape: 24 384 7 7 (451584)
I0403 18:12:48.995568  6696 net.cpp:156] Memory required for data: 1327048224
I0403 18:12:48.995585  6696 layer_factory.hpp:77] Creating layer inception_5b/relu_1x1
I0403 18:12:48.995607  6696 net.cpp:91] Creating Layer inception_5b/relu_1x1
I0403 18:12:48.995625  6696 net.cpp:425] inception_5b/relu_1x1 <- inception_5b/1x1
I0403 18:12:48.995642  6696 net.cpp:386] inception_5b/relu_1x1 -> inception_5b/1x1 (in-place)
I0403 18:12:48.995964  6696 net.cpp:141] Setting up inception_5b/relu_1x1
I0403 18:12:48.995990  6696 net.cpp:148] Top shape: 24 384 7 7 (451584)
I0403 18:12:48.996006  6696 net.cpp:156] Memory required for data: 1328854560
I0403 18:12:48.996021  6696 layer_factory.hpp:77] Creating layer inception_5b/3x3_reduce
I0403 18:12:48.996045  6696 net.cpp:91] Creating Layer inception_5b/3x3_reduce
I0403 18:12:48.996063  6696 net.cpp:425] inception_5b/3x3_reduce <- inception_5a/output_inception_5a/output_0_split_1
I0403 18:12:48.996088  6696 net.cpp:399] inception_5b/3x3_reduce -> inception_5b/3x3_reduce
I0403 18:12:48.998842  6696 net.cpp:141] Setting up inception_5b/3x3_reduce
I0403 18:12:48.998873  6696 net.cpp:148] Top shape: 24 192 7 7 (225792)
I0403 18:12:48.998888  6696 net.cpp:156] Memory required for data: 1329757728
I0403 18:12:48.998908  6696 layer_factory.hpp:77] Creating layer inception_5b/relu_3x3_reduce
I0403 18:12:48.998929  6696 net.cpp:91] Creating Layer inception_5b/relu_3x3_reduce
I0403 18:12:48.998946  6696 net.cpp:425] inception_5b/relu_3x3_reduce <- inception_5b/3x3_reduce
I0403 18:12:48.998965  6696 net.cpp:386] inception_5b/relu_3x3_reduce -> inception_5b/3x3_reduce (in-place)
I0403 18:12:48.999156  6696 net.cpp:141] Setting up inception_5b/relu_3x3_reduce
I0403 18:12:48.999184  6696 net.cpp:148] Top shape: 24 192 7 7 (225792)
I0403 18:12:48.999200  6696 net.cpp:156] Memory required for data: 1330660896
I0403 18:12:48.999220  6696 layer_factory.hpp:77] Creating layer inception_5b/3x3
I0403 18:12:48.999244  6696 net.cpp:91] Creating Layer inception_5b/3x3
I0403 18:12:48.999264  6696 net.cpp:425] inception_5b/3x3 <- inception_5b/3x3_reduce
I0403 18:12:48.999284  6696 net.cpp:399] inception_5b/3x3 -> inception_5b/3x3
I0403 18:12:49.006093  6696 net.cpp:141] Setting up inception_5b/3x3
I0403 18:12:49.006124  6696 net.cpp:148] Top shape: 24 384 7 7 (451584)
I0403 18:12:49.006139  6696 net.cpp:156] Memory required for data: 1332467232
I0403 18:12:49.006157  6696 layer_factory.hpp:77] Creating layer inception_5b/relu_3x3
I0403 18:12:49.006181  6696 net.cpp:91] Creating Layer inception_5b/relu_3x3
I0403 18:12:49.006196  6696 net.cpp:425] inception_5b/relu_3x3 <- inception_5b/3x3
I0403 18:12:49.006219  6696 net.cpp:386] inception_5b/relu_3x3 -> inception_5b/3x3 (in-place)
I0403 18:12:49.006525  6696 net.cpp:141] Setting up inception_5b/relu_3x3
I0403 18:12:49.006552  6696 net.cpp:148] Top shape: 24 384 7 7 (451584)
I0403 18:12:49.006572  6696 net.cpp:156] Memory required for data: 1334273568
I0403 18:12:49.006587  6696 layer_factory.hpp:77] Creating layer inception_5b/5x5_reduce
I0403 18:12:49.006623  6696 net.cpp:91] Creating Layer inception_5b/5x5_reduce
I0403 18:12:49.006642  6696 net.cpp:425] inception_5b/5x5_reduce <- inception_5a/output_inception_5a/output_0_split_2
I0403 18:12:49.006664  6696 net.cpp:399] inception_5b/5x5_reduce -> inception_5b/5x5_reduce
I0403 18:12:49.007943  6696 net.cpp:141] Setting up inception_5b/5x5_reduce
I0403 18:12:49.007972  6696 net.cpp:148] Top shape: 24 48 7 7 (56448)
I0403 18:12:49.007988  6696 net.cpp:156] Memory required for data: 1334499360
I0403 18:12:49.008007  6696 layer_factory.hpp:77] Creating layer inception_5b/relu_5x5_reduce
I0403 18:12:49.008026  6696 net.cpp:91] Creating Layer inception_5b/relu_5x5_reduce
I0403 18:12:49.008044  6696 net.cpp:425] inception_5b/relu_5x5_reduce <- inception_5b/5x5_reduce
I0403 18:12:49.008061  6696 net.cpp:386] inception_5b/relu_5x5_reduce -> inception_5b/5x5_reduce (in-place)
I0403 18:12:49.008445  6696 net.cpp:141] Setting up inception_5b/relu_5x5_reduce
I0403 18:12:49.008471  6696 net.cpp:148] Top shape: 24 48 7 7 (56448)
I0403 18:12:49.008486  6696 net.cpp:156] Memory required for data: 1334725152
I0403 18:12:49.008502  6696 layer_factory.hpp:77] Creating layer inception_5b/5x5
I0403 18:12:49.008522  6696 net.cpp:91] Creating Layer inception_5b/5x5
I0403 18:12:49.008538  6696 net.cpp:425] inception_5b/5x5 <- inception_5b/5x5_reduce
I0403 18:12:49.008558  6696 net.cpp:399] inception_5b/5x5 -> inception_5b/5x5
I0403 18:12:49.010645  6696 net.cpp:141] Setting up inception_5b/5x5
I0403 18:12:49.010675  6696 net.cpp:148] Top shape: 24 128 7 7 (150528)
I0403 18:12:49.010691  6696 net.cpp:156] Memory required for data: 1335327264
I0403 18:12:49.010710  6696 layer_factory.hpp:77] Creating layer inception_5b/relu_5x5
I0403 18:12:49.010727  6696 net.cpp:91] Creating Layer inception_5b/relu_5x5
I0403 18:12:49.010743  6696 net.cpp:425] inception_5b/relu_5x5 <- inception_5b/5x5
I0403 18:12:49.010761  6696 net.cpp:386] inception_5b/relu_5x5 -> inception_5b/5x5 (in-place)
I0403 18:12:49.010962  6696 net.cpp:141] Setting up inception_5b/relu_5x5
I0403 18:12:49.010987  6696 net.cpp:148] Top shape: 24 128 7 7 (150528)
I0403 18:12:49.011003  6696 net.cpp:156] Memory required for data: 1335929376
I0403 18:12:49.011018  6696 layer_factory.hpp:77] Creating layer inception_5b/pool
I0403 18:12:49.011036  6696 net.cpp:91] Creating Layer inception_5b/pool
I0403 18:12:49.011054  6696 net.cpp:425] inception_5b/pool <- inception_5a/output_inception_5a/output_0_split_3
I0403 18:12:49.011075  6696 net.cpp:399] inception_5b/pool -> inception_5b/pool
I0403 18:12:49.011147  6696 net.cpp:141] Setting up inception_5b/pool
I0403 18:12:49.011174  6696 net.cpp:148] Top shape: 24 832 7 7 (978432)
I0403 18:12:49.011189  6696 net.cpp:156] Memory required for data: 1339843104
I0403 18:12:49.011204  6696 layer_factory.hpp:77] Creating layer inception_5b/pool_proj
I0403 18:12:49.011232  6696 net.cpp:91] Creating Layer inception_5b/pool_proj
I0403 18:12:49.011251  6696 net.cpp:425] inception_5b/pool_proj <- inception_5b/pool
I0403 18:12:49.011270  6696 net.cpp:399] inception_5b/pool_proj -> inception_5b/pool_proj
I0403 18:12:49.013608  6696 net.cpp:141] Setting up inception_5b/pool_proj
I0403 18:12:49.013638  6696 net.cpp:148] Top shape: 24 128 7 7 (150528)
I0403 18:12:49.013654  6696 net.cpp:156] Memory required for data: 1340445216
I0403 18:12:49.013674  6696 layer_factory.hpp:77] Creating layer inception_5b/relu_pool_proj
I0403 18:12:49.013695  6696 net.cpp:91] Creating Layer inception_5b/relu_pool_proj
I0403 18:12:49.013712  6696 net.cpp:425] inception_5b/relu_pool_proj <- inception_5b/pool_proj
I0403 18:12:49.013730  6696 net.cpp:386] inception_5b/relu_pool_proj -> inception_5b/pool_proj (in-place)
I0403 18:12:49.014030  6696 net.cpp:141] Setting up inception_5b/relu_pool_proj
I0403 18:12:49.014057  6696 net.cpp:148] Top shape: 24 128 7 7 (150528)
I0403 18:12:49.014072  6696 net.cpp:156] Memory required for data: 1341047328
I0403 18:12:49.014087  6696 layer_factory.hpp:77] Creating layer inception_5b/output
I0403 18:12:49.014108  6696 net.cpp:91] Creating Layer inception_5b/output
I0403 18:12:49.014138  6696 net.cpp:425] inception_5b/output <- inception_5b/1x1
I0403 18:12:49.014156  6696 net.cpp:425] inception_5b/output <- inception_5b/3x3
I0403 18:12:49.014173  6696 net.cpp:425] inception_5b/output <- inception_5b/5x5
I0403 18:12:49.014189  6696 net.cpp:425] inception_5b/output <- inception_5b/pool_proj
I0403 18:12:49.014206  6696 net.cpp:399] inception_5b/output -> inception_5b/output
I0403 18:12:49.014269  6696 net.cpp:141] Setting up inception_5b/output
I0403 18:12:49.014293  6696 net.cpp:148] Top shape: 24 1024 7 7 (1204224)
I0403 18:12:49.014309  6696 net.cpp:156] Memory required for data: 1345864224
I0403 18:12:49.014323  6696 layer_factory.hpp:77] Creating layer pool5/7x7_s1
I0403 18:12:49.014343  6696 net.cpp:91] Creating Layer pool5/7x7_s1
I0403 18:12:49.014358  6696 net.cpp:425] pool5/7x7_s1 <- inception_5b/output
I0403 18:12:49.014379  6696 net.cpp:399] pool5/7x7_s1 -> pool5/7x7_s1
I0403 18:12:49.014596  6696 net.cpp:141] Setting up pool5/7x7_s1
I0403 18:12:49.014626  6696 net.cpp:148] Top shape: 24 1024 1 1 (24576)
I0403 18:12:49.014641  6696 net.cpp:156] Memory required for data: 1345962528
I0403 18:12:49.014655  6696 layer_factory.hpp:77] Creating layer pool5/drop_7x7_s1
I0403 18:12:49.014673  6696 net.cpp:91] Creating Layer pool5/drop_7x7_s1
I0403 18:12:49.014689  6696 net.cpp:425] pool5/drop_7x7_s1 <- pool5/7x7_s1
I0403 18:12:49.014706  6696 net.cpp:386] pool5/drop_7x7_s1 -> pool5/7x7_s1 (in-place)
I0403 18:12:49.014760  6696 net.cpp:141] Setting up pool5/drop_7x7_s1
I0403 18:12:49.014783  6696 net.cpp:148] Top shape: 24 1024 1 1 (24576)
I0403 18:12:49.014798  6696 net.cpp:156] Memory required for data: 1346060832
I0403 18:12:49.014814  6696 layer_factory.hpp:77] Creating layer loss3/classifier_plantvillage
I0403 18:12:49.014837  6696 net.cpp:91] Creating Layer loss3/classifier_plantvillage
I0403 18:12:49.014853  6696 net.cpp:425] loss3/classifier_plantvillage <- pool5/7x7_s1
I0403 18:12:49.014873  6696 net.cpp:399] loss3/classifier_plantvillage -> loss3/classifier_plantvillage
I0403 18:12:49.015313  6696 net.cpp:141] Setting up loss3/classifier_plantvillage
I0403 18:12:49.015338  6696 net.cpp:148] Top shape: 24 38 (912)
I0403 18:12:49.015352  6696 net.cpp:156] Memory required for data: 1346064480
I0403 18:12:49.015372  6696 layer_factory.hpp:77] Creating layer loss3/classifier_plantvillage_loss3/classifier_plantvillage_0_split
I0403 18:12:49.015389  6696 net.cpp:91] Creating Layer loss3/classifier_plantvillage_loss3/classifier_plantvillage_0_split
I0403 18:12:49.015405  6696 net.cpp:425] loss3/classifier_plantvillage_loss3/classifier_plantvillage_0_split <- loss3/classifier_plantvillage
I0403 18:12:49.015427  6696 net.cpp:399] loss3/classifier_plantvillage_loss3/classifier_plantvillage_0_split -> loss3/classifier_plantvillage_loss3/classifier_plantvillage_0_split_0
I0403 18:12:49.015447  6696 net.cpp:399] loss3/classifier_plantvillage_loss3/classifier_plantvillage_0_split -> loss3/classifier_plantvillage_loss3/classifier_plantvillage_0_split_1
I0403 18:12:49.015467  6696 net.cpp:399] loss3/classifier_plantvillage_loss3/classifier_plantvillage_0_split -> loss3/classifier_plantvillage_loss3/classifier_plantvillage_0_split_2
I0403 18:12:49.015487  6696 net.cpp:399] loss3/classifier_plantvillage_loss3/classifier_plantvillage_0_split -> loss3/classifier_plantvillage_loss3/classifier_plantvillage_0_split_3
I0403 18:12:49.015589  6696 net.cpp:141] Setting up loss3/classifier_plantvillage_loss3/classifier_plantvillage_0_split
I0403 18:12:49.015614  6696 net.cpp:148] Top shape: 24 38 (912)
I0403 18:12:49.015630  6696 net.cpp:148] Top shape: 24 38 (912)
I0403 18:12:49.015645  6696 net.cpp:148] Top shape: 24 38 (912)
I0403 18:12:49.015661  6696 net.cpp:148] Top shape: 24 38 (912)
I0403 18:12:49.015674  6696 net.cpp:156] Memory required for data: 1346079072
I0403 18:12:49.015689  6696 layer_factory.hpp:77] Creating layer loss1/loss
I0403 18:12:49.015712  6696 net.cpp:91] Creating Layer loss1/loss
I0403 18:12:49.015729  6696 net.cpp:425] loss1/loss <- loss1/classifier_plantvillage_loss1/classifier_plantvillage_0_split_0
I0403 18:12:49.015761  6696 net.cpp:425] loss1/loss <- label_data_1_split_0
…
