…
I0403 18:33:55.102561  7120 net.cpp:313] The NetState phase (1) differed from the phase (0) specified by a rule in layer data
I0403 18:33:55.103961  7120 net.cpp:49] Initializing net from parameters: 
state {
  phase: TEST
}
layer {
  name: "data"
  type: "Data"
  top: "data"
  top: "label"
  include {
    phase: TEST
  }
  transform_param {
    mirror: false
    crop_size: 224
    mean_file: "/home/mohanty/data/final_dataset/lmdb/segmented-50-50/mean.binaryproto"
  }
  data_param {
    source: "/home/mohanty/data/final_dataset/lmdb/segmented-50-50/test_db"
    batch_size: 24
    backend: LMDB
  }
}
layer {
  name: "conv1/7x7_s2"
  type: "Convolution"
  bottom: "data"
  top: "conv1/7x7_s2"
  param {
    lr_mult: 1
    decay_mult: 1
  }
  param {
    lr_mult: 2
    decay_mult: 0
  }
  convolution_param {
    num_output: 64
    pad: 3
    kernel_size: 7
    stride: 2
    weight_filler {
      type: "xavier"
      std: 0.1
    }
    bias_filler {
      type: "constant"
      value: 0.2
    }
  }
}
layer {
  name: "conv1/relu_7x7"
  type: "ReLU"
  bottom: "conv1/7x7_s2"
  top: "conv1/7x7_s2"
}
layer {
  name: "pool1/3x3_s2"
  type: "Pooling"
  bottom: "conv1/7x7_s2"
  top: "pool1/3x3_s2"
  pooling_param {
    pool: MAX
    kernel_size: 3
    stride: 2
  }
}
layer {
  name: "pool1/norm1"
  type: "LRN"
  bottom: "pool1/3x3_s2"
  top: "pool1/norm1"
  lrn_param {
    local_size: 5
    alpha: 0.0001
    beta: 0.75
  }
}
layer {
  name: "conv2/3x3_reduce"
  type: "Convolution"
  bottom: "pool1/norm1"
  top: "conv2/3x3_reduce"
  param {
    lr_mult: 1
    decay_mult: 1
  }
  param {
    lr_mult: 2
    decay_mult: 0
  }
  convolution_param {
    num_output: 64
    kernel_size: 1
    weight_filler {
      type: "xavier"
      std: 0.1
    }
    bias_filler {
      type: "constant"
      value: 0.2
    }
  }
}
layer {
  name: "conv2/relu_3x3_reduce"
  type: "ReLU"
  bottom: "conv2/3x3_reduce"
  top: "conv2/3x3_reduce"
}
layer {
  name: "conv2/3x3"
  type: "Convolution"
  bottom: "conv2/3x3_reduce"
  top: "conv2/3x3"
  param {
    lr_mult: 1
    decay_mult: 1
  }
  param {
    lr_mult: 2
    decay_mult: 0
  }
  convolution_param {
    num_output: 192
    pad: 1
    kernel_size: 3
    weight_filler {
      type: "xavier"
      std: 0.03
    }
    bias_filler {
      type: "constant"
      value: 0.2
    }
  }
}
layer {
  name: "conv2/relu_3x3"
  type: "ReLU"
  bottom: "conv2/3x3"
  top: "conv2/3x3"
}
layer {
  name: "conv2/norm2"
  type: "LRN"
  bottom: "conv2/3x3"
  top: "conv2/norm2"
  lrn_param {
    local_size: 5
    alpha: 0.0001
    beta: 0.75
  }
}
layer {
  name: "pool2/3x3_s2"
  type: "Pooling"
  bottom: "conv2/norm2"
  top: "pool2/3x3_s2"
  pooling_param {
    pool: MAX
    kernel_size: 3
    stride: 2
  }
}
layer {
  name: "inception_3a/1x1"
  type: "Convolution"
  bottom: "pool2/3x3_s2"
  top: "inception_3a/1x1"
  param {
    lr_mult: 1
    decay_mult: 1
  }
  param {
    lr_mult: 2
    decay_mult: 0
  }
  convolution_param {
    num_output: 64
    kernel_size: 1
    weight_filler {
      type: "xavier"
      std: 0.03
    }
    bias_filler {
      type: "constant"
      value: 0.2
    }
  }
}
layer {
  name: "inception_3a/relu_1x1"
  type: "ReLU"
  bottom: "inception_3a/1x1"
  top: "inception_3a/1x1"
}
layer {
  name: "inception_3a/3x3_reduce"
  type: "Convolution"
  bottom: "pool2/3x3_s2"
  top: "inception_3a/3x3_reduce"
  param {
    lr_mult: 1
    decay_mult: 1
  }
  param {
    lr_mult: 2
    decay_mult: 0
  }
  convolution_param {
    num_output: 96
    kernel_size: 1
    weight_filler {
      type: "xavier"
      std: 0.09
    }
    bias_filler {
      type: "constant"
      value: 0.2
    }
  }
}
layer {
  name: "inception_3a/relu_3x3_reduce"
  type: "ReLU"
  bottom: "inception_3a/3x3_reduce"
  top: "inception_3a/3x3_reduce"
}
layer {
  name: "inception_3a/3x3"
  type: "Convolution"
  bottom: "inception_3a/3x3_reduce"
  top: "inception_3a/3x3"
  param {
    lr_mult: 1
    decay_mult: 1
  }
  param {
    lr_mult: 2
    decay_mult: 0
  }
  convolution_param {
    num_output: 128
    pad: 1
    kernel_size: 3
    weight_filler {
      type: "xavier"
      std: 0.03
    }
    bias_filler {
      type: "constant"
      value: 0.2
    }
  }
}
layer {
  name: "inception_3a/relu_3x3"
  type: "ReLU"
  bottom: "inception_3a/3x3"
  top: "inception_3a/3x3"
}
layer {
  name: "inception_3a/5x5_reduce"
  type: "Convolution"
  bottom: "pool2/3x3_s2"
  top: "inception_3a/5x5_reduce"
  param {
    lr_mult: 1
    decay_mult: 1
  }
  param {
    lr_mult: 2
    decay_mult: 0
  }
  convolution_param {
    num_output: 16
    kernel_size: 1
    weight_filler {
      type: "xavier"
      std: 0.2
    }
    bias_filler {
      type: "constant"
      value: 0.2
    }
  }
}
layer {
  name: "inception_3a/relu_5x5_reduce"
  type: "ReLU"
  bottom: "inception_3a/5x5_reduce"
  top: "inception_3a/5x5_reduce"
}
layer {
  name: "inception_3a/5x5"
  type: "Convolution"
  bottom: "inception_3a/5x5_reduce"
  top: "inception_3a/5x5"
  param {
    lr_mult: 1
    decay_mult: 1
  }
  param {
    lr_mult: 2
    decay_mult: 0
  }
  convolution_param {
    num_output: 32
    pad: 2
    kernel_size: 5
    weight_filler {
      type: "xavier"
      std: 0.03
    }
    bias_filler {
      type: "constant"
      value: 0.2
    }
  }
}
layer {
  name: "inception_3a/relu_5x5"
  type: "ReLU"
  bottom: "inception_3a/5x5"
  top: "inception_3a/5x5"
}
layer {
  name: "inception_3a/pool"
  type: "Pooling"
  bottom: "pool2/3x3_s2"
  top: "inception_3a/pool"
  pooling_param {
    pool: MAX
    kernel_size: 3
    stride: 1
    pad: 1
  }
}
layer {
  name: "inception_3a/pool_proj"
  type: "Convolution"
  bottom: "inception_3a/pool"
  top: "inception_3a/pool_proj"
  param {
    lr_mult: 1
    decay_mult: 1
  }
  param {
    lr_mult: 2
    decay_mult: 0
  }
  convolution_param {
    num_output: 32
    kernel_size: 1
    weight_filler {
      type: "xavier"
      std: 0.1
    }
    bias_filler {
      type: "constant"
      value: 0.2
    }
  }
}
layer {
  name: "inception_3a/relu_pool_proj"
  type: "ReLU"
  bottom: "inception_3a/pool_proj"
  top: "inception_3a/pool_proj"
}
layer {
  name: "inception_3a/output"
  type: "Concat"
  bottom: "inception_3a/1x1"
  bottom: "inception_3a/3x3"
  bottom: "inception_3a/5x5"
  bottom: "inception_3a/pool_proj"
  top: "inception_3a/output"
}
layer {
  name: "inception_3b/1x1"
  type: "Convolution"
  bottom: "inception_3a/output"
  top: "inception_3b/1x1"
  param {
    lr_mult: 1
    decay_mult: 1
  }
  param {
    lr_mult: 2
    decay_mult: 0
  }
  convolution_param {
    num_output: 128
    kernel_size: 1
    weight_filler {
      type: "xavier"
      std: 0.03
    }
    bias_filler {
      type: "constant"
      value: 0.2
    }
  }
}
layer {
  name: "inception_3b/relu_1x1"
  type: "ReLU"
  bottom: "inception_3b/1x1"
  top: "inception_3b/1x1"
}
layer {
  name: "inception_3b/3x3_reduce"
  type: "Convolution"
  bottom: "inception_3a/output"
  top: "inception_3b/3x3_reduce"
  param {
    lr_mult: 1
    decay_mult: 1
  }
  param {
    lr_mult: 2
    decay_mult: 0
  }
  convolution_param {
    num_output: 128
    kernel_size: 1
    weight_filler {
      type: "xavier"
      std: 0.09
    }
    bias_filler {
      type: "constant"
      value: 0.2
    }
  }
}
layer {
  name: "inception_3b/relu_3x3_reduce"
  type: "ReLU"
  bottom: "inception_3b/3x3_reduce"
  top: "inception_3b/3x3_reduce"
}
layer {
  name: "inception_3b/3x3"
  type: "Convolution"
  bottom: "inception_3b/3x3_reduce"
  top: "inception_3b/3x3"
  param {
    lr_mult: 1
    decay_mult: 1
  }
  param {
    lr_mult: 2
    decay_mult: 0
  }
  convolution_param {
    num_output: 192
    pad: 1
    kernel_size: 3
    weight_filler {
      type: "xavier"
      std: 0.03
    }
    bias_filler {
      type: "constant"
      value: 0.2
    }
  }
}
layer {
  name: "inception_3b/relu_3x3"
  type: "ReLU"
  bottom: "inception_3b/3x3"
  top: "inception_3b/3x3"
}
layer {
  name: "inception_3b/5x5_reduce"
  type: "Convolution"
  bottom: "inception_3a/output"
  top: "inception_3b/5x5_reduce"
  param {
    lr_mult: 1
    decay_mult: 1
  }
  param {
    lr_mult: 2
    decay_mult: 0
  }
  convolution_param {
    num_output: 32
    kernel_size: 1
    weight_filler {
      type: "xavier"
      std: 0.2
    }
    bias_filler {
      type: "constant"
      value: 0.2
    }
  }
}
layer {
  name: "inception_3b/relu_5x5_reduce"
  type: "ReLU"
  bottom: "inception_3b/5x5_reduce"
  top: "inception_3b/5x5_reduce"
}
layer {
  name: "inception_3b/5x5"
  type: "Convolution"
  bottom: "inception_3b/5x5_reduce"
  top: "inception_3b/5x5"
  param {
    lr_mult: 1
    decay_mult: 1
  }
  param {
    lr_mult: 2
    decay_mult: 0
  }
  convolution_param {
    num_output: 96
    pad: 2
    kernel_size: 5
    weight_filler {
      type: "xavier"
      std: 0.03
    }
    bias_filler {
      type: "constant"
      value: 0.2
    }
  }
}
layer {
  name: "inception_3b/relu_5x5"
  type: "ReLU"
  bottom: "inception_3b/5x5"
  top: "inception_3b/5x5"
}
layer {
  name: "inception_3b/pool"
  type: "Pooling"
  bottom: "inception_3a/output"
  top: "inception_3b/pool"
  pooling_param {
    pool: MAX
    kernel_size: 3
    stride: 1
    pad: 1
  }
}
layer {
  name: "inception_3b/pool_proj"
  type: "Convolution"
  bottom: "inception_3b/pool"
  top: "inception_3b/pool_proj"
  param {
    lr_mult: 1
    decay_mult: 1
  }
  param {
    lr_mult: 2
    decay_mult: 0
  }
  convolution_param {
    num_output: 64
    kernel_size: 1
    weight_filler {
      type: "xavier"
      std: 0.1
    }
    bias_filler {
      type: "constant"
      value: 0.2
    }
  }
}
layer {
  name: "inception_3b/relu_pool_proj"
  type: "ReLU"
  bottom: "inception_3b/pool_proj"
  top: "inception_3b/pool_proj"
}
layer {
  name: "inception_3b/output"
  type: "Concat"
  bottom: "inception_3b/1x1"
  bottom: "inception_3b/3x3"
  bottom: "inception_3b/5x5"
  bottom: "inception_3b/pool_proj"
  top: "inception_3b/output"
}
layer {
  name: "pool3/3x3_s2"
  type: "Pooling"
  bottom: "inception_3b/output"
  top: "pool3/3x3_s2"
  pooling_param {
    pool: MAX
    kernel_size: 3
    stride: 2
  }
}
layer {
  name: "inception_4a/1x1"
  type: "Convolution"
  bottom: "pool3/3x3_s2"
  top: "inception_4a/1x1"
  param {
    lr_mult: 1
    decay_mult: 1
  }
  param {
    lr_mult: 2
    decay_mult: 0
  }
  convolution_param {
    num_output: 192
    kernel_size: 1
    weight_filler {
      type: "xavier"
      std: 0.03
    }
    bias_filler {
      type: "constant"
      value: 0.2
    }
  }
}
layer {
  name: "inception_4a/relu_1x1"
  type: "ReLU"
  bottom: "inception_4a/1x1"
  top: "inception_4a/1x1"
}
layer {
  name: "inception_4a/3x3_reduce"
  type: "Convolution"
  bottom: "pool3/3x3_s2"
  top: "inception_4a/3x3_reduce"
  param {
    lr_mult: 1
    decay_mult: 1
  }
  param {
    lr_mult: 2
    decay_mult: 0
  }
  convolution_param {
    num_output: 96
    kernel_size: 1
    weight_filler {
      type: "xavier"
      std: 0.09
    }
    bias_filler {
      type: "constant"
      value: 0.2
    }
  }
}
layer {
  name: "inception_4a/relu_3x3_reduce"
  type: "ReLU"
  bottom: "inception_4a/3x3_reduce"
  top: "inception_4a/3x3_reduce"
}
layer {
  name: "inception_4a/3x3"
  type: "Convolution"
  bottom: "inception_4a/3x3_reduce"
  top: "inception_4a/3x3"
  param {
    lr_mult: 1
    decay_mult: 1
  }
  param {
    lr_mult: 2
    decay_mult: 0
  }
  convolution_param {
    num_output: 208
    pad: 1
    kernel_size: 3
    weight_filler {
      type: "xavier"
      std: 0.03
    }
    bias_filler {
      type: "constant"
      value: 0.2
    }
  }
}
layer {
  name: "inception_4a/relu_3x3"
  type: "ReLU"
  bottom: "inception_4a/3x3"
  top: "inception_4a/3x3"
}
layer {
  name: "inception_4a/5x5_reduce"
  type: "Convolution"
  bottom: "pool3/3x3_s2"
  top: "inception_4a/5x5_reduce"
  param {
    lr_mult: 1
    decay_mult: 1
  }
  param {
    lr_mult: 2
    decay_mult: 0
  }
  convolution_param {
    num_output: 16
    kernel_size: 1
    weight_filler {
      type: "xavier"
      std: 0.2
    }
    bias_filler {
      type: "constant"
      value: 0.2
    }
  }
}
layer {
  name: "inception_4a/relu_5x5_reduce"
  type: "ReLU"
  bottom: "inception_4a/5x5_reduce"
  top: "inception_4a/5x5_reduce"
}
layer {
  name: "inception_4a/5x5"
  type: "Convolution"
  bottom: "inception_4a/5x5_reduce"
  top: "inception_4a/5x5"
  param {
    lr_mult: 1
    decay_mult: 1
  }
  param {
    lr_mult: 2
    decay_mult: 0
  }
  convolution_param {
    num_output: 48
    pad: 2
    kernel_size: 5
    weight_filler {
      type: "xavier"
      std: 0.03
    }
    bias_filler {
      type: "constant"
      value: 0.2
    }
  }
}
layer {
  name: "inception_4a/relu_5x5"
  type: "ReLU"
  bottom: "inception_4a/5x5"
  top: "inception_4a/5x5"
}
layer {
  name: "inception_4a/pool"
  type: "Pooling"
  bottom: "pool3/3x3_s2"
  top: "inception_4a/pool"
  pooling_param {
    pool: MAX
    kernel_size: 3
    stride: 1
    pad: 1
  }
}
layer {
  name: "inception_4a/pool_proj"
  type: "Convolution"
  bottom: "inception_4a/pool"
  top: "inception_4a/pool_proj"
  param {
    lr_mult: 1
    decay_mult: 1
  }
  param {
    lr_mult: 2
    decay_mult: 0
  }
  convolution_param {
    num_output: 64
    kernel_size: 1
    weight_filler {
      type: "xavier"
      std: 0.1
    }
    bias_filler {
      type: "constant"
      value: 0.2
    }
  }
}
layer {
  name: "inception_4a/relu_pool_proj"
  type: "ReLU"
  bottom: "inception_4a/pool_proj"
  top: "inception_4a/pool_proj"
}
layer {
  name: "inception_4a/output"
  type: "Concat"
  bottom: "inception_4a/1x1"
  bottom: "inception_4a/3x3"
  bottom: "inception_4a/5x5"
  bottom: "inception_4a/pool_proj"
  top: "inception_4a/output"
}
layer {
  name: "loss1/ave_pool"
  type: "Pooling"
  bottom: "inception_4a/output"
  top: "loss1/ave_pool"
  pooling_param {
    pool: AVE
    kernel_size: 5
    stride: 3
  }
}
layer {
  name: "loss1/conv"
  type: "Convolution"
  bottom: "loss1/ave_pool"
  top: "loss1/conv"
  param {
    lr_mult: 1
    decay_mult: 1
  }
  param {
    lr_mult: 2
    decay_mult: 0
  }
  convolution_param {
    num_output: 128
    kernel_size: 1
    weight_filler {
      type: "xavier"
      std: 0.08
    }
    bias_filler {
      type: "constant"
      value: 0.2
    }
  }
}
layer {
  name: "loss1/relu_conv"
  type: "ReLU"
  bottom: "loss1/conv"
  top: "loss1/conv"
}
layer {
  name: "loss1/fc"
  type: "InnerProduct"
  bottom: "loss1/conv"
  top: "loss1/fc"
  param {
    lr_mult: 1
    decay_mult: 1
  }
  param {
    lr_mult: 2
    decay_mult: 0
  }
  inner_product_param {
    num_output: 1024
    weight_filler {
      type: "xavier"
      std: 0.02
    }
    bias_filler {
      type: "constant"
      value: 0.2
    }
  }
}
layer {
  name: "loss1/relu_fc"
  type: "ReLU"
  bottom: "loss1/fc"
  top: "loss1/fc"
}
layer {
  name: "loss1/drop_fc"
  type: "Dropout"
  bottom: "loss1/fc"
  top: "loss1/fc"
  dropout_param {
    dropout_ratio: 0.7
  }
}
layer {
  name: "loss1/classifier_plantvillage"
  type: "InnerProduct"
  bottom: "loss1/fc"
  top: "loss1/classifier_plantvillage"
  param {
    lr_mult: 1
    decay_mult: 1
  }
  param {
    lr_mult: 2
    decay_mult: 0
  }
  inner_product_param {
    num_output: 38
    weight_filler {
      type: "xavier"
      std: 0.0009765625
    }
    bias_filler {
      type: "constant"
      value: 0
    }
  }
}
layer {
  name: "inception_4b/1x1"
  type: "Convolution"
  bottom: "inception_4a/output"
  top: "inception_4b/1x1"
  param {
    lr_mult: 1
    decay_mult: 1
  }
  param {
    lr_mult: 2
    decay_mult: 0
  }
  convolution_param {
    num_output: 160
    kernel_size: 1
    weight_filler {
      type: "xavier"
      std: 0.03
    }
    bias_filler {
      type: "constant"
      value: 0.2
    }
  }
}
layer {
  name: "inception_4b/relu_1x1"
  type: "ReLU"
  bottom: "inception_4b/1x1"
  top: "inception_4b/1x1"
}
layer {
  name: "inception_4b/3x3_reduce"
  type: "Convolution"
  bottom: "inception_4a/output"
  top: "inception_4b/3x3_reduce"
  param {
    lr_mult: 1
    decay_mult: 1
  }
  param {
    lr_mult: 2
    decay_mult: 0
  }
  convolution_param {
    num_output: 112
    kernel_size: 1
    weight_filler {
      type: "xavier"
      std: 0.09
    }
    bias_filler {
      type: "constant"
      value: 0.2
    }
  }
}
layer {
  name: "inception_4b/relu_3x3_reduce"
  type: "ReLU"
  bottom: "inception_4b/3x3_reduce"
  top: "inception_4b/3x3_reduce"
}
layer {
  name: "inception_4b/3x3"
  type: "Convolution"
  bottom: "inception_4b/3x3_reduce"
  top: "inception_4b/3x3"
  param {
    lr_mult: 1
    decay_mult: 1
  }
  param {
    lr_mult: 2
    decay_mult: 0
  }
  convolution_param {
    num_output: 224
    pad: 1
    kernel_size: 3
    weight_filler {
      type: "xavier"
      std: 0.03
    }
    bias_filler {
      type: "constant"
      value: 0.2
    }
  }
}
layer {
  name: "inception_4b/relu_3x3"
  type: "ReLU"
  bottom: "inception_4b/3x3"
  top: "inception_4b/3x3"
}
layer {
  name: "inception_4b/5x5_reduce"
  type: "Convolution"
  bottom: "inception_4a/output"
  top: "inception_4b/5x5_reduce"
  param {
    lr_mult: 1
    decay_mult: 1
  }
  param {
    lr_mult: 2
    decay_mult: 0
  }
  convolution_param {
    num_output: 24
    kernel_size: 1
    weight_filler {
      type: "xavier"
      std: 0.2
    }
    bias_filler {
      type: "constant"
      value: 0.2
    }
  }
}
layer {
  name: "inception_4b/relu_5x5_reduce"
  type: "ReLU"
  bottom: "inception_4b/5x5_reduce"
  top: "inception_4b/5x5_reduce"
}
layer {
  name: "inception_4b/5x5"
  type: "Convolution"
  bottom: "inception_4b/5x5_reduce"
  top: "inception_4b/5x5"
  param {
    lr_mult: 1
    decay_mult: 1
  }
  param {
    lr_mult: 2
    decay_mult: 0
  }
  convolution_param {
    num_output: 64
    pad: 2
    kernel_size: 5
    weight_filler {
      type: "xavier"
      std: 0.03
    }
    bias_filler {
      type: "constant"
      value: 0.2
    }
  }
}
layer {
  name: "inception_4b/relu_5x5"
  type: "ReLU"
  bottom: "inception_4b/5x5"
  top: "inception_4b/5x5"
}
layer {
  name: "inception_4b/pool"
  type: "Pooling"
  bottom: "inception_4a/output"
  top: "inception_4b/pool"
  pooling_param {
    pool: MAX
    kernel_size: 3
    stride: 1
    pad: 1
  }
}
layer {
  name: "inception_4b/pool_proj"
  type: "Convolution"
  bottom: "inception_4b/pool"
  top: "inception_4b/pool_proj"
  param {
    lr_mult: 1
    decay_mult: 1
  }
  param {
    lr_mult: 2
    decay_mult: 0
  }
  convolution_param {
    num_output: 64
    kernel_size: 1
    weight_filler {
      type: "xavier"
      std: 0.1
    }
    bias_filler {
      type: "constant"
      value: 0.2
    }
  }
}
layer {
  name: "inception_4b/relu_pool_proj"
  type: "ReLU"
  bottom: "inception_4b/pool_proj"
  top: "inception_4b/pool_proj"
}
layer {
  name: "inception_4b/output"
  type: "Concat"
  bottom: "inception_4b/1x1"
  bottom: "inception_4b/3x3"
  bottom: "inception_4b/5x5"
  bottom: "inception_4b/pool_proj"
  top: "inception_4b/output"
}
layer {
  name: "inception_4c/1x1"
  type: "Convolution"
  bottom: "inception_4b/output"
  top: "inception_4c/1x1"
  param {
    lr_mult: 1
    decay_mult: 1
  }
  param {
    lr_mult: 2
    decay_mult: 0
  }
  convolution_param {
    num_output: 128
    kernel_size: 1
    weight_filler {
      type: "xavier"
      std: 0.03
    }
    bias_filler {
      type: "constant"
      value: 0.2
    }
  }
}
layer {
  name: "inception_4c/relu_1x1"
  type: "ReLU"
  bottom: "inception_4c/1x1"
  top: "inception_4c/1x1"
}
layer {
  name: "inception_4c/3x3_reduce"
  type: "Convolution"
  bottom: "inception_4b/output"
  top: "inception_4c/3x3_reduce"
  param {
    lr_mult: 1
    decay_mult: 1
  }
  param {
    lr_mult: 2
    decay_mult: 0
  }
  convolution_param {
    num_output: 128
    kernel_size: 1
    weight_filler {
      type: "xavier"
      std: 0.09
    }
    bias_filler {
      type: "constant"
      value: 0.2
    }
  }
}
layer {
  name: "inception_4c/relu_3x3_reduce"
  type: "ReLU"
  bottom: "inception_4c/3x3_reduce"
  top: "inception_4c/3x3_reduce"
}
layer {
  name: "inception_4c/3x3"
  type: "Convolution"
  bottom: "inception_4c/3x3_reduce"
  top: "inception_4c/3x3"
  param {
    lr_mult: 1
    decay_mult: 1
  }
  param {
    lr_mult: 2
    decay_mult: 0
  }
  convolution_param {
    num_output: 256
    pad: 1
    kernel_size: 3
    weight_filler {
      type: "xavier"
      std: 0.03
    }
    bias_filler {
      type: "constant"
      value: 0.2
    }
  }
}
layer {
  name: "inception_4c/relu_3x3"
  type: "ReLU"
  bottom: "inception_4c/3x3"
  top: "inception_4c/3x3"
}
layer {
  name: "inception_4c/5x5_reduce"
  type: "Convolution"
  bottom: "inception_4b/output"
  top: "inception_4c/5x5_reduce"
  param {
    lr_mult: 1
    decay_mult: 1
  }
  param {
    lr_mult: 2
    decay_mult: 0
  }
  convolution_param {
    num_output: 24
    kernel_size: 1
    weight_filler {
      type: "xavier"
      std: 0.2
    }
    bias_filler {
      type: "constant"
      value: 0.2
    }
  }
}
layer {
  name: "inception_4c/relu_5x5_reduce"
  type: "ReLU"
  bottom: "inception_4c/5x5_reduce"
  top: "inception_4c/5x5_reduce"
}
layer {
  name: "inception_4c/5x5"
  type: "Convolution"
  bottom: "inception_4c/5x5_reduce"
  top: "inception_4c/5x5"
  param {
    lr_mult: 1
    decay_mult: 1
  }
  param {
    lr_mult: 2
    decay_mult: 0
  }
  convolution_param {
    num_output: 64
    pad: 2
    kernel_size: 5
    weight_filler {
      type: "xavier"
      std: 0.03
    }
    bias_filler {
      type: "constant"
      value: 0.2
    }
  }
}
layer {
  name: "inception_4c/relu_5x5"
  type: "ReLU"
  bottom: "inception_4c/5x5"
  top: "inception_4c/5x5"
}
layer {
  name: "inception_4c/pool"
  type: "Pooling"
  bottom: "inception_4b/output"
  top: "inception_4c/pool"
  pooling_param {
    pool: MAX
    kernel_size: 3
    stride: 1
    pad: 1
  }
}
layer {
  name: "inception_4c/pool_proj"
  type: "Convolution"
  bottom: "inception_4c/pool"
  top: "inception_4c/pool_proj"
  param {
    lr_mult: 1
    decay_mult: 1
  }
  param {
    lr_mult: 2
    decay_mult: 0
  }
  convolution_param {
    num_output: 64
    kernel_size: 1
    weight_filler {
      type: "xavier"
      std: 0.1
    }
    bias_filler {
      type: "constant"
      value: 0.2
    }
  }
}
layer {
  name: "inception_4c/relu_pool_proj"
  type: "ReLU"
  bottom: "inception_4c/pool_proj"
  top: "inception_4c/pool_proj"
}
layer {
  name: "inception_4c/output"
  type: "Concat"
  bottom: "inception_4c/1x1"
  bottom: "inception_4c/3x3"
  bottom: "inception_4c/5x5"
  bottom: "inception_4c/pool_proj"
  top: "inception_4c/output"
}
layer {
  name: "inception_4d/1x1"
  type: "Convolution"
  bottom: "inception_4c/output"
  top: "inception_4d/1x1"
  param {
    lr_mult: 1
    decay_mult: 1
  }
  param {
    lr_mult: 2
    decay_mult: 0
  }
  convolution_param {
    num_output: 112
    kernel_size: 1
    weight_filler {
      type: "xavier"
      std: 0.03
    }
    bias_filler {
      type: "constant"
      value: 0.2
    }
  }
}
layer {
  name: "inception_4d/relu_1x1"
  type: "ReLU"
  bottom: "inception_4d/1x1"
  top: "inception_4d/1x1"
}
layer {
  name: "inception_4d/3x3_reduce"
  type: "Convolution"
  bottom: "inception_4c/output"
  top: "inception_4d/3x3_reduce"
  param {
    lr_mult: 1
    decay_mult: 1
  }
  param {
    lr_mult: 2
    decay_mult: 0
  }
  convolution_param {
    num_output: 144
    kernel_size: 1
    weight_filler {
      type: "xavier"
      std: 0.09
    }
    bias_filler {
      type: "constant"
      value: 0.2
    }
  }
}
layer {
  name: "inception_4d/relu_3x3_reduce"
  type: "ReLU"
  bottom: "inception_4d/3x3_reduce"
  top: "inception_4d/3x3_reduce"
}
layer {
  name: "inception_4d/3x3"
  type: "Convolution"
  bottom: "inception_4d/3x3_reduce"
  top: "inception_4d/3x3"
  param {
    lr_mult: 1
    decay_mult: 1
  }
  param {
    lr_mult: 2
    decay_mult: 0
  }
  convolution_param {
    num_output: 288
    pad: 1
    kernel_size: 3
    weight_filler {
      type: "xavier"
      std: 0.03
    }
    bias_filler {
      type: "constant"
      value: 0.2
    }
  }
}
layer {
  name: "inception_4d/relu_3x3"
  type: "ReLU"
  bottom: "inception_4d/3x3"
  top: "inception_4d/3x3"
}
layer {
  name: "inception_4d/5x5_reduce"
  type: "Convolution"
  bottom: "inception_4c/output"
  top: "inception_4d/5x5_reduce"
  param {
    lr_mult: 1
    decay_mult: 1
  }
  param {
    lr_mult: 2
    decay_mult: 0
  }
  convolution_param {
    num_output: 32
    kernel_size: 1
    weight_filler {
      type: "xavier"
      std: 0.2
    }
    bias_filler {
      type: "constant"
      value: 0.2
    }
  }
}
layer {
  name: "inception_4d/relu_5x5_reduce"
  type: "ReLU"
  bottom: "inception_4d/5x5_reduce"
  top: "inception_4d/5x5_reduce"
}
layer {
  name: "inception_4d/5x5"
  type: "Convolution"
  bottom: "inception_4d/5x5_reduce"
  top: "inception_4d/5x5"
  param {
    lr_mult: 1
    decay_mult: 1
  }
  param {
    lr_mult: 2
    decay_mult: 0
  }
  convolution_param {
    num_output: 64
    pad: 2
    kernel_size: 5
    weight_filler {
      type: "xavier"
      std: 0.03
    }
    bias_filler {
      type: "constant"
      value: 0.2
    }
  }
}
layer {
  name: "inception_4d/relu_5x5"
  type: "ReLU"
  bottom: "inception_4d/5x5"
  top: "inception_4d/5x5"
}
layer {
  name: "inception_4d/pool"
  type: "Pooling"
  bottom: "inception_4c/output"
  top: "inception_4d/pool"
  pooling_param {
    pool: MAX
    kernel_size: 3
    stride: 1
    pad: 1
  }
}
layer {
  name: "inception_4d/pool_proj"
  type: "Convolution"
  bottom: "inception_4d/pool"
  top: "inception_4d/pool_proj"
  param {
    lr_mult: 1
    decay_mult: 1
  }
  param {
    lr_mult: 2
    decay_mult: 0
  }
  convolution_param {
    num_output: 64
    kernel_size: 1
    weight_filler {
      type: "xavier"
      std: 0.1
    }
    bias_filler {
      type: "constant"
      value: 0.2
    }
  }
}
layer {
  name: "inception_4d/relu_pool_proj"
  type: "ReLU"
  bottom: "inception_4d/pool_proj"
  top: "inception_4d/pool_proj"
}
layer {
  name: "inception_4d/output"
  type: "Concat"
  bottom: "inception_4d/1x1"
  bottom: "inception_4d/3x3"
  bottom: "inception_4d/5x5"
  bottom: "inception_4d/pool_proj"
  top: "inception_4d/output"
}
layer {
  name: "loss2/ave_pool"
  type: "Pooling"
  bottom: "inception_4d/output"
  top: "loss2/ave_pool"
  pooling_param {
    pool: AVE
    kernel_size: 5
    stride: 3
  }
}
layer {
  name: "loss2/conv"
  type: "Convolution"
  bottom: "loss2/ave_pool"
  top: "loss2/conv"
  param {
    lr_mult: 1
    decay_mult: 1
  }
  param {
    lr_mult: 2
    decay_mult: 0
  }
  convolution_param {
    num_output: 128
    kernel_size: 1
    weight_filler {
      type: "xavier"
      std: 0.08
    }
    bias_filler {
      type: "constant"
      value: 0.2
    }
  }
}
layer {
  name: "loss2/relu_conv"
  type: "ReLU"
  bottom: "loss2/conv"
  top: "loss2/conv"
}
layer {
  name: "loss2/fc"
  type: "InnerProduct"
  bottom: "loss2/conv"
  top: "loss2/fc"
  param {
    lr_mult: 1
    decay_mult: 1
  }
  param {
    lr_mult: 2
    decay_mult: 0
  }
  inner_product_param {
    num_output: 1024
    weight_filler {
      type: "xavier"
      std: 0.02
    }
    bias_filler {
      type: "constant"
      value: 0.2
    }
  }
}
layer {
  name: "loss2/relu_fc"
  type: "ReLU"
  bottom: "loss2/fc"
  top: "loss2/fc"
}
layer {
  name: "loss2/drop_fc"
  type: "Dropout"
  bottom: "loss2/fc"
  top: "loss2/fc"
  dropout_param {
    dropout_ratio: 0.7
  }
}
layer {
  name: "loss2/classifier_plantvillage"
  type: "InnerProduct"
  bottom: "loss2/fc"
  top: "loss2/classifier_plantvillage"
  param {
    lr_mult: 1
    decay_mult: 1
  }
  param {
    lr_mult: 2
    decay_mult: 0
  }
  inner_product_param {
    num_output: 38
    weight_filler {
      type: "xavier"
      std: 0.0009765625
    }
    bias_filler {
      type: "constant"
      value: 0
    }
  }
}
layer {
  name: "inception_4e/1x1"
  type: "Convolution"
  bottom: "inception_4d/output"
  top: "inception_4e/1x1"
  param {
    lr_mult: 1
    decay_mult: 1
  }
  param {
    lr_mult: 2
    decay_mult: 0
  }
  convolution_param {
    num_output: 256
    kernel_size: 1
    weight_filler {
      type: "xavier"
      std: 0.03
    }
    bias_filler {
      type: "constant"
      value: 0.2
    }
  }
}
layer {
  name: "inception_4e/relu_1x1"
  type: "ReLU"
  bottom: "inception_4e/1x1"
  top: "inception_4e/1x1"
}
layer {
  name: "inception_4e/3x3_reduce"
  type: "Convolution"
  bottom: "inception_4d/output"
  top: "inception_4e/3x3_reduce"
  param {
    lr_mult: 1
    decay_mult: 1
  }
  param {
    lr_mult: 2
    decay_mult: 0
  }
  convolution_param {
    num_output: 160
    kernel_size: 1
    weight_filler {
      type: "xavier"
      std: 0.09
    }
    bias_filler {
      type: "constant"
      value: 0.2
    }
  }
}
layer {
  name: "inception_4e/relu_3x3_reduce"
  type: "ReLU"
  bottom: "inception_4e/3x3_reduce"
  top: "inception_4e/3x3_reduce"
}
layer {
  name: "inception_4e/3x3"
  type: "Convolution"
  bottom: "inception_4e/3x3_reduce"
  top: "inception_4e/3x3"
  param {
    lr_mult: 1
    decay_mult: 1
  }
  param {
    lr_mult: 2
    decay_mult: 0
  }
  convolution_param {
    num_output: 320
    pad: 1
    kernel_size: 3
    weight_filler {
      type: "xavier"
      std: 0.03
    }
    bias_filler {
      type: "constant"
      value: 0.2
    }
  }
}
layer {
  name: "inception_4e/relu_3x3"
  type: "ReLU"
  bottom: "inception_4e/3x3"
  top: "inception_4e/3x3"
}
layer {
  name: "inception_4e/5x5_reduce"
  type: "Convolution"
  bottom: "inception_4d/output"
  top: "inception_4e/5x5_reduce"
  param {
    lr_mult: 1
    decay_mult: 1
  }
  param {
    lr_mult: 2
    decay_mult: 0
  }
  convolution_param {
    num_output: 32
    kernel_size: 1
    weight_filler {
      type: "xavier"
      std: 0.2
    }
    bias_filler {
      type: "constant"
      value: 0.2
    }
  }
}
layer {
  name: "inception_4e/relu_5x5_reduce"
  type: "ReLU"
  bottom: "inception_4e/5x5_reduce"
  top: "inception_4e/5x5_reduce"
}
layer {
  name: "inception_4e/5x5"
  type: "Convolution"
  bottom: "inception_4e/5x5_reduce"
  top: "inception_4e/
I0403 18:33:55.105886  7120 layer_factory.hpp:77] Creating layer data
I0403 18:33:55.106632  7120 net.cpp:91] Creating Layer data
I0403 18:33:55.106672  7120 net.cpp:399] data -> data
I0403 18:33:55.106737  7120 net.cpp:399] data -> label
I0403 18:33:55.106783  7120 data_transformer.cpp:25] Loading mean file from: /home/mohanty/data/final_dataset/lmdb/segmented-50-50/mean.binaryproto
I0403 18:33:55.108021  7123 db_lmdb.cpp:38] Opened lmdb /home/mohanty/data/final_dataset/lmdb/segmented-50-50/test_db
I0403 18:33:55.122396  7120 data_layer.cpp:41] output data size: 24,3,224,224
I0403 18:33:55.155527  7120 net.cpp:141] Setting up data
I0403 18:33:55.155647  7120 net.cpp:148] Top shape: 24 3 224 224 (3612672)
I0403 18:33:55.155676  7120 net.cpp:148] Top shape: 24 (24)
I0403 18:33:55.155696  7120 net.cpp:156] Memory required for data: 14450784
I0403 18:33:55.155730  7120 layer_factory.hpp:77] Creating layer label_data_1_split
I0403 18:33:55.155762  7120 net.cpp:91] Creating Layer label_data_1_split
I0403 18:33:55.155784  7120 net.cpp:425] label_data_1_split <- label
I0403 18:33:55.155823  7120 net.cpp:399] label_data_1_split -> label_data_1_split_0
I0403 18:33:55.155858  7120 net.cpp:399] label_data_1_split -> label_data_1_split_1
I0403 18:33:55.155884  7120 net.cpp:399] label_data_1_split -> label_data_1_split_2
I0403 18:33:55.155910  7120 net.cpp:399] label_data_1_split -> label_data_1_split_3
I0403 18:33:55.155933  7120 net.cpp:399] label_data_1_split -> label_data_1_split_4
I0403 18:33:55.155959  7120 net.cpp:399] label_data_1_split -> label_data_1_split_5
I0403 18:33:55.155985  7120 net.cpp:399] label_data_1_split -> label_data_1_split_6
I0403 18:33:55.156013  7120 net.cpp:399] label_data_1_split -> label_data_1_split_7
I0403 18:33:55.156038  7120 net.cpp:399] label_data_1_split -> label_data_1_split_8
I0403 18:33:55.156062  7120 net.cpp:399] label_data_1_split -> label_data_1_split_9
I0403 18:33:55.156200  7120 net.cpp:141] Setting up label_data_1_split
I0403 18:33:55.156237  7120 net.cpp:148] Top shape: 24 (24)
I0403 18:33:55.156260  7120 net.cpp:148] Top shape: 24 (24)
I0403 18:33:55.156280  7120 net.cpp:148] Top shape: 24 (24)
I0403 18:33:55.156301  7120 net.cpp:148] Top shape: 24 (24)
I0403 18:33:55.156321  7120 net.cpp:148] Top shape: 24 (24)
I0403 18:33:55.156340  7120 net.cpp:148] Top shape: 24 (24)
I0403 18:33:55.156359  7120 net.cpp:148] Top shape: 24 (24)
I0403 18:33:55.156379  7120 net.cpp:148] Top shape: 24 (24)
I0403 18:33:55.156399  7120 net.cpp:148] Top shape: 24 (24)
I0403 18:33:55.156421  7120 net.cpp:148] Top shape: 24 (24)
I0403 18:33:55.156468  7120 net.cpp:156] Memory required for data: 14451744
I0403 18:33:55.156489  7120 layer_factory.hpp:77] Creating layer conv1/7x7_s2
I0403 18:33:55.156532  7120 net.cpp:91] Creating Layer conv1/7x7_s2
I0403 18:33:55.156556  7120 net.cpp:425] conv1/7x7_s2 <- data
I0403 18:33:55.156580  7120 net.cpp:399] conv1/7x7_s2 -> conv1/7x7_s2
I0403 18:33:55.326809  7120 net.cpp:141] Setting up conv1/7x7_s2
I0403 18:33:55.326927  7120 net.cpp:148] Top shape: 24 64 112 112 (19267584)
I0403 18:33:55.326949  7120 net.cpp:156] Memory required for data: 91522080
I0403 18:33:55.326987  7120 layer_factory.hpp:77] Creating layer conv1/relu_7x7
I0403 18:33:55.327024  7120 net.cpp:91] Creating Layer conv1/relu_7x7
I0403 18:33:55.327049  7120 net.cpp:425] conv1/relu_7x7 <- conv1/7x7_s2
I0403 18:33:55.327072  7120 net.cpp:386] conv1/relu_7x7 -> conv1/7x7_s2 (in-place)
I0403 18:33:55.327404  7120 net.cpp:141] Setting up conv1/relu_7x7
I0403 18:33:55.327438  7120 net.cpp:148] Top shape: 24 64 112 112 (19267584)
I0403 18:33:55.327458  7120 net.cpp:156] Memory required for data: 168592416
I0403 18:33:55.327478  7120 layer_factory.hpp:77] Creating layer pool1/3x3_s2
I0403 18:33:55.327508  7120 net.cpp:91] Creating Layer pool1/3x3_s2
I0403 18:33:55.327530  7120 net.cpp:425] pool1/3x3_s2 <- conv1/7x7_s2
I0403 18:33:55.327558  7120 net.cpp:399] pool1/3x3_s2 -> pool1/3x3_s2
I0403 18:33:55.327648  7120 net.cpp:141] Setting up pool1/3x3_s2
I0403 18:33:55.327678  7120 net.cpp:148] Top shape: 24 64 56 56 (4816896)
I0403 18:33:55.327697  7120 net.cpp:156] Memory required for data: 187860000
I0403 18:33:55.327716  7120 layer_factory.hpp:77] Creating layer pool1/norm1
I0403 18:33:55.327749  7120 net.cpp:91] Creating Layer pool1/norm1
I0403 18:33:55.327770  7120 net.cpp:425] pool1/norm1 <- pool1/3x3_s2
I0403 18:33:55.327793  7120 net.cpp:399] pool1/norm1 -> pool1/norm1
I0403 18:33:55.328153  7120 net.cpp:141] Setting up pool1/norm1
I0403 18:33:55.328189  7120 net.cpp:148] Top shape: 24 64 56 56 (4816896)
I0403 18:33:55.328215  7120 net.cpp:156] Memory required for data: 207127584
I0403 18:33:55.328238  7120 layer_factory.hpp:77] Creating layer conv2/3x3_reduce
I0403 18:33:55.328269  7120 net.cpp:91] Creating Layer conv2/3x3_reduce
I0403 18:33:55.328290  7120 net.cpp:425] conv2/3x3_reduce <- pool1/norm1
I0403 18:33:55.328315  7120 net.cpp:399] conv2/3x3_reduce -> conv2/3x3_reduce
I0403 18:33:55.330024  7120 net.cpp:141] Setting up conv2/3x3_reduce
I0403 18:33:55.330061  7120 net.cpp:148] Top shape: 24 64 56 56 (4816896)
I0403 18:33:55.330082  7120 net.cpp:156] Memory required for data: 226395168
I0403 18:33:55.330111  7120 layer_factory.hpp:77] Creating layer conv2/relu_3x3_reduce
I0403 18:33:55.330137  7120 net.cpp:91] Creating Layer conv2/relu_3x3_reduce
I0403 18:33:55.330159  7120 net.cpp:425] conv2/relu_3x3_reduce <- conv2/3x3_reduce
I0403 18:33:55.330181  7120 net.cpp:386] conv2/relu_3x3_reduce -> conv2/3x3_reduce (in-place)
I0403 18:33:55.330508  7120 net.cpp:141] Setting up conv2/relu_3x3_reduce
I0403 18:33:55.330541  7120 net.cpp:148] Top shape: 24 64 56 56 (4816896)
I0403 18:33:55.330560  7120 net.cpp:156] Memory required for data: 245662752
I0403 18:33:55.330580  7120 layer_factory.hpp:77] Creating layer conv2/3x3
I0403 18:33:55.330611  7120 net.cpp:91] Creating Layer conv2/3x3
I0403 18:33:55.330634  7120 net.cpp:425] conv2/3x3 <- conv2/3x3_reduce
I0403 18:33:55.330662  7120 net.cpp:399] conv2/3x3 -> conv2/3x3
I0403 18:33:55.333472  7120 net.cpp:141] Setting up conv2/3x3
I0403 18:33:55.333511  7120 net.cpp:148] Top shape: 24 192 56 56 (14450688)
I0403 18:33:55.333533  7120 net.cpp:156] Memory required for data: 303465504
I0403 18:33:55.333559  7120 layer_factory.hpp:77] Creating layer conv2/relu_3x3
I0403 18:33:55.333588  7120 net.cpp:91] Creating Layer conv2/relu_3x3
I0403 18:33:55.333611  7120 net.cpp:425] conv2/relu_3x3 <- conv2/3x3
I0403 18:33:55.333636  7120 net.cpp:386] conv2/relu_3x3 -> conv2/3x3 (in-place)
I0403 18:33:55.333847  7120 net.cpp:141] Setting up conv2/relu_3x3
I0403 18:33:55.333884  7120 net.cpp:148] Top shape: 24 192 56 56 (14450688)
I0403 18:33:55.333940  7120 net.cpp:156] Memory required for data: 361268256
I0403 18:33:55.333959  7120 layer_factory.hpp:77] Creating layer conv2/norm2
I0403 18:33:55.333983  7120 net.cpp:91] Creating Layer conv2/norm2
I0403 18:33:55.334002  7120 net.cpp:425] conv2/norm2 <- conv2/3x3
I0403 18:33:55.334028  7120 net.cpp:399] conv2/norm2 -> conv2/norm2
I0403 18:33:55.334396  7120 net.cpp:141] Setting up conv2/norm2
I0403 18:33:55.334429  7120 net.cpp:148] Top shape: 24 192 56 56 (14450688)
I0403 18:33:55.334447  7120 net.cpp:156] Memory required for data: 419071008
I0403 18:33:55.334467  7120 layer_factory.hpp:77] Creating layer pool2/3x3_s2
I0403 18:33:55.334491  7120 net.cpp:91] Creating Layer pool2/3x3_s2
I0403 18:33:55.334509  7120 net.cpp:425] pool2/3x3_s2 <- conv2/norm2
I0403 18:33:55.334533  7120 net.cpp:399] pool2/3x3_s2 -> pool2/3x3_s2
I0403 18:33:55.334599  7120 net.cpp:141] Setting up pool2/3x3_s2
I0403 18:33:55.334626  7120 net.cpp:148] Top shape: 24 192 28 28 (3612672)
I0403 18:33:55.334645  7120 net.cpp:156] Memory required for data: 433521696
I0403 18:33:55.334663  7120 layer_factory.hpp:77] Creating layer pool2/3x3_s2_pool2/3x3_s2_0_split
I0403 18:33:55.334689  7120 net.cpp:91] Creating Layer pool2/3x3_s2_pool2/3x3_s2_0_split
I0403 18:33:55.334710  7120 net.cpp:425] pool2/3x3_s2_pool2/3x3_s2_0_split <- pool2/3x3_s2
I0403 18:33:55.334735  7120 net.cpp:399] pool2/3x3_s2_pool2/3x3_s2_0_split -> pool2/3x3_s2_pool2/3x3_s2_0_split_0
I0403 18:33:55.334759  7120 net.cpp:399] pool2/3x3_s2_pool2/3x3_s2_0_split -> pool2/3x3_s2_pool2/3x3_s2_0_split_1
I0403 18:33:55.334784  7120 net.cpp:399] pool2/3x3_s2_pool2/3x3_s2_0_split -> pool2/3x3_s2_pool2/3x3_s2_0_split_2
I0403 18:33:55.334808  7120 net.cpp:399] pool2/3x3_s2_pool2/3x3_s2_0_split -> pool2/3x3_s2_pool2/3x3_s2_0_split_3
I0403 18:33:55.334892  7120 net.cpp:141] Setting up pool2/3x3_s2_pool2/3x3_s2_0_split
I0403 18:33:55.334923  7120 net.cpp:148] Top shape: 24 192 28 28 (3612672)
I0403 18:33:55.334944  7120 net.cpp:148] Top shape: 24 192 28 28 (3612672)
I0403 18:33:55.334962  7120 net.cpp:148] Top shape: 24 192 28 28 (3612672)
I0403 18:33:55.334982  7120 net.cpp:148] Top shape: 24 192 28 28 (3612672)
I0403 18:33:55.335000  7120 net.cpp:156] Memory required for data: 491324448
I0403 18:33:55.335019  7120 layer_factory.hpp:77] Creating layer inception_3a/1x1
I0403 18:33:55.335046  7120 net.cpp:91] Creating Layer inception_3a/1x1
I0403 18:33:55.335065  7120 net.cpp:425] inception_3a/1x1 <- pool2/3x3_s2_pool2/3x3_s2_0_split_0
I0403 18:33:55.335091  7120 net.cpp:399] inception_3a/1x1 -> inception_3a/1x1
I0403 18:33:55.336959  7120 net.cpp:141] Setting up inception_3a/1x1
I0403 18:33:55.336997  7120 net.cpp:148] Top shape: 24 64 28 28 (1204224)
I0403 18:33:55.337018  7120 net.cpp:156] Memory required for data: 496141344
I0403 18:33:55.337040  7120 layer_factory.hpp:77] Creating layer inception_3a/relu_1x1
I0403 18:33:55.337066  7120 net.cpp:91] Creating Layer inception_3a/relu_1x1
I0403 18:33:55.337087  7120 net.cpp:425] inception_3a/relu_1x1 <- inception_3a/1x1
I0403 18:33:55.337110  7120 net.cpp:386] inception_3a/relu_1x1 -> inception_3a/1x1 (in-place)
I0403 18:33:55.337333  7120 net.cpp:141] Setting up inception_3a/relu_1x1
I0403 18:33:55.337364  7120 net.cpp:148] Top shape: 24 64 28 28 (1204224)
I0403 18:33:55.337384  7120 net.cpp:156] Memory required for data: 500958240
I0403 18:33:55.337404  7120 layer_factory.hpp:77] Creating layer inception_3a/3x3_reduce
I0403 18:33:55.337432  7120 net.cpp:91] Creating Layer inception_3a/3x3_reduce
I0403 18:33:55.337455  7120 net.cpp:425] inception_3a/3x3_reduce <- pool2/3x3_s2_pool2/3x3_s2_0_split_1
I0403 18:33:55.337477  7120 net.cpp:399] inception_3a/3x3_reduce -> inception_3a/3x3_reduce
I0403 18:33:55.339506  7120 net.cpp:141] Setting up inception_3a/3x3_reduce
I0403 18:33:55.339542  7120 net.cpp:148] Top shape: 24 96 28 28 (1806336)
I0403 18:33:55.339562  7120 net.cpp:156] Memory required for data: 508183584
I0403 18:33:55.339589  7120 layer_factory.hpp:77] Creating layer inception_3a/relu_3x3_reduce
I0403 18:33:55.339634  7120 net.cpp:91] Creating Layer inception_3a/relu_3x3_reduce
I0403 18:33:55.339658  7120 net.cpp:425] inception_3a/relu_3x3_reduce <- inception_3a/3x3_reduce
I0403 18:33:55.339679  7120 net.cpp:386] inception_3a/relu_3x3_reduce -> inception_3a/3x3_reduce (in-place)
I0403 18:33:55.339902  7120 net.cpp:141] Setting up inception_3a/relu_3x3_reduce
I0403 18:33:55.339934  7120 net.cpp:148] Top shape: 24 96 28 28 (1806336)
I0403 18:33:55.339951  7120 net.cpp:156] Memory required for data: 515408928
I0403 18:33:55.339970  7120 layer_factory.hpp:77] Creating layer inception_3a/3x3
I0403 18:33:55.339998  7120 net.cpp:91] Creating Layer inception_3a/3x3
I0403 18:33:55.340020  7120 net.cpp:425] inception_3a/3x3 <- inception_3a/3x3_reduce
I0403 18:33:55.340049  7120 net.cpp:399] inception_3a/3x3 -> inception_3a/3x3
I0403 18:33:55.342043  7120 net.cpp:141] Setting up inception_3a/3x3
I0403 18:33:55.342080  7120 net.cpp:148] Top shape: 24 128 28 28 (2408448)
I0403 18:33:55.342102  7120 net.cpp:156] Memory required for data: 525042720
I0403 18:33:55.342125  7120 layer_factory.hpp:77] Creating layer inception_3a/relu_3x3
I0403 18:33:55.342154  7120 net.cpp:91] Creating Layer inception_3a/relu_3x3
I0403 18:33:55.342175  7120 net.cpp:425] inception_3a/relu_3x3 <- inception_3a/3x3
I0403 18:33:55.342197  7120 net.cpp:386] inception_3a/relu_3x3 -> inception_3a/3x3 (in-place)
I0403 18:33:55.342540  7120 net.cpp:141] Setting up inception_3a/relu_3x3
I0403 18:33:55.342576  7120 net.cpp:148] Top shape: 24 128 28 28 (2408448)
I0403 18:33:55.342595  7120 net.cpp:156] Memory required for data: 534676512
I0403 18:33:55.342614  7120 layer_factory.hpp:77] Creating layer inception_3a/5x5_reduce
I0403 18:33:55.342643  7120 net.cpp:91] Creating Layer inception_3a/5x5_reduce
I0403 18:33:55.342666  7120 net.cpp:425] inception_3a/5x5_reduce <- pool2/3x3_s2_pool2/3x3_s2_0_split_2
I0403 18:33:55.342692  7120 net.cpp:399] inception_3a/5x5_reduce -> inception_3a/5x5_reduce
I0403 18:33:55.343858  7120 net.cpp:141] Setting up inception_3a/5x5_reduce
I0403 18:33:55.343896  7120 net.cpp:148] Top shape: 24 16 28 28 (301056)
I0403 18:33:55.343917  7120 net.cpp:156] Memory required for data: 535880736
I0403 18:33:55.343941  7120 layer_factory.hpp:77] Creating layer inception_3a/relu_5x5_reduce
I0403 18:33:55.343966  7120 net.cpp:91] Creating Layer inception_3a/relu_5x5_reduce
I0403 18:33:55.343987  7120 net.cpp:425] inception_3a/relu_5x5_reduce <- inception_3a/5x5_reduce
I0403 18:33:55.344010  7120 net.cpp:386] inception_3a/relu_5x5_reduce -> inception_3a/5x5_reduce (in-place)
I0403 18:33:55.344355  7120 net.cpp:141] Setting up inception_3a/relu_5x5_reduce
I0403 18:33:55.344393  7120 net.cpp:148] Top shape: 24 16 28 28 (301056)
I0403 18:33:55.344411  7120 net.cpp:156] Memory required for data: 537084960
I0403 18:33:55.344430  7120 layer_factory.hpp:77] Creating layer inception_3a/5x5
I0403 18:33:55.344458  7120 net.cpp:91] Creating Layer inception_3a/5x5
I0403 18:33:55.344480  7120 net.cpp:425] inception_3a/5x5 <- inception_3a/5x5_reduce
I0403 18:33:55.344506  7120 net.cpp:399] inception_3a/5x5 -> inception_3a/5x5
I0403 18:33:55.345731  7120 net.cpp:141] Setting up inception_3a/5x5
I0403 18:33:55.345768  7120 net.cpp:148] Top shape: 24 32 28 28 (602112)
I0403 18:33:55.345788  7120 net.cpp:156] Memory required for data: 539493408
I0403 18:33:55.345811  7120 layer_factory.hpp:77] Creating layer inception_3a/relu_5x5
I0403 18:33:55.345837  7120 net.cpp:91] Creating Layer inception_3a/relu_5x5
I0403 18:33:55.345859  7120 net.cpp:425] inception_3a/relu_5x5 <- inception_3a/5x5
I0403 18:33:55.345881  7120 net.cpp:386] inception_3a/relu_5x5 -> inception_3a/5x5 (in-place)
I0403 18:33:55.346092  7120 net.cpp:141] Setting up inception_3a/relu_5x5
I0403 18:33:55.346127  7120 net.cpp:148] Top shape: 24 32 28 28 (602112)
I0403 18:33:55.346145  7120 net.cpp:156] Memory required for data: 541901856
I0403 18:33:55.346164  7120 layer_factory.hpp:77] Creating layer inception_3a/pool
I0403 18:33:55.346186  7120 net.cpp:91] Creating Layer inception_3a/pool
I0403 18:33:55.346232  7120 net.cpp:425] inception_3a/pool <- pool2/3x3_s2_pool2/3x3_s2_0_split_3
I0403 18:33:55.346261  7120 net.cpp:399] inception_3a/pool -> inception_3a/pool
I0403 18:33:55.346333  7120 net.cpp:141] Setting up inception_3a/pool
I0403 18:33:55.346361  7120 net.cpp:148] Top shape: 24 192 28 28 (3612672)
I0403 18:33:55.346379  7120 net.cpp:156] Memory required for data: 556352544
I0403 18:33:55.346397  7120 layer_factory.hpp:77] Creating layer inception_3a/pool_proj
I0403 18:33:55.346424  7120 net.cpp:91] Creating Layer inception_3a/pool_proj
I0403 18:33:55.346447  7120 net.cpp:425] inception_3a/pool_proj <- inception_3a/pool
I0403 18:33:55.346474  7120 net.cpp:399] inception_3a/pool_proj -> inception_3a/pool_proj
I0403 18:33:55.347652  7120 net.cpp:141] Setting up inception_3a/pool_proj
I0403 18:33:55.347689  7120 net.cpp:148] Top shape: 24 32 28 28 (602112)
I0403 18:33:55.347710  7120 net.cpp:156] Memory required for data: 558760992
I0403 18:33:55.347741  7120 layer_factory.hpp:77] Creating layer inception_3a/relu_pool_proj
I0403 18:33:55.347767  7120 net.cpp:91] Creating Layer inception_3a/relu_pool_proj
I0403 18:33:55.347790  7120 net.cpp:425] inception_3a/relu_pool_proj <- inception_3a/pool_proj
I0403 18:33:55.347812  7120 net.cpp:386] inception_3a/relu_pool_proj -> inception_3a/pool_proj (in-place)
I0403 18:33:55.348134  7120 net.cpp:141] Setting up inception_3a/relu_pool_proj
I0403 18:33:55.348167  7120 net.cpp:148] Top shape: 24 32 28 28 (602112)
I0403 18:33:55.348187  7120 net.cpp:156] Memory required for data: 561169440
I0403 18:33:55.348207  7120 layer_factory.hpp:77] Creating layer inception_3a/output
I0403 18:33:55.348242  7120 net.cpp:91] Creating Layer inception_3a/output
I0403 18:33:55.348266  7120 net.cpp:425] inception_3a/output <- inception_3a/1x1
I0403 18:33:55.348289  7120 net.cpp:425] inception_3a/output <- inception_3a/3x3
I0403 18:33:55.348309  7120 net.cpp:425] inception_3a/output <- inception_3a/5x5
I0403 18:33:55.348330  7120 net.cpp:425] inception_3a/output <- inception_3a/pool_proj
I0403 18:33:55.348351  7120 net.cpp:399] inception_3a/output -> inception_3a/output
I0403 18:33:55.348410  7120 net.cpp:141] Setting up inception_3a/output
I0403 18:33:55.348439  7120 net.cpp:148] Top shape: 24 256 28 28 (4816896)
I0403 18:33:55.348458  7120 net.cpp:156] Memory required for data: 580437024
I0403 18:33:55.348477  7120 layer_factory.hpp:77] Creating layer inception_3a/output_inception_3a/output_0_split
I0403 18:33:55.348500  7120 net.cpp:91] Creating Layer inception_3a/output_inception_3a/output_0_split
I0403 18:33:55.348520  7120 net.cpp:425] inception_3a/output_inception_3a/output_0_split <- inception_3a/output
I0403 18:33:55.348544  7120 net.cpp:399] inception_3a/output_inception_3a/output_0_split -> inception_3a/output_inception_3a/output_0_split_0
I0403 18:33:55.348570  7120 net.cpp:399] inception_3a/output_inception_3a/output_0_split -> inception_3a/output_inception_3a/output_0_split_1
I0403 18:33:55.348598  7120 net.cpp:399] inception_3a/output_inception_3a/output_0_split -> inception_3a/output_inception_3a/output_0_split_2
I0403 18:33:55.348626  7120 net.cpp:399] inception_3a/output_inception_3a/output_0_split -> inception_3a/output_inception_3a/output_0_split_3
I0403 18:33:55.348721  7120 net.cpp:141] Setting up inception_3a/output_inception_3a/output_0_split
I0403 18:33:55.348749  7120 net.cpp:148] Top shape: 24 256 28 28 (4816896)
I0403 18:33:55.348770  7120 net.cpp:148] Top shape: 24 256 28 28 (4816896)
I0403 18:33:55.348789  7120 net.cpp:148] Top shape: 24 256 28 28 (4816896)
I0403 18:33:55.348809  7120 net.cpp:148] Top shape: 24 256 28 28 (4816896)
I0403 18:33:55.348827  7120 net.cpp:156] Memory required for data: 657507360
I0403 18:33:55.348845  7120 layer_factory.hpp:77] Creating layer inception_3b/1x1
I0403 18:33:55.348872  7120 net.cpp:91] Creating Layer inception_3b/1x1
I0403 18:33:55.348896  7120 net.cpp:425] inception_3b/1x1 <- inception_3a/output_inception_3a/output_0_split_0
I0403 18:33:55.348922  7120 net.cpp:399] inception_3b/1x1 -> inception_3b/1x1
I0403 18:33:55.350296  7120 net.cpp:141] Setting up inception_3b/1x1
I0403 18:33:55.350345  7120 net.cpp:148] Top shape: 24 128 28 28 (2408448)
I0403 18:33:55.350368  7120 net.cpp:156] Memory required for data: 667141152
I0403 18:33:55.350391  7120 layer_factory.hpp:77] Creating layer inception_3b/relu_1x1
I0403 18:33:55.350414  7120 net.cpp:91] Creating Layer inception_3b/relu_1x1
I0403 18:33:55.350437  7120 net.cpp:425] inception_3b/relu_1x1 <- inception_3b/1x1
I0403 18:33:55.350463  7120 net.cpp:386] inception_3b/relu_1x1 -> inception_3b/1x1 (in-place)
I0403 18:33:55.350682  7120 net.cpp:141] Setting up inception_3b/relu_1x1
I0403 18:33:55.350715  7120 net.cpp:148] Top shape: 24 128 28 28 (2408448)
I0403 18:33:55.350736  7120 net.cpp:156] Memory required for data: 676774944
I0403 18:33:55.350757  7120 layer_factory.hpp:77] Creating layer inception_3b/3x3_reduce
I0403 18:33:55.350786  7120 net.cpp:91] Creating Layer inception_3b/3x3_reduce
I0403 18:33:55.350808  7120 net.cpp:425] inception_3b/3x3_reduce <- inception_3a/output_inception_3a/output_0_split_1
I0403 18:33:55.350834  7120 net.cpp:399] inception_3b/3x3_reduce -> inception_3b/3x3_reduce
I0403 18:33:55.352221  7120 net.cpp:141] Setting up inception_3b/3x3_reduce
I0403 18:33:55.352259  7120 net.cpp:148] Top shape: 24 128 28 28 (2408448)
I0403 18:33:55.352284  7120 net.cpp:156] Memory required for data: 686408736
I0403 18:33:55.352308  7120 layer_factory.hpp:77] Creating layer inception_3b/relu_3x3_reduce
I0403 18:33:55.352334  7120 net.cpp:91] Creating Layer inception_3b/relu_3x3_reduce
I0403 18:33:55.352355  7120 net.cpp:425] inception_3b/relu_3x3_reduce <- inception_3b/3x3_reduce
I0403 18:33:55.352376  7120 net.cpp:386] inception_3b/relu_3x3_reduce -> inception_3b/3x3_reduce (in-place)
I0403 18:33:55.352583  7120 net.cpp:141] Setting up inception_3b/relu_3x3_reduce
I0403 18:33:55.352614  7120 net.cpp:148] Top shape: 24 128 28 28 (2408448)
I0403 18:33:55.352632  7120 net.cpp:156] Memory required for data: 696042528
I0403 18:33:55.352650  7120 layer_factory.hpp:77] Creating layer inception_3b/3x3
I0403 18:33:55.352681  7120 net.cpp:91] Creating Layer inception_3b/3x3
I0403 18:33:55.352705  7120 net.cpp:425] inception_3b/3x3 <- inception_3b/3x3_reduce
I0403 18:33:55.352728  7120 net.cpp:399] inception_3b/3x3 -> inception_3b/3x3
I0403 18:33:55.356276  7120 net.cpp:141] Setting up inception_3b/3x3
I0403 18:33:55.356310  7120 net.cpp:148] Top shape: 24 192 28 28 (3612672)
I0403 18:33:55.356331  7120 net.cpp:156] Memory required for data: 710493216
I0403 18:33:55.356355  7120 layer_factory.hpp:77] Creating layer inception_3b/relu_3x3
I0403 18:33:55.356380  7120 net.cpp:91] Creating Layer inception_3b/relu_3x3
I0403 18:33:55.356401  7120 net.cpp:425] inception_3b/relu_3x3 <- inception_3b/3x3
I0403 18:33:55.356422  7120 net.cpp:386] inception_3b/relu_3x3 -> inception_3b/3x3 (in-place)
I0403 18:33:55.356753  7120 net.cpp:141] Setting up inception_3b/relu_3x3
I0403 18:33:55.356787  7120 net.cpp:148] Top shape: 24 192 28 28 (3612672)
I0403 18:33:55.356806  7120 net.cpp:156] Memory required for data: 724943904
I0403 18:33:55.356824  7120 layer_factory.hpp:77] Creating layer inception_3b/5x5_reduce
I0403 18:33:55.356853  7120 net.cpp:91] Creating Layer inception_3b/5x5_reduce
I0403 18:33:55.356875  7120 net.cpp:425] inception_3b/5x5_reduce <- inception_3a/output_inception_3a/output_0_split_2
I0403 18:33:55.356904  7120 net.cpp:399] inception_3b/5x5_reduce -> inception_3b/5x5_reduce
I0403 18:33:55.358094  7120 net.cpp:141] Setting up inception_3b/5x5_reduce
I0403 18:33:55.358129  7120 net.cpp:148] Top shape: 24 32 28 28 (602112)
I0403 18:33:55.358149  7120 net.cpp:156] Memory required for data: 727352352
I0403 18:33:55.358172  7120 layer_factory.hpp:77] Creating layer inception_3b/relu_5x5_reduce
I0403 18:33:55.358198  7120 net.cpp:91] Creating Layer inception_3b/relu_5x5_reduce
I0403 18:33:55.358227  7120 net.cpp:425] inception_3b/relu_5x5_reduce <- inception_3b/5x5_reduce
I0403 18:33:55.358249  7120 net.cpp:386] inception_3b/relu_5x5_reduce -> inception_3b/5x5_reduce (in-place)
I0403 18:33:55.358482  7120 net.cpp:141] Setting up inception_3b/relu_5x5_reduce
I0403 18:33:55.358516  7120 net.cpp:148] Top shape: 24 32 28 28 (602112)
I0403 18:33:55.358536  7120 net.cpp:156] Memory required for data: 729760800
I0403 18:33:55.358556  7120 layer_factory.hpp:77] Creating layer inception_3b/5x5
I0403 18:33:55.358583  7120 net.cpp:91] Creating Layer inception_3b/5x5
I0403 18:33:55.358606  7120 net.cpp:425] inception_3b/5x5 <- inception_3b/5x5_reduce
I0403 18:33:55.358644  7120 net.cpp:399] inception_3b/5x5 -> inception_3b/5x5
I0403 18:33:55.361035  7120 net.cpp:141] Setting up inception_3b/5x5
I0403 18:33:55.361071  7120 net.cpp:148] Top shape: 24 96 28 28 (1806336)
I0403 18:33:55.361090  7120 net.cpp:156] Memory required for data: 736986144
I0403 18:33:55.361117  7120 layer_factory.hpp:77] Creating layer inception_3b/relu_5x5
I0403 18:33:55.361145  7120 net.cpp:91] Creating Layer inception_3b/relu_5x5
I0403 18:33:55.361166  7120 net.cpp:425] inception_3b/relu_5x5 <- inception_3b/5x5
I0403 18:33:55.361187  7120 net.cpp:386] inception_3b/relu_5x5 -> inception_3b/5x5 (in-place)
I0403 18:33:55.361426  7120 net.cpp:141] Setting up inception_3b/relu_5x5
I0403 18:33:55.361459  7120 net.cpp:148] Top shape: 24 96 28 28 (1806336)
I0403 18:33:55.361477  7120 net.cpp:156] Memory required for data: 744211488
I0403 18:33:55.361495  7120 layer_factory.hpp:77] Creating layer inception_3b/pool
I0403 18:33:55.361518  7120 net.cpp:91] Creating Layer inception_3b/pool
I0403 18:33:55.361537  7120 net.cpp:425] inception_3b/pool <- inception_3a/output_inception_3a/output_0_split_3
I0403 18:33:55.361559  7120 net.cpp:399] inception_3b/pool -> inception_3b/pool
I0403 18:33:55.361627  7120 net.cpp:141] Setting up inception_3b/pool
I0403 18:33:55.361657  7120 net.cpp:148] Top shape: 24 256 28 28 (4816896)
I0403 18:33:55.361675  7120 net.cpp:156] Memory required for data: 763479072
I0403 18:33:55.361693  7120 layer_factory.hpp:77] Creating layer inception_3b/pool_proj
I0403 18:33:55.361722  7120 net.cpp:91] Creating Layer inception_3b/pool_proj
I0403 18:33:55.361744  7120 net.cpp:425] inception_3b/pool_proj <- inception_3b/pool
I0403 18:33:55.361771  7120 net.cpp:399] inception_3b/pool_proj -> inception_3b/pool_proj
I0403 18:33:55.363050  7120 net.cpp:141] Setting up inception_3b/pool_proj
I0403 18:33:55.363087  7120 net.cpp:148] Top shape: 24 64 28 28 (1204224)
I0403 18:33:55.363108  7120 net.cpp:156] Memory required for data: 768295968
I0403 18:33:55.363132  7120 layer_factory.hpp:77] Creating layer inception_3b/relu_pool_proj
I0403 18:33:55.363157  7120 net.cpp:91] Creating Layer inception_3b/relu_pool_proj
I0403 18:33:55.363178  7120 net.cpp:425] inception_3b/relu_pool_proj <- inception_3b/pool_proj
I0403 18:33:55.363201  7120 net.cpp:386] inception_3b/relu_pool_proj -> inception_3b/pool_proj (in-place)
I0403 18:33:55.363670  7120 net.cpp:141] Setting up inception_3b/relu_pool_proj
I0403 18:33:55.363705  7120 net.cpp:148] Top shape: 24 64 28 28 (1204224)
I0403 18:33:55.363725  7120 net.cpp:156] Memory required for data: 773112864
I0403 18:33:55.363744  7120 layer_factory.hpp:77] Creating layer inception_3b/output
I0403 18:33:55.363765  7120 net.cpp:91] Creating Layer inception_3b/output
I0403 18:33:55.363785  7120 net.cpp:425] inception_3b/output <- inception_3b/1x1
I0403 18:33:55.363806  7120 net.cpp:425] inception_3b/output <- inception_3b/3x3
I0403 18:33:55.363827  7120 net.cpp:425] inception_3b/output <- inception_3b/5x5
I0403 18:33:55.363847  7120 net.cpp:425] inception_3b/output <- inception_3b/pool_proj
I0403 18:33:55.363867  7120 net.cpp:399] inception_3b/output -> inception_3b/output
I0403 18:33:55.363926  7120 net.cpp:141] Setting up inception_3b/output
I0403 18:33:55.363955  7120 net.cpp:148] Top shape: 24 480 28 28 (9031680)
I0403 18:33:55.363975  7120 net.cpp:156] Memory required for data: 809239584
I0403 18:33:55.363991  7120 layer_factory.hpp:77] Creating layer pool3/3x3_s2
I0403 18:33:55.364017  7120 net.cpp:91] Creating Layer pool3/3x3_s2
I0403 18:33:55.364037  7120 net.cpp:425] pool3/3x3_s2 <- inception_3b/output
I0403 18:33:55.364078  7120 net.cpp:399] pool3/3x3_s2 -> pool3/3x3_s2
I0403 18:33:55.364151  7120 net.cpp:141] Setting up pool3/3x3_s2
I0403 18:33:55.364181  7120 net.cpp:148] Top shape: 24 480 14 14 (2257920)
I0403 18:33:55.364199  7120 net.cpp:156] Memory required for data: 818271264
I0403 18:33:55.364225  7120 layer_factory.hpp:77] Creating layer pool3/3x3_s2_pool3/3x3_s2_0_split
I0403 18:33:55.364248  7120 net.cpp:91] Creating Layer pool3/3x3_s2_pool3/3x3_s2_0_split
I0403 18:33:55.364267  7120 net.cpp:425] pool3/3x3_s2_pool3/3x3_s2_0_split <- pool3/3x3_s2
I0403 18:33:55.364291  7120 net.cpp:399] pool3/3x3_s2_pool3/3x3_s2_0_split -> pool3/3x3_s2_pool3/3x3_s2_0_split_0
I0403 18:33:55.364316  7120 net.cpp:399] pool3/3x3_s2_pool3/3x3_s2_0_split -> pool3/3x3_s2_pool3/3x3_s2_0_split_1
I0403 18:33:55.364341  7120 net.cpp:399] pool3/3x3_s2_pool3/3x3_s2_0_split -> pool3/3x3_s2_pool3/3x3_s2_0_split_2
I0403 18:33:55.364364  7120 net.cpp:399] pool3/3x3_s2_pool3/3x3_s2_0_split -> pool3/3x3_s2_pool3/3x3_s2_0_split_3
I0403 18:33:55.364457  7120 net.cpp:141] Setting up pool3/3x3_s2_pool3/3x3_s2_0_split
I0403 18:33:55.364490  7120 net.cpp:148] Top shape: 24 480 14 14 (2257920)
I0403 18:33:55.364511  7120 net.cpp:148] Top shape: 24 480 14 14 (2257920)
I0403 18:33:55.364531  7120 net.cpp:148] Top shape: 24 480 14 14 (2257920)
I0403 18:33:55.364550  7120 net.cpp:148] Top shape: 24 480 14 14 (2257920)
I0403 18:33:55.364567  7120 net.cpp:156] Memory required for data: 854397984
I0403 18:33:55.364584  7120 layer_factory.hpp:77] Creating layer inception_4a/1x1
I0403 18:33:55.364612  7120 net.cpp:91] Creating Layer inception_4a/1x1
I0403 18:33:55.364634  7120 net.cpp:425] inception_4a/1x1 <- pool3/3x3_s2_pool3/3x3_s2_0_split_0
I0403 18:33:55.364658  7120 net.cpp:399] inception_4a/1x1 -> inception_4a/1x1
I0403 18:33:55.366549  7120 net.cpp:141] Setting up inception_4a/1x1
I0403 18:33:55.366586  7120 net.cpp:148] Top shape: 24 192 14 14 (903168)
I0403 18:33:55.366607  7120 net.cpp:156] Memory required for data: 858010656
I0403 18:33:55.366629  7120 layer_factory.hpp:77] Creating layer inception_4a/relu_1x1
I0403 18:33:55.366652  7120 net.cpp:91] Creating Layer inception_4a/relu_1x1
I0403 18:33:55.366672  7120 net.cpp:425] inception_4a/relu_1x1 <- inception_4a/1x1
I0403 18:33:55.366696  7120 net.cpp:386] inception_4a/relu_1x1 -> inception_4a/1x1 (in-place)
I0403 18:33:55.366909  7120 net.cpp:141] Setting up inception_4a/relu_1x1
I0403 18:33:55.366940  7120 net.cpp:148] Top shape: 24 192 14 14 (903168)
I0403 18:33:55.366957  7120 net.cpp:156] Memory required for data: 861623328
I0403 18:33:55.366976  7120 layer_factory.hpp:77] Creating layer inception_4a/3x3_reduce
I0403 18:33:55.367004  7120 net.cpp:91] Creating Layer inception_4a/3x3_reduce
I0403 18:33:55.367027  7120 net.cpp:425] inception_4a/3x3_reduce <- pool3/3x3_s2_pool3/3x3_s2_0_split_1
I0403 18:33:55.367053  7120 net.cpp:399] inception_4a/3x3_reduce -> inception_4a/3x3_reduce
I0403 18:33:55.368609  7120 net.cpp:141] Setting up inception_4a/3x3_reduce
I0403 18:33:55.368643  7120 net.cpp:148] Top shape: 24 96 14 14 (451584)
I0403 18:33:55.368661  7120 net.cpp:156] Memory required for data: 863429664
I0403 18:33:55.368691  7120 layer_factory.hpp:77] Creating layer inception_4a/relu_3x3_reduce
I0403 18:33:55.368719  7120 net.cpp:91] Creating Layer inception_4a/relu_3x3_reduce
I0403 18:33:55.368739  7120 net.cpp:425] inception_4a/relu_3x3_reduce <- inception_4a/3x3_reduce
I0403 18:33:55.368762  7120 net.cpp:386] inception_4a/relu_3x3_reduce -> inception_4a/3x3_reduce (in-place)
I0403 18:33:55.368985  7120 net.cpp:141] Setting up inception_4a/relu_3x3_reduce
I0403 18:33:55.369016  7120 net.cpp:148] Top shape: 24 96 14 14 (451584)
I0403 18:33:55.369035  7120 net.cpp:156] Memory required for data: 865236000
I0403 18:33:55.369052  7120 layer_factory.hpp:77] Creating layer inception_4a/3x3
I0403 18:33:55.369081  7120 net.cpp:91] Creating Layer inception_4a/3x3
I0403 18:33:55.369102  7120 net.cpp:425] inception_4a/3x3 <- inception_4a/3x3_reduce
I0403 18:33:55.369128  7120 net.cpp:399] inception_4a/3x3 -> inception_4a/3x3
I0403 18:33:55.372437  7120 net.cpp:141] Setting up inception_4a/3x3
I0403 18:33:55.372474  7120 net.cpp:148] Top shape: 24 208 14 14 (978432)
I0403 18:33:55.372493  7120 net.cpp:156] Memory required for data: 869149728
I0403 18:33:55.372516  7120 layer_factory.hpp:77] Creating layer inception_4a/relu_3x3
I0403 18:33:55.372541  7120 net.cpp:91] Creating Layer inception_4a/relu_3x3
I0403 18:33:55.372561  7120 net.cpp:425] inception_4a/relu_3x3 <- inception_4a/3x3
I0403 18:33:55.372583  7120 net.cpp:386] inception_4a/relu_3x3 -> inception_4a/3x3 (in-place)
I0403 18:33:55.372915  7120 net.cpp:141] Setting up inception_4a/relu_3x3
I0403 18:33:55.372947  7120 net.cpp:148] Top shape: 24 208 14 14 (978432)
I0403 18:33:55.372967  7120 net.cpp:156] Memory required for data: 873063456
I0403 18:33:55.372985  7120 layer_factory.hpp:77] Creating layer inception_4a/5x5_reduce
I0403 18:33:55.373014  7120 net.cpp:91] Creating Layer inception_4a/5x5_reduce
I0403 18:33:55.373035  7120 net.cpp:425] inception_4a/5x5_reduce <- pool3/3x3_s2_pool3/3x3_s2_0_split_2
I0403 18:33:55.373064  7120 net.cpp:399] inception_4a/5x5_reduce -> inception_4a/5x5_reduce
I0403 18:33:55.374301  7120 net.cpp:141] Setting up inception_4a/5x5_reduce
I0403 18:33:55.374336  7120 net.cpp:148] Top shape: 24 16 14 14 (75264)
I0403 18:33:55.374354  7120 net.cpp:156] Memory required for data: 873364512
I0403 18:33:55.374377  7120 layer_factory.hpp:77] Creating layer inception_4a/relu_5x5_reduce
I0403 18:33:55.374408  7120 net.cpp:91] Creating Layer inception_4a/relu_5x5_reduce
I0403 18:33:55.374429  7120 net.cpp:425] inception_4a/relu_5x5_reduce <- inception_4a/5x5_reduce
I0403 18:33:55.374450  7120 net.cpp:386] inception_4a/relu_5x5_reduce -> inception_4a/5x5_reduce (in-place)
I0403 18:33:55.374668  7120 net.cpp:141] Setting up inception_4a/relu_5x5_reduce
I0403 18:33:55.374702  7120 net.cpp:148] Top shape: 24 16 14 14 (75264)
I0403 18:33:55.374722  7120 net.cpp:156] Memory required for data: 873665568
I0403 18:33:55.374742  7120 layer_factory.hpp:77] Creating layer inception_4a/5x5
I0403 18:33:55.374769  7120 net.cpp:91] Creating Layer inception_4a/5x5
I0403 18:33:55.374791  7120 net.cpp:425] inception_4a/5x5 <- inception_4a/5x5_reduce
I0403 18:33:55.374815  7120 net.cpp:399] inception_4a/5x5 -> inception_4a/5x5
I0403 18:33:55.376135  7120 net.cpp:141] Setting up inception_4a/5x5
I0403 18:33:55.376173  7120 net.cpp:148] Top shape: 24 48 14 14 (225792)
I0403 18:33:55.376194  7120 net.cpp:156] Memory required for data: 874568736
I0403 18:33:55.376224  7120 layer_factory.hpp:77] Creating layer inception_4a/relu_5x5
I0403 18:33:55.376250  7120 net.cpp:91] Creating Layer inception_4a/relu_5x5
I0403 18:33:55.376269  7120 net.cpp:425] inception_4a/relu_5x5 <- inception_4a/5x5
I0403 18:33:55.376291  7120 net.cpp:386] inception_4a/relu_5x5 -> inception_4a/5x5 (in-place)
I0403 18:33:55.376508  7120 net.cpp:141] Setting up inception_4a/relu_5x5
I0403 18:33:55.376540  7120 net.cpp:148] Top shape: 24 48 14 14 (225792)
I0403 18:33:55.376559  7120 net.cpp:156] Memory required for data: 875471904
I0403 18:33:55.376576  7120 layer_factory.hpp:77] Creating layer inception_4a/pool
I0403 18:33:55.376600  7120 net.cpp:91] Creating Layer inception_4a/pool
I0403 18:33:55.376619  7120 net.cpp:425] inception_4a/pool <- pool3/3x3_s2_pool3/3x3_s2_0_split_3
I0403 18:33:55.376643  7120 net.cpp:399] inception_4a/pool -> inception_4a/pool
I0403 18:33:55.376720  7120 net.cpp:141] Setting up inception_4a/pool
I0403 18:33:55.376751  7120 net.cpp:148] Top shape: 24 480 14 14 (2257920)
I0403 18:33:55.376770  7120 net.cpp:156] Memory required for data: 884503584
I0403 18:33:55.376788  7120 layer_factory.hpp:77] Creating layer inception_4a/pool_proj
I0403 18:33:55.376816  7120 net.cpp:91] Creating Layer inception_4a/pool_proj
I0403 18:33:55.376838  7120 net.cpp:425] inception_4a/pool_proj <- inception_4a/pool
I0403 18:33:55.376862  7120 net.cpp:399] inception_4a/pool_proj -> inception_4a/pool_proj
I0403 18:33:55.378286  7120 net.cpp:141] Setting up inception_4a/pool_proj
I0403 18:33:55.378324  7120 net.cpp:148] Top shape: 24 64 14 14 (301056)
I0403 18:33:55.378361  7120 net.cpp:156] Memory required for data: 885707808
I0403 18:33:55.378386  7120 layer_factory.hpp:77] Creating layer inception_4a/relu_pool_proj
I0403 18:33:55.378408  7120 net.cpp:91] Creating Layer inception_4a/relu_pool_proj
I0403 18:33:55.378428  7120 net.cpp:425] inception_4a/relu_pool_proj <- inception_4a/pool_proj
I0403 18:33:55.378459  7120 net.cpp:386] inception_4a/relu_pool_proj -> inception_4a/pool_proj (in-place)
I0403 18:33:55.378808  7120 net.cpp:141] Setting up inception_4a/relu_pool_proj
I0403 18:33:55.378839  7120 net.cpp:148] Top shape: 24 64 14 14 (301056)
I0403 18:33:55.378859  7120 net.cpp:156] Memory required for data: 886912032
I0403 18:33:55.378876  7120 layer_factory.hpp:77] Creating layer inception_4a/output
I0403 18:33:55.378897  7120 net.cpp:91] Creating Layer inception_4a/output
I0403 18:33:55.378916  7120 net.cpp:425] inception_4a/output <- inception_4a/1x1
I0403 18:33:55.378937  7120 net.cpp:425] inception_4a/output <- inception_4a/3x3
I0403 18:33:55.378957  7120 net.cpp:425] inception_4a/output <- inception_4a/5x5
I0403 18:33:55.378976  7120 net.cpp:425] inception_4a/output <- inception_4a/pool_proj
I0403 18:33:55.379003  7120 net.cpp:399] inception_4a/output -> inception_4a/output
I0403 18:33:55.379057  7120 net.cpp:141] Setting up inception_4a/output
I0403 18:33:55.379086  7120 net.cpp:148] Top shape: 24 512 14 14 (2408448)
I0403 18:33:55.379108  7120 net.cpp:156] Memory required for data: 896545824
I0403 18:33:55.379127  7120 layer_factory.hpp:77] Creating layer inception_4a/output_inception_4a/output_0_split
I0403 18:33:55.379148  7120 net.cpp:91] Creating Layer inception_4a/output_inception_4a/output_0_split
I0403 18:33:55.379168  7120 net.cpp:425] inception_4a/output_inception_4a/output_0_split <- inception_4a/output
I0403 18:33:55.379190  7120 net.cpp:399] inception_4a/output_inception_4a/output_0_split -> inception_4a/output_inception_4a/output_0_split_0
I0403 18:33:55.379221  7120 net.cpp:399] inception_4a/output_inception_4a/output_0_split -> inception_4a/output_inception_4a/output_0_split_1
I0403 18:33:55.379251  7120 net.cpp:399] inception_4a/output_inception_4a/output_0_split -> inception_4a/output_inception_4a/output_0_split_2
I0403 18:33:55.379279  7120 net.cpp:399] inception_4a/output_inception_4a/output_0_split -> inception_4a/output_inception_4a/output_0_split_3
I0403 18:33:55.379305  7120 net.cpp:399] inception_4a/output_inception_4a/output_0_split -> inception_4a/output_inception_4a/output_0_split_4
I0403 18:33:55.379418  7120 net.cpp:141] Setting up inception_4a/output_inception_4a/output_0_split
I0403 18:33:55.379446  7120 net.cpp:148] Top shape: 24 512 14 14 (2408448)
I0403 18:33:55.379467  7120 net.cpp:148] Top shape: 24 512 14 14 (2408448)
I0403 18:33:55.379487  7120 net.cpp:148] Top shape: 24 512 14 14 (2408448)
I0403 18:33:55.379506  7120 net.cpp:148] Top shape: 24 512 14 14 (2408448)
I0403 18:33:55.379525  7120 net.cpp:148] Top shape: 24 512 14 14 (2408448)
I0403 18:33:55.379542  7120 net.cpp:156] Memory required for data: 944714784
I0403 18:33:55.379560  7120 layer_factory.hpp:77] Creating layer loss1/ave_pool
I0403 18:33:55.379586  7120 net.cpp:91] Creating Layer loss1/ave_pool
I0403 18:33:55.379607  7120 net.cpp:425] loss1/ave_pool <- inception_4a/output_inception_4a/output_0_split_0
I0403 18:33:55.379631  7120 net.cpp:399] loss1/ave_pool -> loss1/ave_pool
I0403 18:33:55.379885  7120 net.cpp:141] Setting up loss1/ave_pool
I0403 18:33:55.379916  7120 net.cpp:148] Top shape: 24 512 4 4 (196608)
I0403 18:33:55.379935  7120 net.cpp:156] Memory required for data: 945501216
I0403 18:33:55.379954  7120 layer_factory.hpp:77] Creating layer loss1/conv
I0403 18:33:55.379982  7120 net.cpp:91] Creating Layer loss1/conv
I0403 18:33:55.380003  7120 net.cpp:425] loss1/conv <- loss1/ave_pool
I0403 18:33:55.380028  7120 net.cpp:399] loss1/conv -> loss1/conv
I0403 18:33:55.381752  7120 net.cpp:141] Setting up loss1/conv
I0403 18:33:55.381786  7120 net.cpp:148] Top shape: 24 128 4 4 (49152)
I0403 18:33:55.381822  7120 net.cpp:156] Memory required for data: 945697824
I0403 18:33:55.381847  7120 layer_factory.hpp:77] Creating layer loss1/relu_conv
I0403 18:33:55.381872  7120 net.cpp:91] Creating Layer loss1/relu_conv
I0403 18:33:55.381893  7120 net.cpp:425] loss1/relu_conv <- loss1/conv
I0403 18:33:55.381916  7120 net.cpp:386] loss1/relu_conv -> loss1/conv (in-place)
I0403 18:33:55.382271  7120 net.cpp:141] Setting up loss1/relu_conv
I0403 18:33:55.382303  7120 net.cpp:148] Top shape: 24 128 4 4 (49152)
I0403 18:33:55.382321  7120 net.cpp:156] Memory required for data: 945894432
I0403 18:33:55.382341  7120 layer_factory.hpp:77] Creating layer loss1/fc
I0403 18:33:55.382374  7120 net.cpp:91] Creating Layer loss1/fc
I0403 18:33:55.382396  7120 net.cpp:425] loss1/fc <- loss1/conv
I0403 18:33:55.382419  7120 net.cpp:399] loss1/fc -> loss1/fc
I0403 18:33:55.404589  7120 net.cpp:141] Setting up loss1/fc
I0403 18:33:55.404649  7120 net.cpp:148] Top shape: 24 1024 (24576)
I0403 18:33:55.404667  7120 net.cpp:156] Memory required for data: 945992736
I0403 18:33:55.404691  7120 layer_factory.hpp:77] Creating layer loss1/relu_fc
I0403 18:33:55.404713  7120 net.cpp:91] Creating Layer loss1/relu_fc
I0403 18:33:55.404732  7120 net.cpp:425] loss1/relu_fc <- loss1/fc
I0403 18:33:55.404757  7120 net.cpp:386] loss1/relu_fc -> loss1/fc (in-place)
I0403 18:33:55.404997  7120 net.cpp:141] Setting up loss1/relu_fc
I0403 18:33:55.405028  7120 net.cpp:148] Top shape: 24 1024 (24576)
I0403 18:33:55.405047  7120 net.cpp:156] Memory required for data: 946091040
I0403 18:33:55.405066  7120 layer_factory.hpp:77] Creating layer loss1/drop_fc
I0403 18:33:55.405103  7120 net.cpp:91] Creating Layer loss1/drop_fc
I0403 18:33:55.405127  7120 net.cpp:425] loss1/drop_fc <- loss1/fc
I0403 18:33:55.405148  7120 net.cpp:386] loss1/drop_fc -> loss1/fc (in-place)
I0403 18:33:55.405213  7120 net.cpp:141] Setting up loss1/drop_fc
I0403 18:33:55.405242  7120 net.cpp:148] Top shape: 24 1024 (24576)
I0403 18:33:55.405261  7120 net.cpp:156] Memory required for data: 946189344
I0403 18:33:55.405278  7120 layer_factory.hpp:77] Creating layer loss1/classifier_plantvillage
I0403 18:33:55.405305  7120 net.cpp:91] Creating Layer loss1/classifier_plantvillage
I0403 18:33:55.405328  7120 net.cpp:425] loss1/classifier_plantvillage <- loss1/fc
I0403 18:33:55.405354  7120 net.cpp:399] loss1/classifier_plantvillage -> loss1/classifier_plantvillage
I0403 18:33:55.406503  7120 net.cpp:141] Setting up loss1/classifier_plantvillage
I0403 18:33:55.406538  7120 net.cpp:148] Top shape: 24 38 (912)
I0403 18:33:55.406555  7120 net.cpp:156] Memory required for data: 946192992
I0403 18:33:55.406579  7120 layer_factory.hpp:77] Creating layer loss1/classifier_plantvillage_loss1/classifier_plantvillage_0_split
I0403 18:33:55.406601  7120 net.cpp:91] Creating Layer loss1/classifier_plantvillage_loss1/classifier_plantvillage_0_split
I0403 18:33:55.406620  7120 net.cpp:425] loss1/classifier_plantvillage_loss1/classifier_plantvillage_0_split <- loss1/classifier_plantvillage
I0403 18:33:55.406646  7120 net.cpp:399] loss1/classifier_plantvillage_loss1/classifier_plantvillage_0_split -> loss1/classifier_plantvillage_loss1/classifier_plantvillage_0_split_0
I0403 18:33:55.406673  7120 net.cpp:399] loss1/classifier_plantvillage_loss1/classifier_plantvillage_0_split -> loss1/classifier_plantvillage_loss1/classifier_plantvillage_0_split_1
I0403 18:33:55.406699  7120 net.cpp:399] loss1/classifier_plantvillage_loss1/classifier_plantvillage_0_split -> loss1/classifier_plantvillage_loss1/classifier_plantvillage_0_split_2
I0403 18:33:55.406780  7120 net.cpp:141] Setting up loss1/classifier_plantvillage_loss1/classifier_plantvillage_0_split
I0403 18:33:55.406810  7120 net.cpp:148] Top shape: 24 38 (912)
I0403 18:33:55.406831  7120 net.cpp:148] Top shape: 24 38 (912)
I0403 18:33:55.406850  7120 net.cpp:148] Top shape: 24 38 (912)
I0403 18:33:55.406869  7120 net.cpp:156] Memory required for data: 946203936
I0403 18:33:55.406888  7120 layer_factory.hpp:77] Creating layer inception_4b/1x1
I0403 18:33:55.406911  7120 net.cpp:91] Creating Layer inception_4b/1x1
I0403 18:33:55.406960  7120 net.cpp:425] inception_4b/1x1 <- inception_4a/output_inception_4a/output_0_split_1
I0403 18:33:55.406985  7120 net.cpp:399] inception_4b/1x1 -> inception_4b/1x1
I0403 18:33:55.409021  7120 net.cpp:141] Setting up inception_4b/1x1
I0403 18:33:55.409056  7120 net.cpp:148] Top shape: 24 160 14 14 (752640)
I0403 18:33:55.409075  7120 net.cpp:156] Memory required for data: 949214496
I0403 18:33:55.409098  7120 layer_factory.hpp:77] Creating layer inception_4b/relu_1x1
I0403 18:33:55.409123  7120 net.cpp:91] Creating Layer inception_4b/relu_1x1
I0403 18:33:55.409144  7120 net.cpp:425] inception_4b/relu_1x1 <- inception_4b/1x1
I0403 18:33:55.409167  7120 net.cpp:386] inception_4b/relu_1x1 -> inception_4b/1x1 (in-place)
I0403 18:33:55.409394  7120 net.cpp:141] Setting up inception_4b/relu_1x1
I0403 18:33:55.409425  7120 net.cpp:148] Top shape: 24 160 14 14 (752640)
I0403 18:33:55.409443  7120 net.cpp:156] Memory required for data: 952225056
I0403 18:33:55.409461  7120 layer_factory.hpp:77] Creating layer inception_4b/3x3_reduce
I0403 18:33:55.409492  7120 net.cpp:91] Creating Layer inception_4b/3x3_reduce
I0403 18:33:55.409514  7120 net.cpp:425] inception_4b/3x3_reduce <- inception_4a/output_inception_4a/output_0_split_2
I0403 18:33:55.409538  7120 net.cpp:399] inception_4b/3x3_reduce -> inception_4b/3x3_reduce
I0403 18:33:55.411190  7120 net.cpp:141] Setting up inception_4b/3x3_reduce
I0403 18:33:55.411229  7120 net.cpp:148] Top shape: 24 112 14 14 (526848)
I0403 18:33:55.411250  7120 net.cpp:156] Memory required for data: 954332448
I0403 18:33:55.411273  7120 layer_factory.hpp:77] Creating layer inception_4b/relu_3x3_reduce
I0403 18:33:55.411305  7120 net.cpp:91] Creating Layer inception_4b/relu_3x3_reduce
I0403 18:33:55.411326  7120 net.cpp:425] inception_4b/relu_3x3_reduce <- inception_4b/3x3_reduce
I0403 18:33:55.411350  7120 net.cpp:386] inception_4b/relu_3x3_reduce -> inception_4b/3x3_reduce (in-place)
I0403 18:33:55.411695  7120 net.cpp:141] Setting up inception_4b/relu_3x3_reduce
I0403 18:33:55.411730  7120 net.cpp:148] Top shape: 24 112 14 14 (526848)
I0403 18:33:55.411747  7120 net.cpp:156] Memory required for data: 956439840
I0403 18:33:55.411767  7120 layer_factory.hpp:77] Creating layer inception_4b/3x3
I0403 18:33:55.411795  7120 net.cpp:91] Creating Layer inception_4b/3x3
I0403 18:33:55.411819  7120 net.cpp:425] inception_4b/3x3 <- inception_4b/3x3_reduce
I0403 18:33:55.411844  7120 net.cpp:399] inception_4b/3x3 -> inception_4b/3x3
I0403 18:33:55.415530  7120 net.cpp:141] Setting up inception_4b/3x3
I0403 18:33:55.415568  7120 net.cpp:148] Top shape: 24 224 14 14 (1053696)
I0403 18:33:55.415590  7120 net.cpp:156] Memory required for data: 960654624
I0403 18:33:55.415612  7120 layer_factory.hpp:77] Creating layer inception_4b/relu_3x3
I0403 18:33:55.415637  7120 net.cpp:91] Creating Layer inception_4b/relu_3x3
I0403 18:33:55.415659  7120 net.cpp:425] inception_4b/relu_3x3 <- inception_4b/3x3
I0403 18:33:55.415685  7120 net.cpp:386] inception_4b/relu_3x3 -> inception_4b/3x3 (in-place)
I0403 18:33:55.415909  7120 net.cpp:141] Setting up inception_4b/relu_3x3
I0403 18:33:55.415940  7120 net.cpp:148] Top shape: 24 224 14 14 (1053696)
I0403 18:33:55.415957  7120 net.cpp:156] Memory required for data: 964869408
I0403 18:33:55.415977  7120 layer_factory.hpp:77] Creating layer inception_4b/5x5_reduce
I0403 18:33:55.416004  7120 net.cpp:91] Creating Layer inception_4b/5x5_reduce
I0403 18:33:55.416028  7120 net.cpp:425] inception_4b/5x5_reduce <- inception_4a/output_inception_4a/output_0_split_3
I0403 18:33:55.416057  7120 net.cpp:399] inception_4b/5x5_reduce -> inception_4b/5x5_reduce
I0403 18:33:55.417385  7120 net.cpp:141] Setting up inception_4b/5x5_reduce
I0403 18:33:55.417420  7120 net.cpp:148] Top shape: 24 24 14 14 (112896)
I0403 18:33:55.417440  7120 net.cpp:156] Memory required for data: 965320992
I0403 18:33:55.417465  7120 layer_factory.hpp:77] Creating layer inception_4b/relu_5x5_reduce
I0403 18:33:55.417496  7120 net.cpp:91] Creating Layer inception_4b/relu_5x5_reduce
I0403 18:33:55.417536  7120 net.cpp:425] inception_4b/relu_5x5_reduce <- inception_4b/5x5_reduce
I0403 18:33:55.417560  7120 net.cpp:386] inception_4b/relu_5x5_reduce -> inception_4b/5x5_reduce (in-place)
I0403 18:33:55.417785  7120 net.cpp:141] Setting up inception_4b/relu_5x5_reduce
I0403 18:33:55.417819  7120 net.cpp:148] Top shape: 24 24 14 14 (112896)
I0403 18:33:55.417840  7120 net.cpp:156] Memory required for data: 965772576
I0403 18:33:55.417858  7120 layer_factory.hpp:77] Creating layer inception_4b/5x5
I0403 18:33:55.417884  7120 net.cpp:91] Creating Layer inception_4b/5x5
I0403 18:33:55.417907  7120 net.cpp:425] inception_4b/5x5 <- inception_4b/5x5_reduce
I0403 18:33:55.417932  7120 net.cpp:399] inception_4b/5x5 -> inception_4b/5x5
I0403 18:33:55.419438  7120 net.cpp:141] Setting up inception_4b/5x5
I0403 18:33:55.419476  7120 net.cpp:148] Top shape: 24 64 14 14 (301056)
I0403 18:33:55.419494  7120 net.cpp:156] Memory required for data: 966976800
I0403 18:33:55.419517  7120 layer_factory.hpp:77] Creating layer inception_4b/relu_5x5
I0403 18:33:55.419543  7120 net.cpp:91] Creating Layer inception_4b/relu_5x5
I0403 18:33:55.419562  7120 net.cpp:425] inception_4b/relu_5x5 <- inception_4b/5x5
I0403 18:33:55.419584  7120 net.cpp:386] inception_4b/relu_5x5 -> inception_4b/5x5 (in-place)
I0403 18:33:55.419929  7120 net.cpp:141] Setting up inception_4b/relu_5x5
I0403 18:33:55.419961  7120 net.cpp:148] Top shape: 24 64 14 14 (301056)
I0403 18:33:55.419981  7120 net.cpp:156] Memory required for data: 968181024
I0403 18:33:55.420001  7120 layer_factory.hpp:77] Creating layer inception_4b/pool
I0403 18:33:55.420028  7120 net.cpp:91] Creating Layer inception_4b/pool
I0403 18:33:55.420050  7120 net.cpp:425] inception_4b/pool <- inception_4a/output_inception_4a/output_0_split_4
I0403 18:33:55.420074  7120 net.cpp:399] inception_4b/pool -> inception_4b/pool
I0403 18:33:55.420158  7120 net.cpp:141] Setting up inception_4b/pool
I0403 18:33:55.420187  7120 net.cpp:148] Top shape: 24 512 14 14 (2408448)
I0403 18:33:55.420205  7120 net.cpp:156] Memory required for data: 977814816
I0403 18:33:55.420230  7120 layer_factory.hpp:77] Creating layer inception_4b/pool_proj
I0403 18:33:55.420259  7120 net.cpp:91] Creating Layer inception_4b/pool_proj
I0403 18:33:55.420282  7120 net.cpp:425] inception_4b/pool_proj <- inception_4b/pool
I0403 18:33:55.420308  7120 net.cpp:399] inception_4b/pool_proj -> inception_4b/pool_proj
I0403 18:33:55.421779  7120 net.cpp:141] Setting up inception_4b/pool_proj
I0403 18:33:55.421814  7120 net.cpp:148] Top shape: 24 64 14 14 (301056)
I0403 18:33:55.421834  7120 net.cpp:156] Memory required for data: 979019040
I0403 18:33:55.421859  7120 layer_factory.hpp:77] Creating layer inception_4b/relu_pool_proj
I0403 18:33:55.421887  7120 net.cpp:91] Creating Layer inception_4b/relu_pool_proj
I0403 18:33:55.421908  7120 net.cpp:425] inception_4b/relu_pool_proj <- inception_4b/pool_proj
I0403 18:33:55.421931  7120 net.cpp:386] inception_4b/relu_pool_proj -> inception_4b/pool_proj (in-place)
I0403 18:33:55.422159  7120 net.cpp:141] Setting up inception_4b/relu_pool_proj
I0403 18:33:55.422193  7120 net.cpp:148] Top shape: 24 64 14 14 (301056)
I0403 18:33:55.422226  7120 net.cpp:156] Memory required for data: 980223264
I0403 18:33:55.422250  7120 layer_factory.hpp:77] Creating layer inception_4b/output
I0403 18:33:55.422272  7120 net.cpp:91] Creating Layer inception_4b/output
I0403 18:33:55.422292  7120 net.cpp:425] inception_4b/output <- inception_4b/1x1
I0403 18:33:55.422313  7120 net.cpp:425] inception_4b/output <- inception_4b/3x3
I0403 18:33:55.422334  7120 net.cpp:425] inception_4b/output <- inception_4b/5x5
I0403 18:33:55.422353  7120 net.cpp:425] inception_4b/output <- inception_4b/pool_proj
I0403 18:33:55.422379  7120 net.cpp:399] inception_4b/output -> inception_4b/output
I0403 18:33:55.422436  7120 net.cpp:141] Setting up inception_4b/output
I0403 18:33:55.422466  7120 net.cpp:148] Top shape: 24 512 14 14 (2408448)
I0403 18:33:55.422484  7120 net.cpp:156] Memory required for data: 989857056
I0403 18:33:55.422520  7120 layer_factory.hpp:77] Creating layer inception_4b/output_inception_4b/output_0_split
I0403 18:33:55.422547  7120 net.cpp:91] Creating Layer inception_4b/output_inception_4b/output_0_split
I0403 18:33:55.422571  7120 net.cpp:425] inception_4b/output_inception_4b/output_0_split <- inception_4b/output
I0403 18:33:55.422595  7120 net.cpp:399] inception_4b/output_inception_4b/output_0_split -> inception_4b/output_inception_4b/output_0_split_0
I0403 18:33:55.422618  7120 net.cpp:399] inception_4b/output_inception_4b/output_0_split -> inception_4b/output_inception_4b/output_0_split_1
I0403 18:33:55.422643  7120 net.cpp:399] inception_4b/output_inception_4b/output_0_split -> inception_4b/output_inception_4b/output_0_split_2
I0403 18:33:55.422673  7120 net.cpp:399] inception_4b/output_inception_4b/output_0_split -> inception_4b/output_inception_4b/output_0_split_3
I0403 18:33:55.422777  7120 net.cpp:141] Setting up inception_4b/output_inception_4b/output_0_split
I0403 18:33:55.422806  7120 net.cpp:148] Top shape: 24 512 14 14 (2408448)
I0403 18:33:55.422827  7120 net.cpp:148] Top shape: 24 512 14 14 (2408448)
I0403 18:33:55.422847  7120 net.cpp:148] Top shape: 24 512 14 14 (2408448)
I0403 18:33:55.422866  7120 net.cpp:148] Top shape: 24 512 14 14 (2408448)
I0403 18:33:55.422883  7120 net.cpp:156] Memory required for data: 1028392224
I0403 18:33:55.422902  7120 layer_factory.hpp:77] Creating layer inception_4c/1x1
I0403 18:33:55.422930  7120 net.cpp:91] Creating Layer inception_4c/1x1
I0403 18:33:55.422952  7120 net.cpp:425] inception_4c/1x1 <- inception_4b/output_inception_4b/output_0_split_0
I0403 18:33:55.422979  7120 net.cpp:399] inception_4c/1x1 -> inception_4c/1x1
I0403 18:33:55.424739  7120 net.cpp:141] Setting up inception_4c/1x1
I0403 18:33:55.424778  7120 net.cpp:148] Top shape: 24 128 14 14 (602112)
I0403 18:33:55.424800  7120 net.cpp:156] Memory required for data: 1030800672
I0403 18:33:55.424823  7120 layer_factory.hpp:77] Creating layer inception_4c/relu_1x1
I0403 18:33:55.424845  7120 net.cpp:91] Creating Layer inception_4c/relu_1x1
I0403 18:33:55.424865  7120 net.cpp:425] inception_4c/relu_1x1 <- inception_4c/1x1
I0403 18:33:55.424890  7120 net.cpp:386] inception_4c/relu_1x1 -> inception_4c/1x1 (in-place)
I0403 18:33:55.425114  7120 net.cpp:141] Setting up inception_4c/relu_1x1
I0403 18:33:55.425145  7120 net.cpp:148] Top shape: 24 128 14 14 (602112)
I0403 18:33:55.425163  7120 net.cpp:156] Memory required for data: 1033209120
I0403 18:33:55.425180  7120 layer_factory.hpp:77] Creating layer inception_4c/3x3_reduce
I0403 18:33:55.425214  7120 net.cpp:91] Creating Layer inception_4c/3x3_reduce
I0403 18:33:55.425237  7120 net.cpp:425] inception_4c/3x3_reduce <- inception_4b/output_inception_4b/output_0_split_1
I0403 18:33:55.425264  7120 net.cpp:399] inception_4c/3x3_reduce -> inception_4c/3x3_reduce
I0403 18:33:55.427650  7120 net.cpp:141] Setting up inception_4c/3x3_reduce
I0403 18:33:55.427685  7120 net.cpp:148] Top shape: 24 128 14 14 (602112)
I0403 18:33:55.427706  7120 net.cpp:156] Memory required for data: 1035617568
I0403 18:33:55.427728  7120 layer_factory.hpp:77] Creating layer inception_4c/relu_3x3_reduce
I0403 18:33:55.427754  7120 net.cpp:91] Creating Layer inception_4c/relu_3x3_reduce
I0403 18:33:55.427778  7120 net.cpp:425] inception_4c/relu_3x3_reduce <- inception_4c/3x3_reduce
I0403 18:33:55.427799  7120 net.cpp:386] inception_4c/relu_3x3_reduce -> inception_4c/3x3_reduce (in-place)
I0403 18:33:55.428145  7120 net.cpp:141] Setting up inception_4c/relu_3x3_reduce
I0403 18:33:55.428177  7120 net.cpp:148] Top shape: 24 128 14 14 (602112)
I0403 18:33:55.428197  7120 net.cpp:156] Memory required for data: 1038026016
I0403 18:33:55.428221  7120 layer_factory.hpp:77] Creating layer inception_4c/3x3
I0403 18:33:55.428251  7120 net.cpp:91] Creating Layer inception_4c/3x3
I0403 18:33:55.428273  7120 net.cpp:425] inception_4c/3x3 <- inception_4c/3x3_reduce
I0403 18:33:55.428302  7120 net.cpp:399] inception_4c/3x3 -> inception_4c/3x3
I0403 18:33:55.432735  7120 net.cpp:141] Setting up inception_4c/3x3
I0403 18:33:55.432787  7120 net.cpp:148] Top shape: 24 256 14 14 (1204224)
I0403 18:33:55.432807  7120 net.cpp:156] Memory required for data: 1042842912
I0403 18:33:55.432848  7120 layer_factory.hpp:77] Creating layer inception_4c/relu_3x3
I0403 18:33:55.432876  7120 net.cpp:91] Creating Layer inception_4c/relu_3x3
I0403 18:33:55.432899  7120 net.cpp:425] inception_4c/relu_3x3 <- inception_4c/3x3
I0403 18:33:55.432922  7120 net.cpp:386] inception_4c/relu_3x3 -> inception_4c/3x3 (in-place)
I0403 18:33:55.433150  7120 net.cpp:141] Setting up inception_4c/relu_3x3
I0403 18:33:55.433181  7120 net.cpp:148] Top shape: 24 256 14 14 (1204224)
I0403 18:33:55.433199  7120 net.cpp:156] Memory required for data: 1047659808
I0403 18:33:55.433224  7120 layer_factory.hpp:77] Creating layer inception_4c/5x5_reduce
I0403 18:33:55.433257  7120 net.cpp:91] Creating Layer inception_4c/5x5_reduce
I0403 18:33:55.433281  7120 net.cpp:425] inception_4c/5x5_reduce <- inception_4b/output_inception_4b/output_0_split_2
I0403 18:33:55.433306  7120 net.cpp:399] inception_4c/5x5_reduce -> inception_4c/5x5_reduce
I0403 18:33:55.434635  7120 net.cpp:141] Setting up inception_4c/5x5_reduce
I0403 18:33:55.434670  7120 net.cpp:148] Top shape: 24 24 14 14 (112896)
I0403 18:33:55.434690  7120 net.cpp:156] Memory required for data: 1048111392
I0403 18:33:55.434713  7120 layer_factory.hpp:77] Creating layer inception_4c/relu_5x5_reduce
I0403 18:33:55.434738  7120 net.cpp:91] Creating Layer inception_4c/relu_5x5_reduce
I0403 18:33:55.434759  7120 net.cpp:425] inception_4c/relu_5x5_reduce <- inception_4c/5x5_reduce
I0403 18:33:55.434782  7120 net.cpp:386] inception_4c/relu_5x5_reduce -> inception_4c/5x5_reduce (in-place)
I0403 18:33:55.435010  7120 net.cpp:141] Setting up inception_4c/relu_5x5_reduce
I0403 18:33:55.435045  7120 net.cpp:148] Top shape: 24 24 14 14 (112896)
I0403 18:33:55.435063  7120 net.cpp:156] Memory required for data: 1048562976
I0403 18:33:55.435082  7120 layer_factory.hpp:77] Creating layer inception_4c/5x5
I0403 18:33:55.435109  7120 net.cpp:91] Creating Layer inception_4c/5x5
I0403 18:33:55.435132  7120 net.cpp:425] inception_4c/5x5 <- inception_4c/5x5_reduce
I0403 18:33:55.435156  7120 net.cpp:399] inception_4c/5x5 -> inception_4c/5x5
I0403 18:33:55.436697  7120 net.cpp:141] Setting up inception_4c/5x5
I0403 18:33:55.436733  7120 net.cpp:148] Top shape: 24 64 14 14 (301056)
I0403 18:33:55.436753  7120 net.cpp:156] Memory required for data: 1049767200
I0403 18:33:55.436776  7120 layer_factory.hpp:77] Creating layer inception_4c/relu_5x5
I0403 18:33:55.436799  7120 net.cpp:91] Creating Layer inception_4c/relu_5x5
I0403 18:33:55.436818  7120 net.cpp:425] inception_4c/relu_5x5 <- inception_4c/5x5
I0403 18:33:55.436843  7120 net.cpp:386] inception_4c/relu_5x5 -> inception_4c/5x5 (in-place)
I0403 18:33:55.437196  7120 net.cpp:141] Setting up inception_4c/relu_5x5
I0403 18:33:55.437237  7120 net.cpp:148] Top shape: 24 64 14 14 (301056)
I0403 18:33:55.437257  7120 net.cpp:156] Memory required for data: 1050971424
I0403 18:33:55.437275  7120 layer_factory.hpp:77] Creating layer inception_4c/pool
I0403 18:33:55.437299  7120 net.cpp:91] Creating Layer inception_4c/pool
I0403 18:33:55.437319  7120 net.cpp:425] inception_4c/pool <- inception_4b/output_inception_4b/output_0_split_3
I0403 18:33:55.437345  7120 net.cpp:399] inception_4c/pool -> inception_4c/pool
I0403 18:33:55.437425  7120 net.cpp:141] Setting up inception_4c/pool
I0403 18:33:55.437454  7120 net.cpp:148] Top shape: 24 512 14 14 (2408448)
I0403 18:33:55.437474  7120 net.cpp:156] Memory required for data: 1060605216
I0403 18:33:55.437491  7120 layer_factory.hpp:77] Creating layer inception_4c/pool_proj
I0403 18:33:55.437520  7120 net.cpp:91] Creating Layer inception_4c/pool_proj
I0403 18:33:55.437542  7120 net.cpp:425] inception_4c/pool_proj <- inception_4c/pool
I0403 18:33:55.437568  7120 net.cpp:399] inception_4c/pool_proj -> inception_4c/pool_proj
I0403 18:33:55.439065  7120 net.cpp:141] Setting up inception_4c/pool_proj
I0403 18:33:55.439100  7120 net.cpp:148] Top shape: 24 64 14 14 (301056)
I0403 18:33:55.439136  7120 net.cpp:156] Memory required for data: 1061809440
I0403 18:33:55.439160  7120 layer_factory.hpp:77] Creating layer inception_4c/relu_pool_proj
I0403 18:33:55.439188  7120 net.cpp:91] Creating Layer inception_4c/relu_pool_proj
I0403 18:33:55.439214  7120 net.cpp:425] inception_4c/relu_pool_proj <- inception_4c/pool_proj
I0403 18:33:55.439239  7120 net.cpp:386] inception_4c/relu_pool_proj -> inception_4c/pool_proj (in-place)
I0403 18:33:55.439473  7120 net.cpp:141] Setting up inception_4c/relu_pool_proj
I0403 18:33:55.439507  7120 net.cpp:148] Top shape: 24 64 14 14 (301056)
I0403 18:33:55.439527  7120 net.cpp:156] Memory required for data: 1063013664
I0403 18:33:55.439546  7120 layer_factory.hpp:77] Creating layer inception_4c/output
I0403 18:33:55.439568  7120 net.cpp:91] Creating Layer inception_4c/output
I0403 18:33:55.439589  7120 net.cpp:425] inception_4c/output <- inception_4c/1x1
I0403 18:33:55.439610  7120 net.cpp:425] inception_4c/output <- inception_4c/3x3
I0403 18:33:55.439630  7120 net.cpp:425] inception_4c/output <- inception_4c/5x5
I0403 18:33:55.439649  7120 net.cpp:425] inception_4c/output <- inception_4c/pool_proj
I0403 18:33:55.439669  7120 net.cpp:399] inception_4c/output -> inception_4c/output
I0403 18:33:55.439731  7120 net.cpp:141] Setting up inception_4c/output
I0403 18:33:55.439760  7120 net.cpp:148] Top shape: 24 512 14 14 (2408448)
I0403 18:33:55.439779  7120 net.cpp:156] Memory required for data: 1072647456
I0403 18:33:55.439797  7120 layer_factory.hpp:77] Creating layer inception_4c/output_inception_4c/output_0_split
I0403 18:33:55.439823  7120 net.cpp:91] Creating Layer inception_4c/output_inception_4c/output_0_split
I0403 18:33:55.439843  7120 net.cpp:425] inception_4c/output_inception_4c/output_0_split <- inception_4c/output
I0403 18:33:55.439865  7120 net.cpp:399] inception_4c/output_inception_4c/output_0_split -> inception_4c/output_inception_4c/output_0_split_0
I0403 18:33:55.439891  7120 net.cpp:399] inception_4c/output_inception_4c/output_0_split -> inception_4c/output_inception_4c/output_0_split_1
I0403 18:33:55.439916  7120 net.cpp:399] inception_4c/output_inception_4c/output_0_split -> inception_4c/output_inception_4c/output_0_split_2
I0403 18:33:55.439947  7120 net.cpp:399] inception_4c/output_inception_4c/output_0_split -> inception_4c/output_inception_4c/output_0_split_3
I0403 18:33:55.440054  7120 net.cpp:141] Setting up inception_4c/output_inception_4c/output_0_split
I0403 18:33:55.440083  7120 net.cpp:148] Top shape: 24 512 14 14 (2408448)
I0403 18:33:55.440102  7120 net.cpp:148] Top shape: 24 512 14 14 (2408448)
I0403 18:33:55.440121  7120 net.cpp:148] Top shape: 24 512 14 14 (2408448)
I0403 18:33:55.440141  7120 net.cpp:148] Top shape: 24 512 14 14 (2408448)
I0403 18:33:55.440157  7120 net.cpp:156] Memory required for data: 1111182624
I0403 18:33:55.440176  7120 layer_factory.hpp:77] Creating layer inception_4d/1x1
I0403 18:33:55.440203  7120 net.cpp:91] Creating Layer inception_4d/1x1
I0403 18:33:55.440232  7120 net.cpp:425] inception_4d/1x1 <- inception_4c/output_inception_4c/output_0_split_0
I0403 18:33:55.440258  7120 net.cpp:399] inception_4d/1x1 -> inception_4d/1x1
I0403 18:33:55.441953  7120 net.cpp:141] Setting up inception_4d/1x1
I0403 18:33:55.441987  7120 net.cpp:148] Top shape: 24 112 14 14 (526848)
I0403 18:33:55.442008  7120 net.cpp:156] Memory required for data: 1113290016
I0403 18:33:55.442030  7120 layer_factory.hpp:77] Creating layer inception_4d/relu_1x1
I0403 18:33:55.442054  7120 net.cpp:91] Creating Layer inception_4d/relu_1x1
I0403 18:33:55.442075  7120 net.cpp:425] inception_4d/relu_1x1 <- inception_4d/1x1
I0403 18:33:55.442097  7120 net.cpp:386] inception_4d/relu_1x1 -> inception_4d/1x1 (in-place)
I0403 18:33:55.442338  7120 net.cpp:141] Setting up inception_4d/relu_1x1
I0403 18:33:55.442369  7120 net.cpp:148] Top shape: 24 112 14 14 (526848)
I0403 18:33:55.442389  7120 net.cpp:156] Memory required for data: 1115397408
I0403 18:33:55.442407  7120 layer_factory.hpp:77] Creating layer inception_4d/3x3_reduce
I0403 18:33:55.442451  7120 net.cpp:91] Creating Layer inception_4d/3x3_reduce
I0403 18:33:55.442474  7120 net.cpp:425] inception_4d/3x3_reduce <- inception_4c/output_inception_4c/output_0_split_1
I0403 18:33:55.442502  7120 net.cpp:399] inception_4d/3x3_reduce -> inception_4d/3x3_reduce
I0403 18:33:55.444355  7120 net.cpp:141] Setting up inception_4d/3x3_reduce
I0403 18:33:55.444391  7120 net.cpp:148] Top shape: 24 144 14 14 (677376)
I0403 18:33:55.444411  7120 net.cpp:156] Memory required for data: 1118106912
I0403 18:33:55.444433  7120 layer_factory.hpp:77] Creating layer inception_4d/relu_3x3_reduce
I0403 18:33:55.444455  7120 net.cpp:91] Creating Layer inception_4d/relu_3x3_reduce
I0403 18:33:55.444475  7120 net.cpp:425] inception_4d/relu_3x3_reduce <- inception_4d/3x3_reduce
I0403 18:33:55.444499  7120 net.cpp:386] inception_4d/relu_3x3_reduce -> inception_4d/3x3_reduce (in-place)
I0403 18:33:55.444854  7120 net.cpp:141] Setting up inception_4d/relu_3x3_reduce
I0403 18:33:55.444890  7120 net.cpp:148] Top shape: 24 144 14 14 (677376)
I0403 18:33:55.444910  7120 net.cpp:156] Memory required for data: 1120816416
I0403 18:33:55.444927  7120 layer_factory.hpp:77] Creating layer inception_4d/3x3
I0403 18:33:55.444954  7120 net.cpp:91] Creating Layer inception_4d/3x3
I0403 18:33:55.444977  7120 net.cpp:425] inception_4d/3x3 <- inception_4d/3x3_reduce
I0403 18:33:55.445003  7120 net.cpp:399] inception_4d/3x3 -> inception_4d/3x3
I0403 18:33:55.450305  7120 net.cpp:141] Setting up inception_4d/3x3
I0403 18:33:55.450343  7120 net.cpp:148] Top shape: 24 288 14 14 (1354752)
I0403 18:33:55.450363  7120 net.cpp:156] Memory required for data: 1126235424
I0403 18:33:55.450387  7120 layer_factory.hpp:77] Creating layer inception_4d/relu_3x3
I0403 18:33:55.450409  7120 net.cpp:91] Creating Layer inception_4d/relu_3x3
I0403 18:33:55.450429  7120 net.cpp:425] inception_4d/relu_3x3 <- inception_4d/3x3
I0403 18:33:55.450454  7120 net.cpp:386] inception_4d/relu_3x3 -> inception_4d/3x3 (in-place)
I0403 18:33:55.450678  7120 net.cpp:141] Setting up inception_4d/relu_3x3
I0403 18:33:55.450711  7120 net.cpp:148] Top shape: 24 288 14 14 (1354752)
I0403 18:33:55.450727  7120 net.cpp:156] Memory required for data: 1131654432
I0403 18:33:55.450745  7120 layer_factory.hpp:77] Creating layer inception_4d/5x5_reduce
I0403 18:33:55.450773  7120 net.cpp:91] Creating Layer inception_4d/5x5_reduce
I0403 18:33:55.450794  7120 net.cpp:425] inception_4d/5x5_reduce <- inception_4c/output_inception_4c/output_0_split_2
I0403 18:33:55.450820  7120 net.cpp:399] inception_4d/5x5_reduce -> inception_4d/5x5_reduce
I0403 18:33:55.452250  7120 net.cpp:141] Setting up inception_4d/5x5_reduce
I0403 18:33:55.452285  7120 net.cpp:148] Top shape: 24 32 14 14 (150528)
I0403 18:33:55.452304  7120 net.cpp:156] Memory required for data: 1132256544
I0403 18:33:55.452328  7120 layer_factory.hpp:77] Creating layer inception_4d/relu_5x5_reduce
I0403 18:33:55.452353  7120 net.cpp:91] Creating Layer inception_4d/relu_5x5_reduce
I0403 18:33:55.452374  7120 net.cpp:425] inception_4d/relu_5x5_reduce <- inception_4d/5x5_reduce
I0403 18:33:55.452397  7120 net.cpp:386] inception_4d/relu_5x5_reduce -> inception_4d/5x5_reduce (in-place)
I0403 18:33:55.452628  7120 net.cpp:141] Setting up inception_4d/relu_5x5_reduce
I0403 18:33:55.452659  7120 net.cpp:148] Top shape: 24 32 14 14 (150528)
I0403 18:33:55.452677  7120 net.cpp:156] Memory required for data: 1132858656
I0403 18:33:55.452695  7120 layer_factory.hpp:77] Creating layer inception_4d/5x5
I0403 18:33:55.452723  7120 net.cpp:91] Creating Layer inception_4d/5x5
I0403 18:33:55.452747  7120 net.cpp:425] inception_4d/5x5 <- inception_4d/5x5_reduce
I0403 18:33:55.452770  7120 net.cpp:399] inception_4d/5x5 -> inception_4d/5x5
I0403 18:33:55.454586  7120 net.cpp:141] Setting up inception_4d/5x5
I0403 18:33:55.454620  7120 net.cpp:148] Top shape: 24 64 14 14 (301056)
I0403 18:33:55.454640  7120 net.cpp:156] Memory required for data: 1134062880
I0403 18:33:55.454666  7120 layer_factory.hpp:77] Creating layer inception_4d/relu_5x5
I0403 18:33:55.454716  7120 net.cpp:91] Creating Layer inception_4d/relu_5x5
I0403 18:33:55.454740  7120 net.cpp:425] inception_4d/relu_5x5 <- inception_4d/5x5
I0403 18:33:55.454761  7120 net.cpp:386] inception_4d/relu_5x5 -> inception_4d/5x5 (in-place)
I0403 18:33:55.455122  7120 net.cpp:141] Setting up inception_4d/relu_5x5
I0403 18:33:55.455157  7120 net.cpp:148] Top shape: 24 64 14 14 (301056)
I0403 18:33:55.455179  7120 net.cpp:156] Memory required for data: 1135267104
I0403 18:33:55.455198  7120 layer_factory.hpp:77] Creating layer inception_4d/pool
I0403 18:33:55.455230  7120 net.cpp:91] Creating Layer inception_4d/pool
I0403 18:33:55.455255  7120 net.cpp:425] inception_4d/pool <- inception_4c/output_inception_4c/output_0_split_3
I0403 18:33:55.455277  7120 net.cpp:399] inception_4d/pool -> inception_4d/pool
I0403 18:33:55.455364  7120 net.cpp:141] Setting up inception_4d/pool
I0403 18:33:55.455394  7120 net.cpp:148] Top shape: 24 512 14 14 (2408448)
I0403 18:33:55.455412  7120 net.cpp:156] Memory required for data: 1144900896
I0403 18:33:55.455430  7120 layer_factory.hpp:77] Creating layer inception_4d/pool_proj
I0403 18:33:55.455458  7120 net.cpp:91] Creating Layer inception_4d/pool_proj
I0403 18:33:55.455481  7120 net.cpp:425] inception_4d/pool_proj <- inception_4d/pool
I0403 18:33:55.455507  7120 net.cpp:399] inception_4d/pool_proj -> inception_4d/pool_proj
I0403 18:33:55.457734  7120 net.cpp:141] Setting up inception_4d/pool_proj
I0403 18:33:55.457769  7120 net.cpp:148] Top shape: 24 64 14 14 (301056)
I0403 18:33:55.457789  7120 net.cpp:156] Memory required for data: 1146105120
I0403 18:33:55.457813  7120 layer_factory.hpp:77] Creating layer inception_4d/relu_pool_proj
I0403 18:33:55.457836  7120 net.cpp:91] Creating Layer inception_4d/relu_pool_proj
I0403 18:33:55.457855  7120 net.cpp:425] inception_4d/relu_pool_proj <- inception_4d/pool_proj
I0403 18:33:55.457880  7120 net.cpp:386] inception_4d/relu_pool_proj -> inception_4d/pool_proj (in-place)
I0403 18:33:55.458114  7120 net.cpp:141] Setting up inception_4d/relu_pool_proj
I0403 18:33:55.458147  7120 net.cpp:148] Top shape: 24 64 14 14 (301056)
I0403 18:33:55.458164  7120 net.cpp:156] Memory required for data: 1147309344
I0403 18:33:55.458184  7120 layer_factory.hpp:77] Creating layer inception_4d/output
I0403 18:33:55.458212  7120 net.cpp:91] Creating Layer inception_4d/output
I0403 18:33:55.458236  7120 net.cpp:425] inception_4d/output <- inception_4d/1x1
I0403 18:33:55.458256  7120 net.cpp:425] inception_4d/output <- inception_4d/3x3
I0403 18:33:55.458276  7120 net.cpp:425] inception_4d/output <- inception_4d/5x5
I0403 18:33:55.458297  7120 net.cpp:425] inception_4d/output <- inception_4d/pool_proj
I0403 18:33:55.458318  7120 net.cpp:399] inception_4d/output -> inception_4d/output
I0403 18:33:55.458380  7120 net.cpp:141] Setting up inception_4d/output
I0403 18:33:55.458410  7120 net.cpp:148] Top shape: 24 528 14 14 (2483712)
I0403 18:33:55.458427  7120 net.cpp:156] Memory required for data: 1157244192
I0403 18:33:55.458446  7120 layer_factory.hpp:77] Creating layer inception_4d/output_inception_4d/output_0_split
I0403 18:33:55.458467  7120 net.cpp:91] Creating Layer inception_4d/output_inception_4d/output_0_split
I0403 18:33:55.458488  7120 net.cpp:425] inception_4d/output_inception_4d/output_0_split <- inception_4d/output
I0403 18:33:55.458513  7120 net.cpp:399] inception_4d/output_inception_4d/output_0_split -> inception_4d/output_inception_4d/output_0_split_0
I0403 18:33:55.458540  7120 net.cpp:399] inception_4d/output_inception_4d/output_0_split -> inception_4d/output_inception_4d/output_0_split_1
I0403 18:33:55.458566  7120 net.cpp:399] inception_4d/output_inception_4d/output_0_split -> inception_4d/output_inception_4d/output_0_split_2
I0403 18:33:55.458591  7120 net.cpp:399] inception_4d/output_inception_4d/output_0_split -> inception_4d/output_inception_4d/output_0_split_3
I0403 18:33:55.458618  7120 net.cpp:399] inception_4d/output_inception_4d/output_0_split -> inception_4d/output_inception_4d/output_0_split_4
I0403 18:33:55.458748  7120 net.cpp:141] Setting up inception_4d/output_inception_4d/output_0_split
I0403 18:33:55.458793  7120 net.cpp:148] Top shape: 24 528 14 14 (2483712)
I0403 18:33:55.458814  7120 net.cpp:148] Top shape: 24 528 14 14 (2483712)
I0403 18:33:55.458833  7120 net.cpp:148] Top shape: 24 528 14 14 (2483712)
I0403 18:33:55.458853  7120 net.cpp:148] Top shape: 24 528 14 14 (2483712)
I0403 18:33:55.458873  7120 net.cpp:148] Top shape: 24 528 14 14 (2483712)
I0403 18:33:55.458889  7120 net.cpp:156] Memory required for data: 1206918432
I0403 18:33:55.458907  7120 layer_factory.hpp:77] Creating layer loss2/ave_pool
I0403 18:33:55.458930  7120 net.cpp:91] Creating Layer loss2/ave_pool
I0403 18:33:55.458950  7120 net.cpp:425] loss2/ave_pool <- inception_4d/output_inception_4d/output_0_split_0
I0403 18:33:55.458977  7120 net.cpp:399] loss2/ave_pool -> loss2/ave_pool
I0403 18:33:55.459363  7120 net.cpp:141] Setting up loss2/ave_pool
I0403 18:33:55.459396  7120 net.cpp:148] Top shape: 24 528 4 4 (202752)
I0403 18:33:55.459415  7120 net.cpp:156] Memory required for data: 1207729440
I0403 18:33:55.459434  7120 layer_factory.hpp:77] Creating layer loss2/conv
I0403 18:33:55.459462  7120 net.cpp:91] Creating Layer loss2/conv
I0403 18:33:55.459486  7120 net.cpp:425] loss2/conv <- loss2/ave_pool
I0403 18:33:55.459512  7120 net.cpp:399] loss2/conv -> loss2/conv
I0403 18:33:55.461869  7120 net.cpp:141] Setting up loss2/conv
I0403 18:33:55.461906  7120 net.cpp:148] Top shape: 24 128 4 4 (49152)
I0403 18:33:55.461925  7120 net.cpp:156] Memory required for data: 1207926048
I0403 18:33:55.461948  7120 layer_factory.hpp:77] Creating layer loss2/relu_conv
I0403 18:33:55.461972  7120 net.cpp:91] Creating Layer loss2/relu_conv
I0403 18:33:55.461993  7120 net.cpp:425] loss2/relu_conv <- loss2/conv
I0403 18:33:55.462013  7120 net.cpp:386] loss2/relu_conv -> loss2/conv (in-place)
I0403 18:33:55.462383  7120 net.cpp:141] Setting up loss2/relu_conv
I0403 18:33:55.462419  7120 net.cpp:148] Top shape: 24 128 4 4 (49152)
I0403 18:33:55.462440  7120 net.cpp:156] Memory required for data: 1208122656
I0403 18:33:55.462460  7120 layer_factory.hpp:77] Creating layer loss2/fc
I0403 18:33:55.462483  7120 net.cpp:91] Creating Layer loss2/fc
I0403 18:33:55.462503  7120 net.cpp:425] loss2/fc <- loss2/conv
I0403 18:33:55.462528  7120 net.cpp:399] loss2/fc -> loss2/fc
I0403 18:33:55.484650  7120 net.cpp:141] Setting up loss2/fc
I0403 18:33:55.484719  7120 net.cpp:148] Top shape: 24 1024 (24576)
I0403 18:33:55.484740  7120 net.cpp:156] Memory required for data: 1208220960
I0403 18:33:55.484763  7120 layer_factory.hpp:77] Creating layer loss2/relu_fc
I0403 18:33:55.484791  7120 net.cpp:91] Creating Layer loss2/relu_fc
I0403 18:33:55.484813  7120 net.cpp:425] loss2/relu_fc <- loss2/fc
I0403 18:33:55.484836  7120 net.cpp:386] loss2/relu_fc -> loss2/fc (in-place)
I0403 18:33:55.485245  7120 net.cpp:141] Setting up loss2/relu_fc
I0403 18:33:55.485280  7120 net.cpp:148] Top shape: 24 1024 (24576)
I0403 18:33:55.485298  7120 net.cpp:156] Memory required for data: 1208319264
I0403 18:33:55.485316  7120 layer_factory.hpp:77] Creating layer loss2/drop_fc
I0403 18:33:55.485342  7120 net.cpp:91] Creating Layer loss2/drop_fc
I0403 18:33:55.485364  7120 net.cpp:425] loss2/drop_fc <- loss2/fc
I0403 18:33:55.485386  7120 net.cpp:386] loss2/drop_fc -> loss2/fc (in-place)
I0403 18:33:55.485447  7120 net.cpp:141] Setting up loss2/drop_fc
I0403 18:33:55.485479  7120 net.cpp:148] Top shape: 24 1024 (24576)
I0403 18:33:55.485498  7120 net.cpp:156] Memory required for data: 1208417568
I0403 18:33:55.485517  7120 layer_factory.hpp:77] Creating layer loss2/classifier_plantvillage
I0403 18:33:55.485539  7120 net.cpp:91] Creating Layer loss2/classifier_plantvillage
I0403 18:33:55.485559  7120 net.cpp:425] loss2/classifier_plantvillage <- loss2/fc
I0403 18:33:55.485586  7120 net.cpp:399] loss2/classifier_plantvillage -> loss2/classifier_plantvillage
I0403 18:33:55.486089  7120 net.cpp:141] Setting up loss2/classifier_plantvillage
I0403 18:33:55.486121  7120 net.cpp:148] Top shape: 24 38 (912)
I0403 18:33:55.486166  7120 net.cpp:156] Memory required for data: 1208421216
I0403 18:33:55.486191  7120 layer_factory.hpp:77] Creating layer loss2/classifier_plantvillage_loss2/classifier_plantvillage_0_split
I0403 18:33:55.486217  7120 net.cpp:91] Creating Layer loss2/classifier_plantvillage_loss2/classifier_plantvillage_0_split
I0403 18:33:55.486240  7120 net.cpp:425] loss2/classifier_plantvillage_loss2/classifier_plantvillage_0_split <- loss2/classifier_plantvillage
I0403 18:33:55.486263  7120 net.cpp:399] loss2/classifier_plantvillage_loss2/classifier_plantvillage_0_split -> loss2/classifier_plantvillage_loss2/classifier_plantvillage_0_split_0
I0403 18:33:55.486291  7120 net.cpp:399] loss2/classifier_plantvillage_loss2/classifier_plantvillage_0_split -> loss2/classifier_plantvillage_loss2/classifier_plantvillage_0_split_1
I0403 18:33:55.486320  7120 net.cpp:399] loss2/classifier_plantvillage_loss2/classifier_plantvillage_0_split -> loss2/classifier_plantvillage_loss2/classifier_plantvillage_0_split_2
I0403 18:33:55.486421  7120 net.cpp:141] Setting up loss2/classifier_plantvillage_loss2/classifier_plantvillage_0_split
I0403 18:33:55.486450  7120 net.cpp:148] Top shape: 24 38 (912)
I0403 18:33:55.486470  7120 net.cpp:148] Top shape: 24 38 (912)
I0403 18:33:55.486490  7120 net.cpp:148] Top shape: 24 38 (912)
I0403 18:33:55.486507  7120 net.cpp:156] Memory required for data: 1208432160
I0403 18:33:55.486526  7120 layer_factory.hpp:77] Creating layer inception_4e/1x1
I0403 18:33:55.486554  7120 net.cpp:91] Creating Layer inception_4e/1x1
I0403 18:33:55.486577  7120 net.cpp:425] inception_4e/1x1 <- inception_4d/output_inception_4d/output_0_split_1
I0403 18:33:55.486603  7120 net.cpp:399] inception_4e/1x1 -> inception_4e/1x1
I0403 18:33:55.488880  7120 net.cpp:141] Setting up inception_4e/1x1
I0403 18:33:55.488919  7120 net.cpp:148] Top shape: 24 256 14 14 (1204224)
I0403 18:33:55.488940  7120 net.cpp:156] Memory required for data: 1213249056
I0403 18:33:55.488961  7120 layer_factory.hpp:77] Creating layer inception_4e/relu_1x1
I0403 18:33:55.488984  7120 net.cpp:91] Creating Layer inception_4e/relu_1x1
I0403 18:33:55.489003  7120 net.cpp:425] inception_4e/relu_1x1 <- inception_4e/1x1
I0403 18:33:55.489027  7120 net.cpp:386] inception_4e/relu_1x1 -> inception_4e/1x1 (in-place)
I0403 18:33:55.489393  7120 net.cpp:141] Setting up inception_4e/relu_1x1
I0403 18:33:55.489428  7120 net.cpp:148] Top shape: 24 256 14 14 (1204224)
I0403 18:33:55.489447  7120 net.cpp:156] Memory required for data: 1218065952
I0403 18:33:55.489466  7120 layer_factory.hpp:77] Creating layer inception_4e/3x3_reduce
I0403 18:33:55.489495  7120 net.cpp:91] Creating Layer inception_4e/3x3_reduce
I0403 18:33:55.489517  7120 net.cpp:425] inception_4e/3x3_reduce <- inception_4d/output_inception_4d/output_0_split_2
I0403 18:33:55.489542  7120 net.cpp:399] inception_4e/3x3_reduce -> inception_4e/3x3_reduce
I0403 18:33:55.492146  7120 net.cpp:141] Setting up inception_4e/3x3_reduce
I0403 18:33:55.492182  7120 net.cpp:148] Top shape: 24 160 14 14 (752640)
I0403 18:33:55.492202  7120 net.cpp:156] Memory required for data: 1221076512
I0403 18:33:55.492238  7120 layer_factory.hpp:77] Creating layer inception_4e/relu_3x3_reduce
I0403 18:33:55.492269  7120 net.cpp:91] Creating Layer inception_4e/relu_3x3_reduce
I0403 18:33:55.492290  7120 net.cpp:425] inception_4e/relu_3x3_reduce <- inception_4e/3x3_reduce
I0403 18:33:55.492311  7120 net.cpp:386] inception_4e/relu_3x3_reduce -> inception_4e/3x3_reduce (in-place)
I0403 18:33:55.492544  7120 net.cpp:141] Setting up inception_4e/relu_3x3_reduce
I0403 18:33:55.492578  7120 net.cpp:148] Top shape: 24 160 14 14 (752640)
I0403 18:33:55.492596  7120 net.cpp:156] Memory required for data: 1224087072
I0403 18:33:55.492615  7120 layer_factory.hpp:77] Creating layer inception_4e/3x3
I0403 18:33:55.492642  7120 net.cpp:91] Creating Layer inception_4e/3x3
I0403 18:33:55.492665  7120 net.cpp:425] inception_4e/3x3 <- inception_4e/3x3_reduce
I0403 18:33:55.492688  7120 net.cpp:399] inception_4e/3x3 -> inception_4e/3x3
I0403 18:33:55.498896  7120 net.cpp:141] Setting up inception_4e/3x3
I0403 18:33:55.498950  7120 net.cpp:148] Top shape: 24 320 14 14 (1505280)
I0403 18:33:55.498970  7120 net.cpp:156] Memory required for data: 1230108192
I0403 18:33:55.498994  7120 layer_factory.hpp:77] Creating layer inception_4e/relu_3x3
I0403 18:33:55.499017  7120 net.cpp:91] Creating Layer inception_4e/relu_3x3
I0403 18:33:55.499037  7120 net.cpp:425] inception_4e/relu_3x3 <- inception_4e/3x3
I0403 18:33:55.499063  7120 net.cpp:386] inception_4e/relu_3x3 -> inception_4e/3x3 (in-place)
I0403 18:33:55.499439  7120 net.cpp:141] Setting up inception_4e/relu_3x3
I0403 18:33:55.499474  7120 net.cpp:148] Top shape: 24 320 14 14 (1505280)
I0403 18:33:55.499493  7120 net.cpp:156] Memory required for data: 1236129312
I0403 18:33:55.499512  7120 layer_factory.hpp:77] Creating layer inception_4e/5x5_reduce
I0403 18:33:55.499542  7120 net.cpp:91] Creating Layer inception_4e/5x5_reduce
I0403 18:33:55.499565  7120 net.cpp:425] inception_4e/5x5_reduce <- inception_4d/output_inception_4d/output_0_split_3
I0403 18:33:55.499593  7120 net.cpp:399] inception_4e/5x5_reduce -> inception_4e/5x5_reduce
I0403 18:33:55.500916  7120 net.cpp:141] Setting up inception_4e/5x5_reduce
I0403 18:33:55.500951  7120 net.cpp:148] Top shape: 24 32 14 14 (150528)
I0403 18:33:55.500969  7120 net.cpp:156] Memory required for data: 1236731424
I0403 18:33:55.500993  7120 layer_factory.hpp:77] Creating layer inception_4e/relu_5x5_reduce
I0403 18:33:55.501018  7120 net.cpp:91] Creating Layer inception_4e/relu_5x5_reduce
I0403 18:33:55.501037  7120 net.cpp:425] inception_4e/relu_5x5_reduce <- inception_4e/5x5_reduce
I0403 18:33:55.501060  7120 net.cpp:386] inception_4e/relu_5x5_reduce -> inception_4e/5x5_reduce (in-place)
I0403 18:33:55.501427  7120 net.cpp:141] Setting up inception_4e/relu_5x5_reduce
I0403 18:33:55.501461  7120 net.cpp:148] Top shape: 24 32 14 14 (150528)
I0403 18:33:55.501479  7120 net.cpp:156] Memory required for data: 1237333536
I0403 18:33:55.501498  7120 layer_factory.hpp:77] Creating layer inception_4e/5x5
I0403 18:33:55.501546  7120 net.cpp:91] Creating Layer inception_4e/5x5
I0403 18:33:55.501571  7120 net.cpp:425] inception_4e/5x5 <- inception_4e/5x5_reduce
I0403 18:33:55.501596  7120 net.cpp:399] inception_4e/5x5 -> inception_4e/5x5
I0403 18:33:55.503857  7120 net.cpp:141] Setting up inception_4e/5x5
I0403 18:33:55.503891  7120 net.cpp:148] Top shape: 24 128 14 14 (602112)
I0403 18:33:55.503911  7120 net.cpp:156] Memory required for data: 1239741984
I0403 18:33:55.503934  7120 layer_factory.hpp:77] Creating layer inception_4e/relu_5x5
I0403 18:33:55.503958  7120 net.cpp:91] Creating Layer inception_4e/relu_5x5
I0403 18:33:55.503979  7120 net.cpp:425] inception_4e/relu_5x5 <- inception_4e/5x5
I0403 18:33:55.504001  7120 net.cpp:386] inception_4e/relu_5x5 -> inception_4e/5x5 (in-place)
I0403 18:33:55.504253  7120 net.cpp:141] Setting up inception_4e/relu_5x5
I0403 18:33:55.504287  7120 net.cpp:148] Top shape: 24 128 14 14 (602112)
I0403 18:33:55.504307  7120 net.cpp:156] Memory required for data: 1242150432
I0403 18:33:55.504325  7120 layer_factory.hpp:77] Creating layer inception_4e/pool
I0403 18:33:55.504348  7120 net.cpp:91] Creating Layer inception_4e/pool
I0403 18:33:55.504369  7120 net.cpp:425] inception_4e/pool <- inception_4d/output_inception_4d/output_0_split_4
I0403 18:33:55.504391  7120 net.cpp:399] inception_4e/pool -> inception_4e/pool
I0403 18:33:55.504480  7120 net.cpp:141] Setting up inception_4e/pool
I0403 18:33:55.504509  7120 net.cpp:148] Top shape: 24 528 14 14 (2483712)
I0403 18:33:55.504528  7120 net.cpp:156] Memory required for data: 1252085280
I0403 18:33:55.504545  7120 layer_factory.hpp:77] Creating layer inception_4e/pool_proj
I0403 18:33:55.504572  7120 net.cpp:91] Creating Layer inception_4e/pool_proj
I0403 18:33:55.504595  7120 net.cpp:425] inception_4e/pool_proj <- inception_4e/pool
I0403 18:33:55.504621  7120 net.cpp:399] inception_4e/pool_proj -> inception_4e/pool_proj
I0403 18:33:55.506459  7120 net.cpp:141] Setting up inception_4e/pool_proj
I0403 18:33:55.506508  7120 net.cpp:148] Top shape: 24 128 14 14 (602112)
I0403 18:33:55.506530  7120 net.cpp:156] Memory required for data: 1254493728
I0403 18:33:55.506551  7120 layer_factory.hpp:77] Creating layer inception_4e/relu_pool_proj
I0403 18:33:55.506577  7120 net.cpp:91] Creating Layer inception_4e/relu_pool_proj
I0403 18:33:55.506599  7120 net.cpp:425] inception_4e/relu_pool_proj <- inception_4e/pool_proj
I0403 18:33:55.506621  7120 net.cpp:386] inception_4e/relu_pool_proj -> inception_4e/pool_proj (in-place)
I0403 18:33:55.506973  7120 net.cpp:141] Setting up inception_4e/relu_pool_proj
I0403 18:33:55.507006  7120 net.cpp:148] Top shape: 24 128 14 14 (602112)
I0403 18:33:55.507025  7120 net.cpp:156] Memory required for data: 1256902176
I0403 18:33:55.507045  7120 layer_factory.hpp:77] Creating layer inception_4e/output
I0403 18:33:55.507066  7120 net.cpp:91] Creating Layer inception_4e/output
I0403 18:33:55.507086  7120 net.cpp:425] inception_4e/output <- inception_4e/1x1
I0403 18:33:55.507107  7120 net.cpp:425] inception_4e/output <- inception_4e/3x3
I0403 18:33:55.507127  7120 net.cpp:425] inception_4e/output <- inception_4e/5x5
I0403 18:33:55.507145  7120 net.cpp:425] inception_4e/output <- inception_4e/pool_proj
I0403 18:33:55.507170  7120 net.cpp:399] inception_4e/output -> inception_4e/output
I0403 18:33:55.507241  7120 net.cpp:141] Setting up inception_4e/output
I0403 18:33:55.507271  7120 net.cpp:148] Top shape: 24 832 14 14 (3913728)
I0403 18:33:55.507289  7120 net.cpp:156] Memory required for data: 1272557088
I0403 18:33:55.507308  7120 layer_factory.hpp:77] Creating layer pool4/3x3_s2
I0403 18:33:55.507329  7120 net.cpp:91] Creating Layer pool4/3x3_s2
I0403 18:33:55.507349  7120 net.cpp:425] pool4/3x3_s2 <- inception_4e/output
I0403 18:33:55.507375  7120 net.cpp:399] pool4/3x3_s2 -> pool4/3x3_s2
I0403 18:33:55.507459  7120 net.cpp:141] Setting up pool4/3x3_s2
I0403 18:33:55.507488  7120 net.cpp:148] Top shape: 24 832 7 7 (978432)
I0403 18:33:55.507505  7120 net.cpp:156] Memory required for data: 1276470816
I0403 18:33:55.507522  7120 layer_factory.hpp:77] Creating layer pool4/3x3_s2_pool4/3x3_s2_0_split
I0403 18:33:55.507547  7120 net.cpp:91] Creating Layer pool4/3x3_s2_pool4/3x3_s2_0_split
I0403 18:33:55.507568  7120 net.cpp:425] pool4/3x3_s2_pool4/3x3_s2_0_split <- pool4/3x3_s2
I0403 18:33:55.507591  7120 net.cpp:399] pool4/3x3_s2_pool4/3x3_s2_0_split -> pool4/3x3_s2_pool4/3x3_s2_0_split_0
I0403 18:33:55.507614  7120 net.cpp:399] pool4/3x3_s2_pool4/3x3_s2_0_split -> pool4/3x3_s2_pool4/3x3_s2_0_split_1
I0403 18:33:55.507643  7120 net.cpp:399] pool4/3x3_s2_pool4/3x3_s2_0_split -> pool4/3x3_s2_pool4/3x3_s2_0_split_2
I0403 18:33:55.507668  7120 net.cpp:399] pool4/3x3_s2_pool4/3x3_s2_0_split -> pool4/3x3_s2_pool4/3x3_s2_0_split_3
I0403 18:33:55.507778  7120 net.cpp:141] Setting up pool4/3x3_s2_pool4/3x3_s2_0_split
I0403 18:33:55.507807  7120 net.cpp:148] Top shape: 24 832 7 7 (978432)
I0403 18:33:55.507827  7120 net.cpp:148] Top shape: 24 832 7 7 (978432)
I0403 18:33:55.507848  7120 net.cpp:148] Top shape: 24 832 7 7 (978432)
I0403 18:33:55.507866  7120 net.cpp:148] Top shape: 24 832 7 7 (978432)
I0403 18:33:55.507884  7120 net.cpp:156] Memory required for data: 1292125728
I0403 18:33:55.507901  7120 layer_factory.hpp:77] Creating layer inception_5a/1x1
I0403 18:33:55.507930  7120 net.cpp:91] Creating Layer inception_5a/1x1
I0403 18:33:55.507951  7120 net.cpp:425] inception_5a/1x1 <- pool4/3x3_s2_pool4/3x3_s2_0_split_0
I0403 18:33:55.507978  7120 net.cpp:399] inception_5a/1x1 -> inception_5a/1x1
I0403 18:33:55.511490  7120 net.cpp:141] Setting up inception_5a/1x1
I0403 18:33:55.511526  7120 net.cpp:148] Top shape: 24 256 7 7 (301056)
I0403 18:33:55.511545  7120 net.cpp:156] Memory required for data: 1293329952
I0403 18:33:55.511569  7120 layer_factory.hpp:77] Creating layer inception_5a/relu_1x1
I0403 18:33:55.511595  7120 net.cpp:91] Creating Layer inception_5a/relu_1x1
I0403 18:33:55.511616  7120 net.cpp:425] inception_5a/relu_1x1 <- inception_5a/1x1
I0403 18:33:55.511638  7120 net.cpp:386] inception_5a/relu_1x1 -> inception_5a/1x1 (in-place)
I0403 18:33:55.512027  7120 net.cpp:141] Setting up inception_5a/relu_1x1
I0403 18:33:55.512059  7120 net.cpp:148] Top shape: 24 256 7 7 (301056)
I0403 18:33:55.512078  7120 net.cpp:156] Memory required for data: 1294534176
I0403 18:33:55.512096  7120 layer_factory.hpp:77] Creating layer inception_5a/3x3_reduce
I0403 18:33:55.512123  7120 net.cpp:91] Creating Layer inception_5a/3x3_reduce
I0403 18:33:55.512145  7120 net.cpp:425] inception_5a/3x3_reduce <- pool4/3x3_s2_pool4/3x3_s2_0_split_1
I0403 18:33:55.512172  7120 net.cpp:399] inception_5a/3x3_reduce -> inception_5a/3x3_reduce
I0403 18:33:55.515202  7120 net.cpp:141] Setting up inception_5a/3x3_reduce
I0403 18:33:55.515244  7120 net.cpp:148] Top shape: 24 160 7 7 (188160)
I0403 18:33:55.515264  7120 net.cpp:156] Memory required for data: 1295286816
I0403 18:33:55.515286  7120 layer_factory.hpp:77] Creating layer inception_5a/relu_3x3_reduce
I0403 18:33:55.515310  7120 net.cpp:91] Creating Layer inception_5a/relu_3x3_reduce
I0403 18:33:55.515331  7120 net.cpp:425] inception_5a/relu_3x3_reduce <- inception_5a/3x3_reduce
I0403 18:33:55.515354  7120 net.cpp:386] inception_5a/relu_3x3_reduce -> inception_5a/3x3_reduce (in-place)
I0403 18:33:55.515588  7120 net.cpp:141] Setting up inception_5a/relu_3x3_reduce
I0403 18:33:55.515619  7120 net.cpp:148] Top shape: 24 160 7 7 (188160)
I0403 18:33:55.515638  7120 net.cpp:156] Memory required for data: 1296039456
I0403 18:33:55.515658  7120 layer_factory.hpp:77] Creating layer inception_5a/3x3
I0403 18:33:55.515686  7120 net.cpp:91] Creating Layer inception_5a/3x3
I0403 18:33:55.515707  7120 net.cpp:425] inception_5a/3x3 <- inception_5a/3x3_reduce
I0403 18:33:55.515733  7120 net.cpp:399] inception_5a/3x3 -> inception_5a/3x3
I0403 18:33:55.521939  7120 net.cpp:141] Setting up inception_5a/3x3
I0403 18:33:55.521977  7120 net.cpp:148] Top shape: 24 320 7 7 (376320)
I0403 18:33:55.521997  7120 net.cpp:156] Memory required for data: 1297544736
I0403 18:33:55.522020  7120 layer_factory.hpp:77] Creating layer inception_5a/relu_3x3
I0403 18:33:55.522047  7120 net.cpp:91] Creating Layer inception_5a/relu_3x3
I0403 18:33:55.522068  7120 net.cpp:425] inception_5a/relu_3x3 <- inception_5a/3x3
I0403 18:33:55.522090  7120 net.cpp:386] inception_5a/relu_3x3 -> inception_5a/3x3 (in-place)
I0403 18:33:55.522464  7120 net.cpp:141] Setting up inception_5a/relu_3x3
I0403 18:33:55.522497  7120 net.cpp:148] Top shape: 24 320 7 7 (376320)
I0403 18:33:55.522516  7120 net.cpp:156] Memory required for data: 1299050016
I0403 18:33:55.522536  7120 layer_factory.hpp:77] Creating layer inception_5a/5x5_reduce
I0403 18:33:55.522564  7120 net.cpp:91] Creating Layer inception_5a/5x5_reduce
I0403 18:33:55.522588  7120 net.cpp:425] inception_5a/5x5_reduce <- pool4/3x3_s2_pool4/3x3_s2_0_split_2
I0403 18:33:55.522614  7120 net.cpp:399] inception_5a/5x5_reduce -> inception_5a/5x5_reduce
I0403 18:33:55.524052  7120 net.cpp:141] Setting up inception_5a/5x5_reduce
I0403 18:33:55.524091  7120 net.cpp:148] Top shape: 24 32 7 7 (37632)
I0403 18:33:55.524111  7120 net.cpp:156] Memory required for data: 1299200544
I0403 18:33:55.524134  7120 layer_factory.hpp:77] Creating layer inception_5a/relu_5x5_reduce
I0403 18:33:55.524158  7120 net.cpp:91] Creating Layer inception_5a/relu_5x5_reduce
I0403 18:33:55.524179  7120 net.cpp:425] inception_5a/relu_5x5_reduce <- inception_5a/5x5_reduce
I0403 18:33:55.524201  7120 net.cpp:386] inception_5a/relu_5x5_reduce -> inception_5a/5x5_reduce (in-place)
I0403 18:33:55.524571  7120 net.cpp:141] Setting up inception_5a/relu_5x5_reduce
I0403 18:33:55.524606  7120 net.cpp:148] Top shape: 24 32 7 7 (37632)
I0403 18:33:55.524626  7120 net.cpp:156] Memory required for data: 1299351072
I0403 18:33:55.524646  7120 layer_factory.hpp:77] Creating layer inception_5a/5x5
I0403 18:33:55.524673  7120 net.cpp:91] Creating Layer inception_5a/5x5
I0403 18:33:55.524695  7120 net.cpp:425] inception_5a/5x5 <- inception_5a/5x5_reduce
I0403 18:33:55.524718  7120 net.cpp:399] inception_5a/5x5 -> inception_5a/5x5
I0403 18:33:55.526840  7120 net.cpp:141] Setting up inception_5a/5x5
I0403 18:33:55.526891  7120 net.cpp:148] Top shape: 24 128 7 7 (150528)
I0403 18:33:55.526911  7120 net.cpp:156] Memory required for data: 1299953184
I0403 18:33:55.526934  7120 layer_factory.hpp:77] Creating layer inception_5a/relu_5x5
I0403 18:33:55.526959  7120 net.cpp:91] Creating Layer inception_5a/relu_5x5
I0403 18:33:55.526981  7120 net.cpp:425] inception_5a/relu_5x5 <- inception_5a/5x5
I0403 18:33:55.527004  7120 net.cpp:386] inception_5a/relu_5x5 -> inception_5a/5x5 (in-place)
I0403 18:33:55.527248  7120 net.cpp:141] Setting up inception_5a/relu_5x5
I0403 18:33:55.527283  7120 net.cpp:148] Top shape: 24 128 7 7 (150528)
I0403 18:33:55.527302  7120 net.cpp:156] Memory required for data: 1300555296
I0403 18:33:55.527320  7120 layer_factory.hpp:77] Creating layer inception_5a/pool
I0403 18:33:55.527344  7120 net.cpp:91] Creating Layer inception_5a/pool
I0403 18:33:55.527366  7120 net.cpp:425] inception_5a/pool <- pool4/3x3_s2_pool4/3x3_s2_0_split_3
I0403 18:33:55.527390  7120 net.cpp:399] inception_5a/pool -> inception_5a/pool
I0403 18:33:55.527477  7120 net.cpp:141] Setting up inception_5a/pool
I0403 18:33:55.527506  7120 net.cpp:148] Top shape: 24 832 7 7 (978432)
I0403 18:33:55.527525  7120 net.cpp:156] Memory required for data: 1304469024
I0403 18:33:55.527544  7120 layer_factory.hpp:77] Creating layer inception_5a/pool_proj
I0403 18:33:55.527572  7120 net.cpp:91] Creating Layer inception_5a/pool_proj
I0403 18:33:55.527595  7120 net.cpp:425] inception_5a/pool_proj <- inception_5a/pool
I0403 18:33:55.527619  7120 net.cpp:399] inception_5a/pool_proj -> inception_5a/pool_proj
I0403 18:33:55.530453  7120 net.cpp:141] Setting up inception_5a/pool_proj
I0403 18:33:55.530491  7120 net.cpp:148] Top shape: 24 128 7 7 (150528)
I0403 18:33:55.530510  7120 net.cpp:156] Memory required for data: 1305071136
I0403 18:33:55.530534  7120 layer_factory.hpp:77] Creating layer inception_5a/relu_pool_proj
I0403 18:33:55.530560  7120 net.cpp:91] Creating Layer inception_5a/relu_pool_proj
I0403 18:33:55.530581  7120 net.cpp:425] inception_5a/relu_pool_proj <- inception_5a/pool_proj
I0403 18:33:55.530603  7120 net.cpp:386] inception_5a/relu_pool_proj -> inception_5a/pool_proj (in-place)
I0403 18:33:55.530963  7120 net.cpp:141] Setting up inception_5a/relu_pool_proj
I0403 18:33:55.530997  7120 net.cpp:148] Top shape: 24 128 7 7 (150528)
I0403 18:33:55.531016  7120 net.cpp:156] Memory required for data: 1305673248
I0403 18:33:55.531034  7120 layer_factory.hpp:77] Creating layer inception_5a/output
I0403 18:33:55.531055  7120 net.cpp:91] Creating Layer inception_5a/output
I0403 18:33:55.531076  7120 net.cpp:425] inception_5a/output <- inception_5a/1x1
I0403 18:33:55.531100  7120 net.cpp:425] inception_5a/output <- inception_5a/3x3
I0403 18:33:55.531121  7120 net.cpp:425] inception_5a/output <- inception_5a/5x5
I0403 18:33:55.531141  7120 net.cpp:425] inception_5a/output <- inception_5a/pool_proj
I0403 18:33:55.531162  7120 net.cpp:399] inception_5a/output -> inception_5a/output
I0403 18:33:55.531226  7120 net.cpp:141] Setting up inception_5a/output
I0403 18:33:55.531260  7120 net.cpp:148] Top shape: 24 832 7 7 (978432)
I0403 18:33:55.531280  7120 net.cpp:156] Memory required for data: 1309586976
I0403 18:33:55.531297  7120 layer_factory.hpp:77] Creating layer inception_5a/output_inception_5a/output_0_split
I0403 18:33:55.531321  7120 net.cpp:91] Creating Layer inception_5a/output_inception_5a/output_0_split
I0403 18:33:55.531339  7120 net.cpp:425] inception_5a/output_inception_5a/output_0_split <- inception_5a/output
I0403 18:33:55.531368  7120 net.cpp:399] inception_5a/output_inception_5a/output_0_split -> inception_5a/output_inception_5a/output_0_split_0
I0403 18:33:55.531397  7120 net.cpp:399] inception_5a/output_inception_5a/output_0_split -> inception_5a/output_inception_5a/output_0_split_1
I0403 18:33:55.531422  7120 net.cpp:399] inception_5a/output_inception_5a/output_0_split -> inception_5a/output_inception_5a/output_0_split_2
I0403 18:33:55.531447  7120 net.cpp:399] inception_5a/output_inception_5a/output_0_split -> inception_5a/output_inception_5a/output_0_split_3
I0403 18:33:55.531584  7120 net.cpp:141] Setting up inception_5a/output_inception_5a/output_0_split
I0403 18:33:55.531617  7120 net.cpp:148] Top shape: 24 832 7 7 (978432)
I0403 18:33:55.531640  7120 net.cpp:148] Top shape: 24 832 7 7 (978432)
I0403 18:33:55.531659  7120 net.cpp:148] Top shape: 24 832 7 7 (978432)
I0403 18:33:55.531678  7120 net.cpp:148] Top shape: 24 832 7 7 (978432)
I0403 18:33:55.531695  7120 net.cpp:156] Memory required for data: 1325241888
I0403 18:33:55.531714  7120 layer_factory.hpp:77] Creating layer inception_5b/1x1
I0403 18:33:55.531743  7120 net.cpp:91] Creating Layer inception_5b/1x1
I0403 18:33:55.531766  7120 net.cpp:425] inception_5b/1x1 <- inception_5a/output_inception_5a/output_0_split_0
I0403 18:33:55.531790  7120 net.cpp:399] inception_5b/1x1 -> inception_5b/1x1
I0403 18:33:55.536442  7120 net.cpp:141] Setting up inception_5b/1x1
I0403 18:33:55.536480  7120 net.cpp:148] Top shape: 24 384 7 7 (451584)
I0403 18:33:55.536500  7120 net.cpp:156] Memory required for data: 1327048224
I0403 18:33:55.536525  7120 layer_factory.hpp:77] Creating layer inception_5b/relu_1x1
I0403 18:33:55.536547  7120 net.cpp:91] Creating Layer inception_5b/relu_1x1
I0403 18:33:55.536568  7120 net.cpp:425] inception_5b/relu_1x1 <- inception_5b/1x1
I0403 18:33:55.536592  7120 net.cpp:386] inception_5b/relu_1x1 -> inception_5b/1x1 (in-place)
I0403 18:33:55.536963  7120 net.cpp:141] Setting up inception_5b/relu_1x1
I0403 18:33:55.536996  7120 net.cpp:148] Top shape: 24 384 7 7 (451584)
I0403 18:33:55.537015  7120 net.cpp:156] Memory required for data: 1328854560
I0403 18:33:55.537034  7120 layer_factory.hpp:77] Creating layer inception_5b/3x3_reduce
I0403 18:33:55.537062  7120 net.cpp:91] Creating Layer inception_5b/3x3_reduce
I0403 18:33:55.537084  7120 net.cpp:425] inception_5b/3x3_reduce <- inception_5a/output_inception_5a/output_0_split_1
I0403 18:33:55.537112  7120 net.cpp:399] inception_5b/3x3_reduce -> inception_5b/3x3_reduce
I0403 18:33:55.540391  7120 net.cpp:141] Setting up inception_5b/3x3_reduce
I0403 18:33:55.540427  7120 net.cpp:148] Top shape: 24 192 7 7 (225792)
I0403 18:33:55.540446  7120 net.cpp:156] Memory required for data: 1329757728
I0403 18:33:55.540469  7120 layer_factory.hpp:77] Creating layer inception_5b/relu_3x3_reduce
I0403 18:33:55.540495  7120 net.cpp:91] Creating Layer inception_5b/relu_3x3_reduce
I0403 18:33:55.540518  7120 net.cpp:425] inception_5b/relu_3x3_reduce <- inception_5b/3x3_reduce
I0403 18:33:55.540539  7120 net.cpp:386] inception_5b/relu_3x3_reduce -> inception_5b/3x3_reduce (in-place)
I0403 18:33:55.540774  7120 net.cpp:141] Setting up inception_5b/relu_3x3_reduce
I0403 18:33:55.540805  7120 net.cpp:148] Top shape: 24 192 7 7 (225792)
I0403 18:33:55.540824  7120 net.cpp:156] Memory required for data: 1330660896
I0403 18:33:55.540843  7120 layer_factory.hpp:77] Creating layer inception_5b/3x3
I0403 18:33:55.540870  7120 net.cpp:91] Creating Layer inception_5b/3x3
I0403 18:33:55.540896  7120 net.cpp:425] inception_5b/3x3 <- inception_5b/3x3_reduce
I0403 18:33:55.540920  7120 net.cpp:399] inception_5b/3x3 -> inception_5b/3x3
I0403 18:33:55.549281  7120 net.cpp:141] Setting up inception_5b/3x3
I0403 18:33:55.549320  7120 net.cpp:148] Top shape: 24 384 7 7 (451584)
I0403 18:33:55.549340  7120 net.cpp:156] Memory required for data: 1332467232
I0403 18:33:55.549365  7120 layer_factory.hpp:77] Creating layer inception_5b/relu_3x3
I0403 18:33:55.549389  7120 net.cpp:91] Creating Layer inception_5b/relu_3x3
I0403 18:33:55.549410  7120 net.cpp:425] inception_5b/relu_3x3 <- inception_5b/3x3
I0403 18:33:55.549432  7120 net.cpp:386] inception_5b/relu_3x3 -> inception_5b/3x3 (in-place)
I0403 18:33:55.549795  7120 net.cpp:141] Setting up inception_5b/relu_3x3
I0403 18:33:55.549829  7120 net.cpp:148] Top shape: 24 384 7 7 (451584)
I0403 18:33:55.549847  7120 net.cpp:156] Memory required for data: 1334273568
I0403 18:33:55.549866  7120 layer_factory.hpp:77] Creating layer inception_5b/5x5_reduce
I0403 18:33:55.549919  7120 net.cpp:91] Creating Layer inception_5b/5x5_reduce
I0403 18:33:55.549943  7120 net.cpp:425] inception_5b/5x5_reduce <- inception_5a/output_inception_5a/output_0_split_2
I0403 18:33:55.549970  7120 net.cpp:399] inception_5b/5x5_reduce -> inception_5b/5x5_reduce
I0403 18:33:55.551548  7120 net.cpp:141] Setting up inception_5b/5x5_reduce
I0403 18:33:55.551583  7120 net.cpp:148] Top shape: 24 48 7 7 (56448)
I0403 18:33:55.551601  7120 net.cpp:156] Memory required for data: 1334499360
I0403 18:33:55.551625  7120 layer_factory.hpp:77] Creating layer inception_5b/relu_5x5_reduce
I0403 18:33:55.551650  7120 net.cpp:91] Creating Layer inception_5b/relu_5x5_reduce
I0403 18:33:55.551672  7120 net.cpp:425] inception_5b/relu_5x5_reduce <- inception_5b/5x5_reduce
I0403 18:33:55.551695  7120 net.cpp:386] inception_5b/relu_5x5_reduce -> inception_5b/5x5_reduce (in-place)
I0403 18:33:55.552155  7120 net.cpp:141] Setting up inception_5b/relu_5x5_reduce
I0403 18:33:55.552187  7120 net.cpp:148] Top shape: 24 48 7 7 (56448)
I0403 18:33:55.552206  7120 net.cpp:156] Memory required for data: 1334725152
I0403 18:33:55.552242  7120 layer_factory.hpp:77] Creating layer inception_5b/5x5
I0403 18:33:55.552268  7120 net.cpp:91] Creating Layer inception_5b/5x5
I0403 18:33:55.552289  7120 net.cpp:425] inception_5b/5x5 <- inception_5b/5x5_reduce
I0403 18:33:55.552314  7120 net.cpp:399] inception_5b/5x5 -> inception_5b/5x5
I0403 18:33:55.554867  7120 net.cpp:141] Setting up inception_5b/5x5
I0403 18:33:55.554900  7120 net.cpp:148] Top shape: 24 128 7 7 (150528)
I0403 18:33:55.554919  7120 net.cpp:156] Memory required for data: 1335327264
I0403 18:33:55.554944  7120 layer_factory.hpp:77] Creating layer inception_5b/relu_5x5
I0403 18:33:55.554970  7120 net.cpp:91] Creating Layer inception_5b/relu_5x5
I0403 18:33:55.554991  7120 net.cpp:425] inception_5b/relu_5x5 <- inception_5b/5x5
I0403 18:33:55.555014  7120 net.cpp:386] inception_5b/relu_5x5 -> inception_5b/5x5 (in-place)
I0403 18:33:55.555263  7120 net.cpp:141] Setting up inception_5b/relu_5x5
I0403 18:33:55.555295  7120 net.cpp:148] Top shape: 24 128 7 7 (150528)
I0403 18:33:55.555315  7120 net.cpp:156] Memory required for data: 1335929376
I0403 18:33:55.555333  7120 layer_factory.hpp:77] Creating layer inception_5b/pool
I0403 18:33:55.555356  7120 net.cpp:91] Creating Layer inception_5b/pool
I0403 18:33:55.555376  7120 net.cpp:425] inception_5b/pool <- inception_5a/output_inception_5a/output_0_split_3
I0403 18:33:55.555402  7120 net.cpp:399] inception_5b/pool -> inception_5b/pool
I0403 18:33:55.555491  7120 net.cpp:141] Setting up inception_5b/pool
I0403 18:33:55.555521  7120 net.cpp:148] Top shape: 24 832 7 7 (978432)
I0403 18:33:55.555539  7120 net.cpp:156] Memory required for data: 1339843104
I0403 18:33:55.555558  7120 layer_factory.hpp:77] Creating layer inception_5b/pool_proj
I0403 18:33:55.555586  7120 net.cpp:91] Creating Layer inception_5b/pool_proj
I0403 18:33:55.555608  7120 net.cpp:425] inception_5b/pool_proj <- inception_5b/pool
I0403 18:33:55.555634  7120 net.cpp:399] inception_5b/pool_proj -> inception_5b/pool_proj
I0403 18:33:55.558490  7120 net.cpp:141] Setting up inception_5b/pool_proj
I0403 18:33:55.558527  7120 net.cpp:148] Top shape: 24 128 7 7 (150528)
I0403 18:33:55.558547  7120 net.cpp:156] Memory required for data: 1340445216
I0403 18:33:55.558569  7120 layer_factory.hpp:77] Creating layer inception_5b/relu_pool_proj
I0403 18:33:55.558595  7120 net.cpp:91] Creating Layer inception_5b/relu_pool_proj
I0403 18:33:55.558617  7120 net.cpp:425] inception_5b/relu_pool_proj <- inception_5b/pool_proj
I0403 18:33:55.558640  7120 net.cpp:386] inception_5b/relu_pool_proj -> inception_5b/pool_proj (in-place)
I0403 18:33:55.559005  7120 net.cpp:141] Setting up inception_5b/relu_pool_proj
I0403 18:33:55.559038  7120 net.cpp:148] Top shape: 24 128 7 7 (150528)
I0403 18:33:55.559057  7120 net.cpp:156] Memory required for data: 1341047328
I0403 18:33:55.559077  7120 layer_factory.hpp:77] Creating layer inception_5b/output
I0403 18:33:55.559099  7120 net.cpp:91] Creating Layer inception_5b/output
I0403 18:33:55.559139  7120 net.cpp:425] inception_5b/output <- inception_5b/1x1
I0403 18:33:55.559162  7120 net.cpp:425] inception_5b/output <- inception_5b/3x3
I0403 18:33:55.559182  7120 net.cpp:425] inception_5b/output <- inception_5b/5x5
I0403 18:33:55.559202  7120 net.cpp:425] inception_5b/output <- inception_5b/pool_proj
I0403 18:33:55.559234  7120 net.cpp:399] inception_5b/output -> inception_5b/output
I0403 18:33:55.559305  7120 net.cpp:141] Setting up inception_5b/output
I0403 18:33:55.559335  7120 net.cpp:148] Top shape: 24 1024 7 7 (1204224)
I0403 18:33:55.559353  7120 net.cpp:156] Memory required for data: 1345864224
I0403 18:33:55.559372  7120 layer_factory.hpp:77] Creating layer pool5/7x7_s1
I0403 18:33:55.559396  7120 net.cpp:91] Creating Layer pool5/7x7_s1
I0403 18:33:55.559415  7120 net.cpp:425] pool5/7x7_s1 <- inception_5b/output
I0403 18:33:55.559442  7120 net.cpp:399] pool5/7x7_s1 -> pool5/7x7_s1
I0403 18:33:55.559710  7120 net.cpp:141] Setting up pool5/7x7_s1
I0403 18:33:55.559741  7120 net.cpp:148] Top shape: 24 1024 1 1 (24576)
I0403 18:33:55.559761  7120 net.cpp:156] Memory required for data: 1345962528
I0403 18:33:55.559778  7120 layer_factory.hpp:77] Creating layer pool5/drop_7x7_s1
I0403 18:33:55.559803  7120 net.cpp:91] Creating Layer pool5/drop_7x7_s1
I0403 18:33:55.559824  7120 net.cpp:425] pool5/drop_7x7_s1 <- pool5/7x7_s1
I0403 18:33:55.559846  7120 net.cpp:386] pool5/drop_7x7_s1 -> pool5/7x7_s1 (in-place)
I0403 18:33:55.559911  7120 net.cpp:141] Setting up pool5/drop_7x7_s1
I0403 18:33:55.559939  7120 net.cpp:148] Top shape: 24 1024 1 1 (24576)
I0403 18:33:55.559957  7120 net.cpp:156] Memory required for data: 1346060832
I0403 18:33:55.559976  7120 layer_factory.hpp:77] Creating layer loss3/classifier_plantvillage
I0403 18:33:55.560000  7120 net.cpp:91] Creating Layer loss3/classifier_plantvillage
I0403 18:33:55.560020  7120 net.cpp:425] loss3/classifier_plantvillage <- pool5/7x7_s1
I0403 18:33:55.560046  7120 net.cpp:399] loss3/classifier_plantvillage -> loss3/classifier_plantvillage
I0403 18:33:55.560581  7120 net.cpp:141] Setting up loss3/classifier_plantvillage
I0403 18:33:55.560611  7120 net.cpp:148] Top shape: 24 38 (912)
I0403 18:33:55.560631  7120 net.cpp:156] Memory required for data: 1346064480
I0403 18:33:55.560652  7120 layer_factory.hpp:77] Creating layer loss3/classifier_plantvillage_loss3/classifier_plantvillage_0_split
I0403 18:33:55.560677  7120 net.cpp:91] Creating Layer loss3/classifier_plantvillage_loss3/classifier_plantvillage_0_split
I0403 18:33:55.560696  7120 net.cpp:425] loss3/classifier_plantvillage_loss3/classifier_plantvillage_0_split <- loss3/classifier_plantvillage
I0403 18:33:55.560721  7120 net.cpp:399] loss3/classifier_plantvillage_loss3/classifier_plantvillage_0_split -> loss3/classifier_plantvillage_loss3/classifier_plantvillage_0_split_0
I0403 18:33:55.560748  7120 net.cpp:399] loss3/classifier_plantvillage_loss3/classifier_plantvillage_0_split -> loss3/classifier_plantvillage_loss3/classifier_plantvillage_0_split_1
I0403 18:33:55.560773  7120 net.cpp:399] loss3/classifier_plantvillage_loss3/classifier_plantvillage_0_split -> loss3/classifier_plantvillage_loss3/classifier_plantvillage_0_split_2
I0403 18:33:55.560798  7120 net.cpp:399] loss3/classifier_plantvillage_loss3/classifier_plantvillage_0_split -> loss3/classifier_plantvillage_loss3/classifier_plantvillage_0_split_3
I0403 18:33:55.560925  7120 net.cpp:141] Setting up loss3/classifier_plantvillage_loss3/classifier_plantvillage_0_split
I0403 18:33:55.560955  7120 net.cpp:148] Top shape: 24 38 (912)
I0403 18:33:55.560974  7120 net.cpp:148] Top shape: 24 38 (912)
I0403 18:33:55.560994  7120 net.cpp:148] Top shape: 24 38 (912)
I0403 18:33:55.561012  7120 net.cpp:148] Top shape: 24 38 (912)
I0403 18:33:55.561030  7120 net.cpp:156] Memory required for data: 1346079072
I0403 18:33:55.561050  7120 layer_factory.hpp:77] Creating layer loss1/loss
I0403 18:33:55.561077  7120 net.cpp:91] Creating Layer loss1/loss
I0403 18:33:55.561099  7120 net.cpp:425] loss1/loss <- loss1/classifier_plantvillage_loss1/classifier_plantvillage_0_split_0
I0403 18:33:55.561137  7120 net.cpp:425] loss1/loss <- label_data_1_split_0
…
