…
I0403 18:32:08.215010  7093 net.cpp:313] The NetState phase (1) differed from the phase (0) specified by a rule in layer data
I0403 18:32:08.216267  7093 net.cpp:49] Initializing net from parameters: 
state {
  phase: TEST
}
layer {
  name: "data"
  type: "Data"
  top: "data"
  top: "label"
  include {
    phase: TEST
  }
  transform_param {
    mirror: false
    crop_size: 224
    mean_file: "/home/mohanty/data/final_dataset/lmdb/segmented-50-50/mean.binaryproto"
  }
  data_param {
    source: "/home/mohanty/data/final_dataset/lmdb/segmented-50-50/test_db"
    batch_size: 24
    backend: LMDB
  }
}
layer {
  name: "conv1/7x7_s2"
  type: "Convolution"
  bottom: "data"
  top: "conv1/7x7_s2"
  param {
    lr_mult: 1
    decay_mult: 1
  }
  param {
    lr_mult: 2
    decay_mult: 0
  }
  convolution_param {
    num_output: 64
    pad: 3
    kernel_size: 7
    stride: 2
    weight_filler {
      type: "xavier"
      std: 0.1
    }
    bias_filler {
      type: "constant"
      value: 0.2
    }
  }
}
layer {
  name: "conv1/relu_7x7"
  type: "ReLU"
  bottom: "conv1/7x7_s2"
  top: "conv1/7x7_s2"
}
layer {
  name: "pool1/3x3_s2"
  type: "Pooling"
  bottom: "conv1/7x7_s2"
  top: "pool1/3x3_s2"
  pooling_param {
    pool: MAX
    kernel_size: 3
    stride: 2
  }
}
layer {
  name: "pool1/norm1"
  type: "LRN"
  bottom: "pool1/3x3_s2"
  top: "pool1/norm1"
  lrn_param {
    local_size: 5
    alpha: 0.0001
    beta: 0.75
  }
}
layer {
  name: "conv2/3x3_reduce"
  type: "Convolution"
  bottom: "pool1/norm1"
  top: "conv2/3x3_reduce"
  param {
    lr_mult: 1
    decay_mult: 1
  }
  param {
    lr_mult: 2
    decay_mult: 0
  }
  convolution_param {
    num_output: 64
    kernel_size: 1
    weight_filler {
      type: "xavier"
      std: 0.1
    }
    bias_filler {
      type: "constant"
      value: 0.2
    }
  }
}
layer {
  name: "conv2/relu_3x3_reduce"
  type: "ReLU"
  bottom: "conv2/3x3_reduce"
  top: "conv2/3x3_reduce"
}
layer {
  name: "conv2/3x3"
  type: "Convolution"
  bottom: "conv2/3x3_reduce"
  top: "conv2/3x3"
  param {
    lr_mult: 1
    decay_mult: 1
  }
  param {
    lr_mult: 2
    decay_mult: 0
  }
  convolution_param {
    num_output: 192
    pad: 1
    kernel_size: 3
    weight_filler {
      type: "xavier"
      std: 0.03
    }
    bias_filler {
      type: "constant"
      value: 0.2
    }
  }
}
layer {
  name: "conv2/relu_3x3"
  type: "ReLU"
  bottom: "conv2/3x3"
  top: "conv2/3x3"
}
layer {
  name: "conv2/norm2"
  type: "LRN"
  bottom: "conv2/3x3"
  top: "conv2/norm2"
  lrn_param {
    local_size: 5
    alpha: 0.0001
    beta: 0.75
  }
}
layer {
  name: "pool2/3x3_s2"
  type: "Pooling"
  bottom: "conv2/norm2"
  top: "pool2/3x3_s2"
  pooling_param {
    pool: MAX
    kernel_size: 3
    stride: 2
  }
}
layer {
  name: "inception_3a/1x1"
  type: "Convolution"
  bottom: "pool2/3x3_s2"
  top: "inception_3a/1x1"
  param {
    lr_mult: 1
    decay_mult: 1
  }
  param {
    lr_mult: 2
    decay_mult: 0
  }
  convolution_param {
    num_output: 64
    kernel_size: 1
    weight_filler {
      type: "xavier"
      std: 0.03
    }
    bias_filler {
      type: "constant"
      value: 0.2
    }
  }
}
layer {
  name: "inception_3a/relu_1x1"
  type: "ReLU"
  bottom: "inception_3a/1x1"
  top: "inception_3a/1x1"
}
layer {
  name: "inception_3a/3x3_reduce"
  type: "Convolution"
  bottom: "pool2/3x3_s2"
  top: "inception_3a/3x3_reduce"
  param {
    lr_mult: 1
    decay_mult: 1
  }
  param {
    lr_mult: 2
    decay_mult: 0
  }
  convolution_param {
    num_output: 96
    kernel_size: 1
    weight_filler {
      type: "xavier"
      std: 0.09
    }
    bias_filler {
      type: "constant"
      value: 0.2
    }
  }
}
layer {
  name: "inception_3a/relu_3x3_reduce"
  type: "ReLU"
  bottom: "inception_3a/3x3_reduce"
  top: "inception_3a/3x3_reduce"
}
layer {
  name: "inception_3a/3x3"
  type: "Convolution"
  bottom: "inception_3a/3x3_reduce"
  top: "inception_3a/3x3"
  param {
    lr_mult: 1
    decay_mult: 1
  }
  param {
    lr_mult: 2
    decay_mult: 0
  }
  convolution_param {
    num_output: 128
    pad: 1
    kernel_size: 3
    weight_filler {
      type: "xavier"
      std: 0.03
    }
    bias_filler {
      type: "constant"
      value: 0.2
    }
  }
}
layer {
  name: "inception_3a/relu_3x3"
  type: "ReLU"
  bottom: "inception_3a/3x3"
  top: "inception_3a/3x3"
}
layer {
  name: "inception_3a/5x5_reduce"
  type: "Convolution"
  bottom: "pool2/3x3_s2"
  top: "inception_3a/5x5_reduce"
  param {
    lr_mult: 1
    decay_mult: 1
  }
  param {
    lr_mult: 2
    decay_mult: 0
  }
  convolution_param {
    num_output: 16
    kernel_size: 1
    weight_filler {
      type: "xavier"
      std: 0.2
    }
    bias_filler {
      type: "constant"
      value: 0.2
    }
  }
}
layer {
  name: "inception_3a/relu_5x5_reduce"
  type: "ReLU"
  bottom: "inception_3a/5x5_reduce"
  top: "inception_3a/5x5_reduce"
}
layer {
  name: "inception_3a/5x5"
  type: "Convolution"
  bottom: "inception_3a/5x5_reduce"
  top: "inception_3a/5x5"
  param {
    lr_mult: 1
    decay_mult: 1
  }
  param {
    lr_mult: 2
    decay_mult: 0
  }
  convolution_param {
    num_output: 32
    pad: 2
    kernel_size: 5
    weight_filler {
      type: "xavier"
      std: 0.03
    }
    bias_filler {
      type: "constant"
      value: 0.2
    }
  }
}
layer {
  name: "inception_3a/relu_5x5"
  type: "ReLU"
  bottom: "inception_3a/5x5"
  top: "inception_3a/5x5"
}
layer {
  name: "inception_3a/pool"
  type: "Pooling"
  bottom: "pool2/3x3_s2"
  top: "inception_3a/pool"
  pooling_param {
    pool: MAX
    kernel_size: 3
    stride: 1
    pad: 1
  }
}
layer {
  name: "inception_3a/pool_proj"
  type: "Convolution"
  bottom: "inception_3a/pool"
  top: "inception_3a/pool_proj"
  param {
    lr_mult: 1
    decay_mult: 1
  }
  param {
    lr_mult: 2
    decay_mult: 0
  }
  convolution_param {
    num_output: 32
    kernel_size: 1
    weight_filler {
      type: "xavier"
      std: 0.1
    }
    bias_filler {
      type: "constant"
      value: 0.2
    }
  }
}
layer {
  name: "inception_3a/relu_pool_proj"
  type: "ReLU"
  bottom: "inception_3a/pool_proj"
  top: "inception_3a/pool_proj"
}
layer {
  name: "inception_3a/output"
  type: "Concat"
  bottom: "inception_3a/1x1"
  bottom: "inception_3a/3x3"
  bottom: "inception_3a/5x5"
  bottom: "inception_3a/pool_proj"
  top: "inception_3a/output"
}
layer {
  name: "inception_3b/1x1"
  type: "Convolution"
  bottom: "inception_3a/output"
  top: "inception_3b/1x1"
  param {
    lr_mult: 1
    decay_mult: 1
  }
  param {
    lr_mult: 2
    decay_mult: 0
  }
  convolution_param {
    num_output: 128
    kernel_size: 1
    weight_filler {
      type: "xavier"
      std: 0.03
    }
    bias_filler {
      type: "constant"
      value: 0.2
    }
  }
}
layer {
  name: "inception_3b/relu_1x1"
  type: "ReLU"
  bottom: "inception_3b/1x1"
  top: "inception_3b/1x1"
}
layer {
  name: "inception_3b/3x3_reduce"
  type: "Convolution"
  bottom: "inception_3a/output"
  top: "inception_3b/3x3_reduce"
  param {
    lr_mult: 1
    decay_mult: 1
  }
  param {
    lr_mult: 2
    decay_mult: 0
  }
  convolution_param {
    num_output: 128
    kernel_size: 1
    weight_filler {
      type: "xavier"
      std: 0.09
    }
    bias_filler {
      type: "constant"
      value: 0.2
    }
  }
}
layer {
  name: "inception_3b/relu_3x3_reduce"
  type: "ReLU"
  bottom: "inception_3b/3x3_reduce"
  top: "inception_3b/3x3_reduce"
}
layer {
  name: "inception_3b/3x3"
  type: "Convolution"
  bottom: "inception_3b/3x3_reduce"
  top: "inception_3b/3x3"
  param {
    lr_mult: 1
    decay_mult: 1
  }
  param {
    lr_mult: 2
    decay_mult: 0
  }
  convolution_param {
    num_output: 192
    pad: 1
    kernel_size: 3
    weight_filler {
      type: "xavier"
      std: 0.03
    }
    bias_filler {
      type: "constant"
      value: 0.2
    }
  }
}
layer {
  name: "inception_3b/relu_3x3"
  type: "ReLU"
  bottom: "inception_3b/3x3"
  top: "inception_3b/3x3"
}
layer {
  name: "inception_3b/5x5_reduce"
  type: "Convolution"
  bottom: "inception_3a/output"
  top: "inception_3b/5x5_reduce"
  param {
    lr_mult: 1
    decay_mult: 1
  }
  param {
    lr_mult: 2
    decay_mult: 0
  }
  convolution_param {
    num_output: 32
    kernel_size: 1
    weight_filler {
      type: "xavier"
      std: 0.2
    }
    bias_filler {
      type: "constant"
      value: 0.2
    }
  }
}
layer {
  name: "inception_3b/relu_5x5_reduce"
  type: "ReLU"
  bottom: "inception_3b/5x5_reduce"
  top: "inception_3b/5x5_reduce"
}
layer {
  name: "inception_3b/5x5"
  type: "Convolution"
  bottom: "inception_3b/5x5_reduce"
  top: "inception_3b/5x5"
  param {
    lr_mult: 1
    decay_mult: 1
  }
  param {
    lr_mult: 2
    decay_mult: 0
  }
  convolution_param {
    num_output: 96
    pad: 2
    kernel_size: 5
    weight_filler {
      type: "xavier"
      std: 0.03
    }
    bias_filler {
      type: "constant"
      value: 0.2
    }
  }
}
layer {
  name: "inception_3b/relu_5x5"
  type: "ReLU"
  bottom: "inception_3b/5x5"
  top: "inception_3b/5x5"
}
layer {
  name: "inception_3b/pool"
  type: "Pooling"
  bottom: "inception_3a/output"
  top: "inception_3b/pool"
  pooling_param {
    pool: MAX
    kernel_size: 3
    stride: 1
    pad: 1
  }
}
layer {
  name: "inception_3b/pool_proj"
  type: "Convolution"
  bottom: "inception_3b/pool"
  top: "inception_3b/pool_proj"
  param {
    lr_mult: 1
    decay_mult: 1
  }
  param {
    lr_mult: 2
    decay_mult: 0
  }
  convolution_param {
    num_output: 64
    kernel_size: 1
    weight_filler {
      type: "xavier"
      std: 0.1
    }
    bias_filler {
      type: "constant"
      value: 0.2
    }
  }
}
layer {
  name: "inception_3b/relu_pool_proj"
  type: "ReLU"
  bottom: "inception_3b/pool_proj"
  top: "inception_3b/pool_proj"
}
layer {
  name: "inception_3b/output"
  type: "Concat"
  bottom: "inception_3b/1x1"
  bottom: "inception_3b/3x3"
  bottom: "inception_3b/5x5"
  bottom: "inception_3b/pool_proj"
  top: "inception_3b/output"
}
layer {
  name: "pool3/3x3_s2"
  type: "Pooling"
  bottom: "inception_3b/output"
  top: "pool3/3x3_s2"
  pooling_param {
    pool: MAX
    kernel_size: 3
    stride: 2
  }
}
layer {
  name: "inception_4a/1x1"
  type: "Convolution"
  bottom: "pool3/3x3_s2"
  top: "inception_4a/1x1"
  param {
    lr_mult: 1
    decay_mult: 1
  }
  param {
    lr_mult: 2
    decay_mult: 0
  }
  convolution_param {
    num_output: 192
    kernel_size: 1
    weight_filler {
      type: "xavier"
      std: 0.03
    }
    bias_filler {
      type: "constant"
      value: 0.2
    }
  }
}
layer {
  name: "inception_4a/relu_1x1"
  type: "ReLU"
  bottom: "inception_4a/1x1"
  top: "inception_4a/1x1"
}
layer {
  name: "inception_4a/3x3_reduce"
  type: "Convolution"
  bottom: "pool3/3x3_s2"
  top: "inception_4a/3x3_reduce"
  param {
    lr_mult: 1
    decay_mult: 1
  }
  param {
    lr_mult: 2
    decay_mult: 0
  }
  convolution_param {
    num_output: 96
    kernel_size: 1
    weight_filler {
      type: "xavier"
      std: 0.09
    }
    bias_filler {
      type: "constant"
      value: 0.2
    }
  }
}
layer {
  name: "inception_4a/relu_3x3_reduce"
  type: "ReLU"
  bottom: "inception_4a/3x3_reduce"
  top: "inception_4a/3x3_reduce"
}
layer {
  name: "inception_4a/3x3"
  type: "Convolution"
  bottom: "inception_4a/3x3_reduce"
  top: "inception_4a/3x3"
  param {
    lr_mult: 1
    decay_mult: 1
  }
  param {
    lr_mult: 2
    decay_mult: 0
  }
  convolution_param {
    num_output: 208
    pad: 1
    kernel_size: 3
    weight_filler {
      type: "xavier"
      std: 0.03
    }
    bias_filler {
      type: "constant"
      value: 0.2
    }
  }
}
layer {
  name: "inception_4a/relu_3x3"
  type: "ReLU"
  bottom: "inception_4a/3x3"
  top: "inception_4a/3x3"
}
layer {
  name: "inception_4a/5x5_reduce"
  type: "Convolution"
  bottom: "pool3/3x3_s2"
  top: "inception_4a/5x5_reduce"
  param {
    lr_mult: 1
    decay_mult: 1
  }
  param {
    lr_mult: 2
    decay_mult: 0
  }
  convolution_param {
    num_output: 16
    kernel_size: 1
    weight_filler {
      type: "xavier"
      std: 0.2
    }
    bias_filler {
      type: "constant"
      value: 0.2
    }
  }
}
layer {
  name: "inception_4a/relu_5x5_reduce"
  type: "ReLU"
  bottom: "inception_4a/5x5_reduce"
  top: "inception_4a/5x5_reduce"
}
layer {
  name: "inception_4a/5x5"
  type: "Convolution"
  bottom: "inception_4a/5x5_reduce"
  top: "inception_4a/5x5"
  param {
    lr_mult: 1
    decay_mult: 1
  }
  param {
    lr_mult: 2
    decay_mult: 0
  }
  convolution_param {
    num_output: 48
    pad: 2
    kernel_size: 5
    weight_filler {
      type: "xavier"
      std: 0.03
    }
    bias_filler {
      type: "constant"
      value: 0.2
    }
  }
}
layer {
  name: "inception_4a/relu_5x5"
  type: "ReLU"
  bottom: "inception_4a/5x5"
  top: "inception_4a/5x5"
}
layer {
  name: "inception_4a/pool"
  type: "Pooling"
  bottom: "pool3/3x3_s2"
  top: "inception_4a/pool"
  pooling_param {
    pool: MAX
    kernel_size: 3
    stride: 1
    pad: 1
  }
}
layer {
  name: "inception_4a/pool_proj"
  type: "Convolution"
  bottom: "inception_4a/pool"
  top: "inception_4a/pool_proj"
  param {
    lr_mult: 1
    decay_mult: 1
  }
  param {
    lr_mult: 2
    decay_mult: 0
  }
  convolution_param {
    num_output: 64
    kernel_size: 1
    weight_filler {
      type: "xavier"
      std: 0.1
    }
    bias_filler {
      type: "constant"
      value: 0.2
    }
  }
}
layer {
  name: "inception_4a/relu_pool_proj"
  type: "ReLU"
  bottom: "inception_4a/pool_proj"
  top: "inception_4a/pool_proj"
}
layer {
  name: "inception_4a/output"
  type: "Concat"
  bottom: "inception_4a/1x1"
  bottom: "inception_4a/3x3"
  bottom: "inception_4a/5x5"
  bottom: "inception_4a/pool_proj"
  top: "inception_4a/output"
}
layer {
  name: "loss1/ave_pool"
  type: "Pooling"
  bottom: "inception_4a/output"
  top: "loss1/ave_pool"
  pooling_param {
    pool: AVE
    kernel_size: 5
    stride: 3
  }
}
layer {
  name: "loss1/conv"
  type: "Convolution"
  bottom: "loss1/ave_pool"
  top: "loss1/conv"
  param {
    lr_mult: 1
    decay_mult: 1
  }
  param {
    lr_mult: 2
    decay_mult: 0
  }
  convolution_param {
    num_output: 128
    kernel_size: 1
    weight_filler {
      type: "xavier"
      std: 0.08
    }
    bias_filler {
      type: "constant"
      value: 0.2
    }
  }
}
layer {
  name: "loss1/relu_conv"
  type: "ReLU"
  bottom: "loss1/conv"
  top: "loss1/conv"
}
layer {
  name: "loss1/fc"
  type: "InnerProduct"
  bottom: "loss1/conv"
  top: "loss1/fc"
  param {
    lr_mult: 1
    decay_mult: 1
  }
  param {
    lr_mult: 2
    decay_mult: 0
  }
  inner_product_param {
    num_output: 1024
    weight_filler {
      type: "xavier"
      std: 0.02
    }
    bias_filler {
      type: "constant"
      value: 0.2
    }
  }
}
layer {
  name: "loss1/relu_fc"
  type: "ReLU"
  bottom: "loss1/fc"
  top: "loss1/fc"
}
layer {
  name: "loss1/drop_fc"
  type: "Dropout"
  bottom: "loss1/fc"
  top: "loss1/fc"
  dropout_param {
    dropout_ratio: 0.7
  }
}
layer {
  name: "loss1/classifier_plantvillage"
  type: "InnerProduct"
  bottom: "loss1/fc"
  top: "loss1/classifier_plantvillage"
  param {
    lr_mult: 1
    decay_mult: 1
  }
  param {
    lr_mult: 2
    decay_mult: 0
  }
  inner_product_param {
    num_output: 38
    weight_filler {
      type: "xavier"
      std: 0.0009765625
    }
    bias_filler {
      type: "constant"
      value: 0
    }
  }
}
layer {
  name: "inception_4b/1x1"
  type: "Convolution"
  bottom: "inception_4a/output"
  top: "inception_4b/1x1"
  param {
    lr_mult: 1
    decay_mult: 1
  }
  param {
    lr_mult: 2
    decay_mult: 0
  }
  convolution_param {
    num_output: 160
    kernel_size: 1
    weight_filler {
      type: "xavier"
      std: 0.03
    }
    bias_filler {
      type: "constant"
      value: 0.2
    }
  }
}
layer {
  name: "inception_4b/relu_1x1"
  type: "ReLU"
  bottom: "inception_4b/1x1"
  top: "inception_4b/1x1"
}
layer {
  name: "inception_4b/3x3_reduce"
  type: "Convolution"
  bottom: "inception_4a/output"
  top: "inception_4b/3x3_reduce"
  param {
    lr_mult: 1
    decay_mult: 1
  }
  param {
    lr_mult: 2
    decay_mult: 0
  }
  convolution_param {
    num_output: 112
    kernel_size: 1
    weight_filler {
      type: "xavier"
      std: 0.09
    }
    bias_filler {
      type: "constant"
      value: 0.2
    }
  }
}
layer {
  name: "inception_4b/relu_3x3_reduce"
  type: "ReLU"
  bottom: "inception_4b/3x3_reduce"
  top: "inception_4b/3x3_reduce"
}
layer {
  name: "inception_4b/3x3"
  type: "Convolution"
  bottom: "inception_4b/3x3_reduce"
  top: "inception_4b/3x3"
  param {
    lr_mult: 1
    decay_mult: 1
  }
  param {
    lr_mult: 2
    decay_mult: 0
  }
  convolution_param {
    num_output: 224
    pad: 1
    kernel_size: 3
    weight_filler {
      type: "xavier"
      std: 0.03
    }
    bias_filler {
      type: "constant"
      value: 0.2
    }
  }
}
layer {
  name: "inception_4b/relu_3x3"
  type: "ReLU"
  bottom: "inception_4b/3x3"
  top: "inception_4b/3x3"
}
layer {
  name: "inception_4b/5x5_reduce"
  type: "Convolution"
  bottom: "inception_4a/output"
  top: "inception_4b/5x5_reduce"
  param {
    lr_mult: 1
    decay_mult: 1
  }
  param {
    lr_mult: 2
    decay_mult: 0
  }
  convolution_param {
    num_output: 24
    kernel_size: 1
    weight_filler {
      type: "xavier"
      std: 0.2
    }
    bias_filler {
      type: "constant"
      value: 0.2
    }
  }
}
layer {
  name: "inception_4b/relu_5x5_reduce"
  type: "ReLU"
  bottom: "inception_4b/5x5_reduce"
  top: "inception_4b/5x5_reduce"
}
layer {
  name: "inception_4b/5x5"
  type: "Convolution"
  bottom: "inception_4b/5x5_reduce"
  top: "inception_4b/5x5"
  param {
    lr_mult: 1
    decay_mult: 1
  }
  param {
    lr_mult: 2
    decay_mult: 0
  }
  convolution_param {
    num_output: 64
    pad: 2
    kernel_size: 5
    weight_filler {
      type: "xavier"
      std: 0.03
    }
    bias_filler {
      type: "constant"
      value: 0.2
    }
  }
}
layer {
  name: "inception_4b/relu_5x5"
  type: "ReLU"
  bottom: "inception_4b/5x5"
  top: "inception_4b/5x5"
}
layer {
  name: "inception_4b/pool"
  type: "Pooling"
  bottom: "inception_4a/output"
  top: "inception_4b/pool"
  pooling_param {
    pool: MAX
    kernel_size: 3
    stride: 1
    pad: 1
  }
}
layer {
  name: "inception_4b/pool_proj"
  type: "Convolution"
  bottom: "inception_4b/pool"
  top: "inception_4b/pool_proj"
  param {
    lr_mult: 1
    decay_mult: 1
  }
  param {
    lr_mult: 2
    decay_mult: 0
  }
  convolution_param {
    num_output: 64
    kernel_size: 1
    weight_filler {
      type: "xavier"
      std: 0.1
    }
    bias_filler {
      type: "constant"
      value: 0.2
    }
  }
}
layer {
  name: "inception_4b/relu_pool_proj"
  type: "ReLU"
  bottom: "inception_4b/pool_proj"
  top: "inception_4b/pool_proj"
}
layer {
  name: "inception_4b/output"
  type: "Concat"
  bottom: "inception_4b/1x1"
  bottom: "inception_4b/3x3"
  bottom: "inception_4b/5x5"
  bottom: "inception_4b/pool_proj"
  top: "inception_4b/output"
}
layer {
  name: "inception_4c/1x1"
  type: "Convolution"
  bottom: "inception_4b/output"
  top: "inception_4c/1x1"
  param {
    lr_mult: 1
    decay_mult: 1
  }
  param {
    lr_mult: 2
    decay_mult: 0
  }
  convolution_param {
    num_output: 128
    kernel_size: 1
    weight_filler {
      type: "xavier"
      std: 0.03
    }
    bias_filler {
      type: "constant"
      value: 0.2
    }
  }
}
layer {
  name: "inception_4c/relu_1x1"
  type: "ReLU"
  bottom: "inception_4c/1x1"
  top: "inception_4c/1x1"
}
layer {
  name: "inception_4c/3x3_reduce"
  type: "Convolution"
  bottom: "inception_4b/output"
  top: "inception_4c/3x3_reduce"
  param {
    lr_mult: 1
    decay_mult: 1
  }
  param {
    lr_mult: 2
    decay_mult: 0
  }
  convolution_param {
    num_output: 128
    kernel_size: 1
    weight_filler {
      type: "xavier"
      std: 0.09
    }
    bias_filler {
      type: "constant"
      value: 0.2
    }
  }
}
layer {
  name: "inception_4c/relu_3x3_reduce"
  type: "ReLU"
  bottom: "inception_4c/3x3_reduce"
  top: "inception_4c/3x3_reduce"
}
layer {
  name: "inception_4c/3x3"
  type: "Convolution"
  bottom: "inception_4c/3x3_reduce"
  top: "inception_4c/3x3"
  param {
    lr_mult: 1
    decay_mult: 1
  }
  param {
    lr_mult: 2
    decay_mult: 0
  }
  convolution_param {
    num_output: 256
    pad: 1
    kernel_size: 3
    weight_filler {
      type: "xavier"
      std: 0.03
    }
    bias_filler {
      type: "constant"
      value: 0.2
    }
  }
}
layer {
  name: "inception_4c/relu_3x3"
  type: "ReLU"
  bottom: "inception_4c/3x3"
  top: "inception_4c/3x3"
}
layer {
  name: "inception_4c/5x5_reduce"
  type: "Convolution"
  bottom: "inception_4b/output"
  top: "inception_4c/5x5_reduce"
  param {
    lr_mult: 1
    decay_mult: 1
  }
  param {
    lr_mult: 2
    decay_mult: 0
  }
  convolution_param {
    num_output: 24
    kernel_size: 1
    weight_filler {
      type: "xavier"
      std: 0.2
    }
    bias_filler {
      type: "constant"
      value: 0.2
    }
  }
}
layer {
  name: "inception_4c/relu_5x5_reduce"
  type: "ReLU"
  bottom: "inception_4c/5x5_reduce"
  top: "inception_4c/5x5_reduce"
}
layer {
  name: "inception_4c/5x5"
  type: "Convolution"
  bottom: "inception_4c/5x5_reduce"
  top: "inception_4c/5x5"
  param {
    lr_mult: 1
    decay_mult: 1
  }
  param {
    lr_mult: 2
    decay_mult: 0
  }
  convolution_param {
    num_output: 64
    pad: 2
    kernel_size: 5
    weight_filler {
      type: "xavier"
      std: 0.03
    }
    bias_filler {
      type: "constant"
      value: 0.2
    }
  }
}
layer {
  name: "inception_4c/relu_5x5"
  type: "ReLU"
  bottom: "inception_4c/5x5"
  top: "inception_4c/5x5"
}
layer {
  name: "inception_4c/pool"
  type: "Pooling"
  bottom: "inception_4b/output"
  top: "inception_4c/pool"
  pooling_param {
    pool: MAX
    kernel_size: 3
    stride: 1
    pad: 1
  }
}
layer {
  name: "inception_4c/pool_proj"
  type: "Convolution"
  bottom: "inception_4c/pool"
  top: "inception_4c/pool_proj"
  param {
    lr_mult: 1
    decay_mult: 1
  }
  param {
    lr_mult: 2
    decay_mult: 0
  }
  convolution_param {
    num_output: 64
    kernel_size: 1
    weight_filler {
      type: "xavier"
      std: 0.1
    }
    bias_filler {
      type: "constant"
      value: 0.2
    }
  }
}
layer {
  name: "inception_4c/relu_pool_proj"
  type: "ReLU"
  bottom: "inception_4c/pool_proj"
  top: "inception_4c/pool_proj"
}
layer {
  name: "inception_4c/output"
  type: "Concat"
  bottom: "inception_4c/1x1"
  bottom: "inception_4c/3x3"
  bottom: "inception_4c/5x5"
  bottom: "inception_4c/pool_proj"
  top: "inception_4c/output"
}
layer {
  name: "inception_4d/1x1"
  type: "Convolution"
  bottom: "inception_4c/output"
  top: "inception_4d/1x1"
  param {
    lr_mult: 1
    decay_mult: 1
  }
  param {
    lr_mult: 2
    decay_mult: 0
  }
  convolution_param {
    num_output: 112
    kernel_size: 1
    weight_filler {
      type: "xavier"
      std: 0.03
    }
    bias_filler {
      type: "constant"
      value: 0.2
    }
  }
}
layer {
  name: "inception_4d/relu_1x1"
  type: "ReLU"
  bottom: "inception_4d/1x1"
  top: "inception_4d/1x1"
}
layer {
  name: "inception_4d/3x3_reduce"
  type: "Convolution"
  bottom: "inception_4c/output"
  top: "inception_4d/3x3_reduce"
  param {
    lr_mult: 1
    decay_mult: 1
  }
  param {
    lr_mult: 2
    decay_mult: 0
  }
  convolution_param {
    num_output: 144
    kernel_size: 1
    weight_filler {
      type: "xavier"
      std: 0.09
    }
    bias_filler {
      type: "constant"
      value: 0.2
    }
  }
}
layer {
  name: "inception_4d/relu_3x3_reduce"
  type: "ReLU"
  bottom: "inception_4d/3x3_reduce"
  top: "inception_4d/3x3_reduce"
}
layer {
  name: "inception_4d/3x3"
  type: "Convolution"
  bottom: "inception_4d/3x3_reduce"
  top: "inception_4d/3x3"
  param {
    lr_mult: 1
    decay_mult: 1
  }
  param {
    lr_mult: 2
    decay_mult: 0
  }
  convolution_param {
    num_output: 288
    pad: 1
    kernel_size: 3
    weight_filler {
      type: "xavier"
      std: 0.03
    }
    bias_filler {
      type: "constant"
      value: 0.2
    }
  }
}
layer {
  name: "inception_4d/relu_3x3"
  type: "ReLU"
  bottom: "inception_4d/3x3"
  top: "inception_4d/3x3"
}
layer {
  name: "inception_4d/5x5_reduce"
  type: "Convolution"
  bottom: "inception_4c/output"
  top: "inception_4d/5x5_reduce"
  param {
    lr_mult: 1
    decay_mult: 1
  }
  param {
    lr_mult: 2
    decay_mult: 0
  }
  convolution_param {
    num_output: 32
    kernel_size: 1
    weight_filler {
      type: "xavier"
      std: 0.2
    }
    bias_filler {
      type: "constant"
      value: 0.2
    }
  }
}
layer {
  name: "inception_4d/relu_5x5_reduce"
  type: "ReLU"
  bottom: "inception_4d/5x5_reduce"
  top: "inception_4d/5x5_reduce"
}
layer {
  name: "inception_4d/5x5"
  type: "Convolution"
  bottom: "inception_4d/5x5_reduce"
  top: "inception_4d/5x5"
  param {
    lr_mult: 1
    decay_mult: 1
  }
  param {
    lr_mult: 2
    decay_mult: 0
  }
  convolution_param {
    num_output: 64
    pad: 2
    kernel_size: 5
    weight_filler {
      type: "xavier"
      std: 0.03
    }
    bias_filler {
      type: "constant"
      value: 0.2
    }
  }
}
layer {
  name: "inception_4d/relu_5x5"
  type: "ReLU"
  bottom: "inception_4d/5x5"
  top: "inception_4d/5x5"
}
layer {
  name: "inception_4d/pool"
  type: "Pooling"
  bottom: "inception_4c/output"
  top: "inception_4d/pool"
  pooling_param {
    pool: MAX
    kernel_size: 3
    stride: 1
    pad: 1
  }
}
layer {
  name: "inception_4d/pool_proj"
  type: "Convolution"
  bottom: "inception_4d/pool"
  top: "inception_4d/pool_proj"
  param {
    lr_mult: 1
    decay_mult: 1
  }
  param {
    lr_mult: 2
    decay_mult: 0
  }
  convolution_param {
    num_output: 64
    kernel_size: 1
    weight_filler {
      type: "xavier"
      std: 0.1
    }
    bias_filler {
      type: "constant"
      value: 0.2
    }
  }
}
layer {
  name: "inception_4d/relu_pool_proj"
  type: "ReLU"
  bottom: "inception_4d/pool_proj"
  top: "inception_4d/pool_proj"
}
layer {
  name: "inception_4d/output"
  type: "Concat"
  bottom: "inception_4d/1x1"
  bottom: "inception_4d/3x3"
  bottom: "inception_4d/5x5"
  bottom: "inception_4d/pool_proj"
  top: "inception_4d/output"
}
layer {
  name: "loss2/ave_pool"
  type: "Pooling"
  bottom: "inception_4d/output"
  top: "loss2/ave_pool"
  pooling_param {
    pool: AVE
    kernel_size: 5
    stride: 3
  }
}
layer {
  name: "loss2/conv"
  type: "Convolution"
  bottom: "loss2/ave_pool"
  top: "loss2/conv"
  param {
    lr_mult: 1
    decay_mult: 1
  }
  param {
    lr_mult: 2
    decay_mult: 0
  }
  convolution_param {
    num_output: 128
    kernel_size: 1
    weight_filler {
      type: "xavier"
      std: 0.08
    }
    bias_filler {
      type: "constant"
      value: 0.2
    }
  }
}
layer {
  name: "loss2/relu_conv"
  type: "ReLU"
  bottom: "loss2/conv"
  top: "loss2/conv"
}
layer {
  name: "loss2/fc"
  type: "InnerProduct"
  bottom: "loss2/conv"
  top: "loss2/fc"
  param {
    lr_mult: 1
    decay_mult: 1
  }
  param {
    lr_mult: 2
    decay_mult: 0
  }
  inner_product_param {
    num_output: 1024
    weight_filler {
      type: "xavier"
      std: 0.02
    }
    bias_filler {
      type: "constant"
      value: 0.2
    }
  }
}
layer {
  name: "loss2/relu_fc"
  type: "ReLU"
  bottom: "loss2/fc"
  top: "loss2/fc"
}
layer {
  name: "loss2/drop_fc"
  type: "Dropout"
  bottom: "loss2/fc"
  top: "loss2/fc"
  dropout_param {
    dropout_ratio: 0.7
  }
}
layer {
  name: "loss2/classifier_plantvillage"
  type: "InnerProduct"
  bottom: "loss2/fc"
  top: "loss2/classifier_plantvillage"
  param {
    lr_mult: 1
    decay_mult: 1
  }
  param {
    lr_mult: 2
    decay_mult: 0
  }
  inner_product_param {
    num_output: 38
    weight_filler {
      type: "xavier"
      std: 0.0009765625
    }
    bias_filler {
      type: "constant"
      value: 0
    }
  }
}
layer {
  name: "inception_4e/1x1"
  type: "Convolution"
  bottom: "inception_4d/output"
  top: "inception_4e/1x1"
  param {
    lr_mult: 1
    decay_mult: 1
  }
  param {
    lr_mult: 2
    decay_mult: 0
  }
  convolution_param {
    num_output: 256
    kernel_size: 1
    weight_filler {
      type: "xavier"
      std: 0.03
    }
    bias_filler {
      type: "constant"
      value: 0.2
    }
  }
}
layer {
  name: "inception_4e/relu_1x1"
  type: "ReLU"
  bottom: "inception_4e/1x1"
  top: "inception_4e/1x1"
}
layer {
  name: "inception_4e/3x3_reduce"
  type: "Convolution"
  bottom: "inception_4d/output"
  top: "inception_4e/3x3_reduce"
  param {
    lr_mult: 1
    decay_mult: 1
  }
  param {
    lr_mult: 2
    decay_mult: 0
  }
  convolution_param {
    num_output: 160
    kernel_size: 1
    weight_filler {
      type: "xavier"
      std: 0.09
    }
    bias_filler {
      type: "constant"
      value: 0.2
    }
  }
}
layer {
  name: "inception_4e/relu_3x3_reduce"
  type: "ReLU"
  bottom: "inception_4e/3x3_reduce"
  top: "inception_4e/3x3_reduce"
}
layer {
  name: "inception_4e/3x3"
  type: "Convolution"
  bottom: "inception_4e/3x3_reduce"
  top: "inception_4e/3x3"
  param {
    lr_mult: 1
    decay_mult: 1
  }
  param {
    lr_mult: 2
    decay_mult: 0
  }
  convolution_param {
    num_output: 320
    pad: 1
    kernel_size: 3
    weight_filler {
      type: "xavier"
      std: 0.03
    }
    bias_filler {
      type: "constant"
      value: 0.2
    }
  }
}
layer {
  name: "inception_4e/relu_3x3"
  type: "ReLU"
  bottom: "inception_4e/3x3"
  top: "inception_4e/3x3"
}
layer {
  name: "inception_4e/5x5_reduce"
  type: "Convolution"
  bottom: "inception_4d/output"
  top: "inception_4e/5x5_reduce"
  param {
    lr_mult: 1
    decay_mult: 1
  }
  param {
    lr_mult: 2
    decay_mult: 0
  }
  convolution_param {
    num_output: 32
    kernel_size: 1
    weight_filler {
      type: "xavier"
      std: 0.2
    }
    bias_filler {
      type: "constant"
      value: 0.2
    }
  }
}
layer {
  name: "inception_4e/relu_5x5_reduce"
  type: "ReLU"
  bottom: "inception_4e/5x5_reduce"
  top: "inception_4e/5x5_reduce"
}
layer {
  name: "inception_4e/5x5"
  type: "Convolution"
  bottom: "inception_4e/5x5_reduce"
  top: "inception_4e/
I0403 18:32:08.217979  7093 layer_factory.hpp:77] Creating layer data
I0403 18:32:08.218611  7093 net.cpp:91] Creating Layer data
I0403 18:32:08.218644  7093 net.cpp:399] data -> data
I0403 18:32:08.218695  7093 net.cpp:399] data -> label
I0403 18:32:08.218731  7093 data_transformer.cpp:25] Loading mean file from: /home/mohanty/data/final_dataset/lmdb/segmented-50-50/mean.binaryproto
I0403 18:32:08.219892  7096 db_lmdb.cpp:38] Opened lmdb /home/mohanty/data/final_dataset/lmdb/segmented-50-50/test_db
I0403 18:32:08.233436  7093 data_layer.cpp:41] output data size: 24,3,224,224
I0403 18:32:08.262382  7093 net.cpp:141] Setting up data
I0403 18:32:08.262440  7093 net.cpp:148] Top shape: 24 3 224 224 (3612672)
I0403 18:32:08.262464  7093 net.cpp:148] Top shape: 24 (24)
I0403 18:32:08.262478  7093 net.cpp:156] Memory required for data: 14450784
I0403 18:32:08.262506  7093 layer_factory.hpp:77] Creating layer label_data_1_split
I0403 18:32:08.262532  7093 net.cpp:91] Creating Layer label_data_1_split
I0403 18:32:08.262550  7093 net.cpp:425] label_data_1_split <- label
I0403 18:32:08.262583  7093 net.cpp:399] label_data_1_split -> label_data_1_split_0
I0403 18:32:08.262609  7093 net.cpp:399] label_data_1_split -> label_data_1_split_1
I0403 18:32:08.262631  7093 net.cpp:399] label_data_1_split -> label_data_1_split_2
I0403 18:32:08.262652  7093 net.cpp:399] label_data_1_split -> label_data_1_split_3
I0403 18:32:08.262677  7093 net.cpp:399] label_data_1_split -> label_data_1_split_4
I0403 18:32:08.262699  7093 net.cpp:399] label_data_1_split -> label_data_1_split_5
I0403 18:32:08.262720  7093 net.cpp:399] label_data_1_split -> label_data_1_split_6
I0403 18:32:08.262748  7093 net.cpp:399] label_data_1_split -> label_data_1_split_7
I0403 18:32:08.262774  7093 net.cpp:399] label_data_1_split -> label_data_1_split_8
I0403 18:32:08.262804  7093 net.cpp:399] label_data_1_split -> label_data_1_split_9
I0403 18:32:08.262923  7093 net.cpp:141] Setting up label_data_1_split
I0403 18:32:08.262948  7093 net.cpp:148] Top shape: 24 (24)
I0403 18:32:08.262965  7093 net.cpp:148] Top shape: 24 (24)
I0403 18:32:08.262981  7093 net.cpp:148] Top shape: 24 (24)
I0403 18:32:08.262997  7093 net.cpp:148] Top shape: 24 (24)
I0403 18:32:08.263015  7093 net.cpp:148] Top shape: 24 (24)
I0403 18:32:08.263031  7093 net.cpp:148] Top shape: 24 (24)
I0403 18:32:08.263061  7093 net.cpp:148] Top shape: 24 (24)
I0403 18:32:08.263077  7093 net.cpp:148] Top shape: 24 (24)
I0403 18:32:08.263094  7093 net.cpp:148] Top shape: 24 (24)
I0403 18:32:08.263111  7093 net.cpp:148] Top shape: 24 (24)
I0403 18:32:08.263157  7093 net.cpp:156] Memory required for data: 14451744
I0403 18:32:08.263175  7093 layer_factory.hpp:77] Creating layer conv1/7x7_s2
I0403 18:32:08.263211  7093 net.cpp:91] Creating Layer conv1/7x7_s2
I0403 18:32:08.263231  7093 net.cpp:425] conv1/7x7_s2 <- data
I0403 18:32:08.263254  7093 net.cpp:399] conv1/7x7_s2 -> conv1/7x7_s2
I0403 18:32:08.407203  7093 net.cpp:141] Setting up conv1/7x7_s2
I0403 18:32:08.407286  7093 net.cpp:148] Top shape: 24 64 112 112 (19267584)
I0403 18:32:08.407316  7093 net.cpp:156] Memory required for data: 91522080
I0403 18:32:08.407346  7093 layer_factory.hpp:77] Creating layer conv1/relu_7x7
I0403 18:32:08.407372  7093 net.cpp:91] Creating Layer conv1/relu_7x7
I0403 18:32:08.407390  7093 net.cpp:425] conv1/relu_7x7 <- conv1/7x7_s2
I0403 18:32:08.407409  7093 net.cpp:386] conv1/relu_7x7 -> conv1/7x7_s2 (in-place)
I0403 18:32:08.407657  7093 net.cpp:141] Setting up conv1/relu_7x7
I0403 18:32:08.407683  7093 net.cpp:148] Top shape: 24 64 112 112 (19267584)
I0403 18:32:08.407698  7093 net.cpp:156] Memory required for data: 168592416
I0403 18:32:08.407713  7093 layer_factory.hpp:77] Creating layer pool1/3x3_s2
I0403 18:32:08.407738  7093 net.cpp:91] Creating Layer pool1/3x3_s2
I0403 18:32:08.407757  7093 net.cpp:425] pool1/3x3_s2 <- conv1/7x7_s2
I0403 18:32:08.407774  7093 net.cpp:399] pool1/3x3_s2 -> pool1/3x3_s2
I0403 18:32:08.407845  7093 net.cpp:141] Setting up pool1/3x3_s2
I0403 18:32:08.407868  7093 net.cpp:148] Top shape: 24 64 56 56 (4816896)
I0403 18:32:08.407884  7093 net.cpp:156] Memory required for data: 187860000
I0403 18:32:08.407898  7093 layer_factory.hpp:77] Creating layer pool1/norm1
I0403 18:32:08.407922  7093 net.cpp:91] Creating Layer pool1/norm1
I0403 18:32:08.407939  7093 net.cpp:425] pool1/norm1 <- pool1/3x3_s2
I0403 18:32:08.407956  7093 net.cpp:399] pool1/norm1 -> pool1/norm1
I0403 18:32:08.408242  7093 net.cpp:141] Setting up pool1/norm1
I0403 18:32:08.408268  7093 net.cpp:148] Top shape: 24 64 56 56 (4816896)
I0403 18:32:08.408284  7093 net.cpp:156] Memory required for data: 207127584
I0403 18:32:08.408298  7093 layer_factory.hpp:77] Creating layer conv2/3x3_reduce
I0403 18:32:08.408323  7093 net.cpp:91] Creating Layer conv2/3x3_reduce
I0403 18:32:08.408339  7093 net.cpp:425] conv2/3x3_reduce <- pool1/norm1
I0403 18:32:08.408357  7093 net.cpp:399] conv2/3x3_reduce -> conv2/3x3_reduce
I0403 18:32:08.409657  7093 net.cpp:141] Setting up conv2/3x3_reduce
I0403 18:32:08.409684  7093 net.cpp:148] Top shape: 24 64 56 56 (4816896)
I0403 18:32:08.409700  7093 net.cpp:156] Memory required for data: 226395168
I0403 18:32:08.409721  7093 layer_factory.hpp:77] Creating layer conv2/relu_3x3_reduce
I0403 18:32:08.409739  7093 net.cpp:91] Creating Layer conv2/relu_3x3_reduce
I0403 18:32:08.409754  7093 net.cpp:425] conv2/relu_3x3_reduce <- conv2/3x3_reduce
I0403 18:32:08.409771  7093 net.cpp:386] conv2/relu_3x3_reduce -> conv2/3x3_reduce (in-place)
I0403 18:32:08.410011  7093 net.cpp:141] Setting up conv2/relu_3x3_reduce
I0403 18:32:08.410037  7093 net.cpp:148] Top shape: 24 64 56 56 (4816896)
I0403 18:32:08.410050  7093 net.cpp:156] Memory required for data: 245662752
I0403 18:32:08.410066  7093 layer_factory.hpp:77] Creating layer conv2/3x3
I0403 18:32:08.410089  7093 net.cpp:91] Creating Layer conv2/3x3
I0403 18:32:08.410104  7093 net.cpp:425] conv2/3x3 <- conv2/3x3_reduce
I0403 18:32:08.410127  7093 net.cpp:399] conv2/3x3 -> conv2/3x3
I0403 18:32:08.412444  7093 net.cpp:141] Setting up conv2/3x3
I0403 18:32:08.412474  7093 net.cpp:148] Top shape: 24 192 56 56 (14450688)
I0403 18:32:08.412490  7093 net.cpp:156] Memory required for data: 303465504
I0403 18:32:08.412511  7093 layer_factory.hpp:77] Creating layer conv2/relu_3x3
I0403 18:32:08.412533  7093 net.cpp:91] Creating Layer conv2/relu_3x3
I0403 18:32:08.412549  7093 net.cpp:425] conv2/relu_3x3 <- conv2/3x3
I0403 18:32:08.412567  7093 net.cpp:386] conv2/relu_3x3 -> conv2/3x3 (in-place)
I0403 18:32:08.412747  7093 net.cpp:141] Setting up conv2/relu_3x3
I0403 18:32:08.412772  7093 net.cpp:148] Top shape: 24 192 56 56 (14450688)
I0403 18:32:08.412820  7093 net.cpp:156] Memory required for data: 361268256
I0403 18:32:08.412837  7093 layer_factory.hpp:77] Creating layer conv2/norm2
I0403 18:32:08.412855  7093 net.cpp:91] Creating Layer conv2/norm2
I0403 18:32:08.412870  7093 net.cpp:425] conv2/norm2 <- conv2/3x3
I0403 18:32:08.412891  7093 net.cpp:399] conv2/norm2 -> conv2/norm2
I0403 18:32:08.413194  7093 net.cpp:141] Setting up conv2/norm2
I0403 18:32:08.413233  7093 net.cpp:148] Top shape: 24 192 56 56 (14450688)
I0403 18:32:08.413250  7093 net.cpp:156] Memory required for data: 419071008
I0403 18:32:08.413266  7093 layer_factory.hpp:77] Creating layer pool2/3x3_s2
I0403 18:32:08.413285  7093 net.cpp:91] Creating Layer pool2/3x3_s2
I0403 18:32:08.413300  7093 net.cpp:425] pool2/3x3_s2 <- conv2/norm2
I0403 18:32:08.413321  7093 net.cpp:399] pool2/3x3_s2 -> pool2/3x3_s2
I0403 18:32:08.413373  7093 net.cpp:141] Setting up pool2/3x3_s2
I0403 18:32:08.413398  7093 net.cpp:148] Top shape: 24 192 28 28 (3612672)
I0403 18:32:08.413413  7093 net.cpp:156] Memory required for data: 433521696
I0403 18:32:08.413427  7093 layer_factory.hpp:77] Creating layer pool2/3x3_s2_pool2/3x3_s2_0_split
I0403 18:32:08.413447  7093 net.cpp:91] Creating Layer pool2/3x3_s2_pool2/3x3_s2_0_split
I0403 18:32:08.413465  7093 net.cpp:425] pool2/3x3_s2_pool2/3x3_s2_0_split <- pool2/3x3_s2
I0403 18:32:08.413485  7093 net.cpp:399] pool2/3x3_s2_pool2/3x3_s2_0_split -> pool2/3x3_s2_pool2/3x3_s2_0_split_0
I0403 18:32:08.413504  7093 net.cpp:399] pool2/3x3_s2_pool2/3x3_s2_0_split -> pool2/3x3_s2_pool2/3x3_s2_0_split_1
I0403 18:32:08.413525  7093 net.cpp:399] pool2/3x3_s2_pool2/3x3_s2_0_split -> pool2/3x3_s2_pool2/3x3_s2_0_split_2
I0403 18:32:08.413544  7093 net.cpp:399] pool2/3x3_s2_pool2/3x3_s2_0_split -> pool2/3x3_s2_pool2/3x3_s2_0_split_3
I0403 18:32:08.413612  7093 net.cpp:141] Setting up pool2/3x3_s2_pool2/3x3_s2_0_split
I0403 18:32:08.413638  7093 net.cpp:148] Top shape: 24 192 28 28 (3612672)
I0403 18:32:08.413655  7093 net.cpp:148] Top shape: 24 192 28 28 (3612672)
I0403 18:32:08.413671  7093 net.cpp:148] Top shape: 24 192 28 28 (3612672)
I0403 18:32:08.413686  7093 net.cpp:148] Top shape: 24 192 28 28 (3612672)
I0403 18:32:08.413700  7093 net.cpp:156] Memory required for data: 491324448
I0403 18:32:08.413715  7093 layer_factory.hpp:77] Creating layer inception_3a/1x1
I0403 18:32:08.413738  7093 net.cpp:91] Creating Layer inception_3a/1x1
I0403 18:32:08.413755  7093 net.cpp:425] inception_3a/1x1 <- pool2/3x3_s2_pool2/3x3_s2_0_split_0
I0403 18:32:08.413774  7093 net.cpp:399] inception_3a/1x1 -> inception_3a/1x1
I0403 18:32:08.415349  7093 net.cpp:141] Setting up inception_3a/1x1
I0403 18:32:08.415380  7093 net.cpp:148] Top shape: 24 64 28 28 (1204224)
I0403 18:32:08.415395  7093 net.cpp:156] Memory required for data: 496141344
I0403 18:32:08.415416  7093 layer_factory.hpp:77] Creating layer inception_3a/relu_1x1
I0403 18:32:08.415437  7093 net.cpp:91] Creating Layer inception_3a/relu_1x1
I0403 18:32:08.415454  7093 net.cpp:425] inception_3a/relu_1x1 <- inception_3a/1x1
I0403 18:32:08.415472  7093 net.cpp:386] inception_3a/relu_1x1 -> inception_3a/1x1 (in-place)
I0403 18:32:08.415648  7093 net.cpp:141] Setting up inception_3a/relu_1x1
I0403 18:32:08.415676  7093 net.cpp:148] Top shape: 24 64 28 28 (1204224)
I0403 18:32:08.415693  7093 net.cpp:156] Memory required for data: 500958240
I0403 18:32:08.415707  7093 layer_factory.hpp:77] Creating layer inception_3a/3x3_reduce
I0403 18:32:08.415730  7093 net.cpp:91] Creating Layer inception_3a/3x3_reduce
I0403 18:32:08.415747  7093 net.cpp:425] inception_3a/3x3_reduce <- pool2/3x3_s2_pool2/3x3_s2_0_split_1
I0403 18:32:08.415767  7093 net.cpp:399] inception_3a/3x3_reduce -> inception_3a/3x3_reduce
I0403 18:32:08.417474  7093 net.cpp:141] Setting up inception_3a/3x3_reduce
I0403 18:32:08.417503  7093 net.cpp:148] Top shape: 24 96 28 28 (1806336)
I0403 18:32:08.417520  7093 net.cpp:156] Memory required for data: 508183584
I0403 18:32:08.417539  7093 layer_factory.hpp:77] Creating layer inception_3a/relu_3x3_reduce
I0403 18:32:08.417577  7093 net.cpp:91] Creating Layer inception_3a/relu_3x3_reduce
I0403 18:32:08.417595  7093 net.cpp:425] inception_3a/relu_3x3_reduce <- inception_3a/3x3_reduce
I0403 18:32:08.417615  7093 net.cpp:386] inception_3a/relu_3x3_reduce -> inception_3a/3x3_reduce (in-place)
I0403 18:32:08.417803  7093 net.cpp:141] Setting up inception_3a/relu_3x3_reduce
I0403 18:32:08.417829  7093 net.cpp:148] Top shape: 24 96 28 28 (1806336)
I0403 18:32:08.417843  7093 net.cpp:156] Memory required for data: 515408928
I0403 18:32:08.417858  7093 layer_factory.hpp:77] Creating layer inception_3a/3x3
I0403 18:32:08.417881  7093 net.cpp:91] Creating Layer inception_3a/3x3
I0403 18:32:08.417899  7093 net.cpp:425] inception_3a/3x3 <- inception_3a/3x3_reduce
I0403 18:32:08.417922  7093 net.cpp:399] inception_3a/3x3 -> inception_3a/3x3
I0403 18:32:08.419596  7093 net.cpp:141] Setting up inception_3a/3x3
I0403 18:32:08.419627  7093 net.cpp:148] Top shape: 24 128 28 28 (2408448)
I0403 18:32:08.419644  7093 net.cpp:156] Memory required for data: 525042720
I0403 18:32:08.419663  7093 layer_factory.hpp:77] Creating layer inception_3a/relu_3x3
I0403 18:32:08.419682  7093 net.cpp:91] Creating Layer inception_3a/relu_3x3
I0403 18:32:08.419697  7093 net.cpp:425] inception_3a/relu_3x3 <- inception_3a/3x3
I0403 18:32:08.419714  7093 net.cpp:386] inception_3a/relu_3x3 -> inception_3a/3x3 (in-place)
I0403 18:32:08.419986  7093 net.cpp:141] Setting up inception_3a/relu_3x3
I0403 18:32:08.420016  7093 net.cpp:148] Top shape: 24 128 28 28 (2408448)
I0403 18:32:08.420032  7093 net.cpp:156] Memory required for data: 534676512
I0403 18:32:08.420047  7093 layer_factory.hpp:77] Creating layer inception_3a/5x5_reduce
I0403 18:32:08.420068  7093 net.cpp:91] Creating Layer inception_3a/5x5_reduce
I0403 18:32:08.420083  7093 net.cpp:425] inception_3a/5x5_reduce <- pool2/3x3_s2_pool2/3x3_s2_0_split_2
I0403 18:32:08.420104  7093 net.cpp:399] inception_3a/5x5_reduce -> inception_3a/5x5_reduce
I0403 18:32:08.421062  7093 net.cpp:141] Setting up inception_3a/5x5_reduce
I0403 18:32:08.421093  7093 net.cpp:148] Top shape: 24 16 28 28 (301056)
I0403 18:32:08.421109  7093 net.cpp:156] Memory required for data: 535880736
I0403 18:32:08.421128  7093 layer_factory.hpp:77] Creating layer inception_3a/relu_5x5_reduce
I0403 18:32:08.421145  7093 net.cpp:91] Creating Layer inception_3a/relu_5x5_reduce
I0403 18:32:08.421160  7093 net.cpp:425] inception_3a/relu_5x5_reduce <- inception_3a/5x5_reduce
I0403 18:32:08.421177  7093 net.cpp:386] inception_3a/relu_5x5_reduce -> inception_3a/5x5_reduce (in-place)
I0403 18:32:08.421469  7093 net.cpp:141] Setting up inception_3a/relu_5x5_reduce
I0403 18:32:08.421496  7093 net.cpp:148] Top shape: 24 16 28 28 (301056)
I0403 18:32:08.421512  7093 net.cpp:156] Memory required for data: 537084960
I0403 18:32:08.421527  7093 layer_factory.hpp:77] Creating layer inception_3a/5x5
I0403 18:32:08.421551  7093 net.cpp:91] Creating Layer inception_3a/5x5
I0403 18:32:08.421569  7093 net.cpp:425] inception_3a/5x5 <- inception_3a/5x5_reduce
I0403 18:32:08.421589  7093 net.cpp:399] inception_3a/5x5 -> inception_3a/5x5
I0403 18:32:08.422610  7093 net.cpp:141] Setting up inception_3a/5x5
I0403 18:32:08.422636  7093 net.cpp:148] Top shape: 24 32 28 28 (602112)
I0403 18:32:08.422652  7093 net.cpp:156] Memory required for data: 539493408
I0403 18:32:08.422672  7093 layer_factory.hpp:77] Creating layer inception_3a/relu_5x5
I0403 18:32:08.422693  7093 net.cpp:91] Creating Layer inception_3a/relu_5x5
I0403 18:32:08.422708  7093 net.cpp:425] inception_3a/relu_5x5 <- inception_3a/5x5
I0403 18:32:08.422725  7093 net.cpp:386] inception_3a/relu_5x5 -> inception_3a/5x5 (in-place)
I0403 18:32:08.422899  7093 net.cpp:141] Setting up inception_3a/relu_5x5
I0403 18:32:08.422925  7093 net.cpp:148] Top shape: 24 32 28 28 (602112)
I0403 18:32:08.422941  7093 net.cpp:156] Memory required for data: 541901856
I0403 18:32:08.422956  7093 layer_factory.hpp:77] Creating layer inception_3a/pool
I0403 18:32:08.422973  7093 net.cpp:91] Creating Layer inception_3a/pool
I0403 18:32:08.423003  7093 net.cpp:425] inception_3a/pool <- pool2/3x3_s2_pool2/3x3_s2_0_split_3
I0403 18:32:08.423027  7093 net.cpp:399] inception_3a/pool -> inception_3a/pool
I0403 18:32:08.423084  7093 net.cpp:141] Setting up inception_3a/pool
I0403 18:32:08.423107  7093 net.cpp:148] Top shape: 24 192 28 28 (3612672)
I0403 18:32:08.423123  7093 net.cpp:156] Memory required for data: 556352544
I0403 18:32:08.423137  7093 layer_factory.hpp:77] Creating layer inception_3a/pool_proj
I0403 18:32:08.423161  7093 net.cpp:91] Creating Layer inception_3a/pool_proj
I0403 18:32:08.423178  7093 net.cpp:425] inception_3a/pool_proj <- inception_3a/pool
I0403 18:32:08.423200  7093 net.cpp:399] inception_3a/pool_proj -> inception_3a/pool_proj
I0403 18:32:08.424176  7093 net.cpp:141] Setting up inception_3a/pool_proj
I0403 18:32:08.424206  7093 net.cpp:148] Top shape: 24 32 28 28 (602112)
I0403 18:32:08.424227  7093 net.cpp:156] Memory required for data: 558760992
I0403 18:32:08.424252  7093 layer_factory.hpp:77] Creating layer inception_3a/relu_pool_proj
I0403 18:32:08.424271  7093 net.cpp:91] Creating Layer inception_3a/relu_pool_proj
I0403 18:32:08.424288  7093 net.cpp:425] inception_3a/relu_pool_proj <- inception_3a/pool_proj
I0403 18:32:08.424306  7093 net.cpp:386] inception_3a/relu_pool_proj -> inception_3a/pool_proj (in-place)
I0403 18:32:08.424579  7093 net.cpp:141] Setting up inception_3a/relu_pool_proj
I0403 18:32:08.424615  7093 net.cpp:148] Top shape: 24 32 28 28 (602112)
I0403 18:32:08.424631  7093 net.cpp:156] Memory required for data: 561169440
I0403 18:32:08.424646  7093 layer_factory.hpp:77] Creating layer inception_3a/output
I0403 18:32:08.424664  7093 net.cpp:91] Creating Layer inception_3a/output
I0403 18:32:08.424680  7093 net.cpp:425] inception_3a/output <- inception_3a/1x1
I0403 18:32:08.424697  7093 net.cpp:425] inception_3a/output <- inception_3a/3x3
I0403 18:32:08.424713  7093 net.cpp:425] inception_3a/output <- inception_3a/5x5
I0403 18:32:08.424729  7093 net.cpp:425] inception_3a/output <- inception_3a/pool_proj
I0403 18:32:08.424746  7093 net.cpp:399] inception_3a/output -> inception_3a/output
I0403 18:32:08.424793  7093 net.cpp:141] Setting up inception_3a/output
I0403 18:32:08.424815  7093 net.cpp:148] Top shape: 24 256 28 28 (4816896)
I0403 18:32:08.424830  7093 net.cpp:156] Memory required for data: 580437024
I0403 18:32:08.424845  7093 layer_factory.hpp:77] Creating layer inception_3a/output_inception_3a/output_0_split
I0403 18:32:08.424862  7093 net.cpp:91] Creating Layer inception_3a/output_inception_3a/output_0_split
I0403 18:32:08.424877  7093 net.cpp:425] inception_3a/output_inception_3a/output_0_split <- inception_3a/output
I0403 18:32:08.424897  7093 net.cpp:399] inception_3a/output_inception_3a/output_0_split -> inception_3a/output_inception_3a/output_0_split_0
I0403 18:32:08.424919  7093 net.cpp:399] inception_3a/output_inception_3a/output_0_split -> inception_3a/output_inception_3a/output_0_split_1
I0403 18:32:08.424943  7093 net.cpp:399] inception_3a/output_inception_3a/output_0_split -> inception_3a/output_inception_3a/output_0_split_2
I0403 18:32:08.424967  7093 net.cpp:399] inception_3a/output_inception_3a/output_0_split -> inception_3a/output_inception_3a/output_0_split_3
I0403 18:32:08.425043  7093 net.cpp:141] Setting up inception_3a/output_inception_3a/output_0_split
I0403 18:32:08.425066  7093 net.cpp:148] Top shape: 24 256 28 28 (4816896)
I0403 18:32:08.425083  7093 net.cpp:148] Top shape: 24 256 28 28 (4816896)
I0403 18:32:08.425099  7093 net.cpp:148] Top shape: 24 256 28 28 (4816896)
I0403 18:32:08.425114  7093 net.cpp:148] Top shape: 24 256 28 28 (4816896)
I0403 18:32:08.425128  7093 net.cpp:156] Memory required for data: 657507360
I0403 18:32:08.425143  7093 layer_factory.hpp:77] Creating layer inception_3b/1x1
I0403 18:32:08.425166  7093 net.cpp:91] Creating Layer inception_3b/1x1
I0403 18:32:08.425184  7093 net.cpp:425] inception_3b/1x1 <- inception_3a/output_inception_3a/output_0_split_0
I0403 18:32:08.425205  7093 net.cpp:399] inception_3b/1x1 -> inception_3b/1x1
I0403 18:32:08.426340  7093 net.cpp:141] Setting up inception_3b/1x1
I0403 18:32:08.426380  7093 net.cpp:148] Top shape: 24 128 28 28 (2408448)
I0403 18:32:08.426396  7093 net.cpp:156] Memory required for data: 667141152
I0403 18:32:08.426414  7093 layer_factory.hpp:77] Creating layer inception_3b/relu_1x1
I0403 18:32:08.426434  7093 net.cpp:91] Creating Layer inception_3b/relu_1x1
I0403 18:32:08.426452  7093 net.cpp:425] inception_3b/relu_1x1 <- inception_3b/1x1
I0403 18:32:08.426470  7093 net.cpp:386] inception_3b/relu_1x1 -> inception_3b/1x1 (in-place)
I0403 18:32:08.426642  7093 net.cpp:141] Setting up inception_3b/relu_1x1
I0403 18:32:08.426669  7093 net.cpp:148] Top shape: 24 128 28 28 (2408448)
I0403 18:32:08.426686  7093 net.cpp:156] Memory required for data: 676774944
I0403 18:32:08.426700  7093 layer_factory.hpp:77] Creating layer inception_3b/3x3_reduce
I0403 18:32:08.426723  7093 net.cpp:91] Creating Layer inception_3b/3x3_reduce
I0403 18:32:08.426739  7093 net.cpp:425] inception_3b/3x3_reduce <- inception_3a/output_inception_3a/output_0_split_1
I0403 18:32:08.426759  7093 net.cpp:399] inception_3b/3x3_reduce -> inception_3b/3x3_reduce
I0403 18:32:08.427883  7093 net.cpp:141] Setting up inception_3b/3x3_reduce
I0403 18:32:08.427911  7093 net.cpp:148] Top shape: 24 128 28 28 (2408448)
I0403 18:32:08.427927  7093 net.cpp:156] Memory required for data: 686408736
I0403 18:32:08.427945  7093 layer_factory.hpp:77] Creating layer inception_3b/relu_3x3_reduce
I0403 18:32:08.427965  7093 net.cpp:91] Creating Layer inception_3b/relu_3x3_reduce
I0403 18:32:08.427983  7093 net.cpp:425] inception_3b/relu_3x3_reduce <- inception_3b/3x3_reduce
I0403 18:32:08.428001  7093 net.cpp:386] inception_3b/relu_3x3_reduce -> inception_3b/3x3_reduce (in-place)
I0403 18:32:08.428179  7093 net.cpp:141] Setting up inception_3b/relu_3x3_reduce
I0403 18:32:08.428203  7093 net.cpp:148] Top shape: 24 128 28 28 (2408448)
I0403 18:32:08.428222  7093 net.cpp:156] Memory required for data: 696042528
I0403 18:32:08.428237  7093 layer_factory.hpp:77] Creating layer inception_3b/3x3
I0403 18:32:08.428264  7093 net.cpp:91] Creating Layer inception_3b/3x3
I0403 18:32:08.428282  7093 net.cpp:425] inception_3b/3x3 <- inception_3b/3x3_reduce
I0403 18:32:08.428303  7093 net.cpp:399] inception_3b/3x3 -> inception_3b/3x3
I0403 18:32:08.431218  7093 net.cpp:141] Setting up inception_3b/3x3
I0403 18:32:08.431249  7093 net.cpp:148] Top shape: 24 192 28 28 (3612672)
I0403 18:32:08.431265  7093 net.cpp:156] Memory required for data: 710493216
I0403 18:32:08.431284  7093 layer_factory.hpp:77] Creating layer inception_3b/relu_3x3
I0403 18:32:08.431303  7093 net.cpp:91] Creating Layer inception_3b/relu_3x3
I0403 18:32:08.431318  7093 net.cpp:425] inception_3b/relu_3x3 <- inception_3b/3x3
I0403 18:32:08.431335  7093 net.cpp:386] inception_3b/relu_3x3 -> inception_3b/3x3 (in-place)
I0403 18:32:08.431603  7093 net.cpp:141] Setting up inception_3b/relu_3x3
I0403 18:32:08.431630  7093 net.cpp:148] Top shape: 24 192 28 28 (3612672)
I0403 18:32:08.431646  7093 net.cpp:156] Memory required for data: 724943904
I0403 18:32:08.431660  7093 layer_factory.hpp:77] Creating layer inception_3b/5x5_reduce
I0403 18:32:08.431681  7093 net.cpp:91] Creating Layer inception_3b/5x5_reduce
I0403 18:32:08.431697  7093 net.cpp:425] inception_3b/5x5_reduce <- inception_3a/output_inception_3a/output_0_split_2
I0403 18:32:08.431720  7093 net.cpp:399] inception_3b/5x5_reduce -> inception_3b/5x5_reduce
I0403 18:32:08.432678  7093 net.cpp:141] Setting up inception_3b/5x5_reduce
I0403 18:32:08.432705  7093 net.cpp:148] Top shape: 24 32 28 28 (602112)
I0403 18:32:08.432720  7093 net.cpp:156] Memory required for data: 727352352
I0403 18:32:08.432739  7093 layer_factory.hpp:77] Creating layer inception_3b/relu_5x5_reduce
I0403 18:32:08.432760  7093 net.cpp:91] Creating Layer inception_3b/relu_5x5_reduce
I0403 18:32:08.432775  7093 net.cpp:425] inception_3b/relu_5x5_reduce <- inception_3b/5x5_reduce
I0403 18:32:08.432792  7093 net.cpp:386] inception_3b/relu_5x5_reduce -> inception_3b/5x5_reduce (in-place)
I0403 18:32:08.432998  7093 net.cpp:141] Setting up inception_3b/relu_5x5_reduce
I0403 18:32:08.433027  7093 net.cpp:148] Top shape: 24 32 28 28 (602112)
I0403 18:32:08.433042  7093 net.cpp:156] Memory required for data: 729760800
I0403 18:32:08.433058  7093 layer_factory.hpp:77] Creating layer inception_3b/5x5
I0403 18:32:08.433081  7093 net.cpp:91] Creating Layer inception_3b/5x5
I0403 18:32:08.433099  7093 net.cpp:425] inception_3b/5x5 <- inception_3b/5x5_reduce
I0403 18:32:08.433117  7093 net.cpp:399] inception_3b/5x5 -> inception_3b/5x5
I0403 18:32:08.435180  7093 net.cpp:141] Setting up inception_3b/5x5
I0403 18:32:08.435211  7093 net.cpp:148] Top shape: 24 96 28 28 (1806336)
I0403 18:32:08.435230  7093 net.cpp:156] Memory required for data: 736986144
I0403 18:32:08.435247  7093 layer_factory.hpp:77] Creating layer inception_3b/relu_5x5
I0403 18:32:08.435267  7093 net.cpp:91] Creating Layer inception_3b/relu_5x5
I0403 18:32:08.435284  7093 net.cpp:425] inception_3b/relu_5x5 <- inception_3b/5x5
I0403 18:32:08.435300  7093 net.cpp:386] inception_3b/relu_5x5 -> inception_3b/5x5 (in-place)
I0403 18:32:08.435513  7093 net.cpp:141] Setting up inception_3b/relu_5x5
I0403 18:32:08.435539  7093 net.cpp:148] Top shape: 24 96 28 28 (1806336)
I0403 18:32:08.435554  7093 net.cpp:156] Memory required for data: 744211488
I0403 18:32:08.435569  7093 layer_factory.hpp:77] Creating layer inception_3b/pool
I0403 18:32:08.435586  7093 net.cpp:91] Creating Layer inception_3b/pool
I0403 18:32:08.435614  7093 net.cpp:425] inception_3b/pool <- inception_3a/output_inception_3a/output_0_split_3
I0403 18:32:08.435632  7093 net.cpp:399] inception_3b/pool -> inception_3b/pool
I0403 18:32:08.435685  7093 net.cpp:141] Setting up inception_3b/pool
I0403 18:32:08.435708  7093 net.cpp:148] Top shape: 24 256 28 28 (4816896)
I0403 18:32:08.435722  7093 net.cpp:156] Memory required for data: 763479072
I0403 18:32:08.435737  7093 layer_factory.hpp:77] Creating layer inception_3b/pool_proj
I0403 18:32:08.435760  7093 net.cpp:91] Creating Layer inception_3b/pool_proj
I0403 18:32:08.435776  7093 net.cpp:425] inception_3b/pool_proj <- inception_3b/pool
I0403 18:32:08.435797  7093 net.cpp:399] inception_3b/pool_proj -> inception_3b/pool_proj
I0403 18:32:08.436882  7093 net.cpp:141] Setting up inception_3b/pool_proj
I0403 18:32:08.436911  7093 net.cpp:148] Top shape: 24 64 28 28 (1204224)
I0403 18:32:08.436928  7093 net.cpp:156] Memory required for data: 768295968
I0403 18:32:08.436945  7093 layer_factory.hpp:77] Creating layer inception_3b/relu_pool_proj
I0403 18:32:08.436962  7093 net.cpp:91] Creating Layer inception_3b/relu_pool_proj
I0403 18:32:08.436978  7093 net.cpp:425] inception_3b/relu_pool_proj <- inception_3b/pool_proj
I0403 18:32:08.436997  7093 net.cpp:386] inception_3b/relu_pool_proj -> inception_3b/pool_proj (in-place)
I0403 18:32:08.437387  7093 net.cpp:141] Setting up inception_3b/relu_pool_proj
I0403 18:32:08.437417  7093 net.cpp:148] Top shape: 24 64 28 28 (1204224)
I0403 18:32:08.437433  7093 net.cpp:156] Memory required for data: 773112864
I0403 18:32:08.437448  7093 layer_factory.hpp:77] Creating layer inception_3b/output
I0403 18:32:08.437465  7093 net.cpp:91] Creating Layer inception_3b/output
I0403 18:32:08.437481  7093 net.cpp:425] inception_3b/output <- inception_3b/1x1
I0403 18:32:08.437500  7093 net.cpp:425] inception_3b/output <- inception_3b/3x3
I0403 18:32:08.437515  7093 net.cpp:425] inception_3b/output <- inception_3b/5x5
I0403 18:32:08.437531  7093 net.cpp:425] inception_3b/output <- inception_3b/pool_proj
I0403 18:32:08.437547  7093 net.cpp:399] inception_3b/output -> inception_3b/output
I0403 18:32:08.437594  7093 net.cpp:141] Setting up inception_3b/output
I0403 18:32:08.437628  7093 net.cpp:148] Top shape: 24 480 28 28 (9031680)
I0403 18:32:08.437643  7093 net.cpp:156] Memory required for data: 809239584
I0403 18:32:08.437657  7093 layer_factory.hpp:77] Creating layer pool3/3x3_s2
I0403 18:32:08.437676  7093 net.cpp:91] Creating Layer pool3/3x3_s2
I0403 18:32:08.437692  7093 net.cpp:425] pool3/3x3_s2 <- inception_3b/output
I0403 18:32:08.437724  7093 net.cpp:399] pool3/3x3_s2 -> pool3/3x3_s2
I0403 18:32:08.437783  7093 net.cpp:141] Setting up pool3/3x3_s2
I0403 18:32:08.437805  7093 net.cpp:148] Top shape: 24 480 14 14 (2257920)
I0403 18:32:08.437820  7093 net.cpp:156] Memory required for data: 818271264
I0403 18:32:08.437834  7093 layer_factory.hpp:77] Creating layer pool3/3x3_s2_pool3/3x3_s2_0_split
I0403 18:32:08.437851  7093 net.cpp:91] Creating Layer pool3/3x3_s2_pool3/3x3_s2_0_split
I0403 18:32:08.437865  7093 net.cpp:425] pool3/3x3_s2_pool3/3x3_s2_0_split <- pool3/3x3_s2
I0403 18:32:08.437885  7093 net.cpp:399] pool3/3x3_s2_pool3/3x3_s2_0_split -> pool3/3x3_s2_pool3/3x3_s2_0_split_0
I0403 18:32:08.437904  7093 net.cpp:399] pool3/3x3_s2_pool3/3x3_s2_0_split -> pool3/3x3_s2_pool3/3x3_s2_0_split_1
I0403 18:32:08.437924  7093 net.cpp:399] pool3/3x3_s2_pool3/3x3_s2_0_split -> pool3/3x3_s2_pool3/3x3_s2_0_split_2
I0403 18:32:08.437943  7093 net.cpp:399] pool3/3x3_s2_pool3/3x3_s2_0_split -> pool3/3x3_s2_pool3/3x3_s2_0_split_3
I0403 18:32:08.438019  7093 net.cpp:141] Setting up pool3/3x3_s2_pool3/3x3_s2_0_split
I0403 18:32:08.438043  7093 net.cpp:148] Top shape: 24 480 14 14 (2257920)
I0403 18:32:08.438060  7093 net.cpp:148] Top shape: 24 480 14 14 (2257920)
I0403 18:32:08.438076  7093 net.cpp:148] Top shape: 24 480 14 14 (2257920)
I0403 18:32:08.438092  7093 net.cpp:148] Top shape: 24 480 14 14 (2257920)
I0403 18:32:08.438105  7093 net.cpp:156] Memory required for data: 854397984
I0403 18:32:08.438119  7093 layer_factory.hpp:77] Creating layer inception_4a/1x1
I0403 18:32:08.438141  7093 net.cpp:91] Creating Layer inception_4a/1x1
I0403 18:32:08.438158  7093 net.cpp:425] inception_4a/1x1 <- pool3/3x3_s2_pool3/3x3_s2_0_split_0
I0403 18:32:08.438176  7093 net.cpp:399] inception_4a/1x1 -> inception_4a/1x1
I0403 18:32:08.439769  7093 net.cpp:141] Setting up inception_4a/1x1
I0403 18:32:08.439795  7093 net.cpp:148] Top shape: 24 192 14 14 (903168)
I0403 18:32:08.439811  7093 net.cpp:156] Memory required for data: 858010656
I0403 18:32:08.439829  7093 layer_factory.hpp:77] Creating layer inception_4a/relu_1x1
I0403 18:32:08.439846  7093 net.cpp:91] Creating Layer inception_4a/relu_1x1
I0403 18:32:08.439862  7093 net.cpp:425] inception_4a/relu_1x1 <- inception_4a/1x1
I0403 18:32:08.439884  7093 net.cpp:386] inception_4a/relu_1x1 -> inception_4a/1x1 (in-place)
I0403 18:32:08.440057  7093 net.cpp:141] Setting up inception_4a/relu_1x1
I0403 18:32:08.440081  7093 net.cpp:148] Top shape: 24 192 14 14 (903168)
I0403 18:32:08.440095  7093 net.cpp:156] Memory required for data: 861623328
I0403 18:32:08.440110  7093 layer_factory.hpp:77] Creating layer inception_4a/3x3_reduce
I0403 18:32:08.440132  7093 net.cpp:91] Creating Layer inception_4a/3x3_reduce
I0403 18:32:08.440150  7093 net.cpp:425] inception_4a/3x3_reduce <- pool3/3x3_s2_pool3/3x3_s2_0_split_1
I0403 18:32:08.440176  7093 net.cpp:399] inception_4a/3x3_reduce -> inception_4a/3x3_reduce
I0403 18:32:08.441495  7093 net.cpp:141] Setting up inception_4a/3x3_reduce
I0403 18:32:08.441524  7093 net.cpp:148] Top shape: 24 96 14 14 (451584)
I0403 18:32:08.441541  7093 net.cpp:156] Memory required for data: 863429664
I0403 18:32:08.441568  7093 layer_factory.hpp:77] Creating layer inception_4a/relu_3x3_reduce
I0403 18:32:08.441591  7093 net.cpp:91] Creating Layer inception_4a/relu_3x3_reduce
I0403 18:32:08.441607  7093 net.cpp:425] inception_4a/relu_3x3_reduce <- inception_4a/3x3_reduce
I0403 18:32:08.441628  7093 net.cpp:386] inception_4a/relu_3x3_reduce -> inception_4a/3x3_reduce (in-place)
I0403 18:32:08.441807  7093 net.cpp:141] Setting up inception_4a/relu_3x3_reduce
I0403 18:32:08.441834  7093 net.cpp:148] Top shape: 24 96 14 14 (451584)
I0403 18:32:08.441849  7093 net.cpp:156] Memory required for data: 865236000
I0403 18:32:08.441865  7093 layer_factory.hpp:77] Creating layer inception_4a/3x3
I0403 18:32:08.441889  7093 net.cpp:91] Creating Layer inception_4a/3x3
I0403 18:32:08.441907  7093 net.cpp:425] inception_4a/3x3 <- inception_4a/3x3_reduce
I0403 18:32:08.441928  7093 net.cpp:399] inception_4a/3x3 -> inception_4a/3x3
I0403 18:32:08.444733  7093 net.cpp:141] Setting up inception_4a/3x3
I0403 18:32:08.444763  7093 net.cpp:148] Top shape: 24 208 14 14 (978432)
I0403 18:32:08.444780  7093 net.cpp:156] Memory required for data: 869149728
I0403 18:32:08.444799  7093 layer_factory.hpp:77] Creating layer inception_4a/relu_3x3
I0403 18:32:08.444821  7093 net.cpp:91] Creating Layer inception_4a/relu_3x3
I0403 18:32:08.444839  7093 net.cpp:425] inception_4a/relu_3x3 <- inception_4a/3x3
I0403 18:32:08.444855  7093 net.cpp:386] inception_4a/relu_3x3 -> inception_4a/3x3 (in-place)
I0403 18:32:08.445145  7093 net.cpp:141] Setting up inception_4a/relu_3x3
I0403 18:32:08.445173  7093 net.cpp:148] Top shape: 24 208 14 14 (978432)
I0403 18:32:08.445188  7093 net.cpp:156] Memory required for data: 873063456
I0403 18:32:08.445204  7093 layer_factory.hpp:77] Creating layer inception_4a/5x5_reduce
I0403 18:32:08.445235  7093 net.cpp:91] Creating Layer inception_4a/5x5_reduce
I0403 18:32:08.445253  7093 net.cpp:425] inception_4a/5x5_reduce <- pool3/3x3_s2_pool3/3x3_s2_0_split_2
I0403 18:32:08.445276  7093 net.cpp:399] inception_4a/5x5_reduce -> inception_4a/5x5_reduce
I0403 18:32:08.446365  7093 net.cpp:141] Setting up inception_4a/5x5_reduce
I0403 18:32:08.446394  7093 net.cpp:148] Top shape: 24 16 14 14 (75264)
I0403 18:32:08.446411  7093 net.cpp:156] Memory required for data: 873364512
I0403 18:32:08.446431  7093 layer_factory.hpp:77] Creating layer inception_4a/relu_5x5_reduce
I0403 18:32:08.446452  7093 net.cpp:91] Creating Layer inception_4a/relu_5x5_reduce
I0403 18:32:08.446470  7093 net.cpp:425] inception_4a/relu_5x5_reduce <- inception_4a/5x5_reduce
I0403 18:32:08.446488  7093 net.cpp:386] inception_4a/relu_5x5_reduce -> inception_4a/5x5_reduce (in-place)
I0403 18:32:08.446676  7093 net.cpp:141] Setting up inception_4a/relu_5x5_reduce
I0403 18:32:08.446704  7093 net.cpp:148] Top shape: 24 16 14 14 (75264)
I0403 18:32:08.446720  7093 net.cpp:156] Memory required for data: 873665568
I0403 18:32:08.446735  7093 layer_factory.hpp:77] Creating layer inception_4a/5x5
I0403 18:32:08.446758  7093 net.cpp:91] Creating Layer inception_4a/5x5
I0403 18:32:08.446776  7093 net.cpp:425] inception_4a/5x5 <- inception_4a/5x5_reduce
I0403 18:32:08.446796  7093 net.cpp:399] inception_4a/5x5 -> inception_4a/5x5
I0403 18:32:08.447937  7093 net.cpp:141] Setting up inception_4a/5x5
I0403 18:32:08.447968  7093 net.cpp:148] Top shape: 24 48 14 14 (225792)
I0403 18:32:08.447985  7093 net.cpp:156] Memory required for data: 874568736
I0403 18:32:08.448004  7093 layer_factory.hpp:77] Creating layer inception_4a/relu_5x5
I0403 18:32:08.448024  7093 net.cpp:91] Creating Layer inception_4a/relu_5x5
I0403 18:32:08.448040  7093 net.cpp:425] inception_4a/relu_5x5 <- inception_4a/5x5
I0403 18:32:08.448060  7093 net.cpp:386] inception_4a/relu_5x5 -> inception_4a/5x5 (in-place)
I0403 18:32:08.448251  7093 net.cpp:141] Setting up inception_4a/relu_5x5
I0403 18:32:08.448277  7093 net.cpp:148] Top shape: 24 48 14 14 (225792)
I0403 18:32:08.448292  7093 net.cpp:156] Memory required for data: 875471904
I0403 18:32:08.448307  7093 layer_factory.hpp:77] Creating layer inception_4a/pool
I0403 18:32:08.448325  7093 net.cpp:91] Creating Layer inception_4a/pool
I0403 18:32:08.448343  7093 net.cpp:425] inception_4a/pool <- pool3/3x3_s2_pool3/3x3_s2_0_split_3
I0403 18:32:08.448364  7093 net.cpp:399] inception_4a/pool -> inception_4a/pool
I0403 18:32:08.448428  7093 net.cpp:141] Setting up inception_4a/pool
I0403 18:32:08.448452  7093 net.cpp:148] Top shape: 24 480 14 14 (2257920)
I0403 18:32:08.448467  7093 net.cpp:156] Memory required for data: 884503584
I0403 18:32:08.448483  7093 layer_factory.hpp:77] Creating layer inception_4a/pool_proj
I0403 18:32:08.448505  7093 net.cpp:91] Creating Layer inception_4a/pool_proj
I0403 18:32:08.448524  7093 net.cpp:425] inception_4a/pool_proj <- inception_4a/pool
I0403 18:32:08.448546  7093 net.cpp:399] inception_4a/pool_proj -> inception_4a/pool_proj
I0403 18:32:08.449782  7093 net.cpp:141] Setting up inception_4a/pool_proj
I0403 18:32:08.449812  7093 net.cpp:148] Top shape: 24 64 14 14 (301056)
I0403 18:32:08.449844  7093 net.cpp:156] Memory required for data: 885707808
I0403 18:32:08.449864  7093 layer_factory.hpp:77] Creating layer inception_4a/relu_pool_proj
I0403 18:32:08.449883  7093 net.cpp:91] Creating Layer inception_4a/relu_pool_proj
I0403 18:32:08.449900  7093 net.cpp:425] inception_4a/relu_pool_proj <- inception_4a/pool_proj
I0403 18:32:08.449923  7093 net.cpp:386] inception_4a/relu_pool_proj -> inception_4a/pool_proj (in-place)
I0403 18:32:08.450219  7093 net.cpp:141] Setting up inception_4a/relu_pool_proj
I0403 18:32:08.450247  7093 net.cpp:148] Top shape: 24 64 14 14 (301056)
I0403 18:32:08.450263  7093 net.cpp:156] Memory required for data: 886912032
I0403 18:32:08.450278  7093 layer_factory.hpp:77] Creating layer inception_4a/output
I0403 18:32:08.450296  7093 net.cpp:91] Creating Layer inception_4a/output
I0403 18:32:08.450312  7093 net.cpp:425] inception_4a/output <- inception_4a/1x1
I0403 18:32:08.450330  7093 net.cpp:425] inception_4a/output <- inception_4a/3x3
I0403 18:32:08.450345  7093 net.cpp:425] inception_4a/output <- inception_4a/5x5
I0403 18:32:08.450362  7093 net.cpp:425] inception_4a/output <- inception_4a/pool_proj
I0403 18:32:08.450383  7093 net.cpp:399] inception_4a/output -> inception_4a/output
I0403 18:32:08.450430  7093 net.cpp:141] Setting up inception_4a/output
I0403 18:32:08.450458  7093 net.cpp:148] Top shape: 24 512 14 14 (2408448)
I0403 18:32:08.450474  7093 net.cpp:156] Memory required for data: 896545824
I0403 18:32:08.450489  7093 layer_factory.hpp:77] Creating layer inception_4a/output_inception_4a/output_0_split
I0403 18:32:08.450507  7093 net.cpp:91] Creating Layer inception_4a/output_inception_4a/output_0_split
I0403 18:32:08.450523  7093 net.cpp:425] inception_4a/output_inception_4a/output_0_split <- inception_4a/output
I0403 18:32:08.450542  7093 net.cpp:399] inception_4a/output_inception_4a/output_0_split -> inception_4a/output_inception_4a/output_0_split_0
I0403 18:32:08.450572  7093 net.cpp:399] inception_4a/output_inception_4a/output_0_split -> inception_4a/output_inception_4a/output_0_split_1
I0403 18:32:08.450594  7093 net.cpp:399] inception_4a/output_inception_4a/output_0_split -> inception_4a/output_inception_4a/output_0_split_2
I0403 18:32:08.450615  7093 net.cpp:399] inception_4a/output_inception_4a/output_0_split -> inception_4a/output_inception_4a/output_0_split_3
I0403 18:32:08.450636  7093 net.cpp:399] inception_4a/output_inception_4a/output_0_split -> inception_4a/output_inception_4a/output_0_split_4
I0403 18:32:08.450733  7093 net.cpp:141] Setting up inception_4a/output_inception_4a/output_0_split
I0403 18:32:08.450758  7093 net.cpp:148] Top shape: 24 512 14 14 (2408448)
I0403 18:32:08.450776  7093 net.cpp:148] Top shape: 24 512 14 14 (2408448)
I0403 18:32:08.450793  7093 net.cpp:148] Top shape: 24 512 14 14 (2408448)
I0403 18:32:08.450809  7093 net.cpp:148] Top shape: 24 512 14 14 (2408448)
I0403 18:32:08.450825  7093 net.cpp:148] Top shape: 24 512 14 14 (2408448)
I0403 18:32:08.450839  7093 net.cpp:156] Memory required for data: 944714784
I0403 18:32:08.450855  7093 layer_factory.hpp:77] Creating layer loss1/ave_pool
I0403 18:32:08.450876  7093 net.cpp:91] Creating Layer loss1/ave_pool
I0403 18:32:08.450894  7093 net.cpp:425] loss1/ave_pool <- inception_4a/output_inception_4a/output_0_split_0
I0403 18:32:08.450913  7093 net.cpp:399] loss1/ave_pool -> loss1/ave_pool
I0403 18:32:08.451130  7093 net.cpp:141] Setting up loss1/ave_pool
I0403 18:32:08.451156  7093 net.cpp:148] Top shape: 24 512 4 4 (196608)
I0403 18:32:08.451172  7093 net.cpp:156] Memory required for data: 945501216
I0403 18:32:08.451189  7093 layer_factory.hpp:77] Creating layer loss1/conv
I0403 18:32:08.451215  7093 net.cpp:91] Creating Layer loss1/conv
I0403 18:32:08.451236  7093 net.cpp:425] loss1/conv <- loss1/ave_pool
I0403 18:32:08.451258  7093 net.cpp:399] loss1/conv -> loss1/conv
I0403 18:32:08.452775  7093 net.cpp:141] Setting up loss1/conv
I0403 18:32:08.452805  7093 net.cpp:148] Top shape: 24 128 4 4 (49152)
I0403 18:32:08.452834  7093 net.cpp:156] Memory required for data: 945697824
I0403 18:32:08.452855  7093 layer_factory.hpp:77] Creating layer loss1/relu_conv
I0403 18:32:08.452877  7093 net.cpp:91] Creating Layer loss1/relu_conv
I0403 18:32:08.452894  7093 net.cpp:425] loss1/relu_conv <- loss1/conv
I0403 18:32:08.452911  7093 net.cpp:386] loss1/relu_conv -> loss1/conv (in-place)
I0403 18:32:08.453205  7093 net.cpp:141] Setting up loss1/relu_conv
I0403 18:32:08.453238  7093 net.cpp:148] Top shape: 24 128 4 4 (49152)
I0403 18:32:08.453253  7093 net.cpp:156] Memory required for data: 945894432
I0403 18:32:08.453269  7093 layer_factory.hpp:77] Creating layer loss1/fc
I0403 18:32:08.453295  7093 net.cpp:91] Creating Layer loss1/fc
I0403 18:32:08.453315  7093 net.cpp:425] loss1/fc <- loss1/conv
I0403 18:32:08.453333  7093 net.cpp:399] loss1/fc -> loss1/fc
I0403 18:32:08.471806  7093 net.cpp:141] Setting up loss1/fc
I0403 18:32:08.471882  7093 net.cpp:148] Top shape: 24 1024 (24576)
I0403 18:32:08.471899  7093 net.cpp:156] Memory required for data: 945992736
I0403 18:32:08.471918  7093 layer_factory.hpp:77] Creating layer loss1/relu_fc
I0403 18:32:08.471938  7093 net.cpp:91] Creating Layer loss1/relu_fc
I0403 18:32:08.471956  7093 net.cpp:425] loss1/relu_fc <- loss1/fc
I0403 18:32:08.471976  7093 net.cpp:386] loss1/relu_fc -> loss1/fc (in-place)
I0403 18:32:08.472204  7093 net.cpp:141] Setting up loss1/relu_fc
I0403 18:32:08.472239  7093 net.cpp:148] Top shape: 24 1024 (24576)
I0403 18:32:08.472255  7093 net.cpp:156] Memory required for data: 946091040
I0403 18:32:08.472270  7093 layer_factory.hpp:77] Creating layer loss1/drop_fc
I0403 18:32:08.472302  7093 net.cpp:91] Creating Layer loss1/drop_fc
I0403 18:32:08.472319  7093 net.cpp:425] loss1/drop_fc <- loss1/fc
I0403 18:32:08.472337  7093 net.cpp:386] loss1/drop_fc -> loss1/fc (in-place)
I0403 18:32:08.472388  7093 net.cpp:141] Setting up loss1/drop_fc
I0403 18:32:08.472415  7093 net.cpp:148] Top shape: 24 1024 (24576)
I0403 18:32:08.472431  7093 net.cpp:156] Memory required for data: 946189344
I0403 18:32:08.472446  7093 layer_factory.hpp:77] Creating layer loss1/classifier_plantvillage
I0403 18:32:08.472465  7093 net.cpp:91] Creating Layer loss1/classifier_plantvillage
I0403 18:32:08.472481  7093 net.cpp:425] loss1/classifier_plantvillage <- loss1/fc
I0403 18:32:08.472502  7093 net.cpp:399] loss1/classifier_plantvillage -> loss1/classifier_plantvillage
I0403 18:32:08.473515  7093 net.cpp:141] Setting up loss1/classifier_plantvillage
I0403 18:32:08.473543  7093 net.cpp:148] Top shape: 24 38 (912)
I0403 18:32:08.473559  7093 net.cpp:156] Memory required for data: 946192992
I0403 18:32:08.473577  7093 layer_factory.hpp:77] Creating layer loss1/classifier_plantvillage_loss1/classifier_plantvillage_0_split
I0403 18:32:08.473599  7093 net.cpp:91] Creating Layer loss1/classifier_plantvillage_loss1/classifier_plantvillage_0_split
I0403 18:32:08.473615  7093 net.cpp:425] loss1/classifier_plantvillage_loss1/classifier_plantvillage_0_split <- loss1/classifier_plantvillage
I0403 18:32:08.473634  7093 net.cpp:399] loss1/classifier_plantvillage_loss1/classifier_plantvillage_0_split -> loss1/classifier_plantvillage_loss1/classifier_plantvillage_0_split_0
I0403 18:32:08.473654  7093 net.cpp:399] loss1/classifier_plantvillage_loss1/classifier_plantvillage_0_split -> loss1/classifier_plantvillage_loss1/classifier_plantvillage_0_split_1
I0403 18:32:08.473675  7093 net.cpp:399] loss1/classifier_plantvillage_loss1/classifier_plantvillage_0_split -> loss1/classifier_plantvillage_loss1/classifier_plantvillage_0_split_2
I0403 18:32:08.473742  7093 net.cpp:141] Setting up loss1/classifier_plantvillage_loss1/classifier_plantvillage_0_split
I0403 18:32:08.473768  7093 net.cpp:148] Top shape: 24 38 (912)
I0403 18:32:08.473786  7093 net.cpp:148] Top shape: 24 38 (912)
I0403 18:32:08.473803  7093 net.cpp:148] Top shape: 24 38 (912)
I0403 18:32:08.473817  7093 net.cpp:156] Memory required for data: 946203936
I0403 18:32:08.473832  7093 layer_factory.hpp:77] Creating layer inception_4b/1x1
I0403 18:32:08.473853  7093 net.cpp:91] Creating Layer inception_4b/1x1
I0403 18:32:08.473897  7093 net.cpp:425] inception_4b/1x1 <- inception_4a/output_inception_4a/output_0_split_1
I0403 18:32:08.473917  7093 net.cpp:399] inception_4b/1x1 -> inception_4b/1x1
I0403 18:32:08.475620  7093 net.cpp:141] Setting up inception_4b/1x1
I0403 18:32:08.475648  7093 net.cpp:148] Top shape: 24 160 14 14 (752640)
I0403 18:32:08.475663  7093 net.cpp:156] Memory required for data: 949214496
I0403 18:32:08.475682  7093 layer_factory.hpp:77] Creating layer inception_4b/relu_1x1
I0403 18:32:08.475708  7093 net.cpp:91] Creating Layer inception_4b/relu_1x1
I0403 18:32:08.475724  7093 net.cpp:425] inception_4b/relu_1x1 <- inception_4b/1x1
I0403 18:32:08.475741  7093 net.cpp:386] inception_4b/relu_1x1 -> inception_4b/1x1 (in-place)
I0403 18:32:08.475924  7093 net.cpp:141] Setting up inception_4b/relu_1x1
I0403 18:32:08.475951  7093 net.cpp:148] Top shape: 24 160 14 14 (752640)
I0403 18:32:08.475966  7093 net.cpp:156] Memory required for data: 952225056
I0403 18:32:08.475982  7093 layer_factory.hpp:77] Creating layer inception_4b/3x3_reduce
I0403 18:32:08.476006  7093 net.cpp:91] Creating Layer inception_4b/3x3_reduce
I0403 18:32:08.476024  7093 net.cpp:425] inception_4b/3x3_reduce <- inception_4a/output_inception_4a/output_0_split_2
I0403 18:32:08.476042  7093 net.cpp:399] inception_4b/3x3_reduce -> inception_4b/3x3_reduce
I0403 18:32:08.477414  7093 net.cpp:141] Setting up inception_4b/3x3_reduce
I0403 18:32:08.477447  7093 net.cpp:148] Top shape: 24 112 14 14 (526848)
I0403 18:32:08.477463  7093 net.cpp:156] Memory required for data: 954332448
I0403 18:32:08.477483  7093 layer_factory.hpp:77] Creating layer inception_4b/relu_3x3_reduce
I0403 18:32:08.477500  7093 net.cpp:91] Creating Layer inception_4b/relu_3x3_reduce
I0403 18:32:08.477516  7093 net.cpp:425] inception_4b/relu_3x3_reduce <- inception_4b/3x3_reduce
I0403 18:32:08.477537  7093 net.cpp:386] inception_4b/relu_3x3_reduce -> inception_4b/3x3_reduce (in-place)
I0403 18:32:08.477818  7093 net.cpp:141] Setting up inception_4b/relu_3x3_reduce
I0403 18:32:08.477845  7093 net.cpp:148] Top shape: 24 112 14 14 (526848)
I0403 18:32:08.477861  7093 net.cpp:156] Memory required for data: 956439840
I0403 18:32:08.477876  7093 layer_factory.hpp:77] Creating layer inception_4b/3x3
I0403 18:32:08.477900  7093 net.cpp:91] Creating Layer inception_4b/3x3
I0403 18:32:08.477917  7093 net.cpp:425] inception_4b/3x3 <- inception_4b/3x3_reduce
I0403 18:32:08.477936  7093 net.cpp:399] inception_4b/3x3 -> inception_4b/3x3
I0403 18:32:08.480993  7093 net.cpp:141] Setting up inception_4b/3x3
I0403 18:32:08.481022  7093 net.cpp:148] Top shape: 24 224 14 14 (1053696)
I0403 18:32:08.481039  7093 net.cpp:156] Memory required for data: 960654624
I0403 18:32:08.481056  7093 layer_factory.hpp:77] Creating layer inception_4b/relu_3x3
I0403 18:32:08.481078  7093 net.cpp:91] Creating Layer inception_4b/relu_3x3
I0403 18:32:08.481094  7093 net.cpp:425] inception_4b/relu_3x3 <- inception_4b/3x3
I0403 18:32:08.481112  7093 net.cpp:386] inception_4b/relu_3x3 -> inception_4b/3x3 (in-place)
I0403 18:32:08.481298  7093 net.cpp:141] Setting up inception_4b/relu_3x3
I0403 18:32:08.481323  7093 net.cpp:148] Top shape: 24 224 14 14 (1053696)
I0403 18:32:08.481338  7093 net.cpp:156] Memory required for data: 964869408
I0403 18:32:08.481353  7093 layer_factory.hpp:77] Creating layer inception_4b/5x5_reduce
I0403 18:32:08.481377  7093 net.cpp:91] Creating Layer inception_4b/5x5_reduce
I0403 18:32:08.481395  7093 net.cpp:425] inception_4b/5x5_reduce <- inception_4a/output_inception_4a/output_0_split_3
I0403 18:32:08.481417  7093 net.cpp:399] inception_4b/5x5_reduce -> inception_4b/5x5_reduce
I0403 18:32:08.482528  7093 net.cpp:141] Setting up inception_4b/5x5_reduce
I0403 18:32:08.482556  7093 net.cpp:148] Top shape: 24 24 14 14 (112896)
I0403 18:32:08.482573  7093 net.cpp:156] Memory required for data: 965320992
I0403 18:32:08.482590  7093 layer_factory.hpp:77] Creating layer inception_4b/relu_5x5_reduce
I0403 18:32:08.482611  7093 net.cpp:91] Creating Layer inception_4b/relu_5x5_reduce
I0403 18:32:08.482642  7093 net.cpp:425] inception_4b/relu_5x5_reduce <- inception_4b/5x5_reduce
I0403 18:32:08.482662  7093 net.cpp:386] inception_4b/relu_5x5_reduce -> inception_4b/5x5_reduce (in-place)
I0403 18:32:08.482849  7093 net.cpp:141] Setting up inception_4b/relu_5x5_reduce
I0403 18:32:08.482873  7093 net.cpp:148] Top shape: 24 24 14 14 (112896)
I0403 18:32:08.482888  7093 net.cpp:156] Memory required for data: 965772576
I0403 18:32:08.482903  7093 layer_factory.hpp:77] Creating layer inception_4b/5x5
I0403 18:32:08.482926  7093 net.cpp:91] Creating Layer inception_4b/5x5
I0403 18:32:08.482945  7093 net.cpp:425] inception_4b/5x5 <- inception_4b/5x5_reduce
I0403 18:32:08.482974  7093 net.cpp:399] inception_4b/5x5 -> inception_4b/5x5
I0403 18:32:08.484235  7093 net.cpp:141] Setting up inception_4b/5x5
I0403 18:32:08.484275  7093 net.cpp:148] Top shape: 24 64 14 14 (301056)
I0403 18:32:08.484292  7093 net.cpp:156] Memory required for data: 966976800
I0403 18:32:08.484310  7093 layer_factory.hpp:77] Creating layer inception_4b/relu_5x5
I0403 18:32:08.484333  7093 net.cpp:91] Creating Layer inception_4b/relu_5x5
I0403 18:32:08.484349  7093 net.cpp:425] inception_4b/relu_5x5 <- inception_4b/5x5
I0403 18:32:08.484367  7093 net.cpp:386] inception_4b/relu_5x5 -> inception_4b/5x5 (in-place)
I0403 18:32:08.484686  7093 net.cpp:141] Setting up inception_4b/relu_5x5
I0403 18:32:08.484712  7093 net.cpp:148] Top shape: 24 64 14 14 (301056)
I0403 18:32:08.484727  7093 net.cpp:156] Memory required for data: 968181024
I0403 18:32:08.484741  7093 layer_factory.hpp:77] Creating layer inception_4b/pool
I0403 18:32:08.484762  7093 net.cpp:91] Creating Layer inception_4b/pool
I0403 18:32:08.484779  7093 net.cpp:425] inception_4b/pool <- inception_4a/output_inception_4a/output_0_split_4
I0403 18:32:08.484797  7093 net.cpp:399] inception_4b/pool -> inception_4b/pool
I0403 18:32:08.484864  7093 net.cpp:141] Setting up inception_4b/pool
I0403 18:32:08.484886  7093 net.cpp:148] Top shape: 24 512 14 14 (2408448)
I0403 18:32:08.484901  7093 net.cpp:156] Memory required for data: 977814816
I0403 18:32:08.484916  7093 layer_factory.hpp:77] Creating layer inception_4b/pool_proj
I0403 18:32:08.484938  7093 net.cpp:91] Creating Layer inception_4b/pool_proj
I0403 18:32:08.484956  7093 net.cpp:425] inception_4b/pool_proj <- inception_4b/pool
I0403 18:32:08.484977  7093 net.cpp:399] inception_4b/pool_proj -> inception_4b/pool_proj
I0403 18:32:08.486167  7093 net.cpp:141] Setting up inception_4b/pool_proj
I0403 18:32:08.486198  7093 net.cpp:148] Top shape: 24 64 14 14 (301056)
I0403 18:32:08.486219  7093 net.cpp:156] Memory required for data: 979019040
I0403 18:32:08.486239  7093 layer_factory.hpp:77] Creating layer inception_4b/relu_pool_proj
I0403 18:32:08.486258  7093 net.cpp:91] Creating Layer inception_4b/relu_pool_proj
I0403 18:32:08.486273  7093 net.cpp:425] inception_4b/relu_pool_proj <- inception_4b/pool_proj
I0403 18:32:08.486289  7093 net.cpp:386] inception_4b/relu_pool_proj -> inception_4b/pool_proj (in-place)
I0403 18:32:08.486469  7093 net.cpp:141] Setting up inception_4b/relu_pool_proj
I0403 18:32:08.486495  7093 net.cpp:148] Top shape: 24 64 14 14 (301056)
I0403 18:32:08.486510  7093 net.cpp:156] Memory required for data: 980223264
I0403 18:32:08.486524  7093 layer_factory.hpp:77] Creating layer inception_4b/output
I0403 18:32:08.486543  7093 net.cpp:91] Creating Layer inception_4b/output
I0403 18:32:08.486557  7093 net.cpp:425] inception_4b/output <- inception_4b/1x1
I0403 18:32:08.486573  7093 net.cpp:425] inception_4b/output <- inception_4b/3x3
I0403 18:32:08.486589  7093 net.cpp:425] inception_4b/output <- inception_4b/5x5
I0403 18:32:08.486604  7093 net.cpp:425] inception_4b/output <- inception_4b/pool_proj
I0403 18:32:08.486624  7093 net.cpp:399] inception_4b/output -> inception_4b/output
I0403 18:32:08.486670  7093 net.cpp:141] Setting up inception_4b/output
I0403 18:32:08.486692  7093 net.cpp:148] Top shape: 24 512 14 14 (2408448)
I0403 18:32:08.486706  7093 net.cpp:156] Memory required for data: 989857056
I0403 18:32:08.486734  7093 layer_factory.hpp:77] Creating layer inception_4b/output_inception_4b/output_0_split
I0403 18:32:08.486759  7093 net.cpp:91] Creating Layer inception_4b/output_inception_4b/output_0_split
I0403 18:32:08.486776  7093 net.cpp:425] inception_4b/output_inception_4b/output_0_split <- inception_4b/output
I0403 18:32:08.486793  7093 net.cpp:399] inception_4b/output_inception_4b/output_0_split -> inception_4b/output_inception_4b/output_0_split_0
I0403 18:32:08.486814  7093 net.cpp:399] inception_4b/output_inception_4b/output_0_split -> inception_4b/output_inception_4b/output_0_split_1
I0403 18:32:08.486836  7093 net.cpp:399] inception_4b/output_inception_4b/output_0_split -> inception_4b/output_inception_4b/output_0_split_2
I0403 18:32:08.486855  7093 net.cpp:399] inception_4b/output_inception_4b/output_0_split -> inception_4b/output_inception_4b/output_0_split_3
I0403 18:32:08.486937  7093 net.cpp:141] Setting up inception_4b/output_inception_4b/output_0_split
I0403 18:32:08.486960  7093 net.cpp:148] Top shape: 24 512 14 14 (2408448)
I0403 18:32:08.486976  7093 net.cpp:148] Top shape: 24 512 14 14 (2408448)
I0403 18:32:08.486991  7093 net.cpp:148] Top shape: 24 512 14 14 (2408448)
I0403 18:32:08.487006  7093 net.cpp:148] Top shape: 24 512 14 14 (2408448)
I0403 18:32:08.487020  7093 net.cpp:156] Memory required for data: 1028392224
I0403 18:32:08.487035  7093 layer_factory.hpp:77] Creating layer inception_4c/1x1
I0403 18:32:08.487056  7093 net.cpp:91] Creating Layer inception_4c/1x1
I0403 18:32:08.487073  7093 net.cpp:425] inception_4c/1x1 <- inception_4b/output_inception_4b/output_0_split_0
I0403 18:32:08.487095  7093 net.cpp:399] inception_4c/1x1 -> inception_4c/1x1
I0403 18:32:08.488505  7093 net.cpp:141] Setting up inception_4c/1x1
I0403 18:32:08.488536  7093 net.cpp:148] Top shape: 24 128 14 14 (602112)
I0403 18:32:08.488554  7093 net.cpp:156] Memory required for data: 1030800672
I0403 18:32:08.488571  7093 layer_factory.hpp:77] Creating layer inception_4c/relu_1x1
I0403 18:32:08.488589  7093 net.cpp:91] Creating Layer inception_4c/relu_1x1
I0403 18:32:08.488605  7093 net.cpp:425] inception_4c/relu_1x1 <- inception_4c/1x1
I0403 18:32:08.488625  7093 net.cpp:386] inception_4c/relu_1x1 -> inception_4c/1x1 (in-place)
I0403 18:32:08.488803  7093 net.cpp:141] Setting up inception_4c/relu_1x1
I0403 18:32:08.488827  7093 net.cpp:148] Top shape: 24 128 14 14 (602112)
I0403 18:32:08.488842  7093 net.cpp:156] Memory required for data: 1033209120
I0403 18:32:08.488857  7093 layer_factory.hpp:77] Creating layer inception_4c/3x3_reduce
I0403 18:32:08.488878  7093 net.cpp:91] Creating Layer inception_4c/3x3_reduce
I0403 18:32:08.488895  7093 net.cpp:425] inception_4c/3x3_reduce <- inception_4b/output_inception_4b/output_0_split_1
I0403 18:32:08.488916  7093 net.cpp:399] inception_4c/3x3_reduce -> inception_4c/3x3_reduce
I0403 18:32:08.490934  7093 net.cpp:141] Setting up inception_4c/3x3_reduce
I0403 18:32:08.490963  7093 net.cpp:148] Top shape: 24 128 14 14 (602112)
I0403 18:32:08.490978  7093 net.cpp:156] Memory required for data: 1035617568
I0403 18:32:08.490998  7093 layer_factory.hpp:77] Creating layer inception_4c/relu_3x3_reduce
I0403 18:32:08.491019  7093 net.cpp:91] Creating Layer inception_4c/relu_3x3_reduce
I0403 18:32:08.491035  7093 net.cpp:425] inception_4c/relu_3x3_reduce <- inception_4c/3x3_reduce
I0403 18:32:08.491055  7093 net.cpp:386] inception_4c/relu_3x3_reduce -> inception_4c/3x3_reduce (in-place)
I0403 18:32:08.491348  7093 net.cpp:141] Setting up inception_4c/relu_3x3_reduce
I0403 18:32:08.491374  7093 net.cpp:148] Top shape: 24 128 14 14 (602112)
I0403 18:32:08.491389  7093 net.cpp:156] Memory required for data: 1038026016
I0403 18:32:08.491405  7093 layer_factory.hpp:77] Creating layer inception_4c/3x3
I0403 18:32:08.491428  7093 net.cpp:91] Creating Layer inception_4c/3x3
I0403 18:32:08.491446  7093 net.cpp:425] inception_4c/3x3 <- inception_4c/3x3_reduce
I0403 18:32:08.491468  7093 net.cpp:399] inception_4c/3x3 -> inception_4c/3x3
I0403 18:32:08.495266  7093 net.cpp:141] Setting up inception_4c/3x3
I0403 18:32:08.495309  7093 net.cpp:148] Top shape: 24 256 14 14 (1204224)
I0403 18:32:08.495326  7093 net.cpp:156] Memory required for data: 1042842912
I0403 18:32:08.495363  7093 layer_factory.hpp:77] Creating layer inception_4c/relu_3x3
I0403 18:32:08.495388  7093 net.cpp:91] Creating Layer inception_4c/relu_3x3
I0403 18:32:08.495404  7093 net.cpp:425] inception_4c/relu_3x3 <- inception_4c/3x3
I0403 18:32:08.495421  7093 net.cpp:386] inception_4c/relu_3x3 -> inception_4c/3x3 (in-place)
I0403 18:32:08.495607  7093 net.cpp:141] Setting up inception_4c/relu_3x3
I0403 18:32:08.495632  7093 net.cpp:148] Top shape: 24 256 14 14 (1204224)
I0403 18:32:08.495647  7093 net.cpp:156] Memory required for data: 1047659808
I0403 18:32:08.495662  7093 layer_factory.hpp:77] Creating layer inception_4c/5x5_reduce
I0403 18:32:08.495688  7093 net.cpp:91] Creating Layer inception_4c/5x5_reduce
I0403 18:32:08.495707  7093 net.cpp:425] inception_4c/5x5_reduce <- inception_4b/output_inception_4b/output_0_split_2
I0403 18:32:08.495725  7093 net.cpp:399] inception_4c/5x5_reduce -> inception_4c/5x5_reduce
I0403 18:32:08.496824  7093 net.cpp:141] Setting up inception_4c/5x5_reduce
I0403 18:32:08.496853  7093 net.cpp:148] Top shape: 24 24 14 14 (112896)
I0403 18:32:08.496870  7093 net.cpp:156] Memory required for data: 1048111392
I0403 18:32:08.496887  7093 layer_factory.hpp:77] Creating layer inception_4c/relu_5x5_reduce
I0403 18:32:08.496907  7093 net.cpp:91] Creating Layer inception_4c/relu_5x5_reduce
I0403 18:32:08.496923  7093 net.cpp:425] inception_4c/relu_5x5_reduce <- inception_4c/5x5_reduce
I0403 18:32:08.496942  7093 net.cpp:386] inception_4c/relu_5x5_reduce -> inception_4c/5x5_reduce (in-place)
I0403 18:32:08.497128  7093 net.cpp:141] Setting up inception_4c/relu_5x5_reduce
I0403 18:32:08.497153  7093 net.cpp:148] Top shape: 24 24 14 14 (112896)
I0403 18:32:08.497166  7093 net.cpp:156] Memory required for data: 1048562976
I0403 18:32:08.497182  7093 layer_factory.hpp:77] Creating layer inception_4c/5x5
I0403 18:32:08.497205  7093 net.cpp:91] Creating Layer inception_4c/5x5
I0403 18:32:08.497227  7093 net.cpp:425] inception_4c/5x5 <- inception_4c/5x5_reduce
I0403 18:32:08.497249  7093 net.cpp:399] inception_4c/5x5 -> inception_4c/5x5
I0403 18:32:08.498565  7093 net.cpp:141] Setting up inception_4c/5x5
I0403 18:32:08.498599  7093 net.cpp:148] Top shape: 24 64 14 14 (301056)
I0403 18:32:08.498630  7093 net.cpp:156] Memory required for data: 1049767200
I0403 18:32:08.498648  7093 layer_factory.hpp:77] Creating layer inception_4c/relu_5x5
I0403 18:32:08.498667  7093 net.cpp:91] Creating Layer inception_4c/relu_5x5
I0403 18:32:08.498684  7093 net.cpp:425] inception_4c/relu_5x5 <- inception_4c/5x5
I0403 18:32:08.498704  7093 net.cpp:386] inception_4c/relu_5x5 -> inception_4c/5x5 (in-place)
I0403 18:32:08.499007  7093 net.cpp:141] Setting up inception_4c/relu_5x5
I0403 18:32:08.499037  7093 net.cpp:148] Top shape: 24 64 14 14 (301056)
I0403 18:32:08.499054  7093 net.cpp:156] Memory required for data: 1050971424
I0403 18:32:08.499069  7093 layer_factory.hpp:77] Creating layer inception_4c/pool
I0403 18:32:08.499089  7093 net.cpp:91] Creating Layer inception_4c/pool
I0403 18:32:08.499105  7093 net.cpp:425] inception_4c/pool <- inception_4b/output_inception_4b/output_0_split_3
I0403 18:32:08.499127  7093 net.cpp:399] inception_4c/pool -> inception_4c/pool
I0403 18:32:08.499196  7093 net.cpp:141] Setting up inception_4c/pool
I0403 18:32:08.499228  7093 net.cpp:148] Top shape: 24 512 14 14 (2408448)
I0403 18:32:08.499245  7093 net.cpp:156] Memory required for data: 1060605216
I0403 18:32:08.499261  7093 layer_factory.hpp:77] Creating layer inception_4c/pool_proj
I0403 18:32:08.499282  7093 net.cpp:91] Creating Layer inception_4c/pool_proj
I0403 18:32:08.499300  7093 net.cpp:425] inception_4c/pool_proj <- inception_4c/pool
I0403 18:32:08.499322  7093 net.cpp:399] inception_4c/pool_proj -> inception_4c/pool_proj
I0403 18:32:08.500629  7093 net.cpp:141] Setting up inception_4c/pool_proj
I0403 18:32:08.500658  7093 net.cpp:148] Top shape: 24 64 14 14 (301056)
I0403 18:32:08.500689  7093 net.cpp:156] Memory required for data: 1061809440
I0403 18:32:08.500710  7093 layer_factory.hpp:77] Creating layer inception_4c/relu_pool_proj
I0403 18:32:08.500733  7093 net.cpp:91] Creating Layer inception_4c/relu_pool_proj
I0403 18:32:08.500751  7093 net.cpp:425] inception_4c/relu_pool_proj <- inception_4c/pool_proj
I0403 18:32:08.500769  7093 net.cpp:386] inception_4c/relu_pool_proj -> inception_4c/pool_proj (in-place)
I0403 18:32:08.500957  7093 net.cpp:141] Setting up inception_4c/relu_pool_proj
I0403 18:32:08.500987  7093 net.cpp:148] Top shape: 24 64 14 14 (301056)
I0403 18:32:08.501003  7093 net.cpp:156] Memory required for data: 1063013664
I0403 18:32:08.501019  7093 layer_factory.hpp:77] Creating layer inception_4c/output
I0403 18:32:08.501039  7093 net.cpp:91] Creating Layer inception_4c/output
I0403 18:32:08.501055  7093 net.cpp:425] inception_4c/output <- inception_4c/1x1
I0403 18:32:08.501071  7093 net.cpp:425] inception_4c/output <- inception_4c/3x3
I0403 18:32:08.501087  7093 net.cpp:425] inception_4c/output <- inception_4c/5x5
I0403 18:32:08.501104  7093 net.cpp:425] inception_4c/output <- inception_4c/pool_proj
I0403 18:32:08.501126  7093 net.cpp:399] inception_4c/output -> inception_4c/output
I0403 18:32:08.501173  7093 net.cpp:141] Setting up inception_4c/output
I0403 18:32:08.501199  7093 net.cpp:148] Top shape: 24 512 14 14 (2408448)
I0403 18:32:08.501219  7093 net.cpp:156] Memory required for data: 1072647456
I0403 18:32:08.501235  7093 layer_factory.hpp:77] Creating layer inception_4c/output_inception_4c/output_0_split
I0403 18:32:08.501255  7093 net.cpp:91] Creating Layer inception_4c/output_inception_4c/output_0_split
I0403 18:32:08.501273  7093 net.cpp:425] inception_4c/output_inception_4c/output_0_split <- inception_4c/output
I0403 18:32:08.501291  7093 net.cpp:399] inception_4c/output_inception_4c/output_0_split -> inception_4c/output_inception_4c/output_0_split_0
I0403 18:32:08.501312  7093 net.cpp:399] inception_4c/output_inception_4c/output_0_split -> inception_4c/output_inception_4c/output_0_split_1
I0403 18:32:08.501337  7093 net.cpp:399] inception_4c/output_inception_4c/output_0_split -> inception_4c/output_inception_4c/output_0_split_2
I0403 18:32:08.501359  7093 net.cpp:399] inception_4c/output_inception_4c/output_0_split -> inception_4c/output_inception_4c/output_0_split_3
I0403 18:32:08.501447  7093 net.cpp:141] Setting up inception_4c/output_inception_4c/output_0_split
I0403 18:32:08.501471  7093 net.cpp:148] Top shape: 24 512 14 14 (2408448)
I0403 18:32:08.501488  7093 net.cpp:148] Top shape: 24 512 14 14 (2408448)
I0403 18:32:08.501505  7093 net.cpp:148] Top shape: 24 512 14 14 (2408448)
I0403 18:32:08.501523  7093 net.cpp:148] Top shape: 24 512 14 14 (2408448)
I0403 18:32:08.501536  7093 net.cpp:156] Memory required for data: 1111182624
I0403 18:32:08.501552  7093 layer_factory.hpp:77] Creating layer inception_4d/1x1
I0403 18:32:08.501575  7093 net.cpp:91] Creating Layer inception_4d/1x1
I0403 18:32:08.501593  7093 net.cpp:425] inception_4d/1x1 <- inception_4c/output_inception_4c/output_0_split_0
I0403 18:32:08.501616  7093 net.cpp:399] inception_4d/1x1 -> inception_4d/1x1
I0403 18:32:08.503057  7093 net.cpp:141] Setting up inception_4d/1x1
I0403 18:32:08.503087  7093 net.cpp:148] Top shape: 24 112 14 14 (526848)
I0403 18:32:08.503103  7093 net.cpp:156] Memory required for data: 1113290016
I0403 18:32:08.503123  7093 layer_factory.hpp:77] Creating layer inception_4d/relu_1x1
I0403 18:32:08.503150  7093 net.cpp:91] Creating Layer inception_4d/relu_1x1
I0403 18:32:08.503168  7093 net.cpp:425] inception_4d/relu_1x1 <- inception_4d/1x1
I0403 18:32:08.503187  7093 net.cpp:386] inception_4d/relu_1x1 -> inception_4d/1x1 (in-place)
I0403 18:32:08.503381  7093 net.cpp:141] Setting up inception_4d/relu_1x1
I0403 18:32:08.503407  7093 net.cpp:148] Top shape: 24 112 14 14 (526848)
I0403 18:32:08.503423  7093 net.cpp:156] Memory required for data: 1115397408
I0403 18:32:08.503439  7093 layer_factory.hpp:77] Creating layer inception_4d/3x3_reduce
I0403 18:32:08.503479  7093 net.cpp:91] Creating Layer inception_4d/3x3_reduce
I0403 18:32:08.503499  7093 net.cpp:425] inception_4d/3x3_reduce <- inception_4c/output_inception_4c/output_0_split_1
I0403 18:32:08.503518  7093 net.cpp:399] inception_4d/3x3_reduce -> inception_4d/3x3_reduce
I0403 18:32:08.505115  7093 net.cpp:141] Setting up inception_4d/3x3_reduce
I0403 18:32:08.505142  7093 net.cpp:148] Top shape: 24 144 14 14 (677376)
I0403 18:32:08.505159  7093 net.cpp:156] Memory required for data: 1118106912
I0403 18:32:08.505178  7093 layer_factory.hpp:77] Creating layer inception_4d/relu_3x3_reduce
I0403 18:32:08.505198  7093 net.cpp:91] Creating Layer inception_4d/relu_3x3_reduce
I0403 18:32:08.505219  7093 net.cpp:425] inception_4d/relu_3x3_reduce <- inception_4d/3x3_reduce
I0403 18:32:08.505242  7093 net.cpp:386] inception_4d/relu_3x3_reduce -> inception_4d/3x3_reduce (in-place)
I0403 18:32:08.505542  7093 net.cpp:141] Setting up inception_4d/relu_3x3_reduce
I0403 18:32:08.505568  7093 net.cpp:148] Top shape: 24 144 14 14 (677376)
I0403 18:32:08.505584  7093 net.cpp:156] Memory required for data: 1120816416
I0403 18:32:08.505600  7093 layer_factory.hpp:77] Creating layer inception_4d/3x3
I0403 18:32:08.505625  7093 net.cpp:91] Creating Layer inception_4d/3x3
I0403 18:32:08.505642  7093 net.cpp:425] inception_4d/3x3 <- inception_4d/3x3_reduce
I0403 18:32:08.505666  7093 net.cpp:399] inception_4d/3x3 -> inception_4d/3x3
I0403 18:32:08.510146  7093 net.cpp:141] Setting up inception_4d/3x3
I0403 18:32:08.510176  7093 net.cpp:148] Top shape: 24 288 14 14 (1354752)
I0403 18:32:08.510193  7093 net.cpp:156] Memory required for data: 1126235424
I0403 18:32:08.510215  7093 layer_factory.hpp:77] Creating layer inception_4d/relu_3x3
I0403 18:32:08.510239  7093 net.cpp:91] Creating Layer inception_4d/relu_3x3
I0403 18:32:08.510257  7093 net.cpp:425] inception_4d/relu_3x3 <- inception_4d/3x3
I0403 18:32:08.510275  7093 net.cpp:386] inception_4d/relu_3x3 -> inception_4d/3x3 (in-place)
I0403 18:32:08.510459  7093 net.cpp:141] Setting up inception_4d/relu_3x3
I0403 18:32:08.510488  7093 net.cpp:148] Top shape: 24 288 14 14 (1354752)
I0403 18:32:08.510504  7093 net.cpp:156] Memory required for data: 1131654432
I0403 18:32:08.510520  7093 layer_factory.hpp:77] Creating layer inception_4d/5x5_reduce
I0403 18:32:08.510550  7093 net.cpp:91] Creating Layer inception_4d/5x5_reduce
I0403 18:32:08.510568  7093 net.cpp:425] inception_4d/5x5_reduce <- inception_4c/output_inception_4c/output_0_split_2
I0403 18:32:08.510587  7093 net.cpp:399] inception_4d/5x5_reduce -> inception_4d/5x5_reduce
I0403 18:32:08.511744  7093 net.cpp:141] Setting up inception_4d/5x5_reduce
I0403 18:32:08.511772  7093 net.cpp:148] Top shape: 24 32 14 14 (150528)
I0403 18:32:08.511788  7093 net.cpp:156] Memory required for data: 1132256544
I0403 18:32:08.511808  7093 layer_factory.hpp:77] Creating layer inception_4d/relu_5x5_reduce
I0403 18:32:08.511828  7093 net.cpp:91] Creating Layer inception_4d/relu_5x5_reduce
I0403 18:32:08.511845  7093 net.cpp:425] inception_4d/relu_5x5_reduce <- inception_4d/5x5_reduce
I0403 18:32:08.511862  7093 net.cpp:386] inception_4d/relu_5x5_reduce -> inception_4d/5x5_reduce (in-place)
I0403 18:32:08.512053  7093 net.cpp:141] Setting up inception_4d/relu_5x5_reduce
I0403 18:32:08.512079  7093 net.cpp:148] Top shape: 24 32 14 14 (150528)
I0403 18:32:08.512094  7093 net.cpp:156] Memory required for data: 1132858656
I0403 18:32:08.512109  7093 layer_factory.hpp:77] Creating layer inception_4d/5x5
I0403 18:32:08.512132  7093 net.cpp:91] Creating Layer inception_4d/5x5
I0403 18:32:08.512151  7093 net.cpp:425] inception_4d/5x5 <- inception_4d/5x5_reduce
I0403 18:32:08.512171  7093 net.cpp:399] inception_4d/5x5 -> inception_4d/5x5
I0403 18:32:08.513707  7093 net.cpp:141] Setting up inception_4d/5x5
I0403 18:32:08.513737  7093 net.cpp:148] Top shape: 24 64 14 14 (301056)
I0403 18:32:08.513754  7093 net.cpp:156] Memory required for data: 1134062880
I0403 18:32:08.513773  7093 layer_factory.hpp:77] Creating layer inception_4d/relu_5x5
I0403 18:32:08.513806  7093 net.cpp:91] Creating Layer inception_4d/relu_5x5
I0403 18:32:08.513823  7093 net.cpp:425] inception_4d/relu_5x5 <- inception_4d/5x5
I0403 18:32:08.513844  7093 net.cpp:386] inception_4d/relu_5x5 -> inception_4d/5x5 (in-place)
I0403 18:32:08.514153  7093 net.cpp:141] Setting up inception_4d/relu_5x5
I0403 18:32:08.514183  7093 net.cpp:148] Top shape: 24 64 14 14 (301056)
I0403 18:32:08.514197  7093 net.cpp:156] Memory required for data: 1135267104
I0403 18:32:08.514219  7093 layer_factory.hpp:77] Creating layer inception_4d/pool
I0403 18:32:08.514237  7093 net.cpp:91] Creating Layer inception_4d/pool
I0403 18:32:08.514255  7093 net.cpp:425] inception_4d/pool <- inception_4c/output_inception_4c/output_0_split_3
I0403 18:32:08.514276  7093 net.cpp:399] inception_4d/pool -> inception_4d/pool
I0403 18:32:08.514348  7093 net.cpp:141] Setting up inception_4d/pool
I0403 18:32:08.514372  7093 net.cpp:148] Top shape: 24 512 14 14 (2408448)
I0403 18:32:08.514387  7093 net.cpp:156] Memory required for data: 1144900896
I0403 18:32:08.514402  7093 layer_factory.hpp:77] Creating layer inception_4d/pool_proj
I0403 18:32:08.514425  7093 net.cpp:91] Creating Layer inception_4d/pool_proj
I0403 18:32:08.514443  7093 net.cpp:425] inception_4d/pool_proj <- inception_4d/pool
I0403 18:32:08.514464  7093 net.cpp:399] inception_4d/pool_proj -> inception_4d/pool_proj
I0403 18:32:08.516324  7093 net.cpp:141] Setting up inception_4d/pool_proj
I0403 18:32:08.516355  7093 net.cpp:148] Top shape: 24 64 14 14 (301056)
I0403 18:32:08.516371  7093 net.cpp:156] Memory required for data: 1146105120
I0403 18:32:08.516389  7093 layer_factory.hpp:77] Creating layer inception_4d/relu_pool_proj
I0403 18:32:08.516409  7093 net.cpp:91] Creating Layer inception_4d/relu_pool_proj
I0403 18:32:08.516427  7093 net.cpp:425] inception_4d/relu_pool_proj <- inception_4d/pool_proj
I0403 18:32:08.516444  7093 net.cpp:386] inception_4d/relu_pool_proj -> inception_4d/pool_proj (in-place)
I0403 18:32:08.516647  7093 net.cpp:141] Setting up inception_4d/relu_pool_proj
I0403 18:32:08.516674  7093 net.cpp:148] Top shape: 24 64 14 14 (301056)
I0403 18:32:08.516691  7093 net.cpp:156] Memory required for data: 1147309344
I0403 18:32:08.516706  7093 layer_factory.hpp:77] Creating layer inception_4d/output
I0403 18:32:08.516723  7093 net.cpp:91] Creating Layer inception_4d/output
I0403 18:32:08.516741  7093 net.cpp:425] inception_4d/output <- inception_4d/1x1
I0403 18:32:08.516757  7093 net.cpp:425] inception_4d/output <- inception_4d/3x3
I0403 18:32:08.516772  7093 net.cpp:425] inception_4d/output <- inception_4d/5x5
I0403 18:32:08.516788  7093 net.cpp:425] inception_4d/output <- inception_4d/pool_proj
I0403 18:32:08.516805  7093 net.cpp:399] inception_4d/output -> inception_4d/output
I0403 18:32:08.516855  7093 net.cpp:141] Setting up inception_4d/output
I0403 18:32:08.516880  7093 net.cpp:148] Top shape: 24 528 14 14 (2483712)
I0403 18:32:08.516894  7093 net.cpp:156] Memory required for data: 1157244192
I0403 18:32:08.516908  7093 layer_factory.hpp:77] Creating layer inception_4d/output_inception_4d/output_0_split
I0403 18:32:08.516929  7093 net.cpp:91] Creating Layer inception_4d/output_inception_4d/output_0_split
I0403 18:32:08.516947  7093 net.cpp:425] inception_4d/output_inception_4d/output_0_split <- inception_4d/output
I0403 18:32:08.516964  7093 net.cpp:399] inception_4d/output_inception_4d/output_0_split -> inception_4d/output_inception_4d/output_0_split_0
I0403 18:32:08.516984  7093 net.cpp:399] inception_4d/output_inception_4d/output_0_split -> inception_4d/output_inception_4d/output_0_split_1
I0403 18:32:08.517004  7093 net.cpp:399] inception_4d/output_inception_4d/output_0_split -> inception_4d/output_inception_4d/output_0_split_2
I0403 18:32:08.517025  7093 net.cpp:399] inception_4d/output_inception_4d/output_0_split -> inception_4d/output_inception_4d/output_0_split_3
I0403 18:32:08.517050  7093 net.cpp:399] inception_4d/output_inception_4d/output_0_split -> inception_4d/output_inception_4d/output_0_split_4
I0403 18:32:08.517156  7093 net.cpp:141] Setting up inception_4d/output_inception_4d/output_0_split
I0403 18:32:08.517192  7093 net.cpp:148] Top shape: 24 528 14 14 (2483712)
I0403 18:32:08.517213  7093 net.cpp:148] Top shape: 24 528 14 14 (2483712)
I0403 18:32:08.517231  7093 net.cpp:148] Top shape: 24 528 14 14 (2483712)
I0403 18:32:08.517247  7093 net.cpp:148] Top shape: 24 528 14 14 (2483712)
I0403 18:32:08.517262  7093 net.cpp:148] Top shape: 24 528 14 14 (2483712)
I0403 18:32:08.517277  7093 net.cpp:156] Memory required for data: 1206918432
I0403 18:32:08.517292  7093 layer_factory.hpp:77] Creating layer loss2/ave_pool
I0403 18:32:08.517309  7093 net.cpp:91] Creating Layer loss2/ave_pool
I0403 18:32:08.517325  7093 net.cpp:425] loss2/ave_pool <- inception_4d/output_inception_4d/output_0_split_0
I0403 18:32:08.517348  7093 net.cpp:399] loss2/ave_pool -> loss2/ave_pool
I0403 18:32:08.517663  7093 net.cpp:141] Setting up loss2/ave_pool
I0403 18:32:08.517689  7093 net.cpp:148] Top shape: 24 528 4 4 (202752)
I0403 18:32:08.517705  7093 net.cpp:156] Memory required for data: 1207729440
I0403 18:32:08.517720  7093 layer_factory.hpp:77] Creating layer loss2/conv
I0403 18:32:08.517743  7093 net.cpp:91] Creating Layer loss2/conv
I0403 18:32:08.517762  7093 net.cpp:425] loss2/conv <- loss2/ave_pool
I0403 18:32:08.517783  7093 net.cpp:399] loss2/conv -> loss2/conv
I0403 18:32:08.519736  7093 net.cpp:141] Setting up loss2/conv
I0403 18:32:08.519767  7093 net.cpp:148] Top shape: 24 128 4 4 (49152)
I0403 18:32:08.519783  7093 net.cpp:156] Memory required for data: 1207926048
I0403 18:32:08.519803  7093 layer_factory.hpp:77] Creating layer loss2/relu_conv
I0403 18:32:08.519820  7093 net.cpp:91] Creating Layer loss2/relu_conv
I0403 18:32:08.519835  7093 net.cpp:425] loss2/relu_conv <- loss2/conv
I0403 18:32:08.519853  7093 net.cpp:386] loss2/relu_conv -> loss2/conv (in-place)
I0403 18:32:08.520141  7093 net.cpp:141] Setting up loss2/relu_conv
I0403 18:32:08.520170  7093 net.cpp:148] Top shape: 24 128 4 4 (49152)
I0403 18:32:08.520186  7093 net.cpp:156] Memory required for data: 1208122656
I0403 18:32:08.520203  7093 layer_factory.hpp:77] Creating layer loss2/fc
I0403 18:32:08.520227  7093 net.cpp:91] Creating Layer loss2/fc
I0403 18:32:08.520246  7093 net.cpp:425] loss2/fc <- loss2/conv
I0403 18:32:08.520267  7093 net.cpp:399] loss2/fc -> loss2/fc
I0403 18:32:08.538980  7093 net.cpp:141] Setting up loss2/fc
I0403 18:32:08.539016  7093 net.cpp:148] Top shape: 24 1024 (24576)
I0403 18:32:08.539031  7093 net.cpp:156] Memory required for data: 1208220960
I0403 18:32:08.539050  7093 layer_factory.hpp:77] Creating layer loss2/relu_fc
I0403 18:32:08.539073  7093 net.cpp:91] Creating Layer loss2/relu_fc
I0403 18:32:08.539091  7093 net.cpp:425] loss2/relu_fc <- loss2/fc
I0403 18:32:08.539109  7093 net.cpp:386] loss2/relu_fc -> loss2/fc (in-place)
I0403 18:32:08.539455  7093 net.cpp:141] Setting up loss2/relu_fc
I0403 18:32:08.539482  7093 net.cpp:148] Top shape: 24 1024 (24576)
I0403 18:32:08.539499  7093 net.cpp:156] Memory required for data: 1208319264
I0403 18:32:08.539513  7093 layer_factory.hpp:77] Creating layer loss2/drop_fc
I0403 18:32:08.539535  7093 net.cpp:91] Creating Layer loss2/drop_fc
I0403 18:32:08.539552  7093 net.cpp:425] loss2/drop_fc <- loss2/fc
I0403 18:32:08.539572  7093 net.cpp:386] loss2/drop_fc -> loss2/fc (in-place)
I0403 18:32:08.539623  7093 net.cpp:141] Setting up loss2/drop_fc
I0403 18:32:08.539646  7093 net.cpp:148] Top shape: 24 1024 (24576)
I0403 18:32:08.539661  7093 net.cpp:156] Memory required for data: 1208417568
I0403 18:32:08.539676  7093 layer_factory.hpp:77] Creating layer loss2/classifier_plantvillage
I0403 18:32:08.539695  7093 net.cpp:91] Creating Layer loss2/classifier_plantvillage
I0403 18:32:08.539715  7093 net.cpp:425] loss2/classifier_plantvillage <- loss2/fc
I0403 18:32:08.539734  7093 net.cpp:399] loss2/classifier_plantvillage -> loss2/classifier_plantvillage
I0403 18:32:08.540159  7093 net.cpp:141] Setting up loss2/classifier_plantvillage
I0403 18:32:08.540185  7093 net.cpp:148] Top shape: 24 38 (912)
I0403 18:32:08.540227  7093 net.cpp:156] Memory required for data: 1208421216
I0403 18:32:08.540247  7093 layer_factory.hpp:77] Creating layer loss2/classifier_plantvillage_loss2/classifier_plantvillage_0_split
I0403 18:32:08.540267  7093 net.cpp:91] Creating Layer loss2/classifier_plantvillage_loss2/classifier_plantvillage_0_split
I0403 18:32:08.540283  7093 net.cpp:425] loss2/classifier_plantvillage_loss2/classifier_plantvillage_0_split <- loss2/classifier_plantvillage
I0403 18:32:08.540304  7093 net.cpp:399] loss2/classifier_plantvillage_loss2/classifier_plantvillage_0_split -> loss2/classifier_plantvillage_loss2/classifier_plantvillage_0_split_0
I0403 18:32:08.540326  7093 net.cpp:399] loss2/classifier_plantvillage_loss2/classifier_plantvillage_0_split -> loss2/classifier_plantvillage_loss2/classifier_plantvillage_0_split_1
I0403 18:32:08.540348  7093 net.cpp:399] loss2/classifier_plantvillage_loss2/classifier_plantvillage_0_split -> loss2/classifier_plantvillage_loss2/classifier_plantvillage_0_split_2
I0403 18:32:08.540428  7093 net.cpp:141] Setting up loss2/classifier_plantvillage_loss2/classifier_plantvillage_0_split
I0403 18:32:08.540454  7093 net.cpp:148] Top shape: 24 38 (912)
I0403 18:32:08.540472  7093 net.cpp:148] Top shape: 24 38 (912)
I0403 18:32:08.540488  7093 net.cpp:148] Top shape: 24 38 (912)
I0403 18:32:08.540501  7093 net.cpp:156] Memory required for data: 1208432160
I0403 18:32:08.540518  7093 layer_factory.hpp:77] Creating layer inception_4e/1x1
I0403 18:32:08.540541  7093 net.cpp:91] Creating Layer inception_4e/1x1
I0403 18:32:08.540560  7093 net.cpp:425] inception_4e/1x1 <- inception_4d/output_inception_4d/output_0_split_1
I0403 18:32:08.540580  7093 net.cpp:399] inception_4e/1x1 -> inception_4e/1x1
I0403 18:32:08.542502  7093 net.cpp:141] Setting up inception_4e/1x1
I0403 18:32:08.542534  7093 net.cpp:148] Top shape: 24 256 14 14 (1204224)
I0403 18:32:08.542551  7093 net.cpp:156] Memory required for data: 1213249056
I0403 18:32:08.542570  7093 layer_factory.hpp:77] Creating layer inception_4e/relu_1x1
I0403 18:32:08.542589  7093 net.cpp:91] Creating Layer inception_4e/relu_1x1
I0403 18:32:08.542605  7093 net.cpp:425] inception_4e/relu_1x1 <- inception_4e/1x1
I0403 18:32:08.542625  7093 net.cpp:386] inception_4e/relu_1x1 -> inception_4e/1x1 (in-place)
I0403 18:32:08.542942  7093 net.cpp:141] Setting up inception_4e/relu_1x1
I0403 18:32:08.542971  7093 net.cpp:148] Top shape: 24 256 14 14 (1204224)
I0403 18:32:08.542989  7093 net.cpp:156] Memory required for data: 1218065952
I0403 18:32:08.543004  7093 layer_factory.hpp:77] Creating layer inception_4e/3x3_reduce
I0403 18:32:08.543026  7093 net.cpp:91] Creating Layer inception_4e/3x3_reduce
I0403 18:32:08.543045  7093 net.cpp:425] inception_4e/3x3_reduce <- inception_4d/output_inception_4d/output_0_split_2
I0403 18:32:08.543066  7093 net.cpp:399] inception_4e/3x3_reduce -> inception_4e/3x3_reduce
I0403 18:32:08.545395  7093 net.cpp:141] Setting up inception_4e/3x3_reduce
I0403 18:32:08.545433  7093 net.cpp:148] Top shape: 24 160 14 14 (752640)
I0403 18:32:08.545449  7093 net.cpp:156] Memory required for data: 1221076512
I0403 18:32:08.545469  7093 layer_factory.hpp:77] Creating layer inception_4e/relu_3x3_reduce
I0403 18:32:08.545490  7093 net.cpp:91] Creating Layer inception_4e/relu_3x3_reduce
I0403 18:32:08.545506  7093 net.cpp:425] inception_4e/relu_3x3_reduce <- inception_4e/3x3_reduce
I0403 18:32:08.545524  7093 net.cpp:386] inception_4e/relu_3x3_reduce -> inception_4e/3x3_reduce (in-place)
I0403 18:32:08.545727  7093 net.cpp:141] Setting up inception_4e/relu_3x3_reduce
I0403 18:32:08.545753  7093 net.cpp:148] Top shape: 24 160 14 14 (752640)
I0403 18:32:08.545768  7093 net.cpp:156] Memory required for data: 1224087072
I0403 18:32:08.545784  7093 layer_factory.hpp:77] Creating layer inception_4e/3x3
I0403 18:32:08.545809  7093 net.cpp:91] Creating Layer inception_4e/3x3
I0403 18:32:08.545826  7093 net.cpp:425] inception_4e/3x3 <- inception_4e/3x3_reduce
I0403 18:32:08.545850  7093 net.cpp:399] inception_4e/3x3 -> inception_4e/3x3
I0403 18:32:08.551267  7093 net.cpp:141] Setting up inception_4e/3x3
I0403 18:32:08.551313  7093 net.cpp:148] Top shape: 24 320 14 14 (1505280)
I0403 18:32:08.551331  7093 net.cpp:156] Memory required for data: 1230108192
I0403 18:32:08.551350  7093 layer_factory.hpp:77] Creating layer inception_4e/relu_3x3
I0403 18:32:08.551369  7093 net.cpp:91] Creating Layer inception_4e/relu_3x3
I0403 18:32:08.551388  7093 net.cpp:425] inception_4e/relu_3x3 <- inception_4e/3x3
I0403 18:32:08.551409  7093 net.cpp:386] inception_4e/relu_3x3 -> inception_4e/3x3 (in-place)
I0403 18:32:08.551733  7093 net.cpp:141] Setting up inception_4e/relu_3x3
I0403 18:32:08.551760  7093 net.cpp:148] Top shape: 24 320 14 14 (1505280)
I0403 18:32:08.551776  7093 net.cpp:156] Memory required for data: 1236129312
I0403 18:32:08.551794  7093 layer_factory.hpp:77] Creating layer inception_4e/5x5_reduce
I0403 18:32:08.551818  7093 net.cpp:91] Creating Layer inception_4e/5x5_reduce
I0403 18:32:08.551837  7093 net.cpp:425] inception_4e/5x5_reduce <- inception_4d/output_inception_4d/output_0_split_3
I0403 18:32:08.551859  7093 net.cpp:399] inception_4e/5x5_reduce -> inception_4e/5x5_reduce
I0403 18:32:08.553019  7093 net.cpp:141] Setting up inception_4e/5x5_reduce
I0403 18:32:08.553051  7093 net.cpp:148] Top shape: 24 32 14 14 (150528)
I0403 18:32:08.553068  7093 net.cpp:156] Memory required for data: 1236731424
I0403 18:32:08.553088  7093 layer_factory.hpp:77] Creating layer inception_4e/relu_5x5_reduce
I0403 18:32:08.553107  7093 net.cpp:91] Creating Layer inception_4e/relu_5x5_reduce
I0403 18:32:08.553125  7093 net.cpp:425] inception_4e/relu_5x5_reduce <- inception_4e/5x5_reduce
I0403 18:32:08.553148  7093 net.cpp:386] inception_4e/relu_5x5_reduce -> inception_4e/5x5_reduce (in-place)
I0403 18:32:08.553472  7093 net.cpp:141] Setting up inception_4e/relu_5x5_reduce
I0403 18:32:08.553503  7093 net.cpp:148] Top shape: 24 32 14 14 (150528)
I0403 18:32:08.553520  7093 net.cpp:156] Memory required for data: 1237333536
I0403 18:32:08.553536  7093 layer_factory.hpp:77] Creating layer inception_4e/5x5
I0403 18:32:08.553578  7093 net.cpp:91] Creating Layer inception_4e/5x5
I0403 18:32:08.553601  7093 net.cpp:425] inception_4e/5x5 <- inception_4e/5x5_reduce
I0403 18:32:08.553622  7093 net.cpp:399] inception_4e/5x5 -> inception_4e/5x5
I0403 18:32:08.555583  7093 net.cpp:141] Setting up inception_4e/5x5
I0403 18:32:08.555613  7093 net.cpp:148] Top shape: 24 128 14 14 (602112)
I0403 18:32:08.555629  7093 net.cpp:156] Memory required for data: 1239741984
I0403 18:32:08.555649  7093 layer_factory.hpp:77] Creating layer inception_4e/relu_5x5
I0403 18:32:08.555670  7093 net.cpp:91] Creating Layer inception_4e/relu_5x5
I0403 18:32:08.555688  7093 net.cpp:425] inception_4e/relu_5x5 <- inception_4e/5x5
I0403 18:32:08.555707  7093 net.cpp:386] inception_4e/relu_5x5 -> inception_4e/5x5 (in-place)
I0403 18:32:08.555917  7093 net.cpp:141] Setting up inception_4e/relu_5x5
I0403 18:32:08.555948  7093 net.cpp:148] Top shape: 24 128 14 14 (602112)
I0403 18:32:08.555963  7093 net.cpp:156] Memory required for data: 1242150432
I0403 18:32:08.555979  7093 layer_factory.hpp:77] Creating layer inception_4e/pool
I0403 18:32:08.555999  7093 net.cpp:91] Creating Layer inception_4e/pool
I0403 18:32:08.556016  7093 net.cpp:425] inception_4e/pool <- inception_4d/output_inception_4d/output_0_split_4
I0403 18:32:08.556037  7093 net.cpp:399] inception_4e/pool -> inception_4e/pool
I0403 18:32:08.556113  7093 net.cpp:141] Setting up inception_4e/pool
I0403 18:32:08.556139  7093 net.cpp:148] Top shape: 24 528 14 14 (2483712)
I0403 18:32:08.556155  7093 net.cpp:156] Memory required for data: 1252085280
I0403 18:32:08.556171  7093 layer_factory.hpp:77] Creating layer inception_4e/pool_proj
I0403 18:32:08.556196  7093 net.cpp:91] Creating Layer inception_4e/pool_proj
I0403 18:32:08.556221  7093 net.cpp:425] inception_4e/pool_proj <- inception_4e/pool
I0403 18:32:08.556242  7093 net.cpp:399] inception_4e/pool_proj -> inception_4e/pool_proj
I0403 18:32:08.557853  7093 net.cpp:141] Setting up inception_4e/pool_proj
I0403 18:32:08.557895  7093 net.cpp:148] Top shape: 24 128 14 14 (602112)
I0403 18:32:08.557912  7093 net.cpp:156] Memory required for data: 1254493728
I0403 18:32:08.557931  7093 layer_factory.hpp:77] Creating layer inception_4e/relu_pool_proj
I0403 18:32:08.557955  7093 net.cpp:91] Creating Layer inception_4e/relu_pool_proj
I0403 18:32:08.557973  7093 net.cpp:425] inception_4e/relu_pool_proj <- inception_4e/pool_proj
I0403 18:32:08.557992  7093 net.cpp:386] inception_4e/relu_pool_proj -> inception_4e/pool_proj (in-place)
I0403 18:32:08.558315  7093 net.cpp:141] Setting up inception_4e/relu_pool_proj
I0403 18:32:08.558343  7093 net.cpp:148] Top shape: 24 128 14 14 (602112)
I0403 18:32:08.558359  7093 net.cpp:156] Memory required for data: 1256902176
I0403 18:32:08.558375  7093 layer_factory.hpp:77] Creating layer inception_4e/output
I0403 18:32:08.558394  7093 net.cpp:91] Creating Layer inception_4e/output
I0403 18:32:08.558411  7093 net.cpp:425] inception_4e/output <- inception_4e/1x1
I0403 18:32:08.558431  7093 net.cpp:425] inception_4e/output <- inception_4e/3x3
I0403 18:32:08.558450  7093 net.cpp:425] inception_4e/output <- inception_4e/5x5
I0403 18:32:08.558467  7093 net.cpp:425] inception_4e/output <- inception_4e/pool_proj
I0403 18:32:08.558485  7093 net.cpp:399] inception_4e/output -> inception_4e/output
I0403 18:32:08.558540  7093 net.cpp:141] Setting up inception_4e/output
I0403 18:32:08.558567  7093 net.cpp:148] Top shape: 24 832 14 14 (3913728)
I0403 18:32:08.558581  7093 net.cpp:156] Memory required for data: 1272557088
I0403 18:32:08.558598  7093 layer_factory.hpp:77] Creating layer pool4/3x3_s2
I0403 18:32:08.558616  7093 net.cpp:91] Creating Layer pool4/3x3_s2
I0403 18:32:08.558634  7093 net.cpp:425] pool4/3x3_s2 <- inception_4e/output
I0403 18:32:08.558656  7093 net.cpp:399] pool4/3x3_s2 -> pool4/3x3_s2
I0403 18:32:08.558728  7093 net.cpp:141] Setting up pool4/3x3_s2
I0403 18:32:08.558754  7093 net.cpp:148] Top shape: 24 832 7 7 (978432)
I0403 18:32:08.558770  7093 net.cpp:156] Memory required for data: 1276470816
I0403 18:32:08.558786  7093 layer_factory.hpp:77] Creating layer pool4/3x3_s2_pool4/3x3_s2_0_split
I0403 18:32:08.558809  7093 net.cpp:91] Creating Layer pool4/3x3_s2_pool4/3x3_s2_0_split
I0403 18:32:08.558827  7093 net.cpp:425] pool4/3x3_s2_pool4/3x3_s2_0_split <- pool4/3x3_s2
I0403 18:32:08.558845  7093 net.cpp:399] pool4/3x3_s2_pool4/3x3_s2_0_split -> pool4/3x3_s2_pool4/3x3_s2_0_split_0
I0403 18:32:08.558871  7093 net.cpp:399] pool4/3x3_s2_pool4/3x3_s2_0_split -> pool4/3x3_s2_pool4/3x3_s2_0_split_1
I0403 18:32:08.558892  7093 net.cpp:399] pool4/3x3_s2_pool4/3x3_s2_0_split -> pool4/3x3_s2_pool4/3x3_s2_0_split_2
I0403 18:32:08.558914  7093 net.cpp:399] pool4/3x3_s2_pool4/3x3_s2_0_split -> pool4/3x3_s2_pool4/3x3_s2_0_split_3
I0403 18:32:08.559011  7093 net.cpp:141] Setting up pool4/3x3_s2_pool4/3x3_s2_0_split
I0403 18:32:08.559036  7093 net.cpp:148] Top shape: 24 832 7 7 (978432)
I0403 18:32:08.559054  7093 net.cpp:148] Top shape: 24 832 7 7 (978432)
I0403 18:32:08.559072  7093 net.cpp:148] Top shape: 24 832 7 7 (978432)
I0403 18:32:08.559088  7093 net.cpp:148] Top shape: 24 832 7 7 (978432)
I0403 18:32:08.559103  7093 net.cpp:156] Memory required for data: 1292125728
I0403 18:32:08.559118  7093 layer_factory.hpp:77] Creating layer inception_5a/1x1
I0403 18:32:08.559144  7093 net.cpp:91] Creating Layer inception_5a/1x1
I0403 18:32:08.559162  7093 net.cpp:425] inception_5a/1x1 <- pool4/3x3_s2_pool4/3x3_s2_0_split_0
I0403 18:32:08.559185  7093 net.cpp:399] inception_5a/1x1 -> inception_5a/1x1
I0403 18:32:08.562289  7093 net.cpp:141] Setting up inception_5a/1x1
I0403 18:32:08.562324  7093 net.cpp:148] Top shape: 24 256 7 7 (301056)
I0403 18:32:08.562341  7093 net.cpp:156] Memory required for data: 1293329952
I0403 18:32:08.562362  7093 layer_factory.hpp:77] Creating layer inception_5a/relu_1x1
I0403 18:32:08.562381  7093 net.cpp:91] Creating Layer inception_5a/relu_1x1
I0403 18:32:08.562398  7093 net.cpp:425] inception_5a/relu_1x1 <- inception_5a/1x1
I0403 18:32:08.562418  7093 net.cpp:386] inception_5a/relu_1x1 -> inception_5a/1x1 (in-place)
I0403 18:32:08.562760  7093 net.cpp:141] Setting up inception_5a/relu_1x1
I0403 18:32:08.562790  7093 net.cpp:148] Top shape: 24 256 7 7 (301056)
I0403 18:32:08.562808  7093 net.cpp:156] Memory required for data: 1294534176
I0403 18:32:08.562824  7093 layer_factory.hpp:77] Creating layer inception_5a/3x3_reduce
I0403 18:32:08.562845  7093 net.cpp:91] Creating Layer inception_5a/3x3_reduce
I0403 18:32:08.562865  7093 net.cpp:425] inception_5a/3x3_reduce <- pool4/3x3_s2_pool4/3x3_s2_0_split_1
I0403 18:32:08.562887  7093 net.cpp:399] inception_5a/3x3_reduce -> inception_5a/3x3_reduce
I0403 18:32:08.565496  7093 net.cpp:141] Setting up inception_5a/3x3_reduce
I0403 18:32:08.565526  7093 net.cpp:148] Top shape: 24 160 7 7 (188160)
I0403 18:32:08.565542  7093 net.cpp:156] Memory required for data: 1295286816
I0403 18:32:08.565562  7093 layer_factory.hpp:77] Creating layer inception_5a/relu_3x3_reduce
I0403 18:32:08.565580  7093 net.cpp:91] Creating Layer inception_5a/relu_3x3_reduce
I0403 18:32:08.565598  7093 net.cpp:425] inception_5a/relu_3x3_reduce <- inception_5a/3x3_reduce
I0403 18:32:08.565618  7093 net.cpp:386] inception_5a/relu_3x3_reduce -> inception_5a/3x3_reduce (in-place)
I0403 18:32:08.565814  7093 net.cpp:141] Setting up inception_5a/relu_3x3_reduce
I0403 18:32:08.565840  7093 net.cpp:148] Top shape: 24 160 7 7 (188160)
I0403 18:32:08.565856  7093 net.cpp:156] Memory required for data: 1296039456
I0403 18:32:08.565871  7093 layer_factory.hpp:77] Creating layer inception_5a/3x3
I0403 18:32:08.565894  7093 net.cpp:91] Creating Layer inception_5a/3x3
I0403 18:32:08.565913  7093 net.cpp:425] inception_5a/3x3 <- inception_5a/3x3_reduce
I0403 18:32:08.565935  7093 net.cpp:399] inception_5a/3x3 -> inception_5a/3x3
I0403 18:32:08.571187  7093 net.cpp:141] Setting up inception_5a/3x3
I0403 18:32:08.571224  7093 net.cpp:148] Top shape: 24 320 7 7 (376320)
I0403 18:32:08.571243  7093 net.cpp:156] Memory required for data: 1297544736
I0403 18:32:08.571261  7093 layer_factory.hpp:77] Creating layer inception_5a/relu_3x3
I0403 18:32:08.571282  7093 net.cpp:91] Creating Layer inception_5a/relu_3x3
I0403 18:32:08.571300  7093 net.cpp:425] inception_5a/relu_3x3 <- inception_5a/3x3
I0403 18:32:08.571319  7093 net.cpp:386] inception_5a/relu_3x3 -> inception_5a/3x3 (in-place)
I0403 18:32:08.571626  7093 net.cpp:141] Setting up inception_5a/relu_3x3
I0403 18:32:08.571653  7093 net.cpp:148] Top shape: 24 320 7 7 (376320)
I0403 18:32:08.571669  7093 net.cpp:156] Memory required for data: 1299050016
I0403 18:32:08.571684  7093 layer_factory.hpp:77] Creating layer inception_5a/5x5_reduce
I0403 18:32:08.571712  7093 net.cpp:91] Creating Layer inception_5a/5x5_reduce
I0403 18:32:08.571732  7093 net.cpp:425] inception_5a/5x5_reduce <- pool4/3x3_s2_pool4/3x3_s2_0_split_2
I0403 18:32:08.571753  7093 net.cpp:399] inception_5a/5x5_reduce -> inception_5a/5x5_reduce
I0403 18:32:08.572985  7093 net.cpp:141] Setting up inception_5a/5x5_reduce
I0403 18:32:08.573017  7093 net.cpp:148] Top shape: 24 32 7 7 (37632)
I0403 18:32:08.573035  7093 net.cpp:156] Memory required for data: 1299200544
I0403 18:32:08.573055  7093 layer_factory.hpp:77] Creating layer inception_5a/relu_5x5_reduce
I0403 18:32:08.573073  7093 net.cpp:91] Creating Layer inception_5a/relu_5x5_reduce
I0403 18:32:08.573089  7093 net.cpp:425] inception_5a/relu_5x5_reduce <- inception_5a/5x5_reduce
I0403 18:32:08.573107  7093 net.cpp:386] inception_5a/relu_5x5_reduce -> inception_5a/5x5_reduce (in-place)
I0403 18:32:08.573426  7093 net.cpp:141] Setting up inception_5a/relu_5x5_reduce
I0403 18:32:08.573457  7093 net.cpp:148] Top shape: 24 32 7 7 (37632)
I0403 18:32:08.573473  7093 net.cpp:156] Memory required for data: 1299351072
I0403 18:32:08.573490  7093 layer_factory.hpp:77] Creating layer inception_5a/5x5
I0403 18:32:08.573513  7093 net.cpp:91] Creating Layer inception_5a/5x5
I0403 18:32:08.573531  7093 net.cpp:425] inception_5a/5x5 <- inception_5a/5x5_reduce
I0403 18:32:08.573550  7093 net.cpp:399] inception_5a/5x5 -> inception_5a/5x5
I0403 18:32:08.575356  7093 net.cpp:141] Setting up inception_5a/5x5
I0403 18:32:08.575397  7093 net.cpp:148] Top shape: 24 128 7 7 (150528)
I0403 18:32:08.575413  7093 net.cpp:156] Memory required for data: 1299953184
I0403 18:32:08.575433  7093 layer_factory.hpp:77] Creating layer inception_5a/relu_5x5
I0403 18:32:08.575453  7093 net.cpp:91] Creating Layer inception_5a/relu_5x5
I0403 18:32:08.575469  7093 net.cpp:425] inception_5a/relu_5x5 <- inception_5a/5x5
I0403 18:32:08.575486  7093 net.cpp:386] inception_5a/relu_5x5 -> inception_5a/5x5 (in-place)
I0403 18:32:08.575680  7093 net.cpp:141] Setting up inception_5a/relu_5x5
I0403 18:32:08.575707  7093 net.cpp:148] Top shape: 24 128 7 7 (150528)
I0403 18:32:08.575724  7093 net.cpp:156] Memory required for data: 1300555296
I0403 18:32:08.575739  7093 layer_factory.hpp:77] Creating layer inception_5a/pool
I0403 18:32:08.575757  7093 net.cpp:91] Creating Layer inception_5a/pool
I0403 18:32:08.575773  7093 net.cpp:425] inception_5a/pool <- pool4/3x3_s2_pool4/3x3_s2_0_split_3
I0403 18:32:08.575793  7093 net.cpp:399] inception_5a/pool -> inception_5a/pool
I0403 18:32:08.575865  7093 net.cpp:141] Setting up inception_5a/pool
I0403 18:32:08.575888  7093 net.cpp:148] Top shape: 24 832 7 7 (978432)
I0403 18:32:08.575904  7093 net.cpp:156] Memory required for data: 1304469024
I0403 18:32:08.575918  7093 layer_factory.hpp:77] Creating layer inception_5a/pool_proj
I0403 18:32:08.575943  7093 net.cpp:91] Creating Layer inception_5a/pool_proj
I0403 18:32:08.575961  7093 net.cpp:425] inception_5a/pool_proj <- inception_5a/pool
I0403 18:32:08.575979  7093 net.cpp:399] inception_5a/pool_proj -> inception_5a/pool_proj
I0403 18:32:08.578372  7093 net.cpp:141] Setting up inception_5a/pool_proj
I0403 18:32:08.578402  7093 net.cpp:148] Top shape: 24 128 7 7 (150528)
I0403 18:32:08.578418  7093 net.cpp:156] Memory required for data: 1305071136
I0403 18:32:08.578438  7093 layer_factory.hpp:77] Creating layer inception_5a/relu_pool_proj
I0403 18:32:08.578457  7093 net.cpp:91] Creating Layer inception_5a/relu_pool_proj
I0403 18:32:08.578474  7093 net.cpp:425] inception_5a/relu_pool_proj <- inception_5a/pool_proj
I0403 18:32:08.578492  7093 net.cpp:386] inception_5a/relu_pool_proj -> inception_5a/pool_proj (in-place)
I0403 18:32:08.578788  7093 net.cpp:141] Setting up inception_5a/relu_pool_proj
I0403 18:32:08.578815  7093 net.cpp:148] Top shape: 24 128 7 7 (150528)
I0403 18:32:08.578831  7093 net.cpp:156] Memory required for data: 1305673248
I0403 18:32:08.578846  7093 layer_factory.hpp:77] Creating layer inception_5a/output
I0403 18:32:08.578866  7093 net.cpp:91] Creating Layer inception_5a/output
I0403 18:32:08.578883  7093 net.cpp:425] inception_5a/output <- inception_5a/1x1
I0403 18:32:08.578902  7093 net.cpp:425] inception_5a/output <- inception_5a/3x3
I0403 18:32:08.578917  7093 net.cpp:425] inception_5a/output <- inception_5a/5x5
I0403 18:32:08.578934  7093 net.cpp:425] inception_5a/output <- inception_5a/pool_proj
I0403 18:32:08.578950  7093 net.cpp:399] inception_5a/output -> inception_5a/output
I0403 18:32:08.579002  7093 net.cpp:141] Setting up inception_5a/output
I0403 18:32:08.579027  7093 net.cpp:148] Top shape: 24 832 7 7 (978432)
I0403 18:32:08.579041  7093 net.cpp:156] Memory required for data: 1309586976
I0403 18:32:08.579057  7093 layer_factory.hpp:77] Creating layer inception_5a/output_inception_5a/output_0_split
I0403 18:32:08.579074  7093 net.cpp:91] Creating Layer inception_5a/output_inception_5a/output_0_split
I0403 18:32:08.579090  7093 net.cpp:425] inception_5a/output_inception_5a/output_0_split <- inception_5a/output
I0403 18:32:08.579110  7093 net.cpp:399] inception_5a/output_inception_5a/output_0_split -> inception_5a/output_inception_5a/output_0_split_0
I0403 18:32:08.579133  7093 net.cpp:399] inception_5a/output_inception_5a/output_0_split -> inception_5a/output_inception_5a/output_0_split_1
I0403 18:32:08.579154  7093 net.cpp:399] inception_5a/output_inception_5a/output_0_split -> inception_5a/output_inception_5a/output_0_split_2
I0403 18:32:08.579175  7093 net.cpp:399] inception_5a/output_inception_5a/output_0_split -> inception_5a/output_inception_5a/output_0_split_3
I0403 18:32:08.579293  7093 net.cpp:141] Setting up inception_5a/output_inception_5a/output_0_split
I0403 18:32:08.579326  7093 net.cpp:148] Top shape: 24 832 7 7 (978432)
I0403 18:32:08.579345  7093 net.cpp:148] Top shape: 24 832 7 7 (978432)
I0403 18:32:08.579362  7093 net.cpp:148] Top shape: 24 832 7 7 (978432)
I0403 18:32:08.579377  7093 net.cpp:148] Top shape: 24 832 7 7 (978432)
I0403 18:32:08.579391  7093 net.cpp:156] Memory required for data: 1325241888
I0403 18:32:08.579407  7093 layer_factory.hpp:77] Creating layer inception_5b/1x1
I0403 18:32:08.579429  7093 net.cpp:91] Creating Layer inception_5b/1x1
I0403 18:32:08.579447  7093 net.cpp:425] inception_5b/1x1 <- inception_5a/output_inception_5a/output_0_split_0
I0403 18:32:08.579466  7093 net.cpp:399] inception_5b/1x1 -> inception_5b/1x1
I0403 18:32:08.583441  7093 net.cpp:141] Setting up inception_5b/1x1
I0403 18:32:08.583470  7093 net.cpp:148] Top shape: 24 384 7 7 (451584)
I0403 18:32:08.583487  7093 net.cpp:156] Memory required for data: 1327048224
I0403 18:32:08.583505  7093 layer_factory.hpp:77] Creating layer inception_5b/relu_1x1
I0403 18:32:08.583524  7093 net.cpp:91] Creating Layer inception_5b/relu_1x1
I0403 18:32:08.583540  7093 net.cpp:425] inception_5b/relu_1x1 <- inception_5b/1x1
I0403 18:32:08.583562  7093 net.cpp:386] inception_5b/relu_1x1 -> inception_5b/1x1 (in-place)
I0403 18:32:08.583869  7093 net.cpp:141] Setting up inception_5b/relu_1x1
I0403 18:32:08.583896  7093 net.cpp:148] Top shape: 24 384 7 7 (451584)
I0403 18:32:08.583911  7093 net.cpp:156] Memory required for data: 1328854560
I0403 18:32:08.583925  7093 layer_factory.hpp:77] Creating layer inception_5b/3x3_reduce
I0403 18:32:08.583948  7093 net.cpp:91] Creating Layer inception_5b/3x3_reduce
I0403 18:32:08.583966  7093 net.cpp:425] inception_5b/3x3_reduce <- inception_5a/output_inception_5a/output_0_split_1
I0403 18:32:08.583989  7093 net.cpp:399] inception_5b/3x3_reduce -> inception_5b/3x3_reduce
I0403 18:32:08.586694  7093 net.cpp:141] Setting up inception_5b/3x3_reduce
I0403 18:32:08.586724  7093 net.cpp:148] Top shape: 24 192 7 7 (225792)
I0403 18:32:08.586740  7093 net.cpp:156] Memory required for data: 1329757728
I0403 18:32:08.586760  7093 layer_factory.hpp:77] Creating layer inception_5b/relu_3x3_reduce
I0403 18:32:08.586781  7093 net.cpp:91] Creating Layer inception_5b/relu_3x3_reduce
I0403 18:32:08.586798  7093 net.cpp:425] inception_5b/relu_3x3_reduce <- inception_5b/3x3_reduce
I0403 18:32:08.586817  7093 net.cpp:386] inception_5b/relu_3x3_reduce -> inception_5b/3x3_reduce (in-place)
I0403 18:32:08.587010  7093 net.cpp:141] Setting up inception_5b/relu_3x3_reduce
I0403 18:32:08.587035  7093 net.cpp:148] Top shape: 24 192 7 7 (225792)
I0403 18:32:08.587050  7093 net.cpp:156] Memory required for data: 1330660896
I0403 18:32:08.587065  7093 layer_factory.hpp:77] Creating layer inception_5b/3x3
I0403 18:32:08.587092  7093 net.cpp:91] Creating Layer inception_5b/3x3
I0403 18:32:08.587110  7093 net.cpp:425] inception_5b/3x3 <- inception_5b/3x3_reduce
I0403 18:32:08.587129  7093 net.cpp:399] inception_5b/3x3 -> inception_5b/3x3
I0403 18:32:08.593937  7093 net.cpp:141] Setting up inception_5b/3x3
I0403 18:32:08.593966  7093 net.cpp:148] Top shape: 24 384 7 7 (451584)
I0403 18:32:08.593981  7093 net.cpp:156] Memory required for data: 1332467232
I0403 18:32:08.594000  7093 layer_factory.hpp:77] Creating layer inception_5b/relu_3x3
I0403 18:32:08.594020  7093 net.cpp:91] Creating Layer inception_5b/relu_3x3
I0403 18:32:08.594038  7093 net.cpp:425] inception_5b/relu_3x3 <- inception_5b/3x3
I0403 18:32:08.594055  7093 net.cpp:386] inception_5b/relu_3x3 -> inception_5b/3x3 (in-place)
I0403 18:32:08.594374  7093 net.cpp:141] Setting up inception_5b/relu_3x3
I0403 18:32:08.594401  7093 net.cpp:148] Top shape: 24 384 7 7 (451584)
I0403 18:32:08.594418  7093 net.cpp:156] Memory required for data: 1334273568
I0403 18:32:08.594434  7093 layer_factory.hpp:77] Creating layer inception_5b/5x5_reduce
I0403 18:32:08.594472  7093 net.cpp:91] Creating Layer inception_5b/5x5_reduce
I0403 18:32:08.594492  7093 net.cpp:425] inception_5b/5x5_reduce <- inception_5a/output_inception_5a/output_0_split_2
I0403 18:32:08.594516  7093 net.cpp:399] inception_5b/5x5_reduce -> inception_5b/5x5_reduce
I0403 18:32:08.595821  7093 net.cpp:141] Setting up inception_5b/5x5_reduce
I0403 18:32:08.595850  7093 net.cpp:148] Top shape: 24 48 7 7 (56448)
I0403 18:32:08.595866  7093 net.cpp:156] Memory required for data: 1334499360
I0403 18:32:08.595885  7093 layer_factory.hpp:77] Creating layer inception_5b/relu_5x5_reduce
I0403 18:32:08.595906  7093 net.cpp:91] Creating Layer inception_5b/relu_5x5_reduce
I0403 18:32:08.595923  7093 net.cpp:425] inception_5b/relu_5x5_reduce <- inception_5b/5x5_reduce
I0403 18:32:08.595940  7093 net.cpp:386] inception_5b/relu_5x5_reduce -> inception_5b/5x5_reduce (in-place)
I0403 18:32:08.596336  7093 net.cpp:141] Setting up inception_5b/relu_5x5_reduce
I0403 18:32:08.596364  7093 net.cpp:148] Top shape: 24 48 7 7 (56448)
I0403 18:32:08.596380  7093 net.cpp:156] Memory required for data: 1334725152
I0403 18:32:08.596397  7093 layer_factory.hpp:77] Creating layer inception_5b/5x5
I0403 18:32:08.596418  7093 net.cpp:91] Creating Layer inception_5b/5x5
I0403 18:32:08.596436  7093 net.cpp:425] inception_5b/5x5 <- inception_5b/5x5_reduce
I0403 18:32:08.596457  7093 net.cpp:399] inception_5b/5x5 -> inception_5b/5x5
I0403 18:32:08.598558  7093 net.cpp:141] Setting up inception_5b/5x5
I0403 18:32:08.598587  7093 net.cpp:148] Top shape: 24 128 7 7 (150528)
I0403 18:32:08.598605  7093 net.cpp:156] Memory required for data: 1335327264
I0403 18:32:08.598624  7093 layer_factory.hpp:77] Creating layer inception_5b/relu_5x5
I0403 18:32:08.598642  7093 net.cpp:91] Creating Layer inception_5b/relu_5x5
I0403 18:32:08.598659  7093 net.cpp:425] inception_5b/relu_5x5 <- inception_5b/5x5
I0403 18:32:08.598677  7093 net.cpp:386] inception_5b/relu_5x5 -> inception_5b/5x5 (in-place)
I0403 18:32:08.598873  7093 net.cpp:141] Setting up inception_5b/relu_5x5
I0403 18:32:08.598901  7093 net.cpp:148] Top shape: 24 128 7 7 (150528)
I0403 18:32:08.598917  7093 net.cpp:156] Memory required for data: 1335929376
I0403 18:32:08.598932  7093 layer_factory.hpp:77] Creating layer inception_5b/pool
I0403 18:32:08.598949  7093 net.cpp:91] Creating Layer inception_5b/pool
I0403 18:32:08.598966  7093 net.cpp:425] inception_5b/pool <- inception_5a/output_inception_5a/output_0_split_3
I0403 18:32:08.598987  7093 net.cpp:399] inception_5b/pool -> inception_5b/pool
I0403 18:32:08.599059  7093 net.cpp:141] Setting up inception_5b/pool
I0403 18:32:08.599087  7093 net.cpp:148] Top shape: 24 832 7 7 (978432)
I0403 18:32:08.599103  7093 net.cpp:156] Memory required for data: 1339843104
I0403 18:32:08.599118  7093 layer_factory.hpp:77] Creating layer inception_5b/pool_proj
I0403 18:32:08.599139  7093 net.cpp:91] Creating Layer inception_5b/pool_proj
I0403 18:32:08.599156  7093 net.cpp:425] inception_5b/pool_proj <- inception_5b/pool
I0403 18:32:08.599177  7093 net.cpp:399] inception_5b/pool_proj -> inception_5b/pool_proj
I0403 18:32:08.601637  7093 net.cpp:141] Setting up inception_5b/pool_proj
I0403 18:32:08.601668  7093 net.cpp:148] Top shape: 24 128 7 7 (150528)
I0403 18:32:08.601685  7093 net.cpp:156] Memory required for data: 1340445216
I0403 18:32:08.601704  7093 layer_factory.hpp:77] Creating layer inception_5b/relu_pool_proj
I0403 18:32:08.601727  7093 net.cpp:91] Creating Layer inception_5b/relu_pool_proj
I0403 18:32:08.601744  7093 net.cpp:425] inception_5b/relu_pool_proj <- inception_5b/pool_proj
I0403 18:32:08.601763  7093 net.cpp:386] inception_5b/relu_pool_proj -> inception_5b/pool_proj (in-place)
I0403 18:32:08.602072  7093 net.cpp:141] Setting up inception_5b/relu_pool_proj
I0403 18:32:08.602098  7093 net.cpp:148] Top shape: 24 128 7 7 (150528)
I0403 18:32:08.602115  7093 net.cpp:156] Memory required for data: 1341047328
I0403 18:32:08.602131  7093 layer_factory.hpp:77] Creating layer inception_5b/output
I0403 18:32:08.602152  7093 net.cpp:91] Creating Layer inception_5b/output
I0403 18:32:08.602185  7093 net.cpp:425] inception_5b/output <- inception_5b/1x1
I0403 18:32:08.602203  7093 net.cpp:425] inception_5b/output <- inception_5b/3x3
I0403 18:32:08.602234  7093 net.cpp:425] inception_5b/output <- inception_5b/5x5
I0403 18:32:08.602252  7093 net.cpp:425] inception_5b/output <- inception_5b/pool_proj
I0403 18:32:08.602270  7093 net.cpp:399] inception_5b/output -> inception_5b/output
I0403 18:32:08.602327  7093 net.cpp:141] Setting up inception_5b/output
I0403 18:32:08.602354  7093 net.cpp:148] Top shape: 24 1024 7 7 (1204224)
I0403 18:32:08.602370  7093 net.cpp:156] Memory required for data: 1345864224
I0403 18:32:08.602385  7093 layer_factory.hpp:77] Creating layer pool5/7x7_s1
I0403 18:32:08.602404  7093 net.cpp:91] Creating Layer pool5/7x7_s1
I0403 18:32:08.602421  7093 net.cpp:425] pool5/7x7_s1 <- inception_5b/output
I0403 18:32:08.602443  7093 net.cpp:399] pool5/7x7_s1 -> pool5/7x7_s1
I0403 18:32:08.602669  7093 net.cpp:141] Setting up pool5/7x7_s1
I0403 18:32:08.602694  7093 net.cpp:148] Top shape: 24 1024 1 1 (24576)
I0403 18:32:08.602710  7093 net.cpp:156] Memory required for data: 1345962528
I0403 18:32:08.602725  7093 layer_factory.hpp:77] Creating layer pool5/drop_7x7_s1
I0403 18:32:08.602746  7093 net.cpp:91] Creating Layer pool5/drop_7x7_s1
I0403 18:32:08.602762  7093 net.cpp:425] pool5/drop_7x7_s1 <- pool5/7x7_s1
I0403 18:32:08.602780  7093 net.cpp:386] pool5/drop_7x7_s1 -> pool5/7x7_s1 (in-place)
I0403 18:32:08.602833  7093 net.cpp:141] Setting up pool5/drop_7x7_s1
I0403 18:32:08.602857  7093 net.cpp:148] Top shape: 24 1024 1 1 (24576)
I0403 18:32:08.602874  7093 net.cpp:156] Memory required for data: 1346060832
I0403 18:32:08.602888  7093 layer_factory.hpp:77] Creating layer loss3/classifier_plantvillage
I0403 18:32:08.602908  7093 net.cpp:91] Creating Layer loss3/classifier_plantvillage
I0403 18:32:08.602926  7093 net.cpp:425] loss3/classifier_plantvillage <- pool5/7x7_s1
I0403 18:32:08.602949  7093 net.cpp:399] loss3/classifier_plantvillage -> loss3/classifier_plantvillage
I0403 18:32:08.603404  7093 net.cpp:141] Setting up loss3/classifier_plantvillage
I0403 18:32:08.603430  7093 net.cpp:148] Top shape: 24 38 (912)
I0403 18:32:08.603446  7093 net.cpp:156] Memory required for data: 1346064480
I0403 18:32:08.603464  7093 layer_factory.hpp:77] Creating layer loss3/classifier_plantvillage_loss3/classifier_plantvillage_0_split
I0403 18:32:08.603483  7093 net.cpp:91] Creating Layer loss3/classifier_plantvillage_loss3/classifier_plantvillage_0_split
I0403 18:32:08.603499  7093 net.cpp:425] loss3/classifier_plantvillage_loss3/classifier_plantvillage_0_split <- loss3/classifier_plantvillage
I0403 18:32:08.603523  7093 net.cpp:399] loss3/classifier_plantvillage_loss3/classifier_plantvillage_0_split -> loss3/classifier_plantvillage_loss3/classifier_plantvillage_0_split_0
I0403 18:32:08.603544  7093 net.cpp:399] loss3/classifier_plantvillage_loss3/classifier_plantvillage_0_split -> loss3/classifier_plantvillage_loss3/classifier_plantvillage_0_split_1
I0403 18:32:08.603565  7093 net.cpp:399] loss3/classifier_plantvillage_loss3/classifier_plantvillage_0_split -> loss3/classifier_plantvillage_loss3/classifier_plantvillage_0_split_2
I0403 18:32:08.603586  7093 net.cpp:399] loss3/classifier_plantvillage_loss3/classifier_plantvillage_0_split -> loss3/classifier_plantvillage_loss3/classifier_plantvillage_0_split_3
I0403 18:32:08.603691  7093 net.cpp:141] Setting up loss3/classifier_plantvillage_loss3/classifier_plantvillage_0_split
I0403 18:32:08.603715  7093 net.cpp:148] Top shape: 24 38 (912)
I0403 18:32:08.603732  7093 net.cpp:148] Top shape: 24 38 (912)
I0403 18:32:08.603747  7093 net.cpp:148] Top shape: 24 38 (912)
I0403 18:32:08.603763  7093 net.cpp:148] Top shape: 24 38 (912)
I0403 18:32:08.603778  7093 net.cpp:156] Memory required for data: 1346079072
I0403 18:32:08.603795  7093 layer_factory.hpp:77] Creating layer loss1/loss
I0403 18:32:08.603816  7093 net.cpp:91] Creating Layer loss1/loss
I0403 18:32:08.603834  7093 net.cpp:425] loss1/loss <- loss1/classifier_plantvillage_loss1/classifier_plantvillage_0_split_0
I0403 18:32:08.603865  7093 net.cpp:425] loss1/loss <- label_data_1_split_0
…
