…
I0403 18:37:26.805810  7187 net.cpp:313] The NetState phase (1) differed from the phase (0) specified by a rule in layer data
I0403 18:37:26.806993  7187 net.cpp:49] Initializing net from parameters: 
state {
  phase: TEST
}
layer {
  name: "data"
  type: "Data"
  top: "data"
  top: "label"
  include {
    phase: TEST
  }
  transform_param {
    mirror: false
    crop_size: 224
    mean_file: "/home/mohanty/data/final_dataset/lmdb/segmented-50-50/mean.binaryproto"
  }
  data_param {
    source: "/home/mohanty/data/final_dataset/lmdb/segmented-50-50/test_db"
    batch_size: 24
    backend: LMDB
  }
}
layer {
  name: "conv1/7x7_s2"
  type: "Convolution"
  bottom: "data"
  top: "conv1/7x7_s2"
  param {
    lr_mult: 1
    decay_mult: 1
  }
  param {
    lr_mult: 2
    decay_mult: 0
  }
  convolution_param {
    num_output: 64
    pad: 3
    kernel_size: 7
    stride: 2
    weight_filler {
      type: "xavier"
      std: 0.1
    }
    bias_filler {
      type: "constant"
      value: 0.2
    }
  }
}
layer {
  name: "conv1/relu_7x7"
  type: "ReLU"
  bottom: "conv1/7x7_s2"
  top: "conv1/7x7_s2"
}
layer {
  name: "pool1/3x3_s2"
  type: "Pooling"
  bottom: "conv1/7x7_s2"
  top: "pool1/3x3_s2"
  pooling_param {
    pool: MAX
    kernel_size: 3
    stride: 2
  }
}
layer {
  name: "pool1/norm1"
  type: "LRN"
  bottom: "pool1/3x3_s2"
  top: "pool1/norm1"
  lrn_param {
    local_size: 5
    alpha: 0.0001
    beta: 0.75
  }
}
layer {
  name: "conv2/3x3_reduce"
  type: "Convolution"
  bottom: "pool1/norm1"
  top: "conv2/3x3_reduce"
  param {
    lr_mult: 1
    decay_mult: 1
  }
  param {
    lr_mult: 2
    decay_mult: 0
  }
  convolution_param {
    num_output: 64
    kernel_size: 1
    weight_filler {
      type: "xavier"
      std: 0.1
    }
    bias_filler {
      type: "constant"
      value: 0.2
    }
  }
}
layer {
  name: "conv2/relu_3x3_reduce"
  type: "ReLU"
  bottom: "conv2/3x3_reduce"
  top: "conv2/3x3_reduce"
}
layer {
  name: "conv2/3x3"
  type: "Convolution"
  bottom: "conv2/3x3_reduce"
  top: "conv2/3x3"
  param {
    lr_mult: 1
    decay_mult: 1
  }
  param {
    lr_mult: 2
    decay_mult: 0
  }
  convolution_param {
    num_output: 192
    pad: 1
    kernel_size: 3
    weight_filler {
      type: "xavier"
      std: 0.03
    }
    bias_filler {
      type: "constant"
      value: 0.2
    }
  }
}
layer {
  name: "conv2/relu_3x3"
  type: "ReLU"
  bottom: "conv2/3x3"
  top: "conv2/3x3"
}
layer {
  name: "conv2/norm2"
  type: "LRN"
  bottom: "conv2/3x3"
  top: "conv2/norm2"
  lrn_param {
    local_size: 5
    alpha: 0.0001
    beta: 0.75
  }
}
layer {
  name: "pool2/3x3_s2"
  type: "Pooling"
  bottom: "conv2/norm2"
  top: "pool2/3x3_s2"
  pooling_param {
    pool: MAX
    kernel_size: 3
    stride: 2
  }
}
layer {
  name: "inception_3a/1x1"
  type: "Convolution"
  bottom: "pool2/3x3_s2"
  top: "inception_3a/1x1"
  param {
    lr_mult: 1
    decay_mult: 1
  }
  param {
    lr_mult: 2
    decay_mult: 0
  }
  convolution_param {
    num_output: 64
    kernel_size: 1
    weight_filler {
      type: "xavier"
      std: 0.03
    }
    bias_filler {
      type: "constant"
      value: 0.2
    }
  }
}
layer {
  name: "inception_3a/relu_1x1"
  type: "ReLU"
  bottom: "inception_3a/1x1"
  top: "inception_3a/1x1"
}
layer {
  name: "inception_3a/3x3_reduce"
  type: "Convolution"
  bottom: "pool2/3x3_s2"
  top: "inception_3a/3x3_reduce"
  param {
    lr_mult: 1
    decay_mult: 1
  }
  param {
    lr_mult: 2
    decay_mult: 0
  }
  convolution_param {
    num_output: 96
    kernel_size: 1
    weight_filler {
      type: "xavier"
      std: 0.09
    }
    bias_filler {
      type: "constant"
      value: 0.2
    }
  }
}
layer {
  name: "inception_3a/relu_3x3_reduce"
  type: "ReLU"
  bottom: "inception_3a/3x3_reduce"
  top: "inception_3a/3x3_reduce"
}
layer {
  name: "inception_3a/3x3"
  type: "Convolution"
  bottom: "inception_3a/3x3_reduce"
  top: "inception_3a/3x3"
  param {
    lr_mult: 1
    decay_mult: 1
  }
  param {
    lr_mult: 2
    decay_mult: 0
  }
  convolution_param {
    num_output: 128
    pad: 1
    kernel_size: 3
    weight_filler {
      type: "xavier"
      std: 0.03
    }
    bias_filler {
      type: "constant"
      value: 0.2
    }
  }
}
layer {
  name: "inception_3a/relu_3x3"
  type: "ReLU"
  bottom: "inception_3a/3x3"
  top: "inception_3a/3x3"
}
layer {
  name: "inception_3a/5x5_reduce"
  type: "Convolution"
  bottom: "pool2/3x3_s2"
  top: "inception_3a/5x5_reduce"
  param {
    lr_mult: 1
    decay_mult: 1
  }
  param {
    lr_mult: 2
    decay_mult: 0
  }
  convolution_param {
    num_output: 16
    kernel_size: 1
    weight_filler {
      type: "xavier"
      std: 0.2
    }
    bias_filler {
      type: "constant"
      value: 0.2
    }
  }
}
layer {
  name: "inception_3a/relu_5x5_reduce"
  type: "ReLU"
  bottom: "inception_3a/5x5_reduce"
  top: "inception_3a/5x5_reduce"
}
layer {
  name: "inception_3a/5x5"
  type: "Convolution"
  bottom: "inception_3a/5x5_reduce"
  top: "inception_3a/5x5"
  param {
    lr_mult: 1
    decay_mult: 1
  }
  param {
    lr_mult: 2
    decay_mult: 0
  }
  convolution_param {
    num_output: 32
    pad: 2
    kernel_size: 5
    weight_filler {
      type: "xavier"
      std: 0.03
    }
    bias_filler {
      type: "constant"
      value: 0.2
    }
  }
}
layer {
  name: "inception_3a/relu_5x5"
  type: "ReLU"
  bottom: "inception_3a/5x5"
  top: "inception_3a/5x5"
}
layer {
  name: "inception_3a/pool"
  type: "Pooling"
  bottom: "pool2/3x3_s2"
  top: "inception_3a/pool"
  pooling_param {
    pool: MAX
    kernel_size: 3
    stride: 1
    pad: 1
  }
}
layer {
  name: "inception_3a/pool_proj"
  type: "Convolution"
  bottom: "inception_3a/pool"
  top: "inception_3a/pool_proj"
  param {
    lr_mult: 1
    decay_mult: 1
  }
  param {
    lr_mult: 2
    decay_mult: 0
  }
  convolution_param {
    num_output: 32
    kernel_size: 1
    weight_filler {
      type: "xavier"
      std: 0.1
    }
    bias_filler {
      type: "constant"
      value: 0.2
    }
  }
}
layer {
  name: "inception_3a/relu_pool_proj"
  type: "ReLU"
  bottom: "inception_3a/pool_proj"
  top: "inception_3a/pool_proj"
}
layer {
  name: "inception_3a/output"
  type: "Concat"
  bottom: "inception_3a/1x1"
  bottom: "inception_3a/3x3"
  bottom: "inception_3a/5x5"
  bottom: "inception_3a/pool_proj"
  top: "inception_3a/output"
}
layer {
  name: "inception_3b/1x1"
  type: "Convolution"
  bottom: "inception_3a/output"
  top: "inception_3b/1x1"
  param {
    lr_mult: 1
    decay_mult: 1
  }
  param {
    lr_mult: 2
    decay_mult: 0
  }
  convolution_param {
    num_output: 128
    kernel_size: 1
    weight_filler {
      type: "xavier"
      std: 0.03
    }
    bias_filler {
      type: "constant"
      value: 0.2
    }
  }
}
layer {
  name: "inception_3b/relu_1x1"
  type: "ReLU"
  bottom: "inception_3b/1x1"
  top: "inception_3b/1x1"
}
layer {
  name: "inception_3b/3x3_reduce"
  type: "Convolution"
  bottom: "inception_3a/output"
  top: "inception_3b/3x3_reduce"
  param {
    lr_mult: 1
    decay_mult: 1
  }
  param {
    lr_mult: 2
    decay_mult: 0
  }
  convolution_param {
    num_output: 128
    kernel_size: 1
    weight_filler {
      type: "xavier"
      std: 0.09
    }
    bias_filler {
      type: "constant"
      value: 0.2
    }
  }
}
layer {
  name: "inception_3b/relu_3x3_reduce"
  type: "ReLU"
  bottom: "inception_3b/3x3_reduce"
  top: "inception_3b/3x3_reduce"
}
layer {
  name: "inception_3b/3x3"
  type: "Convolution"
  bottom: "inception_3b/3x3_reduce"
  top: "inception_3b/3x3"
  param {
    lr_mult: 1
    decay_mult: 1
  }
  param {
    lr_mult: 2
    decay_mult: 0
  }
  convolution_param {
    num_output: 192
    pad: 1
    kernel_size: 3
    weight_filler {
      type: "xavier"
      std: 0.03
    }
    bias_filler {
      type: "constant"
      value: 0.2
    }
  }
}
layer {
  name: "inception_3b/relu_3x3"
  type: "ReLU"
  bottom: "inception_3b/3x3"
  top: "inception_3b/3x3"
}
layer {
  name: "inception_3b/5x5_reduce"
  type: "Convolution"
  bottom: "inception_3a/output"
  top: "inception_3b/5x5_reduce"
  param {
    lr_mult: 1
    decay_mult: 1
  }
  param {
    lr_mult: 2
    decay_mult: 0
  }
  convolution_param {
    num_output: 32
    kernel_size: 1
    weight_filler {
      type: "xavier"
      std: 0.2
    }
    bias_filler {
      type: "constant"
      value: 0.2
    }
  }
}
layer {
  name: "inception_3b/relu_5x5_reduce"
  type: "ReLU"
  bottom: "inception_3b/5x5_reduce"
  top: "inception_3b/5x5_reduce"
}
layer {
  name: "inception_3b/5x5"
  type: "Convolution"
  bottom: "inception_3b/5x5_reduce"
  top: "inception_3b/5x5"
  param {
    lr_mult: 1
    decay_mult: 1
  }
  param {
    lr_mult: 2
    decay_mult: 0
  }
  convolution_param {
    num_output: 96
    pad: 2
    kernel_size: 5
    weight_filler {
      type: "xavier"
      std: 0.03
    }
    bias_filler {
      type: "constant"
      value: 0.2
    }
  }
}
layer {
  name: "inception_3b/relu_5x5"
  type: "ReLU"
  bottom: "inception_3b/5x5"
  top: "inception_3b/5x5"
}
layer {
  name: "inception_3b/pool"
  type: "Pooling"
  bottom: "inception_3a/output"
  top: "inception_3b/pool"
  pooling_param {
    pool: MAX
    kernel_size: 3
    stride: 1
    pad: 1
  }
}
layer {
  name: "inception_3b/pool_proj"
  type: "Convolution"
  bottom: "inception_3b/pool"
  top: "inception_3b/pool_proj"
  param {
    lr_mult: 1
    decay_mult: 1
  }
  param {
    lr_mult: 2
    decay_mult: 0
  }
  convolution_param {
    num_output: 64
    kernel_size: 1
    weight_filler {
      type: "xavier"
      std: 0.1
    }
    bias_filler {
      type: "constant"
      value: 0.2
    }
  }
}
layer {
  name: "inception_3b/relu_pool_proj"
  type: "ReLU"
  bottom: "inception_3b/pool_proj"
  top: "inception_3b/pool_proj"
}
layer {
  name: "inception_3b/output"
  type: "Concat"
  bottom: "inception_3b/1x1"
  bottom: "inception_3b/3x3"
  bottom: "inception_3b/5x5"
  bottom: "inception_3b/pool_proj"
  top: "inception_3b/output"
}
layer {
  name: "pool3/3x3_s2"
  type: "Pooling"
  bottom: "inception_3b/output"
  top: "pool3/3x3_s2"
  pooling_param {
    pool: MAX
    kernel_size: 3
    stride: 2
  }
}
layer {
  name: "inception_4a/1x1"
  type: "Convolution"
  bottom: "pool3/3x3_s2"
  top: "inception_4a/1x1"
  param {
    lr_mult: 1
    decay_mult: 1
  }
  param {
    lr_mult: 2
    decay_mult: 0
  }
  convolution_param {
    num_output: 192
    kernel_size: 1
    weight_filler {
      type: "xavier"
      std: 0.03
    }
    bias_filler {
      type: "constant"
      value: 0.2
    }
  }
}
layer {
  name: "inception_4a/relu_1x1"
  type: "ReLU"
  bottom: "inception_4a/1x1"
  top: "inception_4a/1x1"
}
layer {
  name: "inception_4a/3x3_reduce"
  type: "Convolution"
  bottom: "pool3/3x3_s2"
  top: "inception_4a/3x3_reduce"
  param {
    lr_mult: 1
    decay_mult: 1
  }
  param {
    lr_mult: 2
    decay_mult: 0
  }
  convolution_param {
    num_output: 96
    kernel_size: 1
    weight_filler {
      type: "xavier"
      std: 0.09
    }
    bias_filler {
      type: "constant"
      value: 0.2
    }
  }
}
layer {
  name: "inception_4a/relu_3x3_reduce"
  type: "ReLU"
  bottom: "inception_4a/3x3_reduce"
  top: "inception_4a/3x3_reduce"
}
layer {
  name: "inception_4a/3x3"
  type: "Convolution"
  bottom: "inception_4a/3x3_reduce"
  top: "inception_4a/3x3"
  param {
    lr_mult: 1
    decay_mult: 1
  }
  param {
    lr_mult: 2
    decay_mult: 0
  }
  convolution_param {
    num_output: 208
    pad: 1
    kernel_size: 3
    weight_filler {
      type: "xavier"
      std: 0.03
    }
    bias_filler {
      type: "constant"
      value: 0.2
    }
  }
}
layer {
  name: "inception_4a/relu_3x3"
  type: "ReLU"
  bottom: "inception_4a/3x3"
  top: "inception_4a/3x3"
}
layer {
  name: "inception_4a/5x5_reduce"
  type: "Convolution"
  bottom: "pool3/3x3_s2"
  top: "inception_4a/5x5_reduce"
  param {
    lr_mult: 1
    decay_mult: 1
  }
  param {
    lr_mult: 2
    decay_mult: 0
  }
  convolution_param {
    num_output: 16
    kernel_size: 1
    weight_filler {
      type: "xavier"
      std: 0.2
    }
    bias_filler {
      type: "constant"
      value: 0.2
    }
  }
}
layer {
  name: "inception_4a/relu_5x5_reduce"
  type: "ReLU"
  bottom: "inception_4a/5x5_reduce"
  top: "inception_4a/5x5_reduce"
}
layer {
  name: "inception_4a/5x5"
  type: "Convolution"
  bottom: "inception_4a/5x5_reduce"
  top: "inception_4a/5x5"
  param {
    lr_mult: 1
    decay_mult: 1
  }
  param {
    lr_mult: 2
    decay_mult: 0
  }
  convolution_param {
    num_output: 48
    pad: 2
    kernel_size: 5
    weight_filler {
      type: "xavier"
      std: 0.03
    }
    bias_filler {
      type: "constant"
      value: 0.2
    }
  }
}
layer {
  name: "inception_4a/relu_5x5"
  type: "ReLU"
  bottom: "inception_4a/5x5"
  top: "inception_4a/5x5"
}
layer {
  name: "inception_4a/pool"
  type: "Pooling"
  bottom: "pool3/3x3_s2"
  top: "inception_4a/pool"
  pooling_param {
    pool: MAX
    kernel_size: 3
    stride: 1
    pad: 1
  }
}
layer {
  name: "inception_4a/pool_proj"
  type: "Convolution"
  bottom: "inception_4a/pool"
  top: "inception_4a/pool_proj"
  param {
    lr_mult: 1
    decay_mult: 1
  }
  param {
    lr_mult: 2
    decay_mult: 0
  }
  convolution_param {
    num_output: 64
    kernel_size: 1
    weight_filler {
      type: "xavier"
      std: 0.1
    }
    bias_filler {
      type: "constant"
      value: 0.2
    }
  }
}
layer {
  name: "inception_4a/relu_pool_proj"
  type: "ReLU"
  bottom: "inception_4a/pool_proj"
  top: "inception_4a/pool_proj"
}
layer {
  name: "inception_4a/output"
  type: "Concat"
  bottom: "inception_4a/1x1"
  bottom: "inception_4a/3x3"
  bottom: "inception_4a/5x5"
  bottom: "inception_4a/pool_proj"
  top: "inception_4a/output"
}
layer {
  name: "loss1/ave_pool"
  type: "Pooling"
  bottom: "inception_4a/output"
  top: "loss1/ave_pool"
  pooling_param {
    pool: AVE
    kernel_size: 5
    stride: 3
  }
}
layer {
  name: "loss1/conv"
  type: "Convolution"
  bottom: "loss1/ave_pool"
  top: "loss1/conv"
  param {
    lr_mult: 1
    decay_mult: 1
  }
  param {
    lr_mult: 2
    decay_mult: 0
  }
  convolution_param {
    num_output: 128
    kernel_size: 1
    weight_filler {
      type: "xavier"
      std: 0.08
    }
    bias_filler {
      type: "constant"
      value: 0.2
    }
  }
}
layer {
  name: "loss1/relu_conv"
  type: "ReLU"
  bottom: "loss1/conv"
  top: "loss1/conv"
}
layer {
  name: "loss1/fc"
  type: "InnerProduct"
  bottom: "loss1/conv"
  top: "loss1/fc"
  param {
    lr_mult: 1
    decay_mult: 1
  }
  param {
    lr_mult: 2
    decay_mult: 0
  }
  inner_product_param {
    num_output: 1024
    weight_filler {
      type: "xavier"
      std: 0.02
    }
    bias_filler {
      type: "constant"
      value: 0.2
    }
  }
}
layer {
  name: "loss1/relu_fc"
  type: "ReLU"
  bottom: "loss1/fc"
  top: "loss1/fc"
}
layer {
  name: "loss1/drop_fc"
  type: "Dropout"
  bottom: "loss1/fc"
  top: "loss1/fc"
  dropout_param {
    dropout_ratio: 0.7
  }
}
layer {
  name: "loss1/classifier_plantvillage"
  type: "InnerProduct"
  bottom: "loss1/fc"
  top: "loss1/classifier_plantvillage"
  param {
    lr_mult: 1
    decay_mult: 1
  }
  param {
    lr_mult: 2
    decay_mult: 0
  }
  inner_product_param {
    num_output: 38
    weight_filler {
      type: "xavier"
      std: 0.0009765625
    }
    bias_filler {
      type: "constant"
      value: 0
    }
  }
}
layer {
  name: "inception_4b/1x1"
  type: "Convolution"
  bottom: "inception_4a/output"
  top: "inception_4b/1x1"
  param {
    lr_mult: 1
    decay_mult: 1
  }
  param {
    lr_mult: 2
    decay_mult: 0
  }
  convolution_param {
    num_output: 160
    kernel_size: 1
    weight_filler {
      type: "xavier"
      std: 0.03
    }
    bias_filler {
      type: "constant"
      value: 0.2
    }
  }
}
layer {
  name: "inception_4b/relu_1x1"
  type: "ReLU"
  bottom: "inception_4b/1x1"
  top: "inception_4b/1x1"
}
layer {
  name: "inception_4b/3x3_reduce"
  type: "Convolution"
  bottom: "inception_4a/output"
  top: "inception_4b/3x3_reduce"
  param {
    lr_mult: 1
    decay_mult: 1
  }
  param {
    lr_mult: 2
    decay_mult: 0
  }
  convolution_param {
    num_output: 112
    kernel_size: 1
    weight_filler {
      type: "xavier"
      std: 0.09
    }
    bias_filler {
      type: "constant"
      value: 0.2
    }
  }
}
layer {
  name: "inception_4b/relu_3x3_reduce"
  type: "ReLU"
  bottom: "inception_4b/3x3_reduce"
  top: "inception_4b/3x3_reduce"
}
layer {
  name: "inception_4b/3x3"
  type: "Convolution"
  bottom: "inception_4b/3x3_reduce"
  top: "inception_4b/3x3"
  param {
    lr_mult: 1
    decay_mult: 1
  }
  param {
    lr_mult: 2
    decay_mult: 0
  }
  convolution_param {
    num_output: 224
    pad: 1
    kernel_size: 3
    weight_filler {
      type: "xavier"
      std: 0.03
    }
    bias_filler {
      type: "constant"
      value: 0.2
    }
  }
}
layer {
  name: "inception_4b/relu_3x3"
  type: "ReLU"
  bottom: "inception_4b/3x3"
  top: "inception_4b/3x3"
}
layer {
  name: "inception_4b/5x5_reduce"
  type: "Convolution"
  bottom: "inception_4a/output"
  top: "inception_4b/5x5_reduce"
  param {
    lr_mult: 1
    decay_mult: 1
  }
  param {
    lr_mult: 2
    decay_mult: 0
  }
  convolution_param {
    num_output: 24
    kernel_size: 1
    weight_filler {
      type: "xavier"
      std: 0.2
    }
    bias_filler {
      type: "constant"
      value: 0.2
    }
  }
}
layer {
  name: "inception_4b/relu_5x5_reduce"
  type: "ReLU"
  bottom: "inception_4b/5x5_reduce"
  top: "inception_4b/5x5_reduce"
}
layer {
  name: "inception_4b/5x5"
  type: "Convolution"
  bottom: "inception_4b/5x5_reduce"
  top: "inception_4b/5x5"
  param {
    lr_mult: 1
    decay_mult: 1
  }
  param {
    lr_mult: 2
    decay_mult: 0
  }
  convolution_param {
    num_output: 64
    pad: 2
    kernel_size: 5
    weight_filler {
      type: "xavier"
      std: 0.03
    }
    bias_filler {
      type: "constant"
      value: 0.2
    }
  }
}
layer {
  name: "inception_4b/relu_5x5"
  type: "ReLU"
  bottom: "inception_4b/5x5"
  top: "inception_4b/5x5"
}
layer {
  name: "inception_4b/pool"
  type: "Pooling"
  bottom: "inception_4a/output"
  top: "inception_4b/pool"
  pooling_param {
    pool: MAX
    kernel_size: 3
    stride: 1
    pad: 1
  }
}
layer {
  name: "inception_4b/pool_proj"
  type: "Convolution"
  bottom: "inception_4b/pool"
  top: "inception_4b/pool_proj"
  param {
    lr_mult: 1
    decay_mult: 1
  }
  param {
    lr_mult: 2
    decay_mult: 0
  }
  convolution_param {
    num_output: 64
    kernel_size: 1
    weight_filler {
      type: "xavier"
      std: 0.1
    }
    bias_filler {
      type: "constant"
      value: 0.2
    }
  }
}
layer {
  name: "inception_4b/relu_pool_proj"
  type: "ReLU"
  bottom: "inception_4b/pool_proj"
  top: "inception_4b/pool_proj"
}
layer {
  name: "inception_4b/output"
  type: "Concat"
  bottom: "inception_4b/1x1"
  bottom: "inception_4b/3x3"
  bottom: "inception_4b/5x5"
  bottom: "inception_4b/pool_proj"
  top: "inception_4b/output"
}
layer {
  name: "inception_4c/1x1"
  type: "Convolution"
  bottom: "inception_4b/output"
  top: "inception_4c/1x1"
  param {
    lr_mult: 1
    decay_mult: 1
  }
  param {
    lr_mult: 2
    decay_mult: 0
  }
  convolution_param {
    num_output: 128
    kernel_size: 1
    weight_filler {
      type: "xavier"
      std: 0.03
    }
    bias_filler {
      type: "constant"
      value: 0.2
    }
  }
}
layer {
  name: "inception_4c/relu_1x1"
  type: "ReLU"
  bottom: "inception_4c/1x1"
  top: "inception_4c/1x1"
}
layer {
  name: "inception_4c/3x3_reduce"
  type: "Convolution"
  bottom: "inception_4b/output"
  top: "inception_4c/3x3_reduce"
  param {
    lr_mult: 1
    decay_mult: 1
  }
  param {
    lr_mult: 2
    decay_mult: 0
  }
  convolution_param {
    num_output: 128
    kernel_size: 1
    weight_filler {
      type: "xavier"
      std: 0.09
    }
    bias_filler {
      type: "constant"
      value: 0.2
    }
  }
}
layer {
  name: "inception_4c/relu_3x3_reduce"
  type: "ReLU"
  bottom: "inception_4c/3x3_reduce"
  top: "inception_4c/3x3_reduce"
}
layer {
  name: "inception_4c/3x3"
  type: "Convolution"
  bottom: "inception_4c/3x3_reduce"
  top: "inception_4c/3x3"
  param {
    lr_mult: 1
    decay_mult: 1
  }
  param {
    lr_mult: 2
    decay_mult: 0
  }
  convolution_param {
    num_output: 256
    pad: 1
    kernel_size: 3
    weight_filler {
      type: "xavier"
      std: 0.03
    }
    bias_filler {
      type: "constant"
      value: 0.2
    }
  }
}
layer {
  name: "inception_4c/relu_3x3"
  type: "ReLU"
  bottom: "inception_4c/3x3"
  top: "inception_4c/3x3"
}
layer {
  name: "inception_4c/5x5_reduce"
  type: "Convolution"
  bottom: "inception_4b/output"
  top: "inception_4c/5x5_reduce"
  param {
    lr_mult: 1
    decay_mult: 1
  }
  param {
    lr_mult: 2
    decay_mult: 0
  }
  convolution_param {
    num_output: 24
    kernel_size: 1
    weight_filler {
      type: "xavier"
      std: 0.2
    }
    bias_filler {
      type: "constant"
      value: 0.2
    }
  }
}
layer {
  name: "inception_4c/relu_5x5_reduce"
  type: "ReLU"
  bottom: "inception_4c/5x5_reduce"
  top: "inception_4c/5x5_reduce"
}
layer {
  name: "inception_4c/5x5"
  type: "Convolution"
  bottom: "inception_4c/5x5_reduce"
  top: "inception_4c/5x5"
  param {
    lr_mult: 1
    decay_mult: 1
  }
  param {
    lr_mult: 2
    decay_mult: 0
  }
  convolution_param {
    num_output: 64
    pad: 2
    kernel_size: 5
    weight_filler {
      type: "xavier"
      std: 0.03
    }
    bias_filler {
      type: "constant"
      value: 0.2
    }
  }
}
layer {
  name: "inception_4c/relu_5x5"
  type: "ReLU"
  bottom: "inception_4c/5x5"
  top: "inception_4c/5x5"
}
layer {
  name: "inception_4c/pool"
  type: "Pooling"
  bottom: "inception_4b/output"
  top: "inception_4c/pool"
  pooling_param {
    pool: MAX
    kernel_size: 3
    stride: 1
    pad: 1
  }
}
layer {
  name: "inception_4c/pool_proj"
  type: "Convolution"
  bottom: "inception_4c/pool"
  top: "inception_4c/pool_proj"
  param {
    lr_mult: 1
    decay_mult: 1
  }
  param {
    lr_mult: 2
    decay_mult: 0
  }
  convolution_param {
    num_output: 64
    kernel_size: 1
    weight_filler {
      type: "xavier"
      std: 0.1
    }
    bias_filler {
      type: "constant"
      value: 0.2
    }
  }
}
layer {
  name: "inception_4c/relu_pool_proj"
  type: "ReLU"
  bottom: "inception_4c/pool_proj"
  top: "inception_4c/pool_proj"
}
layer {
  name: "inception_4c/output"
  type: "Concat"
  bottom: "inception_4c/1x1"
  bottom: "inception_4c/3x3"
  bottom: "inception_4c/5x5"
  bottom: "inception_4c/pool_proj"
  top: "inception_4c/output"
}
layer {
  name: "inception_4d/1x1"
  type: "Convolution"
  bottom: "inception_4c/output"
  top: "inception_4d/1x1"
  param {
    lr_mult: 1
    decay_mult: 1
  }
  param {
    lr_mult: 2
    decay_mult: 0
  }
  convolution_param {
    num_output: 112
    kernel_size: 1
    weight_filler {
      type: "xavier"
      std: 0.03
    }
    bias_filler {
      type: "constant"
      value: 0.2
    }
  }
}
layer {
  name: "inception_4d/relu_1x1"
  type: "ReLU"
  bottom: "inception_4d/1x1"
  top: "inception_4d/1x1"
}
layer {
  name: "inception_4d/3x3_reduce"
  type: "Convolution"
  bottom: "inception_4c/output"
  top: "inception_4d/3x3_reduce"
  param {
    lr_mult: 1
    decay_mult: 1
  }
  param {
    lr_mult: 2
    decay_mult: 0
  }
  convolution_param {
    num_output: 144
    kernel_size: 1
    weight_filler {
      type: "xavier"
      std: 0.09
    }
    bias_filler {
      type: "constant"
      value: 0.2
    }
  }
}
layer {
  name: "inception_4d/relu_3x3_reduce"
  type: "ReLU"
  bottom: "inception_4d/3x3_reduce"
  top: "inception_4d/3x3_reduce"
}
layer {
  name: "inception_4d/3x3"
  type: "Convolution"
  bottom: "inception_4d/3x3_reduce"
  top: "inception_4d/3x3"
  param {
    lr_mult: 1
    decay_mult: 1
  }
  param {
    lr_mult: 2
    decay_mult: 0
  }
  convolution_param {
    num_output: 288
    pad: 1
    kernel_size: 3
    weight_filler {
      type: "xavier"
      std: 0.03
    }
    bias_filler {
      type: "constant"
      value: 0.2
    }
  }
}
layer {
  name: "inception_4d/relu_3x3"
  type: "ReLU"
  bottom: "inception_4d/3x3"
  top: "inception_4d/3x3"
}
layer {
  name: "inception_4d/5x5_reduce"
  type: "Convolution"
  bottom: "inception_4c/output"
  top: "inception_4d/5x5_reduce"
  param {
    lr_mult: 1
    decay_mult: 1
  }
  param {
    lr_mult: 2
    decay_mult: 0
  }
  convolution_param {
    num_output: 32
    kernel_size: 1
    weight_filler {
      type: "xavier"
      std: 0.2
    }
    bias_filler {
      type: "constant"
      value: 0.2
    }
  }
}
layer {
  name: "inception_4d/relu_5x5_reduce"
  type: "ReLU"
  bottom: "inception_4d/5x5_reduce"
  top: "inception_4d/5x5_reduce"
}
layer {
  name: "inception_4d/5x5"
  type: "Convolution"
  bottom: "inception_4d/5x5_reduce"
  top: "inception_4d/5x5"
  param {
    lr_mult: 1
    decay_mult: 1
  }
  param {
    lr_mult: 2
    decay_mult: 0
  }
  convolution_param {
    num_output: 64
    pad: 2
    kernel_size: 5
    weight_filler {
      type: "xavier"
      std: 0.03
    }
    bias_filler {
      type: "constant"
      value: 0.2
    }
  }
}
layer {
  name: "inception_4d/relu_5x5"
  type: "ReLU"
  bottom: "inception_4d/5x5"
  top: "inception_4d/5x5"
}
layer {
  name: "inception_4d/pool"
  type: "Pooling"
  bottom: "inception_4c/output"
  top: "inception_4d/pool"
  pooling_param {
    pool: MAX
    kernel_size: 3
    stride: 1
    pad: 1
  }
}
layer {
  name: "inception_4d/pool_proj"
  type: "Convolution"
  bottom: "inception_4d/pool"
  top: "inception_4d/pool_proj"
  param {
    lr_mult: 1
    decay_mult: 1
  }
  param {
    lr_mult: 2
    decay_mult: 0
  }
  convolution_param {
    num_output: 64
    kernel_size: 1
    weight_filler {
      type: "xavier"
      std: 0.1
    }
    bias_filler {
      type: "constant"
      value: 0.2
    }
  }
}
layer {
  name: "inception_4d/relu_pool_proj"
  type: "ReLU"
  bottom: "inception_4d/pool_proj"
  top: "inception_4d/pool_proj"
}
layer {
  name: "inception_4d/output"
  type: "Concat"
  bottom: "inception_4d/1x1"
  bottom: "inception_4d/3x3"
  bottom: "inception_4d/5x5"
  bottom: "inception_4d/pool_proj"
  top: "inception_4d/output"
}
layer {
  name: "loss2/ave_pool"
  type: "Pooling"
  bottom: "inception_4d/output"
  top: "loss2/ave_pool"
  pooling_param {
    pool: AVE
    kernel_size: 5
    stride: 3
  }
}
layer {
  name: "loss2/conv"
  type: "Convolution"
  bottom: "loss2/ave_pool"
  top: "loss2/conv"
  param {
    lr_mult: 1
    decay_mult: 1
  }
  param {
    lr_mult: 2
    decay_mult: 0
  }
  convolution_param {
    num_output: 128
    kernel_size: 1
    weight_filler {
      type: "xavier"
      std: 0.08
    }
    bias_filler {
      type: "constant"
      value: 0.2
    }
  }
}
layer {
  name: "loss2/relu_conv"
  type: "ReLU"
  bottom: "loss2/conv"
  top: "loss2/conv"
}
layer {
  name: "loss2/fc"
  type: "InnerProduct"
  bottom: "loss2/conv"
  top: "loss2/fc"
  param {
    lr_mult: 1
    decay_mult: 1
  }
  param {
    lr_mult: 2
    decay_mult: 0
  }
  inner_product_param {
    num_output: 1024
    weight_filler {
      type: "xavier"
      std: 0.02
    }
    bias_filler {
      type: "constant"
      value: 0.2
    }
  }
}
layer {
  name: "loss2/relu_fc"
  type: "ReLU"
  bottom: "loss2/fc"
  top: "loss2/fc"
}
layer {
  name: "loss2/drop_fc"
  type: "Dropout"
  bottom: "loss2/fc"
  top: "loss2/fc"
  dropout_param {
    dropout_ratio: 0.7
  }
}
layer {
  name: "loss2/classifier_plantvillage"
  type: "InnerProduct"
  bottom: "loss2/fc"
  top: "loss2/classifier_plantvillage"
  param {
    lr_mult: 1
    decay_mult: 1
  }
  param {
    lr_mult: 2
    decay_mult: 0
  }
  inner_product_param {
    num_output: 38
    weight_filler {
      type: "xavier"
      std: 0.0009765625
    }
    bias_filler {
      type: "constant"
      value: 0
    }
  }
}
layer {
  name: "inception_4e/1x1"
  type: "Convolution"
  bottom: "inception_4d/output"
  top: "inception_4e/1x1"
  param {
    lr_mult: 1
    decay_mult: 1
  }
  param {
    lr_mult: 2
    decay_mult: 0
  }
  convolution_param {
    num_output: 256
    kernel_size: 1
    weight_filler {
      type: "xavier"
      std: 0.03
    }
    bias_filler {
      type: "constant"
      value: 0.2
    }
  }
}
layer {
  name: "inception_4e/relu_1x1"
  type: "ReLU"
  bottom: "inception_4e/1x1"
  top: "inception_4e/1x1"
}
layer {
  name: "inception_4e/3x3_reduce"
  type: "Convolution"
  bottom: "inception_4d/output"
  top: "inception_4e/3x3_reduce"
  param {
    lr_mult: 1
    decay_mult: 1
  }
  param {
    lr_mult: 2
    decay_mult: 0
  }
  convolution_param {
    num_output: 160
    kernel_size: 1
    weight_filler {
      type: "xavier"
      std: 0.09
    }
    bias_filler {
      type: "constant"
      value: 0.2
    }
  }
}
layer {
  name: "inception_4e/relu_3x3_reduce"
  type: "ReLU"
  bottom: "inception_4e/3x3_reduce"
  top: "inception_4e/3x3_reduce"
}
layer {
  name: "inception_4e/3x3"
  type: "Convolution"
  bottom: "inception_4e/3x3_reduce"
  top: "inception_4e/3x3"
  param {
    lr_mult: 1
    decay_mult: 1
  }
  param {
    lr_mult: 2
    decay_mult: 0
  }
  convolution_param {
    num_output: 320
    pad: 1
    kernel_size: 3
    weight_filler {
      type: "xavier"
      std: 0.03
    }
    bias_filler {
      type: "constant"
      value: 0.2
    }
  }
}
layer {
  name: "inception_4e/relu_3x3"
  type: "ReLU"
  bottom: "inception_4e/3x3"
  top: "inception_4e/3x3"
}
layer {
  name: "inception_4e/5x5_reduce"
  type: "Convolution"
  bottom: "inception_4d/output"
  top: "inception_4e/5x5_reduce"
  param {
    lr_mult: 1
    decay_mult: 1
  }
  param {
    lr_mult: 2
    decay_mult: 0
  }
  convolution_param {
    num_output: 32
    kernel_size: 1
    weight_filler {
      type: "xavier"
      std: 0.2
    }
    bias_filler {
      type: "constant"
      value: 0.2
    }
  }
}
layer {
  name: "inception_4e/relu_5x5_reduce"
  type: "ReLU"
  bottom: "inception_4e/5x5_reduce"
  top: "inception_4e/5x5_reduce"
}
layer {
  name: "inception_4e/5x5"
  type: "Convolution"
  bottom: "inception_4e/5x5_reduce"
  top: "inception_4e/
I0403 18:37:26.808672  7187 layer_factory.hpp:77] Creating layer data
I0403 18:37:26.809262  7187 net.cpp:91] Creating Layer data
I0403 18:37:26.809291  7187 net.cpp:399] data -> data
I0403 18:37:26.809341  7187 net.cpp:399] data -> label
I0403 18:37:26.809376  7187 data_transformer.cpp:25] Loading mean file from: /home/mohanty/data/final_dataset/lmdb/segmented-50-50/mean.binaryproto
I0403 18:37:26.810537  7192 db_lmdb.cpp:38] Opened lmdb /home/mohanty/data/final_dataset/lmdb/segmented-50-50/test_db
I0403 18:37:26.822778  7187 data_layer.cpp:41] output data size: 24,3,224,224
I0403 18:37:26.851758  7187 net.cpp:141] Setting up data
I0403 18:37:26.851837  7187 net.cpp:148] Top shape: 24 3 224 224 (3612672)
I0403 18:37:26.851862  7187 net.cpp:148] Top shape: 24 (24)
I0403 18:37:26.851881  7187 net.cpp:156] Memory required for data: 14450784
I0403 18:37:26.851912  7187 layer_factory.hpp:77] Creating layer label_data_1_split
I0403 18:37:26.851940  7187 net.cpp:91] Creating Layer label_data_1_split
I0403 18:37:26.851958  7187 net.cpp:425] label_data_1_split <- label
I0403 18:37:26.851992  7187 net.cpp:399] label_data_1_split -> label_data_1_split_0
I0403 18:37:26.852021  7187 net.cpp:399] label_data_1_split -> label_data_1_split_1
I0403 18:37:26.852044  7187 net.cpp:399] label_data_1_split -> label_data_1_split_2
I0403 18:37:26.852068  7187 net.cpp:399] label_data_1_split -> label_data_1_split_3
I0403 18:37:26.852088  7187 net.cpp:399] label_data_1_split -> label_data_1_split_4
I0403 18:37:26.852108  7187 net.cpp:399] label_data_1_split -> label_data_1_split_5
I0403 18:37:26.852130  7187 net.cpp:399] label_data_1_split -> label_data_1_split_6
I0403 18:37:26.852152  7187 net.cpp:399] label_data_1_split -> label_data_1_split_7
I0403 18:37:26.852172  7187 net.cpp:399] label_data_1_split -> label_data_1_split_8
I0403 18:37:26.852192  7187 net.cpp:399] label_data_1_split -> label_data_1_split_9
I0403 18:37:26.852325  7187 net.cpp:141] Setting up label_data_1_split
I0403 18:37:26.852351  7187 net.cpp:148] Top shape: 24 (24)
I0403 18:37:26.852370  7187 net.cpp:148] Top shape: 24 (24)
I0403 18:37:26.852386  7187 net.cpp:148] Top shape: 24 (24)
I0403 18:37:26.852402  7187 net.cpp:148] Top shape: 24 (24)
I0403 18:37:26.852419  7187 net.cpp:148] Top shape: 24 (24)
I0403 18:37:26.852437  7187 net.cpp:148] Top shape: 24 (24)
I0403 18:37:26.852453  7187 net.cpp:148] Top shape: 24 (24)
I0403 18:37:26.852469  7187 net.cpp:148] Top shape: 24 (24)
I0403 18:37:26.852485  7187 net.cpp:148] Top shape: 24 (24)
I0403 18:37:26.852505  7187 net.cpp:148] Top shape: 24 (24)
I0403 18:37:26.852552  7187 net.cpp:156] Memory required for data: 14451744
I0403 18:37:26.852569  7187 layer_factory.hpp:77] Creating layer conv1/7x7_s2
I0403 18:37:26.852603  7187 net.cpp:91] Creating Layer conv1/7x7_s2
I0403 18:37:26.852622  7187 net.cpp:425] conv1/7x7_s2 <- data
I0403 18:37:26.852641  7187 net.cpp:399] conv1/7x7_s2 -> conv1/7x7_s2
I0403 18:37:26.997313  7187 net.cpp:141] Setting up conv1/7x7_s2
I0403 18:37:26.997422  7187 net.cpp:148] Top shape: 24 64 112 112 (19267584)
I0403 18:37:26.997438  7187 net.cpp:156] Memory required for data: 91522080
I0403 18:37:26.997469  7187 layer_factory.hpp:77] Creating layer conv1/relu_7x7
I0403 18:37:26.997495  7187 net.cpp:91] Creating Layer conv1/relu_7x7
I0403 18:37:26.997514  7187 net.cpp:425] conv1/relu_7x7 <- conv1/7x7_s2
I0403 18:37:26.997532  7187 net.cpp:386] conv1/relu_7x7 -> conv1/7x7_s2 (in-place)
I0403 18:37:26.997776  7187 net.cpp:141] Setting up conv1/relu_7x7
I0403 18:37:26.997802  7187 net.cpp:148] Top shape: 24 64 112 112 (19267584)
I0403 18:37:26.997817  7187 net.cpp:156] Memory required for data: 168592416
I0403 18:37:26.997833  7187 layer_factory.hpp:77] Creating layer pool1/3x3_s2
I0403 18:37:26.997856  7187 net.cpp:91] Creating Layer pool1/3x3_s2
I0403 18:37:26.997874  7187 net.cpp:425] pool1/3x3_s2 <- conv1/7x7_s2
I0403 18:37:26.997890  7187 net.cpp:399] pool1/3x3_s2 -> pool1/3x3_s2
I0403 18:37:26.997961  7187 net.cpp:141] Setting up pool1/3x3_s2
I0403 18:37:26.997983  7187 net.cpp:148] Top shape: 24 64 56 56 (4816896)
I0403 18:37:26.997998  7187 net.cpp:156] Memory required for data: 187860000
I0403 18:37:26.998013  7187 layer_factory.hpp:77] Creating layer pool1/norm1
I0403 18:37:26.998049  7187 net.cpp:91] Creating Layer pool1/norm1
I0403 18:37:26.998066  7187 net.cpp:425] pool1/norm1 <- pool1/3x3_s2
I0403 18:37:26.998085  7187 net.cpp:399] pool1/norm1 -> pool1/norm1
I0403 18:37:26.998379  7187 net.cpp:141] Setting up pool1/norm1
I0403 18:37:26.998406  7187 net.cpp:148] Top shape: 24 64 56 56 (4816896)
I0403 18:37:26.998421  7187 net.cpp:156] Memory required for data: 207127584
I0403 18:37:26.998437  7187 layer_factory.hpp:77] Creating layer conv2/3x3_reduce
I0403 18:37:26.998461  7187 net.cpp:91] Creating Layer conv2/3x3_reduce
I0403 18:37:26.998477  7187 net.cpp:425] conv2/3x3_reduce <- pool1/norm1
I0403 18:37:26.998495  7187 net.cpp:399] conv2/3x3_reduce -> conv2/3x3_reduce
I0403 18:37:26.999847  7187 net.cpp:141] Setting up conv2/3x3_reduce
I0403 18:37:26.999877  7187 net.cpp:148] Top shape: 24 64 56 56 (4816896)
I0403 18:37:26.999896  7187 net.cpp:156] Memory required for data: 226395168
I0403 18:37:26.999919  7187 layer_factory.hpp:77] Creating layer conv2/relu_3x3_reduce
I0403 18:37:26.999938  7187 net.cpp:91] Creating Layer conv2/relu_3x3_reduce
I0403 18:37:26.999953  7187 net.cpp:425] conv2/relu_3x3_reduce <- conv2/3x3_reduce
I0403 18:37:26.999970  7187 net.cpp:386] conv2/relu_3x3_reduce -> conv2/3x3_reduce (in-place)
I0403 18:37:27.000236  7187 net.cpp:141] Setting up conv2/relu_3x3_reduce
I0403 18:37:27.000262  7187 net.cpp:148] Top shape: 24 64 56 56 (4816896)
I0403 18:37:27.000280  7187 net.cpp:156] Memory required for data: 245662752
I0403 18:37:27.000295  7187 layer_factory.hpp:77] Creating layer conv2/3x3
I0403 18:37:27.000319  7187 net.cpp:91] Creating Layer conv2/3x3
I0403 18:37:27.000335  7187 net.cpp:425] conv2/3x3 <- conv2/3x3_reduce
I0403 18:37:27.000355  7187 net.cpp:399] conv2/3x3 -> conv2/3x3
I0403 18:37:27.002684  7187 net.cpp:141] Setting up conv2/3x3
I0403 18:37:27.002720  7187 net.cpp:148] Top shape: 24 192 56 56 (14450688)
I0403 18:37:27.002738  7187 net.cpp:156] Memory required for data: 303465504
I0403 18:37:27.002758  7187 layer_factory.hpp:77] Creating layer conv2/relu_3x3
I0403 18:37:27.002777  7187 net.cpp:91] Creating Layer conv2/relu_3x3
I0403 18:37:27.002806  7187 net.cpp:425] conv2/relu_3x3 <- conv2/3x3
I0403 18:37:27.002825  7187 net.cpp:386] conv2/relu_3x3 -> conv2/3x3 (in-place)
I0403 18:37:27.003000  7187 net.cpp:141] Setting up conv2/relu_3x3
I0403 18:37:27.003027  7187 net.cpp:148] Top shape: 24 192 56 56 (14450688)
I0403 18:37:27.003073  7187 net.cpp:156] Memory required for data: 361268256
I0403 18:37:27.003103  7187 layer_factory.hpp:77] Creating layer conv2/norm2
I0403 18:37:27.003124  7187 net.cpp:91] Creating Layer conv2/norm2
I0403 18:37:27.003141  7187 net.cpp:425] conv2/norm2 <- conv2/3x3
I0403 18:37:27.003159  7187 net.cpp:399] conv2/norm2 -> conv2/norm2
I0403 18:37:27.003458  7187 net.cpp:141] Setting up conv2/norm2
I0403 18:37:27.003484  7187 net.cpp:148] Top shape: 24 192 56 56 (14450688)
I0403 18:37:27.003499  7187 net.cpp:156] Memory required for data: 419071008
I0403 18:37:27.003514  7187 layer_factory.hpp:77] Creating layer pool2/3x3_s2
I0403 18:37:27.003532  7187 net.cpp:91] Creating Layer pool2/3x3_s2
I0403 18:37:27.003548  7187 net.cpp:425] pool2/3x3_s2 <- conv2/norm2
I0403 18:37:27.003566  7187 net.cpp:399] pool2/3x3_s2 -> pool2/3x3_s2
I0403 18:37:27.003617  7187 net.cpp:141] Setting up pool2/3x3_s2
I0403 18:37:27.003638  7187 net.cpp:148] Top shape: 24 192 28 28 (3612672)
I0403 18:37:27.003654  7187 net.cpp:156] Memory required for data: 433521696
I0403 18:37:27.003667  7187 layer_factory.hpp:77] Creating layer pool2/3x3_s2_pool2/3x3_s2_0_split
I0403 18:37:27.003684  7187 net.cpp:91] Creating Layer pool2/3x3_s2_pool2/3x3_s2_0_split
I0403 18:37:27.003700  7187 net.cpp:425] pool2/3x3_s2_pool2/3x3_s2_0_split <- pool2/3x3_s2
I0403 18:37:27.003720  7187 net.cpp:399] pool2/3x3_s2_pool2/3x3_s2_0_split -> pool2/3x3_s2_pool2/3x3_s2_0_split_0
I0403 18:37:27.003738  7187 net.cpp:399] pool2/3x3_s2_pool2/3x3_s2_0_split -> pool2/3x3_s2_pool2/3x3_s2_0_split_1
I0403 18:37:27.003757  7187 net.cpp:399] pool2/3x3_s2_pool2/3x3_s2_0_split -> pool2/3x3_s2_pool2/3x3_s2_0_split_2
I0403 18:37:27.003777  7187 net.cpp:399] pool2/3x3_s2_pool2/3x3_s2_0_split -> pool2/3x3_s2_pool2/3x3_s2_0_split_3
I0403 18:37:27.003859  7187 net.cpp:141] Setting up pool2/3x3_s2_pool2/3x3_s2_0_split
I0403 18:37:27.003883  7187 net.cpp:148] Top shape: 24 192 28 28 (3612672)
I0403 18:37:27.003901  7187 net.cpp:148] Top shape: 24 192 28 28 (3612672)
I0403 18:37:27.003916  7187 net.cpp:148] Top shape: 24 192 28 28 (3612672)
I0403 18:37:27.003931  7187 net.cpp:148] Top shape: 24 192 28 28 (3612672)
I0403 18:37:27.003945  7187 net.cpp:156] Memory required for data: 491324448
I0403 18:37:27.003959  7187 layer_factory.hpp:77] Creating layer inception_3a/1x1
I0403 18:37:27.003981  7187 net.cpp:91] Creating Layer inception_3a/1x1
I0403 18:37:27.003998  7187 net.cpp:425] inception_3a/1x1 <- pool2/3x3_s2_pool2/3x3_s2_0_split_0
I0403 18:37:27.004017  7187 net.cpp:399] inception_3a/1x1 -> inception_3a/1x1
I0403 18:37:27.005569  7187 net.cpp:141] Setting up inception_3a/1x1
I0403 18:37:27.005599  7187 net.cpp:148] Top shape: 24 64 28 28 (1204224)
I0403 18:37:27.005615  7187 net.cpp:156] Memory required for data: 496141344
I0403 18:37:27.005635  7187 layer_factory.hpp:77] Creating layer inception_3a/relu_1x1
I0403 18:37:27.005657  7187 net.cpp:91] Creating Layer inception_3a/relu_1x1
I0403 18:37:27.005674  7187 net.cpp:425] inception_3a/relu_1x1 <- inception_3a/1x1
I0403 18:37:27.005692  7187 net.cpp:386] inception_3a/relu_1x1 -> inception_3a/1x1 (in-place)
I0403 18:37:27.005858  7187 net.cpp:141] Setting up inception_3a/relu_1x1
I0403 18:37:27.005884  7187 net.cpp:148] Top shape: 24 64 28 28 (1204224)
I0403 18:37:27.005899  7187 net.cpp:156] Memory required for data: 500958240
I0403 18:37:27.005915  7187 layer_factory.hpp:77] Creating layer inception_3a/3x3_reduce
I0403 18:37:27.005936  7187 net.cpp:91] Creating Layer inception_3a/3x3_reduce
I0403 18:37:27.005954  7187 net.cpp:425] inception_3a/3x3_reduce <- pool2/3x3_s2_pool2/3x3_s2_0_split_1
I0403 18:37:27.005975  7187 net.cpp:399] inception_3a/3x3_reduce -> inception_3a/3x3_reduce
I0403 18:37:27.007779  7187 net.cpp:141] Setting up inception_3a/3x3_reduce
I0403 18:37:27.007809  7187 net.cpp:148] Top shape: 24 96 28 28 (1806336)
I0403 18:37:27.007830  7187 net.cpp:156] Memory required for data: 508183584
I0403 18:37:27.007853  7187 layer_factory.hpp:77] Creating layer inception_3a/relu_3x3_reduce
I0403 18:37:27.007913  7187 net.cpp:91] Creating Layer inception_3a/relu_3x3_reduce
I0403 18:37:27.007935  7187 net.cpp:425] inception_3a/relu_3x3_reduce <- inception_3a/3x3_reduce
I0403 18:37:27.007968  7187 net.cpp:386] inception_3a/relu_3x3_reduce -> inception_3a/3x3_reduce (in-place)
I0403 18:37:27.008152  7187 net.cpp:141] Setting up inception_3a/relu_3x3_reduce
I0403 18:37:27.008177  7187 net.cpp:148] Top shape: 24 96 28 28 (1806336)
I0403 18:37:27.008193  7187 net.cpp:156] Memory required for data: 515408928
I0403 18:37:27.008213  7187 layer_factory.hpp:77] Creating layer inception_3a/3x3
I0403 18:37:27.008236  7187 net.cpp:91] Creating Layer inception_3a/3x3
I0403 18:37:27.008255  7187 net.cpp:425] inception_3a/3x3 <- inception_3a/3x3_reduce
I0403 18:37:27.008278  7187 net.cpp:399] inception_3a/3x3 -> inception_3a/3x3
I0403 18:37:27.009878  7187 net.cpp:141] Setting up inception_3a/3x3
I0403 18:37:27.009910  7187 net.cpp:148] Top shape: 24 128 28 28 (2408448)
I0403 18:37:27.009927  7187 net.cpp:156] Memory required for data: 525042720
I0403 18:37:27.009946  7187 layer_factory.hpp:77] Creating layer inception_3a/relu_3x3
I0403 18:37:27.009965  7187 net.cpp:91] Creating Layer inception_3a/relu_3x3
I0403 18:37:27.009980  7187 net.cpp:425] inception_3a/relu_3x3 <- inception_3a/3x3
I0403 18:37:27.009999  7187 net.cpp:386] inception_3a/relu_3x3 -> inception_3a/3x3 (in-place)
I0403 18:37:27.010267  7187 net.cpp:141] Setting up inception_3a/relu_3x3
I0403 18:37:27.010295  7187 net.cpp:148] Top shape: 24 128 28 28 (2408448)
I0403 18:37:27.010311  7187 net.cpp:156] Memory required for data: 534676512
I0403 18:37:27.010326  7187 layer_factory.hpp:77] Creating layer inception_3a/5x5_reduce
I0403 18:37:27.010349  7187 net.cpp:91] Creating Layer inception_3a/5x5_reduce
I0403 18:37:27.010365  7187 net.cpp:425] inception_3a/5x5_reduce <- pool2/3x3_s2_pool2/3x3_s2_0_split_2
I0403 18:37:27.010385  7187 net.cpp:399] inception_3a/5x5_reduce -> inception_3a/5x5_reduce
I0403 18:37:27.011379  7187 net.cpp:141] Setting up inception_3a/5x5_reduce
I0403 18:37:27.011415  7187 net.cpp:148] Top shape: 24 16 28 28 (301056)
I0403 18:37:27.011432  7187 net.cpp:156] Memory required for data: 535880736
I0403 18:37:27.011451  7187 layer_factory.hpp:77] Creating layer inception_3a/relu_5x5_reduce
I0403 18:37:27.011469  7187 net.cpp:91] Creating Layer inception_3a/relu_5x5_reduce
I0403 18:37:27.011485  7187 net.cpp:425] inception_3a/relu_5x5_reduce <- inception_3a/5x5_reduce
I0403 18:37:27.011505  7187 net.cpp:386] inception_3a/relu_5x5_reduce -> inception_3a/5x5_reduce (in-place)
I0403 18:37:27.011786  7187 net.cpp:141] Setting up inception_3a/relu_5x5_reduce
I0403 18:37:27.011812  7187 net.cpp:148] Top shape: 24 16 28 28 (301056)
I0403 18:37:27.011828  7187 net.cpp:156] Memory required for data: 537084960
I0403 18:37:27.011842  7187 layer_factory.hpp:77] Creating layer inception_3a/5x5
I0403 18:37:27.011865  7187 net.cpp:91] Creating Layer inception_3a/5x5
I0403 18:37:27.011891  7187 net.cpp:425] inception_3a/5x5 <- inception_3a/5x5_reduce
I0403 18:37:27.011914  7187 net.cpp:399] inception_3a/5x5 -> inception_3a/5x5
I0403 18:37:27.012964  7187 net.cpp:141] Setting up inception_3a/5x5
I0403 18:37:27.012992  7187 net.cpp:148] Top shape: 24 32 28 28 (602112)
I0403 18:37:27.013008  7187 net.cpp:156] Memory required for data: 539493408
I0403 18:37:27.013026  7187 layer_factory.hpp:77] Creating layer inception_3a/relu_5x5
I0403 18:37:27.013048  7187 net.cpp:91] Creating Layer inception_3a/relu_5x5
I0403 18:37:27.013067  7187 net.cpp:425] inception_3a/relu_5x5 <- inception_3a/5x5
I0403 18:37:27.013083  7187 net.cpp:386] inception_3a/relu_5x5 -> inception_3a/5x5 (in-place)
I0403 18:37:27.013267  7187 net.cpp:141] Setting up inception_3a/relu_5x5
I0403 18:37:27.013293  7187 net.cpp:148] Top shape: 24 32 28 28 (602112)
I0403 18:37:27.013308  7187 net.cpp:156] Memory required for data: 541901856
I0403 18:37:27.013322  7187 layer_factory.hpp:77] Creating layer inception_3a/pool
I0403 18:37:27.013341  7187 net.cpp:91] Creating Layer inception_3a/pool
I0403 18:37:27.013371  7187 net.cpp:425] inception_3a/pool <- pool2/3x3_s2_pool2/3x3_s2_0_split_3
I0403 18:37:27.013393  7187 net.cpp:399] inception_3a/pool -> inception_3a/pool
I0403 18:37:27.013449  7187 net.cpp:141] Setting up inception_3a/pool
I0403 18:37:27.013473  7187 net.cpp:148] Top shape: 24 192 28 28 (3612672)
I0403 18:37:27.013489  7187 net.cpp:156] Memory required for data: 556352544
I0403 18:37:27.013502  7187 layer_factory.hpp:77] Creating layer inception_3a/pool_proj
I0403 18:37:27.013526  7187 net.cpp:91] Creating Layer inception_3a/pool_proj
I0403 18:37:27.013545  7187 net.cpp:425] inception_3a/pool_proj <- inception_3a/pool
I0403 18:37:27.013562  7187 net.cpp:399] inception_3a/pool_proj -> inception_3a/pool_proj
I0403 18:37:27.014539  7187 net.cpp:141] Setting up inception_3a/pool_proj
I0403 18:37:27.014565  7187 net.cpp:148] Top shape: 24 32 28 28 (602112)
I0403 18:37:27.014580  7187 net.cpp:156] Memory required for data: 558760992
I0403 18:37:27.014617  7187 layer_factory.hpp:77] Creating layer inception_3a/relu_pool_proj
I0403 18:37:27.014637  7187 net.cpp:91] Creating Layer inception_3a/relu_pool_proj
I0403 18:37:27.014652  7187 net.cpp:425] inception_3a/relu_pool_proj <- inception_3a/pool_proj
I0403 18:37:27.014672  7187 net.cpp:386] inception_3a/relu_pool_proj -> inception_3a/pool_proj (in-place)
I0403 18:37:27.014935  7187 net.cpp:141] Setting up inception_3a/relu_pool_proj
I0403 18:37:27.014963  7187 net.cpp:148] Top shape: 24 32 28 28 (602112)
I0403 18:37:27.014978  7187 net.cpp:156] Memory required for data: 561169440
I0403 18:37:27.014993  7187 layer_factory.hpp:77] Creating layer inception_3a/output
I0403 18:37:27.015012  7187 net.cpp:91] Creating Layer inception_3a/output
I0403 18:37:27.015027  7187 net.cpp:425] inception_3a/output <- inception_3a/1x1
I0403 18:37:27.015043  7187 net.cpp:425] inception_3a/output <- inception_3a/3x3
I0403 18:37:27.015058  7187 net.cpp:425] inception_3a/output <- inception_3a/5x5
I0403 18:37:27.015072  7187 net.cpp:425] inception_3a/output <- inception_3a/pool_proj
I0403 18:37:27.015089  7187 net.cpp:399] inception_3a/output -> inception_3a/output
I0403 18:37:27.015133  7187 net.cpp:141] Setting up inception_3a/output
I0403 18:37:27.015156  7187 net.cpp:148] Top shape: 24 256 28 28 (4816896)
I0403 18:37:27.015171  7187 net.cpp:156] Memory required for data: 580437024
I0403 18:37:27.015184  7187 layer_factory.hpp:77] Creating layer inception_3a/output_inception_3a/output_0_split
I0403 18:37:27.015200  7187 net.cpp:91] Creating Layer inception_3a/output_inception_3a/output_0_split
I0403 18:37:27.015223  7187 net.cpp:425] inception_3a/output_inception_3a/output_0_split <- inception_3a/output
I0403 18:37:27.015244  7187 net.cpp:399] inception_3a/output_inception_3a/output_0_split -> inception_3a/output_inception_3a/output_0_split_0
I0403 18:37:27.015264  7187 net.cpp:399] inception_3a/output_inception_3a/output_0_split -> inception_3a/output_inception_3a/output_0_split_1
I0403 18:37:27.015288  7187 net.cpp:399] inception_3a/output_inception_3a/output_0_split -> inception_3a/output_inception_3a/output_0_split_2
I0403 18:37:27.015310  7187 net.cpp:399] inception_3a/output_inception_3a/output_0_split -> inception_3a/output_inception_3a/output_0_split_3
I0403 18:37:27.015379  7187 net.cpp:141] Setting up inception_3a/output_inception_3a/output_0_split
I0403 18:37:27.015401  7187 net.cpp:148] Top shape: 24 256 28 28 (4816896)
I0403 18:37:27.015420  7187 net.cpp:148] Top shape: 24 256 28 28 (4816896)
I0403 18:37:27.015442  7187 net.cpp:148] Top shape: 24 256 28 28 (4816896)
I0403 18:37:27.015460  7187 net.cpp:148] Top shape: 24 256 28 28 (4816896)
I0403 18:37:27.015472  7187 net.cpp:156] Memory required for data: 657507360
I0403 18:37:27.015487  7187 layer_factory.hpp:77] Creating layer inception_3b/1x1
I0403 18:37:27.015507  7187 net.cpp:91] Creating Layer inception_3b/1x1
I0403 18:37:27.015523  7187 net.cpp:425] inception_3b/1x1 <- inception_3a/output_inception_3a/output_0_split_0
I0403 18:37:27.015543  7187 net.cpp:399] inception_3b/1x1 -> inception_3b/1x1
I0403 18:37:27.016723  7187 net.cpp:141] Setting up inception_3b/1x1
I0403 18:37:27.016764  7187 net.cpp:148] Top shape: 24 128 28 28 (2408448)
I0403 18:37:27.016782  7187 net.cpp:156] Memory required for data: 667141152
I0403 18:37:27.016801  7187 layer_factory.hpp:77] Creating layer inception_3b/relu_1x1
I0403 18:37:27.016824  7187 net.cpp:91] Creating Layer inception_3b/relu_1x1
I0403 18:37:27.016840  7187 net.cpp:425] inception_3b/relu_1x1 <- inception_3b/1x1
I0403 18:37:27.016858  7187 net.cpp:386] inception_3b/relu_1x1 -> inception_3b/1x1 (in-place)
I0403 18:37:27.017046  7187 net.cpp:141] Setting up inception_3b/relu_1x1
I0403 18:37:27.017074  7187 net.cpp:148] Top shape: 24 128 28 28 (2408448)
I0403 18:37:27.017091  7187 net.cpp:156] Memory required for data: 676774944
I0403 18:37:27.017105  7187 layer_factory.hpp:77] Creating layer inception_3b/3x3_reduce
I0403 18:37:27.017128  7187 net.cpp:91] Creating Layer inception_3b/3x3_reduce
I0403 18:37:27.017146  7187 net.cpp:425] inception_3b/3x3_reduce <- inception_3a/output_inception_3a/output_0_split_1
I0403 18:37:27.017165  7187 net.cpp:399] inception_3b/3x3_reduce -> inception_3b/3x3_reduce
I0403 18:37:27.018354  7187 net.cpp:141] Setting up inception_3b/3x3_reduce
I0403 18:37:27.018384  7187 net.cpp:148] Top shape: 24 128 28 28 (2408448)
I0403 18:37:27.018402  7187 net.cpp:156] Memory required for data: 686408736
I0403 18:37:27.018424  7187 layer_factory.hpp:77] Creating layer inception_3b/relu_3x3_reduce
I0403 18:37:27.018443  7187 net.cpp:91] Creating Layer inception_3b/relu_3x3_reduce
I0403 18:37:27.018460  7187 net.cpp:425] inception_3b/relu_3x3_reduce <- inception_3b/3x3_reduce
I0403 18:37:27.018476  7187 net.cpp:386] inception_3b/relu_3x3_reduce -> inception_3b/3x3_reduce (in-place)
I0403 18:37:27.018651  7187 net.cpp:141] Setting up inception_3b/relu_3x3_reduce
I0403 18:37:27.018679  7187 net.cpp:148] Top shape: 24 128 28 28 (2408448)
I0403 18:37:27.018695  7187 net.cpp:156] Memory required for data: 696042528
I0403 18:37:27.018710  7187 layer_factory.hpp:77] Creating layer inception_3b/3x3
I0403 18:37:27.018736  7187 net.cpp:91] Creating Layer inception_3b/3x3
I0403 18:37:27.018754  7187 net.cpp:425] inception_3b/3x3 <- inception_3b/3x3_reduce
I0403 18:37:27.018775  7187 net.cpp:399] inception_3b/3x3 -> inception_3b/3x3
I0403 18:37:27.021762  7187 net.cpp:141] Setting up inception_3b/3x3
I0403 18:37:27.021795  7187 net.cpp:148] Top shape: 24 192 28 28 (3612672)
I0403 18:37:27.021814  7187 net.cpp:156] Memory required for data: 710493216
I0403 18:37:27.021832  7187 layer_factory.hpp:77] Creating layer inception_3b/relu_3x3
I0403 18:37:27.021852  7187 net.cpp:91] Creating Layer inception_3b/relu_3x3
I0403 18:37:27.021867  7187 net.cpp:425] inception_3b/relu_3x3 <- inception_3b/3x3
I0403 18:37:27.021888  7187 net.cpp:386] inception_3b/relu_3x3 -> inception_3b/3x3 (in-place)
I0403 18:37:27.022171  7187 net.cpp:141] Setting up inception_3b/relu_3x3
I0403 18:37:27.022199  7187 net.cpp:148] Top shape: 24 192 28 28 (3612672)
I0403 18:37:27.022228  7187 net.cpp:156] Memory required for data: 724943904
I0403 18:37:27.022246  7187 layer_factory.hpp:77] Creating layer inception_3b/5x5_reduce
I0403 18:37:27.022270  7187 net.cpp:91] Creating Layer inception_3b/5x5_reduce
I0403 18:37:27.022289  7187 net.cpp:425] inception_3b/5x5_reduce <- inception_3a/output_inception_3a/output_0_split_2
I0403 18:37:27.022310  7187 net.cpp:399] inception_3b/5x5_reduce -> inception_3b/5x5_reduce
I0403 18:37:27.023305  7187 net.cpp:141] Setting up inception_3b/5x5_reduce
I0403 18:37:27.023334  7187 net.cpp:148] Top shape: 24 32 28 28 (602112)
I0403 18:37:27.023350  7187 net.cpp:156] Memory required for data: 727352352
I0403 18:37:27.023370  7187 layer_factory.hpp:77] Creating layer inception_3b/relu_5x5_reduce
I0403 18:37:27.023391  7187 net.cpp:91] Creating Layer inception_3b/relu_5x5_reduce
I0403 18:37:27.023411  7187 net.cpp:425] inception_3b/relu_5x5_reduce <- inception_3b/5x5_reduce
I0403 18:37:27.023429  7187 net.cpp:386] inception_3b/relu_5x5_reduce -> inception_3b/5x5_reduce (in-place)
I0403 18:37:27.023618  7187 net.cpp:141] Setting up inception_3b/relu_5x5_reduce
I0403 18:37:27.023644  7187 net.cpp:148] Top shape: 24 32 28 28 (602112)
I0403 18:37:27.023659  7187 net.cpp:156] Memory required for data: 729760800
I0403 18:37:27.023674  7187 layer_factory.hpp:77] Creating layer inception_3b/5x5
I0403 18:37:27.023696  7187 net.cpp:91] Creating Layer inception_3b/5x5
I0403 18:37:27.023715  7187 net.cpp:425] inception_3b/5x5 <- inception_3b/5x5_reduce
I0403 18:37:27.023736  7187 net.cpp:399] inception_3b/5x5 -> inception_3b/5x5
I0403 18:37:27.025733  7187 net.cpp:141] Setting up inception_3b/5x5
I0403 18:37:27.025764  7187 net.cpp:148] Top shape: 24 96 28 28 (1806336)
I0403 18:37:27.025780  7187 net.cpp:156] Memory required for data: 736986144
I0403 18:37:27.025799  7187 layer_factory.hpp:77] Creating layer inception_3b/relu_5x5
I0403 18:37:27.025825  7187 net.cpp:91] Creating Layer inception_3b/relu_5x5
I0403 18:37:27.025842  7187 net.cpp:425] inception_3b/relu_5x5 <- inception_3b/5x5
I0403 18:37:27.025859  7187 net.cpp:386] inception_3b/relu_5x5 -> inception_3b/5x5 (in-place)
I0403 18:37:27.026051  7187 net.cpp:141] Setting up inception_3b/relu_5x5
I0403 18:37:27.026077  7187 net.cpp:148] Top shape: 24 96 28 28 (1806336)
I0403 18:37:27.026092  7187 net.cpp:156] Memory required for data: 744211488
I0403 18:37:27.026108  7187 layer_factory.hpp:77] Creating layer inception_3b/pool
I0403 18:37:27.026124  7187 net.cpp:91] Creating Layer inception_3b/pool
I0403 18:37:27.026140  7187 net.cpp:425] inception_3b/pool <- inception_3a/output_inception_3a/output_0_split_3
I0403 18:37:27.026159  7187 net.cpp:399] inception_3b/pool -> inception_3b/pool
I0403 18:37:27.026219  7187 net.cpp:141] Setting up inception_3b/pool
I0403 18:37:27.026243  7187 net.cpp:148] Top shape: 24 256 28 28 (4816896)
I0403 18:37:27.026257  7187 net.cpp:156] Memory required for data: 763479072
I0403 18:37:27.026273  7187 layer_factory.hpp:77] Creating layer inception_3b/pool_proj
I0403 18:37:27.026294  7187 net.cpp:91] Creating Layer inception_3b/pool_proj
I0403 18:37:27.026312  7187 net.cpp:425] inception_3b/pool_proj <- inception_3b/pool
I0403 18:37:27.026332  7187 net.cpp:399] inception_3b/pool_proj -> inception_3b/pool_proj
I0403 18:37:27.027457  7187 net.cpp:141] Setting up inception_3b/pool_proj
I0403 18:37:27.027487  7187 net.cpp:148] Top shape: 24 64 28 28 (1204224)
I0403 18:37:27.027503  7187 net.cpp:156] Memory required for data: 768295968
I0403 18:37:27.027523  7187 layer_factory.hpp:77] Creating layer inception_3b/relu_pool_proj
I0403 18:37:27.027541  7187 net.cpp:91] Creating Layer inception_3b/relu_pool_proj
I0403 18:37:27.027559  7187 net.cpp:425] inception_3b/relu_pool_proj <- inception_3b/pool_proj
I0403 18:37:27.027580  7187 net.cpp:386] inception_3b/relu_pool_proj -> inception_3b/pool_proj (in-place)
I0403 18:37:27.027961  7187 net.cpp:141] Setting up inception_3b/relu_pool_proj
I0403 18:37:27.027992  7187 net.cpp:148] Top shape: 24 64 28 28 (1204224)
I0403 18:37:27.028008  7187 net.cpp:156] Memory required for data: 773112864
I0403 18:37:27.028024  7187 layer_factory.hpp:77] Creating layer inception_3b/output
I0403 18:37:27.028043  7187 net.cpp:91] Creating Layer inception_3b/output
I0403 18:37:27.028059  7187 net.cpp:425] inception_3b/output <- inception_3b/1x1
I0403 18:37:27.028075  7187 net.cpp:425] inception_3b/output <- inception_3b/3x3
I0403 18:37:27.028091  7187 net.cpp:425] inception_3b/output <- inception_3b/5x5
I0403 18:37:27.028107  7187 net.cpp:425] inception_3b/output <- inception_3b/pool_proj
I0403 18:37:27.028126  7187 net.cpp:399] inception_3b/output -> inception_3b/output
I0403 18:37:27.028169  7187 net.cpp:141] Setting up inception_3b/output
I0403 18:37:27.028193  7187 net.cpp:148] Top shape: 24 480 28 28 (9031680)
I0403 18:37:27.028208  7187 net.cpp:156] Memory required for data: 809239584
I0403 18:37:27.028228  7187 layer_factory.hpp:77] Creating layer pool3/3x3_s2
I0403 18:37:27.028249  7187 net.cpp:91] Creating Layer pool3/3x3_s2
I0403 18:37:27.028265  7187 net.cpp:425] pool3/3x3_s2 <- inception_3b/output
I0403 18:37:27.028301  7187 net.cpp:399] pool3/3x3_s2 -> pool3/3x3_s2
I0403 18:37:27.028360  7187 net.cpp:141] Setting up pool3/3x3_s2
I0403 18:37:27.028384  7187 net.cpp:148] Top shape: 24 480 14 14 (2257920)
I0403 18:37:27.028398  7187 net.cpp:156] Memory required for data: 818271264
I0403 18:37:27.028412  7187 layer_factory.hpp:77] Creating layer pool3/3x3_s2_pool3/3x3_s2_0_split
I0403 18:37:27.028429  7187 net.cpp:91] Creating Layer pool3/3x3_s2_pool3/3x3_s2_0_split
I0403 18:37:27.028447  7187 net.cpp:425] pool3/3x3_s2_pool3/3x3_s2_0_split <- pool3/3x3_s2
I0403 18:37:27.028466  7187 net.cpp:399] pool3/3x3_s2_pool3/3x3_s2_0_split -> pool3/3x3_s2_pool3/3x3_s2_0_split_0
I0403 18:37:27.028486  7187 net.cpp:399] pool3/3x3_s2_pool3/3x3_s2_0_split -> pool3/3x3_s2_pool3/3x3_s2_0_split_1
I0403 18:37:27.028504  7187 net.cpp:399] pool3/3x3_s2_pool3/3x3_s2_0_split -> pool3/3x3_s2_pool3/3x3_s2_0_split_2
I0403 18:37:27.028523  7187 net.cpp:399] pool3/3x3_s2_pool3/3x3_s2_0_split -> pool3/3x3_s2_pool3/3x3_s2_0_split_3
I0403 18:37:27.028599  7187 net.cpp:141] Setting up pool3/3x3_s2_pool3/3x3_s2_0_split
I0403 18:37:27.028621  7187 net.cpp:148] Top shape: 24 480 14 14 (2257920)
I0403 18:37:27.028637  7187 net.cpp:148] Top shape: 24 480 14 14 (2257920)
I0403 18:37:27.028653  7187 net.cpp:148] Top shape: 24 480 14 14 (2257920)
I0403 18:37:27.028669  7187 net.cpp:148] Top shape: 24 480 14 14 (2257920)
I0403 18:37:27.028682  7187 net.cpp:156] Memory required for data: 854397984
I0403 18:37:27.028697  7187 layer_factory.hpp:77] Creating layer inception_4a/1x1
I0403 18:37:27.028718  7187 net.cpp:91] Creating Layer inception_4a/1x1
I0403 18:37:27.028735  7187 net.cpp:425] inception_4a/1x1 <- pool3/3x3_s2_pool3/3x3_s2_0_split_0
I0403 18:37:27.028756  7187 net.cpp:399] inception_4a/1x1 -> inception_4a/1x1
I0403 18:37:27.030326  7187 net.cpp:141] Setting up inception_4a/1x1
I0403 18:37:27.030355  7187 net.cpp:148] Top shape: 24 192 14 14 (903168)
I0403 18:37:27.030372  7187 net.cpp:156] Memory required for data: 858010656
I0403 18:37:27.030391  7187 layer_factory.hpp:77] Creating layer inception_4a/relu_1x1
I0403 18:37:27.030411  7187 net.cpp:91] Creating Layer inception_4a/relu_1x1
I0403 18:37:27.030427  7187 net.cpp:425] inception_4a/relu_1x1 <- inception_4a/1x1
I0403 18:37:27.030448  7187 net.cpp:386] inception_4a/relu_1x1 -> inception_4a/1x1 (in-place)
I0403 18:37:27.030625  7187 net.cpp:141] Setting up inception_4a/relu_1x1
I0403 18:37:27.030652  7187 net.cpp:148] Top shape: 24 192 14 14 (903168)
I0403 18:37:27.030666  7187 net.cpp:156] Memory required for data: 861623328
I0403 18:37:27.030683  7187 layer_factory.hpp:77] Creating layer inception_4a/3x3_reduce
I0403 18:37:27.030704  7187 net.cpp:91] Creating Layer inception_4a/3x3_reduce
I0403 18:37:27.030722  7187 net.cpp:425] inception_4a/3x3_reduce <- pool3/3x3_s2_pool3/3x3_s2_0_split_1
I0403 18:37:27.030745  7187 net.cpp:399] inception_4a/3x3_reduce -> inception_4a/3x3_reduce
I0403 18:37:27.032065  7187 net.cpp:141] Setting up inception_4a/3x3_reduce
I0403 18:37:27.032094  7187 net.cpp:148] Top shape: 24 96 14 14 (451584)
I0403 18:37:27.032111  7187 net.cpp:156] Memory required for data: 863429664
I0403 18:37:27.032138  7187 layer_factory.hpp:77] Creating layer inception_4a/relu_3x3_reduce
I0403 18:37:27.032160  7187 net.cpp:91] Creating Layer inception_4a/relu_3x3_reduce
I0403 18:37:27.032176  7187 net.cpp:425] inception_4a/relu_3x3_reduce <- inception_4a/3x3_reduce
I0403 18:37:27.032197  7187 net.cpp:386] inception_4a/relu_3x3_reduce -> inception_4a/3x3_reduce (in-place)
I0403 18:37:27.032384  7187 net.cpp:141] Setting up inception_4a/relu_3x3_reduce
I0403 18:37:27.032412  7187 net.cpp:148] Top shape: 24 96 14 14 (451584)
I0403 18:37:27.032426  7187 net.cpp:156] Memory required for data: 865236000
I0403 18:37:27.032440  7187 layer_factory.hpp:77] Creating layer inception_4a/3x3
I0403 18:37:27.032479  7187 net.cpp:91] Creating Layer inception_4a/3x3
I0403 18:37:27.032498  7187 net.cpp:425] inception_4a/3x3 <- inception_4a/3x3_reduce
I0403 18:37:27.032519  7187 net.cpp:399] inception_4a/3x3 -> inception_4a/3x3
I0403 18:37:27.035316  7187 net.cpp:141] Setting up inception_4a/3x3
I0403 18:37:27.035346  7187 net.cpp:148] Top shape: 24 208 14 14 (978432)
I0403 18:37:27.035362  7187 net.cpp:156] Memory required for data: 869149728
I0403 18:37:27.035382  7187 layer_factory.hpp:77] Creating layer inception_4a/relu_3x3
I0403 18:37:27.035403  7187 net.cpp:91] Creating Layer inception_4a/relu_3x3
I0403 18:37:27.035419  7187 net.cpp:425] inception_4a/relu_3x3 <- inception_4a/3x3
I0403 18:37:27.035437  7187 net.cpp:386] inception_4a/relu_3x3 -> inception_4a/3x3 (in-place)
I0403 18:37:27.035715  7187 net.cpp:141] Setting up inception_4a/relu_3x3
I0403 18:37:27.035743  7187 net.cpp:148] Top shape: 24 208 14 14 (978432)
I0403 18:37:27.035759  7187 net.cpp:156] Memory required for data: 873063456
I0403 18:37:27.035776  7187 layer_factory.hpp:77] Creating layer inception_4a/5x5_reduce
I0403 18:37:27.035800  7187 net.cpp:91] Creating Layer inception_4a/5x5_reduce
I0403 18:37:27.035820  7187 net.cpp:425] inception_4a/5x5_reduce <- pool3/3x3_s2_pool3/3x3_s2_0_split_2
I0403 18:37:27.035842  7187 net.cpp:399] inception_4a/5x5_reduce -> inception_4a/5x5_reduce
I0403 18:37:27.036864  7187 net.cpp:141] Setting up inception_4a/5x5_reduce
I0403 18:37:27.036893  7187 net.cpp:148] Top shape: 24 16 14 14 (75264)
I0403 18:37:27.036911  7187 net.cpp:156] Memory required for data: 873364512
I0403 18:37:27.036931  7187 layer_factory.hpp:77] Creating layer inception_4a/relu_5x5_reduce
I0403 18:37:27.036952  7187 net.cpp:91] Creating Layer inception_4a/relu_5x5_reduce
I0403 18:37:27.036969  7187 net.cpp:425] inception_4a/relu_5x5_reduce <- inception_4a/5x5_reduce
I0403 18:37:27.036988  7187 net.cpp:386] inception_4a/relu_5x5_reduce -> inception_4a/5x5_reduce (in-place)
I0403 18:37:27.037168  7187 net.cpp:141] Setting up inception_4a/relu_5x5_reduce
I0403 18:37:27.037195  7187 net.cpp:148] Top shape: 24 16 14 14 (75264)
I0403 18:37:27.037219  7187 net.cpp:156] Memory required for data: 873665568
I0403 18:37:27.037235  7187 layer_factory.hpp:77] Creating layer inception_4a/5x5
I0403 18:37:27.037258  7187 net.cpp:91] Creating Layer inception_4a/5x5
I0403 18:37:27.037278  7187 net.cpp:425] inception_4a/5x5 <- inception_4a/5x5_reduce
I0403 18:37:27.037299  7187 net.cpp:399] inception_4a/5x5 -> inception_4a/5x5
I0403 18:37:27.038413  7187 net.cpp:141] Setting up inception_4a/5x5
I0403 18:37:27.038444  7187 net.cpp:148] Top shape: 24 48 14 14 (225792)
I0403 18:37:27.038461  7187 net.cpp:156] Memory required for data: 874568736
I0403 18:37:27.038481  7187 layer_factory.hpp:77] Creating layer inception_4a/relu_5x5
I0403 18:37:27.038501  7187 net.cpp:91] Creating Layer inception_4a/relu_5x5
I0403 18:37:27.038516  7187 net.cpp:425] inception_4a/relu_5x5 <- inception_4a/5x5
I0403 18:37:27.038537  7187 net.cpp:386] inception_4a/relu_5x5 -> inception_4a/5x5 (in-place)
I0403 18:37:27.038713  7187 net.cpp:141] Setting up inception_4a/relu_5x5
I0403 18:37:27.038738  7187 net.cpp:148] Top shape: 24 48 14 14 (225792)
I0403 18:37:27.038754  7187 net.cpp:156] Memory required for data: 875471904
I0403 18:37:27.038769  7187 layer_factory.hpp:77] Creating layer inception_4a/pool
I0403 18:37:27.038786  7187 net.cpp:91] Creating Layer inception_4a/pool
I0403 18:37:27.038802  7187 net.cpp:425] inception_4a/pool <- pool3/3x3_s2_pool3/3x3_s2_0_split_3
I0403 18:37:27.038822  7187 net.cpp:399] inception_4a/pool -> inception_4a/pool
I0403 18:37:27.038885  7187 net.cpp:141] Setting up inception_4a/pool
I0403 18:37:27.038908  7187 net.cpp:148] Top shape: 24 480 14 14 (2257920)
I0403 18:37:27.038923  7187 net.cpp:156] Memory required for data: 884503584
I0403 18:37:27.038938  7187 layer_factory.hpp:77] Creating layer inception_4a/pool_proj
I0403 18:37:27.038960  7187 net.cpp:91] Creating Layer inception_4a/pool_proj
I0403 18:37:27.038978  7187 net.cpp:425] inception_4a/pool_proj <- inception_4a/pool
I0403 18:37:27.038998  7187 net.cpp:399] inception_4a/pool_proj -> inception_4a/pool_proj
I0403 18:37:27.040230  7187 net.cpp:141] Setting up inception_4a/pool_proj
I0403 18:37:27.040262  7187 net.cpp:148] Top shape: 24 64 14 14 (301056)
I0403 18:37:27.040298  7187 net.cpp:156] Memory required for data: 885707808
I0403 18:37:27.040333  7187 layer_factory.hpp:77] Creating layer inception_4a/relu_pool_proj
I0403 18:37:27.040354  7187 net.cpp:91] Creating Layer inception_4a/relu_pool_proj
I0403 18:37:27.040371  7187 net.cpp:425] inception_4a/relu_pool_proj <- inception_4a/pool_proj
I0403 18:37:27.040401  7187 net.cpp:386] inception_4a/relu_pool_proj -> inception_4a/pool_proj (in-place)
I0403 18:37:27.040709  7187 net.cpp:141] Setting up inception_4a/relu_pool_proj
I0403 18:37:27.040735  7187 net.cpp:148] Top shape: 24 64 14 14 (301056)
I0403 18:37:27.040750  7187 net.cpp:156] Memory required for data: 886912032
I0403 18:37:27.040766  7187 layer_factory.hpp:77] Creating layer inception_4a/output
I0403 18:37:27.040783  7187 net.cpp:91] Creating Layer inception_4a/output
I0403 18:37:27.040799  7187 net.cpp:425] inception_4a/output <- inception_4a/1x1
I0403 18:37:27.040817  7187 net.cpp:425] inception_4a/output <- inception_4a/3x3
I0403 18:37:27.040833  7187 net.cpp:425] inception_4a/output <- inception_4a/5x5
I0403 18:37:27.040860  7187 net.cpp:425] inception_4a/output <- inception_4a/pool_proj
I0403 18:37:27.040879  7187 net.cpp:399] inception_4a/output -> inception_4a/output
I0403 18:37:27.040927  7187 net.cpp:141] Setting up inception_4a/output
I0403 18:37:27.040956  7187 net.cpp:148] Top shape: 24 512 14 14 (2408448)
I0403 18:37:27.040972  7187 net.cpp:156] Memory required for data: 896545824
I0403 18:37:27.040987  7187 layer_factory.hpp:77] Creating layer inception_4a/output_inception_4a/output_0_split
I0403 18:37:27.041004  7187 net.cpp:91] Creating Layer inception_4a/output_inception_4a/output_0_split
I0403 18:37:27.041020  7187 net.cpp:425] inception_4a/output_inception_4a/output_0_split <- inception_4a/output
I0403 18:37:27.041040  7187 net.cpp:399] inception_4a/output_inception_4a/output_0_split -> inception_4a/output_inception_4a/output_0_split_0
I0403 18:37:27.041061  7187 net.cpp:399] inception_4a/output_inception_4a/output_0_split -> inception_4a/output_inception_4a/output_0_split_1
I0403 18:37:27.041081  7187 net.cpp:399] inception_4a/output_inception_4a/output_0_split -> inception_4a/output_inception_4a/output_0_split_2
I0403 18:37:27.041102  7187 net.cpp:399] inception_4a/output_inception_4a/output_0_split -> inception_4a/output_inception_4a/output_0_split_3
I0403 18:37:27.041122  7187 net.cpp:399] inception_4a/output_inception_4a/output_0_split -> inception_4a/output_inception_4a/output_0_split_4
I0403 18:37:27.041231  7187 net.cpp:141] Setting up inception_4a/output_inception_4a/output_0_split
I0403 18:37:27.041255  7187 net.cpp:148] Top shape: 24 512 14 14 (2408448)
I0403 18:37:27.041273  7187 net.cpp:148] Top shape: 24 512 14 14 (2408448)
I0403 18:37:27.041290  7187 net.cpp:148] Top shape: 24 512 14 14 (2408448)
I0403 18:37:27.041306  7187 net.cpp:148] Top shape: 24 512 14 14 (2408448)
I0403 18:37:27.041322  7187 net.cpp:148] Top shape: 24 512 14 14 (2408448)
I0403 18:37:27.041337  7187 net.cpp:156] Memory required for data: 944714784
I0403 18:37:27.041352  7187 layer_factory.hpp:77] Creating layer loss1/ave_pool
I0403 18:37:27.041373  7187 net.cpp:91] Creating Layer loss1/ave_pool
I0403 18:37:27.041390  7187 net.cpp:425] loss1/ave_pool <- inception_4a/output_inception_4a/output_0_split_0
I0403 18:37:27.041411  7187 net.cpp:399] loss1/ave_pool -> loss1/ave_pool
I0403 18:37:27.041632  7187 net.cpp:141] Setting up loss1/ave_pool
I0403 18:37:27.041659  7187 net.cpp:148] Top shape: 24 512 4 4 (196608)
I0403 18:37:27.041674  7187 net.cpp:156] Memory required for data: 945501216
I0403 18:37:27.041692  7187 layer_factory.hpp:77] Creating layer loss1/conv
I0403 18:37:27.041713  7187 net.cpp:91] Creating Layer loss1/conv
I0403 18:37:27.041744  7187 net.cpp:425] loss1/conv <- loss1/ave_pool
I0403 18:37:27.041766  7187 net.cpp:399] loss1/conv -> loss1/conv
I0403 18:37:27.043321  7187 net.cpp:141] Setting up loss1/conv
I0403 18:37:27.043351  7187 net.cpp:148] Top shape: 24 128 4 4 (49152)
I0403 18:37:27.043382  7187 net.cpp:156] Memory required for data: 945697824
I0403 18:37:27.043403  7187 layer_factory.hpp:77] Creating layer loss1/relu_conv
I0403 18:37:27.043424  7187 net.cpp:91] Creating Layer loss1/relu_conv
I0403 18:37:27.043440  7187 net.cpp:425] loss1/relu_conv <- loss1/conv
I0403 18:37:27.043459  7187 net.cpp:386] loss1/relu_conv -> loss1/conv (in-place)
I0403 18:37:27.043742  7187 net.cpp:141] Setting up loss1/relu_conv
I0403 18:37:27.043771  7187 net.cpp:148] Top shape: 24 128 4 4 (49152)
I0403 18:37:27.043788  7187 net.cpp:156] Memory required for data: 945894432
I0403 18:37:27.043804  7187 layer_factory.hpp:77] Creating layer loss1/fc
I0403 18:37:27.043830  7187 net.cpp:91] Creating Layer loss1/fc
I0403 18:37:27.043850  7187 net.cpp:425] loss1/fc <- loss1/conv
I0403 18:37:27.043872  7187 net.cpp:399] loss1/fc -> loss1/fc
I0403 18:37:27.062258  7187 net.cpp:141] Setting up loss1/fc
I0403 18:37:27.062312  7187 net.cpp:148] Top shape: 24 1024 (24576)
I0403 18:37:27.062328  7187 net.cpp:156] Memory required for data: 945992736
I0403 18:37:27.062350  7187 layer_factory.hpp:77] Creating layer loss1/relu_fc
I0403 18:37:27.062369  7187 net.cpp:91] Creating Layer loss1/relu_fc
I0403 18:37:27.062386  7187 net.cpp:425] loss1/relu_fc <- loss1/fc
I0403 18:37:27.062405  7187 net.cpp:386] loss1/relu_fc -> loss1/fc (in-place)
I0403 18:37:27.062610  7187 net.cpp:141] Setting up loss1/relu_fc
I0403 18:37:27.062636  7187 net.cpp:148] Top shape: 24 1024 (24576)
I0403 18:37:27.062655  7187 net.cpp:156] Memory required for data: 946091040
I0403 18:37:27.062683  7187 layer_factory.hpp:77] Creating layer loss1/drop_fc
I0403 18:37:27.062714  7187 net.cpp:91] Creating Layer loss1/drop_fc
I0403 18:37:27.062733  7187 net.cpp:425] loss1/drop_fc <- loss1/fc
I0403 18:37:27.062764  7187 net.cpp:386] loss1/drop_fc -> loss1/fc (in-place)
I0403 18:37:27.062819  7187 net.cpp:141] Setting up loss1/drop_fc
I0403 18:37:27.062855  7187 net.cpp:148] Top shape: 24 1024 (24576)
I0403 18:37:27.062871  7187 net.cpp:156] Memory required for data: 946189344
I0403 18:37:27.062888  7187 layer_factory.hpp:77] Creating layer loss1/classifier_plantvillage
I0403 18:37:27.062908  7187 net.cpp:91] Creating Layer loss1/classifier_plantvillage
I0403 18:37:27.062927  7187 net.cpp:425] loss1/classifier_plantvillage <- loss1/fc
I0403 18:37:27.062948  7187 net.cpp:399] loss1/classifier_plantvillage -> loss1/classifier_plantvillage
I0403 18:37:27.063913  7187 net.cpp:141] Setting up loss1/classifier_plantvillage
I0403 18:37:27.063941  7187 net.cpp:148] Top shape: 24 38 (912)
I0403 18:37:27.063956  7187 net.cpp:156] Memory required for data: 946192992
I0403 18:37:27.063974  7187 layer_factory.hpp:77] Creating layer loss1/classifier_plantvillage_loss1/classifier_plantvillage_0_split
I0403 18:37:27.063994  7187 net.cpp:91] Creating Layer loss1/classifier_plantvillage_loss1/classifier_plantvillage_0_split
I0403 18:37:27.064010  7187 net.cpp:425] loss1/classifier_plantvillage_loss1/classifier_plantvillage_0_split <- loss1/classifier_plantvillage
I0403 18:37:27.064028  7187 net.cpp:399] loss1/classifier_plantvillage_loss1/classifier_plantvillage_0_split -> loss1/classifier_plantvillage_loss1/classifier_plantvillage_0_split_0
I0403 18:37:27.064048  7187 net.cpp:399] loss1/classifier_plantvillage_loss1/classifier_plantvillage_0_split -> loss1/classifier_plantvillage_loss1/classifier_plantvillage_0_split_1
I0403 18:37:27.064067  7187 net.cpp:399] loss1/classifier_plantvillage_loss1/classifier_plantvillage_0_split -> loss1/classifier_plantvillage_loss1/classifier_plantvillage_0_split_2
I0403 18:37:27.064133  7187 net.cpp:141] Setting up loss1/classifier_plantvillage_loss1/classifier_plantvillage_0_split
I0403 18:37:27.064157  7187 net.cpp:148] Top shape: 24 38 (912)
I0403 18:37:27.064172  7187 net.cpp:148] Top shape: 24 38 (912)
I0403 18:37:27.064187  7187 net.cpp:148] Top shape: 24 38 (912)
I0403 18:37:27.064200  7187 net.cpp:156] Memory required for data: 946203936
I0403 18:37:27.064220  7187 layer_factory.hpp:77] Creating layer inception_4b/1x1
I0403 18:37:27.064244  7187 net.cpp:91] Creating Layer inception_4b/1x1
I0403 18:37:27.064283  7187 net.cpp:425] inception_4b/1x1 <- inception_4a/output_inception_4a/output_0_split_1
I0403 18:37:27.064303  7187 net.cpp:399] inception_4b/1x1 -> inception_4b/1x1
I0403 18:37:27.066007  7187 net.cpp:141] Setting up inception_4b/1x1
I0403 18:37:27.066037  7187 net.cpp:148] Top shape: 24 160 14 14 (752640)
I0403 18:37:27.066053  7187 net.cpp:156] Memory required for data: 949214496
I0403 18:37:27.066073  7187 layer_factory.hpp:77] Creating layer inception_4b/relu_1x1
I0403 18:37:27.066094  7187 net.cpp:91] Creating Layer inception_4b/relu_1x1
I0403 18:37:27.066112  7187 net.cpp:425] inception_4b/relu_1x1 <- inception_4b/1x1
I0403 18:37:27.066129  7187 net.cpp:386] inception_4b/relu_1x1 -> inception_4b/1x1 (in-place)
I0403 18:37:27.066328  7187 net.cpp:141] Setting up inception_4b/relu_1x1
I0403 18:37:27.066352  7187 net.cpp:148] Top shape: 24 160 14 14 (752640)
I0403 18:37:27.066367  7187 net.cpp:156] Memory required for data: 952225056
I0403 18:37:27.066382  7187 layer_factory.hpp:77] Creating layer inception_4b/3x3_reduce
I0403 18:37:27.066406  7187 net.cpp:91] Creating Layer inception_4b/3x3_reduce
I0403 18:37:27.066437  7187 net.cpp:425] inception_4b/3x3_reduce <- inception_4a/output_inception_4a/output_0_split_2
I0403 18:37:27.066458  7187 net.cpp:399] inception_4b/3x3_reduce -> inception_4b/3x3_reduce
I0403 18:37:27.067795  7187 net.cpp:141] Setting up inception_4b/3x3_reduce
I0403 18:37:27.067826  7187 net.cpp:148] Top shape: 24 112 14 14 (526848)
I0403 18:37:27.067853  7187 net.cpp:156] Memory required for data: 954332448
I0403 18:37:27.067873  7187 layer_factory.hpp:77] Creating layer inception_4b/relu_3x3_reduce
I0403 18:37:27.067891  7187 net.cpp:91] Creating Layer inception_4b/relu_3x3_reduce
I0403 18:37:27.067908  7187 net.cpp:425] inception_4b/relu_3x3_reduce <- inception_4b/3x3_reduce
I0403 18:37:27.067927  7187 net.cpp:386] inception_4b/relu_3x3_reduce -> inception_4b/3x3_reduce (in-place)
I0403 18:37:27.068222  7187 net.cpp:141] Setting up inception_4b/relu_3x3_reduce
I0403 18:37:27.068254  7187 net.cpp:148] Top shape: 24 112 14 14 (526848)
I0403 18:37:27.068271  7187 net.cpp:156] Memory required for data: 956439840
I0403 18:37:27.068286  7187 layer_factory.hpp:77] Creating layer inception_4b/3x3
I0403 18:37:27.068310  7187 net.cpp:91] Creating Layer inception_4b/3x3
I0403 18:37:27.068330  7187 net.cpp:425] inception_4b/3x3 <- inception_4b/3x3_reduce
I0403 18:37:27.068351  7187 net.cpp:399] inception_4b/3x3 -> inception_4b/3x3
I0403 18:37:27.071410  7187 net.cpp:141] Setting up inception_4b/3x3
I0403 18:37:27.071440  7187 net.cpp:148] Top shape: 24 224 14 14 (1053696)
I0403 18:37:27.071457  7187 net.cpp:156] Memory required for data: 960654624
I0403 18:37:27.071476  7187 layer_factory.hpp:77] Creating layer inception_4b/relu_3x3
I0403 18:37:27.071497  7187 net.cpp:91] Creating Layer inception_4b/relu_3x3
I0403 18:37:27.071516  7187 net.cpp:425] inception_4b/relu_3x3 <- inception_4b/3x3
I0403 18:37:27.071535  7187 net.cpp:386] inception_4b/relu_3x3 -> inception_4b/3x3 (in-place)
I0403 18:37:27.071710  7187 net.cpp:141] Setting up inception_4b/relu_3x3
I0403 18:37:27.071738  7187 net.cpp:148] Top shape: 24 224 14 14 (1053696)
I0403 18:37:27.071755  7187 net.cpp:156] Memory required for data: 964869408
I0403 18:37:27.071769  7187 layer_factory.hpp:77] Creating layer inception_4b/5x5_reduce
I0403 18:37:27.071790  7187 net.cpp:91] Creating Layer inception_4b/5x5_reduce
I0403 18:37:27.071806  7187 net.cpp:425] inception_4b/5x5_reduce <- inception_4a/output_inception_4a/output_0_split_3
I0403 18:37:27.071830  7187 net.cpp:399] inception_4b/5x5_reduce -> inception_4b/5x5_reduce
I0403 18:37:27.072971  7187 net.cpp:141] Setting up inception_4b/5x5_reduce
I0403 18:37:27.073017  7187 net.cpp:148] Top shape: 24 24 14 14 (112896)
I0403 18:37:27.073036  7187 net.cpp:156] Memory required for data: 965320992
I0403 18:37:27.073056  7187 layer_factory.hpp:77] Creating layer inception_4b/relu_5x5_reduce
I0403 18:37:27.073074  7187 net.cpp:91] Creating Layer inception_4b/relu_5x5_reduce
I0403 18:37:27.073108  7187 net.cpp:425] inception_4b/relu_5x5_reduce <- inception_4b/5x5_reduce
I0403 18:37:27.073128  7187 net.cpp:386] inception_4b/relu_5x5_reduce -> inception_4b/5x5_reduce (in-place)
I0403 18:37:27.073348  7187 net.cpp:141] Setting up inception_4b/relu_5x5_reduce
I0403 18:37:27.073374  7187 net.cpp:148] Top shape: 24 24 14 14 (112896)
I0403 18:37:27.073388  7187 net.cpp:156] Memory required for data: 965772576
I0403 18:37:27.073402  7187 layer_factory.hpp:77] Creating layer inception_4b/5x5
I0403 18:37:27.073424  7187 net.cpp:91] Creating Layer inception_4b/5x5
I0403 18:37:27.073442  7187 net.cpp:425] inception_4b/5x5 <- inception_4b/5x5_reduce
I0403 18:37:27.073463  7187 net.cpp:399] inception_4b/5x5 -> inception_4b/5x5
I0403 18:37:27.074749  7187 net.cpp:141] Setting up inception_4b/5x5
I0403 18:37:27.074779  7187 net.cpp:148] Top shape: 24 64 14 14 (301056)
I0403 18:37:27.074793  7187 net.cpp:156] Memory required for data: 966976800
I0403 18:37:27.074813  7187 layer_factory.hpp:77] Creating layer inception_4b/relu_5x5
I0403 18:37:27.074834  7187 net.cpp:91] Creating Layer inception_4b/relu_5x5
I0403 18:37:27.074851  7187 net.cpp:425] inception_4b/relu_5x5 <- inception_4b/5x5
I0403 18:37:27.074867  7187 net.cpp:386] inception_4b/relu_5x5 -> inception_4b/5x5 (in-place)
I0403 18:37:27.075142  7187 net.cpp:141] Setting up inception_4b/relu_5x5
I0403 18:37:27.075168  7187 net.cpp:148] Top shape: 24 64 14 14 (301056)
I0403 18:37:27.075184  7187 net.cpp:156] Memory required for data: 968181024
I0403 18:37:27.075198  7187 layer_factory.hpp:77] Creating layer inception_4b/pool
I0403 18:37:27.075223  7187 net.cpp:91] Creating Layer inception_4b/pool
I0403 18:37:27.075242  7187 net.cpp:425] inception_4b/pool <- inception_4a/output_inception_4a/output_0_split_4
I0403 18:37:27.075259  7187 net.cpp:399] inception_4b/pool -> inception_4b/pool
I0403 18:37:27.075325  7187 net.cpp:141] Setting up inception_4b/pool
I0403 18:37:27.075347  7187 net.cpp:148] Top shape: 24 512 14 14 (2408448)
I0403 18:37:27.075362  7187 net.cpp:156] Memory required for data: 977814816
I0403 18:37:27.075378  7187 layer_factory.hpp:77] Creating layer inception_4b/pool_proj
I0403 18:37:27.075402  7187 net.cpp:91] Creating Layer inception_4b/pool_proj
I0403 18:37:27.075418  7187 net.cpp:425] inception_4b/pool_proj <- inception_4b/pool
I0403 18:37:27.075439  7187 net.cpp:399] inception_4b/pool_proj -> inception_4b/pool_proj
I0403 18:37:27.076675  7187 net.cpp:141] Setting up inception_4b/pool_proj
I0403 18:37:27.076706  7187 net.cpp:148] Top shape: 24 64 14 14 (301056)
I0403 18:37:27.076724  7187 net.cpp:156] Memory required for data: 979019040
I0403 18:37:27.076743  7187 layer_factory.hpp:77] Creating layer inception_4b/relu_pool_proj
I0403 18:37:27.076763  7187 net.cpp:91] Creating Layer inception_4b/relu_pool_proj
I0403 18:37:27.076778  7187 net.cpp:425] inception_4b/relu_pool_proj <- inception_4b/pool_proj
I0403 18:37:27.076797  7187 net.cpp:386] inception_4b/relu_pool_proj -> inception_4b/pool_proj (in-place)
I0403 18:37:27.076977  7187 net.cpp:141] Setting up inception_4b/relu_pool_proj
I0403 18:37:27.077003  7187 net.cpp:148] Top shape: 24 64 14 14 (301056)
I0403 18:37:27.077018  7187 net.cpp:156] Memory required for data: 980223264
I0403 18:37:27.077033  7187 layer_factory.hpp:77] Creating layer inception_4b/output
I0403 18:37:27.077052  7187 net.cpp:91] Creating Layer inception_4b/output
I0403 18:37:27.077067  7187 net.cpp:425] inception_4b/output <- inception_4b/1x1
I0403 18:37:27.077085  7187 net.cpp:425] inception_4b/output <- inception_4b/3x3
I0403 18:37:27.077101  7187 net.cpp:425] inception_4b/output <- inception_4b/5x5
I0403 18:37:27.077117  7187 net.cpp:425] inception_4b/output <- inception_4b/pool_proj
I0403 18:37:27.077137  7187 net.cpp:399] inception_4b/output -> inception_4b/output
I0403 18:37:27.077183  7187 net.cpp:141] Setting up inception_4b/output
I0403 18:37:27.077213  7187 net.cpp:148] Top shape: 24 512 14 14 (2408448)
I0403 18:37:27.077229  7187 net.cpp:156] Memory required for data: 989857056
I0403 18:37:27.077258  7187 layer_factory.hpp:77] Creating layer inception_4b/output_inception_4b/output_0_split
I0403 18:37:27.077276  7187 net.cpp:91] Creating Layer inception_4b/output_inception_4b/output_0_split
I0403 18:37:27.077291  7187 net.cpp:425] inception_4b/output_inception_4b/output_0_split <- inception_4b/output
I0403 18:37:27.077307  7187 net.cpp:399] inception_4b/output_inception_4b/output_0_split -> inception_4b/output_inception_4b/output_0_split_0
I0403 18:37:27.077327  7187 net.cpp:399] inception_4b/output_inception_4b/output_0_split -> inception_4b/output_inception_4b/output_0_split_1
I0403 18:37:27.077352  7187 net.cpp:399] inception_4b/output_inception_4b/output_0_split -> inception_4b/output_inception_4b/output_0_split_2
I0403 18:37:27.077373  7187 net.cpp:399] inception_4b/output_inception_4b/output_0_split -> inception_4b/output_inception_4b/output_0_split_3
I0403 18:37:27.077457  7187 net.cpp:141] Setting up inception_4b/output_inception_4b/output_0_split
I0403 18:37:27.077481  7187 net.cpp:148] Top shape: 24 512 14 14 (2408448)
I0403 18:37:27.077497  7187 net.cpp:148] Top shape: 24 512 14 14 (2408448)
I0403 18:37:27.077512  7187 net.cpp:148] Top shape: 24 512 14 14 (2408448)
I0403 18:37:27.077527  7187 net.cpp:148] Top shape: 24 512 14 14 (2408448)
I0403 18:37:27.077541  7187 net.cpp:156] Memory required for data: 1028392224
I0403 18:37:27.077555  7187 layer_factory.hpp:77] Creating layer inception_4c/1x1
I0403 18:37:27.077577  7187 net.cpp:91] Creating Layer inception_4c/1x1
I0403 18:37:27.077594  7187 net.cpp:425] inception_4c/1x1 <- inception_4b/output_inception_4b/output_0_split_0
I0403 18:37:27.077615  7187 net.cpp:399] inception_4c/1x1 -> inception_4c/1x1
I0403 18:37:27.079010  7187 net.cpp:141] Setting up inception_4c/1x1
I0403 18:37:27.079040  7187 net.cpp:148] Top shape: 24 128 14 14 (602112)
I0403 18:37:27.079054  7187 net.cpp:156] Memory required for data: 1030800672
I0403 18:37:27.079073  7187 layer_factory.hpp:77] Creating layer inception_4c/relu_1x1
I0403 18:37:27.079092  7187 net.cpp:91] Creating Layer inception_4c/relu_1x1
I0403 18:37:27.079108  7187 net.cpp:425] inception_4c/relu_1x1 <- inception_4c/1x1
I0403 18:37:27.079128  7187 net.cpp:386] inception_4c/relu_1x1 -> inception_4c/1x1 (in-place)
I0403 18:37:27.079310  7187 net.cpp:141] Setting up inception_4c/relu_1x1
I0403 18:37:27.079337  7187 net.cpp:148] Top shape: 24 128 14 14 (602112)
I0403 18:37:27.079352  7187 net.cpp:156] Memory required for data: 1033209120
I0403 18:37:27.079366  7187 layer_factory.hpp:77] Creating layer inception_4c/3x3_reduce
I0403 18:37:27.079393  7187 net.cpp:91] Creating Layer inception_4c/3x3_reduce
I0403 18:37:27.079411  7187 net.cpp:425] inception_4c/3x3_reduce <- inception_4b/output_inception_4b/output_0_split_1
I0403 18:37:27.079432  7187 net.cpp:399] inception_4c/3x3_reduce -> inception_4c/3x3_reduce
I0403 18:37:27.081504  7187 net.cpp:141] Setting up inception_4c/3x3_reduce
I0403 18:37:27.081533  7187 net.cpp:148] Top shape: 24 128 14 14 (602112)
I0403 18:37:27.081549  7187 net.cpp:156] Memory required for data: 1035617568
I0403 18:37:27.081568  7187 layer_factory.hpp:77] Creating layer inception_4c/relu_3x3_reduce
I0403 18:37:27.081590  7187 net.cpp:91] Creating Layer inception_4c/relu_3x3_reduce
I0403 18:37:27.081609  7187 net.cpp:425] inception_4c/relu_3x3_reduce <- inception_4c/3x3_reduce
I0403 18:37:27.081627  7187 net.cpp:386] inception_4c/relu_3x3_reduce -> inception_4c/3x3_reduce (in-place)
I0403 18:37:27.081907  7187 net.cpp:141] Setting up inception_4c/relu_3x3_reduce
I0403 18:37:27.081934  7187 net.cpp:148] Top shape: 24 128 14 14 (602112)
I0403 18:37:27.081949  7187 net.cpp:156] Memory required for data: 1038026016
I0403 18:37:27.081964  7187 layer_factory.hpp:77] Creating layer inception_4c/3x3
I0403 18:37:27.081986  7187 net.cpp:91] Creating Layer inception_4c/3x3
I0403 18:37:27.082005  7187 net.cpp:425] inception_4c/3x3 <- inception_4c/3x3_reduce
I0403 18:37:27.082026  7187 net.cpp:399] inception_4c/3x3 -> inception_4c/3x3
I0403 18:37:27.085646  7187 net.cpp:141] Setting up inception_4c/3x3
I0403 18:37:27.085690  7187 net.cpp:148] Top shape: 24 256 14 14 (1204224)
I0403 18:37:27.085706  7187 net.cpp:156] Memory required for data: 1042842912
I0403 18:37:27.085741  7187 layer_factory.hpp:77] Creating layer inception_4c/relu_3x3
I0403 18:37:27.085763  7187 net.cpp:91] Creating Layer inception_4c/relu_3x3
I0403 18:37:27.085783  7187 net.cpp:425] inception_4c/relu_3x3 <- inception_4c/3x3
I0403 18:37:27.085803  7187 net.cpp:386] inception_4c/relu_3x3 -> inception_4c/3x3 (in-place)
I0403 18:37:27.085991  7187 net.cpp:141] Setting up inception_4c/relu_3x3
I0403 18:37:27.086020  7187 net.cpp:148] Top shape: 24 256 14 14 (1204224)
I0403 18:37:27.086038  7187 net.cpp:156] Memory required for data: 1047659808
I0403 18:37:27.086055  7187 layer_factory.hpp:77] Creating layer inception_4c/5x5_reduce
I0403 18:37:27.086079  7187 net.cpp:91] Creating Layer inception_4c/5x5_reduce
I0403 18:37:27.086097  7187 net.cpp:425] inception_4c/5x5_reduce <- inception_4b/output_inception_4b/output_0_split_2
I0403 18:37:27.086117  7187 net.cpp:399] inception_4c/5x5_reduce -> inception_4c/5x5_reduce
I0403 18:37:27.087218  7187 net.cpp:141] Setting up inception_4c/5x5_reduce
I0403 18:37:27.087250  7187 net.cpp:148] Top shape: 24 24 14 14 (112896)
I0403 18:37:27.087267  7187 net.cpp:156] Memory required for data: 1048111392
I0403 18:37:27.087287  7187 layer_factory.hpp:77] Creating layer inception_4c/relu_5x5_reduce
I0403 18:37:27.087306  7187 net.cpp:91] Creating Layer inception_4c/relu_5x5_reduce
I0403 18:37:27.087321  7187 net.cpp:425] inception_4c/relu_5x5_reduce <- inception_4c/5x5_reduce
I0403 18:37:27.087338  7187 net.cpp:386] inception_4c/relu_5x5_reduce -> inception_4c/5x5_reduce (in-place)
I0403 18:37:27.087524  7187 net.cpp:141] Setting up inception_4c/relu_5x5_reduce
I0403 18:37:27.087549  7187 net.cpp:148] Top shape: 24 24 14 14 (112896)
I0403 18:37:27.087564  7187 net.cpp:156] Memory required for data: 1048562976
I0403 18:37:27.087579  7187 layer_factory.hpp:77] Creating layer inception_4c/5x5
I0403 18:37:27.087615  7187 net.cpp:91] Creating Layer inception_4c/5x5
I0403 18:37:27.087631  7187 net.cpp:425] inception_4c/5x5 <- inception_4c/5x5_reduce
I0403 18:37:27.087653  7187 net.cpp:399] inception_4c/5x5 -> inception_4c/5x5
I0403 18:37:27.088963  7187 net.cpp:141] Setting up inception_4c/5x5
I0403 18:37:27.088992  7187 net.cpp:148] Top shape: 24 64 14 14 (301056)
I0403 18:37:27.089010  7187 net.cpp:156] Memory required for data: 1049767200
I0403 18:37:27.089030  7187 layer_factory.hpp:77] Creating layer inception_4c/relu_5x5
I0403 18:37:27.089047  7187 net.cpp:91] Creating Layer inception_4c/relu_5x5
I0403 18:37:27.089064  7187 net.cpp:425] inception_4c/relu_5x5 <- inception_4c/5x5
I0403 18:37:27.089084  7187 net.cpp:386] inception_4c/relu_5x5 -> inception_4c/5x5 (in-place)
I0403 18:37:27.089398  7187 net.cpp:141] Setting up inception_4c/relu_5x5
I0403 18:37:27.089428  7187 net.cpp:148] Top shape: 24 64 14 14 (301056)
I0403 18:37:27.089443  7187 net.cpp:156] Memory required for data: 1050971424
I0403 18:37:27.089458  7187 layer_factory.hpp:77] Creating layer inception_4c/pool
I0403 18:37:27.089476  7187 net.cpp:91] Creating Layer inception_4c/pool
I0403 18:37:27.089493  7187 net.cpp:425] inception_4c/pool <- inception_4b/output_inception_4b/output_0_split_3
I0403 18:37:27.089514  7187 net.cpp:399] inception_4c/pool -> inception_4c/pool
I0403 18:37:27.089581  7187 net.cpp:141] Setting up inception_4c/pool
I0403 18:37:27.089618  7187 net.cpp:148] Top shape: 24 512 14 14 (2408448)
I0403 18:37:27.089632  7187 net.cpp:156] Memory required for data: 1060605216
I0403 18:37:27.089648  7187 layer_factory.hpp:77] Creating layer inception_4c/pool_proj
I0403 18:37:27.089671  7187 net.cpp:91] Creating Layer inception_4c/pool_proj
I0403 18:37:27.089689  7187 net.cpp:425] inception_4c/pool_proj <- inception_4c/pool
I0403 18:37:27.089709  7187 net.cpp:399] inception_4c/pool_proj -> inception_4c/pool_proj
I0403 18:37:27.090914  7187 net.cpp:141] Setting up inception_4c/pool_proj
I0403 18:37:27.090956  7187 net.cpp:148] Top shape: 24 64 14 14 (301056)
I0403 18:37:27.090986  7187 net.cpp:156] Memory required for data: 1061809440
I0403 18:37:27.091007  7187 layer_factory.hpp:77] Creating layer inception_4c/relu_pool_proj
I0403 18:37:27.091029  7187 net.cpp:91] Creating Layer inception_4c/relu_pool_proj
I0403 18:37:27.091048  7187 net.cpp:425] inception_4c/relu_pool_proj <- inception_4c/pool_proj
I0403 18:37:27.091068  7187 net.cpp:386] inception_4c/relu_pool_proj -> inception_4c/pool_proj (in-place)
I0403 18:37:27.091249  7187 net.cpp:141] Setting up inception_4c/relu_pool_proj
I0403 18:37:27.091275  7187 net.cpp:148] Top shape: 24 64 14 14 (301056)
I0403 18:37:27.091291  7187 net.cpp:156] Memory required for data: 1063013664
I0403 18:37:27.091306  7187 layer_factory.hpp:77] Creating layer inception_4c/output
I0403 18:37:27.091325  7187 net.cpp:91] Creating Layer inception_4c/output
I0403 18:37:27.091342  7187 net.cpp:425] inception_4c/output <- inception_4c/1x1
I0403 18:37:27.091359  7187 net.cpp:425] inception_4c/output <- inception_4c/3x3
I0403 18:37:27.091375  7187 net.cpp:425] inception_4c/output <- inception_4c/5x5
I0403 18:37:27.091392  7187 net.cpp:425] inception_4c/output <- inception_4c/pool_proj
I0403 18:37:27.091415  7187 net.cpp:399] inception_4c/output -> inception_4c/output
I0403 18:37:27.091461  7187 net.cpp:141] Setting up inception_4c/output
I0403 18:37:27.091487  7187 net.cpp:148] Top shape: 24 512 14 14 (2408448)
I0403 18:37:27.091502  7187 net.cpp:156] Memory required for data: 1072647456
I0403 18:37:27.091517  7187 layer_factory.hpp:77] Creating layer inception_4c/output_inception_4c/output_0_split
I0403 18:37:27.091536  7187 net.cpp:91] Creating Layer inception_4c/output_inception_4c/output_0_split
I0403 18:37:27.091552  7187 net.cpp:425] inception_4c/output_inception_4c/output_0_split <- inception_4c/output
I0403 18:37:27.091570  7187 net.cpp:399] inception_4c/output_inception_4c/output_0_split -> inception_4c/output_inception_4c/output_0_split_0
I0403 18:37:27.091589  7187 net.cpp:399] inception_4c/output_inception_4c/output_0_split -> inception_4c/output_inception_4c/output_0_split_1
I0403 18:37:27.091611  7187 net.cpp:399] inception_4c/output_inception_4c/output_0_split -> inception_4c/output_inception_4c/output_0_split_2
I0403 18:37:27.091632  7187 net.cpp:399] inception_4c/output_inception_4c/output_0_split -> inception_4c/output_inception_4c/output_0_split_3
I0403 18:37:27.091718  7187 net.cpp:141] Setting up inception_4c/output_inception_4c/output_0_split
I0403 18:37:27.091742  7187 net.cpp:148] Top shape: 24 512 14 14 (2408448)
I0403 18:37:27.091758  7187 net.cpp:148] Top shape: 24 512 14 14 (2408448)
I0403 18:37:27.091773  7187 net.cpp:148] Top shape: 24 512 14 14 (2408448)
I0403 18:37:27.091789  7187 net.cpp:148] Top shape: 24 512 14 14 (2408448)
I0403 18:37:27.091804  7187 net.cpp:156] Memory required for data: 1111182624
I0403 18:37:27.091819  7187 layer_factory.hpp:77] Creating layer inception_4d/1x1
I0403 18:37:27.091840  7187 net.cpp:91] Creating Layer inception_4d/1x1
I0403 18:37:27.091858  7187 net.cpp:425] inception_4d/1x1 <- inception_4c/output_inception_4c/output_0_split_0
I0403 18:37:27.091879  7187 net.cpp:399] inception_4d/1x1 -> inception_4d/1x1
I0403 18:37:27.093283  7187 net.cpp:141] Setting up inception_4d/1x1
I0403 18:37:27.093314  7187 net.cpp:148] Top shape: 24 112 14 14 (526848)
I0403 18:37:27.093330  7187 net.cpp:156] Memory required for data: 1113290016
I0403 18:37:27.093349  7187 layer_factory.hpp:77] Creating layer inception_4d/relu_1x1
I0403 18:37:27.093370  7187 net.cpp:91] Creating Layer inception_4d/relu_1x1
I0403 18:37:27.093389  7187 net.cpp:425] inception_4d/relu_1x1 <- inception_4d/1x1
I0403 18:37:27.093407  7187 net.cpp:386] inception_4d/relu_1x1 -> inception_4d/1x1 (in-place)
I0403 18:37:27.093602  7187 net.cpp:141] Setting up inception_4d/relu_1x1
I0403 18:37:27.093631  7187 net.cpp:148] Top shape: 24 112 14 14 (526848)
I0403 18:37:27.093647  7187 net.cpp:156] Memory required for data: 1115397408
I0403 18:37:27.093662  7187 layer_factory.hpp:77] Creating layer inception_4d/3x3_reduce
I0403 18:37:27.093729  7187 net.cpp:91] Creating Layer inception_4d/3x3_reduce
I0403 18:37:27.093751  7187 net.cpp:425] inception_4d/3x3_reduce <- inception_4c/output_inception_4c/output_0_split_1
I0403 18:37:27.093773  7187 net.cpp:399] inception_4d/3x3_reduce -> inception_4d/3x3_reduce
I0403 18:37:27.095324  7187 net.cpp:141] Setting up inception_4d/3x3_reduce
I0403 18:37:27.095352  7187 net.cpp:148] Top shape: 24 144 14 14 (677376)
I0403 18:37:27.095369  7187 net.cpp:156] Memory required for data: 1118106912
I0403 18:37:27.095389  7187 layer_factory.hpp:77] Creating layer inception_4d/relu_3x3_reduce
I0403 18:37:27.095408  7187 net.cpp:91] Creating Layer inception_4d/relu_3x3_reduce
I0403 18:37:27.095428  7187 net.cpp:425] inception_4d/relu_3x3_reduce <- inception_4d/3x3_reduce
I0403 18:37:27.095446  7187 net.cpp:386] inception_4d/relu_3x3_reduce -> inception_4d/3x3_reduce (in-place)
I0403 18:37:27.095736  7187 net.cpp:141] Setting up inception_4d/relu_3x3_reduce
I0403 18:37:27.095760  7187 net.cpp:148] Top shape: 24 144 14 14 (677376)
I0403 18:37:27.095777  7187 net.cpp:156] Memory required for data: 1120816416
I0403 18:37:27.095791  7187 layer_factory.hpp:77] Creating layer inception_4d/3x3
I0403 18:37:27.095813  7187 net.cpp:91] Creating Layer inception_4d/3x3
I0403 18:37:27.095831  7187 net.cpp:425] inception_4d/3x3 <- inception_4d/3x3_reduce
I0403 18:37:27.095852  7187 net.cpp:399] inception_4d/3x3 -> inception_4d/3x3
I0403 18:37:27.100246  7187 net.cpp:141] Setting up inception_4d/3x3
I0403 18:37:27.100277  7187 net.cpp:148] Top shape: 24 288 14 14 (1354752)
I0403 18:37:27.100293  7187 net.cpp:156] Memory required for data: 1126235424
I0403 18:37:27.100314  7187 layer_factory.hpp:77] Creating layer inception_4d/relu_3x3
I0403 18:37:27.100334  7187 net.cpp:91] Creating Layer inception_4d/relu_3x3
I0403 18:37:27.100353  7187 net.cpp:425] inception_4d/relu_3x3 <- inception_4d/3x3
I0403 18:37:27.100370  7187 net.cpp:386] inception_4d/relu_3x3 -> inception_4d/3x3 (in-place)
I0403 18:37:27.100554  7187 net.cpp:141] Setting up inception_4d/relu_3x3
I0403 18:37:27.100582  7187 net.cpp:148] Top shape: 24 288 14 14 (1354752)
I0403 18:37:27.100599  7187 net.cpp:156] Memory required for data: 1131654432
I0403 18:37:27.100613  7187 layer_factory.hpp:77] Creating layer inception_4d/5x5_reduce
I0403 18:37:27.100636  7187 net.cpp:91] Creating Layer inception_4d/5x5_reduce
I0403 18:37:27.100654  7187 net.cpp:425] inception_4d/5x5_reduce <- inception_4c/output_inception_4c/output_0_split_2
I0403 18:37:27.100673  7187 net.cpp:399] inception_4d/5x5_reduce -> inception_4d/5x5_reduce
I0403 18:37:27.101795  7187 net.cpp:141] Setting up inception_4d/5x5_reduce
I0403 18:37:27.101833  7187 net.cpp:148] Top shape: 24 32 14 14 (150528)
I0403 18:37:27.101851  7187 net.cpp:156] Memory required for data: 1132256544
I0403 18:37:27.101871  7187 layer_factory.hpp:77] Creating layer inception_4d/relu_5x5_reduce
I0403 18:37:27.101891  7187 net.cpp:91] Creating Layer inception_4d/relu_5x5_reduce
I0403 18:37:27.101907  7187 net.cpp:425] inception_4d/relu_5x5_reduce <- inception_4d/5x5_reduce
I0403 18:37:27.101925  7187 net.cpp:386] inception_4d/relu_5x5_reduce -> inception_4d/5x5_reduce (in-place)
I0403 18:37:27.102108  7187 net.cpp:141] Setting up inception_4d/relu_5x5_reduce
I0403 18:37:27.102136  7187 net.cpp:148] Top shape: 24 32 14 14 (150528)
I0403 18:37:27.102152  7187 net.cpp:156] Memory required for data: 1132858656
I0403 18:37:27.102169  7187 layer_factory.hpp:77] Creating layer inception_4d/5x5
I0403 18:37:27.102190  7187 net.cpp:91] Creating Layer inception_4d/5x5
I0403 18:37:27.102221  7187 net.cpp:425] inception_4d/5x5 <- inception_4d/5x5_reduce
I0403 18:37:27.102244  7187 net.cpp:399] inception_4d/5x5 -> inception_4d/5x5
I0403 18:37:27.103699  7187 net.cpp:141] Setting up inception_4d/5x5
I0403 18:37:27.103730  7187 net.cpp:148] Top shape: 24 64 14 14 (301056)
I0403 18:37:27.103747  7187 net.cpp:156] Memory required for data: 1134062880
I0403 18:37:27.103766  7187 layer_factory.hpp:77] Creating layer inception_4d/relu_5x5
I0403 18:37:27.103797  7187 net.cpp:91] Creating Layer inception_4d/relu_5x5
I0403 18:37:27.103814  7187 net.cpp:425] inception_4d/relu_5x5 <- inception_4d/5x5
I0403 18:37:27.103833  7187 net.cpp:386] inception_4d/relu_5x5 -> inception_4d/5x5 (in-place)
I0403 18:37:27.104127  7187 net.cpp:141] Setting up inception_4d/relu_5x5
I0403 18:37:27.104159  7187 net.cpp:148] Top shape: 24 64 14 14 (301056)
I0403 18:37:27.104176  7187 net.cpp:156] Memory required for data: 1135267104
I0403 18:37:27.104192  7187 layer_factory.hpp:77] Creating layer inception_4d/pool
I0403 18:37:27.104218  7187 net.cpp:91] Creating Layer inception_4d/pool
I0403 18:37:27.104240  7187 net.cpp:425] inception_4d/pool <- inception_4c/output_inception_4c/output_0_split_3
I0403 18:37:27.104261  7187 net.cpp:399] inception_4d/pool -> inception_4d/pool
I0403 18:37:27.104327  7187 net.cpp:141] Setting up inception_4d/pool
I0403 18:37:27.104351  7187 net.cpp:148] Top shape: 24 512 14 14 (2408448)
I0403 18:37:27.104365  7187 net.cpp:156] Memory required for data: 1144900896
I0403 18:37:27.104380  7187 layer_factory.hpp:77] Creating layer inception_4d/pool_proj
I0403 18:37:27.104403  7187 net.cpp:91] Creating Layer inception_4d/pool_proj
I0403 18:37:27.104420  7187 net.cpp:425] inception_4d/pool_proj <- inception_4d/pool
I0403 18:37:27.104439  7187 net.cpp:399] inception_4d/pool_proj -> inception_4d/pool_proj
I0403 18:37:27.106217  7187 net.cpp:141] Setting up inception_4d/pool_proj
I0403 18:37:27.106248  7187 net.cpp:148] Top shape: 24 64 14 14 (301056)
I0403 18:37:27.106266  7187 net.cpp:156] Memory required for data: 1146105120
I0403 18:37:27.106287  7187 layer_factory.hpp:77] Creating layer inception_4d/relu_pool_proj
I0403 18:37:27.106307  7187 net.cpp:91] Creating Layer inception_4d/relu_pool_proj
I0403 18:37:27.106325  7187 net.cpp:425] inception_4d/relu_pool_proj <- inception_4d/pool_proj
I0403 18:37:27.106343  7187 net.cpp:386] inception_4d/relu_pool_proj -> inception_4d/pool_proj (in-place)
I0403 18:37:27.106546  7187 net.cpp:141] Setting up inception_4d/relu_pool_proj
I0403 18:37:27.106575  7187 net.cpp:148] Top shape: 24 64 14 14 (301056)
I0403 18:37:27.106591  7187 net.cpp:156] Memory required for data: 1147309344
I0403 18:37:27.106606  7187 layer_factory.hpp:77] Creating layer inception_4d/output
I0403 18:37:27.106624  7187 net.cpp:91] Creating Layer inception_4d/output
I0403 18:37:27.106640  7187 net.cpp:425] inception_4d/output <- inception_4d/1x1
I0403 18:37:27.106657  7187 net.cpp:425] inception_4d/output <- inception_4d/3x3
I0403 18:37:27.106673  7187 net.cpp:425] inception_4d/output <- inception_4d/5x5
I0403 18:37:27.106689  7187 net.cpp:425] inception_4d/output <- inception_4d/pool_proj
I0403 18:37:27.106717  7187 net.cpp:399] inception_4d/output -> inception_4d/output
I0403 18:37:27.106770  7187 net.cpp:141] Setting up inception_4d/output
I0403 18:37:27.106794  7187 net.cpp:148] Top shape: 24 528 14 14 (2483712)
I0403 18:37:27.106808  7187 net.cpp:156] Memory required for data: 1157244192
I0403 18:37:27.106822  7187 layer_factory.hpp:77] Creating layer inception_4d/output_inception_4d/output_0_split
I0403 18:37:27.106843  7187 net.cpp:91] Creating Layer inception_4d/output_inception_4d/output_0_split
I0403 18:37:27.106859  7187 net.cpp:425] inception_4d/output_inception_4d/output_0_split <- inception_4d/output
I0403 18:37:27.106878  7187 net.cpp:399] inception_4d/output_inception_4d/output_0_split -> inception_4d/output_inception_4d/output_0_split_0
I0403 18:37:27.106899  7187 net.cpp:399] inception_4d/output_inception_4d/output_0_split -> inception_4d/output_inception_4d/output_0_split_1
I0403 18:37:27.106922  7187 net.cpp:399] inception_4d/output_inception_4d/output_0_split -> inception_4d/output_inception_4d/output_0_split_2
I0403 18:37:27.106945  7187 net.cpp:399] inception_4d/output_inception_4d/output_0_split -> inception_4d/output_inception_4d/output_0_split_3
I0403 18:37:27.106964  7187 net.cpp:399] inception_4d/output_inception_4d/output_0_split -> inception_4d/output_inception_4d/output_0_split_4
I0403 18:37:27.107064  7187 net.cpp:141] Setting up inception_4d/output_inception_4d/output_0_split
I0403 18:37:27.107100  7187 net.cpp:148] Top shape: 24 528 14 14 (2483712)
I0403 18:37:27.107118  7187 net.cpp:148] Top shape: 24 528 14 14 (2483712)
I0403 18:37:27.107133  7187 net.cpp:148] Top shape: 24 528 14 14 (2483712)
I0403 18:37:27.107149  7187 net.cpp:148] Top shape: 24 528 14 14 (2483712)
I0403 18:37:27.107166  7187 net.cpp:148] Top shape: 24 528 14 14 (2483712)
I0403 18:37:27.107178  7187 net.cpp:156] Memory required for data: 1206918432
I0403 18:37:27.107193  7187 layer_factory.hpp:77] Creating layer loss2/ave_pool
I0403 18:37:27.107216  7187 net.cpp:91] Creating Layer loss2/ave_pool
I0403 18:37:27.107234  7187 net.cpp:425] loss2/ave_pool <- inception_4d/output_inception_4d/output_0_split_0
I0403 18:37:27.107255  7187 net.cpp:399] loss2/ave_pool -> loss2/ave_pool
I0403 18:37:27.107597  7187 net.cpp:141] Setting up loss2/ave_pool
I0403 18:37:27.107625  7187 net.cpp:148] Top shape: 24 528 4 4 (202752)
I0403 18:37:27.107640  7187 net.cpp:156] Memory required for data: 1207729440
I0403 18:37:27.107656  7187 layer_factory.hpp:77] Creating layer loss2/conv
I0403 18:37:27.107677  7187 net.cpp:91] Creating Layer loss2/conv
I0403 18:37:27.107695  7187 net.cpp:425] loss2/conv <- loss2/ave_pool
I0403 18:37:27.107717  7187 net.cpp:399] loss2/conv -> loss2/conv
I0403 18:37:27.109714  7187 net.cpp:141] Setting up loss2/conv
I0403 18:37:27.109747  7187 net.cpp:148] Top shape: 24 128 4 4 (49152)
I0403 18:37:27.109765  7187 net.cpp:156] Memory required for data: 1207926048
I0403 18:37:27.109784  7187 layer_factory.hpp:77] Creating layer loss2/relu_conv
I0403 18:37:27.109803  7187 net.cpp:91] Creating Layer loss2/relu_conv
I0403 18:37:27.109819  7187 net.cpp:425] loss2/relu_conv <- loss2/conv
I0403 18:37:27.109839  7187 net.cpp:386] loss2/relu_conv -> loss2/conv (in-place)
I0403 18:37:27.110148  7187 net.cpp:141] Setting up loss2/relu_conv
I0403 18:37:27.110178  7187 net.cpp:148] Top shape: 24 128 4 4 (49152)
I0403 18:37:27.110195  7187 net.cpp:156] Memory required for data: 1208122656
I0403 18:37:27.110216  7187 layer_factory.hpp:77] Creating layer loss2/fc
I0403 18:37:27.110237  7187 net.cpp:91] Creating Layer loss2/fc
I0403 18:37:27.110255  7187 net.cpp:425] loss2/fc <- loss2/conv
I0403 18:37:27.110276  7187 net.cpp:399] loss2/fc -> loss2/fc
I0403 18:37:27.128537  7187 net.cpp:141] Setting up loss2/fc
I0403 18:37:27.128610  7187 net.cpp:148] Top shape: 24 1024 (24576)
I0403 18:37:27.128628  7187 net.cpp:156] Memory required for data: 1208220960
I0403 18:37:27.128649  7187 layer_factory.hpp:77] Creating layer loss2/relu_fc
I0403 18:37:27.128674  7187 net.cpp:91] Creating Layer loss2/relu_fc
I0403 18:37:27.128692  7187 net.cpp:425] loss2/relu_fc <- loss2/fc
I0403 18:37:27.128725  7187 net.cpp:386] loss2/relu_fc -> loss2/fc (in-place)
I0403 18:37:27.129077  7187 net.cpp:141] Setting up loss2/relu_fc
I0403 18:37:27.129106  7187 net.cpp:148] Top shape: 24 1024 (24576)
I0403 18:37:27.129122  7187 net.cpp:156] Memory required for data: 1208319264
I0403 18:37:27.129139  7187 layer_factory.hpp:77] Creating layer loss2/drop_fc
I0403 18:37:27.129173  7187 net.cpp:91] Creating Layer loss2/drop_fc
I0403 18:37:27.129190  7187 net.cpp:425] loss2/drop_fc <- loss2/fc
I0403 18:37:27.129214  7187 net.cpp:386] loss2/drop_fc -> loss2/fc (in-place)
I0403 18:37:27.129271  7187 net.cpp:141] Setting up loss2/drop_fc
I0403 18:37:27.129297  7187 net.cpp:148] Top shape: 24 1024 (24576)
I0403 18:37:27.129313  7187 net.cpp:156] Memory required for data: 1208417568
I0403 18:37:27.129329  7187 layer_factory.hpp:77] Creating layer loss2/classifier_plantvillage
I0403 18:37:27.129349  7187 net.cpp:91] Creating Layer loss2/classifier_plantvillage
I0403 18:37:27.129366  7187 net.cpp:425] loss2/classifier_plantvillage <- loss2/fc
I0403 18:37:27.129390  7187 net.cpp:399] loss2/classifier_plantvillage -> loss2/classifier_plantvillage
I0403 18:37:27.129822  7187 net.cpp:141] Setting up loss2/classifier_plantvillage
I0403 18:37:27.129848  7187 net.cpp:148] Top shape: 24 38 (912)
I0403 18:37:27.129887  7187 net.cpp:156] Memory required for data: 1208421216
I0403 18:37:27.129907  7187 layer_factory.hpp:77] Creating layer loss2/classifier_plantvillage_loss2/classifier_plantvillage_0_split
I0403 18:37:27.129926  7187 net.cpp:91] Creating Layer loss2/classifier_plantvillage_loss2/classifier_plantvillage_0_split
I0403 18:37:27.129942  7187 net.cpp:425] loss2/classifier_plantvillage_loss2/classifier_plantvillage_0_split <- loss2/classifier_plantvillage
I0403 18:37:27.129963  7187 net.cpp:399] loss2/classifier_plantvillage_loss2/classifier_plantvillage_0_split -> loss2/classifier_plantvillage_loss2/classifier_plantvillage_0_split_0
I0403 18:37:27.129984  7187 net.cpp:399] loss2/classifier_plantvillage_loss2/classifier_plantvillage_0_split -> loss2/classifier_plantvillage_loss2/classifier_plantvillage_0_split_1
I0403 18:37:27.130005  7187 net.cpp:399] loss2/classifier_plantvillage_loss2/classifier_plantvillage_0_split -> loss2/classifier_plantvillage_loss2/classifier_plantvillage_0_split_2
I0403 18:37:27.130089  7187 net.cpp:141] Setting up loss2/classifier_plantvillage_loss2/classifier_plantvillage_0_split
I0403 18:37:27.130115  7187 net.cpp:148] Top shape: 24 38 (912)
I0403 18:37:27.130132  7187 net.cpp:148] Top shape: 24 38 (912)
I0403 18:37:27.130148  7187 net.cpp:148] Top shape: 24 38 (912)
I0403 18:37:27.130162  7187 net.cpp:156] Memory required for data: 1208432160
I0403 18:37:27.130177  7187 layer_factory.hpp:77] Creating layer inception_4e/1x1
I0403 18:37:27.130199  7187 net.cpp:91] Creating Layer inception_4e/1x1
I0403 18:37:27.130221  7187 net.cpp:425] inception_4e/1x1 <- inception_4d/output_inception_4d/output_0_split_1
I0403 18:37:27.130244  7187 net.cpp:399] inception_4e/1x1 -> inception_4e/1x1
I0403 18:37:27.132104  7187 net.cpp:141] Setting up inception_4e/1x1
I0403 18:37:27.132134  7187 net.cpp:148] Top shape: 24 256 14 14 (1204224)
I0403 18:37:27.132150  7187 net.cpp:156] Memory required for data: 1213249056
I0403 18:37:27.132170  7187 layer_factory.hpp:77] Creating layer inception_4e/relu_1x1
I0403 18:37:27.132189  7187 net.cpp:91] Creating Layer inception_4e/relu_1x1
I0403 18:37:27.132206  7187 net.cpp:425] inception_4e/relu_1x1 <- inception_4e/1x1
I0403 18:37:27.132239  7187 net.cpp:386] inception_4e/relu_1x1 -> inception_4e/1x1 (in-place)
I0403 18:37:27.132558  7187 net.cpp:141] Setting up inception_4e/relu_1x1
I0403 18:37:27.132601  7187 net.cpp:148] Top shape: 24 256 14 14 (1204224)
I0403 18:37:27.132617  7187 net.cpp:156] Memory required for data: 1218065952
I0403 18:37:27.132634  7187 layer_factory.hpp:77] Creating layer inception_4e/3x3_reduce
I0403 18:37:27.132670  7187 net.cpp:91] Creating Layer inception_4e/3x3_reduce
I0403 18:37:27.132691  7187 net.cpp:425] inception_4e/3x3_reduce <- inception_4d/output_inception_4d/output_0_split_2
I0403 18:37:27.132714  7187 net.cpp:399] inception_4e/3x3_reduce -> inception_4e/3x3_reduce
I0403 18:37:27.134934  7187 net.cpp:141] Setting up inception_4e/3x3_reduce
I0403 18:37:27.134968  7187 net.cpp:148] Top shape: 24 160 14 14 (752640)
I0403 18:37:27.134986  7187 net.cpp:156] Memory required for data: 1221076512
I0403 18:37:27.135006  7187 layer_factory.hpp:77] Creating layer inception_4e/relu_3x3_reduce
I0403 18:37:27.135026  7187 net.cpp:91] Creating Layer inception_4e/relu_3x3_reduce
I0403 18:37:27.135046  7187 net.cpp:425] inception_4e/relu_3x3_reduce <- inception_4e/3x3_reduce
I0403 18:37:27.135066  7187 net.cpp:386] inception_4e/relu_3x3_reduce -> inception_4e/3x3_reduce (in-place)
I0403 18:37:27.135273  7187 net.cpp:141] Setting up inception_4e/relu_3x3_reduce
I0403 18:37:27.135301  7187 net.cpp:148] Top shape: 24 160 14 14 (752640)
I0403 18:37:27.135318  7187 net.cpp:156] Memory required for data: 1224087072
I0403 18:37:27.135332  7187 layer_factory.hpp:77] Creating layer inception_4e/3x3
I0403 18:37:27.135354  7187 net.cpp:91] Creating Layer inception_4e/3x3
I0403 18:37:27.135373  7187 net.cpp:425] inception_4e/3x3 <- inception_4e/3x3_reduce
I0403 18:37:27.135396  7187 net.cpp:399] inception_4e/3x3 -> inception_4e/3x3
I0403 18:37:27.140482  7187 net.cpp:141] Setting up inception_4e/3x3
I0403 18:37:27.140527  7187 net.cpp:148] Top shape: 24 320 14 14 (1505280)
I0403 18:37:27.140544  7187 net.cpp:156] Memory required for data: 1230108192
I0403 18:37:27.140565  7187 layer_factory.hpp:77] Creating layer inception_4e/relu_3x3
I0403 18:37:27.140583  7187 net.cpp:91] Creating Layer inception_4e/relu_3x3
I0403 18:37:27.140600  7187 net.cpp:425] inception_4e/relu_3x3 <- inception_4e/3x3
I0403 18:37:27.140620  7187 net.cpp:386] inception_4e/relu_3x3 -> inception_4e/3x3 (in-place)
I0403 18:37:27.140923  7187 net.cpp:141] Setting up inception_4e/relu_3x3
I0403 18:37:27.140951  7187 net.cpp:148] Top shape: 24 320 14 14 (1505280)
I0403 18:37:27.140972  7187 net.cpp:156] Memory required for data: 1236129312
I0403 18:37:27.140990  7187 layer_factory.hpp:77] Creating layer inception_4e/5x5_reduce
I0403 18:37:27.141016  7187 net.cpp:91] Creating Layer inception_4e/5x5_reduce
I0403 18:37:27.141036  7187 net.cpp:425] inception_4e/5x5_reduce <- inception_4d/output_inception_4d/output_0_split_3
I0403 18:37:27.141057  7187 net.cpp:399] inception_4e/5x5_reduce -> inception_4e/5x5_reduce
I0403 18:37:27.142143  7187 net.cpp:141] Setting up inception_4e/5x5_reduce
I0403 18:37:27.142175  7187 net.cpp:148] Top shape: 24 32 14 14 (150528)
I0403 18:37:27.142194  7187 net.cpp:156] Memory required for data: 1236731424
I0403 18:37:27.142225  7187 layer_factory.hpp:77] Creating layer inception_4e/relu_5x5_reduce
I0403 18:37:27.142247  7187 net.cpp:91] Creating Layer inception_4e/relu_5x5_reduce
I0403 18:37:27.142264  7187 net.cpp:425] inception_4e/relu_5x5_reduce <- inception_4e/5x5_reduce
I0403 18:37:27.142284  7187 net.cpp:386] inception_4e/relu_5x5_reduce -> inception_4e/5x5_reduce (in-place)
I0403 18:37:27.142583  7187 net.cpp:141] Setting up inception_4e/relu_5x5_reduce
I0403 18:37:27.142614  7187 net.cpp:148] Top shape: 24 32 14 14 (150528)
I0403 18:37:27.142632  7187 net.cpp:156] Memory required for data: 1237333536
I0403 18:37:27.142649  7187 layer_factory.hpp:77] Creating layer inception_4e/5x5
I0403 18:37:27.142690  7187 net.cpp:91] Creating Layer inception_4e/5x5
I0403 18:37:27.142712  7187 net.cpp:425] inception_4e/5x5 <- inception_4e/5x5_reduce
I0403 18:37:27.142732  7187 net.cpp:399] inception_4e/5x5 -> inception_4e/5x5
I0403 18:37:27.144757  7187 net.cpp:141] Setting up inception_4e/5x5
I0403 18:37:27.144788  7187 net.cpp:148] Top shape: 24 128 14 14 (602112)
I0403 18:37:27.144809  7187 net.cpp:156] Memory required for data: 1239741984
I0403 18:37:27.144829  7187 layer_factory.hpp:77] Creating layer inception_4e/relu_5x5
I0403 18:37:27.144848  7187 net.cpp:91] Creating Layer inception_4e/relu_5x5
I0403 18:37:27.144866  7187 net.cpp:425] inception_4e/relu_5x5 <- inception_4e/5x5
I0403 18:37:27.144883  7187 net.cpp:386] inception_4e/relu_5x5 -> inception_4e/5x5 (in-place)
I0403 18:37:27.145083  7187 net.cpp:141] Setting up inception_4e/relu_5x5
I0403 18:37:27.145114  7187 net.cpp:148] Top shape: 24 128 14 14 (602112)
I0403 18:37:27.145133  7187 net.cpp:156] Memory required for data: 1242150432
I0403 18:37:27.145148  7187 layer_factory.hpp:77] Creating layer inception_4e/pool
I0403 18:37:27.145167  7187 net.cpp:91] Creating Layer inception_4e/pool
I0403 18:37:27.145184  7187 net.cpp:425] inception_4e/pool <- inception_4d/output_inception_4d/output_0_split_4
I0403 18:37:27.145205  7187 net.cpp:399] inception_4e/pool -> inception_4e/pool
I0403 18:37:27.145285  7187 net.cpp:141] Setting up inception_4e/pool
I0403 18:37:27.145314  7187 net.cpp:148] Top shape: 24 528 14 14 (2483712)
I0403 18:37:27.145331  7187 net.cpp:156] Memory required for data: 1252085280
I0403 18:37:27.145349  7187 layer_factory.hpp:77] Creating layer inception_4e/pool_proj
I0403 18:37:27.145370  7187 net.cpp:91] Creating Layer inception_4e/pool_proj
I0403 18:37:27.145387  7187 net.cpp:425] inception_4e/pool_proj <- inception_4e/pool
I0403 18:37:27.145408  7187 net.cpp:399] inception_4e/pool_proj -> inception_4e/pool_proj
I0403 18:37:27.146919  7187 net.cpp:141] Setting up inception_4e/pool_proj
I0403 18:37:27.146960  7187 net.cpp:148] Top shape: 24 128 14 14 (602112)
I0403 18:37:27.146978  7187 net.cpp:156] Memory required for data: 1254493728
I0403 18:37:27.146998  7187 layer_factory.hpp:77] Creating layer inception_4e/relu_pool_proj
I0403 18:37:27.147020  7187 net.cpp:91] Creating Layer inception_4e/relu_pool_proj
I0403 18:37:27.147037  7187 net.cpp:425] inception_4e/relu_pool_proj <- inception_4e/pool_proj
I0403 18:37:27.147054  7187 net.cpp:386] inception_4e/relu_pool_proj -> inception_4e/pool_proj (in-place)
I0403 18:37:27.147354  7187 net.cpp:141] Setting up inception_4e/relu_pool_proj
I0403 18:37:27.147382  7187 net.cpp:148] Top shape: 24 128 14 14 (602112)
I0403 18:37:27.147398  7187 net.cpp:156] Memory required for data: 1256902176
I0403 18:37:27.147415  7187 layer_factory.hpp:77] Creating layer inception_4e/output
I0403 18:37:27.147438  7187 net.cpp:91] Creating Layer inception_4e/output
I0403 18:37:27.147454  7187 net.cpp:425] inception_4e/output <- inception_4e/1x1
I0403 18:37:27.147471  7187 net.cpp:425] inception_4e/output <- inception_4e/3x3
I0403 18:37:27.147488  7187 net.cpp:425] inception_4e/output <- inception_4e/5x5
I0403 18:37:27.147505  7187 net.cpp:425] inception_4e/output <- inception_4e/pool_proj
I0403 18:37:27.147522  7187 net.cpp:399] inception_4e/output -> inception_4e/output
I0403 18:37:27.147574  7187 net.cpp:141] Setting up inception_4e/output
I0403 18:37:27.147598  7187 net.cpp:148] Top shape: 24 832 14 14 (3913728)
I0403 18:37:27.147614  7187 net.cpp:156] Memory required for data: 1272557088
I0403 18:37:27.147627  7187 layer_factory.hpp:77] Creating layer pool4/3x3_s2
I0403 18:37:27.147645  7187 net.cpp:91] Creating Layer pool4/3x3_s2
I0403 18:37:27.147661  7187 net.cpp:425] pool4/3x3_s2 <- inception_4e/output
I0403 18:37:27.147683  7187 net.cpp:399] pool4/3x3_s2 -> pool4/3x3_s2
I0403 18:37:27.147750  7187 net.cpp:141] Setting up pool4/3x3_s2
I0403 18:37:27.147778  7187 net.cpp:148] Top shape: 24 832 7 7 (978432)
I0403 18:37:27.147794  7187 net.cpp:156] Memory required for data: 1276470816
I0403 18:37:27.147809  7187 layer_factory.hpp:77] Creating layer pool4/3x3_s2_pool4/3x3_s2_0_split
I0403 18:37:27.147826  7187 net.cpp:91] Creating Layer pool4/3x3_s2_pool4/3x3_s2_0_split
I0403 18:37:27.147842  7187 net.cpp:425] pool4/3x3_s2_pool4/3x3_s2_0_split <- pool4/3x3_s2
I0403 18:37:27.147861  7187 net.cpp:399] pool4/3x3_s2_pool4/3x3_s2_0_split -> pool4/3x3_s2_pool4/3x3_s2_0_split_0
I0403 18:37:27.147883  7187 net.cpp:399] pool4/3x3_s2_pool4/3x3_s2_0_split -> pool4/3x3_s2_pool4/3x3_s2_0_split_1
I0403 18:37:27.147904  7187 net.cpp:399] pool4/3x3_s2_pool4/3x3_s2_0_split -> pool4/3x3_s2_pool4/3x3_s2_0_split_2
I0403 18:37:27.147925  7187 net.cpp:399] pool4/3x3_s2_pool4/3x3_s2_0_split -> pool4/3x3_s2_pool4/3x3_s2_0_split_3
I0403 18:37:27.148030  7187 net.cpp:141] Setting up pool4/3x3_s2_pool4/3x3_s2_0_split
I0403 18:37:27.148053  7187 net.cpp:148] Top shape: 24 832 7 7 (978432)
I0403 18:37:27.148069  7187 net.cpp:148] Top shape: 24 832 7 7 (978432)
I0403 18:37:27.148084  7187 net.cpp:148] Top shape: 24 832 7 7 (978432)
I0403 18:37:27.148098  7187 net.cpp:148] Top shape: 24 832 7 7 (978432)
I0403 18:37:27.148113  7187 net.cpp:156] Memory required for data: 1292125728
I0403 18:37:27.148126  7187 layer_factory.hpp:77] Creating layer inception_5a/1x1
I0403 18:37:27.148150  7187 net.cpp:91] Creating Layer inception_5a/1x1
I0403 18:37:27.148169  7187 net.cpp:425] inception_5a/1x1 <- pool4/3x3_s2_pool4/3x3_s2_0_split_0
I0403 18:37:27.148187  7187 net.cpp:399] inception_5a/1x1 -> inception_5a/1x1
I0403 18:37:27.150996  7187 net.cpp:141] Setting up inception_5a/1x1
I0403 18:37:27.151028  7187 net.cpp:148] Top shape: 24 256 7 7 (301056)
I0403 18:37:27.151044  7187 net.cpp:156] Memory required for data: 1293329952
I0403 18:37:27.151065  7187 layer_factory.hpp:77] Creating layer inception_5a/relu_1x1
I0403 18:37:27.151083  7187 net.cpp:91] Creating Layer inception_5a/relu_1x1
I0403 18:37:27.151101  7187 net.cpp:425] inception_5a/relu_1x1 <- inception_5a/1x1
I0403 18:37:27.151119  7187 net.cpp:386] inception_5a/relu_1x1 -> inception_5a/1x1 (in-place)
I0403 18:37:27.151438  7187 net.cpp:141] Setting up inception_5a/relu_1x1
I0403 18:37:27.151468  7187 net.cpp:148] Top shape: 24 256 7 7 (301056)
I0403 18:37:27.151484  7187 net.cpp:156] Memory required for data: 1294534176
I0403 18:37:27.151499  7187 layer_factory.hpp:77] Creating layer inception_5a/3x3_reduce
I0403 18:37:27.151520  7187 net.cpp:91] Creating Layer inception_5a/3x3_reduce
I0403 18:37:27.151537  7187 net.cpp:425] inception_5a/3x3_reduce <- pool4/3x3_s2_pool4/3x3_s2_0_split_1
I0403 18:37:27.151556  7187 net.cpp:399] inception_5a/3x3_reduce -> inception_5a/3x3_reduce
I0403 18:37:27.154034  7187 net.cpp:141] Setting up inception_5a/3x3_reduce
I0403 18:37:27.154064  7187 net.cpp:148] Top shape: 24 160 7 7 (188160)
I0403 18:37:27.154080  7187 net.cpp:156] Memory required for data: 1295286816
I0403 18:37:27.154100  7187 layer_factory.hpp:77] Creating layer inception_5a/relu_3x3_reduce
I0403 18:37:27.154119  7187 net.cpp:91] Creating Layer inception_5a/relu_3x3_reduce
I0403 18:37:27.154135  7187 net.cpp:425] inception_5a/relu_3x3_reduce <- inception_5a/3x3_reduce
I0403 18:37:27.154152  7187 net.cpp:386] inception_5a/relu_3x3_reduce -> inception_5a/3x3_reduce (in-place)
I0403 18:37:27.154345  7187 net.cpp:141] Setting up inception_5a/relu_3x3_reduce
I0403 18:37:27.154371  7187 net.cpp:148] Top shape: 24 160 7 7 (188160)
I0403 18:37:27.154386  7187 net.cpp:156] Memory required for data: 1296039456
I0403 18:37:27.154400  7187 layer_factory.hpp:77] Creating layer inception_5a/3x3
I0403 18:37:27.154424  7187 net.cpp:91] Creating Layer inception_5a/3x3
I0403 18:37:27.154443  7187 net.cpp:425] inception_5a/3x3 <- inception_5a/3x3_reduce
I0403 18:37:27.154460  7187 net.cpp:399] inception_5a/3x3 -> inception_5a/3x3
I0403 18:37:27.159535  7187 net.cpp:141] Setting up inception_5a/3x3
I0403 18:37:27.159569  7187 net.cpp:148] Top shape: 24 320 7 7 (376320)
I0403 18:37:27.159586  7187 net.cpp:156] Memory required for data: 1297544736
I0403 18:37:27.159605  7187 layer_factory.hpp:77] Creating layer inception_5a/relu_3x3
I0403 18:37:27.159622  7187 net.cpp:91] Creating Layer inception_5a/relu_3x3
I0403 18:37:27.159638  7187 net.cpp:425] inception_5a/relu_3x3 <- inception_5a/3x3
I0403 18:37:27.159656  7187 net.cpp:386] inception_5a/relu_3x3 -> inception_5a/3x3 (in-place)
I0403 18:37:27.159945  7187 net.cpp:141] Setting up inception_5a/relu_3x3
I0403 18:37:27.159972  7187 net.cpp:148] Top shape: 24 320 7 7 (376320)
I0403 18:37:27.159988  7187 net.cpp:156] Memory required for data: 1299050016
I0403 18:37:27.160003  7187 layer_factory.hpp:77] Creating layer inception_5a/5x5_reduce
I0403 18:37:27.160025  7187 net.cpp:91] Creating Layer inception_5a/5x5_reduce
I0403 18:37:27.160043  7187 net.cpp:425] inception_5a/5x5_reduce <- pool4/3x3_s2_pool4/3x3_s2_0_split_2
I0403 18:37:27.160063  7187 net.cpp:399] inception_5a/5x5_reduce -> inception_5a/5x5_reduce
I0403 18:37:27.161245  7187 net.cpp:141] Setting up inception_5a/5x5_reduce
I0403 18:37:27.161278  7187 net.cpp:148] Top shape: 24 32 7 7 (37632)
I0403 18:37:27.161296  7187 net.cpp:156] Memory required for data: 1299200544
I0403 18:37:27.161315  7187 layer_factory.hpp:77] Creating layer inception_5a/relu_5x5_reduce
I0403 18:37:27.161334  7187 net.cpp:91] Creating Layer inception_5a/relu_5x5_reduce
I0403 18:37:27.161350  7187 net.cpp:425] inception_5a/relu_5x5_reduce <- inception_5a/5x5_reduce
I0403 18:37:27.161371  7187 net.cpp:386] inception_5a/relu_5x5_reduce -> inception_5a/5x5_reduce (in-place)
I0403 18:37:27.161660  7187 net.cpp:141] Setting up inception_5a/relu_5x5_reduce
I0403 18:37:27.161690  7187 net.cpp:148] Top shape: 24 32 7 7 (37632)
I0403 18:37:27.161706  7187 net.cpp:156] Memory required for data: 1299351072
I0403 18:37:27.161721  7187 layer_factory.hpp:77] Creating layer inception_5a/5x5
I0403 18:37:27.161743  7187 net.cpp:91] Creating Layer inception_5a/5x5
I0403 18:37:27.161761  7187 net.cpp:425] inception_5a/5x5 <- inception_5a/5x5_reduce
I0403 18:37:27.161779  7187 net.cpp:399] inception_5a/5x5 -> inception_5a/5x5
I0403 18:37:27.163496  7187 net.cpp:141] Setting up inception_5a/5x5
I0403 18:37:27.163537  7187 net.cpp:148] Top shape: 24 128 7 7 (150528)
I0403 18:37:27.163557  7187 net.cpp:156] Memory required for data: 1299953184
I0403 18:37:27.163574  7187 layer_factory.hpp:77] Creating layer inception_5a/relu_5x5
I0403 18:37:27.163594  7187 net.cpp:91] Creating Layer inception_5a/relu_5x5
I0403 18:37:27.163609  7187 net.cpp:425] inception_5a/relu_5x5 <- inception_5a/5x5
I0403 18:37:27.163625  7187 net.cpp:386] inception_5a/relu_5x5 -> inception_5a/5x5 (in-place)
I0403 18:37:27.163838  7187 net.cpp:141] Setting up inception_5a/relu_5x5
I0403 18:37:27.163866  7187 net.cpp:148] Top shape: 24 128 7 7 (150528)
I0403 18:37:27.163882  7187 net.cpp:156] Memory required for data: 1300555296
I0403 18:37:27.163895  7187 layer_factory.hpp:77] Creating layer inception_5a/pool
I0403 18:37:27.163914  7187 net.cpp:91] Creating Layer inception_5a/pool
I0403 18:37:27.163929  7187 net.cpp:425] inception_5a/pool <- pool4/3x3_s2_pool4/3x3_s2_0_split_3
I0403 18:37:27.163949  7187 net.cpp:399] inception_5a/pool -> inception_5a/pool
I0403 18:37:27.164018  7187 net.cpp:141] Setting up inception_5a/pool
I0403 18:37:27.164043  7187 net.cpp:148] Top shape: 24 832 7 7 (978432)
I0403 18:37:27.164058  7187 net.cpp:156] Memory required for data: 1304469024
I0403 18:37:27.164073  7187 layer_factory.hpp:77] Creating layer inception_5a/pool_proj
I0403 18:37:27.164094  7187 net.cpp:91] Creating Layer inception_5a/pool_proj
I0403 18:37:27.164113  7187 net.cpp:425] inception_5a/pool_proj <- inception_5a/pool
I0403 18:37:27.164129  7187 net.cpp:399] inception_5a/pool_proj -> inception_5a/pool_proj
I0403 18:37:27.166399  7187 net.cpp:141] Setting up inception_5a/pool_proj
I0403 18:37:27.166429  7187 net.cpp:148] Top shape: 24 128 7 7 (150528)
I0403 18:37:27.166445  7187 net.cpp:156] Memory required for data: 1305071136
I0403 18:37:27.166465  7187 layer_factory.hpp:77] Creating layer inception_5a/relu_pool_proj
I0403 18:37:27.166486  7187 net.cpp:91] Creating Layer inception_5a/relu_pool_proj
I0403 18:37:27.166503  7187 net.cpp:425] inception_5a/relu_pool_proj <- inception_5a/pool_proj
I0403 18:37:27.166522  7187 net.cpp:386] inception_5a/relu_pool_proj -> inception_5a/pool_proj (in-place)
I0403 18:37:27.166820  7187 net.cpp:141] Setting up inception_5a/relu_pool_proj
I0403 18:37:27.166846  7187 net.cpp:148] Top shape: 24 128 7 7 (150528)
I0403 18:37:27.166862  7187 net.cpp:156] Memory required for data: 1305673248
I0403 18:37:27.166877  7187 layer_factory.hpp:77] Creating layer inception_5a/output
I0403 18:37:27.166896  7187 net.cpp:91] Creating Layer inception_5a/output
I0403 18:37:27.166911  7187 net.cpp:425] inception_5a/output <- inception_5a/1x1
I0403 18:37:27.166928  7187 net.cpp:425] inception_5a/output <- inception_5a/3x3
I0403 18:37:27.166944  7187 net.cpp:425] inception_5a/output <- inception_5a/5x5
I0403 18:37:27.166959  7187 net.cpp:425] inception_5a/output <- inception_5a/pool_proj
I0403 18:37:27.166975  7187 net.cpp:399] inception_5a/output -> inception_5a/output
I0403 18:37:27.167026  7187 net.cpp:141] Setting up inception_5a/output
I0403 18:37:27.167048  7187 net.cpp:148] Top shape: 24 832 7 7 (978432)
I0403 18:37:27.167062  7187 net.cpp:156] Memory required for data: 1309586976
I0403 18:37:27.167078  7187 layer_factory.hpp:77] Creating layer inception_5a/output_inception_5a/output_0_split
I0403 18:37:27.167094  7187 net.cpp:91] Creating Layer inception_5a/output_inception_5a/output_0_split
I0403 18:37:27.167109  7187 net.cpp:425] inception_5a/output_inception_5a/output_0_split <- inception_5a/output
I0403 18:37:27.167129  7187 net.cpp:399] inception_5a/output_inception_5a/output_0_split -> inception_5a/output_inception_5a/output_0_split_0
I0403 18:37:27.167148  7187 net.cpp:399] inception_5a/output_inception_5a/output_0_split -> inception_5a/output_inception_5a/output_0_split_1
I0403 18:37:27.167168  7187 net.cpp:399] inception_5a/output_inception_5a/output_0_split -> inception_5a/output_inception_5a/output_0_split_2
I0403 18:37:27.167188  7187 net.cpp:399] inception_5a/output_inception_5a/output_0_split -> inception_5a/output_inception_5a/output_0_split_3
I0403 18:37:27.167307  7187 net.cpp:141] Setting up inception_5a/output_inception_5a/output_0_split
I0403 18:37:27.167333  7187 net.cpp:148] Top shape: 24 832 7 7 (978432)
I0403 18:37:27.167351  7187 net.cpp:148] Top shape: 24 832 7 7 (978432)
I0403 18:37:27.167366  7187 net.cpp:148] Top shape: 24 832 7 7 (978432)
I0403 18:37:27.167381  7187 net.cpp:148] Top shape: 24 832 7 7 (978432)
I0403 18:37:27.167394  7187 net.cpp:156] Memory required for data: 1325241888
I0403 18:37:27.167408  7187 layer_factory.hpp:77] Creating layer inception_5b/1x1
I0403 18:37:27.167430  7187 net.cpp:91] Creating Layer inception_5b/1x1
I0403 18:37:27.167448  7187 net.cpp:425] inception_5b/1x1 <- inception_5a/output_inception_5a/output_0_split_0
I0403 18:37:27.167465  7187 net.cpp:399] inception_5b/1x1 -> inception_5b/1x1
I0403 18:37:27.171141  7187 net.cpp:141] Setting up inception_5b/1x1
I0403 18:37:27.171185  7187 net.cpp:148] Top shape: 24 384 7 7 (451584)
I0403 18:37:27.171202  7187 net.cpp:156] Memory required for data: 1327048224
I0403 18:37:27.171226  7187 layer_factory.hpp:77] Creating layer inception_5b/relu_1x1
I0403 18:37:27.171248  7187 net.cpp:91] Creating Layer inception_5b/relu_1x1
I0403 18:37:27.171265  7187 net.cpp:425] inception_5b/relu_1x1 <- inception_5b/1x1
I0403 18:37:27.171283  7187 net.cpp:386] inception_5b/relu_1x1 -> inception_5b/1x1 (in-place)
I0403 18:37:27.171604  7187 net.cpp:141] Setting up inception_5b/relu_1x1
I0403 18:37:27.171633  7187 net.cpp:148] Top shape: 24 384 7 7 (451584)
I0403 18:37:27.171648  7187 net.cpp:156] Memory required for data: 1328854560
I0403 18:37:27.171663  7187 layer_factory.hpp:77] Creating layer inception_5b/3x3_reduce
I0403 18:37:27.171687  7187 net.cpp:91] Creating Layer inception_5b/3x3_reduce
I0403 18:37:27.171718  7187 net.cpp:425] inception_5b/3x3_reduce <- inception_5a/output_inception_5a/output_0_split_1
I0403 18:37:27.171741  7187 net.cpp:399] inception_5b/3x3_reduce -> inception_5b/3x3_reduce
I0403 18:37:27.174440  7187 net.cpp:141] Setting up inception_5b/3x3_reduce
I0403 18:37:27.174470  7187 net.cpp:148] Top shape: 24 192 7 7 (225792)
I0403 18:37:27.174486  7187 net.cpp:156] Memory required for data: 1329757728
I0403 18:37:27.174505  7187 layer_factory.hpp:77] Creating layer inception_5b/relu_3x3_reduce
I0403 18:37:27.174528  7187 net.cpp:91] Creating Layer inception_5b/relu_3x3_reduce
I0403 18:37:27.174546  7187 net.cpp:425] inception_5b/relu_3x3_reduce <- inception_5b/3x3_reduce
I0403 18:37:27.174563  7187 net.cpp:386] inception_5b/relu_3x3_reduce -> inception_5b/3x3_reduce (in-place)
I0403 18:37:27.174751  7187 net.cpp:141] Setting up inception_5b/relu_3x3_reduce
I0403 18:37:27.174777  7187 net.cpp:148] Top shape: 24 192 7 7 (225792)
I0403 18:37:27.174793  7187 net.cpp:156] Memory required for data: 1330660896
I0403 18:37:27.174808  7187 layer_factory.hpp:77] Creating layer inception_5b/3x3
I0403 18:37:27.174829  7187 net.cpp:91] Creating Layer inception_5b/3x3
I0403 18:37:27.174859  7187 net.cpp:425] inception_5b/3x3 <- inception_5b/3x3_reduce
I0403 18:37:27.174878  7187 net.cpp:399] inception_5b/3x3 -> inception_5b/3x3
I0403 18:37:27.181612  7187 net.cpp:141] Setting up inception_5b/3x3
I0403 18:37:27.181643  7187 net.cpp:148] Top shape: 24 384 7 7 (451584)
I0403 18:37:27.181660  7187 net.cpp:156] Memory required for data: 1332467232
I0403 18:37:27.181679  7187 layer_factory.hpp:77] Creating layer inception_5b/relu_3x3
I0403 18:37:27.181699  7187 net.cpp:91] Creating Layer inception_5b/relu_3x3
I0403 18:37:27.181716  7187 net.cpp:425] inception_5b/relu_3x3 <- inception_5b/3x3
I0403 18:37:27.181735  7187 net.cpp:386] inception_5b/relu_3x3 -> inception_5b/3x3 (in-place)
I0403 18:37:27.182026  7187 net.cpp:141] Setting up inception_5b/relu_3x3
I0403 18:37:27.182054  7187 net.cpp:148] Top shape: 24 384 7 7 (451584)
I0403 18:37:27.182070  7187 net.cpp:156] Memory required for data: 1334273568
I0403 18:37:27.182083  7187 layer_factory.hpp:77] Creating layer inception_5b/5x5_reduce
I0403 18:37:27.182121  7187 net.cpp:91] Creating Layer inception_5b/5x5_reduce
I0403 18:37:27.182144  7187 net.cpp:425] inception_5b/5x5_reduce <- inception_5a/output_inception_5a/output_0_split_2
I0403 18:37:27.182165  7187 net.cpp:399] inception_5b/5x5_reduce -> inception_5b/5x5_reduce
I0403 18:37:27.183563  7187 net.cpp:141] Setting up inception_5b/5x5_reduce
I0403 18:37:27.183593  7187 net.cpp:148] Top shape: 24 48 7 7 (56448)
I0403 18:37:27.183609  7187 net.cpp:156] Memory required for data: 1334499360
I0403 18:37:27.183627  7187 layer_factory.hpp:77] Creating layer inception_5b/relu_5x5_reduce
I0403 18:37:27.183648  7187 net.cpp:91] Creating Layer inception_5b/relu_5x5_reduce
I0403 18:37:27.183668  7187 net.cpp:425] inception_5b/relu_5x5_reduce <- inception_5b/5x5_reduce
I0403 18:37:27.183686  7187 net.cpp:386] inception_5b/relu_5x5_reduce -> inception_5b/5x5_reduce (in-place)
I0403 18:37:27.184056  7187 net.cpp:141] Setting up inception_5b/relu_5x5_reduce
I0403 18:37:27.184084  7187 net.cpp:148] Top shape: 24 48 7 7 (56448)
I0403 18:37:27.184099  7187 net.cpp:156] Memory required for data: 1334725152
I0403 18:37:27.184115  7187 layer_factory.hpp:77] Creating layer inception_5b/5x5
I0403 18:37:27.184135  7187 net.cpp:91] Creating Layer inception_5b/5x5
I0403 18:37:27.184151  7187 net.cpp:425] inception_5b/5x5 <- inception_5b/5x5_reduce
I0403 18:37:27.184170  7187 net.cpp:399] inception_5b/5x5 -> inception_5b/5x5
I0403 18:37:27.186251  7187 net.cpp:141] Setting up inception_5b/5x5
I0403 18:37:27.186283  7187 net.cpp:148] Top shape: 24 128 7 7 (150528)
I0403 18:37:27.186300  7187 net.cpp:156] Memory required for data: 1335327264
I0403 18:37:27.186321  7187 layer_factory.hpp:77] Creating layer inception_5b/relu_5x5
I0403 18:37:27.186341  7187 net.cpp:91] Creating Layer inception_5b/relu_5x5
I0403 18:37:27.186357  7187 net.cpp:425] inception_5b/relu_5x5 <- inception_5b/5x5
I0403 18:37:27.186378  7187 net.cpp:386] inception_5b/relu_5x5 -> inception_5b/5x5 (in-place)
I0403 18:37:27.186573  7187 net.cpp:141] Setting up inception_5b/relu_5x5
I0403 18:37:27.186599  7187 net.cpp:148] Top shape: 24 128 7 7 (150528)
I0403 18:37:27.186614  7187 net.cpp:156] Memory required for data: 1335929376
I0403 18:37:27.186630  7187 layer_factory.hpp:77] Creating layer inception_5b/pool
I0403 18:37:27.186647  7187 net.cpp:91] Creating Layer inception_5b/pool
I0403 18:37:27.186664  7187 net.cpp:425] inception_5b/pool <- inception_5a/output_inception_5a/output_0_split_3
I0403 18:37:27.186684  7187 net.cpp:399] inception_5b/pool -> inception_5b/pool
I0403 18:37:27.186755  7187 net.cpp:141] Setting up inception_5b/pool
I0403 18:37:27.186779  7187 net.cpp:148] Top shape: 24 832 7 7 (978432)
I0403 18:37:27.186794  7187 net.cpp:156] Memory required for data: 1339843104
I0403 18:37:27.186810  7187 layer_factory.hpp:77] Creating layer inception_5b/pool_proj
I0403 18:37:27.186833  7187 net.cpp:91] Creating Layer inception_5b/pool_proj
I0403 18:37:27.186851  7187 net.cpp:425] inception_5b/pool_proj <- inception_5b/pool
I0403 18:37:27.186868  7187 net.cpp:399] inception_5b/pool_proj -> inception_5b/pool_proj
I0403 18:37:27.189146  7187 net.cpp:141] Setting up inception_5b/pool_proj
I0403 18:37:27.189177  7187 net.cpp:148] Top shape: 24 128 7 7 (150528)
I0403 18:37:27.189193  7187 net.cpp:156] Memory required for data: 1340445216
I0403 18:37:27.189215  7187 layer_factory.hpp:77] Creating layer inception_5b/relu_pool_proj
I0403 18:37:27.189239  7187 net.cpp:91] Creating Layer inception_5b/relu_pool_proj
I0403 18:37:27.189254  7187 net.cpp:425] inception_5b/relu_pool_proj <- inception_5b/pool_proj
I0403 18:37:27.189271  7187 net.cpp:386] inception_5b/relu_pool_proj -> inception_5b/pool_proj (in-place)
I0403 18:37:27.189561  7187 net.cpp:141] Setting up inception_5b/relu_pool_proj
I0403 18:37:27.189587  7187 net.cpp:148] Top shape: 24 128 7 7 (150528)
I0403 18:37:27.189604  7187 net.cpp:156] Memory required for data: 1341047328
I0403 18:37:27.189618  7187 layer_factory.hpp:77] Creating layer inception_5b/output
I0403 18:37:27.189638  7187 net.cpp:91] Creating Layer inception_5b/output
I0403 18:37:27.189667  7187 net.cpp:425] inception_5b/output <- inception_5b/1x1
I0403 18:37:27.189685  7187 net.cpp:425] inception_5b/output <- inception_5b/3x3
I0403 18:37:27.189703  7187 net.cpp:425] inception_5b/output <- inception_5b/5x5
I0403 18:37:27.189718  7187 net.cpp:425] inception_5b/output <- inception_5b/pool_proj
I0403 18:37:27.189735  7187 net.cpp:399] inception_5b/output -> inception_5b/output
I0403 18:37:27.189786  7187 net.cpp:141] Setting up inception_5b/output
I0403 18:37:27.189810  7187 net.cpp:148] Top shape: 24 1024 7 7 (1204224)
I0403 18:37:27.189826  7187 net.cpp:156] Memory required for data: 1345864224
I0403 18:37:27.189841  7187 layer_factory.hpp:77] Creating layer pool5/7x7_s1
I0403 18:37:27.189860  7187 net.cpp:91] Creating Layer pool5/7x7_s1
I0403 18:37:27.189877  7187 net.cpp:425] pool5/7x7_s1 <- inception_5b/output
I0403 18:37:27.189893  7187 net.cpp:399] pool5/7x7_s1 -> pool5/7x7_s1
I0403 18:37:27.190104  7187 net.cpp:141] Setting up pool5/7x7_s1
I0403 18:37:27.190132  7187 net.cpp:148] Top shape: 24 1024 1 1 (24576)
I0403 18:37:27.190150  7187 net.cpp:156] Memory required for data: 1345962528
I0403 18:37:27.190165  7187 layer_factory.hpp:77] Creating layer pool5/drop_7x7_s1
I0403 18:37:27.190182  7187 net.cpp:91] Creating Layer pool5/drop_7x7_s1
I0403 18:37:27.190199  7187 net.cpp:425] pool5/drop_7x7_s1 <- pool5/7x7_s1
I0403 18:37:27.190220  7187 net.cpp:386] pool5/drop_7x7_s1 -> pool5/7x7_s1 (in-place)
I0403 18:37:27.190273  7187 net.cpp:141] Setting up pool5/drop_7x7_s1
I0403 18:37:27.190295  7187 net.cpp:148] Top shape: 24 1024 1 1 (24576)
I0403 18:37:27.190311  7187 net.cpp:156] Memory required for data: 1346060832
I0403 18:37:27.190326  7187 layer_factory.hpp:77] Creating layer loss3/classifier_plantvillage
I0403 18:37:27.190348  7187 net.cpp:91] Creating Layer loss3/classifier_plantvillage
I0403 18:37:27.190366  7187 net.cpp:425] loss3/classifier_plantvillage <- pool5/7x7_s1
I0403 18:37:27.190384  7187 net.cpp:399] loss3/classifier_plantvillage -> loss3/classifier_plantvillage
I0403 18:37:27.190799  7187 net.cpp:141] Setting up loss3/classifier_plantvillage
I0403 18:37:27.190824  7187 net.cpp:148] Top shape: 24 38 (912)
I0403 18:37:27.190840  7187 net.cpp:156] Memory required for data: 1346064480
I0403 18:37:27.190856  7187 layer_factory.hpp:77] Creating layer loss3/classifier_plantvillage_loss3/classifier_plantvillage_0_split
I0403 18:37:27.190876  7187 net.cpp:91] Creating Layer loss3/classifier_plantvillage_loss3/classifier_plantvillage_0_split
I0403 18:37:27.190891  7187 net.cpp:425] loss3/classifier_plantvillage_loss3/classifier_plantvillage_0_split <- loss3/classifier_plantvillage
I0403 18:37:27.190913  7187 net.cpp:399] loss3/classifier_plantvillage_loss3/classifier_plantvillage_0_split -> loss3/classifier_plantvillage_loss3/classifier_plantvillage_0_split_0
I0403 18:37:27.190935  7187 net.cpp:399] loss3/classifier_plantvillage_loss3/classifier_plantvillage_0_split -> loss3/classifier_plantvillage_loss3/classifier_plantvillage_0_split_1
I0403 18:37:27.190955  7187 net.cpp:399] loss3/classifier_plantvillage_loss3/classifier_plantvillage_0_split -> loss3/classifier_plantvillage_loss3/classifier_plantvillage_0_split_2
I0403 18:37:27.190974  7187 net.cpp:399] loss3/classifier_plantvillage_loss3/classifier_plantvillage_0_split -> loss3/classifier_plantvillage_loss3/classifier_plantvillage_0_split_3
I0403 18:37:27.191076  7187 net.cpp:141] Setting up loss3/classifier_plantvillage_loss3/classifier_plantvillage_0_split
I0403 18:37:27.191102  7187 net.cpp:148] Top shape: 24 38 (912)
I0403 18:37:27.191119  7187 net.cpp:148] Top shape: 24 38 (912)
I0403 18:37:27.191136  7187 net.cpp:148] Top shape: 24 38 (912)
I0403 18:37:27.191153  7187 net.cpp:148] Top shape: 24 38 (912)
I0403 18:37:27.191166  7187 net.cpp:156] Memory required for data: 1346079072
I0403 18:37:27.191181  7187 layer_factory.hpp:77] Creating layer loss1/loss
I0403 18:37:27.191205  7187 net.cpp:91] Creating Layer loss1/loss
I0403 18:37:27.191226  7187 net.cpp:425] loss1/loss <- loss1/classifier_plantvillage_loss1/classifier_plantvillage_0_split_0
I0403 18:37:27.191257  7187 net.cpp:425] loss1/loss <- label_data_1_split_0
…
