…
I0403 18:21:36.649755  6857 net.cpp:313] The NetState phase (1) differed from the phase (0) specified by a rule in layer data
I0403 18:21:36.650876  6857 net.cpp:49] Initializing net from parameters: 
state {
  phase: TEST
}
layer {
  name: "data"
  type: "Data"
  top: "data"
  top: "label"
  include {
    phase: TEST
  }
  transform_param {
    mirror: false
    crop_size: 224
    mean_file: "/home/mohanty/data/final_dataset/lmdb/segmented-50-50/mean.binaryproto"
  }
  data_param {
    source: "/home/mohanty/data/final_dataset/lmdb/segmented-50-50/test_db"
    batch_size: 24
    backend: LMDB
  }
}
layer {
  name: "conv1/7x7_s2"
  type: "Convolution"
  bottom: "data"
  top: "conv1/7x7_s2"
  param {
    lr_mult: 1
    decay_mult: 1
  }
  param {
    lr_mult: 2
    decay_mult: 0
  }
  convolution_param {
    num_output: 64
    pad: 3
    kernel_size: 7
    stride: 2
    weight_filler {
      type: "xavier"
      std: 0.1
    }
    bias_filler {
      type: "constant"
      value: 0.2
    }
  }
}
layer {
  name: "conv1/relu_7x7"
  type: "ReLU"
  bottom: "conv1/7x7_s2"
  top: "conv1/7x7_s2"
}
layer {
  name: "pool1/3x3_s2"
  type: "Pooling"
  bottom: "conv1/7x7_s2"
  top: "pool1/3x3_s2"
  pooling_param {
    pool: MAX
    kernel_size: 3
    stride: 2
  }
}
layer {
  name: "pool1/norm1"
  type: "LRN"
  bottom: "pool1/3x3_s2"
  top: "pool1/norm1"
  lrn_param {
    local_size: 5
    alpha: 0.0001
    beta: 0.75
  }
}
layer {
  name: "conv2/3x3_reduce"
  type: "Convolution"
  bottom: "pool1/norm1"
  top: "conv2/3x3_reduce"
  param {
    lr_mult: 1
    decay_mult: 1
  }
  param {
    lr_mult: 2
    decay_mult: 0
  }
  convolution_param {
    num_output: 64
    kernel_size: 1
    weight_filler {
      type: "xavier"
      std: 0.1
    }
    bias_filler {
      type: "constant"
      value: 0.2
    }
  }
}
layer {
  name: "conv2/relu_3x3_reduce"
  type: "ReLU"
  bottom: "conv2/3x3_reduce"
  top: "conv2/3x3_reduce"
}
layer {
  name: "conv2/3x3"
  type: "Convolution"
  bottom: "conv2/3x3_reduce"
  top: "conv2/3x3"
  param {
    lr_mult: 1
    decay_mult: 1
  }
  param {
    lr_mult: 2
    decay_mult: 0
  }
  convolution_param {
    num_output: 192
    pad: 1
    kernel_size: 3
    weight_filler {
      type: "xavier"
      std: 0.03
    }
    bias_filler {
      type: "constant"
      value: 0.2
    }
  }
}
layer {
  name: "conv2/relu_3x3"
  type: "ReLU"
  bottom: "conv2/3x3"
  top: "conv2/3x3"
}
layer {
  name: "conv2/norm2"
  type: "LRN"
  bottom: "conv2/3x3"
  top: "conv2/norm2"
  lrn_param {
    local_size: 5
    alpha: 0.0001
    beta: 0.75
  }
}
layer {
  name: "pool2/3x3_s2"
  type: "Pooling"
  bottom: "conv2/norm2"
  top: "pool2/3x3_s2"
  pooling_param {
    pool: MAX
    kernel_size: 3
    stride: 2
  }
}
layer {
  name: "inception_3a/1x1"
  type: "Convolution"
  bottom: "pool2/3x3_s2"
  top: "inception_3a/1x1"
  param {
    lr_mult: 1
    decay_mult: 1
  }
  param {
    lr_mult: 2
    decay_mult: 0
  }
  convolution_param {
    num_output: 64
    kernel_size: 1
    weight_filler {
      type: "xavier"
      std: 0.03
    }
    bias_filler {
      type: "constant"
      value: 0.2
    }
  }
}
layer {
  name: "inception_3a/relu_1x1"
  type: "ReLU"
  bottom: "inception_3a/1x1"
  top: "inception_3a/1x1"
}
layer {
  name: "inception_3a/3x3_reduce"
  type: "Convolution"
  bottom: "pool2/3x3_s2"
  top: "inception_3a/3x3_reduce"
  param {
    lr_mult: 1
    decay_mult: 1
  }
  param {
    lr_mult: 2
    decay_mult: 0
  }
  convolution_param {
    num_output: 96
    kernel_size: 1
    weight_filler {
      type: "xavier"
      std: 0.09
    }
    bias_filler {
      type: "constant"
      value: 0.2
    }
  }
}
layer {
  name: "inception_3a/relu_3x3_reduce"
  type: "ReLU"
  bottom: "inception_3a/3x3_reduce"
  top: "inception_3a/3x3_reduce"
}
layer {
  name: "inception_3a/3x3"
  type: "Convolution"
  bottom: "inception_3a/3x3_reduce"
  top: "inception_3a/3x3"
  param {
    lr_mult: 1
    decay_mult: 1
  }
  param {
    lr_mult: 2
    decay_mult: 0
  }
  convolution_param {
    num_output: 128
    pad: 1
    kernel_size: 3
    weight_filler {
      type: "xavier"
      std: 0.03
    }
    bias_filler {
      type: "constant"
      value: 0.2
    }
  }
}
layer {
  name: "inception_3a/relu_3x3"
  type: "ReLU"
  bottom: "inception_3a/3x3"
  top: "inception_3a/3x3"
}
layer {
  name: "inception_3a/5x5_reduce"
  type: "Convolution"
  bottom: "pool2/3x3_s2"
  top: "inception_3a/5x5_reduce"
  param {
    lr_mult: 1
    decay_mult: 1
  }
  param {
    lr_mult: 2
    decay_mult: 0
  }
  convolution_param {
    num_output: 16
    kernel_size: 1
    weight_filler {
      type: "xavier"
      std: 0.2
    }
    bias_filler {
      type: "constant"
      value: 0.2
    }
  }
}
layer {
  name: "inception_3a/relu_5x5_reduce"
  type: "ReLU"
  bottom: "inception_3a/5x5_reduce"
  top: "inception_3a/5x5_reduce"
}
layer {
  name: "inception_3a/5x5"
  type: "Convolution"
  bottom: "inception_3a/5x5_reduce"
  top: "inception_3a/5x5"
  param {
    lr_mult: 1
    decay_mult: 1
  }
  param {
    lr_mult: 2
    decay_mult: 0
  }
  convolution_param {
    num_output: 32
    pad: 2
    kernel_size: 5
    weight_filler {
      type: "xavier"
      std: 0.03
    }
    bias_filler {
      type: "constant"
      value: 0.2
    }
  }
}
layer {
  name: "inception_3a/relu_5x5"
  type: "ReLU"
  bottom: "inception_3a/5x5"
  top: "inception_3a/5x5"
}
layer {
  name: "inception_3a/pool"
  type: "Pooling"
  bottom: "pool2/3x3_s2"
  top: "inception_3a/pool"
  pooling_param {
    pool: MAX
    kernel_size: 3
    stride: 1
    pad: 1
  }
}
layer {
  name: "inception_3a/pool_proj"
  type: "Convolution"
  bottom: "inception_3a/pool"
  top: "inception_3a/pool_proj"
  param {
    lr_mult: 1
    decay_mult: 1
  }
  param {
    lr_mult: 2
    decay_mult: 0
  }
  convolution_param {
    num_output: 32
    kernel_size: 1
    weight_filler {
      type: "xavier"
      std: 0.1
    }
    bias_filler {
      type: "constant"
      value: 0.2
    }
  }
}
layer {
  name: "inception_3a/relu_pool_proj"
  type: "ReLU"
  bottom: "inception_3a/pool_proj"
  top: "inception_3a/pool_proj"
}
layer {
  name: "inception_3a/output"
  type: "Concat"
  bottom: "inception_3a/1x1"
  bottom: "inception_3a/3x3"
  bottom: "inception_3a/5x5"
  bottom: "inception_3a/pool_proj"
  top: "inception_3a/output"
}
layer {
  name: "inception_3b/1x1"
  type: "Convolution"
  bottom: "inception_3a/output"
  top: "inception_3b/1x1"
  param {
    lr_mult: 1
    decay_mult: 1
  }
  param {
    lr_mult: 2
    decay_mult: 0
  }
  convolution_param {
    num_output: 128
    kernel_size: 1
    weight_filler {
      type: "xavier"
      std: 0.03
    }
    bias_filler {
      type: "constant"
      value: 0.2
    }
  }
}
layer {
  name: "inception_3b/relu_1x1"
  type: "ReLU"
  bottom: "inception_3b/1x1"
  top: "inception_3b/1x1"
}
layer {
  name: "inception_3b/3x3_reduce"
  type: "Convolution"
  bottom: "inception_3a/output"
  top: "inception_3b/3x3_reduce"
  param {
    lr_mult: 1
    decay_mult: 1
  }
  param {
    lr_mult: 2
    decay_mult: 0
  }
  convolution_param {
    num_output: 128
    kernel_size: 1
    weight_filler {
      type: "xavier"
      std: 0.09
    }
    bias_filler {
      type: "constant"
      value: 0.2
    }
  }
}
layer {
  name: "inception_3b/relu_3x3_reduce"
  type: "ReLU"
  bottom: "inception_3b/3x3_reduce"
  top: "inception_3b/3x3_reduce"
}
layer {
  name: "inception_3b/3x3"
  type: "Convolution"
  bottom: "inception_3b/3x3_reduce"
  top: "inception_3b/3x3"
  param {
    lr_mult: 1
    decay_mult: 1
  }
  param {
    lr_mult: 2
    decay_mult: 0
  }
  convolution_param {
    num_output: 192
    pad: 1
    kernel_size: 3
    weight_filler {
      type: "xavier"
      std: 0.03
    }
    bias_filler {
      type: "constant"
      value: 0.2
    }
  }
}
layer {
  name: "inception_3b/relu_3x3"
  type: "ReLU"
  bottom: "inception_3b/3x3"
  top: "inception_3b/3x3"
}
layer {
  name: "inception_3b/5x5_reduce"
  type: "Convolution"
  bottom: "inception_3a/output"
  top: "inception_3b/5x5_reduce"
  param {
    lr_mult: 1
    decay_mult: 1
  }
  param {
    lr_mult: 2
    decay_mult: 0
  }
  convolution_param {
    num_output: 32
    kernel_size: 1
    weight_filler {
      type: "xavier"
      std: 0.2
    }
    bias_filler {
      type: "constant"
      value: 0.2
    }
  }
}
layer {
  name: "inception_3b/relu_5x5_reduce"
  type: "ReLU"
  bottom: "inception_3b/5x5_reduce"
  top: "inception_3b/5x5_reduce"
}
layer {
  name: "inception_3b/5x5"
  type: "Convolution"
  bottom: "inception_3b/5x5_reduce"
  top: "inception_3b/5x5"
  param {
    lr_mult: 1
    decay_mult: 1
  }
  param {
    lr_mult: 2
    decay_mult: 0
  }
  convolution_param {
    num_output: 96
    pad: 2
    kernel_size: 5
    weight_filler {
      type: "xavier"
      std: 0.03
    }
    bias_filler {
      type: "constant"
      value: 0.2
    }
  }
}
layer {
  name: "inception_3b/relu_5x5"
  type: "ReLU"
  bottom: "inception_3b/5x5"
  top: "inception_3b/5x5"
}
layer {
  name: "inception_3b/pool"
  type: "Pooling"
  bottom: "inception_3a/output"
  top: "inception_3b/pool"
  pooling_param {
    pool: MAX
    kernel_size: 3
    stride: 1
    pad: 1
  }
}
layer {
  name: "inception_3b/pool_proj"
  type: "Convolution"
  bottom: "inception_3b/pool"
  top: "inception_3b/pool_proj"
  param {
    lr_mult: 1
    decay_mult: 1
  }
  param {
    lr_mult: 2
    decay_mult: 0
  }
  convolution_param {
    num_output: 64
    kernel_size: 1
    weight_filler {
      type: "xavier"
      std: 0.1
    }
    bias_filler {
      type: "constant"
      value: 0.2
    }
  }
}
layer {
  name: "inception_3b/relu_pool_proj"
  type: "ReLU"
  bottom: "inception_3b/pool_proj"
  top: "inception_3b/pool_proj"
}
layer {
  name: "inception_3b/output"
  type: "Concat"
  bottom: "inception_3b/1x1"
  bottom: "inception_3b/3x3"
  bottom: "inception_3b/5x5"
  bottom: "inception_3b/pool_proj"
  top: "inception_3b/output"
}
layer {
  name: "pool3/3x3_s2"
  type: "Pooling"
  bottom: "inception_3b/output"
  top: "pool3/3x3_s2"
  pooling_param {
    pool: MAX
    kernel_size: 3
    stride: 2
  }
}
layer {
  name: "inception_4a/1x1"
  type: "Convolution"
  bottom: "pool3/3x3_s2"
  top: "inception_4a/1x1"
  param {
    lr_mult: 1
    decay_mult: 1
  }
  param {
    lr_mult: 2
    decay_mult: 0
  }
  convolution_param {
    num_output: 192
    kernel_size: 1
    weight_filler {
      type: "xavier"
      std: 0.03
    }
    bias_filler {
      type: "constant"
      value: 0.2
    }
  }
}
layer {
  name: "inception_4a/relu_1x1"
  type: "ReLU"
  bottom: "inception_4a/1x1"
  top: "inception_4a/1x1"
}
layer {
  name: "inception_4a/3x3_reduce"
  type: "Convolution"
  bottom: "pool3/3x3_s2"
  top: "inception_4a/3x3_reduce"
  param {
    lr_mult: 1
    decay_mult: 1
  }
  param {
    lr_mult: 2
    decay_mult: 0
  }
  convolution_param {
    num_output: 96
    kernel_size: 1
    weight_filler {
      type: "xavier"
      std: 0.09
    }
    bias_filler {
      type: "constant"
      value: 0.2
    }
  }
}
layer {
  name: "inception_4a/relu_3x3_reduce"
  type: "ReLU"
  bottom: "inception_4a/3x3_reduce"
  top: "inception_4a/3x3_reduce"
}
layer {
  name: "inception_4a/3x3"
  type: "Convolution"
  bottom: "inception_4a/3x3_reduce"
  top: "inception_4a/3x3"
  param {
    lr_mult: 1
    decay_mult: 1
  }
  param {
    lr_mult: 2
    decay_mult: 0
  }
  convolution_param {
    num_output: 208
    pad: 1
    kernel_size: 3
    weight_filler {
      type: "xavier"
      std: 0.03
    }
    bias_filler {
      type: "constant"
      value: 0.2
    }
  }
}
layer {
  name: "inception_4a/relu_3x3"
  type: "ReLU"
  bottom: "inception_4a/3x3"
  top: "inception_4a/3x3"
}
layer {
  name: "inception_4a/5x5_reduce"
  type: "Convolution"
  bottom: "pool3/3x3_s2"
  top: "inception_4a/5x5_reduce"
  param {
    lr_mult: 1
    decay_mult: 1
  }
  param {
    lr_mult: 2
    decay_mult: 0
  }
  convolution_param {
    num_output: 16
    kernel_size: 1
    weight_filler {
      type: "xavier"
      std: 0.2
    }
    bias_filler {
      type: "constant"
      value: 0.2
    }
  }
}
layer {
  name: "inception_4a/relu_5x5_reduce"
  type: "ReLU"
  bottom: "inception_4a/5x5_reduce"
  top: "inception_4a/5x5_reduce"
}
layer {
  name: "inception_4a/5x5"
  type: "Convolution"
  bottom: "inception_4a/5x5_reduce"
  top: "inception_4a/5x5"
  param {
    lr_mult: 1
    decay_mult: 1
  }
  param {
    lr_mult: 2
    decay_mult: 0
  }
  convolution_param {
    num_output: 48
    pad: 2
    kernel_size: 5
    weight_filler {
      type: "xavier"
      std: 0.03
    }
    bias_filler {
      type: "constant"
      value: 0.2
    }
  }
}
layer {
  name: "inception_4a/relu_5x5"
  type: "ReLU"
  bottom: "inception_4a/5x5"
  top: "inception_4a/5x5"
}
layer {
  name: "inception_4a/pool"
  type: "Pooling"
  bottom: "pool3/3x3_s2"
  top: "inception_4a/pool"
  pooling_param {
    pool: MAX
    kernel_size: 3
    stride: 1
    pad: 1
  }
}
layer {
  name: "inception_4a/pool_proj"
  type: "Convolution"
  bottom: "inception_4a/pool"
  top: "inception_4a/pool_proj"
  param {
    lr_mult: 1
    decay_mult: 1
  }
  param {
    lr_mult: 2
    decay_mult: 0
  }
  convolution_param {
    num_output: 64
    kernel_size: 1
    weight_filler {
      type: "xavier"
      std: 0.1
    }
    bias_filler {
      type: "constant"
      value: 0.2
    }
  }
}
layer {
  name: "inception_4a/relu_pool_proj"
  type: "ReLU"
  bottom: "inception_4a/pool_proj"
  top: "inception_4a/pool_proj"
}
layer {
  name: "inception_4a/output"
  type: "Concat"
  bottom: "inception_4a/1x1"
  bottom: "inception_4a/3x3"
  bottom: "inception_4a/5x5"
  bottom: "inception_4a/pool_proj"
  top: "inception_4a/output"
}
layer {
  name: "loss1/ave_pool"
  type: "Pooling"
  bottom: "inception_4a/output"
  top: "loss1/ave_pool"
  pooling_param {
    pool: AVE
    kernel_size: 5
    stride: 3
  }
}
layer {
  name: "loss1/conv"
  type: "Convolution"
  bottom: "loss1/ave_pool"
  top: "loss1/conv"
  param {
    lr_mult: 1
    decay_mult: 1
  }
  param {
    lr_mult: 2
    decay_mult: 0
  }
  convolution_param {
    num_output: 128
    kernel_size: 1
    weight_filler {
      type: "xavier"
      std: 0.08
    }
    bias_filler {
      type: "constant"
      value: 0.2
    }
  }
}
layer {
  name: "loss1/relu_conv"
  type: "ReLU"
  bottom: "loss1/conv"
  top: "loss1/conv"
}
layer {
  name: "loss1/fc"
  type: "InnerProduct"
  bottom: "loss1/conv"
  top: "loss1/fc"
  param {
    lr_mult: 1
    decay_mult: 1
  }
  param {
    lr_mult: 2
    decay_mult: 0
  }
  inner_product_param {
    num_output: 1024
    weight_filler {
      type: "xavier"
      std: 0.02
    }
    bias_filler {
      type: "constant"
      value: 0.2
    }
  }
}
layer {
  name: "loss1/relu_fc"
  type: "ReLU"
  bottom: "loss1/fc"
  top: "loss1/fc"
}
layer {
  name: "loss1/drop_fc"
  type: "Dropout"
  bottom: "loss1/fc"
  top: "loss1/fc"
  dropout_param {
    dropout_ratio: 0.7
  }
}
layer {
  name: "loss1/classifier_plantvillage"
  type: "InnerProduct"
  bottom: "loss1/fc"
  top: "loss1/classifier_plantvillage"
  param {
    lr_mult: 1
    decay_mult: 1
  }
  param {
    lr_mult: 2
    decay_mult: 0
  }
  inner_product_param {
    num_output: 38
    weight_filler {
      type: "xavier"
      std: 0.0009765625
    }
    bias_filler {
      type: "constant"
      value: 0
    }
  }
}
layer {
  name: "inception_4b/1x1"
  type: "Convolution"
  bottom: "inception_4a/output"
  top: "inception_4b/1x1"
  param {
    lr_mult: 1
    decay_mult: 1
  }
  param {
    lr_mult: 2
    decay_mult: 0
  }
  convolution_param {
    num_output: 160
    kernel_size: 1
    weight_filler {
      type: "xavier"
      std: 0.03
    }
    bias_filler {
      type: "constant"
      value: 0.2
    }
  }
}
layer {
  name: "inception_4b/relu_1x1"
  type: "ReLU"
  bottom: "inception_4b/1x1"
  top: "inception_4b/1x1"
}
layer {
  name: "inception_4b/3x3_reduce"
  type: "Convolution"
  bottom: "inception_4a/output"
  top: "inception_4b/3x3_reduce"
  param {
    lr_mult: 1
    decay_mult: 1
  }
  param {
    lr_mult: 2
    decay_mult: 0
  }
  convolution_param {
    num_output: 112
    kernel_size: 1
    weight_filler {
      type: "xavier"
      std: 0.09
    }
    bias_filler {
      type: "constant"
      value: 0.2
    }
  }
}
layer {
  name: "inception_4b/relu_3x3_reduce"
  type: "ReLU"
  bottom: "inception_4b/3x3_reduce"
  top: "inception_4b/3x3_reduce"
}
layer {
  name: "inception_4b/3x3"
  type: "Convolution"
  bottom: "inception_4b/3x3_reduce"
  top: "inception_4b/3x3"
  param {
    lr_mult: 1
    decay_mult: 1
  }
  param {
    lr_mult: 2
    decay_mult: 0
  }
  convolution_param {
    num_output: 224
    pad: 1
    kernel_size: 3
    weight_filler {
      type: "xavier"
      std: 0.03
    }
    bias_filler {
      type: "constant"
      value: 0.2
    }
  }
}
layer {
  name: "inception_4b/relu_3x3"
  type: "ReLU"
  bottom: "inception_4b/3x3"
  top: "inception_4b/3x3"
}
layer {
  name: "inception_4b/5x5_reduce"
  type: "Convolution"
  bottom: "inception_4a/output"
  top: "inception_4b/5x5_reduce"
  param {
    lr_mult: 1
    decay_mult: 1
  }
  param {
    lr_mult: 2
    decay_mult: 0
  }
  convolution_param {
    num_output: 24
    kernel_size: 1
    weight_filler {
      type: "xavier"
      std: 0.2
    }
    bias_filler {
      type: "constant"
      value: 0.2
    }
  }
}
layer {
  name: "inception_4b/relu_5x5_reduce"
  type: "ReLU"
  bottom: "inception_4b/5x5_reduce"
  top: "inception_4b/5x5_reduce"
}
layer {
  name: "inception_4b/5x5"
  type: "Convolution"
  bottom: "inception_4b/5x5_reduce"
  top: "inception_4b/5x5"
  param {
    lr_mult: 1
    decay_mult: 1
  }
  param {
    lr_mult: 2
    decay_mult: 0
  }
  convolution_param {
    num_output: 64
    pad: 2
    kernel_size: 5
    weight_filler {
      type: "xavier"
      std: 0.03
    }
    bias_filler {
      type: "constant"
      value: 0.2
    }
  }
}
layer {
  name: "inception_4b/relu_5x5"
  type: "ReLU"
  bottom: "inception_4b/5x5"
  top: "inception_4b/5x5"
}
layer {
  name: "inception_4b/pool"
  type: "Pooling"
  bottom: "inception_4a/output"
  top: "inception_4b/pool"
  pooling_param {
    pool: MAX
    kernel_size: 3
    stride: 1
    pad: 1
  }
}
layer {
  name: "inception_4b/pool_proj"
  type: "Convolution"
  bottom: "inception_4b/pool"
  top: "inception_4b/pool_proj"
  param {
    lr_mult: 1
    decay_mult: 1
  }
  param {
    lr_mult: 2
    decay_mult: 0
  }
  convolution_param {
    num_output: 64
    kernel_size: 1
    weight_filler {
      type: "xavier"
      std: 0.1
    }
    bias_filler {
      type: "constant"
      value: 0.2
    }
  }
}
layer {
  name: "inception_4b/relu_pool_proj"
  type: "ReLU"
  bottom: "inception_4b/pool_proj"
  top: "inception_4b/pool_proj"
}
layer {
  name: "inception_4b/output"
  type: "Concat"
  bottom: "inception_4b/1x1"
  bottom: "inception_4b/3x3"
  bottom: "inception_4b/5x5"
  bottom: "inception_4b/pool_proj"
  top: "inception_4b/output"
}
layer {
  name: "inception_4c/1x1"
  type: "Convolution"
  bottom: "inception_4b/output"
  top: "inception_4c/1x1"
  param {
    lr_mult: 1
    decay_mult: 1
  }
  param {
    lr_mult: 2
    decay_mult: 0
  }
  convolution_param {
    num_output: 128
    kernel_size: 1
    weight_filler {
      type: "xavier"
      std: 0.03
    }
    bias_filler {
      type: "constant"
      value: 0.2
    }
  }
}
layer {
  name: "inception_4c/relu_1x1"
  type: "ReLU"
  bottom: "inception_4c/1x1"
  top: "inception_4c/1x1"
}
layer {
  name: "inception_4c/3x3_reduce"
  type: "Convolution"
  bottom: "inception_4b/output"
  top: "inception_4c/3x3_reduce"
  param {
    lr_mult: 1
    decay_mult: 1
  }
  param {
    lr_mult: 2
    decay_mult: 0
  }
  convolution_param {
    num_output: 128
    kernel_size: 1
    weight_filler {
      type: "xavier"
      std: 0.09
    }
    bias_filler {
      type: "constant"
      value: 0.2
    }
  }
}
layer {
  name: "inception_4c/relu_3x3_reduce"
  type: "ReLU"
  bottom: "inception_4c/3x3_reduce"
  top: "inception_4c/3x3_reduce"
}
layer {
  name: "inception_4c/3x3"
  type: "Convolution"
  bottom: "inception_4c/3x3_reduce"
  top: "inception_4c/3x3"
  param {
    lr_mult: 1
    decay_mult: 1
  }
  param {
    lr_mult: 2
    decay_mult: 0
  }
  convolution_param {
    num_output: 256
    pad: 1
    kernel_size: 3
    weight_filler {
      type: "xavier"
      std: 0.03
    }
    bias_filler {
      type: "constant"
      value: 0.2
    }
  }
}
layer {
  name: "inception_4c/relu_3x3"
  type: "ReLU"
  bottom: "inception_4c/3x3"
  top: "inception_4c/3x3"
}
layer {
  name: "inception_4c/5x5_reduce"
  type: "Convolution"
  bottom: "inception_4b/output"
  top: "inception_4c/5x5_reduce"
  param {
    lr_mult: 1
    decay_mult: 1
  }
  param {
    lr_mult: 2
    decay_mult: 0
  }
  convolution_param {
    num_output: 24
    kernel_size: 1
    weight_filler {
      type: "xavier"
      std: 0.2
    }
    bias_filler {
      type: "constant"
      value: 0.2
    }
  }
}
layer {
  name: "inception_4c/relu_5x5_reduce"
  type: "ReLU"
  bottom: "inception_4c/5x5_reduce"
  top: "inception_4c/5x5_reduce"
}
layer {
  name: "inception_4c/5x5"
  type: "Convolution"
  bottom: "inception_4c/5x5_reduce"
  top: "inception_4c/5x5"
  param {
    lr_mult: 1
    decay_mult: 1
  }
  param {
    lr_mult: 2
    decay_mult: 0
  }
  convolution_param {
    num_output: 64
    pad: 2
    kernel_size: 5
    weight_filler {
      type: "xavier"
      std: 0.03
    }
    bias_filler {
      type: "constant"
      value: 0.2
    }
  }
}
layer {
  name: "inception_4c/relu_5x5"
  type: "ReLU"
  bottom: "inception_4c/5x5"
  top: "inception_4c/5x5"
}
layer {
  name: "inception_4c/pool"
  type: "Pooling"
  bottom: "inception_4b/output"
  top: "inception_4c/pool"
  pooling_param {
    pool: MAX
    kernel_size: 3
    stride: 1
    pad: 1
  }
}
layer {
  name: "inception_4c/pool_proj"
  type: "Convolution"
  bottom: "inception_4c/pool"
  top: "inception_4c/pool_proj"
  param {
    lr_mult: 1
    decay_mult: 1
  }
  param {
    lr_mult: 2
    decay_mult: 0
  }
  convolution_param {
    num_output: 64
    kernel_size: 1
    weight_filler {
      type: "xavier"
      std: 0.1
    }
    bias_filler {
      type: "constant"
      value: 0.2
    }
  }
}
layer {
  name: "inception_4c/relu_pool_proj"
  type: "ReLU"
  bottom: "inception_4c/pool_proj"
  top: "inception_4c/pool_proj"
}
layer {
  name: "inception_4c/output"
  type: "Concat"
  bottom: "inception_4c/1x1"
  bottom: "inception_4c/3x3"
  bottom: "inception_4c/5x5"
  bottom: "inception_4c/pool_proj"
  top: "inception_4c/output"
}
layer {
  name: "inception_4d/1x1"
  type: "Convolution"
  bottom: "inception_4c/output"
  top: "inception_4d/1x1"
  param {
    lr_mult: 1
    decay_mult: 1
  }
  param {
    lr_mult: 2
    decay_mult: 0
  }
  convolution_param {
    num_output: 112
    kernel_size: 1
    weight_filler {
      type: "xavier"
      std: 0.03
    }
    bias_filler {
      type: "constant"
      value: 0.2
    }
  }
}
layer {
  name: "inception_4d/relu_1x1"
  type: "ReLU"
  bottom: "inception_4d/1x1"
  top: "inception_4d/1x1"
}
layer {
  name: "inception_4d/3x3_reduce"
  type: "Convolution"
  bottom: "inception_4c/output"
  top: "inception_4d/3x3_reduce"
  param {
    lr_mult: 1
    decay_mult: 1
  }
  param {
    lr_mult: 2
    decay_mult: 0
  }
  convolution_param {
    num_output: 144
    kernel_size: 1
    weight_filler {
      type: "xavier"
      std: 0.09
    }
    bias_filler {
      type: "constant"
      value: 0.2
    }
  }
}
layer {
  name: "inception_4d/relu_3x3_reduce"
  type: "ReLU"
  bottom: "inception_4d/3x3_reduce"
  top: "inception_4d/3x3_reduce"
}
layer {
  name: "inception_4d/3x3"
  type: "Convolution"
  bottom: "inception_4d/3x3_reduce"
  top: "inception_4d/3x3"
  param {
    lr_mult: 1
    decay_mult: 1
  }
  param {
    lr_mult: 2
    decay_mult: 0
  }
  convolution_param {
    num_output: 288
    pad: 1
    kernel_size: 3
    weight_filler {
      type: "xavier"
      std: 0.03
    }
    bias_filler {
      type: "constant"
      value: 0.2
    }
  }
}
layer {
  name: "inception_4d/relu_3x3"
  type: "ReLU"
  bottom: "inception_4d/3x3"
  top: "inception_4d/3x3"
}
layer {
  name: "inception_4d/5x5_reduce"
  type: "Convolution"
  bottom: "inception_4c/output"
  top: "inception_4d/5x5_reduce"
  param {
    lr_mult: 1
    decay_mult: 1
  }
  param {
    lr_mult: 2
    decay_mult: 0
  }
  convolution_param {
    num_output: 32
    kernel_size: 1
    weight_filler {
      type: "xavier"
      std: 0.2
    }
    bias_filler {
      type: "constant"
      value: 0.2
    }
  }
}
layer {
  name: "inception_4d/relu_5x5_reduce"
  type: "ReLU"
  bottom: "inception_4d/5x5_reduce"
  top: "inception_4d/5x5_reduce"
}
layer {
  name: "inception_4d/5x5"
  type: "Convolution"
  bottom: "inception_4d/5x5_reduce"
  top: "inception_4d/5x5"
  param {
    lr_mult: 1
    decay_mult: 1
  }
  param {
    lr_mult: 2
    decay_mult: 0
  }
  convolution_param {
    num_output: 64
    pad: 2
    kernel_size: 5
    weight_filler {
      type: "xavier"
      std: 0.03
    }
    bias_filler {
      type: "constant"
      value: 0.2
    }
  }
}
layer {
  name: "inception_4d/relu_5x5"
  type: "ReLU"
  bottom: "inception_4d/5x5"
  top: "inception_4d/5x5"
}
layer {
  name: "inception_4d/pool"
  type: "Pooling"
  bottom: "inception_4c/output"
  top: "inception_4d/pool"
  pooling_param {
    pool: MAX
    kernel_size: 3
    stride: 1
    pad: 1
  }
}
layer {
  name: "inception_4d/pool_proj"
  type: "Convolution"
  bottom: "inception_4d/pool"
  top: "inception_4d/pool_proj"
  param {
    lr_mult: 1
    decay_mult: 1
  }
  param {
    lr_mult: 2
    decay_mult: 0
  }
  convolution_param {
    num_output: 64
    kernel_size: 1
    weight_filler {
      type: "xavier"
      std: 0.1
    }
    bias_filler {
      type: "constant"
      value: 0.2
    }
  }
}
layer {
  name: "inception_4d/relu_pool_proj"
  type: "ReLU"
  bottom: "inception_4d/pool_proj"
  top: "inception_4d/pool_proj"
}
layer {
  name: "inception_4d/output"
  type: "Concat"
  bottom: "inception_4d/1x1"
  bottom: "inception_4d/3x3"
  bottom: "inception_4d/5x5"
  bottom: "inception_4d/pool_proj"
  top: "inception_4d/output"
}
layer {
  name: "loss2/ave_pool"
  type: "Pooling"
  bottom: "inception_4d/output"
  top: "loss2/ave_pool"
  pooling_param {
    pool: AVE
    kernel_size: 5
    stride: 3
  }
}
layer {
  name: "loss2/conv"
  type: "Convolution"
  bottom: "loss2/ave_pool"
  top: "loss2/conv"
  param {
    lr_mult: 1
    decay_mult: 1
  }
  param {
    lr_mult: 2
    decay_mult: 0
  }
  convolution_param {
    num_output: 128
    kernel_size: 1
    weight_filler {
      type: "xavier"
      std: 0.08
    }
    bias_filler {
      type: "constant"
      value: 0.2
    }
  }
}
layer {
  name: "loss2/relu_conv"
  type: "ReLU"
  bottom: "loss2/conv"
  top: "loss2/conv"
}
layer {
  name: "loss2/fc"
  type: "InnerProduct"
  bottom: "loss2/conv"
  top: "loss2/fc"
  param {
    lr_mult: 1
    decay_mult: 1
  }
  param {
    lr_mult: 2
    decay_mult: 0
  }
  inner_product_param {
    num_output: 1024
    weight_filler {
      type: "xavier"
      std: 0.02
    }
    bias_filler {
      type: "constant"
      value: 0.2
    }
  }
}
layer {
  name: "loss2/relu_fc"
  type: "ReLU"
  bottom: "loss2/fc"
  top: "loss2/fc"
}
layer {
  name: "loss2/drop_fc"
  type: "Dropout"
  bottom: "loss2/fc"
  top: "loss2/fc"
  dropout_param {
    dropout_ratio: 0.7
  }
}
layer {
  name: "loss2/classifier_plantvillage"
  type: "InnerProduct"
  bottom: "loss2/fc"
  top: "loss2/classifier_plantvillage"
  param {
    lr_mult: 1
    decay_mult: 1
  }
  param {
    lr_mult: 2
    decay_mult: 0
  }
  inner_product_param {
    num_output: 38
    weight_filler {
      type: "xavier"
      std: 0.0009765625
    }
    bias_filler {
      type: "constant"
      value: 0
    }
  }
}
layer {
  name: "inception_4e/1x1"
  type: "Convolution"
  bottom: "inception_4d/output"
  top: "inception_4e/1x1"
  param {
    lr_mult: 1
    decay_mult: 1
  }
  param {
    lr_mult: 2
    decay_mult: 0
  }
  convolution_param {
    num_output: 256
    kernel_size: 1
    weight_filler {
      type: "xavier"
      std: 0.03
    }
    bias_filler {
      type: "constant"
      value: 0.2
    }
  }
}
layer {
  name: "inception_4e/relu_1x1"
  type: "ReLU"
  bottom: "inception_4e/1x1"
  top: "inception_4e/1x1"
}
layer {
  name: "inception_4e/3x3_reduce"
  type: "Convolution"
  bottom: "inception_4d/output"
  top: "inception_4e/3x3_reduce"
  param {
    lr_mult: 1
    decay_mult: 1
  }
  param {
    lr_mult: 2
    decay_mult: 0
  }
  convolution_param {
    num_output: 160
    kernel_size: 1
    weight_filler {
      type: "xavier"
      std: 0.09
    }
    bias_filler {
      type: "constant"
      value: 0.2
    }
  }
}
layer {
  name: "inception_4e/relu_3x3_reduce"
  type: "ReLU"
  bottom: "inception_4e/3x3_reduce"
  top: "inception_4e/3x3_reduce"
}
layer {
  name: "inception_4e/3x3"
  type: "Convolution"
  bottom: "inception_4e/3x3_reduce"
  top: "inception_4e/3x3"
  param {
    lr_mult: 1
    decay_mult: 1
  }
  param {
    lr_mult: 2
    decay_mult: 0
  }
  convolution_param {
    num_output: 320
    pad: 1
    kernel_size: 3
    weight_filler {
      type: "xavier"
      std: 0.03
    }
    bias_filler {
      type: "constant"
      value: 0.2
    }
  }
}
layer {
  name: "inception_4e/relu_3x3"
  type: "ReLU"
  bottom: "inception_4e/3x3"
  top: "inception_4e/3x3"
}
layer {
  name: "inception_4e/5x5_reduce"
  type: "Convolution"
  bottom: "inception_4d/output"
  top: "inception_4e/5x5_reduce"
  param {
    lr_mult: 1
    decay_mult: 1
  }
  param {
    lr_mult: 2
    decay_mult: 0
  }
  convolution_param {
    num_output: 32
    kernel_size: 1
    weight_filler {
      type: "xavier"
      std: 0.2
    }
    bias_filler {
      type: "constant"
      value: 0.2
    }
  }
}
layer {
  name: "inception_4e/relu_5x5_reduce"
  type: "ReLU"
  bottom: "inception_4e/5x5_reduce"
  top: "inception_4e/5x5_reduce"
}
layer {
  name: "inception_4e/5x5"
  type: "Convolution"
  bottom: "inception_4e/5x5_reduce"
  top: "inception_4e/
I0403 18:21:36.652645  6857 layer_factory.hpp:77] Creating layer data
I0403 18:21:36.653272  6857 net.cpp:91] Creating Layer data
I0403 18:21:36.653303  6857 net.cpp:399] data -> data
I0403 18:21:36.653357  6857 net.cpp:399] data -> label
I0403 18:21:36.653394  6857 data_transformer.cpp:25] Loading mean file from: /home/mohanty/data/final_dataset/lmdb/segmented-50-50/mean.binaryproto
I0403 18:21:36.654502  6859 db_lmdb.cpp:38] Opened lmdb /home/mohanty/data/final_dataset/lmdb/segmented-50-50/test_db
I0403 18:21:36.666826  6857 data_layer.cpp:41] output data size: 24,3,224,224
I0403 18:21:36.695857  6857 net.cpp:141] Setting up data
I0403 18:21:36.695976  6857 net.cpp:148] Top shape: 24 3 224 224 (3612672)
I0403 18:21:36.696001  6857 net.cpp:148] Top shape: 24 (24)
I0403 18:21:36.696018  6857 net.cpp:156] Memory required for data: 14450784
I0403 18:21:36.696046  6857 layer_factory.hpp:77] Creating layer label_data_1_split
I0403 18:21:36.696076  6857 net.cpp:91] Creating Layer label_data_1_split
I0403 18:21:36.696096  6857 net.cpp:425] label_data_1_split <- label
I0403 18:21:36.696130  6857 net.cpp:399] label_data_1_split -> label_data_1_split_0
I0403 18:21:36.696159  6857 net.cpp:399] label_data_1_split -> label_data_1_split_1
I0403 18:21:36.696184  6857 net.cpp:399] label_data_1_split -> label_data_1_split_2
I0403 18:21:36.696207  6857 net.cpp:399] label_data_1_split -> label_data_1_split_3
I0403 18:21:36.696236  6857 net.cpp:399] label_data_1_split -> label_data_1_split_4
I0403 18:21:36.696259  6857 net.cpp:399] label_data_1_split -> label_data_1_split_5
I0403 18:21:36.696290  6857 net.cpp:399] label_data_1_split -> label_data_1_split_6
I0403 18:21:36.696312  6857 net.cpp:399] label_data_1_split -> label_data_1_split_7
I0403 18:21:36.696333  6857 net.cpp:399] label_data_1_split -> label_data_1_split_8
I0403 18:21:36.696355  6857 net.cpp:399] label_data_1_split -> label_data_1_split_9
I0403 18:21:36.696490  6857 net.cpp:141] Setting up label_data_1_split
I0403 18:21:36.696514  6857 net.cpp:148] Top shape: 24 (24)
I0403 18:21:36.696533  6857 net.cpp:148] Top shape: 24 (24)
I0403 18:21:36.696550  6857 net.cpp:148] Top shape: 24 (24)
I0403 18:21:36.696579  6857 net.cpp:148] Top shape: 24 (24)
I0403 18:21:36.696595  6857 net.cpp:148] Top shape: 24 (24)
I0403 18:21:36.696612  6857 net.cpp:148] Top shape: 24 (24)
I0403 18:21:36.696630  6857 net.cpp:148] Top shape: 24 (24)
I0403 18:21:36.696645  6857 net.cpp:148] Top shape: 24 (24)
I0403 18:21:36.696661  6857 net.cpp:148] Top shape: 24 (24)
I0403 18:21:36.696679  6857 net.cpp:148] Top shape: 24 (24)
I0403 18:21:36.696727  6857 net.cpp:156] Memory required for data: 14451744
I0403 18:21:36.696746  6857 layer_factory.hpp:77] Creating layer conv1/7x7_s2
I0403 18:21:36.696781  6857 net.cpp:91] Creating Layer conv1/7x7_s2
I0403 18:21:36.696800  6857 net.cpp:425] conv1/7x7_s2 <- data
I0403 18:21:36.696820  6857 net.cpp:399] conv1/7x7_s2 -> conv1/7x7_s2
I0403 18:21:36.840801  6857 net.cpp:141] Setting up conv1/7x7_s2
I0403 18:21:36.840893  6857 net.cpp:148] Top shape: 24 64 112 112 (19267584)
I0403 18:21:36.840911  6857 net.cpp:156] Memory required for data: 91522080
I0403 18:21:36.840944  6857 layer_factory.hpp:77] Creating layer conv1/relu_7x7
I0403 18:21:36.840971  6857 net.cpp:91] Creating Layer conv1/relu_7x7
I0403 18:21:36.840991  6857 net.cpp:425] conv1/relu_7x7 <- conv1/7x7_s2
I0403 18:21:36.841011  6857 net.cpp:386] conv1/relu_7x7 -> conv1/7x7_s2 (in-place)
I0403 18:21:36.841264  6857 net.cpp:141] Setting up conv1/relu_7x7
I0403 18:21:36.841291  6857 net.cpp:148] Top shape: 24 64 112 112 (19267584)
I0403 18:21:36.841307  6857 net.cpp:156] Memory required for data: 168592416
I0403 18:21:36.841323  6857 layer_factory.hpp:77] Creating layer pool1/3x3_s2
I0403 18:21:36.841348  6857 net.cpp:91] Creating Layer pool1/3x3_s2
I0403 18:21:36.841367  6857 net.cpp:425] pool1/3x3_s2 <- conv1/7x7_s2
I0403 18:21:36.841384  6857 net.cpp:399] pool1/3x3_s2 -> pool1/3x3_s2
I0403 18:21:36.841454  6857 net.cpp:141] Setting up pool1/3x3_s2
I0403 18:21:36.841478  6857 net.cpp:148] Top shape: 24 64 56 56 (4816896)
I0403 18:21:36.841493  6857 net.cpp:156] Memory required for data: 187860000
I0403 18:21:36.841508  6857 layer_factory.hpp:77] Creating layer pool1/norm1
I0403 18:21:36.841533  6857 net.cpp:91] Creating Layer pool1/norm1
I0403 18:21:36.841552  6857 net.cpp:425] pool1/norm1 <- pool1/3x3_s2
I0403 18:21:36.841570  6857 net.cpp:399] pool1/norm1 -> pool1/norm1
I0403 18:21:36.841858  6857 net.cpp:141] Setting up pool1/norm1
I0403 18:21:36.841886  6857 net.cpp:148] Top shape: 24 64 56 56 (4816896)
I0403 18:21:36.841903  6857 net.cpp:156] Memory required for data: 207127584
I0403 18:21:36.841919  6857 layer_factory.hpp:77] Creating layer conv2/3x3_reduce
I0403 18:21:36.841945  6857 net.cpp:91] Creating Layer conv2/3x3_reduce
I0403 18:21:36.841964  6857 net.cpp:425] conv2/3x3_reduce <- pool1/norm1
I0403 18:21:36.841995  6857 net.cpp:399] conv2/3x3_reduce -> conv2/3x3_reduce
I0403 18:21:36.843314  6857 net.cpp:141] Setting up conv2/3x3_reduce
I0403 18:21:36.843344  6857 net.cpp:148] Top shape: 24 64 56 56 (4816896)
I0403 18:21:36.843361  6857 net.cpp:156] Memory required for data: 226395168
I0403 18:21:36.843384  6857 layer_factory.hpp:77] Creating layer conv2/relu_3x3_reduce
I0403 18:21:36.843403  6857 net.cpp:91] Creating Layer conv2/relu_3x3_reduce
I0403 18:21:36.843420  6857 net.cpp:425] conv2/relu_3x3_reduce <- conv2/3x3_reduce
I0403 18:21:36.843437  6857 net.cpp:386] conv2/relu_3x3_reduce -> conv2/3x3_reduce (in-place)
I0403 18:21:36.843678  6857 net.cpp:141] Setting up conv2/relu_3x3_reduce
I0403 18:21:36.843704  6857 net.cpp:148] Top shape: 24 64 56 56 (4816896)
I0403 18:21:36.843720  6857 net.cpp:156] Memory required for data: 245662752
I0403 18:21:36.843736  6857 layer_factory.hpp:77] Creating layer conv2/3x3
I0403 18:21:36.843758  6857 net.cpp:91] Creating Layer conv2/3x3
I0403 18:21:36.843776  6857 net.cpp:425] conv2/3x3 <- conv2/3x3_reduce
I0403 18:21:36.843794  6857 net.cpp:399] conv2/3x3 -> conv2/3x3
I0403 18:21:36.845985  6857 net.cpp:141] Setting up conv2/3x3
I0403 18:21:36.846016  6857 net.cpp:148] Top shape: 24 192 56 56 (14450688)
I0403 18:21:36.846035  6857 net.cpp:156] Memory required for data: 303465504
I0403 18:21:36.846057  6857 layer_factory.hpp:77] Creating layer conv2/relu_3x3
I0403 18:21:36.846077  6857 net.cpp:91] Creating Layer conv2/relu_3x3
I0403 18:21:36.846096  6857 net.cpp:425] conv2/relu_3x3 <- conv2/3x3
I0403 18:21:36.846113  6857 net.cpp:386] conv2/relu_3x3 -> conv2/3x3 (in-place)
I0403 18:21:36.846273  6857 net.cpp:141] Setting up conv2/relu_3x3
I0403 18:21:36.846299  6857 net.cpp:148] Top shape: 24 192 56 56 (14450688)
I0403 18:21:36.846338  6857 net.cpp:156] Memory required for data: 361268256
I0403 18:21:36.846356  6857 layer_factory.hpp:77] Creating layer conv2/norm2
I0403 18:21:36.846375  6857 net.cpp:91] Creating Layer conv2/norm2
I0403 18:21:36.846391  6857 net.cpp:425] conv2/norm2 <- conv2/3x3
I0403 18:21:36.846410  6857 net.cpp:399] conv2/norm2 -> conv2/norm2
I0403 18:21:36.846683  6857 net.cpp:141] Setting up conv2/norm2
I0403 18:21:36.846709  6857 net.cpp:148] Top shape: 24 192 56 56 (14450688)
I0403 18:21:36.846724  6857 net.cpp:156] Memory required for data: 419071008
I0403 18:21:36.846740  6857 layer_factory.hpp:77] Creating layer pool2/3x3_s2
I0403 18:21:36.846760  6857 net.cpp:91] Creating Layer pool2/3x3_s2
I0403 18:21:36.846776  6857 net.cpp:425] pool2/3x3_s2 <- conv2/norm2
I0403 18:21:36.846793  6857 net.cpp:399] pool2/3x3_s2 -> pool2/3x3_s2
I0403 18:21:36.846840  6857 net.cpp:141] Setting up pool2/3x3_s2
I0403 18:21:36.846863  6857 net.cpp:148] Top shape: 24 192 28 28 (3612672)
I0403 18:21:36.846879  6857 net.cpp:156] Memory required for data: 433521696
I0403 18:21:36.846894  6857 layer_factory.hpp:77] Creating layer pool2/3x3_s2_pool2/3x3_s2_0_split
I0403 18:21:36.846912  6857 net.cpp:91] Creating Layer pool2/3x3_s2_pool2/3x3_s2_0_split
I0403 18:21:36.846928  6857 net.cpp:425] pool2/3x3_s2_pool2/3x3_s2_0_split <- pool2/3x3_s2
I0403 18:21:36.846946  6857 net.cpp:399] pool2/3x3_s2_pool2/3x3_s2_0_split -> pool2/3x3_s2_pool2/3x3_s2_0_split_0
I0403 18:21:36.846966  6857 net.cpp:399] pool2/3x3_s2_pool2/3x3_s2_0_split -> pool2/3x3_s2_pool2/3x3_s2_0_split_1
I0403 18:21:36.846987  6857 net.cpp:399] pool2/3x3_s2_pool2/3x3_s2_0_split -> pool2/3x3_s2_pool2/3x3_s2_0_split_2
I0403 18:21:36.847007  6857 net.cpp:399] pool2/3x3_s2_pool2/3x3_s2_0_split -> pool2/3x3_s2_pool2/3x3_s2_0_split_3
I0403 18:21:36.847069  6857 net.cpp:141] Setting up pool2/3x3_s2_pool2/3x3_s2_0_split
I0403 18:21:36.847090  6857 net.cpp:148] Top shape: 24 192 28 28 (3612672)
I0403 18:21:36.847108  6857 net.cpp:148] Top shape: 24 192 28 28 (3612672)
I0403 18:21:36.847124  6857 net.cpp:148] Top shape: 24 192 28 28 (3612672)
I0403 18:21:36.847141  6857 net.cpp:148] Top shape: 24 192 28 28 (3612672)
I0403 18:21:36.847156  6857 net.cpp:156] Memory required for data: 491324448
I0403 18:21:36.847172  6857 layer_factory.hpp:77] Creating layer inception_3a/1x1
I0403 18:21:36.847192  6857 net.cpp:91] Creating Layer inception_3a/1x1
I0403 18:21:36.847213  6857 net.cpp:425] inception_3a/1x1 <- pool2/3x3_s2_pool2/3x3_s2_0_split_0
I0403 18:21:36.847234  6857 net.cpp:399] inception_3a/1x1 -> inception_3a/1x1
I0403 18:21:36.848775  6857 net.cpp:141] Setting up inception_3a/1x1
I0403 18:21:36.848805  6857 net.cpp:148] Top shape: 24 64 28 28 (1204224)
I0403 18:21:36.848821  6857 net.cpp:156] Memory required for data: 496141344
I0403 18:21:36.848841  6857 layer_factory.hpp:77] Creating layer inception_3a/relu_1x1
I0403 18:21:36.848860  6857 net.cpp:91] Creating Layer inception_3a/relu_1x1
I0403 18:21:36.848876  6857 net.cpp:425] inception_3a/relu_1x1 <- inception_3a/1x1
I0403 18:21:36.848896  6857 net.cpp:386] inception_3a/relu_1x1 -> inception_3a/1x1 (in-place)
I0403 18:21:36.849068  6857 net.cpp:141] Setting up inception_3a/relu_1x1
I0403 18:21:36.849094  6857 net.cpp:148] Top shape: 24 64 28 28 (1204224)
I0403 18:21:36.849109  6857 net.cpp:156] Memory required for data: 500958240
I0403 18:21:36.849126  6857 layer_factory.hpp:77] Creating layer inception_3a/3x3_reduce
I0403 18:21:36.849149  6857 net.cpp:91] Creating Layer inception_3a/3x3_reduce
I0403 18:21:36.849169  6857 net.cpp:425] inception_3a/3x3_reduce <- pool2/3x3_s2_pool2/3x3_s2_0_split_1
I0403 18:21:36.849190  6857 net.cpp:399] inception_3a/3x3_reduce -> inception_3a/3x3_reduce
I0403 18:21:36.850859  6857 net.cpp:141] Setting up inception_3a/3x3_reduce
I0403 18:21:36.850888  6857 net.cpp:148] Top shape: 24 96 28 28 (1806336)
I0403 18:21:36.850908  6857 net.cpp:156] Memory required for data: 508183584
I0403 18:21:36.850929  6857 layer_factory.hpp:77] Creating layer inception_3a/relu_3x3_reduce
I0403 18:21:36.850968  6857 net.cpp:91] Creating Layer inception_3a/relu_3x3_reduce
I0403 18:21:36.850987  6857 net.cpp:425] inception_3a/relu_3x3_reduce <- inception_3a/3x3_reduce
I0403 18:21:36.851006  6857 net.cpp:386] inception_3a/relu_3x3_reduce -> inception_3a/3x3_reduce (in-place)
I0403 18:21:36.851181  6857 net.cpp:141] Setting up inception_3a/relu_3x3_reduce
I0403 18:21:36.851217  6857 net.cpp:148] Top shape: 24 96 28 28 (1806336)
I0403 18:21:36.851235  6857 net.cpp:156] Memory required for data: 515408928
I0403 18:21:36.851250  6857 layer_factory.hpp:77] Creating layer inception_3a/3x3
I0403 18:21:36.851274  6857 net.cpp:91] Creating Layer inception_3a/3x3
I0403 18:21:36.851292  6857 net.cpp:425] inception_3a/3x3 <- inception_3a/3x3_reduce
I0403 18:21:36.851313  6857 net.cpp:399] inception_3a/3x3 -> inception_3a/3x3
I0403 18:21:36.852943  6857 net.cpp:141] Setting up inception_3a/3x3
I0403 18:21:36.852973  6857 net.cpp:148] Top shape: 24 128 28 28 (2408448)
I0403 18:21:36.852990  6857 net.cpp:156] Memory required for data: 525042720
I0403 18:21:36.853009  6857 layer_factory.hpp:77] Creating layer inception_3a/relu_3x3
I0403 18:21:36.853029  6857 net.cpp:91] Creating Layer inception_3a/relu_3x3
I0403 18:21:36.853045  6857 net.cpp:425] inception_3a/relu_3x3 <- inception_3a/3x3
I0403 18:21:36.853066  6857 net.cpp:386] inception_3a/relu_3x3 -> inception_3a/3x3 (in-place)
I0403 18:21:36.853340  6857 net.cpp:141] Setting up inception_3a/relu_3x3
I0403 18:21:36.853368  6857 net.cpp:148] Top shape: 24 128 28 28 (2408448)
I0403 18:21:36.853385  6857 net.cpp:156] Memory required for data: 534676512
I0403 18:21:36.853401  6857 layer_factory.hpp:77] Creating layer inception_3a/5x5_reduce
I0403 18:21:36.853423  6857 net.cpp:91] Creating Layer inception_3a/5x5_reduce
I0403 18:21:36.853442  6857 net.cpp:425] inception_3a/5x5_reduce <- pool2/3x3_s2_pool2/3x3_s2_0_split_2
I0403 18:21:36.853464  6857 net.cpp:399] inception_3a/5x5_reduce -> inception_3a/5x5_reduce
I0403 18:21:36.854406  6857 net.cpp:141] Setting up inception_3a/5x5_reduce
I0403 18:21:36.854434  6857 net.cpp:148] Top shape: 24 16 28 28 (301056)
I0403 18:21:36.854450  6857 net.cpp:156] Memory required for data: 535880736
I0403 18:21:36.854470  6857 layer_factory.hpp:77] Creating layer inception_3a/relu_5x5_reduce
I0403 18:21:36.854491  6857 net.cpp:91] Creating Layer inception_3a/relu_5x5_reduce
I0403 18:21:36.854509  6857 net.cpp:425] inception_3a/relu_5x5_reduce <- inception_3a/5x5_reduce
I0403 18:21:36.854527  6857 net.cpp:386] inception_3a/relu_5x5_reduce -> inception_3a/5x5_reduce (in-place)
I0403 18:21:36.854801  6857 net.cpp:141] Setting up inception_3a/relu_5x5_reduce
I0403 18:21:36.854827  6857 net.cpp:148] Top shape: 24 16 28 28 (301056)
I0403 18:21:36.854845  6857 net.cpp:156] Memory required for data: 537084960
I0403 18:21:36.854859  6857 layer_factory.hpp:77] Creating layer inception_3a/5x5
I0403 18:21:36.854887  6857 net.cpp:91] Creating Layer inception_3a/5x5
I0403 18:21:36.854907  6857 net.cpp:425] inception_3a/5x5 <- inception_3a/5x5_reduce
I0403 18:21:36.854926  6857 net.cpp:399] inception_3a/5x5 -> inception_3a/5x5
I0403 18:21:36.855916  6857 net.cpp:141] Setting up inception_3a/5x5
I0403 18:21:36.855942  6857 net.cpp:148] Top shape: 24 32 28 28 (602112)
I0403 18:21:36.855960  6857 net.cpp:156] Memory required for data: 539493408
I0403 18:21:36.855979  6857 layer_factory.hpp:77] Creating layer inception_3a/relu_5x5
I0403 18:21:36.855998  6857 net.cpp:91] Creating Layer inception_3a/relu_5x5
I0403 18:21:36.856014  6857 net.cpp:425] inception_3a/relu_5x5 <- inception_3a/5x5
I0403 18:21:36.856034  6857 net.cpp:386] inception_3a/relu_5x5 -> inception_3a/5x5 (in-place)
I0403 18:21:36.856204  6857 net.cpp:141] Setting up inception_3a/relu_5x5
I0403 18:21:36.856235  6857 net.cpp:148] Top shape: 24 32 28 28 (602112)
I0403 18:21:36.856250  6857 net.cpp:156] Memory required for data: 541901856
I0403 18:21:36.856266  6857 layer_factory.hpp:77] Creating layer inception_3a/pool
I0403 18:21:36.856299  6857 net.cpp:91] Creating Layer inception_3a/pool
I0403 18:21:36.856330  6857 net.cpp:425] inception_3a/pool <- pool2/3x3_s2_pool2/3x3_s2_0_split_3
I0403 18:21:36.856350  6857 net.cpp:399] inception_3a/pool -> inception_3a/pool
I0403 18:21:36.856408  6857 net.cpp:141] Setting up inception_3a/pool
I0403 18:21:36.856433  6857 net.cpp:148] Top shape: 24 192 28 28 (3612672)
I0403 18:21:36.856449  6857 net.cpp:156] Memory required for data: 556352544
I0403 18:21:36.856464  6857 layer_factory.hpp:77] Creating layer inception_3a/pool_proj
I0403 18:21:36.856487  6857 net.cpp:91] Creating Layer inception_3a/pool_proj
I0403 18:21:36.856506  6857 net.cpp:425] inception_3a/pool_proj <- inception_3a/pool
I0403 18:21:36.856529  6857 net.cpp:399] inception_3a/pool_proj -> inception_3a/pool_proj
I0403 18:21:36.857489  6857 net.cpp:141] Setting up inception_3a/pool_proj
I0403 18:21:36.857520  6857 net.cpp:148] Top shape: 24 32 28 28 (602112)
I0403 18:21:36.857539  6857 net.cpp:156] Memory required for data: 558760992
I0403 18:21:36.857563  6857 layer_factory.hpp:77] Creating layer inception_3a/relu_pool_proj
I0403 18:21:36.857584  6857 net.cpp:91] Creating Layer inception_3a/relu_pool_proj
I0403 18:21:36.857604  6857 net.cpp:425] inception_3a/relu_pool_proj <- inception_3a/pool_proj
I0403 18:21:36.857621  6857 net.cpp:386] inception_3a/relu_pool_proj -> inception_3a/pool_proj (in-place)
I0403 18:21:36.857892  6857 net.cpp:141] Setting up inception_3a/relu_pool_proj
I0403 18:21:36.857918  6857 net.cpp:148] Top shape: 24 32 28 28 (602112)
I0403 18:21:36.857933  6857 net.cpp:156] Memory required for data: 561169440
I0403 18:21:36.857949  6857 layer_factory.hpp:77] Creating layer inception_3a/output
I0403 18:21:36.857967  6857 net.cpp:91] Creating Layer inception_3a/output
I0403 18:21:36.857983  6857 net.cpp:425] inception_3a/output <- inception_3a/1x1
I0403 18:21:36.858000  6857 net.cpp:425] inception_3a/output <- inception_3a/3x3
I0403 18:21:36.858017  6857 net.cpp:425] inception_3a/output <- inception_3a/5x5
I0403 18:21:36.858033  6857 net.cpp:425] inception_3a/output <- inception_3a/pool_proj
I0403 18:21:36.858057  6857 net.cpp:399] inception_3a/output -> inception_3a/output
I0403 18:21:36.858104  6857 net.cpp:141] Setting up inception_3a/output
I0403 18:21:36.858130  6857 net.cpp:148] Top shape: 24 256 28 28 (4816896)
I0403 18:21:36.858147  6857 net.cpp:156] Memory required for data: 580437024
I0403 18:21:36.858162  6857 layer_factory.hpp:77] Creating layer inception_3a/output_inception_3a/output_0_split
I0403 18:21:36.858180  6857 net.cpp:91] Creating Layer inception_3a/output_inception_3a/output_0_split
I0403 18:21:36.858196  6857 net.cpp:425] inception_3a/output_inception_3a/output_0_split <- inception_3a/output
I0403 18:21:36.858220  6857 net.cpp:399] inception_3a/output_inception_3a/output_0_split -> inception_3a/output_inception_3a/output_0_split_0
I0403 18:21:36.858243  6857 net.cpp:399] inception_3a/output_inception_3a/output_0_split -> inception_3a/output_inception_3a/output_0_split_1
I0403 18:21:36.858268  6857 net.cpp:399] inception_3a/output_inception_3a/output_0_split -> inception_3a/output_inception_3a/output_0_split_2
I0403 18:21:36.858290  6857 net.cpp:399] inception_3a/output_inception_3a/output_0_split -> inception_3a/output_inception_3a/output_0_split_3
I0403 18:21:36.858366  6857 net.cpp:141] Setting up inception_3a/output_inception_3a/output_0_split
I0403 18:21:36.858392  6857 net.cpp:148] Top shape: 24 256 28 28 (4816896)
I0403 18:21:36.858410  6857 net.cpp:148] Top shape: 24 256 28 28 (4816896)
I0403 18:21:36.858428  6857 net.cpp:148] Top shape: 24 256 28 28 (4816896)
I0403 18:21:36.858443  6857 net.cpp:148] Top shape: 24 256 28 28 (4816896)
I0403 18:21:36.858458  6857 net.cpp:156] Memory required for data: 657507360
I0403 18:21:36.858474  6857 layer_factory.hpp:77] Creating layer inception_3b/1x1
I0403 18:21:36.858497  6857 net.cpp:91] Creating Layer inception_3b/1x1
I0403 18:21:36.858515  6857 net.cpp:425] inception_3b/1x1 <- inception_3a/output_inception_3a/output_0_split_0
I0403 18:21:36.858536  6857 net.cpp:399] inception_3b/1x1 -> inception_3b/1x1
I0403 18:21:36.859669  6857 net.cpp:141] Setting up inception_3b/1x1
I0403 18:21:36.859710  6857 net.cpp:148] Top shape: 24 128 28 28 (2408448)
I0403 18:21:36.859727  6857 net.cpp:156] Memory required for data: 667141152
I0403 18:21:36.859747  6857 layer_factory.hpp:77] Creating layer inception_3b/relu_1x1
I0403 18:21:36.859766  6857 net.cpp:91] Creating Layer inception_3b/relu_1x1
I0403 18:21:36.859781  6857 net.cpp:425] inception_3b/relu_1x1 <- inception_3b/1x1
I0403 18:21:36.859802  6857 net.cpp:386] inception_3b/relu_1x1 -> inception_3b/1x1 (in-place)
I0403 18:21:36.859973  6857 net.cpp:141] Setting up inception_3b/relu_1x1
I0403 18:21:36.859999  6857 net.cpp:148] Top shape: 24 128 28 28 (2408448)
I0403 18:21:36.860015  6857 net.cpp:156] Memory required for data: 676774944
I0403 18:21:36.860031  6857 layer_factory.hpp:77] Creating layer inception_3b/3x3_reduce
I0403 18:21:36.860054  6857 net.cpp:91] Creating Layer inception_3b/3x3_reduce
I0403 18:21:36.860071  6857 net.cpp:425] inception_3b/3x3_reduce <- inception_3a/output_inception_3a/output_0_split_1
I0403 18:21:36.860095  6857 net.cpp:399] inception_3b/3x3_reduce -> inception_3b/3x3_reduce
I0403 18:21:36.861229  6857 net.cpp:141] Setting up inception_3b/3x3_reduce
I0403 18:21:36.861261  6857 net.cpp:148] Top shape: 24 128 28 28 (2408448)
I0403 18:21:36.861279  6857 net.cpp:156] Memory required for data: 686408736
I0403 18:21:36.861299  6857 layer_factory.hpp:77] Creating layer inception_3b/relu_3x3_reduce
I0403 18:21:36.861317  6857 net.cpp:91] Creating Layer inception_3b/relu_3x3_reduce
I0403 18:21:36.861333  6857 net.cpp:425] inception_3b/relu_3x3_reduce <- inception_3b/3x3_reduce
I0403 18:21:36.861354  6857 net.cpp:386] inception_3b/relu_3x3_reduce -> inception_3b/3x3_reduce (in-place)
I0403 18:21:36.861527  6857 net.cpp:141] Setting up inception_3b/relu_3x3_reduce
I0403 18:21:36.861552  6857 net.cpp:148] Top shape: 24 128 28 28 (2408448)
I0403 18:21:36.861568  6857 net.cpp:156] Memory required for data: 696042528
I0403 18:21:36.861583  6857 layer_factory.hpp:77] Creating layer inception_3b/3x3
I0403 18:21:36.861611  6857 net.cpp:91] Creating Layer inception_3b/3x3
I0403 18:21:36.861630  6857 net.cpp:425] inception_3b/3x3 <- inception_3b/3x3_reduce
I0403 18:21:36.861651  6857 net.cpp:399] inception_3b/3x3 -> inception_3b/3x3
I0403 18:21:36.864584  6857 net.cpp:141] Setting up inception_3b/3x3
I0403 18:21:36.864614  6857 net.cpp:148] Top shape: 24 192 28 28 (3612672)
I0403 18:21:36.864630  6857 net.cpp:156] Memory required for data: 710493216
I0403 18:21:36.864648  6857 layer_factory.hpp:77] Creating layer inception_3b/relu_3x3
I0403 18:21:36.864670  6857 net.cpp:91] Creating Layer inception_3b/relu_3x3
I0403 18:21:36.864687  6857 net.cpp:425] inception_3b/relu_3x3 <- inception_3b/3x3
I0403 18:21:36.864709  6857 net.cpp:386] inception_3b/relu_3x3 -> inception_3b/3x3 (in-place)
I0403 18:21:36.864977  6857 net.cpp:141] Setting up inception_3b/relu_3x3
I0403 18:21:36.865003  6857 net.cpp:148] Top shape: 24 192 28 28 (3612672)
I0403 18:21:36.865020  6857 net.cpp:156] Memory required for data: 724943904
I0403 18:21:36.865036  6857 layer_factory.hpp:77] Creating layer inception_3b/5x5_reduce
I0403 18:21:36.865059  6857 net.cpp:91] Creating Layer inception_3b/5x5_reduce
I0403 18:21:36.865077  6857 net.cpp:425] inception_3b/5x5_reduce <- inception_3a/output_inception_3a/output_0_split_2
I0403 18:21:36.865100  6857 net.cpp:399] inception_3b/5x5_reduce -> inception_3b/5x5_reduce
I0403 18:21:36.866096  6857 net.cpp:141] Setting up inception_3b/5x5_reduce
I0403 18:21:36.866123  6857 net.cpp:148] Top shape: 24 32 28 28 (602112)
I0403 18:21:36.866139  6857 net.cpp:156] Memory required for data: 727352352
I0403 18:21:36.866158  6857 layer_factory.hpp:77] Creating layer inception_3b/relu_5x5_reduce
I0403 18:21:36.866178  6857 net.cpp:91] Creating Layer inception_3b/relu_5x5_reduce
I0403 18:21:36.866194  6857 net.cpp:425] inception_3b/relu_5x5_reduce <- inception_3b/5x5_reduce
I0403 18:21:36.866219  6857 net.cpp:386] inception_3b/relu_5x5_reduce -> inception_3b/5x5_reduce (in-place)
I0403 18:21:36.866410  6857 net.cpp:141] Setting up inception_3b/relu_5x5_reduce
I0403 18:21:36.866436  6857 net.cpp:148] Top shape: 24 32 28 28 (602112)
I0403 18:21:36.866451  6857 net.cpp:156] Memory required for data: 729760800
I0403 18:21:36.866467  6857 layer_factory.hpp:77] Creating layer inception_3b/5x5
I0403 18:21:36.866490  6857 net.cpp:91] Creating Layer inception_3b/5x5
I0403 18:21:36.866509  6857 net.cpp:425] inception_3b/5x5 <- inception_3b/5x5_reduce
I0403 18:21:36.866531  6857 net.cpp:399] inception_3b/5x5 -> inception_3b/5x5
I0403 18:21:36.868496  6857 net.cpp:141] Setting up inception_3b/5x5
I0403 18:21:36.868530  6857 net.cpp:148] Top shape: 24 96 28 28 (1806336)
I0403 18:21:36.868548  6857 net.cpp:156] Memory required for data: 736986144
I0403 18:21:36.868582  6857 layer_factory.hpp:77] Creating layer inception_3b/relu_5x5
I0403 18:21:36.868602  6857 net.cpp:91] Creating Layer inception_3b/relu_5x5
I0403 18:21:36.868620  6857 net.cpp:425] inception_3b/relu_5x5 <- inception_3b/5x5
I0403 18:21:36.868641  6857 net.cpp:386] inception_3b/relu_5x5 -> inception_3b/5x5 (in-place)
I0403 18:21:36.868834  6857 net.cpp:141] Setting up inception_3b/relu_5x5
I0403 18:21:36.868860  6857 net.cpp:148] Top shape: 24 96 28 28 (1806336)
I0403 18:21:36.868875  6857 net.cpp:156] Memory required for data: 744211488
I0403 18:21:36.868891  6857 layer_factory.hpp:77] Creating layer inception_3b/pool
I0403 18:21:36.868911  6857 net.cpp:91] Creating Layer inception_3b/pool
I0403 18:21:36.868927  6857 net.cpp:425] inception_3b/pool <- inception_3a/output_inception_3a/output_0_split_3
I0403 18:21:36.868945  6857 net.cpp:399] inception_3b/pool -> inception_3b/pool
I0403 18:21:36.869004  6857 net.cpp:141] Setting up inception_3b/pool
I0403 18:21:36.869027  6857 net.cpp:148] Top shape: 24 256 28 28 (4816896)
I0403 18:21:36.869043  6857 net.cpp:156] Memory required for data: 763479072
I0403 18:21:36.869060  6857 layer_factory.hpp:77] Creating layer inception_3b/pool_proj
I0403 18:21:36.869081  6857 net.cpp:91] Creating Layer inception_3b/pool_proj
I0403 18:21:36.869099  6857 net.cpp:425] inception_3b/pool_proj <- inception_3b/pool
I0403 18:21:36.869122  6857 net.cpp:399] inception_3b/pool_proj -> inception_3b/pool_proj
I0403 18:21:36.870270  6857 net.cpp:141] Setting up inception_3b/pool_proj
I0403 18:21:36.870298  6857 net.cpp:148] Top shape: 24 64 28 28 (1204224)
I0403 18:21:36.870314  6857 net.cpp:156] Memory required for data: 768295968
I0403 18:21:36.870335  6857 layer_factory.hpp:77] Creating layer inception_3b/relu_pool_proj
I0403 18:21:36.870357  6857 net.cpp:91] Creating Layer inception_3b/relu_pool_proj
I0403 18:21:36.870376  6857 net.cpp:425] inception_3b/relu_pool_proj <- inception_3b/pool_proj
I0403 18:21:36.870394  6857 net.cpp:386] inception_3b/relu_pool_proj -> inception_3b/pool_proj (in-place)
I0403 18:21:36.870789  6857 net.cpp:141] Setting up inception_3b/relu_pool_proj
I0403 18:21:36.870816  6857 net.cpp:148] Top shape: 24 64 28 28 (1204224)
I0403 18:21:36.870833  6857 net.cpp:156] Memory required for data: 773112864
I0403 18:21:36.870848  6857 layer_factory.hpp:77] Creating layer inception_3b/output
I0403 18:21:36.870867  6857 net.cpp:91] Creating Layer inception_3b/output
I0403 18:21:36.870884  6857 net.cpp:425] inception_3b/output <- inception_3b/1x1
I0403 18:21:36.870905  6857 net.cpp:425] inception_3b/output <- inception_3b/3x3
I0403 18:21:36.870923  6857 net.cpp:425] inception_3b/output <- inception_3b/5x5
I0403 18:21:36.870940  6857 net.cpp:425] inception_3b/output <- inception_3b/pool_proj
I0403 18:21:36.870959  6857 net.cpp:399] inception_3b/output -> inception_3b/output
I0403 18:21:36.871006  6857 net.cpp:141] Setting up inception_3b/output
I0403 18:21:36.871029  6857 net.cpp:148] Top shape: 24 480 28 28 (9031680)
I0403 18:21:36.871047  6857 net.cpp:156] Memory required for data: 809239584
I0403 18:21:36.871062  6857 layer_factory.hpp:77] Creating layer pool3/3x3_s2
I0403 18:21:36.871080  6857 net.cpp:91] Creating Layer pool3/3x3_s2
I0403 18:21:36.871098  6857 net.cpp:425] pool3/3x3_s2 <- inception_3b/output
I0403 18:21:36.871134  6857 net.cpp:399] pool3/3x3_s2 -> pool3/3x3_s2
I0403 18:21:36.871193  6857 net.cpp:141] Setting up pool3/3x3_s2
I0403 18:21:36.871223  6857 net.cpp:148] Top shape: 24 480 14 14 (2257920)
I0403 18:21:36.871240  6857 net.cpp:156] Memory required for data: 818271264
I0403 18:21:36.871258  6857 layer_factory.hpp:77] Creating layer pool3/3x3_s2_pool3/3x3_s2_0_split
I0403 18:21:36.871290  6857 net.cpp:91] Creating Layer pool3/3x3_s2_pool3/3x3_s2_0_split
I0403 18:21:36.871309  6857 net.cpp:425] pool3/3x3_s2_pool3/3x3_s2_0_split <- pool3/3x3_s2
I0403 18:21:36.871330  6857 net.cpp:399] pool3/3x3_s2_pool3/3x3_s2_0_split -> pool3/3x3_s2_pool3/3x3_s2_0_split_0
I0403 18:21:36.871353  6857 net.cpp:399] pool3/3x3_s2_pool3/3x3_s2_0_split -> pool3/3x3_s2_pool3/3x3_s2_0_split_1
I0403 18:21:36.871376  6857 net.cpp:399] pool3/3x3_s2_pool3/3x3_s2_0_split -> pool3/3x3_s2_pool3/3x3_s2_0_split_2
I0403 18:21:36.871397  6857 net.cpp:399] pool3/3x3_s2_pool3/3x3_s2_0_split -> pool3/3x3_s2_pool3/3x3_s2_0_split_3
I0403 18:21:36.871476  6857 net.cpp:141] Setting up pool3/3x3_s2_pool3/3x3_s2_0_split
I0403 18:21:36.871501  6857 net.cpp:148] Top shape: 24 480 14 14 (2257920)
I0403 18:21:36.871520  6857 net.cpp:148] Top shape: 24 480 14 14 (2257920)
I0403 18:21:36.871537  6857 net.cpp:148] Top shape: 24 480 14 14 (2257920)
I0403 18:21:36.871554  6857 net.cpp:148] Top shape: 24 480 14 14 (2257920)
I0403 18:21:36.871582  6857 net.cpp:156] Memory required for data: 854397984
I0403 18:21:36.871598  6857 layer_factory.hpp:77] Creating layer inception_4a/1x1
I0403 18:21:36.871621  6857 net.cpp:91] Creating Layer inception_4a/1x1
I0403 18:21:36.871640  6857 net.cpp:425] inception_4a/1x1 <- pool3/3x3_s2_pool3/3x3_s2_0_split_0
I0403 18:21:36.871664  6857 net.cpp:399] inception_4a/1x1 -> inception_4a/1x1
I0403 18:21:36.873281  6857 net.cpp:141] Setting up inception_4a/1x1
I0403 18:21:36.873312  6857 net.cpp:148] Top shape: 24 192 14 14 (903168)
I0403 18:21:36.873330  6857 net.cpp:156] Memory required for data: 858010656
I0403 18:21:36.873350  6857 layer_factory.hpp:77] Creating layer inception_4a/relu_1x1
I0403 18:21:36.873369  6857 net.cpp:91] Creating Layer inception_4a/relu_1x1
I0403 18:21:36.873386  6857 net.cpp:425] inception_4a/relu_1x1 <- inception_4a/1x1
I0403 18:21:36.873404  6857 net.cpp:386] inception_4a/relu_1x1 -> inception_4a/1x1 (in-place)
I0403 18:21:36.873585  6857 net.cpp:141] Setting up inception_4a/relu_1x1
I0403 18:21:36.873613  6857 net.cpp:148] Top shape: 24 192 14 14 (903168)
I0403 18:21:36.873632  6857 net.cpp:156] Memory required for data: 861623328
I0403 18:21:36.873647  6857 layer_factory.hpp:77] Creating layer inception_4a/3x3_reduce
I0403 18:21:36.873672  6857 net.cpp:91] Creating Layer inception_4a/3x3_reduce
I0403 18:21:36.873689  6857 net.cpp:425] inception_4a/3x3_reduce <- pool3/3x3_s2_pool3/3x3_s2_0_split_1
I0403 18:21:36.873713  6857 net.cpp:399] inception_4a/3x3_reduce -> inception_4a/3x3_reduce
I0403 18:21:36.874979  6857 net.cpp:141] Setting up inception_4a/3x3_reduce
I0403 18:21:36.875007  6857 net.cpp:148] Top shape: 24 96 14 14 (451584)
I0403 18:21:36.875025  6857 net.cpp:156] Memory required for data: 863429664
I0403 18:21:36.875053  6857 layer_factory.hpp:77] Creating layer inception_4a/relu_3x3_reduce
I0403 18:21:36.875077  6857 net.cpp:91] Creating Layer inception_4a/relu_3x3_reduce
I0403 18:21:36.875093  6857 net.cpp:425] inception_4a/relu_3x3_reduce <- inception_4a/3x3_reduce
I0403 18:21:36.875111  6857 net.cpp:386] inception_4a/relu_3x3_reduce -> inception_4a/3x3_reduce (in-place)
I0403 18:21:36.875294  6857 net.cpp:141] Setting up inception_4a/relu_3x3_reduce
I0403 18:21:36.875324  6857 net.cpp:148] Top shape: 24 96 14 14 (451584)
I0403 18:21:36.875344  6857 net.cpp:156] Memory required for data: 865236000
I0403 18:21:36.875360  6857 layer_factory.hpp:77] Creating layer inception_4a/3x3
I0403 18:21:36.875385  6857 net.cpp:91] Creating Layer inception_4a/3x3
I0403 18:21:36.875403  6857 net.cpp:425] inception_4a/3x3 <- inception_4a/3x3_reduce
I0403 18:21:36.875424  6857 net.cpp:399] inception_4a/3x3 -> inception_4a/3x3
I0403 18:21:36.878161  6857 net.cpp:141] Setting up inception_4a/3x3
I0403 18:21:36.878191  6857 net.cpp:148] Top shape: 24 208 14 14 (978432)
I0403 18:21:36.878212  6857 net.cpp:156] Memory required for data: 869149728
I0403 18:21:36.878235  6857 layer_factory.hpp:77] Creating layer inception_4a/relu_3x3
I0403 18:21:36.878254  6857 net.cpp:91] Creating Layer inception_4a/relu_3x3
I0403 18:21:36.878270  6857 net.cpp:425] inception_4a/relu_3x3 <- inception_4a/3x3
I0403 18:21:36.878291  6857 net.cpp:386] inception_4a/relu_3x3 -> inception_4a/3x3 (in-place)
I0403 18:21:36.878574  6857 net.cpp:141] Setting up inception_4a/relu_3x3
I0403 18:21:36.878602  6857 net.cpp:148] Top shape: 24 208 14 14 (978432)
I0403 18:21:36.878618  6857 net.cpp:156] Memory required for data: 873063456
I0403 18:21:36.878634  6857 layer_factory.hpp:77] Creating layer inception_4a/5x5_reduce
I0403 18:21:36.878657  6857 net.cpp:91] Creating Layer inception_4a/5x5_reduce
I0403 18:21:36.878677  6857 net.cpp:425] inception_4a/5x5_reduce <- pool3/3x3_s2_pool3/3x3_s2_0_split_2
I0403 18:21:36.878701  6857 net.cpp:399] inception_4a/5x5_reduce -> inception_4a/5x5_reduce
I0403 18:21:36.879726  6857 net.cpp:141] Setting up inception_4a/5x5_reduce
I0403 18:21:36.879753  6857 net.cpp:148] Top shape: 24 16 14 14 (75264)
I0403 18:21:36.879770  6857 net.cpp:156] Memory required for data: 873364512
I0403 18:21:36.879791  6857 layer_factory.hpp:77] Creating layer inception_4a/relu_5x5_reduce
I0403 18:21:36.879808  6857 net.cpp:91] Creating Layer inception_4a/relu_5x5_reduce
I0403 18:21:36.879825  6857 net.cpp:425] inception_4a/relu_5x5_reduce <- inception_4a/5x5_reduce
I0403 18:21:36.879848  6857 net.cpp:386] inception_4a/relu_5x5_reduce -> inception_4a/5x5_reduce (in-place)
I0403 18:21:36.880024  6857 net.cpp:141] Setting up inception_4a/relu_5x5_reduce
I0403 18:21:36.880050  6857 net.cpp:148] Top shape: 24 16 14 14 (75264)
I0403 18:21:36.880065  6857 net.cpp:156] Memory required for data: 873665568
I0403 18:21:36.880081  6857 layer_factory.hpp:77] Creating layer inception_4a/5x5
I0403 18:21:36.880105  6857 net.cpp:91] Creating Layer inception_4a/5x5
I0403 18:21:36.880125  6857 net.cpp:425] inception_4a/5x5 <- inception_4a/5x5_reduce
I0403 18:21:36.880146  6857 net.cpp:399] inception_4a/5x5 -> inception_4a/5x5
I0403 18:21:36.881306  6857 net.cpp:141] Setting up inception_4a/5x5
I0403 18:21:36.881336  6857 net.cpp:148] Top shape: 24 48 14 14 (225792)
I0403 18:21:36.881353  6857 net.cpp:156] Memory required for data: 874568736
I0403 18:21:36.881374  6857 layer_factory.hpp:77] Creating layer inception_4a/relu_5x5
I0403 18:21:36.881397  6857 net.cpp:91] Creating Layer inception_4a/relu_5x5
I0403 18:21:36.881413  6857 net.cpp:425] inception_4a/relu_5x5 <- inception_4a/5x5
I0403 18:21:36.881433  6857 net.cpp:386] inception_4a/relu_5x5 -> inception_4a/5x5 (in-place)
I0403 18:21:36.881608  6857 net.cpp:141] Setting up inception_4a/relu_5x5
I0403 18:21:36.881636  6857 net.cpp:148] Top shape: 24 48 14 14 (225792)
I0403 18:21:36.881654  6857 net.cpp:156] Memory required for data: 875471904
I0403 18:21:36.881670  6857 layer_factory.hpp:77] Creating layer inception_4a/pool
I0403 18:21:36.881690  6857 net.cpp:91] Creating Layer inception_4a/pool
I0403 18:21:36.881707  6857 net.cpp:425] inception_4a/pool <- pool3/3x3_s2_pool3/3x3_s2_0_split_3
I0403 18:21:36.881726  6857 net.cpp:399] inception_4a/pool -> inception_4a/pool
I0403 18:21:36.881803  6857 net.cpp:141] Setting up inception_4a/pool
I0403 18:21:36.881829  6857 net.cpp:148] Top shape: 24 480 14 14 (2257920)
I0403 18:21:36.881844  6857 net.cpp:156] Memory required for data: 884503584
I0403 18:21:36.881860  6857 layer_factory.hpp:77] Creating layer inception_4a/pool_proj
I0403 18:21:36.881885  6857 net.cpp:91] Creating Layer inception_4a/pool_proj
I0403 18:21:36.881904  6857 net.cpp:425] inception_4a/pool_proj <- inception_4a/pool
I0403 18:21:36.881927  6857 net.cpp:399] inception_4a/pool_proj -> inception_4a/pool_proj
I0403 18:21:36.883119  6857 net.cpp:141] Setting up inception_4a/pool_proj
I0403 18:21:36.883152  6857 net.cpp:148] Top shape: 24 64 14 14 (301056)
I0403 18:21:36.883183  6857 net.cpp:156] Memory required for data: 885707808
I0403 18:21:36.883203  6857 layer_factory.hpp:77] Creating layer inception_4a/relu_pool_proj
I0403 18:21:36.883232  6857 net.cpp:91] Creating Layer inception_4a/relu_pool_proj
I0403 18:21:36.883252  6857 net.cpp:425] inception_4a/relu_pool_proj <- inception_4a/pool_proj
I0403 18:21:36.883270  6857 net.cpp:386] inception_4a/relu_pool_proj -> inception_4a/pool_proj (in-place)
I0403 18:21:36.883553  6857 net.cpp:141] Setting up inception_4a/relu_pool_proj
I0403 18:21:36.883579  6857 net.cpp:148] Top shape: 24 64 14 14 (301056)
I0403 18:21:36.883595  6857 net.cpp:156] Memory required for data: 886912032
I0403 18:21:36.883612  6857 layer_factory.hpp:77] Creating layer inception_4a/output
I0403 18:21:36.883635  6857 net.cpp:91] Creating Layer inception_4a/output
I0403 18:21:36.883652  6857 net.cpp:425] inception_4a/output <- inception_4a/1x1
I0403 18:21:36.883671  6857 net.cpp:425] inception_4a/output <- inception_4a/3x3
I0403 18:21:36.883687  6857 net.cpp:425] inception_4a/output <- inception_4a/5x5
I0403 18:21:36.883703  6857 net.cpp:425] inception_4a/output <- inception_4a/pool_proj
I0403 18:21:36.883721  6857 net.cpp:399] inception_4a/output -> inception_4a/output
I0403 18:21:36.883769  6857 net.cpp:141] Setting up inception_4a/output
I0403 18:21:36.883793  6857 net.cpp:148] Top shape: 24 512 14 14 (2408448)
I0403 18:21:36.883810  6857 net.cpp:156] Memory required for data: 896545824
I0403 18:21:36.883826  6857 layer_factory.hpp:77] Creating layer inception_4a/output_inception_4a/output_0_split
I0403 18:21:36.883844  6857 net.cpp:91] Creating Layer inception_4a/output_inception_4a/output_0_split
I0403 18:21:36.883862  6857 net.cpp:425] inception_4a/output_inception_4a/output_0_split <- inception_4a/output
I0403 18:21:36.883882  6857 net.cpp:399] inception_4a/output_inception_4a/output_0_split -> inception_4a/output_inception_4a/output_0_split_0
I0403 18:21:36.883905  6857 net.cpp:399] inception_4a/output_inception_4a/output_0_split -> inception_4a/output_inception_4a/output_0_split_1
I0403 18:21:36.883929  6857 net.cpp:399] inception_4a/output_inception_4a/output_0_split -> inception_4a/output_inception_4a/output_0_split_2
I0403 18:21:36.883950  6857 net.cpp:399] inception_4a/output_inception_4a/output_0_split -> inception_4a/output_inception_4a/output_0_split_3
I0403 18:21:36.883980  6857 net.cpp:399] inception_4a/output_inception_4a/output_0_split -> inception_4a/output_inception_4a/output_0_split_4
I0403 18:21:36.884074  6857 net.cpp:141] Setting up inception_4a/output_inception_4a/output_0_split
I0403 18:21:36.884099  6857 net.cpp:148] Top shape: 24 512 14 14 (2408448)
I0403 18:21:36.884117  6857 net.cpp:148] Top shape: 24 512 14 14 (2408448)
I0403 18:21:36.884135  6857 net.cpp:148] Top shape: 24 512 14 14 (2408448)
I0403 18:21:36.884150  6857 net.cpp:148] Top shape: 24 512 14 14 (2408448)
I0403 18:21:36.884167  6857 net.cpp:148] Top shape: 24 512 14 14 (2408448)
I0403 18:21:36.884182  6857 net.cpp:156] Memory required for data: 944714784
I0403 18:21:36.884198  6857 layer_factory.hpp:77] Creating layer loss1/ave_pool
I0403 18:21:36.884222  6857 net.cpp:91] Creating Layer loss1/ave_pool
I0403 18:21:36.884240  6857 net.cpp:425] loss1/ave_pool <- inception_4a/output_inception_4a/output_0_split_0
I0403 18:21:36.884263  6857 net.cpp:399] loss1/ave_pool -> loss1/ave_pool
I0403 18:21:36.884487  6857 net.cpp:141] Setting up loss1/ave_pool
I0403 18:21:36.884516  6857 net.cpp:148] Top shape: 24 512 4 4 (196608)
I0403 18:21:36.884531  6857 net.cpp:156] Memory required for data: 945501216
I0403 18:21:36.884547  6857 layer_factory.hpp:77] Creating layer loss1/conv
I0403 18:21:36.884585  6857 net.cpp:91] Creating Layer loss1/conv
I0403 18:21:36.884605  6857 net.cpp:425] loss1/conv <- loss1/ave_pool
I0403 18:21:36.884625  6857 net.cpp:399] loss1/conv -> loss1/conv
I0403 18:21:36.886065  6857 net.cpp:141] Setting up loss1/conv
I0403 18:21:36.886097  6857 net.cpp:148] Top shape: 24 128 4 4 (49152)
I0403 18:21:36.886140  6857 net.cpp:156] Memory required for data: 945697824
I0403 18:21:36.886162  6857 layer_factory.hpp:77] Creating layer loss1/relu_conv
I0403 18:21:36.886180  6857 net.cpp:91] Creating Layer loss1/relu_conv
I0403 18:21:36.886198  6857 net.cpp:425] loss1/relu_conv <- loss1/conv
I0403 18:21:36.886224  6857 net.cpp:386] loss1/relu_conv -> loss1/conv (in-place)
I0403 18:21:36.886505  6857 net.cpp:141] Setting up loss1/relu_conv
I0403 18:21:36.886533  6857 net.cpp:148] Top shape: 24 128 4 4 (49152)
I0403 18:21:36.886550  6857 net.cpp:156] Memory required for data: 945894432
I0403 18:21:36.886567  6857 layer_factory.hpp:77] Creating layer loss1/fc
I0403 18:21:36.886592  6857 net.cpp:91] Creating Layer loss1/fc
I0403 18:21:36.886611  6857 net.cpp:425] loss1/fc <- loss1/conv
I0403 18:21:36.886633  6857 net.cpp:399] loss1/fc -> loss1/fc
I0403 18:21:36.906035  6857 net.cpp:141] Setting up loss1/fc
I0403 18:21:36.906111  6857 net.cpp:148] Top shape: 24 1024 (24576)
I0403 18:21:36.906131  6857 net.cpp:156] Memory required for data: 945992736
I0403 18:21:36.906153  6857 layer_factory.hpp:77] Creating layer loss1/relu_fc
I0403 18:21:36.906175  6857 net.cpp:91] Creating Layer loss1/relu_fc
I0403 18:21:36.906198  6857 net.cpp:425] loss1/relu_fc <- loss1/fc
I0403 18:21:36.906221  6857 net.cpp:386] loss1/relu_fc -> loss1/fc (in-place)
I0403 18:21:36.906442  6857 net.cpp:141] Setting up loss1/relu_fc
I0403 18:21:36.906468  6857 net.cpp:148] Top shape: 24 1024 (24576)
I0403 18:21:36.906484  6857 net.cpp:156] Memory required for data: 946091040
I0403 18:21:36.906500  6857 layer_factory.hpp:77] Creating layer loss1/drop_fc
I0403 18:21:36.906532  6857 net.cpp:91] Creating Layer loss1/drop_fc
I0403 18:21:36.906551  6857 net.cpp:425] loss1/drop_fc <- loss1/fc
I0403 18:21:36.906572  6857 net.cpp:386] loss1/drop_fc -> loss1/fc (in-place)
I0403 18:21:36.906627  6857 net.cpp:141] Setting up loss1/drop_fc
I0403 18:21:36.906651  6857 net.cpp:148] Top shape: 24 1024 (24576)
I0403 18:21:36.906679  6857 net.cpp:156] Memory required for data: 946189344
I0403 18:21:36.906697  6857 layer_factory.hpp:77] Creating layer loss1/classifier_plantvillage
I0403 18:21:36.906731  6857 net.cpp:91] Creating Layer loss1/classifier_plantvillage
I0403 18:21:36.906752  6857 net.cpp:425] loss1/classifier_plantvillage <- loss1/fc
I0403 18:21:36.906774  6857 net.cpp:399] loss1/classifier_plantvillage -> loss1/classifier_plantvillage
I0403 18:21:36.907832  6857 net.cpp:141] Setting up loss1/classifier_plantvillage
I0403 18:21:36.907866  6857 net.cpp:148] Top shape: 24 38 (912)
I0403 18:21:36.907898  6857 net.cpp:156] Memory required for data: 946192992
I0403 18:21:36.907920  6857 layer_factory.hpp:77] Creating layer loss1/classifier_plantvillage_loss1/classifier_plantvillage_0_split
I0403 18:21:36.907943  6857 net.cpp:91] Creating Layer loss1/classifier_plantvillage_loss1/classifier_plantvillage_0_split
I0403 18:21:36.907959  6857 net.cpp:425] loss1/classifier_plantvillage_loss1/classifier_plantvillage_0_split <- loss1/classifier_plantvillage
I0403 18:21:36.907981  6857 net.cpp:399] loss1/classifier_plantvillage_loss1/classifier_plantvillage_0_split -> loss1/classifier_plantvillage_loss1/classifier_plantvillage_0_split_0
I0403 18:21:36.908007  6857 net.cpp:399] loss1/classifier_plantvillage_loss1/classifier_plantvillage_0_split -> loss1/classifier_plantvillage_loss1/classifier_plantvillage_0_split_1
I0403 18:21:36.908033  6857 net.cpp:399] loss1/classifier_plantvillage_loss1/classifier_plantvillage_0_split -> loss1/classifier_plantvillage_loss1/classifier_plantvillage_0_split_2
I0403 18:21:36.908105  6857 net.cpp:141] Setting up loss1/classifier_plantvillage_loss1/classifier_plantvillage_0_split
I0403 18:21:36.908133  6857 net.cpp:148] Top shape: 24 38 (912)
I0403 18:21:36.908150  6857 net.cpp:148] Top shape: 24 38 (912)
I0403 18:21:36.908169  6857 net.cpp:148] Top shape: 24 38 (912)
I0403 18:21:36.908187  6857 net.cpp:156] Memory required for data: 946203936
I0403 18:21:36.908203  6857 layer_factory.hpp:77] Creating layer inception_4b/1x1
I0403 18:21:36.908233  6857 net.cpp:91] Creating Layer inception_4b/1x1
I0403 18:21:36.908280  6857 net.cpp:425] inception_4b/1x1 <- inception_4a/output_inception_4a/output_0_split_1
I0403 18:21:36.908305  6857 net.cpp:399] inception_4b/1x1 -> inception_4b/1x1
I0403 18:21:36.910080  6857 net.cpp:141] Setting up inception_4b/1x1
I0403 18:21:36.910111  6857 net.cpp:148] Top shape: 24 160 14 14 (752640)
I0403 18:21:36.910128  6857 net.cpp:156] Memory required for data: 949214496
I0403 18:21:36.910150  6857 layer_factory.hpp:77] Creating layer inception_4b/relu_1x1
I0403 18:21:36.910168  6857 net.cpp:91] Creating Layer inception_4b/relu_1x1
I0403 18:21:36.910187  6857 net.cpp:425] inception_4b/relu_1x1 <- inception_4b/1x1
I0403 18:21:36.910219  6857 net.cpp:386] inception_4b/relu_1x1 -> inception_4b/1x1 (in-place)
I0403 18:21:36.910404  6857 net.cpp:141] Setting up inception_4b/relu_1x1
I0403 18:21:36.910431  6857 net.cpp:148] Top shape: 24 160 14 14 (752640)
I0403 18:21:36.910449  6857 net.cpp:156] Memory required for data: 952225056
I0403 18:21:36.910465  6857 layer_factory.hpp:77] Creating layer inception_4b/3x3_reduce
I0403 18:21:36.910490  6857 net.cpp:91] Creating Layer inception_4b/3x3_reduce
I0403 18:21:36.910511  6857 net.cpp:425] inception_4b/3x3_reduce <- inception_4a/output_inception_4a/output_0_split_2
I0403 18:21:36.910533  6857 net.cpp:399] inception_4b/3x3_reduce -> inception_4b/3x3_reduce
I0403 18:21:36.912000  6857 net.cpp:141] Setting up inception_4b/3x3_reduce
I0403 18:21:36.912030  6857 net.cpp:148] Top shape: 24 112 14 14 (526848)
I0403 18:21:36.912060  6857 net.cpp:156] Memory required for data: 954332448
I0403 18:21:36.912080  6857 layer_factory.hpp:77] Creating layer inception_4b/relu_3x3_reduce
I0403 18:21:36.912103  6857 net.cpp:91] Creating Layer inception_4b/relu_3x3_reduce
I0403 18:21:36.912122  6857 net.cpp:425] inception_4b/relu_3x3_reduce <- inception_4b/3x3_reduce
I0403 18:21:36.912142  6857 net.cpp:386] inception_4b/relu_3x3_reduce -> inception_4b/3x3_reduce (in-place)
I0403 18:21:36.912470  6857 net.cpp:141] Setting up inception_4b/relu_3x3_reduce
I0403 18:21:36.912498  6857 net.cpp:148] Top shape: 24 112 14 14 (526848)
I0403 18:21:36.912514  6857 net.cpp:156] Memory required for data: 956439840
I0403 18:21:36.912531  6857 layer_factory.hpp:77] Creating layer inception_4b/3x3
I0403 18:21:36.912555  6857 net.cpp:91] Creating Layer inception_4b/3x3
I0403 18:21:36.912587  6857 net.cpp:425] inception_4b/3x3 <- inception_4b/3x3_reduce
I0403 18:21:36.912611  6857 net.cpp:399] inception_4b/3x3 -> inception_4b/3x3
I0403 18:21:36.915730  6857 net.cpp:141] Setting up inception_4b/3x3
I0403 18:21:36.915765  6857 net.cpp:148] Top shape: 24 224 14 14 (1053696)
I0403 18:21:36.915783  6857 net.cpp:156] Memory required for data: 960654624
I0403 18:21:36.915803  6857 layer_factory.hpp:77] Creating layer inception_4b/relu_3x3
I0403 18:21:36.915823  6857 net.cpp:91] Creating Layer inception_4b/relu_3x3
I0403 18:21:36.915841  6857 net.cpp:425] inception_4b/relu_3x3 <- inception_4b/3x3
I0403 18:21:36.915860  6857 net.cpp:386] inception_4b/relu_3x3 -> inception_4b/3x3 (in-place)
I0403 18:21:36.916054  6857 net.cpp:141] Setting up inception_4b/relu_3x3
I0403 18:21:36.916080  6857 net.cpp:148] Top shape: 24 224 14 14 (1053696)
I0403 18:21:36.916096  6857 net.cpp:156] Memory required for data: 964869408
I0403 18:21:36.916113  6857 layer_factory.hpp:77] Creating layer inception_4b/5x5_reduce
I0403 18:21:36.916137  6857 net.cpp:91] Creating Layer inception_4b/5x5_reduce
I0403 18:21:36.916157  6857 net.cpp:425] inception_4b/5x5_reduce <- inception_4a/output_inception_4a/output_0_split_3
I0403 18:21:36.916180  6857 net.cpp:399] inception_4b/5x5_reduce -> inception_4b/5x5_reduce
I0403 18:21:36.917376  6857 net.cpp:141] Setting up inception_4b/5x5_reduce
I0403 18:21:36.917419  6857 net.cpp:148] Top shape: 24 24 14 14 (112896)
I0403 18:21:36.917438  6857 net.cpp:156] Memory required for data: 965320992
I0403 18:21:36.917459  6857 layer_factory.hpp:77] Creating layer inception_4b/relu_5x5_reduce
I0403 18:21:36.917484  6857 net.cpp:91] Creating Layer inception_4b/relu_5x5_reduce
I0403 18:21:36.917520  6857 net.cpp:425] inception_4b/relu_5x5_reduce <- inception_4b/5x5_reduce
I0403 18:21:36.917541  6857 net.cpp:386] inception_4b/relu_5x5_reduce -> inception_4b/5x5_reduce (in-place)
I0403 18:21:36.917738  6857 net.cpp:141] Setting up inception_4b/relu_5x5_reduce
I0403 18:21:36.917764  6857 net.cpp:148] Top shape: 24 24 14 14 (112896)
I0403 18:21:36.917780  6857 net.cpp:156] Memory required for data: 965772576
I0403 18:21:36.917796  6857 layer_factory.hpp:77] Creating layer inception_4b/5x5
I0403 18:21:36.917819  6857 net.cpp:91] Creating Layer inception_4b/5x5
I0403 18:21:36.917841  6857 net.cpp:425] inception_4b/5x5 <- inception_4b/5x5_reduce
I0403 18:21:36.917862  6857 net.cpp:399] inception_4b/5x5 -> inception_4b/5x5
I0403 18:21:36.919178  6857 net.cpp:141] Setting up inception_4b/5x5
I0403 18:21:36.919211  6857 net.cpp:148] Top shape: 24 64 14 14 (301056)
I0403 18:21:36.919230  6857 net.cpp:156] Memory required for data: 966976800
I0403 18:21:36.919251  6857 layer_factory.hpp:77] Creating layer inception_4b/relu_5x5
I0403 18:21:36.919270  6857 net.cpp:91] Creating Layer inception_4b/relu_5x5
I0403 18:21:36.919289  6857 net.cpp:425] inception_4b/relu_5x5 <- inception_4b/5x5
I0403 18:21:36.919312  6857 net.cpp:386] inception_4b/relu_5x5 -> inception_4b/5x5 (in-place)
I0403 18:21:36.919626  6857 net.cpp:141] Setting up inception_4b/relu_5x5
I0403 18:21:36.919654  6857 net.cpp:148] Top shape: 24 64 14 14 (301056)
I0403 18:21:36.919672  6857 net.cpp:156] Memory required for data: 968181024
I0403 18:21:36.919703  6857 layer_factory.hpp:77] Creating layer inception_4b/pool
I0403 18:21:36.919724  6857 net.cpp:91] Creating Layer inception_4b/pool
I0403 18:21:36.919742  6857 net.cpp:425] inception_4b/pool <- inception_4a/output_inception_4a/output_0_split_4
I0403 18:21:36.919765  6857 net.cpp:399] inception_4b/pool -> inception_4b/pool
I0403 18:21:36.919834  6857 net.cpp:141] Setting up inception_4b/pool
I0403 18:21:36.919860  6857 net.cpp:148] Top shape: 24 512 14 14 (2408448)
I0403 18:21:36.919877  6857 net.cpp:156] Memory required for data: 977814816
I0403 18:21:36.919894  6857 layer_factory.hpp:77] Creating layer inception_4b/pool_proj
I0403 18:21:36.919920  6857 net.cpp:91] Creating Layer inception_4b/pool_proj
I0403 18:21:36.919939  6857 net.cpp:425] inception_4b/pool_proj <- inception_4b/pool
I0403 18:21:36.919958  6857 net.cpp:399] inception_4b/pool_proj -> inception_4b/pool_proj
I0403 18:21:36.921244  6857 net.cpp:141] Setting up inception_4b/pool_proj
I0403 18:21:36.921273  6857 net.cpp:148] Top shape: 24 64 14 14 (301056)
I0403 18:21:36.921290  6857 net.cpp:156] Memory required for data: 979019040
I0403 18:21:36.921310  6857 layer_factory.hpp:77] Creating layer inception_4b/relu_pool_proj
I0403 18:21:36.921329  6857 net.cpp:91] Creating Layer inception_4b/relu_pool_proj
I0403 18:21:36.921349  6857 net.cpp:425] inception_4b/relu_pool_proj <- inception_4b/pool_proj
I0403 18:21:36.921370  6857 net.cpp:386] inception_4b/relu_pool_proj -> inception_4b/pool_proj (in-place)
I0403 18:21:36.921560  6857 net.cpp:141] Setting up inception_4b/relu_pool_proj
I0403 18:21:36.921586  6857 net.cpp:148] Top shape: 24 64 14 14 (301056)
I0403 18:21:36.921602  6857 net.cpp:156] Memory required for data: 980223264
I0403 18:21:36.921620  6857 layer_factory.hpp:77] Creating layer inception_4b/output
I0403 18:21:36.921654  6857 net.cpp:91] Creating Layer inception_4b/output
I0403 18:21:36.921672  6857 net.cpp:425] inception_4b/output <- inception_4b/1x1
I0403 18:21:36.921690  6857 net.cpp:425] inception_4b/output <- inception_4b/3x3
I0403 18:21:36.921708  6857 net.cpp:425] inception_4b/output <- inception_4b/5x5
I0403 18:21:36.921725  6857 net.cpp:425] inception_4b/output <- inception_4b/pool_proj
I0403 18:21:36.921742  6857 net.cpp:399] inception_4b/output -> inception_4b/output
I0403 18:21:36.921790  6857 net.cpp:141] Setting up inception_4b/output
I0403 18:21:36.921815  6857 net.cpp:148] Top shape: 24 512 14 14 (2408448)
I0403 18:21:36.921833  6857 net.cpp:156] Memory required for data: 989857056
I0403 18:21:36.921861  6857 layer_factory.hpp:77] Creating layer inception_4b/output_inception_4b/output_0_split
I0403 18:21:36.921880  6857 net.cpp:91] Creating Layer inception_4b/output_inception_4b/output_0_split
I0403 18:21:36.921897  6857 net.cpp:425] inception_4b/output_inception_4b/output_0_split <- inception_4b/output
I0403 18:21:36.921918  6857 net.cpp:399] inception_4b/output_inception_4b/output_0_split -> inception_4b/output_inception_4b/output_0_split_0
I0403 18:21:36.921941  6857 net.cpp:399] inception_4b/output_inception_4b/output_0_split -> inception_4b/output_inception_4b/output_0_split_1
I0403 18:21:36.921963  6857 net.cpp:399] inception_4b/output_inception_4b/output_0_split -> inception_4b/output_inception_4b/output_0_split_2
I0403 18:21:36.921984  6857 net.cpp:399] inception_4b/output_inception_4b/output_0_split -> inception_4b/output_inception_4b/output_0_split_3
I0403 18:21:36.922071  6857 net.cpp:141] Setting up inception_4b/output_inception_4b/output_0_split
I0403 18:21:36.922099  6857 net.cpp:148] Top shape: 24 512 14 14 (2408448)
I0403 18:21:36.922118  6857 net.cpp:148] Top shape: 24 512 14 14 (2408448)
I0403 18:21:36.922135  6857 net.cpp:148] Top shape: 24 512 14 14 (2408448)
I0403 18:21:36.922152  6857 net.cpp:148] Top shape: 24 512 14 14 (2408448)
I0403 18:21:36.922168  6857 net.cpp:156] Memory required for data: 1028392224
I0403 18:21:36.922183  6857 layer_factory.hpp:77] Creating layer inception_4c/1x1
I0403 18:21:36.922217  6857 net.cpp:91] Creating Layer inception_4c/1x1
I0403 18:21:36.922240  6857 net.cpp:425] inception_4c/1x1 <- inception_4b/output_inception_4b/output_0_split_0
I0403 18:21:36.922262  6857 net.cpp:399] inception_4c/1x1 -> inception_4c/1x1
I0403 18:21:36.923740  6857 net.cpp:141] Setting up inception_4c/1x1
I0403 18:21:36.923770  6857 net.cpp:148] Top shape: 24 128 14 14 (602112)
I0403 18:21:36.923786  6857 net.cpp:156] Memory required for data: 1030800672
I0403 18:21:36.923805  6857 layer_factory.hpp:77] Creating layer inception_4c/relu_1x1
I0403 18:21:36.923830  6857 net.cpp:91] Creating Layer inception_4c/relu_1x1
I0403 18:21:36.923848  6857 net.cpp:425] inception_4c/relu_1x1 <- inception_4c/1x1
I0403 18:21:36.923867  6857 net.cpp:386] inception_4c/relu_1x1 -> inception_4c/1x1 (in-place)
I0403 18:21:36.924048  6857 net.cpp:141] Setting up inception_4c/relu_1x1
I0403 18:21:36.924077  6857 net.cpp:148] Top shape: 24 128 14 14 (602112)
I0403 18:21:36.924093  6857 net.cpp:156] Memory required for data: 1033209120
I0403 18:21:36.924110  6857 layer_factory.hpp:77] Creating layer inception_4c/3x3_reduce
I0403 18:21:36.924134  6857 net.cpp:91] Creating Layer inception_4c/3x3_reduce
I0403 18:21:36.924152  6857 net.cpp:425] inception_4c/3x3_reduce <- inception_4b/output_inception_4b/output_0_split_1
I0403 18:21:36.924172  6857 net.cpp:399] inception_4c/3x3_reduce -> inception_4c/3x3_reduce
I0403 18:21:36.926237  6857 net.cpp:141] Setting up inception_4c/3x3_reduce
I0403 18:21:36.926270  6857 net.cpp:148] Top shape: 24 128 14 14 (602112)
I0403 18:21:36.926286  6857 net.cpp:156] Memory required for data: 1035617568
I0403 18:21:36.926307  6857 layer_factory.hpp:77] Creating layer inception_4c/relu_3x3_reduce
I0403 18:21:36.926326  6857 net.cpp:91] Creating Layer inception_4c/relu_3x3_reduce
I0403 18:21:36.926343  6857 net.cpp:425] inception_4c/relu_3x3_reduce <- inception_4c/3x3_reduce
I0403 18:21:36.926363  6857 net.cpp:386] inception_4c/relu_3x3_reduce -> inception_4c/3x3_reduce (in-place)
I0403 18:21:36.926640  6857 net.cpp:141] Setting up inception_4c/relu_3x3_reduce
I0403 18:21:36.926668  6857 net.cpp:148] Top shape: 24 128 14 14 (602112)
I0403 18:21:36.926686  6857 net.cpp:156] Memory required for data: 1038026016
I0403 18:21:36.926700  6857 layer_factory.hpp:77] Creating layer inception_4c/3x3
I0403 18:21:36.926725  6857 net.cpp:91] Creating Layer inception_4c/3x3
I0403 18:21:36.926743  6857 net.cpp:425] inception_4c/3x3 <- inception_4c/3x3_reduce
I0403 18:21:36.926765  6857 net.cpp:399] inception_4c/3x3 -> inception_4c/3x3
I0403 18:21:36.930438  6857 net.cpp:141] Setting up inception_4c/3x3
I0403 18:21:36.930480  6857 net.cpp:148] Top shape: 24 256 14 14 (1204224)
I0403 18:21:36.930498  6857 net.cpp:156] Memory required for data: 1042842912
I0403 18:21:36.930537  6857 layer_factory.hpp:77] Creating layer inception_4c/relu_3x3
I0403 18:21:36.930558  6857 net.cpp:91] Creating Layer inception_4c/relu_3x3
I0403 18:21:36.930575  6857 net.cpp:425] inception_4c/relu_3x3 <- inception_4c/3x3
I0403 18:21:36.930595  6857 net.cpp:386] inception_4c/relu_3x3 -> inception_4c/3x3 (in-place)
I0403 18:21:36.930778  6857 net.cpp:141] Setting up inception_4c/relu_3x3
I0403 18:21:36.930804  6857 net.cpp:148] Top shape: 24 256 14 14 (1204224)
I0403 18:21:36.930820  6857 net.cpp:156] Memory required for data: 1047659808
I0403 18:21:36.930837  6857 layer_factory.hpp:77] Creating layer inception_4c/5x5_reduce
I0403 18:21:36.930860  6857 net.cpp:91] Creating Layer inception_4c/5x5_reduce
I0403 18:21:36.930877  6857 net.cpp:425] inception_4c/5x5_reduce <- inception_4b/output_inception_4b/output_0_split_2
I0403 18:21:36.930901  6857 net.cpp:399] inception_4c/5x5_reduce -> inception_4c/5x5_reduce
I0403 18:21:36.931969  6857 net.cpp:141] Setting up inception_4c/5x5_reduce
I0403 18:21:36.931998  6857 net.cpp:148] Top shape: 24 24 14 14 (112896)
I0403 18:21:36.932013  6857 net.cpp:156] Memory required for data: 1048111392
I0403 18:21:36.932032  6857 layer_factory.hpp:77] Creating layer inception_4c/relu_5x5_reduce
I0403 18:21:36.932052  6857 net.cpp:91] Creating Layer inception_4c/relu_5x5_reduce
I0403 18:21:36.932070  6857 net.cpp:425] inception_4c/relu_5x5_reduce <- inception_4c/5x5_reduce
I0403 18:21:36.932088  6857 net.cpp:386] inception_4c/relu_5x5_reduce -> inception_4c/5x5_reduce (in-place)
I0403 18:21:36.932297  6857 net.cpp:141] Setting up inception_4c/relu_5x5_reduce
I0403 18:21:36.932324  6857 net.cpp:148] Top shape: 24 24 14 14 (112896)
I0403 18:21:36.932342  6857 net.cpp:156] Memory required for data: 1048562976
I0403 18:21:36.932356  6857 layer_factory.hpp:77] Creating layer inception_4c/5x5
I0403 18:21:36.932379  6857 net.cpp:91] Creating Layer inception_4c/5x5
I0403 18:21:36.932400  6857 net.cpp:425] inception_4c/5x5 <- inception_4c/5x5_reduce
I0403 18:21:36.932422  6857 net.cpp:399] inception_4c/5x5 -> inception_4c/5x5
I0403 18:21:36.933672  6857 net.cpp:141] Setting up inception_4c/5x5
I0403 18:21:36.933701  6857 net.cpp:148] Top shape: 24 64 14 14 (301056)
I0403 18:21:36.933717  6857 net.cpp:156] Memory required for data: 1049767200
I0403 18:21:36.933735  6857 layer_factory.hpp:77] Creating layer inception_4c/relu_5x5
I0403 18:21:36.933758  6857 net.cpp:91] Creating Layer inception_4c/relu_5x5
I0403 18:21:36.933776  6857 net.cpp:425] inception_4c/relu_5x5 <- inception_4c/5x5
I0403 18:21:36.933795  6857 net.cpp:386] inception_4c/relu_5x5 -> inception_4c/5x5 (in-place)
I0403 18:21:36.934098  6857 net.cpp:141] Setting up inception_4c/relu_5x5
I0403 18:21:36.934124  6857 net.cpp:148] Top shape: 24 64 14 14 (301056)
I0403 18:21:36.934140  6857 net.cpp:156] Memory required for data: 1050971424
I0403 18:21:36.934155  6857 layer_factory.hpp:77] Creating layer inception_4c/pool
I0403 18:21:36.934178  6857 net.cpp:91] Creating Layer inception_4c/pool
I0403 18:21:36.934196  6857 net.cpp:425] inception_4c/pool <- inception_4b/output_inception_4b/output_0_split_3
I0403 18:21:36.934221  6857 net.cpp:399] inception_4c/pool -> inception_4c/pool
I0403 18:21:36.934303  6857 net.cpp:141] Setting up inception_4c/pool
I0403 18:21:36.934329  6857 net.cpp:148] Top shape: 24 512 14 14 (2408448)
I0403 18:21:36.934345  6857 net.cpp:156] Memory required for data: 1060605216
I0403 18:21:36.934360  6857 layer_factory.hpp:77] Creating layer inception_4c/pool_proj
I0403 18:21:36.934383  6857 net.cpp:91] Creating Layer inception_4c/pool_proj
I0403 18:21:36.934403  6857 net.cpp:425] inception_4c/pool_proj <- inception_4c/pool
I0403 18:21:36.934425  6857 net.cpp:399] inception_4c/pool_proj -> inception_4c/pool_proj
I0403 18:21:36.935745  6857 net.cpp:141] Setting up inception_4c/pool_proj
I0403 18:21:36.935773  6857 net.cpp:148] Top shape: 24 64 14 14 (301056)
I0403 18:21:36.935802  6857 net.cpp:156] Memory required for data: 1061809440
I0403 18:21:36.935822  6857 layer_factory.hpp:77] Creating layer inception_4c/relu_pool_proj
I0403 18:21:36.935842  6857 net.cpp:91] Creating Layer inception_4c/relu_pool_proj
I0403 18:21:36.935859  6857 net.cpp:425] inception_4c/relu_pool_proj <- inception_4c/pool_proj
I0403 18:21:36.935879  6857 net.cpp:386] inception_4c/relu_pool_proj -> inception_4c/pool_proj (in-place)
I0403 18:21:36.936060  6857 net.cpp:141] Setting up inception_4c/relu_pool_proj
I0403 18:21:36.936085  6857 net.cpp:148] Top shape: 24 64 14 14 (301056)
I0403 18:21:36.936101  6857 net.cpp:156] Memory required for data: 1063013664
I0403 18:21:36.936117  6857 layer_factory.hpp:77] Creating layer inception_4c/output
I0403 18:21:36.936137  6857 net.cpp:91] Creating Layer inception_4c/output
I0403 18:21:36.936154  6857 net.cpp:425] inception_4c/output <- inception_4c/1x1
I0403 18:21:36.936172  6857 net.cpp:425] inception_4c/output <- inception_4c/3x3
I0403 18:21:36.936189  6857 net.cpp:425] inception_4c/output <- inception_4c/5x5
I0403 18:21:36.936206  6857 net.cpp:425] inception_4c/output <- inception_4c/pool_proj
I0403 18:21:36.936230  6857 net.cpp:399] inception_4c/output -> inception_4c/output
I0403 18:21:36.936291  6857 net.cpp:141] Setting up inception_4c/output
I0403 18:21:36.936316  6857 net.cpp:148] Top shape: 24 512 14 14 (2408448)
I0403 18:21:36.936331  6857 net.cpp:156] Memory required for data: 1072647456
I0403 18:21:36.936345  6857 layer_factory.hpp:77] Creating layer inception_4c/output_inception_4c/output_0_split
I0403 18:21:36.936363  6857 net.cpp:91] Creating Layer inception_4c/output_inception_4c/output_0_split
I0403 18:21:36.936379  6857 net.cpp:425] inception_4c/output_inception_4c/output_0_split <- inception_4c/output
I0403 18:21:36.936400  6857 net.cpp:399] inception_4c/output_inception_4c/output_0_split -> inception_4c/output_inception_4c/output_0_split_0
I0403 18:21:36.936421  6857 net.cpp:399] inception_4c/output_inception_4c/output_0_split -> inception_4c/output_inception_4c/output_0_split_1
I0403 18:21:36.936442  6857 net.cpp:399] inception_4c/output_inception_4c/output_0_split -> inception_4c/output_inception_4c/output_0_split_2
I0403 18:21:36.936463  6857 net.cpp:399] inception_4c/output_inception_4c/output_0_split -> inception_4c/output_inception_4c/output_0_split_3
I0403 18:21:36.936547  6857 net.cpp:141] Setting up inception_4c/output_inception_4c/output_0_split
I0403 18:21:36.936584  6857 net.cpp:148] Top shape: 24 512 14 14 (2408448)
I0403 18:21:36.936601  6857 net.cpp:148] Top shape: 24 512 14 14 (2408448)
I0403 18:21:36.936617  6857 net.cpp:148] Top shape: 24 512 14 14 (2408448)
I0403 18:21:36.936646  6857 net.cpp:148] Top shape: 24 512 14 14 (2408448)
I0403 18:21:36.936661  6857 net.cpp:156] Memory required for data: 1111182624
I0403 18:21:36.936677  6857 layer_factory.hpp:77] Creating layer inception_4d/1x1
I0403 18:21:36.936714  6857 net.cpp:91] Creating Layer inception_4d/1x1
I0403 18:21:36.936734  6857 net.cpp:425] inception_4d/1x1 <- inception_4c/output_inception_4c/output_0_split_0
I0403 18:21:36.936756  6857 net.cpp:399] inception_4d/1x1 -> inception_4d/1x1
I0403 18:21:36.938261  6857 net.cpp:141] Setting up inception_4d/1x1
I0403 18:21:36.938292  6857 net.cpp:148] Top shape: 24 112 14 14 (526848)
I0403 18:21:36.938308  6857 net.cpp:156] Memory required for data: 1113290016
I0403 18:21:36.938339  6857 layer_factory.hpp:77] Creating layer inception_4d/relu_1x1
I0403 18:21:36.938359  6857 net.cpp:91] Creating Layer inception_4d/relu_1x1
I0403 18:21:36.938375  6857 net.cpp:425] inception_4d/relu_1x1 <- inception_4d/1x1
I0403 18:21:36.938393  6857 net.cpp:386] inception_4d/relu_1x1 -> inception_4d/1x1 (in-place)
I0403 18:21:36.938585  6857 net.cpp:141] Setting up inception_4d/relu_1x1
I0403 18:21:36.938611  6857 net.cpp:148] Top shape: 24 112 14 14 (526848)
I0403 18:21:36.938627  6857 net.cpp:156] Memory required for data: 1115397408
I0403 18:21:36.938655  6857 layer_factory.hpp:77] Creating layer inception_4d/3x3_reduce
I0403 18:21:36.938691  6857 net.cpp:91] Creating Layer inception_4d/3x3_reduce
I0403 18:21:36.938711  6857 net.cpp:425] inception_4d/3x3_reduce <- inception_4c/output_inception_4c/output_0_split_1
I0403 18:21:36.938732  6857 net.cpp:399] inception_4d/3x3_reduce -> inception_4d/3x3_reduce
I0403 18:21:36.940291  6857 net.cpp:141] Setting up inception_4d/3x3_reduce
I0403 18:21:36.940318  6857 net.cpp:148] Top shape: 24 144 14 14 (677376)
I0403 18:21:36.940335  6857 net.cpp:156] Memory required for data: 1118106912
I0403 18:21:36.940354  6857 layer_factory.hpp:77] Creating layer inception_4d/relu_3x3_reduce
I0403 18:21:36.940376  6857 net.cpp:91] Creating Layer inception_4d/relu_3x3_reduce
I0403 18:21:36.940393  6857 net.cpp:425] inception_4d/relu_3x3_reduce <- inception_4d/3x3_reduce
I0403 18:21:36.940412  6857 net.cpp:386] inception_4d/relu_3x3_reduce -> inception_4d/3x3_reduce (in-place)
I0403 18:21:36.940707  6857 net.cpp:141] Setting up inception_4d/relu_3x3_reduce
I0403 18:21:36.940734  6857 net.cpp:148] Top shape: 24 144 14 14 (677376)
I0403 18:21:36.940749  6857 net.cpp:156] Memory required for data: 1120816416
I0403 18:21:36.940764  6857 layer_factory.hpp:77] Creating layer inception_4d/3x3
I0403 18:21:36.940789  6857 net.cpp:91] Creating Layer inception_4d/3x3
I0403 18:21:36.940807  6857 net.cpp:425] inception_4d/3x3 <- inception_4d/3x3_reduce
I0403 18:21:36.940826  6857 net.cpp:399] inception_4d/3x3 -> inception_4d/3x3
I0403 18:21:36.945166  6857 net.cpp:141] Setting up inception_4d/3x3
I0403 18:21:36.945197  6857 net.cpp:148] Top shape: 24 288 14 14 (1354752)
I0403 18:21:36.945219  6857 net.cpp:156] Memory required for data: 1126235424
I0403 18:21:36.945240  6857 layer_factory.hpp:77] Creating layer inception_4d/relu_3x3
I0403 18:21:36.945271  6857 net.cpp:91] Creating Layer inception_4d/relu_3x3
I0403 18:21:36.945286  6857 net.cpp:425] inception_4d/relu_3x3 <- inception_4d/3x3
I0403 18:21:36.945307  6857 net.cpp:386] inception_4d/relu_3x3 -> inception_4d/3x3 (in-place)
I0403 18:21:36.945494  6857 net.cpp:141] Setting up inception_4d/relu_3x3
I0403 18:21:36.945520  6857 net.cpp:148] Top shape: 24 288 14 14 (1354752)
I0403 18:21:36.945536  6857 net.cpp:156] Memory required for data: 1131654432
I0403 18:21:36.945564  6857 layer_factory.hpp:77] Creating layer inception_4d/5x5_reduce
I0403 18:21:36.945586  6857 net.cpp:91] Creating Layer inception_4d/5x5_reduce
I0403 18:21:36.945605  6857 net.cpp:425] inception_4d/5x5_reduce <- inception_4c/output_inception_4c/output_0_split_2
I0403 18:21:36.945632  6857 net.cpp:399] inception_4d/5x5_reduce -> inception_4d/5x5_reduce
I0403 18:21:36.946790  6857 net.cpp:141] Setting up inception_4d/5x5_reduce
I0403 18:21:36.946820  6857 net.cpp:148] Top shape: 24 32 14 14 (150528)
I0403 18:21:36.946837  6857 net.cpp:156] Memory required for data: 1132256544
I0403 18:21:36.946856  6857 layer_factory.hpp:77] Creating layer inception_4d/relu_5x5_reduce
I0403 18:21:36.946874  6857 net.cpp:91] Creating Layer inception_4d/relu_5x5_reduce
I0403 18:21:36.946890  6857 net.cpp:425] inception_4d/relu_5x5_reduce <- inception_4d/5x5_reduce
I0403 18:21:36.946910  6857 net.cpp:386] inception_4d/relu_5x5_reduce -> inception_4d/5x5_reduce (in-place)
I0403 18:21:36.947098  6857 net.cpp:141] Setting up inception_4d/relu_5x5_reduce
I0403 18:21:36.947123  6857 net.cpp:148] Top shape: 24 32 14 14 (150528)
I0403 18:21:36.947137  6857 net.cpp:156] Memory required for data: 1132858656
I0403 18:21:36.947152  6857 layer_factory.hpp:77] Creating layer inception_4d/5x5
I0403 18:21:36.947176  6857 net.cpp:91] Creating Layer inception_4d/5x5
I0403 18:21:36.947195  6857 net.cpp:425] inception_4d/5x5 <- inception_4d/5x5_reduce
I0403 18:21:36.947221  6857 net.cpp:399] inception_4d/5x5 -> inception_4d/5x5
I0403 18:21:36.948710  6857 net.cpp:141] Setting up inception_4d/5x5
I0403 18:21:36.948740  6857 net.cpp:148] Top shape: 24 64 14 14 (301056)
I0403 18:21:36.948755  6857 net.cpp:156] Memory required for data: 1134062880
I0403 18:21:36.948791  6857 layer_factory.hpp:77] Creating layer inception_4d/relu_5x5
I0403 18:21:36.948824  6857 net.cpp:91] Creating Layer inception_4d/relu_5x5
I0403 18:21:36.948843  6857 net.cpp:425] inception_4d/relu_5x5 <- inception_4d/5x5
I0403 18:21:36.948861  6857 net.cpp:386] inception_4d/relu_5x5 -> inception_4d/5x5 (in-place)
I0403 18:21:36.949156  6857 net.cpp:141] Setting up inception_4d/relu_5x5
I0403 18:21:36.949194  6857 net.cpp:148] Top shape: 24 64 14 14 (301056)
I0403 18:21:36.949213  6857 net.cpp:156] Memory required for data: 1135267104
I0403 18:21:36.949231  6857 layer_factory.hpp:77] Creating layer inception_4d/pool
I0403 18:21:36.949254  6857 net.cpp:91] Creating Layer inception_4d/pool
I0403 18:21:36.949271  6857 net.cpp:425] inception_4d/pool <- inception_4c/output_inception_4c/output_0_split_3
I0403 18:21:36.949291  6857 net.cpp:399] inception_4d/pool -> inception_4d/pool
I0403 18:21:36.949358  6857 net.cpp:141] Setting up inception_4d/pool
I0403 18:21:36.949383  6857 net.cpp:148] Top shape: 24 512 14 14 (2408448)
I0403 18:21:36.949399  6857 net.cpp:156] Memory required for data: 1144900896
I0403 18:21:36.949415  6857 layer_factory.hpp:77] Creating layer inception_4d/pool_proj
I0403 18:21:36.949445  6857 net.cpp:91] Creating Layer inception_4d/pool_proj
I0403 18:21:36.949476  6857 net.cpp:425] inception_4d/pool_proj <- inception_4d/pool
I0403 18:21:36.949498  6857 net.cpp:399] inception_4d/pool_proj -> inception_4d/pool_proj
I0403 18:21:36.951360  6857 net.cpp:141] Setting up inception_4d/pool_proj
I0403 18:21:36.951393  6857 net.cpp:148] Top shape: 24 64 14 14 (301056)
I0403 18:21:36.951411  6857 net.cpp:156] Memory required for data: 1146105120
I0403 18:21:36.951431  6857 layer_factory.hpp:77] Creating layer inception_4d/relu_pool_proj
I0403 18:21:36.951450  6857 net.cpp:91] Creating Layer inception_4d/relu_pool_proj
I0403 18:21:36.951467  6857 net.cpp:425] inception_4d/relu_pool_proj <- inception_4d/pool_proj
I0403 18:21:36.951486  6857 net.cpp:386] inception_4d/relu_pool_proj -> inception_4d/pool_proj (in-place)
I0403 18:21:36.951684  6857 net.cpp:141] Setting up inception_4d/relu_pool_proj
I0403 18:21:36.951709  6857 net.cpp:148] Top shape: 24 64 14 14 (301056)
I0403 18:21:36.951725  6857 net.cpp:156] Memory required for data: 1147309344
I0403 18:21:36.951740  6857 layer_factory.hpp:77] Creating layer inception_4d/output
I0403 18:21:36.951757  6857 net.cpp:91] Creating Layer inception_4d/output
I0403 18:21:36.951773  6857 net.cpp:425] inception_4d/output <- inception_4d/1x1
I0403 18:21:36.951789  6857 net.cpp:425] inception_4d/output <- inception_4d/3x3
I0403 18:21:36.951805  6857 net.cpp:425] inception_4d/output <- inception_4d/5x5
I0403 18:21:36.951822  6857 net.cpp:425] inception_4d/output <- inception_4d/pool_proj
I0403 18:21:36.951841  6857 net.cpp:399] inception_4d/output -> inception_4d/output
I0403 18:21:36.951887  6857 net.cpp:141] Setting up inception_4d/output
I0403 18:21:36.951913  6857 net.cpp:148] Top shape: 24 528 14 14 (2483712)
I0403 18:21:36.951928  6857 net.cpp:156] Memory required for data: 1157244192
I0403 18:21:36.951943  6857 layer_factory.hpp:77] Creating layer inception_4d/output_inception_4d/output_0_split
I0403 18:21:36.951962  6857 net.cpp:91] Creating Layer inception_4d/output_inception_4d/output_0_split
I0403 18:21:36.951978  6857 net.cpp:425] inception_4d/output_inception_4d/output_0_split <- inception_4d/output
I0403 18:21:36.951999  6857 net.cpp:399] inception_4d/output_inception_4d/output_0_split -> inception_4d/output_inception_4d/output_0_split_0
I0403 18:21:36.952023  6857 net.cpp:399] inception_4d/output_inception_4d/output_0_split -> inception_4d/output_inception_4d/output_0_split_1
I0403 18:21:36.952044  6857 net.cpp:399] inception_4d/output_inception_4d/output_0_split -> inception_4d/output_inception_4d/output_0_split_2
I0403 18:21:36.952064  6857 net.cpp:399] inception_4d/output_inception_4d/output_0_split -> inception_4d/output_inception_4d/output_0_split_3
I0403 18:21:36.952085  6857 net.cpp:399] inception_4d/output_inception_4d/output_0_split -> inception_4d/output_inception_4d/output_0_split_4
I0403 18:21:36.952188  6857 net.cpp:141] Setting up inception_4d/output_inception_4d/output_0_split
I0403 18:21:36.952250  6857 net.cpp:148] Top shape: 24 528 14 14 (2483712)
I0403 18:21:36.952270  6857 net.cpp:148] Top shape: 24 528 14 14 (2483712)
I0403 18:21:36.952299  6857 net.cpp:148] Top shape: 24 528 14 14 (2483712)
I0403 18:21:36.952316  6857 net.cpp:148] Top shape: 24 528 14 14 (2483712)
I0403 18:21:36.952332  6857 net.cpp:148] Top shape: 24 528 14 14 (2483712)
I0403 18:21:36.952348  6857 net.cpp:156] Memory required for data: 1206918432
I0403 18:21:36.952364  6857 layer_factory.hpp:77] Creating layer loss2/ave_pool
I0403 18:21:36.952383  6857 net.cpp:91] Creating Layer loss2/ave_pool
I0403 18:21:36.952400  6857 net.cpp:425] loss2/ave_pool <- inception_4d/output_inception_4d/output_0_split_0
I0403 18:21:36.952421  6857 net.cpp:399] loss2/ave_pool -> loss2/ave_pool
I0403 18:21:36.952761  6857 net.cpp:141] Setting up loss2/ave_pool
I0403 18:21:36.952790  6857 net.cpp:148] Top shape: 24 528 4 4 (202752)
I0403 18:21:36.952806  6857 net.cpp:156] Memory required for data: 1207729440
I0403 18:21:36.952822  6857 layer_factory.hpp:77] Creating layer loss2/conv
I0403 18:21:36.952846  6857 net.cpp:91] Creating Layer loss2/conv
I0403 18:21:36.952863  6857 net.cpp:425] loss2/conv <- loss2/ave_pool
I0403 18:21:36.952894  6857 net.cpp:399] loss2/conv -> loss2/conv
I0403 18:21:36.954782  6857 net.cpp:141] Setting up loss2/conv
I0403 18:21:36.954808  6857 net.cpp:148] Top shape: 24 128 4 4 (49152)
I0403 18:21:36.954825  6857 net.cpp:156] Memory required for data: 1207926048
I0403 18:21:36.954844  6857 layer_factory.hpp:77] Creating layer loss2/relu_conv
I0403 18:21:36.954865  6857 net.cpp:91] Creating Layer loss2/relu_conv
I0403 18:21:36.954884  6857 net.cpp:425] loss2/relu_conv <- loss2/conv
I0403 18:21:36.954901  6857 net.cpp:386] loss2/relu_conv -> loss2/conv (in-place)
I0403 18:21:36.955180  6857 net.cpp:141] Setting up loss2/relu_conv
I0403 18:21:36.955214  6857 net.cpp:148] Top shape: 24 128 4 4 (49152)
I0403 18:21:36.955232  6857 net.cpp:156] Memory required for data: 1208122656
I0403 18:21:36.955248  6857 layer_factory.hpp:77] Creating layer loss2/fc
I0403 18:21:36.955279  6857 net.cpp:91] Creating Layer loss2/fc
I0403 18:21:36.955310  6857 net.cpp:425] loss2/fc <- loss2/conv
I0403 18:21:36.955330  6857 net.cpp:399] loss2/fc -> loss2/fc
I0403 18:21:36.973855  6857 net.cpp:141] Setting up loss2/fc
I0403 18:21:36.973896  6857 net.cpp:148] Top shape: 24 1024 (24576)
I0403 18:21:36.973912  6857 net.cpp:156] Memory required for data: 1208220960
I0403 18:21:36.973932  6857 layer_factory.hpp:77] Creating layer loss2/relu_fc
I0403 18:21:36.973951  6857 net.cpp:91] Creating Layer loss2/relu_fc
I0403 18:21:36.973969  6857 net.cpp:425] loss2/relu_fc <- loss2/fc
I0403 18:21:36.973990  6857 net.cpp:386] loss2/relu_fc -> loss2/fc (in-place)
I0403 18:21:36.974506  6857 net.cpp:141] Setting up loss2/relu_fc
I0403 18:21:36.974545  6857 net.cpp:148] Top shape: 24 1024 (24576)
I0403 18:21:36.974575  6857 net.cpp:156] Memory required for data: 1208319264
I0403 18:21:36.974591  6857 layer_factory.hpp:77] Creating layer loss2/drop_fc
I0403 18:21:36.974611  6857 net.cpp:91] Creating Layer loss2/drop_fc
I0403 18:21:36.974628  6857 net.cpp:425] loss2/drop_fc <- loss2/fc
I0403 18:21:36.974663  6857 net.cpp:386] loss2/drop_fc -> loss2/fc (in-place)
I0403 18:21:36.974714  6857 net.cpp:141] Setting up loss2/drop_fc
I0403 18:21:36.974741  6857 net.cpp:148] Top shape: 24 1024 (24576)
I0403 18:21:36.974757  6857 net.cpp:156] Memory required for data: 1208417568
I0403 18:21:36.974773  6857 layer_factory.hpp:77] Creating layer loss2/classifier_plantvillage
I0403 18:21:36.974792  6857 net.cpp:91] Creating Layer loss2/classifier_plantvillage
I0403 18:21:36.974808  6857 net.cpp:425] loss2/classifier_plantvillage <- loss2/fc
I0403 18:21:36.974829  6857 net.cpp:399] loss2/classifier_plantvillage -> loss2/classifier_plantvillage
I0403 18:21:36.975244  6857 net.cpp:141] Setting up loss2/classifier_plantvillage
I0403 18:21:36.975270  6857 net.cpp:148] Top shape: 24 38 (912)
I0403 18:21:36.975307  6857 net.cpp:156] Memory required for data: 1208421216
I0403 18:21:36.975327  6857 layer_factory.hpp:77] Creating layer loss2/classifier_plantvillage_loss2/classifier_plantvillage_0_split
I0403 18:21:36.975349  6857 net.cpp:91] Creating Layer loss2/classifier_plantvillage_loss2/classifier_plantvillage_0_split
I0403 18:21:36.975368  6857 net.cpp:425] loss2/classifier_plantvillage_loss2/classifier_plantvillage_0_split <- loss2/classifier_plantvillage
I0403 18:21:36.975386  6857 net.cpp:399] loss2/classifier_plantvillage_loss2/classifier_plantvillage_0_split -> loss2/classifier_plantvillage_loss2/classifier_plantvillage_0_split_0
I0403 18:21:36.975407  6857 net.cpp:399] loss2/classifier_plantvillage_loss2/classifier_plantvillage_0_split -> loss2/classifier_plantvillage_loss2/classifier_plantvillage_0_split_1
I0403 18:21:36.975428  6857 net.cpp:399] loss2/classifier_plantvillage_loss2/classifier_plantvillage_0_split -> loss2/classifier_plantvillage_loss2/classifier_plantvillage_0_split_2
I0403 18:21:36.975510  6857 net.cpp:141] Setting up loss2/classifier_plantvillage_loss2/classifier_plantvillage_0_split
I0403 18:21:36.975534  6857 net.cpp:148] Top shape: 24 38 (912)
I0403 18:21:36.975550  6857 net.cpp:148] Top shape: 24 38 (912)
I0403 18:21:36.975567  6857 net.cpp:148] Top shape: 24 38 (912)
I0403 18:21:36.975594  6857 net.cpp:156] Memory required for data: 1208432160
I0403 18:21:36.975610  6857 layer_factory.hpp:77] Creating layer inception_4e/1x1
I0403 18:21:36.975633  6857 net.cpp:91] Creating Layer inception_4e/1x1
I0403 18:21:36.975653  6857 net.cpp:425] inception_4e/1x1 <- inception_4d/output_inception_4d/output_0_split_1
I0403 18:21:36.975673  6857 net.cpp:399] inception_4e/1x1 -> inception_4e/1x1
I0403 18:21:36.977622  6857 net.cpp:141] Setting up inception_4e/1x1
I0403 18:21:36.977653  6857 net.cpp:148] Top shape: 24 256 14 14 (1204224)
I0403 18:21:36.977670  6857 net.cpp:156] Memory required for data: 1213249056
I0403 18:21:36.977690  6857 layer_factory.hpp:77] Creating layer inception_4e/relu_1x1
I0403 18:21:36.977713  6857 net.cpp:91] Creating Layer inception_4e/relu_1x1
I0403 18:21:36.977744  6857 net.cpp:425] inception_4e/relu_1x1 <- inception_4e/1x1
I0403 18:21:36.977763  6857 net.cpp:386] inception_4e/relu_1x1 -> inception_4e/1x1 (in-place)
I0403 18:21:36.978098  6857 net.cpp:141] Setting up inception_4e/relu_1x1
I0403 18:21:36.978126  6857 net.cpp:148] Top shape: 24 256 14 14 (1204224)
I0403 18:21:36.978142  6857 net.cpp:156] Memory required for data: 1218065952
I0403 18:21:36.978158  6857 layer_factory.hpp:77] Creating layer inception_4e/3x3_reduce
I0403 18:21:36.978186  6857 net.cpp:91] Creating Layer inception_4e/3x3_reduce
I0403 18:21:36.978207  6857 net.cpp:425] inception_4e/3x3_reduce <- inception_4d/output_inception_4d/output_0_split_2
I0403 18:21:36.978231  6857 net.cpp:399] inception_4e/3x3_reduce -> inception_4e/3x3_reduce
I0403 18:21:36.980507  6857 net.cpp:141] Setting up inception_4e/3x3_reduce
I0403 18:21:36.980537  6857 net.cpp:148] Top shape: 24 160 14 14 (752640)
I0403 18:21:36.980556  6857 net.cpp:156] Memory required for data: 1221076512
I0403 18:21:36.980588  6857 layer_factory.hpp:77] Creating layer inception_4e/relu_3x3_reduce
I0403 18:21:36.980610  6857 net.cpp:91] Creating Layer inception_4e/relu_3x3_reduce
I0403 18:21:36.980629  6857 net.cpp:425] inception_4e/relu_3x3_reduce <- inception_4e/3x3_reduce
I0403 18:21:36.980661  6857 net.cpp:386] inception_4e/relu_3x3_reduce -> inception_4e/3x3_reduce (in-place)
I0403 18:21:36.980868  6857 net.cpp:141] Setting up inception_4e/relu_3x3_reduce
I0403 18:21:36.980895  6857 net.cpp:148] Top shape: 24 160 14 14 (752640)
I0403 18:21:36.980939  6857 net.cpp:156] Memory required for data: 1224087072
I0403 18:21:36.980960  6857 layer_factory.hpp:77] Creating layer inception_4e/3x3
I0403 18:21:36.980983  6857 net.cpp:91] Creating Layer inception_4e/3x3
I0403 18:21:36.981003  6857 net.cpp:425] inception_4e/3x3 <- inception_4e/3x3_reduce
I0403 18:21:36.981026  6857 net.cpp:399] inception_4e/3x3 -> inception_4e/3x3
I0403 18:21:36.986552  6857 net.cpp:141] Setting up inception_4e/3x3
I0403 18:21:36.986601  6857 net.cpp:148] Top shape: 24 320 14 14 (1505280)
I0403 18:21:36.986619  6857 net.cpp:156] Memory required for data: 1230108192
I0403 18:21:36.986640  6857 layer_factory.hpp:77] Creating layer inception_4e/relu_3x3
I0403 18:21:36.986660  6857 net.cpp:91] Creating Layer inception_4e/relu_3x3
I0403 18:21:36.986678  6857 net.cpp:425] inception_4e/relu_3x3 <- inception_4e/3x3
I0403 18:21:36.986696  6857 net.cpp:386] inception_4e/relu_3x3 -> inception_4e/3x3 (in-place)
I0403 18:21:36.987028  6857 net.cpp:141] Setting up inception_4e/relu_3x3
I0403 18:21:36.987058  6857 net.cpp:148] Top shape: 24 320 14 14 (1505280)
I0403 18:21:36.987076  6857 net.cpp:156] Memory required for data: 1236129312
I0403 18:21:36.987093  6857 layer_factory.hpp:77] Creating layer inception_4e/5x5_reduce
I0403 18:21:36.987119  6857 net.cpp:91] Creating Layer inception_4e/5x5_reduce
I0403 18:21:36.987140  6857 net.cpp:425] inception_4e/5x5_reduce <- inception_4d/output_inception_4d/output_0_split_3
I0403 18:21:36.987161  6857 net.cpp:399] inception_4e/5x5_reduce -> inception_4e/5x5_reduce
I0403 18:21:36.988324  6857 net.cpp:141] Setting up inception_4e/5x5_reduce
I0403 18:21:36.988354  6857 net.cpp:148] Top shape: 24 32 14 14 (150528)
I0403 18:21:36.988371  6857 net.cpp:156] Memory required for data: 1236731424
I0403 18:21:36.988391  6857 layer_factory.hpp:77] Creating layer inception_4e/relu_5x5_reduce
I0403 18:21:36.988442  6857 net.cpp:91] Creating Layer inception_4e/relu_5x5_reduce
I0403 18:21:36.988471  6857 net.cpp:425] inception_4e/relu_5x5_reduce <- inception_4e/5x5_reduce
I0403 18:21:36.988490  6857 net.cpp:386] inception_4e/relu_5x5_reduce -> inception_4e/5x5_reduce (in-place)
I0403 18:21:36.988842  6857 net.cpp:141] Setting up inception_4e/relu_5x5_reduce
I0403 18:21:36.988880  6857 net.cpp:148] Top shape: 24 32 14 14 (150528)
I0403 18:21:36.988898  6857 net.cpp:156] Memory required for data: 1237333536
I0403 18:21:36.988914  6857 layer_factory.hpp:77] Creating layer inception_4e/5x5
I0403 18:21:36.988970  6857 net.cpp:91] Creating Layer inception_4e/5x5
I0403 18:21:36.988992  6857 net.cpp:425] inception_4e/5x5 <- inception_4e/5x5_reduce
I0403 18:21:36.989014  6857 net.cpp:399] inception_4e/5x5 -> inception_4e/5x5
I0403 18:21:36.991034  6857 net.cpp:141] Setting up inception_4e/5x5
I0403 18:21:36.991062  6857 net.cpp:148] Top shape: 24 128 14 14 (602112)
I0403 18:21:36.991078  6857 net.cpp:156] Memory required for data: 1239741984
I0403 18:21:36.991099  6857 layer_factory.hpp:77] Creating layer inception_4e/relu_5x5
I0403 18:21:36.991119  6857 net.cpp:91] Creating Layer inception_4e/relu_5x5
I0403 18:21:36.991137  6857 net.cpp:425] inception_4e/relu_5x5 <- inception_4e/5x5
I0403 18:21:36.991158  6857 net.cpp:386] inception_4e/relu_5x5 -> inception_4e/5x5 (in-place)
I0403 18:21:36.991374  6857 net.cpp:141] Setting up inception_4e/relu_5x5
I0403 18:21:36.991401  6857 net.cpp:148] Top shape: 24 128 14 14 (602112)
I0403 18:21:36.991418  6857 net.cpp:156] Memory required for data: 1242150432
I0403 18:21:36.991435  6857 layer_factory.hpp:77] Creating layer inception_4e/pool
I0403 18:21:36.991456  6857 net.cpp:91] Creating Layer inception_4e/pool
I0403 18:21:36.991475  6857 net.cpp:425] inception_4e/pool <- inception_4d/output_inception_4d/output_0_split_4
I0403 18:21:36.991494  6857 net.cpp:399] inception_4e/pool -> inception_4e/pool
I0403 18:21:36.991571  6857 net.cpp:141] Setting up inception_4e/pool
I0403 18:21:36.991596  6857 net.cpp:148] Top shape: 24 528 14 14 (2483712)
I0403 18:21:36.991612  6857 net.cpp:156] Memory required for data: 1252085280
I0403 18:21:36.991629  6857 layer_factory.hpp:77] Creating layer inception_4e/pool_proj
I0403 18:21:36.991665  6857 net.cpp:91] Creating Layer inception_4e/pool_proj
I0403 18:21:36.991684  6857 net.cpp:425] inception_4e/pool_proj <- inception_4e/pool
I0403 18:21:36.991705  6857 net.cpp:399] inception_4e/pool_proj -> inception_4e/pool_proj
I0403 18:21:36.993283  6857 net.cpp:141] Setting up inception_4e/pool_proj
I0403 18:21:36.993325  6857 net.cpp:148] Top shape: 24 128 14 14 (602112)
I0403 18:21:36.993345  6857 net.cpp:156] Memory required for data: 1254493728
I0403 18:21:36.993363  6857 layer_factory.hpp:77] Creating layer inception_4e/relu_pool_proj
I0403 18:21:36.993383  6857 net.cpp:91] Creating Layer inception_4e/relu_pool_proj
I0403 18:21:36.993401  6857 net.cpp:425] inception_4e/relu_pool_proj <- inception_4e/pool_proj
I0403 18:21:36.993427  6857 net.cpp:386] inception_4e/relu_pool_proj -> inception_4e/pool_proj (in-place)
I0403 18:21:36.993749  6857 net.cpp:141] Setting up inception_4e/relu_pool_proj
I0403 18:21:36.993780  6857 net.cpp:148] Top shape: 24 128 14 14 (602112)
I0403 18:21:36.993798  6857 net.cpp:156] Memory required for data: 1256902176
I0403 18:21:36.993814  6857 layer_factory.hpp:77] Creating layer inception_4e/output
I0403 18:21:36.993834  6857 net.cpp:91] Creating Layer inception_4e/output
I0403 18:21:36.993850  6857 net.cpp:425] inception_4e/output <- inception_4e/1x1
I0403 18:21:36.993868  6857 net.cpp:425] inception_4e/output <- inception_4e/3x3
I0403 18:21:36.993885  6857 net.cpp:425] inception_4e/output <- inception_4e/5x5
I0403 18:21:36.993902  6857 net.cpp:425] inception_4e/output <- inception_4e/pool_proj
I0403 18:21:36.993935  6857 net.cpp:399] inception_4e/output -> inception_4e/output
I0403 18:21:36.993984  6857 net.cpp:141] Setting up inception_4e/output
I0403 18:21:36.994009  6857 net.cpp:148] Top shape: 24 832 14 14 (3913728)
I0403 18:21:36.994024  6857 net.cpp:156] Memory required for data: 1272557088
I0403 18:21:36.994040  6857 layer_factory.hpp:77] Creating layer pool4/3x3_s2
I0403 18:21:36.994060  6857 net.cpp:91] Creating Layer pool4/3x3_s2
I0403 18:21:36.994078  6857 net.cpp:425] pool4/3x3_s2 <- inception_4e/output
I0403 18:21:36.994097  6857 net.cpp:399] pool4/3x3_s2 -> pool4/3x3_s2
I0403 18:21:36.994168  6857 net.cpp:141] Setting up pool4/3x3_s2
I0403 18:21:36.994195  6857 net.cpp:148] Top shape: 24 832 7 7 (978432)
I0403 18:21:36.994211  6857 net.cpp:156] Memory required for data: 1276470816
I0403 18:21:36.994227  6857 layer_factory.hpp:77] Creating layer pool4/3x3_s2_pool4/3x3_s2_0_split
I0403 18:21:36.994248  6857 net.cpp:91] Creating Layer pool4/3x3_s2_pool4/3x3_s2_0_split
I0403 18:21:36.994266  6857 net.cpp:425] pool4/3x3_s2_pool4/3x3_s2_0_split <- pool4/3x3_s2
I0403 18:21:36.994287  6857 net.cpp:399] pool4/3x3_s2_pool4/3x3_s2_0_split -> pool4/3x3_s2_pool4/3x3_s2_0_split_0
I0403 18:21:36.994309  6857 net.cpp:399] pool4/3x3_s2_pool4/3x3_s2_0_split -> pool4/3x3_s2_pool4/3x3_s2_0_split_1
I0403 18:21:36.994330  6857 net.cpp:399] pool4/3x3_s2_pool4/3x3_s2_0_split -> pool4/3x3_s2_pool4/3x3_s2_0_split_2
I0403 18:21:36.994350  6857 net.cpp:399] pool4/3x3_s2_pool4/3x3_s2_0_split -> pool4/3x3_s2_pool4/3x3_s2_0_split_3
I0403 18:21:36.994446  6857 net.cpp:141] Setting up pool4/3x3_s2_pool4/3x3_s2_0_split
I0403 18:21:36.994469  6857 net.cpp:148] Top shape: 24 832 7 7 (978432)
I0403 18:21:36.994487  6857 net.cpp:148] Top shape: 24 832 7 7 (978432)
I0403 18:21:36.994503  6857 net.cpp:148] Top shape: 24 832 7 7 (978432)
I0403 18:21:36.994519  6857 net.cpp:148] Top shape: 24 832 7 7 (978432)
I0403 18:21:36.994534  6857 net.cpp:156] Memory required for data: 1292125728
I0403 18:21:36.994550  6857 layer_factory.hpp:77] Creating layer inception_5a/1x1
I0403 18:21:36.994573  6857 net.cpp:91] Creating Layer inception_5a/1x1
I0403 18:21:36.994592  6857 net.cpp:425] inception_5a/1x1 <- pool4/3x3_s2_pool4/3x3_s2_0_split_0
I0403 18:21:36.994614  6857 net.cpp:399] inception_5a/1x1 -> inception_5a/1x1
I0403 18:21:36.997674  6857 net.cpp:141] Setting up inception_5a/1x1
I0403 18:21:36.997705  6857 net.cpp:148] Top shape: 24 256 7 7 (301056)
I0403 18:21:36.997722  6857 net.cpp:156] Memory required for data: 1293329952
I0403 18:21:36.997742  6857 layer_factory.hpp:77] Creating layer inception_5a/relu_1x1
I0403 18:21:36.997761  6857 net.cpp:91] Creating Layer inception_5a/relu_1x1
I0403 18:21:36.997782  6857 net.cpp:425] inception_5a/relu_1x1 <- inception_5a/1x1
I0403 18:21:36.997803  6857 net.cpp:386] inception_5a/relu_1x1 -> inception_5a/1x1 (in-place)
I0403 18:21:36.998138  6857 net.cpp:141] Setting up inception_5a/relu_1x1
I0403 18:21:36.998165  6857 net.cpp:148] Top shape: 24 256 7 7 (301056)
I0403 18:21:36.998188  6857 net.cpp:156] Memory required for data: 1294534176
I0403 18:21:36.998206  6857 layer_factory.hpp:77] Creating layer inception_5a/3x3_reduce
I0403 18:21:36.998231  6857 net.cpp:91] Creating Layer inception_5a/3x3_reduce
I0403 18:21:36.998251  6857 net.cpp:425] inception_5a/3x3_reduce <- pool4/3x3_s2_pool4/3x3_s2_0_split_1
I0403 18:21:36.998276  6857 net.cpp:399] inception_5a/3x3_reduce -> inception_5a/3x3_reduce
I0403 18:21:37.001013  6857 net.cpp:141] Setting up inception_5a/3x3_reduce
I0403 18:21:37.001044  6857 net.cpp:148] Top shape: 24 160 7 7 (188160)
I0403 18:21:37.001062  6857 net.cpp:156] Memory required for data: 1295286816
I0403 18:21:37.001082  6857 layer_factory.hpp:77] Creating layer inception_5a/relu_3x3_reduce
I0403 18:21:37.001102  6857 net.cpp:91] Creating Layer inception_5a/relu_3x3_reduce
I0403 18:21:37.001121  6857 net.cpp:425] inception_5a/relu_3x3_reduce <- inception_5a/3x3_reduce
I0403 18:21:37.001142  6857 net.cpp:386] inception_5a/relu_3x3_reduce -> inception_5a/3x3_reduce (in-place)
I0403 18:21:37.001343  6857 net.cpp:141] Setting up inception_5a/relu_3x3_reduce
I0403 18:21:37.001371  6857 net.cpp:148] Top shape: 24 160 7 7 (188160)
I0403 18:21:37.001387  6857 net.cpp:156] Memory required for data: 1296039456
I0403 18:21:37.001417  6857 layer_factory.hpp:77] Creating layer inception_5a/3x3
I0403 18:21:37.001441  6857 net.cpp:91] Creating Layer inception_5a/3x3
I0403 18:21:37.001461  6857 net.cpp:425] inception_5a/3x3 <- inception_5a/3x3_reduce
I0403 18:21:37.001487  6857 net.cpp:399] inception_5a/3x3 -> inception_5a/3x3
I0403 18:21:37.006978  6857 net.cpp:141] Setting up inception_5a/3x3
I0403 18:21:37.007010  6857 net.cpp:148] Top shape: 24 320 7 7 (376320)
I0403 18:21:37.007040  6857 net.cpp:156] Memory required for data: 1297544736
I0403 18:21:37.007060  6857 layer_factory.hpp:77] Creating layer inception_5a/relu_3x3
I0403 18:21:37.007081  6857 net.cpp:91] Creating Layer inception_5a/relu_3x3
I0403 18:21:37.007102  6857 net.cpp:425] inception_5a/relu_3x3 <- inception_5a/3x3
I0403 18:21:37.007120  6857 net.cpp:386] inception_5a/relu_3x3 -> inception_5a/3x3 (in-place)
I0403 18:21:37.007458  6857 net.cpp:141] Setting up inception_5a/relu_3x3
I0403 18:21:37.007485  6857 net.cpp:148] Top shape: 24 320 7 7 (376320)
I0403 18:21:37.007503  6857 net.cpp:156] Memory required for data: 1299050016
I0403 18:21:37.007519  6857 layer_factory.hpp:77] Creating layer inception_5a/5x5_reduce
I0403 18:21:37.007545  6857 net.cpp:91] Creating Layer inception_5a/5x5_reduce
I0403 18:21:37.007565  6857 net.cpp:425] inception_5a/5x5_reduce <- pool4/3x3_s2_pool4/3x3_s2_0_split_2
I0403 18:21:37.007591  6857 net.cpp:399] inception_5a/5x5_reduce -> inception_5a/5x5_reduce
I0403 18:21:37.008846  6857 net.cpp:141] Setting up inception_5a/5x5_reduce
I0403 18:21:37.008877  6857 net.cpp:148] Top shape: 24 32 7 7 (37632)
I0403 18:21:37.008893  6857 net.cpp:156] Memory required for data: 1299200544
I0403 18:21:37.008913  6857 layer_factory.hpp:77] Creating layer inception_5a/relu_5x5_reduce
I0403 18:21:37.008935  6857 net.cpp:91] Creating Layer inception_5a/relu_5x5_reduce
I0403 18:21:37.008966  6857 net.cpp:425] inception_5a/relu_5x5_reduce <- inception_5a/5x5_reduce
I0403 18:21:37.008985  6857 net.cpp:386] inception_5a/relu_5x5_reduce -> inception_5a/5x5_reduce (in-place)
I0403 18:21:37.009333  6857 net.cpp:141] Setting up inception_5a/relu_5x5_reduce
I0403 18:21:37.009361  6857 net.cpp:148] Top shape: 24 32 7 7 (37632)
I0403 18:21:37.009377  6857 net.cpp:156] Memory required for data: 1299351072
I0403 18:21:37.009395  6857 layer_factory.hpp:77] Creating layer inception_5a/5x5
I0403 18:21:37.009419  6857 net.cpp:91] Creating Layer inception_5a/5x5
I0403 18:21:37.009439  6857 net.cpp:425] inception_5a/5x5 <- inception_5a/5x5_reduce
I0403 18:21:37.009474  6857 net.cpp:399] inception_5a/5x5 -> inception_5a/5x5
I0403 18:21:37.011332  6857 net.cpp:141] Setting up inception_5a/5x5
I0403 18:21:37.011375  6857 net.cpp:148] Top shape: 24 128 7 7 (150528)
I0403 18:21:37.011392  6857 net.cpp:156] Memory required for data: 1299953184
I0403 18:21:37.011411  6857 layer_factory.hpp:77] Creating layer inception_5a/relu_5x5
I0403 18:21:37.011430  6857 net.cpp:91] Creating Layer inception_5a/relu_5x5
I0403 18:21:37.011451  6857 net.cpp:425] inception_5a/relu_5x5 <- inception_5a/5x5
I0403 18:21:37.011468  6857 net.cpp:386] inception_5a/relu_5x5 -> inception_5a/5x5 (in-place)
I0403 18:21:37.011675  6857 net.cpp:141] Setting up inception_5a/relu_5x5
I0403 18:21:37.011701  6857 net.cpp:148] Top shape: 24 128 7 7 (150528)
I0403 18:21:37.011718  6857 net.cpp:156] Memory required for data: 1300555296
I0403 18:21:37.011734  6857 layer_factory.hpp:77] Creating layer inception_5a/pool
I0403 18:21:37.011755  6857 net.cpp:91] Creating Layer inception_5a/pool
I0403 18:21:37.011773  6857 net.cpp:425] inception_5a/pool <- pool4/3x3_s2_pool4/3x3_s2_0_split_3
I0403 18:21:37.011795  6857 net.cpp:399] inception_5a/pool -> inception_5a/pool
I0403 18:21:37.011870  6857 net.cpp:141] Setting up inception_5a/pool
I0403 18:21:37.011896  6857 net.cpp:148] Top shape: 24 832 7 7 (978432)
I0403 18:21:37.011912  6857 net.cpp:156] Memory required for data: 1304469024
I0403 18:21:37.011929  6857 layer_factory.hpp:77] Creating layer inception_5a/pool_proj
I0403 18:21:37.011952  6857 net.cpp:91] Creating Layer inception_5a/pool_proj
I0403 18:21:37.011984  6857 net.cpp:425] inception_5a/pool_proj <- inception_5a/pool
I0403 18:21:37.012006  6857 net.cpp:399] inception_5a/pool_proj -> inception_5a/pool_proj
I0403 18:21:37.014611  6857 net.cpp:141] Setting up inception_5a/pool_proj
I0403 18:21:37.014652  6857 net.cpp:148] Top shape: 24 128 7 7 (150528)
I0403 18:21:37.014670  6857 net.cpp:156] Memory required for data: 1305071136
I0403 18:21:37.014689  6857 layer_factory.hpp:77] Creating layer inception_5a/relu_pool_proj
I0403 18:21:37.014708  6857 net.cpp:91] Creating Layer inception_5a/relu_pool_proj
I0403 18:21:37.014725  6857 net.cpp:425] inception_5a/relu_pool_proj <- inception_5a/pool_proj
I0403 18:21:37.014747  6857 net.cpp:386] inception_5a/relu_pool_proj -> inception_5a/pool_proj (in-place)
I0403 18:21:37.015058  6857 net.cpp:141] Setting up inception_5a/relu_pool_proj
I0403 18:21:37.015086  6857 net.cpp:148] Top shape: 24 128 7 7 (150528)
I0403 18:21:37.015101  6857 net.cpp:156] Memory required for data: 1305673248
I0403 18:21:37.015117  6857 layer_factory.hpp:77] Creating layer inception_5a/output
I0403 18:21:37.015136  6857 net.cpp:91] Creating Layer inception_5a/output
I0403 18:21:37.015152  6857 net.cpp:425] inception_5a/output <- inception_5a/1x1
I0403 18:21:37.015172  6857 net.cpp:425] inception_5a/output <- inception_5a/3x3
I0403 18:21:37.015192  6857 net.cpp:425] inception_5a/output <- inception_5a/5x5
I0403 18:21:37.015210  6857 net.cpp:425] inception_5a/output <- inception_5a/pool_proj
I0403 18:21:37.015230  6857 net.cpp:399] inception_5a/output -> inception_5a/output
I0403 18:21:37.015281  6857 net.cpp:141] Setting up inception_5a/output
I0403 18:21:37.015306  6857 net.cpp:148] Top shape: 24 832 7 7 (978432)
I0403 18:21:37.015326  6857 net.cpp:156] Memory required for data: 1309586976
I0403 18:21:37.015341  6857 layer_factory.hpp:77] Creating layer inception_5a/output_inception_5a/output_0_split
I0403 18:21:37.015359  6857 net.cpp:91] Creating Layer inception_5a/output_inception_5a/output_0_split
I0403 18:21:37.015377  6857 net.cpp:425] inception_5a/output_inception_5a/output_0_split <- inception_5a/output
I0403 18:21:37.015395  6857 net.cpp:399] inception_5a/output_inception_5a/output_0_split -> inception_5a/output_inception_5a/output_0_split_0
I0403 18:21:37.015418  6857 net.cpp:399] inception_5a/output_inception_5a/output_0_split -> inception_5a/output_inception_5a/output_0_split_1
I0403 18:21:37.015439  6857 net.cpp:399] inception_5a/output_inception_5a/output_0_split -> inception_5a/output_inception_5a/output_0_split_2
I0403 18:21:37.015473  6857 net.cpp:399] inception_5a/output_inception_5a/output_0_split -> inception_5a/output_inception_5a/output_0_split_3
I0403 18:21:37.015594  6857 net.cpp:141] Setting up inception_5a/output_inception_5a/output_0_split
I0403 18:21:37.015619  6857 net.cpp:148] Top shape: 24 832 7 7 (978432)
I0403 18:21:37.015636  6857 net.cpp:148] Top shape: 24 832 7 7 (978432)
I0403 18:21:37.015655  6857 net.cpp:148] Top shape: 24 832 7 7 (978432)
I0403 18:21:37.015671  6857 net.cpp:148] Top shape: 24 832 7 7 (978432)
I0403 18:21:37.015686  6857 net.cpp:156] Memory required for data: 1325241888
I0403 18:21:37.015702  6857 layer_factory.hpp:77] Creating layer inception_5b/1x1
I0403 18:21:37.015725  6857 net.cpp:91] Creating Layer inception_5b/1x1
I0403 18:21:37.015746  6857 net.cpp:425] inception_5b/1x1 <- inception_5a/output_inception_5a/output_0_split_0
I0403 18:21:37.015781  6857 net.cpp:399] inception_5b/1x1 -> inception_5b/1x1
I0403 18:21:37.019742  6857 net.cpp:141] Setting up inception_5b/1x1
I0403 18:21:37.019781  6857 net.cpp:148] Top shape: 24 384 7 7 (451584)
I0403 18:21:37.019800  6857 net.cpp:156] Memory required for data: 1327048224
I0403 18:21:37.019820  6857 layer_factory.hpp:77] Creating layer inception_5b/relu_1x1
I0403 18:21:37.019840  6857 net.cpp:91] Creating Layer inception_5b/relu_1x1
I0403 18:21:37.019860  6857 net.cpp:425] inception_5b/relu_1x1 <- inception_5b/1x1
I0403 18:21:37.019881  6857 net.cpp:386] inception_5b/relu_1x1 -> inception_5b/1x1 (in-place)
I0403 18:21:37.020210  6857 net.cpp:141] Setting up inception_5b/relu_1x1
I0403 18:21:37.020239  6857 net.cpp:148] Top shape: 24 384 7 7 (451584)
I0403 18:21:37.020256  6857 net.cpp:156] Memory required for data: 1328854560
I0403 18:21:37.020272  6857 layer_factory.hpp:77] Creating layer inception_5b/3x3_reduce
I0403 18:21:37.020297  6857 net.cpp:91] Creating Layer inception_5b/3x3_reduce
I0403 18:21:37.020315  6857 net.cpp:425] inception_5b/3x3_reduce <- inception_5a/output_inception_5a/output_0_split_1
I0403 18:21:37.020335  6857 net.cpp:399] inception_5b/3x3_reduce -> inception_5b/3x3_reduce
I0403 18:21:37.023198  6857 net.cpp:141] Setting up inception_5b/3x3_reduce
I0403 18:21:37.023229  6857 net.cpp:148] Top shape: 24 192 7 7 (225792)
I0403 18:21:37.023247  6857 net.cpp:156] Memory required for data: 1329757728
I0403 18:21:37.023267  6857 layer_factory.hpp:77] Creating layer inception_5b/relu_3x3_reduce
I0403 18:21:37.023286  6857 net.cpp:91] Creating Layer inception_5b/relu_3x3_reduce
I0403 18:21:37.023303  6857 net.cpp:425] inception_5b/relu_3x3_reduce <- inception_5b/3x3_reduce
I0403 18:21:37.023324  6857 net.cpp:386] inception_5b/relu_3x3_reduce -> inception_5b/3x3_reduce (in-place)
I0403 18:21:37.023519  6857 net.cpp:141] Setting up inception_5b/relu_3x3_reduce
I0403 18:21:37.023543  6857 net.cpp:148] Top shape: 24 192 7 7 (225792)
I0403 18:21:37.023558  6857 net.cpp:156] Memory required for data: 1330660896
I0403 18:21:37.023574  6857 layer_factory.hpp:77] Creating layer inception_5b/3x3
I0403 18:21:37.023597  6857 net.cpp:91] Creating Layer inception_5b/3x3
I0403 18:21:37.023614  6857 net.cpp:425] inception_5b/3x3 <- inception_5b/3x3_reduce
I0403 18:21:37.023638  6857 net.cpp:399] inception_5b/3x3 -> inception_5b/3x3
I0403 18:21:37.030580  6857 net.cpp:141] Setting up inception_5b/3x3
I0403 18:21:37.030608  6857 net.cpp:148] Top shape: 24 384 7 7 (451584)
I0403 18:21:37.030625  6857 net.cpp:156] Memory required for data: 1332467232
I0403 18:21:37.030644  6857 layer_factory.hpp:77] Creating layer inception_5b/relu_3x3
I0403 18:21:37.030663  6857 net.cpp:91] Creating Layer inception_5b/relu_3x3
I0403 18:21:37.030679  6857 net.cpp:425] inception_5b/relu_3x3 <- inception_5b/3x3
I0403 18:21:37.030700  6857 net.cpp:386] inception_5b/relu_3x3 -> inception_5b/3x3 (in-place)
I0403 18:21:37.031019  6857 net.cpp:141] Setting up inception_5b/relu_3x3
I0403 18:21:37.031047  6857 net.cpp:148] Top shape: 24 384 7 7 (451584)
I0403 18:21:37.031064  6857 net.cpp:156] Memory required for data: 1334273568
I0403 18:21:37.031080  6857 layer_factory.hpp:77] Creating layer inception_5b/5x5_reduce
I0403 18:21:37.031118  6857 net.cpp:91] Creating Layer inception_5b/5x5_reduce
I0403 18:21:37.031138  6857 net.cpp:425] inception_5b/5x5_reduce <- inception_5a/output_inception_5a/output_0_split_2
I0403 18:21:37.031160  6857 net.cpp:399] inception_5b/5x5_reduce -> inception_5b/5x5_reduce
I0403 18:21:37.032487  6857 net.cpp:141] Setting up inception_5b/5x5_reduce
I0403 18:21:37.032518  6857 net.cpp:148] Top shape: 24 48 7 7 (56448)
I0403 18:21:37.032536  6857 net.cpp:156] Memory required for data: 1334499360
I0403 18:21:37.032567  6857 layer_factory.hpp:77] Creating layer inception_5b/relu_5x5_reduce
I0403 18:21:37.032584  6857 net.cpp:91] Creating Layer inception_5b/relu_5x5_reduce
I0403 18:21:37.032613  6857 net.cpp:425] inception_5b/relu_5x5_reduce <- inception_5b/5x5_reduce
I0403 18:21:37.032634  6857 net.cpp:386] inception_5b/relu_5x5_reduce -> inception_5b/5x5_reduce (in-place)
I0403 18:21:37.033037  6857 net.cpp:141] Setting up inception_5b/relu_5x5_reduce
I0403 18:21:37.033064  6857 net.cpp:148] Top shape: 24 48 7 7 (56448)
I0403 18:21:37.033080  6857 net.cpp:156] Memory required for data: 1334725152
I0403 18:21:37.033097  6857 layer_factory.hpp:77] Creating layer inception_5b/5x5
I0403 18:21:37.033119  6857 net.cpp:91] Creating Layer inception_5b/5x5
I0403 18:21:37.033136  6857 net.cpp:425] inception_5b/5x5 <- inception_5b/5x5_reduce
I0403 18:21:37.033169  6857 net.cpp:399] inception_5b/5x5 -> inception_5b/5x5
I0403 18:21:37.035372  6857 net.cpp:141] Setting up inception_5b/5x5
I0403 18:21:37.035399  6857 net.cpp:148] Top shape: 24 128 7 7 (150528)
I0403 18:21:37.035415  6857 net.cpp:156] Memory required for data: 1335327264
I0403 18:21:37.035435  6857 layer_factory.hpp:77] Creating layer inception_5b/relu_5x5
I0403 18:21:37.035467  6857 net.cpp:91] Creating Layer inception_5b/relu_5x5
I0403 18:21:37.035485  6857 net.cpp:425] inception_5b/relu_5x5 <- inception_5b/5x5
I0403 18:21:37.035507  6857 net.cpp:386] inception_5b/relu_5x5 -> inception_5b/5x5 (in-place)
I0403 18:21:37.035719  6857 net.cpp:141] Setting up inception_5b/relu_5x5
I0403 18:21:37.035756  6857 net.cpp:148] Top shape: 24 128 7 7 (150528)
I0403 18:21:37.035771  6857 net.cpp:156] Memory required for data: 1335929376
I0403 18:21:37.035786  6857 layer_factory.hpp:77] Creating layer inception_5b/pool
I0403 18:21:37.035809  6857 net.cpp:91] Creating Layer inception_5b/pool
I0403 18:21:37.035825  6857 net.cpp:425] inception_5b/pool <- inception_5a/output_inception_5a/output_0_split_3
I0403 18:21:37.035845  6857 net.cpp:399] inception_5b/pool -> inception_5b/pool
I0403 18:21:37.035917  6857 net.cpp:141] Setting up inception_5b/pool
I0403 18:21:37.035939  6857 net.cpp:148] Top shape: 24 832 7 7 (978432)
I0403 18:21:37.035954  6857 net.cpp:156] Memory required for data: 1339843104
I0403 18:21:37.035969  6857 layer_factory.hpp:77] Creating layer inception_5b/pool_proj
I0403 18:21:37.035992  6857 net.cpp:91] Creating Layer inception_5b/pool_proj
I0403 18:21:37.036010  6857 net.cpp:425] inception_5b/pool_proj <- inception_5b/pool
I0403 18:21:37.036031  6857 net.cpp:399] inception_5b/pool_proj -> inception_5b/pool_proj
I0403 18:21:37.038414  6857 net.cpp:141] Setting up inception_5b/pool_proj
I0403 18:21:37.038445  6857 net.cpp:148] Top shape: 24 128 7 7 (150528)
I0403 18:21:37.038462  6857 net.cpp:156] Memory required for data: 1340445216
I0403 18:21:37.038481  6857 layer_factory.hpp:77] Creating layer inception_5b/relu_pool_proj
I0403 18:21:37.038501  6857 net.cpp:91] Creating Layer inception_5b/relu_pool_proj
I0403 18:21:37.038516  6857 net.cpp:425] inception_5b/relu_pool_proj <- inception_5b/pool_proj
I0403 18:21:37.038537  6857 net.cpp:386] inception_5b/relu_pool_proj -> inception_5b/pool_proj (in-place)
I0403 18:21:37.038830  6857 net.cpp:141] Setting up inception_5b/relu_pool_proj
I0403 18:21:37.038858  6857 net.cpp:148] Top shape: 24 128 7 7 (150528)
I0403 18:21:37.038874  6857 net.cpp:156] Memory required for data: 1341047328
I0403 18:21:37.038890  6857 layer_factory.hpp:77] Creating layer inception_5b/output
I0403 18:21:37.038908  6857 net.cpp:91] Creating Layer inception_5b/output
I0403 18:21:37.038938  6857 net.cpp:425] inception_5b/output <- inception_5b/1x1
I0403 18:21:37.038955  6857 net.cpp:425] inception_5b/output <- inception_5b/3x3
I0403 18:21:37.038972  6857 net.cpp:425] inception_5b/output <- inception_5b/5x5
I0403 18:21:37.038990  6857 net.cpp:425] inception_5b/output <- inception_5b/pool_proj
I0403 18:21:37.039010  6857 net.cpp:399] inception_5b/output -> inception_5b/output
I0403 18:21:37.039060  6857 net.cpp:141] Setting up inception_5b/output
I0403 18:21:37.039084  6857 net.cpp:148] Top shape: 24 1024 7 7 (1204224)
I0403 18:21:37.039099  6857 net.cpp:156] Memory required for data: 1345864224
I0403 18:21:37.039114  6857 layer_factory.hpp:77] Creating layer pool5/7x7_s1
I0403 18:21:37.039134  6857 net.cpp:91] Creating Layer pool5/7x7_s1
I0403 18:21:37.039152  6857 net.cpp:425] pool5/7x7_s1 <- inception_5b/output
I0403 18:21:37.039170  6857 net.cpp:399] pool5/7x7_s1 -> pool5/7x7_s1
I0403 18:21:37.039410  6857 net.cpp:141] Setting up pool5/7x7_s1
I0403 18:21:37.039436  6857 net.cpp:148] Top shape: 24 1024 1 1 (24576)
I0403 18:21:37.039451  6857 net.cpp:156] Memory required for data: 1345962528
I0403 18:21:37.039466  6857 layer_factory.hpp:77] Creating layer pool5/drop_7x7_s1
I0403 18:21:37.039499  6857 net.cpp:91] Creating Layer pool5/drop_7x7_s1
I0403 18:21:37.039515  6857 net.cpp:425] pool5/drop_7x7_s1 <- pool5/7x7_s1
I0403 18:21:37.039533  6857 net.cpp:386] pool5/drop_7x7_s1 -> pool5/7x7_s1 (in-place)
I0403 18:21:37.039582  6857 net.cpp:141] Setting up pool5/drop_7x7_s1
I0403 18:21:37.039610  6857 net.cpp:148] Top shape: 24 1024 1 1 (24576)
I0403 18:21:37.039626  6857 net.cpp:156] Memory required for data: 1346060832
I0403 18:21:37.039641  6857 layer_factory.hpp:77] Creating layer loss3/classifier_plantvillage
I0403 18:21:37.039661  6857 net.cpp:91] Creating Layer loss3/classifier_plantvillage
I0403 18:21:37.039677  6857 net.cpp:425] loss3/classifier_plantvillage <- pool5/7x7_s1
I0403 18:21:37.039698  6857 net.cpp:399] loss3/classifier_plantvillage -> loss3/classifier_plantvillage
I0403 18:21:37.040114  6857 net.cpp:141] Setting up loss3/classifier_plantvillage
I0403 18:21:37.040143  6857 net.cpp:148] Top shape: 24 38 (912)
I0403 18:21:37.040158  6857 net.cpp:156] Memory required for data: 1346064480
I0403 18:21:37.040181  6857 layer_factory.hpp:77] Creating layer loss3/classifier_plantvillage_loss3/classifier_plantvillage_0_split
I0403 18:21:37.040201  6857 net.cpp:91] Creating Layer loss3/classifier_plantvillage_loss3/classifier_plantvillage_0_split
I0403 18:21:37.040218  6857 net.cpp:425] loss3/classifier_plantvillage_loss3/classifier_plantvillage_0_split <- loss3/classifier_plantvillage
I0403 18:21:37.040236  6857 net.cpp:399] loss3/classifier_plantvillage_loss3/classifier_plantvillage_0_split -> loss3/classifier_plantvillage_loss3/classifier_plantvillage_0_split_0
I0403 18:21:37.040256  6857 net.cpp:399] loss3/classifier_plantvillage_loss3/classifier_plantvillage_0_split -> loss3/classifier_plantvillage_loss3/classifier_plantvillage_0_split_1
I0403 18:21:37.040278  6857 net.cpp:399] loss3/classifier_plantvillage_loss3/classifier_plantvillage_0_split -> loss3/classifier_plantvillage_loss3/classifier_plantvillage_0_split_2
I0403 18:21:37.040300  6857 net.cpp:399] loss3/classifier_plantvillage_loss3/classifier_plantvillage_0_split -> loss3/classifier_plantvillage_loss3/classifier_plantvillage_0_split_3
I0403 18:21:37.040400  6857 net.cpp:141] Setting up loss3/classifier_plantvillage_loss3/classifier_plantvillage_0_split
I0403 18:21:37.040423  6857 net.cpp:148] Top shape: 24 38 (912)
I0403 18:21:37.040439  6857 net.cpp:148] Top shape: 24 38 (912)
I0403 18:21:37.040455  6857 net.cpp:148] Top shape: 24 38 (912)
I0403 18:21:37.040472  6857 net.cpp:148] Top shape: 24 38 (912)
I0403 18:21:37.040485  6857 net.cpp:156] Memory required for data: 1346079072
I0403 18:21:37.040500  6857 layer_factory.hpp:77] Creating layer loss1/loss
I0403 18:21:37.040523  6857 net.cpp:91] Creating Layer loss1/loss
I0403 18:21:37.040539  6857 net.cpp:425] loss1/loss <- loss1/classifier_plantvillage_loss1/classifier_plantvillage_0_split_0
I0403 18:21:37.040572  6857 net.cpp:425] loss1/loss <- label_data_1_split_0
…
