…
I0403 18:28:37.521750  7002 net.cpp:313] The NetState phase (1) differed from the phase (0) specified by a rule in layer data
I0403 18:28:37.522903  7002 net.cpp:49] Initializing net from parameters: 
state {
  phase: TEST
}
layer {
  name: "data"
  type: "Data"
  top: "data"
  top: "label"
  include {
    phase: TEST
  }
  transform_param {
    mirror: false
    crop_size: 224
    mean_file: "/home/mohanty/data/final_dataset/lmdb/segmented-50-50/mean.binaryproto"
  }
  data_param {
    source: "/home/mohanty/data/final_dataset/lmdb/segmented-50-50/test_db"
    batch_size: 24
    backend: LMDB
  }
}
layer {
  name: "conv1/7x7_s2"
  type: "Convolution"
  bottom: "data"
  top: "conv1/7x7_s2"
  param {
    lr_mult: 1
    decay_mult: 1
  }
  param {
    lr_mult: 2
    decay_mult: 0
  }
  convolution_param {
    num_output: 64
    pad: 3
    kernel_size: 7
    stride: 2
    weight_filler {
      type: "xavier"
      std: 0.1
    }
    bias_filler {
      type: "constant"
      value: 0.2
    }
  }
}
layer {
  name: "conv1/relu_7x7"
  type: "ReLU"
  bottom: "conv1/7x7_s2"
  top: "conv1/7x7_s2"
}
layer {
  name: "pool1/3x3_s2"
  type: "Pooling"
  bottom: "conv1/7x7_s2"
  top: "pool1/3x3_s2"
  pooling_param {
    pool: MAX
    kernel_size: 3
    stride: 2
  }
}
layer {
  name: "pool1/norm1"
  type: "LRN"
  bottom: "pool1/3x3_s2"
  top: "pool1/norm1"
  lrn_param {
    local_size: 5
    alpha: 0.0001
    beta: 0.75
  }
}
layer {
  name: "conv2/3x3_reduce"
  type: "Convolution"
  bottom: "pool1/norm1"
  top: "conv2/3x3_reduce"
  param {
    lr_mult: 1
    decay_mult: 1
  }
  param {
    lr_mult: 2
    decay_mult: 0
  }
  convolution_param {
    num_output: 64
    kernel_size: 1
    weight_filler {
      type: "xavier"
      std: 0.1
    }
    bias_filler {
      type: "constant"
      value: 0.2
    }
  }
}
layer {
  name: "conv2/relu_3x3_reduce"
  type: "ReLU"
  bottom: "conv2/3x3_reduce"
  top: "conv2/3x3_reduce"
}
layer {
  name: "conv2/3x3"
  type: "Convolution"
  bottom: "conv2/3x3_reduce"
  top: "conv2/3x3"
  param {
    lr_mult: 1
    decay_mult: 1
  }
  param {
    lr_mult: 2
    decay_mult: 0
  }
  convolution_param {
    num_output: 192
    pad: 1
    kernel_size: 3
    weight_filler {
      type: "xavier"
      std: 0.03
    }
    bias_filler {
      type: "constant"
      value: 0.2
    }
  }
}
layer {
  name: "conv2/relu_3x3"
  type: "ReLU"
  bottom: "conv2/3x3"
  top: "conv2/3x3"
}
layer {
  name: "conv2/norm2"
  type: "LRN"
  bottom: "conv2/3x3"
  top: "conv2/norm2"
  lrn_param {
    local_size: 5
    alpha: 0.0001
    beta: 0.75
  }
}
layer {
  name: "pool2/3x3_s2"
  type: "Pooling"
  bottom: "conv2/norm2"
  top: "pool2/3x3_s2"
  pooling_param {
    pool: MAX
    kernel_size: 3
    stride: 2
  }
}
layer {
  name: "inception_3a/1x1"
  type: "Convolution"
  bottom: "pool2/3x3_s2"
  top: "inception_3a/1x1"
  param {
    lr_mult: 1
    decay_mult: 1
  }
  param {
    lr_mult: 2
    decay_mult: 0
  }
  convolution_param {
    num_output: 64
    kernel_size: 1
    weight_filler {
      type: "xavier"
      std: 0.03
    }
    bias_filler {
      type: "constant"
      value: 0.2
    }
  }
}
layer {
  name: "inception_3a/relu_1x1"
  type: "ReLU"
  bottom: "inception_3a/1x1"
  top: "inception_3a/1x1"
}
layer {
  name: "inception_3a/3x3_reduce"
  type: "Convolution"
  bottom: "pool2/3x3_s2"
  top: "inception_3a/3x3_reduce"
  param {
    lr_mult: 1
    decay_mult: 1
  }
  param {
    lr_mult: 2
    decay_mult: 0
  }
  convolution_param {
    num_output: 96
    kernel_size: 1
    weight_filler {
      type: "xavier"
      std: 0.09
    }
    bias_filler {
      type: "constant"
      value: 0.2
    }
  }
}
layer {
  name: "inception_3a/relu_3x3_reduce"
  type: "ReLU"
  bottom: "inception_3a/3x3_reduce"
  top: "inception_3a/3x3_reduce"
}
layer {
  name: "inception_3a/3x3"
  type: "Convolution"
  bottom: "inception_3a/3x3_reduce"
  top: "inception_3a/3x3"
  param {
    lr_mult: 1
    decay_mult: 1
  }
  param {
    lr_mult: 2
    decay_mult: 0
  }
  convolution_param {
    num_output: 128
    pad: 1
    kernel_size: 3
    weight_filler {
      type: "xavier"
      std: 0.03
    }
    bias_filler {
      type: "constant"
      value: 0.2
    }
  }
}
layer {
  name: "inception_3a/relu_3x3"
  type: "ReLU"
  bottom: "inception_3a/3x3"
  top: "inception_3a/3x3"
}
layer {
  name: "inception_3a/5x5_reduce"
  type: "Convolution"
  bottom: "pool2/3x3_s2"
  top: "inception_3a/5x5_reduce"
  param {
    lr_mult: 1
    decay_mult: 1
  }
  param {
    lr_mult: 2
    decay_mult: 0
  }
  convolution_param {
    num_output: 16
    kernel_size: 1
    weight_filler {
      type: "xavier"
      std: 0.2
    }
    bias_filler {
      type: "constant"
      value: 0.2
    }
  }
}
layer {
  name: "inception_3a/relu_5x5_reduce"
  type: "ReLU"
  bottom: "inception_3a/5x5_reduce"
  top: "inception_3a/5x5_reduce"
}
layer {
  name: "inception_3a/5x5"
  type: "Convolution"
  bottom: "inception_3a/5x5_reduce"
  top: "inception_3a/5x5"
  param {
    lr_mult: 1
    decay_mult: 1
  }
  param {
    lr_mult: 2
    decay_mult: 0
  }
  convolution_param {
    num_output: 32
    pad: 2
    kernel_size: 5
    weight_filler {
      type: "xavier"
      std: 0.03
    }
    bias_filler {
      type: "constant"
      value: 0.2
    }
  }
}
layer {
  name: "inception_3a/relu_5x5"
  type: "ReLU"
  bottom: "inception_3a/5x5"
  top: "inception_3a/5x5"
}
layer {
  name: "inception_3a/pool"
  type: "Pooling"
  bottom: "pool2/3x3_s2"
  top: "inception_3a/pool"
  pooling_param {
    pool: MAX
    kernel_size: 3
    stride: 1
    pad: 1
  }
}
layer {
  name: "inception_3a/pool_proj"
  type: "Convolution"
  bottom: "inception_3a/pool"
  top: "inception_3a/pool_proj"
  param {
    lr_mult: 1
    decay_mult: 1
  }
  param {
    lr_mult: 2
    decay_mult: 0
  }
  convolution_param {
    num_output: 32
    kernel_size: 1
    weight_filler {
      type: "xavier"
      std: 0.1
    }
    bias_filler {
      type: "constant"
      value: 0.2
    }
  }
}
layer {
  name: "inception_3a/relu_pool_proj"
  type: "ReLU"
  bottom: "inception_3a/pool_proj"
  top: "inception_3a/pool_proj"
}
layer {
  name: "inception_3a/output"
  type: "Concat"
  bottom: "inception_3a/1x1"
  bottom: "inception_3a/3x3"
  bottom: "inception_3a/5x5"
  bottom: "inception_3a/pool_proj"
  top: "inception_3a/output"
}
layer {
  name: "inception_3b/1x1"
  type: "Convolution"
  bottom: "inception_3a/output"
  top: "inception_3b/1x1"
  param {
    lr_mult: 1
    decay_mult: 1
  }
  param {
    lr_mult: 2
    decay_mult: 0
  }
  convolution_param {
    num_output: 128
    kernel_size: 1
    weight_filler {
      type: "xavier"
      std: 0.03
    }
    bias_filler {
      type: "constant"
      value: 0.2
    }
  }
}
layer {
  name: "inception_3b/relu_1x1"
  type: "ReLU"
  bottom: "inception_3b/1x1"
  top: "inception_3b/1x1"
}
layer {
  name: "inception_3b/3x3_reduce"
  type: "Convolution"
  bottom: "inception_3a/output"
  top: "inception_3b/3x3_reduce"
  param {
    lr_mult: 1
    decay_mult: 1
  }
  param {
    lr_mult: 2
    decay_mult: 0
  }
  convolution_param {
    num_output: 128
    kernel_size: 1
    weight_filler {
      type: "xavier"
      std: 0.09
    }
    bias_filler {
      type: "constant"
      value: 0.2
    }
  }
}
layer {
  name: "inception_3b/relu_3x3_reduce"
  type: "ReLU"
  bottom: "inception_3b/3x3_reduce"
  top: "inception_3b/3x3_reduce"
}
layer {
  name: "inception_3b/3x3"
  type: "Convolution"
  bottom: "inception_3b/3x3_reduce"
  top: "inception_3b/3x3"
  param {
    lr_mult: 1
    decay_mult: 1
  }
  param {
    lr_mult: 2
    decay_mult: 0
  }
  convolution_param {
    num_output: 192
    pad: 1
    kernel_size: 3
    weight_filler {
      type: "xavier"
      std: 0.03
    }
    bias_filler {
      type: "constant"
      value: 0.2
    }
  }
}
layer {
  name: "inception_3b/relu_3x3"
  type: "ReLU"
  bottom: "inception_3b/3x3"
  top: "inception_3b/3x3"
}
layer {
  name: "inception_3b/5x5_reduce"
  type: "Convolution"
  bottom: "inception_3a/output"
  top: "inception_3b/5x5_reduce"
  param {
    lr_mult: 1
    decay_mult: 1
  }
  param {
    lr_mult: 2
    decay_mult: 0
  }
  convolution_param {
    num_output: 32
    kernel_size: 1
    weight_filler {
      type: "xavier"
      std: 0.2
    }
    bias_filler {
      type: "constant"
      value: 0.2
    }
  }
}
layer {
  name: "inception_3b/relu_5x5_reduce"
  type: "ReLU"
  bottom: "inception_3b/5x5_reduce"
  top: "inception_3b/5x5_reduce"
}
layer {
  name: "inception_3b/5x5"
  type: "Convolution"
  bottom: "inception_3b/5x5_reduce"
  top: "inception_3b/5x5"
  param {
    lr_mult: 1
    decay_mult: 1
  }
  param {
    lr_mult: 2
    decay_mult: 0
  }
  convolution_param {
    num_output: 96
    pad: 2
    kernel_size: 5
    weight_filler {
      type: "xavier"
      std: 0.03
    }
    bias_filler {
      type: "constant"
      value: 0.2
    }
  }
}
layer {
  name: "inception_3b/relu_5x5"
  type: "ReLU"
  bottom: "inception_3b/5x5"
  top: "inception_3b/5x5"
}
layer {
  name: "inception_3b/pool"
  type: "Pooling"
  bottom: "inception_3a/output"
  top: "inception_3b/pool"
  pooling_param {
    pool: MAX
    kernel_size: 3
    stride: 1
    pad: 1
  }
}
layer {
  name: "inception_3b/pool_proj"
  type: "Convolution"
  bottom: "inception_3b/pool"
  top: "inception_3b/pool_proj"
  param {
    lr_mult: 1
    decay_mult: 1
  }
  param {
    lr_mult: 2
    decay_mult: 0
  }
  convolution_param {
    num_output: 64
    kernel_size: 1
    weight_filler {
      type: "xavier"
      std: 0.1
    }
    bias_filler {
      type: "constant"
      value: 0.2
    }
  }
}
layer {
  name: "inception_3b/relu_pool_proj"
  type: "ReLU"
  bottom: "inception_3b/pool_proj"
  top: "inception_3b/pool_proj"
}
layer {
  name: "inception_3b/output"
  type: "Concat"
  bottom: "inception_3b/1x1"
  bottom: "inception_3b/3x3"
  bottom: "inception_3b/5x5"
  bottom: "inception_3b/pool_proj"
  top: "inception_3b/output"
}
layer {
  name: "pool3/3x3_s2"
  type: "Pooling"
  bottom: "inception_3b/output"
  top: "pool3/3x3_s2"
  pooling_param {
    pool: MAX
    kernel_size: 3
    stride: 2
  }
}
layer {
  name: "inception_4a/1x1"
  type: "Convolution"
  bottom: "pool3/3x3_s2"
  top: "inception_4a/1x1"
  param {
    lr_mult: 1
    decay_mult: 1
  }
  param {
    lr_mult: 2
    decay_mult: 0
  }
  convolution_param {
    num_output: 192
    kernel_size: 1
    weight_filler {
      type: "xavier"
      std: 0.03
    }
    bias_filler {
      type: "constant"
      value: 0.2
    }
  }
}
layer {
  name: "inception_4a/relu_1x1"
  type: "ReLU"
  bottom: "inception_4a/1x1"
  top: "inception_4a/1x1"
}
layer {
  name: "inception_4a/3x3_reduce"
  type: "Convolution"
  bottom: "pool3/3x3_s2"
  top: "inception_4a/3x3_reduce"
  param {
    lr_mult: 1
    decay_mult: 1
  }
  param {
    lr_mult: 2
    decay_mult: 0
  }
  convolution_param {
    num_output: 96
    kernel_size: 1
    weight_filler {
      type: "xavier"
      std: 0.09
    }
    bias_filler {
      type: "constant"
      value: 0.2
    }
  }
}
layer {
  name: "inception_4a/relu_3x3_reduce"
  type: "ReLU"
  bottom: "inception_4a/3x3_reduce"
  top: "inception_4a/3x3_reduce"
}
layer {
  name: "inception_4a/3x3"
  type: "Convolution"
  bottom: "inception_4a/3x3_reduce"
  top: "inception_4a/3x3"
  param {
    lr_mult: 1
    decay_mult: 1
  }
  param {
    lr_mult: 2
    decay_mult: 0
  }
  convolution_param {
    num_output: 208
    pad: 1
    kernel_size: 3
    weight_filler {
      type: "xavier"
      std: 0.03
    }
    bias_filler {
      type: "constant"
      value: 0.2
    }
  }
}
layer {
  name: "inception_4a/relu_3x3"
  type: "ReLU"
  bottom: "inception_4a/3x3"
  top: "inception_4a/3x3"
}
layer {
  name: "inception_4a/5x5_reduce"
  type: "Convolution"
  bottom: "pool3/3x3_s2"
  top: "inception_4a/5x5_reduce"
  param {
    lr_mult: 1
    decay_mult: 1
  }
  param {
    lr_mult: 2
    decay_mult: 0
  }
  convolution_param {
    num_output: 16
    kernel_size: 1
    weight_filler {
      type: "xavier"
      std: 0.2
    }
    bias_filler {
      type: "constant"
      value: 0.2
    }
  }
}
layer {
  name: "inception_4a/relu_5x5_reduce"
  type: "ReLU"
  bottom: "inception_4a/5x5_reduce"
  top: "inception_4a/5x5_reduce"
}
layer {
  name: "inception_4a/5x5"
  type: "Convolution"
  bottom: "inception_4a/5x5_reduce"
  top: "inception_4a/5x5"
  param {
    lr_mult: 1
    decay_mult: 1
  }
  param {
    lr_mult: 2
    decay_mult: 0
  }
  convolution_param {
    num_output: 48
    pad: 2
    kernel_size: 5
    weight_filler {
      type: "xavier"
      std: 0.03
    }
    bias_filler {
      type: "constant"
      value: 0.2
    }
  }
}
layer {
  name: "inception_4a/relu_5x5"
  type: "ReLU"
  bottom: "inception_4a/5x5"
  top: "inception_4a/5x5"
}
layer {
  name: "inception_4a/pool"
  type: "Pooling"
  bottom: "pool3/3x3_s2"
  top: "inception_4a/pool"
  pooling_param {
    pool: MAX
    kernel_size: 3
    stride: 1
    pad: 1
  }
}
layer {
  name: "inception_4a/pool_proj"
  type: "Convolution"
  bottom: "inception_4a/pool"
  top: "inception_4a/pool_proj"
  param {
    lr_mult: 1
    decay_mult: 1
  }
  param {
    lr_mult: 2
    decay_mult: 0
  }
  convolution_param {
    num_output: 64
    kernel_size: 1
    weight_filler {
      type: "xavier"
      std: 0.1
    }
    bias_filler {
      type: "constant"
      value: 0.2
    }
  }
}
layer {
  name: "inception_4a/relu_pool_proj"
  type: "ReLU"
  bottom: "inception_4a/pool_proj"
  top: "inception_4a/pool_proj"
}
layer {
  name: "inception_4a/output"
  type: "Concat"
  bottom: "inception_4a/1x1"
  bottom: "inception_4a/3x3"
  bottom: "inception_4a/5x5"
  bottom: "inception_4a/pool_proj"
  top: "inception_4a/output"
}
layer {
  name: "loss1/ave_pool"
  type: "Pooling"
  bottom: "inception_4a/output"
  top: "loss1/ave_pool"
  pooling_param {
    pool: AVE
    kernel_size: 5
    stride: 3
  }
}
layer {
  name: "loss1/conv"
  type: "Convolution"
  bottom: "loss1/ave_pool"
  top: "loss1/conv"
  param {
    lr_mult: 1
    decay_mult: 1
  }
  param {
    lr_mult: 2
    decay_mult: 0
  }
  convolution_param {
    num_output: 128
    kernel_size: 1
    weight_filler {
      type: "xavier"
      std: 0.08
    }
    bias_filler {
      type: "constant"
      value: 0.2
    }
  }
}
layer {
  name: "loss1/relu_conv"
  type: "ReLU"
  bottom: "loss1/conv"
  top: "loss1/conv"
}
layer {
  name: "loss1/fc"
  type: "InnerProduct"
  bottom: "loss1/conv"
  top: "loss1/fc"
  param {
    lr_mult: 1
    decay_mult: 1
  }
  param {
    lr_mult: 2
    decay_mult: 0
  }
  inner_product_param {
    num_output: 1024
    weight_filler {
      type: "xavier"
      std: 0.02
    }
    bias_filler {
      type: "constant"
      value: 0.2
    }
  }
}
layer {
  name: "loss1/relu_fc"
  type: "ReLU"
  bottom: "loss1/fc"
  top: "loss1/fc"
}
layer {
  name: "loss1/drop_fc"
  type: "Dropout"
  bottom: "loss1/fc"
  top: "loss1/fc"
  dropout_param {
    dropout_ratio: 0.7
  }
}
layer {
  name: "loss1/classifier_plantvillage"
  type: "InnerProduct"
  bottom: "loss1/fc"
  top: "loss1/classifier_plantvillage"
  param {
    lr_mult: 1
    decay_mult: 1
  }
  param {
    lr_mult: 2
    decay_mult: 0
  }
  inner_product_param {
    num_output: 38
    weight_filler {
      type: "xavier"
      std: 0.0009765625
    }
    bias_filler {
      type: "constant"
      value: 0
    }
  }
}
layer {
  name: "inception_4b/1x1"
  type: "Convolution"
  bottom: "inception_4a/output"
  top: "inception_4b/1x1"
  param {
    lr_mult: 1
    decay_mult: 1
  }
  param {
    lr_mult: 2
    decay_mult: 0
  }
  convolution_param {
    num_output: 160
    kernel_size: 1
    weight_filler {
      type: "xavier"
      std: 0.03
    }
    bias_filler {
      type: "constant"
      value: 0.2
    }
  }
}
layer {
  name: "inception_4b/relu_1x1"
  type: "ReLU"
  bottom: "inception_4b/1x1"
  top: "inception_4b/1x1"
}
layer {
  name: "inception_4b/3x3_reduce"
  type: "Convolution"
  bottom: "inception_4a/output"
  top: "inception_4b/3x3_reduce"
  param {
    lr_mult: 1
    decay_mult: 1
  }
  param {
    lr_mult: 2
    decay_mult: 0
  }
  convolution_param {
    num_output: 112
    kernel_size: 1
    weight_filler {
      type: "xavier"
      std: 0.09
    }
    bias_filler {
      type: "constant"
      value: 0.2
    }
  }
}
layer {
  name: "inception_4b/relu_3x3_reduce"
  type: "ReLU"
  bottom: "inception_4b/3x3_reduce"
  top: "inception_4b/3x3_reduce"
}
layer {
  name: "inception_4b/3x3"
  type: "Convolution"
  bottom: "inception_4b/3x3_reduce"
  top: "inception_4b/3x3"
  param {
    lr_mult: 1
    decay_mult: 1
  }
  param {
    lr_mult: 2
    decay_mult: 0
  }
  convolution_param {
    num_output: 224
    pad: 1
    kernel_size: 3
    weight_filler {
      type: "xavier"
      std: 0.03
    }
    bias_filler {
      type: "constant"
      value: 0.2
    }
  }
}
layer {
  name: "inception_4b/relu_3x3"
  type: "ReLU"
  bottom: "inception_4b/3x3"
  top: "inception_4b/3x3"
}
layer {
  name: "inception_4b/5x5_reduce"
  type: "Convolution"
  bottom: "inception_4a/output"
  top: "inception_4b/5x5_reduce"
  param {
    lr_mult: 1
    decay_mult: 1
  }
  param {
    lr_mult: 2
    decay_mult: 0
  }
  convolution_param {
    num_output: 24
    kernel_size: 1
    weight_filler {
      type: "xavier"
      std: 0.2
    }
    bias_filler {
      type: "constant"
      value: 0.2
    }
  }
}
layer {
  name: "inception_4b/relu_5x5_reduce"
  type: "ReLU"
  bottom: "inception_4b/5x5_reduce"
  top: "inception_4b/5x5_reduce"
}
layer {
  name: "inception_4b/5x5"
  type: "Convolution"
  bottom: "inception_4b/5x5_reduce"
  top: "inception_4b/5x5"
  param {
    lr_mult: 1
    decay_mult: 1
  }
  param {
    lr_mult: 2
    decay_mult: 0
  }
  convolution_param {
    num_output: 64
    pad: 2
    kernel_size: 5
    weight_filler {
      type: "xavier"
      std: 0.03
    }
    bias_filler {
      type: "constant"
      value: 0.2
    }
  }
}
layer {
  name: "inception_4b/relu_5x5"
  type: "ReLU"
  bottom: "inception_4b/5x5"
  top: "inception_4b/5x5"
}
layer {
  name: "inception_4b/pool"
  type: "Pooling"
  bottom: "inception_4a/output"
  top: "inception_4b/pool"
  pooling_param {
    pool: MAX
    kernel_size: 3
    stride: 1
    pad: 1
  }
}
layer {
  name: "inception_4b/pool_proj"
  type: "Convolution"
  bottom: "inception_4b/pool"
  top: "inception_4b/pool_proj"
  param {
    lr_mult: 1
    decay_mult: 1
  }
  param {
    lr_mult: 2
    decay_mult: 0
  }
  convolution_param {
    num_output: 64
    kernel_size: 1
    weight_filler {
      type: "xavier"
      std: 0.1
    }
    bias_filler {
      type: "constant"
      value: 0.2
    }
  }
}
layer {
  name: "inception_4b/relu_pool_proj"
  type: "ReLU"
  bottom: "inception_4b/pool_proj"
  top: "inception_4b/pool_proj"
}
layer {
  name: "inception_4b/output"
  type: "Concat"
  bottom: "inception_4b/1x1"
  bottom: "inception_4b/3x3"
  bottom: "inception_4b/5x5"
  bottom: "inception_4b/pool_proj"
  top: "inception_4b/output"
}
layer {
  name: "inception_4c/1x1"
  type: "Convolution"
  bottom: "inception_4b/output"
  top: "inception_4c/1x1"
  param {
    lr_mult: 1
    decay_mult: 1
  }
  param {
    lr_mult: 2
    decay_mult: 0
  }
  convolution_param {
    num_output: 128
    kernel_size: 1
    weight_filler {
      type: "xavier"
      std: 0.03
    }
    bias_filler {
      type: "constant"
      value: 0.2
    }
  }
}
layer {
  name: "inception_4c/relu_1x1"
  type: "ReLU"
  bottom: "inception_4c/1x1"
  top: "inception_4c/1x1"
}
layer {
  name: "inception_4c/3x3_reduce"
  type: "Convolution"
  bottom: "inception_4b/output"
  top: "inception_4c/3x3_reduce"
  param {
    lr_mult: 1
    decay_mult: 1
  }
  param {
    lr_mult: 2
    decay_mult: 0
  }
  convolution_param {
    num_output: 128
    kernel_size: 1
    weight_filler {
      type: "xavier"
      std: 0.09
    }
    bias_filler {
      type: "constant"
      value: 0.2
    }
  }
}
layer {
  name: "inception_4c/relu_3x3_reduce"
  type: "ReLU"
  bottom: "inception_4c/3x3_reduce"
  top: "inception_4c/3x3_reduce"
}
layer {
  name: "inception_4c/3x3"
  type: "Convolution"
  bottom: "inception_4c/3x3_reduce"
  top: "inception_4c/3x3"
  param {
    lr_mult: 1
    decay_mult: 1
  }
  param {
    lr_mult: 2
    decay_mult: 0
  }
  convolution_param {
    num_output: 256
    pad: 1
    kernel_size: 3
    weight_filler {
      type: "xavier"
      std: 0.03
    }
    bias_filler {
      type: "constant"
      value: 0.2
    }
  }
}
layer {
  name: "inception_4c/relu_3x3"
  type: "ReLU"
  bottom: "inception_4c/3x3"
  top: "inception_4c/3x3"
}
layer {
  name: "inception_4c/5x5_reduce"
  type: "Convolution"
  bottom: "inception_4b/output"
  top: "inception_4c/5x5_reduce"
  param {
    lr_mult: 1
    decay_mult: 1
  }
  param {
    lr_mult: 2
    decay_mult: 0
  }
  convolution_param {
    num_output: 24
    kernel_size: 1
    weight_filler {
      type: "xavier"
      std: 0.2
    }
    bias_filler {
      type: "constant"
      value: 0.2
    }
  }
}
layer {
  name: "inception_4c/relu_5x5_reduce"
  type: "ReLU"
  bottom: "inception_4c/5x5_reduce"
  top: "inception_4c/5x5_reduce"
}
layer {
  name: "inception_4c/5x5"
  type: "Convolution"
  bottom: "inception_4c/5x5_reduce"
  top: "inception_4c/5x5"
  param {
    lr_mult: 1
    decay_mult: 1
  }
  param {
    lr_mult: 2
    decay_mult: 0
  }
  convolution_param {
    num_output: 64
    pad: 2
    kernel_size: 5
    weight_filler {
      type: "xavier"
      std: 0.03
    }
    bias_filler {
      type: "constant"
      value: 0.2
    }
  }
}
layer {
  name: "inception_4c/relu_5x5"
  type: "ReLU"
  bottom: "inception_4c/5x5"
  top: "inception_4c/5x5"
}
layer {
  name: "inception_4c/pool"
  type: "Pooling"
  bottom: "inception_4b/output"
  top: "inception_4c/pool"
  pooling_param {
    pool: MAX
    kernel_size: 3
    stride: 1
    pad: 1
  }
}
layer {
  name: "inception_4c/pool_proj"
  type: "Convolution"
  bottom: "inception_4c/pool"
  top: "inception_4c/pool_proj"
  param {
    lr_mult: 1
    decay_mult: 1
  }
  param {
    lr_mult: 2
    decay_mult: 0
  }
  convolution_param {
    num_output: 64
    kernel_size: 1
    weight_filler {
      type: "xavier"
      std: 0.1
    }
    bias_filler {
      type: "constant"
      value: 0.2
    }
  }
}
layer {
  name: "inception_4c/relu_pool_proj"
  type: "ReLU"
  bottom: "inception_4c/pool_proj"
  top: "inception_4c/pool_proj"
}
layer {
  name: "inception_4c/output"
  type: "Concat"
  bottom: "inception_4c/1x1"
  bottom: "inception_4c/3x3"
  bottom: "inception_4c/5x5"
  bottom: "inception_4c/pool_proj"
  top: "inception_4c/output"
}
layer {
  name: "inception_4d/1x1"
  type: "Convolution"
  bottom: "inception_4c/output"
  top: "inception_4d/1x1"
  param {
    lr_mult: 1
    decay_mult: 1
  }
  param {
    lr_mult: 2
    decay_mult: 0
  }
  convolution_param {
    num_output: 112
    kernel_size: 1
    weight_filler {
      type: "xavier"
      std: 0.03
    }
    bias_filler {
      type: "constant"
      value: 0.2
    }
  }
}
layer {
  name: "inception_4d/relu_1x1"
  type: "ReLU"
  bottom: "inception_4d/1x1"
  top: "inception_4d/1x1"
}
layer {
  name: "inception_4d/3x3_reduce"
  type: "Convolution"
  bottom: "inception_4c/output"
  top: "inception_4d/3x3_reduce"
  param {
    lr_mult: 1
    decay_mult: 1
  }
  param {
    lr_mult: 2
    decay_mult: 0
  }
  convolution_param {
    num_output: 144
    kernel_size: 1
    weight_filler {
      type: "xavier"
      std: 0.09
    }
    bias_filler {
      type: "constant"
      value: 0.2
    }
  }
}
layer {
  name: "inception_4d/relu_3x3_reduce"
  type: "ReLU"
  bottom: "inception_4d/3x3_reduce"
  top: "inception_4d/3x3_reduce"
}
layer {
  name: "inception_4d/3x3"
  type: "Convolution"
  bottom: "inception_4d/3x3_reduce"
  top: "inception_4d/3x3"
  param {
    lr_mult: 1
    decay_mult: 1
  }
  param {
    lr_mult: 2
    decay_mult: 0
  }
  convolution_param {
    num_output: 288
    pad: 1
    kernel_size: 3
    weight_filler {
      type: "xavier"
      std: 0.03
    }
    bias_filler {
      type: "constant"
      value: 0.2
    }
  }
}
layer {
  name: "inception_4d/relu_3x3"
  type: "ReLU"
  bottom: "inception_4d/3x3"
  top: "inception_4d/3x3"
}
layer {
  name: "inception_4d/5x5_reduce"
  type: "Convolution"
  bottom: "inception_4c/output"
  top: "inception_4d/5x5_reduce"
  param {
    lr_mult: 1
    decay_mult: 1
  }
  param {
    lr_mult: 2
    decay_mult: 0
  }
  convolution_param {
    num_output: 32
    kernel_size: 1
    weight_filler {
      type: "xavier"
      std: 0.2
    }
    bias_filler {
      type: "constant"
      value: 0.2
    }
  }
}
layer {
  name: "inception_4d/relu_5x5_reduce"
  type: "ReLU"
  bottom: "inception_4d/5x5_reduce"
  top: "inception_4d/5x5_reduce"
}
layer {
  name: "inception_4d/5x5"
  type: "Convolution"
  bottom: "inception_4d/5x5_reduce"
  top: "inception_4d/5x5"
  param {
    lr_mult: 1
    decay_mult: 1
  }
  param {
    lr_mult: 2
    decay_mult: 0
  }
  convolution_param {
    num_output: 64
    pad: 2
    kernel_size: 5
    weight_filler {
      type: "xavier"
      std: 0.03
    }
    bias_filler {
      type: "constant"
      value: 0.2
    }
  }
}
layer {
  name: "inception_4d/relu_5x5"
  type: "ReLU"
  bottom: "inception_4d/5x5"
  top: "inception_4d/5x5"
}
layer {
  name: "inception_4d/pool"
  type: "Pooling"
  bottom: "inception_4c/output"
  top: "inception_4d/pool"
  pooling_param {
    pool: MAX
    kernel_size: 3
    stride: 1
    pad: 1
  }
}
layer {
  name: "inception_4d/pool_proj"
  type: "Convolution"
  bottom: "inception_4d/pool"
  top: "inception_4d/pool_proj"
  param {
    lr_mult: 1
    decay_mult: 1
  }
  param {
    lr_mult: 2
    decay_mult: 0
  }
  convolution_param {
    num_output: 64
    kernel_size: 1
    weight_filler {
      type: "xavier"
      std: 0.1
    }
    bias_filler {
      type: "constant"
      value: 0.2
    }
  }
}
layer {
  name: "inception_4d/relu_pool_proj"
  type: "ReLU"
  bottom: "inception_4d/pool_proj"
  top: "inception_4d/pool_proj"
}
layer {
  name: "inception_4d/output"
  type: "Concat"
  bottom: "inception_4d/1x1"
  bottom: "inception_4d/3x3"
  bottom: "inception_4d/5x5"
  bottom: "inception_4d/pool_proj"
  top: "inception_4d/output"
}
layer {
  name: "loss2/ave_pool"
  type: "Pooling"
  bottom: "inception_4d/output"
  top: "loss2/ave_pool"
  pooling_param {
    pool: AVE
    kernel_size: 5
    stride: 3
  }
}
layer {
  name: "loss2/conv"
  type: "Convolution"
  bottom: "loss2/ave_pool"
  top: "loss2/conv"
  param {
    lr_mult: 1
    decay_mult: 1
  }
  param {
    lr_mult: 2
    decay_mult: 0
  }
  convolution_param {
    num_output: 128
    kernel_size: 1
    weight_filler {
      type: "xavier"
      std: 0.08
    }
    bias_filler {
      type: "constant"
      value: 0.2
    }
  }
}
layer {
  name: "loss2/relu_conv"
  type: "ReLU"
  bottom: "loss2/conv"
  top: "loss2/conv"
}
layer {
  name: "loss2/fc"
  type: "InnerProduct"
  bottom: "loss2/conv"
  top: "loss2/fc"
  param {
    lr_mult: 1
    decay_mult: 1
  }
  param {
    lr_mult: 2
    decay_mult: 0
  }
  inner_product_param {
    num_output: 1024
    weight_filler {
      type: "xavier"
      std: 0.02
    }
    bias_filler {
      type: "constant"
      value: 0.2
    }
  }
}
layer {
  name: "loss2/relu_fc"
  type: "ReLU"
  bottom: "loss2/fc"
  top: "loss2/fc"
}
layer {
  name: "loss2/drop_fc"
  type: "Dropout"
  bottom: "loss2/fc"
  top: "loss2/fc"
  dropout_param {
    dropout_ratio: 0.7
  }
}
layer {
  name: "loss2/classifier_plantvillage"
  type: "InnerProduct"
  bottom: "loss2/fc"
  top: "loss2/classifier_plantvillage"
  param {
    lr_mult: 1
    decay_mult: 1
  }
  param {
    lr_mult: 2
    decay_mult: 0
  }
  inner_product_param {
    num_output: 38
    weight_filler {
      type: "xavier"
      std: 0.0009765625
    }
    bias_filler {
      type: "constant"
      value: 0
    }
  }
}
layer {
  name: "inception_4e/1x1"
  type: "Convolution"
  bottom: "inception_4d/output"
  top: "inception_4e/1x1"
  param {
    lr_mult: 1
    decay_mult: 1
  }
  param {
    lr_mult: 2
    decay_mult: 0
  }
  convolution_param {
    num_output: 256
    kernel_size: 1
    weight_filler {
      type: "xavier"
      std: 0.03
    }
    bias_filler {
      type: "constant"
      value: 0.2
    }
  }
}
layer {
  name: "inception_4e/relu_1x1"
  type: "ReLU"
  bottom: "inception_4e/1x1"
  top: "inception_4e/1x1"
}
layer {
  name: "inception_4e/3x3_reduce"
  type: "Convolution"
  bottom: "inception_4d/output"
  top: "inception_4e/3x3_reduce"
  param {
    lr_mult: 1
    decay_mult: 1
  }
  param {
    lr_mult: 2
    decay_mult: 0
  }
  convolution_param {
    num_output: 160
    kernel_size: 1
    weight_filler {
      type: "xavier"
      std: 0.09
    }
    bias_filler {
      type: "constant"
      value: 0.2
    }
  }
}
layer {
  name: "inception_4e/relu_3x3_reduce"
  type: "ReLU"
  bottom: "inception_4e/3x3_reduce"
  top: "inception_4e/3x3_reduce"
}
layer {
  name: "inception_4e/3x3"
  type: "Convolution"
  bottom: "inception_4e/3x3_reduce"
  top: "inception_4e/3x3"
  param {
    lr_mult: 1
    decay_mult: 1
  }
  param {
    lr_mult: 2
    decay_mult: 0
  }
  convolution_param {
    num_output: 320
    pad: 1
    kernel_size: 3
    weight_filler {
      type: "xavier"
      std: 0.03
    }
    bias_filler {
      type: "constant"
      value: 0.2
    }
  }
}
layer {
  name: "inception_4e/relu_3x3"
  type: "ReLU"
  bottom: "inception_4e/3x3"
  top: "inception_4e/3x3"
}
layer {
  name: "inception_4e/5x5_reduce"
  type: "Convolution"
  bottom: "inception_4d/output"
  top: "inception_4e/5x5_reduce"
  param {
    lr_mult: 1
    decay_mult: 1
  }
  param {
    lr_mult: 2
    decay_mult: 0
  }
  convolution_param {
    num_output: 32
    kernel_size: 1
    weight_filler {
      type: "xavier"
      std: 0.2
    }
    bias_filler {
      type: "constant"
      value: 0.2
    }
  }
}
layer {
  name: "inception_4e/relu_5x5_reduce"
  type: "ReLU"
  bottom: "inception_4e/5x5_reduce"
  top: "inception_4e/5x5_reduce"
}
layer {
  name: "inception_4e/5x5"
  type: "Convolution"
  bottom: "inception_4e/5x5_reduce"
  top: "inception_4e/
I0403 18:28:37.524585  7002 layer_factory.hpp:77] Creating layer data
I0403 18:28:37.525184  7002 net.cpp:91] Creating Layer data
I0403 18:28:37.525214  7002 net.cpp:399] data -> data
I0403 18:28:37.525276  7002 net.cpp:399] data -> label
I0403 18:28:37.525313  7002 data_transformer.cpp:25] Loading mean file from: /home/mohanty/data/final_dataset/lmdb/segmented-50-50/mean.binaryproto
I0403 18:28:37.526355  7005 db_lmdb.cpp:38] Opened lmdb /home/mohanty/data/final_dataset/lmdb/segmented-50-50/test_db
I0403 18:28:37.538995  7002 data_layer.cpp:41] output data size: 24,3,224,224
I0403 18:28:37.568616  7002 net.cpp:141] Setting up data
I0403 18:28:37.568738  7002 net.cpp:148] Top shape: 24 3 224 224 (3612672)
I0403 18:28:37.568761  7002 net.cpp:148] Top shape: 24 (24)
I0403 18:28:37.568776  7002 net.cpp:156] Memory required for data: 14450784
I0403 18:28:37.568805  7002 layer_factory.hpp:77] Creating layer label_data_1_split
I0403 18:28:37.568832  7002 net.cpp:91] Creating Layer label_data_1_split
I0403 18:28:37.568851  7002 net.cpp:425] label_data_1_split <- label
I0403 18:28:37.568884  7002 net.cpp:399] label_data_1_split -> label_data_1_split_0
I0403 18:28:37.568912  7002 net.cpp:399] label_data_1_split -> label_data_1_split_1
I0403 18:28:37.568933  7002 net.cpp:399] label_data_1_split -> label_data_1_split_2
I0403 18:28:37.568955  7002 net.cpp:399] label_data_1_split -> label_data_1_split_3
I0403 18:28:37.568975  7002 net.cpp:399] label_data_1_split -> label_data_1_split_4
I0403 18:28:37.568996  7002 net.cpp:399] label_data_1_split -> label_data_1_split_5
I0403 18:28:37.569016  7002 net.cpp:399] label_data_1_split -> label_data_1_split_6
I0403 18:28:37.569037  7002 net.cpp:399] label_data_1_split -> label_data_1_split_7
I0403 18:28:37.569058  7002 net.cpp:399] label_data_1_split -> label_data_1_split_8
I0403 18:28:37.569079  7002 net.cpp:399] label_data_1_split -> label_data_1_split_9
I0403 18:28:37.569202  7002 net.cpp:141] Setting up label_data_1_split
I0403 18:28:37.569227  7002 net.cpp:148] Top shape: 24 (24)
I0403 18:28:37.569257  7002 net.cpp:148] Top shape: 24 (24)
I0403 18:28:37.569275  7002 net.cpp:148] Top shape: 24 (24)
I0403 18:28:37.569291  7002 net.cpp:148] Top shape: 24 (24)
I0403 18:28:37.569308  7002 net.cpp:148] Top shape: 24 (24)
I0403 18:28:37.569324  7002 net.cpp:148] Top shape: 24 (24)
I0403 18:28:37.569341  7002 net.cpp:148] Top shape: 24 (24)
I0403 18:28:37.569358  7002 net.cpp:148] Top shape: 24 (24)
I0403 18:28:37.569375  7002 net.cpp:148] Top shape: 24 (24)
I0403 18:28:37.569393  7002 net.cpp:148] Top shape: 24 (24)
I0403 18:28:37.569440  7002 net.cpp:156] Memory required for data: 14451744
I0403 18:28:37.569458  7002 layer_factory.hpp:77] Creating layer conv1/7x7_s2
I0403 18:28:37.569491  7002 net.cpp:91] Creating Layer conv1/7x7_s2
I0403 18:28:37.569511  7002 net.cpp:425] conv1/7x7_s2 <- data
I0403 18:28:37.569531  7002 net.cpp:399] conv1/7x7_s2 -> conv1/7x7_s2
I0403 18:28:37.712263  7002 net.cpp:141] Setting up conv1/7x7_s2
I0403 18:28:37.712344  7002 net.cpp:148] Top shape: 24 64 112 112 (19267584)
I0403 18:28:37.712362  7002 net.cpp:156] Memory required for data: 91522080
I0403 18:28:37.712393  7002 layer_factory.hpp:77] Creating layer conv1/relu_7x7
I0403 18:28:37.712420  7002 net.cpp:91] Creating Layer conv1/relu_7x7
I0403 18:28:37.712438  7002 net.cpp:425] conv1/relu_7x7 <- conv1/7x7_s2
I0403 18:28:37.712457  7002 net.cpp:386] conv1/relu_7x7 -> conv1/7x7_s2 (in-place)
I0403 18:28:37.712733  7002 net.cpp:141] Setting up conv1/relu_7x7
I0403 18:28:37.712760  7002 net.cpp:148] Top shape: 24 64 112 112 (19267584)
I0403 18:28:37.712776  7002 net.cpp:156] Memory required for data: 168592416
I0403 18:28:37.712792  7002 layer_factory.hpp:77] Creating layer pool1/3x3_s2
I0403 18:28:37.712817  7002 net.cpp:91] Creating Layer pool1/3x3_s2
I0403 18:28:37.712836  7002 net.cpp:425] pool1/3x3_s2 <- conv1/7x7_s2
I0403 18:28:37.712853  7002 net.cpp:399] pool1/3x3_s2 -> pool1/3x3_s2
I0403 18:28:37.712924  7002 net.cpp:141] Setting up pool1/3x3_s2
I0403 18:28:37.712949  7002 net.cpp:148] Top shape: 24 64 56 56 (4816896)
I0403 18:28:37.712963  7002 net.cpp:156] Memory required for data: 187860000
I0403 18:28:37.712978  7002 layer_factory.hpp:77] Creating layer pool1/norm1
I0403 18:28:37.713001  7002 net.cpp:91] Creating Layer pool1/norm1
I0403 18:28:37.713018  7002 net.cpp:425] pool1/norm1 <- pool1/3x3_s2
I0403 18:28:37.713035  7002 net.cpp:399] pool1/norm1 -> pool1/norm1
I0403 18:28:37.713333  7002 net.cpp:141] Setting up pool1/norm1
I0403 18:28:37.713361  7002 net.cpp:148] Top shape: 24 64 56 56 (4816896)
I0403 18:28:37.713376  7002 net.cpp:156] Memory required for data: 207127584
I0403 18:28:37.713392  7002 layer_factory.hpp:77] Creating layer conv2/3x3_reduce
I0403 18:28:37.713416  7002 net.cpp:91] Creating Layer conv2/3x3_reduce
I0403 18:28:37.713433  7002 net.cpp:425] conv2/3x3_reduce <- pool1/norm1
I0403 18:28:37.713449  7002 net.cpp:399] conv2/3x3_reduce -> conv2/3x3_reduce
I0403 18:28:37.714812  7002 net.cpp:141] Setting up conv2/3x3_reduce
I0403 18:28:37.714841  7002 net.cpp:148] Top shape: 24 64 56 56 (4816896)
I0403 18:28:37.714857  7002 net.cpp:156] Memory required for data: 226395168
I0403 18:28:37.714879  7002 layer_factory.hpp:77] Creating layer conv2/relu_3x3_reduce
I0403 18:28:37.714900  7002 net.cpp:91] Creating Layer conv2/relu_3x3_reduce
I0403 18:28:37.714915  7002 net.cpp:425] conv2/relu_3x3_reduce <- conv2/3x3_reduce
I0403 18:28:37.714932  7002 net.cpp:386] conv2/relu_3x3_reduce -> conv2/3x3_reduce (in-place)
I0403 18:28:37.715214  7002 net.cpp:141] Setting up conv2/relu_3x3_reduce
I0403 18:28:37.715240  7002 net.cpp:148] Top shape: 24 64 56 56 (4816896)
I0403 18:28:37.715255  7002 net.cpp:156] Memory required for data: 245662752
I0403 18:28:37.715270  7002 layer_factory.hpp:77] Creating layer conv2/3x3
I0403 18:28:37.715296  7002 net.cpp:91] Creating Layer conv2/3x3
I0403 18:28:37.715313  7002 net.cpp:425] conv2/3x3 <- conv2/3x3_reduce
I0403 18:28:37.715332  7002 net.cpp:399] conv2/3x3 -> conv2/3x3
I0403 18:28:37.717618  7002 net.cpp:141] Setting up conv2/3x3
I0403 18:28:37.717648  7002 net.cpp:148] Top shape: 24 192 56 56 (14450688)
I0403 18:28:37.717664  7002 net.cpp:156] Memory required for data: 303465504
I0403 18:28:37.717686  7002 layer_factory.hpp:77] Creating layer conv2/relu_3x3
I0403 18:28:37.717707  7002 net.cpp:91] Creating Layer conv2/relu_3x3
I0403 18:28:37.717723  7002 net.cpp:425] conv2/relu_3x3 <- conv2/3x3
I0403 18:28:37.717741  7002 net.cpp:386] conv2/relu_3x3 -> conv2/3x3 (in-place)
I0403 18:28:37.717917  7002 net.cpp:141] Setting up conv2/relu_3x3
I0403 18:28:37.717942  7002 net.cpp:148] Top shape: 24 192 56 56 (14450688)
I0403 18:28:37.717988  7002 net.cpp:156] Memory required for data: 361268256
I0403 18:28:37.718004  7002 layer_factory.hpp:77] Creating layer conv2/norm2
I0403 18:28:37.718022  7002 net.cpp:91] Creating Layer conv2/norm2
I0403 18:28:37.718039  7002 net.cpp:425] conv2/norm2 <- conv2/3x3
I0403 18:28:37.718058  7002 net.cpp:399] conv2/norm2 -> conv2/norm2
I0403 18:28:37.718364  7002 net.cpp:141] Setting up conv2/norm2
I0403 18:28:37.718390  7002 net.cpp:148] Top shape: 24 192 56 56 (14450688)
I0403 18:28:37.718406  7002 net.cpp:156] Memory required for data: 419071008
I0403 18:28:37.718421  7002 layer_factory.hpp:77] Creating layer pool2/3x3_s2
I0403 18:28:37.718439  7002 net.cpp:91] Creating Layer pool2/3x3_s2
I0403 18:28:37.718456  7002 net.cpp:425] pool2/3x3_s2 <- conv2/norm2
I0403 18:28:37.718477  7002 net.cpp:399] pool2/3x3_s2 -> pool2/3x3_s2
I0403 18:28:37.718528  7002 net.cpp:141] Setting up pool2/3x3_s2
I0403 18:28:37.718551  7002 net.cpp:148] Top shape: 24 192 28 28 (3612672)
I0403 18:28:37.718567  7002 net.cpp:156] Memory required for data: 433521696
I0403 18:28:37.718581  7002 layer_factory.hpp:77] Creating layer pool2/3x3_s2_pool2/3x3_s2_0_split
I0403 18:28:37.718603  7002 net.cpp:91] Creating Layer pool2/3x3_s2_pool2/3x3_s2_0_split
I0403 18:28:37.718619  7002 net.cpp:425] pool2/3x3_s2_pool2/3x3_s2_0_split <- pool2/3x3_s2
I0403 18:28:37.718639  7002 net.cpp:399] pool2/3x3_s2_pool2/3x3_s2_0_split -> pool2/3x3_s2_pool2/3x3_s2_0_split_0
I0403 18:28:37.718660  7002 net.cpp:399] pool2/3x3_s2_pool2/3x3_s2_0_split -> pool2/3x3_s2_pool2/3x3_s2_0_split_1
I0403 18:28:37.718680  7002 net.cpp:399] pool2/3x3_s2_pool2/3x3_s2_0_split -> pool2/3x3_s2_pool2/3x3_s2_0_split_2
I0403 18:28:37.718699  7002 net.cpp:399] pool2/3x3_s2_pool2/3x3_s2_0_split -> pool2/3x3_s2_pool2/3x3_s2_0_split_3
I0403 18:28:37.718770  7002 net.cpp:141] Setting up pool2/3x3_s2_pool2/3x3_s2_0_split
I0403 18:28:37.718794  7002 net.cpp:148] Top shape: 24 192 28 28 (3612672)
I0403 18:28:37.718813  7002 net.cpp:148] Top shape: 24 192 28 28 (3612672)
I0403 18:28:37.718830  7002 net.cpp:148] Top shape: 24 192 28 28 (3612672)
I0403 18:28:37.718847  7002 net.cpp:148] Top shape: 24 192 28 28 (3612672)
I0403 18:28:37.718860  7002 net.cpp:156] Memory required for data: 491324448
I0403 18:28:37.718876  7002 layer_factory.hpp:77] Creating layer inception_3a/1x1
I0403 18:28:37.718899  7002 net.cpp:91] Creating Layer inception_3a/1x1
I0403 18:28:37.718916  7002 net.cpp:425] inception_3a/1x1 <- pool2/3x3_s2_pool2/3x3_s2_0_split_0
I0403 18:28:37.718935  7002 net.cpp:399] inception_3a/1x1 -> inception_3a/1x1
I0403 18:28:37.720489  7002 net.cpp:141] Setting up inception_3a/1x1
I0403 18:28:37.720517  7002 net.cpp:148] Top shape: 24 64 28 28 (1204224)
I0403 18:28:37.720533  7002 net.cpp:156] Memory required for data: 496141344
I0403 18:28:37.720552  7002 layer_factory.hpp:77] Creating layer inception_3a/relu_1x1
I0403 18:28:37.720573  7002 net.cpp:91] Creating Layer inception_3a/relu_1x1
I0403 18:28:37.720590  7002 net.cpp:425] inception_3a/relu_1x1 <- inception_3a/1x1
I0403 18:28:37.720607  7002 net.cpp:386] inception_3a/relu_1x1 -> inception_3a/1x1 (in-place)
I0403 18:28:37.720784  7002 net.cpp:141] Setting up inception_3a/relu_1x1
I0403 18:28:37.720813  7002 net.cpp:148] Top shape: 24 64 28 28 (1204224)
I0403 18:28:37.720827  7002 net.cpp:156] Memory required for data: 500958240
I0403 18:28:37.720842  7002 layer_factory.hpp:77] Creating layer inception_3a/3x3_reduce
I0403 18:28:37.720865  7002 net.cpp:91] Creating Layer inception_3a/3x3_reduce
I0403 18:28:37.720882  7002 net.cpp:425] inception_3a/3x3_reduce <- pool2/3x3_s2_pool2/3x3_s2_0_split_1
I0403 18:28:37.720901  7002 net.cpp:399] inception_3a/3x3_reduce -> inception_3a/3x3_reduce
I0403 18:28:37.722586  7002 net.cpp:141] Setting up inception_3a/3x3_reduce
I0403 18:28:37.722616  7002 net.cpp:148] Top shape: 24 96 28 28 (1806336)
I0403 18:28:37.722632  7002 net.cpp:156] Memory required for data: 508183584
I0403 18:28:37.722653  7002 layer_factory.hpp:77] Creating layer inception_3a/relu_3x3_reduce
I0403 18:28:37.722692  7002 net.cpp:91] Creating Layer inception_3a/relu_3x3_reduce
I0403 18:28:37.722709  7002 net.cpp:425] inception_3a/relu_3x3_reduce <- inception_3a/3x3_reduce
I0403 18:28:37.722729  7002 net.cpp:386] inception_3a/relu_3x3_reduce -> inception_3a/3x3_reduce (in-place)
I0403 18:28:37.722913  7002 net.cpp:141] Setting up inception_3a/relu_3x3_reduce
I0403 18:28:37.722937  7002 net.cpp:148] Top shape: 24 96 28 28 (1806336)
I0403 18:28:37.722952  7002 net.cpp:156] Memory required for data: 515408928
I0403 18:28:37.722967  7002 layer_factory.hpp:77] Creating layer inception_3a/3x3
I0403 18:28:37.722991  7002 net.cpp:91] Creating Layer inception_3a/3x3
I0403 18:28:37.723009  7002 net.cpp:425] inception_3a/3x3 <- inception_3a/3x3_reduce
I0403 18:28:37.723031  7002 net.cpp:399] inception_3a/3x3 -> inception_3a/3x3
I0403 18:28:37.724673  7002 net.cpp:141] Setting up inception_3a/3x3
I0403 18:28:37.724704  7002 net.cpp:148] Top shape: 24 128 28 28 (2408448)
I0403 18:28:37.724720  7002 net.cpp:156] Memory required for data: 525042720
I0403 18:28:37.724738  7002 layer_factory.hpp:77] Creating layer inception_3a/relu_3x3
I0403 18:28:37.724757  7002 net.cpp:91] Creating Layer inception_3a/relu_3x3
I0403 18:28:37.724772  7002 net.cpp:425] inception_3a/relu_3x3 <- inception_3a/3x3
I0403 18:28:37.724789  7002 net.cpp:386] inception_3a/relu_3x3 -> inception_3a/3x3 (in-place)
I0403 18:28:37.725059  7002 net.cpp:141] Setting up inception_3a/relu_3x3
I0403 18:28:37.725088  7002 net.cpp:148] Top shape: 24 128 28 28 (2408448)
I0403 18:28:37.725105  7002 net.cpp:156] Memory required for data: 534676512
I0403 18:28:37.725121  7002 layer_factory.hpp:77] Creating layer inception_3a/5x5_reduce
I0403 18:28:37.725142  7002 net.cpp:91] Creating Layer inception_3a/5x5_reduce
I0403 18:28:37.725157  7002 net.cpp:425] inception_3a/5x5_reduce <- pool2/3x3_s2_pool2/3x3_s2_0_split_2
I0403 18:28:37.725183  7002 net.cpp:399] inception_3a/5x5_reduce -> inception_3a/5x5_reduce
I0403 18:28:37.726132  7002 net.cpp:141] Setting up inception_3a/5x5_reduce
I0403 18:28:37.726162  7002 net.cpp:148] Top shape: 24 16 28 28 (301056)
I0403 18:28:37.726182  7002 net.cpp:156] Memory required for data: 535880736
I0403 18:28:37.726202  7002 layer_factory.hpp:77] Creating layer inception_3a/relu_5x5_reduce
I0403 18:28:37.726222  7002 net.cpp:91] Creating Layer inception_3a/relu_5x5_reduce
I0403 18:28:37.726238  7002 net.cpp:425] inception_3a/relu_5x5_reduce <- inception_3a/5x5_reduce
I0403 18:28:37.726256  7002 net.cpp:386] inception_3a/relu_5x5_reduce -> inception_3a/5x5_reduce (in-place)
I0403 18:28:37.726552  7002 net.cpp:141] Setting up inception_3a/relu_5x5_reduce
I0403 18:28:37.726578  7002 net.cpp:148] Top shape: 24 16 28 28 (301056)
I0403 18:28:37.726594  7002 net.cpp:156] Memory required for data: 537084960
I0403 18:28:37.726609  7002 layer_factory.hpp:77] Creating layer inception_3a/5x5
I0403 18:28:37.726632  7002 net.cpp:91] Creating Layer inception_3a/5x5
I0403 18:28:37.726650  7002 net.cpp:425] inception_3a/5x5 <- inception_3a/5x5_reduce
I0403 18:28:37.726672  7002 net.cpp:399] inception_3a/5x5 -> inception_3a/5x5
I0403 18:28:37.727682  7002 net.cpp:141] Setting up inception_3a/5x5
I0403 18:28:37.727710  7002 net.cpp:148] Top shape: 24 32 28 28 (602112)
I0403 18:28:37.727725  7002 net.cpp:156] Memory required for data: 539493408
I0403 18:28:37.727747  7002 layer_factory.hpp:77] Creating layer inception_3a/relu_5x5
I0403 18:28:37.727768  7002 net.cpp:91] Creating Layer inception_3a/relu_5x5
I0403 18:28:37.727785  7002 net.cpp:425] inception_3a/relu_5x5 <- inception_3a/5x5
I0403 18:28:37.727802  7002 net.cpp:386] inception_3a/relu_5x5 -> inception_3a/5x5 (in-place)
I0403 18:28:37.727975  7002 net.cpp:141] Setting up inception_3a/relu_5x5
I0403 18:28:37.728003  7002 net.cpp:148] Top shape: 24 32 28 28 (602112)
I0403 18:28:37.728018  7002 net.cpp:156] Memory required for data: 541901856
I0403 18:28:37.728032  7002 layer_factory.hpp:77] Creating layer inception_3a/pool
I0403 18:28:37.728050  7002 net.cpp:91] Creating Layer inception_3a/pool
I0403 18:28:37.728080  7002 net.cpp:425] inception_3a/pool <- pool2/3x3_s2_pool2/3x3_s2_0_split_3
I0403 18:28:37.728102  7002 net.cpp:399] inception_3a/pool -> inception_3a/pool
I0403 18:28:37.728158  7002 net.cpp:141] Setting up inception_3a/pool
I0403 18:28:37.728186  7002 net.cpp:148] Top shape: 24 192 28 28 (3612672)
I0403 18:28:37.728201  7002 net.cpp:156] Memory required for data: 556352544
I0403 18:28:37.728216  7002 layer_factory.hpp:77] Creating layer inception_3a/pool_proj
I0403 18:28:37.728240  7002 net.cpp:91] Creating Layer inception_3a/pool_proj
I0403 18:28:37.728258  7002 net.cpp:425] inception_3a/pool_proj <- inception_3a/pool
I0403 18:28:37.728279  7002 net.cpp:399] inception_3a/pool_proj -> inception_3a/pool_proj
I0403 18:28:37.729244  7002 net.cpp:141] Setting up inception_3a/pool_proj
I0403 18:28:37.729272  7002 net.cpp:148] Top shape: 24 32 28 28 (602112)
I0403 18:28:37.729288  7002 net.cpp:156] Memory required for data: 558760992
I0403 18:28:37.729312  7002 layer_factory.hpp:77] Creating layer inception_3a/relu_pool_proj
I0403 18:28:37.729332  7002 net.cpp:91] Creating Layer inception_3a/relu_pool_proj
I0403 18:28:37.729348  7002 net.cpp:425] inception_3a/relu_pool_proj <- inception_3a/pool_proj
I0403 18:28:37.729365  7002 net.cpp:386] inception_3a/relu_pool_proj -> inception_3a/pool_proj (in-place)
I0403 18:28:37.729642  7002 net.cpp:141] Setting up inception_3a/relu_pool_proj
I0403 18:28:37.729671  7002 net.cpp:148] Top shape: 24 32 28 28 (602112)
I0403 18:28:37.729687  7002 net.cpp:156] Memory required for data: 561169440
I0403 18:28:37.729702  7002 layer_factory.hpp:77] Creating layer inception_3a/output
I0403 18:28:37.729720  7002 net.cpp:91] Creating Layer inception_3a/output
I0403 18:28:37.729737  7002 net.cpp:425] inception_3a/output <- inception_3a/1x1
I0403 18:28:37.729753  7002 net.cpp:425] inception_3a/output <- inception_3a/3x3
I0403 18:28:37.729768  7002 net.cpp:425] inception_3a/output <- inception_3a/5x5
I0403 18:28:37.729784  7002 net.cpp:425] inception_3a/output <- inception_3a/pool_proj
I0403 18:28:37.729800  7002 net.cpp:399] inception_3a/output -> inception_3a/output
I0403 18:28:37.729848  7002 net.cpp:141] Setting up inception_3a/output
I0403 18:28:37.729871  7002 net.cpp:148] Top shape: 24 256 28 28 (4816896)
I0403 18:28:37.729887  7002 net.cpp:156] Memory required for data: 580437024
I0403 18:28:37.729902  7002 layer_factory.hpp:77] Creating layer inception_3a/output_inception_3a/output_0_split
I0403 18:28:37.729918  7002 net.cpp:91] Creating Layer inception_3a/output_inception_3a/output_0_split
I0403 18:28:37.729934  7002 net.cpp:425] inception_3a/output_inception_3a/output_0_split <- inception_3a/output
I0403 18:28:37.729954  7002 net.cpp:399] inception_3a/output_inception_3a/output_0_split -> inception_3a/output_inception_3a/output_0_split_0
I0403 18:28:37.729976  7002 net.cpp:399] inception_3a/output_inception_3a/output_0_split -> inception_3a/output_inception_3a/output_0_split_1
I0403 18:28:37.730000  7002 net.cpp:399] inception_3a/output_inception_3a/output_0_split -> inception_3a/output_inception_3a/output_0_split_2
I0403 18:28:37.730022  7002 net.cpp:399] inception_3a/output_inception_3a/output_0_split -> inception_3a/output_inception_3a/output_0_split_3
I0403 18:28:37.730098  7002 net.cpp:141] Setting up inception_3a/output_inception_3a/output_0_split
I0403 18:28:37.730120  7002 net.cpp:148] Top shape: 24 256 28 28 (4816896)
I0403 18:28:37.730137  7002 net.cpp:148] Top shape: 24 256 28 28 (4816896)
I0403 18:28:37.730154  7002 net.cpp:148] Top shape: 24 256 28 28 (4816896)
I0403 18:28:37.730170  7002 net.cpp:148] Top shape: 24 256 28 28 (4816896)
I0403 18:28:37.730190  7002 net.cpp:156] Memory required for data: 657507360
I0403 18:28:37.730206  7002 layer_factory.hpp:77] Creating layer inception_3b/1x1
I0403 18:28:37.730228  7002 net.cpp:91] Creating Layer inception_3b/1x1
I0403 18:28:37.730245  7002 net.cpp:425] inception_3b/1x1 <- inception_3a/output_inception_3a/output_0_split_0
I0403 18:28:37.730267  7002 net.cpp:399] inception_3b/1x1 -> inception_3b/1x1
I0403 18:28:37.731395  7002 net.cpp:141] Setting up inception_3b/1x1
I0403 18:28:37.731432  7002 net.cpp:148] Top shape: 24 128 28 28 (2408448)
I0403 18:28:37.731448  7002 net.cpp:156] Memory required for data: 667141152
I0403 18:28:37.731468  7002 layer_factory.hpp:77] Creating layer inception_3b/relu_1x1
I0403 18:28:37.731488  7002 net.cpp:91] Creating Layer inception_3b/relu_1x1
I0403 18:28:37.731505  7002 net.cpp:425] inception_3b/relu_1x1 <- inception_3b/1x1
I0403 18:28:37.731523  7002 net.cpp:386] inception_3b/relu_1x1 -> inception_3b/1x1 (in-place)
I0403 18:28:37.731698  7002 net.cpp:141] Setting up inception_3b/relu_1x1
I0403 18:28:37.731726  7002 net.cpp:148] Top shape: 24 128 28 28 (2408448)
I0403 18:28:37.731744  7002 net.cpp:156] Memory required for data: 676774944
I0403 18:28:37.731758  7002 layer_factory.hpp:77] Creating layer inception_3b/3x3_reduce
I0403 18:28:37.731778  7002 net.cpp:91] Creating Layer inception_3b/3x3_reduce
I0403 18:28:37.731796  7002 net.cpp:425] inception_3b/3x3_reduce <- inception_3a/output_inception_3a/output_0_split_1
I0403 18:28:37.731817  7002 net.cpp:399] inception_3b/3x3_reduce -> inception_3b/3x3_reduce
I0403 18:28:37.732941  7002 net.cpp:141] Setting up inception_3b/3x3_reduce
I0403 18:28:37.732969  7002 net.cpp:148] Top shape: 24 128 28 28 (2408448)
I0403 18:28:37.732985  7002 net.cpp:156] Memory required for data: 686408736
I0403 18:28:37.733002  7002 layer_factory.hpp:77] Creating layer inception_3b/relu_3x3_reduce
I0403 18:28:37.733023  7002 net.cpp:91] Creating Layer inception_3b/relu_3x3_reduce
I0403 18:28:37.733041  7002 net.cpp:425] inception_3b/relu_3x3_reduce <- inception_3b/3x3_reduce
I0403 18:28:37.733057  7002 net.cpp:386] inception_3b/relu_3x3_reduce -> inception_3b/3x3_reduce (in-place)
I0403 18:28:37.733243  7002 net.cpp:141] Setting up inception_3b/relu_3x3_reduce
I0403 18:28:37.733269  7002 net.cpp:148] Top shape: 24 128 28 28 (2408448)
I0403 18:28:37.733283  7002 net.cpp:156] Memory required for data: 696042528
I0403 18:28:37.733299  7002 layer_factory.hpp:77] Creating layer inception_3b/3x3
I0403 18:28:37.733325  7002 net.cpp:91] Creating Layer inception_3b/3x3
I0403 18:28:37.733343  7002 net.cpp:425] inception_3b/3x3 <- inception_3b/3x3_reduce
I0403 18:28:37.733366  7002 net.cpp:399] inception_3b/3x3 -> inception_3b/3x3
I0403 18:28:37.736310  7002 net.cpp:141] Setting up inception_3b/3x3
I0403 18:28:37.736338  7002 net.cpp:148] Top shape: 24 192 28 28 (3612672)
I0403 18:28:37.736358  7002 net.cpp:156] Memory required for data: 710493216
I0403 18:28:37.736377  7002 layer_factory.hpp:77] Creating layer inception_3b/relu_3x3
I0403 18:28:37.736395  7002 net.cpp:91] Creating Layer inception_3b/relu_3x3
I0403 18:28:37.736412  7002 net.cpp:425] inception_3b/relu_3x3 <- inception_3b/3x3
I0403 18:28:37.736428  7002 net.cpp:386] inception_3b/relu_3x3 -> inception_3b/3x3 (in-place)
I0403 18:28:37.736704  7002 net.cpp:141] Setting up inception_3b/relu_3x3
I0403 18:28:37.736732  7002 net.cpp:148] Top shape: 24 192 28 28 (3612672)
I0403 18:28:37.736749  7002 net.cpp:156] Memory required for data: 724943904
I0403 18:28:37.736764  7002 layer_factory.hpp:77] Creating layer inception_3b/5x5_reduce
I0403 18:28:37.736785  7002 net.cpp:91] Creating Layer inception_3b/5x5_reduce
I0403 18:28:37.736802  7002 net.cpp:425] inception_3b/5x5_reduce <- inception_3a/output_inception_3a/output_0_split_2
I0403 18:28:37.736824  7002 net.cpp:399] inception_3b/5x5_reduce -> inception_3b/5x5_reduce
I0403 18:28:37.737808  7002 net.cpp:141] Setting up inception_3b/5x5_reduce
I0403 18:28:37.737836  7002 net.cpp:148] Top shape: 24 32 28 28 (602112)
I0403 18:28:37.737851  7002 net.cpp:156] Memory required for data: 727352352
I0403 18:28:37.737870  7002 layer_factory.hpp:77] Creating layer inception_3b/relu_5x5_reduce
I0403 18:28:37.737895  7002 net.cpp:91] Creating Layer inception_3b/relu_5x5_reduce
I0403 18:28:37.737911  7002 net.cpp:425] inception_3b/relu_5x5_reduce <- inception_3b/5x5_reduce
I0403 18:28:37.737929  7002 net.cpp:386] inception_3b/relu_5x5_reduce -> inception_3b/5x5_reduce (in-place)
I0403 18:28:37.738121  7002 net.cpp:141] Setting up inception_3b/relu_5x5_reduce
I0403 18:28:37.738148  7002 net.cpp:148] Top shape: 24 32 28 28 (602112)
I0403 18:28:37.738164  7002 net.cpp:156] Memory required for data: 729760800
I0403 18:28:37.738183  7002 layer_factory.hpp:77] Creating layer inception_3b/5x5
I0403 18:28:37.738207  7002 net.cpp:91] Creating Layer inception_3b/5x5
I0403 18:28:37.738225  7002 net.cpp:425] inception_3b/5x5 <- inception_3b/5x5_reduce
I0403 18:28:37.738243  7002 net.cpp:399] inception_3b/5x5 -> inception_3b/5x5
I0403 18:28:37.740231  7002 net.cpp:141] Setting up inception_3b/5x5
I0403 18:28:37.740259  7002 net.cpp:148] Top shape: 24 96 28 28 (1806336)
I0403 18:28:37.740275  7002 net.cpp:156] Memory required for data: 736986144
I0403 18:28:37.740293  7002 layer_factory.hpp:77] Creating layer inception_3b/relu_5x5
I0403 18:28:37.740327  7002 net.cpp:91] Creating Layer inception_3b/relu_5x5
I0403 18:28:37.740344  7002 net.cpp:425] inception_3b/relu_5x5 <- inception_3b/5x5
I0403 18:28:37.740360  7002 net.cpp:386] inception_3b/relu_5x5 -> inception_3b/5x5 (in-place)
I0403 18:28:37.740547  7002 net.cpp:141] Setting up inception_3b/relu_5x5
I0403 18:28:37.740571  7002 net.cpp:148] Top shape: 24 96 28 28 (1806336)
I0403 18:28:37.740586  7002 net.cpp:156] Memory required for data: 744211488
I0403 18:28:37.740600  7002 layer_factory.hpp:77] Creating layer inception_3b/pool
I0403 18:28:37.740617  7002 net.cpp:91] Creating Layer inception_3b/pool
I0403 18:28:37.740633  7002 net.cpp:425] inception_3b/pool <- inception_3a/output_inception_3a/output_0_split_3
I0403 18:28:37.740650  7002 net.cpp:399] inception_3b/pool -> inception_3b/pool
I0403 18:28:37.740703  7002 net.cpp:141] Setting up inception_3b/pool
I0403 18:28:37.740726  7002 net.cpp:148] Top shape: 24 256 28 28 (4816896)
I0403 18:28:37.740741  7002 net.cpp:156] Memory required for data: 763479072
I0403 18:28:37.740754  7002 layer_factory.hpp:77] Creating layer inception_3b/pool_proj
I0403 18:28:37.740777  7002 net.cpp:91] Creating Layer inception_3b/pool_proj
I0403 18:28:37.740793  7002 net.cpp:425] inception_3b/pool_proj <- inception_3b/pool
I0403 18:28:37.740813  7002 net.cpp:399] inception_3b/pool_proj -> inception_3b/pool_proj
I0403 18:28:37.741832  7002 net.cpp:141] Setting up inception_3b/pool_proj
I0403 18:28:37.741863  7002 net.cpp:148] Top shape: 24 64 28 28 (1204224)
I0403 18:28:37.741878  7002 net.cpp:156] Memory required for data: 768295968
I0403 18:28:37.741896  7002 layer_factory.hpp:77] Creating layer inception_3b/relu_pool_proj
I0403 18:28:37.741914  7002 net.cpp:91] Creating Layer inception_3b/relu_pool_proj
I0403 18:28:37.741928  7002 net.cpp:425] inception_3b/relu_pool_proj <- inception_3b/pool_proj
I0403 18:28:37.741947  7002 net.cpp:386] inception_3b/relu_pool_proj -> inception_3b/pool_proj (in-place)
I0403 18:28:37.742318  7002 net.cpp:141] Setting up inception_3b/relu_pool_proj
I0403 18:28:37.742347  7002 net.cpp:148] Top shape: 24 64 28 28 (1204224)
I0403 18:28:37.742362  7002 net.cpp:156] Memory required for data: 773112864
I0403 18:28:37.742375  7002 layer_factory.hpp:77] Creating layer inception_3b/output
I0403 18:28:37.742393  7002 net.cpp:91] Creating Layer inception_3b/output
I0403 18:28:37.742408  7002 net.cpp:425] inception_3b/output <- inception_3b/1x1
I0403 18:28:37.742424  7002 net.cpp:425] inception_3b/output <- inception_3b/3x3
I0403 18:28:37.742439  7002 net.cpp:425] inception_3b/output <- inception_3b/5x5
I0403 18:28:37.742454  7002 net.cpp:425] inception_3b/output <- inception_3b/pool_proj
I0403 18:28:37.742470  7002 net.cpp:399] inception_3b/output -> inception_3b/output
I0403 18:28:37.742512  7002 net.cpp:141] Setting up inception_3b/output
I0403 18:28:37.742535  7002 net.cpp:148] Top shape: 24 480 28 28 (9031680)
I0403 18:28:37.742549  7002 net.cpp:156] Memory required for data: 809239584
I0403 18:28:37.742564  7002 layer_factory.hpp:77] Creating layer pool3/3x3_s2
I0403 18:28:37.742583  7002 net.cpp:91] Creating Layer pool3/3x3_s2
I0403 18:28:37.742599  7002 net.cpp:425] pool3/3x3_s2 <- inception_3b/output
I0403 18:28:37.742631  7002 net.cpp:399] pool3/3x3_s2 -> pool3/3x3_s2
I0403 18:28:37.742688  7002 net.cpp:141] Setting up pool3/3x3_s2
I0403 18:28:37.742712  7002 net.cpp:148] Top shape: 24 480 14 14 (2257920)
I0403 18:28:37.742727  7002 net.cpp:156] Memory required for data: 818271264
I0403 18:28:37.742740  7002 layer_factory.hpp:77] Creating layer pool3/3x3_s2_pool3/3x3_s2_0_split
I0403 18:28:37.742758  7002 net.cpp:91] Creating Layer pool3/3x3_s2_pool3/3x3_s2_0_split
I0403 18:28:37.742771  7002 net.cpp:425] pool3/3x3_s2_pool3/3x3_s2_0_split <- pool3/3x3_s2
I0403 18:28:37.742789  7002 net.cpp:399] pool3/3x3_s2_pool3/3x3_s2_0_split -> pool3/3x3_s2_pool3/3x3_s2_0_split_0
I0403 18:28:37.742810  7002 net.cpp:399] pool3/3x3_s2_pool3/3x3_s2_0_split -> pool3/3x3_s2_pool3/3x3_s2_0_split_1
I0403 18:28:37.742828  7002 net.cpp:399] pool3/3x3_s2_pool3/3x3_s2_0_split -> pool3/3x3_s2_pool3/3x3_s2_0_split_2
I0403 18:28:37.742846  7002 net.cpp:399] pool3/3x3_s2_pool3/3x3_s2_0_split -> pool3/3x3_s2_pool3/3x3_s2_0_split_3
I0403 18:28:37.742920  7002 net.cpp:141] Setting up pool3/3x3_s2_pool3/3x3_s2_0_split
I0403 18:28:37.742947  7002 net.cpp:148] Top shape: 24 480 14 14 (2257920)
I0403 18:28:37.742964  7002 net.cpp:148] Top shape: 24 480 14 14 (2257920)
I0403 18:28:37.742980  7002 net.cpp:148] Top shape: 24 480 14 14 (2257920)
I0403 18:28:37.742995  7002 net.cpp:148] Top shape: 24 480 14 14 (2257920)
I0403 18:28:37.743007  7002 net.cpp:156] Memory required for data: 854397984
I0403 18:28:37.743022  7002 layer_factory.hpp:77] Creating layer inception_4a/1x1
I0403 18:28:37.743043  7002 net.cpp:91] Creating Layer inception_4a/1x1
I0403 18:28:37.743060  7002 net.cpp:425] inception_4a/1x1 <- pool3/3x3_s2_pool3/3x3_s2_0_split_0
I0403 18:28:37.743077  7002 net.cpp:399] inception_4a/1x1 -> inception_4a/1x1
I0403 18:28:37.744616  7002 net.cpp:141] Setting up inception_4a/1x1
I0403 18:28:37.744642  7002 net.cpp:148] Top shape: 24 192 14 14 (903168)
I0403 18:28:37.744657  7002 net.cpp:156] Memory required for data: 858010656
I0403 18:28:37.744674  7002 layer_factory.hpp:77] Creating layer inception_4a/relu_1x1
I0403 18:28:37.744691  7002 net.cpp:91] Creating Layer inception_4a/relu_1x1
I0403 18:28:37.744706  7002 net.cpp:425] inception_4a/relu_1x1 <- inception_4a/1x1
I0403 18:28:37.744726  7002 net.cpp:386] inception_4a/relu_1x1 -> inception_4a/1x1 (in-place)
I0403 18:28:37.744896  7002 net.cpp:141] Setting up inception_4a/relu_1x1
I0403 18:28:37.744920  7002 net.cpp:148] Top shape: 24 192 14 14 (903168)
I0403 18:28:37.744935  7002 net.cpp:156] Memory required for data: 861623328
I0403 18:28:37.744949  7002 layer_factory.hpp:77] Creating layer inception_4a/3x3_reduce
I0403 18:28:37.744971  7002 net.cpp:91] Creating Layer inception_4a/3x3_reduce
I0403 18:28:37.744988  7002 net.cpp:425] inception_4a/3x3_reduce <- pool3/3x3_s2_pool3/3x3_s2_0_split_1
I0403 18:28:37.745008  7002 net.cpp:399] inception_4a/3x3_reduce -> inception_4a/3x3_reduce
I0403 18:28:37.746238  7002 net.cpp:141] Setting up inception_4a/3x3_reduce
I0403 18:28:37.746265  7002 net.cpp:148] Top shape: 24 96 14 14 (451584)
I0403 18:28:37.746280  7002 net.cpp:156] Memory required for data: 863429664
I0403 18:28:37.746305  7002 layer_factory.hpp:77] Creating layer inception_4a/relu_3x3_reduce
I0403 18:28:37.746323  7002 net.cpp:91] Creating Layer inception_4a/relu_3x3_reduce
I0403 18:28:37.746340  7002 net.cpp:425] inception_4a/relu_3x3_reduce <- inception_4a/3x3_reduce
I0403 18:28:37.746358  7002 net.cpp:386] inception_4a/relu_3x3_reduce -> inception_4a/3x3_reduce (in-place)
I0403 18:28:37.746526  7002 net.cpp:141] Setting up inception_4a/relu_3x3_reduce
I0403 18:28:37.746549  7002 net.cpp:148] Top shape: 24 96 14 14 (451584)
I0403 18:28:37.746563  7002 net.cpp:156] Memory required for data: 865236000
I0403 18:28:37.746577  7002 layer_factory.hpp:77] Creating layer inception_4a/3x3
I0403 18:28:37.746598  7002 net.cpp:91] Creating Layer inception_4a/3x3
I0403 18:28:37.746615  7002 net.cpp:425] inception_4a/3x3 <- inception_4a/3x3_reduce
I0403 18:28:37.746636  7002 net.cpp:399] inception_4a/3x3 -> inception_4a/3x3
I0403 18:28:37.749263  7002 net.cpp:141] Setting up inception_4a/3x3
I0403 18:28:37.749291  7002 net.cpp:148] Top shape: 24 208 14 14 (978432)
I0403 18:28:37.749306  7002 net.cpp:156] Memory required for data: 869149728
I0403 18:28:37.749325  7002 layer_factory.hpp:77] Creating layer inception_4a/relu_3x3
I0403 18:28:37.749346  7002 net.cpp:91] Creating Layer inception_4a/relu_3x3
I0403 18:28:37.749362  7002 net.cpp:425] inception_4a/relu_3x3 <- inception_4a/3x3
I0403 18:28:37.749380  7002 net.cpp:386] inception_4a/relu_3x3 -> inception_4a/3x3 (in-place)
I0403 18:28:37.749655  7002 net.cpp:141] Setting up inception_4a/relu_3x3
I0403 18:28:37.749680  7002 net.cpp:148] Top shape: 24 208 14 14 (978432)
I0403 18:28:37.749696  7002 net.cpp:156] Memory required for data: 873063456
I0403 18:28:37.749711  7002 layer_factory.hpp:77] Creating layer inception_4a/5x5_reduce
I0403 18:28:37.749733  7002 net.cpp:91] Creating Layer inception_4a/5x5_reduce
I0403 18:28:37.749752  7002 net.cpp:425] inception_4a/5x5_reduce <- pool3/3x3_s2_pool3/3x3_s2_0_split_2
I0403 18:28:37.749773  7002 net.cpp:399] inception_4a/5x5_reduce -> inception_4a/5x5_reduce
I0403 18:28:37.750773  7002 net.cpp:141] Setting up inception_4a/5x5_reduce
I0403 18:28:37.750799  7002 net.cpp:148] Top shape: 24 16 14 14 (75264)
I0403 18:28:37.750814  7002 net.cpp:156] Memory required for data: 873364512
I0403 18:28:37.750833  7002 layer_factory.hpp:77] Creating layer inception_4a/relu_5x5_reduce
I0403 18:28:37.750854  7002 net.cpp:91] Creating Layer inception_4a/relu_5x5_reduce
I0403 18:28:37.750870  7002 net.cpp:425] inception_4a/relu_5x5_reduce <- inception_4a/5x5_reduce
I0403 18:28:37.750886  7002 net.cpp:386] inception_4a/relu_5x5_reduce -> inception_4a/5x5_reduce (in-place)
I0403 18:28:37.751060  7002 net.cpp:141] Setting up inception_4a/relu_5x5_reduce
I0403 18:28:37.751088  7002 net.cpp:148] Top shape: 24 16 14 14 (75264)
I0403 18:28:37.751106  7002 net.cpp:156] Memory required for data: 873665568
I0403 18:28:37.751119  7002 layer_factory.hpp:77] Creating layer inception_4a/5x5
I0403 18:28:37.751142  7002 net.cpp:91] Creating Layer inception_4a/5x5
I0403 18:28:37.751158  7002 net.cpp:425] inception_4a/5x5 <- inception_4a/5x5_reduce
I0403 18:28:37.751180  7002 net.cpp:399] inception_4a/5x5 -> inception_4a/5x5
I0403 18:28:37.752223  7002 net.cpp:141] Setting up inception_4a/5x5
I0403 18:28:37.752251  7002 net.cpp:148] Top shape: 24 48 14 14 (225792)
I0403 18:28:37.752266  7002 net.cpp:156] Memory required for data: 874568736
I0403 18:28:37.752285  7002 layer_factory.hpp:77] Creating layer inception_4a/relu_5x5
I0403 18:28:37.752302  7002 net.cpp:91] Creating Layer inception_4a/relu_5x5
I0403 18:28:37.752317  7002 net.cpp:425] inception_4a/relu_5x5 <- inception_4a/5x5
I0403 18:28:37.752337  7002 net.cpp:386] inception_4a/relu_5x5 -> inception_4a/5x5 (in-place)
I0403 18:28:37.752508  7002 net.cpp:141] Setting up inception_4a/relu_5x5
I0403 18:28:37.752533  7002 net.cpp:148] Top shape: 24 48 14 14 (225792)
I0403 18:28:37.752547  7002 net.cpp:156] Memory required for data: 875471904
I0403 18:28:37.752562  7002 layer_factory.hpp:77] Creating layer inception_4a/pool
I0403 18:28:37.752578  7002 net.cpp:91] Creating Layer inception_4a/pool
I0403 18:28:37.752593  7002 net.cpp:425] inception_4a/pool <- pool3/3x3_s2_pool3/3x3_s2_0_split_3
I0403 18:28:37.752612  7002 net.cpp:399] inception_4a/pool -> inception_4a/pool
I0403 18:28:37.752672  7002 net.cpp:141] Setting up inception_4a/pool
I0403 18:28:37.752694  7002 net.cpp:148] Top shape: 24 480 14 14 (2257920)
I0403 18:28:37.752709  7002 net.cpp:156] Memory required for data: 884503584
I0403 18:28:37.752723  7002 layer_factory.hpp:77] Creating layer inception_4a/pool_proj
I0403 18:28:37.752744  7002 net.cpp:91] Creating Layer inception_4a/pool_proj
I0403 18:28:37.752761  7002 net.cpp:425] inception_4a/pool_proj <- inception_4a/pool
I0403 18:28:37.752780  7002 net.cpp:399] inception_4a/pool_proj -> inception_4a/pool_proj
I0403 18:28:37.753908  7002 net.cpp:141] Setting up inception_4a/pool_proj
I0403 18:28:37.753937  7002 net.cpp:148] Top shape: 24 64 14 14 (301056)
I0403 18:28:37.753965  7002 net.cpp:156] Memory required for data: 885707808
I0403 18:28:37.753984  7002 layer_factory.hpp:77] Creating layer inception_4a/relu_pool_proj
I0403 18:28:37.754001  7002 net.cpp:91] Creating Layer inception_4a/relu_pool_proj
I0403 18:28:37.754017  7002 net.cpp:425] inception_4a/relu_pool_proj <- inception_4a/pool_proj
I0403 18:28:37.754037  7002 net.cpp:386] inception_4a/relu_pool_proj -> inception_4a/pool_proj (in-place)
I0403 18:28:37.754315  7002 net.cpp:141] Setting up inception_4a/relu_pool_proj
I0403 18:28:37.754340  7002 net.cpp:148] Top shape: 24 64 14 14 (301056)
I0403 18:28:37.754355  7002 net.cpp:156] Memory required for data: 886912032
I0403 18:28:37.754369  7002 layer_factory.hpp:77] Creating layer inception_4a/output
I0403 18:28:37.754386  7002 net.cpp:91] Creating Layer inception_4a/output
I0403 18:28:37.754401  7002 net.cpp:425] inception_4a/output <- inception_4a/1x1
I0403 18:28:37.754418  7002 net.cpp:425] inception_4a/output <- inception_4a/3x3
I0403 18:28:37.754434  7002 net.cpp:425] inception_4a/output <- inception_4a/5x5
I0403 18:28:37.754451  7002 net.cpp:425] inception_4a/output <- inception_4a/pool_proj
I0403 18:28:37.754472  7002 net.cpp:399] inception_4a/output -> inception_4a/output
I0403 18:28:37.754516  7002 net.cpp:141] Setting up inception_4a/output
I0403 18:28:37.754541  7002 net.cpp:148] Top shape: 24 512 14 14 (2408448)
I0403 18:28:37.754557  7002 net.cpp:156] Memory required for data: 896545824
I0403 18:28:37.754571  7002 layer_factory.hpp:77] Creating layer inception_4a/output_inception_4a/output_0_split
I0403 18:28:37.754588  7002 net.cpp:91] Creating Layer inception_4a/output_inception_4a/output_0_split
I0403 18:28:37.754603  7002 net.cpp:425] inception_4a/output_inception_4a/output_0_split <- inception_4a/output
I0403 18:28:37.754621  7002 net.cpp:399] inception_4a/output_inception_4a/output_0_split -> inception_4a/output_inception_4a/output_0_split_0
I0403 18:28:37.754642  7002 net.cpp:399] inception_4a/output_inception_4a/output_0_split -> inception_4a/output_inception_4a/output_0_split_1
I0403 18:28:37.754663  7002 net.cpp:399] inception_4a/output_inception_4a/output_0_split -> inception_4a/output_inception_4a/output_0_split_2
I0403 18:28:37.754683  7002 net.cpp:399] inception_4a/output_inception_4a/output_0_split -> inception_4a/output_inception_4a/output_0_split_3
I0403 18:28:37.754703  7002 net.cpp:399] inception_4a/output_inception_4a/output_0_split -> inception_4a/output_inception_4a/output_0_split_4
I0403 18:28:37.754791  7002 net.cpp:141] Setting up inception_4a/output_inception_4a/output_0_split
I0403 18:28:37.754813  7002 net.cpp:148] Top shape: 24 512 14 14 (2408448)
I0403 18:28:37.754828  7002 net.cpp:148] Top shape: 24 512 14 14 (2408448)
I0403 18:28:37.754844  7002 net.cpp:148] Top shape: 24 512 14 14 (2408448)
I0403 18:28:37.754859  7002 net.cpp:148] Top shape: 24 512 14 14 (2408448)
I0403 18:28:37.754874  7002 net.cpp:148] Top shape: 24 512 14 14 (2408448)
I0403 18:28:37.754887  7002 net.cpp:156] Memory required for data: 944714784
I0403 18:28:37.754901  7002 layer_factory.hpp:77] Creating layer loss1/ave_pool
I0403 18:28:37.754920  7002 net.cpp:91] Creating Layer loss1/ave_pool
I0403 18:28:37.754936  7002 net.cpp:425] loss1/ave_pool <- inception_4a/output_inception_4a/output_0_split_0
I0403 18:28:37.754952  7002 net.cpp:399] loss1/ave_pool -> loss1/ave_pool
I0403 18:28:37.755154  7002 net.cpp:141] Setting up loss1/ave_pool
I0403 18:28:37.755183  7002 net.cpp:148] Top shape: 24 512 4 4 (196608)
I0403 18:28:37.755199  7002 net.cpp:156] Memory required for data: 945501216
I0403 18:28:37.755213  7002 layer_factory.hpp:77] Creating layer loss1/conv
I0403 18:28:37.755235  7002 net.cpp:91] Creating Layer loss1/conv
I0403 18:28:37.755252  7002 net.cpp:425] loss1/conv <- loss1/ave_pool
I0403 18:28:37.755272  7002 net.cpp:399] loss1/conv -> loss1/conv
I0403 18:28:37.756636  7002 net.cpp:141] Setting up loss1/conv
I0403 18:28:37.756664  7002 net.cpp:148] Top shape: 24 128 4 4 (49152)
I0403 18:28:37.756693  7002 net.cpp:156] Memory required for data: 945697824
I0403 18:28:37.756711  7002 layer_factory.hpp:77] Creating layer loss1/relu_conv
I0403 18:28:37.756731  7002 net.cpp:91] Creating Layer loss1/relu_conv
I0403 18:28:37.756748  7002 net.cpp:425] loss1/relu_conv <- loss1/conv
I0403 18:28:37.756764  7002 net.cpp:386] loss1/relu_conv -> loss1/conv (in-place)
I0403 18:28:37.757040  7002 net.cpp:141] Setting up loss1/relu_conv
I0403 18:28:37.757066  7002 net.cpp:148] Top shape: 24 128 4 4 (49152)
I0403 18:28:37.757079  7002 net.cpp:156] Memory required for data: 945894432
I0403 18:28:37.757094  7002 layer_factory.hpp:77] Creating layer loss1/fc
I0403 18:28:37.757118  7002 net.cpp:91] Creating Layer loss1/fc
I0403 18:28:37.757136  7002 net.cpp:425] loss1/fc <- loss1/conv
I0403 18:28:37.757154  7002 net.cpp:399] loss1/fc -> loss1/fc
I0403 18:28:37.774566  7002 net.cpp:141] Setting up loss1/fc
I0403 18:28:37.774600  7002 net.cpp:148] Top shape: 24 1024 (24576)
I0403 18:28:37.774616  7002 net.cpp:156] Memory required for data: 945992736
I0403 18:28:37.774634  7002 layer_factory.hpp:77] Creating layer loss1/relu_fc
I0403 18:28:37.774652  7002 net.cpp:91] Creating Layer loss1/relu_fc
I0403 18:28:37.774668  7002 net.cpp:425] loss1/relu_fc <- loss1/fc
I0403 18:28:37.774688  7002 net.cpp:386] loss1/relu_fc -> loss1/fc (in-place)
I0403 18:28:37.774873  7002 net.cpp:141] Setting up loss1/relu_fc
I0403 18:28:37.774896  7002 net.cpp:148] Top shape: 24 1024 (24576)
I0403 18:28:37.774910  7002 net.cpp:156] Memory required for data: 946091040
I0403 18:28:37.774925  7002 layer_factory.hpp:77] Creating layer loss1/drop_fc
I0403 18:28:37.774952  7002 net.cpp:91] Creating Layer loss1/drop_fc
I0403 18:28:37.774969  7002 net.cpp:425] loss1/drop_fc <- loss1/fc
I0403 18:28:37.774986  7002 net.cpp:386] loss1/drop_fc -> loss1/fc (in-place)
I0403 18:28:37.775033  7002 net.cpp:141] Setting up loss1/drop_fc
I0403 18:28:37.775059  7002 net.cpp:148] Top shape: 24 1024 (24576)
I0403 18:28:37.775075  7002 net.cpp:156] Memory required for data: 946189344
I0403 18:28:37.775090  7002 layer_factory.hpp:77] Creating layer loss1/classifier_plantvillage
I0403 18:28:37.775110  7002 net.cpp:91] Creating Layer loss1/classifier_plantvillage
I0403 18:28:37.775125  7002 net.cpp:425] loss1/classifier_plantvillage <- loss1/fc
I0403 18:28:37.775144  7002 net.cpp:399] loss1/classifier_plantvillage -> loss1/classifier_plantvillage
I0403 18:28:37.776057  7002 net.cpp:141] Setting up loss1/classifier_plantvillage
I0403 18:28:37.776085  7002 net.cpp:148] Top shape: 24 38 (912)
I0403 18:28:37.776099  7002 net.cpp:156] Memory required for data: 946192992
I0403 18:28:37.776118  7002 layer_factory.hpp:77] Creating layer loss1/classifier_plantvillage_loss1/classifier_plantvillage_0_split
I0403 18:28:37.776139  7002 net.cpp:91] Creating Layer loss1/classifier_plantvillage_loss1/classifier_plantvillage_0_split
I0403 18:28:37.776155  7002 net.cpp:425] loss1/classifier_plantvillage_loss1/classifier_plantvillage_0_split <- loss1/classifier_plantvillage
I0403 18:28:37.776173  7002 net.cpp:399] loss1/classifier_plantvillage_loss1/classifier_plantvillage_0_split -> loss1/classifier_plantvillage_loss1/classifier_plantvillage_0_split_0
I0403 18:28:37.776199  7002 net.cpp:399] loss1/classifier_plantvillage_loss1/classifier_plantvillage_0_split -> loss1/classifier_plantvillage_loss1/classifier_plantvillage_0_split_1
I0403 18:28:37.776221  7002 net.cpp:399] loss1/classifier_plantvillage_loss1/classifier_plantvillage_0_split -> loss1/classifier_plantvillage_loss1/classifier_plantvillage_0_split_2
I0403 18:28:37.776284  7002 net.cpp:141] Setting up loss1/classifier_plantvillage_loss1/classifier_plantvillage_0_split
I0403 18:28:37.776312  7002 net.cpp:148] Top shape: 24 38 (912)
I0403 18:28:37.776330  7002 net.cpp:148] Top shape: 24 38 (912)
I0403 18:28:37.776345  7002 net.cpp:148] Top shape: 24 38 (912)
I0403 18:28:37.776358  7002 net.cpp:156] Memory required for data: 946203936
I0403 18:28:37.776372  7002 layer_factory.hpp:77] Creating layer inception_4b/1x1
I0403 18:28:37.776392  7002 net.cpp:91] Creating Layer inception_4b/1x1
I0403 18:28:37.776423  7002 net.cpp:425] inception_4b/1x1 <- inception_4a/output_inception_4a/output_0_split_1
I0403 18:28:37.776443  7002 net.cpp:399] inception_4b/1x1 -> inception_4b/1x1
I0403 18:28:37.778055  7002 net.cpp:141] Setting up inception_4b/1x1
I0403 18:28:37.778084  7002 net.cpp:148] Top shape: 24 160 14 14 (752640)
I0403 18:28:37.778098  7002 net.cpp:156] Memory required for data: 949214496
I0403 18:28:37.778117  7002 layer_factory.hpp:77] Creating layer inception_4b/relu_1x1
I0403 18:28:37.778136  7002 net.cpp:91] Creating Layer inception_4b/relu_1x1
I0403 18:28:37.778153  7002 net.cpp:425] inception_4b/relu_1x1 <- inception_4b/1x1
I0403 18:28:37.778170  7002 net.cpp:386] inception_4b/relu_1x1 -> inception_4b/1x1 (in-place)
I0403 18:28:37.778349  7002 net.cpp:141] Setting up inception_4b/relu_1x1
I0403 18:28:37.778375  7002 net.cpp:148] Top shape: 24 160 14 14 (752640)
I0403 18:28:37.778391  7002 net.cpp:156] Memory required for data: 952225056
I0403 18:28:37.778405  7002 layer_factory.hpp:77] Creating layer inception_4b/3x3_reduce
I0403 18:28:37.778427  7002 net.cpp:91] Creating Layer inception_4b/3x3_reduce
I0403 18:28:37.778445  7002 net.cpp:425] inception_4b/3x3_reduce <- inception_4a/output_inception_4a/output_0_split_2
I0403 18:28:37.778463  7002 net.cpp:399] inception_4b/3x3_reduce -> inception_4b/3x3_reduce
I0403 18:28:37.779767  7002 net.cpp:141] Setting up inception_4b/3x3_reduce
I0403 18:28:37.779798  7002 net.cpp:148] Top shape: 24 112 14 14 (526848)
I0403 18:28:37.779814  7002 net.cpp:156] Memory required for data: 954332448
I0403 18:28:37.779834  7002 layer_factory.hpp:77] Creating layer inception_4b/relu_3x3_reduce
I0403 18:28:37.779851  7002 net.cpp:91] Creating Layer inception_4b/relu_3x3_reduce
I0403 18:28:37.779866  7002 net.cpp:425] inception_4b/relu_3x3_reduce <- inception_4b/3x3_reduce
I0403 18:28:37.779886  7002 net.cpp:386] inception_4b/relu_3x3_reduce -> inception_4b/3x3_reduce (in-place)
I0403 18:28:37.780158  7002 net.cpp:141] Setting up inception_4b/relu_3x3_reduce
I0403 18:28:37.780189  7002 net.cpp:148] Top shape: 24 112 14 14 (526848)
I0403 18:28:37.780207  7002 net.cpp:156] Memory required for data: 956439840
I0403 18:28:37.780222  7002 layer_factory.hpp:77] Creating layer inception_4b/3x3
I0403 18:28:37.780244  7002 net.cpp:91] Creating Layer inception_4b/3x3
I0403 18:28:37.780261  7002 net.cpp:425] inception_4b/3x3 <- inception_4b/3x3_reduce
I0403 18:28:37.780280  7002 net.cpp:399] inception_4b/3x3 -> inception_4b/3x3
I0403 18:28:37.783203  7002 net.cpp:141] Setting up inception_4b/3x3
I0403 18:28:37.783231  7002 net.cpp:148] Top shape: 24 224 14 14 (1053696)
I0403 18:28:37.783246  7002 net.cpp:156] Memory required for data: 960654624
I0403 18:28:37.783265  7002 layer_factory.hpp:77] Creating layer inception_4b/relu_3x3
I0403 18:28:37.783285  7002 net.cpp:91] Creating Layer inception_4b/relu_3x3
I0403 18:28:37.783303  7002 net.cpp:425] inception_4b/relu_3x3 <- inception_4b/3x3
I0403 18:28:37.783319  7002 net.cpp:386] inception_4b/relu_3x3 -> inception_4b/3x3 (in-place)
I0403 18:28:37.783494  7002 net.cpp:141] Setting up inception_4b/relu_3x3
I0403 18:28:37.783519  7002 net.cpp:148] Top shape: 24 224 14 14 (1053696)
I0403 18:28:37.783534  7002 net.cpp:156] Memory required for data: 964869408
I0403 18:28:37.783548  7002 layer_factory.hpp:77] Creating layer inception_4b/5x5_reduce
I0403 18:28:37.783570  7002 net.cpp:91] Creating Layer inception_4b/5x5_reduce
I0403 18:28:37.783587  7002 net.cpp:425] inception_4b/5x5_reduce <- inception_4a/output_inception_4a/output_0_split_3
I0403 18:28:37.783609  7002 net.cpp:399] inception_4b/5x5_reduce -> inception_4b/5x5_reduce
I0403 18:28:37.784659  7002 net.cpp:141] Setting up inception_4b/5x5_reduce
I0403 18:28:37.784688  7002 net.cpp:148] Top shape: 24 24 14 14 (112896)
I0403 18:28:37.784703  7002 net.cpp:156] Memory required for data: 965320992
I0403 18:28:37.784721  7002 layer_factory.hpp:77] Creating layer inception_4b/relu_5x5_reduce
I0403 18:28:37.784744  7002 net.cpp:91] Creating Layer inception_4b/relu_5x5_reduce
I0403 18:28:37.784780  7002 net.cpp:425] inception_4b/relu_5x5_reduce <- inception_4b/5x5_reduce
I0403 18:28:37.784804  7002 net.cpp:386] inception_4b/relu_5x5_reduce -> inception_4b/5x5_reduce (in-place)
I0403 18:28:37.784988  7002 net.cpp:141] Setting up inception_4b/relu_5x5_reduce
I0403 18:28:37.785013  7002 net.cpp:148] Top shape: 24 24 14 14 (112896)
I0403 18:28:37.785027  7002 net.cpp:156] Memory required for data: 965772576
I0403 18:28:37.785043  7002 layer_factory.hpp:77] Creating layer inception_4b/5x5
I0403 18:28:37.785064  7002 net.cpp:91] Creating Layer inception_4b/5x5
I0403 18:28:37.785084  7002 net.cpp:425] inception_4b/5x5 <- inception_4b/5x5_reduce
I0403 18:28:37.785115  7002 net.cpp:399] inception_4b/5x5 -> inception_4b/5x5
I0403 18:28:37.786344  7002 net.cpp:141] Setting up inception_4b/5x5
I0403 18:28:37.786372  7002 net.cpp:148] Top shape: 24 64 14 14 (301056)
I0403 18:28:37.786387  7002 net.cpp:156] Memory required for data: 966976800
I0403 18:28:37.786406  7002 layer_factory.hpp:77] Creating layer inception_4b/relu_5x5
I0403 18:28:37.786427  7002 net.cpp:91] Creating Layer inception_4b/relu_5x5
I0403 18:28:37.786444  7002 net.cpp:425] inception_4b/relu_5x5 <- inception_4b/5x5
I0403 18:28:37.786463  7002 net.cpp:386] inception_4b/relu_5x5 -> inception_4b/5x5 (in-place)
I0403 18:28:37.786746  7002 net.cpp:141] Setting up inception_4b/relu_5x5
I0403 18:28:37.786772  7002 net.cpp:148] Top shape: 24 64 14 14 (301056)
I0403 18:28:37.786787  7002 net.cpp:156] Memory required for data: 968181024
I0403 18:28:37.786803  7002 layer_factory.hpp:77] Creating layer inception_4b/pool
I0403 18:28:37.786824  7002 net.cpp:91] Creating Layer inception_4b/pool
I0403 18:28:37.786841  7002 net.cpp:425] inception_4b/pool <- inception_4a/output_inception_4a/output_0_split_4
I0403 18:28:37.786859  7002 net.cpp:399] inception_4b/pool -> inception_4b/pool
I0403 18:28:37.786926  7002 net.cpp:141] Setting up inception_4b/pool
I0403 18:28:37.786950  7002 net.cpp:148] Top shape: 24 512 14 14 (2408448)
I0403 18:28:37.786965  7002 net.cpp:156] Memory required for data: 977814816
I0403 18:28:37.786980  7002 layer_factory.hpp:77] Creating layer inception_4b/pool_proj
I0403 18:28:37.787003  7002 net.cpp:91] Creating Layer inception_4b/pool_proj
I0403 18:28:37.787021  7002 net.cpp:425] inception_4b/pool_proj <- inception_4b/pool
I0403 18:28:37.787042  7002 net.cpp:399] inception_4b/pool_proj -> inception_4b/pool_proj
I0403 18:28:37.788281  7002 net.cpp:141] Setting up inception_4b/pool_proj
I0403 18:28:37.788311  7002 net.cpp:148] Top shape: 24 64 14 14 (301056)
I0403 18:28:37.788332  7002 net.cpp:156] Memory required for data: 979019040
I0403 18:28:37.788352  7002 layer_factory.hpp:77] Creating layer inception_4b/relu_pool_proj
I0403 18:28:37.788370  7002 net.cpp:91] Creating Layer inception_4b/relu_pool_proj
I0403 18:28:37.788386  7002 net.cpp:425] inception_4b/relu_pool_proj <- inception_4b/pool_proj
I0403 18:28:37.788403  7002 net.cpp:386] inception_4b/relu_pool_proj -> inception_4b/pool_proj (in-place)
I0403 18:28:37.788591  7002 net.cpp:141] Setting up inception_4b/relu_pool_proj
I0403 18:28:37.788619  7002 net.cpp:148] Top shape: 24 64 14 14 (301056)
I0403 18:28:37.788635  7002 net.cpp:156] Memory required for data: 980223264
I0403 18:28:37.788651  7002 layer_factory.hpp:77] Creating layer inception_4b/output
I0403 18:28:37.788671  7002 net.cpp:91] Creating Layer inception_4b/output
I0403 18:28:37.788686  7002 net.cpp:425] inception_4b/output <- inception_4b/1x1
I0403 18:28:37.788703  7002 net.cpp:425] inception_4b/output <- inception_4b/3x3
I0403 18:28:37.788719  7002 net.cpp:425] inception_4b/output <- inception_4b/5x5
I0403 18:28:37.788736  7002 net.cpp:425] inception_4b/output <- inception_4b/pool_proj
I0403 18:28:37.788761  7002 net.cpp:399] inception_4b/output -> inception_4b/output
I0403 18:28:37.788810  7002 net.cpp:141] Setting up inception_4b/output
I0403 18:28:37.788833  7002 net.cpp:148] Top shape: 24 512 14 14 (2408448)
I0403 18:28:37.788848  7002 net.cpp:156] Memory required for data: 989857056
I0403 18:28:37.788878  7002 layer_factory.hpp:77] Creating layer inception_4b/output_inception_4b/output_0_split
I0403 18:28:37.788902  7002 net.cpp:91] Creating Layer inception_4b/output_inception_4b/output_0_split
I0403 18:28:37.788918  7002 net.cpp:425] inception_4b/output_inception_4b/output_0_split <- inception_4b/output
I0403 18:28:37.788936  7002 net.cpp:399] inception_4b/output_inception_4b/output_0_split -> inception_4b/output_inception_4b/output_0_split_0
I0403 18:28:37.788956  7002 net.cpp:399] inception_4b/output_inception_4b/output_0_split -> inception_4b/output_inception_4b/output_0_split_1
I0403 18:28:37.788980  7002 net.cpp:399] inception_4b/output_inception_4b/output_0_split -> inception_4b/output_inception_4b/output_0_split_2
I0403 18:28:37.789001  7002 net.cpp:399] inception_4b/output_inception_4b/output_0_split -> inception_4b/output_inception_4b/output_0_split_3
I0403 18:28:37.789088  7002 net.cpp:141] Setting up inception_4b/output_inception_4b/output_0_split
I0403 18:28:37.789113  7002 net.cpp:148] Top shape: 24 512 14 14 (2408448)
I0403 18:28:37.789129  7002 net.cpp:148] Top shape: 24 512 14 14 (2408448)
I0403 18:28:37.789145  7002 net.cpp:148] Top shape: 24 512 14 14 (2408448)
I0403 18:28:37.789161  7002 net.cpp:148] Top shape: 24 512 14 14 (2408448)
I0403 18:28:37.789176  7002 net.cpp:156] Memory required for data: 1028392224
I0403 18:28:37.789198  7002 layer_factory.hpp:77] Creating layer inception_4c/1x1
I0403 18:28:37.789223  7002 net.cpp:91] Creating Layer inception_4c/1x1
I0403 18:28:37.789243  7002 net.cpp:425] inception_4c/1x1 <- inception_4b/output_inception_4b/output_0_split_0
I0403 18:28:37.789265  7002 net.cpp:399] inception_4c/1x1 -> inception_4c/1x1
I0403 18:28:37.790726  7002 net.cpp:141] Setting up inception_4c/1x1
I0403 18:28:37.790761  7002 net.cpp:148] Top shape: 24 128 14 14 (602112)
I0403 18:28:37.790781  7002 net.cpp:156] Memory required for data: 1030800672
I0403 18:28:37.790802  7002 layer_factory.hpp:77] Creating layer inception_4c/relu_1x1
I0403 18:28:37.790822  7002 net.cpp:91] Creating Layer inception_4c/relu_1x1
I0403 18:28:37.790839  7002 net.cpp:425] inception_4c/relu_1x1 <- inception_4c/1x1
I0403 18:28:37.790858  7002 net.cpp:386] inception_4c/relu_1x1 -> inception_4c/1x1 (in-place)
I0403 18:28:37.791040  7002 net.cpp:141] Setting up inception_4c/relu_1x1
I0403 18:28:37.791067  7002 net.cpp:148] Top shape: 24 128 14 14 (602112)
I0403 18:28:37.791084  7002 net.cpp:156] Memory required for data: 1033209120
I0403 18:28:37.791100  7002 layer_factory.hpp:77] Creating layer inception_4c/3x3_reduce
I0403 18:28:37.791126  7002 net.cpp:91] Creating Layer inception_4c/3x3_reduce
I0403 18:28:37.791146  7002 net.cpp:425] inception_4c/3x3_reduce <- inception_4b/output_inception_4b/output_0_split_1
I0403 18:28:37.791169  7002 net.cpp:399] inception_4c/3x3_reduce -> inception_4c/3x3_reduce
I0403 18:28:37.793167  7002 net.cpp:141] Setting up inception_4c/3x3_reduce
I0403 18:28:37.793203  7002 net.cpp:148] Top shape: 24 128 14 14 (602112)
I0403 18:28:37.793221  7002 net.cpp:156] Memory required for data: 1035617568
I0403 18:28:37.793241  7002 layer_factory.hpp:77] Creating layer inception_4c/relu_3x3_reduce
I0403 18:28:37.793263  7002 net.cpp:91] Creating Layer inception_4c/relu_3x3_reduce
I0403 18:28:37.793280  7002 net.cpp:425] inception_4c/relu_3x3_reduce <- inception_4c/3x3_reduce
I0403 18:28:37.793298  7002 net.cpp:386] inception_4c/relu_3x3_reduce -> inception_4c/3x3_reduce (in-place)
I0403 18:28:37.793584  7002 net.cpp:141] Setting up inception_4c/relu_3x3_reduce
I0403 18:28:37.793612  7002 net.cpp:148] Top shape: 24 128 14 14 (602112)
I0403 18:28:37.793628  7002 net.cpp:156] Memory required for data: 1038026016
I0403 18:28:37.793645  7002 layer_factory.hpp:77] Creating layer inception_4c/3x3
I0403 18:28:37.793669  7002 net.cpp:91] Creating Layer inception_4c/3x3
I0403 18:28:37.793687  7002 net.cpp:425] inception_4c/3x3 <- inception_4c/3x3_reduce
I0403 18:28:37.793710  7002 net.cpp:399] inception_4c/3x3 -> inception_4c/3x3
I0403 18:28:37.797314  7002 net.cpp:141] Setting up inception_4c/3x3
I0403 18:28:37.797361  7002 net.cpp:148] Top shape: 24 256 14 14 (1204224)
I0403 18:28:37.797379  7002 net.cpp:156] Memory required for data: 1042842912
I0403 18:28:37.797413  7002 layer_factory.hpp:77] Creating layer inception_4c/relu_3x3
I0403 18:28:37.797438  7002 net.cpp:91] Creating Layer inception_4c/relu_3x3
I0403 18:28:37.797456  7002 net.cpp:425] inception_4c/relu_3x3 <- inception_4c/3x3
I0403 18:28:37.797475  7002 net.cpp:386] inception_4c/relu_3x3 -> inception_4c/3x3 (in-place)
I0403 18:28:37.797659  7002 net.cpp:141] Setting up inception_4c/relu_3x3
I0403 18:28:37.797686  7002 net.cpp:148] Top shape: 24 256 14 14 (1204224)
I0403 18:28:37.797703  7002 net.cpp:156] Memory required for data: 1047659808
I0403 18:28:37.797719  7002 layer_factory.hpp:77] Creating layer inception_4c/5x5_reduce
I0403 18:28:37.797744  7002 net.cpp:91] Creating Layer inception_4c/5x5_reduce
I0403 18:28:37.797763  7002 net.cpp:425] inception_4c/5x5_reduce <- inception_4b/output_inception_4b/output_0_split_2
I0403 18:28:37.797783  7002 net.cpp:399] inception_4c/5x5_reduce -> inception_4c/5x5_reduce
I0403 18:28:37.798871  7002 net.cpp:141] Setting up inception_4c/5x5_reduce
I0403 18:28:37.798900  7002 net.cpp:148] Top shape: 24 24 14 14 (112896)
I0403 18:28:37.798918  7002 net.cpp:156] Memory required for data: 1048111392
I0403 18:28:37.798936  7002 layer_factory.hpp:77] Creating layer inception_4c/relu_5x5_reduce
I0403 18:28:37.798957  7002 net.cpp:91] Creating Layer inception_4c/relu_5x5_reduce
I0403 18:28:37.798977  7002 net.cpp:425] inception_4c/relu_5x5_reduce <- inception_4c/5x5_reduce
I0403 18:28:37.798995  7002 net.cpp:386] inception_4c/relu_5x5_reduce -> inception_4c/5x5_reduce (in-place)
I0403 18:28:37.799182  7002 net.cpp:141] Setting up inception_4c/relu_5x5_reduce
I0403 18:28:37.799211  7002 net.cpp:148] Top shape: 24 24 14 14 (112896)
I0403 18:28:37.799226  7002 net.cpp:156] Memory required for data: 1048562976
I0403 18:28:37.799240  7002 layer_factory.hpp:77] Creating layer inception_4c/5x5
I0403 18:28:37.799263  7002 net.cpp:91] Creating Layer inception_4c/5x5
I0403 18:28:37.799280  7002 net.cpp:425] inception_4c/5x5 <- inception_4c/5x5_reduce
I0403 18:28:37.799301  7002 net.cpp:399] inception_4c/5x5 -> inception_4c/5x5
I0403 18:28:37.800535  7002 net.cpp:141] Setting up inception_4c/5x5
I0403 18:28:37.800567  7002 net.cpp:148] Top shape: 24 64 14 14 (301056)
I0403 18:28:37.800585  7002 net.cpp:156] Memory required for data: 1049767200
I0403 18:28:37.800606  7002 layer_factory.hpp:77] Creating layer inception_4c/relu_5x5
I0403 18:28:37.800624  7002 net.cpp:91] Creating Layer inception_4c/relu_5x5
I0403 18:28:37.800642  7002 net.cpp:425] inception_4c/relu_5x5 <- inception_4c/5x5
I0403 18:28:37.800667  7002 net.cpp:386] inception_4c/relu_5x5 -> inception_4c/5x5 (in-place)
I0403 18:28:37.800953  7002 net.cpp:141] Setting up inception_4c/relu_5x5
I0403 18:28:37.800984  7002 net.cpp:148] Top shape: 24 64 14 14 (301056)
I0403 18:28:37.801000  7002 net.cpp:156] Memory required for data: 1050971424
I0403 18:28:37.801017  7002 layer_factory.hpp:77] Creating layer inception_4c/pool
I0403 18:28:37.801035  7002 net.cpp:91] Creating Layer inception_4c/pool
I0403 18:28:37.801053  7002 net.cpp:425] inception_4c/pool <- inception_4b/output_inception_4b/output_0_split_3
I0403 18:28:37.801074  7002 net.cpp:399] inception_4c/pool -> inception_4c/pool
I0403 18:28:37.801139  7002 net.cpp:141] Setting up inception_4c/pool
I0403 18:28:37.801167  7002 net.cpp:148] Top shape: 24 512 14 14 (2408448)
I0403 18:28:37.801188  7002 net.cpp:156] Memory required for data: 1060605216
I0403 18:28:37.801204  7002 layer_factory.hpp:77] Creating layer inception_4c/pool_proj
I0403 18:28:37.801224  7002 net.cpp:91] Creating Layer inception_4c/pool_proj
I0403 18:28:37.801242  7002 net.cpp:425] inception_4c/pool_proj <- inception_4c/pool
I0403 18:28:37.801262  7002 net.cpp:399] inception_4c/pool_proj -> inception_4c/pool_proj
I0403 18:28:37.802485  7002 net.cpp:141] Setting up inception_4c/pool_proj
I0403 18:28:37.802515  7002 net.cpp:148] Top shape: 24 64 14 14 (301056)
I0403 18:28:37.802546  7002 net.cpp:156] Memory required for data: 1061809440
I0403 18:28:37.802567  7002 layer_factory.hpp:77] Creating layer inception_4c/relu_pool_proj
I0403 18:28:37.802592  7002 net.cpp:91] Creating Layer inception_4c/relu_pool_proj
I0403 18:28:37.802610  7002 net.cpp:425] inception_4c/relu_pool_proj <- inception_4c/pool_proj
I0403 18:28:37.802628  7002 net.cpp:386] inception_4c/relu_pool_proj -> inception_4c/pool_proj (in-place)
I0403 18:28:37.802811  7002 net.cpp:141] Setting up inception_4c/relu_pool_proj
I0403 18:28:37.802841  7002 net.cpp:148] Top shape: 24 64 14 14 (301056)
I0403 18:28:37.802858  7002 net.cpp:156] Memory required for data: 1063013664
I0403 18:28:37.802875  7002 layer_factory.hpp:77] Creating layer inception_4c/output
I0403 18:28:37.802894  7002 net.cpp:91] Creating Layer inception_4c/output
I0403 18:28:37.802911  7002 net.cpp:425] inception_4c/output <- inception_4c/1x1
I0403 18:28:37.802927  7002 net.cpp:425] inception_4c/output <- inception_4c/3x3
I0403 18:28:37.802942  7002 net.cpp:425] inception_4c/output <- inception_4c/5x5
I0403 18:28:37.802959  7002 net.cpp:425] inception_4c/output <- inception_4c/pool_proj
I0403 18:28:37.802980  7002 net.cpp:399] inception_4c/output -> inception_4c/output
I0403 18:28:37.803027  7002 net.cpp:141] Setting up inception_4c/output
I0403 18:28:37.803052  7002 net.cpp:148] Top shape: 24 512 14 14 (2408448)
I0403 18:28:37.803068  7002 net.cpp:156] Memory required for data: 1072647456
I0403 18:28:37.803083  7002 layer_factory.hpp:77] Creating layer inception_4c/output_inception_4c/output_0_split
I0403 18:28:37.803103  7002 net.cpp:91] Creating Layer inception_4c/output_inception_4c/output_0_split
I0403 18:28:37.803122  7002 net.cpp:425] inception_4c/output_inception_4c/output_0_split <- inception_4c/output
I0403 18:28:37.803139  7002 net.cpp:399] inception_4c/output_inception_4c/output_0_split -> inception_4c/output_inception_4c/output_0_split_0
I0403 18:28:37.803158  7002 net.cpp:399] inception_4c/output_inception_4c/output_0_split -> inception_4c/output_inception_4c/output_0_split_1
I0403 18:28:37.803186  7002 net.cpp:399] inception_4c/output_inception_4c/output_0_split -> inception_4c/output_inception_4c/output_0_split_2
I0403 18:28:37.803210  7002 net.cpp:399] inception_4c/output_inception_4c/output_0_split -> inception_4c/output_inception_4c/output_0_split_3
I0403 18:28:37.803294  7002 net.cpp:141] Setting up inception_4c/output_inception_4c/output_0_split
I0403 18:28:37.803318  7002 net.cpp:148] Top shape: 24 512 14 14 (2408448)
I0403 18:28:37.803336  7002 net.cpp:148] Top shape: 24 512 14 14 (2408448)
I0403 18:28:37.803352  7002 net.cpp:148] Top shape: 24 512 14 14 (2408448)
I0403 18:28:37.803367  7002 net.cpp:148] Top shape: 24 512 14 14 (2408448)
I0403 18:28:37.803381  7002 net.cpp:156] Memory required for data: 1111182624
I0403 18:28:37.803396  7002 layer_factory.hpp:77] Creating layer inception_4d/1x1
I0403 18:28:37.803418  7002 net.cpp:91] Creating Layer inception_4d/1x1
I0403 18:28:37.803436  7002 net.cpp:425] inception_4d/1x1 <- inception_4c/output_inception_4c/output_0_split_0
I0403 18:28:37.803460  7002 net.cpp:399] inception_4d/1x1 -> inception_4d/1x1
I0403 18:28:37.804843  7002 net.cpp:141] Setting up inception_4d/1x1
I0403 18:28:37.804872  7002 net.cpp:148] Top shape: 24 112 14 14 (526848)
I0403 18:28:37.804889  7002 net.cpp:156] Memory required for data: 1113290016
I0403 18:28:37.804908  7002 layer_factory.hpp:77] Creating layer inception_4d/relu_1x1
I0403 18:28:37.804930  7002 net.cpp:91] Creating Layer inception_4d/relu_1x1
I0403 18:28:37.804949  7002 net.cpp:425] inception_4d/relu_1x1 <- inception_4d/1x1
I0403 18:28:37.804968  7002 net.cpp:386] inception_4d/relu_1x1 -> inception_4d/1x1 (in-place)
I0403 18:28:37.805151  7002 net.cpp:141] Setting up inception_4d/relu_1x1
I0403 18:28:37.805183  7002 net.cpp:148] Top shape: 24 112 14 14 (526848)
I0403 18:28:37.805202  7002 net.cpp:156] Memory required for data: 1115397408
I0403 18:28:37.805218  7002 layer_factory.hpp:77] Creating layer inception_4d/3x3_reduce
I0403 18:28:37.805256  7002 net.cpp:91] Creating Layer inception_4d/3x3_reduce
I0403 18:28:37.805279  7002 net.cpp:425] inception_4d/3x3_reduce <- inception_4c/output_inception_4c/output_0_split_1
I0403 18:28:37.805299  7002 net.cpp:399] inception_4d/3x3_reduce -> inception_4d/3x3_reduce
I0403 18:28:37.806812  7002 net.cpp:141] Setting up inception_4d/3x3_reduce
I0403 18:28:37.806841  7002 net.cpp:148] Top shape: 24 144 14 14 (677376)
I0403 18:28:37.806857  7002 net.cpp:156] Memory required for data: 1118106912
I0403 18:28:37.806876  7002 layer_factory.hpp:77] Creating layer inception_4d/relu_3x3_reduce
I0403 18:28:37.806895  7002 net.cpp:91] Creating Layer inception_4d/relu_3x3_reduce
I0403 18:28:37.806913  7002 net.cpp:425] inception_4d/relu_3x3_reduce <- inception_4d/3x3_reduce
I0403 18:28:37.806934  7002 net.cpp:386] inception_4d/relu_3x3_reduce -> inception_4d/3x3_reduce (in-place)
I0403 18:28:37.807227  7002 net.cpp:141] Setting up inception_4d/relu_3x3_reduce
I0403 18:28:37.807255  7002 net.cpp:148] Top shape: 24 144 14 14 (677376)
I0403 18:28:37.807270  7002 net.cpp:156] Memory required for data: 1120816416
I0403 18:28:37.807286  7002 layer_factory.hpp:77] Creating layer inception_4d/3x3
I0403 18:28:37.807309  7002 net.cpp:91] Creating Layer inception_4d/3x3
I0403 18:28:37.807327  7002 net.cpp:425] inception_4d/3x3 <- inception_4d/3x3_reduce
I0403 18:28:37.807348  7002 net.cpp:399] inception_4d/3x3 -> inception_4d/3x3
I0403 18:28:37.811775  7002 net.cpp:141] Setting up inception_4d/3x3
I0403 18:28:37.811806  7002 net.cpp:148] Top shape: 24 288 14 14 (1354752)
I0403 18:28:37.811823  7002 net.cpp:156] Memory required for data: 1126235424
I0403 18:28:37.811842  7002 layer_factory.hpp:77] Creating layer inception_4d/relu_3x3
I0403 18:28:37.811863  7002 net.cpp:91] Creating Layer inception_4d/relu_3x3
I0403 18:28:37.811880  7002 net.cpp:425] inception_4d/relu_3x3 <- inception_4d/3x3
I0403 18:28:37.811898  7002 net.cpp:386] inception_4d/relu_3x3 -> inception_4d/3x3 (in-place)
I0403 18:28:37.812086  7002 net.cpp:141] Setting up inception_4d/relu_3x3
I0403 18:28:37.812114  7002 net.cpp:148] Top shape: 24 288 14 14 (1354752)
I0403 18:28:37.812131  7002 net.cpp:156] Memory required for data: 1131654432
I0403 18:28:37.812147  7002 layer_factory.hpp:77] Creating layer inception_4d/5x5_reduce
I0403 18:28:37.812167  7002 net.cpp:91] Creating Layer inception_4d/5x5_reduce
I0403 18:28:37.812196  7002 net.cpp:425] inception_4d/5x5_reduce <- inception_4c/output_inception_4c/output_0_split_2
I0403 18:28:37.812221  7002 net.cpp:399] inception_4d/5x5_reduce -> inception_4d/5x5_reduce
I0403 18:28:37.813381  7002 net.cpp:141] Setting up inception_4d/5x5_reduce
I0403 18:28:37.813411  7002 net.cpp:148] Top shape: 24 32 14 14 (150528)
I0403 18:28:37.813429  7002 net.cpp:156] Memory required for data: 1132256544
I0403 18:28:37.813448  7002 layer_factory.hpp:77] Creating layer inception_4d/relu_5x5_reduce
I0403 18:28:37.813470  7002 net.cpp:91] Creating Layer inception_4d/relu_5x5_reduce
I0403 18:28:37.813488  7002 net.cpp:425] inception_4d/relu_5x5_reduce <- inception_4d/5x5_reduce
I0403 18:28:37.813506  7002 net.cpp:386] inception_4d/relu_5x5_reduce -> inception_4d/5x5_reduce (in-place)
I0403 18:28:37.813697  7002 net.cpp:141] Setting up inception_4d/relu_5x5_reduce
I0403 18:28:37.813722  7002 net.cpp:148] Top shape: 24 32 14 14 (150528)
I0403 18:28:37.813736  7002 net.cpp:156] Memory required for data: 1132858656
I0403 18:28:37.813752  7002 layer_factory.hpp:77] Creating layer inception_4d/5x5
I0403 18:28:37.813776  7002 net.cpp:91] Creating Layer inception_4d/5x5
I0403 18:28:37.813796  7002 net.cpp:425] inception_4d/5x5 <- inception_4d/5x5_reduce
I0403 18:28:37.813814  7002 net.cpp:399] inception_4d/5x5 -> inception_4d/5x5
I0403 18:28:37.815297  7002 net.cpp:141] Setting up inception_4d/5x5
I0403 18:28:37.815330  7002 net.cpp:148] Top shape: 24 64 14 14 (301056)
I0403 18:28:37.815348  7002 net.cpp:156] Memory required for data: 1134062880
I0403 18:28:37.815369  7002 layer_factory.hpp:77] Creating layer inception_4d/relu_5x5
I0403 18:28:37.815403  7002 net.cpp:91] Creating Layer inception_4d/relu_5x5
I0403 18:28:37.815423  7002 net.cpp:425] inception_4d/relu_5x5 <- inception_4d/5x5
I0403 18:28:37.815443  7002 net.cpp:386] inception_4d/relu_5x5 -> inception_4d/5x5 (in-place)
I0403 18:28:37.815745  7002 net.cpp:141] Setting up inception_4d/relu_5x5
I0403 18:28:37.815780  7002 net.cpp:148] Top shape: 24 64 14 14 (301056)
I0403 18:28:37.815800  7002 net.cpp:156] Memory required for data: 1135267104
I0403 18:28:37.815816  7002 layer_factory.hpp:77] Creating layer inception_4d/pool
I0403 18:28:37.815835  7002 net.cpp:91] Creating Layer inception_4d/pool
I0403 18:28:37.815852  7002 net.cpp:425] inception_4d/pool <- inception_4c/output_inception_4c/output_0_split_3
I0403 18:28:37.815876  7002 net.cpp:399] inception_4d/pool -> inception_4d/pool
I0403 18:28:37.815943  7002 net.cpp:141] Setting up inception_4d/pool
I0403 18:28:37.815969  7002 net.cpp:148] Top shape: 24 512 14 14 (2408448)
I0403 18:28:37.815984  7002 net.cpp:156] Memory required for data: 1144900896
I0403 18:28:37.816000  7002 layer_factory.hpp:77] Creating layer inception_4d/pool_proj
I0403 18:28:37.816023  7002 net.cpp:91] Creating Layer inception_4d/pool_proj
I0403 18:28:37.816042  7002 net.cpp:425] inception_4d/pool_proj <- inception_4d/pool
I0403 18:28:37.816064  7002 net.cpp:399] inception_4d/pool_proj -> inception_4d/pool_proj
I0403 18:28:37.817891  7002 net.cpp:141] Setting up inception_4d/pool_proj
I0403 18:28:37.817921  7002 net.cpp:148] Top shape: 24 64 14 14 (301056)
I0403 18:28:37.817939  7002 net.cpp:156] Memory required for data: 1146105120
I0403 18:28:37.817958  7002 layer_factory.hpp:77] Creating layer inception_4d/relu_pool_proj
I0403 18:28:37.817978  7002 net.cpp:91] Creating Layer inception_4d/relu_pool_proj
I0403 18:28:37.817996  7002 net.cpp:425] inception_4d/relu_pool_proj <- inception_4d/pool_proj
I0403 18:28:37.818014  7002 net.cpp:386] inception_4d/relu_pool_proj -> inception_4d/pool_proj (in-place)
I0403 18:28:37.818207  7002 net.cpp:141] Setting up inception_4d/relu_pool_proj
I0403 18:28:37.818236  7002 net.cpp:148] Top shape: 24 64 14 14 (301056)
I0403 18:28:37.818254  7002 net.cpp:156] Memory required for data: 1147309344
I0403 18:28:37.818271  7002 layer_factory.hpp:77] Creating layer inception_4d/output
I0403 18:28:37.818289  7002 net.cpp:91] Creating Layer inception_4d/output
I0403 18:28:37.818305  7002 net.cpp:425] inception_4d/output <- inception_4d/1x1
I0403 18:28:37.818322  7002 net.cpp:425] inception_4d/output <- inception_4d/3x3
I0403 18:28:37.818341  7002 net.cpp:425] inception_4d/output <- inception_4d/5x5
I0403 18:28:37.818357  7002 net.cpp:425] inception_4d/output <- inception_4d/pool_proj
I0403 18:28:37.818374  7002 net.cpp:399] inception_4d/output -> inception_4d/output
I0403 18:28:37.818425  7002 net.cpp:141] Setting up inception_4d/output
I0403 18:28:37.818449  7002 net.cpp:148] Top shape: 24 528 14 14 (2483712)
I0403 18:28:37.818464  7002 net.cpp:156] Memory required for data: 1157244192
I0403 18:28:37.818478  7002 layer_factory.hpp:77] Creating layer inception_4d/output_inception_4d/output_0_split
I0403 18:28:37.818500  7002 net.cpp:91] Creating Layer inception_4d/output_inception_4d/output_0_split
I0403 18:28:37.818516  7002 net.cpp:425] inception_4d/output_inception_4d/output_0_split <- inception_4d/output
I0403 18:28:37.818534  7002 net.cpp:399] inception_4d/output_inception_4d/output_0_split -> inception_4d/output_inception_4d/output_0_split_0
I0403 18:28:37.818554  7002 net.cpp:399] inception_4d/output_inception_4d/output_0_split -> inception_4d/output_inception_4d/output_0_split_1
I0403 18:28:37.818575  7002 net.cpp:399] inception_4d/output_inception_4d/output_0_split -> inception_4d/output_inception_4d/output_0_split_2
I0403 18:28:37.818596  7002 net.cpp:399] inception_4d/output_inception_4d/output_0_split -> inception_4d/output_inception_4d/output_0_split_3
I0403 18:28:37.818619  7002 net.cpp:399] inception_4d/output_inception_4d/output_0_split -> inception_4d/output_inception_4d/output_0_split_4
I0403 18:28:37.818727  7002 net.cpp:141] Setting up inception_4d/output_inception_4d/output_0_split
I0403 18:28:37.818768  7002 net.cpp:148] Top shape: 24 528 14 14 (2483712)
I0403 18:28:37.818785  7002 net.cpp:148] Top shape: 24 528 14 14 (2483712)
I0403 18:28:37.818802  7002 net.cpp:148] Top shape: 24 528 14 14 (2483712)
I0403 18:28:37.818819  7002 net.cpp:148] Top shape: 24 528 14 14 (2483712)
I0403 18:28:37.818835  7002 net.cpp:148] Top shape: 24 528 14 14 (2483712)
I0403 18:28:37.818848  7002 net.cpp:156] Memory required for data: 1206918432
I0403 18:28:37.818864  7002 layer_factory.hpp:77] Creating layer loss2/ave_pool
I0403 18:28:37.818882  7002 net.cpp:91] Creating Layer loss2/ave_pool
I0403 18:28:37.818898  7002 net.cpp:425] loss2/ave_pool <- inception_4d/output_inception_4d/output_0_split_0
I0403 18:28:37.818922  7002 net.cpp:399] loss2/ave_pool -> loss2/ave_pool
I0403 18:28:37.819252  7002 net.cpp:141] Setting up loss2/ave_pool
I0403 18:28:37.819279  7002 net.cpp:148] Top shape: 24 528 4 4 (202752)
I0403 18:28:37.819295  7002 net.cpp:156] Memory required for data: 1207729440
I0403 18:28:37.819310  7002 layer_factory.hpp:77] Creating layer loss2/conv
I0403 18:28:37.819332  7002 net.cpp:91] Creating Layer loss2/conv
I0403 18:28:37.819351  7002 net.cpp:425] loss2/conv <- loss2/ave_pool
I0403 18:28:37.819372  7002 net.cpp:399] loss2/conv -> loss2/conv
I0403 18:28:37.821357  7002 net.cpp:141] Setting up loss2/conv
I0403 18:28:37.821391  7002 net.cpp:148] Top shape: 24 128 4 4 (49152)
I0403 18:28:37.821410  7002 net.cpp:156] Memory required for data: 1207926048
I0403 18:28:37.821430  7002 layer_factory.hpp:77] Creating layer loss2/relu_conv
I0403 18:28:37.821450  7002 net.cpp:91] Creating Layer loss2/relu_conv
I0403 18:28:37.821468  7002 net.cpp:425] loss2/relu_conv <- loss2/conv
I0403 18:28:37.821485  7002 net.cpp:386] loss2/relu_conv -> loss2/conv (in-place)
I0403 18:28:37.821773  7002 net.cpp:141] Setting up loss2/relu_conv
I0403 18:28:37.821802  7002 net.cpp:148] Top shape: 24 128 4 4 (49152)
I0403 18:28:37.821818  7002 net.cpp:156] Memory required for data: 1208122656
I0403 18:28:37.821835  7002 layer_factory.hpp:77] Creating layer loss2/fc
I0403 18:28:37.821854  7002 net.cpp:91] Creating Layer loss2/fc
I0403 18:28:37.821871  7002 net.cpp:425] loss2/fc <- loss2/conv
I0403 18:28:37.821892  7002 net.cpp:399] loss2/fc -> loss2/fc
I0403 18:28:37.839565  7002 net.cpp:141] Setting up loss2/fc
I0403 18:28:37.839610  7002 net.cpp:148] Top shape: 24 1024 (24576)
I0403 18:28:37.839625  7002 net.cpp:156] Memory required for data: 1208220960
I0403 18:28:37.839643  7002 layer_factory.hpp:77] Creating layer loss2/relu_fc
I0403 18:28:37.839664  7002 net.cpp:91] Creating Layer loss2/relu_fc
I0403 18:28:37.839681  7002 net.cpp:425] loss2/relu_fc <- loss2/fc
I0403 18:28:37.839699  7002 net.cpp:386] loss2/relu_fc -> loss2/fc (in-place)
I0403 18:28:37.840003  7002 net.cpp:141] Setting up loss2/relu_fc
I0403 18:28:37.840029  7002 net.cpp:148] Top shape: 24 1024 (24576)
I0403 18:28:37.840044  7002 net.cpp:156] Memory required for data: 1208319264
I0403 18:28:37.840059  7002 layer_factory.hpp:77] Creating layer loss2/drop_fc
I0403 18:28:37.840080  7002 net.cpp:91] Creating Layer loss2/drop_fc
I0403 18:28:37.840096  7002 net.cpp:425] loss2/drop_fc <- loss2/fc
I0403 18:28:37.840113  7002 net.cpp:386] loss2/drop_fc -> loss2/fc (in-place)
I0403 18:28:37.840163  7002 net.cpp:141] Setting up loss2/drop_fc
I0403 18:28:37.840190  7002 net.cpp:148] Top shape: 24 1024 (24576)
I0403 18:28:37.840206  7002 net.cpp:156] Memory required for data: 1208417568
I0403 18:28:37.840221  7002 layer_factory.hpp:77] Creating layer loss2/classifier_plantvillage
I0403 18:28:37.840240  7002 net.cpp:91] Creating Layer loss2/classifier_plantvillage
I0403 18:28:37.840258  7002 net.cpp:425] loss2/classifier_plantvillage <- loss2/fc
I0403 18:28:37.840276  7002 net.cpp:399] loss2/classifier_plantvillage -> loss2/classifier_plantvillage
I0403 18:28:37.840672  7002 net.cpp:141] Setting up loss2/classifier_plantvillage
I0403 18:28:37.840695  7002 net.cpp:148] Top shape: 24 38 (912)
I0403 18:28:37.840730  7002 net.cpp:156] Memory required for data: 1208421216
I0403 18:28:37.840749  7002 layer_factory.hpp:77] Creating layer loss2/classifier_plantvillage_loss2/classifier_plantvillage_0_split
I0403 18:28:37.840766  7002 net.cpp:91] Creating Layer loss2/classifier_plantvillage_loss2/classifier_plantvillage_0_split
I0403 18:28:37.840782  7002 net.cpp:425] loss2/classifier_plantvillage_loss2/classifier_plantvillage_0_split <- loss2/classifier_plantvillage
I0403 18:28:37.840802  7002 net.cpp:399] loss2/classifier_plantvillage_loss2/classifier_plantvillage_0_split -> loss2/classifier_plantvillage_loss2/classifier_plantvillage_0_split_0
I0403 18:28:37.840823  7002 net.cpp:399] loss2/classifier_plantvillage_loss2/classifier_plantvillage_0_split -> loss2/classifier_plantvillage_loss2/classifier_plantvillage_0_split_1
I0403 18:28:37.840844  7002 net.cpp:399] loss2/classifier_plantvillage_loss2/classifier_plantvillage_0_split -> loss2/classifier_plantvillage_loss2/classifier_plantvillage_0_split_2
I0403 18:28:37.840919  7002 net.cpp:141] Setting up loss2/classifier_plantvillage_loss2/classifier_plantvillage_0_split
I0403 18:28:37.840944  7002 net.cpp:148] Top shape: 24 38 (912)
I0403 18:28:37.840960  7002 net.cpp:148] Top shape: 24 38 (912)
I0403 18:28:37.840975  7002 net.cpp:148] Top shape: 24 38 (912)
I0403 18:28:37.840989  7002 net.cpp:156] Memory required for data: 1208432160
I0403 18:28:37.841003  7002 layer_factory.hpp:77] Creating layer inception_4e/1x1
I0403 18:28:37.841025  7002 net.cpp:91] Creating Layer inception_4e/1x1
I0403 18:28:37.841044  7002 net.cpp:425] inception_4e/1x1 <- inception_4d/output_inception_4d/output_0_split_1
I0403 18:28:37.841063  7002 net.cpp:399] inception_4e/1x1 -> inception_4e/1x1
I0403 18:28:37.842891  7002 net.cpp:141] Setting up inception_4e/1x1
I0403 18:28:37.842921  7002 net.cpp:148] Top shape: 24 256 14 14 (1204224)
I0403 18:28:37.842938  7002 net.cpp:156] Memory required for data: 1213249056
I0403 18:28:37.842957  7002 layer_factory.hpp:77] Creating layer inception_4e/relu_1x1
I0403 18:28:37.842974  7002 net.cpp:91] Creating Layer inception_4e/relu_1x1
I0403 18:28:37.842990  7002 net.cpp:425] inception_4e/relu_1x1 <- inception_4e/1x1
I0403 18:28:37.843009  7002 net.cpp:386] inception_4e/relu_1x1 -> inception_4e/1x1 (in-place)
I0403 18:28:37.843307  7002 net.cpp:141] Setting up inception_4e/relu_1x1
I0403 18:28:37.843335  7002 net.cpp:148] Top shape: 24 256 14 14 (1204224)
I0403 18:28:37.843351  7002 net.cpp:156] Memory required for data: 1218065952
I0403 18:28:37.843366  7002 layer_factory.hpp:77] Creating layer inception_4e/3x3_reduce
I0403 18:28:37.843389  7002 net.cpp:91] Creating Layer inception_4e/3x3_reduce
I0403 18:28:37.843407  7002 net.cpp:425] inception_4e/3x3_reduce <- inception_4d/output_inception_4d/output_0_split_2
I0403 18:28:37.843427  7002 net.cpp:399] inception_4e/3x3_reduce -> inception_4e/3x3_reduce
I0403 18:28:37.845551  7002 net.cpp:141] Setting up inception_4e/3x3_reduce
I0403 18:28:37.845583  7002 net.cpp:148] Top shape: 24 160 14 14 (752640)
I0403 18:28:37.845602  7002 net.cpp:156] Memory required for data: 1221076512
I0403 18:28:37.845621  7002 layer_factory.hpp:77] Creating layer inception_4e/relu_3x3_reduce
I0403 18:28:37.845639  7002 net.cpp:91] Creating Layer inception_4e/relu_3x3_reduce
I0403 18:28:37.845656  7002 net.cpp:425] inception_4e/relu_3x3_reduce <- inception_4e/3x3_reduce
I0403 18:28:37.845675  7002 net.cpp:386] inception_4e/relu_3x3_reduce -> inception_4e/3x3_reduce (in-place)
I0403 18:28:37.845859  7002 net.cpp:141] Setting up inception_4e/relu_3x3_reduce
I0403 18:28:37.845887  7002 net.cpp:148] Top shape: 24 160 14 14 (752640)
I0403 18:28:37.845906  7002 net.cpp:156] Memory required for data: 1224087072
I0403 18:28:37.845921  7002 layer_factory.hpp:77] Creating layer inception_4e/3x3
I0403 18:28:37.845943  7002 net.cpp:91] Creating Layer inception_4e/3x3
I0403 18:28:37.845962  7002 net.cpp:425] inception_4e/3x3 <- inception_4e/3x3_reduce
I0403 18:28:37.845983  7002 net.cpp:399] inception_4e/3x3 -> inception_4e/3x3
I0403 18:28:37.850939  7002 net.cpp:141] Setting up inception_4e/3x3
I0403 18:28:37.850980  7002 net.cpp:148] Top shape: 24 320 14 14 (1505280)
I0403 18:28:37.850998  7002 net.cpp:156] Memory required for data: 1230108192
I0403 18:28:37.851017  7002 layer_factory.hpp:77] Creating layer inception_4e/relu_3x3
I0403 18:28:37.851035  7002 net.cpp:91] Creating Layer inception_4e/relu_3x3
I0403 18:28:37.851052  7002 net.cpp:425] inception_4e/relu_3x3 <- inception_4e/3x3
I0403 18:28:37.851073  7002 net.cpp:386] inception_4e/relu_3x3 -> inception_4e/3x3 (in-place)
I0403 18:28:37.851373  7002 net.cpp:141] Setting up inception_4e/relu_3x3
I0403 18:28:37.851400  7002 net.cpp:148] Top shape: 24 320 14 14 (1505280)
I0403 18:28:37.851415  7002 net.cpp:156] Memory required for data: 1236129312
I0403 18:28:37.851430  7002 layer_factory.hpp:77] Creating layer inception_4e/5x5_reduce
I0403 18:28:37.851452  7002 net.cpp:91] Creating Layer inception_4e/5x5_reduce
I0403 18:28:37.851470  7002 net.cpp:425] inception_4e/5x5_reduce <- inception_4d/output_inception_4d/output_0_split_3
I0403 18:28:37.851495  7002 net.cpp:399] inception_4e/5x5_reduce -> inception_4e/5x5_reduce
I0403 18:28:37.852555  7002 net.cpp:141] Setting up inception_4e/5x5_reduce
I0403 18:28:37.852589  7002 net.cpp:148] Top shape: 24 32 14 14 (150528)
I0403 18:28:37.852607  7002 net.cpp:156] Memory required for data: 1236731424
I0403 18:28:37.852627  7002 layer_factory.hpp:77] Creating layer inception_4e/relu_5x5_reduce
I0403 18:28:37.852644  7002 net.cpp:91] Creating Layer inception_4e/relu_5x5_reduce
I0403 18:28:37.852661  7002 net.cpp:425] inception_4e/relu_5x5_reduce <- inception_4e/5x5_reduce
I0403 18:28:37.852681  7002 net.cpp:386] inception_4e/relu_5x5_reduce -> inception_4e/5x5_reduce (in-place)
I0403 18:28:37.852972  7002 net.cpp:141] Setting up inception_4e/relu_5x5_reduce
I0403 18:28:37.853000  7002 net.cpp:148] Top shape: 24 32 14 14 (150528)
I0403 18:28:37.853016  7002 net.cpp:156] Memory required for data: 1237333536
I0403 18:28:37.853032  7002 layer_factory.hpp:77] Creating layer inception_4e/5x5
I0403 18:28:37.853073  7002 net.cpp:91] Creating Layer inception_4e/5x5
I0403 18:28:37.853093  7002 net.cpp:425] inception_4e/5x5 <- inception_4e/5x5_reduce
I0403 18:28:37.853113  7002 net.cpp:399] inception_4e/5x5 -> inception_4e/5x5
I0403 18:28:37.854908  7002 net.cpp:141] Setting up inception_4e/5x5
I0403 18:28:37.854938  7002 net.cpp:148] Top shape: 24 128 14 14 (602112)
I0403 18:28:37.854954  7002 net.cpp:156] Memory required for data: 1239741984
I0403 18:28:37.854974  7002 layer_factory.hpp:77] Creating layer inception_4e/relu_5x5
I0403 18:28:37.854995  7002 net.cpp:91] Creating Layer inception_4e/relu_5x5
I0403 18:28:37.855011  7002 net.cpp:425] inception_4e/relu_5x5 <- inception_4e/5x5
I0403 18:28:37.855028  7002 net.cpp:386] inception_4e/relu_5x5 -> inception_4e/5x5 (in-place)
I0403 18:28:37.855227  7002 net.cpp:141] Setting up inception_4e/relu_5x5
I0403 18:28:37.855255  7002 net.cpp:148] Top shape: 24 128 14 14 (602112)
I0403 18:28:37.855271  7002 net.cpp:156] Memory required for data: 1242150432
I0403 18:28:37.855286  7002 layer_factory.hpp:77] Creating layer inception_4e/pool
I0403 18:28:37.855304  7002 net.cpp:91] Creating Layer inception_4e/pool
I0403 18:28:37.855321  7002 net.cpp:425] inception_4e/pool <- inception_4d/output_inception_4d/output_0_split_4
I0403 18:28:37.855341  7002 net.cpp:399] inception_4e/pool -> inception_4e/pool
I0403 18:28:37.855411  7002 net.cpp:141] Setting up inception_4e/pool
I0403 18:28:37.855434  7002 net.cpp:148] Top shape: 24 528 14 14 (2483712)
I0403 18:28:37.855448  7002 net.cpp:156] Memory required for data: 1252085280
I0403 18:28:37.855464  7002 layer_factory.hpp:77] Creating layer inception_4e/pool_proj
I0403 18:28:37.855486  7002 net.cpp:91] Creating Layer inception_4e/pool_proj
I0403 18:28:37.855505  7002 net.cpp:425] inception_4e/pool_proj <- inception_4e/pool
I0403 18:28:37.855525  7002 net.cpp:399] inception_4e/pool_proj -> inception_4e/pool_proj
I0403 18:28:37.857059  7002 net.cpp:141] Setting up inception_4e/pool_proj
I0403 18:28:37.857101  7002 net.cpp:148] Top shape: 24 128 14 14 (602112)
I0403 18:28:37.857117  7002 net.cpp:156] Memory required for data: 1254493728
I0403 18:28:37.857136  7002 layer_factory.hpp:77] Creating layer inception_4e/relu_pool_proj
I0403 18:28:37.857157  7002 net.cpp:91] Creating Layer inception_4e/relu_pool_proj
I0403 18:28:37.857173  7002 net.cpp:425] inception_4e/relu_pool_proj <- inception_4e/pool_proj
I0403 18:28:37.857197  7002 net.cpp:386] inception_4e/relu_pool_proj -> inception_4e/pool_proj (in-place)
I0403 18:28:37.857487  7002 net.cpp:141] Setting up inception_4e/relu_pool_proj
I0403 18:28:37.857514  7002 net.cpp:148] Top shape: 24 128 14 14 (602112)
I0403 18:28:37.857529  7002 net.cpp:156] Memory required for data: 1256902176
I0403 18:28:37.857544  7002 layer_factory.hpp:77] Creating layer inception_4e/output
I0403 18:28:37.857561  7002 net.cpp:91] Creating Layer inception_4e/output
I0403 18:28:37.857578  7002 net.cpp:425] inception_4e/output <- inception_4e/1x1
I0403 18:28:37.857594  7002 net.cpp:425] inception_4e/output <- inception_4e/3x3
I0403 18:28:37.857609  7002 net.cpp:425] inception_4e/output <- inception_4e/5x5
I0403 18:28:37.857625  7002 net.cpp:425] inception_4e/output <- inception_4e/pool_proj
I0403 18:28:37.857645  7002 net.cpp:399] inception_4e/output -> inception_4e/output
I0403 18:28:37.857695  7002 net.cpp:141] Setting up inception_4e/output
I0403 18:28:37.857718  7002 net.cpp:148] Top shape: 24 832 14 14 (3913728)
I0403 18:28:37.857734  7002 net.cpp:156] Memory required for data: 1272557088
I0403 18:28:37.857748  7002 layer_factory.hpp:77] Creating layer pool4/3x3_s2
I0403 18:28:37.857766  7002 net.cpp:91] Creating Layer pool4/3x3_s2
I0403 18:28:37.857782  7002 net.cpp:425] pool4/3x3_s2 <- inception_4e/output
I0403 18:28:37.857803  7002 net.cpp:399] pool4/3x3_s2 -> pool4/3x3_s2
I0403 18:28:37.857867  7002 net.cpp:141] Setting up pool4/3x3_s2
I0403 18:28:37.857892  7002 net.cpp:148] Top shape: 24 832 7 7 (978432)
I0403 18:28:37.857908  7002 net.cpp:156] Memory required for data: 1276470816
I0403 18:28:37.857923  7002 layer_factory.hpp:77] Creating layer pool4/3x3_s2_pool4/3x3_s2_0_split
I0403 18:28:37.857942  7002 net.cpp:91] Creating Layer pool4/3x3_s2_pool4/3x3_s2_0_split
I0403 18:28:37.857959  7002 net.cpp:425] pool4/3x3_s2_pool4/3x3_s2_0_split <- pool4/3x3_s2
I0403 18:28:37.857977  7002 net.cpp:399] pool4/3x3_s2_pool4/3x3_s2_0_split -> pool4/3x3_s2_pool4/3x3_s2_0_split_0
I0403 18:28:37.858000  7002 net.cpp:399] pool4/3x3_s2_pool4/3x3_s2_0_split -> pool4/3x3_s2_pool4/3x3_s2_0_split_1
I0403 18:28:37.858021  7002 net.cpp:399] pool4/3x3_s2_pool4/3x3_s2_0_split -> pool4/3x3_s2_pool4/3x3_s2_0_split_2
I0403 18:28:37.858042  7002 net.cpp:399] pool4/3x3_s2_pool4/3x3_s2_0_split -> pool4/3x3_s2_pool4/3x3_s2_0_split_3
I0403 18:28:37.858127  7002 net.cpp:141] Setting up pool4/3x3_s2_pool4/3x3_s2_0_split
I0403 18:28:37.858151  7002 net.cpp:148] Top shape: 24 832 7 7 (978432)
I0403 18:28:37.858167  7002 net.cpp:148] Top shape: 24 832 7 7 (978432)
I0403 18:28:37.858187  7002 net.cpp:148] Top shape: 24 832 7 7 (978432)
I0403 18:28:37.858204  7002 net.cpp:148] Top shape: 24 832 7 7 (978432)
I0403 18:28:37.858218  7002 net.cpp:156] Memory required for data: 1292125728
I0403 18:28:37.858233  7002 layer_factory.hpp:77] Creating layer inception_5a/1x1
I0403 18:28:37.858256  7002 net.cpp:91] Creating Layer inception_5a/1x1
I0403 18:28:37.858273  7002 net.cpp:425] inception_5a/1x1 <- pool4/3x3_s2_pool4/3x3_s2_0_split_0
I0403 18:28:37.858294  7002 net.cpp:399] inception_5a/1x1 -> inception_5a/1x1
I0403 18:28:37.861117  7002 net.cpp:141] Setting up inception_5a/1x1
I0403 18:28:37.861148  7002 net.cpp:148] Top shape: 24 256 7 7 (301056)
I0403 18:28:37.861167  7002 net.cpp:156] Memory required for data: 1293329952
I0403 18:28:37.861193  7002 layer_factory.hpp:77] Creating layer inception_5a/relu_1x1
I0403 18:28:37.861214  7002 net.cpp:91] Creating Layer inception_5a/relu_1x1
I0403 18:28:37.861232  7002 net.cpp:425] inception_5a/relu_1x1 <- inception_5a/1x1
I0403 18:28:37.861248  7002 net.cpp:386] inception_5a/relu_1x1 -> inception_5a/1x1 (in-place)
I0403 18:28:37.861559  7002 net.cpp:141] Setting up inception_5a/relu_1x1
I0403 18:28:37.861585  7002 net.cpp:148] Top shape: 24 256 7 7 (301056)
I0403 18:28:37.861604  7002 net.cpp:156] Memory required for data: 1294534176
I0403 18:28:37.861619  7002 layer_factory.hpp:77] Creating layer inception_5a/3x3_reduce
I0403 18:28:37.861639  7002 net.cpp:91] Creating Layer inception_5a/3x3_reduce
I0403 18:28:37.861656  7002 net.cpp:425] inception_5a/3x3_reduce <- pool4/3x3_s2_pool4/3x3_s2_0_split_1
I0403 18:28:37.861678  7002 net.cpp:399] inception_5a/3x3_reduce -> inception_5a/3x3_reduce
I0403 18:28:37.864135  7002 net.cpp:141] Setting up inception_5a/3x3_reduce
I0403 18:28:37.864166  7002 net.cpp:148] Top shape: 24 160 7 7 (188160)
I0403 18:28:37.864187  7002 net.cpp:156] Memory required for data: 1295286816
I0403 18:28:37.864207  7002 layer_factory.hpp:77] Creating layer inception_5a/relu_3x3_reduce
I0403 18:28:37.864228  7002 net.cpp:91] Creating Layer inception_5a/relu_3x3_reduce
I0403 18:28:37.864246  7002 net.cpp:425] inception_5a/relu_3x3_reduce <- inception_5a/3x3_reduce
I0403 18:28:37.864266  7002 net.cpp:386] inception_5a/relu_3x3_reduce -> inception_5a/3x3_reduce (in-place)
I0403 18:28:37.864452  7002 net.cpp:141] Setting up inception_5a/relu_3x3_reduce
I0403 18:28:37.864478  7002 net.cpp:148] Top shape: 24 160 7 7 (188160)
I0403 18:28:37.864493  7002 net.cpp:156] Memory required for data: 1296039456
I0403 18:28:37.864508  7002 layer_factory.hpp:77] Creating layer inception_5a/3x3
I0403 18:28:37.864531  7002 net.cpp:91] Creating Layer inception_5a/3x3
I0403 18:28:37.864547  7002 net.cpp:425] inception_5a/3x3 <- inception_5a/3x3_reduce
I0403 18:28:37.864581  7002 net.cpp:399] inception_5a/3x3 -> inception_5a/3x3
I0403 18:28:37.869580  7002 net.cpp:141] Setting up inception_5a/3x3
I0403 18:28:37.869611  7002 net.cpp:148] Top shape: 24 320 7 7 (376320)
I0403 18:28:37.869626  7002 net.cpp:156] Memory required for data: 1297544736
I0403 18:28:37.869647  7002 layer_factory.hpp:77] Creating layer inception_5a/relu_3x3
I0403 18:28:37.869668  7002 net.cpp:91] Creating Layer inception_5a/relu_3x3
I0403 18:28:37.869686  7002 net.cpp:425] inception_5a/relu_3x3 <- inception_5a/3x3
I0403 18:28:37.869704  7002 net.cpp:386] inception_5a/relu_3x3 -> inception_5a/3x3 (in-place)
I0403 18:28:37.869993  7002 net.cpp:141] Setting up inception_5a/relu_3x3
I0403 18:28:37.870019  7002 net.cpp:148] Top shape: 24 320 7 7 (376320)
I0403 18:28:37.870035  7002 net.cpp:156] Memory required for data: 1299050016
I0403 18:28:37.870050  7002 layer_factory.hpp:77] Creating layer inception_5a/5x5_reduce
I0403 18:28:37.870075  7002 net.cpp:91] Creating Layer inception_5a/5x5_reduce
I0403 18:28:37.870093  7002 net.cpp:425] inception_5a/5x5_reduce <- pool4/3x3_s2_pool4/3x3_s2_0_split_2
I0403 18:28:37.870113  7002 net.cpp:399] inception_5a/5x5_reduce -> inception_5a/5x5_reduce
I0403 18:28:37.871279  7002 net.cpp:141] Setting up inception_5a/5x5_reduce
I0403 18:28:37.871311  7002 net.cpp:148] Top shape: 24 32 7 7 (37632)
I0403 18:28:37.871330  7002 net.cpp:156] Memory required for data: 1299200544
I0403 18:28:37.871350  7002 layer_factory.hpp:77] Creating layer inception_5a/relu_5x5_reduce
I0403 18:28:37.871368  7002 net.cpp:91] Creating Layer inception_5a/relu_5x5_reduce
I0403 18:28:37.871387  7002 net.cpp:425] inception_5a/relu_5x5_reduce <- inception_5a/5x5_reduce
I0403 18:28:37.871403  7002 net.cpp:386] inception_5a/relu_5x5_reduce -> inception_5a/5x5_reduce (in-place)
I0403 18:28:37.871701  7002 net.cpp:141] Setting up inception_5a/relu_5x5_reduce
I0403 18:28:37.871728  7002 net.cpp:148] Top shape: 24 32 7 7 (37632)
I0403 18:28:37.871744  7002 net.cpp:156] Memory required for data: 1299351072
I0403 18:28:37.871759  7002 layer_factory.hpp:77] Creating layer inception_5a/5x5
I0403 18:28:37.871781  7002 net.cpp:91] Creating Layer inception_5a/5x5
I0403 18:28:37.871799  7002 net.cpp:425] inception_5a/5x5 <- inception_5a/5x5_reduce
I0403 18:28:37.871817  7002 net.cpp:399] inception_5a/5x5 -> inception_5a/5x5
I0403 18:28:37.873517  7002 net.cpp:141] Setting up inception_5a/5x5
I0403 18:28:37.873556  7002 net.cpp:148] Top shape: 24 128 7 7 (150528)
I0403 18:28:37.873572  7002 net.cpp:156] Memory required for data: 1299953184
I0403 18:28:37.873590  7002 layer_factory.hpp:77] Creating layer inception_5a/relu_5x5
I0403 18:28:37.873611  7002 net.cpp:91] Creating Layer inception_5a/relu_5x5
I0403 18:28:37.873628  7002 net.cpp:425] inception_5a/relu_5x5 <- inception_5a/5x5
I0403 18:28:37.873646  7002 net.cpp:386] inception_5a/relu_5x5 -> inception_5a/5x5 (in-place)
I0403 18:28:37.873852  7002 net.cpp:141] Setting up inception_5a/relu_5x5
I0403 18:28:37.873880  7002 net.cpp:148] Top shape: 24 128 7 7 (150528)
I0403 18:28:37.873896  7002 net.cpp:156] Memory required for data: 1300555296
I0403 18:28:37.873911  7002 layer_factory.hpp:77] Creating layer inception_5a/pool
I0403 18:28:37.873929  7002 net.cpp:91] Creating Layer inception_5a/pool
I0403 18:28:37.873945  7002 net.cpp:425] inception_5a/pool <- pool4/3x3_s2_pool4/3x3_s2_0_split_3
I0403 18:28:37.873966  7002 net.cpp:399] inception_5a/pool -> inception_5a/pool
I0403 18:28:37.874037  7002 net.cpp:141] Setting up inception_5a/pool
I0403 18:28:37.874063  7002 net.cpp:148] Top shape: 24 832 7 7 (978432)
I0403 18:28:37.874078  7002 net.cpp:156] Memory required for data: 1304469024
I0403 18:28:37.874092  7002 layer_factory.hpp:77] Creating layer inception_5a/pool_proj
I0403 18:28:37.874120  7002 net.cpp:91] Creating Layer inception_5a/pool_proj
I0403 18:28:37.874138  7002 net.cpp:425] inception_5a/pool_proj <- inception_5a/pool
I0403 18:28:37.874157  7002 net.cpp:399] inception_5a/pool_proj -> inception_5a/pool_proj
I0403 18:28:37.876498  7002 net.cpp:141] Setting up inception_5a/pool_proj
I0403 18:28:37.876529  7002 net.cpp:148] Top shape: 24 128 7 7 (150528)
I0403 18:28:37.876546  7002 net.cpp:156] Memory required for data: 1305071136
I0403 18:28:37.876566  7002 layer_factory.hpp:77] Creating layer inception_5a/relu_pool_proj
I0403 18:28:37.876590  7002 net.cpp:91] Creating Layer inception_5a/relu_pool_proj
I0403 18:28:37.876610  7002 net.cpp:425] inception_5a/relu_pool_proj <- inception_5a/pool_proj
I0403 18:28:37.876629  7002 net.cpp:386] inception_5a/relu_pool_proj -> inception_5a/pool_proj (in-place)
I0403 18:28:37.876929  7002 net.cpp:141] Setting up inception_5a/relu_pool_proj
I0403 18:28:37.876958  7002 net.cpp:148] Top shape: 24 128 7 7 (150528)
I0403 18:28:37.876976  7002 net.cpp:156] Memory required for data: 1305673248
I0403 18:28:37.876991  7002 layer_factory.hpp:77] Creating layer inception_5a/output
I0403 18:28:37.877012  7002 net.cpp:91] Creating Layer inception_5a/output
I0403 18:28:37.877028  7002 net.cpp:425] inception_5a/output <- inception_5a/1x1
I0403 18:28:37.877046  7002 net.cpp:425] inception_5a/output <- inception_5a/3x3
I0403 18:28:37.877063  7002 net.cpp:425] inception_5a/output <- inception_5a/5x5
I0403 18:28:37.877079  7002 net.cpp:425] inception_5a/output <- inception_5a/pool_proj
I0403 18:28:37.877095  7002 net.cpp:399] inception_5a/output -> inception_5a/output
I0403 18:28:37.877148  7002 net.cpp:141] Setting up inception_5a/output
I0403 18:28:37.877173  7002 net.cpp:148] Top shape: 24 832 7 7 (978432)
I0403 18:28:37.877194  7002 net.cpp:156] Memory required for data: 1309586976
I0403 18:28:37.877212  7002 layer_factory.hpp:77] Creating layer inception_5a/output_inception_5a/output_0_split
I0403 18:28:37.877228  7002 net.cpp:91] Creating Layer inception_5a/output_inception_5a/output_0_split
I0403 18:28:37.877245  7002 net.cpp:425] inception_5a/output_inception_5a/output_0_split <- inception_5a/output
I0403 18:28:37.877264  7002 net.cpp:399] inception_5a/output_inception_5a/output_0_split -> inception_5a/output_inception_5a/output_0_split_0
I0403 18:28:37.877290  7002 net.cpp:399] inception_5a/output_inception_5a/output_0_split -> inception_5a/output_inception_5a/output_0_split_1
I0403 18:28:37.877310  7002 net.cpp:399] inception_5a/output_inception_5a/output_0_split -> inception_5a/output_inception_5a/output_0_split_2
I0403 18:28:37.877331  7002 net.cpp:399] inception_5a/output_inception_5a/output_0_split -> inception_5a/output_inception_5a/output_0_split_3
I0403 18:28:37.877444  7002 net.cpp:141] Setting up inception_5a/output_inception_5a/output_0_split
I0403 18:28:37.877470  7002 net.cpp:148] Top shape: 24 832 7 7 (978432)
I0403 18:28:37.877488  7002 net.cpp:148] Top shape: 24 832 7 7 (978432)
I0403 18:28:37.877506  7002 net.cpp:148] Top shape: 24 832 7 7 (978432)
I0403 18:28:37.877522  7002 net.cpp:148] Top shape: 24 832 7 7 (978432)
I0403 18:28:37.877537  7002 net.cpp:156] Memory required for data: 1325241888
I0403 18:28:37.877552  7002 layer_factory.hpp:77] Creating layer inception_5b/1x1
I0403 18:28:37.877574  7002 net.cpp:91] Creating Layer inception_5b/1x1
I0403 18:28:37.877593  7002 net.cpp:425] inception_5b/1x1 <- inception_5a/output_inception_5a/output_0_split_0
I0403 18:28:37.877612  7002 net.cpp:399] inception_5b/1x1 -> inception_5b/1x1
I0403 18:28:37.881492  7002 net.cpp:141] Setting up inception_5b/1x1
I0403 18:28:37.881525  7002 net.cpp:148] Top shape: 24 384 7 7 (451584)
I0403 18:28:37.881542  7002 net.cpp:156] Memory required for data: 1327048224
I0403 18:28:37.881562  7002 layer_factory.hpp:77] Creating layer inception_5b/relu_1x1
I0403 18:28:37.881583  7002 net.cpp:91] Creating Layer inception_5b/relu_1x1
I0403 18:28:37.881602  7002 net.cpp:425] inception_5b/relu_1x1 <- inception_5b/1x1
I0403 18:28:37.881623  7002 net.cpp:386] inception_5b/relu_1x1 -> inception_5b/1x1 (in-place)
I0403 18:28:37.881939  7002 net.cpp:141] Setting up inception_5b/relu_1x1
I0403 18:28:37.881966  7002 net.cpp:148] Top shape: 24 384 7 7 (451584)
I0403 18:28:37.881983  7002 net.cpp:156] Memory required for data: 1328854560
I0403 18:28:37.881997  7002 layer_factory.hpp:77] Creating layer inception_5b/3x3_reduce
I0403 18:28:37.882020  7002 net.cpp:91] Creating Layer inception_5b/3x3_reduce
I0403 18:28:37.882040  7002 net.cpp:425] inception_5b/3x3_reduce <- inception_5a/output_inception_5a/output_0_split_1
I0403 18:28:37.882063  7002 net.cpp:399] inception_5b/3x3_reduce -> inception_5b/3x3_reduce
I0403 18:28:37.884783  7002 net.cpp:141] Setting up inception_5b/3x3_reduce
I0403 18:28:37.884814  7002 net.cpp:148] Top shape: 24 192 7 7 (225792)
I0403 18:28:37.884831  7002 net.cpp:156] Memory required for data: 1329757728
I0403 18:28:37.884850  7002 layer_factory.hpp:77] Creating layer inception_5b/relu_3x3_reduce
I0403 18:28:37.884871  7002 net.cpp:91] Creating Layer inception_5b/relu_3x3_reduce
I0403 18:28:37.884888  7002 net.cpp:425] inception_5b/relu_3x3_reduce <- inception_5b/3x3_reduce
I0403 18:28:37.884907  7002 net.cpp:386] inception_5b/relu_3x3_reduce -> inception_5b/3x3_reduce (in-place)
I0403 18:28:37.885102  7002 net.cpp:141] Setting up inception_5b/relu_3x3_reduce
I0403 18:28:37.885126  7002 net.cpp:148] Top shape: 24 192 7 7 (225792)
I0403 18:28:37.885141  7002 net.cpp:156] Memory required for data: 1330660896
I0403 18:28:37.885156  7002 layer_factory.hpp:77] Creating layer inception_5b/3x3
I0403 18:28:37.885185  7002 net.cpp:91] Creating Layer inception_5b/3x3
I0403 18:28:37.885205  7002 net.cpp:425] inception_5b/3x3 <- inception_5b/3x3_reduce
I0403 18:28:37.885224  7002 net.cpp:399] inception_5b/3x3 -> inception_5b/3x3
I0403 18:28:37.891978  7002 net.cpp:141] Setting up inception_5b/3x3
I0403 18:28:37.892010  7002 net.cpp:148] Top shape: 24 384 7 7 (451584)
I0403 18:28:37.892029  7002 net.cpp:156] Memory required for data: 1332467232
I0403 18:28:37.892047  7002 layer_factory.hpp:77] Creating layer inception_5b/relu_3x3
I0403 18:28:37.892069  7002 net.cpp:91] Creating Layer inception_5b/relu_3x3
I0403 18:28:37.892087  7002 net.cpp:425] inception_5b/relu_3x3 <- inception_5b/3x3
I0403 18:28:37.892107  7002 net.cpp:386] inception_5b/relu_3x3 -> inception_5b/3x3 (in-place)
I0403 18:28:37.892419  7002 net.cpp:141] Setting up inception_5b/relu_3x3
I0403 18:28:37.892446  7002 net.cpp:148] Top shape: 24 384 7 7 (451584)
I0403 18:28:37.892462  7002 net.cpp:156] Memory required for data: 1334273568
I0403 18:28:37.892477  7002 layer_factory.hpp:77] Creating layer inception_5b/5x5_reduce
I0403 18:28:37.892518  7002 net.cpp:91] Creating Layer inception_5b/5x5_reduce
I0403 18:28:37.892539  7002 net.cpp:425] inception_5b/5x5_reduce <- inception_5a/output_inception_5a/output_0_split_2
I0403 18:28:37.892560  7002 net.cpp:399] inception_5b/5x5_reduce -> inception_5b/5x5_reduce
I0403 18:28:37.893851  7002 net.cpp:141] Setting up inception_5b/5x5_reduce
I0403 18:28:37.893880  7002 net.cpp:148] Top shape: 24 48 7 7 (56448)
I0403 18:28:37.893898  7002 net.cpp:156] Memory required for data: 1334499360
I0403 18:28:37.893918  7002 layer_factory.hpp:77] Creating layer inception_5b/relu_5x5_reduce
I0403 18:28:37.893940  7002 net.cpp:91] Creating Layer inception_5b/relu_5x5_reduce
I0403 18:28:37.893960  7002 net.cpp:425] inception_5b/relu_5x5_reduce <- inception_5b/5x5_reduce
I0403 18:28:37.893978  7002 net.cpp:386] inception_5b/relu_5x5_reduce -> inception_5b/5x5_reduce (in-place)
I0403 18:28:37.894364  7002 net.cpp:141] Setting up inception_5b/relu_5x5_reduce
I0403 18:28:37.894394  7002 net.cpp:148] Top shape: 24 48 7 7 (56448)
I0403 18:28:37.894410  7002 net.cpp:156] Memory required for data: 1334725152
I0403 18:28:37.894426  7002 layer_factory.hpp:77] Creating layer inception_5b/5x5
I0403 18:28:37.894448  7002 net.cpp:91] Creating Layer inception_5b/5x5
I0403 18:28:37.894466  7002 net.cpp:425] inception_5b/5x5 <- inception_5b/5x5_reduce
I0403 18:28:37.894485  7002 net.cpp:399] inception_5b/5x5 -> inception_5b/5x5
I0403 18:28:37.896580  7002 net.cpp:141] Setting up inception_5b/5x5
I0403 18:28:37.896610  7002 net.cpp:148] Top shape: 24 128 7 7 (150528)
I0403 18:28:37.896631  7002 net.cpp:156] Memory required for data: 1335327264
I0403 18:28:37.896651  7002 layer_factory.hpp:77] Creating layer inception_5b/relu_5x5
I0403 18:28:37.896669  7002 net.cpp:91] Creating Layer inception_5b/relu_5x5
I0403 18:28:37.896687  7002 net.cpp:425] inception_5b/relu_5x5 <- inception_5b/5x5
I0403 18:28:37.896704  7002 net.cpp:386] inception_5b/relu_5x5 -> inception_5b/5x5 (in-place)
I0403 18:28:37.896901  7002 net.cpp:141] Setting up inception_5b/relu_5x5
I0403 18:28:37.896929  7002 net.cpp:148] Top shape: 24 128 7 7 (150528)
I0403 18:28:37.896945  7002 net.cpp:156] Memory required for data: 1335929376
I0403 18:28:37.896960  7002 layer_factory.hpp:77] Creating layer inception_5b/pool
I0403 18:28:37.896978  7002 net.cpp:91] Creating Layer inception_5b/pool
I0403 18:28:37.896994  7002 net.cpp:425] inception_5b/pool <- inception_5a/output_inception_5a/output_0_split_3
I0403 18:28:37.897016  7002 net.cpp:399] inception_5b/pool -> inception_5b/pool
I0403 18:28:37.897089  7002 net.cpp:141] Setting up inception_5b/pool
I0403 18:28:37.897114  7002 net.cpp:148] Top shape: 24 832 7 7 (978432)
I0403 18:28:37.897130  7002 net.cpp:156] Memory required for data: 1339843104
I0403 18:28:37.897146  7002 layer_factory.hpp:77] Creating layer inception_5b/pool_proj
I0403 18:28:37.897166  7002 net.cpp:91] Creating Layer inception_5b/pool_proj
I0403 18:28:37.897187  7002 net.cpp:425] inception_5b/pool_proj <- inception_5b/pool
I0403 18:28:37.897212  7002 net.cpp:399] inception_5b/pool_proj -> inception_5b/pool_proj
I0403 18:28:37.899530  7002 net.cpp:141] Setting up inception_5b/pool_proj
I0403 18:28:37.899560  7002 net.cpp:148] Top shape: 24 128 7 7 (150528)
I0403 18:28:37.899577  7002 net.cpp:156] Memory required for data: 1340445216
I0403 18:28:37.899597  7002 layer_factory.hpp:77] Creating layer inception_5b/relu_pool_proj
I0403 18:28:37.899618  7002 net.cpp:91] Creating Layer inception_5b/relu_pool_proj
I0403 18:28:37.899639  7002 net.cpp:425] inception_5b/relu_pool_proj <- inception_5b/pool_proj
I0403 18:28:37.899657  7002 net.cpp:386] inception_5b/relu_pool_proj -> inception_5b/pool_proj (in-place)
I0403 18:28:37.899955  7002 net.cpp:141] Setting up inception_5b/relu_pool_proj
I0403 18:28:37.899982  7002 net.cpp:148] Top shape: 24 128 7 7 (150528)
I0403 18:28:37.899998  7002 net.cpp:156] Memory required for data: 1341047328
I0403 18:28:37.900014  7002 layer_factory.hpp:77] Creating layer inception_5b/output
I0403 18:28:37.900035  7002 net.cpp:91] Creating Layer inception_5b/output
I0403 18:28:37.900066  7002 net.cpp:425] inception_5b/output <- inception_5b/1x1
I0403 18:28:37.900084  7002 net.cpp:425] inception_5b/output <- inception_5b/3x3
I0403 18:28:37.900100  7002 net.cpp:425] inception_5b/output <- inception_5b/5x5
I0403 18:28:37.900117  7002 net.cpp:425] inception_5b/output <- inception_5b/pool_proj
I0403 18:28:37.900135  7002 net.cpp:399] inception_5b/output -> inception_5b/output
I0403 18:28:37.900195  7002 net.cpp:141] Setting up inception_5b/output
I0403 18:28:37.900219  7002 net.cpp:148] Top shape: 24 1024 7 7 (1204224)
I0403 18:28:37.900235  7002 net.cpp:156] Memory required for data: 1345864224
I0403 18:28:37.900250  7002 layer_factory.hpp:77] Creating layer pool5/7x7_s1
I0403 18:28:37.900269  7002 net.cpp:91] Creating Layer pool5/7x7_s1
I0403 18:28:37.900285  7002 net.cpp:425] pool5/7x7_s1 <- inception_5b/output
I0403 18:28:37.900305  7002 net.cpp:399] pool5/7x7_s1 -> pool5/7x7_s1
I0403 18:28:37.900522  7002 net.cpp:141] Setting up pool5/7x7_s1
I0403 18:28:37.900548  7002 net.cpp:148] Top shape: 24 1024 1 1 (24576)
I0403 18:28:37.900563  7002 net.cpp:156] Memory required for data: 1345962528
I0403 18:28:37.900578  7002 layer_factory.hpp:77] Creating layer pool5/drop_7x7_s1
I0403 18:28:37.900601  7002 net.cpp:91] Creating Layer pool5/drop_7x7_s1
I0403 18:28:37.900619  7002 net.cpp:425] pool5/drop_7x7_s1 <- pool5/7x7_s1
I0403 18:28:37.900637  7002 net.cpp:386] pool5/drop_7x7_s1 -> pool5/7x7_s1 (in-place)
I0403 18:28:37.900688  7002 net.cpp:141] Setting up pool5/drop_7x7_s1
I0403 18:28:37.900712  7002 net.cpp:148] Top shape: 24 1024 1 1 (24576)
I0403 18:28:37.900727  7002 net.cpp:156] Memory required for data: 1346060832
I0403 18:28:37.900741  7002 layer_factory.hpp:77] Creating layer loss3/classifier_plantvillage
I0403 18:28:37.900761  7002 net.cpp:91] Creating Layer loss3/classifier_plantvillage
I0403 18:28:37.900777  7002 net.cpp:425] loss3/classifier_plantvillage <- pool5/7x7_s1
I0403 18:28:37.900799  7002 net.cpp:399] loss3/classifier_plantvillage -> loss3/classifier_plantvillage
I0403 18:28:37.901238  7002 net.cpp:141] Setting up loss3/classifier_plantvillage
I0403 18:28:37.901263  7002 net.cpp:148] Top shape: 24 38 (912)
I0403 18:28:37.901278  7002 net.cpp:156] Memory required for data: 1346064480
I0403 18:28:37.901296  7002 layer_factory.hpp:77] Creating layer loss3/classifier_plantvillage_loss3/classifier_plantvillage_0_split
I0403 18:28:37.901315  7002 net.cpp:91] Creating Layer loss3/classifier_plantvillage_loss3/classifier_plantvillage_0_split
I0403 18:28:37.901331  7002 net.cpp:425] loss3/classifier_plantvillage_loss3/classifier_plantvillage_0_split <- loss3/classifier_plantvillage
I0403 18:28:37.901351  7002 net.cpp:399] loss3/classifier_plantvillage_loss3/classifier_plantvillage_0_split -> loss3/classifier_plantvillage_loss3/classifier_plantvillage_0_split_0
I0403 18:28:37.901372  7002 net.cpp:399] loss3/classifier_plantvillage_loss3/classifier_plantvillage_0_split -> loss3/classifier_plantvillage_loss3/classifier_plantvillage_0_split_1
I0403 18:28:37.901393  7002 net.cpp:399] loss3/classifier_plantvillage_loss3/classifier_plantvillage_0_split -> loss3/classifier_plantvillage_loss3/classifier_plantvillage_0_split_2
I0403 18:28:37.901413  7002 net.cpp:399] loss3/classifier_plantvillage_loss3/classifier_plantvillage_0_split -> loss3/classifier_plantvillage_loss3/classifier_plantvillage_0_split_3
I0403 18:28:37.901515  7002 net.cpp:141] Setting up loss3/classifier_plantvillage_loss3/classifier_plantvillage_0_split
I0403 18:28:37.901540  7002 net.cpp:148] Top shape: 24 38 (912)
I0403 18:28:37.901556  7002 net.cpp:148] Top shape: 24 38 (912)
I0403 18:28:37.901572  7002 net.cpp:148] Top shape: 24 38 (912)
I0403 18:28:37.901587  7002 net.cpp:148] Top shape: 24 38 (912)
I0403 18:28:37.901602  7002 net.cpp:156] Memory required for data: 1346079072
I0403 18:28:37.901617  7002 layer_factory.hpp:77] Creating layer loss1/loss
I0403 18:28:37.901638  7002 net.cpp:91] Creating Layer loss1/loss
I0403 18:28:37.901656  7002 net.cpp:425] loss1/loss <- loss1/classifier_plantvillage_loss1/classifier_plantvillage_0_split_0
I0403 18:28:37.901687  7002 net.cpp:425] loss1/loss <- label_data_1_split_0
…
