…
I0403 17:49:56.974855  6099 net.cpp:313] The NetState phase (1) differed from the phase (0) specified by a rule in layer data
I0403 17:49:56.976064  6099 net.cpp:49] Initializing net from parameters: 
state {
  phase: TEST
}
layer {
  name: "data"
  type: "Data"
  top: "data"
  top: "label"
  include {
    phase: TEST
  }
  transform_param {
    mirror: false
    crop_size: 224
    mean_file: "/home/mohanty/data/final_dataset/lmdb/segmented-50-50/mean.binaryproto"
  }
  data_param {
    source: "/home/mohanty/data/final_dataset/lmdb/segmented-50-50/test_db"
    batch_size: 24
    backend: LMDB
  }
}
layer {
  name: "conv1/7x7_s2"
  type: "Convolution"
  bottom: "data"
  top: "conv1/7x7_s2"
  param {
    lr_mult: 1
    decay_mult: 1
  }
  param {
    lr_mult: 2
    decay_mult: 0
  }
  convolution_param {
    num_output: 64
    pad: 3
    kernel_size: 7
    stride: 2
    weight_filler {
      type: "xavier"
      std: 0.1
    }
    bias_filler {
      type: "constant"
      value: 0.2
    }
  }
}
layer {
  name: "conv1/relu_7x7"
  type: "ReLU"
  bottom: "conv1/7x7_s2"
  top: "conv1/7x7_s2"
}
layer {
  name: "pool1/3x3_s2"
  type: "Pooling"
  bottom: "conv1/7x7_s2"
  top: "pool1/3x3_s2"
  pooling_param {
    pool: MAX
    kernel_size: 3
    stride: 2
  }
}
layer {
  name: "pool1/norm1"
  type: "LRN"
  bottom: "pool1/3x3_s2"
  top: "pool1/norm1"
  lrn_param {
    local_size: 5
    alpha: 0.0001
    beta: 0.75
  }
}
layer {
  name: "conv2/3x3_reduce"
  type: "Convolution"
  bottom: "pool1/norm1"
  top: "conv2/3x3_reduce"
  param {
    lr_mult: 1
    decay_mult: 1
  }
  param {
    lr_mult: 2
    decay_mult: 0
  }
  convolution_param {
    num_output: 64
    kernel_size: 1
    weight_filler {
      type: "xavier"
      std: 0.1
    }
    bias_filler {
      type: "constant"
      value: 0.2
    }
  }
}
layer {
  name: "conv2/relu_3x3_reduce"
  type: "ReLU"
  bottom: "conv2/3x3_reduce"
  top: "conv2/3x3_reduce"
}
layer {
  name: "conv2/3x3"
  type: "Convolution"
  bottom: "conv2/3x3_reduce"
  top: "conv2/3x3"
  param {
    lr_mult: 1
    decay_mult: 1
  }
  param {
    lr_mult: 2
    decay_mult: 0
  }
  convolution_param {
    num_output: 192
    pad: 1
    kernel_size: 3
    weight_filler {
      type: "xavier"
      std: 0.03
    }
    bias_filler {
      type: "constant"
      value: 0.2
    }
  }
}
layer {
  name: "conv2/relu_3x3"
  type: "ReLU"
  bottom: "conv2/3x3"
  top: "conv2/3x3"
}
layer {
  name: "conv2/norm2"
  type: "LRN"
  bottom: "conv2/3x3"
  top: "conv2/norm2"
  lrn_param {
    local_size: 5
    alpha: 0.0001
    beta: 0.75
  }
}
layer {
  name: "pool2/3x3_s2"
  type: "Pooling"
  bottom: "conv2/norm2"
  top: "pool2/3x3_s2"
  pooling_param {
    pool: MAX
    kernel_size: 3
    stride: 2
  }
}
layer {
  name: "inception_3a/1x1"
  type: "Convolution"
  bottom: "pool2/3x3_s2"
  top: "inception_3a/1x1"
  param {
    lr_mult: 1
    decay_mult: 1
  }
  param {
    lr_mult: 2
    decay_mult: 0
  }
  convolution_param {
    num_output: 64
    kernel_size: 1
    weight_filler {
      type: "xavier"
      std: 0.03
    }
    bias_filler {
      type: "constant"
      value: 0.2
    }
  }
}
layer {
  name: "inception_3a/relu_1x1"
  type: "ReLU"
  bottom: "inception_3a/1x1"
  top: "inception_3a/1x1"
}
layer {
  name: "inception_3a/3x3_reduce"
  type: "Convolution"
  bottom: "pool2/3x3_s2"
  top: "inception_3a/3x3_reduce"
  param {
    lr_mult: 1
    decay_mult: 1
  }
  param {
    lr_mult: 2
    decay_mult: 0
  }
  convolution_param {
    num_output: 96
    kernel_size: 1
    weight_filler {
      type: "xavier"
      std: 0.09
    }
    bias_filler {
      type: "constant"
      value: 0.2
    }
  }
}
layer {
  name: "inception_3a/relu_3x3_reduce"
  type: "ReLU"
  bottom: "inception_3a/3x3_reduce"
  top: "inception_3a/3x3_reduce"
}
layer {
  name: "inception_3a/3x3"
  type: "Convolution"
  bottom: "inception_3a/3x3_reduce"
  top: "inception_3a/3x3"
  param {
    lr_mult: 1
    decay_mult: 1
  }
  param {
    lr_mult: 2
    decay_mult: 0
  }
  convolution_param {
    num_output: 128
    pad: 1
    kernel_size: 3
    weight_filler {
      type: "xavier"
      std: 0.03
    }
    bias_filler {
      type: "constant"
      value: 0.2
    }
  }
}
layer {
  name: "inception_3a/relu_3x3"
  type: "ReLU"
  bottom: "inception_3a/3x3"
  top: "inception_3a/3x3"
}
layer {
  name: "inception_3a/5x5_reduce"
  type: "Convolution"
  bottom: "pool2/3x3_s2"
  top: "inception_3a/5x5_reduce"
  param {
    lr_mult: 1
    decay_mult: 1
  }
  param {
    lr_mult: 2
    decay_mult: 0
  }
  convolution_param {
    num_output: 16
    kernel_size: 1
    weight_filler {
      type: "xavier"
      std: 0.2
    }
    bias_filler {
      type: "constant"
      value: 0.2
    }
  }
}
layer {
  name: "inception_3a/relu_5x5_reduce"
  type: "ReLU"
  bottom: "inception_3a/5x5_reduce"
  top: "inception_3a/5x5_reduce"
}
layer {
  name: "inception_3a/5x5"
  type: "Convolution"
  bottom: "inception_3a/5x5_reduce"
  top: "inception_3a/5x5"
  param {
    lr_mult: 1
    decay_mult: 1
  }
  param {
    lr_mult: 2
    decay_mult: 0
  }
  convolution_param {
    num_output: 32
    pad: 2
    kernel_size: 5
    weight_filler {
      type: "xavier"
      std: 0.03
    }
    bias_filler {
      type: "constant"
      value: 0.2
    }
  }
}
layer {
  name: "inception_3a/relu_5x5"
  type: "ReLU"
  bottom: "inception_3a/5x5"
  top: "inception_3a/5x5"
}
layer {
  name: "inception_3a/pool"
  type: "Pooling"
  bottom: "pool2/3x3_s2"
  top: "inception_3a/pool"
  pooling_param {
    pool: MAX
    kernel_size: 3
    stride: 1
    pad: 1
  }
}
layer {
  name: "inception_3a/pool_proj"
  type: "Convolution"
  bottom: "inception_3a/pool"
  top: "inception_3a/pool_proj"
  param {
    lr_mult: 1
    decay_mult: 1
  }
  param {
    lr_mult: 2
    decay_mult: 0
  }
  convolution_param {
    num_output: 32
    kernel_size: 1
    weight_filler {
      type: "xavier"
      std: 0.1
    }
    bias_filler {
      type: "constant"
      value: 0.2
    }
  }
}
layer {
  name: "inception_3a/relu_pool_proj"
  type: "ReLU"
  bottom: "inception_3a/pool_proj"
  top: "inception_3a/pool_proj"
}
layer {
  name: "inception_3a/output"
  type: "Concat"
  bottom: "inception_3a/1x1"
  bottom: "inception_3a/3x3"
  bottom: "inception_3a/5x5"
  bottom: "inception_3a/pool_proj"
  top: "inception_3a/output"
}
layer {
  name: "inception_3b/1x1"
  type: "Convolution"
  bottom: "inception_3a/output"
  top: "inception_3b/1x1"
  param {
    lr_mult: 1
    decay_mult: 1
  }
  param {
    lr_mult: 2
    decay_mult: 0
  }
  convolution_param {
    num_output: 128
    kernel_size: 1
    weight_filler {
      type: "xavier"
      std: 0.03
    }
    bias_filler {
      type: "constant"
      value: 0.2
    }
  }
}
layer {
  name: "inception_3b/relu_1x1"
  type: "ReLU"
  bottom: "inception_3b/1x1"
  top: "inception_3b/1x1"
}
layer {
  name: "inception_3b/3x3_reduce"
  type: "Convolution"
  bottom: "inception_3a/output"
  top: "inception_3b/3x3_reduce"
  param {
    lr_mult: 1
    decay_mult: 1
  }
  param {
    lr_mult: 2
    decay_mult: 0
  }
  convolution_param {
    num_output: 128
    kernel_size: 1
    weight_filler {
      type: "xavier"
      std: 0.09
    }
    bias_filler {
      type: "constant"
      value: 0.2
    }
  }
}
layer {
  name: "inception_3b/relu_3x3_reduce"
  type: "ReLU"
  bottom: "inception_3b/3x3_reduce"
  top: "inception_3b/3x3_reduce"
}
layer {
  name: "inception_3b/3x3"
  type: "Convolution"
  bottom: "inception_3b/3x3_reduce"
  top: "inception_3b/3x3"
  param {
    lr_mult: 1
    decay_mult: 1
  }
  param {
    lr_mult: 2
    decay_mult: 0
  }
  convolution_param {
    num_output: 192
    pad: 1
    kernel_size: 3
    weight_filler {
      type: "xavier"
      std: 0.03
    }
    bias_filler {
      type: "constant"
      value: 0.2
    }
  }
}
layer {
  name: "inception_3b/relu_3x3"
  type: "ReLU"
  bottom: "inception_3b/3x3"
  top: "inception_3b/3x3"
}
layer {
  name: "inception_3b/5x5_reduce"
  type: "Convolution"
  bottom: "inception_3a/output"
  top: "inception_3b/5x5_reduce"
  param {
    lr_mult: 1
    decay_mult: 1
  }
  param {
    lr_mult: 2
    decay_mult: 0
  }
  convolution_param {
    num_output: 32
    kernel_size: 1
    weight_filler {
      type: "xavier"
      std: 0.2
    }
    bias_filler {
      type: "constant"
      value: 0.2
    }
  }
}
layer {
  name: "inception_3b/relu_5x5_reduce"
  type: "ReLU"
  bottom: "inception_3b/5x5_reduce"
  top: "inception_3b/5x5_reduce"
}
layer {
  name: "inception_3b/5x5"
  type: "Convolution"
  bottom: "inception_3b/5x5_reduce"
  top: "inception_3b/5x5"
  param {
    lr_mult: 1
    decay_mult: 1
  }
  param {
    lr_mult: 2
    decay_mult: 0
  }
  convolution_param {
    num_output: 96
    pad: 2
    kernel_size: 5
    weight_filler {
      type: "xavier"
      std: 0.03
    }
    bias_filler {
      type: "constant"
      value: 0.2
    }
  }
}
layer {
  name: "inception_3b/relu_5x5"
  type: "ReLU"
  bottom: "inception_3b/5x5"
  top: "inception_3b/5x5"
}
layer {
  name: "inception_3b/pool"
  type: "Pooling"
  bottom: "inception_3a/output"
  top: "inception_3b/pool"
  pooling_param {
    pool: MAX
    kernel_size: 3
    stride: 1
    pad: 1
  }
}
layer {
  name: "inception_3b/pool_proj"
  type: "Convolution"
  bottom: "inception_3b/pool"
  top: "inception_3b/pool_proj"
  param {
    lr_mult: 1
    decay_mult: 1
  }
  param {
    lr_mult: 2
    decay_mult: 0
  }
  convolution_param {
    num_output: 64
    kernel_size: 1
    weight_filler {
      type: "xavier"
      std: 0.1
    }
    bias_filler {
      type: "constant"
      value: 0.2
    }
  }
}
layer {
  name: "inception_3b/relu_pool_proj"
  type: "ReLU"
  bottom: "inception_3b/pool_proj"
  top: "inception_3b/pool_proj"
}
layer {
  name: "inception_3b/output"
  type: "Concat"
  bottom: "inception_3b/1x1"
  bottom: "inception_3b/3x3"
  bottom: "inception_3b/5x5"
  bottom: "inception_3b/pool_proj"
  top: "inception_3b/output"
}
layer {
  name: "pool3/3x3_s2"
  type: "Pooling"
  bottom: "inception_3b/output"
  top: "pool3/3x3_s2"
  pooling_param {
    pool: MAX
    kernel_size: 3
    stride: 2
  }
}
layer {
  name: "inception_4a/1x1"
  type: "Convolution"
  bottom: "pool3/3x3_s2"
  top: "inception_4a/1x1"
  param {
    lr_mult: 1
    decay_mult: 1
  }
  param {
    lr_mult: 2
    decay_mult: 0
  }
  convolution_param {
    num_output: 192
    kernel_size: 1
    weight_filler {
      type: "xavier"
      std: 0.03
    }
    bias_filler {
      type: "constant"
      value: 0.2
    }
  }
}
layer {
  name: "inception_4a/relu_1x1"
  type: "ReLU"
  bottom: "inception_4a/1x1"
  top: "inception_4a/1x1"
}
layer {
  name: "inception_4a/3x3_reduce"
  type: "Convolution"
  bottom: "pool3/3x3_s2"
  top: "inception_4a/3x3_reduce"
  param {
    lr_mult: 1
    decay_mult: 1
  }
  param {
    lr_mult: 2
    decay_mult: 0
  }
  convolution_param {
    num_output: 96
    kernel_size: 1
    weight_filler {
      type: "xavier"
      std: 0.09
    }
    bias_filler {
      type: "constant"
      value: 0.2
    }
  }
}
layer {
  name: "inception_4a/relu_3x3_reduce"
  type: "ReLU"
  bottom: "inception_4a/3x3_reduce"
  top: "inception_4a/3x3_reduce"
}
layer {
  name: "inception_4a/3x3"
  type: "Convolution"
  bottom: "inception_4a/3x3_reduce"
  top: "inception_4a/3x3"
  param {
    lr_mult: 1
    decay_mult: 1
  }
  param {
    lr_mult: 2
    decay_mult: 0
  }
  convolution_param {
    num_output: 208
    pad: 1
    kernel_size: 3
    weight_filler {
      type: "xavier"
      std: 0.03
    }
    bias_filler {
      type: "constant"
      value: 0.2
    }
  }
}
layer {
  name: "inception_4a/relu_3x3"
  type: "ReLU"
  bottom: "inception_4a/3x3"
  top: "inception_4a/3x3"
}
layer {
  name: "inception_4a/5x5_reduce"
  type: "Convolution"
  bottom: "pool3/3x3_s2"
  top: "inception_4a/5x5_reduce"
  param {
    lr_mult: 1
    decay_mult: 1
  }
  param {
    lr_mult: 2
    decay_mult: 0
  }
  convolution_param {
    num_output: 16
    kernel_size: 1
    weight_filler {
      type: "xavier"
      std: 0.2
    }
    bias_filler {
      type: "constant"
      value: 0.2
    }
  }
}
layer {
  name: "inception_4a/relu_5x5_reduce"
  type: "ReLU"
  bottom: "inception_4a/5x5_reduce"
  top: "inception_4a/5x5_reduce"
}
layer {
  name: "inception_4a/5x5"
  type: "Convolution"
  bottom: "inception_4a/5x5_reduce"
  top: "inception_4a/5x5"
  param {
    lr_mult: 1
    decay_mult: 1
  }
  param {
    lr_mult: 2
    decay_mult: 0
  }
  convolution_param {
    num_output: 48
    pad: 2
    kernel_size: 5
    weight_filler {
      type: "xavier"
      std: 0.03
    }
    bias_filler {
      type: "constant"
      value: 0.2
    }
  }
}
layer {
  name: "inception_4a/relu_5x5"
  type: "ReLU"
  bottom: "inception_4a/5x5"
  top: "inception_4a/5x5"
}
layer {
  name: "inception_4a/pool"
  type: "Pooling"
  bottom: "pool3/3x3_s2"
  top: "inception_4a/pool"
  pooling_param {
    pool: MAX
    kernel_size: 3
    stride: 1
    pad: 1
  }
}
layer {
  name: "inception_4a/pool_proj"
  type: "Convolution"
  bottom: "inception_4a/pool"
  top: "inception_4a/pool_proj"
  param {
    lr_mult: 1
    decay_mult: 1
  }
  param {
    lr_mult: 2
    decay_mult: 0
  }
  convolution_param {
    num_output: 64
    kernel_size: 1
    weight_filler {
      type: "xavier"
      std: 0.1
    }
    bias_filler {
      type: "constant"
      value: 0.2
    }
  }
}
layer {
  name: "inception_4a/relu_pool_proj"
  type: "ReLU"
  bottom: "inception_4a/pool_proj"
  top: "inception_4a/pool_proj"
}
layer {
  name: "inception_4a/output"
  type: "Concat"
  bottom: "inception_4a/1x1"
  bottom: "inception_4a/3x3"
  bottom: "inception_4a/5x5"
  bottom: "inception_4a/pool_proj"
  top: "inception_4a/output"
}
layer {
  name: "loss1/ave_pool"
  type: "Pooling"
  bottom: "inception_4a/output"
  top: "loss1/ave_pool"
  pooling_param {
    pool: AVE
    kernel_size: 5
    stride: 3
  }
}
layer {
  name: "loss1/conv"
  type: "Convolution"
  bottom: "loss1/ave_pool"
  top: "loss1/conv"
  param {
    lr_mult: 1
    decay_mult: 1
  }
  param {
    lr_mult: 2
    decay_mult: 0
  }
  convolution_param {
    num_output: 128
    kernel_size: 1
    weight_filler {
      type: "xavier"
      std: 0.08
    }
    bias_filler {
      type: "constant"
      value: 0.2
    }
  }
}
layer {
  name: "loss1/relu_conv"
  type: "ReLU"
  bottom: "loss1/conv"
  top: "loss1/conv"
}
layer {
  name: "loss1/fc"
  type: "InnerProduct"
  bottom: "loss1/conv"
  top: "loss1/fc"
  param {
    lr_mult: 1
    decay_mult: 1
  }
  param {
    lr_mult: 2
    decay_mult: 0
  }
  inner_product_param {
    num_output: 1024
    weight_filler {
      type: "xavier"
      std: 0.02
    }
    bias_filler {
      type: "constant"
      value: 0.2
    }
  }
}
layer {
  name: "loss1/relu_fc"
  type: "ReLU"
  bottom: "loss1/fc"
  top: "loss1/fc"
}
layer {
  name: "loss1/drop_fc"
  type: "Dropout"
  bottom: "loss1/fc"
  top: "loss1/fc"
  dropout_param {
    dropout_ratio: 0.7
  }
}
layer {
  name: "loss1/classifier_plantvillage"
  type: "InnerProduct"
  bottom: "loss1/fc"
  top: "loss1/classifier_plantvillage"
  param {
    lr_mult: 1
    decay_mult: 1
  }
  param {
    lr_mult: 2
    decay_mult: 0
  }
  inner_product_param {
    num_output: 38
    weight_filler {
      type: "xavier"
      std: 0.0009765625
    }
    bias_filler {
      type: "constant"
      value: 0
    }
  }
}
layer {
  name: "inception_4b/1x1"
  type: "Convolution"
  bottom: "inception_4a/output"
  top: "inception_4b/1x1"
  param {
    lr_mult: 1
    decay_mult: 1
  }
  param {
    lr_mult: 2
    decay_mult: 0
  }
  convolution_param {
    num_output: 160
    kernel_size: 1
    weight_filler {
      type: "xavier"
      std: 0.03
    }
    bias_filler {
      type: "constant"
      value: 0.2
    }
  }
}
layer {
  name: "inception_4b/relu_1x1"
  type: "ReLU"
  bottom: "inception_4b/1x1"
  top: "inception_4b/1x1"
}
layer {
  name: "inception_4b/3x3_reduce"
  type: "Convolution"
  bottom: "inception_4a/output"
  top: "inception_4b/3x3_reduce"
  param {
    lr_mult: 1
    decay_mult: 1
  }
  param {
    lr_mult: 2
    decay_mult: 0
  }
  convolution_param {
    num_output: 112
    kernel_size: 1
    weight_filler {
      type: "xavier"
      std: 0.09
    }
    bias_filler {
      type: "constant"
      value: 0.2
    }
  }
}
layer {
  name: "inception_4b/relu_3x3_reduce"
  type: "ReLU"
  bottom: "inception_4b/3x3_reduce"
  top: "inception_4b/3x3_reduce"
}
layer {
  name: "inception_4b/3x3"
  type: "Convolution"
  bottom: "inception_4b/3x3_reduce"
  top: "inception_4b/3x3"
  param {
    lr_mult: 1
    decay_mult: 1
  }
  param {
    lr_mult: 2
    decay_mult: 0
  }
  convolution_param {
    num_output: 224
    pad: 1
    kernel_size: 3
    weight_filler {
      type: "xavier"
      std: 0.03
    }
    bias_filler {
      type: "constant"
      value: 0.2
    }
  }
}
layer {
  name: "inception_4b/relu_3x3"
  type: "ReLU"
  bottom: "inception_4b/3x3"
  top: "inception_4b/3x3"
}
layer {
  name: "inception_4b/5x5_reduce"
  type: "Convolution"
  bottom: "inception_4a/output"
  top: "inception_4b/5x5_reduce"
  param {
    lr_mult: 1
    decay_mult: 1
  }
  param {
    lr_mult: 2
    decay_mult: 0
  }
  convolution_param {
    num_output: 24
    kernel_size: 1
    weight_filler {
      type: "xavier"
      std: 0.2
    }
    bias_filler {
      type: "constant"
      value: 0.2
    }
  }
}
layer {
  name: "inception_4b/relu_5x5_reduce"
  type: "ReLU"
  bottom: "inception_4b/5x5_reduce"
  top: "inception_4b/5x5_reduce"
}
layer {
  name: "inception_4b/5x5"
  type: "Convolution"
  bottom: "inception_4b/5x5_reduce"
  top: "inception_4b/5x5"
  param {
    lr_mult: 1
    decay_mult: 1
  }
  param {
    lr_mult: 2
    decay_mult: 0
  }
  convolution_param {
    num_output: 64
    pad: 2
    kernel_size: 5
    weight_filler {
      type: "xavier"
      std: 0.03
    }
    bias_filler {
      type: "constant"
      value: 0.2
    }
  }
}
layer {
  name: "inception_4b/relu_5x5"
  type: "ReLU"
  bottom: "inception_4b/5x5"
  top: "inception_4b/5x5"
}
layer {
  name: "inception_4b/pool"
  type: "Pooling"
  bottom: "inception_4a/output"
  top: "inception_4b/pool"
  pooling_param {
    pool: MAX
    kernel_size: 3
    stride: 1
    pad: 1
  }
}
layer {
  name: "inception_4b/pool_proj"
  type: "Convolution"
  bottom: "inception_4b/pool"
  top: "inception_4b/pool_proj"
  param {
    lr_mult: 1
    decay_mult: 1
  }
  param {
    lr_mult: 2
    decay_mult: 0
  }
  convolution_param {
    num_output: 64
    kernel_size: 1
    weight_filler {
      type: "xavier"
      std: 0.1
    }
    bias_filler {
      type: "constant"
      value: 0.2
    }
  }
}
layer {
  name: "inception_4b/relu_pool_proj"
  type: "ReLU"
  bottom: "inception_4b/pool_proj"
  top: "inception_4b/pool_proj"
}
layer {
  name: "inception_4b/output"
  type: "Concat"
  bottom: "inception_4b/1x1"
  bottom: "inception_4b/3x3"
  bottom: "inception_4b/5x5"
  bottom: "inception_4b/pool_proj"
  top: "inception_4b/output"
}
layer {
  name: "inception_4c/1x1"
  type: "Convolution"
  bottom: "inception_4b/output"
  top: "inception_4c/1x1"
  param {
    lr_mult: 1
    decay_mult: 1
  }
  param {
    lr_mult: 2
    decay_mult: 0
  }
  convolution_param {
    num_output: 128
    kernel_size: 1
    weight_filler {
      type: "xavier"
      std: 0.03
    }
    bias_filler {
      type: "constant"
      value: 0.2
    }
  }
}
layer {
  name: "inception_4c/relu_1x1"
  type: "ReLU"
  bottom: "inception_4c/1x1"
  top: "inception_4c/1x1"
}
layer {
  name: "inception_4c/3x3_reduce"
  type: "Convolution"
  bottom: "inception_4b/output"
  top: "inception_4c/3x3_reduce"
  param {
    lr_mult: 1
    decay_mult: 1
  }
  param {
    lr_mult: 2
    decay_mult: 0
  }
  convolution_param {
    num_output: 128
    kernel_size: 1
    weight_filler {
      type: "xavier"
      std: 0.09
    }
    bias_filler {
      type: "constant"
      value: 0.2
    }
  }
}
layer {
  name: "inception_4c/relu_3x3_reduce"
  type: "ReLU"
  bottom: "inception_4c/3x3_reduce"
  top: "inception_4c/3x3_reduce"
}
layer {
  name: "inception_4c/3x3"
  type: "Convolution"
  bottom: "inception_4c/3x3_reduce"
  top: "inception_4c/3x3"
  param {
    lr_mult: 1
    decay_mult: 1
  }
  param {
    lr_mult: 2
    decay_mult: 0
  }
  convolution_param {
    num_output: 256
    pad: 1
    kernel_size: 3
    weight_filler {
      type: "xavier"
      std: 0.03
    }
    bias_filler {
      type: "constant"
      value: 0.2
    }
  }
}
layer {
  name: "inception_4c/relu_3x3"
  type: "ReLU"
  bottom: "inception_4c/3x3"
  top: "inception_4c/3x3"
}
layer {
  name: "inception_4c/5x5_reduce"
  type: "Convolution"
  bottom: "inception_4b/output"
  top: "inception_4c/5x5_reduce"
  param {
    lr_mult: 1
    decay_mult: 1
  }
  param {
    lr_mult: 2
    decay_mult: 0
  }
  convolution_param {
    num_output: 24
    kernel_size: 1
    weight_filler {
      type: "xavier"
      std: 0.2
    }
    bias_filler {
      type: "constant"
      value: 0.2
    }
  }
}
layer {
  name: "inception_4c/relu_5x5_reduce"
  type: "ReLU"
  bottom: "inception_4c/5x5_reduce"
  top: "inception_4c/5x5_reduce"
}
layer {
  name: "inception_4c/5x5"
  type: "Convolution"
  bottom: "inception_4c/5x5_reduce"
  top: "inception_4c/5x5"
  param {
    lr_mult: 1
    decay_mult: 1
  }
  param {
    lr_mult: 2
    decay_mult: 0
  }
  convolution_param {
    num_output: 64
    pad: 2
    kernel_size: 5
    weight_filler {
      type: "xavier"
      std: 0.03
    }
    bias_filler {
      type: "constant"
      value: 0.2
    }
  }
}
layer {
  name: "inception_4c/relu_5x5"
  type: "ReLU"
  bottom: "inception_4c/5x5"
  top: "inception_4c/5x5"
}
layer {
  name: "inception_4c/pool"
  type: "Pooling"
  bottom: "inception_4b/output"
  top: "inception_4c/pool"
  pooling_param {
    pool: MAX
    kernel_size: 3
    stride: 1
    pad: 1
  }
}
layer {
  name: "inception_4c/pool_proj"
  type: "Convolution"
  bottom: "inception_4c/pool"
  top: "inception_4c/pool_proj"
  param {
    lr_mult: 1
    decay_mult: 1
  }
  param {
    lr_mult: 2
    decay_mult: 0
  }
  convolution_param {
    num_output: 64
    kernel_size: 1
    weight_filler {
      type: "xavier"
      std: 0.1
    }
    bias_filler {
      type: "constant"
      value: 0.2
    }
  }
}
layer {
  name: "inception_4c/relu_pool_proj"
  type: "ReLU"
  bottom: "inception_4c/pool_proj"
  top: "inception_4c/pool_proj"
}
layer {
  name: "inception_4c/output"
  type: "Concat"
  bottom: "inception_4c/1x1"
  bottom: "inception_4c/3x3"
  bottom: "inception_4c/5x5"
  bottom: "inception_4c/pool_proj"
  top: "inception_4c/output"
}
layer {
  name: "inception_4d/1x1"
  type: "Convolution"
  bottom: "inception_4c/output"
  top: "inception_4d/1x1"
  param {
    lr_mult: 1
    decay_mult: 1
  }
  param {
    lr_mult: 2
    decay_mult: 0
  }
  convolution_param {
    num_output: 112
    kernel_size: 1
    weight_filler {
      type: "xavier"
      std: 0.03
    }
    bias_filler {
      type: "constant"
      value: 0.2
    }
  }
}
layer {
  name: "inception_4d/relu_1x1"
  type: "ReLU"
  bottom: "inception_4d/1x1"
  top: "inception_4d/1x1"
}
layer {
  name: "inception_4d/3x3_reduce"
  type: "Convolution"
  bottom: "inception_4c/output"
  top: "inception_4d/3x3_reduce"
  param {
    lr_mult: 1
    decay_mult: 1
  }
  param {
    lr_mult: 2
    decay_mult: 0
  }
  convolution_param {
    num_output: 144
    kernel_size: 1
    weight_filler {
      type: "xavier"
      std: 0.09
    }
    bias_filler {
      type: "constant"
      value: 0.2
    }
  }
}
layer {
  name: "inception_4d/relu_3x3_reduce"
  type: "ReLU"
  bottom: "inception_4d/3x3_reduce"
  top: "inception_4d/3x3_reduce"
}
layer {
  name: "inception_4d/3x3"
  type: "Convolution"
  bottom: "inception_4d/3x3_reduce"
  top: "inception_4d/3x3"
  param {
    lr_mult: 1
    decay_mult: 1
  }
  param {
    lr_mult: 2
    decay_mult: 0
  }
  convolution_param {
    num_output: 288
    pad: 1
    kernel_size: 3
    weight_filler {
      type: "xavier"
      std: 0.03
    }
    bias_filler {
      type: "constant"
      value: 0.2
    }
  }
}
layer {
  name: "inception_4d/relu_3x3"
  type: "ReLU"
  bottom: "inception_4d/3x3"
  top: "inception_4d/3x3"
}
layer {
  name: "inception_4d/5x5_reduce"
  type: "Convolution"
  bottom: "inception_4c/output"
  top: "inception_4d/5x5_reduce"
  param {
    lr_mult: 1
    decay_mult: 1
  }
  param {
    lr_mult: 2
    decay_mult: 0
  }
  convolution_param {
    num_output: 32
    kernel_size: 1
    weight_filler {
      type: "xavier"
      std: 0.2
    }
    bias_filler {
      type: "constant"
      value: 0.2
    }
  }
}
layer {
  name: "inception_4d/relu_5x5_reduce"
  type: "ReLU"
  bottom: "inception_4d/5x5_reduce"
  top: "inception_4d/5x5_reduce"
}
layer {
  name: "inception_4d/5x5"
  type: "Convolution"
  bottom: "inception_4d/5x5_reduce"
  top: "inception_4d/5x5"
  param {
    lr_mult: 1
    decay_mult: 1
  }
  param {
    lr_mult: 2
    decay_mult: 0
  }
  convolution_param {
    num_output: 64
    pad: 2
    kernel_size: 5
    weight_filler {
      type: "xavier"
      std: 0.03
    }
    bias_filler {
      type: "constant"
      value: 0.2
    }
  }
}
layer {
  name: "inception_4d/relu_5x5"
  type: "ReLU"
  bottom: "inception_4d/5x5"
  top: "inception_4d/5x5"
}
layer {
  name: "inception_4d/pool"
  type: "Pooling"
  bottom: "inception_4c/output"
  top: "inception_4d/pool"
  pooling_param {
    pool: MAX
    kernel_size: 3
    stride: 1
    pad: 1
  }
}
layer {
  name: "inception_4d/pool_proj"
  type: "Convolution"
  bottom: "inception_4d/pool"
  top: "inception_4d/pool_proj"
  param {
    lr_mult: 1
    decay_mult: 1
  }
  param {
    lr_mult: 2
    decay_mult: 0
  }
  convolution_param {
    num_output: 64
    kernel_size: 1
    weight_filler {
      type: "xavier"
      std: 0.1
    }
    bias_filler {
      type: "constant"
      value: 0.2
    }
  }
}
layer {
  name: "inception_4d/relu_pool_proj"
  type: "ReLU"
  bottom: "inception_4d/pool_proj"
  top: "inception_4d/pool_proj"
}
layer {
  name: "inception_4d/output"
  type: "Concat"
  bottom: "inception_4d/1x1"
  bottom: "inception_4d/3x3"
  bottom: "inception_4d/5x5"
  bottom: "inception_4d/pool_proj"
  top: "inception_4d/output"
}
layer {
  name: "loss2/ave_pool"
  type: "Pooling"
  bottom: "inception_4d/output"
  top: "loss2/ave_pool"
  pooling_param {
    pool: AVE
    kernel_size: 5
    stride: 3
  }
}
layer {
  name: "loss2/conv"
  type: "Convolution"
  bottom: "loss2/ave_pool"
  top: "loss2/conv"
  param {
    lr_mult: 1
    decay_mult: 1
  }
  param {
    lr_mult: 2
    decay_mult: 0
  }
  convolution_param {
    num_output: 128
    kernel_size: 1
    weight_filler {
      type: "xavier"
      std: 0.08
    }
    bias_filler {
      type: "constant"
      value: 0.2
    }
  }
}
layer {
  name: "loss2/relu_conv"
  type: "ReLU"
  bottom: "loss2/conv"
  top: "loss2/conv"
}
layer {
  name: "loss2/fc"
  type: "InnerProduct"
  bottom: "loss2/conv"
  top: "loss2/fc"
  param {
    lr_mult: 1
    decay_mult: 1
  }
  param {
    lr_mult: 2
    decay_mult: 0
  }
  inner_product_param {
    num_output: 1024
    weight_filler {
      type: "xavier"
      std: 0.02
    }
    bias_filler {
      type: "constant"
      value: 0.2
    }
  }
}
layer {
  name: "loss2/relu_fc"
  type: "ReLU"
  bottom: "loss2/fc"
  top: "loss2/fc"
}
layer {
  name: "loss2/drop_fc"
  type: "Dropout"
  bottom: "loss2/fc"
  top: "loss2/fc"
  dropout_param {
    dropout_ratio: 0.7
  }
}
layer {
  name: "loss2/classifier_plantvillage"
  type: "InnerProduct"
  bottom: "loss2/fc"
  top: "loss2/classifier_plantvillage"
  param {
    lr_mult: 1
    decay_mult: 1
  }
  param {
    lr_mult: 2
    decay_mult: 0
  }
  inner_product_param {
    num_output: 38
    weight_filler {
      type: "xavier"
      std: 0.0009765625
    }
    bias_filler {
      type: "constant"
      value: 0
    }
  }
}
layer {
  name: "inception_4e/1x1"
  type: "Convolution"
  bottom: "inception_4d/output"
  top: "inception_4e/1x1"
  param {
    lr_mult: 1
    decay_mult: 1
  }
  param {
    lr_mult: 2
    decay_mult: 0
  }
  convolution_param {
    num_output: 256
    kernel_size: 1
    weight_filler {
      type: "xavier"
      std: 0.03
    }
    bias_filler {
      type: "constant"
      value: 0.2
    }
  }
}
layer {
  name: "inception_4e/relu_1x1"
  type: "ReLU"
  bottom: "inception_4e/1x1"
  top: "inception_4e/1x1"
}
layer {
  name: "inception_4e/3x3_reduce"
  type: "Convolution"
  bottom: "inception_4d/output"
  top: "inception_4e/3x3_reduce"
  param {
    lr_mult: 1
    decay_mult: 1
  }
  param {
    lr_mult: 2
    decay_mult: 0
  }
  convolution_param {
    num_output: 160
    kernel_size: 1
    weight_filler {
      type: "xavier"
      std: 0.09
    }
    bias_filler {
      type: "constant"
      value: 0.2
    }
  }
}
layer {
  name: "inception_4e/relu_3x3_reduce"
  type: "ReLU"
  bottom: "inception_4e/3x3_reduce"
  top: "inception_4e/3x3_reduce"
}
layer {
  name: "inception_4e/3x3"
  type: "Convolution"
  bottom: "inception_4e/3x3_reduce"
  top: "inception_4e/3x3"
  param {
    lr_mult: 1
    decay_mult: 1
  }
  param {
    lr_mult: 2
    decay_mult: 0
  }
  convolution_param {
    num_output: 320
    pad: 1
    kernel_size: 3
    weight_filler {
      type: "xavier"
      std: 0.03
    }
    bias_filler {
      type: "constant"
      value: 0.2
    }
  }
}
layer {
  name: "inception_4e/relu_3x3"
  type: "ReLU"
  bottom: "inception_4e/3x3"
  top: "inception_4e/3x3"
}
layer {
  name: "inception_4e/5x5_reduce"
  type: "Convolution"
  bottom: "inception_4d/output"
  top: "inception_4e/5x5_reduce"
  param {
    lr_mult: 1
    decay_mult: 1
  }
  param {
    lr_mult: 2
    decay_mult: 0
  }
  convolution_param {
    num_output: 32
    kernel_size: 1
    weight_filler {
      type: "xavier"
      std: 0.2
    }
    bias_filler {
      type: "constant"
      value: 0.2
    }
  }
}
layer {
  name: "inception_4e/relu_5x5_reduce"
  type: "ReLU"
  bottom: "inception_4e/5x5_reduce"
  top: "inception_4e/5x5_reduce"
}
layer {
  name: "inception_4e/5x5"
  type: "Convolution"
  bottom: "inception_4e/5x5_reduce"
  top: "inception_4e/
I0403 17:49:56.979143  6099 layer_factory.hpp:77] Creating layer data
I0403 17:49:56.979802  6099 net.cpp:91] Creating Layer data
I0403 17:49:56.979837  6099 net.cpp:399] data -> data
I0403 17:49:56.979889  6099 net.cpp:399] data -> label
I0403 17:49:56.979928  6099 data_transformer.cpp:25] Loading mean file from: /home/mohanty/data/final_dataset/lmdb/segmented-50-50/mean.binaryproto
I0403 17:49:57.058547  6103 db_lmdb.cpp:38] Opened lmdb /home/mohanty/data/final_dataset/lmdb/segmented-50-50/test_db
I0403 17:49:57.101102  6099 data_layer.cpp:41] output data size: 24,3,224,224
I0403 17:49:57.131347  6099 net.cpp:141] Setting up data
I0403 17:49:57.131433  6099 net.cpp:148] Top shape: 24 3 224 224 (3612672)
I0403 17:49:57.131456  6099 net.cpp:148] Top shape: 24 (24)
I0403 17:49:57.131474  6099 net.cpp:156] Memory required for data: 14450784
I0403 17:49:57.131502  6099 layer_factory.hpp:77] Creating layer label_data_1_split
I0403 17:49:57.131531  6099 net.cpp:91] Creating Layer label_data_1_split
I0403 17:49:57.131548  6099 net.cpp:425] label_data_1_split <- label
I0403 17:49:57.131582  6099 net.cpp:399] label_data_1_split -> label_data_1_split_0
I0403 17:49:57.131611  6099 net.cpp:399] label_data_1_split -> label_data_1_split_1
I0403 17:49:57.131633  6099 net.cpp:399] label_data_1_split -> label_data_1_split_2
I0403 17:49:57.131654  6099 net.cpp:399] label_data_1_split -> label_data_1_split_3
I0403 17:49:57.131675  6099 net.cpp:399] label_data_1_split -> label_data_1_split_4
I0403 17:49:57.131695  6099 net.cpp:399] label_data_1_split -> label_data_1_split_5
I0403 17:49:57.131716  6099 net.cpp:399] label_data_1_split -> label_data_1_split_6
I0403 17:49:57.131737  6099 net.cpp:399] label_data_1_split -> label_data_1_split_7
I0403 17:49:57.131757  6099 net.cpp:399] label_data_1_split -> label_data_1_split_8
I0403 17:49:57.131778  6099 net.cpp:399] label_data_1_split -> label_data_1_split_9
I0403 17:49:57.131899  6099 net.cpp:141] Setting up label_data_1_split
I0403 17:49:57.131924  6099 net.cpp:148] Top shape: 24 (24)
I0403 17:49:57.131942  6099 net.cpp:148] Top shape: 24 (24)
I0403 17:49:57.131958  6099 net.cpp:148] Top shape: 24 (24)
I0403 17:49:57.131975  6099 net.cpp:148] Top shape: 24 (24)
I0403 17:49:57.131994  6099 net.cpp:148] Top shape: 24 (24)
I0403 17:49:57.132010  6099 net.cpp:148] Top shape: 24 (24)
I0403 17:49:57.132030  6099 net.cpp:148] Top shape: 24 (24)
I0403 17:49:57.132050  6099 net.cpp:148] Top shape: 24 (24)
I0403 17:49:57.132068  6099 net.cpp:148] Top shape: 24 (24)
I0403 17:49:57.132087  6099 net.cpp:148] Top shape: 24 (24)
I0403 17:49:57.132127  6099 net.cpp:156] Memory required for data: 14451744
I0403 17:49:57.132144  6099 layer_factory.hpp:77] Creating layer conv1/7x7_s2
I0403 17:49:57.132177  6099 net.cpp:91] Creating Layer conv1/7x7_s2
I0403 17:49:57.132199  6099 net.cpp:425] conv1/7x7_s2 <- data
I0403 17:49:57.132225  6099 net.cpp:399] conv1/7x7_s2 -> conv1/7x7_s2
I0403 17:49:58.787784  6099 net.cpp:141] Setting up conv1/7x7_s2
I0403 17:49:58.787863  6099 net.cpp:148] Top shape: 24 64 112 112 (19267584)
I0403 17:49:58.787883  6099 net.cpp:156] Memory required for data: 91522080
I0403 17:49:58.787924  6099 layer_factory.hpp:77] Creating layer conv1/relu_7x7
I0403 17:49:58.787957  6099 net.cpp:91] Creating Layer conv1/relu_7x7
I0403 17:49:58.787991  6099 net.cpp:425] conv1/relu_7x7 <- conv1/7x7_s2
I0403 17:49:58.788014  6099 net.cpp:386] conv1/relu_7x7 -> conv1/7x7_s2 (in-place)
I0403 17:49:58.788338  6099 net.cpp:141] Setting up conv1/relu_7x7
I0403 17:49:58.788372  6099 net.cpp:148] Top shape: 24 64 112 112 (19267584)
I0403 17:49:58.788393  6099 net.cpp:156] Memory required for data: 168592416
I0403 17:49:58.788411  6099 layer_factory.hpp:77] Creating layer pool1/3x3_s2
I0403 17:49:58.788444  6099 net.cpp:91] Creating Layer pool1/3x3_s2
I0403 17:49:58.788466  6099 net.cpp:425] pool1/3x3_s2 <- conv1/7x7_s2
I0403 17:49:58.788491  6099 net.cpp:399] pool1/3x3_s2 -> pool1/3x3_s2
I0403 17:49:58.788579  6099 net.cpp:141] Setting up pool1/3x3_s2
I0403 17:49:58.788609  6099 net.cpp:148] Top shape: 24 64 56 56 (4816896)
I0403 17:49:58.788628  6099 net.cpp:156] Memory required for data: 187860000
I0403 17:49:58.788648  6099 layer_factory.hpp:77] Creating layer pool1/norm1
I0403 17:49:58.788686  6099 net.cpp:91] Creating Layer pool1/norm1
I0403 17:49:58.788710  6099 net.cpp:425] pool1/norm1 <- pool1/3x3_s2
I0403 17:49:58.788733  6099 net.cpp:399] pool1/norm1 -> pool1/norm1
I0403 17:49:58.789080  6099 net.cpp:141] Setting up pool1/norm1
I0403 17:49:58.789114  6099 net.cpp:148] Top shape: 24 64 56 56 (4816896)
I0403 17:49:58.789134  6099 net.cpp:156] Memory required for data: 207127584
I0403 17:49:58.789154  6099 layer_factory.hpp:77] Creating layer conv2/3x3_reduce
I0403 17:49:58.789189  6099 net.cpp:91] Creating Layer conv2/3x3_reduce
I0403 17:49:58.789212  6099 net.cpp:425] conv2/3x3_reduce <- pool1/norm1
I0403 17:49:58.789237  6099 net.cpp:399] conv2/3x3_reduce -> conv2/3x3_reduce
I0403 17:49:58.790899  6099 net.cpp:141] Setting up conv2/3x3_reduce
I0403 17:49:58.790932  6099 net.cpp:148] Top shape: 24 64 56 56 (4816896)
I0403 17:49:58.790952  6099 net.cpp:156] Memory required for data: 226395168
I0403 17:49:58.790979  6099 layer_factory.hpp:77] Creating layer conv2/relu_3x3_reduce
I0403 17:49:58.791003  6099 net.cpp:91] Creating Layer conv2/relu_3x3_reduce
I0403 17:49:58.791023  6099 net.cpp:425] conv2/relu_3x3_reduce <- conv2/3x3_reduce
I0403 17:49:58.791045  6099 net.cpp:386] conv2/relu_3x3_reduce -> conv2/3x3_reduce (in-place)
I0403 17:49:58.791362  6099 net.cpp:141] Setting up conv2/relu_3x3_reduce
I0403 17:49:58.791394  6099 net.cpp:148] Top shape: 24 64 56 56 (4816896)
I0403 17:49:58.791414  6099 net.cpp:156] Memory required for data: 245662752
I0403 17:49:58.791434  6099 layer_factory.hpp:77] Creating layer conv2/3x3
I0403 17:49:58.791461  6099 net.cpp:91] Creating Layer conv2/3x3
I0403 17:49:58.791483  6099 net.cpp:425] conv2/3x3 <- conv2/3x3_reduce
I0403 17:49:58.791507  6099 net.cpp:399] conv2/3x3 -> conv2/3x3
I0403 17:49:58.794364  6099 net.cpp:141] Setting up conv2/3x3
I0403 17:49:58.794400  6099 net.cpp:148] Top shape: 24 192 56 56 (14450688)
I0403 17:49:58.794422  6099 net.cpp:156] Memory required for data: 303465504
I0403 17:49:58.794453  6099 layer_factory.hpp:77] Creating layer conv2/relu_3x3
I0403 17:49:58.794479  6099 net.cpp:91] Creating Layer conv2/relu_3x3
I0403 17:49:58.794499  6099 net.cpp:425] conv2/relu_3x3 <- conv2/3x3
I0403 17:49:58.794522  6099 net.cpp:386] conv2/relu_3x3 -> conv2/3x3 (in-place)
I0403 17:49:58.794735  6099 net.cpp:141] Setting up conv2/relu_3x3
I0403 17:49:58.794770  6099 net.cpp:148] Top shape: 24 192 56 56 (14450688)
I0403 17:49:58.794822  6099 net.cpp:156] Memory required for data: 361268256
I0403 17:49:58.794843  6099 layer_factory.hpp:77] Creating layer conv2/norm2
I0403 17:49:58.794867  6099 net.cpp:91] Creating Layer conv2/norm2
I0403 17:49:58.794888  6099 net.cpp:425] conv2/norm2 <- conv2/3x3
I0403 17:49:58.794914  6099 net.cpp:399] conv2/norm2 -> conv2/norm2
I0403 17:49:58.795284  6099 net.cpp:141] Setting up conv2/norm2
I0403 17:49:58.795317  6099 net.cpp:148] Top shape: 24 192 56 56 (14450688)
I0403 17:49:58.795337  6099 net.cpp:156] Memory required for data: 419071008
I0403 17:49:58.795356  6099 layer_factory.hpp:77] Creating layer pool2/3x3_s2
I0403 17:49:58.795379  6099 net.cpp:91] Creating Layer pool2/3x3_s2
I0403 17:49:58.795400  6099 net.cpp:425] pool2/3x3_s2 <- conv2/norm2
I0403 17:49:58.795425  6099 net.cpp:399] pool2/3x3_s2 -> pool2/3x3_s2
I0403 17:49:58.795490  6099 net.cpp:141] Setting up pool2/3x3_s2
I0403 17:49:58.795521  6099 net.cpp:148] Top shape: 24 192 28 28 (3612672)
I0403 17:49:58.795539  6099 net.cpp:156] Memory required for data: 433521696
I0403 17:49:58.795558  6099 layer_factory.hpp:77] Creating layer pool2/3x3_s2_pool2/3x3_s2_0_split
I0403 17:49:58.795581  6099 net.cpp:91] Creating Layer pool2/3x3_s2_pool2/3x3_s2_0_split
I0403 17:49:58.795601  6099 net.cpp:425] pool2/3x3_s2_pool2/3x3_s2_0_split <- pool2/3x3_s2
I0403 17:49:58.795624  6099 net.cpp:399] pool2/3x3_s2_pool2/3x3_s2_0_split -> pool2/3x3_s2_pool2/3x3_s2_0_split_0
I0403 17:49:58.795652  6099 net.cpp:399] pool2/3x3_s2_pool2/3x3_s2_0_split -> pool2/3x3_s2_pool2/3x3_s2_0_split_1
I0403 17:49:58.795680  6099 net.cpp:399] pool2/3x3_s2_pool2/3x3_s2_0_split -> pool2/3x3_s2_pool2/3x3_s2_0_split_2
I0403 17:49:58.795704  6099 net.cpp:399] pool2/3x3_s2_pool2/3x3_s2_0_split -> pool2/3x3_s2_pool2/3x3_s2_0_split_3
I0403 17:49:58.795794  6099 net.cpp:141] Setting up pool2/3x3_s2_pool2/3x3_s2_0_split
I0403 17:49:58.795821  6099 net.cpp:148] Top shape: 24 192 28 28 (3612672)
I0403 17:49:58.795842  6099 net.cpp:148] Top shape: 24 192 28 28 (3612672)
I0403 17:49:58.795862  6099 net.cpp:148] Top shape: 24 192 28 28 (3612672)
I0403 17:49:58.795882  6099 net.cpp:148] Top shape: 24 192 28 28 (3612672)
I0403 17:49:58.795900  6099 net.cpp:156] Memory required for data: 491324448
I0403 17:49:58.795920  6099 layer_factory.hpp:77] Creating layer inception_3a/1x1
I0403 17:49:58.795954  6099 net.cpp:91] Creating Layer inception_3a/1x1
I0403 17:49:58.795977  6099 net.cpp:425] inception_3a/1x1 <- pool2/3x3_s2_pool2/3x3_s2_0_split_0
I0403 17:49:58.796001  6099 net.cpp:399] inception_3a/1x1 -> inception_3a/1x1
I0403 17:49:58.797876  6099 net.cpp:141] Setting up inception_3a/1x1
I0403 17:49:58.797911  6099 net.cpp:148] Top shape: 24 64 28 28 (1204224)
I0403 17:49:58.797931  6099 net.cpp:156] Memory required for data: 496141344
I0403 17:49:58.797955  6099 layer_factory.hpp:77] Creating layer inception_3a/relu_1x1
I0403 17:49:58.797981  6099 net.cpp:91] Creating Layer inception_3a/relu_1x1
I0403 17:49:58.798003  6099 net.cpp:425] inception_3a/relu_1x1 <- inception_3a/1x1
I0403 17:49:58.798027  6099 net.cpp:386] inception_3a/relu_1x1 -> inception_3a/1x1 (in-place)
I0403 17:49:58.798241  6099 net.cpp:141] Setting up inception_3a/relu_1x1
I0403 17:49:58.798276  6099 net.cpp:148] Top shape: 24 64 28 28 (1204224)
I0403 17:49:58.798296  6099 net.cpp:156] Memory required for data: 500958240
I0403 17:49:58.798316  6099 layer_factory.hpp:77] Creating layer inception_3a/3x3_reduce
I0403 17:49:58.798342  6099 net.cpp:91] Creating Layer inception_3a/3x3_reduce
I0403 17:49:58.798363  6099 net.cpp:425] inception_3a/3x3_reduce <- pool2/3x3_s2_pool2/3x3_s2_0_split_1
I0403 17:49:58.798390  6099 net.cpp:399] inception_3a/3x3_reduce -> inception_3a/3x3_reduce
I0403 17:49:58.800479  6099 net.cpp:141] Setting up inception_3a/3x3_reduce
I0403 17:49:58.800515  6099 net.cpp:148] Top shape: 24 96 28 28 (1806336)
I0403 17:49:58.800536  6099 net.cpp:156] Memory required for data: 508183584
I0403 17:49:58.800568  6099 layer_factory.hpp:77] Creating layer inception_3a/relu_3x3_reduce
I0403 17:49:58.800613  6099 net.cpp:91] Creating Layer inception_3a/relu_3x3_reduce
I0403 17:49:58.800636  6099 net.cpp:425] inception_3a/relu_3x3_reduce <- inception_3a/3x3_reduce
I0403 17:49:58.800657  6099 net.cpp:386] inception_3a/relu_3x3_reduce -> inception_3a/3x3_reduce (in-place)
I0403 17:49:58.800880  6099 net.cpp:141] Setting up inception_3a/relu_3x3_reduce
I0403 17:49:58.800914  6099 net.cpp:148] Top shape: 24 96 28 28 (1806336)
I0403 17:49:58.800932  6099 net.cpp:156] Memory required for data: 515408928
I0403 17:49:58.800951  6099 layer_factory.hpp:77] Creating layer inception_3a/3x3
I0403 17:49:58.800981  6099 net.cpp:91] Creating Layer inception_3a/3x3
I0403 17:49:58.801004  6099 net.cpp:425] inception_3a/3x3 <- inception_3a/3x3_reduce
I0403 17:49:58.801031  6099 net.cpp:399] inception_3a/3x3 -> inception_3a/3x3
I0403 17:49:58.803021  6099 net.cpp:141] Setting up inception_3a/3x3
I0403 17:49:58.803057  6099 net.cpp:148] Top shape: 24 128 28 28 (2408448)
I0403 17:49:58.803078  6099 net.cpp:156] Memory required for data: 525042720
I0403 17:49:58.803102  6099 layer_factory.hpp:77] Creating layer inception_3a/relu_3x3
I0403 17:49:58.803128  6099 net.cpp:91] Creating Layer inception_3a/relu_3x3
I0403 17:49:58.803149  6099 net.cpp:425] inception_3a/relu_3x3 <- inception_3a/3x3
I0403 17:49:58.803171  6099 net.cpp:386] inception_3a/relu_3x3 -> inception_3a/3x3 (in-place)
I0403 17:49:58.803527  6099 net.cpp:141] Setting up inception_3a/relu_3x3
I0403 17:49:58.803560  6099 net.cpp:148] Top shape: 24 128 28 28 (2408448)
I0403 17:49:58.803580  6099 net.cpp:156] Memory required for data: 534676512
I0403 17:49:58.803599  6099 layer_factory.hpp:77] Creating layer inception_3a/5x5_reduce
I0403 17:49:58.803628  6099 net.cpp:91] Creating Layer inception_3a/5x5_reduce
I0403 17:49:58.803653  6099 net.cpp:425] inception_3a/5x5_reduce <- pool2/3x3_s2_pool2/3x3_s2_0_split_2
I0403 17:49:58.803678  6099 net.cpp:399] inception_3a/5x5_reduce -> inception_3a/5x5_reduce
I0403 17:49:58.804870  6099 net.cpp:141] Setting up inception_3a/5x5_reduce
I0403 17:49:58.804903  6099 net.cpp:148] Top shape: 24 16 28 28 (301056)
I0403 17:49:58.804924  6099 net.cpp:156] Memory required for data: 535880736
I0403 17:49:58.804947  6099 layer_factory.hpp:77] Creating layer inception_3a/relu_5x5_reduce
I0403 17:49:58.804973  6099 net.cpp:91] Creating Layer inception_3a/relu_5x5_reduce
I0403 17:49:58.804996  6099 net.cpp:425] inception_3a/relu_5x5_reduce <- inception_3a/5x5_reduce
I0403 17:49:58.805019  6099 net.cpp:386] inception_3a/relu_5x5_reduce -> inception_3a/5x5_reduce (in-place)
I0403 17:49:58.805380  6099 net.cpp:141] Setting up inception_3a/relu_5x5_reduce
I0403 17:49:58.805416  6099 net.cpp:148] Top shape: 24 16 28 28 (301056)
I0403 17:49:58.805438  6099 net.cpp:156] Memory required for data: 537084960
I0403 17:49:58.805457  6099 layer_factory.hpp:77] Creating layer inception_3a/5x5
I0403 17:49:58.805487  6099 net.cpp:91] Creating Layer inception_3a/5x5
I0403 17:49:58.805510  6099 net.cpp:425] inception_3a/5x5 <- inception_3a/5x5_reduce
I0403 17:49:58.805533  6099 net.cpp:399] inception_3a/5x5 -> inception_3a/5x5
I0403 17:49:58.806792  6099 net.cpp:141] Setting up inception_3a/5x5
I0403 17:49:58.806825  6099 net.cpp:148] Top shape: 24 32 28 28 (602112)
I0403 17:49:58.806845  6099 net.cpp:156] Memory required for data: 539493408
I0403 17:49:58.806869  6099 layer_factory.hpp:77] Creating layer inception_3a/relu_5x5
I0403 17:49:58.806895  6099 net.cpp:91] Creating Layer inception_3a/relu_5x5
I0403 17:49:58.806916  6099 net.cpp:425] inception_3a/relu_5x5 <- inception_3a/5x5
I0403 17:49:58.806939  6099 net.cpp:386] inception_3a/relu_5x5 -> inception_3a/5x5 (in-place)
I0403 17:49:58.807157  6099 net.cpp:141] Setting up inception_3a/relu_5x5
I0403 17:49:58.807195  6099 net.cpp:148] Top shape: 24 32 28 28 (602112)
I0403 17:49:58.807216  6099 net.cpp:156] Memory required for data: 541901856
I0403 17:49:58.807235  6099 layer_factory.hpp:77] Creating layer inception_3a/pool
I0403 17:49:58.807260  6099 net.cpp:91] Creating Layer inception_3a/pool
I0403 17:49:58.807297  6099 net.cpp:425] inception_3a/pool <- pool2/3x3_s2_pool2/3x3_s2_0_split_3
I0403 17:49:58.807322  6099 net.cpp:399] inception_3a/pool -> inception_3a/pool
I0403 17:49:58.807392  6099 net.cpp:141] Setting up inception_3a/pool
I0403 17:49:58.807421  6099 net.cpp:148] Top shape: 24 192 28 28 (3612672)
I0403 17:49:58.807440  6099 net.cpp:156] Memory required for data: 556352544
I0403 17:49:58.807459  6099 layer_factory.hpp:77] Creating layer inception_3a/pool_proj
I0403 17:49:58.807487  6099 net.cpp:91] Creating Layer inception_3a/pool_proj
I0403 17:49:58.807510  6099 net.cpp:425] inception_3a/pool_proj <- inception_3a/pool
I0403 17:49:58.807538  6099 net.cpp:399] inception_3a/pool_proj -> inception_3a/pool_proj
I0403 17:49:58.808727  6099 net.cpp:141] Setting up inception_3a/pool_proj
I0403 17:49:58.808761  6099 net.cpp:148] Top shape: 24 32 28 28 (602112)
I0403 17:49:58.808781  6099 net.cpp:156] Memory required for data: 558760992
I0403 17:49:58.808809  6099 layer_factory.hpp:77] Creating layer inception_3a/relu_pool_proj
I0403 17:49:58.808836  6099 net.cpp:91] Creating Layer inception_3a/relu_pool_proj
I0403 17:49:58.808857  6099 net.cpp:425] inception_3a/relu_pool_proj <- inception_3a/pool_proj
I0403 17:49:58.808879  6099 net.cpp:386] inception_3a/relu_pool_proj -> inception_3a/pool_proj (in-place)
I0403 17:49:58.809213  6099 net.cpp:141] Setting up inception_3a/relu_pool_proj
I0403 17:49:58.809247  6099 net.cpp:148] Top shape: 24 32 28 28 (602112)
I0403 17:49:58.809267  6099 net.cpp:156] Memory required for data: 561169440
I0403 17:49:58.809285  6099 layer_factory.hpp:77] Creating layer inception_3a/output
I0403 17:49:58.809311  6099 net.cpp:91] Creating Layer inception_3a/output
I0403 17:49:58.809334  6099 net.cpp:425] inception_3a/output <- inception_3a/1x1
I0403 17:49:58.809355  6099 net.cpp:425] inception_3a/output <- inception_3a/3x3
I0403 17:49:58.809375  6099 net.cpp:425] inception_3a/output <- inception_3a/5x5
I0403 17:49:58.809394  6099 net.cpp:425] inception_3a/output <- inception_3a/pool_proj
I0403 17:49:58.809417  6099 net.cpp:399] inception_3a/output -> inception_3a/output
I0403 17:49:58.809475  6099 net.cpp:141] Setting up inception_3a/output
I0403 17:49:58.809504  6099 net.cpp:148] Top shape: 24 256 28 28 (4816896)
I0403 17:49:58.809523  6099 net.cpp:156] Memory required for data: 580437024
I0403 17:49:58.809542  6099 layer_factory.hpp:77] Creating layer inception_3a/output_inception_3a/output_0_split
I0403 17:49:58.809566  6099 net.cpp:91] Creating Layer inception_3a/output_inception_3a/output_0_split
I0403 17:49:58.809586  6099 net.cpp:425] inception_3a/output_inception_3a/output_0_split <- inception_3a/output
I0403 17:49:58.809610  6099 net.cpp:399] inception_3a/output_inception_3a/output_0_split -> inception_3a/output_inception_3a/output_0_split_0
I0403 17:49:58.809636  6099 net.cpp:399] inception_3a/output_inception_3a/output_0_split -> inception_3a/output_inception_3a/output_0_split_1
I0403 17:49:58.809667  6099 net.cpp:399] inception_3a/output_inception_3a/output_0_split -> inception_3a/output_inception_3a/output_0_split_2
I0403 17:49:58.809695  6099 net.cpp:399] inception_3a/output_inception_3a/output_0_split -> inception_3a/output_inception_3a/output_0_split_3
I0403 17:49:58.809784  6099 net.cpp:141] Setting up inception_3a/output_inception_3a/output_0_split
I0403 17:49:58.809813  6099 net.cpp:148] Top shape: 24 256 28 28 (4816896)
I0403 17:49:58.809835  6099 net.cpp:148] Top shape: 24 256 28 28 (4816896)
I0403 17:49:58.809855  6099 net.cpp:148] Top shape: 24 256 28 28 (4816896)
I0403 17:49:58.809876  6099 net.cpp:148] Top shape: 24 256 28 28 (4816896)
I0403 17:49:58.809893  6099 net.cpp:156] Memory required for data: 657507360
I0403 17:49:58.809911  6099 layer_factory.hpp:77] Creating layer inception_3b/1x1
I0403 17:49:58.809940  6099 net.cpp:91] Creating Layer inception_3b/1x1
I0403 17:49:58.809962  6099 net.cpp:425] inception_3b/1x1 <- inception_3a/output_inception_3a/output_0_split_0
I0403 17:49:58.809994  6099 net.cpp:399] inception_3b/1x1 -> inception_3b/1x1
I0403 17:49:58.811378  6099 net.cpp:141] Setting up inception_3b/1x1
I0403 17:49:58.811426  6099 net.cpp:148] Top shape: 24 128 28 28 (2408448)
I0403 17:49:58.811447  6099 net.cpp:156] Memory required for data: 667141152
I0403 17:49:58.811472  6099 layer_factory.hpp:77] Creating layer inception_3b/relu_1x1
I0403 17:49:58.811501  6099 net.cpp:91] Creating Layer inception_3b/relu_1x1
I0403 17:49:58.811522  6099 net.cpp:425] inception_3b/relu_1x1 <- inception_3b/1x1
I0403 17:49:58.811545  6099 net.cpp:386] inception_3b/relu_1x1 -> inception_3b/1x1 (in-place)
I0403 17:49:58.811756  6099 net.cpp:141] Setting up inception_3b/relu_1x1
I0403 17:49:58.811787  6099 net.cpp:148] Top shape: 24 128 28 28 (2408448)
I0403 17:49:58.811808  6099 net.cpp:156] Memory required for data: 676774944
I0403 17:49:58.811827  6099 layer_factory.hpp:77] Creating layer inception_3b/3x3_reduce
I0403 17:49:58.811858  6099 net.cpp:91] Creating Layer inception_3b/3x3_reduce
I0403 17:49:58.811882  6099 net.cpp:425] inception_3b/3x3_reduce <- inception_3a/output_inception_3a/output_0_split_1
I0403 17:49:58.811905  6099 net.cpp:399] inception_3b/3x3_reduce -> inception_3b/3x3_reduce
I0403 17:49:58.813288  6099 net.cpp:141] Setting up inception_3b/3x3_reduce
I0403 17:49:58.813323  6099 net.cpp:148] Top shape: 24 128 28 28 (2408448)
I0403 17:49:58.813344  6099 net.cpp:156] Memory required for data: 686408736
I0403 17:49:58.813369  6099 layer_factory.hpp:77] Creating layer inception_3b/relu_3x3_reduce
I0403 17:49:58.813392  6099 net.cpp:91] Creating Layer inception_3b/relu_3x3_reduce
I0403 17:49:58.813415  6099 net.cpp:425] inception_3b/relu_3x3_reduce <- inception_3b/3x3_reduce
I0403 17:49:58.813439  6099 net.cpp:386] inception_3b/relu_3x3_reduce -> inception_3b/3x3_reduce (in-place)
I0403 17:49:58.813650  6099 net.cpp:141] Setting up inception_3b/relu_3x3_reduce
I0403 17:49:58.813683  6099 net.cpp:148] Top shape: 24 128 28 28 (2408448)
I0403 17:49:58.813702  6099 net.cpp:156] Memory required for data: 696042528
I0403 17:49:58.813721  6099 layer_factory.hpp:77] Creating layer inception_3b/3x3
I0403 17:49:58.813755  6099 net.cpp:91] Creating Layer inception_3b/3x3
I0403 17:49:58.813777  6099 net.cpp:425] inception_3b/3x3 <- inception_3b/3x3_reduce
I0403 17:49:58.813805  6099 net.cpp:399] inception_3b/3x3 -> inception_3b/3x3
I0403 17:49:58.817361  6099 net.cpp:141] Setting up inception_3b/3x3
I0403 17:49:58.817395  6099 net.cpp:148] Top shape: 24 192 28 28 (3612672)
I0403 17:49:58.817415  6099 net.cpp:156] Memory required for data: 710493216
I0403 17:49:58.817440  6099 layer_factory.hpp:77] Creating layer inception_3b/relu_3x3
I0403 17:49:58.817466  6099 net.cpp:91] Creating Layer inception_3b/relu_3x3
I0403 17:49:58.817487  6099 net.cpp:425] inception_3b/relu_3x3 <- inception_3b/3x3
I0403 17:49:58.817509  6099 net.cpp:386] inception_3b/relu_3x3 -> inception_3b/3x3 (in-place)
I0403 17:49:58.817838  6099 net.cpp:141] Setting up inception_3b/relu_3x3
I0403 17:49:58.817873  6099 net.cpp:148] Top shape: 24 192 28 28 (3612672)
I0403 17:49:58.817893  6099 net.cpp:156] Memory required for data: 724943904
I0403 17:49:58.817911  6099 layer_factory.hpp:77] Creating layer inception_3b/5x5_reduce
I0403 17:49:58.817942  6099 net.cpp:91] Creating Layer inception_3b/5x5_reduce
I0403 17:49:58.817970  6099 net.cpp:425] inception_3b/5x5_reduce <- inception_3a/output_inception_3a/output_0_split_2
I0403 17:49:58.817993  6099 net.cpp:399] inception_3b/5x5_reduce -> inception_3b/5x5_reduce
I0403 17:49:58.819201  6099 net.cpp:141] Setting up inception_3b/5x5_reduce
I0403 17:49:58.819236  6099 net.cpp:148] Top shape: 24 32 28 28 (602112)
I0403 17:49:58.819257  6099 net.cpp:156] Memory required for data: 727352352
I0403 17:49:58.819280  6099 layer_factory.hpp:77] Creating layer inception_3b/relu_5x5_reduce
I0403 17:49:58.819306  6099 net.cpp:91] Creating Layer inception_3b/relu_5x5_reduce
I0403 17:49:58.819329  6099 net.cpp:425] inception_3b/relu_5x5_reduce <- inception_3b/5x5_reduce
I0403 17:49:58.819350  6099 net.cpp:386] inception_3b/relu_5x5_reduce -> inception_3b/5x5_reduce (in-place)
I0403 17:49:58.819589  6099 net.cpp:141] Setting up inception_3b/relu_5x5_reduce
I0403 17:49:58.819623  6099 net.cpp:148] Top shape: 24 32 28 28 (602112)
I0403 17:49:58.819643  6099 net.cpp:156] Memory required for data: 729760800
I0403 17:49:58.819664  6099 layer_factory.hpp:77] Creating layer inception_3b/5x5
I0403 17:49:58.819692  6099 net.cpp:91] Creating Layer inception_3b/5x5
I0403 17:49:58.819715  6099 net.cpp:425] inception_3b/5x5 <- inception_3b/5x5_reduce
I0403 17:49:58.819739  6099 net.cpp:399] inception_3b/5x5 -> inception_3b/5x5
I0403 17:49:58.822198  6099 net.cpp:141] Setting up inception_3b/5x5
I0403 17:49:58.822237  6099 net.cpp:148] Top shape: 24 96 28 28 (1806336)
I0403 17:49:58.822258  6099 net.cpp:156] Memory required for data: 736986144
I0403 17:49:58.822283  6099 layer_factory.hpp:77] Creating layer inception_3b/relu_5x5
I0403 17:49:58.822309  6099 net.cpp:91] Creating Layer inception_3b/relu_5x5
I0403 17:49:58.822343  6099 net.cpp:425] inception_3b/relu_5x5 <- inception_3b/5x5
I0403 17:49:58.822433  6099 net.cpp:386] inception_3b/relu_5x5 -> inception_3b/5x5 (in-place)
I0403 17:49:58.822885  6099 net.cpp:141] Setting up inception_3b/relu_5x5
I0403 17:49:58.822938  6099 net.cpp:148] Top shape: 24 96 28 28 (1806336)
I0403 17:49:58.822979  6099 net.cpp:156] Memory required for data: 744211488
I0403 17:49:58.823004  6099 layer_factory.hpp:77] Creating layer inception_3b/pool
I0403 17:49:58.823073  6099 net.cpp:91] Creating Layer inception_3b/pool
I0403 17:49:58.823101  6099 net.cpp:425] inception_3b/pool <- inception_3a/output_inception_3a/output_0_split_3
I0403 17:49:58.823124  6099 net.cpp:399] inception_3b/pool -> inception_3b/pool
I0403 17:49:58.823210  6099 net.cpp:141] Setting up inception_3b/pool
I0403 17:49:58.823261  6099 net.cpp:148] Top shape: 24 256 28 28 (4816896)
I0403 17:49:58.823282  6099 net.cpp:156] Memory required for data: 763479072
I0403 17:49:58.823303  6099 layer_factory.hpp:77] Creating layer inception_3b/pool_proj
I0403 17:49:58.823331  6099 net.cpp:91] Creating Layer inception_3b/pool_proj
I0403 17:49:58.823354  6099 net.cpp:425] inception_3b/pool_proj <- inception_3b/pool
I0403 17:49:58.823384  6099 net.cpp:399] inception_3b/pool_proj -> inception_3b/pool_proj
I0403 17:49:58.824748  6099 net.cpp:141] Setting up inception_3b/pool_proj
I0403 17:49:58.824817  6099 net.cpp:148] Top shape: 24 64 28 28 (1204224)
I0403 17:49:58.824856  6099 net.cpp:156] Memory required for data: 768295968
I0403 17:49:58.824879  6099 layer_factory.hpp:77] Creating layer inception_3b/relu_pool_proj
I0403 17:49:58.824903  6099 net.cpp:91] Creating Layer inception_3b/relu_pool_proj
I0403 17:49:58.824930  6099 net.cpp:425] inception_3b/relu_pool_proj <- inception_3b/pool_proj
I0403 17:49:58.824959  6099 net.cpp:386] inception_3b/relu_pool_proj -> inception_3b/pool_proj (in-place)
I0403 17:49:58.825433  6099 net.cpp:141] Setting up inception_3b/relu_pool_proj
I0403 17:49:58.825476  6099 net.cpp:148] Top shape: 24 64 28 28 (1204224)
I0403 17:49:58.825500  6099 net.cpp:156] Memory required for data: 773112864
I0403 17:49:58.825520  6099 layer_factory.hpp:77] Creating layer inception_3b/output
I0403 17:49:58.825542  6099 net.cpp:91] Creating Layer inception_3b/output
I0403 17:49:58.825562  6099 net.cpp:425] inception_3b/output <- inception_3b/1x1
I0403 17:49:58.825583  6099 net.cpp:425] inception_3b/output <- inception_3b/3x3
I0403 17:49:58.825604  6099 net.cpp:425] inception_3b/output <- inception_3b/5x5
I0403 17:49:58.825624  6099 net.cpp:425] inception_3b/output <- inception_3b/pool_proj
I0403 17:49:58.825646  6099 net.cpp:399] inception_3b/output -> inception_3b/output
I0403 17:49:58.825701  6099 net.cpp:141] Setting up inception_3b/output
I0403 17:49:58.825731  6099 net.cpp:148] Top shape: 24 480 28 28 (9031680)
I0403 17:49:58.825750  6099 net.cpp:156] Memory required for data: 809239584
I0403 17:49:58.825769  6099 layer_factory.hpp:77] Creating layer pool3/3x3_s2
I0403 17:49:58.825794  6099 net.cpp:91] Creating Layer pool3/3x3_s2
I0403 17:49:58.825816  6099 net.cpp:425] pool3/3x3_s2 <- inception_3b/output
I0403 17:49:58.825858  6099 net.cpp:399] pool3/3x3_s2 -> pool3/3x3_s2
I0403 17:49:58.825932  6099 net.cpp:141] Setting up pool3/3x3_s2
I0403 17:49:58.825961  6099 net.cpp:148] Top shape: 24 480 14 14 (2257920)
I0403 17:49:58.825981  6099 net.cpp:156] Memory required for data: 818271264
I0403 17:49:58.825999  6099 layer_factory.hpp:77] Creating layer pool3/3x3_s2_pool3/3x3_s2_0_split
I0403 17:49:58.826020  6099 net.cpp:91] Creating Layer pool3/3x3_s2_pool3/3x3_s2_0_split
I0403 17:49:58.826040  6099 net.cpp:425] pool3/3x3_s2_pool3/3x3_s2_0_split <- pool3/3x3_s2
I0403 17:49:58.826066  6099 net.cpp:399] pool3/3x3_s2_pool3/3x3_s2_0_split -> pool3/3x3_s2_pool3/3x3_s2_0_split_0
I0403 17:49:58.826092  6099 net.cpp:399] pool3/3x3_s2_pool3/3x3_s2_0_split -> pool3/3x3_s2_pool3/3x3_s2_0_split_1
I0403 17:49:58.826117  6099 net.cpp:399] pool3/3x3_s2_pool3/3x3_s2_0_split -> pool3/3x3_s2_pool3/3x3_s2_0_split_2
I0403 17:49:58.826141  6099 net.cpp:399] pool3/3x3_s2_pool3/3x3_s2_0_split -> pool3/3x3_s2_pool3/3x3_s2_0_split_3
I0403 17:49:58.826239  6099 net.cpp:141] Setting up pool3/3x3_s2_pool3/3x3_s2_0_split
I0403 17:49:58.826272  6099 net.cpp:148] Top shape: 24 480 14 14 (2257920)
I0403 17:49:58.826293  6099 net.cpp:148] Top shape: 24 480 14 14 (2257920)
I0403 17:49:58.826314  6099 net.cpp:148] Top shape: 24 480 14 14 (2257920)
I0403 17:49:58.826335  6099 net.cpp:148] Top shape: 24 480 14 14 (2257920)
I0403 17:49:58.826354  6099 net.cpp:156] Memory required for data: 854397984
I0403 17:49:58.826372  6099 layer_factory.hpp:77] Creating layer inception_4a/1x1
I0403 17:49:58.826400  6099 net.cpp:91] Creating Layer inception_4a/1x1
I0403 17:49:58.826422  6099 net.cpp:425] inception_4a/1x1 <- pool3/3x3_s2_pool3/3x3_s2_0_split_0
I0403 17:49:58.826447  6099 net.cpp:399] inception_4a/1x1 -> inception_4a/1x1
I0403 17:49:58.828456  6099 net.cpp:141] Setting up inception_4a/1x1
I0403 17:49:58.828490  6099 net.cpp:148] Top shape: 24 192 14 14 (903168)
I0403 17:49:58.828511  6099 net.cpp:156] Memory required for data: 858010656
I0403 17:49:58.828534  6099 layer_factory.hpp:77] Creating layer inception_4a/relu_1x1
I0403 17:49:58.828558  6099 net.cpp:91] Creating Layer inception_4a/relu_1x1
I0403 17:49:58.828578  6099 net.cpp:425] inception_4a/relu_1x1 <- inception_4a/1x1
I0403 17:49:58.828603  6099 net.cpp:386] inception_4a/relu_1x1 -> inception_4a/1x1 (in-place)
I0403 17:49:58.828824  6099 net.cpp:141] Setting up inception_4a/relu_1x1
I0403 17:49:58.828855  6099 net.cpp:148] Top shape: 24 192 14 14 (903168)
I0403 17:49:58.828874  6099 net.cpp:156] Memory required for data: 861623328
I0403 17:49:58.828893  6099 layer_factory.hpp:77] Creating layer inception_4a/3x3_reduce
I0403 17:49:58.828922  6099 net.cpp:91] Creating Layer inception_4a/3x3_reduce
I0403 17:49:58.828944  6099 net.cpp:425] inception_4a/3x3_reduce <- pool3/3x3_s2_pool3/3x3_s2_0_split_1
I0403 17:49:58.828970  6099 net.cpp:399] inception_4a/3x3_reduce -> inception_4a/3x3_reduce
I0403 17:49:58.830539  6099 net.cpp:141] Setting up inception_4a/3x3_reduce
I0403 17:49:58.830575  6099 net.cpp:148] Top shape: 24 96 14 14 (451584)
I0403 17:49:58.830597  6099 net.cpp:156] Memory required for data: 863429664
I0403 17:49:58.830631  6099 layer_factory.hpp:77] Creating layer inception_4a/relu_3x3_reduce
I0403 17:49:58.830654  6099 net.cpp:91] Creating Layer inception_4a/relu_3x3_reduce
I0403 17:49:58.830675  6099 net.cpp:425] inception_4a/relu_3x3_reduce <- inception_4a/3x3_reduce
I0403 17:49:58.830698  6099 net.cpp:386] inception_4a/relu_3x3_reduce -> inception_4a/3x3_reduce (in-place)
I0403 17:49:58.830915  6099 net.cpp:141] Setting up inception_4a/relu_3x3_reduce
I0403 17:49:58.830946  6099 net.cpp:148] Top shape: 24 96 14 14 (451584)
I0403 17:49:58.830965  6099 net.cpp:156] Memory required for data: 865236000
I0403 17:49:58.830986  6099 layer_factory.hpp:77] Creating layer inception_4a/3x3
I0403 17:49:58.831012  6099 net.cpp:91] Creating Layer inception_4a/3x3
I0403 17:49:58.831035  6099 net.cpp:425] inception_4a/3x3 <- inception_4a/3x3_reduce
I0403 17:49:58.831063  6099 net.cpp:399] inception_4a/3x3 -> inception_4a/3x3
I0403 17:49:58.834389  6099 net.cpp:141] Setting up inception_4a/3x3
I0403 17:49:58.834424  6099 net.cpp:148] Top shape: 24 208 14 14 (978432)
I0403 17:49:58.834444  6099 net.cpp:156] Memory required for data: 869149728
I0403 17:49:58.834470  6099 layer_factory.hpp:77] Creating layer inception_4a/relu_3x3
I0403 17:49:58.834496  6099 net.cpp:91] Creating Layer inception_4a/relu_3x3
I0403 17:49:58.834518  6099 net.cpp:425] inception_4a/relu_3x3 <- inception_4a/3x3
I0403 17:49:58.834542  6099 net.cpp:386] inception_4a/relu_3x3 -> inception_4a/3x3 (in-place)
I0403 17:49:58.834882  6099 net.cpp:141] Setting up inception_4a/relu_3x3
I0403 17:49:58.834915  6099 net.cpp:148] Top shape: 24 208 14 14 (978432)
I0403 17:49:58.834935  6099 net.cpp:156] Memory required for data: 873063456
I0403 17:49:58.834954  6099 layer_factory.hpp:77] Creating layer inception_4a/5x5_reduce
I0403 17:49:58.834985  6099 net.cpp:91] Creating Layer inception_4a/5x5_reduce
I0403 17:49:58.835006  6099 net.cpp:425] inception_4a/5x5_reduce <- pool3/3x3_s2_pool3/3x3_s2_0_split_2
I0403 17:49:58.835033  6099 net.cpp:399] inception_4a/5x5_reduce -> inception_4a/5x5_reduce
I0403 17:49:58.836311  6099 net.cpp:141] Setting up inception_4a/5x5_reduce
I0403 17:49:58.836344  6099 net.cpp:148] Top shape: 24 16 14 14 (75264)
I0403 17:49:58.836365  6099 net.cpp:156] Memory required for data: 873364512
I0403 17:49:58.836390  6099 layer_factory.hpp:77] Creating layer inception_4a/relu_5x5_reduce
I0403 17:49:58.836415  6099 net.cpp:91] Creating Layer inception_4a/relu_5x5_reduce
I0403 17:49:58.836436  6099 net.cpp:425] inception_4a/relu_5x5_reduce <- inception_4a/5x5_reduce
I0403 17:49:58.836458  6099 net.cpp:386] inception_4a/relu_5x5_reduce -> inception_4a/5x5_reduce (in-place)
I0403 17:49:58.836674  6099 net.cpp:141] Setting up inception_4a/relu_5x5_reduce
I0403 17:49:58.836710  6099 net.cpp:148] Top shape: 24 16 14 14 (75264)
I0403 17:49:58.836730  6099 net.cpp:156] Memory required for data: 873665568
I0403 17:49:58.836750  6099 layer_factory.hpp:77] Creating layer inception_4a/5x5
I0403 17:49:58.836783  6099 net.cpp:91] Creating Layer inception_4a/5x5
I0403 17:49:58.836805  6099 net.cpp:425] inception_4a/5x5 <- inception_4a/5x5_reduce
I0403 17:49:58.836829  6099 net.cpp:399] inception_4a/5x5 -> inception_4a/5x5
I0403 17:49:58.838196  6099 net.cpp:141] Setting up inception_4a/5x5
I0403 17:49:58.838233  6099 net.cpp:148] Top shape: 24 48 14 14 (225792)
I0403 17:49:58.838254  6099 net.cpp:156] Memory required for data: 874568736
I0403 17:49:58.838279  6099 layer_factory.hpp:77] Creating layer inception_4a/relu_5x5
I0403 17:49:58.838302  6099 net.cpp:91] Creating Layer inception_4a/relu_5x5
I0403 17:49:58.838323  6099 net.cpp:425] inception_4a/relu_5x5 <- inception_4a/5x5
I0403 17:49:58.838351  6099 net.cpp:386] inception_4a/relu_5x5 -> inception_4a/5x5 (in-place)
I0403 17:49:58.838569  6099 net.cpp:141] Setting up inception_4a/relu_5x5
I0403 17:49:58.838601  6099 net.cpp:148] Top shape: 24 48 14 14 (225792)
I0403 17:49:58.838620  6099 net.cpp:156] Memory required for data: 875471904
I0403 17:49:58.838639  6099 layer_factory.hpp:77] Creating layer inception_4a/pool
I0403 17:49:58.838662  6099 net.cpp:91] Creating Layer inception_4a/pool
I0403 17:49:58.838683  6099 net.cpp:425] inception_4a/pool <- pool3/3x3_s2_pool3/3x3_s2_0_split_3
I0403 17:49:58.838709  6099 net.cpp:399] inception_4a/pool -> inception_4a/pool
I0403 17:49:58.838783  6099 net.cpp:141] Setting up inception_4a/pool
I0403 17:49:58.838812  6099 net.cpp:148] Top shape: 24 480 14 14 (2257920)
I0403 17:49:58.838831  6099 net.cpp:156] Memory required for data: 884503584
I0403 17:49:58.838850  6099 layer_factory.hpp:77] Creating layer inception_4a/pool_proj
I0403 17:49:58.838881  6099 net.cpp:91] Creating Layer inception_4a/pool_proj
I0403 17:49:58.838903  6099 net.cpp:425] inception_4a/pool_proj <- inception_4a/pool
I0403 17:49:58.838928  6099 net.cpp:399] inception_4a/pool_proj -> inception_4a/pool_proj
I0403 17:49:58.840338  6099 net.cpp:141] Setting up inception_4a/pool_proj
I0403 17:49:58.840376  6099 net.cpp:148] Top shape: 24 64 14 14 (301056)
I0403 17:49:58.840415  6099 net.cpp:156] Memory required for data: 885707808
I0403 17:49:58.840440  6099 layer_factory.hpp:77] Creating layer inception_4a/relu_pool_proj
I0403 17:49:58.840462  6099 net.cpp:91] Creating Layer inception_4a/relu_pool_proj
I0403 17:49:58.840483  6099 net.cpp:425] inception_4a/relu_pool_proj <- inception_4a/pool_proj
I0403 17:49:58.840510  6099 net.cpp:386] inception_4a/relu_pool_proj -> inception_4a/pool_proj (in-place)
I0403 17:49:58.840847  6099 net.cpp:141] Setting up inception_4a/relu_pool_proj
I0403 17:49:58.840886  6099 net.cpp:148] Top shape: 24 64 14 14 (301056)
I0403 17:49:58.840908  6099 net.cpp:156] Memory required for data: 886912032
I0403 17:49:58.840927  6099 layer_factory.hpp:77] Creating layer inception_4a/output
I0403 17:49:58.840950  6099 net.cpp:91] Creating Layer inception_4a/output
I0403 17:49:58.840970  6099 net.cpp:425] inception_4a/output <- inception_4a/1x1
I0403 17:49:58.840991  6099 net.cpp:425] inception_4a/output <- inception_4a/3x3
I0403 17:49:58.841012  6099 net.cpp:425] inception_4a/output <- inception_4a/5x5
I0403 17:49:58.841032  6099 net.cpp:425] inception_4a/output <- inception_4a/pool_proj
I0403 17:49:58.841058  6099 net.cpp:399] inception_4a/output -> inception_4a/output
I0403 17:49:58.841111  6099 net.cpp:141] Setting up inception_4a/output
I0403 17:49:58.841141  6099 net.cpp:148] Top shape: 24 512 14 14 (2408448)
I0403 17:49:58.841161  6099 net.cpp:156] Memory required for data: 896545824
I0403 17:49:58.841184  6099 layer_factory.hpp:77] Creating layer inception_4a/output_inception_4a/output_0_split
I0403 17:49:58.841212  6099 net.cpp:91] Creating Layer inception_4a/output_inception_4a/output_0_split
I0403 17:49:58.841234  6099 net.cpp:425] inception_4a/output_inception_4a/output_0_split <- inception_4a/output
I0403 17:49:58.841258  6099 net.cpp:399] inception_4a/output_inception_4a/output_0_split -> inception_4a/output_inception_4a/output_0_split_0
I0403 17:49:58.841286  6099 net.cpp:399] inception_4a/output_inception_4a/output_0_split -> inception_4a/output_inception_4a/output_0_split_1
I0403 17:49:58.841313  6099 net.cpp:399] inception_4a/output_inception_4a/output_0_split -> inception_4a/output_inception_4a/output_0_split_2
I0403 17:49:58.841341  6099 net.cpp:399] inception_4a/output_inception_4a/output_0_split -> inception_4a/output_inception_4a/output_0_split_3
I0403 17:49:58.841366  6099 net.cpp:399] inception_4a/output_inception_4a/output_0_split -> inception_4a/output_inception_4a/output_0_split_4
I0403 17:49:58.841477  6099 net.cpp:141] Setting up inception_4a/output_inception_4a/output_0_split
I0403 17:49:58.841506  6099 net.cpp:148] Top shape: 24 512 14 14 (2408448)
I0403 17:49:58.841527  6099 net.cpp:148] Top shape: 24 512 14 14 (2408448)
I0403 17:49:58.841547  6099 net.cpp:148] Top shape: 24 512 14 14 (2408448)
I0403 17:49:58.841567  6099 net.cpp:148] Top shape: 24 512 14 14 (2408448)
I0403 17:49:58.841588  6099 net.cpp:148] Top shape: 24 512 14 14 (2408448)
I0403 17:49:58.841606  6099 net.cpp:156] Memory required for data: 944714784
I0403 17:49:58.841625  6099 layer_factory.hpp:77] Creating layer loss1/ave_pool
I0403 17:49:58.841651  6099 net.cpp:91] Creating Layer loss1/ave_pool
I0403 17:49:58.841672  6099 net.cpp:425] loss1/ave_pool <- inception_4a/output_inception_4a/output_0_split_0
I0403 17:49:58.841696  6099 net.cpp:399] loss1/ave_pool -> loss1/ave_pool
I0403 17:49:58.841945  6099 net.cpp:141] Setting up loss1/ave_pool
I0403 17:49:58.841980  6099 net.cpp:148] Top shape: 24 512 4 4 (196608)
I0403 17:49:58.842000  6099 net.cpp:156] Memory required for data: 945501216
I0403 17:49:58.842020  6099 layer_factory.hpp:77] Creating layer loss1/conv
I0403 17:49:58.842048  6099 net.cpp:91] Creating Layer loss1/conv
I0403 17:49:58.842070  6099 net.cpp:425] loss1/conv <- loss1/ave_pool
I0403 17:49:58.842094  6099 net.cpp:399] loss1/conv -> loss1/conv
I0403 17:49:58.843816  6099 net.cpp:141] Setting up loss1/conv
I0403 17:49:58.843850  6099 net.cpp:148] Top shape: 24 128 4 4 (49152)
I0403 17:49:58.843888  6099 net.cpp:156] Memory required for data: 945697824
I0403 17:49:58.843912  6099 layer_factory.hpp:77] Creating layer loss1/relu_conv
I0403 17:49:58.843940  6099 net.cpp:91] Creating Layer loss1/relu_conv
I0403 17:49:58.843961  6099 net.cpp:425] loss1/relu_conv <- loss1/conv
I0403 17:49:58.843983  6099 net.cpp:386] loss1/relu_conv -> loss1/conv (in-place)
I0403 17:49:58.844329  6099 net.cpp:141] Setting up loss1/relu_conv
I0403 17:49:58.844362  6099 net.cpp:148] Top shape: 24 128 4 4 (49152)
I0403 17:49:58.844382  6099 net.cpp:156] Memory required for data: 945894432
I0403 17:49:58.844400  6099 layer_factory.hpp:77] Creating layer loss1/fc
I0403 17:49:58.844434  6099 net.cpp:91] Creating Layer loss1/fc
I0403 17:49:58.844458  6099 net.cpp:425] loss1/fc <- loss1/conv
I0403 17:49:58.844483  6099 net.cpp:399] loss1/fc -> loss1/fc
I0403 17:49:58.866551  6099 net.cpp:141] Setting up loss1/fc
I0403 17:49:58.866596  6099 net.cpp:148] Top shape: 24 1024 (24576)
I0403 17:49:58.866616  6099 net.cpp:156] Memory required for data: 945992736
I0403 17:49:58.866641  6099 layer_factory.hpp:77] Creating layer loss1/relu_fc
I0403 17:49:58.866664  6099 net.cpp:91] Creating Layer loss1/relu_fc
I0403 17:49:58.866685  6099 net.cpp:425] loss1/relu_fc <- loss1/fc
I0403 17:49:58.866710  6099 net.cpp:386] loss1/relu_fc -> loss1/fc (in-place)
I0403 17:49:58.866937  6099 net.cpp:141] Setting up loss1/relu_fc
I0403 17:49:58.866971  6099 net.cpp:148] Top shape: 24 1024 (24576)
I0403 17:49:58.866989  6099 net.cpp:156] Memory required for data: 946091040
I0403 17:49:58.867008  6099 layer_factory.hpp:77] Creating layer loss1/drop_fc
I0403 17:49:58.867040  6099 net.cpp:91] Creating Layer loss1/drop_fc
I0403 17:49:58.867063  6099 net.cpp:425] loss1/drop_fc <- loss1/fc
I0403 17:49:58.867090  6099 net.cpp:386] loss1/drop_fc -> loss1/fc (in-place)
I0403 17:49:58.867154  6099 net.cpp:141] Setting up loss1/drop_fc
I0403 17:49:58.867202  6099 net.cpp:148] Top shape: 24 1024 (24576)
I0403 17:49:58.867225  6099 net.cpp:156] Memory required for data: 946189344
I0403 17:49:58.867245  6099 layer_factory.hpp:77] Creating layer loss1/classifier_plantvillage
I0403 17:49:58.867270  6099 net.cpp:91] Creating Layer loss1/classifier_plantvillage
I0403 17:49:58.867292  6099 net.cpp:425] loss1/classifier_plantvillage <- loss1/fc
I0403 17:49:58.867321  6099 net.cpp:399] loss1/classifier_plantvillage -> loss1/classifier_plantvillage
I0403 17:49:58.868489  6099 net.cpp:141] Setting up loss1/classifier_plantvillage
I0403 17:49:58.868525  6099 net.cpp:148] Top shape: 24 38 (912)
I0403 17:49:58.868544  6099 net.cpp:156] Memory required for data: 946192992
I0403 17:49:58.868567  6099 layer_factory.hpp:77] Creating layer loss1/classifier_plantvillage_loss1/classifier_plantvillage_0_split
I0403 17:49:58.868592  6099 net.cpp:91] Creating Layer loss1/classifier_plantvillage_loss1/classifier_plantvillage_0_split
I0403 17:49:58.868613  6099 net.cpp:425] loss1/classifier_plantvillage_loss1/classifier_plantvillage_0_split <- loss1/classifier_plantvillage
I0403 17:49:58.868639  6099 net.cpp:399] loss1/classifier_plantvillage_loss1/classifier_plantvillage_0_split -> loss1/classifier_plantvillage_loss1/classifier_plantvillage_0_split_0
I0403 17:49:58.868666  6099 net.cpp:399] loss1/classifier_plantvillage_loss1/classifier_plantvillage_0_split -> loss1/classifier_plantvillage_loss1/classifier_plantvillage_0_split_1
I0403 17:49:58.868692  6099 net.cpp:399] loss1/classifier_plantvillage_loss1/classifier_plantvillage_0_split -> loss1/classifier_plantvillage_loss1/classifier_plantvillage_0_split_2
I0403 17:49:58.868782  6099 net.cpp:141] Setting up loss1/classifier_plantvillage_loss1/classifier_plantvillage_0_split
I0403 17:49:58.868810  6099 net.cpp:148] Top shape: 24 38 (912)
I0403 17:49:58.868832  6099 net.cpp:148] Top shape: 24 38 (912)
I0403 17:49:58.868852  6099 net.cpp:148] Top shape: 24 38 (912)
I0403 17:49:58.868870  6099 net.cpp:156] Memory required for data: 946203936
I0403 17:49:58.868890  6099 layer_factory.hpp:77] Creating layer inception_4b/1x1
I0403 17:49:58.868918  6099 net.cpp:91] Creating Layer inception_4b/1x1
I0403 17:49:58.868960  6099 net.cpp:425] inception_4b/1x1 <- inception_4a/output_inception_4a/output_0_split_1
I0403 17:49:58.868986  6099 net.cpp:399] inception_4b/1x1 -> inception_4b/1x1
I0403 17:49:58.870981  6099 net.cpp:141] Setting up inception_4b/1x1
I0403 17:49:58.871017  6099 net.cpp:148] Top shape: 24 160 14 14 (752640)
I0403 17:49:58.871037  6099 net.cpp:156] Memory required for data: 949214496
I0403 17:49:58.871062  6099 layer_factory.hpp:77] Creating layer inception_4b/relu_1x1
I0403 17:49:58.871088  6099 net.cpp:91] Creating Layer inception_4b/relu_1x1
I0403 17:49:58.871110  6099 net.cpp:425] inception_4b/relu_1x1 <- inception_4b/1x1
I0403 17:49:58.871134  6099 net.cpp:386] inception_4b/relu_1x1 -> inception_4b/1x1 (in-place)
I0403 17:49:58.871359  6099 net.cpp:141] Setting up inception_4b/relu_1x1
I0403 17:49:58.871394  6099 net.cpp:148] Top shape: 24 160 14 14 (752640)
I0403 17:49:58.871414  6099 net.cpp:156] Memory required for data: 952225056
I0403 17:49:58.871433  6099 layer_factory.hpp:77] Creating layer inception_4b/3x3_reduce
I0403 17:49:58.871464  6099 net.cpp:91] Creating Layer inception_4b/3x3_reduce
I0403 17:49:58.871489  6099 net.cpp:425] inception_4b/3x3_reduce <- inception_4a/output_inception_4a/output_0_split_2
I0403 17:49:58.871513  6099 net.cpp:399] inception_4b/3x3_reduce -> inception_4b/3x3_reduce
I0403 17:49:58.873210  6099 net.cpp:141] Setting up inception_4b/3x3_reduce
I0403 17:49:58.873250  6099 net.cpp:148] Top shape: 24 112 14 14 (526848)
I0403 17:49:58.873270  6099 net.cpp:156] Memory required for data: 954332448
I0403 17:49:58.873296  6099 layer_factory.hpp:77] Creating layer inception_4b/relu_3x3_reduce
I0403 17:49:58.873319  6099 net.cpp:91] Creating Layer inception_4b/relu_3x3_reduce
I0403 17:49:58.873340  6099 net.cpp:425] inception_4b/relu_3x3_reduce <- inception_4b/3x3_reduce
I0403 17:49:58.873363  6099 net.cpp:386] inception_4b/relu_3x3_reduce -> inception_4b/3x3_reduce (in-place)
I0403 17:49:58.873703  6099 net.cpp:141] Setting up inception_4b/relu_3x3_reduce
I0403 17:49:58.873739  6099 net.cpp:148] Top shape: 24 112 14 14 (526848)
I0403 17:49:58.873759  6099 net.cpp:156] Memory required for data: 956439840
I0403 17:49:58.873780  6099 layer_factory.hpp:77] Creating layer inception_4b/3x3
I0403 17:49:58.873805  6099 net.cpp:91] Creating Layer inception_4b/3x3
I0403 17:49:58.873826  6099 net.cpp:425] inception_4b/3x3 <- inception_4b/3x3_reduce
I0403 17:49:58.873853  6099 net.cpp:399] inception_4b/3x3 -> inception_4b/3x3
I0403 17:49:58.877493  6099 net.cpp:141] Setting up inception_4b/3x3
I0403 17:49:58.877532  6099 net.cpp:148] Top shape: 24 224 14 14 (1053696)
I0403 17:49:58.877552  6099 net.cpp:156] Memory required for data: 960654624
I0403 17:49:58.877576  6099 layer_factory.hpp:77] Creating layer inception_4b/relu_3x3
I0403 17:49:58.877599  6099 net.cpp:91] Creating Layer inception_4b/relu_3x3
I0403 17:49:58.877619  6099 net.cpp:425] inception_4b/relu_3x3 <- inception_4b/3x3
I0403 17:49:58.877645  6099 net.cpp:386] inception_4b/relu_3x3 -> inception_4b/3x3 (in-place)
I0403 17:49:58.877866  6099 net.cpp:141] Setting up inception_4b/relu_3x3
I0403 17:49:58.877897  6099 net.cpp:148] Top shape: 24 224 14 14 (1053696)
I0403 17:49:58.877918  6099 net.cpp:156] Memory required for data: 964869408
I0403 17:49:58.877936  6099 layer_factory.hpp:77] Creating layer inception_4b/5x5_reduce
I0403 17:49:58.877965  6099 net.cpp:91] Creating Layer inception_4b/5x5_reduce
I0403 17:49:58.877987  6099 net.cpp:425] inception_4b/5x5_reduce <- inception_4a/output_inception_4a/output_0_split_3
I0403 17:49:58.878015  6099 net.cpp:399] inception_4b/5x5_reduce -> inception_4b/5x5_reduce
I0403 17:49:58.879382  6099 net.cpp:141] Setting up inception_4b/5x5_reduce
I0403 17:49:58.879416  6099 net.cpp:148] Top shape: 24 24 14 14 (112896)
I0403 17:49:58.879436  6099 net.cpp:156] Memory required for data: 965320992
I0403 17:49:58.879459  6099 layer_factory.hpp:77] Creating layer inception_4b/relu_5x5_reduce
I0403 17:49:58.879485  6099 net.cpp:91] Creating Layer inception_4b/relu_5x5_reduce
I0403 17:49:58.879524  6099 net.cpp:425] inception_4b/relu_5x5_reduce <- inception_4b/5x5_reduce
I0403 17:49:58.879549  6099 net.cpp:386] inception_4b/relu_5x5_reduce -> inception_4b/5x5_reduce (in-place)
I0403 17:49:58.879781  6099 net.cpp:141] Setting up inception_4b/relu_5x5_reduce
I0403 17:49:58.879815  6099 net.cpp:148] Top shape: 24 24 14 14 (112896)
I0403 17:49:58.879837  6099 net.cpp:156] Memory required for data: 965772576
I0403 17:49:58.879858  6099 layer_factory.hpp:77] Creating layer inception_4b/5x5
I0403 17:49:58.879885  6099 net.cpp:91] Creating Layer inception_4b/5x5
I0403 17:49:58.879909  6099 net.cpp:425] inception_4b/5x5 <- inception_4b/5x5_reduce
I0403 17:49:58.879931  6099 net.cpp:399] inception_4b/5x5 -> inception_4b/5x5
I0403 17:49:58.881435  6099 net.cpp:141] Setting up inception_4b/5x5
I0403 17:49:58.881471  6099 net.cpp:148] Top shape: 24 64 14 14 (301056)
I0403 17:49:58.881491  6099 net.cpp:156] Memory required for data: 966976800
I0403 17:49:58.881515  6099 layer_factory.hpp:77] Creating layer inception_4b/relu_5x5
I0403 17:49:58.881541  6099 net.cpp:91] Creating Layer inception_4b/relu_5x5
I0403 17:49:58.881564  6099 net.cpp:425] inception_4b/relu_5x5 <- inception_4b/5x5
I0403 17:49:58.881587  6099 net.cpp:386] inception_4b/relu_5x5 -> inception_4b/5x5 (in-place)
I0403 17:49:58.881937  6099 net.cpp:141] Setting up inception_4b/relu_5x5
I0403 17:49:58.881970  6099 net.cpp:148] Top shape: 24 64 14 14 (301056)
I0403 17:49:58.881990  6099 net.cpp:156] Memory required for data: 968181024
I0403 17:49:58.882009  6099 layer_factory.hpp:77] Creating layer inception_4b/pool
I0403 17:49:58.882035  6099 net.cpp:91] Creating Layer inception_4b/pool
I0403 17:49:58.882058  6099 net.cpp:425] inception_4b/pool <- inception_4a/output_inception_4a/output_0_split_4
I0403 17:49:58.882082  6099 net.cpp:399] inception_4b/pool -> inception_4b/pool
I0403 17:49:58.882161  6099 net.cpp:141] Setting up inception_4b/pool
I0403 17:49:58.882196  6099 net.cpp:148] Top shape: 24 512 14 14 (2408448)
I0403 17:49:58.882217  6099 net.cpp:156] Memory required for data: 977814816
I0403 17:49:58.882236  6099 layer_factory.hpp:77] Creating layer inception_4b/pool_proj
I0403 17:49:58.882266  6099 net.cpp:91] Creating Layer inception_4b/pool_proj
I0403 17:49:58.882287  6099 net.cpp:425] inception_4b/pool_proj <- inception_4b/pool
I0403 17:49:58.882314  6099 net.cpp:399] inception_4b/pool_proj -> inception_4b/pool_proj
I0403 17:49:58.883795  6099 net.cpp:141] Setting up inception_4b/pool_proj
I0403 17:49:58.883829  6099 net.cpp:148] Top shape: 24 64 14 14 (301056)
I0403 17:49:58.883848  6099 net.cpp:156] Memory required for data: 979019040
I0403 17:49:58.883872  6099 layer_factory.hpp:77] Creating layer inception_4b/relu_pool_proj
I0403 17:49:58.883898  6099 net.cpp:91] Creating Layer inception_4b/relu_pool_proj
I0403 17:49:58.883921  6099 net.cpp:425] inception_4b/relu_pool_proj <- inception_4b/pool_proj
I0403 17:49:58.883944  6099 net.cpp:386] inception_4b/relu_pool_proj -> inception_4b/pool_proj (in-place)
I0403 17:49:58.884169  6099 net.cpp:141] Setting up inception_4b/relu_pool_proj
I0403 17:49:58.884208  6099 net.cpp:148] Top shape: 24 64 14 14 (301056)
I0403 17:49:58.884228  6099 net.cpp:156] Memory required for data: 980223264
I0403 17:49:58.884248  6099 layer_factory.hpp:77] Creating layer inception_4b/output
I0403 17:49:58.884271  6099 net.cpp:91] Creating Layer inception_4b/output
I0403 17:49:58.884292  6099 net.cpp:425] inception_4b/output <- inception_4b/1x1
I0403 17:49:58.884313  6099 net.cpp:425] inception_4b/output <- inception_4b/3x3
I0403 17:49:58.884335  6099 net.cpp:425] inception_4b/output <- inception_4b/5x5
I0403 17:49:58.884356  6099 net.cpp:425] inception_4b/output <- inception_4b/pool_proj
I0403 17:49:58.884377  6099 net.cpp:399] inception_4b/output -> inception_4b/output
I0403 17:49:58.884435  6099 net.cpp:141] Setting up inception_4b/output
I0403 17:49:58.884465  6099 net.cpp:148] Top shape: 24 512 14 14 (2408448)
I0403 17:49:58.884485  6099 net.cpp:156] Memory required for data: 989857056
I0403 17:49:58.884521  6099 layer_factory.hpp:77] Creating layer inception_4b/output_inception_4b/output_0_split
I0403 17:49:58.884546  6099 net.cpp:91] Creating Layer inception_4b/output_inception_4b/output_0_split
I0403 17:49:58.884568  6099 net.cpp:425] inception_4b/output_inception_4b/output_0_split <- inception_4b/output
I0403 17:49:58.884591  6099 net.cpp:399] inception_4b/output_inception_4b/output_0_split -> inception_4b/output_inception_4b/output_0_split_0
I0403 17:49:58.884619  6099 net.cpp:399] inception_4b/output_inception_4b/output_0_split -> inception_4b/output_inception_4b/output_0_split_1
I0403 17:49:58.884646  6099 net.cpp:399] inception_4b/output_inception_4b/output_0_split -> inception_4b/output_inception_4b/output_0_split_2
I0403 17:49:58.884672  6099 net.cpp:399] inception_4b/output_inception_4b/output_0_split -> inception_4b/output_inception_4b/output_0_split_3
I0403 17:49:58.884778  6099 net.cpp:141] Setting up inception_4b/output_inception_4b/output_0_split
I0403 17:49:58.884806  6099 net.cpp:148] Top shape: 24 512 14 14 (2408448)
I0403 17:49:58.884829  6099 net.cpp:148] Top shape: 24 512 14 14 (2408448)
I0403 17:49:58.884848  6099 net.cpp:148] Top shape: 24 512 14 14 (2408448)
I0403 17:49:58.884870  6099 net.cpp:148] Top shape: 24 512 14 14 (2408448)
I0403 17:49:58.884887  6099 net.cpp:156] Memory required for data: 1028392224
I0403 17:49:58.884905  6099 layer_factory.hpp:77] Creating layer inception_4c/1x1
I0403 17:49:58.884933  6099 net.cpp:91] Creating Layer inception_4c/1x1
I0403 17:49:58.884955  6099 net.cpp:425] inception_4c/1x1 <- inception_4b/output_inception_4b/output_0_split_0
I0403 17:49:58.884982  6099 net.cpp:399] inception_4c/1x1 -> inception_4c/1x1
I0403 17:49:58.886732  6099 net.cpp:141] Setting up inception_4c/1x1
I0403 17:49:58.886771  6099 net.cpp:148] Top shape: 24 128 14 14 (602112)
I0403 17:49:58.886793  6099 net.cpp:156] Memory required for data: 1030800672
I0403 17:49:58.886818  6099 layer_factory.hpp:77] Creating layer inception_4c/relu_1x1
I0403 17:49:58.886842  6099 net.cpp:91] Creating Layer inception_4c/relu_1x1
I0403 17:49:58.886862  6099 net.cpp:425] inception_4c/relu_1x1 <- inception_4c/1x1
I0403 17:49:58.886888  6099 net.cpp:386] inception_4c/relu_1x1 -> inception_4c/1x1 (in-place)
I0403 17:49:58.887114  6099 net.cpp:141] Setting up inception_4c/relu_1x1
I0403 17:49:58.887145  6099 net.cpp:148] Top shape: 24 128 14 14 (602112)
I0403 17:49:58.887163  6099 net.cpp:156] Memory required for data: 1033209120
I0403 17:49:58.887188  6099 layer_factory.hpp:77] Creating layer inception_4c/3x3_reduce
I0403 17:49:58.887219  6099 net.cpp:91] Creating Layer inception_4c/3x3_reduce
I0403 17:49:58.887243  6099 net.cpp:425] inception_4c/3x3_reduce <- inception_4b/output_inception_4b/output_0_split_1
I0403 17:49:58.887270  6099 net.cpp:399] inception_4c/3x3_reduce -> inception_4c/3x3_reduce
I0403 17:49:58.889634  6099 net.cpp:141] Setting up inception_4c/3x3_reduce
I0403 17:49:58.889674  6099 net.cpp:148] Top shape: 24 128 14 14 (602112)
I0403 17:49:58.889694  6099 net.cpp:156] Memory required for data: 1035617568
I0403 17:49:58.889719  6099 layer_factory.hpp:77] Creating layer inception_4c/relu_3x3_reduce
I0403 17:49:58.889745  6099 net.cpp:91] Creating Layer inception_4c/relu_3x3_reduce
I0403 17:49:58.889767  6099 net.cpp:425] inception_4c/relu_3x3_reduce <- inception_4c/3x3_reduce
I0403 17:49:58.889791  6099 net.cpp:386] inception_4c/relu_3x3_reduce -> inception_4c/3x3_reduce (in-place)
I0403 17:49:58.890136  6099 net.cpp:141] Setting up inception_4c/relu_3x3_reduce
I0403 17:49:58.890168  6099 net.cpp:148] Top shape: 24 128 14 14 (602112)
I0403 17:49:58.890193  6099 net.cpp:156] Memory required for data: 1038026016
I0403 17:49:58.890213  6099 layer_factory.hpp:77] Creating layer inception_4c/3x3
I0403 17:49:58.890242  6099 net.cpp:91] Creating Layer inception_4c/3x3
I0403 17:49:58.890265  6099 net.cpp:425] inception_4c/3x3 <- inception_4c/3x3_reduce
I0403 17:49:58.890292  6099 net.cpp:399] inception_4c/3x3 -> inception_4c/3x3
I0403 17:49:58.894706  6099 net.cpp:141] Setting up inception_4c/3x3
I0403 17:49:58.894757  6099 net.cpp:148] Top shape: 24 256 14 14 (1204224)
I0403 17:49:58.894778  6099 net.cpp:156] Memory required for data: 1042842912
I0403 17:49:58.894819  6099 layer_factory.hpp:77] Creating layer inception_4c/relu_3x3
I0403 17:49:58.894846  6099 net.cpp:91] Creating Layer inception_4c/relu_3x3
I0403 17:49:58.894868  6099 net.cpp:425] inception_4c/relu_3x3 <- inception_4c/3x3
I0403 17:49:58.894891  6099 net.cpp:386] inception_4c/relu_3x3 -> inception_4c/3x3 (in-place)
I0403 17:49:58.895113  6099 net.cpp:141] Setting up inception_4c/relu_3x3
I0403 17:49:58.895144  6099 net.cpp:148] Top shape: 24 256 14 14 (1204224)
I0403 17:49:58.895164  6099 net.cpp:156] Memory required for data: 1047659808
I0403 17:49:58.895190  6099 layer_factory.hpp:77] Creating layer inception_4c/5x5_reduce
I0403 17:49:58.895218  6099 net.cpp:91] Creating Layer inception_4c/5x5_reduce
I0403 17:49:58.895241  6099 net.cpp:425] inception_4c/5x5_reduce <- inception_4b/output_inception_4b/output_0_split_2
I0403 17:49:58.895269  6099 net.cpp:399] inception_4c/5x5_reduce -> inception_4c/5x5_reduce
I0403 17:49:58.896610  6099 net.cpp:141] Setting up inception_4c/5x5_reduce
I0403 17:49:58.896643  6099 net.cpp:148] Top shape: 24 24 14 14 (112896)
I0403 17:49:58.896664  6099 net.cpp:156] Memory required for data: 1048111392
I0403 17:49:58.896687  6099 layer_factory.hpp:77] Creating layer inception_4c/relu_5x5_reduce
I0403 17:49:58.896713  6099 net.cpp:91] Creating Layer inception_4c/relu_5x5_reduce
I0403 17:49:58.896734  6099 net.cpp:425] inception_4c/relu_5x5_reduce <- inception_4c/5x5_reduce
I0403 17:49:58.896756  6099 net.cpp:386] inception_4c/relu_5x5_reduce -> inception_4c/5x5_reduce (in-place)
I0403 17:49:58.896982  6099 net.cpp:141] Setting up inception_4c/relu_5x5_reduce
I0403 17:49:58.897017  6099 net.cpp:148] Top shape: 24 24 14 14 (112896)
I0403 17:49:58.897037  6099 net.cpp:156] Memory required for data: 1048562976
I0403 17:49:58.897058  6099 layer_factory.hpp:77] Creating layer inception_4c/5x5
I0403 17:49:58.897085  6099 net.cpp:91] Creating Layer inception_4c/5x5
I0403 17:49:58.897109  6099 net.cpp:425] inception_4c/5x5 <- inception_4c/5x5_reduce
I0403 17:49:58.897131  6099 net.cpp:399] inception_4c/5x5 -> inception_4c/5x5
I0403 17:49:58.898661  6099 net.cpp:141] Setting up inception_4c/5x5
I0403 17:49:58.898700  6099 net.cpp:148] Top shape: 24 64 14 14 (301056)
I0403 17:49:58.898721  6099 net.cpp:156] Memory required for data: 1049767200
I0403 17:49:58.898746  6099 layer_factory.hpp:77] Creating layer inception_4c/relu_5x5
I0403 17:49:58.898768  6099 net.cpp:91] Creating Layer inception_4c/relu_5x5
I0403 17:49:58.898790  6099 net.cpp:425] inception_4c/relu_5x5 <- inception_4c/5x5
I0403 17:49:58.898811  6099 net.cpp:386] inception_4c/relu_5x5 -> inception_4c/5x5 (in-place)
I0403 17:49:58.899163  6099 net.cpp:141] Setting up inception_4c/relu_5x5
I0403 17:49:58.899202  6099 net.cpp:148] Top shape: 24 64 14 14 (301056)
I0403 17:49:58.899224  6099 net.cpp:156] Memory required for data: 1050971424
I0403 17:49:58.899242  6099 layer_factory.hpp:77] Creating layer inception_4c/pool
I0403 17:49:58.899266  6099 net.cpp:91] Creating Layer inception_4c/pool
I0403 17:49:58.899286  6099 net.cpp:425] inception_4c/pool <- inception_4b/output_inception_4b/output_0_split_3
I0403 17:49:58.899312  6099 net.cpp:399] inception_4c/pool -> inception_4c/pool
I0403 17:49:58.899394  6099 net.cpp:141] Setting up inception_4c/pool
I0403 17:49:58.899423  6099 net.cpp:148] Top shape: 24 512 14 14 (2408448)
I0403 17:49:58.899442  6099 net.cpp:156] Memory required for data: 1060605216
I0403 17:49:58.899461  6099 layer_factory.hpp:77] Creating layer inception_4c/pool_proj
I0403 17:49:58.899489  6099 net.cpp:91] Creating Layer inception_4c/pool_proj
I0403 17:49:58.899513  6099 net.cpp:425] inception_4c/pool_proj <- inception_4c/pool
I0403 17:49:58.899539  6099 net.cpp:399] inception_4c/pool_proj -> inception_4c/pool_proj
I0403 17:49:58.901027  6099 net.cpp:141] Setting up inception_4c/pool_proj
I0403 17:49:58.901062  6099 net.cpp:148] Top shape: 24 64 14 14 (301056)
I0403 17:49:58.901098  6099 net.cpp:156] Memory required for data: 1061809440
I0403 17:49:58.901124  6099 layer_factory.hpp:77] Creating layer inception_4c/relu_pool_proj
I0403 17:49:58.901149  6099 net.cpp:91] Creating Layer inception_4c/relu_pool_proj
I0403 17:49:58.901172  6099 net.cpp:425] inception_4c/relu_pool_proj <- inception_4c/pool_proj
I0403 17:49:58.901202  6099 net.cpp:386] inception_4c/relu_pool_proj -> inception_4c/pool_proj (in-place)
I0403 17:49:58.901427  6099 net.cpp:141] Setting up inception_4c/relu_pool_proj
I0403 17:49:58.901463  6099 net.cpp:148] Top shape: 24 64 14 14 (301056)
I0403 17:49:58.901482  6099 net.cpp:156] Memory required for data: 1063013664
I0403 17:49:58.901501  6099 layer_factory.hpp:77] Creating layer inception_4c/output
I0403 17:49:58.901523  6099 net.cpp:91] Creating Layer inception_4c/output
I0403 17:49:58.901543  6099 net.cpp:425] inception_4c/output <- inception_4c/1x1
I0403 17:49:58.901564  6099 net.cpp:425] inception_4c/output <- inception_4c/3x3
I0403 17:49:58.901585  6099 net.cpp:425] inception_4c/output <- inception_4c/5x5
I0403 17:49:58.901607  6099 net.cpp:425] inception_4c/output <- inception_4c/pool_proj
I0403 17:49:58.901628  6099 net.cpp:399] inception_4c/output -> inception_4c/output
I0403 17:49:58.901687  6099 net.cpp:141] Setting up inception_4c/output
I0403 17:49:58.901717  6099 net.cpp:148] Top shape: 24 512 14 14 (2408448)
I0403 17:49:58.901736  6099 net.cpp:156] Memory required for data: 1072647456
I0403 17:49:58.901754  6099 layer_factory.hpp:77] Creating layer inception_4c/output_inception_4c/output_0_split
I0403 17:49:58.901778  6099 net.cpp:91] Creating Layer inception_4c/output_inception_4c/output_0_split
I0403 17:49:58.901801  6099 net.cpp:425] inception_4c/output_inception_4c/output_0_split <- inception_4c/output
I0403 17:49:58.901823  6099 net.cpp:399] inception_4c/output_inception_4c/output_0_split -> inception_4c/output_inception_4c/output_0_split_0
I0403 17:49:58.901849  6099 net.cpp:399] inception_4c/output_inception_4c/output_0_split -> inception_4c/output_inception_4c/output_0_split_1
I0403 17:49:58.901875  6099 net.cpp:399] inception_4c/output_inception_4c/output_0_split -> inception_4c/output_inception_4c/output_0_split_2
I0403 17:49:58.901901  6099 net.cpp:399] inception_4c/output_inception_4c/output_0_split -> inception_4c/output_inception_4c/output_0_split_3
I0403 17:49:58.902010  6099 net.cpp:141] Setting up inception_4c/output_inception_4c/output_0_split
I0403 17:49:58.902040  6099 net.cpp:148] Top shape: 24 512 14 14 (2408448)
I0403 17:49:58.902062  6099 net.cpp:148] Top shape: 24 512 14 14 (2408448)
I0403 17:49:58.902082  6099 net.cpp:148] Top shape: 24 512 14 14 (2408448)
I0403 17:49:58.902103  6099 net.cpp:148] Top shape: 24 512 14 14 (2408448)
I0403 17:49:58.902120  6099 net.cpp:156] Memory required for data: 1111182624
I0403 17:49:58.902139  6099 layer_factory.hpp:77] Creating layer inception_4d/1x1
I0403 17:49:58.902168  6099 net.cpp:91] Creating Layer inception_4d/1x1
I0403 17:49:58.902197  6099 net.cpp:425] inception_4d/1x1 <- inception_4c/output_inception_4c/output_0_split_0
I0403 17:49:58.902225  6099 net.cpp:399] inception_4d/1x1 -> inception_4d/1x1
I0403 17:49:58.903925  6099 net.cpp:141] Setting up inception_4d/1x1
I0403 17:49:58.903960  6099 net.cpp:148] Top shape: 24 112 14 14 (526848)
I0403 17:49:58.903980  6099 net.cpp:156] Memory required for data: 1113290016
I0403 17:49:58.904005  6099 layer_factory.hpp:77] Creating layer inception_4d/relu_1x1
I0403 17:49:58.904028  6099 net.cpp:91] Creating Layer inception_4d/relu_1x1
I0403 17:49:58.904048  6099 net.cpp:425] inception_4d/relu_1x1 <- inception_4d/1x1
I0403 17:49:58.904073  6099 net.cpp:386] inception_4d/relu_1x1 -> inception_4d/1x1 (in-place)
I0403 17:49:58.904305  6099 net.cpp:141] Setting up inception_4d/relu_1x1
I0403 17:49:58.904337  6099 net.cpp:148] Top shape: 24 112 14 14 (526848)
I0403 17:49:58.904357  6099 net.cpp:156] Memory required for data: 1115397408
I0403 17:49:58.904377  6099 layer_factory.hpp:77] Creating layer inception_4d/3x3_reduce
I0403 17:49:58.904422  6099 net.cpp:91] Creating Layer inception_4d/3x3_reduce
I0403 17:49:58.904446  6099 net.cpp:425] inception_4d/3x3_reduce <- inception_4c/output_inception_4c/output_0_split_1
I0403 17:49:58.904477  6099 net.cpp:399] inception_4d/3x3_reduce -> inception_4d/3x3_reduce
I0403 17:49:58.906323  6099 net.cpp:141] Setting up inception_4d/3x3_reduce
I0403 17:49:58.906360  6099 net.cpp:148] Top shape: 24 144 14 14 (677376)
I0403 17:49:58.906383  6099 net.cpp:156] Memory required for data: 1118106912
I0403 17:49:58.906406  6099 layer_factory.hpp:77] Creating layer inception_4d/relu_3x3_reduce
I0403 17:49:58.906430  6099 net.cpp:91] Creating Layer inception_4d/relu_3x3_reduce
I0403 17:49:58.906450  6099 net.cpp:425] inception_4d/relu_3x3_reduce <- inception_4d/3x3_reduce
I0403 17:49:58.906476  6099 net.cpp:386] inception_4d/relu_3x3_reduce -> inception_4d/3x3_reduce (in-place)
I0403 17:49:58.906824  6099 net.cpp:141] Setting up inception_4d/relu_3x3_reduce
I0403 17:49:58.906859  6099 net.cpp:148] Top shape: 24 144 14 14 (677376)
I0403 17:49:58.906879  6099 net.cpp:156] Memory required for data: 1120816416
I0403 17:49:58.906899  6099 layer_factory.hpp:77] Creating layer inception_4d/3x3
I0403 17:49:58.906929  6099 net.cpp:91] Creating Layer inception_4d/3x3
I0403 17:49:58.906951  6099 net.cpp:425] inception_4d/3x3 <- inception_4d/3x3_reduce
I0403 17:49:58.906975  6099 net.cpp:399] inception_4d/3x3 -> inception_4d/3x3
I0403 17:49:58.912295  6099 net.cpp:141] Setting up inception_4d/3x3
I0403 17:49:58.912330  6099 net.cpp:148] Top shape: 24 288 14 14 (1354752)
I0403 17:49:58.912350  6099 net.cpp:156] Memory required for data: 1126235424
I0403 17:49:58.912375  6099 layer_factory.hpp:77] Creating layer inception_4d/relu_3x3
I0403 17:49:58.912401  6099 net.cpp:91] Creating Layer inception_4d/relu_3x3
I0403 17:49:58.912425  6099 net.cpp:425] inception_4d/relu_3x3 <- inception_4d/3x3
I0403 17:49:58.912447  6099 net.cpp:386] inception_4d/relu_3x3 -> inception_4d/3x3 (in-place)
I0403 17:49:58.912681  6099 net.cpp:141] Setting up inception_4d/relu_3x3
I0403 17:49:58.912714  6099 net.cpp:148] Top shape: 24 288 14 14 (1354752)
I0403 17:49:58.912732  6099 net.cpp:156] Memory required for data: 1131654432
I0403 17:49:58.912752  6099 layer_factory.hpp:77] Creating layer inception_4d/5x5_reduce
I0403 17:49:58.912781  6099 net.cpp:91] Creating Layer inception_4d/5x5_reduce
I0403 17:49:58.912806  6099 net.cpp:425] inception_4d/5x5_reduce <- inception_4c/output_inception_4c/output_0_split_2
I0403 17:49:58.912830  6099 net.cpp:399] inception_4d/5x5_reduce -> inception_4d/5x5_reduce
I0403 17:49:58.914244  6099 net.cpp:141] Setting up inception_4d/5x5_reduce
I0403 17:49:58.914278  6099 net.cpp:148] Top shape: 24 32 14 14 (150528)
I0403 17:49:58.914299  6099 net.cpp:156] Memory required for data: 1132256544
I0403 17:49:58.914322  6099 layer_factory.hpp:77] Creating layer inception_4d/relu_5x5_reduce
I0403 17:49:58.914345  6099 net.cpp:91] Creating Layer inception_4d/relu_5x5_reduce
I0403 17:49:58.914366  6099 net.cpp:425] inception_4d/relu_5x5_reduce <- inception_4d/5x5_reduce
I0403 17:49:58.914391  6099 net.cpp:386] inception_4d/relu_5x5_reduce -> inception_4d/5x5_reduce (in-place)
I0403 17:49:58.914625  6099 net.cpp:141] Setting up inception_4d/relu_5x5_reduce
I0403 17:49:58.914657  6099 net.cpp:148] Top shape: 24 32 14 14 (150528)
I0403 17:49:58.914676  6099 net.cpp:156] Memory required for data: 1132858656
I0403 17:49:58.914696  6099 layer_factory.hpp:77] Creating layer inception_4d/5x5
I0403 17:49:58.914726  6099 net.cpp:91] Creating Layer inception_4d/5x5
I0403 17:49:58.914749  6099 net.cpp:425] inception_4d/5x5 <- inception_4d/5x5_reduce
I0403 17:49:58.914777  6099 net.cpp:399] inception_4d/5x5 -> inception_4d/5x5
I0403 17:49:58.916570  6099 net.cpp:141] Setting up inception_4d/5x5
I0403 17:49:58.916605  6099 net.cpp:148] Top shape: 24 64 14 14 (301056)
I0403 17:49:58.916630  6099 net.cpp:156] Memory required for data: 1134062880
I0403 17:49:58.916654  6099 layer_factory.hpp:77] Creating layer inception_4d/relu_5x5
I0403 17:49:58.916694  6099 net.cpp:91] Creating Layer inception_4d/relu_5x5
I0403 17:49:58.916717  6099 net.cpp:425] inception_4d/relu_5x5 <- inception_4d/5x5
I0403 17:49:58.916739  6099 net.cpp:386] inception_4d/relu_5x5 -> inception_4d/5x5 (in-place)
I0403 17:49:58.917110  6099 net.cpp:141] Setting up inception_4d/relu_5x5
I0403 17:49:58.917146  6099 net.cpp:148] Top shape: 24 64 14 14 (301056)
I0403 17:49:58.917167  6099 net.cpp:156] Memory required for data: 1135267104
I0403 17:49:58.917192  6099 layer_factory.hpp:77] Creating layer inception_4d/pool
I0403 17:49:58.917217  6099 net.cpp:91] Creating Layer inception_4d/pool
I0403 17:49:58.917238  6099 net.cpp:425] inception_4d/pool <- inception_4c/output_inception_4c/output_0_split_3
I0403 17:49:58.917260  6099 net.cpp:399] inception_4d/pool -> inception_4d/pool
I0403 17:49:58.917345  6099 net.cpp:141] Setting up inception_4d/pool
I0403 17:49:58.917376  6099 net.cpp:148] Top shape: 24 512 14 14 (2408448)
I0403 17:49:58.917394  6099 net.cpp:156] Memory required for data: 1144900896
I0403 17:49:58.917413  6099 layer_factory.hpp:77] Creating layer inception_4d/pool_proj
I0403 17:49:58.917443  6099 net.cpp:91] Creating Layer inception_4d/pool_proj
I0403 17:49:58.917467  6099 net.cpp:425] inception_4d/pool_proj <- inception_4d/pool
I0403 17:49:58.917495  6099 net.cpp:399] inception_4d/pool_proj -> inception_4d/pool_proj
I0403 17:49:58.919651  6099 net.cpp:141] Setting up inception_4d/pool_proj
I0403 17:49:58.919689  6099 net.cpp:148] Top shape: 24 64 14 14 (301056)
I0403 17:49:58.919709  6099 net.cpp:156] Memory required for data: 1146105120
I0403 17:49:58.919734  6099 layer_factory.hpp:77] Creating layer inception_4d/relu_pool_proj
I0403 17:49:58.919760  6099 net.cpp:91] Creating Layer inception_4d/relu_pool_proj
I0403 17:49:58.919783  6099 net.cpp:425] inception_4d/relu_pool_proj <- inception_4d/pool_proj
I0403 17:49:58.919806  6099 net.cpp:386] inception_4d/relu_pool_proj -> inception_4d/pool_proj (in-place)
I0403 17:49:58.920035  6099 net.cpp:141] Setting up inception_4d/relu_pool_proj
I0403 17:49:58.920068  6099 net.cpp:148] Top shape: 24 64 14 14 (301056)
I0403 17:49:58.920086  6099 net.cpp:156] Memory required for data: 1147309344
I0403 17:49:58.920105  6099 layer_factory.hpp:77] Creating layer inception_4d/output
I0403 17:49:58.920130  6099 net.cpp:91] Creating Layer inception_4d/output
I0403 17:49:58.920151  6099 net.cpp:425] inception_4d/output <- inception_4d/1x1
I0403 17:49:58.920173  6099 net.cpp:425] inception_4d/output <- inception_4d/3x3
I0403 17:49:58.920202  6099 net.cpp:425] inception_4d/output <- inception_4d/5x5
I0403 17:49:58.920223  6099 net.cpp:425] inception_4d/output <- inception_4d/pool_proj
I0403 17:49:58.920245  6099 net.cpp:399] inception_4d/output -> inception_4d/output
I0403 17:49:58.920307  6099 net.cpp:141] Setting up inception_4d/output
I0403 17:49:58.920336  6099 net.cpp:148] Top shape: 24 528 14 14 (2483712)
I0403 17:49:58.920356  6099 net.cpp:156] Memory required for data: 1157244192
I0403 17:49:58.920377  6099 layer_factory.hpp:77] Creating layer inception_4d/output_inception_4d/output_0_split
I0403 17:49:58.920398  6099 net.cpp:91] Creating Layer inception_4d/output_inception_4d/output_0_split
I0403 17:49:58.920418  6099 net.cpp:425] inception_4d/output_inception_4d/output_0_split <- inception_4d/output
I0403 17:49:58.920449  6099 net.cpp:399] inception_4d/output_inception_4d/output_0_split -> inception_4d/output_inception_4d/output_0_split_0
I0403 17:49:58.920477  6099 net.cpp:399] inception_4d/output_inception_4d/output_0_split -> inception_4d/output_inception_4d/output_0_split_1
I0403 17:49:58.920505  6099 net.cpp:399] inception_4d/output_inception_4d/output_0_split -> inception_4d/output_inception_4d/output_0_split_2
I0403 17:49:58.920531  6099 net.cpp:399] inception_4d/output_inception_4d/output_0_split -> inception_4d/output_inception_4d/output_0_split_3
I0403 17:49:58.920559  6099 net.cpp:399] inception_4d/output_inception_4d/output_0_split -> inception_4d/output_inception_4d/output_0_split_4
I0403 17:49:58.920686  6099 net.cpp:141] Setting up inception_4d/output_inception_4d/output_0_split
I0403 17:49:58.920730  6099 net.cpp:148] Top shape: 24 528 14 14 (2483712)
I0403 17:49:58.920753  6099 net.cpp:148] Top shape: 24 528 14 14 (2483712)
I0403 17:49:58.920774  6099 net.cpp:148] Top shape: 24 528 14 14 (2483712)
I0403 17:49:58.920796  6099 net.cpp:148] Top shape: 24 528 14 14 (2483712)
I0403 17:49:58.920816  6099 net.cpp:148] Top shape: 24 528 14 14 (2483712)
I0403 17:49:58.920835  6099 net.cpp:156] Memory required for data: 1206918432
I0403 17:49:58.920853  6099 layer_factory.hpp:77] Creating layer loss2/ave_pool
I0403 17:49:58.920877  6099 net.cpp:91] Creating Layer loss2/ave_pool
I0403 17:49:58.920898  6099 net.cpp:425] loss2/ave_pool <- inception_4d/output_inception_4d/output_0_split_0
I0403 17:49:58.920925  6099 net.cpp:399] loss2/ave_pool -> loss2/ave_pool
I0403 17:49:58.921314  6099 net.cpp:141] Setting up loss2/ave_pool
I0403 17:49:58.921349  6099 net.cpp:148] Top shape: 24 528 4 4 (202752)
I0403 17:49:58.921368  6099 net.cpp:156] Memory required for data: 1207729440
I0403 17:49:58.921387  6099 layer_factory.hpp:77] Creating layer loss2/conv
I0403 17:49:58.921416  6099 net.cpp:91] Creating Layer loss2/conv
I0403 17:49:58.921440  6099 net.cpp:425] loss2/conv <- loss2/ave_pool
I0403 17:49:58.921468  6099 net.cpp:399] loss2/conv -> loss2/conv
I0403 17:49:58.923818  6099 net.cpp:141] Setting up loss2/conv
I0403 17:49:58.923853  6099 net.cpp:148] Top shape: 24 128 4 4 (49152)
I0403 17:49:58.923873  6099 net.cpp:156] Memory required for data: 1207926048
I0403 17:49:58.923897  6099 layer_factory.hpp:77] Creating layer loss2/relu_conv
I0403 17:49:58.923923  6099 net.cpp:91] Creating Layer loss2/relu_conv
I0403 17:49:58.923946  6099 net.cpp:425] loss2/relu_conv <- loss2/conv
I0403 17:49:58.923969  6099 net.cpp:386] loss2/relu_conv -> loss2/conv (in-place)
I0403 17:49:58.924335  6099 net.cpp:141] Setting up loss2/relu_conv
I0403 17:49:58.924367  6099 net.cpp:148] Top shape: 24 128 4 4 (49152)
I0403 17:49:58.924388  6099 net.cpp:156] Memory required for data: 1208122656
I0403 17:49:58.924408  6099 layer_factory.hpp:77] Creating layer loss2/fc
I0403 17:49:58.924435  6099 net.cpp:91] Creating Layer loss2/fc
I0403 17:49:58.924458  6099 net.cpp:425] loss2/fc <- loss2/conv
I0403 17:49:58.924484  6099 net.cpp:399] loss2/fc -> loss2/fc
I0403 17:49:58.946460  6099 net.cpp:141] Setting up loss2/fc
I0403 17:49:58.946503  6099 net.cpp:148] Top shape: 24 1024 (24576)
I0403 17:49:58.946523  6099 net.cpp:156] Memory required for data: 1208220960
I0403 17:49:58.946547  6099 layer_factory.hpp:77] Creating layer loss2/relu_fc
I0403 17:49:58.946570  6099 net.cpp:91] Creating Layer loss2/relu_fc
I0403 17:49:58.946591  6099 net.cpp:425] loss2/relu_fc <- loss2/fc
I0403 17:49:58.946617  6099 net.cpp:386] loss2/relu_fc -> loss2/fc (in-place)
I0403 17:49:58.946981  6099 net.cpp:141] Setting up loss2/relu_fc
I0403 17:49:58.947015  6099 net.cpp:148] Top shape: 24 1024 (24576)
I0403 17:49:58.947034  6099 net.cpp:156] Memory required for data: 1208319264
I0403 17:49:58.947053  6099 layer_factory.hpp:77] Creating layer loss2/drop_fc
I0403 17:49:58.947077  6099 net.cpp:91] Creating Layer loss2/drop_fc
I0403 17:49:58.947098  6099 net.cpp:425] loss2/drop_fc <- loss2/fc
I0403 17:49:58.947124  6099 net.cpp:386] loss2/drop_fc -> loss2/fc (in-place)
I0403 17:49:58.947192  6099 net.cpp:141] Setting up loss2/drop_fc
I0403 17:49:58.947222  6099 net.cpp:148] Top shape: 24 1024 (24576)
I0403 17:49:58.947242  6099 net.cpp:156] Memory required for data: 1208417568
I0403 17:49:58.947259  6099 layer_factory.hpp:77] Creating layer loss2/classifier_plantvillage
I0403 17:49:58.947283  6099 net.cpp:91] Creating Layer loss2/classifier_plantvillage
I0403 17:49:58.947304  6099 net.cpp:425] loss2/classifier_plantvillage <- loss2/fc
I0403 17:49:58.947332  6099 net.cpp:399] loss2/classifier_plantvillage -> loss2/classifier_plantvillage
I0403 17:49:58.947829  6099 net.cpp:141] Setting up loss2/classifier_plantvillage
I0403 17:49:58.947860  6099 net.cpp:148] Top shape: 24 38 (912)
I0403 17:49:58.947897  6099 net.cpp:156] Memory required for data: 1208421216
I0403 17:49:58.947922  6099 layer_factory.hpp:77] Creating layer loss2/classifier_plantvillage_loss2/classifier_plantvillage_0_split
I0403 17:49:58.947948  6099 net.cpp:91] Creating Layer loss2/classifier_plantvillage_loss2/classifier_plantvillage_0_split
I0403 17:49:58.947971  6099 net.cpp:425] loss2/classifier_plantvillage_loss2/classifier_plantvillage_0_split <- loss2/classifier_plantvillage
I0403 17:49:58.947999  6099 net.cpp:399] loss2/classifier_plantvillage_loss2/classifier_plantvillage_0_split -> loss2/classifier_plantvillage_loss2/classifier_plantvillage_0_split_0
I0403 17:49:58.948024  6099 net.cpp:399] loss2/classifier_plantvillage_loss2/classifier_plantvillage_0_split -> loss2/classifier_plantvillage_loss2/classifier_plantvillage_0_split_1
I0403 17:49:58.948050  6099 net.cpp:399] loss2/classifier_plantvillage_loss2/classifier_plantvillage_0_split -> loss2/classifier_plantvillage_loss2/classifier_plantvillage_0_split_2
I0403 17:49:58.948151  6099 net.cpp:141] Setting up loss2/classifier_plantvillage_loss2/classifier_plantvillage_0_split
I0403 17:49:58.948184  6099 net.cpp:148] Top shape: 24 38 (912)
I0403 17:49:58.948207  6099 net.cpp:148] Top shape: 24 38 (912)
I0403 17:49:58.948230  6099 net.cpp:148] Top shape: 24 38 (912)
I0403 17:49:58.948247  6099 net.cpp:156] Memory required for data: 1208432160
I0403 17:49:58.948266  6099 layer_factory.hpp:77] Creating layer inception_4e/1x1
I0403 17:49:58.948294  6099 net.cpp:91] Creating Layer inception_4e/1x1
I0403 17:49:58.948318  6099 net.cpp:425] inception_4e/1x1 <- inception_4d/output_inception_4d/output_0_split_1
I0403 17:49:58.948343  6099 net.cpp:399] inception_4e/1x1 -> inception_4e/1x1
I0403 17:49:58.950589  6099 net.cpp:141] Setting up inception_4e/1x1
I0403 17:49:58.950631  6099 net.cpp:148] Top shape: 24 256 14 14 (1204224)
I0403 17:49:58.950654  6099 net.cpp:156] Memory required for data: 1213249056
I0403 17:49:58.950677  6099 layer_factory.hpp:77] Creating layer inception_4e/relu_1x1
I0403 17:49:58.950700  6099 net.cpp:91] Creating Layer inception_4e/relu_1x1
I0403 17:49:58.950721  6099 net.cpp:425] inception_4e/relu_1x1 <- inception_4e/1x1
I0403 17:49:58.950743  6099 net.cpp:386] inception_4e/relu_1x1 -> inception_4e/1x1 (in-place)
I0403 17:49:58.951103  6099 net.cpp:141] Setting up inception_4e/relu_1x1
I0403 17:49:58.951139  6099 net.cpp:148] Top shape: 24 256 14 14 (1204224)
I0403 17:49:58.951160  6099 net.cpp:156] Memory required for data: 1218065952
I0403 17:49:58.951185  6099 layer_factory.hpp:77] Creating layer inception_4e/3x3_reduce
I0403 17:49:58.951216  6099 net.cpp:91] Creating Layer inception_4e/3x3_reduce
I0403 17:49:58.951239  6099 net.cpp:425] inception_4e/3x3_reduce <- inception_4d/output_inception_4d/output_0_split_2
I0403 17:49:58.951266  6099 net.cpp:399] inception_4e/3x3_reduce -> inception_4e/3x3_reduce
I0403 17:49:58.953894  6099 net.cpp:141] Setting up inception_4e/3x3_reduce
I0403 17:49:58.953929  6099 net.cpp:148] Top shape: 24 160 14 14 (752640)
I0403 17:49:58.953949  6099 net.cpp:156] Memory required for data: 1221076512
I0403 17:49:58.953974  6099 layer_factory.hpp:77] Creating layer inception_4e/relu_3x3_reduce
I0403 17:49:58.954001  6099 net.cpp:91] Creating Layer inception_4e/relu_3x3_reduce
I0403 17:49:58.954025  6099 net.cpp:425] inception_4e/relu_3x3_reduce <- inception_4e/3x3_reduce
I0403 17:49:58.954047  6099 net.cpp:386] inception_4e/relu_3x3_reduce -> inception_4e/3x3_reduce (in-place)
I0403 17:49:58.954288  6099 net.cpp:141] Setting up inception_4e/relu_3x3_reduce
I0403 17:49:58.954321  6099 net.cpp:148] Top shape: 24 160 14 14 (752640)
I0403 17:49:58.954340  6099 net.cpp:156] Memory required for data: 1224087072
I0403 17:49:58.954361  6099 layer_factory.hpp:77] Creating layer inception_4e/3x3
I0403 17:49:58.954391  6099 net.cpp:91] Creating Layer inception_4e/3x3
I0403 17:49:58.954414  6099 net.cpp:425] inception_4e/3x3 <- inception_4e/3x3_reduce
I0403 17:49:58.954442  6099 net.cpp:399] inception_4e/3x3 -> inception_4e/3x3
I0403 17:49:58.960674  6099 net.cpp:141] Setting up inception_4e/3x3
I0403 17:49:58.960726  6099 net.cpp:148] Top shape: 24 320 14 14 (1505280)
I0403 17:49:58.960746  6099 net.cpp:156] Memory required for data: 1230108192
I0403 17:49:58.960770  6099 layer_factory.hpp:77] Creating layer inception_4e/relu_3x3
I0403 17:49:58.960793  6099 net.cpp:91] Creating Layer inception_4e/relu_3x3
I0403 17:49:58.960814  6099 net.cpp:425] inception_4e/relu_3x3 <- inception_4e/3x3
I0403 17:49:58.960839  6099 net.cpp:386] inception_4e/relu_3x3 -> inception_4e/3x3 (in-place)
I0403 17:49:58.961215  6099 net.cpp:141] Setting up inception_4e/relu_3x3
I0403 17:49:58.961247  6099 net.cpp:148] Top shape: 24 320 14 14 (1505280)
I0403 17:49:58.961266  6099 net.cpp:156] Memory required for data: 1236129312
I0403 17:49:58.961287  6099 layer_factory.hpp:77] Creating layer inception_4e/5x5_reduce
I0403 17:49:58.961316  6099 net.cpp:91] Creating Layer inception_4e/5x5_reduce
I0403 17:49:58.961340  6099 net.cpp:425] inception_4e/5x5_reduce <- inception_4d/output_inception_4d/output_0_split_3
I0403 17:49:58.961369  6099 net.cpp:399] inception_4e/5x5_reduce -> inception_4e/5x5_reduce
I0403 17:49:58.962682  6099 net.cpp:141] Setting up inception_4e/5x5_reduce
I0403 17:49:58.962718  6099 net.cpp:148] Top shape: 24 32 14 14 (150528)
I0403 17:49:58.962741  6099 net.cpp:156] Memory required for data: 1236731424
I0403 17:49:58.962765  6099 layer_factory.hpp:77] Creating layer inception_4e/relu_5x5_reduce
I0403 17:49:58.962788  6099 net.cpp:91] Creating Layer inception_4e/relu_5x5_reduce
I0403 17:49:58.962810  6099 net.cpp:425] inception_4e/relu_5x5_reduce <- inception_4e/5x5_reduce
I0403 17:49:58.962833  6099 net.cpp:386] inception_4e/relu_5x5_reduce -> inception_4e/5x5_reduce (in-place)
I0403 17:49:58.963209  6099 net.cpp:141] Setting up inception_4e/relu_5x5_reduce
I0403 17:49:58.963241  6099 net.cpp:148] Top shape: 24 32 14 14 (150528)
I0403 17:49:58.963265  6099 net.cpp:156] Memory required for data: 1237333536
I0403 17:49:58.963285  6099 layer_factory.hpp:77] Creating layer inception_4e/5x5
I0403 17:49:58.963331  6099 net.cpp:91] Creating Layer inception_4e/5x5
I0403 17:49:58.963356  6099 net.cpp:425] inception_4e/5x5 <- inception_4e/5x5_reduce
I0403 17:49:58.963384  6099 net.cpp:399] inception_4e/5x5 -> inception_4e/5x5
I0403 17:49:58.965636  6099 net.cpp:141] Setting up inception_4e/5x5
I0403 17:49:58.965670  6099 net.cpp:148] Top shape: 24 128 14 14 (602112)
I0403 17:49:58.965690  6099 net.cpp:156] Memory required for data: 1239741984
I0403 17:49:58.965716  6099 layer_factory.hpp:77] Creating layer inception_4e/relu_5x5
I0403 17:49:58.965742  6099 net.cpp:91] Creating Layer inception_4e/relu_5x5
I0403 17:49:58.965764  6099 net.cpp:425] inception_4e/relu_5x5 <- inception_4e/5x5
I0403 17:49:58.965787  6099 net.cpp:386] inception_4e/relu_5x5 -> inception_4e/5x5 (in-place)
I0403 17:49:58.966037  6099 net.cpp:141] Setting up inception_4e/relu_5x5
I0403 17:49:58.966069  6099 net.cpp:148] Top shape: 24 128 14 14 (602112)
I0403 17:49:58.966089  6099 net.cpp:156] Memory required for data: 1242150432
I0403 17:49:58.966109  6099 layer_factory.hpp:77] Creating layer inception_4e/pool
I0403 17:49:58.966135  6099 net.cpp:91] Creating Layer inception_4e/pool
I0403 17:49:58.966156  6099 net.cpp:425] inception_4e/pool <- inception_4d/output_inception_4d/output_0_split_4
I0403 17:49:58.966183  6099 net.cpp:399] inception_4e/pool -> inception_4e/pool
I0403 17:49:58.966274  6099 net.cpp:141] Setting up inception_4e/pool
I0403 17:49:58.966305  6099 net.cpp:148] Top shape: 24 528 14 14 (2483712)
I0403 17:49:58.966323  6099 net.cpp:156] Memory required for data: 1252085280
I0403 17:49:58.966343  6099 layer_factory.hpp:77] Creating layer inception_4e/pool_proj
I0403 17:49:58.966372  6099 net.cpp:91] Creating Layer inception_4e/pool_proj
I0403 17:49:58.966392  6099 net.cpp:425] inception_4e/pool_proj <- inception_4e/pool
I0403 17:49:58.966419  6099 net.cpp:399] inception_4e/pool_proj -> inception_4e/pool_proj
I0403 17:49:58.968276  6099 net.cpp:141] Setting up inception_4e/pool_proj
I0403 17:49:58.968325  6099 net.cpp:148] Top shape: 24 128 14 14 (602112)
I0403 17:49:58.968348  6099 net.cpp:156] Memory required for data: 1254493728
I0403 17:49:58.968371  6099 layer_factory.hpp:77] Creating layer inception_4e/relu_pool_proj
I0403 17:49:58.968396  6099 net.cpp:91] Creating Layer inception_4e/relu_pool_proj
I0403 17:49:58.968420  6099 net.cpp:425] inception_4e/relu_pool_proj <- inception_4e/pool_proj
I0403 17:49:58.968441  6099 net.cpp:386] inception_4e/relu_pool_proj -> inception_4e/pool_proj (in-place)
I0403 17:49:58.968794  6099 net.cpp:141] Setting up inception_4e/relu_pool_proj
I0403 17:49:58.968827  6099 net.cpp:148] Top shape: 24 128 14 14 (602112)
I0403 17:49:58.968847  6099 net.cpp:156] Memory required for data: 1256902176
I0403 17:49:58.968865  6099 layer_factory.hpp:77] Creating layer inception_4e/output
I0403 17:49:58.968888  6099 net.cpp:91] Creating Layer inception_4e/output
I0403 17:49:58.968909  6099 net.cpp:425] inception_4e/output <- inception_4e/1x1
I0403 17:49:58.968930  6099 net.cpp:425] inception_4e/output <- inception_4e/3x3
I0403 17:49:58.968955  6099 net.cpp:425] inception_4e/output <- inception_4e/5x5
I0403 17:49:58.968976  6099 net.cpp:425] inception_4e/output <- inception_4e/pool_proj
I0403 17:49:58.968997  6099 net.cpp:399] inception_4e/output -> inception_4e/output
I0403 17:49:58.969058  6099 net.cpp:141] Setting up inception_4e/output
I0403 17:49:58.969090  6099 net.cpp:148] Top shape: 24 832 14 14 (3913728)
I0403 17:49:58.969110  6099 net.cpp:156] Memory required for data: 1272557088
I0403 17:49:58.969130  6099 layer_factory.hpp:77] Creating layer pool4/3x3_s2
I0403 17:49:58.969153  6099 net.cpp:91] Creating Layer pool4/3x3_s2
I0403 17:49:58.969174  6099 net.cpp:425] pool4/3x3_s2 <- inception_4e/output
I0403 17:49:58.969208  6099 net.cpp:399] pool4/3x3_s2 -> pool4/3x3_s2
I0403 17:49:58.969291  6099 net.cpp:141] Setting up pool4/3x3_s2
I0403 17:49:58.969322  6099 net.cpp:148] Top shape: 24 832 7 7 (978432)
I0403 17:49:58.969341  6099 net.cpp:156] Memory required for data: 1276470816
I0403 17:49:58.969360  6099 layer_factory.hpp:77] Creating layer pool4/3x3_s2_pool4/3x3_s2_0_split
I0403 17:49:58.969386  6099 net.cpp:91] Creating Layer pool4/3x3_s2_pool4/3x3_s2_0_split
I0403 17:49:58.969406  6099 net.cpp:425] pool4/3x3_s2_pool4/3x3_s2_0_split <- pool4/3x3_s2
I0403 17:49:58.969430  6099 net.cpp:399] pool4/3x3_s2_pool4/3x3_s2_0_split -> pool4/3x3_s2_pool4/3x3_s2_0_split_0
I0403 17:49:58.969455  6099 net.cpp:399] pool4/3x3_s2_pool4/3x3_s2_0_split -> pool4/3x3_s2_pool4/3x3_s2_0_split_1
I0403 17:49:58.969480  6099 net.cpp:399] pool4/3x3_s2_pool4/3x3_s2_0_split -> pool4/3x3_s2_pool4/3x3_s2_0_split_2
I0403 17:49:58.969509  6099 net.cpp:399] pool4/3x3_s2_pool4/3x3_s2_0_split -> pool4/3x3_s2_pool4/3x3_s2_0_split_3
I0403 17:49:58.969625  6099 net.cpp:141] Setting up pool4/3x3_s2_pool4/3x3_s2_0_split
I0403 17:49:58.969655  6099 net.cpp:148] Top shape: 24 832 7 7 (978432)
I0403 17:49:58.969676  6099 net.cpp:148] Top shape: 24 832 7 7 (978432)
I0403 17:49:58.969696  6099 net.cpp:148] Top shape: 24 832 7 7 (978432)
I0403 17:49:58.969717  6099 net.cpp:148] Top shape: 24 832 7 7 (978432)
I0403 17:49:58.969734  6099 net.cpp:156] Memory required for data: 1292125728
I0403 17:49:58.969754  6099 layer_factory.hpp:77] Creating layer inception_5a/1x1
I0403 17:49:58.969784  6099 net.cpp:91] Creating Layer inception_5a/1x1
I0403 17:49:58.969805  6099 net.cpp:425] inception_5a/1x1 <- pool4/3x3_s2_pool4/3x3_s2_0_split_0
I0403 17:49:58.969833  6099 net.cpp:399] inception_5a/1x1 -> inception_5a/1x1
I0403 17:49:58.973399  6099 net.cpp:141] Setting up inception_5a/1x1
I0403 17:49:58.973434  6099 net.cpp:148] Top shape: 24 256 7 7 (301056)
I0403 17:49:58.973454  6099 net.cpp:156] Memory required for data: 1293329952
I0403 17:49:58.973479  6099 layer_factory.hpp:77] Creating layer inception_5a/relu_1x1
I0403 17:49:58.973505  6099 net.cpp:91] Creating Layer inception_5a/relu_1x1
I0403 17:49:58.973527  6099 net.cpp:425] inception_5a/relu_1x1 <- inception_5a/1x1
I0403 17:49:58.973551  6099 net.cpp:386] inception_5a/relu_1x1 -> inception_5a/1x1 (in-place)
I0403 17:49:58.973937  6099 net.cpp:141] Setting up inception_5a/relu_1x1
I0403 17:49:58.973971  6099 net.cpp:148] Top shape: 24 256 7 7 (301056)
I0403 17:49:58.973990  6099 net.cpp:156] Memory required for data: 1294534176
I0403 17:49:58.974010  6099 layer_factory.hpp:77] Creating layer inception_5a/3x3_reduce
I0403 17:49:58.974040  6099 net.cpp:91] Creating Layer inception_5a/3x3_reduce
I0403 17:49:58.974062  6099 net.cpp:425] inception_5a/3x3_reduce <- pool4/3x3_s2_pool4/3x3_s2_0_split_1
I0403 17:49:58.974091  6099 net.cpp:399] inception_5a/3x3_reduce -> inception_5a/3x3_reduce
I0403 17:49:58.977123  6099 net.cpp:141] Setting up inception_5a/3x3_reduce
I0403 17:49:58.977159  6099 net.cpp:148] Top shape: 24 160 7 7 (188160)
I0403 17:49:58.977183  6099 net.cpp:156] Memory required for data: 1295286816
I0403 17:49:58.977210  6099 layer_factory.hpp:77] Creating layer inception_5a/relu_3x3_reduce
I0403 17:49:58.977233  6099 net.cpp:91] Creating Layer inception_5a/relu_3x3_reduce
I0403 17:49:58.977254  6099 net.cpp:425] inception_5a/relu_3x3_reduce <- inception_5a/3x3_reduce
I0403 17:49:58.977280  6099 net.cpp:386] inception_5a/relu_3x3_reduce -> inception_5a/3x3_reduce (in-place)
I0403 17:49:58.977514  6099 net.cpp:141] Setting up inception_5a/relu_3x3_reduce
I0403 17:49:58.977545  6099 net.cpp:148] Top shape: 24 160 7 7 (188160)
I0403 17:49:58.977563  6099 net.cpp:156] Memory required for data: 1296039456
I0403 17:49:58.977582  6099 layer_factory.hpp:77] Creating layer inception_5a/3x3
I0403 17:49:58.977612  6099 net.cpp:91] Creating Layer inception_5a/3x3
I0403 17:49:58.977634  6099 net.cpp:425] inception_5a/3x3 <- inception_5a/3x3_reduce
I0403 17:49:58.977664  6099 net.cpp:399] inception_5a/3x3 -> inception_5a/3x3
I0403 17:49:58.983917  6099 net.cpp:141] Setting up inception_5a/3x3
I0403 17:49:58.983955  6099 net.cpp:148] Top shape: 24 320 7 7 (376320)
I0403 17:49:58.983975  6099 net.cpp:156] Memory required for data: 1297544736
I0403 17:49:58.983999  6099 layer_factory.hpp:77] Creating layer inception_5a/relu_3x3
I0403 17:49:58.984025  6099 net.cpp:91] Creating Layer inception_5a/relu_3x3
I0403 17:49:58.984048  6099 net.cpp:425] inception_5a/relu_3x3 <- inception_5a/3x3
I0403 17:49:58.984071  6099 net.cpp:386] inception_5a/relu_3x3 -> inception_5a/3x3 (in-place)
I0403 17:49:58.984447  6099 net.cpp:141] Setting up inception_5a/relu_3x3
I0403 17:49:58.984482  6099 net.cpp:148] Top shape: 24 320 7 7 (376320)
I0403 17:49:58.984500  6099 net.cpp:156] Memory required for data: 1299050016
I0403 17:49:58.984519  6099 layer_factory.hpp:77] Creating layer inception_5a/5x5_reduce
I0403 17:49:58.984549  6099 net.cpp:91] Creating Layer inception_5a/5x5_reduce
I0403 17:49:58.984571  6099 net.cpp:425] inception_5a/5x5_reduce <- pool4/3x3_s2_pool4/3x3_s2_0_split_2
I0403 17:49:58.984598  6099 net.cpp:399] inception_5a/5x5_reduce -> inception_5a/5x5_reduce
I0403 17:49:58.986052  6099 net.cpp:141] Setting up inception_5a/5x5_reduce
I0403 17:49:58.986088  6099 net.cpp:148] Top shape: 24 32 7 7 (37632)
I0403 17:49:58.986109  6099 net.cpp:156] Memory required for data: 1299200544
I0403 17:49:58.986132  6099 layer_factory.hpp:77] Creating layer inception_5a/relu_5x5_reduce
I0403 17:49:58.986160  6099 net.cpp:91] Creating Layer inception_5a/relu_5x5_reduce
I0403 17:49:58.986187  6099 net.cpp:425] inception_5a/relu_5x5_reduce <- inception_5a/5x5_reduce
I0403 17:49:58.986212  6099 net.cpp:386] inception_5a/relu_5x5_reduce -> inception_5a/5x5_reduce (in-place)
I0403 17:49:58.986583  6099 net.cpp:141] Setting up inception_5a/relu_5x5_reduce
I0403 17:49:58.986616  6099 net.cpp:148] Top shape: 24 32 7 7 (37632)
I0403 17:49:58.986635  6099 net.cpp:156] Memory required for data: 1299351072
I0403 17:49:58.986655  6099 layer_factory.hpp:77] Creating layer inception_5a/5x5
I0403 17:49:58.986686  6099 net.cpp:91] Creating Layer inception_5a/5x5
I0403 17:49:58.986709  6099 net.cpp:425] inception_5a/5x5 <- inception_5a/5x5_reduce
I0403 17:49:58.986734  6099 net.cpp:399] inception_5a/5x5 -> inception_5a/5x5
I0403 17:49:58.988869  6099 net.cpp:141] Setting up inception_5a/5x5
I0403 17:49:58.988919  6099 net.cpp:148] Top shape: 24 128 7 7 (150528)
I0403 17:49:58.988940  6099 net.cpp:156] Memory required for data: 1299953184
I0403 17:49:58.988963  6099 layer_factory.hpp:77] Creating layer inception_5a/relu_5x5
I0403 17:49:58.988991  6099 net.cpp:91] Creating Layer inception_5a/relu_5x5
I0403 17:49:58.989013  6099 net.cpp:425] inception_5a/relu_5x5 <- inception_5a/5x5
I0403 17:49:58.989034  6099 net.cpp:386] inception_5a/relu_5x5 -> inception_5a/5x5 (in-place)
I0403 17:49:58.989285  6099 net.cpp:141] Setting up inception_5a/relu_5x5
I0403 17:49:58.989320  6099 net.cpp:148] Top shape: 24 128 7 7 (150528)
I0403 17:49:58.989341  6099 net.cpp:156] Memory required for data: 1300555296
I0403 17:49:58.989361  6099 layer_factory.hpp:77] Creating layer inception_5a/pool
I0403 17:49:58.989382  6099 net.cpp:91] Creating Layer inception_5a/pool
I0403 17:49:58.989403  6099 net.cpp:425] inception_5a/pool <- pool4/3x3_s2_pool4/3x3_s2_0_split_3
I0403 17:49:58.989430  6099 net.cpp:399] inception_5a/pool -> inception_5a/pool
I0403 17:49:58.989518  6099 net.cpp:141] Setting up inception_5a/pool
I0403 17:49:58.989547  6099 net.cpp:148] Top shape: 24 832 7 7 (978432)
I0403 17:49:58.989567  6099 net.cpp:156] Memory required for data: 1304469024
I0403 17:49:58.989585  6099 layer_factory.hpp:77] Creating layer inception_5a/pool_proj
I0403 17:49:58.989614  6099 net.cpp:91] Creating Layer inception_5a/pool_proj
I0403 17:49:58.989635  6099 net.cpp:425] inception_5a/pool_proj <- inception_5a/pool
I0403 17:49:58.989662  6099 net.cpp:399] inception_5a/pool_proj -> inception_5a/pool_proj
I0403 17:49:58.992498  6099 net.cpp:141] Setting up inception_5a/pool_proj
I0403 17:49:58.992537  6099 net.cpp:148] Top shape: 24 128 7 7 (150528)
I0403 17:49:58.992568  6099 net.cpp:156] Memory required for data: 1305071136
I0403 17:49:58.992593  6099 layer_factory.hpp:77] Creating layer inception_5a/relu_pool_proj
I0403 17:49:58.992617  6099 net.cpp:91] Creating Layer inception_5a/relu_pool_proj
I0403 17:49:58.992641  6099 net.cpp:425] inception_5a/relu_pool_proj <- inception_5a/pool_proj
I0403 17:49:58.992663  6099 net.cpp:386] inception_5a/relu_pool_proj -> inception_5a/pool_proj (in-place)
I0403 17:49:58.993026  6099 net.cpp:141] Setting up inception_5a/relu_pool_proj
I0403 17:49:58.993058  6099 net.cpp:148] Top shape: 24 128 7 7 (150528)
I0403 17:49:58.993078  6099 net.cpp:156] Memory required for data: 1305673248
I0403 17:49:58.993098  6099 layer_factory.hpp:77] Creating layer inception_5a/output
I0403 17:49:58.993120  6099 net.cpp:91] Creating Layer inception_5a/output
I0403 17:49:58.993141  6099 net.cpp:425] inception_5a/output <- inception_5a/1x1
I0403 17:49:58.993165  6099 net.cpp:425] inception_5a/output <- inception_5a/3x3
I0403 17:49:58.993199  6099 net.cpp:425] inception_5a/output <- inception_5a/5x5
I0403 17:49:58.993222  6099 net.cpp:425] inception_5a/output <- inception_5a/pool_proj
I0403 17:49:58.993252  6099 net.cpp:399] inception_5a/output -> inception_5a/output
I0403 17:49:58.993314  6099 net.cpp:141] Setting up inception_5a/output
I0403 17:49:58.993348  6099 net.cpp:148] Top shape: 24 832 7 7 (978432)
I0403 17:49:58.993368  6099 net.cpp:156] Memory required for data: 1309586976
I0403 17:49:58.993387  6099 layer_factory.hpp:77] Creating layer inception_5a/output_inception_5a/output_0_split
I0403 17:49:58.993409  6099 net.cpp:91] Creating Layer inception_5a/output_inception_5a/output_0_split
I0403 17:49:58.993429  6099 net.cpp:425] inception_5a/output_inception_5a/output_0_split <- inception_5a/output
I0403 17:49:58.993453  6099 net.cpp:399] inception_5a/output_inception_5a/output_0_split -> inception_5a/output_inception_5a/output_0_split_0
I0403 17:49:58.993482  6099 net.cpp:399] inception_5a/output_inception_5a/output_0_split -> inception_5a/output_inception_5a/output_0_split_1
I0403 17:49:58.993511  6099 net.cpp:399] inception_5a/output_inception_5a/output_0_split -> inception_5a/output_inception_5a/output_0_split_2
I0403 17:49:58.993538  6099 net.cpp:399] inception_5a/output_inception_5a/output_0_split -> inception_5a/output_inception_5a/output_0_split_3
I0403 17:49:58.993680  6099 net.cpp:141] Setting up inception_5a/output_inception_5a/output_0_split
I0403 17:49:58.993710  6099 net.cpp:148] Top shape: 24 832 7 7 (978432)
I0403 17:49:58.993731  6099 net.cpp:148] Top shape: 24 832 7 7 (978432)
I0403 17:49:58.993752  6099 net.cpp:148] Top shape: 24 832 7 7 (978432)
I0403 17:49:58.993773  6099 net.cpp:148] Top shape: 24 832 7 7 (978432)
I0403 17:49:58.993793  6099 net.cpp:156] Memory required for data: 1325241888
I0403 17:49:58.993810  6099 layer_factory.hpp:77] Creating layer inception_5b/1x1
I0403 17:49:58.993841  6099 net.cpp:91] Creating Layer inception_5b/1x1
I0403 17:49:58.993865  6099 net.cpp:425] inception_5b/1x1 <- inception_5a/output_inception_5a/output_0_split_0
I0403 17:49:58.993888  6099 net.cpp:399] inception_5b/1x1 -> inception_5b/1x1
I0403 17:49:58.998524  6099 net.cpp:141] Setting up inception_5b/1x1
I0403 17:49:58.998560  6099 net.cpp:148] Top shape: 24 384 7 7 (451584)
I0403 17:49:58.998582  6099 net.cpp:156] Memory required for data: 1327048224
I0403 17:49:58.998606  6099 layer_factory.hpp:77] Creating layer inception_5b/relu_1x1
I0403 17:49:58.998631  6099 net.cpp:91] Creating Layer inception_5b/relu_1x1
I0403 17:49:58.998651  6099 net.cpp:425] inception_5b/relu_1x1 <- inception_5b/1x1
I0403 17:49:58.998678  6099 net.cpp:386] inception_5b/relu_1x1 -> inception_5b/1x1 (in-place)
I0403 17:49:58.999050  6099 net.cpp:141] Setting up inception_5b/relu_1x1
I0403 17:49:58.999083  6099 net.cpp:148] Top shape: 24 384 7 7 (451584)
I0403 17:49:58.999102  6099 net.cpp:156] Memory required for data: 1328854560
I0403 17:49:58.999122  6099 layer_factory.hpp:77] Creating layer inception_5b/3x3_reduce
I0403 17:49:58.999152  6099 net.cpp:91] Creating Layer inception_5b/3x3_reduce
I0403 17:49:58.999176  6099 net.cpp:425] inception_5b/3x3_reduce <- inception_5a/output_inception_5a/output_0_split_1
I0403 17:49:58.999210  6099 net.cpp:399] inception_5b/3x3_reduce -> inception_5b/3x3_reduce
I0403 17:49:59.002503  6099 net.cpp:141] Setting up inception_5b/3x3_reduce
I0403 17:49:59.002539  6099 net.cpp:148] Top shape: 24 192 7 7 (225792)
I0403 17:49:59.002559  6099 net.cpp:156] Memory required for data: 1329757728
I0403 17:49:59.002584  6099 layer_factory.hpp:77] Creating layer inception_5b/relu_3x3_reduce
I0403 17:49:59.002607  6099 net.cpp:91] Creating Layer inception_5b/relu_3x3_reduce
I0403 17:49:59.002629  6099 net.cpp:425] inception_5b/relu_3x3_reduce <- inception_5b/3x3_reduce
I0403 17:49:59.002656  6099 net.cpp:386] inception_5b/relu_3x3_reduce -> inception_5b/3x3_reduce (in-place)
I0403 17:49:59.002892  6099 net.cpp:141] Setting up inception_5b/relu_3x3_reduce
I0403 17:49:59.002924  6099 net.cpp:148] Top shape: 24 192 7 7 (225792)
I0403 17:49:59.002943  6099 net.cpp:156] Memory required for data: 1330660896
I0403 17:49:59.002964  6099 layer_factory.hpp:77] Creating layer inception_5b/3x3
I0403 17:49:59.002992  6099 net.cpp:91] Creating Layer inception_5b/3x3
I0403 17:49:59.003015  6099 net.cpp:425] inception_5b/3x3 <- inception_5b/3x3_reduce
I0403 17:49:59.003041  6099 net.cpp:399] inception_5b/3x3 -> inception_5b/3x3
I0403 17:49:59.011451  6099 net.cpp:141] Setting up inception_5b/3x3
I0403 17:49:59.011487  6099 net.cpp:148] Top shape: 24 384 7 7 (451584)
I0403 17:49:59.011507  6099 net.cpp:156] Memory required for data: 1332467232
I0403 17:49:59.011531  6099 layer_factory.hpp:77] Creating layer inception_5b/relu_3x3
I0403 17:49:59.011559  6099 net.cpp:91] Creating Layer inception_5b/relu_3x3
I0403 17:49:59.011581  6099 net.cpp:425] inception_5b/relu_3x3 <- inception_5b/3x3
I0403 17:49:59.011605  6099 net.cpp:386] inception_5b/relu_3x3 -> inception_5b/3x3 (in-place)
I0403 17:49:59.011967  6099 net.cpp:141] Setting up inception_5b/relu_3x3
I0403 17:49:59.012001  6099 net.cpp:148] Top shape: 24 384 7 7 (451584)
I0403 17:49:59.012020  6099 net.cpp:156] Memory required for data: 1334273568
I0403 17:49:59.012040  6099 layer_factory.hpp:77] Creating layer inception_5b/5x5_reduce
I0403 17:49:59.012087  6099 net.cpp:91] Creating Layer inception_5b/5x5_reduce
I0403 17:49:59.012112  6099 net.cpp:425] inception_5b/5x5_reduce <- inception_5a/output_inception_5a/output_0_split_2
I0403 17:49:59.012141  6099 net.cpp:399] inception_5b/5x5_reduce -> inception_5b/5x5_reduce
I0403 17:49:59.013731  6099 net.cpp:141] Setting up inception_5b/5x5_reduce
I0403 17:49:59.013767  6099 net.cpp:148] Top shape: 24 48 7 7 (56448)
I0403 17:49:59.013787  6099 net.cpp:156] Memory required for data: 1334499360
I0403 17:49:59.013813  6099 layer_factory.hpp:77] Creating layer inception_5b/relu_5x5_reduce
I0403 17:49:59.013841  6099 net.cpp:91] Creating Layer inception_5b/relu_5x5_reduce
I0403 17:49:59.013864  6099 net.cpp:425] inception_5b/relu_5x5_reduce <- inception_5b/5x5_reduce
I0403 17:49:59.013886  6099 net.cpp:386] inception_5b/relu_5x5_reduce -> inception_5b/5x5_reduce (in-place)
I0403 17:49:59.014350  6099 net.cpp:141] Setting up inception_5b/relu_5x5_reduce
I0403 17:49:59.014384  6099 net.cpp:148] Top shape: 24 48 7 7 (56448)
I0403 17:49:59.014405  6099 net.cpp:156] Memory required for data: 1334725152
I0403 17:49:59.014425  6099 layer_factory.hpp:77] Creating layer inception_5b/5x5
I0403 17:49:59.014451  6099 net.cpp:91] Creating Layer inception_5b/5x5
I0403 17:49:59.014472  6099 net.cpp:425] inception_5b/5x5 <- inception_5b/5x5_reduce
I0403 17:49:59.014497  6099 net.cpp:399] inception_5b/5x5 -> inception_5b/5x5
I0403 17:49:59.017030  6099 net.cpp:141] Setting up inception_5b/5x5
I0403 17:49:59.017066  6099 net.cpp:148] Top shape: 24 128 7 7 (150528)
I0403 17:49:59.017086  6099 net.cpp:156] Memory required for data: 1335327264
I0403 17:49:59.017108  6099 layer_factory.hpp:77] Creating layer inception_5b/relu_5x5
I0403 17:49:59.017134  6099 net.cpp:91] Creating Layer inception_5b/relu_5x5
I0403 17:49:59.017156  6099 net.cpp:425] inception_5b/relu_5x5 <- inception_5b/5x5
I0403 17:49:59.017184  6099 net.cpp:386] inception_5b/relu_5x5 -> inception_5b/5x5 (in-place)
I0403 17:49:59.017431  6099 net.cpp:141] Setting up inception_5b/relu_5x5
I0403 17:49:59.017467  6099 net.cpp:148] Top shape: 24 128 7 7 (150528)
I0403 17:49:59.017487  6099 net.cpp:156] Memory required for data: 1335929376
I0403 17:49:59.017505  6099 layer_factory.hpp:77] Creating layer inception_5b/pool
I0403 17:49:59.017529  6099 net.cpp:91] Creating Layer inception_5b/pool
I0403 17:49:59.017550  6099 net.cpp:425] inception_5b/pool <- inception_5a/output_inception_5a/output_0_split_3
I0403 17:49:59.017575  6099 net.cpp:399] inception_5b/pool -> inception_5b/pool
I0403 17:49:59.017666  6099 net.cpp:141] Setting up inception_5b/pool
I0403 17:49:59.017695  6099 net.cpp:148] Top shape: 24 832 7 7 (978432)
I0403 17:49:59.017714  6099 net.cpp:156] Memory required for data: 1339843104
I0403 17:49:59.017731  6099 layer_factory.hpp:77] Creating layer inception_5b/pool_proj
I0403 17:49:59.017760  6099 net.cpp:91] Creating Layer inception_5b/pool_proj
I0403 17:49:59.017783  6099 net.cpp:425] inception_5b/pool_proj <- inception_5b/pool
I0403 17:49:59.017809  6099 net.cpp:399] inception_5b/pool_proj -> inception_5b/pool_proj
I0403 17:49:59.020661  6099 net.cpp:141] Setting up inception_5b/pool_proj
I0403 17:49:59.020699  6099 net.cpp:148] Top shape: 24 128 7 7 (150528)
I0403 17:49:59.020719  6099 net.cpp:156] Memory required for data: 1340445216
I0403 17:49:59.020741  6099 layer_factory.hpp:77] Creating layer inception_5b/relu_pool_proj
I0403 17:49:59.020767  6099 net.cpp:91] Creating Layer inception_5b/relu_pool_proj
I0403 17:49:59.020790  6099 net.cpp:425] inception_5b/relu_pool_proj <- inception_5b/pool_proj
I0403 17:49:59.020813  6099 net.cpp:386] inception_5b/relu_pool_proj -> inception_5b/pool_proj (in-place)
I0403 17:49:59.021183  6099 net.cpp:141] Setting up inception_5b/relu_pool_proj
I0403 17:49:59.021215  6099 net.cpp:148] Top shape: 24 128 7 7 (150528)
I0403 17:49:59.021235  6099 net.cpp:156] Memory required for data: 1341047328
I0403 17:49:59.021255  6099 layer_factory.hpp:77] Creating layer inception_5b/output
I0403 17:49:59.021277  6099 net.cpp:91] Creating Layer inception_5b/output
I0403 17:49:59.021323  6099 net.cpp:425] inception_5b/output <- inception_5b/1x1
I0403 17:49:59.021347  6099 net.cpp:425] inception_5b/output <- inception_5b/3x3
I0403 17:49:59.021368  6099 net.cpp:425] inception_5b/output <- inception_5b/5x5
I0403 17:49:59.021389  6099 net.cpp:425] inception_5b/output <- inception_5b/pool_proj
I0403 17:49:59.021412  6099 net.cpp:399] inception_5b/output -> inception_5b/output
I0403 17:49:59.021476  6099 net.cpp:141] Setting up inception_5b/output
I0403 17:49:59.021509  6099 net.cpp:148] Top shape: 24 1024 7 7 (1204224)
I0403 17:49:59.021529  6099 net.cpp:156] Memory required for data: 1345864224
I0403 17:49:59.021549  6099 layer_factory.hpp:77] Creating layer pool5/7x7_s1
I0403 17:49:59.021571  6099 net.cpp:91] Creating Layer pool5/7x7_s1
I0403 17:49:59.021594  6099 net.cpp:425] pool5/7x7_s1 <- inception_5b/output
I0403 17:49:59.021620  6099 net.cpp:399] pool5/7x7_s1 -> pool5/7x7_s1
I0403 17:49:59.021890  6099 net.cpp:141] Setting up pool5/7x7_s1
I0403 17:49:59.021924  6099 net.cpp:148] Top shape: 24 1024 1 1 (24576)
I0403 17:49:59.021944  6099 net.cpp:156] Memory required for data: 1345962528
I0403 17:49:59.021962  6099 layer_factory.hpp:77] Creating layer pool5/drop_7x7_s1
I0403 17:49:59.021988  6099 net.cpp:91] Creating Layer pool5/drop_7x7_s1
I0403 17:49:59.022011  6099 net.cpp:425] pool5/drop_7x7_s1 <- pool5/7x7_s1
I0403 17:49:59.022034  6099 net.cpp:386] pool5/drop_7x7_s1 -> pool5/7x7_s1 (in-place)
I0403 17:49:59.022099  6099 net.cpp:141] Setting up pool5/drop_7x7_s1
I0403 17:49:59.022128  6099 net.cpp:148] Top shape: 24 1024 1 1 (24576)
I0403 17:49:59.022147  6099 net.cpp:156] Memory required for data: 1346060832
I0403 17:49:59.022166  6099 layer_factory.hpp:77] Creating layer loss3/classifier_plantvillage
I0403 17:49:59.022197  6099 net.cpp:91] Creating Layer loss3/classifier_plantvillage
I0403 17:49:59.022219  6099 net.cpp:425] loss3/classifier_plantvillage <- pool5/7x7_s1
I0403 17:49:59.022246  6099 net.cpp:399] loss3/classifier_plantvillage -> loss3/classifier_plantvillage
I0403 17:49:59.022773  6099 net.cpp:141] Setting up loss3/classifier_plantvillage
I0403 17:49:59.022805  6099 net.cpp:148] Top shape: 24 38 (912)
I0403 17:49:59.022825  6099 net.cpp:156] Memory required for data: 1346064480
I0403 17:49:59.022847  6099 layer_factory.hpp:77] Creating layer loss3/classifier_plantvillage_loss3/classifier_plantvillage_0_split
I0403 17:49:59.022871  6099 net.cpp:91] Creating Layer loss3/classifier_plantvillage_loss3/classifier_plantvillage_0_split
I0403 17:49:59.022891  6099 net.cpp:425] loss3/classifier_plantvillage_loss3/classifier_plantvillage_0_split <- loss3/classifier_plantvillage
I0403 17:49:59.022918  6099 net.cpp:399] loss3/classifier_plantvillage_loss3/classifier_plantvillage_0_split -> loss3/classifier_plantvillage_loss3/classifier_plantvillage_0_split_0
I0403 17:49:59.022945  6099 net.cpp:399] loss3/classifier_plantvillage_loss3/classifier_plantvillage_0_split -> loss3/classifier_plantvillage_loss3/classifier_plantvillage_0_split_1
I0403 17:49:59.022971  6099 net.cpp:399] loss3/classifier_plantvillage_loss3/classifier_plantvillage_0_split -> loss3/classifier_plantvillage_loss3/classifier_plantvillage_0_split_2
I0403 17:49:59.022997  6099 net.cpp:399] loss3/classifier_plantvillage_loss3/classifier_plantvillage_0_split -> loss3/classifier_plantvillage_loss3/classifier_plantvillage_0_split_3
I0403 17:49:59.023128  6099 net.cpp:141] Setting up loss3/classifier_plantvillage_loss3/classifier_plantvillage_0_split
I0403 17:49:59.023157  6099 net.cpp:148] Top shape: 24 38 (912)
I0403 17:49:59.023190  6099 net.cpp:148] Top shape: 24 38 (912)
I0403 17:49:59.023216  6099 net.cpp:148] Top shape: 24 38 (912)
I0403 17:49:59.023237  6099 net.cpp:148] Top shape: 24 38 (912)
I0403 17:49:59.023257  6099 net.cpp:156] Memory required for data: 1346079072
I0403 17:49:59.023277  6099 layer_factory.hpp:77] Creating layer loss1/loss
I0403 17:49:59.023308  6099 net.cpp:91] Creating Layer loss1/loss
I0403 17:49:59.023331  6099 net.cpp:425] loss1/loss <- loss1/classifier_plantvillage_loss1/classifier_plantvillage_0_split_0
I0403 17:49:59.023370  6099 net.cpp:425] loss1/loss <- label_data_1_split_0
…
