…
I0403 06:57:44.713901 10121 net.cpp:313] The NetState phase (0) differed from the phase (1) specified by a rule in layer accuracy
I0403 06:57:44.715622 10121 net.cpp:49] Initializing net from parameters: 
state {
  phase: TRAIN
}
layer {
  name: "data"
  type: "Data"
  top: "data"
  top: "label"
  include {
    phase: TRAIN
  }
  transform_param {
    mirror: true
    crop_size: 227
    mean_file: "/home/mohanty/data/final_dataset/lmdb/color-20-80/mean.binaryproto"
  }
  data_param {
    source: "/home/mohanty/data/final_dataset/lmdb/color-20-80/train_db"
    batch_size: 100
    backend: LMDB
  }
}
layer {
  name: "conv1"
  type: "Convolution"
  bottom: "data"
  top: "conv1"
  param {
    lr_mult: 1
    decay_mult: 1
  }
  param {
    lr_mult: 2
    decay_mult: 0
  }
  convolution_param {
    num_output: 96
    kernel_size: 11
    stride: 4
    weight_filler {
      type: "gaussian"
      std: 0.01
    }
    bias_filler {
      type: "constant"
      value: 0
    }
  }
}
layer {
  name: "relu1"
  type: "ReLU"
  bottom: "conv1"
  top: "conv1"
}
layer {
  name: "norm1"
  type: "LRN"
  bottom: "conv1"
  top: "norm1"
  lrn_param {
    local_size: 5
    alpha: 0.0001
    beta: 0.75
  }
}
layer {
  name: "pool1"
  type: "Pooling"
  bottom: "norm1"
  top: "pool1"
  pooling_param {
    pool: MAX
    kernel_size: 3
    stride: 2
  }
}
layer {
  name: "conv2"
  type: "Convolution"
  bottom: "pool1"
  top: "conv2"
  param {
    lr_mult: 1
    decay_mult: 1
  }
  param {
    lr_mult: 2
    decay_mult: 0
  }
  convolution_param {
    num_output: 256
    pad: 2
    kernel_size: 5
    group: 2
    weight_filler {
      type: "gaussian"
      std: 0.01
    }
    bias_filler {
      type: "constant"
      value: 0.1
    }
  }
}
layer {
  name: "relu2"
  type: "ReLU"
  bottom: "conv2"
  top: "conv2"
}
layer {
  name: "norm2"
  type: "LRN"
  bottom: "conv2"
  top: "norm2"
  lrn_param {
    local_size: 5
    alpha: 0.0001
    beta: 0.75
  }
}
layer {
  name: "pool2"
  type: "Pooling"
  bottom: "norm2"
  top: "pool2"
  pooling_param {
    pool: MAX
    kernel_size: 3
    stride: 2
  }
}
layer {
  name: "conv3"
  type: "Convolution"
  bottom: "pool2"
  top: "conv3"
  param {
    lr_mult: 1
    decay_mult: 1
  }
  param {
    lr_mult: 2
    decay_mult: 0
  }
  convolution_param {
    num_output: 384
    pad: 1
    kernel_size: 3
    weight_filler {
      type: "gaussian"
      std: 0.01
    }
    bias_filler {
      type: "constant"
      value: 0
    }
  }
}
layer {
  name: "relu3"
  type: "ReLU"
  bottom: "conv3"
  top: "conv3"
}
layer {
  name: "conv4"
  type: "Convolution"
  bottom: "conv3"
  top: "conv4"
  param {
    lr_mult: 1
    decay_mult: 1
  }
  param {
    lr_mult: 2
    decay_mult: 0
  }
  convolution_param {
    num_output: 384
    pad: 1
    kernel_size: 3
    group: 2
    weight_filler {
      type: "gaussian"
      std: 0.01
    }
    bias_filler {
      type: "constant"
      value: 0.1
    }
  }
}
layer {
  name: "relu4"
  type: "ReLU"
  bottom: "conv4"
  top: "conv4"
}
layer {
  name: "conv5"
  type: "Convolution"
  bottom: "conv4"
  top: "conv5"
  param {
    lr_mult: 1
    decay_mult: 1
  }
  param {
    lr_mult: 2
    decay_mult: 0
  }
  convolution_param {
    num_output: 256
    pad: 1
    kernel_size: 3
    group: 2
    weight_filler {
      type: "gaussian"
      std: 0.01
    }
    bias_filler {
      type: "constant"
      value: 0.1
    }
  }
}
layer {
  name: "relu5"
  type: "ReLU"
  bottom: "conv5"
  top: "conv5"
}
layer {
  name: "pool5"
  type: "Pooling"
  bottom: "conv5"
  top: "pool5"
  pooling_param {
    pool: MAX
    kernel_size: 3
    stride: 2
  }
}
layer {
  name: "fc6"
  type: "InnerProduct"
  bottom: "pool5"
  top: "fc6"
  param {
    lr_mult: 1
    decay_mult: 1
  }
  param {
    lr_mult: 2
    decay_mult: 0
  }
  inner_product_param {
    num_output: 4096
    weight_filler {
      type: "gaussian"
      std: 0.005
    }
    bias_filler {
      type: "constant"
      value: 0.1
    }
  }
}
layer {
  name: "relu6"
  type: "ReLU"
  bottom: "fc6"
  top: "fc6"
}
layer {
  name: "drop6"
  type: "Dropout"
  bottom: "fc6"
  top: "fc6"
  dropout_param {
    dropout_ratio: 0.5
  }
}
layer {
  name: "fc7"
  type: "InnerProduct"
  bottom: "fc6"
  top: "fc7"
  param {
    lr_mult: 1
    decay_mult: 1
  }
  param {
    lr_mult: 2
    decay_mult: 0
  }
  inner_product_param {
    num_output: 4096
    weight_filler {
      type: "gaussian"
      std: 0.005
    }
    bias_filler {
      type: "constant"
      value: 0.1
    }
  }
}
layer {
  name: "relu7"
  type: "ReLU"
  bottom: "fc7"
  top: "fc7"
}
layer {
  name: "drop7"
  type: "Dropout"
  bottom: "fc7"
  top: "fc7"
  dropout_param {
    dropout_ratio: 0.5
  }
}
layer {
  name: "fc8_plantvillage"
  type: "InnerProduct"
  bottom: "fc7"
  top: "fc8_plantvillage"
  param {
    lr_mult: 1
    decay_mult: 1
  }
  param {
    lr_mult: 2
    decay_mult: 0
  }
  inner_product_param {
    num_output: 38
    weight_filler {
      type: "gaussian"
      std: 0.01
    }
    bias_filler {
      type: "constant"
      value: 0
    }
  }
}
layer {
  name: "loss"
  type: "SoftmaxWithLoss"
  bottom: "fc8_plantvillage"
  bottom: "label"
  top: "loss"
}
I0403 06:57:44.716591 10121 layer_factory.hpp:77] Creating layer data
I0403 06:57:44.718279 10121 net.cpp:91] Creating Layer data
I0403 06:57:44.718369 10121 net.cpp:399] data -> data
I0403 06:57:44.718492 10121 net.cpp:399] data -> label
I0403 06:57:44.718575 10121 data_transformer.cpp:25] Loading mean file from: /home/mohanty/data/final_dataset/lmdb/color-20-80/mean.binaryproto
I0403 06:57:44.799485 10126 db_lmdb.cpp:38] Opened lmdb /home/mohanty/data/final_dataset/lmdb/color-20-80/train_db
I0403 06:57:44.831882 10121 data_layer.cpp:41] output data size: 100,3,227,227
I0403 06:57:44.951155 10121 net.cpp:141] Setting up data
I0403 06:57:44.951243 10121 net.cpp:148] Top shape: 100 3 227 227 (15458700)
I0403 06:57:44.951267 10121 net.cpp:148] Top shape: 100 (100)
I0403 06:57:44.951283 10121 net.cpp:156] Memory required for data: 61835200
I0403 06:57:44.951313 10121 layer_factory.hpp:77] Creating layer conv1
I0403 06:57:44.951354 10121 net.cpp:91] Creating Layer conv1
I0403 06:57:44.951376 10121 net.cpp:425] conv1 <- data
I0403 06:57:44.951406 10121 net.cpp:399] conv1 -> conv1
I0403 06:57:44.954027 10121 net.cpp:141] Setting up conv1
I0403 06:57:44.954058 10121 net.cpp:148] Top shape: 100 96 55 55 (29040000)
I0403 06:57:44.954076 10121 net.cpp:156] Memory required for data: 177995200
I0403 06:57:44.954109 10121 layer_factory.hpp:77] Creating layer relu1
I0403 06:57:44.954136 10121 net.cpp:91] Creating Layer relu1
I0403 06:57:44.954156 10121 net.cpp:425] relu1 <- conv1
I0403 06:57:44.954174 10121 net.cpp:386] relu1 -> conv1 (in-place)
I0403 06:57:44.954197 10121 net.cpp:141] Setting up relu1
I0403 06:57:44.954216 10121 net.cpp:148] Top shape: 100 96 55 55 (29040000)
I0403 06:57:44.954231 10121 net.cpp:156] Memory required for data: 294155200
I0403 06:57:44.954253 10121 layer_factory.hpp:77] Creating layer norm1
I0403 06:57:44.954274 10121 net.cpp:91] Creating Layer norm1
I0403 06:57:44.954329 10121 net.cpp:425] norm1 <- conv1
I0403 06:57:44.954349 10121 net.cpp:399] norm1 -> norm1
I0403 06:57:44.959992 10121 net.cpp:141] Setting up norm1
I0403 06:57:44.960028 10121 net.cpp:148] Top shape: 100 96 55 55 (29040000)
I0403 06:57:44.960047 10121 net.cpp:156] Memory required for data: 410315200
I0403 06:57:44.960062 10121 layer_factory.hpp:77] Creating layer pool1
I0403 06:57:44.960084 10121 net.cpp:91] Creating Layer pool1
I0403 06:57:44.960100 10121 net.cpp:425] pool1 <- norm1
I0403 06:57:44.960119 10121 net.cpp:399] pool1 -> pool1
I0403 06:57:44.960180 10121 net.cpp:141] Setting up pool1
I0403 06:57:44.960206 10121 net.cpp:148] Top shape: 100 96 27 27 (6998400)
I0403 06:57:44.960222 10121 net.cpp:156] Memory required for data: 438308800
I0403 06:57:44.960249 10121 layer_factory.hpp:77] Creating layer conv2
I0403 06:57:44.960276 10121 net.cpp:91] Creating Layer conv2
I0403 06:57:44.960295 10121 net.cpp:425] conv2 <- pool1
I0403 06:57:44.960314 10121 net.cpp:399] conv2 -> conv2
I0403 06:57:44.961716 10127 blocking_queue.cpp:50] Waiting for data
I0403 06:57:44.972643 10121 net.cpp:141] Setting up conv2
I0403 06:57:44.972672 10121 net.cpp:148] Top shape: 100 256 27 27 (18662400)
I0403 06:57:44.972688 10121 net.cpp:156] Memory required for data: 512958400
I0403 06:57:44.972709 10121 layer_factory.hpp:77] Creating layer relu2
I0403 06:57:44.972729 10121 net.cpp:91] Creating Layer relu2
I0403 06:57:44.972745 10121 net.cpp:425] relu2 <- conv2
I0403 06:57:44.972764 10121 net.cpp:386] relu2 -> conv2 (in-place)
I0403 06:57:44.972784 10121 net.cpp:141] Setting up relu2
I0403 06:57:44.972800 10121 net.cpp:148] Top shape: 100 256 27 27 (18662400)
I0403 06:57:44.972815 10121 net.cpp:156] Memory required for data: 587608000
I0403 06:57:44.972829 10121 layer_factory.hpp:77] Creating layer norm2
I0403 06:57:44.972847 10121 net.cpp:91] Creating Layer norm2
I0403 06:57:44.972863 10121 net.cpp:425] norm2 <- conv2
I0403 06:57:44.972879 10121 net.cpp:399] norm2 -> norm2
I0403 06:57:44.972923 10121 net.cpp:141] Setting up norm2
I0403 06:57:44.972945 10121 net.cpp:148] Top shape: 100 256 27 27 (18662400)
I0403 06:57:44.972961 10121 net.cpp:156] Memory required for data: 662257600
I0403 06:57:44.972976 10121 layer_factory.hpp:77] Creating layer pool2
I0403 06:57:44.972995 10121 net.cpp:91] Creating Layer pool2
I0403 06:57:44.973011 10121 net.cpp:425] pool2 <- norm2
I0403 06:57:44.973027 10121 net.cpp:399] pool2 -> pool2
I0403 06:57:44.973070 10121 net.cpp:141] Setting up pool2
I0403 06:57:44.973093 10121 net.cpp:148] Top shape: 100 256 13 13 (4326400)
I0403 06:57:44.973107 10121 net.cpp:156] Memory required for data: 679563200
I0403 06:57:44.973120 10121 layer_factory.hpp:77] Creating layer conv3
I0403 06:57:44.973141 10121 net.cpp:91] Creating Layer conv3
I0403 06:57:44.973158 10121 net.cpp:425] conv3 <- pool2
I0403 06:57:44.973177 10121 net.cpp:399] conv3 -> conv3
I0403 06:57:45.005935 10121 net.cpp:141] Setting up conv3
I0403 06:57:45.005976 10121 net.cpp:148] Top shape: 100 384 13 13 (6489600)
I0403 06:57:45.005991 10121 net.cpp:156] Memory required for data: 705521600
I0403 06:57:45.006011 10121 layer_factory.hpp:77] Creating layer relu3
I0403 06:57:45.006031 10121 net.cpp:91] Creating Layer relu3
I0403 06:57:45.006047 10121 net.cpp:425] relu3 <- conv3
I0403 06:57:45.006064 10121 net.cpp:386] relu3 -> conv3 (in-place)
I0403 06:57:45.006083 10121 net.cpp:141] Setting up relu3
I0403 06:57:45.006098 10121 net.cpp:148] Top shape: 100 384 13 13 (6489600)
I0403 06:57:45.006111 10121 net.cpp:156] Memory required for data: 731480000
I0403 06:57:45.006125 10121 layer_factory.hpp:77] Creating layer conv4
I0403 06:57:45.006145 10121 net.cpp:91] Creating Layer conv4
I0403 06:57:45.006161 10121 net.cpp:425] conv4 <- conv3
I0403 06:57:45.006181 10121 net.cpp:399] conv4 -> conv4
I0403 06:57:45.030556 10121 net.cpp:141] Setting up conv4
I0403 06:57:45.030587 10121 net.cpp:148] Top shape: 100 384 13 13 (6489600)
I0403 06:57:45.030603 10121 net.cpp:156] Memory required for data: 757438400
I0403 06:57:45.030638 10121 layer_factory.hpp:77] Creating layer relu4
I0403 06:57:45.030658 10121 net.cpp:91] Creating Layer relu4
I0403 06:57:45.030674 10121 net.cpp:425] relu4 <- conv4
I0403 06:57:45.030691 10121 net.cpp:386] relu4 -> conv4 (in-place)
I0403 06:57:45.030710 10121 net.cpp:141] Setting up relu4
I0403 06:57:45.030726 10121 net.cpp:148] Top shape: 100 384 13 13 (6489600)
I0403 06:57:45.030740 10121 net.cpp:156] Memory required for data: 783396800
I0403 06:57:45.030753 10121 layer_factory.hpp:77] Creating layer conv5
I0403 06:57:45.030774 10121 net.cpp:91] Creating Layer conv5
I0403 06:57:45.030788 10121 net.cpp:425] conv5 <- conv4
I0403 06:57:45.030805 10121 net.cpp:399] conv5 -> conv5
I0403 06:57:45.047112 10121 net.cpp:141] Setting up conv5
I0403 06:57:45.047143 10121 net.cpp:148] Top shape: 100 256 13 13 (4326400)
I0403 06:57:45.047159 10121 net.cpp:156] Memory required for data: 800702400
I0403 06:57:45.047179 10121 layer_factory.hpp:77] Creating layer relu5
I0403 06:57:45.047199 10121 net.cpp:91] Creating Layer relu5
I0403 06:57:45.047214 10121 net.cpp:425] relu5 <- conv5
I0403 06:57:45.047233 10121 net.cpp:386] relu5 -> conv5 (in-place)
I0403 06:57:45.047258 10121 net.cpp:141] Setting up relu5
I0403 06:57:45.047276 10121 net.cpp:148] Top shape: 100 256 13 13 (4326400)
I0403 06:57:45.047291 10121 net.cpp:156] Memory required for data: 818008000
I0403 06:57:45.047304 10121 layer_factory.hpp:77] Creating layer pool5
I0403 06:57:45.047322 10121 net.cpp:91] Creating Layer pool5
I0403 06:57:45.047335 10121 net.cpp:425] pool5 <- conv5
I0403 06:57:45.047351 10121 net.cpp:399] pool5 -> pool5
I0403 06:57:45.047399 10121 net.cpp:141] Setting up pool5
I0403 06:57:45.047420 10121 net.cpp:148] Top shape: 100 256 6 6 (921600)
I0403 06:57:45.047435 10121 net.cpp:156] Memory required for data: 821694400
I0403 06:57:45.047449 10121 layer_factory.hpp:77] Creating layer fc6
I0403 06:57:45.047473 10121 net.cpp:91] Creating Layer fc6
I0403 06:57:45.047490 10121 net.cpp:425] fc6 <- pool5
I0403 06:57:45.047508 10121 net.cpp:399] fc6 -> fc6
I0403 06:57:46.417713 10121 net.cpp:141] Setting up fc6
I0403 06:57:46.417794 10121 net.cpp:148] Top shape: 100 4096 (409600)
I0403 06:57:46.417810 10121 net.cpp:156] Memory required for data: 823332800
I0403 06:57:46.417831 10121 layer_factory.hpp:77] Creating layer relu6
I0403 06:57:46.417856 10121 net.cpp:91] Creating Layer relu6
I0403 06:57:46.417873 10121 net.cpp:425] relu6 <- fc6
I0403 06:57:46.417894 10121 net.cpp:386] relu6 -> fc6 (in-place)
I0403 06:57:46.417917 10121 net.cpp:141] Setting up relu6
I0403 06:57:46.417934 10121 net.cpp:148] Top shape: 100 4096 (409600)
I0403 06:57:46.417949 10121 net.cpp:156] Memory required for data: 824971200
I0403 06:57:46.417976 10121 layer_factory.hpp:77] Creating layer drop6
I0403 06:57:46.418001 10121 net.cpp:91] Creating Layer drop6
I0403 06:57:46.418018 10121 net.cpp:425] drop6 <- fc6
I0403 06:57:46.418035 10121 net.cpp:386] drop6 -> fc6 (in-place)
I0403 06:57:46.418083 10121 net.cpp:141] Setting up drop6
I0403 06:57:46.418107 10121 net.cpp:148] Top shape: 100 4096 (409600)
I0403 06:57:46.418122 10121 net.cpp:156] Memory required for data: 826609600
I0403 06:57:46.418135 10121 layer_factory.hpp:77] Creating layer fc7
I0403 06:57:46.418156 10121 net.cpp:91] Creating Layer fc7
I0403 06:57:46.418172 10121 net.cpp:425] fc7 <- fc6
I0403 06:57:46.418191 10121 net.cpp:399] fc7 -> fc7
I0403 06:57:47.029121 10121 net.cpp:141] Setting up fc7
I0403 06:57:47.029201 10121 net.cpp:148] Top shape: 100 4096 (409600)
I0403 06:57:47.029217 10121 net.cpp:156] Memory required for data: 828248000
I0403 06:57:47.029242 10121 layer_factory.hpp:77] Creating layer relu7
I0403 06:57:47.029273 10121 net.cpp:91] Creating Layer relu7
I0403 06:57:47.029289 10121 net.cpp:425] relu7 <- fc7
I0403 06:57:47.029311 10121 net.cpp:386] relu7 -> fc7 (in-place)
I0403 06:57:47.029333 10121 net.cpp:141] Setting up relu7
I0403 06:57:47.029350 10121 net.cpp:148] Top shape: 100 4096 (409600)
I0403 06:57:47.029363 10121 net.cpp:156] Memory required for data: 829886400
I0403 06:57:47.029376 10121 layer_factory.hpp:77] Creating layer drop7
I0403 06:57:47.029434 10121 net.cpp:91] Creating Layer drop7
I0403 06:57:47.029451 10121 net.cpp:425] drop7 <- fc7
I0403 06:57:47.029471 10121 net.cpp:386] drop7 -> fc7 (in-place)
I0403 06:57:47.029510 10121 net.cpp:141] Setting up drop7
I0403 06:57:47.029531 10121 net.cpp:148] Top shape: 100 4096 (409600)
I0403 06:57:47.029546 10121 net.cpp:156] Memory required for data: 831524800
I0403 06:57:47.029558 10121 layer_factory.hpp:77] Creating layer fc8_plantvillage
I0403 06:57:47.029580 10121 net.cpp:91] Creating Layer fc8_plantvillage
I0403 06:57:47.029597 10121 net.cpp:425] fc8_plantvillage <- fc7
I0403 06:57:47.029618 10121 net.cpp:399] fc8_plantvillage -> fc8_plantvillage
I0403 06:57:47.035661 10121 net.cpp:141] Setting up fc8_plantvillage
I0403 06:57:47.035689 10121 net.cpp:148] Top shape: 100 38 (3800)
I0403 06:57:47.035704 10121 net.cpp:156] Memory required for data: 831540000
I0403 06:57:47.035722 10121 layer_factory.hpp:77] Creating layer loss
I0403 06:57:47.035744 10121 net.cpp:91] Creating Layer loss
I0403 06:57:47.035763 10121 net.cpp:425] loss <- fc8_plantvillage
I0403 06:57:47.035778 10121 net.cpp:425] loss <- label
I0403 06:57:47.035799 10121 net.cpp:399] loss -> loss
I0403 06:57:47.035826 10121 layer_factory.hpp:77] Creating layer loss
…
I0403 06:57:47.037526 10121 net.cpp:313] The NetState phase (1) differed from the phase (0) specified by a rule in layer data
I0403 06:57:47.038154 10121 net.cpp:49] Initializing net from parameters: 
state {
  phase: TEST
}
layer {
  name: "data"
  type: "Data"
  top: "data"
  top: "label"
  include {
    phase: TEST
  }
  transform_param {
    crop_size: 227
    mean_file: "/home/mohanty/data/final_dataset/lmdb/color-20-80/mean.binaryproto"
  }
  data_param {
    source: "/home/mohanty/data/final_dataset/lmdb/color-20-80/test_db"
    batch_size: 100
    backend: LMDB
  }
}
layer {
  name: "conv1"
  type: "Convolution"
  bottom: "data"
  top: "conv1"
  param {
    lr_mult: 1
    decay_mult: 1
  }
  param {
    lr_mult: 2
    decay_mult: 0
  }
  convolution_param {
    num_output: 96
    kernel_size: 11
    stride: 4
    weight_filler {
      type: "gaussian"
      std: 0.01
    }
    bias_filler {
      type: "constant"
      value: 0
    }
  }
}
layer {
  name: "relu1"
  type: "ReLU"
  bottom: "conv1"
  top: "conv1"
}
layer {
  name: "norm1"
  type: "LRN"
  bottom: "conv1"
  top: "norm1"
  lrn_param {
    local_size: 5
    alpha: 0.0001
    beta: 0.75
  }
}
layer {
  name: "pool1"
  type: "Pooling"
  bottom: "norm1"
  top: "pool1"
  pooling_param {
    pool: MAX
    kernel_size: 3
    stride: 2
  }
}
layer {
  name: "conv2"
  type: "Convolution"
  bottom: "pool1"
  top: "conv2"
  param {
    lr_mult: 1
    decay_mult: 1
  }
  param {
    lr_mult: 2
    decay_mult: 0
  }
  convolution_param {
    num_output: 256
    pad: 2
    kernel_size: 5
    group: 2
    weight_filler {
      type: "gaussian"
      std: 0.01
    }
    bias_filler {
      type: "constant"
      value: 0.1
    }
  }
}
layer {
  name: "relu2"
  type: "ReLU"
  bottom: "conv2"
  top: "conv2"
}
layer {
  name: "norm2"
  type: "LRN"
  bottom: "conv2"
  top: "norm2"
  lrn_param {
    local_size: 5
    alpha: 0.0001
    beta: 0.75
  }
}
layer {
  name: "pool2"
  type: "Pooling"
  bottom: "norm2"
  top: "pool2"
  pooling_param {
    pool: MAX
    kernel_size: 3
    stride: 2
  }
}
layer {
  name: "conv3"
  type: "Convolution"
  bottom: "pool2"
  top: "conv3"
  param {
    lr_mult: 1
    decay_mult: 1
  }
  param {
    lr_mult: 2
    decay_mult: 0
  }
  convolution_param {
    num_output: 384
    pad: 1
    kernel_size: 3
    weight_filler {
      type: "gaussian"
      std: 0.01
    }
    bias_filler {
      type: "constant"
      value: 0
    }
  }
}
layer {
  name: "relu3"
  type: "ReLU"
  bottom: "conv3"
  top: "conv3"
}
layer {
  name: "conv4"
  type: "Convolution"
  bottom: "conv3"
  top: "conv4"
  param {
    lr_mult: 1
    decay_mult: 1
  }
  param {
    lr_mult: 2
    decay_mult: 0
  }
  convolution_param {
    num_output: 384
    pad: 1
    kernel_size: 3
    group: 2
    weight_filler {
      type: "gaussian"
      std: 0.01
    }
    bias_filler {
      type: "constant"
      value: 0.1
    }
  }
}
layer {
  name: "relu4"
  type: "ReLU"
  bottom: "conv4"
  top: "conv4"
}
layer {
  name: "conv5"
  type: "Convolution"
  bottom: "conv4"
  top: "conv5"
  param {
    lr_mult: 1
    decay_mult: 1
  }
  param {
    lr_mult: 2
    decay_mult: 0
  }
  convolution_param {
    num_output: 256
    pad: 1
    kernel_size: 3
    group: 2
    weight_filler {
      type: "gaussian"
      std: 0.01
    }
    bias_filler {
      type: "constant"
      value: 0.1
    }
  }
}
layer {
  name: "relu5"
  type: "ReLU"
  bottom: "conv5"
  top: "conv5"
}
layer {
  name: "pool5"
  type: "Pooling"
  bottom: "conv5"
  top: "pool5"
  pooling_param {
    pool: MAX
    kernel_size: 3
    stride: 2
  }
}
layer {
  name: "fc6"
  type: "InnerProduct"
  bottom: "pool5"
  top: "fc6"
  param {
    lr_mult: 1
    decay_mult: 1
  }
  param {
    lr_mult: 2
    decay_mult: 0
  }
  inner_product_param {
    num_output: 4096
    weight_filler {
      type: "gaussian"
      std: 0.005
    }
    bias_filler {
      type: "constant"
      value: 0.1
    }
  }
}
layer {
  name: "relu6"
  type: "ReLU"
  bottom: "fc6"
  top: "fc6"
}
layer {
  name: "drop6"
  type: "Dropout"
  bottom: "fc6"
  top: "fc6"
  dropout_param {
    dropout_ratio: 0.5
  }
}
layer {
  name: "fc7"
  type: "InnerProduct"
  bottom: "fc6"
  top: "fc7"
  param {
    lr_mult: 1
    decay_mult: 1
  }
  param {
    lr_mult: 2
    decay_mult: 0
  }
  inner_product_param {
    num_output: 4096
    weight_filler {
      type: "gaussian"
      std: 0.005
    }
    bias_filler {
      type: "constant"
      value: 0.1
    }
  }
}
layer {
  name: "relu7"
  type: "ReLU"
  bottom: "fc7"
  top: "fc7"
}
layer {
  name: "drop7"
  type: "Dropout"
  bottom: "fc7"
  top: "fc7"
  dropout_param {
    dropout_ratio: 0.5
  }
}
layer {
  name: "fc8_plantvillage"
  type: "InnerProduct"
  bottom: "fc7"
  top: "fc8_plantvillage"
  param {
    lr_mult: 1
    decay_mult: 1
  }
  param {
    lr_mult: 2
    decay_mult: 0
  }
  inner_product_param {
    num_output: 38
    weight_filler {
      type: "gaussian"
      std: 0.01
    }
    bias_filler {
      type: "constant"
      value: 0
    }
  }
}
layer {
  name: "loss"
  type: "SoftmaxWithLoss"
  bottom: "fc8_plantvillage"
  bottom: "label"
  top: "loss"
}
layer {
  name: "accuracy"
  type: "Accuracy"
  bottom: "fc8_plantvillage"
  bottom: "label"
  top: "accuracy"
  include {
    phase: TEST
  }
}
I0403 06:57:47.038319 10121 layer_factory.hpp:77] Creating layer data
I0403 06:57:47.038488 10121 net.cpp:91] Creating Layer data
I0403 06:57:47.038516 10121 net.cpp:399] data -> data
I0403 06:57:47.038539 10121 net.cpp:399] data -> label
I0403 06:57:47.038566 10121 data_transformer.cpp:25] Loading mean file from: /home/mohanty/data/final_dataset/lmdb/color-20-80/mean.binaryproto
I0403 06:57:47.090117 10128 db_lmdb.cpp:38] Opened lmdb /home/mohanty/data/final_dataset/lmdb/color-20-80/test_db
I0403 06:57:47.141273 10121 data_layer.cpp:41] output data size: 100,3,227,227
I0403 06:57:47.293226 10121 net.cpp:141] Setting up data
I0403 06:57:47.293297 10121 net.cpp:148] Top shape: 100 3 227 227 (15458700)
I0403 06:57:47.293324 10121 net.cpp:148] Top shape: 100 (100)
I0403 06:57:47.293341 10121 net.cpp:156] Memory required for data: 61835200
I0403 06:57:47.293359 10121 layer_factory.hpp:77] Creating layer label_data_1_split
I0403 06:57:47.293395 10121 net.cpp:91] Creating Layer label_data_1_split
I0403 06:57:47.293417 10121 net.cpp:425] label_data_1_split <- label
I0403 06:57:47.293447 10121 net.cpp:399] label_data_1_split -> label_data_1_split_0
I0403 06:57:47.293479 10121 net.cpp:399] label_data_1_split -> label_data_1_split_1
I0403 06:57:47.293540 10121 net.cpp:141] Setting up label_data_1_split
I0403 06:57:47.293568 10121 net.cpp:148] Top shape: 100 (100)
I0403 06:57:47.293587 10121 net.cpp:148] Top shape: 100 (100)
I0403 06:57:47.293606 10121 net.cpp:156] Memory required for data: 61836000
I0403 06:57:47.293627 10121 layer_factory.hpp:77] Creating layer conv1
I0403 06:57:47.293659 10121 net.cpp:91] Creating Layer conv1
I0403 06:57:47.293684 10121 net.cpp:425] conv1 <- data
I0403 06:57:47.293705 10121 net.cpp:399] conv1 -> conv1
I0403 06:57:47.295333 10121 net.cpp:141] Setting up conv1
I0403 06:57:47.295411 10121 net.cpp:148] Top shape: 100 96 55 55 (29040000)
I0403 06:57:47.295472 10121 net.cpp:156] Memory required for data: 177996000
I0403 06:57:47.295497 10121 layer_factory.hpp:77] Creating layer relu1
I0403 06:57:47.295519 10121 net.cpp:91] Creating Layer relu1
I0403 06:57:47.295536 10121 net.cpp:425] relu1 <- conv1
I0403 06:57:47.295554 10121 net.cpp:386] relu1 -> conv1 (in-place)
I0403 06:57:47.295574 10121 net.cpp:141] Setting up relu1
I0403 06:57:47.295593 10121 net.cpp:148] Top shape: 100 96 55 55 (29040000)
I0403 06:57:47.295619 10121 net.cpp:156] Memory required for data: 294156000
I0403 06:57:47.295634 10121 layer_factory.hpp:77] Creating layer norm1
I0403 06:57:47.295653 10121 net.cpp:91] Creating Layer norm1
I0403 06:57:47.295670 10121 net.cpp:425] norm1 <- conv1
I0403 06:57:47.295687 10121 net.cpp:399] norm1 -> norm1
I0403 06:57:47.295737 10121 net.cpp:141] Setting up norm1
I0403 06:57:47.295758 10121 net.cpp:148] Top shape: 100 96 55 55 (29040000)
I0403 06:57:47.295773 10121 net.cpp:156] Memory required for data: 410316000
I0403 06:57:47.295788 10121 layer_factory.hpp:77] Creating layer pool1
I0403 06:57:47.295806 10121 net.cpp:91] Creating Layer pool1
I0403 06:57:47.295822 10121 net.cpp:425] pool1 <- norm1
I0403 06:57:47.295840 10121 net.cpp:399] pool1 -> pool1
I0403 06:57:47.295887 10121 net.cpp:141] Setting up pool1
I0403 06:57:47.295910 10121 net.cpp:148] Top shape: 100 96 27 27 (6998400)
I0403 06:57:47.295924 10121 net.cpp:156] Memory required for data: 438309600
I0403 06:57:47.295966 10121 layer_factory.hpp:77] Creating layer conv2
I0403 06:57:47.295990 10121 net.cpp:91] Creating Layer conv2
I0403 06:57:47.296007 10121 net.cpp:425] conv2 <- pool1
I0403 06:57:47.296027 10121 net.cpp:399] conv2 -> conv2
I0403 06:57:47.308001 10121 net.cpp:141] Setting up conv2
I0403 06:57:47.308033 10121 net.cpp:148] Top shape: 100 256 27 27 (18662400)
I0403 06:57:47.308050 10121 net.cpp:156] Memory required for data: 512959200
I0403 06:57:47.308071 10121 layer_factory.hpp:77] Creating layer relu2
I0403 06:57:47.308091 10121 net.cpp:91] Creating Layer relu2
I0403 06:57:47.308107 10121 net.cpp:425] relu2 <- conv2
I0403 06:57:47.308125 10121 net.cpp:386] relu2 -> conv2 (in-place)
I0403 06:57:47.308143 10121 net.cpp:141] Setting up relu2
I0403 06:57:47.308161 10121 net.cpp:148] Top shape: 100 256 27 27 (18662400)
I0403 06:57:47.308176 10121 net.cpp:156] Memory required for data: 587608800
I0403 06:57:47.308188 10121 layer_factory.hpp:77] Creating layer norm2
I0403 06:57:47.308246 10121 net.cpp:91] Creating Layer norm2
I0403 06:57:47.308719 10121 net.cpp:425] norm2 <- conv2
I0403 06:57:47.329054 10121 net.cpp:399] norm2 -> norm2
I0403 06:57:47.329126 10121 net.cpp:141] Setting up norm2
I0403 06:57:47.329152 10121 net.cpp:148] Top shape: 100 256 27 27 (18662400)
I0403 06:57:47.329169 10121 net.cpp:156] Memory required for data: 662258400
I0403 06:57:47.329185 10121 layer_factory.hpp:77] Creating layer pool2
I0403 06:57:47.330072 10121 net.cpp:91] Creating Layer pool2
I0403 06:57:47.330097 10121 net.cpp:425] pool2 <- norm2
I0403 06:57:47.330116 10121 net.cpp:399] pool2 -> pool2
I0403 06:57:47.330168 10121 net.cpp:141] Setting up pool2
I0403 06:57:47.330191 10121 net.cpp:148] Top shape: 100 256 13 13 (4326400)
I0403 06:57:47.330210 10121 net.cpp:156] Memory required for data: 679564000
I0403 06:57:47.330227 10121 layer_factory.hpp:77] Creating layer conv3
I0403 06:57:47.330250 10121 net.cpp:91] Creating Layer conv3
I0403 06:57:47.330268 10121 net.cpp:425] conv3 <- pool2
I0403 06:57:47.330287 10121 net.cpp:399] conv3 -> conv3
I0403 06:57:47.367202 10121 net.cpp:141] Setting up conv3
I0403 06:57:47.367250 10121 net.cpp:148] Top shape: 100 384 13 13 (6489600)
I0403 06:57:47.367269 10121 net.cpp:156] Memory required for data: 705522400
I0403 06:57:47.369125 10121 layer_factory.hpp:77] Creating layer relu3
I0403 06:57:47.370982 10121 net.cpp:91] Creating Layer relu3
I0403 06:57:47.371009 10121 net.cpp:425] relu3 <- conv3
I0403 06:57:47.371031 10121 net.cpp:386] relu3 -> conv3 (in-place)
I0403 06:57:47.371052 10121 net.cpp:141] Setting up relu3
I0403 06:57:47.371070 10121 net.cpp:148] Top shape: 100 384 13 13 (6489600)
I0403 06:57:47.371084 10121 net.cpp:156] Memory required for data: 731480800
I0403 06:57:47.371099 10121 layer_factory.hpp:77] Creating layer conv4
I0403 06:57:47.371124 10121 net.cpp:91] Creating Layer conv4
I0403 06:57:47.371140 10121 net.cpp:425] conv4 <- conv3
I0403 06:57:47.371158 10121 net.cpp:399] conv4 -> conv4
I0403 06:57:47.396744 10121 net.cpp:141] Setting up conv4
I0403 06:57:47.396780 10121 net.cpp:148] Top shape: 100 384 13 13 (6489600)
I0403 06:57:47.396796 10121 net.cpp:156] Memory required for data: 757439200
I0403 06:57:47.396814 10121 layer_factory.hpp:77] Creating layer relu4
I0403 06:57:47.396836 10121 net.cpp:91] Creating Layer relu4
I0403 06:57:47.396852 10121 net.cpp:425] relu4 <- conv4
I0403 06:57:47.396870 10121 net.cpp:386] relu4 -> conv4 (in-place)
I0403 06:57:47.396890 10121 net.cpp:141] Setting up relu4
I0403 06:57:47.396908 10121 net.cpp:148] Top shape: 100 384 13 13 (6489600)
I0403 06:57:47.396921 10121 net.cpp:156] Memory required for data: 783397600
I0403 06:57:47.396935 10121 layer_factory.hpp:77] Creating layer conv5
I0403 06:57:47.396958 10121 net.cpp:91] Creating Layer conv5
I0403 06:57:47.396975 10121 net.cpp:425] conv5 <- conv4
I0403 06:57:47.396994 10121 net.cpp:399] conv5 -> conv5
I0403 06:57:47.414618 10121 net.cpp:141] Setting up conv5
I0403 06:57:47.414652 10121 net.cpp:148] Top shape: 100 256 13 13 (4326400)
I0403 06:57:47.414669 10121 net.cpp:156] Memory required for data: 800703200
I0403 06:57:47.414732 10121 layer_factory.hpp:77] Creating layer relu5
I0403 06:57:47.414758 10121 net.cpp:91] Creating Layer relu5
I0403 06:57:47.414778 10121 net.cpp:425] relu5 <- conv5
I0403 06:57:47.414798 10121 net.cpp:386] relu5 -> conv5 (in-place)
I0403 06:57:47.414818 10121 net.cpp:141] Setting up relu5
I0403 06:57:47.414835 10121 net.cpp:148] Top shape: 100 256 13 13 (4326400)
I0403 06:57:47.414849 10121 net.cpp:156] Memory required for data: 818008800
I0403 06:57:47.414865 10121 layer_factory.hpp:77] Creating layer pool5
I0403 06:57:47.414887 10121 net.cpp:91] Creating Layer pool5
I0403 06:57:47.414904 10121 net.cpp:425] pool5 <- conv5
I0403 06:57:47.414922 10121 net.cpp:399] pool5 -> pool5
I0403 06:57:47.414976 10121 net.cpp:141] Setting up pool5
I0403 06:57:47.415001 10121 net.cpp:148] Top shape: 100 256 6 6 (921600)
I0403 06:57:47.415016 10121 net.cpp:156] Memory required for data: 821695200
I0403 06:57:47.415032 10121 layer_factory.hpp:77] Creating layer fc6
I0403 06:57:47.415053 10121 net.cpp:91] Creating Layer fc6
I0403 06:57:47.415071 10121 net.cpp:425] fc6 <- pool5
I0403 06:57:47.415092 10121 net.cpp:399] fc6 -> fc6
I0403 06:57:48.800817 10121 net.cpp:141] Setting up fc6
I0403 06:57:48.800900 10121 net.cpp:148] Top shape: 100 4096 (409600)
I0403 06:57:48.800917 10121 net.cpp:156] Memory required for data: 823333600
I0403 06:57:48.800940 10121 layer_factory.hpp:77] Creating layer relu6
I0403 06:57:48.800963 10121 net.cpp:91] Creating Layer relu6
I0403 06:57:48.800981 10121 net.cpp:425] relu6 <- fc6
I0403 06:57:48.801004 10121 net.cpp:386] relu6 -> fc6 (in-place)
I0403 06:57:48.801028 10121 net.cpp:141] Setting up relu6
I0403 06:57:48.801043 10121 net.cpp:148] Top shape: 100 4096 (409600)
I0403 06:57:48.801057 10121 net.cpp:156] Memory required for data: 824972000
I0403 06:57:48.801070 10121 layer_factory.hpp:77] Creating layer drop6
I0403 06:57:48.801090 10121 net.cpp:91] Creating Layer drop6
I0403 06:57:48.801105 10121 net.cpp:425] drop6 <- fc6
I0403 06:57:48.801121 10121 net.cpp:386] drop6 -> fc6 (in-place)
I0403 06:57:48.801162 10121 net.cpp:141] Setting up drop6
I0403 06:57:48.801183 10121 net.cpp:148] Top shape: 100 4096 (409600)
I0403 06:57:48.801198 10121 net.cpp:156] Memory required for data: 826610400
I0403 06:57:48.801218 10121 layer_factory.hpp:77] Creating layer fc7
I0403 06:57:48.801239 10121 net.cpp:91] Creating Layer fc7
I0403 06:57:48.801256 10121 net.cpp:425] fc7 <- fc6
I0403 06:57:48.801273 10121 net.cpp:399] fc7 -> fc7
I0403 06:57:49.401520 10121 net.cpp:141] Setting up fc7
I0403 06:57:49.401598 10121 net.cpp:148] Top shape: 100 4096 (409600)
I0403 06:57:49.401614 10121 net.cpp:156] Memory required for data: 828248800
I0403 06:57:49.401635 10121 layer_factory.hpp:77] Creating layer relu7
I0403 06:57:49.401659 10121 net.cpp:91] Creating Layer relu7
I0403 06:57:49.401676 10121 net.cpp:425] relu7 <- fc7
I0403 06:57:49.401698 10121 net.cpp:386] relu7 -> fc7 (in-place)
I0403 06:57:49.401721 10121 net.cpp:141] Setting up relu7
I0403 06:57:49.401738 10121 net.cpp:148] Top shape: 100 4096 (409600)
I0403 06:57:49.401752 10121 net.cpp:156] Memory required for data: 829887200
I0403 06:57:49.401767 10121 layer_factory.hpp:77] Creating layer drop7
I0403 06:57:49.401784 10121 net.cpp:91] Creating Layer drop7
I0403 06:57:49.401799 10121 net.cpp:425] drop7 <- fc7
I0403 06:57:49.401818 10121 net.cpp:386] drop7 -> fc7 (in-place)
I0403 06:57:49.401859 10121 net.cpp:141] Setting up drop7
I0403 06:57:49.401880 10121 net.cpp:148] Top shape: 100 4096 (409600)
I0403 06:57:49.401895 10121 net.cpp:156] Memory required for data: 831525600
I0403 06:57:49.401909 10121 layer_factory.hpp:77] Creating layer fc8_plantvillage
I0403 06:57:49.401932 10121 net.cpp:91] Creating Layer fc8_plantvillage
I0403 06:57:49.401949 10121 net.cpp:425] fc8_plantvillage <- fc7
I0403 06:57:49.401969 10121 net.cpp:399] fc8_plantvillage -> fc8_plantvillage
I0403 06:57:49.407984 10121 net.cpp:141] Setting up fc8_plantvillage
I0403 06:57:49.408012 10121 net.cpp:148] Top shape: 100 38 (3800)
I0403 06:57:49.408067 10121 net.cpp:156] Memory required for data: 831540800
I0403 06:57:49.408087 10121 layer_factory.hpp:77] Creating layer fc8_plantvillage_fc8_plantvillage_0_split
I0403 06:57:49.408105 10121 net.cpp:91] Creating Layer fc8_plantvillage_fc8_plantvillage_0_split
I0403 06:57:49.408121 10121 net.cpp:425] fc8_plantvillage_fc8_plantvillage_0_split <- fc8_plantvillage
I0403 06:57:49.408140 10121 net.cpp:399] fc8_plantvillage_fc8_plantvillage_0_split -> fc8_plantvillage_fc8_plantvillage_0_split_0
I0403 06:57:49.408162 10121 net.cpp:399] fc8_plantvillage_fc8_plantvillage_0_split -> fc8_plantvillage_fc8_plantvillage_0_split_1
I0403 06:57:49.408220 10121 net.cpp:141] Setting up fc8_plantvillage_fc8_plantvillage_0_split
I0403 06:57:49.408246 10121 net.cpp:148] Top shape: 100 38 (3800)
I0403 06:57:49.408262 10121 net.cpp:148] Top shape: 100 38 (3800)
I0403 06:57:49.408277 10121 net.cpp:156] Memory required for data: 831571200
I0403 06:57:49.408290 10121 layer_factory.hpp:77] Creating layer loss
I0403 06:57:49.408308 10121 net.cpp:91] Creating Layer loss
I0403 06:57:49.408324 10121 net.cpp:425] loss <- fc8_plantvillage_fc8_plantvillage_0_split_0
I0403 06:57:49.408340 10121 net.cpp:425] loss <- label_data_1_split_0
I0403 06:57:49.408357 10121 net.cpp:399] loss -> loss
…
