…
I0403 15:11:45.626273 11694 net.cpp:313] The NetState phase (1) differed from the phase (0) specified by a rule in layer data
I0403 15:11:45.627468 11694 net.cpp:49] Initializing net from parameters: 
state {
  phase: TEST
}
layer {
  name: "data"
  type: "Data"
  top: "data"
  top: "label"
  include {
    phase: TEST
  }
  transform_param {
    mirror: false
    crop_size: 224
    mean_file: "/home/mohanty/data/final_dataset/lmdb/segmented-40-60/mean.binaryproto"
  }
  data_param {
    source: "/home/mohanty/data/final_dataset/lmdb/segmented-40-60/test_db"
    batch_size: 24
    backend: LMDB
  }
}
layer {
  name: "conv1/7x7_s2"
  type: "Convolution"
  bottom: "data"
  top: "conv1/7x7_s2"
  param {
    lr_mult: 1
    decay_mult: 1
  }
  param {
    lr_mult: 2
    decay_mult: 0
  }
  convolution_param {
    num_output: 64
    pad: 3
    kernel_size: 7
    stride: 2
    weight_filler {
      type: "xavier"
      std: 0.1
    }
    bias_filler {
      type: "constant"
      value: 0.2
    }
  }
}
layer {
  name: "conv1/relu_7x7"
  type: "ReLU"
  bottom: "conv1/7x7_s2"
  top: "conv1/7x7_s2"
}
layer {
  name: "pool1/3x3_s2"
  type: "Pooling"
  bottom: "conv1/7x7_s2"
  top: "pool1/3x3_s2"
  pooling_param {
    pool: MAX
    kernel_size: 3
    stride: 2
  }
}
layer {
  name: "pool1/norm1"
  type: "LRN"
  bottom: "pool1/3x3_s2"
  top: "pool1/norm1"
  lrn_param {
    local_size: 5
    alpha: 0.0001
    beta: 0.75
  }
}
layer {
  name: "conv2/3x3_reduce"
  type: "Convolution"
  bottom: "pool1/norm1"
  top: "conv2/3x3_reduce"
  param {
    lr_mult: 1
    decay_mult: 1
  }
  param {
    lr_mult: 2
    decay_mult: 0
  }
  convolution_param {
    num_output: 64
    kernel_size: 1
    weight_filler {
      type: "xavier"
      std: 0.1
    }
    bias_filler {
      type: "constant"
      value: 0.2
    }
  }
}
layer {
  name: "conv2/relu_3x3_reduce"
  type: "ReLU"
  bottom: "conv2/3x3_reduce"
  top: "conv2/3x3_reduce"
}
layer {
  name: "conv2/3x3"
  type: "Convolution"
  bottom: "conv2/3x3_reduce"
  top: "conv2/3x3"
  param {
    lr_mult: 1
    decay_mult: 1
  }
  param {
    lr_mult: 2
    decay_mult: 0
  }
  convolution_param {
    num_output: 192
    pad: 1
    kernel_size: 3
    weight_filler {
      type: "xavier"
      std: 0.03
    }
    bias_filler {
      type: "constant"
      value: 0.2
    }
  }
}
layer {
  name: "conv2/relu_3x3"
  type: "ReLU"
  bottom: "conv2/3x3"
  top: "conv2/3x3"
}
layer {
  name: "conv2/norm2"
  type: "LRN"
  bottom: "conv2/3x3"
  top: "conv2/norm2"
  lrn_param {
    local_size: 5
    alpha: 0.0001
    beta: 0.75
  }
}
layer {
  name: "pool2/3x3_s2"
  type: "Pooling"
  bottom: "conv2/norm2"
  top: "pool2/3x3_s2"
  pooling_param {
    pool: MAX
    kernel_size: 3
    stride: 2
  }
}
layer {
  name: "inception_3a/1x1"
  type: "Convolution"
  bottom: "pool2/3x3_s2"
  top: "inception_3a/1x1"
  param {
    lr_mult: 1
    decay_mult: 1
  }
  param {
    lr_mult: 2
    decay_mult: 0
  }
  convolution_param {
    num_output: 64
    kernel_size: 1
    weight_filler {
      type: "xavier"
      std: 0.03
    }
    bias_filler {
      type: "constant"
      value: 0.2
    }
  }
}
layer {
  name: "inception_3a/relu_1x1"
  type: "ReLU"
  bottom: "inception_3a/1x1"
  top: "inception_3a/1x1"
}
layer {
  name: "inception_3a/3x3_reduce"
  type: "Convolution"
  bottom: "pool2/3x3_s2"
  top: "inception_3a/3x3_reduce"
  param {
    lr_mult: 1
    decay_mult: 1
  }
  param {
    lr_mult: 2
    decay_mult: 0
  }
  convolution_param {
    num_output: 96
    kernel_size: 1
    weight_filler {
      type: "xavier"
      std: 0.09
    }
    bias_filler {
      type: "constant"
      value: 0.2
    }
  }
}
layer {
  name: "inception_3a/relu_3x3_reduce"
  type: "ReLU"
  bottom: "inception_3a/3x3_reduce"
  top: "inception_3a/3x3_reduce"
}
layer {
  name: "inception_3a/3x3"
  type: "Convolution"
  bottom: "inception_3a/3x3_reduce"
  top: "inception_3a/3x3"
  param {
    lr_mult: 1
    decay_mult: 1
  }
  param {
    lr_mult: 2
    decay_mult: 0
  }
  convolution_param {
    num_output: 128
    pad: 1
    kernel_size: 3
    weight_filler {
      type: "xavier"
      std: 0.03
    }
    bias_filler {
      type: "constant"
      value: 0.2
    }
  }
}
layer {
  name: "inception_3a/relu_3x3"
  type: "ReLU"
  bottom: "inception_3a/3x3"
  top: "inception_3a/3x3"
}
layer {
  name: "inception_3a/5x5_reduce"
  type: "Convolution"
  bottom: "pool2/3x3_s2"
  top: "inception_3a/5x5_reduce"
  param {
    lr_mult: 1
    decay_mult: 1
  }
  param {
    lr_mult: 2
    decay_mult: 0
  }
  convolution_param {
    num_output: 16
    kernel_size: 1
    weight_filler {
      type: "xavier"
      std: 0.2
    }
    bias_filler {
      type: "constant"
      value: 0.2
    }
  }
}
layer {
  name: "inception_3a/relu_5x5_reduce"
  type: "ReLU"
  bottom: "inception_3a/5x5_reduce"
  top: "inception_3a/5x5_reduce"
}
layer {
  name: "inception_3a/5x5"
  type: "Convolution"
  bottom: "inception_3a/5x5_reduce"
  top: "inception_3a/5x5"
  param {
    lr_mult: 1
    decay_mult: 1
  }
  param {
    lr_mult: 2
    decay_mult: 0
  }
  convolution_param {
    num_output: 32
    pad: 2
    kernel_size: 5
    weight_filler {
      type: "xavier"
      std: 0.03
    }
    bias_filler {
      type: "constant"
      value: 0.2
    }
  }
}
layer {
  name: "inception_3a/relu_5x5"
  type: "ReLU"
  bottom: "inception_3a/5x5"
  top: "inception_3a/5x5"
}
layer {
  name: "inception_3a/pool"
  type: "Pooling"
  bottom: "pool2/3x3_s2"
  top: "inception_3a/pool"
  pooling_param {
    pool: MAX
    kernel_size: 3
    stride: 1
    pad: 1
  }
}
layer {
  name: "inception_3a/pool_proj"
  type: "Convolution"
  bottom: "inception_3a/pool"
  top: "inception_3a/pool_proj"
  param {
    lr_mult: 1
    decay_mult: 1
  }
  param {
    lr_mult: 2
    decay_mult: 0
  }
  convolution_param {
    num_output: 32
    kernel_size: 1
    weight_filler {
      type: "xavier"
      std: 0.1
    }
    bias_filler {
      type: "constant"
      value: 0.2
    }
  }
}
layer {
  name: "inception_3a/relu_pool_proj"
  type: "ReLU"
  bottom: "inception_3a/pool_proj"
  top: "inception_3a/pool_proj"
}
layer {
  name: "inception_3a/output"
  type: "Concat"
  bottom: "inception_3a/1x1"
  bottom: "inception_3a/3x3"
  bottom: "inception_3a/5x5"
  bottom: "inception_3a/pool_proj"
  top: "inception_3a/output"
}
layer {
  name: "inception_3b/1x1"
  type: "Convolution"
  bottom: "inception_3a/output"
  top: "inception_3b/1x1"
  param {
    lr_mult: 1
    decay_mult: 1
  }
  param {
    lr_mult: 2
    decay_mult: 0
  }
  convolution_param {
    num_output: 128
    kernel_size: 1
    weight_filler {
      type: "xavier"
      std: 0.03
    }
    bias_filler {
      type: "constant"
      value: 0.2
    }
  }
}
layer {
  name: "inception_3b/relu_1x1"
  type: "ReLU"
  bottom: "inception_3b/1x1"
  top: "inception_3b/1x1"
}
layer {
  name: "inception_3b/3x3_reduce"
  type: "Convolution"
  bottom: "inception_3a/output"
  top: "inception_3b/3x3_reduce"
  param {
    lr_mult: 1
    decay_mult: 1
  }
  param {
    lr_mult: 2
    decay_mult: 0
  }
  convolution_param {
    num_output: 128
    kernel_size: 1
    weight_filler {
      type: "xavier"
      std: 0.09
    }
    bias_filler {
      type: "constant"
      value: 0.2
    }
  }
}
layer {
  name: "inception_3b/relu_3x3_reduce"
  type: "ReLU"
  bottom: "inception_3b/3x3_reduce"
  top: "inception_3b/3x3_reduce"
}
layer {
  name: "inception_3b/3x3"
  type: "Convolution"
  bottom: "inception_3b/3x3_reduce"
  top: "inception_3b/3x3"
  param {
    lr_mult: 1
    decay_mult: 1
  }
  param {
    lr_mult: 2
    decay_mult: 0
  }
  convolution_param {
    num_output: 192
    pad: 1
    kernel_size: 3
    weight_filler {
      type: "xavier"
      std: 0.03
    }
    bias_filler {
      type: "constant"
      value: 0.2
    }
  }
}
layer {
  name: "inception_3b/relu_3x3"
  type: "ReLU"
  bottom: "inception_3b/3x3"
  top: "inception_3b/3x3"
}
layer {
  name: "inception_3b/5x5_reduce"
  type: "Convolution"
  bottom: "inception_3a/output"
  top: "inception_3b/5x5_reduce"
  param {
    lr_mult: 1
    decay_mult: 1
  }
  param {
    lr_mult: 2
    decay_mult: 0
  }
  convolution_param {
    num_output: 32
    kernel_size: 1
    weight_filler {
      type: "xavier"
      std: 0.2
    }
    bias_filler {
      type: "constant"
      value: 0.2
    }
  }
}
layer {
  name: "inception_3b/relu_5x5_reduce"
  type: "ReLU"
  bottom: "inception_3b/5x5_reduce"
  top: "inception_3b/5x5_reduce"
}
layer {
  name: "inception_3b/5x5"
  type: "Convolution"
  bottom: "inception_3b/5x5_reduce"
  top: "inception_3b/5x5"
  param {
    lr_mult: 1
    decay_mult: 1
  }
  param {
    lr_mult: 2
    decay_mult: 0
  }
  convolution_param {
    num_output: 96
    pad: 2
    kernel_size: 5
    weight_filler {
      type: "xavier"
      std: 0.03
    }
    bias_filler {
      type: "constant"
      value: 0.2
    }
  }
}
layer {
  name: "inception_3b/relu_5x5"
  type: "ReLU"
  bottom: "inception_3b/5x5"
  top: "inception_3b/5x5"
}
layer {
  name: "inception_3b/pool"
  type: "Pooling"
  bottom: "inception_3a/output"
  top: "inception_3b/pool"
  pooling_param {
    pool: MAX
    kernel_size: 3
    stride: 1
    pad: 1
  }
}
layer {
  name: "inception_3b/pool_proj"
  type: "Convolution"
  bottom: "inception_3b/pool"
  top: "inception_3b/pool_proj"
  param {
    lr_mult: 1
    decay_mult: 1
  }
  param {
    lr_mult: 2
    decay_mult: 0
  }
  convolution_param {
    num_output: 64
    kernel_size: 1
    weight_filler {
      type: "xavier"
      std: 0.1
    }
    bias_filler {
      type: "constant"
      value: 0.2
    }
  }
}
layer {
  name: "inception_3b/relu_pool_proj"
  type: "ReLU"
  bottom: "inception_3b/pool_proj"
  top: "inception_3b/pool_proj"
}
layer {
  name: "inception_3b/output"
  type: "Concat"
  bottom: "inception_3b/1x1"
  bottom: "inception_3b/3x3"
  bottom: "inception_3b/5x5"
  bottom: "inception_3b/pool_proj"
  top: "inception_3b/output"
}
layer {
  name: "pool3/3x3_s2"
  type: "Pooling"
  bottom: "inception_3b/output"
  top: "pool3/3x3_s2"
  pooling_param {
    pool: MAX
    kernel_size: 3
    stride: 2
  }
}
layer {
  name: "inception_4a/1x1"
  type: "Convolution"
  bottom: "pool3/3x3_s2"
  top: "inception_4a/1x1"
  param {
    lr_mult: 1
    decay_mult: 1
  }
  param {
    lr_mult: 2
    decay_mult: 0
  }
  convolution_param {
    num_output: 192
    kernel_size: 1
    weight_filler {
      type: "xavier"
      std: 0.03
    }
    bias_filler {
      type: "constant"
      value: 0.2
    }
  }
}
layer {
  name: "inception_4a/relu_1x1"
  type: "ReLU"
  bottom: "inception_4a/1x1"
  top: "inception_4a/1x1"
}
layer {
  name: "inception_4a/3x3_reduce"
  type: "Convolution"
  bottom: "pool3/3x3_s2"
  top: "inception_4a/3x3_reduce"
  param {
    lr_mult: 1
    decay_mult: 1
  }
  param {
    lr_mult: 2
    decay_mult: 0
  }
  convolution_param {
    num_output: 96
    kernel_size: 1
    weight_filler {
      type: "xavier"
      std: 0.09
    }
    bias_filler {
      type: "constant"
      value: 0.2
    }
  }
}
layer {
  name: "inception_4a/relu_3x3_reduce"
  type: "ReLU"
  bottom: "inception_4a/3x3_reduce"
  top: "inception_4a/3x3_reduce"
}
layer {
  name: "inception_4a/3x3"
  type: "Convolution"
  bottom: "inception_4a/3x3_reduce"
  top: "inception_4a/3x3"
  param {
    lr_mult: 1
    decay_mult: 1
  }
  param {
    lr_mult: 2
    decay_mult: 0
  }
  convolution_param {
    num_output: 208
    pad: 1
    kernel_size: 3
    weight_filler {
      type: "xavier"
      std: 0.03
    }
    bias_filler {
      type: "constant"
      value: 0.2
    }
  }
}
layer {
  name: "inception_4a/relu_3x3"
  type: "ReLU"
  bottom: "inception_4a/3x3"
  top: "inception_4a/3x3"
}
layer {
  name: "inception_4a/5x5_reduce"
  type: "Convolution"
  bottom: "pool3/3x3_s2"
  top: "inception_4a/5x5_reduce"
  param {
    lr_mult: 1
    decay_mult: 1
  }
  param {
    lr_mult: 2
    decay_mult: 0
  }
  convolution_param {
    num_output: 16
    kernel_size: 1
    weight_filler {
      type: "xavier"
      std: 0.2
    }
    bias_filler {
      type: "constant"
      value: 0.2
    }
  }
}
layer {
  name: "inception_4a/relu_5x5_reduce"
  type: "ReLU"
  bottom: "inception_4a/5x5_reduce"
  top: "inception_4a/5x5_reduce"
}
layer {
  name: "inception_4a/5x5"
  type: "Convolution"
  bottom: "inception_4a/5x5_reduce"
  top: "inception_4a/5x5"
  param {
    lr_mult: 1
    decay_mult: 1
  }
  param {
    lr_mult: 2
    decay_mult: 0
  }
  convolution_param {
    num_output: 48
    pad: 2
    kernel_size: 5
    weight_filler {
      type: "xavier"
      std: 0.03
    }
    bias_filler {
      type: "constant"
      value: 0.2
    }
  }
}
layer {
  name: "inception_4a/relu_5x5"
  type: "ReLU"
  bottom: "inception_4a/5x5"
  top: "inception_4a/5x5"
}
layer {
  name: "inception_4a/pool"
  type: "Pooling"
  bottom: "pool3/3x3_s2"
  top: "inception_4a/pool"
  pooling_param {
    pool: MAX
    kernel_size: 3
    stride: 1
    pad: 1
  }
}
layer {
  name: "inception_4a/pool_proj"
  type: "Convolution"
  bottom: "inception_4a/pool"
  top: "inception_4a/pool_proj"
  param {
    lr_mult: 1
    decay_mult: 1
  }
  param {
    lr_mult: 2
    decay_mult: 0
  }
  convolution_param {
    num_output: 64
    kernel_size: 1
    weight_filler {
      type: "xavier"
      std: 0.1
    }
    bias_filler {
      type: "constant"
      value: 0.2
    }
  }
}
layer {
  name: "inception_4a/relu_pool_proj"
  type: "ReLU"
  bottom: "inception_4a/pool_proj"
  top: "inception_4a/pool_proj"
}
layer {
  name: "inception_4a/output"
  type: "Concat"
  bottom: "inception_4a/1x1"
  bottom: "inception_4a/3x3"
  bottom: "inception_4a/5x5"
  bottom: "inception_4a/pool_proj"
  top: "inception_4a/output"
}
layer {
  name: "loss1/ave_pool"
  type: "Pooling"
  bottom: "inception_4a/output"
  top: "loss1/ave_pool"
  pooling_param {
    pool: AVE
    kernel_size: 5
    stride: 3
  }
}
layer {
  name: "loss1/conv"
  type: "Convolution"
  bottom: "loss1/ave_pool"
  top: "loss1/conv"
  param {
    lr_mult: 1
    decay_mult: 1
  }
  param {
    lr_mult: 2
    decay_mult: 0
  }
  convolution_param {
    num_output: 128
    kernel_size: 1
    weight_filler {
      type: "xavier"
      std: 0.08
    }
    bias_filler {
      type: "constant"
      value: 0.2
    }
  }
}
layer {
  name: "loss1/relu_conv"
  type: "ReLU"
  bottom: "loss1/conv"
  top: "loss1/conv"
}
layer {
  name: "loss1/fc"
  type: "InnerProduct"
  bottom: "loss1/conv"
  top: "loss1/fc"
  param {
    lr_mult: 1
    decay_mult: 1
  }
  param {
    lr_mult: 2
    decay_mult: 0
  }
  inner_product_param {
    num_output: 1024
    weight_filler {
      type: "xavier"
      std: 0.02
    }
    bias_filler {
      type: "constant"
      value: 0.2
    }
  }
}
layer {
  name: "loss1/relu_fc"
  type: "ReLU"
  bottom: "loss1/fc"
  top: "loss1/fc"
}
layer {
  name: "loss1/drop_fc"
  type: "Dropout"
  bottom: "loss1/fc"
  top: "loss1/fc"
  dropout_param {
    dropout_ratio: 0.7
  }
}
layer {
  name: "loss1/classifier_plantvillage"
  type: "InnerProduct"
  bottom: "loss1/fc"
  top: "loss1/classifier_plantvillage"
  param {
    lr_mult: 1
    decay_mult: 1
  }
  param {
    lr_mult: 2
    decay_mult: 0
  }
  inner_product_param {
    num_output: 38
    weight_filler {
      type: "xavier"
      std: 0.0009765625
    }
    bias_filler {
      type: "constant"
      value: 0
    }
  }
}
layer {
  name: "inception_4b/1x1"
  type: "Convolution"
  bottom: "inception_4a/output"
  top: "inception_4b/1x1"
  param {
    lr_mult: 1
    decay_mult: 1
  }
  param {
    lr_mult: 2
    decay_mult: 0
  }
  convolution_param {
    num_output: 160
    kernel_size: 1
    weight_filler {
      type: "xavier"
      std: 0.03
    }
    bias_filler {
      type: "constant"
      value: 0.2
    }
  }
}
layer {
  name: "inception_4b/relu_1x1"
  type: "ReLU"
  bottom: "inception_4b/1x1"
  top: "inception_4b/1x1"
}
layer {
  name: "inception_4b/3x3_reduce"
  type: "Convolution"
  bottom: "inception_4a/output"
  top: "inception_4b/3x3_reduce"
  param {
    lr_mult: 1
    decay_mult: 1
  }
  param {
    lr_mult: 2
    decay_mult: 0
  }
  convolution_param {
    num_output: 112
    kernel_size: 1
    weight_filler {
      type: "xavier"
      std: 0.09
    }
    bias_filler {
      type: "constant"
      value: 0.2
    }
  }
}
layer {
  name: "inception_4b/relu_3x3_reduce"
  type: "ReLU"
  bottom: "inception_4b/3x3_reduce"
  top: "inception_4b/3x3_reduce"
}
layer {
  name: "inception_4b/3x3"
  type: "Convolution"
  bottom: "inception_4b/3x3_reduce"
  top: "inception_4b/3x3"
  param {
    lr_mult: 1
    decay_mult: 1
  }
  param {
    lr_mult: 2
    decay_mult: 0
  }
  convolution_param {
    num_output: 224
    pad: 1
    kernel_size: 3
    weight_filler {
      type: "xavier"
      std: 0.03
    }
    bias_filler {
      type: "constant"
      value: 0.2
    }
  }
}
layer {
  name: "inception_4b/relu_3x3"
  type: "ReLU"
  bottom: "inception_4b/3x3"
  top: "inception_4b/3x3"
}
layer {
  name: "inception_4b/5x5_reduce"
  type: "Convolution"
  bottom: "inception_4a/output"
  top: "inception_4b/5x5_reduce"
  param {
    lr_mult: 1
    decay_mult: 1
  }
  param {
    lr_mult: 2
    decay_mult: 0
  }
  convolution_param {
    num_output: 24
    kernel_size: 1
    weight_filler {
      type: "xavier"
      std: 0.2
    }
    bias_filler {
      type: "constant"
      value: 0.2
    }
  }
}
layer {
  name: "inception_4b/relu_5x5_reduce"
  type: "ReLU"
  bottom: "inception_4b/5x5_reduce"
  top: "inception_4b/5x5_reduce"
}
layer {
  name: "inception_4b/5x5"
  type: "Convolution"
  bottom: "inception_4b/5x5_reduce"
  top: "inception_4b/5x5"
  param {
    lr_mult: 1
    decay_mult: 1
  }
  param {
    lr_mult: 2
    decay_mult: 0
  }
  convolution_param {
    num_output: 64
    pad: 2
    kernel_size: 5
    weight_filler {
      type: "xavier"
      std: 0.03
    }
    bias_filler {
      type: "constant"
      value: 0.2
    }
  }
}
layer {
  name: "inception_4b/relu_5x5"
  type: "ReLU"
  bottom: "inception_4b/5x5"
  top: "inception_4b/5x5"
}
layer {
  name: "inception_4b/pool"
  type: "Pooling"
  bottom: "inception_4a/output"
  top: "inception_4b/pool"
  pooling_param {
    pool: MAX
    kernel_size: 3
    stride: 1
    pad: 1
  }
}
layer {
  name: "inception_4b/pool_proj"
  type: "Convolution"
  bottom: "inception_4b/pool"
  top: "inception_4b/pool_proj"
  param {
    lr_mult: 1
    decay_mult: 1
  }
  param {
    lr_mult: 2
    decay_mult: 0
  }
  convolution_param {
    num_output: 64
    kernel_size: 1
    weight_filler {
      type: "xavier"
      std: 0.1
    }
    bias_filler {
      type: "constant"
      value: 0.2
    }
  }
}
layer {
  name: "inception_4b/relu_pool_proj"
  type: "ReLU"
  bottom: "inception_4b/pool_proj"
  top: "inception_4b/pool_proj"
}
layer {
  name: "inception_4b/output"
  type: "Concat"
  bottom: "inception_4b/1x1"
  bottom: "inception_4b/3x3"
  bottom: "inception_4b/5x5"
  bottom: "inception_4b/pool_proj"
  top: "inception_4b/output"
}
layer {
  name: "inception_4c/1x1"
  type: "Convolution"
  bottom: "inception_4b/output"
  top: "inception_4c/1x1"
  param {
    lr_mult: 1
    decay_mult: 1
  }
  param {
    lr_mult: 2
    decay_mult: 0
  }
  convolution_param {
    num_output: 128
    kernel_size: 1
    weight_filler {
      type: "xavier"
      std: 0.03
    }
    bias_filler {
      type: "constant"
      value: 0.2
    }
  }
}
layer {
  name: "inception_4c/relu_1x1"
  type: "ReLU"
  bottom: "inception_4c/1x1"
  top: "inception_4c/1x1"
}
layer {
  name: "inception_4c/3x3_reduce"
  type: "Convolution"
  bottom: "inception_4b/output"
  top: "inception_4c/3x3_reduce"
  param {
    lr_mult: 1
    decay_mult: 1
  }
  param {
    lr_mult: 2
    decay_mult: 0
  }
  convolution_param {
    num_output: 128
    kernel_size: 1
    weight_filler {
      type: "xavier"
      std: 0.09
    }
    bias_filler {
      type: "constant"
      value: 0.2
    }
  }
}
layer {
  name: "inception_4c/relu_3x3_reduce"
  type: "ReLU"
  bottom: "inception_4c/3x3_reduce"
  top: "inception_4c/3x3_reduce"
}
layer {
  name: "inception_4c/3x3"
  type: "Convolution"
  bottom: "inception_4c/3x3_reduce"
  top: "inception_4c/3x3"
  param {
    lr_mult: 1
    decay_mult: 1
  }
  param {
    lr_mult: 2
    decay_mult: 0
  }
  convolution_param {
    num_output: 256
    pad: 1
    kernel_size: 3
    weight_filler {
      type: "xavier"
      std: 0.03
    }
    bias_filler {
      type: "constant"
      value: 0.2
    }
  }
}
layer {
  name: "inception_4c/relu_3x3"
  type: "ReLU"
  bottom: "inception_4c/3x3"
  top: "inception_4c/3x3"
}
layer {
  name: "inception_4c/5x5_reduce"
  type: "Convolution"
  bottom: "inception_4b/output"
  top: "inception_4c/5x5_reduce"
  param {
    lr_mult: 1
    decay_mult: 1
  }
  param {
    lr_mult: 2
    decay_mult: 0
  }
  convolution_param {
    num_output: 24
    kernel_size: 1
    weight_filler {
      type: "xavier"
      std: 0.2
    }
    bias_filler {
      type: "constant"
      value: 0.2
    }
  }
}
layer {
  name: "inception_4c/relu_5x5_reduce"
  type: "ReLU"
  bottom: "inception_4c/5x5_reduce"
  top: "inception_4c/5x5_reduce"
}
layer {
  name: "inception_4c/5x5"
  type: "Convolution"
  bottom: "inception_4c/5x5_reduce"
  top: "inception_4c/5x5"
  param {
    lr_mult: 1
    decay_mult: 1
  }
  param {
    lr_mult: 2
    decay_mult: 0
  }
  convolution_param {
    num_output: 64
    pad: 2
    kernel_size: 5
    weight_filler {
      type: "xavier"
      std: 0.03
    }
    bias_filler {
      type: "constant"
      value: 0.2
    }
  }
}
layer {
  name: "inception_4c/relu_5x5"
  type: "ReLU"
  bottom: "inception_4c/5x5"
  top: "inception_4c/5x5"
}
layer {
  name: "inception_4c/pool"
  type: "Pooling"
  bottom: "inception_4b/output"
  top: "inception_4c/pool"
  pooling_param {
    pool: MAX
    kernel_size: 3
    stride: 1
    pad: 1
  }
}
layer {
  name: "inception_4c/pool_proj"
  type: "Convolution"
  bottom: "inception_4c/pool"
  top: "inception_4c/pool_proj"
  param {
    lr_mult: 1
    decay_mult: 1
  }
  param {
    lr_mult: 2
    decay_mult: 0
  }
  convolution_param {
    num_output: 64
    kernel_size: 1
    weight_filler {
      type: "xavier"
      std: 0.1
    }
    bias_filler {
      type: "constant"
      value: 0.2
    }
  }
}
layer {
  name: "inception_4c/relu_pool_proj"
  type: "ReLU"
  bottom: "inception_4c/pool_proj"
  top: "inception_4c/pool_proj"
}
layer {
  name: "inception_4c/output"
  type: "Concat"
  bottom: "inception_4c/1x1"
  bottom: "inception_4c/3x3"
  bottom: "inception_4c/5x5"
  bottom: "inception_4c/pool_proj"
  top: "inception_4c/output"
}
layer {
  name: "inception_4d/1x1"
  type: "Convolution"
  bottom: "inception_4c/output"
  top: "inception_4d/1x1"
  param {
    lr_mult: 1
    decay_mult: 1
  }
  param {
    lr_mult: 2
    decay_mult: 0
  }
  convolution_param {
    num_output: 112
    kernel_size: 1
    weight_filler {
      type: "xavier"
      std: 0.03
    }
    bias_filler {
      type: "constant"
      value: 0.2
    }
  }
}
layer {
  name: "inception_4d/relu_1x1"
  type: "ReLU"
  bottom: "inception_4d/1x1"
  top: "inception_4d/1x1"
}
layer {
  name: "inception_4d/3x3_reduce"
  type: "Convolution"
  bottom: "inception_4c/output"
  top: "inception_4d/3x3_reduce"
  param {
    lr_mult: 1
    decay_mult: 1
  }
  param {
    lr_mult: 2
    decay_mult: 0
  }
  convolution_param {
    num_output: 144
    kernel_size: 1
    weight_filler {
      type: "xavier"
      std: 0.09
    }
    bias_filler {
      type: "constant"
      value: 0.2
    }
  }
}
layer {
  name: "inception_4d/relu_3x3_reduce"
  type: "ReLU"
  bottom: "inception_4d/3x3_reduce"
  top: "inception_4d/3x3_reduce"
}
layer {
  name: "inception_4d/3x3"
  type: "Convolution"
  bottom: "inception_4d/3x3_reduce"
  top: "inception_4d/3x3"
  param {
    lr_mult: 1
    decay_mult: 1
  }
  param {
    lr_mult: 2
    decay_mult: 0
  }
  convolution_param {
    num_output: 288
    pad: 1
    kernel_size: 3
    weight_filler {
      type: "xavier"
      std: 0.03
    }
    bias_filler {
      type: "constant"
      value: 0.2
    }
  }
}
layer {
  name: "inception_4d/relu_3x3"
  type: "ReLU"
  bottom: "inception_4d/3x3"
  top: "inception_4d/3x3"
}
layer {
  name: "inception_4d/5x5_reduce"
  type: "Convolution"
  bottom: "inception_4c/output"
  top: "inception_4d/5x5_reduce"
  param {
    lr_mult: 1
    decay_mult: 1
  }
  param {
    lr_mult: 2
    decay_mult: 0
  }
  convolution_param {
    num_output: 32
    kernel_size: 1
    weight_filler {
      type: "xavier"
      std: 0.2
    }
    bias_filler {
      type: "constant"
      value: 0.2
    }
  }
}
layer {
  name: "inception_4d/relu_5x5_reduce"
  type: "ReLU"
  bottom: "inception_4d/5x5_reduce"
  top: "inception_4d/5x5_reduce"
}
layer {
  name: "inception_4d/5x5"
  type: "Convolution"
  bottom: "inception_4d/5x5_reduce"
  top: "inception_4d/5x5"
  param {
    lr_mult: 1
    decay_mult: 1
  }
  param {
    lr_mult: 2
    decay_mult: 0
  }
  convolution_param {
    num_output: 64
    pad: 2
    kernel_size: 5
    weight_filler {
      type: "xavier"
      std: 0.03
    }
    bias_filler {
      type: "constant"
      value: 0.2
    }
  }
}
layer {
  name: "inception_4d/relu_5x5"
  type: "ReLU"
  bottom: "inception_4d/5x5"
  top: "inception_4d/5x5"
}
layer {
  name: "inception_4d/pool"
  type: "Pooling"
  bottom: "inception_4c/output"
  top: "inception_4d/pool"
  pooling_param {
    pool: MAX
    kernel_size: 3
    stride: 1
    pad: 1
  }
}
layer {
  name: "inception_4d/pool_proj"
  type: "Convolution"
  bottom: "inception_4d/pool"
  top: "inception_4d/pool_proj"
  param {
    lr_mult: 1
    decay_mult: 1
  }
  param {
    lr_mult: 2
    decay_mult: 0
  }
  convolution_param {
    num_output: 64
    kernel_size: 1
    weight_filler {
      type: "xavier"
      std: 0.1
    }
    bias_filler {
      type: "constant"
      value: 0.2
    }
  }
}
layer {
  name: "inception_4d/relu_pool_proj"
  type: "ReLU"
  bottom: "inception_4d/pool_proj"
  top: "inception_4d/pool_proj"
}
layer {
  name: "inception_4d/output"
  type: "Concat"
  bottom: "inception_4d/1x1"
  bottom: "inception_4d/3x3"
  bottom: "inception_4d/5x5"
  bottom: "inception_4d/pool_proj"
  top: "inception_4d/output"
}
layer {
  name: "loss2/ave_pool"
  type: "Pooling"
  bottom: "inception_4d/output"
  top: "loss2/ave_pool"
  pooling_param {
    pool: AVE
    kernel_size: 5
    stride: 3
  }
}
layer {
  name: "loss2/conv"
  type: "Convolution"
  bottom: "loss2/ave_pool"
  top: "loss2/conv"
  param {
    lr_mult: 1
    decay_mult: 1
  }
  param {
    lr_mult: 2
    decay_mult: 0
  }
  convolution_param {
    num_output: 128
    kernel_size: 1
    weight_filler {
      type: "xavier"
      std: 0.08
    }
    bias_filler {
      type: "constant"
      value: 0.2
    }
  }
}
layer {
  name: "loss2/relu_conv"
  type: "ReLU"
  bottom: "loss2/conv"
  top: "loss2/conv"
}
layer {
  name: "loss2/fc"
  type: "InnerProduct"
  bottom: "loss2/conv"
  top: "loss2/fc"
  param {
    lr_mult: 1
    decay_mult: 1
  }
  param {
    lr_mult: 2
    decay_mult: 0
  }
  inner_product_param {
    num_output: 1024
    weight_filler {
      type: "xavier"
      std: 0.02
    }
    bias_filler {
      type: "constant"
      value: 0.2
    }
  }
}
layer {
  name: "loss2/relu_fc"
  type: "ReLU"
  bottom: "loss2/fc"
  top: "loss2/fc"
}
layer {
  name: "loss2/drop_fc"
  type: "Dropout"
  bottom: "loss2/fc"
  top: "loss2/fc"
  dropout_param {
    dropout_ratio: 0.7
  }
}
layer {
  name: "loss2/classifier_plantvillage"
  type: "InnerProduct"
  bottom: "loss2/fc"
  top: "loss2/classifier_plantvillage"
  param {
    lr_mult: 1
    decay_mult: 1
  }
  param {
    lr_mult: 2
    decay_mult: 0
  }
  inner_product_param {
    num_output: 38
    weight_filler {
      type: "xavier"
      std: 0.0009765625
    }
    bias_filler {
      type: "constant"
      value: 0
    }
  }
}
layer {
  name: "inception_4e/1x1"
  type: "Convolution"
  bottom: "inception_4d/output"
  top: "inception_4e/1x1"
  param {
    lr_mult: 1
    decay_mult: 1
  }
  param {
    lr_mult: 2
    decay_mult: 0
  }
  convolution_param {
    num_output: 256
    kernel_size: 1
    weight_filler {
      type: "xavier"
      std: 0.03
    }
    bias_filler {
      type: "constant"
      value: 0.2
    }
  }
}
layer {
  name: "inception_4e/relu_1x1"
  type: "ReLU"
  bottom: "inception_4e/1x1"
  top: "inception_4e/1x1"
}
layer {
  name: "inception_4e/3x3_reduce"
  type: "Convolution"
  bottom: "inception_4d/output"
  top: "inception_4e/3x3_reduce"
  param {
    lr_mult: 1
    decay_mult: 1
  }
  param {
    lr_mult: 2
    decay_mult: 0
  }
  convolution_param {
    num_output: 160
    kernel_size: 1
    weight_filler {
      type: "xavier"
      std: 0.09
    }
    bias_filler {
      type: "constant"
      value: 0.2
    }
  }
}
layer {
  name: "inception_4e/relu_3x3_reduce"
  type: "ReLU"
  bottom: "inception_4e/3x3_reduce"
  top: "inception_4e/3x3_reduce"
}
layer {
  name: "inception_4e/3x3"
  type: "Convolution"
  bottom: "inception_4e/3x3_reduce"
  top: "inception_4e/3x3"
  param {
    lr_mult: 1
    decay_mult: 1
  }
  param {
    lr_mult: 2
    decay_mult: 0
  }
  convolution_param {
    num_output: 320
    pad: 1
    kernel_size: 3
    weight_filler {
      type: "xavier"
      std: 0.03
    }
    bias_filler {
      type: "constant"
      value: 0.2
    }
  }
}
layer {
  name: "inception_4e/relu_3x3"
  type: "ReLU"
  bottom: "inception_4e/3x3"
  top: "inception_4e/3x3"
}
layer {
  name: "inception_4e/5x5_reduce"
  type: "Convolution"
  bottom: "inception_4d/output"
  top: "inception_4e/5x5_reduce"
  param {
    lr_mult: 1
    decay_mult: 1
  }
  param {
    lr_mult: 2
    decay_mult: 0
  }
  convolution_param {
    num_output: 32
    kernel_size: 1
    weight_filler {
      type: "xavier"
      std: 0.2
    }
    bias_filler {
      type: "constant"
      value: 0.2
    }
  }
}
layer {
  name: "inception_4e/relu_5x5_reduce"
  type: "ReLU"
  bottom: "inception_4e/5x5_reduce"
  top: "inception_4e/5x5_reduce"
}
layer {
  name: "inception_4e/5x5"
  type: "Convolution"
  bottom: "inception_4e/5x5_reduce"
  top: "inception_4e/
I0403 15:11:45.628736 11694 layer_factory.hpp:77] Creating layer data
I0403 15:11:45.629362 11694 net.cpp:91] Creating Layer data
I0403 15:11:45.629395 11694 net.cpp:399] data -> data
I0403 15:11:45.629446 11694 net.cpp:399] data -> label
I0403 15:11:45.629484 11694 data_transformer.cpp:25] Loading mean file from: /home/mohanty/data/final_dataset/lmdb/segmented-40-60/mean.binaryproto
I0403 15:11:45.632897 11698 db_lmdb.cpp:38] Opened lmdb /home/mohanty/data/final_dataset/lmdb/segmented-40-60/test_db
I0403 15:11:45.643160 11694 data_layer.cpp:41] output data size: 24,3,224,224
I0403 15:11:45.670147 11694 net.cpp:141] Setting up data
I0403 15:11:45.670231 11694 net.cpp:148] Top shape: 24 3 224 224 (3612672)
I0403 15:11:45.670254 11694 net.cpp:148] Top shape: 24 (24)
I0403 15:11:45.670269 11694 net.cpp:156] Memory required for data: 14450784
I0403 15:11:45.670296 11694 layer_factory.hpp:77] Creating layer label_data_1_split
I0403 15:11:45.670326 11694 net.cpp:91] Creating Layer label_data_1_split
I0403 15:11:45.670346 11694 net.cpp:425] label_data_1_split <- label
I0403 15:11:45.670377 11694 net.cpp:399] label_data_1_split -> label_data_1_split_0
I0403 15:11:45.670403 11694 net.cpp:399] label_data_1_split -> label_data_1_split_1
I0403 15:11:45.670424 11694 net.cpp:399] label_data_1_split -> label_data_1_split_2
I0403 15:11:45.670444 11694 net.cpp:399] label_data_1_split -> label_data_1_split_3
I0403 15:11:45.670464 11694 net.cpp:399] label_data_1_split -> label_data_1_split_4
I0403 15:11:45.670483 11694 net.cpp:399] label_data_1_split -> label_data_1_split_5
I0403 15:11:45.670502 11694 net.cpp:399] label_data_1_split -> label_data_1_split_6
I0403 15:11:45.670522 11694 net.cpp:399] label_data_1_split -> label_data_1_split_7
I0403 15:11:45.670542 11694 net.cpp:399] label_data_1_split -> label_data_1_split_8
I0403 15:11:45.670562 11694 net.cpp:399] label_data_1_split -> label_data_1_split_9
I0403 15:11:45.670677 11694 net.cpp:141] Setting up label_data_1_split
I0403 15:11:45.670701 11694 net.cpp:148] Top shape: 24 (24)
I0403 15:11:45.670717 11694 net.cpp:148] Top shape: 24 (24)
I0403 15:11:45.670732 11694 net.cpp:148] Top shape: 24 (24)
I0403 15:11:45.670748 11694 net.cpp:148] Top shape: 24 (24)
I0403 15:11:45.670763 11694 net.cpp:148] Top shape: 24 (24)
I0403 15:11:45.670778 11694 net.cpp:148] Top shape: 24 (24)
I0403 15:11:45.670794 11694 net.cpp:148] Top shape: 24 (24)
I0403 15:11:45.670809 11694 net.cpp:148] Top shape: 24 (24)
I0403 15:11:45.670824 11694 net.cpp:148] Top shape: 24 (24)
I0403 15:11:45.670840 11694 net.cpp:148] Top shape: 24 (24)
I0403 15:11:45.670883 11694 net.cpp:156] Memory required for data: 14451744
I0403 15:11:45.670899 11694 layer_factory.hpp:77] Creating layer conv1/7x7_s2
I0403 15:11:45.670930 11694 net.cpp:91] Creating Layer conv1/7x7_s2
I0403 15:11:45.670948 11694 net.cpp:425] conv1/7x7_s2 <- data
I0403 15:11:45.670969 11694 net.cpp:399] conv1/7x7_s2 -> conv1/7x7_s2
I0403 15:11:45.809046 11694 net.cpp:141] Setting up conv1/7x7_s2
I0403 15:11:45.809134 11694 net.cpp:148] Top shape: 24 64 112 112 (19267584)
I0403 15:11:45.809150 11694 net.cpp:156] Memory required for data: 91522080
I0403 15:11:45.809181 11694 layer_factory.hpp:77] Creating layer conv1/relu_7x7
I0403 15:11:45.809207 11694 net.cpp:91] Creating Layer conv1/relu_7x7
I0403 15:11:45.809226 11694 net.cpp:425] conv1/relu_7x7 <- conv1/7x7_s2
I0403 15:11:45.809244 11694 net.cpp:386] conv1/relu_7x7 -> conv1/7x7_s2 (in-place)
I0403 15:11:45.809499 11694 net.cpp:141] Setting up conv1/relu_7x7
I0403 15:11:45.809526 11694 net.cpp:148] Top shape: 24 64 112 112 (19267584)
I0403 15:11:45.809541 11694 net.cpp:156] Memory required for data: 168592416
I0403 15:11:45.809556 11694 layer_factory.hpp:77] Creating layer pool1/3x3_s2
I0403 15:11:45.809582 11694 net.cpp:91] Creating Layer pool1/3x3_s2
I0403 15:11:45.809599 11694 net.cpp:425] pool1/3x3_s2 <- conv1/7x7_s2
I0403 15:11:45.809618 11694 net.cpp:399] pool1/3x3_s2 -> pool1/3x3_s2
I0403 15:11:45.809689 11694 net.cpp:141] Setting up pool1/3x3_s2
I0403 15:11:45.809713 11694 net.cpp:148] Top shape: 24 64 56 56 (4816896)
I0403 15:11:45.809727 11694 net.cpp:156] Memory required for data: 187860000
I0403 15:11:45.809742 11694 layer_factory.hpp:77] Creating layer pool1/norm1
I0403 15:11:45.809765 11694 net.cpp:91] Creating Layer pool1/norm1
I0403 15:11:45.809782 11694 net.cpp:425] pool1/norm1 <- pool1/3x3_s2
I0403 15:11:45.809799 11694 net.cpp:399] pool1/norm1 -> pool1/norm1
I0403 15:11:45.810075 11694 net.cpp:141] Setting up pool1/norm1
I0403 15:11:45.810101 11694 net.cpp:148] Top shape: 24 64 56 56 (4816896)
I0403 15:11:45.810117 11694 net.cpp:156] Memory required for data: 207127584
I0403 15:11:45.810132 11694 layer_factory.hpp:77] Creating layer conv2/3x3_reduce
I0403 15:11:45.810154 11694 net.cpp:91] Creating Layer conv2/3x3_reduce
I0403 15:11:45.810170 11694 net.cpp:425] conv2/3x3_reduce <- pool1/norm1
I0403 15:11:45.810189 11694 net.cpp:399] conv2/3x3_reduce -> conv2/3x3_reduce
I0403 15:11:45.811506 11694 net.cpp:141] Setting up conv2/3x3_reduce
I0403 15:11:45.811534 11694 net.cpp:148] Top shape: 24 64 56 56 (4816896)
I0403 15:11:45.811549 11694 net.cpp:156] Memory required for data: 226395168
I0403 15:11:45.811570 11694 layer_factory.hpp:77] Creating layer conv2/relu_3x3_reduce
I0403 15:11:45.811589 11694 net.cpp:91] Creating Layer conv2/relu_3x3_reduce
I0403 15:11:45.811604 11694 net.cpp:425] conv2/relu_3x3_reduce <- conv2/3x3_reduce
I0403 15:11:45.811621 11694 net.cpp:386] conv2/relu_3x3_reduce -> conv2/3x3_reduce (in-place)
I0403 15:11:45.811874 11694 net.cpp:141] Setting up conv2/relu_3x3_reduce
I0403 15:11:45.811900 11694 net.cpp:148] Top shape: 24 64 56 56 (4816896)
I0403 15:11:45.811915 11694 net.cpp:156] Memory required for data: 245662752
I0403 15:11:45.811930 11694 layer_factory.hpp:77] Creating layer conv2/3x3
I0403 15:11:45.811954 11694 net.cpp:91] Creating Layer conv2/3x3
I0403 15:11:45.811970 11694 net.cpp:425] conv2/3x3 <- conv2/3x3_reduce
I0403 15:11:45.811991 11694 net.cpp:399] conv2/3x3 -> conv2/3x3
I0403 15:11:45.814249 11694 net.cpp:141] Setting up conv2/3x3
I0403 15:11:45.814277 11694 net.cpp:148] Top shape: 24 192 56 56 (14450688)
I0403 15:11:45.814293 11694 net.cpp:156] Memory required for data: 303465504
I0403 15:11:45.814314 11694 layer_factory.hpp:77] Creating layer conv2/relu_3x3
I0403 15:11:45.814339 11694 net.cpp:91] Creating Layer conv2/relu_3x3
I0403 15:11:45.814359 11694 net.cpp:425] conv2/relu_3x3 <- conv2/3x3
I0403 15:11:45.814376 11694 net.cpp:386] conv2/relu_3x3 -> conv2/3x3 (in-place)
I0403 15:11:45.814546 11694 net.cpp:141] Setting up conv2/relu_3x3
I0403 15:11:45.814570 11694 net.cpp:148] Top shape: 24 192 56 56 (14450688)
I0403 15:11:45.814625 11694 net.cpp:156] Memory required for data: 361268256
I0403 15:11:45.814640 11694 layer_factory.hpp:77] Creating layer conv2/norm2
I0403 15:11:45.814661 11694 net.cpp:91] Creating Layer conv2/norm2
I0403 15:11:45.814677 11694 net.cpp:425] conv2/norm2 <- conv2/3x3
I0403 15:11:45.814697 11694 net.cpp:399] conv2/norm2 -> conv2/norm2
I0403 15:11:45.814999 11694 net.cpp:141] Setting up conv2/norm2
I0403 15:11:45.815028 11694 net.cpp:148] Top shape: 24 192 56 56 (14450688)
I0403 15:11:45.815044 11694 net.cpp:156] Memory required for data: 419071008
I0403 15:11:45.815058 11694 layer_factory.hpp:77] Creating layer pool2/3x3_s2
I0403 15:11:45.815075 11694 net.cpp:91] Creating Layer pool2/3x3_s2
I0403 15:11:45.815091 11694 net.cpp:425] pool2/3x3_s2 <- conv2/norm2
I0403 15:11:45.815111 11694 net.cpp:399] pool2/3x3_s2 -> pool2/3x3_s2
I0403 15:11:45.815162 11694 net.cpp:141] Setting up pool2/3x3_s2
I0403 15:11:45.815186 11694 net.cpp:148] Top shape: 24 192 28 28 (3612672)
I0403 15:11:45.815199 11694 net.cpp:156] Memory required for data: 433521696
I0403 15:11:45.815213 11694 layer_factory.hpp:77] Creating layer pool2/3x3_s2_pool2/3x3_s2_0_split
I0403 15:11:45.815233 11694 net.cpp:91] Creating Layer pool2/3x3_s2_pool2/3x3_s2_0_split
I0403 15:11:45.815250 11694 net.cpp:425] pool2/3x3_s2_pool2/3x3_s2_0_split <- pool2/3x3_s2
I0403 15:11:45.815268 11694 net.cpp:399] pool2/3x3_s2_pool2/3x3_s2_0_split -> pool2/3x3_s2_pool2/3x3_s2_0_split_0
I0403 15:11:45.815287 11694 net.cpp:399] pool2/3x3_s2_pool2/3x3_s2_0_split -> pool2/3x3_s2_pool2/3x3_s2_0_split_1
I0403 15:11:45.815306 11694 net.cpp:399] pool2/3x3_s2_pool2/3x3_s2_0_split -> pool2/3x3_s2_pool2/3x3_s2_0_split_2
I0403 15:11:45.815333 11694 net.cpp:399] pool2/3x3_s2_pool2/3x3_s2_0_split -> pool2/3x3_s2_pool2/3x3_s2_0_split_3
I0403 15:11:45.815404 11694 net.cpp:141] Setting up pool2/3x3_s2_pool2/3x3_s2_0_split
I0403 15:11:45.815426 11694 net.cpp:148] Top shape: 24 192 28 28 (3612672)
I0403 15:11:45.815443 11694 net.cpp:148] Top shape: 24 192 28 28 (3612672)
I0403 15:11:45.815459 11694 net.cpp:148] Top shape: 24 192 28 28 (3612672)
I0403 15:11:45.815472 11694 net.cpp:148] Top shape: 24 192 28 28 (3612672)
I0403 15:11:45.815485 11694 net.cpp:156] Memory required for data: 491324448
I0403 15:11:45.815500 11694 layer_factory.hpp:77] Creating layer inception_3a/1x1
I0403 15:11:45.815522 11694 net.cpp:91] Creating Layer inception_3a/1x1
I0403 15:11:45.815539 11694 net.cpp:425] inception_3a/1x1 <- pool2/3x3_s2_pool2/3x3_s2_0_split_0
I0403 15:11:45.815560 11694 net.cpp:399] inception_3a/1x1 -> inception_3a/1x1
I0403 15:11:45.817083 11694 net.cpp:141] Setting up inception_3a/1x1
I0403 15:11:45.817111 11694 net.cpp:148] Top shape: 24 64 28 28 (1204224)
I0403 15:11:45.817127 11694 net.cpp:156] Memory required for data: 496141344
I0403 15:11:45.817145 11694 layer_factory.hpp:77] Creating layer inception_3a/relu_1x1
I0403 15:11:45.817163 11694 net.cpp:91] Creating Layer inception_3a/relu_1x1
I0403 15:11:45.817178 11694 net.cpp:425] inception_3a/relu_1x1 <- inception_3a/1x1
I0403 15:11:45.817198 11694 net.cpp:386] inception_3a/relu_1x1 -> inception_3a/1x1 (in-place)
I0403 15:11:45.817375 11694 net.cpp:141] Setting up inception_3a/relu_1x1
I0403 15:11:45.817400 11694 net.cpp:148] Top shape: 24 64 28 28 (1204224)
I0403 15:11:45.817414 11694 net.cpp:156] Memory required for data: 500958240
I0403 15:11:45.817430 11694 layer_factory.hpp:77] Creating layer inception_3a/3x3_reduce
I0403 15:11:45.817451 11694 net.cpp:91] Creating Layer inception_3a/3x3_reduce
I0403 15:11:45.817468 11694 net.cpp:425] inception_3a/3x3_reduce <- pool2/3x3_s2_pool2/3x3_s2_0_split_1
I0403 15:11:45.817492 11694 net.cpp:399] inception_3a/3x3_reduce -> inception_3a/3x3_reduce
I0403 15:11:45.819162 11694 net.cpp:141] Setting up inception_3a/3x3_reduce
I0403 15:11:45.819190 11694 net.cpp:148] Top shape: 24 96 28 28 (1806336)
I0403 15:11:45.819205 11694 net.cpp:156] Memory required for data: 508183584
I0403 15:11:45.819226 11694 layer_factory.hpp:77] Creating layer inception_3a/relu_3x3_reduce
I0403 15:11:45.819262 11694 net.cpp:91] Creating Layer inception_3a/relu_3x3_reduce
I0403 15:11:45.819278 11694 net.cpp:425] inception_3a/relu_3x3_reduce <- inception_3a/3x3_reduce
I0403 15:11:45.819295 11694 net.cpp:386] inception_3a/relu_3x3_reduce -> inception_3a/3x3_reduce (in-place)
I0403 15:11:45.819470 11694 net.cpp:141] Setting up inception_3a/relu_3x3_reduce
I0403 15:11:45.819496 11694 net.cpp:148] Top shape: 24 96 28 28 (1806336)
I0403 15:11:45.819511 11694 net.cpp:156] Memory required for data: 515408928
I0403 15:11:45.819525 11694 layer_factory.hpp:77] Creating layer inception_3a/3x3
I0403 15:11:45.819548 11694 net.cpp:91] Creating Layer inception_3a/3x3
I0403 15:11:45.819566 11694 net.cpp:425] inception_3a/3x3 <- inception_3a/3x3_reduce
I0403 15:11:45.819582 11694 net.cpp:399] inception_3a/3x3 -> inception_3a/3x3
I0403 15:11:45.821154 11694 net.cpp:141] Setting up inception_3a/3x3
I0403 15:11:45.821182 11694 net.cpp:148] Top shape: 24 128 28 28 (2408448)
I0403 15:11:45.821197 11694 net.cpp:156] Memory required for data: 525042720
I0403 15:11:45.821213 11694 layer_factory.hpp:77] Creating layer inception_3a/relu_3x3
I0403 15:11:45.821230 11694 net.cpp:91] Creating Layer inception_3a/relu_3x3
I0403 15:11:45.821245 11694 net.cpp:425] inception_3a/relu_3x3 <- inception_3a/3x3
I0403 15:11:45.821264 11694 net.cpp:386] inception_3a/relu_3x3 -> inception_3a/3x3 (in-place)
I0403 15:11:45.821533 11694 net.cpp:141] Setting up inception_3a/relu_3x3
I0403 15:11:45.821559 11694 net.cpp:148] Top shape: 24 128 28 28 (2408448)
I0403 15:11:45.821575 11694 net.cpp:156] Memory required for data: 534676512
I0403 15:11:45.821589 11694 layer_factory.hpp:77] Creating layer inception_3a/5x5_reduce
I0403 15:11:45.821611 11694 net.cpp:91] Creating Layer inception_3a/5x5_reduce
I0403 15:11:45.821629 11694 net.cpp:425] inception_3a/5x5_reduce <- pool2/3x3_s2_pool2/3x3_s2_0_split_2
I0403 15:11:45.821648 11694 net.cpp:399] inception_3a/5x5_reduce -> inception_3a/5x5_reduce
I0403 15:11:45.822556 11694 net.cpp:141] Setting up inception_3a/5x5_reduce
I0403 15:11:45.822582 11694 net.cpp:148] Top shape: 24 16 28 28 (301056)
I0403 15:11:45.822597 11694 net.cpp:156] Memory required for data: 535880736
I0403 15:11:45.822614 11694 layer_factory.hpp:77] Creating layer inception_3a/relu_5x5_reduce
I0403 15:11:45.822634 11694 net.cpp:91] Creating Layer inception_3a/relu_5x5_reduce
I0403 15:11:45.822650 11694 net.cpp:425] inception_3a/relu_5x5_reduce <- inception_3a/5x5_reduce
I0403 15:11:45.822667 11694 net.cpp:386] inception_3a/relu_5x5_reduce -> inception_3a/5x5_reduce (in-place)
I0403 15:11:45.822952 11694 net.cpp:141] Setting up inception_3a/relu_5x5_reduce
I0403 15:11:45.822978 11694 net.cpp:148] Top shape: 24 16 28 28 (301056)
I0403 15:11:45.822993 11694 net.cpp:156] Memory required for data: 537084960
I0403 15:11:45.823006 11694 layer_factory.hpp:77] Creating layer inception_3a/5x5
I0403 15:11:45.823029 11694 net.cpp:91] Creating Layer inception_3a/5x5
I0403 15:11:45.823046 11694 net.cpp:425] inception_3a/5x5 <- inception_3a/5x5_reduce
I0403 15:11:45.823065 11694 net.cpp:399] inception_3a/5x5 -> inception_3a/5x5
I0403 15:11:45.824053 11694 net.cpp:141] Setting up inception_3a/5x5
I0403 15:11:45.824079 11694 net.cpp:148] Top shape: 24 32 28 28 (602112)
I0403 15:11:45.824095 11694 net.cpp:156] Memory required for data: 539493408
I0403 15:11:45.824111 11694 layer_factory.hpp:77] Creating layer inception_3a/relu_5x5
I0403 15:11:45.824129 11694 net.cpp:91] Creating Layer inception_3a/relu_5x5
I0403 15:11:45.824143 11694 net.cpp:425] inception_3a/relu_5x5 <- inception_3a/5x5
I0403 15:11:45.824162 11694 net.cpp:386] inception_3a/relu_5x5 -> inception_3a/5x5 (in-place)
I0403 15:11:45.824332 11694 net.cpp:141] Setting up inception_3a/relu_5x5
I0403 15:11:45.824357 11694 net.cpp:148] Top shape: 24 32 28 28 (602112)
I0403 15:11:45.824370 11694 net.cpp:156] Memory required for data: 541901856
I0403 15:11:45.824384 11694 layer_factory.hpp:77] Creating layer inception_3a/pool
I0403 15:11:45.824404 11694 net.cpp:91] Creating Layer inception_3a/pool
I0403 15:11:45.824432 11694 net.cpp:425] inception_3a/pool <- pool2/3x3_s2_pool2/3x3_s2_0_split_3
I0403 15:11:45.824451 11694 net.cpp:399] inception_3a/pool -> inception_3a/pool
I0403 15:11:45.824506 11694 net.cpp:141] Setting up inception_3a/pool
I0403 15:11:45.824529 11694 net.cpp:148] Top shape: 24 192 28 28 (3612672)
I0403 15:11:45.824543 11694 net.cpp:156] Memory required for data: 556352544
I0403 15:11:45.824558 11694 layer_factory.hpp:77] Creating layer inception_3a/pool_proj
I0403 15:11:45.824579 11694 net.cpp:91] Creating Layer inception_3a/pool_proj
I0403 15:11:45.824595 11694 net.cpp:425] inception_3a/pool_proj <- inception_3a/pool
I0403 15:11:45.824616 11694 net.cpp:399] inception_3a/pool_proj -> inception_3a/pool_proj
I0403 15:11:45.825525 11694 net.cpp:141] Setting up inception_3a/pool_proj
I0403 15:11:45.825553 11694 net.cpp:148] Top shape: 24 32 28 28 (602112)
I0403 15:11:45.825569 11694 net.cpp:156] Memory required for data: 558760992
I0403 15:11:45.825590 11694 layer_factory.hpp:77] Creating layer inception_3a/relu_pool_proj
I0403 15:11:45.825610 11694 net.cpp:91] Creating Layer inception_3a/relu_pool_proj
I0403 15:11:45.825626 11694 net.cpp:425] inception_3a/relu_pool_proj <- inception_3a/pool_proj
I0403 15:11:45.825644 11694 net.cpp:386] inception_3a/relu_pool_proj -> inception_3a/pool_proj (in-place)
I0403 15:11:45.825906 11694 net.cpp:141] Setting up inception_3a/relu_pool_proj
I0403 15:11:45.825932 11694 net.cpp:148] Top shape: 24 32 28 28 (602112)
I0403 15:11:45.825947 11694 net.cpp:156] Memory required for data: 561169440
I0403 15:11:45.825960 11694 layer_factory.hpp:77] Creating layer inception_3a/output
I0403 15:11:45.825978 11694 net.cpp:91] Creating Layer inception_3a/output
I0403 15:11:45.825992 11694 net.cpp:425] inception_3a/output <- inception_3a/1x1
I0403 15:11:45.826009 11694 net.cpp:425] inception_3a/output <- inception_3a/3x3
I0403 15:11:45.826025 11694 net.cpp:425] inception_3a/output <- inception_3a/5x5
I0403 15:11:45.826040 11694 net.cpp:425] inception_3a/output <- inception_3a/pool_proj
I0403 15:11:45.826057 11694 net.cpp:399] inception_3a/output -> inception_3a/output
I0403 15:11:45.826100 11694 net.cpp:141] Setting up inception_3a/output
I0403 15:11:45.826125 11694 net.cpp:148] Top shape: 24 256 28 28 (4816896)
I0403 15:11:45.826140 11694 net.cpp:156] Memory required for data: 580437024
I0403 15:11:45.826154 11694 layer_factory.hpp:77] Creating layer inception_3a/output_inception_3a/output_0_split
I0403 15:11:45.826171 11694 net.cpp:91] Creating Layer inception_3a/output_inception_3a/output_0_split
I0403 15:11:45.826185 11694 net.cpp:425] inception_3a/output_inception_3a/output_0_split <- inception_3a/output
I0403 15:11:45.826202 11694 net.cpp:399] inception_3a/output_inception_3a/output_0_split -> inception_3a/output_inception_3a/output_0_split_0
I0403 15:11:45.826223 11694 net.cpp:399] inception_3a/output_inception_3a/output_0_split -> inception_3a/output_inception_3a/output_0_split_1
I0403 15:11:45.826246 11694 net.cpp:399] inception_3a/output_inception_3a/output_0_split -> inception_3a/output_inception_3a/output_0_split_2
I0403 15:11:45.826267 11694 net.cpp:399] inception_3a/output_inception_3a/output_0_split -> inception_3a/output_inception_3a/output_0_split_3
I0403 15:11:45.826339 11694 net.cpp:141] Setting up inception_3a/output_inception_3a/output_0_split
I0403 15:11:45.826364 11694 net.cpp:148] Top shape: 24 256 28 28 (4816896)
I0403 15:11:45.826381 11694 net.cpp:148] Top shape: 24 256 28 28 (4816896)
I0403 15:11:45.826396 11694 net.cpp:148] Top shape: 24 256 28 28 (4816896)
I0403 15:11:45.826411 11694 net.cpp:148] Top shape: 24 256 28 28 (4816896)
I0403 15:11:45.826424 11694 net.cpp:156] Memory required for data: 657507360
I0403 15:11:45.826438 11694 layer_factory.hpp:77] Creating layer inception_3b/1x1
I0403 15:11:45.826459 11694 net.cpp:91] Creating Layer inception_3b/1x1
I0403 15:11:45.826477 11694 net.cpp:425] inception_3b/1x1 <- inception_3a/output_inception_3a/output_0_split_0
I0403 15:11:45.826499 11694 net.cpp:399] inception_3b/1x1 -> inception_3b/1x1
I0403 15:11:45.827644 11694 net.cpp:141] Setting up inception_3b/1x1
I0403 15:11:45.827702 11694 net.cpp:148] Top shape: 24 128 28 28 (2408448)
I0403 15:11:45.827718 11694 net.cpp:156] Memory required for data: 667141152
I0403 15:11:45.827736 11694 layer_factory.hpp:77] Creating layer inception_3b/relu_1x1
I0403 15:11:45.827755 11694 net.cpp:91] Creating Layer inception_3b/relu_1x1
I0403 15:11:45.827771 11694 net.cpp:425] inception_3b/relu_1x1 <- inception_3b/1x1
I0403 15:11:45.827792 11694 net.cpp:386] inception_3b/relu_1x1 -> inception_3b/1x1 (in-place)
I0403 15:11:45.827991 11694 net.cpp:141] Setting up inception_3b/relu_1x1
I0403 15:11:45.828016 11694 net.cpp:148] Top shape: 24 128 28 28 (2408448)
I0403 15:11:45.828030 11694 net.cpp:156] Memory required for data: 676774944
I0403 15:11:45.828044 11694 layer_factory.hpp:77] Creating layer inception_3b/3x3_reduce
I0403 15:11:45.828066 11694 net.cpp:91] Creating Layer inception_3b/3x3_reduce
I0403 15:11:45.828083 11694 net.cpp:425] inception_3b/3x3_reduce <- inception_3a/output_inception_3a/output_0_split_1
I0403 15:11:45.828105 11694 net.cpp:399] inception_3b/3x3_reduce -> inception_3b/3x3_reduce
I0403 15:11:45.829237 11694 net.cpp:141] Setting up inception_3b/3x3_reduce
I0403 15:11:45.829267 11694 net.cpp:148] Top shape: 24 128 28 28 (2408448)
I0403 15:11:45.829282 11694 net.cpp:156] Memory required for data: 686408736
I0403 15:11:45.829300 11694 layer_factory.hpp:77] Creating layer inception_3b/relu_3x3_reduce
I0403 15:11:45.829322 11694 net.cpp:91] Creating Layer inception_3b/relu_3x3_reduce
I0403 15:11:45.829340 11694 net.cpp:425] inception_3b/relu_3x3_reduce <- inception_3b/3x3_reduce
I0403 15:11:45.829360 11694 net.cpp:386] inception_3b/relu_3x3_reduce -> inception_3b/3x3_reduce (in-place)
I0403 15:11:45.829531 11694 net.cpp:141] Setting up inception_3b/relu_3x3_reduce
I0403 15:11:45.829555 11694 net.cpp:148] Top shape: 24 128 28 28 (2408448)
I0403 15:11:45.829572 11694 net.cpp:156] Memory required for data: 696042528
I0403 15:11:45.829586 11694 layer_factory.hpp:77] Creating layer inception_3b/3x3
I0403 15:11:45.829619 11694 net.cpp:91] Creating Layer inception_3b/3x3
I0403 15:11:45.829637 11694 net.cpp:425] inception_3b/3x3 <- inception_3b/3x3_reduce
I0403 15:11:45.829655 11694 net.cpp:399] inception_3b/3x3 -> inception_3b/3x3
I0403 15:11:45.832623 11694 net.cpp:141] Setting up inception_3b/3x3
I0403 15:11:45.832653 11694 net.cpp:148] Top shape: 24 192 28 28 (3612672)
I0403 15:11:45.832669 11694 net.cpp:156] Memory required for data: 710493216
I0403 15:11:45.832686 11694 layer_factory.hpp:77] Creating layer inception_3b/relu_3x3
I0403 15:11:45.832705 11694 net.cpp:91] Creating Layer inception_3b/relu_3x3
I0403 15:11:45.832721 11694 net.cpp:425] inception_3b/relu_3x3 <- inception_3b/3x3
I0403 15:11:45.832742 11694 net.cpp:386] inception_3b/relu_3x3 -> inception_3b/3x3 (in-place)
I0403 15:11:45.833029 11694 net.cpp:141] Setting up inception_3b/relu_3x3
I0403 15:11:45.833055 11694 net.cpp:148] Top shape: 24 192 28 28 (3612672)
I0403 15:11:45.833070 11694 net.cpp:156] Memory required for data: 724943904
I0403 15:11:45.833086 11694 layer_factory.hpp:77] Creating layer inception_3b/5x5_reduce
I0403 15:11:45.833108 11694 net.cpp:91] Creating Layer inception_3b/5x5_reduce
I0403 15:11:45.833127 11694 net.cpp:425] inception_3b/5x5_reduce <- inception_3a/output_inception_3a/output_0_split_2
I0403 15:11:45.833149 11694 net.cpp:399] inception_3b/5x5_reduce -> inception_3b/5x5_reduce
I0403 15:11:45.834152 11694 net.cpp:141] Setting up inception_3b/5x5_reduce
I0403 15:11:45.834180 11694 net.cpp:148] Top shape: 24 32 28 28 (602112)
I0403 15:11:45.834195 11694 net.cpp:156] Memory required for data: 727352352
I0403 15:11:45.834213 11694 layer_factory.hpp:77] Creating layer inception_3b/relu_5x5_reduce
I0403 15:11:45.834231 11694 net.cpp:91] Creating Layer inception_3b/relu_5x5_reduce
I0403 15:11:45.834247 11694 net.cpp:425] inception_3b/relu_5x5_reduce <- inception_3b/5x5_reduce
I0403 15:11:45.834265 11694 net.cpp:386] inception_3b/relu_5x5_reduce -> inception_3b/5x5_reduce (in-place)
I0403 15:11:45.834461 11694 net.cpp:141] Setting up inception_3b/relu_5x5_reduce
I0403 15:11:45.834486 11694 net.cpp:148] Top shape: 24 32 28 28 (602112)
I0403 15:11:45.834501 11694 net.cpp:156] Memory required for data: 729760800
I0403 15:11:45.834516 11694 layer_factory.hpp:77] Creating layer inception_3b/5x5
I0403 15:11:45.834537 11694 net.cpp:91] Creating Layer inception_3b/5x5
I0403 15:11:45.834555 11694 net.cpp:425] inception_3b/5x5 <- inception_3b/5x5_reduce
I0403 15:11:45.834579 11694 net.cpp:399] inception_3b/5x5 -> inception_3b/5x5
I0403 15:11:45.836563 11694 net.cpp:141] Setting up inception_3b/5x5
I0403 15:11:45.836594 11694 net.cpp:148] Top shape: 24 96 28 28 (1806336)
I0403 15:11:45.836611 11694 net.cpp:156] Memory required for data: 736986144
I0403 15:11:45.836628 11694 layer_factory.hpp:77] Creating layer inception_3b/relu_5x5
I0403 15:11:45.836647 11694 net.cpp:91] Creating Layer inception_3b/relu_5x5
I0403 15:11:45.836661 11694 net.cpp:425] inception_3b/relu_5x5 <- inception_3b/5x5
I0403 15:11:45.836681 11694 net.cpp:386] inception_3b/relu_5x5 -> inception_3b/5x5 (in-place)
I0403 15:11:45.836868 11694 net.cpp:141] Setting up inception_3b/relu_5x5
I0403 15:11:45.836892 11694 net.cpp:148] Top shape: 24 96 28 28 (1806336)
I0403 15:11:45.836906 11694 net.cpp:156] Memory required for data: 744211488
I0403 15:11:45.836920 11694 layer_factory.hpp:77] Creating layer inception_3b/pool
I0403 15:11:45.836937 11694 net.cpp:91] Creating Layer inception_3b/pool
I0403 15:11:45.836953 11694 net.cpp:425] inception_3b/pool <- inception_3a/output_inception_3a/output_0_split_3
I0403 15:11:45.836971 11694 net.cpp:399] inception_3b/pool -> inception_3b/pool
I0403 15:11:45.837026 11694 net.cpp:141] Setting up inception_3b/pool
I0403 15:11:45.837049 11694 net.cpp:148] Top shape: 24 256 28 28 (4816896)
I0403 15:11:45.837064 11694 net.cpp:156] Memory required for data: 763479072
I0403 15:11:45.837079 11694 layer_factory.hpp:77] Creating layer inception_3b/pool_proj
I0403 15:11:45.837100 11694 net.cpp:91] Creating Layer inception_3b/pool_proj
I0403 15:11:45.837116 11694 net.cpp:425] inception_3b/pool_proj <- inception_3b/pool
I0403 15:11:45.837137 11694 net.cpp:399] inception_3b/pool_proj -> inception_3b/pool_proj
I0403 15:11:45.838208 11694 net.cpp:141] Setting up inception_3b/pool_proj
I0403 15:11:45.838235 11694 net.cpp:148] Top shape: 24 64 28 28 (1204224)
I0403 15:11:45.838249 11694 net.cpp:156] Memory required for data: 768295968
I0403 15:11:45.838268 11694 layer_factory.hpp:77] Creating layer inception_3b/relu_pool_proj
I0403 15:11:45.838289 11694 net.cpp:91] Creating Layer inception_3b/relu_pool_proj
I0403 15:11:45.838304 11694 net.cpp:425] inception_3b/relu_pool_proj <- inception_3b/pool_proj
I0403 15:11:45.838327 11694 net.cpp:386] inception_3b/relu_pool_proj -> inception_3b/pool_proj (in-place)
I0403 15:11:45.838727 11694 net.cpp:141] Setting up inception_3b/relu_pool_proj
I0403 15:11:45.838752 11694 net.cpp:148] Top shape: 24 64 28 28 (1204224)
I0403 15:11:45.838768 11694 net.cpp:156] Memory required for data: 773112864
I0403 15:11:45.838781 11694 layer_factory.hpp:77] Creating layer inception_3b/output
I0403 15:11:45.838799 11694 net.cpp:91] Creating Layer inception_3b/output
I0403 15:11:45.838814 11694 net.cpp:425] inception_3b/output <- inception_3b/1x1
I0403 15:11:45.838834 11694 net.cpp:425] inception_3b/output <- inception_3b/3x3
I0403 15:11:45.838850 11694 net.cpp:425] inception_3b/output <- inception_3b/5x5
I0403 15:11:45.838865 11694 net.cpp:425] inception_3b/output <- inception_3b/pool_proj
I0403 15:11:45.838881 11694 net.cpp:399] inception_3b/output -> inception_3b/output
I0403 15:11:45.838927 11694 net.cpp:141] Setting up inception_3b/output
I0403 15:11:45.838948 11694 net.cpp:148] Top shape: 24 480 28 28 (9031680)
I0403 15:11:45.838963 11694 net.cpp:156] Memory required for data: 809239584
I0403 15:11:45.838978 11694 layer_factory.hpp:77] Creating layer pool3/3x3_s2
I0403 15:11:45.838994 11694 net.cpp:91] Creating Layer pool3/3x3_s2
I0403 15:11:45.839010 11694 net.cpp:425] pool3/3x3_s2 <- inception_3b/output
I0403 15:11:45.839045 11694 net.cpp:399] pool3/3x3_s2 -> pool3/3x3_s2
I0403 15:11:45.839102 11694 net.cpp:141] Setting up pool3/3x3_s2
I0403 15:11:45.839124 11694 net.cpp:148] Top shape: 24 480 14 14 (2257920)
I0403 15:11:45.839138 11694 net.cpp:156] Memory required for data: 818271264
I0403 15:11:45.839153 11694 layer_factory.hpp:77] Creating layer pool3/3x3_s2_pool3/3x3_s2_0_split
I0403 15:11:45.839171 11694 net.cpp:91] Creating Layer pool3/3x3_s2_pool3/3x3_s2_0_split
I0403 15:11:45.839187 11694 net.cpp:425] pool3/3x3_s2_pool3/3x3_s2_0_split <- pool3/3x3_s2
I0403 15:11:45.839203 11694 net.cpp:399] pool3/3x3_s2_pool3/3x3_s2_0_split -> pool3/3x3_s2_pool3/3x3_s2_0_split_0
I0403 15:11:45.839226 11694 net.cpp:399] pool3/3x3_s2_pool3/3x3_s2_0_split -> pool3/3x3_s2_pool3/3x3_s2_0_split_1
I0403 15:11:45.839246 11694 net.cpp:399] pool3/3x3_s2_pool3/3x3_s2_0_split -> pool3/3x3_s2_pool3/3x3_s2_0_split_2
I0403 15:11:45.839265 11694 net.cpp:399] pool3/3x3_s2_pool3/3x3_s2_0_split -> pool3/3x3_s2_pool3/3x3_s2_0_split_3
I0403 15:11:45.839342 11694 net.cpp:141] Setting up pool3/3x3_s2_pool3/3x3_s2_0_split
I0403 15:11:45.839365 11694 net.cpp:148] Top shape: 24 480 14 14 (2257920)
I0403 15:11:45.839381 11694 net.cpp:148] Top shape: 24 480 14 14 (2257920)
I0403 15:11:45.839396 11694 net.cpp:148] Top shape: 24 480 14 14 (2257920)
I0403 15:11:45.839411 11694 net.cpp:148] Top shape: 24 480 14 14 (2257920)
I0403 15:11:45.839426 11694 net.cpp:156] Memory required for data: 854397984
I0403 15:11:45.839439 11694 layer_factory.hpp:77] Creating layer inception_4a/1x1
I0403 15:11:45.839460 11694 net.cpp:91] Creating Layer inception_4a/1x1
I0403 15:11:45.839478 11694 net.cpp:425] inception_4a/1x1 <- pool3/3x3_s2_pool3/3x3_s2_0_split_0
I0403 15:11:45.839499 11694 net.cpp:399] inception_4a/1x1 -> inception_4a/1x1
I0403 15:11:45.841056 11694 net.cpp:141] Setting up inception_4a/1x1
I0403 15:11:45.841085 11694 net.cpp:148] Top shape: 24 192 14 14 (903168)
I0403 15:11:45.841101 11694 net.cpp:156] Memory required for data: 858010656
I0403 15:11:45.841120 11694 layer_factory.hpp:77] Creating layer inception_4a/relu_1x1
I0403 15:11:45.841136 11694 net.cpp:91] Creating Layer inception_4a/relu_1x1
I0403 15:11:45.841151 11694 net.cpp:425] inception_4a/relu_1x1 <- inception_4a/1x1
I0403 15:11:45.841168 11694 net.cpp:386] inception_4a/relu_1x1 -> inception_4a/1x1 (in-place)
I0403 15:11:45.841346 11694 net.cpp:141] Setting up inception_4a/relu_1x1
I0403 15:11:45.841372 11694 net.cpp:148] Top shape: 24 192 14 14 (903168)
I0403 15:11:45.841387 11694 net.cpp:156] Memory required for data: 861623328
I0403 15:11:45.841401 11694 layer_factory.hpp:77] Creating layer inception_4a/3x3_reduce
I0403 15:11:45.841425 11694 net.cpp:91] Creating Layer inception_4a/3x3_reduce
I0403 15:11:45.841444 11694 net.cpp:425] inception_4a/3x3_reduce <- pool3/3x3_s2_pool3/3x3_s2_0_split_1
I0403 15:11:45.841464 11694 net.cpp:399] inception_4a/3x3_reduce -> inception_4a/3x3_reduce
I0403 15:11:45.842713 11694 net.cpp:141] Setting up inception_4a/3x3_reduce
I0403 15:11:45.842741 11694 net.cpp:148] Top shape: 24 96 14 14 (451584)
I0403 15:11:45.842756 11694 net.cpp:156] Memory required for data: 863429664
I0403 15:11:45.842782 11694 layer_factory.hpp:77] Creating layer inception_4a/relu_3x3_reduce
I0403 15:11:45.842803 11694 net.cpp:91] Creating Layer inception_4a/relu_3x3_reduce
I0403 15:11:45.842818 11694 net.cpp:425] inception_4a/relu_3x3_reduce <- inception_4a/3x3_reduce
I0403 15:11:45.842834 11694 net.cpp:386] inception_4a/relu_3x3_reduce -> inception_4a/3x3_reduce (in-place)
I0403 15:11:45.843013 11694 net.cpp:141] Setting up inception_4a/relu_3x3_reduce
I0403 15:11:45.843039 11694 net.cpp:148] Top shape: 24 96 14 14 (451584)
I0403 15:11:45.843055 11694 net.cpp:156] Memory required for data: 865236000
I0403 15:11:45.843068 11694 layer_factory.hpp:77] Creating layer inception_4a/3x3
I0403 15:11:45.843091 11694 net.cpp:91] Creating Layer inception_4a/3x3
I0403 15:11:45.843107 11694 net.cpp:425] inception_4a/3x3 <- inception_4a/3x3_reduce
I0403 15:11:45.843127 11694 net.cpp:399] inception_4a/3x3 -> inception_4a/3x3
I0403 15:11:45.845875 11694 net.cpp:141] Setting up inception_4a/3x3
I0403 15:11:45.845912 11694 net.cpp:148] Top shape: 24 208 14 14 (978432)
I0403 15:11:45.845928 11694 net.cpp:156] Memory required for data: 869149728
I0403 15:11:45.845947 11694 layer_factory.hpp:77] Creating layer inception_4a/relu_3x3
I0403 15:11:45.845973 11694 net.cpp:91] Creating Layer inception_4a/relu_3x3
I0403 15:11:45.845989 11694 net.cpp:425] inception_4a/relu_3x3 <- inception_4a/3x3
I0403 15:11:45.846009 11694 net.cpp:386] inception_4a/relu_3x3 -> inception_4a/3x3 (in-place)
I0403 15:11:45.846297 11694 net.cpp:141] Setting up inception_4a/relu_3x3
I0403 15:11:45.846326 11694 net.cpp:148] Top shape: 24 208 14 14 (978432)
I0403 15:11:45.846341 11694 net.cpp:156] Memory required for data: 873063456
I0403 15:11:45.846356 11694 layer_factory.hpp:77] Creating layer inception_4a/5x5_reduce
I0403 15:11:45.846379 11694 net.cpp:91] Creating Layer inception_4a/5x5_reduce
I0403 15:11:45.846395 11694 net.cpp:425] inception_4a/5x5_reduce <- pool3/3x3_s2_pool3/3x3_s2_0_split_2
I0403 15:11:45.846416 11694 net.cpp:399] inception_4a/5x5_reduce -> inception_4a/5x5_reduce
I0403 15:11:45.847465 11694 net.cpp:141] Setting up inception_4a/5x5_reduce
I0403 15:11:45.847493 11694 net.cpp:148] Top shape: 24 16 14 14 (75264)
I0403 15:11:45.847509 11694 net.cpp:156] Memory required for data: 873364512
I0403 15:11:45.847527 11694 layer_factory.hpp:77] Creating layer inception_4a/relu_5x5_reduce
I0403 15:11:45.847546 11694 net.cpp:91] Creating Layer inception_4a/relu_5x5_reduce
I0403 15:11:45.847565 11694 net.cpp:425] inception_4a/relu_5x5_reduce <- inception_4a/5x5_reduce
I0403 15:11:45.847585 11694 net.cpp:386] inception_4a/relu_5x5_reduce -> inception_4a/5x5_reduce (in-place)
I0403 15:11:45.847786 11694 net.cpp:141] Setting up inception_4a/relu_5x5_reduce
I0403 15:11:45.847811 11694 net.cpp:148] Top shape: 24 16 14 14 (75264)
I0403 15:11:45.847837 11694 net.cpp:156] Memory required for data: 873665568
I0403 15:11:45.847851 11694 layer_factory.hpp:77] Creating layer inception_4a/5x5
I0403 15:11:45.847872 11694 net.cpp:91] Creating Layer inception_4a/5x5
I0403 15:11:45.847890 11694 net.cpp:425] inception_4a/5x5 <- inception_4a/5x5_reduce
I0403 15:11:45.847920 11694 net.cpp:399] inception_4a/5x5 -> inception_4a/5x5
I0403 15:11:45.849092 11694 net.cpp:141] Setting up inception_4a/5x5
I0403 15:11:45.849125 11694 net.cpp:148] Top shape: 24 48 14 14 (225792)
I0403 15:11:45.849143 11694 net.cpp:156] Memory required for data: 874568736
I0403 15:11:45.849165 11694 layer_factory.hpp:77] Creating layer inception_4a/relu_5x5
I0403 15:11:45.849187 11694 net.cpp:91] Creating Layer inception_4a/relu_5x5
I0403 15:11:45.849205 11694 net.cpp:425] inception_4a/relu_5x5 <- inception_4a/5x5
I0403 15:11:45.849222 11694 net.cpp:386] inception_4a/relu_5x5 -> inception_4a/5x5 (in-place)
I0403 15:11:45.849447 11694 net.cpp:141] Setting up inception_4a/relu_5x5
I0403 15:11:45.849474 11694 net.cpp:148] Top shape: 24 48 14 14 (225792)
I0403 15:11:45.849488 11694 net.cpp:156] Memory required for data: 875471904
I0403 15:11:45.849503 11694 layer_factory.hpp:77] Creating layer inception_4a/pool
I0403 15:11:45.849519 11694 net.cpp:91] Creating Layer inception_4a/pool
I0403 15:11:45.849534 11694 net.cpp:425] inception_4a/pool <- pool3/3x3_s2_pool3/3x3_s2_0_split_3
I0403 15:11:45.849551 11694 net.cpp:399] inception_4a/pool -> inception_4a/pool
I0403 15:11:45.849620 11694 net.cpp:141] Setting up inception_4a/pool
I0403 15:11:45.849642 11694 net.cpp:148] Top shape: 24 480 14 14 (2257920)
I0403 15:11:45.849656 11694 net.cpp:156] Memory required for data: 884503584
I0403 15:11:45.849669 11694 layer_factory.hpp:77] Creating layer inception_4a/pool_proj
I0403 15:11:45.849696 11694 net.cpp:91] Creating Layer inception_4a/pool_proj
I0403 15:11:45.849714 11694 net.cpp:425] inception_4a/pool_proj <- inception_4a/pool
I0403 15:11:45.849733 11694 net.cpp:399] inception_4a/pool_proj -> inception_4a/pool_proj
I0403 15:11:45.850853 11694 net.cpp:141] Setting up inception_4a/pool_proj
I0403 15:11:45.850880 11694 net.cpp:148] Top shape: 24 64 14 14 (301056)
I0403 15:11:45.850908 11694 net.cpp:156] Memory required for data: 885707808
I0403 15:11:45.850927 11694 layer_factory.hpp:77] Creating layer inception_4a/relu_pool_proj
I0403 15:11:45.850949 11694 net.cpp:91] Creating Layer inception_4a/relu_pool_proj
I0403 15:11:45.850965 11694 net.cpp:425] inception_4a/relu_pool_proj <- inception_4a/pool_proj
I0403 15:11:45.850981 11694 net.cpp:386] inception_4a/relu_pool_proj -> inception_4a/pool_proj (in-place)
I0403 15:11:45.851250 11694 net.cpp:141] Setting up inception_4a/relu_pool_proj
I0403 15:11:45.851275 11694 net.cpp:148] Top shape: 24 64 14 14 (301056)
I0403 15:11:45.851290 11694 net.cpp:156] Memory required for data: 886912032
I0403 15:11:45.851305 11694 layer_factory.hpp:77] Creating layer inception_4a/output
I0403 15:11:45.851328 11694 net.cpp:91] Creating Layer inception_4a/output
I0403 15:11:45.851346 11694 net.cpp:425] inception_4a/output <- inception_4a/1x1
I0403 15:11:45.851361 11694 net.cpp:425] inception_4a/output <- inception_4a/3x3
I0403 15:11:45.851377 11694 net.cpp:425] inception_4a/output <- inception_4a/5x5
I0403 15:11:45.851392 11694 net.cpp:425] inception_4a/output <- inception_4a/pool_proj
I0403 15:11:45.851408 11694 net.cpp:399] inception_4a/output -> inception_4a/output
I0403 15:11:45.851454 11694 net.cpp:141] Setting up inception_4a/output
I0403 15:11:45.851475 11694 net.cpp:148] Top shape: 24 512 14 14 (2408448)
I0403 15:11:45.851488 11694 net.cpp:156] Memory required for data: 896545824
I0403 15:11:45.851502 11694 layer_factory.hpp:77] Creating layer inception_4a/output_inception_4a/output_0_split
I0403 15:11:45.851519 11694 net.cpp:91] Creating Layer inception_4a/output_inception_4a/output_0_split
I0403 15:11:45.851534 11694 net.cpp:425] inception_4a/output_inception_4a/output_0_split <- inception_4a/output
I0403 15:11:45.851553 11694 net.cpp:399] inception_4a/output_inception_4a/output_0_split -> inception_4a/output_inception_4a/output_0_split_0
I0403 15:11:45.851577 11694 net.cpp:399] inception_4a/output_inception_4a/output_0_split -> inception_4a/output_inception_4a/output_0_split_1
I0403 15:11:45.851595 11694 net.cpp:399] inception_4a/output_inception_4a/output_0_split -> inception_4a/output_inception_4a/output_0_split_2
I0403 15:11:45.851615 11694 net.cpp:399] inception_4a/output_inception_4a/output_0_split -> inception_4a/output_inception_4a/output_0_split_3
I0403 15:11:45.851639 11694 net.cpp:399] inception_4a/output_inception_4a/output_0_split -> inception_4a/output_inception_4a/output_0_split_4
I0403 15:11:45.851725 11694 net.cpp:141] Setting up inception_4a/output_inception_4a/output_0_split
I0403 15:11:45.851747 11694 net.cpp:148] Top shape: 24 512 14 14 (2408448)
I0403 15:11:45.851763 11694 net.cpp:148] Top shape: 24 512 14 14 (2408448)
I0403 15:11:45.851778 11694 net.cpp:148] Top shape: 24 512 14 14 (2408448)
I0403 15:11:45.851793 11694 net.cpp:148] Top shape: 24 512 14 14 (2408448)
I0403 15:11:45.851806 11694 net.cpp:148] Top shape: 24 512 14 14 (2408448)
I0403 15:11:45.851819 11694 net.cpp:156] Memory required for data: 944714784
I0403 15:11:45.851832 11694 layer_factory.hpp:77] Creating layer loss1/ave_pool
I0403 15:11:45.851850 11694 net.cpp:91] Creating Layer loss1/ave_pool
I0403 15:11:45.851864 11694 net.cpp:425] loss1/ave_pool <- inception_4a/output_inception_4a/output_0_split_0
I0403 15:11:45.851883 11694 net.cpp:399] loss1/ave_pool -> loss1/ave_pool
I0403 15:11:45.852082 11694 net.cpp:141] Setting up loss1/ave_pool
I0403 15:11:45.852105 11694 net.cpp:148] Top shape: 24 512 4 4 (196608)
I0403 15:11:45.852120 11694 net.cpp:156] Memory required for data: 945501216
I0403 15:11:45.852134 11694 layer_factory.hpp:77] Creating layer loss1/conv
I0403 15:11:45.852157 11694 net.cpp:91] Creating Layer loss1/conv
I0403 15:11:45.852174 11694 net.cpp:425] loss1/conv <- loss1/ave_pool
I0403 15:11:45.852191 11694 net.cpp:399] loss1/conv -> loss1/conv
I0403 15:11:45.853544 11694 net.cpp:141] Setting up loss1/conv
I0403 15:11:45.853571 11694 net.cpp:148] Top shape: 24 128 4 4 (49152)
I0403 15:11:45.853600 11694 net.cpp:156] Memory required for data: 945697824
I0403 15:11:45.853620 11694 layer_factory.hpp:77] Creating layer loss1/relu_conv
I0403 15:11:45.853636 11694 net.cpp:91] Creating Layer loss1/relu_conv
I0403 15:11:45.853652 11694 net.cpp:425] loss1/relu_conv <- loss1/conv
I0403 15:11:45.853670 11694 net.cpp:386] loss1/relu_conv -> loss1/conv (in-place)
I0403 15:11:45.853940 11694 net.cpp:141] Setting up loss1/relu_conv
I0403 15:11:45.853965 11694 net.cpp:148] Top shape: 24 128 4 4 (49152)
I0403 15:11:45.853978 11694 net.cpp:156] Memory required for data: 945894432
I0403 15:11:45.853993 11694 layer_factory.hpp:77] Creating layer loss1/fc
I0403 15:11:45.854015 11694 net.cpp:91] Creating Layer loss1/fc
I0403 15:11:45.854032 11694 net.cpp:425] loss1/fc <- loss1/conv
I0403 15:11:45.854053 11694 net.cpp:399] loss1/fc -> loss1/fc
I0403 15:11:45.871294 11694 net.cpp:141] Setting up loss1/fc
I0403 15:11:45.871330 11694 net.cpp:148] Top shape: 24 1024 (24576)
I0403 15:11:45.871347 11694 net.cpp:156] Memory required for data: 945992736
I0403 15:11:45.871366 11694 layer_factory.hpp:77] Creating layer loss1/relu_fc
I0403 15:11:45.871383 11694 net.cpp:91] Creating Layer loss1/relu_fc
I0403 15:11:45.871399 11694 net.cpp:425] loss1/relu_fc <- loss1/fc
I0403 15:11:45.871417 11694 net.cpp:386] loss1/relu_fc -> loss1/fc (in-place)
I0403 15:11:45.871609 11694 net.cpp:141] Setting up loss1/relu_fc
I0403 15:11:45.871635 11694 net.cpp:148] Top shape: 24 1024 (24576)
I0403 15:11:45.871651 11694 net.cpp:156] Memory required for data: 946091040
I0403 15:11:45.871665 11694 layer_factory.hpp:77] Creating layer loss1/drop_fc
I0403 15:11:45.871691 11694 net.cpp:91] Creating Layer loss1/drop_fc
I0403 15:11:45.871708 11694 net.cpp:425] loss1/drop_fc <- loss1/fc
I0403 15:11:45.871728 11694 net.cpp:386] loss1/drop_fc -> loss1/fc (in-place)
I0403 15:11:45.871778 11694 net.cpp:141] Setting up loss1/drop_fc
I0403 15:11:45.871801 11694 net.cpp:148] Top shape: 24 1024 (24576)
I0403 15:11:45.871816 11694 net.cpp:156] Memory required for data: 946189344
I0403 15:11:45.871831 11694 layer_factory.hpp:77] Creating layer loss1/classifier_plantvillage
I0403 15:11:45.871853 11694 net.cpp:91] Creating Layer loss1/classifier_plantvillage
I0403 15:11:45.871870 11694 net.cpp:425] loss1/classifier_plantvillage <- loss1/fc
I0403 15:11:45.871888 11694 net.cpp:399] loss1/classifier_plantvillage -> loss1/classifier_plantvillage
I0403 15:11:45.872800 11694 net.cpp:141] Setting up loss1/classifier_plantvillage
I0403 15:11:45.872830 11694 net.cpp:148] Top shape: 24 38 (912)
I0403 15:11:45.872846 11694 net.cpp:156] Memory required for data: 946192992
I0403 15:11:45.872864 11694 layer_factory.hpp:77] Creating layer loss1/classifier_plantvillage_loss1/classifier_plantvillage_0_split
I0403 15:11:45.872882 11694 net.cpp:91] Creating Layer loss1/classifier_plantvillage_loss1/classifier_plantvillage_0_split
I0403 15:11:45.872898 11694 net.cpp:425] loss1/classifier_plantvillage_loss1/classifier_plantvillage_0_split <- loss1/classifier_plantvillage
I0403 15:11:45.872915 11694 net.cpp:399] loss1/classifier_plantvillage_loss1/classifier_plantvillage_0_split -> loss1/classifier_plantvillage_loss1/classifier_plantvillage_0_split_0
I0403 15:11:45.872937 11694 net.cpp:399] loss1/classifier_plantvillage_loss1/classifier_plantvillage_0_split -> loss1/classifier_plantvillage_loss1/classifier_plantvillage_0_split_1
I0403 15:11:45.872959 11694 net.cpp:399] loss1/classifier_plantvillage_loss1/classifier_plantvillage_0_split -> loss1/classifier_plantvillage_loss1/classifier_plantvillage_0_split_2
I0403 15:11:45.873024 11694 net.cpp:141] Setting up loss1/classifier_plantvillage_loss1/classifier_plantvillage_0_split
I0403 15:11:45.873046 11694 net.cpp:148] Top shape: 24 38 (912)
I0403 15:11:45.873062 11694 net.cpp:148] Top shape: 24 38 (912)
I0403 15:11:45.873077 11694 net.cpp:148] Top shape: 24 38 (912)
I0403 15:11:45.873091 11694 net.cpp:156] Memory required for data: 946203936
I0403 15:11:45.873106 11694 layer_factory.hpp:77] Creating layer inception_4b/1x1
I0403 15:11:45.873126 11694 net.cpp:91] Creating Layer inception_4b/1x1
I0403 15:11:45.873162 11694 net.cpp:425] inception_4b/1x1 <- inception_4a/output_inception_4a/output_0_split_1
I0403 15:11:45.873184 11694 net.cpp:399] inception_4b/1x1 -> inception_4b/1x1
I0403 15:11:45.874899 11694 net.cpp:141] Setting up inception_4b/1x1
I0403 15:11:45.874928 11694 net.cpp:148] Top shape: 24 160 14 14 (752640)
I0403 15:11:45.874944 11694 net.cpp:156] Memory required for data: 949214496
I0403 15:11:45.874963 11694 layer_factory.hpp:77] Creating layer inception_4b/relu_1x1
I0403 15:11:45.874981 11694 net.cpp:91] Creating Layer inception_4b/relu_1x1
I0403 15:11:45.874999 11694 net.cpp:425] inception_4b/relu_1x1 <- inception_4b/1x1
I0403 15:11:45.875017 11694 net.cpp:386] inception_4b/relu_1x1 -> inception_4b/1x1 (in-place)
I0403 15:11:45.875200 11694 net.cpp:141] Setting up inception_4b/relu_1x1
I0403 15:11:45.875226 11694 net.cpp:148] Top shape: 24 160 14 14 (752640)
I0403 15:11:45.875241 11694 net.cpp:156] Memory required for data: 952225056
I0403 15:11:45.875255 11694 layer_factory.hpp:77] Creating layer inception_4b/3x3_reduce
I0403 15:11:45.875280 11694 net.cpp:91] Creating Layer inception_4b/3x3_reduce
I0403 15:11:45.875303 11694 net.cpp:425] inception_4b/3x3_reduce <- inception_4a/output_inception_4a/output_0_split_2
I0403 15:11:45.875327 11694 net.cpp:399] inception_4b/3x3_reduce -> inception_4b/3x3_reduce
I0403 15:11:45.876750 11694 net.cpp:141] Setting up inception_4b/3x3_reduce
I0403 15:11:45.876780 11694 net.cpp:148] Top shape: 24 112 14 14 (526848)
I0403 15:11:45.876794 11694 net.cpp:156] Memory required for data: 954332448
I0403 15:11:45.876813 11694 layer_factory.hpp:77] Creating layer inception_4b/relu_3x3_reduce
I0403 15:11:45.876835 11694 net.cpp:91] Creating Layer inception_4b/relu_3x3_reduce
I0403 15:11:45.876852 11694 net.cpp:425] inception_4b/relu_3x3_reduce <- inception_4b/3x3_reduce
I0403 15:11:45.876869 11694 net.cpp:386] inception_4b/relu_3x3_reduce -> inception_4b/3x3_reduce (in-place)
I0403 15:11:45.877161 11694 net.cpp:141] Setting up inception_4b/relu_3x3_reduce
I0403 15:11:45.877187 11694 net.cpp:148] Top shape: 24 112 14 14 (526848)
I0403 15:11:45.877202 11694 net.cpp:156] Memory required for data: 956439840
I0403 15:11:45.877218 11694 layer_factory.hpp:77] Creating layer inception_4b/3x3
I0403 15:11:45.877241 11694 net.cpp:91] Creating Layer inception_4b/3x3
I0403 15:11:45.877259 11694 net.cpp:425] inception_4b/3x3 <- inception_4b/3x3_reduce
I0403 15:11:45.877282 11694 net.cpp:399] inception_4b/3x3 -> inception_4b/3x3
I0403 15:11:45.880345 11694 net.cpp:141] Setting up inception_4b/3x3
I0403 15:11:45.880378 11694 net.cpp:148] Top shape: 24 224 14 14 (1053696)
I0403 15:11:45.880394 11694 net.cpp:156] Memory required for data: 960654624
I0403 15:11:45.880414 11694 layer_factory.hpp:77] Creating layer inception_4b/relu_3x3
I0403 15:11:45.880431 11694 net.cpp:91] Creating Layer inception_4b/relu_3x3
I0403 15:11:45.880448 11694 net.cpp:425] inception_4b/relu_3x3 <- inception_4b/3x3
I0403 15:11:45.880466 11694 net.cpp:386] inception_4b/relu_3x3 -> inception_4b/3x3 (in-place)
I0403 15:11:45.880656 11694 net.cpp:141] Setting up inception_4b/relu_3x3
I0403 15:11:45.880681 11694 net.cpp:148] Top shape: 24 224 14 14 (1053696)
I0403 15:11:45.880695 11694 net.cpp:156] Memory required for data: 964869408
I0403 15:11:45.880710 11694 layer_factory.hpp:77] Creating layer inception_4b/5x5_reduce
I0403 15:11:45.880734 11694 net.cpp:91] Creating Layer inception_4b/5x5_reduce
I0403 15:11:45.880753 11694 net.cpp:425] inception_4b/5x5_reduce <- inception_4a/output_inception_4a/output_0_split_3
I0403 15:11:45.880774 11694 net.cpp:399] inception_4b/5x5_reduce -> inception_4b/5x5_reduce
I0403 15:11:45.881875 11694 net.cpp:141] Setting up inception_4b/5x5_reduce
I0403 15:11:45.881902 11694 net.cpp:148] Top shape: 24 24 14 14 (112896)
I0403 15:11:45.881917 11694 net.cpp:156] Memory required for data: 965320992
I0403 15:11:45.881937 11694 layer_factory.hpp:77] Creating layer inception_4b/relu_5x5_reduce
I0403 15:11:45.881958 11694 net.cpp:91] Creating Layer inception_4b/relu_5x5_reduce
I0403 15:11:45.881989 11694 net.cpp:425] inception_4b/relu_5x5_reduce <- inception_4b/5x5_reduce
I0403 15:11:45.882009 11694 net.cpp:386] inception_4b/relu_5x5_reduce -> inception_4b/5x5_reduce (in-place)
I0403 15:11:45.882192 11694 net.cpp:141] Setting up inception_4b/relu_5x5_reduce
I0403 15:11:45.882218 11694 net.cpp:148] Top shape: 24 24 14 14 (112896)
I0403 15:11:45.882233 11694 net.cpp:156] Memory required for data: 965772576
I0403 15:11:45.882248 11694 layer_factory.hpp:77] Creating layer inception_4b/5x5
I0403 15:11:45.882271 11694 net.cpp:91] Creating Layer inception_4b/5x5
I0403 15:11:45.882288 11694 net.cpp:425] inception_4b/5x5 <- inception_4b/5x5_reduce
I0403 15:11:45.882310 11694 net.cpp:399] inception_4b/5x5 -> inception_4b/5x5
I0403 15:11:45.883579 11694 net.cpp:141] Setting up inception_4b/5x5
I0403 15:11:45.883606 11694 net.cpp:148] Top shape: 24 64 14 14 (301056)
I0403 15:11:45.883622 11694 net.cpp:156] Memory required for data: 966976800
I0403 15:11:45.883641 11694 layer_factory.hpp:77] Creating layer inception_4b/relu_5x5
I0403 15:11:45.883659 11694 net.cpp:91] Creating Layer inception_4b/relu_5x5
I0403 15:11:45.883677 11694 net.cpp:425] inception_4b/relu_5x5 <- inception_4b/5x5
I0403 15:11:45.883697 11694 net.cpp:386] inception_4b/relu_5x5 -> inception_4b/5x5 (in-place)
I0403 15:11:45.883988 11694 net.cpp:141] Setting up inception_4b/relu_5x5
I0403 15:11:45.884016 11694 net.cpp:148] Top shape: 24 64 14 14 (301056)
I0403 15:11:45.884032 11694 net.cpp:156] Memory required for data: 968181024
I0403 15:11:45.884047 11694 layer_factory.hpp:77] Creating layer inception_4b/pool
I0403 15:11:45.884064 11694 net.cpp:91] Creating Layer inception_4b/pool
I0403 15:11:45.884081 11694 net.cpp:425] inception_4b/pool <- inception_4a/output_inception_4a/output_0_split_4
I0403 15:11:45.884104 11694 net.cpp:399] inception_4b/pool -> inception_4b/pool
I0403 15:11:45.884171 11694 net.cpp:141] Setting up inception_4b/pool
I0403 15:11:45.884196 11694 net.cpp:148] Top shape: 24 512 14 14 (2408448)
I0403 15:11:45.884209 11694 net.cpp:156] Memory required for data: 977814816
I0403 15:11:45.884224 11694 layer_factory.hpp:77] Creating layer inception_4b/pool_proj
I0403 15:11:45.884248 11694 net.cpp:91] Creating Layer inception_4b/pool_proj
I0403 15:11:45.884266 11694 net.cpp:425] inception_4b/pool_proj <- inception_4b/pool
I0403 15:11:45.884285 11694 net.cpp:399] inception_4b/pool_proj -> inception_4b/pool_proj
I0403 15:11:45.885563 11694 net.cpp:141] Setting up inception_4b/pool_proj
I0403 15:11:45.885591 11694 net.cpp:148] Top shape: 24 64 14 14 (301056)
I0403 15:11:45.885607 11694 net.cpp:156] Memory required for data: 979019040
I0403 15:11:45.885627 11694 layer_factory.hpp:77] Creating layer inception_4b/relu_pool_proj
I0403 15:11:45.885645 11694 net.cpp:91] Creating Layer inception_4b/relu_pool_proj
I0403 15:11:45.885661 11694 net.cpp:425] inception_4b/relu_pool_proj <- inception_4b/pool_proj
I0403 15:11:45.885681 11694 net.cpp:386] inception_4b/relu_pool_proj -> inception_4b/pool_proj (in-place)
I0403 15:11:45.885867 11694 net.cpp:141] Setting up inception_4b/relu_pool_proj
I0403 15:11:45.885893 11694 net.cpp:148] Top shape: 24 64 14 14 (301056)
I0403 15:11:45.885907 11694 net.cpp:156] Memory required for data: 980223264
I0403 15:11:45.885923 11694 layer_factory.hpp:77] Creating layer inception_4b/output
I0403 15:11:45.885943 11694 net.cpp:91] Creating Layer inception_4b/output
I0403 15:11:45.885959 11694 net.cpp:425] inception_4b/output <- inception_4b/1x1
I0403 15:11:45.885977 11694 net.cpp:425] inception_4b/output <- inception_4b/3x3
I0403 15:11:45.885993 11694 net.cpp:425] inception_4b/output <- inception_4b/5x5
I0403 15:11:45.886009 11694 net.cpp:425] inception_4b/output <- inception_4b/pool_proj
I0403 15:11:45.886028 11694 net.cpp:399] inception_4b/output -> inception_4b/output
I0403 15:11:45.886075 11694 net.cpp:141] Setting up inception_4b/output
I0403 15:11:45.886099 11694 net.cpp:148] Top shape: 24 512 14 14 (2408448)
I0403 15:11:45.886114 11694 net.cpp:156] Memory required for data: 989857056
I0403 15:11:45.886143 11694 layer_factory.hpp:77] Creating layer inception_4b/output_inception_4b/output_0_split
I0403 15:11:45.886162 11694 net.cpp:91] Creating Layer inception_4b/output_inception_4b/output_0_split
I0403 15:11:45.886176 11694 net.cpp:425] inception_4b/output_inception_4b/output_0_split <- inception_4b/output
I0403 15:11:45.886198 11694 net.cpp:399] inception_4b/output_inception_4b/output_0_split -> inception_4b/output_inception_4b/output_0_split_0
I0403 15:11:45.886219 11694 net.cpp:399] inception_4b/output_inception_4b/output_0_split -> inception_4b/output_inception_4b/output_0_split_1
I0403 15:11:45.886240 11694 net.cpp:399] inception_4b/output_inception_4b/output_0_split -> inception_4b/output_inception_4b/output_0_split_2
I0403 15:11:45.886260 11694 net.cpp:399] inception_4b/output_inception_4b/output_0_split -> inception_4b/output_inception_4b/output_0_split_3
I0403 15:11:45.886349 11694 net.cpp:141] Setting up inception_4b/output_inception_4b/output_0_split
I0403 15:11:45.886376 11694 net.cpp:148] Top shape: 24 512 14 14 (2408448)
I0403 15:11:45.886394 11694 net.cpp:148] Top shape: 24 512 14 14 (2408448)
I0403 15:11:45.886409 11694 net.cpp:148] Top shape: 24 512 14 14 (2408448)
I0403 15:11:45.886425 11694 net.cpp:148] Top shape: 24 512 14 14 (2408448)
I0403 15:11:45.886438 11694 net.cpp:156] Memory required for data: 1028392224
I0403 15:11:45.886452 11694 layer_factory.hpp:77] Creating layer inception_4c/1x1
I0403 15:11:45.886474 11694 net.cpp:91] Creating Layer inception_4c/1x1
I0403 15:11:45.886492 11694 net.cpp:425] inception_4c/1x1 <- inception_4b/output_inception_4b/output_0_split_0
I0403 15:11:45.886513 11694 net.cpp:399] inception_4c/1x1 -> inception_4c/1x1
I0403 15:11:45.887990 11694 net.cpp:141] Setting up inception_4c/1x1
I0403 15:11:45.888020 11694 net.cpp:148] Top shape: 24 128 14 14 (602112)
I0403 15:11:45.888034 11694 net.cpp:156] Memory required for data: 1030800672
I0403 15:11:45.888054 11694 layer_factory.hpp:77] Creating layer inception_4c/relu_1x1
I0403 15:11:45.888075 11694 net.cpp:91] Creating Layer inception_4c/relu_1x1
I0403 15:11:45.888092 11694 net.cpp:425] inception_4c/relu_1x1 <- inception_4c/1x1
I0403 15:11:45.888111 11694 net.cpp:386] inception_4c/relu_1x1 -> inception_4c/1x1 (in-place)
I0403 15:11:45.888296 11694 net.cpp:141] Setting up inception_4c/relu_1x1
I0403 15:11:45.888345 11694 net.cpp:148] Top shape: 24 128 14 14 (602112)
I0403 15:11:45.888361 11694 net.cpp:156] Memory required for data: 1033209120
I0403 15:11:45.888376 11694 layer_factory.hpp:77] Creating layer inception_4c/3x3_reduce
I0403 15:11:45.888401 11694 net.cpp:91] Creating Layer inception_4c/3x3_reduce
I0403 15:11:45.888418 11694 net.cpp:425] inception_4c/3x3_reduce <- inception_4b/output_inception_4b/output_0_split_1
I0403 15:11:45.888439 11694 net.cpp:399] inception_4c/3x3_reduce -> inception_4c/3x3_reduce
I0403 15:11:45.890491 11694 net.cpp:141] Setting up inception_4c/3x3_reduce
I0403 15:11:45.890523 11694 net.cpp:148] Top shape: 24 128 14 14 (602112)
I0403 15:11:45.890540 11694 net.cpp:156] Memory required for data: 1035617568
I0403 15:11:45.890558 11694 layer_factory.hpp:77] Creating layer inception_4c/relu_3x3_reduce
I0403 15:11:45.890578 11694 net.cpp:91] Creating Layer inception_4c/relu_3x3_reduce
I0403 15:11:45.890594 11694 net.cpp:425] inception_4c/relu_3x3_reduce <- inception_4c/3x3_reduce
I0403 15:11:45.890615 11694 net.cpp:386] inception_4c/relu_3x3_reduce -> inception_4c/3x3_reduce (in-place)
I0403 15:11:45.890909 11694 net.cpp:141] Setting up inception_4c/relu_3x3_reduce
I0403 15:11:45.890939 11694 net.cpp:148] Top shape: 24 128 14 14 (602112)
I0403 15:11:45.890955 11694 net.cpp:156] Memory required for data: 1038026016
I0403 15:11:45.890970 11694 layer_factory.hpp:77] Creating layer inception_4c/3x3
I0403 15:11:45.890995 11694 net.cpp:91] Creating Layer inception_4c/3x3
I0403 15:11:45.891012 11694 net.cpp:425] inception_4c/3x3 <- inception_4c/3x3_reduce
I0403 15:11:45.891034 11694 net.cpp:399] inception_4c/3x3 -> inception_4c/3x3
I0403 15:11:45.894803 11694 net.cpp:141] Setting up inception_4c/3x3
I0403 15:11:45.894843 11694 net.cpp:148] Top shape: 24 256 14 14 (1204224)
I0403 15:11:45.894860 11694 net.cpp:156] Memory required for data: 1042842912
I0403 15:11:45.894892 11694 layer_factory.hpp:77] Creating layer inception_4c/relu_3x3
I0403 15:11:45.894913 11694 net.cpp:91] Creating Layer inception_4c/relu_3x3
I0403 15:11:45.894929 11694 net.cpp:425] inception_4c/relu_3x3 <- inception_4c/3x3
I0403 15:11:45.894948 11694 net.cpp:386] inception_4c/relu_3x3 -> inception_4c/3x3 (in-place)
I0403 15:11:45.895135 11694 net.cpp:141] Setting up inception_4c/relu_3x3
I0403 15:11:45.895160 11694 net.cpp:148] Top shape: 24 256 14 14 (1204224)
I0403 15:11:45.895175 11694 net.cpp:156] Memory required for data: 1047659808
I0403 15:11:45.895190 11694 layer_factory.hpp:77] Creating layer inception_4c/5x5_reduce
I0403 15:11:45.895212 11694 net.cpp:91] Creating Layer inception_4c/5x5_reduce
I0403 15:11:45.895231 11694 net.cpp:425] inception_4c/5x5_reduce <- inception_4b/output_inception_4b/output_0_split_2
I0403 15:11:45.895253 11694 net.cpp:399] inception_4c/5x5_reduce -> inception_4c/5x5_reduce
I0403 15:11:45.896332 11694 net.cpp:141] Setting up inception_4c/5x5_reduce
I0403 15:11:45.896360 11694 net.cpp:148] Top shape: 24 24 14 14 (112896)
I0403 15:11:45.896376 11694 net.cpp:156] Memory required for data: 1048111392
I0403 15:11:45.896394 11694 layer_factory.hpp:77] Creating layer inception_4c/relu_5x5_reduce
I0403 15:11:45.896414 11694 net.cpp:91] Creating Layer inception_4c/relu_5x5_reduce
I0403 15:11:45.896430 11694 net.cpp:425] inception_4c/relu_5x5_reduce <- inception_4c/5x5_reduce
I0403 15:11:45.896448 11694 net.cpp:386] inception_4c/relu_5x5_reduce -> inception_4c/5x5_reduce (in-place)
I0403 15:11:45.896630 11694 net.cpp:141] Setting up inception_4c/relu_5x5_reduce
I0403 15:11:45.896653 11694 net.cpp:148] Top shape: 24 24 14 14 (112896)
I0403 15:11:45.896668 11694 net.cpp:156] Memory required for data: 1048562976
I0403 15:11:45.896682 11694 layer_factory.hpp:77] Creating layer inception_4c/5x5
I0403 15:11:45.896704 11694 net.cpp:91] Creating Layer inception_4c/5x5
I0403 15:11:45.896721 11694 net.cpp:425] inception_4c/5x5 <- inception_4c/5x5_reduce
I0403 15:11:45.896741 11694 net.cpp:399] inception_4c/5x5 -> inception_4c/5x5
I0403 15:11:45.897971 11694 net.cpp:141] Setting up inception_4c/5x5
I0403 15:11:45.897999 11694 net.cpp:148] Top shape: 24 64 14 14 (301056)
I0403 15:11:45.898015 11694 net.cpp:156] Memory required for data: 1049767200
I0403 15:11:45.898032 11694 layer_factory.hpp:77] Creating layer inception_4c/relu_5x5
I0403 15:11:45.898052 11694 net.cpp:91] Creating Layer inception_4c/relu_5x5
I0403 15:11:45.898071 11694 net.cpp:425] inception_4c/relu_5x5 <- inception_4c/5x5
I0403 15:11:45.898087 11694 net.cpp:386] inception_4c/relu_5x5 -> inception_4c/5x5 (in-place)
I0403 15:11:45.898377 11694 net.cpp:141] Setting up inception_4c/relu_5x5
I0403 15:11:45.898404 11694 net.cpp:148] Top shape: 24 64 14 14 (301056)
I0403 15:11:45.898419 11694 net.cpp:156] Memory required for data: 1050971424
I0403 15:11:45.898434 11694 layer_factory.hpp:77] Creating layer inception_4c/pool
I0403 15:11:45.898457 11694 net.cpp:91] Creating Layer inception_4c/pool
I0403 15:11:45.898473 11694 net.cpp:425] inception_4c/pool <- inception_4b/output_inception_4b/output_0_split_3
I0403 15:11:45.898493 11694 net.cpp:399] inception_4c/pool -> inception_4c/pool
I0403 15:11:45.898557 11694 net.cpp:141] Setting up inception_4c/pool
I0403 15:11:45.898582 11694 net.cpp:148] Top shape: 24 512 14 14 (2408448)
I0403 15:11:45.898597 11694 net.cpp:156] Memory required for data: 1060605216
I0403 15:11:45.898612 11694 layer_factory.hpp:77] Creating layer inception_4c/pool_proj
I0403 15:11:45.898636 11694 net.cpp:91] Creating Layer inception_4c/pool_proj
I0403 15:11:45.898653 11694 net.cpp:425] inception_4c/pool_proj <- inception_4c/pool
I0403 15:11:45.898674 11694 net.cpp:399] inception_4c/pool_proj -> inception_4c/pool_proj
I0403 15:11:45.899888 11694 net.cpp:141] Setting up inception_4c/pool_proj
I0403 15:11:45.899915 11694 net.cpp:148] Top shape: 24 64 14 14 (301056)
I0403 15:11:45.899945 11694 net.cpp:156] Memory required for data: 1061809440
I0403 15:11:45.899963 11694 layer_factory.hpp:77] Creating layer inception_4c/relu_pool_proj
I0403 15:11:45.899983 11694 net.cpp:91] Creating Layer inception_4c/relu_pool_proj
I0403 15:11:45.899999 11694 net.cpp:425] inception_4c/relu_pool_proj <- inception_4c/pool_proj
I0403 15:11:45.900020 11694 net.cpp:386] inception_4c/relu_pool_proj -> inception_4c/pool_proj (in-place)
I0403 15:11:45.900202 11694 net.cpp:141] Setting up inception_4c/relu_pool_proj
I0403 15:11:45.900226 11694 net.cpp:148] Top shape: 24 64 14 14 (301056)
I0403 15:11:45.900241 11694 net.cpp:156] Memory required for data: 1063013664
I0403 15:11:45.900256 11694 layer_factory.hpp:77] Creating layer inception_4c/output
I0403 15:11:45.900275 11694 net.cpp:91] Creating Layer inception_4c/output
I0403 15:11:45.900292 11694 net.cpp:425] inception_4c/output <- inception_4c/1x1
I0403 15:11:45.900308 11694 net.cpp:425] inception_4c/output <- inception_4c/3x3
I0403 15:11:45.900329 11694 net.cpp:425] inception_4c/output <- inception_4c/5x5
I0403 15:11:45.900346 11694 net.cpp:425] inception_4c/output <- inception_4c/pool_proj
I0403 15:11:45.900363 11694 net.cpp:399] inception_4c/output -> inception_4c/output
I0403 15:11:45.900411 11694 net.cpp:141] Setting up inception_4c/output
I0403 15:11:45.900434 11694 net.cpp:148] Top shape: 24 512 14 14 (2408448)
I0403 15:11:45.900449 11694 net.cpp:156] Memory required for data: 1072647456
I0403 15:11:45.900463 11694 layer_factory.hpp:77] Creating layer inception_4c/output_inception_4c/output_0_split
I0403 15:11:45.900480 11694 net.cpp:91] Creating Layer inception_4c/output_inception_4c/output_0_split
I0403 15:11:45.900495 11694 net.cpp:425] inception_4c/output_inception_4c/output_0_split <- inception_4c/output
I0403 15:11:45.900514 11694 net.cpp:399] inception_4c/output_inception_4c/output_0_split -> inception_4c/output_inception_4c/output_0_split_0
I0403 15:11:45.900535 11694 net.cpp:399] inception_4c/output_inception_4c/output_0_split -> inception_4c/output_inception_4c/output_0_split_1
I0403 15:11:45.900554 11694 net.cpp:399] inception_4c/output_inception_4c/output_0_split -> inception_4c/output_inception_4c/output_0_split_2
I0403 15:11:45.900575 11694 net.cpp:399] inception_4c/output_inception_4c/output_0_split -> inception_4c/output_inception_4c/output_0_split_3
I0403 15:11:45.900657 11694 net.cpp:141] Setting up inception_4c/output_inception_4c/output_0_split
I0403 15:11:45.900683 11694 net.cpp:148] Top shape: 24 512 14 14 (2408448)
I0403 15:11:45.900699 11694 net.cpp:148] Top shape: 24 512 14 14 (2408448)
I0403 15:11:45.900715 11694 net.cpp:148] Top shape: 24 512 14 14 (2408448)
I0403 15:11:45.900730 11694 net.cpp:148] Top shape: 24 512 14 14 (2408448)
I0403 15:11:45.900744 11694 net.cpp:156] Memory required for data: 1111182624
I0403 15:11:45.900758 11694 layer_factory.hpp:77] Creating layer inception_4d/1x1
I0403 15:11:45.900780 11694 net.cpp:91] Creating Layer inception_4d/1x1
I0403 15:11:45.900797 11694 net.cpp:425] inception_4d/1x1 <- inception_4c/output_inception_4c/output_0_split_0
I0403 15:11:45.900816 11694 net.cpp:399] inception_4d/1x1 -> inception_4d/1x1
I0403 15:11:45.902190 11694 net.cpp:141] Setting up inception_4d/1x1
I0403 15:11:45.902221 11694 net.cpp:148] Top shape: 24 112 14 14 (526848)
I0403 15:11:45.902237 11694 net.cpp:156] Memory required for data: 1113290016
I0403 15:11:45.902256 11694 layer_factory.hpp:77] Creating layer inception_4d/relu_1x1
I0403 15:11:45.902272 11694 net.cpp:91] Creating Layer inception_4d/relu_1x1
I0403 15:11:45.902288 11694 net.cpp:425] inception_4d/relu_1x1 <- inception_4d/1x1
I0403 15:11:45.902305 11694 net.cpp:386] inception_4d/relu_1x1 -> inception_4d/1x1 (in-place)
I0403 15:11:45.902498 11694 net.cpp:141] Setting up inception_4d/relu_1x1
I0403 15:11:45.902521 11694 net.cpp:148] Top shape: 24 112 14 14 (526848)
I0403 15:11:45.902535 11694 net.cpp:156] Memory required for data: 1115397408
I0403 15:11:45.902550 11694 layer_factory.hpp:77] Creating layer inception_4d/3x3_reduce
I0403 15:11:45.902590 11694 net.cpp:91] Creating Layer inception_4d/3x3_reduce
I0403 15:11:45.902608 11694 net.cpp:425] inception_4d/3x3_reduce <- inception_4c/output_inception_4c/output_0_split_1
I0403 15:11:45.902631 11694 net.cpp:399] inception_4d/3x3_reduce -> inception_4d/3x3_reduce
I0403 15:11:45.904135 11694 net.cpp:141] Setting up inception_4d/3x3_reduce
I0403 15:11:45.904162 11694 net.cpp:148] Top shape: 24 144 14 14 (677376)
I0403 15:11:45.904178 11694 net.cpp:156] Memory required for data: 1118106912
I0403 15:11:45.904196 11694 layer_factory.hpp:77] Creating layer inception_4d/relu_3x3_reduce
I0403 15:11:45.904217 11694 net.cpp:91] Creating Layer inception_4d/relu_3x3_reduce
I0403 15:11:45.904232 11694 net.cpp:425] inception_4d/relu_3x3_reduce <- inception_4d/3x3_reduce
I0403 15:11:45.904250 11694 net.cpp:386] inception_4d/relu_3x3_reduce -> inception_4d/3x3_reduce (in-place)
I0403 15:11:45.904541 11694 net.cpp:141] Setting up inception_4d/relu_3x3_reduce
I0403 15:11:45.904567 11694 net.cpp:148] Top shape: 24 144 14 14 (677376)
I0403 15:11:45.904582 11694 net.cpp:156] Memory required for data: 1120816416
I0403 15:11:45.904597 11694 layer_factory.hpp:77] Creating layer inception_4d/3x3
I0403 15:11:45.904620 11694 net.cpp:91] Creating Layer inception_4d/3x3
I0403 15:11:45.904639 11694 net.cpp:425] inception_4d/3x3 <- inception_4d/3x3_reduce
I0403 15:11:45.904657 11694 net.cpp:399] inception_4d/3x3 -> inception_4d/3x3
I0403 15:11:45.908852 11694 net.cpp:141] Setting up inception_4d/3x3
I0403 15:11:45.908882 11694 net.cpp:148] Top shape: 24 288 14 14 (1354752)
I0403 15:11:45.908897 11694 net.cpp:156] Memory required for data: 1126235424
I0403 15:11:45.908915 11694 layer_factory.hpp:77] Creating layer inception_4d/relu_3x3
I0403 15:11:45.908932 11694 net.cpp:91] Creating Layer inception_4d/relu_3x3
I0403 15:11:45.908948 11694 net.cpp:425] inception_4d/relu_3x3 <- inception_4d/3x3
I0403 15:11:45.908967 11694 net.cpp:386] inception_4d/relu_3x3 -> inception_4d/3x3 (in-place)
I0403 15:11:45.909144 11694 net.cpp:141] Setting up inception_4d/relu_3x3
I0403 15:11:45.909168 11694 net.cpp:148] Top shape: 24 288 14 14 (1354752)
I0403 15:11:45.909183 11694 net.cpp:156] Memory required for data: 1131654432
I0403 15:11:45.909196 11694 layer_factory.hpp:77] Creating layer inception_4d/5x5_reduce
I0403 15:11:45.909217 11694 net.cpp:91] Creating Layer inception_4d/5x5_reduce
I0403 15:11:45.909235 11694 net.cpp:425] inception_4d/5x5_reduce <- inception_4c/output_inception_4c/output_0_split_2
I0403 15:11:45.909255 11694 net.cpp:399] inception_4d/5x5_reduce -> inception_4d/5x5_reduce
I0403 15:11:45.910377 11694 net.cpp:141] Setting up inception_4d/5x5_reduce
I0403 15:11:45.910405 11694 net.cpp:148] Top shape: 24 32 14 14 (150528)
I0403 15:11:45.910421 11694 net.cpp:156] Memory required for data: 1132256544
I0403 15:11:45.910439 11694 layer_factory.hpp:77] Creating layer inception_4d/relu_5x5_reduce
I0403 15:11:45.910456 11694 net.cpp:91] Creating Layer inception_4d/relu_5x5_reduce
I0403 15:11:45.910471 11694 net.cpp:425] inception_4d/relu_5x5_reduce <- inception_4d/5x5_reduce
I0403 15:11:45.910490 11694 net.cpp:386] inception_4d/relu_5x5_reduce -> inception_4d/5x5_reduce (in-place)
I0403 15:11:45.910687 11694 net.cpp:141] Setting up inception_4d/relu_5x5_reduce
I0403 15:11:45.910712 11694 net.cpp:148] Top shape: 24 32 14 14 (150528)
I0403 15:11:45.910725 11694 net.cpp:156] Memory required for data: 1132858656
I0403 15:11:45.910739 11694 layer_factory.hpp:77] Creating layer inception_4d/5x5
I0403 15:11:45.910760 11694 net.cpp:91] Creating Layer inception_4d/5x5
I0403 15:11:45.910779 11694 net.cpp:425] inception_4d/5x5 <- inception_4d/5x5_reduce
I0403 15:11:45.910799 11694 net.cpp:399] inception_4d/5x5 -> inception_4d/5x5
I0403 15:11:45.912230 11694 net.cpp:141] Setting up inception_4d/5x5
I0403 15:11:45.912256 11694 net.cpp:148] Top shape: 24 64 14 14 (301056)
I0403 15:11:45.912271 11694 net.cpp:156] Memory required for data: 1134062880
I0403 15:11:45.912288 11694 layer_factory.hpp:77] Creating layer inception_4d/relu_5x5
I0403 15:11:45.912343 11694 net.cpp:91] Creating Layer inception_4d/relu_5x5
I0403 15:11:45.912363 11694 net.cpp:425] inception_4d/relu_5x5 <- inception_4d/5x5
I0403 15:11:45.912379 11694 net.cpp:386] inception_4d/relu_5x5 -> inception_4d/5x5 (in-place)
I0403 15:11:45.912709 11694 net.cpp:141] Setting up inception_4d/relu_5x5
I0403 15:11:45.912735 11694 net.cpp:148] Top shape: 24 64 14 14 (301056)
I0403 15:11:45.912750 11694 net.cpp:156] Memory required for data: 1135267104
I0403 15:11:45.912765 11694 layer_factory.hpp:77] Creating layer inception_4d/pool
I0403 15:11:45.912784 11694 net.cpp:91] Creating Layer inception_4d/pool
I0403 15:11:45.912802 11694 net.cpp:425] inception_4d/pool <- inception_4c/output_inception_4c/output_0_split_3
I0403 15:11:45.912820 11694 net.cpp:399] inception_4d/pool -> inception_4d/pool
I0403 15:11:45.912886 11694 net.cpp:141] Setting up inception_4d/pool
I0403 15:11:45.912909 11694 net.cpp:148] Top shape: 24 512 14 14 (2408448)
I0403 15:11:45.912925 11694 net.cpp:156] Memory required for data: 1144900896
I0403 15:11:45.912940 11694 layer_factory.hpp:77] Creating layer inception_4d/pool_proj
I0403 15:11:45.912961 11694 net.cpp:91] Creating Layer inception_4d/pool_proj
I0403 15:11:45.912979 11694 net.cpp:425] inception_4d/pool_proj <- inception_4d/pool
I0403 15:11:45.913000 11694 net.cpp:399] inception_4d/pool_proj -> inception_4d/pool_proj
I0403 15:11:45.914762 11694 net.cpp:141] Setting up inception_4d/pool_proj
I0403 15:11:45.914793 11694 net.cpp:148] Top shape: 24 64 14 14 (301056)
I0403 15:11:45.914809 11694 net.cpp:156] Memory required for data: 1146105120
I0403 15:11:45.914827 11694 layer_factory.hpp:77] Creating layer inception_4d/relu_pool_proj
I0403 15:11:45.914845 11694 net.cpp:91] Creating Layer inception_4d/relu_pool_proj
I0403 15:11:45.914860 11694 net.cpp:425] inception_4d/relu_pool_proj <- inception_4d/pool_proj
I0403 15:11:45.914880 11694 net.cpp:386] inception_4d/relu_pool_proj -> inception_4d/pool_proj (in-place)
I0403 15:11:45.915066 11694 net.cpp:141] Setting up inception_4d/relu_pool_proj
I0403 15:11:45.915091 11694 net.cpp:148] Top shape: 24 64 14 14 (301056)
I0403 15:11:45.915107 11694 net.cpp:156] Memory required for data: 1147309344
I0403 15:11:45.915122 11694 layer_factory.hpp:77] Creating layer inception_4d/output
I0403 15:11:45.915138 11694 net.cpp:91] Creating Layer inception_4d/output
I0403 15:11:45.915153 11694 net.cpp:425] inception_4d/output <- inception_4d/1x1
I0403 15:11:45.915169 11694 net.cpp:425] inception_4d/output <- inception_4d/3x3
I0403 15:11:45.915185 11694 net.cpp:425] inception_4d/output <- inception_4d/5x5
I0403 15:11:45.915201 11694 net.cpp:425] inception_4d/output <- inception_4d/pool_proj
I0403 15:11:45.915221 11694 net.cpp:399] inception_4d/output -> inception_4d/output
I0403 15:11:45.915268 11694 net.cpp:141] Setting up inception_4d/output
I0403 15:11:45.915293 11694 net.cpp:148] Top shape: 24 528 14 14 (2483712)
I0403 15:11:45.915308 11694 net.cpp:156] Memory required for data: 1157244192
I0403 15:11:45.915328 11694 layer_factory.hpp:77] Creating layer inception_4d/output_inception_4d/output_0_split
I0403 15:11:45.915346 11694 net.cpp:91] Creating Layer inception_4d/output_inception_4d/output_0_split
I0403 15:11:45.915362 11694 net.cpp:425] inception_4d/output_inception_4d/output_0_split <- inception_4d/output
I0403 15:11:45.915383 11694 net.cpp:399] inception_4d/output_inception_4d/output_0_split -> inception_4d/output_inception_4d/output_0_split_0
I0403 15:11:45.915405 11694 net.cpp:399] inception_4d/output_inception_4d/output_0_split -> inception_4d/output_inception_4d/output_0_split_1
I0403 15:11:45.915426 11694 net.cpp:399] inception_4d/output_inception_4d/output_0_split -> inception_4d/output_inception_4d/output_0_split_2
I0403 15:11:45.915446 11694 net.cpp:399] inception_4d/output_inception_4d/output_0_split -> inception_4d/output_inception_4d/output_0_split_3
I0403 15:11:45.915467 11694 net.cpp:399] inception_4d/output_inception_4d/output_0_split -> inception_4d/output_inception_4d/output_0_split_4
I0403 15:11:45.915565 11694 net.cpp:141] Setting up inception_4d/output_inception_4d/output_0_split
I0403 15:11:45.915602 11694 net.cpp:148] Top shape: 24 528 14 14 (2483712)
I0403 15:11:45.915621 11694 net.cpp:148] Top shape: 24 528 14 14 (2483712)
I0403 15:11:45.915635 11694 net.cpp:148] Top shape: 24 528 14 14 (2483712)
I0403 15:11:45.915650 11694 net.cpp:148] Top shape: 24 528 14 14 (2483712)
I0403 15:11:45.915664 11694 net.cpp:148] Top shape: 24 528 14 14 (2483712)
I0403 15:11:45.915678 11694 net.cpp:156] Memory required for data: 1206918432
I0403 15:11:45.915693 11694 layer_factory.hpp:77] Creating layer loss2/ave_pool
I0403 15:11:45.915709 11694 net.cpp:91] Creating Layer loss2/ave_pool
I0403 15:11:45.915725 11694 net.cpp:425] loss2/ave_pool <- inception_4d/output_inception_4d/output_0_split_0
I0403 15:11:45.915743 11694 net.cpp:399] loss2/ave_pool -> loss2/ave_pool
I0403 15:11:45.916059 11694 net.cpp:141] Setting up loss2/ave_pool
I0403 15:11:45.916087 11694 net.cpp:148] Top shape: 24 528 4 4 (202752)
I0403 15:11:45.916103 11694 net.cpp:156] Memory required for data: 1207729440
I0403 15:11:45.916117 11694 layer_factory.hpp:77] Creating layer loss2/conv
I0403 15:11:45.916139 11694 net.cpp:91] Creating Layer loss2/conv
I0403 15:11:45.916157 11694 net.cpp:425] loss2/conv <- loss2/ave_pool
I0403 15:11:45.916175 11694 net.cpp:399] loss2/conv -> loss2/conv
I0403 15:11:45.918076 11694 net.cpp:141] Setting up loss2/conv
I0403 15:11:45.918103 11694 net.cpp:148] Top shape: 24 128 4 4 (49152)
I0403 15:11:45.918119 11694 net.cpp:156] Memory required for data: 1207926048
I0403 15:11:45.918138 11694 layer_factory.hpp:77] Creating layer loss2/relu_conv
I0403 15:11:45.918157 11694 net.cpp:91] Creating Layer loss2/relu_conv
I0403 15:11:45.918174 11694 net.cpp:425] loss2/relu_conv <- loss2/conv
I0403 15:11:45.918191 11694 net.cpp:386] loss2/relu_conv -> loss2/conv (in-place)
I0403 15:11:45.918481 11694 net.cpp:141] Setting up loss2/relu_conv
I0403 15:11:45.918508 11694 net.cpp:148] Top shape: 24 128 4 4 (49152)
I0403 15:11:45.918522 11694 net.cpp:156] Memory required for data: 1208122656
I0403 15:11:45.918537 11694 layer_factory.hpp:77] Creating layer loss2/fc
I0403 15:11:45.918560 11694 net.cpp:91] Creating Layer loss2/fc
I0403 15:11:45.918577 11694 net.cpp:425] loss2/fc <- loss2/conv
I0403 15:11:45.918596 11694 net.cpp:399] loss2/fc -> loss2/fc
I0403 15:11:45.936255 11694 net.cpp:141] Setting up loss2/fc
I0403 15:11:45.936292 11694 net.cpp:148] Top shape: 24 1024 (24576)
I0403 15:11:45.936307 11694 net.cpp:156] Memory required for data: 1208220960
I0403 15:11:45.936329 11694 layer_factory.hpp:77] Creating layer loss2/relu_fc
I0403 15:11:45.936347 11694 net.cpp:91] Creating Layer loss2/relu_fc
I0403 15:11:45.936363 11694 net.cpp:425] loss2/relu_fc <- loss2/fc
I0403 15:11:45.936383 11694 net.cpp:386] loss2/relu_fc -> loss2/fc (in-place)
I0403 15:11:45.936684 11694 net.cpp:141] Setting up loss2/relu_fc
I0403 15:11:45.936709 11694 net.cpp:148] Top shape: 24 1024 (24576)
I0403 15:11:45.936723 11694 net.cpp:156] Memory required for data: 1208319264
I0403 15:11:45.936738 11694 layer_factory.hpp:77] Creating layer loss2/drop_fc
I0403 15:11:45.936755 11694 net.cpp:91] Creating Layer loss2/drop_fc
I0403 15:11:45.936770 11694 net.cpp:425] loss2/drop_fc <- loss2/fc
I0403 15:11:45.936789 11694 net.cpp:386] loss2/drop_fc -> loss2/fc (in-place)
I0403 15:11:45.936836 11694 net.cpp:141] Setting up loss2/drop_fc
I0403 15:11:45.936861 11694 net.cpp:148] Top shape: 24 1024 (24576)
I0403 15:11:45.936875 11694 net.cpp:156] Memory required for data: 1208417568
I0403 15:11:45.936889 11694 layer_factory.hpp:77] Creating layer loss2/classifier_plantvillage
I0403 15:11:45.936907 11694 net.cpp:91] Creating Layer loss2/classifier_plantvillage
I0403 15:11:45.936921 11694 net.cpp:425] loss2/classifier_plantvillage <- loss2/fc
I0403 15:11:45.936942 11694 net.cpp:399] loss2/classifier_plantvillage -> loss2/classifier_plantvillage
I0403 15:11:45.937335 11694 net.cpp:141] Setting up loss2/classifier_plantvillage
I0403 15:11:45.937360 11694 net.cpp:148] Top shape: 24 38 (912)
I0403 15:11:45.937388 11694 net.cpp:156] Memory required for data: 1208421216
I0403 15:11:45.937407 11694 layer_factory.hpp:77] Creating layer loss2/classifier_plantvillage_loss2/classifier_plantvillage_0_split
I0403 15:11:45.937427 11694 net.cpp:91] Creating Layer loss2/classifier_plantvillage_loss2/classifier_plantvillage_0_split
I0403 15:11:45.937443 11694 net.cpp:425] loss2/classifier_plantvillage_loss2/classifier_plantvillage_0_split <- loss2/classifier_plantvillage
I0403 15:11:45.937459 11694 net.cpp:399] loss2/classifier_plantvillage_loss2/classifier_plantvillage_0_split -> loss2/classifier_plantvillage_loss2/classifier_plantvillage_0_split_0
I0403 15:11:45.937479 11694 net.cpp:399] loss2/classifier_plantvillage_loss2/classifier_plantvillage_0_split -> loss2/classifier_plantvillage_loss2/classifier_plantvillage_0_split_1
I0403 15:11:45.937499 11694 net.cpp:399] loss2/classifier_plantvillage_loss2/classifier_plantvillage_0_split -> loss2/classifier_plantvillage_loss2/classifier_plantvillage_0_split_2
I0403 15:11:45.937575 11694 net.cpp:141] Setting up loss2/classifier_plantvillage_loss2/classifier_plantvillage_0_split
I0403 15:11:45.937597 11694 net.cpp:148] Top shape: 24 38 (912)
I0403 15:11:45.937613 11694 net.cpp:148] Top shape: 24 38 (912)
I0403 15:11:45.937626 11694 net.cpp:148] Top shape: 24 38 (912)
I0403 15:11:45.937639 11694 net.cpp:156] Memory required for data: 1208432160
I0403 15:11:45.937654 11694 layer_factory.hpp:77] Creating layer inception_4e/1x1
I0403 15:11:45.937674 11694 net.cpp:91] Creating Layer inception_4e/1x1
I0403 15:11:45.937691 11694 net.cpp:425] inception_4e/1x1 <- inception_4d/output_inception_4d/output_0_split_1
I0403 15:11:45.937710 11694 net.cpp:399] inception_4e/1x1 -> inception_4e/1x1
I0403 15:11:45.939470 11694 net.cpp:141] Setting up inception_4e/1x1
I0403 15:11:45.939496 11694 net.cpp:148] Top shape: 24 256 14 14 (1204224)
I0403 15:11:45.939512 11694 net.cpp:156] Memory required for data: 1213249056
I0403 15:11:45.939528 11694 layer_factory.hpp:77] Creating layer inception_4e/relu_1x1
I0403 15:11:45.939548 11694 net.cpp:91] Creating Layer inception_4e/relu_1x1
I0403 15:11:45.939564 11694 net.cpp:425] inception_4e/relu_1x1 <- inception_4e/1x1
I0403 15:11:45.939581 11694 net.cpp:386] inception_4e/relu_1x1 -> inception_4e/1x1 (in-place)
I0403 15:11:45.939873 11694 net.cpp:141] Setting up inception_4e/relu_1x1
I0403 15:11:45.939898 11694 net.cpp:148] Top shape: 24 256 14 14 (1204224)
I0403 15:11:45.939913 11694 net.cpp:156] Memory required for data: 1218065952
I0403 15:11:45.939927 11694 layer_factory.hpp:77] Creating layer inception_4e/3x3_reduce
I0403 15:11:45.939949 11694 net.cpp:91] Creating Layer inception_4e/3x3_reduce
I0403 15:11:45.939965 11694 net.cpp:425] inception_4e/3x3_reduce <- inception_4d/output_inception_4d/output_0_split_2
I0403 15:11:45.939986 11694 net.cpp:399] inception_4e/3x3_reduce -> inception_4e/3x3_reduce
I0403 15:11:45.942049 11694 net.cpp:141] Setting up inception_4e/3x3_reduce
I0403 15:11:45.942075 11694 net.cpp:148] Top shape: 24 160 14 14 (752640)
I0403 15:11:45.942091 11694 net.cpp:156] Memory required for data: 1221076512
I0403 15:11:45.942108 11694 layer_factory.hpp:77] Creating layer inception_4e/relu_3x3_reduce
I0403 15:11:45.942127 11694 net.cpp:91] Creating Layer inception_4e/relu_3x3_reduce
I0403 15:11:45.942143 11694 net.cpp:425] inception_4e/relu_3x3_reduce <- inception_4e/3x3_reduce
I0403 15:11:45.942160 11694 net.cpp:386] inception_4e/relu_3x3_reduce -> inception_4e/3x3_reduce (in-place)
I0403 15:11:45.942343 11694 net.cpp:141] Setting up inception_4e/relu_3x3_reduce
I0403 15:11:45.942368 11694 net.cpp:148] Top shape: 24 160 14 14 (752640)
I0403 15:11:45.942383 11694 net.cpp:156] Memory required for data: 1224087072
I0403 15:11:45.942397 11694 layer_factory.hpp:77] Creating layer inception_4e/3x3
I0403 15:11:45.942419 11694 net.cpp:91] Creating Layer inception_4e/3x3
I0403 15:11:45.942435 11694 net.cpp:425] inception_4e/3x3 <- inception_4e/3x3_reduce
I0403 15:11:45.942456 11694 net.cpp:399] inception_4e/3x3 -> inception_4e/3x3
I0403 15:11:45.947324 11694 net.cpp:141] Setting up inception_4e/3x3
I0403 15:11:45.947362 11694 net.cpp:148] Top shape: 24 320 14 14 (1505280)
I0403 15:11:45.947381 11694 net.cpp:156] Memory required for data: 1230108192
I0403 15:11:45.947398 11694 layer_factory.hpp:77] Creating layer inception_4e/relu_3x3
I0403 15:11:45.947415 11694 net.cpp:91] Creating Layer inception_4e/relu_3x3
I0403 15:11:45.947432 11694 net.cpp:425] inception_4e/relu_3x3 <- inception_4e/3x3
I0403 15:11:45.947448 11694 net.cpp:386] inception_4e/relu_3x3 -> inception_4e/3x3 (in-place)
I0403 15:11:45.947741 11694 net.cpp:141] Setting up inception_4e/relu_3x3
I0403 15:11:45.947769 11694 net.cpp:148] Top shape: 24 320 14 14 (1505280)
I0403 15:11:45.947784 11694 net.cpp:156] Memory required for data: 1236129312
I0403 15:11:45.947798 11694 layer_factory.hpp:77] Creating layer inception_4e/5x5_reduce
I0403 15:11:45.947821 11694 net.cpp:91] Creating Layer inception_4e/5x5_reduce
I0403 15:11:45.947837 11694 net.cpp:425] inception_4e/5x5_reduce <- inception_4d/output_inception_4d/output_0_split_3
I0403 15:11:45.947856 11694 net.cpp:399] inception_4e/5x5_reduce -> inception_4e/5x5_reduce
I0403 15:11:45.948889 11694 net.cpp:141] Setting up inception_4e/5x5_reduce
I0403 15:11:45.948918 11694 net.cpp:148] Top shape: 24 32 14 14 (150528)
I0403 15:11:45.948933 11694 net.cpp:156] Memory required for data: 1236731424
I0403 15:11:45.948951 11694 layer_factory.hpp:77] Creating layer inception_4e/relu_5x5_reduce
I0403 15:11:45.948971 11694 net.cpp:91] Creating Layer inception_4e/relu_5x5_reduce
I0403 15:11:45.948987 11694 net.cpp:425] inception_4e/relu_5x5_reduce <- inception_4e/5x5_reduce
I0403 15:11:45.949004 11694 net.cpp:386] inception_4e/relu_5x5_reduce -> inception_4e/5x5_reduce (in-place)
I0403 15:11:45.949295 11694 net.cpp:141] Setting up inception_4e/relu_5x5_reduce
I0403 15:11:45.949323 11694 net.cpp:148] Top shape: 24 32 14 14 (150528)
I0403 15:11:45.949339 11694 net.cpp:156] Memory required for data: 1237333536
I0403 15:11:45.949353 11694 layer_factory.hpp:77] Creating layer inception_4e/5x5
I0403 15:11:45.949395 11694 net.cpp:91] Creating Layer inception_4e/5x5
I0403 15:11:45.949414 11694 net.cpp:425] inception_4e/5x5 <- inception_4e/5x5_reduce
I0403 15:11:45.949434 11694 net.cpp:399] inception_4e/5x5 -> inception_4e/5x5
I0403 15:11:45.951220 11694 net.cpp:141] Setting up inception_4e/5x5
I0403 15:11:45.951247 11694 net.cpp:148] Top shape: 24 128 14 14 (602112)
I0403 15:11:45.951262 11694 net.cpp:156] Memory required for data: 1239741984
I0403 15:11:45.951279 11694 layer_factory.hpp:77] Creating layer inception_4e/relu_5x5
I0403 15:11:45.951297 11694 net.cpp:91] Creating Layer inception_4e/relu_5x5
I0403 15:11:45.951313 11694 net.cpp:425] inception_4e/relu_5x5 <- inception_4e/5x5
I0403 15:11:45.951336 11694 net.cpp:386] inception_4e/relu_5x5 -> inception_4e/5x5 (in-place)
I0403 15:11:45.951529 11694 net.cpp:141] Setting up inception_4e/relu_5x5
I0403 15:11:45.951551 11694 net.cpp:148] Top shape: 24 128 14 14 (602112)
I0403 15:11:45.951565 11694 net.cpp:156] Memory required for data: 1242150432
I0403 15:11:45.951581 11694 layer_factory.hpp:77] Creating layer inception_4e/pool
I0403 15:11:45.951601 11694 net.cpp:91] Creating Layer inception_4e/pool
I0403 15:11:45.951617 11694 net.cpp:425] inception_4e/pool <- inception_4d/output_inception_4d/output_0_split_4
I0403 15:11:45.951633 11694 net.cpp:399] inception_4e/pool -> inception_4e/pool
I0403 15:11:45.951702 11694 net.cpp:141] Setting up inception_4e/pool
I0403 15:11:45.951725 11694 net.cpp:148] Top shape: 24 528 14 14 (2483712)
I0403 15:11:45.951740 11694 net.cpp:156] Memory required for data: 1252085280
I0403 15:11:45.951753 11694 layer_factory.hpp:77] Creating layer inception_4e/pool_proj
I0403 15:11:45.951774 11694 net.cpp:91] Creating Layer inception_4e/pool_proj
I0403 15:11:45.951792 11694 net.cpp:425] inception_4e/pool_proj <- inception_4e/pool
I0403 15:11:45.951810 11694 net.cpp:399] inception_4e/pool_proj -> inception_4e/pool_proj
I0403 15:11:45.953266 11694 net.cpp:141] Setting up inception_4e/pool_proj
I0403 15:11:45.953307 11694 net.cpp:148] Top shape: 24 128 14 14 (602112)
I0403 15:11:45.953333 11694 net.cpp:156] Memory required for data: 1254493728
I0403 15:11:45.953353 11694 layer_factory.hpp:77] Creating layer inception_4e/relu_pool_proj
I0403 15:11:45.953372 11694 net.cpp:91] Creating Layer inception_4e/relu_pool_proj
I0403 15:11:45.953387 11694 net.cpp:425] inception_4e/relu_pool_proj <- inception_4e/pool_proj
I0403 15:11:45.953405 11694 net.cpp:386] inception_4e/relu_pool_proj -> inception_4e/pool_proj (in-place)
I0403 15:11:45.953696 11694 net.cpp:141] Setting up inception_4e/relu_pool_proj
I0403 15:11:45.953722 11694 net.cpp:148] Top shape: 24 128 14 14 (602112)
I0403 15:11:45.953737 11694 net.cpp:156] Memory required for data: 1256902176
I0403 15:11:45.953752 11694 layer_factory.hpp:77] Creating layer inception_4e/output
I0403 15:11:45.953768 11694 net.cpp:91] Creating Layer inception_4e/output
I0403 15:11:45.953783 11694 net.cpp:425] inception_4e/output <- inception_4e/1x1
I0403 15:11:45.953799 11694 net.cpp:425] inception_4e/output <- inception_4e/3x3
I0403 15:11:45.953815 11694 net.cpp:425] inception_4e/output <- inception_4e/5x5
I0403 15:11:45.953831 11694 net.cpp:425] inception_4e/output <- inception_4e/pool_proj
I0403 15:11:45.953853 11694 net.cpp:399] inception_4e/output -> inception_4e/output
I0403 15:11:45.953902 11694 net.cpp:141] Setting up inception_4e/output
I0403 15:11:45.953924 11694 net.cpp:148] Top shape: 24 832 14 14 (3913728)
I0403 15:11:45.953938 11694 net.cpp:156] Memory required for data: 1272557088
I0403 15:11:45.953951 11694 layer_factory.hpp:77] Creating layer pool4/3x3_s2
I0403 15:11:45.953970 11694 net.cpp:91] Creating Layer pool4/3x3_s2
I0403 15:11:45.953986 11694 net.cpp:425] pool4/3x3_s2 <- inception_4e/output
I0403 15:11:45.954005 11694 net.cpp:399] pool4/3x3_s2 -> pool4/3x3_s2
I0403 15:11:45.954071 11694 net.cpp:141] Setting up pool4/3x3_s2
I0403 15:11:45.954093 11694 net.cpp:148] Top shape: 24 832 7 7 (978432)
I0403 15:11:45.954107 11694 net.cpp:156] Memory required for data: 1276470816
I0403 15:11:45.954121 11694 layer_factory.hpp:77] Creating layer pool4/3x3_s2_pool4/3x3_s2_0_split
I0403 15:11:45.954138 11694 net.cpp:91] Creating Layer pool4/3x3_s2_pool4/3x3_s2_0_split
I0403 15:11:45.954152 11694 net.cpp:425] pool4/3x3_s2_pool4/3x3_s2_0_split <- pool4/3x3_s2
I0403 15:11:45.954171 11694 net.cpp:399] pool4/3x3_s2_pool4/3x3_s2_0_split -> pool4/3x3_s2_pool4/3x3_s2_0_split_0
I0403 15:11:45.954192 11694 net.cpp:399] pool4/3x3_s2_pool4/3x3_s2_0_split -> pool4/3x3_s2_pool4/3x3_s2_0_split_1
I0403 15:11:45.954212 11694 net.cpp:399] pool4/3x3_s2_pool4/3x3_s2_0_split -> pool4/3x3_s2_pool4/3x3_s2_0_split_2
I0403 15:11:45.954232 11694 net.cpp:399] pool4/3x3_s2_pool4/3x3_s2_0_split -> pool4/3x3_s2_pool4/3x3_s2_0_split_3
I0403 15:11:45.954322 11694 net.cpp:141] Setting up pool4/3x3_s2_pool4/3x3_s2_0_split
I0403 15:11:45.954345 11694 net.cpp:148] Top shape: 24 832 7 7 (978432)
I0403 15:11:45.954360 11694 net.cpp:148] Top shape: 24 832 7 7 (978432)
I0403 15:11:45.954375 11694 net.cpp:148] Top shape: 24 832 7 7 (978432)
I0403 15:11:45.954390 11694 net.cpp:148] Top shape: 24 832 7 7 (978432)
I0403 15:11:45.954403 11694 net.cpp:156] Memory required for data: 1292125728
I0403 15:11:45.954416 11694 layer_factory.hpp:77] Creating layer inception_5a/1x1
I0403 15:11:45.954437 11694 net.cpp:91] Creating Layer inception_5a/1x1
I0403 15:11:45.954455 11694 net.cpp:425] inception_5a/1x1 <- pool4/3x3_s2_pool4/3x3_s2_0_split_0
I0403 15:11:45.954475 11694 net.cpp:399] inception_5a/1x1 -> inception_5a/1x1
I0403 15:11:45.957432 11694 net.cpp:141] Setting up inception_5a/1x1
I0403 15:11:45.957460 11694 net.cpp:148] Top shape: 24 256 7 7 (301056)
I0403 15:11:45.957475 11694 net.cpp:156] Memory required for data: 1293329952
I0403 15:11:45.957494 11694 layer_factory.hpp:77] Creating layer inception_5a/relu_1x1
I0403 15:11:45.957512 11694 net.cpp:91] Creating Layer inception_5a/relu_1x1
I0403 15:11:45.957527 11694 net.cpp:425] inception_5a/relu_1x1 <- inception_5a/1x1
I0403 15:11:45.957547 11694 net.cpp:386] inception_5a/relu_1x1 -> inception_5a/1x1 (in-place)
I0403 15:11:45.957862 11694 net.cpp:141] Setting up inception_5a/relu_1x1
I0403 15:11:45.957888 11694 net.cpp:148] Top shape: 24 256 7 7 (301056)
I0403 15:11:45.957903 11694 net.cpp:156] Memory required for data: 1294534176
I0403 15:11:45.957918 11694 layer_factory.hpp:77] Creating layer inception_5a/3x3_reduce
I0403 15:11:45.957940 11694 net.cpp:91] Creating Layer inception_5a/3x3_reduce
I0403 15:11:45.957958 11694 net.cpp:425] inception_5a/3x3_reduce <- pool4/3x3_s2_pool4/3x3_s2_0_split_1
I0403 15:11:45.957979 11694 net.cpp:399] inception_5a/3x3_reduce -> inception_5a/3x3_reduce
I0403 15:11:45.960434 11694 net.cpp:141] Setting up inception_5a/3x3_reduce
I0403 15:11:45.960466 11694 net.cpp:148] Top shape: 24 160 7 7 (188160)
I0403 15:11:45.960484 11694 net.cpp:156] Memory required for data: 1295286816
I0403 15:11:45.960501 11694 layer_factory.hpp:77] Creating layer inception_5a/relu_3x3_reduce
I0403 15:11:45.960520 11694 net.cpp:91] Creating Layer inception_5a/relu_3x3_reduce
I0403 15:11:45.960536 11694 net.cpp:425] inception_5a/relu_3x3_reduce <- inception_5a/3x3_reduce
I0403 15:11:45.960556 11694 net.cpp:386] inception_5a/relu_3x3_reduce -> inception_5a/3x3_reduce (in-place)
I0403 15:11:45.960743 11694 net.cpp:141] Setting up inception_5a/relu_3x3_reduce
I0403 15:11:45.960768 11694 net.cpp:148] Top shape: 24 160 7 7 (188160)
I0403 15:11:45.960783 11694 net.cpp:156] Memory required for data: 1296039456
I0403 15:11:45.960798 11694 layer_factory.hpp:77] Creating layer inception_5a/3x3
I0403 15:11:45.960820 11694 net.cpp:91] Creating Layer inception_5a/3x3
I0403 15:11:45.960837 11694 net.cpp:425] inception_5a/3x3 <- inception_5a/3x3_reduce
I0403 15:11:45.960860 11694 net.cpp:399] inception_5a/3x3 -> inception_5a/3x3
I0403 15:11:45.966024 11694 net.cpp:141] Setting up inception_5a/3x3
I0403 15:11:45.966055 11694 net.cpp:148] Top shape: 24 320 7 7 (376320)
I0403 15:11:45.966070 11694 net.cpp:156] Memory required for data: 1297544736
I0403 15:11:45.966089 11694 layer_factory.hpp:77] Creating layer inception_5a/relu_3x3
I0403 15:11:45.966106 11694 net.cpp:91] Creating Layer inception_5a/relu_3x3
I0403 15:11:45.966126 11694 net.cpp:425] inception_5a/relu_3x3 <- inception_5a/3x3
I0403 15:11:45.966143 11694 net.cpp:386] inception_5a/relu_3x3 -> inception_5a/3x3 (in-place)
I0403 15:11:45.966441 11694 net.cpp:141] Setting up inception_5a/relu_3x3
I0403 15:11:45.966469 11694 net.cpp:148] Top shape: 24 320 7 7 (376320)
I0403 15:11:45.966483 11694 net.cpp:156] Memory required for data: 1299050016
I0403 15:11:45.966498 11694 layer_factory.hpp:77] Creating layer inception_5a/5x5_reduce
I0403 15:11:45.966521 11694 net.cpp:91] Creating Layer inception_5a/5x5_reduce
I0403 15:11:45.966539 11694 net.cpp:425] inception_5a/5x5_reduce <- pool4/3x3_s2_pool4/3x3_s2_0_split_2
I0403 15:11:45.966560 11694 net.cpp:399] inception_5a/5x5_reduce -> inception_5a/5x5_reduce
I0403 15:11:45.967728 11694 net.cpp:141] Setting up inception_5a/5x5_reduce
I0403 15:11:45.967756 11694 net.cpp:148] Top shape: 24 32 7 7 (37632)
I0403 15:11:45.967772 11694 net.cpp:156] Memory required for data: 1299200544
I0403 15:11:45.967792 11694 layer_factory.hpp:77] Creating layer inception_5a/relu_5x5_reduce
I0403 15:11:45.967811 11694 net.cpp:91] Creating Layer inception_5a/relu_5x5_reduce
I0403 15:11:45.967829 11694 net.cpp:425] inception_5a/relu_5x5_reduce <- inception_5a/5x5_reduce
I0403 15:11:45.967846 11694 net.cpp:386] inception_5a/relu_5x5_reduce -> inception_5a/5x5_reduce (in-place)
I0403 15:11:45.968150 11694 net.cpp:141] Setting up inception_5a/relu_5x5_reduce
I0403 15:11:45.968176 11694 net.cpp:148] Top shape: 24 32 7 7 (37632)
I0403 15:11:45.968190 11694 net.cpp:156] Memory required for data: 1299351072
I0403 15:11:45.968205 11694 layer_factory.hpp:77] Creating layer inception_5a/5x5
I0403 15:11:45.968228 11694 net.cpp:91] Creating Layer inception_5a/5x5
I0403 15:11:45.968245 11694 net.cpp:425] inception_5a/5x5 <- inception_5a/5x5_reduce
I0403 15:11:45.968266 11694 net.cpp:399] inception_5a/5x5 -> inception_5a/5x5
I0403 15:11:45.972692 11694 net.cpp:141] Setting up inception_5a/5x5
I0403 15:11:45.972734 11694 net.cpp:148] Top shape: 24 128 7 7 (150528)
I0403 15:11:45.972751 11694 net.cpp:156] Memory required for data: 1299953184
I0403 15:11:45.972770 11694 layer_factory.hpp:77] Creating layer inception_5a/relu_5x5
I0403 15:11:45.972787 11694 net.cpp:91] Creating Layer inception_5a/relu_5x5
I0403 15:11:45.972810 11694 net.cpp:425] inception_5a/relu_5x5 <- inception_5a/5x5
I0403 15:11:45.972827 11694 net.cpp:386] inception_5a/relu_5x5 -> inception_5a/5x5 (in-place)
I0403 15:11:45.973022 11694 net.cpp:141] Setting up inception_5a/relu_5x5
I0403 15:11:45.973048 11694 net.cpp:148] Top shape: 24 128 7 7 (150528)
I0403 15:11:45.973063 11694 net.cpp:156] Memory required for data: 1300555296
I0403 15:11:45.973078 11694 layer_factory.hpp:77] Creating layer inception_5a/pool
I0403 15:11:45.973098 11694 net.cpp:91] Creating Layer inception_5a/pool
I0403 15:11:45.973115 11694 net.cpp:425] inception_5a/pool <- pool4/3x3_s2_pool4/3x3_s2_0_split_3
I0403 15:11:45.973134 11694 net.cpp:399] inception_5a/pool -> inception_5a/pool
I0403 15:11:45.973206 11694 net.cpp:141] Setting up inception_5a/pool
I0403 15:11:45.973230 11694 net.cpp:148] Top shape: 24 832 7 7 (978432)
I0403 15:11:45.973245 11694 net.cpp:156] Memory required for data: 1304469024
I0403 15:11:45.973260 11694 layer_factory.hpp:77] Creating layer inception_5a/pool_proj
I0403 15:11:45.973283 11694 net.cpp:91] Creating Layer inception_5a/pool_proj
I0403 15:11:45.973301 11694 net.cpp:425] inception_5a/pool_proj <- inception_5a/pool
I0403 15:11:45.973336 11694 net.cpp:399] inception_5a/pool_proj -> inception_5a/pool_proj
I0403 15:11:45.975693 11694 net.cpp:141] Setting up inception_5a/pool_proj
I0403 15:11:45.975723 11694 net.cpp:148] Top shape: 24 128 7 7 (150528)
I0403 15:11:45.975739 11694 net.cpp:156] Memory required for data: 1305071136
I0403 15:11:45.975757 11694 layer_factory.hpp:77] Creating layer inception_5a/relu_pool_proj
I0403 15:11:45.975775 11694 net.cpp:91] Creating Layer inception_5a/relu_pool_proj
I0403 15:11:45.975792 11694 net.cpp:425] inception_5a/relu_pool_proj <- inception_5a/pool_proj
I0403 15:11:45.975812 11694 net.cpp:386] inception_5a/relu_pool_proj -> inception_5a/pool_proj (in-place)
I0403 15:11:45.976119 11694 net.cpp:141] Setting up inception_5a/relu_pool_proj
I0403 15:11:45.976146 11694 net.cpp:148] Top shape: 24 128 7 7 (150528)
I0403 15:11:45.976161 11694 net.cpp:156] Memory required for data: 1305673248
I0403 15:11:45.976176 11694 layer_factory.hpp:77] Creating layer inception_5a/output
I0403 15:11:45.976193 11694 net.cpp:91] Creating Layer inception_5a/output
I0403 15:11:45.976209 11694 net.cpp:425] inception_5a/output <- inception_5a/1x1
I0403 15:11:45.976228 11694 net.cpp:425] inception_5a/output <- inception_5a/3x3
I0403 15:11:45.976245 11694 net.cpp:425] inception_5a/output <- inception_5a/5x5
I0403 15:11:45.976261 11694 net.cpp:425] inception_5a/output <- inception_5a/pool_proj
I0403 15:11:45.976280 11694 net.cpp:399] inception_5a/output -> inception_5a/output
I0403 15:11:45.976336 11694 net.cpp:141] Setting up inception_5a/output
I0403 15:11:45.976361 11694 net.cpp:148] Top shape: 24 832 7 7 (978432)
I0403 15:11:45.976379 11694 net.cpp:156] Memory required for data: 1309586976
I0403 15:11:45.976394 11694 layer_factory.hpp:77] Creating layer inception_5a/output_inception_5a/output_0_split
I0403 15:11:45.976411 11694 net.cpp:91] Creating Layer inception_5a/output_inception_5a/output_0_split
I0403 15:11:45.976428 11694 net.cpp:425] inception_5a/output_inception_5a/output_0_split <- inception_5a/output
I0403 15:11:45.976446 11694 net.cpp:399] inception_5a/output_inception_5a/output_0_split -> inception_5a/output_inception_5a/output_0_split_0
I0403 15:11:45.976467 11694 net.cpp:399] inception_5a/output_inception_5a/output_0_split -> inception_5a/output_inception_5a/output_0_split_1
I0403 15:11:45.976488 11694 net.cpp:399] inception_5a/output_inception_5a/output_0_split -> inception_5a/output_inception_5a/output_0_split_2
I0403 15:11:45.976512 11694 net.cpp:399] inception_5a/output_inception_5a/output_0_split -> inception_5a/output_inception_5a/output_0_split_3
I0403 15:11:45.976627 11694 net.cpp:141] Setting up inception_5a/output_inception_5a/output_0_split
I0403 15:11:45.976651 11694 net.cpp:148] Top shape: 24 832 7 7 (978432)
I0403 15:11:45.976667 11694 net.cpp:148] Top shape: 24 832 7 7 (978432)
I0403 15:11:45.976683 11694 net.cpp:148] Top shape: 24 832 7 7 (978432)
I0403 15:11:45.976698 11694 net.cpp:148] Top shape: 24 832 7 7 (978432)
I0403 15:11:45.976712 11694 net.cpp:156] Memory required for data: 1325241888
I0403 15:11:45.976727 11694 layer_factory.hpp:77] Creating layer inception_5b/1x1
I0403 15:11:45.976748 11694 net.cpp:91] Creating Layer inception_5b/1x1
I0403 15:11:45.976768 11694 net.cpp:425] inception_5b/1x1 <- inception_5a/output_inception_5a/output_0_split_0
I0403 15:11:45.976788 11694 net.cpp:399] inception_5b/1x1 -> inception_5b/1x1
I0403 15:11:45.980671 11694 net.cpp:141] Setting up inception_5b/1x1
I0403 15:11:45.980703 11694 net.cpp:148] Top shape: 24 384 7 7 (451584)
I0403 15:11:45.980720 11694 net.cpp:156] Memory required for data: 1327048224
I0403 15:11:45.980739 11694 layer_factory.hpp:77] Creating layer inception_5b/relu_1x1
I0403 15:11:45.980757 11694 net.cpp:91] Creating Layer inception_5b/relu_1x1
I0403 15:11:45.980774 11694 net.cpp:425] inception_5b/relu_1x1 <- inception_5b/1x1
I0403 15:11:45.980794 11694 net.cpp:386] inception_5b/relu_1x1 -> inception_5b/1x1 (in-place)
I0403 15:11:45.981107 11694 net.cpp:141] Setting up inception_5b/relu_1x1
I0403 15:11:45.981138 11694 net.cpp:148] Top shape: 24 384 7 7 (451584)
I0403 15:11:45.981155 11694 net.cpp:156] Memory required for data: 1328854560
I0403 15:11:45.981170 11694 layer_factory.hpp:77] Creating layer inception_5b/3x3_reduce
I0403 15:11:45.981194 11694 net.cpp:91] Creating Layer inception_5b/3x3_reduce
I0403 15:11:45.981211 11694 net.cpp:425] inception_5b/3x3_reduce <- inception_5a/output_inception_5a/output_0_split_1
I0403 15:11:45.981231 11694 net.cpp:399] inception_5b/3x3_reduce -> inception_5b/3x3_reduce
I0403 15:11:45.983988 11694 net.cpp:141] Setting up inception_5b/3x3_reduce
I0403 15:11:45.984020 11694 net.cpp:148] Top shape: 24 192 7 7 (225792)
I0403 15:11:45.984037 11694 net.cpp:156] Memory required for data: 1329757728
I0403 15:11:45.984056 11694 layer_factory.hpp:77] Creating layer inception_5b/relu_3x3_reduce
I0403 15:11:45.984074 11694 net.cpp:91] Creating Layer inception_5b/relu_3x3_reduce
I0403 15:11:45.984091 11694 net.cpp:425] inception_5b/relu_3x3_reduce <- inception_5b/3x3_reduce
I0403 15:11:45.984112 11694 net.cpp:386] inception_5b/relu_3x3_reduce -> inception_5b/3x3_reduce (in-place)
I0403 15:11:45.984310 11694 net.cpp:141] Setting up inception_5b/relu_3x3_reduce
I0403 15:11:45.984341 11694 net.cpp:148] Top shape: 24 192 7 7 (225792)
I0403 15:11:45.984356 11694 net.cpp:156] Memory required for data: 1330660896
I0403 15:11:45.984371 11694 layer_factory.hpp:77] Creating layer inception_5b/3x3
I0403 15:11:45.984395 11694 net.cpp:91] Creating Layer inception_5b/3x3
I0403 15:11:45.984412 11694 net.cpp:425] inception_5b/3x3 <- inception_5b/3x3_reduce
I0403 15:11:45.984434 11694 net.cpp:399] inception_5b/3x3 -> inception_5b/3x3
I0403 15:11:45.991364 11694 net.cpp:141] Setting up inception_5b/3x3
I0403 15:11:45.991394 11694 net.cpp:148] Top shape: 24 384 7 7 (451584)
I0403 15:11:45.991410 11694 net.cpp:156] Memory required for data: 1332467232
I0403 15:11:45.991428 11694 layer_factory.hpp:77] Creating layer inception_5b/relu_3x3
I0403 15:11:45.991447 11694 net.cpp:91] Creating Layer inception_5b/relu_3x3
I0403 15:11:45.991463 11694 net.cpp:425] inception_5b/relu_3x3 <- inception_5b/3x3
I0403 15:11:45.991483 11694 net.cpp:386] inception_5b/relu_3x3 -> inception_5b/3x3 (in-place)
I0403 15:11:45.991785 11694 net.cpp:141] Setting up inception_5b/relu_3x3
I0403 15:11:45.991811 11694 net.cpp:148] Top shape: 24 384 7 7 (451584)
I0403 15:11:45.991827 11694 net.cpp:156] Memory required for data: 1334273568
I0403 15:11:45.991842 11694 layer_factory.hpp:77] Creating layer inception_5b/5x5_reduce
I0403 15:11:45.991880 11694 net.cpp:91] Creating Layer inception_5b/5x5_reduce
I0403 15:11:45.991899 11694 net.cpp:425] inception_5b/5x5_reduce <- inception_5a/output_inception_5a/output_0_split_2
I0403 15:11:45.991921 11694 net.cpp:399] inception_5b/5x5_reduce -> inception_5b/5x5_reduce
I0403 15:11:45.993199 11694 net.cpp:141] Setting up inception_5b/5x5_reduce
I0403 15:11:45.993228 11694 net.cpp:148] Top shape: 24 48 7 7 (56448)
I0403 15:11:45.993244 11694 net.cpp:156] Memory required for data: 1334499360
I0403 15:11:45.993263 11694 layer_factory.hpp:77] Creating layer inception_5b/relu_5x5_reduce
I0403 15:11:45.993281 11694 net.cpp:91] Creating Layer inception_5b/relu_5x5_reduce
I0403 15:11:45.993299 11694 net.cpp:425] inception_5b/relu_5x5_reduce <- inception_5b/5x5_reduce
I0403 15:11:45.993322 11694 net.cpp:386] inception_5b/relu_5x5_reduce -> inception_5b/5x5_reduce (in-place)
I0403 15:11:45.993696 11694 net.cpp:141] Setting up inception_5b/relu_5x5_reduce
I0403 15:11:45.993723 11694 net.cpp:148] Top shape: 24 48 7 7 (56448)
I0403 15:11:45.993738 11694 net.cpp:156] Memory required for data: 1334725152
I0403 15:11:45.993753 11694 layer_factory.hpp:77] Creating layer inception_5b/5x5
I0403 15:11:45.993773 11694 net.cpp:91] Creating Layer inception_5b/5x5
I0403 15:11:45.993790 11694 net.cpp:425] inception_5b/5x5 <- inception_5b/5x5_reduce
I0403 15:11:45.993808 11694 net.cpp:399] inception_5b/5x5 -> inception_5b/5x5
I0403 15:11:45.995839 11694 net.cpp:141] Setting up inception_5b/5x5
I0403 15:11:45.995867 11694 net.cpp:148] Top shape: 24 128 7 7 (150528)
I0403 15:11:45.995882 11694 net.cpp:156] Memory required for data: 1335327264
I0403 15:11:45.995898 11694 layer_factory.hpp:77] Creating layer inception_5b/relu_5x5
I0403 15:11:45.995916 11694 net.cpp:91] Creating Layer inception_5b/relu_5x5
I0403 15:11:45.995932 11694 net.cpp:425] inception_5b/relu_5x5 <- inception_5b/5x5
I0403 15:11:45.995951 11694 net.cpp:386] inception_5b/relu_5x5 -> inception_5b/5x5 (in-place)
I0403 15:11:45.996140 11694 net.cpp:141] Setting up inception_5b/relu_5x5
I0403 15:11:45.996163 11694 net.cpp:148] Top shape: 24 128 7 7 (150528)
I0403 15:11:45.996177 11694 net.cpp:156] Memory required for data: 1335929376
I0403 15:11:45.996191 11694 layer_factory.hpp:77] Creating layer inception_5b/pool
I0403 15:11:45.996212 11694 net.cpp:91] Creating Layer inception_5b/pool
I0403 15:11:45.996227 11694 net.cpp:425] inception_5b/pool <- inception_5a/output_inception_5a/output_0_split_3
I0403 15:11:45.996244 11694 net.cpp:399] inception_5b/pool -> inception_5b/pool
I0403 15:11:45.996322 11694 net.cpp:141] Setting up inception_5b/pool
I0403 15:11:45.996346 11694 net.cpp:148] Top shape: 24 832 7 7 (978432)
I0403 15:11:45.996361 11694 net.cpp:156] Memory required for data: 1339843104
I0403 15:11:45.996374 11694 layer_factory.hpp:77] Creating layer inception_5b/pool_proj
I0403 15:11:45.996397 11694 net.cpp:91] Creating Layer inception_5b/pool_proj
I0403 15:11:45.996413 11694 net.cpp:425] inception_5b/pool_proj <- inception_5b/pool
I0403 15:11:45.996434 11694 net.cpp:399] inception_5b/pool_proj -> inception_5b/pool_proj
I0403 15:11:45.998724 11694 net.cpp:141] Setting up inception_5b/pool_proj
I0403 15:11:45.998756 11694 net.cpp:148] Top shape: 24 128 7 7 (150528)
I0403 15:11:45.998772 11694 net.cpp:156] Memory required for data: 1340445216
I0403 15:11:45.998790 11694 layer_factory.hpp:77] Creating layer inception_5b/relu_pool_proj
I0403 15:11:45.998808 11694 net.cpp:91] Creating Layer inception_5b/relu_pool_proj
I0403 15:11:45.998824 11694 net.cpp:425] inception_5b/relu_pool_proj <- inception_5b/pool_proj
I0403 15:11:45.998843 11694 net.cpp:386] inception_5b/relu_pool_proj -> inception_5b/pool_proj (in-place)
I0403 15:11:45.999140 11694 net.cpp:141] Setting up inception_5b/relu_pool_proj
I0403 15:11:45.999166 11694 net.cpp:148] Top shape: 24 128 7 7 (150528)
I0403 15:11:45.999182 11694 net.cpp:156] Memory required for data: 1341047328
I0403 15:11:45.999197 11694 layer_factory.hpp:77] Creating layer inception_5b/output
I0403 15:11:45.999213 11694 net.cpp:91] Creating Layer inception_5b/output
I0403 15:11:45.999243 11694 net.cpp:425] inception_5b/output <- inception_5b/1x1
I0403 15:11:45.999260 11694 net.cpp:425] inception_5b/output <- inception_5b/3x3
I0403 15:11:45.999276 11694 net.cpp:425] inception_5b/output <- inception_5b/5x5
I0403 15:11:45.999294 11694 net.cpp:425] inception_5b/output <- inception_5b/pool_proj
I0403 15:11:45.999312 11694 net.cpp:399] inception_5b/output -> inception_5b/output
I0403 15:11:45.999368 11694 net.cpp:141] Setting up inception_5b/output
I0403 15:11:45.999392 11694 net.cpp:148] Top shape: 24 1024 7 7 (1204224)
I0403 15:11:45.999405 11694 net.cpp:156] Memory required for data: 1345864224
I0403 15:11:45.999419 11694 layer_factory.hpp:77] Creating layer pool5/7x7_s1
I0403 15:11:45.999439 11694 net.cpp:91] Creating Layer pool5/7x7_s1
I0403 15:11:45.999454 11694 net.cpp:425] pool5/7x7_s1 <- inception_5b/output
I0403 15:11:45.999472 11694 net.cpp:399] pool5/7x7_s1 -> pool5/7x7_s1
I0403 15:11:45.999686 11694 net.cpp:141] Setting up pool5/7x7_s1
I0403 15:11:45.999711 11694 net.cpp:148] Top shape: 24 1024 1 1 (24576)
I0403 15:11:45.999724 11694 net.cpp:156] Memory required for data: 1345962528
I0403 15:11:45.999738 11694 layer_factory.hpp:77] Creating layer pool5/drop_7x7_s1
I0403 15:11:45.999755 11694 net.cpp:91] Creating Layer pool5/drop_7x7_s1
I0403 15:11:45.999770 11694 net.cpp:425] pool5/drop_7x7_s1 <- pool5/7x7_s1
I0403 15:11:45.999789 11694 net.cpp:386] pool5/drop_7x7_s1 -> pool5/7x7_s1 (in-place)
I0403 15:11:45.999838 11694 net.cpp:141] Setting up pool5/drop_7x7_s1
I0403 15:11:45.999863 11694 net.cpp:148] Top shape: 24 1024 1 1 (24576)
I0403 15:11:45.999878 11694 net.cpp:156] Memory required for data: 1346060832
I0403 15:11:45.999892 11694 layer_factory.hpp:77] Creating layer loss3/classifier_plantvillage
I0403 15:11:45.999910 11694 net.cpp:91] Creating Layer loss3/classifier_plantvillage
I0403 15:11:45.999925 11694 net.cpp:425] loss3/classifier_plantvillage <- pool5/7x7_s1
I0403 15:11:45.999946 11694 net.cpp:399] loss3/classifier_plantvillage -> loss3/classifier_plantvillage
I0403 15:11:46.000365 11694 net.cpp:141] Setting up loss3/classifier_plantvillage
I0403 15:11:46.000392 11694 net.cpp:148] Top shape: 24 38 (912)
I0403 15:11:46.000407 11694 net.cpp:156] Memory required for data: 1346064480
I0403 15:11:46.000424 11694 layer_factory.hpp:77] Creating layer loss3/classifier_plantvillage_loss3/classifier_plantvillage_0_split
I0403 15:11:46.000442 11694 net.cpp:91] Creating Layer loss3/classifier_plantvillage_loss3/classifier_plantvillage_0_split
I0403 15:11:46.000458 11694 net.cpp:425] loss3/classifier_plantvillage_loss3/classifier_plantvillage_0_split <- loss3/classifier_plantvillage
I0403 15:11:46.000473 11694 net.cpp:399] loss3/classifier_plantvillage_loss3/classifier_plantvillage_0_split -> loss3/classifier_plantvillage_loss3/classifier_plantvillage_0_split_0
I0403 15:11:46.000494 11694 net.cpp:399] loss3/classifier_plantvillage_loss3/classifier_plantvillage_0_split -> loss3/classifier_plantvillage_loss3/classifier_plantvillage_0_split_1
I0403 15:11:46.000516 11694 net.cpp:399] loss3/classifier_plantvillage_loss3/classifier_plantvillage_0_split -> loss3/classifier_plantvillage_loss3/classifier_plantvillage_0_split_2
I0403 15:11:46.000537 11694 net.cpp:399] loss3/classifier_plantvillage_loss3/classifier_plantvillage_0_split -> loss3/classifier_plantvillage_loss3/classifier_plantvillage_0_split_3
I0403 15:11:46.000635 11694 net.cpp:141] Setting up loss3/classifier_plantvillage_loss3/classifier_plantvillage_0_split
I0403 15:11:46.000658 11694 net.cpp:148] Top shape: 24 38 (912)
I0403 15:11:46.000674 11694 net.cpp:148] Top shape: 24 38 (912)
I0403 15:11:46.000687 11694 net.cpp:148] Top shape: 24 38 (912)
I0403 15:11:46.000701 11694 net.cpp:148] Top shape: 24 38 (912)
I0403 15:11:46.000715 11694 net.cpp:156] Memory required for data: 1346079072
I0403 15:11:46.000728 11694 layer_factory.hpp:77] Creating layer loss1/loss
I0403 15:11:46.000748 11694 net.cpp:91] Creating Layer loss1/loss
I0403 15:11:46.000766 11694 net.cpp:425] loss1/loss <- loss1/classifier_plantvillage_loss1/classifier_plantvillage_0_split_0
I0403 15:11:46.000800 11694 net.cpp:425] loss1/loss <- label_data_1_split_0
…
