…
I0403 15:48:25.939652 12645 net.cpp:313] The NetState phase (1) differed from the phase (0) specified by a rule in layer data
I0403 15:48:25.940783 12645 net.cpp:49] Initializing net from parameters: 
state {
  phase: TEST
}
layer {
  name: "data"
  type: "Data"
  top: "data"
  top: "label"
  include {
    phase: TEST
  }
  transform_param {
    mirror: false
    crop_size: 224
    mean_file: "/home/mohanty/data/final_dataset/lmdb/segmented-40-60/mean.binaryproto"
  }
  data_param {
    source: "/home/mohanty/data/final_dataset/lmdb/segmented-40-60/test_db"
    batch_size: 24
    backend: LMDB
  }
}
layer {
  name: "conv1/7x7_s2"
  type: "Convolution"
  bottom: "data"
  top: "conv1/7x7_s2"
  param {
    lr_mult: 1
    decay_mult: 1
  }
  param {
    lr_mult: 2
    decay_mult: 0
  }
  convolution_param {
    num_output: 64
    pad: 3
    kernel_size: 7
    stride: 2
    weight_filler {
      type: "xavier"
      std: 0.1
    }
    bias_filler {
      type: "constant"
      value: 0.2
    }
  }
}
layer {
  name: "conv1/relu_7x7"
  type: "ReLU"
  bottom: "conv1/7x7_s2"
  top: "conv1/7x7_s2"
}
layer {
  name: "pool1/3x3_s2"
  type: "Pooling"
  bottom: "conv1/7x7_s2"
  top: "pool1/3x3_s2"
  pooling_param {
    pool: MAX
    kernel_size: 3
    stride: 2
  }
}
layer {
  name: "pool1/norm1"
  type: "LRN"
  bottom: "pool1/3x3_s2"
  top: "pool1/norm1"
  lrn_param {
    local_size: 5
    alpha: 0.0001
    beta: 0.75
  }
}
layer {
  name: "conv2/3x3_reduce"
  type: "Convolution"
  bottom: "pool1/norm1"
  top: "conv2/3x3_reduce"
  param {
    lr_mult: 1
    decay_mult: 1
  }
  param {
    lr_mult: 2
    decay_mult: 0
  }
  convolution_param {
    num_output: 64
    kernel_size: 1
    weight_filler {
      type: "xavier"
      std: 0.1
    }
    bias_filler {
      type: "constant"
      value: 0.2
    }
  }
}
layer {
  name: "conv2/relu_3x3_reduce"
  type: "ReLU"
  bottom: "conv2/3x3_reduce"
  top: "conv2/3x3_reduce"
}
layer {
  name: "conv2/3x3"
  type: "Convolution"
  bottom: "conv2/3x3_reduce"
  top: "conv2/3x3"
  param {
    lr_mult: 1
    decay_mult: 1
  }
  param {
    lr_mult: 2
    decay_mult: 0
  }
  convolution_param {
    num_output: 192
    pad: 1
    kernel_size: 3
    weight_filler {
      type: "xavier"
      std: 0.03
    }
    bias_filler {
      type: "constant"
      value: 0.2
    }
  }
}
layer {
  name: "conv2/relu_3x3"
  type: "ReLU"
  bottom: "conv2/3x3"
  top: "conv2/3x3"
}
layer {
  name: "conv2/norm2"
  type: "LRN"
  bottom: "conv2/3x3"
  top: "conv2/norm2"
  lrn_param {
    local_size: 5
    alpha: 0.0001
    beta: 0.75
  }
}
layer {
  name: "pool2/3x3_s2"
  type: "Pooling"
  bottom: "conv2/norm2"
  top: "pool2/3x3_s2"
  pooling_param {
    pool: MAX
    kernel_size: 3
    stride: 2
  }
}
layer {
  name: "inception_3a/1x1"
  type: "Convolution"
  bottom: "pool2/3x3_s2"
  top: "inception_3a/1x1"
  param {
    lr_mult: 1
    decay_mult: 1
  }
  param {
    lr_mult: 2
    decay_mult: 0
  }
  convolution_param {
    num_output: 64
    kernel_size: 1
    weight_filler {
      type: "xavier"
      std: 0.03
    }
    bias_filler {
      type: "constant"
      value: 0.2
    }
  }
}
layer {
  name: "inception_3a/relu_1x1"
  type: "ReLU"
  bottom: "inception_3a/1x1"
  top: "inception_3a/1x1"
}
layer {
  name: "inception_3a/3x3_reduce"
  type: "Convolution"
  bottom: "pool2/3x3_s2"
  top: "inception_3a/3x3_reduce"
  param {
    lr_mult: 1
    decay_mult: 1
  }
  param {
    lr_mult: 2
    decay_mult: 0
  }
  convolution_param {
    num_output: 96
    kernel_size: 1
    weight_filler {
      type: "xavier"
      std: 0.09
    }
    bias_filler {
      type: "constant"
      value: 0.2
    }
  }
}
layer {
  name: "inception_3a/relu_3x3_reduce"
  type: "ReLU"
  bottom: "inception_3a/3x3_reduce"
  top: "inception_3a/3x3_reduce"
}
layer {
  name: "inception_3a/3x3"
  type: "Convolution"
  bottom: "inception_3a/3x3_reduce"
  top: "inception_3a/3x3"
  param {
    lr_mult: 1
    decay_mult: 1
  }
  param {
    lr_mult: 2
    decay_mult: 0
  }
  convolution_param {
    num_output: 128
    pad: 1
    kernel_size: 3
    weight_filler {
      type: "xavier"
      std: 0.03
    }
    bias_filler {
      type: "constant"
      value: 0.2
    }
  }
}
layer {
  name: "inception_3a/relu_3x3"
  type: "ReLU"
  bottom: "inception_3a/3x3"
  top: "inception_3a/3x3"
}
layer {
  name: "inception_3a/5x5_reduce"
  type: "Convolution"
  bottom: "pool2/3x3_s2"
  top: "inception_3a/5x5_reduce"
  param {
    lr_mult: 1
    decay_mult: 1
  }
  param {
    lr_mult: 2
    decay_mult: 0
  }
  convolution_param {
    num_output: 16
    kernel_size: 1
    weight_filler {
      type: "xavier"
      std: 0.2
    }
    bias_filler {
      type: "constant"
      value: 0.2
    }
  }
}
layer {
  name: "inception_3a/relu_5x5_reduce"
  type: "ReLU"
  bottom: "inception_3a/5x5_reduce"
  top: "inception_3a/5x5_reduce"
}
layer {
  name: "inception_3a/5x5"
  type: "Convolution"
  bottom: "inception_3a/5x5_reduce"
  top: "inception_3a/5x5"
  param {
    lr_mult: 1
    decay_mult: 1
  }
  param {
    lr_mult: 2
    decay_mult: 0
  }
  convolution_param {
    num_output: 32
    pad: 2
    kernel_size: 5
    weight_filler {
      type: "xavier"
      std: 0.03
    }
    bias_filler {
      type: "constant"
      value: 0.2
    }
  }
}
layer {
  name: "inception_3a/relu_5x5"
  type: "ReLU"
  bottom: "inception_3a/5x5"
  top: "inception_3a/5x5"
}
layer {
  name: "inception_3a/pool"
  type: "Pooling"
  bottom: "pool2/3x3_s2"
  top: "inception_3a/pool"
  pooling_param {
    pool: MAX
    kernel_size: 3
    stride: 1
    pad: 1
  }
}
layer {
  name: "inception_3a/pool_proj"
  type: "Convolution"
  bottom: "inception_3a/pool"
  top: "inception_3a/pool_proj"
  param {
    lr_mult: 1
    decay_mult: 1
  }
  param {
    lr_mult: 2
    decay_mult: 0
  }
  convolution_param {
    num_output: 32
    kernel_size: 1
    weight_filler {
      type: "xavier"
      std: 0.1
    }
    bias_filler {
      type: "constant"
      value: 0.2
    }
  }
}
layer {
  name: "inception_3a/relu_pool_proj"
  type: "ReLU"
  bottom: "inception_3a/pool_proj"
  top: "inception_3a/pool_proj"
}
layer {
  name: "inception_3a/output"
  type: "Concat"
  bottom: "inception_3a/1x1"
  bottom: "inception_3a/3x3"
  bottom: "inception_3a/5x5"
  bottom: "inception_3a/pool_proj"
  top: "inception_3a/output"
}
layer {
  name: "inception_3b/1x1"
  type: "Convolution"
  bottom: "inception_3a/output"
  top: "inception_3b/1x1"
  param {
    lr_mult: 1
    decay_mult: 1
  }
  param {
    lr_mult: 2
    decay_mult: 0
  }
  convolution_param {
    num_output: 128
    kernel_size: 1
    weight_filler {
      type: "xavier"
      std: 0.03
    }
    bias_filler {
      type: "constant"
      value: 0.2
    }
  }
}
layer {
  name: "inception_3b/relu_1x1"
  type: "ReLU"
  bottom: "inception_3b/1x1"
  top: "inception_3b/1x1"
}
layer {
  name: "inception_3b/3x3_reduce"
  type: "Convolution"
  bottom: "inception_3a/output"
  top: "inception_3b/3x3_reduce"
  param {
    lr_mult: 1
    decay_mult: 1
  }
  param {
    lr_mult: 2
    decay_mult: 0
  }
  convolution_param {
    num_output: 128
    kernel_size: 1
    weight_filler {
      type: "xavier"
      std: 0.09
    }
    bias_filler {
      type: "constant"
      value: 0.2
    }
  }
}
layer {
  name: "inception_3b/relu_3x3_reduce"
  type: "ReLU"
  bottom: "inception_3b/3x3_reduce"
  top: "inception_3b/3x3_reduce"
}
layer {
  name: "inception_3b/3x3"
  type: "Convolution"
  bottom: "inception_3b/3x3_reduce"
  top: "inception_3b/3x3"
  param {
    lr_mult: 1
    decay_mult: 1
  }
  param {
    lr_mult: 2
    decay_mult: 0
  }
  convolution_param {
    num_output: 192
    pad: 1
    kernel_size: 3
    weight_filler {
      type: "xavier"
      std: 0.03
    }
    bias_filler {
      type: "constant"
      value: 0.2
    }
  }
}
layer {
  name: "inception_3b/relu_3x3"
  type: "ReLU"
  bottom: "inception_3b/3x3"
  top: "inception_3b/3x3"
}
layer {
  name: "inception_3b/5x5_reduce"
  type: "Convolution"
  bottom: "inception_3a/output"
  top: "inception_3b/5x5_reduce"
  param {
    lr_mult: 1
    decay_mult: 1
  }
  param {
    lr_mult: 2
    decay_mult: 0
  }
  convolution_param {
    num_output: 32
    kernel_size: 1
    weight_filler {
      type: "xavier"
      std: 0.2
    }
    bias_filler {
      type: "constant"
      value: 0.2
    }
  }
}
layer {
  name: "inception_3b/relu_5x5_reduce"
  type: "ReLU"
  bottom: "inception_3b/5x5_reduce"
  top: "inception_3b/5x5_reduce"
}
layer {
  name: "inception_3b/5x5"
  type: "Convolution"
  bottom: "inception_3b/5x5_reduce"
  top: "inception_3b/5x5"
  param {
    lr_mult: 1
    decay_mult: 1
  }
  param {
    lr_mult: 2
    decay_mult: 0
  }
  convolution_param {
    num_output: 96
    pad: 2
    kernel_size: 5
    weight_filler {
      type: "xavier"
      std: 0.03
    }
    bias_filler {
      type: "constant"
      value: 0.2
    }
  }
}
layer {
  name: "inception_3b/relu_5x5"
  type: "ReLU"
  bottom: "inception_3b/5x5"
  top: "inception_3b/5x5"
}
layer {
  name: "inception_3b/pool"
  type: "Pooling"
  bottom: "inception_3a/output"
  top: "inception_3b/pool"
  pooling_param {
    pool: MAX
    kernel_size: 3
    stride: 1
    pad: 1
  }
}
layer {
  name: "inception_3b/pool_proj"
  type: "Convolution"
  bottom: "inception_3b/pool"
  top: "inception_3b/pool_proj"
  param {
    lr_mult: 1
    decay_mult: 1
  }
  param {
    lr_mult: 2
    decay_mult: 0
  }
  convolution_param {
    num_output: 64
    kernel_size: 1
    weight_filler {
      type: "xavier"
      std: 0.1
    }
    bias_filler {
      type: "constant"
      value: 0.2
    }
  }
}
layer {
  name: "inception_3b/relu_pool_proj"
  type: "ReLU"
  bottom: "inception_3b/pool_proj"
  top: "inception_3b/pool_proj"
}
layer {
  name: "inception_3b/output"
  type: "Concat"
  bottom: "inception_3b/1x1"
  bottom: "inception_3b/3x3"
  bottom: "inception_3b/5x5"
  bottom: "inception_3b/pool_proj"
  top: "inception_3b/output"
}
layer {
  name: "pool3/3x3_s2"
  type: "Pooling"
  bottom: "inception_3b/output"
  top: "pool3/3x3_s2"
  pooling_param {
    pool: MAX
    kernel_size: 3
    stride: 2
  }
}
layer {
  name: "inception_4a/1x1"
  type: "Convolution"
  bottom: "pool3/3x3_s2"
  top: "inception_4a/1x1"
  param {
    lr_mult: 1
    decay_mult: 1
  }
  param {
    lr_mult: 2
    decay_mult: 0
  }
  convolution_param {
    num_output: 192
    kernel_size: 1
    weight_filler {
      type: "xavier"
      std: 0.03
    }
    bias_filler {
      type: "constant"
      value: 0.2
    }
  }
}
layer {
  name: "inception_4a/relu_1x1"
  type: "ReLU"
  bottom: "inception_4a/1x1"
  top: "inception_4a/1x1"
}
layer {
  name: "inception_4a/3x3_reduce"
  type: "Convolution"
  bottom: "pool3/3x3_s2"
  top: "inception_4a/3x3_reduce"
  param {
    lr_mult: 1
    decay_mult: 1
  }
  param {
    lr_mult: 2
    decay_mult: 0
  }
  convolution_param {
    num_output: 96
    kernel_size: 1
    weight_filler {
      type: "xavier"
      std: 0.09
    }
    bias_filler {
      type: "constant"
      value: 0.2
    }
  }
}
layer {
  name: "inception_4a/relu_3x3_reduce"
  type: "ReLU"
  bottom: "inception_4a/3x3_reduce"
  top: "inception_4a/3x3_reduce"
}
layer {
  name: "inception_4a/3x3"
  type: "Convolution"
  bottom: "inception_4a/3x3_reduce"
  top: "inception_4a/3x3"
  param {
    lr_mult: 1
    decay_mult: 1
  }
  param {
    lr_mult: 2
    decay_mult: 0
  }
  convolution_param {
    num_output: 208
    pad: 1
    kernel_size: 3
    weight_filler {
      type: "xavier"
      std: 0.03
    }
    bias_filler {
      type: "constant"
      value: 0.2
    }
  }
}
layer {
  name: "inception_4a/relu_3x3"
  type: "ReLU"
  bottom: "inception_4a/3x3"
  top: "inception_4a/3x3"
}
layer {
  name: "inception_4a/5x5_reduce"
  type: "Convolution"
  bottom: "pool3/3x3_s2"
  top: "inception_4a/5x5_reduce"
  param {
    lr_mult: 1
    decay_mult: 1
  }
  param {
    lr_mult: 2
    decay_mult: 0
  }
  convolution_param {
    num_output: 16
    kernel_size: 1
    weight_filler {
      type: "xavier"
      std: 0.2
    }
    bias_filler {
      type: "constant"
      value: 0.2
    }
  }
}
layer {
  name: "inception_4a/relu_5x5_reduce"
  type: "ReLU"
  bottom: "inception_4a/5x5_reduce"
  top: "inception_4a/5x5_reduce"
}
layer {
  name: "inception_4a/5x5"
  type: "Convolution"
  bottom: "inception_4a/5x5_reduce"
  top: "inception_4a/5x5"
  param {
    lr_mult: 1
    decay_mult: 1
  }
  param {
    lr_mult: 2
    decay_mult: 0
  }
  convolution_param {
    num_output: 48
    pad: 2
    kernel_size: 5
    weight_filler {
      type: "xavier"
      std: 0.03
    }
    bias_filler {
      type: "constant"
      value: 0.2
    }
  }
}
layer {
  name: "inception_4a/relu_5x5"
  type: "ReLU"
  bottom: "inception_4a/5x5"
  top: "inception_4a/5x5"
}
layer {
  name: "inception_4a/pool"
  type: "Pooling"
  bottom: "pool3/3x3_s2"
  top: "inception_4a/pool"
  pooling_param {
    pool: MAX
    kernel_size: 3
    stride: 1
    pad: 1
  }
}
layer {
  name: "inception_4a/pool_proj"
  type: "Convolution"
  bottom: "inception_4a/pool"
  top: "inception_4a/pool_proj"
  param {
    lr_mult: 1
    decay_mult: 1
  }
  param {
    lr_mult: 2
    decay_mult: 0
  }
  convolution_param {
    num_output: 64
    kernel_size: 1
    weight_filler {
      type: "xavier"
      std: 0.1
    }
    bias_filler {
      type: "constant"
      value: 0.2
    }
  }
}
layer {
  name: "inception_4a/relu_pool_proj"
  type: "ReLU"
  bottom: "inception_4a/pool_proj"
  top: "inception_4a/pool_proj"
}
layer {
  name: "inception_4a/output"
  type: "Concat"
  bottom: "inception_4a/1x1"
  bottom: "inception_4a/3x3"
  bottom: "inception_4a/5x5"
  bottom: "inception_4a/pool_proj"
  top: "inception_4a/output"
}
layer {
  name: "loss1/ave_pool"
  type: "Pooling"
  bottom: "inception_4a/output"
  top: "loss1/ave_pool"
  pooling_param {
    pool: AVE
    kernel_size: 5
    stride: 3
  }
}
layer {
  name: "loss1/conv"
  type: "Convolution"
  bottom: "loss1/ave_pool"
  top: "loss1/conv"
  param {
    lr_mult: 1
    decay_mult: 1
  }
  param {
    lr_mult: 2
    decay_mult: 0
  }
  convolution_param {
    num_output: 128
    kernel_size: 1
    weight_filler {
      type: "xavier"
      std: 0.08
    }
    bias_filler {
      type: "constant"
      value: 0.2
    }
  }
}
layer {
  name: "loss1/relu_conv"
  type: "ReLU"
  bottom: "loss1/conv"
  top: "loss1/conv"
}
layer {
  name: "loss1/fc"
  type: "InnerProduct"
  bottom: "loss1/conv"
  top: "loss1/fc"
  param {
    lr_mult: 1
    decay_mult: 1
  }
  param {
    lr_mult: 2
    decay_mult: 0
  }
  inner_product_param {
    num_output: 1024
    weight_filler {
      type: "xavier"
      std: 0.02
    }
    bias_filler {
      type: "constant"
      value: 0.2
    }
  }
}
layer {
  name: "loss1/relu_fc"
  type: "ReLU"
  bottom: "loss1/fc"
  top: "loss1/fc"
}
layer {
  name: "loss1/drop_fc"
  type: "Dropout"
  bottom: "loss1/fc"
  top: "loss1/fc"
  dropout_param {
    dropout_ratio: 0.7
  }
}
layer {
  name: "loss1/classifier_plantvillage"
  type: "InnerProduct"
  bottom: "loss1/fc"
  top: "loss1/classifier_plantvillage"
  param {
    lr_mult: 1
    decay_mult: 1
  }
  param {
    lr_mult: 2
    decay_mult: 0
  }
  inner_product_param {
    num_output: 38
    weight_filler {
      type: "xavier"
      std: 0.0009765625
    }
    bias_filler {
      type: "constant"
      value: 0
    }
  }
}
layer {
  name: "inception_4b/1x1"
  type: "Convolution"
  bottom: "inception_4a/output"
  top: "inception_4b/1x1"
  param {
    lr_mult: 1
    decay_mult: 1
  }
  param {
    lr_mult: 2
    decay_mult: 0
  }
  convolution_param {
    num_output: 160
    kernel_size: 1
    weight_filler {
      type: "xavier"
      std: 0.03
    }
    bias_filler {
      type: "constant"
      value: 0.2
    }
  }
}
layer {
  name: "inception_4b/relu_1x1"
  type: "ReLU"
  bottom: "inception_4b/1x1"
  top: "inception_4b/1x1"
}
layer {
  name: "inception_4b/3x3_reduce"
  type: "Convolution"
  bottom: "inception_4a/output"
  top: "inception_4b/3x3_reduce"
  param {
    lr_mult: 1
    decay_mult: 1
  }
  param {
    lr_mult: 2
    decay_mult: 0
  }
  convolution_param {
    num_output: 112
    kernel_size: 1
    weight_filler {
      type: "xavier"
      std: 0.09
    }
    bias_filler {
      type: "constant"
      value: 0.2
    }
  }
}
layer {
  name: "inception_4b/relu_3x3_reduce"
  type: "ReLU"
  bottom: "inception_4b/3x3_reduce"
  top: "inception_4b/3x3_reduce"
}
layer {
  name: "inception_4b/3x3"
  type: "Convolution"
  bottom: "inception_4b/3x3_reduce"
  top: "inception_4b/3x3"
  param {
    lr_mult: 1
    decay_mult: 1
  }
  param {
    lr_mult: 2
    decay_mult: 0
  }
  convolution_param {
    num_output: 224
    pad: 1
    kernel_size: 3
    weight_filler {
      type: "xavier"
      std: 0.03
    }
    bias_filler {
      type: "constant"
      value: 0.2
    }
  }
}
layer {
  name: "inception_4b/relu_3x3"
  type: "ReLU"
  bottom: "inception_4b/3x3"
  top: "inception_4b/3x3"
}
layer {
  name: "inception_4b/5x5_reduce"
  type: "Convolution"
  bottom: "inception_4a/output"
  top: "inception_4b/5x5_reduce"
  param {
    lr_mult: 1
    decay_mult: 1
  }
  param {
    lr_mult: 2
    decay_mult: 0
  }
  convolution_param {
    num_output: 24
    kernel_size: 1
    weight_filler {
      type: "xavier"
      std: 0.2
    }
    bias_filler {
      type: "constant"
      value: 0.2
    }
  }
}
layer {
  name: "inception_4b/relu_5x5_reduce"
  type: "ReLU"
  bottom: "inception_4b/5x5_reduce"
  top: "inception_4b/5x5_reduce"
}
layer {
  name: "inception_4b/5x5"
  type: "Convolution"
  bottom: "inception_4b/5x5_reduce"
  top: "inception_4b/5x5"
  param {
    lr_mult: 1
    decay_mult: 1
  }
  param {
    lr_mult: 2
    decay_mult: 0
  }
  convolution_param {
    num_output: 64
    pad: 2
    kernel_size: 5
    weight_filler {
      type: "xavier"
      std: 0.03
    }
    bias_filler {
      type: "constant"
      value: 0.2
    }
  }
}
layer {
  name: "inception_4b/relu_5x5"
  type: "ReLU"
  bottom: "inception_4b/5x5"
  top: "inception_4b/5x5"
}
layer {
  name: "inception_4b/pool"
  type: "Pooling"
  bottom: "inception_4a/output"
  top: "inception_4b/pool"
  pooling_param {
    pool: MAX
    kernel_size: 3
    stride: 1
    pad: 1
  }
}
layer {
  name: "inception_4b/pool_proj"
  type: "Convolution"
  bottom: "inception_4b/pool"
  top: "inception_4b/pool_proj"
  param {
    lr_mult: 1
    decay_mult: 1
  }
  param {
    lr_mult: 2
    decay_mult: 0
  }
  convolution_param {
    num_output: 64
    kernel_size: 1
    weight_filler {
      type: "xavier"
      std: 0.1
    }
    bias_filler {
      type: "constant"
      value: 0.2
    }
  }
}
layer {
  name: "inception_4b/relu_pool_proj"
  type: "ReLU"
  bottom: "inception_4b/pool_proj"
  top: "inception_4b/pool_proj"
}
layer {
  name: "inception_4b/output"
  type: "Concat"
  bottom: "inception_4b/1x1"
  bottom: "inception_4b/3x3"
  bottom: "inception_4b/5x5"
  bottom: "inception_4b/pool_proj"
  top: "inception_4b/output"
}
layer {
  name: "inception_4c/1x1"
  type: "Convolution"
  bottom: "inception_4b/output"
  top: "inception_4c/1x1"
  param {
    lr_mult: 1
    decay_mult: 1
  }
  param {
    lr_mult: 2
    decay_mult: 0
  }
  convolution_param {
    num_output: 128
    kernel_size: 1
    weight_filler {
      type: "xavier"
      std: 0.03
    }
    bias_filler {
      type: "constant"
      value: 0.2
    }
  }
}
layer {
  name: "inception_4c/relu_1x1"
  type: "ReLU"
  bottom: "inception_4c/1x1"
  top: "inception_4c/1x1"
}
layer {
  name: "inception_4c/3x3_reduce"
  type: "Convolution"
  bottom: "inception_4b/output"
  top: "inception_4c/3x3_reduce"
  param {
    lr_mult: 1
    decay_mult: 1
  }
  param {
    lr_mult: 2
    decay_mult: 0
  }
  convolution_param {
    num_output: 128
    kernel_size: 1
    weight_filler {
      type: "xavier"
      std: 0.09
    }
    bias_filler {
      type: "constant"
      value: 0.2
    }
  }
}
layer {
  name: "inception_4c/relu_3x3_reduce"
  type: "ReLU"
  bottom: "inception_4c/3x3_reduce"
  top: "inception_4c/3x3_reduce"
}
layer {
  name: "inception_4c/3x3"
  type: "Convolution"
  bottom: "inception_4c/3x3_reduce"
  top: "inception_4c/3x3"
  param {
    lr_mult: 1
    decay_mult: 1
  }
  param {
    lr_mult: 2
    decay_mult: 0
  }
  convolution_param {
    num_output: 256
    pad: 1
    kernel_size: 3
    weight_filler {
      type: "xavier"
      std: 0.03
    }
    bias_filler {
      type: "constant"
      value: 0.2
    }
  }
}
layer {
  name: "inception_4c/relu_3x3"
  type: "ReLU"
  bottom: "inception_4c/3x3"
  top: "inception_4c/3x3"
}
layer {
  name: "inception_4c/5x5_reduce"
  type: "Convolution"
  bottom: "inception_4b/output"
  top: "inception_4c/5x5_reduce"
  param {
    lr_mult: 1
    decay_mult: 1
  }
  param {
    lr_mult: 2
    decay_mult: 0
  }
  convolution_param {
    num_output: 24
    kernel_size: 1
    weight_filler {
      type: "xavier"
      std: 0.2
    }
    bias_filler {
      type: "constant"
      value: 0.2
    }
  }
}
layer {
  name: "inception_4c/relu_5x5_reduce"
  type: "ReLU"
  bottom: "inception_4c/5x5_reduce"
  top: "inception_4c/5x5_reduce"
}
layer {
  name: "inception_4c/5x5"
  type: "Convolution"
  bottom: "inception_4c/5x5_reduce"
  top: "inception_4c/5x5"
  param {
    lr_mult: 1
    decay_mult: 1
  }
  param {
    lr_mult: 2
    decay_mult: 0
  }
  convolution_param {
    num_output: 64
    pad: 2
    kernel_size: 5
    weight_filler {
      type: "xavier"
      std: 0.03
    }
    bias_filler {
      type: "constant"
      value: 0.2
    }
  }
}
layer {
  name: "inception_4c/relu_5x5"
  type: "ReLU"
  bottom: "inception_4c/5x5"
  top: "inception_4c/5x5"
}
layer {
  name: "inception_4c/pool"
  type: "Pooling"
  bottom: "inception_4b/output"
  top: "inception_4c/pool"
  pooling_param {
    pool: MAX
    kernel_size: 3
    stride: 1
    pad: 1
  }
}
layer {
  name: "inception_4c/pool_proj"
  type: "Convolution"
  bottom: "inception_4c/pool"
  top: "inception_4c/pool_proj"
  param {
    lr_mult: 1
    decay_mult: 1
  }
  param {
    lr_mult: 2
    decay_mult: 0
  }
  convolution_param {
    num_output: 64
    kernel_size: 1
    weight_filler {
      type: "xavier"
      std: 0.1
    }
    bias_filler {
      type: "constant"
      value: 0.2
    }
  }
}
layer {
  name: "inception_4c/relu_pool_proj"
  type: "ReLU"
  bottom: "inception_4c/pool_proj"
  top: "inception_4c/pool_proj"
}
layer {
  name: "inception_4c/output"
  type: "Concat"
  bottom: "inception_4c/1x1"
  bottom: "inception_4c/3x3"
  bottom: "inception_4c/5x5"
  bottom: "inception_4c/pool_proj"
  top: "inception_4c/output"
}
layer {
  name: "inception_4d/1x1"
  type: "Convolution"
  bottom: "inception_4c/output"
  top: "inception_4d/1x1"
  param {
    lr_mult: 1
    decay_mult: 1
  }
  param {
    lr_mult: 2
    decay_mult: 0
  }
  convolution_param {
    num_output: 112
    kernel_size: 1
    weight_filler {
      type: "xavier"
      std: 0.03
    }
    bias_filler {
      type: "constant"
      value: 0.2
    }
  }
}
layer {
  name: "inception_4d/relu_1x1"
  type: "ReLU"
  bottom: "inception_4d/1x1"
  top: "inception_4d/1x1"
}
layer {
  name: "inception_4d/3x3_reduce"
  type: "Convolution"
  bottom: "inception_4c/output"
  top: "inception_4d/3x3_reduce"
  param {
    lr_mult: 1
    decay_mult: 1
  }
  param {
    lr_mult: 2
    decay_mult: 0
  }
  convolution_param {
    num_output: 144
    kernel_size: 1
    weight_filler {
      type: "xavier"
      std: 0.09
    }
    bias_filler {
      type: "constant"
      value: 0.2
    }
  }
}
layer {
  name: "inception_4d/relu_3x3_reduce"
  type: "ReLU"
  bottom: "inception_4d/3x3_reduce"
  top: "inception_4d/3x3_reduce"
}
layer {
  name: "inception_4d/3x3"
  type: "Convolution"
  bottom: "inception_4d/3x3_reduce"
  top: "inception_4d/3x3"
  param {
    lr_mult: 1
    decay_mult: 1
  }
  param {
    lr_mult: 2
    decay_mult: 0
  }
  convolution_param {
    num_output: 288
    pad: 1
    kernel_size: 3
    weight_filler {
      type: "xavier"
      std: 0.03
    }
    bias_filler {
      type: "constant"
      value: 0.2
    }
  }
}
layer {
  name: "inception_4d/relu_3x3"
  type: "ReLU"
  bottom: "inception_4d/3x3"
  top: "inception_4d/3x3"
}
layer {
  name: "inception_4d/5x5_reduce"
  type: "Convolution"
  bottom: "inception_4c/output"
  top: "inception_4d/5x5_reduce"
  param {
    lr_mult: 1
    decay_mult: 1
  }
  param {
    lr_mult: 2
    decay_mult: 0
  }
  convolution_param {
    num_output: 32
    kernel_size: 1
    weight_filler {
      type: "xavier"
      std: 0.2
    }
    bias_filler {
      type: "constant"
      value: 0.2
    }
  }
}
layer {
  name: "inception_4d/relu_5x5_reduce"
  type: "ReLU"
  bottom: "inception_4d/5x5_reduce"
  top: "inception_4d/5x5_reduce"
}
layer {
  name: "inception_4d/5x5"
  type: "Convolution"
  bottom: "inception_4d/5x5_reduce"
  top: "inception_4d/5x5"
  param {
    lr_mult: 1
    decay_mult: 1
  }
  param {
    lr_mult: 2
    decay_mult: 0
  }
  convolution_param {
    num_output: 64
    pad: 2
    kernel_size: 5
    weight_filler {
      type: "xavier"
      std: 0.03
    }
    bias_filler {
      type: "constant"
      value: 0.2
    }
  }
}
layer {
  name: "inception_4d/relu_5x5"
  type: "ReLU"
  bottom: "inception_4d/5x5"
  top: "inception_4d/5x5"
}
layer {
  name: "inception_4d/pool"
  type: "Pooling"
  bottom: "inception_4c/output"
  top: "inception_4d/pool"
  pooling_param {
    pool: MAX
    kernel_size: 3
    stride: 1
    pad: 1
  }
}
layer {
  name: "inception_4d/pool_proj"
  type: "Convolution"
  bottom: "inception_4d/pool"
  top: "inception_4d/pool_proj"
  param {
    lr_mult: 1
    decay_mult: 1
  }
  param {
    lr_mult: 2
    decay_mult: 0
  }
  convolution_param {
    num_output: 64
    kernel_size: 1
    weight_filler {
      type: "xavier"
      std: 0.1
    }
    bias_filler {
      type: "constant"
      value: 0.2
    }
  }
}
layer {
  name: "inception_4d/relu_pool_proj"
  type: "ReLU"
  bottom: "inception_4d/pool_proj"
  top: "inception_4d/pool_proj"
}
layer {
  name: "inception_4d/output"
  type: "Concat"
  bottom: "inception_4d/1x1"
  bottom: "inception_4d/3x3"
  bottom: "inception_4d/5x5"
  bottom: "inception_4d/pool_proj"
  top: "inception_4d/output"
}
layer {
  name: "loss2/ave_pool"
  type: "Pooling"
  bottom: "inception_4d/output"
  top: "loss2/ave_pool"
  pooling_param {
    pool: AVE
    kernel_size: 5
    stride: 3
  }
}
layer {
  name: "loss2/conv"
  type: "Convolution"
  bottom: "loss2/ave_pool"
  top: "loss2/conv"
  param {
    lr_mult: 1
    decay_mult: 1
  }
  param {
    lr_mult: 2
    decay_mult: 0
  }
  convolution_param {
    num_output: 128
    kernel_size: 1
    weight_filler {
      type: "xavier"
      std: 0.08
    }
    bias_filler {
      type: "constant"
      value: 0.2
    }
  }
}
layer {
  name: "loss2/relu_conv"
  type: "ReLU"
  bottom: "loss2/conv"
  top: "loss2/conv"
}
layer {
  name: "loss2/fc"
  type: "InnerProduct"
  bottom: "loss2/conv"
  top: "loss2/fc"
  param {
    lr_mult: 1
    decay_mult: 1
  }
  param {
    lr_mult: 2
    decay_mult: 0
  }
  inner_product_param {
    num_output: 1024
    weight_filler {
      type: "xavier"
      std: 0.02
    }
    bias_filler {
      type: "constant"
      value: 0.2
    }
  }
}
layer {
  name: "loss2/relu_fc"
  type: "ReLU"
  bottom: "loss2/fc"
  top: "loss2/fc"
}
layer {
  name: "loss2/drop_fc"
  type: "Dropout"
  bottom: "loss2/fc"
  top: "loss2/fc"
  dropout_param {
    dropout_ratio: 0.7
  }
}
layer {
  name: "loss2/classifier_plantvillage"
  type: "InnerProduct"
  bottom: "loss2/fc"
  top: "loss2/classifier_plantvillage"
  param {
    lr_mult: 1
    decay_mult: 1
  }
  param {
    lr_mult: 2
    decay_mult: 0
  }
  inner_product_param {
    num_output: 38
    weight_filler {
      type: "xavier"
      std: 0.0009765625
    }
    bias_filler {
      type: "constant"
      value: 0
    }
  }
}
layer {
  name: "inception_4e/1x1"
  type: "Convolution"
  bottom: "inception_4d/output"
  top: "inception_4e/1x1"
  param {
    lr_mult: 1
    decay_mult: 1
  }
  param {
    lr_mult: 2
    decay_mult: 0
  }
  convolution_param {
    num_output: 256
    kernel_size: 1
    weight_filler {
      type: "xavier"
      std: 0.03
    }
    bias_filler {
      type: "constant"
      value: 0.2
    }
  }
}
layer {
  name: "inception_4e/relu_1x1"
  type: "ReLU"
  bottom: "inception_4e/1x1"
  top: "inception_4e/1x1"
}
layer {
  name: "inception_4e/3x3_reduce"
  type: "Convolution"
  bottom: "inception_4d/output"
  top: "inception_4e/3x3_reduce"
  param {
    lr_mult: 1
    decay_mult: 1
  }
  param {
    lr_mult: 2
    decay_mult: 0
  }
  convolution_param {
    num_output: 160
    kernel_size: 1
    weight_filler {
      type: "xavier"
      std: 0.09
    }
    bias_filler {
      type: "constant"
      value: 0.2
    }
  }
}
layer {
  name: "inception_4e/relu_3x3_reduce"
  type: "ReLU"
  bottom: "inception_4e/3x3_reduce"
  top: "inception_4e/3x3_reduce"
}
layer {
  name: "inception_4e/3x3"
  type: "Convolution"
  bottom: "inception_4e/3x3_reduce"
  top: "inception_4e/3x3"
  param {
    lr_mult: 1
    decay_mult: 1
  }
  param {
    lr_mult: 2
    decay_mult: 0
  }
  convolution_param {
    num_output: 320
    pad: 1
    kernel_size: 3
    weight_filler {
      type: "xavier"
      std: 0.03
    }
    bias_filler {
      type: "constant"
      value: 0.2
    }
  }
}
layer {
  name: "inception_4e/relu_3x3"
  type: "ReLU"
  bottom: "inception_4e/3x3"
  top: "inception_4e/3x3"
}
layer {
  name: "inception_4e/5x5_reduce"
  type: "Convolution"
  bottom: "inception_4d/output"
  top: "inception_4e/5x5_reduce"
  param {
    lr_mult: 1
    decay_mult: 1
  }
  param {
    lr_mult: 2
    decay_mult: 0
  }
  convolution_param {
    num_output: 32
    kernel_size: 1
    weight_filler {
      type: "xavier"
      std: 0.2
    }
    bias_filler {
      type: "constant"
      value: 0.2
    }
  }
}
layer {
  name: "inception_4e/relu_5x5_reduce"
  type: "ReLU"
  bottom: "inception_4e/5x5_reduce"
  top: "inception_4e/5x5_reduce"
}
layer {
  name: "inception_4e/5x5"
  type: "Convolution"
  bottom: "inception_4e/5x5_reduce"
  top: "inception_4e/
I0403 15:48:25.942006 12645 layer_factory.hpp:77] Creating layer data
I0403 15:48:25.942605 12645 net.cpp:91] Creating Layer data
I0403 15:48:25.942636 12645 net.cpp:399] data -> data
I0403 15:48:25.942684 12645 net.cpp:399] data -> label
I0403 15:48:25.942720 12645 data_transformer.cpp:25] Loading mean file from: /home/mohanty/data/final_dataset/lmdb/segmented-40-60/mean.binaryproto
I0403 15:48:25.946441 12649 db_lmdb.cpp:38] Opened lmdb /home/mohanty/data/final_dataset/lmdb/segmented-40-60/test_db
I0403 15:48:25.956190 12645 data_layer.cpp:41] output data size: 24,3,224,224
I0403 15:48:25.983237 12645 net.cpp:141] Setting up data
I0403 15:48:25.983310 12645 net.cpp:148] Top shape: 24 3 224 224 (3612672)
I0403 15:48:25.983343 12645 net.cpp:148] Top shape: 24 (24)
I0403 15:48:25.983361 12645 net.cpp:156] Memory required for data: 14450784
I0403 15:48:25.983388 12645 layer_factory.hpp:77] Creating layer label_data_1_split
I0403 15:48:25.983417 12645 net.cpp:91] Creating Layer label_data_1_split
I0403 15:48:25.983435 12645 net.cpp:425] label_data_1_split <- label
I0403 15:48:25.983469 12645 net.cpp:399] label_data_1_split -> label_data_1_split_0
I0403 15:48:25.983495 12645 net.cpp:399] label_data_1_split -> label_data_1_split_1
I0403 15:48:25.983517 12645 net.cpp:399] label_data_1_split -> label_data_1_split_2
I0403 15:48:25.983539 12645 net.cpp:399] label_data_1_split -> label_data_1_split_3
I0403 15:48:25.983561 12645 net.cpp:399] label_data_1_split -> label_data_1_split_4
I0403 15:48:25.983582 12645 net.cpp:399] label_data_1_split -> label_data_1_split_5
I0403 15:48:25.983602 12645 net.cpp:399] label_data_1_split -> label_data_1_split_6
I0403 15:48:25.983621 12645 net.cpp:399] label_data_1_split -> label_data_1_split_7
I0403 15:48:25.983641 12645 net.cpp:399] label_data_1_split -> label_data_1_split_8
I0403 15:48:25.983664 12645 net.cpp:399] label_data_1_split -> label_data_1_split_9
I0403 15:48:25.983778 12645 net.cpp:141] Setting up label_data_1_split
I0403 15:48:25.983803 12645 net.cpp:148] Top shape: 24 (24)
I0403 15:48:25.983820 12645 net.cpp:148] Top shape: 24 (24)
I0403 15:48:25.983836 12645 net.cpp:148] Top shape: 24 (24)
I0403 15:48:25.983852 12645 net.cpp:148] Top shape: 24 (24)
I0403 15:48:25.983867 12645 net.cpp:148] Top shape: 24 (24)
I0403 15:48:25.983883 12645 net.cpp:148] Top shape: 24 (24)
I0403 15:48:25.983899 12645 net.cpp:148] Top shape: 24 (24)
I0403 15:48:25.983914 12645 net.cpp:148] Top shape: 24 (24)
I0403 15:48:25.983930 12645 net.cpp:148] Top shape: 24 (24)
I0403 15:48:25.983947 12645 net.cpp:148] Top shape: 24 (24)
I0403 15:48:25.983990 12645 net.cpp:156] Memory required for data: 14451744
I0403 15:48:25.984006 12645 layer_factory.hpp:77] Creating layer conv1/7x7_s2
I0403 15:48:25.984040 12645 net.cpp:91] Creating Layer conv1/7x7_s2
I0403 15:48:25.984061 12645 net.cpp:425] conv1/7x7_s2 <- data
I0403 15:48:25.984081 12645 net.cpp:399] conv1/7x7_s2 -> conv1/7x7_s2
I0403 15:48:26.130915 12645 net.cpp:141] Setting up conv1/7x7_s2
I0403 15:48:26.130987 12645 net.cpp:148] Top shape: 24 64 112 112 (19267584)
I0403 15:48:26.131006 12645 net.cpp:156] Memory required for data: 91522080
I0403 15:48:26.131036 12645 layer_factory.hpp:77] Creating layer conv1/relu_7x7
I0403 15:48:26.131062 12645 net.cpp:91] Creating Layer conv1/relu_7x7
I0403 15:48:26.131080 12645 net.cpp:425] conv1/relu_7x7 <- conv1/7x7_s2
I0403 15:48:26.131098 12645 net.cpp:386] conv1/relu_7x7 -> conv1/7x7_s2 (in-place)
I0403 15:48:26.131355 12645 net.cpp:141] Setting up conv1/relu_7x7
I0403 15:48:26.131381 12645 net.cpp:148] Top shape: 24 64 112 112 (19267584)
I0403 15:48:26.131395 12645 net.cpp:156] Memory required for data: 168592416
I0403 15:48:26.131410 12645 layer_factory.hpp:77] Creating layer pool1/3x3_s2
I0403 15:48:26.131434 12645 net.cpp:91] Creating Layer pool1/3x3_s2
I0403 15:48:26.131453 12645 net.cpp:425] pool1/3x3_s2 <- conv1/7x7_s2
I0403 15:48:26.131470 12645 net.cpp:399] pool1/3x3_s2 -> pool1/3x3_s2
I0403 15:48:26.131542 12645 net.cpp:141] Setting up pool1/3x3_s2
I0403 15:48:26.131566 12645 net.cpp:148] Top shape: 24 64 56 56 (4816896)
I0403 15:48:26.131580 12645 net.cpp:156] Memory required for data: 187860000
I0403 15:48:26.131595 12645 layer_factory.hpp:77] Creating layer pool1/norm1
I0403 15:48:26.131618 12645 net.cpp:91] Creating Layer pool1/norm1
I0403 15:48:26.131635 12645 net.cpp:425] pool1/norm1 <- pool1/3x3_s2
I0403 15:48:26.131654 12645 net.cpp:399] pool1/norm1 -> pool1/norm1
I0403 15:48:26.131932 12645 net.cpp:141] Setting up pool1/norm1
I0403 15:48:26.131959 12645 net.cpp:148] Top shape: 24 64 56 56 (4816896)
I0403 15:48:26.131974 12645 net.cpp:156] Memory required for data: 207127584
I0403 15:48:26.131989 12645 layer_factory.hpp:77] Creating layer conv2/3x3_reduce
I0403 15:48:26.132014 12645 net.cpp:91] Creating Layer conv2/3x3_reduce
I0403 15:48:26.132030 12645 net.cpp:425] conv2/3x3_reduce <- pool1/norm1
I0403 15:48:26.132047 12645 net.cpp:399] conv2/3x3_reduce -> conv2/3x3_reduce
I0403 15:48:26.133307 12645 net.cpp:141] Setting up conv2/3x3_reduce
I0403 15:48:26.133344 12645 net.cpp:148] Top shape: 24 64 56 56 (4816896)
I0403 15:48:26.133361 12645 net.cpp:156] Memory required for data: 226395168
I0403 15:48:26.133383 12645 layer_factory.hpp:77] Creating layer conv2/relu_3x3_reduce
I0403 15:48:26.133400 12645 net.cpp:91] Creating Layer conv2/relu_3x3_reduce
I0403 15:48:26.133415 12645 net.cpp:425] conv2/relu_3x3_reduce <- conv2/3x3_reduce
I0403 15:48:26.133431 12645 net.cpp:386] conv2/relu_3x3_reduce -> conv2/3x3_reduce (in-place)
I0403 15:48:26.133687 12645 net.cpp:141] Setting up conv2/relu_3x3_reduce
I0403 15:48:26.133715 12645 net.cpp:148] Top shape: 24 64 56 56 (4816896)
I0403 15:48:26.133731 12645 net.cpp:156] Memory required for data: 245662752
I0403 15:48:26.133746 12645 layer_factory.hpp:77] Creating layer conv2/3x3
I0403 15:48:26.133769 12645 net.cpp:91] Creating Layer conv2/3x3
I0403 15:48:26.133787 12645 net.cpp:425] conv2/3x3 <- conv2/3x3_reduce
I0403 15:48:26.133806 12645 net.cpp:399] conv2/3x3 -> conv2/3x3
I0403 15:48:26.135989 12645 net.cpp:141] Setting up conv2/3x3
I0403 15:48:26.136020 12645 net.cpp:148] Top shape: 24 192 56 56 (14450688)
I0403 15:48:26.136037 12645 net.cpp:156] Memory required for data: 303465504
I0403 15:48:26.136057 12645 layer_factory.hpp:77] Creating layer conv2/relu_3x3
I0403 15:48:26.136075 12645 net.cpp:91] Creating Layer conv2/relu_3x3
I0403 15:48:26.136090 12645 net.cpp:425] conv2/relu_3x3 <- conv2/3x3
I0403 15:48:26.136107 12645 net.cpp:386] conv2/relu_3x3 -> conv2/3x3 (in-place)
I0403 15:48:26.136278 12645 net.cpp:141] Setting up conv2/relu_3x3
I0403 15:48:26.136302 12645 net.cpp:148] Top shape: 24 192 56 56 (14450688)
I0403 15:48:26.136351 12645 net.cpp:156] Memory required for data: 361268256
I0403 15:48:26.136368 12645 layer_factory.hpp:77] Creating layer conv2/norm2
I0403 15:48:26.136389 12645 net.cpp:91] Creating Layer conv2/norm2
I0403 15:48:26.136405 12645 net.cpp:425] conv2/norm2 <- conv2/3x3
I0403 15:48:26.136422 12645 net.cpp:399] conv2/norm2 -> conv2/norm2
I0403 15:48:26.136708 12645 net.cpp:141] Setting up conv2/norm2
I0403 15:48:26.136734 12645 net.cpp:148] Top shape: 24 192 56 56 (14450688)
I0403 15:48:26.136749 12645 net.cpp:156] Memory required for data: 419071008
I0403 15:48:26.136765 12645 layer_factory.hpp:77] Creating layer pool2/3x3_s2
I0403 15:48:26.136786 12645 net.cpp:91] Creating Layer pool2/3x3_s2
I0403 15:48:26.136803 12645 net.cpp:425] pool2/3x3_s2 <- conv2/norm2
I0403 15:48:26.136821 12645 net.cpp:399] pool2/3x3_s2 -> pool2/3x3_s2
I0403 15:48:26.136872 12645 net.cpp:141] Setting up pool2/3x3_s2
I0403 15:48:26.136893 12645 net.cpp:148] Top shape: 24 192 28 28 (3612672)
I0403 15:48:26.136909 12645 net.cpp:156] Memory required for data: 433521696
I0403 15:48:26.136922 12645 layer_factory.hpp:77] Creating layer pool2/3x3_s2_pool2/3x3_s2_0_split
I0403 15:48:26.136940 12645 net.cpp:91] Creating Layer pool2/3x3_s2_pool2/3x3_s2_0_split
I0403 15:48:26.136955 12645 net.cpp:425] pool2/3x3_s2_pool2/3x3_s2_0_split <- pool2/3x3_s2
I0403 15:48:26.136973 12645 net.cpp:399] pool2/3x3_s2_pool2/3x3_s2_0_split -> pool2/3x3_s2_pool2/3x3_s2_0_split_0
I0403 15:48:26.136993 12645 net.cpp:399] pool2/3x3_s2_pool2/3x3_s2_0_split -> pool2/3x3_s2_pool2/3x3_s2_0_split_1
I0403 15:48:26.137013 12645 net.cpp:399] pool2/3x3_s2_pool2/3x3_s2_0_split -> pool2/3x3_s2_pool2/3x3_s2_0_split_2
I0403 15:48:26.137032 12645 net.cpp:399] pool2/3x3_s2_pool2/3x3_s2_0_split -> pool2/3x3_s2_pool2/3x3_s2_0_split_3
I0403 15:48:26.137100 12645 net.cpp:141] Setting up pool2/3x3_s2_pool2/3x3_s2_0_split
I0403 15:48:26.137125 12645 net.cpp:148] Top shape: 24 192 28 28 (3612672)
I0403 15:48:26.137141 12645 net.cpp:148] Top shape: 24 192 28 28 (3612672)
I0403 15:48:26.137156 12645 net.cpp:148] Top shape: 24 192 28 28 (3612672)
I0403 15:48:26.137171 12645 net.cpp:148] Top shape: 24 192 28 28 (3612672)
I0403 15:48:26.137184 12645 net.cpp:156] Memory required for data: 491324448
I0403 15:48:26.137198 12645 layer_factory.hpp:77] Creating layer inception_3a/1x1
I0403 15:48:26.137219 12645 net.cpp:91] Creating Layer inception_3a/1x1
I0403 15:48:26.137236 12645 net.cpp:425] inception_3a/1x1 <- pool2/3x3_s2_pool2/3x3_s2_0_split_0
I0403 15:48:26.137256 12645 net.cpp:399] inception_3a/1x1 -> inception_3a/1x1
I0403 15:48:26.138754 12645 net.cpp:141] Setting up inception_3a/1x1
I0403 15:48:26.138782 12645 net.cpp:148] Top shape: 24 64 28 28 (1204224)
I0403 15:48:26.138798 12645 net.cpp:156] Memory required for data: 496141344
I0403 15:48:26.138816 12645 layer_factory.hpp:77] Creating layer inception_3a/relu_1x1
I0403 15:48:26.138836 12645 net.cpp:91] Creating Layer inception_3a/relu_1x1
I0403 15:48:26.138852 12645 net.cpp:425] inception_3a/relu_1x1 <- inception_3a/1x1
I0403 15:48:26.138870 12645 net.cpp:386] inception_3a/relu_1x1 -> inception_3a/1x1 (in-place)
I0403 15:48:26.139036 12645 net.cpp:141] Setting up inception_3a/relu_1x1
I0403 15:48:26.139061 12645 net.cpp:148] Top shape: 24 64 28 28 (1204224)
I0403 15:48:26.139075 12645 net.cpp:156] Memory required for data: 500958240
I0403 15:48:26.139089 12645 layer_factory.hpp:77] Creating layer inception_3a/3x3_reduce
I0403 15:48:26.139112 12645 net.cpp:91] Creating Layer inception_3a/3x3_reduce
I0403 15:48:26.139129 12645 net.cpp:425] inception_3a/3x3_reduce <- pool2/3x3_s2_pool2/3x3_s2_0_split_1
I0403 15:48:26.139149 12645 net.cpp:399] inception_3a/3x3_reduce -> inception_3a/3x3_reduce
I0403 15:48:26.140765 12645 net.cpp:141] Setting up inception_3a/3x3_reduce
I0403 15:48:26.140795 12645 net.cpp:148] Top shape: 24 96 28 28 (1806336)
I0403 15:48:26.140811 12645 net.cpp:156] Memory required for data: 508183584
I0403 15:48:26.140832 12645 layer_factory.hpp:77] Creating layer inception_3a/relu_3x3_reduce
I0403 15:48:26.140866 12645 net.cpp:91] Creating Layer inception_3a/relu_3x3_reduce
I0403 15:48:26.140883 12645 net.cpp:425] inception_3a/relu_3x3_reduce <- inception_3a/3x3_reduce
I0403 15:48:26.140902 12645 net.cpp:386] inception_3a/relu_3x3_reduce -> inception_3a/3x3_reduce (in-place)
I0403 15:48:26.141079 12645 net.cpp:141] Setting up inception_3a/relu_3x3_reduce
I0403 15:48:26.141103 12645 net.cpp:148] Top shape: 24 96 28 28 (1806336)
I0403 15:48:26.141118 12645 net.cpp:156] Memory required for data: 515408928
I0403 15:48:26.141131 12645 layer_factory.hpp:77] Creating layer inception_3a/3x3
I0403 15:48:26.141154 12645 net.cpp:91] Creating Layer inception_3a/3x3
I0403 15:48:26.141170 12645 net.cpp:425] inception_3a/3x3 <- inception_3a/3x3_reduce
I0403 15:48:26.141191 12645 net.cpp:399] inception_3a/3x3 -> inception_3a/3x3
I0403 15:48:26.142768 12645 net.cpp:141] Setting up inception_3a/3x3
I0403 15:48:26.142797 12645 net.cpp:148] Top shape: 24 128 28 28 (2408448)
I0403 15:48:26.142813 12645 net.cpp:156] Memory required for data: 525042720
I0403 15:48:26.142832 12645 layer_factory.hpp:77] Creating layer inception_3a/relu_3x3
I0403 15:48:26.142849 12645 net.cpp:91] Creating Layer inception_3a/relu_3x3
I0403 15:48:26.142864 12645 net.cpp:425] inception_3a/relu_3x3 <- inception_3a/3x3
I0403 15:48:26.142884 12645 net.cpp:386] inception_3a/relu_3x3 -> inception_3a/3x3 (in-place)
I0403 15:48:26.143147 12645 net.cpp:141] Setting up inception_3a/relu_3x3
I0403 15:48:26.143175 12645 net.cpp:148] Top shape: 24 128 28 28 (2408448)
I0403 15:48:26.143192 12645 net.cpp:156] Memory required for data: 534676512
I0403 15:48:26.143206 12645 layer_factory.hpp:77] Creating layer inception_3a/5x5_reduce
I0403 15:48:26.143229 12645 net.cpp:91] Creating Layer inception_3a/5x5_reduce
I0403 15:48:26.143246 12645 net.cpp:425] inception_3a/5x5_reduce <- pool2/3x3_s2_pool2/3x3_s2_0_split_2
I0403 15:48:26.143265 12645 net.cpp:399] inception_3a/5x5_reduce -> inception_3a/5x5_reduce
I0403 15:48:26.144184 12645 net.cpp:141] Setting up inception_3a/5x5_reduce
I0403 15:48:26.144212 12645 net.cpp:148] Top shape: 24 16 28 28 (301056)
I0403 15:48:26.144227 12645 net.cpp:156] Memory required for data: 535880736
I0403 15:48:26.144244 12645 layer_factory.hpp:77] Creating layer inception_3a/relu_5x5_reduce
I0403 15:48:26.144263 12645 net.cpp:91] Creating Layer inception_3a/relu_5x5_reduce
I0403 15:48:26.144279 12645 net.cpp:425] inception_3a/relu_5x5_reduce <- inception_3a/5x5_reduce
I0403 15:48:26.144299 12645 net.cpp:386] inception_3a/relu_5x5_reduce -> inception_3a/5x5_reduce (in-place)
I0403 15:48:26.144564 12645 net.cpp:141] Setting up inception_3a/relu_5x5_reduce
I0403 15:48:26.144589 12645 net.cpp:148] Top shape: 24 16 28 28 (301056)
I0403 15:48:26.144604 12645 net.cpp:156] Memory required for data: 537084960
I0403 15:48:26.144619 12645 layer_factory.hpp:77] Creating layer inception_3a/5x5
I0403 15:48:26.144640 12645 net.cpp:91] Creating Layer inception_3a/5x5
I0403 15:48:26.144659 12645 net.cpp:425] inception_3a/5x5 <- inception_3a/5x5_reduce
I0403 15:48:26.144678 12645 net.cpp:399] inception_3a/5x5 -> inception_3a/5x5
I0403 15:48:26.145666 12645 net.cpp:141] Setting up inception_3a/5x5
I0403 15:48:26.145695 12645 net.cpp:148] Top shape: 24 32 28 28 (602112)
I0403 15:48:26.145711 12645 net.cpp:156] Memory required for data: 539493408
I0403 15:48:26.145730 12645 layer_factory.hpp:77] Creating layer inception_3a/relu_5x5
I0403 15:48:26.145747 12645 net.cpp:91] Creating Layer inception_3a/relu_5x5
I0403 15:48:26.145762 12645 net.cpp:425] inception_3a/relu_5x5 <- inception_3a/5x5
I0403 15:48:26.145782 12645 net.cpp:386] inception_3a/relu_5x5 -> inception_3a/5x5 (in-place)
I0403 15:48:26.145953 12645 net.cpp:141] Setting up inception_3a/relu_5x5
I0403 15:48:26.145977 12645 net.cpp:148] Top shape: 24 32 28 28 (602112)
I0403 15:48:26.145992 12645 net.cpp:156] Memory required for data: 541901856
I0403 15:48:26.146008 12645 layer_factory.hpp:77] Creating layer inception_3a/pool
I0403 15:48:26.146026 12645 net.cpp:91] Creating Layer inception_3a/pool
I0403 15:48:26.146056 12645 net.cpp:425] inception_3a/pool <- pool2/3x3_s2_pool2/3x3_s2_0_split_3
I0403 15:48:26.146077 12645 net.cpp:399] inception_3a/pool -> inception_3a/pool
I0403 15:48:26.146133 12645 net.cpp:141] Setting up inception_3a/pool
I0403 15:48:26.146157 12645 net.cpp:148] Top shape: 24 192 28 28 (3612672)
I0403 15:48:26.146170 12645 net.cpp:156] Memory required for data: 556352544
I0403 15:48:26.146184 12645 layer_factory.hpp:77] Creating layer inception_3a/pool_proj
I0403 15:48:26.146209 12645 net.cpp:91] Creating Layer inception_3a/pool_proj
I0403 15:48:26.146226 12645 net.cpp:425] inception_3a/pool_proj <- inception_3a/pool
I0403 15:48:26.146245 12645 net.cpp:399] inception_3a/pool_proj -> inception_3a/pool_proj
I0403 15:48:26.147176 12645 net.cpp:141] Setting up inception_3a/pool_proj
I0403 15:48:26.147203 12645 net.cpp:148] Top shape: 24 32 28 28 (602112)
I0403 15:48:26.147219 12645 net.cpp:156] Memory required for data: 558760992
I0403 15:48:26.147243 12645 layer_factory.hpp:77] Creating layer inception_3a/relu_pool_proj
I0403 15:48:26.147263 12645 net.cpp:91] Creating Layer inception_3a/relu_pool_proj
I0403 15:48:26.147279 12645 net.cpp:425] inception_3a/relu_pool_proj <- inception_3a/pool_proj
I0403 15:48:26.147297 12645 net.cpp:386] inception_3a/relu_pool_proj -> inception_3a/pool_proj (in-place)
I0403 15:48:26.147568 12645 net.cpp:141] Setting up inception_3a/relu_pool_proj
I0403 15:48:26.147596 12645 net.cpp:148] Top shape: 24 32 28 28 (602112)
I0403 15:48:26.147613 12645 net.cpp:156] Memory required for data: 561169440
I0403 15:48:26.147627 12645 layer_factory.hpp:77] Creating layer inception_3a/output
I0403 15:48:26.147644 12645 net.cpp:91] Creating Layer inception_3a/output
I0403 15:48:26.147660 12645 net.cpp:425] inception_3a/output <- inception_3a/1x1
I0403 15:48:26.147676 12645 net.cpp:425] inception_3a/output <- inception_3a/3x3
I0403 15:48:26.147692 12645 net.cpp:425] inception_3a/output <- inception_3a/5x5
I0403 15:48:26.147708 12645 net.cpp:425] inception_3a/output <- inception_3a/pool_proj
I0403 15:48:26.147727 12645 net.cpp:399] inception_3a/output -> inception_3a/output
I0403 15:48:26.147771 12645 net.cpp:141] Setting up inception_3a/output
I0403 15:48:26.147794 12645 net.cpp:148] Top shape: 24 256 28 28 (4816896)
I0403 15:48:26.147809 12645 net.cpp:156] Memory required for data: 580437024
I0403 15:48:26.147822 12645 layer_factory.hpp:77] Creating layer inception_3a/output_inception_3a/output_0_split
I0403 15:48:26.147842 12645 net.cpp:91] Creating Layer inception_3a/output_inception_3a/output_0_split
I0403 15:48:26.147857 12645 net.cpp:425] inception_3a/output_inception_3a/output_0_split <- inception_3a/output
I0403 15:48:26.147876 12645 net.cpp:399] inception_3a/output_inception_3a/output_0_split -> inception_3a/output_inception_3a/output_0_split_0
I0403 15:48:26.147894 12645 net.cpp:399] inception_3a/output_inception_3a/output_0_split -> inception_3a/output_inception_3a/output_0_split_1
I0403 15:48:26.147919 12645 net.cpp:399] inception_3a/output_inception_3a/output_0_split -> inception_3a/output_inception_3a/output_0_split_2
I0403 15:48:26.147941 12645 net.cpp:399] inception_3a/output_inception_3a/output_0_split -> inception_3a/output_inception_3a/output_0_split_3
I0403 15:48:26.148011 12645 net.cpp:141] Setting up inception_3a/output_inception_3a/output_0_split
I0403 15:48:26.148036 12645 net.cpp:148] Top shape: 24 256 28 28 (4816896)
I0403 15:48:26.148052 12645 net.cpp:148] Top shape: 24 256 28 28 (4816896)
I0403 15:48:26.148068 12645 net.cpp:148] Top shape: 24 256 28 28 (4816896)
I0403 15:48:26.148083 12645 net.cpp:148] Top shape: 24 256 28 28 (4816896)
I0403 15:48:26.148097 12645 net.cpp:156] Memory required for data: 657507360
I0403 15:48:26.148111 12645 layer_factory.hpp:77] Creating layer inception_3b/1x1
I0403 15:48:26.148133 12645 net.cpp:91] Creating Layer inception_3b/1x1
I0403 15:48:26.148150 12645 net.cpp:425] inception_3b/1x1 <- inception_3a/output_inception_3a/output_0_split_0
I0403 15:48:26.148169 12645 net.cpp:399] inception_3b/1x1 -> inception_3b/1x1
I0403 15:48:26.149308 12645 net.cpp:141] Setting up inception_3b/1x1
I0403 15:48:26.149351 12645 net.cpp:148] Top shape: 24 128 28 28 (2408448)
I0403 15:48:26.149371 12645 net.cpp:156] Memory required for data: 667141152
I0403 15:48:26.149390 12645 layer_factory.hpp:77] Creating layer inception_3b/relu_1x1
I0403 15:48:26.149408 12645 net.cpp:91] Creating Layer inception_3b/relu_1x1
I0403 15:48:26.149425 12645 net.cpp:425] inception_3b/relu_1x1 <- inception_3b/1x1
I0403 15:48:26.149442 12645 net.cpp:386] inception_3b/relu_1x1 -> inception_3b/1x1 (in-place)
I0403 15:48:26.149636 12645 net.cpp:141] Setting up inception_3b/relu_1x1
I0403 15:48:26.149664 12645 net.cpp:148] Top shape: 24 128 28 28 (2408448)
I0403 15:48:26.149680 12645 net.cpp:156] Memory required for data: 676774944
I0403 15:48:26.149695 12645 layer_factory.hpp:77] Creating layer inception_3b/3x3_reduce
I0403 15:48:26.149718 12645 net.cpp:91] Creating Layer inception_3b/3x3_reduce
I0403 15:48:26.149736 12645 net.cpp:425] inception_3b/3x3_reduce <- inception_3a/output_inception_3a/output_0_split_1
I0403 15:48:26.149755 12645 net.cpp:399] inception_3b/3x3_reduce -> inception_3b/3x3_reduce
I0403 15:48:26.150879 12645 net.cpp:141] Setting up inception_3b/3x3_reduce
I0403 15:48:26.150907 12645 net.cpp:148] Top shape: 24 128 28 28 (2408448)
I0403 15:48:26.150923 12645 net.cpp:156] Memory required for data: 686408736
I0403 15:48:26.150940 12645 layer_factory.hpp:77] Creating layer inception_3b/relu_3x3_reduce
I0403 15:48:26.150960 12645 net.cpp:91] Creating Layer inception_3b/relu_3x3_reduce
I0403 15:48:26.150977 12645 net.cpp:425] inception_3b/relu_3x3_reduce <- inception_3b/3x3_reduce
I0403 15:48:26.150995 12645 net.cpp:386] inception_3b/relu_3x3_reduce -> inception_3b/3x3_reduce (in-place)
I0403 15:48:26.151168 12645 net.cpp:141] Setting up inception_3b/relu_3x3_reduce
I0403 15:48:26.151193 12645 net.cpp:148] Top shape: 24 128 28 28 (2408448)
I0403 15:48:26.151208 12645 net.cpp:156] Memory required for data: 696042528
I0403 15:48:26.151223 12645 layer_factory.hpp:77] Creating layer inception_3b/3x3
I0403 15:48:26.151248 12645 net.cpp:91] Creating Layer inception_3b/3x3
I0403 15:48:26.151268 12645 net.cpp:425] inception_3b/3x3 <- inception_3b/3x3_reduce
I0403 15:48:26.151288 12645 net.cpp:399] inception_3b/3x3 -> inception_3b/3x3
I0403 15:48:26.154201 12645 net.cpp:141] Setting up inception_3b/3x3
I0403 15:48:26.154232 12645 net.cpp:148] Top shape: 24 192 28 28 (3612672)
I0403 15:48:26.154249 12645 net.cpp:156] Memory required for data: 710493216
I0403 15:48:26.154268 12645 layer_factory.hpp:77] Creating layer inception_3b/relu_3x3
I0403 15:48:26.154285 12645 net.cpp:91] Creating Layer inception_3b/relu_3x3
I0403 15:48:26.154301 12645 net.cpp:425] inception_3b/relu_3x3 <- inception_3b/3x3
I0403 15:48:26.154325 12645 net.cpp:386] inception_3b/relu_3x3 -> inception_3b/3x3 (in-place)
I0403 15:48:26.154599 12645 net.cpp:141] Setting up inception_3b/relu_3x3
I0403 15:48:26.154628 12645 net.cpp:148] Top shape: 24 192 28 28 (3612672)
I0403 15:48:26.154644 12645 net.cpp:156] Memory required for data: 724943904
I0403 15:48:26.154659 12645 layer_factory.hpp:77] Creating layer inception_3b/5x5_reduce
I0403 15:48:26.154681 12645 net.cpp:91] Creating Layer inception_3b/5x5_reduce
I0403 15:48:26.154700 12645 net.cpp:425] inception_3b/5x5_reduce <- inception_3a/output_inception_3a/output_0_split_2
I0403 15:48:26.154719 12645 net.cpp:399] inception_3b/5x5_reduce -> inception_3b/5x5_reduce
I0403 15:48:26.155700 12645 net.cpp:141] Setting up inception_3b/5x5_reduce
I0403 15:48:26.155730 12645 net.cpp:148] Top shape: 24 32 28 28 (602112)
I0403 15:48:26.155746 12645 net.cpp:156] Memory required for data: 727352352
I0403 15:48:26.155764 12645 layer_factory.hpp:77] Creating layer inception_3b/relu_5x5_reduce
I0403 15:48:26.155782 12645 net.cpp:91] Creating Layer inception_3b/relu_5x5_reduce
I0403 15:48:26.155798 12645 net.cpp:425] inception_3b/relu_5x5_reduce <- inception_3b/5x5_reduce
I0403 15:48:26.155818 12645 net.cpp:386] inception_3b/relu_5x5_reduce -> inception_3b/5x5_reduce (in-place)
I0403 15:48:26.156008 12645 net.cpp:141] Setting up inception_3b/relu_5x5_reduce
I0403 15:48:26.156033 12645 net.cpp:148] Top shape: 24 32 28 28 (602112)
I0403 15:48:26.156047 12645 net.cpp:156] Memory required for data: 729760800
I0403 15:48:26.156062 12645 layer_factory.hpp:77] Creating layer inception_3b/5x5
I0403 15:48:26.156085 12645 net.cpp:91] Creating Layer inception_3b/5x5
I0403 15:48:26.156102 12645 net.cpp:425] inception_3b/5x5 <- inception_3b/5x5_reduce
I0403 15:48:26.156123 12645 net.cpp:399] inception_3b/5x5 -> inception_3b/5x5
I0403 15:48:26.158064 12645 net.cpp:141] Setting up inception_3b/5x5
I0403 15:48:26.158092 12645 net.cpp:148] Top shape: 24 96 28 28 (1806336)
I0403 15:48:26.158108 12645 net.cpp:156] Memory required for data: 736986144
I0403 15:48:26.158128 12645 layer_factory.hpp:77] Creating layer inception_3b/relu_5x5
I0403 15:48:26.158148 12645 net.cpp:91] Creating Layer inception_3b/relu_5x5
I0403 15:48:26.158165 12645 net.cpp:425] inception_3b/relu_5x5 <- inception_3b/5x5
I0403 15:48:26.158182 12645 net.cpp:386] inception_3b/relu_5x5 -> inception_3b/5x5 (in-place)
I0403 15:48:26.158382 12645 net.cpp:141] Setting up inception_3b/relu_5x5
I0403 15:48:26.158408 12645 net.cpp:148] Top shape: 24 96 28 28 (1806336)
I0403 15:48:26.158424 12645 net.cpp:156] Memory required for data: 744211488
I0403 15:48:26.158439 12645 layer_factory.hpp:77] Creating layer inception_3b/pool
I0403 15:48:26.158457 12645 net.cpp:91] Creating Layer inception_3b/pool
I0403 15:48:26.158473 12645 net.cpp:425] inception_3b/pool <- inception_3a/output_inception_3a/output_0_split_3
I0403 15:48:26.158491 12645 net.cpp:399] inception_3b/pool -> inception_3b/pool
I0403 15:48:26.158547 12645 net.cpp:141] Setting up inception_3b/pool
I0403 15:48:26.158571 12645 net.cpp:148] Top shape: 24 256 28 28 (4816896)
I0403 15:48:26.158586 12645 net.cpp:156] Memory required for data: 763479072
I0403 15:48:26.158610 12645 layer_factory.hpp:77] Creating layer inception_3b/pool_proj
I0403 15:48:26.158634 12645 net.cpp:91] Creating Layer inception_3b/pool_proj
I0403 15:48:26.158653 12645 net.cpp:425] inception_3b/pool_proj <- inception_3b/pool
I0403 15:48:26.158670 12645 net.cpp:399] inception_3b/pool_proj -> inception_3b/pool_proj
I0403 15:48:26.159710 12645 net.cpp:141] Setting up inception_3b/pool_proj
I0403 15:48:26.159737 12645 net.cpp:148] Top shape: 24 64 28 28 (1204224)
I0403 15:48:26.159754 12645 net.cpp:156] Memory required for data: 768295968
I0403 15:48:26.159772 12645 layer_factory.hpp:77] Creating layer inception_3b/relu_pool_proj
I0403 15:48:26.159790 12645 net.cpp:91] Creating Layer inception_3b/relu_pool_proj
I0403 15:48:26.159807 12645 net.cpp:425] inception_3b/relu_pool_proj <- inception_3b/pool_proj
I0403 15:48:26.159826 12645 net.cpp:386] inception_3b/relu_pool_proj -> inception_3b/pool_proj (in-place)
I0403 15:48:26.160205 12645 net.cpp:141] Setting up inception_3b/relu_pool_proj
I0403 15:48:26.160233 12645 net.cpp:148] Top shape: 24 64 28 28 (1204224)
I0403 15:48:26.160248 12645 net.cpp:156] Memory required for data: 773112864
I0403 15:48:26.160262 12645 layer_factory.hpp:77] Creating layer inception_3b/output
I0403 15:48:26.160280 12645 net.cpp:91] Creating Layer inception_3b/output
I0403 15:48:26.160296 12645 net.cpp:425] inception_3b/output <- inception_3b/1x1
I0403 15:48:26.160313 12645 net.cpp:425] inception_3b/output <- inception_3b/3x3
I0403 15:48:26.160334 12645 net.cpp:425] inception_3b/output <- inception_3b/5x5
I0403 15:48:26.160351 12645 net.cpp:425] inception_3b/output <- inception_3b/pool_proj
I0403 15:48:26.160370 12645 net.cpp:399] inception_3b/output -> inception_3b/output
I0403 15:48:26.160414 12645 net.cpp:141] Setting up inception_3b/output
I0403 15:48:26.160439 12645 net.cpp:148] Top shape: 24 480 28 28 (9031680)
I0403 15:48:26.160455 12645 net.cpp:156] Memory required for data: 809239584
I0403 15:48:26.160470 12645 layer_factory.hpp:77] Creating layer pool3/3x3_s2
I0403 15:48:26.160487 12645 net.cpp:91] Creating Layer pool3/3x3_s2
I0403 15:48:26.160502 12645 net.cpp:425] pool3/3x3_s2 <- inception_3b/output
I0403 15:48:26.160537 12645 net.cpp:399] pool3/3x3_s2 -> pool3/3x3_s2
I0403 15:48:26.160595 12645 net.cpp:141] Setting up pool3/3x3_s2
I0403 15:48:26.160619 12645 net.cpp:148] Top shape: 24 480 14 14 (2257920)
I0403 15:48:26.160634 12645 net.cpp:156] Memory required for data: 818271264
I0403 15:48:26.160650 12645 layer_factory.hpp:77] Creating layer pool3/3x3_s2_pool3/3x3_s2_0_split
I0403 15:48:26.160668 12645 net.cpp:91] Creating Layer pool3/3x3_s2_pool3/3x3_s2_0_split
I0403 15:48:26.160684 12645 net.cpp:425] pool3/3x3_s2_pool3/3x3_s2_0_split <- pool3/3x3_s2
I0403 15:48:26.160701 12645 net.cpp:399] pool3/3x3_s2_pool3/3x3_s2_0_split -> pool3/3x3_s2_pool3/3x3_s2_0_split_0
I0403 15:48:26.160722 12645 net.cpp:399] pool3/3x3_s2_pool3/3x3_s2_0_split -> pool3/3x3_s2_pool3/3x3_s2_0_split_1
I0403 15:48:26.160740 12645 net.cpp:399] pool3/3x3_s2_pool3/3x3_s2_0_split -> pool3/3x3_s2_pool3/3x3_s2_0_split_2
I0403 15:48:26.160760 12645 net.cpp:399] pool3/3x3_s2_pool3/3x3_s2_0_split -> pool3/3x3_s2_pool3/3x3_s2_0_split_3
I0403 15:48:26.160837 12645 net.cpp:141] Setting up pool3/3x3_s2_pool3/3x3_s2_0_split
I0403 15:48:26.160859 12645 net.cpp:148] Top shape: 24 480 14 14 (2257920)
I0403 15:48:26.160876 12645 net.cpp:148] Top shape: 24 480 14 14 (2257920)
I0403 15:48:26.160892 12645 net.cpp:148] Top shape: 24 480 14 14 (2257920)
I0403 15:48:26.160907 12645 net.cpp:148] Top shape: 24 480 14 14 (2257920)
I0403 15:48:26.160920 12645 net.cpp:156] Memory required for data: 854397984
I0403 15:48:26.160934 12645 layer_factory.hpp:77] Creating layer inception_4a/1x1
I0403 15:48:26.160958 12645 net.cpp:91] Creating Layer inception_4a/1x1
I0403 15:48:26.160975 12645 net.cpp:425] inception_4a/1x1 <- pool3/3x3_s2_pool3/3x3_s2_0_split_0
I0403 15:48:26.160996 12645 net.cpp:399] inception_4a/1x1 -> inception_4a/1x1
I0403 15:48:26.162554 12645 net.cpp:141] Setting up inception_4a/1x1
I0403 15:48:26.162581 12645 net.cpp:148] Top shape: 24 192 14 14 (903168)
I0403 15:48:26.162597 12645 net.cpp:156] Memory required for data: 858010656
I0403 15:48:26.162616 12645 layer_factory.hpp:77] Creating layer inception_4a/relu_1x1
I0403 15:48:26.162636 12645 net.cpp:91] Creating Layer inception_4a/relu_1x1
I0403 15:48:26.162654 12645 net.cpp:425] inception_4a/relu_1x1 <- inception_4a/1x1
I0403 15:48:26.162672 12645 net.cpp:386] inception_4a/relu_1x1 -> inception_4a/1x1 (in-place)
I0403 15:48:26.162844 12645 net.cpp:141] Setting up inception_4a/relu_1x1
I0403 15:48:26.162873 12645 net.cpp:148] Top shape: 24 192 14 14 (903168)
I0403 15:48:26.162889 12645 net.cpp:156] Memory required for data: 861623328
I0403 15:48:26.162904 12645 layer_factory.hpp:77] Creating layer inception_4a/3x3_reduce
I0403 15:48:26.162926 12645 net.cpp:91] Creating Layer inception_4a/3x3_reduce
I0403 15:48:26.162945 12645 net.cpp:425] inception_4a/3x3_reduce <- pool3/3x3_s2_pool3/3x3_s2_0_split_1
I0403 15:48:26.162963 12645 net.cpp:399] inception_4a/3x3_reduce -> inception_4a/3x3_reduce
I0403 15:48:26.164234 12645 net.cpp:141] Setting up inception_4a/3x3_reduce
I0403 15:48:26.164263 12645 net.cpp:148] Top shape: 24 96 14 14 (451584)
I0403 15:48:26.164278 12645 net.cpp:156] Memory required for data: 863429664
I0403 15:48:26.164302 12645 layer_factory.hpp:77] Creating layer inception_4a/relu_3x3_reduce
I0403 15:48:26.164326 12645 net.cpp:91] Creating Layer inception_4a/relu_3x3_reduce
I0403 15:48:26.164345 12645 net.cpp:425] inception_4a/relu_3x3_reduce <- inception_4a/3x3_reduce
I0403 15:48:26.164364 12645 net.cpp:386] inception_4a/relu_3x3_reduce -> inception_4a/3x3_reduce (in-place)
I0403 15:48:26.164541 12645 net.cpp:141] Setting up inception_4a/relu_3x3_reduce
I0403 15:48:26.164566 12645 net.cpp:148] Top shape: 24 96 14 14 (451584)
I0403 15:48:26.164582 12645 net.cpp:156] Memory required for data: 865236000
I0403 15:48:26.164597 12645 layer_factory.hpp:77] Creating layer inception_4a/3x3
I0403 15:48:26.164619 12645 net.cpp:91] Creating Layer inception_4a/3x3
I0403 15:48:26.164638 12645 net.cpp:425] inception_4a/3x3 <- inception_4a/3x3_reduce
I0403 15:48:26.164659 12645 net.cpp:399] inception_4a/3x3 -> inception_4a/3x3
I0403 15:48:26.167294 12645 net.cpp:141] Setting up inception_4a/3x3
I0403 15:48:26.167325 12645 net.cpp:148] Top shape: 24 208 14 14 (978432)
I0403 15:48:26.167342 12645 net.cpp:156] Memory required for data: 869149728
I0403 15:48:26.167361 12645 layer_factory.hpp:77] Creating layer inception_4a/relu_3x3
I0403 15:48:26.167382 12645 net.cpp:91] Creating Layer inception_4a/relu_3x3
I0403 15:48:26.167398 12645 net.cpp:425] inception_4a/relu_3x3 <- inception_4a/3x3
I0403 15:48:26.167438 12645 net.cpp:386] inception_4a/relu_3x3 -> inception_4a/3x3 (in-place)
I0403 15:48:26.167711 12645 net.cpp:141] Setting up inception_4a/relu_3x3
I0403 15:48:26.167747 12645 net.cpp:148] Top shape: 24 208 14 14 (978432)
I0403 15:48:26.167760 12645 net.cpp:156] Memory required for data: 873063456
I0403 15:48:26.167775 12645 layer_factory.hpp:77] Creating layer inception_4a/5x5_reduce
I0403 15:48:26.167800 12645 net.cpp:91] Creating Layer inception_4a/5x5_reduce
I0403 15:48:26.167817 12645 net.cpp:425] inception_4a/5x5_reduce <- pool3/3x3_s2_pool3/3x3_s2_0_split_2
I0403 15:48:26.167835 12645 net.cpp:399] inception_4a/5x5_reduce -> inception_4a/5x5_reduce
I0403 15:48:26.168807 12645 net.cpp:141] Setting up inception_4a/5x5_reduce
I0403 15:48:26.168835 12645 net.cpp:148] Top shape: 24 16 14 14 (75264)
I0403 15:48:26.168851 12645 net.cpp:156] Memory required for data: 873364512
I0403 15:48:26.168869 12645 layer_factory.hpp:77] Creating layer inception_4a/relu_5x5_reduce
I0403 15:48:26.168886 12645 net.cpp:91] Creating Layer inception_4a/relu_5x5_reduce
I0403 15:48:26.168902 12645 net.cpp:425] inception_4a/relu_5x5_reduce <- inception_4a/5x5_reduce
I0403 15:48:26.168921 12645 net.cpp:386] inception_4a/relu_5x5_reduce -> inception_4a/5x5_reduce (in-place)
I0403 15:48:26.169093 12645 net.cpp:141] Setting up inception_4a/relu_5x5_reduce
I0403 15:48:26.169117 12645 net.cpp:148] Top shape: 24 16 14 14 (75264)
I0403 15:48:26.169131 12645 net.cpp:156] Memory required for data: 873665568
I0403 15:48:26.169145 12645 layer_factory.hpp:77] Creating layer inception_4a/5x5
I0403 15:48:26.169167 12645 net.cpp:91] Creating Layer inception_4a/5x5
I0403 15:48:26.169185 12645 net.cpp:425] inception_4a/5x5 <- inception_4a/5x5_reduce
I0403 15:48:26.169206 12645 net.cpp:399] inception_4a/5x5 -> inception_4a/5x5
I0403 15:48:26.170251 12645 net.cpp:141] Setting up inception_4a/5x5
I0403 15:48:26.170277 12645 net.cpp:148] Top shape: 24 48 14 14 (225792)
I0403 15:48:26.170294 12645 net.cpp:156] Memory required for data: 874568736
I0403 15:48:26.170311 12645 layer_factory.hpp:77] Creating layer inception_4a/relu_5x5
I0403 15:48:26.170336 12645 net.cpp:91] Creating Layer inception_4a/relu_5x5
I0403 15:48:26.170353 12645 net.cpp:425] inception_4a/relu_5x5 <- inception_4a/5x5
I0403 15:48:26.170369 12645 net.cpp:386] inception_4a/relu_5x5 -> inception_4a/5x5 (in-place)
I0403 15:48:26.170544 12645 net.cpp:141] Setting up inception_4a/relu_5x5
I0403 15:48:26.170568 12645 net.cpp:148] Top shape: 24 48 14 14 (225792)
I0403 15:48:26.170583 12645 net.cpp:156] Memory required for data: 875471904
I0403 15:48:26.170598 12645 layer_factory.hpp:77] Creating layer inception_4a/pool
I0403 15:48:26.170616 12645 net.cpp:91] Creating Layer inception_4a/pool
I0403 15:48:26.170634 12645 net.cpp:425] inception_4a/pool <- pool3/3x3_s2_pool3/3x3_s2_0_split_3
I0403 15:48:26.170651 12645 net.cpp:399] inception_4a/pool -> inception_4a/pool
I0403 15:48:26.170711 12645 net.cpp:141] Setting up inception_4a/pool
I0403 15:48:26.170733 12645 net.cpp:148] Top shape: 24 480 14 14 (2257920)
I0403 15:48:26.170748 12645 net.cpp:156] Memory required for data: 884503584
I0403 15:48:26.170763 12645 layer_factory.hpp:77] Creating layer inception_4a/pool_proj
I0403 15:48:26.170785 12645 net.cpp:91] Creating Layer inception_4a/pool_proj
I0403 15:48:26.170802 12645 net.cpp:425] inception_4a/pool_proj <- inception_4a/pool
I0403 15:48:26.170822 12645 net.cpp:399] inception_4a/pool_proj -> inception_4a/pool_proj
I0403 15:48:26.171933 12645 net.cpp:141] Setting up inception_4a/pool_proj
I0403 15:48:26.171959 12645 net.cpp:148] Top shape: 24 64 14 14 (301056)
I0403 15:48:26.171988 12645 net.cpp:156] Memory required for data: 885707808
I0403 15:48:26.172008 12645 layer_factory.hpp:77] Creating layer inception_4a/relu_pool_proj
I0403 15:48:26.172029 12645 net.cpp:91] Creating Layer inception_4a/relu_pool_proj
I0403 15:48:26.172045 12645 net.cpp:425] inception_4a/relu_pool_proj <- inception_4a/pool_proj
I0403 15:48:26.172063 12645 net.cpp:386] inception_4a/relu_pool_proj -> inception_4a/pool_proj (in-place)
I0403 15:48:26.172335 12645 net.cpp:141] Setting up inception_4a/relu_pool_proj
I0403 15:48:26.172360 12645 net.cpp:148] Top shape: 24 64 14 14 (301056)
I0403 15:48:26.172375 12645 net.cpp:156] Memory required for data: 886912032
I0403 15:48:26.172390 12645 layer_factory.hpp:77] Creating layer inception_4a/output
I0403 15:48:26.172407 12645 net.cpp:91] Creating Layer inception_4a/output
I0403 15:48:26.172426 12645 net.cpp:425] inception_4a/output <- inception_4a/1x1
I0403 15:48:26.172443 12645 net.cpp:425] inception_4a/output <- inception_4a/3x3
I0403 15:48:26.172458 12645 net.cpp:425] inception_4a/output <- inception_4a/5x5
I0403 15:48:26.172473 12645 net.cpp:425] inception_4a/output <- inception_4a/pool_proj
I0403 15:48:26.172490 12645 net.cpp:399] inception_4a/output -> inception_4a/output
I0403 15:48:26.172531 12645 net.cpp:141] Setting up inception_4a/output
I0403 15:48:26.172556 12645 net.cpp:148] Top shape: 24 512 14 14 (2408448)
I0403 15:48:26.172572 12645 net.cpp:156] Memory required for data: 896545824
I0403 15:48:26.172587 12645 layer_factory.hpp:77] Creating layer inception_4a/output_inception_4a/output_0_split
I0403 15:48:26.172605 12645 net.cpp:91] Creating Layer inception_4a/output_inception_4a/output_0_split
I0403 15:48:26.172621 12645 net.cpp:425] inception_4a/output_inception_4a/output_0_split <- inception_4a/output
I0403 15:48:26.172639 12645 net.cpp:399] inception_4a/output_inception_4a/output_0_split -> inception_4a/output_inception_4a/output_0_split_0
I0403 15:48:26.172660 12645 net.cpp:399] inception_4a/output_inception_4a/output_0_split -> inception_4a/output_inception_4a/output_0_split_1
I0403 15:48:26.172680 12645 net.cpp:399] inception_4a/output_inception_4a/output_0_split -> inception_4a/output_inception_4a/output_0_split_2
I0403 15:48:26.172699 12645 net.cpp:399] inception_4a/output_inception_4a/output_0_split -> inception_4a/output_inception_4a/output_0_split_3
I0403 15:48:26.172719 12645 net.cpp:399] inception_4a/output_inception_4a/output_0_split -> inception_4a/output_inception_4a/output_0_split_4
I0403 15:48:26.172806 12645 net.cpp:141] Setting up inception_4a/output_inception_4a/output_0_split
I0403 15:48:26.172829 12645 net.cpp:148] Top shape: 24 512 14 14 (2408448)
I0403 15:48:26.172847 12645 net.cpp:148] Top shape: 24 512 14 14 (2408448)
I0403 15:48:26.172863 12645 net.cpp:148] Top shape: 24 512 14 14 (2408448)
I0403 15:48:26.172878 12645 net.cpp:148] Top shape: 24 512 14 14 (2408448)
I0403 15:48:26.172894 12645 net.cpp:148] Top shape: 24 512 14 14 (2408448)
I0403 15:48:26.172906 12645 net.cpp:156] Memory required for data: 944714784
I0403 15:48:26.172920 12645 layer_factory.hpp:77] Creating layer loss1/ave_pool
I0403 15:48:26.172937 12645 net.cpp:91] Creating Layer loss1/ave_pool
I0403 15:48:26.172953 12645 net.cpp:425] loss1/ave_pool <- inception_4a/output_inception_4a/output_0_split_0
I0403 15:48:26.172972 12645 net.cpp:399] loss1/ave_pool -> loss1/ave_pool
I0403 15:48:26.173166 12645 net.cpp:141] Setting up loss1/ave_pool
I0403 15:48:26.173192 12645 net.cpp:148] Top shape: 24 512 4 4 (196608)
I0403 15:48:26.173207 12645 net.cpp:156] Memory required for data: 945501216
I0403 15:48:26.173221 12645 layer_factory.hpp:77] Creating layer loss1/conv
I0403 15:48:26.173243 12645 net.cpp:91] Creating Layer loss1/conv
I0403 15:48:26.173260 12645 net.cpp:425] loss1/conv <- loss1/ave_pool
I0403 15:48:26.173283 12645 net.cpp:399] loss1/conv -> loss1/conv
I0403 15:48:26.174634 12645 net.cpp:141] Setting up loss1/conv
I0403 15:48:26.174661 12645 net.cpp:148] Top shape: 24 128 4 4 (49152)
I0403 15:48:26.174690 12645 net.cpp:156] Memory required for data: 945697824
I0403 15:48:26.174708 12645 layer_factory.hpp:77] Creating layer loss1/relu_conv
I0403 15:48:26.174729 12645 net.cpp:91] Creating Layer loss1/relu_conv
I0403 15:48:26.174746 12645 net.cpp:425] loss1/relu_conv <- loss1/conv
I0403 15:48:26.174762 12645 net.cpp:386] loss1/relu_conv -> loss1/conv (in-place)
I0403 15:48:26.175031 12645 net.cpp:141] Setting up loss1/relu_conv
I0403 15:48:26.175057 12645 net.cpp:148] Top shape: 24 128 4 4 (49152)
I0403 15:48:26.175072 12645 net.cpp:156] Memory required for data: 945894432
I0403 15:48:26.175087 12645 layer_factory.hpp:77] Creating layer loss1/fc
I0403 15:48:26.175113 12645 net.cpp:91] Creating Layer loss1/fc
I0403 15:48:26.175132 12645 net.cpp:425] loss1/fc <- loss1/conv
I0403 15:48:26.175151 12645 net.cpp:399] loss1/fc -> loss1/fc
I0403 15:48:26.192677 12645 net.cpp:141] Setting up loss1/fc
I0403 15:48:26.192710 12645 net.cpp:148] Top shape: 24 1024 (24576)
I0403 15:48:26.192728 12645 net.cpp:156] Memory required for data: 945992736
I0403 15:48:26.192745 12645 layer_factory.hpp:77] Creating layer loss1/relu_fc
I0403 15:48:26.192764 12645 net.cpp:91] Creating Layer loss1/relu_fc
I0403 15:48:26.192780 12645 net.cpp:425] loss1/relu_fc <- loss1/fc
I0403 15:48:26.192800 12645 net.cpp:386] loss1/relu_fc -> loss1/fc (in-place)
I0403 15:48:26.192984 12645 net.cpp:141] Setting up loss1/relu_fc
I0403 15:48:26.193011 12645 net.cpp:148] Top shape: 24 1024 (24576)
I0403 15:48:26.193028 12645 net.cpp:156] Memory required for data: 946091040
I0403 15:48:26.193043 12645 layer_factory.hpp:77] Creating layer loss1/drop_fc
I0403 15:48:26.193069 12645 net.cpp:91] Creating Layer loss1/drop_fc
I0403 15:48:26.193087 12645 net.cpp:425] loss1/drop_fc <- loss1/fc
I0403 15:48:26.193105 12645 net.cpp:386] loss1/drop_fc -> loss1/fc (in-place)
I0403 15:48:26.193163 12645 net.cpp:141] Setting up loss1/drop_fc
I0403 15:48:26.193187 12645 net.cpp:148] Top shape: 24 1024 (24576)
I0403 15:48:26.193202 12645 net.cpp:156] Memory required for data: 946189344
I0403 15:48:26.193217 12645 layer_factory.hpp:77] Creating layer loss1/classifier_plantvillage
I0403 15:48:26.193235 12645 net.cpp:91] Creating Layer loss1/classifier_plantvillage
I0403 15:48:26.193253 12645 net.cpp:425] loss1/classifier_plantvillage <- loss1/fc
I0403 15:48:26.193274 12645 net.cpp:399] loss1/classifier_plantvillage -> loss1/classifier_plantvillage
I0403 15:48:26.194196 12645 net.cpp:141] Setting up loss1/classifier_plantvillage
I0403 15:48:26.194224 12645 net.cpp:148] Top shape: 24 38 (912)
I0403 15:48:26.194239 12645 net.cpp:156] Memory required for data: 946192992
I0403 15:48:26.194258 12645 layer_factory.hpp:77] Creating layer loss1/classifier_plantvillage_loss1/classifier_plantvillage_0_split
I0403 15:48:26.194279 12645 net.cpp:91] Creating Layer loss1/classifier_plantvillage_loss1/classifier_plantvillage_0_split
I0403 15:48:26.194298 12645 net.cpp:425] loss1/classifier_plantvillage_loss1/classifier_plantvillage_0_split <- loss1/classifier_plantvillage
I0403 15:48:26.194314 12645 net.cpp:399] loss1/classifier_plantvillage_loss1/classifier_plantvillage_0_split -> loss1/classifier_plantvillage_loss1/classifier_plantvillage_0_split_0
I0403 15:48:26.194340 12645 net.cpp:399] loss1/classifier_plantvillage_loss1/classifier_plantvillage_0_split -> loss1/classifier_plantvillage_loss1/classifier_plantvillage_0_split_1
I0403 15:48:26.194363 12645 net.cpp:399] loss1/classifier_plantvillage_loss1/classifier_plantvillage_0_split -> loss1/classifier_plantvillage_loss1/classifier_plantvillage_0_split_2
I0403 15:48:26.194433 12645 net.cpp:141] Setting up loss1/classifier_plantvillage_loss1/classifier_plantvillage_0_split
I0403 15:48:26.194456 12645 net.cpp:148] Top shape: 24 38 (912)
I0403 15:48:26.194473 12645 net.cpp:148] Top shape: 24 38 (912)
I0403 15:48:26.194489 12645 net.cpp:148] Top shape: 24 38 (912)
I0403 15:48:26.194504 12645 net.cpp:156] Memory required for data: 946203936
I0403 15:48:26.194519 12645 layer_factory.hpp:77] Creating layer inception_4b/1x1
I0403 15:48:26.194540 12645 net.cpp:91] Creating Layer inception_4b/1x1
I0403 15:48:26.194574 12645 net.cpp:425] inception_4b/1x1 <- inception_4a/output_inception_4a/output_0_split_1
I0403 15:48:26.194594 12645 net.cpp:399] inception_4b/1x1 -> inception_4b/1x1
I0403 15:48:26.196195 12645 net.cpp:141] Setting up inception_4b/1x1
I0403 15:48:26.196226 12645 net.cpp:148] Top shape: 24 160 14 14 (752640)
I0403 15:48:26.196256 12645 net.cpp:156] Memory required for data: 949214496
I0403 15:48:26.196275 12645 layer_factory.hpp:77] Creating layer inception_4b/relu_1x1
I0403 15:48:26.196295 12645 net.cpp:91] Creating Layer inception_4b/relu_1x1
I0403 15:48:26.196310 12645 net.cpp:425] inception_4b/relu_1x1 <- inception_4b/1x1
I0403 15:48:26.196336 12645 net.cpp:386] inception_4b/relu_1x1 -> inception_4b/1x1 (in-place)
I0403 15:48:26.196516 12645 net.cpp:141] Setting up inception_4b/relu_1x1
I0403 15:48:26.196542 12645 net.cpp:148] Top shape: 24 160 14 14 (752640)
I0403 15:48:26.196557 12645 net.cpp:156] Memory required for data: 952225056
I0403 15:48:26.196573 12645 layer_factory.hpp:77] Creating layer inception_4b/3x3_reduce
I0403 15:48:26.196598 12645 net.cpp:91] Creating Layer inception_4b/3x3_reduce
I0403 15:48:26.196616 12645 net.cpp:425] inception_4b/3x3_reduce <- inception_4a/output_inception_4a/output_0_split_2
I0403 15:48:26.196637 12645 net.cpp:399] inception_4b/3x3_reduce -> inception_4b/3x3_reduce
I0403 15:48:26.197988 12645 net.cpp:141] Setting up inception_4b/3x3_reduce
I0403 15:48:26.198014 12645 net.cpp:148] Top shape: 24 112 14 14 (526848)
I0403 15:48:26.198030 12645 net.cpp:156] Memory required for data: 954332448
I0403 15:48:26.198050 12645 layer_factory.hpp:77] Creating layer inception_4b/relu_3x3_reduce
I0403 15:48:26.198068 12645 net.cpp:91] Creating Layer inception_4b/relu_3x3_reduce
I0403 15:48:26.198086 12645 net.cpp:425] inception_4b/relu_3x3_reduce <- inception_4b/3x3_reduce
I0403 15:48:26.198106 12645 net.cpp:386] inception_4b/relu_3x3_reduce -> inception_4b/3x3_reduce (in-place)
I0403 15:48:26.198387 12645 net.cpp:141] Setting up inception_4b/relu_3x3_reduce
I0403 15:48:26.198415 12645 net.cpp:148] Top shape: 24 112 14 14 (526848)
I0403 15:48:26.198431 12645 net.cpp:156] Memory required for data: 956439840
I0403 15:48:26.198446 12645 layer_factory.hpp:77] Creating layer inception_4b/3x3
I0403 15:48:26.198468 12645 net.cpp:91] Creating Layer inception_4b/3x3
I0403 15:48:26.198487 12645 net.cpp:425] inception_4b/3x3 <- inception_4b/3x3_reduce
I0403 15:48:26.198508 12645 net.cpp:399] inception_4b/3x3 -> inception_4b/3x3
I0403 15:48:26.201472 12645 net.cpp:141] Setting up inception_4b/3x3
I0403 15:48:26.201501 12645 net.cpp:148] Top shape: 24 224 14 14 (1053696)
I0403 15:48:26.201519 12645 net.cpp:156] Memory required for data: 960654624
I0403 15:48:26.201537 12645 layer_factory.hpp:77] Creating layer inception_4b/relu_3x3
I0403 15:48:26.201558 12645 net.cpp:91] Creating Layer inception_4b/relu_3x3
I0403 15:48:26.201577 12645 net.cpp:425] inception_4b/relu_3x3 <- inception_4b/3x3
I0403 15:48:26.201598 12645 net.cpp:386] inception_4b/relu_3x3 -> inception_4b/3x3 (in-place)
I0403 15:48:26.201800 12645 net.cpp:141] Setting up inception_4b/relu_3x3
I0403 15:48:26.201828 12645 net.cpp:148] Top shape: 24 224 14 14 (1053696)
I0403 15:48:26.201844 12645 net.cpp:156] Memory required for data: 964869408
I0403 15:48:26.201859 12645 layer_factory.hpp:77] Creating layer inception_4b/5x5_reduce
I0403 15:48:26.201892 12645 net.cpp:91] Creating Layer inception_4b/5x5_reduce
I0403 15:48:26.201910 12645 net.cpp:425] inception_4b/5x5_reduce <- inception_4a/output_inception_4a/output_0_split_3
I0403 15:48:26.201930 12645 net.cpp:399] inception_4b/5x5_reduce -> inception_4b/5x5_reduce
I0403 15:48:26.203006 12645 net.cpp:141] Setting up inception_4b/5x5_reduce
I0403 15:48:26.203035 12645 net.cpp:148] Top shape: 24 24 14 14 (112896)
I0403 15:48:26.203052 12645 net.cpp:156] Memory required for data: 965320992
I0403 15:48:26.203069 12645 layer_factory.hpp:77] Creating layer inception_4b/relu_5x5_reduce
I0403 15:48:26.203088 12645 net.cpp:91] Creating Layer inception_4b/relu_5x5_reduce
I0403 15:48:26.203119 12645 net.cpp:425] inception_4b/relu_5x5_reduce <- inception_4b/5x5_reduce
I0403 15:48:26.203140 12645 net.cpp:386] inception_4b/relu_5x5_reduce -> inception_4b/5x5_reduce (in-place)
I0403 15:48:26.203336 12645 net.cpp:141] Setting up inception_4b/relu_5x5_reduce
I0403 15:48:26.203361 12645 net.cpp:148] Top shape: 24 24 14 14 (112896)
I0403 15:48:26.203375 12645 net.cpp:156] Memory required for data: 965772576
I0403 15:48:26.203392 12645 layer_factory.hpp:77] Creating layer inception_4b/5x5
I0403 15:48:26.203413 12645 net.cpp:91] Creating Layer inception_4b/5x5
I0403 15:48:26.203431 12645 net.cpp:425] inception_4b/5x5 <- inception_4b/5x5_reduce
I0403 15:48:26.203452 12645 net.cpp:399] inception_4b/5x5 -> inception_4b/5x5
I0403 15:48:26.204663 12645 net.cpp:141] Setting up inception_4b/5x5
I0403 15:48:26.204692 12645 net.cpp:148] Top shape: 24 64 14 14 (301056)
I0403 15:48:26.204710 12645 net.cpp:156] Memory required for data: 966976800
I0403 15:48:26.204727 12645 layer_factory.hpp:77] Creating layer inception_4b/relu_5x5
I0403 15:48:26.204746 12645 net.cpp:91] Creating Layer inception_4b/relu_5x5
I0403 15:48:26.204762 12645 net.cpp:425] inception_4b/relu_5x5 <- inception_4b/5x5
I0403 15:48:26.204782 12645 net.cpp:386] inception_4b/relu_5x5 -> inception_4b/5x5 (in-place)
I0403 15:48:26.205070 12645 net.cpp:141] Setting up inception_4b/relu_5x5
I0403 15:48:26.205099 12645 net.cpp:148] Top shape: 24 64 14 14 (301056)
I0403 15:48:26.205116 12645 net.cpp:156] Memory required for data: 968181024
I0403 15:48:26.205130 12645 layer_factory.hpp:77] Creating layer inception_4b/pool
I0403 15:48:26.205148 12645 net.cpp:91] Creating Layer inception_4b/pool
I0403 15:48:26.205165 12645 net.cpp:425] inception_4b/pool <- inception_4a/output_inception_4a/output_0_split_4
I0403 15:48:26.205186 12645 net.cpp:399] inception_4b/pool -> inception_4b/pool
I0403 15:48:26.205270 12645 net.cpp:141] Setting up inception_4b/pool
I0403 15:48:26.205293 12645 net.cpp:148] Top shape: 24 512 14 14 (2408448)
I0403 15:48:26.205307 12645 net.cpp:156] Memory required for data: 977814816
I0403 15:48:26.205339 12645 layer_factory.hpp:77] Creating layer inception_4b/pool_proj
I0403 15:48:26.205363 12645 net.cpp:91] Creating Layer inception_4b/pool_proj
I0403 15:48:26.205380 12645 net.cpp:425] inception_4b/pool_proj <- inception_4b/pool
I0403 15:48:26.205402 12645 net.cpp:399] inception_4b/pool_proj -> inception_4b/pool_proj
I0403 15:48:26.206593 12645 net.cpp:141] Setting up inception_4b/pool_proj
I0403 15:48:26.206621 12645 net.cpp:148] Top shape: 24 64 14 14 (301056)
I0403 15:48:26.206637 12645 net.cpp:156] Memory required for data: 979019040
I0403 15:48:26.206655 12645 layer_factory.hpp:77] Creating layer inception_4b/relu_pool_proj
I0403 15:48:26.206673 12645 net.cpp:91] Creating Layer inception_4b/relu_pool_proj
I0403 15:48:26.206688 12645 net.cpp:425] inception_4b/relu_pool_proj <- inception_4b/pool_proj
I0403 15:48:26.206708 12645 net.cpp:386] inception_4b/relu_pool_proj -> inception_4b/pool_proj (in-place)
I0403 15:48:26.206882 12645 net.cpp:141] Setting up inception_4b/relu_pool_proj
I0403 15:48:26.206907 12645 net.cpp:148] Top shape: 24 64 14 14 (301056)
I0403 15:48:26.206920 12645 net.cpp:156] Memory required for data: 980223264
I0403 15:48:26.206934 12645 layer_factory.hpp:77] Creating layer inception_4b/output
I0403 15:48:26.206951 12645 net.cpp:91] Creating Layer inception_4b/output
I0403 15:48:26.206966 12645 net.cpp:425] inception_4b/output <- inception_4b/1x1
I0403 15:48:26.206984 12645 net.cpp:425] inception_4b/output <- inception_4b/3x3
I0403 15:48:26.207000 12645 net.cpp:425] inception_4b/output <- inception_4b/5x5
I0403 15:48:26.207015 12645 net.cpp:425] inception_4b/output <- inception_4b/pool_proj
I0403 15:48:26.207033 12645 net.cpp:399] inception_4b/output -> inception_4b/output
I0403 15:48:26.207077 12645 net.cpp:141] Setting up inception_4b/output
I0403 15:48:26.207103 12645 net.cpp:148] Top shape: 24 512 14 14 (2408448)
I0403 15:48:26.207118 12645 net.cpp:156] Memory required for data: 989857056
I0403 15:48:26.207145 12645 layer_factory.hpp:77] Creating layer inception_4b/output_inception_4b/output_0_split
I0403 15:48:26.207164 12645 net.cpp:91] Creating Layer inception_4b/output_inception_4b/output_0_split
I0403 15:48:26.207178 12645 net.cpp:425] inception_4b/output_inception_4b/output_0_split <- inception_4b/output
I0403 15:48:26.207196 12645 net.cpp:399] inception_4b/output_inception_4b/output_0_split -> inception_4b/output_inception_4b/output_0_split_0
I0403 15:48:26.207217 12645 net.cpp:399] inception_4b/output_inception_4b/output_0_split -> inception_4b/output_inception_4b/output_0_split_1
I0403 15:48:26.207238 12645 net.cpp:399] inception_4b/output_inception_4b/output_0_split -> inception_4b/output_inception_4b/output_0_split_2
I0403 15:48:26.207258 12645 net.cpp:399] inception_4b/output_inception_4b/output_0_split -> inception_4b/output_inception_4b/output_0_split_3
I0403 15:48:26.207360 12645 net.cpp:141] Setting up inception_4b/output_inception_4b/output_0_split
I0403 15:48:26.207384 12645 net.cpp:148] Top shape: 24 512 14 14 (2408448)
I0403 15:48:26.207401 12645 net.cpp:148] Top shape: 24 512 14 14 (2408448)
I0403 15:48:26.207415 12645 net.cpp:148] Top shape: 24 512 14 14 (2408448)
I0403 15:48:26.207432 12645 net.cpp:148] Top shape: 24 512 14 14 (2408448)
I0403 15:48:26.207445 12645 net.cpp:156] Memory required for data: 1028392224
I0403 15:48:26.207460 12645 layer_factory.hpp:77] Creating layer inception_4c/1x1
I0403 15:48:26.207484 12645 net.cpp:91] Creating Layer inception_4c/1x1
I0403 15:48:26.207502 12645 net.cpp:425] inception_4c/1x1 <- inception_4b/output_inception_4b/output_0_split_0
I0403 15:48:26.207521 12645 net.cpp:399] inception_4c/1x1 -> inception_4c/1x1
I0403 15:48:26.208925 12645 net.cpp:141] Setting up inception_4c/1x1
I0403 15:48:26.208951 12645 net.cpp:148] Top shape: 24 128 14 14 (602112)
I0403 15:48:26.208966 12645 net.cpp:156] Memory required for data: 1030800672
I0403 15:48:26.208984 12645 layer_factory.hpp:77] Creating layer inception_4c/relu_1x1
I0403 15:48:26.209004 12645 net.cpp:91] Creating Layer inception_4c/relu_1x1
I0403 15:48:26.209022 12645 net.cpp:425] inception_4c/relu_1x1 <- inception_4c/1x1
I0403 15:48:26.209038 12645 net.cpp:386] inception_4c/relu_1x1 -> inception_4c/1x1 (in-place)
I0403 15:48:26.209213 12645 net.cpp:141] Setting up inception_4c/relu_1x1
I0403 15:48:26.209238 12645 net.cpp:148] Top shape: 24 128 14 14 (602112)
I0403 15:48:26.209254 12645 net.cpp:156] Memory required for data: 1033209120
I0403 15:48:26.209270 12645 layer_factory.hpp:77] Creating layer inception_4c/3x3_reduce
I0403 15:48:26.209290 12645 net.cpp:91] Creating Layer inception_4c/3x3_reduce
I0403 15:48:26.209322 12645 net.cpp:425] inception_4c/3x3_reduce <- inception_4b/output_inception_4b/output_0_split_1
I0403 15:48:26.209345 12645 net.cpp:399] inception_4c/3x3_reduce -> inception_4c/3x3_reduce
I0403 15:48:26.211274 12645 net.cpp:141] Setting up inception_4c/3x3_reduce
I0403 15:48:26.211303 12645 net.cpp:148] Top shape: 24 128 14 14 (602112)
I0403 15:48:26.211324 12645 net.cpp:156] Memory required for data: 1035617568
I0403 15:48:26.211344 12645 layer_factory.hpp:77] Creating layer inception_4c/relu_3x3_reduce
I0403 15:48:26.211361 12645 net.cpp:91] Creating Layer inception_4c/relu_3x3_reduce
I0403 15:48:26.211379 12645 net.cpp:425] inception_4c/relu_3x3_reduce <- inception_4c/3x3_reduce
I0403 15:48:26.211396 12645 net.cpp:386] inception_4c/relu_3x3_reduce -> inception_4c/3x3_reduce (in-place)
I0403 15:48:26.211673 12645 net.cpp:141] Setting up inception_4c/relu_3x3_reduce
I0403 15:48:26.211702 12645 net.cpp:148] Top shape: 24 128 14 14 (602112)
I0403 15:48:26.211719 12645 net.cpp:156] Memory required for data: 1038026016
I0403 15:48:26.211732 12645 layer_factory.hpp:77] Creating layer inception_4c/3x3
I0403 15:48:26.211755 12645 net.cpp:91] Creating Layer inception_4c/3x3
I0403 15:48:26.211773 12645 net.cpp:425] inception_4c/3x3 <- inception_4c/3x3_reduce
I0403 15:48:26.211791 12645 net.cpp:399] inception_4c/3x3 -> inception_4c/3x3
I0403 15:48:26.215262 12645 net.cpp:141] Setting up inception_4c/3x3
I0403 15:48:26.215319 12645 net.cpp:148] Top shape: 24 256 14 14 (1204224)
I0403 15:48:26.215338 12645 net.cpp:156] Memory required for data: 1042842912
I0403 15:48:26.215370 12645 layer_factory.hpp:77] Creating layer inception_4c/relu_3x3
I0403 15:48:26.215391 12645 net.cpp:91] Creating Layer inception_4c/relu_3x3
I0403 15:48:26.215409 12645 net.cpp:425] inception_4c/relu_3x3 <- inception_4c/3x3
I0403 15:48:26.215428 12645 net.cpp:386] inception_4c/relu_3x3 -> inception_4c/3x3 (in-place)
I0403 15:48:26.215618 12645 net.cpp:141] Setting up inception_4c/relu_3x3
I0403 15:48:26.215644 12645 net.cpp:148] Top shape: 24 256 14 14 (1204224)
I0403 15:48:26.215659 12645 net.cpp:156] Memory required for data: 1047659808
I0403 15:48:26.215673 12645 layer_factory.hpp:77] Creating layer inception_4c/5x5_reduce
I0403 15:48:26.215697 12645 net.cpp:91] Creating Layer inception_4c/5x5_reduce
I0403 15:48:26.215713 12645 net.cpp:425] inception_4c/5x5_reduce <- inception_4b/output_inception_4b/output_0_split_2
I0403 15:48:26.215734 12645 net.cpp:399] inception_4c/5x5_reduce -> inception_4c/5x5_reduce
I0403 15:48:26.216786 12645 net.cpp:141] Setting up inception_4c/5x5_reduce
I0403 15:48:26.216815 12645 net.cpp:148] Top shape: 24 24 14 14 (112896)
I0403 15:48:26.216831 12645 net.cpp:156] Memory required for data: 1048111392
I0403 15:48:26.216850 12645 layer_factory.hpp:77] Creating layer inception_4c/relu_5x5_reduce
I0403 15:48:26.216866 12645 net.cpp:91] Creating Layer inception_4c/relu_5x5_reduce
I0403 15:48:26.216882 12645 net.cpp:425] inception_4c/relu_5x5_reduce <- inception_4c/5x5_reduce
I0403 15:48:26.216898 12645 net.cpp:386] inception_4c/relu_5x5_reduce -> inception_4c/5x5_reduce (in-place)
I0403 15:48:26.217078 12645 net.cpp:141] Setting up inception_4c/relu_5x5_reduce
I0403 15:48:26.217103 12645 net.cpp:148] Top shape: 24 24 14 14 (112896)
I0403 15:48:26.217118 12645 net.cpp:156] Memory required for data: 1048562976
I0403 15:48:26.217131 12645 layer_factory.hpp:77] Creating layer inception_4c/5x5
I0403 15:48:26.217154 12645 net.cpp:91] Creating Layer inception_4c/5x5
I0403 15:48:26.217171 12645 net.cpp:425] inception_4c/5x5 <- inception_4c/5x5_reduce
I0403 15:48:26.217192 12645 net.cpp:399] inception_4c/5x5 -> inception_4c/5x5
I0403 15:48:26.218391 12645 net.cpp:141] Setting up inception_4c/5x5
I0403 15:48:26.218418 12645 net.cpp:148] Top shape: 24 64 14 14 (301056)
I0403 15:48:26.218433 12645 net.cpp:156] Memory required for data: 1049767200
I0403 15:48:26.218451 12645 layer_factory.hpp:77] Creating layer inception_4c/relu_5x5
I0403 15:48:26.218469 12645 net.cpp:91] Creating Layer inception_4c/relu_5x5
I0403 15:48:26.218485 12645 net.cpp:425] inception_4c/relu_5x5 <- inception_4c/5x5
I0403 15:48:26.218504 12645 net.cpp:386] inception_4c/relu_5x5 -> inception_4c/5x5 (in-place)
I0403 15:48:26.218782 12645 net.cpp:141] Setting up inception_4c/relu_5x5
I0403 15:48:26.218807 12645 net.cpp:148] Top shape: 24 64 14 14 (301056)
I0403 15:48:26.218822 12645 net.cpp:156] Memory required for data: 1050971424
I0403 15:48:26.218837 12645 layer_factory.hpp:77] Creating layer inception_4c/pool
I0403 15:48:26.218854 12645 net.cpp:91] Creating Layer inception_4c/pool
I0403 15:48:26.218870 12645 net.cpp:425] inception_4c/pool <- inception_4b/output_inception_4b/output_0_split_3
I0403 15:48:26.218890 12645 net.cpp:399] inception_4c/pool -> inception_4c/pool
I0403 15:48:26.218955 12645 net.cpp:141] Setting up inception_4c/pool
I0403 15:48:26.218977 12645 net.cpp:148] Top shape: 24 512 14 14 (2408448)
I0403 15:48:26.218992 12645 net.cpp:156] Memory required for data: 1060605216
I0403 15:48:26.219007 12645 layer_factory.hpp:77] Creating layer inception_4c/pool_proj
I0403 15:48:26.219029 12645 net.cpp:91] Creating Layer inception_4c/pool_proj
I0403 15:48:26.219046 12645 net.cpp:425] inception_4c/pool_proj <- inception_4c/pool
I0403 15:48:26.219064 12645 net.cpp:399] inception_4c/pool_proj -> inception_4c/pool_proj
I0403 15:48:26.220243 12645 net.cpp:141] Setting up inception_4c/pool_proj
I0403 15:48:26.220273 12645 net.cpp:148] Top shape: 24 64 14 14 (301056)
I0403 15:48:26.220300 12645 net.cpp:156] Memory required for data: 1061809440
I0403 15:48:26.220324 12645 layer_factory.hpp:77] Creating layer inception_4c/relu_pool_proj
I0403 15:48:26.220342 12645 net.cpp:91] Creating Layer inception_4c/relu_pool_proj
I0403 15:48:26.220358 12645 net.cpp:425] inception_4c/relu_pool_proj <- inception_4c/pool_proj
I0403 15:48:26.220378 12645 net.cpp:386] inception_4c/relu_pool_proj -> inception_4c/pool_proj (in-place)
I0403 15:48:26.220554 12645 net.cpp:141] Setting up inception_4c/relu_pool_proj
I0403 15:48:26.220579 12645 net.cpp:148] Top shape: 24 64 14 14 (301056)
I0403 15:48:26.220593 12645 net.cpp:156] Memory required for data: 1063013664
I0403 15:48:26.220607 12645 layer_factory.hpp:77] Creating layer inception_4c/output
I0403 15:48:26.220625 12645 net.cpp:91] Creating Layer inception_4c/output
I0403 15:48:26.220640 12645 net.cpp:425] inception_4c/output <- inception_4c/1x1
I0403 15:48:26.220657 12645 net.cpp:425] inception_4c/output <- inception_4c/3x3
I0403 15:48:26.220674 12645 net.cpp:425] inception_4c/output <- inception_4c/5x5
I0403 15:48:26.220688 12645 net.cpp:425] inception_4c/output <- inception_4c/pool_proj
I0403 15:48:26.220707 12645 net.cpp:399] inception_4c/output -> inception_4c/output
I0403 15:48:26.220752 12645 net.cpp:141] Setting up inception_4c/output
I0403 15:48:26.220777 12645 net.cpp:148] Top shape: 24 512 14 14 (2408448)
I0403 15:48:26.220791 12645 net.cpp:156] Memory required for data: 1072647456
I0403 15:48:26.220806 12645 layer_factory.hpp:77] Creating layer inception_4c/output_inception_4c/output_0_split
I0403 15:48:26.220824 12645 net.cpp:91] Creating Layer inception_4c/output_inception_4c/output_0_split
I0403 15:48:26.220839 12645 net.cpp:425] inception_4c/output_inception_4c/output_0_split <- inception_4c/output
I0403 15:48:26.220855 12645 net.cpp:399] inception_4c/output_inception_4c/output_0_split -> inception_4c/output_inception_4c/output_0_split_0
I0403 15:48:26.220876 12645 net.cpp:399] inception_4c/output_inception_4c/output_0_split -> inception_4c/output_inception_4c/output_0_split_1
I0403 15:48:26.220898 12645 net.cpp:399] inception_4c/output_inception_4c/output_0_split -> inception_4c/output_inception_4c/output_0_split_2
I0403 15:48:26.220917 12645 net.cpp:399] inception_4c/output_inception_4c/output_0_split -> inception_4c/output_inception_4c/output_0_split_3
I0403 15:48:26.221001 12645 net.cpp:141] Setting up inception_4c/output_inception_4c/output_0_split
I0403 15:48:26.221024 12645 net.cpp:148] Top shape: 24 512 14 14 (2408448)
I0403 15:48:26.221040 12645 net.cpp:148] Top shape: 24 512 14 14 (2408448)
I0403 15:48:26.221055 12645 net.cpp:148] Top shape: 24 512 14 14 (2408448)
I0403 15:48:26.221071 12645 net.cpp:148] Top shape: 24 512 14 14 (2408448)
I0403 15:48:26.221084 12645 net.cpp:156] Memory required for data: 1111182624
I0403 15:48:26.221098 12645 layer_factory.hpp:77] Creating layer inception_4d/1x1
I0403 15:48:26.221120 12645 net.cpp:91] Creating Layer inception_4d/1x1
I0403 15:48:26.221139 12645 net.cpp:425] inception_4d/1x1 <- inception_4c/output_inception_4c/output_0_split_0
I0403 15:48:26.221158 12645 net.cpp:399] inception_4d/1x1 -> inception_4d/1x1
I0403 15:48:26.222494 12645 net.cpp:141] Setting up inception_4d/1x1
I0403 15:48:26.222522 12645 net.cpp:148] Top shape: 24 112 14 14 (526848)
I0403 15:48:26.222537 12645 net.cpp:156] Memory required for data: 1113290016
I0403 15:48:26.222554 12645 layer_factory.hpp:77] Creating layer inception_4d/relu_1x1
I0403 15:48:26.222574 12645 net.cpp:91] Creating Layer inception_4d/relu_1x1
I0403 15:48:26.222591 12645 net.cpp:425] inception_4d/relu_1x1 <- inception_4d/1x1
I0403 15:48:26.222609 12645 net.cpp:386] inception_4d/relu_1x1 -> inception_4d/1x1 (in-place)
I0403 15:48:26.222784 12645 net.cpp:141] Setting up inception_4d/relu_1x1
I0403 15:48:26.222811 12645 net.cpp:148] Top shape: 24 112 14 14 (526848)
I0403 15:48:26.222826 12645 net.cpp:156] Memory required for data: 1115397408
I0403 15:48:26.222841 12645 layer_factory.hpp:77] Creating layer inception_4d/3x3_reduce
I0403 15:48:26.222877 12645 net.cpp:91] Creating Layer inception_4d/3x3_reduce
I0403 15:48:26.222894 12645 net.cpp:425] inception_4d/3x3_reduce <- inception_4c/output_inception_4c/output_0_split_1
I0403 15:48:26.222913 12645 net.cpp:399] inception_4d/3x3_reduce -> inception_4d/3x3_reduce
I0403 15:48:26.224390 12645 net.cpp:141] Setting up inception_4d/3x3_reduce
I0403 15:48:26.224417 12645 net.cpp:148] Top shape: 24 144 14 14 (677376)
I0403 15:48:26.224432 12645 net.cpp:156] Memory required for data: 1118106912
I0403 15:48:26.224450 12645 layer_factory.hpp:77] Creating layer inception_4d/relu_3x3_reduce
I0403 15:48:26.224470 12645 net.cpp:91] Creating Layer inception_4d/relu_3x3_reduce
I0403 15:48:26.224486 12645 net.cpp:425] inception_4d/relu_3x3_reduce <- inception_4d/3x3_reduce
I0403 15:48:26.224503 12645 net.cpp:386] inception_4d/relu_3x3_reduce -> inception_4d/3x3_reduce (in-place)
I0403 15:48:26.224787 12645 net.cpp:141] Setting up inception_4d/relu_3x3_reduce
I0403 15:48:26.224813 12645 net.cpp:148] Top shape: 24 144 14 14 (677376)
I0403 15:48:26.224828 12645 net.cpp:156] Memory required for data: 1120816416
I0403 15:48:26.224843 12645 layer_factory.hpp:77] Creating layer inception_4d/3x3
I0403 15:48:26.224865 12645 net.cpp:91] Creating Layer inception_4d/3x3
I0403 15:48:26.224882 12645 net.cpp:425] inception_4d/3x3 <- inception_4d/3x3_reduce
I0403 15:48:26.224903 12645 net.cpp:399] inception_4d/3x3 -> inception_4d/3x3
I0403 15:48:26.229130 12645 net.cpp:141] Setting up inception_4d/3x3
I0403 15:48:26.229158 12645 net.cpp:148] Top shape: 24 288 14 14 (1354752)
I0403 15:48:26.229174 12645 net.cpp:156] Memory required for data: 1126235424
I0403 15:48:26.229192 12645 layer_factory.hpp:77] Creating layer inception_4d/relu_3x3
I0403 15:48:26.229214 12645 net.cpp:91] Creating Layer inception_4d/relu_3x3
I0403 15:48:26.229231 12645 net.cpp:425] inception_4d/relu_3x3 <- inception_4d/3x3
I0403 15:48:26.229249 12645 net.cpp:386] inception_4d/relu_3x3 -> inception_4d/3x3 (in-place)
I0403 15:48:26.229439 12645 net.cpp:141] Setting up inception_4d/relu_3x3
I0403 15:48:26.229465 12645 net.cpp:148] Top shape: 24 288 14 14 (1354752)
I0403 15:48:26.229481 12645 net.cpp:156] Memory required for data: 1131654432
I0403 15:48:26.229497 12645 layer_factory.hpp:77] Creating layer inception_4d/5x5_reduce
I0403 15:48:26.229519 12645 net.cpp:91] Creating Layer inception_4d/5x5_reduce
I0403 15:48:26.229537 12645 net.cpp:425] inception_4d/5x5_reduce <- inception_4c/output_inception_4c/output_0_split_2
I0403 15:48:26.229557 12645 net.cpp:399] inception_4d/5x5_reduce -> inception_4d/5x5_reduce
I0403 15:48:26.230697 12645 net.cpp:141] Setting up inception_4d/5x5_reduce
I0403 15:48:26.230726 12645 net.cpp:148] Top shape: 24 32 14 14 (150528)
I0403 15:48:26.230741 12645 net.cpp:156] Memory required for data: 1132256544
I0403 15:48:26.230759 12645 layer_factory.hpp:77] Creating layer inception_4d/relu_5x5_reduce
I0403 15:48:26.230780 12645 net.cpp:91] Creating Layer inception_4d/relu_5x5_reduce
I0403 15:48:26.230798 12645 net.cpp:425] inception_4d/relu_5x5_reduce <- inception_4d/5x5_reduce
I0403 15:48:26.230815 12645 net.cpp:386] inception_4d/relu_5x5_reduce -> inception_4d/5x5_reduce (in-place)
I0403 15:48:26.231003 12645 net.cpp:141] Setting up inception_4d/relu_5x5_reduce
I0403 15:48:26.231030 12645 net.cpp:148] Top shape: 24 32 14 14 (150528)
I0403 15:48:26.231046 12645 net.cpp:156] Memory required for data: 1132858656
I0403 15:48:26.231061 12645 layer_factory.hpp:77] Creating layer inception_4d/5x5
I0403 15:48:26.231083 12645 net.cpp:91] Creating Layer inception_4d/5x5
I0403 15:48:26.231102 12645 net.cpp:425] inception_4d/5x5 <- inception_4d/5x5_reduce
I0403 15:48:26.231124 12645 net.cpp:399] inception_4d/5x5 -> inception_4d/5x5
I0403 15:48:26.232576 12645 net.cpp:141] Setting up inception_4d/5x5
I0403 15:48:26.232604 12645 net.cpp:148] Top shape: 24 64 14 14 (301056)
I0403 15:48:26.232620 12645 net.cpp:156] Memory required for data: 1134062880
I0403 15:48:26.232638 12645 layer_factory.hpp:77] Creating layer inception_4d/relu_5x5
I0403 15:48:26.232671 12645 net.cpp:91] Creating Layer inception_4d/relu_5x5
I0403 15:48:26.232688 12645 net.cpp:425] inception_4d/relu_5x5 <- inception_4d/5x5
I0403 15:48:26.232709 12645 net.cpp:386] inception_4d/relu_5x5 -> inception_4d/5x5 (in-place)
I0403 15:48:26.233007 12645 net.cpp:141] Setting up inception_4d/relu_5x5
I0403 15:48:26.233034 12645 net.cpp:148] Top shape: 24 64 14 14 (301056)
I0403 15:48:26.233049 12645 net.cpp:156] Memory required for data: 1135267104
I0403 15:48:26.233064 12645 layer_factory.hpp:77] Creating layer inception_4d/pool
I0403 15:48:26.233083 12645 net.cpp:91] Creating Layer inception_4d/pool
I0403 15:48:26.233099 12645 net.cpp:425] inception_4d/pool <- inception_4c/output_inception_4c/output_0_split_3
I0403 15:48:26.233120 12645 net.cpp:399] inception_4d/pool -> inception_4d/pool
I0403 15:48:26.233186 12645 net.cpp:141] Setting up inception_4d/pool
I0403 15:48:26.233211 12645 net.cpp:148] Top shape: 24 512 14 14 (2408448)
I0403 15:48:26.233225 12645 net.cpp:156] Memory required for data: 1144900896
I0403 15:48:26.233240 12645 layer_factory.hpp:77] Creating layer inception_4d/pool_proj
I0403 15:48:26.233264 12645 net.cpp:91] Creating Layer inception_4d/pool_proj
I0403 15:48:26.233283 12645 net.cpp:425] inception_4d/pool_proj <- inception_4d/pool
I0403 15:48:26.233301 12645 net.cpp:399] inception_4d/pool_proj -> inception_4d/pool_proj
I0403 15:48:26.235077 12645 net.cpp:141] Setting up inception_4d/pool_proj
I0403 15:48:26.235106 12645 net.cpp:148] Top shape: 24 64 14 14 (301056)
I0403 15:48:26.235121 12645 net.cpp:156] Memory required for data: 1146105120
I0403 15:48:26.235141 12645 layer_factory.hpp:77] Creating layer inception_4d/relu_pool_proj
I0403 15:48:26.235162 12645 net.cpp:91] Creating Layer inception_4d/relu_pool_proj
I0403 15:48:26.235177 12645 net.cpp:425] inception_4d/relu_pool_proj <- inception_4d/pool_proj
I0403 15:48:26.235195 12645 net.cpp:386] inception_4d/relu_pool_proj -> inception_4d/pool_proj (in-place)
I0403 15:48:26.235383 12645 net.cpp:141] Setting up inception_4d/relu_pool_proj
I0403 15:48:26.235410 12645 net.cpp:148] Top shape: 24 64 14 14 (301056)
I0403 15:48:26.235426 12645 net.cpp:156] Memory required for data: 1147309344
I0403 15:48:26.235441 12645 layer_factory.hpp:77] Creating layer inception_4d/output
I0403 15:48:26.235458 12645 net.cpp:91] Creating Layer inception_4d/output
I0403 15:48:26.235474 12645 net.cpp:425] inception_4d/output <- inception_4d/1x1
I0403 15:48:26.235491 12645 net.cpp:425] inception_4d/output <- inception_4d/3x3
I0403 15:48:26.235508 12645 net.cpp:425] inception_4d/output <- inception_4d/5x5
I0403 15:48:26.235524 12645 net.cpp:425] inception_4d/output <- inception_4d/pool_proj
I0403 15:48:26.235543 12645 net.cpp:399] inception_4d/output -> inception_4d/output
I0403 15:48:26.235591 12645 net.cpp:141] Setting up inception_4d/output
I0403 15:48:26.235615 12645 net.cpp:148] Top shape: 24 528 14 14 (2483712)
I0403 15:48:26.235630 12645 net.cpp:156] Memory required for data: 1157244192
I0403 15:48:26.235643 12645 layer_factory.hpp:77] Creating layer inception_4d/output_inception_4d/output_0_split
I0403 15:48:26.235663 12645 net.cpp:91] Creating Layer inception_4d/output_inception_4d/output_0_split
I0403 15:48:26.235680 12645 net.cpp:425] inception_4d/output_inception_4d/output_0_split <- inception_4d/output
I0403 15:48:26.235698 12645 net.cpp:399] inception_4d/output_inception_4d/output_0_split -> inception_4d/output_inception_4d/output_0_split_0
I0403 15:48:26.235723 12645 net.cpp:399] inception_4d/output_inception_4d/output_0_split -> inception_4d/output_inception_4d/output_0_split_1
I0403 15:48:26.235744 12645 net.cpp:399] inception_4d/output_inception_4d/output_0_split -> inception_4d/output_inception_4d/output_0_split_2
I0403 15:48:26.235765 12645 net.cpp:399] inception_4d/output_inception_4d/output_0_split -> inception_4d/output_inception_4d/output_0_split_3
I0403 15:48:26.235786 12645 net.cpp:399] inception_4d/output_inception_4d/output_0_split -> inception_4d/output_inception_4d/output_0_split_4
I0403 15:48:26.235887 12645 net.cpp:141] Setting up inception_4d/output_inception_4d/output_0_split
I0403 15:48:26.235923 12645 net.cpp:148] Top shape: 24 528 14 14 (2483712)
I0403 15:48:26.235939 12645 net.cpp:148] Top shape: 24 528 14 14 (2483712)
I0403 15:48:26.235954 12645 net.cpp:148] Top shape: 24 528 14 14 (2483712)
I0403 15:48:26.235970 12645 net.cpp:148] Top shape: 24 528 14 14 (2483712)
I0403 15:48:26.235986 12645 net.cpp:148] Top shape: 24 528 14 14 (2483712)
I0403 15:48:26.235999 12645 net.cpp:156] Memory required for data: 1206918432
I0403 15:48:26.236014 12645 layer_factory.hpp:77] Creating layer loss2/ave_pool
I0403 15:48:26.236034 12645 net.cpp:91] Creating Layer loss2/ave_pool
I0403 15:48:26.236052 12645 net.cpp:425] loss2/ave_pool <- inception_4d/output_inception_4d/output_0_split_0
I0403 15:48:26.236070 12645 net.cpp:399] loss2/ave_pool -> loss2/ave_pool
I0403 15:48:26.236388 12645 net.cpp:141] Setting up loss2/ave_pool
I0403 15:48:26.236414 12645 net.cpp:148] Top shape: 24 528 4 4 (202752)
I0403 15:48:26.236433 12645 net.cpp:156] Memory required for data: 1207729440
I0403 15:48:26.236449 12645 layer_factory.hpp:77] Creating layer loss2/conv
I0403 15:48:26.236469 12645 net.cpp:91] Creating Layer loss2/conv
I0403 15:48:26.236485 12645 net.cpp:425] loss2/conv <- loss2/ave_pool
I0403 15:48:26.236507 12645 net.cpp:399] loss2/conv -> loss2/conv
I0403 15:48:26.238412 12645 net.cpp:141] Setting up loss2/conv
I0403 15:48:26.238443 12645 net.cpp:148] Top shape: 24 128 4 4 (49152)
I0403 15:48:26.238461 12645 net.cpp:156] Memory required for data: 1207926048
I0403 15:48:26.238478 12645 layer_factory.hpp:77] Creating layer loss2/relu_conv
I0403 15:48:26.238497 12645 net.cpp:91] Creating Layer loss2/relu_conv
I0403 15:48:26.238513 12645 net.cpp:425] loss2/relu_conv <- loss2/conv
I0403 15:48:26.238533 12645 net.cpp:386] loss2/relu_conv -> loss2/conv (in-place)
I0403 15:48:26.238821 12645 net.cpp:141] Setting up loss2/relu_conv
I0403 15:48:26.238847 12645 net.cpp:148] Top shape: 24 128 4 4 (49152)
I0403 15:48:26.238862 12645 net.cpp:156] Memory required for data: 1208122656
I0403 15:48:26.238878 12645 layer_factory.hpp:77] Creating layer loss2/fc
I0403 15:48:26.238896 12645 net.cpp:91] Creating Layer loss2/fc
I0403 15:48:26.238912 12645 net.cpp:425] loss2/fc <- loss2/conv
I0403 15:48:26.238935 12645 net.cpp:399] loss2/fc -> loss2/fc
I0403 15:48:26.256419 12645 net.cpp:141] Setting up loss2/fc
I0403 15:48:26.256453 12645 net.cpp:148] Top shape: 24 1024 (24576)
I0403 15:48:26.256467 12645 net.cpp:156] Memory required for data: 1208220960
I0403 15:48:26.256486 12645 layer_factory.hpp:77] Creating layer loss2/relu_fc
I0403 15:48:26.256506 12645 net.cpp:91] Creating Layer loss2/relu_fc
I0403 15:48:26.256525 12645 net.cpp:425] loss2/relu_fc <- loss2/fc
I0403 15:48:26.256541 12645 net.cpp:386] loss2/relu_fc -> loss2/fc (in-place)
I0403 15:48:26.256832 12645 net.cpp:141] Setting up loss2/relu_fc
I0403 15:48:26.256863 12645 net.cpp:148] Top shape: 24 1024 (24576)
I0403 15:48:26.256880 12645 net.cpp:156] Memory required for data: 1208319264
I0403 15:48:26.256894 12645 layer_factory.hpp:77] Creating layer loss2/drop_fc
I0403 15:48:26.256912 12645 net.cpp:91] Creating Layer loss2/drop_fc
I0403 15:48:26.256928 12645 net.cpp:425] loss2/drop_fc <- loss2/fc
I0403 15:48:26.256945 12645 net.cpp:386] loss2/drop_fc -> loss2/fc (in-place)
I0403 15:48:26.256995 12645 net.cpp:141] Setting up loss2/drop_fc
I0403 15:48:26.257019 12645 net.cpp:148] Top shape: 24 1024 (24576)
I0403 15:48:26.257032 12645 net.cpp:156] Memory required for data: 1208417568
I0403 15:48:26.257047 12645 layer_factory.hpp:77] Creating layer loss2/classifier_plantvillage
I0403 15:48:26.257068 12645 net.cpp:91] Creating Layer loss2/classifier_plantvillage
I0403 15:48:26.257086 12645 net.cpp:425] loss2/classifier_plantvillage <- loss2/fc
I0403 15:48:26.257103 12645 net.cpp:399] loss2/classifier_plantvillage -> loss2/classifier_plantvillage
I0403 15:48:26.257499 12645 net.cpp:141] Setting up loss2/classifier_plantvillage
I0403 15:48:26.257524 12645 net.cpp:148] Top shape: 24 38 (912)
I0403 15:48:26.257555 12645 net.cpp:156] Memory required for data: 1208421216
I0403 15:48:26.257575 12645 layer_factory.hpp:77] Creating layer loss2/classifier_plantvillage_loss2/classifier_plantvillage_0_split
I0403 15:48:26.257598 12645 net.cpp:91] Creating Layer loss2/classifier_plantvillage_loss2/classifier_plantvillage_0_split
I0403 15:48:26.257614 12645 net.cpp:425] loss2/classifier_plantvillage_loss2/classifier_plantvillage_0_split <- loss2/classifier_plantvillage
I0403 15:48:26.257633 12645 net.cpp:399] loss2/classifier_plantvillage_loss2/classifier_plantvillage_0_split -> loss2/classifier_plantvillage_loss2/classifier_plantvillage_0_split_0
I0403 15:48:26.257654 12645 net.cpp:399] loss2/classifier_plantvillage_loss2/classifier_plantvillage_0_split -> loss2/classifier_plantvillage_loss2/classifier_plantvillage_0_split_1
I0403 15:48:26.257675 12645 net.cpp:399] loss2/classifier_plantvillage_loss2/classifier_plantvillage_0_split -> loss2/classifier_plantvillage_loss2/classifier_plantvillage_0_split_2
I0403 15:48:26.257748 12645 net.cpp:141] Setting up loss2/classifier_plantvillage_loss2/classifier_plantvillage_0_split
I0403 15:48:26.257774 12645 net.cpp:148] Top shape: 24 38 (912)
I0403 15:48:26.257791 12645 net.cpp:148] Top shape: 24 38 (912)
I0403 15:48:26.257807 12645 net.cpp:148] Top shape: 24 38 (912)
I0403 15:48:26.257819 12645 net.cpp:156] Memory required for data: 1208432160
I0403 15:48:26.257834 12645 layer_factory.hpp:77] Creating layer inception_4e/1x1
I0403 15:48:26.257854 12645 net.cpp:91] Creating Layer inception_4e/1x1
I0403 15:48:26.257880 12645 net.cpp:425] inception_4e/1x1 <- inception_4d/output_inception_4d/output_0_split_1
I0403 15:48:26.257899 12645 net.cpp:399] inception_4e/1x1 -> inception_4e/1x1
I0403 15:48:26.259668 12645 net.cpp:141] Setting up inception_4e/1x1
I0403 15:48:26.259696 12645 net.cpp:148] Top shape: 24 256 14 14 (1204224)
I0403 15:48:26.259721 12645 net.cpp:156] Memory required for data: 1213249056
I0403 15:48:26.259738 12645 layer_factory.hpp:77] Creating layer inception_4e/relu_1x1
I0403 15:48:26.259755 12645 net.cpp:91] Creating Layer inception_4e/relu_1x1
I0403 15:48:26.259771 12645 net.cpp:425] inception_4e/relu_1x1 <- inception_4e/1x1
I0403 15:48:26.259790 12645 net.cpp:386] inception_4e/relu_1x1 -> inception_4e/1x1 (in-place)
I0403 15:48:26.260078 12645 net.cpp:141] Setting up inception_4e/relu_1x1
I0403 15:48:26.260103 12645 net.cpp:148] Top shape: 24 256 14 14 (1204224)
I0403 15:48:26.260118 12645 net.cpp:156] Memory required for data: 1218065952
I0403 15:48:26.260133 12645 layer_factory.hpp:77] Creating layer inception_4e/3x3_reduce
I0403 15:48:26.260155 12645 net.cpp:91] Creating Layer inception_4e/3x3_reduce
I0403 15:48:26.260174 12645 net.cpp:425] inception_4e/3x3_reduce <- inception_4d/output_inception_4d/output_0_split_2
I0403 15:48:26.260195 12645 net.cpp:399] inception_4e/3x3_reduce -> inception_4e/3x3_reduce
I0403 15:48:26.262250 12645 net.cpp:141] Setting up inception_4e/3x3_reduce
I0403 15:48:26.262280 12645 net.cpp:148] Top shape: 24 160 14 14 (752640)
I0403 15:48:26.262296 12645 net.cpp:156] Memory required for data: 1221076512
I0403 15:48:26.262320 12645 layer_factory.hpp:77] Creating layer inception_4e/relu_3x3_reduce
I0403 15:48:26.262341 12645 net.cpp:91] Creating Layer inception_4e/relu_3x3_reduce
I0403 15:48:26.262357 12645 net.cpp:425] inception_4e/relu_3x3_reduce <- inception_4e/3x3_reduce
I0403 15:48:26.262377 12645 net.cpp:386] inception_4e/relu_3x3_reduce -> inception_4e/3x3_reduce (in-place)
I0403 15:48:26.262558 12645 net.cpp:141] Setting up inception_4e/relu_3x3_reduce
I0403 15:48:26.262583 12645 net.cpp:148] Top shape: 24 160 14 14 (752640)
I0403 15:48:26.262598 12645 net.cpp:156] Memory required for data: 1224087072
I0403 15:48:26.262612 12645 layer_factory.hpp:77] Creating layer inception_4e/3x3
I0403 15:48:26.262634 12645 net.cpp:91] Creating Layer inception_4e/3x3
I0403 15:48:26.262651 12645 net.cpp:425] inception_4e/3x3 <- inception_4e/3x3_reduce
I0403 15:48:26.262673 12645 net.cpp:399] inception_4e/3x3 -> inception_4e/3x3
I0403 15:48:26.267532 12645 net.cpp:141] Setting up inception_4e/3x3
I0403 15:48:26.267571 12645 net.cpp:148] Top shape: 24 320 14 14 (1505280)
I0403 15:48:26.267587 12645 net.cpp:156] Memory required for data: 1230108192
I0403 15:48:26.267606 12645 layer_factory.hpp:77] Creating layer inception_4e/relu_3x3
I0403 15:48:26.267627 12645 net.cpp:91] Creating Layer inception_4e/relu_3x3
I0403 15:48:26.267643 12645 net.cpp:425] inception_4e/relu_3x3 <- inception_4e/3x3
I0403 15:48:26.267662 12645 net.cpp:386] inception_4e/relu_3x3 -> inception_4e/3x3 (in-place)
I0403 15:48:26.267956 12645 net.cpp:141] Setting up inception_4e/relu_3x3
I0403 15:48:26.267982 12645 net.cpp:148] Top shape: 24 320 14 14 (1505280)
I0403 15:48:26.267997 12645 net.cpp:156] Memory required for data: 1236129312
I0403 15:48:26.268010 12645 layer_factory.hpp:77] Creating layer inception_4e/5x5_reduce
I0403 15:48:26.268033 12645 net.cpp:91] Creating Layer inception_4e/5x5_reduce
I0403 15:48:26.268051 12645 net.cpp:425] inception_4e/5x5_reduce <- inception_4d/output_inception_4d/output_0_split_3
I0403 15:48:26.268074 12645 net.cpp:399] inception_4e/5x5_reduce -> inception_4e/5x5_reduce
I0403 15:48:26.269112 12645 net.cpp:141] Setting up inception_4e/5x5_reduce
I0403 15:48:26.269139 12645 net.cpp:148] Top shape: 24 32 14 14 (150528)
I0403 15:48:26.269153 12645 net.cpp:156] Memory required for data: 1236731424
I0403 15:48:26.269171 12645 layer_factory.hpp:77] Creating layer inception_4e/relu_5x5_reduce
I0403 15:48:26.269189 12645 net.cpp:91] Creating Layer inception_4e/relu_5x5_reduce
I0403 15:48:26.269206 12645 net.cpp:425] inception_4e/relu_5x5_reduce <- inception_4e/5x5_reduce
I0403 15:48:26.269224 12645 net.cpp:386] inception_4e/relu_5x5_reduce -> inception_4e/5x5_reduce (in-place)
I0403 15:48:26.269521 12645 net.cpp:141] Setting up inception_4e/relu_5x5_reduce
I0403 15:48:26.269547 12645 net.cpp:148] Top shape: 24 32 14 14 (150528)
I0403 15:48:26.269562 12645 net.cpp:156] Memory required for data: 1237333536
I0403 15:48:26.269587 12645 layer_factory.hpp:77] Creating layer inception_4e/5x5
I0403 15:48:26.269623 12645 net.cpp:91] Creating Layer inception_4e/5x5
I0403 15:48:26.269644 12645 net.cpp:425] inception_4e/5x5 <- inception_4e/5x5_reduce
I0403 15:48:26.269662 12645 net.cpp:399] inception_4e/5x5 -> inception_4e/5x5
I0403 15:48:26.271430 12645 net.cpp:141] Setting up inception_4e/5x5
I0403 15:48:26.271457 12645 net.cpp:148] Top shape: 24 128 14 14 (602112)
I0403 15:48:26.271474 12645 net.cpp:156] Memory required for data: 1239741984
I0403 15:48:26.271493 12645 layer_factory.hpp:77] Creating layer inception_4e/relu_5x5
I0403 15:48:26.271510 12645 net.cpp:91] Creating Layer inception_4e/relu_5x5
I0403 15:48:26.271528 12645 net.cpp:425] inception_4e/relu_5x5 <- inception_4e/5x5
I0403 15:48:26.271544 12645 net.cpp:386] inception_4e/relu_5x5 -> inception_4e/5x5 (in-place)
I0403 15:48:26.271736 12645 net.cpp:141] Setting up inception_4e/relu_5x5
I0403 15:48:26.271760 12645 net.cpp:148] Top shape: 24 128 14 14 (602112)
I0403 15:48:26.271775 12645 net.cpp:156] Memory required for data: 1242150432
I0403 15:48:26.271790 12645 layer_factory.hpp:77] Creating layer inception_4e/pool
I0403 15:48:26.271806 12645 net.cpp:91] Creating Layer inception_4e/pool
I0403 15:48:26.271822 12645 net.cpp:425] inception_4e/pool <- inception_4d/output_inception_4d/output_0_split_4
I0403 15:48:26.271842 12645 net.cpp:399] inception_4e/pool -> inception_4e/pool
I0403 15:48:26.271910 12645 net.cpp:141] Setting up inception_4e/pool
I0403 15:48:26.271935 12645 net.cpp:148] Top shape: 24 528 14 14 (2483712)
I0403 15:48:26.271950 12645 net.cpp:156] Memory required for data: 1252085280
I0403 15:48:26.271965 12645 layer_factory.hpp:77] Creating layer inception_4e/pool_proj
I0403 15:48:26.271987 12645 net.cpp:91] Creating Layer inception_4e/pool_proj
I0403 15:48:26.272004 12645 net.cpp:425] inception_4e/pool_proj <- inception_4e/pool
I0403 15:48:26.272023 12645 net.cpp:399] inception_4e/pool_proj -> inception_4e/pool_proj
I0403 15:48:26.273478 12645 net.cpp:141] Setting up inception_4e/pool_proj
I0403 15:48:26.273519 12645 net.cpp:148] Top shape: 24 128 14 14 (602112)
I0403 15:48:26.273535 12645 net.cpp:156] Memory required for data: 1254493728
I0403 15:48:26.273552 12645 layer_factory.hpp:77] Creating layer inception_4e/relu_pool_proj
I0403 15:48:26.273571 12645 net.cpp:91] Creating Layer inception_4e/relu_pool_proj
I0403 15:48:26.273597 12645 net.cpp:425] inception_4e/relu_pool_proj <- inception_4e/pool_proj
I0403 15:48:26.273614 12645 net.cpp:386] inception_4e/relu_pool_proj -> inception_4e/pool_proj (in-place)
I0403 15:48:26.273895 12645 net.cpp:141] Setting up inception_4e/relu_pool_proj
I0403 15:48:26.273939 12645 net.cpp:148] Top shape: 24 128 14 14 (602112)
I0403 15:48:26.273954 12645 net.cpp:156] Memory required for data: 1256902176
I0403 15:48:26.273969 12645 layer_factory.hpp:77] Creating layer inception_4e/output
I0403 15:48:26.273986 12645 net.cpp:91] Creating Layer inception_4e/output
I0403 15:48:26.274001 12645 net.cpp:425] inception_4e/output <- inception_4e/1x1
I0403 15:48:26.274019 12645 net.cpp:425] inception_4e/output <- inception_4e/3x3
I0403 15:48:26.274034 12645 net.cpp:425] inception_4e/output <- inception_4e/5x5
I0403 15:48:26.274049 12645 net.cpp:425] inception_4e/output <- inception_4e/pool_proj
I0403 15:48:26.274067 12645 net.cpp:399] inception_4e/output -> inception_4e/output
I0403 15:48:26.274116 12645 net.cpp:141] Setting up inception_4e/output
I0403 15:48:26.274139 12645 net.cpp:148] Top shape: 24 832 14 14 (3913728)
I0403 15:48:26.274154 12645 net.cpp:156] Memory required for data: 1272557088
I0403 15:48:26.274169 12645 layer_factory.hpp:77] Creating layer pool4/3x3_s2
I0403 15:48:26.274211 12645 net.cpp:91] Creating Layer pool4/3x3_s2
I0403 15:48:26.274227 12645 net.cpp:425] pool4/3x3_s2 <- inception_4e/output
I0403 15:48:26.274245 12645 net.cpp:399] pool4/3x3_s2 -> pool4/3x3_s2
I0403 15:48:26.274313 12645 net.cpp:141] Setting up pool4/3x3_s2
I0403 15:48:26.274339 12645 net.cpp:148] Top shape: 24 832 7 7 (978432)
I0403 15:48:26.274355 12645 net.cpp:156] Memory required for data: 1276470816
I0403 15:48:26.274370 12645 layer_factory.hpp:77] Creating layer pool4/3x3_s2_pool4/3x3_s2_0_split
I0403 15:48:26.274387 12645 net.cpp:91] Creating Layer pool4/3x3_s2_pool4/3x3_s2_0_split
I0403 15:48:26.274402 12645 net.cpp:425] pool4/3x3_s2_pool4/3x3_s2_0_split <- pool4/3x3_s2
I0403 15:48:26.274422 12645 net.cpp:399] pool4/3x3_s2_pool4/3x3_s2_0_split -> pool4/3x3_s2_pool4/3x3_s2_0_split_0
I0403 15:48:26.274443 12645 net.cpp:399] pool4/3x3_s2_pool4/3x3_s2_0_split -> pool4/3x3_s2_pool4/3x3_s2_0_split_1
I0403 15:48:26.274463 12645 net.cpp:399] pool4/3x3_s2_pool4/3x3_s2_0_split -> pool4/3x3_s2_pool4/3x3_s2_0_split_2
I0403 15:48:26.274482 12645 net.cpp:399] pool4/3x3_s2_pool4/3x3_s2_0_split -> pool4/3x3_s2_pool4/3x3_s2_0_split_3
I0403 15:48:26.274570 12645 net.cpp:141] Setting up pool4/3x3_s2_pool4/3x3_s2_0_split
I0403 15:48:26.274592 12645 net.cpp:148] Top shape: 24 832 7 7 (978432)
I0403 15:48:26.274608 12645 net.cpp:148] Top shape: 24 832 7 7 (978432)
I0403 15:48:26.274624 12645 net.cpp:148] Top shape: 24 832 7 7 (978432)
I0403 15:48:26.274639 12645 net.cpp:148] Top shape: 24 832 7 7 (978432)
I0403 15:48:26.274653 12645 net.cpp:156] Memory required for data: 1292125728
I0403 15:48:26.274668 12645 layer_factory.hpp:77] Creating layer inception_5a/1x1
I0403 15:48:26.274691 12645 net.cpp:91] Creating Layer inception_5a/1x1
I0403 15:48:26.274709 12645 net.cpp:425] inception_5a/1x1 <- pool4/3x3_s2_pool4/3x3_s2_0_split_0
I0403 15:48:26.274729 12645 net.cpp:399] inception_5a/1x1 -> inception_5a/1x1
I0403 15:48:26.277468 12645 net.cpp:141] Setting up inception_5a/1x1
I0403 15:48:26.277499 12645 net.cpp:148] Top shape: 24 256 7 7 (301056)
I0403 15:48:26.277515 12645 net.cpp:156] Memory required for data: 1293329952
I0403 15:48:26.277534 12645 layer_factory.hpp:77] Creating layer inception_5a/relu_1x1
I0403 15:48:26.277551 12645 net.cpp:91] Creating Layer inception_5a/relu_1x1
I0403 15:48:26.277567 12645 net.cpp:425] inception_5a/relu_1x1 <- inception_5a/1x1
I0403 15:48:26.277597 12645 net.cpp:386] inception_5a/relu_1x1 -> inception_5a/1x1 (in-place)
I0403 15:48:26.277897 12645 net.cpp:141] Setting up inception_5a/relu_1x1
I0403 15:48:26.277925 12645 net.cpp:148] Top shape: 24 256 7 7 (301056)
I0403 15:48:26.277941 12645 net.cpp:156] Memory required for data: 1294534176
I0403 15:48:26.277956 12645 layer_factory.hpp:77] Creating layer inception_5a/3x3_reduce
I0403 15:48:26.277978 12645 net.cpp:91] Creating Layer inception_5a/3x3_reduce
I0403 15:48:26.277997 12645 net.cpp:425] inception_5a/3x3_reduce <- pool4/3x3_s2_pool4/3x3_s2_0_split_1
I0403 15:48:26.278015 12645 net.cpp:399] inception_5a/3x3_reduce -> inception_5a/3x3_reduce
I0403 15:48:26.280375 12645 net.cpp:141] Setting up inception_5a/3x3_reduce
I0403 15:48:26.280403 12645 net.cpp:148] Top shape: 24 160 7 7 (188160)
I0403 15:48:26.280419 12645 net.cpp:156] Memory required for data: 1295286816
I0403 15:48:26.280436 12645 layer_factory.hpp:77] Creating layer inception_5a/relu_3x3_reduce
I0403 15:48:26.280457 12645 net.cpp:91] Creating Layer inception_5a/relu_3x3_reduce
I0403 15:48:26.280473 12645 net.cpp:425] inception_5a/relu_3x3_reduce <- inception_5a/3x3_reduce
I0403 15:48:26.280491 12645 net.cpp:386] inception_5a/relu_3x3_reduce -> inception_5a/3x3_reduce (in-place)
I0403 15:48:26.280674 12645 net.cpp:141] Setting up inception_5a/relu_3x3_reduce
I0403 15:48:26.280701 12645 net.cpp:148] Top shape: 24 160 7 7 (188160)
I0403 15:48:26.280716 12645 net.cpp:156] Memory required for data: 1296039456
I0403 15:48:26.280731 12645 layer_factory.hpp:77] Creating layer inception_5a/3x3
I0403 15:48:26.280755 12645 net.cpp:91] Creating Layer inception_5a/3x3
I0403 15:48:26.280772 12645 net.cpp:425] inception_5a/3x3 <- inception_5a/3x3_reduce
I0403 15:48:26.280791 12645 net.cpp:399] inception_5a/3x3 -> inception_5a/3x3
I0403 15:48:26.285825 12645 net.cpp:141] Setting up inception_5a/3x3
I0403 15:48:26.285859 12645 net.cpp:148] Top shape: 24 320 7 7 (376320)
I0403 15:48:26.285881 12645 net.cpp:156] Memory required for data: 1297544736
I0403 15:48:26.285900 12645 layer_factory.hpp:77] Creating layer inception_5a/relu_3x3
I0403 15:48:26.285919 12645 net.cpp:91] Creating Layer inception_5a/relu_3x3
I0403 15:48:26.285936 12645 net.cpp:425] inception_5a/relu_3x3 <- inception_5a/3x3
I0403 15:48:26.285953 12645 net.cpp:386] inception_5a/relu_3x3 -> inception_5a/3x3 (in-place)
I0403 15:48:26.286248 12645 net.cpp:141] Setting up inception_5a/relu_3x3
I0403 15:48:26.286278 12645 net.cpp:148] Top shape: 24 320 7 7 (376320)
I0403 15:48:26.286294 12645 net.cpp:156] Memory required for data: 1299050016
I0403 15:48:26.286309 12645 layer_factory.hpp:77] Creating layer inception_5a/5x5_reduce
I0403 15:48:26.286336 12645 net.cpp:91] Creating Layer inception_5a/5x5_reduce
I0403 15:48:26.286355 12645 net.cpp:425] inception_5a/5x5_reduce <- pool4/3x3_s2_pool4/3x3_s2_0_split_2
I0403 15:48:26.286375 12645 net.cpp:399] inception_5a/5x5_reduce -> inception_5a/5x5_reduce
I0403 15:48:26.287539 12645 net.cpp:141] Setting up inception_5a/5x5_reduce
I0403 15:48:26.287569 12645 net.cpp:148] Top shape: 24 32 7 7 (37632)
I0403 15:48:26.287585 12645 net.cpp:156] Memory required for data: 1299200544
I0403 15:48:26.287605 12645 layer_factory.hpp:77] Creating layer inception_5a/relu_5x5_reduce
I0403 15:48:26.287622 12645 net.cpp:91] Creating Layer inception_5a/relu_5x5_reduce
I0403 15:48:26.287638 12645 net.cpp:425] inception_5a/relu_5x5_reduce <- inception_5a/5x5_reduce
I0403 15:48:26.287658 12645 net.cpp:386] inception_5a/relu_5x5_reduce -> inception_5a/5x5_reduce (in-place)
I0403 15:48:26.287956 12645 net.cpp:141] Setting up inception_5a/relu_5x5_reduce
I0403 15:48:26.287982 12645 net.cpp:148] Top shape: 24 32 7 7 (37632)
I0403 15:48:26.287997 12645 net.cpp:156] Memory required for data: 1299351072
I0403 15:48:26.288012 12645 layer_factory.hpp:77] Creating layer inception_5a/5x5
I0403 15:48:26.288038 12645 net.cpp:91] Creating Layer inception_5a/5x5
I0403 15:48:26.288055 12645 net.cpp:425] inception_5a/5x5 <- inception_5a/5x5_reduce
I0403 15:48:26.288077 12645 net.cpp:399] inception_5a/5x5 -> inception_5a/5x5
I0403 15:48:26.289805 12645 net.cpp:141] Setting up inception_5a/5x5
I0403 15:48:26.289847 12645 net.cpp:148] Top shape: 24 128 7 7 (150528)
I0403 15:48:26.289865 12645 net.cpp:156] Memory required for data: 1299953184
I0403 15:48:26.289887 12645 layer_factory.hpp:77] Creating layer inception_5a/relu_5x5
I0403 15:48:26.289906 12645 net.cpp:91] Creating Layer inception_5a/relu_5x5
I0403 15:48:26.289922 12645 net.cpp:425] inception_5a/relu_5x5 <- inception_5a/5x5
I0403 15:48:26.289939 12645 net.cpp:386] inception_5a/relu_5x5 -> inception_5a/5x5 (in-place)
I0403 15:48:26.290133 12645 net.cpp:141] Setting up inception_5a/relu_5x5
I0403 15:48:26.290158 12645 net.cpp:148] Top shape: 24 128 7 7 (150528)
I0403 15:48:26.290174 12645 net.cpp:156] Memory required for data: 1300555296
I0403 15:48:26.290189 12645 layer_factory.hpp:77] Creating layer inception_5a/pool
I0403 15:48:26.290208 12645 net.cpp:91] Creating Layer inception_5a/pool
I0403 15:48:26.290225 12645 net.cpp:425] inception_5a/pool <- pool4/3x3_s2_pool4/3x3_s2_0_split_3
I0403 15:48:26.290244 12645 net.cpp:399] inception_5a/pool -> inception_5a/pool
I0403 15:48:26.290314 12645 net.cpp:141] Setting up inception_5a/pool
I0403 15:48:26.290344 12645 net.cpp:148] Top shape: 24 832 7 7 (978432)
I0403 15:48:26.290360 12645 net.cpp:156] Memory required for data: 1304469024
I0403 15:48:26.290375 12645 layer_factory.hpp:77] Creating layer inception_5a/pool_proj
I0403 15:48:26.290397 12645 net.cpp:91] Creating Layer inception_5a/pool_proj
I0403 15:48:26.290416 12645 net.cpp:425] inception_5a/pool_proj <- inception_5a/pool
I0403 15:48:26.290436 12645 net.cpp:399] inception_5a/pool_proj -> inception_5a/pool_proj
I0403 15:48:26.292691 12645 net.cpp:141] Setting up inception_5a/pool_proj
I0403 15:48:26.292721 12645 net.cpp:148] Top shape: 24 128 7 7 (150528)
I0403 15:48:26.292737 12645 net.cpp:156] Memory required for data: 1305071136
I0403 15:48:26.292755 12645 layer_factory.hpp:77] Creating layer inception_5a/relu_pool_proj
I0403 15:48:26.292776 12645 net.cpp:91] Creating Layer inception_5a/relu_pool_proj
I0403 15:48:26.292793 12645 net.cpp:425] inception_5a/relu_pool_proj <- inception_5a/pool_proj
I0403 15:48:26.292811 12645 net.cpp:386] inception_5a/relu_pool_proj -> inception_5a/pool_proj (in-place)
I0403 15:48:26.293105 12645 net.cpp:141] Setting up inception_5a/relu_pool_proj
I0403 15:48:26.293131 12645 net.cpp:148] Top shape: 24 128 7 7 (150528)
I0403 15:48:26.293148 12645 net.cpp:156] Memory required for data: 1305673248
I0403 15:48:26.293164 12645 layer_factory.hpp:77] Creating layer inception_5a/output
I0403 15:48:26.293184 12645 net.cpp:91] Creating Layer inception_5a/output
I0403 15:48:26.293201 12645 net.cpp:425] inception_5a/output <- inception_5a/1x1
I0403 15:48:26.293218 12645 net.cpp:425] inception_5a/output <- inception_5a/3x3
I0403 15:48:26.293236 12645 net.cpp:425] inception_5a/output <- inception_5a/5x5
I0403 15:48:26.293252 12645 net.cpp:425] inception_5a/output <- inception_5a/pool_proj
I0403 15:48:26.293269 12645 net.cpp:399] inception_5a/output -> inception_5a/output
I0403 15:48:26.293334 12645 net.cpp:141] Setting up inception_5a/output
I0403 15:48:26.293357 12645 net.cpp:148] Top shape: 24 832 7 7 (978432)
I0403 15:48:26.293373 12645 net.cpp:156] Memory required for data: 1309586976
I0403 15:48:26.293388 12645 layer_factory.hpp:77] Creating layer inception_5a/output_inception_5a/output_0_split
I0403 15:48:26.293406 12645 net.cpp:91] Creating Layer inception_5a/output_inception_5a/output_0_split
I0403 15:48:26.293423 12645 net.cpp:425] inception_5a/output_inception_5a/output_0_split <- inception_5a/output
I0403 15:48:26.293443 12645 net.cpp:399] inception_5a/output_inception_5a/output_0_split -> inception_5a/output_inception_5a/output_0_split_0
I0403 15:48:26.293465 12645 net.cpp:399] inception_5a/output_inception_5a/output_0_split -> inception_5a/output_inception_5a/output_0_split_1
I0403 15:48:26.293485 12645 net.cpp:399] inception_5a/output_inception_5a/output_0_split -> inception_5a/output_inception_5a/output_0_split_2
I0403 15:48:26.293506 12645 net.cpp:399] inception_5a/output_inception_5a/output_0_split -> inception_5a/output_inception_5a/output_0_split_3
I0403 15:48:26.293620 12645 net.cpp:141] Setting up inception_5a/output_inception_5a/output_0_split
I0403 15:48:26.293648 12645 net.cpp:148] Top shape: 24 832 7 7 (978432)
I0403 15:48:26.293664 12645 net.cpp:148] Top shape: 24 832 7 7 (978432)
I0403 15:48:26.293680 12645 net.cpp:148] Top shape: 24 832 7 7 (978432)
I0403 15:48:26.293696 12645 net.cpp:148] Top shape: 24 832 7 7 (978432)
I0403 15:48:26.293711 12645 net.cpp:156] Memory required for data: 1325241888
I0403 15:48:26.293725 12645 layer_factory.hpp:77] Creating layer inception_5b/1x1
I0403 15:48:26.293747 12645 net.cpp:91] Creating Layer inception_5b/1x1
I0403 15:48:26.293766 12645 net.cpp:425] inception_5b/1x1 <- inception_5a/output_inception_5a/output_0_split_0
I0403 15:48:26.293787 12645 net.cpp:399] inception_5b/1x1 -> inception_5b/1x1
I0403 15:48:26.297523 12645 net.cpp:141] Setting up inception_5b/1x1
I0403 15:48:26.297551 12645 net.cpp:148] Top shape: 24 384 7 7 (451584)
I0403 15:48:26.297571 12645 net.cpp:156] Memory required for data: 1327048224
I0403 15:48:26.297600 12645 layer_factory.hpp:77] Creating layer inception_5b/relu_1x1
I0403 15:48:26.297619 12645 net.cpp:91] Creating Layer inception_5b/relu_1x1
I0403 15:48:26.297636 12645 net.cpp:425] inception_5b/relu_1x1 <- inception_5b/1x1
I0403 15:48:26.297653 12645 net.cpp:386] inception_5b/relu_1x1 -> inception_5b/1x1 (in-place)
I0403 15:48:26.297971 12645 net.cpp:141] Setting up inception_5b/relu_1x1
I0403 15:48:26.297997 12645 net.cpp:148] Top shape: 24 384 7 7 (451584)
I0403 15:48:26.298013 12645 net.cpp:156] Memory required for data: 1328854560
I0403 15:48:26.298029 12645 layer_factory.hpp:77] Creating layer inception_5b/3x3_reduce
I0403 15:48:26.298051 12645 net.cpp:91] Creating Layer inception_5b/3x3_reduce
I0403 15:48:26.298070 12645 net.cpp:425] inception_5b/3x3_reduce <- inception_5a/output_inception_5a/output_0_split_1
I0403 15:48:26.298092 12645 net.cpp:399] inception_5b/3x3_reduce -> inception_5b/3x3_reduce
I0403 15:48:26.300755 12645 net.cpp:141] Setting up inception_5b/3x3_reduce
I0403 15:48:26.300784 12645 net.cpp:148] Top shape: 24 192 7 7 (225792)
I0403 15:48:26.300801 12645 net.cpp:156] Memory required for data: 1329757728
I0403 15:48:26.300819 12645 layer_factory.hpp:77] Creating layer inception_5b/relu_3x3_reduce
I0403 15:48:26.300840 12645 net.cpp:91] Creating Layer inception_5b/relu_3x3_reduce
I0403 15:48:26.300858 12645 net.cpp:425] inception_5b/relu_3x3_reduce <- inception_5b/3x3_reduce
I0403 15:48:26.300876 12645 net.cpp:386] inception_5b/relu_3x3_reduce -> inception_5b/3x3_reduce (in-place)
I0403 15:48:26.301082 12645 net.cpp:141] Setting up inception_5b/relu_3x3_reduce
I0403 15:48:26.301108 12645 net.cpp:148] Top shape: 24 192 7 7 (225792)
I0403 15:48:26.301123 12645 net.cpp:156] Memory required for data: 1330660896
I0403 15:48:26.301137 12645 layer_factory.hpp:77] Creating layer inception_5b/3x3
I0403 15:48:26.301159 12645 net.cpp:91] Creating Layer inception_5b/3x3
I0403 15:48:26.301177 12645 net.cpp:425] inception_5b/3x3 <- inception_5b/3x3_reduce
I0403 15:48:26.301199 12645 net.cpp:399] inception_5b/3x3 -> inception_5b/3x3
I0403 15:48:26.307765 12645 net.cpp:141] Setting up inception_5b/3x3
I0403 15:48:26.307792 12645 net.cpp:148] Top shape: 24 384 7 7 (451584)
I0403 15:48:26.307808 12645 net.cpp:156] Memory required for data: 1332467232
I0403 15:48:26.307827 12645 layer_factory.hpp:77] Creating layer inception_5b/relu_3x3
I0403 15:48:26.307847 12645 net.cpp:91] Creating Layer inception_5b/relu_3x3
I0403 15:48:26.307864 12645 net.cpp:425] inception_5b/relu_3x3 <- inception_5b/3x3
I0403 15:48:26.307883 12645 net.cpp:386] inception_5b/relu_3x3 -> inception_5b/3x3 (in-place)
I0403 15:48:26.308171 12645 net.cpp:141] Setting up inception_5b/relu_3x3
I0403 15:48:26.308197 12645 net.cpp:148] Top shape: 24 384 7 7 (451584)
I0403 15:48:26.308212 12645 net.cpp:156] Memory required for data: 1334273568
I0403 15:48:26.308228 12645 layer_factory.hpp:77] Creating layer inception_5b/5x5_reduce
I0403 15:48:26.308269 12645 net.cpp:91] Creating Layer inception_5b/5x5_reduce
I0403 15:48:26.308289 12645 net.cpp:425] inception_5b/5x5_reduce <- inception_5a/output_inception_5a/output_0_split_2
I0403 15:48:26.308308 12645 net.cpp:399] inception_5b/5x5_reduce -> inception_5b/5x5_reduce
I0403 15:48:26.309546 12645 net.cpp:141] Setting up inception_5b/5x5_reduce
I0403 15:48:26.309573 12645 net.cpp:148] Top shape: 24 48 7 7 (56448)
I0403 15:48:26.309600 12645 net.cpp:156] Memory required for data: 1334499360
I0403 15:48:26.309618 12645 layer_factory.hpp:77] Creating layer inception_5b/relu_5x5_reduce
I0403 15:48:26.309638 12645 net.cpp:91] Creating Layer inception_5b/relu_5x5_reduce
I0403 15:48:26.309653 12645 net.cpp:425] inception_5b/relu_5x5_reduce <- inception_5b/5x5_reduce
I0403 15:48:26.309670 12645 net.cpp:386] inception_5b/relu_5x5_reduce -> inception_5b/5x5_reduce (in-place)
I0403 15:48:26.310039 12645 net.cpp:141] Setting up inception_5b/relu_5x5_reduce
I0403 15:48:26.310065 12645 net.cpp:148] Top shape: 24 48 7 7 (56448)
I0403 15:48:26.310081 12645 net.cpp:156] Memory required for data: 1334725152
I0403 15:48:26.310096 12645 layer_factory.hpp:77] Creating layer inception_5b/5x5
I0403 15:48:26.310116 12645 net.cpp:91] Creating Layer inception_5b/5x5
I0403 15:48:26.310132 12645 net.cpp:425] inception_5b/5x5 <- inception_5b/5x5_reduce
I0403 15:48:26.310151 12645 net.cpp:399] inception_5b/5x5 -> inception_5b/5x5
I0403 15:48:26.312155 12645 net.cpp:141] Setting up inception_5b/5x5
I0403 15:48:26.312183 12645 net.cpp:148] Top shape: 24 128 7 7 (150528)
I0403 15:48:26.312201 12645 net.cpp:156] Memory required for data: 1335327264
I0403 15:48:26.312219 12645 layer_factory.hpp:77] Creating layer inception_5b/relu_5x5
I0403 15:48:26.312237 12645 net.cpp:91] Creating Layer inception_5b/relu_5x5
I0403 15:48:26.312253 12645 net.cpp:425] inception_5b/relu_5x5 <- inception_5b/5x5
I0403 15:48:26.312273 12645 net.cpp:386] inception_5b/relu_5x5 -> inception_5b/5x5 (in-place)
I0403 15:48:26.312468 12645 net.cpp:141] Setting up inception_5b/relu_5x5
I0403 15:48:26.312490 12645 net.cpp:148] Top shape: 24 128 7 7 (150528)
I0403 15:48:26.312505 12645 net.cpp:156] Memory required for data: 1335929376
I0403 15:48:26.312520 12645 layer_factory.hpp:77] Creating layer inception_5b/pool
I0403 15:48:26.312537 12645 net.cpp:91] Creating Layer inception_5b/pool
I0403 15:48:26.312553 12645 net.cpp:425] inception_5b/pool <- inception_5a/output_inception_5a/output_0_split_3
I0403 15:48:26.312574 12645 net.cpp:399] inception_5b/pool -> inception_5b/pool
I0403 15:48:26.312645 12645 net.cpp:141] Setting up inception_5b/pool
I0403 15:48:26.312669 12645 net.cpp:148] Top shape: 24 832 7 7 (978432)
I0403 15:48:26.312685 12645 net.cpp:156] Memory required for data: 1339843104
I0403 15:48:26.312698 12645 layer_factory.hpp:77] Creating layer inception_5b/pool_proj
I0403 15:48:26.312722 12645 net.cpp:91] Creating Layer inception_5b/pool_proj
I0403 15:48:26.312741 12645 net.cpp:425] inception_5b/pool_proj <- inception_5b/pool
I0403 15:48:26.312759 12645 net.cpp:399] inception_5b/pool_proj -> inception_5b/pool_proj
I0403 15:48:26.314998 12645 net.cpp:141] Setting up inception_5b/pool_proj
I0403 15:48:26.315028 12645 net.cpp:148] Top shape: 24 128 7 7 (150528)
I0403 15:48:26.315044 12645 net.cpp:156] Memory required for data: 1340445216
I0403 15:48:26.315062 12645 layer_factory.hpp:77] Creating layer inception_5b/relu_pool_proj
I0403 15:48:26.315080 12645 net.cpp:91] Creating Layer inception_5b/relu_pool_proj
I0403 15:48:26.315096 12645 net.cpp:425] inception_5b/relu_pool_proj <- inception_5b/pool_proj
I0403 15:48:26.315114 12645 net.cpp:386] inception_5b/relu_pool_proj -> inception_5b/pool_proj (in-place)
I0403 15:48:26.315412 12645 net.cpp:141] Setting up inception_5b/relu_pool_proj
I0403 15:48:26.315439 12645 net.cpp:148] Top shape: 24 128 7 7 (150528)
I0403 15:48:26.315455 12645 net.cpp:156] Memory required for data: 1341047328
I0403 15:48:26.315470 12645 layer_factory.hpp:77] Creating layer inception_5b/output
I0403 15:48:26.315487 12645 net.cpp:91] Creating Layer inception_5b/output
I0403 15:48:26.315517 12645 net.cpp:425] inception_5b/output <- inception_5b/1x1
I0403 15:48:26.315536 12645 net.cpp:425] inception_5b/output <- inception_5b/3x3
I0403 15:48:26.315551 12645 net.cpp:425] inception_5b/output <- inception_5b/5x5
I0403 15:48:26.315567 12645 net.cpp:425] inception_5b/output <- inception_5b/pool_proj
I0403 15:48:26.315584 12645 net.cpp:399] inception_5b/output -> inception_5b/output
I0403 15:48:26.315636 12645 net.cpp:141] Setting up inception_5b/output
I0403 15:48:26.315659 12645 net.cpp:148] Top shape: 24 1024 7 7 (1204224)
I0403 15:48:26.315673 12645 net.cpp:156] Memory required for data: 1345864224
I0403 15:48:26.315688 12645 layer_factory.hpp:77] Creating layer pool5/7x7_s1
I0403 15:48:26.315707 12645 net.cpp:91] Creating Layer pool5/7x7_s1
I0403 15:48:26.315723 12645 net.cpp:425] pool5/7x7_s1 <- inception_5b/output
I0403 15:48:26.315742 12645 net.cpp:399] pool5/7x7_s1 -> pool5/7x7_s1
I0403 15:48:26.315953 12645 net.cpp:141] Setting up pool5/7x7_s1
I0403 15:48:26.315979 12645 net.cpp:148] Top shape: 24 1024 1 1 (24576)
I0403 15:48:26.315994 12645 net.cpp:156] Memory required for data: 1345962528
I0403 15:48:26.316009 12645 layer_factory.hpp:77] Creating layer pool5/drop_7x7_s1
I0403 15:48:26.316026 12645 net.cpp:91] Creating Layer pool5/drop_7x7_s1
I0403 15:48:26.316042 12645 net.cpp:425] pool5/drop_7x7_s1 <- pool5/7x7_s1
I0403 15:48:26.316059 12645 net.cpp:386] pool5/drop_7x7_s1 -> pool5/7x7_s1 (in-place)
I0403 15:48:26.316109 12645 net.cpp:141] Setting up pool5/drop_7x7_s1
I0403 15:48:26.316133 12645 net.cpp:148] Top shape: 24 1024 1 1 (24576)
I0403 15:48:26.316146 12645 net.cpp:156] Memory required for data: 1346060832
I0403 15:48:26.316160 12645 layer_factory.hpp:77] Creating layer loss3/classifier_plantvillage
I0403 15:48:26.316181 12645 net.cpp:91] Creating Layer loss3/classifier_plantvillage
I0403 15:48:26.316198 12645 net.cpp:425] loss3/classifier_plantvillage <- pool5/7x7_s1
I0403 15:48:26.316216 12645 net.cpp:399] loss3/classifier_plantvillage -> loss3/classifier_plantvillage
I0403 15:48:26.316634 12645 net.cpp:141] Setting up loss3/classifier_plantvillage
I0403 15:48:26.316658 12645 net.cpp:148] Top shape: 24 38 (912)
I0403 15:48:26.316673 12645 net.cpp:156] Memory required for data: 1346064480
I0403 15:48:26.316691 12645 layer_factory.hpp:77] Creating layer loss3/classifier_plantvillage_loss3/classifier_plantvillage_0_split
I0403 15:48:26.316709 12645 net.cpp:91] Creating Layer loss3/classifier_plantvillage_loss3/classifier_plantvillage_0_split
I0403 15:48:26.316725 12645 net.cpp:425] loss3/classifier_plantvillage_loss3/classifier_plantvillage_0_split <- loss3/classifier_plantvillage
I0403 15:48:26.316745 12645 net.cpp:399] loss3/classifier_plantvillage_loss3/classifier_plantvillage_0_split -> loss3/classifier_plantvillage_loss3/classifier_plantvillage_0_split_0
I0403 15:48:26.316766 12645 net.cpp:399] loss3/classifier_plantvillage_loss3/classifier_plantvillage_0_split -> loss3/classifier_plantvillage_loss3/classifier_plantvillage_0_split_1
I0403 15:48:26.316786 12645 net.cpp:399] loss3/classifier_plantvillage_loss3/classifier_plantvillage_0_split -> loss3/classifier_plantvillage_loss3/classifier_plantvillage_0_split_2
I0403 15:48:26.316805 12645 net.cpp:399] loss3/classifier_plantvillage_loss3/classifier_plantvillage_0_split -> loss3/classifier_plantvillage_loss3/classifier_plantvillage_0_split_3
I0403 15:48:26.316907 12645 net.cpp:141] Setting up loss3/classifier_plantvillage_loss3/classifier_plantvillage_0_split
I0403 15:48:26.316929 12645 net.cpp:148] Top shape: 24 38 (912)
I0403 15:48:26.316946 12645 net.cpp:148] Top shape: 24 38 (912)
I0403 15:48:26.316962 12645 net.cpp:148] Top shape: 24 38 (912)
I0403 15:48:26.316977 12645 net.cpp:148] Top shape: 24 38 (912)
I0403 15:48:26.316989 12645 net.cpp:156] Memory required for data: 1346079072
I0403 15:48:26.317003 12645 layer_factory.hpp:77] Creating layer loss1/loss
I0403 15:48:26.317024 12645 net.cpp:91] Creating Layer loss1/loss
I0403 15:48:26.317044 12645 net.cpp:425] loss1/loss <- loss1/classifier_plantvillage_loss1/classifier_plantvillage_0_split_0
I0403 15:48:26.317073 12645 net.cpp:425] loss1/loss <- label_data_1_split_0
…
