…
I0403 15:30:05.813379 12031 net.cpp:313] The NetState phase (1) differed from the phase (0) specified by a rule in layer data
I0403 15:30:05.814591 12031 net.cpp:49] Initializing net from parameters: 
state {
  phase: TEST
}
layer {
  name: "data"
  type: "Data"
  top: "data"
  top: "label"
  include {
    phase: TEST
  }
  transform_param {
    mirror: false
    crop_size: 224
    mean_file: "/home/mohanty/data/final_dataset/lmdb/segmented-40-60/mean.binaryproto"
  }
  data_param {
    source: "/home/mohanty/data/final_dataset/lmdb/segmented-40-60/test_db"
    batch_size: 24
    backend: LMDB
  }
}
layer {
  name: "conv1/7x7_s2"
  type: "Convolution"
  bottom: "data"
  top: "conv1/7x7_s2"
  param {
    lr_mult: 1
    decay_mult: 1
  }
  param {
    lr_mult: 2
    decay_mult: 0
  }
  convolution_param {
    num_output: 64
    pad: 3
    kernel_size: 7
    stride: 2
    weight_filler {
      type: "xavier"
      std: 0.1
    }
    bias_filler {
      type: "constant"
      value: 0.2
    }
  }
}
layer {
  name: "conv1/relu_7x7"
  type: "ReLU"
  bottom: "conv1/7x7_s2"
  top: "conv1/7x7_s2"
}
layer {
  name: "pool1/3x3_s2"
  type: "Pooling"
  bottom: "conv1/7x7_s2"
  top: "pool1/3x3_s2"
  pooling_param {
    pool: MAX
    kernel_size: 3
    stride: 2
  }
}
layer {
  name: "pool1/norm1"
  type: "LRN"
  bottom: "pool1/3x3_s2"
  top: "pool1/norm1"
  lrn_param {
    local_size: 5
    alpha: 0.0001
    beta: 0.75
  }
}
layer {
  name: "conv2/3x3_reduce"
  type: "Convolution"
  bottom: "pool1/norm1"
  top: "conv2/3x3_reduce"
  param {
    lr_mult: 1
    decay_mult: 1
  }
  param {
    lr_mult: 2
    decay_mult: 0
  }
  convolution_param {
    num_output: 64
    kernel_size: 1
    weight_filler {
      type: "xavier"
      std: 0.1
    }
    bias_filler {
      type: "constant"
      value: 0.2
    }
  }
}
layer {
  name: "conv2/relu_3x3_reduce"
  type: "ReLU"
  bottom: "conv2/3x3_reduce"
  top: "conv2/3x3_reduce"
}
layer {
  name: "conv2/3x3"
  type: "Convolution"
  bottom: "conv2/3x3_reduce"
  top: "conv2/3x3"
  param {
    lr_mult: 1
    decay_mult: 1
  }
  param {
    lr_mult: 2
    decay_mult: 0
  }
  convolution_param {
    num_output: 192
    pad: 1
    kernel_size: 3
    weight_filler {
      type: "xavier"
      std: 0.03
    }
    bias_filler {
      type: "constant"
      value: 0.2
    }
  }
}
layer {
  name: "conv2/relu_3x3"
  type: "ReLU"
  bottom: "conv2/3x3"
  top: "conv2/3x3"
}
layer {
  name: "conv2/norm2"
  type: "LRN"
  bottom: "conv2/3x3"
  top: "conv2/norm2"
  lrn_param {
    local_size: 5
    alpha: 0.0001
    beta: 0.75
  }
}
layer {
  name: "pool2/3x3_s2"
  type: "Pooling"
  bottom: "conv2/norm2"
  top: "pool2/3x3_s2"
  pooling_param {
    pool: MAX
    kernel_size: 3
    stride: 2
  }
}
layer {
  name: "inception_3a/1x1"
  type: "Convolution"
  bottom: "pool2/3x3_s2"
  top: "inception_3a/1x1"
  param {
    lr_mult: 1
    decay_mult: 1
  }
  param {
    lr_mult: 2
    decay_mult: 0
  }
  convolution_param {
    num_output: 64
    kernel_size: 1
    weight_filler {
      type: "xavier"
      std: 0.03
    }
    bias_filler {
      type: "constant"
      value: 0.2
    }
  }
}
layer {
  name: "inception_3a/relu_1x1"
  type: "ReLU"
  bottom: "inception_3a/1x1"
  top: "inception_3a/1x1"
}
layer {
  name: "inception_3a/3x3_reduce"
  type: "Convolution"
  bottom: "pool2/3x3_s2"
  top: "inception_3a/3x3_reduce"
  param {
    lr_mult: 1
    decay_mult: 1
  }
  param {
    lr_mult: 2
    decay_mult: 0
  }
  convolution_param {
    num_output: 96
    kernel_size: 1
    weight_filler {
      type: "xavier"
      std: 0.09
    }
    bias_filler {
      type: "constant"
      value: 0.2
    }
  }
}
layer {
  name: "inception_3a/relu_3x3_reduce"
  type: "ReLU"
  bottom: "inception_3a/3x3_reduce"
  top: "inception_3a/3x3_reduce"
}
layer {
  name: "inception_3a/3x3"
  type: "Convolution"
  bottom: "inception_3a/3x3_reduce"
  top: "inception_3a/3x3"
  param {
    lr_mult: 1
    decay_mult: 1
  }
  param {
    lr_mult: 2
    decay_mult: 0
  }
  convolution_param {
    num_output: 128
    pad: 1
    kernel_size: 3
    weight_filler {
      type: "xavier"
      std: 0.03
    }
    bias_filler {
      type: "constant"
      value: 0.2
    }
  }
}
layer {
  name: "inception_3a/relu_3x3"
  type: "ReLU"
  bottom: "inception_3a/3x3"
  top: "inception_3a/3x3"
}
layer {
  name: "inception_3a/5x5_reduce"
  type: "Convolution"
  bottom: "pool2/3x3_s2"
  top: "inception_3a/5x5_reduce"
  param {
    lr_mult: 1
    decay_mult: 1
  }
  param {
    lr_mult: 2
    decay_mult: 0
  }
  convolution_param {
    num_output: 16
    kernel_size: 1
    weight_filler {
      type: "xavier"
      std: 0.2
    }
    bias_filler {
      type: "constant"
      value: 0.2
    }
  }
}
layer {
  name: "inception_3a/relu_5x5_reduce"
  type: "ReLU"
  bottom: "inception_3a/5x5_reduce"
  top: "inception_3a/5x5_reduce"
}
layer {
  name: "inception_3a/5x5"
  type: "Convolution"
  bottom: "inception_3a/5x5_reduce"
  top: "inception_3a/5x5"
  param {
    lr_mult: 1
    decay_mult: 1
  }
  param {
    lr_mult: 2
    decay_mult: 0
  }
  convolution_param {
    num_output: 32
    pad: 2
    kernel_size: 5
    weight_filler {
      type: "xavier"
      std: 0.03
    }
    bias_filler {
      type: "constant"
      value: 0.2
    }
  }
}
layer {
  name: "inception_3a/relu_5x5"
  type: "ReLU"
  bottom: "inception_3a/5x5"
  top: "inception_3a/5x5"
}
layer {
  name: "inception_3a/pool"
  type: "Pooling"
  bottom: "pool2/3x3_s2"
  top: "inception_3a/pool"
  pooling_param {
    pool: MAX
    kernel_size: 3
    stride: 1
    pad: 1
  }
}
layer {
  name: "inception_3a/pool_proj"
  type: "Convolution"
  bottom: "inception_3a/pool"
  top: "inception_3a/pool_proj"
  param {
    lr_mult: 1
    decay_mult: 1
  }
  param {
    lr_mult: 2
    decay_mult: 0
  }
  convolution_param {
    num_output: 32
    kernel_size: 1
    weight_filler {
      type: "xavier"
      std: 0.1
    }
    bias_filler {
      type: "constant"
      value: 0.2
    }
  }
}
layer {
  name: "inception_3a/relu_pool_proj"
  type: "ReLU"
  bottom: "inception_3a/pool_proj"
  top: "inception_3a/pool_proj"
}
layer {
  name: "inception_3a/output"
  type: "Concat"
  bottom: "inception_3a/1x1"
  bottom: "inception_3a/3x3"
  bottom: "inception_3a/5x5"
  bottom: "inception_3a/pool_proj"
  top: "inception_3a/output"
}
layer {
  name: "inception_3b/1x1"
  type: "Convolution"
  bottom: "inception_3a/output"
  top: "inception_3b/1x1"
  param {
    lr_mult: 1
    decay_mult: 1
  }
  param {
    lr_mult: 2
    decay_mult: 0
  }
  convolution_param {
    num_output: 128
    kernel_size: 1
    weight_filler {
      type: "xavier"
      std: 0.03
    }
    bias_filler {
      type: "constant"
      value: 0.2
    }
  }
}
layer {
  name: "inception_3b/relu_1x1"
  type: "ReLU"
  bottom: "inception_3b/1x1"
  top: "inception_3b/1x1"
}
layer {
  name: "inception_3b/3x3_reduce"
  type: "Convolution"
  bottom: "inception_3a/output"
  top: "inception_3b/3x3_reduce"
  param {
    lr_mult: 1
    decay_mult: 1
  }
  param {
    lr_mult: 2
    decay_mult: 0
  }
  convolution_param {
    num_output: 128
    kernel_size: 1
    weight_filler {
      type: "xavier"
      std: 0.09
    }
    bias_filler {
      type: "constant"
      value: 0.2
    }
  }
}
layer {
  name: "inception_3b/relu_3x3_reduce"
  type: "ReLU"
  bottom: "inception_3b/3x3_reduce"
  top: "inception_3b/3x3_reduce"
}
layer {
  name: "inception_3b/3x3"
  type: "Convolution"
  bottom: "inception_3b/3x3_reduce"
  top: "inception_3b/3x3"
  param {
    lr_mult: 1
    decay_mult: 1
  }
  param {
    lr_mult: 2
    decay_mult: 0
  }
  convolution_param {
    num_output: 192
    pad: 1
    kernel_size: 3
    weight_filler {
      type: "xavier"
      std: 0.03
    }
    bias_filler {
      type: "constant"
      value: 0.2
    }
  }
}
layer {
  name: "inception_3b/relu_3x3"
  type: "ReLU"
  bottom: "inception_3b/3x3"
  top: "inception_3b/3x3"
}
layer {
  name: "inception_3b/5x5_reduce"
  type: "Convolution"
  bottom: "inception_3a/output"
  top: "inception_3b/5x5_reduce"
  param {
    lr_mult: 1
    decay_mult: 1
  }
  param {
    lr_mult: 2
    decay_mult: 0
  }
  convolution_param {
    num_output: 32
    kernel_size: 1
    weight_filler {
      type: "xavier"
      std: 0.2
    }
    bias_filler {
      type: "constant"
      value: 0.2
    }
  }
}
layer {
  name: "inception_3b/relu_5x5_reduce"
  type: "ReLU"
  bottom: "inception_3b/5x5_reduce"
  top: "inception_3b/5x5_reduce"
}
layer {
  name: "inception_3b/5x5"
  type: "Convolution"
  bottom: "inception_3b/5x5_reduce"
  top: "inception_3b/5x5"
  param {
    lr_mult: 1
    decay_mult: 1
  }
  param {
    lr_mult: 2
    decay_mult: 0
  }
  convolution_param {
    num_output: 96
    pad: 2
    kernel_size: 5
    weight_filler {
      type: "xavier"
      std: 0.03
    }
    bias_filler {
      type: "constant"
      value: 0.2
    }
  }
}
layer {
  name: "inception_3b/relu_5x5"
  type: "ReLU"
  bottom: "inception_3b/5x5"
  top: "inception_3b/5x5"
}
layer {
  name: "inception_3b/pool"
  type: "Pooling"
  bottom: "inception_3a/output"
  top: "inception_3b/pool"
  pooling_param {
    pool: MAX
    kernel_size: 3
    stride: 1
    pad: 1
  }
}
layer {
  name: "inception_3b/pool_proj"
  type: "Convolution"
  bottom: "inception_3b/pool"
  top: "inception_3b/pool_proj"
  param {
    lr_mult: 1
    decay_mult: 1
  }
  param {
    lr_mult: 2
    decay_mult: 0
  }
  convolution_param {
    num_output: 64
    kernel_size: 1
    weight_filler {
      type: "xavier"
      std: 0.1
    }
    bias_filler {
      type: "constant"
      value: 0.2
    }
  }
}
layer {
  name: "inception_3b/relu_pool_proj"
  type: "ReLU"
  bottom: "inception_3b/pool_proj"
  top: "inception_3b/pool_proj"
}
layer {
  name: "inception_3b/output"
  type: "Concat"
  bottom: "inception_3b/1x1"
  bottom: "inception_3b/3x3"
  bottom: "inception_3b/5x5"
  bottom: "inception_3b/pool_proj"
  top: "inception_3b/output"
}
layer {
  name: "pool3/3x3_s2"
  type: "Pooling"
  bottom: "inception_3b/output"
  top: "pool3/3x3_s2"
  pooling_param {
    pool: MAX
    kernel_size: 3
    stride: 2
  }
}
layer {
  name: "inception_4a/1x1"
  type: "Convolution"
  bottom: "pool3/3x3_s2"
  top: "inception_4a/1x1"
  param {
    lr_mult: 1
    decay_mult: 1
  }
  param {
    lr_mult: 2
    decay_mult: 0
  }
  convolution_param {
    num_output: 192
    kernel_size: 1
    weight_filler {
      type: "xavier"
      std: 0.03
    }
    bias_filler {
      type: "constant"
      value: 0.2
    }
  }
}
layer {
  name: "inception_4a/relu_1x1"
  type: "ReLU"
  bottom: "inception_4a/1x1"
  top: "inception_4a/1x1"
}
layer {
  name: "inception_4a/3x3_reduce"
  type: "Convolution"
  bottom: "pool3/3x3_s2"
  top: "inception_4a/3x3_reduce"
  param {
    lr_mult: 1
    decay_mult: 1
  }
  param {
    lr_mult: 2
    decay_mult: 0
  }
  convolution_param {
    num_output: 96
    kernel_size: 1
    weight_filler {
      type: "xavier"
      std: 0.09
    }
    bias_filler {
      type: "constant"
      value: 0.2
    }
  }
}
layer {
  name: "inception_4a/relu_3x3_reduce"
  type: "ReLU"
  bottom: "inception_4a/3x3_reduce"
  top: "inception_4a/3x3_reduce"
}
layer {
  name: "inception_4a/3x3"
  type: "Convolution"
  bottom: "inception_4a/3x3_reduce"
  top: "inception_4a/3x3"
  param {
    lr_mult: 1
    decay_mult: 1
  }
  param {
    lr_mult: 2
    decay_mult: 0
  }
  convolution_param {
    num_output: 208
    pad: 1
    kernel_size: 3
    weight_filler {
      type: "xavier"
      std: 0.03
    }
    bias_filler {
      type: "constant"
      value: 0.2
    }
  }
}
layer {
  name: "inception_4a/relu_3x3"
  type: "ReLU"
  bottom: "inception_4a/3x3"
  top: "inception_4a/3x3"
}
layer {
  name: "inception_4a/5x5_reduce"
  type: "Convolution"
  bottom: "pool3/3x3_s2"
  top: "inception_4a/5x5_reduce"
  param {
    lr_mult: 1
    decay_mult: 1
  }
  param {
    lr_mult: 2
    decay_mult: 0
  }
  convolution_param {
    num_output: 16
    kernel_size: 1
    weight_filler {
      type: "xavier"
      std: 0.2
    }
    bias_filler {
      type: "constant"
      value: 0.2
    }
  }
}
layer {
  name: "inception_4a/relu_5x5_reduce"
  type: "ReLU"
  bottom: "inception_4a/5x5_reduce"
  top: "inception_4a/5x5_reduce"
}
layer {
  name: "inception_4a/5x5"
  type: "Convolution"
  bottom: "inception_4a/5x5_reduce"
  top: "inception_4a/5x5"
  param {
    lr_mult: 1
    decay_mult: 1
  }
  param {
    lr_mult: 2
    decay_mult: 0
  }
  convolution_param {
    num_output: 48
    pad: 2
    kernel_size: 5
    weight_filler {
      type: "xavier"
      std: 0.03
    }
    bias_filler {
      type: "constant"
      value: 0.2
    }
  }
}
layer {
  name: "inception_4a/relu_5x5"
  type: "ReLU"
  bottom: "inception_4a/5x5"
  top: "inception_4a/5x5"
}
layer {
  name: "inception_4a/pool"
  type: "Pooling"
  bottom: "pool3/3x3_s2"
  top: "inception_4a/pool"
  pooling_param {
    pool: MAX
    kernel_size: 3
    stride: 1
    pad: 1
  }
}
layer {
  name: "inception_4a/pool_proj"
  type: "Convolution"
  bottom: "inception_4a/pool"
  top: "inception_4a/pool_proj"
  param {
    lr_mult: 1
    decay_mult: 1
  }
  param {
    lr_mult: 2
    decay_mult: 0
  }
  convolution_param {
    num_output: 64
    kernel_size: 1
    weight_filler {
      type: "xavier"
      std: 0.1
    }
    bias_filler {
      type: "constant"
      value: 0.2
    }
  }
}
layer {
  name: "inception_4a/relu_pool_proj"
  type: "ReLU"
  bottom: "inception_4a/pool_proj"
  top: "inception_4a/pool_proj"
}
layer {
  name: "inception_4a/output"
  type: "Concat"
  bottom: "inception_4a/1x1"
  bottom: "inception_4a/3x3"
  bottom: "inception_4a/5x5"
  bottom: "inception_4a/pool_proj"
  top: "inception_4a/output"
}
layer {
  name: "loss1/ave_pool"
  type: "Pooling"
  bottom: "inception_4a/output"
  top: "loss1/ave_pool"
  pooling_param {
    pool: AVE
    kernel_size: 5
    stride: 3
  }
}
layer {
  name: "loss1/conv"
  type: "Convolution"
  bottom: "loss1/ave_pool"
  top: "loss1/conv"
  param {
    lr_mult: 1
    decay_mult: 1
  }
  param {
    lr_mult: 2
    decay_mult: 0
  }
  convolution_param {
    num_output: 128
    kernel_size: 1
    weight_filler {
      type: "xavier"
      std: 0.08
    }
    bias_filler {
      type: "constant"
      value: 0.2
    }
  }
}
layer {
  name: "loss1/relu_conv"
  type: "ReLU"
  bottom: "loss1/conv"
  top: "loss1/conv"
}
layer {
  name: "loss1/fc"
  type: "InnerProduct"
  bottom: "loss1/conv"
  top: "loss1/fc"
  param {
    lr_mult: 1
    decay_mult: 1
  }
  param {
    lr_mult: 2
    decay_mult: 0
  }
  inner_product_param {
    num_output: 1024
    weight_filler {
      type: "xavier"
      std: 0.02
    }
    bias_filler {
      type: "constant"
      value: 0.2
    }
  }
}
layer {
  name: "loss1/relu_fc"
  type: "ReLU"
  bottom: "loss1/fc"
  top: "loss1/fc"
}
layer {
  name: "loss1/drop_fc"
  type: "Dropout"
  bottom: "loss1/fc"
  top: "loss1/fc"
  dropout_param {
    dropout_ratio: 0.7
  }
}
layer {
  name: "loss1/classifier_plantvillage"
  type: "InnerProduct"
  bottom: "loss1/fc"
  top: "loss1/classifier_plantvillage"
  param {
    lr_mult: 1
    decay_mult: 1
  }
  param {
    lr_mult: 2
    decay_mult: 0
  }
  inner_product_param {
    num_output: 38
    weight_filler {
      type: "xavier"
      std: 0.0009765625
    }
    bias_filler {
      type: "constant"
      value: 0
    }
  }
}
layer {
  name: "inception_4b/1x1"
  type: "Convolution"
  bottom: "inception_4a/output"
  top: "inception_4b/1x1"
  param {
    lr_mult: 1
    decay_mult: 1
  }
  param {
    lr_mult: 2
    decay_mult: 0
  }
  convolution_param {
    num_output: 160
    kernel_size: 1
    weight_filler {
      type: "xavier"
      std: 0.03
    }
    bias_filler {
      type: "constant"
      value: 0.2
    }
  }
}
layer {
  name: "inception_4b/relu_1x1"
  type: "ReLU"
  bottom: "inception_4b/1x1"
  top: "inception_4b/1x1"
}
layer {
  name: "inception_4b/3x3_reduce"
  type: "Convolution"
  bottom: "inception_4a/output"
  top: "inception_4b/3x3_reduce"
  param {
    lr_mult: 1
    decay_mult: 1
  }
  param {
    lr_mult: 2
    decay_mult: 0
  }
  convolution_param {
    num_output: 112
    kernel_size: 1
    weight_filler {
      type: "xavier"
      std: 0.09
    }
    bias_filler {
      type: "constant"
      value: 0.2
    }
  }
}
layer {
  name: "inception_4b/relu_3x3_reduce"
  type: "ReLU"
  bottom: "inception_4b/3x3_reduce"
  top: "inception_4b/3x3_reduce"
}
layer {
  name: "inception_4b/3x3"
  type: "Convolution"
  bottom: "inception_4b/3x3_reduce"
  top: "inception_4b/3x3"
  param {
    lr_mult: 1
    decay_mult: 1
  }
  param {
    lr_mult: 2
    decay_mult: 0
  }
  convolution_param {
    num_output: 224
    pad: 1
    kernel_size: 3
    weight_filler {
      type: "xavier"
      std: 0.03
    }
    bias_filler {
      type: "constant"
      value: 0.2
    }
  }
}
layer {
  name: "inception_4b/relu_3x3"
  type: "ReLU"
  bottom: "inception_4b/3x3"
  top: "inception_4b/3x3"
}
layer {
  name: "inception_4b/5x5_reduce"
  type: "Convolution"
  bottom: "inception_4a/output"
  top: "inception_4b/5x5_reduce"
  param {
    lr_mult: 1
    decay_mult: 1
  }
  param {
    lr_mult: 2
    decay_mult: 0
  }
  convolution_param {
    num_output: 24
    kernel_size: 1
    weight_filler {
      type: "xavier"
      std: 0.2
    }
    bias_filler {
      type: "constant"
      value: 0.2
    }
  }
}
layer {
  name: "inception_4b/relu_5x5_reduce"
  type: "ReLU"
  bottom: "inception_4b/5x5_reduce"
  top: "inception_4b/5x5_reduce"
}
layer {
  name: "inception_4b/5x5"
  type: "Convolution"
  bottom: "inception_4b/5x5_reduce"
  top: "inception_4b/5x5"
  param {
    lr_mult: 1
    decay_mult: 1
  }
  param {
    lr_mult: 2
    decay_mult: 0
  }
  convolution_param {
    num_output: 64
    pad: 2
    kernel_size: 5
    weight_filler {
      type: "xavier"
      std: 0.03
    }
    bias_filler {
      type: "constant"
      value: 0.2
    }
  }
}
layer {
  name: "inception_4b/relu_5x5"
  type: "ReLU"
  bottom: "inception_4b/5x5"
  top: "inception_4b/5x5"
}
layer {
  name: "inception_4b/pool"
  type: "Pooling"
  bottom: "inception_4a/output"
  top: "inception_4b/pool"
  pooling_param {
    pool: MAX
    kernel_size: 3
    stride: 1
    pad: 1
  }
}
layer {
  name: "inception_4b/pool_proj"
  type: "Convolution"
  bottom: "inception_4b/pool"
  top: "inception_4b/pool_proj"
  param {
    lr_mult: 1
    decay_mult: 1
  }
  param {
    lr_mult: 2
    decay_mult: 0
  }
  convolution_param {
    num_output: 64
    kernel_size: 1
    weight_filler {
      type: "xavier"
      std: 0.1
    }
    bias_filler {
      type: "constant"
      value: 0.2
    }
  }
}
layer {
  name: "inception_4b/relu_pool_proj"
  type: "ReLU"
  bottom: "inception_4b/pool_proj"
  top: "inception_4b/pool_proj"
}
layer {
  name: "inception_4b/output"
  type: "Concat"
  bottom: "inception_4b/1x1"
  bottom: "inception_4b/3x3"
  bottom: "inception_4b/5x5"
  bottom: "inception_4b/pool_proj"
  top: "inception_4b/output"
}
layer {
  name: "inception_4c/1x1"
  type: "Convolution"
  bottom: "inception_4b/output"
  top: "inception_4c/1x1"
  param {
    lr_mult: 1
    decay_mult: 1
  }
  param {
    lr_mult: 2
    decay_mult: 0
  }
  convolution_param {
    num_output: 128
    kernel_size: 1
    weight_filler {
      type: "xavier"
      std: 0.03
    }
    bias_filler {
      type: "constant"
      value: 0.2
    }
  }
}
layer {
  name: "inception_4c/relu_1x1"
  type: "ReLU"
  bottom: "inception_4c/1x1"
  top: "inception_4c/1x1"
}
layer {
  name: "inception_4c/3x3_reduce"
  type: "Convolution"
  bottom: "inception_4b/output"
  top: "inception_4c/3x3_reduce"
  param {
    lr_mult: 1
    decay_mult: 1
  }
  param {
    lr_mult: 2
    decay_mult: 0
  }
  convolution_param {
    num_output: 128
    kernel_size: 1
    weight_filler {
      type: "xavier"
      std: 0.09
    }
    bias_filler {
      type: "constant"
      value: 0.2
    }
  }
}
layer {
  name: "inception_4c/relu_3x3_reduce"
  type: "ReLU"
  bottom: "inception_4c/3x3_reduce"
  top: "inception_4c/3x3_reduce"
}
layer {
  name: "inception_4c/3x3"
  type: "Convolution"
  bottom: "inception_4c/3x3_reduce"
  top: "inception_4c/3x3"
  param {
    lr_mult: 1
    decay_mult: 1
  }
  param {
    lr_mult: 2
    decay_mult: 0
  }
  convolution_param {
    num_output: 256
    pad: 1
    kernel_size: 3
    weight_filler {
      type: "xavier"
      std: 0.03
    }
    bias_filler {
      type: "constant"
      value: 0.2
    }
  }
}
layer {
  name: "inception_4c/relu_3x3"
  type: "ReLU"
  bottom: "inception_4c/3x3"
  top: "inception_4c/3x3"
}
layer {
  name: "inception_4c/5x5_reduce"
  type: "Convolution"
  bottom: "inception_4b/output"
  top: "inception_4c/5x5_reduce"
  param {
    lr_mult: 1
    decay_mult: 1
  }
  param {
    lr_mult: 2
    decay_mult: 0
  }
  convolution_param {
    num_output: 24
    kernel_size: 1
    weight_filler {
      type: "xavier"
      std: 0.2
    }
    bias_filler {
      type: "constant"
      value: 0.2
    }
  }
}
layer {
  name: "inception_4c/relu_5x5_reduce"
  type: "ReLU"
  bottom: "inception_4c/5x5_reduce"
  top: "inception_4c/5x5_reduce"
}
layer {
  name: "inception_4c/5x5"
  type: "Convolution"
  bottom: "inception_4c/5x5_reduce"
  top: "inception_4c/5x5"
  param {
    lr_mult: 1
    decay_mult: 1
  }
  param {
    lr_mult: 2
    decay_mult: 0
  }
  convolution_param {
    num_output: 64
    pad: 2
    kernel_size: 5
    weight_filler {
      type: "xavier"
      std: 0.03
    }
    bias_filler {
      type: "constant"
      value: 0.2
    }
  }
}
layer {
  name: "inception_4c/relu_5x5"
  type: "ReLU"
  bottom: "inception_4c/5x5"
  top: "inception_4c/5x5"
}
layer {
  name: "inception_4c/pool"
  type: "Pooling"
  bottom: "inception_4b/output"
  top: "inception_4c/pool"
  pooling_param {
    pool: MAX
    kernel_size: 3
    stride: 1
    pad: 1
  }
}
layer {
  name: "inception_4c/pool_proj"
  type: "Convolution"
  bottom: "inception_4c/pool"
  top: "inception_4c/pool_proj"
  param {
    lr_mult: 1
    decay_mult: 1
  }
  param {
    lr_mult: 2
    decay_mult: 0
  }
  convolution_param {
    num_output: 64
    kernel_size: 1
    weight_filler {
      type: "xavier"
      std: 0.1
    }
    bias_filler {
      type: "constant"
      value: 0.2
    }
  }
}
layer {
  name: "inception_4c/relu_pool_proj"
  type: "ReLU"
  bottom: "inception_4c/pool_proj"
  top: "inception_4c/pool_proj"
}
layer {
  name: "inception_4c/output"
  type: "Concat"
  bottom: "inception_4c/1x1"
  bottom: "inception_4c/3x3"
  bottom: "inception_4c/5x5"
  bottom: "inception_4c/pool_proj"
  top: "inception_4c/output"
}
layer {
  name: "inception_4d/1x1"
  type: "Convolution"
  bottom: "inception_4c/output"
  top: "inception_4d/1x1"
  param {
    lr_mult: 1
    decay_mult: 1
  }
  param {
    lr_mult: 2
    decay_mult: 0
  }
  convolution_param {
    num_output: 112
    kernel_size: 1
    weight_filler {
      type: "xavier"
      std: 0.03
    }
    bias_filler {
      type: "constant"
      value: 0.2
    }
  }
}
layer {
  name: "inception_4d/relu_1x1"
  type: "ReLU"
  bottom: "inception_4d/1x1"
  top: "inception_4d/1x1"
}
layer {
  name: "inception_4d/3x3_reduce"
  type: "Convolution"
  bottom: "inception_4c/output"
  top: "inception_4d/3x3_reduce"
  param {
    lr_mult: 1
    decay_mult: 1
  }
  param {
    lr_mult: 2
    decay_mult: 0
  }
  convolution_param {
    num_output: 144
    kernel_size: 1
    weight_filler {
      type: "xavier"
      std: 0.09
    }
    bias_filler {
      type: "constant"
      value: 0.2
    }
  }
}
layer {
  name: "inception_4d/relu_3x3_reduce"
  type: "ReLU"
  bottom: "inception_4d/3x3_reduce"
  top: "inception_4d/3x3_reduce"
}
layer {
  name: "inception_4d/3x3"
  type: "Convolution"
  bottom: "inception_4d/3x3_reduce"
  top: "inception_4d/3x3"
  param {
    lr_mult: 1
    decay_mult: 1
  }
  param {
    lr_mult: 2
    decay_mult: 0
  }
  convolution_param {
    num_output: 288
    pad: 1
    kernel_size: 3
    weight_filler {
      type: "xavier"
      std: 0.03
    }
    bias_filler {
      type: "constant"
      value: 0.2
    }
  }
}
layer {
  name: "inception_4d/relu_3x3"
  type: "ReLU"
  bottom: "inception_4d/3x3"
  top: "inception_4d/3x3"
}
layer {
  name: "inception_4d/5x5_reduce"
  type: "Convolution"
  bottom: "inception_4c/output"
  top: "inception_4d/5x5_reduce"
  param {
    lr_mult: 1
    decay_mult: 1
  }
  param {
    lr_mult: 2
    decay_mult: 0
  }
  convolution_param {
    num_output: 32
    kernel_size: 1
    weight_filler {
      type: "xavier"
      std: 0.2
    }
    bias_filler {
      type: "constant"
      value: 0.2
    }
  }
}
layer {
  name: "inception_4d/relu_5x5_reduce"
  type: "ReLU"
  bottom: "inception_4d/5x5_reduce"
  top: "inception_4d/5x5_reduce"
}
layer {
  name: "inception_4d/5x5"
  type: "Convolution"
  bottom: "inception_4d/5x5_reduce"
  top: "inception_4d/5x5"
  param {
    lr_mult: 1
    decay_mult: 1
  }
  param {
    lr_mult: 2
    decay_mult: 0
  }
  convolution_param {
    num_output: 64
    pad: 2
    kernel_size: 5
    weight_filler {
      type: "xavier"
      std: 0.03
    }
    bias_filler {
      type: "constant"
      value: 0.2
    }
  }
}
layer {
  name: "inception_4d/relu_5x5"
  type: "ReLU"
  bottom: "inception_4d/5x5"
  top: "inception_4d/5x5"
}
layer {
  name: "inception_4d/pool"
  type: "Pooling"
  bottom: "inception_4c/output"
  top: "inception_4d/pool"
  pooling_param {
    pool: MAX
    kernel_size: 3
    stride: 1
    pad: 1
  }
}
layer {
  name: "inception_4d/pool_proj"
  type: "Convolution"
  bottom: "inception_4d/pool"
  top: "inception_4d/pool_proj"
  param {
    lr_mult: 1
    decay_mult: 1
  }
  param {
    lr_mult: 2
    decay_mult: 0
  }
  convolution_param {
    num_output: 64
    kernel_size: 1
    weight_filler {
      type: "xavier"
      std: 0.1
    }
    bias_filler {
      type: "constant"
      value: 0.2
    }
  }
}
layer {
  name: "inception_4d/relu_pool_proj"
  type: "ReLU"
  bottom: "inception_4d/pool_proj"
  top: "inception_4d/pool_proj"
}
layer {
  name: "inception_4d/output"
  type: "Concat"
  bottom: "inception_4d/1x1"
  bottom: "inception_4d/3x3"
  bottom: "inception_4d/5x5"
  bottom: "inception_4d/pool_proj"
  top: "inception_4d/output"
}
layer {
  name: "loss2/ave_pool"
  type: "Pooling"
  bottom: "inception_4d/output"
  top: "loss2/ave_pool"
  pooling_param {
    pool: AVE
    kernel_size: 5
    stride: 3
  }
}
layer {
  name: "loss2/conv"
  type: "Convolution"
  bottom: "loss2/ave_pool"
  top: "loss2/conv"
  param {
    lr_mult: 1
    decay_mult: 1
  }
  param {
    lr_mult: 2
    decay_mult: 0
  }
  convolution_param {
    num_output: 128
    kernel_size: 1
    weight_filler {
      type: "xavier"
      std: 0.08
    }
    bias_filler {
      type: "constant"
      value: 0.2
    }
  }
}
layer {
  name: "loss2/relu_conv"
  type: "ReLU"
  bottom: "loss2/conv"
  top: "loss2/conv"
}
layer {
  name: "loss2/fc"
  type: "InnerProduct"
  bottom: "loss2/conv"
  top: "loss2/fc"
  param {
    lr_mult: 1
    decay_mult: 1
  }
  param {
    lr_mult: 2
    decay_mult: 0
  }
  inner_product_param {
    num_output: 1024
    weight_filler {
      type: "xavier"
      std: 0.02
    }
    bias_filler {
      type: "constant"
      value: 0.2
    }
  }
}
layer {
  name: "loss2/relu_fc"
  type: "ReLU"
  bottom: "loss2/fc"
  top: "loss2/fc"
}
layer {
  name: "loss2/drop_fc"
  type: "Dropout"
  bottom: "loss2/fc"
  top: "loss2/fc"
  dropout_param {
    dropout_ratio: 0.7
  }
}
layer {
  name: "loss2/classifier_plantvillage"
  type: "InnerProduct"
  bottom: "loss2/fc"
  top: "loss2/classifier_plantvillage"
  param {
    lr_mult: 1
    decay_mult: 1
  }
  param {
    lr_mult: 2
    decay_mult: 0
  }
  inner_product_param {
    num_output: 38
    weight_filler {
      type: "xavier"
      std: 0.0009765625
    }
    bias_filler {
      type: "constant"
      value: 0
    }
  }
}
layer {
  name: "inception_4e/1x1"
  type: "Convolution"
  bottom: "inception_4d/output"
  top: "inception_4e/1x1"
  param {
    lr_mult: 1
    decay_mult: 1
  }
  param {
    lr_mult: 2
    decay_mult: 0
  }
  convolution_param {
    num_output: 256
    kernel_size: 1
    weight_filler {
      type: "xavier"
      std: 0.03
    }
    bias_filler {
      type: "constant"
      value: 0.2
    }
  }
}
layer {
  name: "inception_4e/relu_1x1"
  type: "ReLU"
  bottom: "inception_4e/1x1"
  top: "inception_4e/1x1"
}
layer {
  name: "inception_4e/3x3_reduce"
  type: "Convolution"
  bottom: "inception_4d/output"
  top: "inception_4e/3x3_reduce"
  param {
    lr_mult: 1
    decay_mult: 1
  }
  param {
    lr_mult: 2
    decay_mult: 0
  }
  convolution_param {
    num_output: 160
    kernel_size: 1
    weight_filler {
      type: "xavier"
      std: 0.09
    }
    bias_filler {
      type: "constant"
      value: 0.2
    }
  }
}
layer {
  name: "inception_4e/relu_3x3_reduce"
  type: "ReLU"
  bottom: "inception_4e/3x3_reduce"
  top: "inception_4e/3x3_reduce"
}
layer {
  name: "inception_4e/3x3"
  type: "Convolution"
  bottom: "inception_4e/3x3_reduce"
  top: "inception_4e/3x3"
  param {
    lr_mult: 1
    decay_mult: 1
  }
  param {
    lr_mult: 2
    decay_mult: 0
  }
  convolution_param {
    num_output: 320
    pad: 1
    kernel_size: 3
    weight_filler {
      type: "xavier"
      std: 0.03
    }
    bias_filler {
      type: "constant"
      value: 0.2
    }
  }
}
layer {
  name: "inception_4e/relu_3x3"
  type: "ReLU"
  bottom: "inception_4e/3x3"
  top: "inception_4e/3x3"
}
layer {
  name: "inception_4e/5x5_reduce"
  type: "Convolution"
  bottom: "inception_4d/output"
  top: "inception_4e/5x5_reduce"
  param {
    lr_mult: 1
    decay_mult: 1
  }
  param {
    lr_mult: 2
    decay_mult: 0
  }
  convolution_param {
    num_output: 32
    kernel_size: 1
    weight_filler {
      type: "xavier"
      std: 0.2
    }
    bias_filler {
      type: "constant"
      value: 0.2
    }
  }
}
layer {
  name: "inception_4e/relu_5x5_reduce"
  type: "ReLU"
  bottom: "inception_4e/5x5_reduce"
  top: "inception_4e/5x5_reduce"
}
layer {
  name: "inception_4e/5x5"
  type: "Convolution"
  bottom: "inception_4e/5x5_reduce"
  top: "inception_4e/
I0403 15:30:05.815841 12031 layer_factory.hpp:77] Creating layer data
I0403 15:30:05.816476 12031 net.cpp:91] Creating Layer data
I0403 15:30:05.816507 12031 net.cpp:399] data -> data
I0403 15:30:05.816562 12031 net.cpp:399] data -> label
I0403 15:30:05.816599 12031 data_transformer.cpp:25] Loading mean file from: /home/mohanty/data/final_dataset/lmdb/segmented-40-60/mean.binaryproto
I0403 15:30:05.819653 12034 db_lmdb.cpp:38] Opened lmdb /home/mohanty/data/final_dataset/lmdb/segmented-40-60/test_db
I0403 15:30:05.830113 12031 data_layer.cpp:41] output data size: 24,3,224,224
I0403 15:30:05.857327 12031 net.cpp:141] Setting up data
I0403 15:30:05.857389 12031 net.cpp:148] Top shape: 24 3 224 224 (3612672)
I0403 15:30:05.857414 12031 net.cpp:148] Top shape: 24 (24)
I0403 15:30:05.857429 12031 net.cpp:156] Memory required for data: 14450784
I0403 15:30:05.857457 12031 layer_factory.hpp:77] Creating layer label_data_1_split
I0403 15:30:05.857486 12031 net.cpp:91] Creating Layer label_data_1_split
I0403 15:30:05.857504 12031 net.cpp:425] label_data_1_split <- label
I0403 15:30:05.857537 12031 net.cpp:399] label_data_1_split -> label_data_1_split_0
I0403 15:30:05.857566 12031 net.cpp:399] label_data_1_split -> label_data_1_split_1
I0403 15:30:05.857589 12031 net.cpp:399] label_data_1_split -> label_data_1_split_2
I0403 15:30:05.857611 12031 net.cpp:399] label_data_1_split -> label_data_1_split_3
I0403 15:30:05.857633 12031 net.cpp:399] label_data_1_split -> label_data_1_split_4
I0403 15:30:05.857655 12031 net.cpp:399] label_data_1_split -> label_data_1_split_5
I0403 15:30:05.857674 12031 net.cpp:399] label_data_1_split -> label_data_1_split_6
I0403 15:30:05.857697 12031 net.cpp:399] label_data_1_split -> label_data_1_split_7
I0403 15:30:05.857717 12031 net.cpp:399] label_data_1_split -> label_data_1_split_8
I0403 15:30:05.857739 12031 net.cpp:399] label_data_1_split -> label_data_1_split_9
I0403 15:30:05.857859 12031 net.cpp:141] Setting up label_data_1_split
I0403 15:30:05.857884 12031 net.cpp:148] Top shape: 24 (24)
I0403 15:30:05.857903 12031 net.cpp:148] Top shape: 24 (24)
I0403 15:30:05.857920 12031 net.cpp:148] Top shape: 24 (24)
I0403 15:30:05.857936 12031 net.cpp:148] Top shape: 24 (24)
I0403 15:30:05.857952 12031 net.cpp:148] Top shape: 24 (24)
I0403 15:30:05.857969 12031 net.cpp:148] Top shape: 24 (24)
I0403 15:30:05.857986 12031 net.cpp:148] Top shape: 24 (24)
I0403 15:30:05.858002 12031 net.cpp:148] Top shape: 24 (24)
I0403 15:30:05.858018 12031 net.cpp:148] Top shape: 24 (24)
I0403 15:30:05.858034 12031 net.cpp:148] Top shape: 24 (24)
I0403 15:30:05.858072 12031 net.cpp:156] Memory required for data: 14451744
I0403 15:30:05.858089 12031 layer_factory.hpp:77] Creating layer conv1/7x7_s2
I0403 15:30:05.858122 12031 net.cpp:91] Creating Layer conv1/7x7_s2
I0403 15:30:05.858142 12031 net.cpp:425] conv1/7x7_s2 <- data
I0403 15:30:05.858162 12031 net.cpp:399] conv1/7x7_s2 -> conv1/7x7_s2
I0403 15:30:05.999120 12031 net.cpp:141] Setting up conv1/7x7_s2
I0403 15:30:05.999212 12031 net.cpp:148] Top shape: 24 64 112 112 (19267584)
I0403 15:30:05.999238 12031 net.cpp:156] Memory required for data: 91522080
I0403 15:30:05.999270 12031 layer_factory.hpp:77] Creating layer conv1/relu_7x7
I0403 15:30:05.999306 12031 net.cpp:91] Creating Layer conv1/relu_7x7
I0403 15:30:05.999327 12031 net.cpp:425] conv1/relu_7x7 <- conv1/7x7_s2
I0403 15:30:05.999353 12031 net.cpp:386] conv1/relu_7x7 -> conv1/7x7_s2 (in-place)
I0403 15:30:05.999649 12031 net.cpp:141] Setting up conv1/relu_7x7
I0403 15:30:05.999678 12031 net.cpp:148] Top shape: 24 64 112 112 (19267584)
I0403 15:30:05.999696 12031 net.cpp:156] Memory required for data: 168592416
I0403 15:30:05.999711 12031 layer_factory.hpp:77] Creating layer pool1/3x3_s2
I0403 15:30:05.999737 12031 net.cpp:91] Creating Layer pool1/3x3_s2
I0403 15:30:05.999758 12031 net.cpp:425] pool1/3x3_s2 <- conv1/7x7_s2
I0403 15:30:05.999784 12031 net.cpp:399] pool1/3x3_s2 -> pool1/3x3_s2
I0403 15:30:05.999867 12031 net.cpp:141] Setting up pool1/3x3_s2
I0403 15:30:05.999892 12031 net.cpp:148] Top shape: 24 64 56 56 (4816896)
I0403 15:30:05.999907 12031 net.cpp:156] Memory required for data: 187860000
I0403 15:30:05.999923 12031 layer_factory.hpp:77] Creating layer pool1/norm1
I0403 15:30:05.999949 12031 net.cpp:91] Creating Layer pool1/norm1
I0403 15:30:05.999979 12031 net.cpp:425] pool1/norm1 <- pool1/3x3_s2
I0403 15:30:06.000007 12031 net.cpp:399] pool1/norm1 -> pool1/norm1
I0403 15:30:06.000332 12031 net.cpp:141] Setting up pool1/norm1
I0403 15:30:06.000371 12031 net.cpp:148] Top shape: 24 64 56 56 (4816896)
I0403 15:30:06.000390 12031 net.cpp:156] Memory required for data: 207127584
I0403 15:30:06.000407 12031 layer_factory.hpp:77] Creating layer conv2/3x3_reduce
I0403 15:30:06.000447 12031 net.cpp:91] Creating Layer conv2/3x3_reduce
I0403 15:30:06.000476 12031 net.cpp:425] conv2/3x3_reduce <- pool1/norm1
I0403 15:30:06.000495 12031 net.cpp:399] conv2/3x3_reduce -> conv2/3x3_reduce
I0403 15:30:06.001953 12031 net.cpp:141] Setting up conv2/3x3_reduce
I0403 15:30:06.001984 12031 net.cpp:148] Top shape: 24 64 56 56 (4816896)
I0403 15:30:06.002002 12031 net.cpp:156] Memory required for data: 226395168
I0403 15:30:06.002027 12031 layer_factory.hpp:77] Creating layer conv2/relu_3x3_reduce
I0403 15:30:06.002058 12031 net.cpp:91] Creating Layer conv2/relu_3x3_reduce
I0403 15:30:06.002080 12031 net.cpp:425] conv2/relu_3x3_reduce <- conv2/3x3_reduce
I0403 15:30:06.002099 12031 net.cpp:386] conv2/relu_3x3_reduce -> conv2/3x3_reduce (in-place)
I0403 15:30:06.002393 12031 net.cpp:141] Setting up conv2/relu_3x3_reduce
I0403 15:30:06.002449 12031 net.cpp:148] Top shape: 24 64 56 56 (4816896)
I0403 15:30:06.002465 12031 net.cpp:156] Memory required for data: 245662752
I0403 15:30:06.002481 12031 layer_factory.hpp:77] Creating layer conv2/3x3
I0403 15:30:06.002506 12031 net.cpp:91] Creating Layer conv2/3x3
I0403 15:30:06.002527 12031 net.cpp:425] conv2/3x3 <- conv2/3x3_reduce
I0403 15:30:06.002552 12031 net.cpp:399] conv2/3x3 -> conv2/3x3
I0403 15:30:06.004963 12031 net.cpp:141] Setting up conv2/3x3
I0403 15:30:06.004997 12031 net.cpp:148] Top shape: 24 192 56 56 (14450688)
I0403 15:30:06.005017 12031 net.cpp:156] Memory required for data: 303465504
I0403 15:30:06.005043 12031 layer_factory.hpp:77] Creating layer conv2/relu_3x3
I0403 15:30:06.005065 12031 net.cpp:91] Creating Layer conv2/relu_3x3
I0403 15:30:06.005082 12031 net.cpp:425] conv2/relu_3x3 <- conv2/3x3
I0403 15:30:06.005100 12031 net.cpp:386] conv2/relu_3x3 -> conv2/3x3 (in-place)
I0403 15:30:06.005288 12031 net.cpp:141] Setting up conv2/relu_3x3
I0403 15:30:06.005317 12031 net.cpp:148] Top shape: 24 192 56 56 (14450688)
I0403 15:30:06.005362 12031 net.cpp:156] Memory required for data: 361268256
I0403 15:30:06.005379 12031 layer_factory.hpp:77] Creating layer conv2/norm2
I0403 15:30:06.005403 12031 net.cpp:91] Creating Layer conv2/norm2
I0403 15:30:06.005419 12031 net.cpp:425] conv2/norm2 <- conv2/3x3
I0403 15:30:06.005439 12031 net.cpp:399] conv2/norm2 -> conv2/norm2
I0403 15:30:06.005755 12031 net.cpp:141] Setting up conv2/norm2
I0403 15:30:06.005790 12031 net.cpp:148] Top shape: 24 192 56 56 (14450688)
I0403 15:30:06.005810 12031 net.cpp:156] Memory required for data: 419071008
I0403 15:30:06.005825 12031 layer_factory.hpp:77] Creating layer pool2/3x3_s2
I0403 15:30:06.005846 12031 net.cpp:91] Creating Layer pool2/3x3_s2
I0403 15:30:06.005864 12031 net.cpp:425] pool2/3x3_s2 <- conv2/norm2
I0403 15:30:06.005897 12031 net.cpp:399] pool2/3x3_s2 -> pool2/3x3_s2
I0403 15:30:06.005959 12031 net.cpp:141] Setting up pool2/3x3_s2
I0403 15:30:06.005982 12031 net.cpp:148] Top shape: 24 192 28 28 (3612672)
I0403 15:30:06.005998 12031 net.cpp:156] Memory required for data: 433521696
I0403 15:30:06.006013 12031 layer_factory.hpp:77] Creating layer pool2/3x3_s2_pool2/3x3_s2_0_split
I0403 15:30:06.006031 12031 net.cpp:91] Creating Layer pool2/3x3_s2_pool2/3x3_s2_0_split
I0403 15:30:06.006047 12031 net.cpp:425] pool2/3x3_s2_pool2/3x3_s2_0_split <- pool2/3x3_s2
I0403 15:30:06.006068 12031 net.cpp:399] pool2/3x3_s2_pool2/3x3_s2_0_split -> pool2/3x3_s2_pool2/3x3_s2_0_split_0
I0403 15:30:06.006090 12031 net.cpp:399] pool2/3x3_s2_pool2/3x3_s2_0_split -> pool2/3x3_s2_pool2/3x3_s2_0_split_1
I0403 15:30:06.006111 12031 net.cpp:399] pool2/3x3_s2_pool2/3x3_s2_0_split -> pool2/3x3_s2_pool2/3x3_s2_0_split_2
I0403 15:30:06.006132 12031 net.cpp:399] pool2/3x3_s2_pool2/3x3_s2_0_split -> pool2/3x3_s2_pool2/3x3_s2_0_split_3
I0403 15:30:06.006207 12031 net.cpp:141] Setting up pool2/3x3_s2_pool2/3x3_s2_0_split
I0403 15:30:06.006235 12031 net.cpp:148] Top shape: 24 192 28 28 (3612672)
I0403 15:30:06.006253 12031 net.cpp:148] Top shape: 24 192 28 28 (3612672)
I0403 15:30:06.006268 12031 net.cpp:148] Top shape: 24 192 28 28 (3612672)
I0403 15:30:06.006286 12031 net.cpp:148] Top shape: 24 192 28 28 (3612672)
I0403 15:30:06.006302 12031 net.cpp:156] Memory required for data: 491324448
I0403 15:30:06.006319 12031 layer_factory.hpp:77] Creating layer inception_3a/1x1
I0403 15:30:06.006345 12031 net.cpp:91] Creating Layer inception_3a/1x1
I0403 15:30:06.006371 12031 net.cpp:425] inception_3a/1x1 <- pool2/3x3_s2_pool2/3x3_s2_0_split_0
I0403 15:30:06.006392 12031 net.cpp:399] inception_3a/1x1 -> inception_3a/1x1
I0403 15:30:06.007983 12031 net.cpp:141] Setting up inception_3a/1x1
I0403 15:30:06.008014 12031 net.cpp:148] Top shape: 24 64 28 28 (1204224)
I0403 15:30:06.008031 12031 net.cpp:156] Memory required for data: 496141344
I0403 15:30:06.008051 12031 layer_factory.hpp:77] Creating layer inception_3a/relu_1x1
I0403 15:30:06.008074 12031 net.cpp:91] Creating Layer inception_3a/relu_1x1
I0403 15:30:06.008105 12031 net.cpp:425] inception_3a/relu_1x1 <- inception_3a/1x1
I0403 15:30:06.008124 12031 net.cpp:386] inception_3a/relu_1x1 -> inception_3a/1x1 (in-place)
I0403 15:30:06.008307 12031 net.cpp:141] Setting up inception_3a/relu_1x1
I0403 15:30:06.008363 12031 net.cpp:148] Top shape: 24 64 28 28 (1204224)
I0403 15:30:06.008381 12031 net.cpp:156] Memory required for data: 500958240
I0403 15:30:06.008397 12031 layer_factory.hpp:77] Creating layer inception_3a/3x3_reduce
I0403 15:30:06.008422 12031 net.cpp:91] Creating Layer inception_3a/3x3_reduce
I0403 15:30:06.008455 12031 net.cpp:425] inception_3a/3x3_reduce <- pool2/3x3_s2_pool2/3x3_s2_0_split_1
I0403 15:30:06.008477 12031 net.cpp:399] inception_3a/3x3_reduce -> inception_3a/3x3_reduce
I0403 15:30:06.010237 12031 net.cpp:141] Setting up inception_3a/3x3_reduce
I0403 15:30:06.010272 12031 net.cpp:148] Top shape: 24 96 28 28 (1806336)
I0403 15:30:06.010294 12031 net.cpp:156] Memory required for data: 508183584
I0403 15:30:06.010319 12031 layer_factory.hpp:77] Creating layer inception_3a/relu_3x3_reduce
I0403 15:30:06.010360 12031 net.cpp:91] Creating Layer inception_3a/relu_3x3_reduce
I0403 15:30:06.010380 12031 net.cpp:425] inception_3a/relu_3x3_reduce <- inception_3a/3x3_reduce
I0403 15:30:06.010403 12031 net.cpp:386] inception_3a/relu_3x3_reduce -> inception_3a/3x3_reduce (in-place)
I0403 15:30:06.010608 12031 net.cpp:141] Setting up inception_3a/relu_3x3_reduce
I0403 15:30:06.010635 12031 net.cpp:148] Top shape: 24 96 28 28 (1806336)
I0403 15:30:06.010653 12031 net.cpp:156] Memory required for data: 515408928
I0403 15:30:06.010668 12031 layer_factory.hpp:77] Creating layer inception_3a/3x3
I0403 15:30:06.010691 12031 net.cpp:91] Creating Layer inception_3a/3x3
I0403 15:30:06.010710 12031 net.cpp:425] inception_3a/3x3 <- inception_3a/3x3_reduce
I0403 15:30:06.010733 12031 net.cpp:399] inception_3a/3x3 -> inception_3a/3x3
I0403 15:30:06.012486 12031 net.cpp:141] Setting up inception_3a/3x3
I0403 15:30:06.012517 12031 net.cpp:148] Top shape: 24 128 28 28 (2408448)
I0403 15:30:06.012539 12031 net.cpp:156] Memory required for data: 525042720
I0403 15:30:06.012560 12031 layer_factory.hpp:77] Creating layer inception_3a/relu_3x3
I0403 15:30:06.012583 12031 net.cpp:91] Creating Layer inception_3a/relu_3x3
I0403 15:30:06.012608 12031 net.cpp:425] inception_3a/relu_3x3 <- inception_3a/3x3
I0403 15:30:06.012625 12031 net.cpp:386] inception_3a/relu_3x3 -> inception_3a/3x3 (in-place)
I0403 15:30:06.012912 12031 net.cpp:141] Setting up inception_3a/relu_3x3
I0403 15:30:06.012940 12031 net.cpp:148] Top shape: 24 128 28 28 (2408448)
I0403 15:30:06.012959 12031 net.cpp:156] Memory required for data: 534676512
I0403 15:30:06.012979 12031 layer_factory.hpp:77] Creating layer inception_3a/5x5_reduce
I0403 15:30:06.013006 12031 net.cpp:91] Creating Layer inception_3a/5x5_reduce
I0403 15:30:06.013025 12031 net.cpp:425] inception_3a/5x5_reduce <- pool2/3x3_s2_pool2/3x3_s2_0_split_2
I0403 15:30:06.013046 12031 net.cpp:399] inception_3a/5x5_reduce -> inception_3a/5x5_reduce
I0403 15:30:06.014060 12031 net.cpp:141] Setting up inception_3a/5x5_reduce
I0403 15:30:06.014092 12031 net.cpp:148] Top shape: 24 16 28 28 (301056)
I0403 15:30:06.014118 12031 net.cpp:156] Memory required for data: 535880736
I0403 15:30:06.014139 12031 layer_factory.hpp:77] Creating layer inception_3a/relu_5x5_reduce
I0403 15:30:06.014163 12031 net.cpp:91] Creating Layer inception_3a/relu_5x5_reduce
I0403 15:30:06.014179 12031 net.cpp:425] inception_3a/relu_5x5_reduce <- inception_3a/5x5_reduce
I0403 15:30:06.014204 12031 net.cpp:386] inception_3a/relu_5x5_reduce -> inception_3a/5x5_reduce (in-place)
I0403 15:30:06.014523 12031 net.cpp:141] Setting up inception_3a/relu_5x5_reduce
I0403 15:30:06.014564 12031 net.cpp:148] Top shape: 24 16 28 28 (301056)
I0403 15:30:06.014582 12031 net.cpp:156] Memory required for data: 537084960
I0403 15:30:06.014597 12031 layer_factory.hpp:77] Creating layer inception_3a/5x5
I0403 15:30:06.014621 12031 net.cpp:91] Creating Layer inception_3a/5x5
I0403 15:30:06.014639 12031 net.cpp:425] inception_3a/5x5 <- inception_3a/5x5_reduce
I0403 15:30:06.014663 12031 net.cpp:399] inception_3a/5x5 -> inception_3a/5x5
I0403 15:30:06.015739 12031 net.cpp:141] Setting up inception_3a/5x5
I0403 15:30:06.015770 12031 net.cpp:148] Top shape: 24 32 28 28 (602112)
I0403 15:30:06.015789 12031 net.cpp:156] Memory required for data: 539493408
I0403 15:30:06.015812 12031 layer_factory.hpp:77] Creating layer inception_3a/relu_5x5
I0403 15:30:06.015835 12031 net.cpp:91] Creating Layer inception_3a/relu_5x5
I0403 15:30:06.015852 12031 net.cpp:425] inception_3a/relu_5x5 <- inception_3a/5x5
I0403 15:30:06.015871 12031 net.cpp:386] inception_3a/relu_5x5 -> inception_3a/5x5 (in-place)
I0403 15:30:06.016050 12031 net.cpp:141] Setting up inception_3a/relu_5x5
I0403 15:30:06.016078 12031 net.cpp:148] Top shape: 24 32 28 28 (602112)
I0403 15:30:06.016094 12031 net.cpp:156] Memory required for data: 541901856
I0403 15:30:06.016110 12031 layer_factory.hpp:77] Creating layer inception_3a/pool
I0403 15:30:06.016130 12031 net.cpp:91] Creating Layer inception_3a/pool
I0403 15:30:06.016161 12031 net.cpp:425] inception_3a/pool <- pool2/3x3_s2_pool2/3x3_s2_0_split_3
I0403 15:30:06.016185 12031 net.cpp:399] inception_3a/pool -> inception_3a/pool
I0403 15:30:06.016244 12031 net.cpp:141] Setting up inception_3a/pool
I0403 15:30:06.016269 12031 net.cpp:148] Top shape: 24 192 28 28 (3612672)
I0403 15:30:06.016284 12031 net.cpp:156] Memory required for data: 556352544
I0403 15:30:06.016299 12031 layer_factory.hpp:77] Creating layer inception_3a/pool_proj
I0403 15:30:06.016331 12031 net.cpp:91] Creating Layer inception_3a/pool_proj
I0403 15:30:06.016367 12031 net.cpp:425] inception_3a/pool_proj <- inception_3a/pool
I0403 15:30:06.016387 12031 net.cpp:399] inception_3a/pool_proj -> inception_3a/pool_proj
I0403 15:30:06.017405 12031 net.cpp:141] Setting up inception_3a/pool_proj
I0403 15:30:06.017434 12031 net.cpp:148] Top shape: 24 32 28 28 (602112)
I0403 15:30:06.017451 12031 net.cpp:156] Memory required for data: 558760992
I0403 15:30:06.017475 12031 layer_factory.hpp:77] Creating layer inception_3a/relu_pool_proj
I0403 15:30:06.017496 12031 net.cpp:91] Creating Layer inception_3a/relu_pool_proj
I0403 15:30:06.017513 12031 net.cpp:425] inception_3a/relu_pool_proj <- inception_3a/pool_proj
I0403 15:30:06.017534 12031 net.cpp:386] inception_3a/relu_pool_proj -> inception_3a/pool_proj (in-place)
I0403 15:30:06.017822 12031 net.cpp:141] Setting up inception_3a/relu_pool_proj
I0403 15:30:06.017853 12031 net.cpp:148] Top shape: 24 32 28 28 (602112)
I0403 15:30:06.017870 12031 net.cpp:156] Memory required for data: 561169440
I0403 15:30:06.017889 12031 layer_factory.hpp:77] Creating layer inception_3a/output
I0403 15:30:06.017910 12031 net.cpp:91] Creating Layer inception_3a/output
I0403 15:30:06.017927 12031 net.cpp:425] inception_3a/output <- inception_3a/1x1
I0403 15:30:06.017946 12031 net.cpp:425] inception_3a/output <- inception_3a/3x3
I0403 15:30:06.017962 12031 net.cpp:425] inception_3a/output <- inception_3a/5x5
I0403 15:30:06.017979 12031 net.cpp:425] inception_3a/output <- inception_3a/pool_proj
I0403 15:30:06.018023 12031 net.cpp:399] inception_3a/output -> inception_3a/output
I0403 15:30:06.018072 12031 net.cpp:141] Setting up inception_3a/output
I0403 15:30:06.018118 12031 net.cpp:148] Top shape: 24 256 28 28 (4816896)
I0403 15:30:06.018134 12031 net.cpp:156] Memory required for data: 580437024
I0403 15:30:06.018149 12031 layer_factory.hpp:77] Creating layer inception_3a/output_inception_3a/output_0_split
I0403 15:30:06.018167 12031 net.cpp:91] Creating Layer inception_3a/output_inception_3a/output_0_split
I0403 15:30:06.018182 12031 net.cpp:425] inception_3a/output_inception_3a/output_0_split <- inception_3a/output
I0403 15:30:06.018203 12031 net.cpp:399] inception_3a/output_inception_3a/output_0_split -> inception_3a/output_inception_3a/output_0_split_0
I0403 15:30:06.018225 12031 net.cpp:399] inception_3a/output_inception_3a/output_0_split -> inception_3a/output_inception_3a/output_0_split_1
I0403 15:30:06.018251 12031 net.cpp:399] inception_3a/output_inception_3a/output_0_split -> inception_3a/output_inception_3a/output_0_split_2
I0403 15:30:06.018273 12031 net.cpp:399] inception_3a/output_inception_3a/output_0_split -> inception_3a/output_inception_3a/output_0_split_3
I0403 15:30:06.018354 12031 net.cpp:141] Setting up inception_3a/output_inception_3a/output_0_split
I0403 15:30:06.018383 12031 net.cpp:148] Top shape: 24 256 28 28 (4816896)
I0403 15:30:06.018406 12031 net.cpp:148] Top shape: 24 256 28 28 (4816896)
I0403 15:30:06.018424 12031 net.cpp:148] Top shape: 24 256 28 28 (4816896)
I0403 15:30:06.018440 12031 net.cpp:148] Top shape: 24 256 28 28 (4816896)
I0403 15:30:06.018455 12031 net.cpp:156] Memory required for data: 657507360
I0403 15:30:06.018473 12031 layer_factory.hpp:77] Creating layer inception_3b/1x1
I0403 15:30:06.018496 12031 net.cpp:91] Creating Layer inception_3b/1x1
I0403 15:30:06.018520 12031 net.cpp:425] inception_3b/1x1 <- inception_3a/output_inception_3a/output_0_split_0
I0403 15:30:06.018543 12031 net.cpp:399] inception_3b/1x1 -> inception_3b/1x1
I0403 15:30:06.019738 12031 net.cpp:141] Setting up inception_3b/1x1
I0403 15:30:06.019783 12031 net.cpp:148] Top shape: 24 128 28 28 (2408448)
I0403 15:30:06.019799 12031 net.cpp:156] Memory required for data: 667141152
I0403 15:30:06.019819 12031 layer_factory.hpp:77] Creating layer inception_3b/relu_1x1
I0403 15:30:06.019840 12031 net.cpp:91] Creating Layer inception_3b/relu_1x1
I0403 15:30:06.019857 12031 net.cpp:425] inception_3b/relu_1x1 <- inception_3b/1x1
I0403 15:30:06.019884 12031 net.cpp:386] inception_3b/relu_1x1 -> inception_3b/1x1 (in-place)
I0403 15:30:06.020073 12031 net.cpp:141] Setting up inception_3b/relu_1x1
I0403 15:30:06.020100 12031 net.cpp:148] Top shape: 24 128 28 28 (2408448)
I0403 15:30:06.020117 12031 net.cpp:156] Memory required for data: 676774944
I0403 15:30:06.020130 12031 layer_factory.hpp:77] Creating layer inception_3b/3x3_reduce
I0403 15:30:06.020155 12031 net.cpp:91] Creating Layer inception_3b/3x3_reduce
I0403 15:30:06.020174 12031 net.cpp:425] inception_3b/3x3_reduce <- inception_3a/output_inception_3a/output_0_split_1
I0403 15:30:06.020195 12031 net.cpp:399] inception_3b/3x3_reduce -> inception_3b/3x3_reduce
I0403 15:30:06.021396 12031 net.cpp:141] Setting up inception_3b/3x3_reduce
I0403 15:30:06.021426 12031 net.cpp:148] Top shape: 24 128 28 28 (2408448)
I0403 15:30:06.021442 12031 net.cpp:156] Memory required for data: 686408736
I0403 15:30:06.021461 12031 layer_factory.hpp:77] Creating layer inception_3b/relu_3x3_reduce
I0403 15:30:06.021482 12031 net.cpp:91] Creating Layer inception_3b/relu_3x3_reduce
I0403 15:30:06.021499 12031 net.cpp:425] inception_3b/relu_3x3_reduce <- inception_3b/3x3_reduce
I0403 15:30:06.021517 12031 net.cpp:386] inception_3b/relu_3x3_reduce -> inception_3b/3x3_reduce (in-place)
I0403 15:30:06.021697 12031 net.cpp:141] Setting up inception_3b/relu_3x3_reduce
I0403 15:30:06.021724 12031 net.cpp:148] Top shape: 24 128 28 28 (2408448)
I0403 15:30:06.021741 12031 net.cpp:156] Memory required for data: 696042528
I0403 15:30:06.021757 12031 layer_factory.hpp:77] Creating layer inception_3b/3x3
I0403 15:30:06.021785 12031 net.cpp:91] Creating Layer inception_3b/3x3
I0403 15:30:06.021806 12031 net.cpp:425] inception_3b/3x3 <- inception_3b/3x3_reduce
I0403 15:30:06.021831 12031 net.cpp:399] inception_3b/3x3 -> inception_3b/3x3
I0403 15:30:06.024894 12031 net.cpp:141] Setting up inception_3b/3x3
I0403 15:30:06.024932 12031 net.cpp:148] Top shape: 24 192 28 28 (3612672)
I0403 15:30:06.024950 12031 net.cpp:156] Memory required for data: 710493216
I0403 15:30:06.024968 12031 layer_factory.hpp:77] Creating layer inception_3b/relu_3x3
I0403 15:30:06.024991 12031 net.cpp:91] Creating Layer inception_3b/relu_3x3
I0403 15:30:06.025010 12031 net.cpp:425] inception_3b/relu_3x3 <- inception_3b/3x3
I0403 15:30:06.025032 12031 net.cpp:386] inception_3b/relu_3x3 -> inception_3b/3x3 (in-place)
I0403 15:30:06.025322 12031 net.cpp:141] Setting up inception_3b/relu_3x3
I0403 15:30:06.025355 12031 net.cpp:148] Top shape: 24 192 28 28 (3612672)
I0403 15:30:06.025372 12031 net.cpp:156] Memory required for data: 724943904
I0403 15:30:06.025388 12031 layer_factory.hpp:77] Creating layer inception_3b/5x5_reduce
I0403 15:30:06.025414 12031 net.cpp:91] Creating Layer inception_3b/5x5_reduce
I0403 15:30:06.025434 12031 net.cpp:425] inception_3b/5x5_reduce <- inception_3a/output_inception_3a/output_0_split_2
I0403 15:30:06.025454 12031 net.cpp:399] inception_3b/5x5_reduce -> inception_3b/5x5_reduce
I0403 15:30:06.026494 12031 net.cpp:141] Setting up inception_3b/5x5_reduce
I0403 15:30:06.026546 12031 net.cpp:148] Top shape: 24 32 28 28 (602112)
I0403 15:30:06.026562 12031 net.cpp:156] Memory required for data: 727352352
I0403 15:30:06.026581 12031 layer_factory.hpp:77] Creating layer inception_3b/relu_5x5_reduce
I0403 15:30:06.026602 12031 net.cpp:91] Creating Layer inception_3b/relu_5x5_reduce
I0403 15:30:06.026620 12031 net.cpp:425] inception_3b/relu_5x5_reduce <- inception_3b/5x5_reduce
I0403 15:30:06.026638 12031 net.cpp:386] inception_3b/relu_5x5_reduce -> inception_3b/5x5_reduce (in-place)
I0403 15:30:06.026840 12031 net.cpp:141] Setting up inception_3b/relu_5x5_reduce
I0403 15:30:06.026870 12031 net.cpp:148] Top shape: 24 32 28 28 (602112)
I0403 15:30:06.026888 12031 net.cpp:156] Memory required for data: 729760800
I0403 15:30:06.026906 12031 layer_factory.hpp:77] Creating layer inception_3b/5x5
I0403 15:30:06.026931 12031 net.cpp:91] Creating Layer inception_3b/5x5
I0403 15:30:06.026950 12031 net.cpp:425] inception_3b/5x5 <- inception_3b/5x5_reduce
I0403 15:30:06.026973 12031 net.cpp:399] inception_3b/5x5 -> inception_3b/5x5
I0403 15:30:06.029034 12031 net.cpp:141] Setting up inception_3b/5x5
I0403 15:30:06.029065 12031 net.cpp:148] Top shape: 24 96 28 28 (1806336)
I0403 15:30:06.029083 12031 net.cpp:156] Memory required for data: 736986144
I0403 15:30:06.029101 12031 layer_factory.hpp:77] Creating layer inception_3b/relu_5x5
I0403 15:30:06.029124 12031 net.cpp:91] Creating Layer inception_3b/relu_5x5
I0403 15:30:06.029142 12031 net.cpp:425] inception_3b/relu_5x5 <- inception_3b/5x5
I0403 15:30:06.029165 12031 net.cpp:386] inception_3b/relu_5x5 -> inception_3b/5x5 (in-place)
I0403 15:30:06.029371 12031 net.cpp:141] Setting up inception_3b/relu_5x5
I0403 15:30:06.029413 12031 net.cpp:148] Top shape: 24 96 28 28 (1806336)
I0403 15:30:06.029433 12031 net.cpp:156] Memory required for data: 744211488
I0403 15:30:06.029448 12031 layer_factory.hpp:77] Creating layer inception_3b/pool
I0403 15:30:06.029466 12031 net.cpp:91] Creating Layer inception_3b/pool
I0403 15:30:06.029486 12031 net.cpp:425] inception_3b/pool <- inception_3a/output_inception_3a/output_0_split_3
I0403 15:30:06.029526 12031 net.cpp:399] inception_3b/pool -> inception_3b/pool
I0403 15:30:06.029584 12031 net.cpp:141] Setting up inception_3b/pool
I0403 15:30:06.029609 12031 net.cpp:148] Top shape: 24 256 28 28 (4816896)
I0403 15:30:06.029624 12031 net.cpp:156] Memory required for data: 763479072
I0403 15:30:06.029640 12031 layer_factory.hpp:77] Creating layer inception_3b/pool_proj
I0403 15:30:06.029662 12031 net.cpp:91] Creating Layer inception_3b/pool_proj
I0403 15:30:06.029681 12031 net.cpp:425] inception_3b/pool_proj <- inception_3b/pool
I0403 15:30:06.029702 12031 net.cpp:399] inception_3b/pool_proj -> inception_3b/pool_proj
I0403 15:30:06.030822 12031 net.cpp:141] Setting up inception_3b/pool_proj
I0403 15:30:06.030850 12031 net.cpp:148] Top shape: 24 64 28 28 (1204224)
I0403 15:30:06.030866 12031 net.cpp:156] Memory required for data: 768295968
I0403 15:30:06.030885 12031 layer_factory.hpp:77] Creating layer inception_3b/relu_pool_proj
I0403 15:30:06.030905 12031 net.cpp:91] Creating Layer inception_3b/relu_pool_proj
I0403 15:30:06.030931 12031 net.cpp:425] inception_3b/relu_pool_proj <- inception_3b/pool_proj
I0403 15:30:06.030956 12031 net.cpp:386] inception_3b/relu_pool_proj -> inception_3b/pool_proj (in-place)
I0403 15:30:06.031385 12031 net.cpp:141] Setting up inception_3b/relu_pool_proj
I0403 15:30:06.031416 12031 net.cpp:148] Top shape: 24 64 28 28 (1204224)
I0403 15:30:06.031433 12031 net.cpp:156] Memory required for data: 773112864
I0403 15:30:06.031450 12031 layer_factory.hpp:77] Creating layer inception_3b/output
I0403 15:30:06.031468 12031 net.cpp:91] Creating Layer inception_3b/output
I0403 15:30:06.031484 12031 net.cpp:425] inception_3b/output <- inception_3b/1x1
I0403 15:30:06.031502 12031 net.cpp:425] inception_3b/output <- inception_3b/3x3
I0403 15:30:06.031519 12031 net.cpp:425] inception_3b/output <- inception_3b/5x5
I0403 15:30:06.031558 12031 net.cpp:425] inception_3b/output <- inception_3b/pool_proj
I0403 15:30:06.031579 12031 net.cpp:399] inception_3b/output -> inception_3b/output
I0403 15:30:06.031626 12031 net.cpp:141] Setting up inception_3b/output
I0403 15:30:06.031652 12031 net.cpp:148] Top shape: 24 480 28 28 (9031680)
I0403 15:30:06.031668 12031 net.cpp:156] Memory required for data: 809239584
I0403 15:30:06.031682 12031 layer_factory.hpp:77] Creating layer pool3/3x3_s2
I0403 15:30:06.031703 12031 net.cpp:91] Creating Layer pool3/3x3_s2
I0403 15:30:06.031721 12031 net.cpp:425] pool3/3x3_s2 <- inception_3b/output
I0403 15:30:06.031755 12031 net.cpp:399] pool3/3x3_s2 -> pool3/3x3_s2
I0403 15:30:06.031818 12031 net.cpp:141] Setting up pool3/3x3_s2
I0403 15:30:06.031842 12031 net.cpp:148] Top shape: 24 480 14 14 (2257920)
I0403 15:30:06.031858 12031 net.cpp:156] Memory required for data: 818271264
I0403 15:30:06.031873 12031 layer_factory.hpp:77] Creating layer pool3/3x3_s2_pool3/3x3_s2_0_split
I0403 15:30:06.031891 12031 net.cpp:91] Creating Layer pool3/3x3_s2_pool3/3x3_s2_0_split
I0403 15:30:06.031908 12031 net.cpp:425] pool3/3x3_s2_pool3/3x3_s2_0_split <- pool3/3x3_s2
I0403 15:30:06.031927 12031 net.cpp:399] pool3/3x3_s2_pool3/3x3_s2_0_split -> pool3/3x3_s2_pool3/3x3_s2_0_split_0
I0403 15:30:06.031949 12031 net.cpp:399] pool3/3x3_s2_pool3/3x3_s2_0_split -> pool3/3x3_s2_pool3/3x3_s2_0_split_1
I0403 15:30:06.031968 12031 net.cpp:399] pool3/3x3_s2_pool3/3x3_s2_0_split -> pool3/3x3_s2_pool3/3x3_s2_0_split_2
I0403 15:30:06.031988 12031 net.cpp:399] pool3/3x3_s2_pool3/3x3_s2_0_split -> pool3/3x3_s2_pool3/3x3_s2_0_split_3
I0403 15:30:06.032069 12031 net.cpp:141] Setting up pool3/3x3_s2_pool3/3x3_s2_0_split
I0403 15:30:06.032093 12031 net.cpp:148] Top shape: 24 480 14 14 (2257920)
I0403 15:30:06.032109 12031 net.cpp:148] Top shape: 24 480 14 14 (2257920)
I0403 15:30:06.032125 12031 net.cpp:148] Top shape: 24 480 14 14 (2257920)
I0403 15:30:06.032140 12031 net.cpp:148] Top shape: 24 480 14 14 (2257920)
I0403 15:30:06.032155 12031 net.cpp:156] Memory required for data: 854397984
I0403 15:30:06.032169 12031 layer_factory.hpp:77] Creating layer inception_4a/1x1
I0403 15:30:06.032192 12031 net.cpp:91] Creating Layer inception_4a/1x1
I0403 15:30:06.032209 12031 net.cpp:425] inception_4a/1x1 <- pool3/3x3_s2_pool3/3x3_s2_0_split_0
I0403 15:30:06.032232 12031 net.cpp:399] inception_4a/1x1 -> inception_4a/1x1
I0403 15:30:06.033893 12031 net.cpp:141] Setting up inception_4a/1x1
I0403 15:30:06.033922 12031 net.cpp:148] Top shape: 24 192 14 14 (903168)
I0403 15:30:06.033939 12031 net.cpp:156] Memory required for data: 858010656
I0403 15:30:06.033958 12031 layer_factory.hpp:77] Creating layer inception_4a/relu_1x1
I0403 15:30:06.033977 12031 net.cpp:91] Creating Layer inception_4a/relu_1x1
I0403 15:30:06.033993 12031 net.cpp:425] inception_4a/relu_1x1 <- inception_4a/1x1
I0403 15:30:06.034013 12031 net.cpp:386] inception_4a/relu_1x1 -> inception_4a/1x1 (in-place)
I0403 15:30:06.034196 12031 net.cpp:141] Setting up inception_4a/relu_1x1
I0403 15:30:06.034222 12031 net.cpp:148] Top shape: 24 192 14 14 (903168)
I0403 15:30:06.034238 12031 net.cpp:156] Memory required for data: 861623328
I0403 15:30:06.034253 12031 layer_factory.hpp:77] Creating layer inception_4a/3x3_reduce
I0403 15:30:06.034276 12031 net.cpp:91] Creating Layer inception_4a/3x3_reduce
I0403 15:30:06.034294 12031 net.cpp:425] inception_4a/3x3_reduce <- pool3/3x3_s2_pool3/3x3_s2_0_split_1
I0403 15:30:06.034317 12031 net.cpp:399] inception_4a/3x3_reduce -> inception_4a/3x3_reduce
I0403 15:30:06.035655 12031 net.cpp:141] Setting up inception_4a/3x3_reduce
I0403 15:30:06.035684 12031 net.cpp:148] Top shape: 24 96 14 14 (451584)
I0403 15:30:06.035701 12031 net.cpp:156] Memory required for data: 863429664
I0403 15:30:06.035727 12031 layer_factory.hpp:77] Creating layer inception_4a/relu_3x3_reduce
I0403 15:30:06.035748 12031 net.cpp:91] Creating Layer inception_4a/relu_3x3_reduce
I0403 15:30:06.035764 12031 net.cpp:425] inception_4a/relu_3x3_reduce <- inception_4a/3x3_reduce
I0403 15:30:06.035785 12031 net.cpp:386] inception_4a/relu_3x3_reduce -> inception_4a/3x3_reduce (in-place)
I0403 15:30:06.035970 12031 net.cpp:141] Setting up inception_4a/relu_3x3_reduce
I0403 15:30:06.035996 12031 net.cpp:148] Top shape: 24 96 14 14 (451584)
I0403 15:30:06.036012 12031 net.cpp:156] Memory required for data: 865236000
I0403 15:30:06.036027 12031 layer_factory.hpp:77] Creating layer inception_4a/3x3
I0403 15:30:06.036051 12031 net.cpp:91] Creating Layer inception_4a/3x3
I0403 15:30:06.036068 12031 net.cpp:425] inception_4a/3x3 <- inception_4a/3x3_reduce
I0403 15:30:06.036090 12031 net.cpp:399] inception_4a/3x3 -> inception_4a/3x3
I0403 15:30:06.038907 12031 net.cpp:141] Setting up inception_4a/3x3
I0403 15:30:06.038938 12031 net.cpp:148] Top shape: 24 208 14 14 (978432)
I0403 15:30:06.038954 12031 net.cpp:156] Memory required for data: 869149728
I0403 15:30:06.038972 12031 layer_factory.hpp:77] Creating layer inception_4a/relu_3x3
I0403 15:30:06.038995 12031 net.cpp:91] Creating Layer inception_4a/relu_3x3
I0403 15:30:06.039012 12031 net.cpp:425] inception_4a/relu_3x3 <- inception_4a/3x3
I0403 15:30:06.039031 12031 net.cpp:386] inception_4a/relu_3x3 -> inception_4a/3x3 (in-place)
I0403 15:30:06.039324 12031 net.cpp:141] Setting up inception_4a/relu_3x3
I0403 15:30:06.039355 12031 net.cpp:148] Top shape: 24 208 14 14 (978432)
I0403 15:30:06.039373 12031 net.cpp:156] Memory required for data: 873063456
I0403 15:30:06.039388 12031 layer_factory.hpp:77] Creating layer inception_4a/5x5_reduce
I0403 15:30:06.039412 12031 net.cpp:91] Creating Layer inception_4a/5x5_reduce
I0403 15:30:06.039432 12031 net.cpp:425] inception_4a/5x5_reduce <- pool3/3x3_s2_pool3/3x3_s2_0_split_2
I0403 15:30:06.039455 12031 net.cpp:399] inception_4a/5x5_reduce -> inception_4a/5x5_reduce
I0403 15:30:06.040529 12031 net.cpp:141] Setting up inception_4a/5x5_reduce
I0403 15:30:06.040558 12031 net.cpp:148] Top shape: 24 16 14 14 (75264)
I0403 15:30:06.040577 12031 net.cpp:156] Memory required for data: 873364512
I0403 15:30:06.040596 12031 layer_factory.hpp:77] Creating layer inception_4a/relu_5x5_reduce
I0403 15:30:06.040617 12031 net.cpp:91] Creating Layer inception_4a/relu_5x5_reduce
I0403 15:30:06.040635 12031 net.cpp:425] inception_4a/relu_5x5_reduce <- inception_4a/5x5_reduce
I0403 15:30:06.040653 12031 net.cpp:386] inception_4a/relu_5x5_reduce -> inception_4a/5x5_reduce (in-place)
I0403 15:30:06.040841 12031 net.cpp:141] Setting up inception_4a/relu_5x5_reduce
I0403 15:30:06.040870 12031 net.cpp:148] Top shape: 24 16 14 14 (75264)
I0403 15:30:06.040886 12031 net.cpp:156] Memory required for data: 873665568
I0403 15:30:06.040902 12031 layer_factory.hpp:77] Creating layer inception_4a/5x5
I0403 15:30:06.040925 12031 net.cpp:91] Creating Layer inception_4a/5x5
I0403 15:30:06.040943 12031 net.cpp:425] inception_4a/5x5 <- inception_4a/5x5_reduce
I0403 15:30:06.040966 12031 net.cpp:399] inception_4a/5x5 -> inception_4a/5x5
I0403 15:30:06.042100 12031 net.cpp:141] Setting up inception_4a/5x5
I0403 15:30:06.042131 12031 net.cpp:148] Top shape: 24 48 14 14 (225792)
I0403 15:30:06.042150 12031 net.cpp:156] Memory required for data: 874568736
I0403 15:30:06.042168 12031 layer_factory.hpp:77] Creating layer inception_4a/relu_5x5
I0403 15:30:06.042187 12031 net.cpp:91] Creating Layer inception_4a/relu_5x5
I0403 15:30:06.042204 12031 net.cpp:425] inception_4a/relu_5x5 <- inception_4a/5x5
I0403 15:30:06.042225 12031 net.cpp:386] inception_4a/relu_5x5 -> inception_4a/5x5 (in-place)
I0403 15:30:06.042417 12031 net.cpp:141] Setting up inception_4a/relu_5x5
I0403 15:30:06.042443 12031 net.cpp:148] Top shape: 24 48 14 14 (225792)
I0403 15:30:06.042459 12031 net.cpp:156] Memory required for data: 875471904
I0403 15:30:06.042474 12031 layer_factory.hpp:77] Creating layer inception_4a/pool
I0403 15:30:06.042492 12031 net.cpp:91] Creating Layer inception_4a/pool
I0403 15:30:06.042508 12031 net.cpp:425] inception_4a/pool <- pool3/3x3_s2_pool3/3x3_s2_0_split_3
I0403 15:30:06.042531 12031 net.cpp:399] inception_4a/pool -> inception_4a/pool
I0403 15:30:06.042595 12031 net.cpp:141] Setting up inception_4a/pool
I0403 15:30:06.042619 12031 net.cpp:148] Top shape: 24 480 14 14 (2257920)
I0403 15:30:06.042635 12031 net.cpp:156] Memory required for data: 884503584
I0403 15:30:06.042650 12031 layer_factory.hpp:77] Creating layer inception_4a/pool_proj
I0403 15:30:06.042675 12031 net.cpp:91] Creating Layer inception_4a/pool_proj
I0403 15:30:06.042693 12031 net.cpp:425] inception_4a/pool_proj <- inception_4a/pool
I0403 15:30:06.042712 12031 net.cpp:399] inception_4a/pool_proj -> inception_4a/pool_proj
I0403 15:30:06.043946 12031 net.cpp:141] Setting up inception_4a/pool_proj
I0403 15:30:06.043977 12031 net.cpp:148] Top shape: 24 64 14 14 (301056)
I0403 15:30:06.044008 12031 net.cpp:156] Memory required for data: 885707808
I0403 15:30:06.044028 12031 layer_factory.hpp:77] Creating layer inception_4a/relu_pool_proj
I0403 15:30:06.044047 12031 net.cpp:91] Creating Layer inception_4a/relu_pool_proj
I0403 15:30:06.044064 12031 net.cpp:425] inception_4a/relu_pool_proj <- inception_4a/pool_proj
I0403 15:30:06.044085 12031 net.cpp:386] inception_4a/relu_pool_proj -> inception_4a/pool_proj (in-place)
I0403 15:30:06.044394 12031 net.cpp:141] Setting up inception_4a/relu_pool_proj
I0403 15:30:06.044421 12031 net.cpp:148] Top shape: 24 64 14 14 (301056)
I0403 15:30:06.044437 12031 net.cpp:156] Memory required for data: 886912032
I0403 15:30:06.044453 12031 layer_factory.hpp:77] Creating layer inception_4a/output
I0403 15:30:06.044471 12031 net.cpp:91] Creating Layer inception_4a/output
I0403 15:30:06.044487 12031 net.cpp:425] inception_4a/output <- inception_4a/1x1
I0403 15:30:06.044504 12031 net.cpp:425] inception_4a/output <- inception_4a/3x3
I0403 15:30:06.044520 12031 net.cpp:425] inception_4a/output <- inception_4a/5x5
I0403 15:30:06.044538 12031 net.cpp:425] inception_4a/output <- inception_4a/pool_proj
I0403 15:30:06.044558 12031 net.cpp:399] inception_4a/output -> inception_4a/output
I0403 15:30:06.044606 12031 net.cpp:141] Setting up inception_4a/output
I0403 15:30:06.044633 12031 net.cpp:148] Top shape: 24 512 14 14 (2408448)
I0403 15:30:06.044651 12031 net.cpp:156] Memory required for data: 896545824
I0403 15:30:06.044666 12031 layer_factory.hpp:77] Creating layer inception_4a/output_inception_4a/output_0_split
I0403 15:30:06.044684 12031 net.cpp:91] Creating Layer inception_4a/output_inception_4a/output_0_split
I0403 15:30:06.044700 12031 net.cpp:425] inception_4a/output_inception_4a/output_0_split <- inception_4a/output
I0403 15:30:06.044721 12031 net.cpp:399] inception_4a/output_inception_4a/output_0_split -> inception_4a/output_inception_4a/output_0_split_0
I0403 15:30:06.044744 12031 net.cpp:399] inception_4a/output_inception_4a/output_0_split -> inception_4a/output_inception_4a/output_0_split_1
I0403 15:30:06.044764 12031 net.cpp:399] inception_4a/output_inception_4a/output_0_split -> inception_4a/output_inception_4a/output_0_split_2
I0403 15:30:06.044786 12031 net.cpp:399] inception_4a/output_inception_4a/output_0_split -> inception_4a/output_inception_4a/output_0_split_3
I0403 15:30:06.044807 12031 net.cpp:399] inception_4a/output_inception_4a/output_0_split -> inception_4a/output_inception_4a/output_0_split_4
I0403 15:30:06.044903 12031 net.cpp:141] Setting up inception_4a/output_inception_4a/output_0_split
I0403 15:30:06.044927 12031 net.cpp:148] Top shape: 24 512 14 14 (2408448)
I0403 15:30:06.044945 12031 net.cpp:148] Top shape: 24 512 14 14 (2408448)
I0403 15:30:06.044960 12031 net.cpp:148] Top shape: 24 512 14 14 (2408448)
I0403 15:30:06.044975 12031 net.cpp:148] Top shape: 24 512 14 14 (2408448)
I0403 15:30:06.044992 12031 net.cpp:148] Top shape: 24 512 14 14 (2408448)
I0403 15:30:06.045006 12031 net.cpp:156] Memory required for data: 944714784
I0403 15:30:06.045022 12031 layer_factory.hpp:77] Creating layer loss1/ave_pool
I0403 15:30:06.045042 12031 net.cpp:91] Creating Layer loss1/ave_pool
I0403 15:30:06.045060 12031 net.cpp:425] loss1/ave_pool <- inception_4a/output_inception_4a/output_0_split_0
I0403 15:30:06.045078 12031 net.cpp:399] loss1/ave_pool -> loss1/ave_pool
I0403 15:30:06.045292 12031 net.cpp:141] Setting up loss1/ave_pool
I0403 15:30:06.045320 12031 net.cpp:148] Top shape: 24 512 4 4 (196608)
I0403 15:30:06.045334 12031 net.cpp:156] Memory required for data: 945501216
I0403 15:30:06.045353 12031 layer_factory.hpp:77] Creating layer loss1/conv
I0403 15:30:06.045378 12031 net.cpp:91] Creating Layer loss1/conv
I0403 15:30:06.045397 12031 net.cpp:425] loss1/conv <- loss1/ave_pool
I0403 15:30:06.045419 12031 net.cpp:399] loss1/conv -> loss1/conv
I0403 15:30:06.046903 12031 net.cpp:141] Setting up loss1/conv
I0403 15:30:06.046933 12031 net.cpp:148] Top shape: 24 128 4 4 (49152)
I0403 15:30:06.046964 12031 net.cpp:156] Memory required for data: 945697824
I0403 15:30:06.046984 12031 layer_factory.hpp:77] Creating layer loss1/relu_conv
I0403 15:30:06.047008 12031 net.cpp:91] Creating Layer loss1/relu_conv
I0403 15:30:06.047026 12031 net.cpp:425] loss1/relu_conv <- loss1/conv
I0403 15:30:06.047044 12031 net.cpp:386] loss1/relu_conv -> loss1/conv (in-place)
I0403 15:30:06.047338 12031 net.cpp:141] Setting up loss1/relu_conv
I0403 15:30:06.047369 12031 net.cpp:148] Top shape: 24 128 4 4 (49152)
I0403 15:30:06.047385 12031 net.cpp:156] Memory required for data: 945894432
I0403 15:30:06.047400 12031 layer_factory.hpp:77] Creating layer loss1/fc
I0403 15:30:06.047428 12031 net.cpp:91] Creating Layer loss1/fc
I0403 15:30:06.047447 12031 net.cpp:425] loss1/fc <- loss1/conv
I0403 15:30:06.047469 12031 net.cpp:399] loss1/fc -> loss1/fc
I0403 15:30:06.066195 12031 net.cpp:141] Setting up loss1/fc
I0403 15:30:06.066226 12031 net.cpp:148] Top shape: 24 1024 (24576)
I0403 15:30:06.066241 12031 net.cpp:156] Memory required for data: 945992736
I0403 15:30:06.066261 12031 layer_factory.hpp:77] Creating layer loss1/relu_fc
I0403 15:30:06.066279 12031 net.cpp:91] Creating Layer loss1/relu_fc
I0403 15:30:06.066295 12031 net.cpp:425] loss1/relu_fc <- loss1/fc
I0403 15:30:06.066315 12031 net.cpp:386] loss1/relu_fc -> loss1/fc (in-place)
I0403 15:30:06.066510 12031 net.cpp:141] Setting up loss1/relu_fc
I0403 15:30:06.066535 12031 net.cpp:148] Top shape: 24 1024 (24576)
I0403 15:30:06.066550 12031 net.cpp:156] Memory required for data: 946091040
I0403 15:30:06.066565 12031 layer_factory.hpp:77] Creating layer loss1/drop_fc
I0403 15:30:06.066592 12031 net.cpp:91] Creating Layer loss1/drop_fc
I0403 15:30:06.066611 12031 net.cpp:425] loss1/drop_fc <- loss1/fc
I0403 15:30:06.066628 12031 net.cpp:386] loss1/drop_fc -> loss1/fc (in-place)
I0403 15:30:06.066680 12031 net.cpp:141] Setting up loss1/drop_fc
I0403 15:30:06.066706 12031 net.cpp:148] Top shape: 24 1024 (24576)
I0403 15:30:06.066722 12031 net.cpp:156] Memory required for data: 946189344
I0403 15:30:06.066737 12031 layer_factory.hpp:77] Creating layer loss1/classifier_plantvillage
I0403 15:30:06.066756 12031 net.cpp:91] Creating Layer loss1/classifier_plantvillage
I0403 15:30:06.066771 12031 net.cpp:425] loss1/classifier_plantvillage <- loss1/fc
I0403 15:30:06.066793 12031 net.cpp:399] loss1/classifier_plantvillage -> loss1/classifier_plantvillage
I0403 15:30:06.067723 12031 net.cpp:141] Setting up loss1/classifier_plantvillage
I0403 15:30:06.067752 12031 net.cpp:148] Top shape: 24 38 (912)
I0403 15:30:06.067769 12031 net.cpp:156] Memory required for data: 946192992
I0403 15:30:06.067786 12031 layer_factory.hpp:77] Creating layer loss1/classifier_plantvillage_loss1/classifier_plantvillage_0_split
I0403 15:30:06.067805 12031 net.cpp:91] Creating Layer loss1/classifier_plantvillage_loss1/classifier_plantvillage_0_split
I0403 15:30:06.067821 12031 net.cpp:425] loss1/classifier_plantvillage_loss1/classifier_plantvillage_0_split <- loss1/classifier_plantvillage
I0403 15:30:06.067842 12031 net.cpp:399] loss1/classifier_plantvillage_loss1/classifier_plantvillage_0_split -> loss1/classifier_plantvillage_loss1/classifier_plantvillage_0_split_0
I0403 15:30:06.067862 12031 net.cpp:399] loss1/classifier_plantvillage_loss1/classifier_plantvillage_0_split -> loss1/classifier_plantvillage_loss1/classifier_plantvillage_0_split_1
I0403 15:30:06.067883 12031 net.cpp:399] loss1/classifier_plantvillage_loss1/classifier_plantvillage_0_split -> loss1/classifier_plantvillage_loss1/classifier_plantvillage_0_split_2
I0403 15:30:06.067952 12031 net.cpp:141] Setting up loss1/classifier_plantvillage_loss1/classifier_plantvillage_0_split
I0403 15:30:06.067975 12031 net.cpp:148] Top shape: 24 38 (912)
I0403 15:30:06.067991 12031 net.cpp:148] Top shape: 24 38 (912)
I0403 15:30:06.068007 12031 net.cpp:148] Top shape: 24 38 (912)
I0403 15:30:06.068022 12031 net.cpp:156] Memory required for data: 946203936
I0403 15:30:06.068037 12031 layer_factory.hpp:77] Creating layer inception_4b/1x1
I0403 15:30:06.068058 12031 net.cpp:91] Creating Layer inception_4b/1x1
I0403 15:30:06.068094 12031 net.cpp:425] inception_4b/1x1 <- inception_4a/output_inception_4a/output_0_split_1
I0403 15:30:06.068114 12031 net.cpp:399] inception_4b/1x1 -> inception_4b/1x1
I0403 15:30:06.069841 12031 net.cpp:141] Setting up inception_4b/1x1
I0403 15:30:06.069870 12031 net.cpp:148] Top shape: 24 160 14 14 (752640)
I0403 15:30:06.069887 12031 net.cpp:156] Memory required for data: 949214496
I0403 15:30:06.069905 12031 layer_factory.hpp:77] Creating layer inception_4b/relu_1x1
I0403 15:30:06.069926 12031 net.cpp:91] Creating Layer inception_4b/relu_1x1
I0403 15:30:06.069943 12031 net.cpp:425] inception_4b/relu_1x1 <- inception_4b/1x1
I0403 15:30:06.069962 12031 net.cpp:386] inception_4b/relu_1x1 -> inception_4b/1x1 (in-place)
I0403 15:30:06.070144 12031 net.cpp:141] Setting up inception_4b/relu_1x1
I0403 15:30:06.070171 12031 net.cpp:148] Top shape: 24 160 14 14 (752640)
I0403 15:30:06.070188 12031 net.cpp:156] Memory required for data: 952225056
I0403 15:30:06.070202 12031 layer_factory.hpp:77] Creating layer inception_4b/3x3_reduce
I0403 15:30:06.070224 12031 net.cpp:91] Creating Layer inception_4b/3x3_reduce
I0403 15:30:06.070241 12031 net.cpp:425] inception_4b/3x3_reduce <- inception_4a/output_inception_4a/output_0_split_2
I0403 15:30:06.070261 12031 net.cpp:399] inception_4b/3x3_reduce -> inception_4b/3x3_reduce
I0403 15:30:06.071648 12031 net.cpp:141] Setting up inception_4b/3x3_reduce
I0403 15:30:06.071681 12031 net.cpp:148] Top shape: 24 112 14 14 (526848)
I0403 15:30:06.071696 12031 net.cpp:156] Memory required for data: 954332448
I0403 15:30:06.071715 12031 layer_factory.hpp:77] Creating layer inception_4b/relu_3x3_reduce
I0403 15:30:06.071733 12031 net.cpp:91] Creating Layer inception_4b/relu_3x3_reduce
I0403 15:30:06.071750 12031 net.cpp:425] inception_4b/relu_3x3_reduce <- inception_4b/3x3_reduce
I0403 15:30:06.071768 12031 net.cpp:386] inception_4b/relu_3x3_reduce -> inception_4b/3x3_reduce (in-place)
I0403 15:30:06.072059 12031 net.cpp:141] Setting up inception_4b/relu_3x3_reduce
I0403 15:30:06.072089 12031 net.cpp:148] Top shape: 24 112 14 14 (526848)
I0403 15:30:06.072105 12031 net.cpp:156] Memory required for data: 956439840
I0403 15:30:06.072120 12031 layer_factory.hpp:77] Creating layer inception_4b/3x3
I0403 15:30:06.072144 12031 net.cpp:91] Creating Layer inception_4b/3x3
I0403 15:30:06.072161 12031 net.cpp:425] inception_4b/3x3 <- inception_4b/3x3_reduce
I0403 15:30:06.072180 12031 net.cpp:399] inception_4b/3x3 -> inception_4b/3x3
I0403 15:30:06.075322 12031 net.cpp:141] Setting up inception_4b/3x3
I0403 15:30:06.075356 12031 net.cpp:148] Top shape: 24 224 14 14 (1053696)
I0403 15:30:06.075373 12031 net.cpp:156] Memory required for data: 960654624
I0403 15:30:06.075392 12031 layer_factory.hpp:77] Creating layer inception_4b/relu_3x3
I0403 15:30:06.075412 12031 net.cpp:91] Creating Layer inception_4b/relu_3x3
I0403 15:30:06.075428 12031 net.cpp:425] inception_4b/relu_3x3 <- inception_4b/3x3
I0403 15:30:06.075448 12031 net.cpp:386] inception_4b/relu_3x3 -> inception_4b/3x3 (in-place)
I0403 15:30:06.075634 12031 net.cpp:141] Setting up inception_4b/relu_3x3
I0403 15:30:06.075659 12031 net.cpp:148] Top shape: 24 224 14 14 (1053696)
I0403 15:30:06.075675 12031 net.cpp:156] Memory required for data: 964869408
I0403 15:30:06.075690 12031 layer_factory.hpp:77] Creating layer inception_4b/5x5_reduce
I0403 15:30:06.075712 12031 net.cpp:91] Creating Layer inception_4b/5x5_reduce
I0403 15:30:06.075729 12031 net.cpp:425] inception_4b/5x5_reduce <- inception_4a/output_inception_4a/output_0_split_3
I0403 15:30:06.075752 12031 net.cpp:399] inception_4b/5x5_reduce -> inception_4b/5x5_reduce
I0403 15:30:06.076869 12031 net.cpp:141] Setting up inception_4b/5x5_reduce
I0403 15:30:06.076900 12031 net.cpp:148] Top shape: 24 24 14 14 (112896)
I0403 15:30:06.076916 12031 net.cpp:156] Memory required for data: 965320992
I0403 15:30:06.076936 12031 layer_factory.hpp:77] Creating layer inception_4b/relu_5x5_reduce
I0403 15:30:06.076954 12031 net.cpp:91] Creating Layer inception_4b/relu_5x5_reduce
I0403 15:30:06.076987 12031 net.cpp:425] inception_4b/relu_5x5_reduce <- inception_4b/5x5_reduce
I0403 15:30:06.077005 12031 net.cpp:386] inception_4b/relu_5x5_reduce -> inception_4b/5x5_reduce (in-place)
I0403 15:30:06.077193 12031 net.cpp:141] Setting up inception_4b/relu_5x5_reduce
I0403 15:30:06.077220 12031 net.cpp:148] Top shape: 24 24 14 14 (112896)
I0403 15:30:06.077236 12031 net.cpp:156] Memory required for data: 965772576
I0403 15:30:06.077251 12031 layer_factory.hpp:77] Creating layer inception_4b/5x5
I0403 15:30:06.077275 12031 net.cpp:91] Creating Layer inception_4b/5x5
I0403 15:30:06.077292 12031 net.cpp:425] inception_4b/5x5 <- inception_4b/5x5_reduce
I0403 15:30:06.077313 12031 net.cpp:399] inception_4b/5x5 -> inception_4b/5x5
I0403 15:30:06.078579 12031 net.cpp:141] Setting up inception_4b/5x5
I0403 15:30:06.078608 12031 net.cpp:148] Top shape: 24 64 14 14 (301056)
I0403 15:30:06.078625 12031 net.cpp:156] Memory required for data: 966976800
I0403 15:30:06.078644 12031 layer_factory.hpp:77] Creating layer inception_4b/relu_5x5
I0403 15:30:06.078663 12031 net.cpp:91] Creating Layer inception_4b/relu_5x5
I0403 15:30:06.078680 12031 net.cpp:425] inception_4b/relu_5x5 <- inception_4b/5x5
I0403 15:30:06.078697 12031 net.cpp:386] inception_4b/relu_5x5 -> inception_4b/5x5 (in-place)
I0403 15:30:06.078994 12031 net.cpp:141] Setting up inception_4b/relu_5x5
I0403 15:30:06.079020 12031 net.cpp:148] Top shape: 24 64 14 14 (301056)
I0403 15:30:06.079036 12031 net.cpp:156] Memory required for data: 968181024
I0403 15:30:06.079051 12031 layer_factory.hpp:77] Creating layer inception_4b/pool
I0403 15:30:06.079074 12031 net.cpp:91] Creating Layer inception_4b/pool
I0403 15:30:06.079092 12031 net.cpp:425] inception_4b/pool <- inception_4a/output_inception_4a/output_0_split_4
I0403 15:30:06.079110 12031 net.cpp:399] inception_4b/pool -> inception_4b/pool
I0403 15:30:06.079179 12031 net.cpp:141] Setting up inception_4b/pool
I0403 15:30:06.079201 12031 net.cpp:148] Top shape: 24 512 14 14 (2408448)
I0403 15:30:06.079217 12031 net.cpp:156] Memory required for data: 977814816
I0403 15:30:06.079231 12031 layer_factory.hpp:77] Creating layer inception_4b/pool_proj
I0403 15:30:06.079254 12031 net.cpp:91] Creating Layer inception_4b/pool_proj
I0403 15:30:06.079272 12031 net.cpp:425] inception_4b/pool_proj <- inception_4b/pool
I0403 15:30:06.079293 12031 net.cpp:399] inception_4b/pool_proj -> inception_4b/pool_proj
I0403 15:30:06.080536 12031 net.cpp:141] Setting up inception_4b/pool_proj
I0403 15:30:06.080565 12031 net.cpp:148] Top shape: 24 64 14 14 (301056)
I0403 15:30:06.080581 12031 net.cpp:156] Memory required for data: 979019040
I0403 15:30:06.080600 12031 layer_factory.hpp:77] Creating layer inception_4b/relu_pool_proj
I0403 15:30:06.080631 12031 net.cpp:91] Creating Layer inception_4b/relu_pool_proj
I0403 15:30:06.080648 12031 net.cpp:425] inception_4b/relu_pool_proj <- inception_4b/pool_proj
I0403 15:30:06.080665 12031 net.cpp:386] inception_4b/relu_pool_proj -> inception_4b/pool_proj (in-place)
I0403 15:30:06.080852 12031 net.cpp:141] Setting up inception_4b/relu_pool_proj
I0403 15:30:06.080878 12031 net.cpp:148] Top shape: 24 64 14 14 (301056)
I0403 15:30:06.080893 12031 net.cpp:156] Memory required for data: 980223264
I0403 15:30:06.080907 12031 layer_factory.hpp:77] Creating layer inception_4b/output
I0403 15:30:06.080925 12031 net.cpp:91] Creating Layer inception_4b/output
I0403 15:30:06.080941 12031 net.cpp:425] inception_4b/output <- inception_4b/1x1
I0403 15:30:06.080957 12031 net.cpp:425] inception_4b/output <- inception_4b/3x3
I0403 15:30:06.080973 12031 net.cpp:425] inception_4b/output <- inception_4b/5x5
I0403 15:30:06.080991 12031 net.cpp:425] inception_4b/output <- inception_4b/pool_proj
I0403 15:30:06.081009 12031 net.cpp:399] inception_4b/output -> inception_4b/output
I0403 15:30:06.081056 12031 net.cpp:141] Setting up inception_4b/output
I0403 15:30:06.081082 12031 net.cpp:148] Top shape: 24 512 14 14 (2408448)
I0403 15:30:06.081097 12031 net.cpp:156] Memory required for data: 989857056
I0403 15:30:06.081126 12031 layer_factory.hpp:77] Creating layer inception_4b/output_inception_4b/output_0_split
I0403 15:30:06.081146 12031 net.cpp:91] Creating Layer inception_4b/output_inception_4b/output_0_split
I0403 15:30:06.081161 12031 net.cpp:425] inception_4b/output_inception_4b/output_0_split <- inception_4b/output
I0403 15:30:06.081179 12031 net.cpp:399] inception_4b/output_inception_4b/output_0_split -> inception_4b/output_inception_4b/output_0_split_0
I0403 15:30:06.081200 12031 net.cpp:399] inception_4b/output_inception_4b/output_0_split -> inception_4b/output_inception_4b/output_0_split_1
I0403 15:30:06.081223 12031 net.cpp:399] inception_4b/output_inception_4b/output_0_split -> inception_4b/output_inception_4b/output_0_split_2
I0403 15:30:06.081244 12031 net.cpp:399] inception_4b/output_inception_4b/output_0_split -> inception_4b/output_inception_4b/output_0_split_3
I0403 15:30:06.081331 12031 net.cpp:141] Setting up inception_4b/output_inception_4b/output_0_split
I0403 15:30:06.081358 12031 net.cpp:148] Top shape: 24 512 14 14 (2408448)
I0403 15:30:06.081375 12031 net.cpp:148] Top shape: 24 512 14 14 (2408448)
I0403 15:30:06.081390 12031 net.cpp:148] Top shape: 24 512 14 14 (2408448)
I0403 15:30:06.081406 12031 net.cpp:148] Top shape: 24 512 14 14 (2408448)
I0403 15:30:06.081420 12031 net.cpp:156] Memory required for data: 1028392224
I0403 15:30:06.081434 12031 layer_factory.hpp:77] Creating layer inception_4c/1x1
I0403 15:30:06.081456 12031 net.cpp:91] Creating Layer inception_4c/1x1
I0403 15:30:06.081475 12031 net.cpp:425] inception_4c/1x1 <- inception_4b/output_inception_4b/output_0_split_0
I0403 15:30:06.081497 12031 net.cpp:399] inception_4c/1x1 -> inception_4c/1x1
I0403 15:30:06.082967 12031 net.cpp:141] Setting up inception_4c/1x1
I0403 15:30:06.082996 12031 net.cpp:148] Top shape: 24 128 14 14 (602112)
I0403 15:30:06.083014 12031 net.cpp:156] Memory required for data: 1030800672
I0403 15:30:06.083031 12031 layer_factory.hpp:77] Creating layer inception_4c/relu_1x1
I0403 15:30:06.083050 12031 net.cpp:91] Creating Layer inception_4c/relu_1x1
I0403 15:30:06.083065 12031 net.cpp:425] inception_4c/relu_1x1 <- inception_4c/1x1
I0403 15:30:06.083086 12031 net.cpp:386] inception_4c/relu_1x1 -> inception_4c/1x1 (in-place)
I0403 15:30:06.083273 12031 net.cpp:141] Setting up inception_4c/relu_1x1
I0403 15:30:06.083298 12031 net.cpp:148] Top shape: 24 128 14 14 (602112)
I0403 15:30:06.083313 12031 net.cpp:156] Memory required for data: 1033209120
I0403 15:30:06.083328 12031 layer_factory.hpp:77] Creating layer inception_4c/3x3_reduce
I0403 15:30:06.083361 12031 net.cpp:91] Creating Layer inception_4c/3x3_reduce
I0403 15:30:06.083381 12031 net.cpp:425] inception_4c/3x3_reduce <- inception_4b/output_inception_4b/output_0_split_1
I0403 15:30:06.083405 12031 net.cpp:399] inception_4c/3x3_reduce -> inception_4c/3x3_reduce
I0403 15:30:06.085409 12031 net.cpp:141] Setting up inception_4c/3x3_reduce
I0403 15:30:06.085439 12031 net.cpp:148] Top shape: 24 128 14 14 (602112)
I0403 15:30:06.085456 12031 net.cpp:156] Memory required for data: 1035617568
I0403 15:30:06.085475 12031 layer_factory.hpp:77] Creating layer inception_4c/relu_3x3_reduce
I0403 15:30:06.085499 12031 net.cpp:91] Creating Layer inception_4c/relu_3x3_reduce
I0403 15:30:06.085516 12031 net.cpp:425] inception_4c/relu_3x3_reduce <- inception_4c/3x3_reduce
I0403 15:30:06.085535 12031 net.cpp:386] inception_4c/relu_3x3_reduce -> inception_4c/3x3_reduce (in-place)
I0403 15:30:06.086030 12031 net.cpp:141] Setting up inception_4c/relu_3x3_reduce
I0403 15:30:06.086057 12031 net.cpp:148] Top shape: 24 128 14 14 (602112)
I0403 15:30:06.086073 12031 net.cpp:156] Memory required for data: 1038026016
I0403 15:30:06.086088 12031 layer_factory.hpp:77] Creating layer inception_4c/3x3
I0403 15:30:06.086112 12031 net.cpp:91] Creating Layer inception_4c/3x3
I0403 15:30:06.086129 12031 net.cpp:425] inception_4c/3x3 <- inception_4c/3x3_reduce
I0403 15:30:06.086153 12031 net.cpp:399] inception_4c/3x3 -> inception_4c/3x3
I0403 15:30:06.089880 12031 net.cpp:141] Setting up inception_4c/3x3
I0403 15:30:06.089922 12031 net.cpp:148] Top shape: 24 256 14 14 (1204224)
I0403 15:30:06.089939 12031 net.cpp:156] Memory required for data: 1042842912
I0403 15:30:06.089972 12031 layer_factory.hpp:77] Creating layer inception_4c/relu_3x3
I0403 15:30:06.089997 12031 net.cpp:91] Creating Layer inception_4c/relu_3x3
I0403 15:30:06.090014 12031 net.cpp:425] inception_4c/relu_3x3 <- inception_4c/3x3
I0403 15:30:06.090031 12031 net.cpp:386] inception_4c/relu_3x3 -> inception_4c/3x3 (in-place)
I0403 15:30:06.090216 12031 net.cpp:141] Setting up inception_4c/relu_3x3
I0403 15:30:06.090245 12031 net.cpp:148] Top shape: 24 256 14 14 (1204224)
I0403 15:30:06.090260 12031 net.cpp:156] Memory required for data: 1047659808
I0403 15:30:06.090276 12031 layer_factory.hpp:77] Creating layer inception_4c/5x5_reduce
I0403 15:30:06.090299 12031 net.cpp:91] Creating Layer inception_4c/5x5_reduce
I0403 15:30:06.090317 12031 net.cpp:425] inception_4c/5x5_reduce <- inception_4b/output_inception_4b/output_0_split_2
I0403 15:30:06.090337 12031 net.cpp:399] inception_4c/5x5_reduce -> inception_4c/5x5_reduce
I0403 15:30:06.091473 12031 net.cpp:141] Setting up inception_4c/5x5_reduce
I0403 15:30:06.091502 12031 net.cpp:148] Top shape: 24 24 14 14 (112896)
I0403 15:30:06.091521 12031 net.cpp:156] Memory required for data: 1048111392
I0403 15:30:06.091541 12031 layer_factory.hpp:77] Creating layer inception_4c/relu_5x5_reduce
I0403 15:30:06.091559 12031 net.cpp:91] Creating Layer inception_4c/relu_5x5_reduce
I0403 15:30:06.091577 12031 net.cpp:425] inception_4c/relu_5x5_reduce <- inception_4c/5x5_reduce
I0403 15:30:06.091593 12031 net.cpp:386] inception_4c/relu_5x5_reduce -> inception_4c/5x5_reduce (in-place)
I0403 15:30:06.091789 12031 net.cpp:141] Setting up inception_4c/relu_5x5_reduce
I0403 15:30:06.091814 12031 net.cpp:148] Top shape: 24 24 14 14 (112896)
I0403 15:30:06.091831 12031 net.cpp:156] Memory required for data: 1048562976
I0403 15:30:06.091846 12031 layer_factory.hpp:77] Creating layer inception_4c/5x5
I0403 15:30:06.091868 12031 net.cpp:91] Creating Layer inception_4c/5x5
I0403 15:30:06.091886 12031 net.cpp:425] inception_4c/5x5 <- inception_4c/5x5_reduce
I0403 15:30:06.091904 12031 net.cpp:399] inception_4c/5x5 -> inception_4c/5x5
I0403 15:30:06.093186 12031 net.cpp:141] Setting up inception_4c/5x5
I0403 15:30:06.093214 12031 net.cpp:148] Top shape: 24 64 14 14 (301056)
I0403 15:30:06.093230 12031 net.cpp:156] Memory required for data: 1049767200
I0403 15:30:06.093248 12031 layer_factory.hpp:77] Creating layer inception_4c/relu_5x5
I0403 15:30:06.093266 12031 net.cpp:91] Creating Layer inception_4c/relu_5x5
I0403 15:30:06.093283 12031 net.cpp:425] inception_4c/relu_5x5 <- inception_4c/5x5
I0403 15:30:06.093303 12031 net.cpp:386] inception_4c/relu_5x5 -> inception_4c/5x5 (in-place)
I0403 15:30:06.093616 12031 net.cpp:141] Setting up inception_4c/relu_5x5
I0403 15:30:06.093643 12031 net.cpp:148] Top shape: 24 64 14 14 (301056)
I0403 15:30:06.093658 12031 net.cpp:156] Memory required for data: 1050971424
I0403 15:30:06.093674 12031 layer_factory.hpp:77] Creating layer inception_4c/pool
I0403 15:30:06.093693 12031 net.cpp:91] Creating Layer inception_4c/pool
I0403 15:30:06.093709 12031 net.cpp:425] inception_4c/pool <- inception_4b/output_inception_4b/output_0_split_3
I0403 15:30:06.093730 12031 net.cpp:399] inception_4c/pool -> inception_4c/pool
I0403 15:30:06.093798 12031 net.cpp:141] Setting up inception_4c/pool
I0403 15:30:06.093822 12031 net.cpp:148] Top shape: 24 512 14 14 (2408448)
I0403 15:30:06.093837 12031 net.cpp:156] Memory required for data: 1060605216
I0403 15:30:06.093852 12031 layer_factory.hpp:77] Creating layer inception_4c/pool_proj
I0403 15:30:06.093876 12031 net.cpp:91] Creating Layer inception_4c/pool_proj
I0403 15:30:06.093894 12031 net.cpp:425] inception_4c/pool_proj <- inception_4c/pool
I0403 15:30:06.093912 12031 net.cpp:399] inception_4c/pool_proj -> inception_4c/pool_proj
I0403 15:30:06.096873 12031 net.cpp:141] Setting up inception_4c/pool_proj
I0403 15:30:06.096907 12031 net.cpp:148] Top shape: 24 64 14 14 (301056)
I0403 15:30:06.096938 12031 net.cpp:156] Memory required for data: 1061809440
I0403 15:30:06.096959 12031 layer_factory.hpp:77] Creating layer inception_4c/relu_pool_proj
I0403 15:30:06.096982 12031 net.cpp:91] Creating Layer inception_4c/relu_pool_proj
I0403 15:30:06.096999 12031 net.cpp:425] inception_4c/relu_pool_proj <- inception_4c/pool_proj
I0403 15:30:06.097017 12031 net.cpp:386] inception_4c/relu_pool_proj -> inception_4c/pool_proj (in-place)
I0403 15:30:06.097204 12031 net.cpp:141] Setting up inception_4c/relu_pool_proj
I0403 15:30:06.097229 12031 net.cpp:148] Top shape: 24 64 14 14 (301056)
I0403 15:30:06.097244 12031 net.cpp:156] Memory required for data: 1063013664
I0403 15:30:06.097259 12031 layer_factory.hpp:77] Creating layer inception_4c/output
I0403 15:30:06.097275 12031 net.cpp:91] Creating Layer inception_4c/output
I0403 15:30:06.097290 12031 net.cpp:425] inception_4c/output <- inception_4c/1x1
I0403 15:30:06.097306 12031 net.cpp:425] inception_4c/output <- inception_4c/3x3
I0403 15:30:06.097323 12031 net.cpp:425] inception_4c/output <- inception_4c/5x5
I0403 15:30:06.097338 12031 net.cpp:425] inception_4c/output <- inception_4c/pool_proj
I0403 15:30:06.097363 12031 net.cpp:399] inception_4c/output -> inception_4c/output
I0403 15:30:06.097411 12031 net.cpp:141] Setting up inception_4c/output
I0403 15:30:06.097435 12031 net.cpp:148] Top shape: 24 512 14 14 (2408448)
I0403 15:30:06.097453 12031 net.cpp:156] Memory required for data: 1072647456
I0403 15:30:06.097468 12031 layer_factory.hpp:77] Creating layer inception_4c/output_inception_4c/output_0_split
I0403 15:30:06.097486 12031 net.cpp:91] Creating Layer inception_4c/output_inception_4c/output_0_split
I0403 15:30:06.097501 12031 net.cpp:425] inception_4c/output_inception_4c/output_0_split <- inception_4c/output
I0403 15:30:06.097518 12031 net.cpp:399] inception_4c/output_inception_4c/output_0_split -> inception_4c/output_inception_4c/output_0_split_0
I0403 15:30:06.097537 12031 net.cpp:399] inception_4c/output_inception_4c/output_0_split -> inception_4c/output_inception_4c/output_0_split_1
I0403 15:30:06.097558 12031 net.cpp:399] inception_4c/output_inception_4c/output_0_split -> inception_4c/output_inception_4c/output_0_split_2
I0403 15:30:06.097581 12031 net.cpp:399] inception_4c/output_inception_4c/output_0_split -> inception_4c/output_inception_4c/output_0_split_3
I0403 15:30:06.097668 12031 net.cpp:141] Setting up inception_4c/output_inception_4c/output_0_split
I0403 15:30:06.097692 12031 net.cpp:148] Top shape: 24 512 14 14 (2408448)
I0403 15:30:06.097707 12031 net.cpp:148] Top shape: 24 512 14 14 (2408448)
I0403 15:30:06.097723 12031 net.cpp:148] Top shape: 24 512 14 14 (2408448)
I0403 15:30:06.097738 12031 net.cpp:148] Top shape: 24 512 14 14 (2408448)
I0403 15:30:06.097751 12031 net.cpp:156] Memory required for data: 1111182624
I0403 15:30:06.097765 12031 layer_factory.hpp:77] Creating layer inception_4d/1x1
I0403 15:30:06.097787 12031 net.cpp:91] Creating Layer inception_4d/1x1
I0403 15:30:06.097806 12031 net.cpp:425] inception_4d/1x1 <- inception_4c/output_inception_4c/output_0_split_0
I0403 15:30:06.097826 12031 net.cpp:399] inception_4d/1x1 -> inception_4d/1x1
I0403 15:30:06.099216 12031 net.cpp:141] Setting up inception_4d/1x1
I0403 15:30:06.099246 12031 net.cpp:148] Top shape: 24 112 14 14 (526848)
I0403 15:30:06.099261 12031 net.cpp:156] Memory required for data: 1113290016
I0403 15:30:06.099278 12031 layer_factory.hpp:77] Creating layer inception_4d/relu_1x1
I0403 15:30:06.099299 12031 net.cpp:91] Creating Layer inception_4d/relu_1x1
I0403 15:30:06.099318 12031 net.cpp:425] inception_4d/relu_1x1 <- inception_4d/1x1
I0403 15:30:06.099334 12031 net.cpp:386] inception_4d/relu_1x1 -> inception_4d/1x1 (in-place)
I0403 15:30:06.099524 12031 net.cpp:141] Setting up inception_4d/relu_1x1
I0403 15:30:06.099562 12031 net.cpp:148] Top shape: 24 112 14 14 (526848)
I0403 15:30:06.099581 12031 net.cpp:156] Memory required for data: 1115397408
I0403 15:30:06.099599 12031 layer_factory.hpp:77] Creating layer inception_4d/3x3_reduce
I0403 15:30:06.099644 12031 net.cpp:91] Creating Layer inception_4d/3x3_reduce
I0403 15:30:06.099663 12031 net.cpp:425] inception_4d/3x3_reduce <- inception_4c/output_inception_4c/output_0_split_1
I0403 15:30:06.099699 12031 net.cpp:399] inception_4d/3x3_reduce -> inception_4d/3x3_reduce
I0403 15:30:06.101251 12031 net.cpp:141] Setting up inception_4d/3x3_reduce
I0403 15:30:06.101290 12031 net.cpp:148] Top shape: 24 144 14 14 (677376)
I0403 15:30:06.101307 12031 net.cpp:156] Memory required for data: 1118106912
I0403 15:30:06.101327 12031 layer_factory.hpp:77] Creating layer inception_4d/relu_3x3_reduce
I0403 15:30:06.101346 12031 net.cpp:91] Creating Layer inception_4d/relu_3x3_reduce
I0403 15:30:06.101367 12031 net.cpp:425] inception_4d/relu_3x3_reduce <- inception_4d/3x3_reduce
I0403 15:30:06.101387 12031 net.cpp:386] inception_4d/relu_3x3_reduce -> inception_4d/3x3_reduce (in-place)
I0403 15:30:06.101681 12031 net.cpp:141] Setting up inception_4d/relu_3x3_reduce
I0403 15:30:06.101707 12031 net.cpp:148] Top shape: 24 144 14 14 (677376)
I0403 15:30:06.101722 12031 net.cpp:156] Memory required for data: 1120816416
I0403 15:30:06.101737 12031 layer_factory.hpp:77] Creating layer inception_4d/3x3
I0403 15:30:06.101759 12031 net.cpp:91] Creating Layer inception_4d/3x3
I0403 15:30:06.101776 12031 net.cpp:425] inception_4d/3x3 <- inception_4d/3x3_reduce
I0403 15:30:06.101799 12031 net.cpp:399] inception_4d/3x3 -> inception_4d/3x3
I0403 15:30:06.106192 12031 net.cpp:141] Setting up inception_4d/3x3
I0403 15:30:06.106222 12031 net.cpp:148] Top shape: 24 288 14 14 (1354752)
I0403 15:30:06.106237 12031 net.cpp:156] Memory required for data: 1126235424
I0403 15:30:06.106256 12031 layer_factory.hpp:77] Creating layer inception_4d/relu_3x3
I0403 15:30:06.106276 12031 net.cpp:91] Creating Layer inception_4d/relu_3x3
I0403 15:30:06.106293 12031 net.cpp:425] inception_4d/relu_3x3 <- inception_4d/3x3
I0403 15:30:06.106312 12031 net.cpp:386] inception_4d/relu_3x3 -> inception_4d/3x3 (in-place)
I0403 15:30:06.106501 12031 net.cpp:141] Setting up inception_4d/relu_3x3
I0403 15:30:06.106526 12031 net.cpp:148] Top shape: 24 288 14 14 (1354752)
I0403 15:30:06.106540 12031 net.cpp:156] Memory required for data: 1131654432
I0403 15:30:06.106555 12031 layer_factory.hpp:77] Creating layer inception_4d/5x5_reduce
I0403 15:30:06.106578 12031 net.cpp:91] Creating Layer inception_4d/5x5_reduce
I0403 15:30:06.106596 12031 net.cpp:425] inception_4d/5x5_reduce <- inception_4c/output_inception_4c/output_0_split_2
I0403 15:30:06.106616 12031 net.cpp:399] inception_4d/5x5_reduce -> inception_4d/5x5_reduce
I0403 15:30:06.107774 12031 net.cpp:141] Setting up inception_4d/5x5_reduce
I0403 15:30:06.107802 12031 net.cpp:148] Top shape: 24 32 14 14 (150528)
I0403 15:30:06.107817 12031 net.cpp:156] Memory required for data: 1132256544
I0403 15:30:06.107836 12031 layer_factory.hpp:77] Creating layer inception_4d/relu_5x5_reduce
I0403 15:30:06.107856 12031 net.cpp:91] Creating Layer inception_4d/relu_5x5_reduce
I0403 15:30:06.107873 12031 net.cpp:425] inception_4d/relu_5x5_reduce <- inception_4d/5x5_reduce
I0403 15:30:06.107890 12031 net.cpp:386] inception_4d/relu_5x5_reduce -> inception_4d/5x5_reduce (in-place)
I0403 15:30:06.108077 12031 net.cpp:141] Setting up inception_4d/relu_5x5_reduce
I0403 15:30:06.108104 12031 net.cpp:148] Top shape: 24 32 14 14 (150528)
I0403 15:30:06.108120 12031 net.cpp:156] Memory required for data: 1132858656
I0403 15:30:06.108135 12031 layer_factory.hpp:77] Creating layer inception_4d/5x5
I0403 15:30:06.108157 12031 net.cpp:91] Creating Layer inception_4d/5x5
I0403 15:30:06.108175 12031 net.cpp:425] inception_4d/5x5 <- inception_4d/5x5_reduce
I0403 15:30:06.108194 12031 net.cpp:399] inception_4d/5x5 -> inception_4d/5x5
I0403 15:30:06.109681 12031 net.cpp:141] Setting up inception_4d/5x5
I0403 15:30:06.109712 12031 net.cpp:148] Top shape: 24 64 14 14 (301056)
I0403 15:30:06.109729 12031 net.cpp:156] Memory required for data: 1134062880
I0403 15:30:06.109748 12031 layer_factory.hpp:77] Creating layer inception_4d/relu_5x5
I0403 15:30:06.109781 12031 net.cpp:91] Creating Layer inception_4d/relu_5x5
I0403 15:30:06.109799 12031 net.cpp:425] inception_4d/relu_5x5 <- inception_4d/5x5
I0403 15:30:06.109817 12031 net.cpp:386] inception_4d/relu_5x5 -> inception_4d/5x5 (in-place)
I0403 15:30:06.110118 12031 net.cpp:141] Setting up inception_4d/relu_5x5
I0403 15:30:06.110146 12031 net.cpp:148] Top shape: 24 64 14 14 (301056)
I0403 15:30:06.110163 12031 net.cpp:156] Memory required for data: 1135267104
I0403 15:30:06.110177 12031 layer_factory.hpp:77] Creating layer inception_4d/pool
I0403 15:30:06.110195 12031 net.cpp:91] Creating Layer inception_4d/pool
I0403 15:30:06.110211 12031 net.cpp:425] inception_4d/pool <- inception_4c/output_inception_4c/output_0_split_3
I0403 15:30:06.110229 12031 net.cpp:399] inception_4d/pool -> inception_4d/pool
I0403 15:30:06.110296 12031 net.cpp:141] Setting up inception_4d/pool
I0403 15:30:06.110321 12031 net.cpp:148] Top shape: 24 512 14 14 (2408448)
I0403 15:30:06.110335 12031 net.cpp:156] Memory required for data: 1144900896
I0403 15:30:06.110354 12031 layer_factory.hpp:77] Creating layer inception_4d/pool_proj
I0403 15:30:06.110378 12031 net.cpp:91] Creating Layer inception_4d/pool_proj
I0403 15:30:06.110395 12031 net.cpp:425] inception_4d/pool_proj <- inception_4d/pool
I0403 15:30:06.110416 12031 net.cpp:399] inception_4d/pool_proj -> inception_4d/pool_proj
I0403 15:30:06.112172 12031 net.cpp:141] Setting up inception_4d/pool_proj
I0403 15:30:06.112200 12031 net.cpp:148] Top shape: 24 64 14 14 (301056)
I0403 15:30:06.112216 12031 net.cpp:156] Memory required for data: 1146105120
I0403 15:30:06.112234 12031 layer_factory.hpp:77] Creating layer inception_4d/relu_pool_proj
I0403 15:30:06.112254 12031 net.cpp:91] Creating Layer inception_4d/relu_pool_proj
I0403 15:30:06.112272 12031 net.cpp:425] inception_4d/relu_pool_proj <- inception_4d/pool_proj
I0403 15:30:06.112288 12031 net.cpp:386] inception_4d/relu_pool_proj -> inception_4d/pool_proj (in-place)
I0403 15:30:06.112491 12031 net.cpp:141] Setting up inception_4d/relu_pool_proj
I0403 15:30:06.112517 12031 net.cpp:148] Top shape: 24 64 14 14 (301056)
I0403 15:30:06.112531 12031 net.cpp:156] Memory required for data: 1147309344
I0403 15:30:06.112546 12031 layer_factory.hpp:77] Creating layer inception_4d/output
I0403 15:30:06.112565 12031 net.cpp:91] Creating Layer inception_4d/output
I0403 15:30:06.112582 12031 net.cpp:425] inception_4d/output <- inception_4d/1x1
I0403 15:30:06.112599 12031 net.cpp:425] inception_4d/output <- inception_4d/3x3
I0403 15:30:06.112615 12031 net.cpp:425] inception_4d/output <- inception_4d/5x5
I0403 15:30:06.112630 12031 net.cpp:425] inception_4d/output <- inception_4d/pool_proj
I0403 15:30:06.112648 12031 net.cpp:399] inception_4d/output -> inception_4d/output
I0403 15:30:06.112697 12031 net.cpp:141] Setting up inception_4d/output
I0403 15:30:06.112720 12031 net.cpp:148] Top shape: 24 528 14 14 (2483712)
I0403 15:30:06.112735 12031 net.cpp:156] Memory required for data: 1157244192
I0403 15:30:06.112749 12031 layer_factory.hpp:77] Creating layer inception_4d/output_inception_4d/output_0_split
I0403 15:30:06.112766 12031 net.cpp:91] Creating Layer inception_4d/output_inception_4d/output_0_split
I0403 15:30:06.112782 12031 net.cpp:425] inception_4d/output_inception_4d/output_0_split <- inception_4d/output
I0403 15:30:06.112802 12031 net.cpp:399] inception_4d/output_inception_4d/output_0_split -> inception_4d/output_inception_4d/output_0_split_0
I0403 15:30:06.112823 12031 net.cpp:399] inception_4d/output_inception_4d/output_0_split -> inception_4d/output_inception_4d/output_0_split_1
I0403 15:30:06.112843 12031 net.cpp:399] inception_4d/output_inception_4d/output_0_split -> inception_4d/output_inception_4d/output_0_split_2
I0403 15:30:06.112869 12031 net.cpp:399] inception_4d/output_inception_4d/output_0_split -> inception_4d/output_inception_4d/output_0_split_3
I0403 15:30:06.112890 12031 net.cpp:399] inception_4d/output_inception_4d/output_0_split -> inception_4d/output_inception_4d/output_0_split_4
I0403 15:30:06.112989 12031 net.cpp:141] Setting up inception_4d/output_inception_4d/output_0_split
I0403 15:30:06.113025 12031 net.cpp:148] Top shape: 24 528 14 14 (2483712)
I0403 15:30:06.113041 12031 net.cpp:148] Top shape: 24 528 14 14 (2483712)
I0403 15:30:06.113057 12031 net.cpp:148] Top shape: 24 528 14 14 (2483712)
I0403 15:30:06.113072 12031 net.cpp:148] Top shape: 24 528 14 14 (2483712)
I0403 15:30:06.113087 12031 net.cpp:148] Top shape: 24 528 14 14 (2483712)
I0403 15:30:06.113101 12031 net.cpp:156] Memory required for data: 1206918432
I0403 15:30:06.113116 12031 layer_factory.hpp:77] Creating layer loss2/ave_pool
I0403 15:30:06.113132 12031 net.cpp:91] Creating Layer loss2/ave_pool
I0403 15:30:06.113149 12031 net.cpp:425] loss2/ave_pool <- inception_4d/output_inception_4d/output_0_split_0
I0403 15:30:06.113170 12031 net.cpp:399] loss2/ave_pool -> loss2/ave_pool
I0403 15:30:06.113525 12031 net.cpp:141] Setting up loss2/ave_pool
I0403 15:30:06.113554 12031 net.cpp:148] Top shape: 24 528 4 4 (202752)
I0403 15:30:06.113569 12031 net.cpp:156] Memory required for data: 1207729440
I0403 15:30:06.113585 12031 layer_factory.hpp:77] Creating layer loss2/conv
I0403 15:30:06.113610 12031 net.cpp:91] Creating Layer loss2/conv
I0403 15:30:06.113628 12031 net.cpp:425] loss2/conv <- loss2/ave_pool
I0403 15:30:06.113651 12031 net.cpp:399] loss2/conv -> loss2/conv
I0403 15:30:06.115618 12031 net.cpp:141] Setting up loss2/conv
I0403 15:30:06.115650 12031 net.cpp:148] Top shape: 24 128 4 4 (49152)
I0403 15:30:06.115667 12031 net.cpp:156] Memory required for data: 1207926048
I0403 15:30:06.115686 12031 layer_factory.hpp:77] Creating layer loss2/relu_conv
I0403 15:30:06.115705 12031 net.cpp:91] Creating Layer loss2/relu_conv
I0403 15:30:06.115722 12031 net.cpp:425] loss2/relu_conv <- loss2/conv
I0403 15:30:06.115742 12031 net.cpp:386] loss2/relu_conv -> loss2/conv (in-place)
I0403 15:30:06.116034 12031 net.cpp:141] Setting up loss2/relu_conv
I0403 15:30:06.116065 12031 net.cpp:148] Top shape: 24 128 4 4 (49152)
I0403 15:30:06.116080 12031 net.cpp:156] Memory required for data: 1208122656
I0403 15:30:06.116096 12031 layer_factory.hpp:77] Creating layer loss2/fc
I0403 15:30:06.116116 12031 net.cpp:91] Creating Layer loss2/fc
I0403 15:30:06.116132 12031 net.cpp:425] loss2/fc <- loss2/conv
I0403 15:30:06.116154 12031 net.cpp:399] loss2/fc -> loss2/fc
I0403 15:30:06.135004 12031 net.cpp:141] Setting up loss2/fc
I0403 15:30:06.135067 12031 net.cpp:148] Top shape: 24 1024 (24576)
I0403 15:30:06.135085 12031 net.cpp:156] Memory required for data: 1208220960
I0403 15:30:06.135107 12031 layer_factory.hpp:77] Creating layer loss2/relu_fc
I0403 15:30:06.135133 12031 net.cpp:91] Creating Layer loss2/relu_fc
I0403 15:30:06.135154 12031 net.cpp:425] loss2/relu_fc <- loss2/fc
I0403 15:30:06.135175 12031 net.cpp:386] loss2/relu_fc -> loss2/fc (in-place)
I0403 15:30:06.135588 12031 net.cpp:141] Setting up loss2/relu_fc
I0403 15:30:06.135617 12031 net.cpp:148] Top shape: 24 1024 (24576)
I0403 15:30:06.135634 12031 net.cpp:156] Memory required for data: 1208319264
I0403 15:30:06.135650 12031 layer_factory.hpp:77] Creating layer loss2/drop_fc
I0403 15:30:06.135674 12031 net.cpp:91] Creating Layer loss2/drop_fc
I0403 15:30:06.135692 12031 net.cpp:425] loss2/drop_fc <- loss2/fc
I0403 15:30:06.135710 12031 net.cpp:386] loss2/drop_fc -> loss2/fc (in-place)
I0403 15:30:06.135766 12031 net.cpp:141] Setting up loss2/drop_fc
I0403 15:30:06.135792 12031 net.cpp:148] Top shape: 24 1024 (24576)
I0403 15:30:06.135807 12031 net.cpp:156] Memory required for data: 1208417568
I0403 15:30:06.135821 12031 layer_factory.hpp:77] Creating layer loss2/classifier_plantvillage
I0403 15:30:06.135841 12031 net.cpp:91] Creating Layer loss2/classifier_plantvillage
I0403 15:30:06.135859 12031 net.cpp:425] loss2/classifier_plantvillage <- loss2/fc
I0403 15:30:06.135890 12031 net.cpp:399] loss2/classifier_plantvillage -> loss2/classifier_plantvillage
I0403 15:30:06.136337 12031 net.cpp:141] Setting up loss2/classifier_plantvillage
I0403 15:30:06.136369 12031 net.cpp:148] Top shape: 24 38 (912)
I0403 15:30:06.136409 12031 net.cpp:156] Memory required for data: 1208421216
I0403 15:30:06.136430 12031 layer_factory.hpp:77] Creating layer loss2/classifier_plantvillage_loss2/classifier_plantvillage_0_split
I0403 15:30:06.136450 12031 net.cpp:91] Creating Layer loss2/classifier_plantvillage_loss2/classifier_plantvillage_0_split
I0403 15:30:06.136466 12031 net.cpp:425] loss2/classifier_plantvillage_loss2/classifier_plantvillage_0_split <- loss2/classifier_plantvillage
I0403 15:30:06.136487 12031 net.cpp:399] loss2/classifier_plantvillage_loss2/classifier_plantvillage_0_split -> loss2/classifier_plantvillage_loss2/classifier_plantvillage_0_split_0
I0403 15:30:06.136510 12031 net.cpp:399] loss2/classifier_plantvillage_loss2/classifier_plantvillage_0_split -> loss2/classifier_plantvillage_loss2/classifier_plantvillage_0_split_1
I0403 15:30:06.136533 12031 net.cpp:399] loss2/classifier_plantvillage_loss2/classifier_plantvillage_0_split -> loss2/classifier_plantvillage_loss2/classifier_plantvillage_0_split_2
I0403 15:30:06.136613 12031 net.cpp:141] Setting up loss2/classifier_plantvillage_loss2/classifier_plantvillage_0_split
I0403 15:30:06.136638 12031 net.cpp:148] Top shape: 24 38 (912)
I0403 15:30:06.136656 12031 net.cpp:148] Top shape: 24 38 (912)
I0403 15:30:06.136672 12031 net.cpp:148] Top shape: 24 38 (912)
I0403 15:30:06.136685 12031 net.cpp:156] Memory required for data: 1208432160
I0403 15:30:06.136700 12031 layer_factory.hpp:77] Creating layer inception_4e/1x1
I0403 15:30:06.136725 12031 net.cpp:91] Creating Layer inception_4e/1x1
I0403 15:30:06.136745 12031 net.cpp:425] inception_4e/1x1 <- inception_4d/output_inception_4d/output_0_split_1
I0403 15:30:06.136765 12031 net.cpp:399] inception_4e/1x1 -> inception_4e/1x1
I0403 15:30:06.138754 12031 net.cpp:141] Setting up inception_4e/1x1
I0403 15:30:06.138787 12031 net.cpp:148] Top shape: 24 256 14 14 (1204224)
I0403 15:30:06.138805 12031 net.cpp:156] Memory required for data: 1213249056
I0403 15:30:06.138825 12031 layer_factory.hpp:77] Creating layer inception_4e/relu_1x1
I0403 15:30:06.138844 12031 net.cpp:91] Creating Layer inception_4e/relu_1x1
I0403 15:30:06.138864 12031 net.cpp:425] inception_4e/relu_1x1 <- inception_4e/1x1
I0403 15:30:06.138885 12031 net.cpp:386] inception_4e/relu_1x1 -> inception_4e/1x1 (in-place)
I0403 15:30:06.139204 12031 net.cpp:141] Setting up inception_4e/relu_1x1
I0403 15:30:06.139233 12031 net.cpp:148] Top shape: 24 256 14 14 (1204224)
I0403 15:30:06.139250 12031 net.cpp:156] Memory required for data: 1218065952
I0403 15:30:06.139266 12031 layer_factory.hpp:77] Creating layer inception_4e/3x3_reduce
I0403 15:30:06.139289 12031 net.cpp:91] Creating Layer inception_4e/3x3_reduce
I0403 15:30:06.139309 12031 net.cpp:425] inception_4e/3x3_reduce <- inception_4d/output_inception_4d/output_0_split_2
I0403 15:30:06.139333 12031 net.cpp:399] inception_4e/3x3_reduce -> inception_4e/3x3_reduce
I0403 15:30:06.141635 12031 net.cpp:141] Setting up inception_4e/3x3_reduce
I0403 15:30:06.141667 12031 net.cpp:148] Top shape: 24 160 14 14 (752640)
I0403 15:30:06.141685 12031 net.cpp:156] Memory required for data: 1221076512
I0403 15:30:06.141705 12031 layer_factory.hpp:77] Creating layer inception_4e/relu_3x3_reduce
I0403 15:30:06.141728 12031 net.cpp:91] Creating Layer inception_4e/relu_3x3_reduce
I0403 15:30:06.141748 12031 net.cpp:425] inception_4e/relu_3x3_reduce <- inception_4e/3x3_reduce
I0403 15:30:06.141768 12031 net.cpp:386] inception_4e/relu_3x3_reduce -> inception_4e/3x3_reduce (in-place)
I0403 15:30:06.141973 12031 net.cpp:141] Setting up inception_4e/relu_3x3_reduce
I0403 15:30:06.141999 12031 net.cpp:148] Top shape: 24 160 14 14 (752640)
I0403 15:30:06.142014 12031 net.cpp:156] Memory required for data: 1224087072
I0403 15:30:06.142030 12031 layer_factory.hpp:77] Creating layer inception_4e/3x3
I0403 15:30:06.142053 12031 net.cpp:91] Creating Layer inception_4e/3x3
I0403 15:30:06.142071 12031 net.cpp:425] inception_4e/3x3 <- inception_4e/3x3_reduce
I0403 15:30:06.142096 12031 net.cpp:399] inception_4e/3x3 -> inception_4e/3x3
I0403 15:30:06.147433 12031 net.cpp:141] Setting up inception_4e/3x3
I0403 15:30:06.147480 12031 net.cpp:148] Top shape: 24 320 14 14 (1505280)
I0403 15:30:06.147500 12031 net.cpp:156] Memory required for data: 1230108192
I0403 15:30:06.147519 12031 layer_factory.hpp:77] Creating layer inception_4e/relu_3x3
I0403 15:30:06.147538 12031 net.cpp:91] Creating Layer inception_4e/relu_3x3
I0403 15:30:06.147557 12031 net.cpp:425] inception_4e/relu_3x3 <- inception_4e/3x3
I0403 15:30:06.147577 12031 net.cpp:386] inception_4e/relu_3x3 -> inception_4e/3x3 (in-place)
I0403 15:30:06.147909 12031 net.cpp:141] Setting up inception_4e/relu_3x3
I0403 15:30:06.147939 12031 net.cpp:148] Top shape: 24 320 14 14 (1505280)
I0403 15:30:06.147958 12031 net.cpp:156] Memory required for data: 1236129312
I0403 15:30:06.147974 12031 layer_factory.hpp:77] Creating layer inception_4e/5x5_reduce
I0403 15:30:06.147999 12031 net.cpp:91] Creating Layer inception_4e/5x5_reduce
I0403 15:30:06.148017 12031 net.cpp:425] inception_4e/5x5_reduce <- inception_4d/output_inception_4d/output_0_split_3
I0403 15:30:06.148039 12031 net.cpp:399] inception_4e/5x5_reduce -> inception_4e/5x5_reduce
I0403 15:30:06.149185 12031 net.cpp:141] Setting up inception_4e/5x5_reduce
I0403 15:30:06.149219 12031 net.cpp:148] Top shape: 24 32 14 14 (150528)
I0403 15:30:06.149237 12031 net.cpp:156] Memory required for data: 1236731424
I0403 15:30:06.149257 12031 layer_factory.hpp:77] Creating layer inception_4e/relu_5x5_reduce
I0403 15:30:06.149276 12031 net.cpp:91] Creating Layer inception_4e/relu_5x5_reduce
I0403 15:30:06.149294 12031 net.cpp:425] inception_4e/relu_5x5_reduce <- inception_4e/5x5_reduce
I0403 15:30:06.149313 12031 net.cpp:386] inception_4e/relu_5x5_reduce -> inception_4e/5x5_reduce (in-place)
I0403 15:30:06.149637 12031 net.cpp:141] Setting up inception_4e/relu_5x5_reduce
I0403 15:30:06.149669 12031 net.cpp:148] Top shape: 24 32 14 14 (150528)
I0403 15:30:06.149688 12031 net.cpp:156] Memory required for data: 1237333536
I0403 15:30:06.149704 12031 layer_factory.hpp:77] Creating layer inception_4e/5x5
I0403 15:30:06.149746 12031 net.cpp:91] Creating Layer inception_4e/5x5
I0403 15:30:06.149768 12031 net.cpp:425] inception_4e/5x5 <- inception_4e/5x5_reduce
I0403 15:30:06.149790 12031 net.cpp:399] inception_4e/5x5 -> inception_4e/5x5
I0403 15:30:06.151773 12031 net.cpp:141] Setting up inception_4e/5x5
I0403 15:30:06.151804 12031 net.cpp:148] Top shape: 24 128 14 14 (602112)
I0403 15:30:06.151823 12031 net.cpp:156] Memory required for data: 1239741984
I0403 15:30:06.151844 12031 layer_factory.hpp:77] Creating layer inception_4e/relu_5x5
I0403 15:30:06.151875 12031 net.cpp:91] Creating Layer inception_4e/relu_5x5
I0403 15:30:06.151892 12031 net.cpp:425] inception_4e/relu_5x5 <- inception_4e/5x5
I0403 15:30:06.151909 12031 net.cpp:386] inception_4e/relu_5x5 -> inception_4e/5x5 (in-place)
I0403 15:30:06.152122 12031 net.cpp:141] Setting up inception_4e/relu_5x5
I0403 15:30:06.152149 12031 net.cpp:148] Top shape: 24 128 14 14 (602112)
I0403 15:30:06.152166 12031 net.cpp:156] Memory required for data: 1242150432
I0403 15:30:06.152181 12031 layer_factory.hpp:77] Creating layer inception_4e/pool
I0403 15:30:06.152200 12031 net.cpp:91] Creating Layer inception_4e/pool
I0403 15:30:06.152217 12031 net.cpp:425] inception_4e/pool <- inception_4d/output_inception_4d/output_0_split_4
I0403 15:30:06.152240 12031 net.cpp:399] inception_4e/pool -> inception_4e/pool
I0403 15:30:06.152315 12031 net.cpp:141] Setting up inception_4e/pool
I0403 15:30:06.152339 12031 net.cpp:148] Top shape: 24 528 14 14 (2483712)
I0403 15:30:06.152369 12031 net.cpp:156] Memory required for data: 1252085280
I0403 15:30:06.152387 12031 layer_factory.hpp:77] Creating layer inception_4e/pool_proj
I0403 15:30:06.152411 12031 net.cpp:91] Creating Layer inception_4e/pool_proj
I0403 15:30:06.152431 12031 net.cpp:425] inception_4e/pool_proj <- inception_4e/pool
I0403 15:30:06.152452 12031 net.cpp:399] inception_4e/pool_proj -> inception_4e/pool_proj
I0403 15:30:06.154064 12031 net.cpp:141] Setting up inception_4e/pool_proj
I0403 15:30:06.154108 12031 net.cpp:148] Top shape: 24 128 14 14 (602112)
I0403 15:30:06.154125 12031 net.cpp:156] Memory required for data: 1254493728
I0403 15:30:06.154145 12031 layer_factory.hpp:77] Creating layer inception_4e/relu_pool_proj
I0403 15:30:06.154167 12031 net.cpp:91] Creating Layer inception_4e/relu_pool_proj
I0403 15:30:06.154189 12031 net.cpp:425] inception_4e/relu_pool_proj <- inception_4e/pool_proj
I0403 15:30:06.154208 12031 net.cpp:386] inception_4e/relu_pool_proj -> inception_4e/pool_proj (in-place)
I0403 15:30:06.154528 12031 net.cpp:141] Setting up inception_4e/relu_pool_proj
I0403 15:30:06.154557 12031 net.cpp:148] Top shape: 24 128 14 14 (602112)
I0403 15:30:06.154573 12031 net.cpp:156] Memory required for data: 1256902176
I0403 15:30:06.154589 12031 layer_factory.hpp:77] Creating layer inception_4e/output
I0403 15:30:06.154610 12031 net.cpp:91] Creating Layer inception_4e/output
I0403 15:30:06.154628 12031 net.cpp:425] inception_4e/output <- inception_4e/1x1
I0403 15:30:06.154645 12031 net.cpp:425] inception_4e/output <- inception_4e/3x3
I0403 15:30:06.154664 12031 net.cpp:425] inception_4e/output <- inception_4e/5x5
I0403 15:30:06.154680 12031 net.cpp:425] inception_4e/output <- inception_4e/pool_proj
I0403 15:30:06.154698 12031 net.cpp:399] inception_4e/output -> inception_4e/output
I0403 15:30:06.154752 12031 net.cpp:141] Setting up inception_4e/output
I0403 15:30:06.154777 12031 net.cpp:148] Top shape: 24 832 14 14 (3913728)
I0403 15:30:06.154793 12031 net.cpp:156] Memory required for data: 1272557088
I0403 15:30:06.154808 12031 layer_factory.hpp:77] Creating layer pool4/3x3_s2
I0403 15:30:06.154826 12031 net.cpp:91] Creating Layer pool4/3x3_s2
I0403 15:30:06.154842 12031 net.cpp:425] pool4/3x3_s2 <- inception_4e/output
I0403 15:30:06.154863 12031 net.cpp:399] pool4/3x3_s2 -> pool4/3x3_s2
I0403 15:30:06.154934 12031 net.cpp:141] Setting up pool4/3x3_s2
I0403 15:30:06.154961 12031 net.cpp:148] Top shape: 24 832 7 7 (978432)
I0403 15:30:06.154978 12031 net.cpp:156] Memory required for data: 1276470816
I0403 15:30:06.154994 12031 layer_factory.hpp:77] Creating layer pool4/3x3_s2_pool4/3x3_s2_0_split
I0403 15:30:06.155011 12031 net.cpp:91] Creating Layer pool4/3x3_s2_pool4/3x3_s2_0_split
I0403 15:30:06.155027 12031 net.cpp:425] pool4/3x3_s2_pool4/3x3_s2_0_split <- pool4/3x3_s2
I0403 15:30:06.155045 12031 net.cpp:399] pool4/3x3_s2_pool4/3x3_s2_0_split -> pool4/3x3_s2_pool4/3x3_s2_0_split_0
I0403 15:30:06.155066 12031 net.cpp:399] pool4/3x3_s2_pool4/3x3_s2_0_split -> pool4/3x3_s2_pool4/3x3_s2_0_split_1
I0403 15:30:06.155089 12031 net.cpp:399] pool4/3x3_s2_pool4/3x3_s2_0_split -> pool4/3x3_s2_pool4/3x3_s2_0_split_2
I0403 15:30:06.155112 12031 net.cpp:399] pool4/3x3_s2_pool4/3x3_s2_0_split -> pool4/3x3_s2_pool4/3x3_s2_0_split_3
I0403 15:30:06.155210 12031 net.cpp:141] Setting up pool4/3x3_s2_pool4/3x3_s2_0_split
I0403 15:30:06.155235 12031 net.cpp:148] Top shape: 24 832 7 7 (978432)
I0403 15:30:06.155251 12031 net.cpp:148] Top shape: 24 832 7 7 (978432)
I0403 15:30:06.155267 12031 net.cpp:148] Top shape: 24 832 7 7 (978432)
I0403 15:30:06.155283 12031 net.cpp:148] Top shape: 24 832 7 7 (978432)
I0403 15:30:06.155297 12031 net.cpp:156] Memory required for data: 1292125728
I0403 15:30:06.155313 12031 layer_factory.hpp:77] Creating layer inception_5a/1x1
I0403 15:30:06.155336 12031 net.cpp:91] Creating Layer inception_5a/1x1
I0403 15:30:06.155361 12031 net.cpp:425] inception_5a/1x1 <- pool4/3x3_s2_pool4/3x3_s2_0_split_0
I0403 15:30:06.155387 12031 net.cpp:399] inception_5a/1x1 -> inception_5a/1x1
I0403 15:30:06.158448 12031 net.cpp:141] Setting up inception_5a/1x1
I0403 15:30:06.158479 12031 net.cpp:148] Top shape: 24 256 7 7 (301056)
I0403 15:30:06.158498 12031 net.cpp:156] Memory required for data: 1293329952
I0403 15:30:06.158519 12031 layer_factory.hpp:77] Creating layer inception_5a/relu_1x1
I0403 15:30:06.158540 12031 net.cpp:91] Creating Layer inception_5a/relu_1x1
I0403 15:30:06.158560 12031 net.cpp:425] inception_5a/relu_1x1 <- inception_5a/1x1
I0403 15:30:06.158578 12031 net.cpp:386] inception_5a/relu_1x1 -> inception_5a/1x1 (in-place)
I0403 15:30:06.158913 12031 net.cpp:141] Setting up inception_5a/relu_1x1
I0403 15:30:06.158941 12031 net.cpp:148] Top shape: 24 256 7 7 (301056)
I0403 15:30:06.158957 12031 net.cpp:156] Memory required for data: 1294534176
I0403 15:30:06.158973 12031 layer_factory.hpp:77] Creating layer inception_5a/3x3_reduce
I0403 15:30:06.158999 12031 net.cpp:91] Creating Layer inception_5a/3x3_reduce
I0403 15:30:06.159018 12031 net.cpp:425] inception_5a/3x3_reduce <- pool4/3x3_s2_pool4/3x3_s2_0_split_1
I0403 15:30:06.159039 12031 net.cpp:399] inception_5a/3x3_reduce -> inception_5a/3x3_reduce
I0403 15:30:06.161655 12031 net.cpp:141] Setting up inception_5a/3x3_reduce
I0403 15:30:06.161686 12031 net.cpp:148] Top shape: 24 160 7 7 (188160)
I0403 15:30:06.161705 12031 net.cpp:156] Memory required for data: 1295286816
I0403 15:30:06.161725 12031 layer_factory.hpp:77] Creating layer inception_5a/relu_3x3_reduce
I0403 15:30:06.161746 12031 net.cpp:91] Creating Layer inception_5a/relu_3x3_reduce
I0403 15:30:06.161764 12031 net.cpp:425] inception_5a/relu_3x3_reduce <- inception_5a/3x3_reduce
I0403 15:30:06.161782 12031 net.cpp:386] inception_5a/relu_3x3_reduce -> inception_5a/3x3_reduce (in-place)
I0403 15:30:06.161979 12031 net.cpp:141] Setting up inception_5a/relu_3x3_reduce
I0403 15:30:06.162005 12031 net.cpp:148] Top shape: 24 160 7 7 (188160)
I0403 15:30:06.162021 12031 net.cpp:156] Memory required for data: 1296039456
I0403 15:30:06.162036 12031 layer_factory.hpp:77] Creating layer inception_5a/3x3
I0403 15:30:06.162061 12031 net.cpp:91] Creating Layer inception_5a/3x3
I0403 15:30:06.162081 12031 net.cpp:425] inception_5a/3x3 <- inception_5a/3x3_reduce
I0403 15:30:06.162101 12031 net.cpp:399] inception_5a/3x3 -> inception_5a/3x3
I0403 15:30:06.167462 12031 net.cpp:141] Setting up inception_5a/3x3
I0403 15:30:06.167495 12031 net.cpp:148] Top shape: 24 320 7 7 (376320)
I0403 15:30:06.167511 12031 net.cpp:156] Memory required for data: 1297544736
I0403 15:30:06.167531 12031 layer_factory.hpp:77] Creating layer inception_5a/relu_3x3
I0403 15:30:06.167557 12031 net.cpp:91] Creating Layer inception_5a/relu_3x3
I0403 15:30:06.167583 12031 net.cpp:425] inception_5a/relu_3x3 <- inception_5a/3x3
I0403 15:30:06.167601 12031 net.cpp:386] inception_5a/relu_3x3 -> inception_5a/3x3 (in-place)
I0403 15:30:06.167929 12031 net.cpp:141] Setting up inception_5a/relu_3x3
I0403 15:30:06.167958 12031 net.cpp:148] Top shape: 24 320 7 7 (376320)
I0403 15:30:06.167978 12031 net.cpp:156] Memory required for data: 1299050016
I0403 15:30:06.167994 12031 layer_factory.hpp:77] Creating layer inception_5a/5x5_reduce
I0403 15:30:06.168015 12031 net.cpp:91] Creating Layer inception_5a/5x5_reduce
I0403 15:30:06.168032 12031 net.cpp:425] inception_5a/5x5_reduce <- pool4/3x3_s2_pool4/3x3_s2_0_split_2
I0403 15:30:06.168056 12031 net.cpp:399] inception_5a/5x5_reduce -> inception_5a/5x5_reduce
I0403 15:30:06.169314 12031 net.cpp:141] Setting up inception_5a/5x5_reduce
I0403 15:30:06.169353 12031 net.cpp:148] Top shape: 24 32 7 7 (37632)
I0403 15:30:06.169374 12031 net.cpp:156] Memory required for data: 1299200544
I0403 15:30:06.169394 12031 layer_factory.hpp:77] Creating layer inception_5a/relu_5x5_reduce
I0403 15:30:06.169414 12031 net.cpp:91] Creating Layer inception_5a/relu_5x5_reduce
I0403 15:30:06.169432 12031 net.cpp:425] inception_5a/relu_5x5_reduce <- inception_5a/5x5_reduce
I0403 15:30:06.169456 12031 net.cpp:386] inception_5a/relu_5x5_reduce -> inception_5a/5x5_reduce (in-place)
I0403 15:30:06.169775 12031 net.cpp:141] Setting up inception_5a/relu_5x5_reduce
I0403 15:30:06.169806 12031 net.cpp:148] Top shape: 24 32 7 7 (37632)
I0403 15:30:06.169823 12031 net.cpp:156] Memory required for data: 1299351072
I0403 15:30:06.169841 12031 layer_factory.hpp:77] Creating layer inception_5a/5x5
I0403 15:30:06.169865 12031 net.cpp:91] Creating Layer inception_5a/5x5
I0403 15:30:06.169885 12031 net.cpp:425] inception_5a/5x5 <- inception_5a/5x5_reduce
I0403 15:30:06.169906 12031 net.cpp:399] inception_5a/5x5 -> inception_5a/5x5
I0403 15:30:06.171747 12031 net.cpp:141] Setting up inception_5a/5x5
I0403 15:30:06.171789 12031 net.cpp:148] Top shape: 24 128 7 7 (150528)
I0403 15:30:06.171807 12031 net.cpp:156] Memory required for data: 1299953184
I0403 15:30:06.171825 12031 layer_factory.hpp:77] Creating layer inception_5a/relu_5x5
I0403 15:30:06.171847 12031 net.cpp:91] Creating Layer inception_5a/relu_5x5
I0403 15:30:06.171865 12031 net.cpp:425] inception_5a/relu_5x5 <- inception_5a/5x5
I0403 15:30:06.171888 12031 net.cpp:386] inception_5a/relu_5x5 -> inception_5a/5x5 (in-place)
I0403 15:30:06.172096 12031 net.cpp:141] Setting up inception_5a/relu_5x5
I0403 15:30:06.172123 12031 net.cpp:148] Top shape: 24 128 7 7 (150528)
I0403 15:30:06.172139 12031 net.cpp:156] Memory required for data: 1300555296
I0403 15:30:06.172155 12031 layer_factory.hpp:77] Creating layer inception_5a/pool
I0403 15:30:06.172173 12031 net.cpp:91] Creating Layer inception_5a/pool
I0403 15:30:06.172190 12031 net.cpp:425] inception_5a/pool <- pool4/3x3_s2_pool4/3x3_s2_0_split_3
I0403 15:30:06.172211 12031 net.cpp:399] inception_5a/pool -> inception_5a/pool
I0403 15:30:06.172286 12031 net.cpp:141] Setting up inception_5a/pool
I0403 15:30:06.172310 12031 net.cpp:148] Top shape: 24 832 7 7 (978432)
I0403 15:30:06.172327 12031 net.cpp:156] Memory required for data: 1304469024
I0403 15:30:06.172341 12031 layer_factory.hpp:77] Creating layer inception_5a/pool_proj
I0403 15:30:06.172379 12031 net.cpp:91] Creating Layer inception_5a/pool_proj
I0403 15:30:06.172399 12031 net.cpp:425] inception_5a/pool_proj <- inception_5a/pool
I0403 15:30:06.172421 12031 net.cpp:399] inception_5a/pool_proj -> inception_5a/pool_proj
I0403 15:30:06.174850 12031 net.cpp:141] Setting up inception_5a/pool_proj
I0403 15:30:06.174882 12031 net.cpp:148] Top shape: 24 128 7 7 (150528)
I0403 15:30:06.174899 12031 net.cpp:156] Memory required for data: 1305071136
I0403 15:30:06.174919 12031 layer_factory.hpp:77] Creating layer inception_5a/relu_pool_proj
I0403 15:30:06.174940 12031 net.cpp:91] Creating Layer inception_5a/relu_pool_proj
I0403 15:30:06.174962 12031 net.cpp:425] inception_5a/relu_pool_proj <- inception_5a/pool_proj
I0403 15:30:06.174979 12031 net.cpp:386] inception_5a/relu_pool_proj -> inception_5a/pool_proj (in-place)
I0403 15:30:06.175298 12031 net.cpp:141] Setting up inception_5a/relu_pool_proj
I0403 15:30:06.175328 12031 net.cpp:148] Top shape: 24 128 7 7 (150528)
I0403 15:30:06.175344 12031 net.cpp:156] Memory required for data: 1305673248
I0403 15:30:06.175369 12031 layer_factory.hpp:77] Creating layer inception_5a/output
I0403 15:30:06.175390 12031 net.cpp:91] Creating Layer inception_5a/output
I0403 15:30:06.175407 12031 net.cpp:425] inception_5a/output <- inception_5a/1x1
I0403 15:30:06.175428 12031 net.cpp:425] inception_5a/output <- inception_5a/3x3
I0403 15:30:06.175448 12031 net.cpp:425] inception_5a/output <- inception_5a/5x5
I0403 15:30:06.175467 12031 net.cpp:425] inception_5a/output <- inception_5a/pool_proj
I0403 15:30:06.175484 12031 net.cpp:399] inception_5a/output -> inception_5a/output
I0403 15:30:06.175540 12031 net.cpp:141] Setting up inception_5a/output
I0403 15:30:06.175565 12031 net.cpp:148] Top shape: 24 832 7 7 (978432)
I0403 15:30:06.175590 12031 net.cpp:156] Memory required for data: 1309586976
I0403 15:30:06.175604 12031 layer_factory.hpp:77] Creating layer inception_5a/output_inception_5a/output_0_split
I0403 15:30:06.175622 12031 net.cpp:91] Creating Layer inception_5a/output_inception_5a/output_0_split
I0403 15:30:06.175638 12031 net.cpp:425] inception_5a/output_inception_5a/output_0_split <- inception_5a/output
I0403 15:30:06.175658 12031 net.cpp:399] inception_5a/output_inception_5a/output_0_split -> inception_5a/output_inception_5a/output_0_split_0
I0403 15:30:06.175680 12031 net.cpp:399] inception_5a/output_inception_5a/output_0_split -> inception_5a/output_inception_5a/output_0_split_1
I0403 15:30:06.175703 12031 net.cpp:399] inception_5a/output_inception_5a/output_0_split -> inception_5a/output_inception_5a/output_0_split_2
I0403 15:30:06.175724 12031 net.cpp:399] inception_5a/output_inception_5a/output_0_split -> inception_5a/output_inception_5a/output_0_split_3
I0403 15:30:06.175844 12031 net.cpp:141] Setting up inception_5a/output_inception_5a/output_0_split
I0403 15:30:06.175879 12031 net.cpp:148] Top shape: 24 832 7 7 (978432)
I0403 15:30:06.175899 12031 net.cpp:148] Top shape: 24 832 7 7 (978432)
I0403 15:30:06.175915 12031 net.cpp:148] Top shape: 24 832 7 7 (978432)
I0403 15:30:06.175931 12031 net.cpp:148] Top shape: 24 832 7 7 (978432)
I0403 15:30:06.175946 12031 net.cpp:156] Memory required for data: 1325241888
I0403 15:30:06.175961 12031 layer_factory.hpp:77] Creating layer inception_5b/1x1
I0403 15:30:06.175986 12031 net.cpp:91] Creating Layer inception_5b/1x1
I0403 15:30:06.176003 12031 net.cpp:425] inception_5b/1x1 <- inception_5a/output_inception_5a/output_0_split_0
I0403 15:30:06.176023 12031 net.cpp:399] inception_5b/1x1 -> inception_5b/1x1
I0403 15:30:06.180058 12031 net.cpp:141] Setting up inception_5b/1x1
I0403 15:30:06.180090 12031 net.cpp:148] Top shape: 24 384 7 7 (451584)
I0403 15:30:06.180109 12031 net.cpp:156] Memory required for data: 1327048224
I0403 15:30:06.180130 12031 layer_factory.hpp:77] Creating layer inception_5b/relu_1x1
I0403 15:30:06.180152 12031 net.cpp:91] Creating Layer inception_5b/relu_1x1
I0403 15:30:06.180172 12031 net.cpp:425] inception_5b/relu_1x1 <- inception_5b/1x1
I0403 15:30:06.180191 12031 net.cpp:386] inception_5b/relu_1x1 -> inception_5b/1x1 (in-place)
I0403 15:30:06.180526 12031 net.cpp:141] Setting up inception_5b/relu_1x1
I0403 15:30:06.180554 12031 net.cpp:148] Top shape: 24 384 7 7 (451584)
I0403 15:30:06.180570 12031 net.cpp:156] Memory required for data: 1328854560
I0403 15:30:06.180586 12031 layer_factory.hpp:77] Creating layer inception_5b/3x3_reduce
I0403 15:30:06.180620 12031 net.cpp:91] Creating Layer inception_5b/3x3_reduce
I0403 15:30:06.180639 12031 net.cpp:425] inception_5b/3x3_reduce <- inception_5a/output_inception_5a/output_0_split_1
I0403 15:30:06.180662 12031 net.cpp:399] inception_5b/3x3_reduce -> inception_5b/3x3_reduce
I0403 15:30:06.183529 12031 net.cpp:141] Setting up inception_5b/3x3_reduce
I0403 15:30:06.183562 12031 net.cpp:148] Top shape: 24 192 7 7 (225792)
I0403 15:30:06.183588 12031 net.cpp:156] Memory required for data: 1329757728
I0403 15:30:06.183609 12031 layer_factory.hpp:77] Creating layer inception_5b/relu_3x3_reduce
I0403 15:30:06.183629 12031 net.cpp:91] Creating Layer inception_5b/relu_3x3_reduce
I0403 15:30:06.183650 12031 net.cpp:425] inception_5b/relu_3x3_reduce <- inception_5b/3x3_reduce
I0403 15:30:06.183668 12031 net.cpp:386] inception_5b/relu_3x3_reduce -> inception_5b/3x3_reduce (in-place)
I0403 15:30:06.183873 12031 net.cpp:141] Setting up inception_5b/relu_3x3_reduce
I0403 15:30:06.183902 12031 net.cpp:148] Top shape: 24 192 7 7 (225792)
I0403 15:30:06.183919 12031 net.cpp:156] Memory required for data: 1330660896
I0403 15:30:06.183935 12031 layer_factory.hpp:77] Creating layer inception_5b/3x3
I0403 15:30:06.183959 12031 net.cpp:91] Creating Layer inception_5b/3x3
I0403 15:30:06.183976 12031 net.cpp:425] inception_5b/3x3 <- inception_5b/3x3_reduce
I0403 15:30:06.183996 12031 net.cpp:399] inception_5b/3x3 -> inception_5b/3x3
I0403 15:30:06.191179 12031 net.cpp:141] Setting up inception_5b/3x3
I0403 15:30:06.191211 12031 net.cpp:148] Top shape: 24 384 7 7 (451584)
I0403 15:30:06.191229 12031 net.cpp:156] Memory required for data: 1332467232
I0403 15:30:06.191248 12031 layer_factory.hpp:77] Creating layer inception_5b/relu_3x3
I0403 15:30:06.191270 12031 net.cpp:91] Creating Layer inception_5b/relu_3x3
I0403 15:30:06.191289 12031 net.cpp:425] inception_5b/relu_3x3 <- inception_5b/3x3
I0403 15:30:06.191308 12031 net.cpp:386] inception_5b/relu_3x3 -> inception_5b/3x3 (in-place)
I0403 15:30:06.191634 12031 net.cpp:141] Setting up inception_5b/relu_3x3
I0403 15:30:06.191663 12031 net.cpp:148] Top shape: 24 384 7 7 (451584)
I0403 15:30:06.191679 12031 net.cpp:156] Memory required for data: 1334273568
I0403 15:30:06.191694 12031 layer_factory.hpp:77] Creating layer inception_5b/5x5_reduce
I0403 15:30:06.191733 12031 net.cpp:91] Creating Layer inception_5b/5x5_reduce
I0403 15:30:06.191754 12031 net.cpp:425] inception_5b/5x5_reduce <- inception_5a/output_inception_5a/output_0_split_2
I0403 15:30:06.191778 12031 net.cpp:399] inception_5b/5x5_reduce -> inception_5b/5x5_reduce
I0403 15:30:06.193156 12031 net.cpp:141] Setting up inception_5b/5x5_reduce
I0403 15:30:06.193187 12031 net.cpp:148] Top shape: 24 48 7 7 (56448)
I0403 15:30:06.193203 12031 net.cpp:156] Memory required for data: 1334499360
I0403 15:30:06.193223 12031 layer_factory.hpp:77] Creating layer inception_5b/relu_5x5_reduce
I0403 15:30:06.193248 12031 net.cpp:91] Creating Layer inception_5b/relu_5x5_reduce
I0403 15:30:06.193267 12031 net.cpp:425] inception_5b/relu_5x5_reduce <- inception_5b/5x5_reduce
I0403 15:30:06.193286 12031 net.cpp:386] inception_5b/relu_5x5_reduce -> inception_5b/5x5_reduce (in-place)
I0403 15:30:06.193692 12031 net.cpp:141] Setting up inception_5b/relu_5x5_reduce
I0403 15:30:06.193722 12031 net.cpp:148] Top shape: 24 48 7 7 (56448)
I0403 15:30:06.193739 12031 net.cpp:156] Memory required for data: 1334725152
I0403 15:30:06.193756 12031 layer_factory.hpp:77] Creating layer inception_5b/5x5
I0403 15:30:06.193778 12031 net.cpp:91] Creating Layer inception_5b/5x5
I0403 15:30:06.193795 12031 net.cpp:425] inception_5b/5x5 <- inception_5b/5x5_reduce
I0403 15:30:06.193815 12031 net.cpp:399] inception_5b/5x5 -> inception_5b/5x5
I0403 15:30:06.196033 12031 net.cpp:141] Setting up inception_5b/5x5
I0403 15:30:06.196063 12031 net.cpp:148] Top shape: 24 128 7 7 (150528)
I0403 15:30:06.196080 12031 net.cpp:156] Memory required for data: 1335327264
I0403 15:30:06.196100 12031 layer_factory.hpp:77] Creating layer inception_5b/relu_5x5
I0403 15:30:06.196121 12031 net.cpp:91] Creating Layer inception_5b/relu_5x5
I0403 15:30:06.196140 12031 net.cpp:425] inception_5b/relu_5x5 <- inception_5b/5x5
I0403 15:30:06.196157 12031 net.cpp:386] inception_5b/relu_5x5 -> inception_5b/5x5 (in-place)
I0403 15:30:06.196368 12031 net.cpp:141] Setting up inception_5b/relu_5x5
I0403 15:30:06.196396 12031 net.cpp:148] Top shape: 24 128 7 7 (150528)
I0403 15:30:06.196411 12031 net.cpp:156] Memory required for data: 1335929376
I0403 15:30:06.196429 12031 layer_factory.hpp:77] Creating layer inception_5b/pool
I0403 15:30:06.196446 12031 net.cpp:91] Creating Layer inception_5b/pool
I0403 15:30:06.196463 12031 net.cpp:425] inception_5b/pool <- inception_5a/output_inception_5a/output_0_split_3
I0403 15:30:06.196485 12031 net.cpp:399] inception_5b/pool -> inception_5b/pool
I0403 15:30:06.196559 12031 net.cpp:141] Setting up inception_5b/pool
I0403 15:30:06.196583 12031 net.cpp:148] Top shape: 24 832 7 7 (978432)
I0403 15:30:06.196599 12031 net.cpp:156] Memory required for data: 1339843104
I0403 15:30:06.196612 12031 layer_factory.hpp:77] Creating layer inception_5b/pool_proj
I0403 15:30:06.196636 12031 net.cpp:91] Creating Layer inception_5b/pool_proj
I0403 15:30:06.196655 12031 net.cpp:425] inception_5b/pool_proj <- inception_5b/pool
I0403 15:30:06.196673 12031 net.cpp:399] inception_5b/pool_proj -> inception_5b/pool_proj
I0403 15:30:06.199069 12031 net.cpp:141] Setting up inception_5b/pool_proj
I0403 15:30:06.199100 12031 net.cpp:148] Top shape: 24 128 7 7 (150528)
I0403 15:30:06.199116 12031 net.cpp:156] Memory required for data: 1340445216
I0403 15:30:06.199136 12031 layer_factory.hpp:77] Creating layer inception_5b/relu_pool_proj
I0403 15:30:06.199158 12031 net.cpp:91] Creating Layer inception_5b/relu_pool_proj
I0403 15:30:06.199177 12031 net.cpp:425] inception_5b/relu_pool_proj <- inception_5b/pool_proj
I0403 15:30:06.199193 12031 net.cpp:386] inception_5b/relu_pool_proj -> inception_5b/pool_proj (in-place)
I0403 15:30:06.199509 12031 net.cpp:141] Setting up inception_5b/relu_pool_proj
I0403 15:30:06.199537 12031 net.cpp:148] Top shape: 24 128 7 7 (150528)
I0403 15:30:06.199553 12031 net.cpp:156] Memory required for data: 1341047328
I0403 15:30:06.199566 12031 layer_factory.hpp:77] Creating layer inception_5b/output
I0403 15:30:06.199597 12031 net.cpp:91] Creating Layer inception_5b/output
I0403 15:30:06.199630 12031 net.cpp:425] inception_5b/output <- inception_5b/1x1
I0403 15:30:06.199647 12031 net.cpp:425] inception_5b/output <- inception_5b/3x3
I0403 15:30:06.199664 12031 net.cpp:425] inception_5b/output <- inception_5b/5x5
I0403 15:30:06.199681 12031 net.cpp:425] inception_5b/output <- inception_5b/pool_proj
I0403 15:30:06.199698 12031 net.cpp:399] inception_5b/output -> inception_5b/output
I0403 15:30:06.199753 12031 net.cpp:141] Setting up inception_5b/output
I0403 15:30:06.199777 12031 net.cpp:148] Top shape: 24 1024 7 7 (1204224)
I0403 15:30:06.199793 12031 net.cpp:156] Memory required for data: 1345864224
I0403 15:30:06.199807 12031 layer_factory.hpp:77] Creating layer pool5/7x7_s1
I0403 15:30:06.199826 12031 net.cpp:91] Creating Layer pool5/7x7_s1
I0403 15:30:06.199841 12031 net.cpp:425] pool5/7x7_s1 <- inception_5b/output
I0403 15:30:06.199862 12031 net.cpp:399] pool5/7x7_s1 -> pool5/7x7_s1
I0403 15:30:06.200088 12031 net.cpp:141] Setting up pool5/7x7_s1
I0403 15:30:06.200116 12031 net.cpp:148] Top shape: 24 1024 1 1 (24576)
I0403 15:30:06.200132 12031 net.cpp:156] Memory required for data: 1345962528
I0403 15:30:06.200147 12031 layer_factory.hpp:77] Creating layer pool5/drop_7x7_s1
I0403 15:30:06.200165 12031 net.cpp:91] Creating Layer pool5/drop_7x7_s1
I0403 15:30:06.200181 12031 net.cpp:425] pool5/drop_7x7_s1 <- pool5/7x7_s1
I0403 15:30:06.200199 12031 net.cpp:386] pool5/drop_7x7_s1 -> pool5/7x7_s1 (in-place)
I0403 15:30:06.200253 12031 net.cpp:141] Setting up pool5/drop_7x7_s1
I0403 15:30:06.200276 12031 net.cpp:148] Top shape: 24 1024 1 1 (24576)
I0403 15:30:06.200290 12031 net.cpp:156] Memory required for data: 1346060832
I0403 15:30:06.200305 12031 layer_factory.hpp:77] Creating layer loss3/classifier_plantvillage
I0403 15:30:06.200326 12031 net.cpp:91] Creating Layer loss3/classifier_plantvillage
I0403 15:30:06.200345 12031 net.cpp:425] loss3/classifier_plantvillage <- pool5/7x7_s1
I0403 15:30:06.200371 12031 net.cpp:399] loss3/classifier_plantvillage -> loss3/classifier_plantvillage
I0403 15:30:06.200811 12031 net.cpp:141] Setting up loss3/classifier_plantvillage
I0403 15:30:06.200836 12031 net.cpp:148] Top shape: 24 38 (912)
I0403 15:30:06.200851 12031 net.cpp:156] Memory required for data: 1346064480
I0403 15:30:06.200870 12031 layer_factory.hpp:77] Creating layer loss3/classifier_plantvillage_loss3/classifier_plantvillage_0_split
I0403 15:30:06.200887 12031 net.cpp:91] Creating Layer loss3/classifier_plantvillage_loss3/classifier_plantvillage_0_split
I0403 15:30:06.200903 12031 net.cpp:425] loss3/classifier_plantvillage_loss3/classifier_plantvillage_0_split <- loss3/classifier_plantvillage
I0403 15:30:06.200925 12031 net.cpp:399] loss3/classifier_plantvillage_loss3/classifier_plantvillage_0_split -> loss3/classifier_plantvillage_loss3/classifier_plantvillage_0_split_0
I0403 15:30:06.200947 12031 net.cpp:399] loss3/classifier_plantvillage_loss3/classifier_plantvillage_0_split -> loss3/classifier_plantvillage_loss3/classifier_plantvillage_0_split_1
I0403 15:30:06.200968 12031 net.cpp:399] loss3/classifier_plantvillage_loss3/classifier_plantvillage_0_split -> loss3/classifier_plantvillage_loss3/classifier_plantvillage_0_split_2
I0403 15:30:06.200987 12031 net.cpp:399] loss3/classifier_plantvillage_loss3/classifier_plantvillage_0_split -> loss3/classifier_plantvillage_loss3/classifier_plantvillage_0_split_3
I0403 15:30:06.201092 12031 net.cpp:141] Setting up loss3/classifier_plantvillage_loss3/classifier_plantvillage_0_split
I0403 15:30:06.201117 12031 net.cpp:148] Top shape: 24 38 (912)
I0403 15:30:06.201135 12031 net.cpp:148] Top shape: 24 38 (912)
I0403 15:30:06.201150 12031 net.cpp:148] Top shape: 24 38 (912)
I0403 15:30:06.201165 12031 net.cpp:148] Top shape: 24 38 (912)
I0403 15:30:06.201179 12031 net.cpp:156] Memory required for data: 1346079072
I0403 15:30:06.201194 12031 layer_factory.hpp:77] Creating layer loss1/loss
I0403 15:30:06.201215 12031 net.cpp:91] Creating Layer loss1/loss
I0403 15:30:06.201233 12031 net.cpp:425] loss1/loss <- loss1/classifier_plantvillage_loss1/classifier_plantvillage_0_split_0
I0403 15:30:06.201264 12031 net.cpp:425] loss1/loss <- label_data_1_split_0
…
