…
I0403 15:34:10.541123 12091 net.cpp:313] The NetState phase (1) differed from the phase (0) specified by a rule in layer data
I0403 15:34:10.542245 12091 net.cpp:49] Initializing net from parameters: 
state {
  phase: TEST
}
layer {
  name: "data"
  type: "Data"
  top: "data"
  top: "label"
  include {
    phase: TEST
  }
  transform_param {
    mirror: false
    crop_size: 224
    mean_file: "/home/mohanty/data/final_dataset/lmdb/segmented-40-60/mean.binaryproto"
  }
  data_param {
    source: "/home/mohanty/data/final_dataset/lmdb/segmented-40-60/test_db"
    batch_size: 24
    backend: LMDB
  }
}
layer {
  name: "conv1/7x7_s2"
  type: "Convolution"
  bottom: "data"
  top: "conv1/7x7_s2"
  param {
    lr_mult: 1
    decay_mult: 1
  }
  param {
    lr_mult: 2
    decay_mult: 0
  }
  convolution_param {
    num_output: 64
    pad: 3
    kernel_size: 7
    stride: 2
    weight_filler {
      type: "xavier"
      std: 0.1
    }
    bias_filler {
      type: "constant"
      value: 0.2
    }
  }
}
layer {
  name: "conv1/relu_7x7"
  type: "ReLU"
  bottom: "conv1/7x7_s2"
  top: "conv1/7x7_s2"
}
layer {
  name: "pool1/3x3_s2"
  type: "Pooling"
  bottom: "conv1/7x7_s2"
  top: "pool1/3x3_s2"
  pooling_param {
    pool: MAX
    kernel_size: 3
    stride: 2
  }
}
layer {
  name: "pool1/norm1"
  type: "LRN"
  bottom: "pool1/3x3_s2"
  top: "pool1/norm1"
  lrn_param {
    local_size: 5
    alpha: 0.0001
    beta: 0.75
  }
}
layer {
  name: "conv2/3x3_reduce"
  type: "Convolution"
  bottom: "pool1/norm1"
  top: "conv2/3x3_reduce"
  param {
    lr_mult: 1
    decay_mult: 1
  }
  param {
    lr_mult: 2
    decay_mult: 0
  }
  convolution_param {
    num_output: 64
    kernel_size: 1
    weight_filler {
      type: "xavier"
      std: 0.1
    }
    bias_filler {
      type: "constant"
      value: 0.2
    }
  }
}
layer {
  name: "conv2/relu_3x3_reduce"
  type: "ReLU"
  bottom: "conv2/3x3_reduce"
  top: "conv2/3x3_reduce"
}
layer {
  name: "conv2/3x3"
  type: "Convolution"
  bottom: "conv2/3x3_reduce"
  top: "conv2/3x3"
  param {
    lr_mult: 1
    decay_mult: 1
  }
  param {
    lr_mult: 2
    decay_mult: 0
  }
  convolution_param {
    num_output: 192
    pad: 1
    kernel_size: 3
    weight_filler {
      type: "xavier"
      std: 0.03
    }
    bias_filler {
      type: "constant"
      value: 0.2
    }
  }
}
layer {
  name: "conv2/relu_3x3"
  type: "ReLU"
  bottom: "conv2/3x3"
  top: "conv2/3x3"
}
layer {
  name: "conv2/norm2"
  type: "LRN"
  bottom: "conv2/3x3"
  top: "conv2/norm2"
  lrn_param {
    local_size: 5
    alpha: 0.0001
    beta: 0.75
  }
}
layer {
  name: "pool2/3x3_s2"
  type: "Pooling"
  bottom: "conv2/norm2"
  top: "pool2/3x3_s2"
  pooling_param {
    pool: MAX
    kernel_size: 3
    stride: 2
  }
}
layer {
  name: "inception_3a/1x1"
  type: "Convolution"
  bottom: "pool2/3x3_s2"
  top: "inception_3a/1x1"
  param {
    lr_mult: 1
    decay_mult: 1
  }
  param {
    lr_mult: 2
    decay_mult: 0
  }
  convolution_param {
    num_output: 64
    kernel_size: 1
    weight_filler {
      type: "xavier"
      std: 0.03
    }
    bias_filler {
      type: "constant"
      value: 0.2
    }
  }
}
layer {
  name: "inception_3a/relu_1x1"
  type: "ReLU"
  bottom: "inception_3a/1x1"
  top: "inception_3a/1x1"
}
layer {
  name: "inception_3a/3x3_reduce"
  type: "Convolution"
  bottom: "pool2/3x3_s2"
  top: "inception_3a/3x3_reduce"
  param {
    lr_mult: 1
    decay_mult: 1
  }
  param {
    lr_mult: 2
    decay_mult: 0
  }
  convolution_param {
    num_output: 96
    kernel_size: 1
    weight_filler {
      type: "xavier"
      std: 0.09
    }
    bias_filler {
      type: "constant"
      value: 0.2
    }
  }
}
layer {
  name: "inception_3a/relu_3x3_reduce"
  type: "ReLU"
  bottom: "inception_3a/3x3_reduce"
  top: "inception_3a/3x3_reduce"
}
layer {
  name: "inception_3a/3x3"
  type: "Convolution"
  bottom: "inception_3a/3x3_reduce"
  top: "inception_3a/3x3"
  param {
    lr_mult: 1
    decay_mult: 1
  }
  param {
    lr_mult: 2
    decay_mult: 0
  }
  convolution_param {
    num_output: 128
    pad: 1
    kernel_size: 3
    weight_filler {
      type: "xavier"
      std: 0.03
    }
    bias_filler {
      type: "constant"
      value: 0.2
    }
  }
}
layer {
  name: "inception_3a/relu_3x3"
  type: "ReLU"
  bottom: "inception_3a/3x3"
  top: "inception_3a/3x3"
}
layer {
  name: "inception_3a/5x5_reduce"
  type: "Convolution"
  bottom: "pool2/3x3_s2"
  top: "inception_3a/5x5_reduce"
  param {
    lr_mult: 1
    decay_mult: 1
  }
  param {
    lr_mult: 2
    decay_mult: 0
  }
  convolution_param {
    num_output: 16
    kernel_size: 1
    weight_filler {
      type: "xavier"
      std: 0.2
    }
    bias_filler {
      type: "constant"
      value: 0.2
    }
  }
}
layer {
  name: "inception_3a/relu_5x5_reduce"
  type: "ReLU"
  bottom: "inception_3a/5x5_reduce"
  top: "inception_3a/5x5_reduce"
}
layer {
  name: "inception_3a/5x5"
  type: "Convolution"
  bottom: "inception_3a/5x5_reduce"
  top: "inception_3a/5x5"
  param {
    lr_mult: 1
    decay_mult: 1
  }
  param {
    lr_mult: 2
    decay_mult: 0
  }
  convolution_param {
    num_output: 32
    pad: 2
    kernel_size: 5
    weight_filler {
      type: "xavier"
      std: 0.03
    }
    bias_filler {
      type: "constant"
      value: 0.2
    }
  }
}
layer {
  name: "inception_3a/relu_5x5"
  type: "ReLU"
  bottom: "inception_3a/5x5"
  top: "inception_3a/5x5"
}
layer {
  name: "inception_3a/pool"
  type: "Pooling"
  bottom: "pool2/3x3_s2"
  top: "inception_3a/pool"
  pooling_param {
    pool: MAX
    kernel_size: 3
    stride: 1
    pad: 1
  }
}
layer {
  name: "inception_3a/pool_proj"
  type: "Convolution"
  bottom: "inception_3a/pool"
  top: "inception_3a/pool_proj"
  param {
    lr_mult: 1
    decay_mult: 1
  }
  param {
    lr_mult: 2
    decay_mult: 0
  }
  convolution_param {
    num_output: 32
    kernel_size: 1
    weight_filler {
      type: "xavier"
      std: 0.1
    }
    bias_filler {
      type: "constant"
      value: 0.2
    }
  }
}
layer {
  name: "inception_3a/relu_pool_proj"
  type: "ReLU"
  bottom: "inception_3a/pool_proj"
  top: "inception_3a/pool_proj"
}
layer {
  name: "inception_3a/output"
  type: "Concat"
  bottom: "inception_3a/1x1"
  bottom: "inception_3a/3x3"
  bottom: "inception_3a/5x5"
  bottom: "inception_3a/pool_proj"
  top: "inception_3a/output"
}
layer {
  name: "inception_3b/1x1"
  type: "Convolution"
  bottom: "inception_3a/output"
  top: "inception_3b/1x1"
  param {
    lr_mult: 1
    decay_mult: 1
  }
  param {
    lr_mult: 2
    decay_mult: 0
  }
  convolution_param {
    num_output: 128
    kernel_size: 1
    weight_filler {
      type: "xavier"
      std: 0.03
    }
    bias_filler {
      type: "constant"
      value: 0.2
    }
  }
}
layer {
  name: "inception_3b/relu_1x1"
  type: "ReLU"
  bottom: "inception_3b/1x1"
  top: "inception_3b/1x1"
}
layer {
  name: "inception_3b/3x3_reduce"
  type: "Convolution"
  bottom: "inception_3a/output"
  top: "inception_3b/3x3_reduce"
  param {
    lr_mult: 1
    decay_mult: 1
  }
  param {
    lr_mult: 2
    decay_mult: 0
  }
  convolution_param {
    num_output: 128
    kernel_size: 1
    weight_filler {
      type: "xavier"
      std: 0.09
    }
    bias_filler {
      type: "constant"
      value: 0.2
    }
  }
}
layer {
  name: "inception_3b/relu_3x3_reduce"
  type: "ReLU"
  bottom: "inception_3b/3x3_reduce"
  top: "inception_3b/3x3_reduce"
}
layer {
  name: "inception_3b/3x3"
  type: "Convolution"
  bottom: "inception_3b/3x3_reduce"
  top: "inception_3b/3x3"
  param {
    lr_mult: 1
    decay_mult: 1
  }
  param {
    lr_mult: 2
    decay_mult: 0
  }
  convolution_param {
    num_output: 192
    pad: 1
    kernel_size: 3
    weight_filler {
      type: "xavier"
      std: 0.03
    }
    bias_filler {
      type: "constant"
      value: 0.2
    }
  }
}
layer {
  name: "inception_3b/relu_3x3"
  type: "ReLU"
  bottom: "inception_3b/3x3"
  top: "inception_3b/3x3"
}
layer {
  name: "inception_3b/5x5_reduce"
  type: "Convolution"
  bottom: "inception_3a/output"
  top: "inception_3b/5x5_reduce"
  param {
    lr_mult: 1
    decay_mult: 1
  }
  param {
    lr_mult: 2
    decay_mult: 0
  }
  convolution_param {
    num_output: 32
    kernel_size: 1
    weight_filler {
      type: "xavier"
      std: 0.2
    }
    bias_filler {
      type: "constant"
      value: 0.2
    }
  }
}
layer {
  name: "inception_3b/relu_5x5_reduce"
  type: "ReLU"
  bottom: "inception_3b/5x5_reduce"
  top: "inception_3b/5x5_reduce"
}
layer {
  name: "inception_3b/5x5"
  type: "Convolution"
  bottom: "inception_3b/5x5_reduce"
  top: "inception_3b/5x5"
  param {
    lr_mult: 1
    decay_mult: 1
  }
  param {
    lr_mult: 2
    decay_mult: 0
  }
  convolution_param {
    num_output: 96
    pad: 2
    kernel_size: 5
    weight_filler {
      type: "xavier"
      std: 0.03
    }
    bias_filler {
      type: "constant"
      value: 0.2
    }
  }
}
layer {
  name: "inception_3b/relu_5x5"
  type: "ReLU"
  bottom: "inception_3b/5x5"
  top: "inception_3b/5x5"
}
layer {
  name: "inception_3b/pool"
  type: "Pooling"
  bottom: "inception_3a/output"
  top: "inception_3b/pool"
  pooling_param {
    pool: MAX
    kernel_size: 3
    stride: 1
    pad: 1
  }
}
layer {
  name: "inception_3b/pool_proj"
  type: "Convolution"
  bottom: "inception_3b/pool"
  top: "inception_3b/pool_proj"
  param {
    lr_mult: 1
    decay_mult: 1
  }
  param {
    lr_mult: 2
    decay_mult: 0
  }
  convolution_param {
    num_output: 64
    kernel_size: 1
    weight_filler {
      type: "xavier"
      std: 0.1
    }
    bias_filler {
      type: "constant"
      value: 0.2
    }
  }
}
layer {
  name: "inception_3b/relu_pool_proj"
  type: "ReLU"
  bottom: "inception_3b/pool_proj"
  top: "inception_3b/pool_proj"
}
layer {
  name: "inception_3b/output"
  type: "Concat"
  bottom: "inception_3b/1x1"
  bottom: "inception_3b/3x3"
  bottom: "inception_3b/5x5"
  bottom: "inception_3b/pool_proj"
  top: "inception_3b/output"
}
layer {
  name: "pool3/3x3_s2"
  type: "Pooling"
  bottom: "inception_3b/output"
  top: "pool3/3x3_s2"
  pooling_param {
    pool: MAX
    kernel_size: 3
    stride: 2
  }
}
layer {
  name: "inception_4a/1x1"
  type: "Convolution"
  bottom: "pool3/3x3_s2"
  top: "inception_4a/1x1"
  param {
    lr_mult: 1
    decay_mult: 1
  }
  param {
    lr_mult: 2
    decay_mult: 0
  }
  convolution_param {
    num_output: 192
    kernel_size: 1
    weight_filler {
      type: "xavier"
      std: 0.03
    }
    bias_filler {
      type: "constant"
      value: 0.2
    }
  }
}
layer {
  name: "inception_4a/relu_1x1"
  type: "ReLU"
  bottom: "inception_4a/1x1"
  top: "inception_4a/1x1"
}
layer {
  name: "inception_4a/3x3_reduce"
  type: "Convolution"
  bottom: "pool3/3x3_s2"
  top: "inception_4a/3x3_reduce"
  param {
    lr_mult: 1
    decay_mult: 1
  }
  param {
    lr_mult: 2
    decay_mult: 0
  }
  convolution_param {
    num_output: 96
    kernel_size: 1
    weight_filler {
      type: "xavier"
      std: 0.09
    }
    bias_filler {
      type: "constant"
      value: 0.2
    }
  }
}
layer {
  name: "inception_4a/relu_3x3_reduce"
  type: "ReLU"
  bottom: "inception_4a/3x3_reduce"
  top: "inception_4a/3x3_reduce"
}
layer {
  name: "inception_4a/3x3"
  type: "Convolution"
  bottom: "inception_4a/3x3_reduce"
  top: "inception_4a/3x3"
  param {
    lr_mult: 1
    decay_mult: 1
  }
  param {
    lr_mult: 2
    decay_mult: 0
  }
  convolution_param {
    num_output: 208
    pad: 1
    kernel_size: 3
    weight_filler {
      type: "xavier"
      std: 0.03
    }
    bias_filler {
      type: "constant"
      value: 0.2
    }
  }
}
layer {
  name: "inception_4a/relu_3x3"
  type: "ReLU"
  bottom: "inception_4a/3x3"
  top: "inception_4a/3x3"
}
layer {
  name: "inception_4a/5x5_reduce"
  type: "Convolution"
  bottom: "pool3/3x3_s2"
  top: "inception_4a/5x5_reduce"
  param {
    lr_mult: 1
    decay_mult: 1
  }
  param {
    lr_mult: 2
    decay_mult: 0
  }
  convolution_param {
    num_output: 16
    kernel_size: 1
    weight_filler {
      type: "xavier"
      std: 0.2
    }
    bias_filler {
      type: "constant"
      value: 0.2
    }
  }
}
layer {
  name: "inception_4a/relu_5x5_reduce"
  type: "ReLU"
  bottom: "inception_4a/5x5_reduce"
  top: "inception_4a/5x5_reduce"
}
layer {
  name: "inception_4a/5x5"
  type: "Convolution"
  bottom: "inception_4a/5x5_reduce"
  top: "inception_4a/5x5"
  param {
    lr_mult: 1
    decay_mult: 1
  }
  param {
    lr_mult: 2
    decay_mult: 0
  }
  convolution_param {
    num_output: 48
    pad: 2
    kernel_size: 5
    weight_filler {
      type: "xavier"
      std: 0.03
    }
    bias_filler {
      type: "constant"
      value: 0.2
    }
  }
}
layer {
  name: "inception_4a/relu_5x5"
  type: "ReLU"
  bottom: "inception_4a/5x5"
  top: "inception_4a/5x5"
}
layer {
  name: "inception_4a/pool"
  type: "Pooling"
  bottom: "pool3/3x3_s2"
  top: "inception_4a/pool"
  pooling_param {
    pool: MAX
    kernel_size: 3
    stride: 1
    pad: 1
  }
}
layer {
  name: "inception_4a/pool_proj"
  type: "Convolution"
  bottom: "inception_4a/pool"
  top: "inception_4a/pool_proj"
  param {
    lr_mult: 1
    decay_mult: 1
  }
  param {
    lr_mult: 2
    decay_mult: 0
  }
  convolution_param {
    num_output: 64
    kernel_size: 1
    weight_filler {
      type: "xavier"
      std: 0.1
    }
    bias_filler {
      type: "constant"
      value: 0.2
    }
  }
}
layer {
  name: "inception_4a/relu_pool_proj"
  type: "ReLU"
  bottom: "inception_4a/pool_proj"
  top: "inception_4a/pool_proj"
}
layer {
  name: "inception_4a/output"
  type: "Concat"
  bottom: "inception_4a/1x1"
  bottom: "inception_4a/3x3"
  bottom: "inception_4a/5x5"
  bottom: "inception_4a/pool_proj"
  top: "inception_4a/output"
}
layer {
  name: "loss1/ave_pool"
  type: "Pooling"
  bottom: "inception_4a/output"
  top: "loss1/ave_pool"
  pooling_param {
    pool: AVE
    kernel_size: 5
    stride: 3
  }
}
layer {
  name: "loss1/conv"
  type: "Convolution"
  bottom: "loss1/ave_pool"
  top: "loss1/conv"
  param {
    lr_mult: 1
    decay_mult: 1
  }
  param {
    lr_mult: 2
    decay_mult: 0
  }
  convolution_param {
    num_output: 128
    kernel_size: 1
    weight_filler {
      type: "xavier"
      std: 0.08
    }
    bias_filler {
      type: "constant"
      value: 0.2
    }
  }
}
layer {
  name: "loss1/relu_conv"
  type: "ReLU"
  bottom: "loss1/conv"
  top: "loss1/conv"
}
layer {
  name: "loss1/fc"
  type: "InnerProduct"
  bottom: "loss1/conv"
  top: "loss1/fc"
  param {
    lr_mult: 1
    decay_mult: 1
  }
  param {
    lr_mult: 2
    decay_mult: 0
  }
  inner_product_param {
    num_output: 1024
    weight_filler {
      type: "xavier"
      std: 0.02
    }
    bias_filler {
      type: "constant"
      value: 0.2
    }
  }
}
layer {
  name: "loss1/relu_fc"
  type: "ReLU"
  bottom: "loss1/fc"
  top: "loss1/fc"
}
layer {
  name: "loss1/drop_fc"
  type: "Dropout"
  bottom: "loss1/fc"
  top: "loss1/fc"
  dropout_param {
    dropout_ratio: 0.7
  }
}
layer {
  name: "loss1/classifier_plantvillage"
  type: "InnerProduct"
  bottom: "loss1/fc"
  top: "loss1/classifier_plantvillage"
  param {
    lr_mult: 1
    decay_mult: 1
  }
  param {
    lr_mult: 2
    decay_mult: 0
  }
  inner_product_param {
    num_output: 38
    weight_filler {
      type: "xavier"
      std: 0.0009765625
    }
    bias_filler {
      type: "constant"
      value: 0
    }
  }
}
layer {
  name: "inception_4b/1x1"
  type: "Convolution"
  bottom: "inception_4a/output"
  top: "inception_4b/1x1"
  param {
    lr_mult: 1
    decay_mult: 1
  }
  param {
    lr_mult: 2
    decay_mult: 0
  }
  convolution_param {
    num_output: 160
    kernel_size: 1
    weight_filler {
      type: "xavier"
      std: 0.03
    }
    bias_filler {
      type: "constant"
      value: 0.2
    }
  }
}
layer {
  name: "inception_4b/relu_1x1"
  type: "ReLU"
  bottom: "inception_4b/1x1"
  top: "inception_4b/1x1"
}
layer {
  name: "inception_4b/3x3_reduce"
  type: "Convolution"
  bottom: "inception_4a/output"
  top: "inception_4b/3x3_reduce"
  param {
    lr_mult: 1
    decay_mult: 1
  }
  param {
    lr_mult: 2
    decay_mult: 0
  }
  convolution_param {
    num_output: 112
    kernel_size: 1
    weight_filler {
      type: "xavier"
      std: 0.09
    }
    bias_filler {
      type: "constant"
      value: 0.2
    }
  }
}
layer {
  name: "inception_4b/relu_3x3_reduce"
  type: "ReLU"
  bottom: "inception_4b/3x3_reduce"
  top: "inception_4b/3x3_reduce"
}
layer {
  name: "inception_4b/3x3"
  type: "Convolution"
  bottom: "inception_4b/3x3_reduce"
  top: "inception_4b/3x3"
  param {
    lr_mult: 1
    decay_mult: 1
  }
  param {
    lr_mult: 2
    decay_mult: 0
  }
  convolution_param {
    num_output: 224
    pad: 1
    kernel_size: 3
    weight_filler {
      type: "xavier"
      std: 0.03
    }
    bias_filler {
      type: "constant"
      value: 0.2
    }
  }
}
layer {
  name: "inception_4b/relu_3x3"
  type: "ReLU"
  bottom: "inception_4b/3x3"
  top: "inception_4b/3x3"
}
layer {
  name: "inception_4b/5x5_reduce"
  type: "Convolution"
  bottom: "inception_4a/output"
  top: "inception_4b/5x5_reduce"
  param {
    lr_mult: 1
    decay_mult: 1
  }
  param {
    lr_mult: 2
    decay_mult: 0
  }
  convolution_param {
    num_output: 24
    kernel_size: 1
    weight_filler {
      type: "xavier"
      std: 0.2
    }
    bias_filler {
      type: "constant"
      value: 0.2
    }
  }
}
layer {
  name: "inception_4b/relu_5x5_reduce"
  type: "ReLU"
  bottom: "inception_4b/5x5_reduce"
  top: "inception_4b/5x5_reduce"
}
layer {
  name: "inception_4b/5x5"
  type: "Convolution"
  bottom: "inception_4b/5x5_reduce"
  top: "inception_4b/5x5"
  param {
    lr_mult: 1
    decay_mult: 1
  }
  param {
    lr_mult: 2
    decay_mult: 0
  }
  convolution_param {
    num_output: 64
    pad: 2
    kernel_size: 5
    weight_filler {
      type: "xavier"
      std: 0.03
    }
    bias_filler {
      type: "constant"
      value: 0.2
    }
  }
}
layer {
  name: "inception_4b/relu_5x5"
  type: "ReLU"
  bottom: "inception_4b/5x5"
  top: "inception_4b/5x5"
}
layer {
  name: "inception_4b/pool"
  type: "Pooling"
  bottom: "inception_4a/output"
  top: "inception_4b/pool"
  pooling_param {
    pool: MAX
    kernel_size: 3
    stride: 1
    pad: 1
  }
}
layer {
  name: "inception_4b/pool_proj"
  type: "Convolution"
  bottom: "inception_4b/pool"
  top: "inception_4b/pool_proj"
  param {
    lr_mult: 1
    decay_mult: 1
  }
  param {
    lr_mult: 2
    decay_mult: 0
  }
  convolution_param {
    num_output: 64
    kernel_size: 1
    weight_filler {
      type: "xavier"
      std: 0.1
    }
    bias_filler {
      type: "constant"
      value: 0.2
    }
  }
}
layer {
  name: "inception_4b/relu_pool_proj"
  type: "ReLU"
  bottom: "inception_4b/pool_proj"
  top: "inception_4b/pool_proj"
}
layer {
  name: "inception_4b/output"
  type: "Concat"
  bottom: "inception_4b/1x1"
  bottom: "inception_4b/3x3"
  bottom: "inception_4b/5x5"
  bottom: "inception_4b/pool_proj"
  top: "inception_4b/output"
}
layer {
  name: "inception_4c/1x1"
  type: "Convolution"
  bottom: "inception_4b/output"
  top: "inception_4c/1x1"
  param {
    lr_mult: 1
    decay_mult: 1
  }
  param {
    lr_mult: 2
    decay_mult: 0
  }
  convolution_param {
    num_output: 128
    kernel_size: 1
    weight_filler {
      type: "xavier"
      std: 0.03
    }
    bias_filler {
      type: "constant"
      value: 0.2
    }
  }
}
layer {
  name: "inception_4c/relu_1x1"
  type: "ReLU"
  bottom: "inception_4c/1x1"
  top: "inception_4c/1x1"
}
layer {
  name: "inception_4c/3x3_reduce"
  type: "Convolution"
  bottom: "inception_4b/output"
  top: "inception_4c/3x3_reduce"
  param {
    lr_mult: 1
    decay_mult: 1
  }
  param {
    lr_mult: 2
    decay_mult: 0
  }
  convolution_param {
    num_output: 128
    kernel_size: 1
    weight_filler {
      type: "xavier"
      std: 0.09
    }
    bias_filler {
      type: "constant"
      value: 0.2
    }
  }
}
layer {
  name: "inception_4c/relu_3x3_reduce"
  type: "ReLU"
  bottom: "inception_4c/3x3_reduce"
  top: "inception_4c/3x3_reduce"
}
layer {
  name: "inception_4c/3x3"
  type: "Convolution"
  bottom: "inception_4c/3x3_reduce"
  top: "inception_4c/3x3"
  param {
    lr_mult: 1
    decay_mult: 1
  }
  param {
    lr_mult: 2
    decay_mult: 0
  }
  convolution_param {
    num_output: 256
    pad: 1
    kernel_size: 3
    weight_filler {
      type: "xavier"
      std: 0.03
    }
    bias_filler {
      type: "constant"
      value: 0.2
    }
  }
}
layer {
  name: "inception_4c/relu_3x3"
  type: "ReLU"
  bottom: "inception_4c/3x3"
  top: "inception_4c/3x3"
}
layer {
  name: "inception_4c/5x5_reduce"
  type: "Convolution"
  bottom: "inception_4b/output"
  top: "inception_4c/5x5_reduce"
  param {
    lr_mult: 1
    decay_mult: 1
  }
  param {
    lr_mult: 2
    decay_mult: 0
  }
  convolution_param {
    num_output: 24
    kernel_size: 1
    weight_filler {
      type: "xavier"
      std: 0.2
    }
    bias_filler {
      type: "constant"
      value: 0.2
    }
  }
}
layer {
  name: "inception_4c/relu_5x5_reduce"
  type: "ReLU"
  bottom: "inception_4c/5x5_reduce"
  top: "inception_4c/5x5_reduce"
}
layer {
  name: "inception_4c/5x5"
  type: "Convolution"
  bottom: "inception_4c/5x5_reduce"
  top: "inception_4c/5x5"
  param {
    lr_mult: 1
    decay_mult: 1
  }
  param {
    lr_mult: 2
    decay_mult: 0
  }
  convolution_param {
    num_output: 64
    pad: 2
    kernel_size: 5
    weight_filler {
      type: "xavier"
      std: 0.03
    }
    bias_filler {
      type: "constant"
      value: 0.2
    }
  }
}
layer {
  name: "inception_4c/relu_5x5"
  type: "ReLU"
  bottom: "inception_4c/5x5"
  top: "inception_4c/5x5"
}
layer {
  name: "inception_4c/pool"
  type: "Pooling"
  bottom: "inception_4b/output"
  top: "inception_4c/pool"
  pooling_param {
    pool: MAX
    kernel_size: 3
    stride: 1
    pad: 1
  }
}
layer {
  name: "inception_4c/pool_proj"
  type: "Convolution"
  bottom: "inception_4c/pool"
  top: "inception_4c/pool_proj"
  param {
    lr_mult: 1
    decay_mult: 1
  }
  param {
    lr_mult: 2
    decay_mult: 0
  }
  convolution_param {
    num_output: 64
    kernel_size: 1
    weight_filler {
      type: "xavier"
      std: 0.1
    }
    bias_filler {
      type: "constant"
      value: 0.2
    }
  }
}
layer {
  name: "inception_4c/relu_pool_proj"
  type: "ReLU"
  bottom: "inception_4c/pool_proj"
  top: "inception_4c/pool_proj"
}
layer {
  name: "inception_4c/output"
  type: "Concat"
  bottom: "inception_4c/1x1"
  bottom: "inception_4c/3x3"
  bottom: "inception_4c/5x5"
  bottom: "inception_4c/pool_proj"
  top: "inception_4c/output"
}
layer {
  name: "inception_4d/1x1"
  type: "Convolution"
  bottom: "inception_4c/output"
  top: "inception_4d/1x1"
  param {
    lr_mult: 1
    decay_mult: 1
  }
  param {
    lr_mult: 2
    decay_mult: 0
  }
  convolution_param {
    num_output: 112
    kernel_size: 1
    weight_filler {
      type: "xavier"
      std: 0.03
    }
    bias_filler {
      type: "constant"
      value: 0.2
    }
  }
}
layer {
  name: "inception_4d/relu_1x1"
  type: "ReLU"
  bottom: "inception_4d/1x1"
  top: "inception_4d/1x1"
}
layer {
  name: "inception_4d/3x3_reduce"
  type: "Convolution"
  bottom: "inception_4c/output"
  top: "inception_4d/3x3_reduce"
  param {
    lr_mult: 1
    decay_mult: 1
  }
  param {
    lr_mult: 2
    decay_mult: 0
  }
  convolution_param {
    num_output: 144
    kernel_size: 1
    weight_filler {
      type: "xavier"
      std: 0.09
    }
    bias_filler {
      type: "constant"
      value: 0.2
    }
  }
}
layer {
  name: "inception_4d/relu_3x3_reduce"
  type: "ReLU"
  bottom: "inception_4d/3x3_reduce"
  top: "inception_4d/3x3_reduce"
}
layer {
  name: "inception_4d/3x3"
  type: "Convolution"
  bottom: "inception_4d/3x3_reduce"
  top: "inception_4d/3x3"
  param {
    lr_mult: 1
    decay_mult: 1
  }
  param {
    lr_mult: 2
    decay_mult: 0
  }
  convolution_param {
    num_output: 288
    pad: 1
    kernel_size: 3
    weight_filler {
      type: "xavier"
      std: 0.03
    }
    bias_filler {
      type: "constant"
      value: 0.2
    }
  }
}
layer {
  name: "inception_4d/relu_3x3"
  type: "ReLU"
  bottom: "inception_4d/3x3"
  top: "inception_4d/3x3"
}
layer {
  name: "inception_4d/5x5_reduce"
  type: "Convolution"
  bottom: "inception_4c/output"
  top: "inception_4d/5x5_reduce"
  param {
    lr_mult: 1
    decay_mult: 1
  }
  param {
    lr_mult: 2
    decay_mult: 0
  }
  convolution_param {
    num_output: 32
    kernel_size: 1
    weight_filler {
      type: "xavier"
      std: 0.2
    }
    bias_filler {
      type: "constant"
      value: 0.2
    }
  }
}
layer {
  name: "inception_4d/relu_5x5_reduce"
  type: "ReLU"
  bottom: "inception_4d/5x5_reduce"
  top: "inception_4d/5x5_reduce"
}
layer {
  name: "inception_4d/5x5"
  type: "Convolution"
  bottom: "inception_4d/5x5_reduce"
  top: "inception_4d/5x5"
  param {
    lr_mult: 1
    decay_mult: 1
  }
  param {
    lr_mult: 2
    decay_mult: 0
  }
  convolution_param {
    num_output: 64
    pad: 2
    kernel_size: 5
    weight_filler {
      type: "xavier"
      std: 0.03
    }
    bias_filler {
      type: "constant"
      value: 0.2
    }
  }
}
layer {
  name: "inception_4d/relu_5x5"
  type: "ReLU"
  bottom: "inception_4d/5x5"
  top: "inception_4d/5x5"
}
layer {
  name: "inception_4d/pool"
  type: "Pooling"
  bottom: "inception_4c/output"
  top: "inception_4d/pool"
  pooling_param {
    pool: MAX
    kernel_size: 3
    stride: 1
    pad: 1
  }
}
layer {
  name: "inception_4d/pool_proj"
  type: "Convolution"
  bottom: "inception_4d/pool"
  top: "inception_4d/pool_proj"
  param {
    lr_mult: 1
    decay_mult: 1
  }
  param {
    lr_mult: 2
    decay_mult: 0
  }
  convolution_param {
    num_output: 64
    kernel_size: 1
    weight_filler {
      type: "xavier"
      std: 0.1
    }
    bias_filler {
      type: "constant"
      value: 0.2
    }
  }
}
layer {
  name: "inception_4d/relu_pool_proj"
  type: "ReLU"
  bottom: "inception_4d/pool_proj"
  top: "inception_4d/pool_proj"
}
layer {
  name: "inception_4d/output"
  type: "Concat"
  bottom: "inception_4d/1x1"
  bottom: "inception_4d/3x3"
  bottom: "inception_4d/5x5"
  bottom: "inception_4d/pool_proj"
  top: "inception_4d/output"
}
layer {
  name: "loss2/ave_pool"
  type: "Pooling"
  bottom: "inception_4d/output"
  top: "loss2/ave_pool"
  pooling_param {
    pool: AVE
    kernel_size: 5
    stride: 3
  }
}
layer {
  name: "loss2/conv"
  type: "Convolution"
  bottom: "loss2/ave_pool"
  top: "loss2/conv"
  param {
    lr_mult: 1
    decay_mult: 1
  }
  param {
    lr_mult: 2
    decay_mult: 0
  }
  convolution_param {
    num_output: 128
    kernel_size: 1
    weight_filler {
      type: "xavier"
      std: 0.08
    }
    bias_filler {
      type: "constant"
      value: 0.2
    }
  }
}
layer {
  name: "loss2/relu_conv"
  type: "ReLU"
  bottom: "loss2/conv"
  top: "loss2/conv"
}
layer {
  name: "loss2/fc"
  type: "InnerProduct"
  bottom: "loss2/conv"
  top: "loss2/fc"
  param {
    lr_mult: 1
    decay_mult: 1
  }
  param {
    lr_mult: 2
    decay_mult: 0
  }
  inner_product_param {
    num_output: 1024
    weight_filler {
      type: "xavier"
      std: 0.02
    }
    bias_filler {
      type: "constant"
      value: 0.2
    }
  }
}
layer {
  name: "loss2/relu_fc"
  type: "ReLU"
  bottom: "loss2/fc"
  top: "loss2/fc"
}
layer {
  name: "loss2/drop_fc"
  type: "Dropout"
  bottom: "loss2/fc"
  top: "loss2/fc"
  dropout_param {
    dropout_ratio: 0.7
  }
}
layer {
  name: "loss2/classifier_plantvillage"
  type: "InnerProduct"
  bottom: "loss2/fc"
  top: "loss2/classifier_plantvillage"
  param {
    lr_mult: 1
    decay_mult: 1
  }
  param {
    lr_mult: 2
    decay_mult: 0
  }
  inner_product_param {
    num_output: 38
    weight_filler {
      type: "xavier"
      std: 0.0009765625
    }
    bias_filler {
      type: "constant"
      value: 0
    }
  }
}
layer {
  name: "inception_4e/1x1"
  type: "Convolution"
  bottom: "inception_4d/output"
  top: "inception_4e/1x1"
  param {
    lr_mult: 1
    decay_mult: 1
  }
  param {
    lr_mult: 2
    decay_mult: 0
  }
  convolution_param {
    num_output: 256
    kernel_size: 1
    weight_filler {
      type: "xavier"
      std: 0.03
    }
    bias_filler {
      type: "constant"
      value: 0.2
    }
  }
}
layer {
  name: "inception_4e/relu_1x1"
  type: "ReLU"
  bottom: "inception_4e/1x1"
  top: "inception_4e/1x1"
}
layer {
  name: "inception_4e/3x3_reduce"
  type: "Convolution"
  bottom: "inception_4d/output"
  top: "inception_4e/3x3_reduce"
  param {
    lr_mult: 1
    decay_mult: 1
  }
  param {
    lr_mult: 2
    decay_mult: 0
  }
  convolution_param {
    num_output: 160
    kernel_size: 1
    weight_filler {
      type: "xavier"
      std: 0.09
    }
    bias_filler {
      type: "constant"
      value: 0.2
    }
  }
}
layer {
  name: "inception_4e/relu_3x3_reduce"
  type: "ReLU"
  bottom: "inception_4e/3x3_reduce"
  top: "inception_4e/3x3_reduce"
}
layer {
  name: "inception_4e/3x3"
  type: "Convolution"
  bottom: "inception_4e/3x3_reduce"
  top: "inception_4e/3x3"
  param {
    lr_mult: 1
    decay_mult: 1
  }
  param {
    lr_mult: 2
    decay_mult: 0
  }
  convolution_param {
    num_output: 320
    pad: 1
    kernel_size: 3
    weight_filler {
      type: "xavier"
      std: 0.03
    }
    bias_filler {
      type: "constant"
      value: 0.2
    }
  }
}
layer {
  name: "inception_4e/relu_3x3"
  type: "ReLU"
  bottom: "inception_4e/3x3"
  top: "inception_4e/3x3"
}
layer {
  name: "inception_4e/5x5_reduce"
  type: "Convolution"
  bottom: "inception_4d/output"
  top: "inception_4e/5x5_reduce"
  param {
    lr_mult: 1
    decay_mult: 1
  }
  param {
    lr_mult: 2
    decay_mult: 0
  }
  convolution_param {
    num_output: 32
    kernel_size: 1
    weight_filler {
      type: "xavier"
      std: 0.2
    }
    bias_filler {
      type: "constant"
      value: 0.2
    }
  }
}
layer {
  name: "inception_4e/relu_5x5_reduce"
  type: "ReLU"
  bottom: "inception_4e/5x5_reduce"
  top: "inception_4e/5x5_reduce"
}
layer {
  name: "inception_4e/5x5"
  type: "Convolution"
  bottom: "inception_4e/5x5_reduce"
  top: "inception_4e/
I0403 15:34:10.543511 12091 layer_factory.hpp:77] Creating layer data
I0403 15:34:10.544137 12091 net.cpp:91] Creating Layer data
I0403 15:34:10.544170 12091 net.cpp:399] data -> data
I0403 15:34:10.544220 12091 net.cpp:399] data -> label
I0403 15:34:10.544256 12091 data_transformer.cpp:25] Loading mean file from: /home/mohanty/data/final_dataset/lmdb/segmented-40-60/mean.binaryproto
I0403 15:34:10.546825 12095 db_lmdb.cpp:38] Opened lmdb /home/mohanty/data/final_dataset/lmdb/segmented-40-60/test_db
I0403 15:34:10.557332 12091 data_layer.cpp:41] output data size: 24,3,224,224
I0403 15:34:10.584511 12091 net.cpp:141] Setting up data
I0403 15:34:10.584611 12091 net.cpp:148] Top shape: 24 3 224 224 (3612672)
I0403 15:34:10.584632 12091 net.cpp:148] Top shape: 24 (24)
I0403 15:34:10.584647 12091 net.cpp:156] Memory required for data: 14450784
I0403 15:34:10.584673 12091 layer_factory.hpp:77] Creating layer label_data_1_split
I0403 15:34:10.584700 12091 net.cpp:91] Creating Layer label_data_1_split
I0403 15:34:10.584717 12091 net.cpp:425] label_data_1_split <- label
I0403 15:34:10.584748 12091 net.cpp:399] label_data_1_split -> label_data_1_split_0
I0403 15:34:10.584776 12091 net.cpp:399] label_data_1_split -> label_data_1_split_1
I0403 15:34:10.584799 12091 net.cpp:399] label_data_1_split -> label_data_1_split_2
I0403 15:34:10.584818 12091 net.cpp:399] label_data_1_split -> label_data_1_split_3
I0403 15:34:10.584837 12091 net.cpp:399] label_data_1_split -> label_data_1_split_4
I0403 15:34:10.584857 12091 net.cpp:399] label_data_1_split -> label_data_1_split_5
I0403 15:34:10.584877 12091 net.cpp:399] label_data_1_split -> label_data_1_split_6
I0403 15:34:10.584895 12091 net.cpp:399] label_data_1_split -> label_data_1_split_7
I0403 15:34:10.584914 12091 net.cpp:399] label_data_1_split -> label_data_1_split_8
I0403 15:34:10.584934 12091 net.cpp:399] label_data_1_split -> label_data_1_split_9
I0403 15:34:10.585044 12091 net.cpp:141] Setting up label_data_1_split
I0403 15:34:10.585067 12091 net.cpp:148] Top shape: 24 (24)
I0403 15:34:10.585083 12091 net.cpp:148] Top shape: 24 (24)
I0403 15:34:10.585098 12091 net.cpp:148] Top shape: 24 (24)
I0403 15:34:10.585114 12091 net.cpp:148] Top shape: 24 (24)
I0403 15:34:10.585129 12091 net.cpp:148] Top shape: 24 (24)
I0403 15:34:10.585144 12091 net.cpp:148] Top shape: 24 (24)
I0403 15:34:10.585158 12091 net.cpp:148] Top shape: 24 (24)
I0403 15:34:10.585172 12091 net.cpp:148] Top shape: 24 (24)
I0403 15:34:10.585187 12091 net.cpp:148] Top shape: 24 (24)
I0403 15:34:10.585202 12091 net.cpp:148] Top shape: 24 (24)
I0403 15:34:10.585247 12091 net.cpp:156] Memory required for data: 14451744
I0403 15:34:10.585263 12091 layer_factory.hpp:77] Creating layer conv1/7x7_s2
I0403 15:34:10.585294 12091 net.cpp:91] Creating Layer conv1/7x7_s2
I0403 15:34:10.585311 12091 net.cpp:425] conv1/7x7_s2 <- data
I0403 15:34:10.585335 12091 net.cpp:399] conv1/7x7_s2 -> conv1/7x7_s2
I0403 15:34:10.723449 12091 net.cpp:141] Setting up conv1/7x7_s2
I0403 15:34:10.723492 12091 net.cpp:148] Top shape: 24 64 112 112 (19267584)
I0403 15:34:10.723510 12091 net.cpp:156] Memory required for data: 91522080
I0403 15:34:10.723539 12091 layer_factory.hpp:77] Creating layer conv1/relu_7x7
I0403 15:34:10.723567 12091 net.cpp:91] Creating Layer conv1/relu_7x7
I0403 15:34:10.723587 12091 net.cpp:425] conv1/relu_7x7 <- conv1/7x7_s2
I0403 15:34:10.723606 12091 net.cpp:386] conv1/relu_7x7 -> conv1/7x7_s2 (in-place)
I0403 15:34:10.723862 12091 net.cpp:141] Setting up conv1/relu_7x7
I0403 15:34:10.723888 12091 net.cpp:148] Top shape: 24 64 112 112 (19267584)
I0403 15:34:10.723903 12091 net.cpp:156] Memory required for data: 168592416
I0403 15:34:10.723918 12091 layer_factory.hpp:77] Creating layer pool1/3x3_s2
I0403 15:34:10.723942 12091 net.cpp:91] Creating Layer pool1/3x3_s2
I0403 15:34:10.723959 12091 net.cpp:425] pool1/3x3_s2 <- conv1/7x7_s2
I0403 15:34:10.723978 12091 net.cpp:399] pool1/3x3_s2 -> pool1/3x3_s2
I0403 15:34:10.724050 12091 net.cpp:141] Setting up pool1/3x3_s2
I0403 15:34:10.724074 12091 net.cpp:148] Top shape: 24 64 56 56 (4816896)
I0403 15:34:10.724088 12091 net.cpp:156] Memory required for data: 187860000
I0403 15:34:10.724103 12091 layer_factory.hpp:77] Creating layer pool1/norm1
I0403 15:34:10.724126 12091 net.cpp:91] Creating Layer pool1/norm1
I0403 15:34:10.724143 12091 net.cpp:425] pool1/norm1 <- pool1/3x3_s2
I0403 15:34:10.724161 12091 net.cpp:399] pool1/norm1 -> pool1/norm1
I0403 15:34:10.724463 12091 net.cpp:141] Setting up pool1/norm1
I0403 15:34:10.724490 12091 net.cpp:148] Top shape: 24 64 56 56 (4816896)
I0403 15:34:10.724506 12091 net.cpp:156] Memory required for data: 207127584
I0403 15:34:10.724522 12091 layer_factory.hpp:77] Creating layer conv2/3x3_reduce
I0403 15:34:10.724547 12091 net.cpp:91] Creating Layer conv2/3x3_reduce
I0403 15:34:10.724565 12091 net.cpp:425] conv2/3x3_reduce <- pool1/norm1
I0403 15:34:10.724582 12091 net.cpp:399] conv2/3x3_reduce -> conv2/3x3_reduce
I0403 15:34:10.725913 12091 net.cpp:141] Setting up conv2/3x3_reduce
I0403 15:34:10.725947 12091 net.cpp:148] Top shape: 24 64 56 56 (4816896)
I0403 15:34:10.725965 12091 net.cpp:156] Memory required for data: 226395168
I0403 15:34:10.725986 12091 layer_factory.hpp:77] Creating layer conv2/relu_3x3_reduce
I0403 15:34:10.726004 12091 net.cpp:91] Creating Layer conv2/relu_3x3_reduce
I0403 15:34:10.726021 12091 net.cpp:425] conv2/relu_3x3_reduce <- conv2/3x3_reduce
I0403 15:34:10.726040 12091 net.cpp:386] conv2/relu_3x3_reduce -> conv2/3x3_reduce (in-place)
I0403 15:34:10.726308 12091 net.cpp:141] Setting up conv2/relu_3x3_reduce
I0403 15:34:10.726341 12091 net.cpp:148] Top shape: 24 64 56 56 (4816896)
I0403 15:34:10.726356 12091 net.cpp:156] Memory required for data: 245662752
I0403 15:34:10.726372 12091 layer_factory.hpp:77] Creating layer conv2/3x3
I0403 15:34:10.726394 12091 net.cpp:91] Creating Layer conv2/3x3
I0403 15:34:10.726413 12091 net.cpp:425] conv2/3x3 <- conv2/3x3_reduce
I0403 15:34:10.726433 12091 net.cpp:399] conv2/3x3 -> conv2/3x3
I0403 15:34:10.728699 12091 net.cpp:141] Setting up conv2/3x3
I0403 15:34:10.728732 12091 net.cpp:148] Top shape: 24 192 56 56 (14450688)
I0403 15:34:10.728750 12091 net.cpp:156] Memory required for data: 303465504
I0403 15:34:10.728772 12091 layer_factory.hpp:77] Creating layer conv2/relu_3x3
I0403 15:34:10.728790 12091 net.cpp:91] Creating Layer conv2/relu_3x3
I0403 15:34:10.728806 12091 net.cpp:425] conv2/relu_3x3 <- conv2/3x3
I0403 15:34:10.728826 12091 net.cpp:386] conv2/relu_3x3 -> conv2/3x3 (in-place)
I0403 15:34:10.729002 12091 net.cpp:141] Setting up conv2/relu_3x3
I0403 15:34:10.729027 12091 net.cpp:148] Top shape: 24 192 56 56 (14450688)
I0403 15:34:10.729074 12091 net.cpp:156] Memory required for data: 361268256
I0403 15:34:10.729089 12091 layer_factory.hpp:77] Creating layer conv2/norm2
I0403 15:34:10.729111 12091 net.cpp:91] Creating Layer conv2/norm2
I0403 15:34:10.729127 12091 net.cpp:425] conv2/norm2 <- conv2/3x3
I0403 15:34:10.729147 12091 net.cpp:399] conv2/norm2 -> conv2/norm2
I0403 15:34:10.729452 12091 net.cpp:141] Setting up conv2/norm2
I0403 15:34:10.729481 12091 net.cpp:148] Top shape: 24 192 56 56 (14450688)
I0403 15:34:10.729497 12091 net.cpp:156] Memory required for data: 419071008
I0403 15:34:10.729513 12091 layer_factory.hpp:77] Creating layer pool2/3x3_s2
I0403 15:34:10.729531 12091 net.cpp:91] Creating Layer pool2/3x3_s2
I0403 15:34:10.729545 12091 net.cpp:425] pool2/3x3_s2 <- conv2/norm2
I0403 15:34:10.729564 12091 net.cpp:399] pool2/3x3_s2 -> pool2/3x3_s2
I0403 15:34:10.729631 12091 net.cpp:141] Setting up pool2/3x3_s2
I0403 15:34:10.729655 12091 net.cpp:148] Top shape: 24 192 28 28 (3612672)
I0403 15:34:10.729671 12091 net.cpp:156] Memory required for data: 433521696
I0403 15:34:10.729684 12091 layer_factory.hpp:77] Creating layer pool2/3x3_s2_pool2/3x3_s2_0_split
I0403 15:34:10.729706 12091 net.cpp:91] Creating Layer pool2/3x3_s2_pool2/3x3_s2_0_split
I0403 15:34:10.729722 12091 net.cpp:425] pool2/3x3_s2_pool2/3x3_s2_0_split <- pool2/3x3_s2
I0403 15:34:10.729739 12091 net.cpp:399] pool2/3x3_s2_pool2/3x3_s2_0_split -> pool2/3x3_s2_pool2/3x3_s2_0_split_0
I0403 15:34:10.729759 12091 net.cpp:399] pool2/3x3_s2_pool2/3x3_s2_0_split -> pool2/3x3_s2_pool2/3x3_s2_0_split_1
I0403 15:34:10.729779 12091 net.cpp:399] pool2/3x3_s2_pool2/3x3_s2_0_split -> pool2/3x3_s2_pool2/3x3_s2_0_split_2
I0403 15:34:10.729797 12091 net.cpp:399] pool2/3x3_s2_pool2/3x3_s2_0_split -> pool2/3x3_s2_pool2/3x3_s2_0_split_3
I0403 15:34:10.729868 12091 net.cpp:141] Setting up pool2/3x3_s2_pool2/3x3_s2_0_split
I0403 15:34:10.729892 12091 net.cpp:148] Top shape: 24 192 28 28 (3612672)
I0403 15:34:10.729918 12091 net.cpp:148] Top shape: 24 192 28 28 (3612672)
I0403 15:34:10.729934 12091 net.cpp:148] Top shape: 24 192 28 28 (3612672)
I0403 15:34:10.729949 12091 net.cpp:148] Top shape: 24 192 28 28 (3612672)
I0403 15:34:10.729964 12091 net.cpp:156] Memory required for data: 491324448
I0403 15:34:10.729977 12091 layer_factory.hpp:77] Creating layer inception_3a/1x1
I0403 15:34:10.730000 12091 net.cpp:91] Creating Layer inception_3a/1x1
I0403 15:34:10.730016 12091 net.cpp:425] inception_3a/1x1 <- pool2/3x3_s2_pool2/3x3_s2_0_split_0
I0403 15:34:10.730036 12091 net.cpp:399] inception_3a/1x1 -> inception_3a/1x1
I0403 15:34:10.731549 12091 net.cpp:141] Setting up inception_3a/1x1
I0403 15:34:10.731580 12091 net.cpp:148] Top shape: 24 64 28 28 (1204224)
I0403 15:34:10.731597 12091 net.cpp:156] Memory required for data: 496141344
I0403 15:34:10.731616 12091 layer_factory.hpp:77] Creating layer inception_3a/relu_1x1
I0403 15:34:10.731634 12091 net.cpp:91] Creating Layer inception_3a/relu_1x1
I0403 15:34:10.731649 12091 net.cpp:425] inception_3a/relu_1x1 <- inception_3a/1x1
I0403 15:34:10.731669 12091 net.cpp:386] inception_3a/relu_1x1 -> inception_3a/1x1 (in-place)
I0403 15:34:10.731847 12091 net.cpp:141] Setting up inception_3a/relu_1x1
I0403 15:34:10.731870 12091 net.cpp:148] Top shape: 24 64 28 28 (1204224)
I0403 15:34:10.731885 12091 net.cpp:156] Memory required for data: 500958240
I0403 15:34:10.731899 12091 layer_factory.hpp:77] Creating layer inception_3a/3x3_reduce
I0403 15:34:10.731921 12091 net.cpp:91] Creating Layer inception_3a/3x3_reduce
I0403 15:34:10.731938 12091 net.cpp:425] inception_3a/3x3_reduce <- pool2/3x3_s2_pool2/3x3_s2_0_split_1
I0403 15:34:10.731959 12091 net.cpp:399] inception_3a/3x3_reduce -> inception_3a/3x3_reduce
I0403 15:34:10.733666 12091 net.cpp:141] Setting up inception_3a/3x3_reduce
I0403 15:34:10.733700 12091 net.cpp:148] Top shape: 24 96 28 28 (1806336)
I0403 15:34:10.733718 12091 net.cpp:156] Memory required for data: 508183584
I0403 15:34:10.733741 12091 layer_factory.hpp:77] Creating layer inception_3a/relu_3x3_reduce
I0403 15:34:10.733782 12091 net.cpp:91] Creating Layer inception_3a/relu_3x3_reduce
I0403 15:34:10.733800 12091 net.cpp:425] inception_3a/relu_3x3_reduce <- inception_3a/3x3_reduce
I0403 15:34:10.733819 12091 net.cpp:386] inception_3a/relu_3x3_reduce -> inception_3a/3x3_reduce (in-place)
I0403 15:34:10.733999 12091 net.cpp:141] Setting up inception_3a/relu_3x3_reduce
I0403 15:34:10.734026 12091 net.cpp:148] Top shape: 24 96 28 28 (1806336)
I0403 15:34:10.734042 12091 net.cpp:156] Memory required for data: 515408928
I0403 15:34:10.734060 12091 layer_factory.hpp:77] Creating layer inception_3a/3x3
I0403 15:34:10.734086 12091 net.cpp:91] Creating Layer inception_3a/3x3
I0403 15:34:10.734104 12091 net.cpp:425] inception_3a/3x3 <- inception_3a/3x3_reduce
I0403 15:34:10.734123 12091 net.cpp:399] inception_3a/3x3 -> inception_3a/3x3
I0403 15:34:10.735770 12091 net.cpp:141] Setting up inception_3a/3x3
I0403 15:34:10.735800 12091 net.cpp:148] Top shape: 24 128 28 28 (2408448)
I0403 15:34:10.735816 12091 net.cpp:156] Memory required for data: 525042720
I0403 15:34:10.735836 12091 layer_factory.hpp:77] Creating layer inception_3a/relu_3x3
I0403 15:34:10.735854 12091 net.cpp:91] Creating Layer inception_3a/relu_3x3
I0403 15:34:10.735870 12091 net.cpp:425] inception_3a/relu_3x3 <- inception_3a/3x3
I0403 15:34:10.735890 12091 net.cpp:386] inception_3a/relu_3x3 -> inception_3a/3x3 (in-place)
I0403 15:34:10.736165 12091 net.cpp:141] Setting up inception_3a/relu_3x3
I0403 15:34:10.736189 12091 net.cpp:148] Top shape: 24 128 28 28 (2408448)
I0403 15:34:10.736204 12091 net.cpp:156] Memory required for data: 534676512
I0403 15:34:10.736219 12091 layer_factory.hpp:77] Creating layer inception_3a/5x5_reduce
I0403 15:34:10.736241 12091 net.cpp:91] Creating Layer inception_3a/5x5_reduce
I0403 15:34:10.736259 12091 net.cpp:425] inception_3a/5x5_reduce <- pool2/3x3_s2_pool2/3x3_s2_0_split_2
I0403 15:34:10.736280 12091 net.cpp:399] inception_3a/5x5_reduce -> inception_3a/5x5_reduce
I0403 15:34:10.737238 12091 net.cpp:141] Setting up inception_3a/5x5_reduce
I0403 15:34:10.737267 12091 net.cpp:148] Top shape: 24 16 28 28 (301056)
I0403 15:34:10.737283 12091 net.cpp:156] Memory required for data: 535880736
I0403 15:34:10.737303 12091 layer_factory.hpp:77] Creating layer inception_3a/relu_5x5_reduce
I0403 15:34:10.737323 12091 net.cpp:91] Creating Layer inception_3a/relu_5x5_reduce
I0403 15:34:10.737339 12091 net.cpp:425] inception_3a/relu_5x5_reduce <- inception_3a/5x5_reduce
I0403 15:34:10.737360 12091 net.cpp:386] inception_3a/relu_5x5_reduce -> inception_3a/5x5_reduce (in-place)
I0403 15:34:10.737663 12091 net.cpp:141] Setting up inception_3a/relu_5x5_reduce
I0403 15:34:10.737689 12091 net.cpp:148] Top shape: 24 16 28 28 (301056)
I0403 15:34:10.737704 12091 net.cpp:156] Memory required for data: 537084960
I0403 15:34:10.737720 12091 layer_factory.hpp:77] Creating layer inception_3a/5x5
I0403 15:34:10.737741 12091 net.cpp:91] Creating Layer inception_3a/5x5
I0403 15:34:10.737758 12091 net.cpp:425] inception_3a/5x5 <- inception_3a/5x5_reduce
I0403 15:34:10.737782 12091 net.cpp:399] inception_3a/5x5 -> inception_3a/5x5
I0403 15:34:10.738781 12091 net.cpp:141] Setting up inception_3a/5x5
I0403 15:34:10.738811 12091 net.cpp:148] Top shape: 24 32 28 28 (602112)
I0403 15:34:10.738827 12091 net.cpp:156] Memory required for data: 539493408
I0403 15:34:10.738847 12091 layer_factory.hpp:77] Creating layer inception_3a/relu_5x5
I0403 15:34:10.738864 12091 net.cpp:91] Creating Layer inception_3a/relu_5x5
I0403 15:34:10.738880 12091 net.cpp:425] inception_3a/relu_5x5 <- inception_3a/5x5
I0403 15:34:10.738900 12091 net.cpp:386] inception_3a/relu_5x5 -> inception_3a/5x5 (in-place)
I0403 15:34:10.739073 12091 net.cpp:141] Setting up inception_3a/relu_5x5
I0403 15:34:10.739099 12091 net.cpp:148] Top shape: 24 32 28 28 (602112)
I0403 15:34:10.739115 12091 net.cpp:156] Memory required for data: 541901856
I0403 15:34:10.739131 12091 layer_factory.hpp:77] Creating layer inception_3a/pool
I0403 15:34:10.739151 12091 net.cpp:91] Creating Layer inception_3a/pool
I0403 15:34:10.739181 12091 net.cpp:425] inception_3a/pool <- pool2/3x3_s2_pool2/3x3_s2_0_split_3
I0403 15:34:10.739199 12091 net.cpp:399] inception_3a/pool -> inception_3a/pool
I0403 15:34:10.739256 12091 net.cpp:141] Setting up inception_3a/pool
I0403 15:34:10.739279 12091 net.cpp:148] Top shape: 24 192 28 28 (3612672)
I0403 15:34:10.739295 12091 net.cpp:156] Memory required for data: 556352544
I0403 15:34:10.739321 12091 layer_factory.hpp:77] Creating layer inception_3a/pool_proj
I0403 15:34:10.739346 12091 net.cpp:91] Creating Layer inception_3a/pool_proj
I0403 15:34:10.739362 12091 net.cpp:425] inception_3a/pool_proj <- inception_3a/pool
I0403 15:34:10.739383 12091 net.cpp:399] inception_3a/pool_proj -> inception_3a/pool_proj
I0403 15:34:10.740339 12091 net.cpp:141] Setting up inception_3a/pool_proj
I0403 15:34:10.740371 12091 net.cpp:148] Top shape: 24 32 28 28 (602112)
I0403 15:34:10.740388 12091 net.cpp:156] Memory required for data: 558760992
I0403 15:34:10.740411 12091 layer_factory.hpp:77] Creating layer inception_3a/relu_pool_proj
I0403 15:34:10.740433 12091 net.cpp:91] Creating Layer inception_3a/relu_pool_proj
I0403 15:34:10.740452 12091 net.cpp:425] inception_3a/relu_pool_proj <- inception_3a/pool_proj
I0403 15:34:10.740469 12091 net.cpp:386] inception_3a/relu_pool_proj -> inception_3a/pool_proj (in-place)
I0403 15:34:10.740746 12091 net.cpp:141] Setting up inception_3a/relu_pool_proj
I0403 15:34:10.740772 12091 net.cpp:148] Top shape: 24 32 28 28 (602112)
I0403 15:34:10.740787 12091 net.cpp:156] Memory required for data: 561169440
I0403 15:34:10.740800 12091 layer_factory.hpp:77] Creating layer inception_3a/output
I0403 15:34:10.740818 12091 net.cpp:91] Creating Layer inception_3a/output
I0403 15:34:10.740833 12091 net.cpp:425] inception_3a/output <- inception_3a/1x1
I0403 15:34:10.740850 12091 net.cpp:425] inception_3a/output <- inception_3a/3x3
I0403 15:34:10.740866 12091 net.cpp:425] inception_3a/output <- inception_3a/5x5
I0403 15:34:10.740882 12091 net.cpp:425] inception_3a/output <- inception_3a/pool_proj
I0403 15:34:10.740901 12091 net.cpp:399] inception_3a/output -> inception_3a/output
I0403 15:34:10.740947 12091 net.cpp:141] Setting up inception_3a/output
I0403 15:34:10.740974 12091 net.cpp:148] Top shape: 24 256 28 28 (4816896)
I0403 15:34:10.740990 12091 net.cpp:156] Memory required for data: 580437024
I0403 15:34:10.741005 12091 layer_factory.hpp:77] Creating layer inception_3a/output_inception_3a/output_0_split
I0403 15:34:10.741022 12091 net.cpp:91] Creating Layer inception_3a/output_inception_3a/output_0_split
I0403 15:34:10.741037 12091 net.cpp:425] inception_3a/output_inception_3a/output_0_split <- inception_3a/output
I0403 15:34:10.741053 12091 net.cpp:399] inception_3a/output_inception_3a/output_0_split -> inception_3a/output_inception_3a/output_0_split_0
I0403 15:34:10.741073 12091 net.cpp:399] inception_3a/output_inception_3a/output_0_split -> inception_3a/output_inception_3a/output_0_split_1
I0403 15:34:10.741098 12091 net.cpp:399] inception_3a/output_inception_3a/output_0_split -> inception_3a/output_inception_3a/output_0_split_2
I0403 15:34:10.741119 12091 net.cpp:399] inception_3a/output_inception_3a/output_0_split -> inception_3a/output_inception_3a/output_0_split_3
I0403 15:34:10.741192 12091 net.cpp:141] Setting up inception_3a/output_inception_3a/output_0_split
I0403 15:34:10.741217 12091 net.cpp:148] Top shape: 24 256 28 28 (4816896)
I0403 15:34:10.741235 12091 net.cpp:148] Top shape: 24 256 28 28 (4816896)
I0403 15:34:10.741250 12091 net.cpp:148] Top shape: 24 256 28 28 (4816896)
I0403 15:34:10.741266 12091 net.cpp:148] Top shape: 24 256 28 28 (4816896)
I0403 15:34:10.741281 12091 net.cpp:156] Memory required for data: 657507360
I0403 15:34:10.741296 12091 layer_factory.hpp:77] Creating layer inception_3b/1x1
I0403 15:34:10.741320 12091 net.cpp:91] Creating Layer inception_3b/1x1
I0403 15:34:10.741338 12091 net.cpp:425] inception_3b/1x1 <- inception_3a/output_inception_3a/output_0_split_0
I0403 15:34:10.741358 12091 net.cpp:399] inception_3b/1x1 -> inception_3b/1x1
I0403 15:34:10.742489 12091 net.cpp:141] Setting up inception_3b/1x1
I0403 15:34:10.742532 12091 net.cpp:148] Top shape: 24 128 28 28 (2408448)
I0403 15:34:10.742549 12091 net.cpp:156] Memory required for data: 667141152
I0403 15:34:10.742569 12091 layer_factory.hpp:77] Creating layer inception_3b/relu_1x1
I0403 15:34:10.742586 12091 net.cpp:91] Creating Layer inception_3b/relu_1x1
I0403 15:34:10.742602 12091 net.cpp:425] inception_3b/relu_1x1 <- inception_3b/1x1
I0403 15:34:10.742621 12091 net.cpp:386] inception_3b/relu_1x1 -> inception_3b/1x1 (in-place)
I0403 15:34:10.742796 12091 net.cpp:141] Setting up inception_3b/relu_1x1
I0403 15:34:10.742820 12091 net.cpp:148] Top shape: 24 128 28 28 (2408448)
I0403 15:34:10.742835 12091 net.cpp:156] Memory required for data: 676774944
I0403 15:34:10.742851 12091 layer_factory.hpp:77] Creating layer inception_3b/3x3_reduce
I0403 15:34:10.742872 12091 net.cpp:91] Creating Layer inception_3b/3x3_reduce
I0403 15:34:10.742889 12091 net.cpp:425] inception_3b/3x3_reduce <- inception_3a/output_inception_3a/output_0_split_1
I0403 15:34:10.742910 12091 net.cpp:399] inception_3b/3x3_reduce -> inception_3b/3x3_reduce
I0403 15:34:10.744045 12091 net.cpp:141] Setting up inception_3b/3x3_reduce
I0403 15:34:10.744077 12091 net.cpp:148] Top shape: 24 128 28 28 (2408448)
I0403 15:34:10.744096 12091 net.cpp:156] Memory required for data: 686408736
I0403 15:34:10.744114 12091 layer_factory.hpp:77] Creating layer inception_3b/relu_3x3_reduce
I0403 15:34:10.744134 12091 net.cpp:91] Creating Layer inception_3b/relu_3x3_reduce
I0403 15:34:10.744151 12091 net.cpp:425] inception_3b/relu_3x3_reduce <- inception_3b/3x3_reduce
I0403 15:34:10.744168 12091 net.cpp:386] inception_3b/relu_3x3_reduce -> inception_3b/3x3_reduce (in-place)
I0403 15:34:10.744348 12091 net.cpp:141] Setting up inception_3b/relu_3x3_reduce
I0403 15:34:10.744374 12091 net.cpp:148] Top shape: 24 128 28 28 (2408448)
I0403 15:34:10.744390 12091 net.cpp:156] Memory required for data: 696042528
I0403 15:34:10.744405 12091 layer_factory.hpp:77] Creating layer inception_3b/3x3
I0403 15:34:10.744432 12091 net.cpp:91] Creating Layer inception_3b/3x3
I0403 15:34:10.744451 12091 net.cpp:425] inception_3b/3x3 <- inception_3b/3x3_reduce
I0403 15:34:10.744473 12091 net.cpp:399] inception_3b/3x3 -> inception_3b/3x3
I0403 15:34:10.747354 12091 net.cpp:141] Setting up inception_3b/3x3
I0403 15:34:10.747383 12091 net.cpp:148] Top shape: 24 192 28 28 (3612672)
I0403 15:34:10.747400 12091 net.cpp:156] Memory required for data: 710493216
I0403 15:34:10.747418 12091 layer_factory.hpp:77] Creating layer inception_3b/relu_3x3
I0403 15:34:10.747437 12091 net.cpp:91] Creating Layer inception_3b/relu_3x3
I0403 15:34:10.747454 12091 net.cpp:425] inception_3b/relu_3x3 <- inception_3b/3x3
I0403 15:34:10.747473 12091 net.cpp:386] inception_3b/relu_3x3 -> inception_3b/3x3 (in-place)
I0403 15:34:10.747752 12091 net.cpp:141] Setting up inception_3b/relu_3x3
I0403 15:34:10.747778 12091 net.cpp:148] Top shape: 24 192 28 28 (3612672)
I0403 15:34:10.747793 12091 net.cpp:156] Memory required for data: 724943904
I0403 15:34:10.747808 12091 layer_factory.hpp:77] Creating layer inception_3b/5x5_reduce
I0403 15:34:10.747830 12091 net.cpp:91] Creating Layer inception_3b/5x5_reduce
I0403 15:34:10.747848 12091 net.cpp:425] inception_3b/5x5_reduce <- inception_3a/output_inception_3a/output_0_split_2
I0403 15:34:10.747869 12091 net.cpp:399] inception_3b/5x5_reduce -> inception_3b/5x5_reduce
I0403 15:34:10.748929 12091 net.cpp:141] Setting up inception_3b/5x5_reduce
I0403 15:34:10.748956 12091 net.cpp:148] Top shape: 24 32 28 28 (602112)
I0403 15:34:10.748971 12091 net.cpp:156] Memory required for data: 727352352
I0403 15:34:10.748989 12091 layer_factory.hpp:77] Creating layer inception_3b/relu_5x5_reduce
I0403 15:34:10.749007 12091 net.cpp:91] Creating Layer inception_3b/relu_5x5_reduce
I0403 15:34:10.749022 12091 net.cpp:425] inception_3b/relu_5x5_reduce <- inception_3b/5x5_reduce
I0403 15:34:10.749042 12091 net.cpp:386] inception_3b/relu_5x5_reduce -> inception_3b/5x5_reduce (in-place)
I0403 15:34:10.749236 12091 net.cpp:141] Setting up inception_3b/relu_5x5_reduce
I0403 15:34:10.749261 12091 net.cpp:148] Top shape: 24 32 28 28 (602112)
I0403 15:34:10.749276 12091 net.cpp:156] Memory required for data: 729760800
I0403 15:34:10.749291 12091 layer_factory.hpp:77] Creating layer inception_3b/5x5
I0403 15:34:10.749315 12091 net.cpp:91] Creating Layer inception_3b/5x5
I0403 15:34:10.749348 12091 net.cpp:425] inception_3b/5x5 <- inception_3b/5x5_reduce
I0403 15:34:10.749371 12091 net.cpp:399] inception_3b/5x5 -> inception_3b/5x5
I0403 15:34:10.751427 12091 net.cpp:141] Setting up inception_3b/5x5
I0403 15:34:10.751459 12091 net.cpp:148] Top shape: 24 96 28 28 (1806336)
I0403 15:34:10.751477 12091 net.cpp:156] Memory required for data: 736986144
I0403 15:34:10.751497 12091 layer_factory.hpp:77] Creating layer inception_3b/relu_5x5
I0403 15:34:10.751513 12091 net.cpp:91] Creating Layer inception_3b/relu_5x5
I0403 15:34:10.751529 12091 net.cpp:425] inception_3b/relu_5x5 <- inception_3b/5x5
I0403 15:34:10.751548 12091 net.cpp:386] inception_3b/relu_5x5 -> inception_3b/5x5 (in-place)
I0403 15:34:10.751744 12091 net.cpp:141] Setting up inception_3b/relu_5x5
I0403 15:34:10.751770 12091 net.cpp:148] Top shape: 24 96 28 28 (1806336)
I0403 15:34:10.751785 12091 net.cpp:156] Memory required for data: 744211488
I0403 15:34:10.751799 12091 layer_factory.hpp:77] Creating layer inception_3b/pool
I0403 15:34:10.751816 12091 net.cpp:91] Creating Layer inception_3b/pool
I0403 15:34:10.751832 12091 net.cpp:425] inception_3b/pool <- inception_3a/output_inception_3a/output_0_split_3
I0403 15:34:10.751850 12091 net.cpp:399] inception_3b/pool -> inception_3b/pool
I0403 15:34:10.751906 12091 net.cpp:141] Setting up inception_3b/pool
I0403 15:34:10.751932 12091 net.cpp:148] Top shape: 24 256 28 28 (4816896)
I0403 15:34:10.751946 12091 net.cpp:156] Memory required for data: 763479072
I0403 15:34:10.751960 12091 layer_factory.hpp:77] Creating layer inception_3b/pool_proj
I0403 15:34:10.751982 12091 net.cpp:91] Creating Layer inception_3b/pool_proj
I0403 15:34:10.752001 12091 net.cpp:425] inception_3b/pool_proj <- inception_3b/pool
I0403 15:34:10.752018 12091 net.cpp:399] inception_3b/pool_proj -> inception_3b/pool_proj
I0403 15:34:10.753077 12091 net.cpp:141] Setting up inception_3b/pool_proj
I0403 15:34:10.753105 12091 net.cpp:148] Top shape: 24 64 28 28 (1204224)
I0403 15:34:10.753121 12091 net.cpp:156] Memory required for data: 768295968
I0403 15:34:10.753139 12091 layer_factory.hpp:77] Creating layer inception_3b/relu_pool_proj
I0403 15:34:10.753159 12091 net.cpp:91] Creating Layer inception_3b/relu_pool_proj
I0403 15:34:10.753175 12091 net.cpp:425] inception_3b/relu_pool_proj <- inception_3b/pool_proj
I0403 15:34:10.753192 12091 net.cpp:386] inception_3b/relu_pool_proj -> inception_3b/pool_proj (in-place)
I0403 15:34:10.753603 12091 net.cpp:141] Setting up inception_3b/relu_pool_proj
I0403 15:34:10.753629 12091 net.cpp:148] Top shape: 24 64 28 28 (1204224)
I0403 15:34:10.753644 12091 net.cpp:156] Memory required for data: 773112864
I0403 15:34:10.753659 12091 layer_factory.hpp:77] Creating layer inception_3b/output
I0403 15:34:10.753677 12091 net.cpp:91] Creating Layer inception_3b/output
I0403 15:34:10.753692 12091 net.cpp:425] inception_3b/output <- inception_3b/1x1
I0403 15:34:10.753710 12091 net.cpp:425] inception_3b/output <- inception_3b/3x3
I0403 15:34:10.753726 12091 net.cpp:425] inception_3b/output <- inception_3b/5x5
I0403 15:34:10.753741 12091 net.cpp:425] inception_3b/output <- inception_3b/pool_proj
I0403 15:34:10.753761 12091 net.cpp:399] inception_3b/output -> inception_3b/output
I0403 15:34:10.753805 12091 net.cpp:141] Setting up inception_3b/output
I0403 15:34:10.753829 12091 net.cpp:148] Top shape: 24 480 28 28 (9031680)
I0403 15:34:10.753842 12091 net.cpp:156] Memory required for data: 809239584
I0403 15:34:10.753857 12091 layer_factory.hpp:77] Creating layer pool3/3x3_s2
I0403 15:34:10.753875 12091 net.cpp:91] Creating Layer pool3/3x3_s2
I0403 15:34:10.753890 12091 net.cpp:425] pool3/3x3_s2 <- inception_3b/output
I0403 15:34:10.753926 12091 net.cpp:399] pool3/3x3_s2 -> pool3/3x3_s2
I0403 15:34:10.753983 12091 net.cpp:141] Setting up pool3/3x3_s2
I0403 15:34:10.754005 12091 net.cpp:148] Top shape: 24 480 14 14 (2257920)
I0403 15:34:10.754020 12091 net.cpp:156] Memory required for data: 818271264
I0403 15:34:10.754034 12091 layer_factory.hpp:77] Creating layer pool3/3x3_s2_pool3/3x3_s2_0_split
I0403 15:34:10.754053 12091 net.cpp:91] Creating Layer pool3/3x3_s2_pool3/3x3_s2_0_split
I0403 15:34:10.754070 12091 net.cpp:425] pool3/3x3_s2_pool3/3x3_s2_0_split <- pool3/3x3_s2
I0403 15:34:10.754086 12091 net.cpp:399] pool3/3x3_s2_pool3/3x3_s2_0_split -> pool3/3x3_s2_pool3/3x3_s2_0_split_0
I0403 15:34:10.754106 12091 net.cpp:399] pool3/3x3_s2_pool3/3x3_s2_0_split -> pool3/3x3_s2_pool3/3x3_s2_0_split_1
I0403 15:34:10.754128 12091 net.cpp:399] pool3/3x3_s2_pool3/3x3_s2_0_split -> pool3/3x3_s2_pool3/3x3_s2_0_split_2
I0403 15:34:10.754148 12091 net.cpp:399] pool3/3x3_s2_pool3/3x3_s2_0_split -> pool3/3x3_s2_pool3/3x3_s2_0_split_3
I0403 15:34:10.754220 12091 net.cpp:141] Setting up pool3/3x3_s2_pool3/3x3_s2_0_split
I0403 15:34:10.754243 12091 net.cpp:148] Top shape: 24 480 14 14 (2257920)
I0403 15:34:10.754259 12091 net.cpp:148] Top shape: 24 480 14 14 (2257920)
I0403 15:34:10.754274 12091 net.cpp:148] Top shape: 24 480 14 14 (2257920)
I0403 15:34:10.754290 12091 net.cpp:148] Top shape: 24 480 14 14 (2257920)
I0403 15:34:10.754303 12091 net.cpp:156] Memory required for data: 854397984
I0403 15:34:10.754323 12091 layer_factory.hpp:77] Creating layer inception_4a/1x1
I0403 15:34:10.754345 12091 net.cpp:91] Creating Layer inception_4a/1x1
I0403 15:34:10.754361 12091 net.cpp:425] inception_4a/1x1 <- pool3/3x3_s2_pool3/3x3_s2_0_split_0
I0403 15:34:10.754382 12091 net.cpp:399] inception_4a/1x1 -> inception_4a/1x1
I0403 15:34:10.755939 12091 net.cpp:141] Setting up inception_4a/1x1
I0403 15:34:10.755967 12091 net.cpp:148] Top shape: 24 192 14 14 (903168)
I0403 15:34:10.755985 12091 net.cpp:156] Memory required for data: 858010656
I0403 15:34:10.756003 12091 layer_factory.hpp:77] Creating layer inception_4a/relu_1x1
I0403 15:34:10.756023 12091 net.cpp:91] Creating Layer inception_4a/relu_1x1
I0403 15:34:10.756041 12091 net.cpp:425] inception_4a/relu_1x1 <- inception_4a/1x1
I0403 15:34:10.756057 12091 net.cpp:386] inception_4a/relu_1x1 -> inception_4a/1x1 (in-place)
I0403 15:34:10.756235 12091 net.cpp:141] Setting up inception_4a/relu_1x1
I0403 15:34:10.756263 12091 net.cpp:148] Top shape: 24 192 14 14 (903168)
I0403 15:34:10.756278 12091 net.cpp:156] Memory required for data: 861623328
I0403 15:34:10.756292 12091 layer_factory.hpp:77] Creating layer inception_4a/3x3_reduce
I0403 15:34:10.756314 12091 net.cpp:91] Creating Layer inception_4a/3x3_reduce
I0403 15:34:10.756335 12091 net.cpp:425] inception_4a/3x3_reduce <- pool3/3x3_s2_pool3/3x3_s2_0_split_1
I0403 15:34:10.756356 12091 net.cpp:399] inception_4a/3x3_reduce -> inception_4a/3x3_reduce
I0403 15:34:10.757616 12091 net.cpp:141] Setting up inception_4a/3x3_reduce
I0403 15:34:10.757644 12091 net.cpp:148] Top shape: 24 96 14 14 (451584)
I0403 15:34:10.757660 12091 net.cpp:156] Memory required for data: 863429664
I0403 15:34:10.757685 12091 layer_factory.hpp:77] Creating layer inception_4a/relu_3x3_reduce
I0403 15:34:10.757707 12091 net.cpp:91] Creating Layer inception_4a/relu_3x3_reduce
I0403 15:34:10.757724 12091 net.cpp:425] inception_4a/relu_3x3_reduce <- inception_4a/3x3_reduce
I0403 15:34:10.757740 12091 net.cpp:386] inception_4a/relu_3x3_reduce -> inception_4a/3x3_reduce (in-place)
I0403 15:34:10.757910 12091 net.cpp:141] Setting up inception_4a/relu_3x3_reduce
I0403 15:34:10.757935 12091 net.cpp:148] Top shape: 24 96 14 14 (451584)
I0403 15:34:10.757948 12091 net.cpp:156] Memory required for data: 865236000
I0403 15:34:10.757963 12091 layer_factory.hpp:77] Creating layer inception_4a/3x3
I0403 15:34:10.757985 12091 net.cpp:91] Creating Layer inception_4a/3x3
I0403 15:34:10.758002 12091 net.cpp:425] inception_4a/3x3 <- inception_4a/3x3_reduce
I0403 15:34:10.758020 12091 net.cpp:399] inception_4a/3x3 -> inception_4a/3x3
I0403 15:34:10.760618 12091 net.cpp:141] Setting up inception_4a/3x3
I0403 15:34:10.760648 12091 net.cpp:148] Top shape: 24 208 14 14 (978432)
I0403 15:34:10.760665 12091 net.cpp:156] Memory required for data: 869149728
I0403 15:34:10.760691 12091 layer_factory.hpp:77] Creating layer inception_4a/relu_3x3
I0403 15:34:10.760710 12091 net.cpp:91] Creating Layer inception_4a/relu_3x3
I0403 15:34:10.760749 12091 net.cpp:425] inception_4a/relu_3x3 <- inception_4a/3x3
I0403 15:34:10.760772 12091 net.cpp:386] inception_4a/relu_3x3 -> inception_4a/3x3 (in-place)
I0403 15:34:10.761062 12091 net.cpp:141] Setting up inception_4a/relu_3x3
I0403 15:34:10.761090 12091 net.cpp:148] Top shape: 24 208 14 14 (978432)
I0403 15:34:10.761104 12091 net.cpp:156] Memory required for data: 873063456
I0403 15:34:10.761119 12091 layer_factory.hpp:77] Creating layer inception_4a/5x5_reduce
I0403 15:34:10.761140 12091 net.cpp:91] Creating Layer inception_4a/5x5_reduce
I0403 15:34:10.761157 12091 net.cpp:425] inception_4a/5x5_reduce <- pool3/3x3_s2_pool3/3x3_s2_0_split_2
I0403 15:34:10.761176 12091 net.cpp:399] inception_4a/5x5_reduce -> inception_4a/5x5_reduce
I0403 15:34:10.762194 12091 net.cpp:141] Setting up inception_4a/5x5_reduce
I0403 15:34:10.762223 12091 net.cpp:148] Top shape: 24 16 14 14 (75264)
I0403 15:34:10.762238 12091 net.cpp:156] Memory required for data: 873364512
I0403 15:34:10.762255 12091 layer_factory.hpp:77] Creating layer inception_4a/relu_5x5_reduce
I0403 15:34:10.762274 12091 net.cpp:91] Creating Layer inception_4a/relu_5x5_reduce
I0403 15:34:10.762289 12091 net.cpp:425] inception_4a/relu_5x5_reduce <- inception_4a/5x5_reduce
I0403 15:34:10.762323 12091 net.cpp:386] inception_4a/relu_5x5_reduce -> inception_4a/5x5_reduce (in-place)
I0403 15:34:10.762503 12091 net.cpp:141] Setting up inception_4a/relu_5x5_reduce
I0403 15:34:10.762527 12091 net.cpp:148] Top shape: 24 16 14 14 (75264)
I0403 15:34:10.762542 12091 net.cpp:156] Memory required for data: 873665568
I0403 15:34:10.762557 12091 layer_factory.hpp:77] Creating layer inception_4a/5x5
I0403 15:34:10.762578 12091 net.cpp:91] Creating Layer inception_4a/5x5
I0403 15:34:10.762608 12091 net.cpp:425] inception_4a/5x5 <- inception_4a/5x5_reduce
I0403 15:34:10.762627 12091 net.cpp:399] inception_4a/5x5 -> inception_4a/5x5
I0403 15:34:10.763685 12091 net.cpp:141] Setting up inception_4a/5x5
I0403 15:34:10.763712 12091 net.cpp:148] Top shape: 24 48 14 14 (225792)
I0403 15:34:10.763727 12091 net.cpp:156] Memory required for data: 874568736
I0403 15:34:10.763746 12091 layer_factory.hpp:77] Creating layer inception_4a/relu_5x5
I0403 15:34:10.763766 12091 net.cpp:91] Creating Layer inception_4a/relu_5x5
I0403 15:34:10.763782 12091 net.cpp:425] inception_4a/relu_5x5 <- inception_4a/5x5
I0403 15:34:10.763798 12091 net.cpp:386] inception_4a/relu_5x5 -> inception_4a/5x5 (in-place)
I0403 15:34:10.763970 12091 net.cpp:141] Setting up inception_4a/relu_5x5
I0403 15:34:10.763996 12091 net.cpp:148] Top shape: 24 48 14 14 (225792)
I0403 15:34:10.764010 12091 net.cpp:156] Memory required for data: 875471904
I0403 15:34:10.764025 12091 layer_factory.hpp:77] Creating layer inception_4a/pool
I0403 15:34:10.764044 12091 net.cpp:91] Creating Layer inception_4a/pool
I0403 15:34:10.764058 12091 net.cpp:425] inception_4a/pool <- pool3/3x3_s2_pool3/3x3_s2_0_split_3
I0403 15:34:10.764075 12091 net.cpp:399] inception_4a/pool -> inception_4a/pool
I0403 15:34:10.764134 12091 net.cpp:141] Setting up inception_4a/pool
I0403 15:34:10.764156 12091 net.cpp:148] Top shape: 24 480 14 14 (2257920)
I0403 15:34:10.764170 12091 net.cpp:156] Memory required for data: 884503584
I0403 15:34:10.764184 12091 layer_factory.hpp:77] Creating layer inception_4a/pool_proj
I0403 15:34:10.764205 12091 net.cpp:91] Creating Layer inception_4a/pool_proj
I0403 15:34:10.764221 12091 net.cpp:425] inception_4a/pool_proj <- inception_4a/pool
I0403 15:34:10.764241 12091 net.cpp:399] inception_4a/pool_proj -> inception_4a/pool_proj
I0403 15:34:10.765414 12091 net.cpp:141] Setting up inception_4a/pool_proj
I0403 15:34:10.765442 12091 net.cpp:148] Top shape: 24 64 14 14 (301056)
I0403 15:34:10.765472 12091 net.cpp:156] Memory required for data: 885707808
I0403 15:34:10.765492 12091 layer_factory.hpp:77] Creating layer inception_4a/relu_pool_proj
I0403 15:34:10.765514 12091 net.cpp:91] Creating Layer inception_4a/relu_pool_proj
I0403 15:34:10.765532 12091 net.cpp:425] inception_4a/relu_pool_proj <- inception_4a/pool_proj
I0403 15:34:10.765549 12091 net.cpp:386] inception_4a/relu_pool_proj -> inception_4a/pool_proj (in-place)
I0403 15:34:10.765820 12091 net.cpp:141] Setting up inception_4a/relu_pool_proj
I0403 15:34:10.765846 12091 net.cpp:148] Top shape: 24 64 14 14 (301056)
I0403 15:34:10.765859 12091 net.cpp:156] Memory required for data: 886912032
I0403 15:34:10.765874 12091 layer_factory.hpp:77] Creating layer inception_4a/output
I0403 15:34:10.765893 12091 net.cpp:91] Creating Layer inception_4a/output
I0403 15:34:10.765909 12091 net.cpp:425] inception_4a/output <- inception_4a/1x1
I0403 15:34:10.765925 12091 net.cpp:425] inception_4a/output <- inception_4a/3x3
I0403 15:34:10.765941 12091 net.cpp:425] inception_4a/output <- inception_4a/5x5
I0403 15:34:10.765956 12091 net.cpp:425] inception_4a/output <- inception_4a/pool_proj
I0403 15:34:10.765972 12091 net.cpp:399] inception_4a/output -> inception_4a/output
I0403 15:34:10.766016 12091 net.cpp:141] Setting up inception_4a/output
I0403 15:34:10.766038 12091 net.cpp:148] Top shape: 24 512 14 14 (2408448)
I0403 15:34:10.766052 12091 net.cpp:156] Memory required for data: 896545824
I0403 15:34:10.766067 12091 layer_factory.hpp:77] Creating layer inception_4a/output_inception_4a/output_0_split
I0403 15:34:10.766084 12091 net.cpp:91] Creating Layer inception_4a/output_inception_4a/output_0_split
I0403 15:34:10.766099 12091 net.cpp:425] inception_4a/output_inception_4a/output_0_split <- inception_4a/output
I0403 15:34:10.766119 12091 net.cpp:399] inception_4a/output_inception_4a/output_0_split -> inception_4a/output_inception_4a/output_0_split_0
I0403 15:34:10.766139 12091 net.cpp:399] inception_4a/output_inception_4a/output_0_split -> inception_4a/output_inception_4a/output_0_split_1
I0403 15:34:10.766160 12091 net.cpp:399] inception_4a/output_inception_4a/output_0_split -> inception_4a/output_inception_4a/output_0_split_2
I0403 15:34:10.766178 12091 net.cpp:399] inception_4a/output_inception_4a/output_0_split -> inception_4a/output_inception_4a/output_0_split_3
I0403 15:34:10.766197 12091 net.cpp:399] inception_4a/output_inception_4a/output_0_split -> inception_4a/output_inception_4a/output_0_split_4
I0403 15:34:10.766289 12091 net.cpp:141] Setting up inception_4a/output_inception_4a/output_0_split
I0403 15:34:10.766312 12091 net.cpp:148] Top shape: 24 512 14 14 (2408448)
I0403 15:34:10.766332 12091 net.cpp:148] Top shape: 24 512 14 14 (2408448)
I0403 15:34:10.766348 12091 net.cpp:148] Top shape: 24 512 14 14 (2408448)
I0403 15:34:10.766363 12091 net.cpp:148] Top shape: 24 512 14 14 (2408448)
I0403 15:34:10.766378 12091 net.cpp:148] Top shape: 24 512 14 14 (2408448)
I0403 15:34:10.766391 12091 net.cpp:156] Memory required for data: 944714784
I0403 15:34:10.766405 12091 layer_factory.hpp:77] Creating layer loss1/ave_pool
I0403 15:34:10.766422 12091 net.cpp:91] Creating Layer loss1/ave_pool
I0403 15:34:10.766438 12091 net.cpp:425] loss1/ave_pool <- inception_4a/output_inception_4a/output_0_split_0
I0403 15:34:10.766456 12091 net.cpp:399] loss1/ave_pool -> loss1/ave_pool
I0403 15:34:10.766657 12091 net.cpp:141] Setting up loss1/ave_pool
I0403 15:34:10.766682 12091 net.cpp:148] Top shape: 24 512 4 4 (196608)
I0403 15:34:10.766696 12091 net.cpp:156] Memory required for data: 945501216
I0403 15:34:10.766711 12091 layer_factory.hpp:77] Creating layer loss1/conv
I0403 15:34:10.766732 12091 net.cpp:91] Creating Layer loss1/conv
I0403 15:34:10.766749 12091 net.cpp:425] loss1/conv <- loss1/ave_pool
I0403 15:34:10.766769 12091 net.cpp:399] loss1/conv -> loss1/conv
I0403 15:34:10.768138 12091 net.cpp:141] Setting up loss1/conv
I0403 15:34:10.768168 12091 net.cpp:148] Top shape: 24 128 4 4 (49152)
I0403 15:34:10.768199 12091 net.cpp:156] Memory required for data: 945697824
I0403 15:34:10.768218 12091 layer_factory.hpp:77] Creating layer loss1/relu_conv
I0403 15:34:10.768236 12091 net.cpp:91] Creating Layer loss1/relu_conv
I0403 15:34:10.768252 12091 net.cpp:425] loss1/relu_conv <- loss1/conv
I0403 15:34:10.768271 12091 net.cpp:386] loss1/relu_conv -> loss1/conv (in-place)
I0403 15:34:10.768548 12091 net.cpp:141] Setting up loss1/relu_conv
I0403 15:34:10.768578 12091 net.cpp:148] Top shape: 24 128 4 4 (49152)
I0403 15:34:10.768592 12091 net.cpp:156] Memory required for data: 945894432
I0403 15:34:10.768607 12091 layer_factory.hpp:77] Creating layer loss1/fc
I0403 15:34:10.768630 12091 net.cpp:91] Creating Layer loss1/fc
I0403 15:34:10.768647 12091 net.cpp:425] loss1/fc <- loss1/conv
I0403 15:34:10.768667 12091 net.cpp:399] loss1/fc -> loss1/fc
I0403 15:34:10.785982 12091 net.cpp:141] Setting up loss1/fc
I0403 15:34:10.786017 12091 net.cpp:148] Top shape: 24 1024 (24576)
I0403 15:34:10.786034 12091 net.cpp:156] Memory required for data: 945992736
I0403 15:34:10.786052 12091 layer_factory.hpp:77] Creating layer loss1/relu_fc
I0403 15:34:10.786070 12091 net.cpp:91] Creating Layer loss1/relu_fc
I0403 15:34:10.786087 12091 net.cpp:425] loss1/relu_fc <- loss1/fc
I0403 15:34:10.786104 12091 net.cpp:386] loss1/relu_fc -> loss1/fc (in-place)
I0403 15:34:10.786284 12091 net.cpp:141] Setting up loss1/relu_fc
I0403 15:34:10.786312 12091 net.cpp:148] Top shape: 24 1024 (24576)
I0403 15:34:10.786332 12091 net.cpp:156] Memory required for data: 946091040
I0403 15:34:10.786348 12091 layer_factory.hpp:77] Creating layer loss1/drop_fc
I0403 15:34:10.786375 12091 net.cpp:91] Creating Layer loss1/drop_fc
I0403 15:34:10.786392 12091 net.cpp:425] loss1/drop_fc <- loss1/fc
I0403 15:34:10.786411 12091 net.cpp:386] loss1/drop_fc -> loss1/fc (in-place)
I0403 15:34:10.786461 12091 net.cpp:141] Setting up loss1/drop_fc
I0403 15:34:10.786484 12091 net.cpp:148] Top shape: 24 1024 (24576)
I0403 15:34:10.786497 12091 net.cpp:156] Memory required for data: 946189344
I0403 15:34:10.786511 12091 layer_factory.hpp:77] Creating layer loss1/classifier_plantvillage
I0403 15:34:10.786533 12091 net.cpp:91] Creating Layer loss1/classifier_plantvillage
I0403 15:34:10.786550 12091 net.cpp:425] loss1/classifier_plantvillage <- loss1/fc
I0403 15:34:10.786567 12091 net.cpp:399] loss1/classifier_plantvillage -> loss1/classifier_plantvillage
I0403 15:34:10.787444 12091 net.cpp:141] Setting up loss1/classifier_plantvillage
I0403 15:34:10.787472 12091 net.cpp:148] Top shape: 24 38 (912)
I0403 15:34:10.787489 12091 net.cpp:156] Memory required for data: 946192992
I0403 15:34:10.787506 12091 layer_factory.hpp:77] Creating layer loss1/classifier_plantvillage_loss1/classifier_plantvillage_0_split
I0403 15:34:10.787524 12091 net.cpp:91] Creating Layer loss1/classifier_plantvillage_loss1/classifier_plantvillage_0_split
I0403 15:34:10.787539 12091 net.cpp:425] loss1/classifier_plantvillage_loss1/classifier_plantvillage_0_split <- loss1/classifier_plantvillage
I0403 15:34:10.787556 12091 net.cpp:399] loss1/classifier_plantvillage_loss1/classifier_plantvillage_0_split -> loss1/classifier_plantvillage_loss1/classifier_plantvillage_0_split_0
I0403 15:34:10.787576 12091 net.cpp:399] loss1/classifier_plantvillage_loss1/classifier_plantvillage_0_split -> loss1/classifier_plantvillage_loss1/classifier_plantvillage_0_split_1
I0403 15:34:10.787597 12091 net.cpp:399] loss1/classifier_plantvillage_loss1/classifier_plantvillage_0_split -> loss1/classifier_plantvillage_loss1/classifier_plantvillage_0_split_2
I0403 15:34:10.787660 12091 net.cpp:141] Setting up loss1/classifier_plantvillage_loss1/classifier_plantvillage_0_split
I0403 15:34:10.787683 12091 net.cpp:148] Top shape: 24 38 (912)
I0403 15:34:10.787698 12091 net.cpp:148] Top shape: 24 38 (912)
I0403 15:34:10.787714 12091 net.cpp:148] Top shape: 24 38 (912)
I0403 15:34:10.787726 12091 net.cpp:156] Memory required for data: 946203936
I0403 15:34:10.787740 12091 layer_factory.hpp:77] Creating layer inception_4b/1x1
I0403 15:34:10.787760 12091 net.cpp:91] Creating Layer inception_4b/1x1
I0403 15:34:10.787792 12091 net.cpp:425] inception_4b/1x1 <- inception_4a/output_inception_4a/output_0_split_1
I0403 15:34:10.787814 12091 net.cpp:399] inception_4b/1x1 -> inception_4b/1x1
I0403 15:34:10.789400 12091 net.cpp:141] Setting up inception_4b/1x1
I0403 15:34:10.789429 12091 net.cpp:148] Top shape: 24 160 14 14 (752640)
I0403 15:34:10.789445 12091 net.cpp:156] Memory required for data: 949214496
I0403 15:34:10.789463 12091 layer_factory.hpp:77] Creating layer inception_4b/relu_1x1
I0403 15:34:10.789480 12091 net.cpp:91] Creating Layer inception_4b/relu_1x1
I0403 15:34:10.789496 12091 net.cpp:425] inception_4b/relu_1x1 <- inception_4b/1x1
I0403 15:34:10.789515 12091 net.cpp:386] inception_4b/relu_1x1 -> inception_4b/1x1 (in-place)
I0403 15:34:10.789695 12091 net.cpp:141] Setting up inception_4b/relu_1x1
I0403 15:34:10.789717 12091 net.cpp:148] Top shape: 24 160 14 14 (752640)
I0403 15:34:10.789731 12091 net.cpp:156] Memory required for data: 952225056
I0403 15:34:10.789746 12091 layer_factory.hpp:77] Creating layer inception_4b/3x3_reduce
I0403 15:34:10.789767 12091 net.cpp:91] Creating Layer inception_4b/3x3_reduce
I0403 15:34:10.789784 12091 net.cpp:425] inception_4b/3x3_reduce <- inception_4a/output_inception_4a/output_0_split_2
I0403 15:34:10.789806 12091 net.cpp:399] inception_4b/3x3_reduce -> inception_4b/3x3_reduce
I0403 15:34:10.791151 12091 net.cpp:141] Setting up inception_4b/3x3_reduce
I0403 15:34:10.791178 12091 net.cpp:148] Top shape: 24 112 14 14 (526848)
I0403 15:34:10.791194 12091 net.cpp:156] Memory required for data: 954332448
I0403 15:34:10.791213 12091 layer_factory.hpp:77] Creating layer inception_4b/relu_3x3_reduce
I0403 15:34:10.791234 12091 net.cpp:91] Creating Layer inception_4b/relu_3x3_reduce
I0403 15:34:10.791251 12091 net.cpp:425] inception_4b/relu_3x3_reduce <- inception_4b/3x3_reduce
I0403 15:34:10.791270 12091 net.cpp:386] inception_4b/relu_3x3_reduce -> inception_4b/3x3_reduce (in-place)
I0403 15:34:10.791549 12091 net.cpp:141] Setting up inception_4b/relu_3x3_reduce
I0403 15:34:10.791576 12091 net.cpp:148] Top shape: 24 112 14 14 (526848)
I0403 15:34:10.791590 12091 net.cpp:156] Memory required for data: 956439840
I0403 15:34:10.791605 12091 layer_factory.hpp:77] Creating layer inception_4b/3x3
I0403 15:34:10.791627 12091 net.cpp:91] Creating Layer inception_4b/3x3
I0403 15:34:10.791645 12091 net.cpp:425] inception_4b/3x3 <- inception_4b/3x3_reduce
I0403 15:34:10.791664 12091 net.cpp:399] inception_4b/3x3 -> inception_4b/3x3
I0403 15:34:10.794581 12091 net.cpp:141] Setting up inception_4b/3x3
I0403 15:34:10.794610 12091 net.cpp:148] Top shape: 24 224 14 14 (1053696)
I0403 15:34:10.794626 12091 net.cpp:156] Memory required for data: 960654624
I0403 15:34:10.794644 12091 layer_factory.hpp:77] Creating layer inception_4b/relu_3x3
I0403 15:34:10.794667 12091 net.cpp:91] Creating Layer inception_4b/relu_3x3
I0403 15:34:10.794682 12091 net.cpp:425] inception_4b/relu_3x3 <- inception_4b/3x3
I0403 15:34:10.794699 12091 net.cpp:386] inception_4b/relu_3x3 -> inception_4b/3x3 (in-place)
I0403 15:34:10.794875 12091 net.cpp:141] Setting up inception_4b/relu_3x3
I0403 15:34:10.794901 12091 net.cpp:148] Top shape: 24 224 14 14 (1053696)
I0403 15:34:10.794917 12091 net.cpp:156] Memory required for data: 964869408
I0403 15:34:10.794932 12091 layer_factory.hpp:77] Creating layer inception_4b/5x5_reduce
I0403 15:34:10.794953 12091 net.cpp:91] Creating Layer inception_4b/5x5_reduce
I0403 15:34:10.794970 12091 net.cpp:425] inception_4b/5x5_reduce <- inception_4a/output_inception_4a/output_0_split_3
I0403 15:34:10.794988 12091 net.cpp:399] inception_4b/5x5_reduce -> inception_4b/5x5_reduce
I0403 15:34:10.796167 12091 net.cpp:141] Setting up inception_4b/5x5_reduce
I0403 15:34:10.796196 12091 net.cpp:148] Top shape: 24 24 14 14 (112896)
I0403 15:34:10.796212 12091 net.cpp:156] Memory required for data: 965320992
I0403 15:34:10.796231 12091 layer_factory.hpp:77] Creating layer inception_4b/relu_5x5_reduce
I0403 15:34:10.796249 12091 net.cpp:91] Creating Layer inception_4b/relu_5x5_reduce
I0403 15:34:10.796280 12091 net.cpp:425] inception_4b/relu_5x5_reduce <- inception_4b/5x5_reduce
I0403 15:34:10.796301 12091 net.cpp:386] inception_4b/relu_5x5_reduce -> inception_4b/5x5_reduce (in-place)
I0403 15:34:10.796485 12091 net.cpp:141] Setting up inception_4b/relu_5x5_reduce
I0403 15:34:10.796509 12091 net.cpp:148] Top shape: 24 24 14 14 (112896)
I0403 15:34:10.796525 12091 net.cpp:156] Memory required for data: 965772576
I0403 15:34:10.796537 12091 layer_factory.hpp:77] Creating layer inception_4b/5x5
I0403 15:34:10.796560 12091 net.cpp:91] Creating Layer inception_4b/5x5
I0403 15:34:10.796577 12091 net.cpp:425] inception_4b/5x5 <- inception_4b/5x5_reduce
I0403 15:34:10.796597 12091 net.cpp:399] inception_4b/5x5 -> inception_4b/5x5
I0403 15:34:10.797814 12091 net.cpp:141] Setting up inception_4b/5x5
I0403 15:34:10.797842 12091 net.cpp:148] Top shape: 24 64 14 14 (301056)
I0403 15:34:10.797858 12091 net.cpp:156] Memory required for data: 966976800
I0403 15:34:10.797875 12091 layer_factory.hpp:77] Creating layer inception_4b/relu_5x5
I0403 15:34:10.797893 12091 net.cpp:91] Creating Layer inception_4b/relu_5x5
I0403 15:34:10.797909 12091 net.cpp:425] inception_4b/relu_5x5 <- inception_4b/5x5
I0403 15:34:10.797926 12091 net.cpp:386] inception_4b/relu_5x5 -> inception_4b/5x5 (in-place)
I0403 15:34:10.798207 12091 net.cpp:141] Setting up inception_4b/relu_5x5
I0403 15:34:10.798234 12091 net.cpp:148] Top shape: 24 64 14 14 (301056)
I0403 15:34:10.798249 12091 net.cpp:156] Memory required for data: 968181024
I0403 15:34:10.798262 12091 layer_factory.hpp:77] Creating layer inception_4b/pool
I0403 15:34:10.798280 12091 net.cpp:91] Creating Layer inception_4b/pool
I0403 15:34:10.798295 12091 net.cpp:425] inception_4b/pool <- inception_4a/output_inception_4a/output_0_split_4
I0403 15:34:10.798319 12091 net.cpp:399] inception_4b/pool -> inception_4b/pool
I0403 15:34:10.798382 12091 net.cpp:141] Setting up inception_4b/pool
I0403 15:34:10.798404 12091 net.cpp:148] Top shape: 24 512 14 14 (2408448)
I0403 15:34:10.798418 12091 net.cpp:156] Memory required for data: 977814816
I0403 15:34:10.798432 12091 layer_factory.hpp:77] Creating layer inception_4b/pool_proj
I0403 15:34:10.798455 12091 net.cpp:91] Creating Layer inception_4b/pool_proj
I0403 15:34:10.798472 12091 net.cpp:425] inception_4b/pool_proj <- inception_4b/pool
I0403 15:34:10.798491 12091 net.cpp:399] inception_4b/pool_proj -> inception_4b/pool_proj
I0403 15:34:10.799650 12091 net.cpp:141] Setting up inception_4b/pool_proj
I0403 15:34:10.799679 12091 net.cpp:148] Top shape: 24 64 14 14 (301056)
I0403 15:34:10.799695 12091 net.cpp:156] Memory required for data: 979019040
I0403 15:34:10.799712 12091 layer_factory.hpp:77] Creating layer inception_4b/relu_pool_proj
I0403 15:34:10.799731 12091 net.cpp:91] Creating Layer inception_4b/relu_pool_proj
I0403 15:34:10.799746 12091 net.cpp:425] inception_4b/relu_pool_proj <- inception_4b/pool_proj
I0403 15:34:10.799765 12091 net.cpp:386] inception_4b/relu_pool_proj -> inception_4b/pool_proj (in-place)
I0403 15:34:10.799942 12091 net.cpp:141] Setting up inception_4b/relu_pool_proj
I0403 15:34:10.799965 12091 net.cpp:148] Top shape: 24 64 14 14 (301056)
I0403 15:34:10.799978 12091 net.cpp:156] Memory required for data: 980223264
I0403 15:34:10.799993 12091 layer_factory.hpp:77] Creating layer inception_4b/output
I0403 15:34:10.800011 12091 net.cpp:91] Creating Layer inception_4b/output
I0403 15:34:10.800026 12091 net.cpp:425] inception_4b/output <- inception_4b/1x1
I0403 15:34:10.800043 12091 net.cpp:425] inception_4b/output <- inception_4b/3x3
I0403 15:34:10.800058 12091 net.cpp:425] inception_4b/output <- inception_4b/5x5
I0403 15:34:10.800073 12091 net.cpp:425] inception_4b/output <- inception_4b/pool_proj
I0403 15:34:10.800091 12091 net.cpp:399] inception_4b/output -> inception_4b/output
I0403 15:34:10.800137 12091 net.cpp:141] Setting up inception_4b/output
I0403 15:34:10.800158 12091 net.cpp:148] Top shape: 24 512 14 14 (2408448)
I0403 15:34:10.800173 12091 net.cpp:156] Memory required for data: 989857056
I0403 15:34:10.800201 12091 layer_factory.hpp:77] Creating layer inception_4b/output_inception_4b/output_0_split
I0403 15:34:10.800218 12091 net.cpp:91] Creating Layer inception_4b/output_inception_4b/output_0_split
I0403 15:34:10.800233 12091 net.cpp:425] inception_4b/output_inception_4b/output_0_split <- inception_4b/output
I0403 15:34:10.800252 12091 net.cpp:399] inception_4b/output_inception_4b/output_0_split -> inception_4b/output_inception_4b/output_0_split_0
I0403 15:34:10.800272 12091 net.cpp:399] inception_4b/output_inception_4b/output_0_split -> inception_4b/output_inception_4b/output_0_split_1
I0403 15:34:10.800292 12091 net.cpp:399] inception_4b/output_inception_4b/output_0_split -> inception_4b/output_inception_4b/output_0_split_2
I0403 15:34:10.800310 12091 net.cpp:399] inception_4b/output_inception_4b/output_0_split -> inception_4b/output_inception_4b/output_0_split_3
I0403 15:34:10.800395 12091 net.cpp:141] Setting up inception_4b/output_inception_4b/output_0_split
I0403 15:34:10.800420 12091 net.cpp:148] Top shape: 24 512 14 14 (2408448)
I0403 15:34:10.800436 12091 net.cpp:148] Top shape: 24 512 14 14 (2408448)
I0403 15:34:10.800452 12091 net.cpp:148] Top shape: 24 512 14 14 (2408448)
I0403 15:34:10.800467 12091 net.cpp:148] Top shape: 24 512 14 14 (2408448)
I0403 15:34:10.800480 12091 net.cpp:156] Memory required for data: 1028392224
I0403 15:34:10.800493 12091 layer_factory.hpp:77] Creating layer inception_4c/1x1
I0403 15:34:10.800515 12091 net.cpp:91] Creating Layer inception_4c/1x1
I0403 15:34:10.800532 12091 net.cpp:425] inception_4c/1x1 <- inception_4b/output_inception_4b/output_0_split_0
I0403 15:34:10.800550 12091 net.cpp:399] inception_4c/1x1 -> inception_4c/1x1
I0403 15:34:10.801934 12091 net.cpp:141] Setting up inception_4c/1x1
I0403 15:34:10.801961 12091 net.cpp:148] Top shape: 24 128 14 14 (602112)
I0403 15:34:10.801976 12091 net.cpp:156] Memory required for data: 1030800672
I0403 15:34:10.801993 12091 layer_factory.hpp:77] Creating layer inception_4c/relu_1x1
I0403 15:34:10.802014 12091 net.cpp:91] Creating Layer inception_4c/relu_1x1
I0403 15:34:10.802031 12091 net.cpp:425] inception_4c/relu_1x1 <- inception_4c/1x1
I0403 15:34:10.802047 12091 net.cpp:386] inception_4c/relu_1x1 -> inception_4c/1x1 (in-place)
I0403 15:34:10.802225 12091 net.cpp:141] Setting up inception_4c/relu_1x1
I0403 15:34:10.802250 12091 net.cpp:148] Top shape: 24 128 14 14 (602112)
I0403 15:34:10.802265 12091 net.cpp:156] Memory required for data: 1033209120
I0403 15:34:10.802280 12091 layer_factory.hpp:77] Creating layer inception_4c/3x3_reduce
I0403 15:34:10.802301 12091 net.cpp:91] Creating Layer inception_4c/3x3_reduce
I0403 15:34:10.802322 12091 net.cpp:425] inception_4c/3x3_reduce <- inception_4b/output_inception_4b/output_0_split_1
I0403 15:34:10.802342 12091 net.cpp:399] inception_4c/3x3_reduce -> inception_4c/3x3_reduce
I0403 15:34:10.804217 12091 net.cpp:141] Setting up inception_4c/3x3_reduce
I0403 15:34:10.804249 12091 net.cpp:148] Top shape: 24 128 14 14 (602112)
I0403 15:34:10.804263 12091 net.cpp:156] Memory required for data: 1035617568
I0403 15:34:10.804281 12091 layer_factory.hpp:77] Creating layer inception_4c/relu_3x3_reduce
I0403 15:34:10.804299 12091 net.cpp:91] Creating Layer inception_4c/relu_3x3_reduce
I0403 15:34:10.804316 12091 net.cpp:425] inception_4c/relu_3x3_reduce <- inception_4c/3x3_reduce
I0403 15:34:10.804339 12091 net.cpp:386] inception_4c/relu_3x3_reduce -> inception_4c/3x3_reduce (in-place)
I0403 15:34:10.804617 12091 net.cpp:141] Setting up inception_4c/relu_3x3_reduce
I0403 15:34:10.804644 12091 net.cpp:148] Top shape: 24 128 14 14 (602112)
I0403 15:34:10.804661 12091 net.cpp:156] Memory required for data: 1038026016
I0403 15:34:10.804675 12091 layer_factory.hpp:77] Creating layer inception_4c/3x3
I0403 15:34:10.804697 12091 net.cpp:91] Creating Layer inception_4c/3x3
I0403 15:34:10.804714 12091 net.cpp:425] inception_4c/3x3 <- inception_4c/3x3_reduce
I0403 15:34:10.804733 12091 net.cpp:399] inception_4c/3x3 -> inception_4c/3x3
I0403 15:34:10.808313 12091 net.cpp:141] Setting up inception_4c/3x3
I0403 15:34:10.808359 12091 net.cpp:148] Top shape: 24 256 14 14 (1204224)
I0403 15:34:10.808377 12091 net.cpp:156] Memory required for data: 1042842912
I0403 15:34:10.808410 12091 layer_factory.hpp:77] Creating layer inception_4c/relu_3x3
I0403 15:34:10.808431 12091 net.cpp:91] Creating Layer inception_4c/relu_3x3
I0403 15:34:10.808449 12091 net.cpp:425] inception_4c/relu_3x3 <- inception_4c/3x3
I0403 15:34:10.808471 12091 net.cpp:386] inception_4c/relu_3x3 -> inception_4c/3x3 (in-place)
I0403 15:34:10.808698 12091 net.cpp:141] Setting up inception_4c/relu_3x3
I0403 15:34:10.808724 12091 net.cpp:148] Top shape: 24 256 14 14 (1204224)
I0403 15:34:10.808740 12091 net.cpp:156] Memory required for data: 1047659808
I0403 15:34:10.808755 12091 layer_factory.hpp:77] Creating layer inception_4c/5x5_reduce
I0403 15:34:10.808780 12091 net.cpp:91] Creating Layer inception_4c/5x5_reduce
I0403 15:34:10.808799 12091 net.cpp:425] inception_4c/5x5_reduce <- inception_4b/output_inception_4b/output_0_split_2
I0403 15:34:10.808820 12091 net.cpp:399] inception_4c/5x5_reduce -> inception_4c/5x5_reduce
I0403 15:34:10.809932 12091 net.cpp:141] Setting up inception_4c/5x5_reduce
I0403 15:34:10.809962 12091 net.cpp:148] Top shape: 24 24 14 14 (112896)
I0403 15:34:10.809979 12091 net.cpp:156] Memory required for data: 1048111392
I0403 15:34:10.809998 12091 layer_factory.hpp:77] Creating layer inception_4c/relu_5x5_reduce
I0403 15:34:10.810015 12091 net.cpp:91] Creating Layer inception_4c/relu_5x5_reduce
I0403 15:34:10.810031 12091 net.cpp:425] inception_4c/relu_5x5_reduce <- inception_4c/5x5_reduce
I0403 15:34:10.810050 12091 net.cpp:386] inception_4c/relu_5x5_reduce -> inception_4c/5x5_reduce (in-place)
I0403 15:34:10.810236 12091 net.cpp:141] Setting up inception_4c/relu_5x5_reduce
I0403 15:34:10.810261 12091 net.cpp:148] Top shape: 24 24 14 14 (112896)
I0403 15:34:10.810276 12091 net.cpp:156] Memory required for data: 1048562976
I0403 15:34:10.810292 12091 layer_factory.hpp:77] Creating layer inception_4c/5x5
I0403 15:34:10.810312 12091 net.cpp:91] Creating Layer inception_4c/5x5
I0403 15:34:10.810335 12091 net.cpp:425] inception_4c/5x5 <- inception_4c/5x5_reduce
I0403 15:34:10.810358 12091 net.cpp:399] inception_4c/5x5 -> inception_4c/5x5
I0403 15:34:10.811610 12091 net.cpp:141] Setting up inception_4c/5x5
I0403 15:34:10.811640 12091 net.cpp:148] Top shape: 24 64 14 14 (301056)
I0403 15:34:10.811655 12091 net.cpp:156] Memory required for data: 1049767200
I0403 15:34:10.811673 12091 layer_factory.hpp:77] Creating layer inception_4c/relu_5x5
I0403 15:34:10.811694 12091 net.cpp:91] Creating Layer inception_4c/relu_5x5
I0403 15:34:10.811712 12091 net.cpp:425] inception_4c/relu_5x5 <- inception_4c/5x5
I0403 15:34:10.811729 12091 net.cpp:386] inception_4c/relu_5x5 -> inception_4c/5x5 (in-place)
I0403 15:34:10.812023 12091 net.cpp:141] Setting up inception_4c/relu_5x5
I0403 15:34:10.812049 12091 net.cpp:148] Top shape: 24 64 14 14 (301056)
I0403 15:34:10.812064 12091 net.cpp:156] Memory required for data: 1050971424
I0403 15:34:10.812078 12091 layer_factory.hpp:77] Creating layer inception_4c/pool
I0403 15:34:10.812098 12091 net.cpp:91] Creating Layer inception_4c/pool
I0403 15:34:10.812115 12091 net.cpp:425] inception_4c/pool <- inception_4b/output_inception_4b/output_0_split_3
I0403 15:34:10.812134 12091 net.cpp:399] inception_4c/pool -> inception_4c/pool
I0403 15:34:10.812199 12091 net.cpp:141] Setting up inception_4c/pool
I0403 15:34:10.812223 12091 net.cpp:148] Top shape: 24 512 14 14 (2408448)
I0403 15:34:10.812238 12091 net.cpp:156] Memory required for data: 1060605216
I0403 15:34:10.812252 12091 layer_factory.hpp:77] Creating layer inception_4c/pool_proj
I0403 15:34:10.812274 12091 net.cpp:91] Creating Layer inception_4c/pool_proj
I0403 15:34:10.812293 12091 net.cpp:425] inception_4c/pool_proj <- inception_4c/pool
I0403 15:34:10.812314 12091 net.cpp:399] inception_4c/pool_proj -> inception_4c/pool_proj
I0403 15:34:10.813565 12091 net.cpp:141] Setting up inception_4c/pool_proj
I0403 15:34:10.813593 12091 net.cpp:148] Top shape: 24 64 14 14 (301056)
I0403 15:34:10.813622 12091 net.cpp:156] Memory required for data: 1061809440
I0403 15:34:10.813642 12091 layer_factory.hpp:77] Creating layer inception_4c/relu_pool_proj
I0403 15:34:10.813662 12091 net.cpp:91] Creating Layer inception_4c/relu_pool_proj
I0403 15:34:10.813678 12091 net.cpp:425] inception_4c/relu_pool_proj <- inception_4c/pool_proj
I0403 15:34:10.813699 12091 net.cpp:386] inception_4c/relu_pool_proj -> inception_4c/pool_proj (in-place)
I0403 15:34:10.813884 12091 net.cpp:141] Setting up inception_4c/relu_pool_proj
I0403 15:34:10.813908 12091 net.cpp:148] Top shape: 24 64 14 14 (301056)
I0403 15:34:10.813923 12091 net.cpp:156] Memory required for data: 1063013664
I0403 15:34:10.813937 12091 layer_factory.hpp:77] Creating layer inception_4c/output
I0403 15:34:10.813954 12091 net.cpp:91] Creating Layer inception_4c/output
I0403 15:34:10.813972 12091 net.cpp:425] inception_4c/output <- inception_4c/1x1
I0403 15:34:10.813989 12091 net.cpp:425] inception_4c/output <- inception_4c/3x3
I0403 15:34:10.814007 12091 net.cpp:425] inception_4c/output <- inception_4c/5x5
I0403 15:34:10.814023 12091 net.cpp:425] inception_4c/output <- inception_4c/pool_proj
I0403 15:34:10.814038 12091 net.cpp:399] inception_4c/output -> inception_4c/output
I0403 15:34:10.814084 12091 net.cpp:141] Setting up inception_4c/output
I0403 15:34:10.814110 12091 net.cpp:148] Top shape: 24 512 14 14 (2408448)
I0403 15:34:10.814126 12091 net.cpp:156] Memory required for data: 1072647456
I0403 15:34:10.814141 12091 layer_factory.hpp:77] Creating layer inception_4c/output_inception_4c/output_0_split
I0403 15:34:10.814157 12091 net.cpp:91] Creating Layer inception_4c/output_inception_4c/output_0_split
I0403 15:34:10.814172 12091 net.cpp:425] inception_4c/output_inception_4c/output_0_split <- inception_4c/output
I0403 15:34:10.814193 12091 net.cpp:399] inception_4c/output_inception_4c/output_0_split -> inception_4c/output_inception_4c/output_0_split_0
I0403 15:34:10.814213 12091 net.cpp:399] inception_4c/output_inception_4c/output_0_split -> inception_4c/output_inception_4c/output_0_split_1
I0403 15:34:10.814234 12091 net.cpp:399] inception_4c/output_inception_4c/output_0_split -> inception_4c/output_inception_4c/output_0_split_2
I0403 15:34:10.814252 12091 net.cpp:399] inception_4c/output_inception_4c/output_0_split -> inception_4c/output_inception_4c/output_0_split_3
I0403 15:34:10.814340 12091 net.cpp:141] Setting up inception_4c/output_inception_4c/output_0_split
I0403 15:34:10.814368 12091 net.cpp:148] Top shape: 24 512 14 14 (2408448)
I0403 15:34:10.814384 12091 net.cpp:148] Top shape: 24 512 14 14 (2408448)
I0403 15:34:10.814399 12091 net.cpp:148] Top shape: 24 512 14 14 (2408448)
I0403 15:34:10.814415 12091 net.cpp:148] Top shape: 24 512 14 14 (2408448)
I0403 15:34:10.814429 12091 net.cpp:156] Memory required for data: 1111182624
I0403 15:34:10.814443 12091 layer_factory.hpp:77] Creating layer inception_4d/1x1
I0403 15:34:10.814465 12091 net.cpp:91] Creating Layer inception_4d/1x1
I0403 15:34:10.814482 12091 net.cpp:425] inception_4d/1x1 <- inception_4c/output_inception_4c/output_0_split_0
I0403 15:34:10.814502 12091 net.cpp:399] inception_4d/1x1 -> inception_4d/1x1
I0403 15:34:10.815896 12091 net.cpp:141] Setting up inception_4d/1x1
I0403 15:34:10.815927 12091 net.cpp:148] Top shape: 24 112 14 14 (526848)
I0403 15:34:10.815944 12091 net.cpp:156] Memory required for data: 1113290016
I0403 15:34:10.815963 12091 layer_factory.hpp:77] Creating layer inception_4d/relu_1x1
I0403 15:34:10.815982 12091 net.cpp:91] Creating Layer inception_4d/relu_1x1
I0403 15:34:10.815999 12091 net.cpp:425] inception_4d/relu_1x1 <- inception_4d/1x1
I0403 15:34:10.816017 12091 net.cpp:386] inception_4d/relu_1x1 -> inception_4d/1x1 (in-place)
I0403 15:34:10.816208 12091 net.cpp:141] Setting up inception_4d/relu_1x1
I0403 15:34:10.816234 12091 net.cpp:148] Top shape: 24 112 14 14 (526848)
I0403 15:34:10.816251 12091 net.cpp:156] Memory required for data: 1115397408
I0403 15:34:10.816265 12091 layer_factory.hpp:77] Creating layer inception_4d/3x3_reduce
I0403 15:34:10.816300 12091 net.cpp:91] Creating Layer inception_4d/3x3_reduce
I0403 15:34:10.816323 12091 net.cpp:425] inception_4d/3x3_reduce <- inception_4c/output_inception_4c/output_0_split_1
I0403 15:34:10.816344 12091 net.cpp:399] inception_4d/3x3_reduce -> inception_4d/3x3_reduce
I0403 15:34:10.817867 12091 net.cpp:141] Setting up inception_4d/3x3_reduce
I0403 15:34:10.817894 12091 net.cpp:148] Top shape: 24 144 14 14 (677376)
I0403 15:34:10.817910 12091 net.cpp:156] Memory required for data: 1118106912
I0403 15:34:10.817929 12091 layer_factory.hpp:77] Creating layer inception_4d/relu_3x3_reduce
I0403 15:34:10.817948 12091 net.cpp:91] Creating Layer inception_4d/relu_3x3_reduce
I0403 15:34:10.817965 12091 net.cpp:425] inception_4d/relu_3x3_reduce <- inception_4d/3x3_reduce
I0403 15:34:10.817983 12091 net.cpp:386] inception_4d/relu_3x3_reduce -> inception_4d/3x3_reduce (in-place)
I0403 15:34:10.818274 12091 net.cpp:141] Setting up inception_4d/relu_3x3_reduce
I0403 15:34:10.818302 12091 net.cpp:148] Top shape: 24 144 14 14 (677376)
I0403 15:34:10.818320 12091 net.cpp:156] Memory required for data: 1120816416
I0403 15:34:10.818337 12091 layer_factory.hpp:77] Creating layer inception_4d/3x3
I0403 15:34:10.818359 12091 net.cpp:91] Creating Layer inception_4d/3x3
I0403 15:34:10.818377 12091 net.cpp:425] inception_4d/3x3 <- inception_4d/3x3_reduce
I0403 15:34:10.818398 12091 net.cpp:399] inception_4d/3x3 -> inception_4d/3x3
I0403 15:34:10.822669 12091 net.cpp:141] Setting up inception_4d/3x3
I0403 15:34:10.822765 12091 net.cpp:148] Top shape: 24 288 14 14 (1354752)
I0403 15:34:10.822784 12091 net.cpp:156] Memory required for data: 1126235424
I0403 15:34:10.822804 12091 layer_factory.hpp:77] Creating layer inception_4d/relu_3x3
I0403 15:34:10.822824 12091 net.cpp:91] Creating Layer inception_4d/relu_3x3
I0403 15:34:10.822841 12091 net.cpp:425] inception_4d/relu_3x3 <- inception_4d/3x3
I0403 15:34:10.822862 12091 net.cpp:386] inception_4d/relu_3x3 -> inception_4d/3x3 (in-place)
I0403 15:34:10.823051 12091 net.cpp:141] Setting up inception_4d/relu_3x3
I0403 15:34:10.823078 12091 net.cpp:148] Top shape: 24 288 14 14 (1354752)
I0403 15:34:10.823094 12091 net.cpp:156] Memory required for data: 1131654432
I0403 15:34:10.823110 12091 layer_factory.hpp:77] Creating layer inception_4d/5x5_reduce
I0403 15:34:10.823133 12091 net.cpp:91] Creating Layer inception_4d/5x5_reduce
I0403 15:34:10.823153 12091 net.cpp:425] inception_4d/5x5_reduce <- inception_4c/output_inception_4c/output_0_split_2
I0403 15:34:10.823175 12091 net.cpp:399] inception_4d/5x5_reduce -> inception_4d/5x5_reduce
I0403 15:34:10.824354 12091 net.cpp:141] Setting up inception_4d/5x5_reduce
I0403 15:34:10.824386 12091 net.cpp:148] Top shape: 24 32 14 14 (150528)
I0403 15:34:10.824404 12091 net.cpp:156] Memory required for data: 1132256544
I0403 15:34:10.824422 12091 layer_factory.hpp:77] Creating layer inception_4d/relu_5x5_reduce
I0403 15:34:10.824441 12091 net.cpp:91] Creating Layer inception_4d/relu_5x5_reduce
I0403 15:34:10.824458 12091 net.cpp:425] inception_4d/relu_5x5_reduce <- inception_4d/5x5_reduce
I0403 15:34:10.824476 12091 net.cpp:386] inception_4d/relu_5x5_reduce -> inception_4d/5x5_reduce (in-place)
I0403 15:34:10.824668 12091 net.cpp:141] Setting up inception_4d/relu_5x5_reduce
I0403 15:34:10.824694 12091 net.cpp:148] Top shape: 24 32 14 14 (150528)
I0403 15:34:10.824709 12091 net.cpp:156] Memory required for data: 1132858656
I0403 15:34:10.824725 12091 layer_factory.hpp:77] Creating layer inception_4d/5x5
I0403 15:34:10.824748 12091 net.cpp:91] Creating Layer inception_4d/5x5
I0403 15:34:10.824767 12091 net.cpp:425] inception_4d/5x5 <- inception_4d/5x5_reduce
I0403 15:34:10.824790 12091 net.cpp:399] inception_4d/5x5 -> inception_4d/5x5
I0403 15:34:10.826350 12091 net.cpp:141] Setting up inception_4d/5x5
I0403 15:34:10.826390 12091 net.cpp:148] Top shape: 24 64 14 14 (301056)
I0403 15:34:10.826407 12091 net.cpp:156] Memory required for data: 1134062880
I0403 15:34:10.826427 12091 layer_factory.hpp:77] Creating layer inception_4d/relu_5x5
I0403 15:34:10.826463 12091 net.cpp:91] Creating Layer inception_4d/relu_5x5
I0403 15:34:10.826483 12091 net.cpp:425] inception_4d/relu_5x5 <- inception_4d/5x5
I0403 15:34:10.826501 12091 net.cpp:386] inception_4d/relu_5x5 -> inception_4d/5x5 (in-place)
I0403 15:34:10.826809 12091 net.cpp:141] Setting up inception_4d/relu_5x5
I0403 15:34:10.826835 12091 net.cpp:148] Top shape: 24 64 14 14 (301056)
I0403 15:34:10.826850 12091 net.cpp:156] Memory required for data: 1135267104
I0403 15:34:10.826866 12091 layer_factory.hpp:77] Creating layer inception_4d/pool
I0403 15:34:10.826884 12091 net.cpp:91] Creating Layer inception_4d/pool
I0403 15:34:10.826900 12091 net.cpp:425] inception_4d/pool <- inception_4c/output_inception_4c/output_0_split_3
I0403 15:34:10.826920 12091 net.cpp:399] inception_4d/pool -> inception_4d/pool
I0403 15:34:10.826987 12091 net.cpp:141] Setting up inception_4d/pool
I0403 15:34:10.827013 12091 net.cpp:148] Top shape: 24 512 14 14 (2408448)
I0403 15:34:10.827026 12091 net.cpp:156] Memory required for data: 1144900896
I0403 15:34:10.827041 12091 layer_factory.hpp:77] Creating layer inception_4d/pool_proj
I0403 15:34:10.827066 12091 net.cpp:91] Creating Layer inception_4d/pool_proj
I0403 15:34:10.827083 12091 net.cpp:425] inception_4d/pool_proj <- inception_4d/pool
I0403 15:34:10.827102 12091 net.cpp:399] inception_4d/pool_proj -> inception_4d/pool_proj
I0403 15:34:10.828950 12091 net.cpp:141] Setting up inception_4d/pool_proj
I0403 15:34:10.828984 12091 net.cpp:148] Top shape: 24 64 14 14 (301056)
I0403 15:34:10.829001 12091 net.cpp:156] Memory required for data: 1146105120
I0403 15:34:10.829021 12091 layer_factory.hpp:77] Creating layer inception_4d/relu_pool_proj
I0403 15:34:10.829040 12091 net.cpp:91] Creating Layer inception_4d/relu_pool_proj
I0403 15:34:10.829056 12091 net.cpp:425] inception_4d/relu_pool_proj <- inception_4d/pool_proj
I0403 15:34:10.829076 12091 net.cpp:386] inception_4d/relu_pool_proj -> inception_4d/pool_proj (in-place)
I0403 15:34:10.829265 12091 net.cpp:141] Setting up inception_4d/relu_pool_proj
I0403 15:34:10.829289 12091 net.cpp:148] Top shape: 24 64 14 14 (301056)
I0403 15:34:10.829304 12091 net.cpp:156] Memory required for data: 1147309344
I0403 15:34:10.829324 12091 layer_factory.hpp:77] Creating layer inception_4d/output
I0403 15:34:10.829341 12091 net.cpp:91] Creating Layer inception_4d/output
I0403 15:34:10.829357 12091 net.cpp:425] inception_4d/output <- inception_4d/1x1
I0403 15:34:10.829373 12091 net.cpp:425] inception_4d/output <- inception_4d/3x3
I0403 15:34:10.829391 12091 net.cpp:425] inception_4d/output <- inception_4d/5x5
I0403 15:34:10.829406 12091 net.cpp:425] inception_4d/output <- inception_4d/pool_proj
I0403 15:34:10.829427 12091 net.cpp:399] inception_4d/output -> inception_4d/output
I0403 15:34:10.829475 12091 net.cpp:141] Setting up inception_4d/output
I0403 15:34:10.829500 12091 net.cpp:148] Top shape: 24 528 14 14 (2483712)
I0403 15:34:10.829516 12091 net.cpp:156] Memory required for data: 1157244192
I0403 15:34:10.829531 12091 layer_factory.hpp:77] Creating layer inception_4d/output_inception_4d/output_0_split
I0403 15:34:10.829550 12091 net.cpp:91] Creating Layer inception_4d/output_inception_4d/output_0_split
I0403 15:34:10.829565 12091 net.cpp:425] inception_4d/output_inception_4d/output_0_split <- inception_4d/output
I0403 15:34:10.829582 12091 net.cpp:399] inception_4d/output_inception_4d/output_0_split -> inception_4d/output_inception_4d/output_0_split_0
I0403 15:34:10.829604 12091 net.cpp:399] inception_4d/output_inception_4d/output_0_split -> inception_4d/output_inception_4d/output_0_split_1
I0403 15:34:10.829627 12091 net.cpp:399] inception_4d/output_inception_4d/output_0_split -> inception_4d/output_inception_4d/output_0_split_2
I0403 15:34:10.829648 12091 net.cpp:399] inception_4d/output_inception_4d/output_0_split -> inception_4d/output_inception_4d/output_0_split_3
I0403 15:34:10.829668 12091 net.cpp:399] inception_4d/output_inception_4d/output_0_split -> inception_4d/output_inception_4d/output_0_split_4
I0403 15:34:10.829769 12091 net.cpp:141] Setting up inception_4d/output_inception_4d/output_0_split
I0403 15:34:10.829804 12091 net.cpp:148] Top shape: 24 528 14 14 (2483712)
I0403 15:34:10.829823 12091 net.cpp:148] Top shape: 24 528 14 14 (2483712)
I0403 15:34:10.829841 12091 net.cpp:148] Top shape: 24 528 14 14 (2483712)
I0403 15:34:10.829856 12091 net.cpp:148] Top shape: 24 528 14 14 (2483712)
I0403 15:34:10.829871 12091 net.cpp:148] Top shape: 24 528 14 14 (2483712)
I0403 15:34:10.829885 12091 net.cpp:156] Memory required for data: 1206918432
I0403 15:34:10.829900 12091 layer_factory.hpp:77] Creating layer loss2/ave_pool
I0403 15:34:10.829918 12091 net.cpp:91] Creating Layer loss2/ave_pool
I0403 15:34:10.829933 12091 net.cpp:425] loss2/ave_pool <- inception_4d/output_inception_4d/output_0_split_0
I0403 15:34:10.829952 12091 net.cpp:399] loss2/ave_pool -> loss2/ave_pool
I0403 15:34:10.830272 12091 net.cpp:141] Setting up loss2/ave_pool
I0403 15:34:10.830301 12091 net.cpp:148] Top shape: 24 528 4 4 (202752)
I0403 15:34:10.830320 12091 net.cpp:156] Memory required for data: 1207729440
I0403 15:34:10.830338 12091 layer_factory.hpp:77] Creating layer loss2/conv
I0403 15:34:10.830360 12091 net.cpp:91] Creating Layer loss2/conv
I0403 15:34:10.830377 12091 net.cpp:425] loss2/conv <- loss2/ave_pool
I0403 15:34:10.830396 12091 net.cpp:399] loss2/conv -> loss2/conv
I0403 15:34:10.832331 12091 net.cpp:141] Setting up loss2/conv
I0403 15:34:10.832361 12091 net.cpp:148] Top shape: 24 128 4 4 (49152)
I0403 15:34:10.832377 12091 net.cpp:156] Memory required for data: 1207926048
I0403 15:34:10.832397 12091 layer_factory.hpp:77] Creating layer loss2/relu_conv
I0403 15:34:10.832417 12091 net.cpp:91] Creating Layer loss2/relu_conv
I0403 15:34:10.832433 12091 net.cpp:425] loss2/relu_conv <- loss2/conv
I0403 15:34:10.832453 12091 net.cpp:386] loss2/relu_conv -> loss2/conv (in-place)
I0403 15:34:10.832746 12091 net.cpp:141] Setting up loss2/relu_conv
I0403 15:34:10.832774 12091 net.cpp:148] Top shape: 24 128 4 4 (49152)
I0403 15:34:10.832790 12091 net.cpp:156] Memory required for data: 1208122656
I0403 15:34:10.832805 12091 layer_factory.hpp:77] Creating layer loss2/fc
I0403 15:34:10.832824 12091 net.cpp:91] Creating Layer loss2/fc
I0403 15:34:10.832841 12091 net.cpp:425] loss2/fc <- loss2/conv
I0403 15:34:10.832862 12091 net.cpp:399] loss2/fc -> loss2/fc
I0403 15:34:10.850623 12091 net.cpp:141] Setting up loss2/fc
I0403 15:34:10.850671 12091 net.cpp:148] Top shape: 24 1024 (24576)
I0403 15:34:10.850687 12091 net.cpp:156] Memory required for data: 1208220960
I0403 15:34:10.850704 12091 layer_factory.hpp:77] Creating layer loss2/relu_fc
I0403 15:34:10.850723 12091 net.cpp:91] Creating Layer loss2/relu_fc
I0403 15:34:10.850739 12091 net.cpp:425] loss2/relu_fc <- loss2/fc
I0403 15:34:10.850755 12091 net.cpp:386] loss2/relu_fc -> loss2/fc (in-place)
I0403 15:34:10.851073 12091 net.cpp:141] Setting up loss2/relu_fc
I0403 15:34:10.851100 12091 net.cpp:148] Top shape: 24 1024 (24576)
I0403 15:34:10.851114 12091 net.cpp:156] Memory required for data: 1208319264
I0403 15:34:10.851130 12091 layer_factory.hpp:77] Creating layer loss2/drop_fc
I0403 15:34:10.851146 12091 net.cpp:91] Creating Layer loss2/drop_fc
I0403 15:34:10.851161 12091 net.cpp:425] loss2/drop_fc <- loss2/fc
I0403 15:34:10.851178 12091 net.cpp:386] loss2/drop_fc -> loss2/fc (in-place)
I0403 15:34:10.851227 12091 net.cpp:141] Setting up loss2/drop_fc
I0403 15:34:10.851250 12091 net.cpp:148] Top shape: 24 1024 (24576)
I0403 15:34:10.851264 12091 net.cpp:156] Memory required for data: 1208417568
I0403 15:34:10.851279 12091 layer_factory.hpp:77] Creating layer loss2/classifier_plantvillage
I0403 15:34:10.851300 12091 net.cpp:91] Creating Layer loss2/classifier_plantvillage
I0403 15:34:10.851318 12091 net.cpp:425] loss2/classifier_plantvillage <- loss2/fc
I0403 15:34:10.851338 12091 net.cpp:399] loss2/classifier_plantvillage -> loss2/classifier_plantvillage
I0403 15:34:10.851752 12091 net.cpp:141] Setting up loss2/classifier_plantvillage
I0403 15:34:10.851778 12091 net.cpp:148] Top shape: 24 38 (912)
I0403 15:34:10.851810 12091 net.cpp:156] Memory required for data: 1208421216
I0403 15:34:10.851830 12091 layer_factory.hpp:77] Creating layer loss2/classifier_plantvillage_loss2/classifier_plantvillage_0_split
I0403 15:34:10.851848 12091 net.cpp:91] Creating Layer loss2/classifier_plantvillage_loss2/classifier_plantvillage_0_split
I0403 15:34:10.851864 12091 net.cpp:425] loss2/classifier_plantvillage_loss2/classifier_plantvillage_0_split <- loss2/classifier_plantvillage
I0403 15:34:10.851884 12091 net.cpp:399] loss2/classifier_plantvillage_loss2/classifier_plantvillage_0_split -> loss2/classifier_plantvillage_loss2/classifier_plantvillage_0_split_0
I0403 15:34:10.851917 12091 net.cpp:399] loss2/classifier_plantvillage_loss2/classifier_plantvillage_0_split -> loss2/classifier_plantvillage_loss2/classifier_plantvillage_0_split_1
I0403 15:34:10.851936 12091 net.cpp:399] loss2/classifier_plantvillage_loss2/classifier_plantvillage_0_split -> loss2/classifier_plantvillage_loss2/classifier_plantvillage_0_split_2
I0403 15:34:10.852010 12091 net.cpp:141] Setting up loss2/classifier_plantvillage_loss2/classifier_plantvillage_0_split
I0403 15:34:10.852033 12091 net.cpp:148] Top shape: 24 38 (912)
I0403 15:34:10.852048 12091 net.cpp:148] Top shape: 24 38 (912)
I0403 15:34:10.852063 12091 net.cpp:148] Top shape: 24 38 (912)
I0403 15:34:10.852077 12091 net.cpp:156] Memory required for data: 1208432160
I0403 15:34:10.852090 12091 layer_factory.hpp:77] Creating layer inception_4e/1x1
I0403 15:34:10.852113 12091 net.cpp:91] Creating Layer inception_4e/1x1
I0403 15:34:10.852130 12091 net.cpp:425] inception_4e/1x1 <- inception_4d/output_inception_4d/output_0_split_1
I0403 15:34:10.852149 12091 net.cpp:399] inception_4e/1x1 -> inception_4e/1x1
I0403 15:34:10.853965 12091 net.cpp:141] Setting up inception_4e/1x1
I0403 15:34:10.853992 12091 net.cpp:148] Top shape: 24 256 14 14 (1204224)
I0403 15:34:10.854008 12091 net.cpp:156] Memory required for data: 1213249056
I0403 15:34:10.854027 12091 layer_factory.hpp:77] Creating layer inception_4e/relu_1x1
I0403 15:34:10.854046 12091 net.cpp:91] Creating Layer inception_4e/relu_1x1
I0403 15:34:10.854063 12091 net.cpp:425] inception_4e/relu_1x1 <- inception_4e/1x1
I0403 15:34:10.854079 12091 net.cpp:386] inception_4e/relu_1x1 -> inception_4e/1x1 (in-place)
I0403 15:34:10.854377 12091 net.cpp:141] Setting up inception_4e/relu_1x1
I0403 15:34:10.854403 12091 net.cpp:148] Top shape: 24 256 14 14 (1204224)
I0403 15:34:10.854416 12091 net.cpp:156] Memory required for data: 1218065952
I0403 15:34:10.854431 12091 layer_factory.hpp:77] Creating layer inception_4e/3x3_reduce
I0403 15:34:10.854454 12091 net.cpp:91] Creating Layer inception_4e/3x3_reduce
I0403 15:34:10.854470 12091 net.cpp:425] inception_4e/3x3_reduce <- inception_4d/output_inception_4d/output_0_split_2
I0403 15:34:10.854493 12091 net.cpp:399] inception_4e/3x3_reduce -> inception_4e/3x3_reduce
I0403 15:34:10.856595 12091 net.cpp:141] Setting up inception_4e/3x3_reduce
I0403 15:34:10.856623 12091 net.cpp:148] Top shape: 24 160 14 14 (752640)
I0403 15:34:10.856639 12091 net.cpp:156] Memory required for data: 1221076512
I0403 15:34:10.856657 12091 layer_factory.hpp:77] Creating layer inception_4e/relu_3x3_reduce
I0403 15:34:10.856674 12091 net.cpp:91] Creating Layer inception_4e/relu_3x3_reduce
I0403 15:34:10.856690 12091 net.cpp:425] inception_4e/relu_3x3_reduce <- inception_4e/3x3_reduce
I0403 15:34:10.856710 12091 net.cpp:386] inception_4e/relu_3x3_reduce -> inception_4e/3x3_reduce (in-place)
I0403 15:34:10.856894 12091 net.cpp:141] Setting up inception_4e/relu_3x3_reduce
I0403 15:34:10.856917 12091 net.cpp:148] Top shape: 24 160 14 14 (752640)
I0403 15:34:10.856931 12091 net.cpp:156] Memory required for data: 1224087072
I0403 15:34:10.856945 12091 layer_factory.hpp:77] Creating layer inception_4e/3x3
I0403 15:34:10.856967 12091 net.cpp:91] Creating Layer inception_4e/3x3
I0403 15:34:10.856984 12091 net.cpp:425] inception_4e/3x3 <- inception_4e/3x3_reduce
I0403 15:34:10.857004 12091 net.cpp:399] inception_4e/3x3 -> inception_4e/3x3
I0403 15:34:10.861984 12091 net.cpp:141] Setting up inception_4e/3x3
I0403 15:34:10.862025 12091 net.cpp:148] Top shape: 24 320 14 14 (1505280)
I0403 15:34:10.862040 12091 net.cpp:156] Memory required for data: 1230108192
I0403 15:34:10.862058 12091 layer_factory.hpp:77] Creating layer inception_4e/relu_3x3
I0403 15:34:10.862078 12091 net.cpp:91] Creating Layer inception_4e/relu_3x3
I0403 15:34:10.862095 12091 net.cpp:425] inception_4e/relu_3x3 <- inception_4e/3x3
I0403 15:34:10.862112 12091 net.cpp:386] inception_4e/relu_3x3 -> inception_4e/3x3 (in-place)
I0403 15:34:10.862411 12091 net.cpp:141] Setting up inception_4e/relu_3x3
I0403 15:34:10.862439 12091 net.cpp:148] Top shape: 24 320 14 14 (1505280)
I0403 15:34:10.862454 12091 net.cpp:156] Memory required for data: 1236129312
I0403 15:34:10.862469 12091 layer_factory.hpp:77] Creating layer inception_4e/5x5_reduce
I0403 15:34:10.862493 12091 net.cpp:91] Creating Layer inception_4e/5x5_reduce
I0403 15:34:10.862509 12091 net.cpp:425] inception_4e/5x5_reduce <- inception_4d/output_inception_4d/output_0_split_3
I0403 15:34:10.862529 12091 net.cpp:399] inception_4e/5x5_reduce -> inception_4e/5x5_reduce
I0403 15:34:10.863589 12091 net.cpp:141] Setting up inception_4e/5x5_reduce
I0403 15:34:10.863616 12091 net.cpp:148] Top shape: 24 32 14 14 (150528)
I0403 15:34:10.863632 12091 net.cpp:156] Memory required for data: 1236731424
I0403 15:34:10.863651 12091 layer_factory.hpp:77] Creating layer inception_4e/relu_5x5_reduce
I0403 15:34:10.863672 12091 net.cpp:91] Creating Layer inception_4e/relu_5x5_reduce
I0403 15:34:10.863687 12091 net.cpp:425] inception_4e/relu_5x5_reduce <- inception_4e/5x5_reduce
I0403 15:34:10.863704 12091 net.cpp:386] inception_4e/relu_5x5_reduce -> inception_4e/5x5_reduce (in-place)
I0403 15:34:10.863997 12091 net.cpp:141] Setting up inception_4e/relu_5x5_reduce
I0403 15:34:10.864022 12091 net.cpp:148] Top shape: 24 32 14 14 (150528)
I0403 15:34:10.864037 12091 net.cpp:156] Memory required for data: 1237333536
I0403 15:34:10.864051 12091 layer_factory.hpp:77] Creating layer inception_4e/5x5
I0403 15:34:10.864089 12091 net.cpp:91] Creating Layer inception_4e/5x5
I0403 15:34:10.864107 12091 net.cpp:425] inception_4e/5x5 <- inception_4e/5x5_reduce
I0403 15:34:10.864126 12091 net.cpp:399] inception_4e/5x5 -> inception_4e/5x5
I0403 15:34:10.865936 12091 net.cpp:141] Setting up inception_4e/5x5
I0403 15:34:10.865967 12091 net.cpp:148] Top shape: 24 128 14 14 (602112)
I0403 15:34:10.865983 12091 net.cpp:156] Memory required for data: 1239741984
I0403 15:34:10.866003 12091 layer_factory.hpp:77] Creating layer inception_4e/relu_5x5
I0403 15:34:10.866021 12091 net.cpp:91] Creating Layer inception_4e/relu_5x5
I0403 15:34:10.866036 12091 net.cpp:425] inception_4e/relu_5x5 <- inception_4e/5x5
I0403 15:34:10.866055 12091 net.cpp:386] inception_4e/relu_5x5 -> inception_4e/5x5 (in-place)
I0403 15:34:10.866248 12091 net.cpp:141] Setting up inception_4e/relu_5x5
I0403 15:34:10.866272 12091 net.cpp:148] Top shape: 24 128 14 14 (602112)
I0403 15:34:10.866286 12091 net.cpp:156] Memory required for data: 1242150432
I0403 15:34:10.866300 12091 layer_factory.hpp:77] Creating layer inception_4e/pool
I0403 15:34:10.866322 12091 net.cpp:91] Creating Layer inception_4e/pool
I0403 15:34:10.866338 12091 net.cpp:425] inception_4e/pool <- inception_4d/output_inception_4d/output_0_split_4
I0403 15:34:10.866358 12091 net.cpp:399] inception_4e/pool -> inception_4e/pool
I0403 15:34:10.866426 12091 net.cpp:141] Setting up inception_4e/pool
I0403 15:34:10.866449 12091 net.cpp:148] Top shape: 24 528 14 14 (2483712)
I0403 15:34:10.866463 12091 net.cpp:156] Memory required for data: 1252085280
I0403 15:34:10.866477 12091 layer_factory.hpp:77] Creating layer inception_4e/pool_proj
I0403 15:34:10.866500 12091 net.cpp:91] Creating Layer inception_4e/pool_proj
I0403 15:34:10.866518 12091 net.cpp:425] inception_4e/pool_proj <- inception_4e/pool
I0403 15:34:10.866535 12091 net.cpp:399] inception_4e/pool_proj -> inception_4e/pool_proj
I0403 15:34:10.868001 12091 net.cpp:141] Setting up inception_4e/pool_proj
I0403 15:34:10.868042 12091 net.cpp:148] Top shape: 24 128 14 14 (602112)
I0403 15:34:10.868060 12091 net.cpp:156] Memory required for data: 1254493728
I0403 15:34:10.868078 12091 layer_factory.hpp:77] Creating layer inception_4e/relu_pool_proj
I0403 15:34:10.868096 12091 net.cpp:91] Creating Layer inception_4e/relu_pool_proj
I0403 15:34:10.868113 12091 net.cpp:425] inception_4e/relu_pool_proj <- inception_4e/pool_proj
I0403 15:34:10.868131 12091 net.cpp:386] inception_4e/relu_pool_proj -> inception_4e/pool_proj (in-place)
I0403 15:34:10.868423 12091 net.cpp:141] Setting up inception_4e/relu_pool_proj
I0403 15:34:10.868450 12091 net.cpp:148] Top shape: 24 128 14 14 (602112)
I0403 15:34:10.868466 12091 net.cpp:156] Memory required for data: 1256902176
I0403 15:34:10.868480 12091 layer_factory.hpp:77] Creating layer inception_4e/output
I0403 15:34:10.868497 12091 net.cpp:91] Creating Layer inception_4e/output
I0403 15:34:10.868512 12091 net.cpp:425] inception_4e/output <- inception_4e/1x1
I0403 15:34:10.868528 12091 net.cpp:425] inception_4e/output <- inception_4e/3x3
I0403 15:34:10.868543 12091 net.cpp:425] inception_4e/output <- inception_4e/5x5
I0403 15:34:10.868558 12091 net.cpp:425] inception_4e/output <- inception_4e/pool_proj
I0403 15:34:10.868577 12091 net.cpp:399] inception_4e/output -> inception_4e/output
I0403 15:34:10.868628 12091 net.cpp:141] Setting up inception_4e/output
I0403 15:34:10.868650 12091 net.cpp:148] Top shape: 24 832 14 14 (3913728)
I0403 15:34:10.868664 12091 net.cpp:156] Memory required for data: 1272557088
I0403 15:34:10.868679 12091 layer_factory.hpp:77] Creating layer pool4/3x3_s2
I0403 15:34:10.868697 12091 net.cpp:91] Creating Layer pool4/3x3_s2
I0403 15:34:10.868713 12091 net.cpp:425] pool4/3x3_s2 <- inception_4e/output
I0403 15:34:10.868731 12091 net.cpp:399] pool4/3x3_s2 -> pool4/3x3_s2
I0403 15:34:10.868799 12091 net.cpp:141] Setting up pool4/3x3_s2
I0403 15:34:10.868823 12091 net.cpp:148] Top shape: 24 832 7 7 (978432)
I0403 15:34:10.868836 12091 net.cpp:156] Memory required for data: 1276470816
I0403 15:34:10.868850 12091 layer_factory.hpp:77] Creating layer pool4/3x3_s2_pool4/3x3_s2_0_split
I0403 15:34:10.868866 12091 net.cpp:91] Creating Layer pool4/3x3_s2_pool4/3x3_s2_0_split
I0403 15:34:10.868881 12091 net.cpp:425] pool4/3x3_s2_pool4/3x3_s2_0_split <- pool4/3x3_s2
I0403 15:34:10.868901 12091 net.cpp:399] pool4/3x3_s2_pool4/3x3_s2_0_split -> pool4/3x3_s2_pool4/3x3_s2_0_split_0
I0403 15:34:10.868921 12091 net.cpp:399] pool4/3x3_s2_pool4/3x3_s2_0_split -> pool4/3x3_s2_pool4/3x3_s2_0_split_1
I0403 15:34:10.868939 12091 net.cpp:399] pool4/3x3_s2_pool4/3x3_s2_0_split -> pool4/3x3_s2_pool4/3x3_s2_0_split_2
I0403 15:34:10.868958 12091 net.cpp:399] pool4/3x3_s2_pool4/3x3_s2_0_split -> pool4/3x3_s2_pool4/3x3_s2_0_split_3
I0403 15:34:10.869045 12091 net.cpp:141] Setting up pool4/3x3_s2_pool4/3x3_s2_0_split
I0403 15:34:10.869071 12091 net.cpp:148] Top shape: 24 832 7 7 (978432)
I0403 15:34:10.869087 12091 net.cpp:148] Top shape: 24 832 7 7 (978432)
I0403 15:34:10.869102 12091 net.cpp:148] Top shape: 24 832 7 7 (978432)
I0403 15:34:10.869117 12091 net.cpp:148] Top shape: 24 832 7 7 (978432)
I0403 15:34:10.869130 12091 net.cpp:156] Memory required for data: 1292125728
I0403 15:34:10.869144 12091 layer_factory.hpp:77] Creating layer inception_5a/1x1
I0403 15:34:10.869165 12091 net.cpp:91] Creating Layer inception_5a/1x1
I0403 15:34:10.869182 12091 net.cpp:425] inception_5a/1x1 <- pool4/3x3_s2_pool4/3x3_s2_0_split_0
I0403 15:34:10.869204 12091 net.cpp:399] inception_5a/1x1 -> inception_5a/1x1
I0403 15:34:10.871992 12091 net.cpp:141] Setting up inception_5a/1x1
I0403 15:34:10.872021 12091 net.cpp:148] Top shape: 24 256 7 7 (301056)
I0403 15:34:10.872038 12091 net.cpp:156] Memory required for data: 1293329952
I0403 15:34:10.872056 12091 layer_factory.hpp:77] Creating layer inception_5a/relu_1x1
I0403 15:34:10.872072 12091 net.cpp:91] Creating Layer inception_5a/relu_1x1
I0403 15:34:10.872088 12091 net.cpp:425] inception_5a/relu_1x1 <- inception_5a/1x1
I0403 15:34:10.872108 12091 net.cpp:386] inception_5a/relu_1x1 -> inception_5a/1x1 (in-place)
I0403 15:34:10.872426 12091 net.cpp:141] Setting up inception_5a/relu_1x1
I0403 15:34:10.872450 12091 net.cpp:148] Top shape: 24 256 7 7 (301056)
I0403 15:34:10.872465 12091 net.cpp:156] Memory required for data: 1294534176
I0403 15:34:10.872479 12091 layer_factory.hpp:77] Creating layer inception_5a/3x3_reduce
I0403 15:34:10.872501 12091 net.cpp:91] Creating Layer inception_5a/3x3_reduce
I0403 15:34:10.872519 12091 net.cpp:425] inception_5a/3x3_reduce <- pool4/3x3_s2_pool4/3x3_s2_0_split_1
I0403 15:34:10.872539 12091 net.cpp:399] inception_5a/3x3_reduce -> inception_5a/3x3_reduce
I0403 15:34:10.874948 12091 net.cpp:141] Setting up inception_5a/3x3_reduce
I0403 15:34:10.874977 12091 net.cpp:148] Top shape: 24 160 7 7 (188160)
I0403 15:34:10.874994 12091 net.cpp:156] Memory required for data: 1295286816
I0403 15:34:10.875011 12091 layer_factory.hpp:77] Creating layer inception_5a/relu_3x3_reduce
I0403 15:34:10.875031 12091 net.cpp:91] Creating Layer inception_5a/relu_3x3_reduce
I0403 15:34:10.875048 12091 net.cpp:425] inception_5a/relu_3x3_reduce <- inception_5a/3x3_reduce
I0403 15:34:10.875066 12091 net.cpp:386] inception_5a/relu_3x3_reduce -> inception_5a/3x3_reduce (in-place)
I0403 15:34:10.875250 12091 net.cpp:141] Setting up inception_5a/relu_3x3_reduce
I0403 15:34:10.875274 12091 net.cpp:148] Top shape: 24 160 7 7 (188160)
I0403 15:34:10.875288 12091 net.cpp:156] Memory required for data: 1296039456
I0403 15:34:10.875303 12091 layer_factory.hpp:77] Creating layer inception_5a/3x3
I0403 15:34:10.875329 12091 net.cpp:91] Creating Layer inception_5a/3x3
I0403 15:34:10.875346 12091 net.cpp:425] inception_5a/3x3 <- inception_5a/3x3_reduce
I0403 15:34:10.875367 12091 net.cpp:399] inception_5a/3x3 -> inception_5a/3x3
I0403 15:34:10.880278 12091 net.cpp:141] Setting up inception_5a/3x3
I0403 15:34:10.880311 12091 net.cpp:148] Top shape: 24 320 7 7 (376320)
I0403 15:34:10.880331 12091 net.cpp:156] Memory required for data: 1297544736
I0403 15:34:10.880352 12091 layer_factory.hpp:77] Creating layer inception_5a/relu_3x3
I0403 15:34:10.880370 12091 net.cpp:91] Creating Layer inception_5a/relu_3x3
I0403 15:34:10.880386 12091 net.cpp:425] inception_5a/relu_3x3 <- inception_5a/3x3
I0403 15:34:10.880408 12091 net.cpp:386] inception_5a/relu_3x3 -> inception_5a/3x3 (in-place)
I0403 15:34:10.880712 12091 net.cpp:141] Setting up inception_5a/relu_3x3
I0403 15:34:10.880741 12091 net.cpp:148] Top shape: 24 320 7 7 (376320)
I0403 15:34:10.880758 12091 net.cpp:156] Memory required for data: 1299050016
I0403 15:34:10.880774 12091 layer_factory.hpp:77] Creating layer inception_5a/5x5_reduce
I0403 15:34:10.880797 12091 net.cpp:91] Creating Layer inception_5a/5x5_reduce
I0403 15:34:10.880815 12091 net.cpp:425] inception_5a/5x5_reduce <- pool4/3x3_s2_pool4/3x3_s2_0_split_2
I0403 15:34:10.880834 12091 net.cpp:399] inception_5a/5x5_reduce -> inception_5a/5x5_reduce
I0403 15:34:10.881986 12091 net.cpp:141] Setting up inception_5a/5x5_reduce
I0403 15:34:10.882016 12091 net.cpp:148] Top shape: 24 32 7 7 (37632)
I0403 15:34:10.882032 12091 net.cpp:156] Memory required for data: 1299200544
I0403 15:34:10.882050 12091 layer_factory.hpp:77] Creating layer inception_5a/relu_5x5_reduce
I0403 15:34:10.882069 12091 net.cpp:91] Creating Layer inception_5a/relu_5x5_reduce
I0403 15:34:10.882086 12091 net.cpp:425] inception_5a/relu_5x5_reduce <- inception_5a/5x5_reduce
I0403 15:34:10.882107 12091 net.cpp:386] inception_5a/relu_5x5_reduce -> inception_5a/5x5_reduce (in-place)
I0403 15:34:10.882407 12091 net.cpp:141] Setting up inception_5a/relu_5x5_reduce
I0403 15:34:10.882432 12091 net.cpp:148] Top shape: 24 32 7 7 (37632)
I0403 15:34:10.882447 12091 net.cpp:156] Memory required for data: 1299351072
I0403 15:34:10.882462 12091 layer_factory.hpp:77] Creating layer inception_5a/5x5
I0403 15:34:10.882483 12091 net.cpp:91] Creating Layer inception_5a/5x5
I0403 15:34:10.882500 12091 net.cpp:425] inception_5a/5x5 <- inception_5a/5x5_reduce
I0403 15:34:10.882521 12091 net.cpp:399] inception_5a/5x5 -> inception_5a/5x5
I0403 15:34:10.884243 12091 net.cpp:141] Setting up inception_5a/5x5
I0403 15:34:10.884284 12091 net.cpp:148] Top shape: 24 128 7 7 (150528)
I0403 15:34:10.884300 12091 net.cpp:156] Memory required for data: 1299953184
I0403 15:34:10.884323 12091 layer_factory.hpp:77] Creating layer inception_5a/relu_5x5
I0403 15:34:10.884342 12091 net.cpp:91] Creating Layer inception_5a/relu_5x5
I0403 15:34:10.884361 12091 net.cpp:425] inception_5a/relu_5x5 <- inception_5a/5x5
I0403 15:34:10.884380 12091 net.cpp:386] inception_5a/relu_5x5 -> inception_5a/5x5 (in-place)
I0403 15:34:10.884570 12091 net.cpp:141] Setting up inception_5a/relu_5x5
I0403 15:34:10.884594 12091 net.cpp:148] Top shape: 24 128 7 7 (150528)
I0403 15:34:10.884610 12091 net.cpp:156] Memory required for data: 1300555296
I0403 15:34:10.884625 12091 layer_factory.hpp:77] Creating layer inception_5a/pool
I0403 15:34:10.884644 12091 net.cpp:91] Creating Layer inception_5a/pool
I0403 15:34:10.884660 12091 net.cpp:425] inception_5a/pool <- pool4/3x3_s2_pool4/3x3_s2_0_split_3
I0403 15:34:10.884680 12091 net.cpp:399] inception_5a/pool -> inception_5a/pool
I0403 15:34:10.884749 12091 net.cpp:141] Setting up inception_5a/pool
I0403 15:34:10.884773 12091 net.cpp:148] Top shape: 24 832 7 7 (978432)
I0403 15:34:10.884788 12091 net.cpp:156] Memory required for data: 1304469024
I0403 15:34:10.884802 12091 layer_factory.hpp:77] Creating layer inception_5a/pool_proj
I0403 15:34:10.884825 12091 net.cpp:91] Creating Layer inception_5a/pool_proj
I0403 15:34:10.884842 12091 net.cpp:425] inception_5a/pool_proj <- inception_5a/pool
I0403 15:34:10.884863 12091 net.cpp:399] inception_5a/pool_proj -> inception_5a/pool_proj
I0403 15:34:10.887135 12091 net.cpp:141] Setting up inception_5a/pool_proj
I0403 15:34:10.887166 12091 net.cpp:148] Top shape: 24 128 7 7 (150528)
I0403 15:34:10.887183 12091 net.cpp:156] Memory required for data: 1305071136
I0403 15:34:10.887202 12091 layer_factory.hpp:77] Creating layer inception_5a/relu_pool_proj
I0403 15:34:10.887219 12091 net.cpp:91] Creating Layer inception_5a/relu_pool_proj
I0403 15:34:10.887236 12091 net.cpp:425] inception_5a/relu_pool_proj <- inception_5a/pool_proj
I0403 15:34:10.887253 12091 net.cpp:386] inception_5a/relu_pool_proj -> inception_5a/pool_proj (in-place)
I0403 15:34:10.887549 12091 net.cpp:141] Setting up inception_5a/relu_pool_proj
I0403 15:34:10.887578 12091 net.cpp:148] Top shape: 24 128 7 7 (150528)
I0403 15:34:10.887594 12091 net.cpp:156] Memory required for data: 1305673248
I0403 15:34:10.887609 12091 layer_factory.hpp:77] Creating layer inception_5a/output
I0403 15:34:10.887626 12091 net.cpp:91] Creating Layer inception_5a/output
I0403 15:34:10.887641 12091 net.cpp:425] inception_5a/output <- inception_5a/1x1
I0403 15:34:10.887657 12091 net.cpp:425] inception_5a/output <- inception_5a/3x3
I0403 15:34:10.887672 12091 net.cpp:425] inception_5a/output <- inception_5a/5x5
I0403 15:34:10.887688 12091 net.cpp:425] inception_5a/output <- inception_5a/pool_proj
I0403 15:34:10.887706 12091 net.cpp:399] inception_5a/output -> inception_5a/output
I0403 15:34:10.887754 12091 net.cpp:141] Setting up inception_5a/output
I0403 15:34:10.887778 12091 net.cpp:148] Top shape: 24 832 7 7 (978432)
I0403 15:34:10.887791 12091 net.cpp:156] Memory required for data: 1309586976
I0403 15:34:10.887805 12091 layer_factory.hpp:77] Creating layer inception_5a/output_inception_5a/output_0_split
I0403 15:34:10.887825 12091 net.cpp:91] Creating Layer inception_5a/output_inception_5a/output_0_split
I0403 15:34:10.887841 12091 net.cpp:425] inception_5a/output_inception_5a/output_0_split <- inception_5a/output
I0403 15:34:10.887858 12091 net.cpp:399] inception_5a/output_inception_5a/output_0_split -> inception_5a/output_inception_5a/output_0_split_0
I0403 15:34:10.887878 12091 net.cpp:399] inception_5a/output_inception_5a/output_0_split -> inception_5a/output_inception_5a/output_0_split_1
I0403 15:34:10.887897 12091 net.cpp:399] inception_5a/output_inception_5a/output_0_split -> inception_5a/output_inception_5a/output_0_split_2
I0403 15:34:10.887917 12091 net.cpp:399] inception_5a/output_inception_5a/output_0_split -> inception_5a/output_inception_5a/output_0_split_3
I0403 15:34:10.888025 12091 net.cpp:141] Setting up inception_5a/output_inception_5a/output_0_split
I0403 15:34:10.888048 12091 net.cpp:148] Top shape: 24 832 7 7 (978432)
I0403 15:34:10.888064 12091 net.cpp:148] Top shape: 24 832 7 7 (978432)
I0403 15:34:10.888079 12091 net.cpp:148] Top shape: 24 832 7 7 (978432)
I0403 15:34:10.888094 12091 net.cpp:148] Top shape: 24 832 7 7 (978432)
I0403 15:34:10.888108 12091 net.cpp:156] Memory required for data: 1325241888
I0403 15:34:10.888123 12091 layer_factory.hpp:77] Creating layer inception_5b/1x1
I0403 15:34:10.888144 12091 net.cpp:91] Creating Layer inception_5b/1x1
I0403 15:34:10.888160 12091 net.cpp:425] inception_5b/1x1 <- inception_5a/output_inception_5a/output_0_split_0
I0403 15:34:10.888181 12091 net.cpp:399] inception_5b/1x1 -> inception_5b/1x1
I0403 15:34:10.891873 12091 net.cpp:141] Setting up inception_5b/1x1
I0403 15:34:10.891904 12091 net.cpp:148] Top shape: 24 384 7 7 (451584)
I0403 15:34:10.891921 12091 net.cpp:156] Memory required for data: 1327048224
I0403 15:34:10.891938 12091 layer_factory.hpp:77] Creating layer inception_5b/relu_1x1
I0403 15:34:10.891959 12091 net.cpp:91] Creating Layer inception_5b/relu_1x1
I0403 15:34:10.891976 12091 net.cpp:425] inception_5b/relu_1x1 <- inception_5b/1x1
I0403 15:34:10.891993 12091 net.cpp:386] inception_5b/relu_1x1 -> inception_5b/1x1 (in-place)
I0403 15:34:10.892295 12091 net.cpp:141] Setting up inception_5b/relu_1x1
I0403 15:34:10.892338 12091 net.cpp:148] Top shape: 24 384 7 7 (451584)
I0403 15:34:10.892354 12091 net.cpp:156] Memory required for data: 1328854560
I0403 15:34:10.892369 12091 layer_factory.hpp:77] Creating layer inception_5b/3x3_reduce
I0403 15:34:10.892393 12091 net.cpp:91] Creating Layer inception_5b/3x3_reduce
I0403 15:34:10.892411 12091 net.cpp:425] inception_5b/3x3_reduce <- inception_5a/output_inception_5a/output_0_split_1
I0403 15:34:10.892431 12091 net.cpp:399] inception_5b/3x3_reduce -> inception_5b/3x3_reduce
I0403 15:34:10.895153 12091 net.cpp:141] Setting up inception_5b/3x3_reduce
I0403 15:34:10.895185 12091 net.cpp:148] Top shape: 24 192 7 7 (225792)
I0403 15:34:10.895202 12091 net.cpp:156] Memory required for data: 1329757728
I0403 15:34:10.895221 12091 layer_factory.hpp:77] Creating layer inception_5b/relu_3x3_reduce
I0403 15:34:10.895239 12091 net.cpp:91] Creating Layer inception_5b/relu_3x3_reduce
I0403 15:34:10.895254 12091 net.cpp:425] inception_5b/relu_3x3_reduce <- inception_5b/3x3_reduce
I0403 15:34:10.895272 12091 net.cpp:386] inception_5b/relu_3x3_reduce -> inception_5b/3x3_reduce (in-place)
I0403 15:34:10.895473 12091 net.cpp:141] Setting up inception_5b/relu_3x3_reduce
I0403 15:34:10.895498 12091 net.cpp:148] Top shape: 24 192 7 7 (225792)
I0403 15:34:10.895512 12091 net.cpp:156] Memory required for data: 1330660896
I0403 15:34:10.895527 12091 layer_factory.hpp:77] Creating layer inception_5b/3x3
I0403 15:34:10.895550 12091 net.cpp:91] Creating Layer inception_5b/3x3
I0403 15:34:10.895567 12091 net.cpp:425] inception_5b/3x3 <- inception_5b/3x3_reduce
I0403 15:34:10.895591 12091 net.cpp:399] inception_5b/3x3 -> inception_5b/3x3
I0403 15:34:10.902338 12091 net.cpp:141] Setting up inception_5b/3x3
I0403 15:34:10.902374 12091 net.cpp:148] Top shape: 24 384 7 7 (451584)
I0403 15:34:10.902393 12091 net.cpp:156] Memory required for data: 1332467232
I0403 15:34:10.902412 12091 layer_factory.hpp:77] Creating layer inception_5b/relu_3x3
I0403 15:34:10.902432 12091 net.cpp:91] Creating Layer inception_5b/relu_3x3
I0403 15:34:10.902451 12091 net.cpp:425] inception_5b/relu_3x3 <- inception_5b/3x3
I0403 15:34:10.902469 12091 net.cpp:386] inception_5b/relu_3x3 -> inception_5b/3x3 (in-place)
I0403 15:34:10.902777 12091 net.cpp:141] Setting up inception_5b/relu_3x3
I0403 15:34:10.902807 12091 net.cpp:148] Top shape: 24 384 7 7 (451584)
I0403 15:34:10.902824 12091 net.cpp:156] Memory required for data: 1334273568
I0403 15:34:10.902839 12091 layer_factory.hpp:77] Creating layer inception_5b/5x5_reduce
I0403 15:34:10.902878 12091 net.cpp:91] Creating Layer inception_5b/5x5_reduce
I0403 15:34:10.902897 12091 net.cpp:425] inception_5b/5x5_reduce <- inception_5a/output_inception_5a/output_0_split_2
I0403 15:34:10.902917 12091 net.cpp:399] inception_5b/5x5_reduce -> inception_5b/5x5_reduce
I0403 15:34:10.904289 12091 net.cpp:141] Setting up inception_5b/5x5_reduce
I0403 15:34:10.904322 12091 net.cpp:148] Top shape: 24 48 7 7 (56448)
I0403 15:34:10.904340 12091 net.cpp:156] Memory required for data: 1334499360
I0403 15:34:10.904357 12091 layer_factory.hpp:77] Creating layer inception_5b/relu_5x5_reduce
I0403 15:34:10.904376 12091 net.cpp:91] Creating Layer inception_5b/relu_5x5_reduce
I0403 15:34:10.904392 12091 net.cpp:425] inception_5b/relu_5x5_reduce <- inception_5b/5x5_reduce
I0403 15:34:10.904412 12091 net.cpp:386] inception_5b/relu_5x5_reduce -> inception_5b/5x5_reduce (in-place)
I0403 15:34:10.904793 12091 net.cpp:141] Setting up inception_5b/relu_5x5_reduce
I0403 15:34:10.904819 12091 net.cpp:148] Top shape: 24 48 7 7 (56448)
I0403 15:34:10.904834 12091 net.cpp:156] Memory required for data: 1334725152
I0403 15:34:10.904850 12091 layer_factory.hpp:77] Creating layer inception_5b/5x5
I0403 15:34:10.904870 12091 net.cpp:91] Creating Layer inception_5b/5x5
I0403 15:34:10.904886 12091 net.cpp:425] inception_5b/5x5 <- inception_5b/5x5_reduce
I0403 15:34:10.904904 12091 net.cpp:399] inception_5b/5x5 -> inception_5b/5x5
I0403 15:34:10.906997 12091 net.cpp:141] Setting up inception_5b/5x5
I0403 15:34:10.907028 12091 net.cpp:148] Top shape: 24 128 7 7 (150528)
I0403 15:34:10.907044 12091 net.cpp:156] Memory required for data: 1335327264
I0403 15:34:10.907063 12091 layer_factory.hpp:77] Creating layer inception_5b/relu_5x5
I0403 15:34:10.907081 12091 net.cpp:91] Creating Layer inception_5b/relu_5x5
I0403 15:34:10.907099 12091 net.cpp:425] inception_5b/relu_5x5 <- inception_5b/5x5
I0403 15:34:10.907119 12091 net.cpp:386] inception_5b/relu_5x5 -> inception_5b/5x5 (in-place)
I0403 15:34:10.907325 12091 net.cpp:141] Setting up inception_5b/relu_5x5
I0403 15:34:10.907351 12091 net.cpp:148] Top shape: 24 128 7 7 (150528)
I0403 15:34:10.907367 12091 net.cpp:156] Memory required for data: 1335929376
I0403 15:34:10.907382 12091 layer_factory.hpp:77] Creating layer inception_5b/pool
I0403 15:34:10.907402 12091 net.cpp:91] Creating Layer inception_5b/pool
I0403 15:34:10.907420 12091 net.cpp:425] inception_5b/pool <- inception_5a/output_inception_5a/output_0_split_3
I0403 15:34:10.907439 12091 net.cpp:399] inception_5b/pool -> inception_5b/pool
I0403 15:34:10.907513 12091 net.cpp:141] Setting up inception_5b/pool
I0403 15:34:10.907539 12091 net.cpp:148] Top shape: 24 832 7 7 (978432)
I0403 15:34:10.907554 12091 net.cpp:156] Memory required for data: 1339843104
I0403 15:34:10.907569 12091 layer_factory.hpp:77] Creating layer inception_5b/pool_proj
I0403 15:34:10.907593 12091 net.cpp:91] Creating Layer inception_5b/pool_proj
I0403 15:34:10.907610 12091 net.cpp:425] inception_5b/pool_proj <- inception_5b/pool
I0403 15:34:10.907632 12091 net.cpp:399] inception_5b/pool_proj -> inception_5b/pool_proj
I0403 15:34:10.909966 12091 net.cpp:141] Setting up inception_5b/pool_proj
I0403 15:34:10.910001 12091 net.cpp:148] Top shape: 24 128 7 7 (150528)
I0403 15:34:10.910020 12091 net.cpp:156] Memory required for data: 1340445216
I0403 15:34:10.910040 12091 layer_factory.hpp:77] Creating layer inception_5b/relu_pool_proj
I0403 15:34:10.910058 12091 net.cpp:91] Creating Layer inception_5b/relu_pool_proj
I0403 15:34:10.910075 12091 net.cpp:425] inception_5b/relu_pool_proj <- inception_5b/pool_proj
I0403 15:34:10.910095 12091 net.cpp:386] inception_5b/relu_pool_proj -> inception_5b/pool_proj (in-place)
I0403 15:34:10.910405 12091 net.cpp:141] Setting up inception_5b/relu_pool_proj
I0403 15:34:10.910435 12091 net.cpp:148] Top shape: 24 128 7 7 (150528)
I0403 15:34:10.910454 12091 net.cpp:156] Memory required for data: 1341047328
I0403 15:34:10.910468 12091 layer_factory.hpp:77] Creating layer inception_5b/output
I0403 15:34:10.910487 12091 net.cpp:91] Creating Layer inception_5b/output
I0403 15:34:10.910519 12091 net.cpp:425] inception_5b/output <- inception_5b/1x1
I0403 15:34:10.910538 12091 net.cpp:425] inception_5b/output <- inception_5b/3x3
I0403 15:34:10.910557 12091 net.cpp:425] inception_5b/output <- inception_5b/5x5
I0403 15:34:10.910573 12091 net.cpp:425] inception_5b/output <- inception_5b/pool_proj
I0403 15:34:10.910600 12091 net.cpp:399] inception_5b/output -> inception_5b/output
I0403 15:34:10.910652 12091 net.cpp:141] Setting up inception_5b/output
I0403 15:34:10.910677 12091 net.cpp:148] Top shape: 24 1024 7 7 (1204224)
I0403 15:34:10.910692 12091 net.cpp:156] Memory required for data: 1345864224
I0403 15:34:10.910708 12091 layer_factory.hpp:77] Creating layer pool5/7x7_s1
I0403 15:34:10.910729 12091 net.cpp:91] Creating Layer pool5/7x7_s1
I0403 15:34:10.910747 12091 net.cpp:425] pool5/7x7_s1 <- inception_5b/output
I0403 15:34:10.910765 12091 net.cpp:399] pool5/7x7_s1 -> pool5/7x7_s1
I0403 15:34:10.910982 12091 net.cpp:141] Setting up pool5/7x7_s1
I0403 15:34:10.911010 12091 net.cpp:148] Top shape: 24 1024 1 1 (24576)
I0403 15:34:10.911026 12091 net.cpp:156] Memory required for data: 1345962528
I0403 15:34:10.911041 12091 layer_factory.hpp:77] Creating layer pool5/drop_7x7_s1
I0403 15:34:10.911058 12091 net.cpp:91] Creating Layer pool5/drop_7x7_s1
I0403 15:34:10.911074 12091 net.cpp:425] pool5/drop_7x7_s1 <- pool5/7x7_s1
I0403 15:34:10.911094 12091 net.cpp:386] pool5/drop_7x7_s1 -> pool5/7x7_s1 (in-place)
I0403 15:34:10.911144 12091 net.cpp:141] Setting up pool5/drop_7x7_s1
I0403 15:34:10.911167 12091 net.cpp:148] Top shape: 24 1024 1 1 (24576)
I0403 15:34:10.911181 12091 net.cpp:156] Memory required for data: 1346060832
I0403 15:34:10.911196 12091 layer_factory.hpp:77] Creating layer loss3/classifier_plantvillage
I0403 15:34:10.911217 12091 net.cpp:91] Creating Layer loss3/classifier_plantvillage
I0403 15:34:10.911234 12091 net.cpp:425] loss3/classifier_plantvillage <- pool5/7x7_s1
I0403 15:34:10.911255 12091 net.cpp:399] loss3/classifier_plantvillage -> loss3/classifier_plantvillage
I0403 15:34:10.911723 12091 net.cpp:141] Setting up loss3/classifier_plantvillage
I0403 15:34:10.911747 12091 net.cpp:148] Top shape: 24 38 (912)
I0403 15:34:10.911762 12091 net.cpp:156] Memory required for data: 1346064480
I0403 15:34:10.911780 12091 layer_factory.hpp:77] Creating layer loss3/classifier_plantvillage_loss3/classifier_plantvillage_0_split
I0403 15:34:10.911801 12091 net.cpp:91] Creating Layer loss3/classifier_plantvillage_loss3/classifier_plantvillage_0_split
I0403 15:34:10.911818 12091 net.cpp:425] loss3/classifier_plantvillage_loss3/classifier_plantvillage_0_split <- loss3/classifier_plantvillage
I0403 15:34:10.911835 12091 net.cpp:399] loss3/classifier_plantvillage_loss3/classifier_plantvillage_0_split -> loss3/classifier_plantvillage_loss3/classifier_plantvillage_0_split_0
I0403 15:34:10.911855 12091 net.cpp:399] loss3/classifier_plantvillage_loss3/classifier_plantvillage_0_split -> loss3/classifier_plantvillage_loss3/classifier_plantvillage_0_split_1
I0403 15:34:10.911875 12091 net.cpp:399] loss3/classifier_plantvillage_loss3/classifier_plantvillage_0_split -> loss3/classifier_plantvillage_loss3/classifier_plantvillage_0_split_2
I0403 15:34:10.911895 12091 net.cpp:399] loss3/classifier_plantvillage_loss3/classifier_plantvillage_0_split -> loss3/classifier_plantvillage_loss3/classifier_plantvillage_0_split_3
I0403 15:34:10.911994 12091 net.cpp:141] Setting up loss3/classifier_plantvillage_loss3/classifier_plantvillage_0_split
I0403 15:34:10.912017 12091 net.cpp:148] Top shape: 24 38 (912)
I0403 15:34:10.912034 12091 net.cpp:148] Top shape: 24 38 (912)
I0403 15:34:10.912050 12091 net.cpp:148] Top shape: 24 38 (912)
I0403 15:34:10.912065 12091 net.cpp:148] Top shape: 24 38 (912)
I0403 15:34:10.912078 12091 net.cpp:156] Memory required for data: 1346079072
I0403 15:34:10.912093 12091 layer_factory.hpp:77] Creating layer loss1/loss
I0403 15:34:10.912114 12091 net.cpp:91] Creating Layer loss1/loss
I0403 15:34:10.912132 12091 net.cpp:425] loss1/loss <- loss1/classifier_plantvillage_loss1/classifier_plantvillage_0_split_0
I0403 15:34:10.912163 12091 net.cpp:425] loss1/loss <- label_data_1_split_0
…
