…
I0403 15:23:59.553522 11913 net.cpp:313] The NetState phase (1) differed from the phase (0) specified by a rule in layer data
I0403 15:23:59.554636 11913 net.cpp:49] Initializing net from parameters: 
state {
  phase: TEST
}
layer {
  name: "data"
  type: "Data"
  top: "data"
  top: "label"
  include {
    phase: TEST
  }
  transform_param {
    mirror: false
    crop_size: 224
    mean_file: "/home/mohanty/data/final_dataset/lmdb/segmented-40-60/mean.binaryproto"
  }
  data_param {
    source: "/home/mohanty/data/final_dataset/lmdb/segmented-40-60/test_db"
    batch_size: 24
    backend: LMDB
  }
}
layer {
  name: "conv1/7x7_s2"
  type: "Convolution"
  bottom: "data"
  top: "conv1/7x7_s2"
  param {
    lr_mult: 1
    decay_mult: 1
  }
  param {
    lr_mult: 2
    decay_mult: 0
  }
  convolution_param {
    num_output: 64
    pad: 3
    kernel_size: 7
    stride: 2
    weight_filler {
      type: "xavier"
      std: 0.1
    }
    bias_filler {
      type: "constant"
      value: 0.2
    }
  }
}
layer {
  name: "conv1/relu_7x7"
  type: "ReLU"
  bottom: "conv1/7x7_s2"
  top: "conv1/7x7_s2"
}
layer {
  name: "pool1/3x3_s2"
  type: "Pooling"
  bottom: "conv1/7x7_s2"
  top: "pool1/3x3_s2"
  pooling_param {
    pool: MAX
    kernel_size: 3
    stride: 2
  }
}
layer {
  name: "pool1/norm1"
  type: "LRN"
  bottom: "pool1/3x3_s2"
  top: "pool1/norm1"
  lrn_param {
    local_size: 5
    alpha: 0.0001
    beta: 0.75
  }
}
layer {
  name: "conv2/3x3_reduce"
  type: "Convolution"
  bottom: "pool1/norm1"
  top: "conv2/3x3_reduce"
  param {
    lr_mult: 1
    decay_mult: 1
  }
  param {
    lr_mult: 2
    decay_mult: 0
  }
  convolution_param {
    num_output: 64
    kernel_size: 1
    weight_filler {
      type: "xavier"
      std: 0.1
    }
    bias_filler {
      type: "constant"
      value: 0.2
    }
  }
}
layer {
  name: "conv2/relu_3x3_reduce"
  type: "ReLU"
  bottom: "conv2/3x3_reduce"
  top: "conv2/3x3_reduce"
}
layer {
  name: "conv2/3x3"
  type: "Convolution"
  bottom: "conv2/3x3_reduce"
  top: "conv2/3x3"
  param {
    lr_mult: 1
    decay_mult: 1
  }
  param {
    lr_mult: 2
    decay_mult: 0
  }
  convolution_param {
    num_output: 192
    pad: 1
    kernel_size: 3
    weight_filler {
      type: "xavier"
      std: 0.03
    }
    bias_filler {
      type: "constant"
      value: 0.2
    }
  }
}
layer {
  name: "conv2/relu_3x3"
  type: "ReLU"
  bottom: "conv2/3x3"
  top: "conv2/3x3"
}
layer {
  name: "conv2/norm2"
  type: "LRN"
  bottom: "conv2/3x3"
  top: "conv2/norm2"
  lrn_param {
    local_size: 5
    alpha: 0.0001
    beta: 0.75
  }
}
layer {
  name: "pool2/3x3_s2"
  type: "Pooling"
  bottom: "conv2/norm2"
  top: "pool2/3x3_s2"
  pooling_param {
    pool: MAX
    kernel_size: 3
    stride: 2
  }
}
layer {
  name: "inception_3a/1x1"
  type: "Convolution"
  bottom: "pool2/3x3_s2"
  top: "inception_3a/1x1"
  param {
    lr_mult: 1
    decay_mult: 1
  }
  param {
    lr_mult: 2
    decay_mult: 0
  }
  convolution_param {
    num_output: 64
    kernel_size: 1
    weight_filler {
      type: "xavier"
      std: 0.03
    }
    bias_filler {
      type: "constant"
      value: 0.2
    }
  }
}
layer {
  name: "inception_3a/relu_1x1"
  type: "ReLU"
  bottom: "inception_3a/1x1"
  top: "inception_3a/1x1"
}
layer {
  name: "inception_3a/3x3_reduce"
  type: "Convolution"
  bottom: "pool2/3x3_s2"
  top: "inception_3a/3x3_reduce"
  param {
    lr_mult: 1
    decay_mult: 1
  }
  param {
    lr_mult: 2
    decay_mult: 0
  }
  convolution_param {
    num_output: 96
    kernel_size: 1
    weight_filler {
      type: "xavier"
      std: 0.09
    }
    bias_filler {
      type: "constant"
      value: 0.2
    }
  }
}
layer {
  name: "inception_3a/relu_3x3_reduce"
  type: "ReLU"
  bottom: "inception_3a/3x3_reduce"
  top: "inception_3a/3x3_reduce"
}
layer {
  name: "inception_3a/3x3"
  type: "Convolution"
  bottom: "inception_3a/3x3_reduce"
  top: "inception_3a/3x3"
  param {
    lr_mult: 1
    decay_mult: 1
  }
  param {
    lr_mult: 2
    decay_mult: 0
  }
  convolution_param {
    num_output: 128
    pad: 1
    kernel_size: 3
    weight_filler {
      type: "xavier"
      std: 0.03
    }
    bias_filler {
      type: "constant"
      value: 0.2
    }
  }
}
layer {
  name: "inception_3a/relu_3x3"
  type: "ReLU"
  bottom: "inception_3a/3x3"
  top: "inception_3a/3x3"
}
layer {
  name: "inception_3a/5x5_reduce"
  type: "Convolution"
  bottom: "pool2/3x3_s2"
  top: "inception_3a/5x5_reduce"
  param {
    lr_mult: 1
    decay_mult: 1
  }
  param {
    lr_mult: 2
    decay_mult: 0
  }
  convolution_param {
    num_output: 16
    kernel_size: 1
    weight_filler {
      type: "xavier"
      std: 0.2
    }
    bias_filler {
      type: "constant"
      value: 0.2
    }
  }
}
layer {
  name: "inception_3a/relu_5x5_reduce"
  type: "ReLU"
  bottom: "inception_3a/5x5_reduce"
  top: "inception_3a/5x5_reduce"
}
layer {
  name: "inception_3a/5x5"
  type: "Convolution"
  bottom: "inception_3a/5x5_reduce"
  top: "inception_3a/5x5"
  param {
    lr_mult: 1
    decay_mult: 1
  }
  param {
    lr_mult: 2
    decay_mult: 0
  }
  convolution_param {
    num_output: 32
    pad: 2
    kernel_size: 5
    weight_filler {
      type: "xavier"
      std: 0.03
    }
    bias_filler {
      type: "constant"
      value: 0.2
    }
  }
}
layer {
  name: "inception_3a/relu_5x5"
  type: "ReLU"
  bottom: "inception_3a/5x5"
  top: "inception_3a/5x5"
}
layer {
  name: "inception_3a/pool"
  type: "Pooling"
  bottom: "pool2/3x3_s2"
  top: "inception_3a/pool"
  pooling_param {
    pool: MAX
    kernel_size: 3
    stride: 1
    pad: 1
  }
}
layer {
  name: "inception_3a/pool_proj"
  type: "Convolution"
  bottom: "inception_3a/pool"
  top: "inception_3a/pool_proj"
  param {
    lr_mult: 1
    decay_mult: 1
  }
  param {
    lr_mult: 2
    decay_mult: 0
  }
  convolution_param {
    num_output: 32
    kernel_size: 1
    weight_filler {
      type: "xavier"
      std: 0.1
    }
    bias_filler {
      type: "constant"
      value: 0.2
    }
  }
}
layer {
  name: "inception_3a/relu_pool_proj"
  type: "ReLU"
  bottom: "inception_3a/pool_proj"
  top: "inception_3a/pool_proj"
}
layer {
  name: "inception_3a/output"
  type: "Concat"
  bottom: "inception_3a/1x1"
  bottom: "inception_3a/3x3"
  bottom: "inception_3a/5x5"
  bottom: "inception_3a/pool_proj"
  top: "inception_3a/output"
}
layer {
  name: "inception_3b/1x1"
  type: "Convolution"
  bottom: "inception_3a/output"
  top: "inception_3b/1x1"
  param {
    lr_mult: 1
    decay_mult: 1
  }
  param {
    lr_mult: 2
    decay_mult: 0
  }
  convolution_param {
    num_output: 128
    kernel_size: 1
    weight_filler {
      type: "xavier"
      std: 0.03
    }
    bias_filler {
      type: "constant"
      value: 0.2
    }
  }
}
layer {
  name: "inception_3b/relu_1x1"
  type: "ReLU"
  bottom: "inception_3b/1x1"
  top: "inception_3b/1x1"
}
layer {
  name: "inception_3b/3x3_reduce"
  type: "Convolution"
  bottom: "inception_3a/output"
  top: "inception_3b/3x3_reduce"
  param {
    lr_mult: 1
    decay_mult: 1
  }
  param {
    lr_mult: 2
    decay_mult: 0
  }
  convolution_param {
    num_output: 128
    kernel_size: 1
    weight_filler {
      type: "xavier"
      std: 0.09
    }
    bias_filler {
      type: "constant"
      value: 0.2
    }
  }
}
layer {
  name: "inception_3b/relu_3x3_reduce"
  type: "ReLU"
  bottom: "inception_3b/3x3_reduce"
  top: "inception_3b/3x3_reduce"
}
layer {
  name: "inception_3b/3x3"
  type: "Convolution"
  bottom: "inception_3b/3x3_reduce"
  top: "inception_3b/3x3"
  param {
    lr_mult: 1
    decay_mult: 1
  }
  param {
    lr_mult: 2
    decay_mult: 0
  }
  convolution_param {
    num_output: 192
    pad: 1
    kernel_size: 3
    weight_filler {
      type: "xavier"
      std: 0.03
    }
    bias_filler {
      type: "constant"
      value: 0.2
    }
  }
}
layer {
  name: "inception_3b/relu_3x3"
  type: "ReLU"
  bottom: "inception_3b/3x3"
  top: "inception_3b/3x3"
}
layer {
  name: "inception_3b/5x5_reduce"
  type: "Convolution"
  bottom: "inception_3a/output"
  top: "inception_3b/5x5_reduce"
  param {
    lr_mult: 1
    decay_mult: 1
  }
  param {
    lr_mult: 2
    decay_mult: 0
  }
  convolution_param {
    num_output: 32
    kernel_size: 1
    weight_filler {
      type: "xavier"
      std: 0.2
    }
    bias_filler {
      type: "constant"
      value: 0.2
    }
  }
}
layer {
  name: "inception_3b/relu_5x5_reduce"
  type: "ReLU"
  bottom: "inception_3b/5x5_reduce"
  top: "inception_3b/5x5_reduce"
}
layer {
  name: "inception_3b/5x5"
  type: "Convolution"
  bottom: "inception_3b/5x5_reduce"
  top: "inception_3b/5x5"
  param {
    lr_mult: 1
    decay_mult: 1
  }
  param {
    lr_mult: 2
    decay_mult: 0
  }
  convolution_param {
    num_output: 96
    pad: 2
    kernel_size: 5
    weight_filler {
      type: "xavier"
      std: 0.03
    }
    bias_filler {
      type: "constant"
      value: 0.2
    }
  }
}
layer {
  name: "inception_3b/relu_5x5"
  type: "ReLU"
  bottom: "inception_3b/5x5"
  top: "inception_3b/5x5"
}
layer {
  name: "inception_3b/pool"
  type: "Pooling"
  bottom: "inception_3a/output"
  top: "inception_3b/pool"
  pooling_param {
    pool: MAX
    kernel_size: 3
    stride: 1
    pad: 1
  }
}
layer {
  name: "inception_3b/pool_proj"
  type: "Convolution"
  bottom: "inception_3b/pool"
  top: "inception_3b/pool_proj"
  param {
    lr_mult: 1
    decay_mult: 1
  }
  param {
    lr_mult: 2
    decay_mult: 0
  }
  convolution_param {
    num_output: 64
    kernel_size: 1
    weight_filler {
      type: "xavier"
      std: 0.1
    }
    bias_filler {
      type: "constant"
      value: 0.2
    }
  }
}
layer {
  name: "inception_3b/relu_pool_proj"
  type: "ReLU"
  bottom: "inception_3b/pool_proj"
  top: "inception_3b/pool_proj"
}
layer {
  name: "inception_3b/output"
  type: "Concat"
  bottom: "inception_3b/1x1"
  bottom: "inception_3b/3x3"
  bottom: "inception_3b/5x5"
  bottom: "inception_3b/pool_proj"
  top: "inception_3b/output"
}
layer {
  name: "pool3/3x3_s2"
  type: "Pooling"
  bottom: "inception_3b/output"
  top: "pool3/3x3_s2"
  pooling_param {
    pool: MAX
    kernel_size: 3
    stride: 2
  }
}
layer {
  name: "inception_4a/1x1"
  type: "Convolution"
  bottom: "pool3/3x3_s2"
  top: "inception_4a/1x1"
  param {
    lr_mult: 1
    decay_mult: 1
  }
  param {
    lr_mult: 2
    decay_mult: 0
  }
  convolution_param {
    num_output: 192
    kernel_size: 1
    weight_filler {
      type: "xavier"
      std: 0.03
    }
    bias_filler {
      type: "constant"
      value: 0.2
    }
  }
}
layer {
  name: "inception_4a/relu_1x1"
  type: "ReLU"
  bottom: "inception_4a/1x1"
  top: "inception_4a/1x1"
}
layer {
  name: "inception_4a/3x3_reduce"
  type: "Convolution"
  bottom: "pool3/3x3_s2"
  top: "inception_4a/3x3_reduce"
  param {
    lr_mult: 1
    decay_mult: 1
  }
  param {
    lr_mult: 2
    decay_mult: 0
  }
  convolution_param {
    num_output: 96
    kernel_size: 1
    weight_filler {
      type: "xavier"
      std: 0.09
    }
    bias_filler {
      type: "constant"
      value: 0.2
    }
  }
}
layer {
  name: "inception_4a/relu_3x3_reduce"
  type: "ReLU"
  bottom: "inception_4a/3x3_reduce"
  top: "inception_4a/3x3_reduce"
}
layer {
  name: "inception_4a/3x3"
  type: "Convolution"
  bottom: "inception_4a/3x3_reduce"
  top: "inception_4a/3x3"
  param {
    lr_mult: 1
    decay_mult: 1
  }
  param {
    lr_mult: 2
    decay_mult: 0
  }
  convolution_param {
    num_output: 208
    pad: 1
    kernel_size: 3
    weight_filler {
      type: "xavier"
      std: 0.03
    }
    bias_filler {
      type: "constant"
      value: 0.2
    }
  }
}
layer {
  name: "inception_4a/relu_3x3"
  type: "ReLU"
  bottom: "inception_4a/3x3"
  top: "inception_4a/3x3"
}
layer {
  name: "inception_4a/5x5_reduce"
  type: "Convolution"
  bottom: "pool3/3x3_s2"
  top: "inception_4a/5x5_reduce"
  param {
    lr_mult: 1
    decay_mult: 1
  }
  param {
    lr_mult: 2
    decay_mult: 0
  }
  convolution_param {
    num_output: 16
    kernel_size: 1
    weight_filler {
      type: "xavier"
      std: 0.2
    }
    bias_filler {
      type: "constant"
      value: 0.2
    }
  }
}
layer {
  name: "inception_4a/relu_5x5_reduce"
  type: "ReLU"
  bottom: "inception_4a/5x5_reduce"
  top: "inception_4a/5x5_reduce"
}
layer {
  name: "inception_4a/5x5"
  type: "Convolution"
  bottom: "inception_4a/5x5_reduce"
  top: "inception_4a/5x5"
  param {
    lr_mult: 1
    decay_mult: 1
  }
  param {
    lr_mult: 2
    decay_mult: 0
  }
  convolution_param {
    num_output: 48
    pad: 2
    kernel_size: 5
    weight_filler {
      type: "xavier"
      std: 0.03
    }
    bias_filler {
      type: "constant"
      value: 0.2
    }
  }
}
layer {
  name: "inception_4a/relu_5x5"
  type: "ReLU"
  bottom: "inception_4a/5x5"
  top: "inception_4a/5x5"
}
layer {
  name: "inception_4a/pool"
  type: "Pooling"
  bottom: "pool3/3x3_s2"
  top: "inception_4a/pool"
  pooling_param {
    pool: MAX
    kernel_size: 3
    stride: 1
    pad: 1
  }
}
layer {
  name: "inception_4a/pool_proj"
  type: "Convolution"
  bottom: "inception_4a/pool"
  top: "inception_4a/pool_proj"
  param {
    lr_mult: 1
    decay_mult: 1
  }
  param {
    lr_mult: 2
    decay_mult: 0
  }
  convolution_param {
    num_output: 64
    kernel_size: 1
    weight_filler {
      type: "xavier"
      std: 0.1
    }
    bias_filler {
      type: "constant"
      value: 0.2
    }
  }
}
layer {
  name: "inception_4a/relu_pool_proj"
  type: "ReLU"
  bottom: "inception_4a/pool_proj"
  top: "inception_4a/pool_proj"
}
layer {
  name: "inception_4a/output"
  type: "Concat"
  bottom: "inception_4a/1x1"
  bottom: "inception_4a/3x3"
  bottom: "inception_4a/5x5"
  bottom: "inception_4a/pool_proj"
  top: "inception_4a/output"
}
layer {
  name: "loss1/ave_pool"
  type: "Pooling"
  bottom: "inception_4a/output"
  top: "loss1/ave_pool"
  pooling_param {
    pool: AVE
    kernel_size: 5
    stride: 3
  }
}
layer {
  name: "loss1/conv"
  type: "Convolution"
  bottom: "loss1/ave_pool"
  top: "loss1/conv"
  param {
    lr_mult: 1
    decay_mult: 1
  }
  param {
    lr_mult: 2
    decay_mult: 0
  }
  convolution_param {
    num_output: 128
    kernel_size: 1
    weight_filler {
      type: "xavier"
      std: 0.08
    }
    bias_filler {
      type: "constant"
      value: 0.2
    }
  }
}
layer {
  name: "loss1/relu_conv"
  type: "ReLU"
  bottom: "loss1/conv"
  top: "loss1/conv"
}
layer {
  name: "loss1/fc"
  type: "InnerProduct"
  bottom: "loss1/conv"
  top: "loss1/fc"
  param {
    lr_mult: 1
    decay_mult: 1
  }
  param {
    lr_mult: 2
    decay_mult: 0
  }
  inner_product_param {
    num_output: 1024
    weight_filler {
      type: "xavier"
      std: 0.02
    }
    bias_filler {
      type: "constant"
      value: 0.2
    }
  }
}
layer {
  name: "loss1/relu_fc"
  type: "ReLU"
  bottom: "loss1/fc"
  top: "loss1/fc"
}
layer {
  name: "loss1/drop_fc"
  type: "Dropout"
  bottom: "loss1/fc"
  top: "loss1/fc"
  dropout_param {
    dropout_ratio: 0.7
  }
}
layer {
  name: "loss1/classifier_plantvillage"
  type: "InnerProduct"
  bottom: "loss1/fc"
  top: "loss1/classifier_plantvillage"
  param {
    lr_mult: 1
    decay_mult: 1
  }
  param {
    lr_mult: 2
    decay_mult: 0
  }
  inner_product_param {
    num_output: 38
    weight_filler {
      type: "xavier"
      std: 0.0009765625
    }
    bias_filler {
      type: "constant"
      value: 0
    }
  }
}
layer {
  name: "inception_4b/1x1"
  type: "Convolution"
  bottom: "inception_4a/output"
  top: "inception_4b/1x1"
  param {
    lr_mult: 1
    decay_mult: 1
  }
  param {
    lr_mult: 2
    decay_mult: 0
  }
  convolution_param {
    num_output: 160
    kernel_size: 1
    weight_filler {
      type: "xavier"
      std: 0.03
    }
    bias_filler {
      type: "constant"
      value: 0.2
    }
  }
}
layer {
  name: "inception_4b/relu_1x1"
  type: "ReLU"
  bottom: "inception_4b/1x1"
  top: "inception_4b/1x1"
}
layer {
  name: "inception_4b/3x3_reduce"
  type: "Convolution"
  bottom: "inception_4a/output"
  top: "inception_4b/3x3_reduce"
  param {
    lr_mult: 1
    decay_mult: 1
  }
  param {
    lr_mult: 2
    decay_mult: 0
  }
  convolution_param {
    num_output: 112
    kernel_size: 1
    weight_filler {
      type: "xavier"
      std: 0.09
    }
    bias_filler {
      type: "constant"
      value: 0.2
    }
  }
}
layer {
  name: "inception_4b/relu_3x3_reduce"
  type: "ReLU"
  bottom: "inception_4b/3x3_reduce"
  top: "inception_4b/3x3_reduce"
}
layer {
  name: "inception_4b/3x3"
  type: "Convolution"
  bottom: "inception_4b/3x3_reduce"
  top: "inception_4b/3x3"
  param {
    lr_mult: 1
    decay_mult: 1
  }
  param {
    lr_mult: 2
    decay_mult: 0
  }
  convolution_param {
    num_output: 224
    pad: 1
    kernel_size: 3
    weight_filler {
      type: "xavier"
      std: 0.03
    }
    bias_filler {
      type: "constant"
      value: 0.2
    }
  }
}
layer {
  name: "inception_4b/relu_3x3"
  type: "ReLU"
  bottom: "inception_4b/3x3"
  top: "inception_4b/3x3"
}
layer {
  name: "inception_4b/5x5_reduce"
  type: "Convolution"
  bottom: "inception_4a/output"
  top: "inception_4b/5x5_reduce"
  param {
    lr_mult: 1
    decay_mult: 1
  }
  param {
    lr_mult: 2
    decay_mult: 0
  }
  convolution_param {
    num_output: 24
    kernel_size: 1
    weight_filler {
      type: "xavier"
      std: 0.2
    }
    bias_filler {
      type: "constant"
      value: 0.2
    }
  }
}
layer {
  name: "inception_4b/relu_5x5_reduce"
  type: "ReLU"
  bottom: "inception_4b/5x5_reduce"
  top: "inception_4b/5x5_reduce"
}
layer {
  name: "inception_4b/5x5"
  type: "Convolution"
  bottom: "inception_4b/5x5_reduce"
  top: "inception_4b/5x5"
  param {
    lr_mult: 1
    decay_mult: 1
  }
  param {
    lr_mult: 2
    decay_mult: 0
  }
  convolution_param {
    num_output: 64
    pad: 2
    kernel_size: 5
    weight_filler {
      type: "xavier"
      std: 0.03
    }
    bias_filler {
      type: "constant"
      value: 0.2
    }
  }
}
layer {
  name: "inception_4b/relu_5x5"
  type: "ReLU"
  bottom: "inception_4b/5x5"
  top: "inception_4b/5x5"
}
layer {
  name: "inception_4b/pool"
  type: "Pooling"
  bottom: "inception_4a/output"
  top: "inception_4b/pool"
  pooling_param {
    pool: MAX
    kernel_size: 3
    stride: 1
    pad: 1
  }
}
layer {
  name: "inception_4b/pool_proj"
  type: "Convolution"
  bottom: "inception_4b/pool"
  top: "inception_4b/pool_proj"
  param {
    lr_mult: 1
    decay_mult: 1
  }
  param {
    lr_mult: 2
    decay_mult: 0
  }
  convolution_param {
    num_output: 64
    kernel_size: 1
    weight_filler {
      type: "xavier"
      std: 0.1
    }
    bias_filler {
      type: "constant"
      value: 0.2
    }
  }
}
layer {
  name: "inception_4b/relu_pool_proj"
  type: "ReLU"
  bottom: "inception_4b/pool_proj"
  top: "inception_4b/pool_proj"
}
layer {
  name: "inception_4b/output"
  type: "Concat"
  bottom: "inception_4b/1x1"
  bottom: "inception_4b/3x3"
  bottom: "inception_4b/5x5"
  bottom: "inception_4b/pool_proj"
  top: "inception_4b/output"
}
layer {
  name: "inception_4c/1x1"
  type: "Convolution"
  bottom: "inception_4b/output"
  top: "inception_4c/1x1"
  param {
    lr_mult: 1
    decay_mult: 1
  }
  param {
    lr_mult: 2
    decay_mult: 0
  }
  convolution_param {
    num_output: 128
    kernel_size: 1
    weight_filler {
      type: "xavier"
      std: 0.03
    }
    bias_filler {
      type: "constant"
      value: 0.2
    }
  }
}
layer {
  name: "inception_4c/relu_1x1"
  type: "ReLU"
  bottom: "inception_4c/1x1"
  top: "inception_4c/1x1"
}
layer {
  name: "inception_4c/3x3_reduce"
  type: "Convolution"
  bottom: "inception_4b/output"
  top: "inception_4c/3x3_reduce"
  param {
    lr_mult: 1
    decay_mult: 1
  }
  param {
    lr_mult: 2
    decay_mult: 0
  }
  convolution_param {
    num_output: 128
    kernel_size: 1
    weight_filler {
      type: "xavier"
      std: 0.09
    }
    bias_filler {
      type: "constant"
      value: 0.2
    }
  }
}
layer {
  name: "inception_4c/relu_3x3_reduce"
  type: "ReLU"
  bottom: "inception_4c/3x3_reduce"
  top: "inception_4c/3x3_reduce"
}
layer {
  name: "inception_4c/3x3"
  type: "Convolution"
  bottom: "inception_4c/3x3_reduce"
  top: "inception_4c/3x3"
  param {
    lr_mult: 1
    decay_mult: 1
  }
  param {
    lr_mult: 2
    decay_mult: 0
  }
  convolution_param {
    num_output: 256
    pad: 1
    kernel_size: 3
    weight_filler {
      type: "xavier"
      std: 0.03
    }
    bias_filler {
      type: "constant"
      value: 0.2
    }
  }
}
layer {
  name: "inception_4c/relu_3x3"
  type: "ReLU"
  bottom: "inception_4c/3x3"
  top: "inception_4c/3x3"
}
layer {
  name: "inception_4c/5x5_reduce"
  type: "Convolution"
  bottom: "inception_4b/output"
  top: "inception_4c/5x5_reduce"
  param {
    lr_mult: 1
    decay_mult: 1
  }
  param {
    lr_mult: 2
    decay_mult: 0
  }
  convolution_param {
    num_output: 24
    kernel_size: 1
    weight_filler {
      type: "xavier"
      std: 0.2
    }
    bias_filler {
      type: "constant"
      value: 0.2
    }
  }
}
layer {
  name: "inception_4c/relu_5x5_reduce"
  type: "ReLU"
  bottom: "inception_4c/5x5_reduce"
  top: "inception_4c/5x5_reduce"
}
layer {
  name: "inception_4c/5x5"
  type: "Convolution"
  bottom: "inception_4c/5x5_reduce"
  top: "inception_4c/5x5"
  param {
    lr_mult: 1
    decay_mult: 1
  }
  param {
    lr_mult: 2
    decay_mult: 0
  }
  convolution_param {
    num_output: 64
    pad: 2
    kernel_size: 5
    weight_filler {
      type: "xavier"
      std: 0.03
    }
    bias_filler {
      type: "constant"
      value: 0.2
    }
  }
}
layer {
  name: "inception_4c/relu_5x5"
  type: "ReLU"
  bottom: "inception_4c/5x5"
  top: "inception_4c/5x5"
}
layer {
  name: "inception_4c/pool"
  type: "Pooling"
  bottom: "inception_4b/output"
  top: "inception_4c/pool"
  pooling_param {
    pool: MAX
    kernel_size: 3
    stride: 1
    pad: 1
  }
}
layer {
  name: "inception_4c/pool_proj"
  type: "Convolution"
  bottom: "inception_4c/pool"
  top: "inception_4c/pool_proj"
  param {
    lr_mult: 1
    decay_mult: 1
  }
  param {
    lr_mult: 2
    decay_mult: 0
  }
  convolution_param {
    num_output: 64
    kernel_size: 1
    weight_filler {
      type: "xavier"
      std: 0.1
    }
    bias_filler {
      type: "constant"
      value: 0.2
    }
  }
}
layer {
  name: "inception_4c/relu_pool_proj"
  type: "ReLU"
  bottom: "inception_4c/pool_proj"
  top: "inception_4c/pool_proj"
}
layer {
  name: "inception_4c/output"
  type: "Concat"
  bottom: "inception_4c/1x1"
  bottom: "inception_4c/3x3"
  bottom: "inception_4c/5x5"
  bottom: "inception_4c/pool_proj"
  top: "inception_4c/output"
}
layer {
  name: "inception_4d/1x1"
  type: "Convolution"
  bottom: "inception_4c/output"
  top: "inception_4d/1x1"
  param {
    lr_mult: 1
    decay_mult: 1
  }
  param {
    lr_mult: 2
    decay_mult: 0
  }
  convolution_param {
    num_output: 112
    kernel_size: 1
    weight_filler {
      type: "xavier"
      std: 0.03
    }
    bias_filler {
      type: "constant"
      value: 0.2
    }
  }
}
layer {
  name: "inception_4d/relu_1x1"
  type: "ReLU"
  bottom: "inception_4d/1x1"
  top: "inception_4d/1x1"
}
layer {
  name: "inception_4d/3x3_reduce"
  type: "Convolution"
  bottom: "inception_4c/output"
  top: "inception_4d/3x3_reduce"
  param {
    lr_mult: 1
    decay_mult: 1
  }
  param {
    lr_mult: 2
    decay_mult: 0
  }
  convolution_param {
    num_output: 144
    kernel_size: 1
    weight_filler {
      type: "xavier"
      std: 0.09
    }
    bias_filler {
      type: "constant"
      value: 0.2
    }
  }
}
layer {
  name: "inception_4d/relu_3x3_reduce"
  type: "ReLU"
  bottom: "inception_4d/3x3_reduce"
  top: "inception_4d/3x3_reduce"
}
layer {
  name: "inception_4d/3x3"
  type: "Convolution"
  bottom: "inception_4d/3x3_reduce"
  top: "inception_4d/3x3"
  param {
    lr_mult: 1
    decay_mult: 1
  }
  param {
    lr_mult: 2
    decay_mult: 0
  }
  convolution_param {
    num_output: 288
    pad: 1
    kernel_size: 3
    weight_filler {
      type: "xavier"
      std: 0.03
    }
    bias_filler {
      type: "constant"
      value: 0.2
    }
  }
}
layer {
  name: "inception_4d/relu_3x3"
  type: "ReLU"
  bottom: "inception_4d/3x3"
  top: "inception_4d/3x3"
}
layer {
  name: "inception_4d/5x5_reduce"
  type: "Convolution"
  bottom: "inception_4c/output"
  top: "inception_4d/5x5_reduce"
  param {
    lr_mult: 1
    decay_mult: 1
  }
  param {
    lr_mult: 2
    decay_mult: 0
  }
  convolution_param {
    num_output: 32
    kernel_size: 1
    weight_filler {
      type: "xavier"
      std: 0.2
    }
    bias_filler {
      type: "constant"
      value: 0.2
    }
  }
}
layer {
  name: "inception_4d/relu_5x5_reduce"
  type: "ReLU"
  bottom: "inception_4d/5x5_reduce"
  top: "inception_4d/5x5_reduce"
}
layer {
  name: "inception_4d/5x5"
  type: "Convolution"
  bottom: "inception_4d/5x5_reduce"
  top: "inception_4d/5x5"
  param {
    lr_mult: 1
    decay_mult: 1
  }
  param {
    lr_mult: 2
    decay_mult: 0
  }
  convolution_param {
    num_output: 64
    pad: 2
    kernel_size: 5
    weight_filler {
      type: "xavier"
      std: 0.03
    }
    bias_filler {
      type: "constant"
      value: 0.2
    }
  }
}
layer {
  name: "inception_4d/relu_5x5"
  type: "ReLU"
  bottom: "inception_4d/5x5"
  top: "inception_4d/5x5"
}
layer {
  name: "inception_4d/pool"
  type: "Pooling"
  bottom: "inception_4c/output"
  top: "inception_4d/pool"
  pooling_param {
    pool: MAX
    kernel_size: 3
    stride: 1
    pad: 1
  }
}
layer {
  name: "inception_4d/pool_proj"
  type: "Convolution"
  bottom: "inception_4d/pool"
  top: "inception_4d/pool_proj"
  param {
    lr_mult: 1
    decay_mult: 1
  }
  param {
    lr_mult: 2
    decay_mult: 0
  }
  convolution_param {
    num_output: 64
    kernel_size: 1
    weight_filler {
      type: "xavier"
      std: 0.1
    }
    bias_filler {
      type: "constant"
      value: 0.2
    }
  }
}
layer {
  name: "inception_4d/relu_pool_proj"
  type: "ReLU"
  bottom: "inception_4d/pool_proj"
  top: "inception_4d/pool_proj"
}
layer {
  name: "inception_4d/output"
  type: "Concat"
  bottom: "inception_4d/1x1"
  bottom: "inception_4d/3x3"
  bottom: "inception_4d/5x5"
  bottom: "inception_4d/pool_proj"
  top: "inception_4d/output"
}
layer {
  name: "loss2/ave_pool"
  type: "Pooling"
  bottom: "inception_4d/output"
  top: "loss2/ave_pool"
  pooling_param {
    pool: AVE
    kernel_size: 5
    stride: 3
  }
}
layer {
  name: "loss2/conv"
  type: "Convolution"
  bottom: "loss2/ave_pool"
  top: "loss2/conv"
  param {
    lr_mult: 1
    decay_mult: 1
  }
  param {
    lr_mult: 2
    decay_mult: 0
  }
  convolution_param {
    num_output: 128
    kernel_size: 1
    weight_filler {
      type: "xavier"
      std: 0.08
    }
    bias_filler {
      type: "constant"
      value: 0.2
    }
  }
}
layer {
  name: "loss2/relu_conv"
  type: "ReLU"
  bottom: "loss2/conv"
  top: "loss2/conv"
}
layer {
  name: "loss2/fc"
  type: "InnerProduct"
  bottom: "loss2/conv"
  top: "loss2/fc"
  param {
    lr_mult: 1
    decay_mult: 1
  }
  param {
    lr_mult: 2
    decay_mult: 0
  }
  inner_product_param {
    num_output: 1024
    weight_filler {
      type: "xavier"
      std: 0.02
    }
    bias_filler {
      type: "constant"
      value: 0.2
    }
  }
}
layer {
  name: "loss2/relu_fc"
  type: "ReLU"
  bottom: "loss2/fc"
  top: "loss2/fc"
}
layer {
  name: "loss2/drop_fc"
  type: "Dropout"
  bottom: "loss2/fc"
  top: "loss2/fc"
  dropout_param {
    dropout_ratio: 0.7
  }
}
layer {
  name: "loss2/classifier_plantvillage"
  type: "InnerProduct"
  bottom: "loss2/fc"
  top: "loss2/classifier_plantvillage"
  param {
    lr_mult: 1
    decay_mult: 1
  }
  param {
    lr_mult: 2
    decay_mult: 0
  }
  inner_product_param {
    num_output: 38
    weight_filler {
      type: "xavier"
      std: 0.0009765625
    }
    bias_filler {
      type: "constant"
      value: 0
    }
  }
}
layer {
  name: "inception_4e/1x1"
  type: "Convolution"
  bottom: "inception_4d/output"
  top: "inception_4e/1x1"
  param {
    lr_mult: 1
    decay_mult: 1
  }
  param {
    lr_mult: 2
    decay_mult: 0
  }
  convolution_param {
    num_output: 256
    kernel_size: 1
    weight_filler {
      type: "xavier"
      std: 0.03
    }
    bias_filler {
      type: "constant"
      value: 0.2
    }
  }
}
layer {
  name: "inception_4e/relu_1x1"
  type: "ReLU"
  bottom: "inception_4e/1x1"
  top: "inception_4e/1x1"
}
layer {
  name: "inception_4e/3x3_reduce"
  type: "Convolution"
  bottom: "inception_4d/output"
  top: "inception_4e/3x3_reduce"
  param {
    lr_mult: 1
    decay_mult: 1
  }
  param {
    lr_mult: 2
    decay_mult: 0
  }
  convolution_param {
    num_output: 160
    kernel_size: 1
    weight_filler {
      type: "xavier"
      std: 0.09
    }
    bias_filler {
      type: "constant"
      value: 0.2
    }
  }
}
layer {
  name: "inception_4e/relu_3x3_reduce"
  type: "ReLU"
  bottom: "inception_4e/3x3_reduce"
  top: "inception_4e/3x3_reduce"
}
layer {
  name: "inception_4e/3x3"
  type: "Convolution"
  bottom: "inception_4e/3x3_reduce"
  top: "inception_4e/3x3"
  param {
    lr_mult: 1
    decay_mult: 1
  }
  param {
    lr_mult: 2
    decay_mult: 0
  }
  convolution_param {
    num_output: 320
    pad: 1
    kernel_size: 3
    weight_filler {
      type: "xavier"
      std: 0.03
    }
    bias_filler {
      type: "constant"
      value: 0.2
    }
  }
}
layer {
  name: "inception_4e/relu_3x3"
  type: "ReLU"
  bottom: "inception_4e/3x3"
  top: "inception_4e/3x3"
}
layer {
  name: "inception_4e/5x5_reduce"
  type: "Convolution"
  bottom: "inception_4d/output"
  top: "inception_4e/5x5_reduce"
  param {
    lr_mult: 1
    decay_mult: 1
  }
  param {
    lr_mult: 2
    decay_mult: 0
  }
  convolution_param {
    num_output: 32
    kernel_size: 1
    weight_filler {
      type: "xavier"
      std: 0.2
    }
    bias_filler {
      type: "constant"
      value: 0.2
    }
  }
}
layer {
  name: "inception_4e/relu_5x5_reduce"
  type: "ReLU"
  bottom: "inception_4e/5x5_reduce"
  top: "inception_4e/5x5_reduce"
}
layer {
  name: "inception_4e/5x5"
  type: "Convolution"
  bottom: "inception_4e/5x5_reduce"
  top: "inception_4e/
I0403 15:23:59.558917 11913 layer_factory.hpp:77] Creating layer data
I0403 15:23:59.559521 11913 net.cpp:91] Creating Layer data
I0403 15:23:59.559554 11913 net.cpp:399] data -> data
I0403 15:23:59.559603 11913 net.cpp:399] data -> label
I0403 15:23:59.559639 11913 data_transformer.cpp:25] Loading mean file from: /home/mohanty/data/final_dataset/lmdb/segmented-40-60/mean.binaryproto
I0403 15:23:59.563182 11916 db_lmdb.cpp:38] Opened lmdb /home/mohanty/data/final_dataset/lmdb/segmented-40-60/test_db
I0403 15:23:59.573130 11913 data_layer.cpp:41] output data size: 24,3,224,224
I0403 15:23:59.600384 11913 net.cpp:141] Setting up data
I0403 15:23:59.600482 11913 net.cpp:148] Top shape: 24 3 224 224 (3612672)
I0403 15:23:59.600507 11913 net.cpp:148] Top shape: 24 (24)
I0403 15:23:59.600522 11913 net.cpp:156] Memory required for data: 14450784
I0403 15:23:59.600553 11913 layer_factory.hpp:77] Creating layer label_data_1_split
I0403 15:23:59.600579 11913 net.cpp:91] Creating Layer label_data_1_split
I0403 15:23:59.600599 11913 net.cpp:425] label_data_1_split <- label
I0403 15:23:59.600631 11913 net.cpp:399] label_data_1_split -> label_data_1_split_0
I0403 15:23:59.600661 11913 net.cpp:399] label_data_1_split -> label_data_1_split_1
I0403 15:23:59.600682 11913 net.cpp:399] label_data_1_split -> label_data_1_split_2
I0403 15:23:59.600704 11913 net.cpp:399] label_data_1_split -> label_data_1_split_3
I0403 15:23:59.600724 11913 net.cpp:399] label_data_1_split -> label_data_1_split_4
I0403 15:23:59.600744 11913 net.cpp:399] label_data_1_split -> label_data_1_split_5
I0403 15:23:59.600764 11913 net.cpp:399] label_data_1_split -> label_data_1_split_6
I0403 15:23:59.600785 11913 net.cpp:399] label_data_1_split -> label_data_1_split_7
I0403 15:23:59.600805 11913 net.cpp:399] label_data_1_split -> label_data_1_split_8
I0403 15:23:59.600826 11913 net.cpp:399] label_data_1_split -> label_data_1_split_9
I0403 15:23:59.600946 11913 net.cpp:141] Setting up label_data_1_split
I0403 15:23:59.600971 11913 net.cpp:148] Top shape: 24 (24)
I0403 15:23:59.600988 11913 net.cpp:148] Top shape: 24 (24)
I0403 15:23:59.601006 11913 net.cpp:148] Top shape: 24 (24)
I0403 15:23:59.601022 11913 net.cpp:148] Top shape: 24 (24)
I0403 15:23:59.601037 11913 net.cpp:148] Top shape: 24 (24)
I0403 15:23:59.601053 11913 net.cpp:148] Top shape: 24 (24)
I0403 15:23:59.601069 11913 net.cpp:148] Top shape: 24 (24)
I0403 15:23:59.601084 11913 net.cpp:148] Top shape: 24 (24)
I0403 15:23:59.601100 11913 net.cpp:148] Top shape: 24 (24)
I0403 15:23:59.601117 11913 net.cpp:148] Top shape: 24 (24)
I0403 15:23:59.601163 11913 net.cpp:156] Memory required for data: 14451744
I0403 15:23:59.601181 11913 layer_factory.hpp:77] Creating layer conv1/7x7_s2
I0403 15:23:59.601212 11913 net.cpp:91] Creating Layer conv1/7x7_s2
I0403 15:23:59.601232 11913 net.cpp:425] conv1/7x7_s2 <- data
I0403 15:23:59.601251 11913 net.cpp:399] conv1/7x7_s2 -> conv1/7x7_s2
I0403 15:23:59.736706 11913 net.cpp:141] Setting up conv1/7x7_s2
I0403 15:23:59.736794 11913 net.cpp:148] Top shape: 24 64 112 112 (19267584)
I0403 15:23:59.736812 11913 net.cpp:156] Memory required for data: 91522080
I0403 15:23:59.736842 11913 layer_factory.hpp:77] Creating layer conv1/relu_7x7
I0403 15:23:59.736868 11913 net.cpp:91] Creating Layer conv1/relu_7x7
I0403 15:23:59.736886 11913 net.cpp:425] conv1/relu_7x7 <- conv1/7x7_s2
I0403 15:23:59.736908 11913 net.cpp:386] conv1/relu_7x7 -> conv1/7x7_s2 (in-place)
I0403 15:23:59.737181 11913 net.cpp:141] Setting up conv1/relu_7x7
I0403 15:23:59.737208 11913 net.cpp:148] Top shape: 24 64 112 112 (19267584)
I0403 15:23:59.737223 11913 net.cpp:156] Memory required for data: 168592416
I0403 15:23:59.737237 11913 layer_factory.hpp:77] Creating layer pool1/3x3_s2
I0403 15:23:59.737262 11913 net.cpp:91] Creating Layer pool1/3x3_s2
I0403 15:23:59.737278 11913 net.cpp:425] pool1/3x3_s2 <- conv1/7x7_s2
I0403 15:23:59.737299 11913 net.cpp:399] pool1/3x3_s2 -> pool1/3x3_s2
I0403 15:23:59.737381 11913 net.cpp:141] Setting up pool1/3x3_s2
I0403 15:23:59.737406 11913 net.cpp:148] Top shape: 24 64 56 56 (4816896)
I0403 15:23:59.737419 11913 net.cpp:156] Memory required for data: 187860000
I0403 15:23:59.737434 11913 layer_factory.hpp:77] Creating layer pool1/norm1
I0403 15:23:59.737460 11913 net.cpp:91] Creating Layer pool1/norm1
I0403 15:23:59.737478 11913 net.cpp:425] pool1/norm1 <- pool1/3x3_s2
I0403 15:23:59.737498 11913 net.cpp:399] pool1/norm1 -> pool1/norm1
I0403 15:23:59.737800 11913 net.cpp:141] Setting up pool1/norm1
I0403 15:23:59.737826 11913 net.cpp:148] Top shape: 24 64 56 56 (4816896)
I0403 15:23:59.737843 11913 net.cpp:156] Memory required for data: 207127584
I0403 15:23:59.737857 11913 layer_factory.hpp:77] Creating layer conv2/3x3_reduce
I0403 15:23:59.737884 11913 net.cpp:91] Creating Layer conv2/3x3_reduce
I0403 15:23:59.737900 11913 net.cpp:425] conv2/3x3_reduce <- pool1/norm1
I0403 15:23:59.737921 11913 net.cpp:399] conv2/3x3_reduce -> conv2/3x3_reduce
I0403 15:23:59.739282 11913 net.cpp:141] Setting up conv2/3x3_reduce
I0403 15:23:59.739310 11913 net.cpp:148] Top shape: 24 64 56 56 (4816896)
I0403 15:23:59.739331 11913 net.cpp:156] Memory required for data: 226395168
I0403 15:23:59.739356 11913 layer_factory.hpp:77] Creating layer conv2/relu_3x3_reduce
I0403 15:23:59.739375 11913 net.cpp:91] Creating Layer conv2/relu_3x3_reduce
I0403 15:23:59.739392 11913 net.cpp:425] conv2/relu_3x3_reduce <- conv2/3x3_reduce
I0403 15:23:59.739408 11913 net.cpp:386] conv2/relu_3x3_reduce -> conv2/3x3_reduce (in-place)
I0403 15:23:59.739670 11913 net.cpp:141] Setting up conv2/relu_3x3_reduce
I0403 15:23:59.739696 11913 net.cpp:148] Top shape: 24 64 56 56 (4816896)
I0403 15:23:59.739714 11913 net.cpp:156] Memory required for data: 245662752
I0403 15:23:59.739730 11913 layer_factory.hpp:77] Creating layer conv2/3x3
I0403 15:23:59.739753 11913 net.cpp:91] Creating Layer conv2/3x3
I0403 15:23:59.739771 11913 net.cpp:425] conv2/3x3 <- conv2/3x3_reduce
I0403 15:23:59.739790 11913 net.cpp:399] conv2/3x3 -> conv2/3x3
I0403 15:23:59.742033 11913 net.cpp:141] Setting up conv2/3x3
I0403 15:23:59.742065 11913 net.cpp:148] Top shape: 24 192 56 56 (14450688)
I0403 15:23:59.742082 11913 net.cpp:156] Memory required for data: 303465504
I0403 15:23:59.742103 11913 layer_factory.hpp:77] Creating layer conv2/relu_3x3
I0403 15:23:59.742122 11913 net.cpp:91] Creating Layer conv2/relu_3x3
I0403 15:23:59.742138 11913 net.cpp:425] conv2/relu_3x3 <- conv2/3x3
I0403 15:23:59.742156 11913 net.cpp:386] conv2/relu_3x3 -> conv2/3x3 (in-place)
I0403 15:23:59.742333 11913 net.cpp:141] Setting up conv2/relu_3x3
I0403 15:23:59.742357 11913 net.cpp:148] Top shape: 24 192 56 56 (14450688)
I0403 15:23:59.742403 11913 net.cpp:156] Memory required for data: 361268256
I0403 15:23:59.742419 11913 layer_factory.hpp:77] Creating layer conv2/norm2
I0403 15:23:59.742440 11913 net.cpp:91] Creating Layer conv2/norm2
I0403 15:23:59.742457 11913 net.cpp:425] conv2/norm2 <- conv2/3x3
I0403 15:23:59.742475 11913 net.cpp:399] conv2/norm2 -> conv2/norm2
I0403 15:23:59.742770 11913 net.cpp:141] Setting up conv2/norm2
I0403 15:23:59.742796 11913 net.cpp:148] Top shape: 24 192 56 56 (14450688)
I0403 15:23:59.742811 11913 net.cpp:156] Memory required for data: 419071008
I0403 15:23:59.742826 11913 layer_factory.hpp:77] Creating layer pool2/3x3_s2
I0403 15:23:59.742847 11913 net.cpp:91] Creating Layer pool2/3x3_s2
I0403 15:23:59.742864 11913 net.cpp:425] pool2/3x3_s2 <- conv2/norm2
I0403 15:23:59.742882 11913 net.cpp:399] pool2/3x3_s2 -> pool2/3x3_s2
I0403 15:23:59.742933 11913 net.cpp:141] Setting up pool2/3x3_s2
I0403 15:23:59.742956 11913 net.cpp:148] Top shape: 24 192 28 28 (3612672)
I0403 15:23:59.742970 11913 net.cpp:156] Memory required for data: 433521696
I0403 15:23:59.742985 11913 layer_factory.hpp:77] Creating layer pool2/3x3_s2_pool2/3x3_s2_0_split
I0403 15:23:59.743002 11913 net.cpp:91] Creating Layer pool2/3x3_s2_pool2/3x3_s2_0_split
I0403 15:23:59.743017 11913 net.cpp:425] pool2/3x3_s2_pool2/3x3_s2_0_split <- pool2/3x3_s2
I0403 15:23:59.743036 11913 net.cpp:399] pool2/3x3_s2_pool2/3x3_s2_0_split -> pool2/3x3_s2_pool2/3x3_s2_0_split_0
I0403 15:23:59.743057 11913 net.cpp:399] pool2/3x3_s2_pool2/3x3_s2_0_split -> pool2/3x3_s2_pool2/3x3_s2_0_split_1
I0403 15:23:59.743077 11913 net.cpp:399] pool2/3x3_s2_pool2/3x3_s2_0_split -> pool2/3x3_s2_pool2/3x3_s2_0_split_2
I0403 15:23:59.743096 11913 net.cpp:399] pool2/3x3_s2_pool2/3x3_s2_0_split -> pool2/3x3_s2_pool2/3x3_s2_0_split_3
I0403 15:23:59.743165 11913 net.cpp:141] Setting up pool2/3x3_s2_pool2/3x3_s2_0_split
I0403 15:23:59.743190 11913 net.cpp:148] Top shape: 24 192 28 28 (3612672)
I0403 15:23:59.743206 11913 net.cpp:148] Top shape: 24 192 28 28 (3612672)
I0403 15:23:59.743221 11913 net.cpp:148] Top shape: 24 192 28 28 (3612672)
I0403 15:23:59.743237 11913 net.cpp:148] Top shape: 24 192 28 28 (3612672)
I0403 15:23:59.743249 11913 net.cpp:156] Memory required for data: 491324448
I0403 15:23:59.743264 11913 layer_factory.hpp:77] Creating layer inception_3a/1x1
I0403 15:23:59.743286 11913 net.cpp:91] Creating Layer inception_3a/1x1
I0403 15:23:59.743302 11913 net.cpp:425] inception_3a/1x1 <- pool2/3x3_s2_pool2/3x3_s2_0_split_0
I0403 15:23:59.743332 11913 net.cpp:399] inception_3a/1x1 -> inception_3a/1x1
I0403 15:23:59.744829 11913 net.cpp:141] Setting up inception_3a/1x1
I0403 15:23:59.744858 11913 net.cpp:148] Top shape: 24 64 28 28 (1204224)
I0403 15:23:59.744874 11913 net.cpp:156] Memory required for data: 496141344
I0403 15:23:59.744892 11913 layer_factory.hpp:77] Creating layer inception_3a/relu_1x1
I0403 15:23:59.744913 11913 net.cpp:91] Creating Layer inception_3a/relu_1x1
I0403 15:23:59.744930 11913 net.cpp:425] inception_3a/relu_1x1 <- inception_3a/1x1
I0403 15:23:59.744948 11913 net.cpp:386] inception_3a/relu_1x1 -> inception_3a/1x1 (in-place)
I0403 15:23:59.745118 11913 net.cpp:141] Setting up inception_3a/relu_1x1
I0403 15:23:59.745146 11913 net.cpp:148] Top shape: 24 64 28 28 (1204224)
I0403 15:23:59.745160 11913 net.cpp:156] Memory required for data: 500958240
I0403 15:23:59.745175 11913 layer_factory.hpp:77] Creating layer inception_3a/3x3_reduce
I0403 15:23:59.745198 11913 net.cpp:91] Creating Layer inception_3a/3x3_reduce
I0403 15:23:59.745215 11913 net.cpp:425] inception_3a/3x3_reduce <- pool2/3x3_s2_pool2/3x3_s2_0_split_1
I0403 15:23:59.745235 11913 net.cpp:399] inception_3a/3x3_reduce -> inception_3a/3x3_reduce
I0403 15:23:59.746888 11913 net.cpp:141] Setting up inception_3a/3x3_reduce
I0403 15:23:59.746917 11913 net.cpp:148] Top shape: 24 96 28 28 (1806336)
I0403 15:23:59.746933 11913 net.cpp:156] Memory required for data: 508183584
I0403 15:23:59.746958 11913 layer_factory.hpp:77] Creating layer inception_3a/relu_3x3_reduce
I0403 15:23:59.746991 11913 net.cpp:91] Creating Layer inception_3a/relu_3x3_reduce
I0403 15:23:59.747009 11913 net.cpp:425] inception_3a/relu_3x3_reduce <- inception_3a/3x3_reduce
I0403 15:23:59.747030 11913 net.cpp:386] inception_3a/relu_3x3_reduce -> inception_3a/3x3_reduce (in-place)
I0403 15:23:59.747207 11913 net.cpp:141] Setting up inception_3a/relu_3x3_reduce
I0403 15:23:59.747232 11913 net.cpp:148] Top shape: 24 96 28 28 (1806336)
I0403 15:23:59.747246 11913 net.cpp:156] Memory required for data: 515408928
I0403 15:23:59.747262 11913 layer_factory.hpp:77] Creating layer inception_3a/3x3
I0403 15:23:59.747283 11913 net.cpp:91] Creating Layer inception_3a/3x3
I0403 15:23:59.747301 11913 net.cpp:425] inception_3a/3x3 <- inception_3a/3x3_reduce
I0403 15:23:59.747328 11913 net.cpp:399] inception_3a/3x3 -> inception_3a/3x3
I0403 15:23:59.748939 11913 net.cpp:141] Setting up inception_3a/3x3
I0403 15:23:59.748968 11913 net.cpp:148] Top shape: 24 128 28 28 (2408448)
I0403 15:23:59.748985 11913 net.cpp:156] Memory required for data: 525042720
I0403 15:23:59.749003 11913 layer_factory.hpp:77] Creating layer inception_3a/relu_3x3
I0403 15:23:59.749022 11913 net.cpp:91] Creating Layer inception_3a/relu_3x3
I0403 15:23:59.749037 11913 net.cpp:425] inception_3a/relu_3x3 <- inception_3a/3x3
I0403 15:23:59.749058 11913 net.cpp:386] inception_3a/relu_3x3 -> inception_3a/3x3 (in-place)
I0403 15:23:59.749336 11913 net.cpp:141] Setting up inception_3a/relu_3x3
I0403 15:23:59.749364 11913 net.cpp:148] Top shape: 24 128 28 28 (2408448)
I0403 15:23:59.749380 11913 net.cpp:156] Memory required for data: 534676512
I0403 15:23:59.749394 11913 layer_factory.hpp:77] Creating layer inception_3a/5x5_reduce
I0403 15:23:59.749418 11913 net.cpp:91] Creating Layer inception_3a/5x5_reduce
I0403 15:23:59.749436 11913 net.cpp:425] inception_3a/5x5_reduce <- pool2/3x3_s2_pool2/3x3_s2_0_split_2
I0403 15:23:59.749455 11913 net.cpp:399] inception_3a/5x5_reduce -> inception_3a/5x5_reduce
I0403 15:23:59.750397 11913 net.cpp:141] Setting up inception_3a/5x5_reduce
I0403 15:23:59.750427 11913 net.cpp:148] Top shape: 24 16 28 28 (301056)
I0403 15:23:59.750443 11913 net.cpp:156] Memory required for data: 535880736
I0403 15:23:59.750461 11913 layer_factory.hpp:77] Creating layer inception_3a/relu_5x5_reduce
I0403 15:23:59.750480 11913 net.cpp:91] Creating Layer inception_3a/relu_5x5_reduce
I0403 15:23:59.750496 11913 net.cpp:425] inception_3a/relu_5x5_reduce <- inception_3a/5x5_reduce
I0403 15:23:59.750517 11913 net.cpp:386] inception_3a/relu_5x5_reduce -> inception_3a/5x5_reduce (in-place)
I0403 15:23:59.750813 11913 net.cpp:141] Setting up inception_3a/relu_5x5_reduce
I0403 15:23:59.750839 11913 net.cpp:148] Top shape: 24 16 28 28 (301056)
I0403 15:23:59.750854 11913 net.cpp:156] Memory required for data: 537084960
I0403 15:23:59.750869 11913 layer_factory.hpp:77] Creating layer inception_3a/5x5
I0403 15:23:59.750890 11913 net.cpp:91] Creating Layer inception_3a/5x5
I0403 15:23:59.750907 11913 net.cpp:425] inception_3a/5x5 <- inception_3a/5x5_reduce
I0403 15:23:59.750929 11913 net.cpp:399] inception_3a/5x5 -> inception_3a/5x5
I0403 15:23:59.751955 11913 net.cpp:141] Setting up inception_3a/5x5
I0403 15:23:59.751982 11913 net.cpp:148] Top shape: 24 32 28 28 (602112)
I0403 15:23:59.751997 11913 net.cpp:156] Memory required for data: 539493408
I0403 15:23:59.752017 11913 layer_factory.hpp:77] Creating layer inception_3a/relu_5x5
I0403 15:23:59.752037 11913 net.cpp:91] Creating Layer inception_3a/relu_5x5
I0403 15:23:59.752053 11913 net.cpp:425] inception_3a/relu_5x5 <- inception_3a/5x5
I0403 15:23:59.752070 11913 net.cpp:386] inception_3a/relu_5x5 -> inception_3a/5x5 (in-place)
I0403 15:23:59.752238 11913 net.cpp:141] Setting up inception_3a/relu_5x5
I0403 15:23:59.752262 11913 net.cpp:148] Top shape: 24 32 28 28 (602112)
I0403 15:23:59.752277 11913 net.cpp:156] Memory required for data: 541901856
I0403 15:23:59.752291 11913 layer_factory.hpp:77] Creating layer inception_3a/pool
I0403 15:23:59.752310 11913 net.cpp:91] Creating Layer inception_3a/pool
I0403 15:23:59.752344 11913 net.cpp:425] inception_3a/pool <- pool2/3x3_s2_pool2/3x3_s2_0_split_3
I0403 15:23:59.752365 11913 net.cpp:399] inception_3a/pool -> inception_3a/pool
I0403 15:23:59.752423 11913 net.cpp:141] Setting up inception_3a/pool
I0403 15:23:59.752445 11913 net.cpp:148] Top shape: 24 192 28 28 (3612672)
I0403 15:23:59.752460 11913 net.cpp:156] Memory required for data: 556352544
I0403 15:23:59.752475 11913 layer_factory.hpp:77] Creating layer inception_3a/pool_proj
I0403 15:23:59.752501 11913 net.cpp:91] Creating Layer inception_3a/pool_proj
I0403 15:23:59.752517 11913 net.cpp:425] inception_3a/pool_proj <- inception_3a/pool
I0403 15:23:59.752537 11913 net.cpp:399] inception_3a/pool_proj -> inception_3a/pool_proj
I0403 15:23:59.753518 11913 net.cpp:141] Setting up inception_3a/pool_proj
I0403 15:23:59.753547 11913 net.cpp:148] Top shape: 24 32 28 28 (602112)
I0403 15:23:59.753562 11913 net.cpp:156] Memory required for data: 558760992
I0403 15:23:59.753587 11913 layer_factory.hpp:77] Creating layer inception_3a/relu_pool_proj
I0403 15:23:59.753607 11913 net.cpp:91] Creating Layer inception_3a/relu_pool_proj
I0403 15:23:59.753624 11913 net.cpp:425] inception_3a/relu_pool_proj <- inception_3a/pool_proj
I0403 15:23:59.753644 11913 net.cpp:386] inception_3a/relu_pool_proj -> inception_3a/pool_proj (in-place)
I0403 15:23:59.753922 11913 net.cpp:141] Setting up inception_3a/relu_pool_proj
I0403 15:23:59.753952 11913 net.cpp:148] Top shape: 24 32 28 28 (602112)
I0403 15:23:59.753968 11913 net.cpp:156] Memory required for data: 561169440
I0403 15:23:59.753984 11913 layer_factory.hpp:77] Creating layer inception_3a/output
I0403 15:23:59.754004 11913 net.cpp:91] Creating Layer inception_3a/output
I0403 15:23:59.754019 11913 net.cpp:425] inception_3a/output <- inception_3a/1x1
I0403 15:23:59.754036 11913 net.cpp:425] inception_3a/output <- inception_3a/3x3
I0403 15:23:59.754052 11913 net.cpp:425] inception_3a/output <- inception_3a/5x5
I0403 15:23:59.754068 11913 net.cpp:425] inception_3a/output <- inception_3a/pool_proj
I0403 15:23:59.754087 11913 net.cpp:399] inception_3a/output -> inception_3a/output
I0403 15:23:59.754134 11913 net.cpp:141] Setting up inception_3a/output
I0403 15:23:59.754158 11913 net.cpp:148] Top shape: 24 256 28 28 (4816896)
I0403 15:23:59.754173 11913 net.cpp:156] Memory required for data: 580437024
I0403 15:23:59.754189 11913 layer_factory.hpp:77] Creating layer inception_3a/output_inception_3a/output_0_split
I0403 15:23:59.754205 11913 net.cpp:91] Creating Layer inception_3a/output_inception_3a/output_0_split
I0403 15:23:59.754220 11913 net.cpp:425] inception_3a/output_inception_3a/output_0_split <- inception_3a/output
I0403 15:23:59.754241 11913 net.cpp:399] inception_3a/output_inception_3a/output_0_split -> inception_3a/output_inception_3a/output_0_split_0
I0403 15:23:59.754262 11913 net.cpp:399] inception_3a/output_inception_3a/output_0_split -> inception_3a/output_inception_3a/output_0_split_1
I0403 15:23:59.754288 11913 net.cpp:399] inception_3a/output_inception_3a/output_0_split -> inception_3a/output_inception_3a/output_0_split_2
I0403 15:23:59.754309 11913 net.cpp:399] inception_3a/output_inception_3a/output_0_split -> inception_3a/output_inception_3a/output_0_split_3
I0403 15:23:59.754389 11913 net.cpp:141] Setting up inception_3a/output_inception_3a/output_0_split
I0403 15:23:59.754412 11913 net.cpp:148] Top shape: 24 256 28 28 (4816896)
I0403 15:23:59.754431 11913 net.cpp:148] Top shape: 24 256 28 28 (4816896)
I0403 15:23:59.754449 11913 net.cpp:148] Top shape: 24 256 28 28 (4816896)
I0403 15:23:59.754465 11913 net.cpp:148] Top shape: 24 256 28 28 (4816896)
I0403 15:23:59.754478 11913 net.cpp:156] Memory required for data: 657507360
I0403 15:23:59.754493 11913 layer_factory.hpp:77] Creating layer inception_3b/1x1
I0403 15:23:59.754513 11913 net.cpp:91] Creating Layer inception_3b/1x1
I0403 15:23:59.754529 11913 net.cpp:425] inception_3b/1x1 <- inception_3a/output_inception_3a/output_0_split_0
I0403 15:23:59.754551 11913 net.cpp:399] inception_3b/1x1 -> inception_3b/1x1
I0403 15:23:59.755703 11913 net.cpp:141] Setting up inception_3b/1x1
I0403 15:23:59.755744 11913 net.cpp:148] Top shape: 24 128 28 28 (2408448)
I0403 15:23:59.755760 11913 net.cpp:156] Memory required for data: 667141152
I0403 15:23:59.755779 11913 layer_factory.hpp:77] Creating layer inception_3b/relu_1x1
I0403 15:23:59.755800 11913 net.cpp:91] Creating Layer inception_3b/relu_1x1
I0403 15:23:59.755817 11913 net.cpp:425] inception_3b/relu_1x1 <- inception_3b/1x1
I0403 15:23:59.755836 11913 net.cpp:386] inception_3b/relu_1x1 -> inception_3b/1x1 (in-place)
I0403 15:23:59.756014 11913 net.cpp:141] Setting up inception_3b/relu_1x1
I0403 15:23:59.756042 11913 net.cpp:148] Top shape: 24 128 28 28 (2408448)
I0403 15:23:59.756057 11913 net.cpp:156] Memory required for data: 676774944
I0403 15:23:59.756072 11913 layer_factory.hpp:77] Creating layer inception_3b/3x3_reduce
I0403 15:23:59.756095 11913 net.cpp:91] Creating Layer inception_3b/3x3_reduce
I0403 15:23:59.756114 11913 net.cpp:425] inception_3b/3x3_reduce <- inception_3a/output_inception_3a/output_0_split_1
I0403 15:23:59.756134 11913 net.cpp:399] inception_3b/3x3_reduce -> inception_3b/3x3_reduce
I0403 15:23:59.757277 11913 net.cpp:141] Setting up inception_3b/3x3_reduce
I0403 15:23:59.757305 11913 net.cpp:148] Top shape: 24 128 28 28 (2408448)
I0403 15:23:59.757326 11913 net.cpp:156] Memory required for data: 686408736
I0403 15:23:59.757346 11913 layer_factory.hpp:77] Creating layer inception_3b/relu_3x3_reduce
I0403 15:23:59.757369 11913 net.cpp:91] Creating Layer inception_3b/relu_3x3_reduce
I0403 15:23:59.757385 11913 net.cpp:425] inception_3b/relu_3x3_reduce <- inception_3b/3x3_reduce
I0403 15:23:59.757403 11913 net.cpp:386] inception_3b/relu_3x3_reduce -> inception_3b/3x3_reduce (in-place)
I0403 15:23:59.757578 11913 net.cpp:141] Setting up inception_3b/relu_3x3_reduce
I0403 15:23:59.757607 11913 net.cpp:148] Top shape: 24 128 28 28 (2408448)
I0403 15:23:59.757623 11913 net.cpp:156] Memory required for data: 696042528
I0403 15:23:59.757638 11913 layer_factory.hpp:77] Creating layer inception_3b/3x3
I0403 15:23:59.757664 11913 net.cpp:91] Creating Layer inception_3b/3x3
I0403 15:23:59.757683 11913 net.cpp:425] inception_3b/3x3 <- inception_3b/3x3_reduce
I0403 15:23:59.757705 11913 net.cpp:399] inception_3b/3x3 -> inception_3b/3x3
I0403 15:23:59.760668 11913 net.cpp:141] Setting up inception_3b/3x3
I0403 15:23:59.760699 11913 net.cpp:148] Top shape: 24 192 28 28 (3612672)
I0403 15:23:59.760716 11913 net.cpp:156] Memory required for data: 710493216
I0403 15:23:59.760735 11913 layer_factory.hpp:77] Creating layer inception_3b/relu_3x3
I0403 15:23:59.760753 11913 net.cpp:91] Creating Layer inception_3b/relu_3x3
I0403 15:23:59.760771 11913 net.cpp:425] inception_3b/relu_3x3 <- inception_3b/3x3
I0403 15:23:59.760790 11913 net.cpp:386] inception_3b/relu_3x3 -> inception_3b/3x3 (in-place)
I0403 15:23:59.761067 11913 net.cpp:141] Setting up inception_3b/relu_3x3
I0403 15:23:59.761096 11913 net.cpp:148] Top shape: 24 192 28 28 (3612672)
I0403 15:23:59.761112 11913 net.cpp:156] Memory required for data: 724943904
I0403 15:23:59.761128 11913 layer_factory.hpp:77] Creating layer inception_3b/5x5_reduce
I0403 15:23:59.761152 11913 net.cpp:91] Creating Layer inception_3b/5x5_reduce
I0403 15:23:59.761170 11913 net.cpp:425] inception_3b/5x5_reduce <- inception_3a/output_inception_3a/output_0_split_2
I0403 15:23:59.761191 11913 net.cpp:399] inception_3b/5x5_reduce -> inception_3b/5x5_reduce
I0403 15:23:59.762222 11913 net.cpp:141] Setting up inception_3b/5x5_reduce
I0403 15:23:59.762261 11913 net.cpp:148] Top shape: 24 32 28 28 (602112)
I0403 15:23:59.762276 11913 net.cpp:156] Memory required for data: 727352352
I0403 15:23:59.762295 11913 layer_factory.hpp:77] Creating layer inception_3b/relu_5x5_reduce
I0403 15:23:59.762320 11913 net.cpp:91] Creating Layer inception_3b/relu_5x5_reduce
I0403 15:23:59.762337 11913 net.cpp:425] inception_3b/relu_5x5_reduce <- inception_3b/5x5_reduce
I0403 15:23:59.762356 11913 net.cpp:386] inception_3b/relu_5x5_reduce -> inception_3b/5x5_reduce (in-place)
I0403 15:23:59.762545 11913 net.cpp:141] Setting up inception_3b/relu_5x5_reduce
I0403 15:23:59.762569 11913 net.cpp:148] Top shape: 24 32 28 28 (602112)
I0403 15:23:59.762584 11913 net.cpp:156] Memory required for data: 729760800
I0403 15:23:59.762598 11913 layer_factory.hpp:77] Creating layer inception_3b/5x5
I0403 15:23:59.762621 11913 net.cpp:91] Creating Layer inception_3b/5x5
I0403 15:23:59.762639 11913 net.cpp:425] inception_3b/5x5 <- inception_3b/5x5_reduce
I0403 15:23:59.762660 11913 net.cpp:399] inception_3b/5x5 -> inception_3b/5x5
I0403 15:23:59.764606 11913 net.cpp:141] Setting up inception_3b/5x5
I0403 15:23:59.764636 11913 net.cpp:148] Top shape: 24 96 28 28 (1806336)
I0403 15:23:59.764650 11913 net.cpp:156] Memory required for data: 736986144
I0403 15:23:59.764669 11913 layer_factory.hpp:77] Creating layer inception_3b/relu_5x5
I0403 15:23:59.764690 11913 net.cpp:91] Creating Layer inception_3b/relu_5x5
I0403 15:23:59.764708 11913 net.cpp:425] inception_3b/relu_5x5 <- inception_3b/5x5
I0403 15:23:59.764724 11913 net.cpp:386] inception_3b/relu_5x5 -> inception_3b/5x5 (in-place)
I0403 15:23:59.764914 11913 net.cpp:141] Setting up inception_3b/relu_5x5
I0403 15:23:59.764938 11913 net.cpp:148] Top shape: 24 96 28 28 (1806336)
I0403 15:23:59.764953 11913 net.cpp:156] Memory required for data: 744211488
I0403 15:23:59.764969 11913 layer_factory.hpp:77] Creating layer inception_3b/pool
I0403 15:23:59.764987 11913 net.cpp:91] Creating Layer inception_3b/pool
I0403 15:23:59.765003 11913 net.cpp:425] inception_3b/pool <- inception_3a/output_inception_3a/output_0_split_3
I0403 15:23:59.765020 11913 net.cpp:399] inception_3b/pool -> inception_3b/pool
I0403 15:23:59.765074 11913 net.cpp:141] Setting up inception_3b/pool
I0403 15:23:59.765097 11913 net.cpp:148] Top shape: 24 256 28 28 (4816896)
I0403 15:23:59.765111 11913 net.cpp:156] Memory required for data: 763479072
I0403 15:23:59.765126 11913 layer_factory.hpp:77] Creating layer inception_3b/pool_proj
I0403 15:23:59.765148 11913 net.cpp:91] Creating Layer inception_3b/pool_proj
I0403 15:23:59.765166 11913 net.cpp:425] inception_3b/pool_proj <- inception_3b/pool
I0403 15:23:59.765187 11913 net.cpp:399] inception_3b/pool_proj -> inception_3b/pool_proj
I0403 15:23:59.766229 11913 net.cpp:141] Setting up inception_3b/pool_proj
I0403 15:23:59.766257 11913 net.cpp:148] Top shape: 24 64 28 28 (1204224)
I0403 15:23:59.766273 11913 net.cpp:156] Memory required for data: 768295968
I0403 15:23:59.766290 11913 layer_factory.hpp:77] Creating layer inception_3b/relu_pool_proj
I0403 15:23:59.766329 11913 net.cpp:91] Creating Layer inception_3b/relu_pool_proj
I0403 15:23:59.766345 11913 net.cpp:425] inception_3b/relu_pool_proj <- inception_3b/pool_proj
I0403 15:23:59.766366 11913 net.cpp:386] inception_3b/relu_pool_proj -> inception_3b/pool_proj (in-place)
I0403 15:23:59.766788 11913 net.cpp:141] Setting up inception_3b/relu_pool_proj
I0403 15:23:59.766816 11913 net.cpp:148] Top shape: 24 64 28 28 (1204224)
I0403 15:23:59.766834 11913 net.cpp:156] Memory required for data: 773112864
I0403 15:23:59.766849 11913 layer_factory.hpp:77] Creating layer inception_3b/output
I0403 15:23:59.766865 11913 net.cpp:91] Creating Layer inception_3b/output
I0403 15:23:59.766880 11913 net.cpp:425] inception_3b/output <- inception_3b/1x1
I0403 15:23:59.766896 11913 net.cpp:425] inception_3b/output <- inception_3b/3x3
I0403 15:23:59.766912 11913 net.cpp:425] inception_3b/output <- inception_3b/5x5
I0403 15:23:59.766927 11913 net.cpp:425] inception_3b/output <- inception_3b/pool_proj
I0403 15:23:59.766947 11913 net.cpp:399] inception_3b/output -> inception_3b/output
I0403 15:23:59.766990 11913 net.cpp:141] Setting up inception_3b/output
I0403 15:23:59.767012 11913 net.cpp:148] Top shape: 24 480 28 28 (9031680)
I0403 15:23:59.767026 11913 net.cpp:156] Memory required for data: 809239584
I0403 15:23:59.767041 11913 layer_factory.hpp:77] Creating layer pool3/3x3_s2
I0403 15:23:59.767060 11913 net.cpp:91] Creating Layer pool3/3x3_s2
I0403 15:23:59.767077 11913 net.cpp:425] pool3/3x3_s2 <- inception_3b/output
I0403 15:23:59.767110 11913 net.cpp:399] pool3/3x3_s2 -> pool3/3x3_s2
I0403 15:23:59.767169 11913 net.cpp:141] Setting up pool3/3x3_s2
I0403 15:23:59.767192 11913 net.cpp:148] Top shape: 24 480 14 14 (2257920)
I0403 15:23:59.767206 11913 net.cpp:156] Memory required for data: 818271264
I0403 15:23:59.767221 11913 layer_factory.hpp:77] Creating layer pool3/3x3_s2_pool3/3x3_s2_0_split
I0403 15:23:59.767237 11913 net.cpp:91] Creating Layer pool3/3x3_s2_pool3/3x3_s2_0_split
I0403 15:23:59.767256 11913 net.cpp:425] pool3/3x3_s2_pool3/3x3_s2_0_split <- pool3/3x3_s2
I0403 15:23:59.767272 11913 net.cpp:399] pool3/3x3_s2_pool3/3x3_s2_0_split -> pool3/3x3_s2_pool3/3x3_s2_0_split_0
I0403 15:23:59.767292 11913 net.cpp:399] pool3/3x3_s2_pool3/3x3_s2_0_split -> pool3/3x3_s2_pool3/3x3_s2_0_split_1
I0403 15:23:59.767312 11913 net.cpp:399] pool3/3x3_s2_pool3/3x3_s2_0_split -> pool3/3x3_s2_pool3/3x3_s2_0_split_2
I0403 15:23:59.767335 11913 net.cpp:399] pool3/3x3_s2_pool3/3x3_s2_0_split -> pool3/3x3_s2_pool3/3x3_s2_0_split_3
I0403 15:23:59.767413 11913 net.cpp:141] Setting up pool3/3x3_s2_pool3/3x3_s2_0_split
I0403 15:23:59.767436 11913 net.cpp:148] Top shape: 24 480 14 14 (2257920)
I0403 15:23:59.767452 11913 net.cpp:148] Top shape: 24 480 14 14 (2257920)
I0403 15:23:59.767467 11913 net.cpp:148] Top shape: 24 480 14 14 (2257920)
I0403 15:23:59.767482 11913 net.cpp:148] Top shape: 24 480 14 14 (2257920)
I0403 15:23:59.767496 11913 net.cpp:156] Memory required for data: 854397984
I0403 15:23:59.767511 11913 layer_factory.hpp:77] Creating layer inception_4a/1x1
I0403 15:23:59.767534 11913 net.cpp:91] Creating Layer inception_4a/1x1
I0403 15:23:59.767549 11913 net.cpp:425] inception_4a/1x1 <- pool3/3x3_s2_pool3/3x3_s2_0_split_0
I0403 15:23:59.767571 11913 net.cpp:399] inception_4a/1x1 -> inception_4a/1x1
I0403 15:23:59.769115 11913 net.cpp:141] Setting up inception_4a/1x1
I0403 15:23:59.769142 11913 net.cpp:148] Top shape: 24 192 14 14 (903168)
I0403 15:23:59.769158 11913 net.cpp:156] Memory required for data: 858010656
I0403 15:23:59.769176 11913 layer_factory.hpp:77] Creating layer inception_4a/relu_1x1
I0403 15:23:59.769194 11913 net.cpp:91] Creating Layer inception_4a/relu_1x1
I0403 15:23:59.769209 11913 net.cpp:425] inception_4a/relu_1x1 <- inception_4a/1x1
I0403 15:23:59.769229 11913 net.cpp:386] inception_4a/relu_1x1 -> inception_4a/1x1 (in-place)
I0403 15:23:59.769423 11913 net.cpp:141] Setting up inception_4a/relu_1x1
I0403 15:23:59.769448 11913 net.cpp:148] Top shape: 24 192 14 14 (903168)
I0403 15:23:59.769464 11913 net.cpp:156] Memory required for data: 861623328
I0403 15:23:59.769479 11913 layer_factory.hpp:77] Creating layer inception_4a/3x3_reduce
I0403 15:23:59.769501 11913 net.cpp:91] Creating Layer inception_4a/3x3_reduce
I0403 15:23:59.769518 11913 net.cpp:425] inception_4a/3x3_reduce <- pool3/3x3_s2_pool3/3x3_s2_0_split_1
I0403 15:23:59.769541 11913 net.cpp:399] inception_4a/3x3_reduce -> inception_4a/3x3_reduce
I0403 15:23:59.770812 11913 net.cpp:141] Setting up inception_4a/3x3_reduce
I0403 15:23:59.770840 11913 net.cpp:148] Top shape: 24 96 14 14 (451584)
I0403 15:23:59.770855 11913 net.cpp:156] Memory required for data: 863429664
I0403 15:23:59.770881 11913 layer_factory.hpp:77] Creating layer inception_4a/relu_3x3_reduce
I0403 15:23:59.770900 11913 net.cpp:91] Creating Layer inception_4a/relu_3x3_reduce
I0403 15:23:59.770916 11913 net.cpp:425] inception_4a/relu_3x3_reduce <- inception_4a/3x3_reduce
I0403 15:23:59.770936 11913 net.cpp:386] inception_4a/relu_3x3_reduce -> inception_4a/3x3_reduce (in-place)
I0403 15:23:59.771107 11913 net.cpp:141] Setting up inception_4a/relu_3x3_reduce
I0403 15:23:59.771132 11913 net.cpp:148] Top shape: 24 96 14 14 (451584)
I0403 15:23:59.771147 11913 net.cpp:156] Memory required for data: 865236000
I0403 15:23:59.771162 11913 layer_factory.hpp:77] Creating layer inception_4a/3x3
I0403 15:23:59.771184 11913 net.cpp:91] Creating Layer inception_4a/3x3
I0403 15:23:59.771201 11913 net.cpp:425] inception_4a/3x3 <- inception_4a/3x3_reduce
I0403 15:23:59.771222 11913 net.cpp:399] inception_4a/3x3 -> inception_4a/3x3
I0403 15:23:59.773865 11913 net.cpp:141] Setting up inception_4a/3x3
I0403 15:23:59.773892 11913 net.cpp:148] Top shape: 24 208 14 14 (978432)
I0403 15:23:59.773907 11913 net.cpp:156] Memory required for data: 869149728
I0403 15:23:59.773926 11913 layer_factory.hpp:77] Creating layer inception_4a/relu_3x3
I0403 15:23:59.773944 11913 net.cpp:91] Creating Layer inception_4a/relu_3x3
I0403 15:23:59.773962 11913 net.cpp:425] inception_4a/relu_3x3 <- inception_4a/3x3
I0403 15:23:59.773978 11913 net.cpp:386] inception_4a/relu_3x3 -> inception_4a/3x3 (in-place)
I0403 15:23:59.774246 11913 net.cpp:141] Setting up inception_4a/relu_3x3
I0403 15:23:59.774271 11913 net.cpp:148] Top shape: 24 208 14 14 (978432)
I0403 15:23:59.774286 11913 net.cpp:156] Memory required for data: 873063456
I0403 15:23:59.774301 11913 layer_factory.hpp:77] Creating layer inception_4a/5x5_reduce
I0403 15:23:59.774327 11913 net.cpp:91] Creating Layer inception_4a/5x5_reduce
I0403 15:23:59.774344 11913 net.cpp:425] inception_4a/5x5_reduce <- pool3/3x3_s2_pool3/3x3_s2_0_split_2
I0403 15:23:59.774366 11913 net.cpp:399] inception_4a/5x5_reduce -> inception_4a/5x5_reduce
I0403 15:23:59.775360 11913 net.cpp:141] Setting up inception_4a/5x5_reduce
I0403 15:23:59.775388 11913 net.cpp:148] Top shape: 24 16 14 14 (75264)
I0403 15:23:59.775403 11913 net.cpp:156] Memory required for data: 873364512
I0403 15:23:59.775420 11913 layer_factory.hpp:77] Creating layer inception_4a/relu_5x5_reduce
I0403 15:23:59.775440 11913 net.cpp:91] Creating Layer inception_4a/relu_5x5_reduce
I0403 15:23:59.775457 11913 net.cpp:425] inception_4a/relu_5x5_reduce <- inception_4a/5x5_reduce
I0403 15:23:59.775475 11913 net.cpp:386] inception_4a/relu_5x5_reduce -> inception_4a/5x5_reduce (in-place)
I0403 15:23:59.775652 11913 net.cpp:141] Setting up inception_4a/relu_5x5_reduce
I0403 15:23:59.775676 11913 net.cpp:148] Top shape: 24 16 14 14 (75264)
I0403 15:23:59.775691 11913 net.cpp:156] Memory required for data: 873665568
I0403 15:23:59.775706 11913 layer_factory.hpp:77] Creating layer inception_4a/5x5
I0403 15:23:59.775728 11913 net.cpp:91] Creating Layer inception_4a/5x5
I0403 15:23:59.775746 11913 net.cpp:425] inception_4a/5x5 <- inception_4a/5x5_reduce
I0403 15:23:59.775768 11913 net.cpp:399] inception_4a/5x5 -> inception_4a/5x5
I0403 15:23:59.776835 11913 net.cpp:141] Setting up inception_4a/5x5
I0403 15:23:59.776864 11913 net.cpp:148] Top shape: 24 48 14 14 (225792)
I0403 15:23:59.776880 11913 net.cpp:156] Memory required for data: 874568736
I0403 15:23:59.776897 11913 layer_factory.hpp:77] Creating layer inception_4a/relu_5x5
I0403 15:23:59.776914 11913 net.cpp:91] Creating Layer inception_4a/relu_5x5
I0403 15:23:59.776929 11913 net.cpp:425] inception_4a/relu_5x5 <- inception_4a/5x5
I0403 15:23:59.776948 11913 net.cpp:386] inception_4a/relu_5x5 -> inception_4a/5x5 (in-place)
I0403 15:23:59.777117 11913 net.cpp:141] Setting up inception_4a/relu_5x5
I0403 15:23:59.777140 11913 net.cpp:148] Top shape: 24 48 14 14 (225792)
I0403 15:23:59.777154 11913 net.cpp:156] Memory required for data: 875471904
I0403 15:23:59.777168 11913 layer_factory.hpp:77] Creating layer inception_4a/pool
I0403 15:23:59.777185 11913 net.cpp:91] Creating Layer inception_4a/pool
I0403 15:23:59.777200 11913 net.cpp:425] inception_4a/pool <- pool3/3x3_s2_pool3/3x3_s2_0_split_3
I0403 15:23:59.777220 11913 net.cpp:399] inception_4a/pool -> inception_4a/pool
I0403 15:23:59.777279 11913 net.cpp:141] Setting up inception_4a/pool
I0403 15:23:59.777302 11913 net.cpp:148] Top shape: 24 480 14 14 (2257920)
I0403 15:23:59.777320 11913 net.cpp:156] Memory required for data: 884503584
I0403 15:23:59.777335 11913 layer_factory.hpp:77] Creating layer inception_4a/pool_proj
I0403 15:23:59.777357 11913 net.cpp:91] Creating Layer inception_4a/pool_proj
I0403 15:23:59.777374 11913 net.cpp:425] inception_4a/pool_proj <- inception_4a/pool
I0403 15:23:59.777395 11913 net.cpp:399] inception_4a/pool_proj -> inception_4a/pool_proj
I0403 15:23:59.778508 11913 net.cpp:141] Setting up inception_4a/pool_proj
I0403 15:23:59.778535 11913 net.cpp:148] Top shape: 24 64 14 14 (301056)
I0403 15:23:59.778565 11913 net.cpp:156] Memory required for data: 885707808
I0403 15:23:59.778584 11913 layer_factory.hpp:77] Creating layer inception_4a/relu_pool_proj
I0403 15:23:59.778604 11913 net.cpp:91] Creating Layer inception_4a/relu_pool_proj
I0403 15:23:59.778620 11913 net.cpp:425] inception_4a/relu_pool_proj <- inception_4a/pool_proj
I0403 15:23:59.778636 11913 net.cpp:386] inception_4a/relu_pool_proj -> inception_4a/pool_proj (in-place)
I0403 15:23:59.778908 11913 net.cpp:141] Setting up inception_4a/relu_pool_proj
I0403 15:23:59.778933 11913 net.cpp:148] Top shape: 24 64 14 14 (301056)
I0403 15:23:59.778946 11913 net.cpp:156] Memory required for data: 886912032
I0403 15:23:59.778961 11913 layer_factory.hpp:77] Creating layer inception_4a/output
I0403 15:23:59.778977 11913 net.cpp:91] Creating Layer inception_4a/output
I0403 15:23:59.778992 11913 net.cpp:425] inception_4a/output <- inception_4a/1x1
I0403 15:23:59.779008 11913 net.cpp:425] inception_4a/output <- inception_4a/3x3
I0403 15:23:59.779024 11913 net.cpp:425] inception_4a/output <- inception_4a/5x5
I0403 15:23:59.779041 11913 net.cpp:425] inception_4a/output <- inception_4a/pool_proj
I0403 15:23:59.779059 11913 net.cpp:399] inception_4a/output -> inception_4a/output
I0403 15:23:59.779101 11913 net.cpp:141] Setting up inception_4a/output
I0403 15:23:59.779126 11913 net.cpp:148] Top shape: 24 512 14 14 (2408448)
I0403 15:23:59.779140 11913 net.cpp:156] Memory required for data: 896545824
I0403 15:23:59.779155 11913 layer_factory.hpp:77] Creating layer inception_4a/output_inception_4a/output_0_split
I0403 15:23:59.779172 11913 net.cpp:91] Creating Layer inception_4a/output_inception_4a/output_0_split
I0403 15:23:59.779187 11913 net.cpp:425] inception_4a/output_inception_4a/output_0_split <- inception_4a/output
I0403 15:23:59.779206 11913 net.cpp:399] inception_4a/output_inception_4a/output_0_split -> inception_4a/output_inception_4a/output_0_split_0
I0403 15:23:59.779227 11913 net.cpp:399] inception_4a/output_inception_4a/output_0_split -> inception_4a/output_inception_4a/output_0_split_1
I0403 15:23:59.779247 11913 net.cpp:399] inception_4a/output_inception_4a/output_0_split -> inception_4a/output_inception_4a/output_0_split_2
I0403 15:23:59.779268 11913 net.cpp:399] inception_4a/output_inception_4a/output_0_split -> inception_4a/output_inception_4a/output_0_split_3
I0403 15:23:59.779286 11913 net.cpp:399] inception_4a/output_inception_4a/output_0_split -> inception_4a/output_inception_4a/output_0_split_4
I0403 15:23:59.779378 11913 net.cpp:141] Setting up inception_4a/output_inception_4a/output_0_split
I0403 15:23:59.779402 11913 net.cpp:148] Top shape: 24 512 14 14 (2408448)
I0403 15:23:59.779417 11913 net.cpp:148] Top shape: 24 512 14 14 (2408448)
I0403 15:23:59.779433 11913 net.cpp:148] Top shape: 24 512 14 14 (2408448)
I0403 15:23:59.779446 11913 net.cpp:148] Top shape: 24 512 14 14 (2408448)
I0403 15:23:59.779461 11913 net.cpp:148] Top shape: 24 512 14 14 (2408448)
I0403 15:23:59.779474 11913 net.cpp:156] Memory required for data: 944714784
I0403 15:23:59.779489 11913 layer_factory.hpp:77] Creating layer loss1/ave_pool
I0403 15:23:59.779507 11913 net.cpp:91] Creating Layer loss1/ave_pool
I0403 15:23:59.779523 11913 net.cpp:425] loss1/ave_pool <- inception_4a/output_inception_4a/output_0_split_0
I0403 15:23:59.779541 11913 net.cpp:399] loss1/ave_pool -> loss1/ave_pool
I0403 15:23:59.779738 11913 net.cpp:141] Setting up loss1/ave_pool
I0403 15:23:59.779763 11913 net.cpp:148] Top shape: 24 512 4 4 (196608)
I0403 15:23:59.779778 11913 net.cpp:156] Memory required for data: 945501216
I0403 15:23:59.779793 11913 layer_factory.hpp:77] Creating layer loss1/conv
I0403 15:23:59.779814 11913 net.cpp:91] Creating Layer loss1/conv
I0403 15:23:59.779829 11913 net.cpp:425] loss1/conv <- loss1/ave_pool
I0403 15:23:59.779850 11913 net.cpp:399] loss1/conv -> loss1/conv
I0403 15:23:59.781242 11913 net.cpp:141] Setting up loss1/conv
I0403 15:23:59.781270 11913 net.cpp:148] Top shape: 24 128 4 4 (49152)
I0403 15:23:59.781297 11913 net.cpp:156] Memory required for data: 945697824
I0403 15:23:59.781321 11913 layer_factory.hpp:77] Creating layer loss1/relu_conv
I0403 15:23:59.781342 11913 net.cpp:91] Creating Layer loss1/relu_conv
I0403 15:23:59.781358 11913 net.cpp:425] loss1/relu_conv <- loss1/conv
I0403 15:23:59.781375 11913 net.cpp:386] loss1/relu_conv -> loss1/conv (in-place)
I0403 15:23:59.781664 11913 net.cpp:141] Setting up loss1/relu_conv
I0403 15:23:59.781690 11913 net.cpp:148] Top shape: 24 128 4 4 (49152)
I0403 15:23:59.781705 11913 net.cpp:156] Memory required for data: 945894432
I0403 15:23:59.781731 11913 layer_factory.hpp:77] Creating layer loss1/fc
I0403 15:23:59.781756 11913 net.cpp:91] Creating Layer loss1/fc
I0403 15:23:59.781774 11913 net.cpp:425] loss1/fc <- loss1/conv
I0403 15:23:59.781796 11913 net.cpp:399] loss1/fc -> loss1/fc
I0403 15:23:59.798949 11913 net.cpp:141] Setting up loss1/fc
I0403 15:23:59.798980 11913 net.cpp:148] Top shape: 24 1024 (24576)
I0403 15:23:59.798995 11913 net.cpp:156] Memory required for data: 945992736
I0403 15:23:59.799013 11913 layer_factory.hpp:77] Creating layer loss1/relu_fc
I0403 15:23:59.799032 11913 net.cpp:91] Creating Layer loss1/relu_fc
I0403 15:23:59.799048 11913 net.cpp:425] loss1/relu_fc <- loss1/fc
I0403 15:23:59.799067 11913 net.cpp:386] loss1/relu_fc -> loss1/fc (in-place)
I0403 15:23:59.799243 11913 net.cpp:141] Setting up loss1/relu_fc
I0403 15:23:59.799266 11913 net.cpp:148] Top shape: 24 1024 (24576)
I0403 15:23:59.799280 11913 net.cpp:156] Memory required for data: 946091040
I0403 15:23:59.799295 11913 layer_factory.hpp:77] Creating layer loss1/drop_fc
I0403 15:23:59.799324 11913 net.cpp:91] Creating Layer loss1/drop_fc
I0403 15:23:59.799342 11913 net.cpp:425] loss1/drop_fc <- loss1/fc
I0403 15:23:59.799360 11913 net.cpp:386] loss1/drop_fc -> loss1/fc (in-place)
I0403 15:23:59.799409 11913 net.cpp:141] Setting up loss1/drop_fc
I0403 15:23:59.799432 11913 net.cpp:148] Top shape: 24 1024 (24576)
I0403 15:23:59.799445 11913 net.cpp:156] Memory required for data: 946189344
I0403 15:23:59.799460 11913 layer_factory.hpp:77] Creating layer loss1/classifier_plantvillage
I0403 15:23:59.799477 11913 net.cpp:91] Creating Layer loss1/classifier_plantvillage
I0403 15:23:59.799494 11913 net.cpp:425] loss1/classifier_plantvillage <- loss1/fc
I0403 15:23:59.799515 11913 net.cpp:399] loss1/classifier_plantvillage -> loss1/classifier_plantvillage
I0403 15:23:59.800403 11913 net.cpp:141] Setting up loss1/classifier_plantvillage
I0403 15:23:59.800431 11913 net.cpp:148] Top shape: 24 38 (912)
I0403 15:23:59.800446 11913 net.cpp:156] Memory required for data: 946192992
I0403 15:23:59.800465 11913 layer_factory.hpp:77] Creating layer loss1/classifier_plantvillage_loss1/classifier_plantvillage_0_split
I0403 15:23:59.800484 11913 net.cpp:91] Creating Layer loss1/classifier_plantvillage_loss1/classifier_plantvillage_0_split
I0403 15:23:59.800503 11913 net.cpp:425] loss1/classifier_plantvillage_loss1/classifier_plantvillage_0_split <- loss1/classifier_plantvillage
I0403 15:23:59.800519 11913 net.cpp:399] loss1/classifier_plantvillage_loss1/classifier_plantvillage_0_split -> loss1/classifier_plantvillage_loss1/classifier_plantvillage_0_split_0
I0403 15:23:59.800539 11913 net.cpp:399] loss1/classifier_plantvillage_loss1/classifier_plantvillage_0_split -> loss1/classifier_plantvillage_loss1/classifier_plantvillage_0_split_1
I0403 15:23:59.800559 11913 net.cpp:399] loss1/classifier_plantvillage_loss1/classifier_plantvillage_0_split -> loss1/classifier_plantvillage_loss1/classifier_plantvillage_0_split_2
I0403 15:23:59.800627 11913 net.cpp:141] Setting up loss1/classifier_plantvillage_loss1/classifier_plantvillage_0_split
I0403 15:23:59.800650 11913 net.cpp:148] Top shape: 24 38 (912)
I0403 15:23:59.800667 11913 net.cpp:148] Top shape: 24 38 (912)
I0403 15:23:59.800681 11913 net.cpp:148] Top shape: 24 38 (912)
I0403 15:23:59.800695 11913 net.cpp:156] Memory required for data: 946203936
I0403 15:23:59.800709 11913 layer_factory.hpp:77] Creating layer inception_4b/1x1
I0403 15:23:59.800731 11913 net.cpp:91] Creating Layer inception_4b/1x1
I0403 15:23:59.800763 11913 net.cpp:425] inception_4b/1x1 <- inception_4a/output_inception_4a/output_0_split_1
I0403 15:23:59.800783 11913 net.cpp:399] inception_4b/1x1 -> inception_4b/1x1
I0403 15:23:59.804580 11913 net.cpp:141] Setting up inception_4b/1x1
I0403 15:23:59.804610 11913 net.cpp:148] Top shape: 24 160 14 14 (752640)
I0403 15:23:59.804625 11913 net.cpp:156] Memory required for data: 949214496
I0403 15:23:59.804642 11913 layer_factory.hpp:77] Creating layer inception_4b/relu_1x1
I0403 15:23:59.804663 11913 net.cpp:91] Creating Layer inception_4b/relu_1x1
I0403 15:23:59.804680 11913 net.cpp:425] inception_4b/relu_1x1 <- inception_4b/1x1
I0403 15:23:59.804697 11913 net.cpp:386] inception_4b/relu_1x1 -> inception_4b/1x1 (in-place)
I0403 15:23:59.804873 11913 net.cpp:141] Setting up inception_4b/relu_1x1
I0403 15:23:59.804898 11913 net.cpp:148] Top shape: 24 160 14 14 (752640)
I0403 15:23:59.804913 11913 net.cpp:156] Memory required for data: 952225056
I0403 15:23:59.804927 11913 layer_factory.hpp:77] Creating layer inception_4b/3x3_reduce
I0403 15:23:59.804949 11913 net.cpp:91] Creating Layer inception_4b/3x3_reduce
I0403 15:23:59.804966 11913 net.cpp:425] inception_4b/3x3_reduce <- inception_4a/output_inception_4a/output_0_split_2
I0403 15:23:59.804988 11913 net.cpp:399] inception_4b/3x3_reduce -> inception_4b/3x3_reduce
I0403 15:23:59.806346 11913 net.cpp:141] Setting up inception_4b/3x3_reduce
I0403 15:23:59.806378 11913 net.cpp:148] Top shape: 24 112 14 14 (526848)
I0403 15:23:59.806396 11913 net.cpp:156] Memory required for data: 954332448
I0403 15:23:59.806427 11913 layer_factory.hpp:77] Creating layer inception_4b/relu_3x3_reduce
I0403 15:23:59.806444 11913 net.cpp:91] Creating Layer inception_4b/relu_3x3_reduce
I0403 15:23:59.806460 11913 net.cpp:425] inception_4b/relu_3x3_reduce <- inception_4b/3x3_reduce
I0403 15:23:59.806480 11913 net.cpp:386] inception_4b/relu_3x3_reduce -> inception_4b/3x3_reduce (in-place)
I0403 15:23:59.806758 11913 net.cpp:141] Setting up inception_4b/relu_3x3_reduce
I0403 15:23:59.806787 11913 net.cpp:148] Top shape: 24 112 14 14 (526848)
I0403 15:23:59.806802 11913 net.cpp:156] Memory required for data: 956439840
I0403 15:23:59.806818 11913 layer_factory.hpp:77] Creating layer inception_4b/3x3
I0403 15:23:59.806840 11913 net.cpp:91] Creating Layer inception_4b/3x3
I0403 15:23:59.806857 11913 net.cpp:425] inception_4b/3x3 <- inception_4b/3x3_reduce
I0403 15:23:59.806879 11913 net.cpp:399] inception_4b/3x3 -> inception_4b/3x3
I0403 15:23:59.809875 11913 net.cpp:141] Setting up inception_4b/3x3
I0403 15:23:59.809902 11913 net.cpp:148] Top shape: 24 224 14 14 (1053696)
I0403 15:23:59.809918 11913 net.cpp:156] Memory required for data: 960654624
I0403 15:23:59.809937 11913 layer_factory.hpp:77] Creating layer inception_4b/relu_3x3
I0403 15:23:59.809957 11913 net.cpp:91] Creating Layer inception_4b/relu_3x3
I0403 15:23:59.809975 11913 net.cpp:425] inception_4b/relu_3x3 <- inception_4b/3x3
I0403 15:23:59.809993 11913 net.cpp:386] inception_4b/relu_3x3 -> inception_4b/3x3 (in-place)
I0403 15:23:59.810171 11913 net.cpp:141] Setting up inception_4b/relu_3x3
I0403 15:23:59.810196 11913 net.cpp:148] Top shape: 24 224 14 14 (1053696)
I0403 15:23:59.810215 11913 net.cpp:156] Memory required for data: 964869408
I0403 15:23:59.810230 11913 layer_factory.hpp:77] Creating layer inception_4b/5x5_reduce
I0403 15:23:59.810250 11913 net.cpp:91] Creating Layer inception_4b/5x5_reduce
I0403 15:23:59.810267 11913 net.cpp:425] inception_4b/5x5_reduce <- inception_4a/output_inception_4a/output_0_split_3
I0403 15:23:59.810292 11913 net.cpp:399] inception_4b/5x5_reduce -> inception_4b/5x5_reduce
I0403 15:23:59.811409 11913 net.cpp:141] Setting up inception_4b/5x5_reduce
I0403 15:23:59.811441 11913 net.cpp:148] Top shape: 24 24 14 14 (112896)
I0403 15:23:59.811458 11913 net.cpp:156] Memory required for data: 965320992
I0403 15:23:59.811477 11913 layer_factory.hpp:77] Creating layer inception_4b/relu_5x5_reduce
I0403 15:23:59.811498 11913 net.cpp:91] Creating Layer inception_4b/relu_5x5_reduce
I0403 15:23:59.811530 11913 net.cpp:425] inception_4b/relu_5x5_reduce <- inception_4b/5x5_reduce
I0403 15:23:59.811549 11913 net.cpp:386] inception_4b/relu_5x5_reduce -> inception_4b/5x5_reduce (in-place)
I0403 15:23:59.811741 11913 net.cpp:141] Setting up inception_4b/relu_5x5_reduce
I0403 15:23:59.811767 11913 net.cpp:148] Top shape: 24 24 14 14 (112896)
I0403 15:23:59.811782 11913 net.cpp:156] Memory required for data: 965772576
I0403 15:23:59.811799 11913 layer_factory.hpp:77] Creating layer inception_4b/5x5
I0403 15:23:59.811821 11913 net.cpp:91] Creating Layer inception_4b/5x5
I0403 15:23:59.811839 11913 net.cpp:425] inception_4b/5x5 <- inception_4b/5x5_reduce
I0403 15:23:59.811861 11913 net.cpp:399] inception_4b/5x5 -> inception_4b/5x5
I0403 15:23:59.813129 11913 net.cpp:141] Setting up inception_4b/5x5
I0403 15:23:59.813158 11913 net.cpp:148] Top shape: 24 64 14 14 (301056)
I0403 15:23:59.813174 11913 net.cpp:156] Memory required for data: 966976800
I0403 15:23:59.813192 11913 layer_factory.hpp:77] Creating layer inception_4b/relu_5x5
I0403 15:23:59.813213 11913 net.cpp:91] Creating Layer inception_4b/relu_5x5
I0403 15:23:59.813231 11913 net.cpp:425] inception_4b/relu_5x5 <- inception_4b/5x5
I0403 15:23:59.813249 11913 net.cpp:386] inception_4b/relu_5x5 -> inception_4b/5x5 (in-place)
I0403 15:23:59.813544 11913 net.cpp:141] Setting up inception_4b/relu_5x5
I0403 15:23:59.813570 11913 net.cpp:148] Top shape: 24 64 14 14 (301056)
I0403 15:23:59.813586 11913 net.cpp:156] Memory required for data: 968181024
I0403 15:23:59.813601 11913 layer_factory.hpp:77] Creating layer inception_4b/pool
I0403 15:23:59.813624 11913 net.cpp:91] Creating Layer inception_4b/pool
I0403 15:23:59.813642 11913 net.cpp:425] inception_4b/pool <- inception_4a/output_inception_4a/output_0_split_4
I0403 15:23:59.813663 11913 net.cpp:399] inception_4b/pool -> inception_4b/pool
I0403 15:23:59.813727 11913 net.cpp:141] Setting up inception_4b/pool
I0403 15:23:59.813751 11913 net.cpp:148] Top shape: 24 512 14 14 (2408448)
I0403 15:23:59.813766 11913 net.cpp:156] Memory required for data: 977814816
I0403 15:23:59.813781 11913 layer_factory.hpp:77] Creating layer inception_4b/pool_proj
I0403 15:23:59.813804 11913 net.cpp:91] Creating Layer inception_4b/pool_proj
I0403 15:23:59.813822 11913 net.cpp:425] inception_4b/pool_proj <- inception_4b/pool
I0403 15:23:59.813844 11913 net.cpp:399] inception_4b/pool_proj -> inception_4b/pool_proj
I0403 15:23:59.815067 11913 net.cpp:141] Setting up inception_4b/pool_proj
I0403 15:23:59.815096 11913 net.cpp:148] Top shape: 24 64 14 14 (301056)
I0403 15:23:59.815114 11913 net.cpp:156] Memory required for data: 979019040
I0403 15:23:59.815134 11913 layer_factory.hpp:77] Creating layer inception_4b/relu_pool_proj
I0403 15:23:59.815152 11913 net.cpp:91] Creating Layer inception_4b/relu_pool_proj
I0403 15:23:59.815168 11913 net.cpp:425] inception_4b/relu_pool_proj <- inception_4b/pool_proj
I0403 15:23:59.815189 11913 net.cpp:386] inception_4b/relu_pool_proj -> inception_4b/pool_proj (in-place)
I0403 15:23:59.815382 11913 net.cpp:141] Setting up inception_4b/relu_pool_proj
I0403 15:23:59.815407 11913 net.cpp:148] Top shape: 24 64 14 14 (301056)
I0403 15:23:59.815423 11913 net.cpp:156] Memory required for data: 980223264
I0403 15:23:59.815438 11913 layer_factory.hpp:77] Creating layer inception_4b/output
I0403 15:23:59.815455 11913 net.cpp:91] Creating Layer inception_4b/output
I0403 15:23:59.815471 11913 net.cpp:425] inception_4b/output <- inception_4b/1x1
I0403 15:23:59.815488 11913 net.cpp:425] inception_4b/output <- inception_4b/3x3
I0403 15:23:59.815505 11913 net.cpp:425] inception_4b/output <- inception_4b/5x5
I0403 15:23:59.815521 11913 net.cpp:425] inception_4b/output <- inception_4b/pool_proj
I0403 15:23:59.815541 11913 net.cpp:399] inception_4b/output -> inception_4b/output
I0403 15:23:59.815587 11913 net.cpp:141] Setting up inception_4b/output
I0403 15:23:59.815614 11913 net.cpp:148] Top shape: 24 512 14 14 (2408448)
I0403 15:23:59.815630 11913 net.cpp:156] Memory required for data: 989857056
I0403 15:23:59.815660 11913 layer_factory.hpp:77] Creating layer inception_4b/output_inception_4b/output_0_split
I0403 15:23:59.815680 11913 net.cpp:91] Creating Layer inception_4b/output_inception_4b/output_0_split
I0403 15:23:59.815696 11913 net.cpp:425] inception_4b/output_inception_4b/output_0_split <- inception_4b/output
I0403 15:23:59.815713 11913 net.cpp:399] inception_4b/output_inception_4b/output_0_split -> inception_4b/output_inception_4b/output_0_split_0
I0403 15:23:59.815733 11913 net.cpp:399] inception_4b/output_inception_4b/output_0_split -> inception_4b/output_inception_4b/output_0_split_1
I0403 15:23:59.815757 11913 net.cpp:399] inception_4b/output_inception_4b/output_0_split -> inception_4b/output_inception_4b/output_0_split_2
I0403 15:23:59.815778 11913 net.cpp:399] inception_4b/output_inception_4b/output_0_split -> inception_4b/output_inception_4b/output_0_split_3
I0403 15:23:59.815865 11913 net.cpp:141] Setting up inception_4b/output_inception_4b/output_0_split
I0403 15:23:59.815889 11913 net.cpp:148] Top shape: 24 512 14 14 (2408448)
I0403 15:23:59.815906 11913 net.cpp:148] Top shape: 24 512 14 14 (2408448)
I0403 15:23:59.815922 11913 net.cpp:148] Top shape: 24 512 14 14 (2408448)
I0403 15:23:59.815937 11913 net.cpp:148] Top shape: 24 512 14 14 (2408448)
I0403 15:23:59.815951 11913 net.cpp:156] Memory required for data: 1028392224
I0403 15:23:59.815966 11913 layer_factory.hpp:77] Creating layer inception_4c/1x1
I0403 15:23:59.815989 11913 net.cpp:91] Creating Layer inception_4c/1x1
I0403 15:23:59.816006 11913 net.cpp:425] inception_4c/1x1 <- inception_4b/output_inception_4b/output_0_split_0
I0403 15:23:59.816028 11913 net.cpp:399] inception_4c/1x1 -> inception_4c/1x1
I0403 15:23:59.817504 11913 net.cpp:141] Setting up inception_4c/1x1
I0403 15:23:59.817533 11913 net.cpp:148] Top shape: 24 128 14 14 (602112)
I0403 15:23:59.817548 11913 net.cpp:156] Memory required for data: 1030800672
I0403 15:23:59.817569 11913 layer_factory.hpp:77] Creating layer inception_4c/relu_1x1
I0403 15:23:59.817587 11913 net.cpp:91] Creating Layer inception_4c/relu_1x1
I0403 15:23:59.817603 11913 net.cpp:425] inception_4c/relu_1x1 <- inception_4c/1x1
I0403 15:23:59.817623 11913 net.cpp:386] inception_4c/relu_1x1 -> inception_4c/1x1 (in-place)
I0403 15:23:59.817806 11913 net.cpp:141] Setting up inception_4c/relu_1x1
I0403 15:23:59.817831 11913 net.cpp:148] Top shape: 24 128 14 14 (602112)
I0403 15:23:59.817845 11913 net.cpp:156] Memory required for data: 1033209120
I0403 15:23:59.817860 11913 layer_factory.hpp:77] Creating layer inception_4c/3x3_reduce
I0403 15:23:59.817883 11913 net.cpp:91] Creating Layer inception_4c/3x3_reduce
I0403 15:23:59.817901 11913 net.cpp:425] inception_4c/3x3_reduce <- inception_4b/output_inception_4b/output_0_split_1
I0403 15:23:59.817925 11913 net.cpp:399] inception_4c/3x3_reduce -> inception_4c/3x3_reduce
I0403 15:23:59.819947 11913 net.cpp:141] Setting up inception_4c/3x3_reduce
I0403 15:23:59.819974 11913 net.cpp:148] Top shape: 24 128 14 14 (602112)
I0403 15:23:59.819991 11913 net.cpp:156] Memory required for data: 1035617568
I0403 15:23:59.820009 11913 layer_factory.hpp:77] Creating layer inception_4c/relu_3x3_reduce
I0403 15:23:59.820031 11913 net.cpp:91] Creating Layer inception_4c/relu_3x3_reduce
I0403 15:23:59.820047 11913 net.cpp:425] inception_4c/relu_3x3_reduce <- inception_4c/3x3_reduce
I0403 15:23:59.820065 11913 net.cpp:386] inception_4c/relu_3x3_reduce -> inception_4c/3x3_reduce (in-place)
I0403 15:23:59.820351 11913 net.cpp:141] Setting up inception_4c/relu_3x3_reduce
I0403 15:23:59.820379 11913 net.cpp:148] Top shape: 24 128 14 14 (602112)
I0403 15:23:59.820394 11913 net.cpp:156] Memory required for data: 1038026016
I0403 15:23:59.820408 11913 layer_factory.hpp:77] Creating layer inception_4c/3x3
I0403 15:23:59.820431 11913 net.cpp:91] Creating Layer inception_4c/3x3
I0403 15:23:59.820448 11913 net.cpp:425] inception_4c/3x3 <- inception_4c/3x3_reduce
I0403 15:23:59.820471 11913 net.cpp:399] inception_4c/3x3 -> inception_4c/3x3
I0403 15:23:59.824069 11913 net.cpp:141] Setting up inception_4c/3x3
I0403 15:23:59.824110 11913 net.cpp:148] Top shape: 24 256 14 14 (1204224)
I0403 15:23:59.824126 11913 net.cpp:156] Memory required for data: 1042842912
I0403 15:23:59.824159 11913 layer_factory.hpp:77] Creating layer inception_4c/relu_3x3
I0403 15:23:59.824182 11913 net.cpp:91] Creating Layer inception_4c/relu_3x3
I0403 15:23:59.824199 11913 net.cpp:425] inception_4c/relu_3x3 <- inception_4c/3x3
I0403 15:23:59.824216 11913 net.cpp:386] inception_4c/relu_3x3 -> inception_4c/3x3 (in-place)
I0403 15:23:59.824403 11913 net.cpp:141] Setting up inception_4c/relu_3x3
I0403 15:23:59.824429 11913 net.cpp:148] Top shape: 24 256 14 14 (1204224)
I0403 15:23:59.824445 11913 net.cpp:156] Memory required for data: 1047659808
I0403 15:23:59.824460 11913 layer_factory.hpp:77] Creating layer inception_4c/5x5_reduce
I0403 15:23:59.824482 11913 net.cpp:91] Creating Layer inception_4c/5x5_reduce
I0403 15:23:59.824499 11913 net.cpp:425] inception_4c/5x5_reduce <- inception_4b/output_inception_4b/output_0_split_2
I0403 15:23:59.824519 11913 net.cpp:399] inception_4c/5x5_reduce -> inception_4c/5x5_reduce
I0403 15:23:59.825601 11913 net.cpp:141] Setting up inception_4c/5x5_reduce
I0403 15:23:59.825631 11913 net.cpp:148] Top shape: 24 24 14 14 (112896)
I0403 15:23:59.825652 11913 net.cpp:156] Memory required for data: 1048111392
I0403 15:23:59.825671 11913 layer_factory.hpp:77] Creating layer inception_4c/relu_5x5_reduce
I0403 15:23:59.825690 11913 net.cpp:91] Creating Layer inception_4c/relu_5x5_reduce
I0403 15:23:59.825711 11913 net.cpp:425] inception_4c/relu_5x5_reduce <- inception_4c/5x5_reduce
I0403 15:23:59.825733 11913 net.cpp:386] inception_4c/relu_5x5_reduce -> inception_4c/5x5_reduce (in-place)
I0403 15:23:59.825950 11913 net.cpp:141] Setting up inception_4c/relu_5x5_reduce
I0403 15:23:59.825979 11913 net.cpp:148] Top shape: 24 24 14 14 (112896)
I0403 15:23:59.826000 11913 net.cpp:156] Memory required for data: 1048562976
I0403 15:23:59.826017 11913 layer_factory.hpp:77] Creating layer inception_4c/5x5
I0403 15:23:59.826041 11913 net.cpp:91] Creating Layer inception_4c/5x5
I0403 15:23:59.826059 11913 net.cpp:425] inception_4c/5x5 <- inception_4c/5x5_reduce
I0403 15:23:59.826094 11913 net.cpp:399] inception_4c/5x5 -> inception_4c/5x5
I0403 15:23:59.827477 11913 net.cpp:141] Setting up inception_4c/5x5
I0403 15:23:59.827507 11913 net.cpp:148] Top shape: 24 64 14 14 (301056)
I0403 15:23:59.827523 11913 net.cpp:156] Memory required for data: 1049767200
I0403 15:23:59.827543 11913 layer_factory.hpp:77] Creating layer inception_4c/relu_5x5
I0403 15:23:59.827561 11913 net.cpp:91] Creating Layer inception_4c/relu_5x5
I0403 15:23:59.827579 11913 net.cpp:425] inception_4c/relu_5x5 <- inception_4c/5x5
I0403 15:23:59.827600 11913 net.cpp:386] inception_4c/relu_5x5 -> inception_4c/5x5 (in-place)
I0403 15:23:59.827932 11913 net.cpp:141] Setting up inception_4c/relu_5x5
I0403 15:23:59.827960 11913 net.cpp:148] Top shape: 24 64 14 14 (301056)
I0403 15:23:59.827977 11913 net.cpp:156] Memory required for data: 1050971424
I0403 15:23:59.827994 11913 layer_factory.hpp:77] Creating layer inception_4c/pool
I0403 15:23:59.828013 11913 net.cpp:91] Creating Layer inception_4c/pool
I0403 15:23:59.828030 11913 net.cpp:425] inception_4c/pool <- inception_4b/output_inception_4b/output_0_split_3
I0403 15:23:59.828052 11913 net.cpp:399] inception_4c/pool -> inception_4c/pool
I0403 15:23:59.828122 11913 net.cpp:141] Setting up inception_4c/pool
I0403 15:23:59.828155 11913 net.cpp:148] Top shape: 24 512 14 14 (2408448)
I0403 15:23:59.828171 11913 net.cpp:156] Memory required for data: 1060605216
I0403 15:23:59.828188 11913 layer_factory.hpp:77] Creating layer inception_4c/pool_proj
I0403 15:23:59.828213 11913 net.cpp:91] Creating Layer inception_4c/pool_proj
I0403 15:23:59.828235 11913 net.cpp:425] inception_4c/pool_proj <- inception_4c/pool
I0403 15:23:59.828255 11913 net.cpp:399] inception_4c/pool_proj -> inception_4c/pool_proj
I0403 15:23:59.829591 11913 net.cpp:141] Setting up inception_4c/pool_proj
I0403 15:23:59.829638 11913 net.cpp:148] Top shape: 24 64 14 14 (301056)
I0403 15:23:59.829669 11913 net.cpp:156] Memory required for data: 1061809440
I0403 15:23:59.829689 11913 layer_factory.hpp:77] Creating layer inception_4c/relu_pool_proj
I0403 15:23:59.829711 11913 net.cpp:91] Creating Layer inception_4c/relu_pool_proj
I0403 15:23:59.829730 11913 net.cpp:425] inception_4c/relu_pool_proj <- inception_4c/pool_proj
I0403 15:23:59.829748 11913 net.cpp:386] inception_4c/relu_pool_proj -> inception_4c/pool_proj (in-place)
I0403 15:23:59.829942 11913 net.cpp:141] Setting up inception_4c/relu_pool_proj
I0403 15:23:59.829977 11913 net.cpp:148] Top shape: 24 64 14 14 (301056)
I0403 15:23:59.829991 11913 net.cpp:156] Memory required for data: 1063013664
I0403 15:23:59.830008 11913 layer_factory.hpp:77] Creating layer inception_4c/output
I0403 15:23:59.830026 11913 net.cpp:91] Creating Layer inception_4c/output
I0403 15:23:59.830042 11913 net.cpp:425] inception_4c/output <- inception_4c/1x1
I0403 15:23:59.830060 11913 net.cpp:425] inception_4c/output <- inception_4c/3x3
I0403 15:23:59.830077 11913 net.cpp:425] inception_4c/output <- inception_4c/5x5
I0403 15:23:59.830093 11913 net.cpp:425] inception_4c/output <- inception_4c/pool_proj
I0403 15:23:59.830114 11913 net.cpp:399] inception_4c/output -> inception_4c/output
I0403 15:23:59.830163 11913 net.cpp:141] Setting up inception_4c/output
I0403 15:23:59.830190 11913 net.cpp:148] Top shape: 24 512 14 14 (2408448)
I0403 15:23:59.830207 11913 net.cpp:156] Memory required for data: 1072647456
I0403 15:23:59.830222 11913 layer_factory.hpp:77] Creating layer inception_4c/output_inception_4c/output_0_split
I0403 15:23:59.830240 11913 net.cpp:91] Creating Layer inception_4c/output_inception_4c/output_0_split
I0403 15:23:59.830257 11913 net.cpp:425] inception_4c/output_inception_4c/output_0_split <- inception_4c/output
I0403 15:23:59.830276 11913 net.cpp:399] inception_4c/output_inception_4c/output_0_split -> inception_4c/output_inception_4c/output_0_split_0
I0403 15:23:59.830296 11913 net.cpp:399] inception_4c/output_inception_4c/output_0_split -> inception_4c/output_inception_4c/output_0_split_1
I0403 15:23:59.830327 11913 net.cpp:399] inception_4c/output_inception_4c/output_0_split -> inception_4c/output_inception_4c/output_0_split_2
I0403 15:23:59.830351 11913 net.cpp:399] inception_4c/output_inception_4c/output_0_split -> inception_4c/output_inception_4c/output_0_split_3
I0403 15:23:59.830451 11913 net.cpp:141] Setting up inception_4c/output_inception_4c/output_0_split
I0403 15:23:59.830476 11913 net.cpp:148] Top shape: 24 512 14 14 (2408448)
I0403 15:23:59.830493 11913 net.cpp:148] Top shape: 24 512 14 14 (2408448)
I0403 15:23:59.830510 11913 net.cpp:148] Top shape: 24 512 14 14 (2408448)
I0403 15:23:59.830526 11913 net.cpp:148] Top shape: 24 512 14 14 (2408448)
I0403 15:23:59.830540 11913 net.cpp:156] Memory required for data: 1111182624
I0403 15:23:59.830556 11913 layer_factory.hpp:77] Creating layer inception_4d/1x1
I0403 15:23:59.830579 11913 net.cpp:91] Creating Layer inception_4d/1x1
I0403 15:23:59.830598 11913 net.cpp:425] inception_4d/1x1 <- inception_4c/output_inception_4c/output_0_split_0
I0403 15:23:59.830621 11913 net.cpp:399] inception_4d/1x1 -> inception_4d/1x1
I0403 15:23:59.832075 11913 net.cpp:141] Setting up inception_4d/1x1
I0403 15:23:59.832104 11913 net.cpp:148] Top shape: 24 112 14 14 (526848)
I0403 15:23:59.832121 11913 net.cpp:156] Memory required for data: 1113290016
I0403 15:23:59.832140 11913 layer_factory.hpp:77] Creating layer inception_4d/relu_1x1
I0403 15:23:59.832161 11913 net.cpp:91] Creating Layer inception_4d/relu_1x1
I0403 15:23:59.832180 11913 net.cpp:425] inception_4d/relu_1x1 <- inception_4d/1x1
I0403 15:23:59.832197 11913 net.cpp:386] inception_4d/relu_1x1 -> inception_4d/1x1 (in-place)
I0403 15:23:59.832408 11913 net.cpp:141] Setting up inception_4d/relu_1x1
I0403 15:23:59.832437 11913 net.cpp:148] Top shape: 24 112 14 14 (526848)
I0403 15:23:59.832453 11913 net.cpp:156] Memory required for data: 1115397408
I0403 15:23:59.832469 11913 layer_factory.hpp:77] Creating layer inception_4d/3x3_reduce
I0403 15:23:59.832509 11913 net.cpp:91] Creating Layer inception_4d/3x3_reduce
I0403 15:23:59.832527 11913 net.cpp:425] inception_4d/3x3_reduce <- inception_4c/output_inception_4c/output_0_split_1
I0403 15:23:59.832548 11913 net.cpp:399] inception_4d/3x3_reduce -> inception_4d/3x3_reduce
I0403 15:23:59.834143 11913 net.cpp:141] Setting up inception_4d/3x3_reduce
I0403 15:23:59.834172 11913 net.cpp:148] Top shape: 24 144 14 14 (677376)
I0403 15:23:59.834188 11913 net.cpp:156] Memory required for data: 1118106912
I0403 15:23:59.834208 11913 layer_factory.hpp:77] Creating layer inception_4d/relu_3x3_reduce
I0403 15:23:59.834225 11913 net.cpp:91] Creating Layer inception_4d/relu_3x3_reduce
I0403 15:23:59.834247 11913 net.cpp:425] inception_4d/relu_3x3_reduce <- inception_4d/3x3_reduce
I0403 15:23:59.834265 11913 net.cpp:386] inception_4d/relu_3x3_reduce -> inception_4d/3x3_reduce (in-place)
I0403 15:23:59.834578 11913 net.cpp:141] Setting up inception_4d/relu_3x3_reduce
I0403 15:23:59.834606 11913 net.cpp:148] Top shape: 24 144 14 14 (677376)
I0403 15:23:59.834622 11913 net.cpp:156] Memory required for data: 1120816416
I0403 15:23:59.834638 11913 layer_factory.hpp:77] Creating layer inception_4d/3x3
I0403 15:23:59.834662 11913 net.cpp:91] Creating Layer inception_4d/3x3
I0403 15:23:59.834681 11913 net.cpp:425] inception_4d/3x3 <- inception_4d/3x3_reduce
I0403 15:23:59.834703 11913 net.cpp:399] inception_4d/3x3 -> inception_4d/3x3
I0403 15:23:59.839210 11913 net.cpp:141] Setting up inception_4d/3x3
I0403 15:23:59.839241 11913 net.cpp:148] Top shape: 24 288 14 14 (1354752)
I0403 15:23:59.839257 11913 net.cpp:156] Memory required for data: 1126235424
I0403 15:23:59.839275 11913 layer_factory.hpp:77] Creating layer inception_4d/relu_3x3
I0403 15:23:59.839296 11913 net.cpp:91] Creating Layer inception_4d/relu_3x3
I0403 15:23:59.839315 11913 net.cpp:425] inception_4d/relu_3x3 <- inception_4d/3x3
I0403 15:23:59.839341 11913 net.cpp:386] inception_4d/relu_3x3 -> inception_4d/3x3 (in-place)
I0403 15:23:59.839539 11913 net.cpp:141] Setting up inception_4d/relu_3x3
I0403 15:23:59.839567 11913 net.cpp:148] Top shape: 24 288 14 14 (1354752)
I0403 15:23:59.839583 11913 net.cpp:156] Memory required for data: 1131654432
I0403 15:23:59.839599 11913 layer_factory.hpp:77] Creating layer inception_4d/5x5_reduce
I0403 15:23:59.839623 11913 net.cpp:91] Creating Layer inception_4d/5x5_reduce
I0403 15:23:59.839642 11913 net.cpp:425] inception_4d/5x5_reduce <- inception_4c/output_inception_4c/output_0_split_2
I0403 15:23:59.839663 11913 net.cpp:399] inception_4d/5x5_reduce -> inception_4d/5x5_reduce
I0403 15:23:59.840878 11913 net.cpp:141] Setting up inception_4d/5x5_reduce
I0403 15:23:59.840908 11913 net.cpp:148] Top shape: 24 32 14 14 (150528)
I0403 15:23:59.840924 11913 net.cpp:156] Memory required for data: 1132256544
I0403 15:23:59.840942 11913 layer_factory.hpp:77] Creating layer inception_4d/relu_5x5_reduce
I0403 15:23:59.840965 11913 net.cpp:91] Creating Layer inception_4d/relu_5x5_reduce
I0403 15:23:59.840982 11913 net.cpp:425] inception_4d/relu_5x5_reduce <- inception_4d/5x5_reduce
I0403 15:23:59.841001 11913 net.cpp:386] inception_4d/relu_5x5_reduce -> inception_4d/5x5_reduce (in-place)
I0403 15:23:59.841198 11913 net.cpp:141] Setting up inception_4d/relu_5x5_reduce
I0403 15:23:59.841228 11913 net.cpp:148] Top shape: 24 32 14 14 (150528)
I0403 15:23:59.841244 11913 net.cpp:156] Memory required for data: 1132858656
I0403 15:23:59.841260 11913 layer_factory.hpp:77] Creating layer inception_4d/5x5
I0403 15:23:59.841284 11913 net.cpp:91] Creating Layer inception_4d/5x5
I0403 15:23:59.841303 11913 net.cpp:425] inception_4d/5x5 <- inception_4d/5x5_reduce
I0403 15:23:59.841331 11913 net.cpp:399] inception_4d/5x5 -> inception_4d/5x5
I0403 15:23:59.842917 11913 net.cpp:141] Setting up inception_4d/5x5
I0403 15:23:59.842950 11913 net.cpp:148] Top shape: 24 64 14 14 (301056)
I0403 15:23:59.842967 11913 net.cpp:156] Memory required for data: 1134062880
I0403 15:23:59.842988 11913 layer_factory.hpp:77] Creating layer inception_4d/relu_5x5
I0403 15:23:59.843024 11913 net.cpp:91] Creating Layer inception_4d/relu_5x5
I0403 15:23:59.843042 11913 net.cpp:425] inception_4d/relu_5x5 <- inception_4d/5x5
I0403 15:23:59.843063 11913 net.cpp:386] inception_4d/relu_5x5 -> inception_4d/5x5 (in-place)
I0403 15:23:59.843391 11913 net.cpp:141] Setting up inception_4d/relu_5x5
I0403 15:23:59.843422 11913 net.cpp:148] Top shape: 24 64 14 14 (301056)
I0403 15:23:59.843439 11913 net.cpp:156] Memory required for data: 1135267104
I0403 15:23:59.843456 11913 layer_factory.hpp:77] Creating layer inception_4d/pool
I0403 15:23:59.843474 11913 net.cpp:91] Creating Layer inception_4d/pool
I0403 15:23:59.843492 11913 net.cpp:425] inception_4d/pool <- inception_4c/output_inception_4c/output_0_split_3
I0403 15:23:59.843514 11913 net.cpp:399] inception_4d/pool -> inception_4d/pool
I0403 15:23:59.843585 11913 net.cpp:141] Setting up inception_4d/pool
I0403 15:23:59.843611 11913 net.cpp:148] Top shape: 24 512 14 14 (2408448)
I0403 15:23:59.843626 11913 net.cpp:156] Memory required for data: 1144900896
I0403 15:23:59.843641 11913 layer_factory.hpp:77] Creating layer inception_4d/pool_proj
I0403 15:23:59.843667 11913 net.cpp:91] Creating Layer inception_4d/pool_proj
I0403 15:23:59.843686 11913 net.cpp:425] inception_4d/pool_proj <- inception_4d/pool
I0403 15:23:59.843705 11913 net.cpp:399] inception_4d/pool_proj -> inception_4d/pool_proj
I0403 15:23:59.845562 11913 net.cpp:141] Setting up inception_4d/pool_proj
I0403 15:23:59.845592 11913 net.cpp:148] Top shape: 24 64 14 14 (301056)
I0403 15:23:59.845608 11913 net.cpp:156] Memory required for data: 1146105120
I0403 15:23:59.845628 11913 layer_factory.hpp:77] Creating layer inception_4d/relu_pool_proj
I0403 15:23:59.845650 11913 net.cpp:91] Creating Layer inception_4d/relu_pool_proj
I0403 15:23:59.845669 11913 net.cpp:425] inception_4d/relu_pool_proj <- inception_4d/pool_proj
I0403 15:23:59.845686 11913 net.cpp:386] inception_4d/relu_pool_proj -> inception_4d/pool_proj (in-place)
I0403 15:23:59.845883 11913 net.cpp:141] Setting up inception_4d/relu_pool_proj
I0403 15:23:59.845913 11913 net.cpp:148] Top shape: 24 64 14 14 (301056)
I0403 15:23:59.845929 11913 net.cpp:156] Memory required for data: 1147309344
I0403 15:23:59.845947 11913 layer_factory.hpp:77] Creating layer inception_4d/output
I0403 15:23:59.845964 11913 net.cpp:91] Creating Layer inception_4d/output
I0403 15:23:59.845980 11913 net.cpp:425] inception_4d/output <- inception_4d/1x1
I0403 15:23:59.845999 11913 net.cpp:425] inception_4d/output <- inception_4d/3x3
I0403 15:23:59.846014 11913 net.cpp:425] inception_4d/output <- inception_4d/5x5
I0403 15:23:59.846031 11913 net.cpp:425] inception_4d/output <- inception_4d/pool_proj
I0403 15:23:59.846050 11913 net.cpp:399] inception_4d/output -> inception_4d/output
I0403 15:23:59.846102 11913 net.cpp:141] Setting up inception_4d/output
I0403 15:23:59.846127 11913 net.cpp:148] Top shape: 24 528 14 14 (2483712)
I0403 15:23:59.846143 11913 net.cpp:156] Memory required for data: 1157244192
I0403 15:23:59.846158 11913 layer_factory.hpp:77] Creating layer inception_4d/output_inception_4d/output_0_split
I0403 15:23:59.846179 11913 net.cpp:91] Creating Layer inception_4d/output_inception_4d/output_0_split
I0403 15:23:59.846196 11913 net.cpp:425] inception_4d/output_inception_4d/output_0_split <- inception_4d/output
I0403 15:23:59.846215 11913 net.cpp:399] inception_4d/output_inception_4d/output_0_split -> inception_4d/output_inception_4d/output_0_split_0
I0403 15:23:59.846237 11913 net.cpp:399] inception_4d/output_inception_4d/output_0_split -> inception_4d/output_inception_4d/output_0_split_1
I0403 15:23:59.846263 11913 net.cpp:399] inception_4d/output_inception_4d/output_0_split -> inception_4d/output_inception_4d/output_0_split_2
I0403 15:23:59.846287 11913 net.cpp:399] inception_4d/output_inception_4d/output_0_split -> inception_4d/output_inception_4d/output_0_split_3
I0403 15:23:59.846307 11913 net.cpp:399] inception_4d/output_inception_4d/output_0_split -> inception_4d/output_inception_4d/output_0_split_4
I0403 15:23:59.846422 11913 net.cpp:141] Setting up inception_4d/output_inception_4d/output_0_split
I0403 15:23:59.846460 11913 net.cpp:148] Top shape: 24 528 14 14 (2483712)
I0403 15:23:59.846478 11913 net.cpp:148] Top shape: 24 528 14 14 (2483712)
I0403 15:23:59.846495 11913 net.cpp:148] Top shape: 24 528 14 14 (2483712)
I0403 15:23:59.846511 11913 net.cpp:148] Top shape: 24 528 14 14 (2483712)
I0403 15:23:59.846529 11913 net.cpp:148] Top shape: 24 528 14 14 (2483712)
I0403 15:23:59.846542 11913 net.cpp:156] Memory required for data: 1206918432
I0403 15:23:59.846557 11913 layer_factory.hpp:77] Creating layer loss2/ave_pool
I0403 15:23:59.846576 11913 net.cpp:91] Creating Layer loss2/ave_pool
I0403 15:23:59.846593 11913 net.cpp:425] loss2/ave_pool <- inception_4d/output_inception_4d/output_0_split_0
I0403 15:23:59.846616 11913 net.cpp:399] loss2/ave_pool -> loss2/ave_pool
I0403 15:23:59.846946 11913 net.cpp:141] Setting up loss2/ave_pool
I0403 15:23:59.846976 11913 net.cpp:148] Top shape: 24 528 4 4 (202752)
I0403 15:23:59.846990 11913 net.cpp:156] Memory required for data: 1207729440
I0403 15:23:59.847007 11913 layer_factory.hpp:77] Creating layer loss2/conv
I0403 15:23:59.847030 11913 net.cpp:91] Creating Layer loss2/conv
I0403 15:23:59.847048 11913 net.cpp:425] loss2/conv <- loss2/ave_pool
I0403 15:23:59.847071 11913 net.cpp:399] loss2/conv -> loss2/conv
I0403 15:23:59.849071 11913 net.cpp:141] Setting up loss2/conv
I0403 15:23:59.849104 11913 net.cpp:148] Top shape: 24 128 4 4 (49152)
I0403 15:23:59.849122 11913 net.cpp:156] Memory required for data: 1207926048
I0403 15:23:59.849141 11913 layer_factory.hpp:77] Creating layer loss2/relu_conv
I0403 15:23:59.849160 11913 net.cpp:91] Creating Layer loss2/relu_conv
I0403 15:23:59.849179 11913 net.cpp:425] loss2/relu_conv <- loss2/conv
I0403 15:23:59.849200 11913 net.cpp:386] loss2/relu_conv -> loss2/conv (in-place)
I0403 15:23:59.849505 11913 net.cpp:141] Setting up loss2/relu_conv
I0403 15:23:59.849537 11913 net.cpp:148] Top shape: 24 128 4 4 (49152)
I0403 15:23:59.849555 11913 net.cpp:156] Memory required for data: 1208122656
I0403 15:23:59.849571 11913 layer_factory.hpp:77] Creating layer loss2/fc
I0403 15:23:59.849592 11913 net.cpp:91] Creating Layer loss2/fc
I0403 15:23:59.849611 11913 net.cpp:425] loss2/fc <- loss2/conv
I0403 15:23:59.849634 11913 net.cpp:399] loss2/fc -> loss2/fc
I0403 15:23:59.868264 11913 net.cpp:141] Setting up loss2/fc
I0403 15:23:59.868304 11913 net.cpp:148] Top shape: 24 1024 (24576)
I0403 15:23:59.868325 11913 net.cpp:156] Memory required for data: 1208220960
I0403 15:23:59.868346 11913 layer_factory.hpp:77] Creating layer loss2/relu_fc
I0403 15:23:59.868367 11913 net.cpp:91] Creating Layer loss2/relu_fc
I0403 15:23:59.868386 11913 net.cpp:425] loss2/relu_fc <- loss2/fc
I0403 15:23:59.868405 11913 net.cpp:386] loss2/relu_fc -> loss2/fc (in-place)
I0403 15:23:59.868721 11913 net.cpp:141] Setting up loss2/relu_fc
I0403 15:23:59.868748 11913 net.cpp:148] Top shape: 24 1024 (24576)
I0403 15:23:59.868763 11913 net.cpp:156] Memory required for data: 1208319264
I0403 15:23:59.868778 11913 layer_factory.hpp:77] Creating layer loss2/drop_fc
I0403 15:23:59.868800 11913 net.cpp:91] Creating Layer loss2/drop_fc
I0403 15:23:59.868818 11913 net.cpp:425] loss2/drop_fc <- loss2/fc
I0403 15:23:59.868835 11913 net.cpp:386] loss2/drop_fc -> loss2/fc (in-place)
I0403 15:23:59.868888 11913 net.cpp:141] Setting up loss2/drop_fc
I0403 15:23:59.868912 11913 net.cpp:148] Top shape: 24 1024 (24576)
I0403 15:23:59.868927 11913 net.cpp:156] Memory required for data: 1208417568
I0403 15:23:59.868942 11913 layer_factory.hpp:77] Creating layer loss2/classifier_plantvillage
I0403 15:23:59.868960 11913 net.cpp:91] Creating Layer loss2/classifier_plantvillage
I0403 15:23:59.868978 11913 net.cpp:425] loss2/classifier_plantvillage <- loss2/fc
I0403 15:23:59.868999 11913 net.cpp:399] loss2/classifier_plantvillage -> loss2/classifier_plantvillage
I0403 15:23:59.869449 11913 net.cpp:141] Setting up loss2/classifier_plantvillage
I0403 15:23:59.869477 11913 net.cpp:148] Top shape: 24 38 (912)
I0403 15:23:59.869509 11913 net.cpp:156] Memory required for data: 1208421216
I0403 15:23:59.869529 11913 layer_factory.hpp:77] Creating layer loss2/classifier_plantvillage_loss2/classifier_plantvillage_0_split
I0403 15:23:59.869549 11913 net.cpp:91] Creating Layer loss2/classifier_plantvillage_loss2/classifier_plantvillage_0_split
I0403 15:23:59.869566 11913 net.cpp:425] loss2/classifier_plantvillage_loss2/classifier_plantvillage_0_split <- loss2/classifier_plantvillage
I0403 15:23:59.869587 11913 net.cpp:399] loss2/classifier_plantvillage_loss2/classifier_plantvillage_0_split -> loss2/classifier_plantvillage_loss2/classifier_plantvillage_0_split_0
I0403 15:23:59.869609 11913 net.cpp:399] loss2/classifier_plantvillage_loss2/classifier_plantvillage_0_split -> loss2/classifier_plantvillage_loss2/classifier_plantvillage_0_split_1
I0403 15:23:59.869643 11913 net.cpp:399] loss2/classifier_plantvillage_loss2/classifier_plantvillage_0_split -> loss2/classifier_plantvillage_loss2/classifier_plantvillage_0_split_2
I0403 15:23:59.869721 11913 net.cpp:141] Setting up loss2/classifier_plantvillage_loss2/classifier_plantvillage_0_split
I0403 15:23:59.869747 11913 net.cpp:148] Top shape: 24 38 (912)
I0403 15:23:59.869765 11913 net.cpp:148] Top shape: 24 38 (912)
I0403 15:23:59.869781 11913 net.cpp:148] Top shape: 24 38 (912)
I0403 15:23:59.869794 11913 net.cpp:156] Memory required for data: 1208432160
I0403 15:23:59.869809 11913 layer_factory.hpp:77] Creating layer inception_4e/1x1
I0403 15:23:59.869830 11913 net.cpp:91] Creating Layer inception_4e/1x1
I0403 15:23:59.869848 11913 net.cpp:425] inception_4e/1x1 <- inception_4d/output_inception_4d/output_0_split_1
I0403 15:23:59.869866 11913 net.cpp:399] inception_4e/1x1 -> inception_4e/1x1
I0403 15:23:59.871775 11913 net.cpp:141] Setting up inception_4e/1x1
I0403 15:23:59.871805 11913 net.cpp:148] Top shape: 24 256 14 14 (1204224)
I0403 15:23:59.871822 11913 net.cpp:156] Memory required for data: 1213249056
I0403 15:23:59.871841 11913 layer_factory.hpp:77] Creating layer inception_4e/relu_1x1
I0403 15:23:59.871860 11913 net.cpp:91] Creating Layer inception_4e/relu_1x1
I0403 15:23:59.871877 11913 net.cpp:425] inception_4e/relu_1x1 <- inception_4e/1x1
I0403 15:23:59.871907 11913 net.cpp:386] inception_4e/relu_1x1 -> inception_4e/1x1 (in-place)
I0403 15:23:59.872239 11913 net.cpp:141] Setting up inception_4e/relu_1x1
I0403 15:23:59.872267 11913 net.cpp:148] Top shape: 24 256 14 14 (1204224)
I0403 15:23:59.872282 11913 net.cpp:156] Memory required for data: 1218065952
I0403 15:23:59.872298 11913 layer_factory.hpp:77] Creating layer inception_4e/3x3_reduce
I0403 15:23:59.872333 11913 net.cpp:91] Creating Layer inception_4e/3x3_reduce
I0403 15:23:59.872354 11913 net.cpp:425] inception_4e/3x3_reduce <- inception_4d/output_inception_4d/output_0_split_2
I0403 15:23:59.872376 11913 net.cpp:399] inception_4e/3x3_reduce -> inception_4e/3x3_reduce
I0403 15:23:59.874552 11913 net.cpp:141] Setting up inception_4e/3x3_reduce
I0403 15:23:59.874583 11913 net.cpp:148] Top shape: 24 160 14 14 (752640)
I0403 15:23:59.874600 11913 net.cpp:156] Memory required for data: 1221076512
I0403 15:23:59.874619 11913 layer_factory.hpp:77] Creating layer inception_4e/relu_3x3_reduce
I0403 15:23:59.874637 11913 net.cpp:91] Creating Layer inception_4e/relu_3x3_reduce
I0403 15:23:59.874655 11913 net.cpp:425] inception_4e/relu_3x3_reduce <- inception_4e/3x3_reduce
I0403 15:23:59.874675 11913 net.cpp:386] inception_4e/relu_3x3_reduce -> inception_4e/3x3_reduce (in-place)
I0403 15:23:59.874866 11913 net.cpp:141] Setting up inception_4e/relu_3x3_reduce
I0403 15:23:59.874891 11913 net.cpp:148] Top shape: 24 160 14 14 (752640)
I0403 15:23:59.874907 11913 net.cpp:156] Memory required for data: 1224087072
I0403 15:23:59.874922 11913 layer_factory.hpp:77] Creating layer inception_4e/3x3
I0403 15:23:59.874945 11913 net.cpp:91] Creating Layer inception_4e/3x3
I0403 15:23:59.874963 11913 net.cpp:425] inception_4e/3x3 <- inception_4e/3x3_reduce
I0403 15:23:59.874986 11913 net.cpp:399] inception_4e/3x3 -> inception_4e/3x3
I0403 15:23:59.880127 11913 net.cpp:141] Setting up inception_4e/3x3
I0403 15:23:59.880169 11913 net.cpp:148] Top shape: 24 320 14 14 (1505280)
I0403 15:23:59.880187 11913 net.cpp:156] Memory required for data: 1230108192
I0403 15:23:59.880206 11913 layer_factory.hpp:77] Creating layer inception_4e/relu_3x3
I0403 15:23:59.880224 11913 net.cpp:91] Creating Layer inception_4e/relu_3x3
I0403 15:23:59.880241 11913 net.cpp:425] inception_4e/relu_3x3 <- inception_4e/3x3
I0403 15:23:59.880262 11913 net.cpp:386] inception_4e/relu_3x3 -> inception_4e/3x3 (in-place)
I0403 15:23:59.880578 11913 net.cpp:141] Setting up inception_4e/relu_3x3
I0403 15:23:59.880605 11913 net.cpp:148] Top shape: 24 320 14 14 (1505280)
I0403 15:23:59.880621 11913 net.cpp:156] Memory required for data: 1236129312
I0403 15:23:59.880637 11913 layer_factory.hpp:77] Creating layer inception_4e/5x5_reduce
I0403 15:23:59.880663 11913 net.cpp:91] Creating Layer inception_4e/5x5_reduce
I0403 15:23:59.880682 11913 net.cpp:425] inception_4e/5x5_reduce <- inception_4d/output_inception_4d/output_0_split_3
I0403 15:23:59.880705 11913 net.cpp:399] inception_4e/5x5_reduce -> inception_4e/5x5_reduce
I0403 15:23:59.881805 11913 net.cpp:141] Setting up inception_4e/5x5_reduce
I0403 15:23:59.881834 11913 net.cpp:148] Top shape: 24 32 14 14 (150528)
I0403 15:23:59.881850 11913 net.cpp:156] Memory required for data: 1236731424
I0403 15:23:59.881870 11913 layer_factory.hpp:77] Creating layer inception_4e/relu_5x5_reduce
I0403 15:23:59.881887 11913 net.cpp:91] Creating Layer inception_4e/relu_5x5_reduce
I0403 15:23:59.881903 11913 net.cpp:425] inception_4e/relu_5x5_reduce <- inception_4e/5x5_reduce
I0403 15:23:59.881923 11913 net.cpp:386] inception_4e/relu_5x5_reduce -> inception_4e/5x5_reduce (in-place)
I0403 15:23:59.882215 11913 net.cpp:141] Setting up inception_4e/relu_5x5_reduce
I0403 15:23:59.882244 11913 net.cpp:148] Top shape: 24 32 14 14 (150528)
I0403 15:23:59.882261 11913 net.cpp:156] Memory required for data: 1237333536
I0403 15:23:59.882275 11913 layer_factory.hpp:77] Creating layer inception_4e/5x5
I0403 15:23:59.882314 11913 net.cpp:91] Creating Layer inception_4e/5x5
I0403 15:23:59.882347 11913 net.cpp:425] inception_4e/5x5 <- inception_4e/5x5_reduce
I0403 15:23:59.882369 11913 net.cpp:399] inception_4e/5x5 -> inception_4e/5x5
I0403 15:23:59.884325 11913 net.cpp:141] Setting up inception_4e/5x5
I0403 15:23:59.884354 11913 net.cpp:148] Top shape: 24 128 14 14 (602112)
I0403 15:23:59.884373 11913 net.cpp:156] Memory required for data: 1239741984
I0403 15:23:59.884392 11913 layer_factory.hpp:77] Creating layer inception_4e/relu_5x5
I0403 15:23:59.884409 11913 net.cpp:91] Creating Layer inception_4e/relu_5x5
I0403 15:23:59.884426 11913 net.cpp:425] inception_4e/relu_5x5 <- inception_4e/5x5
I0403 15:23:59.884443 11913 net.cpp:386] inception_4e/relu_5x5 -> inception_4e/5x5 (in-place)
I0403 15:23:59.884639 11913 net.cpp:141] Setting up inception_4e/relu_5x5
I0403 15:23:59.884666 11913 net.cpp:148] Top shape: 24 128 14 14 (602112)
I0403 15:23:59.884682 11913 net.cpp:156] Memory required for data: 1242150432
I0403 15:23:59.884697 11913 layer_factory.hpp:77] Creating layer inception_4e/pool
I0403 15:23:59.884716 11913 net.cpp:91] Creating Layer inception_4e/pool
I0403 15:23:59.884732 11913 net.cpp:425] inception_4e/pool <- inception_4d/output_inception_4d/output_0_split_4
I0403 15:23:59.884752 11913 net.cpp:399] inception_4e/pool -> inception_4e/pool
I0403 15:23:59.884820 11913 net.cpp:141] Setting up inception_4e/pool
I0403 15:23:59.884846 11913 net.cpp:148] Top shape: 24 528 14 14 (2483712)
I0403 15:23:59.884861 11913 net.cpp:156] Memory required for data: 1252085280
I0403 15:23:59.884876 11913 layer_factory.hpp:77] Creating layer inception_4e/pool_proj
I0403 15:23:59.884896 11913 net.cpp:91] Creating Layer inception_4e/pool_proj
I0403 15:23:59.884913 11913 net.cpp:425] inception_4e/pool_proj <- inception_4e/pool
I0403 15:23:59.884933 11913 net.cpp:399] inception_4e/pool_proj -> inception_4e/pool_proj
I0403 15:23:59.886543 11913 net.cpp:141] Setting up inception_4e/pool_proj
I0403 15:23:59.886584 11913 net.cpp:148] Top shape: 24 128 14 14 (602112)
I0403 15:23:59.886610 11913 net.cpp:156] Memory required for data: 1254493728
I0403 15:23:59.886629 11913 layer_factory.hpp:77] Creating layer inception_4e/relu_pool_proj
I0403 15:23:59.886649 11913 net.cpp:91] Creating Layer inception_4e/relu_pool_proj
I0403 15:23:59.886667 11913 net.cpp:425] inception_4e/relu_pool_proj <- inception_4e/pool_proj
I0403 15:23:59.886684 11913 net.cpp:386] inception_4e/relu_pool_proj -> inception_4e/pool_proj (in-place)
I0403 15:23:59.886984 11913 net.cpp:141] Setting up inception_4e/relu_pool_proj
I0403 15:23:59.887011 11913 net.cpp:148] Top shape: 24 128 14 14 (602112)
I0403 15:23:59.887025 11913 net.cpp:156] Memory required for data: 1256902176
I0403 15:23:59.887040 11913 layer_factory.hpp:77] Creating layer inception_4e/output
I0403 15:23:59.887060 11913 net.cpp:91] Creating Layer inception_4e/output
I0403 15:23:59.887078 11913 net.cpp:425] inception_4e/output <- inception_4e/1x1
I0403 15:23:59.887094 11913 net.cpp:425] inception_4e/output <- inception_4e/3x3
I0403 15:23:59.887111 11913 net.cpp:425] inception_4e/output <- inception_4e/5x5
I0403 15:23:59.887126 11913 net.cpp:425] inception_4e/output <- inception_4e/pool_proj
I0403 15:23:59.887143 11913 net.cpp:399] inception_4e/output -> inception_4e/output
I0403 15:23:59.887194 11913 net.cpp:141] Setting up inception_4e/output
I0403 15:23:59.887217 11913 net.cpp:148] Top shape: 24 832 14 14 (3913728)
I0403 15:23:59.887233 11913 net.cpp:156] Memory required for data: 1272557088
I0403 15:23:59.887248 11913 layer_factory.hpp:77] Creating layer pool4/3x3_s2
I0403 15:23:59.887265 11913 net.cpp:91] Creating Layer pool4/3x3_s2
I0403 15:23:59.887281 11913 net.cpp:425] pool4/3x3_s2 <- inception_4e/output
I0403 15:23:59.887301 11913 net.cpp:399] pool4/3x3_s2 -> pool4/3x3_s2
I0403 15:23:59.887375 11913 net.cpp:141] Setting up pool4/3x3_s2
I0403 15:23:59.887401 11913 net.cpp:148] Top shape: 24 832 7 7 (978432)
I0403 15:23:59.887416 11913 net.cpp:156] Memory required for data: 1276470816
I0403 15:23:59.887431 11913 layer_factory.hpp:77] Creating layer pool4/3x3_s2_pool4/3x3_s2_0_split
I0403 15:23:59.887449 11913 net.cpp:91] Creating Layer pool4/3x3_s2_pool4/3x3_s2_0_split
I0403 15:23:59.887465 11913 net.cpp:425] pool4/3x3_s2_pool4/3x3_s2_0_split <- pool4/3x3_s2
I0403 15:23:59.887482 11913 net.cpp:399] pool4/3x3_s2_pool4/3x3_s2_0_split -> pool4/3x3_s2_pool4/3x3_s2_0_split_0
I0403 15:23:59.887504 11913 net.cpp:399] pool4/3x3_s2_pool4/3x3_s2_0_split -> pool4/3x3_s2_pool4/3x3_s2_0_split_1
I0403 15:23:59.887526 11913 net.cpp:399] pool4/3x3_s2_pool4/3x3_s2_0_split -> pool4/3x3_s2_pool4/3x3_s2_0_split_2
I0403 15:23:59.887547 11913 net.cpp:399] pool4/3x3_s2_pool4/3x3_s2_0_split -> pool4/3x3_s2_pool4/3x3_s2_0_split_3
I0403 15:23:59.887635 11913 net.cpp:141] Setting up pool4/3x3_s2_pool4/3x3_s2_0_split
I0403 15:23:59.887658 11913 net.cpp:148] Top shape: 24 832 7 7 (978432)
I0403 15:23:59.887675 11913 net.cpp:148] Top shape: 24 832 7 7 (978432)
I0403 15:23:59.887689 11913 net.cpp:148] Top shape: 24 832 7 7 (978432)
I0403 15:23:59.887704 11913 net.cpp:148] Top shape: 24 832 7 7 (978432)
I0403 15:23:59.887718 11913 net.cpp:156] Memory required for data: 1292125728
I0403 15:23:59.887732 11913 layer_factory.hpp:77] Creating layer inception_5a/1x1
I0403 15:23:59.887755 11913 net.cpp:91] Creating Layer inception_5a/1x1
I0403 15:23:59.887773 11913 net.cpp:425] inception_5a/1x1 <- pool4/3x3_s2_pool4/3x3_s2_0_split_0
I0403 15:23:59.887791 11913 net.cpp:399] inception_5a/1x1 -> inception_5a/1x1
I0403 15:23:59.890645 11913 net.cpp:141] Setting up inception_5a/1x1
I0403 15:23:59.890673 11913 net.cpp:148] Top shape: 24 256 7 7 (301056)
I0403 15:23:59.890689 11913 net.cpp:156] Memory required for data: 1293329952
I0403 15:23:59.890710 11913 layer_factory.hpp:77] Creating layer inception_5a/relu_1x1
I0403 15:23:59.890727 11913 net.cpp:91] Creating Layer inception_5a/relu_1x1
I0403 15:23:59.890744 11913 net.cpp:425] inception_5a/relu_1x1 <- inception_5a/1x1
I0403 15:23:59.890761 11913 net.cpp:386] inception_5a/relu_1x1 -> inception_5a/1x1 (in-place)
I0403 15:23:59.891077 11913 net.cpp:141] Setting up inception_5a/relu_1x1
I0403 15:23:59.891104 11913 net.cpp:148] Top shape: 24 256 7 7 (301056)
I0403 15:23:59.891120 11913 net.cpp:156] Memory required for data: 1294534176
I0403 15:23:59.891135 11913 layer_factory.hpp:77] Creating layer inception_5a/3x3_reduce
I0403 15:23:59.891157 11913 net.cpp:91] Creating Layer inception_5a/3x3_reduce
I0403 15:23:59.891176 11913 net.cpp:425] inception_5a/3x3_reduce <- pool4/3x3_s2_pool4/3x3_s2_0_split_1
I0403 15:23:59.891196 11913 net.cpp:399] inception_5a/3x3_reduce -> inception_5a/3x3_reduce
I0403 15:23:59.893776 11913 net.cpp:141] Setting up inception_5a/3x3_reduce
I0403 15:23:59.893806 11913 net.cpp:148] Top shape: 24 160 7 7 (188160)
I0403 15:23:59.893822 11913 net.cpp:156] Memory required for data: 1295286816
I0403 15:23:59.893841 11913 layer_factory.hpp:77] Creating layer inception_5a/relu_3x3_reduce
I0403 15:23:59.893862 11913 net.cpp:91] Creating Layer inception_5a/relu_3x3_reduce
I0403 15:23:59.893880 11913 net.cpp:425] inception_5a/relu_3x3_reduce <- inception_5a/3x3_reduce
I0403 15:23:59.893898 11913 net.cpp:386] inception_5a/relu_3x3_reduce -> inception_5a/3x3_reduce (in-place)
I0403 15:23:59.894091 11913 net.cpp:141] Setting up inception_5a/relu_3x3_reduce
I0403 15:23:59.894117 11913 net.cpp:148] Top shape: 24 160 7 7 (188160)
I0403 15:23:59.894132 11913 net.cpp:156] Memory required for data: 1296039456
I0403 15:23:59.894148 11913 layer_factory.hpp:77] Creating layer inception_5a/3x3
I0403 15:23:59.894176 11913 net.cpp:91] Creating Layer inception_5a/3x3
I0403 15:23:59.894194 11913 net.cpp:425] inception_5a/3x3 <- inception_5a/3x3_reduce
I0403 15:23:59.894213 11913 net.cpp:399] inception_5a/3x3 -> inception_5a/3x3
I0403 15:23:59.899471 11913 net.cpp:141] Setting up inception_5a/3x3
I0403 15:23:59.899503 11913 net.cpp:148] Top shape: 24 320 7 7 (376320)
I0403 15:23:59.899520 11913 net.cpp:156] Memory required for data: 1297544736
I0403 15:23:59.899540 11913 layer_factory.hpp:77] Creating layer inception_5a/relu_3x3
I0403 15:23:59.899560 11913 net.cpp:91] Creating Layer inception_5a/relu_3x3
I0403 15:23:59.899577 11913 net.cpp:425] inception_5a/relu_3x3 <- inception_5a/3x3
I0403 15:23:59.899595 11913 net.cpp:386] inception_5a/relu_3x3 -> inception_5a/3x3 (in-place)
I0403 15:23:59.899916 11913 net.cpp:141] Setting up inception_5a/relu_3x3
I0403 15:23:59.899946 11913 net.cpp:148] Top shape: 24 320 7 7 (376320)
I0403 15:23:59.899963 11913 net.cpp:156] Memory required for data: 1299050016
I0403 15:23:59.899979 11913 layer_factory.hpp:77] Creating layer inception_5a/5x5_reduce
I0403 15:23:59.900004 11913 net.cpp:91] Creating Layer inception_5a/5x5_reduce
I0403 15:23:59.900024 11913 net.cpp:425] inception_5a/5x5_reduce <- pool4/3x3_s2_pool4/3x3_s2_0_split_2
I0403 15:23:59.900044 11913 net.cpp:399] inception_5a/5x5_reduce -> inception_5a/5x5_reduce
I0403 15:23:59.901312 11913 net.cpp:141] Setting up inception_5a/5x5_reduce
I0403 15:23:59.901361 11913 net.cpp:148] Top shape: 24 32 7 7 (37632)
I0403 15:23:59.901387 11913 net.cpp:156] Memory required for data: 1299200544
I0403 15:23:59.901432 11913 layer_factory.hpp:77] Creating layer inception_5a/relu_5x5_reduce
I0403 15:23:59.901468 11913 net.cpp:91] Creating Layer inception_5a/relu_5x5_reduce
I0403 15:23:59.901489 11913 net.cpp:425] inception_5a/relu_5x5_reduce <- inception_5a/5x5_reduce
I0403 15:23:59.901513 11913 net.cpp:386] inception_5a/relu_5x5_reduce -> inception_5a/5x5_reduce (in-place)
I0403 15:23:59.901865 11913 net.cpp:141] Setting up inception_5a/relu_5x5_reduce
I0403 15:23:59.901895 11913 net.cpp:148] Top shape: 24 32 7 7 (37632)
I0403 15:23:59.901912 11913 net.cpp:156] Memory required for data: 1299351072
I0403 15:23:59.901928 11913 layer_factory.hpp:77] Creating layer inception_5a/5x5
I0403 15:23:59.901952 11913 net.cpp:91] Creating Layer inception_5a/5x5
I0403 15:23:59.901971 11913 net.cpp:425] inception_5a/5x5 <- inception_5a/5x5_reduce
I0403 15:23:59.901993 11913 net.cpp:399] inception_5a/5x5 -> inception_5a/5x5
I0403 15:23:59.904474 11913 net.cpp:141] Setting up inception_5a/5x5
I0403 15:23:59.904533 11913 net.cpp:148] Top shape: 24 128 7 7 (150528)
I0403 15:23:59.904558 11913 net.cpp:156] Memory required for data: 1299953184
I0403 15:23:59.904578 11913 layer_factory.hpp:77] Creating layer inception_5a/relu_5x5
I0403 15:23:59.904609 11913 net.cpp:91] Creating Layer inception_5a/relu_5x5
I0403 15:23:59.904639 11913 net.cpp:425] inception_5a/relu_5x5 <- inception_5a/5x5
I0403 15:23:59.904670 11913 net.cpp:386] inception_5a/relu_5x5 -> inception_5a/5x5 (in-place)
I0403 15:23:59.904907 11913 net.cpp:141] Setting up inception_5a/relu_5x5
I0403 15:23:59.904947 11913 net.cpp:148] Top shape: 24 128 7 7 (150528)
I0403 15:23:59.904963 11913 net.cpp:156] Memory required for data: 1300555296
I0403 15:23:59.904979 11913 layer_factory.hpp:77] Creating layer inception_5a/pool
I0403 15:23:59.904999 11913 net.cpp:91] Creating Layer inception_5a/pool
I0403 15:23:59.905015 11913 net.cpp:425] inception_5a/pool <- pool4/3x3_s2_pool4/3x3_s2_0_split_3
I0403 15:23:59.905037 11913 net.cpp:399] inception_5a/pool -> inception_5a/pool
I0403 15:23:59.905114 11913 net.cpp:141] Setting up inception_5a/pool
I0403 15:23:59.905143 11913 net.cpp:148] Top shape: 24 832 7 7 (978432)
I0403 15:23:59.905158 11913 net.cpp:156] Memory required for data: 1304469024
I0403 15:23:59.905192 11913 layer_factory.hpp:77] Creating layer inception_5a/pool_proj
I0403 15:23:59.905220 11913 net.cpp:91] Creating Layer inception_5a/pool_proj
I0403 15:23:59.905239 11913 net.cpp:425] inception_5a/pool_proj <- inception_5a/pool
I0403 15:23:59.905272 11913 net.cpp:399] inception_5a/pool_proj -> inception_5a/pool_proj
I0403 15:23:59.907794 11913 net.cpp:141] Setting up inception_5a/pool_proj
I0403 15:23:59.907829 11913 net.cpp:148] Top shape: 24 128 7 7 (150528)
I0403 15:23:59.907845 11913 net.cpp:156] Memory required for data: 1305071136
I0403 15:23:59.907865 11913 layer_factory.hpp:77] Creating layer inception_5a/relu_pool_proj
I0403 15:23:59.907886 11913 net.cpp:91] Creating Layer inception_5a/relu_pool_proj
I0403 15:23:59.907915 11913 net.cpp:425] inception_5a/relu_pool_proj <- inception_5a/pool_proj
I0403 15:23:59.907934 11913 net.cpp:386] inception_5a/relu_pool_proj -> inception_5a/pool_proj (in-place)
I0403 15:23:59.908268 11913 net.cpp:141] Setting up inception_5a/relu_pool_proj
I0403 15:23:59.908304 11913 net.cpp:148] Top shape: 24 128 7 7 (150528)
I0403 15:23:59.908327 11913 net.cpp:156] Memory required for data: 1305673248
I0403 15:23:59.908344 11913 layer_factory.hpp:77] Creating layer inception_5a/output
I0403 15:23:59.908366 11913 net.cpp:91] Creating Layer inception_5a/output
I0403 15:23:59.908385 11913 net.cpp:425] inception_5a/output <- inception_5a/1x1
I0403 15:23:59.908404 11913 net.cpp:425] inception_5a/output <- inception_5a/3x3
I0403 15:23:59.908421 11913 net.cpp:425] inception_5a/output <- inception_5a/5x5
I0403 15:23:59.908438 11913 net.cpp:425] inception_5a/output <- inception_5a/pool_proj
I0403 15:23:59.908457 11913 net.cpp:399] inception_5a/output -> inception_5a/output
I0403 15:23:59.908514 11913 net.cpp:141] Setting up inception_5a/output
I0403 15:23:59.908538 11913 net.cpp:148] Top shape: 24 832 7 7 (978432)
I0403 15:23:59.908553 11913 net.cpp:156] Memory required for data: 1309586976
I0403 15:23:59.908577 11913 layer_factory.hpp:77] Creating layer inception_5a/output_inception_5a/output_0_split
I0403 15:23:59.908596 11913 net.cpp:91] Creating Layer inception_5a/output_inception_5a/output_0_split
I0403 15:23:59.908612 11913 net.cpp:425] inception_5a/output_inception_5a/output_0_split <- inception_5a/output
I0403 15:23:59.908632 11913 net.cpp:399] inception_5a/output_inception_5a/output_0_split -> inception_5a/output_inception_5a/output_0_split_0
I0403 15:23:59.908655 11913 net.cpp:399] inception_5a/output_inception_5a/output_0_split -> inception_5a/output_inception_5a/output_0_split_1
I0403 15:23:59.908689 11913 net.cpp:399] inception_5a/output_inception_5a/output_0_split -> inception_5a/output_inception_5a/output_0_split_2
I0403 15:23:59.908722 11913 net.cpp:399] inception_5a/output_inception_5a/output_0_split -> inception_5a/output_inception_5a/output_0_split_3
I0403 15:23:59.908850 11913 net.cpp:141] Setting up inception_5a/output_inception_5a/output_0_split
I0403 15:23:59.908882 11913 net.cpp:148] Top shape: 24 832 7 7 (978432)
I0403 15:23:59.908911 11913 net.cpp:148] Top shape: 24 832 7 7 (978432)
I0403 15:23:59.908929 11913 net.cpp:148] Top shape: 24 832 7 7 (978432)
I0403 15:23:59.908946 11913 net.cpp:148] Top shape: 24 832 7 7 (978432)
I0403 15:23:59.908960 11913 net.cpp:156] Memory required for data: 1325241888
I0403 15:23:59.908975 11913 layer_factory.hpp:77] Creating layer inception_5b/1x1
I0403 15:23:59.909008 11913 net.cpp:91] Creating Layer inception_5b/1x1
I0403 15:23:59.909026 11913 net.cpp:425] inception_5b/1x1 <- inception_5a/output_inception_5a/output_0_split_0
I0403 15:23:59.909050 11913 net.cpp:399] inception_5b/1x1 -> inception_5b/1x1
I0403 15:23:59.913172 11913 net.cpp:141] Setting up inception_5b/1x1
I0403 15:23:59.913203 11913 net.cpp:148] Top shape: 24 384 7 7 (451584)
I0403 15:23:59.913223 11913 net.cpp:156] Memory required for data: 1327048224
I0403 15:23:59.913259 11913 layer_factory.hpp:77] Creating layer inception_5b/relu_1x1
I0403 15:23:59.913296 11913 net.cpp:91] Creating Layer inception_5b/relu_1x1
I0403 15:23:59.913316 11913 net.cpp:425] inception_5b/relu_1x1 <- inception_5b/1x1
I0403 15:23:59.913342 11913 net.cpp:386] inception_5b/relu_1x1 -> inception_5b/1x1 (in-place)
I0403 15:23:59.913671 11913 net.cpp:141] Setting up inception_5b/relu_1x1
I0403 15:23:59.913698 11913 net.cpp:148] Top shape: 24 384 7 7 (451584)
I0403 15:23:59.913717 11913 net.cpp:156] Memory required for data: 1328854560
I0403 15:23:59.913734 11913 layer_factory.hpp:77] Creating layer inception_5b/3x3_reduce
I0403 15:23:59.913758 11913 net.cpp:91] Creating Layer inception_5b/3x3_reduce
I0403 15:23:59.913779 11913 net.cpp:425] inception_5b/3x3_reduce <- inception_5a/output_inception_5a/output_0_split_1
I0403 15:23:59.913805 11913 net.cpp:399] inception_5b/3x3_reduce -> inception_5b/3x3_reduce
I0403 15:23:59.916664 11913 net.cpp:141] Setting up inception_5b/3x3_reduce
I0403 15:23:59.916695 11913 net.cpp:148] Top shape: 24 192 7 7 (225792)
I0403 15:23:59.916723 11913 net.cpp:156] Memory required for data: 1329757728
I0403 15:23:59.916743 11913 layer_factory.hpp:77] Creating layer inception_5b/relu_3x3_reduce
I0403 15:23:59.916769 11913 net.cpp:91] Creating Layer inception_5b/relu_3x3_reduce
I0403 15:23:59.916788 11913 net.cpp:425] inception_5b/relu_3x3_reduce <- inception_5b/3x3_reduce
I0403 15:23:59.916815 11913 net.cpp:386] inception_5b/relu_3x3_reduce -> inception_5b/3x3_reduce (in-place)
I0403 15:23:59.917019 11913 net.cpp:141] Setting up inception_5b/relu_3x3_reduce
I0403 15:23:59.917048 11913 net.cpp:148] Top shape: 24 192 7 7 (225792)
I0403 15:23:59.917064 11913 net.cpp:156] Memory required for data: 1330660896
I0403 15:23:59.917080 11913 layer_factory.hpp:77] Creating layer inception_5b/3x3
I0403 15:23:59.917104 11913 net.cpp:91] Creating Layer inception_5b/3x3
I0403 15:23:59.917130 11913 net.cpp:425] inception_5b/3x3 <- inception_5b/3x3_reduce
I0403 15:23:59.917155 11913 net.cpp:399] inception_5b/3x3 -> inception_5b/3x3
I0403 15:23:59.924360 11913 net.cpp:141] Setting up inception_5b/3x3
I0403 15:23:59.924396 11913 net.cpp:148] Top shape: 24 384 7 7 (451584)
I0403 15:23:59.924417 11913 net.cpp:156] Memory required for data: 1332467232
I0403 15:23:59.924435 11913 layer_factory.hpp:77] Creating layer inception_5b/relu_3x3
I0403 15:23:59.924458 11913 net.cpp:91] Creating Layer inception_5b/relu_3x3
I0403 15:23:59.924476 11913 net.cpp:425] inception_5b/relu_3x3 <- inception_5b/3x3
I0403 15:23:59.924495 11913 net.cpp:386] inception_5b/relu_3x3 -> inception_5b/3x3 (in-place)
I0403 15:23:59.924816 11913 net.cpp:141] Setting up inception_5b/relu_3x3
I0403 15:23:59.924844 11913 net.cpp:148] Top shape: 24 384 7 7 (451584)
I0403 15:23:59.924860 11913 net.cpp:156] Memory required for data: 1334273568
I0403 15:23:59.924876 11913 layer_factory.hpp:77] Creating layer inception_5b/5x5_reduce
I0403 15:23:59.924932 11913 net.cpp:91] Creating Layer inception_5b/5x5_reduce
I0403 15:23:59.924952 11913 net.cpp:425] inception_5b/5x5_reduce <- inception_5a/output_inception_5a/output_0_split_2
I0403 15:23:59.924976 11913 net.cpp:399] inception_5b/5x5_reduce -> inception_5b/5x5_reduce
I0403 15:23:59.926365 11913 net.cpp:141] Setting up inception_5b/5x5_reduce
I0403 15:23:59.926395 11913 net.cpp:148] Top shape: 24 48 7 7 (56448)
I0403 15:23:59.926412 11913 net.cpp:156] Memory required for data: 1334499360
I0403 15:23:59.926431 11913 layer_factory.hpp:77] Creating layer inception_5b/relu_5x5_reduce
I0403 15:23:59.926455 11913 net.cpp:91] Creating Layer inception_5b/relu_5x5_reduce
I0403 15:23:59.926476 11913 net.cpp:425] inception_5b/relu_5x5_reduce <- inception_5b/5x5_reduce
I0403 15:23:59.926504 11913 net.cpp:386] inception_5b/relu_5x5_reduce -> inception_5b/5x5_reduce (in-place)
I0403 15:23:59.926905 11913 net.cpp:141] Setting up inception_5b/relu_5x5_reduce
I0403 15:23:59.926934 11913 net.cpp:148] Top shape: 24 48 7 7 (56448)
I0403 15:23:59.926951 11913 net.cpp:156] Memory required for data: 1334725152
I0403 15:23:59.926967 11913 layer_factory.hpp:77] Creating layer inception_5b/5x5
I0403 15:23:59.926988 11913 net.cpp:91] Creating Layer inception_5b/5x5
I0403 15:23:59.927006 11913 net.cpp:425] inception_5b/5x5 <- inception_5b/5x5_reduce
I0403 15:23:59.927026 11913 net.cpp:399] inception_5b/5x5 -> inception_5b/5x5
I0403 15:23:59.929250 11913 net.cpp:141] Setting up inception_5b/5x5
I0403 15:23:59.929283 11913 net.cpp:148] Top shape: 24 128 7 7 (150528)
I0403 15:23:59.929301 11913 net.cpp:156] Memory required for data: 1335327264
I0403 15:23:59.929327 11913 layer_factory.hpp:77] Creating layer inception_5b/relu_5x5
I0403 15:23:59.929359 11913 net.cpp:91] Creating Layer inception_5b/relu_5x5
I0403 15:23:59.929383 11913 net.cpp:425] inception_5b/relu_5x5 <- inception_5b/5x5
I0403 15:23:59.929407 11913 net.cpp:386] inception_5b/relu_5x5 -> inception_5b/5x5 (in-place)
I0403 15:23:59.929616 11913 net.cpp:141] Setting up inception_5b/relu_5x5
I0403 15:23:59.929642 11913 net.cpp:148] Top shape: 24 128 7 7 (150528)
I0403 15:23:59.929658 11913 net.cpp:156] Memory required for data: 1335929376
I0403 15:23:59.929673 11913 layer_factory.hpp:77] Creating layer inception_5b/pool
I0403 15:23:59.929693 11913 net.cpp:91] Creating Layer inception_5b/pool
I0403 15:23:59.929710 11913 net.cpp:425] inception_5b/pool <- inception_5a/output_inception_5a/output_0_split_3
I0403 15:23:59.929733 11913 net.cpp:399] inception_5b/pool -> inception_5b/pool
I0403 15:23:59.929812 11913 net.cpp:141] Setting up inception_5b/pool
I0403 15:23:59.929839 11913 net.cpp:148] Top shape: 24 832 7 7 (978432)
I0403 15:23:59.929858 11913 net.cpp:156] Memory required for data: 1339843104
I0403 15:23:59.929874 11913 layer_factory.hpp:77] Creating layer inception_5b/pool_proj
I0403 15:23:59.929901 11913 net.cpp:91] Creating Layer inception_5b/pool_proj
I0403 15:23:59.929924 11913 net.cpp:425] inception_5b/pool_proj <- inception_5b/pool
I0403 15:23:59.929944 11913 net.cpp:399] inception_5b/pool_proj -> inception_5b/pool_proj
I0403 15:23:59.932438 11913 net.cpp:141] Setting up inception_5b/pool_proj
I0403 15:23:59.932469 11913 net.cpp:148] Top shape: 24 128 7 7 (150528)
I0403 15:23:59.932487 11913 net.cpp:156] Memory required for data: 1340445216
I0403 15:23:59.932514 11913 layer_factory.hpp:77] Creating layer inception_5b/relu_pool_proj
I0403 15:23:59.932538 11913 net.cpp:91] Creating Layer inception_5b/relu_pool_proj
I0403 15:23:59.932557 11913 net.cpp:425] inception_5b/relu_pool_proj <- inception_5b/pool_proj
I0403 15:23:59.932579 11913 net.cpp:386] inception_5b/relu_pool_proj -> inception_5b/pool_proj (in-place)
I0403 15:23:59.932898 11913 net.cpp:141] Setting up inception_5b/relu_pool_proj
I0403 15:23:59.932927 11913 net.cpp:148] Top shape: 24 128 7 7 (150528)
I0403 15:23:59.932943 11913 net.cpp:156] Memory required for data: 1341047328
I0403 15:23:59.932960 11913 layer_factory.hpp:77] Creating layer inception_5b/output
I0403 15:23:59.932981 11913 net.cpp:91] Creating Layer inception_5b/output
I0403 15:23:59.933013 11913 net.cpp:425] inception_5b/output <- inception_5b/1x1
I0403 15:23:59.933032 11913 net.cpp:425] inception_5b/output <- inception_5b/3x3
I0403 15:23:59.933049 11913 net.cpp:425] inception_5b/output <- inception_5b/5x5
I0403 15:23:59.933070 11913 net.cpp:425] inception_5b/output <- inception_5b/pool_proj
I0403 15:23:59.933089 11913 net.cpp:399] inception_5b/output -> inception_5b/output
I0403 15:23:59.933146 11913 net.cpp:141] Setting up inception_5b/output
I0403 15:23:59.933176 11913 net.cpp:148] Top shape: 24 1024 7 7 (1204224)
I0403 15:23:59.933192 11913 net.cpp:156] Memory required for data: 1345864224
I0403 15:23:59.933207 11913 layer_factory.hpp:77] Creating layer pool5/7x7_s1
I0403 15:23:59.933225 11913 net.cpp:91] Creating Layer pool5/7x7_s1
I0403 15:23:59.933248 11913 net.cpp:425] pool5/7x7_s1 <- inception_5b/output
I0403 15:23:59.933282 11913 net.cpp:399] pool5/7x7_s1 -> pool5/7x7_s1
I0403 15:23:59.933526 11913 net.cpp:141] Setting up pool5/7x7_s1
I0403 15:23:59.933557 11913 net.cpp:148] Top shape: 24 1024 1 1 (24576)
I0403 15:23:59.933573 11913 net.cpp:156] Memory required for data: 1345962528
I0403 15:23:59.933589 11913 layer_factory.hpp:77] Creating layer pool5/drop_7x7_s1
I0403 15:23:59.933609 11913 net.cpp:91] Creating Layer pool5/drop_7x7_s1
I0403 15:23:59.933625 11913 net.cpp:425] pool5/drop_7x7_s1 <- pool5/7x7_s1
I0403 15:23:59.933645 11913 net.cpp:386] pool5/drop_7x7_s1 -> pool5/7x7_s1 (in-place)
I0403 15:23:59.933701 11913 net.cpp:141] Setting up pool5/drop_7x7_s1
I0403 15:23:59.933725 11913 net.cpp:148] Top shape: 24 1024 1 1 (24576)
I0403 15:23:59.933743 11913 net.cpp:156] Memory required for data: 1346060832
I0403 15:23:59.933760 11913 layer_factory.hpp:77] Creating layer loss3/classifier_plantvillage
I0403 15:23:59.933784 11913 net.cpp:91] Creating Layer loss3/classifier_plantvillage
I0403 15:23:59.933801 11913 net.cpp:425] loss3/classifier_plantvillage <- pool5/7x7_s1
I0403 15:23:59.933825 11913 net.cpp:399] loss3/classifier_plantvillage -> loss3/classifier_plantvillage
I0403 15:23:59.934283 11913 net.cpp:141] Setting up loss3/classifier_plantvillage
I0403 15:23:59.934309 11913 net.cpp:148] Top shape: 24 38 (912)
I0403 15:23:59.934331 11913 net.cpp:156] Memory required for data: 1346064480
I0403 15:23:59.934351 11913 layer_factory.hpp:77] Creating layer loss3/classifier_plantvillage_loss3/classifier_plantvillage_0_split
I0403 15:23:59.934373 11913 net.cpp:91] Creating Layer loss3/classifier_plantvillage_loss3/classifier_plantvillage_0_split
I0403 15:23:59.934393 11913 net.cpp:425] loss3/classifier_plantvillage_loss3/classifier_plantvillage_0_split <- loss3/classifier_plantvillage
I0403 15:23:59.934417 11913 net.cpp:399] loss3/classifier_plantvillage_loss3/classifier_plantvillage_0_split -> loss3/classifier_plantvillage_loss3/classifier_plantvillage_0_split_0
I0403 15:23:59.934439 11913 net.cpp:399] loss3/classifier_plantvillage_loss3/classifier_plantvillage_0_split -> loss3/classifier_plantvillage_loss3/classifier_plantvillage_0_split_1
I0403 15:23:59.934463 11913 net.cpp:399] loss3/classifier_plantvillage_loss3/classifier_plantvillage_0_split -> loss3/classifier_plantvillage_loss3/classifier_plantvillage_0_split_2
I0403 15:23:59.934484 11913 net.cpp:399] loss3/classifier_plantvillage_loss3/classifier_plantvillage_0_split -> loss3/classifier_plantvillage_loss3/classifier_plantvillage_0_split_3
I0403 15:23:59.934612 11913 net.cpp:141] Setting up loss3/classifier_plantvillage_loss3/classifier_plantvillage_0_split
I0403 15:23:59.934654 11913 net.cpp:148] Top shape: 24 38 (912)
I0403 15:23:59.934674 11913 net.cpp:148] Top shape: 24 38 (912)
I0403 15:23:59.934689 11913 net.cpp:148] Top shape: 24 38 (912)
I0403 15:23:59.934707 11913 net.cpp:148] Top shape: 24 38 (912)
I0403 15:23:59.934734 11913 net.cpp:156] Memory required for data: 1346079072
I0403 15:23:59.934751 11913 layer_factory.hpp:77] Creating layer loss1/loss
I0403 15:23:59.934772 11913 net.cpp:91] Creating Layer loss1/loss
I0403 15:23:59.934792 11913 net.cpp:425] loss1/loss <- loss1/classifier_plantvillage_loss1/classifier_plantvillage_0_split_0
I0403 15:23:59.934825 11913 net.cpp:425] loss1/loss <- label_data_1_split_0
…
