…
I0403 14:53:26.405877 11359 net.cpp:313] The NetState phase (1) differed from the phase (0) specified by a rule in layer data
I0403 14:53:26.407032 11359 net.cpp:49] Initializing net from parameters: 
state {
  phase: TEST
}
layer {
  name: "data"
  type: "Data"
  top: "data"
  top: "label"
  include {
    phase: TEST
  }
  transform_param {
    mirror: false
    crop_size: 224
    mean_file: "/home/mohanty/data/final_dataset/lmdb/segmented-40-60/mean.binaryproto"
  }
  data_param {
    source: "/home/mohanty/data/final_dataset/lmdb/segmented-40-60/test_db"
    batch_size: 24
    backend: LMDB
  }
}
layer {
  name: "conv1/7x7_s2"
  type: "Convolution"
  bottom: "data"
  top: "conv1/7x7_s2"
  param {
    lr_mult: 1
    decay_mult: 1
  }
  param {
    lr_mult: 2
    decay_mult: 0
  }
  convolution_param {
    num_output: 64
    pad: 3
    kernel_size: 7
    stride: 2
    weight_filler {
      type: "xavier"
      std: 0.1
    }
    bias_filler {
      type: "constant"
      value: 0.2
    }
  }
}
layer {
  name: "conv1/relu_7x7"
  type: "ReLU"
  bottom: "conv1/7x7_s2"
  top: "conv1/7x7_s2"
}
layer {
  name: "pool1/3x3_s2"
  type: "Pooling"
  bottom: "conv1/7x7_s2"
  top: "pool1/3x3_s2"
  pooling_param {
    pool: MAX
    kernel_size: 3
    stride: 2
  }
}
layer {
  name: "pool1/norm1"
  type: "LRN"
  bottom: "pool1/3x3_s2"
  top: "pool1/norm1"
  lrn_param {
    local_size: 5
    alpha: 0.0001
    beta: 0.75
  }
}
layer {
  name: "conv2/3x3_reduce"
  type: "Convolution"
  bottom: "pool1/norm1"
  top: "conv2/3x3_reduce"
  param {
    lr_mult: 1
    decay_mult: 1
  }
  param {
    lr_mult: 2
    decay_mult: 0
  }
  convolution_param {
    num_output: 64
    kernel_size: 1
    weight_filler {
      type: "xavier"
      std: 0.1
    }
    bias_filler {
      type: "constant"
      value: 0.2
    }
  }
}
layer {
  name: "conv2/relu_3x3_reduce"
  type: "ReLU"
  bottom: "conv2/3x3_reduce"
  top: "conv2/3x3_reduce"
}
layer {
  name: "conv2/3x3"
  type: "Convolution"
  bottom: "conv2/3x3_reduce"
  top: "conv2/3x3"
  param {
    lr_mult: 1
    decay_mult: 1
  }
  param {
    lr_mult: 2
    decay_mult: 0
  }
  convolution_param {
    num_output: 192
    pad: 1
    kernel_size: 3
    weight_filler {
      type: "xavier"
      std: 0.03
    }
    bias_filler {
      type: "constant"
      value: 0.2
    }
  }
}
layer {
  name: "conv2/relu_3x3"
  type: "ReLU"
  bottom: "conv2/3x3"
  top: "conv2/3x3"
}
layer {
  name: "conv2/norm2"
  type: "LRN"
  bottom: "conv2/3x3"
  top: "conv2/norm2"
  lrn_param {
    local_size: 5
    alpha: 0.0001
    beta: 0.75
  }
}
layer {
  name: "pool2/3x3_s2"
  type: "Pooling"
  bottom: "conv2/norm2"
  top: "pool2/3x3_s2"
  pooling_param {
    pool: MAX
    kernel_size: 3
    stride: 2
  }
}
layer {
  name: "inception_3a/1x1"
  type: "Convolution"
  bottom: "pool2/3x3_s2"
  top: "inception_3a/1x1"
  param {
    lr_mult: 1
    decay_mult: 1
  }
  param {
    lr_mult: 2
    decay_mult: 0
  }
  convolution_param {
    num_output: 64
    kernel_size: 1
    weight_filler {
      type: "xavier"
      std: 0.03
    }
    bias_filler {
      type: "constant"
      value: 0.2
    }
  }
}
layer {
  name: "inception_3a/relu_1x1"
  type: "ReLU"
  bottom: "inception_3a/1x1"
  top: "inception_3a/1x1"
}
layer {
  name: "inception_3a/3x3_reduce"
  type: "Convolution"
  bottom: "pool2/3x3_s2"
  top: "inception_3a/3x3_reduce"
  param {
    lr_mult: 1
    decay_mult: 1
  }
  param {
    lr_mult: 2
    decay_mult: 0
  }
  convolution_param {
    num_output: 96
    kernel_size: 1
    weight_filler {
      type: "xavier"
      std: 0.09
    }
    bias_filler {
      type: "constant"
      value: 0.2
    }
  }
}
layer {
  name: "inception_3a/relu_3x3_reduce"
  type: "ReLU"
  bottom: "inception_3a/3x3_reduce"
  top: "inception_3a/3x3_reduce"
}
layer {
  name: "inception_3a/3x3"
  type: "Convolution"
  bottom: "inception_3a/3x3_reduce"
  top: "inception_3a/3x3"
  param {
    lr_mult: 1
    decay_mult: 1
  }
  param {
    lr_mult: 2
    decay_mult: 0
  }
  convolution_param {
    num_output: 128
    pad: 1
    kernel_size: 3
    weight_filler {
      type: "xavier"
      std: 0.03
    }
    bias_filler {
      type: "constant"
      value: 0.2
    }
  }
}
layer {
  name: "inception_3a/relu_3x3"
  type: "ReLU"
  bottom: "inception_3a/3x3"
  top: "inception_3a/3x3"
}
layer {
  name: "inception_3a/5x5_reduce"
  type: "Convolution"
  bottom: "pool2/3x3_s2"
  top: "inception_3a/5x5_reduce"
  param {
    lr_mult: 1
    decay_mult: 1
  }
  param {
    lr_mult: 2
    decay_mult: 0
  }
  convolution_param {
    num_output: 16
    kernel_size: 1
    weight_filler {
      type: "xavier"
      std: 0.2
    }
    bias_filler {
      type: "constant"
      value: 0.2
    }
  }
}
layer {
  name: "inception_3a/relu_5x5_reduce"
  type: "ReLU"
  bottom: "inception_3a/5x5_reduce"
  top: "inception_3a/5x5_reduce"
}
layer {
  name: "inception_3a/5x5"
  type: "Convolution"
  bottom: "inception_3a/5x5_reduce"
  top: "inception_3a/5x5"
  param {
    lr_mult: 1
    decay_mult: 1
  }
  param {
    lr_mult: 2
    decay_mult: 0
  }
  convolution_param {
    num_output: 32
    pad: 2
    kernel_size: 5
    weight_filler {
      type: "xavier"
      std: 0.03
    }
    bias_filler {
      type: "constant"
      value: 0.2
    }
  }
}
layer {
  name: "inception_3a/relu_5x5"
  type: "ReLU"
  bottom: "inception_3a/5x5"
  top: "inception_3a/5x5"
}
layer {
  name: "inception_3a/pool"
  type: "Pooling"
  bottom: "pool2/3x3_s2"
  top: "inception_3a/pool"
  pooling_param {
    pool: MAX
    kernel_size: 3
    stride: 1
    pad: 1
  }
}
layer {
  name: "inception_3a/pool_proj"
  type: "Convolution"
  bottom: "inception_3a/pool"
  top: "inception_3a/pool_proj"
  param {
    lr_mult: 1
    decay_mult: 1
  }
  param {
    lr_mult: 2
    decay_mult: 0
  }
  convolution_param {
    num_output: 32
    kernel_size: 1
    weight_filler {
      type: "xavier"
      std: 0.1
    }
    bias_filler {
      type: "constant"
      value: 0.2
    }
  }
}
layer {
  name: "inception_3a/relu_pool_proj"
  type: "ReLU"
  bottom: "inception_3a/pool_proj"
  top: "inception_3a/pool_proj"
}
layer {
  name: "inception_3a/output"
  type: "Concat"
  bottom: "inception_3a/1x1"
  bottom: "inception_3a/3x3"
  bottom: "inception_3a/5x5"
  bottom: "inception_3a/pool_proj"
  top: "inception_3a/output"
}
layer {
  name: "inception_3b/1x1"
  type: "Convolution"
  bottom: "inception_3a/output"
  top: "inception_3b/1x1"
  param {
    lr_mult: 1
    decay_mult: 1
  }
  param {
    lr_mult: 2
    decay_mult: 0
  }
  convolution_param {
    num_output: 128
    kernel_size: 1
    weight_filler {
      type: "xavier"
      std: 0.03
    }
    bias_filler {
      type: "constant"
      value: 0.2
    }
  }
}
layer {
  name: "inception_3b/relu_1x1"
  type: "ReLU"
  bottom: "inception_3b/1x1"
  top: "inception_3b/1x1"
}
layer {
  name: "inception_3b/3x3_reduce"
  type: "Convolution"
  bottom: "inception_3a/output"
  top: "inception_3b/3x3_reduce"
  param {
    lr_mult: 1
    decay_mult: 1
  }
  param {
    lr_mult: 2
    decay_mult: 0
  }
  convolution_param {
    num_output: 128
    kernel_size: 1
    weight_filler {
      type: "xavier"
      std: 0.09
    }
    bias_filler {
      type: "constant"
      value: 0.2
    }
  }
}
layer {
  name: "inception_3b/relu_3x3_reduce"
  type: "ReLU"
  bottom: "inception_3b/3x3_reduce"
  top: "inception_3b/3x3_reduce"
}
layer {
  name: "inception_3b/3x3"
  type: "Convolution"
  bottom: "inception_3b/3x3_reduce"
  top: "inception_3b/3x3"
  param {
    lr_mult: 1
    decay_mult: 1
  }
  param {
    lr_mult: 2
    decay_mult: 0
  }
  convolution_param {
    num_output: 192
    pad: 1
    kernel_size: 3
    weight_filler {
      type: "xavier"
      std: 0.03
    }
    bias_filler {
      type: "constant"
      value: 0.2
    }
  }
}
layer {
  name: "inception_3b/relu_3x3"
  type: "ReLU"
  bottom: "inception_3b/3x3"
  top: "inception_3b/3x3"
}
layer {
  name: "inception_3b/5x5_reduce"
  type: "Convolution"
  bottom: "inception_3a/output"
  top: "inception_3b/5x5_reduce"
  param {
    lr_mult: 1
    decay_mult: 1
  }
  param {
    lr_mult: 2
    decay_mult: 0
  }
  convolution_param {
    num_output: 32
    kernel_size: 1
    weight_filler {
      type: "xavier"
      std: 0.2
    }
    bias_filler {
      type: "constant"
      value: 0.2
    }
  }
}
layer {
  name: "inception_3b/relu_5x5_reduce"
  type: "ReLU"
  bottom: "inception_3b/5x5_reduce"
  top: "inception_3b/5x5_reduce"
}
layer {
  name: "inception_3b/5x5"
  type: "Convolution"
  bottom: "inception_3b/5x5_reduce"
  top: "inception_3b/5x5"
  param {
    lr_mult: 1
    decay_mult: 1
  }
  param {
    lr_mult: 2
    decay_mult: 0
  }
  convolution_param {
    num_output: 96
    pad: 2
    kernel_size: 5
    weight_filler {
      type: "xavier"
      std: 0.03
    }
    bias_filler {
      type: "constant"
      value: 0.2
    }
  }
}
layer {
  name: "inception_3b/relu_5x5"
  type: "ReLU"
  bottom: "inception_3b/5x5"
  top: "inception_3b/5x5"
}
layer {
  name: "inception_3b/pool"
  type: "Pooling"
  bottom: "inception_3a/output"
  top: "inception_3b/pool"
  pooling_param {
    pool: MAX
    kernel_size: 3
    stride: 1
    pad: 1
  }
}
layer {
  name: "inception_3b/pool_proj"
  type: "Convolution"
  bottom: "inception_3b/pool"
  top: "inception_3b/pool_proj"
  param {
    lr_mult: 1
    decay_mult: 1
  }
  param {
    lr_mult: 2
    decay_mult: 0
  }
  convolution_param {
    num_output: 64
    kernel_size: 1
    weight_filler {
      type: "xavier"
      std: 0.1
    }
    bias_filler {
      type: "constant"
      value: 0.2
    }
  }
}
layer {
  name: "inception_3b/relu_pool_proj"
  type: "ReLU"
  bottom: "inception_3b/pool_proj"
  top: "inception_3b/pool_proj"
}
layer {
  name: "inception_3b/output"
  type: "Concat"
  bottom: "inception_3b/1x1"
  bottom: "inception_3b/3x3"
  bottom: "inception_3b/5x5"
  bottom: "inception_3b/pool_proj"
  top: "inception_3b/output"
}
layer {
  name: "pool3/3x3_s2"
  type: "Pooling"
  bottom: "inception_3b/output"
  top: "pool3/3x3_s2"
  pooling_param {
    pool: MAX
    kernel_size: 3
    stride: 2
  }
}
layer {
  name: "inception_4a/1x1"
  type: "Convolution"
  bottom: "pool3/3x3_s2"
  top: "inception_4a/1x1"
  param {
    lr_mult: 1
    decay_mult: 1
  }
  param {
    lr_mult: 2
    decay_mult: 0
  }
  convolution_param {
    num_output: 192
    kernel_size: 1
    weight_filler {
      type: "xavier"
      std: 0.03
    }
    bias_filler {
      type: "constant"
      value: 0.2
    }
  }
}
layer {
  name: "inception_4a/relu_1x1"
  type: "ReLU"
  bottom: "inception_4a/1x1"
  top: "inception_4a/1x1"
}
layer {
  name: "inception_4a/3x3_reduce"
  type: "Convolution"
  bottom: "pool3/3x3_s2"
  top: "inception_4a/3x3_reduce"
  param {
    lr_mult: 1
    decay_mult: 1
  }
  param {
    lr_mult: 2
    decay_mult: 0
  }
  convolution_param {
    num_output: 96
    kernel_size: 1
    weight_filler {
      type: "xavier"
      std: 0.09
    }
    bias_filler {
      type: "constant"
      value: 0.2
    }
  }
}
layer {
  name: "inception_4a/relu_3x3_reduce"
  type: "ReLU"
  bottom: "inception_4a/3x3_reduce"
  top: "inception_4a/3x3_reduce"
}
layer {
  name: "inception_4a/3x3"
  type: "Convolution"
  bottom: "inception_4a/3x3_reduce"
  top: "inception_4a/3x3"
  param {
    lr_mult: 1
    decay_mult: 1
  }
  param {
    lr_mult: 2
    decay_mult: 0
  }
  convolution_param {
    num_output: 208
    pad: 1
    kernel_size: 3
    weight_filler {
      type: "xavier"
      std: 0.03
    }
    bias_filler {
      type: "constant"
      value: 0.2
    }
  }
}
layer {
  name: "inception_4a/relu_3x3"
  type: "ReLU"
  bottom: "inception_4a/3x3"
  top: "inception_4a/3x3"
}
layer {
  name: "inception_4a/5x5_reduce"
  type: "Convolution"
  bottom: "pool3/3x3_s2"
  top: "inception_4a/5x5_reduce"
  param {
    lr_mult: 1
    decay_mult: 1
  }
  param {
    lr_mult: 2
    decay_mult: 0
  }
  convolution_param {
    num_output: 16
    kernel_size: 1
    weight_filler {
      type: "xavier"
      std: 0.2
    }
    bias_filler {
      type: "constant"
      value: 0.2
    }
  }
}
layer {
  name: "inception_4a/relu_5x5_reduce"
  type: "ReLU"
  bottom: "inception_4a/5x5_reduce"
  top: "inception_4a/5x5_reduce"
}
layer {
  name: "inception_4a/5x5"
  type: "Convolution"
  bottom: "inception_4a/5x5_reduce"
  top: "inception_4a/5x5"
  param {
    lr_mult: 1
    decay_mult: 1
  }
  param {
    lr_mult: 2
    decay_mult: 0
  }
  convolution_param {
    num_output: 48
    pad: 2
    kernel_size: 5
    weight_filler {
      type: "xavier"
      std: 0.03
    }
    bias_filler {
      type: "constant"
      value: 0.2
    }
  }
}
layer {
  name: "inception_4a/relu_5x5"
  type: "ReLU"
  bottom: "inception_4a/5x5"
  top: "inception_4a/5x5"
}
layer {
  name: "inception_4a/pool"
  type: "Pooling"
  bottom: "pool3/3x3_s2"
  top: "inception_4a/pool"
  pooling_param {
    pool: MAX
    kernel_size: 3
    stride: 1
    pad: 1
  }
}
layer {
  name: "inception_4a/pool_proj"
  type: "Convolution"
  bottom: "inception_4a/pool"
  top: "inception_4a/pool_proj"
  param {
    lr_mult: 1
    decay_mult: 1
  }
  param {
    lr_mult: 2
    decay_mult: 0
  }
  convolution_param {
    num_output: 64
    kernel_size: 1
    weight_filler {
      type: "xavier"
      std: 0.1
    }
    bias_filler {
      type: "constant"
      value: 0.2
    }
  }
}
layer {
  name: "inception_4a/relu_pool_proj"
  type: "ReLU"
  bottom: "inception_4a/pool_proj"
  top: "inception_4a/pool_proj"
}
layer {
  name: "inception_4a/output"
  type: "Concat"
  bottom: "inception_4a/1x1"
  bottom: "inception_4a/3x3"
  bottom: "inception_4a/5x5"
  bottom: "inception_4a/pool_proj"
  top: "inception_4a/output"
}
layer {
  name: "loss1/ave_pool"
  type: "Pooling"
  bottom: "inception_4a/output"
  top: "loss1/ave_pool"
  pooling_param {
    pool: AVE
    kernel_size: 5
    stride: 3
  }
}
layer {
  name: "loss1/conv"
  type: "Convolution"
  bottom: "loss1/ave_pool"
  top: "loss1/conv"
  param {
    lr_mult: 1
    decay_mult: 1
  }
  param {
    lr_mult: 2
    decay_mult: 0
  }
  convolution_param {
    num_output: 128
    kernel_size: 1
    weight_filler {
      type: "xavier"
      std: 0.08
    }
    bias_filler {
      type: "constant"
      value: 0.2
    }
  }
}
layer {
  name: "loss1/relu_conv"
  type: "ReLU"
  bottom: "loss1/conv"
  top: "loss1/conv"
}
layer {
  name: "loss1/fc"
  type: "InnerProduct"
  bottom: "loss1/conv"
  top: "loss1/fc"
  param {
    lr_mult: 1
    decay_mult: 1
  }
  param {
    lr_mult: 2
    decay_mult: 0
  }
  inner_product_param {
    num_output: 1024
    weight_filler {
      type: "xavier"
      std: 0.02
    }
    bias_filler {
      type: "constant"
      value: 0.2
    }
  }
}
layer {
  name: "loss1/relu_fc"
  type: "ReLU"
  bottom: "loss1/fc"
  top: "loss1/fc"
}
layer {
  name: "loss1/drop_fc"
  type: "Dropout"
  bottom: "loss1/fc"
  top: "loss1/fc"
  dropout_param {
    dropout_ratio: 0.7
  }
}
layer {
  name: "loss1/classifier_plantvillage"
  type: "InnerProduct"
  bottom: "loss1/fc"
  top: "loss1/classifier_plantvillage"
  param {
    lr_mult: 1
    decay_mult: 1
  }
  param {
    lr_mult: 2
    decay_mult: 0
  }
  inner_product_param {
    num_output: 38
    weight_filler {
      type: "xavier"
      std: 0.0009765625
    }
    bias_filler {
      type: "constant"
      value: 0
    }
  }
}
layer {
  name: "inception_4b/1x1"
  type: "Convolution"
  bottom: "inception_4a/output"
  top: "inception_4b/1x1"
  param {
    lr_mult: 1
    decay_mult: 1
  }
  param {
    lr_mult: 2
    decay_mult: 0
  }
  convolution_param {
    num_output: 160
    kernel_size: 1
    weight_filler {
      type: "xavier"
      std: 0.03
    }
    bias_filler {
      type: "constant"
      value: 0.2
    }
  }
}
layer {
  name: "inception_4b/relu_1x1"
  type: "ReLU"
  bottom: "inception_4b/1x1"
  top: "inception_4b/1x1"
}
layer {
  name: "inception_4b/3x3_reduce"
  type: "Convolution"
  bottom: "inception_4a/output"
  top: "inception_4b/3x3_reduce"
  param {
    lr_mult: 1
    decay_mult: 1
  }
  param {
    lr_mult: 2
    decay_mult: 0
  }
  convolution_param {
    num_output: 112
    kernel_size: 1
    weight_filler {
      type: "xavier"
      std: 0.09
    }
    bias_filler {
      type: "constant"
      value: 0.2
    }
  }
}
layer {
  name: "inception_4b/relu_3x3_reduce"
  type: "ReLU"
  bottom: "inception_4b/3x3_reduce"
  top: "inception_4b/3x3_reduce"
}
layer {
  name: "inception_4b/3x3"
  type: "Convolution"
  bottom: "inception_4b/3x3_reduce"
  top: "inception_4b/3x3"
  param {
    lr_mult: 1
    decay_mult: 1
  }
  param {
    lr_mult: 2
    decay_mult: 0
  }
  convolution_param {
    num_output: 224
    pad: 1
    kernel_size: 3
    weight_filler {
      type: "xavier"
      std: 0.03
    }
    bias_filler {
      type: "constant"
      value: 0.2
    }
  }
}
layer {
  name: "inception_4b/relu_3x3"
  type: "ReLU"
  bottom: "inception_4b/3x3"
  top: "inception_4b/3x3"
}
layer {
  name: "inception_4b/5x5_reduce"
  type: "Convolution"
  bottom: "inception_4a/output"
  top: "inception_4b/5x5_reduce"
  param {
    lr_mult: 1
    decay_mult: 1
  }
  param {
    lr_mult: 2
    decay_mult: 0
  }
  convolution_param {
    num_output: 24
    kernel_size: 1
    weight_filler {
      type: "xavier"
      std: 0.2
    }
    bias_filler {
      type: "constant"
      value: 0.2
    }
  }
}
layer {
  name: "inception_4b/relu_5x5_reduce"
  type: "ReLU"
  bottom: "inception_4b/5x5_reduce"
  top: "inception_4b/5x5_reduce"
}
layer {
  name: "inception_4b/5x5"
  type: "Convolution"
  bottom: "inception_4b/5x5_reduce"
  top: "inception_4b/5x5"
  param {
    lr_mult: 1
    decay_mult: 1
  }
  param {
    lr_mult: 2
    decay_mult: 0
  }
  convolution_param {
    num_output: 64
    pad: 2
    kernel_size: 5
    weight_filler {
      type: "xavier"
      std: 0.03
    }
    bias_filler {
      type: "constant"
      value: 0.2
    }
  }
}
layer {
  name: "inception_4b/relu_5x5"
  type: "ReLU"
  bottom: "inception_4b/5x5"
  top: "inception_4b/5x5"
}
layer {
  name: "inception_4b/pool"
  type: "Pooling"
  bottom: "inception_4a/output"
  top: "inception_4b/pool"
  pooling_param {
    pool: MAX
    kernel_size: 3
    stride: 1
    pad: 1
  }
}
layer {
  name: "inception_4b/pool_proj"
  type: "Convolution"
  bottom: "inception_4b/pool"
  top: "inception_4b/pool_proj"
  param {
    lr_mult: 1
    decay_mult: 1
  }
  param {
    lr_mult: 2
    decay_mult: 0
  }
  convolution_param {
    num_output: 64
    kernel_size: 1
    weight_filler {
      type: "xavier"
      std: 0.1
    }
    bias_filler {
      type: "constant"
      value: 0.2
    }
  }
}
layer {
  name: "inception_4b/relu_pool_proj"
  type: "ReLU"
  bottom: "inception_4b/pool_proj"
  top: "inception_4b/pool_proj"
}
layer {
  name: "inception_4b/output"
  type: "Concat"
  bottom: "inception_4b/1x1"
  bottom: "inception_4b/3x3"
  bottom: "inception_4b/5x5"
  bottom: "inception_4b/pool_proj"
  top: "inception_4b/output"
}
layer {
  name: "inception_4c/1x1"
  type: "Convolution"
  bottom: "inception_4b/output"
  top: "inception_4c/1x1"
  param {
    lr_mult: 1
    decay_mult: 1
  }
  param {
    lr_mult: 2
    decay_mult: 0
  }
  convolution_param {
    num_output: 128
    kernel_size: 1
    weight_filler {
      type: "xavier"
      std: 0.03
    }
    bias_filler {
      type: "constant"
      value: 0.2
    }
  }
}
layer {
  name: "inception_4c/relu_1x1"
  type: "ReLU"
  bottom: "inception_4c/1x1"
  top: "inception_4c/1x1"
}
layer {
  name: "inception_4c/3x3_reduce"
  type: "Convolution"
  bottom: "inception_4b/output"
  top: "inception_4c/3x3_reduce"
  param {
    lr_mult: 1
    decay_mult: 1
  }
  param {
    lr_mult: 2
    decay_mult: 0
  }
  convolution_param {
    num_output: 128
    kernel_size: 1
    weight_filler {
      type: "xavier"
      std: 0.09
    }
    bias_filler {
      type: "constant"
      value: 0.2
    }
  }
}
layer {
  name: "inception_4c/relu_3x3_reduce"
  type: "ReLU"
  bottom: "inception_4c/3x3_reduce"
  top: "inception_4c/3x3_reduce"
}
layer {
  name: "inception_4c/3x3"
  type: "Convolution"
  bottom: "inception_4c/3x3_reduce"
  top: "inception_4c/3x3"
  param {
    lr_mult: 1
    decay_mult: 1
  }
  param {
    lr_mult: 2
    decay_mult: 0
  }
  convolution_param {
    num_output: 256
    pad: 1
    kernel_size: 3
    weight_filler {
      type: "xavier"
      std: 0.03
    }
    bias_filler {
      type: "constant"
      value: 0.2
    }
  }
}
layer {
  name: "inception_4c/relu_3x3"
  type: "ReLU"
  bottom: "inception_4c/3x3"
  top: "inception_4c/3x3"
}
layer {
  name: "inception_4c/5x5_reduce"
  type: "Convolution"
  bottom: "inception_4b/output"
  top: "inception_4c/5x5_reduce"
  param {
    lr_mult: 1
    decay_mult: 1
  }
  param {
    lr_mult: 2
    decay_mult: 0
  }
  convolution_param {
    num_output: 24
    kernel_size: 1
    weight_filler {
      type: "xavier"
      std: 0.2
    }
    bias_filler {
      type: "constant"
      value: 0.2
    }
  }
}
layer {
  name: "inception_4c/relu_5x5_reduce"
  type: "ReLU"
  bottom: "inception_4c/5x5_reduce"
  top: "inception_4c/5x5_reduce"
}
layer {
  name: "inception_4c/5x5"
  type: "Convolution"
  bottom: "inception_4c/5x5_reduce"
  top: "inception_4c/5x5"
  param {
    lr_mult: 1
    decay_mult: 1
  }
  param {
    lr_mult: 2
    decay_mult: 0
  }
  convolution_param {
    num_output: 64
    pad: 2
    kernel_size: 5
    weight_filler {
      type: "xavier"
      std: 0.03
    }
    bias_filler {
      type: "constant"
      value: 0.2
    }
  }
}
layer {
  name: "inception_4c/relu_5x5"
  type: "ReLU"
  bottom: "inception_4c/5x5"
  top: "inception_4c/5x5"
}
layer {
  name: "inception_4c/pool"
  type: "Pooling"
  bottom: "inception_4b/output"
  top: "inception_4c/pool"
  pooling_param {
    pool: MAX
    kernel_size: 3
    stride: 1
    pad: 1
  }
}
layer {
  name: "inception_4c/pool_proj"
  type: "Convolution"
  bottom: "inception_4c/pool"
  top: "inception_4c/pool_proj"
  param {
    lr_mult: 1
    decay_mult: 1
  }
  param {
    lr_mult: 2
    decay_mult: 0
  }
  convolution_param {
    num_output: 64
    kernel_size: 1
    weight_filler {
      type: "xavier"
      std: 0.1
    }
    bias_filler {
      type: "constant"
      value: 0.2
    }
  }
}
layer {
  name: "inception_4c/relu_pool_proj"
  type: "ReLU"
  bottom: "inception_4c/pool_proj"
  top: "inception_4c/pool_proj"
}
layer {
  name: "inception_4c/output"
  type: "Concat"
  bottom: "inception_4c/1x1"
  bottom: "inception_4c/3x3"
  bottom: "inception_4c/5x5"
  bottom: "inception_4c/pool_proj"
  top: "inception_4c/output"
}
layer {
  name: "inception_4d/1x1"
  type: "Convolution"
  bottom: "inception_4c/output"
  top: "inception_4d/1x1"
  param {
    lr_mult: 1
    decay_mult: 1
  }
  param {
    lr_mult: 2
    decay_mult: 0
  }
  convolution_param {
    num_output: 112
    kernel_size: 1
    weight_filler {
      type: "xavier"
      std: 0.03
    }
    bias_filler {
      type: "constant"
      value: 0.2
    }
  }
}
layer {
  name: "inception_4d/relu_1x1"
  type: "ReLU"
  bottom: "inception_4d/1x1"
  top: "inception_4d/1x1"
}
layer {
  name: "inception_4d/3x3_reduce"
  type: "Convolution"
  bottom: "inception_4c/output"
  top: "inception_4d/3x3_reduce"
  param {
    lr_mult: 1
    decay_mult: 1
  }
  param {
    lr_mult: 2
    decay_mult: 0
  }
  convolution_param {
    num_output: 144
    kernel_size: 1
    weight_filler {
      type: "xavier"
      std: 0.09
    }
    bias_filler {
      type: "constant"
      value: 0.2
    }
  }
}
layer {
  name: "inception_4d/relu_3x3_reduce"
  type: "ReLU"
  bottom: "inception_4d/3x3_reduce"
  top: "inception_4d/3x3_reduce"
}
layer {
  name: "inception_4d/3x3"
  type: "Convolution"
  bottom: "inception_4d/3x3_reduce"
  top: "inception_4d/3x3"
  param {
    lr_mult: 1
    decay_mult: 1
  }
  param {
    lr_mult: 2
    decay_mult: 0
  }
  convolution_param {
    num_output: 288
    pad: 1
    kernel_size: 3
    weight_filler {
      type: "xavier"
      std: 0.03
    }
    bias_filler {
      type: "constant"
      value: 0.2
    }
  }
}
layer {
  name: "inception_4d/relu_3x3"
  type: "ReLU"
  bottom: "inception_4d/3x3"
  top: "inception_4d/3x3"
}
layer {
  name: "inception_4d/5x5_reduce"
  type: "Convolution"
  bottom: "inception_4c/output"
  top: "inception_4d/5x5_reduce"
  param {
    lr_mult: 1
    decay_mult: 1
  }
  param {
    lr_mult: 2
    decay_mult: 0
  }
  convolution_param {
    num_output: 32
    kernel_size: 1
    weight_filler {
      type: "xavier"
      std: 0.2
    }
    bias_filler {
      type: "constant"
      value: 0.2
    }
  }
}
layer {
  name: "inception_4d/relu_5x5_reduce"
  type: "ReLU"
  bottom: "inception_4d/5x5_reduce"
  top: "inception_4d/5x5_reduce"
}
layer {
  name: "inception_4d/5x5"
  type: "Convolution"
  bottom: "inception_4d/5x5_reduce"
  top: "inception_4d/5x5"
  param {
    lr_mult: 1
    decay_mult: 1
  }
  param {
    lr_mult: 2
    decay_mult: 0
  }
  convolution_param {
    num_output: 64
    pad: 2
    kernel_size: 5
    weight_filler {
      type: "xavier"
      std: 0.03
    }
    bias_filler {
      type: "constant"
      value: 0.2
    }
  }
}
layer {
  name: "inception_4d/relu_5x5"
  type: "ReLU"
  bottom: "inception_4d/5x5"
  top: "inception_4d/5x5"
}
layer {
  name: "inception_4d/pool"
  type: "Pooling"
  bottom: "inception_4c/output"
  top: "inception_4d/pool"
  pooling_param {
    pool: MAX
    kernel_size: 3
    stride: 1
    pad: 1
  }
}
layer {
  name: "inception_4d/pool_proj"
  type: "Convolution"
  bottom: "inception_4d/pool"
  top: "inception_4d/pool_proj"
  param {
    lr_mult: 1
    decay_mult: 1
  }
  param {
    lr_mult: 2
    decay_mult: 0
  }
  convolution_param {
    num_output: 64
    kernel_size: 1
    weight_filler {
      type: "xavier"
      std: 0.1
    }
    bias_filler {
      type: "constant"
      value: 0.2
    }
  }
}
layer {
  name: "inception_4d/relu_pool_proj"
  type: "ReLU"
  bottom: "inception_4d/pool_proj"
  top: "inception_4d/pool_proj"
}
layer {
  name: "inception_4d/output"
  type: "Concat"
  bottom: "inception_4d/1x1"
  bottom: "inception_4d/3x3"
  bottom: "inception_4d/5x5"
  bottom: "inception_4d/pool_proj"
  top: "inception_4d/output"
}
layer {
  name: "loss2/ave_pool"
  type: "Pooling"
  bottom: "inception_4d/output"
  top: "loss2/ave_pool"
  pooling_param {
    pool: AVE
    kernel_size: 5
    stride: 3
  }
}
layer {
  name: "loss2/conv"
  type: "Convolution"
  bottom: "loss2/ave_pool"
  top: "loss2/conv"
  param {
    lr_mult: 1
    decay_mult: 1
  }
  param {
    lr_mult: 2
    decay_mult: 0
  }
  convolution_param {
    num_output: 128
    kernel_size: 1
    weight_filler {
      type: "xavier"
      std: 0.08
    }
    bias_filler {
      type: "constant"
      value: 0.2
    }
  }
}
layer {
  name: "loss2/relu_conv"
  type: "ReLU"
  bottom: "loss2/conv"
  top: "loss2/conv"
}
layer {
  name: "loss2/fc"
  type: "InnerProduct"
  bottom: "loss2/conv"
  top: "loss2/fc"
  param {
    lr_mult: 1
    decay_mult: 1
  }
  param {
    lr_mult: 2
    decay_mult: 0
  }
  inner_product_param {
    num_output: 1024
    weight_filler {
      type: "xavier"
      std: 0.02
    }
    bias_filler {
      type: "constant"
      value: 0.2
    }
  }
}
layer {
  name: "loss2/relu_fc"
  type: "ReLU"
  bottom: "loss2/fc"
  top: "loss2/fc"
}
layer {
  name: "loss2/drop_fc"
  type: "Dropout"
  bottom: "loss2/fc"
  top: "loss2/fc"
  dropout_param {
    dropout_ratio: 0.7
  }
}
layer {
  name: "loss2/classifier_plantvillage"
  type: "InnerProduct"
  bottom: "loss2/fc"
  top: "loss2/classifier_plantvillage"
  param {
    lr_mult: 1
    decay_mult: 1
  }
  param {
    lr_mult: 2
    decay_mult: 0
  }
  inner_product_param {
    num_output: 38
    weight_filler {
      type: "xavier"
      std: 0.0009765625
    }
    bias_filler {
      type: "constant"
      value: 0
    }
  }
}
layer {
  name: "inception_4e/1x1"
  type: "Convolution"
  bottom: "inception_4d/output"
  top: "inception_4e/1x1"
  param {
    lr_mult: 1
    decay_mult: 1
  }
  param {
    lr_mult: 2
    decay_mult: 0
  }
  convolution_param {
    num_output: 256
    kernel_size: 1
    weight_filler {
      type: "xavier"
      std: 0.03
    }
    bias_filler {
      type: "constant"
      value: 0.2
    }
  }
}
layer {
  name: "inception_4e/relu_1x1"
  type: "ReLU"
  bottom: "inception_4e/1x1"
  top: "inception_4e/1x1"
}
layer {
  name: "inception_4e/3x3_reduce"
  type: "Convolution"
  bottom: "inception_4d/output"
  top: "inception_4e/3x3_reduce"
  param {
    lr_mult: 1
    decay_mult: 1
  }
  param {
    lr_mult: 2
    decay_mult: 0
  }
  convolution_param {
    num_output: 160
    kernel_size: 1
    weight_filler {
      type: "xavier"
      std: 0.09
    }
    bias_filler {
      type: "constant"
      value: 0.2
    }
  }
}
layer {
  name: "inception_4e/relu_3x3_reduce"
  type: "ReLU"
  bottom: "inception_4e/3x3_reduce"
  top: "inception_4e/3x3_reduce"
}
layer {
  name: "inception_4e/3x3"
  type: "Convolution"
  bottom: "inception_4e/3x3_reduce"
  top: "inception_4e/3x3"
  param {
    lr_mult: 1
    decay_mult: 1
  }
  param {
    lr_mult: 2
    decay_mult: 0
  }
  convolution_param {
    num_output: 320
    pad: 1
    kernel_size: 3
    weight_filler {
      type: "xavier"
      std: 0.03
    }
    bias_filler {
      type: "constant"
      value: 0.2
    }
  }
}
layer {
  name: "inception_4e/relu_3x3"
  type: "ReLU"
  bottom: "inception_4e/3x3"
  top: "inception_4e/3x3"
}
layer {
  name: "inception_4e/5x5_reduce"
  type: "Convolution"
  bottom: "inception_4d/output"
  top: "inception_4e/5x5_reduce"
  param {
    lr_mult: 1
    decay_mult: 1
  }
  param {
    lr_mult: 2
    decay_mult: 0
  }
  convolution_param {
    num_output: 32
    kernel_size: 1
    weight_filler {
      type: "xavier"
      std: 0.2
    }
    bias_filler {
      type: "constant"
      value: 0.2
    }
  }
}
layer {
  name: "inception_4e/relu_5x5_reduce"
  type: "ReLU"
  bottom: "inception_4e/5x5_reduce"
  top: "inception_4e/5x5_reduce"
}
layer {
  name: "inception_4e/5x5"
  type: "Convolution"
  bottom: "inception_4e/5x5_reduce"
  top: "inception_4e/
I0403 14:53:26.408234 11359 layer_factory.hpp:77] Creating layer data
I0403 14:53:26.408817 11359 net.cpp:91] Creating Layer data
I0403 14:53:26.408848 11359 net.cpp:399] data -> data
I0403 14:53:26.408895 11359 net.cpp:399] data -> label
I0403 14:53:26.408931 11359 data_transformer.cpp:25] Loading mean file from: /home/mohanty/data/final_dataset/lmdb/segmented-40-60/mean.binaryproto
I0403 14:53:26.414160 11363 db_lmdb.cpp:38] Opened lmdb /home/mohanty/data/final_dataset/lmdb/segmented-40-60/test_db
I0403 14:53:26.422425 11359 data_layer.cpp:41] output data size: 24,3,224,224
I0403 14:53:26.449596 11359 net.cpp:141] Setting up data
I0403 14:53:26.449654 11359 net.cpp:148] Top shape: 24 3 224 224 (3612672)
I0403 14:53:26.449679 11359 net.cpp:148] Top shape: 24 (24)
I0403 14:53:26.449697 11359 net.cpp:156] Memory required for data: 14450784
I0403 14:53:26.449723 11359 layer_factory.hpp:77] Creating layer label_data_1_split
I0403 14:53:26.449750 11359 net.cpp:91] Creating Layer label_data_1_split
I0403 14:53:26.449769 11359 net.cpp:425] label_data_1_split <- label
I0403 14:53:26.449800 11359 net.cpp:399] label_data_1_split -> label_data_1_split_0
I0403 14:53:26.449831 11359 net.cpp:399] label_data_1_split -> label_data_1_split_1
I0403 14:53:26.449853 11359 net.cpp:399] label_data_1_split -> label_data_1_split_2
I0403 14:53:26.449875 11359 net.cpp:399] label_data_1_split -> label_data_1_split_3
I0403 14:53:26.449894 11359 net.cpp:399] label_data_1_split -> label_data_1_split_4
I0403 14:53:26.449914 11359 net.cpp:399] label_data_1_split -> label_data_1_split_5
I0403 14:53:26.449934 11359 net.cpp:399] label_data_1_split -> label_data_1_split_6
I0403 14:53:26.449954 11359 net.cpp:399] label_data_1_split -> label_data_1_split_7
I0403 14:53:26.449975 11359 net.cpp:399] label_data_1_split -> label_data_1_split_8
I0403 14:53:26.449995 11359 net.cpp:399] label_data_1_split -> label_data_1_split_9
I0403 14:53:26.450111 11359 net.cpp:141] Setting up label_data_1_split
I0403 14:53:26.450135 11359 net.cpp:148] Top shape: 24 (24)
I0403 14:53:26.450152 11359 net.cpp:148] Top shape: 24 (24)
I0403 14:53:26.450168 11359 net.cpp:148] Top shape: 24 (24)
I0403 14:53:26.450186 11359 net.cpp:148] Top shape: 24 (24)
I0403 14:53:26.450201 11359 net.cpp:148] Top shape: 24 (24)
I0403 14:53:26.450217 11359 net.cpp:148] Top shape: 24 (24)
I0403 14:53:26.450232 11359 net.cpp:148] Top shape: 24 (24)
I0403 14:53:26.450248 11359 net.cpp:148] Top shape: 24 (24)
I0403 14:53:26.450263 11359 net.cpp:148] Top shape: 24 (24)
I0403 14:53:26.450279 11359 net.cpp:148] Top shape: 24 (24)
I0403 14:53:26.450332 11359 net.cpp:156] Memory required for data: 14451744
I0403 14:53:26.450350 11359 layer_factory.hpp:77] Creating layer conv1/7x7_s2
I0403 14:53:26.450381 11359 net.cpp:91] Creating Layer conv1/7x7_s2
I0403 14:53:26.450399 11359 net.cpp:425] conv1/7x7_s2 <- data
I0403 14:53:26.450419 11359 net.cpp:399] conv1/7x7_s2 -> conv1/7x7_s2
I0403 14:53:26.593363 11359 net.cpp:141] Setting up conv1/7x7_s2
I0403 14:53:26.593451 11359 net.cpp:148] Top shape: 24 64 112 112 (19267584)
I0403 14:53:26.593467 11359 net.cpp:156] Memory required for data: 91522080
I0403 14:53:26.593497 11359 layer_factory.hpp:77] Creating layer conv1/relu_7x7
I0403 14:53:26.593524 11359 net.cpp:91] Creating Layer conv1/relu_7x7
I0403 14:53:26.593543 11359 net.cpp:425] conv1/relu_7x7 <- conv1/7x7_s2
I0403 14:53:26.593561 11359 net.cpp:386] conv1/relu_7x7 -> conv1/7x7_s2 (in-place)
I0403 14:53:26.593832 11359 net.cpp:141] Setting up conv1/relu_7x7
I0403 14:53:26.593859 11359 net.cpp:148] Top shape: 24 64 112 112 (19267584)
I0403 14:53:26.593874 11359 net.cpp:156] Memory required for data: 168592416
I0403 14:53:26.593889 11359 layer_factory.hpp:77] Creating layer pool1/3x3_s2
I0403 14:53:26.593914 11359 net.cpp:91] Creating Layer pool1/3x3_s2
I0403 14:53:26.593930 11359 net.cpp:425] pool1/3x3_s2 <- conv1/7x7_s2
I0403 14:53:26.593948 11359 net.cpp:399] pool1/3x3_s2 -> pool1/3x3_s2
I0403 14:53:26.594018 11359 net.cpp:141] Setting up pool1/3x3_s2
I0403 14:53:26.594043 11359 net.cpp:148] Top shape: 24 64 56 56 (4816896)
I0403 14:53:26.594056 11359 net.cpp:156] Memory required for data: 187860000
I0403 14:53:26.594071 11359 layer_factory.hpp:77] Creating layer pool1/norm1
I0403 14:53:26.594095 11359 net.cpp:91] Creating Layer pool1/norm1
I0403 14:53:26.594112 11359 net.cpp:425] pool1/norm1 <- pool1/3x3_s2
I0403 14:53:26.594130 11359 net.cpp:399] pool1/norm1 -> pool1/norm1
I0403 14:53:26.594415 11359 net.cpp:141] Setting up pool1/norm1
I0403 14:53:26.594442 11359 net.cpp:148] Top shape: 24 64 56 56 (4816896)
I0403 14:53:26.594457 11359 net.cpp:156] Memory required for data: 207127584
I0403 14:53:26.594472 11359 layer_factory.hpp:77] Creating layer conv2/3x3_reduce
I0403 14:53:26.594496 11359 net.cpp:91] Creating Layer conv2/3x3_reduce
I0403 14:53:26.594512 11359 net.cpp:425] conv2/3x3_reduce <- pool1/norm1
I0403 14:53:26.594530 11359 net.cpp:399] conv2/3x3_reduce -> conv2/3x3_reduce
I0403 14:53:26.595819 11359 net.cpp:141] Setting up conv2/3x3_reduce
I0403 14:53:26.595850 11359 net.cpp:148] Top shape: 24 64 56 56 (4816896)
I0403 14:53:26.595867 11359 net.cpp:156] Memory required for data: 226395168
I0403 14:53:26.595888 11359 layer_factory.hpp:77] Creating layer conv2/relu_3x3_reduce
I0403 14:53:26.595906 11359 net.cpp:91] Creating Layer conv2/relu_3x3_reduce
I0403 14:53:26.595922 11359 net.cpp:425] conv2/relu_3x3_reduce <- conv2/3x3_reduce
I0403 14:53:26.595938 11359 net.cpp:386] conv2/relu_3x3_reduce -> conv2/3x3_reduce (in-place)
I0403 14:53:26.596206 11359 net.cpp:141] Setting up conv2/relu_3x3_reduce
I0403 14:53:26.596232 11359 net.cpp:148] Top shape: 24 64 56 56 (4816896)
I0403 14:53:26.596246 11359 net.cpp:156] Memory required for data: 245662752
I0403 14:53:26.596261 11359 layer_factory.hpp:77] Creating layer conv2/3x3
I0403 14:53:26.596283 11359 net.cpp:91] Creating Layer conv2/3x3
I0403 14:53:26.596299 11359 net.cpp:425] conv2/3x3 <- conv2/3x3_reduce
I0403 14:53:26.596323 11359 net.cpp:399] conv2/3x3 -> conv2/3x3
I0403 14:53:26.598600 11359 net.cpp:141] Setting up conv2/3x3
I0403 14:53:26.598644 11359 net.cpp:148] Top shape: 24 192 56 56 (14450688)
I0403 14:53:26.598660 11359 net.cpp:156] Memory required for data: 303465504
I0403 14:53:26.598681 11359 layer_factory.hpp:77] Creating layer conv2/relu_3x3
I0403 14:53:26.598702 11359 net.cpp:91] Creating Layer conv2/relu_3x3
I0403 14:53:26.598719 11359 net.cpp:425] conv2/relu_3x3 <- conv2/3x3
I0403 14:53:26.598737 11359 net.cpp:386] conv2/relu_3x3 -> conv2/3x3 (in-place)
I0403 14:53:26.598912 11359 net.cpp:141] Setting up conv2/relu_3x3
I0403 14:53:26.598937 11359 net.cpp:148] Top shape: 24 192 56 56 (14450688)
I0403 14:53:26.598981 11359 net.cpp:156] Memory required for data: 361268256
I0403 14:53:26.598997 11359 layer_factory.hpp:77] Creating layer conv2/norm2
I0403 14:53:26.599019 11359 net.cpp:91] Creating Layer conv2/norm2
I0403 14:53:26.599035 11359 net.cpp:425] conv2/norm2 <- conv2/3x3
I0403 14:53:26.599055 11359 net.cpp:399] conv2/norm2 -> conv2/norm2
I0403 14:53:26.599362 11359 net.cpp:141] Setting up conv2/norm2
I0403 14:53:26.599391 11359 net.cpp:148] Top shape: 24 192 56 56 (14450688)
I0403 14:53:26.599406 11359 net.cpp:156] Memory required for data: 419071008
I0403 14:53:26.599421 11359 layer_factory.hpp:77] Creating layer pool2/3x3_s2
I0403 14:53:26.599439 11359 net.cpp:91] Creating Layer pool2/3x3_s2
I0403 14:53:26.599453 11359 net.cpp:425] pool2/3x3_s2 <- conv2/norm2
I0403 14:53:26.599472 11359 net.cpp:399] pool2/3x3_s2 -> pool2/3x3_s2
I0403 14:53:26.599524 11359 net.cpp:141] Setting up pool2/3x3_s2
I0403 14:53:26.599548 11359 net.cpp:148] Top shape: 24 192 28 28 (3612672)
I0403 14:53:26.599563 11359 net.cpp:156] Memory required for data: 433521696
I0403 14:53:26.599578 11359 layer_factory.hpp:77] Creating layer pool2/3x3_s2_pool2/3x3_s2_0_split
I0403 14:53:26.599596 11359 net.cpp:91] Creating Layer pool2/3x3_s2_pool2/3x3_s2_0_split
I0403 14:53:26.599611 11359 net.cpp:425] pool2/3x3_s2_pool2/3x3_s2_0_split <- pool2/3x3_s2
I0403 14:53:26.599627 11359 net.cpp:399] pool2/3x3_s2_pool2/3x3_s2_0_split -> pool2/3x3_s2_pool2/3x3_s2_0_split_0
I0403 14:53:26.599647 11359 net.cpp:399] pool2/3x3_s2_pool2/3x3_s2_0_split -> pool2/3x3_s2_pool2/3x3_s2_0_split_1
I0403 14:53:26.599668 11359 net.cpp:399] pool2/3x3_s2_pool2/3x3_s2_0_split -> pool2/3x3_s2_pool2/3x3_s2_0_split_2
I0403 14:53:26.599689 11359 net.cpp:399] pool2/3x3_s2_pool2/3x3_s2_0_split -> pool2/3x3_s2_pool2/3x3_s2_0_split_3
I0403 14:53:26.599757 11359 net.cpp:141] Setting up pool2/3x3_s2_pool2/3x3_s2_0_split
I0403 14:53:26.599779 11359 net.cpp:148] Top shape: 24 192 28 28 (3612672)
I0403 14:53:26.599795 11359 net.cpp:148] Top shape: 24 192 28 28 (3612672)
I0403 14:53:26.599810 11359 net.cpp:148] Top shape: 24 192 28 28 (3612672)
I0403 14:53:26.599825 11359 net.cpp:148] Top shape: 24 192 28 28 (3612672)
I0403 14:53:26.599838 11359 net.cpp:156] Memory required for data: 491324448
I0403 14:53:26.599853 11359 layer_factory.hpp:77] Creating layer inception_3a/1x1
I0403 14:53:26.599875 11359 net.cpp:91] Creating Layer inception_3a/1x1
I0403 14:53:26.599892 11359 net.cpp:425] inception_3a/1x1 <- pool2/3x3_s2_pool2/3x3_s2_0_split_0
I0403 14:53:26.599912 11359 net.cpp:399] inception_3a/1x1 -> inception_3a/1x1
I0403 14:53:26.601407 11359 net.cpp:141] Setting up inception_3a/1x1
I0403 14:53:26.601436 11359 net.cpp:148] Top shape: 24 64 28 28 (1204224)
I0403 14:53:26.601452 11359 net.cpp:156] Memory required for data: 496141344
I0403 14:53:26.601471 11359 layer_factory.hpp:77] Creating layer inception_3a/relu_1x1
I0403 14:53:26.601490 11359 net.cpp:91] Creating Layer inception_3a/relu_1x1
I0403 14:53:26.601505 11359 net.cpp:425] inception_3a/relu_1x1 <- inception_3a/1x1
I0403 14:53:26.601523 11359 net.cpp:386] inception_3a/relu_1x1 -> inception_3a/1x1 (in-place)
I0403 14:53:26.601696 11359 net.cpp:141] Setting up inception_3a/relu_1x1
I0403 14:53:26.601721 11359 net.cpp:148] Top shape: 24 64 28 28 (1204224)
I0403 14:53:26.601734 11359 net.cpp:156] Memory required for data: 500958240
I0403 14:53:26.601748 11359 layer_factory.hpp:77] Creating layer inception_3a/3x3_reduce
I0403 14:53:26.601770 11359 net.cpp:91] Creating Layer inception_3a/3x3_reduce
I0403 14:53:26.601788 11359 net.cpp:425] inception_3a/3x3_reduce <- pool2/3x3_s2_pool2/3x3_s2_0_split_1
I0403 14:53:26.601809 11359 net.cpp:399] inception_3a/3x3_reduce -> inception_3a/3x3_reduce
I0403 14:53:26.603495 11359 net.cpp:141] Setting up inception_3a/3x3_reduce
I0403 14:53:26.603526 11359 net.cpp:148] Top shape: 24 96 28 28 (1806336)
I0403 14:53:26.603543 11359 net.cpp:156] Memory required for data: 508183584
I0403 14:53:26.603566 11359 layer_factory.hpp:77] Creating layer inception_3a/relu_3x3_reduce
I0403 14:53:26.603605 11359 net.cpp:91] Creating Layer inception_3a/relu_3x3_reduce
I0403 14:53:26.603636 11359 net.cpp:425] inception_3a/relu_3x3_reduce <- inception_3a/3x3_reduce
I0403 14:53:26.603654 11359 net.cpp:386] inception_3a/relu_3x3_reduce -> inception_3a/3x3_reduce (in-place)
I0403 14:53:26.603835 11359 net.cpp:141] Setting up inception_3a/relu_3x3_reduce
I0403 14:53:26.603862 11359 net.cpp:148] Top shape: 24 96 28 28 (1806336)
I0403 14:53:26.603878 11359 net.cpp:156] Memory required for data: 515408928
I0403 14:53:26.603891 11359 layer_factory.hpp:77] Creating layer inception_3a/3x3
I0403 14:53:26.603914 11359 net.cpp:91] Creating Layer inception_3a/3x3
I0403 14:53:26.603930 11359 net.cpp:425] inception_3a/3x3 <- inception_3a/3x3_reduce
I0403 14:53:26.603948 11359 net.cpp:399] inception_3a/3x3 -> inception_3a/3x3
I0403 14:53:26.605644 11359 net.cpp:141] Setting up inception_3a/3x3
I0403 14:53:26.605674 11359 net.cpp:148] Top shape: 24 128 28 28 (2408448)
I0403 14:53:26.605690 11359 net.cpp:156] Memory required for data: 525042720
I0403 14:53:26.605710 11359 layer_factory.hpp:77] Creating layer inception_3a/relu_3x3
I0403 14:53:26.605729 11359 net.cpp:91] Creating Layer inception_3a/relu_3x3
I0403 14:53:26.605747 11359 net.cpp:425] inception_3a/relu_3x3 <- inception_3a/3x3
I0403 14:53:26.605765 11359 net.cpp:386] inception_3a/relu_3x3 -> inception_3a/3x3 (in-place)
I0403 14:53:26.606041 11359 net.cpp:141] Setting up inception_3a/relu_3x3
I0403 14:53:26.606068 11359 net.cpp:148] Top shape: 24 128 28 28 (2408448)
I0403 14:53:26.606084 11359 net.cpp:156] Memory required for data: 534676512
I0403 14:53:26.606099 11359 layer_factory.hpp:77] Creating layer inception_3a/5x5_reduce
I0403 14:53:26.606122 11359 net.cpp:91] Creating Layer inception_3a/5x5_reduce
I0403 14:53:26.606140 11359 net.cpp:425] inception_3a/5x5_reduce <- pool2/3x3_s2_pool2/3x3_s2_0_split_2
I0403 14:53:26.606161 11359 net.cpp:399] inception_3a/5x5_reduce -> inception_3a/5x5_reduce
I0403 14:53:26.607116 11359 net.cpp:141] Setting up inception_3a/5x5_reduce
I0403 14:53:26.607144 11359 net.cpp:148] Top shape: 24 16 28 28 (301056)
I0403 14:53:26.607161 11359 net.cpp:156] Memory required for data: 535880736
I0403 14:53:26.607179 11359 layer_factory.hpp:77] Creating layer inception_3a/relu_5x5_reduce
I0403 14:53:26.607199 11359 net.cpp:91] Creating Layer inception_3a/relu_5x5_reduce
I0403 14:53:26.607215 11359 net.cpp:425] inception_3a/relu_5x5_reduce <- inception_3a/5x5_reduce
I0403 14:53:26.607234 11359 net.cpp:386] inception_3a/relu_5x5_reduce -> inception_3a/5x5_reduce (in-place)
I0403 14:53:26.607532 11359 net.cpp:141] Setting up inception_3a/relu_5x5_reduce
I0403 14:53:26.607558 11359 net.cpp:148] Top shape: 24 16 28 28 (301056)
I0403 14:53:26.607573 11359 net.cpp:156] Memory required for data: 537084960
I0403 14:53:26.607588 11359 layer_factory.hpp:77] Creating layer inception_3a/5x5
I0403 14:53:26.607612 11359 net.cpp:91] Creating Layer inception_3a/5x5
I0403 14:53:26.607628 11359 net.cpp:425] inception_3a/5x5 <- inception_3a/5x5_reduce
I0403 14:53:26.607647 11359 net.cpp:399] inception_3a/5x5 -> inception_3a/5x5
I0403 14:53:26.608685 11359 net.cpp:141] Setting up inception_3a/5x5
I0403 14:53:26.608713 11359 net.cpp:148] Top shape: 24 32 28 28 (602112)
I0403 14:53:26.608729 11359 net.cpp:156] Memory required for data: 539493408
I0403 14:53:26.608748 11359 layer_factory.hpp:77] Creating layer inception_3a/relu_5x5
I0403 14:53:26.608767 11359 net.cpp:91] Creating Layer inception_3a/relu_5x5
I0403 14:53:26.608783 11359 net.cpp:425] inception_3a/relu_5x5 <- inception_3a/5x5
I0403 14:53:26.608803 11359 net.cpp:386] inception_3a/relu_5x5 -> inception_3a/5x5 (in-place)
I0403 14:53:26.608976 11359 net.cpp:141] Setting up inception_3a/relu_5x5
I0403 14:53:26.609001 11359 net.cpp:148] Top shape: 24 32 28 28 (602112)
I0403 14:53:26.609015 11359 net.cpp:156] Memory required for data: 541901856
I0403 14:53:26.609030 11359 layer_factory.hpp:77] Creating layer inception_3a/pool
I0403 14:53:26.609048 11359 net.cpp:91] Creating Layer inception_3a/pool
I0403 14:53:26.609078 11359 net.cpp:425] inception_3a/pool <- pool2/3x3_s2_pool2/3x3_s2_0_split_3
I0403 14:53:26.609097 11359 net.cpp:399] inception_3a/pool -> inception_3a/pool
I0403 14:53:26.609154 11359 net.cpp:141] Setting up inception_3a/pool
I0403 14:53:26.609177 11359 net.cpp:148] Top shape: 24 192 28 28 (3612672)
I0403 14:53:26.609192 11359 net.cpp:156] Memory required for data: 556352544
I0403 14:53:26.609206 11359 layer_factory.hpp:77] Creating layer inception_3a/pool_proj
I0403 14:53:26.609227 11359 net.cpp:91] Creating Layer inception_3a/pool_proj
I0403 14:53:26.609244 11359 net.cpp:425] inception_3a/pool_proj <- inception_3a/pool
I0403 14:53:26.609266 11359 net.cpp:399] inception_3a/pool_proj -> inception_3a/pool_proj
I0403 14:53:26.610224 11359 net.cpp:141] Setting up inception_3a/pool_proj
I0403 14:53:26.610254 11359 net.cpp:148] Top shape: 24 32 28 28 (602112)
I0403 14:53:26.610270 11359 net.cpp:156] Memory required for data: 558760992
I0403 14:53:26.610292 11359 layer_factory.hpp:77] Creating layer inception_3a/relu_pool_proj
I0403 14:53:26.610313 11359 net.cpp:91] Creating Layer inception_3a/relu_pool_proj
I0403 14:53:26.610337 11359 net.cpp:425] inception_3a/relu_pool_proj <- inception_3a/pool_proj
I0403 14:53:26.610353 11359 net.cpp:386] inception_3a/relu_pool_proj -> inception_3a/pool_proj (in-place)
I0403 14:53:26.610640 11359 net.cpp:141] Setting up inception_3a/relu_pool_proj
I0403 14:53:26.610666 11359 net.cpp:148] Top shape: 24 32 28 28 (602112)
I0403 14:53:26.610682 11359 net.cpp:156] Memory required for data: 561169440
I0403 14:53:26.610697 11359 layer_factory.hpp:77] Creating layer inception_3a/output
I0403 14:53:26.610725 11359 net.cpp:91] Creating Layer inception_3a/output
I0403 14:53:26.610740 11359 net.cpp:425] inception_3a/output <- inception_3a/1x1
I0403 14:53:26.610756 11359 net.cpp:425] inception_3a/output <- inception_3a/3x3
I0403 14:53:26.610772 11359 net.cpp:425] inception_3a/output <- inception_3a/5x5
I0403 14:53:26.610787 11359 net.cpp:425] inception_3a/output <- inception_3a/pool_proj
I0403 14:53:26.610806 11359 net.cpp:399] inception_3a/output -> inception_3a/output
I0403 14:53:26.610852 11359 net.cpp:141] Setting up inception_3a/output
I0403 14:53:26.610874 11359 net.cpp:148] Top shape: 24 256 28 28 (4816896)
I0403 14:53:26.610888 11359 net.cpp:156] Memory required for data: 580437024
I0403 14:53:26.610903 11359 layer_factory.hpp:77] Creating layer inception_3a/output_inception_3a/output_0_split
I0403 14:53:26.610919 11359 net.cpp:91] Creating Layer inception_3a/output_inception_3a/output_0_split
I0403 14:53:26.610934 11359 net.cpp:425] inception_3a/output_inception_3a/output_0_split <- inception_3a/output
I0403 14:53:26.610954 11359 net.cpp:399] inception_3a/output_inception_3a/output_0_split -> inception_3a/output_inception_3a/output_0_split_0
I0403 14:53:26.610973 11359 net.cpp:399] inception_3a/output_inception_3a/output_0_split -> inception_3a/output_inception_3a/output_0_split_1
I0403 14:53:26.610994 11359 net.cpp:399] inception_3a/output_inception_3a/output_0_split -> inception_3a/output_inception_3a/output_0_split_2
I0403 14:53:26.611013 11359 net.cpp:399] inception_3a/output_inception_3a/output_0_split -> inception_3a/output_inception_3a/output_0_split_3
I0403 14:53:26.611089 11359 net.cpp:141] Setting up inception_3a/output_inception_3a/output_0_split
I0403 14:53:26.611111 11359 net.cpp:148] Top shape: 24 256 28 28 (4816896)
I0403 14:53:26.611127 11359 net.cpp:148] Top shape: 24 256 28 28 (4816896)
I0403 14:53:26.611143 11359 net.cpp:148] Top shape: 24 256 28 28 (4816896)
I0403 14:53:26.611157 11359 net.cpp:148] Top shape: 24 256 28 28 (4816896)
I0403 14:53:26.611171 11359 net.cpp:156] Memory required for data: 657507360
I0403 14:53:26.611186 11359 layer_factory.hpp:77] Creating layer inception_3b/1x1
I0403 14:53:26.611207 11359 net.cpp:91] Creating Layer inception_3b/1x1
I0403 14:53:26.611223 11359 net.cpp:425] inception_3b/1x1 <- inception_3a/output_inception_3a/output_0_split_0
I0403 14:53:26.611245 11359 net.cpp:399] inception_3b/1x1 -> inception_3b/1x1
I0403 14:53:26.612370 11359 net.cpp:141] Setting up inception_3b/1x1
I0403 14:53:26.612414 11359 net.cpp:148] Top shape: 24 128 28 28 (2408448)
I0403 14:53:26.612432 11359 net.cpp:156] Memory required for data: 667141152
I0403 14:53:26.612452 11359 layer_factory.hpp:77] Creating layer inception_3b/relu_1x1
I0403 14:53:26.612470 11359 net.cpp:91] Creating Layer inception_3b/relu_1x1
I0403 14:53:26.612485 11359 net.cpp:425] inception_3b/relu_1x1 <- inception_3b/1x1
I0403 14:53:26.612505 11359 net.cpp:386] inception_3b/relu_1x1 -> inception_3b/1x1 (in-place)
I0403 14:53:26.612679 11359 net.cpp:141] Setting up inception_3b/relu_1x1
I0403 14:53:26.612702 11359 net.cpp:148] Top shape: 24 128 28 28 (2408448)
I0403 14:53:26.612717 11359 net.cpp:156] Memory required for data: 676774944
I0403 14:53:26.612732 11359 layer_factory.hpp:77] Creating layer inception_3b/3x3_reduce
I0403 14:53:26.612754 11359 net.cpp:91] Creating Layer inception_3b/3x3_reduce
I0403 14:53:26.612771 11359 net.cpp:425] inception_3b/3x3_reduce <- inception_3a/output_inception_3a/output_0_split_1
I0403 14:53:26.612792 11359 net.cpp:399] inception_3b/3x3_reduce -> inception_3b/3x3_reduce
I0403 14:53:26.613940 11359 net.cpp:141] Setting up inception_3b/3x3_reduce
I0403 14:53:26.613967 11359 net.cpp:148] Top shape: 24 128 28 28 (2408448)
I0403 14:53:26.613982 11359 net.cpp:156] Memory required for data: 686408736
I0403 14:53:26.614001 11359 layer_factory.hpp:77] Creating layer inception_3b/relu_3x3_reduce
I0403 14:53:26.614018 11359 net.cpp:91] Creating Layer inception_3b/relu_3x3_reduce
I0403 14:53:26.614033 11359 net.cpp:425] inception_3b/relu_3x3_reduce <- inception_3b/3x3_reduce
I0403 14:53:26.614051 11359 net.cpp:386] inception_3b/relu_3x3_reduce -> inception_3b/3x3_reduce (in-place)
I0403 14:53:26.614219 11359 net.cpp:141] Setting up inception_3b/relu_3x3_reduce
I0403 14:53:26.614244 11359 net.cpp:148] Top shape: 24 128 28 28 (2408448)
I0403 14:53:26.614259 11359 net.cpp:156] Memory required for data: 696042528
I0403 14:53:26.614274 11359 layer_factory.hpp:77] Creating layer inception_3b/3x3
I0403 14:53:26.614298 11359 net.cpp:91] Creating Layer inception_3b/3x3
I0403 14:53:26.614321 11359 net.cpp:425] inception_3b/3x3 <- inception_3b/3x3_reduce
I0403 14:53:26.614341 11359 net.cpp:399] inception_3b/3x3 -> inception_3b/3x3
I0403 14:53:26.617225 11359 net.cpp:141] Setting up inception_3b/3x3
I0403 14:53:26.617254 11359 net.cpp:148] Top shape: 24 192 28 28 (3612672)
I0403 14:53:26.617270 11359 net.cpp:156] Memory required for data: 710493216
I0403 14:53:26.617290 11359 layer_factory.hpp:77] Creating layer inception_3b/relu_3x3
I0403 14:53:26.617310 11359 net.cpp:91] Creating Layer inception_3b/relu_3x3
I0403 14:53:26.617333 11359 net.cpp:425] inception_3b/relu_3x3 <- inception_3b/3x3
I0403 14:53:26.617352 11359 net.cpp:386] inception_3b/relu_3x3 -> inception_3b/3x3 (in-place)
I0403 14:53:26.617630 11359 net.cpp:141] Setting up inception_3b/relu_3x3
I0403 14:53:26.617657 11359 net.cpp:148] Top shape: 24 192 28 28 (3612672)
I0403 14:53:26.617672 11359 net.cpp:156] Memory required for data: 724943904
I0403 14:53:26.617687 11359 layer_factory.hpp:77] Creating layer inception_3b/5x5_reduce
I0403 14:53:26.617712 11359 net.cpp:91] Creating Layer inception_3b/5x5_reduce
I0403 14:53:26.617729 11359 net.cpp:425] inception_3b/5x5_reduce <- inception_3a/output_inception_3a/output_0_split_2
I0403 14:53:26.617753 11359 net.cpp:399] inception_3b/5x5_reduce -> inception_3b/5x5_reduce
I0403 14:53:26.618757 11359 net.cpp:141] Setting up inception_3b/5x5_reduce
I0403 14:53:26.618787 11359 net.cpp:148] Top shape: 24 32 28 28 (602112)
I0403 14:53:26.618803 11359 net.cpp:156] Memory required for data: 727352352
I0403 14:53:26.618821 11359 layer_factory.hpp:77] Creating layer inception_3b/relu_5x5_reduce
I0403 14:53:26.618841 11359 net.cpp:91] Creating Layer inception_3b/relu_5x5_reduce
I0403 14:53:26.618859 11359 net.cpp:425] inception_3b/relu_5x5_reduce <- inception_3b/5x5_reduce
I0403 14:53:26.618877 11359 net.cpp:386] inception_3b/relu_5x5_reduce -> inception_3b/5x5_reduce (in-place)
I0403 14:53:26.619071 11359 net.cpp:141] Setting up inception_3b/relu_5x5_reduce
I0403 14:53:26.619097 11359 net.cpp:148] Top shape: 24 32 28 28 (602112)
I0403 14:53:26.619112 11359 net.cpp:156] Memory required for data: 729760800
I0403 14:53:26.619127 11359 layer_factory.hpp:77] Creating layer inception_3b/5x5
I0403 14:53:26.619149 11359 net.cpp:91] Creating Layer inception_3b/5x5
I0403 14:53:26.619168 11359 net.cpp:425] inception_3b/5x5 <- inception_3b/5x5_reduce
I0403 14:53:26.619190 11359 net.cpp:399] inception_3b/5x5 -> inception_3b/5x5
I0403 14:53:26.621227 11359 net.cpp:141] Setting up inception_3b/5x5
I0403 14:53:26.621258 11359 net.cpp:148] Top shape: 24 96 28 28 (1806336)
I0403 14:53:26.621273 11359 net.cpp:156] Memory required for data: 736986144
I0403 14:53:26.621294 11359 layer_factory.hpp:77] Creating layer inception_3b/relu_5x5
I0403 14:53:26.621311 11359 net.cpp:91] Creating Layer inception_3b/relu_5x5
I0403 14:53:26.621335 11359 net.cpp:425] inception_3b/relu_5x5 <- inception_3b/5x5
I0403 14:53:26.621357 11359 net.cpp:386] inception_3b/relu_5x5 -> inception_3b/5x5 (in-place)
I0403 14:53:26.621551 11359 net.cpp:141] Setting up inception_3b/relu_5x5
I0403 14:53:26.621578 11359 net.cpp:148] Top shape: 24 96 28 28 (1806336)
I0403 14:53:26.621593 11359 net.cpp:156] Memory required for data: 744211488
I0403 14:53:26.621609 11359 layer_factory.hpp:77] Creating layer inception_3b/pool
I0403 14:53:26.621628 11359 net.cpp:91] Creating Layer inception_3b/pool
I0403 14:53:26.621644 11359 net.cpp:425] inception_3b/pool <- inception_3a/output_inception_3a/output_0_split_3
I0403 14:53:26.621661 11359 net.cpp:399] inception_3b/pool -> inception_3b/pool
I0403 14:53:26.621718 11359 net.cpp:141] Setting up inception_3b/pool
I0403 14:53:26.621742 11359 net.cpp:148] Top shape: 24 256 28 28 (4816896)
I0403 14:53:26.621757 11359 net.cpp:156] Memory required for data: 763479072
I0403 14:53:26.621770 11359 layer_factory.hpp:77] Creating layer inception_3b/pool_proj
I0403 14:53:26.621793 11359 net.cpp:91] Creating Layer inception_3b/pool_proj
I0403 14:53:26.621811 11359 net.cpp:425] inception_3b/pool_proj <- inception_3b/pool
I0403 14:53:26.621832 11359 net.cpp:399] inception_3b/pool_proj -> inception_3b/pool_proj
I0403 14:53:26.622915 11359 net.cpp:141] Setting up inception_3b/pool_proj
I0403 14:53:26.622947 11359 net.cpp:148] Top shape: 24 64 28 28 (1204224)
I0403 14:53:26.622963 11359 net.cpp:156] Memory required for data: 768295968
I0403 14:53:26.622983 11359 layer_factory.hpp:77] Creating layer inception_3b/relu_pool_proj
I0403 14:53:26.623003 11359 net.cpp:91] Creating Layer inception_3b/relu_pool_proj
I0403 14:53:26.623020 11359 net.cpp:425] inception_3b/relu_pool_proj <- inception_3b/pool_proj
I0403 14:53:26.623039 11359 net.cpp:386] inception_3b/relu_pool_proj -> inception_3b/pool_proj (in-place)
I0403 14:53:26.623450 11359 net.cpp:141] Setting up inception_3b/relu_pool_proj
I0403 14:53:26.623477 11359 net.cpp:148] Top shape: 24 64 28 28 (1204224)
I0403 14:53:26.623493 11359 net.cpp:156] Memory required for data: 773112864
I0403 14:53:26.623509 11359 layer_factory.hpp:77] Creating layer inception_3b/output
I0403 14:53:26.623529 11359 net.cpp:91] Creating Layer inception_3b/output
I0403 14:53:26.623546 11359 net.cpp:425] inception_3b/output <- inception_3b/1x1
I0403 14:53:26.623564 11359 net.cpp:425] inception_3b/output <- inception_3b/3x3
I0403 14:53:26.623579 11359 net.cpp:425] inception_3b/output <- inception_3b/5x5
I0403 14:53:26.623595 11359 net.cpp:425] inception_3b/output <- inception_3b/pool_proj
I0403 14:53:26.623613 11359 net.cpp:399] inception_3b/output -> inception_3b/output
I0403 14:53:26.623659 11359 net.cpp:141] Setting up inception_3b/output
I0403 14:53:26.623682 11359 net.cpp:148] Top shape: 24 480 28 28 (9031680)
I0403 14:53:26.623697 11359 net.cpp:156] Memory required for data: 809239584
I0403 14:53:26.623711 11359 layer_factory.hpp:77] Creating layer pool3/3x3_s2
I0403 14:53:26.623728 11359 net.cpp:91] Creating Layer pool3/3x3_s2
I0403 14:53:26.623744 11359 net.cpp:425] pool3/3x3_s2 <- inception_3b/output
I0403 14:53:26.623780 11359 net.cpp:399] pool3/3x3_s2 -> pool3/3x3_s2
I0403 14:53:26.623841 11359 net.cpp:141] Setting up pool3/3x3_s2
I0403 14:53:26.623864 11359 net.cpp:148] Top shape: 24 480 14 14 (2257920)
I0403 14:53:26.623879 11359 net.cpp:156] Memory required for data: 818271264
I0403 14:53:26.623894 11359 layer_factory.hpp:77] Creating layer pool3/3x3_s2_pool3/3x3_s2_0_split
I0403 14:53:26.623914 11359 net.cpp:91] Creating Layer pool3/3x3_s2_pool3/3x3_s2_0_split
I0403 14:53:26.623930 11359 net.cpp:425] pool3/3x3_s2_pool3/3x3_s2_0_split <- pool3/3x3_s2
I0403 14:53:26.623950 11359 net.cpp:399] pool3/3x3_s2_pool3/3x3_s2_0_split -> pool3/3x3_s2_pool3/3x3_s2_0_split_0
I0403 14:53:26.623970 11359 net.cpp:399] pool3/3x3_s2_pool3/3x3_s2_0_split -> pool3/3x3_s2_pool3/3x3_s2_0_split_1
I0403 14:53:26.623989 11359 net.cpp:399] pool3/3x3_s2_pool3/3x3_s2_0_split -> pool3/3x3_s2_pool3/3x3_s2_0_split_2
I0403 14:53:26.624008 11359 net.cpp:399] pool3/3x3_s2_pool3/3x3_s2_0_split -> pool3/3x3_s2_pool3/3x3_s2_0_split_3
I0403 14:53:26.624083 11359 net.cpp:141] Setting up pool3/3x3_s2_pool3/3x3_s2_0_split
I0403 14:53:26.624105 11359 net.cpp:148] Top shape: 24 480 14 14 (2257920)
I0403 14:53:26.624125 11359 net.cpp:148] Top shape: 24 480 14 14 (2257920)
I0403 14:53:26.624141 11359 net.cpp:148] Top shape: 24 480 14 14 (2257920)
I0403 14:53:26.624156 11359 net.cpp:148] Top shape: 24 480 14 14 (2257920)
I0403 14:53:26.624171 11359 net.cpp:156] Memory required for data: 854397984
I0403 14:53:26.624184 11359 layer_factory.hpp:77] Creating layer inception_4a/1x1
I0403 14:53:26.624205 11359 net.cpp:91] Creating Layer inception_4a/1x1
I0403 14:53:26.624223 11359 net.cpp:425] inception_4a/1x1 <- pool3/3x3_s2_pool3/3x3_s2_0_split_0
I0403 14:53:26.624245 11359 net.cpp:399] inception_4a/1x1 -> inception_4a/1x1
I0403 14:53:26.625877 11359 net.cpp:141] Setting up inception_4a/1x1
I0403 14:53:26.625910 11359 net.cpp:148] Top shape: 24 192 14 14 (903168)
I0403 14:53:26.625928 11359 net.cpp:156] Memory required for data: 858010656
I0403 14:53:26.625947 11359 layer_factory.hpp:77] Creating layer inception_4a/relu_1x1
I0403 14:53:26.625965 11359 net.cpp:91] Creating Layer inception_4a/relu_1x1
I0403 14:53:26.625982 11359 net.cpp:425] inception_4a/relu_1x1 <- inception_4a/1x1
I0403 14:53:26.626000 11359 net.cpp:386] inception_4a/relu_1x1 -> inception_4a/1x1 (in-place)
I0403 14:53:26.626183 11359 net.cpp:141] Setting up inception_4a/relu_1x1
I0403 14:53:26.626209 11359 net.cpp:148] Top shape: 24 192 14 14 (903168)
I0403 14:53:26.626224 11359 net.cpp:156] Memory required for data: 861623328
I0403 14:53:26.626238 11359 layer_factory.hpp:77] Creating layer inception_4a/3x3_reduce
I0403 14:53:26.626265 11359 net.cpp:91] Creating Layer inception_4a/3x3_reduce
I0403 14:53:26.626282 11359 net.cpp:425] inception_4a/3x3_reduce <- pool3/3x3_s2_pool3/3x3_s2_0_split_1
I0403 14:53:26.626304 11359 net.cpp:399] inception_4a/3x3_reduce -> inception_4a/3x3_reduce
I0403 14:53:26.627636 11359 net.cpp:141] Setting up inception_4a/3x3_reduce
I0403 14:53:26.627667 11359 net.cpp:148] Top shape: 24 96 14 14 (451584)
I0403 14:53:26.627683 11359 net.cpp:156] Memory required for data: 863429664
I0403 14:53:26.627709 11359 layer_factory.hpp:77] Creating layer inception_4a/relu_3x3_reduce
I0403 14:53:26.627729 11359 net.cpp:91] Creating Layer inception_4a/relu_3x3_reduce
I0403 14:53:26.627745 11359 net.cpp:425] inception_4a/relu_3x3_reduce <- inception_4a/3x3_reduce
I0403 14:53:26.627763 11359 net.cpp:386] inception_4a/relu_3x3_reduce -> inception_4a/3x3_reduce (in-place)
I0403 14:53:26.627941 11359 net.cpp:141] Setting up inception_4a/relu_3x3_reduce
I0403 14:53:26.627969 11359 net.cpp:148] Top shape: 24 96 14 14 (451584)
I0403 14:53:26.627985 11359 net.cpp:156] Memory required for data: 865236000
I0403 14:53:26.628000 11359 layer_factory.hpp:77] Creating layer inception_4a/3x3
I0403 14:53:26.628021 11359 net.cpp:91] Creating Layer inception_4a/3x3
I0403 14:53:26.628038 11359 net.cpp:425] inception_4a/3x3 <- inception_4a/3x3_reduce
I0403 14:53:26.628057 11359 net.cpp:399] inception_4a/3x3 -> inception_4a/3x3
I0403 14:53:26.630817 11359 net.cpp:141] Setting up inception_4a/3x3
I0403 14:53:26.630847 11359 net.cpp:148] Top shape: 24 208 14 14 (978432)
I0403 14:53:26.630866 11359 net.cpp:156] Memory required for data: 869149728
I0403 14:53:26.630884 11359 layer_factory.hpp:77] Creating layer inception_4a/relu_3x3
I0403 14:53:26.630903 11359 net.cpp:91] Creating Layer inception_4a/relu_3x3
I0403 14:53:26.630919 11359 net.cpp:425] inception_4a/relu_3x3 <- inception_4a/3x3
I0403 14:53:26.630939 11359 net.cpp:386] inception_4a/relu_3x3 -> inception_4a/3x3 (in-place)
I0403 14:53:26.631228 11359 net.cpp:141] Setting up inception_4a/relu_3x3
I0403 14:53:26.631256 11359 net.cpp:148] Top shape: 24 208 14 14 (978432)
I0403 14:53:26.631273 11359 net.cpp:156] Memory required for data: 873063456
I0403 14:53:26.631289 11359 layer_factory.hpp:77] Creating layer inception_4a/5x5_reduce
I0403 14:53:26.631312 11359 net.cpp:91] Creating Layer inception_4a/5x5_reduce
I0403 14:53:26.631340 11359 net.cpp:425] inception_4a/5x5_reduce <- pool3/3x3_s2_pool3/3x3_s2_0_split_2
I0403 14:53:26.631364 11359 net.cpp:399] inception_4a/5x5_reduce -> inception_4a/5x5_reduce
I0403 14:53:26.632419 11359 net.cpp:141] Setting up inception_4a/5x5_reduce
I0403 14:53:26.632449 11359 net.cpp:148] Top shape: 24 16 14 14 (75264)
I0403 14:53:26.632467 11359 net.cpp:156] Memory required for data: 873364512
I0403 14:53:26.632486 11359 layer_factory.hpp:77] Creating layer inception_4a/relu_5x5_reduce
I0403 14:53:26.632504 11359 net.cpp:91] Creating Layer inception_4a/relu_5x5_reduce
I0403 14:53:26.632521 11359 net.cpp:425] inception_4a/relu_5x5_reduce <- inception_4a/5x5_reduce
I0403 14:53:26.632542 11359 net.cpp:386] inception_4a/relu_5x5_reduce -> inception_4a/5x5_reduce (in-place)
I0403 14:53:26.632728 11359 net.cpp:141] Setting up inception_4a/relu_5x5_reduce
I0403 14:53:26.632755 11359 net.cpp:148] Top shape: 24 16 14 14 (75264)
I0403 14:53:26.632771 11359 net.cpp:156] Memory required for data: 873665568
I0403 14:53:26.632786 11359 layer_factory.hpp:77] Creating layer inception_4a/5x5
I0403 14:53:26.632808 11359 net.cpp:91] Creating Layer inception_4a/5x5
I0403 14:53:26.632828 11359 net.cpp:425] inception_4a/5x5 <- inception_4a/5x5_reduce
I0403 14:53:26.632850 11359 net.cpp:399] inception_4a/5x5 -> inception_4a/5x5
I0403 14:53:26.633960 11359 net.cpp:141] Setting up inception_4a/5x5
I0403 14:53:26.633991 11359 net.cpp:148] Top shape: 24 48 14 14 (225792)
I0403 14:53:26.634007 11359 net.cpp:156] Memory required for data: 874568736
I0403 14:53:26.634027 11359 layer_factory.hpp:77] Creating layer inception_4a/relu_5x5
I0403 14:53:26.634048 11359 net.cpp:91] Creating Layer inception_4a/relu_5x5
I0403 14:53:26.634066 11359 net.cpp:425] inception_4a/relu_5x5 <- inception_4a/5x5
I0403 14:53:26.634085 11359 net.cpp:386] inception_4a/relu_5x5 -> inception_4a/5x5 (in-place)
I0403 14:53:26.634268 11359 net.cpp:141] Setting up inception_4a/relu_5x5
I0403 14:53:26.634297 11359 net.cpp:148] Top shape: 24 48 14 14 (225792)
I0403 14:53:26.634315 11359 net.cpp:156] Memory required for data: 875471904
I0403 14:53:26.634337 11359 layer_factory.hpp:77] Creating layer inception_4a/pool
I0403 14:53:26.634356 11359 net.cpp:91] Creating Layer inception_4a/pool
I0403 14:53:26.634373 11359 net.cpp:425] inception_4a/pool <- pool3/3x3_s2_pool3/3x3_s2_0_split_3
I0403 14:53:26.634395 11359 net.cpp:399] inception_4a/pool -> inception_4a/pool
I0403 14:53:26.634459 11359 net.cpp:141] Setting up inception_4a/pool
I0403 14:53:26.634485 11359 net.cpp:148] Top shape: 24 480 14 14 (2257920)
I0403 14:53:26.634501 11359 net.cpp:156] Memory required for data: 884503584
I0403 14:53:26.634516 11359 layer_factory.hpp:77] Creating layer inception_4a/pool_proj
I0403 14:53:26.634539 11359 net.cpp:91] Creating Layer inception_4a/pool_proj
I0403 14:53:26.634557 11359 net.cpp:425] inception_4a/pool_proj <- inception_4a/pool
I0403 14:53:26.634577 11359 net.cpp:399] inception_4a/pool_proj -> inception_4a/pool_proj
I0403 14:53:26.635774 11359 net.cpp:141] Setting up inception_4a/pool_proj
I0403 14:53:26.635805 11359 net.cpp:148] Top shape: 24 64 14 14 (301056)
I0403 14:53:26.635838 11359 net.cpp:156] Memory required for data: 885707808
I0403 14:53:26.635860 11359 layer_factory.hpp:77] Creating layer inception_4a/relu_pool_proj
I0403 14:53:26.635882 11359 net.cpp:91] Creating Layer inception_4a/relu_pool_proj
I0403 14:53:26.635900 11359 net.cpp:425] inception_4a/relu_pool_proj <- inception_4a/pool_proj
I0403 14:53:26.635917 11359 net.cpp:386] inception_4a/relu_pool_proj -> inception_4a/pool_proj (in-place)
I0403 14:53:26.636211 11359 net.cpp:141] Setting up inception_4a/relu_pool_proj
I0403 14:53:26.636239 11359 net.cpp:148] Top shape: 24 64 14 14 (301056)
I0403 14:53:26.636255 11359 net.cpp:156] Memory required for data: 886912032
I0403 14:53:26.636270 11359 layer_factory.hpp:77] Creating layer inception_4a/output
I0403 14:53:26.636291 11359 net.cpp:91] Creating Layer inception_4a/output
I0403 14:53:26.636307 11359 net.cpp:425] inception_4a/output <- inception_4a/1x1
I0403 14:53:26.636332 11359 net.cpp:425] inception_4a/output <- inception_4a/3x3
I0403 14:53:26.636349 11359 net.cpp:425] inception_4a/output <- inception_4a/5x5
I0403 14:53:26.636366 11359 net.cpp:425] inception_4a/output <- inception_4a/pool_proj
I0403 14:53:26.636384 11359 net.cpp:399] inception_4a/output -> inception_4a/output
I0403 14:53:26.636430 11359 net.cpp:141] Setting up inception_4a/output
I0403 14:53:26.636454 11359 net.cpp:148] Top shape: 24 512 14 14 (2408448)
I0403 14:53:26.636469 11359 net.cpp:156] Memory required for data: 896545824
I0403 14:53:26.636484 11359 layer_factory.hpp:77] Creating layer inception_4a/output_inception_4a/output_0_split
I0403 14:53:26.636502 11359 net.cpp:91] Creating Layer inception_4a/output_inception_4a/output_0_split
I0403 14:53:26.636518 11359 net.cpp:425] inception_4a/output_inception_4a/output_0_split <- inception_4a/output
I0403 14:53:26.636538 11359 net.cpp:399] inception_4a/output_inception_4a/output_0_split -> inception_4a/output_inception_4a/output_0_split_0
I0403 14:53:26.636560 11359 net.cpp:399] inception_4a/output_inception_4a/output_0_split -> inception_4a/output_inception_4a/output_0_split_1
I0403 14:53:26.636581 11359 net.cpp:399] inception_4a/output_inception_4a/output_0_split -> inception_4a/output_inception_4a/output_0_split_2
I0403 14:53:26.636605 11359 net.cpp:399] inception_4a/output_inception_4a/output_0_split -> inception_4a/output_inception_4a/output_0_split_3
I0403 14:53:26.636626 11359 net.cpp:399] inception_4a/output_inception_4a/output_0_split -> inception_4a/output_inception_4a/output_0_split_4
I0403 14:53:26.636715 11359 net.cpp:141] Setting up inception_4a/output_inception_4a/output_0_split
I0403 14:53:26.636739 11359 net.cpp:148] Top shape: 24 512 14 14 (2408448)
I0403 14:53:26.636755 11359 net.cpp:148] Top shape: 24 512 14 14 (2408448)
I0403 14:53:26.636771 11359 net.cpp:148] Top shape: 24 512 14 14 (2408448)
I0403 14:53:26.636787 11359 net.cpp:148] Top shape: 24 512 14 14 (2408448)
I0403 14:53:26.636802 11359 net.cpp:148] Top shape: 24 512 14 14 (2408448)
I0403 14:53:26.636816 11359 net.cpp:156] Memory required for data: 944714784
I0403 14:53:26.636834 11359 layer_factory.hpp:77] Creating layer loss1/ave_pool
I0403 14:53:26.636852 11359 net.cpp:91] Creating Layer loss1/ave_pool
I0403 14:53:26.636868 11359 net.cpp:425] loss1/ave_pool <- inception_4a/output_inception_4a/output_0_split_0
I0403 14:53:26.636889 11359 net.cpp:399] loss1/ave_pool -> loss1/ave_pool
I0403 14:53:26.637104 11359 net.cpp:141] Setting up loss1/ave_pool
I0403 14:53:26.637132 11359 net.cpp:148] Top shape: 24 512 4 4 (196608)
I0403 14:53:26.637148 11359 net.cpp:156] Memory required for data: 945501216
I0403 14:53:26.637163 11359 layer_factory.hpp:77] Creating layer loss1/conv
I0403 14:53:26.637186 11359 net.cpp:91] Creating Layer loss1/conv
I0403 14:53:26.637204 11359 net.cpp:425] loss1/conv <- loss1/ave_pool
I0403 14:53:26.637223 11359 net.cpp:399] loss1/conv -> loss1/conv
I0403 14:53:26.638782 11359 net.cpp:141] Setting up loss1/conv
I0403 14:53:26.638813 11359 net.cpp:148] Top shape: 24 128 4 4 (49152)
I0403 14:53:26.638842 11359 net.cpp:156] Memory required for data: 945697824
I0403 14:53:26.638864 11359 layer_factory.hpp:77] Creating layer loss1/relu_conv
I0403 14:53:26.638882 11359 net.cpp:91] Creating Layer loss1/relu_conv
I0403 14:53:26.638898 11359 net.cpp:425] loss1/relu_conv <- loss1/conv
I0403 14:53:26.638918 11359 net.cpp:386] loss1/relu_conv -> loss1/conv (in-place)
I0403 14:53:26.639209 11359 net.cpp:141] Setting up loss1/relu_conv
I0403 14:53:26.639235 11359 net.cpp:148] Top shape: 24 128 4 4 (49152)
I0403 14:53:26.639250 11359 net.cpp:156] Memory required for data: 945894432
I0403 14:53:26.639266 11359 layer_factory.hpp:77] Creating layer loss1/fc
I0403 14:53:26.639291 11359 net.cpp:91] Creating Layer loss1/fc
I0403 14:53:26.639308 11359 net.cpp:425] loss1/fc <- loss1/conv
I0403 14:53:26.639336 11359 net.cpp:399] loss1/fc -> loss1/fc
I0403 14:53:26.657603 11359 net.cpp:141] Setting up loss1/fc
I0403 14:53:26.657656 11359 net.cpp:148] Top shape: 24 1024 (24576)
I0403 14:53:26.657672 11359 net.cpp:156] Memory required for data: 945992736
I0403 14:53:26.657692 11359 layer_factory.hpp:77] Creating layer loss1/relu_fc
I0403 14:53:26.657711 11359 net.cpp:91] Creating Layer loss1/relu_fc
I0403 14:53:26.657727 11359 net.cpp:425] loss1/relu_fc <- loss1/fc
I0403 14:53:26.657744 11359 net.cpp:386] loss1/relu_fc -> loss1/fc (in-place)
I0403 14:53:26.657958 11359 net.cpp:141] Setting up loss1/relu_fc
I0403 14:53:26.657982 11359 net.cpp:148] Top shape: 24 1024 (24576)
I0403 14:53:26.657996 11359 net.cpp:156] Memory required for data: 946091040
I0403 14:53:26.658012 11359 layer_factory.hpp:77] Creating layer loss1/drop_fc
I0403 14:53:26.658040 11359 net.cpp:91] Creating Layer loss1/drop_fc
I0403 14:53:26.658057 11359 net.cpp:425] loss1/drop_fc <- loss1/fc
I0403 14:53:26.658077 11359 net.cpp:386] loss1/drop_fc -> loss1/fc (in-place)
I0403 14:53:26.658128 11359 net.cpp:141] Setting up loss1/drop_fc
I0403 14:53:26.658150 11359 net.cpp:148] Top shape: 24 1024 (24576)
I0403 14:53:26.658165 11359 net.cpp:156] Memory required for data: 946189344
I0403 14:53:26.658180 11359 layer_factory.hpp:77] Creating layer loss1/classifier_plantvillage
I0403 14:53:26.658202 11359 net.cpp:91] Creating Layer loss1/classifier_plantvillage
I0403 14:53:26.658220 11359 net.cpp:425] loss1/classifier_plantvillage <- loss1/fc
I0403 14:53:26.658236 11359 net.cpp:399] loss1/classifier_plantvillage -> loss1/classifier_plantvillage
I0403 14:53:26.659157 11359 net.cpp:141] Setting up loss1/classifier_plantvillage
I0403 14:53:26.659188 11359 net.cpp:148] Top shape: 24 38 (912)
I0403 14:53:26.659204 11359 net.cpp:156] Memory required for data: 946192992
I0403 14:53:26.659222 11359 layer_factory.hpp:77] Creating layer loss1/classifier_plantvillage_loss1/classifier_plantvillage_0_split
I0403 14:53:26.659241 11359 net.cpp:91] Creating Layer loss1/classifier_plantvillage_loss1/classifier_plantvillage_0_split
I0403 14:53:26.659257 11359 net.cpp:425] loss1/classifier_plantvillage_loss1/classifier_plantvillage_0_split <- loss1/classifier_plantvillage
I0403 14:53:26.659273 11359 net.cpp:399] loss1/classifier_plantvillage_loss1/classifier_plantvillage_0_split -> loss1/classifier_plantvillage_loss1/classifier_plantvillage_0_split_0
I0403 14:53:26.659296 11359 net.cpp:399] loss1/classifier_plantvillage_loss1/classifier_plantvillage_0_split -> loss1/classifier_plantvillage_loss1/classifier_plantvillage_0_split_1
I0403 14:53:26.659322 11359 net.cpp:399] loss1/classifier_plantvillage_loss1/classifier_plantvillage_0_split -> loss1/classifier_plantvillage_loss1/classifier_plantvillage_0_split_2
I0403 14:53:26.659389 11359 net.cpp:141] Setting up loss1/classifier_plantvillage_loss1/classifier_plantvillage_0_split
I0403 14:53:26.659411 11359 net.cpp:148] Top shape: 24 38 (912)
I0403 14:53:26.659427 11359 net.cpp:148] Top shape: 24 38 (912)
I0403 14:53:26.659442 11359 net.cpp:148] Top shape: 24 38 (912)
I0403 14:53:26.659456 11359 net.cpp:156] Memory required for data: 946203936
I0403 14:53:26.659471 11359 layer_factory.hpp:77] Creating layer inception_4b/1x1
I0403 14:53:26.659492 11359 net.cpp:91] Creating Layer inception_4b/1x1
I0403 14:53:26.659528 11359 net.cpp:425] inception_4b/1x1 <- inception_4a/output_inception_4a/output_0_split_1
I0403 14:53:26.659550 11359 net.cpp:399] inception_4b/1x1 -> inception_4b/1x1
I0403 14:53:26.661222 11359 net.cpp:141] Setting up inception_4b/1x1
I0403 14:53:26.661252 11359 net.cpp:148] Top shape: 24 160 14 14 (752640)
I0403 14:53:26.661267 11359 net.cpp:156] Memory required for data: 949214496
I0403 14:53:26.661286 11359 layer_factory.hpp:77] Creating layer inception_4b/relu_1x1
I0403 14:53:26.661305 11359 net.cpp:91] Creating Layer inception_4b/relu_1x1
I0403 14:53:26.661330 11359 net.cpp:425] inception_4b/relu_1x1 <- inception_4b/1x1
I0403 14:53:26.661351 11359 net.cpp:386] inception_4b/relu_1x1 -> inception_4b/1x1 (in-place)
I0403 14:53:26.661535 11359 net.cpp:141] Setting up inception_4b/relu_1x1
I0403 14:53:26.661559 11359 net.cpp:148] Top shape: 24 160 14 14 (752640)
I0403 14:53:26.661573 11359 net.cpp:156] Memory required for data: 952225056
I0403 14:53:26.661587 11359 layer_factory.hpp:77] Creating layer inception_4b/3x3_reduce
I0403 14:53:26.661612 11359 net.cpp:91] Creating Layer inception_4b/3x3_reduce
I0403 14:53:26.661628 11359 net.cpp:425] inception_4b/3x3_reduce <- inception_4a/output_inception_4a/output_0_split_2
I0403 14:53:26.661650 11359 net.cpp:399] inception_4b/3x3_reduce -> inception_4b/3x3_reduce
I0403 14:53:26.663008 11359 net.cpp:141] Setting up inception_4b/3x3_reduce
I0403 14:53:26.663038 11359 net.cpp:148] Top shape: 24 112 14 14 (526848)
I0403 14:53:26.663054 11359 net.cpp:156] Memory required for data: 954332448
I0403 14:53:26.663072 11359 layer_factory.hpp:77] Creating layer inception_4b/relu_3x3_reduce
I0403 14:53:26.663094 11359 net.cpp:91] Creating Layer inception_4b/relu_3x3_reduce
I0403 14:53:26.663110 11359 net.cpp:425] inception_4b/relu_3x3_reduce <- inception_4b/3x3_reduce
I0403 14:53:26.663127 11359 net.cpp:386] inception_4b/relu_3x3_reduce -> inception_4b/3x3_reduce (in-place)
I0403 14:53:26.663414 11359 net.cpp:141] Setting up inception_4b/relu_3x3_reduce
I0403 14:53:26.663439 11359 net.cpp:148] Top shape: 24 112 14 14 (526848)
I0403 14:53:26.663453 11359 net.cpp:156] Memory required for data: 956439840
I0403 14:53:26.663468 11359 layer_factory.hpp:77] Creating layer inception_4b/3x3
I0403 14:53:26.663491 11359 net.cpp:91] Creating Layer inception_4b/3x3
I0403 14:53:26.663508 11359 net.cpp:425] inception_4b/3x3 <- inception_4b/3x3_reduce
I0403 14:53:26.663529 11359 net.cpp:399] inception_4b/3x3 -> inception_4b/3x3
I0403 14:53:26.666541 11359 net.cpp:141] Setting up inception_4b/3x3
I0403 14:53:26.666573 11359 net.cpp:148] Top shape: 24 224 14 14 (1053696)
I0403 14:53:26.666590 11359 net.cpp:156] Memory required for data: 960654624
I0403 14:53:26.666610 11359 layer_factory.hpp:77] Creating layer inception_4b/relu_3x3
I0403 14:53:26.666627 11359 net.cpp:91] Creating Layer inception_4b/relu_3x3
I0403 14:53:26.666645 11359 net.cpp:425] inception_4b/relu_3x3 <- inception_4b/3x3
I0403 14:53:26.666662 11359 net.cpp:386] inception_4b/relu_3x3 -> inception_4b/3x3 (in-place)
I0403 14:53:26.666846 11359 net.cpp:141] Setting up inception_4b/relu_3x3
I0403 14:53:26.666870 11359 net.cpp:148] Top shape: 24 224 14 14 (1053696)
I0403 14:53:26.666884 11359 net.cpp:156] Memory required for data: 964869408
I0403 14:53:26.666899 11359 layer_factory.hpp:77] Creating layer inception_4b/5x5_reduce
I0403 14:53:26.666921 11359 net.cpp:91] Creating Layer inception_4b/5x5_reduce
I0403 14:53:26.666939 11359 net.cpp:425] inception_4b/5x5_reduce <- inception_4a/output_inception_4a/output_0_split_3
I0403 14:53:26.666960 11359 net.cpp:399] inception_4b/5x5_reduce -> inception_4b/5x5_reduce
I0403 14:53:26.668084 11359 net.cpp:141] Setting up inception_4b/5x5_reduce
I0403 14:53:26.668124 11359 net.cpp:148] Top shape: 24 24 14 14 (112896)
I0403 14:53:26.668140 11359 net.cpp:156] Memory required for data: 965320992
I0403 14:53:26.668159 11359 layer_factory.hpp:77] Creating layer inception_4b/relu_5x5_reduce
I0403 14:53:26.668179 11359 net.cpp:91] Creating Layer inception_4b/relu_5x5_reduce
I0403 14:53:26.668210 11359 net.cpp:425] inception_4b/relu_5x5_reduce <- inception_4b/5x5_reduce
I0403 14:53:26.668229 11359 net.cpp:386] inception_4b/relu_5x5_reduce -> inception_4b/5x5_reduce (in-place)
I0403 14:53:26.668426 11359 net.cpp:141] Setting up inception_4b/relu_5x5_reduce
I0403 14:53:26.668452 11359 net.cpp:148] Top shape: 24 24 14 14 (112896)
I0403 14:53:26.668468 11359 net.cpp:156] Memory required for data: 965772576
I0403 14:53:26.668484 11359 layer_factory.hpp:77] Creating layer inception_4b/5x5
I0403 14:53:26.668509 11359 net.cpp:91] Creating Layer inception_4b/5x5
I0403 14:53:26.668529 11359 net.cpp:425] inception_4b/5x5 <- inception_4b/5x5_reduce
I0403 14:53:26.668547 11359 net.cpp:399] inception_4b/5x5 -> inception_4b/5x5
I0403 14:53:26.669858 11359 net.cpp:141] Setting up inception_4b/5x5
I0403 14:53:26.669888 11359 net.cpp:148] Top shape: 24 64 14 14 (301056)
I0403 14:53:26.669903 11359 net.cpp:156] Memory required for data: 966976800
I0403 14:53:26.669924 11359 layer_factory.hpp:77] Creating layer inception_4b/relu_5x5
I0403 14:53:26.669940 11359 net.cpp:91] Creating Layer inception_4b/relu_5x5
I0403 14:53:26.669956 11359 net.cpp:425] inception_4b/relu_5x5 <- inception_4b/5x5
I0403 14:53:26.669976 11359 net.cpp:386] inception_4b/relu_5x5 -> inception_4b/5x5 (in-place)
I0403 14:53:26.670264 11359 net.cpp:141] Setting up inception_4b/relu_5x5
I0403 14:53:26.670291 11359 net.cpp:148] Top shape: 24 64 14 14 (301056)
I0403 14:53:26.670306 11359 net.cpp:156] Memory required for data: 968181024
I0403 14:53:26.670328 11359 layer_factory.hpp:77] Creating layer inception_4b/pool
I0403 14:53:26.670347 11359 net.cpp:91] Creating Layer inception_4b/pool
I0403 14:53:26.670363 11359 net.cpp:425] inception_4b/pool <- inception_4a/output_inception_4a/output_0_split_4
I0403 14:53:26.670387 11359 net.cpp:399] inception_4b/pool -> inception_4b/pool
I0403 14:53:26.670451 11359 net.cpp:141] Setting up inception_4b/pool
I0403 14:53:26.670475 11359 net.cpp:148] Top shape: 24 512 14 14 (2408448)
I0403 14:53:26.670490 11359 net.cpp:156] Memory required for data: 977814816
I0403 14:53:26.670503 11359 layer_factory.hpp:77] Creating layer inception_4b/pool_proj
I0403 14:53:26.670526 11359 net.cpp:91] Creating Layer inception_4b/pool_proj
I0403 14:53:26.670543 11359 net.cpp:425] inception_4b/pool_proj <- inception_4b/pool
I0403 14:53:26.670562 11359 net.cpp:399] inception_4b/pool_proj -> inception_4b/pool_proj
I0403 14:53:26.671793 11359 net.cpp:141] Setting up inception_4b/pool_proj
I0403 14:53:26.671820 11359 net.cpp:148] Top shape: 24 64 14 14 (301056)
I0403 14:53:26.671835 11359 net.cpp:156] Memory required for data: 979019040
I0403 14:53:26.671854 11359 layer_factory.hpp:77] Creating layer inception_4b/relu_pool_proj
I0403 14:53:26.671874 11359 net.cpp:91] Creating Layer inception_4b/relu_pool_proj
I0403 14:53:26.671890 11359 net.cpp:425] inception_4b/relu_pool_proj <- inception_4b/pool_proj
I0403 14:53:26.671907 11359 net.cpp:386] inception_4b/relu_pool_proj -> inception_4b/pool_proj (in-place)
I0403 14:53:26.672089 11359 net.cpp:141] Setting up inception_4b/relu_pool_proj
I0403 14:53:26.672116 11359 net.cpp:148] Top shape: 24 64 14 14 (301056)
I0403 14:53:26.672132 11359 net.cpp:156] Memory required for data: 980223264
I0403 14:53:26.672147 11359 layer_factory.hpp:77] Creating layer inception_4b/output
I0403 14:53:26.672163 11359 net.cpp:91] Creating Layer inception_4b/output
I0403 14:53:26.672178 11359 net.cpp:425] inception_4b/output <- inception_4b/1x1
I0403 14:53:26.672194 11359 net.cpp:425] inception_4b/output <- inception_4b/3x3
I0403 14:53:26.672210 11359 net.cpp:425] inception_4b/output <- inception_4b/5x5
I0403 14:53:26.672225 11359 net.cpp:425] inception_4b/output <- inception_4b/pool_proj
I0403 14:53:26.672241 11359 net.cpp:399] inception_4b/output -> inception_4b/output
I0403 14:53:26.672289 11359 net.cpp:141] Setting up inception_4b/output
I0403 14:53:26.672334 11359 net.cpp:148] Top shape: 24 512 14 14 (2408448)
I0403 14:53:26.672353 11359 net.cpp:156] Memory required for data: 989857056
I0403 14:53:26.672381 11359 layer_factory.hpp:77] Creating layer inception_4b/output_inception_4b/output_0_split
I0403 14:53:26.672400 11359 net.cpp:91] Creating Layer inception_4b/output_inception_4b/output_0_split
I0403 14:53:26.672416 11359 net.cpp:425] inception_4b/output_inception_4b/output_0_split <- inception_4b/output
I0403 14:53:26.672436 11359 net.cpp:399] inception_4b/output_inception_4b/output_0_split -> inception_4b/output_inception_4b/output_0_split_0
I0403 14:53:26.672458 11359 net.cpp:399] inception_4b/output_inception_4b/output_0_split -> inception_4b/output_inception_4b/output_0_split_1
I0403 14:53:26.672478 11359 net.cpp:399] inception_4b/output_inception_4b/output_0_split -> inception_4b/output_inception_4b/output_0_split_2
I0403 14:53:26.672498 11359 net.cpp:399] inception_4b/output_inception_4b/output_0_split -> inception_4b/output_inception_4b/output_0_split_3
I0403 14:53:26.672583 11359 net.cpp:141] Setting up inception_4b/output_inception_4b/output_0_split
I0403 14:53:26.672618 11359 net.cpp:148] Top shape: 24 512 14 14 (2408448)
I0403 14:53:26.672634 11359 net.cpp:148] Top shape: 24 512 14 14 (2408448)
I0403 14:53:26.672648 11359 net.cpp:148] Top shape: 24 512 14 14 (2408448)
I0403 14:53:26.672664 11359 net.cpp:148] Top shape: 24 512 14 14 (2408448)
I0403 14:53:26.672677 11359 net.cpp:156] Memory required for data: 1028392224
I0403 14:53:26.672693 11359 layer_factory.hpp:77] Creating layer inception_4c/1x1
I0403 14:53:26.672713 11359 net.cpp:91] Creating Layer inception_4c/1x1
I0403 14:53:26.672730 11359 net.cpp:425] inception_4c/1x1 <- inception_4b/output_inception_4b/output_0_split_0
I0403 14:53:26.672751 11359 net.cpp:399] inception_4c/1x1 -> inception_4c/1x1
I0403 14:53:26.674208 11359 net.cpp:141] Setting up inception_4c/1x1
I0403 14:53:26.674240 11359 net.cpp:148] Top shape: 24 128 14 14 (602112)
I0403 14:53:26.674258 11359 net.cpp:156] Memory required for data: 1030800672
I0403 14:53:26.674278 11359 layer_factory.hpp:77] Creating layer inception_4c/relu_1x1
I0403 14:53:26.674295 11359 net.cpp:91] Creating Layer inception_4c/relu_1x1
I0403 14:53:26.674312 11359 net.cpp:425] inception_4c/relu_1x1 <- inception_4c/1x1
I0403 14:53:26.674337 11359 net.cpp:386] inception_4c/relu_1x1 -> inception_4c/1x1 (in-place)
I0403 14:53:26.674536 11359 net.cpp:141] Setting up inception_4c/relu_1x1
I0403 14:53:26.674564 11359 net.cpp:148] Top shape: 24 128 14 14 (602112)
I0403 14:53:26.674582 11359 net.cpp:156] Memory required for data: 1033209120
I0403 14:53:26.674597 11359 layer_factory.hpp:77] Creating layer inception_4c/3x3_reduce
I0403 14:53:26.674620 11359 net.cpp:91] Creating Layer inception_4c/3x3_reduce
I0403 14:53:26.674639 11359 net.cpp:425] inception_4c/3x3_reduce <- inception_4b/output_inception_4b/output_0_split_1
I0403 14:53:26.674664 11359 net.cpp:399] inception_4c/3x3_reduce -> inception_4c/3x3_reduce
I0403 14:53:26.676676 11359 net.cpp:141] Setting up inception_4c/3x3_reduce
I0403 14:53:26.676707 11359 net.cpp:148] Top shape: 24 128 14 14 (602112)
I0403 14:53:26.676723 11359 net.cpp:156] Memory required for data: 1035617568
I0403 14:53:26.676743 11359 layer_factory.hpp:77] Creating layer inception_4c/relu_3x3_reduce
I0403 14:53:26.676760 11359 net.cpp:91] Creating Layer inception_4c/relu_3x3_reduce
I0403 14:53:26.676781 11359 net.cpp:425] inception_4c/relu_3x3_reduce <- inception_4c/3x3_reduce
I0403 14:53:26.676800 11359 net.cpp:386] inception_4c/relu_3x3_reduce -> inception_4c/3x3_reduce (in-place)
I0403 14:53:26.677085 11359 net.cpp:141] Setting up inception_4c/relu_3x3_reduce
I0403 14:53:26.677112 11359 net.cpp:148] Top shape: 24 128 14 14 (602112)
I0403 14:53:26.677127 11359 net.cpp:156] Memory required for data: 1038026016
I0403 14:53:26.677142 11359 layer_factory.hpp:77] Creating layer inception_4c/3x3
I0403 14:53:26.677166 11359 net.cpp:91] Creating Layer inception_4c/3x3
I0403 14:53:26.677184 11359 net.cpp:425] inception_4c/3x3 <- inception_4c/3x3_reduce
I0403 14:53:26.677207 11359 net.cpp:399] inception_4c/3x3 -> inception_4c/3x3
I0403 14:53:26.680876 11359 net.cpp:141] Setting up inception_4c/3x3
I0403 14:53:26.680918 11359 net.cpp:148] Top shape: 24 256 14 14 (1204224)
I0403 14:53:26.680938 11359 net.cpp:156] Memory required for data: 1042842912
I0403 14:53:26.680970 11359 layer_factory.hpp:77] Creating layer inception_4c/relu_3x3
I0403 14:53:26.680992 11359 net.cpp:91] Creating Layer inception_4c/relu_3x3
I0403 14:53:26.681010 11359 net.cpp:425] inception_4c/relu_3x3 <- inception_4c/3x3
I0403 14:53:26.681030 11359 net.cpp:386] inception_4c/relu_3x3 -> inception_4c/3x3 (in-place)
I0403 14:53:26.681215 11359 net.cpp:141] Setting up inception_4c/relu_3x3
I0403 14:53:26.681241 11359 net.cpp:148] Top shape: 24 256 14 14 (1204224)
I0403 14:53:26.681255 11359 net.cpp:156] Memory required for data: 1047659808
I0403 14:53:26.681272 11359 layer_factory.hpp:77] Creating layer inception_4c/5x5_reduce
I0403 14:53:26.681294 11359 net.cpp:91] Creating Layer inception_4c/5x5_reduce
I0403 14:53:26.681313 11359 net.cpp:425] inception_4c/5x5_reduce <- inception_4b/output_inception_4b/output_0_split_2
I0403 14:53:26.681340 11359 net.cpp:399] inception_4c/5x5_reduce -> inception_4c/5x5_reduce
I0403 14:53:26.682447 11359 net.cpp:141] Setting up inception_4c/5x5_reduce
I0403 14:53:26.682476 11359 net.cpp:148] Top shape: 24 24 14 14 (112896)
I0403 14:53:26.682490 11359 net.cpp:156] Memory required for data: 1048111392
I0403 14:53:26.682509 11359 layer_factory.hpp:77] Creating layer inception_4c/relu_5x5_reduce
I0403 14:53:26.682529 11359 net.cpp:91] Creating Layer inception_4c/relu_5x5_reduce
I0403 14:53:26.682546 11359 net.cpp:425] inception_4c/relu_5x5_reduce <- inception_4c/5x5_reduce
I0403 14:53:26.682562 11359 net.cpp:386] inception_4c/relu_5x5_reduce -> inception_4c/5x5_reduce (in-place)
I0403 14:53:26.682747 11359 net.cpp:141] Setting up inception_4c/relu_5x5_reduce
I0403 14:53:26.682771 11359 net.cpp:148] Top shape: 24 24 14 14 (112896)
I0403 14:53:26.682786 11359 net.cpp:156] Memory required for data: 1048562976
I0403 14:53:26.682801 11359 layer_factory.hpp:77] Creating layer inception_4c/5x5
I0403 14:53:26.682823 11359 net.cpp:91] Creating Layer inception_4c/5x5
I0403 14:53:26.682840 11359 net.cpp:425] inception_4c/5x5 <- inception_4c/5x5_reduce
I0403 14:53:26.682858 11359 net.cpp:399] inception_4c/5x5 -> inception_4c/5x5
I0403 14:53:26.684134 11359 net.cpp:141] Setting up inception_4c/5x5
I0403 14:53:26.684164 11359 net.cpp:148] Top shape: 24 64 14 14 (301056)
I0403 14:53:26.684183 11359 net.cpp:156] Memory required for data: 1049767200
I0403 14:53:26.684201 11359 layer_factory.hpp:77] Creating layer inception_4c/relu_5x5
I0403 14:53:26.684219 11359 net.cpp:91] Creating Layer inception_4c/relu_5x5
I0403 14:53:26.684236 11359 net.cpp:425] inception_4c/relu_5x5 <- inception_4c/5x5
I0403 14:53:26.684252 11359 net.cpp:386] inception_4c/relu_5x5 -> inception_4c/5x5 (in-place)
I0403 14:53:26.684551 11359 net.cpp:141] Setting up inception_4c/relu_5x5
I0403 14:53:26.684576 11359 net.cpp:148] Top shape: 24 64 14 14 (301056)
I0403 14:53:26.684595 11359 net.cpp:156] Memory required for data: 1050971424
I0403 14:53:26.684609 11359 layer_factory.hpp:77] Creating layer inception_4c/pool
I0403 14:53:26.684628 11359 net.cpp:91] Creating Layer inception_4c/pool
I0403 14:53:26.684643 11359 net.cpp:425] inception_4c/pool <- inception_4b/output_inception_4b/output_0_split_3
I0403 14:53:26.684660 11359 net.cpp:399] inception_4c/pool -> inception_4c/pool
I0403 14:53:26.684727 11359 net.cpp:141] Setting up inception_4c/pool
I0403 14:53:26.684751 11359 net.cpp:148] Top shape: 24 512 14 14 (2408448)
I0403 14:53:26.684764 11359 net.cpp:156] Memory required for data: 1060605216
I0403 14:53:26.684778 11359 layer_factory.hpp:77] Creating layer inception_4c/pool_proj
I0403 14:53:26.684803 11359 net.cpp:91] Creating Layer inception_4c/pool_proj
I0403 14:53:26.684819 11359 net.cpp:425] inception_4c/pool_proj <- inception_4c/pool
I0403 14:53:26.684839 11359 net.cpp:399] inception_4c/pool_proj -> inception_4c/pool_proj
I0403 14:53:26.686059 11359 net.cpp:141] Setting up inception_4c/pool_proj
I0403 14:53:26.686089 11359 net.cpp:148] Top shape: 24 64 14 14 (301056)
I0403 14:53:26.686120 11359 net.cpp:156] Memory required for data: 1061809440
I0403 14:53:26.686139 11359 layer_factory.hpp:77] Creating layer inception_4c/relu_pool_proj
I0403 14:53:26.686158 11359 net.cpp:91] Creating Layer inception_4c/relu_pool_proj
I0403 14:53:26.686175 11359 net.cpp:425] inception_4c/relu_pool_proj <- inception_4c/pool_proj
I0403 14:53:26.686197 11359 net.cpp:386] inception_4c/relu_pool_proj -> inception_4c/pool_proj (in-place)
I0403 14:53:26.686390 11359 net.cpp:141] Setting up inception_4c/relu_pool_proj
I0403 14:53:26.686417 11359 net.cpp:148] Top shape: 24 64 14 14 (301056)
I0403 14:53:26.686431 11359 net.cpp:156] Memory required for data: 1063013664
I0403 14:53:26.686447 11359 layer_factory.hpp:77] Creating layer inception_4c/output
I0403 14:53:26.686467 11359 net.cpp:91] Creating Layer inception_4c/output
I0403 14:53:26.686485 11359 net.cpp:425] inception_4c/output <- inception_4c/1x1
I0403 14:53:26.686501 11359 net.cpp:425] inception_4c/output <- inception_4c/3x3
I0403 14:53:26.686517 11359 net.cpp:425] inception_4c/output <- inception_4c/5x5
I0403 14:53:26.686533 11359 net.cpp:425] inception_4c/output <- inception_4c/pool_proj
I0403 14:53:26.686552 11359 net.cpp:399] inception_4c/output -> inception_4c/output
I0403 14:53:26.686600 11359 net.cpp:141] Setting up inception_4c/output
I0403 14:53:26.686626 11359 net.cpp:148] Top shape: 24 512 14 14 (2408448)
I0403 14:53:26.686640 11359 net.cpp:156] Memory required for data: 1072647456
I0403 14:53:26.686655 11359 layer_factory.hpp:77] Creating layer inception_4c/output_inception_4c/output_0_split
I0403 14:53:26.686672 11359 net.cpp:91] Creating Layer inception_4c/output_inception_4c/output_0_split
I0403 14:53:26.686687 11359 net.cpp:425] inception_4c/output_inception_4c/output_0_split <- inception_4c/output
I0403 14:53:26.686707 11359 net.cpp:399] inception_4c/output_inception_4c/output_0_split -> inception_4c/output_inception_4c/output_0_split_0
I0403 14:53:26.686728 11359 net.cpp:399] inception_4c/output_inception_4c/output_0_split -> inception_4c/output_inception_4c/output_0_split_1
I0403 14:53:26.686746 11359 net.cpp:399] inception_4c/output_inception_4c/output_0_split -> inception_4c/output_inception_4c/output_0_split_2
I0403 14:53:26.686765 11359 net.cpp:399] inception_4c/output_inception_4c/output_0_split -> inception_4c/output_inception_4c/output_0_split_3
I0403 14:53:26.686848 11359 net.cpp:141] Setting up inception_4c/output_inception_4c/output_0_split
I0403 14:53:26.686872 11359 net.cpp:148] Top shape: 24 512 14 14 (2408448)
I0403 14:53:26.686887 11359 net.cpp:148] Top shape: 24 512 14 14 (2408448)
I0403 14:53:26.686902 11359 net.cpp:148] Top shape: 24 512 14 14 (2408448)
I0403 14:53:26.686918 11359 net.cpp:148] Top shape: 24 512 14 14 (2408448)
I0403 14:53:26.686930 11359 net.cpp:156] Memory required for data: 1111182624
I0403 14:53:26.686945 11359 layer_factory.hpp:77] Creating layer inception_4d/1x1
I0403 14:53:26.686967 11359 net.cpp:91] Creating Layer inception_4d/1x1
I0403 14:53:26.686985 11359 net.cpp:425] inception_4d/1x1 <- inception_4c/output_inception_4c/output_0_split_0
I0403 14:53:26.687005 11359 net.cpp:399] inception_4d/1x1 -> inception_4d/1x1
I0403 14:53:26.688451 11359 net.cpp:141] Setting up inception_4d/1x1
I0403 14:53:26.688480 11359 net.cpp:148] Top shape: 24 112 14 14 (526848)
I0403 14:53:26.688496 11359 net.cpp:156] Memory required for data: 1113290016
I0403 14:53:26.688514 11359 layer_factory.hpp:77] Creating layer inception_4d/relu_1x1
I0403 14:53:26.688532 11359 net.cpp:91] Creating Layer inception_4d/relu_1x1
I0403 14:53:26.688550 11359 net.cpp:425] inception_4d/relu_1x1 <- inception_4d/1x1
I0403 14:53:26.688570 11359 net.cpp:386] inception_4d/relu_1x1 -> inception_4d/1x1 (in-place)
I0403 14:53:26.688755 11359 net.cpp:141] Setting up inception_4d/relu_1x1
I0403 14:53:26.688781 11359 net.cpp:148] Top shape: 24 112 14 14 (526848)
I0403 14:53:26.688794 11359 net.cpp:156] Memory required for data: 1115397408
I0403 14:53:26.688809 11359 layer_factory.hpp:77] Creating layer inception_4d/3x3_reduce
I0403 14:53:26.688848 11359 net.cpp:91] Creating Layer inception_4d/3x3_reduce
I0403 14:53:26.688865 11359 net.cpp:425] inception_4d/3x3_reduce <- inception_4c/output_inception_4c/output_0_split_1
I0403 14:53:26.688886 11359 net.cpp:399] inception_4d/3x3_reduce -> inception_4d/3x3_reduce
I0403 14:53:26.690405 11359 net.cpp:141] Setting up inception_4d/3x3_reduce
I0403 14:53:26.690434 11359 net.cpp:148] Top shape: 24 144 14 14 (677376)
I0403 14:53:26.690449 11359 net.cpp:156] Memory required for data: 1118106912
I0403 14:53:26.690469 11359 layer_factory.hpp:77] Creating layer inception_4d/relu_3x3_reduce
I0403 14:53:26.690490 11359 net.cpp:91] Creating Layer inception_4d/relu_3x3_reduce
I0403 14:53:26.690508 11359 net.cpp:425] inception_4d/relu_3x3_reduce <- inception_4d/3x3_reduce
I0403 14:53:26.690526 11359 net.cpp:386] inception_4d/relu_3x3_reduce -> inception_4d/3x3_reduce (in-place)
I0403 14:53:26.690814 11359 net.cpp:141] Setting up inception_4d/relu_3x3_reduce
I0403 14:53:26.690840 11359 net.cpp:148] Top shape: 24 144 14 14 (677376)
I0403 14:53:26.690855 11359 net.cpp:156] Memory required for data: 1120816416
I0403 14:53:26.690871 11359 layer_factory.hpp:77] Creating layer inception_4d/3x3
I0403 14:53:26.690893 11359 net.cpp:91] Creating Layer inception_4d/3x3
I0403 14:53:26.690912 11359 net.cpp:425] inception_4d/3x3 <- inception_4d/3x3_reduce
I0403 14:53:26.690929 11359 net.cpp:399] inception_4d/3x3 -> inception_4d/3x3
I0403 14:53:26.695204 11359 net.cpp:141] Setting up inception_4d/3x3
I0403 14:53:26.695236 11359 net.cpp:148] Top shape: 24 288 14 14 (1354752)
I0403 14:53:26.695255 11359 net.cpp:156] Memory required for data: 1126235424
I0403 14:53:26.695274 11359 layer_factory.hpp:77] Creating layer inception_4d/relu_3x3
I0403 14:53:26.695292 11359 net.cpp:91] Creating Layer inception_4d/relu_3x3
I0403 14:53:26.695309 11359 net.cpp:425] inception_4d/relu_3x3 <- inception_4d/3x3
I0403 14:53:26.695338 11359 net.cpp:386] inception_4d/relu_3x3 -> inception_4d/3x3 (in-place)
I0403 14:53:26.695539 11359 net.cpp:141] Setting up inception_4d/relu_3x3
I0403 14:53:26.695566 11359 net.cpp:148] Top shape: 24 288 14 14 (1354752)
I0403 14:53:26.695582 11359 net.cpp:156] Memory required for data: 1131654432
I0403 14:53:26.695597 11359 layer_factory.hpp:77] Creating layer inception_4d/5x5_reduce
I0403 14:53:26.695621 11359 net.cpp:91] Creating Layer inception_4d/5x5_reduce
I0403 14:53:26.695639 11359 net.cpp:425] inception_4d/5x5_reduce <- inception_4c/output_inception_4c/output_0_split_2
I0403 14:53:26.695662 11359 net.cpp:399] inception_4d/5x5_reduce -> inception_4d/5x5_reduce
I0403 14:53:26.696830 11359 net.cpp:141] Setting up inception_4d/5x5_reduce
I0403 14:53:26.696858 11359 net.cpp:148] Top shape: 24 32 14 14 (150528)
I0403 14:53:26.696874 11359 net.cpp:156] Memory required for data: 1132256544
I0403 14:53:26.696892 11359 layer_factory.hpp:77] Creating layer inception_4d/relu_5x5_reduce
I0403 14:53:26.696910 11359 net.cpp:91] Creating Layer inception_4d/relu_5x5_reduce
I0403 14:53:26.696928 11359 net.cpp:425] inception_4d/relu_5x5_reduce <- inception_4d/5x5_reduce
I0403 14:53:26.696948 11359 net.cpp:386] inception_4d/relu_5x5_reduce -> inception_4d/5x5_reduce (in-place)
I0403 14:53:26.697141 11359 net.cpp:141] Setting up inception_4d/relu_5x5_reduce
I0403 14:53:26.697167 11359 net.cpp:148] Top shape: 24 32 14 14 (150528)
I0403 14:53:26.697182 11359 net.cpp:156] Memory required for data: 1132858656
I0403 14:53:26.697196 11359 layer_factory.hpp:77] Creating layer inception_4d/5x5
I0403 14:53:26.697219 11359 net.cpp:91] Creating Layer inception_4d/5x5
I0403 14:53:26.697237 11359 net.cpp:425] inception_4d/5x5 <- inception_4d/5x5_reduce
I0403 14:53:26.697257 11359 net.cpp:399] inception_4d/5x5 -> inception_4d/5x5
I0403 14:53:26.698745 11359 net.cpp:141] Setting up inception_4d/5x5
I0403 14:53:26.698772 11359 net.cpp:148] Top shape: 24 64 14 14 (301056)
I0403 14:53:26.698788 11359 net.cpp:156] Memory required for data: 1134062880
I0403 14:53:26.698807 11359 layer_factory.hpp:77] Creating layer inception_4d/relu_5x5
I0403 14:53:26.698842 11359 net.cpp:91] Creating Layer inception_4d/relu_5x5
I0403 14:53:26.698859 11359 net.cpp:425] inception_4d/relu_5x5 <- inception_4d/5x5
I0403 14:53:26.698876 11359 net.cpp:386] inception_4d/relu_5x5 -> inception_4d/5x5 (in-place)
I0403 14:53:26.699177 11359 net.cpp:141] Setting up inception_4d/relu_5x5
I0403 14:53:26.699203 11359 net.cpp:148] Top shape: 24 64 14 14 (301056)
I0403 14:53:26.699218 11359 net.cpp:156] Memory required for data: 1135267104
I0403 14:53:26.699232 11359 layer_factory.hpp:77] Creating layer inception_4d/pool
I0403 14:53:26.699251 11359 net.cpp:91] Creating Layer inception_4d/pool
I0403 14:53:26.699270 11359 net.cpp:425] inception_4d/pool <- inception_4c/output_inception_4c/output_0_split_3
I0403 14:53:26.699287 11359 net.cpp:399] inception_4d/pool -> inception_4d/pool
I0403 14:53:26.699360 11359 net.cpp:141] Setting up inception_4d/pool
I0403 14:53:26.699384 11359 net.cpp:148] Top shape: 24 512 14 14 (2408448)
I0403 14:53:26.699398 11359 net.cpp:156] Memory required for data: 1144900896
I0403 14:53:26.699412 11359 layer_factory.hpp:77] Creating layer inception_4d/pool_proj
I0403 14:53:26.699447 11359 net.cpp:91] Creating Layer inception_4d/pool_proj
I0403 14:53:26.699465 11359 net.cpp:425] inception_4d/pool_proj <- inception_4d/pool
I0403 14:53:26.699486 11359 net.cpp:399] inception_4d/pool_proj -> inception_4d/pool_proj
I0403 14:53:26.701253 11359 net.cpp:141] Setting up inception_4d/pool_proj
I0403 14:53:26.701285 11359 net.cpp:148] Top shape: 24 64 14 14 (301056)
I0403 14:53:26.701303 11359 net.cpp:156] Memory required for data: 1146105120
I0403 14:53:26.701328 11359 layer_factory.hpp:77] Creating layer inception_4d/relu_pool_proj
I0403 14:53:26.701347 11359 net.cpp:91] Creating Layer inception_4d/relu_pool_proj
I0403 14:53:26.701364 11359 net.cpp:425] inception_4d/relu_pool_proj <- inception_4d/pool_proj
I0403 14:53:26.701383 11359 net.cpp:386] inception_4d/relu_pool_proj -> inception_4d/pool_proj (in-place)
I0403 14:53:26.701586 11359 net.cpp:141] Setting up inception_4d/relu_pool_proj
I0403 14:53:26.701611 11359 net.cpp:148] Top shape: 24 64 14 14 (301056)
I0403 14:53:26.701633 11359 net.cpp:156] Memory required for data: 1147309344
I0403 14:53:26.701648 11359 layer_factory.hpp:77] Creating layer inception_4d/output
I0403 14:53:26.701665 11359 net.cpp:91] Creating Layer inception_4d/output
I0403 14:53:26.701681 11359 net.cpp:425] inception_4d/output <- inception_4d/1x1
I0403 14:53:26.701699 11359 net.cpp:425] inception_4d/output <- inception_4d/3x3
I0403 14:53:26.701726 11359 net.cpp:425] inception_4d/output <- inception_4d/5x5
I0403 14:53:26.701741 11359 net.cpp:425] inception_4d/output <- inception_4d/pool_proj
I0403 14:53:26.701761 11359 net.cpp:399] inception_4d/output -> inception_4d/output
I0403 14:53:26.701812 11359 net.cpp:141] Setting up inception_4d/output
I0403 14:53:26.701833 11359 net.cpp:148] Top shape: 24 528 14 14 (2483712)
I0403 14:53:26.701848 11359 net.cpp:156] Memory required for data: 1157244192
I0403 14:53:26.701863 11359 layer_factory.hpp:77] Creating layer inception_4d/output_inception_4d/output_0_split
I0403 14:53:26.701879 11359 net.cpp:91] Creating Layer inception_4d/output_inception_4d/output_0_split
I0403 14:53:26.701895 11359 net.cpp:425] inception_4d/output_inception_4d/output_0_split <- inception_4d/output
I0403 14:53:26.701915 11359 net.cpp:399] inception_4d/output_inception_4d/output_0_split -> inception_4d/output_inception_4d/output_0_split_0
I0403 14:53:26.701937 11359 net.cpp:399] inception_4d/output_inception_4d/output_0_split -> inception_4d/output_inception_4d/output_0_split_1
I0403 14:53:26.701957 11359 net.cpp:399] inception_4d/output_inception_4d/output_0_split -> inception_4d/output_inception_4d/output_0_split_2
I0403 14:53:26.701977 11359 net.cpp:399] inception_4d/output_inception_4d/output_0_split -> inception_4d/output_inception_4d/output_0_split_3
I0403 14:53:26.702003 11359 net.cpp:399] inception_4d/output_inception_4d/output_0_split -> inception_4d/output_inception_4d/output_0_split_4
I0403 14:53:26.702103 11359 net.cpp:141] Setting up inception_4d/output_inception_4d/output_0_split
I0403 14:53:26.702142 11359 net.cpp:148] Top shape: 24 528 14 14 (2483712)
I0403 14:53:26.702158 11359 net.cpp:148] Top shape: 24 528 14 14 (2483712)
I0403 14:53:26.702174 11359 net.cpp:148] Top shape: 24 528 14 14 (2483712)
I0403 14:53:26.702189 11359 net.cpp:148] Top shape: 24 528 14 14 (2483712)
I0403 14:53:26.702204 11359 net.cpp:148] Top shape: 24 528 14 14 (2483712)
I0403 14:53:26.702217 11359 net.cpp:156] Memory required for data: 1206918432
I0403 14:53:26.702232 11359 layer_factory.hpp:77] Creating layer loss2/ave_pool
I0403 14:53:26.702250 11359 net.cpp:91] Creating Layer loss2/ave_pool
I0403 14:53:26.702265 11359 net.cpp:425] loss2/ave_pool <- inception_4d/output_inception_4d/output_0_split_0
I0403 14:53:26.702285 11359 net.cpp:399] loss2/ave_pool -> loss2/ave_pool
I0403 14:53:26.702610 11359 net.cpp:141] Setting up loss2/ave_pool
I0403 14:53:26.702638 11359 net.cpp:148] Top shape: 24 528 4 4 (202752)
I0403 14:53:26.702654 11359 net.cpp:156] Memory required for data: 1207729440
I0403 14:53:26.702669 11359 layer_factory.hpp:77] Creating layer loss2/conv
I0403 14:53:26.702692 11359 net.cpp:91] Creating Layer loss2/conv
I0403 14:53:26.702708 11359 net.cpp:425] loss2/conv <- loss2/ave_pool
I0403 14:53:26.702728 11359 net.cpp:399] loss2/conv -> loss2/conv
I0403 14:53:26.704690 11359 net.cpp:141] Setting up loss2/conv
I0403 14:53:26.704720 11359 net.cpp:148] Top shape: 24 128 4 4 (49152)
I0403 14:53:26.704736 11359 net.cpp:156] Memory required for data: 1207926048
I0403 14:53:26.704756 11359 layer_factory.hpp:77] Creating layer loss2/relu_conv
I0403 14:53:26.704776 11359 net.cpp:91] Creating Layer loss2/relu_conv
I0403 14:53:26.704793 11359 net.cpp:425] loss2/relu_conv <- loss2/conv
I0403 14:53:26.704810 11359 net.cpp:386] loss2/relu_conv -> loss2/conv (in-place)
I0403 14:53:26.705104 11359 net.cpp:141] Setting up loss2/relu_conv
I0403 14:53:26.705130 11359 net.cpp:148] Top shape: 24 128 4 4 (49152)
I0403 14:53:26.705147 11359 net.cpp:156] Memory required for data: 1208122656
I0403 14:53:26.705162 11359 layer_factory.hpp:77] Creating layer loss2/fc
I0403 14:53:26.705183 11359 net.cpp:91] Creating Layer loss2/fc
I0403 14:53:26.705200 11359 net.cpp:425] loss2/fc <- loss2/conv
I0403 14:53:26.705221 11359 net.cpp:399] loss2/fc -> loss2/fc
I0403 14:53:26.723770 11359 net.cpp:141] Setting up loss2/fc
I0403 14:53:26.723832 11359 net.cpp:148] Top shape: 24 1024 (24576)
I0403 14:53:26.723848 11359 net.cpp:156] Memory required for data: 1208220960
I0403 14:53:26.723870 11359 layer_factory.hpp:77] Creating layer loss2/relu_fc
I0403 14:53:26.723891 11359 net.cpp:91] Creating Layer loss2/relu_fc
I0403 14:53:26.723909 11359 net.cpp:425] loss2/relu_fc <- loss2/fc
I0403 14:53:26.723930 11359 net.cpp:386] loss2/relu_fc -> loss2/fc (in-place)
I0403 14:53:26.724284 11359 net.cpp:141] Setting up loss2/relu_fc
I0403 14:53:26.724313 11359 net.cpp:148] Top shape: 24 1024 (24576)
I0403 14:53:26.724335 11359 net.cpp:156] Memory required for data: 1208319264
I0403 14:53:26.724350 11359 layer_factory.hpp:77] Creating layer loss2/drop_fc
I0403 14:53:26.724370 11359 net.cpp:91] Creating Layer loss2/drop_fc
I0403 14:53:26.724385 11359 net.cpp:425] loss2/drop_fc <- loss2/fc
I0403 14:53:26.724406 11359 net.cpp:386] loss2/drop_fc -> loss2/fc (in-place)
I0403 14:53:26.724457 11359 net.cpp:141] Setting up loss2/drop_fc
I0403 14:53:26.724483 11359 net.cpp:148] Top shape: 24 1024 (24576)
I0403 14:53:26.724498 11359 net.cpp:156] Memory required for data: 1208417568
I0403 14:53:26.724514 11359 layer_factory.hpp:77] Creating layer loss2/classifier_plantvillage
I0403 14:53:26.724534 11359 net.cpp:91] Creating Layer loss2/classifier_plantvillage
I0403 14:53:26.724548 11359 net.cpp:425] loss2/classifier_plantvillage <- loss2/fc
I0403 14:53:26.724570 11359 net.cpp:399] loss2/classifier_plantvillage -> loss2/classifier_plantvillage
I0403 14:53:26.724994 11359 net.cpp:141] Setting up loss2/classifier_plantvillage
I0403 14:53:26.725021 11359 net.cpp:148] Top shape: 24 38 (912)
I0403 14:53:26.725061 11359 net.cpp:156] Memory required for data: 1208421216
I0403 14:53:26.725081 11359 layer_factory.hpp:77] Creating layer loss2/classifier_plantvillage_loss2/classifier_plantvillage_0_split
I0403 14:53:26.725102 11359 net.cpp:91] Creating Layer loss2/classifier_plantvillage_loss2/classifier_plantvillage_0_split
I0403 14:53:26.725118 11359 net.cpp:425] loss2/classifier_plantvillage_loss2/classifier_plantvillage_0_split <- loss2/classifier_plantvillage
I0403 14:53:26.725136 11359 net.cpp:399] loss2/classifier_plantvillage_loss2/classifier_plantvillage_0_split -> loss2/classifier_plantvillage_loss2/classifier_plantvillage_0_split_0
I0403 14:53:26.725157 11359 net.cpp:399] loss2/classifier_plantvillage_loss2/classifier_plantvillage_0_split -> loss2/classifier_plantvillage_loss2/classifier_plantvillage_0_split_1
I0403 14:53:26.725180 11359 net.cpp:399] loss2/classifier_plantvillage_loss2/classifier_plantvillage_0_split -> loss2/classifier_plantvillage_loss2/classifier_plantvillage_0_split_2
I0403 14:53:26.725258 11359 net.cpp:141] Setting up loss2/classifier_plantvillage_loss2/classifier_plantvillage_0_split
I0403 14:53:26.725281 11359 net.cpp:148] Top shape: 24 38 (912)
I0403 14:53:26.725297 11359 net.cpp:148] Top shape: 24 38 (912)
I0403 14:53:26.725313 11359 net.cpp:148] Top shape: 24 38 (912)
I0403 14:53:26.725333 11359 net.cpp:156] Memory required for data: 1208432160
I0403 14:53:26.725348 11359 layer_factory.hpp:77] Creating layer inception_4e/1x1
I0403 14:53:26.725373 11359 net.cpp:91] Creating Layer inception_4e/1x1
I0403 14:53:26.725391 11359 net.cpp:425] inception_4e/1x1 <- inception_4d/output_inception_4d/output_0_split_1
I0403 14:53:26.725410 11359 net.cpp:399] inception_4e/1x1 -> inception_4e/1x1
I0403 14:53:26.727330 11359 net.cpp:141] Setting up inception_4e/1x1
I0403 14:53:26.727360 11359 net.cpp:148] Top shape: 24 256 14 14 (1204224)
I0403 14:53:26.727377 11359 net.cpp:156] Memory required for data: 1213249056
I0403 14:53:26.727408 11359 layer_factory.hpp:77] Creating layer inception_4e/relu_1x1
I0403 14:53:26.727430 11359 net.cpp:91] Creating Layer inception_4e/relu_1x1
I0403 14:53:26.727449 11359 net.cpp:425] inception_4e/relu_1x1 <- inception_4e/1x1
I0403 14:53:26.727468 11359 net.cpp:386] inception_4e/relu_1x1 -> inception_4e/1x1 (in-place)
I0403 14:53:26.727794 11359 net.cpp:141] Setting up inception_4e/relu_1x1
I0403 14:53:26.727823 11359 net.cpp:148] Top shape: 24 256 14 14 (1204224)
I0403 14:53:26.727839 11359 net.cpp:156] Memory required for data: 1218065952
I0403 14:53:26.727855 11359 layer_factory.hpp:77] Creating layer inception_4e/3x3_reduce
I0403 14:53:26.727880 11359 net.cpp:91] Creating Layer inception_4e/3x3_reduce
I0403 14:53:26.727898 11359 net.cpp:425] inception_4e/3x3_reduce <- inception_4d/output_inception_4d/output_0_split_2
I0403 14:53:26.727919 11359 net.cpp:399] inception_4e/3x3_reduce -> inception_4e/3x3_reduce
I0403 14:53:26.730120 11359 net.cpp:141] Setting up inception_4e/3x3_reduce
I0403 14:53:26.730151 11359 net.cpp:148] Top shape: 24 160 14 14 (752640)
I0403 14:53:26.730168 11359 net.cpp:156] Memory required for data: 1221076512
I0403 14:53:26.730187 11359 layer_factory.hpp:77] Creating layer inception_4e/relu_3x3_reduce
I0403 14:53:26.730208 11359 net.cpp:91] Creating Layer inception_4e/relu_3x3_reduce
I0403 14:53:26.730226 11359 net.cpp:425] inception_4e/relu_3x3_reduce <- inception_4e/3x3_reduce
I0403 14:53:26.730245 11359 net.cpp:386] inception_4e/relu_3x3_reduce -> inception_4e/3x3_reduce (in-place)
I0403 14:53:26.730444 11359 net.cpp:141] Setting up inception_4e/relu_3x3_reduce
I0403 14:53:26.730473 11359 net.cpp:148] Top shape: 24 160 14 14 (752640)
I0403 14:53:26.730491 11359 net.cpp:156] Memory required for data: 1224087072
I0403 14:53:26.730506 11359 layer_factory.hpp:77] Creating layer inception_4e/3x3
I0403 14:53:26.730530 11359 net.cpp:91] Creating Layer inception_4e/3x3
I0403 14:53:26.730548 11359 net.cpp:425] inception_4e/3x3 <- inception_4e/3x3_reduce
I0403 14:53:26.730568 11359 net.cpp:399] inception_4e/3x3 -> inception_4e/3x3
I0403 14:53:26.735831 11359 net.cpp:141] Setting up inception_4e/3x3
I0403 14:53:26.735877 11359 net.cpp:148] Top shape: 24 320 14 14 (1505280)
I0403 14:53:26.735896 11359 net.cpp:156] Memory required for data: 1230108192
I0403 14:53:26.735915 11359 layer_factory.hpp:77] Creating layer inception_4e/relu_3x3
I0403 14:53:26.735934 11359 net.cpp:91] Creating Layer inception_4e/relu_3x3
I0403 14:53:26.735950 11359 net.cpp:425] inception_4e/relu_3x3 <- inception_4e/3x3
I0403 14:53:26.735968 11359 net.cpp:386] inception_4e/relu_3x3 -> inception_4e/3x3 (in-place)
I0403 14:53:26.736279 11359 net.cpp:141] Setting up inception_4e/relu_3x3
I0403 14:53:26.736307 11359 net.cpp:148] Top shape: 24 320 14 14 (1505280)
I0403 14:53:26.736331 11359 net.cpp:156] Memory required for data: 1236129312
I0403 14:53:26.736348 11359 layer_factory.hpp:77] Creating layer inception_4e/5x5_reduce
I0403 14:53:26.736373 11359 net.cpp:91] Creating Layer inception_4e/5x5_reduce
I0403 14:53:26.736392 11359 net.cpp:425] inception_4e/5x5_reduce <- inception_4d/output_inception_4d/output_0_split_3
I0403 14:53:26.736415 11359 net.cpp:399] inception_4e/5x5_reduce -> inception_4e/5x5_reduce
I0403 14:53:26.737527 11359 net.cpp:141] Setting up inception_4e/5x5_reduce
I0403 14:53:26.737557 11359 net.cpp:148] Top shape: 24 32 14 14 (150528)
I0403 14:53:26.737573 11359 net.cpp:156] Memory required for data: 1236731424
I0403 14:53:26.737592 11359 layer_factory.hpp:77] Creating layer inception_4e/relu_5x5_reduce
I0403 14:53:26.737613 11359 net.cpp:91] Creating Layer inception_4e/relu_5x5_reduce
I0403 14:53:26.737632 11359 net.cpp:425] inception_4e/relu_5x5_reduce <- inception_4e/5x5_reduce
I0403 14:53:26.737651 11359 net.cpp:386] inception_4e/relu_5x5_reduce -> inception_4e/5x5_reduce (in-place)
I0403 14:53:26.737957 11359 net.cpp:141] Setting up inception_4e/relu_5x5_reduce
I0403 14:53:26.737984 11359 net.cpp:148] Top shape: 24 32 14 14 (150528)
I0403 14:53:26.737999 11359 net.cpp:156] Memory required for data: 1237333536
I0403 14:53:26.738014 11359 layer_factory.hpp:77] Creating layer inception_4e/5x5
I0403 14:53:26.738057 11359 net.cpp:91] Creating Layer inception_4e/5x5
I0403 14:53:26.738077 11359 net.cpp:425] inception_4e/5x5 <- inception_4e/5x5_reduce
I0403 14:53:26.738097 11359 net.cpp:399] inception_4e/5x5 -> inception_4e/5x5
I0403 14:53:26.740195 11359 net.cpp:141] Setting up inception_4e/5x5
I0403 14:53:26.740224 11359 net.cpp:148] Top shape: 24 128 14 14 (602112)
I0403 14:53:26.740242 11359 net.cpp:156] Memory required for data: 1239741984
I0403 14:53:26.740262 11359 layer_factory.hpp:77] Creating layer inception_4e/relu_5x5
I0403 14:53:26.740283 11359 net.cpp:91] Creating Layer inception_4e/relu_5x5
I0403 14:53:26.740303 11359 net.cpp:425] inception_4e/relu_5x5 <- inception_4e/5x5
I0403 14:53:26.740329 11359 net.cpp:386] inception_4e/relu_5x5 -> inception_4e/5x5 (in-place)
I0403 14:53:26.740532 11359 net.cpp:141] Setting up inception_4e/relu_5x5
I0403 14:53:26.740558 11359 net.cpp:148] Top shape: 24 128 14 14 (602112)
I0403 14:53:26.740573 11359 net.cpp:156] Memory required for data: 1242150432
I0403 14:53:26.740588 11359 layer_factory.hpp:77] Creating layer inception_4e/pool
I0403 14:53:26.740609 11359 net.cpp:91] Creating Layer inception_4e/pool
I0403 14:53:26.740628 11359 net.cpp:425] inception_4e/pool <- inception_4d/output_inception_4d/output_0_split_4
I0403 14:53:26.740646 11359 net.cpp:399] inception_4e/pool -> inception_4e/pool
I0403 14:53:26.740721 11359 net.cpp:141] Setting up inception_4e/pool
I0403 14:53:26.740746 11359 net.cpp:148] Top shape: 24 528 14 14 (2483712)
I0403 14:53:26.740761 11359 net.cpp:156] Memory required for data: 1252085280
I0403 14:53:26.740774 11359 layer_factory.hpp:77] Creating layer inception_4e/pool_proj
I0403 14:53:26.740797 11359 net.cpp:91] Creating Layer inception_4e/pool_proj
I0403 14:53:26.740815 11359 net.cpp:425] inception_4e/pool_proj <- inception_4e/pool
I0403 14:53:26.740838 11359 net.cpp:399] inception_4e/pool_proj -> inception_4e/pool_proj
I0403 14:53:26.742403 11359 net.cpp:141] Setting up inception_4e/pool_proj
I0403 14:53:26.742445 11359 net.cpp:148] Top shape: 24 128 14 14 (602112)
I0403 14:53:26.742463 11359 net.cpp:156] Memory required for data: 1254493728
I0403 14:53:26.742482 11359 layer_factory.hpp:77] Creating layer inception_4e/relu_pool_proj
I0403 14:53:26.742501 11359 net.cpp:91] Creating Layer inception_4e/relu_pool_proj
I0403 14:53:26.742519 11359 net.cpp:425] inception_4e/relu_pool_proj <- inception_4e/pool_proj
I0403 14:53:26.742539 11359 net.cpp:386] inception_4e/relu_pool_proj -> inception_4e/pool_proj (in-place)
I0403 14:53:26.742842 11359 net.cpp:141] Setting up inception_4e/relu_pool_proj
I0403 14:53:26.742871 11359 net.cpp:148] Top shape: 24 128 14 14 (602112)
I0403 14:53:26.742887 11359 net.cpp:156] Memory required for data: 1256902176
I0403 14:53:26.742902 11359 layer_factory.hpp:77] Creating layer inception_4e/output
I0403 14:53:26.742919 11359 net.cpp:91] Creating Layer inception_4e/output
I0403 14:53:26.742936 11359 net.cpp:425] inception_4e/output <- inception_4e/1x1
I0403 14:53:26.742954 11359 net.cpp:425] inception_4e/output <- inception_4e/3x3
I0403 14:53:26.742970 11359 net.cpp:425] inception_4e/output <- inception_4e/5x5
I0403 14:53:26.742987 11359 net.cpp:425] inception_4e/output <- inception_4e/pool_proj
I0403 14:53:26.743008 11359 net.cpp:399] inception_4e/output -> inception_4e/output
I0403 14:53:26.743060 11359 net.cpp:141] Setting up inception_4e/output
I0403 14:53:26.743085 11359 net.cpp:148] Top shape: 24 832 14 14 (3913728)
I0403 14:53:26.743103 11359 net.cpp:156] Memory required for data: 1272557088
I0403 14:53:26.743119 11359 layer_factory.hpp:77] Creating layer pool4/3x3_s2
I0403 14:53:26.743139 11359 net.cpp:91] Creating Layer pool4/3x3_s2
I0403 14:53:26.743155 11359 net.cpp:425] pool4/3x3_s2 <- inception_4e/output
I0403 14:53:26.743175 11359 net.cpp:399] pool4/3x3_s2 -> pool4/3x3_s2
I0403 14:53:26.743245 11359 net.cpp:141] Setting up pool4/3x3_s2
I0403 14:53:26.743270 11359 net.cpp:148] Top shape: 24 832 7 7 (978432)
I0403 14:53:26.743284 11359 net.cpp:156] Memory required for data: 1276470816
I0403 14:53:26.743299 11359 layer_factory.hpp:77] Creating layer pool4/3x3_s2_pool4/3x3_s2_0_split
I0403 14:53:26.743324 11359 net.cpp:91] Creating Layer pool4/3x3_s2_pool4/3x3_s2_0_split
I0403 14:53:26.743342 11359 net.cpp:425] pool4/3x3_s2_pool4/3x3_s2_0_split <- pool4/3x3_s2
I0403 14:53:26.743360 11359 net.cpp:399] pool4/3x3_s2_pool4/3x3_s2_0_split -> pool4/3x3_s2_pool4/3x3_s2_0_split_0
I0403 14:53:26.743381 11359 net.cpp:399] pool4/3x3_s2_pool4/3x3_s2_0_split -> pool4/3x3_s2_pool4/3x3_s2_0_split_1
I0403 14:53:26.743413 11359 net.cpp:399] pool4/3x3_s2_pool4/3x3_s2_0_split -> pool4/3x3_s2_pool4/3x3_s2_0_split_2
I0403 14:53:26.743434 11359 net.cpp:399] pool4/3x3_s2_pool4/3x3_s2_0_split -> pool4/3x3_s2_pool4/3x3_s2_0_split_3
I0403 14:53:26.743530 11359 net.cpp:141] Setting up pool4/3x3_s2_pool4/3x3_s2_0_split
I0403 14:53:26.743554 11359 net.cpp:148] Top shape: 24 832 7 7 (978432)
I0403 14:53:26.743571 11359 net.cpp:148] Top shape: 24 832 7 7 (978432)
I0403 14:53:26.743587 11359 net.cpp:148] Top shape: 24 832 7 7 (978432)
I0403 14:53:26.743604 11359 net.cpp:148] Top shape: 24 832 7 7 (978432)
I0403 14:53:26.743618 11359 net.cpp:156] Memory required for data: 1292125728
I0403 14:53:26.743633 11359 layer_factory.hpp:77] Creating layer inception_5a/1x1
I0403 14:53:26.743655 11359 net.cpp:91] Creating Layer inception_5a/1x1
I0403 14:53:26.743685 11359 net.cpp:425] inception_5a/1x1 <- pool4/3x3_s2_pool4/3x3_s2_0_split_0
I0403 14:53:26.743706 11359 net.cpp:399] inception_5a/1x1 -> inception_5a/1x1
I0403 14:53:26.746614 11359 net.cpp:141] Setting up inception_5a/1x1
I0403 14:53:26.746644 11359 net.cpp:148] Top shape: 24 256 7 7 (301056)
I0403 14:53:26.746662 11359 net.cpp:156] Memory required for data: 1293329952
I0403 14:53:26.746681 11359 layer_factory.hpp:77] Creating layer inception_5a/relu_1x1
I0403 14:53:26.746701 11359 net.cpp:91] Creating Layer inception_5a/relu_1x1
I0403 14:53:26.746721 11359 net.cpp:425] inception_5a/relu_1x1 <- inception_5a/1x1
I0403 14:53:26.746738 11359 net.cpp:386] inception_5a/relu_1x1 -> inception_5a/1x1 (in-place)
I0403 14:53:26.747053 11359 net.cpp:141] Setting up inception_5a/relu_1x1
I0403 14:53:26.747081 11359 net.cpp:148] Top shape: 24 256 7 7 (301056)
I0403 14:53:26.747097 11359 net.cpp:156] Memory required for data: 1294534176
I0403 14:53:26.747112 11359 layer_factory.hpp:77] Creating layer inception_5a/3x3_reduce
I0403 14:53:26.747135 11359 net.cpp:91] Creating Layer inception_5a/3x3_reduce
I0403 14:53:26.747154 11359 net.cpp:425] inception_5a/3x3_reduce <- pool4/3x3_s2_pool4/3x3_s2_0_split_1
I0403 14:53:26.747176 11359 net.cpp:399] inception_5a/3x3_reduce -> inception_5a/3x3_reduce
I0403 14:53:26.749672 11359 net.cpp:141] Setting up inception_5a/3x3_reduce
I0403 14:53:26.749706 11359 net.cpp:148] Top shape: 24 160 7 7 (188160)
I0403 14:53:26.749722 11359 net.cpp:156] Memory required for data: 1295286816
I0403 14:53:26.749742 11359 layer_factory.hpp:77] Creating layer inception_5a/relu_3x3_reduce
I0403 14:53:26.749760 11359 net.cpp:91] Creating Layer inception_5a/relu_3x3_reduce
I0403 14:53:26.749778 11359 net.cpp:425] inception_5a/relu_3x3_reduce <- inception_5a/3x3_reduce
I0403 14:53:26.749799 11359 net.cpp:386] inception_5a/relu_3x3_reduce -> inception_5a/3x3_reduce (in-place)
I0403 14:53:26.749987 11359 net.cpp:141] Setting up inception_5a/relu_3x3_reduce
I0403 14:53:26.750012 11359 net.cpp:148] Top shape: 24 160 7 7 (188160)
I0403 14:53:26.750026 11359 net.cpp:156] Memory required for data: 1296039456
I0403 14:53:26.750041 11359 layer_factory.hpp:77] Creating layer inception_5a/3x3
I0403 14:53:26.750063 11359 net.cpp:91] Creating Layer inception_5a/3x3
I0403 14:53:26.750080 11359 net.cpp:425] inception_5a/3x3 <- inception_5a/3x3_reduce
I0403 14:53:26.750102 11359 net.cpp:399] inception_5a/3x3 -> inception_5a/3x3
I0403 14:53:26.755194 11359 net.cpp:141] Setting up inception_5a/3x3
I0403 14:53:26.755225 11359 net.cpp:148] Top shape: 24 320 7 7 (376320)
I0403 14:53:26.755241 11359 net.cpp:156] Memory required for data: 1297544736
I0403 14:53:26.755260 11359 layer_factory.hpp:77] Creating layer inception_5a/relu_3x3
I0403 14:53:26.755282 11359 net.cpp:91] Creating Layer inception_5a/relu_3x3
I0403 14:53:26.755300 11359 net.cpp:425] inception_5a/relu_3x3 <- inception_5a/3x3
I0403 14:53:26.755321 11359 net.cpp:386] inception_5a/relu_3x3 -> inception_5a/3x3 (in-place)
I0403 14:53:26.755619 11359 net.cpp:141] Setting up inception_5a/relu_3x3
I0403 14:53:26.755645 11359 net.cpp:148] Top shape: 24 320 7 7 (376320)
I0403 14:53:26.755659 11359 net.cpp:156] Memory required for data: 1299050016
I0403 14:53:26.755674 11359 layer_factory.hpp:77] Creating layer inception_5a/5x5_reduce
I0403 14:53:26.755697 11359 net.cpp:91] Creating Layer inception_5a/5x5_reduce
I0403 14:53:26.755714 11359 net.cpp:425] inception_5a/5x5_reduce <- pool4/3x3_s2_pool4/3x3_s2_0_split_2
I0403 14:53:26.755736 11359 net.cpp:399] inception_5a/5x5_reduce -> inception_5a/5x5_reduce
I0403 14:53:26.756960 11359 net.cpp:141] Setting up inception_5a/5x5_reduce
I0403 14:53:26.756991 11359 net.cpp:148] Top shape: 24 32 7 7 (37632)
I0403 14:53:26.757009 11359 net.cpp:156] Memory required for data: 1299200544
I0403 14:53:26.757027 11359 layer_factory.hpp:77] Creating layer inception_5a/relu_5x5_reduce
I0403 14:53:26.757048 11359 net.cpp:91] Creating Layer inception_5a/relu_5x5_reduce
I0403 14:53:26.757066 11359 net.cpp:425] inception_5a/relu_5x5_reduce <- inception_5a/5x5_reduce
I0403 14:53:26.757084 11359 net.cpp:386] inception_5a/relu_5x5_reduce -> inception_5a/5x5_reduce (in-place)
I0403 14:53:26.757406 11359 net.cpp:141] Setting up inception_5a/relu_5x5_reduce
I0403 14:53:26.757436 11359 net.cpp:148] Top shape: 24 32 7 7 (37632)
I0403 14:53:26.757452 11359 net.cpp:156] Memory required for data: 1299351072
I0403 14:53:26.757467 11359 layer_factory.hpp:77] Creating layer inception_5a/5x5
I0403 14:53:26.757491 11359 net.cpp:91] Creating Layer inception_5a/5x5
I0403 14:53:26.757520 11359 net.cpp:425] inception_5a/5x5 <- inception_5a/5x5_reduce
I0403 14:53:26.757542 11359 net.cpp:399] inception_5a/5x5 -> inception_5a/5x5
I0403 14:53:26.759279 11359 net.cpp:141] Setting up inception_5a/5x5
I0403 14:53:26.759325 11359 net.cpp:148] Top shape: 24 128 7 7 (150528)
I0403 14:53:26.759344 11359 net.cpp:156] Memory required for data: 1299953184
I0403 14:53:26.759362 11359 layer_factory.hpp:77] Creating layer inception_5a/relu_5x5
I0403 14:53:26.759382 11359 net.cpp:91] Creating Layer inception_5a/relu_5x5
I0403 14:53:26.759399 11359 net.cpp:425] inception_5a/relu_5x5 <- inception_5a/5x5
I0403 14:53:26.759416 11359 net.cpp:386] inception_5a/relu_5x5 -> inception_5a/5x5 (in-place)
I0403 14:53:26.759608 11359 net.cpp:141] Setting up inception_5a/relu_5x5
I0403 14:53:26.759634 11359 net.cpp:148] Top shape: 24 128 7 7 (150528)
I0403 14:53:26.759647 11359 net.cpp:156] Memory required for data: 1300555296
I0403 14:53:26.759662 11359 layer_factory.hpp:77] Creating layer inception_5a/pool
I0403 14:53:26.759681 11359 net.cpp:91] Creating Layer inception_5a/pool
I0403 14:53:26.759697 11359 net.cpp:425] inception_5a/pool <- pool4/3x3_s2_pool4/3x3_s2_0_split_3
I0403 14:53:26.759716 11359 net.cpp:399] inception_5a/pool -> inception_5a/pool
I0403 14:53:26.759788 11359 net.cpp:141] Setting up inception_5a/pool
I0403 14:53:26.759812 11359 net.cpp:148] Top shape: 24 832 7 7 (978432)
I0403 14:53:26.759826 11359 net.cpp:156] Memory required for data: 1304469024
I0403 14:53:26.759841 11359 layer_factory.hpp:77] Creating layer inception_5a/pool_proj
I0403 14:53:26.759863 11359 net.cpp:91] Creating Layer inception_5a/pool_proj
I0403 14:53:26.759881 11359 net.cpp:425] inception_5a/pool_proj <- inception_5a/pool
I0403 14:53:26.759901 11359 net.cpp:399] inception_5a/pool_proj -> inception_5a/pool_proj
I0403 14:53:26.762207 11359 net.cpp:141] Setting up inception_5a/pool_proj
I0403 14:53:26.762236 11359 net.cpp:148] Top shape: 24 128 7 7 (150528)
I0403 14:53:26.762251 11359 net.cpp:156] Memory required for data: 1305071136
I0403 14:53:26.762269 11359 layer_factory.hpp:77] Creating layer inception_5a/relu_pool_proj
I0403 14:53:26.762287 11359 net.cpp:91] Creating Layer inception_5a/relu_pool_proj
I0403 14:53:26.762302 11359 net.cpp:425] inception_5a/relu_pool_proj <- inception_5a/pool_proj
I0403 14:53:26.762333 11359 net.cpp:386] inception_5a/relu_pool_proj -> inception_5a/pool_proj (in-place)
I0403 14:53:26.762634 11359 net.cpp:141] Setting up inception_5a/relu_pool_proj
I0403 14:53:26.762660 11359 net.cpp:148] Top shape: 24 128 7 7 (150528)
I0403 14:53:26.762676 11359 net.cpp:156] Memory required for data: 1305673248
I0403 14:53:26.762689 11359 layer_factory.hpp:77] Creating layer inception_5a/output
I0403 14:53:26.762707 11359 net.cpp:91] Creating Layer inception_5a/output
I0403 14:53:26.762722 11359 net.cpp:425] inception_5a/output <- inception_5a/1x1
I0403 14:53:26.762738 11359 net.cpp:425] inception_5a/output <- inception_5a/3x3
I0403 14:53:26.762753 11359 net.cpp:425] inception_5a/output <- inception_5a/5x5
I0403 14:53:26.762768 11359 net.cpp:425] inception_5a/output <- inception_5a/pool_proj
I0403 14:53:26.762787 11359 net.cpp:399] inception_5a/output -> inception_5a/output
I0403 14:53:26.762836 11359 net.cpp:141] Setting up inception_5a/output
I0403 14:53:26.762862 11359 net.cpp:148] Top shape: 24 832 7 7 (978432)
I0403 14:53:26.762877 11359 net.cpp:156] Memory required for data: 1309586976
I0403 14:53:26.762892 11359 layer_factory.hpp:77] Creating layer inception_5a/output_inception_5a/output_0_split
I0403 14:53:26.762908 11359 net.cpp:91] Creating Layer inception_5a/output_inception_5a/output_0_split
I0403 14:53:26.762923 11359 net.cpp:425] inception_5a/output_inception_5a/output_0_split <- inception_5a/output
I0403 14:53:26.762940 11359 net.cpp:399] inception_5a/output_inception_5a/output_0_split -> inception_5a/output_inception_5a/output_0_split_0
I0403 14:53:26.762959 11359 net.cpp:399] inception_5a/output_inception_5a/output_0_split -> inception_5a/output_inception_5a/output_0_split_1
I0403 14:53:26.762981 11359 net.cpp:399] inception_5a/output_inception_5a/output_0_split -> inception_5a/output_inception_5a/output_0_split_2
I0403 14:53:26.763002 11359 net.cpp:399] inception_5a/output_inception_5a/output_0_split -> inception_5a/output_inception_5a/output_0_split_3
I0403 14:53:26.763114 11359 net.cpp:141] Setting up inception_5a/output_inception_5a/output_0_split
I0403 14:53:26.763137 11359 net.cpp:148] Top shape: 24 832 7 7 (978432)
I0403 14:53:26.763152 11359 net.cpp:148] Top shape: 24 832 7 7 (978432)
I0403 14:53:26.763169 11359 net.cpp:148] Top shape: 24 832 7 7 (978432)
I0403 14:53:26.763183 11359 net.cpp:148] Top shape: 24 832 7 7 (978432)
I0403 14:53:26.763196 11359 net.cpp:156] Memory required for data: 1325241888
I0403 14:53:26.763211 11359 layer_factory.hpp:77] Creating layer inception_5b/1x1
I0403 14:53:26.763232 11359 net.cpp:91] Creating Layer inception_5b/1x1
I0403 14:53:26.763249 11359 net.cpp:425] inception_5b/1x1 <- inception_5a/output_inception_5a/output_0_split_0
I0403 14:53:26.763269 11359 net.cpp:399] inception_5b/1x1 -> inception_5b/1x1
I0403 14:53:26.767117 11359 net.cpp:141] Setting up inception_5b/1x1
I0403 14:53:26.767149 11359 net.cpp:148] Top shape: 24 384 7 7 (451584)
I0403 14:53:26.767168 11359 net.cpp:156] Memory required for data: 1327048224
I0403 14:53:26.767187 11359 layer_factory.hpp:77] Creating layer inception_5b/relu_1x1
I0403 14:53:26.767205 11359 net.cpp:91] Creating Layer inception_5b/relu_1x1
I0403 14:53:26.767222 11359 net.cpp:425] inception_5b/relu_1x1 <- inception_5b/1x1
I0403 14:53:26.767241 11359 net.cpp:386] inception_5b/relu_1x1 -> inception_5b/1x1 (in-place)
I0403 14:53:26.767549 11359 net.cpp:141] Setting up inception_5b/relu_1x1
I0403 14:53:26.767580 11359 net.cpp:148] Top shape: 24 384 7 7 (451584)
I0403 14:53:26.767596 11359 net.cpp:156] Memory required for data: 1328854560
I0403 14:53:26.767611 11359 layer_factory.hpp:77] Creating layer inception_5b/3x3_reduce
I0403 14:53:26.767633 11359 net.cpp:91] Creating Layer inception_5b/3x3_reduce
I0403 14:53:26.767650 11359 net.cpp:425] inception_5b/3x3_reduce <- inception_5a/output_inception_5a/output_0_split_1
I0403 14:53:26.767669 11359 net.cpp:399] inception_5b/3x3_reduce -> inception_5b/3x3_reduce
I0403 14:53:26.770367 11359 net.cpp:141] Setting up inception_5b/3x3_reduce
I0403 14:53:26.770398 11359 net.cpp:148] Top shape: 24 192 7 7 (225792)
I0403 14:53:26.770416 11359 net.cpp:156] Memory required for data: 1329757728
I0403 14:53:26.770436 11359 layer_factory.hpp:77] Creating layer inception_5b/relu_3x3_reduce
I0403 14:53:26.770454 11359 net.cpp:91] Creating Layer inception_5b/relu_3x3_reduce
I0403 14:53:26.770472 11359 net.cpp:425] inception_5b/relu_3x3_reduce <- inception_5b/3x3_reduce
I0403 14:53:26.770491 11359 net.cpp:386] inception_5b/relu_3x3_reduce -> inception_5b/3x3_reduce (in-place)
I0403 14:53:26.770684 11359 net.cpp:141] Setting up inception_5b/relu_3x3_reduce
I0403 14:53:26.770709 11359 net.cpp:148] Top shape: 24 192 7 7 (225792)
I0403 14:53:26.770725 11359 net.cpp:156] Memory required for data: 1330660896
I0403 14:53:26.770740 11359 layer_factory.hpp:77] Creating layer inception_5b/3x3
I0403 14:53:26.770763 11359 net.cpp:91] Creating Layer inception_5b/3x3
I0403 14:53:26.770781 11359 net.cpp:425] inception_5b/3x3 <- inception_5b/3x3_reduce
I0403 14:53:26.770803 11359 net.cpp:399] inception_5b/3x3 -> inception_5b/3x3
I0403 14:53:26.777753 11359 net.cpp:141] Setting up inception_5b/3x3
I0403 14:53:26.777783 11359 net.cpp:148] Top shape: 24 384 7 7 (451584)
I0403 14:53:26.777801 11359 net.cpp:156] Memory required for data: 1332467232
I0403 14:53:26.777820 11359 layer_factory.hpp:77] Creating layer inception_5b/relu_3x3
I0403 14:53:26.777837 11359 net.cpp:91] Creating Layer inception_5b/relu_3x3
I0403 14:53:26.777853 11359 net.cpp:425] inception_5b/relu_3x3 <- inception_5b/3x3
I0403 14:53:26.777873 11359 net.cpp:386] inception_5b/relu_3x3 -> inception_5b/3x3 (in-place)
I0403 14:53:26.778175 11359 net.cpp:141] Setting up inception_5b/relu_3x3
I0403 14:53:26.778201 11359 net.cpp:148] Top shape: 24 384 7 7 (451584)
I0403 14:53:26.778216 11359 net.cpp:156] Memory required for data: 1334273568
I0403 14:53:26.778230 11359 layer_factory.hpp:77] Creating layer inception_5b/5x5_reduce
I0403 14:53:26.778269 11359 net.cpp:91] Creating Layer inception_5b/5x5_reduce
I0403 14:53:26.778286 11359 net.cpp:425] inception_5b/5x5_reduce <- inception_5a/output_inception_5a/output_0_split_2
I0403 14:53:26.778309 11359 net.cpp:399] inception_5b/5x5_reduce -> inception_5b/5x5_reduce
I0403 14:53:26.779589 11359 net.cpp:141] Setting up inception_5b/5x5_reduce
I0403 14:53:26.779620 11359 net.cpp:148] Top shape: 24 48 7 7 (56448)
I0403 14:53:26.779639 11359 net.cpp:156] Memory required for data: 1334499360
I0403 14:53:26.779657 11359 layer_factory.hpp:77] Creating layer inception_5b/relu_5x5_reduce
I0403 14:53:26.779675 11359 net.cpp:91] Creating Layer inception_5b/relu_5x5_reduce
I0403 14:53:26.779691 11359 net.cpp:425] inception_5b/relu_5x5_reduce <- inception_5b/5x5_reduce
I0403 14:53:26.779711 11359 net.cpp:386] inception_5b/relu_5x5_reduce -> inception_5b/5x5_reduce (in-place)
I0403 14:53:26.780088 11359 net.cpp:141] Setting up inception_5b/relu_5x5_reduce
I0403 14:53:26.780115 11359 net.cpp:148] Top shape: 24 48 7 7 (56448)
I0403 14:53:26.780133 11359 net.cpp:156] Memory required for data: 1334725152
I0403 14:53:26.780146 11359 layer_factory.hpp:77] Creating layer inception_5b/5x5
I0403 14:53:26.780167 11359 net.cpp:91] Creating Layer inception_5b/5x5
I0403 14:53:26.780184 11359 net.cpp:425] inception_5b/5x5 <- inception_5b/5x5_reduce
I0403 14:53:26.780205 11359 net.cpp:399] inception_5b/5x5 -> inception_5b/5x5
I0403 14:53:26.782306 11359 net.cpp:141] Setting up inception_5b/5x5
I0403 14:53:26.782347 11359 net.cpp:148] Top shape: 24 128 7 7 (150528)
I0403 14:53:26.782366 11359 net.cpp:156] Memory required for data: 1335327264
I0403 14:53:26.782384 11359 layer_factory.hpp:77] Creating layer inception_5b/relu_5x5
I0403 14:53:26.782405 11359 net.cpp:91] Creating Layer inception_5b/relu_5x5
I0403 14:53:26.782424 11359 net.cpp:425] inception_5b/relu_5x5 <- inception_5b/5x5
I0403 14:53:26.782443 11359 net.cpp:386] inception_5b/relu_5x5 -> inception_5b/5x5 (in-place)
I0403 14:53:26.782640 11359 net.cpp:141] Setting up inception_5b/relu_5x5
I0403 14:53:26.782666 11359 net.cpp:148] Top shape: 24 128 7 7 (150528)
I0403 14:53:26.782685 11359 net.cpp:156] Memory required for data: 1335929376
I0403 14:53:26.782701 11359 layer_factory.hpp:77] Creating layer inception_5b/pool
I0403 14:53:26.782718 11359 net.cpp:91] Creating Layer inception_5b/pool
I0403 14:53:26.782734 11359 net.cpp:425] inception_5b/pool <- inception_5a/output_inception_5a/output_0_split_3
I0403 14:53:26.782753 11359 net.cpp:399] inception_5b/pool -> inception_5b/pool
I0403 14:53:26.782829 11359 net.cpp:141] Setting up inception_5b/pool
I0403 14:53:26.782855 11359 net.cpp:148] Top shape: 24 832 7 7 (978432)
I0403 14:53:26.782869 11359 net.cpp:156] Memory required for data: 1339843104
I0403 14:53:26.782884 11359 layer_factory.hpp:77] Creating layer inception_5b/pool_proj
I0403 14:53:26.782907 11359 net.cpp:91] Creating Layer inception_5b/pool_proj
I0403 14:53:26.782924 11359 net.cpp:425] inception_5b/pool_proj <- inception_5b/pool
I0403 14:53:26.782945 11359 net.cpp:399] inception_5b/pool_proj -> inception_5b/pool_proj
I0403 14:53:26.785254 11359 net.cpp:141] Setting up inception_5b/pool_proj
I0403 14:53:26.785285 11359 net.cpp:148] Top shape: 24 128 7 7 (150528)
I0403 14:53:26.785301 11359 net.cpp:156] Memory required for data: 1340445216
I0403 14:53:26.785326 11359 layer_factory.hpp:77] Creating layer inception_5b/relu_pool_proj
I0403 14:53:26.785346 11359 net.cpp:91] Creating Layer inception_5b/relu_pool_proj
I0403 14:53:26.785367 11359 net.cpp:425] inception_5b/relu_pool_proj <- inception_5b/pool_proj
I0403 14:53:26.785383 11359 net.cpp:386] inception_5b/relu_pool_proj -> inception_5b/pool_proj (in-place)
I0403 14:53:26.785701 11359 net.cpp:141] Setting up inception_5b/relu_pool_proj
I0403 14:53:26.785739 11359 net.cpp:148] Top shape: 24 128 7 7 (150528)
I0403 14:53:26.785754 11359 net.cpp:156] Memory required for data: 1341047328
I0403 14:53:26.785769 11359 layer_factory.hpp:77] Creating layer inception_5b/output
I0403 14:53:26.785786 11359 net.cpp:91] Creating Layer inception_5b/output
I0403 14:53:26.785816 11359 net.cpp:425] inception_5b/output <- inception_5b/1x1
I0403 14:53:26.785833 11359 net.cpp:425] inception_5b/output <- inception_5b/3x3
I0403 14:53:26.785850 11359 net.cpp:425] inception_5b/output <- inception_5b/5x5
I0403 14:53:26.785866 11359 net.cpp:425] inception_5b/output <- inception_5b/pool_proj
I0403 14:53:26.785886 11359 net.cpp:399] inception_5b/output -> inception_5b/output
I0403 14:53:26.785936 11359 net.cpp:141] Setting up inception_5b/output
I0403 14:53:26.785962 11359 net.cpp:148] Top shape: 24 1024 7 7 (1204224)
I0403 14:53:26.785977 11359 net.cpp:156] Memory required for data: 1345864224
I0403 14:53:26.785992 11359 layer_factory.hpp:77] Creating layer pool5/7x7_s1
I0403 14:53:26.786008 11359 net.cpp:91] Creating Layer pool5/7x7_s1
I0403 14:53:26.786025 11359 net.cpp:425] pool5/7x7_s1 <- inception_5b/output
I0403 14:53:26.786044 11359 net.cpp:399] pool5/7x7_s1 -> pool5/7x7_s1
I0403 14:53:26.786262 11359 net.cpp:141] Setting up pool5/7x7_s1
I0403 14:53:26.786286 11359 net.cpp:148] Top shape: 24 1024 1 1 (24576)
I0403 14:53:26.786300 11359 net.cpp:156] Memory required for data: 1345962528
I0403 14:53:26.786315 11359 layer_factory.hpp:77] Creating layer pool5/drop_7x7_s1
I0403 14:53:26.786339 11359 net.cpp:91] Creating Layer pool5/drop_7x7_s1
I0403 14:53:26.786356 11359 net.cpp:425] pool5/drop_7x7_s1 <- pool5/7x7_s1
I0403 14:53:26.786376 11359 net.cpp:386] pool5/drop_7x7_s1 -> pool5/7x7_s1 (in-place)
I0403 14:53:26.786425 11359 net.cpp:141] Setting up pool5/drop_7x7_s1
I0403 14:53:26.786450 11359 net.cpp:148] Top shape: 24 1024 1 1 (24576)
I0403 14:53:26.786465 11359 net.cpp:156] Memory required for data: 1346060832
I0403 14:53:26.786480 11359 layer_factory.hpp:77] Creating layer loss3/classifier_plantvillage
I0403 14:53:26.786499 11359 net.cpp:91] Creating Layer loss3/classifier_plantvillage
I0403 14:53:26.786514 11359 net.cpp:425] loss3/classifier_plantvillage <- pool5/7x7_s1
I0403 14:53:26.786535 11359 net.cpp:399] loss3/classifier_plantvillage -> loss3/classifier_plantvillage
I0403 14:53:26.786959 11359 net.cpp:141] Setting up loss3/classifier_plantvillage
I0403 14:53:26.786988 11359 net.cpp:148] Top shape: 24 38 (912)
I0403 14:53:26.787003 11359 net.cpp:156] Memory required for data: 1346064480
I0403 14:53:26.787022 11359 layer_factory.hpp:77] Creating layer loss3/classifier_plantvillage_loss3/classifier_plantvillage_0_split
I0403 14:53:26.787040 11359 net.cpp:91] Creating Layer loss3/classifier_plantvillage_loss3/classifier_plantvillage_0_split
I0403 14:53:26.787056 11359 net.cpp:425] loss3/classifier_plantvillage_loss3/classifier_plantvillage_0_split <- loss3/classifier_plantvillage
I0403 14:53:26.787073 11359 net.cpp:399] loss3/classifier_plantvillage_loss3/classifier_plantvillage_0_split -> loss3/classifier_plantvillage_loss3/classifier_plantvillage_0_split_0
I0403 14:53:26.787092 11359 net.cpp:399] loss3/classifier_plantvillage_loss3/classifier_plantvillage_0_split -> loss3/classifier_plantvillage_loss3/classifier_plantvillage_0_split_1
I0403 14:53:26.787116 11359 net.cpp:399] loss3/classifier_plantvillage_loss3/classifier_plantvillage_0_split -> loss3/classifier_plantvillage_loss3/classifier_plantvillage_0_split_2
I0403 14:53:26.787137 11359 net.cpp:399] loss3/classifier_plantvillage_loss3/classifier_plantvillage_0_split -> loss3/classifier_plantvillage_loss3/classifier_plantvillage_0_split_3
I0403 14:53:26.787238 11359 net.cpp:141] Setting up loss3/classifier_plantvillage_loss3/classifier_plantvillage_0_split
I0403 14:53:26.787261 11359 net.cpp:148] Top shape: 24 38 (912)
I0403 14:53:26.787277 11359 net.cpp:148] Top shape: 24 38 (912)
I0403 14:53:26.787292 11359 net.cpp:148] Top shape: 24 38 (912)
I0403 14:53:26.787307 11359 net.cpp:148] Top shape: 24 38 (912)
I0403 14:53:26.787328 11359 net.cpp:156] Memory required for data: 1346079072
I0403 14:53:26.787343 11359 layer_factory.hpp:77] Creating layer loss1/loss
I0403 14:53:26.787369 11359 net.cpp:91] Creating Layer loss1/loss
I0403 14:53:26.787387 11359 net.cpp:425] loss1/loss <- loss1/classifier_plantvillage_loss1/classifier_plantvillage_0_split_0
I0403 14:53:26.787418 11359 net.cpp:425] loss1/loss <- label_data_1_split_0
…
