…
I0403 15:01:35.179837 11522 net.cpp:313] The NetState phase (1) differed from the phase (0) specified by a rule in layer data
I0403 15:01:35.181051 11522 net.cpp:49] Initializing net from parameters: 
state {
  phase: TEST
}
layer {
  name: "data"
  type: "Data"
  top: "data"
  top: "label"
  include {
    phase: TEST
  }
  transform_param {
    mirror: false
    crop_size: 224
    mean_file: "/home/mohanty/data/final_dataset/lmdb/segmented-40-60/mean.binaryproto"
  }
  data_param {
    source: "/home/mohanty/data/final_dataset/lmdb/segmented-40-60/test_db"
    batch_size: 24
    backend: LMDB
  }
}
layer {
  name: "conv1/7x7_s2"
  type: "Convolution"
  bottom: "data"
  top: "conv1/7x7_s2"
  param {
    lr_mult: 1
    decay_mult: 1
  }
  param {
    lr_mult: 2
    decay_mult: 0
  }
  convolution_param {
    num_output: 64
    pad: 3
    kernel_size: 7
    stride: 2
    weight_filler {
      type: "xavier"
      std: 0.1
    }
    bias_filler {
      type: "constant"
      value: 0.2
    }
  }
}
layer {
  name: "conv1/relu_7x7"
  type: "ReLU"
  bottom: "conv1/7x7_s2"
  top: "conv1/7x7_s2"
}
layer {
  name: "pool1/3x3_s2"
  type: "Pooling"
  bottom: "conv1/7x7_s2"
  top: "pool1/3x3_s2"
  pooling_param {
    pool: MAX
    kernel_size: 3
    stride: 2
  }
}
layer {
  name: "pool1/norm1"
  type: "LRN"
  bottom: "pool1/3x3_s2"
  top: "pool1/norm1"
  lrn_param {
    local_size: 5
    alpha: 0.0001
    beta: 0.75
  }
}
layer {
  name: "conv2/3x3_reduce"
  type: "Convolution"
  bottom: "pool1/norm1"
  top: "conv2/3x3_reduce"
  param {
    lr_mult: 1
    decay_mult: 1
  }
  param {
    lr_mult: 2
    decay_mult: 0
  }
  convolution_param {
    num_output: 64
    kernel_size: 1
    weight_filler {
      type: "xavier"
      std: 0.1
    }
    bias_filler {
      type: "constant"
      value: 0.2
    }
  }
}
layer {
  name: "conv2/relu_3x3_reduce"
  type: "ReLU"
  bottom: "conv2/3x3_reduce"
  top: "conv2/3x3_reduce"
}
layer {
  name: "conv2/3x3"
  type: "Convolution"
  bottom: "conv2/3x3_reduce"
  top: "conv2/3x3"
  param {
    lr_mult: 1
    decay_mult: 1
  }
  param {
    lr_mult: 2
    decay_mult: 0
  }
  convolution_param {
    num_output: 192
    pad: 1
    kernel_size: 3
    weight_filler {
      type: "xavier"
      std: 0.03
    }
    bias_filler {
      type: "constant"
      value: 0.2
    }
  }
}
layer {
  name: "conv2/relu_3x3"
  type: "ReLU"
  bottom: "conv2/3x3"
  top: "conv2/3x3"
}
layer {
  name: "conv2/norm2"
  type: "LRN"
  bottom: "conv2/3x3"
  top: "conv2/norm2"
  lrn_param {
    local_size: 5
    alpha: 0.0001
    beta: 0.75
  }
}
layer {
  name: "pool2/3x3_s2"
  type: "Pooling"
  bottom: "conv2/norm2"
  top: "pool2/3x3_s2"
  pooling_param {
    pool: MAX
    kernel_size: 3
    stride: 2
  }
}
layer {
  name: "inception_3a/1x1"
  type: "Convolution"
  bottom: "pool2/3x3_s2"
  top: "inception_3a/1x1"
  param {
    lr_mult: 1
    decay_mult: 1
  }
  param {
    lr_mult: 2
    decay_mult: 0
  }
  convolution_param {
    num_output: 64
    kernel_size: 1
    weight_filler {
      type: "xavier"
      std: 0.03
    }
    bias_filler {
      type: "constant"
      value: 0.2
    }
  }
}
layer {
  name: "inception_3a/relu_1x1"
  type: "ReLU"
  bottom: "inception_3a/1x1"
  top: "inception_3a/1x1"
}
layer {
  name: "inception_3a/3x3_reduce"
  type: "Convolution"
  bottom: "pool2/3x3_s2"
  top: "inception_3a/3x3_reduce"
  param {
    lr_mult: 1
    decay_mult: 1
  }
  param {
    lr_mult: 2
    decay_mult: 0
  }
  convolution_param {
    num_output: 96
    kernel_size: 1
    weight_filler {
      type: "xavier"
      std: 0.09
    }
    bias_filler {
      type: "constant"
      value: 0.2
    }
  }
}
layer {
  name: "inception_3a/relu_3x3_reduce"
  type: "ReLU"
  bottom: "inception_3a/3x3_reduce"
  top: "inception_3a/3x3_reduce"
}
layer {
  name: "inception_3a/3x3"
  type: "Convolution"
  bottom: "inception_3a/3x3_reduce"
  top: "inception_3a/3x3"
  param {
    lr_mult: 1
    decay_mult: 1
  }
  param {
    lr_mult: 2
    decay_mult: 0
  }
  convolution_param {
    num_output: 128
    pad: 1
    kernel_size: 3
    weight_filler {
      type: "xavier"
      std: 0.03
    }
    bias_filler {
      type: "constant"
      value: 0.2
    }
  }
}
layer {
  name: "inception_3a/relu_3x3"
  type: "ReLU"
  bottom: "inception_3a/3x3"
  top: "inception_3a/3x3"
}
layer {
  name: "inception_3a/5x5_reduce"
  type: "Convolution"
  bottom: "pool2/3x3_s2"
  top: "inception_3a/5x5_reduce"
  param {
    lr_mult: 1
    decay_mult: 1
  }
  param {
    lr_mult: 2
    decay_mult: 0
  }
  convolution_param {
    num_output: 16
    kernel_size: 1
    weight_filler {
      type: "xavier"
      std: 0.2
    }
    bias_filler {
      type: "constant"
      value: 0.2
    }
  }
}
layer {
  name: "inception_3a/relu_5x5_reduce"
  type: "ReLU"
  bottom: "inception_3a/5x5_reduce"
  top: "inception_3a/5x5_reduce"
}
layer {
  name: "inception_3a/5x5"
  type: "Convolution"
  bottom: "inception_3a/5x5_reduce"
  top: "inception_3a/5x5"
  param {
    lr_mult: 1
    decay_mult: 1
  }
  param {
    lr_mult: 2
    decay_mult: 0
  }
  convolution_param {
    num_output: 32
    pad: 2
    kernel_size: 5
    weight_filler {
      type: "xavier"
      std: 0.03
    }
    bias_filler {
      type: "constant"
      value: 0.2
    }
  }
}
layer {
  name: "inception_3a/relu_5x5"
  type: "ReLU"
  bottom: "inception_3a/5x5"
  top: "inception_3a/5x5"
}
layer {
  name: "inception_3a/pool"
  type: "Pooling"
  bottom: "pool2/3x3_s2"
  top: "inception_3a/pool"
  pooling_param {
    pool: MAX
    kernel_size: 3
    stride: 1
    pad: 1
  }
}
layer {
  name: "inception_3a/pool_proj"
  type: "Convolution"
  bottom: "inception_3a/pool"
  top: "inception_3a/pool_proj"
  param {
    lr_mult: 1
    decay_mult: 1
  }
  param {
    lr_mult: 2
    decay_mult: 0
  }
  convolution_param {
    num_output: 32
    kernel_size: 1
    weight_filler {
      type: "xavier"
      std: 0.1
    }
    bias_filler {
      type: "constant"
      value: 0.2
    }
  }
}
layer {
  name: "inception_3a/relu_pool_proj"
  type: "ReLU"
  bottom: "inception_3a/pool_proj"
  top: "inception_3a/pool_proj"
}
layer {
  name: "inception_3a/output"
  type: "Concat"
  bottom: "inception_3a/1x1"
  bottom: "inception_3a/3x3"
  bottom: "inception_3a/5x5"
  bottom: "inception_3a/pool_proj"
  top: "inception_3a/output"
}
layer {
  name: "inception_3b/1x1"
  type: "Convolution"
  bottom: "inception_3a/output"
  top: "inception_3b/1x1"
  param {
    lr_mult: 1
    decay_mult: 1
  }
  param {
    lr_mult: 2
    decay_mult: 0
  }
  convolution_param {
    num_output: 128
    kernel_size: 1
    weight_filler {
      type: "xavier"
      std: 0.03
    }
    bias_filler {
      type: "constant"
      value: 0.2
    }
  }
}
layer {
  name: "inception_3b/relu_1x1"
  type: "ReLU"
  bottom: "inception_3b/1x1"
  top: "inception_3b/1x1"
}
layer {
  name: "inception_3b/3x3_reduce"
  type: "Convolution"
  bottom: "inception_3a/output"
  top: "inception_3b/3x3_reduce"
  param {
    lr_mult: 1
    decay_mult: 1
  }
  param {
    lr_mult: 2
    decay_mult: 0
  }
  convolution_param {
    num_output: 128
    kernel_size: 1
    weight_filler {
      type: "xavier"
      std: 0.09
    }
    bias_filler {
      type: "constant"
      value: 0.2
    }
  }
}
layer {
  name: "inception_3b/relu_3x3_reduce"
  type: "ReLU"
  bottom: "inception_3b/3x3_reduce"
  top: "inception_3b/3x3_reduce"
}
layer {
  name: "inception_3b/3x3"
  type: "Convolution"
  bottom: "inception_3b/3x3_reduce"
  top: "inception_3b/3x3"
  param {
    lr_mult: 1
    decay_mult: 1
  }
  param {
    lr_mult: 2
    decay_mult: 0
  }
  convolution_param {
    num_output: 192
    pad: 1
    kernel_size: 3
    weight_filler {
      type: "xavier"
      std: 0.03
    }
    bias_filler {
      type: "constant"
      value: 0.2
    }
  }
}
layer {
  name: "inception_3b/relu_3x3"
  type: "ReLU"
  bottom: "inception_3b/3x3"
  top: "inception_3b/3x3"
}
layer {
  name: "inception_3b/5x5_reduce"
  type: "Convolution"
  bottom: "inception_3a/output"
  top: "inception_3b/5x5_reduce"
  param {
    lr_mult: 1
    decay_mult: 1
  }
  param {
    lr_mult: 2
    decay_mult: 0
  }
  convolution_param {
    num_output: 32
    kernel_size: 1
    weight_filler {
      type: "xavier"
      std: 0.2
    }
    bias_filler {
      type: "constant"
      value: 0.2
    }
  }
}
layer {
  name: "inception_3b/relu_5x5_reduce"
  type: "ReLU"
  bottom: "inception_3b/5x5_reduce"
  top: "inception_3b/5x5_reduce"
}
layer {
  name: "inception_3b/5x5"
  type: "Convolution"
  bottom: "inception_3b/5x5_reduce"
  top: "inception_3b/5x5"
  param {
    lr_mult: 1
    decay_mult: 1
  }
  param {
    lr_mult: 2
    decay_mult: 0
  }
  convolution_param {
    num_output: 96
    pad: 2
    kernel_size: 5
    weight_filler {
      type: "xavier"
      std: 0.03
    }
    bias_filler {
      type: "constant"
      value: 0.2
    }
  }
}
layer {
  name: "inception_3b/relu_5x5"
  type: "ReLU"
  bottom: "inception_3b/5x5"
  top: "inception_3b/5x5"
}
layer {
  name: "inception_3b/pool"
  type: "Pooling"
  bottom: "inception_3a/output"
  top: "inception_3b/pool"
  pooling_param {
    pool: MAX
    kernel_size: 3
    stride: 1
    pad: 1
  }
}
layer {
  name: "inception_3b/pool_proj"
  type: "Convolution"
  bottom: "inception_3b/pool"
  top: "inception_3b/pool_proj"
  param {
    lr_mult: 1
    decay_mult: 1
  }
  param {
    lr_mult: 2
    decay_mult: 0
  }
  convolution_param {
    num_output: 64
    kernel_size: 1
    weight_filler {
      type: "xavier"
      std: 0.1
    }
    bias_filler {
      type: "constant"
      value: 0.2
    }
  }
}
layer {
  name: "inception_3b/relu_pool_proj"
  type: "ReLU"
  bottom: "inception_3b/pool_proj"
  top: "inception_3b/pool_proj"
}
layer {
  name: "inception_3b/output"
  type: "Concat"
  bottom: "inception_3b/1x1"
  bottom: "inception_3b/3x3"
  bottom: "inception_3b/5x5"
  bottom: "inception_3b/pool_proj"
  top: "inception_3b/output"
}
layer {
  name: "pool3/3x3_s2"
  type: "Pooling"
  bottom: "inception_3b/output"
  top: "pool3/3x3_s2"
  pooling_param {
    pool: MAX
    kernel_size: 3
    stride: 2
  }
}
layer {
  name: "inception_4a/1x1"
  type: "Convolution"
  bottom: "pool3/3x3_s2"
  top: "inception_4a/1x1"
  param {
    lr_mult: 1
    decay_mult: 1
  }
  param {
    lr_mult: 2
    decay_mult: 0
  }
  convolution_param {
    num_output: 192
    kernel_size: 1
    weight_filler {
      type: "xavier"
      std: 0.03
    }
    bias_filler {
      type: "constant"
      value: 0.2
    }
  }
}
layer {
  name: "inception_4a/relu_1x1"
  type: "ReLU"
  bottom: "inception_4a/1x1"
  top: "inception_4a/1x1"
}
layer {
  name: "inception_4a/3x3_reduce"
  type: "Convolution"
  bottom: "pool3/3x3_s2"
  top: "inception_4a/3x3_reduce"
  param {
    lr_mult: 1
    decay_mult: 1
  }
  param {
    lr_mult: 2
    decay_mult: 0
  }
  convolution_param {
    num_output: 96
    kernel_size: 1
    weight_filler {
      type: "xavier"
      std: 0.09
    }
    bias_filler {
      type: "constant"
      value: 0.2
    }
  }
}
layer {
  name: "inception_4a/relu_3x3_reduce"
  type: "ReLU"
  bottom: "inception_4a/3x3_reduce"
  top: "inception_4a/3x3_reduce"
}
layer {
  name: "inception_4a/3x3"
  type: "Convolution"
  bottom: "inception_4a/3x3_reduce"
  top: "inception_4a/3x3"
  param {
    lr_mult: 1
    decay_mult: 1
  }
  param {
    lr_mult: 2
    decay_mult: 0
  }
  convolution_param {
    num_output: 208
    pad: 1
    kernel_size: 3
    weight_filler {
      type: "xavier"
      std: 0.03
    }
    bias_filler {
      type: "constant"
      value: 0.2
    }
  }
}
layer {
  name: "inception_4a/relu_3x3"
  type: "ReLU"
  bottom: "inception_4a/3x3"
  top: "inception_4a/3x3"
}
layer {
  name: "inception_4a/5x5_reduce"
  type: "Convolution"
  bottom: "pool3/3x3_s2"
  top: "inception_4a/5x5_reduce"
  param {
    lr_mult: 1
    decay_mult: 1
  }
  param {
    lr_mult: 2
    decay_mult: 0
  }
  convolution_param {
    num_output: 16
    kernel_size: 1
    weight_filler {
      type: "xavier"
      std: 0.2
    }
    bias_filler {
      type: "constant"
      value: 0.2
    }
  }
}
layer {
  name: "inception_4a/relu_5x5_reduce"
  type: "ReLU"
  bottom: "inception_4a/5x5_reduce"
  top: "inception_4a/5x5_reduce"
}
layer {
  name: "inception_4a/5x5"
  type: "Convolution"
  bottom: "inception_4a/5x5_reduce"
  top: "inception_4a/5x5"
  param {
    lr_mult: 1
    decay_mult: 1
  }
  param {
    lr_mult: 2
    decay_mult: 0
  }
  convolution_param {
    num_output: 48
    pad: 2
    kernel_size: 5
    weight_filler {
      type: "xavier"
      std: 0.03
    }
    bias_filler {
      type: "constant"
      value: 0.2
    }
  }
}
layer {
  name: "inception_4a/relu_5x5"
  type: "ReLU"
  bottom: "inception_4a/5x5"
  top: "inception_4a/5x5"
}
layer {
  name: "inception_4a/pool"
  type: "Pooling"
  bottom: "pool3/3x3_s2"
  top: "inception_4a/pool"
  pooling_param {
    pool: MAX
    kernel_size: 3
    stride: 1
    pad: 1
  }
}
layer {
  name: "inception_4a/pool_proj"
  type: "Convolution"
  bottom: "inception_4a/pool"
  top: "inception_4a/pool_proj"
  param {
    lr_mult: 1
    decay_mult: 1
  }
  param {
    lr_mult: 2
    decay_mult: 0
  }
  convolution_param {
    num_output: 64
    kernel_size: 1
    weight_filler {
      type: "xavier"
      std: 0.1
    }
    bias_filler {
      type: "constant"
      value: 0.2
    }
  }
}
layer {
  name: "inception_4a/relu_pool_proj"
  type: "ReLU"
  bottom: "inception_4a/pool_proj"
  top: "inception_4a/pool_proj"
}
layer {
  name: "inception_4a/output"
  type: "Concat"
  bottom: "inception_4a/1x1"
  bottom: "inception_4a/3x3"
  bottom: "inception_4a/5x5"
  bottom: "inception_4a/pool_proj"
  top: "inception_4a/output"
}
layer {
  name: "loss1/ave_pool"
  type: "Pooling"
  bottom: "inception_4a/output"
  top: "loss1/ave_pool"
  pooling_param {
    pool: AVE
    kernel_size: 5
    stride: 3
  }
}
layer {
  name: "loss1/conv"
  type: "Convolution"
  bottom: "loss1/ave_pool"
  top: "loss1/conv"
  param {
    lr_mult: 1
    decay_mult: 1
  }
  param {
    lr_mult: 2
    decay_mult: 0
  }
  convolution_param {
    num_output: 128
    kernel_size: 1
    weight_filler {
      type: "xavier"
      std: 0.08
    }
    bias_filler {
      type: "constant"
      value: 0.2
    }
  }
}
layer {
  name: "loss1/relu_conv"
  type: "ReLU"
  bottom: "loss1/conv"
  top: "loss1/conv"
}
layer {
  name: "loss1/fc"
  type: "InnerProduct"
  bottom: "loss1/conv"
  top: "loss1/fc"
  param {
    lr_mult: 1
    decay_mult: 1
  }
  param {
    lr_mult: 2
    decay_mult: 0
  }
  inner_product_param {
    num_output: 1024
    weight_filler {
      type: "xavier"
      std: 0.02
    }
    bias_filler {
      type: "constant"
      value: 0.2
    }
  }
}
layer {
  name: "loss1/relu_fc"
  type: "ReLU"
  bottom: "loss1/fc"
  top: "loss1/fc"
}
layer {
  name: "loss1/drop_fc"
  type: "Dropout"
  bottom: "loss1/fc"
  top: "loss1/fc"
  dropout_param {
    dropout_ratio: 0.7
  }
}
layer {
  name: "loss1/classifier_plantvillage"
  type: "InnerProduct"
  bottom: "loss1/fc"
  top: "loss1/classifier_plantvillage"
  param {
    lr_mult: 1
    decay_mult: 1
  }
  param {
    lr_mult: 2
    decay_mult: 0
  }
  inner_product_param {
    num_output: 38
    weight_filler {
      type: "xavier"
      std: 0.0009765625
    }
    bias_filler {
      type: "constant"
      value: 0
    }
  }
}
layer {
  name: "inception_4b/1x1"
  type: "Convolution"
  bottom: "inception_4a/output"
  top: "inception_4b/1x1"
  param {
    lr_mult: 1
    decay_mult: 1
  }
  param {
    lr_mult: 2
    decay_mult: 0
  }
  convolution_param {
    num_output: 160
    kernel_size: 1
    weight_filler {
      type: "xavier"
      std: 0.03
    }
    bias_filler {
      type: "constant"
      value: 0.2
    }
  }
}
layer {
  name: "inception_4b/relu_1x1"
  type: "ReLU"
  bottom: "inception_4b/1x1"
  top: "inception_4b/1x1"
}
layer {
  name: "inception_4b/3x3_reduce"
  type: "Convolution"
  bottom: "inception_4a/output"
  top: "inception_4b/3x3_reduce"
  param {
    lr_mult: 1
    decay_mult: 1
  }
  param {
    lr_mult: 2
    decay_mult: 0
  }
  convolution_param {
    num_output: 112
    kernel_size: 1
    weight_filler {
      type: "xavier"
      std: 0.09
    }
    bias_filler {
      type: "constant"
      value: 0.2
    }
  }
}
layer {
  name: "inception_4b/relu_3x3_reduce"
  type: "ReLU"
  bottom: "inception_4b/3x3_reduce"
  top: "inception_4b/3x3_reduce"
}
layer {
  name: "inception_4b/3x3"
  type: "Convolution"
  bottom: "inception_4b/3x3_reduce"
  top: "inception_4b/3x3"
  param {
    lr_mult: 1
    decay_mult: 1
  }
  param {
    lr_mult: 2
    decay_mult: 0
  }
  convolution_param {
    num_output: 224
    pad: 1
    kernel_size: 3
    weight_filler {
      type: "xavier"
      std: 0.03
    }
    bias_filler {
      type: "constant"
      value: 0.2
    }
  }
}
layer {
  name: "inception_4b/relu_3x3"
  type: "ReLU"
  bottom: "inception_4b/3x3"
  top: "inception_4b/3x3"
}
layer {
  name: "inception_4b/5x5_reduce"
  type: "Convolution"
  bottom: "inception_4a/output"
  top: "inception_4b/5x5_reduce"
  param {
    lr_mult: 1
    decay_mult: 1
  }
  param {
    lr_mult: 2
    decay_mult: 0
  }
  convolution_param {
    num_output: 24
    kernel_size: 1
    weight_filler {
      type: "xavier"
      std: 0.2
    }
    bias_filler {
      type: "constant"
      value: 0.2
    }
  }
}
layer {
  name: "inception_4b/relu_5x5_reduce"
  type: "ReLU"
  bottom: "inception_4b/5x5_reduce"
  top: "inception_4b/5x5_reduce"
}
layer {
  name: "inception_4b/5x5"
  type: "Convolution"
  bottom: "inception_4b/5x5_reduce"
  top: "inception_4b/5x5"
  param {
    lr_mult: 1
    decay_mult: 1
  }
  param {
    lr_mult: 2
    decay_mult: 0
  }
  convolution_param {
    num_output: 64
    pad: 2
    kernel_size: 5
    weight_filler {
      type: "xavier"
      std: 0.03
    }
    bias_filler {
      type: "constant"
      value: 0.2
    }
  }
}
layer {
  name: "inception_4b/relu_5x5"
  type: "ReLU"
  bottom: "inception_4b/5x5"
  top: "inception_4b/5x5"
}
layer {
  name: "inception_4b/pool"
  type: "Pooling"
  bottom: "inception_4a/output"
  top: "inception_4b/pool"
  pooling_param {
    pool: MAX
    kernel_size: 3
    stride: 1
    pad: 1
  }
}
layer {
  name: "inception_4b/pool_proj"
  type: "Convolution"
  bottom: "inception_4b/pool"
  top: "inception_4b/pool_proj"
  param {
    lr_mult: 1
    decay_mult: 1
  }
  param {
    lr_mult: 2
    decay_mult: 0
  }
  convolution_param {
    num_output: 64
    kernel_size: 1
    weight_filler {
      type: "xavier"
      std: 0.1
    }
    bias_filler {
      type: "constant"
      value: 0.2
    }
  }
}
layer {
  name: "inception_4b/relu_pool_proj"
  type: "ReLU"
  bottom: "inception_4b/pool_proj"
  top: "inception_4b/pool_proj"
}
layer {
  name: "inception_4b/output"
  type: "Concat"
  bottom: "inception_4b/1x1"
  bottom: "inception_4b/3x3"
  bottom: "inception_4b/5x5"
  bottom: "inception_4b/pool_proj"
  top: "inception_4b/output"
}
layer {
  name: "inception_4c/1x1"
  type: "Convolution"
  bottom: "inception_4b/output"
  top: "inception_4c/1x1"
  param {
    lr_mult: 1
    decay_mult: 1
  }
  param {
    lr_mult: 2
    decay_mult: 0
  }
  convolution_param {
    num_output: 128
    kernel_size: 1
    weight_filler {
      type: "xavier"
      std: 0.03
    }
    bias_filler {
      type: "constant"
      value: 0.2
    }
  }
}
layer {
  name: "inception_4c/relu_1x1"
  type: "ReLU"
  bottom: "inception_4c/1x1"
  top: "inception_4c/1x1"
}
layer {
  name: "inception_4c/3x3_reduce"
  type: "Convolution"
  bottom: "inception_4b/output"
  top: "inception_4c/3x3_reduce"
  param {
    lr_mult: 1
    decay_mult: 1
  }
  param {
    lr_mult: 2
    decay_mult: 0
  }
  convolution_param {
    num_output: 128
    kernel_size: 1
    weight_filler {
      type: "xavier"
      std: 0.09
    }
    bias_filler {
      type: "constant"
      value: 0.2
    }
  }
}
layer {
  name: "inception_4c/relu_3x3_reduce"
  type: "ReLU"
  bottom: "inception_4c/3x3_reduce"
  top: "inception_4c/3x3_reduce"
}
layer {
  name: "inception_4c/3x3"
  type: "Convolution"
  bottom: "inception_4c/3x3_reduce"
  top: "inception_4c/3x3"
  param {
    lr_mult: 1
    decay_mult: 1
  }
  param {
    lr_mult: 2
    decay_mult: 0
  }
  convolution_param {
    num_output: 256
    pad: 1
    kernel_size: 3
    weight_filler {
      type: "xavier"
      std: 0.03
    }
    bias_filler {
      type: "constant"
      value: 0.2
    }
  }
}
layer {
  name: "inception_4c/relu_3x3"
  type: "ReLU"
  bottom: "inception_4c/3x3"
  top: "inception_4c/3x3"
}
layer {
  name: "inception_4c/5x5_reduce"
  type: "Convolution"
  bottom: "inception_4b/output"
  top: "inception_4c/5x5_reduce"
  param {
    lr_mult: 1
    decay_mult: 1
  }
  param {
    lr_mult: 2
    decay_mult: 0
  }
  convolution_param {
    num_output: 24
    kernel_size: 1
    weight_filler {
      type: "xavier"
      std: 0.2
    }
    bias_filler {
      type: "constant"
      value: 0.2
    }
  }
}
layer {
  name: "inception_4c/relu_5x5_reduce"
  type: "ReLU"
  bottom: "inception_4c/5x5_reduce"
  top: "inception_4c/5x5_reduce"
}
layer {
  name: "inception_4c/5x5"
  type: "Convolution"
  bottom: "inception_4c/5x5_reduce"
  top: "inception_4c/5x5"
  param {
    lr_mult: 1
    decay_mult: 1
  }
  param {
    lr_mult: 2
    decay_mult: 0
  }
  convolution_param {
    num_output: 64
    pad: 2
    kernel_size: 5
    weight_filler {
      type: "xavier"
      std: 0.03
    }
    bias_filler {
      type: "constant"
      value: 0.2
    }
  }
}
layer {
  name: "inception_4c/relu_5x5"
  type: "ReLU"
  bottom: "inception_4c/5x5"
  top: "inception_4c/5x5"
}
layer {
  name: "inception_4c/pool"
  type: "Pooling"
  bottom: "inception_4b/output"
  top: "inception_4c/pool"
  pooling_param {
    pool: MAX
    kernel_size: 3
    stride: 1
    pad: 1
  }
}
layer {
  name: "inception_4c/pool_proj"
  type: "Convolution"
  bottom: "inception_4c/pool"
  top: "inception_4c/pool_proj"
  param {
    lr_mult: 1
    decay_mult: 1
  }
  param {
    lr_mult: 2
    decay_mult: 0
  }
  convolution_param {
    num_output: 64
    kernel_size: 1
    weight_filler {
      type: "xavier"
      std: 0.1
    }
    bias_filler {
      type: "constant"
      value: 0.2
    }
  }
}
layer {
  name: "inception_4c/relu_pool_proj"
  type: "ReLU"
  bottom: "inception_4c/pool_proj"
  top: "inception_4c/pool_proj"
}
layer {
  name: "inception_4c/output"
  type: "Concat"
  bottom: "inception_4c/1x1"
  bottom: "inception_4c/3x3"
  bottom: "inception_4c/5x5"
  bottom: "inception_4c/pool_proj"
  top: "inception_4c/output"
}
layer {
  name: "inception_4d/1x1"
  type: "Convolution"
  bottom: "inception_4c/output"
  top: "inception_4d/1x1"
  param {
    lr_mult: 1
    decay_mult: 1
  }
  param {
    lr_mult: 2
    decay_mult: 0
  }
  convolution_param {
    num_output: 112
    kernel_size: 1
    weight_filler {
      type: "xavier"
      std: 0.03
    }
    bias_filler {
      type: "constant"
      value: 0.2
    }
  }
}
layer {
  name: "inception_4d/relu_1x1"
  type: "ReLU"
  bottom: "inception_4d/1x1"
  top: "inception_4d/1x1"
}
layer {
  name: "inception_4d/3x3_reduce"
  type: "Convolution"
  bottom: "inception_4c/output"
  top: "inception_4d/3x3_reduce"
  param {
    lr_mult: 1
    decay_mult: 1
  }
  param {
    lr_mult: 2
    decay_mult: 0
  }
  convolution_param {
    num_output: 144
    kernel_size: 1
    weight_filler {
      type: "xavier"
      std: 0.09
    }
    bias_filler {
      type: "constant"
      value: 0.2
    }
  }
}
layer {
  name: "inception_4d/relu_3x3_reduce"
  type: "ReLU"
  bottom: "inception_4d/3x3_reduce"
  top: "inception_4d/3x3_reduce"
}
layer {
  name: "inception_4d/3x3"
  type: "Convolution"
  bottom: "inception_4d/3x3_reduce"
  top: "inception_4d/3x3"
  param {
    lr_mult: 1
    decay_mult: 1
  }
  param {
    lr_mult: 2
    decay_mult: 0
  }
  convolution_param {
    num_output: 288
    pad: 1
    kernel_size: 3
    weight_filler {
      type: "xavier"
      std: 0.03
    }
    bias_filler {
      type: "constant"
      value: 0.2
    }
  }
}
layer {
  name: "inception_4d/relu_3x3"
  type: "ReLU"
  bottom: "inception_4d/3x3"
  top: "inception_4d/3x3"
}
layer {
  name: "inception_4d/5x5_reduce"
  type: "Convolution"
  bottom: "inception_4c/output"
  top: "inception_4d/5x5_reduce"
  param {
    lr_mult: 1
    decay_mult: 1
  }
  param {
    lr_mult: 2
    decay_mult: 0
  }
  convolution_param {
    num_output: 32
    kernel_size: 1
    weight_filler {
      type: "xavier"
      std: 0.2
    }
    bias_filler {
      type: "constant"
      value: 0.2
    }
  }
}
layer {
  name: "inception_4d/relu_5x5_reduce"
  type: "ReLU"
  bottom: "inception_4d/5x5_reduce"
  top: "inception_4d/5x5_reduce"
}
layer {
  name: "inception_4d/5x5"
  type: "Convolution"
  bottom: "inception_4d/5x5_reduce"
  top: "inception_4d/5x5"
  param {
    lr_mult: 1
    decay_mult: 1
  }
  param {
    lr_mult: 2
    decay_mult: 0
  }
  convolution_param {
    num_output: 64
    pad: 2
    kernel_size: 5
    weight_filler {
      type: "xavier"
      std: 0.03
    }
    bias_filler {
      type: "constant"
      value: 0.2
    }
  }
}
layer {
  name: "inception_4d/relu_5x5"
  type: "ReLU"
  bottom: "inception_4d/5x5"
  top: "inception_4d/5x5"
}
layer {
  name: "inception_4d/pool"
  type: "Pooling"
  bottom: "inception_4c/output"
  top: "inception_4d/pool"
  pooling_param {
    pool: MAX
    kernel_size: 3
    stride: 1
    pad: 1
  }
}
layer {
  name: "inception_4d/pool_proj"
  type: "Convolution"
  bottom: "inception_4d/pool"
  top: "inception_4d/pool_proj"
  param {
    lr_mult: 1
    decay_mult: 1
  }
  param {
    lr_mult: 2
    decay_mult: 0
  }
  convolution_param {
    num_output: 64
    kernel_size: 1
    weight_filler {
      type: "xavier"
      std: 0.1
    }
    bias_filler {
      type: "constant"
      value: 0.2
    }
  }
}
layer {
  name: "inception_4d/relu_pool_proj"
  type: "ReLU"
  bottom: "inception_4d/pool_proj"
  top: "inception_4d/pool_proj"
}
layer {
  name: "inception_4d/output"
  type: "Concat"
  bottom: "inception_4d/1x1"
  bottom: "inception_4d/3x3"
  bottom: "inception_4d/5x5"
  bottom: "inception_4d/pool_proj"
  top: "inception_4d/output"
}
layer {
  name: "loss2/ave_pool"
  type: "Pooling"
  bottom: "inception_4d/output"
  top: "loss2/ave_pool"
  pooling_param {
    pool: AVE
    kernel_size: 5
    stride: 3
  }
}
layer {
  name: "loss2/conv"
  type: "Convolution"
  bottom: "loss2/ave_pool"
  top: "loss2/conv"
  param {
    lr_mult: 1
    decay_mult: 1
  }
  param {
    lr_mult: 2
    decay_mult: 0
  }
  convolution_param {
    num_output: 128
    kernel_size: 1
    weight_filler {
      type: "xavier"
      std: 0.08
    }
    bias_filler {
      type: "constant"
      value: 0.2
    }
  }
}
layer {
  name: "loss2/relu_conv"
  type: "ReLU"
  bottom: "loss2/conv"
  top: "loss2/conv"
}
layer {
  name: "loss2/fc"
  type: "InnerProduct"
  bottom: "loss2/conv"
  top: "loss2/fc"
  param {
    lr_mult: 1
    decay_mult: 1
  }
  param {
    lr_mult: 2
    decay_mult: 0
  }
  inner_product_param {
    num_output: 1024
    weight_filler {
      type: "xavier"
      std: 0.02
    }
    bias_filler {
      type: "constant"
      value: 0.2
    }
  }
}
layer {
  name: "loss2/relu_fc"
  type: "ReLU"
  bottom: "loss2/fc"
  top: "loss2/fc"
}
layer {
  name: "loss2/drop_fc"
  type: "Dropout"
  bottom: "loss2/fc"
  top: "loss2/fc"
  dropout_param {
    dropout_ratio: 0.7
  }
}
layer {
  name: "loss2/classifier_plantvillage"
  type: "InnerProduct"
  bottom: "loss2/fc"
  top: "loss2/classifier_plantvillage"
  param {
    lr_mult: 1
    decay_mult: 1
  }
  param {
    lr_mult: 2
    decay_mult: 0
  }
  inner_product_param {
    num_output: 38
    weight_filler {
      type: "xavier"
      std: 0.0009765625
    }
    bias_filler {
      type: "constant"
      value: 0
    }
  }
}
layer {
  name: "inception_4e/1x1"
  type: "Convolution"
  bottom: "inception_4d/output"
  top: "inception_4e/1x1"
  param {
    lr_mult: 1
    decay_mult: 1
  }
  param {
    lr_mult: 2
    decay_mult: 0
  }
  convolution_param {
    num_output: 256
    kernel_size: 1
    weight_filler {
      type: "xavier"
      std: 0.03
    }
    bias_filler {
      type: "constant"
      value: 0.2
    }
  }
}
layer {
  name: "inception_4e/relu_1x1"
  type: "ReLU"
  bottom: "inception_4e/1x1"
  top: "inception_4e/1x1"
}
layer {
  name: "inception_4e/3x3_reduce"
  type: "Convolution"
  bottom: "inception_4d/output"
  top: "inception_4e/3x3_reduce"
  param {
    lr_mult: 1
    decay_mult: 1
  }
  param {
    lr_mult: 2
    decay_mult: 0
  }
  convolution_param {
    num_output: 160
    kernel_size: 1
    weight_filler {
      type: "xavier"
      std: 0.09
    }
    bias_filler {
      type: "constant"
      value: 0.2
    }
  }
}
layer {
  name: "inception_4e/relu_3x3_reduce"
  type: "ReLU"
  bottom: "inception_4e/3x3_reduce"
  top: "inception_4e/3x3_reduce"
}
layer {
  name: "inception_4e/3x3"
  type: "Convolution"
  bottom: "inception_4e/3x3_reduce"
  top: "inception_4e/3x3"
  param {
    lr_mult: 1
    decay_mult: 1
  }
  param {
    lr_mult: 2
    decay_mult: 0
  }
  convolution_param {
    num_output: 320
    pad: 1
    kernel_size: 3
    weight_filler {
      type: "xavier"
      std: 0.03
    }
    bias_filler {
      type: "constant"
      value: 0.2
    }
  }
}
layer {
  name: "inception_4e/relu_3x3"
  type: "ReLU"
  bottom: "inception_4e/3x3"
  top: "inception_4e/3x3"
}
layer {
  name: "inception_4e/5x5_reduce"
  type: "Convolution"
  bottom: "inception_4d/output"
  top: "inception_4e/5x5_reduce"
  param {
    lr_mult: 1
    decay_mult: 1
  }
  param {
    lr_mult: 2
    decay_mult: 0
  }
  convolution_param {
    num_output: 32
    kernel_size: 1
    weight_filler {
      type: "xavier"
      std: 0.2
    }
    bias_filler {
      type: "constant"
      value: 0.2
    }
  }
}
layer {
  name: "inception_4e/relu_5x5_reduce"
  type: "ReLU"
  bottom: "inception_4e/5x5_reduce"
  top: "inception_4e/5x5_reduce"
}
layer {
  name: "inception_4e/5x5"
  type: "Convolution"
  bottom: "inception_4e/5x5_reduce"
  top: "inception_4e/
I0403 15:01:35.182315 11522 layer_factory.hpp:77] Creating layer data
I0403 15:01:35.182895 11522 net.cpp:91] Creating Layer data
I0403 15:01:35.182925 11522 net.cpp:399] data -> data
I0403 15:01:35.182976 11522 net.cpp:399] data -> label
I0403 15:01:35.183010 11522 data_transformer.cpp:25] Loading mean file from: /home/mohanty/data/final_dataset/lmdb/segmented-40-60/mean.binaryproto
I0403 15:01:35.185595 11525 db_lmdb.cpp:38] Opened lmdb /home/mohanty/data/final_dataset/lmdb/segmented-40-60/test_db
I0403 15:01:35.196032 11522 data_layer.cpp:41] output data size: 24,3,224,224
I0403 15:01:35.222489 11522 net.cpp:141] Setting up data
I0403 15:01:35.222573 11522 net.cpp:148] Top shape: 24 3 224 224 (3612672)
I0403 15:01:35.222596 11522 net.cpp:148] Top shape: 24 (24)
I0403 15:01:35.222611 11522 net.cpp:156] Memory required for data: 14450784
I0403 15:01:35.222637 11522 layer_factory.hpp:77] Creating layer label_data_1_split
I0403 15:01:35.222664 11522 net.cpp:91] Creating Layer label_data_1_split
I0403 15:01:35.222682 11522 net.cpp:425] label_data_1_split <- label
I0403 15:01:35.222714 11522 net.cpp:399] label_data_1_split -> label_data_1_split_0
I0403 15:01:35.222743 11522 net.cpp:399] label_data_1_split -> label_data_1_split_1
I0403 15:01:35.222764 11522 net.cpp:399] label_data_1_split -> label_data_1_split_2
I0403 15:01:35.222785 11522 net.cpp:399] label_data_1_split -> label_data_1_split_3
I0403 15:01:35.222805 11522 net.cpp:399] label_data_1_split -> label_data_1_split_4
I0403 15:01:35.222825 11522 net.cpp:399] label_data_1_split -> label_data_1_split_5
I0403 15:01:35.222843 11522 net.cpp:399] label_data_1_split -> label_data_1_split_6
I0403 15:01:35.222864 11522 net.cpp:399] label_data_1_split -> label_data_1_split_7
I0403 15:01:35.222883 11522 net.cpp:399] label_data_1_split -> label_data_1_split_8
I0403 15:01:35.222903 11522 net.cpp:399] label_data_1_split -> label_data_1_split_9
I0403 15:01:35.223016 11522 net.cpp:141] Setting up label_data_1_split
I0403 15:01:35.223038 11522 net.cpp:148] Top shape: 24 (24)
I0403 15:01:35.223055 11522 net.cpp:148] Top shape: 24 (24)
I0403 15:01:35.223072 11522 net.cpp:148] Top shape: 24 (24)
I0403 15:01:35.223085 11522 net.cpp:148] Top shape: 24 (24)
I0403 15:01:35.223100 11522 net.cpp:148] Top shape: 24 (24)
I0403 15:01:35.223115 11522 net.cpp:148] Top shape: 24 (24)
I0403 15:01:35.223130 11522 net.cpp:148] Top shape: 24 (24)
I0403 15:01:35.223145 11522 net.cpp:148] Top shape: 24 (24)
I0403 15:01:35.223160 11522 net.cpp:148] Top shape: 24 (24)
I0403 15:01:35.223176 11522 net.cpp:148] Top shape: 24 (24)
I0403 15:01:35.223214 11522 net.cpp:156] Memory required for data: 14451744
I0403 15:01:35.223230 11522 layer_factory.hpp:77] Creating layer conv1/7x7_s2
I0403 15:01:35.223260 11522 net.cpp:91] Creating Layer conv1/7x7_s2
I0403 15:01:35.223279 11522 net.cpp:425] conv1/7x7_s2 <- data
I0403 15:01:35.223297 11522 net.cpp:399] conv1/7x7_s2 -> conv1/7x7_s2
I0403 15:01:35.362468 11522 net.cpp:141] Setting up conv1/7x7_s2
I0403 15:01:35.362556 11522 net.cpp:148] Top shape: 24 64 112 112 (19267584)
I0403 15:01:35.362576 11522 net.cpp:156] Memory required for data: 91522080
I0403 15:01:35.362604 11522 layer_factory.hpp:77] Creating layer conv1/relu_7x7
I0403 15:01:35.362630 11522 net.cpp:91] Creating Layer conv1/relu_7x7
I0403 15:01:35.362648 11522 net.cpp:425] conv1/relu_7x7 <- conv1/7x7_s2
I0403 15:01:35.362666 11522 net.cpp:386] conv1/relu_7x7 -> conv1/7x7_s2 (in-place)
I0403 15:01:35.362922 11522 net.cpp:141] Setting up conv1/relu_7x7
I0403 15:01:35.362948 11522 net.cpp:148] Top shape: 24 64 112 112 (19267584)
I0403 15:01:35.362962 11522 net.cpp:156] Memory required for data: 168592416
I0403 15:01:35.362977 11522 layer_factory.hpp:77] Creating layer pool1/3x3_s2
I0403 15:01:35.363001 11522 net.cpp:91] Creating Layer pool1/3x3_s2
I0403 15:01:35.363018 11522 net.cpp:425] pool1/3x3_s2 <- conv1/7x7_s2
I0403 15:01:35.363036 11522 net.cpp:399] pool1/3x3_s2 -> pool1/3x3_s2
I0403 15:01:35.363111 11522 net.cpp:141] Setting up pool1/3x3_s2
I0403 15:01:35.363134 11522 net.cpp:148] Top shape: 24 64 56 56 (4816896)
I0403 15:01:35.363149 11522 net.cpp:156] Memory required for data: 187860000
I0403 15:01:35.363163 11522 layer_factory.hpp:77] Creating layer pool1/norm1
I0403 15:01:35.363189 11522 net.cpp:91] Creating Layer pool1/norm1
I0403 15:01:35.363206 11522 net.cpp:425] pool1/norm1 <- pool1/3x3_s2
I0403 15:01:35.363225 11522 net.cpp:399] pool1/norm1 -> pool1/norm1
I0403 15:01:35.363528 11522 net.cpp:141] Setting up pool1/norm1
I0403 15:01:35.363555 11522 net.cpp:148] Top shape: 24 64 56 56 (4816896)
I0403 15:01:35.363572 11522 net.cpp:156] Memory required for data: 207127584
I0403 15:01:35.363587 11522 layer_factory.hpp:77] Creating layer conv2/3x3_reduce
I0403 15:01:35.363612 11522 net.cpp:91] Creating Layer conv2/3x3_reduce
I0403 15:01:35.363629 11522 net.cpp:425] conv2/3x3_reduce <- pool1/norm1
I0403 15:01:35.363647 11522 net.cpp:399] conv2/3x3_reduce -> conv2/3x3_reduce
I0403 15:01:35.364995 11522 net.cpp:141] Setting up conv2/3x3_reduce
I0403 15:01:35.365022 11522 net.cpp:148] Top shape: 24 64 56 56 (4816896)
I0403 15:01:35.365038 11522 net.cpp:156] Memory required for data: 226395168
I0403 15:01:35.365059 11522 layer_factory.hpp:77] Creating layer conv2/relu_3x3_reduce
I0403 15:01:35.365082 11522 net.cpp:91] Creating Layer conv2/relu_3x3_reduce
I0403 15:01:35.365098 11522 net.cpp:425] conv2/relu_3x3_reduce <- conv2/3x3_reduce
I0403 15:01:35.365115 11522 net.cpp:386] conv2/relu_3x3_reduce -> conv2/3x3_reduce (in-place)
I0403 15:01:35.365380 11522 net.cpp:141] Setting up conv2/relu_3x3_reduce
I0403 15:01:35.365404 11522 net.cpp:148] Top shape: 24 64 56 56 (4816896)
I0403 15:01:35.365419 11522 net.cpp:156] Memory required for data: 245662752
I0403 15:01:35.365434 11522 layer_factory.hpp:77] Creating layer conv2/3x3
I0403 15:01:35.365458 11522 net.cpp:91] Creating Layer conv2/3x3
I0403 15:01:35.365475 11522 net.cpp:425] conv2/3x3 <- conv2/3x3_reduce
I0403 15:01:35.365495 11522 net.cpp:399] conv2/3x3 -> conv2/3x3
I0403 15:01:35.367727 11522 net.cpp:141] Setting up conv2/3x3
I0403 15:01:35.367758 11522 net.cpp:148] Top shape: 24 192 56 56 (14450688)
I0403 15:01:35.367774 11522 net.cpp:156] Memory required for data: 303465504
I0403 15:01:35.367796 11522 layer_factory.hpp:77] Creating layer conv2/relu_3x3
I0403 15:01:35.367815 11522 net.cpp:91] Creating Layer conv2/relu_3x3
I0403 15:01:35.367831 11522 net.cpp:425] conv2/relu_3x3 <- conv2/3x3
I0403 15:01:35.367848 11522 net.cpp:386] conv2/relu_3x3 -> conv2/3x3 (in-place)
I0403 15:01:35.368017 11522 net.cpp:141] Setting up conv2/relu_3x3
I0403 15:01:35.368043 11522 net.cpp:148] Top shape: 24 192 56 56 (14450688)
I0403 15:01:35.368089 11522 net.cpp:156] Memory required for data: 361268256
I0403 15:01:35.368105 11522 layer_factory.hpp:77] Creating layer conv2/norm2
I0403 15:01:35.368124 11522 net.cpp:91] Creating Layer conv2/norm2
I0403 15:01:35.368139 11522 net.cpp:425] conv2/norm2 <- conv2/3x3
I0403 15:01:35.368160 11522 net.cpp:399] conv2/norm2 -> conv2/norm2
I0403 15:01:35.368455 11522 net.cpp:141] Setting up conv2/norm2
I0403 15:01:35.368482 11522 net.cpp:148] Top shape: 24 192 56 56 (14450688)
I0403 15:01:35.368496 11522 net.cpp:156] Memory required for data: 419071008
I0403 15:01:35.368511 11522 layer_factory.hpp:77] Creating layer pool2/3x3_s2
I0403 15:01:35.368530 11522 net.cpp:91] Creating Layer pool2/3x3_s2
I0403 15:01:35.368544 11522 net.cpp:425] pool2/3x3_s2 <- conv2/norm2
I0403 15:01:35.368563 11522 net.cpp:399] pool2/3x3_s2 -> pool2/3x3_s2
I0403 15:01:35.368614 11522 net.cpp:141] Setting up pool2/3x3_s2
I0403 15:01:35.368638 11522 net.cpp:148] Top shape: 24 192 28 28 (3612672)
I0403 15:01:35.368654 11522 net.cpp:156] Memory required for data: 433521696
I0403 15:01:35.368669 11522 layer_factory.hpp:77] Creating layer pool2/3x3_s2_pool2/3x3_s2_0_split
I0403 15:01:35.368685 11522 net.cpp:91] Creating Layer pool2/3x3_s2_pool2/3x3_s2_0_split
I0403 15:01:35.368700 11522 net.cpp:425] pool2/3x3_s2_pool2/3x3_s2_0_split <- pool2/3x3_s2
I0403 15:01:35.368716 11522 net.cpp:399] pool2/3x3_s2_pool2/3x3_s2_0_split -> pool2/3x3_s2_pool2/3x3_s2_0_split_0
I0403 15:01:35.368737 11522 net.cpp:399] pool2/3x3_s2_pool2/3x3_s2_0_split -> pool2/3x3_s2_pool2/3x3_s2_0_split_1
I0403 15:01:35.368757 11522 net.cpp:399] pool2/3x3_s2_pool2/3x3_s2_0_split -> pool2/3x3_s2_pool2/3x3_s2_0_split_2
I0403 15:01:35.368777 11522 net.cpp:399] pool2/3x3_s2_pool2/3x3_s2_0_split -> pool2/3x3_s2_pool2/3x3_s2_0_split_3
I0403 15:01:35.368844 11522 net.cpp:141] Setting up pool2/3x3_s2_pool2/3x3_s2_0_split
I0403 15:01:35.368865 11522 net.cpp:148] Top shape: 24 192 28 28 (3612672)
I0403 15:01:35.368880 11522 net.cpp:148] Top shape: 24 192 28 28 (3612672)
I0403 15:01:35.368896 11522 net.cpp:148] Top shape: 24 192 28 28 (3612672)
I0403 15:01:35.368909 11522 net.cpp:148] Top shape: 24 192 28 28 (3612672)
I0403 15:01:35.368923 11522 net.cpp:156] Memory required for data: 491324448
I0403 15:01:35.368937 11522 layer_factory.hpp:77] Creating layer inception_3a/1x1
I0403 15:01:35.368959 11522 net.cpp:91] Creating Layer inception_3a/1x1
I0403 15:01:35.368976 11522 net.cpp:425] inception_3a/1x1 <- pool2/3x3_s2_pool2/3x3_s2_0_split_0
I0403 15:01:35.368994 11522 net.cpp:399] inception_3a/1x1 -> inception_3a/1x1
I0403 15:01:35.370515 11522 net.cpp:141] Setting up inception_3a/1x1
I0403 15:01:35.370545 11522 net.cpp:148] Top shape: 24 64 28 28 (1204224)
I0403 15:01:35.370563 11522 net.cpp:156] Memory required for data: 496141344
I0403 15:01:35.370584 11522 layer_factory.hpp:77] Creating layer inception_3a/relu_1x1
I0403 15:01:35.370605 11522 net.cpp:91] Creating Layer inception_3a/relu_1x1
I0403 15:01:35.370622 11522 net.cpp:425] inception_3a/relu_1x1 <- inception_3a/1x1
I0403 15:01:35.370640 11522 net.cpp:386] inception_3a/relu_1x1 -> inception_3a/1x1 (in-place)
I0403 15:01:35.370813 11522 net.cpp:141] Setting up inception_3a/relu_1x1
I0403 15:01:35.370841 11522 net.cpp:148] Top shape: 24 64 28 28 (1204224)
I0403 15:01:35.370859 11522 net.cpp:156] Memory required for data: 500958240
I0403 15:01:35.370874 11522 layer_factory.hpp:77] Creating layer inception_3a/3x3_reduce
I0403 15:01:35.370894 11522 net.cpp:91] Creating Layer inception_3a/3x3_reduce
I0403 15:01:35.370913 11522 net.cpp:425] inception_3a/3x3_reduce <- pool2/3x3_s2_pool2/3x3_s2_0_split_1
I0403 15:01:35.370934 11522 net.cpp:399] inception_3a/3x3_reduce -> inception_3a/3x3_reduce
I0403 15:01:35.372603 11522 net.cpp:141] Setting up inception_3a/3x3_reduce
I0403 15:01:35.372632 11522 net.cpp:148] Top shape: 24 96 28 28 (1806336)
I0403 15:01:35.372649 11522 net.cpp:156] Memory required for data: 508183584
I0403 15:01:35.372674 11522 layer_factory.hpp:77] Creating layer inception_3a/relu_3x3_reduce
I0403 15:01:35.372709 11522 net.cpp:91] Creating Layer inception_3a/relu_3x3_reduce
I0403 15:01:35.372727 11522 net.cpp:425] inception_3a/relu_3x3_reduce <- inception_3a/3x3_reduce
I0403 15:01:35.372745 11522 net.cpp:386] inception_3a/relu_3x3_reduce -> inception_3a/3x3_reduce (in-place)
I0403 15:01:35.372925 11522 net.cpp:141] Setting up inception_3a/relu_3x3_reduce
I0403 15:01:35.372949 11522 net.cpp:148] Top shape: 24 96 28 28 (1806336)
I0403 15:01:35.372964 11522 net.cpp:156] Memory required for data: 515408928
I0403 15:01:35.372979 11522 layer_factory.hpp:77] Creating layer inception_3a/3x3
I0403 15:01:35.373003 11522 net.cpp:91] Creating Layer inception_3a/3x3
I0403 15:01:35.373021 11522 net.cpp:425] inception_3a/3x3 <- inception_3a/3x3_reduce
I0403 15:01:35.373041 11522 net.cpp:399] inception_3a/3x3 -> inception_3a/3x3
I0403 15:01:35.374668 11522 net.cpp:141] Setting up inception_3a/3x3
I0403 15:01:35.374697 11522 net.cpp:148] Top shape: 24 128 28 28 (2408448)
I0403 15:01:35.374714 11522 net.cpp:156] Memory required for data: 525042720
I0403 15:01:35.374733 11522 layer_factory.hpp:77] Creating layer inception_3a/relu_3x3
I0403 15:01:35.374755 11522 net.cpp:91] Creating Layer inception_3a/relu_3x3
I0403 15:01:35.374773 11522 net.cpp:425] inception_3a/relu_3x3 <- inception_3a/3x3
I0403 15:01:35.374790 11522 net.cpp:386] inception_3a/relu_3x3 -> inception_3a/3x3 (in-place)
I0403 15:01:35.375059 11522 net.cpp:141] Setting up inception_3a/relu_3x3
I0403 15:01:35.375085 11522 net.cpp:148] Top shape: 24 128 28 28 (2408448)
I0403 15:01:35.375100 11522 net.cpp:156] Memory required for data: 534676512
I0403 15:01:35.375116 11522 layer_factory.hpp:77] Creating layer inception_3a/5x5_reduce
I0403 15:01:35.375138 11522 net.cpp:91] Creating Layer inception_3a/5x5_reduce
I0403 15:01:35.375156 11522 net.cpp:425] inception_3a/5x5_reduce <- pool2/3x3_s2_pool2/3x3_s2_0_split_2
I0403 15:01:35.375177 11522 net.cpp:399] inception_3a/5x5_reduce -> inception_3a/5x5_reduce
I0403 15:01:35.376097 11522 net.cpp:141] Setting up inception_3a/5x5_reduce
I0403 15:01:35.376127 11522 net.cpp:148] Top shape: 24 16 28 28 (301056)
I0403 15:01:35.376142 11522 net.cpp:156] Memory required for data: 535880736
I0403 15:01:35.376160 11522 layer_factory.hpp:77] Creating layer inception_3a/relu_5x5_reduce
I0403 15:01:35.376181 11522 net.cpp:91] Creating Layer inception_3a/relu_5x5_reduce
I0403 15:01:35.376197 11522 net.cpp:425] inception_3a/relu_5x5_reduce <- inception_3a/5x5_reduce
I0403 15:01:35.376215 11522 net.cpp:386] inception_3a/relu_5x5_reduce -> inception_3a/5x5_reduce (in-place)
I0403 15:01:35.376505 11522 net.cpp:141] Setting up inception_3a/relu_5x5_reduce
I0403 15:01:35.376533 11522 net.cpp:148] Top shape: 24 16 28 28 (301056)
I0403 15:01:35.376549 11522 net.cpp:156] Memory required for data: 537084960
I0403 15:01:35.376564 11522 layer_factory.hpp:77] Creating layer inception_3a/5x5
I0403 15:01:35.376590 11522 net.cpp:91] Creating Layer inception_3a/5x5
I0403 15:01:35.376606 11522 net.cpp:425] inception_3a/5x5 <- inception_3a/5x5_reduce
I0403 15:01:35.376626 11522 net.cpp:399] inception_3a/5x5 -> inception_3a/5x5
I0403 15:01:35.377607 11522 net.cpp:141] Setting up inception_3a/5x5
I0403 15:01:35.377636 11522 net.cpp:148] Top shape: 24 32 28 28 (602112)
I0403 15:01:35.377652 11522 net.cpp:156] Memory required for data: 539493408
I0403 15:01:35.377671 11522 layer_factory.hpp:77] Creating layer inception_3a/relu_5x5
I0403 15:01:35.377692 11522 net.cpp:91] Creating Layer inception_3a/relu_5x5
I0403 15:01:35.377712 11522 net.cpp:425] inception_3a/relu_5x5 <- inception_3a/5x5
I0403 15:01:35.377729 11522 net.cpp:386] inception_3a/relu_5x5 -> inception_3a/5x5 (in-place)
I0403 15:01:35.377909 11522 net.cpp:141] Setting up inception_3a/relu_5x5
I0403 15:01:35.377935 11522 net.cpp:148] Top shape: 24 32 28 28 (602112)
I0403 15:01:35.377950 11522 net.cpp:156] Memory required for data: 541901856
I0403 15:01:35.377964 11522 layer_factory.hpp:77] Creating layer inception_3a/pool
I0403 15:01:35.377981 11522 net.cpp:91] Creating Layer inception_3a/pool
I0403 15:01:35.378010 11522 net.cpp:425] inception_3a/pool <- pool2/3x3_s2_pool2/3x3_s2_0_split_3
I0403 15:01:35.378029 11522 net.cpp:399] inception_3a/pool -> inception_3a/pool
I0403 15:01:35.378087 11522 net.cpp:141] Setting up inception_3a/pool
I0403 15:01:35.378108 11522 net.cpp:148] Top shape: 24 192 28 28 (3612672)
I0403 15:01:35.378123 11522 net.cpp:156] Memory required for data: 556352544
I0403 15:01:35.378137 11522 layer_factory.hpp:77] Creating layer inception_3a/pool_proj
I0403 15:01:35.378159 11522 net.cpp:91] Creating Layer inception_3a/pool_proj
I0403 15:01:35.378175 11522 net.cpp:425] inception_3a/pool_proj <- inception_3a/pool
I0403 15:01:35.378196 11522 net.cpp:399] inception_3a/pool_proj -> inception_3a/pool_proj
I0403 15:01:35.379135 11522 net.cpp:141] Setting up inception_3a/pool_proj
I0403 15:01:35.379163 11522 net.cpp:148] Top shape: 24 32 28 28 (602112)
I0403 15:01:35.379179 11522 net.cpp:156] Memory required for data: 558760992
I0403 15:01:35.379200 11522 layer_factory.hpp:77] Creating layer inception_3a/relu_pool_proj
I0403 15:01:35.379221 11522 net.cpp:91] Creating Layer inception_3a/relu_pool_proj
I0403 15:01:35.379238 11522 net.cpp:425] inception_3a/relu_pool_proj <- inception_3a/pool_proj
I0403 15:01:35.379256 11522 net.cpp:386] inception_3a/relu_pool_proj -> inception_3a/pool_proj (in-place)
I0403 15:01:35.379537 11522 net.cpp:141] Setting up inception_3a/relu_pool_proj
I0403 15:01:35.379564 11522 net.cpp:148] Top shape: 24 32 28 28 (602112)
I0403 15:01:35.379580 11522 net.cpp:156] Memory required for data: 561169440
I0403 15:01:35.379595 11522 layer_factory.hpp:77] Creating layer inception_3a/output
I0403 15:01:35.379613 11522 net.cpp:91] Creating Layer inception_3a/output
I0403 15:01:35.379631 11522 net.cpp:425] inception_3a/output <- inception_3a/1x1
I0403 15:01:35.379647 11522 net.cpp:425] inception_3a/output <- inception_3a/3x3
I0403 15:01:35.379662 11522 net.cpp:425] inception_3a/output <- inception_3a/5x5
I0403 15:01:35.379678 11522 net.cpp:425] inception_3a/output <- inception_3a/pool_proj
I0403 15:01:35.379693 11522 net.cpp:399] inception_3a/output -> inception_3a/output
I0403 15:01:35.379740 11522 net.cpp:141] Setting up inception_3a/output
I0403 15:01:35.379762 11522 net.cpp:148] Top shape: 24 256 28 28 (4816896)
I0403 15:01:35.379777 11522 net.cpp:156] Memory required for data: 580437024
I0403 15:01:35.379791 11522 layer_factory.hpp:77] Creating layer inception_3a/output_inception_3a/output_0_split
I0403 15:01:35.379808 11522 net.cpp:91] Creating Layer inception_3a/output_inception_3a/output_0_split
I0403 15:01:35.379823 11522 net.cpp:425] inception_3a/output_inception_3a/output_0_split <- inception_3a/output
I0403 15:01:35.379842 11522 net.cpp:399] inception_3a/output_inception_3a/output_0_split -> inception_3a/output_inception_3a/output_0_split_0
I0403 15:01:35.379863 11522 net.cpp:399] inception_3a/output_inception_3a/output_0_split -> inception_3a/output_inception_3a/output_0_split_1
I0403 15:01:35.379887 11522 net.cpp:399] inception_3a/output_inception_3a/output_0_split -> inception_3a/output_inception_3a/output_0_split_2
I0403 15:01:35.379909 11522 net.cpp:399] inception_3a/output_inception_3a/output_0_split -> inception_3a/output_inception_3a/output_0_split_3
I0403 15:01:35.379981 11522 net.cpp:141] Setting up inception_3a/output_inception_3a/output_0_split
I0403 15:01:35.380002 11522 net.cpp:148] Top shape: 24 256 28 28 (4816896)
I0403 15:01:35.380017 11522 net.cpp:148] Top shape: 24 256 28 28 (4816896)
I0403 15:01:35.380033 11522 net.cpp:148] Top shape: 24 256 28 28 (4816896)
I0403 15:01:35.380048 11522 net.cpp:148] Top shape: 24 256 28 28 (4816896)
I0403 15:01:35.380060 11522 net.cpp:156] Memory required for data: 657507360
I0403 15:01:35.380075 11522 layer_factory.hpp:77] Creating layer inception_3b/1x1
I0403 15:01:35.380096 11522 net.cpp:91] Creating Layer inception_3b/1x1
I0403 15:01:35.380113 11522 net.cpp:425] inception_3b/1x1 <- inception_3a/output_inception_3a/output_0_split_0
I0403 15:01:35.380133 11522 net.cpp:399] inception_3b/1x1 -> inception_3b/1x1
I0403 15:01:35.381222 11522 net.cpp:141] Setting up inception_3b/1x1
I0403 15:01:35.381260 11522 net.cpp:148] Top shape: 24 128 28 28 (2408448)
I0403 15:01:35.381278 11522 net.cpp:156] Memory required for data: 667141152
I0403 15:01:35.381296 11522 layer_factory.hpp:77] Creating layer inception_3b/relu_1x1
I0403 15:01:35.381317 11522 net.cpp:91] Creating Layer inception_3b/relu_1x1
I0403 15:01:35.381336 11522 net.cpp:425] inception_3b/relu_1x1 <- inception_3b/1x1
I0403 15:01:35.381358 11522 net.cpp:386] inception_3b/relu_1x1 -> inception_3b/1x1 (in-place)
I0403 15:01:35.381528 11522 net.cpp:141] Setting up inception_3b/relu_1x1
I0403 15:01:35.381554 11522 net.cpp:148] Top shape: 24 128 28 28 (2408448)
I0403 15:01:35.381572 11522 net.cpp:156] Memory required for data: 676774944
I0403 15:01:35.381587 11522 layer_factory.hpp:77] Creating layer inception_3b/3x3_reduce
I0403 15:01:35.381623 11522 net.cpp:91] Creating Layer inception_3b/3x3_reduce
I0403 15:01:35.381640 11522 net.cpp:425] inception_3b/3x3_reduce <- inception_3a/output_inception_3a/output_0_split_1
I0403 15:01:35.381662 11522 net.cpp:399] inception_3b/3x3_reduce -> inception_3b/3x3_reduce
I0403 15:01:35.382772 11522 net.cpp:141] Setting up inception_3b/3x3_reduce
I0403 15:01:35.382802 11522 net.cpp:148] Top shape: 24 128 28 28 (2408448)
I0403 15:01:35.382817 11522 net.cpp:156] Memory required for data: 686408736
I0403 15:01:35.382835 11522 layer_factory.hpp:77] Creating layer inception_3b/relu_3x3_reduce
I0403 15:01:35.382853 11522 net.cpp:91] Creating Layer inception_3b/relu_3x3_reduce
I0403 15:01:35.382869 11522 net.cpp:425] inception_3b/relu_3x3_reduce <- inception_3b/3x3_reduce
I0403 15:01:35.382889 11522 net.cpp:386] inception_3b/relu_3x3_reduce -> inception_3b/3x3_reduce (in-place)
I0403 15:01:35.383054 11522 net.cpp:141] Setting up inception_3b/relu_3x3_reduce
I0403 15:01:35.383077 11522 net.cpp:148] Top shape: 24 128 28 28 (2408448)
I0403 15:01:35.383092 11522 net.cpp:156] Memory required for data: 696042528
I0403 15:01:35.383106 11522 layer_factory.hpp:77] Creating layer inception_3b/3x3
I0403 15:01:35.383133 11522 net.cpp:91] Creating Layer inception_3b/3x3
I0403 15:01:35.383152 11522 net.cpp:425] inception_3b/3x3 <- inception_3b/3x3_reduce
I0403 15:01:35.383170 11522 net.cpp:399] inception_3b/3x3 -> inception_3b/3x3
I0403 15:01:35.386046 11522 net.cpp:141] Setting up inception_3b/3x3
I0403 15:01:35.386075 11522 net.cpp:148] Top shape: 24 192 28 28 (3612672)
I0403 15:01:35.386091 11522 net.cpp:156] Memory required for data: 710493216
I0403 15:01:35.386109 11522 layer_factory.hpp:77] Creating layer inception_3b/relu_3x3
I0403 15:01:35.386131 11522 net.cpp:91] Creating Layer inception_3b/relu_3x3
I0403 15:01:35.386147 11522 net.cpp:425] inception_3b/relu_3x3 <- inception_3b/3x3
I0403 15:01:35.386164 11522 net.cpp:386] inception_3b/relu_3x3 -> inception_3b/3x3 (in-place)
I0403 15:01:35.386436 11522 net.cpp:141] Setting up inception_3b/relu_3x3
I0403 15:01:35.386462 11522 net.cpp:148] Top shape: 24 192 28 28 (3612672)
I0403 15:01:35.386477 11522 net.cpp:156] Memory required for data: 724943904
I0403 15:01:35.386492 11522 layer_factory.hpp:77] Creating layer inception_3b/5x5_reduce
I0403 15:01:35.386514 11522 net.cpp:91] Creating Layer inception_3b/5x5_reduce
I0403 15:01:35.386531 11522 net.cpp:425] inception_3b/5x5_reduce <- inception_3a/output_inception_3a/output_0_split_2
I0403 15:01:35.386554 11522 net.cpp:399] inception_3b/5x5_reduce -> inception_3b/5x5_reduce
I0403 15:01:35.387511 11522 net.cpp:141] Setting up inception_3b/5x5_reduce
I0403 15:01:35.387540 11522 net.cpp:148] Top shape: 24 32 28 28 (602112)
I0403 15:01:35.387557 11522 net.cpp:156] Memory required for data: 727352352
I0403 15:01:35.387578 11522 layer_factory.hpp:77] Creating layer inception_3b/relu_5x5_reduce
I0403 15:01:35.387598 11522 net.cpp:91] Creating Layer inception_3b/relu_5x5_reduce
I0403 15:01:35.387616 11522 net.cpp:425] inception_3b/relu_5x5_reduce <- inception_3b/5x5_reduce
I0403 15:01:35.387634 11522 net.cpp:386] inception_3b/relu_5x5_reduce -> inception_3b/5x5_reduce (in-place)
I0403 15:01:35.387820 11522 net.cpp:141] Setting up inception_3b/relu_5x5_reduce
I0403 15:01:35.387848 11522 net.cpp:148] Top shape: 24 32 28 28 (602112)
I0403 15:01:35.387866 11522 net.cpp:156] Memory required for data: 729760800
I0403 15:01:35.387881 11522 layer_factory.hpp:77] Creating layer inception_3b/5x5
I0403 15:01:35.387903 11522 net.cpp:91] Creating Layer inception_3b/5x5
I0403 15:01:35.387923 11522 net.cpp:425] inception_3b/5x5 <- inception_3b/5x5_reduce
I0403 15:01:35.387940 11522 net.cpp:399] inception_3b/5x5 -> inception_3b/5x5
I0403 15:01:35.389885 11522 net.cpp:141] Setting up inception_3b/5x5
I0403 15:01:35.389915 11522 net.cpp:148] Top shape: 24 96 28 28 (1806336)
I0403 15:01:35.389931 11522 net.cpp:156] Memory required for data: 736986144
I0403 15:01:35.389950 11522 layer_factory.hpp:77] Creating layer inception_3b/relu_5x5
I0403 15:01:35.389981 11522 net.cpp:91] Creating Layer inception_3b/relu_5x5
I0403 15:01:35.389997 11522 net.cpp:425] inception_3b/relu_5x5 <- inception_3b/5x5
I0403 15:01:35.390017 11522 net.cpp:386] inception_3b/relu_5x5 -> inception_3b/5x5 (in-place)
I0403 15:01:35.390203 11522 net.cpp:141] Setting up inception_3b/relu_5x5
I0403 15:01:35.390228 11522 net.cpp:148] Top shape: 24 96 28 28 (1806336)
I0403 15:01:35.390242 11522 net.cpp:156] Memory required for data: 744211488
I0403 15:01:35.390256 11522 layer_factory.hpp:77] Creating layer inception_3b/pool
I0403 15:01:35.390275 11522 net.cpp:91] Creating Layer inception_3b/pool
I0403 15:01:35.390290 11522 net.cpp:425] inception_3b/pool <- inception_3a/output_inception_3a/output_0_split_3
I0403 15:01:35.390318 11522 net.cpp:399] inception_3b/pool -> inception_3b/pool
I0403 15:01:35.390378 11522 net.cpp:141] Setting up inception_3b/pool
I0403 15:01:35.390401 11522 net.cpp:148] Top shape: 24 256 28 28 (4816896)
I0403 15:01:35.390418 11522 net.cpp:156] Memory required for data: 763479072
I0403 15:01:35.390434 11522 layer_factory.hpp:77] Creating layer inception_3b/pool_proj
I0403 15:01:35.390455 11522 net.cpp:91] Creating Layer inception_3b/pool_proj
I0403 15:01:35.390472 11522 net.cpp:425] inception_3b/pool_proj <- inception_3b/pool
I0403 15:01:35.390492 11522 net.cpp:399] inception_3b/pool_proj -> inception_3b/pool_proj
I0403 15:01:35.391511 11522 net.cpp:141] Setting up inception_3b/pool_proj
I0403 15:01:35.391542 11522 net.cpp:148] Top shape: 24 64 28 28 (1204224)
I0403 15:01:35.391561 11522 net.cpp:156] Memory required for data: 768295968
I0403 15:01:35.391580 11522 layer_factory.hpp:77] Creating layer inception_3b/relu_pool_proj
I0403 15:01:35.391598 11522 net.cpp:91] Creating Layer inception_3b/relu_pool_proj
I0403 15:01:35.391614 11522 net.cpp:425] inception_3b/relu_pool_proj <- inception_3b/pool_proj
I0403 15:01:35.391631 11522 net.cpp:386] inception_3b/relu_pool_proj -> inception_3b/pool_proj (in-place)
I0403 15:01:35.392012 11522 net.cpp:141] Setting up inception_3b/relu_pool_proj
I0403 15:01:35.392037 11522 net.cpp:148] Top shape: 24 64 28 28 (1204224)
I0403 15:01:35.392053 11522 net.cpp:156] Memory required for data: 773112864
I0403 15:01:35.392068 11522 layer_factory.hpp:77] Creating layer inception_3b/output
I0403 15:01:35.392087 11522 net.cpp:91] Creating Layer inception_3b/output
I0403 15:01:35.392103 11522 net.cpp:425] inception_3b/output <- inception_3b/1x1
I0403 15:01:35.392120 11522 net.cpp:425] inception_3b/output <- inception_3b/3x3
I0403 15:01:35.392137 11522 net.cpp:425] inception_3b/output <- inception_3b/5x5
I0403 15:01:35.392153 11522 net.cpp:425] inception_3b/output <- inception_3b/pool_proj
I0403 15:01:35.392168 11522 net.cpp:399] inception_3b/output -> inception_3b/output
I0403 15:01:35.392211 11522 net.cpp:141] Setting up inception_3b/output
I0403 15:01:35.392233 11522 net.cpp:148] Top shape: 24 480 28 28 (9031680)
I0403 15:01:35.392248 11522 net.cpp:156] Memory required for data: 809239584
I0403 15:01:35.392262 11522 layer_factory.hpp:77] Creating layer pool3/3x3_s2
I0403 15:01:35.392280 11522 net.cpp:91] Creating Layer pool3/3x3_s2
I0403 15:01:35.392295 11522 net.cpp:425] pool3/3x3_s2 <- inception_3b/output
I0403 15:01:35.392330 11522 net.cpp:399] pool3/3x3_s2 -> pool3/3x3_s2
I0403 15:01:35.392392 11522 net.cpp:141] Setting up pool3/3x3_s2
I0403 15:01:35.392416 11522 net.cpp:148] Top shape: 24 480 14 14 (2257920)
I0403 15:01:35.392431 11522 net.cpp:156] Memory required for data: 818271264
I0403 15:01:35.392444 11522 layer_factory.hpp:77] Creating layer pool3/3x3_s2_pool3/3x3_s2_0_split
I0403 15:01:35.392462 11522 net.cpp:91] Creating Layer pool3/3x3_s2_pool3/3x3_s2_0_split
I0403 15:01:35.392477 11522 net.cpp:425] pool3/3x3_s2_pool3/3x3_s2_0_split <- pool3/3x3_s2
I0403 15:01:35.392495 11522 net.cpp:399] pool3/3x3_s2_pool3/3x3_s2_0_split -> pool3/3x3_s2_pool3/3x3_s2_0_split_0
I0403 15:01:35.392515 11522 net.cpp:399] pool3/3x3_s2_pool3/3x3_s2_0_split -> pool3/3x3_s2_pool3/3x3_s2_0_split_1
I0403 15:01:35.392534 11522 net.cpp:399] pool3/3x3_s2_pool3/3x3_s2_0_split -> pool3/3x3_s2_pool3/3x3_s2_0_split_2
I0403 15:01:35.392554 11522 net.cpp:399] pool3/3x3_s2_pool3/3x3_s2_0_split -> pool3/3x3_s2_pool3/3x3_s2_0_split_3
I0403 15:01:35.392624 11522 net.cpp:141] Setting up pool3/3x3_s2_pool3/3x3_s2_0_split
I0403 15:01:35.392649 11522 net.cpp:148] Top shape: 24 480 14 14 (2257920)
I0403 15:01:35.392666 11522 net.cpp:148] Top shape: 24 480 14 14 (2257920)
I0403 15:01:35.392681 11522 net.cpp:148] Top shape: 24 480 14 14 (2257920)
I0403 15:01:35.392696 11522 net.cpp:148] Top shape: 24 480 14 14 (2257920)
I0403 15:01:35.392711 11522 net.cpp:156] Memory required for data: 854397984
I0403 15:01:35.392726 11522 layer_factory.hpp:77] Creating layer inception_4a/1x1
I0403 15:01:35.392747 11522 net.cpp:91] Creating Layer inception_4a/1x1
I0403 15:01:35.392763 11522 net.cpp:425] inception_4a/1x1 <- pool3/3x3_s2_pool3/3x3_s2_0_split_0
I0403 15:01:35.392782 11522 net.cpp:399] inception_4a/1x1 -> inception_4a/1x1
I0403 15:01:35.394316 11522 net.cpp:141] Setting up inception_4a/1x1
I0403 15:01:35.394352 11522 net.cpp:148] Top shape: 24 192 14 14 (903168)
I0403 15:01:35.394381 11522 net.cpp:156] Memory required for data: 858010656
I0403 15:01:35.394413 11522 layer_factory.hpp:77] Creating layer inception_4a/relu_1x1
I0403 15:01:35.394431 11522 net.cpp:91] Creating Layer inception_4a/relu_1x1
I0403 15:01:35.394448 11522 net.cpp:425] inception_4a/relu_1x1 <- inception_4a/1x1
I0403 15:01:35.394469 11522 net.cpp:386] inception_4a/relu_1x1 -> inception_4a/1x1 (in-place)
I0403 15:01:35.394649 11522 net.cpp:141] Setting up inception_4a/relu_1x1
I0403 15:01:35.394673 11522 net.cpp:148] Top shape: 24 192 14 14 (903168)
I0403 15:01:35.394700 11522 net.cpp:156] Memory required for data: 861623328
I0403 15:01:35.394714 11522 layer_factory.hpp:77] Creating layer inception_4a/3x3_reduce
I0403 15:01:35.394737 11522 net.cpp:91] Creating Layer inception_4a/3x3_reduce
I0403 15:01:35.394753 11522 net.cpp:425] inception_4a/3x3_reduce <- pool3/3x3_s2_pool3/3x3_s2_0_split_1
I0403 15:01:35.394773 11522 net.cpp:399] inception_4a/3x3_reduce -> inception_4a/3x3_reduce
I0403 15:01:35.395987 11522 net.cpp:141] Setting up inception_4a/3x3_reduce
I0403 15:01:35.396018 11522 net.cpp:148] Top shape: 24 96 14 14 (451584)
I0403 15:01:35.396035 11522 net.cpp:156] Memory required for data: 863429664
I0403 15:01:35.396059 11522 layer_factory.hpp:77] Creating layer inception_4a/relu_3x3_reduce
I0403 15:01:35.396080 11522 net.cpp:91] Creating Layer inception_4a/relu_3x3_reduce
I0403 15:01:35.396096 11522 net.cpp:425] inception_4a/relu_3x3_reduce <- inception_4a/3x3_reduce
I0403 15:01:35.396113 11522 net.cpp:386] inception_4a/relu_3x3_reduce -> inception_4a/3x3_reduce (in-place)
I0403 15:01:35.396282 11522 net.cpp:141] Setting up inception_4a/relu_3x3_reduce
I0403 15:01:35.396306 11522 net.cpp:148] Top shape: 24 96 14 14 (451584)
I0403 15:01:35.396319 11522 net.cpp:156] Memory required for data: 865236000
I0403 15:01:35.396334 11522 layer_factory.hpp:77] Creating layer inception_4a/3x3
I0403 15:01:35.396358 11522 net.cpp:91] Creating Layer inception_4a/3x3
I0403 15:01:35.396378 11522 net.cpp:425] inception_4a/3x3 <- inception_4a/3x3_reduce
I0403 15:01:35.396397 11522 net.cpp:399] inception_4a/3x3 -> inception_4a/3x3
I0403 15:01:35.399003 11522 net.cpp:141] Setting up inception_4a/3x3
I0403 15:01:35.399030 11522 net.cpp:148] Top shape: 24 208 14 14 (978432)
I0403 15:01:35.399046 11522 net.cpp:156] Memory required for data: 869149728
I0403 15:01:35.399065 11522 layer_factory.hpp:77] Creating layer inception_4a/relu_3x3
I0403 15:01:35.399083 11522 net.cpp:91] Creating Layer inception_4a/relu_3x3
I0403 15:01:35.399098 11522 net.cpp:425] inception_4a/relu_3x3 <- inception_4a/3x3
I0403 15:01:35.399119 11522 net.cpp:386] inception_4a/relu_3x3 -> inception_4a/3x3 (in-place)
I0403 15:01:35.399411 11522 net.cpp:141] Setting up inception_4a/relu_3x3
I0403 15:01:35.399440 11522 net.cpp:148] Top shape: 24 208 14 14 (978432)
I0403 15:01:35.399456 11522 net.cpp:156] Memory required for data: 873063456
I0403 15:01:35.399471 11522 layer_factory.hpp:77] Creating layer inception_4a/5x5_reduce
I0403 15:01:35.399493 11522 net.cpp:91] Creating Layer inception_4a/5x5_reduce
I0403 15:01:35.399513 11522 net.cpp:425] inception_4a/5x5_reduce <- pool3/3x3_s2_pool3/3x3_s2_0_split_2
I0403 15:01:35.399534 11522 net.cpp:399] inception_4a/5x5_reduce -> inception_4a/5x5_reduce
I0403 15:01:35.400530 11522 net.cpp:141] Setting up inception_4a/5x5_reduce
I0403 15:01:35.400558 11522 net.cpp:148] Top shape: 24 16 14 14 (75264)
I0403 15:01:35.400574 11522 net.cpp:156] Memory required for data: 873364512
I0403 15:01:35.400593 11522 layer_factory.hpp:77] Creating layer inception_4a/relu_5x5_reduce
I0403 15:01:35.400612 11522 net.cpp:91] Creating Layer inception_4a/relu_5x5_reduce
I0403 15:01:35.400629 11522 net.cpp:425] inception_4a/relu_5x5_reduce <- inception_4a/5x5_reduce
I0403 15:01:35.400646 11522 net.cpp:386] inception_4a/relu_5x5_reduce -> inception_4a/5x5_reduce (in-place)
I0403 15:01:35.400818 11522 net.cpp:141] Setting up inception_4a/relu_5x5_reduce
I0403 15:01:35.400846 11522 net.cpp:148] Top shape: 24 16 14 14 (75264)
I0403 15:01:35.400861 11522 net.cpp:156] Memory required for data: 873665568
I0403 15:01:35.400876 11522 layer_factory.hpp:77] Creating layer inception_4a/5x5
I0403 15:01:35.400897 11522 net.cpp:91] Creating Layer inception_4a/5x5
I0403 15:01:35.400914 11522 net.cpp:425] inception_4a/5x5 <- inception_4a/5x5_reduce
I0403 15:01:35.400933 11522 net.cpp:399] inception_4a/5x5 -> inception_4a/5x5
I0403 15:01:35.402016 11522 net.cpp:141] Setting up inception_4a/5x5
I0403 15:01:35.402042 11522 net.cpp:148] Top shape: 24 48 14 14 (225792)
I0403 15:01:35.402058 11522 net.cpp:156] Memory required for data: 874568736
I0403 15:01:35.402076 11522 layer_factory.hpp:77] Creating layer inception_4a/relu_5x5
I0403 15:01:35.402096 11522 net.cpp:91] Creating Layer inception_4a/relu_5x5
I0403 15:01:35.402112 11522 net.cpp:425] inception_4a/relu_5x5 <- inception_4a/5x5
I0403 15:01:35.402128 11522 net.cpp:386] inception_4a/relu_5x5 -> inception_4a/5x5 (in-place)
I0403 15:01:35.402299 11522 net.cpp:141] Setting up inception_4a/relu_5x5
I0403 15:01:35.402324 11522 net.cpp:148] Top shape: 24 48 14 14 (225792)
I0403 15:01:35.402338 11522 net.cpp:156] Memory required for data: 875471904
I0403 15:01:35.402359 11522 layer_factory.hpp:77] Creating layer inception_4a/pool
I0403 15:01:35.402376 11522 net.cpp:91] Creating Layer inception_4a/pool
I0403 15:01:35.402391 11522 net.cpp:425] inception_4a/pool <- pool3/3x3_s2_pool3/3x3_s2_0_split_3
I0403 15:01:35.402411 11522 net.cpp:399] inception_4a/pool -> inception_4a/pool
I0403 15:01:35.402470 11522 net.cpp:141] Setting up inception_4a/pool
I0403 15:01:35.402493 11522 net.cpp:148] Top shape: 24 480 14 14 (2257920)
I0403 15:01:35.402508 11522 net.cpp:156] Memory required for data: 884503584
I0403 15:01:35.402521 11522 layer_factory.hpp:77] Creating layer inception_4a/pool_proj
I0403 15:01:35.402544 11522 net.cpp:91] Creating Layer inception_4a/pool_proj
I0403 15:01:35.402561 11522 net.cpp:425] inception_4a/pool_proj <- inception_4a/pool
I0403 15:01:35.402580 11522 net.cpp:399] inception_4a/pool_proj -> inception_4a/pool_proj
I0403 15:01:35.403712 11522 net.cpp:141] Setting up inception_4a/pool_proj
I0403 15:01:35.403743 11522 net.cpp:148] Top shape: 24 64 14 14 (301056)
I0403 15:01:35.403775 11522 net.cpp:156] Memory required for data: 885707808
I0403 15:01:35.403795 11522 layer_factory.hpp:77] Creating layer inception_4a/relu_pool_proj
I0403 15:01:35.403812 11522 net.cpp:91] Creating Layer inception_4a/relu_pool_proj
I0403 15:01:35.403827 11522 net.cpp:425] inception_4a/relu_pool_proj <- inception_4a/pool_proj
I0403 15:01:35.403847 11522 net.cpp:386] inception_4a/relu_pool_proj -> inception_4a/pool_proj (in-place)
I0403 15:01:35.404122 11522 net.cpp:141] Setting up inception_4a/relu_pool_proj
I0403 15:01:35.404150 11522 net.cpp:148] Top shape: 24 64 14 14 (301056)
I0403 15:01:35.404165 11522 net.cpp:156] Memory required for data: 886912032
I0403 15:01:35.404180 11522 layer_factory.hpp:77] Creating layer inception_4a/output
I0403 15:01:35.404196 11522 net.cpp:91] Creating Layer inception_4a/output
I0403 15:01:35.404212 11522 net.cpp:425] inception_4a/output <- inception_4a/1x1
I0403 15:01:35.404228 11522 net.cpp:425] inception_4a/output <- inception_4a/3x3
I0403 15:01:35.404244 11522 net.cpp:425] inception_4a/output <- inception_4a/5x5
I0403 15:01:35.404260 11522 net.cpp:425] inception_4a/output <- inception_4a/pool_proj
I0403 15:01:35.404279 11522 net.cpp:399] inception_4a/output -> inception_4a/output
I0403 15:01:35.404322 11522 net.cpp:141] Setting up inception_4a/output
I0403 15:01:35.404345 11522 net.cpp:148] Top shape: 24 512 14 14 (2408448)
I0403 15:01:35.404363 11522 net.cpp:156] Memory required for data: 896545824
I0403 15:01:35.404378 11522 layer_factory.hpp:77] Creating layer inception_4a/output_inception_4a/output_0_split
I0403 15:01:35.404397 11522 net.cpp:91] Creating Layer inception_4a/output_inception_4a/output_0_split
I0403 15:01:35.404413 11522 net.cpp:425] inception_4a/output_inception_4a/output_0_split <- inception_4a/output
I0403 15:01:35.404430 11522 net.cpp:399] inception_4a/output_inception_4a/output_0_split -> inception_4a/output_inception_4a/output_0_split_0
I0403 15:01:35.404449 11522 net.cpp:399] inception_4a/output_inception_4a/output_0_split -> inception_4a/output_inception_4a/output_0_split_1
I0403 15:01:35.404472 11522 net.cpp:399] inception_4a/output_inception_4a/output_0_split -> inception_4a/output_inception_4a/output_0_split_2
I0403 15:01:35.404494 11522 net.cpp:399] inception_4a/output_inception_4a/output_0_split -> inception_4a/output_inception_4a/output_0_split_3
I0403 15:01:35.404512 11522 net.cpp:399] inception_4a/output_inception_4a/output_0_split -> inception_4a/output_inception_4a/output_0_split_4
I0403 15:01:35.404603 11522 net.cpp:141] Setting up inception_4a/output_inception_4a/output_0_split
I0403 15:01:35.404624 11522 net.cpp:148] Top shape: 24 512 14 14 (2408448)
I0403 15:01:35.404640 11522 net.cpp:148] Top shape: 24 512 14 14 (2408448)
I0403 15:01:35.404655 11522 net.cpp:148] Top shape: 24 512 14 14 (2408448)
I0403 15:01:35.404671 11522 net.cpp:148] Top shape: 24 512 14 14 (2408448)
I0403 15:01:35.404686 11522 net.cpp:148] Top shape: 24 512 14 14 (2408448)
I0403 15:01:35.404700 11522 net.cpp:156] Memory required for data: 944714784
I0403 15:01:35.404713 11522 layer_factory.hpp:77] Creating layer loss1/ave_pool
I0403 15:01:35.404732 11522 net.cpp:91] Creating Layer loss1/ave_pool
I0403 15:01:35.404749 11522 net.cpp:425] loss1/ave_pool <- inception_4a/output_inception_4a/output_0_split_0
I0403 15:01:35.404767 11522 net.cpp:399] loss1/ave_pool -> loss1/ave_pool
I0403 15:01:35.404963 11522 net.cpp:141] Setting up loss1/ave_pool
I0403 15:01:35.404989 11522 net.cpp:148] Top shape: 24 512 4 4 (196608)
I0403 15:01:35.405005 11522 net.cpp:156] Memory required for data: 945501216
I0403 15:01:35.405019 11522 layer_factory.hpp:77] Creating layer loss1/conv
I0403 15:01:35.405041 11522 net.cpp:91] Creating Layer loss1/conv
I0403 15:01:35.405057 11522 net.cpp:425] loss1/conv <- loss1/ave_pool
I0403 15:01:35.405076 11522 net.cpp:399] loss1/conv -> loss1/conv
I0403 15:01:35.406482 11522 net.cpp:141] Setting up loss1/conv
I0403 15:01:35.406510 11522 net.cpp:148] Top shape: 24 128 4 4 (49152)
I0403 15:01:35.406539 11522 net.cpp:156] Memory required for data: 945697824
I0403 15:01:35.406559 11522 layer_factory.hpp:77] Creating layer loss1/relu_conv
I0403 15:01:35.406581 11522 net.cpp:91] Creating Layer loss1/relu_conv
I0403 15:01:35.406599 11522 net.cpp:425] loss1/relu_conv <- loss1/conv
I0403 15:01:35.406616 11522 net.cpp:386] loss1/relu_conv -> loss1/conv (in-place)
I0403 15:01:35.406894 11522 net.cpp:141] Setting up loss1/relu_conv
I0403 15:01:35.406921 11522 net.cpp:148] Top shape: 24 128 4 4 (49152)
I0403 15:01:35.406936 11522 net.cpp:156] Memory required for data: 945894432
I0403 15:01:35.406951 11522 layer_factory.hpp:77] Creating layer loss1/fc
I0403 15:01:35.406977 11522 net.cpp:91] Creating Layer loss1/fc
I0403 15:01:35.406996 11522 net.cpp:425] loss1/fc <- loss1/conv
I0403 15:01:35.407014 11522 net.cpp:399] loss1/fc -> loss1/fc
I0403 15:01:35.424830 11522 net.cpp:141] Setting up loss1/fc
I0403 15:01:35.424895 11522 net.cpp:148] Top shape: 24 1024 (24576)
I0403 15:01:35.424911 11522 net.cpp:156] Memory required for data: 945992736
I0403 15:01:35.424932 11522 layer_factory.hpp:77] Creating layer loss1/relu_fc
I0403 15:01:35.424952 11522 net.cpp:91] Creating Layer loss1/relu_fc
I0403 15:01:35.424969 11522 net.cpp:425] loss1/relu_fc <- loss1/fc
I0403 15:01:35.424990 11522 net.cpp:386] loss1/relu_fc -> loss1/fc (in-place)
I0403 15:01:35.425204 11522 net.cpp:141] Setting up loss1/relu_fc
I0403 15:01:35.425230 11522 net.cpp:148] Top shape: 24 1024 (24576)
I0403 15:01:35.425246 11522 net.cpp:156] Memory required for data: 946091040
I0403 15:01:35.425262 11522 layer_factory.hpp:77] Creating layer loss1/drop_fc
I0403 15:01:35.425290 11522 net.cpp:91] Creating Layer loss1/drop_fc
I0403 15:01:35.425309 11522 net.cpp:425] loss1/drop_fc <- loss1/fc
I0403 15:01:35.425331 11522 net.cpp:386] loss1/drop_fc -> loss1/fc (in-place)
I0403 15:01:35.425389 11522 net.cpp:141] Setting up loss1/drop_fc
I0403 15:01:35.425416 11522 net.cpp:148] Top shape: 24 1024 (24576)
I0403 15:01:35.425432 11522 net.cpp:156] Memory required for data: 946189344
I0403 15:01:35.425448 11522 layer_factory.hpp:77] Creating layer loss1/classifier_plantvillage
I0403 15:01:35.425467 11522 net.cpp:91] Creating Layer loss1/classifier_plantvillage
I0403 15:01:35.425484 11522 net.cpp:425] loss1/classifier_plantvillage <- loss1/fc
I0403 15:01:35.425506 11522 net.cpp:399] loss1/classifier_plantvillage -> loss1/classifier_plantvillage
I0403 15:01:35.426460 11522 net.cpp:141] Setting up loss1/classifier_plantvillage
I0403 15:01:35.426489 11522 net.cpp:148] Top shape: 24 38 (912)
I0403 15:01:35.426506 11522 net.cpp:156] Memory required for data: 946192992
I0403 15:01:35.426524 11522 layer_factory.hpp:77] Creating layer loss1/classifier_plantvillage_loss1/classifier_plantvillage_0_split
I0403 15:01:35.426544 11522 net.cpp:91] Creating Layer loss1/classifier_plantvillage_loss1/classifier_plantvillage_0_split
I0403 15:01:35.426561 11522 net.cpp:425] loss1/classifier_plantvillage_loss1/classifier_plantvillage_0_split <- loss1/classifier_plantvillage
I0403 15:01:35.426586 11522 net.cpp:399] loss1/classifier_plantvillage_loss1/classifier_plantvillage_0_split -> loss1/classifier_plantvillage_loss1/classifier_plantvillage_0_split_0
I0403 15:01:35.426609 11522 net.cpp:399] loss1/classifier_plantvillage_loss1/classifier_plantvillage_0_split -> loss1/classifier_plantvillage_loss1/classifier_plantvillage_0_split_1
I0403 15:01:35.426630 11522 net.cpp:399] loss1/classifier_plantvillage_loss1/classifier_plantvillage_0_split -> loss1/classifier_plantvillage_loss1/classifier_plantvillage_0_split_2
I0403 15:01:35.426697 11522 net.cpp:141] Setting up loss1/classifier_plantvillage_loss1/classifier_plantvillage_0_split
I0403 15:01:35.426720 11522 net.cpp:148] Top shape: 24 38 (912)
I0403 15:01:35.426738 11522 net.cpp:148] Top shape: 24 38 (912)
I0403 15:01:35.426753 11522 net.cpp:148] Top shape: 24 38 (912)
I0403 15:01:35.426766 11522 net.cpp:156] Memory required for data: 946203936
I0403 15:01:35.426781 11522 layer_factory.hpp:77] Creating layer inception_4b/1x1
I0403 15:01:35.426805 11522 net.cpp:91] Creating Layer inception_4b/1x1
I0403 15:01:35.426842 11522 net.cpp:425] inception_4b/1x1 <- inception_4a/output_inception_4a/output_0_split_1
I0403 15:01:35.426863 11522 net.cpp:399] inception_4b/1x1 -> inception_4b/1x1
I0403 15:01:35.428542 11522 net.cpp:141] Setting up inception_4b/1x1
I0403 15:01:35.428572 11522 net.cpp:148] Top shape: 24 160 14 14 (752640)
I0403 15:01:35.428588 11522 net.cpp:156] Memory required for data: 949214496
I0403 15:01:35.428607 11522 layer_factory.hpp:77] Creating layer inception_4b/relu_1x1
I0403 15:01:35.428628 11522 net.cpp:91] Creating Layer inception_4b/relu_1x1
I0403 15:01:35.428647 11522 net.cpp:425] inception_4b/relu_1x1 <- inception_4b/1x1
I0403 15:01:35.428664 11522 net.cpp:386] inception_4b/relu_1x1 -> inception_4b/1x1 (in-place)
I0403 15:01:35.428850 11522 net.cpp:141] Setting up inception_4b/relu_1x1
I0403 15:01:35.428879 11522 net.cpp:148] Top shape: 24 160 14 14 (752640)
I0403 15:01:35.428894 11522 net.cpp:156] Memory required for data: 952225056
I0403 15:01:35.428910 11522 layer_factory.hpp:77] Creating layer inception_4b/3x3_reduce
I0403 15:01:35.428930 11522 net.cpp:91] Creating Layer inception_4b/3x3_reduce
I0403 15:01:35.428947 11522 net.cpp:425] inception_4b/3x3_reduce <- inception_4a/output_inception_4a/output_0_split_2
I0403 15:01:35.428968 11522 net.cpp:399] inception_4b/3x3_reduce -> inception_4b/3x3_reduce
I0403 15:01:35.430402 11522 net.cpp:141] Setting up inception_4b/3x3_reduce
I0403 15:01:35.430431 11522 net.cpp:148] Top shape: 24 112 14 14 (526848)
I0403 15:01:35.430447 11522 net.cpp:156] Memory required for data: 954332448
I0403 15:01:35.430466 11522 layer_factory.hpp:77] Creating layer inception_4b/relu_3x3_reduce
I0403 15:01:35.430490 11522 net.cpp:91] Creating Layer inception_4b/relu_3x3_reduce
I0403 15:01:35.430506 11522 net.cpp:425] inception_4b/relu_3x3_reduce <- inception_4b/3x3_reduce
I0403 15:01:35.430524 11522 net.cpp:386] inception_4b/relu_3x3_reduce -> inception_4b/3x3_reduce (in-place)
I0403 15:01:35.430804 11522 net.cpp:141] Setting up inception_4b/relu_3x3_reduce
I0403 15:01:35.430832 11522 net.cpp:148] Top shape: 24 112 14 14 (526848)
I0403 15:01:35.430848 11522 net.cpp:156] Memory required for data: 956439840
I0403 15:01:35.430863 11522 layer_factory.hpp:77] Creating layer inception_4b/3x3
I0403 15:01:35.430886 11522 net.cpp:91] Creating Layer inception_4b/3x3
I0403 15:01:35.430904 11522 net.cpp:425] inception_4b/3x3 <- inception_4b/3x3_reduce
I0403 15:01:35.430927 11522 net.cpp:399] inception_4b/3x3 -> inception_4b/3x3
I0403 15:01:35.433948 11522 net.cpp:141] Setting up inception_4b/3x3
I0403 15:01:35.433977 11522 net.cpp:148] Top shape: 24 224 14 14 (1053696)
I0403 15:01:35.433995 11522 net.cpp:156] Memory required for data: 960654624
I0403 15:01:35.434013 11522 layer_factory.hpp:77] Creating layer inception_4b/relu_3x3
I0403 15:01:35.434032 11522 net.cpp:91] Creating Layer inception_4b/relu_3x3
I0403 15:01:35.434051 11522 net.cpp:425] inception_4b/relu_3x3 <- inception_4b/3x3
I0403 15:01:35.434070 11522 net.cpp:386] inception_4b/relu_3x3 -> inception_4b/3x3 (in-place)
I0403 15:01:35.434252 11522 net.cpp:141] Setting up inception_4b/relu_3x3
I0403 15:01:35.434278 11522 net.cpp:148] Top shape: 24 224 14 14 (1053696)
I0403 15:01:35.434294 11522 net.cpp:156] Memory required for data: 964869408
I0403 15:01:35.434309 11522 layer_factory.hpp:77] Creating layer inception_4b/5x5_reduce
I0403 15:01:35.434332 11522 net.cpp:91] Creating Layer inception_4b/5x5_reduce
I0403 15:01:35.434355 11522 net.cpp:425] inception_4b/5x5_reduce <- inception_4a/output_inception_4a/output_0_split_3
I0403 15:01:35.434378 11522 net.cpp:399] inception_4b/5x5_reduce -> inception_4b/5x5_reduce
I0403 15:01:35.435468 11522 net.cpp:141] Setting up inception_4b/5x5_reduce
I0403 15:01:35.435497 11522 net.cpp:148] Top shape: 24 24 14 14 (112896)
I0403 15:01:35.435515 11522 net.cpp:156] Memory required for data: 965320992
I0403 15:01:35.435534 11522 layer_factory.hpp:77] Creating layer inception_4b/relu_5x5_reduce
I0403 15:01:35.435556 11522 net.cpp:91] Creating Layer inception_4b/relu_5x5_reduce
I0403 15:01:35.435588 11522 net.cpp:425] inception_4b/relu_5x5_reduce <- inception_4b/5x5_reduce
I0403 15:01:35.435608 11522 net.cpp:386] inception_4b/relu_5x5_reduce -> inception_4b/5x5_reduce (in-place)
I0403 15:01:35.435789 11522 net.cpp:141] Setting up inception_4b/relu_5x5_reduce
I0403 15:01:35.435818 11522 net.cpp:148] Top shape: 24 24 14 14 (112896)
I0403 15:01:35.435835 11522 net.cpp:156] Memory required for data: 965772576
I0403 15:01:35.435852 11522 layer_factory.hpp:77] Creating layer inception_4b/5x5
I0403 15:01:35.435874 11522 net.cpp:91] Creating Layer inception_4b/5x5
I0403 15:01:35.435892 11522 net.cpp:425] inception_4b/5x5 <- inception_4b/5x5_reduce
I0403 15:01:35.435911 11522 net.cpp:399] inception_4b/5x5 -> inception_4b/5x5
I0403 15:01:35.437131 11522 net.cpp:141] Setting up inception_4b/5x5
I0403 15:01:35.437161 11522 net.cpp:148] Top shape: 24 64 14 14 (301056)
I0403 15:01:35.437177 11522 net.cpp:156] Memory required for data: 966976800
I0403 15:01:35.437196 11522 layer_factory.hpp:77] Creating layer inception_4b/relu_5x5
I0403 15:01:35.437217 11522 net.cpp:91] Creating Layer inception_4b/relu_5x5
I0403 15:01:35.437237 11522 net.cpp:425] inception_4b/relu_5x5 <- inception_4b/5x5
I0403 15:01:35.437254 11522 net.cpp:386] inception_4b/relu_5x5 -> inception_4b/5x5 (in-place)
I0403 15:01:35.437543 11522 net.cpp:141] Setting up inception_4b/relu_5x5
I0403 15:01:35.437571 11522 net.cpp:148] Top shape: 24 64 14 14 (301056)
I0403 15:01:35.437587 11522 net.cpp:156] Memory required for data: 968181024
I0403 15:01:35.437602 11522 layer_factory.hpp:77] Creating layer inception_4b/pool
I0403 15:01:35.437633 11522 net.cpp:91] Creating Layer inception_4b/pool
I0403 15:01:35.437650 11522 net.cpp:425] inception_4b/pool <- inception_4a/output_inception_4a/output_0_split_4
I0403 15:01:35.437674 11522 net.cpp:399] inception_4b/pool -> inception_4b/pool
I0403 15:01:35.437747 11522 net.cpp:141] Setting up inception_4b/pool
I0403 15:01:35.437772 11522 net.cpp:148] Top shape: 24 512 14 14 (2408448)
I0403 15:01:35.437788 11522 net.cpp:156] Memory required for data: 977814816
I0403 15:01:35.437804 11522 layer_factory.hpp:77] Creating layer inception_4b/pool_proj
I0403 15:01:35.437827 11522 net.cpp:91] Creating Layer inception_4b/pool_proj
I0403 15:01:35.437845 11522 net.cpp:425] inception_4b/pool_proj <- inception_4b/pool
I0403 15:01:35.437867 11522 net.cpp:399] inception_4b/pool_proj -> inception_4b/pool_proj
I0403 15:01:35.439074 11522 net.cpp:141] Setting up inception_4b/pool_proj
I0403 15:01:35.439102 11522 net.cpp:148] Top shape: 24 64 14 14 (301056)
I0403 15:01:35.439119 11522 net.cpp:156] Memory required for data: 979019040
I0403 15:01:35.439137 11522 layer_factory.hpp:77] Creating layer inception_4b/relu_pool_proj
I0403 15:01:35.439158 11522 net.cpp:91] Creating Layer inception_4b/relu_pool_proj
I0403 15:01:35.439175 11522 net.cpp:425] inception_4b/relu_pool_proj <- inception_4b/pool_proj
I0403 15:01:35.439193 11522 net.cpp:386] inception_4b/relu_pool_proj -> inception_4b/pool_proj (in-place)
I0403 15:01:35.439378 11522 net.cpp:141] Setting up inception_4b/relu_pool_proj
I0403 15:01:35.439404 11522 net.cpp:148] Top shape: 24 64 14 14 (301056)
I0403 15:01:35.439420 11522 net.cpp:156] Memory required for data: 980223264
I0403 15:01:35.439435 11522 layer_factory.hpp:77] Creating layer inception_4b/output
I0403 15:01:35.439452 11522 net.cpp:91] Creating Layer inception_4b/output
I0403 15:01:35.439470 11522 net.cpp:425] inception_4b/output <- inception_4b/1x1
I0403 15:01:35.439486 11522 net.cpp:425] inception_4b/output <- inception_4b/3x3
I0403 15:01:35.439502 11522 net.cpp:425] inception_4b/output <- inception_4b/5x5
I0403 15:01:35.439518 11522 net.cpp:425] inception_4b/output <- inception_4b/pool_proj
I0403 15:01:35.439534 11522 net.cpp:399] inception_4b/output -> inception_4b/output
I0403 15:01:35.439582 11522 net.cpp:141] Setting up inception_4b/output
I0403 15:01:35.439605 11522 net.cpp:148] Top shape: 24 512 14 14 (2408448)
I0403 15:01:35.439620 11522 net.cpp:156] Memory required for data: 989857056
I0403 15:01:35.439648 11522 layer_factory.hpp:77] Creating layer inception_4b/output_inception_4b/output_0_split
I0403 15:01:35.439669 11522 net.cpp:91] Creating Layer inception_4b/output_inception_4b/output_0_split
I0403 15:01:35.439687 11522 net.cpp:425] inception_4b/output_inception_4b/output_0_split <- inception_4b/output
I0403 15:01:35.439704 11522 net.cpp:399] inception_4b/output_inception_4b/output_0_split -> inception_4b/output_inception_4b/output_0_split_0
I0403 15:01:35.439724 11522 net.cpp:399] inception_4b/output_inception_4b/output_0_split -> inception_4b/output_inception_4b/output_0_split_1
I0403 15:01:35.439745 11522 net.cpp:399] inception_4b/output_inception_4b/output_0_split -> inception_4b/output_inception_4b/output_0_split_2
I0403 15:01:35.439765 11522 net.cpp:399] inception_4b/output_inception_4b/output_0_split -> inception_4b/output_inception_4b/output_0_split_3
I0403 15:01:35.439851 11522 net.cpp:141] Setting up inception_4b/output_inception_4b/output_0_split
I0403 15:01:35.439873 11522 net.cpp:148] Top shape: 24 512 14 14 (2408448)
I0403 15:01:35.439889 11522 net.cpp:148] Top shape: 24 512 14 14 (2408448)
I0403 15:01:35.439906 11522 net.cpp:148] Top shape: 24 512 14 14 (2408448)
I0403 15:01:35.439923 11522 net.cpp:148] Top shape: 24 512 14 14 (2408448)
I0403 15:01:35.439936 11522 net.cpp:156] Memory required for data: 1028392224
I0403 15:01:35.439951 11522 layer_factory.hpp:77] Creating layer inception_4c/1x1
I0403 15:01:35.439975 11522 net.cpp:91] Creating Layer inception_4c/1x1
I0403 15:01:35.439991 11522 net.cpp:425] inception_4c/1x1 <- inception_4b/output_inception_4b/output_0_split_0
I0403 15:01:35.440012 11522 net.cpp:399] inception_4c/1x1 -> inception_4c/1x1
I0403 15:01:35.441447 11522 net.cpp:141] Setting up inception_4c/1x1
I0403 15:01:35.441481 11522 net.cpp:148] Top shape: 24 128 14 14 (602112)
I0403 15:01:35.441500 11522 net.cpp:156] Memory required for data: 1030800672
I0403 15:01:35.441520 11522 layer_factory.hpp:77] Creating layer inception_4c/relu_1x1
I0403 15:01:35.441539 11522 net.cpp:91] Creating Layer inception_4c/relu_1x1
I0403 15:01:35.441555 11522 net.cpp:425] inception_4c/relu_1x1 <- inception_4c/1x1
I0403 15:01:35.441572 11522 net.cpp:386] inception_4c/relu_1x1 -> inception_4c/1x1 (in-place)
I0403 15:01:35.441774 11522 net.cpp:141] Setting up inception_4c/relu_1x1
I0403 15:01:35.441799 11522 net.cpp:148] Top shape: 24 128 14 14 (602112)
I0403 15:01:35.441815 11522 net.cpp:156] Memory required for data: 1033209120
I0403 15:01:35.441831 11522 layer_factory.hpp:77] Creating layer inception_4c/3x3_reduce
I0403 15:01:35.441854 11522 net.cpp:91] Creating Layer inception_4c/3x3_reduce
I0403 15:01:35.441872 11522 net.cpp:425] inception_4c/3x3_reduce <- inception_4b/output_inception_4b/output_0_split_1
I0403 15:01:35.441907 11522 net.cpp:399] inception_4c/3x3_reduce -> inception_4c/3x3_reduce
I0403 15:01:35.443976 11522 net.cpp:141] Setting up inception_4c/3x3_reduce
I0403 15:01:35.444007 11522 net.cpp:148] Top shape: 24 128 14 14 (602112)
I0403 15:01:35.444025 11522 net.cpp:156] Memory required for data: 1035617568
I0403 15:01:35.444044 11522 layer_factory.hpp:77] Creating layer inception_4c/relu_3x3_reduce
I0403 15:01:35.444067 11522 net.cpp:91] Creating Layer inception_4c/relu_3x3_reduce
I0403 15:01:35.444085 11522 net.cpp:425] inception_4c/relu_3x3_reduce <- inception_4c/3x3_reduce
I0403 15:01:35.444103 11522 net.cpp:386] inception_4c/relu_3x3_reduce -> inception_4c/3x3_reduce (in-place)
I0403 15:01:35.444394 11522 net.cpp:141] Setting up inception_4c/relu_3x3_reduce
I0403 15:01:35.444438 11522 net.cpp:148] Top shape: 24 128 14 14 (602112)
I0403 15:01:35.444455 11522 net.cpp:156] Memory required for data: 1038026016
I0403 15:01:35.444471 11522 layer_factory.hpp:77] Creating layer inception_4c/3x3
I0403 15:01:35.444495 11522 net.cpp:91] Creating Layer inception_4c/3x3
I0403 15:01:35.444514 11522 net.cpp:425] inception_4c/3x3 <- inception_4c/3x3_reduce
I0403 15:01:35.444535 11522 net.cpp:399] inception_4c/3x3 -> inception_4c/3x3
I0403 15:01:35.448067 11522 net.cpp:141] Setting up inception_4c/3x3
I0403 15:01:35.448109 11522 net.cpp:148] Top shape: 24 256 14 14 (1204224)
I0403 15:01:35.448127 11522 net.cpp:156] Memory required for data: 1042842912
I0403 15:01:35.448159 11522 layer_factory.hpp:77] Creating layer inception_4c/relu_3x3
I0403 15:01:35.448184 11522 net.cpp:91] Creating Layer inception_4c/relu_3x3
I0403 15:01:35.448204 11522 net.cpp:425] inception_4c/relu_3x3 <- inception_4c/3x3
I0403 15:01:35.448220 11522 net.cpp:386] inception_4c/relu_3x3 -> inception_4c/3x3 (in-place)
I0403 15:01:35.448403 11522 net.cpp:141] Setting up inception_4c/relu_3x3
I0403 15:01:35.448428 11522 net.cpp:148] Top shape: 24 256 14 14 (1204224)
I0403 15:01:35.448442 11522 net.cpp:156] Memory required for data: 1047659808
I0403 15:01:35.448457 11522 layer_factory.hpp:77] Creating layer inception_4c/5x5_reduce
I0403 15:01:35.448478 11522 net.cpp:91] Creating Layer inception_4c/5x5_reduce
I0403 15:01:35.448495 11522 net.cpp:425] inception_4c/5x5_reduce <- inception_4b/output_inception_4b/output_0_split_2
I0403 15:01:35.448516 11522 net.cpp:399] inception_4c/5x5_reduce -> inception_4c/5x5_reduce
I0403 15:01:35.449584 11522 net.cpp:141] Setting up inception_4c/5x5_reduce
I0403 15:01:35.449623 11522 net.cpp:148] Top shape: 24 24 14 14 (112896)
I0403 15:01:35.449641 11522 net.cpp:156] Memory required for data: 1048111392
I0403 15:01:35.449659 11522 layer_factory.hpp:77] Creating layer inception_4c/relu_5x5_reduce
I0403 15:01:35.449681 11522 net.cpp:91] Creating Layer inception_4c/relu_5x5_reduce
I0403 15:01:35.449697 11522 net.cpp:425] inception_4c/relu_5x5_reduce <- inception_4c/5x5_reduce
I0403 15:01:35.449714 11522 net.cpp:386] inception_4c/relu_5x5_reduce -> inception_4c/5x5_reduce (in-place)
I0403 15:01:35.449911 11522 net.cpp:141] Setting up inception_4c/relu_5x5_reduce
I0403 15:01:35.449937 11522 net.cpp:148] Top shape: 24 24 14 14 (112896)
I0403 15:01:35.449954 11522 net.cpp:156] Memory required for data: 1048562976
I0403 15:01:35.449968 11522 layer_factory.hpp:77] Creating layer inception_4c/5x5
I0403 15:01:35.449990 11522 net.cpp:91] Creating Layer inception_4c/5x5
I0403 15:01:35.450007 11522 net.cpp:425] inception_4c/5x5 <- inception_4c/5x5_reduce
I0403 15:01:35.450026 11522 net.cpp:399] inception_4c/5x5 -> inception_4c/5x5
I0403 15:01:35.451237 11522 net.cpp:141] Setting up inception_4c/5x5
I0403 15:01:35.451267 11522 net.cpp:148] Top shape: 24 64 14 14 (301056)
I0403 15:01:35.451285 11522 net.cpp:156] Memory required for data: 1049767200
I0403 15:01:35.451303 11522 layer_factory.hpp:77] Creating layer inception_4c/relu_5x5
I0403 15:01:35.451321 11522 net.cpp:91] Creating Layer inception_4c/relu_5x5
I0403 15:01:35.451339 11522 net.cpp:425] inception_4c/relu_5x5 <- inception_4c/5x5
I0403 15:01:35.451362 11522 net.cpp:386] inception_4c/relu_5x5 -> inception_4c/5x5 (in-place)
I0403 15:01:35.451644 11522 net.cpp:141] Setting up inception_4c/relu_5x5
I0403 15:01:35.451673 11522 net.cpp:148] Top shape: 24 64 14 14 (301056)
I0403 15:01:35.451689 11522 net.cpp:156] Memory required for data: 1050971424
I0403 15:01:35.451704 11522 layer_factory.hpp:77] Creating layer inception_4c/pool
I0403 15:01:35.451720 11522 net.cpp:91] Creating Layer inception_4c/pool
I0403 15:01:35.451736 11522 net.cpp:425] inception_4c/pool <- inception_4b/output_inception_4b/output_0_split_3
I0403 15:01:35.451755 11522 net.cpp:399] inception_4c/pool -> inception_4c/pool
I0403 15:01:35.451817 11522 net.cpp:141] Setting up inception_4c/pool
I0403 15:01:35.451840 11522 net.cpp:148] Top shape: 24 512 14 14 (2408448)
I0403 15:01:35.451855 11522 net.cpp:156] Memory required for data: 1060605216
I0403 15:01:35.451870 11522 layer_factory.hpp:77] Creating layer inception_4c/pool_proj
I0403 15:01:35.451891 11522 net.cpp:91] Creating Layer inception_4c/pool_proj
I0403 15:01:35.451910 11522 net.cpp:425] inception_4c/pool_proj <- inception_4c/pool
I0403 15:01:35.451930 11522 net.cpp:399] inception_4c/pool_proj -> inception_4c/pool_proj
I0403 15:01:35.453109 11522 net.cpp:141] Setting up inception_4c/pool_proj
I0403 15:01:35.453138 11522 net.cpp:148] Top shape: 24 64 14 14 (301056)
I0403 15:01:35.453168 11522 net.cpp:156] Memory required for data: 1061809440
I0403 15:01:35.453188 11522 layer_factory.hpp:77] Creating layer inception_4c/relu_pool_proj
I0403 15:01:35.453210 11522 net.cpp:91] Creating Layer inception_4c/relu_pool_proj
I0403 15:01:35.453228 11522 net.cpp:425] inception_4c/relu_pool_proj <- inception_4c/pool_proj
I0403 15:01:35.453245 11522 net.cpp:386] inception_4c/relu_pool_proj -> inception_4c/pool_proj (in-place)
I0403 15:01:35.453434 11522 net.cpp:141] Setting up inception_4c/relu_pool_proj
I0403 15:01:35.453461 11522 net.cpp:148] Top shape: 24 64 14 14 (301056)
I0403 15:01:35.453476 11522 net.cpp:156] Memory required for data: 1063013664
I0403 15:01:35.453491 11522 layer_factory.hpp:77] Creating layer inception_4c/output
I0403 15:01:35.453507 11522 net.cpp:91] Creating Layer inception_4c/output
I0403 15:01:35.453522 11522 net.cpp:425] inception_4c/output <- inception_4c/1x1
I0403 15:01:35.453538 11522 net.cpp:425] inception_4c/output <- inception_4c/3x3
I0403 15:01:35.453554 11522 net.cpp:425] inception_4c/output <- inception_4c/5x5
I0403 15:01:35.453569 11522 net.cpp:425] inception_4c/output <- inception_4c/pool_proj
I0403 15:01:35.453585 11522 net.cpp:399] inception_4c/output -> inception_4c/output
I0403 15:01:35.453631 11522 net.cpp:141] Setting up inception_4c/output
I0403 15:01:35.453654 11522 net.cpp:148] Top shape: 24 512 14 14 (2408448)
I0403 15:01:35.453668 11522 net.cpp:156] Memory required for data: 1072647456
I0403 15:01:35.453683 11522 layer_factory.hpp:77] Creating layer inception_4c/output_inception_4c/output_0_split
I0403 15:01:35.453702 11522 net.cpp:91] Creating Layer inception_4c/output_inception_4c/output_0_split
I0403 15:01:35.453717 11522 net.cpp:425] inception_4c/output_inception_4c/output_0_split <- inception_4c/output
I0403 15:01:35.453734 11522 net.cpp:399] inception_4c/output_inception_4c/output_0_split -> inception_4c/output_inception_4c/output_0_split_0
I0403 15:01:35.453754 11522 net.cpp:399] inception_4c/output_inception_4c/output_0_split -> inception_4c/output_inception_4c/output_0_split_1
I0403 15:01:35.453774 11522 net.cpp:399] inception_4c/output_inception_4c/output_0_split -> inception_4c/output_inception_4c/output_0_split_2
I0403 15:01:35.453794 11522 net.cpp:399] inception_4c/output_inception_4c/output_0_split -> inception_4c/output_inception_4c/output_0_split_3
I0403 15:01:35.453876 11522 net.cpp:141] Setting up inception_4c/output_inception_4c/output_0_split
I0403 15:01:35.453898 11522 net.cpp:148] Top shape: 24 512 14 14 (2408448)
I0403 15:01:35.453914 11522 net.cpp:148] Top shape: 24 512 14 14 (2408448)
I0403 15:01:35.453929 11522 net.cpp:148] Top shape: 24 512 14 14 (2408448)
I0403 15:01:35.453944 11522 net.cpp:148] Top shape: 24 512 14 14 (2408448)
I0403 15:01:35.453958 11522 net.cpp:156] Memory required for data: 1111182624
I0403 15:01:35.453972 11522 layer_factory.hpp:77] Creating layer inception_4d/1x1
I0403 15:01:35.453994 11522 net.cpp:91] Creating Layer inception_4d/1x1
I0403 15:01:35.454011 11522 net.cpp:425] inception_4d/1x1 <- inception_4c/output_inception_4c/output_0_split_0
I0403 15:01:35.454031 11522 net.cpp:399] inception_4d/1x1 -> inception_4d/1x1
I0403 15:01:35.455389 11522 net.cpp:141] Setting up inception_4d/1x1
I0403 15:01:35.455416 11522 net.cpp:148] Top shape: 24 112 14 14 (526848)
I0403 15:01:35.455432 11522 net.cpp:156] Memory required for data: 1113290016
I0403 15:01:35.455451 11522 layer_factory.hpp:77] Creating layer inception_4d/relu_1x1
I0403 15:01:35.455469 11522 net.cpp:91] Creating Layer inception_4d/relu_1x1
I0403 15:01:35.455485 11522 net.cpp:425] inception_4d/relu_1x1 <- inception_4d/1x1
I0403 15:01:35.455505 11522 net.cpp:386] inception_4d/relu_1x1 -> inception_4d/1x1 (in-place)
I0403 15:01:35.455690 11522 net.cpp:141] Setting up inception_4d/relu_1x1
I0403 15:01:35.455715 11522 net.cpp:148] Top shape: 24 112 14 14 (526848)
I0403 15:01:35.455730 11522 net.cpp:156] Memory required for data: 1115397408
I0403 15:01:35.455746 11522 layer_factory.hpp:77] Creating layer inception_4d/3x3_reduce
I0403 15:01:35.455785 11522 net.cpp:91] Creating Layer inception_4d/3x3_reduce
I0403 15:01:35.455802 11522 net.cpp:425] inception_4d/3x3_reduce <- inception_4c/output_inception_4c/output_0_split_1
I0403 15:01:35.455824 11522 net.cpp:399] inception_4d/3x3_reduce -> inception_4d/3x3_reduce
I0403 15:01:35.457336 11522 net.cpp:141] Setting up inception_4d/3x3_reduce
I0403 15:01:35.457372 11522 net.cpp:148] Top shape: 24 144 14 14 (677376)
I0403 15:01:35.457402 11522 net.cpp:156] Memory required for data: 1118106912
I0403 15:01:35.457422 11522 layer_factory.hpp:77] Creating layer inception_4d/relu_3x3_reduce
I0403 15:01:35.457442 11522 net.cpp:91] Creating Layer inception_4d/relu_3x3_reduce
I0403 15:01:35.457458 11522 net.cpp:425] inception_4d/relu_3x3_reduce <- inception_4d/3x3_reduce
I0403 15:01:35.457479 11522 net.cpp:386] inception_4d/relu_3x3_reduce -> inception_4d/3x3_reduce (in-place)
I0403 15:01:35.457795 11522 net.cpp:141] Setting up inception_4d/relu_3x3_reduce
I0403 15:01:35.457828 11522 net.cpp:148] Top shape: 24 144 14 14 (677376)
I0403 15:01:35.457845 11522 net.cpp:156] Memory required for data: 1120816416
I0403 15:01:35.457862 11522 layer_factory.hpp:77] Creating layer inception_4d/3x3
I0403 15:01:35.457886 11522 net.cpp:91] Creating Layer inception_4d/3x3
I0403 15:01:35.457917 11522 net.cpp:425] inception_4d/3x3 <- inception_4d/3x3_reduce
I0403 15:01:35.457938 11522 net.cpp:399] inception_4d/3x3 -> inception_4d/3x3
I0403 15:01:35.462303 11522 net.cpp:141] Setting up inception_4d/3x3
I0403 15:01:35.462333 11522 net.cpp:148] Top shape: 24 288 14 14 (1354752)
I0403 15:01:35.462352 11522 net.cpp:156] Memory required for data: 1126235424
I0403 15:01:35.462373 11522 layer_factory.hpp:77] Creating layer inception_4d/relu_3x3
I0403 15:01:35.462395 11522 net.cpp:91] Creating Layer inception_4d/relu_3x3
I0403 15:01:35.462414 11522 net.cpp:425] inception_4d/relu_3x3 <- inception_4d/3x3
I0403 15:01:35.462432 11522 net.cpp:386] inception_4d/relu_3x3 -> inception_4d/3x3 (in-place)
I0403 15:01:35.462618 11522 net.cpp:141] Setting up inception_4d/relu_3x3
I0403 15:01:35.462646 11522 net.cpp:148] Top shape: 24 288 14 14 (1354752)
I0403 15:01:35.462661 11522 net.cpp:156] Memory required for data: 1131654432
I0403 15:01:35.462676 11522 layer_factory.hpp:77] Creating layer inception_4d/5x5_reduce
I0403 15:01:35.462697 11522 net.cpp:91] Creating Layer inception_4d/5x5_reduce
I0403 15:01:35.462714 11522 net.cpp:425] inception_4d/5x5_reduce <- inception_4c/output_inception_4c/output_0_split_2
I0403 15:01:35.462736 11522 net.cpp:399] inception_4d/5x5_reduce -> inception_4d/5x5_reduce
I0403 15:01:35.463901 11522 net.cpp:141] Setting up inception_4d/5x5_reduce
I0403 15:01:35.463928 11522 net.cpp:148] Top shape: 24 32 14 14 (150528)
I0403 15:01:35.463944 11522 net.cpp:156] Memory required for data: 1132256544
I0403 15:01:35.463963 11522 layer_factory.hpp:77] Creating layer inception_4d/relu_5x5_reduce
I0403 15:01:35.463980 11522 net.cpp:91] Creating Layer inception_4d/relu_5x5_reduce
I0403 15:01:35.463996 11522 net.cpp:425] inception_4d/relu_5x5_reduce <- inception_4d/5x5_reduce
I0403 15:01:35.464016 11522 net.cpp:386] inception_4d/relu_5x5_reduce -> inception_4d/5x5_reduce (in-place)
I0403 15:01:35.464205 11522 net.cpp:141] Setting up inception_4d/relu_5x5_reduce
I0403 15:01:35.464231 11522 net.cpp:148] Top shape: 24 32 14 14 (150528)
I0403 15:01:35.464246 11522 net.cpp:156] Memory required for data: 1132858656
I0403 15:01:35.464260 11522 layer_factory.hpp:77] Creating layer inception_4d/5x5
I0403 15:01:35.464283 11522 net.cpp:91] Creating Layer inception_4d/5x5
I0403 15:01:35.464301 11522 net.cpp:425] inception_4d/5x5 <- inception_4d/5x5_reduce
I0403 15:01:35.464321 11522 net.cpp:399] inception_4d/5x5 -> inception_4d/5x5
I0403 15:01:35.465838 11522 net.cpp:141] Setting up inception_4d/5x5
I0403 15:01:35.465868 11522 net.cpp:148] Top shape: 24 64 14 14 (301056)
I0403 15:01:35.465885 11522 net.cpp:156] Memory required for data: 1134062880
I0403 15:01:35.465917 11522 layer_factory.hpp:77] Creating layer inception_4d/relu_5x5
I0403 15:01:35.465955 11522 net.cpp:91] Creating Layer inception_4d/relu_5x5
I0403 15:01:35.465973 11522 net.cpp:425] inception_4d/relu_5x5 <- inception_4d/5x5
I0403 15:01:35.465991 11522 net.cpp:386] inception_4d/relu_5x5 -> inception_4d/5x5 (in-place)
I0403 15:01:35.466297 11522 net.cpp:141] Setting up inception_4d/relu_5x5
I0403 15:01:35.466325 11522 net.cpp:148] Top shape: 24 64 14 14 (301056)
I0403 15:01:35.466341 11522 net.cpp:156] Memory required for data: 1135267104
I0403 15:01:35.466362 11522 layer_factory.hpp:77] Creating layer inception_4d/pool
I0403 15:01:35.466383 11522 net.cpp:91] Creating Layer inception_4d/pool
I0403 15:01:35.466403 11522 net.cpp:425] inception_4d/pool <- inception_4c/output_inception_4c/output_0_split_3
I0403 15:01:35.466420 11522 net.cpp:399] inception_4d/pool -> inception_4d/pool
I0403 15:01:35.466490 11522 net.cpp:141] Setting up inception_4d/pool
I0403 15:01:35.466514 11522 net.cpp:148] Top shape: 24 512 14 14 (2408448)
I0403 15:01:35.466531 11522 net.cpp:156] Memory required for data: 1144900896
I0403 15:01:35.466547 11522 layer_factory.hpp:77] Creating layer inception_4d/pool_proj
I0403 15:01:35.466569 11522 net.cpp:91] Creating Layer inception_4d/pool_proj
I0403 15:01:35.466588 11522 net.cpp:425] inception_4d/pool_proj <- inception_4d/pool
I0403 15:01:35.466611 11522 net.cpp:399] inception_4d/pool_proj -> inception_4d/pool_proj
I0403 15:01:35.468384 11522 net.cpp:141] Setting up inception_4d/pool_proj
I0403 15:01:35.468415 11522 net.cpp:148] Top shape: 24 64 14 14 (301056)
I0403 15:01:35.468432 11522 net.cpp:156] Memory required for data: 1146105120
I0403 15:01:35.468451 11522 layer_factory.hpp:77] Creating layer inception_4d/relu_pool_proj
I0403 15:01:35.468472 11522 net.cpp:91] Creating Layer inception_4d/relu_pool_proj
I0403 15:01:35.468490 11522 net.cpp:425] inception_4d/relu_pool_proj <- inception_4d/pool_proj
I0403 15:01:35.468508 11522 net.cpp:386] inception_4d/relu_pool_proj -> inception_4d/pool_proj (in-place)
I0403 15:01:35.468695 11522 net.cpp:141] Setting up inception_4d/relu_pool_proj
I0403 15:01:35.468722 11522 net.cpp:148] Top shape: 24 64 14 14 (301056)
I0403 15:01:35.468737 11522 net.cpp:156] Memory required for data: 1147309344
I0403 15:01:35.468751 11522 layer_factory.hpp:77] Creating layer inception_4d/output
I0403 15:01:35.468771 11522 net.cpp:91] Creating Layer inception_4d/output
I0403 15:01:35.468788 11522 net.cpp:425] inception_4d/output <- inception_4d/1x1
I0403 15:01:35.468806 11522 net.cpp:425] inception_4d/output <- inception_4d/3x3
I0403 15:01:35.468822 11522 net.cpp:425] inception_4d/output <- inception_4d/5x5
I0403 15:01:35.468838 11522 net.cpp:425] inception_4d/output <- inception_4d/pool_proj
I0403 15:01:35.468855 11522 net.cpp:399] inception_4d/output -> inception_4d/output
I0403 15:01:35.468905 11522 net.cpp:141] Setting up inception_4d/output
I0403 15:01:35.468929 11522 net.cpp:148] Top shape: 24 528 14 14 (2483712)
I0403 15:01:35.468943 11522 net.cpp:156] Memory required for data: 1157244192
I0403 15:01:35.468957 11522 layer_factory.hpp:77] Creating layer inception_4d/output_inception_4d/output_0_split
I0403 15:01:35.468976 11522 net.cpp:91] Creating Layer inception_4d/output_inception_4d/output_0_split
I0403 15:01:35.468991 11522 net.cpp:425] inception_4d/output_inception_4d/output_0_split <- inception_4d/output
I0403 15:01:35.469012 11522 net.cpp:399] inception_4d/output_inception_4d/output_0_split -> inception_4d/output_inception_4d/output_0_split_0
I0403 15:01:35.469033 11522 net.cpp:399] inception_4d/output_inception_4d/output_0_split -> inception_4d/output_inception_4d/output_0_split_1
I0403 15:01:35.469053 11522 net.cpp:399] inception_4d/output_inception_4d/output_0_split -> inception_4d/output_inception_4d/output_0_split_2
I0403 15:01:35.469074 11522 net.cpp:399] inception_4d/output_inception_4d/output_0_split -> inception_4d/output_inception_4d/output_0_split_3
I0403 15:01:35.469095 11522 net.cpp:399] inception_4d/output_inception_4d/output_0_split -> inception_4d/output_inception_4d/output_0_split_4
I0403 15:01:35.469202 11522 net.cpp:141] Setting up inception_4d/output_inception_4d/output_0_split
I0403 15:01:35.469238 11522 net.cpp:148] Top shape: 24 528 14 14 (2483712)
I0403 15:01:35.469254 11522 net.cpp:148] Top shape: 24 528 14 14 (2483712)
I0403 15:01:35.469270 11522 net.cpp:148] Top shape: 24 528 14 14 (2483712)
I0403 15:01:35.469286 11522 net.cpp:148] Top shape: 24 528 14 14 (2483712)
I0403 15:01:35.469302 11522 net.cpp:148] Top shape: 24 528 14 14 (2483712)
I0403 15:01:35.469316 11522 net.cpp:156] Memory required for data: 1206918432
I0403 15:01:35.469331 11522 layer_factory.hpp:77] Creating layer loss2/ave_pool
I0403 15:01:35.469352 11522 net.cpp:91] Creating Layer loss2/ave_pool
I0403 15:01:35.469369 11522 net.cpp:425] loss2/ave_pool <- inception_4d/output_inception_4d/output_0_split_0
I0403 15:01:35.469391 11522 net.cpp:399] loss2/ave_pool -> loss2/ave_pool
I0403 15:01:35.469709 11522 net.cpp:141] Setting up loss2/ave_pool
I0403 15:01:35.469735 11522 net.cpp:148] Top shape: 24 528 4 4 (202752)
I0403 15:01:35.469750 11522 net.cpp:156] Memory required for data: 1207729440
I0403 15:01:35.469766 11522 layer_factory.hpp:77] Creating layer loss2/conv
I0403 15:01:35.469789 11522 net.cpp:91] Creating Layer loss2/conv
I0403 15:01:35.469806 11522 net.cpp:425] loss2/conv <- loss2/ave_pool
I0403 15:01:35.469828 11522 net.cpp:399] loss2/conv -> loss2/conv
I0403 15:01:35.471714 11522 net.cpp:141] Setting up loss2/conv
I0403 15:01:35.471745 11522 net.cpp:148] Top shape: 24 128 4 4 (49152)
I0403 15:01:35.471762 11522 net.cpp:156] Memory required for data: 1207926048
I0403 15:01:35.471781 11522 layer_factory.hpp:77] Creating layer loss2/relu_conv
I0403 15:01:35.471803 11522 net.cpp:91] Creating Layer loss2/relu_conv
I0403 15:01:35.471822 11522 net.cpp:425] loss2/relu_conv <- loss2/conv
I0403 15:01:35.471842 11522 net.cpp:386] loss2/relu_conv -> loss2/conv (in-place)
I0403 15:01:35.472127 11522 net.cpp:141] Setting up loss2/relu_conv
I0403 15:01:35.472153 11522 net.cpp:148] Top shape: 24 128 4 4 (49152)
I0403 15:01:35.472168 11522 net.cpp:156] Memory required for data: 1208122656
I0403 15:01:35.472182 11522 layer_factory.hpp:77] Creating layer loss2/fc
I0403 15:01:35.472203 11522 net.cpp:91] Creating Layer loss2/fc
I0403 15:01:35.472221 11522 net.cpp:425] loss2/fc <- loss2/conv
I0403 15:01:35.472242 11522 net.cpp:399] loss2/fc -> loss2/fc
I0403 15:01:35.489944 11522 net.cpp:141] Setting up loss2/fc
I0403 15:01:35.489977 11522 net.cpp:148] Top shape: 24 1024 (24576)
I0403 15:01:35.489995 11522 net.cpp:156] Memory required for data: 1208220960
I0403 15:01:35.490013 11522 layer_factory.hpp:77] Creating layer loss2/relu_fc
I0403 15:01:35.490032 11522 net.cpp:91] Creating Layer loss2/relu_fc
I0403 15:01:35.490051 11522 net.cpp:425] loss2/relu_fc <- loss2/fc
I0403 15:01:35.490072 11522 net.cpp:386] loss2/relu_fc -> loss2/fc (in-place)
I0403 15:01:35.490373 11522 net.cpp:141] Setting up loss2/relu_fc
I0403 15:01:35.490399 11522 net.cpp:148] Top shape: 24 1024 (24576)
I0403 15:01:35.490414 11522 net.cpp:156] Memory required for data: 1208319264
I0403 15:01:35.490430 11522 layer_factory.hpp:77] Creating layer loss2/drop_fc
I0403 15:01:35.490448 11522 net.cpp:91] Creating Layer loss2/drop_fc
I0403 15:01:35.490464 11522 net.cpp:425] loss2/drop_fc <- loss2/fc
I0403 15:01:35.490484 11522 net.cpp:386] loss2/drop_fc -> loss2/fc (in-place)
I0403 15:01:35.490536 11522 net.cpp:141] Setting up loss2/drop_fc
I0403 15:01:35.490558 11522 net.cpp:148] Top shape: 24 1024 (24576)
I0403 15:01:35.490576 11522 net.cpp:156] Memory required for data: 1208417568
I0403 15:01:35.490591 11522 layer_factory.hpp:77] Creating layer loss2/classifier_plantvillage
I0403 15:01:35.490608 11522 net.cpp:91] Creating Layer loss2/classifier_plantvillage
I0403 15:01:35.490624 11522 net.cpp:425] loss2/classifier_plantvillage <- loss2/fc
I0403 15:01:35.490646 11522 net.cpp:399] loss2/classifier_plantvillage -> loss2/classifier_plantvillage
I0403 15:01:35.491049 11522 net.cpp:141] Setting up loss2/classifier_plantvillage
I0403 15:01:35.491072 11522 net.cpp:148] Top shape: 24 38 (912)
I0403 15:01:35.491103 11522 net.cpp:156] Memory required for data: 1208421216
I0403 15:01:35.491122 11522 layer_factory.hpp:77] Creating layer loss2/classifier_plantvillage_loss2/classifier_plantvillage_0_split
I0403 15:01:35.491142 11522 net.cpp:91] Creating Layer loss2/classifier_plantvillage_loss2/classifier_plantvillage_0_split
I0403 15:01:35.491158 11522 net.cpp:425] loss2/classifier_plantvillage_loss2/classifier_plantvillage_0_split <- loss2/classifier_plantvillage
I0403 15:01:35.491176 11522 net.cpp:399] loss2/classifier_plantvillage_loss2/classifier_plantvillage_0_split -> loss2/classifier_plantvillage_loss2/classifier_plantvillage_0_split_0
I0403 15:01:35.491200 11522 net.cpp:399] loss2/classifier_plantvillage_loss2/classifier_plantvillage_0_split -> loss2/classifier_plantvillage_loss2/classifier_plantvillage_0_split_1
I0403 15:01:35.491221 11522 net.cpp:399] loss2/classifier_plantvillage_loss2/classifier_plantvillage_0_split -> loss2/classifier_plantvillage_loss2/classifier_plantvillage_0_split_2
I0403 15:01:35.491297 11522 net.cpp:141] Setting up loss2/classifier_plantvillage_loss2/classifier_plantvillage_0_split
I0403 15:01:35.491320 11522 net.cpp:148] Top shape: 24 38 (912)
I0403 15:01:35.491336 11522 net.cpp:148] Top shape: 24 38 (912)
I0403 15:01:35.491355 11522 net.cpp:148] Top shape: 24 38 (912)
I0403 15:01:35.491370 11522 net.cpp:156] Memory required for data: 1208432160
I0403 15:01:35.491385 11522 layer_factory.hpp:77] Creating layer inception_4e/1x1
I0403 15:01:35.491407 11522 net.cpp:91] Creating Layer inception_4e/1x1
I0403 15:01:35.491425 11522 net.cpp:425] inception_4e/1x1 <- inception_4d/output_inception_4d/output_0_split_1
I0403 15:01:35.491444 11522 net.cpp:399] inception_4e/1x1 -> inception_4e/1x1
I0403 15:01:35.493258 11522 net.cpp:141] Setting up inception_4e/1x1
I0403 15:01:35.493288 11522 net.cpp:148] Top shape: 24 256 14 14 (1204224)
I0403 15:01:35.493305 11522 net.cpp:156] Memory required for data: 1213249056
I0403 15:01:35.493325 11522 layer_factory.hpp:77] Creating layer inception_4e/relu_1x1
I0403 15:01:35.493343 11522 net.cpp:91] Creating Layer inception_4e/relu_1x1
I0403 15:01:35.493371 11522 net.cpp:425] inception_4e/relu_1x1 <- inception_4e/1x1
I0403 15:01:35.493389 11522 net.cpp:386] inception_4e/relu_1x1 -> inception_4e/1x1 (in-place)
I0403 15:01:35.493687 11522 net.cpp:141] Setting up inception_4e/relu_1x1
I0403 15:01:35.493716 11522 net.cpp:148] Top shape: 24 256 14 14 (1204224)
I0403 15:01:35.493731 11522 net.cpp:156] Memory required for data: 1218065952
I0403 15:01:35.493746 11522 layer_factory.hpp:77] Creating layer inception_4e/3x3_reduce
I0403 15:01:35.493770 11522 net.cpp:91] Creating Layer inception_4e/3x3_reduce
I0403 15:01:35.493803 11522 net.cpp:425] inception_4e/3x3_reduce <- inception_4d/output_inception_4d/output_0_split_2
I0403 15:01:35.493823 11522 net.cpp:399] inception_4e/3x3_reduce -> inception_4e/3x3_reduce
I0403 15:01:35.496057 11522 net.cpp:141] Setting up inception_4e/3x3_reduce
I0403 15:01:35.496088 11522 net.cpp:148] Top shape: 24 160 14 14 (752640)
I0403 15:01:35.496104 11522 net.cpp:156] Memory required for data: 1221076512
I0403 15:01:35.496124 11522 layer_factory.hpp:77] Creating layer inception_4e/relu_3x3_reduce
I0403 15:01:35.496148 11522 net.cpp:91] Creating Layer inception_4e/relu_3x3_reduce
I0403 15:01:35.496168 11522 net.cpp:425] inception_4e/relu_3x3_reduce <- inception_4e/3x3_reduce
I0403 15:01:35.496187 11522 net.cpp:386] inception_4e/relu_3x3_reduce -> inception_4e/3x3_reduce (in-place)
I0403 15:01:35.496387 11522 net.cpp:141] Setting up inception_4e/relu_3x3_reduce
I0403 15:01:35.496417 11522 net.cpp:148] Top shape: 24 160 14 14 (752640)
I0403 15:01:35.496433 11522 net.cpp:156] Memory required for data: 1224087072
I0403 15:01:35.496450 11522 layer_factory.hpp:77] Creating layer inception_4e/3x3
I0403 15:01:35.496474 11522 net.cpp:91] Creating Layer inception_4e/3x3
I0403 15:01:35.496495 11522 net.cpp:425] inception_4e/3x3 <- inception_4e/3x3_reduce
I0403 15:01:35.496513 11522 net.cpp:399] inception_4e/3x3 -> inception_4e/3x3
I0403 15:01:35.501694 11522 net.cpp:141] Setting up inception_4e/3x3
I0403 15:01:35.501744 11522 net.cpp:148] Top shape: 24 320 14 14 (1505280)
I0403 15:01:35.501763 11522 net.cpp:156] Memory required for data: 1230108192
I0403 15:01:35.501783 11522 layer_factory.hpp:77] Creating layer inception_4e/relu_3x3
I0403 15:01:35.501802 11522 net.cpp:91] Creating Layer inception_4e/relu_3x3
I0403 15:01:35.501822 11522 net.cpp:425] inception_4e/relu_3x3 <- inception_4e/3x3
I0403 15:01:35.501843 11522 net.cpp:386] inception_4e/relu_3x3 -> inception_4e/3x3 (in-place)
I0403 15:01:35.502156 11522 net.cpp:141] Setting up inception_4e/relu_3x3
I0403 15:01:35.502184 11522 net.cpp:148] Top shape: 24 320 14 14 (1505280)
I0403 15:01:35.502202 11522 net.cpp:156] Memory required for data: 1236129312
I0403 15:01:35.502218 11522 layer_factory.hpp:77] Creating layer inception_4e/5x5_reduce
I0403 15:01:35.502243 11522 net.cpp:91] Creating Layer inception_4e/5x5_reduce
I0403 15:01:35.502264 11522 net.cpp:425] inception_4e/5x5_reduce <- inception_4d/output_inception_4d/output_0_split_3
I0403 15:01:35.502287 11522 net.cpp:399] inception_4e/5x5_reduce -> inception_4e/5x5_reduce
I0403 15:01:35.503451 11522 net.cpp:141] Setting up inception_4e/5x5_reduce
I0403 15:01:35.503482 11522 net.cpp:148] Top shape: 24 32 14 14 (150528)
I0403 15:01:35.503499 11522 net.cpp:156] Memory required for data: 1236731424
I0403 15:01:35.503518 11522 layer_factory.hpp:77] Creating layer inception_4e/relu_5x5_reduce
I0403 15:01:35.503540 11522 net.cpp:91] Creating Layer inception_4e/relu_5x5_reduce
I0403 15:01:35.503558 11522 net.cpp:425] inception_4e/relu_5x5_reduce <- inception_4e/5x5_reduce
I0403 15:01:35.503579 11522 net.cpp:386] inception_4e/relu_5x5_reduce -> inception_4e/5x5_reduce (in-place)
I0403 15:01:35.503891 11522 net.cpp:141] Setting up inception_4e/relu_5x5_reduce
I0403 15:01:35.503918 11522 net.cpp:148] Top shape: 24 32 14 14 (150528)
I0403 15:01:35.503936 11522 net.cpp:156] Memory required for data: 1237333536
I0403 15:01:35.503952 11522 layer_factory.hpp:77] Creating layer inception_4e/5x5
I0403 15:01:35.503993 11522 net.cpp:91] Creating Layer inception_4e/5x5
I0403 15:01:35.504014 11522 net.cpp:425] inception_4e/5x5 <- inception_4e/5x5_reduce
I0403 15:01:35.504035 11522 net.cpp:399] inception_4e/5x5 -> inception_4e/5x5
I0403 15:01:35.505990 11522 net.cpp:141] Setting up inception_4e/5x5
I0403 15:01:35.506019 11522 net.cpp:148] Top shape: 24 128 14 14 (602112)
I0403 15:01:35.506038 11522 net.cpp:156] Memory required for data: 1239741984
I0403 15:01:35.506059 11522 layer_factory.hpp:77] Creating layer inception_4e/relu_5x5
I0403 15:01:35.506080 11522 net.cpp:91] Creating Layer inception_4e/relu_5x5
I0403 15:01:35.506100 11522 net.cpp:425] inception_4e/relu_5x5 <- inception_4e/5x5
I0403 15:01:35.506119 11522 net.cpp:386] inception_4e/relu_5x5 -> inception_4e/5x5 (in-place)
I0403 15:01:35.506326 11522 net.cpp:141] Setting up inception_4e/relu_5x5
I0403 15:01:35.506359 11522 net.cpp:148] Top shape: 24 128 14 14 (602112)
I0403 15:01:35.506378 11522 net.cpp:156] Memory required for data: 1242150432
I0403 15:01:35.506394 11522 layer_factory.hpp:77] Creating layer inception_4e/pool
I0403 15:01:35.506417 11522 net.cpp:91] Creating Layer inception_4e/pool
I0403 15:01:35.506435 11522 net.cpp:425] inception_4e/pool <- inception_4d/output_inception_4d/output_0_split_4
I0403 15:01:35.506455 11522 net.cpp:399] inception_4e/pool -> inception_4e/pool
I0403 15:01:35.506531 11522 net.cpp:141] Setting up inception_4e/pool
I0403 15:01:35.506556 11522 net.cpp:148] Top shape: 24 528 14 14 (2483712)
I0403 15:01:35.506573 11522 net.cpp:156] Memory required for data: 1252085280
I0403 15:01:35.506588 11522 layer_factory.hpp:77] Creating layer inception_4e/pool_proj
I0403 15:01:35.506610 11522 net.cpp:91] Creating Layer inception_4e/pool_proj
I0403 15:01:35.506629 11522 net.cpp:425] inception_4e/pool_proj <- inception_4e/pool
I0403 15:01:35.506650 11522 net.cpp:399] inception_4e/pool_proj -> inception_4e/pool_proj
I0403 15:01:35.508211 11522 net.cpp:141] Setting up inception_4e/pool_proj
I0403 15:01:35.508254 11522 net.cpp:148] Top shape: 24 128 14 14 (602112)
I0403 15:01:35.508272 11522 net.cpp:156] Memory required for data: 1254493728
I0403 15:01:35.508291 11522 layer_factory.hpp:77] Creating layer inception_4e/relu_pool_proj
I0403 15:01:35.508313 11522 net.cpp:91] Creating Layer inception_4e/relu_pool_proj
I0403 15:01:35.508333 11522 net.cpp:425] inception_4e/relu_pool_proj <- inception_4e/pool_proj
I0403 15:01:35.508357 11522 net.cpp:386] inception_4e/relu_pool_proj -> inception_4e/pool_proj (in-place)
I0403 15:01:35.508671 11522 net.cpp:141] Setting up inception_4e/relu_pool_proj
I0403 15:01:35.508698 11522 net.cpp:148] Top shape: 24 128 14 14 (602112)
I0403 15:01:35.508716 11522 net.cpp:156] Memory required for data: 1256902176
I0403 15:01:35.508731 11522 layer_factory.hpp:77] Creating layer inception_4e/output
I0403 15:01:35.508750 11522 net.cpp:91] Creating Layer inception_4e/output
I0403 15:01:35.508767 11522 net.cpp:425] inception_4e/output <- inception_4e/1x1
I0403 15:01:35.508786 11522 net.cpp:425] inception_4e/output <- inception_4e/3x3
I0403 15:01:35.508805 11522 net.cpp:425] inception_4e/output <- inception_4e/5x5
I0403 15:01:35.508821 11522 net.cpp:425] inception_4e/output <- inception_4e/pool_proj
I0403 15:01:35.508841 11522 net.cpp:399] inception_4e/output -> inception_4e/output
I0403 15:01:35.508894 11522 net.cpp:141] Setting up inception_4e/output
I0403 15:01:35.508924 11522 net.cpp:148] Top shape: 24 832 14 14 (3913728)
I0403 15:01:35.508940 11522 net.cpp:156] Memory required for data: 1272557088
I0403 15:01:35.508957 11522 layer_factory.hpp:77] Creating layer pool4/3x3_s2
I0403 15:01:35.508976 11522 net.cpp:91] Creating Layer pool4/3x3_s2
I0403 15:01:35.508993 11522 net.cpp:425] pool4/3x3_s2 <- inception_4e/output
I0403 15:01:35.509016 11522 net.cpp:399] pool4/3x3_s2 -> pool4/3x3_s2
I0403 15:01:35.509088 11522 net.cpp:141] Setting up pool4/3x3_s2
I0403 15:01:35.509114 11522 net.cpp:148] Top shape: 24 832 7 7 (978432)
I0403 15:01:35.509131 11522 net.cpp:156] Memory required for data: 1276470816
I0403 15:01:35.509148 11522 layer_factory.hpp:77] Creating layer pool4/3x3_s2_pool4/3x3_s2_0_split
I0403 15:01:35.509169 11522 net.cpp:91] Creating Layer pool4/3x3_s2_pool4/3x3_s2_0_split
I0403 15:01:35.509187 11522 net.cpp:425] pool4/3x3_s2_pool4/3x3_s2_0_split <- pool4/3x3_s2
I0403 15:01:35.509205 11522 net.cpp:399] pool4/3x3_s2_pool4/3x3_s2_0_split -> pool4/3x3_s2_pool4/3x3_s2_0_split_0
I0403 15:01:35.509227 11522 net.cpp:399] pool4/3x3_s2_pool4/3x3_s2_0_split -> pool4/3x3_s2_pool4/3x3_s2_0_split_1
I0403 15:01:35.509248 11522 net.cpp:399] pool4/3x3_s2_pool4/3x3_s2_0_split -> pool4/3x3_s2_pool4/3x3_s2_0_split_2
I0403 15:01:35.509270 11522 net.cpp:399] pool4/3x3_s2_pool4/3x3_s2_0_split -> pool4/3x3_s2_pool4/3x3_s2_0_split_3
I0403 15:01:35.509371 11522 net.cpp:141] Setting up pool4/3x3_s2_pool4/3x3_s2_0_split
I0403 15:01:35.509395 11522 net.cpp:148] Top shape: 24 832 7 7 (978432)
I0403 15:01:35.509413 11522 net.cpp:148] Top shape: 24 832 7 7 (978432)
I0403 15:01:35.509428 11522 net.cpp:148] Top shape: 24 832 7 7 (978432)
I0403 15:01:35.509444 11522 net.cpp:148] Top shape: 24 832 7 7 (978432)
I0403 15:01:35.509459 11522 net.cpp:156] Memory required for data: 1292125728
I0403 15:01:35.509474 11522 layer_factory.hpp:77] Creating layer inception_5a/1x1
I0403 15:01:35.509496 11522 net.cpp:91] Creating Layer inception_5a/1x1
I0403 15:01:35.509515 11522 net.cpp:425] inception_5a/1x1 <- pool4/3x3_s2_pool4/3x3_s2_0_split_0
I0403 15:01:35.509536 11522 net.cpp:399] inception_5a/1x1 -> inception_5a/1x1
I0403 15:01:35.512529 11522 net.cpp:141] Setting up inception_5a/1x1
I0403 15:01:35.512560 11522 net.cpp:148] Top shape: 24 256 7 7 (301056)
I0403 15:01:35.512578 11522 net.cpp:156] Memory required for data: 1293329952
I0403 15:01:35.512598 11522 layer_factory.hpp:77] Creating layer inception_5a/relu_1x1
I0403 15:01:35.512619 11522 net.cpp:91] Creating Layer inception_5a/relu_1x1
I0403 15:01:35.512636 11522 net.cpp:425] inception_5a/relu_1x1 <- inception_5a/1x1
I0403 15:01:35.512655 11522 net.cpp:386] inception_5a/relu_1x1 -> inception_5a/1x1 (in-place)
I0403 15:01:35.512975 11522 net.cpp:141] Setting up inception_5a/relu_1x1
I0403 15:01:35.513002 11522 net.cpp:148] Top shape: 24 256 7 7 (301056)
I0403 15:01:35.513018 11522 net.cpp:156] Memory required for data: 1294534176
I0403 15:01:35.513034 11522 layer_factory.hpp:77] Creating layer inception_5a/3x3_reduce
I0403 15:01:35.513057 11522 net.cpp:91] Creating Layer inception_5a/3x3_reduce
I0403 15:01:35.513077 11522 net.cpp:425] inception_5a/3x3_reduce <- pool4/3x3_s2_pool4/3x3_s2_0_split_1
I0403 15:01:35.513098 11522 net.cpp:399] inception_5a/3x3_reduce -> inception_5a/3x3_reduce
I0403 15:01:35.515619 11522 net.cpp:141] Setting up inception_5a/3x3_reduce
I0403 15:01:35.515650 11522 net.cpp:148] Top shape: 24 160 7 7 (188160)
I0403 15:01:35.515669 11522 net.cpp:156] Memory required for data: 1295286816
I0403 15:01:35.515688 11522 layer_factory.hpp:77] Creating layer inception_5a/relu_3x3_reduce
I0403 15:01:35.515709 11522 net.cpp:91] Creating Layer inception_5a/relu_3x3_reduce
I0403 15:01:35.515727 11522 net.cpp:425] inception_5a/relu_3x3_reduce <- inception_5a/3x3_reduce
I0403 15:01:35.515748 11522 net.cpp:386] inception_5a/relu_3x3_reduce -> inception_5a/3x3_reduce (in-place)
I0403 15:01:35.515936 11522 net.cpp:141] Setting up inception_5a/relu_3x3_reduce
I0403 15:01:35.515961 11522 net.cpp:148] Top shape: 24 160 7 7 (188160)
I0403 15:01:35.515976 11522 net.cpp:156] Memory required for data: 1296039456
I0403 15:01:35.515991 11522 layer_factory.hpp:77] Creating layer inception_5a/3x3
I0403 15:01:35.516013 11522 net.cpp:91] Creating Layer inception_5a/3x3
I0403 15:01:35.516031 11522 net.cpp:425] inception_5a/3x3 <- inception_5a/3x3_reduce
I0403 15:01:35.516053 11522 net.cpp:399] inception_5a/3x3 -> inception_5a/3x3
I0403 15:01:35.521102 11522 net.cpp:141] Setting up inception_5a/3x3
I0403 15:01:35.521134 11522 net.cpp:148] Top shape: 24 320 7 7 (376320)
I0403 15:01:35.521152 11522 net.cpp:156] Memory required for data: 1297544736
I0403 15:01:35.521172 11522 layer_factory.hpp:77] Creating layer inception_5a/relu_3x3
I0403 15:01:35.521193 11522 net.cpp:91] Creating Layer inception_5a/relu_3x3
I0403 15:01:35.521212 11522 net.cpp:425] inception_5a/relu_3x3 <- inception_5a/3x3
I0403 15:01:35.521231 11522 net.cpp:386] inception_5a/relu_3x3 -> inception_5a/3x3 (in-place)
I0403 15:01:35.521531 11522 net.cpp:141] Setting up inception_5a/relu_3x3
I0403 15:01:35.521559 11522 net.cpp:148] Top shape: 24 320 7 7 (376320)
I0403 15:01:35.521575 11522 net.cpp:156] Memory required for data: 1299050016
I0403 15:01:35.521591 11522 layer_factory.hpp:77] Creating layer inception_5a/5x5_reduce
I0403 15:01:35.521628 11522 net.cpp:91] Creating Layer inception_5a/5x5_reduce
I0403 15:01:35.521648 11522 net.cpp:425] inception_5a/5x5_reduce <- pool4/3x3_s2_pool4/3x3_s2_0_split_2
I0403 15:01:35.521672 11522 net.cpp:399] inception_5a/5x5_reduce -> inception_5a/5x5_reduce
I0403 15:01:35.522874 11522 net.cpp:141] Setting up inception_5a/5x5_reduce
I0403 15:01:35.522904 11522 net.cpp:148] Top shape: 24 32 7 7 (37632)
I0403 15:01:35.522922 11522 net.cpp:156] Memory required for data: 1299200544
I0403 15:01:35.522941 11522 layer_factory.hpp:77] Creating layer inception_5a/relu_5x5_reduce
I0403 15:01:35.522965 11522 net.cpp:91] Creating Layer inception_5a/relu_5x5_reduce
I0403 15:01:35.522985 11522 net.cpp:425] inception_5a/relu_5x5_reduce <- inception_5a/5x5_reduce
I0403 15:01:35.523005 11522 net.cpp:386] inception_5a/relu_5x5_reduce -> inception_5a/5x5_reduce (in-place)
I0403 15:01:35.523308 11522 net.cpp:141] Setting up inception_5a/relu_5x5_reduce
I0403 15:01:35.523335 11522 net.cpp:148] Top shape: 24 32 7 7 (37632)
I0403 15:01:35.523362 11522 net.cpp:156] Memory required for data: 1299351072
I0403 15:01:35.523381 11522 layer_factory.hpp:77] Creating layer inception_5a/5x5
I0403 15:01:35.523406 11522 net.cpp:91] Creating Layer inception_5a/5x5
I0403 15:01:35.523427 11522 net.cpp:425] inception_5a/5x5 <- inception_5a/5x5_reduce
I0403 15:01:35.523447 11522 net.cpp:399] inception_5a/5x5 -> inception_5a/5x5
I0403 15:01:35.525184 11522 net.cpp:141] Setting up inception_5a/5x5
I0403 15:01:35.525226 11522 net.cpp:148] Top shape: 24 128 7 7 (150528)
I0403 15:01:35.525243 11522 net.cpp:156] Memory required for data: 1299953184
I0403 15:01:35.525262 11522 layer_factory.hpp:77] Creating layer inception_5a/relu_5x5
I0403 15:01:35.525285 11522 net.cpp:91] Creating Layer inception_5a/relu_5x5
I0403 15:01:35.525302 11522 net.cpp:425] inception_5a/relu_5x5 <- inception_5a/5x5
I0403 15:01:35.525320 11522 net.cpp:386] inception_5a/relu_5x5 -> inception_5a/5x5 (in-place)
I0403 15:01:35.525516 11522 net.cpp:141] Setting up inception_5a/relu_5x5
I0403 15:01:35.525542 11522 net.cpp:148] Top shape: 24 128 7 7 (150528)
I0403 15:01:35.525557 11522 net.cpp:156] Memory required for data: 1300555296
I0403 15:01:35.525573 11522 layer_factory.hpp:77] Creating layer inception_5a/pool
I0403 15:01:35.525593 11522 net.cpp:91] Creating Layer inception_5a/pool
I0403 15:01:35.525610 11522 net.cpp:425] inception_5a/pool <- pool4/3x3_s2_pool4/3x3_s2_0_split_3
I0403 15:01:35.525629 11522 net.cpp:399] inception_5a/pool -> inception_5a/pool
I0403 15:01:35.525701 11522 net.cpp:141] Setting up inception_5a/pool
I0403 15:01:35.525724 11522 net.cpp:148] Top shape: 24 832 7 7 (978432)
I0403 15:01:35.525738 11522 net.cpp:156] Memory required for data: 1304469024
I0403 15:01:35.525753 11522 layer_factory.hpp:77] Creating layer inception_5a/pool_proj
I0403 15:01:35.525776 11522 net.cpp:91] Creating Layer inception_5a/pool_proj
I0403 15:01:35.525794 11522 net.cpp:425] inception_5a/pool_proj <- inception_5a/pool
I0403 15:01:35.525815 11522 net.cpp:399] inception_5a/pool_proj -> inception_5a/pool_proj
I0403 15:01:35.528105 11522 net.cpp:141] Setting up inception_5a/pool_proj
I0403 15:01:35.528134 11522 net.cpp:148] Top shape: 24 128 7 7 (150528)
I0403 15:01:35.528152 11522 net.cpp:156] Memory required for data: 1305071136
I0403 15:01:35.528172 11522 layer_factory.hpp:77] Creating layer inception_5a/relu_pool_proj
I0403 15:01:35.528192 11522 net.cpp:91] Creating Layer inception_5a/relu_pool_proj
I0403 15:01:35.528209 11522 net.cpp:425] inception_5a/relu_pool_proj <- inception_5a/pool_proj
I0403 15:01:35.528230 11522 net.cpp:386] inception_5a/relu_pool_proj -> inception_5a/pool_proj (in-place)
I0403 15:01:35.528532 11522 net.cpp:141] Setting up inception_5a/relu_pool_proj
I0403 15:01:35.528559 11522 net.cpp:148] Top shape: 24 128 7 7 (150528)
I0403 15:01:35.528576 11522 net.cpp:156] Memory required for data: 1305673248
I0403 15:01:35.528591 11522 layer_factory.hpp:77] Creating layer inception_5a/output
I0403 15:01:35.528609 11522 net.cpp:91] Creating Layer inception_5a/output
I0403 15:01:35.528625 11522 net.cpp:425] inception_5a/output <- inception_5a/1x1
I0403 15:01:35.528641 11522 net.cpp:425] inception_5a/output <- inception_5a/3x3
I0403 15:01:35.528657 11522 net.cpp:425] inception_5a/output <- inception_5a/5x5
I0403 15:01:35.528673 11522 net.cpp:425] inception_5a/output <- inception_5a/pool_proj
I0403 15:01:35.528693 11522 net.cpp:399] inception_5a/output -> inception_5a/output
I0403 15:01:35.528744 11522 net.cpp:141] Setting up inception_5a/output
I0403 15:01:35.528769 11522 net.cpp:148] Top shape: 24 832 7 7 (978432)
I0403 15:01:35.528785 11522 net.cpp:156] Memory required for data: 1309586976
I0403 15:01:35.528800 11522 layer_factory.hpp:77] Creating layer inception_5a/output_inception_5a/output_0_split
I0403 15:01:35.528817 11522 net.cpp:91] Creating Layer inception_5a/output_inception_5a/output_0_split
I0403 15:01:35.528833 11522 net.cpp:425] inception_5a/output_inception_5a/output_0_split <- inception_5a/output
I0403 15:01:35.528851 11522 net.cpp:399] inception_5a/output_inception_5a/output_0_split -> inception_5a/output_inception_5a/output_0_split_0
I0403 15:01:35.528873 11522 net.cpp:399] inception_5a/output_inception_5a/output_0_split -> inception_5a/output_inception_5a/output_0_split_1
I0403 15:01:35.528894 11522 net.cpp:399] inception_5a/output_inception_5a/output_0_split -> inception_5a/output_inception_5a/output_0_split_2
I0403 15:01:35.528915 11522 net.cpp:399] inception_5a/output_inception_5a/output_0_split -> inception_5a/output_inception_5a/output_0_split_3
I0403 15:01:35.529029 11522 net.cpp:141] Setting up inception_5a/output_inception_5a/output_0_split
I0403 15:01:35.529053 11522 net.cpp:148] Top shape: 24 832 7 7 (978432)
I0403 15:01:35.529069 11522 net.cpp:148] Top shape: 24 832 7 7 (978432)
I0403 15:01:35.529085 11522 net.cpp:148] Top shape: 24 832 7 7 (978432)
I0403 15:01:35.529100 11522 net.cpp:148] Top shape: 24 832 7 7 (978432)
I0403 15:01:35.529114 11522 net.cpp:156] Memory required for data: 1325241888
I0403 15:01:35.529129 11522 layer_factory.hpp:77] Creating layer inception_5b/1x1
I0403 15:01:35.529152 11522 net.cpp:91] Creating Layer inception_5b/1x1
I0403 15:01:35.529173 11522 net.cpp:425] inception_5b/1x1 <- inception_5a/output_inception_5a/output_0_split_0
I0403 15:01:35.529192 11522 net.cpp:399] inception_5b/1x1 -> inception_5b/1x1
I0403 15:01:35.533041 11522 net.cpp:141] Setting up inception_5b/1x1
I0403 15:01:35.533072 11522 net.cpp:148] Top shape: 24 384 7 7 (451584)
I0403 15:01:35.533089 11522 net.cpp:156] Memory required for data: 1327048224
I0403 15:01:35.533109 11522 layer_factory.hpp:77] Creating layer inception_5b/relu_1x1
I0403 15:01:35.533128 11522 net.cpp:91] Creating Layer inception_5b/relu_1x1
I0403 15:01:35.533143 11522 net.cpp:425] inception_5b/relu_1x1 <- inception_5b/1x1
I0403 15:01:35.533164 11522 net.cpp:386] inception_5b/relu_1x1 -> inception_5b/1x1 (in-place)
I0403 15:01:35.533474 11522 net.cpp:141] Setting up inception_5b/relu_1x1
I0403 15:01:35.533499 11522 net.cpp:148] Top shape: 24 384 7 7 (451584)
I0403 15:01:35.533514 11522 net.cpp:156] Memory required for data: 1328854560
I0403 15:01:35.533529 11522 layer_factory.hpp:77] Creating layer inception_5b/3x3_reduce
I0403 15:01:35.533551 11522 net.cpp:91] Creating Layer inception_5b/3x3_reduce
I0403 15:01:35.533568 11522 net.cpp:425] inception_5b/3x3_reduce <- inception_5a/output_inception_5a/output_0_split_1
I0403 15:01:35.533591 11522 net.cpp:399] inception_5b/3x3_reduce -> inception_5b/3x3_reduce
I0403 15:01:35.536182 11522 net.cpp:141] Setting up inception_5b/3x3_reduce
I0403 15:01:35.536211 11522 net.cpp:148] Top shape: 24 192 7 7 (225792)
I0403 15:01:35.536228 11522 net.cpp:156] Memory required for data: 1329757728
I0403 15:01:35.536247 11522 layer_factory.hpp:77] Creating layer inception_5b/relu_3x3_reduce
I0403 15:01:35.536265 11522 net.cpp:91] Creating Layer inception_5b/relu_3x3_reduce
I0403 15:01:35.536281 11522 net.cpp:425] inception_5b/relu_3x3_reduce <- inception_5b/3x3_reduce
I0403 15:01:35.536303 11522 net.cpp:386] inception_5b/relu_3x3_reduce -> inception_5b/3x3_reduce (in-place)
I0403 15:01:35.536494 11522 net.cpp:141] Setting up inception_5b/relu_3x3_reduce
I0403 15:01:35.536520 11522 net.cpp:148] Top shape: 24 192 7 7 (225792)
I0403 15:01:35.536535 11522 net.cpp:156] Memory required for data: 1330660896
I0403 15:01:35.536550 11522 layer_factory.hpp:77] Creating layer inception_5b/3x3
I0403 15:01:35.536572 11522 net.cpp:91] Creating Layer inception_5b/3x3
I0403 15:01:35.536592 11522 net.cpp:425] inception_5b/3x3 <- inception_5b/3x3_reduce
I0403 15:01:35.536613 11522 net.cpp:399] inception_5b/3x3 -> inception_5b/3x3
I0403 15:01:35.543180 11522 net.cpp:141] Setting up inception_5b/3x3
I0403 15:01:35.543210 11522 net.cpp:148] Top shape: 24 384 7 7 (451584)
I0403 15:01:35.543227 11522 net.cpp:156] Memory required for data: 1332467232
I0403 15:01:35.543246 11522 layer_factory.hpp:77] Creating layer inception_5b/relu_3x3
I0403 15:01:35.543265 11522 net.cpp:91] Creating Layer inception_5b/relu_3x3
I0403 15:01:35.543282 11522 net.cpp:425] inception_5b/relu_3x3 <- inception_5b/3x3
I0403 15:01:35.543313 11522 net.cpp:386] inception_5b/relu_3x3 -> inception_5b/3x3 (in-place)
I0403 15:01:35.543634 11522 net.cpp:141] Setting up inception_5b/relu_3x3
I0403 15:01:35.543660 11522 net.cpp:148] Top shape: 24 384 7 7 (451584)
I0403 15:01:35.543675 11522 net.cpp:156] Memory required for data: 1334273568
I0403 15:01:35.543689 11522 layer_factory.hpp:77] Creating layer inception_5b/5x5_reduce
I0403 15:01:35.543726 11522 net.cpp:91] Creating Layer inception_5b/5x5_reduce
I0403 15:01:35.543745 11522 net.cpp:425] inception_5b/5x5_reduce <- inception_5a/output_inception_5a/output_0_split_2
I0403 15:01:35.543767 11522 net.cpp:399] inception_5b/5x5_reduce -> inception_5b/5x5_reduce
I0403 15:01:35.545063 11522 net.cpp:141] Setting up inception_5b/5x5_reduce
I0403 15:01:35.545091 11522 net.cpp:148] Top shape: 24 48 7 7 (56448)
I0403 15:01:35.545109 11522 net.cpp:156] Memory required for data: 1334499360
I0403 15:01:35.545127 11522 layer_factory.hpp:77] Creating layer inception_5b/relu_5x5_reduce
I0403 15:01:35.545150 11522 net.cpp:91] Creating Layer inception_5b/relu_5x5_reduce
I0403 15:01:35.545169 11522 net.cpp:425] inception_5b/relu_5x5_reduce <- inception_5b/5x5_reduce
I0403 15:01:35.545187 11522 net.cpp:386] inception_5b/relu_5x5_reduce -> inception_5b/5x5_reduce (in-place)
I0403 15:01:35.545567 11522 net.cpp:141] Setting up inception_5b/relu_5x5_reduce
I0403 15:01:35.545596 11522 net.cpp:148] Top shape: 24 48 7 7 (56448)
I0403 15:01:35.545624 11522 net.cpp:156] Memory required for data: 1334725152
I0403 15:01:35.545641 11522 layer_factory.hpp:77] Creating layer inception_5b/5x5
I0403 15:01:35.545662 11522 net.cpp:91] Creating Layer inception_5b/5x5
I0403 15:01:35.545681 11522 net.cpp:425] inception_5b/5x5 <- inception_5b/5x5_reduce
I0403 15:01:35.545701 11522 net.cpp:399] inception_5b/5x5 -> inception_5b/5x5
I0403 15:01:35.547775 11522 net.cpp:141] Setting up inception_5b/5x5
I0403 15:01:35.547803 11522 net.cpp:148] Top shape: 24 128 7 7 (150528)
I0403 15:01:35.547821 11522 net.cpp:156] Memory required for data: 1335327264
I0403 15:01:35.547842 11522 layer_factory.hpp:77] Creating layer inception_5b/relu_5x5
I0403 15:01:35.547862 11522 net.cpp:91] Creating Layer inception_5b/relu_5x5
I0403 15:01:35.547878 11522 net.cpp:425] inception_5b/relu_5x5 <- inception_5b/5x5
I0403 15:01:35.547894 11522 net.cpp:386] inception_5b/relu_5x5 -> inception_5b/5x5 (in-place)
I0403 15:01:35.548084 11522 net.cpp:141] Setting up inception_5b/relu_5x5
I0403 15:01:35.548110 11522 net.cpp:148] Top shape: 24 128 7 7 (150528)
I0403 15:01:35.548125 11522 net.cpp:156] Memory required for data: 1335929376
I0403 15:01:35.548141 11522 layer_factory.hpp:77] Creating layer inception_5b/pool
I0403 15:01:35.548158 11522 net.cpp:91] Creating Layer inception_5b/pool
I0403 15:01:35.548174 11522 net.cpp:425] inception_5b/pool <- inception_5a/output_inception_5a/output_0_split_3
I0403 15:01:35.548192 11522 net.cpp:399] inception_5b/pool -> inception_5b/pool
I0403 15:01:35.548264 11522 net.cpp:141] Setting up inception_5b/pool
I0403 15:01:35.548288 11522 net.cpp:148] Top shape: 24 832 7 7 (978432)
I0403 15:01:35.548302 11522 net.cpp:156] Memory required for data: 1339843104
I0403 15:01:35.548316 11522 layer_factory.hpp:77] Creating layer inception_5b/pool_proj
I0403 15:01:35.548338 11522 net.cpp:91] Creating Layer inception_5b/pool_proj
I0403 15:01:35.548360 11522 net.cpp:425] inception_5b/pool_proj <- inception_5b/pool
I0403 15:01:35.548382 11522 net.cpp:399] inception_5b/pool_proj -> inception_5b/pool_proj
I0403 15:01:35.550638 11522 net.cpp:141] Setting up inception_5b/pool_proj
I0403 15:01:35.550668 11522 net.cpp:148] Top shape: 24 128 7 7 (150528)
I0403 15:01:35.550685 11522 net.cpp:156] Memory required for data: 1340445216
I0403 15:01:35.550704 11522 layer_factory.hpp:77] Creating layer inception_5b/relu_pool_proj
I0403 15:01:35.550726 11522 net.cpp:91] Creating Layer inception_5b/relu_pool_proj
I0403 15:01:35.550745 11522 net.cpp:425] inception_5b/relu_pool_proj <- inception_5b/pool_proj
I0403 15:01:35.550765 11522 net.cpp:386] inception_5b/relu_pool_proj -> inception_5b/pool_proj (in-place)
I0403 15:01:35.551056 11522 net.cpp:141] Setting up inception_5b/relu_pool_proj
I0403 15:01:35.551082 11522 net.cpp:148] Top shape: 24 128 7 7 (150528)
I0403 15:01:35.551096 11522 net.cpp:156] Memory required for data: 1341047328
I0403 15:01:35.551111 11522 layer_factory.hpp:77] Creating layer inception_5b/output
I0403 15:01:35.551129 11522 net.cpp:91] Creating Layer inception_5b/output
I0403 15:01:35.551159 11522 net.cpp:425] inception_5b/output <- inception_5b/1x1
I0403 15:01:35.551177 11522 net.cpp:425] inception_5b/output <- inception_5b/3x3
I0403 15:01:35.551197 11522 net.cpp:425] inception_5b/output <- inception_5b/5x5
I0403 15:01:35.551213 11522 net.cpp:425] inception_5b/output <- inception_5b/pool_proj
I0403 15:01:35.551229 11522 net.cpp:399] inception_5b/output -> inception_5b/output
I0403 15:01:35.551278 11522 net.cpp:141] Setting up inception_5b/output
I0403 15:01:35.551304 11522 net.cpp:148] Top shape: 24 1024 7 7 (1204224)
I0403 15:01:35.551319 11522 net.cpp:156] Memory required for data: 1345864224
I0403 15:01:35.551334 11522 layer_factory.hpp:77] Creating layer pool5/7x7_s1
I0403 15:01:35.551355 11522 net.cpp:91] Creating Layer pool5/7x7_s1
I0403 15:01:35.551373 11522 net.cpp:425] pool5/7x7_s1 <- inception_5b/output
I0403 15:01:35.551393 11522 net.cpp:399] pool5/7x7_s1 -> pool5/7x7_s1
I0403 15:01:35.551604 11522 net.cpp:141] Setting up pool5/7x7_s1
I0403 15:01:35.551630 11522 net.cpp:148] Top shape: 24 1024 1 1 (24576)
I0403 15:01:35.551645 11522 net.cpp:156] Memory required for data: 1345962528
I0403 15:01:35.551659 11522 layer_factory.hpp:77] Creating layer pool5/drop_7x7_s1
I0403 15:01:35.551679 11522 net.cpp:91] Creating Layer pool5/drop_7x7_s1
I0403 15:01:35.551697 11522 net.cpp:425] pool5/drop_7x7_s1 <- pool5/7x7_s1
I0403 15:01:35.551713 11522 net.cpp:386] pool5/drop_7x7_s1 -> pool5/7x7_s1 (in-place)
I0403 15:01:35.551764 11522 net.cpp:141] Setting up pool5/drop_7x7_s1
I0403 15:01:35.551787 11522 net.cpp:148] Top shape: 24 1024 1 1 (24576)
I0403 15:01:35.551801 11522 net.cpp:156] Memory required for data: 1346060832
I0403 15:01:35.551816 11522 layer_factory.hpp:77] Creating layer loss3/classifier_plantvillage
I0403 15:01:35.551836 11522 net.cpp:91] Creating Layer loss3/classifier_plantvillage
I0403 15:01:35.551851 11522 net.cpp:425] loss3/classifier_plantvillage <- pool5/7x7_s1
I0403 15:01:35.551872 11522 net.cpp:399] loss3/classifier_plantvillage -> loss3/classifier_plantvillage
I0403 15:01:35.552289 11522 net.cpp:141] Setting up loss3/classifier_plantvillage
I0403 15:01:35.552315 11522 net.cpp:148] Top shape: 24 38 (912)
I0403 15:01:35.552330 11522 net.cpp:156] Memory required for data: 1346064480
I0403 15:01:35.552352 11522 layer_factory.hpp:77] Creating layer loss3/classifier_plantvillage_loss3/classifier_plantvillage_0_split
I0403 15:01:35.552373 11522 net.cpp:91] Creating Layer loss3/classifier_plantvillage_loss3/classifier_plantvillage_0_split
I0403 15:01:35.552391 11522 net.cpp:425] loss3/classifier_plantvillage_loss3/classifier_plantvillage_0_split <- loss3/classifier_plantvillage
I0403 15:01:35.552410 11522 net.cpp:399] loss3/classifier_plantvillage_loss3/classifier_plantvillage_0_split -> loss3/classifier_plantvillage_loss3/classifier_plantvillage_0_split_0
I0403 15:01:35.552433 11522 net.cpp:399] loss3/classifier_plantvillage_loss3/classifier_plantvillage_0_split -> loss3/classifier_plantvillage_loss3/classifier_plantvillage_0_split_1
I0403 15:01:35.552453 11522 net.cpp:399] loss3/classifier_plantvillage_loss3/classifier_plantvillage_0_split -> loss3/classifier_plantvillage_loss3/classifier_plantvillage_0_split_2
I0403 15:01:35.552474 11522 net.cpp:399] loss3/classifier_plantvillage_loss3/classifier_plantvillage_0_split -> loss3/classifier_plantvillage_loss3/classifier_plantvillage_0_split_3
I0403 15:01:35.552574 11522 net.cpp:141] Setting up loss3/classifier_plantvillage_loss3/classifier_plantvillage_0_split
I0403 15:01:35.552597 11522 net.cpp:148] Top shape: 24 38 (912)
I0403 15:01:35.552613 11522 net.cpp:148] Top shape: 24 38 (912)
I0403 15:01:35.552628 11522 net.cpp:148] Top shape: 24 38 (912)
I0403 15:01:35.552644 11522 net.cpp:148] Top shape: 24 38 (912)
I0403 15:01:35.552657 11522 net.cpp:156] Memory required for data: 1346079072
I0403 15:01:35.552671 11522 layer_factory.hpp:77] Creating layer loss1/loss
I0403 15:01:35.552695 11522 net.cpp:91] Creating Layer loss1/loss
I0403 15:01:35.552713 11522 net.cpp:425] loss1/loss <- loss1/classifier_plantvillage_loss1/classifier_plantvillage_0_split_0
I0403 15:01:35.552743 11522 net.cpp:425] loss1/loss <- label_data_1_split_0
…
