…
I0403 15:05:39.294106 11592 net.cpp:313] The NetState phase (1) differed from the phase (0) specified by a rule in layer data
I0403 15:05:39.295220 11592 net.cpp:49] Initializing net from parameters: 
state {
  phase: TEST
}
layer {
  name: "data"
  type: "Data"
  top: "data"
  top: "label"
  include {
    phase: TEST
  }
  transform_param {
    mirror: false
    crop_size: 224
    mean_file: "/home/mohanty/data/final_dataset/lmdb/segmented-40-60/mean.binaryproto"
  }
  data_param {
    source: "/home/mohanty/data/final_dataset/lmdb/segmented-40-60/test_db"
    batch_size: 24
    backend: LMDB
  }
}
layer {
  name: "conv1/7x7_s2"
  type: "Convolution"
  bottom: "data"
  top: "conv1/7x7_s2"
  param {
    lr_mult: 1
    decay_mult: 1
  }
  param {
    lr_mult: 2
    decay_mult: 0
  }
  convolution_param {
    num_output: 64
    pad: 3
    kernel_size: 7
    stride: 2
    weight_filler {
      type: "xavier"
      std: 0.1
    }
    bias_filler {
      type: "constant"
      value: 0.2
    }
  }
}
layer {
  name: "conv1/relu_7x7"
  type: "ReLU"
  bottom: "conv1/7x7_s2"
  top: "conv1/7x7_s2"
}
layer {
  name: "pool1/3x3_s2"
  type: "Pooling"
  bottom: "conv1/7x7_s2"
  top: "pool1/3x3_s2"
  pooling_param {
    pool: MAX
    kernel_size: 3
    stride: 2
  }
}
layer {
  name: "pool1/norm1"
  type: "LRN"
  bottom: "pool1/3x3_s2"
  top: "pool1/norm1"
  lrn_param {
    local_size: 5
    alpha: 0.0001
    beta: 0.75
  }
}
layer {
  name: "conv2/3x3_reduce"
  type: "Convolution"
  bottom: "pool1/norm1"
  top: "conv2/3x3_reduce"
  param {
    lr_mult: 1
    decay_mult: 1
  }
  param {
    lr_mult: 2
    decay_mult: 0
  }
  convolution_param {
    num_output: 64
    kernel_size: 1
    weight_filler {
      type: "xavier"
      std: 0.1
    }
    bias_filler {
      type: "constant"
      value: 0.2
    }
  }
}
layer {
  name: "conv2/relu_3x3_reduce"
  type: "ReLU"
  bottom: "conv2/3x3_reduce"
  top: "conv2/3x3_reduce"
}
layer {
  name: "conv2/3x3"
  type: "Convolution"
  bottom: "conv2/3x3_reduce"
  top: "conv2/3x3"
  param {
    lr_mult: 1
    decay_mult: 1
  }
  param {
    lr_mult: 2
    decay_mult: 0
  }
  convolution_param {
    num_output: 192
    pad: 1
    kernel_size: 3
    weight_filler {
      type: "xavier"
      std: 0.03
    }
    bias_filler {
      type: "constant"
      value: 0.2
    }
  }
}
layer {
  name: "conv2/relu_3x3"
  type: "ReLU"
  bottom: "conv2/3x3"
  top: "conv2/3x3"
}
layer {
  name: "conv2/norm2"
  type: "LRN"
  bottom: "conv2/3x3"
  top: "conv2/norm2"
  lrn_param {
    local_size: 5
    alpha: 0.0001
    beta: 0.75
  }
}
layer {
  name: "pool2/3x3_s2"
  type: "Pooling"
  bottom: "conv2/norm2"
  top: "pool2/3x3_s2"
  pooling_param {
    pool: MAX
    kernel_size: 3
    stride: 2
  }
}
layer {
  name: "inception_3a/1x1"
  type: "Convolution"
  bottom: "pool2/3x3_s2"
  top: "inception_3a/1x1"
  param {
    lr_mult: 1
    decay_mult: 1
  }
  param {
    lr_mult: 2
    decay_mult: 0
  }
  convolution_param {
    num_output: 64
    kernel_size: 1
    weight_filler {
      type: "xavier"
      std: 0.03
    }
    bias_filler {
      type: "constant"
      value: 0.2
    }
  }
}
layer {
  name: "inception_3a/relu_1x1"
  type: "ReLU"
  bottom: "inception_3a/1x1"
  top: "inception_3a/1x1"
}
layer {
  name: "inception_3a/3x3_reduce"
  type: "Convolution"
  bottom: "pool2/3x3_s2"
  top: "inception_3a/3x3_reduce"
  param {
    lr_mult: 1
    decay_mult: 1
  }
  param {
    lr_mult: 2
    decay_mult: 0
  }
  convolution_param {
    num_output: 96
    kernel_size: 1
    weight_filler {
      type: "xavier"
      std: 0.09
    }
    bias_filler {
      type: "constant"
      value: 0.2
    }
  }
}
layer {
  name: "inception_3a/relu_3x3_reduce"
  type: "ReLU"
  bottom: "inception_3a/3x3_reduce"
  top: "inception_3a/3x3_reduce"
}
layer {
  name: "inception_3a/3x3"
  type: "Convolution"
  bottom: "inception_3a/3x3_reduce"
  top: "inception_3a/3x3"
  param {
    lr_mult: 1
    decay_mult: 1
  }
  param {
    lr_mult: 2
    decay_mult: 0
  }
  convolution_param {
    num_output: 128
    pad: 1
    kernel_size: 3
    weight_filler {
      type: "xavier"
      std: 0.03
    }
    bias_filler {
      type: "constant"
      value: 0.2
    }
  }
}
layer {
  name: "inception_3a/relu_3x3"
  type: "ReLU"
  bottom: "inception_3a/3x3"
  top: "inception_3a/3x3"
}
layer {
  name: "inception_3a/5x5_reduce"
  type: "Convolution"
  bottom: "pool2/3x3_s2"
  top: "inception_3a/5x5_reduce"
  param {
    lr_mult: 1
    decay_mult: 1
  }
  param {
    lr_mult: 2
    decay_mult: 0
  }
  convolution_param {
    num_output: 16
    kernel_size: 1
    weight_filler {
      type: "xavier"
      std: 0.2
    }
    bias_filler {
      type: "constant"
      value: 0.2
    }
  }
}
layer {
  name: "inception_3a/relu_5x5_reduce"
  type: "ReLU"
  bottom: "inception_3a/5x5_reduce"
  top: "inception_3a/5x5_reduce"
}
layer {
  name: "inception_3a/5x5"
  type: "Convolution"
  bottom: "inception_3a/5x5_reduce"
  top: "inception_3a/5x5"
  param {
    lr_mult: 1
    decay_mult: 1
  }
  param {
    lr_mult: 2
    decay_mult: 0
  }
  convolution_param {
    num_output: 32
    pad: 2
    kernel_size: 5
    weight_filler {
      type: "xavier"
      std: 0.03
    }
    bias_filler {
      type: "constant"
      value: 0.2
    }
  }
}
layer {
  name: "inception_3a/relu_5x5"
  type: "ReLU"
  bottom: "inception_3a/5x5"
  top: "inception_3a/5x5"
}
layer {
  name: "inception_3a/pool"
  type: "Pooling"
  bottom: "pool2/3x3_s2"
  top: "inception_3a/pool"
  pooling_param {
    pool: MAX
    kernel_size: 3
    stride: 1
    pad: 1
  }
}
layer {
  name: "inception_3a/pool_proj"
  type: "Convolution"
  bottom: "inception_3a/pool"
  top: "inception_3a/pool_proj"
  param {
    lr_mult: 1
    decay_mult: 1
  }
  param {
    lr_mult: 2
    decay_mult: 0
  }
  convolution_param {
    num_output: 32
    kernel_size: 1
    weight_filler {
      type: "xavier"
      std: 0.1
    }
    bias_filler {
      type: "constant"
      value: 0.2
    }
  }
}
layer {
  name: "inception_3a/relu_pool_proj"
  type: "ReLU"
  bottom: "inception_3a/pool_proj"
  top: "inception_3a/pool_proj"
}
layer {
  name: "inception_3a/output"
  type: "Concat"
  bottom: "inception_3a/1x1"
  bottom: "inception_3a/3x3"
  bottom: "inception_3a/5x5"
  bottom: "inception_3a/pool_proj"
  top: "inception_3a/output"
}
layer {
  name: "inception_3b/1x1"
  type: "Convolution"
  bottom: "inception_3a/output"
  top: "inception_3b/1x1"
  param {
    lr_mult: 1
    decay_mult: 1
  }
  param {
    lr_mult: 2
    decay_mult: 0
  }
  convolution_param {
    num_output: 128
    kernel_size: 1
    weight_filler {
      type: "xavier"
      std: 0.03
    }
    bias_filler {
      type: "constant"
      value: 0.2
    }
  }
}
layer {
  name: "inception_3b/relu_1x1"
  type: "ReLU"
  bottom: "inception_3b/1x1"
  top: "inception_3b/1x1"
}
layer {
  name: "inception_3b/3x3_reduce"
  type: "Convolution"
  bottom: "inception_3a/output"
  top: "inception_3b/3x3_reduce"
  param {
    lr_mult: 1
    decay_mult: 1
  }
  param {
    lr_mult: 2
    decay_mult: 0
  }
  convolution_param {
    num_output: 128
    kernel_size: 1
    weight_filler {
      type: "xavier"
      std: 0.09
    }
    bias_filler {
      type: "constant"
      value: 0.2
    }
  }
}
layer {
  name: "inception_3b/relu_3x3_reduce"
  type: "ReLU"
  bottom: "inception_3b/3x3_reduce"
  top: "inception_3b/3x3_reduce"
}
layer {
  name: "inception_3b/3x3"
  type: "Convolution"
  bottom: "inception_3b/3x3_reduce"
  top: "inception_3b/3x3"
  param {
    lr_mult: 1
    decay_mult: 1
  }
  param {
    lr_mult: 2
    decay_mult: 0
  }
  convolution_param {
    num_output: 192
    pad: 1
    kernel_size: 3
    weight_filler {
      type: "xavier"
      std: 0.03
    }
    bias_filler {
      type: "constant"
      value: 0.2
    }
  }
}
layer {
  name: "inception_3b/relu_3x3"
  type: "ReLU"
  bottom: "inception_3b/3x3"
  top: "inception_3b/3x3"
}
layer {
  name: "inception_3b/5x5_reduce"
  type: "Convolution"
  bottom: "inception_3a/output"
  top: "inception_3b/5x5_reduce"
  param {
    lr_mult: 1
    decay_mult: 1
  }
  param {
    lr_mult: 2
    decay_mult: 0
  }
  convolution_param {
    num_output: 32
    kernel_size: 1
    weight_filler {
      type: "xavier"
      std: 0.2
    }
    bias_filler {
      type: "constant"
      value: 0.2
    }
  }
}
layer {
  name: "inception_3b/relu_5x5_reduce"
  type: "ReLU"
  bottom: "inception_3b/5x5_reduce"
  top: "inception_3b/5x5_reduce"
}
layer {
  name: "inception_3b/5x5"
  type: "Convolution"
  bottom: "inception_3b/5x5_reduce"
  top: "inception_3b/5x5"
  param {
    lr_mult: 1
    decay_mult: 1
  }
  param {
    lr_mult: 2
    decay_mult: 0
  }
  convolution_param {
    num_output: 96
    pad: 2
    kernel_size: 5
    weight_filler {
      type: "xavier"
      std: 0.03
    }
    bias_filler {
      type: "constant"
      value: 0.2
    }
  }
}
layer {
  name: "inception_3b/relu_5x5"
  type: "ReLU"
  bottom: "inception_3b/5x5"
  top: "inception_3b/5x5"
}
layer {
  name: "inception_3b/pool"
  type: "Pooling"
  bottom: "inception_3a/output"
  top: "inception_3b/pool"
  pooling_param {
    pool: MAX
    kernel_size: 3
    stride: 1
    pad: 1
  }
}
layer {
  name: "inception_3b/pool_proj"
  type: "Convolution"
  bottom: "inception_3b/pool"
  top: "inception_3b/pool_proj"
  param {
    lr_mult: 1
    decay_mult: 1
  }
  param {
    lr_mult: 2
    decay_mult: 0
  }
  convolution_param {
    num_output: 64
    kernel_size: 1
    weight_filler {
      type: "xavier"
      std: 0.1
    }
    bias_filler {
      type: "constant"
      value: 0.2
    }
  }
}
layer {
  name: "inception_3b/relu_pool_proj"
  type: "ReLU"
  bottom: "inception_3b/pool_proj"
  top: "inception_3b/pool_proj"
}
layer {
  name: "inception_3b/output"
  type: "Concat"
  bottom: "inception_3b/1x1"
  bottom: "inception_3b/3x3"
  bottom: "inception_3b/5x5"
  bottom: "inception_3b/pool_proj"
  top: "inception_3b/output"
}
layer {
  name: "pool3/3x3_s2"
  type: "Pooling"
  bottom: "inception_3b/output"
  top: "pool3/3x3_s2"
  pooling_param {
    pool: MAX
    kernel_size: 3
    stride: 2
  }
}
layer {
  name: "inception_4a/1x1"
  type: "Convolution"
  bottom: "pool3/3x3_s2"
  top: "inception_4a/1x1"
  param {
    lr_mult: 1
    decay_mult: 1
  }
  param {
    lr_mult: 2
    decay_mult: 0
  }
  convolution_param {
    num_output: 192
    kernel_size: 1
    weight_filler {
      type: "xavier"
      std: 0.03
    }
    bias_filler {
      type: "constant"
      value: 0.2
    }
  }
}
layer {
  name: "inception_4a/relu_1x1"
  type: "ReLU"
  bottom: "inception_4a/1x1"
  top: "inception_4a/1x1"
}
layer {
  name: "inception_4a/3x3_reduce"
  type: "Convolution"
  bottom: "pool3/3x3_s2"
  top: "inception_4a/3x3_reduce"
  param {
    lr_mult: 1
    decay_mult: 1
  }
  param {
    lr_mult: 2
    decay_mult: 0
  }
  convolution_param {
    num_output: 96
    kernel_size: 1
    weight_filler {
      type: "xavier"
      std: 0.09
    }
    bias_filler {
      type: "constant"
      value: 0.2
    }
  }
}
layer {
  name: "inception_4a/relu_3x3_reduce"
  type: "ReLU"
  bottom: "inception_4a/3x3_reduce"
  top: "inception_4a/3x3_reduce"
}
layer {
  name: "inception_4a/3x3"
  type: "Convolution"
  bottom: "inception_4a/3x3_reduce"
  top: "inception_4a/3x3"
  param {
    lr_mult: 1
    decay_mult: 1
  }
  param {
    lr_mult: 2
    decay_mult: 0
  }
  convolution_param {
    num_output: 208
    pad: 1
    kernel_size: 3
    weight_filler {
      type: "xavier"
      std: 0.03
    }
    bias_filler {
      type: "constant"
      value: 0.2
    }
  }
}
layer {
  name: "inception_4a/relu_3x3"
  type: "ReLU"
  bottom: "inception_4a/3x3"
  top: "inception_4a/3x3"
}
layer {
  name: "inception_4a/5x5_reduce"
  type: "Convolution"
  bottom: "pool3/3x3_s2"
  top: "inception_4a/5x5_reduce"
  param {
    lr_mult: 1
    decay_mult: 1
  }
  param {
    lr_mult: 2
    decay_mult: 0
  }
  convolution_param {
    num_output: 16
    kernel_size: 1
    weight_filler {
      type: "xavier"
      std: 0.2
    }
    bias_filler {
      type: "constant"
      value: 0.2
    }
  }
}
layer {
  name: "inception_4a/relu_5x5_reduce"
  type: "ReLU"
  bottom: "inception_4a/5x5_reduce"
  top: "inception_4a/5x5_reduce"
}
layer {
  name: "inception_4a/5x5"
  type: "Convolution"
  bottom: "inception_4a/5x5_reduce"
  top: "inception_4a/5x5"
  param {
    lr_mult: 1
    decay_mult: 1
  }
  param {
    lr_mult: 2
    decay_mult: 0
  }
  convolution_param {
    num_output: 48
    pad: 2
    kernel_size: 5
    weight_filler {
      type: "xavier"
      std: 0.03
    }
    bias_filler {
      type: "constant"
      value: 0.2
    }
  }
}
layer {
  name: "inception_4a/relu_5x5"
  type: "ReLU"
  bottom: "inception_4a/5x5"
  top: "inception_4a/5x5"
}
layer {
  name: "inception_4a/pool"
  type: "Pooling"
  bottom: "pool3/3x3_s2"
  top: "inception_4a/pool"
  pooling_param {
    pool: MAX
    kernel_size: 3
    stride: 1
    pad: 1
  }
}
layer {
  name: "inception_4a/pool_proj"
  type: "Convolution"
  bottom: "inception_4a/pool"
  top: "inception_4a/pool_proj"
  param {
    lr_mult: 1
    decay_mult: 1
  }
  param {
    lr_mult: 2
    decay_mult: 0
  }
  convolution_param {
    num_output: 64
    kernel_size: 1
    weight_filler {
      type: "xavier"
      std: 0.1
    }
    bias_filler {
      type: "constant"
      value: 0.2
    }
  }
}
layer {
  name: "inception_4a/relu_pool_proj"
  type: "ReLU"
  bottom: "inception_4a/pool_proj"
  top: "inception_4a/pool_proj"
}
layer {
  name: "inception_4a/output"
  type: "Concat"
  bottom: "inception_4a/1x1"
  bottom: "inception_4a/3x3"
  bottom: "inception_4a/5x5"
  bottom: "inception_4a/pool_proj"
  top: "inception_4a/output"
}
layer {
  name: "loss1/ave_pool"
  type: "Pooling"
  bottom: "inception_4a/output"
  top: "loss1/ave_pool"
  pooling_param {
    pool: AVE
    kernel_size: 5
    stride: 3
  }
}
layer {
  name: "loss1/conv"
  type: "Convolution"
  bottom: "loss1/ave_pool"
  top: "loss1/conv"
  param {
    lr_mult: 1
    decay_mult: 1
  }
  param {
    lr_mult: 2
    decay_mult: 0
  }
  convolution_param {
    num_output: 128
    kernel_size: 1
    weight_filler {
      type: "xavier"
      std: 0.08
    }
    bias_filler {
      type: "constant"
      value: 0.2
    }
  }
}
layer {
  name: "loss1/relu_conv"
  type: "ReLU"
  bottom: "loss1/conv"
  top: "loss1/conv"
}
layer {
  name: "loss1/fc"
  type: "InnerProduct"
  bottom: "loss1/conv"
  top: "loss1/fc"
  param {
    lr_mult: 1
    decay_mult: 1
  }
  param {
    lr_mult: 2
    decay_mult: 0
  }
  inner_product_param {
    num_output: 1024
    weight_filler {
      type: "xavier"
      std: 0.02
    }
    bias_filler {
      type: "constant"
      value: 0.2
    }
  }
}
layer {
  name: "loss1/relu_fc"
  type: "ReLU"
  bottom: "loss1/fc"
  top: "loss1/fc"
}
layer {
  name: "loss1/drop_fc"
  type: "Dropout"
  bottom: "loss1/fc"
  top: "loss1/fc"
  dropout_param {
    dropout_ratio: 0.7
  }
}
layer {
  name: "loss1/classifier_plantvillage"
  type: "InnerProduct"
  bottom: "loss1/fc"
  top: "loss1/classifier_plantvillage"
  param {
    lr_mult: 1
    decay_mult: 1
  }
  param {
    lr_mult: 2
    decay_mult: 0
  }
  inner_product_param {
    num_output: 38
    weight_filler {
      type: "xavier"
      std: 0.0009765625
    }
    bias_filler {
      type: "constant"
      value: 0
    }
  }
}
layer {
  name: "inception_4b/1x1"
  type: "Convolution"
  bottom: "inception_4a/output"
  top: "inception_4b/1x1"
  param {
    lr_mult: 1
    decay_mult: 1
  }
  param {
    lr_mult: 2
    decay_mult: 0
  }
  convolution_param {
    num_output: 160
    kernel_size: 1
    weight_filler {
      type: "xavier"
      std: 0.03
    }
    bias_filler {
      type: "constant"
      value: 0.2
    }
  }
}
layer {
  name: "inception_4b/relu_1x1"
  type: "ReLU"
  bottom: "inception_4b/1x1"
  top: "inception_4b/1x1"
}
layer {
  name: "inception_4b/3x3_reduce"
  type: "Convolution"
  bottom: "inception_4a/output"
  top: "inception_4b/3x3_reduce"
  param {
    lr_mult: 1
    decay_mult: 1
  }
  param {
    lr_mult: 2
    decay_mult: 0
  }
  convolution_param {
    num_output: 112
    kernel_size: 1
    weight_filler {
      type: "xavier"
      std: 0.09
    }
    bias_filler {
      type: "constant"
      value: 0.2
    }
  }
}
layer {
  name: "inception_4b/relu_3x3_reduce"
  type: "ReLU"
  bottom: "inception_4b/3x3_reduce"
  top: "inception_4b/3x3_reduce"
}
layer {
  name: "inception_4b/3x3"
  type: "Convolution"
  bottom: "inception_4b/3x3_reduce"
  top: "inception_4b/3x3"
  param {
    lr_mult: 1
    decay_mult: 1
  }
  param {
    lr_mult: 2
    decay_mult: 0
  }
  convolution_param {
    num_output: 224
    pad: 1
    kernel_size: 3
    weight_filler {
      type: "xavier"
      std: 0.03
    }
    bias_filler {
      type: "constant"
      value: 0.2
    }
  }
}
layer {
  name: "inception_4b/relu_3x3"
  type: "ReLU"
  bottom: "inception_4b/3x3"
  top: "inception_4b/3x3"
}
layer {
  name: "inception_4b/5x5_reduce"
  type: "Convolution"
  bottom: "inception_4a/output"
  top: "inception_4b/5x5_reduce"
  param {
    lr_mult: 1
    decay_mult: 1
  }
  param {
    lr_mult: 2
    decay_mult: 0
  }
  convolution_param {
    num_output: 24
    kernel_size: 1
    weight_filler {
      type: "xavier"
      std: 0.2
    }
    bias_filler {
      type: "constant"
      value: 0.2
    }
  }
}
layer {
  name: "inception_4b/relu_5x5_reduce"
  type: "ReLU"
  bottom: "inception_4b/5x5_reduce"
  top: "inception_4b/5x5_reduce"
}
layer {
  name: "inception_4b/5x5"
  type: "Convolution"
  bottom: "inception_4b/5x5_reduce"
  top: "inception_4b/5x5"
  param {
    lr_mult: 1
    decay_mult: 1
  }
  param {
    lr_mult: 2
    decay_mult: 0
  }
  convolution_param {
    num_output: 64
    pad: 2
    kernel_size: 5
    weight_filler {
      type: "xavier"
      std: 0.03
    }
    bias_filler {
      type: "constant"
      value: 0.2
    }
  }
}
layer {
  name: "inception_4b/relu_5x5"
  type: "ReLU"
  bottom: "inception_4b/5x5"
  top: "inception_4b/5x5"
}
layer {
  name: "inception_4b/pool"
  type: "Pooling"
  bottom: "inception_4a/output"
  top: "inception_4b/pool"
  pooling_param {
    pool: MAX
    kernel_size: 3
    stride: 1
    pad: 1
  }
}
layer {
  name: "inception_4b/pool_proj"
  type: "Convolution"
  bottom: "inception_4b/pool"
  top: "inception_4b/pool_proj"
  param {
    lr_mult: 1
    decay_mult: 1
  }
  param {
    lr_mult: 2
    decay_mult: 0
  }
  convolution_param {
    num_output: 64
    kernel_size: 1
    weight_filler {
      type: "xavier"
      std: 0.1
    }
    bias_filler {
      type: "constant"
      value: 0.2
    }
  }
}
layer {
  name: "inception_4b/relu_pool_proj"
  type: "ReLU"
  bottom: "inception_4b/pool_proj"
  top: "inception_4b/pool_proj"
}
layer {
  name: "inception_4b/output"
  type: "Concat"
  bottom: "inception_4b/1x1"
  bottom: "inception_4b/3x3"
  bottom: "inception_4b/5x5"
  bottom: "inception_4b/pool_proj"
  top: "inception_4b/output"
}
layer {
  name: "inception_4c/1x1"
  type: "Convolution"
  bottom: "inception_4b/output"
  top: "inception_4c/1x1"
  param {
    lr_mult: 1
    decay_mult: 1
  }
  param {
    lr_mult: 2
    decay_mult: 0
  }
  convolution_param {
    num_output: 128
    kernel_size: 1
    weight_filler {
      type: "xavier"
      std: 0.03
    }
    bias_filler {
      type: "constant"
      value: 0.2
    }
  }
}
layer {
  name: "inception_4c/relu_1x1"
  type: "ReLU"
  bottom: "inception_4c/1x1"
  top: "inception_4c/1x1"
}
layer {
  name: "inception_4c/3x3_reduce"
  type: "Convolution"
  bottom: "inception_4b/output"
  top: "inception_4c/3x3_reduce"
  param {
    lr_mult: 1
    decay_mult: 1
  }
  param {
    lr_mult: 2
    decay_mult: 0
  }
  convolution_param {
    num_output: 128
    kernel_size: 1
    weight_filler {
      type: "xavier"
      std: 0.09
    }
    bias_filler {
      type: "constant"
      value: 0.2
    }
  }
}
layer {
  name: "inception_4c/relu_3x3_reduce"
  type: "ReLU"
  bottom: "inception_4c/3x3_reduce"
  top: "inception_4c/3x3_reduce"
}
layer {
  name: "inception_4c/3x3"
  type: "Convolution"
  bottom: "inception_4c/3x3_reduce"
  top: "inception_4c/3x3"
  param {
    lr_mult: 1
    decay_mult: 1
  }
  param {
    lr_mult: 2
    decay_mult: 0
  }
  convolution_param {
    num_output: 256
    pad: 1
    kernel_size: 3
    weight_filler {
      type: "xavier"
      std: 0.03
    }
    bias_filler {
      type: "constant"
      value: 0.2
    }
  }
}
layer {
  name: "inception_4c/relu_3x3"
  type: "ReLU"
  bottom: "inception_4c/3x3"
  top: "inception_4c/3x3"
}
layer {
  name: "inception_4c/5x5_reduce"
  type: "Convolution"
  bottom: "inception_4b/output"
  top: "inception_4c/5x5_reduce"
  param {
    lr_mult: 1
    decay_mult: 1
  }
  param {
    lr_mult: 2
    decay_mult: 0
  }
  convolution_param {
    num_output: 24
    kernel_size: 1
    weight_filler {
      type: "xavier"
      std: 0.2
    }
    bias_filler {
      type: "constant"
      value: 0.2
    }
  }
}
layer {
  name: "inception_4c/relu_5x5_reduce"
  type: "ReLU"
  bottom: "inception_4c/5x5_reduce"
  top: "inception_4c/5x5_reduce"
}
layer {
  name: "inception_4c/5x5"
  type: "Convolution"
  bottom: "inception_4c/5x5_reduce"
  top: "inception_4c/5x5"
  param {
    lr_mult: 1
    decay_mult: 1
  }
  param {
    lr_mult: 2
    decay_mult: 0
  }
  convolution_param {
    num_output: 64
    pad: 2
    kernel_size: 5
    weight_filler {
      type: "xavier"
      std: 0.03
    }
    bias_filler {
      type: "constant"
      value: 0.2
    }
  }
}
layer {
  name: "inception_4c/relu_5x5"
  type: "ReLU"
  bottom: "inception_4c/5x5"
  top: "inception_4c/5x5"
}
layer {
  name: "inception_4c/pool"
  type: "Pooling"
  bottom: "inception_4b/output"
  top: "inception_4c/pool"
  pooling_param {
    pool: MAX
    kernel_size: 3
    stride: 1
    pad: 1
  }
}
layer {
  name: "inception_4c/pool_proj"
  type: "Convolution"
  bottom: "inception_4c/pool"
  top: "inception_4c/pool_proj"
  param {
    lr_mult: 1
    decay_mult: 1
  }
  param {
    lr_mult: 2
    decay_mult: 0
  }
  convolution_param {
    num_output: 64
    kernel_size: 1
    weight_filler {
      type: "xavier"
      std: 0.1
    }
    bias_filler {
      type: "constant"
      value: 0.2
    }
  }
}
layer {
  name: "inception_4c/relu_pool_proj"
  type: "ReLU"
  bottom: "inception_4c/pool_proj"
  top: "inception_4c/pool_proj"
}
layer {
  name: "inception_4c/output"
  type: "Concat"
  bottom: "inception_4c/1x1"
  bottom: "inception_4c/3x3"
  bottom: "inception_4c/5x5"
  bottom: "inception_4c/pool_proj"
  top: "inception_4c/output"
}
layer {
  name: "inception_4d/1x1"
  type: "Convolution"
  bottom: "inception_4c/output"
  top: "inception_4d/1x1"
  param {
    lr_mult: 1
    decay_mult: 1
  }
  param {
    lr_mult: 2
    decay_mult: 0
  }
  convolution_param {
    num_output: 112
    kernel_size: 1
    weight_filler {
      type: "xavier"
      std: 0.03
    }
    bias_filler {
      type: "constant"
      value: 0.2
    }
  }
}
layer {
  name: "inception_4d/relu_1x1"
  type: "ReLU"
  bottom: "inception_4d/1x1"
  top: "inception_4d/1x1"
}
layer {
  name: "inception_4d/3x3_reduce"
  type: "Convolution"
  bottom: "inception_4c/output"
  top: "inception_4d/3x3_reduce"
  param {
    lr_mult: 1
    decay_mult: 1
  }
  param {
    lr_mult: 2
    decay_mult: 0
  }
  convolution_param {
    num_output: 144
    kernel_size: 1
    weight_filler {
      type: "xavier"
      std: 0.09
    }
    bias_filler {
      type: "constant"
      value: 0.2
    }
  }
}
layer {
  name: "inception_4d/relu_3x3_reduce"
  type: "ReLU"
  bottom: "inception_4d/3x3_reduce"
  top: "inception_4d/3x3_reduce"
}
layer {
  name: "inception_4d/3x3"
  type: "Convolution"
  bottom: "inception_4d/3x3_reduce"
  top: "inception_4d/3x3"
  param {
    lr_mult: 1
    decay_mult: 1
  }
  param {
    lr_mult: 2
    decay_mult: 0
  }
  convolution_param {
    num_output: 288
    pad: 1
    kernel_size: 3
    weight_filler {
      type: "xavier"
      std: 0.03
    }
    bias_filler {
      type: "constant"
      value: 0.2
    }
  }
}
layer {
  name: "inception_4d/relu_3x3"
  type: "ReLU"
  bottom: "inception_4d/3x3"
  top: "inception_4d/3x3"
}
layer {
  name: "inception_4d/5x5_reduce"
  type: "Convolution"
  bottom: "inception_4c/output"
  top: "inception_4d/5x5_reduce"
  param {
    lr_mult: 1
    decay_mult: 1
  }
  param {
    lr_mult: 2
    decay_mult: 0
  }
  convolution_param {
    num_output: 32
    kernel_size: 1
    weight_filler {
      type: "xavier"
      std: 0.2
    }
    bias_filler {
      type: "constant"
      value: 0.2
    }
  }
}
layer {
  name: "inception_4d/relu_5x5_reduce"
  type: "ReLU"
  bottom: "inception_4d/5x5_reduce"
  top: "inception_4d/5x5_reduce"
}
layer {
  name: "inception_4d/5x5"
  type: "Convolution"
  bottom: "inception_4d/5x5_reduce"
  top: "inception_4d/5x5"
  param {
    lr_mult: 1
    decay_mult: 1
  }
  param {
    lr_mult: 2
    decay_mult: 0
  }
  convolution_param {
    num_output: 64
    pad: 2
    kernel_size: 5
    weight_filler {
      type: "xavier"
      std: 0.03
    }
    bias_filler {
      type: "constant"
      value: 0.2
    }
  }
}
layer {
  name: "inception_4d/relu_5x5"
  type: "ReLU"
  bottom: "inception_4d/5x5"
  top: "inception_4d/5x5"
}
layer {
  name: "inception_4d/pool"
  type: "Pooling"
  bottom: "inception_4c/output"
  top: "inception_4d/pool"
  pooling_param {
    pool: MAX
    kernel_size: 3
    stride: 1
    pad: 1
  }
}
layer {
  name: "inception_4d/pool_proj"
  type: "Convolution"
  bottom: "inception_4d/pool"
  top: "inception_4d/pool_proj"
  param {
    lr_mult: 1
    decay_mult: 1
  }
  param {
    lr_mult: 2
    decay_mult: 0
  }
  convolution_param {
    num_output: 64
    kernel_size: 1
    weight_filler {
      type: "xavier"
      std: 0.1
    }
    bias_filler {
      type: "constant"
      value: 0.2
    }
  }
}
layer {
  name: "inception_4d/relu_pool_proj"
  type: "ReLU"
  bottom: "inception_4d/pool_proj"
  top: "inception_4d/pool_proj"
}
layer {
  name: "inception_4d/output"
  type: "Concat"
  bottom: "inception_4d/1x1"
  bottom: "inception_4d/3x3"
  bottom: "inception_4d/5x5"
  bottom: "inception_4d/pool_proj"
  top: "inception_4d/output"
}
layer {
  name: "loss2/ave_pool"
  type: "Pooling"
  bottom: "inception_4d/output"
  top: "loss2/ave_pool"
  pooling_param {
    pool: AVE
    kernel_size: 5
    stride: 3
  }
}
layer {
  name: "loss2/conv"
  type: "Convolution"
  bottom: "loss2/ave_pool"
  top: "loss2/conv"
  param {
    lr_mult: 1
    decay_mult: 1
  }
  param {
    lr_mult: 2
    decay_mult: 0
  }
  convolution_param {
    num_output: 128
    kernel_size: 1
    weight_filler {
      type: "xavier"
      std: 0.08
    }
    bias_filler {
      type: "constant"
      value: 0.2
    }
  }
}
layer {
  name: "loss2/relu_conv"
  type: "ReLU"
  bottom: "loss2/conv"
  top: "loss2/conv"
}
layer {
  name: "loss2/fc"
  type: "InnerProduct"
  bottom: "loss2/conv"
  top: "loss2/fc"
  param {
    lr_mult: 1
    decay_mult: 1
  }
  param {
    lr_mult: 2
    decay_mult: 0
  }
  inner_product_param {
    num_output: 1024
    weight_filler {
      type: "xavier"
      std: 0.02
    }
    bias_filler {
      type: "constant"
      value: 0.2
    }
  }
}
layer {
  name: "loss2/relu_fc"
  type: "ReLU"
  bottom: "loss2/fc"
  top: "loss2/fc"
}
layer {
  name: "loss2/drop_fc"
  type: "Dropout"
  bottom: "loss2/fc"
  top: "loss2/fc"
  dropout_param {
    dropout_ratio: 0.7
  }
}
layer {
  name: "loss2/classifier_plantvillage"
  type: "InnerProduct"
  bottom: "loss2/fc"
  top: "loss2/classifier_plantvillage"
  param {
    lr_mult: 1
    decay_mult: 1
  }
  param {
    lr_mult: 2
    decay_mult: 0
  }
  inner_product_param {
    num_output: 38
    weight_filler {
      type: "xavier"
      std: 0.0009765625
    }
    bias_filler {
      type: "constant"
      value: 0
    }
  }
}
layer {
  name: "inception_4e/1x1"
  type: "Convolution"
  bottom: "inception_4d/output"
  top: "inception_4e/1x1"
  param {
    lr_mult: 1
    decay_mult: 1
  }
  param {
    lr_mult: 2
    decay_mult: 0
  }
  convolution_param {
    num_output: 256
    kernel_size: 1
    weight_filler {
      type: "xavier"
      std: 0.03
    }
    bias_filler {
      type: "constant"
      value: 0.2
    }
  }
}
layer {
  name: "inception_4e/relu_1x1"
  type: "ReLU"
  bottom: "inception_4e/1x1"
  top: "inception_4e/1x1"
}
layer {
  name: "inception_4e/3x3_reduce"
  type: "Convolution"
  bottom: "inception_4d/output"
  top: "inception_4e/3x3_reduce"
  param {
    lr_mult: 1
    decay_mult: 1
  }
  param {
    lr_mult: 2
    decay_mult: 0
  }
  convolution_param {
    num_output: 160
    kernel_size: 1
    weight_filler {
      type: "xavier"
      std: 0.09
    }
    bias_filler {
      type: "constant"
      value: 0.2
    }
  }
}
layer {
  name: "inception_4e/relu_3x3_reduce"
  type: "ReLU"
  bottom: "inception_4e/3x3_reduce"
  top: "inception_4e/3x3_reduce"
}
layer {
  name: "inception_4e/3x3"
  type: "Convolution"
  bottom: "inception_4e/3x3_reduce"
  top: "inception_4e/3x3"
  param {
    lr_mult: 1
    decay_mult: 1
  }
  param {
    lr_mult: 2
    decay_mult: 0
  }
  convolution_param {
    num_output: 320
    pad: 1
    kernel_size: 3
    weight_filler {
      type: "xavier"
      std: 0.03
    }
    bias_filler {
      type: "constant"
      value: 0.2
    }
  }
}
layer {
  name: "inception_4e/relu_3x3"
  type: "ReLU"
  bottom: "inception_4e/3x3"
  top: "inception_4e/3x3"
}
layer {
  name: "inception_4e/5x5_reduce"
  type: "Convolution"
  bottom: "inception_4d/output"
  top: "inception_4e/5x5_reduce"
  param {
    lr_mult: 1
    decay_mult: 1
  }
  param {
    lr_mult: 2
    decay_mult: 0
  }
  convolution_param {
    num_output: 32
    kernel_size: 1
    weight_filler {
      type: "xavier"
      std: 0.2
    }
    bias_filler {
      type: "constant"
      value: 0.2
    }
  }
}
layer {
  name: "inception_4e/relu_5x5_reduce"
  type: "ReLU"
  bottom: "inception_4e/5x5_reduce"
  top: "inception_4e/5x5_reduce"
}
layer {
  name: "inception_4e/5x5"
  type: "Convolution"
  bottom: "inception_4e/5x5_reduce"
  top: "inception_4e/
I0403 15:05:39.296459 11592 layer_factory.hpp:77] Creating layer data
I0403 15:05:39.297057 11592 net.cpp:91] Creating Layer data
I0403 15:05:39.297113 11592 net.cpp:399] data -> data
I0403 15:05:39.297214 11592 net.cpp:399] data -> label
I0403 15:05:39.297255 11592 data_transformer.cpp:25] Loading mean file from: /home/mohanty/data/final_dataset/lmdb/segmented-40-60/mean.binaryproto
I0403 15:05:39.300052 11594 db_lmdb.cpp:38] Opened lmdb /home/mohanty/data/final_dataset/lmdb/segmented-40-60/test_db
I0403 15:05:39.310909 11592 data_layer.cpp:41] output data size: 24,3,224,224
I0403 15:05:39.337834 11592 net.cpp:141] Setting up data
I0403 15:05:39.337924 11592 net.cpp:148] Top shape: 24 3 224 224 (3612672)
I0403 15:05:39.337949 11592 net.cpp:148] Top shape: 24 (24)
I0403 15:05:39.337965 11592 net.cpp:156] Memory required for data: 14450784
I0403 15:05:39.337995 11592 layer_factory.hpp:77] Creating layer label_data_1_split
I0403 15:05:39.338021 11592 net.cpp:91] Creating Layer label_data_1_split
I0403 15:05:39.338039 11592 net.cpp:425] label_data_1_split <- label
I0403 15:05:39.338070 11592 net.cpp:399] label_data_1_split -> label_data_1_split_0
I0403 15:05:39.338099 11592 net.cpp:399] label_data_1_split -> label_data_1_split_1
I0403 15:05:39.338121 11592 net.cpp:399] label_data_1_split -> label_data_1_split_2
I0403 15:05:39.338142 11592 net.cpp:399] label_data_1_split -> label_data_1_split_3
I0403 15:05:39.338162 11592 net.cpp:399] label_data_1_split -> label_data_1_split_4
I0403 15:05:39.338181 11592 net.cpp:399] label_data_1_split -> label_data_1_split_5
I0403 15:05:39.338201 11592 net.cpp:399] label_data_1_split -> label_data_1_split_6
I0403 15:05:39.338222 11592 net.cpp:399] label_data_1_split -> label_data_1_split_7
I0403 15:05:39.338241 11592 net.cpp:399] label_data_1_split -> label_data_1_split_8
I0403 15:05:39.338261 11592 net.cpp:399] label_data_1_split -> label_data_1_split_9
I0403 15:05:39.338388 11592 net.cpp:141] Setting up label_data_1_split
I0403 15:05:39.338413 11592 net.cpp:148] Top shape: 24 (24)
I0403 15:05:39.338430 11592 net.cpp:148] Top shape: 24 (24)
I0403 15:05:39.338446 11592 net.cpp:148] Top shape: 24 (24)
I0403 15:05:39.338462 11592 net.cpp:148] Top shape: 24 (24)
I0403 15:05:39.338477 11592 net.cpp:148] Top shape: 24 (24)
I0403 15:05:39.338493 11592 net.cpp:148] Top shape: 24 (24)
I0403 15:05:39.338508 11592 net.cpp:148] Top shape: 24 (24)
I0403 15:05:39.338524 11592 net.cpp:148] Top shape: 24 (24)
I0403 15:05:39.338539 11592 net.cpp:148] Top shape: 24 (24)
I0403 15:05:39.338554 11592 net.cpp:148] Top shape: 24 (24)
I0403 15:05:39.338608 11592 net.cpp:156] Memory required for data: 14451744
I0403 15:05:39.338625 11592 layer_factory.hpp:77] Creating layer conv1/7x7_s2
I0403 15:05:39.338670 11592 net.cpp:91] Creating Layer conv1/7x7_s2
I0403 15:05:39.338690 11592 net.cpp:425] conv1/7x7_s2 <- data
I0403 15:05:39.338709 11592 net.cpp:399] conv1/7x7_s2 -> conv1/7x7_s2
I0403 15:05:39.478615 11592 net.cpp:141] Setting up conv1/7x7_s2
I0403 15:05:39.478698 11592 net.cpp:148] Top shape: 24 64 112 112 (19267584)
I0403 15:05:39.478714 11592 net.cpp:156] Memory required for data: 91522080
I0403 15:05:39.478744 11592 layer_factory.hpp:77] Creating layer conv1/relu_7x7
I0403 15:05:39.478771 11592 net.cpp:91] Creating Layer conv1/relu_7x7
I0403 15:05:39.478790 11592 net.cpp:425] conv1/relu_7x7 <- conv1/7x7_s2
I0403 15:05:39.478808 11592 net.cpp:386] conv1/relu_7x7 -> conv1/7x7_s2 (in-place)
I0403 15:05:39.479066 11592 net.cpp:141] Setting up conv1/relu_7x7
I0403 15:05:39.479094 11592 net.cpp:148] Top shape: 24 64 112 112 (19267584)
I0403 15:05:39.479107 11592 net.cpp:156] Memory required for data: 168592416
I0403 15:05:39.479123 11592 layer_factory.hpp:77] Creating layer pool1/3x3_s2
I0403 15:05:39.479147 11592 net.cpp:91] Creating Layer pool1/3x3_s2
I0403 15:05:39.479164 11592 net.cpp:425] pool1/3x3_s2 <- conv1/7x7_s2
I0403 15:05:39.479182 11592 net.cpp:399] pool1/3x3_s2 -> pool1/3x3_s2
I0403 15:05:39.479254 11592 net.cpp:141] Setting up pool1/3x3_s2
I0403 15:05:39.479310 11592 net.cpp:148] Top shape: 24 64 56 56 (4816896)
I0403 15:05:39.479357 11592 net.cpp:156] Memory required for data: 187860000
I0403 15:05:39.479393 11592 layer_factory.hpp:77] Creating layer pool1/norm1
I0403 15:05:39.479418 11592 net.cpp:91] Creating Layer pool1/norm1
I0403 15:05:39.479436 11592 net.cpp:425] pool1/norm1 <- pool1/3x3_s2
I0403 15:05:39.479454 11592 net.cpp:399] pool1/norm1 -> pool1/norm1
I0403 15:05:39.479750 11592 net.cpp:141] Setting up pool1/norm1
I0403 15:05:39.479778 11592 net.cpp:148] Top shape: 24 64 56 56 (4816896)
I0403 15:05:39.479792 11592 net.cpp:156] Memory required for data: 207127584
I0403 15:05:39.479807 11592 layer_factory.hpp:77] Creating layer conv2/3x3_reduce
I0403 15:05:39.479832 11592 net.cpp:91] Creating Layer conv2/3x3_reduce
I0403 15:05:39.479848 11592 net.cpp:425] conv2/3x3_reduce <- pool1/norm1
I0403 15:05:39.479866 11592 net.cpp:399] conv2/3x3_reduce -> conv2/3x3_reduce
I0403 15:05:39.481212 11592 net.cpp:141] Setting up conv2/3x3_reduce
I0403 15:05:39.481242 11592 net.cpp:148] Top shape: 24 64 56 56 (4816896)
I0403 15:05:39.481257 11592 net.cpp:156] Memory required for data: 226395168
I0403 15:05:39.481281 11592 layer_factory.hpp:77] Creating layer conv2/relu_3x3_reduce
I0403 15:05:39.481299 11592 net.cpp:91] Creating Layer conv2/relu_3x3_reduce
I0403 15:05:39.481315 11592 net.cpp:425] conv2/relu_3x3_reduce <- conv2/3x3_reduce
I0403 15:05:39.481338 11592 net.cpp:386] conv2/relu_3x3_reduce -> conv2/3x3_reduce (in-place)
I0403 15:05:39.481607 11592 net.cpp:141] Setting up conv2/relu_3x3_reduce
I0403 15:05:39.481633 11592 net.cpp:148] Top shape: 24 64 56 56 (4816896)
I0403 15:05:39.481648 11592 net.cpp:156] Memory required for data: 245662752
I0403 15:05:39.481663 11592 layer_factory.hpp:77] Creating layer conv2/3x3
I0403 15:05:39.481689 11592 net.cpp:91] Creating Layer conv2/3x3
I0403 15:05:39.481706 11592 net.cpp:425] conv2/3x3 <- conv2/3x3_reduce
I0403 15:05:39.481727 11592 net.cpp:399] conv2/3x3 -> conv2/3x3
I0403 15:05:39.484073 11592 net.cpp:141] Setting up conv2/3x3
I0403 15:05:39.484107 11592 net.cpp:148] Top shape: 24 192 56 56 (14450688)
I0403 15:05:39.484123 11592 net.cpp:156] Memory required for data: 303465504
I0403 15:05:39.484148 11592 layer_factory.hpp:77] Creating layer conv2/relu_3x3
I0403 15:05:39.484170 11592 net.cpp:91] Creating Layer conv2/relu_3x3
I0403 15:05:39.484187 11592 net.cpp:425] conv2/relu_3x3 <- conv2/3x3
I0403 15:05:39.484206 11592 net.cpp:386] conv2/relu_3x3 -> conv2/3x3 (in-place)
I0403 15:05:39.484391 11592 net.cpp:141] Setting up conv2/relu_3x3
I0403 15:05:39.484432 11592 net.cpp:148] Top shape: 24 192 56 56 (14450688)
I0403 15:05:39.484498 11592 net.cpp:156] Memory required for data: 361268256
I0403 15:05:39.484541 11592 layer_factory.hpp:77] Creating layer conv2/norm2
I0403 15:05:39.484596 11592 net.cpp:91] Creating Layer conv2/norm2
I0403 15:05:39.484613 11592 net.cpp:425] conv2/norm2 <- conv2/3x3
I0403 15:05:39.484635 11592 net.cpp:399] conv2/norm2 -> conv2/norm2
I0403 15:05:39.484962 11592 net.cpp:141] Setting up conv2/norm2
I0403 15:05:39.484990 11592 net.cpp:148] Top shape: 24 192 56 56 (14450688)
I0403 15:05:39.485005 11592 net.cpp:156] Memory required for data: 419071008
I0403 15:05:39.485020 11592 layer_factory.hpp:77] Creating layer pool2/3x3_s2
I0403 15:05:39.485038 11592 net.cpp:91] Creating Layer pool2/3x3_s2
I0403 15:05:39.485054 11592 net.cpp:425] pool2/3x3_s2 <- conv2/norm2
I0403 15:05:39.485074 11592 net.cpp:399] pool2/3x3_s2 -> pool2/3x3_s2
I0403 15:05:39.485131 11592 net.cpp:141] Setting up pool2/3x3_s2
I0403 15:05:39.485155 11592 net.cpp:148] Top shape: 24 192 28 28 (3612672)
I0403 15:05:39.485169 11592 net.cpp:156] Memory required for data: 433521696
I0403 15:05:39.485183 11592 layer_factory.hpp:77] Creating layer pool2/3x3_s2_pool2/3x3_s2_0_split
I0403 15:05:39.485201 11592 net.cpp:91] Creating Layer pool2/3x3_s2_pool2/3x3_s2_0_split
I0403 15:05:39.485216 11592 net.cpp:425] pool2/3x3_s2_pool2/3x3_s2_0_split <- pool2/3x3_s2
I0403 15:05:39.485236 11592 net.cpp:399] pool2/3x3_s2_pool2/3x3_s2_0_split -> pool2/3x3_s2_pool2/3x3_s2_0_split_0
I0403 15:05:39.485257 11592 net.cpp:399] pool2/3x3_s2_pool2/3x3_s2_0_split -> pool2/3x3_s2_pool2/3x3_s2_0_split_1
I0403 15:05:39.485277 11592 net.cpp:399] pool2/3x3_s2_pool2/3x3_s2_0_split -> pool2/3x3_s2_pool2/3x3_s2_0_split_2
I0403 15:05:39.485296 11592 net.cpp:399] pool2/3x3_s2_pool2/3x3_s2_0_split -> pool2/3x3_s2_pool2/3x3_s2_0_split_3
I0403 15:05:39.485373 11592 net.cpp:141] Setting up pool2/3x3_s2_pool2/3x3_s2_0_split
I0403 15:05:39.485399 11592 net.cpp:148] Top shape: 24 192 28 28 (3612672)
I0403 15:05:39.485415 11592 net.cpp:148] Top shape: 24 192 28 28 (3612672)
I0403 15:05:39.485445 11592 net.cpp:148] Top shape: 24 192 28 28 (3612672)
I0403 15:05:39.485460 11592 net.cpp:148] Top shape: 24 192 28 28 (3612672)
I0403 15:05:39.485473 11592 net.cpp:156] Memory required for data: 491324448
I0403 15:05:39.485488 11592 layer_factory.hpp:77] Creating layer inception_3a/1x1
I0403 15:05:39.485513 11592 net.cpp:91] Creating Layer inception_3a/1x1
I0403 15:05:39.485532 11592 net.cpp:425] inception_3a/1x1 <- pool2/3x3_s2_pool2/3x3_s2_0_split_0
I0403 15:05:39.485551 11592 net.cpp:399] inception_3a/1x1 -> inception_3a/1x1
I0403 15:05:39.487107 11592 net.cpp:141] Setting up inception_3a/1x1
I0403 15:05:39.487138 11592 net.cpp:148] Top shape: 24 64 28 28 (1204224)
I0403 15:05:39.487155 11592 net.cpp:156] Memory required for data: 496141344
I0403 15:05:39.487174 11592 layer_factory.hpp:77] Creating layer inception_3a/relu_1x1
I0403 15:05:39.487195 11592 net.cpp:91] Creating Layer inception_3a/relu_1x1
I0403 15:05:39.487211 11592 net.cpp:425] inception_3a/relu_1x1 <- inception_3a/1x1
I0403 15:05:39.487228 11592 net.cpp:386] inception_3a/relu_1x1 -> inception_3a/1x1 (in-place)
I0403 15:05:39.487411 11592 net.cpp:141] Setting up inception_3a/relu_1x1
I0403 15:05:39.487440 11592 net.cpp:148] Top shape: 24 64 28 28 (1204224)
I0403 15:05:39.487457 11592 net.cpp:156] Memory required for data: 500958240
I0403 15:05:39.487473 11592 layer_factory.hpp:77] Creating layer inception_3a/3x3_reduce
I0403 15:05:39.487494 11592 net.cpp:91] Creating Layer inception_3a/3x3_reduce
I0403 15:05:39.487512 11592 net.cpp:425] inception_3a/3x3_reduce <- pool2/3x3_s2_pool2/3x3_s2_0_split_1
I0403 15:05:39.487532 11592 net.cpp:399] inception_3a/3x3_reduce -> inception_3a/3x3_reduce
I0403 15:05:39.489238 11592 net.cpp:141] Setting up inception_3a/3x3_reduce
I0403 15:05:39.489269 11592 net.cpp:148] Top shape: 24 96 28 28 (1806336)
I0403 15:05:39.489285 11592 net.cpp:156] Memory required for data: 508183584
I0403 15:05:39.489310 11592 layer_factory.hpp:77] Creating layer inception_3a/relu_3x3_reduce
I0403 15:05:39.489351 11592 net.cpp:91] Creating Layer inception_3a/relu_3x3_reduce
I0403 15:05:39.489368 11592 net.cpp:425] inception_3a/relu_3x3_reduce <- inception_3a/3x3_reduce
I0403 15:05:39.489387 11592 net.cpp:386] inception_3a/relu_3x3_reduce -> inception_3a/3x3_reduce (in-place)
I0403 15:05:39.489573 11592 net.cpp:141] Setting up inception_3a/relu_3x3_reduce
I0403 15:05:39.489599 11592 net.cpp:148] Top shape: 24 96 28 28 (1806336)
I0403 15:05:39.489614 11592 net.cpp:156] Memory required for data: 515408928
I0403 15:05:39.489629 11592 layer_factory.hpp:77] Creating layer inception_3a/3x3
I0403 15:05:39.489652 11592 net.cpp:91] Creating Layer inception_3a/3x3
I0403 15:05:39.489670 11592 net.cpp:425] inception_3a/3x3 <- inception_3a/3x3_reduce
I0403 15:05:39.489691 11592 net.cpp:399] inception_3a/3x3 -> inception_3a/3x3
I0403 15:05:39.491379 11592 net.cpp:141] Setting up inception_3a/3x3
I0403 15:05:39.491410 11592 net.cpp:148] Top shape: 24 128 28 28 (2408448)
I0403 15:05:39.491425 11592 net.cpp:156] Memory required for data: 525042720
I0403 15:05:39.491443 11592 layer_factory.hpp:77] Creating layer inception_3a/relu_3x3
I0403 15:05:39.491466 11592 net.cpp:91] Creating Layer inception_3a/relu_3x3
I0403 15:05:39.491485 11592 net.cpp:425] inception_3a/relu_3x3 <- inception_3a/3x3
I0403 15:05:39.491529 11592 net.cpp:386] inception_3a/relu_3x3 -> inception_3a/3x3 (in-place)
I0403 15:05:39.491827 11592 net.cpp:141] Setting up inception_3a/relu_3x3
I0403 15:05:39.491854 11592 net.cpp:148] Top shape: 24 128 28 28 (2408448)
I0403 15:05:39.491869 11592 net.cpp:156] Memory required for data: 534676512
I0403 15:05:39.491883 11592 layer_factory.hpp:77] Creating layer inception_3a/5x5_reduce
I0403 15:05:39.491906 11592 net.cpp:91] Creating Layer inception_3a/5x5_reduce
I0403 15:05:39.491924 11592 net.cpp:425] inception_3a/5x5_reduce <- pool2/3x3_s2_pool2/3x3_s2_0_split_2
I0403 15:05:39.491942 11592 net.cpp:399] inception_3a/5x5_reduce -> inception_3a/5x5_reduce
I0403 15:05:39.492895 11592 net.cpp:141] Setting up inception_3a/5x5_reduce
I0403 15:05:39.492923 11592 net.cpp:148] Top shape: 24 16 28 28 (301056)
I0403 15:05:39.492938 11592 net.cpp:156] Memory required for data: 535880736
I0403 15:05:39.492959 11592 layer_factory.hpp:77] Creating layer inception_3a/relu_5x5_reduce
I0403 15:05:39.492977 11592 net.cpp:91] Creating Layer inception_3a/relu_5x5_reduce
I0403 15:05:39.492993 11592 net.cpp:425] inception_3a/relu_5x5_reduce <- inception_3a/5x5_reduce
I0403 15:05:39.493010 11592 net.cpp:386] inception_3a/relu_5x5_reduce -> inception_3a/5x5_reduce (in-place)
I0403 15:05:39.493307 11592 net.cpp:141] Setting up inception_3a/relu_5x5_reduce
I0403 15:05:39.493346 11592 net.cpp:148] Top shape: 24 16 28 28 (301056)
I0403 15:05:39.493363 11592 net.cpp:156] Memory required for data: 537084960
I0403 15:05:39.493404 11592 layer_factory.hpp:77] Creating layer inception_3a/5x5
I0403 15:05:39.493454 11592 net.cpp:91] Creating Layer inception_3a/5x5
I0403 15:05:39.493499 11592 net.cpp:425] inception_3a/5x5 <- inception_3a/5x5_reduce
I0403 15:05:39.493543 11592 net.cpp:399] inception_3a/5x5 -> inception_3a/5x5
I0403 15:05:39.494578 11592 net.cpp:141] Setting up inception_3a/5x5
I0403 15:05:39.494606 11592 net.cpp:148] Top shape: 24 32 28 28 (602112)
I0403 15:05:39.494621 11592 net.cpp:156] Memory required for data: 539493408
I0403 15:05:39.494639 11592 layer_factory.hpp:77] Creating layer inception_3a/relu_5x5
I0403 15:05:39.494662 11592 net.cpp:91] Creating Layer inception_3a/relu_5x5
I0403 15:05:39.494678 11592 net.cpp:425] inception_3a/relu_5x5 <- inception_3a/5x5
I0403 15:05:39.494695 11592 net.cpp:386] inception_3a/relu_5x5 -> inception_3a/5x5 (in-place)
I0403 15:05:39.494868 11592 net.cpp:141] Setting up inception_3a/relu_5x5
I0403 15:05:39.494894 11592 net.cpp:148] Top shape: 24 32 28 28 (602112)
I0403 15:05:39.494910 11592 net.cpp:156] Memory required for data: 541901856
I0403 15:05:39.494925 11592 layer_factory.hpp:77] Creating layer inception_3a/pool
I0403 15:05:39.494942 11592 net.cpp:91] Creating Layer inception_3a/pool
I0403 15:05:39.494971 11592 net.cpp:425] inception_3a/pool <- pool2/3x3_s2_pool2/3x3_s2_0_split_3
I0403 15:05:39.494990 11592 net.cpp:399] inception_3a/pool -> inception_3a/pool
I0403 15:05:39.495048 11592 net.cpp:141] Setting up inception_3a/pool
I0403 15:05:39.495070 11592 net.cpp:148] Top shape: 24 192 28 28 (3612672)
I0403 15:05:39.495085 11592 net.cpp:156] Memory required for data: 556352544
I0403 15:05:39.495098 11592 layer_factory.hpp:77] Creating layer inception_3a/pool_proj
I0403 15:05:39.495121 11592 net.cpp:91] Creating Layer inception_3a/pool_proj
I0403 15:05:39.495137 11592 net.cpp:425] inception_3a/pool_proj <- inception_3a/pool
I0403 15:05:39.495159 11592 net.cpp:399] inception_3a/pool_proj -> inception_3a/pool_proj
I0403 15:05:39.496127 11592 net.cpp:141] Setting up inception_3a/pool_proj
I0403 15:05:39.496156 11592 net.cpp:148] Top shape: 24 32 28 28 (602112)
I0403 15:05:39.496171 11592 net.cpp:156] Memory required for data: 558760992
I0403 15:05:39.496194 11592 layer_factory.hpp:77] Creating layer inception_3a/relu_pool_proj
I0403 15:05:39.496213 11592 net.cpp:91] Creating Layer inception_3a/relu_pool_proj
I0403 15:05:39.496228 11592 net.cpp:425] inception_3a/relu_pool_proj <- inception_3a/pool_proj
I0403 15:05:39.496248 11592 net.cpp:386] inception_3a/relu_pool_proj -> inception_3a/pool_proj (in-place)
I0403 15:05:39.496541 11592 net.cpp:141] Setting up inception_3a/relu_pool_proj
I0403 15:05:39.496569 11592 net.cpp:148] Top shape: 24 32 28 28 (602112)
I0403 15:05:39.496584 11592 net.cpp:156] Memory required for data: 561169440
I0403 15:05:39.496599 11592 layer_factory.hpp:77] Creating layer inception_3a/output
I0403 15:05:39.496624 11592 net.cpp:91] Creating Layer inception_3a/output
I0403 15:05:39.496641 11592 net.cpp:425] inception_3a/output <- inception_3a/1x1
I0403 15:05:39.496659 11592 net.cpp:425] inception_3a/output <- inception_3a/3x3
I0403 15:05:39.496675 11592 net.cpp:425] inception_3a/output <- inception_3a/5x5
I0403 15:05:39.496690 11592 net.cpp:425] inception_3a/output <- inception_3a/pool_proj
I0403 15:05:39.496708 11592 net.cpp:399] inception_3a/output -> inception_3a/output
I0403 15:05:39.496768 11592 net.cpp:141] Setting up inception_3a/output
I0403 15:05:39.496791 11592 net.cpp:148] Top shape: 24 256 28 28 (4816896)
I0403 15:05:39.496805 11592 net.cpp:156] Memory required for data: 580437024
I0403 15:05:39.496820 11592 layer_factory.hpp:77] Creating layer inception_3a/output_inception_3a/output_0_split
I0403 15:05:39.496836 11592 net.cpp:91] Creating Layer inception_3a/output_inception_3a/output_0_split
I0403 15:05:39.496851 11592 net.cpp:425] inception_3a/output_inception_3a/output_0_split <- inception_3a/output
I0403 15:05:39.496872 11592 net.cpp:399] inception_3a/output_inception_3a/output_0_split -> inception_3a/output_inception_3a/output_0_split_0
I0403 15:05:39.496892 11592 net.cpp:399] inception_3a/output_inception_3a/output_0_split -> inception_3a/output_inception_3a/output_0_split_1
I0403 15:05:39.496917 11592 net.cpp:399] inception_3a/output_inception_3a/output_0_split -> inception_3a/output_inception_3a/output_0_split_2
I0403 15:05:39.496942 11592 net.cpp:399] inception_3a/output_inception_3a/output_0_split -> inception_3a/output_inception_3a/output_0_split_3
I0403 15:05:39.497015 11592 net.cpp:141] Setting up inception_3a/output_inception_3a/output_0_split
I0403 15:05:39.497037 11592 net.cpp:148] Top shape: 24 256 28 28 (4816896)
I0403 15:05:39.497053 11592 net.cpp:148] Top shape: 24 256 28 28 (4816896)
I0403 15:05:39.497068 11592 net.cpp:148] Top shape: 24 256 28 28 (4816896)
I0403 15:05:39.497084 11592 net.cpp:148] Top shape: 24 256 28 28 (4816896)
I0403 15:05:39.497097 11592 net.cpp:156] Memory required for data: 657507360
I0403 15:05:39.497112 11592 layer_factory.hpp:77] Creating layer inception_3b/1x1
I0403 15:05:39.497133 11592 net.cpp:91] Creating Layer inception_3b/1x1
I0403 15:05:39.497150 11592 net.cpp:425] inception_3b/1x1 <- inception_3a/output_inception_3a/output_0_split_0
I0403 15:05:39.497192 11592 net.cpp:399] inception_3b/1x1 -> inception_3b/1x1
I0403 15:05:39.498358 11592 net.cpp:141] Setting up inception_3b/1x1
I0403 15:05:39.498399 11592 net.cpp:148] Top shape: 24 128 28 28 (2408448)
I0403 15:05:39.498414 11592 net.cpp:156] Memory required for data: 667141152
I0403 15:05:39.498432 11592 layer_factory.hpp:77] Creating layer inception_3b/relu_1x1
I0403 15:05:39.498453 11592 net.cpp:91] Creating Layer inception_3b/relu_1x1
I0403 15:05:39.498471 11592 net.cpp:425] inception_3b/relu_1x1 <- inception_3b/1x1
I0403 15:05:39.498488 11592 net.cpp:386] inception_3b/relu_1x1 -> inception_3b/1x1 (in-place)
I0403 15:05:39.498658 11592 net.cpp:141] Setting up inception_3b/relu_1x1
I0403 15:05:39.498682 11592 net.cpp:148] Top shape: 24 128 28 28 (2408448)
I0403 15:05:39.498697 11592 net.cpp:156] Memory required for data: 676774944
I0403 15:05:39.498711 11592 layer_factory.hpp:77] Creating layer inception_3b/3x3_reduce
I0403 15:05:39.498734 11592 net.cpp:91] Creating Layer inception_3b/3x3_reduce
I0403 15:05:39.498752 11592 net.cpp:425] inception_3b/3x3_reduce <- inception_3a/output_inception_3a/output_0_split_1
I0403 15:05:39.498770 11592 net.cpp:399] inception_3b/3x3_reduce -> inception_3b/3x3_reduce
I0403 15:05:39.499893 11592 net.cpp:141] Setting up inception_3b/3x3_reduce
I0403 15:05:39.499922 11592 net.cpp:148] Top shape: 24 128 28 28 (2408448)
I0403 15:05:39.499938 11592 net.cpp:156] Memory required for data: 686408736
I0403 15:05:39.499956 11592 layer_factory.hpp:77] Creating layer inception_3b/relu_3x3_reduce
I0403 15:05:39.499975 11592 net.cpp:91] Creating Layer inception_3b/relu_3x3_reduce
I0403 15:05:39.499992 11592 net.cpp:425] inception_3b/relu_3x3_reduce <- inception_3b/3x3_reduce
I0403 15:05:39.500008 11592 net.cpp:386] inception_3b/relu_3x3_reduce -> inception_3b/3x3_reduce (in-place)
I0403 15:05:39.500180 11592 net.cpp:141] Setting up inception_3b/relu_3x3_reduce
I0403 15:05:39.500205 11592 net.cpp:148] Top shape: 24 128 28 28 (2408448)
I0403 15:05:39.500223 11592 net.cpp:156] Memory required for data: 696042528
I0403 15:05:39.500237 11592 layer_factory.hpp:77] Creating layer inception_3b/3x3
I0403 15:05:39.500262 11592 net.cpp:91] Creating Layer inception_3b/3x3
I0403 15:05:39.500278 11592 net.cpp:425] inception_3b/3x3 <- inception_3b/3x3_reduce
I0403 15:05:39.500301 11592 net.cpp:399] inception_3b/3x3 -> inception_3b/3x3
I0403 15:05:39.503237 11592 net.cpp:141] Setting up inception_3b/3x3
I0403 15:05:39.503268 11592 net.cpp:148] Top shape: 24 192 28 28 (3612672)
I0403 15:05:39.503283 11592 net.cpp:156] Memory required for data: 710493216
I0403 15:05:39.503300 11592 layer_factory.hpp:77] Creating layer inception_3b/relu_3x3
I0403 15:05:39.503330 11592 net.cpp:91] Creating Layer inception_3b/relu_3x3
I0403 15:05:39.503350 11592 net.cpp:425] inception_3b/relu_3x3 <- inception_3b/3x3
I0403 15:05:39.503366 11592 net.cpp:386] inception_3b/relu_3x3 -> inception_3b/3x3 (in-place)
I0403 15:05:39.503641 11592 net.cpp:141] Setting up inception_3b/relu_3x3
I0403 15:05:39.503667 11592 net.cpp:148] Top shape: 24 192 28 28 (3612672)
I0403 15:05:39.503681 11592 net.cpp:156] Memory required for data: 724943904
I0403 15:05:39.503696 11592 layer_factory.hpp:77] Creating layer inception_3b/5x5_reduce
I0403 15:05:39.503721 11592 net.cpp:91] Creating Layer inception_3b/5x5_reduce
I0403 15:05:39.503738 11592 net.cpp:425] inception_3b/5x5_reduce <- inception_3a/output_inception_3a/output_0_split_2
I0403 15:05:39.503757 11592 net.cpp:399] inception_3b/5x5_reduce -> inception_3b/5x5_reduce
I0403 15:05:39.504746 11592 net.cpp:141] Setting up inception_3b/5x5_reduce
I0403 15:05:39.504776 11592 net.cpp:148] Top shape: 24 32 28 28 (602112)
I0403 15:05:39.504791 11592 net.cpp:156] Memory required for data: 727352352
I0403 15:05:39.504808 11592 layer_factory.hpp:77] Creating layer inception_3b/relu_5x5_reduce
I0403 15:05:39.504827 11592 net.cpp:91] Creating Layer inception_3b/relu_5x5_reduce
I0403 15:05:39.504843 11592 net.cpp:425] inception_3b/relu_5x5_reduce <- inception_3b/5x5_reduce
I0403 15:05:39.504860 11592 net.cpp:386] inception_3b/relu_5x5_reduce -> inception_3b/5x5_reduce (in-place)
I0403 15:05:39.505045 11592 net.cpp:141] Setting up inception_3b/relu_5x5_reduce
I0403 15:05:39.505072 11592 net.cpp:148] Top shape: 24 32 28 28 (602112)
I0403 15:05:39.505087 11592 net.cpp:156] Memory required for data: 729760800
I0403 15:05:39.505101 11592 layer_factory.hpp:77] Creating layer inception_3b/5x5
I0403 15:05:39.505123 11592 net.cpp:91] Creating Layer inception_3b/5x5
I0403 15:05:39.505141 11592 net.cpp:425] inception_3b/5x5 <- inception_3b/5x5_reduce
I0403 15:05:39.505158 11592 net.cpp:399] inception_3b/5x5 -> inception_3b/5x5
I0403 15:05:39.507071 11592 net.cpp:141] Setting up inception_3b/5x5
I0403 15:05:39.507099 11592 net.cpp:148] Top shape: 24 96 28 28 (1806336)
I0403 15:05:39.507115 11592 net.cpp:156] Memory required for data: 736986144
I0403 15:05:39.507133 11592 layer_factory.hpp:77] Creating layer inception_3b/relu_5x5
I0403 15:05:39.507151 11592 net.cpp:91] Creating Layer inception_3b/relu_5x5
I0403 15:05:39.507166 11592 net.cpp:425] inception_3b/relu_5x5 <- inception_3b/5x5
I0403 15:05:39.507185 11592 net.cpp:386] inception_3b/relu_5x5 -> inception_3b/5x5 (in-place)
I0403 15:05:39.507376 11592 net.cpp:141] Setting up inception_3b/relu_5x5
I0403 15:05:39.507402 11592 net.cpp:148] Top shape: 24 96 28 28 (1806336)
I0403 15:05:39.507417 11592 net.cpp:156] Memory required for data: 744211488
I0403 15:05:39.507432 11592 layer_factory.hpp:77] Creating layer inception_3b/pool
I0403 15:05:39.507448 11592 net.cpp:91] Creating Layer inception_3b/pool
I0403 15:05:39.507463 11592 net.cpp:425] inception_3b/pool <- inception_3a/output_inception_3a/output_0_split_3
I0403 15:05:39.507480 11592 net.cpp:399] inception_3b/pool -> inception_3b/pool
I0403 15:05:39.507534 11592 net.cpp:141] Setting up inception_3b/pool
I0403 15:05:39.507556 11592 net.cpp:148] Top shape: 24 256 28 28 (4816896)
I0403 15:05:39.507571 11592 net.cpp:156] Memory required for data: 763479072
I0403 15:05:39.507586 11592 layer_factory.hpp:77] Creating layer inception_3b/pool_proj
I0403 15:05:39.507609 11592 net.cpp:91] Creating Layer inception_3b/pool_proj
I0403 15:05:39.507627 11592 net.cpp:425] inception_3b/pool_proj <- inception_3b/pool
I0403 15:05:39.507647 11592 net.cpp:399] inception_3b/pool_proj -> inception_3b/pool_proj
I0403 15:05:39.508685 11592 net.cpp:141] Setting up inception_3b/pool_proj
I0403 15:05:39.508715 11592 net.cpp:148] Top shape: 24 64 28 28 (1204224)
I0403 15:05:39.508730 11592 net.cpp:156] Memory required for data: 768295968
I0403 15:05:39.508749 11592 layer_factory.hpp:77] Creating layer inception_3b/relu_pool_proj
I0403 15:05:39.508766 11592 net.cpp:91] Creating Layer inception_3b/relu_pool_proj
I0403 15:05:39.508782 11592 net.cpp:425] inception_3b/relu_pool_proj <- inception_3b/pool_proj
I0403 15:05:39.508801 11592 net.cpp:386] inception_3b/relu_pool_proj -> inception_3b/pool_proj (in-place)
I0403 15:05:39.509196 11592 net.cpp:141] Setting up inception_3b/relu_pool_proj
I0403 15:05:39.509227 11592 net.cpp:148] Top shape: 24 64 28 28 (1204224)
I0403 15:05:39.509243 11592 net.cpp:156] Memory required for data: 773112864
I0403 15:05:39.509258 11592 layer_factory.hpp:77] Creating layer inception_3b/output
I0403 15:05:39.509275 11592 net.cpp:91] Creating Layer inception_3b/output
I0403 15:05:39.509292 11592 net.cpp:425] inception_3b/output <- inception_3b/1x1
I0403 15:05:39.509308 11592 net.cpp:425] inception_3b/output <- inception_3b/3x3
I0403 15:05:39.509330 11592 net.cpp:425] inception_3b/output <- inception_3b/5x5
I0403 15:05:39.509346 11592 net.cpp:425] inception_3b/output <- inception_3b/pool_proj
I0403 15:05:39.509382 11592 net.cpp:399] inception_3b/output -> inception_3b/output
I0403 15:05:39.509452 11592 net.cpp:141] Setting up inception_3b/output
I0403 15:05:39.509476 11592 net.cpp:148] Top shape: 24 480 28 28 (9031680)
I0403 15:05:39.509491 11592 net.cpp:156] Memory required for data: 809239584
I0403 15:05:39.509505 11592 layer_factory.hpp:77] Creating layer pool3/3x3_s2
I0403 15:05:39.509526 11592 net.cpp:91] Creating Layer pool3/3x3_s2
I0403 15:05:39.509541 11592 net.cpp:425] pool3/3x3_s2 <- inception_3b/output
I0403 15:05:39.509573 11592 net.cpp:399] pool3/3x3_s2 -> pool3/3x3_s2
I0403 15:05:39.509635 11592 net.cpp:141] Setting up pool3/3x3_s2
I0403 15:05:39.509660 11592 net.cpp:148] Top shape: 24 480 14 14 (2257920)
I0403 15:05:39.509673 11592 net.cpp:156] Memory required for data: 818271264
I0403 15:05:39.509687 11592 layer_factory.hpp:77] Creating layer pool3/3x3_s2_pool3/3x3_s2_0_split
I0403 15:05:39.509703 11592 net.cpp:91] Creating Layer pool3/3x3_s2_pool3/3x3_s2_0_split
I0403 15:05:39.509718 11592 net.cpp:425] pool3/3x3_s2_pool3/3x3_s2_0_split <- pool3/3x3_s2
I0403 15:05:39.509737 11592 net.cpp:399] pool3/3x3_s2_pool3/3x3_s2_0_split -> pool3/3x3_s2_pool3/3x3_s2_0_split_0
I0403 15:05:39.509757 11592 net.cpp:399] pool3/3x3_s2_pool3/3x3_s2_0_split -> pool3/3x3_s2_pool3/3x3_s2_0_split_1
I0403 15:05:39.509778 11592 net.cpp:399] pool3/3x3_s2_pool3/3x3_s2_0_split -> pool3/3x3_s2_pool3/3x3_s2_0_split_2
I0403 15:05:39.509796 11592 net.cpp:399] pool3/3x3_s2_pool3/3x3_s2_0_split -> pool3/3x3_s2_pool3/3x3_s2_0_split_3
I0403 15:05:39.509871 11592 net.cpp:141] Setting up pool3/3x3_s2_pool3/3x3_s2_0_split
I0403 15:05:39.509896 11592 net.cpp:148] Top shape: 24 480 14 14 (2257920)
I0403 15:05:39.509912 11592 net.cpp:148] Top shape: 24 480 14 14 (2257920)
I0403 15:05:39.509928 11592 net.cpp:148] Top shape: 24 480 14 14 (2257920)
I0403 15:05:39.509943 11592 net.cpp:148] Top shape: 24 480 14 14 (2257920)
I0403 15:05:39.509956 11592 net.cpp:156] Memory required for data: 854397984
I0403 15:05:39.509970 11592 layer_factory.hpp:77] Creating layer inception_4a/1x1
I0403 15:05:39.509992 11592 net.cpp:91] Creating Layer inception_4a/1x1
I0403 15:05:39.510010 11592 net.cpp:425] inception_4a/1x1 <- pool3/3x3_s2_pool3/3x3_s2_0_split_0
I0403 15:05:39.510030 11592 net.cpp:399] inception_4a/1x1 -> inception_4a/1x1
I0403 15:05:39.511633 11592 net.cpp:141] Setting up inception_4a/1x1
I0403 15:05:39.511662 11592 net.cpp:148] Top shape: 24 192 14 14 (903168)
I0403 15:05:39.511677 11592 net.cpp:156] Memory required for data: 858010656
I0403 15:05:39.511694 11592 layer_factory.hpp:77] Creating layer inception_4a/relu_1x1
I0403 15:05:39.511713 11592 net.cpp:91] Creating Layer inception_4a/relu_1x1
I0403 15:05:39.511728 11592 net.cpp:425] inception_4a/relu_1x1 <- inception_4a/1x1
I0403 15:05:39.511746 11592 net.cpp:386] inception_4a/relu_1x1 -> inception_4a/1x1 (in-place)
I0403 15:05:39.511922 11592 net.cpp:141] Setting up inception_4a/relu_1x1
I0403 15:05:39.511947 11592 net.cpp:148] Top shape: 24 192 14 14 (903168)
I0403 15:05:39.511961 11592 net.cpp:156] Memory required for data: 861623328
I0403 15:05:39.511976 11592 layer_factory.hpp:77] Creating layer inception_4a/3x3_reduce
I0403 15:05:39.511998 11592 net.cpp:91] Creating Layer inception_4a/3x3_reduce
I0403 15:05:39.512017 11592 net.cpp:425] inception_4a/3x3_reduce <- pool3/3x3_s2_pool3/3x3_s2_0_split_1
I0403 15:05:39.512037 11592 net.cpp:399] inception_4a/3x3_reduce -> inception_4a/3x3_reduce
I0403 15:05:39.513345 11592 net.cpp:141] Setting up inception_4a/3x3_reduce
I0403 15:05:39.513376 11592 net.cpp:148] Top shape: 24 96 14 14 (451584)
I0403 15:05:39.513393 11592 net.cpp:156] Memory required for data: 863429664
I0403 15:05:39.513418 11592 layer_factory.hpp:77] Creating layer inception_4a/relu_3x3_reduce
I0403 15:05:39.513437 11592 net.cpp:91] Creating Layer inception_4a/relu_3x3_reduce
I0403 15:05:39.513453 11592 net.cpp:425] inception_4a/relu_3x3_reduce <- inception_4a/3x3_reduce
I0403 15:05:39.513470 11592 net.cpp:386] inception_4a/relu_3x3_reduce -> inception_4a/3x3_reduce (in-place)
I0403 15:05:39.513648 11592 net.cpp:141] Setting up inception_4a/relu_3x3_reduce
I0403 15:05:39.513671 11592 net.cpp:148] Top shape: 24 96 14 14 (451584)
I0403 15:05:39.513686 11592 net.cpp:156] Memory required for data: 865236000
I0403 15:05:39.513700 11592 layer_factory.hpp:77] Creating layer inception_4a/3x3
I0403 15:05:39.513722 11592 net.cpp:91] Creating Layer inception_4a/3x3
I0403 15:05:39.513741 11592 net.cpp:425] inception_4a/3x3 <- inception_4a/3x3_reduce
I0403 15:05:39.513761 11592 net.cpp:399] inception_4a/3x3 -> inception_4a/3x3
I0403 15:05:39.516425 11592 net.cpp:141] Setting up inception_4a/3x3
I0403 15:05:39.516468 11592 net.cpp:148] Top shape: 24 208 14 14 (978432)
I0403 15:05:39.516484 11592 net.cpp:156] Memory required for data: 869149728
I0403 15:05:39.516501 11592 layer_factory.hpp:77] Creating layer inception_4a/relu_3x3
I0403 15:05:39.516522 11592 net.cpp:91] Creating Layer inception_4a/relu_3x3
I0403 15:05:39.516541 11592 net.cpp:425] inception_4a/relu_3x3 <- inception_4a/3x3
I0403 15:05:39.516557 11592 net.cpp:386] inception_4a/relu_3x3 -> inception_4a/3x3 (in-place)
I0403 15:05:39.516851 11592 net.cpp:141] Setting up inception_4a/relu_3x3
I0403 15:05:39.516877 11592 net.cpp:148] Top shape: 24 208 14 14 (978432)
I0403 15:05:39.516892 11592 net.cpp:156] Memory required for data: 873063456
I0403 15:05:39.516907 11592 layer_factory.hpp:77] Creating layer inception_4a/5x5_reduce
I0403 15:05:39.516930 11592 net.cpp:91] Creating Layer inception_4a/5x5_reduce
I0403 15:05:39.516947 11592 net.cpp:425] inception_4a/5x5_reduce <- pool3/3x3_s2_pool3/3x3_s2_0_split_2
I0403 15:05:39.516968 11592 net.cpp:399] inception_4a/5x5_reduce -> inception_4a/5x5_reduce
I0403 15:05:39.518013 11592 net.cpp:141] Setting up inception_4a/5x5_reduce
I0403 15:05:39.518041 11592 net.cpp:148] Top shape: 24 16 14 14 (75264)
I0403 15:05:39.518056 11592 net.cpp:156] Memory required for data: 873364512
I0403 15:05:39.518074 11592 layer_factory.hpp:77] Creating layer inception_4a/relu_5x5_reduce
I0403 15:05:39.518095 11592 net.cpp:91] Creating Layer inception_4a/relu_5x5_reduce
I0403 15:05:39.518111 11592 net.cpp:425] inception_4a/relu_5x5_reduce <- inception_4a/5x5_reduce
I0403 15:05:39.518128 11592 net.cpp:386] inception_4a/relu_5x5_reduce -> inception_4a/5x5_reduce (in-place)
I0403 15:05:39.518311 11592 net.cpp:141] Setting up inception_4a/relu_5x5_reduce
I0403 15:05:39.518343 11592 net.cpp:148] Top shape: 24 16 14 14 (75264)
I0403 15:05:39.518359 11592 net.cpp:156] Memory required for data: 873665568
I0403 15:05:39.518375 11592 layer_factory.hpp:77] Creating layer inception_4a/5x5
I0403 15:05:39.518399 11592 net.cpp:91] Creating Layer inception_4a/5x5
I0403 15:05:39.518415 11592 net.cpp:425] inception_4a/5x5 <- inception_4a/5x5_reduce
I0403 15:05:39.518435 11592 net.cpp:399] inception_4a/5x5 -> inception_4a/5x5
I0403 15:05:39.519520 11592 net.cpp:141] Setting up inception_4a/5x5
I0403 15:05:39.519548 11592 net.cpp:148] Top shape: 24 48 14 14 (225792)
I0403 15:05:39.519564 11592 net.cpp:156] Memory required for data: 874568736
I0403 15:05:39.519582 11592 layer_factory.hpp:77] Creating layer inception_4a/relu_5x5
I0403 15:05:39.519601 11592 net.cpp:91] Creating Layer inception_4a/relu_5x5
I0403 15:05:39.519616 11592 net.cpp:425] inception_4a/relu_5x5 <- inception_4a/5x5
I0403 15:05:39.519636 11592 net.cpp:386] inception_4a/relu_5x5 -> inception_4a/5x5 (in-place)
I0403 15:05:39.519816 11592 net.cpp:141] Setting up inception_4a/relu_5x5
I0403 15:05:39.519841 11592 net.cpp:148] Top shape: 24 48 14 14 (225792)
I0403 15:05:39.519855 11592 net.cpp:156] Memory required for data: 875471904
I0403 15:05:39.519870 11592 layer_factory.hpp:77] Creating layer inception_4a/pool
I0403 15:05:39.519887 11592 net.cpp:91] Creating Layer inception_4a/pool
I0403 15:05:39.519903 11592 net.cpp:425] inception_4a/pool <- pool3/3x3_s2_pool3/3x3_s2_0_split_3
I0403 15:05:39.519923 11592 net.cpp:399] inception_4a/pool -> inception_4a/pool
I0403 15:05:39.519984 11592 net.cpp:141] Setting up inception_4a/pool
I0403 15:05:39.520007 11592 net.cpp:148] Top shape: 24 480 14 14 (2257920)
I0403 15:05:39.520021 11592 net.cpp:156] Memory required for data: 884503584
I0403 15:05:39.520035 11592 layer_factory.hpp:77] Creating layer inception_4a/pool_proj
I0403 15:05:39.520058 11592 net.cpp:91] Creating Layer inception_4a/pool_proj
I0403 15:05:39.520076 11592 net.cpp:425] inception_4a/pool_proj <- inception_4a/pool
I0403 15:05:39.520094 11592 net.cpp:399] inception_4a/pool_proj -> inception_4a/pool_proj
I0403 15:05:39.521257 11592 net.cpp:141] Setting up inception_4a/pool_proj
I0403 15:05:39.521288 11592 net.cpp:148] Top shape: 24 64 14 14 (301056)
I0403 15:05:39.521324 11592 net.cpp:156] Memory required for data: 885707808
I0403 15:05:39.521347 11592 layer_factory.hpp:77] Creating layer inception_4a/relu_pool_proj
I0403 15:05:39.521364 11592 net.cpp:91] Creating Layer inception_4a/relu_pool_proj
I0403 15:05:39.521380 11592 net.cpp:425] inception_4a/relu_pool_proj <- inception_4a/pool_proj
I0403 15:05:39.521401 11592 net.cpp:386] inception_4a/relu_pool_proj -> inception_4a/pool_proj (in-place)
I0403 15:05:39.521677 11592 net.cpp:141] Setting up inception_4a/relu_pool_proj
I0403 15:05:39.521706 11592 net.cpp:148] Top shape: 24 64 14 14 (301056)
I0403 15:05:39.521723 11592 net.cpp:156] Memory required for data: 886912032
I0403 15:05:39.521738 11592 layer_factory.hpp:77] Creating layer inception_4a/output
I0403 15:05:39.521754 11592 net.cpp:91] Creating Layer inception_4a/output
I0403 15:05:39.521770 11592 net.cpp:425] inception_4a/output <- inception_4a/1x1
I0403 15:05:39.521787 11592 net.cpp:425] inception_4a/output <- inception_4a/3x3
I0403 15:05:39.521802 11592 net.cpp:425] inception_4a/output <- inception_4a/5x5
I0403 15:05:39.521817 11592 net.cpp:425] inception_4a/output <- inception_4a/pool_proj
I0403 15:05:39.521836 11592 net.cpp:399] inception_4a/output -> inception_4a/output
I0403 15:05:39.521880 11592 net.cpp:141] Setting up inception_4a/output
I0403 15:05:39.521903 11592 net.cpp:148] Top shape: 24 512 14 14 (2408448)
I0403 15:05:39.521919 11592 net.cpp:156] Memory required for data: 896545824
I0403 15:05:39.521934 11592 layer_factory.hpp:77] Creating layer inception_4a/output_inception_4a/output_0_split
I0403 15:05:39.521952 11592 net.cpp:91] Creating Layer inception_4a/output_inception_4a/output_0_split
I0403 15:05:39.521970 11592 net.cpp:425] inception_4a/output_inception_4a/output_0_split <- inception_4a/output
I0403 15:05:39.521986 11592 net.cpp:399] inception_4a/output_inception_4a/output_0_split -> inception_4a/output_inception_4a/output_0_split_0
I0403 15:05:39.522011 11592 net.cpp:399] inception_4a/output_inception_4a/output_0_split -> inception_4a/output_inception_4a/output_0_split_1
I0403 15:05:39.522030 11592 net.cpp:399] inception_4a/output_inception_4a/output_0_split -> inception_4a/output_inception_4a/output_0_split_2
I0403 15:05:39.522050 11592 net.cpp:399] inception_4a/output_inception_4a/output_0_split -> inception_4a/output_inception_4a/output_0_split_3
I0403 15:05:39.522069 11592 net.cpp:399] inception_4a/output_inception_4a/output_0_split -> inception_4a/output_inception_4a/output_0_split_4
I0403 15:05:39.522161 11592 net.cpp:141] Setting up inception_4a/output_inception_4a/output_0_split
I0403 15:05:39.522183 11592 net.cpp:148] Top shape: 24 512 14 14 (2408448)
I0403 15:05:39.522200 11592 net.cpp:148] Top shape: 24 512 14 14 (2408448)
I0403 15:05:39.522215 11592 net.cpp:148] Top shape: 24 512 14 14 (2408448)
I0403 15:05:39.522230 11592 net.cpp:148] Top shape: 24 512 14 14 (2408448)
I0403 15:05:39.522246 11592 net.cpp:148] Top shape: 24 512 14 14 (2408448)
I0403 15:05:39.522259 11592 net.cpp:156] Memory required for data: 944714784
I0403 15:05:39.522274 11592 layer_factory.hpp:77] Creating layer loss1/ave_pool
I0403 15:05:39.522294 11592 net.cpp:91] Creating Layer loss1/ave_pool
I0403 15:05:39.522310 11592 net.cpp:425] loss1/ave_pool <- inception_4a/output_inception_4a/output_0_split_0
I0403 15:05:39.522333 11592 net.cpp:399] loss1/ave_pool -> loss1/ave_pool
I0403 15:05:39.522541 11592 net.cpp:141] Setting up loss1/ave_pool
I0403 15:05:39.522569 11592 net.cpp:148] Top shape: 24 512 4 4 (196608)
I0403 15:05:39.522586 11592 net.cpp:156] Memory required for data: 945501216
I0403 15:05:39.522601 11592 layer_factory.hpp:77] Creating layer loss1/conv
I0403 15:05:39.522624 11592 net.cpp:91] Creating Layer loss1/conv
I0403 15:05:39.522641 11592 net.cpp:425] loss1/conv <- loss1/ave_pool
I0403 15:05:39.522662 11592 net.cpp:399] loss1/conv -> loss1/conv
I0403 15:05:39.524070 11592 net.cpp:141] Setting up loss1/conv
I0403 15:05:39.524101 11592 net.cpp:148] Top shape: 24 128 4 4 (49152)
I0403 15:05:39.524130 11592 net.cpp:156] Memory required for data: 945697824
I0403 15:05:39.524152 11592 layer_factory.hpp:77] Creating layer loss1/relu_conv
I0403 15:05:39.524173 11592 net.cpp:91] Creating Layer loss1/relu_conv
I0403 15:05:39.524191 11592 net.cpp:425] loss1/relu_conv <- loss1/conv
I0403 15:05:39.524209 11592 net.cpp:386] loss1/relu_conv -> loss1/conv (in-place)
I0403 15:05:39.524498 11592 net.cpp:141] Setting up loss1/relu_conv
I0403 15:05:39.524525 11592 net.cpp:148] Top shape: 24 128 4 4 (49152)
I0403 15:05:39.524540 11592 net.cpp:156] Memory required for data: 945894432
I0403 15:05:39.524555 11592 layer_factory.hpp:77] Creating layer loss1/fc
I0403 15:05:39.524580 11592 net.cpp:91] Creating Layer loss1/fc
I0403 15:05:39.524598 11592 net.cpp:425] loss1/fc <- loss1/conv
I0403 15:05:39.524616 11592 net.cpp:399] loss1/fc -> loss1/fc
I0403 15:05:39.542187 11592 net.cpp:141] Setting up loss1/fc
I0403 15:05:39.542218 11592 net.cpp:148] Top shape: 24 1024 (24576)
I0403 15:05:39.542234 11592 net.cpp:156] Memory required for data: 945992736
I0403 15:05:39.542253 11592 layer_factory.hpp:77] Creating layer loss1/relu_fc
I0403 15:05:39.542271 11592 net.cpp:91] Creating Layer loss1/relu_fc
I0403 15:05:39.542287 11592 net.cpp:425] loss1/relu_fc <- loss1/fc
I0403 15:05:39.542306 11592 net.cpp:386] loss1/relu_fc -> loss1/fc (in-place)
I0403 15:05:39.542510 11592 net.cpp:141] Setting up loss1/relu_fc
I0403 15:05:39.542536 11592 net.cpp:148] Top shape: 24 1024 (24576)
I0403 15:05:39.542551 11592 net.cpp:156] Memory required for data: 946091040
I0403 15:05:39.542565 11592 layer_factory.hpp:77] Creating layer loss1/drop_fc
I0403 15:05:39.542592 11592 net.cpp:91] Creating Layer loss1/drop_fc
I0403 15:05:39.542608 11592 net.cpp:425] loss1/drop_fc <- loss1/fc
I0403 15:05:39.542629 11592 net.cpp:386] loss1/drop_fc -> loss1/fc (in-place)
I0403 15:05:39.542680 11592 net.cpp:141] Setting up loss1/drop_fc
I0403 15:05:39.542706 11592 net.cpp:148] Top shape: 24 1024 (24576)
I0403 15:05:39.542722 11592 net.cpp:156] Memory required for data: 946189344
I0403 15:05:39.542737 11592 layer_factory.hpp:77] Creating layer loss1/classifier_plantvillage
I0403 15:05:39.542757 11592 net.cpp:91] Creating Layer loss1/classifier_plantvillage
I0403 15:05:39.542771 11592 net.cpp:425] loss1/classifier_plantvillage <- loss1/fc
I0403 15:05:39.542793 11592 net.cpp:399] loss1/classifier_plantvillage -> loss1/classifier_plantvillage
I0403 15:05:39.543700 11592 net.cpp:141] Setting up loss1/classifier_plantvillage
I0403 15:05:39.543727 11592 net.cpp:148] Top shape: 24 38 (912)
I0403 15:05:39.543742 11592 net.cpp:156] Memory required for data: 946192992
I0403 15:05:39.543761 11592 layer_factory.hpp:77] Creating layer loss1/classifier_plantvillage_loss1/classifier_plantvillage_0_split
I0403 15:05:39.543778 11592 net.cpp:91] Creating Layer loss1/classifier_plantvillage_loss1/classifier_plantvillage_0_split
I0403 15:05:39.543793 11592 net.cpp:425] loss1/classifier_plantvillage_loss1/classifier_plantvillage_0_split <- loss1/classifier_plantvillage
I0403 15:05:39.543812 11592 net.cpp:399] loss1/classifier_plantvillage_loss1/classifier_plantvillage_0_split -> loss1/classifier_plantvillage_loss1/classifier_plantvillage_0_split_0
I0403 15:05:39.543833 11592 net.cpp:399] loss1/classifier_plantvillage_loss1/classifier_plantvillage_0_split -> loss1/classifier_plantvillage_loss1/classifier_plantvillage_0_split_1
I0403 15:05:39.543853 11592 net.cpp:399] loss1/classifier_plantvillage_loss1/classifier_plantvillage_0_split -> loss1/classifier_plantvillage_loss1/classifier_plantvillage_0_split_2
I0403 15:05:39.543921 11592 net.cpp:141] Setting up loss1/classifier_plantvillage_loss1/classifier_plantvillage_0_split
I0403 15:05:39.543943 11592 net.cpp:148] Top shape: 24 38 (912)
I0403 15:05:39.543959 11592 net.cpp:148] Top shape: 24 38 (912)
I0403 15:05:39.543974 11592 net.cpp:148] Top shape: 24 38 (912)
I0403 15:05:39.543987 11592 net.cpp:156] Memory required for data: 946203936
I0403 15:05:39.544003 11592 layer_factory.hpp:77] Creating layer inception_4b/1x1
I0403 15:05:39.544024 11592 net.cpp:91] Creating Layer inception_4b/1x1
I0403 15:05:39.544055 11592 net.cpp:425] inception_4b/1x1 <- inception_4a/output_inception_4a/output_0_split_1
I0403 15:05:39.544076 11592 net.cpp:399] inception_4b/1x1 -> inception_4b/1x1
I0403 15:05:39.545769 11592 net.cpp:141] Setting up inception_4b/1x1
I0403 15:05:39.545799 11592 net.cpp:148] Top shape: 24 160 14 14 (752640)
I0403 15:05:39.545814 11592 net.cpp:156] Memory required for data: 949214496
I0403 15:05:39.545832 11592 layer_factory.hpp:77] Creating layer inception_4b/relu_1x1
I0403 15:05:39.545852 11592 net.cpp:91] Creating Layer inception_4b/relu_1x1
I0403 15:05:39.545871 11592 net.cpp:425] inception_4b/relu_1x1 <- inception_4b/1x1
I0403 15:05:39.545887 11592 net.cpp:386] inception_4b/relu_1x1 -> inception_4b/1x1 (in-place)
I0403 15:05:39.546067 11592 net.cpp:141] Setting up inception_4b/relu_1x1
I0403 15:05:39.546095 11592 net.cpp:148] Top shape: 24 160 14 14 (752640)
I0403 15:05:39.546110 11592 net.cpp:156] Memory required for data: 952225056
I0403 15:05:39.546125 11592 layer_factory.hpp:77] Creating layer inception_4b/3x3_reduce
I0403 15:05:39.546149 11592 net.cpp:91] Creating Layer inception_4b/3x3_reduce
I0403 15:05:39.546167 11592 net.cpp:425] inception_4b/3x3_reduce <- inception_4a/output_inception_4a/output_0_split_2
I0403 15:05:39.546186 11592 net.cpp:399] inception_4b/3x3_reduce -> inception_4b/3x3_reduce
I0403 15:05:39.547547 11592 net.cpp:141] Setting up inception_4b/3x3_reduce
I0403 15:05:39.547579 11592 net.cpp:148] Top shape: 24 112 14 14 (526848)
I0403 15:05:39.547595 11592 net.cpp:156] Memory required for data: 954332448
I0403 15:05:39.547612 11592 layer_factory.hpp:77] Creating layer inception_4b/relu_3x3_reduce
I0403 15:05:39.547632 11592 net.cpp:91] Creating Layer inception_4b/relu_3x3_reduce
I0403 15:05:39.547648 11592 net.cpp:425] inception_4b/relu_3x3_reduce <- inception_4b/3x3_reduce
I0403 15:05:39.547665 11592 net.cpp:386] inception_4b/relu_3x3_reduce -> inception_4b/3x3_reduce (in-place)
I0403 15:05:39.547945 11592 net.cpp:141] Setting up inception_4b/relu_3x3_reduce
I0403 15:05:39.547973 11592 net.cpp:148] Top shape: 24 112 14 14 (526848)
I0403 15:05:39.547988 11592 net.cpp:156] Memory required for data: 956439840
I0403 15:05:39.548003 11592 layer_factory.hpp:77] Creating layer inception_4b/3x3
I0403 15:05:39.548025 11592 net.cpp:91] Creating Layer inception_4b/3x3
I0403 15:05:39.548043 11592 net.cpp:425] inception_4b/3x3 <- inception_4b/3x3_reduce
I0403 15:05:39.548063 11592 net.cpp:399] inception_4b/3x3 -> inception_4b/3x3
I0403 15:05:39.551214 11592 net.cpp:141] Setting up inception_4b/3x3
I0403 15:05:39.551244 11592 net.cpp:148] Top shape: 24 224 14 14 (1053696)
I0403 15:05:39.551260 11592 net.cpp:156] Memory required for data: 960654624
I0403 15:05:39.551280 11592 layer_factory.hpp:77] Creating layer inception_4b/relu_3x3
I0403 15:05:39.551297 11592 net.cpp:91] Creating Layer inception_4b/relu_3x3
I0403 15:05:39.551313 11592 net.cpp:425] inception_4b/relu_3x3 <- inception_4b/3x3
I0403 15:05:39.551342 11592 net.cpp:386] inception_4b/relu_3x3 -> inception_4b/3x3 (in-place)
I0403 15:05:39.551532 11592 net.cpp:141] Setting up inception_4b/relu_3x3
I0403 15:05:39.551558 11592 net.cpp:148] Top shape: 24 224 14 14 (1053696)
I0403 15:05:39.551573 11592 net.cpp:156] Memory required for data: 964869408
I0403 15:05:39.551589 11592 layer_factory.hpp:77] Creating layer inception_4b/5x5_reduce
I0403 15:05:39.551611 11592 net.cpp:91] Creating Layer inception_4b/5x5_reduce
I0403 15:05:39.551630 11592 net.cpp:425] inception_4b/5x5_reduce <- inception_4a/output_inception_4a/output_0_split_3
I0403 15:05:39.551652 11592 net.cpp:399] inception_4b/5x5_reduce -> inception_4b/5x5_reduce
I0403 15:05:39.552815 11592 net.cpp:141] Setting up inception_4b/5x5_reduce
I0403 15:05:39.552845 11592 net.cpp:148] Top shape: 24 24 14 14 (112896)
I0403 15:05:39.552862 11592 net.cpp:156] Memory required for data: 965320992
I0403 15:05:39.552881 11592 layer_factory.hpp:77] Creating layer inception_4b/relu_5x5_reduce
I0403 15:05:39.552916 11592 net.cpp:91] Creating Layer inception_4b/relu_5x5_reduce
I0403 15:05:39.552947 11592 net.cpp:425] inception_4b/relu_5x5_reduce <- inception_4b/5x5_reduce
I0403 15:05:39.552965 11592 net.cpp:386] inception_4b/relu_5x5_reduce -> inception_4b/5x5_reduce (in-place)
I0403 15:05:39.553161 11592 net.cpp:141] Setting up inception_4b/relu_5x5_reduce
I0403 15:05:39.553189 11592 net.cpp:148] Top shape: 24 24 14 14 (112896)
I0403 15:05:39.553205 11592 net.cpp:156] Memory required for data: 965772576
I0403 15:05:39.553220 11592 layer_factory.hpp:77] Creating layer inception_4b/5x5
I0403 15:05:39.553243 11592 net.cpp:91] Creating Layer inception_4b/5x5
I0403 15:05:39.553261 11592 net.cpp:425] inception_4b/5x5 <- inception_4b/5x5_reduce
I0403 15:05:39.553279 11592 net.cpp:399] inception_4b/5x5 -> inception_4b/5x5
I0403 15:05:39.554570 11592 net.cpp:141] Setting up inception_4b/5x5
I0403 15:05:39.554600 11592 net.cpp:148] Top shape: 24 64 14 14 (301056)
I0403 15:05:39.554615 11592 net.cpp:156] Memory required for data: 966976800
I0403 15:05:39.554632 11592 layer_factory.hpp:77] Creating layer inception_4b/relu_5x5
I0403 15:05:39.554653 11592 net.cpp:91] Creating Layer inception_4b/relu_5x5
I0403 15:05:39.554672 11592 net.cpp:425] inception_4b/relu_5x5 <- inception_4b/5x5
I0403 15:05:39.554688 11592 net.cpp:386] inception_4b/relu_5x5 -> inception_4b/5x5 (in-place)
I0403 15:05:39.554986 11592 net.cpp:141] Setting up inception_4b/relu_5x5
I0403 15:05:39.555013 11592 net.cpp:148] Top shape: 24 64 14 14 (301056)
I0403 15:05:39.555029 11592 net.cpp:156] Memory required for data: 968181024
I0403 15:05:39.555045 11592 layer_factory.hpp:77] Creating layer inception_4b/pool
I0403 15:05:39.555066 11592 net.cpp:91] Creating Layer inception_4b/pool
I0403 15:05:39.555083 11592 net.cpp:425] inception_4b/pool <- inception_4a/output_inception_4a/output_0_split_4
I0403 15:05:39.555102 11592 net.cpp:399] inception_4b/pool -> inception_4b/pool
I0403 15:05:39.555169 11592 net.cpp:141] Setting up inception_4b/pool
I0403 15:05:39.555194 11592 net.cpp:148] Top shape: 24 512 14 14 (2408448)
I0403 15:05:39.555209 11592 net.cpp:156] Memory required for data: 977814816
I0403 15:05:39.555224 11592 layer_factory.hpp:77] Creating layer inception_4b/pool_proj
I0403 15:05:39.555246 11592 net.cpp:91] Creating Layer inception_4b/pool_proj
I0403 15:05:39.555264 11592 net.cpp:425] inception_4b/pool_proj <- inception_4b/pool
I0403 15:05:39.555285 11592 net.cpp:399] inception_4b/pool_proj -> inception_4b/pool_proj
I0403 15:05:39.556552 11592 net.cpp:141] Setting up inception_4b/pool_proj
I0403 15:05:39.556581 11592 net.cpp:148] Top shape: 24 64 14 14 (301056)
I0403 15:05:39.556596 11592 net.cpp:156] Memory required for data: 979019040
I0403 15:05:39.556628 11592 layer_factory.hpp:77] Creating layer inception_4b/relu_pool_proj
I0403 15:05:39.556649 11592 net.cpp:91] Creating Layer inception_4b/relu_pool_proj
I0403 15:05:39.556668 11592 net.cpp:425] inception_4b/relu_pool_proj <- inception_4b/pool_proj
I0403 15:05:39.556685 11592 net.cpp:386] inception_4b/relu_pool_proj -> inception_4b/pool_proj (in-place)
I0403 15:05:39.556879 11592 net.cpp:141] Setting up inception_4b/relu_pool_proj
I0403 15:05:39.556920 11592 net.cpp:148] Top shape: 24 64 14 14 (301056)
I0403 15:05:39.556936 11592 net.cpp:156] Memory required for data: 980223264
I0403 15:05:39.556951 11592 layer_factory.hpp:77] Creating layer inception_4b/output
I0403 15:05:39.556969 11592 net.cpp:91] Creating Layer inception_4b/output
I0403 15:05:39.556984 11592 net.cpp:425] inception_4b/output <- inception_4b/1x1
I0403 15:05:39.557001 11592 net.cpp:425] inception_4b/output <- inception_4b/3x3
I0403 15:05:39.557018 11592 net.cpp:425] inception_4b/output <- inception_4b/5x5
I0403 15:05:39.557034 11592 net.cpp:425] inception_4b/output <- inception_4b/pool_proj
I0403 15:05:39.557049 11592 net.cpp:399] inception_4b/output -> inception_4b/output
I0403 15:05:39.557098 11592 net.cpp:141] Setting up inception_4b/output
I0403 15:05:39.557121 11592 net.cpp:148] Top shape: 24 512 14 14 (2408448)
I0403 15:05:39.557137 11592 net.cpp:156] Memory required for data: 989857056
I0403 15:05:39.557165 11592 layer_factory.hpp:77] Creating layer inception_4b/output_inception_4b/output_0_split
I0403 15:05:39.557186 11592 net.cpp:91] Creating Layer inception_4b/output_inception_4b/output_0_split
I0403 15:05:39.557204 11592 net.cpp:425] inception_4b/output_inception_4b/output_0_split <- inception_4b/output
I0403 15:05:39.557220 11592 net.cpp:399] inception_4b/output_inception_4b/output_0_split -> inception_4b/output_inception_4b/output_0_split_0
I0403 15:05:39.557240 11592 net.cpp:399] inception_4b/output_inception_4b/output_0_split -> inception_4b/output_inception_4b/output_0_split_1
I0403 15:05:39.557261 11592 net.cpp:399] inception_4b/output_inception_4b/output_0_split -> inception_4b/output_inception_4b/output_0_split_2
I0403 15:05:39.557283 11592 net.cpp:399] inception_4b/output_inception_4b/output_0_split -> inception_4b/output_inception_4b/output_0_split_3
I0403 15:05:39.557377 11592 net.cpp:141] Setting up inception_4b/output_inception_4b/output_0_split
I0403 15:05:39.557402 11592 net.cpp:148] Top shape: 24 512 14 14 (2408448)
I0403 15:05:39.557420 11592 net.cpp:148] Top shape: 24 512 14 14 (2408448)
I0403 15:05:39.557435 11592 net.cpp:148] Top shape: 24 512 14 14 (2408448)
I0403 15:05:39.557451 11592 net.cpp:148] Top shape: 24 512 14 14 (2408448)
I0403 15:05:39.557464 11592 net.cpp:156] Memory required for data: 1028392224
I0403 15:05:39.557479 11592 layer_factory.hpp:77] Creating layer inception_4c/1x1
I0403 15:05:39.557502 11592 net.cpp:91] Creating Layer inception_4c/1x1
I0403 15:05:39.557523 11592 net.cpp:425] inception_4c/1x1 <- inception_4b/output_inception_4b/output_0_split_0
I0403 15:05:39.557548 11592 net.cpp:399] inception_4c/1x1 -> inception_4c/1x1
I0403 15:05:39.559033 11592 net.cpp:141] Setting up inception_4c/1x1
I0403 15:05:39.559062 11592 net.cpp:148] Top shape: 24 128 14 14 (602112)
I0403 15:05:39.559078 11592 net.cpp:156] Memory required for data: 1030800672
I0403 15:05:39.559098 11592 layer_factory.hpp:77] Creating layer inception_4c/relu_1x1
I0403 15:05:39.559115 11592 net.cpp:91] Creating Layer inception_4c/relu_1x1
I0403 15:05:39.559131 11592 net.cpp:425] inception_4c/relu_1x1 <- inception_4c/1x1
I0403 15:05:39.559151 11592 net.cpp:386] inception_4c/relu_1x1 -> inception_4c/1x1 (in-place)
I0403 15:05:39.559348 11592 net.cpp:141] Setting up inception_4c/relu_1x1
I0403 15:05:39.559375 11592 net.cpp:148] Top shape: 24 128 14 14 (602112)
I0403 15:05:39.559389 11592 net.cpp:156] Memory required for data: 1033209120
I0403 15:05:39.559406 11592 layer_factory.hpp:77] Creating layer inception_4c/3x3_reduce
I0403 15:05:39.559427 11592 net.cpp:91] Creating Layer inception_4c/3x3_reduce
I0403 15:05:39.559447 11592 net.cpp:425] inception_4c/3x3_reduce <- inception_4b/output_inception_4b/output_0_split_1
I0403 15:05:39.559468 11592 net.cpp:399] inception_4c/3x3_reduce -> inception_4c/3x3_reduce
I0403 15:05:39.561511 11592 net.cpp:141] Setting up inception_4c/3x3_reduce
I0403 15:05:39.561540 11592 net.cpp:148] Top shape: 24 128 14 14 (602112)
I0403 15:05:39.561556 11592 net.cpp:156] Memory required for data: 1035617568
I0403 15:05:39.561575 11592 layer_factory.hpp:77] Creating layer inception_4c/relu_3x3_reduce
I0403 15:05:39.561599 11592 net.cpp:91] Creating Layer inception_4c/relu_3x3_reduce
I0403 15:05:39.561615 11592 net.cpp:425] inception_4c/relu_3x3_reduce <- inception_4c/3x3_reduce
I0403 15:05:39.561633 11592 net.cpp:386] inception_4c/relu_3x3_reduce -> inception_4c/3x3_reduce (in-place)
I0403 15:05:39.561929 11592 net.cpp:141] Setting up inception_4c/relu_3x3_reduce
I0403 15:05:39.561956 11592 net.cpp:148] Top shape: 24 128 14 14 (602112)
I0403 15:05:39.561971 11592 net.cpp:156] Memory required for data: 1038026016
I0403 15:05:39.561986 11592 layer_factory.hpp:77] Creating layer inception_4c/3x3
I0403 15:05:39.562010 11592 net.cpp:91] Creating Layer inception_4c/3x3
I0403 15:05:39.562027 11592 net.cpp:425] inception_4c/3x3 <- inception_4c/3x3_reduce
I0403 15:05:39.562048 11592 net.cpp:399] inception_4c/3x3 -> inception_4c/3x3
I0403 15:05:39.565824 11592 net.cpp:141] Setting up inception_4c/3x3
I0403 15:05:39.565866 11592 net.cpp:148] Top shape: 24 256 14 14 (1204224)
I0403 15:05:39.565883 11592 net.cpp:156] Memory required for data: 1042842912
I0403 15:05:39.565915 11592 layer_factory.hpp:77] Creating layer inception_4c/relu_3x3
I0403 15:05:39.565938 11592 net.cpp:91] Creating Layer inception_4c/relu_3x3
I0403 15:05:39.565956 11592 net.cpp:425] inception_4c/relu_3x3 <- inception_4c/3x3
I0403 15:05:39.565974 11592 net.cpp:386] inception_4c/relu_3x3 -> inception_4c/3x3 (in-place)
I0403 15:05:39.566164 11592 net.cpp:141] Setting up inception_4c/relu_3x3
I0403 15:05:39.566191 11592 net.cpp:148] Top shape: 24 256 14 14 (1204224)
I0403 15:05:39.566207 11592 net.cpp:156] Memory required for data: 1047659808
I0403 15:05:39.566222 11592 layer_factory.hpp:77] Creating layer inception_4c/5x5_reduce
I0403 15:05:39.566244 11592 net.cpp:91] Creating Layer inception_4c/5x5_reduce
I0403 15:05:39.566262 11592 net.cpp:425] inception_4c/5x5_reduce <- inception_4b/output_inception_4b/output_0_split_2
I0403 15:05:39.566285 11592 net.cpp:399] inception_4c/5x5_reduce -> inception_4c/5x5_reduce
I0403 15:05:39.567431 11592 net.cpp:141] Setting up inception_4c/5x5_reduce
I0403 15:05:39.567459 11592 net.cpp:148] Top shape: 24 24 14 14 (112896)
I0403 15:05:39.567476 11592 net.cpp:156] Memory required for data: 1048111392
I0403 15:05:39.567493 11592 layer_factory.hpp:77] Creating layer inception_4c/relu_5x5_reduce
I0403 15:05:39.567514 11592 net.cpp:91] Creating Layer inception_4c/relu_5x5_reduce
I0403 15:05:39.567533 11592 net.cpp:425] inception_4c/relu_5x5_reduce <- inception_4c/5x5_reduce
I0403 15:05:39.567549 11592 net.cpp:386] inception_4c/relu_5x5_reduce -> inception_4c/5x5_reduce (in-place)
I0403 15:05:39.567742 11592 net.cpp:141] Setting up inception_4c/relu_5x5_reduce
I0403 15:05:39.567771 11592 net.cpp:148] Top shape: 24 24 14 14 (112896)
I0403 15:05:39.567787 11592 net.cpp:156] Memory required for data: 1048562976
I0403 15:05:39.567802 11592 layer_factory.hpp:77] Creating layer inception_4c/5x5
I0403 15:05:39.567826 11592 net.cpp:91] Creating Layer inception_4c/5x5
I0403 15:05:39.567842 11592 net.cpp:425] inception_4c/5x5 <- inception_4c/5x5_reduce
I0403 15:05:39.567862 11592 net.cpp:399] inception_4c/5x5 -> inception_4c/5x5
I0403 15:05:39.569172 11592 net.cpp:141] Setting up inception_4c/5x5
I0403 15:05:39.569203 11592 net.cpp:148] Top shape: 24 64 14 14 (301056)
I0403 15:05:39.569219 11592 net.cpp:156] Memory required for data: 1049767200
I0403 15:05:39.569237 11592 layer_factory.hpp:77] Creating layer inception_4c/relu_5x5
I0403 15:05:39.569254 11592 net.cpp:91] Creating Layer inception_4c/relu_5x5
I0403 15:05:39.569270 11592 net.cpp:425] inception_4c/relu_5x5 <- inception_4c/5x5
I0403 15:05:39.569290 11592 net.cpp:386] inception_4c/relu_5x5 -> inception_4c/5x5 (in-place)
I0403 15:05:39.569588 11592 net.cpp:141] Setting up inception_4c/relu_5x5
I0403 15:05:39.569620 11592 net.cpp:148] Top shape: 24 64 14 14 (301056)
I0403 15:05:39.569636 11592 net.cpp:156] Memory required for data: 1050971424
I0403 15:05:39.569651 11592 layer_factory.hpp:77] Creating layer inception_4c/pool
I0403 15:05:39.569669 11592 net.cpp:91] Creating Layer inception_4c/pool
I0403 15:05:39.569685 11592 net.cpp:425] inception_4c/pool <- inception_4b/output_inception_4b/output_0_split_3
I0403 15:05:39.569705 11592 net.cpp:399] inception_4c/pool -> inception_4c/pool
I0403 15:05:39.569771 11592 net.cpp:141] Setting up inception_4c/pool
I0403 15:05:39.569794 11592 net.cpp:148] Top shape: 24 512 14 14 (2408448)
I0403 15:05:39.569808 11592 net.cpp:156] Memory required for data: 1060605216
I0403 15:05:39.569823 11592 layer_factory.hpp:77] Creating layer inception_4c/pool_proj
I0403 15:05:39.569844 11592 net.cpp:91] Creating Layer inception_4c/pool_proj
I0403 15:05:39.569864 11592 net.cpp:425] inception_4c/pool_proj <- inception_4c/pool
I0403 15:05:39.569882 11592 net.cpp:399] inception_4c/pool_proj -> inception_4c/pool_proj
I0403 15:05:39.571123 11592 net.cpp:141] Setting up inception_4c/pool_proj
I0403 15:05:39.571152 11592 net.cpp:148] Top shape: 24 64 14 14 (301056)
I0403 15:05:39.571182 11592 net.cpp:156] Memory required for data: 1061809440
I0403 15:05:39.571202 11592 layer_factory.hpp:77] Creating layer inception_4c/relu_pool_proj
I0403 15:05:39.571223 11592 net.cpp:91] Creating Layer inception_4c/relu_pool_proj
I0403 15:05:39.571239 11592 net.cpp:425] inception_4c/relu_pool_proj <- inception_4c/pool_proj
I0403 15:05:39.571256 11592 net.cpp:386] inception_4c/relu_pool_proj -> inception_4c/pool_proj (in-place)
I0403 15:05:39.571445 11592 net.cpp:141] Setting up inception_4c/relu_pool_proj
I0403 15:05:39.571473 11592 net.cpp:148] Top shape: 24 64 14 14 (301056)
I0403 15:05:39.571490 11592 net.cpp:156] Memory required for data: 1063013664
I0403 15:05:39.571503 11592 layer_factory.hpp:77] Creating layer inception_4c/output
I0403 15:05:39.571521 11592 net.cpp:91] Creating Layer inception_4c/output
I0403 15:05:39.571537 11592 net.cpp:425] inception_4c/output <- inception_4c/1x1
I0403 15:05:39.571552 11592 net.cpp:425] inception_4c/output <- inception_4c/3x3
I0403 15:05:39.571568 11592 net.cpp:425] inception_4c/output <- inception_4c/5x5
I0403 15:05:39.571583 11592 net.cpp:425] inception_4c/output <- inception_4c/pool_proj
I0403 15:05:39.571599 11592 net.cpp:399] inception_4c/output -> inception_4c/output
I0403 15:05:39.571646 11592 net.cpp:141] Setting up inception_4c/output
I0403 15:05:39.571669 11592 net.cpp:148] Top shape: 24 512 14 14 (2408448)
I0403 15:05:39.571684 11592 net.cpp:156] Memory required for data: 1072647456
I0403 15:05:39.571698 11592 layer_factory.hpp:77] Creating layer inception_4c/output_inception_4c/output_0_split
I0403 15:05:39.571717 11592 net.cpp:91] Creating Layer inception_4c/output_inception_4c/output_0_split
I0403 15:05:39.571733 11592 net.cpp:425] inception_4c/output_inception_4c/output_0_split <- inception_4c/output
I0403 15:05:39.571750 11592 net.cpp:399] inception_4c/output_inception_4c/output_0_split -> inception_4c/output_inception_4c/output_0_split_0
I0403 15:05:39.571770 11592 net.cpp:399] inception_4c/output_inception_4c/output_0_split -> inception_4c/output_inception_4c/output_0_split_1
I0403 15:05:39.571791 11592 net.cpp:399] inception_4c/output_inception_4c/output_0_split -> inception_4c/output_inception_4c/output_0_split_2
I0403 15:05:39.571811 11592 net.cpp:399] inception_4c/output_inception_4c/output_0_split -> inception_4c/output_inception_4c/output_0_split_3
I0403 15:05:39.571897 11592 net.cpp:141] Setting up inception_4c/output_inception_4c/output_0_split
I0403 15:05:39.571921 11592 net.cpp:148] Top shape: 24 512 14 14 (2408448)
I0403 15:05:39.571936 11592 net.cpp:148] Top shape: 24 512 14 14 (2408448)
I0403 15:05:39.571951 11592 net.cpp:148] Top shape: 24 512 14 14 (2408448)
I0403 15:05:39.571966 11592 net.cpp:148] Top shape: 24 512 14 14 (2408448)
I0403 15:05:39.571979 11592 net.cpp:156] Memory required for data: 1111182624
I0403 15:05:39.571993 11592 layer_factory.hpp:77] Creating layer inception_4d/1x1
I0403 15:05:39.572015 11592 net.cpp:91] Creating Layer inception_4d/1x1
I0403 15:05:39.572032 11592 net.cpp:425] inception_4d/1x1 <- inception_4c/output_inception_4c/output_0_split_0
I0403 15:05:39.572053 11592 net.cpp:399] inception_4d/1x1 -> inception_4d/1x1
I0403 15:05:39.573495 11592 net.cpp:141] Setting up inception_4d/1x1
I0403 15:05:39.573523 11592 net.cpp:148] Top shape: 24 112 14 14 (526848)
I0403 15:05:39.573539 11592 net.cpp:156] Memory required for data: 1113290016
I0403 15:05:39.573559 11592 layer_factory.hpp:77] Creating layer inception_4d/relu_1x1
I0403 15:05:39.573576 11592 net.cpp:91] Creating Layer inception_4d/relu_1x1
I0403 15:05:39.573591 11592 net.cpp:425] inception_4d/relu_1x1 <- inception_4d/1x1
I0403 15:05:39.573611 11592 net.cpp:386] inception_4d/relu_1x1 -> inception_4d/1x1 (in-place)
I0403 15:05:39.573799 11592 net.cpp:141] Setting up inception_4d/relu_1x1
I0403 15:05:39.573825 11592 net.cpp:148] Top shape: 24 112 14 14 (526848)
I0403 15:05:39.573839 11592 net.cpp:156] Memory required for data: 1115397408
I0403 15:05:39.573854 11592 layer_factory.hpp:77] Creating layer inception_4d/3x3_reduce
I0403 15:05:39.573890 11592 net.cpp:91] Creating Layer inception_4d/3x3_reduce
I0403 15:05:39.573909 11592 net.cpp:425] inception_4d/3x3_reduce <- inception_4c/output_inception_4c/output_0_split_1
I0403 15:05:39.573930 11592 net.cpp:399] inception_4d/3x3_reduce -> inception_4d/3x3_reduce
I0403 15:05:39.575456 11592 net.cpp:141] Setting up inception_4d/3x3_reduce
I0403 15:05:39.575486 11592 net.cpp:148] Top shape: 24 144 14 14 (677376)
I0403 15:05:39.575503 11592 net.cpp:156] Memory required for data: 1118106912
I0403 15:05:39.575522 11592 layer_factory.hpp:77] Creating layer inception_4d/relu_3x3_reduce
I0403 15:05:39.575539 11592 net.cpp:91] Creating Layer inception_4d/relu_3x3_reduce
I0403 15:05:39.575556 11592 net.cpp:425] inception_4d/relu_3x3_reduce <- inception_4d/3x3_reduce
I0403 15:05:39.575575 11592 net.cpp:386] inception_4d/relu_3x3_reduce -> inception_4d/3x3_reduce (in-place)
I0403 15:05:39.575865 11592 net.cpp:141] Setting up inception_4d/relu_3x3_reduce
I0403 15:05:39.575894 11592 net.cpp:148] Top shape: 24 144 14 14 (677376)
I0403 15:05:39.575911 11592 net.cpp:156] Memory required for data: 1120816416
I0403 15:05:39.575925 11592 layer_factory.hpp:77] Creating layer inception_4d/3x3
I0403 15:05:39.575947 11592 net.cpp:91] Creating Layer inception_4d/3x3
I0403 15:05:39.575965 11592 net.cpp:425] inception_4d/3x3 <- inception_4d/3x3_reduce
I0403 15:05:39.575984 11592 net.cpp:399] inception_4d/3x3 -> inception_4d/3x3
I0403 15:05:39.580222 11592 net.cpp:141] Setting up inception_4d/3x3
I0403 15:05:39.580250 11592 net.cpp:148] Top shape: 24 288 14 14 (1354752)
I0403 15:05:39.580265 11592 net.cpp:156] Memory required for data: 1126235424
I0403 15:05:39.580283 11592 layer_factory.hpp:77] Creating layer inception_4d/relu_3x3
I0403 15:05:39.580302 11592 net.cpp:91] Creating Layer inception_4d/relu_3x3
I0403 15:05:39.580324 11592 net.cpp:425] inception_4d/relu_3x3 <- inception_4d/3x3
I0403 15:05:39.580343 11592 net.cpp:386] inception_4d/relu_3x3 -> inception_4d/3x3 (in-place)
I0403 15:05:39.580523 11592 net.cpp:141] Setting up inception_4d/relu_3x3
I0403 15:05:39.580548 11592 net.cpp:148] Top shape: 24 288 14 14 (1354752)
I0403 15:05:39.580561 11592 net.cpp:156] Memory required for data: 1131654432
I0403 15:05:39.580575 11592 layer_factory.hpp:77] Creating layer inception_4d/5x5_reduce
I0403 15:05:39.580598 11592 net.cpp:91] Creating Layer inception_4d/5x5_reduce
I0403 15:05:39.580628 11592 net.cpp:425] inception_4d/5x5_reduce <- inception_4c/output_inception_4c/output_0_split_2
I0403 15:05:39.580647 11592 net.cpp:399] inception_4d/5x5_reduce -> inception_4d/5x5_reduce
I0403 15:05:39.581828 11592 net.cpp:141] Setting up inception_4d/5x5_reduce
I0403 15:05:39.581857 11592 net.cpp:148] Top shape: 24 32 14 14 (150528)
I0403 15:05:39.581872 11592 net.cpp:156] Memory required for data: 1132256544
I0403 15:05:39.581902 11592 layer_factory.hpp:77] Creating layer inception_4d/relu_5x5_reduce
I0403 15:05:39.581920 11592 net.cpp:91] Creating Layer inception_4d/relu_5x5_reduce
I0403 15:05:39.581938 11592 net.cpp:425] inception_4d/relu_5x5_reduce <- inception_4d/5x5_reduce
I0403 15:05:39.581959 11592 net.cpp:386] inception_4d/relu_5x5_reduce -> inception_4d/5x5_reduce (in-place)
I0403 15:05:39.582156 11592 net.cpp:141] Setting up inception_4d/relu_5x5_reduce
I0403 15:05:39.582181 11592 net.cpp:148] Top shape: 24 32 14 14 (150528)
I0403 15:05:39.582195 11592 net.cpp:156] Memory required for data: 1132858656
I0403 15:05:39.582209 11592 layer_factory.hpp:77] Creating layer inception_4d/5x5
I0403 15:05:39.582231 11592 net.cpp:91] Creating Layer inception_4d/5x5
I0403 15:05:39.582247 11592 net.cpp:425] inception_4d/5x5 <- inception_4d/5x5_reduce
I0403 15:05:39.582268 11592 net.cpp:399] inception_4d/5x5 -> inception_4d/5x5
I0403 15:05:39.583739 11592 net.cpp:141] Setting up inception_4d/5x5
I0403 15:05:39.583768 11592 net.cpp:148] Top shape: 24 64 14 14 (301056)
I0403 15:05:39.583783 11592 net.cpp:156] Memory required for data: 1134062880
I0403 15:05:39.583802 11592 layer_factory.hpp:77] Creating layer inception_4d/relu_5x5
I0403 15:05:39.583835 11592 net.cpp:91] Creating Layer inception_4d/relu_5x5
I0403 15:05:39.583853 11592 net.cpp:425] inception_4d/relu_5x5 <- inception_4d/5x5
I0403 15:05:39.583868 11592 net.cpp:386] inception_4d/relu_5x5 -> inception_4d/5x5 (in-place)
I0403 15:05:39.584163 11592 net.cpp:141] Setting up inception_4d/relu_5x5
I0403 15:05:39.584192 11592 net.cpp:148] Top shape: 24 64 14 14 (301056)
I0403 15:05:39.584208 11592 net.cpp:156] Memory required for data: 1135267104
I0403 15:05:39.584221 11592 layer_factory.hpp:77] Creating layer inception_4d/pool
I0403 15:05:39.584239 11592 net.cpp:91] Creating Layer inception_4d/pool
I0403 15:05:39.584254 11592 net.cpp:425] inception_4d/pool <- inception_4c/output_inception_4c/output_0_split_3
I0403 15:05:39.584271 11592 net.cpp:399] inception_4d/pool -> inception_4d/pool
I0403 15:05:39.584343 11592 net.cpp:141] Setting up inception_4d/pool
I0403 15:05:39.584367 11592 net.cpp:148] Top shape: 24 512 14 14 (2408448)
I0403 15:05:39.584381 11592 net.cpp:156] Memory required for data: 1144900896
I0403 15:05:39.584395 11592 layer_factory.hpp:77] Creating layer inception_4d/pool_proj
I0403 15:05:39.584416 11592 net.cpp:91] Creating Layer inception_4d/pool_proj
I0403 15:05:39.584434 11592 net.cpp:425] inception_4d/pool_proj <- inception_4d/pool
I0403 15:05:39.584453 11592 net.cpp:399] inception_4d/pool_proj -> inception_4d/pool_proj
I0403 15:05:39.586222 11592 net.cpp:141] Setting up inception_4d/pool_proj
I0403 15:05:39.586251 11592 net.cpp:148] Top shape: 24 64 14 14 (301056)
I0403 15:05:39.586266 11592 net.cpp:156] Memory required for data: 1146105120
I0403 15:05:39.586283 11592 layer_factory.hpp:77] Creating layer inception_4d/relu_pool_proj
I0403 15:05:39.586302 11592 net.cpp:91] Creating Layer inception_4d/relu_pool_proj
I0403 15:05:39.586324 11592 net.cpp:425] inception_4d/relu_pool_proj <- inception_4d/pool_proj
I0403 15:05:39.586343 11592 net.cpp:386] inception_4d/relu_pool_proj -> inception_4d/pool_proj (in-place)
I0403 15:05:39.586524 11592 net.cpp:141] Setting up inception_4d/relu_pool_proj
I0403 15:05:39.586549 11592 net.cpp:148] Top shape: 24 64 14 14 (301056)
I0403 15:05:39.586562 11592 net.cpp:156] Memory required for data: 1147309344
I0403 15:05:39.586576 11592 layer_factory.hpp:77] Creating layer inception_4d/output
I0403 15:05:39.586596 11592 net.cpp:91] Creating Layer inception_4d/output
I0403 15:05:39.586611 11592 net.cpp:425] inception_4d/output <- inception_4d/1x1
I0403 15:05:39.586627 11592 net.cpp:425] inception_4d/output <- inception_4d/3x3
I0403 15:05:39.586645 11592 net.cpp:425] inception_4d/output <- inception_4d/5x5
I0403 15:05:39.586660 11592 net.cpp:425] inception_4d/output <- inception_4d/pool_proj
I0403 15:05:39.586676 11592 net.cpp:399] inception_4d/output -> inception_4d/output
I0403 15:05:39.586724 11592 net.cpp:141] Setting up inception_4d/output
I0403 15:05:39.586746 11592 net.cpp:148] Top shape: 24 528 14 14 (2483712)
I0403 15:05:39.586760 11592 net.cpp:156] Memory required for data: 1157244192
I0403 15:05:39.586774 11592 layer_factory.hpp:77] Creating layer inception_4d/output_inception_4d/output_0_split
I0403 15:05:39.586791 11592 net.cpp:91] Creating Layer inception_4d/output_inception_4d/output_0_split
I0403 15:05:39.586807 11592 net.cpp:425] inception_4d/output_inception_4d/output_0_split <- inception_4d/output
I0403 15:05:39.586824 11592 net.cpp:399] inception_4d/output_inception_4d/output_0_split -> inception_4d/output_inception_4d/output_0_split_0
I0403 15:05:39.586844 11592 net.cpp:399] inception_4d/output_inception_4d/output_0_split -> inception_4d/output_inception_4d/output_0_split_1
I0403 15:05:39.586865 11592 net.cpp:399] inception_4d/output_inception_4d/output_0_split -> inception_4d/output_inception_4d/output_0_split_2
I0403 15:05:39.586884 11592 net.cpp:399] inception_4d/output_inception_4d/output_0_split -> inception_4d/output_inception_4d/output_0_split_3
I0403 15:05:39.586908 11592 net.cpp:399] inception_4d/output_inception_4d/output_0_split -> inception_4d/output_inception_4d/output_0_split_4
I0403 15:05:39.587007 11592 net.cpp:141] Setting up inception_4d/output_inception_4d/output_0_split
I0403 15:05:39.587041 11592 net.cpp:148] Top shape: 24 528 14 14 (2483712)
I0403 15:05:39.587057 11592 net.cpp:148] Top shape: 24 528 14 14 (2483712)
I0403 15:05:39.587072 11592 net.cpp:148] Top shape: 24 528 14 14 (2483712)
I0403 15:05:39.587087 11592 net.cpp:148] Top shape: 24 528 14 14 (2483712)
I0403 15:05:39.587101 11592 net.cpp:148] Top shape: 24 528 14 14 (2483712)
I0403 15:05:39.587115 11592 net.cpp:156] Memory required for data: 1206918432
I0403 15:05:39.587127 11592 layer_factory.hpp:77] Creating layer loss2/ave_pool
I0403 15:05:39.587144 11592 net.cpp:91] Creating Layer loss2/ave_pool
I0403 15:05:39.587160 11592 net.cpp:425] loss2/ave_pool <- inception_4d/output_inception_4d/output_0_split_0
I0403 15:05:39.587180 11592 net.cpp:399] loss2/ave_pool -> loss2/ave_pool
I0403 15:05:39.587517 11592 net.cpp:141] Setting up loss2/ave_pool
I0403 15:05:39.587543 11592 net.cpp:148] Top shape: 24 528 4 4 (202752)
I0403 15:05:39.587558 11592 net.cpp:156] Memory required for data: 1207729440
I0403 15:05:39.587571 11592 layer_factory.hpp:77] Creating layer loss2/conv
I0403 15:05:39.587594 11592 net.cpp:91] Creating Layer loss2/conv
I0403 15:05:39.587611 11592 net.cpp:425] loss2/conv <- loss2/ave_pool
I0403 15:05:39.587635 11592 net.cpp:399] loss2/conv -> loss2/conv
I0403 15:05:39.589577 11592 net.cpp:141] Setting up loss2/conv
I0403 15:05:39.589606 11592 net.cpp:148] Top shape: 24 128 4 4 (49152)
I0403 15:05:39.589622 11592 net.cpp:156] Memory required for data: 1207926048
I0403 15:05:39.589639 11592 layer_factory.hpp:77] Creating layer loss2/relu_conv
I0403 15:05:39.589659 11592 net.cpp:91] Creating Layer loss2/relu_conv
I0403 15:05:39.589676 11592 net.cpp:425] loss2/relu_conv <- loss2/conv
I0403 15:05:39.589694 11592 net.cpp:386] loss2/relu_conv -> loss2/conv (in-place)
I0403 15:05:39.589979 11592 net.cpp:141] Setting up loss2/relu_conv
I0403 15:05:39.590006 11592 net.cpp:148] Top shape: 24 128 4 4 (49152)
I0403 15:05:39.590021 11592 net.cpp:156] Memory required for data: 1208122656
I0403 15:05:39.590036 11592 layer_factory.hpp:77] Creating layer loss2/fc
I0403 15:05:39.590057 11592 net.cpp:91] Creating Layer loss2/fc
I0403 15:05:39.590075 11592 net.cpp:425] loss2/fc <- loss2/conv
I0403 15:05:39.590096 11592 net.cpp:399] loss2/fc -> loss2/fc
I0403 15:05:39.607926 11592 net.cpp:141] Setting up loss2/fc
I0403 15:05:39.607962 11592 net.cpp:148] Top shape: 24 1024 (24576)
I0403 15:05:39.607977 11592 net.cpp:156] Memory required for data: 1208220960
I0403 15:05:39.607995 11592 layer_factory.hpp:77] Creating layer loss2/relu_fc
I0403 15:05:39.608013 11592 net.cpp:91] Creating Layer loss2/relu_fc
I0403 15:05:39.608028 11592 net.cpp:425] loss2/relu_fc <- loss2/fc
I0403 15:05:39.608047 11592 net.cpp:386] loss2/relu_fc -> loss2/fc (in-place)
I0403 15:05:39.608355 11592 net.cpp:141] Setting up loss2/relu_fc
I0403 15:05:39.608381 11592 net.cpp:148] Top shape: 24 1024 (24576)
I0403 15:05:39.608395 11592 net.cpp:156] Memory required for data: 1208319264
I0403 15:05:39.608410 11592 layer_factory.hpp:77] Creating layer loss2/drop_fc
I0403 15:05:39.608428 11592 net.cpp:91] Creating Layer loss2/drop_fc
I0403 15:05:39.608443 11592 net.cpp:425] loss2/drop_fc <- loss2/fc
I0403 15:05:39.608461 11592 net.cpp:386] loss2/drop_fc -> loss2/fc (in-place)
I0403 15:05:39.608512 11592 net.cpp:141] Setting up loss2/drop_fc
I0403 15:05:39.608535 11592 net.cpp:148] Top shape: 24 1024 (24576)
I0403 15:05:39.608548 11592 net.cpp:156] Memory required for data: 1208417568
I0403 15:05:39.608563 11592 layer_factory.hpp:77] Creating layer loss2/classifier_plantvillage
I0403 15:05:39.608579 11592 net.cpp:91] Creating Layer loss2/classifier_plantvillage
I0403 15:05:39.608594 11592 net.cpp:425] loss2/classifier_plantvillage <- loss2/fc
I0403 15:05:39.608628 11592 net.cpp:399] loss2/classifier_plantvillage -> loss2/classifier_plantvillage
I0403 15:05:39.609040 11592 net.cpp:141] Setting up loss2/classifier_plantvillage
I0403 15:05:39.609064 11592 net.cpp:148] Top shape: 24 38 (912)
I0403 15:05:39.609097 11592 net.cpp:156] Memory required for data: 1208421216
I0403 15:05:39.609114 11592 layer_factory.hpp:77] Creating layer loss2/classifier_plantvillage_loss2/classifier_plantvillage_0_split
I0403 15:05:39.609133 11592 net.cpp:91] Creating Layer loss2/classifier_plantvillage_loss2/classifier_plantvillage_0_split
I0403 15:05:39.609149 11592 net.cpp:425] loss2/classifier_plantvillage_loss2/classifier_plantvillage_0_split <- loss2/classifier_plantvillage
I0403 15:05:39.609169 11592 net.cpp:399] loss2/classifier_plantvillage_loss2/classifier_plantvillage_0_split -> loss2/classifier_plantvillage_loss2/classifier_plantvillage_0_split_0
I0403 15:05:39.609189 11592 net.cpp:399] loss2/classifier_plantvillage_loss2/classifier_plantvillage_0_split -> loss2/classifier_plantvillage_loss2/classifier_plantvillage_0_split_1
I0403 15:05:39.609208 11592 net.cpp:399] loss2/classifier_plantvillage_loss2/classifier_plantvillage_0_split -> loss2/classifier_plantvillage_loss2/classifier_plantvillage_0_split_2
I0403 15:05:39.609282 11592 net.cpp:141] Setting up loss2/classifier_plantvillage_loss2/classifier_plantvillage_0_split
I0403 15:05:39.609305 11592 net.cpp:148] Top shape: 24 38 (912)
I0403 15:05:39.609328 11592 net.cpp:148] Top shape: 24 38 (912)
I0403 15:05:39.609343 11592 net.cpp:148] Top shape: 24 38 (912)
I0403 15:05:39.609356 11592 net.cpp:156] Memory required for data: 1208432160
I0403 15:05:39.609370 11592 layer_factory.hpp:77] Creating layer inception_4e/1x1
I0403 15:05:39.609391 11592 net.cpp:91] Creating Layer inception_4e/1x1
I0403 15:05:39.609410 11592 net.cpp:425] inception_4e/1x1 <- inception_4d/output_inception_4d/output_0_split_1
I0403 15:05:39.609427 11592 net.cpp:399] inception_4e/1x1 -> inception_4e/1x1
I0403 15:05:39.611198 11592 net.cpp:141] Setting up inception_4e/1x1
I0403 15:05:39.611228 11592 net.cpp:148] Top shape: 24 256 14 14 (1204224)
I0403 15:05:39.611244 11592 net.cpp:156] Memory required for data: 1213249056
I0403 15:05:39.611263 11592 layer_factory.hpp:77] Creating layer inception_4e/relu_1x1
I0403 15:05:39.611279 11592 net.cpp:91] Creating Layer inception_4e/relu_1x1
I0403 15:05:39.611294 11592 net.cpp:425] inception_4e/relu_1x1 <- inception_4e/1x1
I0403 15:05:39.611310 11592 net.cpp:386] inception_4e/relu_1x1 -> inception_4e/1x1 (in-place)
I0403 15:05:39.611605 11592 net.cpp:141] Setting up inception_4e/relu_1x1
I0403 15:05:39.611634 11592 net.cpp:148] Top shape: 24 256 14 14 (1204224)
I0403 15:05:39.611649 11592 net.cpp:156] Memory required for data: 1218065952
I0403 15:05:39.611663 11592 layer_factory.hpp:77] Creating layer inception_4e/3x3_reduce
I0403 15:05:39.611685 11592 net.cpp:91] Creating Layer inception_4e/3x3_reduce
I0403 15:05:39.611701 11592 net.cpp:425] inception_4e/3x3_reduce <- inception_4d/output_inception_4d/output_0_split_2
I0403 15:05:39.611721 11592 net.cpp:399] inception_4e/3x3_reduce -> inception_4e/3x3_reduce
I0403 15:05:39.613847 11592 net.cpp:141] Setting up inception_4e/3x3_reduce
I0403 15:05:39.613874 11592 net.cpp:148] Top shape: 24 160 14 14 (752640)
I0403 15:05:39.613890 11592 net.cpp:156] Memory required for data: 1221076512
I0403 15:05:39.613919 11592 layer_factory.hpp:77] Creating layer inception_4e/relu_3x3_reduce
I0403 15:05:39.613940 11592 net.cpp:91] Creating Layer inception_4e/relu_3x3_reduce
I0403 15:05:39.613955 11592 net.cpp:425] inception_4e/relu_3x3_reduce <- inception_4e/3x3_reduce
I0403 15:05:39.613972 11592 net.cpp:386] inception_4e/relu_3x3_reduce -> inception_4e/3x3_reduce (in-place)
I0403 15:05:39.614154 11592 net.cpp:141] Setting up inception_4e/relu_3x3_reduce
I0403 15:05:39.614179 11592 net.cpp:148] Top shape: 24 160 14 14 (752640)
I0403 15:05:39.614193 11592 net.cpp:156] Memory required for data: 1224087072
I0403 15:05:39.614207 11592 layer_factory.hpp:77] Creating layer inception_4e/3x3
I0403 15:05:39.614229 11592 net.cpp:91] Creating Layer inception_4e/3x3
I0403 15:05:39.614246 11592 net.cpp:425] inception_4e/3x3 <- inception_4e/3x3_reduce
I0403 15:05:39.614267 11592 net.cpp:399] inception_4e/3x3 -> inception_4e/3x3
I0403 15:05:39.619169 11592 net.cpp:141] Setting up inception_4e/3x3
I0403 15:05:39.619209 11592 net.cpp:148] Top shape: 24 320 14 14 (1505280)
I0403 15:05:39.619225 11592 net.cpp:156] Memory required for data: 1230108192
I0403 15:05:39.619242 11592 layer_factory.hpp:77] Creating layer inception_4e/relu_3x3
I0403 15:05:39.619259 11592 net.cpp:91] Creating Layer inception_4e/relu_3x3
I0403 15:05:39.619276 11592 net.cpp:425] inception_4e/relu_3x3 <- inception_4e/3x3
I0403 15:05:39.619294 11592 net.cpp:386] inception_4e/relu_3x3 -> inception_4e/3x3 (in-place)
I0403 15:05:39.619596 11592 net.cpp:141] Setting up inception_4e/relu_3x3
I0403 15:05:39.619621 11592 net.cpp:148] Top shape: 24 320 14 14 (1505280)
I0403 15:05:39.619635 11592 net.cpp:156] Memory required for data: 1236129312
I0403 15:05:39.619649 11592 layer_factory.hpp:77] Creating layer inception_4e/5x5_reduce
I0403 15:05:39.619671 11592 net.cpp:91] Creating Layer inception_4e/5x5_reduce
I0403 15:05:39.619688 11592 net.cpp:425] inception_4e/5x5_reduce <- inception_4d/output_inception_4d/output_0_split_3
I0403 15:05:39.619709 11592 net.cpp:399] inception_4e/5x5_reduce -> inception_4e/5x5_reduce
I0403 15:05:39.620779 11592 net.cpp:141] Setting up inception_4e/5x5_reduce
I0403 15:05:39.620808 11592 net.cpp:148] Top shape: 24 32 14 14 (150528)
I0403 15:05:39.620825 11592 net.cpp:156] Memory required for data: 1236731424
I0403 15:05:39.620842 11592 layer_factory.hpp:77] Creating layer inception_4e/relu_5x5_reduce
I0403 15:05:39.620859 11592 net.cpp:91] Creating Layer inception_4e/relu_5x5_reduce
I0403 15:05:39.620877 11592 net.cpp:425] inception_4e/relu_5x5_reduce <- inception_4e/5x5_reduce
I0403 15:05:39.620904 11592 net.cpp:386] inception_4e/relu_5x5_reduce -> inception_4e/5x5_reduce (in-place)
I0403 15:05:39.621199 11592 net.cpp:141] Setting up inception_4e/relu_5x5_reduce
I0403 15:05:39.621227 11592 net.cpp:148] Top shape: 24 32 14 14 (150528)
I0403 15:05:39.621243 11592 net.cpp:156] Memory required for data: 1237333536
I0403 15:05:39.621256 11592 layer_factory.hpp:77] Creating layer inception_4e/5x5
I0403 15:05:39.621294 11592 net.cpp:91] Creating Layer inception_4e/5x5
I0403 15:05:39.621311 11592 net.cpp:425] inception_4e/5x5 <- inception_4e/5x5_reduce
I0403 15:05:39.621340 11592 net.cpp:399] inception_4e/5x5 -> inception_4e/5x5
I0403 15:05:39.623147 11592 net.cpp:141] Setting up inception_4e/5x5
I0403 15:05:39.623174 11592 net.cpp:148] Top shape: 24 128 14 14 (602112)
I0403 15:05:39.623189 11592 net.cpp:156] Memory required for data: 1239741984
I0403 15:05:39.623208 11592 layer_factory.hpp:77] Creating layer inception_4e/relu_5x5
I0403 15:05:39.623226 11592 net.cpp:91] Creating Layer inception_4e/relu_5x5
I0403 15:05:39.623244 11592 net.cpp:425] inception_4e/relu_5x5 <- inception_4e/5x5
I0403 15:05:39.623260 11592 net.cpp:386] inception_4e/relu_5x5 -> inception_4e/5x5 (in-place)
I0403 15:05:39.623459 11592 net.cpp:141] Setting up inception_4e/relu_5x5
I0403 15:05:39.623486 11592 net.cpp:148] Top shape: 24 128 14 14 (602112)
I0403 15:05:39.623502 11592 net.cpp:156] Memory required for data: 1242150432
I0403 15:05:39.623515 11592 layer_factory.hpp:77] Creating layer inception_4e/pool
I0403 15:05:39.623533 11592 net.cpp:91] Creating Layer inception_4e/pool
I0403 15:05:39.623548 11592 net.cpp:425] inception_4e/pool <- inception_4d/output_inception_4d/output_0_split_4
I0403 15:05:39.623567 11592 net.cpp:399] inception_4e/pool -> inception_4e/pool
I0403 15:05:39.623636 11592 net.cpp:141] Setting up inception_4e/pool
I0403 15:05:39.623657 11592 net.cpp:148] Top shape: 24 528 14 14 (2483712)
I0403 15:05:39.623672 11592 net.cpp:156] Memory required for data: 1252085280
I0403 15:05:39.623687 11592 layer_factory.hpp:77] Creating layer inception_4e/pool_proj
I0403 15:05:39.623708 11592 net.cpp:91] Creating Layer inception_4e/pool_proj
I0403 15:05:39.623723 11592 net.cpp:425] inception_4e/pool_proj <- inception_4e/pool
I0403 15:05:39.623744 11592 net.cpp:399] inception_4e/pool_proj -> inception_4e/pool_proj
I0403 15:05:39.625241 11592 net.cpp:141] Setting up inception_4e/pool_proj
I0403 15:05:39.625279 11592 net.cpp:148] Top shape: 24 128 14 14 (602112)
I0403 15:05:39.625295 11592 net.cpp:156] Memory required for data: 1254493728
I0403 15:05:39.625313 11592 layer_factory.hpp:77] Creating layer inception_4e/relu_pool_proj
I0403 15:05:39.625340 11592 net.cpp:91] Creating Layer inception_4e/relu_pool_proj
I0403 15:05:39.625357 11592 net.cpp:425] inception_4e/relu_pool_proj <- inception_4e/pool_proj
I0403 15:05:39.625375 11592 net.cpp:386] inception_4e/relu_pool_proj -> inception_4e/pool_proj (in-place)
I0403 15:05:39.625915 11592 net.cpp:141] Setting up inception_4e/relu_pool_proj
I0403 15:05:39.625941 11592 net.cpp:148] Top shape: 24 128 14 14 (602112)
I0403 15:05:39.625959 11592 net.cpp:156] Memory required for data: 1256902176
I0403 15:05:39.625973 11592 layer_factory.hpp:77] Creating layer inception_4e/output
I0403 15:05:39.625990 11592 net.cpp:91] Creating Layer inception_4e/output
I0403 15:05:39.626013 11592 net.cpp:425] inception_4e/output <- inception_4e/1x1
I0403 15:05:39.626034 11592 net.cpp:425] inception_4e/output <- inception_4e/3x3
I0403 15:05:39.626050 11592 net.cpp:425] inception_4e/output <- inception_4e/5x5
I0403 15:05:39.626066 11592 net.cpp:425] inception_4e/output <- inception_4e/pool_proj
I0403 15:05:39.626082 11592 net.cpp:399] inception_4e/output -> inception_4e/output
I0403 15:05:39.626130 11592 net.cpp:141] Setting up inception_4e/output
I0403 15:05:39.626155 11592 net.cpp:148] Top shape: 24 832 14 14 (3913728)
I0403 15:05:39.626170 11592 net.cpp:156] Memory required for data: 1272557088
I0403 15:05:39.626185 11592 layer_factory.hpp:77] Creating layer pool4/3x3_s2
I0403 15:05:39.626202 11592 net.cpp:91] Creating Layer pool4/3x3_s2
I0403 15:05:39.626216 11592 net.cpp:425] pool4/3x3_s2 <- inception_4e/output
I0403 15:05:39.626236 11592 net.cpp:399] pool4/3x3_s2 -> pool4/3x3_s2
I0403 15:05:39.626302 11592 net.cpp:141] Setting up pool4/3x3_s2
I0403 15:05:39.626338 11592 net.cpp:148] Top shape: 24 832 7 7 (978432)
I0403 15:05:39.626359 11592 net.cpp:156] Memory required for data: 1276470816
I0403 15:05:39.626386 11592 layer_factory.hpp:77] Creating layer pool4/3x3_s2_pool4/3x3_s2_0_split
I0403 15:05:39.626410 11592 net.cpp:91] Creating Layer pool4/3x3_s2_pool4/3x3_s2_0_split
I0403 15:05:39.626435 11592 net.cpp:425] pool4/3x3_s2_pool4/3x3_s2_0_split <- pool4/3x3_s2
I0403 15:05:39.626452 11592 net.cpp:399] pool4/3x3_s2_pool4/3x3_s2_0_split -> pool4/3x3_s2_pool4/3x3_s2_0_split_0
I0403 15:05:39.626471 11592 net.cpp:399] pool4/3x3_s2_pool4/3x3_s2_0_split -> pool4/3x3_s2_pool4/3x3_s2_0_split_1
I0403 15:05:39.626494 11592 net.cpp:399] pool4/3x3_s2_pool4/3x3_s2_0_split -> pool4/3x3_s2_pool4/3x3_s2_0_split_2
I0403 15:05:39.626515 11592 net.cpp:399] pool4/3x3_s2_pool4/3x3_s2_0_split -> pool4/3x3_s2_pool4/3x3_s2_0_split_3
I0403 15:05:39.626605 11592 net.cpp:141] Setting up pool4/3x3_s2_pool4/3x3_s2_0_split
I0403 15:05:39.626627 11592 net.cpp:148] Top shape: 24 832 7 7 (978432)
I0403 15:05:39.626654 11592 net.cpp:148] Top shape: 24 832 7 7 (978432)
I0403 15:05:39.626670 11592 net.cpp:148] Top shape: 24 832 7 7 (978432)
I0403 15:05:39.626685 11592 net.cpp:148] Top shape: 24 832 7 7 (978432)
I0403 15:05:39.626699 11592 net.cpp:156] Memory required for data: 1292125728
I0403 15:05:39.626713 11592 layer_factory.hpp:77] Creating layer inception_5a/1x1
I0403 15:05:39.626735 11592 net.cpp:91] Creating Layer inception_5a/1x1
I0403 15:05:39.626752 11592 net.cpp:425] inception_5a/1x1 <- pool4/3x3_s2_pool4/3x3_s2_0_split_0
I0403 15:05:39.626773 11592 net.cpp:399] inception_5a/1x1 -> inception_5a/1x1
I0403 15:05:39.629688 11592 net.cpp:141] Setting up inception_5a/1x1
I0403 15:05:39.629717 11592 net.cpp:148] Top shape: 24 256 7 7 (301056)
I0403 15:05:39.629732 11592 net.cpp:156] Memory required for data: 1293329952
I0403 15:05:39.629750 11592 layer_factory.hpp:77] Creating layer inception_5a/relu_1x1
I0403 15:05:39.629770 11592 net.cpp:91] Creating Layer inception_5a/relu_1x1
I0403 15:05:39.629787 11592 net.cpp:425] inception_5a/relu_1x1 <- inception_5a/1x1
I0403 15:05:39.629804 11592 net.cpp:386] inception_5a/relu_1x1 -> inception_5a/1x1 (in-place)
I0403 15:05:39.630127 11592 net.cpp:141] Setting up inception_5a/relu_1x1
I0403 15:05:39.630153 11592 net.cpp:148] Top shape: 24 256 7 7 (301056)
I0403 15:05:39.630168 11592 net.cpp:156] Memory required for data: 1294534176
I0403 15:05:39.630182 11592 layer_factory.hpp:77] Creating layer inception_5a/3x3_reduce
I0403 15:05:39.630204 11592 net.cpp:91] Creating Layer inception_5a/3x3_reduce
I0403 15:05:39.630225 11592 net.cpp:425] inception_5a/3x3_reduce <- pool4/3x3_s2_pool4/3x3_s2_0_split_1
I0403 15:05:39.630244 11592 net.cpp:399] inception_5a/3x3_reduce -> inception_5a/3x3_reduce
I0403 15:05:39.632766 11592 net.cpp:141] Setting up inception_5a/3x3_reduce
I0403 15:05:39.632796 11592 net.cpp:148] Top shape: 24 160 7 7 (188160)
I0403 15:05:39.632812 11592 net.cpp:156] Memory required for data: 1295286816
I0403 15:05:39.632830 11592 layer_factory.hpp:77] Creating layer inception_5a/relu_3x3_reduce
I0403 15:05:39.632849 11592 net.cpp:91] Creating Layer inception_5a/relu_3x3_reduce
I0403 15:05:39.632869 11592 net.cpp:425] inception_5a/relu_3x3_reduce <- inception_5a/3x3_reduce
I0403 15:05:39.632886 11592 net.cpp:386] inception_5a/relu_3x3_reduce -> inception_5a/3x3_reduce (in-place)
I0403 15:05:39.633088 11592 net.cpp:141] Setting up inception_5a/relu_3x3_reduce
I0403 15:05:39.633113 11592 net.cpp:148] Top shape: 24 160 7 7 (188160)
I0403 15:05:39.633128 11592 net.cpp:156] Memory required for data: 1296039456
I0403 15:05:39.633142 11592 layer_factory.hpp:77] Creating layer inception_5a/3x3
I0403 15:05:39.633164 11592 net.cpp:91] Creating Layer inception_5a/3x3
I0403 15:05:39.633183 11592 net.cpp:425] inception_5a/3x3 <- inception_5a/3x3_reduce
I0403 15:05:39.633205 11592 net.cpp:399] inception_5a/3x3 -> inception_5a/3x3
I0403 15:05:39.638325 11592 net.cpp:141] Setting up inception_5a/3x3
I0403 15:05:39.638355 11592 net.cpp:148] Top shape: 24 320 7 7 (376320)
I0403 15:05:39.638370 11592 net.cpp:156] Memory required for data: 1297544736
I0403 15:05:39.638388 11592 layer_factory.hpp:77] Creating layer inception_5a/relu_3x3
I0403 15:05:39.638409 11592 net.cpp:91] Creating Layer inception_5a/relu_3x3
I0403 15:05:39.638427 11592 net.cpp:425] inception_5a/relu_3x3 <- inception_5a/3x3
I0403 15:05:39.638444 11592 net.cpp:386] inception_5a/relu_3x3 -> inception_5a/3x3 (in-place)
I0403 15:05:39.638741 11592 net.cpp:141] Setting up inception_5a/relu_3x3
I0403 15:05:39.638767 11592 net.cpp:148] Top shape: 24 320 7 7 (376320)
I0403 15:05:39.638782 11592 net.cpp:156] Memory required for data: 1299050016
I0403 15:05:39.638797 11592 layer_factory.hpp:77] Creating layer inception_5a/5x5_reduce
I0403 15:05:39.638818 11592 net.cpp:91] Creating Layer inception_5a/5x5_reduce
I0403 15:05:39.638836 11592 net.cpp:425] inception_5a/5x5_reduce <- pool4/3x3_s2_pool4/3x3_s2_0_split_2
I0403 15:05:39.638859 11592 net.cpp:399] inception_5a/5x5_reduce -> inception_5a/5x5_reduce
I0403 15:05:39.640045 11592 net.cpp:141] Setting up inception_5a/5x5_reduce
I0403 15:05:39.640074 11592 net.cpp:148] Top shape: 24 32 7 7 (37632)
I0403 15:05:39.640089 11592 net.cpp:156] Memory required for data: 1299200544
I0403 15:05:39.640108 11592 layer_factory.hpp:77] Creating layer inception_5a/relu_5x5_reduce
I0403 15:05:39.640128 11592 net.cpp:91] Creating Layer inception_5a/relu_5x5_reduce
I0403 15:05:39.640146 11592 net.cpp:425] inception_5a/relu_5x5_reduce <- inception_5a/5x5_reduce
I0403 15:05:39.640162 11592 net.cpp:386] inception_5a/relu_5x5_reduce -> inception_5a/5x5_reduce (in-place)
I0403 15:05:39.640471 11592 net.cpp:141] Setting up inception_5a/relu_5x5_reduce
I0403 15:05:39.640498 11592 net.cpp:148] Top shape: 24 32 7 7 (37632)
I0403 15:05:39.640513 11592 net.cpp:156] Memory required for data: 1299351072
I0403 15:05:39.640528 11592 layer_factory.hpp:77] Creating layer inception_5a/5x5
I0403 15:05:39.640552 11592 net.cpp:91] Creating Layer inception_5a/5x5
I0403 15:05:39.640570 11592 net.cpp:425] inception_5a/5x5 <- inception_5a/5x5_reduce
I0403 15:05:39.640589 11592 net.cpp:399] inception_5a/5x5 -> inception_5a/5x5
I0403 15:05:39.642374 11592 net.cpp:141] Setting up inception_5a/5x5
I0403 15:05:39.642416 11592 net.cpp:148] Top shape: 24 128 7 7 (150528)
I0403 15:05:39.642432 11592 net.cpp:156] Memory required for data: 1299953184
I0403 15:05:39.642452 11592 layer_factory.hpp:77] Creating layer inception_5a/relu_5x5
I0403 15:05:39.642472 11592 net.cpp:91] Creating Layer inception_5a/relu_5x5
I0403 15:05:39.642489 11592 net.cpp:425] inception_5a/relu_5x5 <- inception_5a/5x5
I0403 15:05:39.642506 11592 net.cpp:386] inception_5a/relu_5x5 -> inception_5a/5x5 (in-place)
I0403 15:05:39.642700 11592 net.cpp:141] Setting up inception_5a/relu_5x5
I0403 15:05:39.642727 11592 net.cpp:148] Top shape: 24 128 7 7 (150528)
I0403 15:05:39.642742 11592 net.cpp:156] Memory required for data: 1300555296
I0403 15:05:39.642757 11592 layer_factory.hpp:77] Creating layer inception_5a/pool
I0403 15:05:39.642776 11592 net.cpp:91] Creating Layer inception_5a/pool
I0403 15:05:39.642791 11592 net.cpp:425] inception_5a/pool <- pool4/3x3_s2_pool4/3x3_s2_0_split_3
I0403 15:05:39.642812 11592 net.cpp:399] inception_5a/pool -> inception_5a/pool
I0403 15:05:39.642882 11592 net.cpp:141] Setting up inception_5a/pool
I0403 15:05:39.642906 11592 net.cpp:148] Top shape: 24 832 7 7 (978432)
I0403 15:05:39.642920 11592 net.cpp:156] Memory required for data: 1304469024
I0403 15:05:39.642935 11592 layer_factory.hpp:77] Creating layer inception_5a/pool_proj
I0403 15:05:39.642956 11592 net.cpp:91] Creating Layer inception_5a/pool_proj
I0403 15:05:39.642973 11592 net.cpp:425] inception_5a/pool_proj <- inception_5a/pool
I0403 15:05:39.642994 11592 net.cpp:399] inception_5a/pool_proj -> inception_5a/pool_proj
I0403 15:05:39.645334 11592 net.cpp:141] Setting up inception_5a/pool_proj
I0403 15:05:39.645364 11592 net.cpp:148] Top shape: 24 128 7 7 (150528)
I0403 15:05:39.645378 11592 net.cpp:156] Memory required for data: 1305071136
I0403 15:05:39.645397 11592 layer_factory.hpp:77] Creating layer inception_5a/relu_pool_proj
I0403 15:05:39.645417 11592 net.cpp:91] Creating Layer inception_5a/relu_pool_proj
I0403 15:05:39.645434 11592 net.cpp:425] inception_5a/relu_pool_proj <- inception_5a/pool_proj
I0403 15:05:39.645452 11592 net.cpp:386] inception_5a/relu_pool_proj -> inception_5a/pool_proj (in-place)
I0403 15:05:39.645771 11592 net.cpp:141] Setting up inception_5a/relu_pool_proj
I0403 15:05:39.645798 11592 net.cpp:148] Top shape: 24 128 7 7 (150528)
I0403 15:05:39.645814 11592 net.cpp:156] Memory required for data: 1305673248
I0403 15:05:39.645829 11592 layer_factory.hpp:77] Creating layer inception_5a/output
I0403 15:05:39.645846 11592 net.cpp:91] Creating Layer inception_5a/output
I0403 15:05:39.645862 11592 net.cpp:425] inception_5a/output <- inception_5a/1x1
I0403 15:05:39.645879 11592 net.cpp:425] inception_5a/output <- inception_5a/3x3
I0403 15:05:39.645907 11592 net.cpp:425] inception_5a/output <- inception_5a/5x5
I0403 15:05:39.645923 11592 net.cpp:425] inception_5a/output <- inception_5a/pool_proj
I0403 15:05:39.645942 11592 net.cpp:399] inception_5a/output -> inception_5a/output
I0403 15:05:39.645994 11592 net.cpp:141] Setting up inception_5a/output
I0403 15:05:39.646018 11592 net.cpp:148] Top shape: 24 832 7 7 (978432)
I0403 15:05:39.646034 11592 net.cpp:156] Memory required for data: 1309586976
I0403 15:05:39.646047 11592 layer_factory.hpp:77] Creating layer inception_5a/output_inception_5a/output_0_split
I0403 15:05:39.646064 11592 net.cpp:91] Creating Layer inception_5a/output_inception_5a/output_0_split
I0403 15:05:39.646080 11592 net.cpp:425] inception_5a/output_inception_5a/output_0_split <- inception_5a/output
I0403 15:05:39.646100 11592 net.cpp:399] inception_5a/output_inception_5a/output_0_split -> inception_5a/output_inception_5a/output_0_split_0
I0403 15:05:39.646119 11592 net.cpp:399] inception_5a/output_inception_5a/output_0_split -> inception_5a/output_inception_5a/output_0_split_1
I0403 15:05:39.646141 11592 net.cpp:399] inception_5a/output_inception_5a/output_0_split -> inception_5a/output_inception_5a/output_0_split_2
I0403 15:05:39.646162 11592 net.cpp:399] inception_5a/output_inception_5a/output_0_split -> inception_5a/output_inception_5a/output_0_split_3
I0403 15:05:39.646275 11592 net.cpp:141] Setting up inception_5a/output_inception_5a/output_0_split
I0403 15:05:39.646298 11592 net.cpp:148] Top shape: 24 832 7 7 (978432)
I0403 15:05:39.646314 11592 net.cpp:148] Top shape: 24 832 7 7 (978432)
I0403 15:05:39.646353 11592 net.cpp:148] Top shape: 24 832 7 7 (978432)
I0403 15:05:39.646368 11592 net.cpp:148] Top shape: 24 832 7 7 (978432)
I0403 15:05:39.646390 11592 net.cpp:156] Memory required for data: 1325241888
I0403 15:05:39.646405 11592 layer_factory.hpp:77] Creating layer inception_5b/1x1
I0403 15:05:39.646430 11592 net.cpp:91] Creating Layer inception_5b/1x1
I0403 15:05:39.646448 11592 net.cpp:425] inception_5b/1x1 <- inception_5a/output_inception_5a/output_0_split_0
I0403 15:05:39.646467 11592 net.cpp:399] inception_5b/1x1 -> inception_5b/1x1
I0403 15:05:39.650451 11592 net.cpp:141] Setting up inception_5b/1x1
I0403 15:05:39.650481 11592 net.cpp:148] Top shape: 24 384 7 7 (451584)
I0403 15:05:39.650497 11592 net.cpp:156] Memory required for data: 1327048224
I0403 15:05:39.650516 11592 layer_factory.hpp:77] Creating layer inception_5b/relu_1x1
I0403 15:05:39.650537 11592 net.cpp:91] Creating Layer inception_5b/relu_1x1
I0403 15:05:39.650555 11592 net.cpp:425] inception_5b/relu_1x1 <- inception_5b/1x1
I0403 15:05:39.650573 11592 net.cpp:386] inception_5b/relu_1x1 -> inception_5b/1x1 (in-place)
I0403 15:05:39.650890 11592 net.cpp:141] Setting up inception_5b/relu_1x1
I0403 15:05:39.650918 11592 net.cpp:148] Top shape: 24 384 7 7 (451584)
I0403 15:05:39.650933 11592 net.cpp:156] Memory required for data: 1328854560
I0403 15:05:39.650949 11592 layer_factory.hpp:77] Creating layer inception_5b/3x3_reduce
I0403 15:05:39.650971 11592 net.cpp:91] Creating Layer inception_5b/3x3_reduce
I0403 15:05:39.650990 11592 net.cpp:425] inception_5b/3x3_reduce <- inception_5a/output_inception_5a/output_0_split_1
I0403 15:05:39.651013 11592 net.cpp:399] inception_5b/3x3_reduce -> inception_5b/3x3_reduce
I0403 15:05:39.653820 11592 net.cpp:141] Setting up inception_5b/3x3_reduce
I0403 15:05:39.653849 11592 net.cpp:148] Top shape: 24 192 7 7 (225792)
I0403 15:05:39.653866 11592 net.cpp:156] Memory required for data: 1329757728
I0403 15:05:39.653884 11592 layer_factory.hpp:77] Creating layer inception_5b/relu_3x3_reduce
I0403 15:05:39.653903 11592 net.cpp:91] Creating Layer inception_5b/relu_3x3_reduce
I0403 15:05:39.653920 11592 net.cpp:425] inception_5b/relu_3x3_reduce <- inception_5b/3x3_reduce
I0403 15:05:39.653941 11592 net.cpp:386] inception_5b/relu_3x3_reduce -> inception_5b/3x3_reduce (in-place)
I0403 15:05:39.654141 11592 net.cpp:141] Setting up inception_5b/relu_3x3_reduce
I0403 15:05:39.654167 11592 net.cpp:148] Top shape: 24 192 7 7 (225792)
I0403 15:05:39.654182 11592 net.cpp:156] Memory required for data: 1330660896
I0403 15:05:39.654197 11592 layer_factory.hpp:77] Creating layer inception_5b/3x3
I0403 15:05:39.654219 11592 net.cpp:91] Creating Layer inception_5b/3x3
I0403 15:05:39.654238 11592 net.cpp:425] inception_5b/3x3 <- inception_5b/3x3_reduce
I0403 15:05:39.654260 11592 net.cpp:399] inception_5b/3x3 -> inception_5b/3x3
I0403 15:05:39.661293 11592 net.cpp:141] Setting up inception_5b/3x3
I0403 15:05:39.661329 11592 net.cpp:148] Top shape: 24 384 7 7 (451584)
I0403 15:05:39.661345 11592 net.cpp:156] Memory required for data: 1332467232
I0403 15:05:39.661365 11592 layer_factory.hpp:77] Creating layer inception_5b/relu_3x3
I0403 15:05:39.661386 11592 net.cpp:91] Creating Layer inception_5b/relu_3x3
I0403 15:05:39.661403 11592 net.cpp:425] inception_5b/relu_3x3 <- inception_5b/3x3
I0403 15:05:39.661420 11592 net.cpp:386] inception_5b/relu_3x3 -> inception_5b/3x3 (in-place)
I0403 15:05:39.661741 11592 net.cpp:141] Setting up inception_5b/relu_3x3
I0403 15:05:39.661768 11592 net.cpp:148] Top shape: 24 384 7 7 (451584)
I0403 15:05:39.661783 11592 net.cpp:156] Memory required for data: 1334273568
I0403 15:05:39.661798 11592 layer_factory.hpp:77] Creating layer inception_5b/5x5_reduce
I0403 15:05:39.661840 11592 net.cpp:91] Creating Layer inception_5b/5x5_reduce
I0403 15:05:39.661859 11592 net.cpp:425] inception_5b/5x5_reduce <- inception_5a/output_inception_5a/output_0_split_2
I0403 15:05:39.661882 11592 net.cpp:399] inception_5b/5x5_reduce -> inception_5b/5x5_reduce
I0403 15:05:39.663226 11592 net.cpp:141] Setting up inception_5b/5x5_reduce
I0403 15:05:39.663255 11592 net.cpp:148] Top shape: 24 48 7 7 (56448)
I0403 15:05:39.663271 11592 net.cpp:156] Memory required for data: 1334499360
I0403 15:05:39.663290 11592 layer_factory.hpp:77] Creating layer inception_5b/relu_5x5_reduce
I0403 15:05:39.663312 11592 net.cpp:91] Creating Layer inception_5b/relu_5x5_reduce
I0403 15:05:39.663337 11592 net.cpp:425] inception_5b/relu_5x5_reduce <- inception_5b/5x5_reduce
I0403 15:05:39.663357 11592 net.cpp:386] inception_5b/relu_5x5_reduce -> inception_5b/5x5_reduce (in-place)
I0403 15:05:39.663748 11592 net.cpp:141] Setting up inception_5b/relu_5x5_reduce
I0403 15:05:39.663776 11592 net.cpp:148] Top shape: 24 48 7 7 (56448)
I0403 15:05:39.663791 11592 net.cpp:156] Memory required for data: 1334725152
I0403 15:05:39.663806 11592 layer_factory.hpp:77] Creating layer inception_5b/5x5
I0403 15:05:39.663826 11592 net.cpp:91] Creating Layer inception_5b/5x5
I0403 15:05:39.663844 11592 net.cpp:425] inception_5b/5x5 <- inception_5b/5x5_reduce
I0403 15:05:39.663889 11592 net.cpp:399] inception_5b/5x5 -> inception_5b/5x5
I0403 15:05:39.666112 11592 net.cpp:141] Setting up inception_5b/5x5
I0403 15:05:39.666141 11592 net.cpp:148] Top shape: 24 128 7 7 (150528)
I0403 15:05:39.666155 11592 net.cpp:156] Memory required for data: 1335327264
I0403 15:05:39.666172 11592 layer_factory.hpp:77] Creating layer inception_5b/relu_5x5
I0403 15:05:39.666193 11592 net.cpp:91] Creating Layer inception_5b/relu_5x5
I0403 15:05:39.666209 11592 net.cpp:425] inception_5b/relu_5x5 <- inception_5b/5x5
I0403 15:05:39.666226 11592 net.cpp:386] inception_5b/relu_5x5 -> inception_5b/5x5 (in-place)
I0403 15:05:39.666424 11592 net.cpp:141] Setting up inception_5b/relu_5x5
I0403 15:05:39.666451 11592 net.cpp:148] Top shape: 24 128 7 7 (150528)
I0403 15:05:39.666466 11592 net.cpp:156] Memory required for data: 1335929376
I0403 15:05:39.666481 11592 layer_factory.hpp:77] Creating layer inception_5b/pool
I0403 15:05:39.666498 11592 net.cpp:91] Creating Layer inception_5b/pool
I0403 15:05:39.666513 11592 net.cpp:425] inception_5b/pool <- inception_5a/output_inception_5a/output_0_split_3
I0403 15:05:39.666532 11592 net.cpp:399] inception_5b/pool -> inception_5b/pool
I0403 15:05:39.666605 11592 net.cpp:141] Setting up inception_5b/pool
I0403 15:05:39.666628 11592 net.cpp:148] Top shape: 24 832 7 7 (978432)
I0403 15:05:39.666642 11592 net.cpp:156] Memory required for data: 1339843104
I0403 15:05:39.666656 11592 layer_factory.hpp:77] Creating layer inception_5b/pool_proj
I0403 15:05:39.666678 11592 net.cpp:91] Creating Layer inception_5b/pool_proj
I0403 15:05:39.666697 11592 net.cpp:425] inception_5b/pool_proj <- inception_5b/pool
I0403 15:05:39.666714 11592 net.cpp:399] inception_5b/pool_proj -> inception_5b/pool_proj
I0403 15:05:39.668980 11592 net.cpp:141] Setting up inception_5b/pool_proj
I0403 15:05:39.669009 11592 net.cpp:148] Top shape: 24 128 7 7 (150528)
I0403 15:05:39.669024 11592 net.cpp:156] Memory required for data: 1340445216
I0403 15:05:39.669041 11592 layer_factory.hpp:77] Creating layer inception_5b/relu_pool_proj
I0403 15:05:39.669061 11592 net.cpp:91] Creating Layer inception_5b/relu_pool_proj
I0403 15:05:39.669077 11592 net.cpp:425] inception_5b/relu_pool_proj <- inception_5b/pool_proj
I0403 15:05:39.669095 11592 net.cpp:386] inception_5b/relu_pool_proj -> inception_5b/pool_proj (in-place)
I0403 15:05:39.669396 11592 net.cpp:141] Setting up inception_5b/relu_pool_proj
I0403 15:05:39.669423 11592 net.cpp:148] Top shape: 24 128 7 7 (150528)
I0403 15:05:39.669438 11592 net.cpp:156] Memory required for data: 1341047328
I0403 15:05:39.669452 11592 layer_factory.hpp:77] Creating layer inception_5b/output
I0403 15:05:39.669472 11592 net.cpp:91] Creating Layer inception_5b/output
I0403 15:05:39.669502 11592 net.cpp:425] inception_5b/output <- inception_5b/1x1
I0403 15:05:39.669519 11592 net.cpp:425] inception_5b/output <- inception_5b/3x3
I0403 15:05:39.669535 11592 net.cpp:425] inception_5b/output <- inception_5b/5x5
I0403 15:05:39.669551 11592 net.cpp:425] inception_5b/output <- inception_5b/pool_proj
I0403 15:05:39.669567 11592 net.cpp:399] inception_5b/output -> inception_5b/output
I0403 15:05:39.669616 11592 net.cpp:141] Setting up inception_5b/output
I0403 15:05:39.669642 11592 net.cpp:148] Top shape: 24 1024 7 7 (1204224)
I0403 15:05:39.669657 11592 net.cpp:156] Memory required for data: 1345864224
I0403 15:05:39.669672 11592 layer_factory.hpp:77] Creating layer pool5/7x7_s1
I0403 15:05:39.669687 11592 net.cpp:91] Creating Layer pool5/7x7_s1
I0403 15:05:39.669703 11592 net.cpp:425] pool5/7x7_s1 <- inception_5b/output
I0403 15:05:39.669721 11592 net.cpp:399] pool5/7x7_s1 -> pool5/7x7_s1
I0403 15:05:39.669934 11592 net.cpp:141] Setting up pool5/7x7_s1
I0403 15:05:39.669958 11592 net.cpp:148] Top shape: 24 1024 1 1 (24576)
I0403 15:05:39.669973 11592 net.cpp:156] Memory required for data: 1345962528
I0403 15:05:39.669987 11592 layer_factory.hpp:77] Creating layer pool5/drop_7x7_s1
I0403 15:05:39.670006 11592 net.cpp:91] Creating Layer pool5/drop_7x7_s1
I0403 15:05:39.670022 11592 net.cpp:425] pool5/drop_7x7_s1 <- pool5/7x7_s1
I0403 15:05:39.670039 11592 net.cpp:386] pool5/drop_7x7_s1 -> pool5/7x7_s1 (in-place)
I0403 15:05:39.670089 11592 net.cpp:141] Setting up pool5/drop_7x7_s1
I0403 15:05:39.670111 11592 net.cpp:148] Top shape: 24 1024 1 1 (24576)
I0403 15:05:39.670125 11592 net.cpp:156] Memory required for data: 1346060832
I0403 15:05:39.670140 11592 layer_factory.hpp:77] Creating layer loss3/classifier_plantvillage
I0403 15:05:39.670158 11592 net.cpp:91] Creating Layer loss3/classifier_plantvillage
I0403 15:05:39.670176 11592 net.cpp:425] loss3/classifier_plantvillage <- pool5/7x7_s1
I0403 15:05:39.670194 11592 net.cpp:399] loss3/classifier_plantvillage -> loss3/classifier_plantvillage
I0403 15:05:39.670616 11592 net.cpp:141] Setting up loss3/classifier_plantvillage
I0403 15:05:39.670640 11592 net.cpp:148] Top shape: 24 38 (912)
I0403 15:05:39.670655 11592 net.cpp:156] Memory required for data: 1346064480
I0403 15:05:39.670671 11592 layer_factory.hpp:77] Creating layer loss3/classifier_plantvillage_loss3/classifier_plantvillage_0_split
I0403 15:05:39.670689 11592 net.cpp:91] Creating Layer loss3/classifier_plantvillage_loss3/classifier_plantvillage_0_split
I0403 15:05:39.670703 11592 net.cpp:425] loss3/classifier_plantvillage_loss3/classifier_plantvillage_0_split <- loss3/classifier_plantvillage
I0403 15:05:39.670724 11592 net.cpp:399] loss3/classifier_plantvillage_loss3/classifier_plantvillage_0_split -> loss3/classifier_plantvillage_loss3/classifier_plantvillage_0_split_0
I0403 15:05:39.670744 11592 net.cpp:399] loss3/classifier_plantvillage_loss3/classifier_plantvillage_0_split -> loss3/classifier_plantvillage_loss3/classifier_plantvillage_0_split_1
I0403 15:05:39.670764 11592 net.cpp:399] loss3/classifier_plantvillage_loss3/classifier_plantvillage_0_split -> loss3/classifier_plantvillage_loss3/classifier_plantvillage_0_split_2
I0403 15:05:39.670783 11592 net.cpp:399] loss3/classifier_plantvillage_loss3/classifier_plantvillage_0_split -> loss3/classifier_plantvillage_loss3/classifier_plantvillage_0_split_3
I0403 15:05:39.670886 11592 net.cpp:141] Setting up loss3/classifier_plantvillage_loss3/classifier_plantvillage_0_split
I0403 15:05:39.670908 11592 net.cpp:148] Top shape: 24 38 (912)
I0403 15:05:39.670924 11592 net.cpp:148] Top shape: 24 38 (912)
I0403 15:05:39.670939 11592 net.cpp:148] Top shape: 24 38 (912)
I0403 15:05:39.670953 11592 net.cpp:148] Top shape: 24 38 (912)
I0403 15:05:39.670965 11592 net.cpp:156] Memory required for data: 1346079072
I0403 15:05:39.670979 11592 layer_factory.hpp:77] Creating layer loss1/loss
I0403 15:05:39.671002 11592 net.cpp:91] Creating Layer loss1/loss
I0403 15:05:39.671020 11592 net.cpp:425] loss1/loss <- loss1/classifier_plantvillage_loss1/classifier_plantvillage_0_split_0
I0403 15:05:39.671049 11592 net.cpp:425] loss1/loss <- label_data_1_split_0
…
