…
I0403 15:44:21.866396 12444 net.cpp:313] The NetState phase (1) differed from the phase (0) specified by a rule in layer data
I0403 15:44:21.867496 12444 net.cpp:49] Initializing net from parameters: 
state {
  phase: TEST
}
layer {
  name: "data"
  type: "Data"
  top: "data"
  top: "label"
  include {
    phase: TEST
  }
  transform_param {
    mirror: false
    crop_size: 224
    mean_file: "/home/mohanty/data/final_dataset/lmdb/segmented-40-60/mean.binaryproto"
  }
  data_param {
    source: "/home/mohanty/data/final_dataset/lmdb/segmented-40-60/test_db"
    batch_size: 24
    backend: LMDB
  }
}
layer {
  name: "conv1/7x7_s2"
  type: "Convolution"
  bottom: "data"
  top: "conv1/7x7_s2"
  param {
    lr_mult: 1
    decay_mult: 1
  }
  param {
    lr_mult: 2
    decay_mult: 0
  }
  convolution_param {
    num_output: 64
    pad: 3
    kernel_size: 7
    stride: 2
    weight_filler {
      type: "xavier"
      std: 0.1
    }
    bias_filler {
      type: "constant"
      value: 0.2
    }
  }
}
layer {
  name: "conv1/relu_7x7"
  type: "ReLU"
  bottom: "conv1/7x7_s2"
  top: "conv1/7x7_s2"
}
layer {
  name: "pool1/3x3_s2"
  type: "Pooling"
  bottom: "conv1/7x7_s2"
  top: "pool1/3x3_s2"
  pooling_param {
    pool: MAX
    kernel_size: 3
    stride: 2
  }
}
layer {
  name: "pool1/norm1"
  type: "LRN"
  bottom: "pool1/3x3_s2"
  top: "pool1/norm1"
  lrn_param {
    local_size: 5
    alpha: 0.0001
    beta: 0.75
  }
}
layer {
  name: "conv2/3x3_reduce"
  type: "Convolution"
  bottom: "pool1/norm1"
  top: "conv2/3x3_reduce"
  param {
    lr_mult: 1
    decay_mult: 1
  }
  param {
    lr_mult: 2
    decay_mult: 0
  }
  convolution_param {
    num_output: 64
    kernel_size: 1
    weight_filler {
      type: "xavier"
      std: 0.1
    }
    bias_filler {
      type: "constant"
      value: 0.2
    }
  }
}
layer {
  name: "conv2/relu_3x3_reduce"
  type: "ReLU"
  bottom: "conv2/3x3_reduce"
  top: "conv2/3x3_reduce"
}
layer {
  name: "conv2/3x3"
  type: "Convolution"
  bottom: "conv2/3x3_reduce"
  top: "conv2/3x3"
  param {
    lr_mult: 1
    decay_mult: 1
  }
  param {
    lr_mult: 2
    decay_mult: 0
  }
  convolution_param {
    num_output: 192
    pad: 1
    kernel_size: 3
    weight_filler {
      type: "xavier"
      std: 0.03
    }
    bias_filler {
      type: "constant"
      value: 0.2
    }
  }
}
layer {
  name: "conv2/relu_3x3"
  type: "ReLU"
  bottom: "conv2/3x3"
  top: "conv2/3x3"
}
layer {
  name: "conv2/norm2"
  type: "LRN"
  bottom: "conv2/3x3"
  top: "conv2/norm2"
  lrn_param {
    local_size: 5
    alpha: 0.0001
    beta: 0.75
  }
}
layer {
  name: "pool2/3x3_s2"
  type: "Pooling"
  bottom: "conv2/norm2"
  top: "pool2/3x3_s2"
  pooling_param {
    pool: MAX
    kernel_size: 3
    stride: 2
  }
}
layer {
  name: "inception_3a/1x1"
  type: "Convolution"
  bottom: "pool2/3x3_s2"
  top: "inception_3a/1x1"
  param {
    lr_mult: 1
    decay_mult: 1
  }
  param {
    lr_mult: 2
    decay_mult: 0
  }
  convolution_param {
    num_output: 64
    kernel_size: 1
    weight_filler {
      type: "xavier"
      std: 0.03
    }
    bias_filler {
      type: "constant"
      value: 0.2
    }
  }
}
layer {
  name: "inception_3a/relu_1x1"
  type: "ReLU"
  bottom: "inception_3a/1x1"
  top: "inception_3a/1x1"
}
layer {
  name: "inception_3a/3x3_reduce"
  type: "Convolution"
  bottom: "pool2/3x3_s2"
  top: "inception_3a/3x3_reduce"
  param {
    lr_mult: 1
    decay_mult: 1
  }
  param {
    lr_mult: 2
    decay_mult: 0
  }
  convolution_param {
    num_output: 96
    kernel_size: 1
    weight_filler {
      type: "xavier"
      std: 0.09
    }
    bias_filler {
      type: "constant"
      value: 0.2
    }
  }
}
layer {
  name: "inception_3a/relu_3x3_reduce"
  type: "ReLU"
  bottom: "inception_3a/3x3_reduce"
  top: "inception_3a/3x3_reduce"
}
layer {
  name: "inception_3a/3x3"
  type: "Convolution"
  bottom: "inception_3a/3x3_reduce"
  top: "inception_3a/3x3"
  param {
    lr_mult: 1
    decay_mult: 1
  }
  param {
    lr_mult: 2
    decay_mult: 0
  }
  convolution_param {
    num_output: 128
    pad: 1
    kernel_size: 3
    weight_filler {
      type: "xavier"
      std: 0.03
    }
    bias_filler {
      type: "constant"
      value: 0.2
    }
  }
}
layer {
  name: "inception_3a/relu_3x3"
  type: "ReLU"
  bottom: "inception_3a/3x3"
  top: "inception_3a/3x3"
}
layer {
  name: "inception_3a/5x5_reduce"
  type: "Convolution"
  bottom: "pool2/3x3_s2"
  top: "inception_3a/5x5_reduce"
  param {
    lr_mult: 1
    decay_mult: 1
  }
  param {
    lr_mult: 2
    decay_mult: 0
  }
  convolution_param {
    num_output: 16
    kernel_size: 1
    weight_filler {
      type: "xavier"
      std: 0.2
    }
    bias_filler {
      type: "constant"
      value: 0.2
    }
  }
}
layer {
  name: "inception_3a/relu_5x5_reduce"
  type: "ReLU"
  bottom: "inception_3a/5x5_reduce"
  top: "inception_3a/5x5_reduce"
}
layer {
  name: "inception_3a/5x5"
  type: "Convolution"
  bottom: "inception_3a/5x5_reduce"
  top: "inception_3a/5x5"
  param {
    lr_mult: 1
    decay_mult: 1
  }
  param {
    lr_mult: 2
    decay_mult: 0
  }
  convolution_param {
    num_output: 32
    pad: 2
    kernel_size: 5
    weight_filler {
      type: "xavier"
      std: 0.03
    }
    bias_filler {
      type: "constant"
      value: 0.2
    }
  }
}
layer {
  name: "inception_3a/relu_5x5"
  type: "ReLU"
  bottom: "inception_3a/5x5"
  top: "inception_3a/5x5"
}
layer {
  name: "inception_3a/pool"
  type: "Pooling"
  bottom: "pool2/3x3_s2"
  top: "inception_3a/pool"
  pooling_param {
    pool: MAX
    kernel_size: 3
    stride: 1
    pad: 1
  }
}
layer {
  name: "inception_3a/pool_proj"
  type: "Convolution"
  bottom: "inception_3a/pool"
  top: "inception_3a/pool_proj"
  param {
    lr_mult: 1
    decay_mult: 1
  }
  param {
    lr_mult: 2
    decay_mult: 0
  }
  convolution_param {
    num_output: 32
    kernel_size: 1
    weight_filler {
      type: "xavier"
      std: 0.1
    }
    bias_filler {
      type: "constant"
      value: 0.2
    }
  }
}
layer {
  name: "inception_3a/relu_pool_proj"
  type: "ReLU"
  bottom: "inception_3a/pool_proj"
  top: "inception_3a/pool_proj"
}
layer {
  name: "inception_3a/output"
  type: "Concat"
  bottom: "inception_3a/1x1"
  bottom: "inception_3a/3x3"
  bottom: "inception_3a/5x5"
  bottom: "inception_3a/pool_proj"
  top: "inception_3a/output"
}
layer {
  name: "inception_3b/1x1"
  type: "Convolution"
  bottom: "inception_3a/output"
  top: "inception_3b/1x1"
  param {
    lr_mult: 1
    decay_mult: 1
  }
  param {
    lr_mult: 2
    decay_mult: 0
  }
  convolution_param {
    num_output: 128
    kernel_size: 1
    weight_filler {
      type: "xavier"
      std: 0.03
    }
    bias_filler {
      type: "constant"
      value: 0.2
    }
  }
}
layer {
  name: "inception_3b/relu_1x1"
  type: "ReLU"
  bottom: "inception_3b/1x1"
  top: "inception_3b/1x1"
}
layer {
  name: "inception_3b/3x3_reduce"
  type: "Convolution"
  bottom: "inception_3a/output"
  top: "inception_3b/3x3_reduce"
  param {
    lr_mult: 1
    decay_mult: 1
  }
  param {
    lr_mult: 2
    decay_mult: 0
  }
  convolution_param {
    num_output: 128
    kernel_size: 1
    weight_filler {
      type: "xavier"
      std: 0.09
    }
    bias_filler {
      type: "constant"
      value: 0.2
    }
  }
}
layer {
  name: "inception_3b/relu_3x3_reduce"
  type: "ReLU"
  bottom: "inception_3b/3x3_reduce"
  top: "inception_3b/3x3_reduce"
}
layer {
  name: "inception_3b/3x3"
  type: "Convolution"
  bottom: "inception_3b/3x3_reduce"
  top: "inception_3b/3x3"
  param {
    lr_mult: 1
    decay_mult: 1
  }
  param {
    lr_mult: 2
    decay_mult: 0
  }
  convolution_param {
    num_output: 192
    pad: 1
    kernel_size: 3
    weight_filler {
      type: "xavier"
      std: 0.03
    }
    bias_filler {
      type: "constant"
      value: 0.2
    }
  }
}
layer {
  name: "inception_3b/relu_3x3"
  type: "ReLU"
  bottom: "inception_3b/3x3"
  top: "inception_3b/3x3"
}
layer {
  name: "inception_3b/5x5_reduce"
  type: "Convolution"
  bottom: "inception_3a/output"
  top: "inception_3b/5x5_reduce"
  param {
    lr_mult: 1
    decay_mult: 1
  }
  param {
    lr_mult: 2
    decay_mult: 0
  }
  convolution_param {
    num_output: 32
    kernel_size: 1
    weight_filler {
      type: "xavier"
      std: 0.2
    }
    bias_filler {
      type: "constant"
      value: 0.2
    }
  }
}
layer {
  name: "inception_3b/relu_5x5_reduce"
  type: "ReLU"
  bottom: "inception_3b/5x5_reduce"
  top: "inception_3b/5x5_reduce"
}
layer {
  name: "inception_3b/5x5"
  type: "Convolution"
  bottom: "inception_3b/5x5_reduce"
  top: "inception_3b/5x5"
  param {
    lr_mult: 1
    decay_mult: 1
  }
  param {
    lr_mult: 2
    decay_mult: 0
  }
  convolution_param {
    num_output: 96
    pad: 2
    kernel_size: 5
    weight_filler {
      type: "xavier"
      std: 0.03
    }
    bias_filler {
      type: "constant"
      value: 0.2
    }
  }
}
layer {
  name: "inception_3b/relu_5x5"
  type: "ReLU"
  bottom: "inception_3b/5x5"
  top: "inception_3b/5x5"
}
layer {
  name: "inception_3b/pool"
  type: "Pooling"
  bottom: "inception_3a/output"
  top: "inception_3b/pool"
  pooling_param {
    pool: MAX
    kernel_size: 3
    stride: 1
    pad: 1
  }
}
layer {
  name: "inception_3b/pool_proj"
  type: "Convolution"
  bottom: "inception_3b/pool"
  top: "inception_3b/pool_proj"
  param {
    lr_mult: 1
    decay_mult: 1
  }
  param {
    lr_mult: 2
    decay_mult: 0
  }
  convolution_param {
    num_output: 64
    kernel_size: 1
    weight_filler {
      type: "xavier"
      std: 0.1
    }
    bias_filler {
      type: "constant"
      value: 0.2
    }
  }
}
layer {
  name: "inception_3b/relu_pool_proj"
  type: "ReLU"
  bottom: "inception_3b/pool_proj"
  top: "inception_3b/pool_proj"
}
layer {
  name: "inception_3b/output"
  type: "Concat"
  bottom: "inception_3b/1x1"
  bottom: "inception_3b/3x3"
  bottom: "inception_3b/5x5"
  bottom: "inception_3b/pool_proj"
  top: "inception_3b/output"
}
layer {
  name: "pool3/3x3_s2"
  type: "Pooling"
  bottom: "inception_3b/output"
  top: "pool3/3x3_s2"
  pooling_param {
    pool: MAX
    kernel_size: 3
    stride: 2
  }
}
layer {
  name: "inception_4a/1x1"
  type: "Convolution"
  bottom: "pool3/3x3_s2"
  top: "inception_4a/1x1"
  param {
    lr_mult: 1
    decay_mult: 1
  }
  param {
    lr_mult: 2
    decay_mult: 0
  }
  convolution_param {
    num_output: 192
    kernel_size: 1
    weight_filler {
      type: "xavier"
      std: 0.03
    }
    bias_filler {
      type: "constant"
      value: 0.2
    }
  }
}
layer {
  name: "inception_4a/relu_1x1"
  type: "ReLU"
  bottom: "inception_4a/1x1"
  top: "inception_4a/1x1"
}
layer {
  name: "inception_4a/3x3_reduce"
  type: "Convolution"
  bottom: "pool3/3x3_s2"
  top: "inception_4a/3x3_reduce"
  param {
    lr_mult: 1
    decay_mult: 1
  }
  param {
    lr_mult: 2
    decay_mult: 0
  }
  convolution_param {
    num_output: 96
    kernel_size: 1
    weight_filler {
      type: "xavier"
      std: 0.09
    }
    bias_filler {
      type: "constant"
      value: 0.2
    }
  }
}
layer {
  name: "inception_4a/relu_3x3_reduce"
  type: "ReLU"
  bottom: "inception_4a/3x3_reduce"
  top: "inception_4a/3x3_reduce"
}
layer {
  name: "inception_4a/3x3"
  type: "Convolution"
  bottom: "inception_4a/3x3_reduce"
  top: "inception_4a/3x3"
  param {
    lr_mult: 1
    decay_mult: 1
  }
  param {
    lr_mult: 2
    decay_mult: 0
  }
  convolution_param {
    num_output: 208
    pad: 1
    kernel_size: 3
    weight_filler {
      type: "xavier"
      std: 0.03
    }
    bias_filler {
      type: "constant"
      value: 0.2
    }
  }
}
layer {
  name: "inception_4a/relu_3x3"
  type: "ReLU"
  bottom: "inception_4a/3x3"
  top: "inception_4a/3x3"
}
layer {
  name: "inception_4a/5x5_reduce"
  type: "Convolution"
  bottom: "pool3/3x3_s2"
  top: "inception_4a/5x5_reduce"
  param {
    lr_mult: 1
    decay_mult: 1
  }
  param {
    lr_mult: 2
    decay_mult: 0
  }
  convolution_param {
    num_output: 16
    kernel_size: 1
    weight_filler {
      type: "xavier"
      std: 0.2
    }
    bias_filler {
      type: "constant"
      value: 0.2
    }
  }
}
layer {
  name: "inception_4a/relu_5x5_reduce"
  type: "ReLU"
  bottom: "inception_4a/5x5_reduce"
  top: "inception_4a/5x5_reduce"
}
layer {
  name: "inception_4a/5x5"
  type: "Convolution"
  bottom: "inception_4a/5x5_reduce"
  top: "inception_4a/5x5"
  param {
    lr_mult: 1
    decay_mult: 1
  }
  param {
    lr_mult: 2
    decay_mult: 0
  }
  convolution_param {
    num_output: 48
    pad: 2
    kernel_size: 5
    weight_filler {
      type: "xavier"
      std: 0.03
    }
    bias_filler {
      type: "constant"
      value: 0.2
    }
  }
}
layer {
  name: "inception_4a/relu_5x5"
  type: "ReLU"
  bottom: "inception_4a/5x5"
  top: "inception_4a/5x5"
}
layer {
  name: "inception_4a/pool"
  type: "Pooling"
  bottom: "pool3/3x3_s2"
  top: "inception_4a/pool"
  pooling_param {
    pool: MAX
    kernel_size: 3
    stride: 1
    pad: 1
  }
}
layer {
  name: "inception_4a/pool_proj"
  type: "Convolution"
  bottom: "inception_4a/pool"
  top: "inception_4a/pool_proj"
  param {
    lr_mult: 1
    decay_mult: 1
  }
  param {
    lr_mult: 2
    decay_mult: 0
  }
  convolution_param {
    num_output: 64
    kernel_size: 1
    weight_filler {
      type: "xavier"
      std: 0.1
    }
    bias_filler {
      type: "constant"
      value: 0.2
    }
  }
}
layer {
  name: "inception_4a/relu_pool_proj"
  type: "ReLU"
  bottom: "inception_4a/pool_proj"
  top: "inception_4a/pool_proj"
}
layer {
  name: "inception_4a/output"
  type: "Concat"
  bottom: "inception_4a/1x1"
  bottom: "inception_4a/3x3"
  bottom: "inception_4a/5x5"
  bottom: "inception_4a/pool_proj"
  top: "inception_4a/output"
}
layer {
  name: "loss1/ave_pool"
  type: "Pooling"
  bottom: "inception_4a/output"
  top: "loss1/ave_pool"
  pooling_param {
    pool: AVE
    kernel_size: 5
    stride: 3
  }
}
layer {
  name: "loss1/conv"
  type: "Convolution"
  bottom: "loss1/ave_pool"
  top: "loss1/conv"
  param {
    lr_mult: 1
    decay_mult: 1
  }
  param {
    lr_mult: 2
    decay_mult: 0
  }
  convolution_param {
    num_output: 128
    kernel_size: 1
    weight_filler {
      type: "xavier"
      std: 0.08
    }
    bias_filler {
      type: "constant"
      value: 0.2
    }
  }
}
layer {
  name: "loss1/relu_conv"
  type: "ReLU"
  bottom: "loss1/conv"
  top: "loss1/conv"
}
layer {
  name: "loss1/fc"
  type: "InnerProduct"
  bottom: "loss1/conv"
  top: "loss1/fc"
  param {
    lr_mult: 1
    decay_mult: 1
  }
  param {
    lr_mult: 2
    decay_mult: 0
  }
  inner_product_param {
    num_output: 1024
    weight_filler {
      type: "xavier"
      std: 0.02
    }
    bias_filler {
      type: "constant"
      value: 0.2
    }
  }
}
layer {
  name: "loss1/relu_fc"
  type: "ReLU"
  bottom: "loss1/fc"
  top: "loss1/fc"
}
layer {
  name: "loss1/drop_fc"
  type: "Dropout"
  bottom: "loss1/fc"
  top: "loss1/fc"
  dropout_param {
    dropout_ratio: 0.7
  }
}
layer {
  name: "loss1/classifier_plantvillage"
  type: "InnerProduct"
  bottom: "loss1/fc"
  top: "loss1/classifier_plantvillage"
  param {
    lr_mult: 1
    decay_mult: 1
  }
  param {
    lr_mult: 2
    decay_mult: 0
  }
  inner_product_param {
    num_output: 38
    weight_filler {
      type: "xavier"
      std: 0.0009765625
    }
    bias_filler {
      type: "constant"
      value: 0
    }
  }
}
layer {
  name: "inception_4b/1x1"
  type: "Convolution"
  bottom: "inception_4a/output"
  top: "inception_4b/1x1"
  param {
    lr_mult: 1
    decay_mult: 1
  }
  param {
    lr_mult: 2
    decay_mult: 0
  }
  convolution_param {
    num_output: 160
    kernel_size: 1
    weight_filler {
      type: "xavier"
      std: 0.03
    }
    bias_filler {
      type: "constant"
      value: 0.2
    }
  }
}
layer {
  name: "inception_4b/relu_1x1"
  type: "ReLU"
  bottom: "inception_4b/1x1"
  top: "inception_4b/1x1"
}
layer {
  name: "inception_4b/3x3_reduce"
  type: "Convolution"
  bottom: "inception_4a/output"
  top: "inception_4b/3x3_reduce"
  param {
    lr_mult: 1
    decay_mult: 1
  }
  param {
    lr_mult: 2
    decay_mult: 0
  }
  convolution_param {
    num_output: 112
    kernel_size: 1
    weight_filler {
      type: "xavier"
      std: 0.09
    }
    bias_filler {
      type: "constant"
      value: 0.2
    }
  }
}
layer {
  name: "inception_4b/relu_3x3_reduce"
  type: "ReLU"
  bottom: "inception_4b/3x3_reduce"
  top: "inception_4b/3x3_reduce"
}
layer {
  name: "inception_4b/3x3"
  type: "Convolution"
  bottom: "inception_4b/3x3_reduce"
  top: "inception_4b/3x3"
  param {
    lr_mult: 1
    decay_mult: 1
  }
  param {
    lr_mult: 2
    decay_mult: 0
  }
  convolution_param {
    num_output: 224
    pad: 1
    kernel_size: 3
    weight_filler {
      type: "xavier"
      std: 0.03
    }
    bias_filler {
      type: "constant"
      value: 0.2
    }
  }
}
layer {
  name: "inception_4b/relu_3x3"
  type: "ReLU"
  bottom: "inception_4b/3x3"
  top: "inception_4b/3x3"
}
layer {
  name: "inception_4b/5x5_reduce"
  type: "Convolution"
  bottom: "inception_4a/output"
  top: "inception_4b/5x5_reduce"
  param {
    lr_mult: 1
    decay_mult: 1
  }
  param {
    lr_mult: 2
    decay_mult: 0
  }
  convolution_param {
    num_output: 24
    kernel_size: 1
    weight_filler {
      type: "xavier"
      std: 0.2
    }
    bias_filler {
      type: "constant"
      value: 0.2
    }
  }
}
layer {
  name: "inception_4b/relu_5x5_reduce"
  type: "ReLU"
  bottom: "inception_4b/5x5_reduce"
  top: "inception_4b/5x5_reduce"
}
layer {
  name: "inception_4b/5x5"
  type: "Convolution"
  bottom: "inception_4b/5x5_reduce"
  top: "inception_4b/5x5"
  param {
    lr_mult: 1
    decay_mult: 1
  }
  param {
    lr_mult: 2
    decay_mult: 0
  }
  convolution_param {
    num_output: 64
    pad: 2
    kernel_size: 5
    weight_filler {
      type: "xavier"
      std: 0.03
    }
    bias_filler {
      type: "constant"
      value: 0.2
    }
  }
}
layer {
  name: "inception_4b/relu_5x5"
  type: "ReLU"
  bottom: "inception_4b/5x5"
  top: "inception_4b/5x5"
}
layer {
  name: "inception_4b/pool"
  type: "Pooling"
  bottom: "inception_4a/output"
  top: "inception_4b/pool"
  pooling_param {
    pool: MAX
    kernel_size: 3
    stride: 1
    pad: 1
  }
}
layer {
  name: "inception_4b/pool_proj"
  type: "Convolution"
  bottom: "inception_4b/pool"
  top: "inception_4b/pool_proj"
  param {
    lr_mult: 1
    decay_mult: 1
  }
  param {
    lr_mult: 2
    decay_mult: 0
  }
  convolution_param {
    num_output: 64
    kernel_size: 1
    weight_filler {
      type: "xavier"
      std: 0.1
    }
    bias_filler {
      type: "constant"
      value: 0.2
    }
  }
}
layer {
  name: "inception_4b/relu_pool_proj"
  type: "ReLU"
  bottom: "inception_4b/pool_proj"
  top: "inception_4b/pool_proj"
}
layer {
  name: "inception_4b/output"
  type: "Concat"
  bottom: "inception_4b/1x1"
  bottom: "inception_4b/3x3"
  bottom: "inception_4b/5x5"
  bottom: "inception_4b/pool_proj"
  top: "inception_4b/output"
}
layer {
  name: "inception_4c/1x1"
  type: "Convolution"
  bottom: "inception_4b/output"
  top: "inception_4c/1x1"
  param {
    lr_mult: 1
    decay_mult: 1
  }
  param {
    lr_mult: 2
    decay_mult: 0
  }
  convolution_param {
    num_output: 128
    kernel_size: 1
    weight_filler {
      type: "xavier"
      std: 0.03
    }
    bias_filler {
      type: "constant"
      value: 0.2
    }
  }
}
layer {
  name: "inception_4c/relu_1x1"
  type: "ReLU"
  bottom: "inception_4c/1x1"
  top: "inception_4c/1x1"
}
layer {
  name: "inception_4c/3x3_reduce"
  type: "Convolution"
  bottom: "inception_4b/output"
  top: "inception_4c/3x3_reduce"
  param {
    lr_mult: 1
    decay_mult: 1
  }
  param {
    lr_mult: 2
    decay_mult: 0
  }
  convolution_param {
    num_output: 128
    kernel_size: 1
    weight_filler {
      type: "xavier"
      std: 0.09
    }
    bias_filler {
      type: "constant"
      value: 0.2
    }
  }
}
layer {
  name: "inception_4c/relu_3x3_reduce"
  type: "ReLU"
  bottom: "inception_4c/3x3_reduce"
  top: "inception_4c/3x3_reduce"
}
layer {
  name: "inception_4c/3x3"
  type: "Convolution"
  bottom: "inception_4c/3x3_reduce"
  top: "inception_4c/3x3"
  param {
    lr_mult: 1
    decay_mult: 1
  }
  param {
    lr_mult: 2
    decay_mult: 0
  }
  convolution_param {
    num_output: 256
    pad: 1
    kernel_size: 3
    weight_filler {
      type: "xavier"
      std: 0.03
    }
    bias_filler {
      type: "constant"
      value: 0.2
    }
  }
}
layer {
  name: "inception_4c/relu_3x3"
  type: "ReLU"
  bottom: "inception_4c/3x3"
  top: "inception_4c/3x3"
}
layer {
  name: "inception_4c/5x5_reduce"
  type: "Convolution"
  bottom: "inception_4b/output"
  top: "inception_4c/5x5_reduce"
  param {
    lr_mult: 1
    decay_mult: 1
  }
  param {
    lr_mult: 2
    decay_mult: 0
  }
  convolution_param {
    num_output: 24
    kernel_size: 1
    weight_filler {
      type: "xavier"
      std: 0.2
    }
    bias_filler {
      type: "constant"
      value: 0.2
    }
  }
}
layer {
  name: "inception_4c/relu_5x5_reduce"
  type: "ReLU"
  bottom: "inception_4c/5x5_reduce"
  top: "inception_4c/5x5_reduce"
}
layer {
  name: "inception_4c/5x5"
  type: "Convolution"
  bottom: "inception_4c/5x5_reduce"
  top: "inception_4c/5x5"
  param {
    lr_mult: 1
    decay_mult: 1
  }
  param {
    lr_mult: 2
    decay_mult: 0
  }
  convolution_param {
    num_output: 64
    pad: 2
    kernel_size: 5
    weight_filler {
      type: "xavier"
      std: 0.03
    }
    bias_filler {
      type: "constant"
      value: 0.2
    }
  }
}
layer {
  name: "inception_4c/relu_5x5"
  type: "ReLU"
  bottom: "inception_4c/5x5"
  top: "inception_4c/5x5"
}
layer {
  name: "inception_4c/pool"
  type: "Pooling"
  bottom: "inception_4b/output"
  top: "inception_4c/pool"
  pooling_param {
    pool: MAX
    kernel_size: 3
    stride: 1
    pad: 1
  }
}
layer {
  name: "inception_4c/pool_proj"
  type: "Convolution"
  bottom: "inception_4c/pool"
  top: "inception_4c/pool_proj"
  param {
    lr_mult: 1
    decay_mult: 1
  }
  param {
    lr_mult: 2
    decay_mult: 0
  }
  convolution_param {
    num_output: 64
    kernel_size: 1
    weight_filler {
      type: "xavier"
      std: 0.1
    }
    bias_filler {
      type: "constant"
      value: 0.2
    }
  }
}
layer {
  name: "inception_4c/relu_pool_proj"
  type: "ReLU"
  bottom: "inception_4c/pool_proj"
  top: "inception_4c/pool_proj"
}
layer {
  name: "inception_4c/output"
  type: "Concat"
  bottom: "inception_4c/1x1"
  bottom: "inception_4c/3x3"
  bottom: "inception_4c/5x5"
  bottom: "inception_4c/pool_proj"
  top: "inception_4c/output"
}
layer {
  name: "inception_4d/1x1"
  type: "Convolution"
  bottom: "inception_4c/output"
  top: "inception_4d/1x1"
  param {
    lr_mult: 1
    decay_mult: 1
  }
  param {
    lr_mult: 2
    decay_mult: 0
  }
  convolution_param {
    num_output: 112
    kernel_size: 1
    weight_filler {
      type: "xavier"
      std: 0.03
    }
    bias_filler {
      type: "constant"
      value: 0.2
    }
  }
}
layer {
  name: "inception_4d/relu_1x1"
  type: "ReLU"
  bottom: "inception_4d/1x1"
  top: "inception_4d/1x1"
}
layer {
  name: "inception_4d/3x3_reduce"
  type: "Convolution"
  bottom: "inception_4c/output"
  top: "inception_4d/3x3_reduce"
  param {
    lr_mult: 1
    decay_mult: 1
  }
  param {
    lr_mult: 2
    decay_mult: 0
  }
  convolution_param {
    num_output: 144
    kernel_size: 1
    weight_filler {
      type: "xavier"
      std: 0.09
    }
    bias_filler {
      type: "constant"
      value: 0.2
    }
  }
}
layer {
  name: "inception_4d/relu_3x3_reduce"
  type: "ReLU"
  bottom: "inception_4d/3x3_reduce"
  top: "inception_4d/3x3_reduce"
}
layer {
  name: "inception_4d/3x3"
  type: "Convolution"
  bottom: "inception_4d/3x3_reduce"
  top: "inception_4d/3x3"
  param {
    lr_mult: 1
    decay_mult: 1
  }
  param {
    lr_mult: 2
    decay_mult: 0
  }
  convolution_param {
    num_output: 288
    pad: 1
    kernel_size: 3
    weight_filler {
      type: "xavier"
      std: 0.03
    }
    bias_filler {
      type: "constant"
      value: 0.2
    }
  }
}
layer {
  name: "inception_4d/relu_3x3"
  type: "ReLU"
  bottom: "inception_4d/3x3"
  top: "inception_4d/3x3"
}
layer {
  name: "inception_4d/5x5_reduce"
  type: "Convolution"
  bottom: "inception_4c/output"
  top: "inception_4d/5x5_reduce"
  param {
    lr_mult: 1
    decay_mult: 1
  }
  param {
    lr_mult: 2
    decay_mult: 0
  }
  convolution_param {
    num_output: 32
    kernel_size: 1
    weight_filler {
      type: "xavier"
      std: 0.2
    }
    bias_filler {
      type: "constant"
      value: 0.2
    }
  }
}
layer {
  name: "inception_4d/relu_5x5_reduce"
  type: "ReLU"
  bottom: "inception_4d/5x5_reduce"
  top: "inception_4d/5x5_reduce"
}
layer {
  name: "inception_4d/5x5"
  type: "Convolution"
  bottom: "inception_4d/5x5_reduce"
  top: "inception_4d/5x5"
  param {
    lr_mult: 1
    decay_mult: 1
  }
  param {
    lr_mult: 2
    decay_mult: 0
  }
  convolution_param {
    num_output: 64
    pad: 2
    kernel_size: 5
    weight_filler {
      type: "xavier"
      std: 0.03
    }
    bias_filler {
      type: "constant"
      value: 0.2
    }
  }
}
layer {
  name: "inception_4d/relu_5x5"
  type: "ReLU"
  bottom: "inception_4d/5x5"
  top: "inception_4d/5x5"
}
layer {
  name: "inception_4d/pool"
  type: "Pooling"
  bottom: "inception_4c/output"
  top: "inception_4d/pool"
  pooling_param {
    pool: MAX
    kernel_size: 3
    stride: 1
    pad: 1
  }
}
layer {
  name: "inception_4d/pool_proj"
  type: "Convolution"
  bottom: "inception_4d/pool"
  top: "inception_4d/pool_proj"
  param {
    lr_mult: 1
    decay_mult: 1
  }
  param {
    lr_mult: 2
    decay_mult: 0
  }
  convolution_param {
    num_output: 64
    kernel_size: 1
    weight_filler {
      type: "xavier"
      std: 0.1
    }
    bias_filler {
      type: "constant"
      value: 0.2
    }
  }
}
layer {
  name: "inception_4d/relu_pool_proj"
  type: "ReLU"
  bottom: "inception_4d/pool_proj"
  top: "inception_4d/pool_proj"
}
layer {
  name: "inception_4d/output"
  type: "Concat"
  bottom: "inception_4d/1x1"
  bottom: "inception_4d/3x3"
  bottom: "inception_4d/5x5"
  bottom: "inception_4d/pool_proj"
  top: "inception_4d/output"
}
layer {
  name: "loss2/ave_pool"
  type: "Pooling"
  bottom: "inception_4d/output"
  top: "loss2/ave_pool"
  pooling_param {
    pool: AVE
    kernel_size: 5
    stride: 3
  }
}
layer {
  name: "loss2/conv"
  type: "Convolution"
  bottom: "loss2/ave_pool"
  top: "loss2/conv"
  param {
    lr_mult: 1
    decay_mult: 1
  }
  param {
    lr_mult: 2
    decay_mult: 0
  }
  convolution_param {
    num_output: 128
    kernel_size: 1
    weight_filler {
      type: "xavier"
      std: 0.08
    }
    bias_filler {
      type: "constant"
      value: 0.2
    }
  }
}
layer {
  name: "loss2/relu_conv"
  type: "ReLU"
  bottom: "loss2/conv"
  top: "loss2/conv"
}
layer {
  name: "loss2/fc"
  type: "InnerProduct"
  bottom: "loss2/conv"
  top: "loss2/fc"
  param {
    lr_mult: 1
    decay_mult: 1
  }
  param {
    lr_mult: 2
    decay_mult: 0
  }
  inner_product_param {
    num_output: 1024
    weight_filler {
      type: "xavier"
      std: 0.02
    }
    bias_filler {
      type: "constant"
      value: 0.2
    }
  }
}
layer {
  name: "loss2/relu_fc"
  type: "ReLU"
  bottom: "loss2/fc"
  top: "loss2/fc"
}
layer {
  name: "loss2/drop_fc"
  type: "Dropout"
  bottom: "loss2/fc"
  top: "loss2/fc"
  dropout_param {
    dropout_ratio: 0.7
  }
}
layer {
  name: "loss2/classifier_plantvillage"
  type: "InnerProduct"
  bottom: "loss2/fc"
  top: "loss2/classifier_plantvillage"
  param {
    lr_mult: 1
    decay_mult: 1
  }
  param {
    lr_mult: 2
    decay_mult: 0
  }
  inner_product_param {
    num_output: 38
    weight_filler {
      type: "xavier"
      std: 0.0009765625
    }
    bias_filler {
      type: "constant"
      value: 0
    }
  }
}
layer {
  name: "inception_4e/1x1"
  type: "Convolution"
  bottom: "inception_4d/output"
  top: "inception_4e/1x1"
  param {
    lr_mult: 1
    decay_mult: 1
  }
  param {
    lr_mult: 2
    decay_mult: 0
  }
  convolution_param {
    num_output: 256
    kernel_size: 1
    weight_filler {
      type: "xavier"
      std: 0.03
    }
    bias_filler {
      type: "constant"
      value: 0.2
    }
  }
}
layer {
  name: "inception_4e/relu_1x1"
  type: "ReLU"
  bottom: "inception_4e/1x1"
  top: "inception_4e/1x1"
}
layer {
  name: "inception_4e/3x3_reduce"
  type: "Convolution"
  bottom: "inception_4d/output"
  top: "inception_4e/3x3_reduce"
  param {
    lr_mult: 1
    decay_mult: 1
  }
  param {
    lr_mult: 2
    decay_mult: 0
  }
  convolution_param {
    num_output: 160
    kernel_size: 1
    weight_filler {
      type: "xavier"
      std: 0.09
    }
    bias_filler {
      type: "constant"
      value: 0.2
    }
  }
}
layer {
  name: "inception_4e/relu_3x3_reduce"
  type: "ReLU"
  bottom: "inception_4e/3x3_reduce"
  top: "inception_4e/3x3_reduce"
}
layer {
  name: "inception_4e/3x3"
  type: "Convolution"
  bottom: "inception_4e/3x3_reduce"
  top: "inception_4e/3x3"
  param {
    lr_mult: 1
    decay_mult: 1
  }
  param {
    lr_mult: 2
    decay_mult: 0
  }
  convolution_param {
    num_output: 320
    pad: 1
    kernel_size: 3
    weight_filler {
      type: "xavier"
      std: 0.03
    }
    bias_filler {
      type: "constant"
      value: 0.2
    }
  }
}
layer {
  name: "inception_4e/relu_3x3"
  type: "ReLU"
  bottom: "inception_4e/3x3"
  top: "inception_4e/3x3"
}
layer {
  name: "inception_4e/5x5_reduce"
  type: "Convolution"
  bottom: "inception_4d/output"
  top: "inception_4e/5x5_reduce"
  param {
    lr_mult: 1
    decay_mult: 1
  }
  param {
    lr_mult: 2
    decay_mult: 0
  }
  convolution_param {
    num_output: 32
    kernel_size: 1
    weight_filler {
      type: "xavier"
      std: 0.2
    }
    bias_filler {
      type: "constant"
      value: 0.2
    }
  }
}
layer {
  name: "inception_4e/relu_5x5_reduce"
  type: "ReLU"
  bottom: "inception_4e/5x5_reduce"
  top: "inception_4e/5x5_reduce"
}
layer {
  name: "inception_4e/5x5"
  type: "Convolution"
  bottom: "inception_4e/5x5_reduce"
  top: "inception_4e/
I0403 15:44:21.868697 12444 layer_factory.hpp:77] Creating layer data
I0403 15:44:21.869282 12444 net.cpp:91] Creating Layer data
I0403 15:44:21.869310 12444 net.cpp:399] data -> data
I0403 15:44:21.869366 12444 net.cpp:399] data -> label
I0403 15:44:21.869405 12444 data_transformer.cpp:25] Loading mean file from: /home/mohanty/data/final_dataset/lmdb/segmented-40-60/mean.binaryproto
I0403 15:44:21.875383 12447 db_lmdb.cpp:38] Opened lmdb /home/mohanty/data/final_dataset/lmdb/segmented-40-60/test_db
I0403 15:44:21.886729 12444 data_layer.cpp:41] output data size: 24,3,224,224
I0403 15:44:21.913806 12444 net.cpp:141] Setting up data
I0403 15:44:21.913883 12444 net.cpp:148] Top shape: 24 3 224 224 (3612672)
I0403 15:44:21.913905 12444 net.cpp:148] Top shape: 24 (24)
I0403 15:44:21.913919 12444 net.cpp:156] Memory required for data: 14450784
I0403 15:44:21.913946 12444 layer_factory.hpp:77] Creating layer label_data_1_split
I0403 15:44:21.913974 12444 net.cpp:91] Creating Layer label_data_1_split
I0403 15:44:21.913990 12444 net.cpp:425] label_data_1_split <- label
I0403 15:44:21.914021 12444 net.cpp:399] label_data_1_split -> label_data_1_split_0
I0403 15:44:21.914048 12444 net.cpp:399] label_data_1_split -> label_data_1_split_1
I0403 15:44:21.914069 12444 net.cpp:399] label_data_1_split -> label_data_1_split_2
I0403 15:44:21.914089 12444 net.cpp:399] label_data_1_split -> label_data_1_split_3
I0403 15:44:21.914108 12444 net.cpp:399] label_data_1_split -> label_data_1_split_4
I0403 15:44:21.914127 12444 net.cpp:399] label_data_1_split -> label_data_1_split_5
I0403 15:44:21.914146 12444 net.cpp:399] label_data_1_split -> label_data_1_split_6
I0403 15:44:21.914165 12444 net.cpp:399] label_data_1_split -> label_data_1_split_7
I0403 15:44:21.914183 12444 net.cpp:399] label_data_1_split -> label_data_1_split_8
I0403 15:44:21.914203 12444 net.cpp:399] label_data_1_split -> label_data_1_split_9
I0403 15:44:21.914345 12444 net.cpp:141] Setting up label_data_1_split
I0403 15:44:21.914368 12444 net.cpp:148] Top shape: 24 (24)
I0403 15:44:21.914386 12444 net.cpp:148] Top shape: 24 (24)
I0403 15:44:21.914402 12444 net.cpp:148] Top shape: 24 (24)
I0403 15:44:21.914417 12444 net.cpp:148] Top shape: 24 (24)
I0403 15:44:21.914432 12444 net.cpp:148] Top shape: 24 (24)
I0403 15:44:21.914446 12444 net.cpp:148] Top shape: 24 (24)
I0403 15:44:21.914460 12444 net.cpp:148] Top shape: 24 (24)
I0403 15:44:21.914475 12444 net.cpp:148] Top shape: 24 (24)
I0403 15:44:21.914490 12444 net.cpp:148] Top shape: 24 (24)
I0403 15:44:21.914505 12444 net.cpp:148] Top shape: 24 (24)
I0403 15:44:21.914548 12444 net.cpp:156] Memory required for data: 14451744
I0403 15:44:21.914563 12444 layer_factory.hpp:77] Creating layer conv1/7x7_s2
I0403 15:44:21.914594 12444 net.cpp:91] Creating Layer conv1/7x7_s2
I0403 15:44:21.914625 12444 net.cpp:425] conv1/7x7_s2 <- data
I0403 15:44:21.914644 12444 net.cpp:399] conv1/7x7_s2 -> conv1/7x7_s2
I0403 15:44:22.060083 12444 net.cpp:141] Setting up conv1/7x7_s2
I0403 15:44:22.060158 12444 net.cpp:148] Top shape: 24 64 112 112 (19267584)
I0403 15:44:22.060175 12444 net.cpp:156] Memory required for data: 91522080
I0403 15:44:22.060206 12444 layer_factory.hpp:77] Creating layer conv1/relu_7x7
I0403 15:44:22.060233 12444 net.cpp:91] Creating Layer conv1/relu_7x7
I0403 15:44:22.060251 12444 net.cpp:425] conv1/relu_7x7 <- conv1/7x7_s2
I0403 15:44:22.060272 12444 net.cpp:386] conv1/relu_7x7 -> conv1/7x7_s2 (in-place)
I0403 15:44:22.060552 12444 net.cpp:141] Setting up conv1/relu_7x7
I0403 15:44:22.060578 12444 net.cpp:148] Top shape: 24 64 112 112 (19267584)
I0403 15:44:22.060593 12444 net.cpp:156] Memory required for data: 168592416
I0403 15:44:22.060608 12444 layer_factory.hpp:77] Creating layer pool1/3x3_s2
I0403 15:44:22.060632 12444 net.cpp:91] Creating Layer pool1/3x3_s2
I0403 15:44:22.060650 12444 net.cpp:425] pool1/3x3_s2 <- conv1/7x7_s2
I0403 15:44:22.060670 12444 net.cpp:399] pool1/3x3_s2 -> pool1/3x3_s2
I0403 15:44:22.060747 12444 net.cpp:141] Setting up pool1/3x3_s2
I0403 15:44:22.060771 12444 net.cpp:148] Top shape: 24 64 56 56 (4816896)
I0403 15:44:22.060786 12444 net.cpp:156] Memory required for data: 187860000
I0403 15:44:22.060801 12444 layer_factory.hpp:77] Creating layer pool1/norm1
I0403 15:44:22.060827 12444 net.cpp:91] Creating Layer pool1/norm1
I0403 15:44:22.060845 12444 net.cpp:425] pool1/norm1 <- pool1/3x3_s2
I0403 15:44:22.060864 12444 net.cpp:399] pool1/norm1 -> pool1/norm1
I0403 15:44:22.061163 12444 net.cpp:141] Setting up pool1/norm1
I0403 15:44:22.061193 12444 net.cpp:148] Top shape: 24 64 56 56 (4816896)
I0403 15:44:22.061209 12444 net.cpp:156] Memory required for data: 207127584
I0403 15:44:22.061224 12444 layer_factory.hpp:77] Creating layer conv2/3x3_reduce
I0403 15:44:22.061250 12444 net.cpp:91] Creating Layer conv2/3x3_reduce
I0403 15:44:22.061267 12444 net.cpp:425] conv2/3x3_reduce <- pool1/norm1
I0403 15:44:22.061288 12444 net.cpp:399] conv2/3x3_reduce -> conv2/3x3_reduce
I0403 15:44:22.062701 12444 net.cpp:141] Setting up conv2/3x3_reduce
I0403 15:44:22.062731 12444 net.cpp:148] Top shape: 24 64 56 56 (4816896)
I0403 15:44:22.062747 12444 net.cpp:156] Memory required for data: 226395168
I0403 15:44:22.062770 12444 layer_factory.hpp:77] Creating layer conv2/relu_3x3_reduce
I0403 15:44:22.062790 12444 net.cpp:91] Creating Layer conv2/relu_3x3_reduce
I0403 15:44:22.062806 12444 net.cpp:425] conv2/relu_3x3_reduce <- conv2/3x3_reduce
I0403 15:44:22.062824 12444 net.cpp:386] conv2/relu_3x3_reduce -> conv2/3x3_reduce (in-place)
I0403 15:44:22.063107 12444 net.cpp:141] Setting up conv2/relu_3x3_reduce
I0403 15:44:22.063133 12444 net.cpp:148] Top shape: 24 64 56 56 (4816896)
I0403 15:44:22.063148 12444 net.cpp:156] Memory required for data: 245662752
I0403 15:44:22.063164 12444 layer_factory.hpp:77] Creating layer conv2/3x3
I0403 15:44:22.063189 12444 net.cpp:91] Creating Layer conv2/3x3
I0403 15:44:22.063206 12444 net.cpp:425] conv2/3x3 <- conv2/3x3_reduce
I0403 15:44:22.063225 12444 net.cpp:399] conv2/3x3 -> conv2/3x3
I0403 15:44:22.065522 12444 net.cpp:141] Setting up conv2/3x3
I0403 15:44:22.065556 12444 net.cpp:148] Top shape: 24 192 56 56 (14450688)
I0403 15:44:22.065572 12444 net.cpp:156] Memory required for data: 303465504
I0403 15:44:22.065593 12444 layer_factory.hpp:77] Creating layer conv2/relu_3x3
I0403 15:44:22.065610 12444 net.cpp:91] Creating Layer conv2/relu_3x3
I0403 15:44:22.065625 12444 net.cpp:425] conv2/relu_3x3 <- conv2/3x3
I0403 15:44:22.065642 12444 net.cpp:386] conv2/relu_3x3 -> conv2/3x3 (in-place)
I0403 15:44:22.065819 12444 net.cpp:141] Setting up conv2/relu_3x3
I0403 15:44:22.065845 12444 net.cpp:148] Top shape: 24 192 56 56 (14450688)
I0403 15:44:22.065888 12444 net.cpp:156] Memory required for data: 361268256
I0403 15:44:22.065904 12444 layer_factory.hpp:77] Creating layer conv2/norm2
I0403 15:44:22.065925 12444 net.cpp:91] Creating Layer conv2/norm2
I0403 15:44:22.065942 12444 net.cpp:425] conv2/norm2 <- conv2/3x3
I0403 15:44:22.065959 12444 net.cpp:399] conv2/norm2 -> conv2/norm2
I0403 15:44:22.066263 12444 net.cpp:141] Setting up conv2/norm2
I0403 15:44:22.066289 12444 net.cpp:148] Top shape: 24 192 56 56 (14450688)
I0403 15:44:22.066314 12444 net.cpp:156] Memory required for data: 419071008
I0403 15:44:22.066335 12444 layer_factory.hpp:77] Creating layer pool2/3x3_s2
I0403 15:44:22.066354 12444 net.cpp:91] Creating Layer pool2/3x3_s2
I0403 15:44:22.066370 12444 net.cpp:425] pool2/3x3_s2 <- conv2/norm2
I0403 15:44:22.066387 12444 net.cpp:399] pool2/3x3_s2 -> pool2/3x3_s2
I0403 15:44:22.066442 12444 net.cpp:141] Setting up pool2/3x3_s2
I0403 15:44:22.066464 12444 net.cpp:148] Top shape: 24 192 28 28 (3612672)
I0403 15:44:22.066478 12444 net.cpp:156] Memory required for data: 433521696
I0403 15:44:22.066493 12444 layer_factory.hpp:77] Creating layer pool2/3x3_s2_pool2/3x3_s2_0_split
I0403 15:44:22.066510 12444 net.cpp:91] Creating Layer pool2/3x3_s2_pool2/3x3_s2_0_split
I0403 15:44:22.066524 12444 net.cpp:425] pool2/3x3_s2_pool2/3x3_s2_0_split <- pool2/3x3_s2
I0403 15:44:22.066543 12444 net.cpp:399] pool2/3x3_s2_pool2/3x3_s2_0_split -> pool2/3x3_s2_pool2/3x3_s2_0_split_0
I0403 15:44:22.066563 12444 net.cpp:399] pool2/3x3_s2_pool2/3x3_s2_0_split -> pool2/3x3_s2_pool2/3x3_s2_0_split_1
I0403 15:44:22.066583 12444 net.cpp:399] pool2/3x3_s2_pool2/3x3_s2_0_split -> pool2/3x3_s2_pool2/3x3_s2_0_split_2
I0403 15:44:22.066602 12444 net.cpp:399] pool2/3x3_s2_pool2/3x3_s2_0_split -> pool2/3x3_s2_pool2/3x3_s2_0_split_3
I0403 15:44:22.066690 12444 net.cpp:141] Setting up pool2/3x3_s2_pool2/3x3_s2_0_split
I0403 15:44:22.066715 12444 net.cpp:148] Top shape: 24 192 28 28 (3612672)
I0403 15:44:22.066733 12444 net.cpp:148] Top shape: 24 192 28 28 (3612672)
I0403 15:44:22.066750 12444 net.cpp:148] Top shape: 24 192 28 28 (3612672)
I0403 15:44:22.066764 12444 net.cpp:148] Top shape: 24 192 28 28 (3612672)
I0403 15:44:22.066779 12444 net.cpp:156] Memory required for data: 491324448
I0403 15:44:22.066793 12444 layer_factory.hpp:77] Creating layer inception_3a/1x1
I0403 15:44:22.066815 12444 net.cpp:91] Creating Layer inception_3a/1x1
I0403 15:44:22.066833 12444 net.cpp:425] inception_3a/1x1 <- pool2/3x3_s2_pool2/3x3_s2_0_split_0
I0403 15:44:22.066851 12444 net.cpp:399] inception_3a/1x1 -> inception_3a/1x1
I0403 15:44:22.068389 12444 net.cpp:141] Setting up inception_3a/1x1
I0403 15:44:22.068418 12444 net.cpp:148] Top shape: 24 64 28 28 (1204224)
I0403 15:44:22.068434 12444 net.cpp:156] Memory required for data: 496141344
I0403 15:44:22.068452 12444 layer_factory.hpp:77] Creating layer inception_3a/relu_1x1
I0403 15:44:22.068472 12444 net.cpp:91] Creating Layer inception_3a/relu_1x1
I0403 15:44:22.068490 12444 net.cpp:425] inception_3a/relu_1x1 <- inception_3a/1x1
I0403 15:44:22.068506 12444 net.cpp:386] inception_3a/relu_1x1 -> inception_3a/1x1 (in-place)
I0403 15:44:22.068681 12444 net.cpp:141] Setting up inception_3a/relu_1x1
I0403 15:44:22.068707 12444 net.cpp:148] Top shape: 24 64 28 28 (1204224)
I0403 15:44:22.068722 12444 net.cpp:156] Memory required for data: 500958240
I0403 15:44:22.068737 12444 layer_factory.hpp:77] Creating layer inception_3a/3x3_reduce
I0403 15:44:22.068758 12444 net.cpp:91] Creating Layer inception_3a/3x3_reduce
I0403 15:44:22.068775 12444 net.cpp:425] inception_3a/3x3_reduce <- pool2/3x3_s2_pool2/3x3_s2_0_split_1
I0403 15:44:22.068794 12444 net.cpp:399] inception_3a/3x3_reduce -> inception_3a/3x3_reduce
I0403 15:44:22.070462 12444 net.cpp:141] Setting up inception_3a/3x3_reduce
I0403 15:44:22.070492 12444 net.cpp:148] Top shape: 24 96 28 28 (1806336)
I0403 15:44:22.070507 12444 net.cpp:156] Memory required for data: 508183584
I0403 15:44:22.070530 12444 layer_factory.hpp:77] Creating layer inception_3a/relu_3x3_reduce
I0403 15:44:22.070565 12444 net.cpp:91] Creating Layer inception_3a/relu_3x3_reduce
I0403 15:44:22.070582 12444 net.cpp:425] inception_3a/relu_3x3_reduce <- inception_3a/3x3_reduce
I0403 15:44:22.070602 12444 net.cpp:386] inception_3a/relu_3x3_reduce -> inception_3a/3x3_reduce (in-place)
I0403 15:44:22.070796 12444 net.cpp:141] Setting up inception_3a/relu_3x3_reduce
I0403 15:44:22.070822 12444 net.cpp:148] Top shape: 24 96 28 28 (1806336)
I0403 15:44:22.070837 12444 net.cpp:156] Memory required for data: 515408928
I0403 15:44:22.070852 12444 layer_factory.hpp:77] Creating layer inception_3a/3x3
I0403 15:44:22.070874 12444 net.cpp:91] Creating Layer inception_3a/3x3
I0403 15:44:22.070904 12444 net.cpp:425] inception_3a/3x3 <- inception_3a/3x3_reduce
I0403 15:44:22.070925 12444 net.cpp:399] inception_3a/3x3 -> inception_3a/3x3
I0403 15:44:22.072557 12444 net.cpp:141] Setting up inception_3a/3x3
I0403 15:44:22.072585 12444 net.cpp:148] Top shape: 24 128 28 28 (2408448)
I0403 15:44:22.072602 12444 net.cpp:156] Memory required for data: 525042720
I0403 15:44:22.072621 12444 layer_factory.hpp:77] Creating layer inception_3a/relu_3x3
I0403 15:44:22.072640 12444 net.cpp:91] Creating Layer inception_3a/relu_3x3
I0403 15:44:22.072655 12444 net.cpp:425] inception_3a/relu_3x3 <- inception_3a/3x3
I0403 15:44:22.072672 12444 net.cpp:386] inception_3a/relu_3x3 -> inception_3a/3x3 (in-place)
I0403 15:44:22.072942 12444 net.cpp:141] Setting up inception_3a/relu_3x3
I0403 15:44:22.072970 12444 net.cpp:148] Top shape: 24 128 28 28 (2408448)
I0403 15:44:22.072986 12444 net.cpp:156] Memory required for data: 534676512
I0403 15:44:22.073001 12444 layer_factory.hpp:77] Creating layer inception_3a/5x5_reduce
I0403 15:44:22.073024 12444 net.cpp:91] Creating Layer inception_3a/5x5_reduce
I0403 15:44:22.073041 12444 net.cpp:425] inception_3a/5x5_reduce <- pool2/3x3_s2_pool2/3x3_s2_0_split_2
I0403 15:44:22.073060 12444 net.cpp:399] inception_3a/5x5_reduce -> inception_3a/5x5_reduce
I0403 15:44:22.074074 12444 net.cpp:141] Setting up inception_3a/5x5_reduce
I0403 15:44:22.074105 12444 net.cpp:148] Top shape: 24 16 28 28 (301056)
I0403 15:44:22.074120 12444 net.cpp:156] Memory required for data: 535880736
I0403 15:44:22.074138 12444 layer_factory.hpp:77] Creating layer inception_3a/relu_5x5_reduce
I0403 15:44:22.074156 12444 net.cpp:91] Creating Layer inception_3a/relu_5x5_reduce
I0403 15:44:22.074172 12444 net.cpp:425] inception_3a/relu_5x5_reduce <- inception_3a/5x5_reduce
I0403 15:44:22.074192 12444 net.cpp:386] inception_3a/relu_5x5_reduce -> inception_3a/5x5_reduce (in-place)
I0403 15:44:22.074482 12444 net.cpp:141] Setting up inception_3a/relu_5x5_reduce
I0403 15:44:22.074507 12444 net.cpp:148] Top shape: 24 16 28 28 (301056)
I0403 15:44:22.074522 12444 net.cpp:156] Memory required for data: 537084960
I0403 15:44:22.074537 12444 layer_factory.hpp:77] Creating layer inception_3a/5x5
I0403 15:44:22.074559 12444 net.cpp:91] Creating Layer inception_3a/5x5
I0403 15:44:22.074576 12444 net.cpp:425] inception_3a/5x5 <- inception_3a/5x5_reduce
I0403 15:44:22.074597 12444 net.cpp:399] inception_3a/5x5 -> inception_3a/5x5
I0403 15:44:22.075628 12444 net.cpp:141] Setting up inception_3a/5x5
I0403 15:44:22.075654 12444 net.cpp:148] Top shape: 24 32 28 28 (602112)
I0403 15:44:22.075670 12444 net.cpp:156] Memory required for data: 539493408
I0403 15:44:22.075687 12444 layer_factory.hpp:77] Creating layer inception_3a/relu_5x5
I0403 15:44:22.075707 12444 net.cpp:91] Creating Layer inception_3a/relu_5x5
I0403 15:44:22.075724 12444 net.cpp:425] inception_3a/relu_5x5 <- inception_3a/5x5
I0403 15:44:22.075742 12444 net.cpp:386] inception_3a/relu_5x5 -> inception_3a/5x5 (in-place)
I0403 15:44:22.075912 12444 net.cpp:141] Setting up inception_3a/relu_5x5
I0403 15:44:22.075937 12444 net.cpp:148] Top shape: 24 32 28 28 (602112)
I0403 15:44:22.075953 12444 net.cpp:156] Memory required for data: 541901856
I0403 15:44:22.075966 12444 layer_factory.hpp:77] Creating layer inception_3a/pool
I0403 15:44:22.075984 12444 net.cpp:91] Creating Layer inception_3a/pool
I0403 15:44:22.076014 12444 net.cpp:425] inception_3a/pool <- pool2/3x3_s2_pool2/3x3_s2_0_split_3
I0403 15:44:22.076035 12444 net.cpp:399] inception_3a/pool -> inception_3a/pool
I0403 15:44:22.076092 12444 net.cpp:141] Setting up inception_3a/pool
I0403 15:44:22.076114 12444 net.cpp:148] Top shape: 24 192 28 28 (3612672)
I0403 15:44:22.076128 12444 net.cpp:156] Memory required for data: 556352544
I0403 15:44:22.076143 12444 layer_factory.hpp:77] Creating layer inception_3a/pool_proj
I0403 15:44:22.076169 12444 net.cpp:91] Creating Layer inception_3a/pool_proj
I0403 15:44:22.076186 12444 net.cpp:425] inception_3a/pool_proj <- inception_3a/pool
I0403 15:44:22.076205 12444 net.cpp:399] inception_3a/pool_proj -> inception_3a/pool_proj
I0403 15:44:22.077204 12444 net.cpp:141] Setting up inception_3a/pool_proj
I0403 15:44:22.077234 12444 net.cpp:148] Top shape: 24 32 28 28 (602112)
I0403 15:44:22.077250 12444 net.cpp:156] Memory required for data: 558760992
I0403 15:44:22.077273 12444 layer_factory.hpp:77] Creating layer inception_3a/relu_pool_proj
I0403 15:44:22.077293 12444 net.cpp:91] Creating Layer inception_3a/relu_pool_proj
I0403 15:44:22.077309 12444 net.cpp:425] inception_3a/relu_pool_proj <- inception_3a/pool_proj
I0403 15:44:22.077334 12444 net.cpp:386] inception_3a/relu_pool_proj -> inception_3a/pool_proj (in-place)
I0403 15:44:22.077613 12444 net.cpp:141] Setting up inception_3a/relu_pool_proj
I0403 15:44:22.077641 12444 net.cpp:148] Top shape: 24 32 28 28 (602112)
I0403 15:44:22.077656 12444 net.cpp:156] Memory required for data: 561169440
I0403 15:44:22.077672 12444 layer_factory.hpp:77] Creating layer inception_3a/output
I0403 15:44:22.077692 12444 net.cpp:91] Creating Layer inception_3a/output
I0403 15:44:22.077708 12444 net.cpp:425] inception_3a/output <- inception_3a/1x1
I0403 15:44:22.077724 12444 net.cpp:425] inception_3a/output <- inception_3a/3x3
I0403 15:44:22.077740 12444 net.cpp:425] inception_3a/output <- inception_3a/5x5
I0403 15:44:22.077756 12444 net.cpp:425] inception_3a/output <- inception_3a/pool_proj
I0403 15:44:22.077774 12444 net.cpp:399] inception_3a/output -> inception_3a/output
I0403 15:44:22.077821 12444 net.cpp:141] Setting up inception_3a/output
I0403 15:44:22.077844 12444 net.cpp:148] Top shape: 24 256 28 28 (4816896)
I0403 15:44:22.077859 12444 net.cpp:156] Memory required for data: 580437024
I0403 15:44:22.077874 12444 layer_factory.hpp:77] Creating layer inception_3a/output_inception_3a/output_0_split
I0403 15:44:22.077891 12444 net.cpp:91] Creating Layer inception_3a/output_inception_3a/output_0_split
I0403 15:44:22.077906 12444 net.cpp:425] inception_3a/output_inception_3a/output_0_split <- inception_3a/output
I0403 15:44:22.077926 12444 net.cpp:399] inception_3a/output_inception_3a/output_0_split -> inception_3a/output_inception_3a/output_0_split_0
I0403 15:44:22.077947 12444 net.cpp:399] inception_3a/output_inception_3a/output_0_split -> inception_3a/output_inception_3a/output_0_split_1
I0403 15:44:22.077976 12444 net.cpp:399] inception_3a/output_inception_3a/output_0_split -> inception_3a/output_inception_3a/output_0_split_2
I0403 15:44:22.077999 12444 net.cpp:399] inception_3a/output_inception_3a/output_0_split -> inception_3a/output_inception_3a/output_0_split_3
I0403 15:44:22.078073 12444 net.cpp:141] Setting up inception_3a/output_inception_3a/output_0_split
I0403 15:44:22.078095 12444 net.cpp:148] Top shape: 24 256 28 28 (4816896)
I0403 15:44:22.078115 12444 net.cpp:148] Top shape: 24 256 28 28 (4816896)
I0403 15:44:22.078132 12444 net.cpp:148] Top shape: 24 256 28 28 (4816896)
I0403 15:44:22.078147 12444 net.cpp:148] Top shape: 24 256 28 28 (4816896)
I0403 15:44:22.078161 12444 net.cpp:156] Memory required for data: 657507360
I0403 15:44:22.078176 12444 layer_factory.hpp:77] Creating layer inception_3b/1x1
I0403 15:44:22.078196 12444 net.cpp:91] Creating Layer inception_3b/1x1
I0403 15:44:22.078212 12444 net.cpp:425] inception_3b/1x1 <- inception_3a/output_inception_3a/output_0_split_0
I0403 15:44:22.078233 12444 net.cpp:399] inception_3b/1x1 -> inception_3b/1x1
I0403 15:44:22.079427 12444 net.cpp:141] Setting up inception_3b/1x1
I0403 15:44:22.079469 12444 net.cpp:148] Top shape: 24 128 28 28 (2408448)
I0403 15:44:22.079485 12444 net.cpp:156] Memory required for data: 667141152
I0403 15:44:22.079504 12444 layer_factory.hpp:77] Creating layer inception_3b/relu_1x1
I0403 15:44:22.079525 12444 net.cpp:91] Creating Layer inception_3b/relu_1x1
I0403 15:44:22.079542 12444 net.cpp:425] inception_3b/relu_1x1 <- inception_3b/1x1
I0403 15:44:22.079560 12444 net.cpp:386] inception_3b/relu_1x1 -> inception_3b/1x1 (in-place)
I0403 15:44:22.079741 12444 net.cpp:141] Setting up inception_3b/relu_1x1
I0403 15:44:22.079768 12444 net.cpp:148] Top shape: 24 128 28 28 (2408448)
I0403 15:44:22.079783 12444 net.cpp:156] Memory required for data: 676774944
I0403 15:44:22.079798 12444 layer_factory.hpp:77] Creating layer inception_3b/3x3_reduce
I0403 15:44:22.079821 12444 net.cpp:91] Creating Layer inception_3b/3x3_reduce
I0403 15:44:22.079839 12444 net.cpp:425] inception_3b/3x3_reduce <- inception_3a/output_inception_3a/output_0_split_1
I0403 15:44:22.079859 12444 net.cpp:399] inception_3b/3x3_reduce -> inception_3b/3x3_reduce
I0403 15:44:22.081007 12444 net.cpp:141] Setting up inception_3b/3x3_reduce
I0403 15:44:22.081035 12444 net.cpp:148] Top shape: 24 128 28 28 (2408448)
I0403 15:44:22.081051 12444 net.cpp:156] Memory required for data: 686408736
I0403 15:44:22.081069 12444 layer_factory.hpp:77] Creating layer inception_3b/relu_3x3_reduce
I0403 15:44:22.081090 12444 net.cpp:91] Creating Layer inception_3b/relu_3x3_reduce
I0403 15:44:22.081106 12444 net.cpp:425] inception_3b/relu_3x3_reduce <- inception_3b/3x3_reduce
I0403 15:44:22.081125 12444 net.cpp:386] inception_3b/relu_3x3_reduce -> inception_3b/3x3_reduce (in-place)
I0403 15:44:22.081298 12444 net.cpp:141] Setting up inception_3b/relu_3x3_reduce
I0403 15:44:22.081331 12444 net.cpp:148] Top shape: 24 128 28 28 (2408448)
I0403 15:44:22.081347 12444 net.cpp:156] Memory required for data: 696042528
I0403 15:44:22.081362 12444 layer_factory.hpp:77] Creating layer inception_3b/3x3
I0403 15:44:22.081388 12444 net.cpp:91] Creating Layer inception_3b/3x3
I0403 15:44:22.081406 12444 net.cpp:425] inception_3b/3x3 <- inception_3b/3x3_reduce
I0403 15:44:22.081428 12444 net.cpp:399] inception_3b/3x3 -> inception_3b/3x3
I0403 15:44:22.084435 12444 net.cpp:141] Setting up inception_3b/3x3
I0403 15:44:22.084465 12444 net.cpp:148] Top shape: 24 192 28 28 (3612672)
I0403 15:44:22.084481 12444 net.cpp:156] Memory required for data: 710493216
I0403 15:44:22.084501 12444 layer_factory.hpp:77] Creating layer inception_3b/relu_3x3
I0403 15:44:22.084522 12444 net.cpp:91] Creating Layer inception_3b/relu_3x3
I0403 15:44:22.084537 12444 net.cpp:425] inception_3b/relu_3x3 <- inception_3b/3x3
I0403 15:44:22.084554 12444 net.cpp:386] inception_3b/relu_3x3 -> inception_3b/3x3 (in-place)
I0403 15:44:22.084833 12444 net.cpp:141] Setting up inception_3b/relu_3x3
I0403 15:44:22.084861 12444 net.cpp:148] Top shape: 24 192 28 28 (3612672)
I0403 15:44:22.084877 12444 net.cpp:156] Memory required for data: 724943904
I0403 15:44:22.084892 12444 layer_factory.hpp:77] Creating layer inception_3b/5x5_reduce
I0403 15:44:22.084916 12444 net.cpp:91] Creating Layer inception_3b/5x5_reduce
I0403 15:44:22.084935 12444 net.cpp:425] inception_3b/5x5_reduce <- inception_3a/output_inception_3a/output_0_split_2
I0403 15:44:22.084954 12444 net.cpp:399] inception_3b/5x5_reduce -> inception_3b/5x5_reduce
I0403 15:44:22.085958 12444 net.cpp:141] Setting up inception_3b/5x5_reduce
I0403 15:44:22.085985 12444 net.cpp:148] Top shape: 24 32 28 28 (602112)
I0403 15:44:22.086001 12444 net.cpp:156] Memory required for data: 727352352
I0403 15:44:22.086020 12444 layer_factory.hpp:77] Creating layer inception_3b/relu_5x5_reduce
I0403 15:44:22.086041 12444 net.cpp:91] Creating Layer inception_3b/relu_5x5_reduce
I0403 15:44:22.086058 12444 net.cpp:425] inception_3b/relu_5x5_reduce <- inception_3b/5x5_reduce
I0403 15:44:22.086076 12444 net.cpp:386] inception_3b/relu_5x5_reduce -> inception_3b/5x5_reduce (in-place)
I0403 15:44:22.086275 12444 net.cpp:141] Setting up inception_3b/relu_5x5_reduce
I0403 15:44:22.086300 12444 net.cpp:148] Top shape: 24 32 28 28 (602112)
I0403 15:44:22.086315 12444 net.cpp:156] Memory required for data: 729760800
I0403 15:44:22.086335 12444 layer_factory.hpp:77] Creating layer inception_3b/5x5
I0403 15:44:22.086359 12444 net.cpp:91] Creating Layer inception_3b/5x5
I0403 15:44:22.086377 12444 net.cpp:425] inception_3b/5x5 <- inception_3b/5x5_reduce
I0403 15:44:22.086400 12444 net.cpp:399] inception_3b/5x5 -> inception_3b/5x5
I0403 15:44:22.088430 12444 net.cpp:141] Setting up inception_3b/5x5
I0403 15:44:22.088459 12444 net.cpp:148] Top shape: 24 96 28 28 (1806336)
I0403 15:44:22.088475 12444 net.cpp:156] Memory required for data: 736986144
I0403 15:44:22.088495 12444 layer_factory.hpp:77] Creating layer inception_3b/relu_5x5
I0403 15:44:22.088515 12444 net.cpp:91] Creating Layer inception_3b/relu_5x5
I0403 15:44:22.088531 12444 net.cpp:425] inception_3b/relu_5x5 <- inception_3b/5x5
I0403 15:44:22.088548 12444 net.cpp:386] inception_3b/relu_5x5 -> inception_3b/5x5 (in-place)
I0403 15:44:22.088747 12444 net.cpp:141] Setting up inception_3b/relu_5x5
I0403 15:44:22.088773 12444 net.cpp:148] Top shape: 24 96 28 28 (1806336)
I0403 15:44:22.088788 12444 net.cpp:156] Memory required for data: 744211488
I0403 15:44:22.088804 12444 layer_factory.hpp:77] Creating layer inception_3b/pool
I0403 15:44:22.088821 12444 net.cpp:91] Creating Layer inception_3b/pool
I0403 15:44:22.088837 12444 net.cpp:425] inception_3b/pool <- inception_3a/output_inception_3a/output_0_split_3
I0403 15:44:22.088855 12444 net.cpp:399] inception_3b/pool -> inception_3b/pool
I0403 15:44:22.088912 12444 net.cpp:141] Setting up inception_3b/pool
I0403 15:44:22.088935 12444 net.cpp:148] Top shape: 24 256 28 28 (4816896)
I0403 15:44:22.088950 12444 net.cpp:156] Memory required for data: 763479072
I0403 15:44:22.088964 12444 layer_factory.hpp:77] Creating layer inception_3b/pool_proj
I0403 15:44:22.088987 12444 net.cpp:91] Creating Layer inception_3b/pool_proj
I0403 15:44:22.089005 12444 net.cpp:425] inception_3b/pool_proj <- inception_3b/pool
I0403 15:44:22.089027 12444 net.cpp:399] inception_3b/pool_proj -> inception_3b/pool_proj
I0403 15:44:22.090098 12444 net.cpp:141] Setting up inception_3b/pool_proj
I0403 15:44:22.090127 12444 net.cpp:148] Top shape: 24 64 28 28 (1204224)
I0403 15:44:22.090142 12444 net.cpp:156] Memory required for data: 768295968
I0403 15:44:22.090160 12444 layer_factory.hpp:77] Creating layer inception_3b/relu_pool_proj
I0403 15:44:22.090178 12444 net.cpp:91] Creating Layer inception_3b/relu_pool_proj
I0403 15:44:22.090195 12444 net.cpp:425] inception_3b/relu_pool_proj <- inception_3b/pool_proj
I0403 15:44:22.090215 12444 net.cpp:386] inception_3b/relu_pool_proj -> inception_3b/pool_proj (in-place)
I0403 15:44:22.090627 12444 net.cpp:141] Setting up inception_3b/relu_pool_proj
I0403 15:44:22.090657 12444 net.cpp:148] Top shape: 24 64 28 28 (1204224)
I0403 15:44:22.090673 12444 net.cpp:156] Memory required for data: 773112864
I0403 15:44:22.090689 12444 layer_factory.hpp:77] Creating layer inception_3b/output
I0403 15:44:22.090708 12444 net.cpp:91] Creating Layer inception_3b/output
I0403 15:44:22.090724 12444 net.cpp:425] inception_3b/output <- inception_3b/1x1
I0403 15:44:22.090741 12444 net.cpp:425] inception_3b/output <- inception_3b/3x3
I0403 15:44:22.090759 12444 net.cpp:425] inception_3b/output <- inception_3b/5x5
I0403 15:44:22.090776 12444 net.cpp:425] inception_3b/output <- inception_3b/pool_proj
I0403 15:44:22.090796 12444 net.cpp:399] inception_3b/output -> inception_3b/output
I0403 15:44:22.090842 12444 net.cpp:141] Setting up inception_3b/output
I0403 15:44:22.090865 12444 net.cpp:148] Top shape: 24 480 28 28 (9031680)
I0403 15:44:22.090881 12444 net.cpp:156] Memory required for data: 809239584
I0403 15:44:22.090909 12444 layer_factory.hpp:77] Creating layer pool3/3x3_s2
I0403 15:44:22.090929 12444 net.cpp:91] Creating Layer pool3/3x3_s2
I0403 15:44:22.090945 12444 net.cpp:425] pool3/3x3_s2 <- inception_3b/output
I0403 15:44:22.090980 12444 net.cpp:399] pool3/3x3_s2 -> pool3/3x3_s2
I0403 15:44:22.091039 12444 net.cpp:141] Setting up pool3/3x3_s2
I0403 15:44:22.091066 12444 net.cpp:148] Top shape: 24 480 14 14 (2257920)
I0403 15:44:22.091080 12444 net.cpp:156] Memory required for data: 818271264
I0403 15:44:22.091095 12444 layer_factory.hpp:77] Creating layer pool3/3x3_s2_pool3/3x3_s2_0_split
I0403 15:44:22.091112 12444 net.cpp:91] Creating Layer pool3/3x3_s2_pool3/3x3_s2_0_split
I0403 15:44:22.091128 12444 net.cpp:425] pool3/3x3_s2_pool3/3x3_s2_0_split <- pool3/3x3_s2
I0403 15:44:22.091146 12444 net.cpp:399] pool3/3x3_s2_pool3/3x3_s2_0_split -> pool3/3x3_s2_pool3/3x3_s2_0_split_0
I0403 15:44:22.091167 12444 net.cpp:399] pool3/3x3_s2_pool3/3x3_s2_0_split -> pool3/3x3_s2_pool3/3x3_s2_0_split_1
I0403 15:44:22.091187 12444 net.cpp:399] pool3/3x3_s2_pool3/3x3_s2_0_split -> pool3/3x3_s2_pool3/3x3_s2_0_split_2
I0403 15:44:22.091207 12444 net.cpp:399] pool3/3x3_s2_pool3/3x3_s2_0_split -> pool3/3x3_s2_pool3/3x3_s2_0_split_3
I0403 15:44:22.091289 12444 net.cpp:141] Setting up pool3/3x3_s2_pool3/3x3_s2_0_split
I0403 15:44:22.091311 12444 net.cpp:148] Top shape: 24 480 14 14 (2257920)
I0403 15:44:22.091333 12444 net.cpp:148] Top shape: 24 480 14 14 (2257920)
I0403 15:44:22.091351 12444 net.cpp:148] Top shape: 24 480 14 14 (2257920)
I0403 15:44:22.091366 12444 net.cpp:148] Top shape: 24 480 14 14 (2257920)
I0403 15:44:22.091379 12444 net.cpp:156] Memory required for data: 854397984
I0403 15:44:22.091395 12444 layer_factory.hpp:77] Creating layer inception_4a/1x1
I0403 15:44:22.091418 12444 net.cpp:91] Creating Layer inception_4a/1x1
I0403 15:44:22.091435 12444 net.cpp:425] inception_4a/1x1 <- pool3/3x3_s2_pool3/3x3_s2_0_split_0
I0403 15:44:22.091457 12444 net.cpp:399] inception_4a/1x1 -> inception_4a/1x1
I0403 15:44:22.093058 12444 net.cpp:141] Setting up inception_4a/1x1
I0403 15:44:22.093087 12444 net.cpp:148] Top shape: 24 192 14 14 (903168)
I0403 15:44:22.093102 12444 net.cpp:156] Memory required for data: 858010656
I0403 15:44:22.093122 12444 layer_factory.hpp:77] Creating layer inception_4a/relu_1x1
I0403 15:44:22.093138 12444 net.cpp:91] Creating Layer inception_4a/relu_1x1
I0403 15:44:22.093154 12444 net.cpp:425] inception_4a/relu_1x1 <- inception_4a/1x1
I0403 15:44:22.093174 12444 net.cpp:386] inception_4a/relu_1x1 -> inception_4a/1x1 (in-place)
I0403 15:44:22.093369 12444 net.cpp:141] Setting up inception_4a/relu_1x1
I0403 15:44:22.093395 12444 net.cpp:148] Top shape: 24 192 14 14 (903168)
I0403 15:44:22.093410 12444 net.cpp:156] Memory required for data: 861623328
I0403 15:44:22.093426 12444 layer_factory.hpp:77] Creating layer inception_4a/3x3_reduce
I0403 15:44:22.093449 12444 net.cpp:91] Creating Layer inception_4a/3x3_reduce
I0403 15:44:22.093466 12444 net.cpp:425] inception_4a/3x3_reduce <- pool3/3x3_s2_pool3/3x3_s2_0_split_1
I0403 15:44:22.093488 12444 net.cpp:399] inception_4a/3x3_reduce -> inception_4a/3x3_reduce
I0403 15:44:22.094811 12444 net.cpp:141] Setting up inception_4a/3x3_reduce
I0403 15:44:22.094841 12444 net.cpp:148] Top shape: 24 96 14 14 (451584)
I0403 15:44:22.094857 12444 net.cpp:156] Memory required for data: 863429664
I0403 15:44:22.094882 12444 layer_factory.hpp:77] Creating layer inception_4a/relu_3x3_reduce
I0403 15:44:22.094915 12444 net.cpp:91] Creating Layer inception_4a/relu_3x3_reduce
I0403 15:44:22.094931 12444 net.cpp:425] inception_4a/relu_3x3_reduce <- inception_4a/3x3_reduce
I0403 15:44:22.094950 12444 net.cpp:386] inception_4a/relu_3x3_reduce -> inception_4a/3x3_reduce (in-place)
I0403 15:44:22.095125 12444 net.cpp:141] Setting up inception_4a/relu_3x3_reduce
I0403 15:44:22.095150 12444 net.cpp:148] Top shape: 24 96 14 14 (451584)
I0403 15:44:22.095165 12444 net.cpp:156] Memory required for data: 865236000
I0403 15:44:22.095180 12444 layer_factory.hpp:77] Creating layer inception_4a/3x3
I0403 15:44:22.095203 12444 net.cpp:91] Creating Layer inception_4a/3x3
I0403 15:44:22.095221 12444 net.cpp:425] inception_4a/3x3 <- inception_4a/3x3_reduce
I0403 15:44:22.095242 12444 net.cpp:399] inception_4a/3x3 -> inception_4a/3x3
I0403 15:44:22.098001 12444 net.cpp:141] Setting up inception_4a/3x3
I0403 15:44:22.098039 12444 net.cpp:148] Top shape: 24 208 14 14 (978432)
I0403 15:44:22.098054 12444 net.cpp:156] Memory required for data: 869149728
I0403 15:44:22.098073 12444 layer_factory.hpp:77] Creating layer inception_4a/relu_3x3
I0403 15:44:22.098093 12444 net.cpp:91] Creating Layer inception_4a/relu_3x3
I0403 15:44:22.098110 12444 net.cpp:425] inception_4a/relu_3x3 <- inception_4a/3x3
I0403 15:44:22.098127 12444 net.cpp:386] inception_4a/relu_3x3 -> inception_4a/3x3 (in-place)
I0403 15:44:22.098414 12444 net.cpp:141] Setting up inception_4a/relu_3x3
I0403 15:44:22.098441 12444 net.cpp:148] Top shape: 24 208 14 14 (978432)
I0403 15:44:22.098455 12444 net.cpp:156] Memory required for data: 873063456
I0403 15:44:22.098470 12444 layer_factory.hpp:77] Creating layer inception_4a/5x5_reduce
I0403 15:44:22.098492 12444 net.cpp:91] Creating Layer inception_4a/5x5_reduce
I0403 15:44:22.098510 12444 net.cpp:425] inception_4a/5x5_reduce <- pool3/3x3_s2_pool3/3x3_s2_0_split_2
I0403 15:44:22.098531 12444 net.cpp:399] inception_4a/5x5_reduce -> inception_4a/5x5_reduce
I0403 15:44:22.099572 12444 net.cpp:141] Setting up inception_4a/5x5_reduce
I0403 15:44:22.099599 12444 net.cpp:148] Top shape: 24 16 14 14 (75264)
I0403 15:44:22.099614 12444 net.cpp:156] Memory required for data: 873364512
I0403 15:44:22.099632 12444 layer_factory.hpp:77] Creating layer inception_4a/relu_5x5_reduce
I0403 15:44:22.099652 12444 net.cpp:91] Creating Layer inception_4a/relu_5x5_reduce
I0403 15:44:22.099668 12444 net.cpp:425] inception_4a/relu_5x5_reduce <- inception_4a/5x5_reduce
I0403 15:44:22.099686 12444 net.cpp:386] inception_4a/relu_5x5_reduce -> inception_4a/5x5_reduce (in-place)
I0403 15:44:22.099860 12444 net.cpp:141] Setting up inception_4a/relu_5x5_reduce
I0403 15:44:22.099884 12444 net.cpp:148] Top shape: 24 16 14 14 (75264)
I0403 15:44:22.099900 12444 net.cpp:156] Memory required for data: 873665568
I0403 15:44:22.099913 12444 layer_factory.hpp:77] Creating layer inception_4a/5x5
I0403 15:44:22.099936 12444 net.cpp:91] Creating Layer inception_4a/5x5
I0403 15:44:22.099953 12444 net.cpp:425] inception_4a/5x5 <- inception_4a/5x5_reduce
I0403 15:44:22.099974 12444 net.cpp:399] inception_4a/5x5 -> inception_4a/5x5
I0403 15:44:22.101040 12444 net.cpp:141] Setting up inception_4a/5x5
I0403 15:44:22.101073 12444 net.cpp:148] Top shape: 24 48 14 14 (225792)
I0403 15:44:22.101089 12444 net.cpp:156] Memory required for data: 874568736
I0403 15:44:22.101109 12444 layer_factory.hpp:77] Creating layer inception_4a/relu_5x5
I0403 15:44:22.101126 12444 net.cpp:91] Creating Layer inception_4a/relu_5x5
I0403 15:44:22.101142 12444 net.cpp:425] inception_4a/relu_5x5 <- inception_4a/5x5
I0403 15:44:22.101161 12444 net.cpp:386] inception_4a/relu_5x5 -> inception_4a/5x5 (in-place)
I0403 15:44:22.101339 12444 net.cpp:141] Setting up inception_4a/relu_5x5
I0403 15:44:22.101363 12444 net.cpp:148] Top shape: 24 48 14 14 (225792)
I0403 15:44:22.101378 12444 net.cpp:156] Memory required for data: 875471904
I0403 15:44:22.101393 12444 layer_factory.hpp:77] Creating layer inception_4a/pool
I0403 15:44:22.101410 12444 net.cpp:91] Creating Layer inception_4a/pool
I0403 15:44:22.101426 12444 net.cpp:425] inception_4a/pool <- pool3/3x3_s2_pool3/3x3_s2_0_split_3
I0403 15:44:22.101446 12444 net.cpp:399] inception_4a/pool -> inception_4a/pool
I0403 15:44:22.101507 12444 net.cpp:141] Setting up inception_4a/pool
I0403 15:44:22.101531 12444 net.cpp:148] Top shape: 24 480 14 14 (2257920)
I0403 15:44:22.101547 12444 net.cpp:156] Memory required for data: 884503584
I0403 15:44:22.101560 12444 layer_factory.hpp:77] Creating layer inception_4a/pool_proj
I0403 15:44:22.101583 12444 net.cpp:91] Creating Layer inception_4a/pool_proj
I0403 15:44:22.101599 12444 net.cpp:425] inception_4a/pool_proj <- inception_4a/pool
I0403 15:44:22.101619 12444 net.cpp:399] inception_4a/pool_proj -> inception_4a/pool_proj
I0403 15:44:22.102792 12444 net.cpp:141] Setting up inception_4a/pool_proj
I0403 15:44:22.102821 12444 net.cpp:148] Top shape: 24 64 14 14 (301056)
I0403 15:44:22.102852 12444 net.cpp:156] Memory required for data: 885707808
I0403 15:44:22.102872 12444 layer_factory.hpp:77] Creating layer inception_4a/relu_pool_proj
I0403 15:44:22.102905 12444 net.cpp:91] Creating Layer inception_4a/relu_pool_proj
I0403 15:44:22.102922 12444 net.cpp:425] inception_4a/relu_pool_proj <- inception_4a/pool_proj
I0403 15:44:22.102941 12444 net.cpp:386] inception_4a/relu_pool_proj -> inception_4a/pool_proj (in-place)
I0403 15:44:22.103219 12444 net.cpp:141] Setting up inception_4a/relu_pool_proj
I0403 15:44:22.103245 12444 net.cpp:148] Top shape: 24 64 14 14 (301056)
I0403 15:44:22.103260 12444 net.cpp:156] Memory required for data: 886912032
I0403 15:44:22.103274 12444 layer_factory.hpp:77] Creating layer inception_4a/output
I0403 15:44:22.103291 12444 net.cpp:91] Creating Layer inception_4a/output
I0403 15:44:22.103307 12444 net.cpp:425] inception_4a/output <- inception_4a/1x1
I0403 15:44:22.103334 12444 net.cpp:425] inception_4a/output <- inception_4a/3x3
I0403 15:44:22.103353 12444 net.cpp:425] inception_4a/output <- inception_4a/5x5
I0403 15:44:22.103368 12444 net.cpp:425] inception_4a/output <- inception_4a/pool_proj
I0403 15:44:22.103389 12444 net.cpp:399] inception_4a/output -> inception_4a/output
I0403 15:44:22.103433 12444 net.cpp:141] Setting up inception_4a/output
I0403 15:44:22.103458 12444 net.cpp:148] Top shape: 24 512 14 14 (2408448)
I0403 15:44:22.103477 12444 net.cpp:156] Memory required for data: 896545824
I0403 15:44:22.103492 12444 layer_factory.hpp:77] Creating layer inception_4a/output_inception_4a/output_0_split
I0403 15:44:22.103509 12444 net.cpp:91] Creating Layer inception_4a/output_inception_4a/output_0_split
I0403 15:44:22.103525 12444 net.cpp:425] inception_4a/output_inception_4a/output_0_split <- inception_4a/output
I0403 15:44:22.103544 12444 net.cpp:399] inception_4a/output_inception_4a/output_0_split -> inception_4a/output_inception_4a/output_0_split_0
I0403 15:44:22.103566 12444 net.cpp:399] inception_4a/output_inception_4a/output_0_split -> inception_4a/output_inception_4a/output_0_split_1
I0403 15:44:22.103586 12444 net.cpp:399] inception_4a/output_inception_4a/output_0_split -> inception_4a/output_inception_4a/output_0_split_2
I0403 15:44:22.103606 12444 net.cpp:399] inception_4a/output_inception_4a/output_0_split -> inception_4a/output_inception_4a/output_0_split_3
I0403 15:44:22.103626 12444 net.cpp:399] inception_4a/output_inception_4a/output_0_split -> inception_4a/output_inception_4a/output_0_split_4
I0403 15:44:22.103720 12444 net.cpp:141] Setting up inception_4a/output_inception_4a/output_0_split
I0403 15:44:22.103744 12444 net.cpp:148] Top shape: 24 512 14 14 (2408448)
I0403 15:44:22.103760 12444 net.cpp:148] Top shape: 24 512 14 14 (2408448)
I0403 15:44:22.103775 12444 net.cpp:148] Top shape: 24 512 14 14 (2408448)
I0403 15:44:22.103790 12444 net.cpp:148] Top shape: 24 512 14 14 (2408448)
I0403 15:44:22.103804 12444 net.cpp:148] Top shape: 24 512 14 14 (2408448)
I0403 15:44:22.103817 12444 net.cpp:156] Memory required for data: 944714784
I0403 15:44:22.103832 12444 layer_factory.hpp:77] Creating layer loss1/ave_pool
I0403 15:44:22.103852 12444 net.cpp:91] Creating Layer loss1/ave_pool
I0403 15:44:22.103869 12444 net.cpp:425] loss1/ave_pool <- inception_4a/output_inception_4a/output_0_split_0
I0403 15:44:22.103886 12444 net.cpp:399] loss1/ave_pool -> loss1/ave_pool
I0403 15:44:22.104087 12444 net.cpp:141] Setting up loss1/ave_pool
I0403 15:44:22.104112 12444 net.cpp:148] Top shape: 24 512 4 4 (196608)
I0403 15:44:22.104128 12444 net.cpp:156] Memory required for data: 945501216
I0403 15:44:22.104142 12444 layer_factory.hpp:77] Creating layer loss1/conv
I0403 15:44:22.104166 12444 net.cpp:91] Creating Layer loss1/conv
I0403 15:44:22.104182 12444 net.cpp:425] loss1/conv <- loss1/ave_pool
I0403 15:44:22.104202 12444 net.cpp:399] loss1/conv -> loss1/conv
I0403 15:44:22.105589 12444 net.cpp:141] Setting up loss1/conv
I0403 15:44:22.105618 12444 net.cpp:148] Top shape: 24 128 4 4 (49152)
I0403 15:44:22.105646 12444 net.cpp:156] Memory required for data: 945697824
I0403 15:44:22.105665 12444 layer_factory.hpp:77] Creating layer loss1/relu_conv
I0403 15:44:22.105685 12444 net.cpp:91] Creating Layer loss1/relu_conv
I0403 15:44:22.105702 12444 net.cpp:425] loss1/relu_conv <- loss1/conv
I0403 15:44:22.105720 12444 net.cpp:386] loss1/relu_conv -> loss1/conv (in-place)
I0403 15:44:22.105996 12444 net.cpp:141] Setting up loss1/relu_conv
I0403 15:44:22.106022 12444 net.cpp:148] Top shape: 24 128 4 4 (49152)
I0403 15:44:22.106037 12444 net.cpp:156] Memory required for data: 945894432
I0403 15:44:22.106053 12444 layer_factory.hpp:77] Creating layer loss1/fc
I0403 15:44:22.106078 12444 net.cpp:91] Creating Layer loss1/fc
I0403 15:44:22.106097 12444 net.cpp:425] loss1/fc <- loss1/conv
I0403 15:44:22.106117 12444 net.cpp:399] loss1/fc -> loss1/fc
I0403 15:44:22.124650 12444 net.cpp:141] Setting up loss1/fc
I0403 15:44:22.124686 12444 net.cpp:148] Top shape: 24 1024 (24576)
I0403 15:44:22.124701 12444 net.cpp:156] Memory required for data: 945992736
I0403 15:44:22.124722 12444 layer_factory.hpp:77] Creating layer loss1/relu_fc
I0403 15:44:22.124740 12444 net.cpp:91] Creating Layer loss1/relu_fc
I0403 15:44:22.124757 12444 net.cpp:425] loss1/relu_fc <- loss1/fc
I0403 15:44:22.124779 12444 net.cpp:386] loss1/relu_fc -> loss1/fc (in-place)
I0403 15:44:22.124974 12444 net.cpp:141] Setting up loss1/relu_fc
I0403 15:44:22.124999 12444 net.cpp:148] Top shape: 24 1024 (24576)
I0403 15:44:22.125013 12444 net.cpp:156] Memory required for data: 946091040
I0403 15:44:22.125028 12444 layer_factory.hpp:77] Creating layer loss1/drop_fc
I0403 15:44:22.125056 12444 net.cpp:91] Creating Layer loss1/drop_fc
I0403 15:44:22.125074 12444 net.cpp:425] loss1/drop_fc <- loss1/fc
I0403 15:44:22.125092 12444 net.cpp:386] loss1/drop_fc -> loss1/fc (in-place)
I0403 15:44:22.125144 12444 net.cpp:141] Setting up loss1/drop_fc
I0403 15:44:22.125171 12444 net.cpp:148] Top shape: 24 1024 (24576)
I0403 15:44:22.125186 12444 net.cpp:156] Memory required for data: 946189344
I0403 15:44:22.125201 12444 layer_factory.hpp:77] Creating layer loss1/classifier_plantvillage
I0403 15:44:22.125219 12444 net.cpp:91] Creating Layer loss1/classifier_plantvillage
I0403 15:44:22.125236 12444 net.cpp:425] loss1/classifier_plantvillage <- loss1/fc
I0403 15:44:22.125257 12444 net.cpp:399] loss1/classifier_plantvillage -> loss1/classifier_plantvillage
I0403 15:44:22.126214 12444 net.cpp:141] Setting up loss1/classifier_plantvillage
I0403 15:44:22.126241 12444 net.cpp:148] Top shape: 24 38 (912)
I0403 15:44:22.126258 12444 net.cpp:156] Memory required for data: 946192992
I0403 15:44:22.126276 12444 layer_factory.hpp:77] Creating layer loss1/classifier_plantvillage_loss1/classifier_plantvillage_0_split
I0403 15:44:22.126294 12444 net.cpp:91] Creating Layer loss1/classifier_plantvillage_loss1/classifier_plantvillage_0_split
I0403 15:44:22.126310 12444 net.cpp:425] loss1/classifier_plantvillage_loss1/classifier_plantvillage_0_split <- loss1/classifier_plantvillage
I0403 15:44:22.126338 12444 net.cpp:399] loss1/classifier_plantvillage_loss1/classifier_plantvillage_0_split -> loss1/classifier_plantvillage_loss1/classifier_plantvillage_0_split_0
I0403 15:44:22.126361 12444 net.cpp:399] loss1/classifier_plantvillage_loss1/classifier_plantvillage_0_split -> loss1/classifier_plantvillage_loss1/classifier_plantvillage_0_split_1
I0403 15:44:22.126381 12444 net.cpp:399] loss1/classifier_plantvillage_loss1/classifier_plantvillage_0_split -> loss1/classifier_plantvillage_loss1/classifier_plantvillage_0_split_2
I0403 15:44:22.126464 12444 net.cpp:141] Setting up loss1/classifier_plantvillage_loss1/classifier_plantvillage_0_split
I0403 15:44:22.126488 12444 net.cpp:148] Top shape: 24 38 (912)
I0403 15:44:22.126505 12444 net.cpp:148] Top shape: 24 38 (912)
I0403 15:44:22.126521 12444 net.cpp:148] Top shape: 24 38 (912)
I0403 15:44:22.126535 12444 net.cpp:156] Memory required for data: 946203936
I0403 15:44:22.126550 12444 layer_factory.hpp:77] Creating layer inception_4b/1x1
I0403 15:44:22.126575 12444 net.cpp:91] Creating Layer inception_4b/1x1
I0403 15:44:22.126611 12444 net.cpp:425] inception_4b/1x1 <- inception_4a/output_inception_4a/output_0_split_1
I0403 15:44:22.126631 12444 net.cpp:399] inception_4b/1x1 -> inception_4b/1x1
I0403 15:44:22.128306 12444 net.cpp:141] Setting up inception_4b/1x1
I0403 15:44:22.128340 12444 net.cpp:148] Top shape: 24 160 14 14 (752640)
I0403 15:44:22.128357 12444 net.cpp:156] Memory required for data: 949214496
I0403 15:44:22.128376 12444 layer_factory.hpp:77] Creating layer inception_4b/relu_1x1
I0403 15:44:22.128397 12444 net.cpp:91] Creating Layer inception_4b/relu_1x1
I0403 15:44:22.128413 12444 net.cpp:425] inception_4b/relu_1x1 <- inception_4b/1x1
I0403 15:44:22.128430 12444 net.cpp:386] inception_4b/relu_1x1 -> inception_4b/1x1 (in-place)
I0403 15:44:22.128608 12444 net.cpp:141] Setting up inception_4b/relu_1x1
I0403 15:44:22.128635 12444 net.cpp:148] Top shape: 24 160 14 14 (752640)
I0403 15:44:22.128649 12444 net.cpp:156] Memory required for data: 952225056
I0403 15:44:22.128664 12444 layer_factory.hpp:77] Creating layer inception_4b/3x3_reduce
I0403 15:44:22.128687 12444 net.cpp:91] Creating Layer inception_4b/3x3_reduce
I0403 15:44:22.128705 12444 net.cpp:425] inception_4b/3x3_reduce <- inception_4a/output_inception_4a/output_0_split_2
I0403 15:44:22.128726 12444 net.cpp:399] inception_4b/3x3_reduce -> inception_4b/3x3_reduce
I0403 15:44:22.130059 12444 net.cpp:141] Setting up inception_4b/3x3_reduce
I0403 15:44:22.130089 12444 net.cpp:148] Top shape: 24 112 14 14 (526848)
I0403 15:44:22.130106 12444 net.cpp:156] Memory required for data: 954332448
I0403 15:44:22.130125 12444 layer_factory.hpp:77] Creating layer inception_4b/relu_3x3_reduce
I0403 15:44:22.130141 12444 net.cpp:91] Creating Layer inception_4b/relu_3x3_reduce
I0403 15:44:22.130157 12444 net.cpp:425] inception_4b/relu_3x3_reduce <- inception_4b/3x3_reduce
I0403 15:44:22.130174 12444 net.cpp:386] inception_4b/relu_3x3_reduce -> inception_4b/3x3_reduce (in-place)
I0403 15:44:22.130455 12444 net.cpp:141] Setting up inception_4b/relu_3x3_reduce
I0403 15:44:22.130483 12444 net.cpp:148] Top shape: 24 112 14 14 (526848)
I0403 15:44:22.130499 12444 net.cpp:156] Memory required for data: 956439840
I0403 15:44:22.130514 12444 layer_factory.hpp:77] Creating layer inception_4b/3x3
I0403 15:44:22.130537 12444 net.cpp:91] Creating Layer inception_4b/3x3
I0403 15:44:22.130554 12444 net.cpp:425] inception_4b/3x3 <- inception_4b/3x3_reduce
I0403 15:44:22.130573 12444 net.cpp:399] inception_4b/3x3 -> inception_4b/3x3
I0403 15:44:22.133581 12444 net.cpp:141] Setting up inception_4b/3x3
I0403 15:44:22.133610 12444 net.cpp:148] Top shape: 24 224 14 14 (1053696)
I0403 15:44:22.133626 12444 net.cpp:156] Memory required for data: 960654624
I0403 15:44:22.133644 12444 layer_factory.hpp:77] Creating layer inception_4b/relu_3x3
I0403 15:44:22.133662 12444 net.cpp:91] Creating Layer inception_4b/relu_3x3
I0403 15:44:22.133678 12444 net.cpp:425] inception_4b/relu_3x3 <- inception_4b/3x3
I0403 15:44:22.133697 12444 net.cpp:386] inception_4b/relu_3x3 -> inception_4b/3x3 (in-place)
I0403 15:44:22.133875 12444 net.cpp:141] Setting up inception_4b/relu_3x3
I0403 15:44:22.133899 12444 net.cpp:148] Top shape: 24 224 14 14 (1053696)
I0403 15:44:22.133914 12444 net.cpp:156] Memory required for data: 964869408
I0403 15:44:22.133929 12444 layer_factory.hpp:77] Creating layer inception_4b/5x5_reduce
I0403 15:44:22.133951 12444 net.cpp:91] Creating Layer inception_4b/5x5_reduce
I0403 15:44:22.133968 12444 net.cpp:425] inception_4b/5x5_reduce <- inception_4a/output_inception_4a/output_0_split_3
I0403 15:44:22.133991 12444 net.cpp:399] inception_4b/5x5_reduce -> inception_4b/5x5_reduce
I0403 15:44:22.135058 12444 net.cpp:141] Setting up inception_4b/5x5_reduce
I0403 15:44:22.135088 12444 net.cpp:148] Top shape: 24 24 14 14 (112896)
I0403 15:44:22.135104 12444 net.cpp:156] Memory required for data: 965320992
I0403 15:44:22.135124 12444 layer_factory.hpp:77] Creating layer inception_4b/relu_5x5_reduce
I0403 15:44:22.135143 12444 net.cpp:91] Creating Layer inception_4b/relu_5x5_reduce
I0403 15:44:22.135174 12444 net.cpp:425] inception_4b/relu_5x5_reduce <- inception_4b/5x5_reduce
I0403 15:44:22.135191 12444 net.cpp:386] inception_4b/relu_5x5_reduce -> inception_4b/5x5_reduce (in-place)
I0403 15:44:22.135376 12444 net.cpp:141] Setting up inception_4b/relu_5x5_reduce
I0403 15:44:22.135402 12444 net.cpp:148] Top shape: 24 24 14 14 (112896)
I0403 15:44:22.135416 12444 net.cpp:156] Memory required for data: 965772576
I0403 15:44:22.135432 12444 layer_factory.hpp:77] Creating layer inception_4b/5x5
I0403 15:44:22.135453 12444 net.cpp:91] Creating Layer inception_4b/5x5
I0403 15:44:22.135471 12444 net.cpp:425] inception_4b/5x5 <- inception_4b/5x5_reduce
I0403 15:44:22.135491 12444 net.cpp:399] inception_4b/5x5 -> inception_4b/5x5
I0403 15:44:22.136693 12444 net.cpp:141] Setting up inception_4b/5x5
I0403 15:44:22.136720 12444 net.cpp:148] Top shape: 24 64 14 14 (301056)
I0403 15:44:22.136736 12444 net.cpp:156] Memory required for data: 966976800
I0403 15:44:22.136754 12444 layer_factory.hpp:77] Creating layer inception_4b/relu_5x5
I0403 15:44:22.136777 12444 net.cpp:91] Creating Layer inception_4b/relu_5x5
I0403 15:44:22.136795 12444 net.cpp:425] inception_4b/relu_5x5 <- inception_4b/5x5
I0403 15:44:22.136812 12444 net.cpp:386] inception_4b/relu_5x5 -> inception_4b/5x5 (in-place)
I0403 15:44:22.137094 12444 net.cpp:141] Setting up inception_4b/relu_5x5
I0403 15:44:22.137120 12444 net.cpp:148] Top shape: 24 64 14 14 (301056)
I0403 15:44:22.137135 12444 net.cpp:156] Memory required for data: 968181024
I0403 15:44:22.137151 12444 layer_factory.hpp:77] Creating layer inception_4b/pool
I0403 15:44:22.137172 12444 net.cpp:91] Creating Layer inception_4b/pool
I0403 15:44:22.137190 12444 net.cpp:425] inception_4b/pool <- inception_4a/output_inception_4a/output_0_split_4
I0403 15:44:22.137207 12444 net.cpp:399] inception_4b/pool -> inception_4b/pool
I0403 15:44:22.137271 12444 net.cpp:141] Setting up inception_4b/pool
I0403 15:44:22.137295 12444 net.cpp:148] Top shape: 24 512 14 14 (2408448)
I0403 15:44:22.137310 12444 net.cpp:156] Memory required for data: 977814816
I0403 15:44:22.137331 12444 layer_factory.hpp:77] Creating layer inception_4b/pool_proj
I0403 15:44:22.137353 12444 net.cpp:91] Creating Layer inception_4b/pool_proj
I0403 15:44:22.137370 12444 net.cpp:425] inception_4b/pool_proj <- inception_4b/pool
I0403 15:44:22.137393 12444 net.cpp:399] inception_4b/pool_proj -> inception_4b/pool_proj
I0403 15:44:22.138591 12444 net.cpp:141] Setting up inception_4b/pool_proj
I0403 15:44:22.138617 12444 net.cpp:148] Top shape: 24 64 14 14 (301056)
I0403 15:44:22.138633 12444 net.cpp:156] Memory required for data: 979019040
I0403 15:44:22.138651 12444 layer_factory.hpp:77] Creating layer inception_4b/relu_pool_proj
I0403 15:44:22.138671 12444 net.cpp:91] Creating Layer inception_4b/relu_pool_proj
I0403 15:44:22.138687 12444 net.cpp:425] inception_4b/relu_pool_proj <- inception_4b/pool_proj
I0403 15:44:22.138705 12444 net.cpp:386] inception_4b/relu_pool_proj -> inception_4b/pool_proj (in-place)
I0403 15:44:22.138885 12444 net.cpp:141] Setting up inception_4b/relu_pool_proj
I0403 15:44:22.138909 12444 net.cpp:148] Top shape: 24 64 14 14 (301056)
I0403 15:44:22.138923 12444 net.cpp:156] Memory required for data: 980223264
I0403 15:44:22.138938 12444 layer_factory.hpp:77] Creating layer inception_4b/output
I0403 15:44:22.138955 12444 net.cpp:91] Creating Layer inception_4b/output
I0403 15:44:22.138969 12444 net.cpp:425] inception_4b/output <- inception_4b/1x1
I0403 15:44:22.138985 12444 net.cpp:425] inception_4b/output <- inception_4b/3x3
I0403 15:44:22.139001 12444 net.cpp:425] inception_4b/output <- inception_4b/5x5
I0403 15:44:22.139017 12444 net.cpp:425] inception_4b/output <- inception_4b/pool_proj
I0403 15:44:22.139036 12444 net.cpp:399] inception_4b/output -> inception_4b/output
I0403 15:44:22.139081 12444 net.cpp:141] Setting up inception_4b/output
I0403 15:44:22.139106 12444 net.cpp:148] Top shape: 24 512 14 14 (2408448)
I0403 15:44:22.139122 12444 net.cpp:156] Memory required for data: 989857056
I0403 15:44:22.139150 12444 layer_factory.hpp:77] Creating layer inception_4b/output_inception_4b/output_0_split
I0403 15:44:22.139168 12444 net.cpp:91] Creating Layer inception_4b/output_inception_4b/output_0_split
I0403 15:44:22.139183 12444 net.cpp:425] inception_4b/output_inception_4b/output_0_split <- inception_4b/output
I0403 15:44:22.139200 12444 net.cpp:399] inception_4b/output_inception_4b/output_0_split -> inception_4b/output_inception_4b/output_0_split_0
I0403 15:44:22.139220 12444 net.cpp:399] inception_4b/output_inception_4b/output_0_split -> inception_4b/output_inception_4b/output_0_split_1
I0403 15:44:22.139243 12444 net.cpp:399] inception_4b/output_inception_4b/output_0_split -> inception_4b/output_inception_4b/output_0_split_2
I0403 15:44:22.139264 12444 net.cpp:399] inception_4b/output_inception_4b/output_0_split -> inception_4b/output_inception_4b/output_0_split_3
I0403 15:44:22.139356 12444 net.cpp:141] Setting up inception_4b/output_inception_4b/output_0_split
I0403 15:44:22.139379 12444 net.cpp:148] Top shape: 24 512 14 14 (2408448)
I0403 15:44:22.139395 12444 net.cpp:148] Top shape: 24 512 14 14 (2408448)
I0403 15:44:22.139410 12444 net.cpp:148] Top shape: 24 512 14 14 (2408448)
I0403 15:44:22.139425 12444 net.cpp:148] Top shape: 24 512 14 14 (2408448)
I0403 15:44:22.139438 12444 net.cpp:156] Memory required for data: 1028392224
I0403 15:44:22.139452 12444 layer_factory.hpp:77] Creating layer inception_4c/1x1
I0403 15:44:22.139474 12444 net.cpp:91] Creating Layer inception_4c/1x1
I0403 15:44:22.139492 12444 net.cpp:425] inception_4c/1x1 <- inception_4b/output_inception_4b/output_0_split_0
I0403 15:44:22.139513 12444 net.cpp:399] inception_4c/1x1 -> inception_4c/1x1
I0403 15:44:22.140938 12444 net.cpp:141] Setting up inception_4c/1x1
I0403 15:44:22.140965 12444 net.cpp:148] Top shape: 24 128 14 14 (602112)
I0403 15:44:22.140981 12444 net.cpp:156] Memory required for data: 1030800672
I0403 15:44:22.140998 12444 layer_factory.hpp:77] Creating layer inception_4c/relu_1x1
I0403 15:44:22.141017 12444 net.cpp:91] Creating Layer inception_4c/relu_1x1
I0403 15:44:22.141033 12444 net.cpp:425] inception_4c/relu_1x1 <- inception_4c/1x1
I0403 15:44:22.141052 12444 net.cpp:386] inception_4c/relu_1x1 -> inception_4c/1x1 (in-place)
I0403 15:44:22.141229 12444 net.cpp:141] Setting up inception_4c/relu_1x1
I0403 15:44:22.141254 12444 net.cpp:148] Top shape: 24 128 14 14 (602112)
I0403 15:44:22.141268 12444 net.cpp:156] Memory required for data: 1033209120
I0403 15:44:22.141283 12444 layer_factory.hpp:77] Creating layer inception_4c/3x3_reduce
I0403 15:44:22.141305 12444 net.cpp:91] Creating Layer inception_4c/3x3_reduce
I0403 15:44:22.141327 12444 net.cpp:425] inception_4c/3x3_reduce <- inception_4b/output_inception_4b/output_0_split_1
I0403 15:44:22.141351 12444 net.cpp:399] inception_4c/3x3_reduce -> inception_4c/3x3_reduce
I0403 15:44:22.143314 12444 net.cpp:141] Setting up inception_4c/3x3_reduce
I0403 15:44:22.143352 12444 net.cpp:148] Top shape: 24 128 14 14 (602112)
I0403 15:44:22.143368 12444 net.cpp:156] Memory required for data: 1035617568
I0403 15:44:22.143386 12444 layer_factory.hpp:77] Creating layer inception_4c/relu_3x3_reduce
I0403 15:44:22.143406 12444 net.cpp:91] Creating Layer inception_4c/relu_3x3_reduce
I0403 15:44:22.143424 12444 net.cpp:425] inception_4c/relu_3x3_reduce <- inception_4c/3x3_reduce
I0403 15:44:22.143440 12444 net.cpp:386] inception_4c/relu_3x3_reduce -> inception_4c/3x3_reduce (in-place)
I0403 15:44:22.143723 12444 net.cpp:141] Setting up inception_4c/relu_3x3_reduce
I0403 15:44:22.143749 12444 net.cpp:148] Top shape: 24 128 14 14 (602112)
I0403 15:44:22.143764 12444 net.cpp:156] Memory required for data: 1038026016
I0403 15:44:22.143779 12444 layer_factory.hpp:77] Creating layer inception_4c/3x3
I0403 15:44:22.143800 12444 net.cpp:91] Creating Layer inception_4c/3x3
I0403 15:44:22.143818 12444 net.cpp:425] inception_4c/3x3 <- inception_4c/3x3_reduce
I0403 15:44:22.143839 12444 net.cpp:399] inception_4c/3x3 -> inception_4c/3x3
I0403 15:44:22.147433 12444 net.cpp:141] Setting up inception_4c/3x3
I0403 15:44:22.147475 12444 net.cpp:148] Top shape: 24 256 14 14 (1204224)
I0403 15:44:22.147490 12444 net.cpp:156] Memory required for data: 1042842912
I0403 15:44:22.147521 12444 layer_factory.hpp:77] Creating layer inception_4c/relu_3x3
I0403 15:44:22.147544 12444 net.cpp:91] Creating Layer inception_4c/relu_3x3
I0403 15:44:22.147560 12444 net.cpp:425] inception_4c/relu_3x3 <- inception_4c/3x3
I0403 15:44:22.147578 12444 net.cpp:386] inception_4c/relu_3x3 -> inception_4c/3x3 (in-place)
I0403 15:44:22.147759 12444 net.cpp:141] Setting up inception_4c/relu_3x3
I0403 15:44:22.147786 12444 net.cpp:148] Top shape: 24 256 14 14 (1204224)
I0403 15:44:22.147802 12444 net.cpp:156] Memory required for data: 1047659808
I0403 15:44:22.147817 12444 layer_factory.hpp:77] Creating layer inception_4c/5x5_reduce
I0403 15:44:22.147840 12444 net.cpp:91] Creating Layer inception_4c/5x5_reduce
I0403 15:44:22.147857 12444 net.cpp:425] inception_4c/5x5_reduce <- inception_4b/output_inception_4b/output_0_split_2
I0403 15:44:22.147877 12444 net.cpp:399] inception_4c/5x5_reduce -> inception_4c/5x5_reduce
I0403 15:44:22.148952 12444 net.cpp:141] Setting up inception_4c/5x5_reduce
I0403 15:44:22.148982 12444 net.cpp:148] Top shape: 24 24 14 14 (112896)
I0403 15:44:22.148998 12444 net.cpp:156] Memory required for data: 1048111392
I0403 15:44:22.149016 12444 layer_factory.hpp:77] Creating layer inception_4c/relu_5x5_reduce
I0403 15:44:22.149034 12444 net.cpp:91] Creating Layer inception_4c/relu_5x5_reduce
I0403 15:44:22.149049 12444 net.cpp:425] inception_4c/relu_5x5_reduce <- inception_4c/5x5_reduce
I0403 15:44:22.149066 12444 net.cpp:386] inception_4c/relu_5x5_reduce -> inception_4c/5x5_reduce (in-place)
I0403 15:44:22.149247 12444 net.cpp:141] Setting up inception_4c/relu_5x5_reduce
I0403 15:44:22.149274 12444 net.cpp:148] Top shape: 24 24 14 14 (112896)
I0403 15:44:22.149289 12444 net.cpp:156] Memory required for data: 1048562976
I0403 15:44:22.149304 12444 layer_factory.hpp:77] Creating layer inception_4c/5x5
I0403 15:44:22.149330 12444 net.cpp:91] Creating Layer inception_4c/5x5
I0403 15:44:22.149348 12444 net.cpp:425] inception_4c/5x5 <- inception_4c/5x5_reduce
I0403 15:44:22.149369 12444 net.cpp:399] inception_4c/5x5 -> inception_4c/5x5
I0403 15:44:22.150598 12444 net.cpp:141] Setting up inception_4c/5x5
I0403 15:44:22.150624 12444 net.cpp:148] Top shape: 24 64 14 14 (301056)
I0403 15:44:22.150640 12444 net.cpp:156] Memory required for data: 1049767200
I0403 15:44:22.150657 12444 layer_factory.hpp:77] Creating layer inception_4c/relu_5x5
I0403 15:44:22.150676 12444 net.cpp:91] Creating Layer inception_4c/relu_5x5
I0403 15:44:22.150691 12444 net.cpp:425] inception_4c/relu_5x5 <- inception_4c/5x5
I0403 15:44:22.150712 12444 net.cpp:386] inception_4c/relu_5x5 -> inception_4c/5x5 (in-place)
I0403 15:44:22.151000 12444 net.cpp:141] Setting up inception_4c/relu_5x5
I0403 15:44:22.151026 12444 net.cpp:148] Top shape: 24 64 14 14 (301056)
I0403 15:44:22.151041 12444 net.cpp:156] Memory required for data: 1050971424
I0403 15:44:22.151056 12444 layer_factory.hpp:77] Creating layer inception_4c/pool
I0403 15:44:22.151072 12444 net.cpp:91] Creating Layer inception_4c/pool
I0403 15:44:22.151088 12444 net.cpp:425] inception_4c/pool <- inception_4b/output_inception_4b/output_0_split_3
I0403 15:44:22.151108 12444 net.cpp:399] inception_4c/pool -> inception_4c/pool
I0403 15:44:22.151173 12444 net.cpp:141] Setting up inception_4c/pool
I0403 15:44:22.151197 12444 net.cpp:148] Top shape: 24 512 14 14 (2408448)
I0403 15:44:22.151212 12444 net.cpp:156] Memory required for data: 1060605216
I0403 15:44:22.151226 12444 layer_factory.hpp:77] Creating layer inception_4c/pool_proj
I0403 15:44:22.151250 12444 net.cpp:91] Creating Layer inception_4c/pool_proj
I0403 15:44:22.151268 12444 net.cpp:425] inception_4c/pool_proj <- inception_4c/pool
I0403 15:44:22.151286 12444 net.cpp:399] inception_4c/pool_proj -> inception_4c/pool_proj
I0403 15:44:22.152506 12444 net.cpp:141] Setting up inception_4c/pool_proj
I0403 15:44:22.152534 12444 net.cpp:148] Top shape: 24 64 14 14 (301056)
I0403 15:44:22.152566 12444 net.cpp:156] Memory required for data: 1061809440
I0403 15:44:22.152586 12444 layer_factory.hpp:77] Creating layer inception_4c/relu_pool_proj
I0403 15:44:22.152606 12444 net.cpp:91] Creating Layer inception_4c/relu_pool_proj
I0403 15:44:22.152623 12444 net.cpp:425] inception_4c/relu_pool_proj <- inception_4c/pool_proj
I0403 15:44:22.152640 12444 net.cpp:386] inception_4c/relu_pool_proj -> inception_4c/pool_proj (in-place)
I0403 15:44:22.152822 12444 net.cpp:141] Setting up inception_4c/relu_pool_proj
I0403 15:44:22.152848 12444 net.cpp:148] Top shape: 24 64 14 14 (301056)
I0403 15:44:22.152861 12444 net.cpp:156] Memory required for data: 1063013664
I0403 15:44:22.152876 12444 layer_factory.hpp:77] Creating layer inception_4c/output
I0403 15:44:22.152894 12444 net.cpp:91] Creating Layer inception_4c/output
I0403 15:44:22.152909 12444 net.cpp:425] inception_4c/output <- inception_4c/1x1
I0403 15:44:22.152925 12444 net.cpp:425] inception_4c/output <- inception_4c/3x3
I0403 15:44:22.152941 12444 net.cpp:425] inception_4c/output <- inception_4c/5x5
I0403 15:44:22.152957 12444 net.cpp:425] inception_4c/output <- inception_4c/pool_proj
I0403 15:44:22.152976 12444 net.cpp:399] inception_4c/output -> inception_4c/output
I0403 15:44:22.153023 12444 net.cpp:141] Setting up inception_4c/output
I0403 15:44:22.153048 12444 net.cpp:148] Top shape: 24 512 14 14 (2408448)
I0403 15:44:22.153064 12444 net.cpp:156] Memory required for data: 1072647456
I0403 15:44:22.153077 12444 layer_factory.hpp:77] Creating layer inception_4c/output_inception_4c/output_0_split
I0403 15:44:22.153095 12444 net.cpp:91] Creating Layer inception_4c/output_inception_4c/output_0_split
I0403 15:44:22.153110 12444 net.cpp:425] inception_4c/output_inception_4c/output_0_split <- inception_4c/output
I0403 15:44:22.153126 12444 net.cpp:399] inception_4c/output_inception_4c/output_0_split -> inception_4c/output_inception_4c/output_0_split_0
I0403 15:44:22.153146 12444 net.cpp:399] inception_4c/output_inception_4c/output_0_split -> inception_4c/output_inception_4c/output_0_split_1
I0403 15:44:22.153164 12444 net.cpp:399] inception_4c/output_inception_4c/output_0_split -> inception_4c/output_inception_4c/output_0_split_2
I0403 15:44:22.153187 12444 net.cpp:399] inception_4c/output_inception_4c/output_0_split -> inception_4c/output_inception_4c/output_0_split_3
I0403 15:44:22.153273 12444 net.cpp:141] Setting up inception_4c/output_inception_4c/output_0_split
I0403 15:44:22.153296 12444 net.cpp:148] Top shape: 24 512 14 14 (2408448)
I0403 15:44:22.153312 12444 net.cpp:148] Top shape: 24 512 14 14 (2408448)
I0403 15:44:22.153339 12444 net.cpp:148] Top shape: 24 512 14 14 (2408448)
I0403 15:44:22.153357 12444 net.cpp:148] Top shape: 24 512 14 14 (2408448)
I0403 15:44:22.153370 12444 net.cpp:156] Memory required for data: 1111182624
I0403 15:44:22.153386 12444 layer_factory.hpp:77] Creating layer inception_4d/1x1
I0403 15:44:22.153409 12444 net.cpp:91] Creating Layer inception_4d/1x1
I0403 15:44:22.153425 12444 net.cpp:425] inception_4d/1x1 <- inception_4c/output_inception_4c/output_0_split_0
I0403 15:44:22.153446 12444 net.cpp:399] inception_4d/1x1 -> inception_4d/1x1
I0403 15:44:22.154826 12444 net.cpp:141] Setting up inception_4d/1x1
I0403 15:44:22.154853 12444 net.cpp:148] Top shape: 24 112 14 14 (526848)
I0403 15:44:22.154870 12444 net.cpp:156] Memory required for data: 1113290016
I0403 15:44:22.154886 12444 layer_factory.hpp:77] Creating layer inception_4d/relu_1x1
I0403 15:44:22.154906 12444 net.cpp:91] Creating Layer inception_4d/relu_1x1
I0403 15:44:22.154923 12444 net.cpp:425] inception_4d/relu_1x1 <- inception_4d/1x1
I0403 15:44:22.154940 12444 net.cpp:386] inception_4d/relu_1x1 -> inception_4d/1x1 (in-place)
I0403 15:44:22.155128 12444 net.cpp:141] Setting up inception_4d/relu_1x1
I0403 15:44:22.155155 12444 net.cpp:148] Top shape: 24 112 14 14 (526848)
I0403 15:44:22.155170 12444 net.cpp:156] Memory required for data: 1115397408
I0403 15:44:22.155185 12444 layer_factory.hpp:77] Creating layer inception_4d/3x3_reduce
I0403 15:44:22.155218 12444 net.cpp:91] Creating Layer inception_4d/3x3_reduce
I0403 15:44:22.155236 12444 net.cpp:425] inception_4d/3x3_reduce <- inception_4c/output_inception_4c/output_0_split_1
I0403 15:44:22.155257 12444 net.cpp:399] inception_4d/3x3_reduce -> inception_4d/3x3_reduce
I0403 15:44:22.156783 12444 net.cpp:141] Setting up inception_4d/3x3_reduce
I0403 15:44:22.156810 12444 net.cpp:148] Top shape: 24 144 14 14 (677376)
I0403 15:44:22.156826 12444 net.cpp:156] Memory required for data: 1118106912
I0403 15:44:22.156843 12444 layer_factory.hpp:77] Creating layer inception_4d/relu_3x3_reduce
I0403 15:44:22.156862 12444 net.cpp:91] Creating Layer inception_4d/relu_3x3_reduce
I0403 15:44:22.156877 12444 net.cpp:425] inception_4d/relu_3x3_reduce <- inception_4d/3x3_reduce
I0403 15:44:22.156898 12444 net.cpp:386] inception_4d/relu_3x3_reduce -> inception_4d/3x3_reduce (in-place)
I0403 15:44:22.157186 12444 net.cpp:141] Setting up inception_4d/relu_3x3_reduce
I0403 15:44:22.157212 12444 net.cpp:148] Top shape: 24 144 14 14 (677376)
I0403 15:44:22.157227 12444 net.cpp:156] Memory required for data: 1120816416
I0403 15:44:22.157243 12444 layer_factory.hpp:77] Creating layer inception_4d/3x3
I0403 15:44:22.157264 12444 net.cpp:91] Creating Layer inception_4d/3x3
I0403 15:44:22.157282 12444 net.cpp:425] inception_4d/3x3 <- inception_4d/3x3_reduce
I0403 15:44:22.157304 12444 net.cpp:399] inception_4d/3x3 -> inception_4d/3x3
I0403 15:44:22.161730 12444 net.cpp:141] Setting up inception_4d/3x3
I0403 15:44:22.161759 12444 net.cpp:148] Top shape: 24 288 14 14 (1354752)
I0403 15:44:22.161774 12444 net.cpp:156] Memory required for data: 1126235424
I0403 15:44:22.161792 12444 layer_factory.hpp:77] Creating layer inception_4d/relu_3x3
I0403 15:44:22.161813 12444 net.cpp:91] Creating Layer inception_4d/relu_3x3
I0403 15:44:22.161830 12444 net.cpp:425] inception_4d/relu_3x3 <- inception_4d/3x3
I0403 15:44:22.161849 12444 net.cpp:386] inception_4d/relu_3x3 -> inception_4d/3x3 (in-place)
I0403 15:44:22.162039 12444 net.cpp:141] Setting up inception_4d/relu_3x3
I0403 15:44:22.162065 12444 net.cpp:148] Top shape: 24 288 14 14 (1354752)
I0403 15:44:22.162082 12444 net.cpp:156] Memory required for data: 1131654432
I0403 15:44:22.162097 12444 layer_factory.hpp:77] Creating layer inception_4d/5x5_reduce
I0403 15:44:22.162119 12444 net.cpp:91] Creating Layer inception_4d/5x5_reduce
I0403 15:44:22.162138 12444 net.cpp:425] inception_4d/5x5_reduce <- inception_4c/output_inception_4c/output_0_split_2
I0403 15:44:22.162158 12444 net.cpp:399] inception_4d/5x5_reduce -> inception_4d/5x5_reduce
I0403 15:44:22.163357 12444 net.cpp:141] Setting up inception_4d/5x5_reduce
I0403 15:44:22.163388 12444 net.cpp:148] Top shape: 24 32 14 14 (150528)
I0403 15:44:22.163403 12444 net.cpp:156] Memory required for data: 1132256544
I0403 15:44:22.163421 12444 layer_factory.hpp:77] Creating layer inception_4d/relu_5x5_reduce
I0403 15:44:22.163441 12444 net.cpp:91] Creating Layer inception_4d/relu_5x5_reduce
I0403 15:44:22.163460 12444 net.cpp:425] inception_4d/relu_5x5_reduce <- inception_4d/5x5_reduce
I0403 15:44:22.163476 12444 net.cpp:386] inception_4d/relu_5x5_reduce -> inception_4d/5x5_reduce (in-place)
I0403 15:44:22.163666 12444 net.cpp:141] Setting up inception_4d/relu_5x5_reduce
I0403 15:44:22.163696 12444 net.cpp:148] Top shape: 24 32 14 14 (150528)
I0403 15:44:22.163712 12444 net.cpp:156] Memory required for data: 1132858656
I0403 15:44:22.163727 12444 layer_factory.hpp:77] Creating layer inception_4d/5x5
I0403 15:44:22.163749 12444 net.cpp:91] Creating Layer inception_4d/5x5
I0403 15:44:22.163768 12444 net.cpp:425] inception_4d/5x5 <- inception_4d/5x5_reduce
I0403 15:44:22.163786 12444 net.cpp:399] inception_4d/5x5 -> inception_4d/5x5
I0403 15:44:22.165297 12444 net.cpp:141] Setting up inception_4d/5x5
I0403 15:44:22.165330 12444 net.cpp:148] Top shape: 24 64 14 14 (301056)
I0403 15:44:22.165349 12444 net.cpp:156] Memory required for data: 1134062880
I0403 15:44:22.165367 12444 layer_factory.hpp:77] Creating layer inception_4d/relu_5x5
I0403 15:44:22.165401 12444 net.cpp:91] Creating Layer inception_4d/relu_5x5
I0403 15:44:22.165418 12444 net.cpp:425] inception_4d/relu_5x5 <- inception_4d/5x5
I0403 15:44:22.165436 12444 net.cpp:386] inception_4d/relu_5x5 -> inception_4d/5x5 (in-place)
I0403 15:44:22.165742 12444 net.cpp:141] Setting up inception_4d/relu_5x5
I0403 15:44:22.165771 12444 net.cpp:148] Top shape: 24 64 14 14 (301056)
I0403 15:44:22.165787 12444 net.cpp:156] Memory required for data: 1135267104
I0403 15:44:22.165802 12444 layer_factory.hpp:77] Creating layer inception_4d/pool
I0403 15:44:22.165820 12444 net.cpp:91] Creating Layer inception_4d/pool
I0403 15:44:22.165837 12444 net.cpp:425] inception_4d/pool <- inception_4c/output_inception_4c/output_0_split_3
I0403 15:44:22.165858 12444 net.cpp:399] inception_4d/pool -> inception_4d/pool
I0403 15:44:22.165927 12444 net.cpp:141] Setting up inception_4d/pool
I0403 15:44:22.165951 12444 net.cpp:148] Top shape: 24 512 14 14 (2408448)
I0403 15:44:22.165966 12444 net.cpp:156] Memory required for data: 1144900896
I0403 15:44:22.165982 12444 layer_factory.hpp:77] Creating layer inception_4d/pool_proj
I0403 15:44:22.166003 12444 net.cpp:91] Creating Layer inception_4d/pool_proj
I0403 15:44:22.166021 12444 net.cpp:425] inception_4d/pool_proj <- inception_4d/pool
I0403 15:44:22.166043 12444 net.cpp:399] inception_4d/pool_proj -> inception_4d/pool_proj
I0403 15:44:22.167862 12444 net.cpp:141] Setting up inception_4d/pool_proj
I0403 15:44:22.167891 12444 net.cpp:148] Top shape: 24 64 14 14 (301056)
I0403 15:44:22.167907 12444 net.cpp:156] Memory required for data: 1146105120
I0403 15:44:22.167927 12444 layer_factory.hpp:77] Creating layer inception_4d/relu_pool_proj
I0403 15:44:22.167948 12444 net.cpp:91] Creating Layer inception_4d/relu_pool_proj
I0403 15:44:22.167964 12444 net.cpp:425] inception_4d/relu_pool_proj <- inception_4d/pool_proj
I0403 15:44:22.167981 12444 net.cpp:386] inception_4d/relu_pool_proj -> inception_4d/pool_proj (in-place)
I0403 15:44:22.168172 12444 net.cpp:141] Setting up inception_4d/relu_pool_proj
I0403 15:44:22.168200 12444 net.cpp:148] Top shape: 24 64 14 14 (301056)
I0403 15:44:22.168216 12444 net.cpp:156] Memory required for data: 1147309344
I0403 15:44:22.168231 12444 layer_factory.hpp:77] Creating layer inception_4d/output
I0403 15:44:22.168248 12444 net.cpp:91] Creating Layer inception_4d/output
I0403 15:44:22.168264 12444 net.cpp:425] inception_4d/output <- inception_4d/1x1
I0403 15:44:22.168282 12444 net.cpp:425] inception_4d/output <- inception_4d/3x3
I0403 15:44:22.168298 12444 net.cpp:425] inception_4d/output <- inception_4d/5x5
I0403 15:44:22.168313 12444 net.cpp:425] inception_4d/output <- inception_4d/pool_proj
I0403 15:44:22.168336 12444 net.cpp:399] inception_4d/output -> inception_4d/output
I0403 15:44:22.168387 12444 net.cpp:141] Setting up inception_4d/output
I0403 15:44:22.168411 12444 net.cpp:148] Top shape: 24 528 14 14 (2483712)
I0403 15:44:22.168426 12444 net.cpp:156] Memory required for data: 1157244192
I0403 15:44:22.168440 12444 layer_factory.hpp:77] Creating layer inception_4d/output_inception_4d/output_0_split
I0403 15:44:22.168457 12444 net.cpp:91] Creating Layer inception_4d/output_inception_4d/output_0_split
I0403 15:44:22.168473 12444 net.cpp:425] inception_4d/output_inception_4d/output_0_split <- inception_4d/output
I0403 15:44:22.168493 12444 net.cpp:399] inception_4d/output_inception_4d/output_0_split -> inception_4d/output_inception_4d/output_0_split_0
I0403 15:44:22.168516 12444 net.cpp:399] inception_4d/output_inception_4d/output_0_split -> inception_4d/output_inception_4d/output_0_split_1
I0403 15:44:22.168546 12444 net.cpp:399] inception_4d/output_inception_4d/output_0_split -> inception_4d/output_inception_4d/output_0_split_2
I0403 15:44:22.168571 12444 net.cpp:399] inception_4d/output_inception_4d/output_0_split -> inception_4d/output_inception_4d/output_0_split_3
I0403 15:44:22.168592 12444 net.cpp:399] inception_4d/output_inception_4d/output_0_split -> inception_4d/output_inception_4d/output_0_split_4
I0403 15:44:22.168695 12444 net.cpp:141] Setting up inception_4d/output_inception_4d/output_0_split
I0403 15:44:22.168731 12444 net.cpp:148] Top shape: 24 528 14 14 (2483712)
I0403 15:44:22.168748 12444 net.cpp:148] Top shape: 24 528 14 14 (2483712)
I0403 15:44:22.168764 12444 net.cpp:148] Top shape: 24 528 14 14 (2483712)
I0403 15:44:22.168781 12444 net.cpp:148] Top shape: 24 528 14 14 (2483712)
I0403 15:44:22.168795 12444 net.cpp:148] Top shape: 24 528 14 14 (2483712)
I0403 15:44:22.168810 12444 net.cpp:156] Memory required for data: 1206918432
I0403 15:44:22.168825 12444 layer_factory.hpp:77] Creating layer loss2/ave_pool
I0403 15:44:22.168843 12444 net.cpp:91] Creating Layer loss2/ave_pool
I0403 15:44:22.168859 12444 net.cpp:425] loss2/ave_pool <- inception_4d/output_inception_4d/output_0_split_0
I0403 15:44:22.168880 12444 net.cpp:399] loss2/ave_pool -> loss2/ave_pool
I0403 15:44:22.169206 12444 net.cpp:141] Setting up loss2/ave_pool
I0403 15:44:22.169234 12444 net.cpp:148] Top shape: 24 528 4 4 (202752)
I0403 15:44:22.169248 12444 net.cpp:156] Memory required for data: 1207729440
I0403 15:44:22.169263 12444 layer_factory.hpp:77] Creating layer loss2/conv
I0403 15:44:22.169287 12444 net.cpp:91] Creating Layer loss2/conv
I0403 15:44:22.169306 12444 net.cpp:425] loss2/conv <- loss2/ave_pool
I0403 15:44:22.169332 12444 net.cpp:399] loss2/conv -> loss2/conv
I0403 15:44:22.171274 12444 net.cpp:141] Setting up loss2/conv
I0403 15:44:22.171304 12444 net.cpp:148] Top shape: 24 128 4 4 (49152)
I0403 15:44:22.171326 12444 net.cpp:156] Memory required for data: 1207926048
I0403 15:44:22.171346 12444 layer_factory.hpp:77] Creating layer loss2/relu_conv
I0403 15:44:22.171365 12444 net.cpp:91] Creating Layer loss2/relu_conv
I0403 15:44:22.171381 12444 net.cpp:425] loss2/relu_conv <- loss2/conv
I0403 15:44:22.171401 12444 net.cpp:386] loss2/relu_conv -> loss2/conv (in-place)
I0403 15:44:22.171694 12444 net.cpp:141] Setting up loss2/relu_conv
I0403 15:44:22.171725 12444 net.cpp:148] Top shape: 24 128 4 4 (49152)
I0403 15:44:22.171739 12444 net.cpp:156] Memory required for data: 1208122656
I0403 15:44:22.171754 12444 layer_factory.hpp:77] Creating layer loss2/fc
I0403 15:44:22.171774 12444 net.cpp:91] Creating Layer loss2/fc
I0403 15:44:22.171792 12444 net.cpp:425] loss2/fc <- loss2/conv
I0403 15:44:22.171814 12444 net.cpp:399] loss2/fc -> loss2/fc
I0403 15:44:22.189709 12444 net.cpp:141] Setting up loss2/fc
I0403 15:44:22.189743 12444 net.cpp:148] Top shape: 24 1024 (24576)
I0403 15:44:22.189759 12444 net.cpp:156] Memory required for data: 1208220960
I0403 15:44:22.189776 12444 layer_factory.hpp:77] Creating layer loss2/relu_fc
I0403 15:44:22.189796 12444 net.cpp:91] Creating Layer loss2/relu_fc
I0403 15:44:22.189816 12444 net.cpp:425] loss2/relu_fc <- loss2/fc
I0403 15:44:22.189833 12444 net.cpp:386] loss2/relu_fc -> loss2/fc (in-place)
I0403 15:44:22.193171 12444 net.cpp:141] Setting up loss2/relu_fc
I0403 15:44:22.193203 12444 net.cpp:148] Top shape: 24 1024 (24576)
I0403 15:44:22.193218 12444 net.cpp:156] Memory required for data: 1208319264
I0403 15:44:22.193233 12444 layer_factory.hpp:77] Creating layer loss2/drop_fc
I0403 15:44:22.193262 12444 net.cpp:91] Creating Layer loss2/drop_fc
I0403 15:44:22.193279 12444 net.cpp:425] loss2/drop_fc <- loss2/fc
I0403 15:44:22.193296 12444 net.cpp:386] loss2/drop_fc -> loss2/fc (in-place)
I0403 15:44:22.193361 12444 net.cpp:141] Setting up loss2/drop_fc
I0403 15:44:22.193384 12444 net.cpp:148] Top shape: 24 1024 (24576)
I0403 15:44:22.193398 12444 net.cpp:156] Memory required for data: 1208417568
I0403 15:44:22.193413 12444 layer_factory.hpp:77] Creating layer loss2/classifier_plantvillage
I0403 15:44:22.193429 12444 net.cpp:91] Creating Layer loss2/classifier_plantvillage
I0403 15:44:22.193444 12444 net.cpp:425] loss2/classifier_plantvillage <- loss2/fc
I0403 15:44:22.193467 12444 net.cpp:399] loss2/classifier_plantvillage -> loss2/classifier_plantvillage
I0403 15:44:22.193859 12444 net.cpp:141] Setting up loss2/classifier_plantvillage
I0403 15:44:22.193883 12444 net.cpp:148] Top shape: 24 38 (912)
I0403 15:44:22.193917 12444 net.cpp:156] Memory required for data: 1208421216
I0403 15:44:22.193934 12444 layer_factory.hpp:77] Creating layer loss2/classifier_plantvillage_loss2/classifier_plantvillage_0_split
I0403 15:44:22.193951 12444 net.cpp:91] Creating Layer loss2/classifier_plantvillage_loss2/classifier_plantvillage_0_split
I0403 15:44:22.193967 12444 net.cpp:425] loss2/classifier_plantvillage_loss2/classifier_plantvillage_0_split <- loss2/classifier_plantvillage
I0403 15:44:22.193986 12444 net.cpp:399] loss2/classifier_plantvillage_loss2/classifier_plantvillage_0_split -> loss2/classifier_plantvillage_loss2/classifier_plantvillage_0_split_0
I0403 15:44:22.194006 12444 net.cpp:399] loss2/classifier_plantvillage_loss2/classifier_plantvillage_0_split -> loss2/classifier_plantvillage_loss2/classifier_plantvillage_0_split_1
I0403 15:44:22.194026 12444 net.cpp:399] loss2/classifier_plantvillage_loss2/classifier_plantvillage_0_split -> loss2/classifier_plantvillage_loss2/classifier_plantvillage_0_split_2
I0403 15:44:22.194099 12444 net.cpp:141] Setting up loss2/classifier_plantvillage_loss2/classifier_plantvillage_0_split
I0403 15:44:22.194124 12444 net.cpp:148] Top shape: 24 38 (912)
I0403 15:44:22.194141 12444 net.cpp:148] Top shape: 24 38 (912)
I0403 15:44:22.194155 12444 net.cpp:148] Top shape: 24 38 (912)
I0403 15:44:22.194169 12444 net.cpp:156] Memory required for data: 1208432160
I0403 15:44:22.194182 12444 layer_factory.hpp:77] Creating layer inception_4e/1x1
I0403 15:44:22.194201 12444 net.cpp:91] Creating Layer inception_4e/1x1
I0403 15:44:22.194217 12444 net.cpp:425] inception_4e/1x1 <- inception_4d/output_inception_4d/output_0_split_1
I0403 15:44:22.194236 12444 net.cpp:399] inception_4e/1x1 -> inception_4e/1x1
I0403 15:44:22.196046 12444 net.cpp:141] Setting up inception_4e/1x1
I0403 15:44:22.196074 12444 net.cpp:148] Top shape: 24 256 14 14 (1204224)
I0403 15:44:22.196089 12444 net.cpp:156] Memory required for data: 1213249056
I0403 15:44:22.196106 12444 layer_factory.hpp:77] Creating layer inception_4e/relu_1x1
I0403 15:44:22.196123 12444 net.cpp:91] Creating Layer inception_4e/relu_1x1
I0403 15:44:22.196141 12444 net.cpp:425] inception_4e/relu_1x1 <- inception_4e/1x1
I0403 15:44:22.196159 12444 net.cpp:386] inception_4e/relu_1x1 -> inception_4e/1x1 (in-place)
I0403 15:44:22.196454 12444 net.cpp:141] Setting up inception_4e/relu_1x1
I0403 15:44:22.196478 12444 net.cpp:148] Top shape: 24 256 14 14 (1204224)
I0403 15:44:22.196493 12444 net.cpp:156] Memory required for data: 1218065952
I0403 15:44:22.196507 12444 layer_factory.hpp:77] Creating layer inception_4e/3x3_reduce
I0403 15:44:22.196529 12444 net.cpp:91] Creating Layer inception_4e/3x3_reduce
I0403 15:44:22.196547 12444 net.cpp:425] inception_4e/3x3_reduce <- inception_4d/output_inception_4d/output_0_split_2
I0403 15:44:22.196568 12444 net.cpp:399] inception_4e/3x3_reduce -> inception_4e/3x3_reduce
I0403 15:44:22.198904 12444 net.cpp:141] Setting up inception_4e/3x3_reduce
I0403 15:44:22.198935 12444 net.cpp:148] Top shape: 24 160 14 14 (752640)
I0403 15:44:22.198951 12444 net.cpp:156] Memory required for data: 1221076512
I0403 15:44:22.198969 12444 layer_factory.hpp:77] Creating layer inception_4e/relu_3x3_reduce
I0403 15:44:22.198987 12444 net.cpp:91] Creating Layer inception_4e/relu_3x3_reduce
I0403 15:44:22.199002 12444 net.cpp:425] inception_4e/relu_3x3_reduce <- inception_4e/3x3_reduce
I0403 15:44:22.199021 12444 net.cpp:386] inception_4e/relu_3x3_reduce -> inception_4e/3x3_reduce (in-place)
I0403 15:44:22.199203 12444 net.cpp:141] Setting up inception_4e/relu_3x3_reduce
I0403 15:44:22.199228 12444 net.cpp:148] Top shape: 24 160 14 14 (752640)
I0403 15:44:22.199241 12444 net.cpp:156] Memory required for data: 1224087072
I0403 15:44:22.199255 12444 layer_factory.hpp:77] Creating layer inception_4e/3x3
I0403 15:44:22.199276 12444 net.cpp:91] Creating Layer inception_4e/3x3
I0403 15:44:22.199293 12444 net.cpp:425] inception_4e/3x3 <- inception_4e/3x3_reduce
I0403 15:44:22.199316 12444 net.cpp:399] inception_4e/3x3 -> inception_4e/3x3
I0403 15:44:22.204190 12444 net.cpp:141] Setting up inception_4e/3x3
I0403 15:44:22.204231 12444 net.cpp:148] Top shape: 24 320 14 14 (1505280)
I0403 15:44:22.204246 12444 net.cpp:156] Memory required for data: 1230108192
I0403 15:44:22.204264 12444 layer_factory.hpp:77] Creating layer inception_4e/relu_3x3
I0403 15:44:22.204282 12444 net.cpp:91] Creating Layer inception_4e/relu_3x3
I0403 15:44:22.204298 12444 net.cpp:425] inception_4e/relu_3x3 <- inception_4e/3x3
I0403 15:44:22.204319 12444 net.cpp:386] inception_4e/relu_3x3 -> inception_4e/3x3 (in-place)
I0403 15:44:22.204617 12444 net.cpp:141] Setting up inception_4e/relu_3x3
I0403 15:44:22.204641 12444 net.cpp:148] Top shape: 24 320 14 14 (1505280)
I0403 15:44:22.204656 12444 net.cpp:156] Memory required for data: 1236129312
I0403 15:44:22.204670 12444 layer_factory.hpp:77] Creating layer inception_4e/5x5_reduce
I0403 15:44:22.204695 12444 net.cpp:91] Creating Layer inception_4e/5x5_reduce
I0403 15:44:22.204713 12444 net.cpp:425] inception_4e/5x5_reduce <- inception_4d/output_inception_4d/output_0_split_3
I0403 15:44:22.204733 12444 net.cpp:399] inception_4e/5x5_reduce -> inception_4e/5x5_reduce
I0403 15:44:22.205804 12444 net.cpp:141] Setting up inception_4e/5x5_reduce
I0403 15:44:22.205833 12444 net.cpp:148] Top shape: 24 32 14 14 (150528)
I0403 15:44:22.205848 12444 net.cpp:156] Memory required for data: 1236731424
I0403 15:44:22.205865 12444 layer_factory.hpp:77] Creating layer inception_4e/relu_5x5_reduce
I0403 15:44:22.205883 12444 net.cpp:91] Creating Layer inception_4e/relu_5x5_reduce
I0403 15:44:22.205899 12444 net.cpp:425] inception_4e/relu_5x5_reduce <- inception_4e/5x5_reduce
I0403 15:44:22.205915 12444 net.cpp:386] inception_4e/relu_5x5_reduce -> inception_4e/5x5_reduce (in-place)
I0403 15:44:22.206207 12444 net.cpp:141] Setting up inception_4e/relu_5x5_reduce
I0403 15:44:22.206233 12444 net.cpp:148] Top shape: 24 32 14 14 (150528)
I0403 15:44:22.206249 12444 net.cpp:156] Memory required for data: 1237333536
I0403 15:44:22.206264 12444 layer_factory.hpp:77] Creating layer inception_4e/5x5
I0403 15:44:22.206302 12444 net.cpp:91] Creating Layer inception_4e/5x5
I0403 15:44:22.206326 12444 net.cpp:425] inception_4e/5x5 <- inception_4e/5x5_reduce
I0403 15:44:22.206346 12444 net.cpp:399] inception_4e/5x5 -> inception_4e/5x5
I0403 15:44:22.208199 12444 net.cpp:141] Setting up inception_4e/5x5
I0403 15:44:22.208225 12444 net.cpp:148] Top shape: 24 128 14 14 (602112)
I0403 15:44:22.208240 12444 net.cpp:156] Memory required for data: 1239741984
I0403 15:44:22.208257 12444 layer_factory.hpp:77] Creating layer inception_4e/relu_5x5
I0403 15:44:22.208276 12444 net.cpp:91] Creating Layer inception_4e/relu_5x5
I0403 15:44:22.208293 12444 net.cpp:425] inception_4e/relu_5x5 <- inception_4e/5x5
I0403 15:44:22.208309 12444 net.cpp:386] inception_4e/relu_5x5 -> inception_4e/5x5 (in-place)
I0403 15:44:22.208506 12444 net.cpp:141] Setting up inception_4e/relu_5x5
I0403 15:44:22.208533 12444 net.cpp:148] Top shape: 24 128 14 14 (602112)
I0403 15:44:22.208547 12444 net.cpp:156] Memory required for data: 1242150432
I0403 15:44:22.208561 12444 layer_factory.hpp:77] Creating layer inception_4e/pool
I0403 15:44:22.208580 12444 net.cpp:91] Creating Layer inception_4e/pool
I0403 15:44:22.208595 12444 net.cpp:425] inception_4e/pool <- inception_4d/output_inception_4d/output_0_split_4
I0403 15:44:22.208613 12444 net.cpp:399] inception_4e/pool -> inception_4e/pool
I0403 15:44:22.208683 12444 net.cpp:141] Setting up inception_4e/pool
I0403 15:44:22.208705 12444 net.cpp:148] Top shape: 24 528 14 14 (2483712)
I0403 15:44:22.208719 12444 net.cpp:156] Memory required for data: 1252085280
I0403 15:44:22.208734 12444 layer_factory.hpp:77] Creating layer inception_4e/pool_proj
I0403 15:44:22.208755 12444 net.cpp:91] Creating Layer inception_4e/pool_proj
I0403 15:44:22.208771 12444 net.cpp:425] inception_4e/pool_proj <- inception_4e/pool
I0403 15:44:22.208791 12444 net.cpp:399] inception_4e/pool_proj -> inception_4e/pool_proj
I0403 15:44:22.210283 12444 net.cpp:141] Setting up inception_4e/pool_proj
I0403 15:44:22.210325 12444 net.cpp:148] Top shape: 24 128 14 14 (602112)
I0403 15:44:22.210342 12444 net.cpp:156] Memory required for data: 1254493728
I0403 15:44:22.210360 12444 layer_factory.hpp:77] Creating layer inception_4e/relu_pool_proj
I0403 15:44:22.210381 12444 net.cpp:91] Creating Layer inception_4e/relu_pool_proj
I0403 15:44:22.210397 12444 net.cpp:425] inception_4e/relu_pool_proj <- inception_4e/pool_proj
I0403 15:44:22.210413 12444 net.cpp:386] inception_4e/relu_pool_proj -> inception_4e/pool_proj (in-place)
I0403 15:44:22.210717 12444 net.cpp:141] Setting up inception_4e/relu_pool_proj
I0403 15:44:22.210743 12444 net.cpp:148] Top shape: 24 128 14 14 (602112)
I0403 15:44:22.210758 12444 net.cpp:156] Memory required for data: 1256902176
I0403 15:44:22.210773 12444 layer_factory.hpp:77] Creating layer inception_4e/output
I0403 15:44:22.210793 12444 net.cpp:91] Creating Layer inception_4e/output
I0403 15:44:22.210809 12444 net.cpp:425] inception_4e/output <- inception_4e/1x1
I0403 15:44:22.210825 12444 net.cpp:425] inception_4e/output <- inception_4e/3x3
I0403 15:44:22.210841 12444 net.cpp:425] inception_4e/output <- inception_4e/5x5
I0403 15:44:22.210856 12444 net.cpp:425] inception_4e/output <- inception_4e/pool_proj
I0403 15:44:22.210873 12444 net.cpp:399] inception_4e/output -> inception_4e/output
I0403 15:44:22.210937 12444 net.cpp:141] Setting up inception_4e/output
I0403 15:44:22.210960 12444 net.cpp:148] Top shape: 24 832 14 14 (3913728)
I0403 15:44:22.210974 12444 net.cpp:156] Memory required for data: 1272557088
I0403 15:44:22.210988 12444 layer_factory.hpp:77] Creating layer pool4/3x3_s2
I0403 15:44:22.211004 12444 net.cpp:91] Creating Layer pool4/3x3_s2
I0403 15:44:22.211019 12444 net.cpp:425] pool4/3x3_s2 <- inception_4e/output
I0403 15:44:22.211040 12444 net.cpp:399] pool4/3x3_s2 -> pool4/3x3_s2
I0403 15:44:22.211104 12444 net.cpp:141] Setting up pool4/3x3_s2
I0403 15:44:22.211129 12444 net.cpp:148] Top shape: 24 832 7 7 (978432)
I0403 15:44:22.211144 12444 net.cpp:156] Memory required for data: 1276470816
I0403 15:44:22.211158 12444 layer_factory.hpp:77] Creating layer pool4/3x3_s2_pool4/3x3_s2_0_split
I0403 15:44:22.211174 12444 net.cpp:91] Creating Layer pool4/3x3_s2_pool4/3x3_s2_0_split
I0403 15:44:22.211189 12444 net.cpp:425] pool4/3x3_s2_pool4/3x3_s2_0_split <- pool4/3x3_s2
I0403 15:44:22.211206 12444 net.cpp:399] pool4/3x3_s2_pool4/3x3_s2_0_split -> pool4/3x3_s2_pool4/3x3_s2_0_split_0
I0403 15:44:22.211227 12444 net.cpp:399] pool4/3x3_s2_pool4/3x3_s2_0_split -> pool4/3x3_s2_pool4/3x3_s2_0_split_1
I0403 15:44:22.211248 12444 net.cpp:399] pool4/3x3_s2_pool4/3x3_s2_0_split -> pool4/3x3_s2_pool4/3x3_s2_0_split_2
I0403 15:44:22.211267 12444 net.cpp:399] pool4/3x3_s2_pool4/3x3_s2_0_split -> pool4/3x3_s2_pool4/3x3_s2_0_split_3
I0403 15:44:22.211361 12444 net.cpp:141] Setting up pool4/3x3_s2_pool4/3x3_s2_0_split
I0403 15:44:22.211385 12444 net.cpp:148] Top shape: 24 832 7 7 (978432)
I0403 15:44:22.211400 12444 net.cpp:148] Top shape: 24 832 7 7 (978432)
I0403 15:44:22.211416 12444 net.cpp:148] Top shape: 24 832 7 7 (978432)
I0403 15:44:22.211429 12444 net.cpp:148] Top shape: 24 832 7 7 (978432)
I0403 15:44:22.211442 12444 net.cpp:156] Memory required for data: 1292125728
I0403 15:44:22.211457 12444 layer_factory.hpp:77] Creating layer inception_5a/1x1
I0403 15:44:22.211477 12444 net.cpp:91] Creating Layer inception_5a/1x1
I0403 15:44:22.211495 12444 net.cpp:425] inception_5a/1x1 <- pool4/3x3_s2_pool4/3x3_s2_0_split_0
I0403 15:44:22.211514 12444 net.cpp:399] inception_5a/1x1 -> inception_5a/1x1
I0403 15:44:22.214360 12444 net.cpp:141] Setting up inception_5a/1x1
I0403 15:44:22.214390 12444 net.cpp:148] Top shape: 24 256 7 7 (301056)
I0403 15:44:22.214406 12444 net.cpp:156] Memory required for data: 1293329952
I0403 15:44:22.214423 12444 layer_factory.hpp:77] Creating layer inception_5a/relu_1x1
I0403 15:44:22.214442 12444 net.cpp:91] Creating Layer inception_5a/relu_1x1
I0403 15:44:22.214458 12444 net.cpp:425] inception_5a/relu_1x1 <- inception_5a/1x1
I0403 15:44:22.214475 12444 net.cpp:386] inception_5a/relu_1x1 -> inception_5a/1x1 (in-place)
I0403 15:44:22.214802 12444 net.cpp:141] Setting up inception_5a/relu_1x1
I0403 15:44:22.214828 12444 net.cpp:148] Top shape: 24 256 7 7 (301056)
I0403 15:44:22.214844 12444 net.cpp:156] Memory required for data: 1294534176
I0403 15:44:22.214859 12444 layer_factory.hpp:77] Creating layer inception_5a/3x3_reduce
I0403 15:44:22.214884 12444 net.cpp:91] Creating Layer inception_5a/3x3_reduce
I0403 15:44:22.214913 12444 net.cpp:425] inception_5a/3x3_reduce <- pool4/3x3_s2_pool4/3x3_s2_0_split_1
I0403 15:44:22.214932 12444 net.cpp:399] inception_5a/3x3_reduce -> inception_5a/3x3_reduce
I0403 15:44:22.217322 12444 net.cpp:141] Setting up inception_5a/3x3_reduce
I0403 15:44:22.217353 12444 net.cpp:148] Top shape: 24 160 7 7 (188160)
I0403 15:44:22.217381 12444 net.cpp:156] Memory required for data: 1295286816
I0403 15:44:22.217401 12444 layer_factory.hpp:77] Creating layer inception_5a/relu_3x3_reduce
I0403 15:44:22.217422 12444 net.cpp:91] Creating Layer inception_5a/relu_3x3_reduce
I0403 15:44:22.217439 12444 net.cpp:425] inception_5a/relu_3x3_reduce <- inception_5a/3x3_reduce
I0403 15:44:22.217458 12444 net.cpp:386] inception_5a/relu_3x3_reduce -> inception_5a/3x3_reduce (in-place)
I0403 15:44:22.217646 12444 net.cpp:141] Setting up inception_5a/relu_3x3_reduce
I0403 15:44:22.217682 12444 net.cpp:148] Top shape: 24 160 7 7 (188160)
I0403 15:44:22.217697 12444 net.cpp:156] Memory required for data: 1296039456
I0403 15:44:22.217711 12444 layer_factory.hpp:77] Creating layer inception_5a/3x3
I0403 15:44:22.217736 12444 net.cpp:91] Creating Layer inception_5a/3x3
I0403 15:44:22.217752 12444 net.cpp:425] inception_5a/3x3 <- inception_5a/3x3_reduce
I0403 15:44:22.217770 12444 net.cpp:399] inception_5a/3x3 -> inception_5a/3x3
I0403 15:44:22.222936 12444 net.cpp:141] Setting up inception_5a/3x3
I0403 15:44:22.222968 12444 net.cpp:148] Top shape: 24 320 7 7 (376320)
I0403 15:44:22.222985 12444 net.cpp:156] Memory required for data: 1297544736
I0403 15:44:22.223003 12444 layer_factory.hpp:77] Creating layer inception_5a/relu_3x3
I0403 15:44:22.223021 12444 net.cpp:91] Creating Layer inception_5a/relu_3x3
I0403 15:44:22.223037 12444 net.cpp:425] inception_5a/relu_3x3 <- inception_5a/3x3
I0403 15:44:22.223054 12444 net.cpp:386] inception_5a/relu_3x3 -> inception_5a/3x3 (in-place)
I0403 15:44:22.223364 12444 net.cpp:141] Setting up inception_5a/relu_3x3
I0403 15:44:22.223394 12444 net.cpp:148] Top shape: 24 320 7 7 (376320)
I0403 15:44:22.223410 12444 net.cpp:156] Memory required for data: 1299050016
I0403 15:44:22.223425 12444 layer_factory.hpp:77] Creating layer inception_5a/5x5_reduce
I0403 15:44:22.223446 12444 net.cpp:91] Creating Layer inception_5a/5x5_reduce
I0403 15:44:22.223464 12444 net.cpp:425] inception_5a/5x5_reduce <- pool4/3x3_s2_pool4/3x3_s2_0_split_2
I0403 15:44:22.223485 12444 net.cpp:399] inception_5a/5x5_reduce -> inception_5a/5x5_reduce
I0403 15:44:22.224661 12444 net.cpp:141] Setting up inception_5a/5x5_reduce
I0403 15:44:22.224691 12444 net.cpp:148] Top shape: 24 32 7 7 (37632)
I0403 15:44:22.224707 12444 net.cpp:156] Memory required for data: 1299200544
I0403 15:44:22.224725 12444 layer_factory.hpp:77] Creating layer inception_5a/relu_5x5_reduce
I0403 15:44:22.224743 12444 net.cpp:91] Creating Layer inception_5a/relu_5x5_reduce
I0403 15:44:22.224758 12444 net.cpp:425] inception_5a/relu_5x5_reduce <- inception_5a/5x5_reduce
I0403 15:44:22.224777 12444 net.cpp:386] inception_5a/relu_5x5_reduce -> inception_5a/5x5_reduce (in-place)
I0403 15:44:22.225078 12444 net.cpp:141] Setting up inception_5a/relu_5x5_reduce
I0403 15:44:22.225106 12444 net.cpp:148] Top shape: 24 32 7 7 (37632)
I0403 15:44:22.225121 12444 net.cpp:156] Memory required for data: 1299351072
I0403 15:44:22.225136 12444 layer_factory.hpp:77] Creating layer inception_5a/5x5
I0403 15:44:22.225158 12444 net.cpp:91] Creating Layer inception_5a/5x5
I0403 15:44:22.225177 12444 net.cpp:425] inception_5a/5x5 <- inception_5a/5x5_reduce
I0403 15:44:22.225194 12444 net.cpp:399] inception_5a/5x5 -> inception_5a/5x5
I0403 15:44:22.226958 12444 net.cpp:141] Setting up inception_5a/5x5
I0403 15:44:22.226997 12444 net.cpp:148] Top shape: 24 128 7 7 (150528)
I0403 15:44:22.227016 12444 net.cpp:156] Memory required for data: 1299953184
I0403 15:44:22.227035 12444 layer_factory.hpp:77] Creating layer inception_5a/relu_5x5
I0403 15:44:22.227052 12444 net.cpp:91] Creating Layer inception_5a/relu_5x5
I0403 15:44:22.227068 12444 net.cpp:425] inception_5a/relu_5x5 <- inception_5a/5x5
I0403 15:44:22.227085 12444 net.cpp:386] inception_5a/relu_5x5 -> inception_5a/5x5 (in-place)
I0403 15:44:22.227280 12444 net.cpp:141] Setting up inception_5a/relu_5x5
I0403 15:44:22.227308 12444 net.cpp:148] Top shape: 24 128 7 7 (150528)
I0403 15:44:22.227329 12444 net.cpp:156] Memory required for data: 1300555296
I0403 15:44:22.227344 12444 layer_factory.hpp:77] Creating layer inception_5a/pool
I0403 15:44:22.227361 12444 net.cpp:91] Creating Layer inception_5a/pool
I0403 15:44:22.227377 12444 net.cpp:425] inception_5a/pool <- pool4/3x3_s2_pool4/3x3_s2_0_split_3
I0403 15:44:22.227399 12444 net.cpp:399] inception_5a/pool -> inception_5a/pool
I0403 15:44:22.227469 12444 net.cpp:141] Setting up inception_5a/pool
I0403 15:44:22.227495 12444 net.cpp:148] Top shape: 24 832 7 7 (978432)
I0403 15:44:22.227510 12444 net.cpp:156] Memory required for data: 1304469024
I0403 15:44:22.227524 12444 layer_factory.hpp:77] Creating layer inception_5a/pool_proj
I0403 15:44:22.227543 12444 net.cpp:91] Creating Layer inception_5a/pool_proj
I0403 15:44:22.227560 12444 net.cpp:425] inception_5a/pool_proj <- inception_5a/pool
I0403 15:44:22.227581 12444 net.cpp:399] inception_5a/pool_proj -> inception_5a/pool_proj
I0403 15:44:22.229876 12444 net.cpp:141] Setting up inception_5a/pool_proj
I0403 15:44:22.229904 12444 net.cpp:148] Top shape: 24 128 7 7 (150528)
I0403 15:44:22.229920 12444 net.cpp:156] Memory required for data: 1305071136
I0403 15:44:22.229938 12444 layer_factory.hpp:77] Creating layer inception_5a/relu_pool_proj
I0403 15:44:22.229959 12444 net.cpp:91] Creating Layer inception_5a/relu_pool_proj
I0403 15:44:22.229976 12444 net.cpp:425] inception_5a/relu_pool_proj <- inception_5a/pool_proj
I0403 15:44:22.229993 12444 net.cpp:386] inception_5a/relu_pool_proj -> inception_5a/pool_proj (in-place)
I0403 15:44:22.230293 12444 net.cpp:141] Setting up inception_5a/relu_pool_proj
I0403 15:44:22.230322 12444 net.cpp:148] Top shape: 24 128 7 7 (150528)
I0403 15:44:22.230340 12444 net.cpp:156] Memory required for data: 1305673248
I0403 15:44:22.230355 12444 layer_factory.hpp:77] Creating layer inception_5a/output
I0403 15:44:22.230373 12444 net.cpp:91] Creating Layer inception_5a/output
I0403 15:44:22.230392 12444 net.cpp:425] inception_5a/output <- inception_5a/1x1
I0403 15:44:22.230408 12444 net.cpp:425] inception_5a/output <- inception_5a/3x3
I0403 15:44:22.230424 12444 net.cpp:425] inception_5a/output <- inception_5a/5x5
I0403 15:44:22.230439 12444 net.cpp:425] inception_5a/output <- inception_5a/pool_proj
I0403 15:44:22.230456 12444 net.cpp:399] inception_5a/output -> inception_5a/output
I0403 15:44:22.230509 12444 net.cpp:141] Setting up inception_5a/output
I0403 15:44:22.230531 12444 net.cpp:148] Top shape: 24 832 7 7 (978432)
I0403 15:44:22.230545 12444 net.cpp:156] Memory required for data: 1309586976
I0403 15:44:22.230561 12444 layer_factory.hpp:77] Creating layer inception_5a/output_inception_5a/output_0_split
I0403 15:44:22.230577 12444 net.cpp:91] Creating Layer inception_5a/output_inception_5a/output_0_split
I0403 15:44:22.230592 12444 net.cpp:425] inception_5a/output_inception_5a/output_0_split <- inception_5a/output
I0403 15:44:22.230623 12444 net.cpp:399] inception_5a/output_inception_5a/output_0_split -> inception_5a/output_inception_5a/output_0_split_0
I0403 15:44:22.230644 12444 net.cpp:399] inception_5a/output_inception_5a/output_0_split -> inception_5a/output_inception_5a/output_0_split_1
I0403 15:44:22.230665 12444 net.cpp:399] inception_5a/output_inception_5a/output_0_split -> inception_5a/output_inception_5a/output_0_split_2
I0403 15:44:22.230687 12444 net.cpp:399] inception_5a/output_inception_5a/output_0_split -> inception_5a/output_inception_5a/output_0_split_3
I0403 15:44:22.230803 12444 net.cpp:141] Setting up inception_5a/output_inception_5a/output_0_split
I0403 15:44:22.230829 12444 net.cpp:148] Top shape: 24 832 7 7 (978432)
I0403 15:44:22.230847 12444 net.cpp:148] Top shape: 24 832 7 7 (978432)
I0403 15:44:22.230864 12444 net.cpp:148] Top shape: 24 832 7 7 (978432)
I0403 15:44:22.230880 12444 net.cpp:148] Top shape: 24 832 7 7 (978432)
I0403 15:44:22.230893 12444 net.cpp:156] Memory required for data: 1325241888
I0403 15:44:22.230919 12444 layer_factory.hpp:77] Creating layer inception_5b/1x1
I0403 15:44:22.230942 12444 net.cpp:91] Creating Layer inception_5b/1x1
I0403 15:44:22.230958 12444 net.cpp:425] inception_5b/1x1 <- inception_5a/output_inception_5a/output_0_split_0
I0403 15:44:22.230978 12444 net.cpp:399] inception_5b/1x1 -> inception_5b/1x1
I0403 15:44:22.234773 12444 net.cpp:141] Setting up inception_5b/1x1
I0403 15:44:22.234805 12444 net.cpp:148] Top shape: 24 384 7 7 (451584)
I0403 15:44:22.234822 12444 net.cpp:156] Memory required for data: 1327048224
I0403 15:44:22.234839 12444 layer_factory.hpp:77] Creating layer inception_5b/relu_1x1
I0403 15:44:22.234860 12444 net.cpp:91] Creating Layer inception_5b/relu_1x1
I0403 15:44:22.234879 12444 net.cpp:425] inception_5b/relu_1x1 <- inception_5b/1x1
I0403 15:44:22.234907 12444 net.cpp:386] inception_5b/relu_1x1 -> inception_5b/1x1 (in-place)
I0403 15:44:22.235215 12444 net.cpp:141] Setting up inception_5b/relu_1x1
I0403 15:44:22.235241 12444 net.cpp:148] Top shape: 24 384 7 7 (451584)
I0403 15:44:22.235256 12444 net.cpp:156] Memory required for data: 1328854560
I0403 15:44:22.235271 12444 layer_factory.hpp:77] Creating layer inception_5b/3x3_reduce
I0403 15:44:22.235293 12444 net.cpp:91] Creating Layer inception_5b/3x3_reduce
I0403 15:44:22.235311 12444 net.cpp:425] inception_5b/3x3_reduce <- inception_5a/output_inception_5a/output_0_split_1
I0403 15:44:22.235337 12444 net.cpp:399] inception_5b/3x3_reduce -> inception_5b/3x3_reduce
I0403 15:44:22.238031 12444 net.cpp:141] Setting up inception_5b/3x3_reduce
I0403 15:44:22.238060 12444 net.cpp:148] Top shape: 24 192 7 7 (225792)
I0403 15:44:22.238075 12444 net.cpp:156] Memory required for data: 1329757728
I0403 15:44:22.238093 12444 layer_factory.hpp:77] Creating layer inception_5b/relu_3x3_reduce
I0403 15:44:22.238112 12444 net.cpp:91] Creating Layer inception_5b/relu_3x3_reduce
I0403 15:44:22.238131 12444 net.cpp:425] inception_5b/relu_3x3_reduce <- inception_5b/3x3_reduce
I0403 15:44:22.238147 12444 net.cpp:386] inception_5b/relu_3x3_reduce -> inception_5b/3x3_reduce (in-place)
I0403 15:44:22.238338 12444 net.cpp:141] Setting up inception_5b/relu_3x3_reduce
I0403 15:44:22.238364 12444 net.cpp:148] Top shape: 24 192 7 7 (225792)
I0403 15:44:22.238379 12444 net.cpp:156] Memory required for data: 1330660896
I0403 15:44:22.238392 12444 layer_factory.hpp:77] Creating layer inception_5b/3x3
I0403 15:44:22.238415 12444 net.cpp:91] Creating Layer inception_5b/3x3
I0403 15:44:22.238431 12444 net.cpp:425] inception_5b/3x3 <- inception_5b/3x3_reduce
I0403 15:44:22.238450 12444 net.cpp:399] inception_5b/3x3 -> inception_5b/3x3
I0403 15:44:22.245075 12444 net.cpp:141] Setting up inception_5b/3x3
I0403 15:44:22.245102 12444 net.cpp:148] Top shape: 24 384 7 7 (451584)
I0403 15:44:22.245118 12444 net.cpp:156] Memory required for data: 1332467232
I0403 15:44:22.245136 12444 layer_factory.hpp:77] Creating layer inception_5b/relu_3x3
I0403 15:44:22.245156 12444 net.cpp:91] Creating Layer inception_5b/relu_3x3
I0403 15:44:22.245172 12444 net.cpp:425] inception_5b/relu_3x3 <- inception_5b/3x3
I0403 15:44:22.245188 12444 net.cpp:386] inception_5b/relu_3x3 -> inception_5b/3x3 (in-place)
I0403 15:44:22.245488 12444 net.cpp:141] Setting up inception_5b/relu_3x3
I0403 15:44:22.245514 12444 net.cpp:148] Top shape: 24 384 7 7 (451584)
I0403 15:44:22.245528 12444 net.cpp:156] Memory required for data: 1334273568
I0403 15:44:22.245543 12444 layer_factory.hpp:77] Creating layer inception_5b/5x5_reduce
I0403 15:44:22.245581 12444 net.cpp:91] Creating Layer inception_5b/5x5_reduce
I0403 15:44:22.245599 12444 net.cpp:425] inception_5b/5x5_reduce <- inception_5a/output_inception_5a/output_0_split_2
I0403 15:44:22.245621 12444 net.cpp:399] inception_5b/5x5_reduce -> inception_5b/5x5_reduce
I0403 15:44:22.246888 12444 net.cpp:141] Setting up inception_5b/5x5_reduce
I0403 15:44:22.246927 12444 net.cpp:148] Top shape: 24 48 7 7 (56448)
I0403 15:44:22.246942 12444 net.cpp:156] Memory required for data: 1334499360
I0403 15:44:22.246960 12444 layer_factory.hpp:77] Creating layer inception_5b/relu_5x5_reduce
I0403 15:44:22.246980 12444 net.cpp:91] Creating Layer inception_5b/relu_5x5_reduce
I0403 15:44:22.246997 12444 net.cpp:425] inception_5b/relu_5x5_reduce <- inception_5b/5x5_reduce
I0403 15:44:22.247014 12444 net.cpp:386] inception_5b/relu_5x5_reduce -> inception_5b/5x5_reduce (in-place)
I0403 15:44:22.247385 12444 net.cpp:141] Setting up inception_5b/relu_5x5_reduce
I0403 15:44:22.247411 12444 net.cpp:148] Top shape: 24 48 7 7 (56448)
I0403 15:44:22.247426 12444 net.cpp:156] Memory required for data: 1334725152
I0403 15:44:22.247440 12444 layer_factory.hpp:77] Creating layer inception_5b/5x5
I0403 15:44:22.247460 12444 net.cpp:91] Creating Layer inception_5b/5x5
I0403 15:44:22.247476 12444 net.cpp:425] inception_5b/5x5 <- inception_5b/5x5_reduce
I0403 15:44:22.247494 12444 net.cpp:399] inception_5b/5x5 -> inception_5b/5x5
I0403 15:44:22.249497 12444 net.cpp:141] Setting up inception_5b/5x5
I0403 15:44:22.249524 12444 net.cpp:148] Top shape: 24 128 7 7 (150528)
I0403 15:44:22.249539 12444 net.cpp:156] Memory required for data: 1335327264
I0403 15:44:22.249557 12444 layer_factory.hpp:77] Creating layer inception_5b/relu_5x5
I0403 15:44:22.249577 12444 net.cpp:91] Creating Layer inception_5b/relu_5x5
I0403 15:44:22.249593 12444 net.cpp:425] inception_5b/relu_5x5 <- inception_5b/5x5
I0403 15:44:22.249610 12444 net.cpp:386] inception_5b/relu_5x5 -> inception_5b/5x5 (in-place)
I0403 15:44:22.249802 12444 net.cpp:141] Setting up inception_5b/relu_5x5
I0403 15:44:22.249826 12444 net.cpp:148] Top shape: 24 128 7 7 (150528)
I0403 15:44:22.249840 12444 net.cpp:156] Memory required for data: 1335929376
I0403 15:44:22.249855 12444 layer_factory.hpp:77] Creating layer inception_5b/pool
I0403 15:44:22.249872 12444 net.cpp:91] Creating Layer inception_5b/pool
I0403 15:44:22.249887 12444 net.cpp:425] inception_5b/pool <- inception_5a/output_inception_5a/output_0_split_3
I0403 15:44:22.249907 12444 net.cpp:399] inception_5b/pool -> inception_5b/pool
I0403 15:44:22.249979 12444 net.cpp:141] Setting up inception_5b/pool
I0403 15:44:22.250002 12444 net.cpp:148] Top shape: 24 832 7 7 (978432)
I0403 15:44:22.250016 12444 net.cpp:156] Memory required for data: 1339843104
I0403 15:44:22.250030 12444 layer_factory.hpp:77] Creating layer inception_5b/pool_proj
I0403 15:44:22.250053 12444 net.cpp:91] Creating Layer inception_5b/pool_proj
I0403 15:44:22.250072 12444 net.cpp:425] inception_5b/pool_proj <- inception_5b/pool
I0403 15:44:22.250088 12444 net.cpp:399] inception_5b/pool_proj -> inception_5b/pool_proj
I0403 15:44:22.252369 12444 net.cpp:141] Setting up inception_5b/pool_proj
I0403 15:44:22.252398 12444 net.cpp:148] Top shape: 24 128 7 7 (150528)
I0403 15:44:22.252413 12444 net.cpp:156] Memory required for data: 1340445216
I0403 15:44:22.252431 12444 layer_factory.hpp:77] Creating layer inception_5b/relu_pool_proj
I0403 15:44:22.252451 12444 net.cpp:91] Creating Layer inception_5b/relu_pool_proj
I0403 15:44:22.252467 12444 net.cpp:425] inception_5b/relu_pool_proj <- inception_5b/pool_proj
I0403 15:44:22.252485 12444 net.cpp:386] inception_5b/relu_pool_proj -> inception_5b/pool_proj (in-place)
I0403 15:44:22.252777 12444 net.cpp:141] Setting up inception_5b/relu_pool_proj
I0403 15:44:22.252802 12444 net.cpp:148] Top shape: 24 128 7 7 (150528)
I0403 15:44:22.252817 12444 net.cpp:156] Memory required for data: 1341047328
I0403 15:44:22.252831 12444 layer_factory.hpp:77] Creating layer inception_5b/output
I0403 15:44:22.252851 12444 net.cpp:91] Creating Layer inception_5b/output
I0403 15:44:22.252881 12444 net.cpp:425] inception_5b/output <- inception_5b/1x1
I0403 15:44:22.252897 12444 net.cpp:425] inception_5b/output <- inception_5b/3x3
I0403 15:44:22.252913 12444 net.cpp:425] inception_5b/output <- inception_5b/5x5
I0403 15:44:22.252929 12444 net.cpp:425] inception_5b/output <- inception_5b/pool_proj
I0403 15:44:22.252946 12444 net.cpp:399] inception_5b/output -> inception_5b/output
I0403 15:44:22.252998 12444 net.cpp:141] Setting up inception_5b/output
I0403 15:44:22.253021 12444 net.cpp:148] Top shape: 24 1024 7 7 (1204224)
I0403 15:44:22.253036 12444 net.cpp:156] Memory required for data: 1345864224
I0403 15:44:22.253051 12444 layer_factory.hpp:77] Creating layer pool5/7x7_s1
I0403 15:44:22.253067 12444 net.cpp:91] Creating Layer pool5/7x7_s1
I0403 15:44:22.253082 12444 net.cpp:425] pool5/7x7_s1 <- inception_5b/output
I0403 15:44:22.253101 12444 net.cpp:399] pool5/7x7_s1 -> pool5/7x7_s1
I0403 15:44:22.253324 12444 net.cpp:141] Setting up pool5/7x7_s1
I0403 15:44:22.253352 12444 net.cpp:148] Top shape: 24 1024 1 1 (24576)
I0403 15:44:22.253368 12444 net.cpp:156] Memory required for data: 1345962528
I0403 15:44:22.253382 12444 layer_factory.hpp:77] Creating layer pool5/drop_7x7_s1
I0403 15:44:22.253401 12444 net.cpp:91] Creating Layer pool5/drop_7x7_s1
I0403 15:44:22.253417 12444 net.cpp:425] pool5/drop_7x7_s1 <- pool5/7x7_s1
I0403 15:44:22.253433 12444 net.cpp:386] pool5/drop_7x7_s1 -> pool5/7x7_s1 (in-place)
I0403 15:44:22.253484 12444 net.cpp:141] Setting up pool5/drop_7x7_s1
I0403 15:44:22.253506 12444 net.cpp:148] Top shape: 24 1024 1 1 (24576)
I0403 15:44:22.253520 12444 net.cpp:156] Memory required for data: 1346060832
I0403 15:44:22.253533 12444 layer_factory.hpp:77] Creating layer loss3/classifier_plantvillage
I0403 15:44:22.253554 12444 net.cpp:91] Creating Layer loss3/classifier_plantvillage
I0403 15:44:22.253571 12444 net.cpp:425] loss3/classifier_plantvillage <- pool5/7x7_s1
I0403 15:44:22.253588 12444 net.cpp:399] loss3/classifier_plantvillage -> loss3/classifier_plantvillage
I0403 15:44:22.254004 12444 net.cpp:141] Setting up loss3/classifier_plantvillage
I0403 15:44:22.254027 12444 net.cpp:148] Top shape: 24 38 (912)
I0403 15:44:22.254040 12444 net.cpp:156] Memory required for data: 1346064480
I0403 15:44:22.254057 12444 layer_factory.hpp:77] Creating layer loss3/classifier_plantvillage_loss3/classifier_plantvillage_0_split
I0403 15:44:22.254076 12444 net.cpp:91] Creating Layer loss3/classifier_plantvillage_loss3/classifier_plantvillage_0_split
I0403 15:44:22.254091 12444 net.cpp:425] loss3/classifier_plantvillage_loss3/classifier_plantvillage_0_split <- loss3/classifier_plantvillage
I0403 15:44:22.254111 12444 net.cpp:399] loss3/classifier_plantvillage_loss3/classifier_plantvillage_0_split -> loss3/classifier_plantvillage_loss3/classifier_plantvillage_0_split_0
I0403 15:44:22.254130 12444 net.cpp:399] loss3/classifier_plantvillage_loss3/classifier_plantvillage_0_split -> loss3/classifier_plantvillage_loss3/classifier_plantvillage_0_split_1
I0403 15:44:22.254150 12444 net.cpp:399] loss3/classifier_plantvillage_loss3/classifier_plantvillage_0_split -> loss3/classifier_plantvillage_loss3/classifier_plantvillage_0_split_2
I0403 15:44:22.254169 12444 net.cpp:399] loss3/classifier_plantvillage_loss3/classifier_plantvillage_0_split -> loss3/classifier_plantvillage_loss3/classifier_plantvillage_0_split_3
I0403 15:44:22.254268 12444 net.cpp:141] Setting up loss3/classifier_plantvillage_loss3/classifier_plantvillage_0_split
I0403 15:44:22.254293 12444 net.cpp:148] Top shape: 24 38 (912)
I0403 15:44:22.254308 12444 net.cpp:148] Top shape: 24 38 (912)
I0403 15:44:22.254328 12444 net.cpp:148] Top shape: 24 38 (912)
I0403 15:44:22.254343 12444 net.cpp:148] Top shape: 24 38 (912)
I0403 15:44:22.254356 12444 net.cpp:156] Memory required for data: 1346079072
I0403 15:44:22.254370 12444 layer_factory.hpp:77] Creating layer loss1/loss
I0403 15:44:22.254393 12444 net.cpp:91] Creating Layer loss1/loss
I0403 15:44:22.254410 12444 net.cpp:425] loss1/loss <- loss1/classifier_plantvillage_loss1/classifier_plantvillage_0_split_0
I0403 15:44:22.254439 12444 net.cpp:425] loss1/loss <- label_data_1_split_0
…
