…
I0403 15:26:01.749032 11956 net.cpp:313] The NetState phase (1) differed from the phase (0) specified by a rule in layer data
I0403 15:26:01.750283 11956 net.cpp:49] Initializing net from parameters: 
state {
  phase: TEST
}
layer {
  name: "data"
  type: "Data"
  top: "data"
  top: "label"
  include {
    phase: TEST
  }
  transform_param {
    mirror: false
    crop_size: 224
    mean_file: "/home/mohanty/data/final_dataset/lmdb/segmented-40-60/mean.binaryproto"
  }
  data_param {
    source: "/home/mohanty/data/final_dataset/lmdb/segmented-40-60/test_db"
    batch_size: 24
    backend: LMDB
  }
}
layer {
  name: "conv1/7x7_s2"
  type: "Convolution"
  bottom: "data"
  top: "conv1/7x7_s2"
  param {
    lr_mult: 1
    decay_mult: 1
  }
  param {
    lr_mult: 2
    decay_mult: 0
  }
  convolution_param {
    num_output: 64
    pad: 3
    kernel_size: 7
    stride: 2
    weight_filler {
      type: "xavier"
      std: 0.1
    }
    bias_filler {
      type: "constant"
      value: 0.2
    }
  }
}
layer {
  name: "conv1/relu_7x7"
  type: "ReLU"
  bottom: "conv1/7x7_s2"
  top: "conv1/7x7_s2"
}
layer {
  name: "pool1/3x3_s2"
  type: "Pooling"
  bottom: "conv1/7x7_s2"
  top: "pool1/3x3_s2"
  pooling_param {
    pool: MAX
    kernel_size: 3
    stride: 2
  }
}
layer {
  name: "pool1/norm1"
  type: "LRN"
  bottom: "pool1/3x3_s2"
  top: "pool1/norm1"
  lrn_param {
    local_size: 5
    alpha: 0.0001
    beta: 0.75
  }
}
layer {
  name: "conv2/3x3_reduce"
  type: "Convolution"
  bottom: "pool1/norm1"
  top: "conv2/3x3_reduce"
  param {
    lr_mult: 1
    decay_mult: 1
  }
  param {
    lr_mult: 2
    decay_mult: 0
  }
  convolution_param {
    num_output: 64
    kernel_size: 1
    weight_filler {
      type: "xavier"
      std: 0.1
    }
    bias_filler {
      type: "constant"
      value: 0.2
    }
  }
}
layer {
  name: "conv2/relu_3x3_reduce"
  type: "ReLU"
  bottom: "conv2/3x3_reduce"
  top: "conv2/3x3_reduce"
}
layer {
  name: "conv2/3x3"
  type: "Convolution"
  bottom: "conv2/3x3_reduce"
  top: "conv2/3x3"
  param {
    lr_mult: 1
    decay_mult: 1
  }
  param {
    lr_mult: 2
    decay_mult: 0
  }
  convolution_param {
    num_output: 192
    pad: 1
    kernel_size: 3
    weight_filler {
      type: "xavier"
      std: 0.03
    }
    bias_filler {
      type: "constant"
      value: 0.2
    }
  }
}
layer {
  name: "conv2/relu_3x3"
  type: "ReLU"
  bottom: "conv2/3x3"
  top: "conv2/3x3"
}
layer {
  name: "conv2/norm2"
  type: "LRN"
  bottom: "conv2/3x3"
  top: "conv2/norm2"
  lrn_param {
    local_size: 5
    alpha: 0.0001
    beta: 0.75
  }
}
layer {
  name: "pool2/3x3_s2"
  type: "Pooling"
  bottom: "conv2/norm2"
  top: "pool2/3x3_s2"
  pooling_param {
    pool: MAX
    kernel_size: 3
    stride: 2
  }
}
layer {
  name: "inception_3a/1x1"
  type: "Convolution"
  bottom: "pool2/3x3_s2"
  top: "inception_3a/1x1"
  param {
    lr_mult: 1
    decay_mult: 1
  }
  param {
    lr_mult: 2
    decay_mult: 0
  }
  convolution_param {
    num_output: 64
    kernel_size: 1
    weight_filler {
      type: "xavier"
      std: 0.03
    }
    bias_filler {
      type: "constant"
      value: 0.2
    }
  }
}
layer {
  name: "inception_3a/relu_1x1"
  type: "ReLU"
  bottom: "inception_3a/1x1"
  top: "inception_3a/1x1"
}
layer {
  name: "inception_3a/3x3_reduce"
  type: "Convolution"
  bottom: "pool2/3x3_s2"
  top: "inception_3a/3x3_reduce"
  param {
    lr_mult: 1
    decay_mult: 1
  }
  param {
    lr_mult: 2
    decay_mult: 0
  }
  convolution_param {
    num_output: 96
    kernel_size: 1
    weight_filler {
      type: "xavier"
      std: 0.09
    }
    bias_filler {
      type: "constant"
      value: 0.2
    }
  }
}
layer {
  name: "inception_3a/relu_3x3_reduce"
  type: "ReLU"
  bottom: "inception_3a/3x3_reduce"
  top: "inception_3a/3x3_reduce"
}
layer {
  name: "inception_3a/3x3"
  type: "Convolution"
  bottom: "inception_3a/3x3_reduce"
  top: "inception_3a/3x3"
  param {
    lr_mult: 1
    decay_mult: 1
  }
  param {
    lr_mult: 2
    decay_mult: 0
  }
  convolution_param {
    num_output: 128
    pad: 1
    kernel_size: 3
    weight_filler {
      type: "xavier"
      std: 0.03
    }
    bias_filler {
      type: "constant"
      value: 0.2
    }
  }
}
layer {
  name: "inception_3a/relu_3x3"
  type: "ReLU"
  bottom: "inception_3a/3x3"
  top: "inception_3a/3x3"
}
layer {
  name: "inception_3a/5x5_reduce"
  type: "Convolution"
  bottom: "pool2/3x3_s2"
  top: "inception_3a/5x5_reduce"
  param {
    lr_mult: 1
    decay_mult: 1
  }
  param {
    lr_mult: 2
    decay_mult: 0
  }
  convolution_param {
    num_output: 16
    kernel_size: 1
    weight_filler {
      type: "xavier"
      std: 0.2
    }
    bias_filler {
      type: "constant"
      value: 0.2
    }
  }
}
layer {
  name: "inception_3a/relu_5x5_reduce"
  type: "ReLU"
  bottom: "inception_3a/5x5_reduce"
  top: "inception_3a/5x5_reduce"
}
layer {
  name: "inception_3a/5x5"
  type: "Convolution"
  bottom: "inception_3a/5x5_reduce"
  top: "inception_3a/5x5"
  param {
    lr_mult: 1
    decay_mult: 1
  }
  param {
    lr_mult: 2
    decay_mult: 0
  }
  convolution_param {
    num_output: 32
    pad: 2
    kernel_size: 5
    weight_filler {
      type: "xavier"
      std: 0.03
    }
    bias_filler {
      type: "constant"
      value: 0.2
    }
  }
}
layer {
  name: "inception_3a/relu_5x5"
  type: "ReLU"
  bottom: "inception_3a/5x5"
  top: "inception_3a/5x5"
}
layer {
  name: "inception_3a/pool"
  type: "Pooling"
  bottom: "pool2/3x3_s2"
  top: "inception_3a/pool"
  pooling_param {
    pool: MAX
    kernel_size: 3
    stride: 1
    pad: 1
  }
}
layer {
  name: "inception_3a/pool_proj"
  type: "Convolution"
  bottom: "inception_3a/pool"
  top: "inception_3a/pool_proj"
  param {
    lr_mult: 1
    decay_mult: 1
  }
  param {
    lr_mult: 2
    decay_mult: 0
  }
  convolution_param {
    num_output: 32
    kernel_size: 1
    weight_filler {
      type: "xavier"
      std: 0.1
    }
    bias_filler {
      type: "constant"
      value: 0.2
    }
  }
}
layer {
  name: "inception_3a/relu_pool_proj"
  type: "ReLU"
  bottom: "inception_3a/pool_proj"
  top: "inception_3a/pool_proj"
}
layer {
  name: "inception_3a/output"
  type: "Concat"
  bottom: "inception_3a/1x1"
  bottom: "inception_3a/3x3"
  bottom: "inception_3a/5x5"
  bottom: "inception_3a/pool_proj"
  top: "inception_3a/output"
}
layer {
  name: "inception_3b/1x1"
  type: "Convolution"
  bottom: "inception_3a/output"
  top: "inception_3b/1x1"
  param {
    lr_mult: 1
    decay_mult: 1
  }
  param {
    lr_mult: 2
    decay_mult: 0
  }
  convolution_param {
    num_output: 128
    kernel_size: 1
    weight_filler {
      type: "xavier"
      std: 0.03
    }
    bias_filler {
      type: "constant"
      value: 0.2
    }
  }
}
layer {
  name: "inception_3b/relu_1x1"
  type: "ReLU"
  bottom: "inception_3b/1x1"
  top: "inception_3b/1x1"
}
layer {
  name: "inception_3b/3x3_reduce"
  type: "Convolution"
  bottom: "inception_3a/output"
  top: "inception_3b/3x3_reduce"
  param {
    lr_mult: 1
    decay_mult: 1
  }
  param {
    lr_mult: 2
    decay_mult: 0
  }
  convolution_param {
    num_output: 128
    kernel_size: 1
    weight_filler {
      type: "xavier"
      std: 0.09
    }
    bias_filler {
      type: "constant"
      value: 0.2
    }
  }
}
layer {
  name: "inception_3b/relu_3x3_reduce"
  type: "ReLU"
  bottom: "inception_3b/3x3_reduce"
  top: "inception_3b/3x3_reduce"
}
layer {
  name: "inception_3b/3x3"
  type: "Convolution"
  bottom: "inception_3b/3x3_reduce"
  top: "inception_3b/3x3"
  param {
    lr_mult: 1
    decay_mult: 1
  }
  param {
    lr_mult: 2
    decay_mult: 0
  }
  convolution_param {
    num_output: 192
    pad: 1
    kernel_size: 3
    weight_filler {
      type: "xavier"
      std: 0.03
    }
    bias_filler {
      type: "constant"
      value: 0.2
    }
  }
}
layer {
  name: "inception_3b/relu_3x3"
  type: "ReLU"
  bottom: "inception_3b/3x3"
  top: "inception_3b/3x3"
}
layer {
  name: "inception_3b/5x5_reduce"
  type: "Convolution"
  bottom: "inception_3a/output"
  top: "inception_3b/5x5_reduce"
  param {
    lr_mult: 1
    decay_mult: 1
  }
  param {
    lr_mult: 2
    decay_mult: 0
  }
  convolution_param {
    num_output: 32
    kernel_size: 1
    weight_filler {
      type: "xavier"
      std: 0.2
    }
    bias_filler {
      type: "constant"
      value: 0.2
    }
  }
}
layer {
  name: "inception_3b/relu_5x5_reduce"
  type: "ReLU"
  bottom: "inception_3b/5x5_reduce"
  top: "inception_3b/5x5_reduce"
}
layer {
  name: "inception_3b/5x5"
  type: "Convolution"
  bottom: "inception_3b/5x5_reduce"
  top: "inception_3b/5x5"
  param {
    lr_mult: 1
    decay_mult: 1
  }
  param {
    lr_mult: 2
    decay_mult: 0
  }
  convolution_param {
    num_output: 96
    pad: 2
    kernel_size: 5
    weight_filler {
      type: "xavier"
      std: 0.03
    }
    bias_filler {
      type: "constant"
      value: 0.2
    }
  }
}
layer {
  name: "inception_3b/relu_5x5"
  type: "ReLU"
  bottom: "inception_3b/5x5"
  top: "inception_3b/5x5"
}
layer {
  name: "inception_3b/pool"
  type: "Pooling"
  bottom: "inception_3a/output"
  top: "inception_3b/pool"
  pooling_param {
    pool: MAX
    kernel_size: 3
    stride: 1
    pad: 1
  }
}
layer {
  name: "inception_3b/pool_proj"
  type: "Convolution"
  bottom: "inception_3b/pool"
  top: "inception_3b/pool_proj"
  param {
    lr_mult: 1
    decay_mult: 1
  }
  param {
    lr_mult: 2
    decay_mult: 0
  }
  convolution_param {
    num_output: 64
    kernel_size: 1
    weight_filler {
      type: "xavier"
      std: 0.1
    }
    bias_filler {
      type: "constant"
      value: 0.2
    }
  }
}
layer {
  name: "inception_3b/relu_pool_proj"
  type: "ReLU"
  bottom: "inception_3b/pool_proj"
  top: "inception_3b/pool_proj"
}
layer {
  name: "inception_3b/output"
  type: "Concat"
  bottom: "inception_3b/1x1"
  bottom: "inception_3b/3x3"
  bottom: "inception_3b/5x5"
  bottom: "inception_3b/pool_proj"
  top: "inception_3b/output"
}
layer {
  name: "pool3/3x3_s2"
  type: "Pooling"
  bottom: "inception_3b/output"
  top: "pool3/3x3_s2"
  pooling_param {
    pool: MAX
    kernel_size: 3
    stride: 2
  }
}
layer {
  name: "inception_4a/1x1"
  type: "Convolution"
  bottom: "pool3/3x3_s2"
  top: "inception_4a/1x1"
  param {
    lr_mult: 1
    decay_mult: 1
  }
  param {
    lr_mult: 2
    decay_mult: 0
  }
  convolution_param {
    num_output: 192
    kernel_size: 1
    weight_filler {
      type: "xavier"
      std: 0.03
    }
    bias_filler {
      type: "constant"
      value: 0.2
    }
  }
}
layer {
  name: "inception_4a/relu_1x1"
  type: "ReLU"
  bottom: "inception_4a/1x1"
  top: "inception_4a/1x1"
}
layer {
  name: "inception_4a/3x3_reduce"
  type: "Convolution"
  bottom: "pool3/3x3_s2"
  top: "inception_4a/3x3_reduce"
  param {
    lr_mult: 1
    decay_mult: 1
  }
  param {
    lr_mult: 2
    decay_mult: 0
  }
  convolution_param {
    num_output: 96
    kernel_size: 1
    weight_filler {
      type: "xavier"
      std: 0.09
    }
    bias_filler {
      type: "constant"
      value: 0.2
    }
  }
}
layer {
  name: "inception_4a/relu_3x3_reduce"
  type: "ReLU"
  bottom: "inception_4a/3x3_reduce"
  top: "inception_4a/3x3_reduce"
}
layer {
  name: "inception_4a/3x3"
  type: "Convolution"
  bottom: "inception_4a/3x3_reduce"
  top: "inception_4a/3x3"
  param {
    lr_mult: 1
    decay_mult: 1
  }
  param {
    lr_mult: 2
    decay_mult: 0
  }
  convolution_param {
    num_output: 208
    pad: 1
    kernel_size: 3
    weight_filler {
      type: "xavier"
      std: 0.03
    }
    bias_filler {
      type: "constant"
      value: 0.2
    }
  }
}
layer {
  name: "inception_4a/relu_3x3"
  type: "ReLU"
  bottom: "inception_4a/3x3"
  top: "inception_4a/3x3"
}
layer {
  name: "inception_4a/5x5_reduce"
  type: "Convolution"
  bottom: "pool3/3x3_s2"
  top: "inception_4a/5x5_reduce"
  param {
    lr_mult: 1
    decay_mult: 1
  }
  param {
    lr_mult: 2
    decay_mult: 0
  }
  convolution_param {
    num_output: 16
    kernel_size: 1
    weight_filler {
      type: "xavier"
      std: 0.2
    }
    bias_filler {
      type: "constant"
      value: 0.2
    }
  }
}
layer {
  name: "inception_4a/relu_5x5_reduce"
  type: "ReLU"
  bottom: "inception_4a/5x5_reduce"
  top: "inception_4a/5x5_reduce"
}
layer {
  name: "inception_4a/5x5"
  type: "Convolution"
  bottom: "inception_4a/5x5_reduce"
  top: "inception_4a/5x5"
  param {
    lr_mult: 1
    decay_mult: 1
  }
  param {
    lr_mult: 2
    decay_mult: 0
  }
  convolution_param {
    num_output: 48
    pad: 2
    kernel_size: 5
    weight_filler {
      type: "xavier"
      std: 0.03
    }
    bias_filler {
      type: "constant"
      value: 0.2
    }
  }
}
layer {
  name: "inception_4a/relu_5x5"
  type: "ReLU"
  bottom: "inception_4a/5x5"
  top: "inception_4a/5x5"
}
layer {
  name: "inception_4a/pool"
  type: "Pooling"
  bottom: "pool3/3x3_s2"
  top: "inception_4a/pool"
  pooling_param {
    pool: MAX
    kernel_size: 3
    stride: 1
    pad: 1
  }
}
layer {
  name: "inception_4a/pool_proj"
  type: "Convolution"
  bottom: "inception_4a/pool"
  top: "inception_4a/pool_proj"
  param {
    lr_mult: 1
    decay_mult: 1
  }
  param {
    lr_mult: 2
    decay_mult: 0
  }
  convolution_param {
    num_output: 64
    kernel_size: 1
    weight_filler {
      type: "xavier"
      std: 0.1
    }
    bias_filler {
      type: "constant"
      value: 0.2
    }
  }
}
layer {
  name: "inception_4a/relu_pool_proj"
  type: "ReLU"
  bottom: "inception_4a/pool_proj"
  top: "inception_4a/pool_proj"
}
layer {
  name: "inception_4a/output"
  type: "Concat"
  bottom: "inception_4a/1x1"
  bottom: "inception_4a/3x3"
  bottom: "inception_4a/5x5"
  bottom: "inception_4a/pool_proj"
  top: "inception_4a/output"
}
layer {
  name: "loss1/ave_pool"
  type: "Pooling"
  bottom: "inception_4a/output"
  top: "loss1/ave_pool"
  pooling_param {
    pool: AVE
    kernel_size: 5
    stride: 3
  }
}
layer {
  name: "loss1/conv"
  type: "Convolution"
  bottom: "loss1/ave_pool"
  top: "loss1/conv"
  param {
    lr_mult: 1
    decay_mult: 1
  }
  param {
    lr_mult: 2
    decay_mult: 0
  }
  convolution_param {
    num_output: 128
    kernel_size: 1
    weight_filler {
      type: "xavier"
      std: 0.08
    }
    bias_filler {
      type: "constant"
      value: 0.2
    }
  }
}
layer {
  name: "loss1/relu_conv"
  type: "ReLU"
  bottom: "loss1/conv"
  top: "loss1/conv"
}
layer {
  name: "loss1/fc"
  type: "InnerProduct"
  bottom: "loss1/conv"
  top: "loss1/fc"
  param {
    lr_mult: 1
    decay_mult: 1
  }
  param {
    lr_mult: 2
    decay_mult: 0
  }
  inner_product_param {
    num_output: 1024
    weight_filler {
      type: "xavier"
      std: 0.02
    }
    bias_filler {
      type: "constant"
      value: 0.2
    }
  }
}
layer {
  name: "loss1/relu_fc"
  type: "ReLU"
  bottom: "loss1/fc"
  top: "loss1/fc"
}
layer {
  name: "loss1/drop_fc"
  type: "Dropout"
  bottom: "loss1/fc"
  top: "loss1/fc"
  dropout_param {
    dropout_ratio: 0.7
  }
}
layer {
  name: "loss1/classifier_plantvillage"
  type: "InnerProduct"
  bottom: "loss1/fc"
  top: "loss1/classifier_plantvillage"
  param {
    lr_mult: 1
    decay_mult: 1
  }
  param {
    lr_mult: 2
    decay_mult: 0
  }
  inner_product_param {
    num_output: 38
    weight_filler {
      type: "xavier"
      std: 0.0009765625
    }
    bias_filler {
      type: "constant"
      value: 0
    }
  }
}
layer {
  name: "inception_4b/1x1"
  type: "Convolution"
  bottom: "inception_4a/output"
  top: "inception_4b/1x1"
  param {
    lr_mult: 1
    decay_mult: 1
  }
  param {
    lr_mult: 2
    decay_mult: 0
  }
  convolution_param {
    num_output: 160
    kernel_size: 1
    weight_filler {
      type: "xavier"
      std: 0.03
    }
    bias_filler {
      type: "constant"
      value: 0.2
    }
  }
}
layer {
  name: "inception_4b/relu_1x1"
  type: "ReLU"
  bottom: "inception_4b/1x1"
  top: "inception_4b/1x1"
}
layer {
  name: "inception_4b/3x3_reduce"
  type: "Convolution"
  bottom: "inception_4a/output"
  top: "inception_4b/3x3_reduce"
  param {
    lr_mult: 1
    decay_mult: 1
  }
  param {
    lr_mult: 2
    decay_mult: 0
  }
  convolution_param {
    num_output: 112
    kernel_size: 1
    weight_filler {
      type: "xavier"
      std: 0.09
    }
    bias_filler {
      type: "constant"
      value: 0.2
    }
  }
}
layer {
  name: "inception_4b/relu_3x3_reduce"
  type: "ReLU"
  bottom: "inception_4b/3x3_reduce"
  top: "inception_4b/3x3_reduce"
}
layer {
  name: "inception_4b/3x3"
  type: "Convolution"
  bottom: "inception_4b/3x3_reduce"
  top: "inception_4b/3x3"
  param {
    lr_mult: 1
    decay_mult: 1
  }
  param {
    lr_mult: 2
    decay_mult: 0
  }
  convolution_param {
    num_output: 224
    pad: 1
    kernel_size: 3
    weight_filler {
      type: "xavier"
      std: 0.03
    }
    bias_filler {
      type: "constant"
      value: 0.2
    }
  }
}
layer {
  name: "inception_4b/relu_3x3"
  type: "ReLU"
  bottom: "inception_4b/3x3"
  top: "inception_4b/3x3"
}
layer {
  name: "inception_4b/5x5_reduce"
  type: "Convolution"
  bottom: "inception_4a/output"
  top: "inception_4b/5x5_reduce"
  param {
    lr_mult: 1
    decay_mult: 1
  }
  param {
    lr_mult: 2
    decay_mult: 0
  }
  convolution_param {
    num_output: 24
    kernel_size: 1
    weight_filler {
      type: "xavier"
      std: 0.2
    }
    bias_filler {
      type: "constant"
      value: 0.2
    }
  }
}
layer {
  name: "inception_4b/relu_5x5_reduce"
  type: "ReLU"
  bottom: "inception_4b/5x5_reduce"
  top: "inception_4b/5x5_reduce"
}
layer {
  name: "inception_4b/5x5"
  type: "Convolution"
  bottom: "inception_4b/5x5_reduce"
  top: "inception_4b/5x5"
  param {
    lr_mult: 1
    decay_mult: 1
  }
  param {
    lr_mult: 2
    decay_mult: 0
  }
  convolution_param {
    num_output: 64
    pad: 2
    kernel_size: 5
    weight_filler {
      type: "xavier"
      std: 0.03
    }
    bias_filler {
      type: "constant"
      value: 0.2
    }
  }
}
layer {
  name: "inception_4b/relu_5x5"
  type: "ReLU"
  bottom: "inception_4b/5x5"
  top: "inception_4b/5x5"
}
layer {
  name: "inception_4b/pool"
  type: "Pooling"
  bottom: "inception_4a/output"
  top: "inception_4b/pool"
  pooling_param {
    pool: MAX
    kernel_size: 3
    stride: 1
    pad: 1
  }
}
layer {
  name: "inception_4b/pool_proj"
  type: "Convolution"
  bottom: "inception_4b/pool"
  top: "inception_4b/pool_proj"
  param {
    lr_mult: 1
    decay_mult: 1
  }
  param {
    lr_mult: 2
    decay_mult: 0
  }
  convolution_param {
    num_output: 64
    kernel_size: 1
    weight_filler {
      type: "xavier"
      std: 0.1
    }
    bias_filler {
      type: "constant"
      value: 0.2
    }
  }
}
layer {
  name: "inception_4b/relu_pool_proj"
  type: "ReLU"
  bottom: "inception_4b/pool_proj"
  top: "inception_4b/pool_proj"
}
layer {
  name: "inception_4b/output"
  type: "Concat"
  bottom: "inception_4b/1x1"
  bottom: "inception_4b/3x3"
  bottom: "inception_4b/5x5"
  bottom: "inception_4b/pool_proj"
  top: "inception_4b/output"
}
layer {
  name: "inception_4c/1x1"
  type: "Convolution"
  bottom: "inception_4b/output"
  top: "inception_4c/1x1"
  param {
    lr_mult: 1
    decay_mult: 1
  }
  param {
    lr_mult: 2
    decay_mult: 0
  }
  convolution_param {
    num_output: 128
    kernel_size: 1
    weight_filler {
      type: "xavier"
      std: 0.03
    }
    bias_filler {
      type: "constant"
      value: 0.2
    }
  }
}
layer {
  name: "inception_4c/relu_1x1"
  type: "ReLU"
  bottom: "inception_4c/1x1"
  top: "inception_4c/1x1"
}
layer {
  name: "inception_4c/3x3_reduce"
  type: "Convolution"
  bottom: "inception_4b/output"
  top: "inception_4c/3x3_reduce"
  param {
    lr_mult: 1
    decay_mult: 1
  }
  param {
    lr_mult: 2
    decay_mult: 0
  }
  convolution_param {
    num_output: 128
    kernel_size: 1
    weight_filler {
      type: "xavier"
      std: 0.09
    }
    bias_filler {
      type: "constant"
      value: 0.2
    }
  }
}
layer {
  name: "inception_4c/relu_3x3_reduce"
  type: "ReLU"
  bottom: "inception_4c/3x3_reduce"
  top: "inception_4c/3x3_reduce"
}
layer {
  name: "inception_4c/3x3"
  type: "Convolution"
  bottom: "inception_4c/3x3_reduce"
  top: "inception_4c/3x3"
  param {
    lr_mult: 1
    decay_mult: 1
  }
  param {
    lr_mult: 2
    decay_mult: 0
  }
  convolution_param {
    num_output: 256
    pad: 1
    kernel_size: 3
    weight_filler {
      type: "xavier"
      std: 0.03
    }
    bias_filler {
      type: "constant"
      value: 0.2
    }
  }
}
layer {
  name: "inception_4c/relu_3x3"
  type: "ReLU"
  bottom: "inception_4c/3x3"
  top: "inception_4c/3x3"
}
layer {
  name: "inception_4c/5x5_reduce"
  type: "Convolution"
  bottom: "inception_4b/output"
  top: "inception_4c/5x5_reduce"
  param {
    lr_mult: 1
    decay_mult: 1
  }
  param {
    lr_mult: 2
    decay_mult: 0
  }
  convolution_param {
    num_output: 24
    kernel_size: 1
    weight_filler {
      type: "xavier"
      std: 0.2
    }
    bias_filler {
      type: "constant"
      value: 0.2
    }
  }
}
layer {
  name: "inception_4c/relu_5x5_reduce"
  type: "ReLU"
  bottom: "inception_4c/5x5_reduce"
  top: "inception_4c/5x5_reduce"
}
layer {
  name: "inception_4c/5x5"
  type: "Convolution"
  bottom: "inception_4c/5x5_reduce"
  top: "inception_4c/5x5"
  param {
    lr_mult: 1
    decay_mult: 1
  }
  param {
    lr_mult: 2
    decay_mult: 0
  }
  convolution_param {
    num_output: 64
    pad: 2
    kernel_size: 5
    weight_filler {
      type: "xavier"
      std: 0.03
    }
    bias_filler {
      type: "constant"
      value: 0.2
    }
  }
}
layer {
  name: "inception_4c/relu_5x5"
  type: "ReLU"
  bottom: "inception_4c/5x5"
  top: "inception_4c/5x5"
}
layer {
  name: "inception_4c/pool"
  type: "Pooling"
  bottom: "inception_4b/output"
  top: "inception_4c/pool"
  pooling_param {
    pool: MAX
    kernel_size: 3
    stride: 1
    pad: 1
  }
}
layer {
  name: "inception_4c/pool_proj"
  type: "Convolution"
  bottom: "inception_4c/pool"
  top: "inception_4c/pool_proj"
  param {
    lr_mult: 1
    decay_mult: 1
  }
  param {
    lr_mult: 2
    decay_mult: 0
  }
  convolution_param {
    num_output: 64
    kernel_size: 1
    weight_filler {
      type: "xavier"
      std: 0.1
    }
    bias_filler {
      type: "constant"
      value: 0.2
    }
  }
}
layer {
  name: "inception_4c/relu_pool_proj"
  type: "ReLU"
  bottom: "inception_4c/pool_proj"
  top: "inception_4c/pool_proj"
}
layer {
  name: "inception_4c/output"
  type: "Concat"
  bottom: "inception_4c/1x1"
  bottom: "inception_4c/3x3"
  bottom: "inception_4c/5x5"
  bottom: "inception_4c/pool_proj"
  top: "inception_4c/output"
}
layer {
  name: "inception_4d/1x1"
  type: "Convolution"
  bottom: "inception_4c/output"
  top: "inception_4d/1x1"
  param {
    lr_mult: 1
    decay_mult: 1
  }
  param {
    lr_mult: 2
    decay_mult: 0
  }
  convolution_param {
    num_output: 112
    kernel_size: 1
    weight_filler {
      type: "xavier"
      std: 0.03
    }
    bias_filler {
      type: "constant"
      value: 0.2
    }
  }
}
layer {
  name: "inception_4d/relu_1x1"
  type: "ReLU"
  bottom: "inception_4d/1x1"
  top: "inception_4d/1x1"
}
layer {
  name: "inception_4d/3x3_reduce"
  type: "Convolution"
  bottom: "inception_4c/output"
  top: "inception_4d/3x3_reduce"
  param {
    lr_mult: 1
    decay_mult: 1
  }
  param {
    lr_mult: 2
    decay_mult: 0
  }
  convolution_param {
    num_output: 144
    kernel_size: 1
    weight_filler {
      type: "xavier"
      std: 0.09
    }
    bias_filler {
      type: "constant"
      value: 0.2
    }
  }
}
layer {
  name: "inception_4d/relu_3x3_reduce"
  type: "ReLU"
  bottom: "inception_4d/3x3_reduce"
  top: "inception_4d/3x3_reduce"
}
layer {
  name: "inception_4d/3x3"
  type: "Convolution"
  bottom: "inception_4d/3x3_reduce"
  top: "inception_4d/3x3"
  param {
    lr_mult: 1
    decay_mult: 1
  }
  param {
    lr_mult: 2
    decay_mult: 0
  }
  convolution_param {
    num_output: 288
    pad: 1
    kernel_size: 3
    weight_filler {
      type: "xavier"
      std: 0.03
    }
    bias_filler {
      type: "constant"
      value: 0.2
    }
  }
}
layer {
  name: "inception_4d/relu_3x3"
  type: "ReLU"
  bottom: "inception_4d/3x3"
  top: "inception_4d/3x3"
}
layer {
  name: "inception_4d/5x5_reduce"
  type: "Convolution"
  bottom: "inception_4c/output"
  top: "inception_4d/5x5_reduce"
  param {
    lr_mult: 1
    decay_mult: 1
  }
  param {
    lr_mult: 2
    decay_mult: 0
  }
  convolution_param {
    num_output: 32
    kernel_size: 1
    weight_filler {
      type: "xavier"
      std: 0.2
    }
    bias_filler {
      type: "constant"
      value: 0.2
    }
  }
}
layer {
  name: "inception_4d/relu_5x5_reduce"
  type: "ReLU"
  bottom: "inception_4d/5x5_reduce"
  top: "inception_4d/5x5_reduce"
}
layer {
  name: "inception_4d/5x5"
  type: "Convolution"
  bottom: "inception_4d/5x5_reduce"
  top: "inception_4d/5x5"
  param {
    lr_mult: 1
    decay_mult: 1
  }
  param {
    lr_mult: 2
    decay_mult: 0
  }
  convolution_param {
    num_output: 64
    pad: 2
    kernel_size: 5
    weight_filler {
      type: "xavier"
      std: 0.03
    }
    bias_filler {
      type: "constant"
      value: 0.2
    }
  }
}
layer {
  name: "inception_4d/relu_5x5"
  type: "ReLU"
  bottom: "inception_4d/5x5"
  top: "inception_4d/5x5"
}
layer {
  name: "inception_4d/pool"
  type: "Pooling"
  bottom: "inception_4c/output"
  top: "inception_4d/pool"
  pooling_param {
    pool: MAX
    kernel_size: 3
    stride: 1
    pad: 1
  }
}
layer {
  name: "inception_4d/pool_proj"
  type: "Convolution"
  bottom: "inception_4d/pool"
  top: "inception_4d/pool_proj"
  param {
    lr_mult: 1
    decay_mult: 1
  }
  param {
    lr_mult: 2
    decay_mult: 0
  }
  convolution_param {
    num_output: 64
    kernel_size: 1
    weight_filler {
      type: "xavier"
      std: 0.1
    }
    bias_filler {
      type: "constant"
      value: 0.2
    }
  }
}
layer {
  name: "inception_4d/relu_pool_proj"
  type: "ReLU"
  bottom: "inception_4d/pool_proj"
  top: "inception_4d/pool_proj"
}
layer {
  name: "inception_4d/output"
  type: "Concat"
  bottom: "inception_4d/1x1"
  bottom: "inception_4d/3x3"
  bottom: "inception_4d/5x5"
  bottom: "inception_4d/pool_proj"
  top: "inception_4d/output"
}
layer {
  name: "loss2/ave_pool"
  type: "Pooling"
  bottom: "inception_4d/output"
  top: "loss2/ave_pool"
  pooling_param {
    pool: AVE
    kernel_size: 5
    stride: 3
  }
}
layer {
  name: "loss2/conv"
  type: "Convolution"
  bottom: "loss2/ave_pool"
  top: "loss2/conv"
  param {
    lr_mult: 1
    decay_mult: 1
  }
  param {
    lr_mult: 2
    decay_mult: 0
  }
  convolution_param {
    num_output: 128
    kernel_size: 1
    weight_filler {
      type: "xavier"
      std: 0.08
    }
    bias_filler {
      type: "constant"
      value: 0.2
    }
  }
}
layer {
  name: "loss2/relu_conv"
  type: "ReLU"
  bottom: "loss2/conv"
  top: "loss2/conv"
}
layer {
  name: "loss2/fc"
  type: "InnerProduct"
  bottom: "loss2/conv"
  top: "loss2/fc"
  param {
    lr_mult: 1
    decay_mult: 1
  }
  param {
    lr_mult: 2
    decay_mult: 0
  }
  inner_product_param {
    num_output: 1024
    weight_filler {
      type: "xavier"
      std: 0.02
    }
    bias_filler {
      type: "constant"
      value: 0.2
    }
  }
}
layer {
  name: "loss2/relu_fc"
  type: "ReLU"
  bottom: "loss2/fc"
  top: "loss2/fc"
}
layer {
  name: "loss2/drop_fc"
  type: "Dropout"
  bottom: "loss2/fc"
  top: "loss2/fc"
  dropout_param {
    dropout_ratio: 0.7
  }
}
layer {
  name: "loss2/classifier_plantvillage"
  type: "InnerProduct"
  bottom: "loss2/fc"
  top: "loss2/classifier_plantvillage"
  param {
    lr_mult: 1
    decay_mult: 1
  }
  param {
    lr_mult: 2
    decay_mult: 0
  }
  inner_product_param {
    num_output: 38
    weight_filler {
      type: "xavier"
      std: 0.0009765625
    }
    bias_filler {
      type: "constant"
      value: 0
    }
  }
}
layer {
  name: "inception_4e/1x1"
  type: "Convolution"
  bottom: "inception_4d/output"
  top: "inception_4e/1x1"
  param {
    lr_mult: 1
    decay_mult: 1
  }
  param {
    lr_mult: 2
    decay_mult: 0
  }
  convolution_param {
    num_output: 256
    kernel_size: 1
    weight_filler {
      type: "xavier"
      std: 0.03
    }
    bias_filler {
      type: "constant"
      value: 0.2
    }
  }
}
layer {
  name: "inception_4e/relu_1x1"
  type: "ReLU"
  bottom: "inception_4e/1x1"
  top: "inception_4e/1x1"
}
layer {
  name: "inception_4e/3x3_reduce"
  type: "Convolution"
  bottom: "inception_4d/output"
  top: "inception_4e/3x3_reduce"
  param {
    lr_mult: 1
    decay_mult: 1
  }
  param {
    lr_mult: 2
    decay_mult: 0
  }
  convolution_param {
    num_output: 160
    kernel_size: 1
    weight_filler {
      type: "xavier"
      std: 0.09
    }
    bias_filler {
      type: "constant"
      value: 0.2
    }
  }
}
layer {
  name: "inception_4e/relu_3x3_reduce"
  type: "ReLU"
  bottom: "inception_4e/3x3_reduce"
  top: "inception_4e/3x3_reduce"
}
layer {
  name: "inception_4e/3x3"
  type: "Convolution"
  bottom: "inception_4e/3x3_reduce"
  top: "inception_4e/3x3"
  param {
    lr_mult: 1
    decay_mult: 1
  }
  param {
    lr_mult: 2
    decay_mult: 0
  }
  convolution_param {
    num_output: 320
    pad: 1
    kernel_size: 3
    weight_filler {
      type: "xavier"
      std: 0.03
    }
    bias_filler {
      type: "constant"
      value: 0.2
    }
  }
}
layer {
  name: "inception_4e/relu_3x3"
  type: "ReLU"
  bottom: "inception_4e/3x3"
  top: "inception_4e/3x3"
}
layer {
  name: "inception_4e/5x5_reduce"
  type: "Convolution"
  bottom: "inception_4d/output"
  top: "inception_4e/5x5_reduce"
  param {
    lr_mult: 1
    decay_mult: 1
  }
  param {
    lr_mult: 2
    decay_mult: 0
  }
  convolution_param {
    num_output: 32
    kernel_size: 1
    weight_filler {
      type: "xavier"
      std: 0.2
    }
    bias_filler {
      type: "constant"
      value: 0.2
    }
  }
}
layer {
  name: "inception_4e/relu_5x5_reduce"
  type: "ReLU"
  bottom: "inception_4e/5x5_reduce"
  top: "inception_4e/5x5_reduce"
}
layer {
  name: "inception_4e/5x5"
  type: "Convolution"
  bottom: "inception_4e/5x5_reduce"
  top: "inception_4e/
I0403 15:26:01.751515 11956 layer_factory.hpp:77] Creating layer data
I0403 15:26:01.752136 11956 net.cpp:91] Creating Layer data
I0403 15:26:01.752169 11956 net.cpp:399] data -> data
I0403 15:26:01.752223 11956 net.cpp:399] data -> label
I0403 15:26:01.752259 11956 data_transformer.cpp:25] Loading mean file from: /home/mohanty/data/final_dataset/lmdb/segmented-40-60/mean.binaryproto
I0403 15:26:01.755342 11959 db_lmdb.cpp:38] Opened lmdb /home/mohanty/data/final_dataset/lmdb/segmented-40-60/test_db
I0403 15:26:01.765635 11956 data_layer.cpp:41] output data size: 24,3,224,224
I0403 15:26:01.792480 11956 net.cpp:141] Setting up data
I0403 15:26:01.792570 11956 net.cpp:148] Top shape: 24 3 224 224 (3612672)
I0403 15:26:01.792593 11956 net.cpp:148] Top shape: 24 (24)
I0403 15:26:01.792608 11956 net.cpp:156] Memory required for data: 14450784
I0403 15:26:01.792634 11956 layer_factory.hpp:77] Creating layer label_data_1_split
I0403 15:26:01.792659 11956 net.cpp:91] Creating Layer label_data_1_split
I0403 15:26:01.792677 11956 net.cpp:425] label_data_1_split <- label
I0403 15:26:01.792707 11956 net.cpp:399] label_data_1_split -> label_data_1_split_0
I0403 15:26:01.792734 11956 net.cpp:399] label_data_1_split -> label_data_1_split_1
I0403 15:26:01.792754 11956 net.cpp:399] label_data_1_split -> label_data_1_split_2
I0403 15:26:01.792774 11956 net.cpp:399] label_data_1_split -> label_data_1_split_3
I0403 15:26:01.792793 11956 net.cpp:399] label_data_1_split -> label_data_1_split_4
I0403 15:26:01.792812 11956 net.cpp:399] label_data_1_split -> label_data_1_split_5
I0403 15:26:01.792830 11956 net.cpp:399] label_data_1_split -> label_data_1_split_6
I0403 15:26:01.792850 11956 net.cpp:399] label_data_1_split -> label_data_1_split_7
I0403 15:26:01.792868 11956 net.cpp:399] label_data_1_split -> label_data_1_split_8
I0403 15:26:01.792887 11956 net.cpp:399] label_data_1_split -> label_data_1_split_9
I0403 15:26:01.793004 11956 net.cpp:141] Setting up label_data_1_split
I0403 15:26:01.793027 11956 net.cpp:148] Top shape: 24 (24)
I0403 15:26:01.793043 11956 net.cpp:148] Top shape: 24 (24)
I0403 15:26:01.793061 11956 net.cpp:148] Top shape: 24 (24)
I0403 15:26:01.793076 11956 net.cpp:148] Top shape: 24 (24)
I0403 15:26:01.793090 11956 net.cpp:148] Top shape: 24 (24)
I0403 15:26:01.793105 11956 net.cpp:148] Top shape: 24 (24)
I0403 15:26:01.793120 11956 net.cpp:148] Top shape: 24 (24)
I0403 15:26:01.793135 11956 net.cpp:148] Top shape: 24 (24)
I0403 15:26:01.793150 11956 net.cpp:148] Top shape: 24 (24)
I0403 15:26:01.793165 11956 net.cpp:148] Top shape: 24 (24)
I0403 15:26:01.793210 11956 net.cpp:156] Memory required for data: 14451744
I0403 15:26:01.793226 11956 layer_factory.hpp:77] Creating layer conv1/7x7_s2
I0403 15:26:01.793256 11956 net.cpp:91] Creating Layer conv1/7x7_s2
I0403 15:26:01.793275 11956 net.cpp:425] conv1/7x7_s2 <- data
I0403 15:26:01.793295 11956 net.cpp:399] conv1/7x7_s2 -> conv1/7x7_s2
I0403 15:26:01.931793 11956 net.cpp:141] Setting up conv1/7x7_s2
I0403 15:26:01.931885 11956 net.cpp:148] Top shape: 24 64 112 112 (19267584)
I0403 15:26:01.931900 11956 net.cpp:156] Memory required for data: 91522080
I0403 15:26:01.931931 11956 layer_factory.hpp:77] Creating layer conv1/relu_7x7
I0403 15:26:01.931957 11956 net.cpp:91] Creating Layer conv1/relu_7x7
I0403 15:26:01.931974 11956 net.cpp:425] conv1/relu_7x7 <- conv1/7x7_s2
I0403 15:26:01.931993 11956 net.cpp:386] conv1/relu_7x7 -> conv1/7x7_s2 (in-place)
I0403 15:26:01.932246 11956 net.cpp:141] Setting up conv1/relu_7x7
I0403 15:26:01.932272 11956 net.cpp:148] Top shape: 24 64 112 112 (19267584)
I0403 15:26:01.932287 11956 net.cpp:156] Memory required for data: 168592416
I0403 15:26:01.932302 11956 layer_factory.hpp:77] Creating layer pool1/3x3_s2
I0403 15:26:01.932330 11956 net.cpp:91] Creating Layer pool1/3x3_s2
I0403 15:26:01.932348 11956 net.cpp:425] pool1/3x3_s2 <- conv1/7x7_s2
I0403 15:26:01.932365 11956 net.cpp:399] pool1/3x3_s2 -> pool1/3x3_s2
I0403 15:26:01.932437 11956 net.cpp:141] Setting up pool1/3x3_s2
I0403 15:26:01.932461 11956 net.cpp:148] Top shape: 24 64 56 56 (4816896)
I0403 15:26:01.932476 11956 net.cpp:156] Memory required for data: 187860000
I0403 15:26:01.932489 11956 layer_factory.hpp:77] Creating layer pool1/norm1
I0403 15:26:01.932512 11956 net.cpp:91] Creating Layer pool1/norm1
I0403 15:26:01.932530 11956 net.cpp:425] pool1/norm1 <- pool1/3x3_s2
I0403 15:26:01.932548 11956 net.cpp:399] pool1/norm1 -> pool1/norm1
I0403 15:26:01.932826 11956 net.cpp:141] Setting up pool1/norm1
I0403 15:26:01.932852 11956 net.cpp:148] Top shape: 24 64 56 56 (4816896)
I0403 15:26:01.932867 11956 net.cpp:156] Memory required for data: 207127584
I0403 15:26:01.932881 11956 layer_factory.hpp:77] Creating layer conv2/3x3_reduce
I0403 15:26:01.932905 11956 net.cpp:91] Creating Layer conv2/3x3_reduce
I0403 15:26:01.932922 11956 net.cpp:425] conv2/3x3_reduce <- pool1/norm1
I0403 15:26:01.932940 11956 net.cpp:399] conv2/3x3_reduce -> conv2/3x3_reduce
I0403 15:26:01.934238 11956 net.cpp:141] Setting up conv2/3x3_reduce
I0403 15:26:01.934267 11956 net.cpp:148] Top shape: 24 64 56 56 (4816896)
I0403 15:26:01.934283 11956 net.cpp:156] Memory required for data: 226395168
I0403 15:26:01.934303 11956 layer_factory.hpp:77] Creating layer conv2/relu_3x3_reduce
I0403 15:26:01.934325 11956 net.cpp:91] Creating Layer conv2/relu_3x3_reduce
I0403 15:26:01.934341 11956 net.cpp:425] conv2/relu_3x3_reduce <- conv2/3x3_reduce
I0403 15:26:01.934358 11956 net.cpp:386] conv2/relu_3x3_reduce -> conv2/3x3_reduce (in-place)
I0403 15:26:01.934602 11956 net.cpp:141] Setting up conv2/relu_3x3_reduce
I0403 15:26:01.934628 11956 net.cpp:148] Top shape: 24 64 56 56 (4816896)
I0403 15:26:01.934643 11956 net.cpp:156] Memory required for data: 245662752
I0403 15:26:01.934656 11956 layer_factory.hpp:77] Creating layer conv2/3x3
I0403 15:26:01.934679 11956 net.cpp:91] Creating Layer conv2/3x3
I0403 15:26:01.934695 11956 net.cpp:425] conv2/3x3 <- conv2/3x3_reduce
I0403 15:26:01.934713 11956 net.cpp:399] conv2/3x3 -> conv2/3x3
I0403 15:26:01.936974 11956 net.cpp:141] Setting up conv2/3x3
I0403 15:26:01.937002 11956 net.cpp:148] Top shape: 24 192 56 56 (14450688)
I0403 15:26:01.937018 11956 net.cpp:156] Memory required for data: 303465504
I0403 15:26:01.937041 11956 layer_factory.hpp:77] Creating layer conv2/relu_3x3
I0403 15:26:01.937062 11956 net.cpp:91] Creating Layer conv2/relu_3x3
I0403 15:26:01.937075 11956 net.cpp:425] conv2/relu_3x3 <- conv2/3x3
I0403 15:26:01.937093 11956 net.cpp:386] conv2/relu_3x3 -> conv2/3x3 (in-place)
I0403 15:26:01.937268 11956 net.cpp:141] Setting up conv2/relu_3x3
I0403 15:26:01.937294 11956 net.cpp:148] Top shape: 24 192 56 56 (14450688)
I0403 15:26:01.937342 11956 net.cpp:156] Memory required for data: 361268256
I0403 15:26:01.937358 11956 layer_factory.hpp:77] Creating layer conv2/norm2
I0403 15:26:01.937376 11956 net.cpp:91] Creating Layer conv2/norm2
I0403 15:26:01.937391 11956 net.cpp:425] conv2/norm2 <- conv2/3x3
I0403 15:26:01.937410 11956 net.cpp:399] conv2/norm2 -> conv2/norm2
I0403 15:26:01.937718 11956 net.cpp:141] Setting up conv2/norm2
I0403 15:26:01.937744 11956 net.cpp:148] Top shape: 24 192 56 56 (14450688)
I0403 15:26:01.937759 11956 net.cpp:156] Memory required for data: 419071008
I0403 15:26:01.937773 11956 layer_factory.hpp:77] Creating layer pool2/3x3_s2
I0403 15:26:01.937790 11956 net.cpp:91] Creating Layer pool2/3x3_s2
I0403 15:26:01.937805 11956 net.cpp:425] pool2/3x3_s2 <- conv2/norm2
I0403 15:26:01.937825 11956 net.cpp:399] pool2/3x3_s2 -> pool2/3x3_s2
I0403 15:26:01.937880 11956 net.cpp:141] Setting up pool2/3x3_s2
I0403 15:26:01.937903 11956 net.cpp:148] Top shape: 24 192 28 28 (3612672)
I0403 15:26:01.937917 11956 net.cpp:156] Memory required for data: 433521696
I0403 15:26:01.937930 11956 layer_factory.hpp:77] Creating layer pool2/3x3_s2_pool2/3x3_s2_0_split
I0403 15:26:01.937947 11956 net.cpp:91] Creating Layer pool2/3x3_s2_pool2/3x3_s2_0_split
I0403 15:26:01.937963 11956 net.cpp:425] pool2/3x3_s2_pool2/3x3_s2_0_split <- pool2/3x3_s2
I0403 15:26:01.937978 11956 net.cpp:399] pool2/3x3_s2_pool2/3x3_s2_0_split -> pool2/3x3_s2_pool2/3x3_s2_0_split_0
I0403 15:26:01.937999 11956 net.cpp:399] pool2/3x3_s2_pool2/3x3_s2_0_split -> pool2/3x3_s2_pool2/3x3_s2_0_split_1
I0403 15:26:01.938019 11956 net.cpp:399] pool2/3x3_s2_pool2/3x3_s2_0_split -> pool2/3x3_s2_pool2/3x3_s2_0_split_2
I0403 15:26:01.938037 11956 net.cpp:399] pool2/3x3_s2_pool2/3x3_s2_0_split -> pool2/3x3_s2_pool2/3x3_s2_0_split_3
I0403 15:26:01.938105 11956 net.cpp:141] Setting up pool2/3x3_s2_pool2/3x3_s2_0_split
I0403 15:26:01.938127 11956 net.cpp:148] Top shape: 24 192 28 28 (3612672)
I0403 15:26:01.938143 11956 net.cpp:148] Top shape: 24 192 28 28 (3612672)
I0403 15:26:01.938158 11956 net.cpp:148] Top shape: 24 192 28 28 (3612672)
I0403 15:26:01.938171 11956 net.cpp:148] Top shape: 24 192 28 28 (3612672)
I0403 15:26:01.938184 11956 net.cpp:156] Memory required for data: 491324448
I0403 15:26:01.938199 11956 layer_factory.hpp:77] Creating layer inception_3a/1x1
I0403 15:26:01.938221 11956 net.cpp:91] Creating Layer inception_3a/1x1
I0403 15:26:01.938238 11956 net.cpp:425] inception_3a/1x1 <- pool2/3x3_s2_pool2/3x3_s2_0_split_0
I0403 15:26:01.938256 11956 net.cpp:399] inception_3a/1x1 -> inception_3a/1x1
I0403 15:26:01.939767 11956 net.cpp:141] Setting up inception_3a/1x1
I0403 15:26:01.939797 11956 net.cpp:148] Top shape: 24 64 28 28 (1204224)
I0403 15:26:01.939812 11956 net.cpp:156] Memory required for data: 496141344
I0403 15:26:01.939831 11956 layer_factory.hpp:77] Creating layer inception_3a/relu_1x1
I0403 15:26:01.939851 11956 net.cpp:91] Creating Layer inception_3a/relu_1x1
I0403 15:26:01.939867 11956 net.cpp:425] inception_3a/relu_1x1 <- inception_3a/1x1
I0403 15:26:01.939883 11956 net.cpp:386] inception_3a/relu_1x1 -> inception_3a/1x1 (in-place)
I0403 15:26:01.940054 11956 net.cpp:141] Setting up inception_3a/relu_1x1
I0403 15:26:01.940083 11956 net.cpp:148] Top shape: 24 64 28 28 (1204224)
I0403 15:26:01.940096 11956 net.cpp:156] Memory required for data: 500958240
I0403 15:26:01.940111 11956 layer_factory.hpp:77] Creating layer inception_3a/3x3_reduce
I0403 15:26:01.940134 11956 net.cpp:91] Creating Layer inception_3a/3x3_reduce
I0403 15:26:01.940150 11956 net.cpp:425] inception_3a/3x3_reduce <- pool2/3x3_s2_pool2/3x3_s2_0_split_1
I0403 15:26:01.940170 11956 net.cpp:399] inception_3a/3x3_reduce -> inception_3a/3x3_reduce
I0403 15:26:01.941834 11956 net.cpp:141] Setting up inception_3a/3x3_reduce
I0403 15:26:01.941864 11956 net.cpp:148] Top shape: 24 96 28 28 (1806336)
I0403 15:26:01.941879 11956 net.cpp:156] Memory required for data: 508183584
I0403 15:26:01.941902 11956 layer_factory.hpp:77] Creating layer inception_3a/relu_3x3_reduce
I0403 15:26:01.941937 11956 net.cpp:91] Creating Layer inception_3a/relu_3x3_reduce
I0403 15:26:01.941953 11956 net.cpp:425] inception_3a/relu_3x3_reduce <- inception_3a/3x3_reduce
I0403 15:26:01.941970 11956 net.cpp:386] inception_3a/relu_3x3_reduce -> inception_3a/3x3_reduce (in-place)
I0403 15:26:01.942150 11956 net.cpp:141] Setting up inception_3a/relu_3x3_reduce
I0403 15:26:01.942175 11956 net.cpp:148] Top shape: 24 96 28 28 (1806336)
I0403 15:26:01.942189 11956 net.cpp:156] Memory required for data: 515408928
I0403 15:26:01.942203 11956 layer_factory.hpp:77] Creating layer inception_3a/3x3
I0403 15:26:01.942226 11956 net.cpp:91] Creating Layer inception_3a/3x3
I0403 15:26:01.942244 11956 net.cpp:425] inception_3a/3x3 <- inception_3a/3x3_reduce
I0403 15:26:01.942262 11956 net.cpp:399] inception_3a/3x3 -> inception_3a/3x3
I0403 15:26:01.943920 11956 net.cpp:141] Setting up inception_3a/3x3
I0403 15:26:01.943950 11956 net.cpp:148] Top shape: 24 128 28 28 (2408448)
I0403 15:26:01.943966 11956 net.cpp:156] Memory required for data: 525042720
I0403 15:26:01.943985 11956 layer_factory.hpp:77] Creating layer inception_3a/relu_3x3
I0403 15:26:01.944010 11956 net.cpp:91] Creating Layer inception_3a/relu_3x3
I0403 15:26:01.944027 11956 net.cpp:425] inception_3a/relu_3x3 <- inception_3a/3x3
I0403 15:26:01.944044 11956 net.cpp:386] inception_3a/relu_3x3 -> inception_3a/3x3 (in-place)
I0403 15:26:01.944325 11956 net.cpp:141] Setting up inception_3a/relu_3x3
I0403 15:26:01.944352 11956 net.cpp:148] Top shape: 24 128 28 28 (2408448)
I0403 15:26:01.944366 11956 net.cpp:156] Memory required for data: 534676512
I0403 15:26:01.944381 11956 layer_factory.hpp:77] Creating layer inception_3a/5x5_reduce
I0403 15:26:01.944404 11956 net.cpp:91] Creating Layer inception_3a/5x5_reduce
I0403 15:26:01.944424 11956 net.cpp:425] inception_3a/5x5_reduce <- pool2/3x3_s2_pool2/3x3_s2_0_split_2
I0403 15:26:01.944443 11956 net.cpp:399] inception_3a/5x5_reduce -> inception_3a/5x5_reduce
I0403 15:26:01.945446 11956 net.cpp:141] Setting up inception_3a/5x5_reduce
I0403 15:26:01.945477 11956 net.cpp:148] Top shape: 24 16 28 28 (301056)
I0403 15:26:01.945492 11956 net.cpp:156] Memory required for data: 535880736
I0403 15:26:01.945510 11956 layer_factory.hpp:77] Creating layer inception_3a/relu_5x5_reduce
I0403 15:26:01.945531 11956 net.cpp:91] Creating Layer inception_3a/relu_5x5_reduce
I0403 15:26:01.945549 11956 net.cpp:425] inception_3a/relu_5x5_reduce <- inception_3a/5x5_reduce
I0403 15:26:01.945566 11956 net.cpp:386] inception_3a/relu_5x5_reduce -> inception_3a/5x5_reduce (in-place)
I0403 15:26:01.945878 11956 net.cpp:141] Setting up inception_3a/relu_5x5_reduce
I0403 15:26:01.945907 11956 net.cpp:148] Top shape: 24 16 28 28 (301056)
I0403 15:26:01.945924 11956 net.cpp:156] Memory required for data: 537084960
I0403 15:26:01.945938 11956 layer_factory.hpp:77] Creating layer inception_3a/5x5
I0403 15:26:01.945962 11956 net.cpp:91] Creating Layer inception_3a/5x5
I0403 15:26:01.945981 11956 net.cpp:425] inception_3a/5x5 <- inception_3a/5x5_reduce
I0403 15:26:01.945999 11956 net.cpp:399] inception_3a/5x5 -> inception_3a/5x5
I0403 15:26:01.947060 11956 net.cpp:141] Setting up inception_3a/5x5
I0403 15:26:01.947089 11956 net.cpp:148] Top shape: 24 32 28 28 (602112)
I0403 15:26:01.947105 11956 net.cpp:156] Memory required for data: 539493408
I0403 15:26:01.947124 11956 layer_factory.hpp:77] Creating layer inception_3a/relu_5x5
I0403 15:26:01.947145 11956 net.cpp:91] Creating Layer inception_3a/relu_5x5
I0403 15:26:01.947162 11956 net.cpp:425] inception_3a/relu_5x5 <- inception_3a/5x5
I0403 15:26:01.947180 11956 net.cpp:386] inception_3a/relu_5x5 -> inception_3a/5x5 (in-place)
I0403 15:26:01.947371 11956 net.cpp:141] Setting up inception_3a/relu_5x5
I0403 15:26:01.947399 11956 net.cpp:148] Top shape: 24 32 28 28 (602112)
I0403 15:26:01.947415 11956 net.cpp:156] Memory required for data: 541901856
I0403 15:26:01.947430 11956 layer_factory.hpp:77] Creating layer inception_3a/pool
I0403 15:26:01.947448 11956 net.cpp:91] Creating Layer inception_3a/pool
I0403 15:26:01.947479 11956 net.cpp:425] inception_3a/pool <- pool2/3x3_s2_pool2/3x3_s2_0_split_3
I0403 15:26:01.947500 11956 net.cpp:399] inception_3a/pool -> inception_3a/pool
I0403 15:26:01.947562 11956 net.cpp:141] Setting up inception_3a/pool
I0403 15:26:01.947587 11956 net.cpp:148] Top shape: 24 192 28 28 (3612672)
I0403 15:26:01.947602 11956 net.cpp:156] Memory required for data: 556352544
I0403 15:26:01.947616 11956 layer_factory.hpp:77] Creating layer inception_3a/pool_proj
I0403 15:26:01.947639 11956 net.cpp:91] Creating Layer inception_3a/pool_proj
I0403 15:26:01.947657 11956 net.cpp:425] inception_3a/pool_proj <- inception_3a/pool
I0403 15:26:01.947680 11956 net.cpp:399] inception_3a/pool_proj -> inception_3a/pool_proj
I0403 15:26:01.948694 11956 net.cpp:141] Setting up inception_3a/pool_proj
I0403 15:26:01.948724 11956 net.cpp:148] Top shape: 24 32 28 28 (602112)
I0403 15:26:01.948740 11956 net.cpp:156] Memory required for data: 558760992
I0403 15:26:01.948762 11956 layer_factory.hpp:77] Creating layer inception_3a/relu_pool_proj
I0403 15:26:01.948784 11956 net.cpp:91] Creating Layer inception_3a/relu_pool_proj
I0403 15:26:01.948801 11956 net.cpp:425] inception_3a/relu_pool_proj <- inception_3a/pool_proj
I0403 15:26:01.948819 11956 net.cpp:386] inception_3a/relu_pool_proj -> inception_3a/pool_proj (in-place)
I0403 15:26:01.949107 11956 net.cpp:141] Setting up inception_3a/relu_pool_proj
I0403 15:26:01.949136 11956 net.cpp:148] Top shape: 24 32 28 28 (602112)
I0403 15:26:01.949151 11956 net.cpp:156] Memory required for data: 561169440
I0403 15:26:01.949167 11956 layer_factory.hpp:77] Creating layer inception_3a/output
I0403 15:26:01.949187 11956 net.cpp:91] Creating Layer inception_3a/output
I0403 15:26:01.949203 11956 net.cpp:425] inception_3a/output <- inception_3a/1x1
I0403 15:26:01.949220 11956 net.cpp:425] inception_3a/output <- inception_3a/3x3
I0403 15:26:01.949236 11956 net.cpp:425] inception_3a/output <- inception_3a/5x5
I0403 15:26:01.949252 11956 net.cpp:425] inception_3a/output <- inception_3a/pool_proj
I0403 15:26:01.949270 11956 net.cpp:399] inception_3a/output -> inception_3a/output
I0403 15:26:01.949324 11956 net.cpp:141] Setting up inception_3a/output
I0403 15:26:01.949348 11956 net.cpp:148] Top shape: 24 256 28 28 (4816896)
I0403 15:26:01.949363 11956 net.cpp:156] Memory required for data: 580437024
I0403 15:26:01.949378 11956 layer_factory.hpp:77] Creating layer inception_3a/output_inception_3a/output_0_split
I0403 15:26:01.949395 11956 net.cpp:91] Creating Layer inception_3a/output_inception_3a/output_0_split
I0403 15:26:01.949411 11956 net.cpp:425] inception_3a/output_inception_3a/output_0_split <- inception_3a/output
I0403 15:26:01.949432 11956 net.cpp:399] inception_3a/output_inception_3a/output_0_split -> inception_3a/output_inception_3a/output_0_split_0
I0403 15:26:01.949455 11956 net.cpp:399] inception_3a/output_inception_3a/output_0_split -> inception_3a/output_inception_3a/output_0_split_1
I0403 15:26:01.949481 11956 net.cpp:399] inception_3a/output_inception_3a/output_0_split -> inception_3a/output_inception_3a/output_0_split_2
I0403 15:26:01.949502 11956 net.cpp:399] inception_3a/output_inception_3a/output_0_split -> inception_3a/output_inception_3a/output_0_split_3
I0403 15:26:01.949579 11956 net.cpp:141] Setting up inception_3a/output_inception_3a/output_0_split
I0403 15:26:01.949601 11956 net.cpp:148] Top shape: 24 256 28 28 (4816896)
I0403 15:26:01.949618 11956 net.cpp:148] Top shape: 24 256 28 28 (4816896)
I0403 15:26:01.949635 11956 net.cpp:148] Top shape: 24 256 28 28 (4816896)
I0403 15:26:01.949651 11956 net.cpp:148] Top shape: 24 256 28 28 (4816896)
I0403 15:26:01.949664 11956 net.cpp:156] Memory required for data: 657507360
I0403 15:26:01.949679 11956 layer_factory.hpp:77] Creating layer inception_3b/1x1
I0403 15:26:01.949705 11956 net.cpp:91] Creating Layer inception_3b/1x1
I0403 15:26:01.949723 11956 net.cpp:425] inception_3b/1x1 <- inception_3a/output_inception_3a/output_0_split_0
I0403 15:26:01.949758 11956 net.cpp:399] inception_3b/1x1 -> inception_3b/1x1
I0403 15:26:01.950927 11956 net.cpp:141] Setting up inception_3b/1x1
I0403 15:26:01.950968 11956 net.cpp:148] Top shape: 24 128 28 28 (2408448)
I0403 15:26:01.950984 11956 net.cpp:156] Memory required for data: 667141152
I0403 15:26:01.951002 11956 layer_factory.hpp:77] Creating layer inception_3b/relu_1x1
I0403 15:26:01.951025 11956 net.cpp:91] Creating Layer inception_3b/relu_1x1
I0403 15:26:01.951042 11956 net.cpp:425] inception_3b/relu_1x1 <- inception_3b/1x1
I0403 15:26:01.951059 11956 net.cpp:386] inception_3b/relu_1x1 -> inception_3b/1x1 (in-place)
I0403 15:26:01.951236 11956 net.cpp:141] Setting up inception_3b/relu_1x1
I0403 15:26:01.951261 11956 net.cpp:148] Top shape: 24 128 28 28 (2408448)
I0403 15:26:01.951277 11956 net.cpp:156] Memory required for data: 676774944
I0403 15:26:01.951290 11956 layer_factory.hpp:77] Creating layer inception_3b/3x3_reduce
I0403 15:26:01.951313 11956 net.cpp:91] Creating Layer inception_3b/3x3_reduce
I0403 15:26:01.951336 11956 net.cpp:425] inception_3b/3x3_reduce <- inception_3a/output_inception_3a/output_0_split_1
I0403 15:26:01.951355 11956 net.cpp:399] inception_3b/3x3_reduce -> inception_3b/3x3_reduce
I0403 15:26:01.952520 11956 net.cpp:141] Setting up inception_3b/3x3_reduce
I0403 15:26:01.952549 11956 net.cpp:148] Top shape: 24 128 28 28 (2408448)
I0403 15:26:01.952565 11956 net.cpp:156] Memory required for data: 686408736
I0403 15:26:01.952585 11956 layer_factory.hpp:77] Creating layer inception_3b/relu_3x3_reduce
I0403 15:26:01.952603 11956 net.cpp:91] Creating Layer inception_3b/relu_3x3_reduce
I0403 15:26:01.952618 11956 net.cpp:425] inception_3b/relu_3x3_reduce <- inception_3b/3x3_reduce
I0403 15:26:01.952638 11956 net.cpp:386] inception_3b/relu_3x3_reduce -> inception_3b/3x3_reduce (in-place)
I0403 15:26:01.952816 11956 net.cpp:141] Setting up inception_3b/relu_3x3_reduce
I0403 15:26:01.952839 11956 net.cpp:148] Top shape: 24 128 28 28 (2408448)
I0403 15:26:01.952854 11956 net.cpp:156] Memory required for data: 696042528
I0403 15:26:01.952868 11956 layer_factory.hpp:77] Creating layer inception_3b/3x3
I0403 15:26:01.952895 11956 net.cpp:91] Creating Layer inception_3b/3x3
I0403 15:26:01.952913 11956 net.cpp:425] inception_3b/3x3 <- inception_3b/3x3_reduce
I0403 15:26:01.952934 11956 net.cpp:399] inception_3b/3x3 -> inception_3b/3x3
I0403 15:26:01.955909 11956 net.cpp:141] Setting up inception_3b/3x3
I0403 15:26:01.955937 11956 net.cpp:148] Top shape: 24 192 28 28 (3612672)
I0403 15:26:01.955953 11956 net.cpp:156] Memory required for data: 710493216
I0403 15:26:01.955971 11956 layer_factory.hpp:77] Creating layer inception_3b/relu_3x3
I0403 15:26:01.955992 11956 net.cpp:91] Creating Layer inception_3b/relu_3x3
I0403 15:26:01.956009 11956 net.cpp:425] inception_3b/relu_3x3 <- inception_3b/3x3
I0403 15:26:01.956027 11956 net.cpp:386] inception_3b/relu_3x3 -> inception_3b/3x3 (in-place)
I0403 15:26:01.956310 11956 net.cpp:141] Setting up inception_3b/relu_3x3
I0403 15:26:01.956341 11956 net.cpp:148] Top shape: 24 192 28 28 (3612672)
I0403 15:26:01.956356 11956 net.cpp:156] Memory required for data: 724943904
I0403 15:26:01.956370 11956 layer_factory.hpp:77] Creating layer inception_3b/5x5_reduce
I0403 15:26:01.956393 11956 net.cpp:91] Creating Layer inception_3b/5x5_reduce
I0403 15:26:01.956413 11956 net.cpp:425] inception_3b/5x5_reduce <- inception_3a/output_inception_3a/output_0_split_2
I0403 15:26:01.956432 11956 net.cpp:399] inception_3b/5x5_reduce -> inception_3b/5x5_reduce
I0403 15:26:01.957463 11956 net.cpp:141] Setting up inception_3b/5x5_reduce
I0403 15:26:01.957494 11956 net.cpp:148] Top shape: 24 32 28 28 (602112)
I0403 15:26:01.957509 11956 net.cpp:156] Memory required for data: 727352352
I0403 15:26:01.957528 11956 layer_factory.hpp:77] Creating layer inception_3b/relu_5x5_reduce
I0403 15:26:01.957550 11956 net.cpp:91] Creating Layer inception_3b/relu_5x5_reduce
I0403 15:26:01.957566 11956 net.cpp:425] inception_3b/relu_5x5_reduce <- inception_3b/5x5_reduce
I0403 15:26:01.957583 11956 net.cpp:386] inception_3b/relu_5x5_reduce -> inception_3b/5x5_reduce (in-place)
I0403 15:26:01.957792 11956 net.cpp:141] Setting up inception_3b/relu_5x5_reduce
I0403 15:26:01.957818 11956 net.cpp:148] Top shape: 24 32 28 28 (602112)
I0403 15:26:01.957834 11956 net.cpp:156] Memory required for data: 729760800
I0403 15:26:01.957849 11956 layer_factory.hpp:77] Creating layer inception_3b/5x5
I0403 15:26:01.957871 11956 net.cpp:91] Creating Layer inception_3b/5x5
I0403 15:26:01.957890 11956 net.cpp:425] inception_3b/5x5 <- inception_3b/5x5_reduce
I0403 15:26:01.957908 11956 net.cpp:399] inception_3b/5x5 -> inception_3b/5x5
I0403 15:26:01.959913 11956 net.cpp:141] Setting up inception_3b/5x5
I0403 15:26:01.959944 11956 net.cpp:148] Top shape: 24 96 28 28 (1806336)
I0403 15:26:01.959959 11956 net.cpp:156] Memory required for data: 736986144
I0403 15:26:01.959976 11956 layer_factory.hpp:77] Creating layer inception_3b/relu_5x5
I0403 15:26:01.959995 11956 net.cpp:91] Creating Layer inception_3b/relu_5x5
I0403 15:26:01.960011 11956 net.cpp:425] inception_3b/relu_5x5 <- inception_3b/5x5
I0403 15:26:01.960029 11956 net.cpp:386] inception_3b/relu_5x5 -> inception_3b/5x5 (in-place)
I0403 15:26:01.960229 11956 net.cpp:141] Setting up inception_3b/relu_5x5
I0403 15:26:01.960254 11956 net.cpp:148] Top shape: 24 96 28 28 (1806336)
I0403 15:26:01.960269 11956 net.cpp:156] Memory required for data: 744211488
I0403 15:26:01.960283 11956 layer_factory.hpp:77] Creating layer inception_3b/pool
I0403 15:26:01.960301 11956 net.cpp:91] Creating Layer inception_3b/pool
I0403 15:26:01.960321 11956 net.cpp:425] inception_3b/pool <- inception_3a/output_inception_3a/output_0_split_3
I0403 15:26:01.960341 11956 net.cpp:399] inception_3b/pool -> inception_3b/pool
I0403 15:26:01.960398 11956 net.cpp:141] Setting up inception_3b/pool
I0403 15:26:01.960422 11956 net.cpp:148] Top shape: 24 256 28 28 (4816896)
I0403 15:26:01.960436 11956 net.cpp:156] Memory required for data: 763479072
I0403 15:26:01.960450 11956 layer_factory.hpp:77] Creating layer inception_3b/pool_proj
I0403 15:26:01.960474 11956 net.cpp:91] Creating Layer inception_3b/pool_proj
I0403 15:26:01.960494 11956 net.cpp:425] inception_3b/pool_proj <- inception_3b/pool
I0403 15:26:01.960517 11956 net.cpp:399] inception_3b/pool_proj -> inception_3b/pool_proj
I0403 15:26:01.961591 11956 net.cpp:141] Setting up inception_3b/pool_proj
I0403 15:26:01.961632 11956 net.cpp:148] Top shape: 24 64 28 28 (1204224)
I0403 15:26:01.961649 11956 net.cpp:156] Memory required for data: 768295968
I0403 15:26:01.961668 11956 layer_factory.hpp:77] Creating layer inception_3b/relu_pool_proj
I0403 15:26:01.961686 11956 net.cpp:91] Creating Layer inception_3b/relu_pool_proj
I0403 15:26:01.961701 11956 net.cpp:425] inception_3b/relu_pool_proj <- inception_3b/pool_proj
I0403 15:26:01.961721 11956 net.cpp:386] inception_3b/relu_pool_proj -> inception_3b/pool_proj (in-place)
I0403 15:26:01.962110 11956 net.cpp:141] Setting up inception_3b/relu_pool_proj
I0403 15:26:01.962138 11956 net.cpp:148] Top shape: 24 64 28 28 (1204224)
I0403 15:26:01.962153 11956 net.cpp:156] Memory required for data: 773112864
I0403 15:26:01.962168 11956 layer_factory.hpp:77] Creating layer inception_3b/output
I0403 15:26:01.962185 11956 net.cpp:91] Creating Layer inception_3b/output
I0403 15:26:01.962200 11956 net.cpp:425] inception_3b/output <- inception_3b/1x1
I0403 15:26:01.962216 11956 net.cpp:425] inception_3b/output <- inception_3b/3x3
I0403 15:26:01.962231 11956 net.cpp:425] inception_3b/output <- inception_3b/5x5
I0403 15:26:01.962247 11956 net.cpp:425] inception_3b/output <- inception_3b/pool_proj
I0403 15:26:01.962262 11956 net.cpp:399] inception_3b/output -> inception_3b/output
I0403 15:26:01.962307 11956 net.cpp:141] Setting up inception_3b/output
I0403 15:26:01.962333 11956 net.cpp:148] Top shape: 24 480 28 28 (9031680)
I0403 15:26:01.962348 11956 net.cpp:156] Memory required for data: 809239584
I0403 15:26:01.962363 11956 layer_factory.hpp:77] Creating layer pool3/3x3_s2
I0403 15:26:01.962383 11956 net.cpp:91] Creating Layer pool3/3x3_s2
I0403 15:26:01.962399 11956 net.cpp:425] pool3/3x3_s2 <- inception_3b/output
I0403 15:26:01.962433 11956 net.cpp:399] pool3/3x3_s2 -> pool3/3x3_s2
I0403 15:26:01.962493 11956 net.cpp:141] Setting up pool3/3x3_s2
I0403 15:26:01.962517 11956 net.cpp:148] Top shape: 24 480 14 14 (2257920)
I0403 15:26:01.962532 11956 net.cpp:156] Memory required for data: 818271264
I0403 15:26:01.962545 11956 layer_factory.hpp:77] Creating layer pool3/3x3_s2_pool3/3x3_s2_0_split
I0403 15:26:01.962561 11956 net.cpp:91] Creating Layer pool3/3x3_s2_pool3/3x3_s2_0_split
I0403 15:26:01.962579 11956 net.cpp:425] pool3/3x3_s2_pool3/3x3_s2_0_split <- pool3/3x3_s2
I0403 15:26:01.962597 11956 net.cpp:399] pool3/3x3_s2_pool3/3x3_s2_0_split -> pool3/3x3_s2_pool3/3x3_s2_0_split_0
I0403 15:26:01.962617 11956 net.cpp:399] pool3/3x3_s2_pool3/3x3_s2_0_split -> pool3/3x3_s2_pool3/3x3_s2_0_split_1
I0403 15:26:01.962636 11956 net.cpp:399] pool3/3x3_s2_pool3/3x3_s2_0_split -> pool3/3x3_s2_pool3/3x3_s2_0_split_2
I0403 15:26:01.962656 11956 net.cpp:399] pool3/3x3_s2_pool3/3x3_s2_0_split -> pool3/3x3_s2_pool3/3x3_s2_0_split_3
I0403 15:26:01.962729 11956 net.cpp:141] Setting up pool3/3x3_s2_pool3/3x3_s2_0_split
I0403 15:26:01.962754 11956 net.cpp:148] Top shape: 24 480 14 14 (2257920)
I0403 15:26:01.962769 11956 net.cpp:148] Top shape: 24 480 14 14 (2257920)
I0403 15:26:01.962785 11956 net.cpp:148] Top shape: 24 480 14 14 (2257920)
I0403 15:26:01.962800 11956 net.cpp:148] Top shape: 24 480 14 14 (2257920)
I0403 15:26:01.962812 11956 net.cpp:156] Memory required for data: 854397984
I0403 15:26:01.962826 11956 layer_factory.hpp:77] Creating layer inception_4a/1x1
I0403 15:26:01.962848 11956 net.cpp:91] Creating Layer inception_4a/1x1
I0403 15:26:01.962865 11956 net.cpp:425] inception_4a/1x1 <- pool3/3x3_s2_pool3/3x3_s2_0_split_0
I0403 15:26:01.962883 11956 net.cpp:399] inception_4a/1x1 -> inception_4a/1x1
I0403 15:26:01.964504 11956 net.cpp:141] Setting up inception_4a/1x1
I0403 15:26:01.964532 11956 net.cpp:148] Top shape: 24 192 14 14 (903168)
I0403 15:26:01.964547 11956 net.cpp:156] Memory required for data: 858010656
I0403 15:26:01.964565 11956 layer_factory.hpp:77] Creating layer inception_4a/relu_1x1
I0403 15:26:01.964591 11956 net.cpp:91] Creating Layer inception_4a/relu_1x1
I0403 15:26:01.964607 11956 net.cpp:425] inception_4a/relu_1x1 <- inception_4a/1x1
I0403 15:26:01.964625 11956 net.cpp:386] inception_4a/relu_1x1 -> inception_4a/1x1 (in-place)
I0403 15:26:01.964799 11956 net.cpp:141] Setting up inception_4a/relu_1x1
I0403 15:26:01.964823 11956 net.cpp:148] Top shape: 24 192 14 14 (903168)
I0403 15:26:01.964839 11956 net.cpp:156] Memory required for data: 861623328
I0403 15:26:01.964854 11956 layer_factory.hpp:77] Creating layer inception_4a/3x3_reduce
I0403 15:26:01.964875 11956 net.cpp:91] Creating Layer inception_4a/3x3_reduce
I0403 15:26:01.964893 11956 net.cpp:425] inception_4a/3x3_reduce <- pool3/3x3_s2_pool3/3x3_s2_0_split_1
I0403 15:26:01.964913 11956 net.cpp:399] inception_4a/3x3_reduce -> inception_4a/3x3_reduce
I0403 15:26:01.966187 11956 net.cpp:141] Setting up inception_4a/3x3_reduce
I0403 15:26:01.966218 11956 net.cpp:148] Top shape: 24 96 14 14 (451584)
I0403 15:26:01.966235 11956 net.cpp:156] Memory required for data: 863429664
I0403 15:26:01.966260 11956 layer_factory.hpp:77] Creating layer inception_4a/relu_3x3_reduce
I0403 15:26:01.966281 11956 net.cpp:91] Creating Layer inception_4a/relu_3x3_reduce
I0403 15:26:01.966297 11956 net.cpp:425] inception_4a/relu_3x3_reduce <- inception_4a/3x3_reduce
I0403 15:26:01.966320 11956 net.cpp:386] inception_4a/relu_3x3_reduce -> inception_4a/3x3_reduce (in-place)
I0403 15:26:01.966500 11956 net.cpp:141] Setting up inception_4a/relu_3x3_reduce
I0403 15:26:01.966524 11956 net.cpp:148] Top shape: 24 96 14 14 (451584)
I0403 15:26:01.966539 11956 net.cpp:156] Memory required for data: 865236000
I0403 15:26:01.966555 11956 layer_factory.hpp:77] Creating layer inception_4a/3x3
I0403 15:26:01.966577 11956 net.cpp:91] Creating Layer inception_4a/3x3
I0403 15:26:01.966593 11956 net.cpp:425] inception_4a/3x3 <- inception_4a/3x3_reduce
I0403 15:26:01.966614 11956 net.cpp:399] inception_4a/3x3 -> inception_4a/3x3
I0403 15:26:01.969274 11956 net.cpp:141] Setting up inception_4a/3x3
I0403 15:26:01.969305 11956 net.cpp:148] Top shape: 24 208 14 14 (978432)
I0403 15:26:01.969324 11956 net.cpp:156] Memory required for data: 869149728
I0403 15:26:01.969344 11956 layer_factory.hpp:77] Creating layer inception_4a/relu_3x3
I0403 15:26:01.969368 11956 net.cpp:91] Creating Layer inception_4a/relu_3x3
I0403 15:26:01.969385 11956 net.cpp:425] inception_4a/relu_3x3 <- inception_4a/3x3
I0403 15:26:01.969403 11956 net.cpp:386] inception_4a/relu_3x3 -> inception_4a/3x3 (in-place)
I0403 15:26:01.969678 11956 net.cpp:141] Setting up inception_4a/relu_3x3
I0403 15:26:01.969705 11956 net.cpp:148] Top shape: 24 208 14 14 (978432)
I0403 15:26:01.969720 11956 net.cpp:156] Memory required for data: 873063456
I0403 15:26:01.969737 11956 layer_factory.hpp:77] Creating layer inception_4a/5x5_reduce
I0403 15:26:01.969759 11956 net.cpp:91] Creating Layer inception_4a/5x5_reduce
I0403 15:26:01.969777 11956 net.cpp:425] inception_4a/5x5_reduce <- pool3/3x3_s2_pool3/3x3_s2_0_split_2
I0403 15:26:01.969799 11956 net.cpp:399] inception_4a/5x5_reduce -> inception_4a/5x5_reduce
I0403 15:26:01.970847 11956 net.cpp:141] Setting up inception_4a/5x5_reduce
I0403 15:26:01.970876 11956 net.cpp:148] Top shape: 24 16 14 14 (75264)
I0403 15:26:01.970891 11956 net.cpp:156] Memory required for data: 873364512
I0403 15:26:01.970909 11956 layer_factory.hpp:77] Creating layer inception_4a/relu_5x5_reduce
I0403 15:26:01.970928 11956 net.cpp:91] Creating Layer inception_4a/relu_5x5_reduce
I0403 15:26:01.970944 11956 net.cpp:425] inception_4a/relu_5x5_reduce <- inception_4a/5x5_reduce
I0403 15:26:01.970962 11956 net.cpp:386] inception_4a/relu_5x5_reduce -> inception_4a/5x5_reduce (in-place)
I0403 15:26:01.971134 11956 net.cpp:141] Setting up inception_4a/relu_5x5_reduce
I0403 15:26:01.971163 11956 net.cpp:148] Top shape: 24 16 14 14 (75264)
I0403 15:26:01.971179 11956 net.cpp:156] Memory required for data: 873665568
I0403 15:26:01.971192 11956 layer_factory.hpp:77] Creating layer inception_4a/5x5
I0403 15:26:01.971215 11956 net.cpp:91] Creating Layer inception_4a/5x5
I0403 15:26:01.971232 11956 net.cpp:425] inception_4a/5x5 <- inception_4a/5x5_reduce
I0403 15:26:01.971251 11956 net.cpp:399] inception_4a/5x5 -> inception_4a/5x5
I0403 15:26:01.972329 11956 net.cpp:141] Setting up inception_4a/5x5
I0403 15:26:01.972359 11956 net.cpp:148] Top shape: 24 48 14 14 (225792)
I0403 15:26:01.972375 11956 net.cpp:156] Memory required for data: 874568736
I0403 15:26:01.972393 11956 layer_factory.hpp:77] Creating layer inception_4a/relu_5x5
I0403 15:26:01.972410 11956 net.cpp:91] Creating Layer inception_4a/relu_5x5
I0403 15:26:01.972426 11956 net.cpp:425] inception_4a/relu_5x5 <- inception_4a/5x5
I0403 15:26:01.972445 11956 net.cpp:386] inception_4a/relu_5x5 -> inception_4a/5x5 (in-place)
I0403 15:26:01.972625 11956 net.cpp:141] Setting up inception_4a/relu_5x5
I0403 15:26:01.972648 11956 net.cpp:148] Top shape: 24 48 14 14 (225792)
I0403 15:26:01.972662 11956 net.cpp:156] Memory required for data: 875471904
I0403 15:26:01.972677 11956 layer_factory.hpp:77] Creating layer inception_4a/pool
I0403 15:26:01.972695 11956 net.cpp:91] Creating Layer inception_4a/pool
I0403 15:26:01.972710 11956 net.cpp:425] inception_4a/pool <- pool3/3x3_s2_pool3/3x3_s2_0_split_3
I0403 15:26:01.972730 11956 net.cpp:399] inception_4a/pool -> inception_4a/pool
I0403 15:26:01.972790 11956 net.cpp:141] Setting up inception_4a/pool
I0403 15:26:01.972813 11956 net.cpp:148] Top shape: 24 480 14 14 (2257920)
I0403 15:26:01.972827 11956 net.cpp:156] Memory required for data: 884503584
I0403 15:26:01.972842 11956 layer_factory.hpp:77] Creating layer inception_4a/pool_proj
I0403 15:26:01.972865 11956 net.cpp:91] Creating Layer inception_4a/pool_proj
I0403 15:26:01.972882 11956 net.cpp:425] inception_4a/pool_proj <- inception_4a/pool
I0403 15:26:01.972899 11956 net.cpp:399] inception_4a/pool_proj -> inception_4a/pool_proj
I0403 15:26:01.974063 11956 net.cpp:141] Setting up inception_4a/pool_proj
I0403 15:26:01.974093 11956 net.cpp:148] Top shape: 24 64 14 14 (301056)
I0403 15:26:01.974124 11956 net.cpp:156] Memory required for data: 885707808
I0403 15:26:01.974143 11956 layer_factory.hpp:77] Creating layer inception_4a/relu_pool_proj
I0403 15:26:01.974161 11956 net.cpp:91] Creating Layer inception_4a/relu_pool_proj
I0403 15:26:01.974176 11956 net.cpp:425] inception_4a/relu_pool_proj <- inception_4a/pool_proj
I0403 15:26:01.974196 11956 net.cpp:386] inception_4a/relu_pool_proj -> inception_4a/pool_proj (in-place)
I0403 15:26:01.974478 11956 net.cpp:141] Setting up inception_4a/relu_pool_proj
I0403 15:26:01.974505 11956 net.cpp:148] Top shape: 24 64 14 14 (301056)
I0403 15:26:01.974521 11956 net.cpp:156] Memory required for data: 886912032
I0403 15:26:01.974535 11956 layer_factory.hpp:77] Creating layer inception_4a/output
I0403 15:26:01.974552 11956 net.cpp:91] Creating Layer inception_4a/output
I0403 15:26:01.974567 11956 net.cpp:425] inception_4a/output <- inception_4a/1x1
I0403 15:26:01.974583 11956 net.cpp:425] inception_4a/output <- inception_4a/3x3
I0403 15:26:01.974599 11956 net.cpp:425] inception_4a/output <- inception_4a/5x5
I0403 15:26:01.974614 11956 net.cpp:425] inception_4a/output <- inception_4a/pool_proj
I0403 15:26:01.974632 11956 net.cpp:399] inception_4a/output -> inception_4a/output
I0403 15:26:01.974675 11956 net.cpp:141] Setting up inception_4a/output
I0403 15:26:01.974699 11956 net.cpp:148] Top shape: 24 512 14 14 (2408448)
I0403 15:26:01.974712 11956 net.cpp:156] Memory required for data: 896545824
I0403 15:26:01.974726 11956 layer_factory.hpp:77] Creating layer inception_4a/output_inception_4a/output_0_split
I0403 15:26:01.974746 11956 net.cpp:91] Creating Layer inception_4a/output_inception_4a/output_0_split
I0403 15:26:01.974762 11956 net.cpp:425] inception_4a/output_inception_4a/output_0_split <- inception_4a/output
I0403 15:26:01.974779 11956 net.cpp:399] inception_4a/output_inception_4a/output_0_split -> inception_4a/output_inception_4a/output_0_split_0
I0403 15:26:01.974800 11956 net.cpp:399] inception_4a/output_inception_4a/output_0_split -> inception_4a/output_inception_4a/output_0_split_1
I0403 15:26:01.974822 11956 net.cpp:399] inception_4a/output_inception_4a/output_0_split -> inception_4a/output_inception_4a/output_0_split_2
I0403 15:26:01.974840 11956 net.cpp:399] inception_4a/output_inception_4a/output_0_split -> inception_4a/output_inception_4a/output_0_split_3
I0403 15:26:01.974858 11956 net.cpp:399] inception_4a/output_inception_4a/output_0_split -> inception_4a/output_inception_4a/output_0_split_4
I0403 15:26:01.974948 11956 net.cpp:141] Setting up inception_4a/output_inception_4a/output_0_split
I0403 15:26:01.974970 11956 net.cpp:148] Top shape: 24 512 14 14 (2408448)
I0403 15:26:01.974987 11956 net.cpp:148] Top shape: 24 512 14 14 (2408448)
I0403 15:26:01.975002 11956 net.cpp:148] Top shape: 24 512 14 14 (2408448)
I0403 15:26:01.975015 11956 net.cpp:148] Top shape: 24 512 14 14 (2408448)
I0403 15:26:01.975030 11956 net.cpp:148] Top shape: 24 512 14 14 (2408448)
I0403 15:26:01.975044 11956 net.cpp:156] Memory required for data: 944714784
I0403 15:26:01.975057 11956 layer_factory.hpp:77] Creating layer loss1/ave_pool
I0403 15:26:01.975076 11956 net.cpp:91] Creating Layer loss1/ave_pool
I0403 15:26:01.975092 11956 net.cpp:425] loss1/ave_pool <- inception_4a/output_inception_4a/output_0_split_0
I0403 15:26:01.975109 11956 net.cpp:399] loss1/ave_pool -> loss1/ave_pool
I0403 15:26:01.975316 11956 net.cpp:141] Setting up loss1/ave_pool
I0403 15:26:01.975347 11956 net.cpp:148] Top shape: 24 512 4 4 (196608)
I0403 15:26:01.975363 11956 net.cpp:156] Memory required for data: 945501216
I0403 15:26:01.975376 11956 layer_factory.hpp:77] Creating layer loss1/conv
I0403 15:26:01.975399 11956 net.cpp:91] Creating Layer loss1/conv
I0403 15:26:01.975415 11956 net.cpp:425] loss1/conv <- loss1/ave_pool
I0403 15:26:01.975432 11956 net.cpp:399] loss1/conv -> loss1/conv
I0403 15:26:01.976853 11956 net.cpp:141] Setting up loss1/conv
I0403 15:26:01.976881 11956 net.cpp:148] Top shape: 24 128 4 4 (49152)
I0403 15:26:01.976910 11956 net.cpp:156] Memory required for data: 945697824
I0403 15:26:01.976928 11956 layer_factory.hpp:77] Creating layer loss1/relu_conv
I0403 15:26:01.976948 11956 net.cpp:91] Creating Layer loss1/relu_conv
I0403 15:26:01.976964 11956 net.cpp:425] loss1/relu_conv <- loss1/conv
I0403 15:26:01.976981 11956 net.cpp:386] loss1/relu_conv -> loss1/conv (in-place)
I0403 15:26:01.977262 11956 net.cpp:141] Setting up loss1/relu_conv
I0403 15:26:01.977288 11956 net.cpp:148] Top shape: 24 128 4 4 (49152)
I0403 15:26:01.977303 11956 net.cpp:156] Memory required for data: 945894432
I0403 15:26:01.977319 11956 layer_factory.hpp:77] Creating layer loss1/fc
I0403 15:26:01.977346 11956 net.cpp:91] Creating Layer loss1/fc
I0403 15:26:01.977365 11956 net.cpp:425] loss1/fc <- loss1/conv
I0403 15:26:01.977382 11956 net.cpp:399] loss1/fc -> loss1/fc
I0403 15:26:01.994752 11956 net.cpp:141] Setting up loss1/fc
I0403 15:26:01.994791 11956 net.cpp:148] Top shape: 24 1024 (24576)
I0403 15:26:01.994807 11956 net.cpp:156] Memory required for data: 945992736
I0403 15:26:01.994824 11956 layer_factory.hpp:77] Creating layer loss1/relu_fc
I0403 15:26:01.994842 11956 net.cpp:91] Creating Layer loss1/relu_fc
I0403 15:26:01.994858 11956 net.cpp:425] loss1/relu_fc <- loss1/fc
I0403 15:26:01.994876 11956 net.cpp:386] loss1/relu_fc -> loss1/fc (in-place)
I0403 15:26:01.995064 11956 net.cpp:141] Setting up loss1/relu_fc
I0403 15:26:01.995087 11956 net.cpp:148] Top shape: 24 1024 (24576)
I0403 15:26:01.995102 11956 net.cpp:156] Memory required for data: 946091040
I0403 15:26:01.995116 11956 layer_factory.hpp:77] Creating layer loss1/drop_fc
I0403 15:26:01.995142 11956 net.cpp:91] Creating Layer loss1/drop_fc
I0403 15:26:01.995158 11956 net.cpp:425] loss1/drop_fc <- loss1/fc
I0403 15:26:01.995177 11956 net.cpp:386] loss1/drop_fc -> loss1/fc (in-place)
I0403 15:26:01.995225 11956 net.cpp:141] Setting up loss1/drop_fc
I0403 15:26:01.995249 11956 net.cpp:148] Top shape: 24 1024 (24576)
I0403 15:26:01.995263 11956 net.cpp:156] Memory required for data: 946189344
I0403 15:26:01.995277 11956 layer_factory.hpp:77] Creating layer loss1/classifier_plantvillage
I0403 15:26:01.995296 11956 net.cpp:91] Creating Layer loss1/classifier_plantvillage
I0403 15:26:01.995311 11956 net.cpp:425] loss1/classifier_plantvillage <- loss1/fc
I0403 15:26:01.995335 11956 net.cpp:399] loss1/classifier_plantvillage -> loss1/classifier_plantvillage
I0403 15:26:01.996220 11956 net.cpp:141] Setting up loss1/classifier_plantvillage
I0403 15:26:01.996247 11956 net.cpp:148] Top shape: 24 38 (912)
I0403 15:26:01.996261 11956 net.cpp:156] Memory required for data: 946192992
I0403 15:26:01.996279 11956 layer_factory.hpp:77] Creating layer loss1/classifier_plantvillage_loss1/classifier_plantvillage_0_split
I0403 15:26:01.996295 11956 net.cpp:91] Creating Layer loss1/classifier_plantvillage_loss1/classifier_plantvillage_0_split
I0403 15:26:01.996309 11956 net.cpp:425] loss1/classifier_plantvillage_loss1/classifier_plantvillage_0_split <- loss1/classifier_plantvillage
I0403 15:26:01.996333 11956 net.cpp:399] loss1/classifier_plantvillage_loss1/classifier_plantvillage_0_split -> loss1/classifier_plantvillage_loss1/classifier_plantvillage_0_split_0
I0403 15:26:01.996354 11956 net.cpp:399] loss1/classifier_plantvillage_loss1/classifier_plantvillage_0_split -> loss1/classifier_plantvillage_loss1/classifier_plantvillage_0_split_1
I0403 15:26:01.996373 11956 net.cpp:399] loss1/classifier_plantvillage_loss1/classifier_plantvillage_0_split -> loss1/classifier_plantvillage_loss1/classifier_plantvillage_0_split_2
I0403 15:26:01.996438 11956 net.cpp:141] Setting up loss1/classifier_plantvillage_loss1/classifier_plantvillage_0_split
I0403 15:26:01.996459 11956 net.cpp:148] Top shape: 24 38 (912)
I0403 15:26:01.996474 11956 net.cpp:148] Top shape: 24 38 (912)
I0403 15:26:01.996489 11956 net.cpp:148] Top shape: 24 38 (912)
I0403 15:26:01.996501 11956 net.cpp:156] Memory required for data: 946203936
I0403 15:26:01.996515 11956 layer_factory.hpp:77] Creating layer inception_4b/1x1
I0403 15:26:01.996537 11956 net.cpp:91] Creating Layer inception_4b/1x1
I0403 15:26:01.996572 11956 net.cpp:425] inception_4b/1x1 <- inception_4a/output_inception_4a/output_0_split_1
I0403 15:26:01.996592 11956 net.cpp:399] inception_4b/1x1 -> inception_4b/1x1
I0403 15:26:01.998214 11956 net.cpp:141] Setting up inception_4b/1x1
I0403 15:26:01.998240 11956 net.cpp:148] Top shape: 24 160 14 14 (752640)
I0403 15:26:01.998255 11956 net.cpp:156] Memory required for data: 949214496
I0403 15:26:01.998271 11956 layer_factory.hpp:77] Creating layer inception_4b/relu_1x1
I0403 15:26:01.998291 11956 net.cpp:91] Creating Layer inception_4b/relu_1x1
I0403 15:26:01.998306 11956 net.cpp:425] inception_4b/relu_1x1 <- inception_4b/1x1
I0403 15:26:01.998327 11956 net.cpp:386] inception_4b/relu_1x1 -> inception_4b/1x1 (in-place)
I0403 15:26:01.998502 11956 net.cpp:141] Setting up inception_4b/relu_1x1
I0403 15:26:01.998529 11956 net.cpp:148] Top shape: 24 160 14 14 (752640)
I0403 15:26:01.998545 11956 net.cpp:156] Memory required for data: 952225056
I0403 15:26:01.998560 11956 layer_factory.hpp:77] Creating layer inception_4b/3x3_reduce
I0403 15:26:01.998585 11956 net.cpp:91] Creating Layer inception_4b/3x3_reduce
I0403 15:26:01.998602 11956 net.cpp:425] inception_4b/3x3_reduce <- inception_4a/output_inception_4a/output_0_split_2
I0403 15:26:01.998621 11956 net.cpp:399] inception_4b/3x3_reduce -> inception_4b/3x3_reduce
I0403 15:26:01.999943 11956 net.cpp:141] Setting up inception_4b/3x3_reduce
I0403 15:26:01.999971 11956 net.cpp:148] Top shape: 24 112 14 14 (526848)
I0403 15:26:01.999989 11956 net.cpp:156] Memory required for data: 954332448
I0403 15:26:02.000006 11956 layer_factory.hpp:77] Creating layer inception_4b/relu_3x3_reduce
I0403 15:26:02.000025 11956 net.cpp:91] Creating Layer inception_4b/relu_3x3_reduce
I0403 15:26:02.000039 11956 net.cpp:425] inception_4b/relu_3x3_reduce <- inception_4b/3x3_reduce
I0403 15:26:02.000056 11956 net.cpp:386] inception_4b/relu_3x3_reduce -> inception_4b/3x3_reduce (in-place)
I0403 15:26:02.000334 11956 net.cpp:141] Setting up inception_4b/relu_3x3_reduce
I0403 15:26:02.000360 11956 net.cpp:148] Top shape: 24 112 14 14 (526848)
I0403 15:26:02.000375 11956 net.cpp:156] Memory required for data: 956439840
I0403 15:26:02.000390 11956 layer_factory.hpp:77] Creating layer inception_4b/3x3
I0403 15:26:02.000411 11956 net.cpp:91] Creating Layer inception_4b/3x3
I0403 15:26:02.000427 11956 net.cpp:425] inception_4b/3x3 <- inception_4b/3x3_reduce
I0403 15:26:02.000445 11956 net.cpp:399] inception_4b/3x3 -> inception_4b/3x3
I0403 15:26:02.003334 11956 net.cpp:141] Setting up inception_4b/3x3
I0403 15:26:02.003361 11956 net.cpp:148] Top shape: 24 224 14 14 (1053696)
I0403 15:26:02.003376 11956 net.cpp:156] Memory required for data: 960654624
I0403 15:26:02.003393 11956 layer_factory.hpp:77] Creating layer inception_4b/relu_3x3
I0403 15:26:02.003410 11956 net.cpp:91] Creating Layer inception_4b/relu_3x3
I0403 15:26:02.003425 11956 net.cpp:425] inception_4b/relu_3x3 <- inception_4b/3x3
I0403 15:26:02.003445 11956 net.cpp:386] inception_4b/relu_3x3 -> inception_4b/3x3 (in-place)
I0403 15:26:02.003624 11956 net.cpp:141] Setting up inception_4b/relu_3x3
I0403 15:26:02.003648 11956 net.cpp:148] Top shape: 24 224 14 14 (1053696)
I0403 15:26:02.003661 11956 net.cpp:156] Memory required for data: 964869408
I0403 15:26:02.003675 11956 layer_factory.hpp:77] Creating layer inception_4b/5x5_reduce
I0403 15:26:02.003695 11956 net.cpp:91] Creating Layer inception_4b/5x5_reduce
I0403 15:26:02.003712 11956 net.cpp:425] inception_4b/5x5_reduce <- inception_4a/output_inception_4a/output_0_split_3
I0403 15:26:02.003734 11956 net.cpp:399] inception_4b/5x5_reduce -> inception_4b/5x5_reduce
I0403 15:26:02.004789 11956 net.cpp:141] Setting up inception_4b/5x5_reduce
I0403 15:26:02.004815 11956 net.cpp:148] Top shape: 24 24 14 14 (112896)
I0403 15:26:02.004830 11956 net.cpp:156] Memory required for data: 965320992
I0403 15:26:02.004848 11956 layer_factory.hpp:77] Creating layer inception_4b/relu_5x5_reduce
I0403 15:26:02.004866 11956 net.cpp:91] Creating Layer inception_4b/relu_5x5_reduce
I0403 15:26:02.004909 11956 net.cpp:425] inception_4b/relu_5x5_reduce <- inception_4b/5x5_reduce
I0403 15:26:02.004926 11956 net.cpp:386] inception_4b/relu_5x5_reduce -> inception_4b/5x5_reduce (in-place)
I0403 15:26:02.005113 11956 net.cpp:141] Setting up inception_4b/relu_5x5_reduce
I0403 15:26:02.005139 11956 net.cpp:148] Top shape: 24 24 14 14 (112896)
I0403 15:26:02.005153 11956 net.cpp:156] Memory required for data: 965772576
I0403 15:26:02.005168 11956 layer_factory.hpp:77] Creating layer inception_4b/5x5
I0403 15:26:02.005203 11956 net.cpp:91] Creating Layer inception_4b/5x5
I0403 15:26:02.005219 11956 net.cpp:425] inception_4b/5x5 <- inception_4b/5x5_reduce
I0403 15:26:02.005237 11956 net.cpp:399] inception_4b/5x5 -> inception_4b/5x5
I0403 15:26:02.006428 11956 net.cpp:141] Setting up inception_4b/5x5
I0403 15:26:02.006454 11956 net.cpp:148] Top shape: 24 64 14 14 (301056)
I0403 15:26:02.006469 11956 net.cpp:156] Memory required for data: 966976800
I0403 15:26:02.006485 11956 layer_factory.hpp:77] Creating layer inception_4b/relu_5x5
I0403 15:26:02.006505 11956 net.cpp:91] Creating Layer inception_4b/relu_5x5
I0403 15:26:02.006520 11956 net.cpp:425] inception_4b/relu_5x5 <- inception_4b/5x5
I0403 15:26:02.006537 11956 net.cpp:386] inception_4b/relu_5x5 -> inception_4b/5x5 (in-place)
I0403 15:26:02.006814 11956 net.cpp:141] Setting up inception_4b/relu_5x5
I0403 15:26:02.006839 11956 net.cpp:148] Top shape: 24 64 14 14 (301056)
I0403 15:26:02.006853 11956 net.cpp:156] Memory required for data: 968181024
I0403 15:26:02.006868 11956 layer_factory.hpp:77] Creating layer inception_4b/pool
I0403 15:26:02.006887 11956 net.cpp:91] Creating Layer inception_4b/pool
I0403 15:26:02.006903 11956 net.cpp:425] inception_4b/pool <- inception_4a/output_inception_4a/output_0_split_4
I0403 15:26:02.006921 11956 net.cpp:399] inception_4b/pool -> inception_4b/pool
I0403 15:26:02.006983 11956 net.cpp:141] Setting up inception_4b/pool
I0403 15:26:02.007004 11956 net.cpp:148] Top shape: 24 512 14 14 (2408448)
I0403 15:26:02.007019 11956 net.cpp:156] Memory required for data: 977814816
I0403 15:26:02.007032 11956 layer_factory.hpp:77] Creating layer inception_4b/pool_proj
I0403 15:26:02.007052 11956 net.cpp:91] Creating Layer inception_4b/pool_proj
I0403 15:26:02.007069 11956 net.cpp:425] inception_4b/pool_proj <- inception_4b/pool
I0403 15:26:02.007088 11956 net.cpp:399] inception_4b/pool_proj -> inception_4b/pool_proj
I0403 15:26:02.008251 11956 net.cpp:141] Setting up inception_4b/pool_proj
I0403 15:26:02.008278 11956 net.cpp:148] Top shape: 24 64 14 14 (301056)
I0403 15:26:02.008293 11956 net.cpp:156] Memory required for data: 979019040
I0403 15:26:02.008311 11956 layer_factory.hpp:77] Creating layer inception_4b/relu_pool_proj
I0403 15:26:02.008334 11956 net.cpp:91] Creating Layer inception_4b/relu_pool_proj
I0403 15:26:02.008352 11956 net.cpp:425] inception_4b/relu_pool_proj <- inception_4b/pool_proj
I0403 15:26:02.008368 11956 net.cpp:386] inception_4b/relu_pool_proj -> inception_4b/pool_proj (in-place)
I0403 15:26:02.008543 11956 net.cpp:141] Setting up inception_4b/relu_pool_proj
I0403 15:26:02.008569 11956 net.cpp:148] Top shape: 24 64 14 14 (301056)
I0403 15:26:02.008584 11956 net.cpp:156] Memory required for data: 980223264
I0403 15:26:02.008596 11956 layer_factory.hpp:77] Creating layer inception_4b/output
I0403 15:26:02.008612 11956 net.cpp:91] Creating Layer inception_4b/output
I0403 15:26:02.008627 11956 net.cpp:425] inception_4b/output <- inception_4b/1x1
I0403 15:26:02.008642 11956 net.cpp:425] inception_4b/output <- inception_4b/3x3
I0403 15:26:02.008657 11956 net.cpp:425] inception_4b/output <- inception_4b/5x5
I0403 15:26:02.008671 11956 net.cpp:425] inception_4b/output <- inception_4b/pool_proj
I0403 15:26:02.008687 11956 net.cpp:399] inception_4b/output -> inception_4b/output
I0403 15:26:02.008733 11956 net.cpp:141] Setting up inception_4b/output
I0403 15:26:02.008754 11956 net.cpp:148] Top shape: 24 512 14 14 (2408448)
I0403 15:26:02.008769 11956 net.cpp:156] Memory required for data: 989857056
I0403 15:26:02.008795 11956 layer_factory.hpp:77] Creating layer inception_4b/output_inception_4b/output_0_split
I0403 15:26:02.008815 11956 net.cpp:91] Creating Layer inception_4b/output_inception_4b/output_0_split
I0403 15:26:02.008831 11956 net.cpp:425] inception_4b/output_inception_4b/output_0_split <- inception_4b/output
I0403 15:26:02.008846 11956 net.cpp:399] inception_4b/output_inception_4b/output_0_split -> inception_4b/output_inception_4b/output_0_split_0
I0403 15:26:02.008865 11956 net.cpp:399] inception_4b/output_inception_4b/output_0_split -> inception_4b/output_inception_4b/output_0_split_1
I0403 15:26:02.008884 11956 net.cpp:399] inception_4b/output_inception_4b/output_0_split -> inception_4b/output_inception_4b/output_0_split_2
I0403 15:26:02.008905 11956 net.cpp:399] inception_4b/output_inception_4b/output_0_split -> inception_4b/output_inception_4b/output_0_split_3
I0403 15:26:02.008988 11956 net.cpp:141] Setting up inception_4b/output_inception_4b/output_0_split
I0403 15:26:02.009011 11956 net.cpp:148] Top shape: 24 512 14 14 (2408448)
I0403 15:26:02.009026 11956 net.cpp:148] Top shape: 24 512 14 14 (2408448)
I0403 15:26:02.009039 11956 net.cpp:148] Top shape: 24 512 14 14 (2408448)
I0403 15:26:02.009053 11956 net.cpp:148] Top shape: 24 512 14 14 (2408448)
I0403 15:26:02.009066 11956 net.cpp:156] Memory required for data: 1028392224
I0403 15:26:02.009080 11956 layer_factory.hpp:77] Creating layer inception_4c/1x1
I0403 15:26:02.009100 11956 net.cpp:91] Creating Layer inception_4c/1x1
I0403 15:26:02.009117 11956 net.cpp:425] inception_4c/1x1 <- inception_4b/output_inception_4b/output_0_split_0
I0403 15:26:02.009137 11956 net.cpp:399] inception_4c/1x1 -> inception_4c/1x1
I0403 15:26:02.010568 11956 net.cpp:141] Setting up inception_4c/1x1
I0403 15:26:02.010612 11956 net.cpp:148] Top shape: 24 128 14 14 (602112)
I0403 15:26:02.010627 11956 net.cpp:156] Memory required for data: 1030800672
I0403 15:26:02.010644 11956 layer_factory.hpp:77] Creating layer inception_4c/relu_1x1
I0403 15:26:02.010673 11956 net.cpp:91] Creating Layer inception_4c/relu_1x1
I0403 15:26:02.010687 11956 net.cpp:425] inception_4c/relu_1x1 <- inception_4c/1x1
I0403 15:26:02.010705 11956 net.cpp:386] inception_4c/relu_1x1 -> inception_4c/1x1 (in-place)
I0403 15:26:02.010885 11956 net.cpp:141] Setting up inception_4c/relu_1x1
I0403 15:26:02.010907 11956 net.cpp:148] Top shape: 24 128 14 14 (602112)
I0403 15:26:02.010921 11956 net.cpp:156] Memory required for data: 1033209120
I0403 15:26:02.010936 11956 layer_factory.hpp:77] Creating layer inception_4c/3x3_reduce
I0403 15:26:02.010957 11956 net.cpp:91] Creating Layer inception_4c/3x3_reduce
I0403 15:26:02.010972 11956 net.cpp:425] inception_4c/3x3_reduce <- inception_4b/output_inception_4b/output_0_split_1
I0403 15:26:02.010993 11956 net.cpp:399] inception_4c/3x3_reduce -> inception_4c/3x3_reduce
I0403 15:26:02.012945 11956 net.cpp:141] Setting up inception_4c/3x3_reduce
I0403 15:26:02.012974 11956 net.cpp:148] Top shape: 24 128 14 14 (602112)
I0403 15:26:02.012989 11956 net.cpp:156] Memory required for data: 1035617568
I0403 15:26:02.013006 11956 layer_factory.hpp:77] Creating layer inception_4c/relu_3x3_reduce
I0403 15:26:02.013025 11956 net.cpp:91] Creating Layer inception_4c/relu_3x3_reduce
I0403 15:26:02.013041 11956 net.cpp:425] inception_4c/relu_3x3_reduce <- inception_4c/3x3_reduce
I0403 15:26:02.013058 11956 net.cpp:386] inception_4c/relu_3x3_reduce -> inception_4c/3x3_reduce (in-place)
I0403 15:26:02.013353 11956 net.cpp:141] Setting up inception_4c/relu_3x3_reduce
I0403 15:26:02.013380 11956 net.cpp:148] Top shape: 24 128 14 14 (602112)
I0403 15:26:02.013394 11956 net.cpp:156] Memory required for data: 1038026016
I0403 15:26:02.013408 11956 layer_factory.hpp:77] Creating layer inception_4c/3x3
I0403 15:26:02.013430 11956 net.cpp:91] Creating Layer inception_4c/3x3
I0403 15:26:02.013447 11956 net.cpp:425] inception_4c/3x3 <- inception_4c/3x3_reduce
I0403 15:26:02.013480 11956 net.cpp:399] inception_4c/3x3 -> inception_4c/3x3
I0403 15:26:02.016974 11956 net.cpp:141] Setting up inception_4c/3x3
I0403 15:26:02.017014 11956 net.cpp:148] Top shape: 24 256 14 14 (1204224)
I0403 15:26:02.017030 11956 net.cpp:156] Memory required for data: 1042842912
I0403 15:26:02.017058 11956 layer_factory.hpp:77] Creating layer inception_4c/relu_3x3
I0403 15:26:02.017081 11956 net.cpp:91] Creating Layer inception_4c/relu_3x3
I0403 15:26:02.017097 11956 net.cpp:425] inception_4c/relu_3x3 <- inception_4c/3x3
I0403 15:26:02.017114 11956 net.cpp:386] inception_4c/relu_3x3 -> inception_4c/3x3 (in-place)
I0403 15:26:02.017292 11956 net.cpp:141] Setting up inception_4c/relu_3x3
I0403 15:26:02.017314 11956 net.cpp:148] Top shape: 24 256 14 14 (1204224)
I0403 15:26:02.017333 11956 net.cpp:156] Memory required for data: 1047659808
I0403 15:26:02.017348 11956 layer_factory.hpp:77] Creating layer inception_4c/5x5_reduce
I0403 15:26:02.017369 11956 net.cpp:91] Creating Layer inception_4c/5x5_reduce
I0403 15:26:02.017385 11956 net.cpp:425] inception_4c/5x5_reduce <- inception_4b/output_inception_4b/output_0_split_2
I0403 15:26:02.017406 11956 net.cpp:399] inception_4c/5x5_reduce -> inception_4c/5x5_reduce
I0403 15:26:02.018463 11956 net.cpp:141] Setting up inception_4c/5x5_reduce
I0403 15:26:02.018491 11956 net.cpp:148] Top shape: 24 24 14 14 (112896)
I0403 15:26:02.018504 11956 net.cpp:156] Memory required for data: 1048111392
I0403 15:26:02.018522 11956 layer_factory.hpp:77] Creating layer inception_4c/relu_5x5_reduce
I0403 15:26:02.018542 11956 net.cpp:91] Creating Layer inception_4c/relu_5x5_reduce
I0403 15:26:02.018556 11956 net.cpp:425] inception_4c/relu_5x5_reduce <- inception_4c/5x5_reduce
I0403 15:26:02.018574 11956 net.cpp:386] inception_4c/relu_5x5_reduce -> inception_4c/5x5_reduce (in-place)
I0403 15:26:02.018753 11956 net.cpp:141] Setting up inception_4c/relu_5x5_reduce
I0403 15:26:02.018779 11956 net.cpp:148] Top shape: 24 24 14 14 (112896)
I0403 15:26:02.018792 11956 net.cpp:156] Memory required for data: 1048562976
I0403 15:26:02.018807 11956 layer_factory.hpp:77] Creating layer inception_4c/5x5
I0403 15:26:02.018827 11956 net.cpp:91] Creating Layer inception_4c/5x5
I0403 15:26:02.018844 11956 net.cpp:425] inception_4c/5x5 <- inception_4c/5x5_reduce
I0403 15:26:02.018862 11956 net.cpp:399] inception_4c/5x5 -> inception_4c/5x5
I0403 15:26:02.020066 11956 net.cpp:141] Setting up inception_4c/5x5
I0403 15:26:02.020094 11956 net.cpp:148] Top shape: 24 64 14 14 (301056)
I0403 15:26:02.020109 11956 net.cpp:156] Memory required for data: 1049767200
I0403 15:26:02.020128 11956 layer_factory.hpp:77] Creating layer inception_4c/relu_5x5
I0403 15:26:02.020145 11956 net.cpp:91] Creating Layer inception_4c/relu_5x5
I0403 15:26:02.020160 11956 net.cpp:425] inception_4c/relu_5x5 <- inception_4c/5x5
I0403 15:26:02.020176 11956 net.cpp:386] inception_4c/relu_5x5 -> inception_4c/5x5 (in-place)
I0403 15:26:02.020462 11956 net.cpp:141] Setting up inception_4c/relu_5x5
I0403 15:26:02.020489 11956 net.cpp:148] Top shape: 24 64 14 14 (301056)
I0403 15:26:02.020504 11956 net.cpp:156] Memory required for data: 1050971424
I0403 15:26:02.020519 11956 layer_factory.hpp:77] Creating layer inception_4c/pool
I0403 15:26:02.020535 11956 net.cpp:91] Creating Layer inception_4c/pool
I0403 15:26:02.020550 11956 net.cpp:425] inception_4c/pool <- inception_4b/output_inception_4b/output_0_split_3
I0403 15:26:02.020571 11956 net.cpp:399] inception_4c/pool -> inception_4c/pool
I0403 15:26:02.020635 11956 net.cpp:141] Setting up inception_4c/pool
I0403 15:26:02.020658 11956 net.cpp:148] Top shape: 24 512 14 14 (2408448)
I0403 15:26:02.020671 11956 net.cpp:156] Memory required for data: 1060605216
I0403 15:26:02.020685 11956 layer_factory.hpp:77] Creating layer inception_4c/pool_proj
I0403 15:26:02.020706 11956 net.cpp:91] Creating Layer inception_4c/pool_proj
I0403 15:26:02.020725 11956 net.cpp:425] inception_4c/pool_proj <- inception_4c/pool
I0403 15:26:02.020742 11956 net.cpp:399] inception_4c/pool_proj -> inception_4c/pool_proj
I0403 15:26:02.021932 11956 net.cpp:141] Setting up inception_4c/pool_proj
I0403 15:26:02.021958 11956 net.cpp:148] Top shape: 24 64 14 14 (301056)
I0403 15:26:02.021986 11956 net.cpp:156] Memory required for data: 1061809440
I0403 15:26:02.022006 11956 layer_factory.hpp:77] Creating layer inception_4c/relu_pool_proj
I0403 15:26:02.022024 11956 net.cpp:91] Creating Layer inception_4c/relu_pool_proj
I0403 15:26:02.022040 11956 net.cpp:425] inception_4c/relu_pool_proj <- inception_4c/pool_proj
I0403 15:26:02.022058 11956 net.cpp:386] inception_4c/relu_pool_proj -> inception_4c/pool_proj (in-place)
I0403 15:26:02.022233 11956 net.cpp:141] Setting up inception_4c/relu_pool_proj
I0403 15:26:02.022259 11956 net.cpp:148] Top shape: 24 64 14 14 (301056)
I0403 15:26:02.022274 11956 net.cpp:156] Memory required for data: 1063013664
I0403 15:26:02.022289 11956 layer_factory.hpp:77] Creating layer inception_4c/output
I0403 15:26:02.022305 11956 net.cpp:91] Creating Layer inception_4c/output
I0403 15:26:02.022323 11956 net.cpp:425] inception_4c/output <- inception_4c/1x1
I0403 15:26:02.022341 11956 net.cpp:425] inception_4c/output <- inception_4c/3x3
I0403 15:26:02.022356 11956 net.cpp:425] inception_4c/output <- inception_4c/5x5
I0403 15:26:02.022369 11956 net.cpp:425] inception_4c/output <- inception_4c/pool_proj
I0403 15:26:02.022385 11956 net.cpp:399] inception_4c/output -> inception_4c/output
I0403 15:26:02.022431 11956 net.cpp:141] Setting up inception_4c/output
I0403 15:26:02.022455 11956 net.cpp:148] Top shape: 24 512 14 14 (2408448)
I0403 15:26:02.022469 11956 net.cpp:156] Memory required for data: 1072647456
I0403 15:26:02.022483 11956 layer_factory.hpp:77] Creating layer inception_4c/output_inception_4c/output_0_split
I0403 15:26:02.022501 11956 net.cpp:91] Creating Layer inception_4c/output_inception_4c/output_0_split
I0403 15:26:02.022516 11956 net.cpp:425] inception_4c/output_inception_4c/output_0_split <- inception_4c/output
I0403 15:26:02.022533 11956 net.cpp:399] inception_4c/output_inception_4c/output_0_split -> inception_4c/output_inception_4c/output_0_split_0
I0403 15:26:02.022552 11956 net.cpp:399] inception_4c/output_inception_4c/output_0_split -> inception_4c/output_inception_4c/output_0_split_1
I0403 15:26:02.022570 11956 net.cpp:399] inception_4c/output_inception_4c/output_0_split -> inception_4c/output_inception_4c/output_0_split_2
I0403 15:26:02.022588 11956 net.cpp:399] inception_4c/output_inception_4c/output_0_split -> inception_4c/output_inception_4c/output_0_split_3
I0403 15:26:02.022670 11956 net.cpp:141] Setting up inception_4c/output_inception_4c/output_0_split
I0403 15:26:02.022692 11956 net.cpp:148] Top shape: 24 512 14 14 (2408448)
I0403 15:26:02.022707 11956 net.cpp:148] Top shape: 24 512 14 14 (2408448)
I0403 15:26:02.022722 11956 net.cpp:148] Top shape: 24 512 14 14 (2408448)
I0403 15:26:02.022735 11956 net.cpp:148] Top shape: 24 512 14 14 (2408448)
I0403 15:26:02.022748 11956 net.cpp:156] Memory required for data: 1111182624
I0403 15:26:02.022763 11956 layer_factory.hpp:77] Creating layer inception_4d/1x1
I0403 15:26:02.022783 11956 net.cpp:91] Creating Layer inception_4d/1x1
I0403 15:26:02.022799 11956 net.cpp:425] inception_4d/1x1 <- inception_4c/output_inception_4c/output_0_split_0
I0403 15:26:02.022820 11956 net.cpp:399] inception_4d/1x1 -> inception_4d/1x1
I0403 15:26:02.024171 11956 net.cpp:141] Setting up inception_4d/1x1
I0403 15:26:02.024199 11956 net.cpp:148] Top shape: 24 112 14 14 (526848)
I0403 15:26:02.024214 11956 net.cpp:156] Memory required for data: 1113290016
I0403 15:26:02.024230 11956 layer_factory.hpp:77] Creating layer inception_4d/relu_1x1
I0403 15:26:02.024246 11956 net.cpp:91] Creating Layer inception_4d/relu_1x1
I0403 15:26:02.024260 11956 net.cpp:425] inception_4d/relu_1x1 <- inception_4d/1x1
I0403 15:26:02.024279 11956 net.cpp:386] inception_4d/relu_1x1 -> inception_4d/1x1 (in-place)
I0403 15:26:02.024483 11956 net.cpp:141] Setting up inception_4d/relu_1x1
I0403 15:26:02.024507 11956 net.cpp:148] Top shape: 24 112 14 14 (526848)
I0403 15:26:02.024521 11956 net.cpp:156] Memory required for data: 1115397408
I0403 15:26:02.024535 11956 layer_factory.hpp:77] Creating layer inception_4d/3x3_reduce
I0403 15:26:02.024569 11956 net.cpp:91] Creating Layer inception_4d/3x3_reduce
I0403 15:26:02.024587 11956 net.cpp:425] inception_4d/3x3_reduce <- inception_4c/output_inception_4c/output_0_split_1
I0403 15:26:02.024608 11956 net.cpp:399] inception_4d/3x3_reduce -> inception_4d/3x3_reduce
I0403 15:26:02.026083 11956 net.cpp:141] Setting up inception_4d/3x3_reduce
I0403 15:26:02.026111 11956 net.cpp:148] Top shape: 24 144 14 14 (677376)
I0403 15:26:02.026126 11956 net.cpp:156] Memory required for data: 1118106912
I0403 15:26:02.026144 11956 layer_factory.hpp:77] Creating layer inception_4d/relu_3x3_reduce
I0403 15:26:02.026160 11956 net.cpp:91] Creating Layer inception_4d/relu_3x3_reduce
I0403 15:26:02.026176 11956 net.cpp:425] inception_4d/relu_3x3_reduce <- inception_4d/3x3_reduce
I0403 15:26:02.026195 11956 net.cpp:386] inception_4d/relu_3x3_reduce -> inception_4d/3x3_reduce (in-place)
I0403 15:26:02.026484 11956 net.cpp:141] Setting up inception_4d/relu_3x3_reduce
I0403 15:26:02.026512 11956 net.cpp:148] Top shape: 24 144 14 14 (677376)
I0403 15:26:02.026527 11956 net.cpp:156] Memory required for data: 1120816416
I0403 15:26:02.026541 11956 layer_factory.hpp:77] Creating layer inception_4d/3x3
I0403 15:26:02.026562 11956 net.cpp:91] Creating Layer inception_4d/3x3
I0403 15:26:02.026581 11956 net.cpp:425] inception_4d/3x3 <- inception_4d/3x3_reduce
I0403 15:26:02.026598 11956 net.cpp:399] inception_4d/3x3 -> inception_4d/3x3
I0403 15:26:02.030728 11956 net.cpp:141] Setting up inception_4d/3x3
I0403 15:26:02.030756 11956 net.cpp:148] Top shape: 24 288 14 14 (1354752)
I0403 15:26:02.030771 11956 net.cpp:156] Memory required for data: 1126235424
I0403 15:26:02.030788 11956 layer_factory.hpp:77] Creating layer inception_4d/relu_3x3
I0403 15:26:02.030808 11956 net.cpp:91] Creating Layer inception_4d/relu_3x3
I0403 15:26:02.030824 11956 net.cpp:425] inception_4d/relu_3x3 <- inception_4d/3x3
I0403 15:26:02.030841 11956 net.cpp:386] inception_4d/relu_3x3 -> inception_4d/3x3 (in-place)
I0403 15:26:02.031018 11956 net.cpp:141] Setting up inception_4d/relu_3x3
I0403 15:26:02.031041 11956 net.cpp:148] Top shape: 24 288 14 14 (1354752)
I0403 15:26:02.031054 11956 net.cpp:156] Memory required for data: 1131654432
I0403 15:26:02.031069 11956 layer_factory.hpp:77] Creating layer inception_4d/5x5_reduce
I0403 15:26:02.031090 11956 net.cpp:91] Creating Layer inception_4d/5x5_reduce
I0403 15:26:02.031108 11956 net.cpp:425] inception_4d/5x5_reduce <- inception_4c/output_inception_4c/output_0_split_2
I0403 15:26:02.031126 11956 net.cpp:399] inception_4d/5x5_reduce -> inception_4d/5x5_reduce
I0403 15:26:02.032259 11956 net.cpp:141] Setting up inception_4d/5x5_reduce
I0403 15:26:02.032286 11956 net.cpp:148] Top shape: 24 32 14 14 (150528)
I0403 15:26:02.032302 11956 net.cpp:156] Memory required for data: 1132256544
I0403 15:26:02.032325 11956 layer_factory.hpp:77] Creating layer inception_4d/relu_5x5_reduce
I0403 15:26:02.032343 11956 net.cpp:91] Creating Layer inception_4d/relu_5x5_reduce
I0403 15:26:02.032358 11956 net.cpp:425] inception_4d/relu_5x5_reduce <- inception_4d/5x5_reduce
I0403 15:26:02.032377 11956 net.cpp:386] inception_4d/relu_5x5_reduce -> inception_4d/5x5_reduce (in-place)
I0403 15:26:02.032567 11956 net.cpp:141] Setting up inception_4d/relu_5x5_reduce
I0403 15:26:02.032591 11956 net.cpp:148] Top shape: 24 32 14 14 (150528)
I0403 15:26:02.032605 11956 net.cpp:156] Memory required for data: 1132858656
I0403 15:26:02.032620 11956 layer_factory.hpp:77] Creating layer inception_4d/5x5
I0403 15:26:02.032642 11956 net.cpp:91] Creating Layer inception_4d/5x5
I0403 15:26:02.032660 11956 net.cpp:425] inception_4d/5x5 <- inception_4d/5x5_reduce
I0403 15:26:02.032680 11956 net.cpp:399] inception_4d/5x5 -> inception_4d/5x5
I0403 15:26:02.034160 11956 net.cpp:141] Setting up inception_4d/5x5
I0403 15:26:02.034190 11956 net.cpp:148] Top shape: 24 64 14 14 (301056)
I0403 15:26:02.034205 11956 net.cpp:156] Memory required for data: 1134062880
I0403 15:26:02.034224 11956 layer_factory.hpp:77] Creating layer inception_4d/relu_5x5
I0403 15:26:02.034255 11956 net.cpp:91] Creating Layer inception_4d/relu_5x5
I0403 15:26:02.034273 11956 net.cpp:425] inception_4d/relu_5x5 <- inception_4d/5x5
I0403 15:26:02.034291 11956 net.cpp:386] inception_4d/relu_5x5 -> inception_4d/5x5 (in-place)
I0403 15:26:02.034593 11956 net.cpp:141] Setting up inception_4d/relu_5x5
I0403 15:26:02.034621 11956 net.cpp:148] Top shape: 24 64 14 14 (301056)
I0403 15:26:02.034636 11956 net.cpp:156] Memory required for data: 1135267104
I0403 15:26:02.034651 11956 layer_factory.hpp:77] Creating layer inception_4d/pool
I0403 15:26:02.034669 11956 net.cpp:91] Creating Layer inception_4d/pool
I0403 15:26:02.034684 11956 net.cpp:425] inception_4d/pool <- inception_4c/output_inception_4c/output_0_split_3
I0403 15:26:02.034703 11956 net.cpp:399] inception_4d/pool -> inception_4d/pool
I0403 15:26:02.034770 11956 net.cpp:141] Setting up inception_4d/pool
I0403 15:26:02.034793 11956 net.cpp:148] Top shape: 24 512 14 14 (2408448)
I0403 15:26:02.034807 11956 net.cpp:156] Memory required for data: 1144900896
I0403 15:26:02.034821 11956 layer_factory.hpp:77] Creating layer inception_4d/pool_proj
I0403 15:26:02.034842 11956 net.cpp:91] Creating Layer inception_4d/pool_proj
I0403 15:26:02.034859 11956 net.cpp:425] inception_4d/pool_proj <- inception_4d/pool
I0403 15:26:02.034880 11956 net.cpp:399] inception_4d/pool_proj -> inception_4d/pool_proj
I0403 15:26:02.036640 11956 net.cpp:141] Setting up inception_4d/pool_proj
I0403 15:26:02.036669 11956 net.cpp:148] Top shape: 24 64 14 14 (301056)
I0403 15:26:02.036684 11956 net.cpp:156] Memory required for data: 1146105120
I0403 15:26:02.036701 11956 layer_factory.hpp:77] Creating layer inception_4d/relu_pool_proj
I0403 15:26:02.036722 11956 net.cpp:91] Creating Layer inception_4d/relu_pool_proj
I0403 15:26:02.036738 11956 net.cpp:425] inception_4d/relu_pool_proj <- inception_4d/pool_proj
I0403 15:26:02.036756 11956 net.cpp:386] inception_4d/relu_pool_proj -> inception_4d/pool_proj (in-place)
I0403 15:26:02.036938 11956 net.cpp:141] Setting up inception_4d/relu_pool_proj
I0403 15:26:02.036963 11956 net.cpp:148] Top shape: 24 64 14 14 (301056)
I0403 15:26:02.036977 11956 net.cpp:156] Memory required for data: 1147309344
I0403 15:26:02.036991 11956 layer_factory.hpp:77] Creating layer inception_4d/output
I0403 15:26:02.037010 11956 net.cpp:91] Creating Layer inception_4d/output
I0403 15:26:02.037027 11956 net.cpp:425] inception_4d/output <- inception_4d/1x1
I0403 15:26:02.037044 11956 net.cpp:425] inception_4d/output <- inception_4d/3x3
I0403 15:26:02.037060 11956 net.cpp:425] inception_4d/output <- inception_4d/5x5
I0403 15:26:02.037075 11956 net.cpp:425] inception_4d/output <- inception_4d/pool_proj
I0403 15:26:02.037091 11956 net.cpp:399] inception_4d/output -> inception_4d/output
I0403 15:26:02.037138 11956 net.cpp:141] Setting up inception_4d/output
I0403 15:26:02.037161 11956 net.cpp:148] Top shape: 24 528 14 14 (2483712)
I0403 15:26:02.037176 11956 net.cpp:156] Memory required for data: 1157244192
I0403 15:26:02.037190 11956 layer_factory.hpp:77] Creating layer inception_4d/output_inception_4d/output_0_split
I0403 15:26:02.037207 11956 net.cpp:91] Creating Layer inception_4d/output_inception_4d/output_0_split
I0403 15:26:02.037222 11956 net.cpp:425] inception_4d/output_inception_4d/output_0_split <- inception_4d/output
I0403 15:26:02.037241 11956 net.cpp:399] inception_4d/output_inception_4d/output_0_split -> inception_4d/output_inception_4d/output_0_split_0
I0403 15:26:02.037262 11956 net.cpp:399] inception_4d/output_inception_4d/output_0_split -> inception_4d/output_inception_4d/output_0_split_1
I0403 15:26:02.037283 11956 net.cpp:399] inception_4d/output_inception_4d/output_0_split -> inception_4d/output_inception_4d/output_0_split_2
I0403 15:26:02.037303 11956 net.cpp:399] inception_4d/output_inception_4d/output_0_split -> inception_4d/output_inception_4d/output_0_split_3
I0403 15:26:02.037331 11956 net.cpp:399] inception_4d/output_inception_4d/output_0_split -> inception_4d/output_inception_4d/output_0_split_4
I0403 15:26:02.037432 11956 net.cpp:141] Setting up inception_4d/output_inception_4d/output_0_split
I0403 15:26:02.037467 11956 net.cpp:148] Top shape: 24 528 14 14 (2483712)
I0403 15:26:02.037484 11956 net.cpp:148] Top shape: 24 528 14 14 (2483712)
I0403 15:26:02.037499 11956 net.cpp:148] Top shape: 24 528 14 14 (2483712)
I0403 15:26:02.037514 11956 net.cpp:148] Top shape: 24 528 14 14 (2483712)
I0403 15:26:02.037530 11956 net.cpp:148] Top shape: 24 528 14 14 (2483712)
I0403 15:26:02.037544 11956 net.cpp:156] Memory required for data: 1206918432
I0403 15:26:02.037557 11956 layer_factory.hpp:77] Creating layer loss2/ave_pool
I0403 15:26:02.037575 11956 net.cpp:91] Creating Layer loss2/ave_pool
I0403 15:26:02.037591 11956 net.cpp:425] loss2/ave_pool <- inception_4d/output_inception_4d/output_0_split_0
I0403 15:26:02.037612 11956 net.cpp:399] loss2/ave_pool -> loss2/ave_pool
I0403 15:26:02.037925 11956 net.cpp:141] Setting up loss2/ave_pool
I0403 15:26:02.037951 11956 net.cpp:148] Top shape: 24 528 4 4 (202752)
I0403 15:26:02.037966 11956 net.cpp:156] Memory required for data: 1207729440
I0403 15:26:02.037981 11956 layer_factory.hpp:77] Creating layer loss2/conv
I0403 15:26:02.038002 11956 net.cpp:91] Creating Layer loss2/conv
I0403 15:26:02.038020 11956 net.cpp:425] loss2/conv <- loss2/ave_pool
I0403 15:26:02.038043 11956 net.cpp:399] loss2/conv -> loss2/conv
I0403 15:26:02.039935 11956 net.cpp:141] Setting up loss2/conv
I0403 15:26:02.039963 11956 net.cpp:148] Top shape: 24 128 4 4 (49152)
I0403 15:26:02.039979 11956 net.cpp:156] Memory required for data: 1207926048
I0403 15:26:02.039997 11956 layer_factory.hpp:77] Creating layer loss2/relu_conv
I0403 15:26:02.040017 11956 net.cpp:91] Creating Layer loss2/relu_conv
I0403 15:26:02.040033 11956 net.cpp:425] loss2/relu_conv <- loss2/conv
I0403 15:26:02.040050 11956 net.cpp:386] loss2/relu_conv -> loss2/conv (in-place)
I0403 15:26:02.040343 11956 net.cpp:141] Setting up loss2/relu_conv
I0403 15:26:02.040369 11956 net.cpp:148] Top shape: 24 128 4 4 (49152)
I0403 15:26:02.040382 11956 net.cpp:156] Memory required for data: 1208122656
I0403 15:26:02.040397 11956 layer_factory.hpp:77] Creating layer loss2/fc
I0403 15:26:02.040417 11956 net.cpp:91] Creating Layer loss2/fc
I0403 15:26:02.040434 11956 net.cpp:425] loss2/fc <- loss2/conv
I0403 15:26:02.040455 11956 net.cpp:399] loss2/fc -> loss2/fc
I0403 15:26:02.058235 11956 net.cpp:141] Setting up loss2/fc
I0403 15:26:02.058297 11956 net.cpp:148] Top shape: 24 1024 (24576)
I0403 15:26:02.058312 11956 net.cpp:156] Memory required for data: 1208220960
I0403 15:26:02.058336 11956 layer_factory.hpp:77] Creating layer loss2/relu_fc
I0403 15:26:02.058356 11956 net.cpp:91] Creating Layer loss2/relu_fc
I0403 15:26:02.058373 11956 net.cpp:425] loss2/relu_fc <- loss2/fc
I0403 15:26:02.058393 11956 net.cpp:386] loss2/relu_fc -> loss2/fc (in-place)
I0403 15:26:02.058743 11956 net.cpp:141] Setting up loss2/relu_fc
I0403 15:26:02.058769 11956 net.cpp:148] Top shape: 24 1024 (24576)
I0403 15:26:02.058784 11956 net.cpp:156] Memory required for data: 1208319264
I0403 15:26:02.058799 11956 layer_factory.hpp:77] Creating layer loss2/drop_fc
I0403 15:26:02.058820 11956 net.cpp:91] Creating Layer loss2/drop_fc
I0403 15:26:02.058835 11956 net.cpp:425] loss2/drop_fc <- loss2/fc
I0403 15:26:02.058853 11956 net.cpp:386] loss2/drop_fc -> loss2/fc (in-place)
I0403 15:26:02.058907 11956 net.cpp:141] Setting up loss2/drop_fc
I0403 15:26:02.058929 11956 net.cpp:148] Top shape: 24 1024 (24576)
I0403 15:26:02.058944 11956 net.cpp:156] Memory required for data: 1208417568
I0403 15:26:02.058959 11956 layer_factory.hpp:77] Creating layer loss2/classifier_plantvillage
I0403 15:26:02.058976 11956 net.cpp:91] Creating Layer loss2/classifier_plantvillage
I0403 15:26:02.058992 11956 net.cpp:425] loss2/classifier_plantvillage <- loss2/fc
I0403 15:26:02.059013 11956 net.cpp:399] loss2/classifier_plantvillage -> loss2/classifier_plantvillage
I0403 15:26:02.059433 11956 net.cpp:141] Setting up loss2/classifier_plantvillage
I0403 15:26:02.059458 11956 net.cpp:148] Top shape: 24 38 (912)
I0403 15:26:02.059497 11956 net.cpp:156] Memory required for data: 1208421216
I0403 15:26:02.059516 11956 layer_factory.hpp:77] Creating layer loss2/classifier_plantvillage_loss2/classifier_plantvillage_0_split
I0403 15:26:02.059537 11956 net.cpp:91] Creating Layer loss2/classifier_plantvillage_loss2/classifier_plantvillage_0_split
I0403 15:26:02.059553 11956 net.cpp:425] loss2/classifier_plantvillage_loss2/classifier_plantvillage_0_split <- loss2/classifier_plantvillage
I0403 15:26:02.059572 11956 net.cpp:399] loss2/classifier_plantvillage_loss2/classifier_plantvillage_0_split -> loss2/classifier_plantvillage_loss2/classifier_plantvillage_0_split_0
I0403 15:26:02.059593 11956 net.cpp:399] loss2/classifier_plantvillage_loss2/classifier_plantvillage_0_split -> loss2/classifier_plantvillage_loss2/classifier_plantvillage_0_split_1
I0403 15:26:02.059613 11956 net.cpp:399] loss2/classifier_plantvillage_loss2/classifier_plantvillage_0_split -> loss2/classifier_plantvillage_loss2/classifier_plantvillage_0_split_2
I0403 15:26:02.059689 11956 net.cpp:141] Setting up loss2/classifier_plantvillage_loss2/classifier_plantvillage_0_split
I0403 15:26:02.059711 11956 net.cpp:148] Top shape: 24 38 (912)
I0403 15:26:02.059727 11956 net.cpp:148] Top shape: 24 38 (912)
I0403 15:26:02.059742 11956 net.cpp:148] Top shape: 24 38 (912)
I0403 15:26:02.059756 11956 net.cpp:156] Memory required for data: 1208432160
I0403 15:26:02.059769 11956 layer_factory.hpp:77] Creating layer inception_4e/1x1
I0403 15:26:02.059792 11956 net.cpp:91] Creating Layer inception_4e/1x1
I0403 15:26:02.059810 11956 net.cpp:425] inception_4e/1x1 <- inception_4d/output_inception_4d/output_0_split_1
I0403 15:26:02.059828 11956 net.cpp:399] inception_4e/1x1 -> inception_4e/1x1
I0403 15:26:02.061722 11956 net.cpp:141] Setting up inception_4e/1x1
I0403 15:26:02.061751 11956 net.cpp:148] Top shape: 24 256 14 14 (1204224)
I0403 15:26:02.061767 11956 net.cpp:156] Memory required for data: 1213249056
I0403 15:26:02.061785 11956 layer_factory.hpp:77] Creating layer inception_4e/relu_1x1
I0403 15:26:02.061803 11956 net.cpp:91] Creating Layer inception_4e/relu_1x1
I0403 15:26:02.061818 11956 net.cpp:425] inception_4e/relu_1x1 <- inception_4e/1x1
I0403 15:26:02.061836 11956 net.cpp:386] inception_4e/relu_1x1 -> inception_4e/1x1 (in-place)
I0403 15:26:02.062134 11956 net.cpp:141] Setting up inception_4e/relu_1x1
I0403 15:26:02.062161 11956 net.cpp:148] Top shape: 24 256 14 14 (1204224)
I0403 15:26:02.062177 11956 net.cpp:156] Memory required for data: 1218065952
I0403 15:26:02.062192 11956 layer_factory.hpp:77] Creating layer inception_4e/3x3_reduce
I0403 15:26:02.062213 11956 net.cpp:91] Creating Layer inception_4e/3x3_reduce
I0403 15:26:02.062232 11956 net.cpp:425] inception_4e/3x3_reduce <- inception_4d/output_inception_4d/output_0_split_2
I0403 15:26:02.062250 11956 net.cpp:399] inception_4e/3x3_reduce -> inception_4e/3x3_reduce
I0403 15:26:02.064409 11956 net.cpp:141] Setting up inception_4e/3x3_reduce
I0403 15:26:02.064438 11956 net.cpp:148] Top shape: 24 160 14 14 (752640)
I0403 15:26:02.064453 11956 net.cpp:156] Memory required for data: 1221076512
I0403 15:26:02.064471 11956 layer_factory.hpp:77] Creating layer inception_4e/relu_3x3_reduce
I0403 15:26:02.064491 11956 net.cpp:91] Creating Layer inception_4e/relu_3x3_reduce
I0403 15:26:02.064508 11956 net.cpp:425] inception_4e/relu_3x3_reduce <- inception_4e/3x3_reduce
I0403 15:26:02.064525 11956 net.cpp:386] inception_4e/relu_3x3_reduce -> inception_4e/3x3_reduce (in-place)
I0403 15:26:02.064713 11956 net.cpp:141] Setting up inception_4e/relu_3x3_reduce
I0403 15:26:02.064738 11956 net.cpp:148] Top shape: 24 160 14 14 (752640)
I0403 15:26:02.064752 11956 net.cpp:156] Memory required for data: 1224087072
I0403 15:26:02.064767 11956 layer_factory.hpp:77] Creating layer inception_4e/3x3
I0403 15:26:02.064790 11956 net.cpp:91] Creating Layer inception_4e/3x3
I0403 15:26:02.064806 11956 net.cpp:425] inception_4e/3x3 <- inception_4e/3x3_reduce
I0403 15:26:02.064828 11956 net.cpp:399] inception_4e/3x3 -> inception_4e/3x3
I0403 15:26:02.069844 11956 net.cpp:141] Setting up inception_4e/3x3
I0403 15:26:02.069885 11956 net.cpp:148] Top shape: 24 320 14 14 (1505280)
I0403 15:26:02.069900 11956 net.cpp:156] Memory required for data: 1230108192
I0403 15:26:02.069918 11956 layer_factory.hpp:77] Creating layer inception_4e/relu_3x3
I0403 15:26:02.069936 11956 net.cpp:91] Creating Layer inception_4e/relu_3x3
I0403 15:26:02.069952 11956 net.cpp:425] inception_4e/relu_3x3 <- inception_4e/3x3
I0403 15:26:02.069970 11956 net.cpp:386] inception_4e/relu_3x3 -> inception_4e/3x3 (in-place)
I0403 15:26:02.070272 11956 net.cpp:141] Setting up inception_4e/relu_3x3
I0403 15:26:02.070298 11956 net.cpp:148] Top shape: 24 320 14 14 (1505280)
I0403 15:26:02.070312 11956 net.cpp:156] Memory required for data: 1236129312
I0403 15:26:02.070332 11956 layer_factory.hpp:77] Creating layer inception_4e/5x5_reduce
I0403 15:26:02.070355 11956 net.cpp:91] Creating Layer inception_4e/5x5_reduce
I0403 15:26:02.070374 11956 net.cpp:425] inception_4e/5x5_reduce <- inception_4d/output_inception_4d/output_0_split_3
I0403 15:26:02.070394 11956 net.cpp:399] inception_4e/5x5_reduce -> inception_4e/5x5_reduce
I0403 15:26:02.071488 11956 net.cpp:141] Setting up inception_4e/5x5_reduce
I0403 15:26:02.071517 11956 net.cpp:148] Top shape: 24 32 14 14 (150528)
I0403 15:26:02.071533 11956 net.cpp:156] Memory required for data: 1236731424
I0403 15:26:02.071549 11956 layer_factory.hpp:77] Creating layer inception_4e/relu_5x5_reduce
I0403 15:26:02.071568 11956 net.cpp:91] Creating Layer inception_4e/relu_5x5_reduce
I0403 15:26:02.071583 11956 net.cpp:425] inception_4e/relu_5x5_reduce <- inception_4e/5x5_reduce
I0403 15:26:02.071599 11956 net.cpp:386] inception_4e/relu_5x5_reduce -> inception_4e/5x5_reduce (in-place)
I0403 15:26:02.071893 11956 net.cpp:141] Setting up inception_4e/relu_5x5_reduce
I0403 15:26:02.071923 11956 net.cpp:148] Top shape: 24 32 14 14 (150528)
I0403 15:26:02.071938 11956 net.cpp:156] Memory required for data: 1237333536
I0403 15:26:02.071952 11956 layer_factory.hpp:77] Creating layer inception_4e/5x5
I0403 15:26:02.071990 11956 net.cpp:91] Creating Layer inception_4e/5x5
I0403 15:26:02.072007 11956 net.cpp:425] inception_4e/5x5 <- inception_4e/5x5_reduce
I0403 15:26:02.072028 11956 net.cpp:399] inception_4e/5x5 -> inception_4e/5x5
I0403 15:26:02.073858 11956 net.cpp:141] Setting up inception_4e/5x5
I0403 15:26:02.073884 11956 net.cpp:148] Top shape: 24 128 14 14 (602112)
I0403 15:26:02.073899 11956 net.cpp:156] Memory required for data: 1239741984
I0403 15:26:02.073916 11956 layer_factory.hpp:77] Creating layer inception_4e/relu_5x5
I0403 15:26:02.073936 11956 net.cpp:91] Creating Layer inception_4e/relu_5x5
I0403 15:26:02.073952 11956 net.cpp:425] inception_4e/relu_5x5 <- inception_4e/5x5
I0403 15:26:02.073968 11956 net.cpp:386] inception_4e/relu_5x5 -> inception_4e/5x5 (in-place)
I0403 15:26:02.074162 11956 net.cpp:141] Setting up inception_4e/relu_5x5
I0403 15:26:02.074187 11956 net.cpp:148] Top shape: 24 128 14 14 (602112)
I0403 15:26:02.074200 11956 net.cpp:156] Memory required for data: 1242150432
I0403 15:26:02.074214 11956 layer_factory.hpp:77] Creating layer inception_4e/pool
I0403 15:26:02.074234 11956 net.cpp:91] Creating Layer inception_4e/pool
I0403 15:26:02.074249 11956 net.cpp:425] inception_4e/pool <- inception_4d/output_inception_4d/output_0_split_4
I0403 15:26:02.074270 11956 net.cpp:399] inception_4e/pool -> inception_4e/pool
I0403 15:26:02.074342 11956 net.cpp:141] Setting up inception_4e/pool
I0403 15:26:02.074365 11956 net.cpp:148] Top shape: 24 528 14 14 (2483712)
I0403 15:26:02.074378 11956 net.cpp:156] Memory required for data: 1252085280
I0403 15:26:02.074393 11956 layer_factory.hpp:77] Creating layer inception_4e/pool_proj
I0403 15:26:02.074414 11956 net.cpp:91] Creating Layer inception_4e/pool_proj
I0403 15:26:02.074430 11956 net.cpp:425] inception_4e/pool_proj <- inception_4e/pool
I0403 15:26:02.074450 11956 net.cpp:399] inception_4e/pool_proj -> inception_4e/pool_proj
I0403 15:26:02.075922 11956 net.cpp:141] Setting up inception_4e/pool_proj
I0403 15:26:02.075959 11956 net.cpp:148] Top shape: 24 128 14 14 (602112)
I0403 15:26:02.075975 11956 net.cpp:156] Memory required for data: 1254493728
I0403 15:26:02.075992 11956 layer_factory.hpp:77] Creating layer inception_4e/relu_pool_proj
I0403 15:26:02.076011 11956 net.cpp:91] Creating Layer inception_4e/relu_pool_proj
I0403 15:26:02.076027 11956 net.cpp:425] inception_4e/relu_pool_proj <- inception_4e/pool_proj
I0403 15:26:02.076043 11956 net.cpp:386] inception_4e/relu_pool_proj -> inception_4e/pool_proj (in-place)
I0403 15:26:02.076333 11956 net.cpp:141] Setting up inception_4e/relu_pool_proj
I0403 15:26:02.076357 11956 net.cpp:148] Top shape: 24 128 14 14 (602112)
I0403 15:26:02.076372 11956 net.cpp:156] Memory required for data: 1256902176
I0403 15:26:02.076386 11956 layer_factory.hpp:77] Creating layer inception_4e/output
I0403 15:26:02.076403 11956 net.cpp:91] Creating Layer inception_4e/output
I0403 15:26:02.076418 11956 net.cpp:425] inception_4e/output <- inception_4e/1x1
I0403 15:26:02.076433 11956 net.cpp:425] inception_4e/output <- inception_4e/3x3
I0403 15:26:02.076452 11956 net.cpp:425] inception_4e/output <- inception_4e/5x5
I0403 15:26:02.076468 11956 net.cpp:425] inception_4e/output <- inception_4e/pool_proj
I0403 15:26:02.076485 11956 net.cpp:399] inception_4e/output -> inception_4e/output
I0403 15:26:02.076532 11956 net.cpp:141] Setting up inception_4e/output
I0403 15:26:02.076556 11956 net.cpp:148] Top shape: 24 832 14 14 (3913728)
I0403 15:26:02.076572 11956 net.cpp:156] Memory required for data: 1272557088
I0403 15:26:02.076586 11956 layer_factory.hpp:77] Creating layer pool4/3x3_s2
I0403 15:26:02.076602 11956 net.cpp:91] Creating Layer pool4/3x3_s2
I0403 15:26:02.076617 11956 net.cpp:425] pool4/3x3_s2 <- inception_4e/output
I0403 15:26:02.076638 11956 net.cpp:399] pool4/3x3_s2 -> pool4/3x3_s2
I0403 15:26:02.076701 11956 net.cpp:141] Setting up pool4/3x3_s2
I0403 15:26:02.076724 11956 net.cpp:148] Top shape: 24 832 7 7 (978432)
I0403 15:26:02.076737 11956 net.cpp:156] Memory required for data: 1276470816
I0403 15:26:02.076750 11956 layer_factory.hpp:77] Creating layer pool4/3x3_s2_pool4/3x3_s2_0_split
I0403 15:26:02.076769 11956 net.cpp:91] Creating Layer pool4/3x3_s2_pool4/3x3_s2_0_split
I0403 15:26:02.076786 11956 net.cpp:425] pool4/3x3_s2_pool4/3x3_s2_0_split <- pool4/3x3_s2
I0403 15:26:02.076802 11956 net.cpp:399] pool4/3x3_s2_pool4/3x3_s2_0_split -> pool4/3x3_s2_pool4/3x3_s2_0_split_0
I0403 15:26:02.076820 11956 net.cpp:399] pool4/3x3_s2_pool4/3x3_s2_0_split -> pool4/3x3_s2_pool4/3x3_s2_0_split_1
I0403 15:26:02.076838 11956 net.cpp:399] pool4/3x3_s2_pool4/3x3_s2_0_split -> pool4/3x3_s2_pool4/3x3_s2_0_split_2
I0403 15:26:02.076859 11956 net.cpp:399] pool4/3x3_s2_pool4/3x3_s2_0_split -> pool4/3x3_s2_pool4/3x3_s2_0_split_3
I0403 15:26:02.077080 11956 net.cpp:141] Setting up pool4/3x3_s2_pool4/3x3_s2_0_split
I0403 15:26:02.077105 11956 net.cpp:148] Top shape: 24 832 7 7 (978432)
I0403 15:26:02.077121 11956 net.cpp:148] Top shape: 24 832 7 7 (978432)
I0403 15:26:02.077134 11956 net.cpp:148] Top shape: 24 832 7 7 (978432)
I0403 15:26:02.077149 11956 net.cpp:148] Top shape: 24 832 7 7 (978432)
I0403 15:26:02.077162 11956 net.cpp:156] Memory required for data: 1292125728
I0403 15:26:02.077175 11956 layer_factory.hpp:77] Creating layer inception_5a/1x1
I0403 15:26:02.077198 11956 net.cpp:91] Creating Layer inception_5a/1x1
I0403 15:26:02.077214 11956 net.cpp:425] inception_5a/1x1 <- pool4/3x3_s2_pool4/3x3_s2_0_split_0
I0403 15:26:02.077234 11956 net.cpp:399] inception_5a/1x1 -> inception_5a/1x1
I0403 15:26:02.080024 11956 net.cpp:141] Setting up inception_5a/1x1
I0403 15:26:02.080051 11956 net.cpp:148] Top shape: 24 256 7 7 (301056)
I0403 15:26:02.080066 11956 net.cpp:156] Memory required for data: 1293329952
I0403 15:26:02.080083 11956 layer_factory.hpp:77] Creating layer inception_5a/relu_1x1
I0403 15:26:02.080103 11956 net.cpp:91] Creating Layer inception_5a/relu_1x1
I0403 15:26:02.080121 11956 net.cpp:425] inception_5a/relu_1x1 <- inception_5a/1x1
I0403 15:26:02.080137 11956 net.cpp:386] inception_5a/relu_1x1 -> inception_5a/1x1 (in-place)
I0403 15:26:02.080446 11956 net.cpp:141] Setting up inception_5a/relu_1x1
I0403 15:26:02.080471 11956 net.cpp:148] Top shape: 24 256 7 7 (301056)
I0403 15:26:02.080485 11956 net.cpp:156] Memory required for data: 1294534176
I0403 15:26:02.080499 11956 layer_factory.hpp:77] Creating layer inception_5a/3x3_reduce
I0403 15:26:02.080520 11956 net.cpp:91] Creating Layer inception_5a/3x3_reduce
I0403 15:26:02.080538 11956 net.cpp:425] inception_5a/3x3_reduce <- pool4/3x3_s2_pool4/3x3_s2_0_split_1
I0403 15:26:02.080559 11956 net.cpp:399] inception_5a/3x3_reduce -> inception_5a/3x3_reduce
I0403 15:26:02.082962 11956 net.cpp:141] Setting up inception_5a/3x3_reduce
I0403 15:26:02.082990 11956 net.cpp:148] Top shape: 24 160 7 7 (188160)
I0403 15:26:02.083005 11956 net.cpp:156] Memory required for data: 1295286816
I0403 15:26:02.083022 11956 layer_factory.hpp:77] Creating layer inception_5a/relu_3x3_reduce
I0403 15:26:02.083040 11956 net.cpp:91] Creating Layer inception_5a/relu_3x3_reduce
I0403 15:26:02.083055 11956 net.cpp:425] inception_5a/relu_3x3_reduce <- inception_5a/3x3_reduce
I0403 15:26:02.083076 11956 net.cpp:386] inception_5a/relu_3x3_reduce -> inception_5a/3x3_reduce (in-place)
I0403 15:26:02.083257 11956 net.cpp:141] Setting up inception_5a/relu_3x3_reduce
I0403 15:26:02.083281 11956 net.cpp:148] Top shape: 24 160 7 7 (188160)
I0403 15:26:02.083295 11956 net.cpp:156] Memory required for data: 1296039456
I0403 15:26:02.083308 11956 layer_factory.hpp:77] Creating layer inception_5a/3x3
I0403 15:26:02.083341 11956 net.cpp:91] Creating Layer inception_5a/3x3
I0403 15:26:02.083359 11956 net.cpp:425] inception_5a/3x3 <- inception_5a/3x3_reduce
I0403 15:26:02.083381 11956 net.cpp:399] inception_5a/3x3 -> inception_5a/3x3
I0403 15:26:02.088279 11956 net.cpp:141] Setting up inception_5a/3x3
I0403 15:26:02.088309 11956 net.cpp:148] Top shape: 24 320 7 7 (376320)
I0403 15:26:02.088327 11956 net.cpp:156] Memory required for data: 1297544736
I0403 15:26:02.088346 11956 layer_factory.hpp:77] Creating layer inception_5a/relu_3x3
I0403 15:26:02.088366 11956 net.cpp:91] Creating Layer inception_5a/relu_3x3
I0403 15:26:02.088382 11956 net.cpp:425] inception_5a/relu_3x3 <- inception_5a/3x3
I0403 15:26:02.088397 11956 net.cpp:386] inception_5a/relu_3x3 -> inception_5a/3x3 (in-place)
I0403 15:26:02.088690 11956 net.cpp:141] Setting up inception_5a/relu_3x3
I0403 15:26:02.088716 11956 net.cpp:148] Top shape: 24 320 7 7 (376320)
I0403 15:26:02.088729 11956 net.cpp:156] Memory required for data: 1299050016
I0403 15:26:02.088743 11956 layer_factory.hpp:77] Creating layer inception_5a/5x5_reduce
I0403 15:26:02.088764 11956 net.cpp:91] Creating Layer inception_5a/5x5_reduce
I0403 15:26:02.088781 11956 net.cpp:425] inception_5a/5x5_reduce <- pool4/3x3_s2_pool4/3x3_s2_0_split_2
I0403 15:26:02.088803 11956 net.cpp:399] inception_5a/5x5_reduce -> inception_5a/5x5_reduce
I0403 15:26:02.089982 11956 net.cpp:141] Setting up inception_5a/5x5_reduce
I0403 15:26:02.090010 11956 net.cpp:148] Top shape: 24 32 7 7 (37632)
I0403 15:26:02.090024 11956 net.cpp:156] Memory required for data: 1299200544
I0403 15:26:02.090041 11956 layer_factory.hpp:77] Creating layer inception_5a/relu_5x5_reduce
I0403 15:26:02.090060 11956 net.cpp:91] Creating Layer inception_5a/relu_5x5_reduce
I0403 15:26:02.090078 11956 net.cpp:425] inception_5a/relu_5x5_reduce <- inception_5a/5x5_reduce
I0403 15:26:02.090096 11956 net.cpp:386] inception_5a/relu_5x5_reduce -> inception_5a/5x5_reduce (in-place)
I0403 15:26:02.090405 11956 net.cpp:141] Setting up inception_5a/relu_5x5_reduce
I0403 15:26:02.090430 11956 net.cpp:148] Top shape: 24 32 7 7 (37632)
I0403 15:26:02.090445 11956 net.cpp:156] Memory required for data: 1299351072
I0403 15:26:02.090459 11956 layer_factory.hpp:77] Creating layer inception_5a/5x5
I0403 15:26:02.090482 11956 net.cpp:91] Creating Layer inception_5a/5x5
I0403 15:26:02.090499 11956 net.cpp:425] inception_5a/5x5 <- inception_5a/5x5_reduce
I0403 15:26:02.090517 11956 net.cpp:399] inception_5a/5x5 -> inception_5a/5x5
I0403 15:26:02.092206 11956 net.cpp:141] Setting up inception_5a/5x5
I0403 15:26:02.092245 11956 net.cpp:148] Top shape: 24 128 7 7 (150528)
I0403 15:26:02.092262 11956 net.cpp:156] Memory required for data: 1299953184
I0403 15:26:02.092280 11956 layer_factory.hpp:77] Creating layer inception_5a/relu_5x5
I0403 15:26:02.092300 11956 net.cpp:91] Creating Layer inception_5a/relu_5x5
I0403 15:26:02.092322 11956 net.cpp:425] inception_5a/relu_5x5 <- inception_5a/5x5
I0403 15:26:02.092342 11956 net.cpp:386] inception_5a/relu_5x5 -> inception_5a/5x5 (in-place)
I0403 15:26:02.092530 11956 net.cpp:141] Setting up inception_5a/relu_5x5
I0403 15:26:02.092558 11956 net.cpp:148] Top shape: 24 128 7 7 (150528)
I0403 15:26:02.092576 11956 net.cpp:156] Memory required for data: 1300555296
I0403 15:26:02.092592 11956 layer_factory.hpp:77] Creating layer inception_5a/pool
I0403 15:26:02.092609 11956 net.cpp:91] Creating Layer inception_5a/pool
I0403 15:26:02.092625 11956 net.cpp:425] inception_5a/pool <- pool4/3x3_s2_pool4/3x3_s2_0_split_3
I0403 15:26:02.092645 11956 net.cpp:399] inception_5a/pool -> inception_5a/pool
I0403 15:26:02.092715 11956 net.cpp:141] Setting up inception_5a/pool
I0403 15:26:02.092738 11956 net.cpp:148] Top shape: 24 832 7 7 (978432)
I0403 15:26:02.092753 11956 net.cpp:156] Memory required for data: 1304469024
I0403 15:26:02.092768 11956 layer_factory.hpp:77] Creating layer inception_5a/pool_proj
I0403 15:26:02.092790 11956 net.cpp:91] Creating Layer inception_5a/pool_proj
I0403 15:26:02.092808 11956 net.cpp:425] inception_5a/pool_proj <- inception_5a/pool
I0403 15:26:02.092828 11956 net.cpp:399] inception_5a/pool_proj -> inception_5a/pool_proj
I0403 15:26:02.095070 11956 net.cpp:141] Setting up inception_5a/pool_proj
I0403 15:26:02.095100 11956 net.cpp:148] Top shape: 24 128 7 7 (150528)
I0403 15:26:02.095116 11956 net.cpp:156] Memory required for data: 1305071136
I0403 15:26:02.095135 11956 layer_factory.hpp:77] Creating layer inception_5a/relu_pool_proj
I0403 15:26:02.095155 11956 net.cpp:91] Creating Layer inception_5a/relu_pool_proj
I0403 15:26:02.095173 11956 net.cpp:425] inception_5a/relu_pool_proj <- inception_5a/pool_proj
I0403 15:26:02.095191 11956 net.cpp:386] inception_5a/relu_pool_proj -> inception_5a/pool_proj (in-place)
I0403 15:26:02.095494 11956 net.cpp:141] Setting up inception_5a/relu_pool_proj
I0403 15:26:02.095518 11956 net.cpp:148] Top shape: 24 128 7 7 (150528)
I0403 15:26:02.095533 11956 net.cpp:156] Memory required for data: 1305673248
I0403 15:26:02.095547 11956 layer_factory.hpp:77] Creating layer inception_5a/output
I0403 15:26:02.095563 11956 net.cpp:91] Creating Layer inception_5a/output
I0403 15:26:02.095578 11956 net.cpp:425] inception_5a/output <- inception_5a/1x1
I0403 15:26:02.095594 11956 net.cpp:425] inception_5a/output <- inception_5a/3x3
I0403 15:26:02.095610 11956 net.cpp:425] inception_5a/output <- inception_5a/5x5
I0403 15:26:02.095625 11956 net.cpp:425] inception_5a/output <- inception_5a/pool_proj
I0403 15:26:02.095659 11956 net.cpp:399] inception_5a/output -> inception_5a/output
I0403 15:26:02.095710 11956 net.cpp:141] Setting up inception_5a/output
I0403 15:26:02.095733 11956 net.cpp:148] Top shape: 24 832 7 7 (978432)
I0403 15:26:02.095747 11956 net.cpp:156] Memory required for data: 1309586976
I0403 15:26:02.095762 11956 layer_factory.hpp:77] Creating layer inception_5a/output_inception_5a/output_0_split
I0403 15:26:02.095777 11956 net.cpp:91] Creating Layer inception_5a/output_inception_5a/output_0_split
I0403 15:26:02.095791 11956 net.cpp:425] inception_5a/output_inception_5a/output_0_split <- inception_5a/output
I0403 15:26:02.095810 11956 net.cpp:399] inception_5a/output_inception_5a/output_0_split -> inception_5a/output_inception_5a/output_0_split_0
I0403 15:26:02.095829 11956 net.cpp:399] inception_5a/output_inception_5a/output_0_split -> inception_5a/output_inception_5a/output_0_split_1
I0403 15:26:02.095849 11956 net.cpp:399] inception_5a/output_inception_5a/output_0_split -> inception_5a/output_inception_5a/output_0_split_2
I0403 15:26:02.095867 11956 net.cpp:399] inception_5a/output_inception_5a/output_0_split -> inception_5a/output_inception_5a/output_0_split_3
I0403 15:26:02.095986 11956 net.cpp:141] Setting up inception_5a/output_inception_5a/output_0_split
I0403 15:26:02.096009 11956 net.cpp:148] Top shape: 24 832 7 7 (978432)
I0403 15:26:02.096024 11956 net.cpp:148] Top shape: 24 832 7 7 (978432)
I0403 15:26:02.096038 11956 net.cpp:148] Top shape: 24 832 7 7 (978432)
I0403 15:26:02.096052 11956 net.cpp:148] Top shape: 24 832 7 7 (978432)
I0403 15:26:02.096065 11956 net.cpp:156] Memory required for data: 1325241888
I0403 15:26:02.096079 11956 layer_factory.hpp:77] Creating layer inception_5b/1x1
I0403 15:26:02.096102 11956 net.cpp:91] Creating Layer inception_5b/1x1
I0403 15:26:02.096119 11956 net.cpp:425] inception_5b/1x1 <- inception_5a/output_inception_5a/output_0_split_0
I0403 15:26:02.096138 11956 net.cpp:399] inception_5b/1x1 -> inception_5b/1x1
I0403 15:26:02.099809 11956 net.cpp:141] Setting up inception_5b/1x1
I0403 15:26:02.099838 11956 net.cpp:148] Top shape: 24 384 7 7 (451584)
I0403 15:26:02.099854 11956 net.cpp:156] Memory required for data: 1327048224
I0403 15:26:02.099872 11956 layer_factory.hpp:77] Creating layer inception_5b/relu_1x1
I0403 15:26:02.099890 11956 net.cpp:91] Creating Layer inception_5b/relu_1x1
I0403 15:26:02.099910 11956 net.cpp:425] inception_5b/relu_1x1 <- inception_5b/1x1
I0403 15:26:02.099926 11956 net.cpp:386] inception_5b/relu_1x1 -> inception_5b/1x1 (in-place)
I0403 15:26:02.100229 11956 net.cpp:141] Setting up inception_5b/relu_1x1
I0403 15:26:02.100255 11956 net.cpp:148] Top shape: 24 384 7 7 (451584)
I0403 15:26:02.100270 11956 net.cpp:156] Memory required for data: 1328854560
I0403 15:26:02.100284 11956 layer_factory.hpp:77] Creating layer inception_5b/3x3_reduce
I0403 15:26:02.100306 11956 net.cpp:91] Creating Layer inception_5b/3x3_reduce
I0403 15:26:02.100330 11956 net.cpp:425] inception_5b/3x3_reduce <- inception_5a/output_inception_5a/output_0_split_1
I0403 15:26:02.100354 11956 net.cpp:399] inception_5b/3x3_reduce -> inception_5b/3x3_reduce
I0403 15:26:02.102993 11956 net.cpp:141] Setting up inception_5b/3x3_reduce
I0403 15:26:02.103023 11956 net.cpp:148] Top shape: 24 192 7 7 (225792)
I0403 15:26:02.103037 11956 net.cpp:156] Memory required for data: 1329757728
I0403 15:26:02.103055 11956 layer_factory.hpp:77] Creating layer inception_5b/relu_3x3_reduce
I0403 15:26:02.103072 11956 net.cpp:91] Creating Layer inception_5b/relu_3x3_reduce
I0403 15:26:02.103087 11956 net.cpp:425] inception_5b/relu_3x3_reduce <- inception_5b/3x3_reduce
I0403 15:26:02.103107 11956 net.cpp:386] inception_5b/relu_3x3_reduce -> inception_5b/3x3_reduce (in-place)
I0403 15:26:02.103292 11956 net.cpp:141] Setting up inception_5b/relu_3x3_reduce
I0403 15:26:02.103324 11956 net.cpp:148] Top shape: 24 192 7 7 (225792)
I0403 15:26:02.103341 11956 net.cpp:156] Memory required for data: 1330660896
I0403 15:26:02.103355 11956 layer_factory.hpp:77] Creating layer inception_5b/3x3
I0403 15:26:02.103377 11956 net.cpp:91] Creating Layer inception_5b/3x3
I0403 15:26:02.103394 11956 net.cpp:425] inception_5b/3x3 <- inception_5b/3x3_reduce
I0403 15:26:02.103415 11956 net.cpp:399] inception_5b/3x3 -> inception_5b/3x3
I0403 15:26:02.110002 11956 net.cpp:141] Setting up inception_5b/3x3
I0403 15:26:02.110031 11956 net.cpp:148] Top shape: 24 384 7 7 (451584)
I0403 15:26:02.110047 11956 net.cpp:156] Memory required for data: 1332467232
I0403 15:26:02.110065 11956 layer_factory.hpp:77] Creating layer inception_5b/relu_3x3
I0403 15:26:02.110086 11956 net.cpp:91] Creating Layer inception_5b/relu_3x3
I0403 15:26:02.110105 11956 net.cpp:425] inception_5b/relu_3x3 <- inception_5b/3x3
I0403 15:26:02.110121 11956 net.cpp:386] inception_5b/relu_3x3 -> inception_5b/3x3 (in-place)
I0403 15:26:02.110419 11956 net.cpp:141] Setting up inception_5b/relu_3x3
I0403 15:26:02.110445 11956 net.cpp:148] Top shape: 24 384 7 7 (451584)
I0403 15:26:02.110460 11956 net.cpp:156] Memory required for data: 1334273568
I0403 15:26:02.110474 11956 layer_factory.hpp:77] Creating layer inception_5b/5x5_reduce
I0403 15:26:02.110512 11956 net.cpp:91] Creating Layer inception_5b/5x5_reduce
I0403 15:26:02.110532 11956 net.cpp:425] inception_5b/5x5_reduce <- inception_5a/output_inception_5a/output_0_split_2
I0403 15:26:02.110553 11956 net.cpp:399] inception_5b/5x5_reduce -> inception_5b/5x5_reduce
I0403 15:26:02.111811 11956 net.cpp:141] Setting up inception_5b/5x5_reduce
I0403 15:26:02.111840 11956 net.cpp:148] Top shape: 24 48 7 7 (56448)
I0403 15:26:02.111855 11956 net.cpp:156] Memory required for data: 1334499360
I0403 15:26:02.111872 11956 layer_factory.hpp:77] Creating layer inception_5b/relu_5x5_reduce
I0403 15:26:02.111891 11956 net.cpp:91] Creating Layer inception_5b/relu_5x5_reduce
I0403 15:26:02.111908 11956 net.cpp:425] inception_5b/relu_5x5_reduce <- inception_5b/5x5_reduce
I0403 15:26:02.111925 11956 net.cpp:386] inception_5b/relu_5x5_reduce -> inception_5b/5x5_reduce (in-place)
I0403 15:26:02.112289 11956 net.cpp:141] Setting up inception_5b/relu_5x5_reduce
I0403 15:26:02.112314 11956 net.cpp:148] Top shape: 24 48 7 7 (56448)
I0403 15:26:02.112334 11956 net.cpp:156] Memory required for data: 1334725152
I0403 15:26:02.112349 11956 layer_factory.hpp:77] Creating layer inception_5b/5x5
I0403 15:26:02.112367 11956 net.cpp:91] Creating Layer inception_5b/5x5
I0403 15:26:02.112383 11956 net.cpp:425] inception_5b/5x5 <- inception_5b/5x5_reduce
I0403 15:26:02.112402 11956 net.cpp:399] inception_5b/5x5 -> inception_5b/5x5
I0403 15:26:02.114413 11956 net.cpp:141] Setting up inception_5b/5x5
I0403 15:26:02.114441 11956 net.cpp:148] Top shape: 24 128 7 7 (150528)
I0403 15:26:02.114457 11956 net.cpp:156] Memory required for data: 1335327264
I0403 15:26:02.114475 11956 layer_factory.hpp:77] Creating layer inception_5b/relu_5x5
I0403 15:26:02.114495 11956 net.cpp:91] Creating Layer inception_5b/relu_5x5
I0403 15:26:02.114511 11956 net.cpp:425] inception_5b/relu_5x5 <- inception_5b/5x5
I0403 15:26:02.114527 11956 net.cpp:386] inception_5b/relu_5x5 -> inception_5b/5x5 (in-place)
I0403 15:26:02.114716 11956 net.cpp:141] Setting up inception_5b/relu_5x5
I0403 15:26:02.114742 11956 net.cpp:148] Top shape: 24 128 7 7 (150528)
I0403 15:26:02.114755 11956 net.cpp:156] Memory required for data: 1335929376
I0403 15:26:02.114769 11956 layer_factory.hpp:77] Creating layer inception_5b/pool
I0403 15:26:02.114785 11956 net.cpp:91] Creating Layer inception_5b/pool
I0403 15:26:02.114801 11956 net.cpp:425] inception_5b/pool <- inception_5a/output_inception_5a/output_0_split_3
I0403 15:26:02.114820 11956 net.cpp:399] inception_5b/pool -> inception_5b/pool
I0403 15:26:02.114892 11956 net.cpp:141] Setting up inception_5b/pool
I0403 15:26:02.114914 11956 net.cpp:148] Top shape: 24 832 7 7 (978432)
I0403 15:26:02.114928 11956 net.cpp:156] Memory required for data: 1339843104
I0403 15:26:02.114941 11956 layer_factory.hpp:77] Creating layer inception_5b/pool_proj
I0403 15:26:02.114962 11956 net.cpp:91] Creating Layer inception_5b/pool_proj
I0403 15:26:02.114979 11956 net.cpp:425] inception_5b/pool_proj <- inception_5b/pool
I0403 15:26:02.115000 11956 net.cpp:399] inception_5b/pool_proj -> inception_5b/pool_proj
I0403 15:26:02.117259 11956 net.cpp:141] Setting up inception_5b/pool_proj
I0403 15:26:02.117288 11956 net.cpp:148] Top shape: 24 128 7 7 (150528)
I0403 15:26:02.117305 11956 net.cpp:156] Memory required for data: 1340445216
I0403 15:26:02.117326 11956 layer_factory.hpp:77] Creating layer inception_5b/relu_pool_proj
I0403 15:26:02.117348 11956 net.cpp:91] Creating Layer inception_5b/relu_pool_proj
I0403 15:26:02.117365 11956 net.cpp:425] inception_5b/relu_pool_proj <- inception_5b/pool_proj
I0403 15:26:02.117382 11956 net.cpp:386] inception_5b/relu_pool_proj -> inception_5b/pool_proj (in-place)
I0403 15:26:02.117678 11956 net.cpp:141] Setting up inception_5b/relu_pool_proj
I0403 15:26:02.117703 11956 net.cpp:148] Top shape: 24 128 7 7 (150528)
I0403 15:26:02.117717 11956 net.cpp:156] Memory required for data: 1341047328
I0403 15:26:02.117732 11956 layer_factory.hpp:77] Creating layer inception_5b/output
I0403 15:26:02.117750 11956 net.cpp:91] Creating Layer inception_5b/output
I0403 15:26:02.117780 11956 net.cpp:425] inception_5b/output <- inception_5b/1x1
I0403 15:26:02.117797 11956 net.cpp:425] inception_5b/output <- inception_5b/3x3
I0403 15:26:02.117813 11956 net.cpp:425] inception_5b/output <- inception_5b/5x5
I0403 15:26:02.117828 11956 net.cpp:425] inception_5b/output <- inception_5b/pool_proj
I0403 15:26:02.117844 11956 net.cpp:399] inception_5b/output -> inception_5b/output
I0403 15:26:02.117893 11956 net.cpp:141] Setting up inception_5b/output
I0403 15:26:02.117918 11956 net.cpp:148] Top shape: 24 1024 7 7 (1204224)
I0403 15:26:02.117934 11956 net.cpp:156] Memory required for data: 1345864224
I0403 15:26:02.117949 11956 layer_factory.hpp:77] Creating layer pool5/7x7_s1
I0403 15:26:02.117965 11956 net.cpp:91] Creating Layer pool5/7x7_s1
I0403 15:26:02.117980 11956 net.cpp:425] pool5/7x7_s1 <- inception_5b/output
I0403 15:26:02.118000 11956 net.cpp:399] pool5/7x7_s1 -> pool5/7x7_s1
I0403 15:26:02.118211 11956 net.cpp:141] Setting up pool5/7x7_s1
I0403 15:26:02.118234 11956 net.cpp:148] Top shape: 24 1024 1 1 (24576)
I0403 15:26:02.118248 11956 net.cpp:156] Memory required for data: 1345962528
I0403 15:26:02.118263 11956 layer_factory.hpp:77] Creating layer pool5/drop_7x7_s1
I0403 15:26:02.118281 11956 net.cpp:91] Creating Layer pool5/drop_7x7_s1
I0403 15:26:02.118297 11956 net.cpp:425] pool5/drop_7x7_s1 <- pool5/7x7_s1
I0403 15:26:02.118314 11956 net.cpp:386] pool5/drop_7x7_s1 -> pool5/7x7_s1 (in-place)
I0403 15:26:02.118369 11956 net.cpp:141] Setting up pool5/drop_7x7_s1
I0403 15:26:02.118391 11956 net.cpp:148] Top shape: 24 1024 1 1 (24576)
I0403 15:26:02.118405 11956 net.cpp:156] Memory required for data: 1346060832
I0403 15:26:02.118419 11956 layer_factory.hpp:77] Creating layer loss3/classifier_plantvillage
I0403 15:26:02.118438 11956 net.cpp:91] Creating Layer loss3/classifier_plantvillage
I0403 15:26:02.118456 11956 net.cpp:425] loss3/classifier_plantvillage <- pool5/7x7_s1
I0403 15:26:02.118474 11956 net.cpp:399] loss3/classifier_plantvillage -> loss3/classifier_plantvillage
I0403 15:26:02.118888 11956 net.cpp:141] Setting up loss3/classifier_plantvillage
I0403 15:26:02.118911 11956 net.cpp:148] Top shape: 24 38 (912)
I0403 15:26:02.118926 11956 net.cpp:156] Memory required for data: 1346064480
I0403 15:26:02.118942 11956 layer_factory.hpp:77] Creating layer loss3/classifier_plantvillage_loss3/classifier_plantvillage_0_split
I0403 15:26:02.118960 11956 net.cpp:91] Creating Layer loss3/classifier_plantvillage_loss3/classifier_plantvillage_0_split
I0403 15:26:02.118975 11956 net.cpp:425] loss3/classifier_plantvillage_loss3/classifier_plantvillage_0_split <- loss3/classifier_plantvillage
I0403 15:26:02.118994 11956 net.cpp:399] loss3/classifier_plantvillage_loss3/classifier_plantvillage_0_split -> loss3/classifier_plantvillage_loss3/classifier_plantvillage_0_split_0
I0403 15:26:02.119014 11956 net.cpp:399] loss3/classifier_plantvillage_loss3/classifier_plantvillage_0_split -> loss3/classifier_plantvillage_loss3/classifier_plantvillage_0_split_1
I0403 15:26:02.119034 11956 net.cpp:399] loss3/classifier_plantvillage_loss3/classifier_plantvillage_0_split -> loss3/classifier_plantvillage_loss3/classifier_plantvillage_0_split_2
I0403 15:26:02.119051 11956 net.cpp:399] loss3/classifier_plantvillage_loss3/classifier_plantvillage_0_split -> loss3/classifier_plantvillage_loss3/classifier_plantvillage_0_split_3
I0403 15:26:02.119153 11956 net.cpp:141] Setting up loss3/classifier_plantvillage_loss3/classifier_plantvillage_0_split
I0403 15:26:02.119175 11956 net.cpp:148] Top shape: 24 38 (912)
I0403 15:26:02.119191 11956 net.cpp:148] Top shape: 24 38 (912)
I0403 15:26:02.119205 11956 net.cpp:148] Top shape: 24 38 (912)
I0403 15:26:02.119220 11956 net.cpp:148] Top shape: 24 38 (912)
I0403 15:26:02.119232 11956 net.cpp:156] Memory required for data: 1346079072
I0403 15:26:02.119246 11956 layer_factory.hpp:77] Creating layer loss1/loss
I0403 15:26:02.119269 11956 net.cpp:91] Creating Layer loss1/loss
I0403 15:26:02.119287 11956 net.cpp:425] loss1/loss <- loss1/classifier_plantvillage_loss1/classifier_plantvillage_0_split_0
I0403 15:26:02.119315 11956 net.cpp:425] loss1/loss <- label_data_1_split_0
…
