…
I0403 15:28:03.795536 11985 net.cpp:313] The NetState phase (1) differed from the phase (0) specified by a rule in layer data
I0403 15:28:03.796721 11985 net.cpp:49] Initializing net from parameters: 
state {
  phase: TEST
}
layer {
  name: "data"
  type: "Data"
  top: "data"
  top: "label"
  include {
    phase: TEST
  }
  transform_param {
    mirror: false
    crop_size: 224
    mean_file: "/home/mohanty/data/final_dataset/lmdb/segmented-40-60/mean.binaryproto"
  }
  data_param {
    source: "/home/mohanty/data/final_dataset/lmdb/segmented-40-60/test_db"
    batch_size: 24
    backend: LMDB
  }
}
layer {
  name: "conv1/7x7_s2"
  type: "Convolution"
  bottom: "data"
  top: "conv1/7x7_s2"
  param {
    lr_mult: 1
    decay_mult: 1
  }
  param {
    lr_mult: 2
    decay_mult: 0
  }
  convolution_param {
    num_output: 64
    pad: 3
    kernel_size: 7
    stride: 2
    weight_filler {
      type: "xavier"
      std: 0.1
    }
    bias_filler {
      type: "constant"
      value: 0.2
    }
  }
}
layer {
  name: "conv1/relu_7x7"
  type: "ReLU"
  bottom: "conv1/7x7_s2"
  top: "conv1/7x7_s2"
}
layer {
  name: "pool1/3x3_s2"
  type: "Pooling"
  bottom: "conv1/7x7_s2"
  top: "pool1/3x3_s2"
  pooling_param {
    pool: MAX
    kernel_size: 3
    stride: 2
  }
}
layer {
  name: "pool1/norm1"
  type: "LRN"
  bottom: "pool1/3x3_s2"
  top: "pool1/norm1"
  lrn_param {
    local_size: 5
    alpha: 0.0001
    beta: 0.75
  }
}
layer {
  name: "conv2/3x3_reduce"
  type: "Convolution"
  bottom: "pool1/norm1"
  top: "conv2/3x3_reduce"
  param {
    lr_mult: 1
    decay_mult: 1
  }
  param {
    lr_mult: 2
    decay_mult: 0
  }
  convolution_param {
    num_output: 64
    kernel_size: 1
    weight_filler {
      type: "xavier"
      std: 0.1
    }
    bias_filler {
      type: "constant"
      value: 0.2
    }
  }
}
layer {
  name: "conv2/relu_3x3_reduce"
  type: "ReLU"
  bottom: "conv2/3x3_reduce"
  top: "conv2/3x3_reduce"
}
layer {
  name: "conv2/3x3"
  type: "Convolution"
  bottom: "conv2/3x3_reduce"
  top: "conv2/3x3"
  param {
    lr_mult: 1
    decay_mult: 1
  }
  param {
    lr_mult: 2
    decay_mult: 0
  }
  convolution_param {
    num_output: 192
    pad: 1
    kernel_size: 3
    weight_filler {
      type: "xavier"
      std: 0.03
    }
    bias_filler {
      type: "constant"
      value: 0.2
    }
  }
}
layer {
  name: "conv2/relu_3x3"
  type: "ReLU"
  bottom: "conv2/3x3"
  top: "conv2/3x3"
}
layer {
  name: "conv2/norm2"
  type: "LRN"
  bottom: "conv2/3x3"
  top: "conv2/norm2"
  lrn_param {
    local_size: 5
    alpha: 0.0001
    beta: 0.75
  }
}
layer {
  name: "pool2/3x3_s2"
  type: "Pooling"
  bottom: "conv2/norm2"
  top: "pool2/3x3_s2"
  pooling_param {
    pool: MAX
    kernel_size: 3
    stride: 2
  }
}
layer {
  name: "inception_3a/1x1"
  type: "Convolution"
  bottom: "pool2/3x3_s2"
  top: "inception_3a/1x1"
  param {
    lr_mult: 1
    decay_mult: 1
  }
  param {
    lr_mult: 2
    decay_mult: 0
  }
  convolution_param {
    num_output: 64
    kernel_size: 1
    weight_filler {
      type: "xavier"
      std: 0.03
    }
    bias_filler {
      type: "constant"
      value: 0.2
    }
  }
}
layer {
  name: "inception_3a/relu_1x1"
  type: "ReLU"
  bottom: "inception_3a/1x1"
  top: "inception_3a/1x1"
}
layer {
  name: "inception_3a/3x3_reduce"
  type: "Convolution"
  bottom: "pool2/3x3_s2"
  top: "inception_3a/3x3_reduce"
  param {
    lr_mult: 1
    decay_mult: 1
  }
  param {
    lr_mult: 2
    decay_mult: 0
  }
  convolution_param {
    num_output: 96
    kernel_size: 1
    weight_filler {
      type: "xavier"
      std: 0.09
    }
    bias_filler {
      type: "constant"
      value: 0.2
    }
  }
}
layer {
  name: "inception_3a/relu_3x3_reduce"
  type: "ReLU"
  bottom: "inception_3a/3x3_reduce"
  top: "inception_3a/3x3_reduce"
}
layer {
  name: "inception_3a/3x3"
  type: "Convolution"
  bottom: "inception_3a/3x3_reduce"
  top: "inception_3a/3x3"
  param {
    lr_mult: 1
    decay_mult: 1
  }
  param {
    lr_mult: 2
    decay_mult: 0
  }
  convolution_param {
    num_output: 128
    pad: 1
    kernel_size: 3
    weight_filler {
      type: "xavier"
      std: 0.03
    }
    bias_filler {
      type: "constant"
      value: 0.2
    }
  }
}
layer {
  name: "inception_3a/relu_3x3"
  type: "ReLU"
  bottom: "inception_3a/3x3"
  top: "inception_3a/3x3"
}
layer {
  name: "inception_3a/5x5_reduce"
  type: "Convolution"
  bottom: "pool2/3x3_s2"
  top: "inception_3a/5x5_reduce"
  param {
    lr_mult: 1
    decay_mult: 1
  }
  param {
    lr_mult: 2
    decay_mult: 0
  }
  convolution_param {
    num_output: 16
    kernel_size: 1
    weight_filler {
      type: "xavier"
      std: 0.2
    }
    bias_filler {
      type: "constant"
      value: 0.2
    }
  }
}
layer {
  name: "inception_3a/relu_5x5_reduce"
  type: "ReLU"
  bottom: "inception_3a/5x5_reduce"
  top: "inception_3a/5x5_reduce"
}
layer {
  name: "inception_3a/5x5"
  type: "Convolution"
  bottom: "inception_3a/5x5_reduce"
  top: "inception_3a/5x5"
  param {
    lr_mult: 1
    decay_mult: 1
  }
  param {
    lr_mult: 2
    decay_mult: 0
  }
  convolution_param {
    num_output: 32
    pad: 2
    kernel_size: 5
    weight_filler {
      type: "xavier"
      std: 0.03
    }
    bias_filler {
      type: "constant"
      value: 0.2
    }
  }
}
layer {
  name: "inception_3a/relu_5x5"
  type: "ReLU"
  bottom: "inception_3a/5x5"
  top: "inception_3a/5x5"
}
layer {
  name: "inception_3a/pool"
  type: "Pooling"
  bottom: "pool2/3x3_s2"
  top: "inception_3a/pool"
  pooling_param {
    pool: MAX
    kernel_size: 3
    stride: 1
    pad: 1
  }
}
layer {
  name: "inception_3a/pool_proj"
  type: "Convolution"
  bottom: "inception_3a/pool"
  top: "inception_3a/pool_proj"
  param {
    lr_mult: 1
    decay_mult: 1
  }
  param {
    lr_mult: 2
    decay_mult: 0
  }
  convolution_param {
    num_output: 32
    kernel_size: 1
    weight_filler {
      type: "xavier"
      std: 0.1
    }
    bias_filler {
      type: "constant"
      value: 0.2
    }
  }
}
layer {
  name: "inception_3a/relu_pool_proj"
  type: "ReLU"
  bottom: "inception_3a/pool_proj"
  top: "inception_3a/pool_proj"
}
layer {
  name: "inception_3a/output"
  type: "Concat"
  bottom: "inception_3a/1x1"
  bottom: "inception_3a/3x3"
  bottom: "inception_3a/5x5"
  bottom: "inception_3a/pool_proj"
  top: "inception_3a/output"
}
layer {
  name: "inception_3b/1x1"
  type: "Convolution"
  bottom: "inception_3a/output"
  top: "inception_3b/1x1"
  param {
    lr_mult: 1
    decay_mult: 1
  }
  param {
    lr_mult: 2
    decay_mult: 0
  }
  convolution_param {
    num_output: 128
    kernel_size: 1
    weight_filler {
      type: "xavier"
      std: 0.03
    }
    bias_filler {
      type: "constant"
      value: 0.2
    }
  }
}
layer {
  name: "inception_3b/relu_1x1"
  type: "ReLU"
  bottom: "inception_3b/1x1"
  top: "inception_3b/1x1"
}
layer {
  name: "inception_3b/3x3_reduce"
  type: "Convolution"
  bottom: "inception_3a/output"
  top: "inception_3b/3x3_reduce"
  param {
    lr_mult: 1
    decay_mult: 1
  }
  param {
    lr_mult: 2
    decay_mult: 0
  }
  convolution_param {
    num_output: 128
    kernel_size: 1
    weight_filler {
      type: "xavier"
      std: 0.09
    }
    bias_filler {
      type: "constant"
      value: 0.2
    }
  }
}
layer {
  name: "inception_3b/relu_3x3_reduce"
  type: "ReLU"
  bottom: "inception_3b/3x3_reduce"
  top: "inception_3b/3x3_reduce"
}
layer {
  name: "inception_3b/3x3"
  type: "Convolution"
  bottom: "inception_3b/3x3_reduce"
  top: "inception_3b/3x3"
  param {
    lr_mult: 1
    decay_mult: 1
  }
  param {
    lr_mult: 2
    decay_mult: 0
  }
  convolution_param {
    num_output: 192
    pad: 1
    kernel_size: 3
    weight_filler {
      type: "xavier"
      std: 0.03
    }
    bias_filler {
      type: "constant"
      value: 0.2
    }
  }
}
layer {
  name: "inception_3b/relu_3x3"
  type: "ReLU"
  bottom: "inception_3b/3x3"
  top: "inception_3b/3x3"
}
layer {
  name: "inception_3b/5x5_reduce"
  type: "Convolution"
  bottom: "inception_3a/output"
  top: "inception_3b/5x5_reduce"
  param {
    lr_mult: 1
    decay_mult: 1
  }
  param {
    lr_mult: 2
    decay_mult: 0
  }
  convolution_param {
    num_output: 32
    kernel_size: 1
    weight_filler {
      type: "xavier"
      std: 0.2
    }
    bias_filler {
      type: "constant"
      value: 0.2
    }
  }
}
layer {
  name: "inception_3b/relu_5x5_reduce"
  type: "ReLU"
  bottom: "inception_3b/5x5_reduce"
  top: "inception_3b/5x5_reduce"
}
layer {
  name: "inception_3b/5x5"
  type: "Convolution"
  bottom: "inception_3b/5x5_reduce"
  top: "inception_3b/5x5"
  param {
    lr_mult: 1
    decay_mult: 1
  }
  param {
    lr_mult: 2
    decay_mult: 0
  }
  convolution_param {
    num_output: 96
    pad: 2
    kernel_size: 5
    weight_filler {
      type: "xavier"
      std: 0.03
    }
    bias_filler {
      type: "constant"
      value: 0.2
    }
  }
}
layer {
  name: "inception_3b/relu_5x5"
  type: "ReLU"
  bottom: "inception_3b/5x5"
  top: "inception_3b/5x5"
}
layer {
  name: "inception_3b/pool"
  type: "Pooling"
  bottom: "inception_3a/output"
  top: "inception_3b/pool"
  pooling_param {
    pool: MAX
    kernel_size: 3
    stride: 1
    pad: 1
  }
}
layer {
  name: "inception_3b/pool_proj"
  type: "Convolution"
  bottom: "inception_3b/pool"
  top: "inception_3b/pool_proj"
  param {
    lr_mult: 1
    decay_mult: 1
  }
  param {
    lr_mult: 2
    decay_mult: 0
  }
  convolution_param {
    num_output: 64
    kernel_size: 1
    weight_filler {
      type: "xavier"
      std: 0.1
    }
    bias_filler {
      type: "constant"
      value: 0.2
    }
  }
}
layer {
  name: "inception_3b/relu_pool_proj"
  type: "ReLU"
  bottom: "inception_3b/pool_proj"
  top: "inception_3b/pool_proj"
}
layer {
  name: "inception_3b/output"
  type: "Concat"
  bottom: "inception_3b/1x1"
  bottom: "inception_3b/3x3"
  bottom: "inception_3b/5x5"
  bottom: "inception_3b/pool_proj"
  top: "inception_3b/output"
}
layer {
  name: "pool3/3x3_s2"
  type: "Pooling"
  bottom: "inception_3b/output"
  top: "pool3/3x3_s2"
  pooling_param {
    pool: MAX
    kernel_size: 3
    stride: 2
  }
}
layer {
  name: "inception_4a/1x1"
  type: "Convolution"
  bottom: "pool3/3x3_s2"
  top: "inception_4a/1x1"
  param {
    lr_mult: 1
    decay_mult: 1
  }
  param {
    lr_mult: 2
    decay_mult: 0
  }
  convolution_param {
    num_output: 192
    kernel_size: 1
    weight_filler {
      type: "xavier"
      std: 0.03
    }
    bias_filler {
      type: "constant"
      value: 0.2
    }
  }
}
layer {
  name: "inception_4a/relu_1x1"
  type: "ReLU"
  bottom: "inception_4a/1x1"
  top: "inception_4a/1x1"
}
layer {
  name: "inception_4a/3x3_reduce"
  type: "Convolution"
  bottom: "pool3/3x3_s2"
  top: "inception_4a/3x3_reduce"
  param {
    lr_mult: 1
    decay_mult: 1
  }
  param {
    lr_mult: 2
    decay_mult: 0
  }
  convolution_param {
    num_output: 96
    kernel_size: 1
    weight_filler {
      type: "xavier"
      std: 0.09
    }
    bias_filler {
      type: "constant"
      value: 0.2
    }
  }
}
layer {
  name: "inception_4a/relu_3x3_reduce"
  type: "ReLU"
  bottom: "inception_4a/3x3_reduce"
  top: "inception_4a/3x3_reduce"
}
layer {
  name: "inception_4a/3x3"
  type: "Convolution"
  bottom: "inception_4a/3x3_reduce"
  top: "inception_4a/3x3"
  param {
    lr_mult: 1
    decay_mult: 1
  }
  param {
    lr_mult: 2
    decay_mult: 0
  }
  convolution_param {
    num_output: 208
    pad: 1
    kernel_size: 3
    weight_filler {
      type: "xavier"
      std: 0.03
    }
    bias_filler {
      type: "constant"
      value: 0.2
    }
  }
}
layer {
  name: "inception_4a/relu_3x3"
  type: "ReLU"
  bottom: "inception_4a/3x3"
  top: "inception_4a/3x3"
}
layer {
  name: "inception_4a/5x5_reduce"
  type: "Convolution"
  bottom: "pool3/3x3_s2"
  top: "inception_4a/5x5_reduce"
  param {
    lr_mult: 1
    decay_mult: 1
  }
  param {
    lr_mult: 2
    decay_mult: 0
  }
  convolution_param {
    num_output: 16
    kernel_size: 1
    weight_filler {
      type: "xavier"
      std: 0.2
    }
    bias_filler {
      type: "constant"
      value: 0.2
    }
  }
}
layer {
  name: "inception_4a/relu_5x5_reduce"
  type: "ReLU"
  bottom: "inception_4a/5x5_reduce"
  top: "inception_4a/5x5_reduce"
}
layer {
  name: "inception_4a/5x5"
  type: "Convolution"
  bottom: "inception_4a/5x5_reduce"
  top: "inception_4a/5x5"
  param {
    lr_mult: 1
    decay_mult: 1
  }
  param {
    lr_mult: 2
    decay_mult: 0
  }
  convolution_param {
    num_output: 48
    pad: 2
    kernel_size: 5
    weight_filler {
      type: "xavier"
      std: 0.03
    }
    bias_filler {
      type: "constant"
      value: 0.2
    }
  }
}
layer {
  name: "inception_4a/relu_5x5"
  type: "ReLU"
  bottom: "inception_4a/5x5"
  top: "inception_4a/5x5"
}
layer {
  name: "inception_4a/pool"
  type: "Pooling"
  bottom: "pool3/3x3_s2"
  top: "inception_4a/pool"
  pooling_param {
    pool: MAX
    kernel_size: 3
    stride: 1
    pad: 1
  }
}
layer {
  name: "inception_4a/pool_proj"
  type: "Convolution"
  bottom: "inception_4a/pool"
  top: "inception_4a/pool_proj"
  param {
    lr_mult: 1
    decay_mult: 1
  }
  param {
    lr_mult: 2
    decay_mult: 0
  }
  convolution_param {
    num_output: 64
    kernel_size: 1
    weight_filler {
      type: "xavier"
      std: 0.1
    }
    bias_filler {
      type: "constant"
      value: 0.2
    }
  }
}
layer {
  name: "inception_4a/relu_pool_proj"
  type: "ReLU"
  bottom: "inception_4a/pool_proj"
  top: "inception_4a/pool_proj"
}
layer {
  name: "inception_4a/output"
  type: "Concat"
  bottom: "inception_4a/1x1"
  bottom: "inception_4a/3x3"
  bottom: "inception_4a/5x5"
  bottom: "inception_4a/pool_proj"
  top: "inception_4a/output"
}
layer {
  name: "loss1/ave_pool"
  type: "Pooling"
  bottom: "inception_4a/output"
  top: "loss1/ave_pool"
  pooling_param {
    pool: AVE
    kernel_size: 5
    stride: 3
  }
}
layer {
  name: "loss1/conv"
  type: "Convolution"
  bottom: "loss1/ave_pool"
  top: "loss1/conv"
  param {
    lr_mult: 1
    decay_mult: 1
  }
  param {
    lr_mult: 2
    decay_mult: 0
  }
  convolution_param {
    num_output: 128
    kernel_size: 1
    weight_filler {
      type: "xavier"
      std: 0.08
    }
    bias_filler {
      type: "constant"
      value: 0.2
    }
  }
}
layer {
  name: "loss1/relu_conv"
  type: "ReLU"
  bottom: "loss1/conv"
  top: "loss1/conv"
}
layer {
  name: "loss1/fc"
  type: "InnerProduct"
  bottom: "loss1/conv"
  top: "loss1/fc"
  param {
    lr_mult: 1
    decay_mult: 1
  }
  param {
    lr_mult: 2
    decay_mult: 0
  }
  inner_product_param {
    num_output: 1024
    weight_filler {
      type: "xavier"
      std: 0.02
    }
    bias_filler {
      type: "constant"
      value: 0.2
    }
  }
}
layer {
  name: "loss1/relu_fc"
  type: "ReLU"
  bottom: "loss1/fc"
  top: "loss1/fc"
}
layer {
  name: "loss1/drop_fc"
  type: "Dropout"
  bottom: "loss1/fc"
  top: "loss1/fc"
  dropout_param {
    dropout_ratio: 0.7
  }
}
layer {
  name: "loss1/classifier_plantvillage"
  type: "InnerProduct"
  bottom: "loss1/fc"
  top: "loss1/classifier_plantvillage"
  param {
    lr_mult: 1
    decay_mult: 1
  }
  param {
    lr_mult: 2
    decay_mult: 0
  }
  inner_product_param {
    num_output: 38
    weight_filler {
      type: "xavier"
      std: 0.0009765625
    }
    bias_filler {
      type: "constant"
      value: 0
    }
  }
}
layer {
  name: "inception_4b/1x1"
  type: "Convolution"
  bottom: "inception_4a/output"
  top: "inception_4b/1x1"
  param {
    lr_mult: 1
    decay_mult: 1
  }
  param {
    lr_mult: 2
    decay_mult: 0
  }
  convolution_param {
    num_output: 160
    kernel_size: 1
    weight_filler {
      type: "xavier"
      std: 0.03
    }
    bias_filler {
      type: "constant"
      value: 0.2
    }
  }
}
layer {
  name: "inception_4b/relu_1x1"
  type: "ReLU"
  bottom: "inception_4b/1x1"
  top: "inception_4b/1x1"
}
layer {
  name: "inception_4b/3x3_reduce"
  type: "Convolution"
  bottom: "inception_4a/output"
  top: "inception_4b/3x3_reduce"
  param {
    lr_mult: 1
    decay_mult: 1
  }
  param {
    lr_mult: 2
    decay_mult: 0
  }
  convolution_param {
    num_output: 112
    kernel_size: 1
    weight_filler {
      type: "xavier"
      std: 0.09
    }
    bias_filler {
      type: "constant"
      value: 0.2
    }
  }
}
layer {
  name: "inception_4b/relu_3x3_reduce"
  type: "ReLU"
  bottom: "inception_4b/3x3_reduce"
  top: "inception_4b/3x3_reduce"
}
layer {
  name: "inception_4b/3x3"
  type: "Convolution"
  bottom: "inception_4b/3x3_reduce"
  top: "inception_4b/3x3"
  param {
    lr_mult: 1
    decay_mult: 1
  }
  param {
    lr_mult: 2
    decay_mult: 0
  }
  convolution_param {
    num_output: 224
    pad: 1
    kernel_size: 3
    weight_filler {
      type: "xavier"
      std: 0.03
    }
    bias_filler {
      type: "constant"
      value: 0.2
    }
  }
}
layer {
  name: "inception_4b/relu_3x3"
  type: "ReLU"
  bottom: "inception_4b/3x3"
  top: "inception_4b/3x3"
}
layer {
  name: "inception_4b/5x5_reduce"
  type: "Convolution"
  bottom: "inception_4a/output"
  top: "inception_4b/5x5_reduce"
  param {
    lr_mult: 1
    decay_mult: 1
  }
  param {
    lr_mult: 2
    decay_mult: 0
  }
  convolution_param {
    num_output: 24
    kernel_size: 1
    weight_filler {
      type: "xavier"
      std: 0.2
    }
    bias_filler {
      type: "constant"
      value: 0.2
    }
  }
}
layer {
  name: "inception_4b/relu_5x5_reduce"
  type: "ReLU"
  bottom: "inception_4b/5x5_reduce"
  top: "inception_4b/5x5_reduce"
}
layer {
  name: "inception_4b/5x5"
  type: "Convolution"
  bottom: "inception_4b/5x5_reduce"
  top: "inception_4b/5x5"
  param {
    lr_mult: 1
    decay_mult: 1
  }
  param {
    lr_mult: 2
    decay_mult: 0
  }
  convolution_param {
    num_output: 64
    pad: 2
    kernel_size: 5
    weight_filler {
      type: "xavier"
      std: 0.03
    }
    bias_filler {
      type: "constant"
      value: 0.2
    }
  }
}
layer {
  name: "inception_4b/relu_5x5"
  type: "ReLU"
  bottom: "inception_4b/5x5"
  top: "inception_4b/5x5"
}
layer {
  name: "inception_4b/pool"
  type: "Pooling"
  bottom: "inception_4a/output"
  top: "inception_4b/pool"
  pooling_param {
    pool: MAX
    kernel_size: 3
    stride: 1
    pad: 1
  }
}
layer {
  name: "inception_4b/pool_proj"
  type: "Convolution"
  bottom: "inception_4b/pool"
  top: "inception_4b/pool_proj"
  param {
    lr_mult: 1
    decay_mult: 1
  }
  param {
    lr_mult: 2
    decay_mult: 0
  }
  convolution_param {
    num_output: 64
    kernel_size: 1
    weight_filler {
      type: "xavier"
      std: 0.1
    }
    bias_filler {
      type: "constant"
      value: 0.2
    }
  }
}
layer {
  name: "inception_4b/relu_pool_proj"
  type: "ReLU"
  bottom: "inception_4b/pool_proj"
  top: "inception_4b/pool_proj"
}
layer {
  name: "inception_4b/output"
  type: "Concat"
  bottom: "inception_4b/1x1"
  bottom: "inception_4b/3x3"
  bottom: "inception_4b/5x5"
  bottom: "inception_4b/pool_proj"
  top: "inception_4b/output"
}
layer {
  name: "inception_4c/1x1"
  type: "Convolution"
  bottom: "inception_4b/output"
  top: "inception_4c/1x1"
  param {
    lr_mult: 1
    decay_mult: 1
  }
  param {
    lr_mult: 2
    decay_mult: 0
  }
  convolution_param {
    num_output: 128
    kernel_size: 1
    weight_filler {
      type: "xavier"
      std: 0.03
    }
    bias_filler {
      type: "constant"
      value: 0.2
    }
  }
}
layer {
  name: "inception_4c/relu_1x1"
  type: "ReLU"
  bottom: "inception_4c/1x1"
  top: "inception_4c/1x1"
}
layer {
  name: "inception_4c/3x3_reduce"
  type: "Convolution"
  bottom: "inception_4b/output"
  top: "inception_4c/3x3_reduce"
  param {
    lr_mult: 1
    decay_mult: 1
  }
  param {
    lr_mult: 2
    decay_mult: 0
  }
  convolution_param {
    num_output: 128
    kernel_size: 1
    weight_filler {
      type: "xavier"
      std: 0.09
    }
    bias_filler {
      type: "constant"
      value: 0.2
    }
  }
}
layer {
  name: "inception_4c/relu_3x3_reduce"
  type: "ReLU"
  bottom: "inception_4c/3x3_reduce"
  top: "inception_4c/3x3_reduce"
}
layer {
  name: "inception_4c/3x3"
  type: "Convolution"
  bottom: "inception_4c/3x3_reduce"
  top: "inception_4c/3x3"
  param {
    lr_mult: 1
    decay_mult: 1
  }
  param {
    lr_mult: 2
    decay_mult: 0
  }
  convolution_param {
    num_output: 256
    pad: 1
    kernel_size: 3
    weight_filler {
      type: "xavier"
      std: 0.03
    }
    bias_filler {
      type: "constant"
      value: 0.2
    }
  }
}
layer {
  name: "inception_4c/relu_3x3"
  type: "ReLU"
  bottom: "inception_4c/3x3"
  top: "inception_4c/3x3"
}
layer {
  name: "inception_4c/5x5_reduce"
  type: "Convolution"
  bottom: "inception_4b/output"
  top: "inception_4c/5x5_reduce"
  param {
    lr_mult: 1
    decay_mult: 1
  }
  param {
    lr_mult: 2
    decay_mult: 0
  }
  convolution_param {
    num_output: 24
    kernel_size: 1
    weight_filler {
      type: "xavier"
      std: 0.2
    }
    bias_filler {
      type: "constant"
      value: 0.2
    }
  }
}
layer {
  name: "inception_4c/relu_5x5_reduce"
  type: "ReLU"
  bottom: "inception_4c/5x5_reduce"
  top: "inception_4c/5x5_reduce"
}
layer {
  name: "inception_4c/5x5"
  type: "Convolution"
  bottom: "inception_4c/5x5_reduce"
  top: "inception_4c/5x5"
  param {
    lr_mult: 1
    decay_mult: 1
  }
  param {
    lr_mult: 2
    decay_mult: 0
  }
  convolution_param {
    num_output: 64
    pad: 2
    kernel_size: 5
    weight_filler {
      type: "xavier"
      std: 0.03
    }
    bias_filler {
      type: "constant"
      value: 0.2
    }
  }
}
layer {
  name: "inception_4c/relu_5x5"
  type: "ReLU"
  bottom: "inception_4c/5x5"
  top: "inception_4c/5x5"
}
layer {
  name: "inception_4c/pool"
  type: "Pooling"
  bottom: "inception_4b/output"
  top: "inception_4c/pool"
  pooling_param {
    pool: MAX
    kernel_size: 3
    stride: 1
    pad: 1
  }
}
layer {
  name: "inception_4c/pool_proj"
  type: "Convolution"
  bottom: "inception_4c/pool"
  top: "inception_4c/pool_proj"
  param {
    lr_mult: 1
    decay_mult: 1
  }
  param {
    lr_mult: 2
    decay_mult: 0
  }
  convolution_param {
    num_output: 64
    kernel_size: 1
    weight_filler {
      type: "xavier"
      std: 0.1
    }
    bias_filler {
      type: "constant"
      value: 0.2
    }
  }
}
layer {
  name: "inception_4c/relu_pool_proj"
  type: "ReLU"
  bottom: "inception_4c/pool_proj"
  top: "inception_4c/pool_proj"
}
layer {
  name: "inception_4c/output"
  type: "Concat"
  bottom: "inception_4c/1x1"
  bottom: "inception_4c/3x3"
  bottom: "inception_4c/5x5"
  bottom: "inception_4c/pool_proj"
  top: "inception_4c/output"
}
layer {
  name: "inception_4d/1x1"
  type: "Convolution"
  bottom: "inception_4c/output"
  top: "inception_4d/1x1"
  param {
    lr_mult: 1
    decay_mult: 1
  }
  param {
    lr_mult: 2
    decay_mult: 0
  }
  convolution_param {
    num_output: 112
    kernel_size: 1
    weight_filler {
      type: "xavier"
      std: 0.03
    }
    bias_filler {
      type: "constant"
      value: 0.2
    }
  }
}
layer {
  name: "inception_4d/relu_1x1"
  type: "ReLU"
  bottom: "inception_4d/1x1"
  top: "inception_4d/1x1"
}
layer {
  name: "inception_4d/3x3_reduce"
  type: "Convolution"
  bottom: "inception_4c/output"
  top: "inception_4d/3x3_reduce"
  param {
    lr_mult: 1
    decay_mult: 1
  }
  param {
    lr_mult: 2
    decay_mult: 0
  }
  convolution_param {
    num_output: 144
    kernel_size: 1
    weight_filler {
      type: "xavier"
      std: 0.09
    }
    bias_filler {
      type: "constant"
      value: 0.2
    }
  }
}
layer {
  name: "inception_4d/relu_3x3_reduce"
  type: "ReLU"
  bottom: "inception_4d/3x3_reduce"
  top: "inception_4d/3x3_reduce"
}
layer {
  name: "inception_4d/3x3"
  type: "Convolution"
  bottom: "inception_4d/3x3_reduce"
  top: "inception_4d/3x3"
  param {
    lr_mult: 1
    decay_mult: 1
  }
  param {
    lr_mult: 2
    decay_mult: 0
  }
  convolution_param {
    num_output: 288
    pad: 1
    kernel_size: 3
    weight_filler {
      type: "xavier"
      std: 0.03
    }
    bias_filler {
      type: "constant"
      value: 0.2
    }
  }
}
layer {
  name: "inception_4d/relu_3x3"
  type: "ReLU"
  bottom: "inception_4d/3x3"
  top: "inception_4d/3x3"
}
layer {
  name: "inception_4d/5x5_reduce"
  type: "Convolution"
  bottom: "inception_4c/output"
  top: "inception_4d/5x5_reduce"
  param {
    lr_mult: 1
    decay_mult: 1
  }
  param {
    lr_mult: 2
    decay_mult: 0
  }
  convolution_param {
    num_output: 32
    kernel_size: 1
    weight_filler {
      type: "xavier"
      std: 0.2
    }
    bias_filler {
      type: "constant"
      value: 0.2
    }
  }
}
layer {
  name: "inception_4d/relu_5x5_reduce"
  type: "ReLU"
  bottom: "inception_4d/5x5_reduce"
  top: "inception_4d/5x5_reduce"
}
layer {
  name: "inception_4d/5x5"
  type: "Convolution"
  bottom: "inception_4d/5x5_reduce"
  top: "inception_4d/5x5"
  param {
    lr_mult: 1
    decay_mult: 1
  }
  param {
    lr_mult: 2
    decay_mult: 0
  }
  convolution_param {
    num_output: 64
    pad: 2
    kernel_size: 5
    weight_filler {
      type: "xavier"
      std: 0.03
    }
    bias_filler {
      type: "constant"
      value: 0.2
    }
  }
}
layer {
  name: "inception_4d/relu_5x5"
  type: "ReLU"
  bottom: "inception_4d/5x5"
  top: "inception_4d/5x5"
}
layer {
  name: "inception_4d/pool"
  type: "Pooling"
  bottom: "inception_4c/output"
  top: "inception_4d/pool"
  pooling_param {
    pool: MAX
    kernel_size: 3
    stride: 1
    pad: 1
  }
}
layer {
  name: "inception_4d/pool_proj"
  type: "Convolution"
  bottom: "inception_4d/pool"
  top: "inception_4d/pool_proj"
  param {
    lr_mult: 1
    decay_mult: 1
  }
  param {
    lr_mult: 2
    decay_mult: 0
  }
  convolution_param {
    num_output: 64
    kernel_size: 1
    weight_filler {
      type: "xavier"
      std: 0.1
    }
    bias_filler {
      type: "constant"
      value: 0.2
    }
  }
}
layer {
  name: "inception_4d/relu_pool_proj"
  type: "ReLU"
  bottom: "inception_4d/pool_proj"
  top: "inception_4d/pool_proj"
}
layer {
  name: "inception_4d/output"
  type: "Concat"
  bottom: "inception_4d/1x1"
  bottom: "inception_4d/3x3"
  bottom: "inception_4d/5x5"
  bottom: "inception_4d/pool_proj"
  top: "inception_4d/output"
}
layer {
  name: "loss2/ave_pool"
  type: "Pooling"
  bottom: "inception_4d/output"
  top: "loss2/ave_pool"
  pooling_param {
    pool: AVE
    kernel_size: 5
    stride: 3
  }
}
layer {
  name: "loss2/conv"
  type: "Convolution"
  bottom: "loss2/ave_pool"
  top: "loss2/conv"
  param {
    lr_mult: 1
    decay_mult: 1
  }
  param {
    lr_mult: 2
    decay_mult: 0
  }
  convolution_param {
    num_output: 128
    kernel_size: 1
    weight_filler {
      type: "xavier"
      std: 0.08
    }
    bias_filler {
      type: "constant"
      value: 0.2
    }
  }
}
layer {
  name: "loss2/relu_conv"
  type: "ReLU"
  bottom: "loss2/conv"
  top: "loss2/conv"
}
layer {
  name: "loss2/fc"
  type: "InnerProduct"
  bottom: "loss2/conv"
  top: "loss2/fc"
  param {
    lr_mult: 1
    decay_mult: 1
  }
  param {
    lr_mult: 2
    decay_mult: 0
  }
  inner_product_param {
    num_output: 1024
    weight_filler {
      type: "xavier"
      std: 0.02
    }
    bias_filler {
      type: "constant"
      value: 0.2
    }
  }
}
layer {
  name: "loss2/relu_fc"
  type: "ReLU"
  bottom: "loss2/fc"
  top: "loss2/fc"
}
layer {
  name: "loss2/drop_fc"
  type: "Dropout"
  bottom: "loss2/fc"
  top: "loss2/fc"
  dropout_param {
    dropout_ratio: 0.7
  }
}
layer {
  name: "loss2/classifier_plantvillage"
  type: "InnerProduct"
  bottom: "loss2/fc"
  top: "loss2/classifier_plantvillage"
  param {
    lr_mult: 1
    decay_mult: 1
  }
  param {
    lr_mult: 2
    decay_mult: 0
  }
  inner_product_param {
    num_output: 38
    weight_filler {
      type: "xavier"
      std: 0.0009765625
    }
    bias_filler {
      type: "constant"
      value: 0
    }
  }
}
layer {
  name: "inception_4e/1x1"
  type: "Convolution"
  bottom: "inception_4d/output"
  top: "inception_4e/1x1"
  param {
    lr_mult: 1
    decay_mult: 1
  }
  param {
    lr_mult: 2
    decay_mult: 0
  }
  convolution_param {
    num_output: 256
    kernel_size: 1
    weight_filler {
      type: "xavier"
      std: 0.03
    }
    bias_filler {
      type: "constant"
      value: 0.2
    }
  }
}
layer {
  name: "inception_4e/relu_1x1"
  type: "ReLU"
  bottom: "inception_4e/1x1"
  top: "inception_4e/1x1"
}
layer {
  name: "inception_4e/3x3_reduce"
  type: "Convolution"
  bottom: "inception_4d/output"
  top: "inception_4e/3x3_reduce"
  param {
    lr_mult: 1
    decay_mult: 1
  }
  param {
    lr_mult: 2
    decay_mult: 0
  }
  convolution_param {
    num_output: 160
    kernel_size: 1
    weight_filler {
      type: "xavier"
      std: 0.09
    }
    bias_filler {
      type: "constant"
      value: 0.2
    }
  }
}
layer {
  name: "inception_4e/relu_3x3_reduce"
  type: "ReLU"
  bottom: "inception_4e/3x3_reduce"
  top: "inception_4e/3x3_reduce"
}
layer {
  name: "inception_4e/3x3"
  type: "Convolution"
  bottom: "inception_4e/3x3_reduce"
  top: "inception_4e/3x3"
  param {
    lr_mult: 1
    decay_mult: 1
  }
  param {
    lr_mult: 2
    decay_mult: 0
  }
  convolution_param {
    num_output: 320
    pad: 1
    kernel_size: 3
    weight_filler {
      type: "xavier"
      std: 0.03
    }
    bias_filler {
      type: "constant"
      value: 0.2
    }
  }
}
layer {
  name: "inception_4e/relu_3x3"
  type: "ReLU"
  bottom: "inception_4e/3x3"
  top: "inception_4e/3x3"
}
layer {
  name: "inception_4e/5x5_reduce"
  type: "Convolution"
  bottom: "inception_4d/output"
  top: "inception_4e/5x5_reduce"
  param {
    lr_mult: 1
    decay_mult: 1
  }
  param {
    lr_mult: 2
    decay_mult: 0
  }
  convolution_param {
    num_output: 32
    kernel_size: 1
    weight_filler {
      type: "xavier"
      std: 0.2
    }
    bias_filler {
      type: "constant"
      value: 0.2
    }
  }
}
layer {
  name: "inception_4e/relu_5x5_reduce"
  type: "ReLU"
  bottom: "inception_4e/5x5_reduce"
  top: "inception_4e/5x5_reduce"
}
layer {
  name: "inception_4e/5x5"
  type: "Convolution"
  bottom: "inception_4e/5x5_reduce"
  top: "inception_4e/
I0403 15:28:03.797988 11985 layer_factory.hpp:77] Creating layer data
I0403 15:28:03.798606 11985 net.cpp:91] Creating Layer data
I0403 15:28:03.798640 11985 net.cpp:399] data -> data
I0403 15:28:03.798691 11985 net.cpp:399] data -> label
I0403 15:28:03.798727 11985 data_transformer.cpp:25] Loading mean file from: /home/mohanty/data/final_dataset/lmdb/segmented-40-60/mean.binaryproto
I0403 15:28:03.801537 11990 db_lmdb.cpp:38] Opened lmdb /home/mohanty/data/final_dataset/lmdb/segmented-40-60/test_db
I0403 15:28:03.811918 11985 data_layer.cpp:41] output data size: 24,3,224,224
I0403 15:28:03.838819 11985 net.cpp:141] Setting up data
I0403 15:28:03.838872 11985 net.cpp:148] Top shape: 24 3 224 224 (3612672)
I0403 15:28:03.838896 11985 net.cpp:148] Top shape: 24 (24)
I0403 15:28:03.838912 11985 net.cpp:156] Memory required for data: 14450784
I0403 15:28:03.838942 11985 layer_factory.hpp:77] Creating layer label_data_1_split
I0403 15:28:03.838968 11985 net.cpp:91] Creating Layer label_data_1_split
I0403 15:28:03.838989 11985 net.cpp:425] label_data_1_split <- label
I0403 15:28:03.839020 11985 net.cpp:399] label_data_1_split -> label_data_1_split_0
I0403 15:28:03.839048 11985 net.cpp:399] label_data_1_split -> label_data_1_split_1
I0403 15:28:03.839069 11985 net.cpp:399] label_data_1_split -> label_data_1_split_2
I0403 15:28:03.839092 11985 net.cpp:399] label_data_1_split -> label_data_1_split_3
I0403 15:28:03.839113 11985 net.cpp:399] label_data_1_split -> label_data_1_split_4
I0403 15:28:03.839134 11985 net.cpp:399] label_data_1_split -> label_data_1_split_5
I0403 15:28:03.839154 11985 net.cpp:399] label_data_1_split -> label_data_1_split_6
I0403 15:28:03.839175 11985 net.cpp:399] label_data_1_split -> label_data_1_split_7
I0403 15:28:03.839196 11985 net.cpp:399] label_data_1_split -> label_data_1_split_8
I0403 15:28:03.839218 11985 net.cpp:399] label_data_1_split -> label_data_1_split_9
I0403 15:28:03.839336 11985 net.cpp:141] Setting up label_data_1_split
I0403 15:28:03.839370 11985 net.cpp:148] Top shape: 24 (24)
I0403 15:28:03.839388 11985 net.cpp:148] Top shape: 24 (24)
I0403 15:28:03.839404 11985 net.cpp:148] Top shape: 24 (24)
I0403 15:28:03.839421 11985 net.cpp:148] Top shape: 24 (24)
I0403 15:28:03.839437 11985 net.cpp:148] Top shape: 24 (24)
I0403 15:28:03.839452 11985 net.cpp:148] Top shape: 24 (24)
I0403 15:28:03.839468 11985 net.cpp:148] Top shape: 24 (24)
I0403 15:28:03.839484 11985 net.cpp:148] Top shape: 24 (24)
I0403 15:28:03.839499 11985 net.cpp:148] Top shape: 24 (24)
I0403 15:28:03.839514 11985 net.cpp:148] Top shape: 24 (24)
I0403 15:28:03.839547 11985 net.cpp:156] Memory required for data: 14451744
I0403 15:28:03.839565 11985 layer_factory.hpp:77] Creating layer conv1/7x7_s2
I0403 15:28:03.839597 11985 net.cpp:91] Creating Layer conv1/7x7_s2
I0403 15:28:03.839615 11985 net.cpp:425] conv1/7x7_s2 <- data
I0403 15:28:03.839635 11985 net.cpp:399] conv1/7x7_s2 -> conv1/7x7_s2
I0403 15:28:03.981655 11985 net.cpp:141] Setting up conv1/7x7_s2
I0403 15:28:03.981746 11985 net.cpp:148] Top shape: 24 64 112 112 (19267584)
I0403 15:28:03.981765 11985 net.cpp:156] Memory required for data: 91522080
I0403 15:28:03.981796 11985 layer_factory.hpp:77] Creating layer conv1/relu_7x7
I0403 15:28:03.981824 11985 net.cpp:91] Creating Layer conv1/relu_7x7
I0403 15:28:03.981843 11985 net.cpp:425] conv1/relu_7x7 <- conv1/7x7_s2
I0403 15:28:03.981863 11985 net.cpp:386] conv1/relu_7x7 -> conv1/7x7_s2 (in-place)
I0403 15:28:03.982132 11985 net.cpp:141] Setting up conv1/relu_7x7
I0403 15:28:03.982161 11985 net.cpp:148] Top shape: 24 64 112 112 (19267584)
I0403 15:28:03.982177 11985 net.cpp:156] Memory required for data: 168592416
I0403 15:28:03.982192 11985 layer_factory.hpp:77] Creating layer pool1/3x3_s2
I0403 15:28:03.982218 11985 net.cpp:91] Creating Layer pool1/3x3_s2
I0403 15:28:03.982234 11985 net.cpp:425] pool1/3x3_s2 <- conv1/7x7_s2
I0403 15:28:03.982254 11985 net.cpp:399] pool1/3x3_s2 -> pool1/3x3_s2
I0403 15:28:03.982329 11985 net.cpp:141] Setting up pool1/3x3_s2
I0403 15:28:03.982378 11985 net.cpp:148] Top shape: 24 64 56 56 (4816896)
I0403 15:28:03.982395 11985 net.cpp:156] Memory required for data: 187860000
I0403 15:28:03.982411 11985 layer_factory.hpp:77] Creating layer pool1/norm1
I0403 15:28:03.982436 11985 net.cpp:91] Creating Layer pool1/norm1
I0403 15:28:03.982455 11985 net.cpp:425] pool1/norm1 <- pool1/3x3_s2
I0403 15:28:03.982473 11985 net.cpp:399] pool1/norm1 -> pool1/norm1
I0403 15:28:03.982784 11985 net.cpp:141] Setting up pool1/norm1
I0403 15:28:03.982811 11985 net.cpp:148] Top shape: 24 64 56 56 (4816896)
I0403 15:28:03.982827 11985 net.cpp:156] Memory required for data: 207127584
I0403 15:28:03.982843 11985 layer_factory.hpp:77] Creating layer conv2/3x3_reduce
I0403 15:28:03.982868 11985 net.cpp:91] Creating Layer conv2/3x3_reduce
I0403 15:28:03.982885 11985 net.cpp:425] conv2/3x3_reduce <- pool1/norm1
I0403 15:28:03.982903 11985 net.cpp:399] conv2/3x3_reduce -> conv2/3x3_reduce
I0403 15:28:03.984290 11985 net.cpp:141] Setting up conv2/3x3_reduce
I0403 15:28:03.984320 11985 net.cpp:148] Top shape: 24 64 56 56 (4816896)
I0403 15:28:03.984338 11985 net.cpp:156] Memory required for data: 226395168
I0403 15:28:03.984375 11985 layer_factory.hpp:77] Creating layer conv2/relu_3x3_reduce
I0403 15:28:03.984395 11985 net.cpp:91] Creating Layer conv2/relu_3x3_reduce
I0403 15:28:03.984412 11985 net.cpp:425] conv2/relu_3x3_reduce <- conv2/3x3_reduce
I0403 15:28:03.984429 11985 net.cpp:386] conv2/relu_3x3_reduce -> conv2/3x3_reduce (in-place)
I0403 15:28:03.984700 11985 net.cpp:141] Setting up conv2/relu_3x3_reduce
I0403 15:28:03.984729 11985 net.cpp:148] Top shape: 24 64 56 56 (4816896)
I0403 15:28:03.984745 11985 net.cpp:156] Memory required for data: 245662752
I0403 15:28:03.984760 11985 layer_factory.hpp:77] Creating layer conv2/3x3
I0403 15:28:03.984782 11985 net.cpp:91] Creating Layer conv2/3x3
I0403 15:28:03.984798 11985 net.cpp:425] conv2/3x3 <- conv2/3x3_reduce
I0403 15:28:03.984817 11985 net.cpp:399] conv2/3x3 -> conv2/3x3
I0403 15:28:03.987151 11985 net.cpp:141] Setting up conv2/3x3
I0403 15:28:03.987184 11985 net.cpp:148] Top shape: 24 192 56 56 (14450688)
I0403 15:28:03.987200 11985 net.cpp:156] Memory required for data: 303465504
I0403 15:28:03.987221 11985 layer_factory.hpp:77] Creating layer conv2/relu_3x3
I0403 15:28:03.987239 11985 net.cpp:91] Creating Layer conv2/relu_3x3
I0403 15:28:03.987257 11985 net.cpp:425] conv2/relu_3x3 <- conv2/3x3
I0403 15:28:03.987273 11985 net.cpp:386] conv2/relu_3x3 -> conv2/3x3 (in-place)
I0403 15:28:03.987449 11985 net.cpp:141] Setting up conv2/relu_3x3
I0403 15:28:03.987476 11985 net.cpp:148] Top shape: 24 192 56 56 (14450688)
I0403 15:28:03.987526 11985 net.cpp:156] Memory required for data: 361268256
I0403 15:28:03.987543 11985 layer_factory.hpp:77] Creating layer conv2/norm2
I0403 15:28:03.987562 11985 net.cpp:91] Creating Layer conv2/norm2
I0403 15:28:03.987579 11985 net.cpp:425] conv2/norm2 <- conv2/3x3
I0403 15:28:03.987597 11985 net.cpp:399] conv2/norm2 -> conv2/norm2
I0403 15:28:03.987892 11985 net.cpp:141] Setting up conv2/norm2
I0403 15:28:03.987920 11985 net.cpp:148] Top shape: 24 192 56 56 (14450688)
I0403 15:28:03.987936 11985 net.cpp:156] Memory required for data: 419071008
I0403 15:28:03.987951 11985 layer_factory.hpp:77] Creating layer pool2/3x3_s2
I0403 15:28:03.987970 11985 net.cpp:91] Creating Layer pool2/3x3_s2
I0403 15:28:03.987987 11985 net.cpp:425] pool2/3x3_s2 <- conv2/norm2
I0403 15:28:03.988004 11985 net.cpp:399] pool2/3x3_s2 -> pool2/3x3_s2
I0403 15:28:03.988055 11985 net.cpp:141] Setting up pool2/3x3_s2
I0403 15:28:03.988078 11985 net.cpp:148] Top shape: 24 192 28 28 (3612672)
I0403 15:28:03.988093 11985 net.cpp:156] Memory required for data: 433521696
I0403 15:28:03.988109 11985 layer_factory.hpp:77] Creating layer pool2/3x3_s2_pool2/3x3_s2_0_split
I0403 15:28:03.988127 11985 net.cpp:91] Creating Layer pool2/3x3_s2_pool2/3x3_s2_0_split
I0403 15:28:03.988143 11985 net.cpp:425] pool2/3x3_s2_pool2/3x3_s2_0_split <- pool2/3x3_s2
I0403 15:28:03.988162 11985 net.cpp:399] pool2/3x3_s2_pool2/3x3_s2_0_split -> pool2/3x3_s2_pool2/3x3_s2_0_split_0
I0403 15:28:03.988181 11985 net.cpp:399] pool2/3x3_s2_pool2/3x3_s2_0_split -> pool2/3x3_s2_pool2/3x3_s2_0_split_1
I0403 15:28:03.988203 11985 net.cpp:399] pool2/3x3_s2_pool2/3x3_s2_0_split -> pool2/3x3_s2_pool2/3x3_s2_0_split_2
I0403 15:28:03.988222 11985 net.cpp:399] pool2/3x3_s2_pool2/3x3_s2_0_split -> pool2/3x3_s2_pool2/3x3_s2_0_split_3
I0403 15:28:03.988288 11985 net.cpp:141] Setting up pool2/3x3_s2_pool2/3x3_s2_0_split
I0403 15:28:03.988311 11985 net.cpp:148] Top shape: 24 192 28 28 (3612672)
I0403 15:28:03.988327 11985 net.cpp:148] Top shape: 24 192 28 28 (3612672)
I0403 15:28:03.988343 11985 net.cpp:148] Top shape: 24 192 28 28 (3612672)
I0403 15:28:03.988366 11985 net.cpp:148] Top shape: 24 192 28 28 (3612672)
I0403 15:28:03.988382 11985 net.cpp:156] Memory required for data: 491324448
I0403 15:28:03.988396 11985 layer_factory.hpp:77] Creating layer inception_3a/1x1
I0403 15:28:03.988417 11985 net.cpp:91] Creating Layer inception_3a/1x1
I0403 15:28:03.988435 11985 net.cpp:425] inception_3a/1x1 <- pool2/3x3_s2_pool2/3x3_s2_0_split_0
I0403 15:28:03.988452 11985 net.cpp:399] inception_3a/1x1 -> inception_3a/1x1
I0403 15:28:03.989959 11985 net.cpp:141] Setting up inception_3a/1x1
I0403 15:28:03.989990 11985 net.cpp:148] Top shape: 24 64 28 28 (1204224)
I0403 15:28:03.990006 11985 net.cpp:156] Memory required for data: 496141344
I0403 15:28:03.990025 11985 layer_factory.hpp:77] Creating layer inception_3a/relu_1x1
I0403 15:28:03.990044 11985 net.cpp:91] Creating Layer inception_3a/relu_1x1
I0403 15:28:03.990061 11985 net.cpp:425] inception_3a/relu_1x1 <- inception_3a/1x1
I0403 15:28:03.990078 11985 net.cpp:386] inception_3a/relu_1x1 -> inception_3a/1x1 (in-place)
I0403 15:28:03.990263 11985 net.cpp:141] Setting up inception_3a/relu_1x1
I0403 15:28:03.990289 11985 net.cpp:148] Top shape: 24 64 28 28 (1204224)
I0403 15:28:03.990305 11985 net.cpp:156] Memory required for data: 500958240
I0403 15:28:03.990320 11985 layer_factory.hpp:77] Creating layer inception_3a/3x3_reduce
I0403 15:28:03.990345 11985 net.cpp:91] Creating Layer inception_3a/3x3_reduce
I0403 15:28:03.990368 11985 net.cpp:425] inception_3a/3x3_reduce <- pool2/3x3_s2_pool2/3x3_s2_0_split_1
I0403 15:28:03.990389 11985 net.cpp:399] inception_3a/3x3_reduce -> inception_3a/3x3_reduce
I0403 15:28:03.992131 11985 net.cpp:141] Setting up inception_3a/3x3_reduce
I0403 15:28:03.992164 11985 net.cpp:148] Top shape: 24 96 28 28 (1806336)
I0403 15:28:03.992182 11985 net.cpp:156] Memory required for data: 508183584
I0403 15:28:03.992204 11985 layer_factory.hpp:77] Creating layer inception_3a/relu_3x3_reduce
I0403 15:28:03.992241 11985 net.cpp:91] Creating Layer inception_3a/relu_3x3_reduce
I0403 15:28:03.992259 11985 net.cpp:425] inception_3a/relu_3x3_reduce <- inception_3a/3x3_reduce
I0403 15:28:03.992282 11985 net.cpp:386] inception_3a/relu_3x3_reduce -> inception_3a/3x3_reduce (in-place)
I0403 15:28:03.992497 11985 net.cpp:141] Setting up inception_3a/relu_3x3_reduce
I0403 15:28:03.992525 11985 net.cpp:148] Top shape: 24 96 28 28 (1806336)
I0403 15:28:03.992540 11985 net.cpp:156] Memory required for data: 515408928
I0403 15:28:03.992555 11985 layer_factory.hpp:77] Creating layer inception_3a/3x3
I0403 15:28:03.992579 11985 net.cpp:91] Creating Layer inception_3a/3x3
I0403 15:28:03.992596 11985 net.cpp:425] inception_3a/3x3 <- inception_3a/3x3_reduce
I0403 15:28:03.992630 11985 net.cpp:399] inception_3a/3x3 -> inception_3a/3x3
I0403 15:28:03.994312 11985 net.cpp:141] Setting up inception_3a/3x3
I0403 15:28:03.994341 11985 net.cpp:148] Top shape: 24 128 28 28 (2408448)
I0403 15:28:03.994364 11985 net.cpp:156] Memory required for data: 525042720
I0403 15:28:03.994384 11985 layer_factory.hpp:77] Creating layer inception_3a/relu_3x3
I0403 15:28:03.994401 11985 net.cpp:91] Creating Layer inception_3a/relu_3x3
I0403 15:28:03.994417 11985 net.cpp:425] inception_3a/relu_3x3 <- inception_3a/3x3
I0403 15:28:03.994436 11985 net.cpp:386] inception_3a/relu_3x3 -> inception_3a/3x3 (in-place)
I0403 15:28:03.994712 11985 net.cpp:141] Setting up inception_3a/relu_3x3
I0403 15:28:03.994741 11985 net.cpp:148] Top shape: 24 128 28 28 (2408448)
I0403 15:28:03.994756 11985 net.cpp:156] Memory required for data: 534676512
I0403 15:28:03.994771 11985 layer_factory.hpp:77] Creating layer inception_3a/5x5_reduce
I0403 15:28:03.994793 11985 net.cpp:91] Creating Layer inception_3a/5x5_reduce
I0403 15:28:03.994810 11985 net.cpp:425] inception_3a/5x5_reduce <- pool2/3x3_s2_pool2/3x3_s2_0_split_2
I0403 15:28:03.994830 11985 net.cpp:399] inception_3a/5x5_reduce -> inception_3a/5x5_reduce
I0403 15:28:03.995816 11985 net.cpp:141] Setting up inception_3a/5x5_reduce
I0403 15:28:03.995847 11985 net.cpp:148] Top shape: 24 16 28 28 (301056)
I0403 15:28:03.995863 11985 net.cpp:156] Memory required for data: 535880736
I0403 15:28:03.995882 11985 layer_factory.hpp:77] Creating layer inception_3a/relu_5x5_reduce
I0403 15:28:03.995900 11985 net.cpp:91] Creating Layer inception_3a/relu_5x5_reduce
I0403 15:28:03.995916 11985 net.cpp:425] inception_3a/relu_5x5_reduce <- inception_3a/5x5_reduce
I0403 15:28:03.995939 11985 net.cpp:386] inception_3a/relu_5x5_reduce -> inception_3a/5x5_reduce (in-place)
I0403 15:28:03.996243 11985 net.cpp:141] Setting up inception_3a/relu_5x5_reduce
I0403 15:28:03.996268 11985 net.cpp:148] Top shape: 24 16 28 28 (301056)
I0403 15:28:03.996284 11985 net.cpp:156] Memory required for data: 537084960
I0403 15:28:03.996299 11985 layer_factory.hpp:77] Creating layer inception_3a/5x5
I0403 15:28:03.996322 11985 net.cpp:91] Creating Layer inception_3a/5x5
I0403 15:28:03.996340 11985 net.cpp:425] inception_3a/5x5 <- inception_3a/5x5_reduce
I0403 15:28:03.996367 11985 net.cpp:399] inception_3a/5x5 -> inception_3a/5x5
I0403 15:28:03.997409 11985 net.cpp:141] Setting up inception_3a/5x5
I0403 15:28:03.997439 11985 net.cpp:148] Top shape: 24 32 28 28 (602112)
I0403 15:28:03.997457 11985 net.cpp:156] Memory required for data: 539493408
I0403 15:28:03.997476 11985 layer_factory.hpp:77] Creating layer inception_3a/relu_5x5
I0403 15:28:03.997494 11985 net.cpp:91] Creating Layer inception_3a/relu_5x5
I0403 15:28:03.997510 11985 net.cpp:425] inception_3a/relu_5x5 <- inception_3a/5x5
I0403 15:28:03.997530 11985 net.cpp:386] inception_3a/relu_5x5 -> inception_3a/5x5 (in-place)
I0403 15:28:03.997707 11985 net.cpp:141] Setting up inception_3a/relu_5x5
I0403 15:28:03.997732 11985 net.cpp:148] Top shape: 24 32 28 28 (602112)
I0403 15:28:03.997746 11985 net.cpp:156] Memory required for data: 541901856
I0403 15:28:03.997761 11985 layer_factory.hpp:77] Creating layer inception_3a/pool
I0403 15:28:03.997778 11985 net.cpp:91] Creating Layer inception_3a/pool
I0403 15:28:03.997809 11985 net.cpp:425] inception_3a/pool <- pool2/3x3_s2_pool2/3x3_s2_0_split_3
I0403 15:28:03.997831 11985 net.cpp:399] inception_3a/pool -> inception_3a/pool
I0403 15:28:03.997889 11985 net.cpp:141] Setting up inception_3a/pool
I0403 15:28:03.997911 11985 net.cpp:148] Top shape: 24 192 28 28 (3612672)
I0403 15:28:03.997926 11985 net.cpp:156] Memory required for data: 556352544
I0403 15:28:03.997941 11985 layer_factory.hpp:77] Creating layer inception_3a/pool_proj
I0403 15:28:03.997966 11985 net.cpp:91] Creating Layer inception_3a/pool_proj
I0403 15:28:03.997982 11985 net.cpp:425] inception_3a/pool_proj <- inception_3a/pool
I0403 15:28:03.998002 11985 net.cpp:399] inception_3a/pool_proj -> inception_3a/pool_proj
I0403 15:28:03.999018 11985 net.cpp:141] Setting up inception_3a/pool_proj
I0403 15:28:03.999047 11985 net.cpp:148] Top shape: 24 32 28 28 (602112)
I0403 15:28:03.999063 11985 net.cpp:156] Memory required for data: 558760992
I0403 15:28:03.999086 11985 layer_factory.hpp:77] Creating layer inception_3a/relu_pool_proj
I0403 15:28:03.999106 11985 net.cpp:91] Creating Layer inception_3a/relu_pool_proj
I0403 15:28:03.999122 11985 net.cpp:425] inception_3a/relu_pool_proj <- inception_3a/pool_proj
I0403 15:28:03.999143 11985 net.cpp:386] inception_3a/relu_pool_proj -> inception_3a/pool_proj (in-place)
I0403 15:28:03.999434 11985 net.cpp:141] Setting up inception_3a/relu_pool_proj
I0403 15:28:03.999464 11985 net.cpp:148] Top shape: 24 32 28 28 (602112)
I0403 15:28:03.999478 11985 net.cpp:156] Memory required for data: 561169440
I0403 15:28:03.999495 11985 layer_factory.hpp:77] Creating layer inception_3a/output
I0403 15:28:03.999511 11985 net.cpp:91] Creating Layer inception_3a/output
I0403 15:28:03.999527 11985 net.cpp:425] inception_3a/output <- inception_3a/1x1
I0403 15:28:03.999543 11985 net.cpp:425] inception_3a/output <- inception_3a/3x3
I0403 15:28:03.999559 11985 net.cpp:425] inception_3a/output <- inception_3a/5x5
I0403 15:28:03.999577 11985 net.cpp:425] inception_3a/output <- inception_3a/pool_proj
I0403 15:28:03.999595 11985 net.cpp:399] inception_3a/output -> inception_3a/output
I0403 15:28:03.999641 11985 net.cpp:141] Setting up inception_3a/output
I0403 15:28:03.999665 11985 net.cpp:148] Top shape: 24 256 28 28 (4816896)
I0403 15:28:03.999678 11985 net.cpp:156] Memory required for data: 580437024
I0403 15:28:03.999693 11985 layer_factory.hpp:77] Creating layer inception_3a/output_inception_3a/output_0_split
I0403 15:28:03.999712 11985 net.cpp:91] Creating Layer inception_3a/output_inception_3a/output_0_split
I0403 15:28:03.999728 11985 net.cpp:425] inception_3a/output_inception_3a/output_0_split <- inception_3a/output
I0403 15:28:03.999747 11985 net.cpp:399] inception_3a/output_inception_3a/output_0_split -> inception_3a/output_inception_3a/output_0_split_0
I0403 15:28:03.999765 11985 net.cpp:399] inception_3a/output_inception_3a/output_0_split -> inception_3a/output_inception_3a/output_0_split_1
I0403 15:28:03.999789 11985 net.cpp:399] inception_3a/output_inception_3a/output_0_split -> inception_3a/output_inception_3a/output_0_split_2
I0403 15:28:03.999810 11985 net.cpp:399] inception_3a/output_inception_3a/output_0_split -> inception_3a/output_inception_3a/output_0_split_3
I0403 15:28:03.999883 11985 net.cpp:141] Setting up inception_3a/output_inception_3a/output_0_split
I0403 15:28:03.999907 11985 net.cpp:148] Top shape: 24 256 28 28 (4816896)
I0403 15:28:03.999925 11985 net.cpp:148] Top shape: 24 256 28 28 (4816896)
I0403 15:28:03.999940 11985 net.cpp:148] Top shape: 24 256 28 28 (4816896)
I0403 15:28:03.999955 11985 net.cpp:148] Top shape: 24 256 28 28 (4816896)
I0403 15:28:03.999969 11985 net.cpp:156] Memory required for data: 657507360
I0403 15:28:03.999984 11985 layer_factory.hpp:77] Creating layer inception_3b/1x1
I0403 15:28:04.000006 11985 net.cpp:91] Creating Layer inception_3b/1x1
I0403 15:28:04.000023 11985 net.cpp:425] inception_3b/1x1 <- inception_3a/output_inception_3a/output_0_split_0
I0403 15:28:04.000041 11985 net.cpp:399] inception_3b/1x1 -> inception_3b/1x1
I0403 15:28:04.001237 11985 net.cpp:141] Setting up inception_3b/1x1
I0403 15:28:04.001277 11985 net.cpp:148] Top shape: 24 128 28 28 (2408448)
I0403 15:28:04.001293 11985 net.cpp:156] Memory required for data: 667141152
I0403 15:28:04.001312 11985 layer_factory.hpp:77] Creating layer inception_3b/relu_1x1
I0403 15:28:04.001332 11985 net.cpp:91] Creating Layer inception_3b/relu_1x1
I0403 15:28:04.001368 11985 net.cpp:425] inception_3b/relu_1x1 <- inception_3b/1x1
I0403 15:28:04.001389 11985 net.cpp:386] inception_3b/relu_1x1 -> inception_3b/1x1 (in-place)
I0403 15:28:04.001574 11985 net.cpp:141] Setting up inception_3b/relu_1x1
I0403 15:28:04.001603 11985 net.cpp:148] Top shape: 24 128 28 28 (2408448)
I0403 15:28:04.001619 11985 net.cpp:156] Memory required for data: 676774944
I0403 15:28:04.001636 11985 layer_factory.hpp:77] Creating layer inception_3b/3x3_reduce
I0403 15:28:04.001669 11985 net.cpp:91] Creating Layer inception_3b/3x3_reduce
I0403 15:28:04.001687 11985 net.cpp:425] inception_3b/3x3_reduce <- inception_3a/output_inception_3a/output_0_split_1
I0403 15:28:04.001705 11985 net.cpp:399] inception_3b/3x3_reduce -> inception_3b/3x3_reduce
I0403 15:28:04.002876 11985 net.cpp:141] Setting up inception_3b/3x3_reduce
I0403 15:28:04.002903 11985 net.cpp:148] Top shape: 24 128 28 28 (2408448)
I0403 15:28:04.002919 11985 net.cpp:156] Memory required for data: 686408736
I0403 15:28:04.002936 11985 layer_factory.hpp:77] Creating layer inception_3b/relu_3x3_reduce
I0403 15:28:04.002959 11985 net.cpp:91] Creating Layer inception_3b/relu_3x3_reduce
I0403 15:28:04.002976 11985 net.cpp:425] inception_3b/relu_3x3_reduce <- inception_3b/3x3_reduce
I0403 15:28:04.002993 11985 net.cpp:386] inception_3b/relu_3x3_reduce -> inception_3b/3x3_reduce (in-place)
I0403 15:28:04.003170 11985 net.cpp:141] Setting up inception_3b/relu_3x3_reduce
I0403 15:28:04.003198 11985 net.cpp:148] Top shape: 24 128 28 28 (2408448)
I0403 15:28:04.003214 11985 net.cpp:156] Memory required for data: 696042528
I0403 15:28:04.003229 11985 layer_factory.hpp:77] Creating layer inception_3b/3x3
I0403 15:28:04.003253 11985 net.cpp:91] Creating Layer inception_3b/3x3
I0403 15:28:04.003271 11985 net.cpp:425] inception_3b/3x3 <- inception_3b/3x3_reduce
I0403 15:28:04.003293 11985 net.cpp:399] inception_3b/3x3 -> inception_3b/3x3
I0403 15:28:04.006309 11985 net.cpp:141] Setting up inception_3b/3x3
I0403 15:28:04.006341 11985 net.cpp:148] Top shape: 24 192 28 28 (3612672)
I0403 15:28:04.006366 11985 net.cpp:156] Memory required for data: 710493216
I0403 15:28:04.006386 11985 layer_factory.hpp:77] Creating layer inception_3b/relu_3x3
I0403 15:28:04.006403 11985 net.cpp:91] Creating Layer inception_3b/relu_3x3
I0403 15:28:04.006419 11985 net.cpp:425] inception_3b/relu_3x3 <- inception_3b/3x3
I0403 15:28:04.006440 11985 net.cpp:386] inception_3b/relu_3x3 -> inception_3b/3x3 (in-place)
I0403 15:28:04.006726 11985 net.cpp:141] Setting up inception_3b/relu_3x3
I0403 15:28:04.006754 11985 net.cpp:148] Top shape: 24 192 28 28 (3612672)
I0403 15:28:04.006770 11985 net.cpp:156] Memory required for data: 724943904
I0403 15:28:04.006785 11985 layer_factory.hpp:77] Creating layer inception_3b/5x5_reduce
I0403 15:28:04.006809 11985 net.cpp:91] Creating Layer inception_3b/5x5_reduce
I0403 15:28:04.006827 11985 net.cpp:425] inception_3b/5x5_reduce <- inception_3a/output_inception_3a/output_0_split_2
I0403 15:28:04.006846 11985 net.cpp:399] inception_3b/5x5_reduce -> inception_3b/5x5_reduce
I0403 15:28:04.007891 11985 net.cpp:141] Setting up inception_3b/5x5_reduce
I0403 15:28:04.007920 11985 net.cpp:148] Top shape: 24 32 28 28 (602112)
I0403 15:28:04.007937 11985 net.cpp:156] Memory required for data: 727352352
I0403 15:28:04.007956 11985 layer_factory.hpp:77] Creating layer inception_3b/relu_5x5_reduce
I0403 15:28:04.007973 11985 net.cpp:91] Creating Layer inception_3b/relu_5x5_reduce
I0403 15:28:04.007990 11985 net.cpp:425] inception_3b/relu_5x5_reduce <- inception_3b/5x5_reduce
I0403 15:28:04.008010 11985 net.cpp:386] inception_3b/relu_5x5_reduce -> inception_3b/5x5_reduce (in-place)
I0403 15:28:04.008204 11985 net.cpp:141] Setting up inception_3b/relu_5x5_reduce
I0403 15:28:04.008230 11985 net.cpp:148] Top shape: 24 32 28 28 (602112)
I0403 15:28:04.008244 11985 net.cpp:156] Memory required for data: 729760800
I0403 15:28:04.008260 11985 layer_factory.hpp:77] Creating layer inception_3b/5x5
I0403 15:28:04.008281 11985 net.cpp:91] Creating Layer inception_3b/5x5
I0403 15:28:04.008298 11985 net.cpp:425] inception_3b/5x5 <- inception_3b/5x5_reduce
I0403 15:28:04.008319 11985 net.cpp:399] inception_3b/5x5 -> inception_3b/5x5
I0403 15:28:04.010392 11985 net.cpp:141] Setting up inception_3b/5x5
I0403 15:28:04.010423 11985 net.cpp:148] Top shape: 24 96 28 28 (1806336)
I0403 15:28:04.010439 11985 net.cpp:156] Memory required for data: 736986144
I0403 15:28:04.010458 11985 layer_factory.hpp:77] Creating layer inception_3b/relu_5x5
I0403 15:28:04.010479 11985 net.cpp:91] Creating Layer inception_3b/relu_5x5
I0403 15:28:04.010498 11985 net.cpp:425] inception_3b/relu_5x5 <- inception_3b/5x5
I0403 15:28:04.010514 11985 net.cpp:386] inception_3b/relu_5x5 -> inception_3b/5x5 (in-place)
I0403 15:28:04.010738 11985 net.cpp:141] Setting up inception_3b/relu_5x5
I0403 15:28:04.010763 11985 net.cpp:148] Top shape: 24 96 28 28 (1806336)
I0403 15:28:04.010777 11985 net.cpp:156] Memory required for data: 744211488
I0403 15:28:04.010792 11985 layer_factory.hpp:77] Creating layer inception_3b/pool
I0403 15:28:04.010808 11985 net.cpp:91] Creating Layer inception_3b/pool
I0403 15:28:04.010823 11985 net.cpp:425] inception_3b/pool <- inception_3a/output_inception_3a/output_0_split_3
I0403 15:28:04.010840 11985 net.cpp:399] inception_3b/pool -> inception_3b/pool
I0403 15:28:04.010895 11985 net.cpp:141] Setting up inception_3b/pool
I0403 15:28:04.010917 11985 net.cpp:148] Top shape: 24 256 28 28 (4816896)
I0403 15:28:04.010931 11985 net.cpp:156] Memory required for data: 763479072
I0403 15:28:04.010946 11985 layer_factory.hpp:77] Creating layer inception_3b/pool_proj
I0403 15:28:04.010967 11985 net.cpp:91] Creating Layer inception_3b/pool_proj
I0403 15:28:04.010984 11985 net.cpp:425] inception_3b/pool_proj <- inception_3b/pool
I0403 15:28:04.011003 11985 net.cpp:399] inception_3b/pool_proj -> inception_3b/pool_proj
I0403 15:28:04.012048 11985 net.cpp:141] Setting up inception_3b/pool_proj
I0403 15:28:04.012078 11985 net.cpp:148] Top shape: 24 64 28 28 (1204224)
I0403 15:28:04.012092 11985 net.cpp:156] Memory required for data: 768295968
I0403 15:28:04.012110 11985 layer_factory.hpp:77] Creating layer inception_3b/relu_pool_proj
I0403 15:28:04.012128 11985 net.cpp:91] Creating Layer inception_3b/relu_pool_proj
I0403 15:28:04.012143 11985 net.cpp:425] inception_3b/relu_pool_proj <- inception_3b/pool_proj
I0403 15:28:04.012162 11985 net.cpp:386] inception_3b/relu_pool_proj -> inception_3b/pool_proj (in-place)
I0403 15:28:04.012583 11985 net.cpp:141] Setting up inception_3b/relu_pool_proj
I0403 15:28:04.012609 11985 net.cpp:148] Top shape: 24 64 28 28 (1204224)
I0403 15:28:04.012624 11985 net.cpp:156] Memory required for data: 773112864
I0403 15:28:04.012651 11985 layer_factory.hpp:77] Creating layer inception_3b/output
I0403 15:28:04.012668 11985 net.cpp:91] Creating Layer inception_3b/output
I0403 15:28:04.012684 11985 net.cpp:425] inception_3b/output <- inception_3b/1x1
I0403 15:28:04.012701 11985 net.cpp:425] inception_3b/output <- inception_3b/3x3
I0403 15:28:04.012717 11985 net.cpp:425] inception_3b/output <- inception_3b/5x5
I0403 15:28:04.012733 11985 net.cpp:425] inception_3b/output <- inception_3b/pool_proj
I0403 15:28:04.012753 11985 net.cpp:399] inception_3b/output -> inception_3b/output
I0403 15:28:04.012796 11985 net.cpp:141] Setting up inception_3b/output
I0403 15:28:04.012820 11985 net.cpp:148] Top shape: 24 480 28 28 (9031680)
I0403 15:28:04.012835 11985 net.cpp:156] Memory required for data: 809239584
I0403 15:28:04.012850 11985 layer_factory.hpp:77] Creating layer pool3/3x3_s2
I0403 15:28:04.012869 11985 net.cpp:91] Creating Layer pool3/3x3_s2
I0403 15:28:04.012886 11985 net.cpp:425] pool3/3x3_s2 <- inception_3b/output
I0403 15:28:04.012923 11985 net.cpp:399] pool3/3x3_s2 -> pool3/3x3_s2
I0403 15:28:04.012984 11985 net.cpp:141] Setting up pool3/3x3_s2
I0403 15:28:04.013008 11985 net.cpp:148] Top shape: 24 480 14 14 (2257920)
I0403 15:28:04.013022 11985 net.cpp:156] Memory required for data: 818271264
I0403 15:28:04.013037 11985 layer_factory.hpp:77] Creating layer pool3/3x3_s2_pool3/3x3_s2_0_split
I0403 15:28:04.013057 11985 net.cpp:91] Creating Layer pool3/3x3_s2_pool3/3x3_s2_0_split
I0403 15:28:04.013073 11985 net.cpp:425] pool3/3x3_s2_pool3/3x3_s2_0_split <- pool3/3x3_s2
I0403 15:28:04.013092 11985 net.cpp:399] pool3/3x3_s2_pool3/3x3_s2_0_split -> pool3/3x3_s2_pool3/3x3_s2_0_split_0
I0403 15:28:04.013110 11985 net.cpp:399] pool3/3x3_s2_pool3/3x3_s2_0_split -> pool3/3x3_s2_pool3/3x3_s2_0_split_1
I0403 15:28:04.013129 11985 net.cpp:399] pool3/3x3_s2_pool3/3x3_s2_0_split -> pool3/3x3_s2_pool3/3x3_s2_0_split_2
I0403 15:28:04.013149 11985 net.cpp:399] pool3/3x3_s2_pool3/3x3_s2_0_split -> pool3/3x3_s2_pool3/3x3_s2_0_split_3
I0403 15:28:04.013226 11985 net.cpp:141] Setting up pool3/3x3_s2_pool3/3x3_s2_0_split
I0403 15:28:04.013248 11985 net.cpp:148] Top shape: 24 480 14 14 (2257920)
I0403 15:28:04.013264 11985 net.cpp:148] Top shape: 24 480 14 14 (2257920)
I0403 15:28:04.013279 11985 net.cpp:148] Top shape: 24 480 14 14 (2257920)
I0403 15:28:04.013295 11985 net.cpp:148] Top shape: 24 480 14 14 (2257920)
I0403 15:28:04.013309 11985 net.cpp:156] Memory required for data: 854397984
I0403 15:28:04.013324 11985 layer_factory.hpp:77] Creating layer inception_4a/1x1
I0403 15:28:04.013346 11985 net.cpp:91] Creating Layer inception_4a/1x1
I0403 15:28:04.013370 11985 net.cpp:425] inception_4a/1x1 <- pool3/3x3_s2_pool3/3x3_s2_0_split_0
I0403 15:28:04.013404 11985 net.cpp:399] inception_4a/1x1 -> inception_4a/1x1
I0403 15:28:04.015066 11985 net.cpp:141] Setting up inception_4a/1x1
I0403 15:28:04.015094 11985 net.cpp:148] Top shape: 24 192 14 14 (903168)
I0403 15:28:04.015110 11985 net.cpp:156] Memory required for data: 858010656
I0403 15:28:04.015130 11985 layer_factory.hpp:77] Creating layer inception_4a/relu_1x1
I0403 15:28:04.015151 11985 net.cpp:91] Creating Layer inception_4a/relu_1x1
I0403 15:28:04.015168 11985 net.cpp:425] inception_4a/relu_1x1 <- inception_4a/1x1
I0403 15:28:04.015185 11985 net.cpp:386] inception_4a/relu_1x1 -> inception_4a/1x1 (in-place)
I0403 15:28:04.015372 11985 net.cpp:141] Setting up inception_4a/relu_1x1
I0403 15:28:04.015400 11985 net.cpp:148] Top shape: 24 192 14 14 (903168)
I0403 15:28:04.015416 11985 net.cpp:156] Memory required for data: 861623328
I0403 15:28:04.015431 11985 layer_factory.hpp:77] Creating layer inception_4a/3x3_reduce
I0403 15:28:04.015450 11985 net.cpp:91] Creating Layer inception_4a/3x3_reduce
I0403 15:28:04.015466 11985 net.cpp:425] inception_4a/3x3_reduce <- pool3/3x3_s2_pool3/3x3_s2_0_split_1
I0403 15:28:04.015487 11985 net.cpp:399] inception_4a/3x3_reduce -> inception_4a/3x3_reduce
I0403 15:28:04.016790 11985 net.cpp:141] Setting up inception_4a/3x3_reduce
I0403 15:28:04.016819 11985 net.cpp:148] Top shape: 24 96 14 14 (451584)
I0403 15:28:04.016834 11985 net.cpp:156] Memory required for data: 863429664
I0403 15:28:04.016858 11985 layer_factory.hpp:77] Creating layer inception_4a/relu_3x3_reduce
I0403 15:28:04.016880 11985 net.cpp:91] Creating Layer inception_4a/relu_3x3_reduce
I0403 15:28:04.016896 11985 net.cpp:425] inception_4a/relu_3x3_reduce <- inception_4a/3x3_reduce
I0403 15:28:04.016916 11985 net.cpp:386] inception_4a/relu_3x3_reduce -> inception_4a/3x3_reduce (in-place)
I0403 15:28:04.017093 11985 net.cpp:141] Setting up inception_4a/relu_3x3_reduce
I0403 15:28:04.017118 11985 net.cpp:148] Top shape: 24 96 14 14 (451584)
I0403 15:28:04.017133 11985 net.cpp:156] Memory required for data: 865236000
I0403 15:28:04.017148 11985 layer_factory.hpp:77] Creating layer inception_4a/3x3
I0403 15:28:04.017169 11985 net.cpp:91] Creating Layer inception_4a/3x3
I0403 15:28:04.017187 11985 net.cpp:425] inception_4a/3x3 <- inception_4a/3x3_reduce
I0403 15:28:04.017222 11985 net.cpp:399] inception_4a/3x3 -> inception_4a/3x3
I0403 15:28:04.019922 11985 net.cpp:141] Setting up inception_4a/3x3
I0403 15:28:04.019950 11985 net.cpp:148] Top shape: 24 208 14 14 (978432)
I0403 15:28:04.019965 11985 net.cpp:156] Memory required for data: 869149728
I0403 15:28:04.019984 11985 layer_factory.hpp:77] Creating layer inception_4a/relu_3x3
I0403 15:28:04.020004 11985 net.cpp:91] Creating Layer inception_4a/relu_3x3
I0403 15:28:04.020021 11985 net.cpp:425] inception_4a/relu_3x3 <- inception_4a/3x3
I0403 15:28:04.020037 11985 net.cpp:386] inception_4a/relu_3x3 -> inception_4a/3x3 (in-place)
I0403 15:28:04.020313 11985 net.cpp:141] Setting up inception_4a/relu_3x3
I0403 15:28:04.020339 11985 net.cpp:148] Top shape: 24 208 14 14 (978432)
I0403 15:28:04.020359 11985 net.cpp:156] Memory required for data: 873063456
I0403 15:28:04.020375 11985 layer_factory.hpp:77] Creating layer inception_4a/5x5_reduce
I0403 15:28:04.020400 11985 net.cpp:91] Creating Layer inception_4a/5x5_reduce
I0403 15:28:04.020416 11985 net.cpp:425] inception_4a/5x5_reduce <- pool3/3x3_s2_pool3/3x3_s2_0_split_2
I0403 15:28:04.020434 11985 net.cpp:399] inception_4a/5x5_reduce -> inception_4a/5x5_reduce
I0403 15:28:04.021463 11985 net.cpp:141] Setting up inception_4a/5x5_reduce
I0403 15:28:04.021492 11985 net.cpp:148] Top shape: 24 16 14 14 (75264)
I0403 15:28:04.021507 11985 net.cpp:156] Memory required for data: 873364512
I0403 15:28:04.021528 11985 layer_factory.hpp:77] Creating layer inception_4a/relu_5x5_reduce
I0403 15:28:04.021546 11985 net.cpp:91] Creating Layer inception_4a/relu_5x5_reduce
I0403 15:28:04.021564 11985 net.cpp:425] inception_4a/relu_5x5_reduce <- inception_4a/5x5_reduce
I0403 15:28:04.021580 11985 net.cpp:386] inception_4a/relu_5x5_reduce -> inception_4a/5x5_reduce (in-place)
I0403 15:28:04.021780 11985 net.cpp:141] Setting up inception_4a/relu_5x5_reduce
I0403 15:28:04.021805 11985 net.cpp:148] Top shape: 24 16 14 14 (75264)
I0403 15:28:04.021818 11985 net.cpp:156] Memory required for data: 873665568
I0403 15:28:04.021832 11985 layer_factory.hpp:77] Creating layer inception_4a/5x5
I0403 15:28:04.021854 11985 net.cpp:91] Creating Layer inception_4a/5x5
I0403 15:28:04.021872 11985 net.cpp:425] inception_4a/5x5 <- inception_4a/5x5_reduce
I0403 15:28:04.021891 11985 net.cpp:399] inception_4a/5x5 -> inception_4a/5x5
I0403 15:28:04.022976 11985 net.cpp:141] Setting up inception_4a/5x5
I0403 15:28:04.023005 11985 net.cpp:148] Top shape: 24 48 14 14 (225792)
I0403 15:28:04.023020 11985 net.cpp:156] Memory required for data: 874568736
I0403 15:28:04.023037 11985 layer_factory.hpp:77] Creating layer inception_4a/relu_5x5
I0403 15:28:04.023054 11985 net.cpp:91] Creating Layer inception_4a/relu_5x5
I0403 15:28:04.023071 11985 net.cpp:425] inception_4a/relu_5x5 <- inception_4a/5x5
I0403 15:28:04.023088 11985 net.cpp:386] inception_4a/relu_5x5 -> inception_4a/5x5 (in-place)
I0403 15:28:04.023267 11985 net.cpp:141] Setting up inception_4a/relu_5x5
I0403 15:28:04.023290 11985 net.cpp:148] Top shape: 24 48 14 14 (225792)
I0403 15:28:04.023305 11985 net.cpp:156] Memory required for data: 875471904
I0403 15:28:04.023319 11985 layer_factory.hpp:77] Creating layer inception_4a/pool
I0403 15:28:04.023340 11985 net.cpp:91] Creating Layer inception_4a/pool
I0403 15:28:04.023365 11985 net.cpp:425] inception_4a/pool <- pool3/3x3_s2_pool3/3x3_s2_0_split_3
I0403 15:28:04.023383 11985 net.cpp:399] inception_4a/pool -> inception_4a/pool
I0403 15:28:04.023445 11985 net.cpp:141] Setting up inception_4a/pool
I0403 15:28:04.023468 11985 net.cpp:148] Top shape: 24 480 14 14 (2257920)
I0403 15:28:04.023481 11985 net.cpp:156] Memory required for data: 884503584
I0403 15:28:04.023496 11985 layer_factory.hpp:77] Creating layer inception_4a/pool_proj
I0403 15:28:04.023517 11985 net.cpp:91] Creating Layer inception_4a/pool_proj
I0403 15:28:04.023533 11985 net.cpp:425] inception_4a/pool_proj <- inception_4a/pool
I0403 15:28:04.023555 11985 net.cpp:399] inception_4a/pool_proj -> inception_4a/pool_proj
I0403 15:28:04.024745 11985 net.cpp:141] Setting up inception_4a/pool_proj
I0403 15:28:04.024772 11985 net.cpp:148] Top shape: 24 64 14 14 (301056)
I0403 15:28:04.024802 11985 net.cpp:156] Memory required for data: 885707808
I0403 15:28:04.024822 11985 layer_factory.hpp:77] Creating layer inception_4a/relu_pool_proj
I0403 15:28:04.024842 11985 net.cpp:91] Creating Layer inception_4a/relu_pool_proj
I0403 15:28:04.024859 11985 net.cpp:425] inception_4a/relu_pool_proj <- inception_4a/pool_proj
I0403 15:28:04.024876 11985 net.cpp:386] inception_4a/relu_pool_proj -> inception_4a/pool_proj (in-place)
I0403 15:28:04.025159 11985 net.cpp:141] Setting up inception_4a/relu_pool_proj
I0403 15:28:04.025185 11985 net.cpp:148] Top shape: 24 64 14 14 (301056)
I0403 15:28:04.025200 11985 net.cpp:156] Memory required for data: 886912032
I0403 15:28:04.025214 11985 layer_factory.hpp:77] Creating layer inception_4a/output
I0403 15:28:04.025231 11985 net.cpp:91] Creating Layer inception_4a/output
I0403 15:28:04.025246 11985 net.cpp:425] inception_4a/output <- inception_4a/1x1
I0403 15:28:04.025262 11985 net.cpp:425] inception_4a/output <- inception_4a/3x3
I0403 15:28:04.025281 11985 net.cpp:425] inception_4a/output <- inception_4a/5x5
I0403 15:28:04.025296 11985 net.cpp:425] inception_4a/output <- inception_4a/pool_proj
I0403 15:28:04.025312 11985 net.cpp:399] inception_4a/output -> inception_4a/output
I0403 15:28:04.025360 11985 net.cpp:141] Setting up inception_4a/output
I0403 15:28:04.025387 11985 net.cpp:148] Top shape: 24 512 14 14 (2408448)
I0403 15:28:04.025401 11985 net.cpp:156] Memory required for data: 896545824
I0403 15:28:04.025416 11985 layer_factory.hpp:77] Creating layer inception_4a/output_inception_4a/output_0_split
I0403 15:28:04.025434 11985 net.cpp:91] Creating Layer inception_4a/output_inception_4a/output_0_split
I0403 15:28:04.025449 11985 net.cpp:425] inception_4a/output_inception_4a/output_0_split <- inception_4a/output
I0403 15:28:04.025467 11985 net.cpp:399] inception_4a/output_inception_4a/output_0_split -> inception_4a/output_inception_4a/output_0_split_0
I0403 15:28:04.025487 11985 net.cpp:399] inception_4a/output_inception_4a/output_0_split -> inception_4a/output_inception_4a/output_0_split_1
I0403 15:28:04.025507 11985 net.cpp:399] inception_4a/output_inception_4a/output_0_split -> inception_4a/output_inception_4a/output_0_split_2
I0403 15:28:04.025527 11985 net.cpp:399] inception_4a/output_inception_4a/output_0_split -> inception_4a/output_inception_4a/output_0_split_3
I0403 15:28:04.025547 11985 net.cpp:399] inception_4a/output_inception_4a/output_0_split -> inception_4a/output_inception_4a/output_0_split_4
I0403 15:28:04.025636 11985 net.cpp:141] Setting up inception_4a/output_inception_4a/output_0_split
I0403 15:28:04.025658 11985 net.cpp:148] Top shape: 24 512 14 14 (2408448)
I0403 15:28:04.025676 11985 net.cpp:148] Top shape: 24 512 14 14 (2408448)
I0403 15:28:04.025692 11985 net.cpp:148] Top shape: 24 512 14 14 (2408448)
I0403 15:28:04.025707 11985 net.cpp:148] Top shape: 24 512 14 14 (2408448)
I0403 15:28:04.025722 11985 net.cpp:148] Top shape: 24 512 14 14 (2408448)
I0403 15:28:04.025735 11985 net.cpp:156] Memory required for data: 944714784
I0403 15:28:04.025750 11985 layer_factory.hpp:77] Creating layer loss1/ave_pool
I0403 15:28:04.025768 11985 net.cpp:91] Creating Layer loss1/ave_pool
I0403 15:28:04.025782 11985 net.cpp:425] loss1/ave_pool <- inception_4a/output_inception_4a/output_0_split_0
I0403 15:28:04.025802 11985 net.cpp:399] loss1/ave_pool -> loss1/ave_pool
I0403 15:28:04.026007 11985 net.cpp:141] Setting up loss1/ave_pool
I0403 15:28:04.026032 11985 net.cpp:148] Top shape: 24 512 4 4 (196608)
I0403 15:28:04.026047 11985 net.cpp:156] Memory required for data: 945501216
I0403 15:28:04.026062 11985 layer_factory.hpp:77] Creating layer loss1/conv
I0403 15:28:04.026083 11985 net.cpp:91] Creating Layer loss1/conv
I0403 15:28:04.026100 11985 net.cpp:425] loss1/conv <- loss1/ave_pool
I0403 15:28:04.026121 11985 net.cpp:399] loss1/conv -> loss1/conv
I0403 15:28:04.027624 11985 net.cpp:141] Setting up loss1/conv
I0403 15:28:04.027653 11985 net.cpp:148] Top shape: 24 128 4 4 (49152)
I0403 15:28:04.027684 11985 net.cpp:156] Memory required for data: 945697824
I0403 15:28:04.027704 11985 layer_factory.hpp:77] Creating layer loss1/relu_conv
I0403 15:28:04.027725 11985 net.cpp:91] Creating Layer loss1/relu_conv
I0403 15:28:04.027741 11985 net.cpp:425] loss1/relu_conv <- loss1/conv
I0403 15:28:04.027760 11985 net.cpp:386] loss1/relu_conv -> loss1/conv (in-place)
I0403 15:28:04.028056 11985 net.cpp:141] Setting up loss1/relu_conv
I0403 15:28:04.028084 11985 net.cpp:148] Top shape: 24 128 4 4 (49152)
I0403 15:28:04.028098 11985 net.cpp:156] Memory required for data: 945894432
I0403 15:28:04.028112 11985 layer_factory.hpp:77] Creating layer loss1/fc
I0403 15:28:04.028138 11985 net.cpp:91] Creating Layer loss1/fc
I0403 15:28:04.028156 11985 net.cpp:425] loss1/fc <- loss1/conv
I0403 15:28:04.028177 11985 net.cpp:399] loss1/fc -> loss1/fc
I0403 15:28:04.046636 11985 net.cpp:141] Setting up loss1/fc
I0403 15:28:04.046710 11985 net.cpp:148] Top shape: 24 1024 (24576)
I0403 15:28:04.046725 11985 net.cpp:156] Memory required for data: 945992736
I0403 15:28:04.046744 11985 layer_factory.hpp:77] Creating layer loss1/relu_fc
I0403 15:28:04.046763 11985 net.cpp:91] Creating Layer loss1/relu_fc
I0403 15:28:04.046780 11985 net.cpp:425] loss1/relu_fc <- loss1/fc
I0403 15:28:04.046802 11985 net.cpp:386] loss1/relu_fc -> loss1/fc (in-place)
I0403 15:28:04.047018 11985 net.cpp:141] Setting up loss1/relu_fc
I0403 15:28:04.047044 11985 net.cpp:148] Top shape: 24 1024 (24576)
I0403 15:28:04.047058 11985 net.cpp:156] Memory required for data: 946091040
I0403 15:28:04.047073 11985 layer_factory.hpp:77] Creating layer loss1/drop_fc
I0403 15:28:04.047102 11985 net.cpp:91] Creating Layer loss1/drop_fc
I0403 15:28:04.047121 11985 net.cpp:425] loss1/drop_fc <- loss1/fc
I0403 15:28:04.047137 11985 net.cpp:386] loss1/drop_fc -> loss1/fc (in-place)
I0403 15:28:04.047190 11985 net.cpp:141] Setting up loss1/drop_fc
I0403 15:28:04.047212 11985 net.cpp:148] Top shape: 24 1024 (24576)
I0403 15:28:04.047227 11985 net.cpp:156] Memory required for data: 946189344
I0403 15:28:04.047242 11985 layer_factory.hpp:77] Creating layer loss1/classifier_plantvillage
I0403 15:28:04.047260 11985 net.cpp:91] Creating Layer loss1/classifier_plantvillage
I0403 15:28:04.047276 11985 net.cpp:425] loss1/classifier_plantvillage <- loss1/fc
I0403 15:28:04.047297 11985 net.cpp:399] loss1/classifier_plantvillage -> loss1/classifier_plantvillage
I0403 15:28:04.048216 11985 net.cpp:141] Setting up loss1/classifier_plantvillage
I0403 15:28:04.048243 11985 net.cpp:148] Top shape: 24 38 (912)
I0403 15:28:04.048259 11985 net.cpp:156] Memory required for data: 946192992
I0403 15:28:04.048275 11985 layer_factory.hpp:77] Creating layer loss1/classifier_plantvillage_loss1/classifier_plantvillage_0_split
I0403 15:28:04.048296 11985 net.cpp:91] Creating Layer loss1/classifier_plantvillage_loss1/classifier_plantvillage_0_split
I0403 15:28:04.048312 11985 net.cpp:425] loss1/classifier_plantvillage_loss1/classifier_plantvillage_0_split <- loss1/classifier_plantvillage
I0403 15:28:04.048329 11985 net.cpp:399] loss1/classifier_plantvillage_loss1/classifier_plantvillage_0_split -> loss1/classifier_plantvillage_loss1/classifier_plantvillage_0_split_0
I0403 15:28:04.048355 11985 net.cpp:399] loss1/classifier_plantvillage_loss1/classifier_plantvillage_0_split -> loss1/classifier_plantvillage_loss1/classifier_plantvillage_0_split_1
I0403 15:28:04.048377 11985 net.cpp:399] loss1/classifier_plantvillage_loss1/classifier_plantvillage_0_split -> loss1/classifier_plantvillage_loss1/classifier_plantvillage_0_split_2
I0403 15:28:04.048444 11985 net.cpp:141] Setting up loss1/classifier_plantvillage_loss1/classifier_plantvillage_0_split
I0403 15:28:04.048466 11985 net.cpp:148] Top shape: 24 38 (912)
I0403 15:28:04.048482 11985 net.cpp:148] Top shape: 24 38 (912)
I0403 15:28:04.048497 11985 net.cpp:148] Top shape: 24 38 (912)
I0403 15:28:04.048511 11985 net.cpp:156] Memory required for data: 946203936
I0403 15:28:04.048524 11985 layer_factory.hpp:77] Creating layer inception_4b/1x1
I0403 15:28:04.048548 11985 net.cpp:91] Creating Layer inception_4b/1x1
I0403 15:28:04.048583 11985 net.cpp:425] inception_4b/1x1 <- inception_4a/output_inception_4a/output_0_split_1
I0403 15:28:04.048605 11985 net.cpp:399] inception_4b/1x1 -> inception_4b/1x1
I0403 15:28:04.050282 11985 net.cpp:141] Setting up inception_4b/1x1
I0403 15:28:04.050310 11985 net.cpp:148] Top shape: 24 160 14 14 (752640)
I0403 15:28:04.050325 11985 net.cpp:156] Memory required for data: 949214496
I0403 15:28:04.050343 11985 layer_factory.hpp:77] Creating layer inception_4b/relu_1x1
I0403 15:28:04.050370 11985 net.cpp:91] Creating Layer inception_4b/relu_1x1
I0403 15:28:04.050387 11985 net.cpp:425] inception_4b/relu_1x1 <- inception_4b/1x1
I0403 15:28:04.050405 11985 net.cpp:386] inception_4b/relu_1x1 -> inception_4b/1x1 (in-place)
I0403 15:28:04.050588 11985 net.cpp:141] Setting up inception_4b/relu_1x1
I0403 15:28:04.050612 11985 net.cpp:148] Top shape: 24 160 14 14 (752640)
I0403 15:28:04.050626 11985 net.cpp:156] Memory required for data: 952225056
I0403 15:28:04.050640 11985 layer_factory.hpp:77] Creating layer inception_4b/3x3_reduce
I0403 15:28:04.050664 11985 net.cpp:91] Creating Layer inception_4b/3x3_reduce
I0403 15:28:04.050683 11985 net.cpp:425] inception_4b/3x3_reduce <- inception_4a/output_inception_4a/output_0_split_2
I0403 15:28:04.050704 11985 net.cpp:399] inception_4b/3x3_reduce -> inception_4b/3x3_reduce
I0403 15:28:04.052057 11985 net.cpp:141] Setting up inception_4b/3x3_reduce
I0403 15:28:04.052083 11985 net.cpp:148] Top shape: 24 112 14 14 (526848)
I0403 15:28:04.052098 11985 net.cpp:156] Memory required for data: 954332448
I0403 15:28:04.052116 11985 layer_factory.hpp:77] Creating layer inception_4b/relu_3x3_reduce
I0403 15:28:04.052134 11985 net.cpp:91] Creating Layer inception_4b/relu_3x3_reduce
I0403 15:28:04.052150 11985 net.cpp:425] inception_4b/relu_3x3_reduce <- inception_4b/3x3_reduce
I0403 15:28:04.052181 11985 net.cpp:386] inception_4b/relu_3x3_reduce -> inception_4b/3x3_reduce (in-place)
I0403 15:28:04.052469 11985 net.cpp:141] Setting up inception_4b/relu_3x3_reduce
I0403 15:28:04.052495 11985 net.cpp:148] Top shape: 24 112 14 14 (526848)
I0403 15:28:04.052508 11985 net.cpp:156] Memory required for data: 956439840
I0403 15:28:04.052522 11985 layer_factory.hpp:77] Creating layer inception_4b/3x3
I0403 15:28:04.052546 11985 net.cpp:91] Creating Layer inception_4b/3x3
I0403 15:28:04.052563 11985 net.cpp:425] inception_4b/3x3 <- inception_4b/3x3_reduce
I0403 15:28:04.052583 11985 net.cpp:399] inception_4b/3x3 -> inception_4b/3x3
I0403 15:28:04.055496 11985 net.cpp:141] Setting up inception_4b/3x3
I0403 15:28:04.055524 11985 net.cpp:148] Top shape: 24 224 14 14 (1053696)
I0403 15:28:04.055541 11985 net.cpp:156] Memory required for data: 960654624
I0403 15:28:04.055557 11985 layer_factory.hpp:77] Creating layer inception_4b/relu_3x3
I0403 15:28:04.055577 11985 net.cpp:91] Creating Layer inception_4b/relu_3x3
I0403 15:28:04.055593 11985 net.cpp:425] inception_4b/relu_3x3 <- inception_4b/3x3
I0403 15:28:04.055609 11985 net.cpp:386] inception_4b/relu_3x3 -> inception_4b/3x3 (in-place)
I0403 15:28:04.055788 11985 net.cpp:141] Setting up inception_4b/relu_3x3
I0403 15:28:04.055814 11985 net.cpp:148] Top shape: 24 224 14 14 (1053696)
I0403 15:28:04.055827 11985 net.cpp:156] Memory required for data: 964869408
I0403 15:28:04.055841 11985 layer_factory.hpp:77] Creating layer inception_4b/5x5_reduce
I0403 15:28:04.055863 11985 net.cpp:91] Creating Layer inception_4b/5x5_reduce
I0403 15:28:04.055879 11985 net.cpp:425] inception_4b/5x5_reduce <- inception_4a/output_inception_4a/output_0_split_3
I0403 15:28:04.055897 11985 net.cpp:399] inception_4b/5x5_reduce -> inception_4b/5x5_reduce
I0403 15:28:04.057016 11985 net.cpp:141] Setting up inception_4b/5x5_reduce
I0403 15:28:04.057045 11985 net.cpp:148] Top shape: 24 24 14 14 (112896)
I0403 15:28:04.057061 11985 net.cpp:156] Memory required for data: 965320992
I0403 15:28:04.057078 11985 layer_factory.hpp:77] Creating layer inception_4b/relu_5x5_reduce
I0403 15:28:04.057096 11985 net.cpp:91] Creating Layer inception_4b/relu_5x5_reduce
I0403 15:28:04.057126 11985 net.cpp:425] inception_4b/relu_5x5_reduce <- inception_4b/5x5_reduce
I0403 15:28:04.057145 11985 net.cpp:386] inception_4b/relu_5x5_reduce -> inception_4b/5x5_reduce (in-place)
I0403 15:28:04.057327 11985 net.cpp:141] Setting up inception_4b/relu_5x5_reduce
I0403 15:28:04.057358 11985 net.cpp:148] Top shape: 24 24 14 14 (112896)
I0403 15:28:04.057374 11985 net.cpp:156] Memory required for data: 965772576
I0403 15:28:04.057387 11985 layer_factory.hpp:77] Creating layer inception_4b/5x5
I0403 15:28:04.057409 11985 net.cpp:91] Creating Layer inception_4b/5x5
I0403 15:28:04.057425 11985 net.cpp:425] inception_4b/5x5 <- inception_4b/5x5_reduce
I0403 15:28:04.057445 11985 net.cpp:399] inception_4b/5x5 -> inception_4b/5x5
I0403 15:28:04.058648 11985 net.cpp:141] Setting up inception_4b/5x5
I0403 15:28:04.058675 11985 net.cpp:148] Top shape: 24 64 14 14 (301056)
I0403 15:28:04.058689 11985 net.cpp:156] Memory required for data: 966976800
I0403 15:28:04.058706 11985 layer_factory.hpp:77] Creating layer inception_4b/relu_5x5
I0403 15:28:04.058725 11985 net.cpp:91] Creating Layer inception_4b/relu_5x5
I0403 15:28:04.058742 11985 net.cpp:425] inception_4b/relu_5x5 <- inception_4b/5x5
I0403 15:28:04.058758 11985 net.cpp:386] inception_4b/relu_5x5 -> inception_4b/5x5 (in-place)
I0403 15:28:04.059037 11985 net.cpp:141] Setting up inception_4b/relu_5x5
I0403 15:28:04.059062 11985 net.cpp:148] Top shape: 24 64 14 14 (301056)
I0403 15:28:04.059077 11985 net.cpp:156] Memory required for data: 968181024
I0403 15:28:04.059090 11985 layer_factory.hpp:77] Creating layer inception_4b/pool
I0403 15:28:04.059110 11985 net.cpp:91] Creating Layer inception_4b/pool
I0403 15:28:04.059126 11985 net.cpp:425] inception_4b/pool <- inception_4a/output_inception_4a/output_0_split_4
I0403 15:28:04.059145 11985 net.cpp:399] inception_4b/pool -> inception_4b/pool
I0403 15:28:04.059207 11985 net.cpp:141] Setting up inception_4b/pool
I0403 15:28:04.059229 11985 net.cpp:148] Top shape: 24 512 14 14 (2408448)
I0403 15:28:04.059242 11985 net.cpp:156] Memory required for data: 977814816
I0403 15:28:04.059255 11985 layer_factory.hpp:77] Creating layer inception_4b/pool_proj
I0403 15:28:04.059276 11985 net.cpp:91] Creating Layer inception_4b/pool_proj
I0403 15:28:04.059293 11985 net.cpp:425] inception_4b/pool_proj <- inception_4b/pool
I0403 15:28:04.059312 11985 net.cpp:399] inception_4b/pool_proj -> inception_4b/pool_proj
I0403 15:28:04.060500 11985 net.cpp:141] Setting up inception_4b/pool_proj
I0403 15:28:04.060528 11985 net.cpp:148] Top shape: 24 64 14 14 (301056)
I0403 15:28:04.060544 11985 net.cpp:156] Memory required for data: 979019040
I0403 15:28:04.060561 11985 layer_factory.hpp:77] Creating layer inception_4b/relu_pool_proj
I0403 15:28:04.060578 11985 net.cpp:91] Creating Layer inception_4b/relu_pool_proj
I0403 15:28:04.060593 11985 net.cpp:425] inception_4b/relu_pool_proj <- inception_4b/pool_proj
I0403 15:28:04.060612 11985 net.cpp:386] inception_4b/relu_pool_proj -> inception_4b/pool_proj (in-place)
I0403 15:28:04.060789 11985 net.cpp:141] Setting up inception_4b/relu_pool_proj
I0403 15:28:04.060813 11985 net.cpp:148] Top shape: 24 64 14 14 (301056)
I0403 15:28:04.060827 11985 net.cpp:156] Memory required for data: 980223264
I0403 15:28:04.060840 11985 layer_factory.hpp:77] Creating layer inception_4b/output
I0403 15:28:04.060858 11985 net.cpp:91] Creating Layer inception_4b/output
I0403 15:28:04.060871 11985 net.cpp:425] inception_4b/output <- inception_4b/1x1
I0403 15:28:04.060888 11985 net.cpp:425] inception_4b/output <- inception_4b/3x3
I0403 15:28:04.060902 11985 net.cpp:425] inception_4b/output <- inception_4b/5x5
I0403 15:28:04.060917 11985 net.cpp:425] inception_4b/output <- inception_4b/pool_proj
I0403 15:28:04.060935 11985 net.cpp:399] inception_4b/output -> inception_4b/output
I0403 15:28:04.060979 11985 net.cpp:141] Setting up inception_4b/output
I0403 15:28:04.061004 11985 net.cpp:148] Top shape: 24 512 14 14 (2408448)
I0403 15:28:04.061019 11985 net.cpp:156] Memory required for data: 989857056
I0403 15:28:04.061048 11985 layer_factory.hpp:77] Creating layer inception_4b/output_inception_4b/output_0_split
I0403 15:28:04.061064 11985 net.cpp:91] Creating Layer inception_4b/output_inception_4b/output_0_split
I0403 15:28:04.061079 11985 net.cpp:425] inception_4b/output_inception_4b/output_0_split <- inception_4b/output
I0403 15:28:04.061096 11985 net.cpp:399] inception_4b/output_inception_4b/output_0_split -> inception_4b/output_inception_4b/output_0_split_0
I0403 15:28:04.061117 11985 net.cpp:399] inception_4b/output_inception_4b/output_0_split -> inception_4b/output_inception_4b/output_0_split_1
I0403 15:28:04.061137 11985 net.cpp:399] inception_4b/output_inception_4b/output_0_split -> inception_4b/output_inception_4b/output_0_split_2
I0403 15:28:04.061156 11985 net.cpp:399] inception_4b/output_inception_4b/output_0_split -> inception_4b/output_inception_4b/output_0_split_3
I0403 15:28:04.061236 11985 net.cpp:141] Setting up inception_4b/output_inception_4b/output_0_split
I0403 15:28:04.061257 11985 net.cpp:148] Top shape: 24 512 14 14 (2408448)
I0403 15:28:04.061272 11985 net.cpp:148] Top shape: 24 512 14 14 (2408448)
I0403 15:28:04.061287 11985 net.cpp:148] Top shape: 24 512 14 14 (2408448)
I0403 15:28:04.061301 11985 net.cpp:148] Top shape: 24 512 14 14 (2408448)
I0403 15:28:04.061316 11985 net.cpp:156] Memory required for data: 1028392224
I0403 15:28:04.061328 11985 layer_factory.hpp:77] Creating layer inception_4c/1x1
I0403 15:28:04.061357 11985 net.cpp:91] Creating Layer inception_4c/1x1
I0403 15:28:04.061374 11985 net.cpp:425] inception_4c/1x1 <- inception_4b/output_inception_4b/output_0_split_0
I0403 15:28:04.061404 11985 net.cpp:399] inception_4c/1x1 -> inception_4c/1x1
I0403 15:28:04.062824 11985 net.cpp:141] Setting up inception_4c/1x1
I0403 15:28:04.062851 11985 net.cpp:148] Top shape: 24 128 14 14 (602112)
I0403 15:28:04.062866 11985 net.cpp:156] Memory required for data: 1030800672
I0403 15:28:04.062883 11985 layer_factory.hpp:77] Creating layer inception_4c/relu_1x1
I0403 15:28:04.062901 11985 net.cpp:91] Creating Layer inception_4c/relu_1x1
I0403 15:28:04.062916 11985 net.cpp:425] inception_4c/relu_1x1 <- inception_4c/1x1
I0403 15:28:04.062934 11985 net.cpp:386] inception_4c/relu_1x1 -> inception_4c/1x1 (in-place)
I0403 15:28:04.063112 11985 net.cpp:141] Setting up inception_4c/relu_1x1
I0403 15:28:04.063135 11985 net.cpp:148] Top shape: 24 128 14 14 (602112)
I0403 15:28:04.063149 11985 net.cpp:156] Memory required for data: 1033209120
I0403 15:28:04.063163 11985 layer_factory.hpp:77] Creating layer inception_4c/3x3_reduce
I0403 15:28:04.063184 11985 net.cpp:91] Creating Layer inception_4c/3x3_reduce
I0403 15:28:04.063200 11985 net.cpp:425] inception_4c/3x3_reduce <- inception_4b/output_inception_4b/output_0_split_1
I0403 15:28:04.063222 11985 net.cpp:399] inception_4c/3x3_reduce -> inception_4c/3x3_reduce
I0403 15:28:04.065168 11985 net.cpp:141] Setting up inception_4c/3x3_reduce
I0403 15:28:04.065199 11985 net.cpp:148] Top shape: 24 128 14 14 (602112)
I0403 15:28:04.065227 11985 net.cpp:156] Memory required for data: 1035617568
I0403 15:28:04.065243 11985 layer_factory.hpp:77] Creating layer inception_4c/relu_3x3_reduce
I0403 15:28:04.065261 11985 net.cpp:91] Creating Layer inception_4c/relu_3x3_reduce
I0403 15:28:04.065276 11985 net.cpp:425] inception_4c/relu_3x3_reduce <- inception_4c/3x3_reduce
I0403 15:28:04.065291 11985 net.cpp:386] inception_4c/relu_3x3_reduce -> inception_4c/3x3_reduce (in-place)
I0403 15:28:04.065579 11985 net.cpp:141] Setting up inception_4c/relu_3x3_reduce
I0403 15:28:04.065608 11985 net.cpp:148] Top shape: 24 128 14 14 (602112)
I0403 15:28:04.065623 11985 net.cpp:156] Memory required for data: 1038026016
I0403 15:28:04.065636 11985 layer_factory.hpp:77] Creating layer inception_4c/3x3
I0403 15:28:04.065655 11985 net.cpp:91] Creating Layer inception_4c/3x3
I0403 15:28:04.065670 11985 net.cpp:425] inception_4c/3x3 <- inception_4c/3x3_reduce
I0403 15:28:04.065691 11985 net.cpp:399] inception_4c/3x3 -> inception_4c/3x3
I0403 15:28:04.069200 11985 net.cpp:141] Setting up inception_4c/3x3
I0403 15:28:04.069241 11985 net.cpp:148] Top shape: 24 256 14 14 (1204224)
I0403 15:28:04.069257 11985 net.cpp:156] Memory required for data: 1042842912
I0403 15:28:04.069288 11985 layer_factory.hpp:77] Creating layer inception_4c/relu_3x3
I0403 15:28:04.069306 11985 net.cpp:91] Creating Layer inception_4c/relu_3x3
I0403 15:28:04.069322 11985 net.cpp:425] inception_4c/relu_3x3 <- inception_4c/3x3
I0403 15:28:04.069341 11985 net.cpp:386] inception_4c/relu_3x3 -> inception_4c/3x3 (in-place)
I0403 15:28:04.069541 11985 net.cpp:141] Setting up inception_4c/relu_3x3
I0403 15:28:04.069568 11985 net.cpp:148] Top shape: 24 256 14 14 (1204224)
I0403 15:28:04.069583 11985 net.cpp:156] Memory required for data: 1047659808
I0403 15:28:04.069598 11985 layer_factory.hpp:77] Creating layer inception_4c/5x5_reduce
I0403 15:28:04.069620 11985 net.cpp:91] Creating Layer inception_4c/5x5_reduce
I0403 15:28:04.069638 11985 net.cpp:425] inception_4c/5x5_reduce <- inception_4b/output_inception_4b/output_0_split_2
I0403 15:28:04.069656 11985 net.cpp:399] inception_4c/5x5_reduce -> inception_4c/5x5_reduce
I0403 15:28:04.070767 11985 net.cpp:141] Setting up inception_4c/5x5_reduce
I0403 15:28:04.070796 11985 net.cpp:148] Top shape: 24 24 14 14 (112896)
I0403 15:28:04.070813 11985 net.cpp:156] Memory required for data: 1048111392
I0403 15:28:04.070830 11985 layer_factory.hpp:77] Creating layer inception_4c/relu_5x5_reduce
I0403 15:28:04.070847 11985 net.cpp:91] Creating Layer inception_4c/relu_5x5_reduce
I0403 15:28:04.070863 11985 net.cpp:425] inception_4c/relu_5x5_reduce <- inception_4c/5x5_reduce
I0403 15:28:04.070879 11985 net.cpp:386] inception_4c/relu_5x5_reduce -> inception_4c/5x5_reduce (in-place)
I0403 15:28:04.071061 11985 net.cpp:141] Setting up inception_4c/relu_5x5_reduce
I0403 15:28:04.071085 11985 net.cpp:148] Top shape: 24 24 14 14 (112896)
I0403 15:28:04.071099 11985 net.cpp:156] Memory required for data: 1048562976
I0403 15:28:04.071113 11985 layer_factory.hpp:77] Creating layer inception_4c/5x5
I0403 15:28:04.071135 11985 net.cpp:91] Creating Layer inception_4c/5x5
I0403 15:28:04.071152 11985 net.cpp:425] inception_4c/5x5 <- inception_4c/5x5_reduce
I0403 15:28:04.071172 11985 net.cpp:399] inception_4c/5x5 -> inception_4c/5x5
I0403 15:28:04.072407 11985 net.cpp:141] Setting up inception_4c/5x5
I0403 15:28:04.072434 11985 net.cpp:148] Top shape: 24 64 14 14 (301056)
I0403 15:28:04.072449 11985 net.cpp:156] Memory required for data: 1049767200
I0403 15:28:04.072466 11985 layer_factory.hpp:77] Creating layer inception_4c/relu_5x5
I0403 15:28:04.072484 11985 net.cpp:91] Creating Layer inception_4c/relu_5x5
I0403 15:28:04.072500 11985 net.cpp:425] inception_4c/relu_5x5 <- inception_4c/5x5
I0403 15:28:04.072520 11985 net.cpp:386] inception_4c/relu_5x5 -> inception_4c/5x5 (in-place)
I0403 15:28:04.072823 11985 net.cpp:141] Setting up inception_4c/relu_5x5
I0403 15:28:04.072849 11985 net.cpp:148] Top shape: 24 64 14 14 (301056)
I0403 15:28:04.072862 11985 net.cpp:156] Memory required for data: 1050971424
I0403 15:28:04.072876 11985 layer_factory.hpp:77] Creating layer inception_4c/pool
I0403 15:28:04.072893 11985 net.cpp:91] Creating Layer inception_4c/pool
I0403 15:28:04.072908 11985 net.cpp:425] inception_4c/pool <- inception_4b/output_inception_4b/output_0_split_3
I0403 15:28:04.072928 11985 net.cpp:399] inception_4c/pool -> inception_4c/pool
I0403 15:28:04.072993 11985 net.cpp:141] Setting up inception_4c/pool
I0403 15:28:04.073014 11985 net.cpp:148] Top shape: 24 512 14 14 (2408448)
I0403 15:28:04.073029 11985 net.cpp:156] Memory required for data: 1060605216
I0403 15:28:04.073041 11985 layer_factory.hpp:77] Creating layer inception_4c/pool_proj
I0403 15:28:04.073065 11985 net.cpp:91] Creating Layer inception_4c/pool_proj
I0403 15:28:04.073081 11985 net.cpp:425] inception_4c/pool_proj <- inception_4c/pool
I0403 15:28:04.073097 11985 net.cpp:399] inception_4c/pool_proj -> inception_4c/pool_proj
I0403 15:28:04.074297 11985 net.cpp:141] Setting up inception_4c/pool_proj
I0403 15:28:04.074326 11985 net.cpp:148] Top shape: 24 64 14 14 (301056)
I0403 15:28:04.074360 11985 net.cpp:156] Memory required for data: 1061809440
I0403 15:28:04.074380 11985 layer_factory.hpp:77] Creating layer inception_4c/relu_pool_proj
I0403 15:28:04.074398 11985 net.cpp:91] Creating Layer inception_4c/relu_pool_proj
I0403 15:28:04.074412 11985 net.cpp:425] inception_4c/relu_pool_proj <- inception_4c/pool_proj
I0403 15:28:04.074431 11985 net.cpp:386] inception_4c/relu_pool_proj -> inception_4c/pool_proj (in-place)
I0403 15:28:04.074610 11985 net.cpp:141] Setting up inception_4c/relu_pool_proj
I0403 15:28:04.074635 11985 net.cpp:148] Top shape: 24 64 14 14 (301056)
I0403 15:28:04.074648 11985 net.cpp:156] Memory required for data: 1063013664
I0403 15:28:04.074662 11985 layer_factory.hpp:77] Creating layer inception_4c/output
I0403 15:28:04.074678 11985 net.cpp:91] Creating Layer inception_4c/output
I0403 15:28:04.074692 11985 net.cpp:425] inception_4c/output <- inception_4c/1x1
I0403 15:28:04.074707 11985 net.cpp:425] inception_4c/output <- inception_4c/3x3
I0403 15:28:04.074723 11985 net.cpp:425] inception_4c/output <- inception_4c/5x5
I0403 15:28:04.074738 11985 net.cpp:425] inception_4c/output <- inception_4c/pool_proj
I0403 15:28:04.074756 11985 net.cpp:399] inception_4c/output -> inception_4c/output
I0403 15:28:04.074801 11985 net.cpp:141] Setting up inception_4c/output
I0403 15:28:04.074828 11985 net.cpp:148] Top shape: 24 512 14 14 (2408448)
I0403 15:28:04.074842 11985 net.cpp:156] Memory required for data: 1072647456
I0403 15:28:04.074856 11985 layer_factory.hpp:77] Creating layer inception_4c/output_inception_4c/output_0_split
I0403 15:28:04.074872 11985 net.cpp:91] Creating Layer inception_4c/output_inception_4c/output_0_split
I0403 15:28:04.074887 11985 net.cpp:425] inception_4c/output_inception_4c/output_0_split <- inception_4c/output
I0403 15:28:04.074903 11985 net.cpp:399] inception_4c/output_inception_4c/output_0_split -> inception_4c/output_inception_4c/output_0_split_0
I0403 15:28:04.074921 11985 net.cpp:399] inception_4c/output_inception_4c/output_0_split -> inception_4c/output_inception_4c/output_0_split_1
I0403 15:28:04.074942 11985 net.cpp:399] inception_4c/output_inception_4c/output_0_split -> inception_4c/output_inception_4c/output_0_split_2
I0403 15:28:04.074962 11985 net.cpp:399] inception_4c/output_inception_4c/output_0_split -> inception_4c/output_inception_4c/output_0_split_3
I0403 15:28:04.075045 11985 net.cpp:141] Setting up inception_4c/output_inception_4c/output_0_split
I0403 15:28:04.075067 11985 net.cpp:148] Top shape: 24 512 14 14 (2408448)
I0403 15:28:04.075083 11985 net.cpp:148] Top shape: 24 512 14 14 (2408448)
I0403 15:28:04.075096 11985 net.cpp:148] Top shape: 24 512 14 14 (2408448)
I0403 15:28:04.075110 11985 net.cpp:148] Top shape: 24 512 14 14 (2408448)
I0403 15:28:04.075124 11985 net.cpp:156] Memory required for data: 1111182624
I0403 15:28:04.075137 11985 layer_factory.hpp:77] Creating layer inception_4d/1x1
I0403 15:28:04.075158 11985 net.cpp:91] Creating Layer inception_4d/1x1
I0403 15:28:04.075176 11985 net.cpp:425] inception_4d/1x1 <- inception_4c/output_inception_4c/output_0_split_0
I0403 15:28:04.075196 11985 net.cpp:399] inception_4d/1x1 -> inception_4d/1x1
I0403 15:28:04.076558 11985 net.cpp:141] Setting up inception_4d/1x1
I0403 15:28:04.076584 11985 net.cpp:148] Top shape: 24 112 14 14 (526848)
I0403 15:28:04.076599 11985 net.cpp:156] Memory required for data: 1113290016
I0403 15:28:04.076617 11985 layer_factory.hpp:77] Creating layer inception_4d/relu_1x1
I0403 15:28:04.076637 11985 net.cpp:91] Creating Layer inception_4d/relu_1x1
I0403 15:28:04.076653 11985 net.cpp:425] inception_4d/relu_1x1 <- inception_4d/1x1
I0403 15:28:04.076669 11985 net.cpp:386] inception_4d/relu_1x1 -> inception_4d/1x1 (in-place)
I0403 15:28:04.076849 11985 net.cpp:141] Setting up inception_4d/relu_1x1
I0403 15:28:04.076875 11985 net.cpp:148] Top shape: 24 112 14 14 (526848)
I0403 15:28:04.076889 11985 net.cpp:156] Memory required for data: 1115397408
I0403 15:28:04.076905 11985 layer_factory.hpp:77] Creating layer inception_4d/3x3_reduce
I0403 15:28:04.076941 11985 net.cpp:91] Creating Layer inception_4d/3x3_reduce
I0403 15:28:04.076957 11985 net.cpp:425] inception_4d/3x3_reduce <- inception_4c/output_inception_4c/output_0_split_1
I0403 15:28:04.076977 11985 net.cpp:399] inception_4d/3x3_reduce -> inception_4d/3x3_reduce
I0403 15:28:04.078595 11985 net.cpp:141] Setting up inception_4d/3x3_reduce
I0403 15:28:04.078624 11985 net.cpp:148] Top shape: 24 144 14 14 (677376)
I0403 15:28:04.078639 11985 net.cpp:156] Memory required for data: 1118106912
I0403 15:28:04.078657 11985 layer_factory.hpp:77] Creating layer inception_4d/relu_3x3_reduce
I0403 15:28:04.078677 11985 net.cpp:91] Creating Layer inception_4d/relu_3x3_reduce
I0403 15:28:04.078706 11985 net.cpp:425] inception_4d/relu_3x3_reduce <- inception_4d/3x3_reduce
I0403 15:28:04.078723 11985 net.cpp:386] inception_4d/relu_3x3_reduce -> inception_4d/3x3_reduce (in-place)
I0403 15:28:04.079017 11985 net.cpp:141] Setting up inception_4d/relu_3x3_reduce
I0403 15:28:04.079043 11985 net.cpp:148] Top shape: 24 144 14 14 (677376)
I0403 15:28:04.079057 11985 net.cpp:156] Memory required for data: 1120816416
I0403 15:28:04.079072 11985 layer_factory.hpp:77] Creating layer inception_4d/3x3
I0403 15:28:04.079094 11985 net.cpp:91] Creating Layer inception_4d/3x3
I0403 15:28:04.079112 11985 net.cpp:425] inception_4d/3x3 <- inception_4d/3x3_reduce
I0403 15:28:04.079133 11985 net.cpp:399] inception_4d/3x3 -> inception_4d/3x3
I0403 15:28:04.083489 11985 net.cpp:141] Setting up inception_4d/3x3
I0403 15:28:04.083518 11985 net.cpp:148] Top shape: 24 288 14 14 (1354752)
I0403 15:28:04.083534 11985 net.cpp:156] Memory required for data: 1126235424
I0403 15:28:04.083551 11985 layer_factory.hpp:77] Creating layer inception_4d/relu_3x3
I0403 15:28:04.083571 11985 net.cpp:91] Creating Layer inception_4d/relu_3x3
I0403 15:28:04.083588 11985 net.cpp:425] inception_4d/relu_3x3 <- inception_4d/3x3
I0403 15:28:04.083606 11985 net.cpp:386] inception_4d/relu_3x3 -> inception_4d/3x3 (in-place)
I0403 15:28:04.083796 11985 net.cpp:141] Setting up inception_4d/relu_3x3
I0403 15:28:04.083823 11985 net.cpp:148] Top shape: 24 288 14 14 (1354752)
I0403 15:28:04.083838 11985 net.cpp:156] Memory required for data: 1131654432
I0403 15:28:04.083853 11985 layer_factory.hpp:77] Creating layer inception_4d/5x5_reduce
I0403 15:28:04.083874 11985 net.cpp:91] Creating Layer inception_4d/5x5_reduce
I0403 15:28:04.083891 11985 net.cpp:425] inception_4d/5x5_reduce <- inception_4c/output_inception_4c/output_0_split_2
I0403 15:28:04.083910 11985 net.cpp:399] inception_4d/5x5_reduce -> inception_4d/5x5_reduce
I0403 15:28:04.085093 11985 net.cpp:141] Setting up inception_4d/5x5_reduce
I0403 15:28:04.085120 11985 net.cpp:148] Top shape: 24 32 14 14 (150528)
I0403 15:28:04.085136 11985 net.cpp:156] Memory required for data: 1132256544
I0403 15:28:04.085153 11985 layer_factory.hpp:77] Creating layer inception_4d/relu_5x5_reduce
I0403 15:28:04.085173 11985 net.cpp:91] Creating Layer inception_4d/relu_5x5_reduce
I0403 15:28:04.085191 11985 net.cpp:425] inception_4d/relu_5x5_reduce <- inception_4d/5x5_reduce
I0403 15:28:04.085208 11985 net.cpp:386] inception_4d/relu_5x5_reduce -> inception_4d/5x5_reduce (in-place)
I0403 15:28:04.085414 11985 net.cpp:141] Setting up inception_4d/relu_5x5_reduce
I0403 15:28:04.085443 11985 net.cpp:148] Top shape: 24 32 14 14 (150528)
I0403 15:28:04.085458 11985 net.cpp:156] Memory required for data: 1132858656
I0403 15:28:04.085474 11985 layer_factory.hpp:77] Creating layer inception_4d/5x5
I0403 15:28:04.085495 11985 net.cpp:91] Creating Layer inception_4d/5x5
I0403 15:28:04.085512 11985 net.cpp:425] inception_4d/5x5 <- inception_4d/5x5_reduce
I0403 15:28:04.085531 11985 net.cpp:399] inception_4d/5x5 -> inception_4d/5x5
I0403 15:28:04.087028 11985 net.cpp:141] Setting up inception_4d/5x5
I0403 15:28:04.087055 11985 net.cpp:148] Top shape: 24 64 14 14 (301056)
I0403 15:28:04.087070 11985 net.cpp:156] Memory required for data: 1134062880
I0403 15:28:04.087088 11985 layer_factory.hpp:77] Creating layer inception_4d/relu_5x5
I0403 15:28:04.087121 11985 net.cpp:91] Creating Layer inception_4d/relu_5x5
I0403 15:28:04.087138 11985 net.cpp:425] inception_4d/relu_5x5 <- inception_4d/5x5
I0403 15:28:04.087157 11985 net.cpp:386] inception_4d/relu_5x5 -> inception_4d/5x5 (in-place)
I0403 15:28:04.087466 11985 net.cpp:141] Setting up inception_4d/relu_5x5
I0403 15:28:04.087491 11985 net.cpp:148] Top shape: 24 64 14 14 (301056)
I0403 15:28:04.087505 11985 net.cpp:156] Memory required for data: 1135267104
I0403 15:28:04.087520 11985 layer_factory.hpp:77] Creating layer inception_4d/pool
I0403 15:28:04.087538 11985 net.cpp:91] Creating Layer inception_4d/pool
I0403 15:28:04.087554 11985 net.cpp:425] inception_4d/pool <- inception_4c/output_inception_4c/output_0_split_3
I0403 15:28:04.087574 11985 net.cpp:399] inception_4d/pool -> inception_4d/pool
I0403 15:28:04.087641 11985 net.cpp:141] Setting up inception_4d/pool
I0403 15:28:04.087663 11985 net.cpp:148] Top shape: 24 512 14 14 (2408448)
I0403 15:28:04.087677 11985 net.cpp:156] Memory required for data: 1144900896
I0403 15:28:04.087692 11985 layer_factory.hpp:77] Creating layer inception_4d/pool_proj
I0403 15:28:04.087714 11985 net.cpp:91] Creating Layer inception_4d/pool_proj
I0403 15:28:04.087731 11985 net.cpp:425] inception_4d/pool_proj <- inception_4d/pool
I0403 15:28:04.087749 11985 net.cpp:399] inception_4d/pool_proj -> inception_4d/pool_proj
I0403 15:28:04.089560 11985 net.cpp:141] Setting up inception_4d/pool_proj
I0403 15:28:04.089587 11985 net.cpp:148] Top shape: 24 64 14 14 (301056)
I0403 15:28:04.089602 11985 net.cpp:156] Memory required for data: 1146105120
I0403 15:28:04.089620 11985 layer_factory.hpp:77] Creating layer inception_4d/relu_pool_proj
I0403 15:28:04.089640 11985 net.cpp:91] Creating Layer inception_4d/relu_pool_proj
I0403 15:28:04.089658 11985 net.cpp:425] inception_4d/relu_pool_proj <- inception_4d/pool_proj
I0403 15:28:04.089673 11985 net.cpp:386] inception_4d/relu_pool_proj -> inception_4d/pool_proj (in-place)
I0403 15:28:04.089860 11985 net.cpp:141] Setting up inception_4d/relu_pool_proj
I0403 15:28:04.089886 11985 net.cpp:148] Top shape: 24 64 14 14 (301056)
I0403 15:28:04.089901 11985 net.cpp:156] Memory required for data: 1147309344
I0403 15:28:04.089915 11985 layer_factory.hpp:77] Creating layer inception_4d/output
I0403 15:28:04.089932 11985 net.cpp:91] Creating Layer inception_4d/output
I0403 15:28:04.089947 11985 net.cpp:425] inception_4d/output <- inception_4d/1x1
I0403 15:28:04.089963 11985 net.cpp:425] inception_4d/output <- inception_4d/3x3
I0403 15:28:04.089978 11985 net.cpp:425] inception_4d/output <- inception_4d/5x5
I0403 15:28:04.089993 11985 net.cpp:425] inception_4d/output <- inception_4d/pool_proj
I0403 15:28:04.090013 11985 net.cpp:399] inception_4d/output -> inception_4d/output
I0403 15:28:04.090059 11985 net.cpp:141] Setting up inception_4d/output
I0403 15:28:04.090081 11985 net.cpp:148] Top shape: 24 528 14 14 (2483712)
I0403 15:28:04.090095 11985 net.cpp:156] Memory required for data: 1157244192
I0403 15:28:04.090108 11985 layer_factory.hpp:77] Creating layer inception_4d/output_inception_4d/output_0_split
I0403 15:28:04.090129 11985 net.cpp:91] Creating Layer inception_4d/output_inception_4d/output_0_split
I0403 15:28:04.090145 11985 net.cpp:425] inception_4d/output_inception_4d/output_0_split <- inception_4d/output
I0403 15:28:04.090162 11985 net.cpp:399] inception_4d/output_inception_4d/output_0_split -> inception_4d/output_inception_4d/output_0_split_0
I0403 15:28:04.090183 11985 net.cpp:399] inception_4d/output_inception_4d/output_0_split -> inception_4d/output_inception_4d/output_0_split_1
I0403 15:28:04.090207 11985 net.cpp:399] inception_4d/output_inception_4d/output_0_split -> inception_4d/output_inception_4d/output_0_split_2
I0403 15:28:04.090226 11985 net.cpp:399] inception_4d/output_inception_4d/output_0_split -> inception_4d/output_inception_4d/output_0_split_3
I0403 15:28:04.090245 11985 net.cpp:399] inception_4d/output_inception_4d/output_0_split -> inception_4d/output_inception_4d/output_0_split_4
I0403 15:28:04.090343 11985 net.cpp:141] Setting up inception_4d/output_inception_4d/output_0_split
I0403 15:28:04.090385 11985 net.cpp:148] Top shape: 24 528 14 14 (2483712)
I0403 15:28:04.090401 11985 net.cpp:148] Top shape: 24 528 14 14 (2483712)
I0403 15:28:04.090415 11985 net.cpp:148] Top shape: 24 528 14 14 (2483712)
I0403 15:28:04.090430 11985 net.cpp:148] Top shape: 24 528 14 14 (2483712)
I0403 15:28:04.090445 11985 net.cpp:148] Top shape: 24 528 14 14 (2483712)
I0403 15:28:04.090457 11985 net.cpp:156] Memory required for data: 1206918432
I0403 15:28:04.090472 11985 layer_factory.hpp:77] Creating layer loss2/ave_pool
I0403 15:28:04.090492 11985 net.cpp:91] Creating Layer loss2/ave_pool
I0403 15:28:04.090507 11985 net.cpp:425] loss2/ave_pool <- inception_4d/output_inception_4d/output_0_split_0
I0403 15:28:04.090525 11985 net.cpp:399] loss2/ave_pool -> loss2/ave_pool
I0403 15:28:04.090840 11985 net.cpp:141] Setting up loss2/ave_pool
I0403 15:28:04.090867 11985 net.cpp:148] Top shape: 24 528 4 4 (202752)
I0403 15:28:04.090880 11985 net.cpp:156] Memory required for data: 1207729440
I0403 15:28:04.090895 11985 layer_factory.hpp:77] Creating layer loss2/conv
I0403 15:28:04.090917 11985 net.cpp:91] Creating Layer loss2/conv
I0403 15:28:04.090934 11985 net.cpp:425] loss2/conv <- loss2/ave_pool
I0403 15:28:04.090955 11985 net.cpp:399] loss2/conv -> loss2/conv
I0403 15:28:04.092881 11985 net.cpp:141] Setting up loss2/conv
I0403 15:28:04.092912 11985 net.cpp:148] Top shape: 24 128 4 4 (49152)
I0403 15:28:04.092928 11985 net.cpp:156] Memory required for data: 1207926048
I0403 15:28:04.092947 11985 layer_factory.hpp:77] Creating layer loss2/relu_conv
I0403 15:28:04.092965 11985 net.cpp:91] Creating Layer loss2/relu_conv
I0403 15:28:04.092981 11985 net.cpp:425] loss2/relu_conv <- loss2/conv
I0403 15:28:04.093000 11985 net.cpp:386] loss2/relu_conv -> loss2/conv (in-place)
I0403 15:28:04.093289 11985 net.cpp:141] Setting up loss2/relu_conv
I0403 15:28:04.093317 11985 net.cpp:148] Top shape: 24 128 4 4 (49152)
I0403 15:28:04.093333 11985 net.cpp:156] Memory required for data: 1208122656
I0403 15:28:04.093353 11985 layer_factory.hpp:77] Creating layer loss2/fc
I0403 15:28:04.093372 11985 net.cpp:91] Creating Layer loss2/fc
I0403 15:28:04.093389 11985 net.cpp:425] loss2/fc <- loss2/conv
I0403 15:28:04.093410 11985 net.cpp:399] loss2/fc -> loss2/fc
I0403 15:28:04.111249 11985 net.cpp:141] Setting up loss2/fc
I0403 15:28:04.111285 11985 net.cpp:148] Top shape: 24 1024 (24576)
I0403 15:28:04.111301 11985 net.cpp:156] Memory required for data: 1208220960
I0403 15:28:04.111320 11985 layer_factory.hpp:77] Creating layer loss2/relu_fc
I0403 15:28:04.111341 11985 net.cpp:91] Creating Layer loss2/relu_fc
I0403 15:28:04.111366 11985 net.cpp:425] loss2/relu_fc <- loss2/fc
I0403 15:28:04.111384 11985 net.cpp:386] loss2/relu_fc -> loss2/fc (in-place)
I0403 15:28:04.111719 11985 net.cpp:141] Setting up loss2/relu_fc
I0403 15:28:04.111745 11985 net.cpp:148] Top shape: 24 1024 (24576)
I0403 15:28:04.111760 11985 net.cpp:156] Memory required for data: 1208319264
I0403 15:28:04.111775 11985 layer_factory.hpp:77] Creating layer loss2/drop_fc
I0403 15:28:04.111795 11985 net.cpp:91] Creating Layer loss2/drop_fc
I0403 15:28:04.111812 11985 net.cpp:425] loss2/drop_fc <- loss2/fc
I0403 15:28:04.111829 11985 net.cpp:386] loss2/drop_fc -> loss2/fc (in-place)
I0403 15:28:04.111882 11985 net.cpp:141] Setting up loss2/drop_fc
I0403 15:28:04.111906 11985 net.cpp:148] Top shape: 24 1024 (24576)
I0403 15:28:04.111919 11985 net.cpp:156] Memory required for data: 1208417568
I0403 15:28:04.111933 11985 layer_factory.hpp:77] Creating layer loss2/classifier_plantvillage
I0403 15:28:04.111955 11985 net.cpp:91] Creating Layer loss2/classifier_plantvillage
I0403 15:28:04.111971 11985 net.cpp:425] loss2/classifier_plantvillage <- loss2/fc
I0403 15:28:04.111989 11985 net.cpp:399] loss2/classifier_plantvillage -> loss2/classifier_plantvillage
I0403 15:28:04.112427 11985 net.cpp:141] Setting up loss2/classifier_plantvillage
I0403 15:28:04.112453 11985 net.cpp:148] Top shape: 24 38 (912)
I0403 15:28:04.112488 11985 net.cpp:156] Memory required for data: 1208421216
I0403 15:28:04.112509 11985 layer_factory.hpp:77] Creating layer loss2/classifier_plantvillage_loss2/classifier_plantvillage_0_split
I0403 15:28:04.112527 11985 net.cpp:91] Creating Layer loss2/classifier_plantvillage_loss2/classifier_plantvillage_0_split
I0403 15:28:04.112545 11985 net.cpp:425] loss2/classifier_plantvillage_loss2/classifier_plantvillage_0_split <- loss2/classifier_plantvillage
I0403 15:28:04.112563 11985 net.cpp:399] loss2/classifier_plantvillage_loss2/classifier_plantvillage_0_split -> loss2/classifier_plantvillage_loss2/classifier_plantvillage_0_split_0
I0403 15:28:04.112586 11985 net.cpp:399] loss2/classifier_plantvillage_loss2/classifier_plantvillage_0_split -> loss2/classifier_plantvillage_loss2/classifier_plantvillage_0_split_1
I0403 15:28:04.112607 11985 net.cpp:399] loss2/classifier_plantvillage_loss2/classifier_plantvillage_0_split -> loss2/classifier_plantvillage_loss2/classifier_plantvillage_0_split_2
I0403 15:28:04.112695 11985 net.cpp:141] Setting up loss2/classifier_plantvillage_loss2/classifier_plantvillage_0_split
I0403 15:28:04.112720 11985 net.cpp:148] Top shape: 24 38 (912)
I0403 15:28:04.112737 11985 net.cpp:148] Top shape: 24 38 (912)
I0403 15:28:04.112752 11985 net.cpp:148] Top shape: 24 38 (912)
I0403 15:28:04.112766 11985 net.cpp:156] Memory required for data: 1208432160
I0403 15:28:04.112781 11985 layer_factory.hpp:77] Creating layer inception_4e/1x1
I0403 15:28:04.112799 11985 net.cpp:91] Creating Layer inception_4e/1x1
I0403 15:28:04.112817 11985 net.cpp:425] inception_4e/1x1 <- inception_4d/output_inception_4d/output_0_split_1
I0403 15:28:04.112835 11985 net.cpp:399] inception_4e/1x1 -> inception_4e/1x1
I0403 15:28:04.114701 11985 net.cpp:141] Setting up inception_4e/1x1
I0403 15:28:04.114728 11985 net.cpp:148] Top shape: 24 256 14 14 (1204224)
I0403 15:28:04.114743 11985 net.cpp:156] Memory required for data: 1213249056
I0403 15:28:04.114761 11985 layer_factory.hpp:77] Creating layer inception_4e/relu_1x1
I0403 15:28:04.114778 11985 net.cpp:91] Creating Layer inception_4e/relu_1x1
I0403 15:28:04.114794 11985 net.cpp:425] inception_4e/relu_1x1 <- inception_4e/1x1
I0403 15:28:04.114816 11985 net.cpp:386] inception_4e/relu_1x1 -> inception_4e/1x1 (in-place)
I0403 15:28:04.115115 11985 net.cpp:141] Setting up inception_4e/relu_1x1
I0403 15:28:04.115141 11985 net.cpp:148] Top shape: 24 256 14 14 (1204224)
I0403 15:28:04.115156 11985 net.cpp:156] Memory required for data: 1218065952
I0403 15:28:04.115170 11985 layer_factory.hpp:77] Creating layer inception_4e/3x3_reduce
I0403 15:28:04.115192 11985 net.cpp:91] Creating Layer inception_4e/3x3_reduce
I0403 15:28:04.115208 11985 net.cpp:425] inception_4e/3x3_reduce <- inception_4d/output_inception_4d/output_0_split_2
I0403 15:28:04.115229 11985 net.cpp:399] inception_4e/3x3_reduce -> inception_4e/3x3_reduce
I0403 15:28:04.117422 11985 net.cpp:141] Setting up inception_4e/3x3_reduce
I0403 15:28:04.117455 11985 net.cpp:148] Top shape: 24 160 14 14 (752640)
I0403 15:28:04.117471 11985 net.cpp:156] Memory required for data: 1221076512
I0403 15:28:04.117489 11985 layer_factory.hpp:77] Creating layer inception_4e/relu_3x3_reduce
I0403 15:28:04.117507 11985 net.cpp:91] Creating Layer inception_4e/relu_3x3_reduce
I0403 15:28:04.117523 11985 net.cpp:425] inception_4e/relu_3x3_reduce <- inception_4e/3x3_reduce
I0403 15:28:04.117544 11985 net.cpp:386] inception_4e/relu_3x3_reduce -> inception_4e/3x3_reduce (in-place)
I0403 15:28:04.117748 11985 net.cpp:141] Setting up inception_4e/relu_3x3_reduce
I0403 15:28:04.117772 11985 net.cpp:148] Top shape: 24 160 14 14 (752640)
I0403 15:28:04.117786 11985 net.cpp:156] Memory required for data: 1224087072
I0403 15:28:04.117800 11985 layer_factory.hpp:77] Creating layer inception_4e/3x3
I0403 15:28:04.117825 11985 net.cpp:91] Creating Layer inception_4e/3x3
I0403 15:28:04.117842 11985 net.cpp:425] inception_4e/3x3 <- inception_4e/3x3_reduce
I0403 15:28:04.117864 11985 net.cpp:399] inception_4e/3x3 -> inception_4e/3x3
I0403 15:28:04.123052 11985 net.cpp:141] Setting up inception_4e/3x3
I0403 15:28:04.123096 11985 net.cpp:148] Top shape: 24 320 14 14 (1505280)
I0403 15:28:04.123117 11985 net.cpp:156] Memory required for data: 1230108192
I0403 15:28:04.123136 11985 layer_factory.hpp:77] Creating layer inception_4e/relu_3x3
I0403 15:28:04.123158 11985 net.cpp:91] Creating Layer inception_4e/relu_3x3
I0403 15:28:04.123175 11985 net.cpp:425] inception_4e/relu_3x3 <- inception_4e/3x3
I0403 15:28:04.123193 11985 net.cpp:386] inception_4e/relu_3x3 -> inception_4e/3x3 (in-place)
I0403 15:28:04.123528 11985 net.cpp:141] Setting up inception_4e/relu_3x3
I0403 15:28:04.123553 11985 net.cpp:148] Top shape: 24 320 14 14 (1505280)
I0403 15:28:04.123569 11985 net.cpp:156] Memory required for data: 1236129312
I0403 15:28:04.123584 11985 layer_factory.hpp:77] Creating layer inception_4e/5x5_reduce
I0403 15:28:04.123607 11985 net.cpp:91] Creating Layer inception_4e/5x5_reduce
I0403 15:28:04.123625 11985 net.cpp:425] inception_4e/5x5_reduce <- inception_4d/output_inception_4d/output_0_split_3
I0403 15:28:04.123647 11985 net.cpp:399] inception_4e/5x5_reduce -> inception_4e/5x5_reduce
I0403 15:28:04.124763 11985 net.cpp:141] Setting up inception_4e/5x5_reduce
I0403 15:28:04.124789 11985 net.cpp:148] Top shape: 24 32 14 14 (150528)
I0403 15:28:04.124804 11985 net.cpp:156] Memory required for data: 1236731424
I0403 15:28:04.124822 11985 layer_factory.hpp:77] Creating layer inception_4e/relu_5x5_reduce
I0403 15:28:04.124840 11985 net.cpp:91] Creating Layer inception_4e/relu_5x5_reduce
I0403 15:28:04.124855 11985 net.cpp:425] inception_4e/relu_5x5_reduce <- inception_4e/5x5_reduce
I0403 15:28:04.124874 11985 net.cpp:386] inception_4e/relu_5x5_reduce -> inception_4e/5x5_reduce (in-place)
I0403 15:28:04.125174 11985 net.cpp:141] Setting up inception_4e/relu_5x5_reduce
I0403 15:28:04.125198 11985 net.cpp:148] Top shape: 24 32 14 14 (150528)
I0403 15:28:04.125213 11985 net.cpp:156] Memory required for data: 1237333536
I0403 15:28:04.125228 11985 layer_factory.hpp:77] Creating layer inception_4e/5x5
I0403 15:28:04.125265 11985 net.cpp:91] Creating Layer inception_4e/5x5
I0403 15:28:04.125283 11985 net.cpp:425] inception_4e/5x5 <- inception_4e/5x5_reduce
I0403 15:28:04.125303 11985 net.cpp:399] inception_4e/5x5 -> inception_4e/5x5
I0403 15:28:04.127200 11985 net.cpp:141] Setting up inception_4e/5x5
I0403 15:28:04.127230 11985 net.cpp:148] Top shape: 24 128 14 14 (602112)
I0403 15:28:04.127246 11985 net.cpp:156] Memory required for data: 1239741984
I0403 15:28:04.127265 11985 layer_factory.hpp:77] Creating layer inception_4e/relu_5x5
I0403 15:28:04.127284 11985 net.cpp:91] Creating Layer inception_4e/relu_5x5
I0403 15:28:04.127300 11985 net.cpp:425] inception_4e/relu_5x5 <- inception_4e/5x5
I0403 15:28:04.127327 11985 net.cpp:386] inception_4e/relu_5x5 -> inception_4e/5x5 (in-place)
I0403 15:28:04.127539 11985 net.cpp:141] Setting up inception_4e/relu_5x5
I0403 15:28:04.127568 11985 net.cpp:148] Top shape: 24 128 14 14 (602112)
I0403 15:28:04.127583 11985 net.cpp:156] Memory required for data: 1242150432
I0403 15:28:04.127598 11985 layer_factory.hpp:77] Creating layer inception_4e/pool
I0403 15:28:04.127627 11985 net.cpp:91] Creating Layer inception_4e/pool
I0403 15:28:04.127643 11985 net.cpp:425] inception_4e/pool <- inception_4d/output_inception_4d/output_0_split_4
I0403 15:28:04.127665 11985 net.cpp:399] inception_4e/pool -> inception_4e/pool
I0403 15:28:04.127735 11985 net.cpp:141] Setting up inception_4e/pool
I0403 15:28:04.127761 11985 net.cpp:148] Top shape: 24 528 14 14 (2483712)
I0403 15:28:04.127776 11985 net.cpp:156] Memory required for data: 1252085280
I0403 15:28:04.127791 11985 layer_factory.hpp:77] Creating layer inception_4e/pool_proj
I0403 15:28:04.127812 11985 net.cpp:91] Creating Layer inception_4e/pool_proj
I0403 15:28:04.127830 11985 net.cpp:425] inception_4e/pool_proj <- inception_4e/pool
I0403 15:28:04.127847 11985 net.cpp:399] inception_4e/pool_proj -> inception_4e/pool_proj
I0403 15:28:04.129400 11985 net.cpp:141] Setting up inception_4e/pool_proj
I0403 15:28:04.129439 11985 net.cpp:148] Top shape: 24 128 14 14 (602112)
I0403 15:28:04.129456 11985 net.cpp:156] Memory required for data: 1254493728
I0403 15:28:04.129474 11985 layer_factory.hpp:77] Creating layer inception_4e/relu_pool_proj
I0403 15:28:04.129494 11985 net.cpp:91] Creating Layer inception_4e/relu_pool_proj
I0403 15:28:04.129510 11985 net.cpp:425] inception_4e/relu_pool_proj <- inception_4e/pool_proj
I0403 15:28:04.129528 11985 net.cpp:386] inception_4e/relu_pool_proj -> inception_4e/pool_proj (in-place)
I0403 15:28:04.129827 11985 net.cpp:141] Setting up inception_4e/relu_pool_proj
I0403 15:28:04.129851 11985 net.cpp:148] Top shape: 24 128 14 14 (602112)
I0403 15:28:04.129866 11985 net.cpp:156] Memory required for data: 1256902176
I0403 15:28:04.129881 11985 layer_factory.hpp:77] Creating layer inception_4e/output
I0403 15:28:04.129901 11985 net.cpp:91] Creating Layer inception_4e/output
I0403 15:28:04.129919 11985 net.cpp:425] inception_4e/output <- inception_4e/1x1
I0403 15:28:04.129935 11985 net.cpp:425] inception_4e/output <- inception_4e/3x3
I0403 15:28:04.129951 11985 net.cpp:425] inception_4e/output <- inception_4e/5x5
I0403 15:28:04.129966 11985 net.cpp:425] inception_4e/output <- inception_4e/pool_proj
I0403 15:28:04.129982 11985 net.cpp:399] inception_4e/output -> inception_4e/output
I0403 15:28:04.130033 11985 net.cpp:141] Setting up inception_4e/output
I0403 15:28:04.130055 11985 net.cpp:148] Top shape: 24 832 14 14 (3913728)
I0403 15:28:04.130069 11985 net.cpp:156] Memory required for data: 1272557088
I0403 15:28:04.130084 11985 layer_factory.hpp:77] Creating layer pool4/3x3_s2
I0403 15:28:04.130100 11985 net.cpp:91] Creating Layer pool4/3x3_s2
I0403 15:28:04.130120 11985 net.cpp:425] pool4/3x3_s2 <- inception_4e/output
I0403 15:28:04.130136 11985 net.cpp:399] pool4/3x3_s2 -> pool4/3x3_s2
I0403 15:28:04.130203 11985 net.cpp:141] Setting up pool4/3x3_s2
I0403 15:28:04.130226 11985 net.cpp:148] Top shape: 24 832 7 7 (978432)
I0403 15:28:04.130240 11985 net.cpp:156] Memory required for data: 1276470816
I0403 15:28:04.130254 11985 layer_factory.hpp:77] Creating layer pool4/3x3_s2_pool4/3x3_s2_0_split
I0403 15:28:04.130271 11985 net.cpp:91] Creating Layer pool4/3x3_s2_pool4/3x3_s2_0_split
I0403 15:28:04.130286 11985 net.cpp:425] pool4/3x3_s2_pool4/3x3_s2_0_split <- pool4/3x3_s2
I0403 15:28:04.130306 11985 net.cpp:399] pool4/3x3_s2_pool4/3x3_s2_0_split -> pool4/3x3_s2_pool4/3x3_s2_0_split_0
I0403 15:28:04.130326 11985 net.cpp:399] pool4/3x3_s2_pool4/3x3_s2_0_split -> pool4/3x3_s2_pool4/3x3_s2_0_split_1
I0403 15:28:04.130345 11985 net.cpp:399] pool4/3x3_s2_pool4/3x3_s2_0_split -> pool4/3x3_s2_pool4/3x3_s2_0_split_2
I0403 15:28:04.130372 11985 net.cpp:399] pool4/3x3_s2_pool4/3x3_s2_0_split -> pool4/3x3_s2_pool4/3x3_s2_0_split_3
I0403 15:28:04.130460 11985 net.cpp:141] Setting up pool4/3x3_s2_pool4/3x3_s2_0_split
I0403 15:28:04.130483 11985 net.cpp:148] Top shape: 24 832 7 7 (978432)
I0403 15:28:04.130498 11985 net.cpp:148] Top shape: 24 832 7 7 (978432)
I0403 15:28:04.130513 11985 net.cpp:148] Top shape: 24 832 7 7 (978432)
I0403 15:28:04.130528 11985 net.cpp:148] Top shape: 24 832 7 7 (978432)
I0403 15:28:04.130542 11985 net.cpp:156] Memory required for data: 1292125728
I0403 15:28:04.130556 11985 layer_factory.hpp:77] Creating layer inception_5a/1x1
I0403 15:28:04.130579 11985 net.cpp:91] Creating Layer inception_5a/1x1
I0403 15:28:04.130596 11985 net.cpp:425] inception_5a/1x1 <- pool4/3x3_s2_pool4/3x3_s2_0_split_0
I0403 15:28:04.130615 11985 net.cpp:399] inception_5a/1x1 -> inception_5a/1x1
I0403 15:28:04.133569 11985 net.cpp:141] Setting up inception_5a/1x1
I0403 15:28:04.133602 11985 net.cpp:148] Top shape: 24 256 7 7 (301056)
I0403 15:28:04.133620 11985 net.cpp:156] Memory required for data: 1293329952
I0403 15:28:04.133638 11985 layer_factory.hpp:77] Creating layer inception_5a/relu_1x1
I0403 15:28:04.133657 11985 net.cpp:91] Creating Layer inception_5a/relu_1x1
I0403 15:28:04.133674 11985 net.cpp:425] inception_5a/relu_1x1 <- inception_5a/1x1
I0403 15:28:04.133695 11985 net.cpp:386] inception_5a/relu_1x1 -> inception_5a/1x1 (in-place)
I0403 15:28:04.134038 11985 net.cpp:141] Setting up inception_5a/relu_1x1
I0403 15:28:04.134080 11985 net.cpp:148] Top shape: 24 256 7 7 (301056)
I0403 15:28:04.134096 11985 net.cpp:156] Memory required for data: 1294534176
I0403 15:28:04.134112 11985 layer_factory.hpp:77] Creating layer inception_5a/3x3_reduce
I0403 15:28:04.134136 11985 net.cpp:91] Creating Layer inception_5a/3x3_reduce
I0403 15:28:04.134155 11985 net.cpp:425] inception_5a/3x3_reduce <- pool4/3x3_s2_pool4/3x3_s2_0_split_1
I0403 15:28:04.134174 11985 net.cpp:399] inception_5a/3x3_reduce -> inception_5a/3x3_reduce
I0403 15:28:04.136785 11985 net.cpp:141] Setting up inception_5a/3x3_reduce
I0403 15:28:04.136814 11985 net.cpp:148] Top shape: 24 160 7 7 (188160)
I0403 15:28:04.136831 11985 net.cpp:156] Memory required for data: 1295286816
I0403 15:28:04.136848 11985 layer_factory.hpp:77] Creating layer inception_5a/relu_3x3_reduce
I0403 15:28:04.136869 11985 net.cpp:91] Creating Layer inception_5a/relu_3x3_reduce
I0403 15:28:04.136888 11985 net.cpp:425] inception_5a/relu_3x3_reduce <- inception_5a/3x3_reduce
I0403 15:28:04.136905 11985 net.cpp:386] inception_5a/relu_3x3_reduce -> inception_5a/3x3_reduce (in-place)
I0403 15:28:04.137104 11985 net.cpp:141] Setting up inception_5a/relu_3x3_reduce
I0403 15:28:04.137131 11985 net.cpp:148] Top shape: 24 160 7 7 (188160)
I0403 15:28:04.137147 11985 net.cpp:156] Memory required for data: 1296039456
I0403 15:28:04.137162 11985 layer_factory.hpp:77] Creating layer inception_5a/3x3
I0403 15:28:04.137186 11985 net.cpp:91] Creating Layer inception_5a/3x3
I0403 15:28:04.137203 11985 net.cpp:425] inception_5a/3x3 <- inception_5a/3x3_reduce
I0403 15:28:04.137222 11985 net.cpp:399] inception_5a/3x3 -> inception_5a/3x3
I0403 15:28:04.142333 11985 net.cpp:141] Setting up inception_5a/3x3
I0403 15:28:04.142379 11985 net.cpp:148] Top shape: 24 320 7 7 (376320)
I0403 15:28:04.142408 11985 net.cpp:156] Memory required for data: 1297544736
I0403 15:28:04.142427 11985 layer_factory.hpp:77] Creating layer inception_5a/relu_3x3
I0403 15:28:04.142446 11985 net.cpp:91] Creating Layer inception_5a/relu_3x3
I0403 15:28:04.142462 11985 net.cpp:425] inception_5a/relu_3x3 <- inception_5a/3x3
I0403 15:28:04.142479 11985 net.cpp:386] inception_5a/relu_3x3 -> inception_5a/3x3 (in-place)
I0403 15:28:04.142797 11985 net.cpp:141] Setting up inception_5a/relu_3x3
I0403 15:28:04.142825 11985 net.cpp:148] Top shape: 24 320 7 7 (376320)
I0403 15:28:04.142841 11985 net.cpp:156] Memory required for data: 1299050016
I0403 15:28:04.142855 11985 layer_factory.hpp:77] Creating layer inception_5a/5x5_reduce
I0403 15:28:04.142877 11985 net.cpp:91] Creating Layer inception_5a/5x5_reduce
I0403 15:28:04.142894 11985 net.cpp:425] inception_5a/5x5_reduce <- pool4/3x3_s2_pool4/3x3_s2_0_split_2
I0403 15:28:04.142915 11985 net.cpp:399] inception_5a/5x5_reduce -> inception_5a/5x5_reduce
I0403 15:28:04.144098 11985 net.cpp:141] Setting up inception_5a/5x5_reduce
I0403 15:28:04.144129 11985 net.cpp:148] Top shape: 24 32 7 7 (37632)
I0403 15:28:04.144145 11985 net.cpp:156] Memory required for data: 1299200544
I0403 15:28:04.144163 11985 layer_factory.hpp:77] Creating layer inception_5a/relu_5x5_reduce
I0403 15:28:04.144181 11985 net.cpp:91] Creating Layer inception_5a/relu_5x5_reduce
I0403 15:28:04.144196 11985 net.cpp:425] inception_5a/relu_5x5_reduce <- inception_5a/5x5_reduce
I0403 15:28:04.144215 11985 net.cpp:386] inception_5a/relu_5x5_reduce -> inception_5a/5x5_reduce (in-place)
I0403 15:28:04.144537 11985 net.cpp:141] Setting up inception_5a/relu_5x5_reduce
I0403 15:28:04.144567 11985 net.cpp:148] Top shape: 24 32 7 7 (37632)
I0403 15:28:04.144583 11985 net.cpp:156] Memory required for data: 1299351072
I0403 15:28:04.144598 11985 layer_factory.hpp:77] Creating layer inception_5a/5x5
I0403 15:28:04.144620 11985 net.cpp:91] Creating Layer inception_5a/5x5
I0403 15:28:04.144637 11985 net.cpp:425] inception_5a/5x5 <- inception_5a/5x5_reduce
I0403 15:28:04.144659 11985 net.cpp:399] inception_5a/5x5 -> inception_5a/5x5
I0403 15:28:04.146407 11985 net.cpp:141] Setting up inception_5a/5x5
I0403 15:28:04.146450 11985 net.cpp:148] Top shape: 24 128 7 7 (150528)
I0403 15:28:04.146466 11985 net.cpp:156] Memory required for data: 1299953184
I0403 15:28:04.146484 11985 layer_factory.hpp:77] Creating layer inception_5a/relu_5x5
I0403 15:28:04.146502 11985 net.cpp:91] Creating Layer inception_5a/relu_5x5
I0403 15:28:04.146517 11985 net.cpp:425] inception_5a/relu_5x5 <- inception_5a/5x5
I0403 15:28:04.146533 11985 net.cpp:386] inception_5a/relu_5x5 -> inception_5a/5x5 (in-place)
I0403 15:28:04.146734 11985 net.cpp:141] Setting up inception_5a/relu_5x5
I0403 15:28:04.146759 11985 net.cpp:148] Top shape: 24 128 7 7 (150528)
I0403 15:28:04.146773 11985 net.cpp:156] Memory required for data: 1300555296
I0403 15:28:04.146787 11985 layer_factory.hpp:77] Creating layer inception_5a/pool
I0403 15:28:04.146806 11985 net.cpp:91] Creating Layer inception_5a/pool
I0403 15:28:04.146821 11985 net.cpp:425] inception_5a/pool <- pool4/3x3_s2_pool4/3x3_s2_0_split_3
I0403 15:28:04.146842 11985 net.cpp:399] inception_5a/pool -> inception_5a/pool
I0403 15:28:04.146911 11985 net.cpp:141] Setting up inception_5a/pool
I0403 15:28:04.146937 11985 net.cpp:148] Top shape: 24 832 7 7 (978432)
I0403 15:28:04.146952 11985 net.cpp:156] Memory required for data: 1304469024
I0403 15:28:04.146966 11985 layer_factory.hpp:77] Creating layer inception_5a/pool_proj
I0403 15:28:04.146987 11985 net.cpp:91] Creating Layer inception_5a/pool_proj
I0403 15:28:04.147004 11985 net.cpp:425] inception_5a/pool_proj <- inception_5a/pool
I0403 15:28:04.147023 11985 net.cpp:399] inception_5a/pool_proj -> inception_5a/pool_proj
I0403 15:28:04.149420 11985 net.cpp:141] Setting up inception_5a/pool_proj
I0403 15:28:04.149449 11985 net.cpp:148] Top shape: 24 128 7 7 (150528)
I0403 15:28:04.149466 11985 net.cpp:156] Memory required for data: 1305071136
I0403 15:28:04.149483 11985 layer_factory.hpp:77] Creating layer inception_5a/relu_pool_proj
I0403 15:28:04.149504 11985 net.cpp:91] Creating Layer inception_5a/relu_pool_proj
I0403 15:28:04.149521 11985 net.cpp:425] inception_5a/relu_pool_proj <- inception_5a/pool_proj
I0403 15:28:04.149539 11985 net.cpp:386] inception_5a/relu_pool_proj -> inception_5a/pool_proj (in-place)
I0403 15:28:04.149858 11985 net.cpp:141] Setting up inception_5a/relu_pool_proj
I0403 15:28:04.149884 11985 net.cpp:148] Top shape: 24 128 7 7 (150528)
I0403 15:28:04.149899 11985 net.cpp:156] Memory required for data: 1305673248
I0403 15:28:04.149914 11985 layer_factory.hpp:77] Creating layer inception_5a/output
I0403 15:28:04.149932 11985 net.cpp:91] Creating Layer inception_5a/output
I0403 15:28:04.149950 11985 net.cpp:425] inception_5a/output <- inception_5a/1x1
I0403 15:28:04.149966 11985 net.cpp:425] inception_5a/output <- inception_5a/3x3
I0403 15:28:04.149981 11985 net.cpp:425] inception_5a/output <- inception_5a/5x5
I0403 15:28:04.149996 11985 net.cpp:425] inception_5a/output <- inception_5a/pool_proj
I0403 15:28:04.150013 11985 net.cpp:399] inception_5a/output -> inception_5a/output
I0403 15:28:04.150064 11985 net.cpp:141] Setting up inception_5a/output
I0403 15:28:04.150087 11985 net.cpp:148] Top shape: 24 832 7 7 (978432)
I0403 15:28:04.150101 11985 net.cpp:156] Memory required for data: 1309586976
I0403 15:28:04.150116 11985 layer_factory.hpp:77] Creating layer inception_5a/output_inception_5a/output_0_split
I0403 15:28:04.150132 11985 net.cpp:91] Creating Layer inception_5a/output_inception_5a/output_0_split
I0403 15:28:04.150147 11985 net.cpp:425] inception_5a/output_inception_5a/output_0_split <- inception_5a/output
I0403 15:28:04.150166 11985 net.cpp:399] inception_5a/output_inception_5a/output_0_split -> inception_5a/output_inception_5a/output_0_split_0
I0403 15:28:04.150187 11985 net.cpp:399] inception_5a/output_inception_5a/output_0_split -> inception_5a/output_inception_5a/output_0_split_1
I0403 15:28:04.150207 11985 net.cpp:399] inception_5a/output_inception_5a/output_0_split -> inception_5a/output_inception_5a/output_0_split_2
I0403 15:28:04.150228 11985 net.cpp:399] inception_5a/output_inception_5a/output_0_split -> inception_5a/output_inception_5a/output_0_split_3
I0403 15:28:04.150341 11985 net.cpp:141] Setting up inception_5a/output_inception_5a/output_0_split
I0403 15:28:04.150372 11985 net.cpp:148] Top shape: 24 832 7 7 (978432)
I0403 15:28:04.150389 11985 net.cpp:148] Top shape: 24 832 7 7 (978432)
I0403 15:28:04.150404 11985 net.cpp:148] Top shape: 24 832 7 7 (978432)
I0403 15:28:04.150419 11985 net.cpp:148] Top shape: 24 832 7 7 (978432)
I0403 15:28:04.150432 11985 net.cpp:156] Memory required for data: 1325241888
I0403 15:28:04.150447 11985 layer_factory.hpp:77] Creating layer inception_5b/1x1
I0403 15:28:04.150468 11985 net.cpp:91] Creating Layer inception_5b/1x1
I0403 15:28:04.150485 11985 net.cpp:425] inception_5b/1x1 <- inception_5a/output_inception_5a/output_0_split_0
I0403 15:28:04.150503 11985 net.cpp:399] inception_5b/1x1 -> inception_5b/1x1
I0403 15:28:04.154404 11985 net.cpp:141] Setting up inception_5b/1x1
I0403 15:28:04.154433 11985 net.cpp:148] Top shape: 24 384 7 7 (451584)
I0403 15:28:04.154448 11985 net.cpp:156] Memory required for data: 1327048224
I0403 15:28:04.154466 11985 layer_factory.hpp:77] Creating layer inception_5b/relu_1x1
I0403 15:28:04.154486 11985 net.cpp:91] Creating Layer inception_5b/relu_1x1
I0403 15:28:04.154502 11985 net.cpp:425] inception_5b/relu_1x1 <- inception_5b/1x1
I0403 15:28:04.154520 11985 net.cpp:386] inception_5b/relu_1x1 -> inception_5b/1x1 (in-place)
I0403 15:28:04.154816 11985 net.cpp:141] Setting up inception_5b/relu_1x1
I0403 15:28:04.154842 11985 net.cpp:148] Top shape: 24 384 7 7 (451584)
I0403 15:28:04.154856 11985 net.cpp:156] Memory required for data: 1328854560
I0403 15:28:04.154870 11985 layer_factory.hpp:77] Creating layer inception_5b/3x3_reduce
I0403 15:28:04.154892 11985 net.cpp:91] Creating Layer inception_5b/3x3_reduce
I0403 15:28:04.154909 11985 net.cpp:425] inception_5b/3x3_reduce <- inception_5a/output_inception_5a/output_0_split_1
I0403 15:28:04.154930 11985 net.cpp:399] inception_5b/3x3_reduce -> inception_5b/3x3_reduce
I0403 15:28:04.157603 11985 net.cpp:141] Setting up inception_5b/3x3_reduce
I0403 15:28:04.157630 11985 net.cpp:148] Top shape: 24 192 7 7 (225792)
I0403 15:28:04.157645 11985 net.cpp:156] Memory required for data: 1329757728
I0403 15:28:04.157662 11985 layer_factory.hpp:77] Creating layer inception_5b/relu_3x3_reduce
I0403 15:28:04.157683 11985 net.cpp:91] Creating Layer inception_5b/relu_3x3_reduce
I0403 15:28:04.157701 11985 net.cpp:425] inception_5b/relu_3x3_reduce <- inception_5b/3x3_reduce
I0403 15:28:04.157716 11985 net.cpp:386] inception_5b/relu_3x3_reduce -> inception_5b/3x3_reduce (in-place)
I0403 15:28:04.157908 11985 net.cpp:141] Setting up inception_5b/relu_3x3_reduce
I0403 15:28:04.157934 11985 net.cpp:148] Top shape: 24 192 7 7 (225792)
I0403 15:28:04.157949 11985 net.cpp:156] Memory required for data: 1330660896
I0403 15:28:04.157963 11985 layer_factory.hpp:77] Creating layer inception_5b/3x3
I0403 15:28:04.157984 11985 net.cpp:91] Creating Layer inception_5b/3x3
I0403 15:28:04.158001 11985 net.cpp:425] inception_5b/3x3 <- inception_5b/3x3_reduce
I0403 15:28:04.158018 11985 net.cpp:399] inception_5b/3x3 -> inception_5b/3x3
I0403 15:28:04.164650 11985 net.cpp:141] Setting up inception_5b/3x3
I0403 15:28:04.164690 11985 net.cpp:148] Top shape: 24 384 7 7 (451584)
I0403 15:28:04.164705 11985 net.cpp:156] Memory required for data: 1332467232
I0403 15:28:04.164722 11985 layer_factory.hpp:77] Creating layer inception_5b/relu_3x3
I0403 15:28:04.164741 11985 net.cpp:91] Creating Layer inception_5b/relu_3x3
I0403 15:28:04.164758 11985 net.cpp:425] inception_5b/relu_3x3 <- inception_5b/3x3
I0403 15:28:04.164774 11985 net.cpp:386] inception_5b/relu_3x3 -> inception_5b/3x3 (in-place)
I0403 15:28:04.165072 11985 net.cpp:141] Setting up inception_5b/relu_3x3
I0403 15:28:04.165097 11985 net.cpp:148] Top shape: 24 384 7 7 (451584)
I0403 15:28:04.165112 11985 net.cpp:156] Memory required for data: 1334273568
I0403 15:28:04.165124 11985 layer_factory.hpp:77] Creating layer inception_5b/5x5_reduce
I0403 15:28:04.165164 11985 net.cpp:91] Creating Layer inception_5b/5x5_reduce
I0403 15:28:04.165182 11985 net.cpp:425] inception_5b/5x5_reduce <- inception_5a/output_inception_5a/output_0_split_2
I0403 15:28:04.165200 11985 net.cpp:399] inception_5b/5x5_reduce -> inception_5b/5x5_reduce
I0403 15:28:04.166498 11985 net.cpp:141] Setting up inception_5b/5x5_reduce
I0403 15:28:04.166525 11985 net.cpp:148] Top shape: 24 48 7 7 (56448)
I0403 15:28:04.166539 11985 net.cpp:156] Memory required for data: 1334499360
I0403 15:28:04.166556 11985 layer_factory.hpp:77] Creating layer inception_5b/relu_5x5_reduce
I0403 15:28:04.166576 11985 net.cpp:91] Creating Layer inception_5b/relu_5x5_reduce
I0403 15:28:04.166592 11985 net.cpp:425] inception_5b/relu_5x5_reduce <- inception_5b/5x5_reduce
I0403 15:28:04.166610 11985 net.cpp:386] inception_5b/relu_5x5_reduce -> inception_5b/5x5_reduce (in-place)
I0403 15:28:04.166982 11985 net.cpp:141] Setting up inception_5b/relu_5x5_reduce
I0403 15:28:04.167008 11985 net.cpp:148] Top shape: 24 48 7 7 (56448)
I0403 15:28:04.167022 11985 net.cpp:156] Memory required for data: 1334725152
I0403 15:28:04.167037 11985 layer_factory.hpp:77] Creating layer inception_5b/5x5
I0403 15:28:04.167055 11985 net.cpp:91] Creating Layer inception_5b/5x5
I0403 15:28:04.167071 11985 net.cpp:425] inception_5b/5x5 <- inception_5b/5x5_reduce
I0403 15:28:04.167089 11985 net.cpp:399] inception_5b/5x5 -> inception_5b/5x5
I0403 15:28:04.169133 11985 net.cpp:141] Setting up inception_5b/5x5
I0403 15:28:04.169162 11985 net.cpp:148] Top shape: 24 128 7 7 (150528)
I0403 15:28:04.169178 11985 net.cpp:156] Memory required for data: 1335327264
I0403 15:28:04.169196 11985 layer_factory.hpp:77] Creating layer inception_5b/relu_5x5
I0403 15:28:04.169214 11985 net.cpp:91] Creating Layer inception_5b/relu_5x5
I0403 15:28:04.169229 11985 net.cpp:425] inception_5b/relu_5x5 <- inception_5b/5x5
I0403 15:28:04.169247 11985 net.cpp:386] inception_5b/relu_5x5 -> inception_5b/5x5 (in-place)
I0403 15:28:04.169450 11985 net.cpp:141] Setting up inception_5b/relu_5x5
I0403 15:28:04.169473 11985 net.cpp:148] Top shape: 24 128 7 7 (150528)
I0403 15:28:04.169487 11985 net.cpp:156] Memory required for data: 1335929376
I0403 15:28:04.169500 11985 layer_factory.hpp:77] Creating layer inception_5b/pool
I0403 15:28:04.169517 11985 net.cpp:91] Creating Layer inception_5b/pool
I0403 15:28:04.169533 11985 net.cpp:425] inception_5b/pool <- inception_5a/output_inception_5a/output_0_split_3
I0403 15:28:04.169553 11985 net.cpp:399] inception_5b/pool -> inception_5b/pool
I0403 15:28:04.169625 11985 net.cpp:141] Setting up inception_5b/pool
I0403 15:28:04.169647 11985 net.cpp:148] Top shape: 24 832 7 7 (978432)
I0403 15:28:04.169661 11985 net.cpp:156] Memory required for data: 1339843104
I0403 15:28:04.169674 11985 layer_factory.hpp:77] Creating layer inception_5b/pool_proj
I0403 15:28:04.169697 11985 net.cpp:91] Creating Layer inception_5b/pool_proj
I0403 15:28:04.169713 11985 net.cpp:425] inception_5b/pool_proj <- inception_5b/pool
I0403 15:28:04.169731 11985 net.cpp:399] inception_5b/pool_proj -> inception_5b/pool_proj
I0403 15:28:04.171986 11985 net.cpp:141] Setting up inception_5b/pool_proj
I0403 15:28:04.172018 11985 net.cpp:148] Top shape: 24 128 7 7 (150528)
I0403 15:28:04.172032 11985 net.cpp:156] Memory required for data: 1340445216
I0403 15:28:04.172050 11985 layer_factory.hpp:77] Creating layer inception_5b/relu_pool_proj
I0403 15:28:04.172067 11985 net.cpp:91] Creating Layer inception_5b/relu_pool_proj
I0403 15:28:04.172083 11985 net.cpp:425] inception_5b/relu_pool_proj <- inception_5b/pool_proj
I0403 15:28:04.172099 11985 net.cpp:386] inception_5b/relu_pool_proj -> inception_5b/pool_proj (in-place)
I0403 15:28:04.172426 11985 net.cpp:141] Setting up inception_5b/relu_pool_proj
I0403 15:28:04.172454 11985 net.cpp:148] Top shape: 24 128 7 7 (150528)
I0403 15:28:04.172471 11985 net.cpp:156] Memory required for data: 1341047328
I0403 15:28:04.172484 11985 layer_factory.hpp:77] Creating layer inception_5b/output
I0403 15:28:04.172502 11985 net.cpp:91] Creating Layer inception_5b/output
I0403 15:28:04.172531 11985 net.cpp:425] inception_5b/output <- inception_5b/1x1
I0403 15:28:04.172549 11985 net.cpp:425] inception_5b/output <- inception_5b/3x3
I0403 15:28:04.172564 11985 net.cpp:425] inception_5b/output <- inception_5b/5x5
I0403 15:28:04.172580 11985 net.cpp:425] inception_5b/output <- inception_5b/pool_proj
I0403 15:28:04.172596 11985 net.cpp:399] inception_5b/output -> inception_5b/output
I0403 15:28:04.172651 11985 net.cpp:141] Setting up inception_5b/output
I0403 15:28:04.172685 11985 net.cpp:148] Top shape: 24 1024 7 7 (1204224)
I0403 15:28:04.172699 11985 net.cpp:156] Memory required for data: 1345864224
I0403 15:28:04.172713 11985 layer_factory.hpp:77] Creating layer pool5/7x7_s1
I0403 15:28:04.172732 11985 net.cpp:91] Creating Layer pool5/7x7_s1
I0403 15:28:04.172749 11985 net.cpp:425] pool5/7x7_s1 <- inception_5b/output
I0403 15:28:04.172766 11985 net.cpp:399] pool5/7x7_s1 -> pool5/7x7_s1
I0403 15:28:04.172981 11985 net.cpp:141] Setting up pool5/7x7_s1
I0403 15:28:04.173007 11985 net.cpp:148] Top shape: 24 1024 1 1 (24576)
I0403 15:28:04.173022 11985 net.cpp:156] Memory required for data: 1345962528
I0403 15:28:04.173035 11985 layer_factory.hpp:77] Creating layer pool5/drop_7x7_s1
I0403 15:28:04.173053 11985 net.cpp:91] Creating Layer pool5/drop_7x7_s1
I0403 15:28:04.173069 11985 net.cpp:425] pool5/drop_7x7_s1 <- pool5/7x7_s1
I0403 15:28:04.173085 11985 net.cpp:386] pool5/drop_7x7_s1 -> pool5/7x7_s1 (in-place)
I0403 15:28:04.173135 11985 net.cpp:141] Setting up pool5/drop_7x7_s1
I0403 15:28:04.173156 11985 net.cpp:148] Top shape: 24 1024 1 1 (24576)
I0403 15:28:04.173171 11985 net.cpp:156] Memory required for data: 1346060832
I0403 15:28:04.173184 11985 layer_factory.hpp:77] Creating layer loss3/classifier_plantvillage
I0403 15:28:04.173205 11985 net.cpp:91] Creating Layer loss3/classifier_plantvillage
I0403 15:28:04.173221 11985 net.cpp:425] loss3/classifier_plantvillage <- pool5/7x7_s1
I0403 15:28:04.173239 11985 net.cpp:399] loss3/classifier_plantvillage -> loss3/classifier_plantvillage
I0403 15:28:04.173657 11985 net.cpp:141] Setting up loss3/classifier_plantvillage
I0403 15:28:04.173681 11985 net.cpp:148] Top shape: 24 38 (912)
I0403 15:28:04.173694 11985 net.cpp:156] Memory required for data: 1346064480
I0403 15:28:04.173712 11985 layer_factory.hpp:77] Creating layer loss3/classifier_plantvillage_loss3/classifier_plantvillage_0_split
I0403 15:28:04.173729 11985 net.cpp:91] Creating Layer loss3/classifier_plantvillage_loss3/classifier_plantvillage_0_split
I0403 15:28:04.173744 11985 net.cpp:425] loss3/classifier_plantvillage_loss3/classifier_plantvillage_0_split <- loss3/classifier_plantvillage
I0403 15:28:04.173764 11985 net.cpp:399] loss3/classifier_plantvillage_loss3/classifier_plantvillage_0_split -> loss3/classifier_plantvillage_loss3/classifier_plantvillage_0_split_0
I0403 15:28:04.173784 11985 net.cpp:399] loss3/classifier_plantvillage_loss3/classifier_plantvillage_0_split -> loss3/classifier_plantvillage_loss3/classifier_plantvillage_0_split_1
I0403 15:28:04.173802 11985 net.cpp:399] loss3/classifier_plantvillage_loss3/classifier_plantvillage_0_split -> loss3/classifier_plantvillage_loss3/classifier_plantvillage_0_split_2
I0403 15:28:04.173821 11985 net.cpp:399] loss3/classifier_plantvillage_loss3/classifier_plantvillage_0_split -> loss3/classifier_plantvillage_loss3/classifier_plantvillage_0_split_3
I0403 15:28:04.173921 11985 net.cpp:141] Setting up loss3/classifier_plantvillage_loss3/classifier_plantvillage_0_split
I0403 15:28:04.173943 11985 net.cpp:148] Top shape: 24 38 (912)
I0403 15:28:04.173959 11985 net.cpp:148] Top shape: 24 38 (912)
I0403 15:28:04.173972 11985 net.cpp:148] Top shape: 24 38 (912)
I0403 15:28:04.173986 11985 net.cpp:148] Top shape: 24 38 (912)
I0403 15:28:04.174000 11985 net.cpp:156] Memory required for data: 1346079072
I0403 15:28:04.174013 11985 layer_factory.hpp:77] Creating layer loss1/loss
I0403 15:28:04.174033 11985 net.cpp:91] Creating Layer loss1/loss
I0403 15:28:04.174051 11985 net.cpp:425] loss1/loss <- loss1/classifier_plantvillage_loss1/classifier_plantvillage_0_split_0
I0403 15:28:04.174078 11985 net.cpp:425] loss1/loss <- label_data_1_split_0
…
