…
I0403 15:13:48.429409 11733 net.cpp:313] The NetState phase (1) differed from the phase (0) specified by a rule in layer data
I0403 15:13:48.430593 11733 net.cpp:49] Initializing net from parameters: 
state {
  phase: TEST
}
layer {
  name: "data"
  type: "Data"
  top: "data"
  top: "label"
  include {
    phase: TEST
  }
  transform_param {
    mirror: false
    crop_size: 224
    mean_file: "/home/mohanty/data/final_dataset/lmdb/segmented-40-60/mean.binaryproto"
  }
  data_param {
    source: "/home/mohanty/data/final_dataset/lmdb/segmented-40-60/test_db"
    batch_size: 24
    backend: LMDB
  }
}
layer {
  name: "conv1/7x7_s2"
  type: "Convolution"
  bottom: "data"
  top: "conv1/7x7_s2"
  param {
    lr_mult: 1
    decay_mult: 1
  }
  param {
    lr_mult: 2
    decay_mult: 0
  }
  convolution_param {
    num_output: 64
    pad: 3
    kernel_size: 7
    stride: 2
    weight_filler {
      type: "xavier"
      std: 0.1
    }
    bias_filler {
      type: "constant"
      value: 0.2
    }
  }
}
layer {
  name: "conv1/relu_7x7"
  type: "ReLU"
  bottom: "conv1/7x7_s2"
  top: "conv1/7x7_s2"
}
layer {
  name: "pool1/3x3_s2"
  type: "Pooling"
  bottom: "conv1/7x7_s2"
  top: "pool1/3x3_s2"
  pooling_param {
    pool: MAX
    kernel_size: 3
    stride: 2
  }
}
layer {
  name: "pool1/norm1"
  type: "LRN"
  bottom: "pool1/3x3_s2"
  top: "pool1/norm1"
  lrn_param {
    local_size: 5
    alpha: 0.0001
    beta: 0.75
  }
}
layer {
  name: "conv2/3x3_reduce"
  type: "Convolution"
  bottom: "pool1/norm1"
  top: "conv2/3x3_reduce"
  param {
    lr_mult: 1
    decay_mult: 1
  }
  param {
    lr_mult: 2
    decay_mult: 0
  }
  convolution_param {
    num_output: 64
    kernel_size: 1
    weight_filler {
      type: "xavier"
      std: 0.1
    }
    bias_filler {
      type: "constant"
      value: 0.2
    }
  }
}
layer {
  name: "conv2/relu_3x3_reduce"
  type: "ReLU"
  bottom: "conv2/3x3_reduce"
  top: "conv2/3x3_reduce"
}
layer {
  name: "conv2/3x3"
  type: "Convolution"
  bottom: "conv2/3x3_reduce"
  top: "conv2/3x3"
  param {
    lr_mult: 1
    decay_mult: 1
  }
  param {
    lr_mult: 2
    decay_mult: 0
  }
  convolution_param {
    num_output: 192
    pad: 1
    kernel_size: 3
    weight_filler {
      type: "xavier"
      std: 0.03
    }
    bias_filler {
      type: "constant"
      value: 0.2
    }
  }
}
layer {
  name: "conv2/relu_3x3"
  type: "ReLU"
  bottom: "conv2/3x3"
  top: "conv2/3x3"
}
layer {
  name: "conv2/norm2"
  type: "LRN"
  bottom: "conv2/3x3"
  top: "conv2/norm2"
  lrn_param {
    local_size: 5
    alpha: 0.0001
    beta: 0.75
  }
}
layer {
  name: "pool2/3x3_s2"
  type: "Pooling"
  bottom: "conv2/norm2"
  top: "pool2/3x3_s2"
  pooling_param {
    pool: MAX
    kernel_size: 3
    stride: 2
  }
}
layer {
  name: "inception_3a/1x1"
  type: "Convolution"
  bottom: "pool2/3x3_s2"
  top: "inception_3a/1x1"
  param {
    lr_mult: 1
    decay_mult: 1
  }
  param {
    lr_mult: 2
    decay_mult: 0
  }
  convolution_param {
    num_output: 64
    kernel_size: 1
    weight_filler {
      type: "xavier"
      std: 0.03
    }
    bias_filler {
      type: "constant"
      value: 0.2
    }
  }
}
layer {
  name: "inception_3a/relu_1x1"
  type: "ReLU"
  bottom: "inception_3a/1x1"
  top: "inception_3a/1x1"
}
layer {
  name: "inception_3a/3x3_reduce"
  type: "Convolution"
  bottom: "pool2/3x3_s2"
  top: "inception_3a/3x3_reduce"
  param {
    lr_mult: 1
    decay_mult: 1
  }
  param {
    lr_mult: 2
    decay_mult: 0
  }
  convolution_param {
    num_output: 96
    kernel_size: 1
    weight_filler {
      type: "xavier"
      std: 0.09
    }
    bias_filler {
      type: "constant"
      value: 0.2
    }
  }
}
layer {
  name: "inception_3a/relu_3x3_reduce"
  type: "ReLU"
  bottom: "inception_3a/3x3_reduce"
  top: "inception_3a/3x3_reduce"
}
layer {
  name: "inception_3a/3x3"
  type: "Convolution"
  bottom: "inception_3a/3x3_reduce"
  top: "inception_3a/3x3"
  param {
    lr_mult: 1
    decay_mult: 1
  }
  param {
    lr_mult: 2
    decay_mult: 0
  }
  convolution_param {
    num_output: 128
    pad: 1
    kernel_size: 3
    weight_filler {
      type: "xavier"
      std: 0.03
    }
    bias_filler {
      type: "constant"
      value: 0.2
    }
  }
}
layer {
  name: "inception_3a/relu_3x3"
  type: "ReLU"
  bottom: "inception_3a/3x3"
  top: "inception_3a/3x3"
}
layer {
  name: "inception_3a/5x5_reduce"
  type: "Convolution"
  bottom: "pool2/3x3_s2"
  top: "inception_3a/5x5_reduce"
  param {
    lr_mult: 1
    decay_mult: 1
  }
  param {
    lr_mult: 2
    decay_mult: 0
  }
  convolution_param {
    num_output: 16
    kernel_size: 1
    weight_filler {
      type: "xavier"
      std: 0.2
    }
    bias_filler {
      type: "constant"
      value: 0.2
    }
  }
}
layer {
  name: "inception_3a/relu_5x5_reduce"
  type: "ReLU"
  bottom: "inception_3a/5x5_reduce"
  top: "inception_3a/5x5_reduce"
}
layer {
  name: "inception_3a/5x5"
  type: "Convolution"
  bottom: "inception_3a/5x5_reduce"
  top: "inception_3a/5x5"
  param {
    lr_mult: 1
    decay_mult: 1
  }
  param {
    lr_mult: 2
    decay_mult: 0
  }
  convolution_param {
    num_output: 32
    pad: 2
    kernel_size: 5
    weight_filler {
      type: "xavier"
      std: 0.03
    }
    bias_filler {
      type: "constant"
      value: 0.2
    }
  }
}
layer {
  name: "inception_3a/relu_5x5"
  type: "ReLU"
  bottom: "inception_3a/5x5"
  top: "inception_3a/5x5"
}
layer {
  name: "inception_3a/pool"
  type: "Pooling"
  bottom: "pool2/3x3_s2"
  top: "inception_3a/pool"
  pooling_param {
    pool: MAX
    kernel_size: 3
    stride: 1
    pad: 1
  }
}
layer {
  name: "inception_3a/pool_proj"
  type: "Convolution"
  bottom: "inception_3a/pool"
  top: "inception_3a/pool_proj"
  param {
    lr_mult: 1
    decay_mult: 1
  }
  param {
    lr_mult: 2
    decay_mult: 0
  }
  convolution_param {
    num_output: 32
    kernel_size: 1
    weight_filler {
      type: "xavier"
      std: 0.1
    }
    bias_filler {
      type: "constant"
      value: 0.2
    }
  }
}
layer {
  name: "inception_3a/relu_pool_proj"
  type: "ReLU"
  bottom: "inception_3a/pool_proj"
  top: "inception_3a/pool_proj"
}
layer {
  name: "inception_3a/output"
  type: "Concat"
  bottom: "inception_3a/1x1"
  bottom: "inception_3a/3x3"
  bottom: "inception_3a/5x5"
  bottom: "inception_3a/pool_proj"
  top: "inception_3a/output"
}
layer {
  name: "inception_3b/1x1"
  type: "Convolution"
  bottom: "inception_3a/output"
  top: "inception_3b/1x1"
  param {
    lr_mult: 1
    decay_mult: 1
  }
  param {
    lr_mult: 2
    decay_mult: 0
  }
  convolution_param {
    num_output: 128
    kernel_size: 1
    weight_filler {
      type: "xavier"
      std: 0.03
    }
    bias_filler {
      type: "constant"
      value: 0.2
    }
  }
}
layer {
  name: "inception_3b/relu_1x1"
  type: "ReLU"
  bottom: "inception_3b/1x1"
  top: "inception_3b/1x1"
}
layer {
  name: "inception_3b/3x3_reduce"
  type: "Convolution"
  bottom: "inception_3a/output"
  top: "inception_3b/3x3_reduce"
  param {
    lr_mult: 1
    decay_mult: 1
  }
  param {
    lr_mult: 2
    decay_mult: 0
  }
  convolution_param {
    num_output: 128
    kernel_size: 1
    weight_filler {
      type: "xavier"
      std: 0.09
    }
    bias_filler {
      type: "constant"
      value: 0.2
    }
  }
}
layer {
  name: "inception_3b/relu_3x3_reduce"
  type: "ReLU"
  bottom: "inception_3b/3x3_reduce"
  top: "inception_3b/3x3_reduce"
}
layer {
  name: "inception_3b/3x3"
  type: "Convolution"
  bottom: "inception_3b/3x3_reduce"
  top: "inception_3b/3x3"
  param {
    lr_mult: 1
    decay_mult: 1
  }
  param {
    lr_mult: 2
    decay_mult: 0
  }
  convolution_param {
    num_output: 192
    pad: 1
    kernel_size: 3
    weight_filler {
      type: "xavier"
      std: 0.03
    }
    bias_filler {
      type: "constant"
      value: 0.2
    }
  }
}
layer {
  name: "inception_3b/relu_3x3"
  type: "ReLU"
  bottom: "inception_3b/3x3"
  top: "inception_3b/3x3"
}
layer {
  name: "inception_3b/5x5_reduce"
  type: "Convolution"
  bottom: "inception_3a/output"
  top: "inception_3b/5x5_reduce"
  param {
    lr_mult: 1
    decay_mult: 1
  }
  param {
    lr_mult: 2
    decay_mult: 0
  }
  convolution_param {
    num_output: 32
    kernel_size: 1
    weight_filler {
      type: "xavier"
      std: 0.2
    }
    bias_filler {
      type: "constant"
      value: 0.2
    }
  }
}
layer {
  name: "inception_3b/relu_5x5_reduce"
  type: "ReLU"
  bottom: "inception_3b/5x5_reduce"
  top: "inception_3b/5x5_reduce"
}
layer {
  name: "inception_3b/5x5"
  type: "Convolution"
  bottom: "inception_3b/5x5_reduce"
  top: "inception_3b/5x5"
  param {
    lr_mult: 1
    decay_mult: 1
  }
  param {
    lr_mult: 2
    decay_mult: 0
  }
  convolution_param {
    num_output: 96
    pad: 2
    kernel_size: 5
    weight_filler {
      type: "xavier"
      std: 0.03
    }
    bias_filler {
      type: "constant"
      value: 0.2
    }
  }
}
layer {
  name: "inception_3b/relu_5x5"
  type: "ReLU"
  bottom: "inception_3b/5x5"
  top: "inception_3b/5x5"
}
layer {
  name: "inception_3b/pool"
  type: "Pooling"
  bottom: "inception_3a/output"
  top: "inception_3b/pool"
  pooling_param {
    pool: MAX
    kernel_size: 3
    stride: 1
    pad: 1
  }
}
layer {
  name: "inception_3b/pool_proj"
  type: "Convolution"
  bottom: "inception_3b/pool"
  top: "inception_3b/pool_proj"
  param {
    lr_mult: 1
    decay_mult: 1
  }
  param {
    lr_mult: 2
    decay_mult: 0
  }
  convolution_param {
    num_output: 64
    kernel_size: 1
    weight_filler {
      type: "xavier"
      std: 0.1
    }
    bias_filler {
      type: "constant"
      value: 0.2
    }
  }
}
layer {
  name: "inception_3b/relu_pool_proj"
  type: "ReLU"
  bottom: "inception_3b/pool_proj"
  top: "inception_3b/pool_proj"
}
layer {
  name: "inception_3b/output"
  type: "Concat"
  bottom: "inception_3b/1x1"
  bottom: "inception_3b/3x3"
  bottom: "inception_3b/5x5"
  bottom: "inception_3b/pool_proj"
  top: "inception_3b/output"
}
layer {
  name: "pool3/3x3_s2"
  type: "Pooling"
  bottom: "inception_3b/output"
  top: "pool3/3x3_s2"
  pooling_param {
    pool: MAX
    kernel_size: 3
    stride: 2
  }
}
layer {
  name: "inception_4a/1x1"
  type: "Convolution"
  bottom: "pool3/3x3_s2"
  top: "inception_4a/1x1"
  param {
    lr_mult: 1
    decay_mult: 1
  }
  param {
    lr_mult: 2
    decay_mult: 0
  }
  convolution_param {
    num_output: 192
    kernel_size: 1
    weight_filler {
      type: "xavier"
      std: 0.03
    }
    bias_filler {
      type: "constant"
      value: 0.2
    }
  }
}
layer {
  name: "inception_4a/relu_1x1"
  type: "ReLU"
  bottom: "inception_4a/1x1"
  top: "inception_4a/1x1"
}
layer {
  name: "inception_4a/3x3_reduce"
  type: "Convolution"
  bottom: "pool3/3x3_s2"
  top: "inception_4a/3x3_reduce"
  param {
    lr_mult: 1
    decay_mult: 1
  }
  param {
    lr_mult: 2
    decay_mult: 0
  }
  convolution_param {
    num_output: 96
    kernel_size: 1
    weight_filler {
      type: "xavier"
      std: 0.09
    }
    bias_filler {
      type: "constant"
      value: 0.2
    }
  }
}
layer {
  name: "inception_4a/relu_3x3_reduce"
  type: "ReLU"
  bottom: "inception_4a/3x3_reduce"
  top: "inception_4a/3x3_reduce"
}
layer {
  name: "inception_4a/3x3"
  type: "Convolution"
  bottom: "inception_4a/3x3_reduce"
  top: "inception_4a/3x3"
  param {
    lr_mult: 1
    decay_mult: 1
  }
  param {
    lr_mult: 2
    decay_mult: 0
  }
  convolution_param {
    num_output: 208
    pad: 1
    kernel_size: 3
    weight_filler {
      type: "xavier"
      std: 0.03
    }
    bias_filler {
      type: "constant"
      value: 0.2
    }
  }
}
layer {
  name: "inception_4a/relu_3x3"
  type: "ReLU"
  bottom: "inception_4a/3x3"
  top: "inception_4a/3x3"
}
layer {
  name: "inception_4a/5x5_reduce"
  type: "Convolution"
  bottom: "pool3/3x3_s2"
  top: "inception_4a/5x5_reduce"
  param {
    lr_mult: 1
    decay_mult: 1
  }
  param {
    lr_mult: 2
    decay_mult: 0
  }
  convolution_param {
    num_output: 16
    kernel_size: 1
    weight_filler {
      type: "xavier"
      std: 0.2
    }
    bias_filler {
      type: "constant"
      value: 0.2
    }
  }
}
layer {
  name: "inception_4a/relu_5x5_reduce"
  type: "ReLU"
  bottom: "inception_4a/5x5_reduce"
  top: "inception_4a/5x5_reduce"
}
layer {
  name: "inception_4a/5x5"
  type: "Convolution"
  bottom: "inception_4a/5x5_reduce"
  top: "inception_4a/5x5"
  param {
    lr_mult: 1
    decay_mult: 1
  }
  param {
    lr_mult: 2
    decay_mult: 0
  }
  convolution_param {
    num_output: 48
    pad: 2
    kernel_size: 5
    weight_filler {
      type: "xavier"
      std: 0.03
    }
    bias_filler {
      type: "constant"
      value: 0.2
    }
  }
}
layer {
  name: "inception_4a/relu_5x5"
  type: "ReLU"
  bottom: "inception_4a/5x5"
  top: "inception_4a/5x5"
}
layer {
  name: "inception_4a/pool"
  type: "Pooling"
  bottom: "pool3/3x3_s2"
  top: "inception_4a/pool"
  pooling_param {
    pool: MAX
    kernel_size: 3
    stride: 1
    pad: 1
  }
}
layer {
  name: "inception_4a/pool_proj"
  type: "Convolution"
  bottom: "inception_4a/pool"
  top: "inception_4a/pool_proj"
  param {
    lr_mult: 1
    decay_mult: 1
  }
  param {
    lr_mult: 2
    decay_mult: 0
  }
  convolution_param {
    num_output: 64
    kernel_size: 1
    weight_filler {
      type: "xavier"
      std: 0.1
    }
    bias_filler {
      type: "constant"
      value: 0.2
    }
  }
}
layer {
  name: "inception_4a/relu_pool_proj"
  type: "ReLU"
  bottom: "inception_4a/pool_proj"
  top: "inception_4a/pool_proj"
}
layer {
  name: "inception_4a/output"
  type: "Concat"
  bottom: "inception_4a/1x1"
  bottom: "inception_4a/3x3"
  bottom: "inception_4a/5x5"
  bottom: "inception_4a/pool_proj"
  top: "inception_4a/output"
}
layer {
  name: "loss1/ave_pool"
  type: "Pooling"
  bottom: "inception_4a/output"
  top: "loss1/ave_pool"
  pooling_param {
    pool: AVE
    kernel_size: 5
    stride: 3
  }
}
layer {
  name: "loss1/conv"
  type: "Convolution"
  bottom: "loss1/ave_pool"
  top: "loss1/conv"
  param {
    lr_mult: 1
    decay_mult: 1
  }
  param {
    lr_mult: 2
    decay_mult: 0
  }
  convolution_param {
    num_output: 128
    kernel_size: 1
    weight_filler {
      type: "xavier"
      std: 0.08
    }
    bias_filler {
      type: "constant"
      value: 0.2
    }
  }
}
layer {
  name: "loss1/relu_conv"
  type: "ReLU"
  bottom: "loss1/conv"
  top: "loss1/conv"
}
layer {
  name: "loss1/fc"
  type: "InnerProduct"
  bottom: "loss1/conv"
  top: "loss1/fc"
  param {
    lr_mult: 1
    decay_mult: 1
  }
  param {
    lr_mult: 2
    decay_mult: 0
  }
  inner_product_param {
    num_output: 1024
    weight_filler {
      type: "xavier"
      std: 0.02
    }
    bias_filler {
      type: "constant"
      value: 0.2
    }
  }
}
layer {
  name: "loss1/relu_fc"
  type: "ReLU"
  bottom: "loss1/fc"
  top: "loss1/fc"
}
layer {
  name: "loss1/drop_fc"
  type: "Dropout"
  bottom: "loss1/fc"
  top: "loss1/fc"
  dropout_param {
    dropout_ratio: 0.7
  }
}
layer {
  name: "loss1/classifier_plantvillage"
  type: "InnerProduct"
  bottom: "loss1/fc"
  top: "loss1/classifier_plantvillage"
  param {
    lr_mult: 1
    decay_mult: 1
  }
  param {
    lr_mult: 2
    decay_mult: 0
  }
  inner_product_param {
    num_output: 38
    weight_filler {
      type: "xavier"
      std: 0.0009765625
    }
    bias_filler {
      type: "constant"
      value: 0
    }
  }
}
layer {
  name: "inception_4b/1x1"
  type: "Convolution"
  bottom: "inception_4a/output"
  top: "inception_4b/1x1"
  param {
    lr_mult: 1
    decay_mult: 1
  }
  param {
    lr_mult: 2
    decay_mult: 0
  }
  convolution_param {
    num_output: 160
    kernel_size: 1
    weight_filler {
      type: "xavier"
      std: 0.03
    }
    bias_filler {
      type: "constant"
      value: 0.2
    }
  }
}
layer {
  name: "inception_4b/relu_1x1"
  type: "ReLU"
  bottom: "inception_4b/1x1"
  top: "inception_4b/1x1"
}
layer {
  name: "inception_4b/3x3_reduce"
  type: "Convolution"
  bottom: "inception_4a/output"
  top: "inception_4b/3x3_reduce"
  param {
    lr_mult: 1
    decay_mult: 1
  }
  param {
    lr_mult: 2
    decay_mult: 0
  }
  convolution_param {
    num_output: 112
    kernel_size: 1
    weight_filler {
      type: "xavier"
      std: 0.09
    }
    bias_filler {
      type: "constant"
      value: 0.2
    }
  }
}
layer {
  name: "inception_4b/relu_3x3_reduce"
  type: "ReLU"
  bottom: "inception_4b/3x3_reduce"
  top: "inception_4b/3x3_reduce"
}
layer {
  name: "inception_4b/3x3"
  type: "Convolution"
  bottom: "inception_4b/3x3_reduce"
  top: "inception_4b/3x3"
  param {
    lr_mult: 1
    decay_mult: 1
  }
  param {
    lr_mult: 2
    decay_mult: 0
  }
  convolution_param {
    num_output: 224
    pad: 1
    kernel_size: 3
    weight_filler {
      type: "xavier"
      std: 0.03
    }
    bias_filler {
      type: "constant"
      value: 0.2
    }
  }
}
layer {
  name: "inception_4b/relu_3x3"
  type: "ReLU"
  bottom: "inception_4b/3x3"
  top: "inception_4b/3x3"
}
layer {
  name: "inception_4b/5x5_reduce"
  type: "Convolution"
  bottom: "inception_4a/output"
  top: "inception_4b/5x5_reduce"
  param {
    lr_mult: 1
    decay_mult: 1
  }
  param {
    lr_mult: 2
    decay_mult: 0
  }
  convolution_param {
    num_output: 24
    kernel_size: 1
    weight_filler {
      type: "xavier"
      std: 0.2
    }
    bias_filler {
      type: "constant"
      value: 0.2
    }
  }
}
layer {
  name: "inception_4b/relu_5x5_reduce"
  type: "ReLU"
  bottom: "inception_4b/5x5_reduce"
  top: "inception_4b/5x5_reduce"
}
layer {
  name: "inception_4b/5x5"
  type: "Convolution"
  bottom: "inception_4b/5x5_reduce"
  top: "inception_4b/5x5"
  param {
    lr_mult: 1
    decay_mult: 1
  }
  param {
    lr_mult: 2
    decay_mult: 0
  }
  convolution_param {
    num_output: 64
    pad: 2
    kernel_size: 5
    weight_filler {
      type: "xavier"
      std: 0.03
    }
    bias_filler {
      type: "constant"
      value: 0.2
    }
  }
}
layer {
  name: "inception_4b/relu_5x5"
  type: "ReLU"
  bottom: "inception_4b/5x5"
  top: "inception_4b/5x5"
}
layer {
  name: "inception_4b/pool"
  type: "Pooling"
  bottom: "inception_4a/output"
  top: "inception_4b/pool"
  pooling_param {
    pool: MAX
    kernel_size: 3
    stride: 1
    pad: 1
  }
}
layer {
  name: "inception_4b/pool_proj"
  type: "Convolution"
  bottom: "inception_4b/pool"
  top: "inception_4b/pool_proj"
  param {
    lr_mult: 1
    decay_mult: 1
  }
  param {
    lr_mult: 2
    decay_mult: 0
  }
  convolution_param {
    num_output: 64
    kernel_size: 1
    weight_filler {
      type: "xavier"
      std: 0.1
    }
    bias_filler {
      type: "constant"
      value: 0.2
    }
  }
}
layer {
  name: "inception_4b/relu_pool_proj"
  type: "ReLU"
  bottom: "inception_4b/pool_proj"
  top: "inception_4b/pool_proj"
}
layer {
  name: "inception_4b/output"
  type: "Concat"
  bottom: "inception_4b/1x1"
  bottom: "inception_4b/3x3"
  bottom: "inception_4b/5x5"
  bottom: "inception_4b/pool_proj"
  top: "inception_4b/output"
}
layer {
  name: "inception_4c/1x1"
  type: "Convolution"
  bottom: "inception_4b/output"
  top: "inception_4c/1x1"
  param {
    lr_mult: 1
    decay_mult: 1
  }
  param {
    lr_mult: 2
    decay_mult: 0
  }
  convolution_param {
    num_output: 128
    kernel_size: 1
    weight_filler {
      type: "xavier"
      std: 0.03
    }
    bias_filler {
      type: "constant"
      value: 0.2
    }
  }
}
layer {
  name: "inception_4c/relu_1x1"
  type: "ReLU"
  bottom: "inception_4c/1x1"
  top: "inception_4c/1x1"
}
layer {
  name: "inception_4c/3x3_reduce"
  type: "Convolution"
  bottom: "inception_4b/output"
  top: "inception_4c/3x3_reduce"
  param {
    lr_mult: 1
    decay_mult: 1
  }
  param {
    lr_mult: 2
    decay_mult: 0
  }
  convolution_param {
    num_output: 128
    kernel_size: 1
    weight_filler {
      type: "xavier"
      std: 0.09
    }
    bias_filler {
      type: "constant"
      value: 0.2
    }
  }
}
layer {
  name: "inception_4c/relu_3x3_reduce"
  type: "ReLU"
  bottom: "inception_4c/3x3_reduce"
  top: "inception_4c/3x3_reduce"
}
layer {
  name: "inception_4c/3x3"
  type: "Convolution"
  bottom: "inception_4c/3x3_reduce"
  top: "inception_4c/3x3"
  param {
    lr_mult: 1
    decay_mult: 1
  }
  param {
    lr_mult: 2
    decay_mult: 0
  }
  convolution_param {
    num_output: 256
    pad: 1
    kernel_size: 3
    weight_filler {
      type: "xavier"
      std: 0.03
    }
    bias_filler {
      type: "constant"
      value: 0.2
    }
  }
}
layer {
  name: "inception_4c/relu_3x3"
  type: "ReLU"
  bottom: "inception_4c/3x3"
  top: "inception_4c/3x3"
}
layer {
  name: "inception_4c/5x5_reduce"
  type: "Convolution"
  bottom: "inception_4b/output"
  top: "inception_4c/5x5_reduce"
  param {
    lr_mult: 1
    decay_mult: 1
  }
  param {
    lr_mult: 2
    decay_mult: 0
  }
  convolution_param {
    num_output: 24
    kernel_size: 1
    weight_filler {
      type: "xavier"
      std: 0.2
    }
    bias_filler {
      type: "constant"
      value: 0.2
    }
  }
}
layer {
  name: "inception_4c/relu_5x5_reduce"
  type: "ReLU"
  bottom: "inception_4c/5x5_reduce"
  top: "inception_4c/5x5_reduce"
}
layer {
  name: "inception_4c/5x5"
  type: "Convolution"
  bottom: "inception_4c/5x5_reduce"
  top: "inception_4c/5x5"
  param {
    lr_mult: 1
    decay_mult: 1
  }
  param {
    lr_mult: 2
    decay_mult: 0
  }
  convolution_param {
    num_output: 64
    pad: 2
    kernel_size: 5
    weight_filler {
      type: "xavier"
      std: 0.03
    }
    bias_filler {
      type: "constant"
      value: 0.2
    }
  }
}
layer {
  name: "inception_4c/relu_5x5"
  type: "ReLU"
  bottom: "inception_4c/5x5"
  top: "inception_4c/5x5"
}
layer {
  name: "inception_4c/pool"
  type: "Pooling"
  bottom: "inception_4b/output"
  top: "inception_4c/pool"
  pooling_param {
    pool: MAX
    kernel_size: 3
    stride: 1
    pad: 1
  }
}
layer {
  name: "inception_4c/pool_proj"
  type: "Convolution"
  bottom: "inception_4c/pool"
  top: "inception_4c/pool_proj"
  param {
    lr_mult: 1
    decay_mult: 1
  }
  param {
    lr_mult: 2
    decay_mult: 0
  }
  convolution_param {
    num_output: 64
    kernel_size: 1
    weight_filler {
      type: "xavier"
      std: 0.1
    }
    bias_filler {
      type: "constant"
      value: 0.2
    }
  }
}
layer {
  name: "inception_4c/relu_pool_proj"
  type: "ReLU"
  bottom: "inception_4c/pool_proj"
  top: "inception_4c/pool_proj"
}
layer {
  name: "inception_4c/output"
  type: "Concat"
  bottom: "inception_4c/1x1"
  bottom: "inception_4c/3x3"
  bottom: "inception_4c/5x5"
  bottom: "inception_4c/pool_proj"
  top: "inception_4c/output"
}
layer {
  name: "inception_4d/1x1"
  type: "Convolution"
  bottom: "inception_4c/output"
  top: "inception_4d/1x1"
  param {
    lr_mult: 1
    decay_mult: 1
  }
  param {
    lr_mult: 2
    decay_mult: 0
  }
  convolution_param {
    num_output: 112
    kernel_size: 1
    weight_filler {
      type: "xavier"
      std: 0.03
    }
    bias_filler {
      type: "constant"
      value: 0.2
    }
  }
}
layer {
  name: "inception_4d/relu_1x1"
  type: "ReLU"
  bottom: "inception_4d/1x1"
  top: "inception_4d/1x1"
}
layer {
  name: "inception_4d/3x3_reduce"
  type: "Convolution"
  bottom: "inception_4c/output"
  top: "inception_4d/3x3_reduce"
  param {
    lr_mult: 1
    decay_mult: 1
  }
  param {
    lr_mult: 2
    decay_mult: 0
  }
  convolution_param {
    num_output: 144
    kernel_size: 1
    weight_filler {
      type: "xavier"
      std: 0.09
    }
    bias_filler {
      type: "constant"
      value: 0.2
    }
  }
}
layer {
  name: "inception_4d/relu_3x3_reduce"
  type: "ReLU"
  bottom: "inception_4d/3x3_reduce"
  top: "inception_4d/3x3_reduce"
}
layer {
  name: "inception_4d/3x3"
  type: "Convolution"
  bottom: "inception_4d/3x3_reduce"
  top: "inception_4d/3x3"
  param {
    lr_mult: 1
    decay_mult: 1
  }
  param {
    lr_mult: 2
    decay_mult: 0
  }
  convolution_param {
    num_output: 288
    pad: 1
    kernel_size: 3
    weight_filler {
      type: "xavier"
      std: 0.03
    }
    bias_filler {
      type: "constant"
      value: 0.2
    }
  }
}
layer {
  name: "inception_4d/relu_3x3"
  type: "ReLU"
  bottom: "inception_4d/3x3"
  top: "inception_4d/3x3"
}
layer {
  name: "inception_4d/5x5_reduce"
  type: "Convolution"
  bottom: "inception_4c/output"
  top: "inception_4d/5x5_reduce"
  param {
    lr_mult: 1
    decay_mult: 1
  }
  param {
    lr_mult: 2
    decay_mult: 0
  }
  convolution_param {
    num_output: 32
    kernel_size: 1
    weight_filler {
      type: "xavier"
      std: 0.2
    }
    bias_filler {
      type: "constant"
      value: 0.2
    }
  }
}
layer {
  name: "inception_4d/relu_5x5_reduce"
  type: "ReLU"
  bottom: "inception_4d/5x5_reduce"
  top: "inception_4d/5x5_reduce"
}
layer {
  name: "inception_4d/5x5"
  type: "Convolution"
  bottom: "inception_4d/5x5_reduce"
  top: "inception_4d/5x5"
  param {
    lr_mult: 1
    decay_mult: 1
  }
  param {
    lr_mult: 2
    decay_mult: 0
  }
  convolution_param {
    num_output: 64
    pad: 2
    kernel_size: 5
    weight_filler {
      type: "xavier"
      std: 0.03
    }
    bias_filler {
      type: "constant"
      value: 0.2
    }
  }
}
layer {
  name: "inception_4d/relu_5x5"
  type: "ReLU"
  bottom: "inception_4d/5x5"
  top: "inception_4d/5x5"
}
layer {
  name: "inception_4d/pool"
  type: "Pooling"
  bottom: "inception_4c/output"
  top: "inception_4d/pool"
  pooling_param {
    pool: MAX
    kernel_size: 3
    stride: 1
    pad: 1
  }
}
layer {
  name: "inception_4d/pool_proj"
  type: "Convolution"
  bottom: "inception_4d/pool"
  top: "inception_4d/pool_proj"
  param {
    lr_mult: 1
    decay_mult: 1
  }
  param {
    lr_mult: 2
    decay_mult: 0
  }
  convolution_param {
    num_output: 64
    kernel_size: 1
    weight_filler {
      type: "xavier"
      std: 0.1
    }
    bias_filler {
      type: "constant"
      value: 0.2
    }
  }
}
layer {
  name: "inception_4d/relu_pool_proj"
  type: "ReLU"
  bottom: "inception_4d/pool_proj"
  top: "inception_4d/pool_proj"
}
layer {
  name: "inception_4d/output"
  type: "Concat"
  bottom: "inception_4d/1x1"
  bottom: "inception_4d/3x3"
  bottom: "inception_4d/5x5"
  bottom: "inception_4d/pool_proj"
  top: "inception_4d/output"
}
layer {
  name: "loss2/ave_pool"
  type: "Pooling"
  bottom: "inception_4d/output"
  top: "loss2/ave_pool"
  pooling_param {
    pool: AVE
    kernel_size: 5
    stride: 3
  }
}
layer {
  name: "loss2/conv"
  type: "Convolution"
  bottom: "loss2/ave_pool"
  top: "loss2/conv"
  param {
    lr_mult: 1
    decay_mult: 1
  }
  param {
    lr_mult: 2
    decay_mult: 0
  }
  convolution_param {
    num_output: 128
    kernel_size: 1
    weight_filler {
      type: "xavier"
      std: 0.08
    }
    bias_filler {
      type: "constant"
      value: 0.2
    }
  }
}
layer {
  name: "loss2/relu_conv"
  type: "ReLU"
  bottom: "loss2/conv"
  top: "loss2/conv"
}
layer {
  name: "loss2/fc"
  type: "InnerProduct"
  bottom: "loss2/conv"
  top: "loss2/fc"
  param {
    lr_mult: 1
    decay_mult: 1
  }
  param {
    lr_mult: 2
    decay_mult: 0
  }
  inner_product_param {
    num_output: 1024
    weight_filler {
      type: "xavier"
      std: 0.02
    }
    bias_filler {
      type: "constant"
      value: 0.2
    }
  }
}
layer {
  name: "loss2/relu_fc"
  type: "ReLU"
  bottom: "loss2/fc"
  top: "loss2/fc"
}
layer {
  name: "loss2/drop_fc"
  type: "Dropout"
  bottom: "loss2/fc"
  top: "loss2/fc"
  dropout_param {
    dropout_ratio: 0.7
  }
}
layer {
  name: "loss2/classifier_plantvillage"
  type: "InnerProduct"
  bottom: "loss2/fc"
  top: "loss2/classifier_plantvillage"
  param {
    lr_mult: 1
    decay_mult: 1
  }
  param {
    lr_mult: 2
    decay_mult: 0
  }
  inner_product_param {
    num_output: 38
    weight_filler {
      type: "xavier"
      std: 0.0009765625
    }
    bias_filler {
      type: "constant"
      value: 0
    }
  }
}
layer {
  name: "inception_4e/1x1"
  type: "Convolution"
  bottom: "inception_4d/output"
  top: "inception_4e/1x1"
  param {
    lr_mult: 1
    decay_mult: 1
  }
  param {
    lr_mult: 2
    decay_mult: 0
  }
  convolution_param {
    num_output: 256
    kernel_size: 1
    weight_filler {
      type: "xavier"
      std: 0.03
    }
    bias_filler {
      type: "constant"
      value: 0.2
    }
  }
}
layer {
  name: "inception_4e/relu_1x1"
  type: "ReLU"
  bottom: "inception_4e/1x1"
  top: "inception_4e/1x1"
}
layer {
  name: "inception_4e/3x3_reduce"
  type: "Convolution"
  bottom: "inception_4d/output"
  top: "inception_4e/3x3_reduce"
  param {
    lr_mult: 1
    decay_mult: 1
  }
  param {
    lr_mult: 2
    decay_mult: 0
  }
  convolution_param {
    num_output: 160
    kernel_size: 1
    weight_filler {
      type: "xavier"
      std: 0.09
    }
    bias_filler {
      type: "constant"
      value: 0.2
    }
  }
}
layer {
  name: "inception_4e/relu_3x3_reduce"
  type: "ReLU"
  bottom: "inception_4e/3x3_reduce"
  top: "inception_4e/3x3_reduce"
}
layer {
  name: "inception_4e/3x3"
  type: "Convolution"
  bottom: "inception_4e/3x3_reduce"
  top: "inception_4e/3x3"
  param {
    lr_mult: 1
    decay_mult: 1
  }
  param {
    lr_mult: 2
    decay_mult: 0
  }
  convolution_param {
    num_output: 320
    pad: 1
    kernel_size: 3
    weight_filler {
      type: "xavier"
      std: 0.03
    }
    bias_filler {
      type: "constant"
      value: 0.2
    }
  }
}
layer {
  name: "inception_4e/relu_3x3"
  type: "ReLU"
  bottom: "inception_4e/3x3"
  top: "inception_4e/3x3"
}
layer {
  name: "inception_4e/5x5_reduce"
  type: "Convolution"
  bottom: "inception_4d/output"
  top: "inception_4e/5x5_reduce"
  param {
    lr_mult: 1
    decay_mult: 1
  }
  param {
    lr_mult: 2
    decay_mult: 0
  }
  convolution_param {
    num_output: 32
    kernel_size: 1
    weight_filler {
      type: "xavier"
      std: 0.2
    }
    bias_filler {
      type: "constant"
      value: 0.2
    }
  }
}
layer {
  name: "inception_4e/relu_5x5_reduce"
  type: "ReLU"
  bottom: "inception_4e/5x5_reduce"
  top: "inception_4e/5x5_reduce"
}
layer {
  name: "inception_4e/5x5"
  type: "Convolution"
  bottom: "inception_4e/5x5_reduce"
  top: "inception_4e/
I0403 15:13:48.431876 11733 layer_factory.hpp:77] Creating layer data
I0403 15:13:48.432495 11733 net.cpp:91] Creating Layer data
I0403 15:13:48.432530 11733 net.cpp:399] data -> data
I0403 15:13:48.432582 11733 net.cpp:399] data -> label
I0403 15:13:48.432621 11733 data_transformer.cpp:25] Loading mean file from: /home/mohanty/data/final_dataset/lmdb/segmented-40-60/mean.binaryproto
I0403 15:13:48.434940 11736 db_lmdb.cpp:38] Opened lmdb /home/mohanty/data/final_dataset/lmdb/segmented-40-60/test_db
I0403 15:13:48.446074 11733 data_layer.cpp:41] output data size: 24,3,224,224
I0403 15:13:48.474004 11733 net.cpp:141] Setting up data
I0403 15:13:48.474102 11733 net.cpp:148] Top shape: 24 3 224 224 (3612672)
I0403 15:13:48.474125 11733 net.cpp:148] Top shape: 24 (24)
I0403 15:13:48.474143 11733 net.cpp:156] Memory required for data: 14450784
I0403 15:13:48.474169 11733 layer_factory.hpp:77] Creating layer label_data_1_split
I0403 15:13:48.474196 11733 net.cpp:91] Creating Layer label_data_1_split
I0403 15:13:48.474216 11733 net.cpp:425] label_data_1_split <- label
I0403 15:13:48.474249 11733 net.cpp:399] label_data_1_split -> label_data_1_split_0
I0403 15:13:48.474278 11733 net.cpp:399] label_data_1_split -> label_data_1_split_1
I0403 15:13:48.474300 11733 net.cpp:399] label_data_1_split -> label_data_1_split_2
I0403 15:13:48.474323 11733 net.cpp:399] label_data_1_split -> label_data_1_split_3
I0403 15:13:48.474342 11733 net.cpp:399] label_data_1_split -> label_data_1_split_4
I0403 15:13:48.474370 11733 net.cpp:399] label_data_1_split -> label_data_1_split_5
I0403 15:13:48.474392 11733 net.cpp:399] label_data_1_split -> label_data_1_split_6
I0403 15:13:48.474413 11733 net.cpp:399] label_data_1_split -> label_data_1_split_7
I0403 15:13:48.474433 11733 net.cpp:399] label_data_1_split -> label_data_1_split_8
I0403 15:13:48.474454 11733 net.cpp:399] label_data_1_split -> label_data_1_split_9
I0403 15:13:48.474575 11733 net.cpp:141] Setting up label_data_1_split
I0403 15:13:48.474599 11733 net.cpp:148] Top shape: 24 (24)
I0403 15:13:48.474617 11733 net.cpp:148] Top shape: 24 (24)
I0403 15:13:48.474633 11733 net.cpp:148] Top shape: 24 (24)
I0403 15:13:48.474649 11733 net.cpp:148] Top shape: 24 (24)
I0403 15:13:48.474665 11733 net.cpp:148] Top shape: 24 (24)
I0403 15:13:48.474681 11733 net.cpp:148] Top shape: 24 (24)
I0403 15:13:48.474697 11733 net.cpp:148] Top shape: 24 (24)
I0403 15:13:48.474714 11733 net.cpp:148] Top shape: 24 (24)
I0403 15:13:48.474730 11733 net.cpp:148] Top shape: 24 (24)
I0403 15:13:48.474746 11733 net.cpp:148] Top shape: 24 (24)
I0403 15:13:48.474792 11733 net.cpp:156] Memory required for data: 14451744
I0403 15:13:48.474808 11733 layer_factory.hpp:77] Creating layer conv1/7x7_s2
I0403 15:13:48.474841 11733 net.cpp:91] Creating Layer conv1/7x7_s2
I0403 15:13:48.474860 11733 net.cpp:425] conv1/7x7_s2 <- data
I0403 15:13:48.474881 11733 net.cpp:399] conv1/7x7_s2 -> conv1/7x7_s2
I0403 15:13:48.612946 11733 net.cpp:141] Setting up conv1/7x7_s2
I0403 15:13:48.613039 11733 net.cpp:148] Top shape: 24 64 112 112 (19267584)
I0403 15:13:48.613056 11733 net.cpp:156] Memory required for data: 91522080
I0403 15:13:48.613087 11733 layer_factory.hpp:77] Creating layer conv1/relu_7x7
I0403 15:13:48.613116 11733 net.cpp:91] Creating Layer conv1/relu_7x7
I0403 15:13:48.613136 11733 net.cpp:425] conv1/relu_7x7 <- conv1/7x7_s2
I0403 15:13:48.613155 11733 net.cpp:386] conv1/relu_7x7 -> conv1/7x7_s2 (in-place)
I0403 15:13:48.613418 11733 net.cpp:141] Setting up conv1/relu_7x7
I0403 15:13:48.613447 11733 net.cpp:148] Top shape: 24 64 112 112 (19267584)
I0403 15:13:48.613462 11733 net.cpp:156] Memory required for data: 168592416
I0403 15:13:48.613478 11733 layer_factory.hpp:77] Creating layer pool1/3x3_s2
I0403 15:13:48.613503 11733 net.cpp:91] Creating Layer pool1/3x3_s2
I0403 15:13:48.613523 11733 net.cpp:425] pool1/3x3_s2 <- conv1/7x7_s2
I0403 15:13:48.613540 11733 net.cpp:399] pool1/3x3_s2 -> pool1/3x3_s2
I0403 15:13:48.613615 11733 net.cpp:141] Setting up pool1/3x3_s2
I0403 15:13:48.613641 11733 net.cpp:148] Top shape: 24 64 56 56 (4816896)
I0403 15:13:48.613656 11733 net.cpp:156] Memory required for data: 187860000
I0403 15:13:48.613672 11733 layer_factory.hpp:77] Creating layer pool1/norm1
I0403 15:13:48.613697 11733 net.cpp:91] Creating Layer pool1/norm1
I0403 15:13:48.613713 11733 net.cpp:425] pool1/norm1 <- pool1/3x3_s2
I0403 15:13:48.613731 11733 net.cpp:399] pool1/norm1 -> pool1/norm1
I0403 15:13:48.614015 11733 net.cpp:141] Setting up pool1/norm1
I0403 15:13:48.614043 11733 net.cpp:148] Top shape: 24 64 56 56 (4816896)
I0403 15:13:48.614060 11733 net.cpp:156] Memory required for data: 207127584
I0403 15:13:48.614076 11733 layer_factory.hpp:77] Creating layer conv2/3x3_reduce
I0403 15:13:48.614101 11733 net.cpp:91] Creating Layer conv2/3x3_reduce
I0403 15:13:48.614117 11733 net.cpp:425] conv2/3x3_reduce <- pool1/norm1
I0403 15:13:48.614137 11733 net.cpp:399] conv2/3x3_reduce -> conv2/3x3_reduce
I0403 15:13:48.615465 11733 net.cpp:141] Setting up conv2/3x3_reduce
I0403 15:13:48.615495 11733 net.cpp:148] Top shape: 24 64 56 56 (4816896)
I0403 15:13:48.615511 11733 net.cpp:156] Memory required for data: 226395168
I0403 15:13:48.615533 11733 layer_factory.hpp:77] Creating layer conv2/relu_3x3_reduce
I0403 15:13:48.615553 11733 net.cpp:91] Creating Layer conv2/relu_3x3_reduce
I0403 15:13:48.615572 11733 net.cpp:425] conv2/relu_3x3_reduce <- conv2/3x3_reduce
I0403 15:13:48.615592 11733 net.cpp:386] conv2/relu_3x3_reduce -> conv2/3x3_reduce (in-place)
I0403 15:13:48.615842 11733 net.cpp:141] Setting up conv2/relu_3x3_reduce
I0403 15:13:48.615869 11733 net.cpp:148] Top shape: 24 64 56 56 (4816896)
I0403 15:13:48.615885 11733 net.cpp:156] Memory required for data: 245662752
I0403 15:13:48.615901 11733 layer_factory.hpp:77] Creating layer conv2/3x3
I0403 15:13:48.615924 11733 net.cpp:91] Creating Layer conv2/3x3
I0403 15:13:48.615942 11733 net.cpp:425] conv2/3x3 <- conv2/3x3_reduce
I0403 15:13:48.615960 11733 net.cpp:399] conv2/3x3 -> conv2/3x3
I0403 15:13:48.618229 11733 net.cpp:141] Setting up conv2/3x3
I0403 15:13:48.618263 11733 net.cpp:148] Top shape: 24 192 56 56 (14450688)
I0403 15:13:48.618279 11733 net.cpp:156] Memory required for data: 303465504
I0403 15:13:48.618301 11733 layer_factory.hpp:77] Creating layer conv2/relu_3x3
I0403 15:13:48.618321 11733 net.cpp:91] Creating Layer conv2/relu_3x3
I0403 15:13:48.618340 11733 net.cpp:425] conv2/relu_3x3 <- conv2/3x3
I0403 15:13:48.618363 11733 net.cpp:386] conv2/relu_3x3 -> conv2/3x3 (in-place)
I0403 15:13:48.618527 11733 net.cpp:141] Setting up conv2/relu_3x3
I0403 15:13:48.618554 11733 net.cpp:148] Top shape: 24 192 56 56 (14450688)
I0403 15:13:48.618602 11733 net.cpp:156] Memory required for data: 361268256
I0403 15:13:48.618618 11733 layer_factory.hpp:77] Creating layer conv2/norm2
I0403 15:13:48.618638 11733 net.cpp:91] Creating Layer conv2/norm2
I0403 15:13:48.618655 11733 net.cpp:425] conv2/norm2 <- conv2/3x3
I0403 15:13:48.618674 11733 net.cpp:399] conv2/norm2 -> conv2/norm2
I0403 15:13:48.618968 11733 net.cpp:141] Setting up conv2/norm2
I0403 15:13:48.618995 11733 net.cpp:148] Top shape: 24 192 56 56 (14450688)
I0403 15:13:48.619012 11733 net.cpp:156] Memory required for data: 419071008
I0403 15:13:48.619029 11733 layer_factory.hpp:77] Creating layer pool2/3x3_s2
I0403 15:13:48.619047 11733 net.cpp:91] Creating Layer pool2/3x3_s2
I0403 15:13:48.619063 11733 net.cpp:425] pool2/3x3_s2 <- conv2/norm2
I0403 15:13:48.619081 11733 net.cpp:399] pool2/3x3_s2 -> pool2/3x3_s2
I0403 15:13:48.619132 11733 net.cpp:141] Setting up pool2/3x3_s2
I0403 15:13:48.619154 11733 net.cpp:148] Top shape: 24 192 28 28 (3612672)
I0403 15:13:48.619169 11733 net.cpp:156] Memory required for data: 433521696
I0403 15:13:48.619185 11733 layer_factory.hpp:77] Creating layer pool2/3x3_s2_pool2/3x3_s2_0_split
I0403 15:13:48.619202 11733 net.cpp:91] Creating Layer pool2/3x3_s2_pool2/3x3_s2_0_split
I0403 15:13:48.619217 11733 net.cpp:425] pool2/3x3_s2_pool2/3x3_s2_0_split <- pool2/3x3_s2
I0403 15:13:48.619235 11733 net.cpp:399] pool2/3x3_s2_pool2/3x3_s2_0_split -> pool2/3x3_s2_pool2/3x3_s2_0_split_0
I0403 15:13:48.619256 11733 net.cpp:399] pool2/3x3_s2_pool2/3x3_s2_0_split -> pool2/3x3_s2_pool2/3x3_s2_0_split_1
I0403 15:13:48.619276 11733 net.cpp:399] pool2/3x3_s2_pool2/3x3_s2_0_split -> pool2/3x3_s2_pool2/3x3_s2_0_split_2
I0403 15:13:48.619295 11733 net.cpp:399] pool2/3x3_s2_pool2/3x3_s2_0_split -> pool2/3x3_s2_pool2/3x3_s2_0_split_3
I0403 15:13:48.619364 11733 net.cpp:141] Setting up pool2/3x3_s2_pool2/3x3_s2_0_split
I0403 15:13:48.619388 11733 net.cpp:148] Top shape: 24 192 28 28 (3612672)
I0403 15:13:48.619405 11733 net.cpp:148] Top shape: 24 192 28 28 (3612672)
I0403 15:13:48.619421 11733 net.cpp:148] Top shape: 24 192 28 28 (3612672)
I0403 15:13:48.619437 11733 net.cpp:148] Top shape: 24 192 28 28 (3612672)
I0403 15:13:48.619451 11733 net.cpp:156] Memory required for data: 491324448
I0403 15:13:48.619467 11733 layer_factory.hpp:77] Creating layer inception_3a/1x1
I0403 15:13:48.619488 11733 net.cpp:91] Creating Layer inception_3a/1x1
I0403 15:13:48.619503 11733 net.cpp:425] inception_3a/1x1 <- pool2/3x3_s2_pool2/3x3_s2_0_split_0
I0403 15:13:48.619523 11733 net.cpp:399] inception_3a/1x1 -> inception_3a/1x1
I0403 15:13:48.621129 11733 net.cpp:141] Setting up inception_3a/1x1
I0403 15:13:48.621163 11733 net.cpp:148] Top shape: 24 64 28 28 (1204224)
I0403 15:13:48.621181 11733 net.cpp:156] Memory required for data: 496141344
I0403 15:13:48.621201 11733 layer_factory.hpp:77] Creating layer inception_3a/relu_1x1
I0403 15:13:48.621219 11733 net.cpp:91] Creating Layer inception_3a/relu_1x1
I0403 15:13:48.621237 11733 net.cpp:425] inception_3a/relu_1x1 <- inception_3a/1x1
I0403 15:13:48.621255 11733 net.cpp:386] inception_3a/relu_1x1 -> inception_3a/1x1 (in-place)
I0403 15:13:48.621443 11733 net.cpp:141] Setting up inception_3a/relu_1x1
I0403 15:13:48.621470 11733 net.cpp:148] Top shape: 24 64 28 28 (1204224)
I0403 15:13:48.621486 11733 net.cpp:156] Memory required for data: 500958240
I0403 15:13:48.621502 11733 layer_factory.hpp:77] Creating layer inception_3a/3x3_reduce
I0403 15:13:48.621526 11733 net.cpp:91] Creating Layer inception_3a/3x3_reduce
I0403 15:13:48.621544 11733 net.cpp:425] inception_3a/3x3_reduce <- pool2/3x3_s2_pool2/3x3_s2_0_split_1
I0403 15:13:48.621567 11733 net.cpp:399] inception_3a/3x3_reduce -> inception_3a/3x3_reduce
I0403 15:13:48.623307 11733 net.cpp:141] Setting up inception_3a/3x3_reduce
I0403 15:13:48.623342 11733 net.cpp:148] Top shape: 24 96 28 28 (1806336)
I0403 15:13:48.623373 11733 net.cpp:156] Memory required for data: 508183584
I0403 15:13:48.623397 11733 layer_factory.hpp:77] Creating layer inception_3a/relu_3x3_reduce
I0403 15:13:48.623435 11733 net.cpp:91] Creating Layer inception_3a/relu_3x3_reduce
I0403 15:13:48.623458 11733 net.cpp:425] inception_3a/relu_3x3_reduce <- inception_3a/3x3_reduce
I0403 15:13:48.623477 11733 net.cpp:386] inception_3a/relu_3x3_reduce -> inception_3a/3x3_reduce (in-place)
I0403 15:13:48.623670 11733 net.cpp:141] Setting up inception_3a/relu_3x3_reduce
I0403 15:13:48.623697 11733 net.cpp:148] Top shape: 24 96 28 28 (1806336)
I0403 15:13:48.623714 11733 net.cpp:156] Memory required for data: 515408928
I0403 15:13:48.623730 11733 layer_factory.hpp:77] Creating layer inception_3a/3x3
I0403 15:13:48.623755 11733 net.cpp:91] Creating Layer inception_3a/3x3
I0403 15:13:48.623775 11733 net.cpp:425] inception_3a/3x3 <- inception_3a/3x3_reduce
I0403 15:13:48.623795 11733 net.cpp:399] inception_3a/3x3 -> inception_3a/3x3
I0403 15:13:48.625521 11733 net.cpp:141] Setting up inception_3a/3x3
I0403 15:13:48.625551 11733 net.cpp:148] Top shape: 24 128 28 28 (2408448)
I0403 15:13:48.625568 11733 net.cpp:156] Memory required for data: 525042720
I0403 15:13:48.625587 11733 layer_factory.hpp:77] Creating layer inception_3a/relu_3x3
I0403 15:13:48.625607 11733 net.cpp:91] Creating Layer inception_3a/relu_3x3
I0403 15:13:48.625624 11733 net.cpp:425] inception_3a/relu_3x3 <- inception_3a/3x3
I0403 15:13:48.625645 11733 net.cpp:386] inception_3a/relu_3x3 -> inception_3a/3x3 (in-place)
I0403 15:13:48.625931 11733 net.cpp:141] Setting up inception_3a/relu_3x3
I0403 15:13:48.625959 11733 net.cpp:148] Top shape: 24 128 28 28 (2408448)
I0403 15:13:48.625977 11733 net.cpp:156] Memory required for data: 534676512
I0403 15:13:48.625993 11733 layer_factory.hpp:77] Creating layer inception_3a/5x5_reduce
I0403 15:13:48.626018 11733 net.cpp:91] Creating Layer inception_3a/5x5_reduce
I0403 15:13:48.626036 11733 net.cpp:425] inception_3a/5x5_reduce <- pool2/3x3_s2_pool2/3x3_s2_0_split_2
I0403 15:13:48.626060 11733 net.cpp:399] inception_3a/5x5_reduce -> inception_3a/5x5_reduce
I0403 15:13:48.627065 11733 net.cpp:141] Setting up inception_3a/5x5_reduce
I0403 15:13:48.627095 11733 net.cpp:148] Top shape: 24 16 28 28 (301056)
I0403 15:13:48.627112 11733 net.cpp:156] Memory required for data: 535880736
I0403 15:13:48.627131 11733 layer_factory.hpp:77] Creating layer inception_3a/relu_5x5_reduce
I0403 15:13:48.627151 11733 net.cpp:91] Creating Layer inception_3a/relu_5x5_reduce
I0403 15:13:48.627168 11733 net.cpp:425] inception_3a/relu_5x5_reduce <- inception_3a/5x5_reduce
I0403 15:13:48.627190 11733 net.cpp:386] inception_3a/relu_5x5_reduce -> inception_3a/5x5_reduce (in-place)
I0403 15:13:48.627519 11733 net.cpp:141] Setting up inception_3a/relu_5x5_reduce
I0403 15:13:48.627547 11733 net.cpp:148] Top shape: 24 16 28 28 (301056)
I0403 15:13:48.627563 11733 net.cpp:156] Memory required for data: 537084960
I0403 15:13:48.627579 11733 layer_factory.hpp:77] Creating layer inception_3a/5x5
I0403 15:13:48.627612 11733 net.cpp:91] Creating Layer inception_3a/5x5
I0403 15:13:48.627631 11733 net.cpp:425] inception_3a/5x5 <- inception_3a/5x5_reduce
I0403 15:13:48.627655 11733 net.cpp:399] inception_3a/5x5 -> inception_3a/5x5
I0403 15:13:48.628721 11733 net.cpp:141] Setting up inception_3a/5x5
I0403 15:13:48.628753 11733 net.cpp:148] Top shape: 24 32 28 28 (602112)
I0403 15:13:48.628772 11733 net.cpp:156] Memory required for data: 539493408
I0403 15:13:48.628792 11733 layer_factory.hpp:77] Creating layer inception_3a/relu_5x5
I0403 15:13:48.628811 11733 net.cpp:91] Creating Layer inception_3a/relu_5x5
I0403 15:13:48.628829 11733 net.cpp:425] inception_3a/relu_5x5 <- inception_3a/5x5
I0403 15:13:48.628851 11733 net.cpp:386] inception_3a/relu_5x5 -> inception_3a/5x5 (in-place)
I0403 15:13:48.629036 11733 net.cpp:141] Setting up inception_3a/relu_5x5
I0403 15:13:48.629063 11733 net.cpp:148] Top shape: 24 32 28 28 (602112)
I0403 15:13:48.629078 11733 net.cpp:156] Memory required for data: 541901856
I0403 15:13:48.629094 11733 layer_factory.hpp:77] Creating layer inception_3a/pool
I0403 15:13:48.629113 11733 net.cpp:91] Creating Layer inception_3a/pool
I0403 15:13:48.629145 11733 net.cpp:425] inception_3a/pool <- pool2/3x3_s2_pool2/3x3_s2_0_split_3
I0403 15:13:48.629168 11733 net.cpp:399] inception_3a/pool -> inception_3a/pool
I0403 15:13:48.629230 11733 net.cpp:141] Setting up inception_3a/pool
I0403 15:13:48.629254 11733 net.cpp:148] Top shape: 24 192 28 28 (3612672)
I0403 15:13:48.629269 11733 net.cpp:156] Memory required for data: 556352544
I0403 15:13:48.629286 11733 layer_factory.hpp:77] Creating layer inception_3a/pool_proj
I0403 15:13:48.629308 11733 net.cpp:91] Creating Layer inception_3a/pool_proj
I0403 15:13:48.629326 11733 net.cpp:425] inception_3a/pool_proj <- inception_3a/pool
I0403 15:13:48.629354 11733 net.cpp:399] inception_3a/pool_proj -> inception_3a/pool_proj
I0403 15:13:48.630362 11733 net.cpp:141] Setting up inception_3a/pool_proj
I0403 15:13:48.630391 11733 net.cpp:148] Top shape: 24 32 28 28 (602112)
I0403 15:13:48.630408 11733 net.cpp:156] Memory required for data: 558760992
I0403 15:13:48.630434 11733 layer_factory.hpp:77] Creating layer inception_3a/relu_pool_proj
I0403 15:13:48.630455 11733 net.cpp:91] Creating Layer inception_3a/relu_pool_proj
I0403 15:13:48.630472 11733 net.cpp:425] inception_3a/relu_pool_proj <- inception_3a/pool_proj
I0403 15:13:48.630493 11733 net.cpp:386] inception_3a/relu_pool_proj -> inception_3a/pool_proj (in-place)
I0403 15:13:48.630784 11733 net.cpp:141] Setting up inception_3a/relu_pool_proj
I0403 15:13:48.630812 11733 net.cpp:148] Top shape: 24 32 28 28 (602112)
I0403 15:13:48.630830 11733 net.cpp:156] Memory required for data: 561169440
I0403 15:13:48.630846 11733 layer_factory.hpp:77] Creating layer inception_3a/output
I0403 15:13:48.630864 11733 net.cpp:91] Creating Layer inception_3a/output
I0403 15:13:48.630882 11733 net.cpp:425] inception_3a/output <- inception_3a/1x1
I0403 15:13:48.630899 11733 net.cpp:425] inception_3a/output <- inception_3a/3x3
I0403 15:13:48.630916 11733 net.cpp:425] inception_3a/output <- inception_3a/5x5
I0403 15:13:48.630934 11733 net.cpp:425] inception_3a/output <- inception_3a/pool_proj
I0403 15:13:48.630954 11733 net.cpp:399] inception_3a/output -> inception_3a/output
I0403 15:13:48.631003 11733 net.cpp:141] Setting up inception_3a/output
I0403 15:13:48.631032 11733 net.cpp:148] Top shape: 24 256 28 28 (4816896)
I0403 15:13:48.631049 11733 net.cpp:156] Memory required for data: 580437024
I0403 15:13:48.631065 11733 layer_factory.hpp:77] Creating layer inception_3a/output_inception_3a/output_0_split
I0403 15:13:48.631084 11733 net.cpp:91] Creating Layer inception_3a/output_inception_3a/output_0_split
I0403 15:13:48.631101 11733 net.cpp:425] inception_3a/output_inception_3a/output_0_split <- inception_3a/output
I0403 15:13:48.631119 11733 net.cpp:399] inception_3a/output_inception_3a/output_0_split -> inception_3a/output_inception_3a/output_0_split_0
I0403 15:13:48.631140 11733 net.cpp:399] inception_3a/output_inception_3a/output_0_split -> inception_3a/output_inception_3a/output_0_split_1
I0403 15:13:48.631167 11733 net.cpp:399] inception_3a/output_inception_3a/output_0_split -> inception_3a/output_inception_3a/output_0_split_2
I0403 15:13:48.631191 11733 net.cpp:399] inception_3a/output_inception_3a/output_0_split -> inception_3a/output_inception_3a/output_0_split_3
I0403 15:13:48.631268 11733 net.cpp:141] Setting up inception_3a/output_inception_3a/output_0_split
I0403 15:13:48.631296 11733 net.cpp:148] Top shape: 24 256 28 28 (4816896)
I0403 15:13:48.631315 11733 net.cpp:148] Top shape: 24 256 28 28 (4816896)
I0403 15:13:48.631331 11733 net.cpp:148] Top shape: 24 256 28 28 (4816896)
I0403 15:13:48.631351 11733 net.cpp:148] Top shape: 24 256 28 28 (4816896)
I0403 15:13:48.631367 11733 net.cpp:156] Memory required for data: 657507360
I0403 15:13:48.631384 11733 layer_factory.hpp:77] Creating layer inception_3b/1x1
I0403 15:13:48.631408 11733 net.cpp:91] Creating Layer inception_3b/1x1
I0403 15:13:48.631427 11733 net.cpp:425] inception_3b/1x1 <- inception_3a/output_inception_3a/output_0_split_0
I0403 15:13:48.631446 11733 net.cpp:399] inception_3b/1x1 -> inception_3b/1x1
I0403 15:13:48.632645 11733 net.cpp:141] Setting up inception_3b/1x1
I0403 15:13:48.632688 11733 net.cpp:148] Top shape: 24 128 28 28 (2408448)
I0403 15:13:48.632704 11733 net.cpp:156] Memory required for data: 667141152
I0403 15:13:48.632731 11733 layer_factory.hpp:77] Creating layer inception_3b/relu_1x1
I0403 15:13:48.632753 11733 net.cpp:91] Creating Layer inception_3b/relu_1x1
I0403 15:13:48.632772 11733 net.cpp:425] inception_3b/relu_1x1 <- inception_3b/1x1
I0403 15:13:48.632791 11733 net.cpp:386] inception_3b/relu_1x1 -> inception_3b/1x1 (in-place)
I0403 15:13:48.632973 11733 net.cpp:141] Setting up inception_3b/relu_1x1
I0403 15:13:48.633000 11733 net.cpp:148] Top shape: 24 128 28 28 (2408448)
I0403 15:13:48.633015 11733 net.cpp:156] Memory required for data: 676774944
I0403 15:13:48.633033 11733 layer_factory.hpp:77] Creating layer inception_3b/3x3_reduce
I0403 15:13:48.633056 11733 net.cpp:91] Creating Layer inception_3b/3x3_reduce
I0403 15:13:48.633074 11733 net.cpp:425] inception_3b/3x3_reduce <- inception_3a/output_inception_3a/output_0_split_1
I0403 15:13:48.633097 11733 net.cpp:399] inception_3b/3x3_reduce -> inception_3b/3x3_reduce
I0403 15:13:48.634300 11733 net.cpp:141] Setting up inception_3b/3x3_reduce
I0403 15:13:48.634335 11733 net.cpp:148] Top shape: 24 128 28 28 (2408448)
I0403 15:13:48.634358 11733 net.cpp:156] Memory required for data: 686408736
I0403 15:13:48.634378 11733 layer_factory.hpp:77] Creating layer inception_3b/relu_3x3_reduce
I0403 15:13:48.634398 11733 net.cpp:91] Creating Layer inception_3b/relu_3x3_reduce
I0403 15:13:48.634415 11733 net.cpp:425] inception_3b/relu_3x3_reduce <- inception_3b/3x3_reduce
I0403 15:13:48.634436 11733 net.cpp:386] inception_3b/relu_3x3_reduce -> inception_3b/3x3_reduce (in-place)
I0403 15:13:48.634623 11733 net.cpp:141] Setting up inception_3b/relu_3x3_reduce
I0403 15:13:48.634652 11733 net.cpp:148] Top shape: 24 128 28 28 (2408448)
I0403 15:13:48.634670 11733 net.cpp:156] Memory required for data: 696042528
I0403 15:13:48.634686 11733 layer_factory.hpp:77] Creating layer inception_3b/3x3
I0403 15:13:48.634722 11733 net.cpp:91] Creating Layer inception_3b/3x3
I0403 15:13:48.634742 11733 net.cpp:425] inception_3b/3x3 <- inception_3b/3x3_reduce
I0403 15:13:48.634764 11733 net.cpp:399] inception_3b/3x3 -> inception_3b/3x3
I0403 15:13:48.637811 11733 net.cpp:141] Setting up inception_3b/3x3
I0403 15:13:48.637842 11733 net.cpp:148] Top shape: 24 192 28 28 (3612672)
I0403 15:13:48.637859 11733 net.cpp:156] Memory required for data: 710493216
I0403 15:13:48.637879 11733 layer_factory.hpp:77] Creating layer inception_3b/relu_3x3
I0403 15:13:48.637899 11733 net.cpp:91] Creating Layer inception_3b/relu_3x3
I0403 15:13:48.637917 11733 net.cpp:425] inception_3b/relu_3x3 <- inception_3b/3x3
I0403 15:13:48.637938 11733 net.cpp:386] inception_3b/relu_3x3 -> inception_3b/3x3 (in-place)
I0403 15:13:48.638228 11733 net.cpp:141] Setting up inception_3b/relu_3x3
I0403 15:13:48.638257 11733 net.cpp:148] Top shape: 24 192 28 28 (3612672)
I0403 15:13:48.638275 11733 net.cpp:156] Memory required for data: 724943904
I0403 15:13:48.638291 11733 layer_factory.hpp:77] Creating layer inception_3b/5x5_reduce
I0403 15:13:48.638319 11733 net.cpp:91] Creating Layer inception_3b/5x5_reduce
I0403 15:13:48.638337 11733 net.cpp:425] inception_3b/5x5_reduce <- inception_3a/output_inception_3a/output_0_split_2
I0403 15:13:48.638370 11733 net.cpp:399] inception_3b/5x5_reduce -> inception_3b/5x5_reduce
I0403 15:13:48.639403 11733 net.cpp:141] Setting up inception_3b/5x5_reduce
I0403 15:13:48.639436 11733 net.cpp:148] Top shape: 24 32 28 28 (602112)
I0403 15:13:48.639452 11733 net.cpp:156] Memory required for data: 727352352
I0403 15:13:48.639472 11733 layer_factory.hpp:77] Creating layer inception_3b/relu_5x5_reduce
I0403 15:13:48.639492 11733 net.cpp:91] Creating Layer inception_3b/relu_5x5_reduce
I0403 15:13:48.639509 11733 net.cpp:425] inception_3b/relu_5x5_reduce <- inception_3b/5x5_reduce
I0403 15:13:48.639531 11733 net.cpp:386] inception_3b/relu_5x5_reduce -> inception_3b/5x5_reduce (in-place)
I0403 15:13:48.639745 11733 net.cpp:141] Setting up inception_3b/relu_5x5_reduce
I0403 15:13:48.639772 11733 net.cpp:148] Top shape: 24 32 28 28 (602112)
I0403 15:13:48.639788 11733 net.cpp:156] Memory required for data: 729760800
I0403 15:13:48.639804 11733 layer_factory.hpp:77] Creating layer inception_3b/5x5
I0403 15:13:48.639828 11733 net.cpp:91] Creating Layer inception_3b/5x5
I0403 15:13:48.639847 11733 net.cpp:425] inception_3b/5x5 <- inception_3b/5x5_reduce
I0403 15:13:48.639869 11733 net.cpp:399] inception_3b/5x5 -> inception_3b/5x5
I0403 15:13:48.641969 11733 net.cpp:141] Setting up inception_3b/5x5
I0403 15:13:48.642004 11733 net.cpp:148] Top shape: 24 96 28 28 (1806336)
I0403 15:13:48.642021 11733 net.cpp:156] Memory required for data: 736986144
I0403 15:13:48.642041 11733 layer_factory.hpp:77] Creating layer inception_3b/relu_5x5
I0403 15:13:48.642060 11733 net.cpp:91] Creating Layer inception_3b/relu_5x5
I0403 15:13:48.642078 11733 net.cpp:425] inception_3b/relu_5x5 <- inception_3b/5x5
I0403 15:13:48.642097 11733 net.cpp:386] inception_3b/relu_5x5 -> inception_3b/5x5 (in-place)
I0403 15:13:48.642300 11733 net.cpp:141] Setting up inception_3b/relu_5x5
I0403 15:13:48.642328 11733 net.cpp:148] Top shape: 24 96 28 28 (1806336)
I0403 15:13:48.642344 11733 net.cpp:156] Memory required for data: 744211488
I0403 15:13:48.642366 11733 layer_factory.hpp:77] Creating layer inception_3b/pool
I0403 15:13:48.642387 11733 net.cpp:91] Creating Layer inception_3b/pool
I0403 15:13:48.642405 11733 net.cpp:425] inception_3b/pool <- inception_3a/output_inception_3a/output_0_split_3
I0403 15:13:48.642423 11733 net.cpp:399] inception_3b/pool -> inception_3b/pool
I0403 15:13:48.642483 11733 net.cpp:141] Setting up inception_3b/pool
I0403 15:13:48.642510 11733 net.cpp:148] Top shape: 24 256 28 28 (4816896)
I0403 15:13:48.642529 11733 net.cpp:156] Memory required for data: 763479072
I0403 15:13:48.642544 11733 layer_factory.hpp:77] Creating layer inception_3b/pool_proj
I0403 15:13:48.642565 11733 net.cpp:91] Creating Layer inception_3b/pool_proj
I0403 15:13:48.642583 11733 net.cpp:425] inception_3b/pool_proj <- inception_3b/pool
I0403 15:13:48.642606 11733 net.cpp:399] inception_3b/pool_proj -> inception_3b/pool_proj
I0403 15:13:48.643724 11733 net.cpp:141] Setting up inception_3b/pool_proj
I0403 15:13:48.643754 11733 net.cpp:148] Top shape: 24 64 28 28 (1204224)
I0403 15:13:48.643771 11733 net.cpp:156] Memory required for data: 768295968
I0403 15:13:48.643792 11733 layer_factory.hpp:77] Creating layer inception_3b/relu_pool_proj
I0403 15:13:48.643813 11733 net.cpp:91] Creating Layer inception_3b/relu_pool_proj
I0403 15:13:48.643831 11733 net.cpp:425] inception_3b/relu_pool_proj <- inception_3b/pool_proj
I0403 15:13:48.643851 11733 net.cpp:386] inception_3b/relu_pool_proj -> inception_3b/pool_proj (in-place)
I0403 15:13:48.644263 11733 net.cpp:141] Setting up inception_3b/relu_pool_proj
I0403 15:13:48.644290 11733 net.cpp:148] Top shape: 24 64 28 28 (1204224)
I0403 15:13:48.644307 11733 net.cpp:156] Memory required for data: 773112864
I0403 15:13:48.644323 11733 layer_factory.hpp:77] Creating layer inception_3b/output
I0403 15:13:48.644342 11733 net.cpp:91] Creating Layer inception_3b/output
I0403 15:13:48.644364 11733 net.cpp:425] inception_3b/output <- inception_3b/1x1
I0403 15:13:48.644382 11733 net.cpp:425] inception_3b/output <- inception_3b/3x3
I0403 15:13:48.644400 11733 net.cpp:425] inception_3b/output <- inception_3b/5x5
I0403 15:13:48.644418 11733 net.cpp:425] inception_3b/output <- inception_3b/pool_proj
I0403 15:13:48.644438 11733 net.cpp:399] inception_3b/output -> inception_3b/output
I0403 15:13:48.644485 11733 net.cpp:141] Setting up inception_3b/output
I0403 15:13:48.644512 11733 net.cpp:148] Top shape: 24 480 28 28 (9031680)
I0403 15:13:48.644528 11733 net.cpp:156] Memory required for data: 809239584
I0403 15:13:48.644544 11733 layer_factory.hpp:77] Creating layer pool3/3x3_s2
I0403 15:13:48.644563 11733 net.cpp:91] Creating Layer pool3/3x3_s2
I0403 15:13:48.644582 11733 net.cpp:425] pool3/3x3_s2 <- inception_3b/output
I0403 15:13:48.644619 11733 net.cpp:399] pool3/3x3_s2 -> pool3/3x3_s2
I0403 15:13:48.644681 11733 net.cpp:141] Setting up pool3/3x3_s2
I0403 15:13:48.644706 11733 net.cpp:148] Top shape: 24 480 14 14 (2257920)
I0403 15:13:48.644721 11733 net.cpp:156] Memory required for data: 818271264
I0403 15:13:48.644737 11733 layer_factory.hpp:77] Creating layer pool3/3x3_s2_pool3/3x3_s2_0_split
I0403 15:13:48.644759 11733 net.cpp:91] Creating Layer pool3/3x3_s2_pool3/3x3_s2_0_split
I0403 15:13:48.644778 11733 net.cpp:425] pool3/3x3_s2_pool3/3x3_s2_0_split <- pool3/3x3_s2
I0403 15:13:48.644795 11733 net.cpp:399] pool3/3x3_s2_pool3/3x3_s2_0_split -> pool3/3x3_s2_pool3/3x3_s2_0_split_0
I0403 15:13:48.644816 11733 net.cpp:399] pool3/3x3_s2_pool3/3x3_s2_0_split -> pool3/3x3_s2_pool3/3x3_s2_0_split_1
I0403 15:13:48.644840 11733 net.cpp:399] pool3/3x3_s2_pool3/3x3_s2_0_split -> pool3/3x3_s2_pool3/3x3_s2_0_split_2
I0403 15:13:48.644861 11733 net.cpp:399] pool3/3x3_s2_pool3/3x3_s2_0_split -> pool3/3x3_s2_pool3/3x3_s2_0_split_3
I0403 15:13:48.644942 11733 net.cpp:141] Setting up pool3/3x3_s2_pool3/3x3_s2_0_split
I0403 15:13:48.644966 11733 net.cpp:148] Top shape: 24 480 14 14 (2257920)
I0403 15:13:48.644984 11733 net.cpp:148] Top shape: 24 480 14 14 (2257920)
I0403 15:13:48.644999 11733 net.cpp:148] Top shape: 24 480 14 14 (2257920)
I0403 15:13:48.645016 11733 net.cpp:148] Top shape: 24 480 14 14 (2257920)
I0403 15:13:48.645030 11733 net.cpp:156] Memory required for data: 854397984
I0403 15:13:48.645046 11733 layer_factory.hpp:77] Creating layer inception_4a/1x1
I0403 15:13:48.645069 11733 net.cpp:91] Creating Layer inception_4a/1x1
I0403 15:13:48.645087 11733 net.cpp:425] inception_4a/1x1 <- pool3/3x3_s2_pool3/3x3_s2_0_split_0
I0403 15:13:48.645110 11733 net.cpp:399] inception_4a/1x1 -> inception_4a/1x1
I0403 15:13:48.646786 11733 net.cpp:141] Setting up inception_4a/1x1
I0403 15:13:48.646816 11733 net.cpp:148] Top shape: 24 192 14 14 (903168)
I0403 15:13:48.646833 11733 net.cpp:156] Memory required for data: 858010656
I0403 15:13:48.646852 11733 layer_factory.hpp:77] Creating layer inception_4a/relu_1x1
I0403 15:13:48.646874 11733 net.cpp:91] Creating Layer inception_4a/relu_1x1
I0403 15:13:48.646893 11733 net.cpp:425] inception_4a/relu_1x1 <- inception_4a/1x1
I0403 15:13:48.646913 11733 net.cpp:386] inception_4a/relu_1x1 -> inception_4a/1x1 (in-place)
I0403 15:13:48.647099 11733 net.cpp:141] Setting up inception_4a/relu_1x1
I0403 15:13:48.647127 11733 net.cpp:148] Top shape: 24 192 14 14 (903168)
I0403 15:13:48.647145 11733 net.cpp:156] Memory required for data: 861623328
I0403 15:13:48.647161 11733 layer_factory.hpp:77] Creating layer inception_4a/3x3_reduce
I0403 15:13:48.647184 11733 net.cpp:91] Creating Layer inception_4a/3x3_reduce
I0403 15:13:48.647204 11733 net.cpp:425] inception_4a/3x3_reduce <- pool3/3x3_s2_pool3/3x3_s2_0_split_1
I0403 15:13:48.647225 11733 net.cpp:399] inception_4a/3x3_reduce -> inception_4a/3x3_reduce
I0403 15:13:48.648573 11733 net.cpp:141] Setting up inception_4a/3x3_reduce
I0403 15:13:48.648603 11733 net.cpp:148] Top shape: 24 96 14 14 (451584)
I0403 15:13:48.648619 11733 net.cpp:156] Memory required for data: 863429664
I0403 15:13:48.648646 11733 layer_factory.hpp:77] Creating layer inception_4a/relu_3x3_reduce
I0403 15:13:48.648670 11733 net.cpp:91] Creating Layer inception_4a/relu_3x3_reduce
I0403 15:13:48.648689 11733 net.cpp:425] inception_4a/relu_3x3_reduce <- inception_4a/3x3_reduce
I0403 15:13:48.648707 11733 net.cpp:386] inception_4a/relu_3x3_reduce -> inception_4a/3x3_reduce (in-place)
I0403 15:13:48.648890 11733 net.cpp:141] Setting up inception_4a/relu_3x3_reduce
I0403 15:13:48.648916 11733 net.cpp:148] Top shape: 24 96 14 14 (451584)
I0403 15:13:48.648931 11733 net.cpp:156] Memory required for data: 865236000
I0403 15:13:48.648947 11733 layer_factory.hpp:77] Creating layer inception_4a/3x3
I0403 15:13:48.648972 11733 net.cpp:91] Creating Layer inception_4a/3x3
I0403 15:13:48.648990 11733 net.cpp:425] inception_4a/3x3 <- inception_4a/3x3_reduce
I0403 15:13:48.649011 11733 net.cpp:399] inception_4a/3x3 -> inception_4a/3x3
I0403 15:13:48.651799 11733 net.cpp:141] Setting up inception_4a/3x3
I0403 15:13:48.651831 11733 net.cpp:148] Top shape: 24 208 14 14 (978432)
I0403 15:13:48.651849 11733 net.cpp:156] Memory required for data: 869149728
I0403 15:13:48.651870 11733 layer_factory.hpp:77] Creating layer inception_4a/relu_3x3
I0403 15:13:48.651888 11733 net.cpp:91] Creating Layer inception_4a/relu_3x3
I0403 15:13:48.651906 11733 net.cpp:425] inception_4a/relu_3x3 <- inception_4a/3x3
I0403 15:13:48.651923 11733 net.cpp:386] inception_4a/relu_3x3 -> inception_4a/3x3 (in-place)
I0403 15:13:48.652205 11733 net.cpp:141] Setting up inception_4a/relu_3x3
I0403 15:13:48.652235 11733 net.cpp:148] Top shape: 24 208 14 14 (978432)
I0403 15:13:48.652251 11733 net.cpp:156] Memory required for data: 873063456
I0403 15:13:48.652268 11733 layer_factory.hpp:77] Creating layer inception_4a/5x5_reduce
I0403 15:13:48.652292 11733 net.cpp:91] Creating Layer inception_4a/5x5_reduce
I0403 15:13:48.652323 11733 net.cpp:425] inception_4a/5x5_reduce <- pool3/3x3_s2_pool3/3x3_s2_0_split_2
I0403 15:13:48.652357 11733 net.cpp:399] inception_4a/5x5_reduce -> inception_4a/5x5_reduce
I0403 15:13:48.653424 11733 net.cpp:141] Setting up inception_4a/5x5_reduce
I0403 15:13:48.653453 11733 net.cpp:148] Top shape: 24 16 14 14 (75264)
I0403 15:13:48.653471 11733 net.cpp:156] Memory required for data: 873364512
I0403 15:13:48.653489 11733 layer_factory.hpp:77] Creating layer inception_4a/relu_5x5_reduce
I0403 15:13:48.653509 11733 net.cpp:91] Creating Layer inception_4a/relu_5x5_reduce
I0403 15:13:48.653527 11733 net.cpp:425] inception_4a/relu_5x5_reduce <- inception_4a/5x5_reduce
I0403 15:13:48.653548 11733 net.cpp:386] inception_4a/relu_5x5_reduce -> inception_4a/5x5_reduce (in-place)
I0403 15:13:48.653733 11733 net.cpp:141] Setting up inception_4a/relu_5x5_reduce
I0403 15:13:48.653760 11733 net.cpp:148] Top shape: 24 16 14 14 (75264)
I0403 15:13:48.653775 11733 net.cpp:156] Memory required for data: 873665568
I0403 15:13:48.653790 11733 layer_factory.hpp:77] Creating layer inception_4a/5x5
I0403 15:13:48.653813 11733 net.cpp:91] Creating Layer inception_4a/5x5
I0403 15:13:48.653832 11733 net.cpp:425] inception_4a/5x5 <- inception_4a/5x5_reduce
I0403 15:13:48.653853 11733 net.cpp:399] inception_4a/5x5 -> inception_4a/5x5
I0403 15:13:48.654989 11733 net.cpp:141] Setting up inception_4a/5x5
I0403 15:13:48.655017 11733 net.cpp:148] Top shape: 24 48 14 14 (225792)
I0403 15:13:48.655035 11733 net.cpp:156] Memory required for data: 874568736
I0403 15:13:48.655053 11733 layer_factory.hpp:77] Creating layer inception_4a/relu_5x5
I0403 15:13:48.655072 11733 net.cpp:91] Creating Layer inception_4a/relu_5x5
I0403 15:13:48.655091 11733 net.cpp:425] inception_4a/relu_5x5 <- inception_4a/5x5
I0403 15:13:48.655112 11733 net.cpp:386] inception_4a/relu_5x5 -> inception_4a/5x5 (in-place)
I0403 15:13:48.655299 11733 net.cpp:141] Setting up inception_4a/relu_5x5
I0403 15:13:48.655325 11733 net.cpp:148] Top shape: 24 48 14 14 (225792)
I0403 15:13:48.655341 11733 net.cpp:156] Memory required for data: 875471904
I0403 15:13:48.655362 11733 layer_factory.hpp:77] Creating layer inception_4a/pool
I0403 15:13:48.655385 11733 net.cpp:91] Creating Layer inception_4a/pool
I0403 15:13:48.655402 11733 net.cpp:425] inception_4a/pool <- pool3/3x3_s2_pool3/3x3_s2_0_split_3
I0403 15:13:48.655421 11733 net.cpp:399] inception_4a/pool -> inception_4a/pool
I0403 15:13:48.655488 11733 net.cpp:141] Setting up inception_4a/pool
I0403 15:13:48.655513 11733 net.cpp:148] Top shape: 24 480 14 14 (2257920)
I0403 15:13:48.655527 11733 net.cpp:156] Memory required for data: 884503584
I0403 15:13:48.655544 11733 layer_factory.hpp:77] Creating layer inception_4a/pool_proj
I0403 15:13:48.655566 11733 net.cpp:91] Creating Layer inception_4a/pool_proj
I0403 15:13:48.655586 11733 net.cpp:425] inception_4a/pool_proj <- inception_4a/pool
I0403 15:13:48.655607 11733 net.cpp:399] inception_4a/pool_proj -> inception_4a/pool_proj
I0403 15:13:48.656829 11733 net.cpp:141] Setting up inception_4a/pool_proj
I0403 15:13:48.656859 11733 net.cpp:148] Top shape: 24 64 14 14 (301056)
I0403 15:13:48.656893 11733 net.cpp:156] Memory required for data: 885707808
I0403 15:13:48.656913 11733 layer_factory.hpp:77] Creating layer inception_4a/relu_pool_proj
I0403 15:13:48.656936 11733 net.cpp:91] Creating Layer inception_4a/relu_pool_proj
I0403 15:13:48.656955 11733 net.cpp:425] inception_4a/relu_pool_proj <- inception_4a/pool_proj
I0403 15:13:48.656975 11733 net.cpp:386] inception_4a/relu_pool_proj -> inception_4a/pool_proj (in-place)
I0403 15:13:48.657271 11733 net.cpp:141] Setting up inception_4a/relu_pool_proj
I0403 15:13:48.657299 11733 net.cpp:148] Top shape: 24 64 14 14 (301056)
I0403 15:13:48.657316 11733 net.cpp:156] Memory required for data: 886912032
I0403 15:13:48.657332 11733 layer_factory.hpp:77] Creating layer inception_4a/output
I0403 15:13:48.657356 11733 net.cpp:91] Creating Layer inception_4a/output
I0403 15:13:48.657373 11733 net.cpp:425] inception_4a/output <- inception_4a/1x1
I0403 15:13:48.657392 11733 net.cpp:425] inception_4a/output <- inception_4a/3x3
I0403 15:13:48.657409 11733 net.cpp:425] inception_4a/output <- inception_4a/5x5
I0403 15:13:48.657426 11733 net.cpp:425] inception_4a/output <- inception_4a/pool_proj
I0403 15:13:48.657447 11733 net.cpp:399] inception_4a/output -> inception_4a/output
I0403 15:13:48.657497 11733 net.cpp:141] Setting up inception_4a/output
I0403 15:13:48.657522 11733 net.cpp:148] Top shape: 24 512 14 14 (2408448)
I0403 15:13:48.657538 11733 net.cpp:156] Memory required for data: 896545824
I0403 15:13:48.657554 11733 layer_factory.hpp:77] Creating layer inception_4a/output_inception_4a/output_0_split
I0403 15:13:48.657574 11733 net.cpp:91] Creating Layer inception_4a/output_inception_4a/output_0_split
I0403 15:13:48.657591 11733 net.cpp:425] inception_4a/output_inception_4a/output_0_split <- inception_4a/output
I0403 15:13:48.657613 11733 net.cpp:399] inception_4a/output_inception_4a/output_0_split -> inception_4a/output_inception_4a/output_0_split_0
I0403 15:13:48.657635 11733 net.cpp:399] inception_4a/output_inception_4a/output_0_split -> inception_4a/output_inception_4a/output_0_split_1
I0403 15:13:48.657658 11733 net.cpp:399] inception_4a/output_inception_4a/output_0_split -> inception_4a/output_inception_4a/output_0_split_2
I0403 15:13:48.657680 11733 net.cpp:399] inception_4a/output_inception_4a/output_0_split -> inception_4a/output_inception_4a/output_0_split_3
I0403 15:13:48.657701 11733 net.cpp:399] inception_4a/output_inception_4a/output_0_split -> inception_4a/output_inception_4a/output_0_split_4
I0403 15:13:48.657799 11733 net.cpp:141] Setting up inception_4a/output_inception_4a/output_0_split
I0403 15:13:48.657826 11733 net.cpp:148] Top shape: 24 512 14 14 (2408448)
I0403 15:13:48.657845 11733 net.cpp:148] Top shape: 24 512 14 14 (2408448)
I0403 15:13:48.657860 11733 net.cpp:148] Top shape: 24 512 14 14 (2408448)
I0403 15:13:48.657877 11733 net.cpp:148] Top shape: 24 512 14 14 (2408448)
I0403 15:13:48.657894 11733 net.cpp:148] Top shape: 24 512 14 14 (2408448)
I0403 15:13:48.657908 11733 net.cpp:156] Memory required for data: 944714784
I0403 15:13:48.657924 11733 layer_factory.hpp:77] Creating layer loss1/ave_pool
I0403 15:13:48.657943 11733 net.cpp:91] Creating Layer loss1/ave_pool
I0403 15:13:48.657958 11733 net.cpp:425] loss1/ave_pool <- inception_4a/output_inception_4a/output_0_split_0
I0403 15:13:48.657980 11733 net.cpp:399] loss1/ave_pool -> loss1/ave_pool
I0403 15:13:48.658200 11733 net.cpp:141] Setting up loss1/ave_pool
I0403 15:13:48.658226 11733 net.cpp:148] Top shape: 24 512 4 4 (196608)
I0403 15:13:48.658242 11733 net.cpp:156] Memory required for data: 945501216
I0403 15:13:48.658258 11733 layer_factory.hpp:77] Creating layer loss1/conv
I0403 15:13:48.658282 11733 net.cpp:91] Creating Layer loss1/conv
I0403 15:13:48.658301 11733 net.cpp:425] loss1/conv <- loss1/ave_pool
I0403 15:13:48.658324 11733 net.cpp:399] loss1/conv -> loss1/conv
I0403 15:13:48.659813 11733 net.cpp:141] Setting up loss1/conv
I0403 15:13:48.659845 11733 net.cpp:148] Top shape: 24 128 4 4 (49152)
I0403 15:13:48.659876 11733 net.cpp:156] Memory required for data: 945697824
I0403 15:13:48.659898 11733 layer_factory.hpp:77] Creating layer loss1/relu_conv
I0403 15:13:48.659917 11733 net.cpp:91] Creating Layer loss1/relu_conv
I0403 15:13:48.659935 11733 net.cpp:425] loss1/relu_conv <- loss1/conv
I0403 15:13:48.659953 11733 net.cpp:386] loss1/relu_conv -> loss1/conv (in-place)
I0403 15:13:48.660254 11733 net.cpp:141] Setting up loss1/relu_conv
I0403 15:13:48.660284 11733 net.cpp:148] Top shape: 24 128 4 4 (49152)
I0403 15:13:48.660302 11733 net.cpp:156] Memory required for data: 945894432
I0403 15:13:48.660318 11733 layer_factory.hpp:77] Creating layer loss1/fc
I0403 15:13:48.660343 11733 net.cpp:91] Creating Layer loss1/fc
I0403 15:13:48.660367 11733 net.cpp:425] loss1/fc <- loss1/conv
I0403 15:13:48.660392 11733 net.cpp:399] loss1/fc -> loss1/fc
I0403 15:13:48.679072 11733 net.cpp:141] Setting up loss1/fc
I0403 15:13:48.679111 11733 net.cpp:148] Top shape: 24 1024 (24576)
I0403 15:13:48.679126 11733 net.cpp:156] Memory required for data: 945992736
I0403 15:13:48.679147 11733 layer_factory.hpp:77] Creating layer loss1/relu_fc
I0403 15:13:48.679168 11733 net.cpp:91] Creating Layer loss1/relu_fc
I0403 15:13:48.679188 11733 net.cpp:425] loss1/relu_fc <- loss1/fc
I0403 15:13:48.679206 11733 net.cpp:386] loss1/relu_fc -> loss1/fc (in-place)
I0403 15:13:48.679416 11733 net.cpp:141] Setting up loss1/relu_fc
I0403 15:13:48.679445 11733 net.cpp:148] Top shape: 24 1024 (24576)
I0403 15:13:48.679461 11733 net.cpp:156] Memory required for data: 946091040
I0403 15:13:48.679476 11733 layer_factory.hpp:77] Creating layer loss1/drop_fc
I0403 15:13:48.679503 11733 net.cpp:91] Creating Layer loss1/drop_fc
I0403 15:13:48.679522 11733 net.cpp:425] loss1/drop_fc <- loss1/fc
I0403 15:13:48.679539 11733 net.cpp:386] loss1/drop_fc -> loss1/fc (in-place)
I0403 15:13:48.679597 11733 net.cpp:141] Setting up loss1/drop_fc
I0403 15:13:48.679621 11733 net.cpp:148] Top shape: 24 1024 (24576)
I0403 15:13:48.679636 11733 net.cpp:156] Memory required for data: 946189344
I0403 15:13:48.679652 11733 layer_factory.hpp:77] Creating layer loss1/classifier_plantvillage
I0403 15:13:48.679675 11733 net.cpp:91] Creating Layer loss1/classifier_plantvillage
I0403 15:13:48.679694 11733 net.cpp:425] loss1/classifier_plantvillage <- loss1/fc
I0403 15:13:48.679713 11733 net.cpp:399] loss1/classifier_plantvillage -> loss1/classifier_plantvillage
I0403 15:13:48.680663 11733 net.cpp:141] Setting up loss1/classifier_plantvillage
I0403 15:13:48.680694 11733 net.cpp:148] Top shape: 24 38 (912)
I0403 15:13:48.680711 11733 net.cpp:156] Memory required for data: 946192992
I0403 15:13:48.680729 11733 layer_factory.hpp:77] Creating layer loss1/classifier_plantvillage_loss1/classifier_plantvillage_0_split
I0403 15:13:48.680748 11733 net.cpp:91] Creating Layer loss1/classifier_plantvillage_loss1/classifier_plantvillage_0_split
I0403 15:13:48.680765 11733 net.cpp:425] loss1/classifier_plantvillage_loss1/classifier_plantvillage_0_split <- loss1/classifier_plantvillage
I0403 15:13:48.680783 11733 net.cpp:399] loss1/classifier_plantvillage_loss1/classifier_plantvillage_0_split -> loss1/classifier_plantvillage_loss1/classifier_plantvillage_0_split_0
I0403 15:13:48.680804 11733 net.cpp:399] loss1/classifier_plantvillage_loss1/classifier_plantvillage_0_split -> loss1/classifier_plantvillage_loss1/classifier_plantvillage_0_split_1
I0403 15:13:48.680824 11733 net.cpp:399] loss1/classifier_plantvillage_loss1/classifier_plantvillage_0_split -> loss1/classifier_plantvillage_loss1/classifier_plantvillage_0_split_2
I0403 15:13:48.680891 11733 net.cpp:141] Setting up loss1/classifier_plantvillage_loss1/classifier_plantvillage_0_split
I0403 15:13:48.680913 11733 net.cpp:148] Top shape: 24 38 (912)
I0403 15:13:48.680929 11733 net.cpp:148] Top shape: 24 38 (912)
I0403 15:13:48.680946 11733 net.cpp:148] Top shape: 24 38 (912)
I0403 15:13:48.680960 11733 net.cpp:156] Memory required for data: 946203936
I0403 15:13:48.680975 11733 layer_factory.hpp:77] Creating layer inception_4b/1x1
I0403 15:13:48.680996 11733 net.cpp:91] Creating Layer inception_4b/1x1
I0403 15:13:48.681036 11733 net.cpp:425] inception_4b/1x1 <- inception_4a/output_inception_4a/output_0_split_1
I0403 15:13:48.681059 11733 net.cpp:399] inception_4b/1x1 -> inception_4b/1x1
I0403 15:13:48.682728 11733 net.cpp:141] Setting up inception_4b/1x1
I0403 15:13:48.682759 11733 net.cpp:148] Top shape: 24 160 14 14 (752640)
I0403 15:13:48.682775 11733 net.cpp:156] Memory required for data: 949214496
I0403 15:13:48.682795 11733 layer_factory.hpp:77] Creating layer inception_4b/relu_1x1
I0403 15:13:48.682812 11733 net.cpp:91] Creating Layer inception_4b/relu_1x1
I0403 15:13:48.682828 11733 net.cpp:425] inception_4b/relu_1x1 <- inception_4b/1x1
I0403 15:13:48.682845 11733 net.cpp:386] inception_4b/relu_1x1 -> inception_4b/1x1 (in-place)
I0403 15:13:48.683027 11733 net.cpp:141] Setting up inception_4b/relu_1x1
I0403 15:13:48.683051 11733 net.cpp:148] Top shape: 24 160 14 14 (752640)
I0403 15:13:48.683066 11733 net.cpp:156] Memory required for data: 952225056
I0403 15:13:48.683080 11733 layer_factory.hpp:77] Creating layer inception_4b/3x3_reduce
I0403 15:13:48.683104 11733 net.cpp:91] Creating Layer inception_4b/3x3_reduce
I0403 15:13:48.683120 11733 net.cpp:425] inception_4b/3x3_reduce <- inception_4a/output_inception_4a/output_0_split_2
I0403 15:13:48.683145 11733 net.cpp:399] inception_4b/3x3_reduce -> inception_4b/3x3_reduce
I0403 15:13:48.684497 11733 net.cpp:141] Setting up inception_4b/3x3_reduce
I0403 15:13:48.684525 11733 net.cpp:148] Top shape: 24 112 14 14 (526848)
I0403 15:13:48.684541 11733 net.cpp:156] Memory required for data: 954332448
I0403 15:13:48.684559 11733 layer_factory.hpp:77] Creating layer inception_4b/relu_3x3_reduce
I0403 15:13:48.684579 11733 net.cpp:91] Creating Layer inception_4b/relu_3x3_reduce
I0403 15:13:48.684598 11733 net.cpp:425] inception_4b/relu_3x3_reduce <- inception_4b/3x3_reduce
I0403 15:13:48.684618 11733 net.cpp:386] inception_4b/relu_3x3_reduce -> inception_4b/3x3_reduce (in-place)
I0403 15:13:48.684898 11733 net.cpp:141] Setting up inception_4b/relu_3x3_reduce
I0403 15:13:48.684926 11733 net.cpp:148] Top shape: 24 112 14 14 (526848)
I0403 15:13:48.684942 11733 net.cpp:156] Memory required for data: 956439840
I0403 15:13:48.684957 11733 layer_factory.hpp:77] Creating layer inception_4b/3x3
I0403 15:13:48.684980 11733 net.cpp:91] Creating Layer inception_4b/3x3
I0403 15:13:48.684998 11733 net.cpp:425] inception_4b/3x3 <- inception_4b/3x3_reduce
I0403 15:13:48.685022 11733 net.cpp:399] inception_4b/3x3 -> inception_4b/3x3
I0403 15:13:48.687975 11733 net.cpp:141] Setting up inception_4b/3x3
I0403 15:13:48.688004 11733 net.cpp:148] Top shape: 24 224 14 14 (1053696)
I0403 15:13:48.688020 11733 net.cpp:156] Memory required for data: 960654624
I0403 15:13:48.688040 11733 layer_factory.hpp:77] Creating layer inception_4b/relu_3x3
I0403 15:13:48.688060 11733 net.cpp:91] Creating Layer inception_4b/relu_3x3
I0403 15:13:48.688077 11733 net.cpp:425] inception_4b/relu_3x3 <- inception_4b/3x3
I0403 15:13:48.688096 11733 net.cpp:386] inception_4b/relu_3x3 -> inception_4b/3x3 (in-place)
I0403 15:13:48.688277 11733 net.cpp:141] Setting up inception_4b/relu_3x3
I0403 15:13:48.688315 11733 net.cpp:148] Top shape: 24 224 14 14 (1053696)
I0403 15:13:48.688333 11733 net.cpp:156] Memory required for data: 964869408
I0403 15:13:48.688354 11733 layer_factory.hpp:77] Creating layer inception_4b/5x5_reduce
I0403 15:13:48.688379 11733 net.cpp:91] Creating Layer inception_4b/5x5_reduce
I0403 15:13:48.688396 11733 net.cpp:425] inception_4b/5x5_reduce <- inception_4a/output_inception_4a/output_0_split_3
I0403 15:13:48.688416 11733 net.cpp:399] inception_4b/5x5_reduce -> inception_4b/5x5_reduce
I0403 15:13:48.689512 11733 net.cpp:141] Setting up inception_4b/5x5_reduce
I0403 15:13:48.689543 11733 net.cpp:148] Top shape: 24 24 14 14 (112896)
I0403 15:13:48.689558 11733 net.cpp:156] Memory required for data: 965320992
I0403 15:13:48.689580 11733 layer_factory.hpp:77] Creating layer inception_4b/relu_5x5_reduce
I0403 15:13:48.689599 11733 net.cpp:91] Creating Layer inception_4b/relu_5x5_reduce
I0403 15:13:48.689630 11733 net.cpp:425] inception_4b/relu_5x5_reduce <- inception_4b/5x5_reduce
I0403 15:13:48.689651 11733 net.cpp:386] inception_4b/relu_5x5_reduce -> inception_4b/5x5_reduce (in-place)
I0403 15:13:48.689836 11733 net.cpp:141] Setting up inception_4b/relu_5x5_reduce
I0403 15:13:48.689860 11733 net.cpp:148] Top shape: 24 24 14 14 (112896)
I0403 15:13:48.689875 11733 net.cpp:156] Memory required for data: 965772576
I0403 15:13:48.689890 11733 layer_factory.hpp:77] Creating layer inception_4b/5x5
I0403 15:13:48.689913 11733 net.cpp:91] Creating Layer inception_4b/5x5
I0403 15:13:48.689930 11733 net.cpp:425] inception_4b/5x5 <- inception_4b/5x5_reduce
I0403 15:13:48.689951 11733 net.cpp:399] inception_4b/5x5 -> inception_4b/5x5
I0403 15:13:48.691169 11733 net.cpp:141] Setting up inception_4b/5x5
I0403 15:13:48.691198 11733 net.cpp:148] Top shape: 24 64 14 14 (301056)
I0403 15:13:48.691215 11733 net.cpp:156] Memory required for data: 966976800
I0403 15:13:48.691233 11733 layer_factory.hpp:77] Creating layer inception_4b/relu_5x5
I0403 15:13:48.691251 11733 net.cpp:91] Creating Layer inception_4b/relu_5x5
I0403 15:13:48.691268 11733 net.cpp:425] inception_4b/relu_5x5 <- inception_4b/5x5
I0403 15:13:48.691285 11733 net.cpp:386] inception_4b/relu_5x5 -> inception_4b/5x5 (in-place)
I0403 15:13:48.691573 11733 net.cpp:141] Setting up inception_4b/relu_5x5
I0403 15:13:48.691603 11733 net.cpp:148] Top shape: 24 64 14 14 (301056)
I0403 15:13:48.691619 11733 net.cpp:156] Memory required for data: 968181024
I0403 15:13:48.691634 11733 layer_factory.hpp:77] Creating layer inception_4b/pool
I0403 15:13:48.691653 11733 net.cpp:91] Creating Layer inception_4b/pool
I0403 15:13:48.691669 11733 net.cpp:425] inception_4b/pool <- inception_4a/output_inception_4a/output_0_split_4
I0403 15:13:48.691689 11733 net.cpp:399] inception_4b/pool -> inception_4b/pool
I0403 15:13:48.691754 11733 net.cpp:141] Setting up inception_4b/pool
I0403 15:13:48.691778 11733 net.cpp:148] Top shape: 24 512 14 14 (2408448)
I0403 15:13:48.691793 11733 net.cpp:156] Memory required for data: 977814816
I0403 15:13:48.691807 11733 layer_factory.hpp:77] Creating layer inception_4b/pool_proj
I0403 15:13:48.691829 11733 net.cpp:91] Creating Layer inception_4b/pool_proj
I0403 15:13:48.691846 11733 net.cpp:425] inception_4b/pool_proj <- inception_4b/pool
I0403 15:13:48.691867 11733 net.cpp:399] inception_4b/pool_proj -> inception_4b/pool_proj
I0403 15:13:48.693141 11733 net.cpp:141] Setting up inception_4b/pool_proj
I0403 15:13:48.693169 11733 net.cpp:148] Top shape: 24 64 14 14 (301056)
I0403 15:13:48.693186 11733 net.cpp:156] Memory required for data: 979019040
I0403 15:13:48.693204 11733 layer_factory.hpp:77] Creating layer inception_4b/relu_pool_proj
I0403 15:13:48.693222 11733 net.cpp:91] Creating Layer inception_4b/relu_pool_proj
I0403 15:13:48.693238 11733 net.cpp:425] inception_4b/relu_pool_proj <- inception_4b/pool_proj
I0403 15:13:48.693259 11733 net.cpp:386] inception_4b/relu_pool_proj -> inception_4b/pool_proj (in-place)
I0403 15:13:48.693460 11733 net.cpp:141] Setting up inception_4b/relu_pool_proj
I0403 15:13:48.693485 11733 net.cpp:148] Top shape: 24 64 14 14 (301056)
I0403 15:13:48.693500 11733 net.cpp:156] Memory required for data: 980223264
I0403 15:13:48.693516 11733 layer_factory.hpp:77] Creating layer inception_4b/output
I0403 15:13:48.693532 11733 net.cpp:91] Creating Layer inception_4b/output
I0403 15:13:48.693548 11733 net.cpp:425] inception_4b/output <- inception_4b/1x1
I0403 15:13:48.693567 11733 net.cpp:425] inception_4b/output <- inception_4b/3x3
I0403 15:13:48.693584 11733 net.cpp:425] inception_4b/output <- inception_4b/5x5
I0403 15:13:48.693600 11733 net.cpp:425] inception_4b/output <- inception_4b/pool_proj
I0403 15:13:48.693617 11733 net.cpp:399] inception_4b/output -> inception_4b/output
I0403 15:13:48.693662 11733 net.cpp:141] Setting up inception_4b/output
I0403 15:13:48.693688 11733 net.cpp:148] Top shape: 24 512 14 14 (2408448)
I0403 15:13:48.693704 11733 net.cpp:156] Memory required for data: 989857056
I0403 15:13:48.693743 11733 layer_factory.hpp:77] Creating layer inception_4b/output_inception_4b/output_0_split
I0403 15:13:48.693761 11733 net.cpp:91] Creating Layer inception_4b/output_inception_4b/output_0_split
I0403 15:13:48.693778 11733 net.cpp:425] inception_4b/output_inception_4b/output_0_split <- inception_4b/output
I0403 15:13:48.693799 11733 net.cpp:399] inception_4b/output_inception_4b/output_0_split -> inception_4b/output_inception_4b/output_0_split_0
I0403 15:13:48.693819 11733 net.cpp:399] inception_4b/output_inception_4b/output_0_split -> inception_4b/output_inception_4b/output_0_split_1
I0403 15:13:48.693840 11733 net.cpp:399] inception_4b/output_inception_4b/output_0_split -> inception_4b/output_inception_4b/output_0_split_2
I0403 15:13:48.693861 11733 net.cpp:399] inception_4b/output_inception_4b/output_0_split -> inception_4b/output_inception_4b/output_0_split_3
I0403 15:13:48.693941 11733 net.cpp:141] Setting up inception_4b/output_inception_4b/output_0_split
I0403 15:13:48.693967 11733 net.cpp:148] Top shape: 24 512 14 14 (2408448)
I0403 15:13:48.693984 11733 net.cpp:148] Top shape: 24 512 14 14 (2408448)
I0403 15:13:48.694000 11733 net.cpp:148] Top shape: 24 512 14 14 (2408448)
I0403 15:13:48.694016 11733 net.cpp:148] Top shape: 24 512 14 14 (2408448)
I0403 15:13:48.694031 11733 net.cpp:156] Memory required for data: 1028392224
I0403 15:13:48.694044 11733 layer_factory.hpp:77] Creating layer inception_4c/1x1
I0403 15:13:48.694068 11733 net.cpp:91] Creating Layer inception_4c/1x1
I0403 15:13:48.694087 11733 net.cpp:425] inception_4c/1x1 <- inception_4b/output_inception_4b/output_0_split_0
I0403 15:13:48.694104 11733 net.cpp:399] inception_4c/1x1 -> inception_4c/1x1
I0403 15:13:48.695540 11733 net.cpp:141] Setting up inception_4c/1x1
I0403 15:13:48.695569 11733 net.cpp:148] Top shape: 24 128 14 14 (602112)
I0403 15:13:48.695585 11733 net.cpp:156] Memory required for data: 1030800672
I0403 15:13:48.695602 11733 layer_factory.hpp:77] Creating layer inception_4c/relu_1x1
I0403 15:13:48.695623 11733 net.cpp:91] Creating Layer inception_4c/relu_1x1
I0403 15:13:48.695641 11733 net.cpp:425] inception_4c/relu_1x1 <- inception_4c/1x1
I0403 15:13:48.695657 11733 net.cpp:386] inception_4c/relu_1x1 -> inception_4c/1x1 (in-place)
I0403 15:13:48.695838 11733 net.cpp:141] Setting up inception_4c/relu_1x1
I0403 15:13:48.695863 11733 net.cpp:148] Top shape: 24 128 14 14 (602112)
I0403 15:13:48.695878 11733 net.cpp:156] Memory required for data: 1033209120
I0403 15:13:48.695894 11733 layer_factory.hpp:77] Creating layer inception_4c/3x3_reduce
I0403 15:13:48.695917 11733 net.cpp:91] Creating Layer inception_4c/3x3_reduce
I0403 15:13:48.695935 11733 net.cpp:425] inception_4c/3x3_reduce <- inception_4b/output_inception_4b/output_0_split_1
I0403 15:13:48.695955 11733 net.cpp:399] inception_4c/3x3_reduce -> inception_4c/3x3_reduce
I0403 15:13:48.697897 11733 net.cpp:141] Setting up inception_4c/3x3_reduce
I0403 15:13:48.697927 11733 net.cpp:148] Top shape: 24 128 14 14 (602112)
I0403 15:13:48.697944 11733 net.cpp:156] Memory required for data: 1035617568
I0403 15:13:48.697962 11733 layer_factory.hpp:77] Creating layer inception_4c/relu_3x3_reduce
I0403 15:13:48.697981 11733 net.cpp:91] Creating Layer inception_4c/relu_3x3_reduce
I0403 15:13:48.697999 11733 net.cpp:425] inception_4c/relu_3x3_reduce <- inception_4c/3x3_reduce
I0403 15:13:48.698019 11733 net.cpp:386] inception_4c/relu_3x3_reduce -> inception_4c/3x3_reduce (in-place)
I0403 15:13:48.698302 11733 net.cpp:141] Setting up inception_4c/relu_3x3_reduce
I0403 15:13:48.698331 11733 net.cpp:148] Top shape: 24 128 14 14 (602112)
I0403 15:13:48.698351 11733 net.cpp:156] Memory required for data: 1038026016
I0403 15:13:48.698369 11733 layer_factory.hpp:77] Creating layer inception_4c/3x3
I0403 15:13:48.698392 11733 net.cpp:91] Creating Layer inception_4c/3x3
I0403 15:13:48.698410 11733 net.cpp:425] inception_4c/3x3 <- inception_4c/3x3_reduce
I0403 15:13:48.698429 11733 net.cpp:399] inception_4c/3x3 -> inception_4c/3x3
I0403 15:13:48.702005 11733 net.cpp:141] Setting up inception_4c/3x3
I0403 15:13:48.702049 11733 net.cpp:148] Top shape: 24 256 14 14 (1204224)
I0403 15:13:48.702066 11733 net.cpp:156] Memory required for data: 1042842912
I0403 15:13:48.702098 11733 layer_factory.hpp:77] Creating layer inception_4c/relu_3x3
I0403 15:13:48.702118 11733 net.cpp:91] Creating Layer inception_4c/relu_3x3
I0403 15:13:48.702136 11733 net.cpp:425] inception_4c/relu_3x3 <- inception_4c/3x3
I0403 15:13:48.702157 11733 net.cpp:386] inception_4c/relu_3x3 -> inception_4c/3x3 (in-place)
I0403 15:13:48.702335 11733 net.cpp:141] Setting up inception_4c/relu_3x3
I0403 15:13:48.702366 11733 net.cpp:148] Top shape: 24 256 14 14 (1204224)
I0403 15:13:48.702383 11733 net.cpp:156] Memory required for data: 1047659808
I0403 15:13:48.702399 11733 layer_factory.hpp:77] Creating layer inception_4c/5x5_reduce
I0403 15:13:48.702422 11733 net.cpp:91] Creating Layer inception_4c/5x5_reduce
I0403 15:13:48.702440 11733 net.cpp:425] inception_4c/5x5_reduce <- inception_4b/output_inception_4b/output_0_split_2
I0403 15:13:48.702462 11733 net.cpp:399] inception_4c/5x5_reduce -> inception_4c/5x5_reduce
I0403 15:13:48.703572 11733 net.cpp:141] Setting up inception_4c/5x5_reduce
I0403 15:13:48.703603 11733 net.cpp:148] Top shape: 24 24 14 14 (112896)
I0403 15:13:48.703619 11733 net.cpp:156] Memory required for data: 1048111392
I0403 15:13:48.703639 11733 layer_factory.hpp:77] Creating layer inception_4c/relu_5x5_reduce
I0403 15:13:48.703657 11733 net.cpp:91] Creating Layer inception_4c/relu_5x5_reduce
I0403 15:13:48.703675 11733 net.cpp:425] inception_4c/relu_5x5_reduce <- inception_4c/5x5_reduce
I0403 15:13:48.703706 11733 net.cpp:386] inception_4c/relu_5x5_reduce -> inception_4c/5x5_reduce (in-place)
I0403 15:13:48.703896 11733 net.cpp:141] Setting up inception_4c/relu_5x5_reduce
I0403 15:13:48.703922 11733 net.cpp:148] Top shape: 24 24 14 14 (112896)
I0403 15:13:48.703936 11733 net.cpp:156] Memory required for data: 1048562976
I0403 15:13:48.703951 11733 layer_factory.hpp:77] Creating layer inception_4c/5x5
I0403 15:13:48.703974 11733 net.cpp:91] Creating Layer inception_4c/5x5
I0403 15:13:48.703992 11733 net.cpp:425] inception_4c/5x5 <- inception_4c/5x5_reduce
I0403 15:13:48.704015 11733 net.cpp:399] inception_4c/5x5 -> inception_4c/5x5
I0403 15:13:48.705294 11733 net.cpp:141] Setting up inception_4c/5x5
I0403 15:13:48.705322 11733 net.cpp:148] Top shape: 24 64 14 14 (301056)
I0403 15:13:48.705339 11733 net.cpp:156] Memory required for data: 1049767200
I0403 15:13:48.705363 11733 layer_factory.hpp:77] Creating layer inception_4c/relu_5x5
I0403 15:13:48.705386 11733 net.cpp:91] Creating Layer inception_4c/relu_5x5
I0403 15:13:48.705404 11733 net.cpp:425] inception_4c/relu_5x5 <- inception_4c/5x5
I0403 15:13:48.705422 11733 net.cpp:386] inception_4c/relu_5x5 -> inception_4c/5x5 (in-place)
I0403 15:13:48.705718 11733 net.cpp:141] Setting up inception_4c/relu_5x5
I0403 15:13:48.705745 11733 net.cpp:148] Top shape: 24 64 14 14 (301056)
I0403 15:13:48.705761 11733 net.cpp:156] Memory required for data: 1050971424
I0403 15:13:48.705777 11733 layer_factory.hpp:77] Creating layer inception_4c/pool
I0403 15:13:48.705797 11733 net.cpp:91] Creating Layer inception_4c/pool
I0403 15:13:48.705816 11733 net.cpp:425] inception_4c/pool <- inception_4b/output_inception_4b/output_0_split_3
I0403 15:13:48.705834 11733 net.cpp:399] inception_4c/pool -> inception_4c/pool
I0403 15:13:48.705901 11733 net.cpp:141] Setting up inception_4c/pool
I0403 15:13:48.705925 11733 net.cpp:148] Top shape: 24 512 14 14 (2408448)
I0403 15:13:48.705940 11733 net.cpp:156] Memory required for data: 1060605216
I0403 15:13:48.705955 11733 layer_factory.hpp:77] Creating layer inception_4c/pool_proj
I0403 15:13:48.705978 11733 net.cpp:91] Creating Layer inception_4c/pool_proj
I0403 15:13:48.705996 11733 net.cpp:425] inception_4c/pool_proj <- inception_4c/pool
I0403 15:13:48.706017 11733 net.cpp:399] inception_4c/pool_proj -> inception_4c/pool_proj
I0403 15:13:48.707278 11733 net.cpp:141] Setting up inception_4c/pool_proj
I0403 15:13:48.707310 11733 net.cpp:148] Top shape: 24 64 14 14 (301056)
I0403 15:13:48.707341 11733 net.cpp:156] Memory required for data: 1061809440
I0403 15:13:48.707366 11733 layer_factory.hpp:77] Creating layer inception_4c/relu_pool_proj
I0403 15:13:48.707386 11733 net.cpp:91] Creating Layer inception_4c/relu_pool_proj
I0403 15:13:48.707403 11733 net.cpp:425] inception_4c/relu_pool_proj <- inception_4c/pool_proj
I0403 15:13:48.707423 11733 net.cpp:386] inception_4c/relu_pool_proj -> inception_4c/pool_proj (in-place)
I0403 15:13:48.707612 11733 net.cpp:141] Setting up inception_4c/relu_pool_proj
I0403 15:13:48.707638 11733 net.cpp:148] Top shape: 24 64 14 14 (301056)
I0403 15:13:48.707653 11733 net.cpp:156] Memory required for data: 1063013664
I0403 15:13:48.707669 11733 layer_factory.hpp:77] Creating layer inception_4c/output
I0403 15:13:48.707686 11733 net.cpp:91] Creating Layer inception_4c/output
I0403 15:13:48.707702 11733 net.cpp:425] inception_4c/output <- inception_4c/1x1
I0403 15:13:48.707720 11733 net.cpp:425] inception_4c/output <- inception_4c/3x3
I0403 15:13:48.707737 11733 net.cpp:425] inception_4c/output <- inception_4c/5x5
I0403 15:13:48.707753 11733 net.cpp:425] inception_4c/output <- inception_4c/pool_proj
I0403 15:13:48.707773 11733 net.cpp:399] inception_4c/output -> inception_4c/output
I0403 15:13:48.707821 11733 net.cpp:141] Setting up inception_4c/output
I0403 15:13:48.707849 11733 net.cpp:148] Top shape: 24 512 14 14 (2408448)
I0403 15:13:48.707864 11733 net.cpp:156] Memory required for data: 1072647456
I0403 15:13:48.707880 11733 layer_factory.hpp:77] Creating layer inception_4c/output_inception_4c/output_0_split
I0403 15:13:48.707896 11733 net.cpp:91] Creating Layer inception_4c/output_inception_4c/output_0_split
I0403 15:13:48.707912 11733 net.cpp:425] inception_4c/output_inception_4c/output_0_split <- inception_4c/output
I0403 15:13:48.707936 11733 net.cpp:399] inception_4c/output_inception_4c/output_0_split -> inception_4c/output_inception_4c/output_0_split_0
I0403 15:13:48.707957 11733 net.cpp:399] inception_4c/output_inception_4c/output_0_split -> inception_4c/output_inception_4c/output_0_split_1
I0403 15:13:48.707976 11733 net.cpp:399] inception_4c/output_inception_4c/output_0_split -> inception_4c/output_inception_4c/output_0_split_2
I0403 15:13:48.707998 11733 net.cpp:399] inception_4c/output_inception_4c/output_0_split -> inception_4c/output_inception_4c/output_0_split_3
I0403 15:13:48.708082 11733 net.cpp:141] Setting up inception_4c/output_inception_4c/output_0_split
I0403 15:13:48.708109 11733 net.cpp:148] Top shape: 24 512 14 14 (2408448)
I0403 15:13:48.708127 11733 net.cpp:148] Top shape: 24 512 14 14 (2408448)
I0403 15:13:48.708143 11733 net.cpp:148] Top shape: 24 512 14 14 (2408448)
I0403 15:13:48.708159 11733 net.cpp:148] Top shape: 24 512 14 14 (2408448)
I0403 15:13:48.708173 11733 net.cpp:156] Memory required for data: 1111182624
I0403 15:13:48.708189 11733 layer_factory.hpp:77] Creating layer inception_4d/1x1
I0403 15:13:48.708209 11733 net.cpp:91] Creating Layer inception_4d/1x1
I0403 15:13:48.708226 11733 net.cpp:425] inception_4d/1x1 <- inception_4c/output_inception_4c/output_0_split_0
I0403 15:13:48.708250 11733 net.cpp:399] inception_4d/1x1 -> inception_4d/1x1
I0403 15:13:48.709676 11733 net.cpp:141] Setting up inception_4d/1x1
I0403 15:13:48.709707 11733 net.cpp:148] Top shape: 24 112 14 14 (526848)
I0403 15:13:48.709722 11733 net.cpp:156] Memory required for data: 1113290016
I0403 15:13:48.709740 11733 layer_factory.hpp:77] Creating layer inception_4d/relu_1x1
I0403 15:13:48.709761 11733 net.cpp:91] Creating Layer inception_4d/relu_1x1
I0403 15:13:48.709779 11733 net.cpp:425] inception_4d/relu_1x1 <- inception_4d/1x1
I0403 15:13:48.709797 11733 net.cpp:386] inception_4d/relu_1x1 -> inception_4d/1x1 (in-place)
I0403 15:13:48.709985 11733 net.cpp:141] Setting up inception_4d/relu_1x1
I0403 15:13:48.710013 11733 net.cpp:148] Top shape: 24 112 14 14 (526848)
I0403 15:13:48.710029 11733 net.cpp:156] Memory required for data: 1115397408
I0403 15:13:48.710044 11733 layer_factory.hpp:77] Creating layer inception_4d/3x3_reduce
I0403 15:13:48.710081 11733 net.cpp:91] Creating Layer inception_4d/3x3_reduce
I0403 15:13:48.710100 11733 net.cpp:425] inception_4d/3x3_reduce <- inception_4c/output_inception_4c/output_0_split_1
I0403 15:13:48.710120 11733 net.cpp:399] inception_4d/3x3_reduce -> inception_4d/3x3_reduce
I0403 15:13:48.711673 11733 net.cpp:141] Setting up inception_4d/3x3_reduce
I0403 15:13:48.711701 11733 net.cpp:148] Top shape: 24 144 14 14 (677376)
I0403 15:13:48.711717 11733 net.cpp:156] Memory required for data: 1118106912
I0403 15:13:48.711736 11733 layer_factory.hpp:77] Creating layer inception_4d/relu_3x3_reduce
I0403 15:13:48.711757 11733 net.cpp:91] Creating Layer inception_4d/relu_3x3_reduce
I0403 15:13:48.711774 11733 net.cpp:425] inception_4d/relu_3x3_reduce <- inception_4d/3x3_reduce
I0403 15:13:48.711792 11733 net.cpp:386] inception_4d/relu_3x3_reduce -> inception_4d/3x3_reduce (in-place)
I0403 15:13:48.712088 11733 net.cpp:141] Setting up inception_4d/relu_3x3_reduce
I0403 15:13:48.712116 11733 net.cpp:148] Top shape: 24 144 14 14 (677376)
I0403 15:13:48.712131 11733 net.cpp:156] Memory required for data: 1120816416
I0403 15:13:48.712146 11733 layer_factory.hpp:77] Creating layer inception_4d/3x3
I0403 15:13:48.712169 11733 net.cpp:91] Creating Layer inception_4d/3x3
I0403 15:13:48.712188 11733 net.cpp:425] inception_4d/3x3 <- inception_4d/3x3_reduce
I0403 15:13:48.712211 11733 net.cpp:399] inception_4d/3x3 -> inception_4d/3x3
I0403 15:13:48.716578 11733 net.cpp:141] Setting up inception_4d/3x3
I0403 15:13:48.716608 11733 net.cpp:148] Top shape: 24 288 14 14 (1354752)
I0403 15:13:48.716624 11733 net.cpp:156] Memory required for data: 1126235424
I0403 15:13:48.716642 11733 layer_factory.hpp:77] Creating layer inception_4d/relu_3x3
I0403 15:13:48.716663 11733 net.cpp:91] Creating Layer inception_4d/relu_3x3
I0403 15:13:48.716681 11733 net.cpp:425] inception_4d/relu_3x3 <- inception_4d/3x3
I0403 15:13:48.716699 11733 net.cpp:386] inception_4d/relu_3x3 -> inception_4d/3x3 (in-place)
I0403 15:13:48.716892 11733 net.cpp:141] Setting up inception_4d/relu_3x3
I0403 15:13:48.716917 11733 net.cpp:148] Top shape: 24 288 14 14 (1354752)
I0403 15:13:48.716933 11733 net.cpp:156] Memory required for data: 1131654432
I0403 15:13:48.716948 11733 layer_factory.hpp:77] Creating layer inception_4d/5x5_reduce
I0403 15:13:48.716969 11733 net.cpp:91] Creating Layer inception_4d/5x5_reduce
I0403 15:13:48.716987 11733 net.cpp:425] inception_4d/5x5_reduce <- inception_4c/output_inception_4c/output_0_split_2
I0403 15:13:48.717010 11733 net.cpp:399] inception_4d/5x5_reduce -> inception_4d/5x5_reduce
I0403 15:13:48.718242 11733 net.cpp:141] Setting up inception_4d/5x5_reduce
I0403 15:13:48.718274 11733 net.cpp:148] Top shape: 24 32 14 14 (150528)
I0403 15:13:48.718292 11733 net.cpp:156] Memory required for data: 1132256544
I0403 15:13:48.718312 11733 layer_factory.hpp:77] Creating layer inception_4d/relu_5x5_reduce
I0403 15:13:48.718330 11733 net.cpp:91] Creating Layer inception_4d/relu_5x5_reduce
I0403 15:13:48.718351 11733 net.cpp:425] inception_4d/relu_5x5_reduce <- inception_4d/5x5_reduce
I0403 15:13:48.718371 11733 net.cpp:386] inception_4d/relu_5x5_reduce -> inception_4d/5x5_reduce (in-place)
I0403 15:13:48.718572 11733 net.cpp:141] Setting up inception_4d/relu_5x5_reduce
I0403 15:13:48.718601 11733 net.cpp:148] Top shape: 24 32 14 14 (150528)
I0403 15:13:48.718618 11733 net.cpp:156] Memory required for data: 1132858656
I0403 15:13:48.718634 11733 layer_factory.hpp:77] Creating layer inception_4d/5x5
I0403 15:13:48.718658 11733 net.cpp:91] Creating Layer inception_4d/5x5
I0403 15:13:48.718677 11733 net.cpp:425] inception_4d/5x5 <- inception_4d/5x5_reduce
I0403 15:13:48.718698 11733 net.cpp:399] inception_4d/5x5 -> inception_4d/5x5
I0403 15:13:48.720263 11733 net.cpp:141] Setting up inception_4d/5x5
I0403 15:13:48.720293 11733 net.cpp:148] Top shape: 24 64 14 14 (301056)
I0403 15:13:48.720309 11733 net.cpp:156] Memory required for data: 1134062880
I0403 15:13:48.720329 11733 layer_factory.hpp:77] Creating layer inception_4d/relu_5x5
I0403 15:13:48.720368 11733 net.cpp:91] Creating Layer inception_4d/relu_5x5
I0403 15:13:48.720387 11733 net.cpp:425] inception_4d/relu_5x5 <- inception_4d/5x5
I0403 15:13:48.720409 11733 net.cpp:386] inception_4d/relu_5x5 -> inception_4d/5x5 (in-place)
I0403 15:13:48.720729 11733 net.cpp:141] Setting up inception_4d/relu_5x5
I0403 15:13:48.720757 11733 net.cpp:148] Top shape: 24 64 14 14 (301056)
I0403 15:13:48.720773 11733 net.cpp:156] Memory required for data: 1135267104
I0403 15:13:48.720789 11733 layer_factory.hpp:77] Creating layer inception_4d/pool
I0403 15:13:48.720808 11733 net.cpp:91] Creating Layer inception_4d/pool
I0403 15:13:48.720825 11733 net.cpp:425] inception_4d/pool <- inception_4c/output_inception_4c/output_0_split_3
I0403 15:13:48.720847 11733 net.cpp:399] inception_4d/pool -> inception_4d/pool
I0403 15:13:48.720918 11733 net.cpp:141] Setting up inception_4d/pool
I0403 15:13:48.720947 11733 net.cpp:148] Top shape: 24 512 14 14 (2408448)
I0403 15:13:48.720963 11733 net.cpp:156] Memory required for data: 1144900896
I0403 15:13:48.720978 11733 layer_factory.hpp:77] Creating layer inception_4d/pool_proj
I0403 15:13:48.721001 11733 net.cpp:91] Creating Layer inception_4d/pool_proj
I0403 15:13:48.721020 11733 net.cpp:425] inception_4d/pool_proj <- inception_4d/pool
I0403 15:13:48.721040 11733 net.cpp:399] inception_4d/pool_proj -> inception_4d/pool_proj
I0403 15:13:48.722919 11733 net.cpp:141] Setting up inception_4d/pool_proj
I0403 15:13:48.722949 11733 net.cpp:148] Top shape: 24 64 14 14 (301056)
I0403 15:13:48.722966 11733 net.cpp:156] Memory required for data: 1146105120
I0403 15:13:48.722985 11733 layer_factory.hpp:77] Creating layer inception_4d/relu_pool_proj
I0403 15:13:48.723006 11733 net.cpp:91] Creating Layer inception_4d/relu_pool_proj
I0403 15:13:48.723024 11733 net.cpp:425] inception_4d/relu_pool_proj <- inception_4d/pool_proj
I0403 15:13:48.723042 11733 net.cpp:386] inception_4d/relu_pool_proj -> inception_4d/pool_proj (in-place)
I0403 15:13:48.723235 11733 net.cpp:141] Setting up inception_4d/relu_pool_proj
I0403 15:13:48.723261 11733 net.cpp:148] Top shape: 24 64 14 14 (301056)
I0403 15:13:48.723276 11733 net.cpp:156] Memory required for data: 1147309344
I0403 15:13:48.723291 11733 layer_factory.hpp:77] Creating layer inception_4d/output
I0403 15:13:48.723309 11733 net.cpp:91] Creating Layer inception_4d/output
I0403 15:13:48.723325 11733 net.cpp:425] inception_4d/output <- inception_4d/1x1
I0403 15:13:48.723342 11733 net.cpp:425] inception_4d/output <- inception_4d/3x3
I0403 15:13:48.723371 11733 net.cpp:425] inception_4d/output <- inception_4d/5x5
I0403 15:13:48.723389 11733 net.cpp:425] inception_4d/output <- inception_4d/pool_proj
I0403 15:13:48.723410 11733 net.cpp:399] inception_4d/output -> inception_4d/output
I0403 15:13:48.723460 11733 net.cpp:141] Setting up inception_4d/output
I0403 15:13:48.723486 11733 net.cpp:148] Top shape: 24 528 14 14 (2483712)
I0403 15:13:48.723502 11733 net.cpp:156] Memory required for data: 1157244192
I0403 15:13:48.723517 11733 layer_factory.hpp:77] Creating layer inception_4d/output_inception_4d/output_0_split
I0403 15:13:48.723536 11733 net.cpp:91] Creating Layer inception_4d/output_inception_4d/output_0_split
I0403 15:13:48.723551 11733 net.cpp:425] inception_4d/output_inception_4d/output_0_split <- inception_4d/output
I0403 15:13:48.723570 11733 net.cpp:399] inception_4d/output_inception_4d/output_0_split -> inception_4d/output_inception_4d/output_0_split_0
I0403 15:13:48.723590 11733 net.cpp:399] inception_4d/output_inception_4d/output_0_split -> inception_4d/output_inception_4d/output_0_split_1
I0403 15:13:48.723614 11733 net.cpp:399] inception_4d/output_inception_4d/output_0_split -> inception_4d/output_inception_4d/output_0_split_2
I0403 15:13:48.723635 11733 net.cpp:399] inception_4d/output_inception_4d/output_0_split -> inception_4d/output_inception_4d/output_0_split_3
I0403 15:13:48.723656 11733 net.cpp:399] inception_4d/output_inception_4d/output_0_split -> inception_4d/output_inception_4d/output_0_split_4
I0403 15:13:48.723765 11733 net.cpp:141] Setting up inception_4d/output_inception_4d/output_0_split
I0403 15:13:48.723803 11733 net.cpp:148] Top shape: 24 528 14 14 (2483712)
I0403 15:13:48.723821 11733 net.cpp:148] Top shape: 24 528 14 14 (2483712)
I0403 15:13:48.723836 11733 net.cpp:148] Top shape: 24 528 14 14 (2483712)
I0403 15:13:48.723852 11733 net.cpp:148] Top shape: 24 528 14 14 (2483712)
I0403 15:13:48.723868 11733 net.cpp:148] Top shape: 24 528 14 14 (2483712)
I0403 15:13:48.723882 11733 net.cpp:156] Memory required for data: 1206918432
I0403 15:13:48.723897 11733 layer_factory.hpp:77] Creating layer loss2/ave_pool
I0403 15:13:48.723918 11733 net.cpp:91] Creating Layer loss2/ave_pool
I0403 15:13:48.723935 11733 net.cpp:425] loss2/ave_pool <- inception_4d/output_inception_4d/output_0_split_0
I0403 15:13:48.723953 11733 net.cpp:399] loss2/ave_pool -> loss2/ave_pool
I0403 15:13:48.724279 11733 net.cpp:141] Setting up loss2/ave_pool
I0403 15:13:48.724308 11733 net.cpp:148] Top shape: 24 528 4 4 (202752)
I0403 15:13:48.724323 11733 net.cpp:156] Memory required for data: 1207729440
I0403 15:13:48.724339 11733 layer_factory.hpp:77] Creating layer loss2/conv
I0403 15:13:48.724367 11733 net.cpp:91] Creating Layer loss2/conv
I0403 15:13:48.724386 11733 net.cpp:425] loss2/conv <- loss2/ave_pool
I0403 15:13:48.724406 11733 net.cpp:399] loss2/conv -> loss2/conv
I0403 15:13:48.726356 11733 net.cpp:141] Setting up loss2/conv
I0403 15:13:48.726385 11733 net.cpp:148] Top shape: 24 128 4 4 (49152)
I0403 15:13:48.726402 11733 net.cpp:156] Memory required for data: 1207926048
I0403 15:13:48.726420 11733 layer_factory.hpp:77] Creating layer loss2/relu_conv
I0403 15:13:48.726439 11733 net.cpp:91] Creating Layer loss2/relu_conv
I0403 15:13:48.726456 11733 net.cpp:425] loss2/relu_conv <- loss2/conv
I0403 15:13:48.726477 11733 net.cpp:386] loss2/relu_conv -> loss2/conv (in-place)
I0403 15:13:48.726773 11733 net.cpp:141] Setting up loss2/relu_conv
I0403 15:13:48.726800 11733 net.cpp:148] Top shape: 24 128 4 4 (49152)
I0403 15:13:48.726816 11733 net.cpp:156] Memory required for data: 1208122656
I0403 15:13:48.726831 11733 layer_factory.hpp:77] Creating layer loss2/fc
I0403 15:13:48.726851 11733 net.cpp:91] Creating Layer loss2/fc
I0403 15:13:48.726868 11733 net.cpp:425] loss2/fc <- loss2/conv
I0403 15:13:48.726889 11733 net.cpp:399] loss2/fc -> loss2/fc
I0403 15:13:48.745034 11733 net.cpp:141] Setting up loss2/fc
I0403 15:13:48.745095 11733 net.cpp:148] Top shape: 24 1024 (24576)
I0403 15:13:48.745111 11733 net.cpp:156] Memory required for data: 1208220960
I0403 15:13:48.745132 11733 layer_factory.hpp:77] Creating layer loss2/relu_fc
I0403 15:13:48.745152 11733 net.cpp:91] Creating Layer loss2/relu_fc
I0403 15:13:48.745170 11733 net.cpp:425] loss2/relu_fc <- loss2/fc
I0403 15:13:48.745189 11733 net.cpp:386] loss2/relu_fc -> loss2/fc (in-place)
I0403 15:13:48.745544 11733 net.cpp:141] Setting up loss2/relu_fc
I0403 15:13:48.745573 11733 net.cpp:148] Top shape: 24 1024 (24576)
I0403 15:13:48.745590 11733 net.cpp:156] Memory required for data: 1208319264
I0403 15:13:48.745605 11733 layer_factory.hpp:77] Creating layer loss2/drop_fc
I0403 15:13:48.745625 11733 net.cpp:91] Creating Layer loss2/drop_fc
I0403 15:13:48.745640 11733 net.cpp:425] loss2/drop_fc <- loss2/fc
I0403 15:13:48.745658 11733 net.cpp:386] loss2/drop_fc -> loss2/fc (in-place)
I0403 15:13:48.745712 11733 net.cpp:141] Setting up loss2/drop_fc
I0403 15:13:48.745735 11733 net.cpp:148] Top shape: 24 1024 (24576)
I0403 15:13:48.745751 11733 net.cpp:156] Memory required for data: 1208417568
I0403 15:13:48.745766 11733 layer_factory.hpp:77] Creating layer loss2/classifier_plantvillage
I0403 15:13:48.745789 11733 net.cpp:91] Creating Layer loss2/classifier_plantvillage
I0403 15:13:48.745805 11733 net.cpp:425] loss2/classifier_plantvillage <- loss2/fc
I0403 15:13:48.745825 11733 net.cpp:399] loss2/classifier_plantvillage -> loss2/classifier_plantvillage
I0403 15:13:48.746249 11733 net.cpp:141] Setting up loss2/classifier_plantvillage
I0403 15:13:48.746275 11733 net.cpp:148] Top shape: 24 38 (912)
I0403 15:13:48.746320 11733 net.cpp:156] Memory required for data: 1208421216
I0403 15:13:48.746340 11733 layer_factory.hpp:77] Creating layer loss2/classifier_plantvillage_loss2/classifier_plantvillage_0_split
I0403 15:13:48.746363 11733 net.cpp:91] Creating Layer loss2/classifier_plantvillage_loss2/classifier_plantvillage_0_split
I0403 15:13:48.746381 11733 net.cpp:425] loss2/classifier_plantvillage_loss2/classifier_plantvillage_0_split <- loss2/classifier_plantvillage
I0403 15:13:48.746402 11733 net.cpp:399] loss2/classifier_plantvillage_loss2/classifier_plantvillage_0_split -> loss2/classifier_plantvillage_loss2/classifier_plantvillage_0_split_0
I0403 15:13:48.746424 11733 net.cpp:399] loss2/classifier_plantvillage_loss2/classifier_plantvillage_0_split -> loss2/classifier_plantvillage_loss2/classifier_plantvillage_0_split_1
I0403 15:13:48.746445 11733 net.cpp:399] loss2/classifier_plantvillage_loss2/classifier_plantvillage_0_split -> loss2/classifier_plantvillage_loss2/classifier_plantvillage_0_split_2
I0403 15:13:48.746526 11733 net.cpp:141] Setting up loss2/classifier_plantvillage_loss2/classifier_plantvillage_0_split
I0403 15:13:48.746551 11733 net.cpp:148] Top shape: 24 38 (912)
I0403 15:13:48.746567 11733 net.cpp:148] Top shape: 24 38 (912)
I0403 15:13:48.746583 11733 net.cpp:148] Top shape: 24 38 (912)
I0403 15:13:48.746598 11733 net.cpp:156] Memory required for data: 1208432160
I0403 15:13:48.746613 11733 layer_factory.hpp:77] Creating layer inception_4e/1x1
I0403 15:13:48.746636 11733 net.cpp:91] Creating Layer inception_4e/1x1
I0403 15:13:48.746655 11733 net.cpp:425] inception_4e/1x1 <- inception_4d/output_inception_4d/output_0_split_1
I0403 15:13:48.746675 11733 net.cpp:399] inception_4e/1x1 -> inception_4e/1x1
I0403 15:13:48.748595 11733 net.cpp:141] Setting up inception_4e/1x1
I0403 15:13:48.748625 11733 net.cpp:148] Top shape: 24 256 14 14 (1204224)
I0403 15:13:48.748641 11733 net.cpp:156] Memory required for data: 1213249056
I0403 15:13:48.748659 11733 layer_factory.hpp:77] Creating layer inception_4e/relu_1x1
I0403 15:13:48.748680 11733 net.cpp:91] Creating Layer inception_4e/relu_1x1
I0403 15:13:48.748698 11733 net.cpp:425] inception_4e/relu_1x1 <- inception_4e/1x1
I0403 15:13:48.748716 11733 net.cpp:386] inception_4e/relu_1x1 -> inception_4e/1x1 (in-place)
I0403 15:13:48.749024 11733 net.cpp:141] Setting up inception_4e/relu_1x1
I0403 15:13:48.749052 11733 net.cpp:148] Top shape: 24 256 14 14 (1204224)
I0403 15:13:48.749066 11733 net.cpp:156] Memory required for data: 1218065952
I0403 15:13:48.749081 11733 layer_factory.hpp:77] Creating layer inception_4e/3x3_reduce
I0403 15:13:48.749104 11733 net.cpp:91] Creating Layer inception_4e/3x3_reduce
I0403 15:13:48.749121 11733 net.cpp:425] inception_4e/3x3_reduce <- inception_4d/output_inception_4d/output_0_split_2
I0403 15:13:48.749145 11733 net.cpp:399] inception_4e/3x3_reduce -> inception_4e/3x3_reduce
I0403 15:13:48.751341 11733 net.cpp:141] Setting up inception_4e/3x3_reduce
I0403 15:13:48.751375 11733 net.cpp:148] Top shape: 24 160 14 14 (752640)
I0403 15:13:48.751391 11733 net.cpp:156] Memory required for data: 1221076512
I0403 15:13:48.751410 11733 layer_factory.hpp:77] Creating layer inception_4e/relu_3x3_reduce
I0403 15:13:48.751428 11733 net.cpp:91] Creating Layer inception_4e/relu_3x3_reduce
I0403 15:13:48.751446 11733 net.cpp:425] inception_4e/relu_3x3_reduce <- inception_4e/3x3_reduce
I0403 15:13:48.751466 11733 net.cpp:386] inception_4e/relu_3x3_reduce -> inception_4e/3x3_reduce (in-place)
I0403 15:13:48.751660 11733 net.cpp:141] Setting up inception_4e/relu_3x3_reduce
I0403 15:13:48.751687 11733 net.cpp:148] Top shape: 24 160 14 14 (752640)
I0403 15:13:48.751700 11733 net.cpp:156] Memory required for data: 1224087072
I0403 15:13:48.751716 11733 layer_factory.hpp:77] Creating layer inception_4e/3x3
I0403 15:13:48.751739 11733 net.cpp:91] Creating Layer inception_4e/3x3
I0403 15:13:48.751756 11733 net.cpp:425] inception_4e/3x3 <- inception_4e/3x3_reduce
I0403 15:13:48.751778 11733 net.cpp:399] inception_4e/3x3 -> inception_4e/3x3
I0403 15:13:48.756999 11733 net.cpp:141] Setting up inception_4e/3x3
I0403 15:13:48.757041 11733 net.cpp:148] Top shape: 24 320 14 14 (1505280)
I0403 15:13:48.757058 11733 net.cpp:156] Memory required for data: 1230108192
I0403 15:13:48.757076 11733 layer_factory.hpp:77] Creating layer inception_4e/relu_3x3
I0403 15:13:48.757097 11733 net.cpp:91] Creating Layer inception_4e/relu_3x3
I0403 15:13:48.757114 11733 net.cpp:425] inception_4e/relu_3x3 <- inception_4e/3x3
I0403 15:13:48.757131 11733 net.cpp:386] inception_4e/relu_3x3 -> inception_4e/3x3 (in-place)
I0403 15:13:48.757438 11733 net.cpp:141] Setting up inception_4e/relu_3x3
I0403 15:13:48.757465 11733 net.cpp:148] Top shape: 24 320 14 14 (1505280)
I0403 15:13:48.757480 11733 net.cpp:156] Memory required for data: 1236129312
I0403 15:13:48.757496 11733 layer_factory.hpp:77] Creating layer inception_4e/5x5_reduce
I0403 15:13:48.757519 11733 net.cpp:91] Creating Layer inception_4e/5x5_reduce
I0403 15:13:48.757536 11733 net.cpp:425] inception_4e/5x5_reduce <- inception_4d/output_inception_4d/output_0_split_3
I0403 15:13:48.757561 11733 net.cpp:399] inception_4e/5x5_reduce -> inception_4e/5x5_reduce
I0403 15:13:48.758680 11733 net.cpp:141] Setting up inception_4e/5x5_reduce
I0403 15:13:48.758718 11733 net.cpp:148] Top shape: 24 32 14 14 (150528)
I0403 15:13:48.758734 11733 net.cpp:156] Memory required for data: 1236731424
I0403 15:13:48.758754 11733 layer_factory.hpp:77] Creating layer inception_4e/relu_5x5_reduce
I0403 15:13:48.758781 11733 net.cpp:91] Creating Layer inception_4e/relu_5x5_reduce
I0403 15:13:48.758798 11733 net.cpp:425] inception_4e/relu_5x5_reduce <- inception_4e/5x5_reduce
I0403 15:13:48.758819 11733 net.cpp:386] inception_4e/relu_5x5_reduce -> inception_4e/5x5_reduce (in-place)
I0403 15:13:48.759126 11733 net.cpp:141] Setting up inception_4e/relu_5x5_reduce
I0403 15:13:48.759153 11733 net.cpp:148] Top shape: 24 32 14 14 (150528)
I0403 15:13:48.759169 11733 net.cpp:156] Memory required for data: 1237333536
I0403 15:13:48.759184 11733 layer_factory.hpp:77] Creating layer inception_4e/5x5
I0403 15:13:48.759225 11733 net.cpp:91] Creating Layer inception_4e/5x5
I0403 15:13:48.759245 11733 net.cpp:425] inception_4e/5x5 <- inception_4e/5x5_reduce
I0403 15:13:48.759265 11733 net.cpp:399] inception_4e/5x5 -> inception_4e/5x5
I0403 15:13:48.761173 11733 net.cpp:141] Setting up inception_4e/5x5
I0403 15:13:48.761204 11733 net.cpp:148] Top shape: 24 128 14 14 (602112)
I0403 15:13:48.761221 11733 net.cpp:156] Memory required for data: 1239741984
I0403 15:13:48.761241 11733 layer_factory.hpp:77] Creating layer inception_4e/relu_5x5
I0403 15:13:48.761260 11733 net.cpp:91] Creating Layer inception_4e/relu_5x5
I0403 15:13:48.761276 11733 net.cpp:425] inception_4e/relu_5x5 <- inception_4e/5x5
I0403 15:13:48.761296 11733 net.cpp:386] inception_4e/relu_5x5 -> inception_4e/5x5 (in-place)
I0403 15:13:48.761504 11733 net.cpp:141] Setting up inception_4e/relu_5x5
I0403 15:13:48.761530 11733 net.cpp:148] Top shape: 24 128 14 14 (602112)
I0403 15:13:48.761545 11733 net.cpp:156] Memory required for data: 1242150432
I0403 15:13:48.761560 11733 layer_factory.hpp:77] Creating layer inception_4e/pool
I0403 15:13:48.761582 11733 net.cpp:91] Creating Layer inception_4e/pool
I0403 15:13:48.761598 11733 net.cpp:425] inception_4e/pool <- inception_4d/output_inception_4d/output_0_split_4
I0403 15:13:48.761620 11733 net.cpp:399] inception_4e/pool -> inception_4e/pool
I0403 15:13:48.761693 11733 net.cpp:141] Setting up inception_4e/pool
I0403 15:13:48.761716 11733 net.cpp:148] Top shape: 24 528 14 14 (2483712)
I0403 15:13:48.761731 11733 net.cpp:156] Memory required for data: 1252085280
I0403 15:13:48.761746 11733 layer_factory.hpp:77] Creating layer inception_4e/pool_proj
I0403 15:13:48.761773 11733 net.cpp:91] Creating Layer inception_4e/pool_proj
I0403 15:13:48.761791 11733 net.cpp:425] inception_4e/pool_proj <- inception_4e/pool
I0403 15:13:48.761811 11733 net.cpp:399] inception_4e/pool_proj -> inception_4e/pool_proj
I0403 15:13:48.763368 11733 net.cpp:141] Setting up inception_4e/pool_proj
I0403 15:13:48.763409 11733 net.cpp:148] Top shape: 24 128 14 14 (602112)
I0403 15:13:48.763427 11733 net.cpp:156] Memory required for data: 1254493728
I0403 15:13:48.763445 11733 layer_factory.hpp:77] Creating layer inception_4e/relu_pool_proj
I0403 15:13:48.763466 11733 net.cpp:91] Creating Layer inception_4e/relu_pool_proj
I0403 15:13:48.763484 11733 net.cpp:425] inception_4e/relu_pool_proj <- inception_4e/pool_proj
I0403 15:13:48.763502 11733 net.cpp:386] inception_4e/relu_pool_proj -> inception_4e/pool_proj (in-place)
I0403 15:13:48.763805 11733 net.cpp:141] Setting up inception_4e/relu_pool_proj
I0403 15:13:48.763833 11733 net.cpp:148] Top shape: 24 128 14 14 (602112)
I0403 15:13:48.763849 11733 net.cpp:156] Memory required for data: 1256902176
I0403 15:13:48.763864 11733 layer_factory.hpp:77] Creating layer inception_4e/output
I0403 15:13:48.763885 11733 net.cpp:91] Creating Layer inception_4e/output
I0403 15:13:48.763901 11733 net.cpp:425] inception_4e/output <- inception_4e/1x1
I0403 15:13:48.763918 11733 net.cpp:425] inception_4e/output <- inception_4e/3x3
I0403 15:13:48.763934 11733 net.cpp:425] inception_4e/output <- inception_4e/5x5
I0403 15:13:48.763952 11733 net.cpp:425] inception_4e/output <- inception_4e/pool_proj
I0403 15:13:48.763968 11733 net.cpp:399] inception_4e/output -> inception_4e/output
I0403 15:13:48.764021 11733 net.cpp:141] Setting up inception_4e/output
I0403 15:13:48.764045 11733 net.cpp:148] Top shape: 24 832 14 14 (3913728)
I0403 15:13:48.764060 11733 net.cpp:156] Memory required for data: 1272557088
I0403 15:13:48.764075 11733 layer_factory.hpp:77] Creating layer pool4/3x3_s2
I0403 15:13:48.764093 11733 net.cpp:91] Creating Layer pool4/3x3_s2
I0403 15:13:48.764111 11733 net.cpp:425] pool4/3x3_s2 <- inception_4e/output
I0403 15:13:48.764132 11733 net.cpp:399] pool4/3x3_s2 -> pool4/3x3_s2
I0403 15:13:48.764204 11733 net.cpp:141] Setting up pool4/3x3_s2
I0403 15:13:48.764228 11733 net.cpp:148] Top shape: 24 832 7 7 (978432)
I0403 15:13:48.764243 11733 net.cpp:156] Memory required for data: 1276470816
I0403 15:13:48.764258 11733 layer_factory.hpp:77] Creating layer pool4/3x3_s2_pool4/3x3_s2_0_split
I0403 15:13:48.764276 11733 net.cpp:91] Creating Layer pool4/3x3_s2_pool4/3x3_s2_0_split
I0403 15:13:48.764292 11733 net.cpp:425] pool4/3x3_s2_pool4/3x3_s2_0_split <- pool4/3x3_s2
I0403 15:13:48.764312 11733 net.cpp:399] pool4/3x3_s2_pool4/3x3_s2_0_split -> pool4/3x3_s2_pool4/3x3_s2_0_split_0
I0403 15:13:48.764333 11733 net.cpp:399] pool4/3x3_s2_pool4/3x3_s2_0_split -> pool4/3x3_s2_pool4/3x3_s2_0_split_1
I0403 15:13:48.764359 11733 net.cpp:399] pool4/3x3_s2_pool4/3x3_s2_0_split -> pool4/3x3_s2_pool4/3x3_s2_0_split_2
I0403 15:13:48.764381 11733 net.cpp:399] pool4/3x3_s2_pool4/3x3_s2_0_split -> pool4/3x3_s2_pool4/3x3_s2_0_split_3
I0403 15:13:48.764473 11733 net.cpp:141] Setting up pool4/3x3_s2_pool4/3x3_s2_0_split
I0403 15:13:48.764499 11733 net.cpp:148] Top shape: 24 832 7 7 (978432)
I0403 15:13:48.764518 11733 net.cpp:148] Top shape: 24 832 7 7 (978432)
I0403 15:13:48.764533 11733 net.cpp:148] Top shape: 24 832 7 7 (978432)
I0403 15:13:48.764549 11733 net.cpp:148] Top shape: 24 832 7 7 (978432)
I0403 15:13:48.764564 11733 net.cpp:156] Memory required for data: 1292125728
I0403 15:13:48.764580 11733 layer_factory.hpp:77] Creating layer inception_5a/1x1
I0403 15:13:48.764602 11733 net.cpp:91] Creating Layer inception_5a/1x1
I0403 15:13:48.764621 11733 net.cpp:425] inception_5a/1x1 <- pool4/3x3_s2_pool4/3x3_s2_0_split_0
I0403 15:13:48.764639 11733 net.cpp:399] inception_5a/1x1 -> inception_5a/1x1
I0403 15:13:48.767634 11733 net.cpp:141] Setting up inception_5a/1x1
I0403 15:13:48.767664 11733 net.cpp:148] Top shape: 24 256 7 7 (301056)
I0403 15:13:48.767680 11733 net.cpp:156] Memory required for data: 1293329952
I0403 15:13:48.767700 11733 layer_factory.hpp:77] Creating layer inception_5a/relu_1x1
I0403 15:13:48.767719 11733 net.cpp:91] Creating Layer inception_5a/relu_1x1
I0403 15:13:48.767736 11733 net.cpp:425] inception_5a/relu_1x1 <- inception_5a/1x1
I0403 15:13:48.767756 11733 net.cpp:386] inception_5a/relu_1x1 -> inception_5a/1x1 (in-place)
I0403 15:13:48.768081 11733 net.cpp:141] Setting up inception_5a/relu_1x1
I0403 15:13:48.768108 11733 net.cpp:148] Top shape: 24 256 7 7 (301056)
I0403 15:13:48.768124 11733 net.cpp:156] Memory required for data: 1294534176
I0403 15:13:48.768139 11733 layer_factory.hpp:77] Creating layer inception_5a/3x3_reduce
I0403 15:13:48.768162 11733 net.cpp:91] Creating Layer inception_5a/3x3_reduce
I0403 15:13:48.768182 11733 net.cpp:425] inception_5a/3x3_reduce <- pool4/3x3_s2_pool4/3x3_s2_0_split_1
I0403 15:13:48.768204 11733 net.cpp:399] inception_5a/3x3_reduce -> inception_5a/3x3_reduce
I0403 15:13:48.770750 11733 net.cpp:141] Setting up inception_5a/3x3_reduce
I0403 15:13:48.770778 11733 net.cpp:148] Top shape: 24 160 7 7 (188160)
I0403 15:13:48.770795 11733 net.cpp:156] Memory required for data: 1295286816
I0403 15:13:48.770814 11733 layer_factory.hpp:77] Creating layer inception_5a/relu_3x3_reduce
I0403 15:13:48.770835 11733 net.cpp:91] Creating Layer inception_5a/relu_3x3_reduce
I0403 15:13:48.770853 11733 net.cpp:425] inception_5a/relu_3x3_reduce <- inception_5a/3x3_reduce
I0403 15:13:48.770871 11733 net.cpp:386] inception_5a/relu_3x3_reduce -> inception_5a/3x3_reduce (in-place)
I0403 15:13:48.771069 11733 net.cpp:141] Setting up inception_5a/relu_3x3_reduce
I0403 15:13:48.771096 11733 net.cpp:148] Top shape: 24 160 7 7 (188160)
I0403 15:13:48.771112 11733 net.cpp:156] Memory required for data: 1296039456
I0403 15:13:48.771128 11733 layer_factory.hpp:77] Creating layer inception_5a/3x3
I0403 15:13:48.771154 11733 net.cpp:91] Creating Layer inception_5a/3x3
I0403 15:13:48.771173 11733 net.cpp:425] inception_5a/3x3 <- inception_5a/3x3_reduce
I0403 15:13:48.771193 11733 net.cpp:399] inception_5a/3x3 -> inception_5a/3x3
I0403 15:13:48.776376 11733 net.cpp:141] Setting up inception_5a/3x3
I0403 15:13:48.776408 11733 net.cpp:148] Top shape: 24 320 7 7 (376320)
I0403 15:13:48.776425 11733 net.cpp:156] Memory required for data: 1297544736
I0403 15:13:48.776444 11733 layer_factory.hpp:77] Creating layer inception_5a/relu_3x3
I0403 15:13:48.776464 11733 net.cpp:91] Creating Layer inception_5a/relu_3x3
I0403 15:13:48.776481 11733 net.cpp:425] inception_5a/relu_3x3 <- inception_5a/3x3
I0403 15:13:48.776502 11733 net.cpp:386] inception_5a/relu_3x3 -> inception_5a/3x3 (in-place)
I0403 15:13:48.776813 11733 net.cpp:141] Setting up inception_5a/relu_3x3
I0403 15:13:48.776842 11733 net.cpp:148] Top shape: 24 320 7 7 (376320)
I0403 15:13:48.776859 11733 net.cpp:156] Memory required for data: 1299050016
I0403 15:13:48.776875 11733 layer_factory.hpp:77] Creating layer inception_5a/5x5_reduce
I0403 15:13:48.776898 11733 net.cpp:91] Creating Layer inception_5a/5x5_reduce
I0403 15:13:48.776918 11733 net.cpp:425] inception_5a/5x5_reduce <- pool4/3x3_s2_pool4/3x3_s2_0_split_2
I0403 15:13:48.776937 11733 net.cpp:399] inception_5a/5x5_reduce -> inception_5a/5x5_reduce
I0403 15:13:48.778131 11733 net.cpp:141] Setting up inception_5a/5x5_reduce
I0403 15:13:48.778163 11733 net.cpp:148] Top shape: 24 32 7 7 (37632)
I0403 15:13:48.778179 11733 net.cpp:156] Memory required for data: 1299200544
I0403 15:13:48.778198 11733 layer_factory.hpp:77] Creating layer inception_5a/relu_5x5_reduce
I0403 15:13:48.778216 11733 net.cpp:91] Creating Layer inception_5a/relu_5x5_reduce
I0403 15:13:48.778233 11733 net.cpp:425] inception_5a/relu_5x5_reduce <- inception_5a/5x5_reduce
I0403 15:13:48.778252 11733 net.cpp:386] inception_5a/relu_5x5_reduce -> inception_5a/5x5_reduce (in-place)
I0403 15:13:48.778558 11733 net.cpp:141] Setting up inception_5a/relu_5x5_reduce
I0403 15:13:48.778586 11733 net.cpp:148] Top shape: 24 32 7 7 (37632)
I0403 15:13:48.778601 11733 net.cpp:156] Memory required for data: 1299351072
I0403 15:13:48.778617 11733 layer_factory.hpp:77] Creating layer inception_5a/5x5
I0403 15:13:48.778640 11733 net.cpp:91] Creating Layer inception_5a/5x5
I0403 15:13:48.778657 11733 net.cpp:425] inception_5a/5x5 <- inception_5a/5x5_reduce
I0403 15:13:48.778678 11733 net.cpp:399] inception_5a/5x5 -> inception_5a/5x5
I0403 15:13:48.780421 11733 net.cpp:141] Setting up inception_5a/5x5
I0403 15:13:48.780465 11733 net.cpp:148] Top shape: 24 128 7 7 (150528)
I0403 15:13:48.780483 11733 net.cpp:156] Memory required for data: 1299953184
I0403 15:13:48.780501 11733 layer_factory.hpp:77] Creating layer inception_5a/relu_5x5
I0403 15:13:48.780520 11733 net.cpp:91] Creating Layer inception_5a/relu_5x5
I0403 15:13:48.780537 11733 net.cpp:425] inception_5a/relu_5x5 <- inception_5a/5x5
I0403 15:13:48.780557 11733 net.cpp:386] inception_5a/relu_5x5 -> inception_5a/5x5 (in-place)
I0403 15:13:48.780767 11733 net.cpp:141] Setting up inception_5a/relu_5x5
I0403 15:13:48.780792 11733 net.cpp:148] Top shape: 24 128 7 7 (150528)
I0403 15:13:48.780807 11733 net.cpp:156] Memory required for data: 1300555296
I0403 15:13:48.780822 11733 layer_factory.hpp:77] Creating layer inception_5a/pool
I0403 15:13:48.780838 11733 net.cpp:91] Creating Layer inception_5a/pool
I0403 15:13:48.780855 11733 net.cpp:425] inception_5a/pool <- pool4/3x3_s2_pool4/3x3_s2_0_split_3
I0403 15:13:48.780875 11733 net.cpp:399] inception_5a/pool -> inception_5a/pool
I0403 15:13:48.780946 11733 net.cpp:141] Setting up inception_5a/pool
I0403 15:13:48.780971 11733 net.cpp:148] Top shape: 24 832 7 7 (978432)
I0403 15:13:48.780985 11733 net.cpp:156] Memory required for data: 1304469024
I0403 15:13:48.780999 11733 layer_factory.hpp:77] Creating layer inception_5a/pool_proj
I0403 15:13:48.781023 11733 net.cpp:91] Creating Layer inception_5a/pool_proj
I0403 15:13:48.781040 11733 net.cpp:425] inception_5a/pool_proj <- inception_5a/pool
I0403 15:13:48.781059 11733 net.cpp:399] inception_5a/pool_proj -> inception_5a/pool_proj
I0403 15:13:48.783365 11733 net.cpp:141] Setting up inception_5a/pool_proj
I0403 15:13:48.783397 11733 net.cpp:148] Top shape: 24 128 7 7 (150528)
I0403 15:13:48.783414 11733 net.cpp:156] Memory required for data: 1305071136
I0403 15:13:48.783433 11733 layer_factory.hpp:77] Creating layer inception_5a/relu_pool_proj
I0403 15:13:48.783452 11733 net.cpp:91] Creating Layer inception_5a/relu_pool_proj
I0403 15:13:48.783468 11733 net.cpp:425] inception_5a/relu_pool_proj <- inception_5a/pool_proj
I0403 15:13:48.783486 11733 net.cpp:386] inception_5a/relu_pool_proj -> inception_5a/pool_proj (in-place)
I0403 15:13:48.783788 11733 net.cpp:141] Setting up inception_5a/relu_pool_proj
I0403 15:13:48.783818 11733 net.cpp:148] Top shape: 24 128 7 7 (150528)
I0403 15:13:48.783833 11733 net.cpp:156] Memory required for data: 1305673248
I0403 15:13:48.783849 11733 layer_factory.hpp:77] Creating layer inception_5a/output
I0403 15:13:48.783865 11733 net.cpp:91] Creating Layer inception_5a/output
I0403 15:13:48.783882 11733 net.cpp:425] inception_5a/output <- inception_5a/1x1
I0403 15:13:48.783900 11733 net.cpp:425] inception_5a/output <- inception_5a/3x3
I0403 15:13:48.783915 11733 net.cpp:425] inception_5a/output <- inception_5a/5x5
I0403 15:13:48.783931 11733 net.cpp:425] inception_5a/output <- inception_5a/pool_proj
I0403 15:13:48.783948 11733 net.cpp:399] inception_5a/output -> inception_5a/output
I0403 15:13:48.783999 11733 net.cpp:141] Setting up inception_5a/output
I0403 15:13:48.784024 11733 net.cpp:148] Top shape: 24 832 7 7 (978432)
I0403 15:13:48.784039 11733 net.cpp:156] Memory required for data: 1309586976
I0403 15:13:48.784052 11733 layer_factory.hpp:77] Creating layer inception_5a/output_inception_5a/output_0_split
I0403 15:13:48.784071 11733 net.cpp:91] Creating Layer inception_5a/output_inception_5a/output_0_split
I0403 15:13:48.784090 11733 net.cpp:425] inception_5a/output_inception_5a/output_0_split <- inception_5a/output
I0403 15:13:48.784106 11733 net.cpp:399] inception_5a/output_inception_5a/output_0_split -> inception_5a/output_inception_5a/output_0_split_0
I0403 15:13:48.784127 11733 net.cpp:399] inception_5a/output_inception_5a/output_0_split -> inception_5a/output_inception_5a/output_0_split_1
I0403 15:13:48.784147 11733 net.cpp:399] inception_5a/output_inception_5a/output_0_split -> inception_5a/output_inception_5a/output_0_split_2
I0403 15:13:48.784168 11733 net.cpp:399] inception_5a/output_inception_5a/output_0_split -> inception_5a/output_inception_5a/output_0_split_3
I0403 15:13:48.784281 11733 net.cpp:141] Setting up inception_5a/output_inception_5a/output_0_split
I0403 15:13:48.784303 11733 net.cpp:148] Top shape: 24 832 7 7 (978432)
I0403 15:13:48.784319 11733 net.cpp:148] Top shape: 24 832 7 7 (978432)
I0403 15:13:48.784335 11733 net.cpp:148] Top shape: 24 832 7 7 (978432)
I0403 15:13:48.784355 11733 net.cpp:148] Top shape: 24 832 7 7 (978432)
I0403 15:13:48.784370 11733 net.cpp:156] Memory required for data: 1325241888
I0403 15:13:48.784384 11733 layer_factory.hpp:77] Creating layer inception_5b/1x1
I0403 15:13:48.784409 11733 net.cpp:91] Creating Layer inception_5b/1x1
I0403 15:13:48.784426 11733 net.cpp:425] inception_5b/1x1 <- inception_5a/output_inception_5a/output_0_split_0
I0403 15:13:48.784447 11733 net.cpp:399] inception_5b/1x1 -> inception_5b/1x1
I0403 15:13:48.788226 11733 net.cpp:141] Setting up inception_5b/1x1
I0403 15:13:48.788255 11733 net.cpp:148] Top shape: 24 384 7 7 (451584)
I0403 15:13:48.788272 11733 net.cpp:156] Memory required for data: 1327048224
I0403 15:13:48.788290 11733 layer_factory.hpp:77] Creating layer inception_5b/relu_1x1
I0403 15:13:48.788311 11733 net.cpp:91] Creating Layer inception_5b/relu_1x1
I0403 15:13:48.788328 11733 net.cpp:425] inception_5b/relu_1x1 <- inception_5b/1x1
I0403 15:13:48.788347 11733 net.cpp:386] inception_5b/relu_1x1 -> inception_5b/1x1 (in-place)
I0403 15:13:48.788656 11733 net.cpp:141] Setting up inception_5b/relu_1x1
I0403 15:13:48.788682 11733 net.cpp:148] Top shape: 24 384 7 7 (451584)
I0403 15:13:48.788697 11733 net.cpp:156] Memory required for data: 1328854560
I0403 15:13:48.788712 11733 layer_factory.hpp:77] Creating layer inception_5b/3x3_reduce
I0403 15:13:48.788734 11733 net.cpp:91] Creating Layer inception_5b/3x3_reduce
I0403 15:13:48.788754 11733 net.cpp:425] inception_5b/3x3_reduce <- inception_5a/output_inception_5a/output_0_split_1
I0403 15:13:48.788774 11733 net.cpp:399] inception_5b/3x3_reduce -> inception_5b/3x3_reduce
I0403 15:13:48.791435 11733 net.cpp:141] Setting up inception_5b/3x3_reduce
I0403 15:13:48.791466 11733 net.cpp:148] Top shape: 24 192 7 7 (225792)
I0403 15:13:48.791483 11733 net.cpp:156] Memory required for data: 1329757728
I0403 15:13:48.791501 11733 layer_factory.hpp:77] Creating layer inception_5b/relu_3x3_reduce
I0403 15:13:48.791520 11733 net.cpp:91] Creating Layer inception_5b/relu_3x3_reduce
I0403 15:13:48.791537 11733 net.cpp:425] inception_5b/relu_3x3_reduce <- inception_5b/3x3_reduce
I0403 15:13:48.791553 11733 net.cpp:386] inception_5b/relu_3x3_reduce -> inception_5b/3x3_reduce (in-place)
I0403 15:13:48.791756 11733 net.cpp:141] Setting up inception_5b/relu_3x3_reduce
I0403 15:13:48.791784 11733 net.cpp:148] Top shape: 24 192 7 7 (225792)
I0403 15:13:48.791798 11733 net.cpp:156] Memory required for data: 1330660896
I0403 15:13:48.791813 11733 layer_factory.hpp:77] Creating layer inception_5b/3x3
I0403 15:13:48.791836 11733 net.cpp:91] Creating Layer inception_5b/3x3
I0403 15:13:48.791853 11733 net.cpp:425] inception_5b/3x3 <- inception_5b/3x3_reduce
I0403 15:13:48.791872 11733 net.cpp:399] inception_5b/3x3 -> inception_5b/3x3
I0403 15:13:48.798637 11733 net.cpp:141] Setting up inception_5b/3x3
I0403 15:13:48.798669 11733 net.cpp:148] Top shape: 24 384 7 7 (451584)
I0403 15:13:48.798686 11733 net.cpp:156] Memory required for data: 1332467232
I0403 15:13:48.798705 11733 layer_factory.hpp:77] Creating layer inception_5b/relu_3x3
I0403 15:13:48.798723 11733 net.cpp:91] Creating Layer inception_5b/relu_3x3
I0403 15:13:48.798739 11733 net.cpp:425] inception_5b/relu_3x3 <- inception_5b/3x3
I0403 15:13:48.798756 11733 net.cpp:386] inception_5b/relu_3x3 -> inception_5b/3x3 (in-place)
I0403 15:13:48.799060 11733 net.cpp:141] Setting up inception_5b/relu_3x3
I0403 15:13:48.799089 11733 net.cpp:148] Top shape: 24 384 7 7 (451584)
I0403 15:13:48.799105 11733 net.cpp:156] Memory required for data: 1334273568
I0403 15:13:48.799121 11733 layer_factory.hpp:77] Creating layer inception_5b/5x5_reduce
I0403 15:13:48.799159 11733 net.cpp:91] Creating Layer inception_5b/5x5_reduce
I0403 15:13:48.799177 11733 net.cpp:425] inception_5b/5x5_reduce <- inception_5a/output_inception_5a/output_0_split_2
I0403 15:13:48.799197 11733 net.cpp:399] inception_5b/5x5_reduce -> inception_5b/5x5_reduce
I0403 15:13:48.800495 11733 net.cpp:141] Setting up inception_5b/5x5_reduce
I0403 15:13:48.800523 11733 net.cpp:148] Top shape: 24 48 7 7 (56448)
I0403 15:13:48.800539 11733 net.cpp:156] Memory required for data: 1334499360
I0403 15:13:48.800557 11733 layer_factory.hpp:77] Creating layer inception_5b/relu_5x5_reduce
I0403 15:13:48.800578 11733 net.cpp:91] Creating Layer inception_5b/relu_5x5_reduce
I0403 15:13:48.800595 11733 net.cpp:425] inception_5b/relu_5x5_reduce <- inception_5b/5x5_reduce
I0403 15:13:48.800613 11733 net.cpp:386] inception_5b/relu_5x5_reduce -> inception_5b/5x5_reduce (in-place)
I0403 15:13:48.800993 11733 net.cpp:141] Setting up inception_5b/relu_5x5_reduce
I0403 15:13:48.801020 11733 net.cpp:148] Top shape: 24 48 7 7 (56448)
I0403 15:13:48.801035 11733 net.cpp:156] Memory required for data: 1334725152
I0403 15:13:48.801050 11733 layer_factory.hpp:77] Creating layer inception_5b/5x5
I0403 15:13:48.801070 11733 net.cpp:91] Creating Layer inception_5b/5x5
I0403 15:13:48.801089 11733 net.cpp:425] inception_5b/5x5 <- inception_5b/5x5_reduce
I0403 15:13:48.801106 11733 net.cpp:399] inception_5b/5x5 -> inception_5b/5x5
I0403 15:13:48.803197 11733 net.cpp:141] Setting up inception_5b/5x5
I0403 15:13:48.803226 11733 net.cpp:148] Top shape: 24 128 7 7 (150528)
I0403 15:13:48.803242 11733 net.cpp:156] Memory required for data: 1335327264
I0403 15:13:48.803261 11733 layer_factory.hpp:77] Creating layer inception_5b/relu_5x5
I0403 15:13:48.803278 11733 net.cpp:91] Creating Layer inception_5b/relu_5x5
I0403 15:13:48.803295 11733 net.cpp:425] inception_5b/relu_5x5 <- inception_5b/5x5
I0403 15:13:48.803316 11733 net.cpp:386] inception_5b/relu_5x5 -> inception_5b/5x5 (in-place)
I0403 15:13:48.803525 11733 net.cpp:141] Setting up inception_5b/relu_5x5
I0403 15:13:48.803550 11733 net.cpp:148] Top shape: 24 128 7 7 (150528)
I0403 15:13:48.803565 11733 net.cpp:156] Memory required for data: 1335929376
I0403 15:13:48.803581 11733 layer_factory.hpp:77] Creating layer inception_5b/pool
I0403 15:13:48.803602 11733 net.cpp:91] Creating Layer inception_5b/pool
I0403 15:13:48.803619 11733 net.cpp:425] inception_5b/pool <- inception_5a/output_inception_5a/output_0_split_3
I0403 15:13:48.803638 11733 net.cpp:399] inception_5b/pool -> inception_5b/pool
I0403 15:13:48.803712 11733 net.cpp:141] Setting up inception_5b/pool
I0403 15:13:48.803736 11733 net.cpp:148] Top shape: 24 832 7 7 (978432)
I0403 15:13:48.803750 11733 net.cpp:156] Memory required for data: 1339843104
I0403 15:13:48.803766 11733 layer_factory.hpp:77] Creating layer inception_5b/pool_proj
I0403 15:13:48.803787 11733 net.cpp:91] Creating Layer inception_5b/pool_proj
I0403 15:13:48.803805 11733 net.cpp:425] inception_5b/pool_proj <- inception_5b/pool
I0403 15:13:48.803825 11733 net.cpp:399] inception_5b/pool_proj -> inception_5b/pool_proj
I0403 15:13:48.806197 11733 net.cpp:141] Setting up inception_5b/pool_proj
I0403 15:13:48.806229 11733 net.cpp:148] Top shape: 24 128 7 7 (150528)
I0403 15:13:48.806247 11733 net.cpp:156] Memory required for data: 1340445216
I0403 15:13:48.806267 11733 layer_factory.hpp:77] Creating layer inception_5b/relu_pool_proj
I0403 15:13:48.806287 11733 net.cpp:91] Creating Layer inception_5b/relu_pool_proj
I0403 15:13:48.806303 11733 net.cpp:425] inception_5b/relu_pool_proj <- inception_5b/pool_proj
I0403 15:13:48.806324 11733 net.cpp:386] inception_5b/relu_pool_proj -> inception_5b/pool_proj (in-place)
I0403 15:13:48.806634 11733 net.cpp:141] Setting up inception_5b/relu_pool_proj
I0403 15:13:48.806664 11733 net.cpp:148] Top shape: 24 128 7 7 (150528)
I0403 15:13:48.806680 11733 net.cpp:156] Memory required for data: 1341047328
I0403 15:13:48.806696 11733 layer_factory.hpp:77] Creating layer inception_5b/output
I0403 15:13:48.806715 11733 net.cpp:91] Creating Layer inception_5b/output
I0403 15:13:48.806746 11733 net.cpp:425] inception_5b/output <- inception_5b/1x1
I0403 15:13:48.806764 11733 net.cpp:425] inception_5b/output <- inception_5b/3x3
I0403 15:13:48.806782 11733 net.cpp:425] inception_5b/output <- inception_5b/5x5
I0403 15:13:48.806799 11733 net.cpp:425] inception_5b/output <- inception_5b/pool_proj
I0403 15:13:48.806818 11733 net.cpp:399] inception_5b/output -> inception_5b/output
I0403 15:13:48.806872 11733 net.cpp:141] Setting up inception_5b/output
I0403 15:13:48.806897 11733 net.cpp:148] Top shape: 24 1024 7 7 (1204224)
I0403 15:13:48.806912 11733 net.cpp:156] Memory required for data: 1345864224
I0403 15:13:48.806927 11733 layer_factory.hpp:77] Creating layer pool5/7x7_s1
I0403 15:13:48.806948 11733 net.cpp:91] Creating Layer pool5/7x7_s1
I0403 15:13:48.806967 11733 net.cpp:425] pool5/7x7_s1 <- inception_5b/output
I0403 15:13:48.806985 11733 net.cpp:399] pool5/7x7_s1 -> pool5/7x7_s1
I0403 15:13:48.807212 11733 net.cpp:141] Setting up pool5/7x7_s1
I0403 15:13:48.807240 11733 net.cpp:148] Top shape: 24 1024 1 1 (24576)
I0403 15:13:48.807257 11733 net.cpp:156] Memory required for data: 1345962528
I0403 15:13:48.807272 11733 layer_factory.hpp:77] Creating layer pool5/drop_7x7_s1
I0403 15:13:48.807291 11733 net.cpp:91] Creating Layer pool5/drop_7x7_s1
I0403 15:13:48.807309 11733 net.cpp:425] pool5/drop_7x7_s1 <- pool5/7x7_s1
I0403 15:13:48.807330 11733 net.cpp:386] pool5/drop_7x7_s1 -> pool5/7x7_s1 (in-place)
I0403 15:13:48.807394 11733 net.cpp:141] Setting up pool5/drop_7x7_s1
I0403 15:13:48.807418 11733 net.cpp:148] Top shape: 24 1024 1 1 (24576)
I0403 15:13:48.807440 11733 net.cpp:156] Memory required for data: 1346060832
I0403 15:13:48.807454 11733 layer_factory.hpp:77] Creating layer loss3/classifier_plantvillage
I0403 15:13:48.807477 11733 net.cpp:91] Creating Layer loss3/classifier_plantvillage
I0403 15:13:48.807494 11733 net.cpp:425] loss3/classifier_plantvillage <- pool5/7x7_s1
I0403 15:13:48.807515 11733 net.cpp:399] loss3/classifier_plantvillage -> loss3/classifier_plantvillage
I0403 15:13:48.807951 11733 net.cpp:141] Setting up loss3/classifier_plantvillage
I0403 15:13:48.807977 11733 net.cpp:148] Top shape: 24 38 (912)
I0403 15:13:48.807992 11733 net.cpp:156] Memory required for data: 1346064480
I0403 15:13:48.808010 11733 layer_factory.hpp:77] Creating layer loss3/classifier_plantvillage_loss3/classifier_plantvillage_0_split
I0403 15:13:48.808032 11733 net.cpp:91] Creating Layer loss3/classifier_plantvillage_loss3/classifier_plantvillage_0_split
I0403 15:13:48.808050 11733 net.cpp:425] loss3/classifier_plantvillage_loss3/classifier_plantvillage_0_split <- loss3/classifier_plantvillage
I0403 15:13:48.808068 11733 net.cpp:399] loss3/classifier_plantvillage_loss3/classifier_plantvillage_0_split -> loss3/classifier_plantvillage_loss3/classifier_plantvillage_0_split_0
I0403 15:13:48.808089 11733 net.cpp:399] loss3/classifier_plantvillage_loss3/classifier_plantvillage_0_split -> loss3/classifier_plantvillage_loss3/classifier_plantvillage_0_split_1
I0403 15:13:48.808110 11733 net.cpp:399] loss3/classifier_plantvillage_loss3/classifier_plantvillage_0_split -> loss3/classifier_plantvillage_loss3/classifier_plantvillage_0_split_2
I0403 15:13:48.808130 11733 net.cpp:399] loss3/classifier_plantvillage_loss3/classifier_plantvillage_0_split -> loss3/classifier_plantvillage_loss3/classifier_plantvillage_0_split_3
I0403 15:13:48.808235 11733 net.cpp:141] Setting up loss3/classifier_plantvillage_loss3/classifier_plantvillage_0_split
I0403 15:13:48.808259 11733 net.cpp:148] Top shape: 24 38 (912)
I0403 15:13:48.808275 11733 net.cpp:148] Top shape: 24 38 (912)
I0403 15:13:48.808291 11733 net.cpp:148] Top shape: 24 38 (912)
I0403 15:13:48.808306 11733 net.cpp:148] Top shape: 24 38 (912)
I0403 15:13:48.808321 11733 net.cpp:156] Memory required for data: 1346079072
I0403 15:13:48.808336 11733 layer_factory.hpp:77] Creating layer loss1/loss
I0403 15:13:48.808377 11733 net.cpp:91] Creating Layer loss1/loss
I0403 15:13:48.808398 11733 net.cpp:425] loss1/loss <- loss1/classifier_plantvillage_loss1/classifier_plantvillage_0_split_0
I0403 15:13:48.808430 11733 net.cpp:425] loss1/loss <- label_data_1_split_0
…
