…
I0403 15:42:19.303338 12241 net.cpp:313] The NetState phase (1) differed from the phase (0) specified by a rule in layer data
I0403 15:42:19.304512 12241 net.cpp:49] Initializing net from parameters: 
state {
  phase: TEST
}
layer {
  name: "data"
  type: "Data"
  top: "data"
  top: "label"
  include {
    phase: TEST
  }
  transform_param {
    mirror: false
    crop_size: 224
    mean_file: "/home/mohanty/data/final_dataset/lmdb/segmented-40-60/mean.binaryproto"
  }
  data_param {
    source: "/home/mohanty/data/final_dataset/lmdb/segmented-40-60/test_db"
    batch_size: 24
    backend: LMDB
  }
}
layer {
  name: "conv1/7x7_s2"
  type: "Convolution"
  bottom: "data"
  top: "conv1/7x7_s2"
  param {
    lr_mult: 1
    decay_mult: 1
  }
  param {
    lr_mult: 2
    decay_mult: 0
  }
  convolution_param {
    num_output: 64
    pad: 3
    kernel_size: 7
    stride: 2
    weight_filler {
      type: "xavier"
      std: 0.1
    }
    bias_filler {
      type: "constant"
      value: 0.2
    }
  }
}
layer {
  name: "conv1/relu_7x7"
  type: "ReLU"
  bottom: "conv1/7x7_s2"
  top: "conv1/7x7_s2"
}
layer {
  name: "pool1/3x3_s2"
  type: "Pooling"
  bottom: "conv1/7x7_s2"
  top: "pool1/3x3_s2"
  pooling_param {
    pool: MAX
    kernel_size: 3
    stride: 2
  }
}
layer {
  name: "pool1/norm1"
  type: "LRN"
  bottom: "pool1/3x3_s2"
  top: "pool1/norm1"
  lrn_param {
    local_size: 5
    alpha: 0.0001
    beta: 0.75
  }
}
layer {
  name: "conv2/3x3_reduce"
  type: "Convolution"
  bottom: "pool1/norm1"
  top: "conv2/3x3_reduce"
  param {
    lr_mult: 1
    decay_mult: 1
  }
  param {
    lr_mult: 2
    decay_mult: 0
  }
  convolution_param {
    num_output: 64
    kernel_size: 1
    weight_filler {
      type: "xavier"
      std: 0.1
    }
    bias_filler {
      type: "constant"
      value: 0.2
    }
  }
}
layer {
  name: "conv2/relu_3x3_reduce"
  type: "ReLU"
  bottom: "conv2/3x3_reduce"
  top: "conv2/3x3_reduce"
}
layer {
  name: "conv2/3x3"
  type: "Convolution"
  bottom: "conv2/3x3_reduce"
  top: "conv2/3x3"
  param {
    lr_mult: 1
    decay_mult: 1
  }
  param {
    lr_mult: 2
    decay_mult: 0
  }
  convolution_param {
    num_output: 192
    pad: 1
    kernel_size: 3
    weight_filler {
      type: "xavier"
      std: 0.03
    }
    bias_filler {
      type: "constant"
      value: 0.2
    }
  }
}
layer {
  name: "conv2/relu_3x3"
  type: "ReLU"
  bottom: "conv2/3x3"
  top: "conv2/3x3"
}
layer {
  name: "conv2/norm2"
  type: "LRN"
  bottom: "conv2/3x3"
  top: "conv2/norm2"
  lrn_param {
    local_size: 5
    alpha: 0.0001
    beta: 0.75
  }
}
layer {
  name: "pool2/3x3_s2"
  type: "Pooling"
  bottom: "conv2/norm2"
  top: "pool2/3x3_s2"
  pooling_param {
    pool: MAX
    kernel_size: 3
    stride: 2
  }
}
layer {
  name: "inception_3a/1x1"
  type: "Convolution"
  bottom: "pool2/3x3_s2"
  top: "inception_3a/1x1"
  param {
    lr_mult: 1
    decay_mult: 1
  }
  param {
    lr_mult: 2
    decay_mult: 0
  }
  convolution_param {
    num_output: 64
    kernel_size: 1
    weight_filler {
      type: "xavier"
      std: 0.03
    }
    bias_filler {
      type: "constant"
      value: 0.2
    }
  }
}
layer {
  name: "inception_3a/relu_1x1"
  type: "ReLU"
  bottom: "inception_3a/1x1"
  top: "inception_3a/1x1"
}
layer {
  name: "inception_3a/3x3_reduce"
  type: "Convolution"
  bottom: "pool2/3x3_s2"
  top: "inception_3a/3x3_reduce"
  param {
    lr_mult: 1
    decay_mult: 1
  }
  param {
    lr_mult: 2
    decay_mult: 0
  }
  convolution_param {
    num_output: 96
    kernel_size: 1
    weight_filler {
      type: "xavier"
      std: 0.09
    }
    bias_filler {
      type: "constant"
      value: 0.2
    }
  }
}
layer {
  name: "inception_3a/relu_3x3_reduce"
  type: "ReLU"
  bottom: "inception_3a/3x3_reduce"
  top: "inception_3a/3x3_reduce"
}
layer {
  name: "inception_3a/3x3"
  type: "Convolution"
  bottom: "inception_3a/3x3_reduce"
  top: "inception_3a/3x3"
  param {
    lr_mult: 1
    decay_mult: 1
  }
  param {
    lr_mult: 2
    decay_mult: 0
  }
  convolution_param {
    num_output: 128
    pad: 1
    kernel_size: 3
    weight_filler {
      type: "xavier"
      std: 0.03
    }
    bias_filler {
      type: "constant"
      value: 0.2
    }
  }
}
layer {
  name: "inception_3a/relu_3x3"
  type: "ReLU"
  bottom: "inception_3a/3x3"
  top: "inception_3a/3x3"
}
layer {
  name: "inception_3a/5x5_reduce"
  type: "Convolution"
  bottom: "pool2/3x3_s2"
  top: "inception_3a/5x5_reduce"
  param {
    lr_mult: 1
    decay_mult: 1
  }
  param {
    lr_mult: 2
    decay_mult: 0
  }
  convolution_param {
    num_output: 16
    kernel_size: 1
    weight_filler {
      type: "xavier"
      std: 0.2
    }
    bias_filler {
      type: "constant"
      value: 0.2
    }
  }
}
layer {
  name: "inception_3a/relu_5x5_reduce"
  type: "ReLU"
  bottom: "inception_3a/5x5_reduce"
  top: "inception_3a/5x5_reduce"
}
layer {
  name: "inception_3a/5x5"
  type: "Convolution"
  bottom: "inception_3a/5x5_reduce"
  top: "inception_3a/5x5"
  param {
    lr_mult: 1
    decay_mult: 1
  }
  param {
    lr_mult: 2
    decay_mult: 0
  }
  convolution_param {
    num_output: 32
    pad: 2
    kernel_size: 5
    weight_filler {
      type: "xavier"
      std: 0.03
    }
    bias_filler {
      type: "constant"
      value: 0.2
    }
  }
}
layer {
  name: "inception_3a/relu_5x5"
  type: "ReLU"
  bottom: "inception_3a/5x5"
  top: "inception_3a/5x5"
}
layer {
  name: "inception_3a/pool"
  type: "Pooling"
  bottom: "pool2/3x3_s2"
  top: "inception_3a/pool"
  pooling_param {
    pool: MAX
    kernel_size: 3
    stride: 1
    pad: 1
  }
}
layer {
  name: "inception_3a/pool_proj"
  type: "Convolution"
  bottom: "inception_3a/pool"
  top: "inception_3a/pool_proj"
  param {
    lr_mult: 1
    decay_mult: 1
  }
  param {
    lr_mult: 2
    decay_mult: 0
  }
  convolution_param {
    num_output: 32
    kernel_size: 1
    weight_filler {
      type: "xavier"
      std: 0.1
    }
    bias_filler {
      type: "constant"
      value: 0.2
    }
  }
}
layer {
  name: "inception_3a/relu_pool_proj"
  type: "ReLU"
  bottom: "inception_3a/pool_proj"
  top: "inception_3a/pool_proj"
}
layer {
  name: "inception_3a/output"
  type: "Concat"
  bottom: "inception_3a/1x1"
  bottom: "inception_3a/3x3"
  bottom: "inception_3a/5x5"
  bottom: "inception_3a/pool_proj"
  top: "inception_3a/output"
}
layer {
  name: "inception_3b/1x1"
  type: "Convolution"
  bottom: "inception_3a/output"
  top: "inception_3b/1x1"
  param {
    lr_mult: 1
    decay_mult: 1
  }
  param {
    lr_mult: 2
    decay_mult: 0
  }
  convolution_param {
    num_output: 128
    kernel_size: 1
    weight_filler {
      type: "xavier"
      std: 0.03
    }
    bias_filler {
      type: "constant"
      value: 0.2
    }
  }
}
layer {
  name: "inception_3b/relu_1x1"
  type: "ReLU"
  bottom: "inception_3b/1x1"
  top: "inception_3b/1x1"
}
layer {
  name: "inception_3b/3x3_reduce"
  type: "Convolution"
  bottom: "inception_3a/output"
  top: "inception_3b/3x3_reduce"
  param {
    lr_mult: 1
    decay_mult: 1
  }
  param {
    lr_mult: 2
    decay_mult: 0
  }
  convolution_param {
    num_output: 128
    kernel_size: 1
    weight_filler {
      type: "xavier"
      std: 0.09
    }
    bias_filler {
      type: "constant"
      value: 0.2
    }
  }
}
layer {
  name: "inception_3b/relu_3x3_reduce"
  type: "ReLU"
  bottom: "inception_3b/3x3_reduce"
  top: "inception_3b/3x3_reduce"
}
layer {
  name: "inception_3b/3x3"
  type: "Convolution"
  bottom: "inception_3b/3x3_reduce"
  top: "inception_3b/3x3"
  param {
    lr_mult: 1
    decay_mult: 1
  }
  param {
    lr_mult: 2
    decay_mult: 0
  }
  convolution_param {
    num_output: 192
    pad: 1
    kernel_size: 3
    weight_filler {
      type: "xavier"
      std: 0.03
    }
    bias_filler {
      type: "constant"
      value: 0.2
    }
  }
}
layer {
  name: "inception_3b/relu_3x3"
  type: "ReLU"
  bottom: "inception_3b/3x3"
  top: "inception_3b/3x3"
}
layer {
  name: "inception_3b/5x5_reduce"
  type: "Convolution"
  bottom: "inception_3a/output"
  top: "inception_3b/5x5_reduce"
  param {
    lr_mult: 1
    decay_mult: 1
  }
  param {
    lr_mult: 2
    decay_mult: 0
  }
  convolution_param {
    num_output: 32
    kernel_size: 1
    weight_filler {
      type: "xavier"
      std: 0.2
    }
    bias_filler {
      type: "constant"
      value: 0.2
    }
  }
}
layer {
  name: "inception_3b/relu_5x5_reduce"
  type: "ReLU"
  bottom: "inception_3b/5x5_reduce"
  top: "inception_3b/5x5_reduce"
}
layer {
  name: "inception_3b/5x5"
  type: "Convolution"
  bottom: "inception_3b/5x5_reduce"
  top: "inception_3b/5x5"
  param {
    lr_mult: 1
    decay_mult: 1
  }
  param {
    lr_mult: 2
    decay_mult: 0
  }
  convolution_param {
    num_output: 96
    pad: 2
    kernel_size: 5
    weight_filler {
      type: "xavier"
      std: 0.03
    }
    bias_filler {
      type: "constant"
      value: 0.2
    }
  }
}
layer {
  name: "inception_3b/relu_5x5"
  type: "ReLU"
  bottom: "inception_3b/5x5"
  top: "inception_3b/5x5"
}
layer {
  name: "inception_3b/pool"
  type: "Pooling"
  bottom: "inception_3a/output"
  top: "inception_3b/pool"
  pooling_param {
    pool: MAX
    kernel_size: 3
    stride: 1
    pad: 1
  }
}
layer {
  name: "inception_3b/pool_proj"
  type: "Convolution"
  bottom: "inception_3b/pool"
  top: "inception_3b/pool_proj"
  param {
    lr_mult: 1
    decay_mult: 1
  }
  param {
    lr_mult: 2
    decay_mult: 0
  }
  convolution_param {
    num_output: 64
    kernel_size: 1
    weight_filler {
      type: "xavier"
      std: 0.1
    }
    bias_filler {
      type: "constant"
      value: 0.2
    }
  }
}
layer {
  name: "inception_3b/relu_pool_proj"
  type: "ReLU"
  bottom: "inception_3b/pool_proj"
  top: "inception_3b/pool_proj"
}
layer {
  name: "inception_3b/output"
  type: "Concat"
  bottom: "inception_3b/1x1"
  bottom: "inception_3b/3x3"
  bottom: "inception_3b/5x5"
  bottom: "inception_3b/pool_proj"
  top: "inception_3b/output"
}
layer {
  name: "pool3/3x3_s2"
  type: "Pooling"
  bottom: "inception_3b/output"
  top: "pool3/3x3_s2"
  pooling_param {
    pool: MAX
    kernel_size: 3
    stride: 2
  }
}
layer {
  name: "inception_4a/1x1"
  type: "Convolution"
  bottom: "pool3/3x3_s2"
  top: "inception_4a/1x1"
  param {
    lr_mult: 1
    decay_mult: 1
  }
  param {
    lr_mult: 2
    decay_mult: 0
  }
  convolution_param {
    num_output: 192
    kernel_size: 1
    weight_filler {
      type: "xavier"
      std: 0.03
    }
    bias_filler {
      type: "constant"
      value: 0.2
    }
  }
}
layer {
  name: "inception_4a/relu_1x1"
  type: "ReLU"
  bottom: "inception_4a/1x1"
  top: "inception_4a/1x1"
}
layer {
  name: "inception_4a/3x3_reduce"
  type: "Convolution"
  bottom: "pool3/3x3_s2"
  top: "inception_4a/3x3_reduce"
  param {
    lr_mult: 1
    decay_mult: 1
  }
  param {
    lr_mult: 2
    decay_mult: 0
  }
  convolution_param {
    num_output: 96
    kernel_size: 1
    weight_filler {
      type: "xavier"
      std: 0.09
    }
    bias_filler {
      type: "constant"
      value: 0.2
    }
  }
}
layer {
  name: "inception_4a/relu_3x3_reduce"
  type: "ReLU"
  bottom: "inception_4a/3x3_reduce"
  top: "inception_4a/3x3_reduce"
}
layer {
  name: "inception_4a/3x3"
  type: "Convolution"
  bottom: "inception_4a/3x3_reduce"
  top: "inception_4a/3x3"
  param {
    lr_mult: 1
    decay_mult: 1
  }
  param {
    lr_mult: 2
    decay_mult: 0
  }
  convolution_param {
    num_output: 208
    pad: 1
    kernel_size: 3
    weight_filler {
      type: "xavier"
      std: 0.03
    }
    bias_filler {
      type: "constant"
      value: 0.2
    }
  }
}
layer {
  name: "inception_4a/relu_3x3"
  type: "ReLU"
  bottom: "inception_4a/3x3"
  top: "inception_4a/3x3"
}
layer {
  name: "inception_4a/5x5_reduce"
  type: "Convolution"
  bottom: "pool3/3x3_s2"
  top: "inception_4a/5x5_reduce"
  param {
    lr_mult: 1
    decay_mult: 1
  }
  param {
    lr_mult: 2
    decay_mult: 0
  }
  convolution_param {
    num_output: 16
    kernel_size: 1
    weight_filler {
      type: "xavier"
      std: 0.2
    }
    bias_filler {
      type: "constant"
      value: 0.2
    }
  }
}
layer {
  name: "inception_4a/relu_5x5_reduce"
  type: "ReLU"
  bottom: "inception_4a/5x5_reduce"
  top: "inception_4a/5x5_reduce"
}
layer {
  name: "inception_4a/5x5"
  type: "Convolution"
  bottom: "inception_4a/5x5_reduce"
  top: "inception_4a/5x5"
  param {
    lr_mult: 1
    decay_mult: 1
  }
  param {
    lr_mult: 2
    decay_mult: 0
  }
  convolution_param {
    num_output: 48
    pad: 2
    kernel_size: 5
    weight_filler {
      type: "xavier"
      std: 0.03
    }
    bias_filler {
      type: "constant"
      value: 0.2
    }
  }
}
layer {
  name: "inception_4a/relu_5x5"
  type: "ReLU"
  bottom: "inception_4a/5x5"
  top: "inception_4a/5x5"
}
layer {
  name: "inception_4a/pool"
  type: "Pooling"
  bottom: "pool3/3x3_s2"
  top: "inception_4a/pool"
  pooling_param {
    pool: MAX
    kernel_size: 3
    stride: 1
    pad: 1
  }
}
layer {
  name: "inception_4a/pool_proj"
  type: "Convolution"
  bottom: "inception_4a/pool"
  top: "inception_4a/pool_proj"
  param {
    lr_mult: 1
    decay_mult: 1
  }
  param {
    lr_mult: 2
    decay_mult: 0
  }
  convolution_param {
    num_output: 64
    kernel_size: 1
    weight_filler {
      type: "xavier"
      std: 0.1
    }
    bias_filler {
      type: "constant"
      value: 0.2
    }
  }
}
layer {
  name: "inception_4a/relu_pool_proj"
  type: "ReLU"
  bottom: "inception_4a/pool_proj"
  top: "inception_4a/pool_proj"
}
layer {
  name: "inception_4a/output"
  type: "Concat"
  bottom: "inception_4a/1x1"
  bottom: "inception_4a/3x3"
  bottom: "inception_4a/5x5"
  bottom: "inception_4a/pool_proj"
  top: "inception_4a/output"
}
layer {
  name: "loss1/ave_pool"
  type: "Pooling"
  bottom: "inception_4a/output"
  top: "loss1/ave_pool"
  pooling_param {
    pool: AVE
    kernel_size: 5
    stride: 3
  }
}
layer {
  name: "loss1/conv"
  type: "Convolution"
  bottom: "loss1/ave_pool"
  top: "loss1/conv"
  param {
    lr_mult: 1
    decay_mult: 1
  }
  param {
    lr_mult: 2
    decay_mult: 0
  }
  convolution_param {
    num_output: 128
    kernel_size: 1
    weight_filler {
      type: "xavier"
      std: 0.08
    }
    bias_filler {
      type: "constant"
      value: 0.2
    }
  }
}
layer {
  name: "loss1/relu_conv"
  type: "ReLU"
  bottom: "loss1/conv"
  top: "loss1/conv"
}
layer {
  name: "loss1/fc"
  type: "InnerProduct"
  bottom: "loss1/conv"
  top: "loss1/fc"
  param {
    lr_mult: 1
    decay_mult: 1
  }
  param {
    lr_mult: 2
    decay_mult: 0
  }
  inner_product_param {
    num_output: 1024
    weight_filler {
      type: "xavier"
      std: 0.02
    }
    bias_filler {
      type: "constant"
      value: 0.2
    }
  }
}
layer {
  name: "loss1/relu_fc"
  type: "ReLU"
  bottom: "loss1/fc"
  top: "loss1/fc"
}
layer {
  name: "loss1/drop_fc"
  type: "Dropout"
  bottom: "loss1/fc"
  top: "loss1/fc"
  dropout_param {
    dropout_ratio: 0.7
  }
}
layer {
  name: "loss1/classifier_plantvillage"
  type: "InnerProduct"
  bottom: "loss1/fc"
  top: "loss1/classifier_plantvillage"
  param {
    lr_mult: 1
    decay_mult: 1
  }
  param {
    lr_mult: 2
    decay_mult: 0
  }
  inner_product_param {
    num_output: 38
    weight_filler {
      type: "xavier"
      std: 0.0009765625
    }
    bias_filler {
      type: "constant"
      value: 0
    }
  }
}
layer {
  name: "inception_4b/1x1"
  type: "Convolution"
  bottom: "inception_4a/output"
  top: "inception_4b/1x1"
  param {
    lr_mult: 1
    decay_mult: 1
  }
  param {
    lr_mult: 2
    decay_mult: 0
  }
  convolution_param {
    num_output: 160
    kernel_size: 1
    weight_filler {
      type: "xavier"
      std: 0.03
    }
    bias_filler {
      type: "constant"
      value: 0.2
    }
  }
}
layer {
  name: "inception_4b/relu_1x1"
  type: "ReLU"
  bottom: "inception_4b/1x1"
  top: "inception_4b/1x1"
}
layer {
  name: "inception_4b/3x3_reduce"
  type: "Convolution"
  bottom: "inception_4a/output"
  top: "inception_4b/3x3_reduce"
  param {
    lr_mult: 1
    decay_mult: 1
  }
  param {
    lr_mult: 2
    decay_mult: 0
  }
  convolution_param {
    num_output: 112
    kernel_size: 1
    weight_filler {
      type: "xavier"
      std: 0.09
    }
    bias_filler {
      type: "constant"
      value: 0.2
    }
  }
}
layer {
  name: "inception_4b/relu_3x3_reduce"
  type: "ReLU"
  bottom: "inception_4b/3x3_reduce"
  top: "inception_4b/3x3_reduce"
}
layer {
  name: "inception_4b/3x3"
  type: "Convolution"
  bottom: "inception_4b/3x3_reduce"
  top: "inception_4b/3x3"
  param {
    lr_mult: 1
    decay_mult: 1
  }
  param {
    lr_mult: 2
    decay_mult: 0
  }
  convolution_param {
    num_output: 224
    pad: 1
    kernel_size: 3
    weight_filler {
      type: "xavier"
      std: 0.03
    }
    bias_filler {
      type: "constant"
      value: 0.2
    }
  }
}
layer {
  name: "inception_4b/relu_3x3"
  type: "ReLU"
  bottom: "inception_4b/3x3"
  top: "inception_4b/3x3"
}
layer {
  name: "inception_4b/5x5_reduce"
  type: "Convolution"
  bottom: "inception_4a/output"
  top: "inception_4b/5x5_reduce"
  param {
    lr_mult: 1
    decay_mult: 1
  }
  param {
    lr_mult: 2
    decay_mult: 0
  }
  convolution_param {
    num_output: 24
    kernel_size: 1
    weight_filler {
      type: "xavier"
      std: 0.2
    }
    bias_filler {
      type: "constant"
      value: 0.2
    }
  }
}
layer {
  name: "inception_4b/relu_5x5_reduce"
  type: "ReLU"
  bottom: "inception_4b/5x5_reduce"
  top: "inception_4b/5x5_reduce"
}
layer {
  name: "inception_4b/5x5"
  type: "Convolution"
  bottom: "inception_4b/5x5_reduce"
  top: "inception_4b/5x5"
  param {
    lr_mult: 1
    decay_mult: 1
  }
  param {
    lr_mult: 2
    decay_mult: 0
  }
  convolution_param {
    num_output: 64
    pad: 2
    kernel_size: 5
    weight_filler {
      type: "xavier"
      std: 0.03
    }
    bias_filler {
      type: "constant"
      value: 0.2
    }
  }
}
layer {
  name: "inception_4b/relu_5x5"
  type: "ReLU"
  bottom: "inception_4b/5x5"
  top: "inception_4b/5x5"
}
layer {
  name: "inception_4b/pool"
  type: "Pooling"
  bottom: "inception_4a/output"
  top: "inception_4b/pool"
  pooling_param {
    pool: MAX
    kernel_size: 3
    stride: 1
    pad: 1
  }
}
layer {
  name: "inception_4b/pool_proj"
  type: "Convolution"
  bottom: "inception_4b/pool"
  top: "inception_4b/pool_proj"
  param {
    lr_mult: 1
    decay_mult: 1
  }
  param {
    lr_mult: 2
    decay_mult: 0
  }
  convolution_param {
    num_output: 64
    kernel_size: 1
    weight_filler {
      type: "xavier"
      std: 0.1
    }
    bias_filler {
      type: "constant"
      value: 0.2
    }
  }
}
layer {
  name: "inception_4b/relu_pool_proj"
  type: "ReLU"
  bottom: "inception_4b/pool_proj"
  top: "inception_4b/pool_proj"
}
layer {
  name: "inception_4b/output"
  type: "Concat"
  bottom: "inception_4b/1x1"
  bottom: "inception_4b/3x3"
  bottom: "inception_4b/5x5"
  bottom: "inception_4b/pool_proj"
  top: "inception_4b/output"
}
layer {
  name: "inception_4c/1x1"
  type: "Convolution"
  bottom: "inception_4b/output"
  top: "inception_4c/1x1"
  param {
    lr_mult: 1
    decay_mult: 1
  }
  param {
    lr_mult: 2
    decay_mult: 0
  }
  convolution_param {
    num_output: 128
    kernel_size: 1
    weight_filler {
      type: "xavier"
      std: 0.03
    }
    bias_filler {
      type: "constant"
      value: 0.2
    }
  }
}
layer {
  name: "inception_4c/relu_1x1"
  type: "ReLU"
  bottom: "inception_4c/1x1"
  top: "inception_4c/1x1"
}
layer {
  name: "inception_4c/3x3_reduce"
  type: "Convolution"
  bottom: "inception_4b/output"
  top: "inception_4c/3x3_reduce"
  param {
    lr_mult: 1
    decay_mult: 1
  }
  param {
    lr_mult: 2
    decay_mult: 0
  }
  convolution_param {
    num_output: 128
    kernel_size: 1
    weight_filler {
      type: "xavier"
      std: 0.09
    }
    bias_filler {
      type: "constant"
      value: 0.2
    }
  }
}
layer {
  name: "inception_4c/relu_3x3_reduce"
  type: "ReLU"
  bottom: "inception_4c/3x3_reduce"
  top: "inception_4c/3x3_reduce"
}
layer {
  name: "inception_4c/3x3"
  type: "Convolution"
  bottom: "inception_4c/3x3_reduce"
  top: "inception_4c/3x3"
  param {
    lr_mult: 1
    decay_mult: 1
  }
  param {
    lr_mult: 2
    decay_mult: 0
  }
  convolution_param {
    num_output: 256
    pad: 1
    kernel_size: 3
    weight_filler {
      type: "xavier"
      std: 0.03
    }
    bias_filler {
      type: "constant"
      value: 0.2
    }
  }
}
layer {
  name: "inception_4c/relu_3x3"
  type: "ReLU"
  bottom: "inception_4c/3x3"
  top: "inception_4c/3x3"
}
layer {
  name: "inception_4c/5x5_reduce"
  type: "Convolution"
  bottom: "inception_4b/output"
  top: "inception_4c/5x5_reduce"
  param {
    lr_mult: 1
    decay_mult: 1
  }
  param {
    lr_mult: 2
    decay_mult: 0
  }
  convolution_param {
    num_output: 24
    kernel_size: 1
    weight_filler {
      type: "xavier"
      std: 0.2
    }
    bias_filler {
      type: "constant"
      value: 0.2
    }
  }
}
layer {
  name: "inception_4c/relu_5x5_reduce"
  type: "ReLU"
  bottom: "inception_4c/5x5_reduce"
  top: "inception_4c/5x5_reduce"
}
layer {
  name: "inception_4c/5x5"
  type: "Convolution"
  bottom: "inception_4c/5x5_reduce"
  top: "inception_4c/5x5"
  param {
    lr_mult: 1
    decay_mult: 1
  }
  param {
    lr_mult: 2
    decay_mult: 0
  }
  convolution_param {
    num_output: 64
    pad: 2
    kernel_size: 5
    weight_filler {
      type: "xavier"
      std: 0.03
    }
    bias_filler {
      type: "constant"
      value: 0.2
    }
  }
}
layer {
  name: "inception_4c/relu_5x5"
  type: "ReLU"
  bottom: "inception_4c/5x5"
  top: "inception_4c/5x5"
}
layer {
  name: "inception_4c/pool"
  type: "Pooling"
  bottom: "inception_4b/output"
  top: "inception_4c/pool"
  pooling_param {
    pool: MAX
    kernel_size: 3
    stride: 1
    pad: 1
  }
}
layer {
  name: "inception_4c/pool_proj"
  type: "Convolution"
  bottom: "inception_4c/pool"
  top: "inception_4c/pool_proj"
  param {
    lr_mult: 1
    decay_mult: 1
  }
  param {
    lr_mult: 2
    decay_mult: 0
  }
  convolution_param {
    num_output: 64
    kernel_size: 1
    weight_filler {
      type: "xavier"
      std: 0.1
    }
    bias_filler {
      type: "constant"
      value: 0.2
    }
  }
}
layer {
  name: "inception_4c/relu_pool_proj"
  type: "ReLU"
  bottom: "inception_4c/pool_proj"
  top: "inception_4c/pool_proj"
}
layer {
  name: "inception_4c/output"
  type: "Concat"
  bottom: "inception_4c/1x1"
  bottom: "inception_4c/3x3"
  bottom: "inception_4c/5x5"
  bottom: "inception_4c/pool_proj"
  top: "inception_4c/output"
}
layer {
  name: "inception_4d/1x1"
  type: "Convolution"
  bottom: "inception_4c/output"
  top: "inception_4d/1x1"
  param {
    lr_mult: 1
    decay_mult: 1
  }
  param {
    lr_mult: 2
    decay_mult: 0
  }
  convolution_param {
    num_output: 112
    kernel_size: 1
    weight_filler {
      type: "xavier"
      std: 0.03
    }
    bias_filler {
      type: "constant"
      value: 0.2
    }
  }
}
layer {
  name: "inception_4d/relu_1x1"
  type: "ReLU"
  bottom: "inception_4d/1x1"
  top: "inception_4d/1x1"
}
layer {
  name: "inception_4d/3x3_reduce"
  type: "Convolution"
  bottom: "inception_4c/output"
  top: "inception_4d/3x3_reduce"
  param {
    lr_mult: 1
    decay_mult: 1
  }
  param {
    lr_mult: 2
    decay_mult: 0
  }
  convolution_param {
    num_output: 144
    kernel_size: 1
    weight_filler {
      type: "xavier"
      std: 0.09
    }
    bias_filler {
      type: "constant"
      value: 0.2
    }
  }
}
layer {
  name: "inception_4d/relu_3x3_reduce"
  type: "ReLU"
  bottom: "inception_4d/3x3_reduce"
  top: "inception_4d/3x3_reduce"
}
layer {
  name: "inception_4d/3x3"
  type: "Convolution"
  bottom: "inception_4d/3x3_reduce"
  top: "inception_4d/3x3"
  param {
    lr_mult: 1
    decay_mult: 1
  }
  param {
    lr_mult: 2
    decay_mult: 0
  }
  convolution_param {
    num_output: 288
    pad: 1
    kernel_size: 3
    weight_filler {
      type: "xavier"
      std: 0.03
    }
    bias_filler {
      type: "constant"
      value: 0.2
    }
  }
}
layer {
  name: "inception_4d/relu_3x3"
  type: "ReLU"
  bottom: "inception_4d/3x3"
  top: "inception_4d/3x3"
}
layer {
  name: "inception_4d/5x5_reduce"
  type: "Convolution"
  bottom: "inception_4c/output"
  top: "inception_4d/5x5_reduce"
  param {
    lr_mult: 1
    decay_mult: 1
  }
  param {
    lr_mult: 2
    decay_mult: 0
  }
  convolution_param {
    num_output: 32
    kernel_size: 1
    weight_filler {
      type: "xavier"
      std: 0.2
    }
    bias_filler {
      type: "constant"
      value: 0.2
    }
  }
}
layer {
  name: "inception_4d/relu_5x5_reduce"
  type: "ReLU"
  bottom: "inception_4d/5x5_reduce"
  top: "inception_4d/5x5_reduce"
}
layer {
  name: "inception_4d/5x5"
  type: "Convolution"
  bottom: "inception_4d/5x5_reduce"
  top: "inception_4d/5x5"
  param {
    lr_mult: 1
    decay_mult: 1
  }
  param {
    lr_mult: 2
    decay_mult: 0
  }
  convolution_param {
    num_output: 64
    pad: 2
    kernel_size: 5
    weight_filler {
      type: "xavier"
      std: 0.03
    }
    bias_filler {
      type: "constant"
      value: 0.2
    }
  }
}
layer {
  name: "inception_4d/relu_5x5"
  type: "ReLU"
  bottom: "inception_4d/5x5"
  top: "inception_4d/5x5"
}
layer {
  name: "inception_4d/pool"
  type: "Pooling"
  bottom: "inception_4c/output"
  top: "inception_4d/pool"
  pooling_param {
    pool: MAX
    kernel_size: 3
    stride: 1
    pad: 1
  }
}
layer {
  name: "inception_4d/pool_proj"
  type: "Convolution"
  bottom: "inception_4d/pool"
  top: "inception_4d/pool_proj"
  param {
    lr_mult: 1
    decay_mult: 1
  }
  param {
    lr_mult: 2
    decay_mult: 0
  }
  convolution_param {
    num_output: 64
    kernel_size: 1
    weight_filler {
      type: "xavier"
      std: 0.1
    }
    bias_filler {
      type: "constant"
      value: 0.2
    }
  }
}
layer {
  name: "inception_4d/relu_pool_proj"
  type: "ReLU"
  bottom: "inception_4d/pool_proj"
  top: "inception_4d/pool_proj"
}
layer {
  name: "inception_4d/output"
  type: "Concat"
  bottom: "inception_4d/1x1"
  bottom: "inception_4d/3x3"
  bottom: "inception_4d/5x5"
  bottom: "inception_4d/pool_proj"
  top: "inception_4d/output"
}
layer {
  name: "loss2/ave_pool"
  type: "Pooling"
  bottom: "inception_4d/output"
  top: "loss2/ave_pool"
  pooling_param {
    pool: AVE
    kernel_size: 5
    stride: 3
  }
}
layer {
  name: "loss2/conv"
  type: "Convolution"
  bottom: "loss2/ave_pool"
  top: "loss2/conv"
  param {
    lr_mult: 1
    decay_mult: 1
  }
  param {
    lr_mult: 2
    decay_mult: 0
  }
  convolution_param {
    num_output: 128
    kernel_size: 1
    weight_filler {
      type: "xavier"
      std: 0.08
    }
    bias_filler {
      type: "constant"
      value: 0.2
    }
  }
}
layer {
  name: "loss2/relu_conv"
  type: "ReLU"
  bottom: "loss2/conv"
  top: "loss2/conv"
}
layer {
  name: "loss2/fc"
  type: "InnerProduct"
  bottom: "loss2/conv"
  top: "loss2/fc"
  param {
    lr_mult: 1
    decay_mult: 1
  }
  param {
    lr_mult: 2
    decay_mult: 0
  }
  inner_product_param {
    num_output: 1024
    weight_filler {
      type: "xavier"
      std: 0.02
    }
    bias_filler {
      type: "constant"
      value: 0.2
    }
  }
}
layer {
  name: "loss2/relu_fc"
  type: "ReLU"
  bottom: "loss2/fc"
  top: "loss2/fc"
}
layer {
  name: "loss2/drop_fc"
  type: "Dropout"
  bottom: "loss2/fc"
  top: "loss2/fc"
  dropout_param {
    dropout_ratio: 0.7
  }
}
layer {
  name: "loss2/classifier_plantvillage"
  type: "InnerProduct"
  bottom: "loss2/fc"
  top: "loss2/classifier_plantvillage"
  param {
    lr_mult: 1
    decay_mult: 1
  }
  param {
    lr_mult: 2
    decay_mult: 0
  }
  inner_product_param {
    num_output: 38
    weight_filler {
      type: "xavier"
      std: 0.0009765625
    }
    bias_filler {
      type: "constant"
      value: 0
    }
  }
}
layer {
  name: "inception_4e/1x1"
  type: "Convolution"
  bottom: "inception_4d/output"
  top: "inception_4e/1x1"
  param {
    lr_mult: 1
    decay_mult: 1
  }
  param {
    lr_mult: 2
    decay_mult: 0
  }
  convolution_param {
    num_output: 256
    kernel_size: 1
    weight_filler {
      type: "xavier"
      std: 0.03
    }
    bias_filler {
      type: "constant"
      value: 0.2
    }
  }
}
layer {
  name: "inception_4e/relu_1x1"
  type: "ReLU"
  bottom: "inception_4e/1x1"
  top: "inception_4e/1x1"
}
layer {
  name: "inception_4e/3x3_reduce"
  type: "Convolution"
  bottom: "inception_4d/output"
  top: "inception_4e/3x3_reduce"
  param {
    lr_mult: 1
    decay_mult: 1
  }
  param {
    lr_mult: 2
    decay_mult: 0
  }
  convolution_param {
    num_output: 160
    kernel_size: 1
    weight_filler {
      type: "xavier"
      std: 0.09
    }
    bias_filler {
      type: "constant"
      value: 0.2
    }
  }
}
layer {
  name: "inception_4e/relu_3x3_reduce"
  type: "ReLU"
  bottom: "inception_4e/3x3_reduce"
  top: "inception_4e/3x3_reduce"
}
layer {
  name: "inception_4e/3x3"
  type: "Convolution"
  bottom: "inception_4e/3x3_reduce"
  top: "inception_4e/3x3"
  param {
    lr_mult: 1
    decay_mult: 1
  }
  param {
    lr_mult: 2
    decay_mult: 0
  }
  convolution_param {
    num_output: 320
    pad: 1
    kernel_size: 3
    weight_filler {
      type: "xavier"
      std: 0.03
    }
    bias_filler {
      type: "constant"
      value: 0.2
    }
  }
}
layer {
  name: "inception_4e/relu_3x3"
  type: "ReLU"
  bottom: "inception_4e/3x3"
  top: "inception_4e/3x3"
}
layer {
  name: "inception_4e/5x5_reduce"
  type: "Convolution"
  bottom: "inception_4d/output"
  top: "inception_4e/5x5_reduce"
  param {
    lr_mult: 1
    decay_mult: 1
  }
  param {
    lr_mult: 2
    decay_mult: 0
  }
  convolution_param {
    num_output: 32
    kernel_size: 1
    weight_filler {
      type: "xavier"
      std: 0.2
    }
    bias_filler {
      type: "constant"
      value: 0.2
    }
  }
}
layer {
  name: "inception_4e/relu_5x5_reduce"
  type: "ReLU"
  bottom: "inception_4e/5x5_reduce"
  top: "inception_4e/5x5_reduce"
}
layer {
  name: "inception_4e/5x5"
  type: "Convolution"
  bottom: "inception_4e/5x5_reduce"
  top: "inception_4e/
I0403 15:42:19.305757 12241 layer_factory.hpp:77] Creating layer data
I0403 15:42:19.306360 12241 net.cpp:91] Creating Layer data
I0403 15:42:19.306391 12241 net.cpp:399] data -> data
I0403 15:42:19.306440 12241 net.cpp:399] data -> label
I0403 15:42:19.306478 12241 data_transformer.cpp:25] Loading mean file from: /home/mohanty/data/final_dataset/lmdb/segmented-40-60/mean.binaryproto
I0403 15:42:19.309299 12245 db_lmdb.cpp:38] Opened lmdb /home/mohanty/data/final_dataset/lmdb/segmented-40-60/test_db
I0403 15:42:19.319603 12241 data_layer.cpp:41] output data size: 24,3,224,224
I0403 15:42:19.346220 12241 net.cpp:141] Setting up data
I0403 15:42:19.346303 12241 net.cpp:148] Top shape: 24 3 224 224 (3612672)
I0403 15:42:19.346333 12241 net.cpp:148] Top shape: 24 (24)
I0403 15:42:19.346351 12241 net.cpp:156] Memory required for data: 14450784
I0403 15:42:19.346379 12241 layer_factory.hpp:77] Creating layer label_data_1_split
I0403 15:42:19.346405 12241 net.cpp:91] Creating Layer label_data_1_split
I0403 15:42:19.346423 12241 net.cpp:425] label_data_1_split <- label
I0403 15:42:19.346454 12241 net.cpp:399] label_data_1_split -> label_data_1_split_0
I0403 15:42:19.346482 12241 net.cpp:399] label_data_1_split -> label_data_1_split_1
I0403 15:42:19.346503 12241 net.cpp:399] label_data_1_split -> label_data_1_split_2
I0403 15:42:19.346524 12241 net.cpp:399] label_data_1_split -> label_data_1_split_3
I0403 15:42:19.346544 12241 net.cpp:399] label_data_1_split -> label_data_1_split_4
I0403 15:42:19.346563 12241 net.cpp:399] label_data_1_split -> label_data_1_split_5
I0403 15:42:19.346582 12241 net.cpp:399] label_data_1_split -> label_data_1_split_6
I0403 15:42:19.346604 12241 net.cpp:399] label_data_1_split -> label_data_1_split_7
I0403 15:42:19.346623 12241 net.cpp:399] label_data_1_split -> label_data_1_split_8
I0403 15:42:19.346643 12241 net.cpp:399] label_data_1_split -> label_data_1_split_9
I0403 15:42:19.346758 12241 net.cpp:141] Setting up label_data_1_split
I0403 15:42:19.346782 12241 net.cpp:148] Top shape: 24 (24)
I0403 15:42:19.346799 12241 net.cpp:148] Top shape: 24 (24)
I0403 15:42:19.346817 12241 net.cpp:148] Top shape: 24 (24)
I0403 15:42:19.346832 12241 net.cpp:148] Top shape: 24 (24)
I0403 15:42:19.346848 12241 net.cpp:148] Top shape: 24 (24)
I0403 15:42:19.346863 12241 net.cpp:148] Top shape: 24 (24)
I0403 15:42:19.346879 12241 net.cpp:148] Top shape: 24 (24)
I0403 15:42:19.346894 12241 net.cpp:148] Top shape: 24 (24)
I0403 15:42:19.346909 12241 net.cpp:148] Top shape: 24 (24)
I0403 15:42:19.346926 12241 net.cpp:148] Top shape: 24 (24)
I0403 15:42:19.346971 12241 net.cpp:156] Memory required for data: 14451744
I0403 15:42:19.346987 12241 layer_factory.hpp:77] Creating layer conv1/7x7_s2
I0403 15:42:19.347018 12241 net.cpp:91] Creating Layer conv1/7x7_s2
I0403 15:42:19.347038 12241 net.cpp:425] conv1/7x7_s2 <- data
I0403 15:42:19.347057 12241 net.cpp:399] conv1/7x7_s2 -> conv1/7x7_s2
I0403 15:42:19.484501 12241 net.cpp:141] Setting up conv1/7x7_s2
I0403 15:42:19.484588 12241 net.cpp:148] Top shape: 24 64 112 112 (19267584)
I0403 15:42:19.484606 12241 net.cpp:156] Memory required for data: 91522080
I0403 15:42:19.484635 12241 layer_factory.hpp:77] Creating layer conv1/relu_7x7
I0403 15:42:19.484663 12241 net.cpp:91] Creating Layer conv1/relu_7x7
I0403 15:42:19.484680 12241 net.cpp:425] conv1/relu_7x7 <- conv1/7x7_s2
I0403 15:42:19.484699 12241 net.cpp:386] conv1/relu_7x7 -> conv1/7x7_s2 (in-place)
I0403 15:42:19.484954 12241 net.cpp:141] Setting up conv1/relu_7x7
I0403 15:42:19.484982 12241 net.cpp:148] Top shape: 24 64 112 112 (19267584)
I0403 15:42:19.484997 12241 net.cpp:156] Memory required for data: 168592416
I0403 15:42:19.485010 12241 layer_factory.hpp:77] Creating layer pool1/3x3_s2
I0403 15:42:19.485035 12241 net.cpp:91] Creating Layer pool1/3x3_s2
I0403 15:42:19.485051 12241 net.cpp:425] pool1/3x3_s2 <- conv1/7x7_s2
I0403 15:42:19.485069 12241 net.cpp:399] pool1/3x3_s2 -> pool1/3x3_s2
I0403 15:42:19.485141 12241 net.cpp:141] Setting up pool1/3x3_s2
I0403 15:42:19.485165 12241 net.cpp:148] Top shape: 24 64 56 56 (4816896)
I0403 15:42:19.485180 12241 net.cpp:156] Memory required for data: 187860000
I0403 15:42:19.485194 12241 layer_factory.hpp:77] Creating layer pool1/norm1
I0403 15:42:19.485219 12241 net.cpp:91] Creating Layer pool1/norm1
I0403 15:42:19.485235 12241 net.cpp:425] pool1/norm1 <- pool1/3x3_s2
I0403 15:42:19.485252 12241 net.cpp:399] pool1/norm1 -> pool1/norm1
I0403 15:42:19.485545 12241 net.cpp:141] Setting up pool1/norm1
I0403 15:42:19.485572 12241 net.cpp:148] Top shape: 24 64 56 56 (4816896)
I0403 15:42:19.485587 12241 net.cpp:156] Memory required for data: 207127584
I0403 15:42:19.485601 12241 layer_factory.hpp:77] Creating layer conv2/3x3_reduce
I0403 15:42:19.485625 12241 net.cpp:91] Creating Layer conv2/3x3_reduce
I0403 15:42:19.485641 12241 net.cpp:425] conv2/3x3_reduce <- pool1/norm1
I0403 15:42:19.485659 12241 net.cpp:399] conv2/3x3_reduce -> conv2/3x3_reduce
I0403 15:42:19.486963 12241 net.cpp:141] Setting up conv2/3x3_reduce
I0403 15:42:19.486992 12241 net.cpp:148] Top shape: 24 64 56 56 (4816896)
I0403 15:42:19.487009 12241 net.cpp:156] Memory required for data: 226395168
I0403 15:42:19.487028 12241 layer_factory.hpp:77] Creating layer conv2/relu_3x3_reduce
I0403 15:42:19.487047 12241 net.cpp:91] Creating Layer conv2/relu_3x3_reduce
I0403 15:42:19.487062 12241 net.cpp:425] conv2/relu_3x3_reduce <- conv2/3x3_reduce
I0403 15:42:19.487078 12241 net.cpp:386] conv2/relu_3x3_reduce -> conv2/3x3_reduce (in-place)
I0403 15:42:19.487344 12241 net.cpp:141] Setting up conv2/relu_3x3_reduce
I0403 15:42:19.487372 12241 net.cpp:148] Top shape: 24 64 56 56 (4816896)
I0403 15:42:19.487387 12241 net.cpp:156] Memory required for data: 245662752
I0403 15:42:19.487402 12241 layer_factory.hpp:77] Creating layer conv2/3x3
I0403 15:42:19.487427 12241 net.cpp:91] Creating Layer conv2/3x3
I0403 15:42:19.487444 12241 net.cpp:425] conv2/3x3 <- conv2/3x3_reduce
I0403 15:42:19.487463 12241 net.cpp:399] conv2/3x3 -> conv2/3x3
I0403 15:42:19.489751 12241 net.cpp:141] Setting up conv2/3x3
I0403 15:42:19.489786 12241 net.cpp:148] Top shape: 24 192 56 56 (14450688)
I0403 15:42:19.489804 12241 net.cpp:156] Memory required for data: 303465504
I0403 15:42:19.489826 12241 layer_factory.hpp:77] Creating layer conv2/relu_3x3
I0403 15:42:19.489845 12241 net.cpp:91] Creating Layer conv2/relu_3x3
I0403 15:42:19.489861 12241 net.cpp:425] conv2/relu_3x3 <- conv2/3x3
I0403 15:42:19.489878 12241 net.cpp:386] conv2/relu_3x3 -> conv2/3x3 (in-place)
I0403 15:42:19.490063 12241 net.cpp:141] Setting up conv2/relu_3x3
I0403 15:42:19.490090 12241 net.cpp:148] Top shape: 24 192 56 56 (14450688)
I0403 15:42:19.490139 12241 net.cpp:156] Memory required for data: 361268256
I0403 15:42:19.490155 12241 layer_factory.hpp:77] Creating layer conv2/norm2
I0403 15:42:19.490176 12241 net.cpp:91] Creating Layer conv2/norm2
I0403 15:42:19.490195 12241 net.cpp:425] conv2/norm2 <- conv2/3x3
I0403 15:42:19.490212 12241 net.cpp:399] conv2/norm2 -> conv2/norm2
I0403 15:42:19.490527 12241 net.cpp:141] Setting up conv2/norm2
I0403 15:42:19.490556 12241 net.cpp:148] Top shape: 24 192 56 56 (14450688)
I0403 15:42:19.490572 12241 net.cpp:156] Memory required for data: 419071008
I0403 15:42:19.490586 12241 layer_factory.hpp:77] Creating layer pool2/3x3_s2
I0403 15:42:19.490607 12241 net.cpp:91] Creating Layer pool2/3x3_s2
I0403 15:42:19.490624 12241 net.cpp:425] pool2/3x3_s2 <- conv2/norm2
I0403 15:42:19.490643 12241 net.cpp:399] pool2/3x3_s2 -> pool2/3x3_s2
I0403 15:42:19.490699 12241 net.cpp:141] Setting up pool2/3x3_s2
I0403 15:42:19.490721 12241 net.cpp:148] Top shape: 24 192 28 28 (3612672)
I0403 15:42:19.490737 12241 net.cpp:156] Memory required for data: 433521696
I0403 15:42:19.490752 12241 layer_factory.hpp:77] Creating layer pool2/3x3_s2_pool2/3x3_s2_0_split
I0403 15:42:19.490770 12241 net.cpp:91] Creating Layer pool2/3x3_s2_pool2/3x3_s2_0_split
I0403 15:42:19.490785 12241 net.cpp:425] pool2/3x3_s2_pool2/3x3_s2_0_split <- pool2/3x3_s2
I0403 15:42:19.490805 12241 net.cpp:399] pool2/3x3_s2_pool2/3x3_s2_0_split -> pool2/3x3_s2_pool2/3x3_s2_0_split_0
I0403 15:42:19.490826 12241 net.cpp:399] pool2/3x3_s2_pool2/3x3_s2_0_split -> pool2/3x3_s2_pool2/3x3_s2_0_split_1
I0403 15:42:19.490846 12241 net.cpp:399] pool2/3x3_s2_pool2/3x3_s2_0_split -> pool2/3x3_s2_pool2/3x3_s2_0_split_2
I0403 15:42:19.490865 12241 net.cpp:399] pool2/3x3_s2_pool2/3x3_s2_0_split -> pool2/3x3_s2_pool2/3x3_s2_0_split_3
I0403 15:42:19.490941 12241 net.cpp:141] Setting up pool2/3x3_s2_pool2/3x3_s2_0_split
I0403 15:42:19.490965 12241 net.cpp:148] Top shape: 24 192 28 28 (3612672)
I0403 15:42:19.490983 12241 net.cpp:148] Top shape: 24 192 28 28 (3612672)
I0403 15:42:19.491000 12241 net.cpp:148] Top shape: 24 192 28 28 (3612672)
I0403 15:42:19.491016 12241 net.cpp:148] Top shape: 24 192 28 28 (3612672)
I0403 15:42:19.491029 12241 net.cpp:156] Memory required for data: 491324448
I0403 15:42:19.491044 12241 layer_factory.hpp:77] Creating layer inception_3a/1x1
I0403 15:42:19.491067 12241 net.cpp:91] Creating Layer inception_3a/1x1
I0403 15:42:19.491086 12241 net.cpp:425] inception_3a/1x1 <- pool2/3x3_s2_pool2/3x3_s2_0_split_0
I0403 15:42:19.491104 12241 net.cpp:399] inception_3a/1x1 -> inception_3a/1x1
I0403 15:42:19.492647 12241 net.cpp:141] Setting up inception_3a/1x1
I0403 15:42:19.492676 12241 net.cpp:148] Top shape: 24 64 28 28 (1204224)
I0403 15:42:19.492692 12241 net.cpp:156] Memory required for data: 496141344
I0403 15:42:19.492712 12241 layer_factory.hpp:77] Creating layer inception_3a/relu_1x1
I0403 15:42:19.492732 12241 net.cpp:91] Creating Layer inception_3a/relu_1x1
I0403 15:42:19.492748 12241 net.cpp:425] inception_3a/relu_1x1 <- inception_3a/1x1
I0403 15:42:19.492766 12241 net.cpp:386] inception_3a/relu_1x1 -> inception_3a/1x1 (in-place)
I0403 15:42:19.492944 12241 net.cpp:141] Setting up inception_3a/relu_1x1
I0403 15:42:19.492969 12241 net.cpp:148] Top shape: 24 64 28 28 (1204224)
I0403 15:42:19.492983 12241 net.cpp:156] Memory required for data: 500958240
I0403 15:42:19.492997 12241 layer_factory.hpp:77] Creating layer inception_3a/3x3_reduce
I0403 15:42:19.493021 12241 net.cpp:91] Creating Layer inception_3a/3x3_reduce
I0403 15:42:19.493037 12241 net.cpp:425] inception_3a/3x3_reduce <- pool2/3x3_s2_pool2/3x3_s2_0_split_1
I0403 15:42:19.493058 12241 net.cpp:399] inception_3a/3x3_reduce -> inception_3a/3x3_reduce
I0403 15:42:19.494740 12241 net.cpp:141] Setting up inception_3a/3x3_reduce
I0403 15:42:19.494771 12241 net.cpp:148] Top shape: 24 96 28 28 (1806336)
I0403 15:42:19.494788 12241 net.cpp:156] Memory required for data: 508183584
I0403 15:42:19.494810 12241 layer_factory.hpp:77] Creating layer inception_3a/relu_3x3_reduce
I0403 15:42:19.494846 12241 net.cpp:91] Creating Layer inception_3a/relu_3x3_reduce
I0403 15:42:19.494863 12241 net.cpp:425] inception_3a/relu_3x3_reduce <- inception_3a/3x3_reduce
I0403 15:42:19.494884 12241 net.cpp:386] inception_3a/relu_3x3_reduce -> inception_3a/3x3_reduce (in-place)
I0403 15:42:19.495066 12241 net.cpp:141] Setting up inception_3a/relu_3x3_reduce
I0403 15:42:19.495092 12241 net.cpp:148] Top shape: 24 96 28 28 (1806336)
I0403 15:42:19.495107 12241 net.cpp:156] Memory required for data: 515408928
I0403 15:42:19.495122 12241 layer_factory.hpp:77] Creating layer inception_3a/3x3
I0403 15:42:19.495144 12241 net.cpp:91] Creating Layer inception_3a/3x3
I0403 15:42:19.495160 12241 net.cpp:425] inception_3a/3x3 <- inception_3a/3x3_reduce
I0403 15:42:19.495182 12241 net.cpp:399] inception_3a/3x3 -> inception_3a/3x3
I0403 15:42:19.496834 12241 net.cpp:141] Setting up inception_3a/3x3
I0403 15:42:19.496863 12241 net.cpp:148] Top shape: 24 128 28 28 (2408448)
I0403 15:42:19.496881 12241 net.cpp:156] Memory required for data: 525042720
I0403 15:42:19.496901 12241 layer_factory.hpp:77] Creating layer inception_3a/relu_3x3
I0403 15:42:19.496919 12241 net.cpp:91] Creating Layer inception_3a/relu_3x3
I0403 15:42:19.496935 12241 net.cpp:425] inception_3a/relu_3x3 <- inception_3a/3x3
I0403 15:42:19.496954 12241 net.cpp:386] inception_3a/relu_3x3 -> inception_3a/3x3 (in-place)
I0403 15:42:19.497231 12241 net.cpp:141] Setting up inception_3a/relu_3x3
I0403 15:42:19.497261 12241 net.cpp:148] Top shape: 24 128 28 28 (2408448)
I0403 15:42:19.497275 12241 net.cpp:156] Memory required for data: 534676512
I0403 15:42:19.497290 12241 layer_factory.hpp:77] Creating layer inception_3a/5x5_reduce
I0403 15:42:19.497313 12241 net.cpp:91] Creating Layer inception_3a/5x5_reduce
I0403 15:42:19.497334 12241 net.cpp:425] inception_3a/5x5_reduce <- pool2/3x3_s2_pool2/3x3_s2_0_split_2
I0403 15:42:19.497354 12241 net.cpp:399] inception_3a/5x5_reduce -> inception_3a/5x5_reduce
I0403 15:42:19.498322 12241 net.cpp:141] Setting up inception_3a/5x5_reduce
I0403 15:42:19.498366 12241 net.cpp:148] Top shape: 24 16 28 28 (301056)
I0403 15:42:19.498383 12241 net.cpp:156] Memory required for data: 535880736
I0403 15:42:19.498415 12241 layer_factory.hpp:77] Creating layer inception_3a/relu_5x5_reduce
I0403 15:42:19.498435 12241 net.cpp:91] Creating Layer inception_3a/relu_5x5_reduce
I0403 15:42:19.498451 12241 net.cpp:425] inception_3a/relu_5x5_reduce <- inception_3a/5x5_reduce
I0403 15:42:19.498473 12241 net.cpp:386] inception_3a/relu_5x5_reduce -> inception_3a/5x5_reduce (in-place)
I0403 15:42:19.498796 12241 net.cpp:141] Setting up inception_3a/relu_5x5_reduce
I0403 15:42:19.498823 12241 net.cpp:148] Top shape: 24 16 28 28 (301056)
I0403 15:42:19.498838 12241 net.cpp:156] Memory required for data: 537084960
I0403 15:42:19.498853 12241 layer_factory.hpp:77] Creating layer inception_3a/5x5
I0403 15:42:19.498875 12241 net.cpp:91] Creating Layer inception_3a/5x5
I0403 15:42:19.498893 12241 net.cpp:425] inception_3a/5x5 <- inception_3a/5x5_reduce
I0403 15:42:19.498914 12241 net.cpp:399] inception_3a/5x5 -> inception_3a/5x5
I0403 15:42:19.499958 12241 net.cpp:141] Setting up inception_3a/5x5
I0403 15:42:19.499984 12241 net.cpp:148] Top shape: 24 32 28 28 (602112)
I0403 15:42:19.500000 12241 net.cpp:156] Memory required for data: 539493408
I0403 15:42:19.500020 12241 layer_factory.hpp:77] Creating layer inception_3a/relu_5x5
I0403 15:42:19.500041 12241 net.cpp:91] Creating Layer inception_3a/relu_5x5
I0403 15:42:19.500057 12241 net.cpp:425] inception_3a/relu_5x5 <- inception_3a/5x5
I0403 15:42:19.500077 12241 net.cpp:386] inception_3a/relu_5x5 -> inception_3a/5x5 (in-place)
I0403 15:42:19.500255 12241 net.cpp:141] Setting up inception_3a/relu_5x5
I0403 15:42:19.500282 12241 net.cpp:148] Top shape: 24 32 28 28 (602112)
I0403 15:42:19.500298 12241 net.cpp:156] Memory required for data: 541901856
I0403 15:42:19.500313 12241 layer_factory.hpp:77] Creating layer inception_3a/pool
I0403 15:42:19.500336 12241 net.cpp:91] Creating Layer inception_3a/pool
I0403 15:42:19.500367 12241 net.cpp:425] inception_3a/pool <- pool2/3x3_s2_pool2/3x3_s2_0_split_3
I0403 15:42:19.500390 12241 net.cpp:399] inception_3a/pool -> inception_3a/pool
I0403 15:42:19.500448 12241 net.cpp:141] Setting up inception_3a/pool
I0403 15:42:19.500473 12241 net.cpp:148] Top shape: 24 192 28 28 (3612672)
I0403 15:42:19.500488 12241 net.cpp:156] Memory required for data: 556352544
I0403 15:42:19.500502 12241 layer_factory.hpp:77] Creating layer inception_3a/pool_proj
I0403 15:42:19.500530 12241 net.cpp:91] Creating Layer inception_3a/pool_proj
I0403 15:42:19.500548 12241 net.cpp:425] inception_3a/pool_proj <- inception_3a/pool
I0403 15:42:19.500567 12241 net.cpp:399] inception_3a/pool_proj -> inception_3a/pool_proj
I0403 15:42:19.501561 12241 net.cpp:141] Setting up inception_3a/pool_proj
I0403 15:42:19.501590 12241 net.cpp:148] Top shape: 24 32 28 28 (602112)
I0403 15:42:19.501613 12241 net.cpp:156] Memory required for data: 558760992
I0403 15:42:19.501638 12241 layer_factory.hpp:77] Creating layer inception_3a/relu_pool_proj
I0403 15:42:19.501659 12241 net.cpp:91] Creating Layer inception_3a/relu_pool_proj
I0403 15:42:19.501675 12241 net.cpp:425] inception_3a/relu_pool_proj <- inception_3a/pool_proj
I0403 15:42:19.501695 12241 net.cpp:386] inception_3a/relu_pool_proj -> inception_3a/pool_proj (in-place)
I0403 15:42:19.501974 12241 net.cpp:141] Setting up inception_3a/relu_pool_proj
I0403 15:42:19.502003 12241 net.cpp:148] Top shape: 24 32 28 28 (602112)
I0403 15:42:19.502019 12241 net.cpp:156] Memory required for data: 561169440
I0403 15:42:19.502035 12241 layer_factory.hpp:77] Creating layer inception_3a/output
I0403 15:42:19.502053 12241 net.cpp:91] Creating Layer inception_3a/output
I0403 15:42:19.502068 12241 net.cpp:425] inception_3a/output <- inception_3a/1x1
I0403 15:42:19.502086 12241 net.cpp:425] inception_3a/output <- inception_3a/3x3
I0403 15:42:19.502102 12241 net.cpp:425] inception_3a/output <- inception_3a/5x5
I0403 15:42:19.502118 12241 net.cpp:425] inception_3a/output <- inception_3a/pool_proj
I0403 15:42:19.502136 12241 net.cpp:399] inception_3a/output -> inception_3a/output
I0403 15:42:19.502184 12241 net.cpp:141] Setting up inception_3a/output
I0403 15:42:19.502208 12241 net.cpp:148] Top shape: 24 256 28 28 (4816896)
I0403 15:42:19.502223 12241 net.cpp:156] Memory required for data: 580437024
I0403 15:42:19.502238 12241 layer_factory.hpp:77] Creating layer inception_3a/output_inception_3a/output_0_split
I0403 15:42:19.502255 12241 net.cpp:91] Creating Layer inception_3a/output_inception_3a/output_0_split
I0403 15:42:19.502271 12241 net.cpp:425] inception_3a/output_inception_3a/output_0_split <- inception_3a/output
I0403 15:42:19.502292 12241 net.cpp:399] inception_3a/output_inception_3a/output_0_split -> inception_3a/output_inception_3a/output_0_split_0
I0403 15:42:19.502313 12241 net.cpp:399] inception_3a/output_inception_3a/output_0_split -> inception_3a/output_inception_3a/output_0_split_1
I0403 15:42:19.502344 12241 net.cpp:399] inception_3a/output_inception_3a/output_0_split -> inception_3a/output_inception_3a/output_0_split_2
I0403 15:42:19.502367 12241 net.cpp:399] inception_3a/output_inception_3a/output_0_split -> inception_3a/output_inception_3a/output_0_split_3
I0403 15:42:19.502441 12241 net.cpp:141] Setting up inception_3a/output_inception_3a/output_0_split
I0403 15:42:19.502465 12241 net.cpp:148] Top shape: 24 256 28 28 (4816896)
I0403 15:42:19.502485 12241 net.cpp:148] Top shape: 24 256 28 28 (4816896)
I0403 15:42:19.502501 12241 net.cpp:148] Top shape: 24 256 28 28 (4816896)
I0403 15:42:19.502517 12241 net.cpp:148] Top shape: 24 256 28 28 (4816896)
I0403 15:42:19.502532 12241 net.cpp:156] Memory required for data: 657507360
I0403 15:42:19.502545 12241 layer_factory.hpp:77] Creating layer inception_3b/1x1
I0403 15:42:19.502567 12241 net.cpp:91] Creating Layer inception_3b/1x1
I0403 15:42:19.502583 12241 net.cpp:425] inception_3b/1x1 <- inception_3a/output_inception_3a/output_0_split_0
I0403 15:42:19.502604 12241 net.cpp:399] inception_3b/1x1 -> inception_3b/1x1
I0403 15:42:19.503777 12241 net.cpp:141] Setting up inception_3b/1x1
I0403 15:42:19.503818 12241 net.cpp:148] Top shape: 24 128 28 28 (2408448)
I0403 15:42:19.503836 12241 net.cpp:156] Memory required for data: 667141152
I0403 15:42:19.503854 12241 layer_factory.hpp:77] Creating layer inception_3b/relu_1x1
I0403 15:42:19.503875 12241 net.cpp:91] Creating Layer inception_3b/relu_1x1
I0403 15:42:19.503893 12241 net.cpp:425] inception_3b/relu_1x1 <- inception_3b/1x1
I0403 15:42:19.503911 12241 net.cpp:386] inception_3b/relu_1x1 -> inception_3b/1x1 (in-place)
I0403 15:42:19.504096 12241 net.cpp:141] Setting up inception_3b/relu_1x1
I0403 15:42:19.504123 12241 net.cpp:148] Top shape: 24 128 28 28 (2408448)
I0403 15:42:19.504139 12241 net.cpp:156] Memory required for data: 676774944
I0403 15:42:19.504154 12241 layer_factory.hpp:77] Creating layer inception_3b/3x3_reduce
I0403 15:42:19.504176 12241 net.cpp:91] Creating Layer inception_3b/3x3_reduce
I0403 15:42:19.504194 12241 net.cpp:425] inception_3b/3x3_reduce <- inception_3a/output_inception_3a/output_0_split_1
I0403 15:42:19.504215 12241 net.cpp:399] inception_3b/3x3_reduce -> inception_3b/3x3_reduce
I0403 15:42:19.505388 12241 net.cpp:141] Setting up inception_3b/3x3_reduce
I0403 15:42:19.505419 12241 net.cpp:148] Top shape: 24 128 28 28 (2408448)
I0403 15:42:19.505434 12241 net.cpp:156] Memory required for data: 686408736
I0403 15:42:19.505453 12241 layer_factory.hpp:77] Creating layer inception_3b/relu_3x3_reduce
I0403 15:42:19.505475 12241 net.cpp:91] Creating Layer inception_3b/relu_3x3_reduce
I0403 15:42:19.505492 12241 net.cpp:425] inception_3b/relu_3x3_reduce <- inception_3b/3x3_reduce
I0403 15:42:19.505511 12241 net.cpp:386] inception_3b/relu_3x3_reduce -> inception_3b/3x3_reduce (in-place)
I0403 15:42:19.505688 12241 net.cpp:141] Setting up inception_3b/relu_3x3_reduce
I0403 15:42:19.505715 12241 net.cpp:148] Top shape: 24 128 28 28 (2408448)
I0403 15:42:19.505731 12241 net.cpp:156] Memory required for data: 696042528
I0403 15:42:19.505746 12241 layer_factory.hpp:77] Creating layer inception_3b/3x3
I0403 15:42:19.505771 12241 net.cpp:91] Creating Layer inception_3b/3x3
I0403 15:42:19.505791 12241 net.cpp:425] inception_3b/3x3 <- inception_3b/3x3_reduce
I0403 15:42:19.505812 12241 net.cpp:399] inception_3b/3x3 -> inception_3b/3x3
I0403 15:42:19.508783 12241 net.cpp:141] Setting up inception_3b/3x3
I0403 15:42:19.508816 12241 net.cpp:148] Top shape: 24 192 28 28 (3612672)
I0403 15:42:19.508833 12241 net.cpp:156] Memory required for data: 710493216
I0403 15:42:19.508852 12241 layer_factory.hpp:77] Creating layer inception_3b/relu_3x3
I0403 15:42:19.508870 12241 net.cpp:91] Creating Layer inception_3b/relu_3x3
I0403 15:42:19.508887 12241 net.cpp:425] inception_3b/relu_3x3 <- inception_3b/3x3
I0403 15:42:19.508908 12241 net.cpp:386] inception_3b/relu_3x3 -> inception_3b/3x3 (in-place)
I0403 15:42:19.509194 12241 net.cpp:141] Setting up inception_3b/relu_3x3
I0403 15:42:19.509224 12241 net.cpp:148] Top shape: 24 192 28 28 (3612672)
I0403 15:42:19.509240 12241 net.cpp:156] Memory required for data: 724943904
I0403 15:42:19.509255 12241 layer_factory.hpp:77] Creating layer inception_3b/5x5_reduce
I0403 15:42:19.509279 12241 net.cpp:91] Creating Layer inception_3b/5x5_reduce
I0403 15:42:19.509297 12241 net.cpp:425] inception_3b/5x5_reduce <- inception_3a/output_inception_3a/output_0_split_2
I0403 15:42:19.509321 12241 net.cpp:399] inception_3b/5x5_reduce -> inception_3b/5x5_reduce
I0403 15:42:19.510342 12241 net.cpp:141] Setting up inception_3b/5x5_reduce
I0403 15:42:19.510372 12241 net.cpp:148] Top shape: 24 32 28 28 (602112)
I0403 15:42:19.510390 12241 net.cpp:156] Memory required for data: 727352352
I0403 15:42:19.510409 12241 layer_factory.hpp:77] Creating layer inception_3b/relu_5x5_reduce
I0403 15:42:19.510429 12241 net.cpp:91] Creating Layer inception_3b/relu_5x5_reduce
I0403 15:42:19.510445 12241 net.cpp:425] inception_3b/relu_5x5_reduce <- inception_3b/5x5_reduce
I0403 15:42:19.510478 12241 net.cpp:386] inception_3b/relu_5x5_reduce -> inception_3b/5x5_reduce (in-place)
I0403 15:42:19.510684 12241 net.cpp:141] Setting up inception_3b/relu_5x5_reduce
I0403 15:42:19.510710 12241 net.cpp:148] Top shape: 24 32 28 28 (602112)
I0403 15:42:19.510725 12241 net.cpp:156] Memory required for data: 729760800
I0403 15:42:19.510740 12241 layer_factory.hpp:77] Creating layer inception_3b/5x5
I0403 15:42:19.510774 12241 net.cpp:91] Creating Layer inception_3b/5x5
I0403 15:42:19.510792 12241 net.cpp:425] inception_3b/5x5 <- inception_3b/5x5_reduce
I0403 15:42:19.510814 12241 net.cpp:399] inception_3b/5x5 -> inception_3b/5x5
I0403 15:42:19.512832 12241 net.cpp:141] Setting up inception_3b/5x5
I0403 15:42:19.512863 12241 net.cpp:148] Top shape: 24 96 28 28 (1806336)
I0403 15:42:19.512879 12241 net.cpp:156] Memory required for data: 736986144
I0403 15:42:19.512898 12241 layer_factory.hpp:77] Creating layer inception_3b/relu_5x5
I0403 15:42:19.512920 12241 net.cpp:91] Creating Layer inception_3b/relu_5x5
I0403 15:42:19.512938 12241 net.cpp:425] inception_3b/relu_5x5 <- inception_3b/5x5
I0403 15:42:19.512955 12241 net.cpp:386] inception_3b/relu_5x5 -> inception_3b/5x5 (in-place)
I0403 15:42:19.513152 12241 net.cpp:141] Setting up inception_3b/relu_5x5
I0403 15:42:19.513178 12241 net.cpp:148] Top shape: 24 96 28 28 (1806336)
I0403 15:42:19.513193 12241 net.cpp:156] Memory required for data: 744211488
I0403 15:42:19.513208 12241 layer_factory.hpp:77] Creating layer inception_3b/pool
I0403 15:42:19.513227 12241 net.cpp:91] Creating Layer inception_3b/pool
I0403 15:42:19.513243 12241 net.cpp:425] inception_3b/pool <- inception_3a/output_inception_3a/output_0_split_3
I0403 15:42:19.513262 12241 net.cpp:399] inception_3b/pool -> inception_3b/pool
I0403 15:42:19.513330 12241 net.cpp:141] Setting up inception_3b/pool
I0403 15:42:19.513355 12241 net.cpp:148] Top shape: 24 256 28 28 (4816896)
I0403 15:42:19.513371 12241 net.cpp:156] Memory required for data: 763479072
I0403 15:42:19.513386 12241 layer_factory.hpp:77] Creating layer inception_3b/pool_proj
I0403 15:42:19.513408 12241 net.cpp:91] Creating Layer inception_3b/pool_proj
I0403 15:42:19.513427 12241 net.cpp:425] inception_3b/pool_proj <- inception_3b/pool
I0403 15:42:19.513448 12241 net.cpp:399] inception_3b/pool_proj -> inception_3b/pool_proj
I0403 15:42:19.514545 12241 net.cpp:141] Setting up inception_3b/pool_proj
I0403 15:42:19.514575 12241 net.cpp:148] Top shape: 24 64 28 28 (1204224)
I0403 15:42:19.514590 12241 net.cpp:156] Memory required for data: 768295968
I0403 15:42:19.514610 12241 layer_factory.hpp:77] Creating layer inception_3b/relu_pool_proj
I0403 15:42:19.514627 12241 net.cpp:91] Creating Layer inception_3b/relu_pool_proj
I0403 15:42:19.514644 12241 net.cpp:425] inception_3b/relu_pool_proj <- inception_3b/pool_proj
I0403 15:42:19.514665 12241 net.cpp:386] inception_3b/relu_pool_proj -> inception_3b/pool_proj (in-place)
I0403 15:42:19.515079 12241 net.cpp:141] Setting up inception_3b/relu_pool_proj
I0403 15:42:19.515108 12241 net.cpp:148] Top shape: 24 64 28 28 (1204224)
I0403 15:42:19.515125 12241 net.cpp:156] Memory required for data: 773112864
I0403 15:42:19.515141 12241 layer_factory.hpp:77] Creating layer inception_3b/output
I0403 15:42:19.515158 12241 net.cpp:91] Creating Layer inception_3b/output
I0403 15:42:19.515175 12241 net.cpp:425] inception_3b/output <- inception_3b/1x1
I0403 15:42:19.515192 12241 net.cpp:425] inception_3b/output <- inception_3b/3x3
I0403 15:42:19.515209 12241 net.cpp:425] inception_3b/output <- inception_3b/5x5
I0403 15:42:19.515224 12241 net.cpp:425] inception_3b/output <- inception_3b/pool_proj
I0403 15:42:19.515245 12241 net.cpp:399] inception_3b/output -> inception_3b/output
I0403 15:42:19.515290 12241 net.cpp:141] Setting up inception_3b/output
I0403 15:42:19.515314 12241 net.cpp:148] Top shape: 24 480 28 28 (9031680)
I0403 15:42:19.515336 12241 net.cpp:156] Memory required for data: 809239584
I0403 15:42:19.515350 12241 layer_factory.hpp:77] Creating layer pool3/3x3_s2
I0403 15:42:19.515370 12241 net.cpp:91] Creating Layer pool3/3x3_s2
I0403 15:42:19.515388 12241 net.cpp:425] pool3/3x3_s2 <- inception_3b/output
I0403 15:42:19.515424 12241 net.cpp:399] pool3/3x3_s2 -> pool3/3x3_s2
I0403 15:42:19.515486 12241 net.cpp:141] Setting up pool3/3x3_s2
I0403 15:42:19.515511 12241 net.cpp:148] Top shape: 24 480 14 14 (2257920)
I0403 15:42:19.515524 12241 net.cpp:156] Memory required for data: 818271264
I0403 15:42:19.515538 12241 layer_factory.hpp:77] Creating layer pool3/3x3_s2_pool3/3x3_s2_0_split
I0403 15:42:19.515558 12241 net.cpp:91] Creating Layer pool3/3x3_s2_pool3/3x3_s2_0_split
I0403 15:42:19.515575 12241 net.cpp:425] pool3/3x3_s2_pool3/3x3_s2_0_split <- pool3/3x3_s2
I0403 15:42:19.515594 12241 net.cpp:399] pool3/3x3_s2_pool3/3x3_s2_0_split -> pool3/3x3_s2_pool3/3x3_s2_0_split_0
I0403 15:42:19.515614 12241 net.cpp:399] pool3/3x3_s2_pool3/3x3_s2_0_split -> pool3/3x3_s2_pool3/3x3_s2_0_split_1
I0403 15:42:19.515633 12241 net.cpp:399] pool3/3x3_s2_pool3/3x3_s2_0_split -> pool3/3x3_s2_pool3/3x3_s2_0_split_2
I0403 15:42:19.515653 12241 net.cpp:399] pool3/3x3_s2_pool3/3x3_s2_0_split -> pool3/3x3_s2_pool3/3x3_s2_0_split_3
I0403 15:42:19.515733 12241 net.cpp:141] Setting up pool3/3x3_s2_pool3/3x3_s2_0_split
I0403 15:42:19.515755 12241 net.cpp:148] Top shape: 24 480 14 14 (2257920)
I0403 15:42:19.515772 12241 net.cpp:148] Top shape: 24 480 14 14 (2257920)
I0403 15:42:19.515789 12241 net.cpp:148] Top shape: 24 480 14 14 (2257920)
I0403 15:42:19.515804 12241 net.cpp:148] Top shape: 24 480 14 14 (2257920)
I0403 15:42:19.515817 12241 net.cpp:156] Memory required for data: 854397984
I0403 15:42:19.515831 12241 layer_factory.hpp:77] Creating layer inception_4a/1x1
I0403 15:42:19.515853 12241 net.cpp:91] Creating Layer inception_4a/1x1
I0403 15:42:19.515871 12241 net.cpp:425] inception_4a/1x1 <- pool3/3x3_s2_pool3/3x3_s2_0_split_0
I0403 15:42:19.515892 12241 net.cpp:399] inception_4a/1x1 -> inception_4a/1x1
I0403 15:42:19.517563 12241 net.cpp:141] Setting up inception_4a/1x1
I0403 15:42:19.517592 12241 net.cpp:148] Top shape: 24 192 14 14 (903168)
I0403 15:42:19.517608 12241 net.cpp:156] Memory required for data: 858010656
I0403 15:42:19.517627 12241 layer_factory.hpp:77] Creating layer inception_4a/relu_1x1
I0403 15:42:19.517659 12241 net.cpp:91] Creating Layer inception_4a/relu_1x1
I0403 15:42:19.517675 12241 net.cpp:425] inception_4a/relu_1x1 <- inception_4a/1x1
I0403 15:42:19.517693 12241 net.cpp:386] inception_4a/relu_1x1 -> inception_4a/1x1 (in-place)
I0403 15:42:19.517870 12241 net.cpp:141] Setting up inception_4a/relu_1x1
I0403 15:42:19.517895 12241 net.cpp:148] Top shape: 24 192 14 14 (903168)
I0403 15:42:19.517910 12241 net.cpp:156] Memory required for data: 861623328
I0403 15:42:19.517923 12241 layer_factory.hpp:77] Creating layer inception_4a/3x3_reduce
I0403 15:42:19.517946 12241 net.cpp:91] Creating Layer inception_4a/3x3_reduce
I0403 15:42:19.517963 12241 net.cpp:425] inception_4a/3x3_reduce <- pool3/3x3_s2_pool3/3x3_s2_0_split_1
I0403 15:42:19.517984 12241 net.cpp:399] inception_4a/3x3_reduce -> inception_4a/3x3_reduce
I0403 15:42:19.519250 12241 net.cpp:141] Setting up inception_4a/3x3_reduce
I0403 15:42:19.519279 12241 net.cpp:148] Top shape: 24 96 14 14 (451584)
I0403 15:42:19.519294 12241 net.cpp:156] Memory required for data: 863429664
I0403 15:42:19.519322 12241 layer_factory.hpp:77] Creating layer inception_4a/relu_3x3_reduce
I0403 15:42:19.519345 12241 net.cpp:91] Creating Layer inception_4a/relu_3x3_reduce
I0403 15:42:19.519359 12241 net.cpp:425] inception_4a/relu_3x3_reduce <- inception_4a/3x3_reduce
I0403 15:42:19.519379 12241 net.cpp:386] inception_4a/relu_3x3_reduce -> inception_4a/3x3_reduce (in-place)
I0403 15:42:19.519557 12241 net.cpp:141] Setting up inception_4a/relu_3x3_reduce
I0403 15:42:19.519582 12241 net.cpp:148] Top shape: 24 96 14 14 (451584)
I0403 15:42:19.519598 12241 net.cpp:156] Memory required for data: 865236000
I0403 15:42:19.519613 12241 layer_factory.hpp:77] Creating layer inception_4a/3x3
I0403 15:42:19.519634 12241 net.cpp:91] Creating Layer inception_4a/3x3
I0403 15:42:19.519652 12241 net.cpp:425] inception_4a/3x3 <- inception_4a/3x3_reduce
I0403 15:42:19.519673 12241 net.cpp:399] inception_4a/3x3 -> inception_4a/3x3
I0403 15:42:19.522326 12241 net.cpp:141] Setting up inception_4a/3x3
I0403 15:42:19.522354 12241 net.cpp:148] Top shape: 24 208 14 14 (978432)
I0403 15:42:19.522370 12241 net.cpp:156] Memory required for data: 869149728
I0403 15:42:19.522388 12241 layer_factory.hpp:77] Creating layer inception_4a/relu_3x3
I0403 15:42:19.522408 12241 net.cpp:91] Creating Layer inception_4a/relu_3x3
I0403 15:42:19.522425 12241 net.cpp:425] inception_4a/relu_3x3 <- inception_4a/3x3
I0403 15:42:19.522442 12241 net.cpp:386] inception_4a/relu_3x3 -> inception_4a/3x3 (in-place)
I0403 15:42:19.522717 12241 net.cpp:141] Setting up inception_4a/relu_3x3
I0403 15:42:19.522744 12241 net.cpp:148] Top shape: 24 208 14 14 (978432)
I0403 15:42:19.522759 12241 net.cpp:156] Memory required for data: 873063456
I0403 15:42:19.522774 12241 layer_factory.hpp:77] Creating layer inception_4a/5x5_reduce
I0403 15:42:19.522795 12241 net.cpp:91] Creating Layer inception_4a/5x5_reduce
I0403 15:42:19.522815 12241 net.cpp:425] inception_4a/5x5_reduce <- pool3/3x3_s2_pool3/3x3_s2_0_split_2
I0403 15:42:19.522835 12241 net.cpp:399] inception_4a/5x5_reduce -> inception_4a/5x5_reduce
I0403 15:42:19.523859 12241 net.cpp:141] Setting up inception_4a/5x5_reduce
I0403 15:42:19.523887 12241 net.cpp:148] Top shape: 24 16 14 14 (75264)
I0403 15:42:19.523905 12241 net.cpp:156] Memory required for data: 873364512
I0403 15:42:19.523922 12241 layer_factory.hpp:77] Creating layer inception_4a/relu_5x5_reduce
I0403 15:42:19.523942 12241 net.cpp:91] Creating Layer inception_4a/relu_5x5_reduce
I0403 15:42:19.523959 12241 net.cpp:425] inception_4a/relu_5x5_reduce <- inception_4a/5x5_reduce
I0403 15:42:19.523977 12241 net.cpp:386] inception_4a/relu_5x5_reduce -> inception_4a/5x5_reduce (in-place)
I0403 15:42:19.524157 12241 net.cpp:141] Setting up inception_4a/relu_5x5_reduce
I0403 15:42:19.524181 12241 net.cpp:148] Top shape: 24 16 14 14 (75264)
I0403 15:42:19.524196 12241 net.cpp:156] Memory required for data: 873665568
I0403 15:42:19.524210 12241 layer_factory.hpp:77] Creating layer inception_4a/5x5
I0403 15:42:19.524232 12241 net.cpp:91] Creating Layer inception_4a/5x5
I0403 15:42:19.524250 12241 net.cpp:425] inception_4a/5x5 <- inception_4a/5x5_reduce
I0403 15:42:19.524271 12241 net.cpp:399] inception_4a/5x5 -> inception_4a/5x5
I0403 15:42:19.525352 12241 net.cpp:141] Setting up inception_4a/5x5
I0403 15:42:19.525380 12241 net.cpp:148] Top shape: 24 48 14 14 (225792)
I0403 15:42:19.525396 12241 net.cpp:156] Memory required for data: 874568736
I0403 15:42:19.525415 12241 layer_factory.hpp:77] Creating layer inception_4a/relu_5x5
I0403 15:42:19.525432 12241 net.cpp:91] Creating Layer inception_4a/relu_5x5
I0403 15:42:19.525449 12241 net.cpp:425] inception_4a/relu_5x5 <- inception_4a/5x5
I0403 15:42:19.525472 12241 net.cpp:386] inception_4a/relu_5x5 -> inception_4a/5x5 (in-place)
I0403 15:42:19.525658 12241 net.cpp:141] Setting up inception_4a/relu_5x5
I0403 15:42:19.525683 12241 net.cpp:148] Top shape: 24 48 14 14 (225792)
I0403 15:42:19.525697 12241 net.cpp:156] Memory required for data: 875471904
I0403 15:42:19.525712 12241 layer_factory.hpp:77] Creating layer inception_4a/pool
I0403 15:42:19.525732 12241 net.cpp:91] Creating Layer inception_4a/pool
I0403 15:42:19.525748 12241 net.cpp:425] inception_4a/pool <- pool3/3x3_s2_pool3/3x3_s2_0_split_3
I0403 15:42:19.525765 12241 net.cpp:399] inception_4a/pool -> inception_4a/pool
I0403 15:42:19.525837 12241 net.cpp:141] Setting up inception_4a/pool
I0403 15:42:19.525862 12241 net.cpp:148] Top shape: 24 480 14 14 (2257920)
I0403 15:42:19.525877 12241 net.cpp:156] Memory required for data: 884503584
I0403 15:42:19.525892 12241 layer_factory.hpp:77] Creating layer inception_4a/pool_proj
I0403 15:42:19.525914 12241 net.cpp:91] Creating Layer inception_4a/pool_proj
I0403 15:42:19.525933 12241 net.cpp:425] inception_4a/pool_proj <- inception_4a/pool
I0403 15:42:19.525954 12241 net.cpp:399] inception_4a/pool_proj -> inception_4a/pool_proj
I0403 15:42:19.527158 12241 net.cpp:141] Setting up inception_4a/pool_proj
I0403 15:42:19.527187 12241 net.cpp:148] Top shape: 24 64 14 14 (301056)
I0403 15:42:19.527217 12241 net.cpp:156] Memory required for data: 885707808
I0403 15:42:19.527237 12241 layer_factory.hpp:77] Creating layer inception_4a/relu_pool_proj
I0403 15:42:19.527259 12241 net.cpp:91] Creating Layer inception_4a/relu_pool_proj
I0403 15:42:19.527277 12241 net.cpp:425] inception_4a/relu_pool_proj <- inception_4a/pool_proj
I0403 15:42:19.527294 12241 net.cpp:386] inception_4a/relu_pool_proj -> inception_4a/pool_proj (in-place)
I0403 15:42:19.527595 12241 net.cpp:141] Setting up inception_4a/relu_pool_proj
I0403 15:42:19.527622 12241 net.cpp:148] Top shape: 24 64 14 14 (301056)
I0403 15:42:19.527637 12241 net.cpp:156] Memory required for data: 886912032
I0403 15:42:19.527654 12241 layer_factory.hpp:77] Creating layer inception_4a/output
I0403 15:42:19.527673 12241 net.cpp:91] Creating Layer inception_4a/output
I0403 15:42:19.527688 12241 net.cpp:425] inception_4a/output <- inception_4a/1x1
I0403 15:42:19.527704 12241 net.cpp:425] inception_4a/output <- inception_4a/3x3
I0403 15:42:19.527720 12241 net.cpp:425] inception_4a/output <- inception_4a/5x5
I0403 15:42:19.527736 12241 net.cpp:425] inception_4a/output <- inception_4a/pool_proj
I0403 15:42:19.527755 12241 net.cpp:399] inception_4a/output -> inception_4a/output
I0403 15:42:19.527801 12241 net.cpp:141] Setting up inception_4a/output
I0403 15:42:19.527827 12241 net.cpp:148] Top shape: 24 512 14 14 (2408448)
I0403 15:42:19.527842 12241 net.cpp:156] Memory required for data: 896545824
I0403 15:42:19.527858 12241 layer_factory.hpp:77] Creating layer inception_4a/output_inception_4a/output_0_split
I0403 15:42:19.527875 12241 net.cpp:91] Creating Layer inception_4a/output_inception_4a/output_0_split
I0403 15:42:19.527890 12241 net.cpp:425] inception_4a/output_inception_4a/output_0_split <- inception_4a/output
I0403 15:42:19.527911 12241 net.cpp:399] inception_4a/output_inception_4a/output_0_split -> inception_4a/output_inception_4a/output_0_split_0
I0403 15:42:19.527933 12241 net.cpp:399] inception_4a/output_inception_4a/output_0_split -> inception_4a/output_inception_4a/output_0_split_1
I0403 15:42:19.527954 12241 net.cpp:399] inception_4a/output_inception_4a/output_0_split -> inception_4a/output_inception_4a/output_0_split_2
I0403 15:42:19.527976 12241 net.cpp:399] inception_4a/output_inception_4a/output_0_split -> inception_4a/output_inception_4a/output_0_split_3
I0403 15:42:19.527995 12241 net.cpp:399] inception_4a/output_inception_4a/output_0_split -> inception_4a/output_inception_4a/output_0_split_4
I0403 15:42:19.528087 12241 net.cpp:141] Setting up inception_4a/output_inception_4a/output_0_split
I0403 15:42:19.528111 12241 net.cpp:148] Top shape: 24 512 14 14 (2408448)
I0403 15:42:19.528132 12241 net.cpp:148] Top shape: 24 512 14 14 (2408448)
I0403 15:42:19.528149 12241 net.cpp:148] Top shape: 24 512 14 14 (2408448)
I0403 15:42:19.528165 12241 net.cpp:148] Top shape: 24 512 14 14 (2408448)
I0403 15:42:19.528180 12241 net.cpp:148] Top shape: 24 512 14 14 (2408448)
I0403 15:42:19.528194 12241 net.cpp:156] Memory required for data: 944714784
I0403 15:42:19.528209 12241 layer_factory.hpp:77] Creating layer loss1/ave_pool
I0403 15:42:19.528228 12241 net.cpp:91] Creating Layer loss1/ave_pool
I0403 15:42:19.528242 12241 net.cpp:425] loss1/ave_pool <- inception_4a/output_inception_4a/output_0_split_0
I0403 15:42:19.528262 12241 net.cpp:399] loss1/ave_pool -> loss1/ave_pool
I0403 15:42:19.528501 12241 net.cpp:141] Setting up loss1/ave_pool
I0403 15:42:19.528529 12241 net.cpp:148] Top shape: 24 512 4 4 (196608)
I0403 15:42:19.528545 12241 net.cpp:156] Memory required for data: 945501216
I0403 15:42:19.528561 12241 layer_factory.hpp:77] Creating layer loss1/conv
I0403 15:42:19.528584 12241 net.cpp:91] Creating Layer loss1/conv
I0403 15:42:19.528604 12241 net.cpp:425] loss1/conv <- loss1/ave_pool
I0403 15:42:19.528625 12241 net.cpp:399] loss1/conv -> loss1/conv
I0403 15:42:19.530129 12241 net.cpp:141] Setting up loss1/conv
I0403 15:42:19.530159 12241 net.cpp:148] Top shape: 24 128 4 4 (49152)
I0403 15:42:19.530191 12241 net.cpp:156] Memory required for data: 945697824
I0403 15:42:19.530212 12241 layer_factory.hpp:77] Creating layer loss1/relu_conv
I0403 15:42:19.530237 12241 net.cpp:91] Creating Layer loss1/relu_conv
I0403 15:42:19.530256 12241 net.cpp:425] loss1/relu_conv <- loss1/conv
I0403 15:42:19.530274 12241 net.cpp:386] loss1/relu_conv -> loss1/conv (in-place)
I0403 15:42:19.530581 12241 net.cpp:141] Setting up loss1/relu_conv
I0403 15:42:19.530609 12241 net.cpp:148] Top shape: 24 128 4 4 (49152)
I0403 15:42:19.530625 12241 net.cpp:156] Memory required for data: 945894432
I0403 15:42:19.530642 12241 layer_factory.hpp:77] Creating layer loss1/fc
I0403 15:42:19.530668 12241 net.cpp:91] Creating Layer loss1/fc
I0403 15:42:19.530688 12241 net.cpp:425] loss1/fc <- loss1/conv
I0403 15:42:19.530709 12241 net.cpp:399] loss1/fc -> loss1/fc
I0403 15:42:19.549496 12241 net.cpp:141] Setting up loss1/fc
I0403 15:42:19.549566 12241 net.cpp:148] Top shape: 24 1024 (24576)
I0403 15:42:19.549582 12241 net.cpp:156] Memory required for data: 945992736
I0403 15:42:19.549603 12241 layer_factory.hpp:77] Creating layer loss1/relu_fc
I0403 15:42:19.549625 12241 net.cpp:91] Creating Layer loss1/relu_fc
I0403 15:42:19.549643 12241 net.cpp:425] loss1/relu_fc <- loss1/fc
I0403 15:42:19.549664 12241 net.cpp:386] loss1/relu_fc -> loss1/fc (in-place)
I0403 15:42:19.549891 12241 net.cpp:141] Setting up loss1/relu_fc
I0403 15:42:19.549921 12241 net.cpp:148] Top shape: 24 1024 (24576)
I0403 15:42:19.549937 12241 net.cpp:156] Memory required for data: 946091040
I0403 15:42:19.549952 12241 layer_factory.hpp:77] Creating layer loss1/drop_fc
I0403 15:42:19.549980 12241 net.cpp:91] Creating Layer loss1/drop_fc
I0403 15:42:19.549999 12241 net.cpp:425] loss1/drop_fc <- loss1/fc
I0403 15:42:19.550017 12241 net.cpp:386] loss1/drop_fc -> loss1/fc (in-place)
I0403 15:42:19.550076 12241 net.cpp:141] Setting up loss1/drop_fc
I0403 15:42:19.550099 12241 net.cpp:148] Top shape: 24 1024 (24576)
I0403 15:42:19.550114 12241 net.cpp:156] Memory required for data: 946189344
I0403 15:42:19.550130 12241 layer_factory.hpp:77] Creating layer loss1/classifier_plantvillage
I0403 15:42:19.550149 12241 net.cpp:91] Creating Layer loss1/classifier_plantvillage
I0403 15:42:19.550164 12241 net.cpp:425] loss1/classifier_plantvillage <- loss1/fc
I0403 15:42:19.550187 12241 net.cpp:399] loss1/classifier_plantvillage -> loss1/classifier_plantvillage
I0403 15:42:19.551151 12241 net.cpp:141] Setting up loss1/classifier_plantvillage
I0403 15:42:19.551178 12241 net.cpp:148] Top shape: 24 38 (912)
I0403 15:42:19.551194 12241 net.cpp:156] Memory required for data: 946192992
I0403 15:42:19.551213 12241 layer_factory.hpp:77] Creating layer loss1/classifier_plantvillage_loss1/classifier_plantvillage_0_split
I0403 15:42:19.551235 12241 net.cpp:91] Creating Layer loss1/classifier_plantvillage_loss1/classifier_plantvillage_0_split
I0403 15:42:19.551254 12241 net.cpp:425] loss1/classifier_plantvillage_loss1/classifier_plantvillage_0_split <- loss1/classifier_plantvillage
I0403 15:42:19.551275 12241 net.cpp:399] loss1/classifier_plantvillage_loss1/classifier_plantvillage_0_split -> loss1/classifier_plantvillage_loss1/classifier_plantvillage_0_split_0
I0403 15:42:19.551295 12241 net.cpp:399] loss1/classifier_plantvillage_loss1/classifier_plantvillage_0_split -> loss1/classifier_plantvillage_loss1/classifier_plantvillage_0_split_1
I0403 15:42:19.551321 12241 net.cpp:399] loss1/classifier_plantvillage_loss1/classifier_plantvillage_0_split -> loss1/classifier_plantvillage_loss1/classifier_plantvillage_0_split_2
I0403 15:42:19.551393 12241 net.cpp:141] Setting up loss1/classifier_plantvillage_loss1/classifier_plantvillage_0_split
I0403 15:42:19.551417 12241 net.cpp:148] Top shape: 24 38 (912)
I0403 15:42:19.551434 12241 net.cpp:148] Top shape: 24 38 (912)
I0403 15:42:19.551450 12241 net.cpp:148] Top shape: 24 38 (912)
I0403 15:42:19.551465 12241 net.cpp:156] Memory required for data: 946203936
I0403 15:42:19.551481 12241 layer_factory.hpp:77] Creating layer inception_4b/1x1
I0403 15:42:19.551506 12241 net.cpp:91] Creating Layer inception_4b/1x1
I0403 15:42:19.551542 12241 net.cpp:425] inception_4b/1x1 <- inception_4a/output_inception_4a/output_0_split_1
I0403 15:42:19.551563 12241 net.cpp:399] inception_4b/1x1 -> inception_4b/1x1
I0403 15:42:19.553303 12241 net.cpp:141] Setting up inception_4b/1x1
I0403 15:42:19.553339 12241 net.cpp:148] Top shape: 24 160 14 14 (752640)
I0403 15:42:19.553357 12241 net.cpp:156] Memory required for data: 949214496
I0403 15:42:19.553377 12241 layer_factory.hpp:77] Creating layer inception_4b/relu_1x1
I0403 15:42:19.553397 12241 net.cpp:91] Creating Layer inception_4b/relu_1x1
I0403 15:42:19.553416 12241 net.cpp:425] inception_4b/relu_1x1 <- inception_4b/1x1
I0403 15:42:19.553433 12241 net.cpp:386] inception_4b/relu_1x1 -> inception_4b/1x1 (in-place)
I0403 15:42:19.553622 12241 net.cpp:141] Setting up inception_4b/relu_1x1
I0403 15:42:19.553647 12241 net.cpp:148] Top shape: 24 160 14 14 (752640)
I0403 15:42:19.553663 12241 net.cpp:156] Memory required for data: 952225056
I0403 15:42:19.553678 12241 layer_factory.hpp:77] Creating layer inception_4b/3x3_reduce
I0403 15:42:19.553700 12241 net.cpp:91] Creating Layer inception_4b/3x3_reduce
I0403 15:42:19.553717 12241 net.cpp:425] inception_4b/3x3_reduce <- inception_4a/output_inception_4a/output_0_split_2
I0403 15:42:19.553740 12241 net.cpp:399] inception_4b/3x3_reduce -> inception_4b/3x3_reduce
I0403 15:42:19.555135 12241 net.cpp:141] Setting up inception_4b/3x3_reduce
I0403 15:42:19.555166 12241 net.cpp:148] Top shape: 24 112 14 14 (526848)
I0403 15:42:19.555183 12241 net.cpp:156] Memory required for data: 954332448
I0403 15:42:19.555203 12241 layer_factory.hpp:77] Creating layer inception_4b/relu_3x3_reduce
I0403 15:42:19.555222 12241 net.cpp:91] Creating Layer inception_4b/relu_3x3_reduce
I0403 15:42:19.555238 12241 net.cpp:425] inception_4b/relu_3x3_reduce <- inception_4b/3x3_reduce
I0403 15:42:19.555258 12241 net.cpp:386] inception_4b/relu_3x3_reduce -> inception_4b/3x3_reduce (in-place)
I0403 15:42:19.555560 12241 net.cpp:141] Setting up inception_4b/relu_3x3_reduce
I0403 15:42:19.555589 12241 net.cpp:148] Top shape: 24 112 14 14 (526848)
I0403 15:42:19.555605 12241 net.cpp:156] Memory required for data: 956439840
I0403 15:42:19.555620 12241 layer_factory.hpp:77] Creating layer inception_4b/3x3
I0403 15:42:19.555644 12241 net.cpp:91] Creating Layer inception_4b/3x3
I0403 15:42:19.555661 12241 net.cpp:425] inception_4b/3x3 <- inception_4b/3x3_reduce
I0403 15:42:19.555682 12241 net.cpp:399] inception_4b/3x3 -> inception_4b/3x3
I0403 15:42:19.558756 12241 net.cpp:141] Setting up inception_4b/3x3
I0403 15:42:19.558786 12241 net.cpp:148] Top shape: 24 224 14 14 (1053696)
I0403 15:42:19.558804 12241 net.cpp:156] Memory required for data: 960654624
I0403 15:42:19.558822 12241 layer_factory.hpp:77] Creating layer inception_4b/relu_3x3
I0403 15:42:19.558843 12241 net.cpp:91] Creating Layer inception_4b/relu_3x3
I0403 15:42:19.558861 12241 net.cpp:425] inception_4b/relu_3x3 <- inception_4b/3x3
I0403 15:42:19.558879 12241 net.cpp:386] inception_4b/relu_3x3 -> inception_4b/3x3 (in-place)
I0403 15:42:19.559067 12241 net.cpp:141] Setting up inception_4b/relu_3x3
I0403 15:42:19.559095 12241 net.cpp:148] Top shape: 24 224 14 14 (1053696)
I0403 15:42:19.559113 12241 net.cpp:156] Memory required for data: 964869408
I0403 15:42:19.559128 12241 layer_factory.hpp:77] Creating layer inception_4b/5x5_reduce
I0403 15:42:19.559149 12241 net.cpp:91] Creating Layer inception_4b/5x5_reduce
I0403 15:42:19.559165 12241 net.cpp:425] inception_4b/5x5_reduce <- inception_4a/output_inception_4a/output_0_split_3
I0403 15:42:19.559188 12241 net.cpp:399] inception_4b/5x5_reduce -> inception_4b/5x5_reduce
I0403 15:42:19.560327 12241 net.cpp:141] Setting up inception_4b/5x5_reduce
I0403 15:42:19.560358 12241 net.cpp:148] Top shape: 24 24 14 14 (112896)
I0403 15:42:19.560374 12241 net.cpp:156] Memory required for data: 965320992
I0403 15:42:19.560392 12241 layer_factory.hpp:77] Creating layer inception_4b/relu_5x5_reduce
I0403 15:42:19.560411 12241 net.cpp:91] Creating Layer inception_4b/relu_5x5_reduce
I0403 15:42:19.560443 12241 net.cpp:425] inception_4b/relu_5x5_reduce <- inception_4b/5x5_reduce
I0403 15:42:19.560463 12241 net.cpp:386] inception_4b/relu_5x5_reduce -> inception_4b/5x5_reduce (in-place)
I0403 15:42:19.560653 12241 net.cpp:141] Setting up inception_4b/relu_5x5_reduce
I0403 15:42:19.560679 12241 net.cpp:148] Top shape: 24 24 14 14 (112896)
I0403 15:42:19.560694 12241 net.cpp:156] Memory required for data: 965772576
I0403 15:42:19.560710 12241 layer_factory.hpp:77] Creating layer inception_4b/5x5
I0403 15:42:19.560734 12241 net.cpp:91] Creating Layer inception_4b/5x5
I0403 15:42:19.560750 12241 net.cpp:425] inception_4b/5x5 <- inception_4b/5x5_reduce
I0403 15:42:19.560771 12241 net.cpp:399] inception_4b/5x5 -> inception_4b/5x5
I0403 15:42:19.562044 12241 net.cpp:141] Setting up inception_4b/5x5
I0403 15:42:19.562073 12241 net.cpp:148] Top shape: 24 64 14 14 (301056)
I0403 15:42:19.562090 12241 net.cpp:156] Memory required for data: 966976800
I0403 15:42:19.562109 12241 layer_factory.hpp:77] Creating layer inception_4b/relu_5x5
I0403 15:42:19.562130 12241 net.cpp:91] Creating Layer inception_4b/relu_5x5
I0403 15:42:19.562149 12241 net.cpp:425] inception_4b/relu_5x5 <- inception_4b/5x5
I0403 15:42:19.562165 12241 net.cpp:386] inception_4b/relu_5x5 -> inception_4b/5x5 (in-place)
I0403 15:42:19.562474 12241 net.cpp:141] Setting up inception_4b/relu_5x5
I0403 15:42:19.562502 12241 net.cpp:148] Top shape: 24 64 14 14 (301056)
I0403 15:42:19.562518 12241 net.cpp:156] Memory required for data: 968181024
I0403 15:42:19.562533 12241 layer_factory.hpp:77] Creating layer inception_4b/pool
I0403 15:42:19.562557 12241 net.cpp:91] Creating Layer inception_4b/pool
I0403 15:42:19.562577 12241 net.cpp:425] inception_4b/pool <- inception_4a/output_inception_4a/output_0_split_4
I0403 15:42:19.562595 12241 net.cpp:399] inception_4b/pool -> inception_4b/pool
I0403 15:42:19.562664 12241 net.cpp:141] Setting up inception_4b/pool
I0403 15:42:19.562687 12241 net.cpp:148] Top shape: 24 512 14 14 (2408448)
I0403 15:42:19.562703 12241 net.cpp:156] Memory required for data: 977814816
I0403 15:42:19.562719 12241 layer_factory.hpp:77] Creating layer inception_4b/pool_proj
I0403 15:42:19.562741 12241 net.cpp:91] Creating Layer inception_4b/pool_proj
I0403 15:42:19.562759 12241 net.cpp:425] inception_4b/pool_proj <- inception_4b/pool
I0403 15:42:19.562780 12241 net.cpp:399] inception_4b/pool_proj -> inception_4b/pool_proj
I0403 15:42:19.564034 12241 net.cpp:141] Setting up inception_4b/pool_proj
I0403 15:42:19.564066 12241 net.cpp:148] Top shape: 24 64 14 14 (301056)
I0403 15:42:19.564084 12241 net.cpp:156] Memory required for data: 979019040
I0403 15:42:19.564102 12241 layer_factory.hpp:77] Creating layer inception_4b/relu_pool_proj
I0403 15:42:19.564121 12241 net.cpp:91] Creating Layer inception_4b/relu_pool_proj
I0403 15:42:19.564137 12241 net.cpp:425] inception_4b/relu_pool_proj <- inception_4b/pool_proj
I0403 15:42:19.564157 12241 net.cpp:386] inception_4b/relu_pool_proj -> inception_4b/pool_proj (in-place)
I0403 15:42:19.564354 12241 net.cpp:141] Setting up inception_4b/relu_pool_proj
I0403 15:42:19.564379 12241 net.cpp:148] Top shape: 24 64 14 14 (301056)
I0403 15:42:19.564394 12241 net.cpp:156] Memory required for data: 980223264
I0403 15:42:19.564409 12241 layer_factory.hpp:77] Creating layer inception_4b/output
I0403 15:42:19.564427 12241 net.cpp:91] Creating Layer inception_4b/output
I0403 15:42:19.564443 12241 net.cpp:425] inception_4b/output <- inception_4b/1x1
I0403 15:42:19.564460 12241 net.cpp:425] inception_4b/output <- inception_4b/3x3
I0403 15:42:19.564477 12241 net.cpp:425] inception_4b/output <- inception_4b/5x5
I0403 15:42:19.564494 12241 net.cpp:425] inception_4b/output <- inception_4b/pool_proj
I0403 15:42:19.564514 12241 net.cpp:399] inception_4b/output -> inception_4b/output
I0403 15:42:19.564561 12241 net.cpp:141] Setting up inception_4b/output
I0403 15:42:19.564587 12241 net.cpp:148] Top shape: 24 512 14 14 (2408448)
I0403 15:42:19.564604 12241 net.cpp:156] Memory required for data: 989857056
I0403 15:42:19.564633 12241 layer_factory.hpp:77] Creating layer inception_4b/output_inception_4b/output_0_split
I0403 15:42:19.564652 12241 net.cpp:91] Creating Layer inception_4b/output_inception_4b/output_0_split
I0403 15:42:19.564667 12241 net.cpp:425] inception_4b/output_inception_4b/output_0_split <- inception_4b/output
I0403 15:42:19.564685 12241 net.cpp:399] inception_4b/output_inception_4b/output_0_split -> inception_4b/output_inception_4b/output_0_split_0
I0403 15:42:19.564708 12241 net.cpp:399] inception_4b/output_inception_4b/output_0_split -> inception_4b/output_inception_4b/output_0_split_1
I0403 15:42:19.564731 12241 net.cpp:399] inception_4b/output_inception_4b/output_0_split -> inception_4b/output_inception_4b/output_0_split_2
I0403 15:42:19.564752 12241 net.cpp:399] inception_4b/output_inception_4b/output_0_split -> inception_4b/output_inception_4b/output_0_split_3
I0403 15:42:19.564838 12241 net.cpp:141] Setting up inception_4b/output_inception_4b/output_0_split
I0403 15:42:19.564862 12241 net.cpp:148] Top shape: 24 512 14 14 (2408448)
I0403 15:42:19.564878 12241 net.cpp:148] Top shape: 24 512 14 14 (2408448)
I0403 15:42:19.564894 12241 net.cpp:148] Top shape: 24 512 14 14 (2408448)
I0403 15:42:19.564910 12241 net.cpp:148] Top shape: 24 512 14 14 (2408448)
I0403 15:42:19.564924 12241 net.cpp:156] Memory required for data: 1028392224
I0403 15:42:19.564939 12241 layer_factory.hpp:77] Creating layer inception_4c/1x1
I0403 15:42:19.564962 12241 net.cpp:91] Creating Layer inception_4c/1x1
I0403 15:42:19.564980 12241 net.cpp:425] inception_4c/1x1 <- inception_4b/output_inception_4b/output_0_split_0
I0403 15:42:19.565002 12241 net.cpp:399] inception_4c/1x1 -> inception_4c/1x1
I0403 15:42:19.566507 12241 net.cpp:141] Setting up inception_4c/1x1
I0403 15:42:19.566536 12241 net.cpp:148] Top shape: 24 128 14 14 (602112)
I0403 15:42:19.566552 12241 net.cpp:156] Memory required for data: 1030800672
I0403 15:42:19.566572 12241 layer_factory.hpp:77] Creating layer inception_4c/relu_1x1
I0403 15:42:19.566591 12241 net.cpp:91] Creating Layer inception_4c/relu_1x1
I0403 15:42:19.566606 12241 net.cpp:425] inception_4c/relu_1x1 <- inception_4c/1x1
I0403 15:42:19.566627 12241 net.cpp:386] inception_4c/relu_1x1 -> inception_4c/1x1 (in-place)
I0403 15:42:19.566817 12241 net.cpp:141] Setting up inception_4c/relu_1x1
I0403 15:42:19.566844 12241 net.cpp:148] Top shape: 24 128 14 14 (602112)
I0403 15:42:19.566859 12241 net.cpp:156] Memory required for data: 1033209120
I0403 15:42:19.566874 12241 layer_factory.hpp:77] Creating layer inception_4c/3x3_reduce
I0403 15:42:19.566896 12241 net.cpp:91] Creating Layer inception_4c/3x3_reduce
I0403 15:42:19.566913 12241 net.cpp:425] inception_4c/3x3_reduce <- inception_4b/output_inception_4b/output_0_split_1
I0403 15:42:19.566938 12241 net.cpp:399] inception_4c/3x3_reduce -> inception_4c/3x3_reduce
I0403 15:42:19.568943 12241 net.cpp:141] Setting up inception_4c/3x3_reduce
I0403 15:42:19.568974 12241 net.cpp:148] Top shape: 24 128 14 14 (602112)
I0403 15:42:19.568992 12241 net.cpp:156] Memory required for data: 1035617568
I0403 15:42:19.569012 12241 layer_factory.hpp:77] Creating layer inception_4c/relu_3x3_reduce
I0403 15:42:19.569031 12241 net.cpp:91] Creating Layer inception_4c/relu_3x3_reduce
I0403 15:42:19.569046 12241 net.cpp:425] inception_4c/relu_3x3_reduce <- inception_4c/3x3_reduce
I0403 15:42:19.569063 12241 net.cpp:386] inception_4c/relu_3x3_reduce -> inception_4c/3x3_reduce (in-place)
I0403 15:42:19.569360 12241 net.cpp:141] Setting up inception_4c/relu_3x3_reduce
I0403 15:42:19.569386 12241 net.cpp:148] Top shape: 24 128 14 14 (602112)
I0403 15:42:19.569404 12241 net.cpp:156] Memory required for data: 1038026016
I0403 15:42:19.569419 12241 layer_factory.hpp:77] Creating layer inception_4c/3x3
I0403 15:42:19.569438 12241 net.cpp:91] Creating Layer inception_4c/3x3
I0403 15:42:19.569455 12241 net.cpp:425] inception_4c/3x3 <- inception_4c/3x3_reduce
I0403 15:42:19.569478 12241 net.cpp:399] inception_4c/3x3 -> inception_4c/3x3
I0403 15:42:19.573117 12241 net.cpp:141] Setting up inception_4c/3x3
I0403 15:42:19.573159 12241 net.cpp:148] Top shape: 24 256 14 14 (1204224)
I0403 15:42:19.573178 12241 net.cpp:156] Memory required for data: 1042842912
I0403 15:42:19.573210 12241 layer_factory.hpp:77] Creating layer inception_4c/relu_3x3
I0403 15:42:19.573230 12241 net.cpp:91] Creating Layer inception_4c/relu_3x3
I0403 15:42:19.573246 12241 net.cpp:425] inception_4c/relu_3x3 <- inception_4c/3x3
I0403 15:42:19.573266 12241 net.cpp:386] inception_4c/relu_3x3 -> inception_4c/3x3 (in-place)
I0403 15:42:19.573458 12241 net.cpp:141] Setting up inception_4c/relu_3x3
I0403 15:42:19.573487 12241 net.cpp:148] Top shape: 24 256 14 14 (1204224)
I0403 15:42:19.573503 12241 net.cpp:156] Memory required for data: 1047659808
I0403 15:42:19.573518 12241 layer_factory.hpp:77] Creating layer inception_4c/5x5_reduce
I0403 15:42:19.573540 12241 net.cpp:91] Creating Layer inception_4c/5x5_reduce
I0403 15:42:19.573559 12241 net.cpp:425] inception_4c/5x5_reduce <- inception_4b/output_inception_4b/output_0_split_2
I0403 15:42:19.573577 12241 net.cpp:399] inception_4c/5x5_reduce -> inception_4c/5x5_reduce
I0403 15:42:19.574679 12241 net.cpp:141] Setting up inception_4c/5x5_reduce
I0403 15:42:19.574709 12241 net.cpp:148] Top shape: 24 24 14 14 (112896)
I0403 15:42:19.574726 12241 net.cpp:156] Memory required for data: 1048111392
I0403 15:42:19.574745 12241 layer_factory.hpp:77] Creating layer inception_4c/relu_5x5_reduce
I0403 15:42:19.574764 12241 net.cpp:91] Creating Layer inception_4c/relu_5x5_reduce
I0403 15:42:19.574780 12241 net.cpp:425] inception_4c/relu_5x5_reduce <- inception_4c/5x5_reduce
I0403 15:42:19.574797 12241 net.cpp:386] inception_4c/relu_5x5_reduce -> inception_4c/5x5_reduce (in-place)
I0403 15:42:19.574986 12241 net.cpp:141] Setting up inception_4c/relu_5x5_reduce
I0403 15:42:19.575011 12241 net.cpp:148] Top shape: 24 24 14 14 (112896)
I0403 15:42:19.575026 12241 net.cpp:156] Memory required for data: 1048562976
I0403 15:42:19.575042 12241 layer_factory.hpp:77] Creating layer inception_4c/5x5
I0403 15:42:19.575063 12241 net.cpp:91] Creating Layer inception_4c/5x5
I0403 15:42:19.575080 12241 net.cpp:425] inception_4c/5x5 <- inception_4c/5x5_reduce
I0403 15:42:19.575101 12241 net.cpp:399] inception_4c/5x5 -> inception_4c/5x5
I0403 15:42:19.576362 12241 net.cpp:141] Setting up inception_4c/5x5
I0403 15:42:19.576390 12241 net.cpp:148] Top shape: 24 64 14 14 (301056)
I0403 15:42:19.576406 12241 net.cpp:156] Memory required for data: 1049767200
I0403 15:42:19.576423 12241 layer_factory.hpp:77] Creating layer inception_4c/relu_5x5
I0403 15:42:19.576441 12241 net.cpp:91] Creating Layer inception_4c/relu_5x5
I0403 15:42:19.576457 12241 net.cpp:425] inception_4c/relu_5x5 <- inception_4c/5x5
I0403 15:42:19.576477 12241 net.cpp:386] inception_4c/relu_5x5 -> inception_4c/5x5 (in-place)
I0403 15:42:19.576781 12241 net.cpp:141] Setting up inception_4c/relu_5x5
I0403 15:42:19.576807 12241 net.cpp:148] Top shape: 24 64 14 14 (301056)
I0403 15:42:19.576822 12241 net.cpp:156] Memory required for data: 1050971424
I0403 15:42:19.576838 12241 layer_factory.hpp:77] Creating layer inception_4c/pool
I0403 15:42:19.576856 12241 net.cpp:91] Creating Layer inception_4c/pool
I0403 15:42:19.576872 12241 net.cpp:425] inception_4c/pool <- inception_4b/output_inception_4b/output_0_split_3
I0403 15:42:19.576894 12241 net.cpp:399] inception_4c/pool -> inception_4c/pool
I0403 15:42:19.576961 12241 net.cpp:141] Setting up inception_4c/pool
I0403 15:42:19.576987 12241 net.cpp:148] Top shape: 24 512 14 14 (2408448)
I0403 15:42:19.577002 12241 net.cpp:156] Memory required for data: 1060605216
I0403 15:42:19.577018 12241 layer_factory.hpp:77] Creating layer inception_4c/pool_proj
I0403 15:42:19.577040 12241 net.cpp:91] Creating Layer inception_4c/pool_proj
I0403 15:42:19.577059 12241 net.cpp:425] inception_4c/pool_proj <- inception_4c/pool
I0403 15:42:19.577078 12241 net.cpp:399] inception_4c/pool_proj -> inception_4c/pool_proj
I0403 15:42:19.578358 12241 net.cpp:141] Setting up inception_4c/pool_proj
I0403 15:42:19.578389 12241 net.cpp:148] Top shape: 24 64 14 14 (301056)
I0403 15:42:19.578419 12241 net.cpp:156] Memory required for data: 1061809440
I0403 15:42:19.578439 12241 layer_factory.hpp:77] Creating layer inception_4c/relu_pool_proj
I0403 15:42:19.578459 12241 net.cpp:91] Creating Layer inception_4c/relu_pool_proj
I0403 15:42:19.578474 12241 net.cpp:425] inception_4c/relu_pool_proj <- inception_4c/pool_proj
I0403 15:42:19.578495 12241 net.cpp:386] inception_4c/relu_pool_proj -> inception_4c/pool_proj (in-place)
I0403 15:42:19.578688 12241 net.cpp:141] Setting up inception_4c/relu_pool_proj
I0403 15:42:19.578713 12241 net.cpp:148] Top shape: 24 64 14 14 (301056)
I0403 15:42:19.578728 12241 net.cpp:156] Memory required for data: 1063013664
I0403 15:42:19.578743 12241 layer_factory.hpp:77] Creating layer inception_4c/output
I0403 15:42:19.578760 12241 net.cpp:91] Creating Layer inception_4c/output
I0403 15:42:19.578776 12241 net.cpp:425] inception_4c/output <- inception_4c/1x1
I0403 15:42:19.578793 12241 net.cpp:425] inception_4c/output <- inception_4c/3x3
I0403 15:42:19.578809 12241 net.cpp:425] inception_4c/output <- inception_4c/5x5
I0403 15:42:19.578825 12241 net.cpp:425] inception_4c/output <- inception_4c/pool_proj
I0403 15:42:19.578845 12241 net.cpp:399] inception_4c/output -> inception_4c/output
I0403 15:42:19.578893 12241 net.cpp:141] Setting up inception_4c/output
I0403 15:42:19.578920 12241 net.cpp:148] Top shape: 24 512 14 14 (2408448)
I0403 15:42:19.578936 12241 net.cpp:156] Memory required for data: 1072647456
I0403 15:42:19.578953 12241 layer_factory.hpp:77] Creating layer inception_4c/output_inception_4c/output_0_split
I0403 15:42:19.578969 12241 net.cpp:91] Creating Layer inception_4c/output_inception_4c/output_0_split
I0403 15:42:19.578984 12241 net.cpp:425] inception_4c/output_inception_4c/output_0_split <- inception_4c/output
I0403 15:42:19.579002 12241 net.cpp:399] inception_4c/output_inception_4c/output_0_split -> inception_4c/output_inception_4c/output_0_split_0
I0403 15:42:19.579022 12241 net.cpp:399] inception_4c/output_inception_4c/output_0_split -> inception_4c/output_inception_4c/output_0_split_1
I0403 15:42:19.579046 12241 net.cpp:399] inception_4c/output_inception_4c/output_0_split -> inception_4c/output_inception_4c/output_0_split_2
I0403 15:42:19.579068 12241 net.cpp:399] inception_4c/output_inception_4c/output_0_split -> inception_4c/output_inception_4c/output_0_split_3
I0403 15:42:19.579157 12241 net.cpp:141] Setting up inception_4c/output_inception_4c/output_0_split
I0403 15:42:19.579180 12241 net.cpp:148] Top shape: 24 512 14 14 (2408448)
I0403 15:42:19.579197 12241 net.cpp:148] Top shape: 24 512 14 14 (2408448)
I0403 15:42:19.579212 12241 net.cpp:148] Top shape: 24 512 14 14 (2408448)
I0403 15:42:19.579227 12241 net.cpp:148] Top shape: 24 512 14 14 (2408448)
I0403 15:42:19.579241 12241 net.cpp:156] Memory required for data: 1111182624
I0403 15:42:19.579255 12241 layer_factory.hpp:77] Creating layer inception_4d/1x1
I0403 15:42:19.579277 12241 net.cpp:91] Creating Layer inception_4d/1x1
I0403 15:42:19.579295 12241 net.cpp:425] inception_4d/1x1 <- inception_4c/output_inception_4c/output_0_split_0
I0403 15:42:19.579324 12241 net.cpp:399] inception_4d/1x1 -> inception_4d/1x1
I0403 15:42:19.580827 12241 net.cpp:141] Setting up inception_4d/1x1
I0403 15:42:19.580857 12241 net.cpp:148] Top shape: 24 112 14 14 (526848)
I0403 15:42:19.580873 12241 net.cpp:156] Memory required for data: 1113290016
I0403 15:42:19.580893 12241 layer_factory.hpp:77] Creating layer inception_4d/relu_1x1
I0403 15:42:19.580914 12241 net.cpp:91] Creating Layer inception_4d/relu_1x1
I0403 15:42:19.580931 12241 net.cpp:425] inception_4d/relu_1x1 <- inception_4d/1x1
I0403 15:42:19.580950 12241 net.cpp:386] inception_4d/relu_1x1 -> inception_4d/1x1 (in-place)
I0403 15:42:19.581151 12241 net.cpp:141] Setting up inception_4d/relu_1x1
I0403 15:42:19.581181 12241 net.cpp:148] Top shape: 24 112 14 14 (526848)
I0403 15:42:19.581197 12241 net.cpp:156] Memory required for data: 1115397408
I0403 15:42:19.581212 12241 layer_factory.hpp:77] Creating layer inception_4d/3x3_reduce
I0403 15:42:19.581249 12241 net.cpp:91] Creating Layer inception_4d/3x3_reduce
I0403 15:42:19.581269 12241 net.cpp:425] inception_4d/3x3_reduce <- inception_4c/output_inception_4c/output_0_split_1
I0403 15:42:19.581290 12241 net.cpp:399] inception_4d/3x3_reduce -> inception_4d/3x3_reduce
I0403 15:42:19.582926 12241 net.cpp:141] Setting up inception_4d/3x3_reduce
I0403 15:42:19.582955 12241 net.cpp:148] Top shape: 24 144 14 14 (677376)
I0403 15:42:19.582972 12241 net.cpp:156] Memory required for data: 1118106912
I0403 15:42:19.582991 12241 layer_factory.hpp:77] Creating layer inception_4d/relu_3x3_reduce
I0403 15:42:19.583012 12241 net.cpp:91] Creating Layer inception_4d/relu_3x3_reduce
I0403 15:42:19.583029 12241 net.cpp:425] inception_4d/relu_3x3_reduce <- inception_4d/3x3_reduce
I0403 15:42:19.583048 12241 net.cpp:386] inception_4d/relu_3x3_reduce -> inception_4d/3x3_reduce (in-place)
I0403 15:42:19.583367 12241 net.cpp:141] Setting up inception_4d/relu_3x3_reduce
I0403 15:42:19.583395 12241 net.cpp:148] Top shape: 24 144 14 14 (677376)
I0403 15:42:19.583411 12241 net.cpp:156] Memory required for data: 1120816416
I0403 15:42:19.583427 12241 layer_factory.hpp:77] Creating layer inception_4d/3x3
I0403 15:42:19.583451 12241 net.cpp:91] Creating Layer inception_4d/3x3
I0403 15:42:19.583469 12241 net.cpp:425] inception_4d/3x3 <- inception_4d/3x3_reduce
I0403 15:42:19.583492 12241 net.cpp:399] inception_4d/3x3 -> inception_4d/3x3
I0403 15:42:19.587913 12241 net.cpp:141] Setting up inception_4d/3x3
I0403 15:42:19.587942 12241 net.cpp:148] Top shape: 24 288 14 14 (1354752)
I0403 15:42:19.587959 12241 net.cpp:156] Memory required for data: 1126235424
I0403 15:42:19.587977 12241 layer_factory.hpp:77] Creating layer inception_4d/relu_3x3
I0403 15:42:19.587998 12241 net.cpp:91] Creating Layer inception_4d/relu_3x3
I0403 15:42:19.588016 12241 net.cpp:425] inception_4d/relu_3x3 <- inception_4d/3x3
I0403 15:42:19.588033 12241 net.cpp:386] inception_4d/relu_3x3 -> inception_4d/3x3 (in-place)
I0403 15:42:19.588228 12241 net.cpp:141] Setting up inception_4d/relu_3x3
I0403 15:42:19.588255 12241 net.cpp:148] Top shape: 24 288 14 14 (1354752)
I0403 15:42:19.588271 12241 net.cpp:156] Memory required for data: 1131654432
I0403 15:42:19.588286 12241 layer_factory.hpp:77] Creating layer inception_4d/5x5_reduce
I0403 15:42:19.588309 12241 net.cpp:91] Creating Layer inception_4d/5x5_reduce
I0403 15:42:19.588335 12241 net.cpp:425] inception_4d/5x5_reduce <- inception_4c/output_inception_4c/output_0_split_2
I0403 15:42:19.588356 12241 net.cpp:399] inception_4d/5x5_reduce -> inception_4d/5x5_reduce
I0403 15:42:19.589550 12241 net.cpp:141] Setting up inception_4d/5x5_reduce
I0403 15:42:19.589578 12241 net.cpp:148] Top shape: 24 32 14 14 (150528)
I0403 15:42:19.589594 12241 net.cpp:156] Memory required for data: 1132256544
I0403 15:42:19.589613 12241 layer_factory.hpp:77] Creating layer inception_4d/relu_5x5_reduce
I0403 15:42:19.589634 12241 net.cpp:91] Creating Layer inception_4d/relu_5x5_reduce
I0403 15:42:19.589651 12241 net.cpp:425] inception_4d/relu_5x5_reduce <- inception_4d/5x5_reduce
I0403 15:42:19.589669 12241 net.cpp:386] inception_4d/relu_5x5_reduce -> inception_4d/5x5_reduce (in-place)
I0403 15:42:19.589862 12241 net.cpp:141] Setting up inception_4d/relu_5x5_reduce
I0403 15:42:19.589891 12241 net.cpp:148] Top shape: 24 32 14 14 (150528)
I0403 15:42:19.589907 12241 net.cpp:156] Memory required for data: 1132858656
I0403 15:42:19.589922 12241 layer_factory.hpp:77] Creating layer inception_4d/5x5
I0403 15:42:19.589944 12241 net.cpp:91] Creating Layer inception_4d/5x5
I0403 15:42:19.589962 12241 net.cpp:425] inception_4d/5x5 <- inception_4d/5x5_reduce
I0403 15:42:19.589982 12241 net.cpp:399] inception_4d/5x5 -> inception_4d/5x5
I0403 15:42:19.591534 12241 net.cpp:141] Setting up inception_4d/5x5
I0403 15:42:19.591564 12241 net.cpp:148] Top shape: 24 64 14 14 (301056)
I0403 15:42:19.591580 12241 net.cpp:156] Memory required for data: 1134062880
I0403 15:42:19.591599 12241 layer_factory.hpp:77] Creating layer inception_4d/relu_5x5
I0403 15:42:19.591634 12241 net.cpp:91] Creating Layer inception_4d/relu_5x5
I0403 15:42:19.591651 12241 net.cpp:425] inception_4d/relu_5x5 <- inception_4d/5x5
I0403 15:42:19.591671 12241 net.cpp:386] inception_4d/relu_5x5 -> inception_4d/5x5 (in-place)
I0403 15:42:19.591986 12241 net.cpp:141] Setting up inception_4d/relu_5x5
I0403 15:42:19.592015 12241 net.cpp:148] Top shape: 24 64 14 14 (301056)
I0403 15:42:19.592031 12241 net.cpp:156] Memory required for data: 1135267104
I0403 15:42:19.592046 12241 layer_factory.hpp:77] Creating layer inception_4d/pool
I0403 15:42:19.592064 12241 net.cpp:91] Creating Layer inception_4d/pool
I0403 15:42:19.592080 12241 net.cpp:425] inception_4d/pool <- inception_4c/output_inception_4c/output_0_split_3
I0403 15:42:19.592102 12241 net.cpp:399] inception_4d/pool -> inception_4d/pool
I0403 15:42:19.592170 12241 net.cpp:141] Setting up inception_4d/pool
I0403 15:42:19.592195 12241 net.cpp:148] Top shape: 24 512 14 14 (2408448)
I0403 15:42:19.592209 12241 net.cpp:156] Memory required for data: 1144900896
I0403 15:42:19.592223 12241 layer_factory.hpp:77] Creating layer inception_4d/pool_proj
I0403 15:42:19.592247 12241 net.cpp:91] Creating Layer inception_4d/pool_proj
I0403 15:42:19.592265 12241 net.cpp:425] inception_4d/pool_proj <- inception_4d/pool
I0403 15:42:19.592284 12241 net.cpp:399] inception_4d/pool_proj -> inception_4d/pool_proj
I0403 15:42:19.594115 12241 net.cpp:141] Setting up inception_4d/pool_proj
I0403 15:42:19.594143 12241 net.cpp:148] Top shape: 24 64 14 14 (301056)
I0403 15:42:19.594159 12241 net.cpp:156] Memory required for data: 1146105120
I0403 15:42:19.594177 12241 layer_factory.hpp:77] Creating layer inception_4d/relu_pool_proj
I0403 15:42:19.594199 12241 net.cpp:91] Creating Layer inception_4d/relu_pool_proj
I0403 15:42:19.594218 12241 net.cpp:425] inception_4d/relu_pool_proj <- inception_4d/pool_proj
I0403 15:42:19.594235 12241 net.cpp:386] inception_4d/relu_pool_proj -> inception_4d/pool_proj (in-place)
I0403 15:42:19.594441 12241 net.cpp:141] Setting up inception_4d/relu_pool_proj
I0403 15:42:19.594470 12241 net.cpp:148] Top shape: 24 64 14 14 (301056)
I0403 15:42:19.594485 12241 net.cpp:156] Memory required for data: 1147309344
I0403 15:42:19.594499 12241 layer_factory.hpp:77] Creating layer inception_4d/output
I0403 15:42:19.594517 12241 net.cpp:91] Creating Layer inception_4d/output
I0403 15:42:19.594533 12241 net.cpp:425] inception_4d/output <- inception_4d/1x1
I0403 15:42:19.594550 12241 net.cpp:425] inception_4d/output <- inception_4d/3x3
I0403 15:42:19.594566 12241 net.cpp:425] inception_4d/output <- inception_4d/5x5
I0403 15:42:19.594583 12241 net.cpp:425] inception_4d/output <- inception_4d/pool_proj
I0403 15:42:19.594602 12241 net.cpp:399] inception_4d/output -> inception_4d/output
I0403 15:42:19.594651 12241 net.cpp:141] Setting up inception_4d/output
I0403 15:42:19.594674 12241 net.cpp:148] Top shape: 24 528 14 14 (2483712)
I0403 15:42:19.594689 12241 net.cpp:156] Memory required for data: 1157244192
I0403 15:42:19.594704 12241 layer_factory.hpp:77] Creating layer inception_4d/output_inception_4d/output_0_split
I0403 15:42:19.594724 12241 net.cpp:91] Creating Layer inception_4d/output_inception_4d/output_0_split
I0403 15:42:19.594741 12241 net.cpp:425] inception_4d/output_inception_4d/output_0_split <- inception_4d/output
I0403 15:42:19.594759 12241 net.cpp:399] inception_4d/output_inception_4d/output_0_split -> inception_4d/output_inception_4d/output_0_split_0
I0403 15:42:19.594780 12241 net.cpp:399] inception_4d/output_inception_4d/output_0_split -> inception_4d/output_inception_4d/output_0_split_1
I0403 15:42:19.594806 12241 net.cpp:399] inception_4d/output_inception_4d/output_0_split -> inception_4d/output_inception_4d/output_0_split_2
I0403 15:42:19.594827 12241 net.cpp:399] inception_4d/output_inception_4d/output_0_split -> inception_4d/output_inception_4d/output_0_split_3
I0403 15:42:19.594847 12241 net.cpp:399] inception_4d/output_inception_4d/output_0_split -> inception_4d/output_inception_4d/output_0_split_4
I0403 15:42:19.594951 12241 net.cpp:141] Setting up inception_4d/output_inception_4d/output_0_split
I0403 15:42:19.594987 12241 net.cpp:148] Top shape: 24 528 14 14 (2483712)
I0403 15:42:19.595005 12241 net.cpp:148] Top shape: 24 528 14 14 (2483712)
I0403 15:42:19.595021 12241 net.cpp:148] Top shape: 24 528 14 14 (2483712)
I0403 15:42:19.595037 12241 net.cpp:148] Top shape: 24 528 14 14 (2483712)
I0403 15:42:19.595052 12241 net.cpp:148] Top shape: 24 528 14 14 (2483712)
I0403 15:42:19.595067 12241 net.cpp:156] Memory required for data: 1206918432
I0403 15:42:19.595082 12241 layer_factory.hpp:77] Creating layer loss2/ave_pool
I0403 15:42:19.595098 12241 net.cpp:91] Creating Layer loss2/ave_pool
I0403 15:42:19.595115 12241 net.cpp:425] loss2/ave_pool <- inception_4d/output_inception_4d/output_0_split_0
I0403 15:42:19.595136 12241 net.cpp:399] loss2/ave_pool -> loss2/ave_pool
I0403 15:42:19.595469 12241 net.cpp:141] Setting up loss2/ave_pool
I0403 15:42:19.595497 12241 net.cpp:148] Top shape: 24 528 4 4 (202752)
I0403 15:42:19.595512 12241 net.cpp:156] Memory required for data: 1207729440
I0403 15:42:19.595528 12241 layer_factory.hpp:77] Creating layer loss2/conv
I0403 15:42:19.595551 12241 net.cpp:91] Creating Layer loss2/conv
I0403 15:42:19.595733 12241 net.cpp:425] loss2/conv <- loss2/ave_pool
I0403 15:42:19.595794 12241 net.cpp:399] loss2/conv -> loss2/conv
I0403 15:42:19.597882 12241 net.cpp:141] Setting up loss2/conv
I0403 15:42:19.597913 12241 net.cpp:148] Top shape: 24 128 4 4 (49152)
I0403 15:42:19.597930 12241 net.cpp:156] Memory required for data: 1207926048
I0403 15:42:19.597949 12241 layer_factory.hpp:77] Creating layer loss2/relu_conv
I0403 15:42:19.597968 12241 net.cpp:91] Creating Layer loss2/relu_conv
I0403 15:42:19.597985 12241 net.cpp:425] loss2/relu_conv <- loss2/conv
I0403 15:42:19.598006 12241 net.cpp:386] loss2/relu_conv -> loss2/conv (in-place)
I0403 15:42:19.598307 12241 net.cpp:141] Setting up loss2/relu_conv
I0403 15:42:19.598341 12241 net.cpp:148] Top shape: 24 128 4 4 (49152)
I0403 15:42:19.598357 12241 net.cpp:156] Memory required for data: 1208122656
I0403 15:42:19.598372 12241 layer_factory.hpp:77] Creating layer loss2/fc
I0403 15:42:19.598392 12241 net.cpp:91] Creating Layer loss2/fc
I0403 15:42:19.598407 12241 net.cpp:425] loss2/fc <- loss2/conv
I0403 15:42:19.598428 12241 net.cpp:399] loss2/fc -> loss2/fc
I0403 15:42:19.616152 12241 net.cpp:141] Setting up loss2/fc
I0403 15:42:19.616183 12241 net.cpp:148] Top shape: 24 1024 (24576)
I0403 15:42:19.616199 12241 net.cpp:156] Memory required for data: 1208220960
I0403 15:42:19.616219 12241 layer_factory.hpp:77] Creating layer loss2/relu_fc
I0403 15:42:19.616240 12241 net.cpp:91] Creating Layer loss2/relu_fc
I0403 15:42:19.616257 12241 net.cpp:425] loss2/relu_fc <- loss2/fc
I0403 15:42:19.616276 12241 net.cpp:386] loss2/relu_fc -> loss2/fc (in-place)
I0403 15:42:19.616600 12241 net.cpp:141] Setting up loss2/relu_fc
I0403 15:42:19.616626 12241 net.cpp:148] Top shape: 24 1024 (24576)
I0403 15:42:19.616642 12241 net.cpp:156] Memory required for data: 1208319264
I0403 15:42:19.616658 12241 layer_factory.hpp:77] Creating layer loss2/drop_fc
I0403 15:42:19.616678 12241 net.cpp:91] Creating Layer loss2/drop_fc
I0403 15:42:19.616695 12241 net.cpp:425] loss2/drop_fc <- loss2/fc
I0403 15:42:19.616714 12241 net.cpp:386] loss2/drop_fc -> loss2/fc (in-place)
I0403 15:42:19.616766 12241 net.cpp:141] Setting up loss2/drop_fc
I0403 15:42:19.616789 12241 net.cpp:148] Top shape: 24 1024 (24576)
I0403 15:42:19.616804 12241 net.cpp:156] Memory required for data: 1208417568
I0403 15:42:19.616819 12241 layer_factory.hpp:77] Creating layer loss2/classifier_plantvillage
I0403 15:42:19.616842 12241 net.cpp:91] Creating Layer loss2/classifier_plantvillage
I0403 15:42:19.616858 12241 net.cpp:425] loss2/classifier_plantvillage <- loss2/fc
I0403 15:42:19.616878 12241 net.cpp:399] loss2/classifier_plantvillage -> loss2/classifier_plantvillage
I0403 15:42:19.617301 12241 net.cpp:141] Setting up loss2/classifier_plantvillage
I0403 15:42:19.617333 12241 net.cpp:148] Top shape: 24 38 (912)
I0403 15:42:19.617367 12241 net.cpp:156] Memory required for data: 1208421216
I0403 15:42:19.617386 12241 layer_factory.hpp:77] Creating layer loss2/classifier_plantvillage_loss2/classifier_plantvillage_0_split
I0403 15:42:19.617404 12241 net.cpp:91] Creating Layer loss2/classifier_plantvillage_loss2/classifier_plantvillage_0_split
I0403 15:42:19.617421 12241 net.cpp:425] loss2/classifier_plantvillage_loss2/classifier_plantvillage_0_split <- loss2/classifier_plantvillage
I0403 15:42:19.617441 12241 net.cpp:399] loss2/classifier_plantvillage_loss2/classifier_plantvillage_0_split -> loss2/classifier_plantvillage_loss2/classifier_plantvillage_0_split_0
I0403 15:42:19.617465 12241 net.cpp:399] loss2/classifier_plantvillage_loss2/classifier_plantvillage_0_split -> loss2/classifier_plantvillage_loss2/classifier_plantvillage_0_split_1
I0403 15:42:19.617486 12241 net.cpp:399] loss2/classifier_plantvillage_loss2/classifier_plantvillage_0_split -> loss2/classifier_plantvillage_loss2/classifier_plantvillage_0_split_2
I0403 15:42:19.617564 12241 net.cpp:141] Setting up loss2/classifier_plantvillage_loss2/classifier_plantvillage_0_split
I0403 15:42:19.617590 12241 net.cpp:148] Top shape: 24 38 (912)
I0403 15:42:19.617607 12241 net.cpp:148] Top shape: 24 38 (912)
I0403 15:42:19.617624 12241 net.cpp:148] Top shape: 24 38 (912)
I0403 15:42:19.617637 12241 net.cpp:156] Memory required for data: 1208432160
I0403 15:42:19.617652 12241 layer_factory.hpp:77] Creating layer inception_4e/1x1
I0403 15:42:19.617671 12241 net.cpp:91] Creating Layer inception_4e/1x1
I0403 15:42:19.617688 12241 net.cpp:425] inception_4e/1x1 <- inception_4d/output_inception_4d/output_0_split_1
I0403 15:42:19.617707 12241 net.cpp:399] inception_4e/1x1 -> inception_4e/1x1
I0403 15:42:19.619613 12241 net.cpp:141] Setting up inception_4e/1x1
I0403 15:42:19.619642 12241 net.cpp:148] Top shape: 24 256 14 14 (1204224)
I0403 15:42:19.619658 12241 net.cpp:156] Memory required for data: 1213249056
I0403 15:42:19.619678 12241 layer_factory.hpp:77] Creating layer inception_4e/relu_1x1
I0403 15:42:19.619695 12241 net.cpp:91] Creating Layer inception_4e/relu_1x1
I0403 15:42:19.619712 12241 net.cpp:425] inception_4e/relu_1x1 <- inception_4e/1x1
I0403 15:42:19.619732 12241 net.cpp:386] inception_4e/relu_1x1 -> inception_4e/1x1 (in-place)
I0403 15:42:19.620049 12241 net.cpp:141] Setting up inception_4e/relu_1x1
I0403 15:42:19.620075 12241 net.cpp:148] Top shape: 24 256 14 14 (1204224)
I0403 15:42:19.620090 12241 net.cpp:156] Memory required for data: 1218065952
I0403 15:42:19.620105 12241 layer_factory.hpp:77] Creating layer inception_4e/3x3_reduce
I0403 15:42:19.620128 12241 net.cpp:91] Creating Layer inception_4e/3x3_reduce
I0403 15:42:19.620146 12241 net.cpp:425] inception_4e/3x3_reduce <- inception_4d/output_inception_4d/output_0_split_2
I0403 15:42:19.620167 12241 net.cpp:399] inception_4e/3x3_reduce -> inception_4e/3x3_reduce
I0403 15:42:19.622392 12241 net.cpp:141] Setting up inception_4e/3x3_reduce
I0403 15:42:19.622426 12241 net.cpp:148] Top shape: 24 160 14 14 (752640)
I0403 15:42:19.622442 12241 net.cpp:156] Memory required for data: 1221076512
I0403 15:42:19.622462 12241 layer_factory.hpp:77] Creating layer inception_4e/relu_3x3_reduce
I0403 15:42:19.622479 12241 net.cpp:91] Creating Layer inception_4e/relu_3x3_reduce
I0403 15:42:19.622495 12241 net.cpp:425] inception_4e/relu_3x3_reduce <- inception_4e/3x3_reduce
I0403 15:42:19.622515 12241 net.cpp:386] inception_4e/relu_3x3_reduce -> inception_4e/3x3_reduce (in-place)
I0403 15:42:19.622714 12241 net.cpp:141] Setting up inception_4e/relu_3x3_reduce
I0403 15:42:19.622740 12241 net.cpp:148] Top shape: 24 160 14 14 (752640)
I0403 15:42:19.622755 12241 net.cpp:156] Memory required for data: 1224087072
I0403 15:42:19.622769 12241 layer_factory.hpp:77] Creating layer inception_4e/3x3
I0403 15:42:19.622792 12241 net.cpp:91] Creating Layer inception_4e/3x3
I0403 15:42:19.622809 12241 net.cpp:425] inception_4e/3x3 <- inception_4e/3x3_reduce
I0403 15:42:19.622833 12241 net.cpp:399] inception_4e/3x3 -> inception_4e/3x3
I0403 15:42:19.628003 12241 net.cpp:141] Setting up inception_4e/3x3
I0403 15:42:19.628047 12241 net.cpp:148] Top shape: 24 320 14 14 (1505280)
I0403 15:42:19.628065 12241 net.cpp:156] Memory required for data: 1230108192
I0403 15:42:19.628083 12241 layer_factory.hpp:77] Creating layer inception_4e/relu_3x3
I0403 15:42:19.628103 12241 net.cpp:91] Creating Layer inception_4e/relu_3x3
I0403 15:42:19.628119 12241 net.cpp:425] inception_4e/relu_3x3 <- inception_4e/3x3
I0403 15:42:19.628139 12241 net.cpp:386] inception_4e/relu_3x3 -> inception_4e/3x3 (in-place)
I0403 15:42:19.628460 12241 net.cpp:141] Setting up inception_4e/relu_3x3
I0403 15:42:19.628489 12241 net.cpp:148] Top shape: 24 320 14 14 (1505280)
I0403 15:42:19.628504 12241 net.cpp:156] Memory required for data: 1236129312
I0403 15:42:19.628518 12241 layer_factory.hpp:77] Creating layer inception_4e/5x5_reduce
I0403 15:42:19.628545 12241 net.cpp:91] Creating Layer inception_4e/5x5_reduce
I0403 15:42:19.628562 12241 net.cpp:425] inception_4e/5x5_reduce <- inception_4d/output_inception_4d/output_0_split_3
I0403 15:42:19.628585 12241 net.cpp:399] inception_4e/5x5_reduce -> inception_4e/5x5_reduce
I0403 15:42:19.629705 12241 net.cpp:141] Setting up inception_4e/5x5_reduce
I0403 15:42:19.629735 12241 net.cpp:148] Top shape: 24 32 14 14 (150528)
I0403 15:42:19.629751 12241 net.cpp:156] Memory required for data: 1236731424
I0403 15:42:19.629770 12241 layer_factory.hpp:77] Creating layer inception_4e/relu_5x5_reduce
I0403 15:42:19.629787 12241 net.cpp:91] Creating Layer inception_4e/relu_5x5_reduce
I0403 15:42:19.629804 12241 net.cpp:425] inception_4e/relu_5x5_reduce <- inception_4e/5x5_reduce
I0403 15:42:19.629824 12241 net.cpp:386] inception_4e/relu_5x5_reduce -> inception_4e/5x5_reduce (in-place)
I0403 15:42:19.630132 12241 net.cpp:141] Setting up inception_4e/relu_5x5_reduce
I0403 15:42:19.630161 12241 net.cpp:148] Top shape: 24 32 14 14 (150528)
I0403 15:42:19.630175 12241 net.cpp:156] Memory required for data: 1237333536
I0403 15:42:19.630192 12241 layer_factory.hpp:77] Creating layer inception_4e/5x5
I0403 15:42:19.630230 12241 net.cpp:91] Creating Layer inception_4e/5x5
I0403 15:42:19.630250 12241 net.cpp:425] inception_4e/5x5 <- inception_4e/5x5_reduce
I0403 15:42:19.630270 12241 net.cpp:399] inception_4e/5x5 -> inception_4e/5x5
I0403 15:42:19.632195 12241 net.cpp:141] Setting up inception_4e/5x5
I0403 15:42:19.632226 12241 net.cpp:148] Top shape: 24 128 14 14 (602112)
I0403 15:42:19.632243 12241 net.cpp:156] Memory required for data: 1239741984
I0403 15:42:19.632263 12241 layer_factory.hpp:77] Creating layer inception_4e/relu_5x5
I0403 15:42:19.632282 12241 net.cpp:91] Creating Layer inception_4e/relu_5x5
I0403 15:42:19.632298 12241 net.cpp:425] inception_4e/relu_5x5 <- inception_4e/5x5
I0403 15:42:19.632328 12241 net.cpp:386] inception_4e/relu_5x5 -> inception_4e/5x5 (in-place)
I0403 15:42:19.632540 12241 net.cpp:141] Setting up inception_4e/relu_5x5
I0403 15:42:19.632568 12241 net.cpp:148] Top shape: 24 128 14 14 (602112)
I0403 15:42:19.632585 12241 net.cpp:156] Memory required for data: 1242150432
I0403 15:42:19.632599 12241 layer_factory.hpp:77] Creating layer inception_4e/pool
I0403 15:42:19.632618 12241 net.cpp:91] Creating Layer inception_4e/pool
I0403 15:42:19.632633 12241 net.cpp:425] inception_4e/pool <- inception_4d/output_inception_4d/output_0_split_4
I0403 15:42:19.632654 12241 net.cpp:399] inception_4e/pool -> inception_4e/pool
I0403 15:42:19.632726 12241 net.cpp:141] Setting up inception_4e/pool
I0403 15:42:19.632753 12241 net.cpp:148] Top shape: 24 528 14 14 (2483712)
I0403 15:42:19.632769 12241 net.cpp:156] Memory required for data: 1252085280
I0403 15:42:19.632784 12241 layer_factory.hpp:77] Creating layer inception_4e/pool_proj
I0403 15:42:19.632807 12241 net.cpp:91] Creating Layer inception_4e/pool_proj
I0403 15:42:19.632824 12241 net.cpp:425] inception_4e/pool_proj <- inception_4e/pool
I0403 15:42:19.632843 12241 net.cpp:399] inception_4e/pool_proj -> inception_4e/pool_proj
I0403 15:42:19.634416 12241 net.cpp:141] Setting up inception_4e/pool_proj
I0403 15:42:19.634456 12241 net.cpp:148] Top shape: 24 128 14 14 (602112)
I0403 15:42:19.634474 12241 net.cpp:156] Memory required for data: 1254493728
I0403 15:42:19.634491 12241 layer_factory.hpp:77] Creating layer inception_4e/relu_pool_proj
I0403 15:42:19.634512 12241 net.cpp:91] Creating Layer inception_4e/relu_pool_proj
I0403 15:42:19.634529 12241 net.cpp:425] inception_4e/relu_pool_proj <- inception_4e/pool_proj
I0403 15:42:19.634546 12241 net.cpp:386] inception_4e/relu_pool_proj -> inception_4e/pool_proj (in-place)
I0403 15:42:19.634857 12241 net.cpp:141] Setting up inception_4e/relu_pool_proj
I0403 15:42:19.634884 12241 net.cpp:148] Top shape: 24 128 14 14 (602112)
I0403 15:42:19.634899 12241 net.cpp:156] Memory required for data: 1256902176
I0403 15:42:19.634914 12241 layer_factory.hpp:77] Creating layer inception_4e/output
I0403 15:42:19.634934 12241 net.cpp:91] Creating Layer inception_4e/output
I0403 15:42:19.634950 12241 net.cpp:425] inception_4e/output <- inception_4e/1x1
I0403 15:42:19.634968 12241 net.cpp:425] inception_4e/output <- inception_4e/3x3
I0403 15:42:19.634985 12241 net.cpp:425] inception_4e/output <- inception_4e/5x5
I0403 15:42:19.635001 12241 net.cpp:425] inception_4e/output <- inception_4e/pool_proj
I0403 15:42:19.635020 12241 net.cpp:399] inception_4e/output -> inception_4e/output
I0403 15:42:19.635072 12241 net.cpp:141] Setting up inception_4e/output
I0403 15:42:19.635097 12241 net.cpp:148] Top shape: 24 832 14 14 (3913728)
I0403 15:42:19.635110 12241 net.cpp:156] Memory required for data: 1272557088
I0403 15:42:19.635128 12241 layer_factory.hpp:77] Creating layer pool4/3x3_s2
I0403 15:42:19.635144 12241 net.cpp:91] Creating Layer pool4/3x3_s2
I0403 15:42:19.635160 12241 net.cpp:425] pool4/3x3_s2 <- inception_4e/output
I0403 15:42:19.635181 12241 net.cpp:399] pool4/3x3_s2 -> pool4/3x3_s2
I0403 15:42:19.635251 12241 net.cpp:141] Setting up pool4/3x3_s2
I0403 15:42:19.635275 12241 net.cpp:148] Top shape: 24 832 7 7 (978432)
I0403 15:42:19.635290 12241 net.cpp:156] Memory required for data: 1276470816
I0403 15:42:19.635305 12241 layer_factory.hpp:77] Creating layer pool4/3x3_s2_pool4/3x3_s2_0_split
I0403 15:42:19.635344 12241 net.cpp:91] Creating Layer pool4/3x3_s2_pool4/3x3_s2_0_split
I0403 15:42:19.635365 12241 net.cpp:425] pool4/3x3_s2_pool4/3x3_s2_0_split <- pool4/3x3_s2
I0403 15:42:19.635382 12241 net.cpp:399] pool4/3x3_s2_pool4/3x3_s2_0_split -> pool4/3x3_s2_pool4/3x3_s2_0_split_0
I0403 15:42:19.635406 12241 net.cpp:399] pool4/3x3_s2_pool4/3x3_s2_0_split -> pool4/3x3_s2_pool4/3x3_s2_0_split_1
I0403 15:42:19.635429 12241 net.cpp:399] pool4/3x3_s2_pool4/3x3_s2_0_split -> pool4/3x3_s2_pool4/3x3_s2_0_split_2
I0403 15:42:19.635449 12241 net.cpp:399] pool4/3x3_s2_pool4/3x3_s2_0_split -> pool4/3x3_s2_pool4/3x3_s2_0_split_3
I0403 15:42:19.635546 12241 net.cpp:141] Setting up pool4/3x3_s2_pool4/3x3_s2_0_split
I0403 15:42:19.635571 12241 net.cpp:148] Top shape: 24 832 7 7 (978432)
I0403 15:42:19.635587 12241 net.cpp:148] Top shape: 24 832 7 7 (978432)
I0403 15:42:19.635603 12241 net.cpp:148] Top shape: 24 832 7 7 (978432)
I0403 15:42:19.635619 12241 net.cpp:148] Top shape: 24 832 7 7 (978432)
I0403 15:42:19.635633 12241 net.cpp:156] Memory required for data: 1292125728
I0403 15:42:19.635649 12241 layer_factory.hpp:77] Creating layer inception_5a/1x1
I0403 15:42:19.635676 12241 net.cpp:91] Creating Layer inception_5a/1x1
I0403 15:42:19.635694 12241 net.cpp:425] inception_5a/1x1 <- pool4/3x3_s2_pool4/3x3_s2_0_split_0
I0403 15:42:19.635715 12241 net.cpp:399] inception_5a/1x1 -> inception_5a/1x1
I0403 15:42:19.638768 12241 net.cpp:141] Setting up inception_5a/1x1
I0403 15:42:19.638803 12241 net.cpp:148] Top shape: 24 256 7 7 (301056)
I0403 15:42:19.638819 12241 net.cpp:156] Memory required for data: 1293329952
I0403 15:42:19.638839 12241 layer_factory.hpp:77] Creating layer inception_5a/relu_1x1
I0403 15:42:19.638857 12241 net.cpp:91] Creating Layer inception_5a/relu_1x1
I0403 15:42:19.638875 12241 net.cpp:425] inception_5a/relu_1x1 <- inception_5a/1x1
I0403 15:42:19.638896 12241 net.cpp:386] inception_5a/relu_1x1 -> inception_5a/1x1 (in-place)
I0403 15:42:19.639233 12241 net.cpp:141] Setting up inception_5a/relu_1x1
I0403 15:42:19.639264 12241 net.cpp:148] Top shape: 24 256 7 7 (301056)
I0403 15:42:19.639281 12241 net.cpp:156] Memory required for data: 1294534176
I0403 15:42:19.639297 12241 layer_factory.hpp:77] Creating layer inception_5a/3x3_reduce
I0403 15:42:19.639327 12241 net.cpp:91] Creating Layer inception_5a/3x3_reduce
I0403 15:42:19.639346 12241 net.cpp:425] inception_5a/3x3_reduce <- pool4/3x3_s2_pool4/3x3_s2_0_split_1
I0403 15:42:19.639367 12241 net.cpp:399] inception_5a/3x3_reduce -> inception_5a/3x3_reduce
I0403 15:42:19.642123 12241 net.cpp:141] Setting up inception_5a/3x3_reduce
I0403 15:42:19.642156 12241 net.cpp:148] Top shape: 24 160 7 7 (188160)
I0403 15:42:19.642173 12241 net.cpp:156] Memory required for data: 1295286816
I0403 15:42:19.642192 12241 layer_factory.hpp:77] Creating layer inception_5a/relu_3x3_reduce
I0403 15:42:19.642213 12241 net.cpp:91] Creating Layer inception_5a/relu_3x3_reduce
I0403 15:42:19.642231 12241 net.cpp:425] inception_5a/relu_3x3_reduce <- inception_5a/3x3_reduce
I0403 15:42:19.642251 12241 net.cpp:386] inception_5a/relu_3x3_reduce -> inception_5a/3x3_reduce (in-place)
I0403 15:42:19.642469 12241 net.cpp:141] Setting up inception_5a/relu_3x3_reduce
I0403 15:42:19.642498 12241 net.cpp:148] Top shape: 24 160 7 7 (188160)
I0403 15:42:19.642513 12241 net.cpp:156] Memory required for data: 1296039456
I0403 15:42:19.642529 12241 layer_factory.hpp:77] Creating layer inception_5a/3x3
I0403 15:42:19.642554 12241 net.cpp:91] Creating Layer inception_5a/3x3
I0403 15:42:19.642575 12241 net.cpp:425] inception_5a/3x3 <- inception_5a/3x3_reduce
I0403 15:42:19.642595 12241 net.cpp:399] inception_5a/3x3 -> inception_5a/3x3
I0403 15:42:19.647960 12241 net.cpp:141] Setting up inception_5a/3x3
I0403 15:42:19.647996 12241 net.cpp:148] Top shape: 24 320 7 7 (376320)
I0403 15:42:19.648015 12241 net.cpp:156] Memory required for data: 1297544736
I0403 15:42:19.648035 12241 layer_factory.hpp:77] Creating layer inception_5a/relu_3x3
I0403 15:42:19.648053 12241 net.cpp:91] Creating Layer inception_5a/relu_3x3
I0403 15:42:19.648069 12241 net.cpp:425] inception_5a/relu_3x3 <- inception_5a/3x3
I0403 15:42:19.648087 12241 net.cpp:386] inception_5a/relu_3x3 -> inception_5a/3x3 (in-place)
I0403 15:42:19.648417 12241 net.cpp:141] Setting up inception_5a/relu_3x3
I0403 15:42:19.648447 12241 net.cpp:148] Top shape: 24 320 7 7 (376320)
I0403 15:42:19.648465 12241 net.cpp:156] Memory required for data: 1299050016
I0403 15:42:19.648480 12241 layer_factory.hpp:77] Creating layer inception_5a/5x5_reduce
I0403 15:42:19.648504 12241 net.cpp:91] Creating Layer inception_5a/5x5_reduce
I0403 15:42:19.648524 12241 net.cpp:425] inception_5a/5x5_reduce <- pool4/3x3_s2_pool4/3x3_s2_0_split_2
I0403 15:42:19.648543 12241 net.cpp:399] inception_5a/5x5_reduce -> inception_5a/5x5_reduce
I0403 15:42:19.649823 12241 net.cpp:141] Setting up inception_5a/5x5_reduce
I0403 15:42:19.649857 12241 net.cpp:148] Top shape: 24 32 7 7 (37632)
I0403 15:42:19.649873 12241 net.cpp:156] Memory required for data: 1299200544
I0403 15:42:19.649893 12241 layer_factory.hpp:77] Creating layer inception_5a/relu_5x5_reduce
I0403 15:42:19.649911 12241 net.cpp:91] Creating Layer inception_5a/relu_5x5_reduce
I0403 15:42:19.649929 12241 net.cpp:425] inception_5a/relu_5x5_reduce <- inception_5a/5x5_reduce
I0403 15:42:19.649948 12241 net.cpp:386] inception_5a/relu_5x5_reduce -> inception_5a/5x5_reduce (in-place)
I0403 15:42:19.650270 12241 net.cpp:141] Setting up inception_5a/relu_5x5_reduce
I0403 15:42:19.650301 12241 net.cpp:148] Top shape: 24 32 7 7 (37632)
I0403 15:42:19.650324 12241 net.cpp:156] Memory required for data: 1299351072
I0403 15:42:19.650342 12241 layer_factory.hpp:77] Creating layer inception_5a/5x5
I0403 15:42:19.650365 12241 net.cpp:91] Creating Layer inception_5a/5x5
I0403 15:42:19.650383 12241 net.cpp:425] inception_5a/5x5 <- inception_5a/5x5_reduce
I0403 15:42:19.650403 12241 net.cpp:399] inception_5a/5x5 -> inception_5a/5x5
I0403 15:42:19.652266 12241 net.cpp:141] Setting up inception_5a/5x5
I0403 15:42:19.652312 12241 net.cpp:148] Top shape: 24 128 7 7 (150528)
I0403 15:42:19.652343 12241 net.cpp:156] Memory required for data: 1299953184
I0403 15:42:19.652364 12241 layer_factory.hpp:77] Creating layer inception_5a/relu_5x5
I0403 15:42:19.652382 12241 net.cpp:91] Creating Layer inception_5a/relu_5x5
I0403 15:42:19.652400 12241 net.cpp:425] inception_5a/relu_5x5 <- inception_5a/5x5
I0403 15:42:19.652416 12241 net.cpp:386] inception_5a/relu_5x5 -> inception_5a/5x5 (in-place)
I0403 15:42:19.652640 12241 net.cpp:141] Setting up inception_5a/relu_5x5
I0403 15:42:19.652665 12241 net.cpp:148] Top shape: 24 128 7 7 (150528)
I0403 15:42:19.652680 12241 net.cpp:156] Memory required for data: 1300555296
I0403 15:42:19.652695 12241 layer_factory.hpp:77] Creating layer inception_5a/pool
I0403 15:42:19.652714 12241 net.cpp:91] Creating Layer inception_5a/pool
I0403 15:42:19.652729 12241 net.cpp:425] inception_5a/pool <- pool4/3x3_s2_pool4/3x3_s2_0_split_3
I0403 15:42:19.652750 12241 net.cpp:399] inception_5a/pool -> inception_5a/pool
I0403 15:42:19.652823 12241 net.cpp:141] Setting up inception_5a/pool
I0403 15:42:19.652849 12241 net.cpp:148] Top shape: 24 832 7 7 (978432)
I0403 15:42:19.652864 12241 net.cpp:156] Memory required for data: 1304469024
I0403 15:42:19.652879 12241 layer_factory.hpp:77] Creating layer inception_5a/pool_proj
I0403 15:42:19.652901 12241 net.cpp:91] Creating Layer inception_5a/pool_proj
I0403 15:42:19.652920 12241 net.cpp:425] inception_5a/pool_proj <- inception_5a/pool
I0403 15:42:19.652938 12241 net.cpp:399] inception_5a/pool_proj -> inception_5a/pool_proj
I0403 15:42:19.655362 12241 net.cpp:141] Setting up inception_5a/pool_proj
I0403 15:42:19.655392 12241 net.cpp:148] Top shape: 24 128 7 7 (150528)
I0403 15:42:19.655407 12241 net.cpp:156] Memory required for data: 1305071136
I0403 15:42:19.655426 12241 layer_factory.hpp:77] Creating layer inception_5a/relu_pool_proj
I0403 15:42:19.655446 12241 net.cpp:91] Creating Layer inception_5a/relu_pool_proj
I0403 15:42:19.655462 12241 net.cpp:425] inception_5a/relu_pool_proj <- inception_5a/pool_proj
I0403 15:42:19.655479 12241 net.cpp:386] inception_5a/relu_pool_proj -> inception_5a/pool_proj (in-place)
I0403 15:42:19.655784 12241 net.cpp:141] Setting up inception_5a/relu_pool_proj
I0403 15:42:19.655810 12241 net.cpp:148] Top shape: 24 128 7 7 (150528)
I0403 15:42:19.655825 12241 net.cpp:156] Memory required for data: 1305673248
I0403 15:42:19.655839 12241 layer_factory.hpp:77] Creating layer inception_5a/output
I0403 15:42:19.655860 12241 net.cpp:91] Creating Layer inception_5a/output
I0403 15:42:19.655876 12241 net.cpp:425] inception_5a/output <- inception_5a/1x1
I0403 15:42:19.655894 12241 net.cpp:425] inception_5a/output <- inception_5a/3x3
I0403 15:42:19.655910 12241 net.cpp:425] inception_5a/output <- inception_5a/5x5
I0403 15:42:19.655925 12241 net.cpp:425] inception_5a/output <- inception_5a/pool_proj
I0403 15:42:19.655942 12241 net.cpp:399] inception_5a/output -> inception_5a/output
I0403 15:42:19.655995 12241 net.cpp:141] Setting up inception_5a/output
I0403 15:42:19.656019 12241 net.cpp:148] Top shape: 24 832 7 7 (978432)
I0403 15:42:19.656034 12241 net.cpp:156] Memory required for data: 1309586976
I0403 15:42:19.656049 12241 layer_factory.hpp:77] Creating layer inception_5a/output_inception_5a/output_0_split
I0403 15:42:19.656065 12241 net.cpp:91] Creating Layer inception_5a/output_inception_5a/output_0_split
I0403 15:42:19.656080 12241 net.cpp:425] inception_5a/output_inception_5a/output_0_split <- inception_5a/output
I0403 15:42:19.656100 12241 net.cpp:399] inception_5a/output_inception_5a/output_0_split -> inception_5a/output_inception_5a/output_0_split_0
I0403 15:42:19.656121 12241 net.cpp:399] inception_5a/output_inception_5a/output_0_split -> inception_5a/output_inception_5a/output_0_split_1
I0403 15:42:19.656141 12241 net.cpp:399] inception_5a/output_inception_5a/output_0_split -> inception_5a/output_inception_5a/output_0_split_2
I0403 15:42:19.656162 12241 net.cpp:399] inception_5a/output_inception_5a/output_0_split -> inception_5a/output_inception_5a/output_0_split_3
I0403 15:42:19.656275 12241 net.cpp:141] Setting up inception_5a/output_inception_5a/output_0_split
I0403 15:42:19.656301 12241 net.cpp:148] Top shape: 24 832 7 7 (978432)
I0403 15:42:19.656324 12241 net.cpp:148] Top shape: 24 832 7 7 (978432)
I0403 15:42:19.656342 12241 net.cpp:148] Top shape: 24 832 7 7 (978432)
I0403 15:42:19.656358 12241 net.cpp:148] Top shape: 24 832 7 7 (978432)
I0403 15:42:19.656371 12241 net.cpp:156] Memory required for data: 1325241888
I0403 15:42:19.656385 12241 layer_factory.hpp:77] Creating layer inception_5b/1x1
I0403 15:42:19.656407 12241 net.cpp:91] Creating Layer inception_5b/1x1
I0403 15:42:19.656424 12241 net.cpp:425] inception_5b/1x1 <- inception_5a/output_inception_5a/output_0_split_0
I0403 15:42:19.656443 12241 net.cpp:399] inception_5b/1x1 -> inception_5b/1x1
I0403 15:42:19.660239 12241 net.cpp:141] Setting up inception_5b/1x1
I0403 15:42:19.660269 12241 net.cpp:148] Top shape: 24 384 7 7 (451584)
I0403 15:42:19.660284 12241 net.cpp:156] Memory required for data: 1327048224
I0403 15:42:19.660303 12241 layer_factory.hpp:77] Creating layer inception_5b/relu_1x1
I0403 15:42:19.660331 12241 net.cpp:91] Creating Layer inception_5b/relu_1x1
I0403 15:42:19.660349 12241 net.cpp:425] inception_5b/relu_1x1 <- inception_5b/1x1
I0403 15:42:19.660367 12241 net.cpp:386] inception_5b/relu_1x1 -> inception_5b/1x1 (in-place)
I0403 15:42:19.660676 12241 net.cpp:141] Setting up inception_5b/relu_1x1
I0403 15:42:19.660702 12241 net.cpp:148] Top shape: 24 384 7 7 (451584)
I0403 15:42:19.660717 12241 net.cpp:156] Memory required for data: 1328854560
I0403 15:42:19.660732 12241 layer_factory.hpp:77] Creating layer inception_5b/3x3_reduce
I0403 15:42:19.660754 12241 net.cpp:91] Creating Layer inception_5b/3x3_reduce
I0403 15:42:19.660771 12241 net.cpp:425] inception_5b/3x3_reduce <- inception_5a/output_inception_5a/output_0_split_1
I0403 15:42:19.660794 12241 net.cpp:399] inception_5b/3x3_reduce -> inception_5b/3x3_reduce
I0403 15:42:19.663501 12241 net.cpp:141] Setting up inception_5b/3x3_reduce
I0403 15:42:19.663532 12241 net.cpp:148] Top shape: 24 192 7 7 (225792)
I0403 15:42:19.663547 12241 net.cpp:156] Memory required for data: 1329757728
I0403 15:42:19.663564 12241 layer_factory.hpp:77] Creating layer inception_5b/relu_3x3_reduce
I0403 15:42:19.663585 12241 net.cpp:91] Creating Layer inception_5b/relu_3x3_reduce
I0403 15:42:19.663602 12241 net.cpp:425] inception_5b/relu_3x3_reduce <- inception_5b/3x3_reduce
I0403 15:42:19.663619 12241 net.cpp:386] inception_5b/relu_3x3_reduce -> inception_5b/3x3_reduce (in-place)
I0403 15:42:19.663817 12241 net.cpp:141] Setting up inception_5b/relu_3x3_reduce
I0403 15:42:19.663844 12241 net.cpp:148] Top shape: 24 192 7 7 (225792)
I0403 15:42:19.663859 12241 net.cpp:156] Memory required for data: 1330660896
I0403 15:42:19.663874 12241 layer_factory.hpp:77] Creating layer inception_5b/3x3
I0403 15:42:19.663897 12241 net.cpp:91] Creating Layer inception_5b/3x3
I0403 15:42:19.663913 12241 net.cpp:425] inception_5b/3x3 <- inception_5b/3x3_reduce
I0403 15:42:19.663933 12241 net.cpp:399] inception_5b/3x3 -> inception_5b/3x3
I0403 15:42:19.670779 12241 net.cpp:141] Setting up inception_5b/3x3
I0403 15:42:19.670807 12241 net.cpp:148] Top shape: 24 384 7 7 (451584)
I0403 15:42:19.670824 12241 net.cpp:156] Memory required for data: 1332467232
I0403 15:42:19.670841 12241 layer_factory.hpp:77] Creating layer inception_5b/relu_3x3
I0403 15:42:19.670862 12241 net.cpp:91] Creating Layer inception_5b/relu_3x3
I0403 15:42:19.670879 12241 net.cpp:425] inception_5b/relu_3x3 <- inception_5b/3x3
I0403 15:42:19.670897 12241 net.cpp:386] inception_5b/relu_3x3 -> inception_5b/3x3 (in-place)
I0403 15:42:19.671205 12241 net.cpp:141] Setting up inception_5b/relu_3x3
I0403 15:42:19.671231 12241 net.cpp:148] Top shape: 24 384 7 7 (451584)
I0403 15:42:19.671247 12241 net.cpp:156] Memory required for data: 1334273568
I0403 15:42:19.671262 12241 layer_factory.hpp:77] Creating layer inception_5b/5x5_reduce
I0403 15:42:19.671300 12241 net.cpp:91] Creating Layer inception_5b/5x5_reduce
I0403 15:42:19.671325 12241 net.cpp:425] inception_5b/5x5_reduce <- inception_5a/output_inception_5a/output_0_split_2
I0403 15:42:19.671346 12241 net.cpp:399] inception_5b/5x5_reduce -> inception_5b/5x5_reduce
I0403 15:42:19.672652 12241 net.cpp:141] Setting up inception_5b/5x5_reduce
I0403 15:42:19.672678 12241 net.cpp:148] Top shape: 24 48 7 7 (56448)
I0403 15:42:19.672694 12241 net.cpp:156] Memory required for data: 1334499360
I0403 15:42:19.672713 12241 layer_factory.hpp:77] Creating layer inception_5b/relu_5x5_reduce
I0403 15:42:19.672734 12241 net.cpp:91] Creating Layer inception_5b/relu_5x5_reduce
I0403 15:42:19.672752 12241 net.cpp:425] inception_5b/relu_5x5_reduce <- inception_5b/5x5_reduce
I0403 15:42:19.672770 12241 net.cpp:386] inception_5b/relu_5x5_reduce -> inception_5b/5x5_reduce (in-place)
I0403 15:42:19.673149 12241 net.cpp:141] Setting up inception_5b/relu_5x5_reduce
I0403 15:42:19.673177 12241 net.cpp:148] Top shape: 24 48 7 7 (56448)
I0403 15:42:19.673192 12241 net.cpp:156] Memory required for data: 1334725152
I0403 15:42:19.673207 12241 layer_factory.hpp:77] Creating layer inception_5b/5x5
I0403 15:42:19.673226 12241 net.cpp:91] Creating Layer inception_5b/5x5
I0403 15:42:19.673243 12241 net.cpp:425] inception_5b/5x5 <- inception_5b/5x5_reduce
I0403 15:42:19.673261 12241 net.cpp:399] inception_5b/5x5 -> inception_5b/5x5
I0403 15:42:19.675349 12241 net.cpp:141] Setting up inception_5b/5x5
I0403 15:42:19.675380 12241 net.cpp:148] Top shape: 24 128 7 7 (150528)
I0403 15:42:19.675396 12241 net.cpp:156] Memory required for data: 1335327264
I0403 15:42:19.675415 12241 layer_factory.hpp:77] Creating layer inception_5b/relu_5x5
I0403 15:42:19.675432 12241 net.cpp:91] Creating Layer inception_5b/relu_5x5
I0403 15:42:19.675448 12241 net.cpp:425] inception_5b/relu_5x5 <- inception_5b/5x5
I0403 15:42:19.675470 12241 net.cpp:386] inception_5b/relu_5x5 -> inception_5b/5x5 (in-place)
I0403 15:42:19.675671 12241 net.cpp:141] Setting up inception_5b/relu_5x5
I0403 15:42:19.675696 12241 net.cpp:148] Top shape: 24 128 7 7 (150528)
I0403 15:42:19.675710 12241 net.cpp:156] Memory required for data: 1335929376
I0403 15:42:19.675725 12241 layer_factory.hpp:77] Creating layer inception_5b/pool
I0403 15:42:19.675742 12241 net.cpp:91] Creating Layer inception_5b/pool
I0403 15:42:19.675758 12241 net.cpp:425] inception_5b/pool <- inception_5a/output_inception_5a/output_0_split_3
I0403 15:42:19.675778 12241 net.cpp:399] inception_5b/pool -> inception_5b/pool
I0403 15:42:19.675853 12241 net.cpp:141] Setting up inception_5b/pool
I0403 15:42:19.675876 12241 net.cpp:148] Top shape: 24 832 7 7 (978432)
I0403 15:42:19.675890 12241 net.cpp:156] Memory required for data: 1339843104
I0403 15:42:19.675905 12241 layer_factory.hpp:77] Creating layer inception_5b/pool_proj
I0403 15:42:19.675927 12241 net.cpp:91] Creating Layer inception_5b/pool_proj
I0403 15:42:19.675945 12241 net.cpp:425] inception_5b/pool_proj <- inception_5b/pool
I0403 15:42:19.675963 12241 net.cpp:399] inception_5b/pool_proj -> inception_5b/pool_proj
I0403 15:42:19.678362 12241 net.cpp:141] Setting up inception_5b/pool_proj
I0403 15:42:19.678393 12241 net.cpp:148] Top shape: 24 128 7 7 (150528)
I0403 15:42:19.678412 12241 net.cpp:156] Memory required for data: 1340445216
I0403 15:42:19.678431 12241 layer_factory.hpp:77] Creating layer inception_5b/relu_pool_proj
I0403 15:42:19.678450 12241 net.cpp:91] Creating Layer inception_5b/relu_pool_proj
I0403 15:42:19.678467 12241 net.cpp:425] inception_5b/relu_pool_proj <- inception_5b/pool_proj
I0403 15:42:19.678486 12241 net.cpp:386] inception_5b/relu_pool_proj -> inception_5b/pool_proj (in-place)
I0403 15:42:19.678800 12241 net.cpp:141] Setting up inception_5b/relu_pool_proj
I0403 15:42:19.678833 12241 net.cpp:148] Top shape: 24 128 7 7 (150528)
I0403 15:42:19.678849 12241 net.cpp:156] Memory required for data: 1341047328
I0403 15:42:19.678865 12241 layer_factory.hpp:77] Creating layer inception_5b/output
I0403 15:42:19.678884 12241 net.cpp:91] Creating Layer inception_5b/output
I0403 15:42:19.678915 12241 net.cpp:425] inception_5b/output <- inception_5b/1x1
I0403 15:42:19.678933 12241 net.cpp:425] inception_5b/output <- inception_5b/3x3
I0403 15:42:19.678951 12241 net.cpp:425] inception_5b/output <- inception_5b/5x5
I0403 15:42:19.678968 12241 net.cpp:425] inception_5b/output <- inception_5b/pool_proj
I0403 15:42:19.678987 12241 net.cpp:399] inception_5b/output -> inception_5b/output
I0403 15:42:19.679042 12241 net.cpp:141] Setting up inception_5b/output
I0403 15:42:19.679066 12241 net.cpp:148] Top shape: 24 1024 7 7 (1204224)
I0403 15:42:19.679081 12241 net.cpp:156] Memory required for data: 1345864224
I0403 15:42:19.679096 12241 layer_factory.hpp:77] Creating layer pool5/7x7_s1
I0403 15:42:19.679116 12241 net.cpp:91] Creating Layer pool5/7x7_s1
I0403 15:42:19.679133 12241 net.cpp:425] pool5/7x7_s1 <- inception_5b/output
I0403 15:42:19.679152 12241 net.cpp:399] pool5/7x7_s1 -> pool5/7x7_s1
I0403 15:42:19.679388 12241 net.cpp:141] Setting up pool5/7x7_s1
I0403 15:42:19.679416 12241 net.cpp:148] Top shape: 24 1024 1 1 (24576)
I0403 15:42:19.679432 12241 net.cpp:156] Memory required for data: 1345962528
I0403 15:42:19.679447 12241 layer_factory.hpp:77] Creating layer pool5/drop_7x7_s1
I0403 15:42:19.679466 12241 net.cpp:91] Creating Layer pool5/drop_7x7_s1
I0403 15:42:19.679481 12241 net.cpp:425] pool5/drop_7x7_s1 <- pool5/7x7_s1
I0403 15:42:19.679499 12241 net.cpp:386] pool5/drop_7x7_s1 -> pool5/7x7_s1 (in-place)
I0403 15:42:19.679551 12241 net.cpp:141] Setting up pool5/drop_7x7_s1
I0403 15:42:19.679575 12241 net.cpp:148] Top shape: 24 1024 1 1 (24576)
I0403 15:42:19.679590 12241 net.cpp:156] Memory required for data: 1346060832
I0403 15:42:19.679605 12241 layer_factory.hpp:77] Creating layer loss3/classifier_plantvillage
I0403 15:42:19.679627 12241 net.cpp:91] Creating Layer loss3/classifier_plantvillage
I0403 15:42:19.679646 12241 net.cpp:425] loss3/classifier_plantvillage <- pool5/7x7_s1
I0403 15:42:19.679664 12241 net.cpp:399] loss3/classifier_plantvillage -> loss3/classifier_plantvillage
I0403 15:42:19.680107 12241 net.cpp:141] Setting up loss3/classifier_plantvillage
I0403 15:42:19.680132 12241 net.cpp:148] Top shape: 24 38 (912)
I0403 15:42:19.680147 12241 net.cpp:156] Memory required for data: 1346064480
I0403 15:42:19.680166 12241 layer_factory.hpp:77] Creating layer loss3/classifier_plantvillage_loss3/classifier_plantvillage_0_split
I0403 15:42:19.680186 12241 net.cpp:91] Creating Layer loss3/classifier_plantvillage_loss3/classifier_plantvillage_0_split
I0403 15:42:19.680202 12241 net.cpp:425] loss3/classifier_plantvillage_loss3/classifier_plantvillage_0_split <- loss3/classifier_plantvillage
I0403 15:42:19.680223 12241 net.cpp:399] loss3/classifier_plantvillage_loss3/classifier_plantvillage_0_split -> loss3/classifier_plantvillage_loss3/classifier_plantvillage_0_split_0
I0403 15:42:19.680244 12241 net.cpp:399] loss3/classifier_plantvillage_loss3/classifier_plantvillage_0_split -> loss3/classifier_plantvillage_loss3/classifier_plantvillage_0_split_1
I0403 15:42:19.680264 12241 net.cpp:399] loss3/classifier_plantvillage_loss3/classifier_plantvillage_0_split -> loss3/classifier_plantvillage_loss3/classifier_plantvillage_0_split_2
I0403 15:42:19.680285 12241 net.cpp:399] loss3/classifier_plantvillage_loss3/classifier_plantvillage_0_split -> loss3/classifier_plantvillage_loss3/classifier_plantvillage_0_split_3
I0403 15:42:19.680399 12241 net.cpp:141] Setting up loss3/classifier_plantvillage_loss3/classifier_plantvillage_0_split
I0403 15:42:19.680425 12241 net.cpp:148] Top shape: 24 38 (912)
I0403 15:42:19.680444 12241 net.cpp:148] Top shape: 24 38 (912)
I0403 15:42:19.680459 12241 net.cpp:148] Top shape: 24 38 (912)
I0403 15:42:19.680474 12241 net.cpp:148] Top shape: 24 38 (912)
I0403 15:42:19.680488 12241 net.cpp:156] Memory required for data: 1346079072
I0403 15:42:19.680503 12241 layer_factory.hpp:77] Creating layer loss1/loss
I0403 15:42:19.680526 12241 net.cpp:91] Creating Layer loss1/loss
I0403 15:42:19.680543 12241 net.cpp:425] loss1/loss <- loss1/classifier_plantvillage_loss1/classifier_plantvillage_0_split_0
I0403 15:42:19.680574 12241 net.cpp:425] loss1/loss <- label_data_1_split_0
…
