…
I0403 15:32:08.135597 12060 net.cpp:313] The NetState phase (1) differed from the phase (0) specified by a rule in layer data
I0403 15:32:08.136826 12060 net.cpp:49] Initializing net from parameters: 
state {
  phase: TEST
}
layer {
  name: "data"
  type: "Data"
  top: "data"
  top: "label"
  include {
    phase: TEST
  }
  transform_param {
    mirror: false
    crop_size: 224
    mean_file: "/home/mohanty/data/final_dataset/lmdb/segmented-40-60/mean.binaryproto"
  }
  data_param {
    source: "/home/mohanty/data/final_dataset/lmdb/segmented-40-60/test_db"
    batch_size: 24
    backend: LMDB
  }
}
layer {
  name: "conv1/7x7_s2"
  type: "Convolution"
  bottom: "data"
  top: "conv1/7x7_s2"
  param {
    lr_mult: 1
    decay_mult: 1
  }
  param {
    lr_mult: 2
    decay_mult: 0
  }
  convolution_param {
    num_output: 64
    pad: 3
    kernel_size: 7
    stride: 2
    weight_filler {
      type: "xavier"
      std: 0.1
    }
    bias_filler {
      type: "constant"
      value: 0.2
    }
  }
}
layer {
  name: "conv1/relu_7x7"
  type: "ReLU"
  bottom: "conv1/7x7_s2"
  top: "conv1/7x7_s2"
}
layer {
  name: "pool1/3x3_s2"
  type: "Pooling"
  bottom: "conv1/7x7_s2"
  top: "pool1/3x3_s2"
  pooling_param {
    pool: MAX
    kernel_size: 3
    stride: 2
  }
}
layer {
  name: "pool1/norm1"
  type: "LRN"
  bottom: "pool1/3x3_s2"
  top: "pool1/norm1"
  lrn_param {
    local_size: 5
    alpha: 0.0001
    beta: 0.75
  }
}
layer {
  name: "conv2/3x3_reduce"
  type: "Convolution"
  bottom: "pool1/norm1"
  top: "conv2/3x3_reduce"
  param {
    lr_mult: 1
    decay_mult: 1
  }
  param {
    lr_mult: 2
    decay_mult: 0
  }
  convolution_param {
    num_output: 64
    kernel_size: 1
    weight_filler {
      type: "xavier"
      std: 0.1
    }
    bias_filler {
      type: "constant"
      value: 0.2
    }
  }
}
layer {
  name: "conv2/relu_3x3_reduce"
  type: "ReLU"
  bottom: "conv2/3x3_reduce"
  top: "conv2/3x3_reduce"
}
layer {
  name: "conv2/3x3"
  type: "Convolution"
  bottom: "conv2/3x3_reduce"
  top: "conv2/3x3"
  param {
    lr_mult: 1
    decay_mult: 1
  }
  param {
    lr_mult: 2
    decay_mult: 0
  }
  convolution_param {
    num_output: 192
    pad: 1
    kernel_size: 3
    weight_filler {
      type: "xavier"
      std: 0.03
    }
    bias_filler {
      type: "constant"
      value: 0.2
    }
  }
}
layer {
  name: "conv2/relu_3x3"
  type: "ReLU"
  bottom: "conv2/3x3"
  top: "conv2/3x3"
}
layer {
  name: "conv2/norm2"
  type: "LRN"
  bottom: "conv2/3x3"
  top: "conv2/norm2"
  lrn_param {
    local_size: 5
    alpha: 0.0001
    beta: 0.75
  }
}
layer {
  name: "pool2/3x3_s2"
  type: "Pooling"
  bottom: "conv2/norm2"
  top: "pool2/3x3_s2"
  pooling_param {
    pool: MAX
    kernel_size: 3
    stride: 2
  }
}
layer {
  name: "inception_3a/1x1"
  type: "Convolution"
  bottom: "pool2/3x3_s2"
  top: "inception_3a/1x1"
  param {
    lr_mult: 1
    decay_mult: 1
  }
  param {
    lr_mult: 2
    decay_mult: 0
  }
  convolution_param {
    num_output: 64
    kernel_size: 1
    weight_filler {
      type: "xavier"
      std: 0.03
    }
    bias_filler {
      type: "constant"
      value: 0.2
    }
  }
}
layer {
  name: "inception_3a/relu_1x1"
  type: "ReLU"
  bottom: "inception_3a/1x1"
  top: "inception_3a/1x1"
}
layer {
  name: "inception_3a/3x3_reduce"
  type: "Convolution"
  bottom: "pool2/3x3_s2"
  top: "inception_3a/3x3_reduce"
  param {
    lr_mult: 1
    decay_mult: 1
  }
  param {
    lr_mult: 2
    decay_mult: 0
  }
  convolution_param {
    num_output: 96
    kernel_size: 1
    weight_filler {
      type: "xavier"
      std: 0.09
    }
    bias_filler {
      type: "constant"
      value: 0.2
    }
  }
}
layer {
  name: "inception_3a/relu_3x3_reduce"
  type: "ReLU"
  bottom: "inception_3a/3x3_reduce"
  top: "inception_3a/3x3_reduce"
}
layer {
  name: "inception_3a/3x3"
  type: "Convolution"
  bottom: "inception_3a/3x3_reduce"
  top: "inception_3a/3x3"
  param {
    lr_mult: 1
    decay_mult: 1
  }
  param {
    lr_mult: 2
    decay_mult: 0
  }
  convolution_param {
    num_output: 128
    pad: 1
    kernel_size: 3
    weight_filler {
      type: "xavier"
      std: 0.03
    }
    bias_filler {
      type: "constant"
      value: 0.2
    }
  }
}
layer {
  name: "inception_3a/relu_3x3"
  type: "ReLU"
  bottom: "inception_3a/3x3"
  top: "inception_3a/3x3"
}
layer {
  name: "inception_3a/5x5_reduce"
  type: "Convolution"
  bottom: "pool2/3x3_s2"
  top: "inception_3a/5x5_reduce"
  param {
    lr_mult: 1
    decay_mult: 1
  }
  param {
    lr_mult: 2
    decay_mult: 0
  }
  convolution_param {
    num_output: 16
    kernel_size: 1
    weight_filler {
      type: "xavier"
      std: 0.2
    }
    bias_filler {
      type: "constant"
      value: 0.2
    }
  }
}
layer {
  name: "inception_3a/relu_5x5_reduce"
  type: "ReLU"
  bottom: "inception_3a/5x5_reduce"
  top: "inception_3a/5x5_reduce"
}
layer {
  name: "inception_3a/5x5"
  type: "Convolution"
  bottom: "inception_3a/5x5_reduce"
  top: "inception_3a/5x5"
  param {
    lr_mult: 1
    decay_mult: 1
  }
  param {
    lr_mult: 2
    decay_mult: 0
  }
  convolution_param {
    num_output: 32
    pad: 2
    kernel_size: 5
    weight_filler {
      type: "xavier"
      std: 0.03
    }
    bias_filler {
      type: "constant"
      value: 0.2
    }
  }
}
layer {
  name: "inception_3a/relu_5x5"
  type: "ReLU"
  bottom: "inception_3a/5x5"
  top: "inception_3a/5x5"
}
layer {
  name: "inception_3a/pool"
  type: "Pooling"
  bottom: "pool2/3x3_s2"
  top: "inception_3a/pool"
  pooling_param {
    pool: MAX
    kernel_size: 3
    stride: 1
    pad: 1
  }
}
layer {
  name: "inception_3a/pool_proj"
  type: "Convolution"
  bottom: "inception_3a/pool"
  top: "inception_3a/pool_proj"
  param {
    lr_mult: 1
    decay_mult: 1
  }
  param {
    lr_mult: 2
    decay_mult: 0
  }
  convolution_param {
    num_output: 32
    kernel_size: 1
    weight_filler {
      type: "xavier"
      std: 0.1
    }
    bias_filler {
      type: "constant"
      value: 0.2
    }
  }
}
layer {
  name: "inception_3a/relu_pool_proj"
  type: "ReLU"
  bottom: "inception_3a/pool_proj"
  top: "inception_3a/pool_proj"
}
layer {
  name: "inception_3a/output"
  type: "Concat"
  bottom: "inception_3a/1x1"
  bottom: "inception_3a/3x3"
  bottom: "inception_3a/5x5"
  bottom: "inception_3a/pool_proj"
  top: "inception_3a/output"
}
layer {
  name: "inception_3b/1x1"
  type: "Convolution"
  bottom: "inception_3a/output"
  top: "inception_3b/1x1"
  param {
    lr_mult: 1
    decay_mult: 1
  }
  param {
    lr_mult: 2
    decay_mult: 0
  }
  convolution_param {
    num_output: 128
    kernel_size: 1
    weight_filler {
      type: "xavier"
      std: 0.03
    }
    bias_filler {
      type: "constant"
      value: 0.2
    }
  }
}
layer {
  name: "inception_3b/relu_1x1"
  type: "ReLU"
  bottom: "inception_3b/1x1"
  top: "inception_3b/1x1"
}
layer {
  name: "inception_3b/3x3_reduce"
  type: "Convolution"
  bottom: "inception_3a/output"
  top: "inception_3b/3x3_reduce"
  param {
    lr_mult: 1
    decay_mult: 1
  }
  param {
    lr_mult: 2
    decay_mult: 0
  }
  convolution_param {
    num_output: 128
    kernel_size: 1
    weight_filler {
      type: "xavier"
      std: 0.09
    }
    bias_filler {
      type: "constant"
      value: 0.2
    }
  }
}
layer {
  name: "inception_3b/relu_3x3_reduce"
  type: "ReLU"
  bottom: "inception_3b/3x3_reduce"
  top: "inception_3b/3x3_reduce"
}
layer {
  name: "inception_3b/3x3"
  type: "Convolution"
  bottom: "inception_3b/3x3_reduce"
  top: "inception_3b/3x3"
  param {
    lr_mult: 1
    decay_mult: 1
  }
  param {
    lr_mult: 2
    decay_mult: 0
  }
  convolution_param {
    num_output: 192
    pad: 1
    kernel_size: 3
    weight_filler {
      type: "xavier"
      std: 0.03
    }
    bias_filler {
      type: "constant"
      value: 0.2
    }
  }
}
layer {
  name: "inception_3b/relu_3x3"
  type: "ReLU"
  bottom: "inception_3b/3x3"
  top: "inception_3b/3x3"
}
layer {
  name: "inception_3b/5x5_reduce"
  type: "Convolution"
  bottom: "inception_3a/output"
  top: "inception_3b/5x5_reduce"
  param {
    lr_mult: 1
    decay_mult: 1
  }
  param {
    lr_mult: 2
    decay_mult: 0
  }
  convolution_param {
    num_output: 32
    kernel_size: 1
    weight_filler {
      type: "xavier"
      std: 0.2
    }
    bias_filler {
      type: "constant"
      value: 0.2
    }
  }
}
layer {
  name: "inception_3b/relu_5x5_reduce"
  type: "ReLU"
  bottom: "inception_3b/5x5_reduce"
  top: "inception_3b/5x5_reduce"
}
layer {
  name: "inception_3b/5x5"
  type: "Convolution"
  bottom: "inception_3b/5x5_reduce"
  top: "inception_3b/5x5"
  param {
    lr_mult: 1
    decay_mult: 1
  }
  param {
    lr_mult: 2
    decay_mult: 0
  }
  convolution_param {
    num_output: 96
    pad: 2
    kernel_size: 5
    weight_filler {
      type: "xavier"
      std: 0.03
    }
    bias_filler {
      type: "constant"
      value: 0.2
    }
  }
}
layer {
  name: "inception_3b/relu_5x5"
  type: "ReLU"
  bottom: "inception_3b/5x5"
  top: "inception_3b/5x5"
}
layer {
  name: "inception_3b/pool"
  type: "Pooling"
  bottom: "inception_3a/output"
  top: "inception_3b/pool"
  pooling_param {
    pool: MAX
    kernel_size: 3
    stride: 1
    pad: 1
  }
}
layer {
  name: "inception_3b/pool_proj"
  type: "Convolution"
  bottom: "inception_3b/pool"
  top: "inception_3b/pool_proj"
  param {
    lr_mult: 1
    decay_mult: 1
  }
  param {
    lr_mult: 2
    decay_mult: 0
  }
  convolution_param {
    num_output: 64
    kernel_size: 1
    weight_filler {
      type: "xavier"
      std: 0.1
    }
    bias_filler {
      type: "constant"
      value: 0.2
    }
  }
}
layer {
  name: "inception_3b/relu_pool_proj"
  type: "ReLU"
  bottom: "inception_3b/pool_proj"
  top: "inception_3b/pool_proj"
}
layer {
  name: "inception_3b/output"
  type: "Concat"
  bottom: "inception_3b/1x1"
  bottom: "inception_3b/3x3"
  bottom: "inception_3b/5x5"
  bottom: "inception_3b/pool_proj"
  top: "inception_3b/output"
}
layer {
  name: "pool3/3x3_s2"
  type: "Pooling"
  bottom: "inception_3b/output"
  top: "pool3/3x3_s2"
  pooling_param {
    pool: MAX
    kernel_size: 3
    stride: 2
  }
}
layer {
  name: "inception_4a/1x1"
  type: "Convolution"
  bottom: "pool3/3x3_s2"
  top: "inception_4a/1x1"
  param {
    lr_mult: 1
    decay_mult: 1
  }
  param {
    lr_mult: 2
    decay_mult: 0
  }
  convolution_param {
    num_output: 192
    kernel_size: 1
    weight_filler {
      type: "xavier"
      std: 0.03
    }
    bias_filler {
      type: "constant"
      value: 0.2
    }
  }
}
layer {
  name: "inception_4a/relu_1x1"
  type: "ReLU"
  bottom: "inception_4a/1x1"
  top: "inception_4a/1x1"
}
layer {
  name: "inception_4a/3x3_reduce"
  type: "Convolution"
  bottom: "pool3/3x3_s2"
  top: "inception_4a/3x3_reduce"
  param {
    lr_mult: 1
    decay_mult: 1
  }
  param {
    lr_mult: 2
    decay_mult: 0
  }
  convolution_param {
    num_output: 96
    kernel_size: 1
    weight_filler {
      type: "xavier"
      std: 0.09
    }
    bias_filler {
      type: "constant"
      value: 0.2
    }
  }
}
layer {
  name: "inception_4a/relu_3x3_reduce"
  type: "ReLU"
  bottom: "inception_4a/3x3_reduce"
  top: "inception_4a/3x3_reduce"
}
layer {
  name: "inception_4a/3x3"
  type: "Convolution"
  bottom: "inception_4a/3x3_reduce"
  top: "inception_4a/3x3"
  param {
    lr_mult: 1
    decay_mult: 1
  }
  param {
    lr_mult: 2
    decay_mult: 0
  }
  convolution_param {
    num_output: 208
    pad: 1
    kernel_size: 3
    weight_filler {
      type: "xavier"
      std: 0.03
    }
    bias_filler {
      type: "constant"
      value: 0.2
    }
  }
}
layer {
  name: "inception_4a/relu_3x3"
  type: "ReLU"
  bottom: "inception_4a/3x3"
  top: "inception_4a/3x3"
}
layer {
  name: "inception_4a/5x5_reduce"
  type: "Convolution"
  bottom: "pool3/3x3_s2"
  top: "inception_4a/5x5_reduce"
  param {
    lr_mult: 1
    decay_mult: 1
  }
  param {
    lr_mult: 2
    decay_mult: 0
  }
  convolution_param {
    num_output: 16
    kernel_size: 1
    weight_filler {
      type: "xavier"
      std: 0.2
    }
    bias_filler {
      type: "constant"
      value: 0.2
    }
  }
}
layer {
  name: "inception_4a/relu_5x5_reduce"
  type: "ReLU"
  bottom: "inception_4a/5x5_reduce"
  top: "inception_4a/5x5_reduce"
}
layer {
  name: "inception_4a/5x5"
  type: "Convolution"
  bottom: "inception_4a/5x5_reduce"
  top: "inception_4a/5x5"
  param {
    lr_mult: 1
    decay_mult: 1
  }
  param {
    lr_mult: 2
    decay_mult: 0
  }
  convolution_param {
    num_output: 48
    pad: 2
    kernel_size: 5
    weight_filler {
      type: "xavier"
      std: 0.03
    }
    bias_filler {
      type: "constant"
      value: 0.2
    }
  }
}
layer {
  name: "inception_4a/relu_5x5"
  type: "ReLU"
  bottom: "inception_4a/5x5"
  top: "inception_4a/5x5"
}
layer {
  name: "inception_4a/pool"
  type: "Pooling"
  bottom: "pool3/3x3_s2"
  top: "inception_4a/pool"
  pooling_param {
    pool: MAX
    kernel_size: 3
    stride: 1
    pad: 1
  }
}
layer {
  name: "inception_4a/pool_proj"
  type: "Convolution"
  bottom: "inception_4a/pool"
  top: "inception_4a/pool_proj"
  param {
    lr_mult: 1
    decay_mult: 1
  }
  param {
    lr_mult: 2
    decay_mult: 0
  }
  convolution_param {
    num_output: 64
    kernel_size: 1
    weight_filler {
      type: "xavier"
      std: 0.1
    }
    bias_filler {
      type: "constant"
      value: 0.2
    }
  }
}
layer {
  name: "inception_4a/relu_pool_proj"
  type: "ReLU"
  bottom: "inception_4a/pool_proj"
  top: "inception_4a/pool_proj"
}
layer {
  name: "inception_4a/output"
  type: "Concat"
  bottom: "inception_4a/1x1"
  bottom: "inception_4a/3x3"
  bottom: "inception_4a/5x5"
  bottom: "inception_4a/pool_proj"
  top: "inception_4a/output"
}
layer {
  name: "loss1/ave_pool"
  type: "Pooling"
  bottom: "inception_4a/output"
  top: "loss1/ave_pool"
  pooling_param {
    pool: AVE
    kernel_size: 5
    stride: 3
  }
}
layer {
  name: "loss1/conv"
  type: "Convolution"
  bottom: "loss1/ave_pool"
  top: "loss1/conv"
  param {
    lr_mult: 1
    decay_mult: 1
  }
  param {
    lr_mult: 2
    decay_mult: 0
  }
  convolution_param {
    num_output: 128
    kernel_size: 1
    weight_filler {
      type: "xavier"
      std: 0.08
    }
    bias_filler {
      type: "constant"
      value: 0.2
    }
  }
}
layer {
  name: "loss1/relu_conv"
  type: "ReLU"
  bottom: "loss1/conv"
  top: "loss1/conv"
}
layer {
  name: "loss1/fc"
  type: "InnerProduct"
  bottom: "loss1/conv"
  top: "loss1/fc"
  param {
    lr_mult: 1
    decay_mult: 1
  }
  param {
    lr_mult: 2
    decay_mult: 0
  }
  inner_product_param {
    num_output: 1024
    weight_filler {
      type: "xavier"
      std: 0.02
    }
    bias_filler {
      type: "constant"
      value: 0.2
    }
  }
}
layer {
  name: "loss1/relu_fc"
  type: "ReLU"
  bottom: "loss1/fc"
  top: "loss1/fc"
}
layer {
  name: "loss1/drop_fc"
  type: "Dropout"
  bottom: "loss1/fc"
  top: "loss1/fc"
  dropout_param {
    dropout_ratio: 0.7
  }
}
layer {
  name: "loss1/classifier_plantvillage"
  type: "InnerProduct"
  bottom: "loss1/fc"
  top: "loss1/classifier_plantvillage"
  param {
    lr_mult: 1
    decay_mult: 1
  }
  param {
    lr_mult: 2
    decay_mult: 0
  }
  inner_product_param {
    num_output: 38
    weight_filler {
      type: "xavier"
      std: 0.0009765625
    }
    bias_filler {
      type: "constant"
      value: 0
    }
  }
}
layer {
  name: "inception_4b/1x1"
  type: "Convolution"
  bottom: "inception_4a/output"
  top: "inception_4b/1x1"
  param {
    lr_mult: 1
    decay_mult: 1
  }
  param {
    lr_mult: 2
    decay_mult: 0
  }
  convolution_param {
    num_output: 160
    kernel_size: 1
    weight_filler {
      type: "xavier"
      std: 0.03
    }
    bias_filler {
      type: "constant"
      value: 0.2
    }
  }
}
layer {
  name: "inception_4b/relu_1x1"
  type: "ReLU"
  bottom: "inception_4b/1x1"
  top: "inception_4b/1x1"
}
layer {
  name: "inception_4b/3x3_reduce"
  type: "Convolution"
  bottom: "inception_4a/output"
  top: "inception_4b/3x3_reduce"
  param {
    lr_mult: 1
    decay_mult: 1
  }
  param {
    lr_mult: 2
    decay_mult: 0
  }
  convolution_param {
    num_output: 112
    kernel_size: 1
    weight_filler {
      type: "xavier"
      std: 0.09
    }
    bias_filler {
      type: "constant"
      value: 0.2
    }
  }
}
layer {
  name: "inception_4b/relu_3x3_reduce"
  type: "ReLU"
  bottom: "inception_4b/3x3_reduce"
  top: "inception_4b/3x3_reduce"
}
layer {
  name: "inception_4b/3x3"
  type: "Convolution"
  bottom: "inception_4b/3x3_reduce"
  top: "inception_4b/3x3"
  param {
    lr_mult: 1
    decay_mult: 1
  }
  param {
    lr_mult: 2
    decay_mult: 0
  }
  convolution_param {
    num_output: 224
    pad: 1
    kernel_size: 3
    weight_filler {
      type: "xavier"
      std: 0.03
    }
    bias_filler {
      type: "constant"
      value: 0.2
    }
  }
}
layer {
  name: "inception_4b/relu_3x3"
  type: "ReLU"
  bottom: "inception_4b/3x3"
  top: "inception_4b/3x3"
}
layer {
  name: "inception_4b/5x5_reduce"
  type: "Convolution"
  bottom: "inception_4a/output"
  top: "inception_4b/5x5_reduce"
  param {
    lr_mult: 1
    decay_mult: 1
  }
  param {
    lr_mult: 2
    decay_mult: 0
  }
  convolution_param {
    num_output: 24
    kernel_size: 1
    weight_filler {
      type: "xavier"
      std: 0.2
    }
    bias_filler {
      type: "constant"
      value: 0.2
    }
  }
}
layer {
  name: "inception_4b/relu_5x5_reduce"
  type: "ReLU"
  bottom: "inception_4b/5x5_reduce"
  top: "inception_4b/5x5_reduce"
}
layer {
  name: "inception_4b/5x5"
  type: "Convolution"
  bottom: "inception_4b/5x5_reduce"
  top: "inception_4b/5x5"
  param {
    lr_mult: 1
    decay_mult: 1
  }
  param {
    lr_mult: 2
    decay_mult: 0
  }
  convolution_param {
    num_output: 64
    pad: 2
    kernel_size: 5
    weight_filler {
      type: "xavier"
      std: 0.03
    }
    bias_filler {
      type: "constant"
      value: 0.2
    }
  }
}
layer {
  name: "inception_4b/relu_5x5"
  type: "ReLU"
  bottom: "inception_4b/5x5"
  top: "inception_4b/5x5"
}
layer {
  name: "inception_4b/pool"
  type: "Pooling"
  bottom: "inception_4a/output"
  top: "inception_4b/pool"
  pooling_param {
    pool: MAX
    kernel_size: 3
    stride: 1
    pad: 1
  }
}
layer {
  name: "inception_4b/pool_proj"
  type: "Convolution"
  bottom: "inception_4b/pool"
  top: "inception_4b/pool_proj"
  param {
    lr_mult: 1
    decay_mult: 1
  }
  param {
    lr_mult: 2
    decay_mult: 0
  }
  convolution_param {
    num_output: 64
    kernel_size: 1
    weight_filler {
      type: "xavier"
      std: 0.1
    }
    bias_filler {
      type: "constant"
      value: 0.2
    }
  }
}
layer {
  name: "inception_4b/relu_pool_proj"
  type: "ReLU"
  bottom: "inception_4b/pool_proj"
  top: "inception_4b/pool_proj"
}
layer {
  name: "inception_4b/output"
  type: "Concat"
  bottom: "inception_4b/1x1"
  bottom: "inception_4b/3x3"
  bottom: "inception_4b/5x5"
  bottom: "inception_4b/pool_proj"
  top: "inception_4b/output"
}
layer {
  name: "inception_4c/1x1"
  type: "Convolution"
  bottom: "inception_4b/output"
  top: "inception_4c/1x1"
  param {
    lr_mult: 1
    decay_mult: 1
  }
  param {
    lr_mult: 2
    decay_mult: 0
  }
  convolution_param {
    num_output: 128
    kernel_size: 1
    weight_filler {
      type: "xavier"
      std: 0.03
    }
    bias_filler {
      type: "constant"
      value: 0.2
    }
  }
}
layer {
  name: "inception_4c/relu_1x1"
  type: "ReLU"
  bottom: "inception_4c/1x1"
  top: "inception_4c/1x1"
}
layer {
  name: "inception_4c/3x3_reduce"
  type: "Convolution"
  bottom: "inception_4b/output"
  top: "inception_4c/3x3_reduce"
  param {
    lr_mult: 1
    decay_mult: 1
  }
  param {
    lr_mult: 2
    decay_mult: 0
  }
  convolution_param {
    num_output: 128
    kernel_size: 1
    weight_filler {
      type: "xavier"
      std: 0.09
    }
    bias_filler {
      type: "constant"
      value: 0.2
    }
  }
}
layer {
  name: "inception_4c/relu_3x3_reduce"
  type: "ReLU"
  bottom: "inception_4c/3x3_reduce"
  top: "inception_4c/3x3_reduce"
}
layer {
  name: "inception_4c/3x3"
  type: "Convolution"
  bottom: "inception_4c/3x3_reduce"
  top: "inception_4c/3x3"
  param {
    lr_mult: 1
    decay_mult: 1
  }
  param {
    lr_mult: 2
    decay_mult: 0
  }
  convolution_param {
    num_output: 256
    pad: 1
    kernel_size: 3
    weight_filler {
      type: "xavier"
      std: 0.03
    }
    bias_filler {
      type: "constant"
      value: 0.2
    }
  }
}
layer {
  name: "inception_4c/relu_3x3"
  type: "ReLU"
  bottom: "inception_4c/3x3"
  top: "inception_4c/3x3"
}
layer {
  name: "inception_4c/5x5_reduce"
  type: "Convolution"
  bottom: "inception_4b/output"
  top: "inception_4c/5x5_reduce"
  param {
    lr_mult: 1
    decay_mult: 1
  }
  param {
    lr_mult: 2
    decay_mult: 0
  }
  convolution_param {
    num_output: 24
    kernel_size: 1
    weight_filler {
      type: "xavier"
      std: 0.2
    }
    bias_filler {
      type: "constant"
      value: 0.2
    }
  }
}
layer {
  name: "inception_4c/relu_5x5_reduce"
  type: "ReLU"
  bottom: "inception_4c/5x5_reduce"
  top: "inception_4c/5x5_reduce"
}
layer {
  name: "inception_4c/5x5"
  type: "Convolution"
  bottom: "inception_4c/5x5_reduce"
  top: "inception_4c/5x5"
  param {
    lr_mult: 1
    decay_mult: 1
  }
  param {
    lr_mult: 2
    decay_mult: 0
  }
  convolution_param {
    num_output: 64
    pad: 2
    kernel_size: 5
    weight_filler {
      type: "xavier"
      std: 0.03
    }
    bias_filler {
      type: "constant"
      value: 0.2
    }
  }
}
layer {
  name: "inception_4c/relu_5x5"
  type: "ReLU"
  bottom: "inception_4c/5x5"
  top: "inception_4c/5x5"
}
layer {
  name: "inception_4c/pool"
  type: "Pooling"
  bottom: "inception_4b/output"
  top: "inception_4c/pool"
  pooling_param {
    pool: MAX
    kernel_size: 3
    stride: 1
    pad: 1
  }
}
layer {
  name: "inception_4c/pool_proj"
  type: "Convolution"
  bottom: "inception_4c/pool"
  top: "inception_4c/pool_proj"
  param {
    lr_mult: 1
    decay_mult: 1
  }
  param {
    lr_mult: 2
    decay_mult: 0
  }
  convolution_param {
    num_output: 64
    kernel_size: 1
    weight_filler {
      type: "xavier"
      std: 0.1
    }
    bias_filler {
      type: "constant"
      value: 0.2
    }
  }
}
layer {
  name: "inception_4c/relu_pool_proj"
  type: "ReLU"
  bottom: "inception_4c/pool_proj"
  top: "inception_4c/pool_proj"
}
layer {
  name: "inception_4c/output"
  type: "Concat"
  bottom: "inception_4c/1x1"
  bottom: "inception_4c/3x3"
  bottom: "inception_4c/5x5"
  bottom: "inception_4c/pool_proj"
  top: "inception_4c/output"
}
layer {
  name: "inception_4d/1x1"
  type: "Convolution"
  bottom: "inception_4c/output"
  top: "inception_4d/1x1"
  param {
    lr_mult: 1
    decay_mult: 1
  }
  param {
    lr_mult: 2
    decay_mult: 0
  }
  convolution_param {
    num_output: 112
    kernel_size: 1
    weight_filler {
      type: "xavier"
      std: 0.03
    }
    bias_filler {
      type: "constant"
      value: 0.2
    }
  }
}
layer {
  name: "inception_4d/relu_1x1"
  type: "ReLU"
  bottom: "inception_4d/1x1"
  top: "inception_4d/1x1"
}
layer {
  name: "inception_4d/3x3_reduce"
  type: "Convolution"
  bottom: "inception_4c/output"
  top: "inception_4d/3x3_reduce"
  param {
    lr_mult: 1
    decay_mult: 1
  }
  param {
    lr_mult: 2
    decay_mult: 0
  }
  convolution_param {
    num_output: 144
    kernel_size: 1
    weight_filler {
      type: "xavier"
      std: 0.09
    }
    bias_filler {
      type: "constant"
      value: 0.2
    }
  }
}
layer {
  name: "inception_4d/relu_3x3_reduce"
  type: "ReLU"
  bottom: "inception_4d/3x3_reduce"
  top: "inception_4d/3x3_reduce"
}
layer {
  name: "inception_4d/3x3"
  type: "Convolution"
  bottom: "inception_4d/3x3_reduce"
  top: "inception_4d/3x3"
  param {
    lr_mult: 1
    decay_mult: 1
  }
  param {
    lr_mult: 2
    decay_mult: 0
  }
  convolution_param {
    num_output: 288
    pad: 1
    kernel_size: 3
    weight_filler {
      type: "xavier"
      std: 0.03
    }
    bias_filler {
      type: "constant"
      value: 0.2
    }
  }
}
layer {
  name: "inception_4d/relu_3x3"
  type: "ReLU"
  bottom: "inception_4d/3x3"
  top: "inception_4d/3x3"
}
layer {
  name: "inception_4d/5x5_reduce"
  type: "Convolution"
  bottom: "inception_4c/output"
  top: "inception_4d/5x5_reduce"
  param {
    lr_mult: 1
    decay_mult: 1
  }
  param {
    lr_mult: 2
    decay_mult: 0
  }
  convolution_param {
    num_output: 32
    kernel_size: 1
    weight_filler {
      type: "xavier"
      std: 0.2
    }
    bias_filler {
      type: "constant"
      value: 0.2
    }
  }
}
layer {
  name: "inception_4d/relu_5x5_reduce"
  type: "ReLU"
  bottom: "inception_4d/5x5_reduce"
  top: "inception_4d/5x5_reduce"
}
layer {
  name: "inception_4d/5x5"
  type: "Convolution"
  bottom: "inception_4d/5x5_reduce"
  top: "inception_4d/5x5"
  param {
    lr_mult: 1
    decay_mult: 1
  }
  param {
    lr_mult: 2
    decay_mult: 0
  }
  convolution_param {
    num_output: 64
    pad: 2
    kernel_size: 5
    weight_filler {
      type: "xavier"
      std: 0.03
    }
    bias_filler {
      type: "constant"
      value: 0.2
    }
  }
}
layer {
  name: "inception_4d/relu_5x5"
  type: "ReLU"
  bottom: "inception_4d/5x5"
  top: "inception_4d/5x5"
}
layer {
  name: "inception_4d/pool"
  type: "Pooling"
  bottom: "inception_4c/output"
  top: "inception_4d/pool"
  pooling_param {
    pool: MAX
    kernel_size: 3
    stride: 1
    pad: 1
  }
}
layer {
  name: "inception_4d/pool_proj"
  type: "Convolution"
  bottom: "inception_4d/pool"
  top: "inception_4d/pool_proj"
  param {
    lr_mult: 1
    decay_mult: 1
  }
  param {
    lr_mult: 2
    decay_mult: 0
  }
  convolution_param {
    num_output: 64
    kernel_size: 1
    weight_filler {
      type: "xavier"
      std: 0.1
    }
    bias_filler {
      type: "constant"
      value: 0.2
    }
  }
}
layer {
  name: "inception_4d/relu_pool_proj"
  type: "ReLU"
  bottom: "inception_4d/pool_proj"
  top: "inception_4d/pool_proj"
}
layer {
  name: "inception_4d/output"
  type: "Concat"
  bottom: "inception_4d/1x1"
  bottom: "inception_4d/3x3"
  bottom: "inception_4d/5x5"
  bottom: "inception_4d/pool_proj"
  top: "inception_4d/output"
}
layer {
  name: "loss2/ave_pool"
  type: "Pooling"
  bottom: "inception_4d/output"
  top: "loss2/ave_pool"
  pooling_param {
    pool: AVE
    kernel_size: 5
    stride: 3
  }
}
layer {
  name: "loss2/conv"
  type: "Convolution"
  bottom: "loss2/ave_pool"
  top: "loss2/conv"
  param {
    lr_mult: 1
    decay_mult: 1
  }
  param {
    lr_mult: 2
    decay_mult: 0
  }
  convolution_param {
    num_output: 128
    kernel_size: 1
    weight_filler {
      type: "xavier"
      std: 0.08
    }
    bias_filler {
      type: "constant"
      value: 0.2
    }
  }
}
layer {
  name: "loss2/relu_conv"
  type: "ReLU"
  bottom: "loss2/conv"
  top: "loss2/conv"
}
layer {
  name: "loss2/fc"
  type: "InnerProduct"
  bottom: "loss2/conv"
  top: "loss2/fc"
  param {
    lr_mult: 1
    decay_mult: 1
  }
  param {
    lr_mult: 2
    decay_mult: 0
  }
  inner_product_param {
    num_output: 1024
    weight_filler {
      type: "xavier"
      std: 0.02
    }
    bias_filler {
      type: "constant"
      value: 0.2
    }
  }
}
layer {
  name: "loss2/relu_fc"
  type: "ReLU"
  bottom: "loss2/fc"
  top: "loss2/fc"
}
layer {
  name: "loss2/drop_fc"
  type: "Dropout"
  bottom: "loss2/fc"
  top: "loss2/fc"
  dropout_param {
    dropout_ratio: 0.7
  }
}
layer {
  name: "loss2/classifier_plantvillage"
  type: "InnerProduct"
  bottom: "loss2/fc"
  top: "loss2/classifier_plantvillage"
  param {
    lr_mult: 1
    decay_mult: 1
  }
  param {
    lr_mult: 2
    decay_mult: 0
  }
  inner_product_param {
    num_output: 38
    weight_filler {
      type: "xavier"
      std: 0.0009765625
    }
    bias_filler {
      type: "constant"
      value: 0
    }
  }
}
layer {
  name: "inception_4e/1x1"
  type: "Convolution"
  bottom: "inception_4d/output"
  top: "inception_4e/1x1"
  param {
    lr_mult: 1
    decay_mult: 1
  }
  param {
    lr_mult: 2
    decay_mult: 0
  }
  convolution_param {
    num_output: 256
    kernel_size: 1
    weight_filler {
      type: "xavier"
      std: 0.03
    }
    bias_filler {
      type: "constant"
      value: 0.2
    }
  }
}
layer {
  name: "inception_4e/relu_1x1"
  type: "ReLU"
  bottom: "inception_4e/1x1"
  top: "inception_4e/1x1"
}
layer {
  name: "inception_4e/3x3_reduce"
  type: "Convolution"
  bottom: "inception_4d/output"
  top: "inception_4e/3x3_reduce"
  param {
    lr_mult: 1
    decay_mult: 1
  }
  param {
    lr_mult: 2
    decay_mult: 0
  }
  convolution_param {
    num_output: 160
    kernel_size: 1
    weight_filler {
      type: "xavier"
      std: 0.09
    }
    bias_filler {
      type: "constant"
      value: 0.2
    }
  }
}
layer {
  name: "inception_4e/relu_3x3_reduce"
  type: "ReLU"
  bottom: "inception_4e/3x3_reduce"
  top: "inception_4e/3x3_reduce"
}
layer {
  name: "inception_4e/3x3"
  type: "Convolution"
  bottom: "inception_4e/3x3_reduce"
  top: "inception_4e/3x3"
  param {
    lr_mult: 1
    decay_mult: 1
  }
  param {
    lr_mult: 2
    decay_mult: 0
  }
  convolution_param {
    num_output: 320
    pad: 1
    kernel_size: 3
    weight_filler {
      type: "xavier"
      std: 0.03
    }
    bias_filler {
      type: "constant"
      value: 0.2
    }
  }
}
layer {
  name: "inception_4e/relu_3x3"
  type: "ReLU"
  bottom: "inception_4e/3x3"
  top: "inception_4e/3x3"
}
layer {
  name: "inception_4e/5x5_reduce"
  type: "Convolution"
  bottom: "inception_4d/output"
  top: "inception_4e/5x5_reduce"
  param {
    lr_mult: 1
    decay_mult: 1
  }
  param {
    lr_mult: 2
    decay_mult: 0
  }
  convolution_param {
    num_output: 32
    kernel_size: 1
    weight_filler {
      type: "xavier"
      std: 0.2
    }
    bias_filler {
      type: "constant"
      value: 0.2
    }
  }
}
layer {
  name: "inception_4e/relu_5x5_reduce"
  type: "ReLU"
  bottom: "inception_4e/5x5_reduce"
  top: "inception_4e/5x5_reduce"
}
layer {
  name: "inception_4e/5x5"
  type: "Convolution"
  bottom: "inception_4e/5x5_reduce"
  top: "inception_4e/
I0403 15:32:08.138098 12060 layer_factory.hpp:77] Creating layer data
I0403 15:32:08.138716 12060 net.cpp:91] Creating Layer data
I0403 15:32:08.138751 12060 net.cpp:399] data -> data
I0403 15:32:08.138804 12060 net.cpp:399] data -> label
I0403 15:32:08.138841 12060 data_transformer.cpp:25] Loading mean file from: /home/mohanty/data/final_dataset/lmdb/segmented-40-60/mean.binaryproto
I0403 15:32:08.141415 12063 db_lmdb.cpp:38] Opened lmdb /home/mohanty/data/final_dataset/lmdb/segmented-40-60/test_db
I0403 15:32:08.152072 12060 data_layer.cpp:41] output data size: 24,3,224,224
I0403 15:32:08.178805 12060 net.cpp:141] Setting up data
I0403 15:32:08.178918 12060 net.cpp:148] Top shape: 24 3 224 224 (3612672)
I0403 15:32:08.178941 12060 net.cpp:148] Top shape: 24 (24)
I0403 15:32:08.178957 12060 net.cpp:156] Memory required for data: 14450784
I0403 15:32:08.178984 12060 layer_factory.hpp:77] Creating layer label_data_1_split
I0403 15:32:08.179010 12060 net.cpp:91] Creating Layer label_data_1_split
I0403 15:32:08.179029 12060 net.cpp:425] label_data_1_split <- label
I0403 15:32:08.179061 12060 net.cpp:399] label_data_1_split -> label_data_1_split_0
I0403 15:32:08.179090 12060 net.cpp:399] label_data_1_split -> label_data_1_split_1
I0403 15:32:08.179111 12060 net.cpp:399] label_data_1_split -> label_data_1_split_2
I0403 15:32:08.179131 12060 net.cpp:399] label_data_1_split -> label_data_1_split_3
I0403 15:32:08.179152 12060 net.cpp:399] label_data_1_split -> label_data_1_split_4
I0403 15:32:08.179172 12060 net.cpp:399] label_data_1_split -> label_data_1_split_5
I0403 15:32:08.179193 12060 net.cpp:399] label_data_1_split -> label_data_1_split_6
I0403 15:32:08.179214 12060 net.cpp:399] label_data_1_split -> label_data_1_split_7
I0403 15:32:08.179234 12060 net.cpp:399] label_data_1_split -> label_data_1_split_8
I0403 15:32:08.179265 12060 net.cpp:399] label_data_1_split -> label_data_1_split_9
I0403 15:32:08.179386 12060 net.cpp:141] Setting up label_data_1_split
I0403 15:32:08.179411 12060 net.cpp:148] Top shape: 24 (24)
I0403 15:32:08.179430 12060 net.cpp:148] Top shape: 24 (24)
I0403 15:32:08.179445 12060 net.cpp:148] Top shape: 24 (24)
I0403 15:32:08.179461 12060 net.cpp:148] Top shape: 24 (24)
I0403 15:32:08.179477 12060 net.cpp:148] Top shape: 24 (24)
I0403 15:32:08.179493 12060 net.cpp:148] Top shape: 24 (24)
I0403 15:32:08.179509 12060 net.cpp:148] Top shape: 24 (24)
I0403 15:32:08.179527 12060 net.cpp:148] Top shape: 24 (24)
I0403 15:32:08.179543 12060 net.cpp:148] Top shape: 24 (24)
I0403 15:32:08.179558 12060 net.cpp:148] Top shape: 24 (24)
I0403 15:32:08.179603 12060 net.cpp:156] Memory required for data: 14451744
I0403 15:32:08.179620 12060 layer_factory.hpp:77] Creating layer conv1/7x7_s2
I0403 15:32:08.179653 12060 net.cpp:91] Creating Layer conv1/7x7_s2
I0403 15:32:08.179672 12060 net.cpp:425] conv1/7x7_s2 <- data
I0403 15:32:08.179692 12060 net.cpp:399] conv1/7x7_s2 -> conv1/7x7_s2
I0403 15:32:08.319245 12060 net.cpp:141] Setting up conv1/7x7_s2
I0403 15:32:08.319339 12060 net.cpp:148] Top shape: 24 64 112 112 (19267584)
I0403 15:32:08.319365 12060 net.cpp:156] Memory required for data: 91522080
I0403 15:32:08.319398 12060 layer_factory.hpp:77] Creating layer conv1/relu_7x7
I0403 15:32:08.319427 12060 net.cpp:91] Creating Layer conv1/relu_7x7
I0403 15:32:08.319447 12060 net.cpp:425] conv1/relu_7x7 <- conv1/7x7_s2
I0403 15:32:08.319468 12060 net.cpp:386] conv1/relu_7x7 -> conv1/7x7_s2 (in-place)
I0403 15:32:08.319763 12060 net.cpp:141] Setting up conv1/relu_7x7
I0403 15:32:08.319792 12060 net.cpp:148] Top shape: 24 64 112 112 (19267584)
I0403 15:32:08.319809 12060 net.cpp:156] Memory required for data: 168592416
I0403 15:32:08.319825 12060 layer_factory.hpp:77] Creating layer pool1/3x3_s2
I0403 15:32:08.319852 12060 net.cpp:91] Creating Layer pool1/3x3_s2
I0403 15:32:08.319870 12060 net.cpp:425] pool1/3x3_s2 <- conv1/7x7_s2
I0403 15:32:08.319890 12060 net.cpp:399] pool1/3x3_s2 -> pool1/3x3_s2
I0403 15:32:08.319967 12060 net.cpp:141] Setting up pool1/3x3_s2
I0403 15:32:08.319993 12060 net.cpp:148] Top shape: 24 64 56 56 (4816896)
I0403 15:32:08.320009 12060 net.cpp:156] Memory required for data: 187860000
I0403 15:32:08.320025 12060 layer_factory.hpp:77] Creating layer pool1/norm1
I0403 15:32:08.320050 12060 net.cpp:91] Creating Layer pool1/norm1
I0403 15:32:08.320068 12060 net.cpp:425] pool1/norm1 <- pool1/3x3_s2
I0403 15:32:08.320087 12060 net.cpp:399] pool1/norm1 -> pool1/norm1
I0403 15:32:08.320397 12060 net.cpp:141] Setting up pool1/norm1
I0403 15:32:08.320426 12060 net.cpp:148] Top shape: 24 64 56 56 (4816896)
I0403 15:32:08.320443 12060 net.cpp:156] Memory required for data: 207127584
I0403 15:32:08.320459 12060 layer_factory.hpp:77] Creating layer conv2/3x3_reduce
I0403 15:32:08.320487 12060 net.cpp:91] Creating Layer conv2/3x3_reduce
I0403 15:32:08.320504 12060 net.cpp:425] conv2/3x3_reduce <- pool1/norm1
I0403 15:32:08.320525 12060 net.cpp:399] conv2/3x3_reduce -> conv2/3x3_reduce
I0403 15:32:08.321889 12060 net.cpp:141] Setting up conv2/3x3_reduce
I0403 15:32:08.321919 12060 net.cpp:148] Top shape: 24 64 56 56 (4816896)
I0403 15:32:08.321936 12060 net.cpp:156] Memory required for data: 226395168
I0403 15:32:08.321957 12060 layer_factory.hpp:77] Creating layer conv2/relu_3x3_reduce
I0403 15:32:08.321976 12060 net.cpp:91] Creating Layer conv2/relu_3x3_reduce
I0403 15:32:08.321992 12060 net.cpp:425] conv2/relu_3x3_reduce <- conv2/3x3_reduce
I0403 15:32:08.322010 12060 net.cpp:386] conv2/relu_3x3_reduce -> conv2/3x3_reduce (in-place)
I0403 15:32:08.322265 12060 net.cpp:141] Setting up conv2/relu_3x3_reduce
I0403 15:32:08.322293 12060 net.cpp:148] Top shape: 24 64 56 56 (4816896)
I0403 15:32:08.322307 12060 net.cpp:156] Memory required for data: 245662752
I0403 15:32:08.322324 12060 layer_factory.hpp:77] Creating layer conv2/3x3
I0403 15:32:08.322345 12060 net.cpp:91] Creating Layer conv2/3x3
I0403 15:32:08.322378 12060 net.cpp:425] conv2/3x3 <- conv2/3x3_reduce
I0403 15:32:08.322399 12060 net.cpp:399] conv2/3x3 -> conv2/3x3
I0403 15:32:08.324625 12060 net.cpp:141] Setting up conv2/3x3
I0403 15:32:08.324656 12060 net.cpp:148] Top shape: 24 192 56 56 (14450688)
I0403 15:32:08.324674 12060 net.cpp:156] Memory required for data: 303465504
I0403 15:32:08.324707 12060 layer_factory.hpp:77] Creating layer conv2/relu_3x3
I0403 15:32:08.324726 12060 net.cpp:91] Creating Layer conv2/relu_3x3
I0403 15:32:08.324743 12060 net.cpp:425] conv2/relu_3x3 <- conv2/3x3
I0403 15:32:08.324759 12060 net.cpp:386] conv2/relu_3x3 -> conv2/3x3 (in-place)
I0403 15:32:08.324923 12060 net.cpp:141] Setting up conv2/relu_3x3
I0403 15:32:08.324947 12060 net.cpp:148] Top shape: 24 192 56 56 (14450688)
I0403 15:32:08.324995 12060 net.cpp:156] Memory required for data: 361268256
I0403 15:32:08.325011 12060 layer_factory.hpp:77] Creating layer conv2/norm2
I0403 15:32:08.325028 12060 net.cpp:91] Creating Layer conv2/norm2
I0403 15:32:08.325045 12060 net.cpp:425] conv2/norm2 <- conv2/3x3
I0403 15:32:08.325063 12060 net.cpp:399] conv2/norm2 -> conv2/norm2
I0403 15:32:08.325372 12060 net.cpp:141] Setting up conv2/norm2
I0403 15:32:08.325399 12060 net.cpp:148] Top shape: 24 192 56 56 (14450688)
I0403 15:32:08.325414 12060 net.cpp:156] Memory required for data: 419071008
I0403 15:32:08.325429 12060 layer_factory.hpp:77] Creating layer pool2/3x3_s2
I0403 15:32:08.325450 12060 net.cpp:91] Creating Layer pool2/3x3_s2
I0403 15:32:08.325467 12060 net.cpp:425] pool2/3x3_s2 <- conv2/norm2
I0403 15:32:08.325486 12060 net.cpp:399] pool2/3x3_s2 -> pool2/3x3_s2
I0403 15:32:08.325539 12060 net.cpp:141] Setting up pool2/3x3_s2
I0403 15:32:08.325562 12060 net.cpp:148] Top shape: 24 192 28 28 (3612672)
I0403 15:32:08.325577 12060 net.cpp:156] Memory required for data: 433521696
I0403 15:32:08.325592 12060 layer_factory.hpp:77] Creating layer pool2/3x3_s2_pool2/3x3_s2_0_split
I0403 15:32:08.325610 12060 net.cpp:91] Creating Layer pool2/3x3_s2_pool2/3x3_s2_0_split
I0403 15:32:08.325626 12060 net.cpp:425] pool2/3x3_s2_pool2/3x3_s2_0_split <- pool2/3x3_s2
I0403 15:32:08.325647 12060 net.cpp:399] pool2/3x3_s2_pool2/3x3_s2_0_split -> pool2/3x3_s2_pool2/3x3_s2_0_split_0
I0403 15:32:08.325669 12060 net.cpp:399] pool2/3x3_s2_pool2/3x3_s2_0_split -> pool2/3x3_s2_pool2/3x3_s2_0_split_1
I0403 15:32:08.325688 12060 net.cpp:399] pool2/3x3_s2_pool2/3x3_s2_0_split -> pool2/3x3_s2_pool2/3x3_s2_0_split_2
I0403 15:32:08.325708 12060 net.cpp:399] pool2/3x3_s2_pool2/3x3_s2_0_split -> pool2/3x3_s2_pool2/3x3_s2_0_split_3
I0403 15:32:08.325780 12060 net.cpp:141] Setting up pool2/3x3_s2_pool2/3x3_s2_0_split
I0403 15:32:08.325803 12060 net.cpp:148] Top shape: 24 192 28 28 (3612672)
I0403 15:32:08.325820 12060 net.cpp:148] Top shape: 24 192 28 28 (3612672)
I0403 15:32:08.325836 12060 net.cpp:148] Top shape: 24 192 28 28 (3612672)
I0403 15:32:08.325851 12060 net.cpp:148] Top shape: 24 192 28 28 (3612672)
I0403 15:32:08.325865 12060 net.cpp:156] Memory required for data: 491324448
I0403 15:32:08.325880 12060 layer_factory.hpp:77] Creating layer inception_3a/1x1
I0403 15:32:08.325902 12060 net.cpp:91] Creating Layer inception_3a/1x1
I0403 15:32:08.325920 12060 net.cpp:425] inception_3a/1x1 <- pool2/3x3_s2_pool2/3x3_s2_0_split_0
I0403 15:32:08.325942 12060 net.cpp:399] inception_3a/1x1 -> inception_3a/1x1
I0403 15:32:08.327461 12060 net.cpp:141] Setting up inception_3a/1x1
I0403 15:32:08.327491 12060 net.cpp:148] Top shape: 24 64 28 28 (1204224)
I0403 15:32:08.327508 12060 net.cpp:156] Memory required for data: 496141344
I0403 15:32:08.327527 12060 layer_factory.hpp:77] Creating layer inception_3a/relu_1x1
I0403 15:32:08.327545 12060 net.cpp:91] Creating Layer inception_3a/relu_1x1
I0403 15:32:08.327561 12060 net.cpp:425] inception_3a/relu_1x1 <- inception_3a/1x1
I0403 15:32:08.327579 12060 net.cpp:386] inception_3a/relu_1x1 -> inception_3a/1x1 (in-place)
I0403 15:32:08.327754 12060 net.cpp:141] Setting up inception_3a/relu_1x1
I0403 15:32:08.327781 12060 net.cpp:148] Top shape: 24 64 28 28 (1204224)
I0403 15:32:08.327797 12060 net.cpp:156] Memory required for data: 500958240
I0403 15:32:08.327812 12060 layer_factory.hpp:77] Creating layer inception_3a/3x3_reduce
I0403 15:32:08.327836 12060 net.cpp:91] Creating Layer inception_3a/3x3_reduce
I0403 15:32:08.327852 12060 net.cpp:425] inception_3a/3x3_reduce <- pool2/3x3_s2_pool2/3x3_s2_0_split_1
I0403 15:32:08.327873 12060 net.cpp:399] inception_3a/3x3_reduce -> inception_3a/3x3_reduce
I0403 15:32:08.329571 12060 net.cpp:141] Setting up inception_3a/3x3_reduce
I0403 15:32:08.329601 12060 net.cpp:148] Top shape: 24 96 28 28 (1806336)
I0403 15:32:08.329617 12060 net.cpp:156] Memory required for data: 508183584
I0403 15:32:08.329640 12060 layer_factory.hpp:77] Creating layer inception_3a/relu_3x3_reduce
I0403 15:32:08.329679 12060 net.cpp:91] Creating Layer inception_3a/relu_3x3_reduce
I0403 15:32:08.329697 12060 net.cpp:425] inception_3a/relu_3x3_reduce <- inception_3a/3x3_reduce
I0403 15:32:08.329718 12060 net.cpp:386] inception_3a/relu_3x3_reduce -> inception_3a/3x3_reduce (in-place)
I0403 15:32:08.329897 12060 net.cpp:141] Setting up inception_3a/relu_3x3_reduce
I0403 15:32:08.329922 12060 net.cpp:148] Top shape: 24 96 28 28 (1806336)
I0403 15:32:08.329937 12060 net.cpp:156] Memory required for data: 515408928
I0403 15:32:08.329952 12060 layer_factory.hpp:77] Creating layer inception_3a/3x3
I0403 15:32:08.329974 12060 net.cpp:91] Creating Layer inception_3a/3x3
I0403 15:32:08.329994 12060 net.cpp:425] inception_3a/3x3 <- inception_3a/3x3_reduce
I0403 15:32:08.330013 12060 net.cpp:399] inception_3a/3x3 -> inception_3a/3x3
I0403 15:32:08.331648 12060 net.cpp:141] Setting up inception_3a/3x3
I0403 15:32:08.331677 12060 net.cpp:148] Top shape: 24 128 28 28 (2408448)
I0403 15:32:08.331693 12060 net.cpp:156] Memory required for data: 525042720
I0403 15:32:08.331712 12060 layer_factory.hpp:77] Creating layer inception_3a/relu_3x3
I0403 15:32:08.331729 12060 net.cpp:91] Creating Layer inception_3a/relu_3x3
I0403 15:32:08.331745 12060 net.cpp:425] inception_3a/relu_3x3 <- inception_3a/3x3
I0403 15:32:08.331764 12060 net.cpp:386] inception_3a/relu_3x3 -> inception_3a/3x3 (in-place)
I0403 15:32:08.332037 12060 net.cpp:141] Setting up inception_3a/relu_3x3
I0403 15:32:08.332065 12060 net.cpp:148] Top shape: 24 128 28 28 (2408448)
I0403 15:32:08.332080 12060 net.cpp:156] Memory required for data: 534676512
I0403 15:32:08.332095 12060 layer_factory.hpp:77] Creating layer inception_3a/5x5_reduce
I0403 15:32:08.332118 12060 net.cpp:91] Creating Layer inception_3a/5x5_reduce
I0403 15:32:08.332136 12060 net.cpp:425] inception_3a/5x5_reduce <- pool2/3x3_s2_pool2/3x3_s2_0_split_2
I0403 15:32:08.332157 12060 net.cpp:399] inception_3a/5x5_reduce -> inception_3a/5x5_reduce
I0403 15:32:08.333183 12060 net.cpp:141] Setting up inception_3a/5x5_reduce
I0403 15:32:08.333210 12060 net.cpp:148] Top shape: 24 16 28 28 (301056)
I0403 15:32:08.333226 12060 net.cpp:156] Memory required for data: 535880736
I0403 15:32:08.333246 12060 layer_factory.hpp:77] Creating layer inception_3a/relu_5x5_reduce
I0403 15:32:08.333266 12060 net.cpp:91] Creating Layer inception_3a/relu_5x5_reduce
I0403 15:32:08.333281 12060 net.cpp:425] inception_3a/relu_5x5_reduce <- inception_3a/5x5_reduce
I0403 15:32:08.333305 12060 net.cpp:386] inception_3a/relu_5x5_reduce -> inception_3a/5x5_reduce (in-place)
I0403 15:32:08.333623 12060 net.cpp:141] Setting up inception_3a/relu_5x5_reduce
I0403 15:32:08.333652 12060 net.cpp:148] Top shape: 24 16 28 28 (301056)
I0403 15:32:08.333667 12060 net.cpp:156] Memory required for data: 537084960
I0403 15:32:08.333681 12060 layer_factory.hpp:77] Creating layer inception_3a/5x5
I0403 15:32:08.333705 12060 net.cpp:91] Creating Layer inception_3a/5x5
I0403 15:32:08.333724 12060 net.cpp:425] inception_3a/5x5 <- inception_3a/5x5_reduce
I0403 15:32:08.333745 12060 net.cpp:399] inception_3a/5x5 -> inception_3a/5x5
I0403 15:32:08.334794 12060 net.cpp:141] Setting up inception_3a/5x5
I0403 15:32:08.334825 12060 net.cpp:148] Top shape: 24 32 28 28 (602112)
I0403 15:32:08.334841 12060 net.cpp:156] Memory required for data: 539493408
I0403 15:32:08.334858 12060 layer_factory.hpp:77] Creating layer inception_3a/relu_5x5
I0403 15:32:08.334877 12060 net.cpp:91] Creating Layer inception_3a/relu_5x5
I0403 15:32:08.334892 12060 net.cpp:425] inception_3a/relu_5x5 <- inception_3a/5x5
I0403 15:32:08.334910 12060 net.cpp:386] inception_3a/relu_5x5 -> inception_3a/5x5 (in-place)
I0403 15:32:08.335083 12060 net.cpp:141] Setting up inception_3a/relu_5x5
I0403 15:32:08.335108 12060 net.cpp:148] Top shape: 24 32 28 28 (602112)
I0403 15:32:08.335124 12060 net.cpp:156] Memory required for data: 541901856
I0403 15:32:08.335139 12060 layer_factory.hpp:77] Creating layer inception_3a/pool
I0403 15:32:08.335156 12060 net.cpp:91] Creating Layer inception_3a/pool
I0403 15:32:08.335186 12060 net.cpp:425] inception_3a/pool <- pool2/3x3_s2_pool2/3x3_s2_0_split_3
I0403 15:32:08.335209 12060 net.cpp:399] inception_3a/pool -> inception_3a/pool
I0403 15:32:08.335266 12060 net.cpp:141] Setting up inception_3a/pool
I0403 15:32:08.335292 12060 net.cpp:148] Top shape: 24 192 28 28 (3612672)
I0403 15:32:08.335309 12060 net.cpp:156] Memory required for data: 556352544
I0403 15:32:08.335322 12060 layer_factory.hpp:77] Creating layer inception_3a/pool_proj
I0403 15:32:08.335345 12060 net.cpp:91] Creating Layer inception_3a/pool_proj
I0403 15:32:08.335371 12060 net.cpp:425] inception_3a/pool_proj <- inception_3a/pool
I0403 15:32:08.335389 12060 net.cpp:399] inception_3a/pool_proj -> inception_3a/pool_proj
I0403 15:32:08.336345 12060 net.cpp:141] Setting up inception_3a/pool_proj
I0403 15:32:08.336380 12060 net.cpp:148] Top shape: 24 32 28 28 (602112)
I0403 15:32:08.336407 12060 net.cpp:156] Memory required for data: 558760992
I0403 15:32:08.336432 12060 layer_factory.hpp:77] Creating layer inception_3a/relu_pool_proj
I0403 15:32:08.336453 12060 net.cpp:91] Creating Layer inception_3a/relu_pool_proj
I0403 15:32:08.336469 12060 net.cpp:425] inception_3a/relu_pool_proj <- inception_3a/pool_proj
I0403 15:32:08.336493 12060 net.cpp:386] inception_3a/relu_pool_proj -> inception_3a/pool_proj (in-place)
I0403 15:32:08.336791 12060 net.cpp:141] Setting up inception_3a/relu_pool_proj
I0403 15:32:08.336819 12060 net.cpp:148] Top shape: 24 32 28 28 (602112)
I0403 15:32:08.336834 12060 net.cpp:156] Memory required for data: 561169440
I0403 15:32:08.336848 12060 layer_factory.hpp:77] Creating layer inception_3a/output
I0403 15:32:08.336868 12060 net.cpp:91] Creating Layer inception_3a/output
I0403 15:32:08.336884 12060 net.cpp:425] inception_3a/output <- inception_3a/1x1
I0403 15:32:08.336899 12060 net.cpp:425] inception_3a/output <- inception_3a/3x3
I0403 15:32:08.336915 12060 net.cpp:425] inception_3a/output <- inception_3a/5x5
I0403 15:32:08.336931 12060 net.cpp:425] inception_3a/output <- inception_3a/pool_proj
I0403 15:32:08.336948 12060 net.cpp:399] inception_3a/output -> inception_3a/output
I0403 15:32:08.336995 12060 net.cpp:141] Setting up inception_3a/output
I0403 15:32:08.337018 12060 net.cpp:148] Top shape: 24 256 28 28 (4816896)
I0403 15:32:08.337033 12060 net.cpp:156] Memory required for data: 580437024
I0403 15:32:08.337049 12060 layer_factory.hpp:77] Creating layer inception_3a/output_inception_3a/output_0_split
I0403 15:32:08.337067 12060 net.cpp:91] Creating Layer inception_3a/output_inception_3a/output_0_split
I0403 15:32:08.337083 12060 net.cpp:425] inception_3a/output_inception_3a/output_0_split <- inception_3a/output
I0403 15:32:08.337100 12060 net.cpp:399] inception_3a/output_inception_3a/output_0_split -> inception_3a/output_inception_3a/output_0_split_0
I0403 15:32:08.337121 12060 net.cpp:399] inception_3a/output_inception_3a/output_0_split -> inception_3a/output_inception_3a/output_0_split_1
I0403 15:32:08.337146 12060 net.cpp:399] inception_3a/output_inception_3a/output_0_split -> inception_3a/output_inception_3a/output_0_split_2
I0403 15:32:08.337167 12060 net.cpp:399] inception_3a/output_inception_3a/output_0_split -> inception_3a/output_inception_3a/output_0_split_3
I0403 15:32:08.337240 12060 net.cpp:141] Setting up inception_3a/output_inception_3a/output_0_split
I0403 15:32:08.337262 12060 net.cpp:148] Top shape: 24 256 28 28 (4816896)
I0403 15:32:08.337280 12060 net.cpp:148] Top shape: 24 256 28 28 (4816896)
I0403 15:32:08.337296 12060 net.cpp:148] Top shape: 24 256 28 28 (4816896)
I0403 15:32:08.337311 12060 net.cpp:148] Top shape: 24 256 28 28 (4816896)
I0403 15:32:08.337324 12060 net.cpp:156] Memory required for data: 657507360
I0403 15:32:08.337338 12060 layer_factory.hpp:77] Creating layer inception_3b/1x1
I0403 15:32:08.337369 12060 net.cpp:91] Creating Layer inception_3b/1x1
I0403 15:32:08.337388 12060 net.cpp:425] inception_3b/1x1 <- inception_3a/output_inception_3a/output_0_split_0
I0403 15:32:08.337407 12060 net.cpp:399] inception_3b/1x1 -> inception_3b/1x1
I0403 15:32:08.338538 12060 net.cpp:141] Setting up inception_3b/1x1
I0403 15:32:08.338577 12060 net.cpp:148] Top shape: 24 128 28 28 (2408448)
I0403 15:32:08.338594 12060 net.cpp:156] Memory required for data: 667141152
I0403 15:32:08.338613 12060 layer_factory.hpp:77] Creating layer inception_3b/relu_1x1
I0403 15:32:08.338634 12060 net.cpp:91] Creating Layer inception_3b/relu_1x1
I0403 15:32:08.338651 12060 net.cpp:425] inception_3b/relu_1x1 <- inception_3b/1x1
I0403 15:32:08.338668 12060 net.cpp:386] inception_3b/relu_1x1 -> inception_3b/1x1 (in-place)
I0403 15:32:08.338843 12060 net.cpp:141] Setting up inception_3b/relu_1x1
I0403 15:32:08.338868 12060 net.cpp:148] Top shape: 24 128 28 28 (2408448)
I0403 15:32:08.338883 12060 net.cpp:156] Memory required for data: 676774944
I0403 15:32:08.338897 12060 layer_factory.hpp:77] Creating layer inception_3b/3x3_reduce
I0403 15:32:08.338920 12060 net.cpp:91] Creating Layer inception_3b/3x3_reduce
I0403 15:32:08.338937 12060 net.cpp:425] inception_3b/3x3_reduce <- inception_3a/output_inception_3a/output_0_split_1
I0403 15:32:08.338959 12060 net.cpp:399] inception_3b/3x3_reduce -> inception_3b/3x3_reduce
I0403 15:32:08.340111 12060 net.cpp:141] Setting up inception_3b/3x3_reduce
I0403 15:32:08.340139 12060 net.cpp:148] Top shape: 24 128 28 28 (2408448)
I0403 15:32:08.340154 12060 net.cpp:156] Memory required for data: 686408736
I0403 15:32:08.340173 12060 layer_factory.hpp:77] Creating layer inception_3b/relu_3x3_reduce
I0403 15:32:08.340198 12060 net.cpp:91] Creating Layer inception_3b/relu_3x3_reduce
I0403 15:32:08.340215 12060 net.cpp:425] inception_3b/relu_3x3_reduce <- inception_3b/3x3_reduce
I0403 15:32:08.340232 12060 net.cpp:386] inception_3b/relu_3x3_reduce -> inception_3b/3x3_reduce (in-place)
I0403 15:32:08.340425 12060 net.cpp:141] Setting up inception_3b/relu_3x3_reduce
I0403 15:32:08.340453 12060 net.cpp:148] Top shape: 24 128 28 28 (2408448)
I0403 15:32:08.340471 12060 net.cpp:156] Memory required for data: 696042528
I0403 15:32:08.340486 12060 layer_factory.hpp:77] Creating layer inception_3b/3x3
I0403 15:32:08.340512 12060 net.cpp:91] Creating Layer inception_3b/3x3
I0403 15:32:08.340529 12060 net.cpp:425] inception_3b/3x3 <- inception_3b/3x3_reduce
I0403 15:32:08.340551 12060 net.cpp:399] inception_3b/3x3 -> inception_3b/3x3
I0403 15:32:08.343447 12060 net.cpp:141] Setting up inception_3b/3x3
I0403 15:32:08.343477 12060 net.cpp:148] Top shape: 24 192 28 28 (3612672)
I0403 15:32:08.343493 12060 net.cpp:156] Memory required for data: 710493216
I0403 15:32:08.343511 12060 layer_factory.hpp:77] Creating layer inception_3b/relu_3x3
I0403 15:32:08.343530 12060 net.cpp:91] Creating Layer inception_3b/relu_3x3
I0403 15:32:08.343546 12060 net.cpp:425] inception_3b/relu_3x3 <- inception_3b/3x3
I0403 15:32:08.343566 12060 net.cpp:386] inception_3b/relu_3x3 -> inception_3b/3x3 (in-place)
I0403 15:32:08.343842 12060 net.cpp:141] Setting up inception_3b/relu_3x3
I0403 15:32:08.343870 12060 net.cpp:148] Top shape: 24 192 28 28 (3612672)
I0403 15:32:08.343885 12060 net.cpp:156] Memory required for data: 724943904
I0403 15:32:08.343900 12060 layer_factory.hpp:77] Creating layer inception_3b/5x5_reduce
I0403 15:32:08.343924 12060 net.cpp:91] Creating Layer inception_3b/5x5_reduce
I0403 15:32:08.343941 12060 net.cpp:425] inception_3b/5x5_reduce <- inception_3a/output_inception_3a/output_0_split_2
I0403 15:32:08.343964 12060 net.cpp:399] inception_3b/5x5_reduce -> inception_3b/5x5_reduce
I0403 15:32:08.344980 12060 net.cpp:141] Setting up inception_3b/5x5_reduce
I0403 15:32:08.345010 12060 net.cpp:148] Top shape: 24 32 28 28 (602112)
I0403 15:32:08.345026 12060 net.cpp:156] Memory required for data: 727352352
I0403 15:32:08.345046 12060 layer_factory.hpp:77] Creating layer inception_3b/relu_5x5_reduce
I0403 15:32:08.345063 12060 net.cpp:91] Creating Layer inception_3b/relu_5x5_reduce
I0403 15:32:08.345080 12060 net.cpp:425] inception_3b/relu_5x5_reduce <- inception_3b/5x5_reduce
I0403 15:32:08.345098 12060 net.cpp:386] inception_3b/relu_5x5_reduce -> inception_3b/5x5_reduce (in-place)
I0403 15:32:08.345289 12060 net.cpp:141] Setting up inception_3b/relu_5x5_reduce
I0403 15:32:08.345314 12060 net.cpp:148] Top shape: 24 32 28 28 (602112)
I0403 15:32:08.345329 12060 net.cpp:156] Memory required for data: 729760800
I0403 15:32:08.345345 12060 layer_factory.hpp:77] Creating layer inception_3b/5x5
I0403 15:32:08.345374 12060 net.cpp:91] Creating Layer inception_3b/5x5
I0403 15:32:08.345392 12060 net.cpp:425] inception_3b/5x5 <- inception_3b/5x5_reduce
I0403 15:32:08.345414 12060 net.cpp:399] inception_3b/5x5 -> inception_3b/5x5
I0403 15:32:08.347396 12060 net.cpp:141] Setting up inception_3b/5x5
I0403 15:32:08.347425 12060 net.cpp:148] Top shape: 24 96 28 28 (1806336)
I0403 15:32:08.347441 12060 net.cpp:156] Memory required for data: 736986144
I0403 15:32:08.347460 12060 layer_factory.hpp:77] Creating layer inception_3b/relu_5x5
I0403 15:32:08.347481 12060 net.cpp:91] Creating Layer inception_3b/relu_5x5
I0403 15:32:08.347498 12060 net.cpp:425] inception_3b/relu_5x5 <- inception_3b/5x5
I0403 15:32:08.347522 12060 net.cpp:386] inception_3b/relu_5x5 -> inception_3b/5x5 (in-place)
I0403 15:32:08.347714 12060 net.cpp:141] Setting up inception_3b/relu_5x5
I0403 15:32:08.347753 12060 net.cpp:148] Top shape: 24 96 28 28 (1806336)
I0403 15:32:08.347769 12060 net.cpp:156] Memory required for data: 744211488
I0403 15:32:08.347784 12060 layer_factory.hpp:77] Creating layer inception_3b/pool
I0403 15:32:08.347801 12060 net.cpp:91] Creating Layer inception_3b/pool
I0403 15:32:08.347818 12060 net.cpp:425] inception_3b/pool <- inception_3a/output_inception_3a/output_0_split_3
I0403 15:32:08.347837 12060 net.cpp:399] inception_3b/pool -> inception_3b/pool
I0403 15:32:08.347894 12060 net.cpp:141] Setting up inception_3b/pool
I0403 15:32:08.347919 12060 net.cpp:148] Top shape: 24 256 28 28 (4816896)
I0403 15:32:08.347935 12060 net.cpp:156] Memory required for data: 763479072
I0403 15:32:08.347950 12060 layer_factory.hpp:77] Creating layer inception_3b/pool_proj
I0403 15:32:08.347973 12060 net.cpp:91] Creating Layer inception_3b/pool_proj
I0403 15:32:08.347992 12060 net.cpp:425] inception_3b/pool_proj <- inception_3b/pool
I0403 15:32:08.348014 12060 net.cpp:399] inception_3b/pool_proj -> inception_3b/pool_proj
I0403 15:32:08.349170 12060 net.cpp:141] Setting up inception_3b/pool_proj
I0403 15:32:08.349197 12060 net.cpp:148] Top shape: 24 64 28 28 (1204224)
I0403 15:32:08.349213 12060 net.cpp:156] Memory required for data: 768295968
I0403 15:32:08.349231 12060 layer_factory.hpp:77] Creating layer inception_3b/relu_pool_proj
I0403 15:32:08.349252 12060 net.cpp:91] Creating Layer inception_3b/relu_pool_proj
I0403 15:32:08.349270 12060 net.cpp:425] inception_3b/relu_pool_proj <- inception_3b/pool_proj
I0403 15:32:08.349288 12060 net.cpp:386] inception_3b/relu_pool_proj -> inception_3b/pool_proj (in-place)
I0403 15:32:08.349694 12060 net.cpp:141] Setting up inception_3b/relu_pool_proj
I0403 15:32:08.349720 12060 net.cpp:148] Top shape: 24 64 28 28 (1204224)
I0403 15:32:08.349735 12060 net.cpp:156] Memory required for data: 773112864
I0403 15:32:08.349750 12060 layer_factory.hpp:77] Creating layer inception_3b/output
I0403 15:32:08.349768 12060 net.cpp:91] Creating Layer inception_3b/output
I0403 15:32:08.349784 12060 net.cpp:425] inception_3b/output <- inception_3b/1x1
I0403 15:32:08.349802 12060 net.cpp:425] inception_3b/output <- inception_3b/3x3
I0403 15:32:08.349817 12060 net.cpp:425] inception_3b/output <- inception_3b/5x5
I0403 15:32:08.349833 12060 net.cpp:425] inception_3b/output <- inception_3b/pool_proj
I0403 15:32:08.349853 12060 net.cpp:399] inception_3b/output -> inception_3b/output
I0403 15:32:08.349897 12060 net.cpp:141] Setting up inception_3b/output
I0403 15:32:08.349922 12060 net.cpp:148] Top shape: 24 480 28 28 (9031680)
I0403 15:32:08.349938 12060 net.cpp:156] Memory required for data: 809239584
I0403 15:32:08.349952 12060 layer_factory.hpp:77] Creating layer pool3/3x3_s2
I0403 15:32:08.349969 12060 net.cpp:91] Creating Layer pool3/3x3_s2
I0403 15:32:08.349987 12060 net.cpp:425] pool3/3x3_s2 <- inception_3b/output
I0403 15:32:08.350020 12060 net.cpp:399] pool3/3x3_s2 -> pool3/3x3_s2
I0403 15:32:08.350085 12060 net.cpp:141] Setting up pool3/3x3_s2
I0403 15:32:08.350108 12060 net.cpp:148] Top shape: 24 480 14 14 (2257920)
I0403 15:32:08.350123 12060 net.cpp:156] Memory required for data: 818271264
I0403 15:32:08.350138 12060 layer_factory.hpp:77] Creating layer pool3/3x3_s2_pool3/3x3_s2_0_split
I0403 15:32:08.350157 12060 net.cpp:91] Creating Layer pool3/3x3_s2_pool3/3x3_s2_0_split
I0403 15:32:08.350172 12060 net.cpp:425] pool3/3x3_s2_pool3/3x3_s2_0_split <- pool3/3x3_s2
I0403 15:32:08.350193 12060 net.cpp:399] pool3/3x3_s2_pool3/3x3_s2_0_split -> pool3/3x3_s2_pool3/3x3_s2_0_split_0
I0403 15:32:08.350214 12060 net.cpp:399] pool3/3x3_s2_pool3/3x3_s2_0_split -> pool3/3x3_s2_pool3/3x3_s2_0_split_1
I0403 15:32:08.350234 12060 net.cpp:399] pool3/3x3_s2_pool3/3x3_s2_0_split -> pool3/3x3_s2_pool3/3x3_s2_0_split_2
I0403 15:32:08.350255 12060 net.cpp:399] pool3/3x3_s2_pool3/3x3_s2_0_split -> pool3/3x3_s2_pool3/3x3_s2_0_split_3
I0403 15:32:08.350332 12060 net.cpp:141] Setting up pool3/3x3_s2_pool3/3x3_s2_0_split
I0403 15:32:08.350361 12060 net.cpp:148] Top shape: 24 480 14 14 (2257920)
I0403 15:32:08.350379 12060 net.cpp:148] Top shape: 24 480 14 14 (2257920)
I0403 15:32:08.350395 12060 net.cpp:148] Top shape: 24 480 14 14 (2257920)
I0403 15:32:08.350411 12060 net.cpp:148] Top shape: 24 480 14 14 (2257920)
I0403 15:32:08.350426 12060 net.cpp:156] Memory required for data: 854397984
I0403 15:32:08.350440 12060 layer_factory.hpp:77] Creating layer inception_4a/1x1
I0403 15:32:08.350462 12060 net.cpp:91] Creating Layer inception_4a/1x1
I0403 15:32:08.350481 12060 net.cpp:425] inception_4a/1x1 <- pool3/3x3_s2_pool3/3x3_s2_0_split_0
I0403 15:32:08.350502 12060 net.cpp:399] inception_4a/1x1 -> inception_4a/1x1
I0403 15:32:08.352061 12060 net.cpp:141] Setting up inception_4a/1x1
I0403 15:32:08.352090 12060 net.cpp:148] Top shape: 24 192 14 14 (903168)
I0403 15:32:08.352108 12060 net.cpp:156] Memory required for data: 858010656
I0403 15:32:08.352125 12060 layer_factory.hpp:77] Creating layer inception_4a/relu_1x1
I0403 15:32:08.352147 12060 net.cpp:91] Creating Layer inception_4a/relu_1x1
I0403 15:32:08.352164 12060 net.cpp:425] inception_4a/relu_1x1 <- inception_4a/1x1
I0403 15:32:08.352183 12060 net.cpp:386] inception_4a/relu_1x1 -> inception_4a/1x1 (in-place)
I0403 15:32:08.352370 12060 net.cpp:141] Setting up inception_4a/relu_1x1
I0403 15:32:08.352406 12060 net.cpp:148] Top shape: 24 192 14 14 (903168)
I0403 15:32:08.352422 12060 net.cpp:156] Memory required for data: 861623328
I0403 15:32:08.352437 12060 layer_factory.hpp:77] Creating layer inception_4a/3x3_reduce
I0403 15:32:08.352463 12060 net.cpp:91] Creating Layer inception_4a/3x3_reduce
I0403 15:32:08.352483 12060 net.cpp:425] inception_4a/3x3_reduce <- pool3/3x3_s2_pool3/3x3_s2_0_split_1
I0403 15:32:08.352502 12060 net.cpp:399] inception_4a/3x3_reduce -> inception_4a/3x3_reduce
I0403 15:32:08.353814 12060 net.cpp:141] Setting up inception_4a/3x3_reduce
I0403 15:32:08.353843 12060 net.cpp:148] Top shape: 24 96 14 14 (451584)
I0403 15:32:08.353859 12060 net.cpp:156] Memory required for data: 863429664
I0403 15:32:08.353884 12060 layer_factory.hpp:77] Creating layer inception_4a/relu_3x3_reduce
I0403 15:32:08.353905 12060 net.cpp:91] Creating Layer inception_4a/relu_3x3_reduce
I0403 15:32:08.353922 12060 net.cpp:425] inception_4a/relu_3x3_reduce <- inception_4a/3x3_reduce
I0403 15:32:08.353943 12060 net.cpp:386] inception_4a/relu_3x3_reduce -> inception_4a/3x3_reduce (in-place)
I0403 15:32:08.354120 12060 net.cpp:141] Setting up inception_4a/relu_3x3_reduce
I0403 15:32:08.354146 12060 net.cpp:148] Top shape: 24 96 14 14 (451584)
I0403 15:32:08.354161 12060 net.cpp:156] Memory required for data: 865236000
I0403 15:32:08.354176 12060 layer_factory.hpp:77] Creating layer inception_4a/3x3
I0403 15:32:08.354200 12060 net.cpp:91] Creating Layer inception_4a/3x3
I0403 15:32:08.354219 12060 net.cpp:425] inception_4a/3x3 <- inception_4a/3x3_reduce
I0403 15:32:08.354238 12060 net.cpp:399] inception_4a/3x3 -> inception_4a/3x3
I0403 15:32:08.356931 12060 net.cpp:141] Setting up inception_4a/3x3
I0403 15:32:08.356961 12060 net.cpp:148] Top shape: 24 208 14 14 (978432)
I0403 15:32:08.356978 12060 net.cpp:156] Memory required for data: 869149728
I0403 15:32:08.356997 12060 layer_factory.hpp:77] Creating layer inception_4a/relu_3x3
I0403 15:32:08.357017 12060 net.cpp:91] Creating Layer inception_4a/relu_3x3
I0403 15:32:08.357033 12060 net.cpp:425] inception_4a/relu_3x3 <- inception_4a/3x3
I0403 15:32:08.357049 12060 net.cpp:386] inception_4a/relu_3x3 -> inception_4a/3x3 (in-place)
I0403 15:32:08.357329 12060 net.cpp:141] Setting up inception_4a/relu_3x3
I0403 15:32:08.357363 12060 net.cpp:148] Top shape: 24 208 14 14 (978432)
I0403 15:32:08.357380 12060 net.cpp:156] Memory required for data: 873063456
I0403 15:32:08.357396 12060 layer_factory.hpp:77] Creating layer inception_4a/5x5_reduce
I0403 15:32:08.357416 12060 net.cpp:91] Creating Layer inception_4a/5x5_reduce
I0403 15:32:08.357434 12060 net.cpp:425] inception_4a/5x5_reduce <- pool3/3x3_s2_pool3/3x3_s2_0_split_2
I0403 15:32:08.357455 12060 net.cpp:399] inception_4a/5x5_reduce -> inception_4a/5x5_reduce
I0403 15:32:08.358485 12060 net.cpp:141] Setting up inception_4a/5x5_reduce
I0403 15:32:08.358516 12060 net.cpp:148] Top shape: 24 16 14 14 (75264)
I0403 15:32:08.358533 12060 net.cpp:156] Memory required for data: 873364512
I0403 15:32:08.358551 12060 layer_factory.hpp:77] Creating layer inception_4a/relu_5x5_reduce
I0403 15:32:08.358571 12060 net.cpp:91] Creating Layer inception_4a/relu_5x5_reduce
I0403 15:32:08.358587 12060 net.cpp:425] inception_4a/relu_5x5_reduce <- inception_4a/5x5_reduce
I0403 15:32:08.358616 12060 net.cpp:386] inception_4a/relu_5x5_reduce -> inception_4a/5x5_reduce (in-place)
I0403 15:32:08.358800 12060 net.cpp:141] Setting up inception_4a/relu_5x5_reduce
I0403 15:32:08.358825 12060 net.cpp:148] Top shape: 24 16 14 14 (75264)
I0403 15:32:08.358841 12060 net.cpp:156] Memory required for data: 873665568
I0403 15:32:08.358856 12060 layer_factory.hpp:77] Creating layer inception_4a/5x5
I0403 15:32:08.358878 12060 net.cpp:91] Creating Layer inception_4a/5x5
I0403 15:32:08.358896 12060 net.cpp:425] inception_4a/5x5 <- inception_4a/5x5_reduce
I0403 15:32:08.358917 12060 net.cpp:399] inception_4a/5x5 -> inception_4a/5x5
I0403 15:32:08.359997 12060 net.cpp:141] Setting up inception_4a/5x5
I0403 15:32:08.360024 12060 net.cpp:148] Top shape: 24 48 14 14 (225792)
I0403 15:32:08.360039 12060 net.cpp:156] Memory required for data: 874568736
I0403 15:32:08.360059 12060 layer_factory.hpp:77] Creating layer inception_4a/relu_5x5
I0403 15:32:08.360077 12060 net.cpp:91] Creating Layer inception_4a/relu_5x5
I0403 15:32:08.360093 12060 net.cpp:425] inception_4a/relu_5x5 <- inception_4a/5x5
I0403 15:32:08.360112 12060 net.cpp:386] inception_4a/relu_5x5 -> inception_4a/5x5 (in-place)
I0403 15:32:08.360293 12060 net.cpp:141] Setting up inception_4a/relu_5x5
I0403 15:32:08.360318 12060 net.cpp:148] Top shape: 24 48 14 14 (225792)
I0403 15:32:08.360333 12060 net.cpp:156] Memory required for data: 875471904
I0403 15:32:08.360355 12060 layer_factory.hpp:77] Creating layer inception_4a/pool
I0403 15:32:08.360378 12060 net.cpp:91] Creating Layer inception_4a/pool
I0403 15:32:08.360406 12060 net.cpp:425] inception_4a/pool <- pool3/3x3_s2_pool3/3x3_s2_0_split_3
I0403 15:32:08.360425 12060 net.cpp:399] inception_4a/pool -> inception_4a/pool
I0403 15:32:08.360487 12060 net.cpp:141] Setting up inception_4a/pool
I0403 15:32:08.360512 12060 net.cpp:148] Top shape: 24 480 14 14 (2257920)
I0403 15:32:08.360527 12060 net.cpp:156] Memory required for data: 884503584
I0403 15:32:08.360543 12060 layer_factory.hpp:77] Creating layer inception_4a/pool_proj
I0403 15:32:08.360565 12060 net.cpp:91] Creating Layer inception_4a/pool_proj
I0403 15:32:08.360584 12060 net.cpp:425] inception_4a/pool_proj <- inception_4a/pool
I0403 15:32:08.360606 12060 net.cpp:399] inception_4a/pool_proj -> inception_4a/pool_proj
I0403 15:32:08.361840 12060 net.cpp:141] Setting up inception_4a/pool_proj
I0403 15:32:08.361867 12060 net.cpp:148] Top shape: 24 64 14 14 (301056)
I0403 15:32:08.361899 12060 net.cpp:156] Memory required for data: 885707808
I0403 15:32:08.361919 12060 layer_factory.hpp:77] Creating layer inception_4a/relu_pool_proj
I0403 15:32:08.361940 12060 net.cpp:91] Creating Layer inception_4a/relu_pool_proj
I0403 15:32:08.361958 12060 net.cpp:425] inception_4a/relu_pool_proj <- inception_4a/pool_proj
I0403 15:32:08.361976 12060 net.cpp:386] inception_4a/relu_pool_proj -> inception_4a/pool_proj (in-place)
I0403 15:32:08.362260 12060 net.cpp:141] Setting up inception_4a/relu_pool_proj
I0403 15:32:08.362287 12060 net.cpp:148] Top shape: 24 64 14 14 (301056)
I0403 15:32:08.362303 12060 net.cpp:156] Memory required for data: 886912032
I0403 15:32:08.362318 12060 layer_factory.hpp:77] Creating layer inception_4a/output
I0403 15:32:08.362335 12060 net.cpp:91] Creating Layer inception_4a/output
I0403 15:32:08.362365 12060 net.cpp:425] inception_4a/output <- inception_4a/1x1
I0403 15:32:08.362385 12060 net.cpp:425] inception_4a/output <- inception_4a/3x3
I0403 15:32:08.362401 12060 net.cpp:425] inception_4a/output <- inception_4a/5x5
I0403 15:32:08.362417 12060 net.cpp:425] inception_4a/output <- inception_4a/pool_proj
I0403 15:32:08.362437 12060 net.cpp:399] inception_4a/output -> inception_4a/output
I0403 15:32:08.362485 12060 net.cpp:141] Setting up inception_4a/output
I0403 15:32:08.362509 12060 net.cpp:148] Top shape: 24 512 14 14 (2408448)
I0403 15:32:08.362524 12060 net.cpp:156] Memory required for data: 896545824
I0403 15:32:08.362537 12060 layer_factory.hpp:77] Creating layer inception_4a/output_inception_4a/output_0_split
I0403 15:32:08.362555 12060 net.cpp:91] Creating Layer inception_4a/output_inception_4a/output_0_split
I0403 15:32:08.362571 12060 net.cpp:425] inception_4a/output_inception_4a/output_0_split <- inception_4a/output
I0403 15:32:08.362591 12060 net.cpp:399] inception_4a/output_inception_4a/output_0_split -> inception_4a/output_inception_4a/output_0_split_0
I0403 15:32:08.362612 12060 net.cpp:399] inception_4a/output_inception_4a/output_0_split -> inception_4a/output_inception_4a/output_0_split_1
I0403 15:32:08.362633 12060 net.cpp:399] inception_4a/output_inception_4a/output_0_split -> inception_4a/output_inception_4a/output_0_split_2
I0403 15:32:08.362654 12060 net.cpp:399] inception_4a/output_inception_4a/output_0_split -> inception_4a/output_inception_4a/output_0_split_3
I0403 15:32:08.362674 12060 net.cpp:399] inception_4a/output_inception_4a/output_0_split -> inception_4a/output_inception_4a/output_0_split_4
I0403 15:32:08.362766 12060 net.cpp:141] Setting up inception_4a/output_inception_4a/output_0_split
I0403 15:32:08.362792 12060 net.cpp:148] Top shape: 24 512 14 14 (2408448)
I0403 15:32:08.362809 12060 net.cpp:148] Top shape: 24 512 14 14 (2408448)
I0403 15:32:08.362825 12060 net.cpp:148] Top shape: 24 512 14 14 (2408448)
I0403 15:32:08.362840 12060 net.cpp:148] Top shape: 24 512 14 14 (2408448)
I0403 15:32:08.362855 12060 net.cpp:148] Top shape: 24 512 14 14 (2408448)
I0403 15:32:08.362869 12060 net.cpp:156] Memory required for data: 944714784
I0403 15:32:08.362884 12060 layer_factory.hpp:77] Creating layer loss1/ave_pool
I0403 15:32:08.362902 12060 net.cpp:91] Creating Layer loss1/ave_pool
I0403 15:32:08.362918 12060 net.cpp:425] loss1/ave_pool <- inception_4a/output_inception_4a/output_0_split_0
I0403 15:32:08.362937 12060 net.cpp:399] loss1/ave_pool -> loss1/ave_pool
I0403 15:32:08.363143 12060 net.cpp:141] Setting up loss1/ave_pool
I0403 15:32:08.363169 12060 net.cpp:148] Top shape: 24 512 4 4 (196608)
I0403 15:32:08.363184 12060 net.cpp:156] Memory required for data: 945501216
I0403 15:32:08.363199 12060 layer_factory.hpp:77] Creating layer loss1/conv
I0403 15:32:08.363222 12060 net.cpp:91] Creating Layer loss1/conv
I0403 15:32:08.363240 12060 net.cpp:425] loss1/conv <- loss1/ave_pool
I0403 15:32:08.363261 12060 net.cpp:399] loss1/conv -> loss1/conv
I0403 15:32:08.364704 12060 net.cpp:141] Setting up loss1/conv
I0403 15:32:08.364735 12060 net.cpp:148] Top shape: 24 128 4 4 (49152)
I0403 15:32:08.364764 12060 net.cpp:156] Memory required for data: 945697824
I0403 15:32:08.364784 12060 layer_factory.hpp:77] Creating layer loss1/relu_conv
I0403 15:32:08.364802 12060 net.cpp:91] Creating Layer loss1/relu_conv
I0403 15:32:08.364817 12060 net.cpp:425] loss1/relu_conv <- loss1/conv
I0403 15:32:08.364835 12060 net.cpp:386] loss1/relu_conv -> loss1/conv (in-place)
I0403 15:32:08.365119 12060 net.cpp:141] Setting up loss1/relu_conv
I0403 15:32:08.365147 12060 net.cpp:148] Top shape: 24 128 4 4 (49152)
I0403 15:32:08.365162 12060 net.cpp:156] Memory required for data: 945894432
I0403 15:32:08.365178 12060 layer_factory.hpp:77] Creating layer loss1/fc
I0403 15:32:08.365202 12060 net.cpp:91] Creating Layer loss1/fc
I0403 15:32:08.365221 12060 net.cpp:425] loss1/fc <- loss1/conv
I0403 15:32:08.365241 12060 net.cpp:399] loss1/fc -> loss1/fc
I0403 15:32:08.383671 12060 net.cpp:141] Setting up loss1/fc
I0403 15:32:08.383710 12060 net.cpp:148] Top shape: 24 1024 (24576)
I0403 15:32:08.383726 12060 net.cpp:156] Memory required for data: 945992736
I0403 15:32:08.383749 12060 layer_factory.hpp:77] Creating layer loss1/relu_fc
I0403 15:32:08.383771 12060 net.cpp:91] Creating Layer loss1/relu_fc
I0403 15:32:08.383790 12060 net.cpp:425] loss1/relu_fc <- loss1/fc
I0403 15:32:08.383810 12060 net.cpp:386] loss1/relu_fc -> loss1/fc (in-place)
I0403 15:32:08.384030 12060 net.cpp:141] Setting up loss1/relu_fc
I0403 15:32:08.384057 12060 net.cpp:148] Top shape: 24 1024 (24576)
I0403 15:32:08.384073 12060 net.cpp:156] Memory required for data: 946091040
I0403 15:32:08.384088 12060 layer_factory.hpp:77] Creating layer loss1/drop_fc
I0403 15:32:08.384116 12060 net.cpp:91] Creating Layer loss1/drop_fc
I0403 15:32:08.384135 12060 net.cpp:425] loss1/drop_fc <- loss1/fc
I0403 15:32:08.384152 12060 net.cpp:386] loss1/drop_fc -> loss1/fc (in-place)
I0403 15:32:08.384208 12060 net.cpp:141] Setting up loss1/drop_fc
I0403 15:32:08.384232 12060 net.cpp:148] Top shape: 24 1024 (24576)
I0403 15:32:08.384248 12060 net.cpp:156] Memory required for data: 946189344
I0403 15:32:08.384263 12060 layer_factory.hpp:77] Creating layer loss1/classifier_plantvillage
I0403 15:32:08.384282 12060 net.cpp:91] Creating Layer loss1/classifier_plantvillage
I0403 15:32:08.384299 12060 net.cpp:425] loss1/classifier_plantvillage <- loss1/fc
I0403 15:32:08.384321 12060 net.cpp:399] loss1/classifier_plantvillage -> loss1/classifier_plantvillage
I0403 15:32:08.385306 12060 net.cpp:141] Setting up loss1/classifier_plantvillage
I0403 15:32:08.385339 12060 net.cpp:148] Top shape: 24 38 (912)
I0403 15:32:08.385361 12060 net.cpp:156] Memory required for data: 946192992
I0403 15:32:08.385380 12060 layer_factory.hpp:77] Creating layer loss1/classifier_plantvillage_loss1/classifier_plantvillage_0_split
I0403 15:32:08.385399 12060 net.cpp:91] Creating Layer loss1/classifier_plantvillage_loss1/classifier_plantvillage_0_split
I0403 15:32:08.385416 12060 net.cpp:425] loss1/classifier_plantvillage_loss1/classifier_plantvillage_0_split <- loss1/classifier_plantvillage
I0403 15:32:08.385434 12060 net.cpp:399] loss1/classifier_plantvillage_loss1/classifier_plantvillage_0_split -> loss1/classifier_plantvillage_loss1/classifier_plantvillage_0_split_0
I0403 15:32:08.385455 12060 net.cpp:399] loss1/classifier_plantvillage_loss1/classifier_plantvillage_0_split -> loss1/classifier_plantvillage_loss1/classifier_plantvillage_0_split_1
I0403 15:32:08.385476 12060 net.cpp:399] loss1/classifier_plantvillage_loss1/classifier_plantvillage_0_split -> loss1/classifier_plantvillage_loss1/classifier_plantvillage_0_split_2
I0403 15:32:08.385546 12060 net.cpp:141] Setting up loss1/classifier_plantvillage_loss1/classifier_plantvillage_0_split
I0403 15:32:08.385571 12060 net.cpp:148] Top shape: 24 38 (912)
I0403 15:32:08.385587 12060 net.cpp:148] Top shape: 24 38 (912)
I0403 15:32:08.385603 12060 net.cpp:148] Top shape: 24 38 (912)
I0403 15:32:08.385618 12060 net.cpp:156] Memory required for data: 946203936
I0403 15:32:08.385633 12060 layer_factory.hpp:77] Creating layer inception_4b/1x1
I0403 15:32:08.385654 12060 net.cpp:91] Creating Layer inception_4b/1x1
I0403 15:32:08.385690 12060 net.cpp:425] inception_4b/1x1 <- inception_4a/output_inception_4a/output_0_split_1
I0403 15:32:08.385715 12060 net.cpp:399] inception_4b/1x1 -> inception_4b/1x1
I0403 15:32:08.387447 12060 net.cpp:141] Setting up inception_4b/1x1
I0403 15:32:08.387480 12060 net.cpp:148] Top shape: 24 160 14 14 (752640)
I0403 15:32:08.387497 12060 net.cpp:156] Memory required for data: 949214496
I0403 15:32:08.387516 12060 layer_factory.hpp:77] Creating layer inception_4b/relu_1x1
I0403 15:32:08.387536 12060 net.cpp:91] Creating Layer inception_4b/relu_1x1
I0403 15:32:08.387552 12060 net.cpp:425] inception_4b/relu_1x1 <- inception_4b/1x1
I0403 15:32:08.387570 12060 net.cpp:386] inception_4b/relu_1x1 -> inception_4b/1x1 (in-place)
I0403 15:32:08.387759 12060 net.cpp:141] Setting up inception_4b/relu_1x1
I0403 15:32:08.387784 12060 net.cpp:148] Top shape: 24 160 14 14 (752640)
I0403 15:32:08.387800 12060 net.cpp:156] Memory required for data: 952225056
I0403 15:32:08.387816 12060 layer_factory.hpp:77] Creating layer inception_4b/3x3_reduce
I0403 15:32:08.387840 12060 net.cpp:91] Creating Layer inception_4b/3x3_reduce
I0403 15:32:08.387858 12060 net.cpp:425] inception_4b/3x3_reduce <- inception_4a/output_inception_4a/output_0_split_2
I0403 15:32:08.387882 12060 net.cpp:399] inception_4b/3x3_reduce -> inception_4b/3x3_reduce
I0403 15:32:08.389317 12060 net.cpp:141] Setting up inception_4b/3x3_reduce
I0403 15:32:08.389354 12060 net.cpp:148] Top shape: 24 112 14 14 (526848)
I0403 15:32:08.389374 12060 net.cpp:156] Memory required for data: 954332448
I0403 15:32:08.389394 12060 layer_factory.hpp:77] Creating layer inception_4b/relu_3x3_reduce
I0403 15:32:08.389413 12060 net.cpp:91] Creating Layer inception_4b/relu_3x3_reduce
I0403 15:32:08.389430 12060 net.cpp:425] inception_4b/relu_3x3_reduce <- inception_4b/3x3_reduce
I0403 15:32:08.389451 12060 net.cpp:386] inception_4b/relu_3x3_reduce -> inception_4b/3x3_reduce (in-place)
I0403 15:32:08.389741 12060 net.cpp:141] Setting up inception_4b/relu_3x3_reduce
I0403 15:32:08.389773 12060 net.cpp:148] Top shape: 24 112 14 14 (526848)
I0403 15:32:08.389791 12060 net.cpp:156] Memory required for data: 956439840
I0403 15:32:08.389806 12060 layer_factory.hpp:77] Creating layer inception_4b/3x3
I0403 15:32:08.389829 12060 net.cpp:91] Creating Layer inception_4b/3x3
I0403 15:32:08.389848 12060 net.cpp:425] inception_4b/3x3 <- inception_4b/3x3_reduce
I0403 15:32:08.389870 12060 net.cpp:399] inception_4b/3x3 -> inception_4b/3x3
I0403 15:32:08.392967 12060 net.cpp:141] Setting up inception_4b/3x3
I0403 15:32:08.392997 12060 net.cpp:148] Top shape: 24 224 14 14 (1053696)
I0403 15:32:08.393013 12060 net.cpp:156] Memory required for data: 960654624
I0403 15:32:08.393033 12060 layer_factory.hpp:77] Creating layer inception_4b/relu_3x3
I0403 15:32:08.393055 12060 net.cpp:91] Creating Layer inception_4b/relu_3x3
I0403 15:32:08.393074 12060 net.cpp:425] inception_4b/relu_3x3 <- inception_4b/3x3
I0403 15:32:08.393091 12060 net.cpp:386] inception_4b/relu_3x3 -> inception_4b/3x3 (in-place)
I0403 15:32:08.393278 12060 net.cpp:141] Setting up inception_4b/relu_3x3
I0403 15:32:08.393306 12060 net.cpp:148] Top shape: 24 224 14 14 (1053696)
I0403 15:32:08.393323 12060 net.cpp:156] Memory required for data: 964869408
I0403 15:32:08.393339 12060 layer_factory.hpp:77] Creating layer inception_4b/5x5_reduce
I0403 15:32:08.393369 12060 net.cpp:91] Creating Layer inception_4b/5x5_reduce
I0403 15:32:08.393400 12060 net.cpp:425] inception_4b/5x5_reduce <- inception_4a/output_inception_4a/output_0_split_3
I0403 15:32:08.393420 12060 net.cpp:399] inception_4b/5x5_reduce -> inception_4b/5x5_reduce
I0403 15:32:08.394570 12060 net.cpp:141] Setting up inception_4b/5x5_reduce
I0403 15:32:08.394600 12060 net.cpp:148] Top shape: 24 24 14 14 (112896)
I0403 15:32:08.394618 12060 net.cpp:156] Memory required for data: 965320992
I0403 15:32:08.394637 12060 layer_factory.hpp:77] Creating layer inception_4b/relu_5x5_reduce
I0403 15:32:08.394656 12060 net.cpp:91] Creating Layer inception_4b/relu_5x5_reduce
I0403 15:32:08.394690 12060 net.cpp:425] inception_4b/relu_5x5_reduce <- inception_4b/5x5_reduce
I0403 15:32:08.394711 12060 net.cpp:386] inception_4b/relu_5x5_reduce -> inception_4b/5x5_reduce (in-place)
I0403 15:32:08.394906 12060 net.cpp:141] Setting up inception_4b/relu_5x5_reduce
I0403 15:32:08.394932 12060 net.cpp:148] Top shape: 24 24 14 14 (112896)
I0403 15:32:08.394948 12060 net.cpp:156] Memory required for data: 965772576
I0403 15:32:08.394963 12060 layer_factory.hpp:77] Creating layer inception_4b/5x5
I0403 15:32:08.394987 12060 net.cpp:91] Creating Layer inception_4b/5x5
I0403 15:32:08.395006 12060 net.cpp:425] inception_4b/5x5 <- inception_4b/5x5_reduce
I0403 15:32:08.395028 12060 net.cpp:399] inception_4b/5x5 -> inception_4b/5x5
I0403 15:32:08.396302 12060 net.cpp:141] Setting up inception_4b/5x5
I0403 15:32:08.396333 12060 net.cpp:148] Top shape: 24 64 14 14 (301056)
I0403 15:32:08.396358 12060 net.cpp:156] Memory required for data: 966976800
I0403 15:32:08.396378 12060 layer_factory.hpp:77] Creating layer inception_4b/relu_5x5
I0403 15:32:08.396409 12060 net.cpp:91] Creating Layer inception_4b/relu_5x5
I0403 15:32:08.396427 12060 net.cpp:425] inception_4b/relu_5x5 <- inception_4b/5x5
I0403 15:32:08.396446 12060 net.cpp:386] inception_4b/relu_5x5 -> inception_4b/5x5 (in-place)
I0403 15:32:08.396761 12060 net.cpp:141] Setting up inception_4b/relu_5x5
I0403 15:32:08.396791 12060 net.cpp:148] Top shape: 24 64 14 14 (301056)
I0403 15:32:08.396808 12060 net.cpp:156] Memory required for data: 968181024
I0403 15:32:08.396824 12060 layer_factory.hpp:77] Creating layer inception_4b/pool
I0403 15:32:08.396843 12060 net.cpp:91] Creating Layer inception_4b/pool
I0403 15:32:08.396860 12060 net.cpp:425] inception_4b/pool <- inception_4a/output_inception_4a/output_0_split_4
I0403 15:32:08.396878 12060 net.cpp:399] inception_4b/pool -> inception_4b/pool
I0403 15:32:08.396946 12060 net.cpp:141] Setting up inception_4b/pool
I0403 15:32:08.396971 12060 net.cpp:148] Top shape: 24 512 14 14 (2408448)
I0403 15:32:08.396986 12060 net.cpp:156] Memory required for data: 977814816
I0403 15:32:08.397001 12060 layer_factory.hpp:77] Creating layer inception_4b/pool_proj
I0403 15:32:08.397024 12060 net.cpp:91] Creating Layer inception_4b/pool_proj
I0403 15:32:08.397043 12060 net.cpp:425] inception_4b/pool_proj <- inception_4b/pool
I0403 15:32:08.397064 12060 net.cpp:399] inception_4b/pool_proj -> inception_4b/pool_proj
I0403 15:32:08.398305 12060 net.cpp:141] Setting up inception_4b/pool_proj
I0403 15:32:08.398336 12060 net.cpp:148] Top shape: 24 64 14 14 (301056)
I0403 15:32:08.398360 12060 net.cpp:156] Memory required for data: 979019040
I0403 15:32:08.398380 12060 layer_factory.hpp:77] Creating layer inception_4b/relu_pool_proj
I0403 15:32:08.398398 12060 net.cpp:91] Creating Layer inception_4b/relu_pool_proj
I0403 15:32:08.398416 12060 net.cpp:425] inception_4b/relu_pool_proj <- inception_4b/pool_proj
I0403 15:32:08.398437 12060 net.cpp:386] inception_4b/relu_pool_proj -> inception_4b/pool_proj (in-place)
I0403 15:32:08.398627 12060 net.cpp:141] Setting up inception_4b/relu_pool_proj
I0403 15:32:08.398653 12060 net.cpp:148] Top shape: 24 64 14 14 (301056)
I0403 15:32:08.398668 12060 net.cpp:156] Memory required for data: 980223264
I0403 15:32:08.398684 12060 layer_factory.hpp:77] Creating layer inception_4b/output
I0403 15:32:08.398701 12060 net.cpp:91] Creating Layer inception_4b/output
I0403 15:32:08.398717 12060 net.cpp:425] inception_4b/output <- inception_4b/1x1
I0403 15:32:08.398735 12060 net.cpp:425] inception_4b/output <- inception_4b/3x3
I0403 15:32:08.398751 12060 net.cpp:425] inception_4b/output <- inception_4b/5x5
I0403 15:32:08.398767 12060 net.cpp:425] inception_4b/output <- inception_4b/pool_proj
I0403 15:32:08.398787 12060 net.cpp:399] inception_4b/output -> inception_4b/output
I0403 15:32:08.398835 12060 net.cpp:141] Setting up inception_4b/output
I0403 15:32:08.398862 12060 net.cpp:148] Top shape: 24 512 14 14 (2408448)
I0403 15:32:08.398880 12060 net.cpp:156] Memory required for data: 989857056
I0403 15:32:08.398910 12060 layer_factory.hpp:77] Creating layer inception_4b/output_inception_4b/output_0_split
I0403 15:32:08.398928 12060 net.cpp:91] Creating Layer inception_4b/output_inception_4b/output_0_split
I0403 15:32:08.398944 12060 net.cpp:425] inception_4b/output_inception_4b/output_0_split <- inception_4b/output
I0403 15:32:08.398965 12060 net.cpp:399] inception_4b/output_inception_4b/output_0_split -> inception_4b/output_inception_4b/output_0_split_0
I0403 15:32:08.398988 12060 net.cpp:399] inception_4b/output_inception_4b/output_0_split -> inception_4b/output_inception_4b/output_0_split_1
I0403 15:32:08.399009 12060 net.cpp:399] inception_4b/output_inception_4b/output_0_split -> inception_4b/output_inception_4b/output_0_split_2
I0403 15:32:08.399029 12060 net.cpp:399] inception_4b/output_inception_4b/output_0_split -> inception_4b/output_inception_4b/output_0_split_3
I0403 15:32:08.399113 12060 net.cpp:141] Setting up inception_4b/output_inception_4b/output_0_split
I0403 15:32:08.399137 12060 net.cpp:148] Top shape: 24 512 14 14 (2408448)
I0403 15:32:08.399159 12060 net.cpp:148] Top shape: 24 512 14 14 (2408448)
I0403 15:32:08.399176 12060 net.cpp:148] Top shape: 24 512 14 14 (2408448)
I0403 15:32:08.399193 12060 net.cpp:148] Top shape: 24 512 14 14 (2408448)
I0403 15:32:08.399207 12060 net.cpp:156] Memory required for data: 1028392224
I0403 15:32:08.399222 12060 layer_factory.hpp:77] Creating layer inception_4c/1x1
I0403 15:32:08.399242 12060 net.cpp:91] Creating Layer inception_4c/1x1
I0403 15:32:08.399260 12060 net.cpp:425] inception_4c/1x1 <- inception_4b/output_inception_4b/output_0_split_0
I0403 15:32:08.399281 12060 net.cpp:399] inception_4c/1x1 -> inception_4c/1x1
I0403 15:32:08.400804 12060 net.cpp:141] Setting up inception_4c/1x1
I0403 15:32:08.400831 12060 net.cpp:148] Top shape: 24 128 14 14 (602112)
I0403 15:32:08.400847 12060 net.cpp:156] Memory required for data: 1030800672
I0403 15:32:08.400866 12060 layer_factory.hpp:77] Creating layer inception_4c/relu_1x1
I0403 15:32:08.400888 12060 net.cpp:91] Creating Layer inception_4c/relu_1x1
I0403 15:32:08.400907 12060 net.cpp:425] inception_4c/relu_1x1 <- inception_4c/1x1
I0403 15:32:08.400924 12060 net.cpp:386] inception_4c/relu_1x1 -> inception_4c/1x1 (in-place)
I0403 15:32:08.401113 12060 net.cpp:141] Setting up inception_4c/relu_1x1
I0403 15:32:08.401139 12060 net.cpp:148] Top shape: 24 128 14 14 (602112)
I0403 15:32:08.401154 12060 net.cpp:156] Memory required for data: 1033209120
I0403 15:32:08.401170 12060 layer_factory.hpp:77] Creating layer inception_4c/3x3_reduce
I0403 15:32:08.401196 12060 net.cpp:91] Creating Layer inception_4c/3x3_reduce
I0403 15:32:08.401214 12060 net.cpp:425] inception_4c/3x3_reduce <- inception_4b/output_inception_4b/output_0_split_1
I0403 15:32:08.401234 12060 net.cpp:399] inception_4c/3x3_reduce -> inception_4c/3x3_reduce
I0403 15:32:08.403236 12060 net.cpp:141] Setting up inception_4c/3x3_reduce
I0403 15:32:08.403266 12060 net.cpp:148] Top shape: 24 128 14 14 (602112)
I0403 15:32:08.403282 12060 net.cpp:156] Memory required for data: 1035617568
I0403 15:32:08.403302 12060 layer_factory.hpp:77] Creating layer inception_4c/relu_3x3_reduce
I0403 15:32:08.403323 12060 net.cpp:91] Creating Layer inception_4c/relu_3x3_reduce
I0403 15:32:08.403342 12060 net.cpp:425] inception_4c/relu_3x3_reduce <- inception_4c/3x3_reduce
I0403 15:32:08.403367 12060 net.cpp:386] inception_4c/relu_3x3_reduce -> inception_4c/3x3_reduce (in-place)
I0403 15:32:08.403667 12060 net.cpp:141] Setting up inception_4c/relu_3x3_reduce
I0403 15:32:08.403694 12060 net.cpp:148] Top shape: 24 128 14 14 (602112)
I0403 15:32:08.403709 12060 net.cpp:156] Memory required for data: 1038026016
I0403 15:32:08.403725 12060 layer_factory.hpp:77] Creating layer inception_4c/3x3
I0403 15:32:08.403751 12060 net.cpp:91] Creating Layer inception_4c/3x3
I0403 15:32:08.403769 12060 net.cpp:425] inception_4c/3x3 <- inception_4c/3x3_reduce
I0403 15:32:08.403789 12060 net.cpp:399] inception_4c/3x3 -> inception_4c/3x3
I0403 15:32:08.407539 12060 net.cpp:141] Setting up inception_4c/3x3
I0403 15:32:08.407584 12060 net.cpp:148] Top shape: 24 256 14 14 (1204224)
I0403 15:32:08.407603 12060 net.cpp:156] Memory required for data: 1042842912
I0403 15:32:08.407635 12060 layer_factory.hpp:77] Creating layer inception_4c/relu_3x3
I0403 15:32:08.407657 12060 net.cpp:91] Creating Layer inception_4c/relu_3x3
I0403 15:32:08.407675 12060 net.cpp:425] inception_4c/relu_3x3 <- inception_4c/3x3
I0403 15:32:08.407692 12060 net.cpp:386] inception_4c/relu_3x3 -> inception_4c/3x3 (in-place)
I0403 15:32:08.407886 12060 net.cpp:141] Setting up inception_4c/relu_3x3
I0403 15:32:08.407914 12060 net.cpp:148] Top shape: 24 256 14 14 (1204224)
I0403 15:32:08.407932 12060 net.cpp:156] Memory required for data: 1047659808
I0403 15:32:08.407946 12060 layer_factory.hpp:77] Creating layer inception_4c/5x5_reduce
I0403 15:32:08.407970 12060 net.cpp:91] Creating Layer inception_4c/5x5_reduce
I0403 15:32:08.407989 12060 net.cpp:425] inception_4c/5x5_reduce <- inception_4b/output_inception_4b/output_0_split_2
I0403 15:32:08.408009 12060 net.cpp:399] inception_4c/5x5_reduce -> inception_4c/5x5_reduce
I0403 15:32:08.409176 12060 net.cpp:141] Setting up inception_4c/5x5_reduce
I0403 15:32:08.409206 12060 net.cpp:148] Top shape: 24 24 14 14 (112896)
I0403 15:32:08.409222 12060 net.cpp:156] Memory required for data: 1048111392
I0403 15:32:08.409241 12060 layer_factory.hpp:77] Creating layer inception_4c/relu_5x5_reduce
I0403 15:32:08.409260 12060 net.cpp:91] Creating Layer inception_4c/relu_5x5_reduce
I0403 15:32:08.409276 12060 net.cpp:425] inception_4c/relu_5x5_reduce <- inception_4c/5x5_reduce
I0403 15:32:08.409296 12060 net.cpp:386] inception_4c/relu_5x5_reduce -> inception_4c/5x5_reduce (in-place)
I0403 15:32:08.409489 12060 net.cpp:141] Setting up inception_4c/relu_5x5_reduce
I0403 15:32:08.409513 12060 net.cpp:148] Top shape: 24 24 14 14 (112896)
I0403 15:32:08.409529 12060 net.cpp:156] Memory required for data: 1048562976
I0403 15:32:08.409543 12060 layer_factory.hpp:77] Creating layer inception_4c/5x5
I0403 15:32:08.409569 12060 net.cpp:91] Creating Layer inception_4c/5x5
I0403 15:32:08.409586 12060 net.cpp:425] inception_4c/5x5 <- inception_4c/5x5_reduce
I0403 15:32:08.409608 12060 net.cpp:399] inception_4c/5x5 -> inception_4c/5x5
I0403 15:32:08.411069 12060 net.cpp:141] Setting up inception_4c/5x5
I0403 15:32:08.411098 12060 net.cpp:148] Top shape: 24 64 14 14 (301056)
I0403 15:32:08.411113 12060 net.cpp:156] Memory required for data: 1049767200
I0403 15:32:08.411131 12060 layer_factory.hpp:77] Creating layer inception_4c/relu_5x5
I0403 15:32:08.411152 12060 net.cpp:91] Creating Layer inception_4c/relu_5x5
I0403 15:32:08.411170 12060 net.cpp:425] inception_4c/relu_5x5 <- inception_4c/5x5
I0403 15:32:08.411187 12060 net.cpp:386] inception_4c/relu_5x5 -> inception_4c/5x5 (in-place)
I0403 15:32:08.411486 12060 net.cpp:141] Setting up inception_4c/relu_5x5
I0403 15:32:08.411514 12060 net.cpp:148] Top shape: 24 64 14 14 (301056)
I0403 15:32:08.411528 12060 net.cpp:156] Memory required for data: 1050971424
I0403 15:32:08.411545 12060 layer_factory.hpp:77] Creating layer inception_4c/pool
I0403 15:32:08.411561 12060 net.cpp:91] Creating Layer inception_4c/pool
I0403 15:32:08.411578 12060 net.cpp:425] inception_4c/pool <- inception_4b/output_inception_4b/output_0_split_3
I0403 15:32:08.411599 12060 net.cpp:399] inception_4c/pool -> inception_4c/pool
I0403 15:32:08.411665 12060 net.cpp:141] Setting up inception_4c/pool
I0403 15:32:08.411689 12060 net.cpp:148] Top shape: 24 512 14 14 (2408448)
I0403 15:32:08.411703 12060 net.cpp:156] Memory required for data: 1060605216
I0403 15:32:08.411718 12060 layer_factory.hpp:77] Creating layer inception_4c/pool_proj
I0403 15:32:08.411741 12060 net.cpp:91] Creating Layer inception_4c/pool_proj
I0403 15:32:08.411759 12060 net.cpp:425] inception_4c/pool_proj <- inception_4c/pool
I0403 15:32:08.411780 12060 net.cpp:399] inception_4c/pool_proj -> inception_4c/pool_proj
I0403 15:32:08.413014 12060 net.cpp:141] Setting up inception_4c/pool_proj
I0403 15:32:08.413045 12060 net.cpp:148] Top shape: 24 64 14 14 (301056)
I0403 15:32:08.413075 12060 net.cpp:156] Memory required for data: 1061809440
I0403 15:32:08.413095 12060 layer_factory.hpp:77] Creating layer inception_4c/relu_pool_proj
I0403 15:32:08.413115 12060 net.cpp:91] Creating Layer inception_4c/relu_pool_proj
I0403 15:32:08.413130 12060 net.cpp:425] inception_4c/relu_pool_proj <- inception_4c/pool_proj
I0403 15:32:08.413147 12060 net.cpp:386] inception_4c/relu_pool_proj -> inception_4c/pool_proj (in-place)
I0403 15:32:08.413365 12060 net.cpp:141] Setting up inception_4c/relu_pool_proj
I0403 15:32:08.413403 12060 net.cpp:148] Top shape: 24 64 14 14 (301056)
I0403 15:32:08.413419 12060 net.cpp:156] Memory required for data: 1063013664
I0403 15:32:08.413435 12060 layer_factory.hpp:77] Creating layer inception_4c/output
I0403 15:32:08.413453 12060 net.cpp:91] Creating Layer inception_4c/output
I0403 15:32:08.413470 12060 net.cpp:425] inception_4c/output <- inception_4c/1x1
I0403 15:32:08.413487 12060 net.cpp:425] inception_4c/output <- inception_4c/3x3
I0403 15:32:08.413506 12060 net.cpp:425] inception_4c/output <- inception_4c/5x5
I0403 15:32:08.413522 12060 net.cpp:425] inception_4c/output <- inception_4c/pool_proj
I0403 15:32:08.413566 12060 net.cpp:399] inception_4c/output -> inception_4c/output
I0403 15:32:08.413614 12060 net.cpp:141] Setting up inception_4c/output
I0403 15:32:08.413641 12060 net.cpp:148] Top shape: 24 512 14 14 (2408448)
I0403 15:32:08.413657 12060 net.cpp:156] Memory required for data: 1072647456
I0403 15:32:08.413672 12060 layer_factory.hpp:77] Creating layer inception_4c/output_inception_4c/output_0_split
I0403 15:32:08.413702 12060 net.cpp:91] Creating Layer inception_4c/output_inception_4c/output_0_split
I0403 15:32:08.413718 12060 net.cpp:425] inception_4c/output_inception_4c/output_0_split <- inception_4c/output
I0403 15:32:08.413738 12060 net.cpp:399] inception_4c/output_inception_4c/output_0_split -> inception_4c/output_inception_4c/output_0_split_0
I0403 15:32:08.413759 12060 net.cpp:399] inception_4c/output_inception_4c/output_0_split -> inception_4c/output_inception_4c/output_0_split_1
I0403 15:32:08.413780 12060 net.cpp:399] inception_4c/output_inception_4c/output_0_split -> inception_4c/output_inception_4c/output_0_split_2
I0403 15:32:08.413801 12060 net.cpp:399] inception_4c/output_inception_4c/output_0_split -> inception_4c/output_inception_4c/output_0_split_3
I0403 15:32:08.413885 12060 net.cpp:141] Setting up inception_4c/output_inception_4c/output_0_split
I0403 15:32:08.413909 12060 net.cpp:148] Top shape: 24 512 14 14 (2408448)
I0403 15:32:08.413925 12060 net.cpp:148] Top shape: 24 512 14 14 (2408448)
I0403 15:32:08.413940 12060 net.cpp:148] Top shape: 24 512 14 14 (2408448)
I0403 15:32:08.413955 12060 net.cpp:148] Top shape: 24 512 14 14 (2408448)
I0403 15:32:08.413969 12060 net.cpp:156] Memory required for data: 1111182624
I0403 15:32:08.413985 12060 layer_factory.hpp:77] Creating layer inception_4d/1x1
I0403 15:32:08.414007 12060 net.cpp:91] Creating Layer inception_4d/1x1
I0403 15:32:08.414026 12060 net.cpp:425] inception_4d/1x1 <- inception_4c/output_inception_4c/output_0_split_0
I0403 15:32:08.414047 12060 net.cpp:399] inception_4d/1x1 -> inception_4d/1x1
I0403 15:32:08.415455 12060 net.cpp:141] Setting up inception_4d/1x1
I0403 15:32:08.415483 12060 net.cpp:148] Top shape: 24 112 14 14 (526848)
I0403 15:32:08.415499 12060 net.cpp:156] Memory required for data: 1113290016
I0403 15:32:08.415518 12060 layer_factory.hpp:77] Creating layer inception_4d/relu_1x1
I0403 15:32:08.415540 12060 net.cpp:91] Creating Layer inception_4d/relu_1x1
I0403 15:32:08.415558 12060 net.cpp:425] inception_4d/relu_1x1 <- inception_4d/1x1
I0403 15:32:08.415576 12060 net.cpp:386] inception_4d/relu_1x1 -> inception_4d/1x1 (in-place)
I0403 15:32:08.415781 12060 net.cpp:141] Setting up inception_4d/relu_1x1
I0403 15:32:08.415807 12060 net.cpp:148] Top shape: 24 112 14 14 (526848)
I0403 15:32:08.415823 12060 net.cpp:156] Memory required for data: 1115397408
I0403 15:32:08.415838 12060 layer_factory.hpp:77] Creating layer inception_4d/3x3_reduce
I0403 15:32:08.415875 12060 net.cpp:91] Creating Layer inception_4d/3x3_reduce
I0403 15:32:08.415894 12060 net.cpp:425] inception_4d/3x3_reduce <- inception_4c/output_inception_4c/output_0_split_1
I0403 15:32:08.415913 12060 net.cpp:399] inception_4d/3x3_reduce -> inception_4d/3x3_reduce
I0403 15:32:08.417449 12060 net.cpp:141] Setting up inception_4d/3x3_reduce
I0403 15:32:08.417477 12060 net.cpp:148] Top shape: 24 144 14 14 (677376)
I0403 15:32:08.417495 12060 net.cpp:156] Memory required for data: 1118106912
I0403 15:32:08.417515 12060 layer_factory.hpp:77] Creating layer inception_4d/relu_3x3_reduce
I0403 15:32:08.417536 12060 net.cpp:91] Creating Layer inception_4d/relu_3x3_reduce
I0403 15:32:08.417552 12060 net.cpp:425] inception_4d/relu_3x3_reduce <- inception_4d/3x3_reduce
I0403 15:32:08.417572 12060 net.cpp:386] inception_4d/relu_3x3_reduce -> inception_4d/3x3_reduce (in-place)
I0403 15:32:08.417878 12060 net.cpp:141] Setting up inception_4d/relu_3x3_reduce
I0403 15:32:08.417904 12060 net.cpp:148] Top shape: 24 144 14 14 (677376)
I0403 15:32:08.417919 12060 net.cpp:156] Memory required for data: 1120816416
I0403 15:32:08.417934 12060 layer_factory.hpp:77] Creating layer inception_4d/3x3
I0403 15:32:08.417956 12060 net.cpp:91] Creating Layer inception_4d/3x3
I0403 15:32:08.417974 12060 net.cpp:425] inception_4d/3x3 <- inception_4d/3x3_reduce
I0403 15:32:08.417996 12060 net.cpp:399] inception_4d/3x3 -> inception_4d/3x3
I0403 15:32:08.422401 12060 net.cpp:141] Setting up inception_4d/3x3
I0403 15:32:08.422430 12060 net.cpp:148] Top shape: 24 288 14 14 (1354752)
I0403 15:32:08.422446 12060 net.cpp:156] Memory required for data: 1126235424
I0403 15:32:08.422463 12060 layer_factory.hpp:77] Creating layer inception_4d/relu_3x3
I0403 15:32:08.422484 12060 net.cpp:91] Creating Layer inception_4d/relu_3x3
I0403 15:32:08.422502 12060 net.cpp:425] inception_4d/relu_3x3 <- inception_4d/3x3
I0403 15:32:08.422520 12060 net.cpp:386] inception_4d/relu_3x3 -> inception_4d/3x3 (in-place)
I0403 15:32:08.422708 12060 net.cpp:141] Setting up inception_4d/relu_3x3
I0403 15:32:08.422734 12060 net.cpp:148] Top shape: 24 288 14 14 (1354752)
I0403 15:32:08.422750 12060 net.cpp:156] Memory required for data: 1131654432
I0403 15:32:08.422765 12060 layer_factory.hpp:77] Creating layer inception_4d/5x5_reduce
I0403 15:32:08.422786 12060 net.cpp:91] Creating Layer inception_4d/5x5_reduce
I0403 15:32:08.422804 12060 net.cpp:425] inception_4d/5x5_reduce <- inception_4c/output_inception_4c/output_0_split_2
I0403 15:32:08.422826 12060 net.cpp:399] inception_4d/5x5_reduce -> inception_4d/5x5_reduce
I0403 15:32:08.423979 12060 net.cpp:141] Setting up inception_4d/5x5_reduce
I0403 15:32:08.424007 12060 net.cpp:148] Top shape: 24 32 14 14 (150528)
I0403 15:32:08.424023 12060 net.cpp:156] Memory required for data: 1132256544
I0403 15:32:08.424041 12060 layer_factory.hpp:77] Creating layer inception_4d/relu_5x5_reduce
I0403 15:32:08.424062 12060 net.cpp:91] Creating Layer inception_4d/relu_5x5_reduce
I0403 15:32:08.424080 12060 net.cpp:425] inception_4d/relu_5x5_reduce <- inception_4d/5x5_reduce
I0403 15:32:08.424098 12060 net.cpp:386] inception_4d/relu_5x5_reduce -> inception_4d/5x5_reduce (in-place)
I0403 15:32:08.424290 12060 net.cpp:141] Setting up inception_4d/relu_5x5_reduce
I0403 15:32:08.424316 12060 net.cpp:148] Top shape: 24 32 14 14 (150528)
I0403 15:32:08.424332 12060 net.cpp:156] Memory required for data: 1132858656
I0403 15:32:08.424351 12060 layer_factory.hpp:77] Creating layer inception_4d/5x5
I0403 15:32:08.424376 12060 net.cpp:91] Creating Layer inception_4d/5x5
I0403 15:32:08.424394 12060 net.cpp:425] inception_4d/5x5 <- inception_4d/5x5_reduce
I0403 15:32:08.424414 12060 net.cpp:399] inception_4d/5x5 -> inception_4d/5x5
I0403 15:32:08.425938 12060 net.cpp:141] Setting up inception_4d/5x5
I0403 15:32:08.425968 12060 net.cpp:148] Top shape: 24 64 14 14 (301056)
I0403 15:32:08.425986 12060 net.cpp:156] Memory required for data: 1134062880
I0403 15:32:08.426005 12060 layer_factory.hpp:77] Creating layer inception_4d/relu_5x5
I0403 15:32:08.426038 12060 net.cpp:91] Creating Layer inception_4d/relu_5x5
I0403 15:32:08.426056 12060 net.cpp:425] inception_4d/relu_5x5 <- inception_4d/5x5
I0403 15:32:08.426076 12060 net.cpp:386] inception_4d/relu_5x5 -> inception_4d/5x5 (in-place)
I0403 15:32:08.426391 12060 net.cpp:141] Setting up inception_4d/relu_5x5
I0403 15:32:08.426420 12060 net.cpp:148] Top shape: 24 64 14 14 (301056)
I0403 15:32:08.426436 12060 net.cpp:156] Memory required for data: 1135267104
I0403 15:32:08.426452 12060 layer_factory.hpp:77] Creating layer inception_4d/pool
I0403 15:32:08.426470 12060 net.cpp:91] Creating Layer inception_4d/pool
I0403 15:32:08.426486 12060 net.cpp:425] inception_4d/pool <- inception_4c/output_inception_4c/output_0_split_3
I0403 15:32:08.426507 12060 net.cpp:399] inception_4d/pool -> inception_4d/pool
I0403 15:32:08.426574 12060 net.cpp:141] Setting up inception_4d/pool
I0403 15:32:08.426600 12060 net.cpp:148] Top shape: 24 512 14 14 (2408448)
I0403 15:32:08.426616 12060 net.cpp:156] Memory required for data: 1144900896
I0403 15:32:08.426631 12060 layer_factory.hpp:77] Creating layer inception_4d/pool_proj
I0403 15:32:08.426653 12060 net.cpp:91] Creating Layer inception_4d/pool_proj
I0403 15:32:08.426671 12060 net.cpp:425] inception_4d/pool_proj <- inception_4d/pool
I0403 15:32:08.426689 12060 net.cpp:399] inception_4d/pool_proj -> inception_4d/pool_proj
I0403 15:32:08.428462 12060 net.cpp:141] Setting up inception_4d/pool_proj
I0403 15:32:08.428491 12060 net.cpp:148] Top shape: 24 64 14 14 (301056)
I0403 15:32:08.428508 12060 net.cpp:156] Memory required for data: 1146105120
I0403 15:32:08.428525 12060 layer_factory.hpp:77] Creating layer inception_4d/relu_pool_proj
I0403 15:32:08.428546 12060 net.cpp:91] Creating Layer inception_4d/relu_pool_proj
I0403 15:32:08.428565 12060 net.cpp:425] inception_4d/relu_pool_proj <- inception_4d/pool_proj
I0403 15:32:08.428582 12060 net.cpp:386] inception_4d/relu_pool_proj -> inception_4d/pool_proj (in-place)
I0403 15:32:08.428768 12060 net.cpp:141] Setting up inception_4d/relu_pool_proj
I0403 15:32:08.428796 12060 net.cpp:148] Top shape: 24 64 14 14 (301056)
I0403 15:32:08.428810 12060 net.cpp:156] Memory required for data: 1147309344
I0403 15:32:08.428825 12060 layer_factory.hpp:77] Creating layer inception_4d/output
I0403 15:32:08.428843 12060 net.cpp:91] Creating Layer inception_4d/output
I0403 15:32:08.428858 12060 net.cpp:425] inception_4d/output <- inception_4d/1x1
I0403 15:32:08.428875 12060 net.cpp:425] inception_4d/output <- inception_4d/3x3
I0403 15:32:08.428892 12060 net.cpp:425] inception_4d/output <- inception_4d/5x5
I0403 15:32:08.428908 12060 net.cpp:425] inception_4d/output <- inception_4d/pool_proj
I0403 15:32:08.428926 12060 net.cpp:399] inception_4d/output -> inception_4d/output
I0403 15:32:08.428975 12060 net.cpp:141] Setting up inception_4d/output
I0403 15:32:08.428998 12060 net.cpp:148] Top shape: 24 528 14 14 (2483712)
I0403 15:32:08.429013 12060 net.cpp:156] Memory required for data: 1157244192
I0403 15:32:08.429028 12060 layer_factory.hpp:77] Creating layer inception_4d/output_inception_4d/output_0_split
I0403 15:32:08.429050 12060 net.cpp:91] Creating Layer inception_4d/output_inception_4d/output_0_split
I0403 15:32:08.429067 12060 net.cpp:425] inception_4d/output_inception_4d/output_0_split <- inception_4d/output
I0403 15:32:08.429085 12060 net.cpp:399] inception_4d/output_inception_4d/output_0_split -> inception_4d/output_inception_4d/output_0_split_0
I0403 15:32:08.429105 12060 net.cpp:399] inception_4d/output_inception_4d/output_0_split -> inception_4d/output_inception_4d/output_0_split_1
I0403 15:32:08.429128 12060 net.cpp:399] inception_4d/output_inception_4d/output_0_split -> inception_4d/output_inception_4d/output_0_split_2
I0403 15:32:08.429152 12060 net.cpp:399] inception_4d/output_inception_4d/output_0_split -> inception_4d/output_inception_4d/output_0_split_3
I0403 15:32:08.429172 12060 net.cpp:399] inception_4d/output_inception_4d/output_0_split -> inception_4d/output_inception_4d/output_0_split_4
I0403 15:32:08.429275 12060 net.cpp:141] Setting up inception_4d/output_inception_4d/output_0_split
I0403 15:32:08.429311 12060 net.cpp:148] Top shape: 24 528 14 14 (2483712)
I0403 15:32:08.429328 12060 net.cpp:148] Top shape: 24 528 14 14 (2483712)
I0403 15:32:08.429344 12060 net.cpp:148] Top shape: 24 528 14 14 (2483712)
I0403 15:32:08.429368 12060 net.cpp:148] Top shape: 24 528 14 14 (2483712)
I0403 15:32:08.429396 12060 net.cpp:148] Top shape: 24 528 14 14 (2483712)
I0403 15:32:08.429411 12060 net.cpp:156] Memory required for data: 1206918432
I0403 15:32:08.429426 12060 layer_factory.hpp:77] Creating layer loss2/ave_pool
I0403 15:32:08.429448 12060 net.cpp:91] Creating Layer loss2/ave_pool
I0403 15:32:08.429466 12060 net.cpp:425] loss2/ave_pool <- inception_4d/output_inception_4d/output_0_split_0
I0403 15:32:08.429486 12060 net.cpp:399] loss2/ave_pool -> loss2/ave_pool
I0403 15:32:08.429818 12060 net.cpp:141] Setting up loss2/ave_pool
I0403 15:32:08.429844 12060 net.cpp:148] Top shape: 24 528 4 4 (202752)
I0403 15:32:08.429860 12060 net.cpp:156] Memory required for data: 1207729440
I0403 15:32:08.429874 12060 layer_factory.hpp:77] Creating layer loss2/conv
I0403 15:32:08.429899 12060 net.cpp:91] Creating Layer loss2/conv
I0403 15:32:08.429918 12060 net.cpp:425] loss2/conv <- loss2/ave_pool
I0403 15:32:08.429937 12060 net.cpp:399] loss2/conv -> loss2/conv
I0403 15:32:08.431826 12060 net.cpp:141] Setting up loss2/conv
I0403 15:32:08.431854 12060 net.cpp:148] Top shape: 24 128 4 4 (49152)
I0403 15:32:08.431870 12060 net.cpp:156] Memory required for data: 1207926048
I0403 15:32:08.431890 12060 layer_factory.hpp:77] Creating layer loss2/relu_conv
I0403 15:32:08.431907 12060 net.cpp:91] Creating Layer loss2/relu_conv
I0403 15:32:08.431924 12060 net.cpp:425] loss2/relu_conv <- loss2/conv
I0403 15:32:08.431946 12060 net.cpp:386] loss2/relu_conv -> loss2/conv (in-place)
I0403 15:32:08.432236 12060 net.cpp:141] Setting up loss2/relu_conv
I0403 15:32:08.432262 12060 net.cpp:148] Top shape: 24 128 4 4 (49152)
I0403 15:32:08.432277 12060 net.cpp:156] Memory required for data: 1208122656
I0403 15:32:08.432293 12060 layer_factory.hpp:77] Creating layer loss2/fc
I0403 15:32:08.432313 12060 net.cpp:91] Creating Layer loss2/fc
I0403 15:32:08.432330 12060 net.cpp:425] loss2/fc <- loss2/conv
I0403 15:32:08.432373 12060 net.cpp:399] loss2/fc -> loss2/fc
I0403 15:32:08.450268 12060 net.cpp:141] Setting up loss2/fc
I0403 15:32:08.450301 12060 net.cpp:148] Top shape: 24 1024 (24576)
I0403 15:32:08.450317 12060 net.cpp:156] Memory required for data: 1208220960
I0403 15:32:08.450336 12060 layer_factory.hpp:77] Creating layer loss2/relu_fc
I0403 15:32:08.450361 12060 net.cpp:91] Creating Layer loss2/relu_fc
I0403 15:32:08.450378 12060 net.cpp:425] loss2/relu_fc <- loss2/fc
I0403 15:32:08.450397 12060 net.cpp:386] loss2/relu_fc -> loss2/fc (in-place)
I0403 15:32:08.450695 12060 net.cpp:141] Setting up loss2/relu_fc
I0403 15:32:08.450724 12060 net.cpp:148] Top shape: 24 1024 (24576)
I0403 15:32:08.450742 12060 net.cpp:156] Memory required for data: 1208319264
I0403 15:32:08.450757 12060 layer_factory.hpp:77] Creating layer loss2/drop_fc
I0403 15:32:08.450778 12060 net.cpp:91] Creating Layer loss2/drop_fc
I0403 15:32:08.450794 12060 net.cpp:425] loss2/drop_fc <- loss2/fc
I0403 15:32:08.450811 12060 net.cpp:386] loss2/drop_fc -> loss2/fc (in-place)
I0403 15:32:08.450862 12060 net.cpp:141] Setting up loss2/drop_fc
I0403 15:32:08.450886 12060 net.cpp:148] Top shape: 24 1024 (24576)
I0403 15:32:08.450901 12060 net.cpp:156] Memory required for data: 1208417568
I0403 15:32:08.450916 12060 layer_factory.hpp:77] Creating layer loss2/classifier_plantvillage
I0403 15:32:08.450935 12060 net.cpp:91] Creating Layer loss2/classifier_plantvillage
I0403 15:32:08.450953 12060 net.cpp:425] loss2/classifier_plantvillage <- loss2/fc
I0403 15:32:08.450970 12060 net.cpp:399] loss2/classifier_plantvillage -> loss2/classifier_plantvillage
I0403 15:32:08.451382 12060 net.cpp:141] Setting up loss2/classifier_plantvillage
I0403 15:32:08.451406 12060 net.cpp:148] Top shape: 24 38 (912)
I0403 15:32:08.451438 12060 net.cpp:156] Memory required for data: 1208421216
I0403 15:32:08.451459 12060 layer_factory.hpp:77] Creating layer loss2/classifier_plantvillage_loss2/classifier_plantvillage_0_split
I0403 15:32:08.451478 12060 net.cpp:91] Creating Layer loss2/classifier_plantvillage_loss2/classifier_plantvillage_0_split
I0403 15:32:08.451494 12060 net.cpp:425] loss2/classifier_plantvillage_loss2/classifier_plantvillage_0_split <- loss2/classifier_plantvillage
I0403 15:32:08.451514 12060 net.cpp:399] loss2/classifier_plantvillage_loss2/classifier_plantvillage_0_split -> loss2/classifier_plantvillage_loss2/classifier_plantvillage_0_split_0
I0403 15:32:08.451535 12060 net.cpp:399] loss2/classifier_plantvillage_loss2/classifier_plantvillage_0_split -> loss2/classifier_plantvillage_loss2/classifier_plantvillage_0_split_1
I0403 15:32:08.451557 12060 net.cpp:399] loss2/classifier_plantvillage_loss2/classifier_plantvillage_0_split -> loss2/classifier_plantvillage_loss2/classifier_plantvillage_0_split_2
I0403 15:32:08.451634 12060 net.cpp:141] Setting up loss2/classifier_plantvillage_loss2/classifier_plantvillage_0_split
I0403 15:32:08.451659 12060 net.cpp:148] Top shape: 24 38 (912)
I0403 15:32:08.451675 12060 net.cpp:148] Top shape: 24 38 (912)
I0403 15:32:08.451692 12060 net.cpp:148] Top shape: 24 38 (912)
I0403 15:32:08.451706 12060 net.cpp:156] Memory required for data: 1208432160
I0403 15:32:08.451721 12060 layer_factory.hpp:77] Creating layer inception_4e/1x1
I0403 15:32:08.451746 12060 net.cpp:91] Creating Layer inception_4e/1x1
I0403 15:32:08.451764 12060 net.cpp:425] inception_4e/1x1 <- inception_4d/output_inception_4d/output_0_split_1
I0403 15:32:08.451783 12060 net.cpp:399] inception_4e/1x1 -> inception_4e/1x1
I0403 15:32:08.453680 12060 net.cpp:141] Setting up inception_4e/1x1
I0403 15:32:08.453708 12060 net.cpp:148] Top shape: 24 256 14 14 (1204224)
I0403 15:32:08.453724 12060 net.cpp:156] Memory required for data: 1213249056
I0403 15:32:08.453744 12060 layer_factory.hpp:77] Creating layer inception_4e/relu_1x1
I0403 15:32:08.453763 12060 net.cpp:91] Creating Layer inception_4e/relu_1x1
I0403 15:32:08.453783 12060 net.cpp:425] inception_4e/relu_1x1 <- inception_4e/1x1
I0403 15:32:08.453800 12060 net.cpp:386] inception_4e/relu_1x1 -> inception_4e/1x1 (in-place)
I0403 15:32:08.454098 12060 net.cpp:141] Setting up inception_4e/relu_1x1
I0403 15:32:08.454124 12060 net.cpp:148] Top shape: 24 256 14 14 (1204224)
I0403 15:32:08.454140 12060 net.cpp:156] Memory required for data: 1218065952
I0403 15:32:08.454155 12060 layer_factory.hpp:77] Creating layer inception_4e/3x3_reduce
I0403 15:32:08.454179 12060 net.cpp:91] Creating Layer inception_4e/3x3_reduce
I0403 15:32:08.454196 12060 net.cpp:425] inception_4e/3x3_reduce <- inception_4d/output_inception_4d/output_0_split_2
I0403 15:32:08.454217 12060 net.cpp:399] inception_4e/3x3_reduce -> inception_4e/3x3_reduce
I0403 15:32:08.456356 12060 net.cpp:141] Setting up inception_4e/3x3_reduce
I0403 15:32:08.456385 12060 net.cpp:148] Top shape: 24 160 14 14 (752640)
I0403 15:32:08.456401 12060 net.cpp:156] Memory required for data: 1221076512
I0403 15:32:08.456421 12060 layer_factory.hpp:77] Creating layer inception_4e/relu_3x3_reduce
I0403 15:32:08.456439 12060 net.cpp:91] Creating Layer inception_4e/relu_3x3_reduce
I0403 15:32:08.456456 12060 net.cpp:425] inception_4e/relu_3x3_reduce <- inception_4e/3x3_reduce
I0403 15:32:08.456475 12060 net.cpp:386] inception_4e/relu_3x3_reduce -> inception_4e/3x3_reduce (in-place)
I0403 15:32:08.456672 12060 net.cpp:141] Setting up inception_4e/relu_3x3_reduce
I0403 15:32:08.456698 12060 net.cpp:148] Top shape: 24 160 14 14 (752640)
I0403 15:32:08.456713 12060 net.cpp:156] Memory required for data: 1224087072
I0403 15:32:08.456728 12060 layer_factory.hpp:77] Creating layer inception_4e/3x3
I0403 15:32:08.456751 12060 net.cpp:91] Creating Layer inception_4e/3x3
I0403 15:32:08.456769 12060 net.cpp:425] inception_4e/3x3 <- inception_4e/3x3_reduce
I0403 15:32:08.456790 12060 net.cpp:399] inception_4e/3x3 -> inception_4e/3x3
I0403 15:32:08.462064 12060 net.cpp:141] Setting up inception_4e/3x3
I0403 15:32:08.462110 12060 net.cpp:148] Top shape: 24 320 14 14 (1505280)
I0403 15:32:08.462127 12060 net.cpp:156] Memory required for data: 1230108192
I0403 15:32:08.462147 12060 layer_factory.hpp:77] Creating layer inception_4e/relu_3x3
I0403 15:32:08.462168 12060 net.cpp:91] Creating Layer inception_4e/relu_3x3
I0403 15:32:08.462187 12060 net.cpp:425] inception_4e/relu_3x3 <- inception_4e/3x3
I0403 15:32:08.462204 12060 net.cpp:386] inception_4e/relu_3x3 -> inception_4e/3x3 (in-place)
I0403 15:32:08.462532 12060 net.cpp:141] Setting up inception_4e/relu_3x3
I0403 15:32:08.462560 12060 net.cpp:148] Top shape: 24 320 14 14 (1505280)
I0403 15:32:08.462576 12060 net.cpp:156] Memory required for data: 1236129312
I0403 15:32:08.462592 12060 layer_factory.hpp:77] Creating layer inception_4e/5x5_reduce
I0403 15:32:08.462616 12060 net.cpp:91] Creating Layer inception_4e/5x5_reduce
I0403 15:32:08.462635 12060 net.cpp:425] inception_4e/5x5_reduce <- inception_4d/output_inception_4d/output_0_split_3
I0403 15:32:08.462658 12060 net.cpp:399] inception_4e/5x5_reduce -> inception_4e/5x5_reduce
I0403 15:32:08.463773 12060 net.cpp:141] Setting up inception_4e/5x5_reduce
I0403 15:32:08.463803 12060 net.cpp:148] Top shape: 24 32 14 14 (150528)
I0403 15:32:08.463820 12060 net.cpp:156] Memory required for data: 1236731424
I0403 15:32:08.463840 12060 layer_factory.hpp:77] Creating layer inception_4e/relu_5x5_reduce
I0403 15:32:08.463858 12060 net.cpp:91] Creating Layer inception_4e/relu_5x5_reduce
I0403 15:32:08.463876 12060 net.cpp:425] inception_4e/relu_5x5_reduce <- inception_4e/5x5_reduce
I0403 15:32:08.463896 12060 net.cpp:386] inception_4e/relu_5x5_reduce -> inception_4e/5x5_reduce (in-place)
I0403 15:32:08.464263 12060 net.cpp:141] Setting up inception_4e/relu_5x5_reduce
I0403 15:32:08.464293 12060 net.cpp:148] Top shape: 24 32 14 14 (150528)
I0403 15:32:08.464311 12060 net.cpp:156] Memory required for data: 1237333536
I0403 15:32:08.464328 12060 layer_factory.hpp:77] Creating layer inception_4e/5x5
I0403 15:32:08.464375 12060 net.cpp:91] Creating Layer inception_4e/5x5
I0403 15:32:08.464397 12060 net.cpp:425] inception_4e/5x5 <- inception_4e/5x5_reduce
I0403 15:32:08.464432 12060 net.cpp:399] inception_4e/5x5 -> inception_4e/5x5
I0403 15:32:08.466382 12060 net.cpp:141] Setting up inception_4e/5x5
I0403 15:32:08.466423 12060 net.cpp:148] Top shape: 24 128 14 14 (602112)
I0403 15:32:08.466440 12060 net.cpp:156] Memory required for data: 1239741984
I0403 15:32:08.466464 12060 layer_factory.hpp:77] Creating layer inception_4e/relu_5x5
I0403 15:32:08.466485 12060 net.cpp:91] Creating Layer inception_4e/relu_5x5
I0403 15:32:08.466501 12060 net.cpp:425] inception_4e/relu_5x5 <- inception_4e/5x5
I0403 15:32:08.466521 12060 net.cpp:386] inception_4e/relu_5x5 -> inception_4e/5x5 (in-place)
I0403 15:32:08.466747 12060 net.cpp:141] Setting up inception_4e/relu_5x5
I0403 15:32:08.466773 12060 net.cpp:148] Top shape: 24 128 14 14 (602112)
I0403 15:32:08.466789 12060 net.cpp:156] Memory required for data: 1242150432
I0403 15:32:08.466804 12060 layer_factory.hpp:77] Creating layer inception_4e/pool
I0403 15:32:08.466823 12060 net.cpp:91] Creating Layer inception_4e/pool
I0403 15:32:08.466840 12060 net.cpp:425] inception_4e/pool <- inception_4d/output_inception_4d/output_0_split_4
I0403 15:32:08.466863 12060 net.cpp:399] inception_4e/pool -> inception_4e/pool
I0403 15:32:08.466936 12060 net.cpp:141] Setting up inception_4e/pool
I0403 15:32:08.466961 12060 net.cpp:148] Top shape: 24 528 14 14 (2483712)
I0403 15:32:08.466976 12060 net.cpp:156] Memory required for data: 1252085280
I0403 15:32:08.466991 12060 layer_factory.hpp:77] Creating layer inception_4e/pool_proj
I0403 15:32:08.467016 12060 net.cpp:91] Creating Layer inception_4e/pool_proj
I0403 15:32:08.467034 12060 net.cpp:425] inception_4e/pool_proj <- inception_4e/pool
I0403 15:32:08.467054 12060 net.cpp:399] inception_4e/pool_proj -> inception_4e/pool_proj
I0403 15:32:08.468617 12060 net.cpp:141] Setting up inception_4e/pool_proj
I0403 15:32:08.468658 12060 net.cpp:148] Top shape: 24 128 14 14 (602112)
I0403 15:32:08.468675 12060 net.cpp:156] Memory required for data: 1254493728
I0403 15:32:08.468694 12060 layer_factory.hpp:77] Creating layer inception_4e/relu_pool_proj
I0403 15:32:08.468716 12060 net.cpp:91] Creating Layer inception_4e/relu_pool_proj
I0403 15:32:08.468734 12060 net.cpp:425] inception_4e/relu_pool_proj <- inception_4e/pool_proj
I0403 15:32:08.468754 12060 net.cpp:386] inception_4e/relu_pool_proj -> inception_4e/pool_proj (in-place)
I0403 15:32:08.469059 12060 net.cpp:141] Setting up inception_4e/relu_pool_proj
I0403 15:32:08.469087 12060 net.cpp:148] Top shape: 24 128 14 14 (602112)
I0403 15:32:08.469104 12060 net.cpp:156] Memory required for data: 1256902176
I0403 15:32:08.469118 12060 layer_factory.hpp:77] Creating layer inception_4e/output
I0403 15:32:08.469140 12060 net.cpp:91] Creating Layer inception_4e/output
I0403 15:32:08.469157 12060 net.cpp:425] inception_4e/output <- inception_4e/1x1
I0403 15:32:08.469175 12060 net.cpp:425] inception_4e/output <- inception_4e/3x3
I0403 15:32:08.469192 12060 net.cpp:425] inception_4e/output <- inception_4e/5x5
I0403 15:32:08.469210 12060 net.cpp:425] inception_4e/output <- inception_4e/pool_proj
I0403 15:32:08.469229 12060 net.cpp:399] inception_4e/output -> inception_4e/output
I0403 15:32:08.469281 12060 net.cpp:141] Setting up inception_4e/output
I0403 15:32:08.469306 12060 net.cpp:148] Top shape: 24 832 14 14 (3913728)
I0403 15:32:08.469321 12060 net.cpp:156] Memory required for data: 1272557088
I0403 15:32:08.469337 12060 layer_factory.hpp:77] Creating layer pool4/3x3_s2
I0403 15:32:08.469362 12060 net.cpp:91] Creating Layer pool4/3x3_s2
I0403 15:32:08.469380 12060 net.cpp:425] pool4/3x3_s2 <- inception_4e/output
I0403 15:32:08.469414 12060 net.cpp:399] pool4/3x3_s2 -> pool4/3x3_s2
I0403 15:32:08.469487 12060 net.cpp:141] Setting up pool4/3x3_s2
I0403 15:32:08.469512 12060 net.cpp:148] Top shape: 24 832 7 7 (978432)
I0403 15:32:08.469528 12060 net.cpp:156] Memory required for data: 1276470816
I0403 15:32:08.469545 12060 layer_factory.hpp:77] Creating layer pool4/3x3_s2_pool4/3x3_s2_0_split
I0403 15:32:08.469566 12060 net.cpp:91] Creating Layer pool4/3x3_s2_pool4/3x3_s2_0_split
I0403 15:32:08.469584 12060 net.cpp:425] pool4/3x3_s2_pool4/3x3_s2_0_split <- pool4/3x3_s2
I0403 15:32:08.469605 12060 net.cpp:399] pool4/3x3_s2_pool4/3x3_s2_0_split -> pool4/3x3_s2_pool4/3x3_s2_0_split_0
I0403 15:32:08.469629 12060 net.cpp:399] pool4/3x3_s2_pool4/3x3_s2_0_split -> pool4/3x3_s2_pool4/3x3_s2_0_split_1
I0403 15:32:08.469650 12060 net.cpp:399] pool4/3x3_s2_pool4/3x3_s2_0_split -> pool4/3x3_s2_pool4/3x3_s2_0_split_2
I0403 15:32:08.469672 12060 net.cpp:399] pool4/3x3_s2_pool4/3x3_s2_0_split -> pool4/3x3_s2_pool4/3x3_s2_0_split_3
I0403 15:32:08.469775 12060 net.cpp:141] Setting up pool4/3x3_s2_pool4/3x3_s2_0_split
I0403 15:32:08.469801 12060 net.cpp:148] Top shape: 24 832 7 7 (978432)
I0403 15:32:08.469820 12060 net.cpp:148] Top shape: 24 832 7 7 (978432)
I0403 15:32:08.469836 12060 net.cpp:148] Top shape: 24 832 7 7 (978432)
I0403 15:32:08.469853 12060 net.cpp:148] Top shape: 24 832 7 7 (978432)
I0403 15:32:08.469867 12060 net.cpp:156] Memory required for data: 1292125728
I0403 15:32:08.469883 12060 layer_factory.hpp:77] Creating layer inception_5a/1x1
I0403 15:32:08.469907 12060 net.cpp:91] Creating Layer inception_5a/1x1
I0403 15:32:08.469924 12060 net.cpp:425] inception_5a/1x1 <- pool4/3x3_s2_pool4/3x3_s2_0_split_0
I0403 15:32:08.469944 12060 net.cpp:399] inception_5a/1x1 -> inception_5a/1x1
I0403 15:32:08.472930 12060 net.cpp:141] Setting up inception_5a/1x1
I0403 15:32:08.472962 12060 net.cpp:148] Top shape: 24 256 7 7 (301056)
I0403 15:32:08.472980 12060 net.cpp:156] Memory required for data: 1293329952
I0403 15:32:08.473000 12060 layer_factory.hpp:77] Creating layer inception_5a/relu_1x1
I0403 15:32:08.473018 12060 net.cpp:91] Creating Layer inception_5a/relu_1x1
I0403 15:32:08.473034 12060 net.cpp:425] inception_5a/relu_1x1 <- inception_5a/1x1
I0403 15:32:08.473054 12060 net.cpp:386] inception_5a/relu_1x1 -> inception_5a/1x1 (in-place)
I0403 15:32:08.473402 12060 net.cpp:141] Setting up inception_5a/relu_1x1
I0403 15:32:08.473433 12060 net.cpp:148] Top shape: 24 256 7 7 (301056)
I0403 15:32:08.473450 12060 net.cpp:156] Memory required for data: 1294534176
I0403 15:32:08.473469 12060 layer_factory.hpp:77] Creating layer inception_5a/3x3_reduce
I0403 15:32:08.473492 12060 net.cpp:91] Creating Layer inception_5a/3x3_reduce
I0403 15:32:08.473511 12060 net.cpp:425] inception_5a/3x3_reduce <- pool4/3x3_s2_pool4/3x3_s2_0_split_1
I0403 15:32:08.473533 12060 net.cpp:399] inception_5a/3x3_reduce -> inception_5a/3x3_reduce
I0403 15:32:08.476115 12060 net.cpp:141] Setting up inception_5a/3x3_reduce
I0403 15:32:08.476145 12060 net.cpp:148] Top shape: 24 160 7 7 (188160)
I0403 15:32:08.476161 12060 net.cpp:156] Memory required for data: 1295286816
I0403 15:32:08.476181 12060 layer_factory.hpp:77] Creating layer inception_5a/relu_3x3_reduce
I0403 15:32:08.476202 12060 net.cpp:91] Creating Layer inception_5a/relu_3x3_reduce
I0403 15:32:08.476219 12060 net.cpp:425] inception_5a/relu_3x3_reduce <- inception_5a/3x3_reduce
I0403 15:32:08.476238 12060 net.cpp:386] inception_5a/relu_3x3_reduce -> inception_5a/3x3_reduce (in-place)
I0403 15:32:08.476444 12060 net.cpp:141] Setting up inception_5a/relu_3x3_reduce
I0403 15:32:08.476474 12060 net.cpp:148] Top shape: 24 160 7 7 (188160)
I0403 15:32:08.476490 12060 net.cpp:156] Memory required for data: 1296039456
I0403 15:32:08.476505 12060 layer_factory.hpp:77] Creating layer inception_5a/3x3
I0403 15:32:08.476529 12060 net.cpp:91] Creating Layer inception_5a/3x3
I0403 15:32:08.476547 12060 net.cpp:425] inception_5a/3x3 <- inception_5a/3x3_reduce
I0403 15:32:08.476567 12060 net.cpp:399] inception_5a/3x3 -> inception_5a/3x3
I0403 15:32:08.481868 12060 net.cpp:141] Setting up inception_5a/3x3
I0403 15:32:08.481901 12060 net.cpp:148] Top shape: 24 320 7 7 (376320)
I0403 15:32:08.481919 12060 net.cpp:156] Memory required for data: 1297544736
I0403 15:32:08.481938 12060 layer_factory.hpp:77] Creating layer inception_5a/relu_3x3
I0403 15:32:08.481957 12060 net.cpp:91] Creating Layer inception_5a/relu_3x3
I0403 15:32:08.481974 12060 net.cpp:425] inception_5a/relu_3x3 <- inception_5a/3x3
I0403 15:32:08.481995 12060 net.cpp:386] inception_5a/relu_3x3 -> inception_5a/3x3 (in-place)
I0403 15:32:08.482306 12060 net.cpp:141] Setting up inception_5a/relu_3x3
I0403 15:32:08.482336 12060 net.cpp:148] Top shape: 24 320 7 7 (376320)
I0403 15:32:08.482365 12060 net.cpp:156] Memory required for data: 1299050016
I0403 15:32:08.482384 12060 layer_factory.hpp:77] Creating layer inception_5a/5x5_reduce
I0403 15:32:08.482409 12060 net.cpp:91] Creating Layer inception_5a/5x5_reduce
I0403 15:32:08.482429 12060 net.cpp:425] inception_5a/5x5_reduce <- pool4/3x3_s2_pool4/3x3_s2_0_split_2
I0403 15:32:08.482450 12060 net.cpp:399] inception_5a/5x5_reduce -> inception_5a/5x5_reduce
I0403 15:32:08.483674 12060 net.cpp:141] Setting up inception_5a/5x5_reduce
I0403 15:32:08.483705 12060 net.cpp:148] Top shape: 24 32 7 7 (37632)
I0403 15:32:08.483722 12060 net.cpp:156] Memory required for data: 1299200544
I0403 15:32:08.483742 12060 layer_factory.hpp:77] Creating layer inception_5a/relu_5x5_reduce
I0403 15:32:08.483762 12060 net.cpp:91] Creating Layer inception_5a/relu_5x5_reduce
I0403 15:32:08.483779 12060 net.cpp:425] inception_5a/relu_5x5_reduce <- inception_5a/5x5_reduce
I0403 15:32:08.483799 12060 net.cpp:386] inception_5a/relu_5x5_reduce -> inception_5a/5x5_reduce (in-place)
I0403 15:32:08.484113 12060 net.cpp:141] Setting up inception_5a/relu_5x5_reduce
I0403 15:32:08.484140 12060 net.cpp:148] Top shape: 24 32 7 7 (37632)
I0403 15:32:08.484156 12060 net.cpp:156] Memory required for data: 1299351072
I0403 15:32:08.484171 12060 layer_factory.hpp:77] Creating layer inception_5a/5x5
I0403 15:32:08.484195 12060 net.cpp:91] Creating Layer inception_5a/5x5
I0403 15:32:08.484215 12060 net.cpp:425] inception_5a/5x5 <- inception_5a/5x5_reduce
I0403 15:32:08.484237 12060 net.cpp:399] inception_5a/5x5 -> inception_5a/5x5
I0403 15:32:08.486109 12060 net.cpp:141] Setting up inception_5a/5x5
I0403 15:32:08.486153 12060 net.cpp:148] Top shape: 24 128 7 7 (150528)
I0403 15:32:08.486171 12060 net.cpp:156] Memory required for data: 1299953184
I0403 15:32:08.486191 12060 layer_factory.hpp:77] Creating layer inception_5a/relu_5x5
I0403 15:32:08.486210 12060 net.cpp:91] Creating Layer inception_5a/relu_5x5
I0403 15:32:08.486227 12060 net.cpp:425] inception_5a/relu_5x5 <- inception_5a/5x5
I0403 15:32:08.486248 12060 net.cpp:386] inception_5a/relu_5x5 -> inception_5a/5x5 (in-place)
I0403 15:32:08.486461 12060 net.cpp:141] Setting up inception_5a/relu_5x5
I0403 15:32:08.486488 12060 net.cpp:148] Top shape: 24 128 7 7 (150528)
I0403 15:32:08.486503 12060 net.cpp:156] Memory required for data: 1300555296
I0403 15:32:08.486522 12060 layer_factory.hpp:77] Creating layer inception_5a/pool
I0403 15:32:08.486541 12060 net.cpp:91] Creating Layer inception_5a/pool
I0403 15:32:08.486557 12060 net.cpp:425] inception_5a/pool <- pool4/3x3_s2_pool4/3x3_s2_0_split_3
I0403 15:32:08.486579 12060 net.cpp:399] inception_5a/pool -> inception_5a/pool
I0403 15:32:08.486652 12060 net.cpp:141] Setting up inception_5a/pool
I0403 15:32:08.486676 12060 net.cpp:148] Top shape: 24 832 7 7 (978432)
I0403 15:32:08.486692 12060 net.cpp:156] Memory required for data: 1304469024
I0403 15:32:08.486707 12060 layer_factory.hpp:77] Creating layer inception_5a/pool_proj
I0403 15:32:08.486732 12060 net.cpp:91] Creating Layer inception_5a/pool_proj
I0403 15:32:08.486752 12060 net.cpp:425] inception_5a/pool_proj <- inception_5a/pool
I0403 15:32:08.486770 12060 net.cpp:399] inception_5a/pool_proj -> inception_5a/pool_proj
I0403 15:32:08.489189 12060 net.cpp:141] Setting up inception_5a/pool_proj
I0403 15:32:08.489219 12060 net.cpp:148] Top shape: 24 128 7 7 (150528)
I0403 15:32:08.489239 12060 net.cpp:156] Memory required for data: 1305071136
I0403 15:32:08.489259 12060 layer_factory.hpp:77] Creating layer inception_5a/relu_pool_proj
I0403 15:32:08.489279 12060 net.cpp:91] Creating Layer inception_5a/relu_pool_proj
I0403 15:32:08.489295 12060 net.cpp:425] inception_5a/relu_pool_proj <- inception_5a/pool_proj
I0403 15:32:08.489312 12060 net.cpp:386] inception_5a/relu_pool_proj -> inception_5a/pool_proj (in-place)
I0403 15:32:08.489645 12060 net.cpp:141] Setting up inception_5a/relu_pool_proj
I0403 15:32:08.489676 12060 net.cpp:148] Top shape: 24 128 7 7 (150528)
I0403 15:32:08.489706 12060 net.cpp:156] Memory required for data: 1305673248
I0403 15:32:08.489722 12060 layer_factory.hpp:77] Creating layer inception_5a/output
I0403 15:32:08.489740 12060 net.cpp:91] Creating Layer inception_5a/output
I0403 15:32:08.489758 12060 net.cpp:425] inception_5a/output <- inception_5a/1x1
I0403 15:32:08.489774 12060 net.cpp:425] inception_5a/output <- inception_5a/3x3
I0403 15:32:08.489791 12060 net.cpp:425] inception_5a/output <- inception_5a/5x5
I0403 15:32:08.489809 12060 net.cpp:425] inception_5a/output <- inception_5a/pool_proj
I0403 15:32:08.489826 12060 net.cpp:399] inception_5a/output -> inception_5a/output
I0403 15:32:08.489881 12060 net.cpp:141] Setting up inception_5a/output
I0403 15:32:08.489904 12060 net.cpp:148] Top shape: 24 832 7 7 (978432)
I0403 15:32:08.489920 12060 net.cpp:156] Memory required for data: 1309586976
I0403 15:32:08.489935 12060 layer_factory.hpp:77] Creating layer inception_5a/output_inception_5a/output_0_split
I0403 15:32:08.489953 12060 net.cpp:91] Creating Layer inception_5a/output_inception_5a/output_0_split
I0403 15:32:08.489969 12060 net.cpp:425] inception_5a/output_inception_5a/output_0_split <- inception_5a/output
I0403 15:32:08.489990 12060 net.cpp:399] inception_5a/output_inception_5a/output_0_split -> inception_5a/output_inception_5a/output_0_split_0
I0403 15:32:08.490013 12060 net.cpp:399] inception_5a/output_inception_5a/output_0_split -> inception_5a/output_inception_5a/output_0_split_1
I0403 15:32:08.490034 12060 net.cpp:399] inception_5a/output_inception_5a/output_0_split -> inception_5a/output_inception_5a/output_0_split_2
I0403 15:32:08.490056 12060 net.cpp:399] inception_5a/output_inception_5a/output_0_split -> inception_5a/output_inception_5a/output_0_split_3
I0403 15:32:08.490175 12060 net.cpp:141] Setting up inception_5a/output_inception_5a/output_0_split
I0403 15:32:08.490200 12060 net.cpp:148] Top shape: 24 832 7 7 (978432)
I0403 15:32:08.490217 12060 net.cpp:148] Top shape: 24 832 7 7 (978432)
I0403 15:32:08.490233 12060 net.cpp:148] Top shape: 24 832 7 7 (978432)
I0403 15:32:08.490249 12060 net.cpp:148] Top shape: 24 832 7 7 (978432)
I0403 15:32:08.490263 12060 net.cpp:156] Memory required for data: 1325241888
I0403 15:32:08.490279 12060 layer_factory.hpp:77] Creating layer inception_5b/1x1
I0403 15:32:08.490303 12060 net.cpp:91] Creating Layer inception_5b/1x1
I0403 15:32:08.490321 12060 net.cpp:425] inception_5b/1x1 <- inception_5a/output_inception_5a/output_0_split_0
I0403 15:32:08.490344 12060 net.cpp:399] inception_5b/1x1 -> inception_5b/1x1
I0403 15:32:08.494371 12060 net.cpp:141] Setting up inception_5b/1x1
I0403 15:32:08.494403 12060 net.cpp:148] Top shape: 24 384 7 7 (451584)
I0403 15:32:08.494420 12060 net.cpp:156] Memory required for data: 1327048224
I0403 15:32:08.494438 12060 layer_factory.hpp:77] Creating layer inception_5b/relu_1x1
I0403 15:32:08.494463 12060 net.cpp:91] Creating Layer inception_5b/relu_1x1
I0403 15:32:08.494484 12060 net.cpp:425] inception_5b/relu_1x1 <- inception_5b/1x1
I0403 15:32:08.494504 12060 net.cpp:386] inception_5b/relu_1x1 -> inception_5b/1x1 (in-place)
I0403 15:32:08.494823 12060 net.cpp:141] Setting up inception_5b/relu_1x1
I0403 15:32:08.494853 12060 net.cpp:148] Top shape: 24 384 7 7 (451584)
I0403 15:32:08.494870 12060 net.cpp:156] Memory required for data: 1328854560
I0403 15:32:08.494886 12060 layer_factory.hpp:77] Creating layer inception_5b/3x3_reduce
I0403 15:32:08.494911 12060 net.cpp:91] Creating Layer inception_5b/3x3_reduce
I0403 15:32:08.494933 12060 net.cpp:425] inception_5b/3x3_reduce <- inception_5a/output_inception_5a/output_0_split_1
I0403 15:32:08.494957 12060 net.cpp:399] inception_5b/3x3_reduce -> inception_5b/3x3_reduce
I0403 15:32:08.497831 12060 net.cpp:141] Setting up inception_5b/3x3_reduce
I0403 15:32:08.497864 12060 net.cpp:148] Top shape: 24 192 7 7 (225792)
I0403 15:32:08.497881 12060 net.cpp:156] Memory required for data: 1329757728
I0403 15:32:08.497901 12060 layer_factory.hpp:77] Creating layer inception_5b/relu_3x3_reduce
I0403 15:32:08.497923 12060 net.cpp:91] Creating Layer inception_5b/relu_3x3_reduce
I0403 15:32:08.497942 12060 net.cpp:425] inception_5b/relu_3x3_reduce <- inception_5b/3x3_reduce
I0403 15:32:08.497961 12060 net.cpp:386] inception_5b/relu_3x3_reduce -> inception_5b/3x3_reduce (in-place)
I0403 15:32:08.498163 12060 net.cpp:141] Setting up inception_5b/relu_3x3_reduce
I0403 15:32:08.498191 12060 net.cpp:148] Top shape: 24 192 7 7 (225792)
I0403 15:32:08.498208 12060 net.cpp:156] Memory required for data: 1330660896
I0403 15:32:08.498224 12060 layer_factory.hpp:77] Creating layer inception_5b/3x3
I0403 15:32:08.498247 12060 net.cpp:91] Creating Layer inception_5b/3x3
I0403 15:32:08.498266 12060 net.cpp:425] inception_5b/3x3 <- inception_5b/3x3_reduce
I0403 15:32:08.498286 12060 net.cpp:399] inception_5b/3x3 -> inception_5b/3x3
I0403 15:32:08.505259 12060 net.cpp:141] Setting up inception_5b/3x3
I0403 15:32:08.505290 12060 net.cpp:148] Top shape: 24 384 7 7 (451584)
I0403 15:32:08.505307 12060 net.cpp:156] Memory required for data: 1332467232
I0403 15:32:08.505327 12060 layer_factory.hpp:77] Creating layer inception_5b/relu_3x3
I0403 15:32:08.505352 12060 net.cpp:91] Creating Layer inception_5b/relu_3x3
I0403 15:32:08.505372 12060 net.cpp:425] inception_5b/relu_3x3 <- inception_5b/3x3
I0403 15:32:08.505390 12060 net.cpp:386] inception_5b/relu_3x3 -> inception_5b/3x3 (in-place)
I0403 15:32:08.505703 12060 net.cpp:141] Setting up inception_5b/relu_3x3
I0403 15:32:08.505733 12060 net.cpp:148] Top shape: 24 384 7 7 (451584)
I0403 15:32:08.505751 12060 net.cpp:156] Memory required for data: 1334273568
I0403 15:32:08.505767 12060 layer_factory.hpp:77] Creating layer inception_5b/5x5_reduce
I0403 15:32:08.505805 12060 net.cpp:91] Creating Layer inception_5b/5x5_reduce
I0403 15:32:08.505825 12060 net.cpp:425] inception_5b/5x5_reduce <- inception_5a/output_inception_5a/output_0_split_2
I0403 15:32:08.505847 12060 net.cpp:399] inception_5b/5x5_reduce -> inception_5b/5x5_reduce
I0403 15:32:08.507177 12060 net.cpp:141] Setting up inception_5b/5x5_reduce
I0403 15:32:08.507207 12060 net.cpp:148] Top shape: 24 48 7 7 (56448)
I0403 15:32:08.507225 12060 net.cpp:156] Memory required for data: 1334499360
I0403 15:32:08.507246 12060 layer_factory.hpp:77] Creating layer inception_5b/relu_5x5_reduce
I0403 15:32:08.507266 12060 net.cpp:91] Creating Layer inception_5b/relu_5x5_reduce
I0403 15:32:08.507285 12060 net.cpp:425] inception_5b/relu_5x5_reduce <- inception_5b/5x5_reduce
I0403 15:32:08.507304 12060 net.cpp:386] inception_5b/relu_5x5_reduce -> inception_5b/5x5_reduce (in-place)
I0403 15:32:08.507700 12060 net.cpp:141] Setting up inception_5b/relu_5x5_reduce
I0403 15:32:08.507728 12060 net.cpp:148] Top shape: 24 48 7 7 (56448)
I0403 15:32:08.507745 12060 net.cpp:156] Memory required for data: 1334725152
I0403 15:32:08.507760 12060 layer_factory.hpp:77] Creating layer inception_5b/5x5
I0403 15:32:08.507781 12060 net.cpp:91] Creating Layer inception_5b/5x5
I0403 15:32:08.507799 12060 net.cpp:425] inception_5b/5x5 <- inception_5b/5x5_reduce
I0403 15:32:08.507820 12060 net.cpp:399] inception_5b/5x5 -> inception_5b/5x5
I0403 15:32:08.510041 12060 net.cpp:141] Setting up inception_5b/5x5
I0403 15:32:08.510071 12060 net.cpp:148] Top shape: 24 128 7 7 (150528)
I0403 15:32:08.510088 12060 net.cpp:156] Memory required for data: 1335327264
I0403 15:32:08.510108 12060 layer_factory.hpp:77] Creating layer inception_5b/relu_5x5
I0403 15:32:08.510128 12060 net.cpp:91] Creating Layer inception_5b/relu_5x5
I0403 15:32:08.510144 12060 net.cpp:425] inception_5b/relu_5x5 <- inception_5b/5x5
I0403 15:32:08.510166 12060 net.cpp:386] inception_5b/relu_5x5 -> inception_5b/5x5 (in-place)
I0403 15:32:08.510399 12060 net.cpp:141] Setting up inception_5b/relu_5x5
I0403 15:32:08.510434 12060 net.cpp:148] Top shape: 24 128 7 7 (150528)
I0403 15:32:08.510452 12060 net.cpp:156] Memory required for data: 1335929376
I0403 15:32:08.510468 12060 layer_factory.hpp:77] Creating layer inception_5b/pool
I0403 15:32:08.510486 12060 net.cpp:91] Creating Layer inception_5b/pool
I0403 15:32:08.510504 12060 net.cpp:425] inception_5b/pool <- inception_5a/output_inception_5a/output_0_split_3
I0403 15:32:08.510526 12060 net.cpp:399] inception_5b/pool -> inception_5b/pool
I0403 15:32:08.510606 12060 net.cpp:141] Setting up inception_5b/pool
I0403 15:32:08.510633 12060 net.cpp:148] Top shape: 24 832 7 7 (978432)
I0403 15:32:08.510649 12060 net.cpp:156] Memory required for data: 1339843104
I0403 15:32:08.510673 12060 layer_factory.hpp:77] Creating layer inception_5b/pool_proj
I0403 15:32:08.510709 12060 net.cpp:91] Creating Layer inception_5b/pool_proj
I0403 15:32:08.510735 12060 net.cpp:425] inception_5b/pool_proj <- inception_5b/pool
I0403 15:32:08.510757 12060 net.cpp:399] inception_5b/pool_proj -> inception_5b/pool_proj
I0403 15:32:08.513170 12060 net.cpp:141] Setting up inception_5b/pool_proj
I0403 15:32:08.513202 12060 net.cpp:148] Top shape: 24 128 7 7 (150528)
I0403 15:32:08.513219 12060 net.cpp:156] Memory required for data: 1340445216
I0403 15:32:08.513239 12060 layer_factory.hpp:77] Creating layer inception_5b/relu_pool_proj
I0403 15:32:08.513262 12060 net.cpp:91] Creating Layer inception_5b/relu_pool_proj
I0403 15:32:08.513281 12060 net.cpp:425] inception_5b/relu_pool_proj <- inception_5b/pool_proj
I0403 15:32:08.513300 12060 net.cpp:386] inception_5b/relu_pool_proj -> inception_5b/pool_proj (in-place)
I0403 15:32:08.513617 12060 net.cpp:141] Setting up inception_5b/relu_pool_proj
I0403 15:32:08.513644 12060 net.cpp:148] Top shape: 24 128 7 7 (150528)
I0403 15:32:08.513659 12060 net.cpp:156] Memory required for data: 1341047328
I0403 15:32:08.513675 12060 layer_factory.hpp:77] Creating layer inception_5b/output
I0403 15:32:08.513696 12060 net.cpp:91] Creating Layer inception_5b/output
I0403 15:32:08.513728 12060 net.cpp:425] inception_5b/output <- inception_5b/1x1
I0403 15:32:08.513747 12060 net.cpp:425] inception_5b/output <- inception_5b/3x3
I0403 15:32:08.513766 12060 net.cpp:425] inception_5b/output <- inception_5b/5x5
I0403 15:32:08.513792 12060 net.cpp:425] inception_5b/output <- inception_5b/pool_proj
I0403 15:32:08.513810 12060 net.cpp:399] inception_5b/output -> inception_5b/output
I0403 15:32:08.513867 12060 net.cpp:141] Setting up inception_5b/output
I0403 15:32:08.513892 12060 net.cpp:148] Top shape: 24 1024 7 7 (1204224)
I0403 15:32:08.513907 12060 net.cpp:156] Memory required for data: 1345864224
I0403 15:32:08.513923 12060 layer_factory.hpp:77] Creating layer pool5/7x7_s1
I0403 15:32:08.513942 12060 net.cpp:91] Creating Layer pool5/7x7_s1
I0403 15:32:08.513958 12060 net.cpp:425] pool5/7x7_s1 <- inception_5b/output
I0403 15:32:08.513980 12060 net.cpp:399] pool5/7x7_s1 -> pool5/7x7_s1
I0403 15:32:08.514211 12060 net.cpp:141] Setting up pool5/7x7_s1
I0403 15:32:08.514240 12060 net.cpp:148] Top shape: 24 1024 1 1 (24576)
I0403 15:32:08.514257 12060 net.cpp:156] Memory required for data: 1345962528
I0403 15:32:08.514273 12060 layer_factory.hpp:77] Creating layer pool5/drop_7x7_s1
I0403 15:32:08.514292 12060 net.cpp:91] Creating Layer pool5/drop_7x7_s1
I0403 15:32:08.514309 12060 net.cpp:425] pool5/drop_7x7_s1 <- pool5/7x7_s1
I0403 15:32:08.514356 12060 net.cpp:386] pool5/drop_7x7_s1 -> pool5/7x7_s1 (in-place)
I0403 15:32:08.514408 12060 net.cpp:141] Setting up pool5/drop_7x7_s1
I0403 15:32:08.514431 12060 net.cpp:148] Top shape: 24 1024 1 1 (24576)
I0403 15:32:08.514446 12060 net.cpp:156] Memory required for data: 1346060832
I0403 15:32:08.514462 12060 layer_factory.hpp:77] Creating layer loss3/classifier_plantvillage
I0403 15:32:08.514485 12060 net.cpp:91] Creating Layer loss3/classifier_plantvillage
I0403 15:32:08.514503 12060 net.cpp:425] loss3/classifier_plantvillage <- pool5/7x7_s1
I0403 15:32:08.514524 12060 net.cpp:399] loss3/classifier_plantvillage -> loss3/classifier_plantvillage
I0403 15:32:08.514951 12060 net.cpp:141] Setting up loss3/classifier_plantvillage
I0403 15:32:08.514976 12060 net.cpp:148] Top shape: 24 38 (912)
I0403 15:32:08.514991 12060 net.cpp:156] Memory required for data: 1346064480
I0403 15:32:08.515009 12060 layer_factory.hpp:77] Creating layer loss3/classifier_plantvillage_loss3/classifier_plantvillage_0_split
I0403 15:32:08.515027 12060 net.cpp:91] Creating Layer loss3/classifier_plantvillage_loss3/classifier_plantvillage_0_split
I0403 15:32:08.515049 12060 net.cpp:425] loss3/classifier_plantvillage_loss3/classifier_plantvillage_0_split <- loss3/classifier_plantvillage
I0403 15:32:08.515069 12060 net.cpp:399] loss3/classifier_plantvillage_loss3/classifier_plantvillage_0_split -> loss3/classifier_plantvillage_loss3/classifier_plantvillage_0_split_0
I0403 15:32:08.515089 12060 net.cpp:399] loss3/classifier_plantvillage_loss3/classifier_plantvillage_0_split -> loss3/classifier_plantvillage_loss3/classifier_plantvillage_0_split_1
I0403 15:32:08.515110 12060 net.cpp:399] loss3/classifier_plantvillage_loss3/classifier_plantvillage_0_split -> loss3/classifier_plantvillage_loss3/classifier_plantvillage_0_split_2
I0403 15:32:08.515130 12060 net.cpp:399] loss3/classifier_plantvillage_loss3/classifier_plantvillage_0_split -> loss3/classifier_plantvillage_loss3/classifier_plantvillage_0_split_3
I0403 15:32:08.515231 12060 net.cpp:141] Setting up loss3/classifier_plantvillage_loss3/classifier_plantvillage_0_split
I0403 15:32:08.515255 12060 net.cpp:148] Top shape: 24 38 (912)
I0403 15:32:08.515271 12060 net.cpp:148] Top shape: 24 38 (912)
I0403 15:32:08.515287 12060 net.cpp:148] Top shape: 24 38 (912)
I0403 15:32:08.515303 12060 net.cpp:148] Top shape: 24 38 (912)
I0403 15:32:08.515317 12060 net.cpp:156] Memory required for data: 1346079072
I0403 15:32:08.515332 12060 layer_factory.hpp:77] Creating layer loss1/loss
I0403 15:32:08.515359 12060 net.cpp:91] Creating Layer loss1/loss
I0403 15:32:08.515378 12060 net.cpp:425] loss1/loss <- loss1/classifier_plantvillage_loss1/classifier_plantvillage_0_split_0
I0403 15:32:08.515410 12060 net.cpp:425] loss1/loss <- label_data_1_split_0
…
