…
I0403 15:40:17.458250 12210 net.cpp:313] The NetState phase (1) differed from the phase (0) specified by a rule in layer data
I0403 15:40:17.459403 12210 net.cpp:49] Initializing net from parameters: 
state {
  phase: TEST
}
layer {
  name: "data"
  type: "Data"
  top: "data"
  top: "label"
  include {
    phase: TEST
  }
  transform_param {
    mirror: false
    crop_size: 224
    mean_file: "/home/mohanty/data/final_dataset/lmdb/segmented-40-60/mean.binaryproto"
  }
  data_param {
    source: "/home/mohanty/data/final_dataset/lmdb/segmented-40-60/test_db"
    batch_size: 24
    backend: LMDB
  }
}
layer {
  name: "conv1/7x7_s2"
  type: "Convolution"
  bottom: "data"
  top: "conv1/7x7_s2"
  param {
    lr_mult: 1
    decay_mult: 1
  }
  param {
    lr_mult: 2
    decay_mult: 0
  }
  convolution_param {
    num_output: 64
    pad: 3
    kernel_size: 7
    stride: 2
    weight_filler {
      type: "xavier"
      std: 0.1
    }
    bias_filler {
      type: "constant"
      value: 0.2
    }
  }
}
layer {
  name: "conv1/relu_7x7"
  type: "ReLU"
  bottom: "conv1/7x7_s2"
  top: "conv1/7x7_s2"
}
layer {
  name: "pool1/3x3_s2"
  type: "Pooling"
  bottom: "conv1/7x7_s2"
  top: "pool1/3x3_s2"
  pooling_param {
    pool: MAX
    kernel_size: 3
    stride: 2
  }
}
layer {
  name: "pool1/norm1"
  type: "LRN"
  bottom: "pool1/3x3_s2"
  top: "pool1/norm1"
  lrn_param {
    local_size: 5
    alpha: 0.0001
    beta: 0.75
  }
}
layer {
  name: "conv2/3x3_reduce"
  type: "Convolution"
  bottom: "pool1/norm1"
  top: "conv2/3x3_reduce"
  param {
    lr_mult: 1
    decay_mult: 1
  }
  param {
    lr_mult: 2
    decay_mult: 0
  }
  convolution_param {
    num_output: 64
    kernel_size: 1
    weight_filler {
      type: "xavier"
      std: 0.1
    }
    bias_filler {
      type: "constant"
      value: 0.2
    }
  }
}
layer {
  name: "conv2/relu_3x3_reduce"
  type: "ReLU"
  bottom: "conv2/3x3_reduce"
  top: "conv2/3x3_reduce"
}
layer {
  name: "conv2/3x3"
  type: "Convolution"
  bottom: "conv2/3x3_reduce"
  top: "conv2/3x3"
  param {
    lr_mult: 1
    decay_mult: 1
  }
  param {
    lr_mult: 2
    decay_mult: 0
  }
  convolution_param {
    num_output: 192
    pad: 1
    kernel_size: 3
    weight_filler {
      type: "xavier"
      std: 0.03
    }
    bias_filler {
      type: "constant"
      value: 0.2
    }
  }
}
layer {
  name: "conv2/relu_3x3"
  type: "ReLU"
  bottom: "conv2/3x3"
  top: "conv2/3x3"
}
layer {
  name: "conv2/norm2"
  type: "LRN"
  bottom: "conv2/3x3"
  top: "conv2/norm2"
  lrn_param {
    local_size: 5
    alpha: 0.0001
    beta: 0.75
  }
}
layer {
  name: "pool2/3x3_s2"
  type: "Pooling"
  bottom: "conv2/norm2"
  top: "pool2/3x3_s2"
  pooling_param {
    pool: MAX
    kernel_size: 3
    stride: 2
  }
}
layer {
  name: "inception_3a/1x1"
  type: "Convolution"
  bottom: "pool2/3x3_s2"
  top: "inception_3a/1x1"
  param {
    lr_mult: 1
    decay_mult: 1
  }
  param {
    lr_mult: 2
    decay_mult: 0
  }
  convolution_param {
    num_output: 64
    kernel_size: 1
    weight_filler {
      type: "xavier"
      std: 0.03
    }
    bias_filler {
      type: "constant"
      value: 0.2
    }
  }
}
layer {
  name: "inception_3a/relu_1x1"
  type: "ReLU"
  bottom: "inception_3a/1x1"
  top: "inception_3a/1x1"
}
layer {
  name: "inception_3a/3x3_reduce"
  type: "Convolution"
  bottom: "pool2/3x3_s2"
  top: "inception_3a/3x3_reduce"
  param {
    lr_mult: 1
    decay_mult: 1
  }
  param {
    lr_mult: 2
    decay_mult: 0
  }
  convolution_param {
    num_output: 96
    kernel_size: 1
    weight_filler {
      type: "xavier"
      std: 0.09
    }
    bias_filler {
      type: "constant"
      value: 0.2
    }
  }
}
layer {
  name: "inception_3a/relu_3x3_reduce"
  type: "ReLU"
  bottom: "inception_3a/3x3_reduce"
  top: "inception_3a/3x3_reduce"
}
layer {
  name: "inception_3a/3x3"
  type: "Convolution"
  bottom: "inception_3a/3x3_reduce"
  top: "inception_3a/3x3"
  param {
    lr_mult: 1
    decay_mult: 1
  }
  param {
    lr_mult: 2
    decay_mult: 0
  }
  convolution_param {
    num_output: 128
    pad: 1
    kernel_size: 3
    weight_filler {
      type: "xavier"
      std: 0.03
    }
    bias_filler {
      type: "constant"
      value: 0.2
    }
  }
}
layer {
  name: "inception_3a/relu_3x3"
  type: "ReLU"
  bottom: "inception_3a/3x3"
  top: "inception_3a/3x3"
}
layer {
  name: "inception_3a/5x5_reduce"
  type: "Convolution"
  bottom: "pool2/3x3_s2"
  top: "inception_3a/5x5_reduce"
  param {
    lr_mult: 1
    decay_mult: 1
  }
  param {
    lr_mult: 2
    decay_mult: 0
  }
  convolution_param {
    num_output: 16
    kernel_size: 1
    weight_filler {
      type: "xavier"
      std: 0.2
    }
    bias_filler {
      type: "constant"
      value: 0.2
    }
  }
}
layer {
  name: "inception_3a/relu_5x5_reduce"
  type: "ReLU"
  bottom: "inception_3a/5x5_reduce"
  top: "inception_3a/5x5_reduce"
}
layer {
  name: "inception_3a/5x5"
  type: "Convolution"
  bottom: "inception_3a/5x5_reduce"
  top: "inception_3a/5x5"
  param {
    lr_mult: 1
    decay_mult: 1
  }
  param {
    lr_mult: 2
    decay_mult: 0
  }
  convolution_param {
    num_output: 32
    pad: 2
    kernel_size: 5
    weight_filler {
      type: "xavier"
      std: 0.03
    }
    bias_filler {
      type: "constant"
      value: 0.2
    }
  }
}
layer {
  name: "inception_3a/relu_5x5"
  type: "ReLU"
  bottom: "inception_3a/5x5"
  top: "inception_3a/5x5"
}
layer {
  name: "inception_3a/pool"
  type: "Pooling"
  bottom: "pool2/3x3_s2"
  top: "inception_3a/pool"
  pooling_param {
    pool: MAX
    kernel_size: 3
    stride: 1
    pad: 1
  }
}
layer {
  name: "inception_3a/pool_proj"
  type: "Convolution"
  bottom: "inception_3a/pool"
  top: "inception_3a/pool_proj"
  param {
    lr_mult: 1
    decay_mult: 1
  }
  param {
    lr_mult: 2
    decay_mult: 0
  }
  convolution_param {
    num_output: 32
    kernel_size: 1
    weight_filler {
      type: "xavier"
      std: 0.1
    }
    bias_filler {
      type: "constant"
      value: 0.2
    }
  }
}
layer {
  name: "inception_3a/relu_pool_proj"
  type: "ReLU"
  bottom: "inception_3a/pool_proj"
  top: "inception_3a/pool_proj"
}
layer {
  name: "inception_3a/output"
  type: "Concat"
  bottom: "inception_3a/1x1"
  bottom: "inception_3a/3x3"
  bottom: "inception_3a/5x5"
  bottom: "inception_3a/pool_proj"
  top: "inception_3a/output"
}
layer {
  name: "inception_3b/1x1"
  type: "Convolution"
  bottom: "inception_3a/output"
  top: "inception_3b/1x1"
  param {
    lr_mult: 1
    decay_mult: 1
  }
  param {
    lr_mult: 2
    decay_mult: 0
  }
  convolution_param {
    num_output: 128
    kernel_size: 1
    weight_filler {
      type: "xavier"
      std: 0.03
    }
    bias_filler {
      type: "constant"
      value: 0.2
    }
  }
}
layer {
  name: "inception_3b/relu_1x1"
  type: "ReLU"
  bottom: "inception_3b/1x1"
  top: "inception_3b/1x1"
}
layer {
  name: "inception_3b/3x3_reduce"
  type: "Convolution"
  bottom: "inception_3a/output"
  top: "inception_3b/3x3_reduce"
  param {
    lr_mult: 1
    decay_mult: 1
  }
  param {
    lr_mult: 2
    decay_mult: 0
  }
  convolution_param {
    num_output: 128
    kernel_size: 1
    weight_filler {
      type: "xavier"
      std: 0.09
    }
    bias_filler {
      type: "constant"
      value: 0.2
    }
  }
}
layer {
  name: "inception_3b/relu_3x3_reduce"
  type: "ReLU"
  bottom: "inception_3b/3x3_reduce"
  top: "inception_3b/3x3_reduce"
}
layer {
  name: "inception_3b/3x3"
  type: "Convolution"
  bottom: "inception_3b/3x3_reduce"
  top: "inception_3b/3x3"
  param {
    lr_mult: 1
    decay_mult: 1
  }
  param {
    lr_mult: 2
    decay_mult: 0
  }
  convolution_param {
    num_output: 192
    pad: 1
    kernel_size: 3
    weight_filler {
      type: "xavier"
      std: 0.03
    }
    bias_filler {
      type: "constant"
      value: 0.2
    }
  }
}
layer {
  name: "inception_3b/relu_3x3"
  type: "ReLU"
  bottom: "inception_3b/3x3"
  top: "inception_3b/3x3"
}
layer {
  name: "inception_3b/5x5_reduce"
  type: "Convolution"
  bottom: "inception_3a/output"
  top: "inception_3b/5x5_reduce"
  param {
    lr_mult: 1
    decay_mult: 1
  }
  param {
    lr_mult: 2
    decay_mult: 0
  }
  convolution_param {
    num_output: 32
    kernel_size: 1
    weight_filler {
      type: "xavier"
      std: 0.2
    }
    bias_filler {
      type: "constant"
      value: 0.2
    }
  }
}
layer {
  name: "inception_3b/relu_5x5_reduce"
  type: "ReLU"
  bottom: "inception_3b/5x5_reduce"
  top: "inception_3b/5x5_reduce"
}
layer {
  name: "inception_3b/5x5"
  type: "Convolution"
  bottom: "inception_3b/5x5_reduce"
  top: "inception_3b/5x5"
  param {
    lr_mult: 1
    decay_mult: 1
  }
  param {
    lr_mult: 2
    decay_mult: 0
  }
  convolution_param {
    num_output: 96
    pad: 2
    kernel_size: 5
    weight_filler {
      type: "xavier"
      std: 0.03
    }
    bias_filler {
      type: "constant"
      value: 0.2
    }
  }
}
layer {
  name: "inception_3b/relu_5x5"
  type: "ReLU"
  bottom: "inception_3b/5x5"
  top: "inception_3b/5x5"
}
layer {
  name: "inception_3b/pool"
  type: "Pooling"
  bottom: "inception_3a/output"
  top: "inception_3b/pool"
  pooling_param {
    pool: MAX
    kernel_size: 3
    stride: 1
    pad: 1
  }
}
layer {
  name: "inception_3b/pool_proj"
  type: "Convolution"
  bottom: "inception_3b/pool"
  top: "inception_3b/pool_proj"
  param {
    lr_mult: 1
    decay_mult: 1
  }
  param {
    lr_mult: 2
    decay_mult: 0
  }
  convolution_param {
    num_output: 64
    kernel_size: 1
    weight_filler {
      type: "xavier"
      std: 0.1
    }
    bias_filler {
      type: "constant"
      value: 0.2
    }
  }
}
layer {
  name: "inception_3b/relu_pool_proj"
  type: "ReLU"
  bottom: "inception_3b/pool_proj"
  top: "inception_3b/pool_proj"
}
layer {
  name: "inception_3b/output"
  type: "Concat"
  bottom: "inception_3b/1x1"
  bottom: "inception_3b/3x3"
  bottom: "inception_3b/5x5"
  bottom: "inception_3b/pool_proj"
  top: "inception_3b/output"
}
layer {
  name: "pool3/3x3_s2"
  type: "Pooling"
  bottom: "inception_3b/output"
  top: "pool3/3x3_s2"
  pooling_param {
    pool: MAX
    kernel_size: 3
    stride: 2
  }
}
layer {
  name: "inception_4a/1x1"
  type: "Convolution"
  bottom: "pool3/3x3_s2"
  top: "inception_4a/1x1"
  param {
    lr_mult: 1
    decay_mult: 1
  }
  param {
    lr_mult: 2
    decay_mult: 0
  }
  convolution_param {
    num_output: 192
    kernel_size: 1
    weight_filler {
      type: "xavier"
      std: 0.03
    }
    bias_filler {
      type: "constant"
      value: 0.2
    }
  }
}
layer {
  name: "inception_4a/relu_1x1"
  type: "ReLU"
  bottom: "inception_4a/1x1"
  top: "inception_4a/1x1"
}
layer {
  name: "inception_4a/3x3_reduce"
  type: "Convolution"
  bottom: "pool3/3x3_s2"
  top: "inception_4a/3x3_reduce"
  param {
    lr_mult: 1
    decay_mult: 1
  }
  param {
    lr_mult: 2
    decay_mult: 0
  }
  convolution_param {
    num_output: 96
    kernel_size: 1
    weight_filler {
      type: "xavier"
      std: 0.09
    }
    bias_filler {
      type: "constant"
      value: 0.2
    }
  }
}
layer {
  name: "inception_4a/relu_3x3_reduce"
  type: "ReLU"
  bottom: "inception_4a/3x3_reduce"
  top: "inception_4a/3x3_reduce"
}
layer {
  name: "inception_4a/3x3"
  type: "Convolution"
  bottom: "inception_4a/3x3_reduce"
  top: "inception_4a/3x3"
  param {
    lr_mult: 1
    decay_mult: 1
  }
  param {
    lr_mult: 2
    decay_mult: 0
  }
  convolution_param {
    num_output: 208
    pad: 1
    kernel_size: 3
    weight_filler {
      type: "xavier"
      std: 0.03
    }
    bias_filler {
      type: "constant"
      value: 0.2
    }
  }
}
layer {
  name: "inception_4a/relu_3x3"
  type: "ReLU"
  bottom: "inception_4a/3x3"
  top: "inception_4a/3x3"
}
layer {
  name: "inception_4a/5x5_reduce"
  type: "Convolution"
  bottom: "pool3/3x3_s2"
  top: "inception_4a/5x5_reduce"
  param {
    lr_mult: 1
    decay_mult: 1
  }
  param {
    lr_mult: 2
    decay_mult: 0
  }
  convolution_param {
    num_output: 16
    kernel_size: 1
    weight_filler {
      type: "xavier"
      std: 0.2
    }
    bias_filler {
      type: "constant"
      value: 0.2
    }
  }
}
layer {
  name: "inception_4a/relu_5x5_reduce"
  type: "ReLU"
  bottom: "inception_4a/5x5_reduce"
  top: "inception_4a/5x5_reduce"
}
layer {
  name: "inception_4a/5x5"
  type: "Convolution"
  bottom: "inception_4a/5x5_reduce"
  top: "inception_4a/5x5"
  param {
    lr_mult: 1
    decay_mult: 1
  }
  param {
    lr_mult: 2
    decay_mult: 0
  }
  convolution_param {
    num_output: 48
    pad: 2
    kernel_size: 5
    weight_filler {
      type: "xavier"
      std: 0.03
    }
    bias_filler {
      type: "constant"
      value: 0.2
    }
  }
}
layer {
  name: "inception_4a/relu_5x5"
  type: "ReLU"
  bottom: "inception_4a/5x5"
  top: "inception_4a/5x5"
}
layer {
  name: "inception_4a/pool"
  type: "Pooling"
  bottom: "pool3/3x3_s2"
  top: "inception_4a/pool"
  pooling_param {
    pool: MAX
    kernel_size: 3
    stride: 1
    pad: 1
  }
}
layer {
  name: "inception_4a/pool_proj"
  type: "Convolution"
  bottom: "inception_4a/pool"
  top: "inception_4a/pool_proj"
  param {
    lr_mult: 1
    decay_mult: 1
  }
  param {
    lr_mult: 2
    decay_mult: 0
  }
  convolution_param {
    num_output: 64
    kernel_size: 1
    weight_filler {
      type: "xavier"
      std: 0.1
    }
    bias_filler {
      type: "constant"
      value: 0.2
    }
  }
}
layer {
  name: "inception_4a/relu_pool_proj"
  type: "ReLU"
  bottom: "inception_4a/pool_proj"
  top: "inception_4a/pool_proj"
}
layer {
  name: "inception_4a/output"
  type: "Concat"
  bottom: "inception_4a/1x1"
  bottom: "inception_4a/3x3"
  bottom: "inception_4a/5x5"
  bottom: "inception_4a/pool_proj"
  top: "inception_4a/output"
}
layer {
  name: "loss1/ave_pool"
  type: "Pooling"
  bottom: "inception_4a/output"
  top: "loss1/ave_pool"
  pooling_param {
    pool: AVE
    kernel_size: 5
    stride: 3
  }
}
layer {
  name: "loss1/conv"
  type: "Convolution"
  bottom: "loss1/ave_pool"
  top: "loss1/conv"
  param {
    lr_mult: 1
    decay_mult: 1
  }
  param {
    lr_mult: 2
    decay_mult: 0
  }
  convolution_param {
    num_output: 128
    kernel_size: 1
    weight_filler {
      type: "xavier"
      std: 0.08
    }
    bias_filler {
      type: "constant"
      value: 0.2
    }
  }
}
layer {
  name: "loss1/relu_conv"
  type: "ReLU"
  bottom: "loss1/conv"
  top: "loss1/conv"
}
layer {
  name: "loss1/fc"
  type: "InnerProduct"
  bottom: "loss1/conv"
  top: "loss1/fc"
  param {
    lr_mult: 1
    decay_mult: 1
  }
  param {
    lr_mult: 2
    decay_mult: 0
  }
  inner_product_param {
    num_output: 1024
    weight_filler {
      type: "xavier"
      std: 0.02
    }
    bias_filler {
      type: "constant"
      value: 0.2
    }
  }
}
layer {
  name: "loss1/relu_fc"
  type: "ReLU"
  bottom: "loss1/fc"
  top: "loss1/fc"
}
layer {
  name: "loss1/drop_fc"
  type: "Dropout"
  bottom: "loss1/fc"
  top: "loss1/fc"
  dropout_param {
    dropout_ratio: 0.7
  }
}
layer {
  name: "loss1/classifier_plantvillage"
  type: "InnerProduct"
  bottom: "loss1/fc"
  top: "loss1/classifier_plantvillage"
  param {
    lr_mult: 1
    decay_mult: 1
  }
  param {
    lr_mult: 2
    decay_mult: 0
  }
  inner_product_param {
    num_output: 38
    weight_filler {
      type: "xavier"
      std: 0.0009765625
    }
    bias_filler {
      type: "constant"
      value: 0
    }
  }
}
layer {
  name: "inception_4b/1x1"
  type: "Convolution"
  bottom: "inception_4a/output"
  top: "inception_4b/1x1"
  param {
    lr_mult: 1
    decay_mult: 1
  }
  param {
    lr_mult: 2
    decay_mult: 0
  }
  convolution_param {
    num_output: 160
    kernel_size: 1
    weight_filler {
      type: "xavier"
      std: 0.03
    }
    bias_filler {
      type: "constant"
      value: 0.2
    }
  }
}
layer {
  name: "inception_4b/relu_1x1"
  type: "ReLU"
  bottom: "inception_4b/1x1"
  top: "inception_4b/1x1"
}
layer {
  name: "inception_4b/3x3_reduce"
  type: "Convolution"
  bottom: "inception_4a/output"
  top: "inception_4b/3x3_reduce"
  param {
    lr_mult: 1
    decay_mult: 1
  }
  param {
    lr_mult: 2
    decay_mult: 0
  }
  convolution_param {
    num_output: 112
    kernel_size: 1
    weight_filler {
      type: "xavier"
      std: 0.09
    }
    bias_filler {
      type: "constant"
      value: 0.2
    }
  }
}
layer {
  name: "inception_4b/relu_3x3_reduce"
  type: "ReLU"
  bottom: "inception_4b/3x3_reduce"
  top: "inception_4b/3x3_reduce"
}
layer {
  name: "inception_4b/3x3"
  type: "Convolution"
  bottom: "inception_4b/3x3_reduce"
  top: "inception_4b/3x3"
  param {
    lr_mult: 1
    decay_mult: 1
  }
  param {
    lr_mult: 2
    decay_mult: 0
  }
  convolution_param {
    num_output: 224
    pad: 1
    kernel_size: 3
    weight_filler {
      type: "xavier"
      std: 0.03
    }
    bias_filler {
      type: "constant"
      value: 0.2
    }
  }
}
layer {
  name: "inception_4b/relu_3x3"
  type: "ReLU"
  bottom: "inception_4b/3x3"
  top: "inception_4b/3x3"
}
layer {
  name: "inception_4b/5x5_reduce"
  type: "Convolution"
  bottom: "inception_4a/output"
  top: "inception_4b/5x5_reduce"
  param {
    lr_mult: 1
    decay_mult: 1
  }
  param {
    lr_mult: 2
    decay_mult: 0
  }
  convolution_param {
    num_output: 24
    kernel_size: 1
    weight_filler {
      type: "xavier"
      std: 0.2
    }
    bias_filler {
      type: "constant"
      value: 0.2
    }
  }
}
layer {
  name: "inception_4b/relu_5x5_reduce"
  type: "ReLU"
  bottom: "inception_4b/5x5_reduce"
  top: "inception_4b/5x5_reduce"
}
layer {
  name: "inception_4b/5x5"
  type: "Convolution"
  bottom: "inception_4b/5x5_reduce"
  top: "inception_4b/5x5"
  param {
    lr_mult: 1
    decay_mult: 1
  }
  param {
    lr_mult: 2
    decay_mult: 0
  }
  convolution_param {
    num_output: 64
    pad: 2
    kernel_size: 5
    weight_filler {
      type: "xavier"
      std: 0.03
    }
    bias_filler {
      type: "constant"
      value: 0.2
    }
  }
}
layer {
  name: "inception_4b/relu_5x5"
  type: "ReLU"
  bottom: "inception_4b/5x5"
  top: "inception_4b/5x5"
}
layer {
  name: "inception_4b/pool"
  type: "Pooling"
  bottom: "inception_4a/output"
  top: "inception_4b/pool"
  pooling_param {
    pool: MAX
    kernel_size: 3
    stride: 1
    pad: 1
  }
}
layer {
  name: "inception_4b/pool_proj"
  type: "Convolution"
  bottom: "inception_4b/pool"
  top: "inception_4b/pool_proj"
  param {
    lr_mult: 1
    decay_mult: 1
  }
  param {
    lr_mult: 2
    decay_mult: 0
  }
  convolution_param {
    num_output: 64
    kernel_size: 1
    weight_filler {
      type: "xavier"
      std: 0.1
    }
    bias_filler {
      type: "constant"
      value: 0.2
    }
  }
}
layer {
  name: "inception_4b/relu_pool_proj"
  type: "ReLU"
  bottom: "inception_4b/pool_proj"
  top: "inception_4b/pool_proj"
}
layer {
  name: "inception_4b/output"
  type: "Concat"
  bottom: "inception_4b/1x1"
  bottom: "inception_4b/3x3"
  bottom: "inception_4b/5x5"
  bottom: "inception_4b/pool_proj"
  top: "inception_4b/output"
}
layer {
  name: "inception_4c/1x1"
  type: "Convolution"
  bottom: "inception_4b/output"
  top: "inception_4c/1x1"
  param {
    lr_mult: 1
    decay_mult: 1
  }
  param {
    lr_mult: 2
    decay_mult: 0
  }
  convolution_param {
    num_output: 128
    kernel_size: 1
    weight_filler {
      type: "xavier"
      std: 0.03
    }
    bias_filler {
      type: "constant"
      value: 0.2
    }
  }
}
layer {
  name: "inception_4c/relu_1x1"
  type: "ReLU"
  bottom: "inception_4c/1x1"
  top: "inception_4c/1x1"
}
layer {
  name: "inception_4c/3x3_reduce"
  type: "Convolution"
  bottom: "inception_4b/output"
  top: "inception_4c/3x3_reduce"
  param {
    lr_mult: 1
    decay_mult: 1
  }
  param {
    lr_mult: 2
    decay_mult: 0
  }
  convolution_param {
    num_output: 128
    kernel_size: 1
    weight_filler {
      type: "xavier"
      std: 0.09
    }
    bias_filler {
      type: "constant"
      value: 0.2
    }
  }
}
layer {
  name: "inception_4c/relu_3x3_reduce"
  type: "ReLU"
  bottom: "inception_4c/3x3_reduce"
  top: "inception_4c/3x3_reduce"
}
layer {
  name: "inception_4c/3x3"
  type: "Convolution"
  bottom: "inception_4c/3x3_reduce"
  top: "inception_4c/3x3"
  param {
    lr_mult: 1
    decay_mult: 1
  }
  param {
    lr_mult: 2
    decay_mult: 0
  }
  convolution_param {
    num_output: 256
    pad: 1
    kernel_size: 3
    weight_filler {
      type: "xavier"
      std: 0.03
    }
    bias_filler {
      type: "constant"
      value: 0.2
    }
  }
}
layer {
  name: "inception_4c/relu_3x3"
  type: "ReLU"
  bottom: "inception_4c/3x3"
  top: "inception_4c/3x3"
}
layer {
  name: "inception_4c/5x5_reduce"
  type: "Convolution"
  bottom: "inception_4b/output"
  top: "inception_4c/5x5_reduce"
  param {
    lr_mult: 1
    decay_mult: 1
  }
  param {
    lr_mult: 2
    decay_mult: 0
  }
  convolution_param {
    num_output: 24
    kernel_size: 1
    weight_filler {
      type: "xavier"
      std: 0.2
    }
    bias_filler {
      type: "constant"
      value: 0.2
    }
  }
}
layer {
  name: "inception_4c/relu_5x5_reduce"
  type: "ReLU"
  bottom: "inception_4c/5x5_reduce"
  top: "inception_4c/5x5_reduce"
}
layer {
  name: "inception_4c/5x5"
  type: "Convolution"
  bottom: "inception_4c/5x5_reduce"
  top: "inception_4c/5x5"
  param {
    lr_mult: 1
    decay_mult: 1
  }
  param {
    lr_mult: 2
    decay_mult: 0
  }
  convolution_param {
    num_output: 64
    pad: 2
    kernel_size: 5
    weight_filler {
      type: "xavier"
      std: 0.03
    }
    bias_filler {
      type: "constant"
      value: 0.2
    }
  }
}
layer {
  name: "inception_4c/relu_5x5"
  type: "ReLU"
  bottom: "inception_4c/5x5"
  top: "inception_4c/5x5"
}
layer {
  name: "inception_4c/pool"
  type: "Pooling"
  bottom: "inception_4b/output"
  top: "inception_4c/pool"
  pooling_param {
    pool: MAX
    kernel_size: 3
    stride: 1
    pad: 1
  }
}
layer {
  name: "inception_4c/pool_proj"
  type: "Convolution"
  bottom: "inception_4c/pool"
  top: "inception_4c/pool_proj"
  param {
    lr_mult: 1
    decay_mult: 1
  }
  param {
    lr_mult: 2
    decay_mult: 0
  }
  convolution_param {
    num_output: 64
    kernel_size: 1
    weight_filler {
      type: "xavier"
      std: 0.1
    }
    bias_filler {
      type: "constant"
      value: 0.2
    }
  }
}
layer {
  name: "inception_4c/relu_pool_proj"
  type: "ReLU"
  bottom: "inception_4c/pool_proj"
  top: "inception_4c/pool_proj"
}
layer {
  name: "inception_4c/output"
  type: "Concat"
  bottom: "inception_4c/1x1"
  bottom: "inception_4c/3x3"
  bottom: "inception_4c/5x5"
  bottom: "inception_4c/pool_proj"
  top: "inception_4c/output"
}
layer {
  name: "inception_4d/1x1"
  type: "Convolution"
  bottom: "inception_4c/output"
  top: "inception_4d/1x1"
  param {
    lr_mult: 1
    decay_mult: 1
  }
  param {
    lr_mult: 2
    decay_mult: 0
  }
  convolution_param {
    num_output: 112
    kernel_size: 1
    weight_filler {
      type: "xavier"
      std: 0.03
    }
    bias_filler {
      type: "constant"
      value: 0.2
    }
  }
}
layer {
  name: "inception_4d/relu_1x1"
  type: "ReLU"
  bottom: "inception_4d/1x1"
  top: "inception_4d/1x1"
}
layer {
  name: "inception_4d/3x3_reduce"
  type: "Convolution"
  bottom: "inception_4c/output"
  top: "inception_4d/3x3_reduce"
  param {
    lr_mult: 1
    decay_mult: 1
  }
  param {
    lr_mult: 2
    decay_mult: 0
  }
  convolution_param {
    num_output: 144
    kernel_size: 1
    weight_filler {
      type: "xavier"
      std: 0.09
    }
    bias_filler {
      type: "constant"
      value: 0.2
    }
  }
}
layer {
  name: "inception_4d/relu_3x3_reduce"
  type: "ReLU"
  bottom: "inception_4d/3x3_reduce"
  top: "inception_4d/3x3_reduce"
}
layer {
  name: "inception_4d/3x3"
  type: "Convolution"
  bottom: "inception_4d/3x3_reduce"
  top: "inception_4d/3x3"
  param {
    lr_mult: 1
    decay_mult: 1
  }
  param {
    lr_mult: 2
    decay_mult: 0
  }
  convolution_param {
    num_output: 288
    pad: 1
    kernel_size: 3
    weight_filler {
      type: "xavier"
      std: 0.03
    }
    bias_filler {
      type: "constant"
      value: 0.2
    }
  }
}
layer {
  name: "inception_4d/relu_3x3"
  type: "ReLU"
  bottom: "inception_4d/3x3"
  top: "inception_4d/3x3"
}
layer {
  name: "inception_4d/5x5_reduce"
  type: "Convolution"
  bottom: "inception_4c/output"
  top: "inception_4d/5x5_reduce"
  param {
    lr_mult: 1
    decay_mult: 1
  }
  param {
    lr_mult: 2
    decay_mult: 0
  }
  convolution_param {
    num_output: 32
    kernel_size: 1
    weight_filler {
      type: "xavier"
      std: 0.2
    }
    bias_filler {
      type: "constant"
      value: 0.2
    }
  }
}
layer {
  name: "inception_4d/relu_5x5_reduce"
  type: "ReLU"
  bottom: "inception_4d/5x5_reduce"
  top: "inception_4d/5x5_reduce"
}
layer {
  name: "inception_4d/5x5"
  type: "Convolution"
  bottom: "inception_4d/5x5_reduce"
  top: "inception_4d/5x5"
  param {
    lr_mult: 1
    decay_mult: 1
  }
  param {
    lr_mult: 2
    decay_mult: 0
  }
  convolution_param {
    num_output: 64
    pad: 2
    kernel_size: 5
    weight_filler {
      type: "xavier"
      std: 0.03
    }
    bias_filler {
      type: "constant"
      value: 0.2
    }
  }
}
layer {
  name: "inception_4d/relu_5x5"
  type: "ReLU"
  bottom: "inception_4d/5x5"
  top: "inception_4d/5x5"
}
layer {
  name: "inception_4d/pool"
  type: "Pooling"
  bottom: "inception_4c/output"
  top: "inception_4d/pool"
  pooling_param {
    pool: MAX
    kernel_size: 3
    stride: 1
    pad: 1
  }
}
layer {
  name: "inception_4d/pool_proj"
  type: "Convolution"
  bottom: "inception_4d/pool"
  top: "inception_4d/pool_proj"
  param {
    lr_mult: 1
    decay_mult: 1
  }
  param {
    lr_mult: 2
    decay_mult: 0
  }
  convolution_param {
    num_output: 64
    kernel_size: 1
    weight_filler {
      type: "xavier"
      std: 0.1
    }
    bias_filler {
      type: "constant"
      value: 0.2
    }
  }
}
layer {
  name: "inception_4d/relu_pool_proj"
  type: "ReLU"
  bottom: "inception_4d/pool_proj"
  top: "inception_4d/pool_proj"
}
layer {
  name: "inception_4d/output"
  type: "Concat"
  bottom: "inception_4d/1x1"
  bottom: "inception_4d/3x3"
  bottom: "inception_4d/5x5"
  bottom: "inception_4d/pool_proj"
  top: "inception_4d/output"
}
layer {
  name: "loss2/ave_pool"
  type: "Pooling"
  bottom: "inception_4d/output"
  top: "loss2/ave_pool"
  pooling_param {
    pool: AVE
    kernel_size: 5
    stride: 3
  }
}
layer {
  name: "loss2/conv"
  type: "Convolution"
  bottom: "loss2/ave_pool"
  top: "loss2/conv"
  param {
    lr_mult: 1
    decay_mult: 1
  }
  param {
    lr_mult: 2
    decay_mult: 0
  }
  convolution_param {
    num_output: 128
    kernel_size: 1
    weight_filler {
      type: "xavier"
      std: 0.08
    }
    bias_filler {
      type: "constant"
      value: 0.2
    }
  }
}
layer {
  name: "loss2/relu_conv"
  type: "ReLU"
  bottom: "loss2/conv"
  top: "loss2/conv"
}
layer {
  name: "loss2/fc"
  type: "InnerProduct"
  bottom: "loss2/conv"
  top: "loss2/fc"
  param {
    lr_mult: 1
    decay_mult: 1
  }
  param {
    lr_mult: 2
    decay_mult: 0
  }
  inner_product_param {
    num_output: 1024
    weight_filler {
      type: "xavier"
      std: 0.02
    }
    bias_filler {
      type: "constant"
      value: 0.2
    }
  }
}
layer {
  name: "loss2/relu_fc"
  type: "ReLU"
  bottom: "loss2/fc"
  top: "loss2/fc"
}
layer {
  name: "loss2/drop_fc"
  type: "Dropout"
  bottom: "loss2/fc"
  top: "loss2/fc"
  dropout_param {
    dropout_ratio: 0.7
  }
}
layer {
  name: "loss2/classifier_plantvillage"
  type: "InnerProduct"
  bottom: "loss2/fc"
  top: "loss2/classifier_plantvillage"
  param {
    lr_mult: 1
    decay_mult: 1
  }
  param {
    lr_mult: 2
    decay_mult: 0
  }
  inner_product_param {
    num_output: 38
    weight_filler {
      type: "xavier"
      std: 0.0009765625
    }
    bias_filler {
      type: "constant"
      value: 0
    }
  }
}
layer {
  name: "inception_4e/1x1"
  type: "Convolution"
  bottom: "inception_4d/output"
  top: "inception_4e/1x1"
  param {
    lr_mult: 1
    decay_mult: 1
  }
  param {
    lr_mult: 2
    decay_mult: 0
  }
  convolution_param {
    num_output: 256
    kernel_size: 1
    weight_filler {
      type: "xavier"
      std: 0.03
    }
    bias_filler {
      type: "constant"
      value: 0.2
    }
  }
}
layer {
  name: "inception_4e/relu_1x1"
  type: "ReLU"
  bottom: "inception_4e/1x1"
  top: "inception_4e/1x1"
}
layer {
  name: "inception_4e/3x3_reduce"
  type: "Convolution"
  bottom: "inception_4d/output"
  top: "inception_4e/3x3_reduce"
  param {
    lr_mult: 1
    decay_mult: 1
  }
  param {
    lr_mult: 2
    decay_mult: 0
  }
  convolution_param {
    num_output: 160
    kernel_size: 1
    weight_filler {
      type: "xavier"
      std: 0.09
    }
    bias_filler {
      type: "constant"
      value: 0.2
    }
  }
}
layer {
  name: "inception_4e/relu_3x3_reduce"
  type: "ReLU"
  bottom: "inception_4e/3x3_reduce"
  top: "inception_4e/3x3_reduce"
}
layer {
  name: "inception_4e/3x3"
  type: "Convolution"
  bottom: "inception_4e/3x3_reduce"
  top: "inception_4e/3x3"
  param {
    lr_mult: 1
    decay_mult: 1
  }
  param {
    lr_mult: 2
    decay_mult: 0
  }
  convolution_param {
    num_output: 320
    pad: 1
    kernel_size: 3
    weight_filler {
      type: "xavier"
      std: 0.03
    }
    bias_filler {
      type: "constant"
      value: 0.2
    }
  }
}
layer {
  name: "inception_4e/relu_3x3"
  type: "ReLU"
  bottom: "inception_4e/3x3"
  top: "inception_4e/3x3"
}
layer {
  name: "inception_4e/5x5_reduce"
  type: "Convolution"
  bottom: "inception_4d/output"
  top: "inception_4e/5x5_reduce"
  param {
    lr_mult: 1
    decay_mult: 1
  }
  param {
    lr_mult: 2
    decay_mult: 0
  }
  convolution_param {
    num_output: 32
    kernel_size: 1
    weight_filler {
      type: "xavier"
      std: 0.2
    }
    bias_filler {
      type: "constant"
      value: 0.2
    }
  }
}
layer {
  name: "inception_4e/relu_5x5_reduce"
  type: "ReLU"
  bottom: "inception_4e/5x5_reduce"
  top: "inception_4e/5x5_reduce"
}
layer {
  name: "inception_4e/5x5"
  type: "Convolution"
  bottom: "inception_4e/5x5_reduce"
  top: "inception_4e/
I0403 15:40:17.460675 12210 layer_factory.hpp:77] Creating layer data
I0403 15:40:17.461310 12210 net.cpp:91] Creating Layer data
I0403 15:40:17.461338 12210 net.cpp:399] data -> data
I0403 15:40:17.461395 12210 net.cpp:399] data -> label
I0403 15:40:17.461431 12210 data_transformer.cpp:25] Loading mean file from: /home/mohanty/data/final_dataset/lmdb/segmented-40-60/mean.binaryproto
I0403 15:40:17.465901 12214 db_lmdb.cpp:38] Opened lmdb /home/mohanty/data/final_dataset/lmdb/segmented-40-60/test_db
I0403 15:40:17.476330 12210 data_layer.cpp:41] output data size: 24,3,224,224
I0403 15:40:17.504034 12210 net.cpp:141] Setting up data
I0403 15:40:17.504137 12210 net.cpp:148] Top shape: 24 3 224 224 (3612672)
I0403 15:40:17.504158 12210 net.cpp:148] Top shape: 24 (24)
I0403 15:40:17.504173 12210 net.cpp:156] Memory required for data: 14450784
I0403 15:40:17.504199 12210 layer_factory.hpp:77] Creating layer label_data_1_split
I0403 15:40:17.504225 12210 net.cpp:91] Creating Layer label_data_1_split
I0403 15:40:17.504243 12210 net.cpp:425] label_data_1_split <- label
I0403 15:40:17.504274 12210 net.cpp:399] label_data_1_split -> label_data_1_split_0
I0403 15:40:17.504302 12210 net.cpp:399] label_data_1_split -> label_data_1_split_1
I0403 15:40:17.504323 12210 net.cpp:399] label_data_1_split -> label_data_1_split_2
I0403 15:40:17.504343 12210 net.cpp:399] label_data_1_split -> label_data_1_split_3
I0403 15:40:17.504369 12210 net.cpp:399] label_data_1_split -> label_data_1_split_4
I0403 15:40:17.504389 12210 net.cpp:399] label_data_1_split -> label_data_1_split_5
I0403 15:40:17.504408 12210 net.cpp:399] label_data_1_split -> label_data_1_split_6
I0403 15:40:17.504428 12210 net.cpp:399] label_data_1_split -> label_data_1_split_7
I0403 15:40:17.504448 12210 net.cpp:399] label_data_1_split -> label_data_1_split_8
I0403 15:40:17.504468 12210 net.cpp:399] label_data_1_split -> label_data_1_split_9
I0403 15:40:17.504581 12210 net.cpp:141] Setting up label_data_1_split
I0403 15:40:17.504606 12210 net.cpp:148] Top shape: 24 (24)
I0403 15:40:17.504621 12210 net.cpp:148] Top shape: 24 (24)
I0403 15:40:17.504637 12210 net.cpp:148] Top shape: 24 (24)
I0403 15:40:17.504653 12210 net.cpp:148] Top shape: 24 (24)
I0403 15:40:17.504668 12210 net.cpp:148] Top shape: 24 (24)
I0403 15:40:17.504683 12210 net.cpp:148] Top shape: 24 (24)
I0403 15:40:17.504698 12210 net.cpp:148] Top shape: 24 (24)
I0403 15:40:17.504714 12210 net.cpp:148] Top shape: 24 (24)
I0403 15:40:17.504729 12210 net.cpp:148] Top shape: 24 (24)
I0403 15:40:17.504745 12210 net.cpp:148] Top shape: 24 (24)
I0403 15:40:17.504787 12210 net.cpp:156] Memory required for data: 14451744
I0403 15:40:17.504804 12210 layer_factory.hpp:77] Creating layer conv1/7x7_s2
I0403 15:40:17.504835 12210 net.cpp:91] Creating Layer conv1/7x7_s2
I0403 15:40:17.504854 12210 net.cpp:425] conv1/7x7_s2 <- data
I0403 15:40:17.504873 12210 net.cpp:399] conv1/7x7_s2 -> conv1/7x7_s2
I0403 15:40:17.646824 12210 net.cpp:141] Setting up conv1/7x7_s2
I0403 15:40:17.646911 12210 net.cpp:148] Top shape: 24 64 112 112 (19267584)
I0403 15:40:17.646929 12210 net.cpp:156] Memory required for data: 91522080
I0403 15:40:17.646960 12210 layer_factory.hpp:77] Creating layer conv1/relu_7x7
I0403 15:40:17.646987 12210 net.cpp:91] Creating Layer conv1/relu_7x7
I0403 15:40:17.647006 12210 net.cpp:425] conv1/relu_7x7 <- conv1/7x7_s2
I0403 15:40:17.647024 12210 net.cpp:386] conv1/relu_7x7 -> conv1/7x7_s2 (in-place)
I0403 15:40:17.647290 12210 net.cpp:141] Setting up conv1/relu_7x7
I0403 15:40:17.647318 12210 net.cpp:148] Top shape: 24 64 112 112 (19267584)
I0403 15:40:17.647335 12210 net.cpp:156] Memory required for data: 168592416
I0403 15:40:17.647354 12210 layer_factory.hpp:77] Creating layer pool1/3x3_s2
I0403 15:40:17.647382 12210 net.cpp:91] Creating Layer pool1/3x3_s2
I0403 15:40:17.647399 12210 net.cpp:425] pool1/3x3_s2 <- conv1/7x7_s2
I0403 15:40:17.647418 12210 net.cpp:399] pool1/3x3_s2 -> pool1/3x3_s2
I0403 15:40:17.647495 12210 net.cpp:141] Setting up pool1/3x3_s2
I0403 15:40:17.647521 12210 net.cpp:148] Top shape: 24 64 56 56 (4816896)
I0403 15:40:17.647536 12210 net.cpp:156] Memory required for data: 187860000
I0403 15:40:17.647552 12210 layer_factory.hpp:77] Creating layer pool1/norm1
I0403 15:40:17.647578 12210 net.cpp:91] Creating Layer pool1/norm1
I0403 15:40:17.647595 12210 net.cpp:425] pool1/norm1 <- pool1/3x3_s2
I0403 15:40:17.647613 12210 net.cpp:399] pool1/norm1 -> pool1/norm1
I0403 15:40:17.647907 12210 net.cpp:141] Setting up pool1/norm1
I0403 15:40:17.647936 12210 net.cpp:148] Top shape: 24 64 56 56 (4816896)
I0403 15:40:17.647953 12210 net.cpp:156] Memory required for data: 207127584
I0403 15:40:17.647967 12210 layer_factory.hpp:77] Creating layer conv2/3x3_reduce
I0403 15:40:17.647992 12210 net.cpp:91] Creating Layer conv2/3x3_reduce
I0403 15:40:17.648010 12210 net.cpp:425] conv2/3x3_reduce <- pool1/norm1
I0403 15:40:17.648028 12210 net.cpp:399] conv2/3x3_reduce -> conv2/3x3_reduce
I0403 15:40:17.649406 12210 net.cpp:141] Setting up conv2/3x3_reduce
I0403 15:40:17.649438 12210 net.cpp:148] Top shape: 24 64 56 56 (4816896)
I0403 15:40:17.649454 12210 net.cpp:156] Memory required for data: 226395168
I0403 15:40:17.649476 12210 layer_factory.hpp:77] Creating layer conv2/relu_3x3_reduce
I0403 15:40:17.649495 12210 net.cpp:91] Creating Layer conv2/relu_3x3_reduce
I0403 15:40:17.649512 12210 net.cpp:425] conv2/relu_3x3_reduce <- conv2/3x3_reduce
I0403 15:40:17.649528 12210 net.cpp:386] conv2/relu_3x3_reduce -> conv2/3x3_reduce (in-place)
I0403 15:40:17.649788 12210 net.cpp:141] Setting up conv2/relu_3x3_reduce
I0403 15:40:17.649816 12210 net.cpp:148] Top shape: 24 64 56 56 (4816896)
I0403 15:40:17.649832 12210 net.cpp:156] Memory required for data: 245662752
I0403 15:40:17.649847 12210 layer_factory.hpp:77] Creating layer conv2/3x3
I0403 15:40:17.649869 12210 net.cpp:91] Creating Layer conv2/3x3
I0403 15:40:17.649888 12210 net.cpp:425] conv2/3x3 <- conv2/3x3_reduce
I0403 15:40:17.649905 12210 net.cpp:399] conv2/3x3 -> conv2/3x3
I0403 15:40:17.652220 12210 net.cpp:141] Setting up conv2/3x3
I0403 15:40:17.652251 12210 net.cpp:148] Top shape: 24 192 56 56 (14450688)
I0403 15:40:17.652268 12210 net.cpp:156] Memory required for data: 303465504
I0403 15:40:17.652289 12210 layer_factory.hpp:77] Creating layer conv2/relu_3x3
I0403 15:40:17.652309 12210 net.cpp:91] Creating Layer conv2/relu_3x3
I0403 15:40:17.652326 12210 net.cpp:425] conv2/relu_3x3 <- conv2/3x3
I0403 15:40:17.652344 12210 net.cpp:386] conv2/relu_3x3 -> conv2/3x3 (in-place)
I0403 15:40:17.652518 12210 net.cpp:141] Setting up conv2/relu_3x3
I0403 15:40:17.652545 12210 net.cpp:148] Top shape: 24 192 56 56 (14450688)
I0403 15:40:17.652595 12210 net.cpp:156] Memory required for data: 361268256
I0403 15:40:17.652611 12210 layer_factory.hpp:77] Creating layer conv2/norm2
I0403 15:40:17.652631 12210 net.cpp:91] Creating Layer conv2/norm2
I0403 15:40:17.652647 12210 net.cpp:425] conv2/norm2 <- conv2/3x3
I0403 15:40:17.652665 12210 net.cpp:399] conv2/norm2 -> conv2/norm2
I0403 15:40:17.652968 12210 net.cpp:141] Setting up conv2/norm2
I0403 15:40:17.652997 12210 net.cpp:148] Top shape: 24 192 56 56 (14450688)
I0403 15:40:17.653012 12210 net.cpp:156] Memory required for data: 419071008
I0403 15:40:17.653028 12210 layer_factory.hpp:77] Creating layer pool2/3x3_s2
I0403 15:40:17.653046 12210 net.cpp:91] Creating Layer pool2/3x3_s2
I0403 15:40:17.653062 12210 net.cpp:425] pool2/3x3_s2 <- conv2/norm2
I0403 15:40:17.653080 12210 net.cpp:399] pool2/3x3_s2 -> pool2/3x3_s2
I0403 15:40:17.653132 12210 net.cpp:141] Setting up pool2/3x3_s2
I0403 15:40:17.653156 12210 net.cpp:148] Top shape: 24 192 28 28 (3612672)
I0403 15:40:17.653172 12210 net.cpp:156] Memory required for data: 433521696
I0403 15:40:17.653187 12210 layer_factory.hpp:77] Creating layer pool2/3x3_s2_pool2/3x3_s2_0_split
I0403 15:40:17.653204 12210 net.cpp:91] Creating Layer pool2/3x3_s2_pool2/3x3_s2_0_split
I0403 15:40:17.653220 12210 net.cpp:425] pool2/3x3_s2_pool2/3x3_s2_0_split <- pool2/3x3_s2
I0403 15:40:17.653237 12210 net.cpp:399] pool2/3x3_s2_pool2/3x3_s2_0_split -> pool2/3x3_s2_pool2/3x3_s2_0_split_0
I0403 15:40:17.653257 12210 net.cpp:399] pool2/3x3_s2_pool2/3x3_s2_0_split -> pool2/3x3_s2_pool2/3x3_s2_0_split_1
I0403 15:40:17.653278 12210 net.cpp:399] pool2/3x3_s2_pool2/3x3_s2_0_split -> pool2/3x3_s2_pool2/3x3_s2_0_split_2
I0403 15:40:17.653298 12210 net.cpp:399] pool2/3x3_s2_pool2/3x3_s2_0_split -> pool2/3x3_s2_pool2/3x3_s2_0_split_3
I0403 15:40:17.653385 12210 net.cpp:141] Setting up pool2/3x3_s2_pool2/3x3_s2_0_split
I0403 15:40:17.653410 12210 net.cpp:148] Top shape: 24 192 28 28 (3612672)
I0403 15:40:17.653429 12210 net.cpp:148] Top shape: 24 192 28 28 (3612672)
I0403 15:40:17.653444 12210 net.cpp:148] Top shape: 24 192 28 28 (3612672)
I0403 15:40:17.653460 12210 net.cpp:148] Top shape: 24 192 28 28 (3612672)
I0403 15:40:17.653475 12210 net.cpp:156] Memory required for data: 491324448
I0403 15:40:17.653489 12210 layer_factory.hpp:77] Creating layer inception_3a/1x1
I0403 15:40:17.653512 12210 net.cpp:91] Creating Layer inception_3a/1x1
I0403 15:40:17.653530 12210 net.cpp:425] inception_3a/1x1 <- pool2/3x3_s2_pool2/3x3_s2_0_split_0
I0403 15:40:17.653553 12210 net.cpp:399] inception_3a/1x1 -> inception_3a/1x1
I0403 15:40:17.655167 12210 net.cpp:141] Setting up inception_3a/1x1
I0403 15:40:17.655202 12210 net.cpp:148] Top shape: 24 64 28 28 (1204224)
I0403 15:40:17.655220 12210 net.cpp:156] Memory required for data: 496141344
I0403 15:40:17.655239 12210 layer_factory.hpp:77] Creating layer inception_3a/relu_1x1
I0403 15:40:17.655261 12210 net.cpp:91] Creating Layer inception_3a/relu_1x1
I0403 15:40:17.655277 12210 net.cpp:425] inception_3a/relu_1x1 <- inception_3a/1x1
I0403 15:40:17.655297 12210 net.cpp:386] inception_3a/relu_1x1 -> inception_3a/1x1 (in-place)
I0403 15:40:17.655486 12210 net.cpp:141] Setting up inception_3a/relu_1x1
I0403 15:40:17.655514 12210 net.cpp:148] Top shape: 24 64 28 28 (1204224)
I0403 15:40:17.655529 12210 net.cpp:156] Memory required for data: 500958240
I0403 15:40:17.655545 12210 layer_factory.hpp:77] Creating layer inception_3a/3x3_reduce
I0403 15:40:17.655568 12210 net.cpp:91] Creating Layer inception_3a/3x3_reduce
I0403 15:40:17.655586 12210 net.cpp:425] inception_3a/3x3_reduce <- pool2/3x3_s2_pool2/3x3_s2_0_split_1
I0403 15:40:17.655608 12210 net.cpp:399] inception_3a/3x3_reduce -> inception_3a/3x3_reduce
I0403 15:40:17.657379 12210 net.cpp:141] Setting up inception_3a/3x3_reduce
I0403 15:40:17.657413 12210 net.cpp:148] Top shape: 24 96 28 28 (1806336)
I0403 15:40:17.657430 12210 net.cpp:156] Memory required for data: 508183584
I0403 15:40:17.657452 12210 layer_factory.hpp:77] Creating layer inception_3a/relu_3x3_reduce
I0403 15:40:17.657490 12210 net.cpp:91] Creating Layer inception_3a/relu_3x3_reduce
I0403 15:40:17.657507 12210 net.cpp:425] inception_3a/relu_3x3_reduce <- inception_3a/3x3_reduce
I0403 15:40:17.657527 12210 net.cpp:386] inception_3a/relu_3x3_reduce -> inception_3a/3x3_reduce (in-place)
I0403 15:40:17.657723 12210 net.cpp:141] Setting up inception_3a/relu_3x3_reduce
I0403 15:40:17.657752 12210 net.cpp:148] Top shape: 24 96 28 28 (1806336)
I0403 15:40:17.657768 12210 net.cpp:156] Memory required for data: 515408928
I0403 15:40:17.657784 12210 layer_factory.hpp:77] Creating layer inception_3a/3x3
I0403 15:40:17.657805 12210 net.cpp:91] Creating Layer inception_3a/3x3
I0403 15:40:17.657824 12210 net.cpp:425] inception_3a/3x3 <- inception_3a/3x3_reduce
I0403 15:40:17.657845 12210 net.cpp:399] inception_3a/3x3 -> inception_3a/3x3
I0403 15:40:17.659590 12210 net.cpp:141] Setting up inception_3a/3x3
I0403 15:40:17.659621 12210 net.cpp:148] Top shape: 24 128 28 28 (2408448)
I0403 15:40:17.659638 12210 net.cpp:156] Memory required for data: 525042720
I0403 15:40:17.659657 12210 layer_factory.hpp:77] Creating layer inception_3a/relu_3x3
I0403 15:40:17.659677 12210 net.cpp:91] Creating Layer inception_3a/relu_3x3
I0403 15:40:17.659693 12210 net.cpp:425] inception_3a/relu_3x3 <- inception_3a/3x3
I0403 15:40:17.659713 12210 net.cpp:386] inception_3a/relu_3x3 -> inception_3a/3x3 (in-place)
I0403 15:40:17.659998 12210 net.cpp:141] Setting up inception_3a/relu_3x3
I0403 15:40:17.660028 12210 net.cpp:148] Top shape: 24 128 28 28 (2408448)
I0403 15:40:17.660045 12210 net.cpp:156] Memory required for data: 534676512
I0403 15:40:17.660061 12210 layer_factory.hpp:77] Creating layer inception_3a/5x5_reduce
I0403 15:40:17.660084 12210 net.cpp:91] Creating Layer inception_3a/5x5_reduce
I0403 15:40:17.660102 12210 net.cpp:425] inception_3a/5x5_reduce <- pool2/3x3_s2_pool2/3x3_s2_0_split_2
I0403 15:40:17.660125 12210 net.cpp:399] inception_3a/5x5_reduce -> inception_3a/5x5_reduce
I0403 15:40:17.661134 12210 net.cpp:141] Setting up inception_3a/5x5_reduce
I0403 15:40:17.661164 12210 net.cpp:148] Top shape: 24 16 28 28 (301056)
I0403 15:40:17.661180 12210 net.cpp:156] Memory required for data: 535880736
I0403 15:40:17.661197 12210 layer_factory.hpp:77] Creating layer inception_3a/relu_5x5_reduce
I0403 15:40:17.661219 12210 net.cpp:91] Creating Layer inception_3a/relu_5x5_reduce
I0403 15:40:17.661237 12210 net.cpp:425] inception_3a/relu_5x5_reduce <- inception_3a/5x5_reduce
I0403 15:40:17.661254 12210 net.cpp:386] inception_3a/relu_5x5_reduce -> inception_3a/5x5_reduce (in-place)
I0403 15:40:17.661568 12210 net.cpp:141] Setting up inception_3a/relu_5x5_reduce
I0403 15:40:17.661597 12210 net.cpp:148] Top shape: 24 16 28 28 (301056)
I0403 15:40:17.661619 12210 net.cpp:156] Memory required for data: 537084960
I0403 15:40:17.661634 12210 layer_factory.hpp:77] Creating layer inception_3a/5x5
I0403 15:40:17.661659 12210 net.cpp:91] Creating Layer inception_3a/5x5
I0403 15:40:17.661676 12210 net.cpp:425] inception_3a/5x5 <- inception_3a/5x5_reduce
I0403 15:40:17.661697 12210 net.cpp:399] inception_3a/5x5 -> inception_3a/5x5
I0403 15:40:17.662766 12210 net.cpp:141] Setting up inception_3a/5x5
I0403 15:40:17.662798 12210 net.cpp:148] Top shape: 24 32 28 28 (602112)
I0403 15:40:17.662816 12210 net.cpp:156] Memory required for data: 539493408
I0403 15:40:17.662834 12210 layer_factory.hpp:77] Creating layer inception_3a/relu_5x5
I0403 15:40:17.662853 12210 net.cpp:91] Creating Layer inception_3a/relu_5x5
I0403 15:40:17.662869 12210 net.cpp:425] inception_3a/relu_5x5 <- inception_3a/5x5
I0403 15:40:17.662889 12210 net.cpp:386] inception_3a/relu_5x5 -> inception_3a/5x5 (in-place)
I0403 15:40:17.663072 12210 net.cpp:141] Setting up inception_3a/relu_5x5
I0403 15:40:17.663099 12210 net.cpp:148] Top shape: 24 32 28 28 (602112)
I0403 15:40:17.663115 12210 net.cpp:156] Memory required for data: 541901856
I0403 15:40:17.663130 12210 layer_factory.hpp:77] Creating layer inception_3a/pool
I0403 15:40:17.663147 12210 net.cpp:91] Creating Layer inception_3a/pool
I0403 15:40:17.663179 12210 net.cpp:425] inception_3a/pool <- pool2/3x3_s2_pool2/3x3_s2_0_split_3
I0403 15:40:17.663202 12210 net.cpp:399] inception_3a/pool -> inception_3a/pool
I0403 15:40:17.663261 12210 net.cpp:141] Setting up inception_3a/pool
I0403 15:40:17.663285 12210 net.cpp:148] Top shape: 24 192 28 28 (3612672)
I0403 15:40:17.663301 12210 net.cpp:156] Memory required for data: 556352544
I0403 15:40:17.663316 12210 layer_factory.hpp:77] Creating layer inception_3a/pool_proj
I0403 15:40:17.663341 12210 net.cpp:91] Creating Layer inception_3a/pool_proj
I0403 15:40:17.663372 12210 net.cpp:425] inception_3a/pool_proj <- inception_3a/pool
I0403 15:40:17.663393 12210 net.cpp:399] inception_3a/pool_proj -> inception_3a/pool_proj
I0403 15:40:17.664407 12210 net.cpp:141] Setting up inception_3a/pool_proj
I0403 15:40:17.664435 12210 net.cpp:148] Top shape: 24 32 28 28 (602112)
I0403 15:40:17.664453 12210 net.cpp:156] Memory required for data: 558760992
I0403 15:40:17.664477 12210 layer_factory.hpp:77] Creating layer inception_3a/relu_pool_proj
I0403 15:40:17.664500 12210 net.cpp:91] Creating Layer inception_3a/relu_pool_proj
I0403 15:40:17.664518 12210 net.cpp:425] inception_3a/relu_pool_proj <- inception_3a/pool_proj
I0403 15:40:17.664536 12210 net.cpp:386] inception_3a/relu_pool_proj -> inception_3a/pool_proj (in-place)
I0403 15:40:17.664824 12210 net.cpp:141] Setting up inception_3a/relu_pool_proj
I0403 15:40:17.664855 12210 net.cpp:148] Top shape: 24 32 28 28 (602112)
I0403 15:40:17.664871 12210 net.cpp:156] Memory required for data: 561169440
I0403 15:40:17.664886 12210 layer_factory.hpp:77] Creating layer inception_3a/output
I0403 15:40:17.664906 12210 net.cpp:91] Creating Layer inception_3a/output
I0403 15:40:17.664921 12210 net.cpp:425] inception_3a/output <- inception_3a/1x1
I0403 15:40:17.664939 12210 net.cpp:425] inception_3a/output <- inception_3a/3x3
I0403 15:40:17.664955 12210 net.cpp:425] inception_3a/output <- inception_3a/5x5
I0403 15:40:17.664970 12210 net.cpp:425] inception_3a/output <- inception_3a/pool_proj
I0403 15:40:17.664990 12210 net.cpp:399] inception_3a/output -> inception_3a/output
I0403 15:40:17.665040 12210 net.cpp:141] Setting up inception_3a/output
I0403 15:40:17.665063 12210 net.cpp:148] Top shape: 24 256 28 28 (4816896)
I0403 15:40:17.665078 12210 net.cpp:156] Memory required for data: 580437024
I0403 15:40:17.665093 12210 layer_factory.hpp:77] Creating layer inception_3a/output_inception_3a/output_0_split
I0403 15:40:17.665114 12210 net.cpp:91] Creating Layer inception_3a/output_inception_3a/output_0_split
I0403 15:40:17.665130 12210 net.cpp:425] inception_3a/output_inception_3a/output_0_split <- inception_3a/output
I0403 15:40:17.665148 12210 net.cpp:399] inception_3a/output_inception_3a/output_0_split -> inception_3a/output_inception_3a/output_0_split_0
I0403 15:40:17.665169 12210 net.cpp:399] inception_3a/output_inception_3a/output_0_split -> inception_3a/output_inception_3a/output_0_split_1
I0403 15:40:17.665195 12210 net.cpp:399] inception_3a/output_inception_3a/output_0_split -> inception_3a/output_inception_3a/output_0_split_2
I0403 15:40:17.665217 12210 net.cpp:399] inception_3a/output_inception_3a/output_0_split -> inception_3a/output_inception_3a/output_0_split_3
I0403 15:40:17.665293 12210 net.cpp:141] Setting up inception_3a/output_inception_3a/output_0_split
I0403 15:40:17.665320 12210 net.cpp:148] Top shape: 24 256 28 28 (4816896)
I0403 15:40:17.665338 12210 net.cpp:148] Top shape: 24 256 28 28 (4816896)
I0403 15:40:17.665361 12210 net.cpp:148] Top shape: 24 256 28 28 (4816896)
I0403 15:40:17.665379 12210 net.cpp:148] Top shape: 24 256 28 28 (4816896)
I0403 15:40:17.665392 12210 net.cpp:156] Memory required for data: 657507360
I0403 15:40:17.665406 12210 layer_factory.hpp:77] Creating layer inception_3b/1x1
I0403 15:40:17.665431 12210 net.cpp:91] Creating Layer inception_3b/1x1
I0403 15:40:17.665448 12210 net.cpp:425] inception_3b/1x1 <- inception_3a/output_inception_3a/output_0_split_0
I0403 15:40:17.665468 12210 net.cpp:399] inception_3b/1x1 -> inception_3b/1x1
I0403 15:40:17.666664 12210 net.cpp:141] Setting up inception_3b/1x1
I0403 15:40:17.666708 12210 net.cpp:148] Top shape: 24 128 28 28 (2408448)
I0403 15:40:17.666726 12210 net.cpp:156] Memory required for data: 667141152
I0403 15:40:17.666745 12210 layer_factory.hpp:77] Creating layer inception_3b/relu_1x1
I0403 15:40:17.666764 12210 net.cpp:91] Creating Layer inception_3b/relu_1x1
I0403 15:40:17.666780 12210 net.cpp:425] inception_3b/relu_1x1 <- inception_3b/1x1
I0403 15:40:17.666798 12210 net.cpp:386] inception_3b/relu_1x1 -> inception_3b/1x1 (in-place)
I0403 15:40:17.666982 12210 net.cpp:141] Setting up inception_3b/relu_1x1
I0403 15:40:17.667008 12210 net.cpp:148] Top shape: 24 128 28 28 (2408448)
I0403 15:40:17.667023 12210 net.cpp:156] Memory required for data: 676774944
I0403 15:40:17.667038 12210 layer_factory.hpp:77] Creating layer inception_3b/3x3_reduce
I0403 15:40:17.667062 12210 net.cpp:91] Creating Layer inception_3b/3x3_reduce
I0403 15:40:17.667080 12210 net.cpp:425] inception_3b/3x3_reduce <- inception_3a/output_inception_3a/output_0_split_1
I0403 15:40:17.667103 12210 net.cpp:399] inception_3b/3x3_reduce -> inception_3b/3x3_reduce
I0403 15:40:17.668292 12210 net.cpp:141] Setting up inception_3b/3x3_reduce
I0403 15:40:17.668321 12210 net.cpp:148] Top shape: 24 128 28 28 (2408448)
I0403 15:40:17.668337 12210 net.cpp:156] Memory required for data: 686408736
I0403 15:40:17.668361 12210 layer_factory.hpp:77] Creating layer inception_3b/relu_3x3_reduce
I0403 15:40:17.668383 12210 net.cpp:91] Creating Layer inception_3b/relu_3x3_reduce
I0403 15:40:17.668401 12210 net.cpp:425] inception_3b/relu_3x3_reduce <- inception_3b/3x3_reduce
I0403 15:40:17.668418 12210 net.cpp:386] inception_3b/relu_3x3_reduce -> inception_3b/3x3_reduce (in-place)
I0403 15:40:17.668609 12210 net.cpp:141] Setting up inception_3b/relu_3x3_reduce
I0403 15:40:17.668635 12210 net.cpp:148] Top shape: 24 128 28 28 (2408448)
I0403 15:40:17.668650 12210 net.cpp:156] Memory required for data: 696042528
I0403 15:40:17.668665 12210 layer_factory.hpp:77] Creating layer inception_3b/3x3
I0403 15:40:17.668691 12210 net.cpp:91] Creating Layer inception_3b/3x3
I0403 15:40:17.668712 12210 net.cpp:425] inception_3b/3x3 <- inception_3b/3x3_reduce
I0403 15:40:17.668732 12210 net.cpp:399] inception_3b/3x3 -> inception_3b/3x3
I0403 15:40:17.671813 12210 net.cpp:141] Setting up inception_3b/3x3
I0403 15:40:17.671846 12210 net.cpp:148] Top shape: 24 192 28 28 (3612672)
I0403 15:40:17.671864 12210 net.cpp:156] Memory required for data: 710493216
I0403 15:40:17.671882 12210 layer_factory.hpp:77] Creating layer inception_3b/relu_3x3
I0403 15:40:17.671911 12210 net.cpp:91] Creating Layer inception_3b/relu_3x3
I0403 15:40:17.671927 12210 net.cpp:425] inception_3b/relu_3x3 <- inception_3b/3x3
I0403 15:40:17.671947 12210 net.cpp:386] inception_3b/relu_3x3 -> inception_3b/3x3 (in-place)
I0403 15:40:17.672238 12210 net.cpp:141] Setting up inception_3b/relu_3x3
I0403 15:40:17.672268 12210 net.cpp:148] Top shape: 24 192 28 28 (3612672)
I0403 15:40:17.672286 12210 net.cpp:156] Memory required for data: 724943904
I0403 15:40:17.672300 12210 layer_factory.hpp:77] Creating layer inception_3b/5x5_reduce
I0403 15:40:17.672325 12210 net.cpp:91] Creating Layer inception_3b/5x5_reduce
I0403 15:40:17.672343 12210 net.cpp:425] inception_3b/5x5_reduce <- inception_3a/output_inception_3a/output_0_split_2
I0403 15:40:17.672372 12210 net.cpp:399] inception_3b/5x5_reduce -> inception_3b/5x5_reduce
I0403 15:40:17.673437 12210 net.cpp:141] Setting up inception_3b/5x5_reduce
I0403 15:40:17.673470 12210 net.cpp:148] Top shape: 24 32 28 28 (602112)
I0403 15:40:17.673486 12210 net.cpp:156] Memory required for data: 727352352
I0403 15:40:17.673506 12210 layer_factory.hpp:77] Creating layer inception_3b/relu_5x5_reduce
I0403 15:40:17.673523 12210 net.cpp:91] Creating Layer inception_3b/relu_5x5_reduce
I0403 15:40:17.673539 12210 net.cpp:425] inception_3b/relu_5x5_reduce <- inception_3b/5x5_reduce
I0403 15:40:17.673563 12210 net.cpp:386] inception_3b/relu_5x5_reduce -> inception_3b/5x5_reduce (in-place)
I0403 15:40:17.673763 12210 net.cpp:141] Setting up inception_3b/relu_5x5_reduce
I0403 15:40:17.673790 12210 net.cpp:148] Top shape: 24 32 28 28 (602112)
I0403 15:40:17.673805 12210 net.cpp:156] Memory required for data: 729760800
I0403 15:40:17.673821 12210 layer_factory.hpp:77] Creating layer inception_3b/5x5
I0403 15:40:17.673845 12210 net.cpp:91] Creating Layer inception_3b/5x5
I0403 15:40:17.673862 12210 net.cpp:425] inception_3b/5x5 <- inception_3b/5x5_reduce
I0403 15:40:17.673883 12210 net.cpp:399] inception_3b/5x5 -> inception_3b/5x5
I0403 15:40:17.675957 12210 net.cpp:141] Setting up inception_3b/5x5
I0403 15:40:17.675988 12210 net.cpp:148] Top shape: 24 96 28 28 (1806336)
I0403 15:40:17.676004 12210 net.cpp:156] Memory required for data: 736986144
I0403 15:40:17.676023 12210 layer_factory.hpp:77] Creating layer inception_3b/relu_5x5
I0403 15:40:17.676044 12210 net.cpp:91] Creating Layer inception_3b/relu_5x5
I0403 15:40:17.676062 12210 net.cpp:425] inception_3b/relu_5x5 <- inception_3b/5x5
I0403 15:40:17.676079 12210 net.cpp:386] inception_3b/relu_5x5 -> inception_3b/5x5 (in-place)
I0403 15:40:17.676286 12210 net.cpp:141] Setting up inception_3b/relu_5x5
I0403 15:40:17.676313 12210 net.cpp:148] Top shape: 24 96 28 28 (1806336)
I0403 15:40:17.676328 12210 net.cpp:156] Memory required for data: 744211488
I0403 15:40:17.676343 12210 layer_factory.hpp:77] Creating layer inception_3b/pool
I0403 15:40:17.676367 12210 net.cpp:91] Creating Layer inception_3b/pool
I0403 15:40:17.676384 12210 net.cpp:425] inception_3b/pool <- inception_3a/output_inception_3a/output_0_split_3
I0403 15:40:17.676403 12210 net.cpp:399] inception_3b/pool -> inception_3b/pool
I0403 15:40:17.676461 12210 net.cpp:141] Setting up inception_3b/pool
I0403 15:40:17.676486 12210 net.cpp:148] Top shape: 24 256 28 28 (4816896)
I0403 15:40:17.676501 12210 net.cpp:156] Memory required for data: 763479072
I0403 15:40:17.676515 12210 layer_factory.hpp:77] Creating layer inception_3b/pool_proj
I0403 15:40:17.676539 12210 net.cpp:91] Creating Layer inception_3b/pool_proj
I0403 15:40:17.676558 12210 net.cpp:425] inception_3b/pool_proj <- inception_3b/pool
I0403 15:40:17.676578 12210 net.cpp:399] inception_3b/pool_proj -> inception_3b/pool_proj
I0403 15:40:17.677711 12210 net.cpp:141] Setting up inception_3b/pool_proj
I0403 15:40:17.677741 12210 net.cpp:148] Top shape: 24 64 28 28 (1204224)
I0403 15:40:17.677757 12210 net.cpp:156] Memory required for data: 768295968
I0403 15:40:17.677783 12210 layer_factory.hpp:77] Creating layer inception_3b/relu_pool_proj
I0403 15:40:17.677804 12210 net.cpp:91] Creating Layer inception_3b/relu_pool_proj
I0403 15:40:17.677822 12210 net.cpp:425] inception_3b/relu_pool_proj <- inception_3b/pool_proj
I0403 15:40:17.677840 12210 net.cpp:386] inception_3b/relu_pool_proj -> inception_3b/pool_proj (in-place)
I0403 15:40:17.678272 12210 net.cpp:141] Setting up inception_3b/relu_pool_proj
I0403 15:40:17.678299 12210 net.cpp:148] Top shape: 24 64 28 28 (1204224)
I0403 15:40:17.678315 12210 net.cpp:156] Memory required for data: 773112864
I0403 15:40:17.678330 12210 layer_factory.hpp:77] Creating layer inception_3b/output
I0403 15:40:17.678352 12210 net.cpp:91] Creating Layer inception_3b/output
I0403 15:40:17.678370 12210 net.cpp:425] inception_3b/output <- inception_3b/1x1
I0403 15:40:17.678388 12210 net.cpp:425] inception_3b/output <- inception_3b/3x3
I0403 15:40:17.678406 12210 net.cpp:425] inception_3b/output <- inception_3b/5x5
I0403 15:40:17.678421 12210 net.cpp:425] inception_3b/output <- inception_3b/pool_proj
I0403 15:40:17.678442 12210 net.cpp:399] inception_3b/output -> inception_3b/output
I0403 15:40:17.678486 12210 net.cpp:141] Setting up inception_3b/output
I0403 15:40:17.678514 12210 net.cpp:148] Top shape: 24 480 28 28 (9031680)
I0403 15:40:17.678529 12210 net.cpp:156] Memory required for data: 809239584
I0403 15:40:17.678545 12210 layer_factory.hpp:77] Creating layer pool3/3x3_s2
I0403 15:40:17.678563 12210 net.cpp:91] Creating Layer pool3/3x3_s2
I0403 15:40:17.678580 12210 net.cpp:425] pool3/3x3_s2 <- inception_3b/output
I0403 15:40:17.678618 12210 net.cpp:399] pool3/3x3_s2 -> pool3/3x3_s2
I0403 15:40:17.678686 12210 net.cpp:141] Setting up pool3/3x3_s2
I0403 15:40:17.678711 12210 net.cpp:148] Top shape: 24 480 14 14 (2257920)
I0403 15:40:17.678726 12210 net.cpp:156] Memory required for data: 818271264
I0403 15:40:17.678741 12210 layer_factory.hpp:77] Creating layer pool3/3x3_s2_pool3/3x3_s2_0_split
I0403 15:40:17.678762 12210 net.cpp:91] Creating Layer pool3/3x3_s2_pool3/3x3_s2_0_split
I0403 15:40:17.678777 12210 net.cpp:425] pool3/3x3_s2_pool3/3x3_s2_0_split <- pool3/3x3_s2
I0403 15:40:17.678796 12210 net.cpp:399] pool3/3x3_s2_pool3/3x3_s2_0_split -> pool3/3x3_s2_pool3/3x3_s2_0_split_0
I0403 15:40:17.678815 12210 net.cpp:399] pool3/3x3_s2_pool3/3x3_s2_0_split -> pool3/3x3_s2_pool3/3x3_s2_0_split_1
I0403 15:40:17.678835 12210 net.cpp:399] pool3/3x3_s2_pool3/3x3_s2_0_split -> pool3/3x3_s2_pool3/3x3_s2_0_split_2
I0403 15:40:17.678858 12210 net.cpp:399] pool3/3x3_s2_pool3/3x3_s2_0_split -> pool3/3x3_s2_pool3/3x3_s2_0_split_3
I0403 15:40:17.678947 12210 net.cpp:141] Setting up pool3/3x3_s2_pool3/3x3_s2_0_split
I0403 15:40:17.678982 12210 net.cpp:148] Top shape: 24 480 14 14 (2257920)
I0403 15:40:17.678998 12210 net.cpp:148] Top shape: 24 480 14 14 (2257920)
I0403 15:40:17.679014 12210 net.cpp:148] Top shape: 24 480 14 14 (2257920)
I0403 15:40:17.679030 12210 net.cpp:148] Top shape: 24 480 14 14 (2257920)
I0403 15:40:17.679044 12210 net.cpp:156] Memory required for data: 854397984
I0403 15:40:17.679059 12210 layer_factory.hpp:77] Creating layer inception_4a/1x1
I0403 15:40:17.679086 12210 net.cpp:91] Creating Layer inception_4a/1x1
I0403 15:40:17.679105 12210 net.cpp:425] inception_4a/1x1 <- pool3/3x3_s2_pool3/3x3_s2_0_split_0
I0403 15:40:17.679126 12210 net.cpp:399] inception_4a/1x1 -> inception_4a/1x1
I0403 15:40:17.680778 12210 net.cpp:141] Setting up inception_4a/1x1
I0403 15:40:17.680807 12210 net.cpp:148] Top shape: 24 192 14 14 (903168)
I0403 15:40:17.680824 12210 net.cpp:156] Memory required for data: 858010656
I0403 15:40:17.680841 12210 layer_factory.hpp:77] Creating layer inception_4a/relu_1x1
I0403 15:40:17.680865 12210 net.cpp:91] Creating Layer inception_4a/relu_1x1
I0403 15:40:17.680882 12210 net.cpp:425] inception_4a/relu_1x1 <- inception_4a/1x1
I0403 15:40:17.680901 12210 net.cpp:386] inception_4a/relu_1x1 -> inception_4a/1x1 (in-place)
I0403 15:40:17.681088 12210 net.cpp:141] Setting up inception_4a/relu_1x1
I0403 15:40:17.681119 12210 net.cpp:148] Top shape: 24 192 14 14 (903168)
I0403 15:40:17.681135 12210 net.cpp:156] Memory required for data: 861623328
I0403 15:40:17.681150 12210 layer_factory.hpp:77] Creating layer inception_4a/3x3_reduce
I0403 15:40:17.681174 12210 net.cpp:91] Creating Layer inception_4a/3x3_reduce
I0403 15:40:17.681191 12210 net.cpp:425] inception_4a/3x3_reduce <- pool3/3x3_s2_pool3/3x3_s2_0_split_1
I0403 15:40:17.681211 12210 net.cpp:399] inception_4a/3x3_reduce -> inception_4a/3x3_reduce
I0403 15:40:17.682560 12210 net.cpp:141] Setting up inception_4a/3x3_reduce
I0403 15:40:17.682590 12210 net.cpp:148] Top shape: 24 96 14 14 (451584)
I0403 15:40:17.682606 12210 net.cpp:156] Memory required for data: 863429664
I0403 15:40:17.682632 12210 layer_factory.hpp:77] Creating layer inception_4a/relu_3x3_reduce
I0403 15:40:17.682652 12210 net.cpp:91] Creating Layer inception_4a/relu_3x3_reduce
I0403 15:40:17.682669 12210 net.cpp:425] inception_4a/relu_3x3_reduce <- inception_4a/3x3_reduce
I0403 15:40:17.682694 12210 net.cpp:386] inception_4a/relu_3x3_reduce -> inception_4a/3x3_reduce (in-place)
I0403 15:40:17.682878 12210 net.cpp:141] Setting up inception_4a/relu_3x3_reduce
I0403 15:40:17.682907 12210 net.cpp:148] Top shape: 24 96 14 14 (451584)
I0403 15:40:17.682924 12210 net.cpp:156] Memory required for data: 865236000
I0403 15:40:17.682940 12210 layer_factory.hpp:77] Creating layer inception_4a/3x3
I0403 15:40:17.682960 12210 net.cpp:91] Creating Layer inception_4a/3x3
I0403 15:40:17.682986 12210 net.cpp:425] inception_4a/3x3 <- inception_4a/3x3_reduce
I0403 15:40:17.683008 12210 net.cpp:399] inception_4a/3x3 -> inception_4a/3x3
I0403 15:40:17.685837 12210 net.cpp:141] Setting up inception_4a/3x3
I0403 15:40:17.685869 12210 net.cpp:148] Top shape: 24 208 14 14 (978432)
I0403 15:40:17.685886 12210 net.cpp:156] Memory required for data: 869149728
I0403 15:40:17.685905 12210 layer_factory.hpp:77] Creating layer inception_4a/relu_3x3
I0403 15:40:17.685923 12210 net.cpp:91] Creating Layer inception_4a/relu_3x3
I0403 15:40:17.685940 12210 net.cpp:425] inception_4a/relu_3x3 <- inception_4a/3x3
I0403 15:40:17.685969 12210 net.cpp:386] inception_4a/relu_3x3 -> inception_4a/3x3 (in-place)
I0403 15:40:17.686262 12210 net.cpp:141] Setting up inception_4a/relu_3x3
I0403 15:40:17.686291 12210 net.cpp:148] Top shape: 24 208 14 14 (978432)
I0403 15:40:17.686308 12210 net.cpp:156] Memory required for data: 873063456
I0403 15:40:17.686324 12210 layer_factory.hpp:77] Creating layer inception_4a/5x5_reduce
I0403 15:40:17.686354 12210 net.cpp:91] Creating Layer inception_4a/5x5_reduce
I0403 15:40:17.686373 12210 net.cpp:425] inception_4a/5x5_reduce <- pool3/3x3_s2_pool3/3x3_s2_0_split_2
I0403 15:40:17.686393 12210 net.cpp:399] inception_4a/5x5_reduce -> inception_4a/5x5_reduce
I0403 15:40:17.687520 12210 net.cpp:141] Setting up inception_4a/5x5_reduce
I0403 15:40:17.687552 12210 net.cpp:148] Top shape: 24 16 14 14 (75264)
I0403 15:40:17.687569 12210 net.cpp:156] Memory required for data: 873364512
I0403 15:40:17.687600 12210 layer_factory.hpp:77] Creating layer inception_4a/relu_5x5_reduce
I0403 15:40:17.687618 12210 net.cpp:91] Creating Layer inception_4a/relu_5x5_reduce
I0403 15:40:17.687634 12210 net.cpp:425] inception_4a/relu_5x5_reduce <- inception_4a/5x5_reduce
I0403 15:40:17.687654 12210 net.cpp:386] inception_4a/relu_5x5_reduce -> inception_4a/5x5_reduce (in-place)
I0403 15:40:17.687834 12210 net.cpp:141] Setting up inception_4a/relu_5x5_reduce
I0403 15:40:17.687860 12210 net.cpp:148] Top shape: 24 16 14 14 (75264)
I0403 15:40:17.687875 12210 net.cpp:156] Memory required for data: 873665568
I0403 15:40:17.687891 12210 layer_factory.hpp:77] Creating layer inception_4a/5x5
I0403 15:40:17.687913 12210 net.cpp:91] Creating Layer inception_4a/5x5
I0403 15:40:17.687932 12210 net.cpp:425] inception_4a/5x5 <- inception_4a/5x5_reduce
I0403 15:40:17.687954 12210 net.cpp:399] inception_4a/5x5 -> inception_4a/5x5
I0403 15:40:17.689100 12210 net.cpp:141] Setting up inception_4a/5x5
I0403 15:40:17.689127 12210 net.cpp:148] Top shape: 24 48 14 14 (225792)
I0403 15:40:17.689143 12210 net.cpp:156] Memory required for data: 874568736
I0403 15:40:17.689162 12210 layer_factory.hpp:77] Creating layer inception_4a/relu_5x5
I0403 15:40:17.689182 12210 net.cpp:91] Creating Layer inception_4a/relu_5x5
I0403 15:40:17.689198 12210 net.cpp:425] inception_4a/relu_5x5 <- inception_4a/5x5
I0403 15:40:17.689214 12210 net.cpp:386] inception_4a/relu_5x5 -> inception_4a/5x5 (in-place)
I0403 15:40:17.689417 12210 net.cpp:141] Setting up inception_4a/relu_5x5
I0403 15:40:17.689443 12210 net.cpp:148] Top shape: 24 48 14 14 (225792)
I0403 15:40:17.689458 12210 net.cpp:156] Memory required for data: 875471904
I0403 15:40:17.689474 12210 layer_factory.hpp:77] Creating layer inception_4a/pool
I0403 15:40:17.689496 12210 net.cpp:91] Creating Layer inception_4a/pool
I0403 15:40:17.689512 12210 net.cpp:425] inception_4a/pool <- pool3/3x3_s2_pool3/3x3_s2_0_split_3
I0403 15:40:17.689530 12210 net.cpp:399] inception_4a/pool -> inception_4a/pool
I0403 15:40:17.689607 12210 net.cpp:141] Setting up inception_4a/pool
I0403 15:40:17.689630 12210 net.cpp:148] Top shape: 24 480 14 14 (2257920)
I0403 15:40:17.689646 12210 net.cpp:156] Memory required for data: 884503584
I0403 15:40:17.689661 12210 layer_factory.hpp:77] Creating layer inception_4a/pool_proj
I0403 15:40:17.689687 12210 net.cpp:91] Creating Layer inception_4a/pool_proj
I0403 15:40:17.689705 12210 net.cpp:425] inception_4a/pool_proj <- inception_4a/pool
I0403 15:40:17.689726 12210 net.cpp:399] inception_4a/pool_proj -> inception_4a/pool_proj
I0403 15:40:17.690975 12210 net.cpp:141] Setting up inception_4a/pool_proj
I0403 15:40:17.691004 12210 net.cpp:148] Top shape: 24 64 14 14 (301056)
I0403 15:40:17.691036 12210 net.cpp:156] Memory required for data: 885707808
I0403 15:40:17.691056 12210 layer_factory.hpp:77] Creating layer inception_4a/relu_pool_proj
I0403 15:40:17.691077 12210 net.cpp:91] Creating Layer inception_4a/relu_pool_proj
I0403 15:40:17.691094 12210 net.cpp:425] inception_4a/relu_pool_proj <- inception_4a/pool_proj
I0403 15:40:17.691112 12210 net.cpp:386] inception_4a/relu_pool_proj -> inception_4a/pool_proj (in-place)
I0403 15:40:17.691416 12210 net.cpp:141] Setting up inception_4a/relu_pool_proj
I0403 15:40:17.691444 12210 net.cpp:148] Top shape: 24 64 14 14 (301056)
I0403 15:40:17.691459 12210 net.cpp:156] Memory required for data: 886912032
I0403 15:40:17.691474 12210 layer_factory.hpp:77] Creating layer inception_4a/output
I0403 15:40:17.691495 12210 net.cpp:91] Creating Layer inception_4a/output
I0403 15:40:17.691512 12210 net.cpp:425] inception_4a/output <- inception_4a/1x1
I0403 15:40:17.691529 12210 net.cpp:425] inception_4a/output <- inception_4a/3x3
I0403 15:40:17.691546 12210 net.cpp:425] inception_4a/output <- inception_4a/5x5
I0403 15:40:17.691562 12210 net.cpp:425] inception_4a/output <- inception_4a/pool_proj
I0403 15:40:17.691581 12210 net.cpp:399] inception_4a/output -> inception_4a/output
I0403 15:40:17.691638 12210 net.cpp:141] Setting up inception_4a/output
I0403 15:40:17.691663 12210 net.cpp:148] Top shape: 24 512 14 14 (2408448)
I0403 15:40:17.691686 12210 net.cpp:156] Memory required for data: 896545824
I0403 15:40:17.691701 12210 layer_factory.hpp:77] Creating layer inception_4a/output_inception_4a/output_0_split
I0403 15:40:17.691720 12210 net.cpp:91] Creating Layer inception_4a/output_inception_4a/output_0_split
I0403 15:40:17.691733 12210 net.cpp:425] inception_4a/output_inception_4a/output_0_split <- inception_4a/output
I0403 15:40:17.691756 12210 net.cpp:399] inception_4a/output_inception_4a/output_0_split -> inception_4a/output_inception_4a/output_0_split_0
I0403 15:40:17.691777 12210 net.cpp:399] inception_4a/output_inception_4a/output_0_split -> inception_4a/output_inception_4a/output_0_split_1
I0403 15:40:17.691798 12210 net.cpp:399] inception_4a/output_inception_4a/output_0_split -> inception_4a/output_inception_4a/output_0_split_2
I0403 15:40:17.691819 12210 net.cpp:399] inception_4a/output_inception_4a/output_0_split -> inception_4a/output_inception_4a/output_0_split_3
I0403 15:40:17.691838 12210 net.cpp:399] inception_4a/output_inception_4a/output_0_split -> inception_4a/output_inception_4a/output_0_split_4
I0403 15:40:17.691931 12210 net.cpp:141] Setting up inception_4a/output_inception_4a/output_0_split
I0403 15:40:17.691954 12210 net.cpp:148] Top shape: 24 512 14 14 (2408448)
I0403 15:40:17.691980 12210 net.cpp:148] Top shape: 24 512 14 14 (2408448)
I0403 15:40:17.691998 12210 net.cpp:148] Top shape: 24 512 14 14 (2408448)
I0403 15:40:17.692013 12210 net.cpp:148] Top shape: 24 512 14 14 (2408448)
I0403 15:40:17.692028 12210 net.cpp:148] Top shape: 24 512 14 14 (2408448)
I0403 15:40:17.692040 12210 net.cpp:156] Memory required for data: 944714784
I0403 15:40:17.692054 12210 layer_factory.hpp:77] Creating layer loss1/ave_pool
I0403 15:40:17.692072 12210 net.cpp:91] Creating Layer loss1/ave_pool
I0403 15:40:17.692087 12210 net.cpp:425] loss1/ave_pool <- inception_4a/output_inception_4a/output_0_split_0
I0403 15:40:17.692107 12210 net.cpp:399] loss1/ave_pool -> loss1/ave_pool
I0403 15:40:17.692328 12210 net.cpp:141] Setting up loss1/ave_pool
I0403 15:40:17.692360 12210 net.cpp:148] Top shape: 24 512 4 4 (196608)
I0403 15:40:17.692376 12210 net.cpp:156] Memory required for data: 945501216
I0403 15:40:17.692392 12210 layer_factory.hpp:77] Creating layer loss1/conv
I0403 15:40:17.692416 12210 net.cpp:91] Creating Layer loss1/conv
I0403 15:40:17.692435 12210 net.cpp:425] loss1/conv <- loss1/ave_pool
I0403 15:40:17.692456 12210 net.cpp:399] loss1/conv -> loss1/conv
I0403 15:40:17.693954 12210 net.cpp:141] Setting up loss1/conv
I0403 15:40:17.693986 12210 net.cpp:148] Top shape: 24 128 4 4 (49152)
I0403 15:40:17.694016 12210 net.cpp:156] Memory required for data: 945697824
I0403 15:40:17.694036 12210 layer_factory.hpp:77] Creating layer loss1/relu_conv
I0403 15:40:17.694053 12210 net.cpp:91] Creating Layer loss1/relu_conv
I0403 15:40:17.694069 12210 net.cpp:425] loss1/relu_conv <- loss1/conv
I0403 15:40:17.694089 12210 net.cpp:386] loss1/relu_conv -> loss1/conv (in-place)
I0403 15:40:17.694396 12210 net.cpp:141] Setting up loss1/relu_conv
I0403 15:40:17.694425 12210 net.cpp:148] Top shape: 24 128 4 4 (49152)
I0403 15:40:17.694442 12210 net.cpp:156] Memory required for data: 945894432
I0403 15:40:17.694458 12210 layer_factory.hpp:77] Creating layer loss1/fc
I0403 15:40:17.694481 12210 net.cpp:91] Creating Layer loss1/fc
I0403 15:40:17.694500 12210 net.cpp:425] loss1/fc <- loss1/conv
I0403 15:40:17.694522 12210 net.cpp:399] loss1/fc -> loss1/fc
I0403 15:40:17.712973 12210 net.cpp:141] Setting up loss1/fc
I0403 15:40:17.713007 12210 net.cpp:148] Top shape: 24 1024 (24576)
I0403 15:40:17.713022 12210 net.cpp:156] Memory required for data: 945992736
I0403 15:40:17.713040 12210 layer_factory.hpp:77] Creating layer loss1/relu_fc
I0403 15:40:17.713060 12210 net.cpp:91] Creating Layer loss1/relu_fc
I0403 15:40:17.713078 12210 net.cpp:425] loss1/relu_fc <- loss1/fc
I0403 15:40:17.713095 12210 net.cpp:386] loss1/relu_fc -> loss1/fc (in-place)
I0403 15:40:17.713279 12210 net.cpp:141] Setting up loss1/relu_fc
I0403 15:40:17.713307 12210 net.cpp:148] Top shape: 24 1024 (24576)
I0403 15:40:17.713323 12210 net.cpp:156] Memory required for data: 946091040
I0403 15:40:17.713338 12210 layer_factory.hpp:77] Creating layer loss1/drop_fc
I0403 15:40:17.713376 12210 net.cpp:91] Creating Layer loss1/drop_fc
I0403 15:40:17.713394 12210 net.cpp:425] loss1/drop_fc <- loss1/fc
I0403 15:40:17.713413 12210 net.cpp:386] loss1/drop_fc -> loss1/fc (in-place)
I0403 15:40:17.713466 12210 net.cpp:141] Setting up loss1/drop_fc
I0403 15:40:17.713490 12210 net.cpp:148] Top shape: 24 1024 (24576)
I0403 15:40:17.713505 12210 net.cpp:156] Memory required for data: 946189344
I0403 15:40:17.713520 12210 layer_factory.hpp:77] Creating layer loss1/classifier_plantvillage
I0403 15:40:17.713537 12210 net.cpp:91] Creating Layer loss1/classifier_plantvillage
I0403 15:40:17.713553 12210 net.cpp:425] loss1/classifier_plantvillage <- loss1/fc
I0403 15:40:17.713574 12210 net.cpp:399] loss1/classifier_plantvillage -> loss1/classifier_plantvillage
I0403 15:40:17.714491 12210 net.cpp:141] Setting up loss1/classifier_plantvillage
I0403 15:40:17.714519 12210 net.cpp:148] Top shape: 24 38 (912)
I0403 15:40:17.714534 12210 net.cpp:156] Memory required for data: 946192992
I0403 15:40:17.714552 12210 layer_factory.hpp:77] Creating layer loss1/classifier_plantvillage_loss1/classifier_plantvillage_0_split
I0403 15:40:17.714572 12210 net.cpp:91] Creating Layer loss1/classifier_plantvillage_loss1/classifier_plantvillage_0_split
I0403 15:40:17.714588 12210 net.cpp:425] loss1/classifier_plantvillage_loss1/classifier_plantvillage_0_split <- loss1/classifier_plantvillage
I0403 15:40:17.714607 12210 net.cpp:399] loss1/classifier_plantvillage_loss1/classifier_plantvillage_0_split -> loss1/classifier_plantvillage_loss1/classifier_plantvillage_0_split_0
I0403 15:40:17.714627 12210 net.cpp:399] loss1/classifier_plantvillage_loss1/classifier_plantvillage_0_split -> loss1/classifier_plantvillage_loss1/classifier_plantvillage_0_split_1
I0403 15:40:17.714650 12210 net.cpp:399] loss1/classifier_plantvillage_loss1/classifier_plantvillage_0_split -> loss1/classifier_plantvillage_loss1/classifier_plantvillage_0_split_2
I0403 15:40:17.714716 12210 net.cpp:141] Setting up loss1/classifier_plantvillage_loss1/classifier_plantvillage_0_split
I0403 15:40:17.714740 12210 net.cpp:148] Top shape: 24 38 (912)
I0403 15:40:17.714756 12210 net.cpp:148] Top shape: 24 38 (912)
I0403 15:40:17.714771 12210 net.cpp:148] Top shape: 24 38 (912)
I0403 15:40:17.714784 12210 net.cpp:156] Memory required for data: 946203936
I0403 15:40:17.714800 12210 layer_factory.hpp:77] Creating layer inception_4b/1x1
I0403 15:40:17.714823 12210 net.cpp:91] Creating Layer inception_4b/1x1
I0403 15:40:17.714857 12210 net.cpp:425] inception_4b/1x1 <- inception_4a/output_inception_4a/output_0_split_1
I0403 15:40:17.714877 12210 net.cpp:399] inception_4b/1x1 -> inception_4b/1x1
I0403 15:40:17.716580 12210 net.cpp:141] Setting up inception_4b/1x1
I0403 15:40:17.716614 12210 net.cpp:148] Top shape: 24 160 14 14 (752640)
I0403 15:40:17.716630 12210 net.cpp:156] Memory required for data: 949214496
I0403 15:40:17.716650 12210 layer_factory.hpp:77] Creating layer inception_4b/relu_1x1
I0403 15:40:17.716668 12210 net.cpp:91] Creating Layer inception_4b/relu_1x1
I0403 15:40:17.716693 12210 net.cpp:425] inception_4b/relu_1x1 <- inception_4b/1x1
I0403 15:40:17.716713 12210 net.cpp:386] inception_4b/relu_1x1 -> inception_4b/1x1 (in-place)
I0403 15:40:17.716900 12210 net.cpp:141] Setting up inception_4b/relu_1x1
I0403 15:40:17.716928 12210 net.cpp:148] Top shape: 24 160 14 14 (752640)
I0403 15:40:17.716943 12210 net.cpp:156] Memory required for data: 952225056
I0403 15:40:17.716958 12210 layer_factory.hpp:77] Creating layer inception_4b/3x3_reduce
I0403 15:40:17.716984 12210 net.cpp:91] Creating Layer inception_4b/3x3_reduce
I0403 15:40:17.717003 12210 net.cpp:425] inception_4b/3x3_reduce <- inception_4a/output_inception_4a/output_0_split_2
I0403 15:40:17.717026 12210 net.cpp:399] inception_4b/3x3_reduce -> inception_4b/3x3_reduce
I0403 15:40:17.718456 12210 net.cpp:141] Setting up inception_4b/3x3_reduce
I0403 15:40:17.718484 12210 net.cpp:148] Top shape: 24 112 14 14 (526848)
I0403 15:40:17.718502 12210 net.cpp:156] Memory required for data: 954332448
I0403 15:40:17.718520 12210 layer_factory.hpp:77] Creating layer inception_4b/relu_3x3_reduce
I0403 15:40:17.718538 12210 net.cpp:91] Creating Layer inception_4b/relu_3x3_reduce
I0403 15:40:17.718555 12210 net.cpp:425] inception_4b/relu_3x3_reduce <- inception_4b/3x3_reduce
I0403 15:40:17.718577 12210 net.cpp:386] inception_4b/relu_3x3_reduce -> inception_4b/3x3_reduce (in-place)
I0403 15:40:17.718878 12210 net.cpp:141] Setting up inception_4b/relu_3x3_reduce
I0403 15:40:17.718906 12210 net.cpp:148] Top shape: 24 112 14 14 (526848)
I0403 15:40:17.718922 12210 net.cpp:156] Memory required for data: 956439840
I0403 15:40:17.718937 12210 layer_factory.hpp:77] Creating layer inception_4b/3x3
I0403 15:40:17.718961 12210 net.cpp:91] Creating Layer inception_4b/3x3
I0403 15:40:17.718978 12210 net.cpp:425] inception_4b/3x3 <- inception_4b/3x3_reduce
I0403 15:40:17.719002 12210 net.cpp:399] inception_4b/3x3 -> inception_4b/3x3
I0403 15:40:17.722142 12210 net.cpp:141] Setting up inception_4b/3x3
I0403 15:40:17.722173 12210 net.cpp:148] Top shape: 24 224 14 14 (1053696)
I0403 15:40:17.722190 12210 net.cpp:156] Memory required for data: 960654624
I0403 15:40:17.722209 12210 layer_factory.hpp:77] Creating layer inception_4b/relu_3x3
I0403 15:40:17.722230 12210 net.cpp:91] Creating Layer inception_4b/relu_3x3
I0403 15:40:17.722249 12210 net.cpp:425] inception_4b/relu_3x3 <- inception_4b/3x3
I0403 15:40:17.722266 12210 net.cpp:386] inception_4b/relu_3x3 -> inception_4b/3x3 (in-place)
I0403 15:40:17.722466 12210 net.cpp:141] Setting up inception_4b/relu_3x3
I0403 15:40:17.722496 12210 net.cpp:148] Top shape: 24 224 14 14 (1053696)
I0403 15:40:17.722512 12210 net.cpp:156] Memory required for data: 964869408
I0403 15:40:17.722527 12210 layer_factory.hpp:77] Creating layer inception_4b/5x5_reduce
I0403 15:40:17.722553 12210 net.cpp:91] Creating Layer inception_4b/5x5_reduce
I0403 15:40:17.722573 12210 net.cpp:425] inception_4b/5x5_reduce <- inception_4a/output_inception_4a/output_0_split_3
I0403 15:40:17.722592 12210 net.cpp:399] inception_4b/5x5_reduce -> inception_4b/5x5_reduce
I0403 15:40:17.723744 12210 net.cpp:141] Setting up inception_4b/5x5_reduce
I0403 15:40:17.723774 12210 net.cpp:148] Top shape: 24 24 14 14 (112896)
I0403 15:40:17.723790 12210 net.cpp:156] Memory required for data: 965320992
I0403 15:40:17.723809 12210 layer_factory.hpp:77] Creating layer inception_4b/relu_5x5_reduce
I0403 15:40:17.723827 12210 net.cpp:91] Creating Layer inception_4b/relu_5x5_reduce
I0403 15:40:17.723860 12210 net.cpp:425] inception_4b/relu_5x5_reduce <- inception_4b/5x5_reduce
I0403 15:40:17.723882 12210 net.cpp:386] inception_4b/relu_5x5_reduce -> inception_4b/5x5_reduce (in-place)
I0403 15:40:17.724078 12210 net.cpp:141] Setting up inception_4b/relu_5x5_reduce
I0403 15:40:17.724104 12210 net.cpp:148] Top shape: 24 24 14 14 (112896)
I0403 15:40:17.724119 12210 net.cpp:156] Memory required for data: 965772576
I0403 15:40:17.724135 12210 layer_factory.hpp:77] Creating layer inception_4b/5x5
I0403 15:40:17.724159 12210 net.cpp:91] Creating Layer inception_4b/5x5
I0403 15:40:17.724176 12210 net.cpp:425] inception_4b/5x5 <- inception_4b/5x5_reduce
I0403 15:40:17.724201 12210 net.cpp:399] inception_4b/5x5 -> inception_4b/5x5
I0403 15:40:17.725503 12210 net.cpp:141] Setting up inception_4b/5x5
I0403 15:40:17.725535 12210 net.cpp:148] Top shape: 24 64 14 14 (301056)
I0403 15:40:17.725553 12210 net.cpp:156] Memory required for data: 966976800
I0403 15:40:17.725571 12210 layer_factory.hpp:77] Creating layer inception_4b/relu_5x5
I0403 15:40:17.725590 12210 net.cpp:91] Creating Layer inception_4b/relu_5x5
I0403 15:40:17.725607 12210 net.cpp:425] inception_4b/relu_5x5 <- inception_4b/5x5
I0403 15:40:17.725627 12210 net.cpp:386] inception_4b/relu_5x5 -> inception_4b/5x5 (in-place)
I0403 15:40:17.725925 12210 net.cpp:141] Setting up inception_4b/relu_5x5
I0403 15:40:17.725957 12210 net.cpp:148] Top shape: 24 64 14 14 (301056)
I0403 15:40:17.725973 12210 net.cpp:156] Memory required for data: 968181024
I0403 15:40:17.725989 12210 layer_factory.hpp:77] Creating layer inception_4b/pool
I0403 15:40:17.726008 12210 net.cpp:91] Creating Layer inception_4b/pool
I0403 15:40:17.726024 12210 net.cpp:425] inception_4b/pool <- inception_4a/output_inception_4a/output_0_split_4
I0403 15:40:17.726047 12210 net.cpp:399] inception_4b/pool -> inception_4b/pool
I0403 15:40:17.726114 12210 net.cpp:141] Setting up inception_4b/pool
I0403 15:40:17.726140 12210 net.cpp:148] Top shape: 24 512 14 14 (2408448)
I0403 15:40:17.726155 12210 net.cpp:156] Memory required for data: 977814816
I0403 15:40:17.726169 12210 layer_factory.hpp:77] Creating layer inception_4b/pool_proj
I0403 15:40:17.726192 12210 net.cpp:91] Creating Layer inception_4b/pool_proj
I0403 15:40:17.726212 12210 net.cpp:425] inception_4b/pool_proj <- inception_4b/pool
I0403 15:40:17.726233 12210 net.cpp:399] inception_4b/pool_proj -> inception_4b/pool_proj
I0403 15:40:17.727509 12210 net.cpp:141] Setting up inception_4b/pool_proj
I0403 15:40:17.727541 12210 net.cpp:148] Top shape: 24 64 14 14 (301056)
I0403 15:40:17.727558 12210 net.cpp:156] Memory required for data: 979019040
I0403 15:40:17.727579 12210 layer_factory.hpp:77] Creating layer inception_4b/relu_pool_proj
I0403 15:40:17.727598 12210 net.cpp:91] Creating Layer inception_4b/relu_pool_proj
I0403 15:40:17.727614 12210 net.cpp:425] inception_4b/relu_pool_proj <- inception_4b/pool_proj
I0403 15:40:17.727634 12210 net.cpp:386] inception_4b/relu_pool_proj -> inception_4b/pool_proj (in-place)
I0403 15:40:17.727823 12210 net.cpp:141] Setting up inception_4b/relu_pool_proj
I0403 15:40:17.727849 12210 net.cpp:148] Top shape: 24 64 14 14 (301056)
I0403 15:40:17.727864 12210 net.cpp:156] Memory required for data: 980223264
I0403 15:40:17.727880 12210 layer_factory.hpp:77] Creating layer inception_4b/output
I0403 15:40:17.727898 12210 net.cpp:91] Creating Layer inception_4b/output
I0403 15:40:17.727915 12210 net.cpp:425] inception_4b/output <- inception_4b/1x1
I0403 15:40:17.727931 12210 net.cpp:425] inception_4b/output <- inception_4b/3x3
I0403 15:40:17.727946 12210 net.cpp:425] inception_4b/output <- inception_4b/5x5
I0403 15:40:17.727963 12210 net.cpp:425] inception_4b/output <- inception_4b/pool_proj
I0403 15:40:17.727982 12210 net.cpp:399] inception_4b/output -> inception_4b/output
I0403 15:40:17.728034 12210 net.cpp:141] Setting up inception_4b/output
I0403 15:40:17.728058 12210 net.cpp:148] Top shape: 24 512 14 14 (2408448)
I0403 15:40:17.728073 12210 net.cpp:156] Memory required for data: 989857056
I0403 15:40:17.728106 12210 layer_factory.hpp:77] Creating layer inception_4b/output_inception_4b/output_0_split
I0403 15:40:17.728123 12210 net.cpp:91] Creating Layer inception_4b/output_inception_4b/output_0_split
I0403 15:40:17.728139 12210 net.cpp:425] inception_4b/output_inception_4b/output_0_split <- inception_4b/output
I0403 15:40:17.728160 12210 net.cpp:399] inception_4b/output_inception_4b/output_0_split -> inception_4b/output_inception_4b/output_0_split_0
I0403 15:40:17.728183 12210 net.cpp:399] inception_4b/output_inception_4b/output_0_split -> inception_4b/output_inception_4b/output_0_split_1
I0403 15:40:17.728204 12210 net.cpp:399] inception_4b/output_inception_4b/output_0_split -> inception_4b/output_inception_4b/output_0_split_2
I0403 15:40:17.728224 12210 net.cpp:399] inception_4b/output_inception_4b/output_0_split -> inception_4b/output_inception_4b/output_0_split_3
I0403 15:40:17.728313 12210 net.cpp:141] Setting up inception_4b/output_inception_4b/output_0_split
I0403 15:40:17.728338 12210 net.cpp:148] Top shape: 24 512 14 14 (2408448)
I0403 15:40:17.728360 12210 net.cpp:148] Top shape: 24 512 14 14 (2408448)
I0403 15:40:17.728376 12210 net.cpp:148] Top shape: 24 512 14 14 (2408448)
I0403 15:40:17.728394 12210 net.cpp:148] Top shape: 24 512 14 14 (2408448)
I0403 15:40:17.728407 12210 net.cpp:156] Memory required for data: 1028392224
I0403 15:40:17.728422 12210 layer_factory.hpp:77] Creating layer inception_4c/1x1
I0403 15:40:17.728447 12210 net.cpp:91] Creating Layer inception_4c/1x1
I0403 15:40:17.728466 12210 net.cpp:425] inception_4c/1x1 <- inception_4b/output_inception_4b/output_0_split_0
I0403 15:40:17.728487 12210 net.cpp:399] inception_4c/1x1 -> inception_4c/1x1
I0403 15:40:17.730005 12210 net.cpp:141] Setting up inception_4c/1x1
I0403 15:40:17.730036 12210 net.cpp:148] Top shape: 24 128 14 14 (602112)
I0403 15:40:17.730051 12210 net.cpp:156] Memory required for data: 1030800672
I0403 15:40:17.730070 12210 layer_factory.hpp:77] Creating layer inception_4c/relu_1x1
I0403 15:40:17.730092 12210 net.cpp:91] Creating Layer inception_4c/relu_1x1
I0403 15:40:17.730108 12210 net.cpp:425] inception_4c/relu_1x1 <- inception_4c/1x1
I0403 15:40:17.730126 12210 net.cpp:386] inception_4c/relu_1x1 -> inception_4c/1x1 (in-place)
I0403 15:40:17.730320 12210 net.cpp:141] Setting up inception_4c/relu_1x1
I0403 15:40:17.730352 12210 net.cpp:148] Top shape: 24 128 14 14 (602112)
I0403 15:40:17.730370 12210 net.cpp:156] Memory required for data: 1033209120
I0403 15:40:17.730386 12210 layer_factory.hpp:77] Creating layer inception_4c/3x3_reduce
I0403 15:40:17.730409 12210 net.cpp:91] Creating Layer inception_4c/3x3_reduce
I0403 15:40:17.730427 12210 net.cpp:425] inception_4c/3x3_reduce <- inception_4b/output_inception_4b/output_0_split_1
I0403 15:40:17.730448 12210 net.cpp:399] inception_4c/3x3_reduce -> inception_4c/3x3_reduce
I0403 15:40:17.732511 12210 net.cpp:141] Setting up inception_4c/3x3_reduce
I0403 15:40:17.732544 12210 net.cpp:148] Top shape: 24 128 14 14 (602112)
I0403 15:40:17.732561 12210 net.cpp:156] Memory required for data: 1035617568
I0403 15:40:17.732583 12210 layer_factory.hpp:77] Creating layer inception_4c/relu_3x3_reduce
I0403 15:40:17.732600 12210 net.cpp:91] Creating Layer inception_4c/relu_3x3_reduce
I0403 15:40:17.732617 12210 net.cpp:425] inception_4c/relu_3x3_reduce <- inception_4c/3x3_reduce
I0403 15:40:17.732635 12210 net.cpp:386] inception_4c/relu_3x3_reduce -> inception_4c/3x3_reduce (in-place)
I0403 15:40:17.732945 12210 net.cpp:141] Setting up inception_4c/relu_3x3_reduce
I0403 15:40:17.732976 12210 net.cpp:148] Top shape: 24 128 14 14 (602112)
I0403 15:40:17.732992 12210 net.cpp:156] Memory required for data: 1038026016
I0403 15:40:17.733008 12210 layer_factory.hpp:77] Creating layer inception_4c/3x3
I0403 15:40:17.733032 12210 net.cpp:91] Creating Layer inception_4c/3x3
I0403 15:40:17.733052 12210 net.cpp:425] inception_4c/3x3 <- inception_4c/3x3_reduce
I0403 15:40:17.733072 12210 net.cpp:399] inception_4c/3x3 -> inception_4c/3x3
I0403 15:40:17.736913 12210 net.cpp:141] Setting up inception_4c/3x3
I0403 15:40:17.736963 12210 net.cpp:148] Top shape: 24 256 14 14 (1204224)
I0403 15:40:17.736980 12210 net.cpp:156] Memory required for data: 1042842912
I0403 15:40:17.737015 12210 layer_factory.hpp:77] Creating layer inception_4c/relu_3x3
I0403 15:40:17.737037 12210 net.cpp:91] Creating Layer inception_4c/relu_3x3
I0403 15:40:17.737054 12210 net.cpp:425] inception_4c/relu_3x3 <- inception_4c/3x3
I0403 15:40:17.737074 12210 net.cpp:386] inception_4c/relu_3x3 -> inception_4c/3x3 (in-place)
I0403 15:40:17.737267 12210 net.cpp:141] Setting up inception_4c/relu_3x3
I0403 15:40:17.737294 12210 net.cpp:148] Top shape: 24 256 14 14 (1204224)
I0403 15:40:17.737309 12210 net.cpp:156] Memory required for data: 1047659808
I0403 15:40:17.737324 12210 layer_factory.hpp:77] Creating layer inception_4c/5x5_reduce
I0403 15:40:17.737352 12210 net.cpp:91] Creating Layer inception_4c/5x5_reduce
I0403 15:40:17.737372 12210 net.cpp:425] inception_4c/5x5_reduce <- inception_4b/output_inception_4b/output_0_split_2
I0403 15:40:17.737396 12210 net.cpp:399] inception_4c/5x5_reduce -> inception_4c/5x5_reduce
I0403 15:40:17.738550 12210 net.cpp:141] Setting up inception_4c/5x5_reduce
I0403 15:40:17.738584 12210 net.cpp:148] Top shape: 24 24 14 14 (112896)
I0403 15:40:17.738600 12210 net.cpp:156] Memory required for data: 1048111392
I0403 15:40:17.738620 12210 layer_factory.hpp:77] Creating layer inception_4c/relu_5x5_reduce
I0403 15:40:17.738637 12210 net.cpp:91] Creating Layer inception_4c/relu_5x5_reduce
I0403 15:40:17.738653 12210 net.cpp:425] inception_4c/relu_5x5_reduce <- inception_4c/5x5_reduce
I0403 15:40:17.738673 12210 net.cpp:386] inception_4c/relu_5x5_reduce -> inception_4c/5x5_reduce (in-place)
I0403 15:40:17.738874 12210 net.cpp:141] Setting up inception_4c/relu_5x5_reduce
I0403 15:40:17.738901 12210 net.cpp:148] Top shape: 24 24 14 14 (112896)
I0403 15:40:17.738917 12210 net.cpp:156] Memory required for data: 1048562976
I0403 15:40:17.738932 12210 layer_factory.hpp:77] Creating layer inception_4c/5x5
I0403 15:40:17.738956 12210 net.cpp:91] Creating Layer inception_4c/5x5
I0403 15:40:17.738975 12210 net.cpp:425] inception_4c/5x5 <- inception_4c/5x5_reduce
I0403 15:40:17.738997 12210 net.cpp:399] inception_4c/5x5 -> inception_4c/5x5
I0403 15:40:17.740319 12210 net.cpp:141] Setting up inception_4c/5x5
I0403 15:40:17.740353 12210 net.cpp:148] Top shape: 24 64 14 14 (301056)
I0403 15:40:17.740370 12210 net.cpp:156] Memory required for data: 1049767200
I0403 15:40:17.740391 12210 layer_factory.hpp:77] Creating layer inception_4c/relu_5x5
I0403 15:40:17.740411 12210 net.cpp:91] Creating Layer inception_4c/relu_5x5
I0403 15:40:17.740428 12210 net.cpp:425] inception_4c/relu_5x5 <- inception_4c/5x5
I0403 15:40:17.740447 12210 net.cpp:386] inception_4c/relu_5x5 -> inception_4c/5x5 (in-place)
I0403 15:40:17.740753 12210 net.cpp:141] Setting up inception_4c/relu_5x5
I0403 15:40:17.740780 12210 net.cpp:148] Top shape: 24 64 14 14 (301056)
I0403 15:40:17.740797 12210 net.cpp:156] Memory required for data: 1050971424
I0403 15:40:17.740811 12210 layer_factory.hpp:77] Creating layer inception_4c/pool
I0403 15:40:17.740830 12210 net.cpp:91] Creating Layer inception_4c/pool
I0403 15:40:17.740847 12210 net.cpp:425] inception_4c/pool <- inception_4b/output_inception_4b/output_0_split_3
I0403 15:40:17.740869 12210 net.cpp:399] inception_4c/pool -> inception_4c/pool
I0403 15:40:17.740938 12210 net.cpp:141] Setting up inception_4c/pool
I0403 15:40:17.740963 12210 net.cpp:148] Top shape: 24 512 14 14 (2408448)
I0403 15:40:17.740978 12210 net.cpp:156] Memory required for data: 1060605216
I0403 15:40:17.740993 12210 layer_factory.hpp:77] Creating layer inception_4c/pool_proj
I0403 15:40:17.741019 12210 net.cpp:91] Creating Layer inception_4c/pool_proj
I0403 15:40:17.741036 12210 net.cpp:425] inception_4c/pool_proj <- inception_4c/pool
I0403 15:40:17.741055 12210 net.cpp:399] inception_4c/pool_proj -> inception_4c/pool_proj
I0403 15:40:17.742360 12210 net.cpp:141] Setting up inception_4c/pool_proj
I0403 15:40:17.742391 12210 net.cpp:148] Top shape: 24 64 14 14 (301056)
I0403 15:40:17.742421 12210 net.cpp:156] Memory required for data: 1061809440
I0403 15:40:17.742440 12210 layer_factory.hpp:77] Creating layer inception_4c/relu_pool_proj
I0403 15:40:17.742460 12210 net.cpp:91] Creating Layer inception_4c/relu_pool_proj
I0403 15:40:17.742475 12210 net.cpp:425] inception_4c/relu_pool_proj <- inception_4c/pool_proj
I0403 15:40:17.742496 12210 net.cpp:386] inception_4c/relu_pool_proj -> inception_4c/pool_proj (in-place)
I0403 15:40:17.742686 12210 net.cpp:141] Setting up inception_4c/relu_pool_proj
I0403 15:40:17.742712 12210 net.cpp:148] Top shape: 24 64 14 14 (301056)
I0403 15:40:17.742727 12210 net.cpp:156] Memory required for data: 1063013664
I0403 15:40:17.742741 12210 layer_factory.hpp:77] Creating layer inception_4c/output
I0403 15:40:17.742758 12210 net.cpp:91] Creating Layer inception_4c/output
I0403 15:40:17.742774 12210 net.cpp:425] inception_4c/output <- inception_4c/1x1
I0403 15:40:17.742790 12210 net.cpp:425] inception_4c/output <- inception_4c/3x3
I0403 15:40:17.742806 12210 net.cpp:425] inception_4c/output <- inception_4c/5x5
I0403 15:40:17.742822 12210 net.cpp:425] inception_4c/output <- inception_4c/pool_proj
I0403 15:40:17.742841 12210 net.cpp:399] inception_4c/output -> inception_4c/output
I0403 15:40:17.742888 12210 net.cpp:141] Setting up inception_4c/output
I0403 15:40:17.742914 12210 net.cpp:148] Top shape: 24 512 14 14 (2408448)
I0403 15:40:17.742929 12210 net.cpp:156] Memory required for data: 1072647456
I0403 15:40:17.742944 12210 layer_factory.hpp:77] Creating layer inception_4c/output_inception_4c/output_0_split
I0403 15:40:17.742960 12210 net.cpp:91] Creating Layer inception_4c/output_inception_4c/output_0_split
I0403 15:40:17.742975 12210 net.cpp:425] inception_4c/output_inception_4c/output_0_split <- inception_4c/output
I0403 15:40:17.742992 12210 net.cpp:399] inception_4c/output_inception_4c/output_0_split -> inception_4c/output_inception_4c/output_0_split_0
I0403 15:40:17.743016 12210 net.cpp:399] inception_4c/output_inception_4c/output_0_split -> inception_4c/output_inception_4c/output_0_split_1
I0403 15:40:17.743036 12210 net.cpp:399] inception_4c/output_inception_4c/output_0_split -> inception_4c/output_inception_4c/output_0_split_2
I0403 15:40:17.743057 12210 net.cpp:399] inception_4c/output_inception_4c/output_0_split -> inception_4c/output_inception_4c/output_0_split_3
I0403 15:40:17.743145 12210 net.cpp:141] Setting up inception_4c/output_inception_4c/output_0_split
I0403 15:40:17.743170 12210 net.cpp:148] Top shape: 24 512 14 14 (2408448)
I0403 15:40:17.743185 12210 net.cpp:148] Top shape: 24 512 14 14 (2408448)
I0403 15:40:17.743201 12210 net.cpp:148] Top shape: 24 512 14 14 (2408448)
I0403 15:40:17.743216 12210 net.cpp:148] Top shape: 24 512 14 14 (2408448)
I0403 15:40:17.743230 12210 net.cpp:156] Memory required for data: 1111182624
I0403 15:40:17.743243 12210 layer_factory.hpp:77] Creating layer inception_4d/1x1
I0403 15:40:17.743268 12210 net.cpp:91] Creating Layer inception_4d/1x1
I0403 15:40:17.743284 12210 net.cpp:425] inception_4d/1x1 <- inception_4c/output_inception_4c/output_0_split_0
I0403 15:40:17.743304 12210 net.cpp:399] inception_4d/1x1 -> inception_4d/1x1
I0403 15:40:17.744746 12210 net.cpp:141] Setting up inception_4d/1x1
I0403 15:40:17.744776 12210 net.cpp:148] Top shape: 24 112 14 14 (526848)
I0403 15:40:17.744791 12210 net.cpp:156] Memory required for data: 1113290016
I0403 15:40:17.744809 12210 layer_factory.hpp:77] Creating layer inception_4d/relu_1x1
I0403 15:40:17.744832 12210 net.cpp:91] Creating Layer inception_4d/relu_1x1
I0403 15:40:17.744849 12210 net.cpp:425] inception_4d/relu_1x1 <- inception_4d/1x1
I0403 15:40:17.744868 12210 net.cpp:386] inception_4d/relu_1x1 -> inception_4d/1x1 (in-place)
I0403 15:40:17.745059 12210 net.cpp:141] Setting up inception_4d/relu_1x1
I0403 15:40:17.745085 12210 net.cpp:148] Top shape: 24 112 14 14 (526848)
I0403 15:40:17.745100 12210 net.cpp:156] Memory required for data: 1115397408
I0403 15:40:17.745115 12210 layer_factory.hpp:77] Creating layer inception_4d/3x3_reduce
I0403 15:40:17.745152 12210 net.cpp:91] Creating Layer inception_4d/3x3_reduce
I0403 15:40:17.745172 12210 net.cpp:425] inception_4d/3x3_reduce <- inception_4c/output_inception_4c/output_0_split_1
I0403 15:40:17.745193 12210 net.cpp:399] inception_4d/3x3_reduce -> inception_4d/3x3_reduce
I0403 15:40:17.746772 12210 net.cpp:141] Setting up inception_4d/3x3_reduce
I0403 15:40:17.746800 12210 net.cpp:148] Top shape: 24 144 14 14 (677376)
I0403 15:40:17.746816 12210 net.cpp:156] Memory required for data: 1118106912
I0403 15:40:17.746834 12210 layer_factory.hpp:77] Creating layer inception_4d/relu_3x3_reduce
I0403 15:40:17.746855 12210 net.cpp:91] Creating Layer inception_4d/relu_3x3_reduce
I0403 15:40:17.746872 12210 net.cpp:425] inception_4d/relu_3x3_reduce <- inception_4d/3x3_reduce
I0403 15:40:17.746889 12210 net.cpp:386] inception_4d/relu_3x3_reduce -> inception_4d/3x3_reduce (in-place)
I0403 15:40:17.747184 12210 net.cpp:141] Setting up inception_4d/relu_3x3_reduce
I0403 15:40:17.747211 12210 net.cpp:148] Top shape: 24 144 14 14 (677376)
I0403 15:40:17.747226 12210 net.cpp:156] Memory required for data: 1120816416
I0403 15:40:17.747241 12210 layer_factory.hpp:77] Creating layer inception_4d/3x3
I0403 15:40:17.747264 12210 net.cpp:91] Creating Layer inception_4d/3x3
I0403 15:40:17.747282 12210 net.cpp:425] inception_4d/3x3 <- inception_4d/3x3_reduce
I0403 15:40:17.747303 12210 net.cpp:399] inception_4d/3x3 -> inception_4d/3x3
I0403 15:40:17.751773 12210 net.cpp:141] Setting up inception_4d/3x3
I0403 15:40:17.751806 12210 net.cpp:148] Top shape: 24 288 14 14 (1354752)
I0403 15:40:17.751821 12210 net.cpp:156] Memory required for data: 1126235424
I0403 15:40:17.751839 12210 layer_factory.hpp:77] Creating layer inception_4d/relu_3x3
I0403 15:40:17.751857 12210 net.cpp:91] Creating Layer inception_4d/relu_3x3
I0403 15:40:17.751871 12210 net.cpp:425] inception_4d/relu_3x3 <- inception_4d/3x3
I0403 15:40:17.751888 12210 net.cpp:386] inception_4d/relu_3x3 -> inception_4d/3x3 (in-place)
I0403 15:40:17.752076 12210 net.cpp:141] Setting up inception_4d/relu_3x3
I0403 15:40:17.752104 12210 net.cpp:148] Top shape: 24 288 14 14 (1354752)
I0403 15:40:17.752120 12210 net.cpp:156] Memory required for data: 1131654432
I0403 15:40:17.752135 12210 layer_factory.hpp:77] Creating layer inception_4d/5x5_reduce
I0403 15:40:17.752156 12210 net.cpp:91] Creating Layer inception_4d/5x5_reduce
I0403 15:40:17.752173 12210 net.cpp:425] inception_4d/5x5_reduce <- inception_4c/output_inception_4c/output_0_split_2
I0403 15:40:17.752195 12210 net.cpp:399] inception_4d/5x5_reduce -> inception_4d/5x5_reduce
I0403 15:40:17.753371 12210 net.cpp:141] Setting up inception_4d/5x5_reduce
I0403 15:40:17.753401 12210 net.cpp:148] Top shape: 24 32 14 14 (150528)
I0403 15:40:17.753417 12210 net.cpp:156] Memory required for data: 1132256544
I0403 15:40:17.753435 12210 layer_factory.hpp:77] Creating layer inception_4d/relu_5x5_reduce
I0403 15:40:17.753455 12210 net.cpp:91] Creating Layer inception_4d/relu_5x5_reduce
I0403 15:40:17.753473 12210 net.cpp:425] inception_4d/relu_5x5_reduce <- inception_4d/5x5_reduce
I0403 15:40:17.753490 12210 net.cpp:386] inception_4d/relu_5x5_reduce -> inception_4d/5x5_reduce (in-place)
I0403 15:40:17.753691 12210 net.cpp:141] Setting up inception_4d/relu_5x5_reduce
I0403 15:40:17.753716 12210 net.cpp:148] Top shape: 24 32 14 14 (150528)
I0403 15:40:17.753731 12210 net.cpp:156] Memory required for data: 1132858656
I0403 15:40:17.753744 12210 layer_factory.hpp:77] Creating layer inception_4d/5x5
I0403 15:40:17.753767 12210 net.cpp:91] Creating Layer inception_4d/5x5
I0403 15:40:17.753783 12210 net.cpp:425] inception_4d/5x5 <- inception_4d/5x5_reduce
I0403 15:40:17.753804 12210 net.cpp:399] inception_4d/5x5 -> inception_4d/5x5
I0403 15:40:17.755290 12210 net.cpp:141] Setting up inception_4d/5x5
I0403 15:40:17.755318 12210 net.cpp:148] Top shape: 24 64 14 14 (301056)
I0403 15:40:17.755333 12210 net.cpp:156] Memory required for data: 1134062880
I0403 15:40:17.755369 12210 layer_factory.hpp:77] Creating layer inception_4d/relu_5x5
I0403 15:40:17.755403 12210 net.cpp:91] Creating Layer inception_4d/relu_5x5
I0403 15:40:17.755421 12210 net.cpp:425] inception_4d/relu_5x5 <- inception_4d/5x5
I0403 15:40:17.755441 12210 net.cpp:386] inception_4d/relu_5x5 -> inception_4d/5x5 (in-place)
I0403 15:40:17.755753 12210 net.cpp:141] Setting up inception_4d/relu_5x5
I0403 15:40:17.755780 12210 net.cpp:148] Top shape: 24 64 14 14 (301056)
I0403 15:40:17.755795 12210 net.cpp:156] Memory required for data: 1135267104
I0403 15:40:17.755810 12210 layer_factory.hpp:77] Creating layer inception_4d/pool
I0403 15:40:17.755828 12210 net.cpp:91] Creating Layer inception_4d/pool
I0403 15:40:17.755844 12210 net.cpp:425] inception_4d/pool <- inception_4c/output_inception_4c/output_0_split_3
I0403 15:40:17.755864 12210 net.cpp:399] inception_4d/pool -> inception_4d/pool
I0403 15:40:17.755936 12210 net.cpp:141] Setting up inception_4d/pool
I0403 15:40:17.755960 12210 net.cpp:148] Top shape: 24 512 14 14 (2408448)
I0403 15:40:17.755976 12210 net.cpp:156] Memory required for data: 1144900896
I0403 15:40:17.755990 12210 layer_factory.hpp:77] Creating layer inception_4d/pool_proj
I0403 15:40:17.756014 12210 net.cpp:91] Creating Layer inception_4d/pool_proj
I0403 15:40:17.756033 12210 net.cpp:425] inception_4d/pool_proj <- inception_4d/pool
I0403 15:40:17.756052 12210 net.cpp:399] inception_4d/pool_proj -> inception_4d/pool_proj
I0403 15:40:17.757877 12210 net.cpp:141] Setting up inception_4d/pool_proj
I0403 15:40:17.757917 12210 net.cpp:148] Top shape: 24 64 14 14 (301056)
I0403 15:40:17.757935 12210 net.cpp:156] Memory required for data: 1146105120
I0403 15:40:17.757953 12210 layer_factory.hpp:77] Creating layer inception_4d/relu_pool_proj
I0403 15:40:17.757972 12210 net.cpp:91] Creating Layer inception_4d/relu_pool_proj
I0403 15:40:17.757987 12210 net.cpp:425] inception_4d/relu_pool_proj <- inception_4d/pool_proj
I0403 15:40:17.758004 12210 net.cpp:386] inception_4d/relu_pool_proj -> inception_4d/pool_proj (in-place)
I0403 15:40:17.758198 12210 net.cpp:141] Setting up inception_4d/relu_pool_proj
I0403 15:40:17.758225 12210 net.cpp:148] Top shape: 24 64 14 14 (301056)
I0403 15:40:17.758241 12210 net.cpp:156] Memory required for data: 1147309344
I0403 15:40:17.758256 12210 layer_factory.hpp:77] Creating layer inception_4d/output
I0403 15:40:17.758273 12210 net.cpp:91] Creating Layer inception_4d/output
I0403 15:40:17.758291 12210 net.cpp:425] inception_4d/output <- inception_4d/1x1
I0403 15:40:17.758307 12210 net.cpp:425] inception_4d/output <- inception_4d/3x3
I0403 15:40:17.758323 12210 net.cpp:425] inception_4d/output <- inception_4d/5x5
I0403 15:40:17.758338 12210 net.cpp:425] inception_4d/output <- inception_4d/pool_proj
I0403 15:40:17.758363 12210 net.cpp:399] inception_4d/output -> inception_4d/output
I0403 15:40:17.758414 12210 net.cpp:141] Setting up inception_4d/output
I0403 15:40:17.758436 12210 net.cpp:148] Top shape: 24 528 14 14 (2483712)
I0403 15:40:17.758451 12210 net.cpp:156] Memory required for data: 1157244192
I0403 15:40:17.758466 12210 layer_factory.hpp:77] Creating layer inception_4d/output_inception_4d/output_0_split
I0403 15:40:17.758486 12210 net.cpp:91] Creating Layer inception_4d/output_inception_4d/output_0_split
I0403 15:40:17.758503 12210 net.cpp:425] inception_4d/output_inception_4d/output_0_split <- inception_4d/output
I0403 15:40:17.758522 12210 net.cpp:399] inception_4d/output_inception_4d/output_0_split -> inception_4d/output_inception_4d/output_0_split_0
I0403 15:40:17.758548 12210 net.cpp:399] inception_4d/output_inception_4d/output_0_split -> inception_4d/output_inception_4d/output_0_split_1
I0403 15:40:17.758569 12210 net.cpp:399] inception_4d/output_inception_4d/output_0_split -> inception_4d/output_inception_4d/output_0_split_2
I0403 15:40:17.758589 12210 net.cpp:399] inception_4d/output_inception_4d/output_0_split -> inception_4d/output_inception_4d/output_0_split_3
I0403 15:40:17.758608 12210 net.cpp:399] inception_4d/output_inception_4d/output_0_split -> inception_4d/output_inception_4d/output_0_split_4
I0403 15:40:17.758713 12210 net.cpp:141] Setting up inception_4d/output_inception_4d/output_0_split
I0403 15:40:17.758750 12210 net.cpp:148] Top shape: 24 528 14 14 (2483712)
I0403 15:40:17.758767 12210 net.cpp:148] Top shape: 24 528 14 14 (2483712)
I0403 15:40:17.758782 12210 net.cpp:148] Top shape: 24 528 14 14 (2483712)
I0403 15:40:17.758798 12210 net.cpp:148] Top shape: 24 528 14 14 (2483712)
I0403 15:40:17.758813 12210 net.cpp:148] Top shape: 24 528 14 14 (2483712)
I0403 15:40:17.758826 12210 net.cpp:156] Memory required for data: 1206918432
I0403 15:40:17.758841 12210 layer_factory.hpp:77] Creating layer loss2/ave_pool
I0403 15:40:17.758860 12210 net.cpp:91] Creating Layer loss2/ave_pool
I0403 15:40:17.758877 12210 net.cpp:425] loss2/ave_pool <- inception_4d/output_inception_4d/output_0_split_0
I0403 15:40:17.758895 12210 net.cpp:399] loss2/ave_pool -> loss2/ave_pool
I0403 15:40:17.759220 12210 net.cpp:141] Setting up loss2/ave_pool
I0403 15:40:17.759248 12210 net.cpp:148] Top shape: 24 528 4 4 (202752)
I0403 15:40:17.759264 12210 net.cpp:156] Memory required for data: 1207729440
I0403 15:40:17.759279 12210 layer_factory.hpp:77] Creating layer loss2/conv
I0403 15:40:17.759300 12210 net.cpp:91] Creating Layer loss2/conv
I0403 15:40:17.759317 12210 net.cpp:425] loss2/conv <- loss2/ave_pool
I0403 15:40:17.759336 12210 net.cpp:399] loss2/conv -> loss2/conv
I0403 15:40:17.761242 12210 net.cpp:141] Setting up loss2/conv
I0403 15:40:17.761271 12210 net.cpp:148] Top shape: 24 128 4 4 (49152)
I0403 15:40:17.761287 12210 net.cpp:156] Memory required for data: 1207926048
I0403 15:40:17.761307 12210 layer_factory.hpp:77] Creating layer loss2/relu_conv
I0403 15:40:17.761325 12210 net.cpp:91] Creating Layer loss2/relu_conv
I0403 15:40:17.761346 12210 net.cpp:425] loss2/relu_conv <- loss2/conv
I0403 15:40:17.761369 12210 net.cpp:386] loss2/relu_conv -> loss2/conv (in-place)
I0403 15:40:17.761662 12210 net.cpp:141] Setting up loss2/relu_conv
I0403 15:40:17.761689 12210 net.cpp:148] Top shape: 24 128 4 4 (49152)
I0403 15:40:17.761705 12210 net.cpp:156] Memory required for data: 1208122656
I0403 15:40:17.761720 12210 layer_factory.hpp:77] Creating layer loss2/fc
I0403 15:40:17.761740 12210 net.cpp:91] Creating Layer loss2/fc
I0403 15:40:17.761761 12210 net.cpp:425] loss2/fc <- loss2/conv
I0403 15:40:17.761780 12210 net.cpp:399] loss2/fc -> loss2/fc
I0403 15:40:17.779384 12210 net.cpp:141] Setting up loss2/fc
I0403 15:40:17.779420 12210 net.cpp:148] Top shape: 24 1024 (24576)
I0403 15:40:17.779435 12210 net.cpp:156] Memory required for data: 1208220960
I0403 15:40:17.779453 12210 layer_factory.hpp:77] Creating layer loss2/relu_fc
I0403 15:40:17.779472 12210 net.cpp:91] Creating Layer loss2/relu_fc
I0403 15:40:17.779489 12210 net.cpp:425] loss2/relu_fc <- loss2/fc
I0403 15:40:17.779505 12210 net.cpp:386] loss2/relu_fc -> loss2/fc (in-place)
I0403 15:40:17.779794 12210 net.cpp:141] Setting up loss2/relu_fc
I0403 15:40:17.779822 12210 net.cpp:148] Top shape: 24 1024 (24576)
I0403 15:40:17.779837 12210 net.cpp:156] Memory required for data: 1208319264
I0403 15:40:17.779851 12210 layer_factory.hpp:77] Creating layer loss2/drop_fc
I0403 15:40:17.779868 12210 net.cpp:91] Creating Layer loss2/drop_fc
I0403 15:40:17.779883 12210 net.cpp:425] loss2/drop_fc <- loss2/fc
I0403 15:40:17.779901 12210 net.cpp:386] loss2/drop_fc -> loss2/fc (in-place)
I0403 15:40:17.779948 12210 net.cpp:141] Setting up loss2/drop_fc
I0403 15:40:17.779970 12210 net.cpp:148] Top shape: 24 1024 (24576)
I0403 15:40:17.779984 12210 net.cpp:156] Memory required for data: 1208417568
I0403 15:40:17.779999 12210 layer_factory.hpp:77] Creating layer loss2/classifier_plantvillage
I0403 15:40:17.780019 12210 net.cpp:91] Creating Layer loss2/classifier_plantvillage
I0403 15:40:17.780035 12210 net.cpp:425] loss2/classifier_plantvillage <- loss2/fc
I0403 15:40:17.780053 12210 net.cpp:399] loss2/classifier_plantvillage -> loss2/classifier_plantvillage
I0403 15:40:17.780446 12210 net.cpp:141] Setting up loss2/classifier_plantvillage
I0403 15:40:17.780470 12210 net.cpp:148] Top shape: 24 38 (912)
I0403 15:40:17.780501 12210 net.cpp:156] Memory required for data: 1208421216
I0403 15:40:17.780519 12210 layer_factory.hpp:77] Creating layer loss2/classifier_plantvillage_loss2/classifier_plantvillage_0_split
I0403 15:40:17.780536 12210 net.cpp:91] Creating Layer loss2/classifier_plantvillage_loss2/classifier_plantvillage_0_split
I0403 15:40:17.780555 12210 net.cpp:425] loss2/classifier_plantvillage_loss2/classifier_plantvillage_0_split <- loss2/classifier_plantvillage
I0403 15:40:17.780573 12210 net.cpp:399] loss2/classifier_plantvillage_loss2/classifier_plantvillage_0_split -> loss2/classifier_plantvillage_loss2/classifier_plantvillage_0_split_0
I0403 15:40:17.780593 12210 net.cpp:399] loss2/classifier_plantvillage_loss2/classifier_plantvillage_0_split -> loss2/classifier_plantvillage_loss2/classifier_plantvillage_0_split_1
I0403 15:40:17.780612 12210 net.cpp:399] loss2/classifier_plantvillage_loss2/classifier_plantvillage_0_split -> loss2/classifier_plantvillage_loss2/classifier_plantvillage_0_split_2
I0403 15:40:17.780686 12210 net.cpp:141] Setting up loss2/classifier_plantvillage_loss2/classifier_plantvillage_0_split
I0403 15:40:17.780710 12210 net.cpp:148] Top shape: 24 38 (912)
I0403 15:40:17.780727 12210 net.cpp:148] Top shape: 24 38 (912)
I0403 15:40:17.780741 12210 net.cpp:148] Top shape: 24 38 (912)
I0403 15:40:17.780755 12210 net.cpp:156] Memory required for data: 1208432160
I0403 15:40:17.780768 12210 layer_factory.hpp:77] Creating layer inception_4e/1x1
I0403 15:40:17.780787 12210 net.cpp:91] Creating Layer inception_4e/1x1
I0403 15:40:17.780802 12210 net.cpp:425] inception_4e/1x1 <- inception_4d/output_inception_4d/output_0_split_1
I0403 15:40:17.780822 12210 net.cpp:399] inception_4e/1x1 -> inception_4e/1x1
I0403 15:40:17.782596 12210 net.cpp:141] Setting up inception_4e/1x1
I0403 15:40:17.782624 12210 net.cpp:148] Top shape: 24 256 14 14 (1204224)
I0403 15:40:17.782639 12210 net.cpp:156] Memory required for data: 1213249056
I0403 15:40:17.782656 12210 layer_factory.hpp:77] Creating layer inception_4e/relu_1x1
I0403 15:40:17.782672 12210 net.cpp:91] Creating Layer inception_4e/relu_1x1
I0403 15:40:17.782687 12210 net.cpp:425] inception_4e/relu_1x1 <- inception_4e/1x1
I0403 15:40:17.782706 12210 net.cpp:386] inception_4e/relu_1x1 -> inception_4e/1x1 (in-place)
I0403 15:40:17.782996 12210 net.cpp:141] Setting up inception_4e/relu_1x1
I0403 15:40:17.783022 12210 net.cpp:148] Top shape: 24 256 14 14 (1204224)
I0403 15:40:17.783036 12210 net.cpp:156] Memory required for data: 1218065952
I0403 15:40:17.783051 12210 layer_factory.hpp:77] Creating layer inception_4e/3x3_reduce
I0403 15:40:17.783072 12210 net.cpp:91] Creating Layer inception_4e/3x3_reduce
I0403 15:40:17.783089 12210 net.cpp:425] inception_4e/3x3_reduce <- inception_4d/output_inception_4d/output_0_split_2
I0403 15:40:17.783110 12210 net.cpp:399] inception_4e/3x3_reduce -> inception_4e/3x3_reduce
I0403 15:40:17.785178 12210 net.cpp:141] Setting up inception_4e/3x3_reduce
I0403 15:40:17.785208 12210 net.cpp:148] Top shape: 24 160 14 14 (752640)
I0403 15:40:17.785224 12210 net.cpp:156] Memory required for data: 1221076512
I0403 15:40:17.785241 12210 layer_factory.hpp:77] Creating layer inception_4e/relu_3x3_reduce
I0403 15:40:17.785259 12210 net.cpp:91] Creating Layer inception_4e/relu_3x3_reduce
I0403 15:40:17.785274 12210 net.cpp:425] inception_4e/relu_3x3_reduce <- inception_4e/3x3_reduce
I0403 15:40:17.785292 12210 net.cpp:386] inception_4e/relu_3x3_reduce -> inception_4e/3x3_reduce (in-place)
I0403 15:40:17.785481 12210 net.cpp:141] Setting up inception_4e/relu_3x3_reduce
I0403 15:40:17.785506 12210 net.cpp:148] Top shape: 24 160 14 14 (752640)
I0403 15:40:17.785519 12210 net.cpp:156] Memory required for data: 1224087072
I0403 15:40:17.785533 12210 layer_factory.hpp:77] Creating layer inception_4e/3x3
I0403 15:40:17.785555 12210 net.cpp:91] Creating Layer inception_4e/3x3
I0403 15:40:17.785573 12210 net.cpp:425] inception_4e/3x3 <- inception_4e/3x3_reduce
I0403 15:40:17.785593 12210 net.cpp:399] inception_4e/3x3 -> inception_4e/3x3
I0403 15:40:17.790472 12210 net.cpp:141] Setting up inception_4e/3x3
I0403 15:40:17.790510 12210 net.cpp:148] Top shape: 24 320 14 14 (1505280)
I0403 15:40:17.790526 12210 net.cpp:156] Memory required for data: 1230108192
I0403 15:40:17.790544 12210 layer_factory.hpp:77] Creating layer inception_4e/relu_3x3
I0403 15:40:17.790563 12210 net.cpp:91] Creating Layer inception_4e/relu_3x3
I0403 15:40:17.790581 12210 net.cpp:425] inception_4e/relu_3x3 <- inception_4e/3x3
I0403 15:40:17.790597 12210 net.cpp:386] inception_4e/relu_3x3 -> inception_4e/3x3 (in-place)
I0403 15:40:17.790894 12210 net.cpp:141] Setting up inception_4e/relu_3x3
I0403 15:40:17.790920 12210 net.cpp:148] Top shape: 24 320 14 14 (1505280)
I0403 15:40:17.790935 12210 net.cpp:156] Memory required for data: 1236129312
I0403 15:40:17.790948 12210 layer_factory.hpp:77] Creating layer inception_4e/5x5_reduce
I0403 15:40:17.790972 12210 net.cpp:91] Creating Layer inception_4e/5x5_reduce
I0403 15:40:17.790989 12210 net.cpp:425] inception_4e/5x5_reduce <- inception_4d/output_inception_4d/output_0_split_3
I0403 15:40:17.791007 12210 net.cpp:399] inception_4e/5x5_reduce -> inception_4e/5x5_reduce
I0403 15:40:17.792058 12210 net.cpp:141] Setting up inception_4e/5x5_reduce
I0403 15:40:17.792085 12210 net.cpp:148] Top shape: 24 32 14 14 (150528)
I0403 15:40:17.792099 12210 net.cpp:156] Memory required for data: 1236731424
I0403 15:40:17.792117 12210 layer_factory.hpp:77] Creating layer inception_4e/relu_5x5_reduce
I0403 15:40:17.792135 12210 net.cpp:91] Creating Layer inception_4e/relu_5x5_reduce
I0403 15:40:17.792150 12210 net.cpp:425] inception_4e/relu_5x5_reduce <- inception_4e/5x5_reduce
I0403 15:40:17.792167 12210 net.cpp:386] inception_4e/relu_5x5_reduce -> inception_4e/5x5_reduce (in-place)
I0403 15:40:17.792467 12210 net.cpp:141] Setting up inception_4e/relu_5x5_reduce
I0403 15:40:17.792493 12210 net.cpp:148] Top shape: 24 32 14 14 (150528)
I0403 15:40:17.792507 12210 net.cpp:156] Memory required for data: 1237333536
I0403 15:40:17.792521 12210 layer_factory.hpp:77] Creating layer inception_4e/5x5
I0403 15:40:17.792558 12210 net.cpp:91] Creating Layer inception_4e/5x5
I0403 15:40:17.792577 12210 net.cpp:425] inception_4e/5x5 <- inception_4e/5x5_reduce
I0403 15:40:17.792595 12210 net.cpp:399] inception_4e/5x5 -> inception_4e/5x5
I0403 15:40:17.794420 12210 net.cpp:141] Setting up inception_4e/5x5
I0403 15:40:17.794450 12210 net.cpp:148] Top shape: 24 128 14 14 (602112)
I0403 15:40:17.794464 12210 net.cpp:156] Memory required for data: 1239741984
I0403 15:40:17.794482 12210 layer_factory.hpp:77] Creating layer inception_4e/relu_5x5
I0403 15:40:17.794499 12210 net.cpp:91] Creating Layer inception_4e/relu_5x5
I0403 15:40:17.794515 12210 net.cpp:425] inception_4e/relu_5x5 <- inception_4e/5x5
I0403 15:40:17.794530 12210 net.cpp:386] inception_4e/relu_5x5 -> inception_4e/5x5 (in-place)
I0403 15:40:17.794724 12210 net.cpp:141] Setting up inception_4e/relu_5x5
I0403 15:40:17.794749 12210 net.cpp:148] Top shape: 24 128 14 14 (602112)
I0403 15:40:17.794762 12210 net.cpp:156] Memory required for data: 1242150432
I0403 15:40:17.794776 12210 layer_factory.hpp:77] Creating layer inception_4e/pool
I0403 15:40:17.794793 12210 net.cpp:91] Creating Layer inception_4e/pool
I0403 15:40:17.794808 12210 net.cpp:425] inception_4e/pool <- inception_4d/output_inception_4d/output_0_split_4
I0403 15:40:17.794827 12210 net.cpp:399] inception_4e/pool -> inception_4e/pool
I0403 15:40:17.794894 12210 net.cpp:141] Setting up inception_4e/pool
I0403 15:40:17.794919 12210 net.cpp:148] Top shape: 24 528 14 14 (2483712)
I0403 15:40:17.794934 12210 net.cpp:156] Memory required for data: 1252085280
I0403 15:40:17.794947 12210 layer_factory.hpp:77] Creating layer inception_4e/pool_proj
I0403 15:40:17.794967 12210 net.cpp:91] Creating Layer inception_4e/pool_proj
I0403 15:40:17.794984 12210 net.cpp:425] inception_4e/pool_proj <- inception_4e/pool
I0403 15:40:17.795002 12210 net.cpp:399] inception_4e/pool_proj -> inception_4e/pool_proj
I0403 15:40:17.796470 12210 net.cpp:141] Setting up inception_4e/pool_proj
I0403 15:40:17.796511 12210 net.cpp:148] Top shape: 24 128 14 14 (602112)
I0403 15:40:17.796527 12210 net.cpp:156] Memory required for data: 1254493728
I0403 15:40:17.796545 12210 layer_factory.hpp:77] Creating layer inception_4e/relu_pool_proj
I0403 15:40:17.796561 12210 net.cpp:91] Creating Layer inception_4e/relu_pool_proj
I0403 15:40:17.796578 12210 net.cpp:425] inception_4e/relu_pool_proj <- inception_4e/pool_proj
I0403 15:40:17.796594 12210 net.cpp:386] inception_4e/relu_pool_proj -> inception_4e/pool_proj (in-place)
I0403 15:40:17.796881 12210 net.cpp:141] Setting up inception_4e/relu_pool_proj
I0403 15:40:17.796910 12210 net.cpp:148] Top shape: 24 128 14 14 (602112)
I0403 15:40:17.796924 12210 net.cpp:156] Memory required for data: 1256902176
I0403 15:40:17.796938 12210 layer_factory.hpp:77] Creating layer inception_4e/output
I0403 15:40:17.796955 12210 net.cpp:91] Creating Layer inception_4e/output
I0403 15:40:17.796970 12210 net.cpp:425] inception_4e/output <- inception_4e/1x1
I0403 15:40:17.796986 12210 net.cpp:425] inception_4e/output <- inception_4e/3x3
I0403 15:40:17.797000 12210 net.cpp:425] inception_4e/output <- inception_4e/5x5
I0403 15:40:17.797015 12210 net.cpp:425] inception_4e/output <- inception_4e/pool_proj
I0403 15:40:17.797030 12210 net.cpp:399] inception_4e/output -> inception_4e/output
I0403 15:40:17.797080 12210 net.cpp:141] Setting up inception_4e/output
I0403 15:40:17.797101 12210 net.cpp:148] Top shape: 24 832 14 14 (3913728)
I0403 15:40:17.797116 12210 net.cpp:156] Memory required for data: 1272557088
I0403 15:40:17.797129 12210 layer_factory.hpp:77] Creating layer pool4/3x3_s2
I0403 15:40:17.797147 12210 net.cpp:91] Creating Layer pool4/3x3_s2
I0403 15:40:17.797163 12210 net.cpp:425] pool4/3x3_s2 <- inception_4e/output
I0403 15:40:17.797179 12210 net.cpp:399] pool4/3x3_s2 -> pool4/3x3_s2
I0403 15:40:17.797246 12210 net.cpp:141] Setting up pool4/3x3_s2
I0403 15:40:17.797269 12210 net.cpp:148] Top shape: 24 832 7 7 (978432)
I0403 15:40:17.797283 12210 net.cpp:156] Memory required for data: 1276470816
I0403 15:40:17.797297 12210 layer_factory.hpp:77] Creating layer pool4/3x3_s2_pool4/3x3_s2_0_split
I0403 15:40:17.797312 12210 net.cpp:91] Creating Layer pool4/3x3_s2_pool4/3x3_s2_0_split
I0403 15:40:17.797327 12210 net.cpp:425] pool4/3x3_s2_pool4/3x3_s2_0_split <- pool4/3x3_s2
I0403 15:40:17.797345 12210 net.cpp:399] pool4/3x3_s2_pool4/3x3_s2_0_split -> pool4/3x3_s2_pool4/3x3_s2_0_split_0
I0403 15:40:17.797370 12210 net.cpp:399] pool4/3x3_s2_pool4/3x3_s2_0_split -> pool4/3x3_s2_pool4/3x3_s2_0_split_1
I0403 15:40:17.797390 12210 net.cpp:399] pool4/3x3_s2_pool4/3x3_s2_0_split -> pool4/3x3_s2_pool4/3x3_s2_0_split_2
I0403 15:40:17.797408 12210 net.cpp:399] pool4/3x3_s2_pool4/3x3_s2_0_split -> pool4/3x3_s2_pool4/3x3_s2_0_split_3
I0403 15:40:17.797497 12210 net.cpp:141] Setting up pool4/3x3_s2_pool4/3x3_s2_0_split
I0403 15:40:17.797523 12210 net.cpp:148] Top shape: 24 832 7 7 (978432)
I0403 15:40:17.797538 12210 net.cpp:148] Top shape: 24 832 7 7 (978432)
I0403 15:40:17.797552 12210 net.cpp:148] Top shape: 24 832 7 7 (978432)
I0403 15:40:17.797566 12210 net.cpp:148] Top shape: 24 832 7 7 (978432)
I0403 15:40:17.797580 12210 net.cpp:156] Memory required for data: 1292125728
I0403 15:40:17.797593 12210 layer_factory.hpp:77] Creating layer inception_5a/1x1
I0403 15:40:17.797615 12210 net.cpp:91] Creating Layer inception_5a/1x1
I0403 15:40:17.797631 12210 net.cpp:425] inception_5a/1x1 <- pool4/3x3_s2_pool4/3x3_s2_0_split_0
I0403 15:40:17.797649 12210 net.cpp:399] inception_5a/1x1 -> inception_5a/1x1
I0403 15:40:17.800429 12210 net.cpp:141] Setting up inception_5a/1x1
I0403 15:40:17.800459 12210 net.cpp:148] Top shape: 24 256 7 7 (301056)
I0403 15:40:17.800474 12210 net.cpp:156] Memory required for data: 1293329952
I0403 15:40:17.800492 12210 layer_factory.hpp:77] Creating layer inception_5a/relu_1x1
I0403 15:40:17.800508 12210 net.cpp:91] Creating Layer inception_5a/relu_1x1
I0403 15:40:17.800523 12210 net.cpp:425] inception_5a/relu_1x1 <- inception_5a/1x1
I0403 15:40:17.800541 12210 net.cpp:386] inception_5a/relu_1x1 -> inception_5a/1x1 (in-place)
I0403 15:40:17.800848 12210 net.cpp:141] Setting up inception_5a/relu_1x1
I0403 15:40:17.800876 12210 net.cpp:148] Top shape: 24 256 7 7 (301056)
I0403 15:40:17.800891 12210 net.cpp:156] Memory required for data: 1294534176
I0403 15:40:17.800906 12210 layer_factory.hpp:77] Creating layer inception_5a/3x3_reduce
I0403 15:40:17.800927 12210 net.cpp:91] Creating Layer inception_5a/3x3_reduce
I0403 15:40:17.800945 12210 net.cpp:425] inception_5a/3x3_reduce <- pool4/3x3_s2_pool4/3x3_s2_0_split_1
I0403 15:40:17.800962 12210 net.cpp:399] inception_5a/3x3_reduce -> inception_5a/3x3_reduce
I0403 15:40:17.803356 12210 net.cpp:141] Setting up inception_5a/3x3_reduce
I0403 15:40:17.803386 12210 net.cpp:148] Top shape: 24 160 7 7 (188160)
I0403 15:40:17.803401 12210 net.cpp:156] Memory required for data: 1295286816
I0403 15:40:17.803418 12210 layer_factory.hpp:77] Creating layer inception_5a/relu_3x3_reduce
I0403 15:40:17.803438 12210 net.cpp:91] Creating Layer inception_5a/relu_3x3_reduce
I0403 15:40:17.803454 12210 net.cpp:425] inception_5a/relu_3x3_reduce <- inception_5a/3x3_reduce
I0403 15:40:17.803472 12210 net.cpp:386] inception_5a/relu_3x3_reduce -> inception_5a/3x3_reduce (in-place)
I0403 15:40:17.803653 12210 net.cpp:141] Setting up inception_5a/relu_3x3_reduce
I0403 15:40:17.803679 12210 net.cpp:148] Top shape: 24 160 7 7 (188160)
I0403 15:40:17.803694 12210 net.cpp:156] Memory required for data: 1296039456
I0403 15:40:17.803709 12210 layer_factory.hpp:77] Creating layer inception_5a/3x3
I0403 15:40:17.803731 12210 net.cpp:91] Creating Layer inception_5a/3x3
I0403 15:40:17.803748 12210 net.cpp:425] inception_5a/3x3 <- inception_5a/3x3_reduce
I0403 15:40:17.803766 12210 net.cpp:399] inception_5a/3x3 -> inception_5a/3x3
I0403 15:40:17.808724 12210 net.cpp:141] Setting up inception_5a/3x3
I0403 15:40:17.808755 12210 net.cpp:148] Top shape: 24 320 7 7 (376320)
I0403 15:40:17.808773 12210 net.cpp:156] Memory required for data: 1297544736
I0403 15:40:17.808790 12210 layer_factory.hpp:77] Creating layer inception_5a/relu_3x3
I0403 15:40:17.808809 12210 net.cpp:91] Creating Layer inception_5a/relu_3x3
I0403 15:40:17.808825 12210 net.cpp:425] inception_5a/relu_3x3 <- inception_5a/3x3
I0403 15:40:17.808842 12210 net.cpp:386] inception_5a/relu_3x3 -> inception_5a/3x3 (in-place)
I0403 15:40:17.809140 12210 net.cpp:141] Setting up inception_5a/relu_3x3
I0403 15:40:17.809167 12210 net.cpp:148] Top shape: 24 320 7 7 (376320)
I0403 15:40:17.809182 12210 net.cpp:156] Memory required for data: 1299050016
I0403 15:40:17.809197 12210 layer_factory.hpp:77] Creating layer inception_5a/5x5_reduce
I0403 15:40:17.809221 12210 net.cpp:91] Creating Layer inception_5a/5x5_reduce
I0403 15:40:17.809238 12210 net.cpp:425] inception_5a/5x5_reduce <- pool4/3x3_s2_pool4/3x3_s2_0_split_2
I0403 15:40:17.809260 12210 net.cpp:399] inception_5a/5x5_reduce -> inception_5a/5x5_reduce
I0403 15:40:17.810446 12210 net.cpp:141] Setting up inception_5a/5x5_reduce
I0403 15:40:17.810477 12210 net.cpp:148] Top shape: 24 32 7 7 (37632)
I0403 15:40:17.810494 12210 net.cpp:156] Memory required for data: 1299200544
I0403 15:40:17.810513 12210 layer_factory.hpp:77] Creating layer inception_5a/relu_5x5_reduce
I0403 15:40:17.810530 12210 net.cpp:91] Creating Layer inception_5a/relu_5x5_reduce
I0403 15:40:17.810545 12210 net.cpp:425] inception_5a/relu_5x5_reduce <- inception_5a/5x5_reduce
I0403 15:40:17.810564 12210 net.cpp:386] inception_5a/relu_5x5_reduce -> inception_5a/5x5_reduce (in-place)
I0403 15:40:17.810866 12210 net.cpp:141] Setting up inception_5a/relu_5x5_reduce
I0403 15:40:17.810894 12210 net.cpp:148] Top shape: 24 32 7 7 (37632)
I0403 15:40:17.810909 12210 net.cpp:156] Memory required for data: 1299351072
I0403 15:40:17.810923 12210 layer_factory.hpp:77] Creating layer inception_5a/5x5
I0403 15:40:17.810945 12210 net.cpp:91] Creating Layer inception_5a/5x5
I0403 15:40:17.810963 12210 net.cpp:425] inception_5a/5x5 <- inception_5a/5x5_reduce
I0403 15:40:17.810984 12210 net.cpp:399] inception_5a/5x5 -> inception_5a/5x5
I0403 15:40:17.812742 12210 net.cpp:141] Setting up inception_5a/5x5
I0403 15:40:17.812786 12210 net.cpp:148] Top shape: 24 128 7 7 (150528)
I0403 15:40:17.812803 12210 net.cpp:156] Memory required for data: 1299953184
I0403 15:40:17.812822 12210 layer_factory.hpp:77] Creating layer inception_5a/relu_5x5
I0403 15:40:17.812840 12210 net.cpp:91] Creating Layer inception_5a/relu_5x5
I0403 15:40:17.812856 12210 net.cpp:425] inception_5a/relu_5x5 <- inception_5a/5x5
I0403 15:40:17.812876 12210 net.cpp:386] inception_5a/relu_5x5 -> inception_5a/5x5 (in-place)
I0403 15:40:17.813074 12210 net.cpp:141] Setting up inception_5a/relu_5x5
I0403 15:40:17.813100 12210 net.cpp:148] Top shape: 24 128 7 7 (150528)
I0403 15:40:17.813115 12210 net.cpp:156] Memory required for data: 1300555296
I0403 15:40:17.813129 12210 layer_factory.hpp:77] Creating layer inception_5a/pool
I0403 15:40:17.813148 12210 net.cpp:91] Creating Layer inception_5a/pool
I0403 15:40:17.813163 12210 net.cpp:425] inception_5a/pool <- pool4/3x3_s2_pool4/3x3_s2_0_split_3
I0403 15:40:17.813184 12210 net.cpp:399] inception_5a/pool -> inception_5a/pool
I0403 15:40:17.813258 12210 net.cpp:141] Setting up inception_5a/pool
I0403 15:40:17.813282 12210 net.cpp:148] Top shape: 24 832 7 7 (978432)
I0403 15:40:17.813297 12210 net.cpp:156] Memory required for data: 1304469024
I0403 15:40:17.813311 12210 layer_factory.hpp:77] Creating layer inception_5a/pool_proj
I0403 15:40:17.813333 12210 net.cpp:91] Creating Layer inception_5a/pool_proj
I0403 15:40:17.813362 12210 net.cpp:425] inception_5a/pool_proj <- inception_5a/pool
I0403 15:40:17.813390 12210 net.cpp:399] inception_5a/pool_proj -> inception_5a/pool_proj
I0403 15:40:17.815830 12210 net.cpp:141] Setting up inception_5a/pool_proj
I0403 15:40:17.815860 12210 net.cpp:148] Top shape: 24 128 7 7 (150528)
I0403 15:40:17.815876 12210 net.cpp:156] Memory required for data: 1305071136
I0403 15:40:17.815894 12210 layer_factory.hpp:77] Creating layer inception_5a/relu_pool_proj
I0403 15:40:17.815914 12210 net.cpp:91] Creating Layer inception_5a/relu_pool_proj
I0403 15:40:17.815932 12210 net.cpp:425] inception_5a/relu_pool_proj <- inception_5a/pool_proj
I0403 15:40:17.815949 12210 net.cpp:386] inception_5a/relu_pool_proj -> inception_5a/pool_proj (in-place)
I0403 15:40:17.816253 12210 net.cpp:141] Setting up inception_5a/relu_pool_proj
I0403 15:40:17.816280 12210 net.cpp:148] Top shape: 24 128 7 7 (150528)
I0403 15:40:17.816295 12210 net.cpp:156] Memory required for data: 1305673248
I0403 15:40:17.816310 12210 layer_factory.hpp:77] Creating layer inception_5a/output
I0403 15:40:17.816329 12210 net.cpp:91] Creating Layer inception_5a/output
I0403 15:40:17.816346 12210 net.cpp:425] inception_5a/output <- inception_5a/1x1
I0403 15:40:17.816368 12210 net.cpp:425] inception_5a/output <- inception_5a/3x3
I0403 15:40:17.816385 12210 net.cpp:425] inception_5a/output <- inception_5a/5x5
I0403 15:40:17.816401 12210 net.cpp:425] inception_5a/output <- inception_5a/pool_proj
I0403 15:40:17.816416 12210 net.cpp:399] inception_5a/output -> inception_5a/output
I0403 15:40:17.816469 12210 net.cpp:141] Setting up inception_5a/output
I0403 15:40:17.816493 12210 net.cpp:148] Top shape: 24 832 7 7 (978432)
I0403 15:40:17.816507 12210 net.cpp:156] Memory required for data: 1309586976
I0403 15:40:17.816521 12210 layer_factory.hpp:77] Creating layer inception_5a/output_inception_5a/output_0_split
I0403 15:40:17.816540 12210 net.cpp:91] Creating Layer inception_5a/output_inception_5a/output_0_split
I0403 15:40:17.816555 12210 net.cpp:425] inception_5a/output_inception_5a/output_0_split <- inception_5a/output
I0403 15:40:17.816573 12210 net.cpp:399] inception_5a/output_inception_5a/output_0_split -> inception_5a/output_inception_5a/output_0_split_0
I0403 15:40:17.816594 12210 net.cpp:399] inception_5a/output_inception_5a/output_0_split -> inception_5a/output_inception_5a/output_0_split_1
I0403 15:40:17.816615 12210 net.cpp:399] inception_5a/output_inception_5a/output_0_split -> inception_5a/output_inception_5a/output_0_split_2
I0403 15:40:17.816635 12210 net.cpp:399] inception_5a/output_inception_5a/output_0_split -> inception_5a/output_inception_5a/output_0_split_3
I0403 15:40:17.816753 12210 net.cpp:141] Setting up inception_5a/output_inception_5a/output_0_split
I0403 15:40:17.816778 12210 net.cpp:148] Top shape: 24 832 7 7 (978432)
I0403 15:40:17.816794 12210 net.cpp:148] Top shape: 24 832 7 7 (978432)
I0403 15:40:17.816809 12210 net.cpp:148] Top shape: 24 832 7 7 (978432)
I0403 15:40:17.816824 12210 net.cpp:148] Top shape: 24 832 7 7 (978432)
I0403 15:40:17.816838 12210 net.cpp:156] Memory required for data: 1325241888
I0403 15:40:17.816851 12210 layer_factory.hpp:77] Creating layer inception_5b/1x1
I0403 15:40:17.816874 12210 net.cpp:91] Creating Layer inception_5b/1x1
I0403 15:40:17.816892 12210 net.cpp:425] inception_5b/1x1 <- inception_5a/output_inception_5a/output_0_split_0
I0403 15:40:17.816915 12210 net.cpp:399] inception_5b/1x1 -> inception_5b/1x1
I0403 15:40:17.820879 12210 net.cpp:141] Setting up inception_5b/1x1
I0403 15:40:17.820910 12210 net.cpp:148] Top shape: 24 384 7 7 (451584)
I0403 15:40:17.820926 12210 net.cpp:156] Memory required for data: 1327048224
I0403 15:40:17.820945 12210 layer_factory.hpp:77] Creating layer inception_5b/relu_1x1
I0403 15:40:17.820969 12210 net.cpp:91] Creating Layer inception_5b/relu_1x1
I0403 15:40:17.820986 12210 net.cpp:425] inception_5b/relu_1x1 <- inception_5b/1x1
I0403 15:40:17.821004 12210 net.cpp:386] inception_5b/relu_1x1 -> inception_5b/1x1 (in-place)
I0403 15:40:17.821336 12210 net.cpp:141] Setting up inception_5b/relu_1x1
I0403 15:40:17.821367 12210 net.cpp:148] Top shape: 24 384 7 7 (451584)
I0403 15:40:17.821382 12210 net.cpp:156] Memory required for data: 1328854560
I0403 15:40:17.821398 12210 layer_factory.hpp:77] Creating layer inception_5b/3x3_reduce
I0403 15:40:17.821421 12210 net.cpp:91] Creating Layer inception_5b/3x3_reduce
I0403 15:40:17.821439 12210 net.cpp:425] inception_5b/3x3_reduce <- inception_5a/output_inception_5a/output_0_split_1
I0403 15:40:17.821461 12210 net.cpp:399] inception_5b/3x3_reduce -> inception_5b/3x3_reduce
I0403 15:40:17.824239 12210 net.cpp:141] Setting up inception_5b/3x3_reduce
I0403 15:40:17.824270 12210 net.cpp:148] Top shape: 24 192 7 7 (225792)
I0403 15:40:17.824285 12210 net.cpp:156] Memory required for data: 1329757728
I0403 15:40:17.824303 12210 layer_factory.hpp:77] Creating layer inception_5b/relu_3x3_reduce
I0403 15:40:17.824324 12210 net.cpp:91] Creating Layer inception_5b/relu_3x3_reduce
I0403 15:40:17.824342 12210 net.cpp:425] inception_5b/relu_3x3_reduce <- inception_5b/3x3_reduce
I0403 15:40:17.824365 12210 net.cpp:386] inception_5b/relu_3x3_reduce -> inception_5b/3x3_reduce (in-place)
I0403 15:40:17.824566 12210 net.cpp:141] Setting up inception_5b/relu_3x3_reduce
I0403 15:40:17.824591 12210 net.cpp:148] Top shape: 24 192 7 7 (225792)
I0403 15:40:17.824607 12210 net.cpp:156] Memory required for data: 1330660896
I0403 15:40:17.824622 12210 layer_factory.hpp:77] Creating layer inception_5b/3x3
I0403 15:40:17.824645 12210 net.cpp:91] Creating Layer inception_5b/3x3
I0403 15:40:17.824662 12210 net.cpp:425] inception_5b/3x3 <- inception_5b/3x3_reduce
I0403 15:40:17.824687 12210 net.cpp:399] inception_5b/3x3 -> inception_5b/3x3
I0403 15:40:17.831890 12210 net.cpp:141] Setting up inception_5b/3x3
I0403 15:40:17.831923 12210 net.cpp:148] Top shape: 24 384 7 7 (451584)
I0403 15:40:17.831939 12210 net.cpp:156] Memory required for data: 1332467232
I0403 15:40:17.831960 12210 layer_factory.hpp:77] Creating layer inception_5b/relu_3x3
I0403 15:40:17.831979 12210 net.cpp:91] Creating Layer inception_5b/relu_3x3
I0403 15:40:17.831997 12210 net.cpp:425] inception_5b/relu_3x3 <- inception_5b/3x3
I0403 15:40:17.832015 12210 net.cpp:386] inception_5b/relu_3x3 -> inception_5b/3x3 (in-place)
I0403 15:40:17.832335 12210 net.cpp:141] Setting up inception_5b/relu_3x3
I0403 15:40:17.832368 12210 net.cpp:148] Top shape: 24 384 7 7 (451584)
I0403 15:40:17.832384 12210 net.cpp:156] Memory required for data: 1334273568
I0403 15:40:17.832401 12210 layer_factory.hpp:77] Creating layer inception_5b/5x5_reduce
I0403 15:40:17.832448 12210 net.cpp:91] Creating Layer inception_5b/5x5_reduce
I0403 15:40:17.832468 12210 net.cpp:425] inception_5b/5x5_reduce <- inception_5a/output_inception_5a/output_0_split_2
I0403 15:40:17.832489 12210 net.cpp:399] inception_5b/5x5_reduce -> inception_5b/5x5_reduce
I0403 15:40:17.833858 12210 net.cpp:141] Setting up inception_5b/5x5_reduce
I0403 15:40:17.833890 12210 net.cpp:148] Top shape: 24 48 7 7 (56448)
I0403 15:40:17.833907 12210 net.cpp:156] Memory required for data: 1334499360
I0403 15:40:17.833926 12210 layer_factory.hpp:77] Creating layer inception_5b/relu_5x5_reduce
I0403 15:40:17.833945 12210 net.cpp:91] Creating Layer inception_5b/relu_5x5_reduce
I0403 15:40:17.833962 12210 net.cpp:425] inception_5b/relu_5x5_reduce <- inception_5b/5x5_reduce
I0403 15:40:17.833981 12210 net.cpp:386] inception_5b/relu_5x5_reduce -> inception_5b/5x5_reduce (in-place)
I0403 15:40:17.834385 12210 net.cpp:141] Setting up inception_5b/relu_5x5_reduce
I0403 15:40:17.834414 12210 net.cpp:148] Top shape: 24 48 7 7 (56448)
I0403 15:40:17.834430 12210 net.cpp:156] Memory required for data: 1334725152
I0403 15:40:17.834445 12210 layer_factory.hpp:77] Creating layer inception_5b/5x5
I0403 15:40:17.834467 12210 net.cpp:91] Creating Layer inception_5b/5x5
I0403 15:40:17.834486 12210 net.cpp:425] inception_5b/5x5 <- inception_5b/5x5_reduce
I0403 15:40:17.834506 12210 net.cpp:399] inception_5b/5x5 -> inception_5b/5x5
I0403 15:40:17.836742 12210 net.cpp:141] Setting up inception_5b/5x5
I0403 15:40:17.836774 12210 net.cpp:148] Top shape: 24 128 7 7 (150528)
I0403 15:40:17.836791 12210 net.cpp:156] Memory required for data: 1335327264
I0403 15:40:17.836810 12210 layer_factory.hpp:77] Creating layer inception_5b/relu_5x5
I0403 15:40:17.836829 12210 net.cpp:91] Creating Layer inception_5b/relu_5x5
I0403 15:40:17.836846 12210 net.cpp:425] inception_5b/relu_5x5 <- inception_5b/5x5
I0403 15:40:17.836868 12210 net.cpp:386] inception_5b/relu_5x5 -> inception_5b/5x5 (in-place)
I0403 15:40:17.837080 12210 net.cpp:141] Setting up inception_5b/relu_5x5
I0403 15:40:17.837105 12210 net.cpp:148] Top shape: 24 128 7 7 (150528)
I0403 15:40:17.837121 12210 net.cpp:156] Memory required for data: 1335929376
I0403 15:40:17.837136 12210 layer_factory.hpp:77] Creating layer inception_5b/pool
I0403 15:40:17.837155 12210 net.cpp:91] Creating Layer inception_5b/pool
I0403 15:40:17.837172 12210 net.cpp:425] inception_5b/pool <- inception_5a/output_inception_5a/output_0_split_3
I0403 15:40:17.837194 12210 net.cpp:399] inception_5b/pool -> inception_5b/pool
I0403 15:40:17.837273 12210 net.cpp:141] Setting up inception_5b/pool
I0403 15:40:17.837298 12210 net.cpp:148] Top shape: 24 832 7 7 (978432)
I0403 15:40:17.837313 12210 net.cpp:156] Memory required for data: 1339843104
I0403 15:40:17.837328 12210 layer_factory.hpp:77] Creating layer inception_5b/pool_proj
I0403 15:40:17.837358 12210 net.cpp:91] Creating Layer inception_5b/pool_proj
I0403 15:40:17.837378 12210 net.cpp:425] inception_5b/pool_proj <- inception_5b/pool
I0403 15:40:17.837398 12210 net.cpp:399] inception_5b/pool_proj -> inception_5b/pool_proj
I0403 15:40:17.839877 12210 net.cpp:141] Setting up inception_5b/pool_proj
I0403 15:40:17.839910 12210 net.cpp:148] Top shape: 24 128 7 7 (150528)
I0403 15:40:17.839928 12210 net.cpp:156] Memory required for data: 1340445216
I0403 15:40:17.839947 12210 layer_factory.hpp:77] Creating layer inception_5b/relu_pool_proj
I0403 15:40:17.839967 12210 net.cpp:91] Creating Layer inception_5b/relu_pool_proj
I0403 15:40:17.839983 12210 net.cpp:425] inception_5b/relu_pool_proj <- inception_5b/pool_proj
I0403 15:40:17.840001 12210 net.cpp:386] inception_5b/relu_pool_proj -> inception_5b/pool_proj (in-place)
I0403 15:40:17.840319 12210 net.cpp:141] Setting up inception_5b/relu_pool_proj
I0403 15:40:17.840353 12210 net.cpp:148] Top shape: 24 128 7 7 (150528)
I0403 15:40:17.840373 12210 net.cpp:156] Memory required for data: 1341047328
I0403 15:40:17.840387 12210 layer_factory.hpp:77] Creating layer inception_5b/output
I0403 15:40:17.840405 12210 net.cpp:91] Creating Layer inception_5b/output
I0403 15:40:17.840438 12210 net.cpp:425] inception_5b/output <- inception_5b/1x1
I0403 15:40:17.840456 12210 net.cpp:425] inception_5b/output <- inception_5b/3x3
I0403 15:40:17.840473 12210 net.cpp:425] inception_5b/output <- inception_5b/5x5
I0403 15:40:17.840489 12210 net.cpp:425] inception_5b/output <- inception_5b/pool_proj
I0403 15:40:17.840507 12210 net.cpp:399] inception_5b/output -> inception_5b/output
I0403 15:40:17.840565 12210 net.cpp:141] Setting up inception_5b/output
I0403 15:40:17.840591 12210 net.cpp:148] Top shape: 24 1024 7 7 (1204224)
I0403 15:40:17.840606 12210 net.cpp:156] Memory required for data: 1345864224
I0403 15:40:17.840621 12210 layer_factory.hpp:77] Creating layer pool5/7x7_s1
I0403 15:40:17.840641 12210 net.cpp:91] Creating Layer pool5/7x7_s1
I0403 15:40:17.840658 12210 net.cpp:425] pool5/7x7_s1 <- inception_5b/output
I0403 15:40:17.840677 12210 net.cpp:399] pool5/7x7_s1 -> pool5/7x7_s1
I0403 15:40:17.840914 12210 net.cpp:141] Setting up pool5/7x7_s1
I0403 15:40:17.840942 12210 net.cpp:148] Top shape: 24 1024 1 1 (24576)
I0403 15:40:17.840958 12210 net.cpp:156] Memory required for data: 1345962528
I0403 15:40:17.840973 12210 layer_factory.hpp:77] Creating layer pool5/drop_7x7_s1
I0403 15:40:17.840991 12210 net.cpp:91] Creating Layer pool5/drop_7x7_s1
I0403 15:40:17.841008 12210 net.cpp:425] pool5/drop_7x7_s1 <- pool5/7x7_s1
I0403 15:40:17.841027 12210 net.cpp:386] pool5/drop_7x7_s1 -> pool5/7x7_s1 (in-place)
I0403 15:40:17.841083 12210 net.cpp:141] Setting up pool5/drop_7x7_s1
I0403 15:40:17.841106 12210 net.cpp:148] Top shape: 24 1024 1 1 (24576)
I0403 15:40:17.841120 12210 net.cpp:156] Memory required for data: 1346060832
I0403 15:40:17.841135 12210 layer_factory.hpp:77] Creating layer loss3/classifier_plantvillage
I0403 15:40:17.841159 12210 net.cpp:91] Creating Layer loss3/classifier_plantvillage
I0403 15:40:17.841178 12210 net.cpp:425] loss3/classifier_plantvillage <- pool5/7x7_s1
I0403 15:40:17.841199 12210 net.cpp:399] loss3/classifier_plantvillage -> loss3/classifier_plantvillage
I0403 15:40:17.841663 12210 net.cpp:141] Setting up loss3/classifier_plantvillage
I0403 15:40:17.841691 12210 net.cpp:148] Top shape: 24 38 (912)
I0403 15:40:17.841706 12210 net.cpp:156] Memory required for data: 1346064480
I0403 15:40:17.841723 12210 layer_factory.hpp:77] Creating layer loss3/classifier_plantvillage_loss3/classifier_plantvillage_0_split
I0403 15:40:17.841742 12210 net.cpp:91] Creating Layer loss3/classifier_plantvillage_loss3/classifier_plantvillage_0_split
I0403 15:40:17.841758 12210 net.cpp:425] loss3/classifier_plantvillage_loss3/classifier_plantvillage_0_split <- loss3/classifier_plantvillage
I0403 15:40:17.841779 12210 net.cpp:399] loss3/classifier_plantvillage_loss3/classifier_plantvillage_0_split -> loss3/classifier_plantvillage_loss3/classifier_plantvillage_0_split_0
I0403 15:40:17.841801 12210 net.cpp:399] loss3/classifier_plantvillage_loss3/classifier_plantvillage_0_split -> loss3/classifier_plantvillage_loss3/classifier_plantvillage_0_split_1
I0403 15:40:17.841823 12210 net.cpp:399] loss3/classifier_plantvillage_loss3/classifier_plantvillage_0_split -> loss3/classifier_plantvillage_loss3/classifier_plantvillage_0_split_2
I0403 15:40:17.841846 12210 net.cpp:399] loss3/classifier_plantvillage_loss3/classifier_plantvillage_0_split -> loss3/classifier_plantvillage_loss3/classifier_plantvillage_0_split_3
I0403 15:40:17.841956 12210 net.cpp:141] Setting up loss3/classifier_plantvillage_loss3/classifier_plantvillage_0_split
I0403 15:40:17.841981 12210 net.cpp:148] Top shape: 24 38 (912)
I0403 15:40:17.841998 12210 net.cpp:148] Top shape: 24 38 (912)
I0403 15:40:17.842013 12210 net.cpp:148] Top shape: 24 38 (912)
I0403 15:40:17.842030 12210 net.cpp:148] Top shape: 24 38 (912)
I0403 15:40:17.842042 12210 net.cpp:156] Memory required for data: 1346079072
I0403 15:40:17.842057 12210 layer_factory.hpp:77] Creating layer loss1/loss
I0403 15:40:17.842080 12210 net.cpp:91] Creating Layer loss1/loss
I0403 15:40:17.842099 12210 net.cpp:425] loss1/loss <- loss1/classifier_plantvillage_loss1/classifier_plantvillage_0_split_0
I0403 15:40:17.842133 12210 net.cpp:425] loss1/loss <- label_data_1_split_0
…
