…
I0403 15:46:23.559607 12479 net.cpp:313] The NetState phase (1) differed from the phase (0) specified by a rule in layer data
I0403 15:46:23.560786 12479 net.cpp:49] Initializing net from parameters: 
state {
  phase: TEST
}
layer {
  name: "data"
  type: "Data"
  top: "data"
  top: "label"
  include {
    phase: TEST
  }
  transform_param {
    mirror: false
    crop_size: 224
    mean_file: "/home/mohanty/data/final_dataset/lmdb/segmented-40-60/mean.binaryproto"
  }
  data_param {
    source: "/home/mohanty/data/final_dataset/lmdb/segmented-40-60/test_db"
    batch_size: 24
    backend: LMDB
  }
}
layer {
  name: "conv1/7x7_s2"
  type: "Convolution"
  bottom: "data"
  top: "conv1/7x7_s2"
  param {
    lr_mult: 1
    decay_mult: 1
  }
  param {
    lr_mult: 2
    decay_mult: 0
  }
  convolution_param {
    num_output: 64
    pad: 3
    kernel_size: 7
    stride: 2
    weight_filler {
      type: "xavier"
      std: 0.1
    }
    bias_filler {
      type: "constant"
      value: 0.2
    }
  }
}
layer {
  name: "conv1/relu_7x7"
  type: "ReLU"
  bottom: "conv1/7x7_s2"
  top: "conv1/7x7_s2"
}
layer {
  name: "pool1/3x3_s2"
  type: "Pooling"
  bottom: "conv1/7x7_s2"
  top: "pool1/3x3_s2"
  pooling_param {
    pool: MAX
    kernel_size: 3
    stride: 2
  }
}
layer {
  name: "pool1/norm1"
  type: "LRN"
  bottom: "pool1/3x3_s2"
  top: "pool1/norm1"
  lrn_param {
    local_size: 5
    alpha: 0.0001
    beta: 0.75
  }
}
layer {
  name: "conv2/3x3_reduce"
  type: "Convolution"
  bottom: "pool1/norm1"
  top: "conv2/3x3_reduce"
  param {
    lr_mult: 1
    decay_mult: 1
  }
  param {
    lr_mult: 2
    decay_mult: 0
  }
  convolution_param {
    num_output: 64
    kernel_size: 1
    weight_filler {
      type: "xavier"
      std: 0.1
    }
    bias_filler {
      type: "constant"
      value: 0.2
    }
  }
}
layer {
  name: "conv2/relu_3x3_reduce"
  type: "ReLU"
  bottom: "conv2/3x3_reduce"
  top: "conv2/3x3_reduce"
}
layer {
  name: "conv2/3x3"
  type: "Convolution"
  bottom: "conv2/3x3_reduce"
  top: "conv2/3x3"
  param {
    lr_mult: 1
    decay_mult: 1
  }
  param {
    lr_mult: 2
    decay_mult: 0
  }
  convolution_param {
    num_output: 192
    pad: 1
    kernel_size: 3
    weight_filler {
      type: "xavier"
      std: 0.03
    }
    bias_filler {
      type: "constant"
      value: 0.2
    }
  }
}
layer {
  name: "conv2/relu_3x3"
  type: "ReLU"
  bottom: "conv2/3x3"
  top: "conv2/3x3"
}
layer {
  name: "conv2/norm2"
  type: "LRN"
  bottom: "conv2/3x3"
  top: "conv2/norm2"
  lrn_param {
    local_size: 5
    alpha: 0.0001
    beta: 0.75
  }
}
layer {
  name: "pool2/3x3_s2"
  type: "Pooling"
  bottom: "conv2/norm2"
  top: "pool2/3x3_s2"
  pooling_param {
    pool: MAX
    kernel_size: 3
    stride: 2
  }
}
layer {
  name: "inception_3a/1x1"
  type: "Convolution"
  bottom: "pool2/3x3_s2"
  top: "inception_3a/1x1"
  param {
    lr_mult: 1
    decay_mult: 1
  }
  param {
    lr_mult: 2
    decay_mult: 0
  }
  convolution_param {
    num_output: 64
    kernel_size: 1
    weight_filler {
      type: "xavier"
      std: 0.03
    }
    bias_filler {
      type: "constant"
      value: 0.2
    }
  }
}
layer {
  name: "inception_3a/relu_1x1"
  type: "ReLU"
  bottom: "inception_3a/1x1"
  top: "inception_3a/1x1"
}
layer {
  name: "inception_3a/3x3_reduce"
  type: "Convolution"
  bottom: "pool2/3x3_s2"
  top: "inception_3a/3x3_reduce"
  param {
    lr_mult: 1
    decay_mult: 1
  }
  param {
    lr_mult: 2
    decay_mult: 0
  }
  convolution_param {
    num_output: 96
    kernel_size: 1
    weight_filler {
      type: "xavier"
      std: 0.09
    }
    bias_filler {
      type: "constant"
      value: 0.2
    }
  }
}
layer {
  name: "inception_3a/relu_3x3_reduce"
  type: "ReLU"
  bottom: "inception_3a/3x3_reduce"
  top: "inception_3a/3x3_reduce"
}
layer {
  name: "inception_3a/3x3"
  type: "Convolution"
  bottom: "inception_3a/3x3_reduce"
  top: "inception_3a/3x3"
  param {
    lr_mult: 1
    decay_mult: 1
  }
  param {
    lr_mult: 2
    decay_mult: 0
  }
  convolution_param {
    num_output: 128
    pad: 1
    kernel_size: 3
    weight_filler {
      type: "xavier"
      std: 0.03
    }
    bias_filler {
      type: "constant"
      value: 0.2
    }
  }
}
layer {
  name: "inception_3a/relu_3x3"
  type: "ReLU"
  bottom: "inception_3a/3x3"
  top: "inception_3a/3x3"
}
layer {
  name: "inception_3a/5x5_reduce"
  type: "Convolution"
  bottom: "pool2/3x3_s2"
  top: "inception_3a/5x5_reduce"
  param {
    lr_mult: 1
    decay_mult: 1
  }
  param {
    lr_mult: 2
    decay_mult: 0
  }
  convolution_param {
    num_output: 16
    kernel_size: 1
    weight_filler {
      type: "xavier"
      std: 0.2
    }
    bias_filler {
      type: "constant"
      value: 0.2
    }
  }
}
layer {
  name: "inception_3a/relu_5x5_reduce"
  type: "ReLU"
  bottom: "inception_3a/5x5_reduce"
  top: "inception_3a/5x5_reduce"
}
layer {
  name: "inception_3a/5x5"
  type: "Convolution"
  bottom: "inception_3a/5x5_reduce"
  top: "inception_3a/5x5"
  param {
    lr_mult: 1
    decay_mult: 1
  }
  param {
    lr_mult: 2
    decay_mult: 0
  }
  convolution_param {
    num_output: 32
    pad: 2
    kernel_size: 5
    weight_filler {
      type: "xavier"
      std: 0.03
    }
    bias_filler {
      type: "constant"
      value: 0.2
    }
  }
}
layer {
  name: "inception_3a/relu_5x5"
  type: "ReLU"
  bottom: "inception_3a/5x5"
  top: "inception_3a/5x5"
}
layer {
  name: "inception_3a/pool"
  type: "Pooling"
  bottom: "pool2/3x3_s2"
  top: "inception_3a/pool"
  pooling_param {
    pool: MAX
    kernel_size: 3
    stride: 1
    pad: 1
  }
}
layer {
  name: "inception_3a/pool_proj"
  type: "Convolution"
  bottom: "inception_3a/pool"
  top: "inception_3a/pool_proj"
  param {
    lr_mult: 1
    decay_mult: 1
  }
  param {
    lr_mult: 2
    decay_mult: 0
  }
  convolution_param {
    num_output: 32
    kernel_size: 1
    weight_filler {
      type: "xavier"
      std: 0.1
    }
    bias_filler {
      type: "constant"
      value: 0.2
    }
  }
}
layer {
  name: "inception_3a/relu_pool_proj"
  type: "ReLU"
  bottom: "inception_3a/pool_proj"
  top: "inception_3a/pool_proj"
}
layer {
  name: "inception_3a/output"
  type: "Concat"
  bottom: "inception_3a/1x1"
  bottom: "inception_3a/3x3"
  bottom: "inception_3a/5x5"
  bottom: "inception_3a/pool_proj"
  top: "inception_3a/output"
}
layer {
  name: "inception_3b/1x1"
  type: "Convolution"
  bottom: "inception_3a/output"
  top: "inception_3b/1x1"
  param {
    lr_mult: 1
    decay_mult: 1
  }
  param {
    lr_mult: 2
    decay_mult: 0
  }
  convolution_param {
    num_output: 128
    kernel_size: 1
    weight_filler {
      type: "xavier"
      std: 0.03
    }
    bias_filler {
      type: "constant"
      value: 0.2
    }
  }
}
layer {
  name: "inception_3b/relu_1x1"
  type: "ReLU"
  bottom: "inception_3b/1x1"
  top: "inception_3b/1x1"
}
layer {
  name: "inception_3b/3x3_reduce"
  type: "Convolution"
  bottom: "inception_3a/output"
  top: "inception_3b/3x3_reduce"
  param {
    lr_mult: 1
    decay_mult: 1
  }
  param {
    lr_mult: 2
    decay_mult: 0
  }
  convolution_param {
    num_output: 128
    kernel_size: 1
    weight_filler {
      type: "xavier"
      std: 0.09
    }
    bias_filler {
      type: "constant"
      value: 0.2
    }
  }
}
layer {
  name: "inception_3b/relu_3x3_reduce"
  type: "ReLU"
  bottom: "inception_3b/3x3_reduce"
  top: "inception_3b/3x3_reduce"
}
layer {
  name: "inception_3b/3x3"
  type: "Convolution"
  bottom: "inception_3b/3x3_reduce"
  top: "inception_3b/3x3"
  param {
    lr_mult: 1
    decay_mult: 1
  }
  param {
    lr_mult: 2
    decay_mult: 0
  }
  convolution_param {
    num_output: 192
    pad: 1
    kernel_size: 3
    weight_filler {
      type: "xavier"
      std: 0.03
    }
    bias_filler {
      type: "constant"
      value: 0.2
    }
  }
}
layer {
  name: "inception_3b/relu_3x3"
  type: "ReLU"
  bottom: "inception_3b/3x3"
  top: "inception_3b/3x3"
}
layer {
  name: "inception_3b/5x5_reduce"
  type: "Convolution"
  bottom: "inception_3a/output"
  top: "inception_3b/5x5_reduce"
  param {
    lr_mult: 1
    decay_mult: 1
  }
  param {
    lr_mult: 2
    decay_mult: 0
  }
  convolution_param {
    num_output: 32
    kernel_size: 1
    weight_filler {
      type: "xavier"
      std: 0.2
    }
    bias_filler {
      type: "constant"
      value: 0.2
    }
  }
}
layer {
  name: "inception_3b/relu_5x5_reduce"
  type: "ReLU"
  bottom: "inception_3b/5x5_reduce"
  top: "inception_3b/5x5_reduce"
}
layer {
  name: "inception_3b/5x5"
  type: "Convolution"
  bottom: "inception_3b/5x5_reduce"
  top: "inception_3b/5x5"
  param {
    lr_mult: 1
    decay_mult: 1
  }
  param {
    lr_mult: 2
    decay_mult: 0
  }
  convolution_param {
    num_output: 96
    pad: 2
    kernel_size: 5
    weight_filler {
      type: "xavier"
      std: 0.03
    }
    bias_filler {
      type: "constant"
      value: 0.2
    }
  }
}
layer {
  name: "inception_3b/relu_5x5"
  type: "ReLU"
  bottom: "inception_3b/5x5"
  top: "inception_3b/5x5"
}
layer {
  name: "inception_3b/pool"
  type: "Pooling"
  bottom: "inception_3a/output"
  top: "inception_3b/pool"
  pooling_param {
    pool: MAX
    kernel_size: 3
    stride: 1
    pad: 1
  }
}
layer {
  name: "inception_3b/pool_proj"
  type: "Convolution"
  bottom: "inception_3b/pool"
  top: "inception_3b/pool_proj"
  param {
    lr_mult: 1
    decay_mult: 1
  }
  param {
    lr_mult: 2
    decay_mult: 0
  }
  convolution_param {
    num_output: 64
    kernel_size: 1
    weight_filler {
      type: "xavier"
      std: 0.1
    }
    bias_filler {
      type: "constant"
      value: 0.2
    }
  }
}
layer {
  name: "inception_3b/relu_pool_proj"
  type: "ReLU"
  bottom: "inception_3b/pool_proj"
  top: "inception_3b/pool_proj"
}
layer {
  name: "inception_3b/output"
  type: "Concat"
  bottom: "inception_3b/1x1"
  bottom: "inception_3b/3x3"
  bottom: "inception_3b/5x5"
  bottom: "inception_3b/pool_proj"
  top: "inception_3b/output"
}
layer {
  name: "pool3/3x3_s2"
  type: "Pooling"
  bottom: "inception_3b/output"
  top: "pool3/3x3_s2"
  pooling_param {
    pool: MAX
    kernel_size: 3
    stride: 2
  }
}
layer {
  name: "inception_4a/1x1"
  type: "Convolution"
  bottom: "pool3/3x3_s2"
  top: "inception_4a/1x1"
  param {
    lr_mult: 1
    decay_mult: 1
  }
  param {
    lr_mult: 2
    decay_mult: 0
  }
  convolution_param {
    num_output: 192
    kernel_size: 1
    weight_filler {
      type: "xavier"
      std: 0.03
    }
    bias_filler {
      type: "constant"
      value: 0.2
    }
  }
}
layer {
  name: "inception_4a/relu_1x1"
  type: "ReLU"
  bottom: "inception_4a/1x1"
  top: "inception_4a/1x1"
}
layer {
  name: "inception_4a/3x3_reduce"
  type: "Convolution"
  bottom: "pool3/3x3_s2"
  top: "inception_4a/3x3_reduce"
  param {
    lr_mult: 1
    decay_mult: 1
  }
  param {
    lr_mult: 2
    decay_mult: 0
  }
  convolution_param {
    num_output: 96
    kernel_size: 1
    weight_filler {
      type: "xavier"
      std: 0.09
    }
    bias_filler {
      type: "constant"
      value: 0.2
    }
  }
}
layer {
  name: "inception_4a/relu_3x3_reduce"
  type: "ReLU"
  bottom: "inception_4a/3x3_reduce"
  top: "inception_4a/3x3_reduce"
}
layer {
  name: "inception_4a/3x3"
  type: "Convolution"
  bottom: "inception_4a/3x3_reduce"
  top: "inception_4a/3x3"
  param {
    lr_mult: 1
    decay_mult: 1
  }
  param {
    lr_mult: 2
    decay_mult: 0
  }
  convolution_param {
    num_output: 208
    pad: 1
    kernel_size: 3
    weight_filler {
      type: "xavier"
      std: 0.03
    }
    bias_filler {
      type: "constant"
      value: 0.2
    }
  }
}
layer {
  name: "inception_4a/relu_3x3"
  type: "ReLU"
  bottom: "inception_4a/3x3"
  top: "inception_4a/3x3"
}
layer {
  name: "inception_4a/5x5_reduce"
  type: "Convolution"
  bottom: "pool3/3x3_s2"
  top: "inception_4a/5x5_reduce"
  param {
    lr_mult: 1
    decay_mult: 1
  }
  param {
    lr_mult: 2
    decay_mult: 0
  }
  convolution_param {
    num_output: 16
    kernel_size: 1
    weight_filler {
      type: "xavier"
      std: 0.2
    }
    bias_filler {
      type: "constant"
      value: 0.2
    }
  }
}
layer {
  name: "inception_4a/relu_5x5_reduce"
  type: "ReLU"
  bottom: "inception_4a/5x5_reduce"
  top: "inception_4a/5x5_reduce"
}
layer {
  name: "inception_4a/5x5"
  type: "Convolution"
  bottom: "inception_4a/5x5_reduce"
  top: "inception_4a/5x5"
  param {
    lr_mult: 1
    decay_mult: 1
  }
  param {
    lr_mult: 2
    decay_mult: 0
  }
  convolution_param {
    num_output: 48
    pad: 2
    kernel_size: 5
    weight_filler {
      type: "xavier"
      std: 0.03
    }
    bias_filler {
      type: "constant"
      value: 0.2
    }
  }
}
layer {
  name: "inception_4a/relu_5x5"
  type: "ReLU"
  bottom: "inception_4a/5x5"
  top: "inception_4a/5x5"
}
layer {
  name: "inception_4a/pool"
  type: "Pooling"
  bottom: "pool3/3x3_s2"
  top: "inception_4a/pool"
  pooling_param {
    pool: MAX
    kernel_size: 3
    stride: 1
    pad: 1
  }
}
layer {
  name: "inception_4a/pool_proj"
  type: "Convolution"
  bottom: "inception_4a/pool"
  top: "inception_4a/pool_proj"
  param {
    lr_mult: 1
    decay_mult: 1
  }
  param {
    lr_mult: 2
    decay_mult: 0
  }
  convolution_param {
    num_output: 64
    kernel_size: 1
    weight_filler {
      type: "xavier"
      std: 0.1
    }
    bias_filler {
      type: "constant"
      value: 0.2
    }
  }
}
layer {
  name: "inception_4a/relu_pool_proj"
  type: "ReLU"
  bottom: "inception_4a/pool_proj"
  top: "inception_4a/pool_proj"
}
layer {
  name: "inception_4a/output"
  type: "Concat"
  bottom: "inception_4a/1x1"
  bottom: "inception_4a/3x3"
  bottom: "inception_4a/5x5"
  bottom: "inception_4a/pool_proj"
  top: "inception_4a/output"
}
layer {
  name: "loss1/ave_pool"
  type: "Pooling"
  bottom: "inception_4a/output"
  top: "loss1/ave_pool"
  pooling_param {
    pool: AVE
    kernel_size: 5
    stride: 3
  }
}
layer {
  name: "loss1/conv"
  type: "Convolution"
  bottom: "loss1/ave_pool"
  top: "loss1/conv"
  param {
    lr_mult: 1
    decay_mult: 1
  }
  param {
    lr_mult: 2
    decay_mult: 0
  }
  convolution_param {
    num_output: 128
    kernel_size: 1
    weight_filler {
      type: "xavier"
      std: 0.08
    }
    bias_filler {
      type: "constant"
      value: 0.2
    }
  }
}
layer {
  name: "loss1/relu_conv"
  type: "ReLU"
  bottom: "loss1/conv"
  top: "loss1/conv"
}
layer {
  name: "loss1/fc"
  type: "InnerProduct"
  bottom: "loss1/conv"
  top: "loss1/fc"
  param {
    lr_mult: 1
    decay_mult: 1
  }
  param {
    lr_mult: 2
    decay_mult: 0
  }
  inner_product_param {
    num_output: 1024
    weight_filler {
      type: "xavier"
      std: 0.02
    }
    bias_filler {
      type: "constant"
      value: 0.2
    }
  }
}
layer {
  name: "loss1/relu_fc"
  type: "ReLU"
  bottom: "loss1/fc"
  top: "loss1/fc"
}
layer {
  name: "loss1/drop_fc"
  type: "Dropout"
  bottom: "loss1/fc"
  top: "loss1/fc"
  dropout_param {
    dropout_ratio: 0.7
  }
}
layer {
  name: "loss1/classifier_plantvillage"
  type: "InnerProduct"
  bottom: "loss1/fc"
  top: "loss1/classifier_plantvillage"
  param {
    lr_mult: 1
    decay_mult: 1
  }
  param {
    lr_mult: 2
    decay_mult: 0
  }
  inner_product_param {
    num_output: 38
    weight_filler {
      type: "xavier"
      std: 0.0009765625
    }
    bias_filler {
      type: "constant"
      value: 0
    }
  }
}
layer {
  name: "inception_4b/1x1"
  type: "Convolution"
  bottom: "inception_4a/output"
  top: "inception_4b/1x1"
  param {
    lr_mult: 1
    decay_mult: 1
  }
  param {
    lr_mult: 2
    decay_mult: 0
  }
  convolution_param {
    num_output: 160
    kernel_size: 1
    weight_filler {
      type: "xavier"
      std: 0.03
    }
    bias_filler {
      type: "constant"
      value: 0.2
    }
  }
}
layer {
  name: "inception_4b/relu_1x1"
  type: "ReLU"
  bottom: "inception_4b/1x1"
  top: "inception_4b/1x1"
}
layer {
  name: "inception_4b/3x3_reduce"
  type: "Convolution"
  bottom: "inception_4a/output"
  top: "inception_4b/3x3_reduce"
  param {
    lr_mult: 1
    decay_mult: 1
  }
  param {
    lr_mult: 2
    decay_mult: 0
  }
  convolution_param {
    num_output: 112
    kernel_size: 1
    weight_filler {
      type: "xavier"
      std: 0.09
    }
    bias_filler {
      type: "constant"
      value: 0.2
    }
  }
}
layer {
  name: "inception_4b/relu_3x3_reduce"
  type: "ReLU"
  bottom: "inception_4b/3x3_reduce"
  top: "inception_4b/3x3_reduce"
}
layer {
  name: "inception_4b/3x3"
  type: "Convolution"
  bottom: "inception_4b/3x3_reduce"
  top: "inception_4b/3x3"
  param {
    lr_mult: 1
    decay_mult: 1
  }
  param {
    lr_mult: 2
    decay_mult: 0
  }
  convolution_param {
    num_output: 224
    pad: 1
    kernel_size: 3
    weight_filler {
      type: "xavier"
      std: 0.03
    }
    bias_filler {
      type: "constant"
      value: 0.2
    }
  }
}
layer {
  name: "inception_4b/relu_3x3"
  type: "ReLU"
  bottom: "inception_4b/3x3"
  top: "inception_4b/3x3"
}
layer {
  name: "inception_4b/5x5_reduce"
  type: "Convolution"
  bottom: "inception_4a/output"
  top: "inception_4b/5x5_reduce"
  param {
    lr_mult: 1
    decay_mult: 1
  }
  param {
    lr_mult: 2
    decay_mult: 0
  }
  convolution_param {
    num_output: 24
    kernel_size: 1
    weight_filler {
      type: "xavier"
      std: 0.2
    }
    bias_filler {
      type: "constant"
      value: 0.2
    }
  }
}
layer {
  name: "inception_4b/relu_5x5_reduce"
  type: "ReLU"
  bottom: "inception_4b/5x5_reduce"
  top: "inception_4b/5x5_reduce"
}
layer {
  name: "inception_4b/5x5"
  type: "Convolution"
  bottom: "inception_4b/5x5_reduce"
  top: "inception_4b/5x5"
  param {
    lr_mult: 1
    decay_mult: 1
  }
  param {
    lr_mult: 2
    decay_mult: 0
  }
  convolution_param {
    num_output: 64
    pad: 2
    kernel_size: 5
    weight_filler {
      type: "xavier"
      std: 0.03
    }
    bias_filler {
      type: "constant"
      value: 0.2
    }
  }
}
layer {
  name: "inception_4b/relu_5x5"
  type: "ReLU"
  bottom: "inception_4b/5x5"
  top: "inception_4b/5x5"
}
layer {
  name: "inception_4b/pool"
  type: "Pooling"
  bottom: "inception_4a/output"
  top: "inception_4b/pool"
  pooling_param {
    pool: MAX
    kernel_size: 3
    stride: 1
    pad: 1
  }
}
layer {
  name: "inception_4b/pool_proj"
  type: "Convolution"
  bottom: "inception_4b/pool"
  top: "inception_4b/pool_proj"
  param {
    lr_mult: 1
    decay_mult: 1
  }
  param {
    lr_mult: 2
    decay_mult: 0
  }
  convolution_param {
    num_output: 64
    kernel_size: 1
    weight_filler {
      type: "xavier"
      std: 0.1
    }
    bias_filler {
      type: "constant"
      value: 0.2
    }
  }
}
layer {
  name: "inception_4b/relu_pool_proj"
  type: "ReLU"
  bottom: "inception_4b/pool_proj"
  top: "inception_4b/pool_proj"
}
layer {
  name: "inception_4b/output"
  type: "Concat"
  bottom: "inception_4b/1x1"
  bottom: "inception_4b/3x3"
  bottom: "inception_4b/5x5"
  bottom: "inception_4b/pool_proj"
  top: "inception_4b/output"
}
layer {
  name: "inception_4c/1x1"
  type: "Convolution"
  bottom: "inception_4b/output"
  top: "inception_4c/1x1"
  param {
    lr_mult: 1
    decay_mult: 1
  }
  param {
    lr_mult: 2
    decay_mult: 0
  }
  convolution_param {
    num_output: 128
    kernel_size: 1
    weight_filler {
      type: "xavier"
      std: 0.03
    }
    bias_filler {
      type: "constant"
      value: 0.2
    }
  }
}
layer {
  name: "inception_4c/relu_1x1"
  type: "ReLU"
  bottom: "inception_4c/1x1"
  top: "inception_4c/1x1"
}
layer {
  name: "inception_4c/3x3_reduce"
  type: "Convolution"
  bottom: "inception_4b/output"
  top: "inception_4c/3x3_reduce"
  param {
    lr_mult: 1
    decay_mult: 1
  }
  param {
    lr_mult: 2
    decay_mult: 0
  }
  convolution_param {
    num_output: 128
    kernel_size: 1
    weight_filler {
      type: "xavier"
      std: 0.09
    }
    bias_filler {
      type: "constant"
      value: 0.2
    }
  }
}
layer {
  name: "inception_4c/relu_3x3_reduce"
  type: "ReLU"
  bottom: "inception_4c/3x3_reduce"
  top: "inception_4c/3x3_reduce"
}
layer {
  name: "inception_4c/3x3"
  type: "Convolution"
  bottom: "inception_4c/3x3_reduce"
  top: "inception_4c/3x3"
  param {
    lr_mult: 1
    decay_mult: 1
  }
  param {
    lr_mult: 2
    decay_mult: 0
  }
  convolution_param {
    num_output: 256
    pad: 1
    kernel_size: 3
    weight_filler {
      type: "xavier"
      std: 0.03
    }
    bias_filler {
      type: "constant"
      value: 0.2
    }
  }
}
layer {
  name: "inception_4c/relu_3x3"
  type: "ReLU"
  bottom: "inception_4c/3x3"
  top: "inception_4c/3x3"
}
layer {
  name: "inception_4c/5x5_reduce"
  type: "Convolution"
  bottom: "inception_4b/output"
  top: "inception_4c/5x5_reduce"
  param {
    lr_mult: 1
    decay_mult: 1
  }
  param {
    lr_mult: 2
    decay_mult: 0
  }
  convolution_param {
    num_output: 24
    kernel_size: 1
    weight_filler {
      type: "xavier"
      std: 0.2
    }
    bias_filler {
      type: "constant"
      value: 0.2
    }
  }
}
layer {
  name: "inception_4c/relu_5x5_reduce"
  type: "ReLU"
  bottom: "inception_4c/5x5_reduce"
  top: "inception_4c/5x5_reduce"
}
layer {
  name: "inception_4c/5x5"
  type: "Convolution"
  bottom: "inception_4c/5x5_reduce"
  top: "inception_4c/5x5"
  param {
    lr_mult: 1
    decay_mult: 1
  }
  param {
    lr_mult: 2
    decay_mult: 0
  }
  convolution_param {
    num_output: 64
    pad: 2
    kernel_size: 5
    weight_filler {
      type: "xavier"
      std: 0.03
    }
    bias_filler {
      type: "constant"
      value: 0.2
    }
  }
}
layer {
  name: "inception_4c/relu_5x5"
  type: "ReLU"
  bottom: "inception_4c/5x5"
  top: "inception_4c/5x5"
}
layer {
  name: "inception_4c/pool"
  type: "Pooling"
  bottom: "inception_4b/output"
  top: "inception_4c/pool"
  pooling_param {
    pool: MAX
    kernel_size: 3
    stride: 1
    pad: 1
  }
}
layer {
  name: "inception_4c/pool_proj"
  type: "Convolution"
  bottom: "inception_4c/pool"
  top: "inception_4c/pool_proj"
  param {
    lr_mult: 1
    decay_mult: 1
  }
  param {
    lr_mult: 2
    decay_mult: 0
  }
  convolution_param {
    num_output: 64
    kernel_size: 1
    weight_filler {
      type: "xavier"
      std: 0.1
    }
    bias_filler {
      type: "constant"
      value: 0.2
    }
  }
}
layer {
  name: "inception_4c/relu_pool_proj"
  type: "ReLU"
  bottom: "inception_4c/pool_proj"
  top: "inception_4c/pool_proj"
}
layer {
  name: "inception_4c/output"
  type: "Concat"
  bottom: "inception_4c/1x1"
  bottom: "inception_4c/3x3"
  bottom: "inception_4c/5x5"
  bottom: "inception_4c/pool_proj"
  top: "inception_4c/output"
}
layer {
  name: "inception_4d/1x1"
  type: "Convolution"
  bottom: "inception_4c/output"
  top: "inception_4d/1x1"
  param {
    lr_mult: 1
    decay_mult: 1
  }
  param {
    lr_mult: 2
    decay_mult: 0
  }
  convolution_param {
    num_output: 112
    kernel_size: 1
    weight_filler {
      type: "xavier"
      std: 0.03
    }
    bias_filler {
      type: "constant"
      value: 0.2
    }
  }
}
layer {
  name: "inception_4d/relu_1x1"
  type: "ReLU"
  bottom: "inception_4d/1x1"
  top: "inception_4d/1x1"
}
layer {
  name: "inception_4d/3x3_reduce"
  type: "Convolution"
  bottom: "inception_4c/output"
  top: "inception_4d/3x3_reduce"
  param {
    lr_mult: 1
    decay_mult: 1
  }
  param {
    lr_mult: 2
    decay_mult: 0
  }
  convolution_param {
    num_output: 144
    kernel_size: 1
    weight_filler {
      type: "xavier"
      std: 0.09
    }
    bias_filler {
      type: "constant"
      value: 0.2
    }
  }
}
layer {
  name: "inception_4d/relu_3x3_reduce"
  type: "ReLU"
  bottom: "inception_4d/3x3_reduce"
  top: "inception_4d/3x3_reduce"
}
layer {
  name: "inception_4d/3x3"
  type: "Convolution"
  bottom: "inception_4d/3x3_reduce"
  top: "inception_4d/3x3"
  param {
    lr_mult: 1
    decay_mult: 1
  }
  param {
    lr_mult: 2
    decay_mult: 0
  }
  convolution_param {
    num_output: 288
    pad: 1
    kernel_size: 3
    weight_filler {
      type: "xavier"
      std: 0.03
    }
    bias_filler {
      type: "constant"
      value: 0.2
    }
  }
}
layer {
  name: "inception_4d/relu_3x3"
  type: "ReLU"
  bottom: "inception_4d/3x3"
  top: "inception_4d/3x3"
}
layer {
  name: "inception_4d/5x5_reduce"
  type: "Convolution"
  bottom: "inception_4c/output"
  top: "inception_4d/5x5_reduce"
  param {
    lr_mult: 1
    decay_mult: 1
  }
  param {
    lr_mult: 2
    decay_mult: 0
  }
  convolution_param {
    num_output: 32
    kernel_size: 1
    weight_filler {
      type: "xavier"
      std: 0.2
    }
    bias_filler {
      type: "constant"
      value: 0.2
    }
  }
}
layer {
  name: "inception_4d/relu_5x5_reduce"
  type: "ReLU"
  bottom: "inception_4d/5x5_reduce"
  top: "inception_4d/5x5_reduce"
}
layer {
  name: "inception_4d/5x5"
  type: "Convolution"
  bottom: "inception_4d/5x5_reduce"
  top: "inception_4d/5x5"
  param {
    lr_mult: 1
    decay_mult: 1
  }
  param {
    lr_mult: 2
    decay_mult: 0
  }
  convolution_param {
    num_output: 64
    pad: 2
    kernel_size: 5
    weight_filler {
      type: "xavier"
      std: 0.03
    }
    bias_filler {
      type: "constant"
      value: 0.2
    }
  }
}
layer {
  name: "inception_4d/relu_5x5"
  type: "ReLU"
  bottom: "inception_4d/5x5"
  top: "inception_4d/5x5"
}
layer {
  name: "inception_4d/pool"
  type: "Pooling"
  bottom: "inception_4c/output"
  top: "inception_4d/pool"
  pooling_param {
    pool: MAX
    kernel_size: 3
    stride: 1
    pad: 1
  }
}
layer {
  name: "inception_4d/pool_proj"
  type: "Convolution"
  bottom: "inception_4d/pool"
  top: "inception_4d/pool_proj"
  param {
    lr_mult: 1
    decay_mult: 1
  }
  param {
    lr_mult: 2
    decay_mult: 0
  }
  convolution_param {
    num_output: 64
    kernel_size: 1
    weight_filler {
      type: "xavier"
      std: 0.1
    }
    bias_filler {
      type: "constant"
      value: 0.2
    }
  }
}
layer {
  name: "inception_4d/relu_pool_proj"
  type: "ReLU"
  bottom: "inception_4d/pool_proj"
  top: "inception_4d/pool_proj"
}
layer {
  name: "inception_4d/output"
  type: "Concat"
  bottom: "inception_4d/1x1"
  bottom: "inception_4d/3x3"
  bottom: "inception_4d/5x5"
  bottom: "inception_4d/pool_proj"
  top: "inception_4d/output"
}
layer {
  name: "loss2/ave_pool"
  type: "Pooling"
  bottom: "inception_4d/output"
  top: "loss2/ave_pool"
  pooling_param {
    pool: AVE
    kernel_size: 5
    stride: 3
  }
}
layer {
  name: "loss2/conv"
  type: "Convolution"
  bottom: "loss2/ave_pool"
  top: "loss2/conv"
  param {
    lr_mult: 1
    decay_mult: 1
  }
  param {
    lr_mult: 2
    decay_mult: 0
  }
  convolution_param {
    num_output: 128
    kernel_size: 1
    weight_filler {
      type: "xavier"
      std: 0.08
    }
    bias_filler {
      type: "constant"
      value: 0.2
    }
  }
}
layer {
  name: "loss2/relu_conv"
  type: "ReLU"
  bottom: "loss2/conv"
  top: "loss2/conv"
}
layer {
  name: "loss2/fc"
  type: "InnerProduct"
  bottom: "loss2/conv"
  top: "loss2/fc"
  param {
    lr_mult: 1
    decay_mult: 1
  }
  param {
    lr_mult: 2
    decay_mult: 0
  }
  inner_product_param {
    num_output: 1024
    weight_filler {
      type: "xavier"
      std: 0.02
    }
    bias_filler {
      type: "constant"
      value: 0.2
    }
  }
}
layer {
  name: "loss2/relu_fc"
  type: "ReLU"
  bottom: "loss2/fc"
  top: "loss2/fc"
}
layer {
  name: "loss2/drop_fc"
  type: "Dropout"
  bottom: "loss2/fc"
  top: "loss2/fc"
  dropout_param {
    dropout_ratio: 0.7
  }
}
layer {
  name: "loss2/classifier_plantvillage"
  type: "InnerProduct"
  bottom: "loss2/fc"
  top: "loss2/classifier_plantvillage"
  param {
    lr_mult: 1
    decay_mult: 1
  }
  param {
    lr_mult: 2
    decay_mult: 0
  }
  inner_product_param {
    num_output: 38
    weight_filler {
      type: "xavier"
      std: 0.0009765625
    }
    bias_filler {
      type: "constant"
      value: 0
    }
  }
}
layer {
  name: "inception_4e/1x1"
  type: "Convolution"
  bottom: "inception_4d/output"
  top: "inception_4e/1x1"
  param {
    lr_mult: 1
    decay_mult: 1
  }
  param {
    lr_mult: 2
    decay_mult: 0
  }
  convolution_param {
    num_output: 256
    kernel_size: 1
    weight_filler {
      type: "xavier"
      std: 0.03
    }
    bias_filler {
      type: "constant"
      value: 0.2
    }
  }
}
layer {
  name: "inception_4e/relu_1x1"
  type: "ReLU"
  bottom: "inception_4e/1x1"
  top: "inception_4e/1x1"
}
layer {
  name: "inception_4e/3x3_reduce"
  type: "Convolution"
  bottom: "inception_4d/output"
  top: "inception_4e/3x3_reduce"
  param {
    lr_mult: 1
    decay_mult: 1
  }
  param {
    lr_mult: 2
    decay_mult: 0
  }
  convolution_param {
    num_output: 160
    kernel_size: 1
    weight_filler {
      type: "xavier"
      std: 0.09
    }
    bias_filler {
      type: "constant"
      value: 0.2
    }
  }
}
layer {
  name: "inception_4e/relu_3x3_reduce"
  type: "ReLU"
  bottom: "inception_4e/3x3_reduce"
  top: "inception_4e/3x3_reduce"
}
layer {
  name: "inception_4e/3x3"
  type: "Convolution"
  bottom: "inception_4e/3x3_reduce"
  top: "inception_4e/3x3"
  param {
    lr_mult: 1
    decay_mult: 1
  }
  param {
    lr_mult: 2
    decay_mult: 0
  }
  convolution_param {
    num_output: 320
    pad: 1
    kernel_size: 3
    weight_filler {
      type: "xavier"
      std: 0.03
    }
    bias_filler {
      type: "constant"
      value: 0.2
    }
  }
}
layer {
  name: "inception_4e/relu_3x3"
  type: "ReLU"
  bottom: "inception_4e/3x3"
  top: "inception_4e/3x3"
}
layer {
  name: "inception_4e/5x5_reduce"
  type: "Convolution"
  bottom: "inception_4d/output"
  top: "inception_4e/5x5_reduce"
  param {
    lr_mult: 1
    decay_mult: 1
  }
  param {
    lr_mult: 2
    decay_mult: 0
  }
  convolution_param {
    num_output: 32
    kernel_size: 1
    weight_filler {
      type: "xavier"
      std: 0.2
    }
    bias_filler {
      type: "constant"
      value: 0.2
    }
  }
}
layer {
  name: "inception_4e/relu_5x5_reduce"
  type: "ReLU"
  bottom: "inception_4e/5x5_reduce"
  top: "inception_4e/5x5_reduce"
}
layer {
  name: "inception_4e/5x5"
  type: "Convolution"
  bottom: "inception_4e/5x5_reduce"
  top: "inception_4e/
I0403 15:46:23.562072 12479 layer_factory.hpp:77] Creating layer data
I0403 15:46:23.562682 12479 net.cpp:91] Creating Layer data
I0403 15:46:23.562713 12479 net.cpp:399] data -> data
I0403 15:46:23.562764 12479 net.cpp:399] data -> label
I0403 15:46:23.562801 12479 data_transformer.cpp:25] Loading mean file from: /home/mohanty/data/final_dataset/lmdb/segmented-40-60/mean.binaryproto
I0403 15:46:23.566637 12482 db_lmdb.cpp:38] Opened lmdb /home/mohanty/data/final_dataset/lmdb/segmented-40-60/test_db
I0403 15:46:23.576206 12479 data_layer.cpp:41] output data size: 24,3,224,224
I0403 15:46:23.604074 12479 net.cpp:141] Setting up data
I0403 15:46:23.604154 12479 net.cpp:148] Top shape: 24 3 224 224 (3612672)
I0403 15:46:23.604177 12479 net.cpp:148] Top shape: 24 (24)
I0403 15:46:23.604192 12479 net.cpp:156] Memory required for data: 14450784
I0403 15:46:23.604220 12479 layer_factory.hpp:77] Creating layer label_data_1_split
I0403 15:46:23.604246 12479 net.cpp:91] Creating Layer label_data_1_split
I0403 15:46:23.604264 12479 net.cpp:425] label_data_1_split <- label
I0403 15:46:23.604295 12479 net.cpp:399] label_data_1_split -> label_data_1_split_0
I0403 15:46:23.604324 12479 net.cpp:399] label_data_1_split -> label_data_1_split_1
I0403 15:46:23.604346 12479 net.cpp:399] label_data_1_split -> label_data_1_split_2
I0403 15:46:23.604372 12479 net.cpp:399] label_data_1_split -> label_data_1_split_3
I0403 15:46:23.604393 12479 net.cpp:399] label_data_1_split -> label_data_1_split_4
I0403 15:46:23.604413 12479 net.cpp:399] label_data_1_split -> label_data_1_split_5
I0403 15:46:23.604432 12479 net.cpp:399] label_data_1_split -> label_data_1_split_6
I0403 15:46:23.604451 12479 net.cpp:399] label_data_1_split -> label_data_1_split_7
I0403 15:46:23.604471 12479 net.cpp:399] label_data_1_split -> label_data_1_split_8
I0403 15:46:23.604490 12479 net.cpp:399] label_data_1_split -> label_data_1_split_9
I0403 15:46:23.604604 12479 net.cpp:141] Setting up label_data_1_split
I0403 15:46:23.604626 12479 net.cpp:148] Top shape: 24 (24)
I0403 15:46:23.604643 12479 net.cpp:148] Top shape: 24 (24)
I0403 15:46:23.604658 12479 net.cpp:148] Top shape: 24 (24)
I0403 15:46:23.604673 12479 net.cpp:148] Top shape: 24 (24)
I0403 15:46:23.604688 12479 net.cpp:148] Top shape: 24 (24)
I0403 15:46:23.604702 12479 net.cpp:148] Top shape: 24 (24)
I0403 15:46:23.604718 12479 net.cpp:148] Top shape: 24 (24)
I0403 15:46:23.604733 12479 net.cpp:148] Top shape: 24 (24)
I0403 15:46:23.604749 12479 net.cpp:148] Top shape: 24 (24)
I0403 15:46:23.604764 12479 net.cpp:148] Top shape: 24 (24)
I0403 15:46:23.604809 12479 net.cpp:156] Memory required for data: 14451744
I0403 15:46:23.604825 12479 layer_factory.hpp:77] Creating layer conv1/7x7_s2
I0403 15:46:23.604856 12479 net.cpp:91] Creating Layer conv1/7x7_s2
I0403 15:46:23.604874 12479 net.cpp:425] conv1/7x7_s2 <- data
I0403 15:46:23.604894 12479 net.cpp:399] conv1/7x7_s2 -> conv1/7x7_s2
I0403 15:46:23.747527 12479 net.cpp:141] Setting up conv1/7x7_s2
I0403 15:46:23.747606 12479 net.cpp:148] Top shape: 24 64 112 112 (19267584)
I0403 15:46:23.747622 12479 net.cpp:156] Memory required for data: 91522080
I0403 15:46:23.747653 12479 layer_factory.hpp:77] Creating layer conv1/relu_7x7
I0403 15:46:23.747680 12479 net.cpp:91] Creating Layer conv1/relu_7x7
I0403 15:46:23.747699 12479 net.cpp:425] conv1/relu_7x7 <- conv1/7x7_s2
I0403 15:46:23.747716 12479 net.cpp:386] conv1/relu_7x7 -> conv1/7x7_s2 (in-place)
I0403 15:46:23.747967 12479 net.cpp:141] Setting up conv1/relu_7x7
I0403 15:46:23.747994 12479 net.cpp:148] Top shape: 24 64 112 112 (19267584)
I0403 15:46:23.748008 12479 net.cpp:156] Memory required for data: 168592416
I0403 15:46:23.748023 12479 layer_factory.hpp:77] Creating layer pool1/3x3_s2
I0403 15:46:23.748047 12479 net.cpp:91] Creating Layer pool1/3x3_s2
I0403 15:46:23.748065 12479 net.cpp:425] pool1/3x3_s2 <- conv1/7x7_s2
I0403 15:46:23.748085 12479 net.cpp:399] pool1/3x3_s2 -> pool1/3x3_s2
I0403 15:46:23.748157 12479 net.cpp:141] Setting up pool1/3x3_s2
I0403 15:46:23.748179 12479 net.cpp:148] Top shape: 24 64 56 56 (4816896)
I0403 15:46:23.748194 12479 net.cpp:156] Memory required for data: 187860000
I0403 15:46:23.748209 12479 layer_factory.hpp:77] Creating layer pool1/norm1
I0403 15:46:23.748234 12479 net.cpp:91] Creating Layer pool1/norm1
I0403 15:46:23.748250 12479 net.cpp:425] pool1/norm1 <- pool1/3x3_s2
I0403 15:46:23.748267 12479 net.cpp:399] pool1/norm1 -> pool1/norm1
I0403 15:46:23.748550 12479 net.cpp:141] Setting up pool1/norm1
I0403 15:46:23.748577 12479 net.cpp:148] Top shape: 24 64 56 56 (4816896)
I0403 15:46:23.748592 12479 net.cpp:156] Memory required for data: 207127584
I0403 15:46:23.748608 12479 layer_factory.hpp:77] Creating layer conv2/3x3_reduce
I0403 15:46:23.748632 12479 net.cpp:91] Creating Layer conv2/3x3_reduce
I0403 15:46:23.748649 12479 net.cpp:425] conv2/3x3_reduce <- pool1/norm1
I0403 15:46:23.748667 12479 net.cpp:399] conv2/3x3_reduce -> conv2/3x3_reduce
I0403 15:46:23.749977 12479 net.cpp:141] Setting up conv2/3x3_reduce
I0403 15:46:23.750006 12479 net.cpp:148] Top shape: 24 64 56 56 (4816896)
I0403 15:46:23.750022 12479 net.cpp:156] Memory required for data: 226395168
I0403 15:46:23.750042 12479 layer_factory.hpp:77] Creating layer conv2/relu_3x3_reduce
I0403 15:46:23.750059 12479 net.cpp:91] Creating Layer conv2/relu_3x3_reduce
I0403 15:46:23.750075 12479 net.cpp:425] conv2/relu_3x3_reduce <- conv2/3x3_reduce
I0403 15:46:23.750092 12479 net.cpp:386] conv2/relu_3x3_reduce -> conv2/3x3_reduce (in-place)
I0403 15:46:23.750344 12479 net.cpp:141] Setting up conv2/relu_3x3_reduce
I0403 15:46:23.750375 12479 net.cpp:148] Top shape: 24 64 56 56 (4816896)
I0403 15:46:23.750391 12479 net.cpp:156] Memory required for data: 245662752
I0403 15:46:23.750406 12479 layer_factory.hpp:77] Creating layer conv2/3x3
I0403 15:46:23.750427 12479 net.cpp:91] Creating Layer conv2/3x3
I0403 15:46:23.750443 12479 net.cpp:425] conv2/3x3 <- conv2/3x3_reduce
I0403 15:46:23.750463 12479 net.cpp:399] conv2/3x3 -> conv2/3x3
I0403 15:46:23.752665 12479 net.cpp:141] Setting up conv2/3x3
I0403 15:46:23.752694 12479 net.cpp:148] Top shape: 24 192 56 56 (14450688)
I0403 15:46:23.752710 12479 net.cpp:156] Memory required for data: 303465504
I0403 15:46:23.752732 12479 layer_factory.hpp:77] Creating layer conv2/relu_3x3
I0403 15:46:23.752750 12479 net.cpp:91] Creating Layer conv2/relu_3x3
I0403 15:46:23.752765 12479 net.cpp:425] conv2/relu_3x3 <- conv2/3x3
I0403 15:46:23.752782 12479 net.cpp:386] conv2/relu_3x3 -> conv2/3x3 (in-place)
I0403 15:46:23.752938 12479 net.cpp:141] Setting up conv2/relu_3x3
I0403 15:46:23.752964 12479 net.cpp:148] Top shape: 24 192 56 56 (14450688)
I0403 15:46:23.753010 12479 net.cpp:156] Memory required for data: 361268256
I0403 15:46:23.753024 12479 layer_factory.hpp:77] Creating layer conv2/norm2
I0403 15:46:23.753042 12479 net.cpp:91] Creating Layer conv2/norm2
I0403 15:46:23.753058 12479 net.cpp:425] conv2/norm2 <- conv2/3x3
I0403 15:46:23.753075 12479 net.cpp:399] conv2/norm2 -> conv2/norm2
I0403 15:46:23.753370 12479 net.cpp:141] Setting up conv2/norm2
I0403 15:46:23.753396 12479 net.cpp:148] Top shape: 24 192 56 56 (14450688)
I0403 15:46:23.753412 12479 net.cpp:156] Memory required for data: 419071008
I0403 15:46:23.753427 12479 layer_factory.hpp:77] Creating layer pool2/3x3_s2
I0403 15:46:23.753443 12479 net.cpp:91] Creating Layer pool2/3x3_s2
I0403 15:46:23.753459 12479 net.cpp:425] pool2/3x3_s2 <- conv2/norm2
I0403 15:46:23.753476 12479 net.cpp:399] pool2/3x3_s2 -> pool2/3x3_s2
I0403 15:46:23.753527 12479 net.cpp:141] Setting up pool2/3x3_s2
I0403 15:46:23.753551 12479 net.cpp:148] Top shape: 24 192 28 28 (3612672)
I0403 15:46:23.753564 12479 net.cpp:156] Memory required for data: 433521696
I0403 15:46:23.753579 12479 layer_factory.hpp:77] Creating layer pool2/3x3_s2_pool2/3x3_s2_0_split
I0403 15:46:23.753597 12479 net.cpp:91] Creating Layer pool2/3x3_s2_pool2/3x3_s2_0_split
I0403 15:46:23.753612 12479 net.cpp:425] pool2/3x3_s2_pool2/3x3_s2_0_split <- pool2/3x3_s2
I0403 15:46:23.753628 12479 net.cpp:399] pool2/3x3_s2_pool2/3x3_s2_0_split -> pool2/3x3_s2_pool2/3x3_s2_0_split_0
I0403 15:46:23.753648 12479 net.cpp:399] pool2/3x3_s2_pool2/3x3_s2_0_split -> pool2/3x3_s2_pool2/3x3_s2_0_split_1
I0403 15:46:23.753666 12479 net.cpp:399] pool2/3x3_s2_pool2/3x3_s2_0_split -> pool2/3x3_s2_pool2/3x3_s2_0_split_2
I0403 15:46:23.753685 12479 net.cpp:399] pool2/3x3_s2_pool2/3x3_s2_0_split -> pool2/3x3_s2_pool2/3x3_s2_0_split_3
I0403 15:46:23.753747 12479 net.cpp:141] Setting up pool2/3x3_s2_pool2/3x3_s2_0_split
I0403 15:46:23.753769 12479 net.cpp:148] Top shape: 24 192 28 28 (3612672)
I0403 15:46:23.753785 12479 net.cpp:148] Top shape: 24 192 28 28 (3612672)
I0403 15:46:23.753800 12479 net.cpp:148] Top shape: 24 192 28 28 (3612672)
I0403 15:46:23.753815 12479 net.cpp:148] Top shape: 24 192 28 28 (3612672)
I0403 15:46:23.753829 12479 net.cpp:156] Memory required for data: 491324448
I0403 15:46:23.753842 12479 layer_factory.hpp:77] Creating layer inception_3a/1x1
I0403 15:46:23.753862 12479 net.cpp:91] Creating Layer inception_3a/1x1
I0403 15:46:23.753878 12479 net.cpp:425] inception_3a/1x1 <- pool2/3x3_s2_pool2/3x3_s2_0_split_0
I0403 15:46:23.753896 12479 net.cpp:399] inception_3a/1x1 -> inception_3a/1x1
I0403 15:46:23.755363 12479 net.cpp:141] Setting up inception_3a/1x1
I0403 15:46:23.755393 12479 net.cpp:148] Top shape: 24 64 28 28 (1204224)
I0403 15:46:23.755409 12479 net.cpp:156] Memory required for data: 496141344
I0403 15:46:23.755426 12479 layer_factory.hpp:77] Creating layer inception_3a/relu_1x1
I0403 15:46:23.755448 12479 net.cpp:91] Creating Layer inception_3a/relu_1x1
I0403 15:46:23.755465 12479 net.cpp:425] inception_3a/relu_1x1 <- inception_3a/1x1
I0403 15:46:23.755483 12479 net.cpp:386] inception_3a/relu_1x1 -> inception_3a/1x1 (in-place)
I0403 15:46:23.755658 12479 net.cpp:141] Setting up inception_3a/relu_1x1
I0403 15:46:23.755686 12479 net.cpp:148] Top shape: 24 64 28 28 (1204224)
I0403 15:46:23.755702 12479 net.cpp:156] Memory required for data: 500958240
I0403 15:46:23.755717 12479 layer_factory.hpp:77] Creating layer inception_3a/3x3_reduce
I0403 15:46:23.755738 12479 net.cpp:91] Creating Layer inception_3a/3x3_reduce
I0403 15:46:23.755755 12479 net.cpp:425] inception_3a/3x3_reduce <- pool2/3x3_s2_pool2/3x3_s2_0_split_1
I0403 15:46:23.755774 12479 net.cpp:399] inception_3a/3x3_reduce -> inception_3a/3x3_reduce
I0403 15:46:23.757452 12479 net.cpp:141] Setting up inception_3a/3x3_reduce
I0403 15:46:23.757482 12479 net.cpp:148] Top shape: 24 96 28 28 (1806336)
I0403 15:46:23.757498 12479 net.cpp:156] Memory required for data: 508183584
I0403 15:46:23.757519 12479 layer_factory.hpp:77] Creating layer inception_3a/relu_3x3_reduce
I0403 15:46:23.757556 12479 net.cpp:91] Creating Layer inception_3a/relu_3x3_reduce
I0403 15:46:23.757575 12479 net.cpp:425] inception_3a/relu_3x3_reduce <- inception_3a/3x3_reduce
I0403 15:46:23.757594 12479 net.cpp:386] inception_3a/relu_3x3_reduce -> inception_3a/3x3_reduce (in-place)
I0403 15:46:23.757776 12479 net.cpp:141] Setting up inception_3a/relu_3x3_reduce
I0403 15:46:23.757800 12479 net.cpp:148] Top shape: 24 96 28 28 (1806336)
I0403 15:46:23.757814 12479 net.cpp:156] Memory required for data: 515408928
I0403 15:46:23.757828 12479 layer_factory.hpp:77] Creating layer inception_3a/3x3
I0403 15:46:23.757850 12479 net.cpp:91] Creating Layer inception_3a/3x3
I0403 15:46:23.757869 12479 net.cpp:425] inception_3a/3x3 <- inception_3a/3x3_reduce
I0403 15:46:23.757890 12479 net.cpp:399] inception_3a/3x3 -> inception_3a/3x3
I0403 15:46:23.759513 12479 net.cpp:141] Setting up inception_3a/3x3
I0403 15:46:23.759547 12479 net.cpp:148] Top shape: 24 128 28 28 (2408448)
I0403 15:46:23.759563 12479 net.cpp:156] Memory required for data: 525042720
I0403 15:46:23.759582 12479 layer_factory.hpp:77] Creating layer inception_3a/relu_3x3
I0403 15:46:23.759599 12479 net.cpp:91] Creating Layer inception_3a/relu_3x3
I0403 15:46:23.759615 12479 net.cpp:425] inception_3a/relu_3x3 <- inception_3a/3x3
I0403 15:46:23.759634 12479 net.cpp:386] inception_3a/relu_3x3 -> inception_3a/3x3 (in-place)
I0403 15:46:23.759902 12479 net.cpp:141] Setting up inception_3a/relu_3x3
I0403 15:46:23.759932 12479 net.cpp:148] Top shape: 24 128 28 28 (2408448)
I0403 15:46:23.759946 12479 net.cpp:156] Memory required for data: 534676512
I0403 15:46:23.759961 12479 layer_factory.hpp:77] Creating layer inception_3a/5x5_reduce
I0403 15:46:23.759981 12479 net.cpp:91] Creating Layer inception_3a/5x5_reduce
I0403 15:46:23.759997 12479 net.cpp:425] inception_3a/5x5_reduce <- pool2/3x3_s2_pool2/3x3_s2_0_split_2
I0403 15:46:23.760018 12479 net.cpp:399] inception_3a/5x5_reduce -> inception_3a/5x5_reduce
I0403 15:46:23.760965 12479 net.cpp:141] Setting up inception_3a/5x5_reduce
I0403 15:46:23.760994 12479 net.cpp:148] Top shape: 24 16 28 28 (301056)
I0403 15:46:23.761011 12479 net.cpp:156] Memory required for data: 535880736
I0403 15:46:23.761029 12479 layer_factory.hpp:77] Creating layer inception_3a/relu_5x5_reduce
I0403 15:46:23.761047 12479 net.cpp:91] Creating Layer inception_3a/relu_5x5_reduce
I0403 15:46:23.761062 12479 net.cpp:425] inception_3a/relu_5x5_reduce <- inception_3a/5x5_reduce
I0403 15:46:23.761080 12479 net.cpp:386] inception_3a/relu_5x5_reduce -> inception_3a/5x5_reduce (in-place)
I0403 15:46:23.761374 12479 net.cpp:141] Setting up inception_3a/relu_5x5_reduce
I0403 15:46:23.761400 12479 net.cpp:148] Top shape: 24 16 28 28 (301056)
I0403 15:46:23.761415 12479 net.cpp:156] Memory required for data: 537084960
I0403 15:46:23.761430 12479 layer_factory.hpp:77] Creating layer inception_3a/5x5
I0403 15:46:23.761451 12479 net.cpp:91] Creating Layer inception_3a/5x5
I0403 15:46:23.761468 12479 net.cpp:425] inception_3a/5x5 <- inception_3a/5x5_reduce
I0403 15:46:23.761489 12479 net.cpp:399] inception_3a/5x5 -> inception_3a/5x5
I0403 15:46:23.762488 12479 net.cpp:141] Setting up inception_3a/5x5
I0403 15:46:23.762516 12479 net.cpp:148] Top shape: 24 32 28 28 (602112)
I0403 15:46:23.762531 12479 net.cpp:156] Memory required for data: 539493408
I0403 15:46:23.762549 12479 layer_factory.hpp:77] Creating layer inception_3a/relu_5x5
I0403 15:46:23.762569 12479 net.cpp:91] Creating Layer inception_3a/relu_5x5
I0403 15:46:23.762585 12479 net.cpp:425] inception_3a/relu_5x5 <- inception_3a/5x5
I0403 15:46:23.762603 12479 net.cpp:386] inception_3a/relu_5x5 -> inception_3a/5x5 (in-place)
I0403 15:46:23.762778 12479 net.cpp:141] Setting up inception_3a/relu_5x5
I0403 15:46:23.762804 12479 net.cpp:148] Top shape: 24 32 28 28 (602112)
I0403 15:46:23.762820 12479 net.cpp:156] Memory required for data: 541901856
I0403 15:46:23.762835 12479 layer_factory.hpp:77] Creating layer inception_3a/pool
I0403 15:46:23.762852 12479 net.cpp:91] Creating Layer inception_3a/pool
I0403 15:46:23.762882 12479 net.cpp:425] inception_3a/pool <- pool2/3x3_s2_pool2/3x3_s2_0_split_3
I0403 15:46:23.762903 12479 net.cpp:399] inception_3a/pool -> inception_3a/pool
I0403 15:46:23.762959 12479 net.cpp:141] Setting up inception_3a/pool
I0403 15:46:23.762982 12479 net.cpp:148] Top shape: 24 192 28 28 (3612672)
I0403 15:46:23.762997 12479 net.cpp:156] Memory required for data: 556352544
I0403 15:46:23.763011 12479 layer_factory.hpp:77] Creating layer inception_3a/pool_proj
I0403 15:46:23.763033 12479 net.cpp:91] Creating Layer inception_3a/pool_proj
I0403 15:46:23.763051 12479 net.cpp:425] inception_3a/pool_proj <- inception_3a/pool
I0403 15:46:23.763073 12479 net.cpp:399] inception_3a/pool_proj -> inception_3a/pool_proj
I0403 15:46:23.764030 12479 net.cpp:141] Setting up inception_3a/pool_proj
I0403 15:46:23.764057 12479 net.cpp:148] Top shape: 24 32 28 28 (602112)
I0403 15:46:23.764073 12479 net.cpp:156] Memory required for data: 558760992
I0403 15:46:23.764097 12479 layer_factory.hpp:77] Creating layer inception_3a/relu_pool_proj
I0403 15:46:23.764117 12479 net.cpp:91] Creating Layer inception_3a/relu_pool_proj
I0403 15:46:23.764132 12479 net.cpp:425] inception_3a/relu_pool_proj <- inception_3a/pool_proj
I0403 15:46:23.764149 12479 net.cpp:386] inception_3a/relu_pool_proj -> inception_3a/pool_proj (in-place)
I0403 15:46:23.764423 12479 net.cpp:141] Setting up inception_3a/relu_pool_proj
I0403 15:46:23.764451 12479 net.cpp:148] Top shape: 24 32 28 28 (602112)
I0403 15:46:23.764467 12479 net.cpp:156] Memory required for data: 561169440
I0403 15:46:23.764482 12479 layer_factory.hpp:77] Creating layer inception_3a/output
I0403 15:46:23.764499 12479 net.cpp:91] Creating Layer inception_3a/output
I0403 15:46:23.764514 12479 net.cpp:425] inception_3a/output <- inception_3a/1x1
I0403 15:46:23.764530 12479 net.cpp:425] inception_3a/output <- inception_3a/3x3
I0403 15:46:23.764545 12479 net.cpp:425] inception_3a/output <- inception_3a/5x5
I0403 15:46:23.764561 12479 net.cpp:425] inception_3a/output <- inception_3a/pool_proj
I0403 15:46:23.764578 12479 net.cpp:399] inception_3a/output -> inception_3a/output
I0403 15:46:23.764626 12479 net.cpp:141] Setting up inception_3a/output
I0403 15:46:23.764648 12479 net.cpp:148] Top shape: 24 256 28 28 (4816896)
I0403 15:46:23.764662 12479 net.cpp:156] Memory required for data: 580437024
I0403 15:46:23.764677 12479 layer_factory.hpp:77] Creating layer inception_3a/output_inception_3a/output_0_split
I0403 15:46:23.764693 12479 net.cpp:91] Creating Layer inception_3a/output_inception_3a/output_0_split
I0403 15:46:23.764708 12479 net.cpp:425] inception_3a/output_inception_3a/output_0_split <- inception_3a/output
I0403 15:46:23.764727 12479 net.cpp:399] inception_3a/output_inception_3a/output_0_split -> inception_3a/output_inception_3a/output_0_split_0
I0403 15:46:23.764747 12479 net.cpp:399] inception_3a/output_inception_3a/output_0_split -> inception_3a/output_inception_3a/output_0_split_1
I0403 15:46:23.764771 12479 net.cpp:399] inception_3a/output_inception_3a/output_0_split -> inception_3a/output_inception_3a/output_0_split_2
I0403 15:46:23.764792 12479 net.cpp:399] inception_3a/output_inception_3a/output_0_split -> inception_3a/output_inception_3a/output_0_split_3
I0403 15:46:23.764869 12479 net.cpp:141] Setting up inception_3a/output_inception_3a/output_0_split
I0403 15:46:23.764891 12479 net.cpp:148] Top shape: 24 256 28 28 (4816896)
I0403 15:46:23.764907 12479 net.cpp:148] Top shape: 24 256 28 28 (4816896)
I0403 15:46:23.764924 12479 net.cpp:148] Top shape: 24 256 28 28 (4816896)
I0403 15:46:23.764938 12479 net.cpp:148] Top shape: 24 256 28 28 (4816896)
I0403 15:46:23.764950 12479 net.cpp:156] Memory required for data: 657507360
I0403 15:46:23.764966 12479 layer_factory.hpp:77] Creating layer inception_3b/1x1
I0403 15:46:23.764987 12479 net.cpp:91] Creating Layer inception_3b/1x1
I0403 15:46:23.765003 12479 net.cpp:425] inception_3b/1x1 <- inception_3a/output_inception_3a/output_0_split_0
I0403 15:46:23.765024 12479 net.cpp:399] inception_3b/1x1 -> inception_3b/1x1
I0403 15:46:23.766161 12479 net.cpp:141] Setting up inception_3b/1x1
I0403 15:46:23.766201 12479 net.cpp:148] Top shape: 24 128 28 28 (2408448)
I0403 15:46:23.766216 12479 net.cpp:156] Memory required for data: 667141152
I0403 15:46:23.766234 12479 layer_factory.hpp:77] Creating layer inception_3b/relu_1x1
I0403 15:46:23.766254 12479 net.cpp:91] Creating Layer inception_3b/relu_1x1
I0403 15:46:23.766271 12479 net.cpp:425] inception_3b/relu_1x1 <- inception_3b/1x1
I0403 15:46:23.766288 12479 net.cpp:386] inception_3b/relu_1x1 -> inception_3b/1x1 (in-place)
I0403 15:46:23.766466 12479 net.cpp:141] Setting up inception_3b/relu_1x1
I0403 15:46:23.766494 12479 net.cpp:148] Top shape: 24 128 28 28 (2408448)
I0403 15:46:23.766510 12479 net.cpp:156] Memory required for data: 676774944
I0403 15:46:23.766525 12479 layer_factory.hpp:77] Creating layer inception_3b/3x3_reduce
I0403 15:46:23.766546 12479 net.cpp:91] Creating Layer inception_3b/3x3_reduce
I0403 15:46:23.766564 12479 net.cpp:425] inception_3b/3x3_reduce <- inception_3a/output_inception_3a/output_0_split_1
I0403 15:46:23.766583 12479 net.cpp:399] inception_3b/3x3_reduce -> inception_3b/3x3_reduce
I0403 15:46:23.767715 12479 net.cpp:141] Setting up inception_3b/3x3_reduce
I0403 15:46:23.767742 12479 net.cpp:148] Top shape: 24 128 28 28 (2408448)
I0403 15:46:23.767757 12479 net.cpp:156] Memory required for data: 686408736
I0403 15:46:23.767776 12479 layer_factory.hpp:77] Creating layer inception_3b/relu_3x3_reduce
I0403 15:46:23.767796 12479 net.cpp:91] Creating Layer inception_3b/relu_3x3_reduce
I0403 15:46:23.767812 12479 net.cpp:425] inception_3b/relu_3x3_reduce <- inception_3b/3x3_reduce
I0403 15:46:23.767828 12479 net.cpp:386] inception_3b/relu_3x3_reduce -> inception_3b/3x3_reduce (in-place)
I0403 15:46:23.768002 12479 net.cpp:141] Setting up inception_3b/relu_3x3_reduce
I0403 15:46:23.768026 12479 net.cpp:148] Top shape: 24 128 28 28 (2408448)
I0403 15:46:23.768040 12479 net.cpp:156] Memory required for data: 696042528
I0403 15:46:23.768055 12479 layer_factory.hpp:77] Creating layer inception_3b/3x3
I0403 15:46:23.768080 12479 net.cpp:91] Creating Layer inception_3b/3x3
I0403 15:46:23.768100 12479 net.cpp:425] inception_3b/3x3 <- inception_3b/3x3_reduce
I0403 15:46:23.768121 12479 net.cpp:399] inception_3b/3x3 -> inception_3b/3x3
I0403 15:46:23.771020 12479 net.cpp:141] Setting up inception_3b/3x3
I0403 15:46:23.771051 12479 net.cpp:148] Top shape: 24 192 28 28 (3612672)
I0403 15:46:23.771069 12479 net.cpp:156] Memory required for data: 710493216
I0403 15:46:23.771086 12479 layer_factory.hpp:77] Creating layer inception_3b/relu_3x3
I0403 15:46:23.771105 12479 net.cpp:91] Creating Layer inception_3b/relu_3x3
I0403 15:46:23.771119 12479 net.cpp:425] inception_3b/relu_3x3 <- inception_3b/3x3
I0403 15:46:23.771136 12479 net.cpp:386] inception_3b/relu_3x3 -> inception_3b/3x3 (in-place)
I0403 15:46:23.771414 12479 net.cpp:141] Setting up inception_3b/relu_3x3
I0403 15:46:23.771442 12479 net.cpp:148] Top shape: 24 192 28 28 (3612672)
I0403 15:46:23.771458 12479 net.cpp:156] Memory required for data: 724943904
I0403 15:46:23.771473 12479 layer_factory.hpp:77] Creating layer inception_3b/5x5_reduce
I0403 15:46:23.771493 12479 net.cpp:91] Creating Layer inception_3b/5x5_reduce
I0403 15:46:23.771510 12479 net.cpp:425] inception_3b/5x5_reduce <- inception_3a/output_inception_3a/output_0_split_2
I0403 15:46:23.771531 12479 net.cpp:399] inception_3b/5x5_reduce -> inception_3b/5x5_reduce
I0403 15:46:23.772519 12479 net.cpp:141] Setting up inception_3b/5x5_reduce
I0403 15:46:23.772547 12479 net.cpp:148] Top shape: 24 32 28 28 (602112)
I0403 15:46:23.772562 12479 net.cpp:156] Memory required for data: 727352352
I0403 15:46:23.772580 12479 layer_factory.hpp:77] Creating layer inception_3b/relu_5x5_reduce
I0403 15:46:23.772601 12479 net.cpp:91] Creating Layer inception_3b/relu_5x5_reduce
I0403 15:46:23.772617 12479 net.cpp:425] inception_3b/relu_5x5_reduce <- inception_3b/5x5_reduce
I0403 15:46:23.772634 12479 net.cpp:386] inception_3b/relu_5x5_reduce -> inception_3b/5x5_reduce (in-place)
I0403 15:46:23.772826 12479 net.cpp:141] Setting up inception_3b/relu_5x5_reduce
I0403 15:46:23.772853 12479 net.cpp:148] Top shape: 24 32 28 28 (602112)
I0403 15:46:23.772869 12479 net.cpp:156] Memory required for data: 729760800
I0403 15:46:23.772883 12479 layer_factory.hpp:77] Creating layer inception_3b/5x5
I0403 15:46:23.772905 12479 net.cpp:91] Creating Layer inception_3b/5x5
I0403 15:46:23.772922 12479 net.cpp:425] inception_3b/5x5 <- inception_3b/5x5_reduce
I0403 15:46:23.772941 12479 net.cpp:399] inception_3b/5x5 -> inception_3b/5x5
I0403 15:46:23.774987 12479 net.cpp:141] Setting up inception_3b/5x5
I0403 15:46:23.775017 12479 net.cpp:148] Top shape: 24 96 28 28 (1806336)
I0403 15:46:23.775032 12479 net.cpp:156] Memory required for data: 736986144
I0403 15:46:23.775050 12479 layer_factory.hpp:77] Creating layer inception_3b/relu_5x5
I0403 15:46:23.775070 12479 net.cpp:91] Creating Layer inception_3b/relu_5x5
I0403 15:46:23.775087 12479 net.cpp:425] inception_3b/relu_5x5 <- inception_3b/5x5
I0403 15:46:23.775104 12479 net.cpp:386] inception_3b/relu_5x5 -> inception_3b/5x5 (in-place)
I0403 15:46:23.775301 12479 net.cpp:141] Setting up inception_3b/relu_5x5
I0403 15:46:23.775326 12479 net.cpp:148] Top shape: 24 96 28 28 (1806336)
I0403 15:46:23.775341 12479 net.cpp:156] Memory required for data: 744211488
I0403 15:46:23.775360 12479 layer_factory.hpp:77] Creating layer inception_3b/pool
I0403 15:46:23.775378 12479 net.cpp:91] Creating Layer inception_3b/pool
I0403 15:46:23.775394 12479 net.cpp:425] inception_3b/pool <- inception_3a/output_inception_3a/output_0_split_3
I0403 15:46:23.775413 12479 net.cpp:399] inception_3b/pool -> inception_3b/pool
I0403 15:46:23.775481 12479 net.cpp:141] Setting up inception_3b/pool
I0403 15:46:23.775506 12479 net.cpp:148] Top shape: 24 256 28 28 (4816896)
I0403 15:46:23.775521 12479 net.cpp:156] Memory required for data: 763479072
I0403 15:46:23.775534 12479 layer_factory.hpp:77] Creating layer inception_3b/pool_proj
I0403 15:46:23.775560 12479 net.cpp:91] Creating Layer inception_3b/pool_proj
I0403 15:46:23.775579 12479 net.cpp:425] inception_3b/pool_proj <- inception_3b/pool
I0403 15:46:23.775599 12479 net.cpp:399] inception_3b/pool_proj -> inception_3b/pool_proj
I0403 15:46:23.776680 12479 net.cpp:141] Setting up inception_3b/pool_proj
I0403 15:46:23.776722 12479 net.cpp:148] Top shape: 24 64 28 28 (1204224)
I0403 15:46:23.776738 12479 net.cpp:156] Memory required for data: 768295968
I0403 15:46:23.776757 12479 layer_factory.hpp:77] Creating layer inception_3b/relu_pool_proj
I0403 15:46:23.776774 12479 net.cpp:91] Creating Layer inception_3b/relu_pool_proj
I0403 15:46:23.776790 12479 net.cpp:425] inception_3b/relu_pool_proj <- inception_3b/pool_proj
I0403 15:46:23.776809 12479 net.cpp:386] inception_3b/relu_pool_proj -> inception_3b/pool_proj (in-place)
I0403 15:46:23.777195 12479 net.cpp:141] Setting up inception_3b/relu_pool_proj
I0403 15:46:23.777225 12479 net.cpp:148] Top shape: 24 64 28 28 (1204224)
I0403 15:46:23.777240 12479 net.cpp:156] Memory required for data: 773112864
I0403 15:46:23.777253 12479 layer_factory.hpp:77] Creating layer inception_3b/output
I0403 15:46:23.777271 12479 net.cpp:91] Creating Layer inception_3b/output
I0403 15:46:23.777287 12479 net.cpp:425] inception_3b/output <- inception_3b/1x1
I0403 15:46:23.777302 12479 net.cpp:425] inception_3b/output <- inception_3b/3x3
I0403 15:46:23.777319 12479 net.cpp:425] inception_3b/output <- inception_3b/5x5
I0403 15:46:23.777334 12479 net.cpp:425] inception_3b/output <- inception_3b/pool_proj
I0403 15:46:23.777354 12479 net.cpp:399] inception_3b/output -> inception_3b/output
I0403 15:46:23.777400 12479 net.cpp:141] Setting up inception_3b/output
I0403 15:46:23.777423 12479 net.cpp:148] Top shape: 24 480 28 28 (9031680)
I0403 15:46:23.777451 12479 net.cpp:156] Memory required for data: 809239584
I0403 15:46:23.777465 12479 layer_factory.hpp:77] Creating layer pool3/3x3_s2
I0403 15:46:23.777485 12479 net.cpp:91] Creating Layer pool3/3x3_s2
I0403 15:46:23.777503 12479 net.cpp:425] pool3/3x3_s2 <- inception_3b/output
I0403 15:46:23.777537 12479 net.cpp:399] pool3/3x3_s2 -> pool3/3x3_s2
I0403 15:46:23.777600 12479 net.cpp:141] Setting up pool3/3x3_s2
I0403 15:46:23.777622 12479 net.cpp:148] Top shape: 24 480 14 14 (2257920)
I0403 15:46:23.777637 12479 net.cpp:156] Memory required for data: 818271264
I0403 15:46:23.777652 12479 layer_factory.hpp:77] Creating layer pool3/3x3_s2_pool3/3x3_s2_0_split
I0403 15:46:23.777669 12479 net.cpp:91] Creating Layer pool3/3x3_s2_pool3/3x3_s2_0_split
I0403 15:46:23.777684 12479 net.cpp:425] pool3/3x3_s2_pool3/3x3_s2_0_split <- pool3/3x3_s2
I0403 15:46:23.777704 12479 net.cpp:399] pool3/3x3_s2_pool3/3x3_s2_0_split -> pool3/3x3_s2_pool3/3x3_s2_0_split_0
I0403 15:46:23.777736 12479 net.cpp:399] pool3/3x3_s2_pool3/3x3_s2_0_split -> pool3/3x3_s2_pool3/3x3_s2_0_split_1
I0403 15:46:23.777755 12479 net.cpp:399] pool3/3x3_s2_pool3/3x3_s2_0_split -> pool3/3x3_s2_pool3/3x3_s2_0_split_2
I0403 15:46:23.777775 12479 net.cpp:399] pool3/3x3_s2_pool3/3x3_s2_0_split -> pool3/3x3_s2_pool3/3x3_s2_0_split_3
I0403 15:46:23.777850 12479 net.cpp:141] Setting up pool3/3x3_s2_pool3/3x3_s2_0_split
I0403 15:46:23.777874 12479 net.cpp:148] Top shape: 24 480 14 14 (2257920)
I0403 15:46:23.777891 12479 net.cpp:148] Top shape: 24 480 14 14 (2257920)
I0403 15:46:23.777909 12479 net.cpp:148] Top shape: 24 480 14 14 (2257920)
I0403 15:46:23.777923 12479 net.cpp:148] Top shape: 24 480 14 14 (2257920)
I0403 15:46:23.777937 12479 net.cpp:156] Memory required for data: 854397984
I0403 15:46:23.777951 12479 layer_factory.hpp:77] Creating layer inception_4a/1x1
I0403 15:46:23.777973 12479 net.cpp:91] Creating Layer inception_4a/1x1
I0403 15:46:23.777990 12479 net.cpp:425] inception_4a/1x1 <- pool3/3x3_s2_pool3/3x3_s2_0_split_0
I0403 15:46:23.778008 12479 net.cpp:399] inception_4a/1x1 -> inception_4a/1x1
I0403 15:46:23.779621 12479 net.cpp:141] Setting up inception_4a/1x1
I0403 15:46:23.779650 12479 net.cpp:148] Top shape: 24 192 14 14 (903168)
I0403 15:46:23.779665 12479 net.cpp:156] Memory required for data: 858010656
I0403 15:46:23.779685 12479 layer_factory.hpp:77] Creating layer inception_4a/relu_1x1
I0403 15:46:23.779702 12479 net.cpp:91] Creating Layer inception_4a/relu_1x1
I0403 15:46:23.779731 12479 net.cpp:425] inception_4a/relu_1x1 <- inception_4a/1x1
I0403 15:46:23.779749 12479 net.cpp:386] inception_4a/relu_1x1 -> inception_4a/1x1 (in-place)
I0403 15:46:23.779939 12479 net.cpp:141] Setting up inception_4a/relu_1x1
I0403 15:46:23.779963 12479 net.cpp:148] Top shape: 24 192 14 14 (903168)
I0403 15:46:23.779978 12479 net.cpp:156] Memory required for data: 861623328
I0403 15:46:23.779991 12479 layer_factory.hpp:77] Creating layer inception_4a/3x3_reduce
I0403 15:46:23.780014 12479 net.cpp:91] Creating Layer inception_4a/3x3_reduce
I0403 15:46:23.780030 12479 net.cpp:425] inception_4a/3x3_reduce <- pool3/3x3_s2_pool3/3x3_s2_0_split_1
I0403 15:46:23.780050 12479 net.cpp:399] inception_4a/3x3_reduce -> inception_4a/3x3_reduce
I0403 15:46:23.781354 12479 net.cpp:141] Setting up inception_4a/3x3_reduce
I0403 15:46:23.781380 12479 net.cpp:148] Top shape: 24 96 14 14 (451584)
I0403 15:46:23.781395 12479 net.cpp:156] Memory required for data: 863429664
I0403 15:46:23.781432 12479 layer_factory.hpp:77] Creating layer inception_4a/relu_3x3_reduce
I0403 15:46:23.781452 12479 net.cpp:91] Creating Layer inception_4a/relu_3x3_reduce
I0403 15:46:23.781467 12479 net.cpp:425] inception_4a/relu_3x3_reduce <- inception_4a/3x3_reduce
I0403 15:46:23.781487 12479 net.cpp:386] inception_4a/relu_3x3_reduce -> inception_4a/3x3_reduce (in-place)
I0403 15:46:23.781664 12479 net.cpp:141] Setting up inception_4a/relu_3x3_reduce
I0403 15:46:23.781689 12479 net.cpp:148] Top shape: 24 96 14 14 (451584)
I0403 15:46:23.781703 12479 net.cpp:156] Memory required for data: 865236000
I0403 15:46:23.781718 12479 layer_factory.hpp:77] Creating layer inception_4a/3x3
I0403 15:46:23.781740 12479 net.cpp:91] Creating Layer inception_4a/3x3
I0403 15:46:23.781759 12479 net.cpp:425] inception_4a/3x3 <- inception_4a/3x3_reduce
I0403 15:46:23.781780 12479 net.cpp:399] inception_4a/3x3 -> inception_4a/3x3
I0403 15:46:23.784729 12479 net.cpp:141] Setting up inception_4a/3x3
I0403 15:46:23.784759 12479 net.cpp:148] Top shape: 24 208 14 14 (978432)
I0403 15:46:23.784775 12479 net.cpp:156] Memory required for data: 869149728
I0403 15:46:23.784793 12479 layer_factory.hpp:77] Creating layer inception_4a/relu_3x3
I0403 15:46:23.784818 12479 net.cpp:91] Creating Layer inception_4a/relu_3x3
I0403 15:46:23.784837 12479 net.cpp:425] inception_4a/relu_3x3 <- inception_4a/3x3
I0403 15:46:23.784868 12479 net.cpp:386] inception_4a/relu_3x3 -> inception_4a/3x3 (in-place)
I0403 15:46:23.785182 12479 net.cpp:141] Setting up inception_4a/relu_3x3
I0403 15:46:23.785210 12479 net.cpp:148] Top shape: 24 208 14 14 (978432)
I0403 15:46:23.785228 12479 net.cpp:156] Memory required for data: 873063456
I0403 15:46:23.785243 12479 layer_factory.hpp:77] Creating layer inception_4a/5x5_reduce
I0403 15:46:23.785269 12479 net.cpp:91] Creating Layer inception_4a/5x5_reduce
I0403 15:46:23.785286 12479 net.cpp:425] inception_4a/5x5_reduce <- pool3/3x3_s2_pool3/3x3_s2_0_split_2
I0403 15:46:23.785310 12479 net.cpp:399] inception_4a/5x5_reduce -> inception_4a/5x5_reduce
I0403 15:46:23.786429 12479 net.cpp:141] Setting up inception_4a/5x5_reduce
I0403 15:46:23.786464 12479 net.cpp:148] Top shape: 24 16 14 14 (75264)
I0403 15:46:23.786490 12479 net.cpp:156] Memory required for data: 873364512
I0403 15:46:23.786510 12479 layer_factory.hpp:77] Creating layer inception_4a/relu_5x5_reduce
I0403 15:46:23.786545 12479 net.cpp:91] Creating Layer inception_4a/relu_5x5_reduce
I0403 15:46:23.786562 12479 net.cpp:425] inception_4a/relu_5x5_reduce <- inception_4a/5x5_reduce
I0403 15:46:23.786581 12479 net.cpp:386] inception_4a/relu_5x5_reduce -> inception_4a/5x5_reduce (in-place)
I0403 15:46:23.786777 12479 net.cpp:141] Setting up inception_4a/relu_5x5_reduce
I0403 15:46:23.786804 12479 net.cpp:148] Top shape: 24 16 14 14 (75264)
I0403 15:46:23.786833 12479 net.cpp:156] Memory required for data: 873665568
I0403 15:46:23.786847 12479 layer_factory.hpp:77] Creating layer inception_4a/5x5
I0403 15:46:23.786870 12479 net.cpp:91] Creating Layer inception_4a/5x5
I0403 15:46:23.786887 12479 net.cpp:425] inception_4a/5x5 <- inception_4a/5x5_reduce
I0403 15:46:23.786906 12479 net.cpp:399] inception_4a/5x5 -> inception_4a/5x5
I0403 15:46:23.788009 12479 net.cpp:141] Setting up inception_4a/5x5
I0403 15:46:23.788039 12479 net.cpp:148] Top shape: 24 48 14 14 (225792)
I0403 15:46:23.788055 12479 net.cpp:156] Memory required for data: 874568736
I0403 15:46:23.788074 12479 layer_factory.hpp:77] Creating layer inception_4a/relu_5x5
I0403 15:46:23.788091 12479 net.cpp:91] Creating Layer inception_4a/relu_5x5
I0403 15:46:23.788107 12479 net.cpp:425] inception_4a/relu_5x5 <- inception_4a/5x5
I0403 15:46:23.788126 12479 net.cpp:386] inception_4a/relu_5x5 -> inception_4a/5x5 (in-place)
I0403 15:46:23.788311 12479 net.cpp:141] Setting up inception_4a/relu_5x5
I0403 15:46:23.788336 12479 net.cpp:148] Top shape: 24 48 14 14 (225792)
I0403 15:46:23.788353 12479 net.cpp:156] Memory required for data: 875471904
I0403 15:46:23.788369 12479 layer_factory.hpp:77] Creating layer inception_4a/pool
I0403 15:46:23.788389 12479 net.cpp:91] Creating Layer inception_4a/pool
I0403 15:46:23.788404 12479 net.cpp:425] inception_4a/pool <- pool3/3x3_s2_pool3/3x3_s2_0_split_3
I0403 15:46:23.788425 12479 net.cpp:399] inception_4a/pool -> inception_4a/pool
I0403 15:46:23.788487 12479 net.cpp:141] Setting up inception_4a/pool
I0403 15:46:23.788511 12479 net.cpp:148] Top shape: 24 480 14 14 (2257920)
I0403 15:46:23.788525 12479 net.cpp:156] Memory required for data: 884503584
I0403 15:46:23.788539 12479 layer_factory.hpp:77] Creating layer inception_4a/pool_proj
I0403 15:46:23.788560 12479 net.cpp:91] Creating Layer inception_4a/pool_proj
I0403 15:46:23.788578 12479 net.cpp:425] inception_4a/pool_proj <- inception_4a/pool
I0403 15:46:23.788599 12479 net.cpp:399] inception_4a/pool_proj -> inception_4a/pool_proj
I0403 15:46:23.789779 12479 net.cpp:141] Setting up inception_4a/pool_proj
I0403 15:46:23.789808 12479 net.cpp:148] Top shape: 24 64 14 14 (301056)
I0403 15:46:23.789839 12479 net.cpp:156] Memory required for data: 885707808
I0403 15:46:23.789858 12479 layer_factory.hpp:77] Creating layer inception_4a/relu_pool_proj
I0403 15:46:23.789876 12479 net.cpp:91] Creating Layer inception_4a/relu_pool_proj
I0403 15:46:23.789892 12479 net.cpp:425] inception_4a/relu_pool_proj <- inception_4a/pool_proj
I0403 15:46:23.789912 12479 net.cpp:386] inception_4a/relu_pool_proj -> inception_4a/pool_proj (in-place)
I0403 15:46:23.790192 12479 net.cpp:141] Setting up inception_4a/relu_pool_proj
I0403 15:46:23.790217 12479 net.cpp:148] Top shape: 24 64 14 14 (301056)
I0403 15:46:23.790232 12479 net.cpp:156] Memory required for data: 886912032
I0403 15:46:23.790246 12479 layer_factory.hpp:77] Creating layer inception_4a/output
I0403 15:46:23.790263 12479 net.cpp:91] Creating Layer inception_4a/output
I0403 15:46:23.790279 12479 net.cpp:425] inception_4a/output <- inception_4a/1x1
I0403 15:46:23.790295 12479 net.cpp:425] inception_4a/output <- inception_4a/3x3
I0403 15:46:23.790312 12479 net.cpp:425] inception_4a/output <- inception_4a/5x5
I0403 15:46:23.790328 12479 net.cpp:425] inception_4a/output <- inception_4a/pool_proj
I0403 15:46:23.790346 12479 net.cpp:399] inception_4a/output -> inception_4a/output
I0403 15:46:23.790395 12479 net.cpp:141] Setting up inception_4a/output
I0403 15:46:23.790421 12479 net.cpp:148] Top shape: 24 512 14 14 (2408448)
I0403 15:46:23.790437 12479 net.cpp:156] Memory required for data: 896545824
I0403 15:46:23.790452 12479 layer_factory.hpp:77] Creating layer inception_4a/output_inception_4a/output_0_split
I0403 15:46:23.790469 12479 net.cpp:91] Creating Layer inception_4a/output_inception_4a/output_0_split
I0403 15:46:23.790484 12479 net.cpp:425] inception_4a/output_inception_4a/output_0_split <- inception_4a/output
I0403 15:46:23.790503 12479 net.cpp:399] inception_4a/output_inception_4a/output_0_split -> inception_4a/output_inception_4a/output_0_split_0
I0403 15:46:23.790524 12479 net.cpp:399] inception_4a/output_inception_4a/output_0_split -> inception_4a/output_inception_4a/output_0_split_1
I0403 15:46:23.790545 12479 net.cpp:399] inception_4a/output_inception_4a/output_0_split -> inception_4a/output_inception_4a/output_0_split_2
I0403 15:46:23.790565 12479 net.cpp:399] inception_4a/output_inception_4a/output_0_split -> inception_4a/output_inception_4a/output_0_split_3
I0403 15:46:23.790583 12479 net.cpp:399] inception_4a/output_inception_4a/output_0_split -> inception_4a/output_inception_4a/output_0_split_4
I0403 15:46:23.790674 12479 net.cpp:141] Setting up inception_4a/output_inception_4a/output_0_split
I0403 15:46:23.790698 12479 net.cpp:148] Top shape: 24 512 14 14 (2408448)
I0403 15:46:23.790714 12479 net.cpp:148] Top shape: 24 512 14 14 (2408448)
I0403 15:46:23.790729 12479 net.cpp:148] Top shape: 24 512 14 14 (2408448)
I0403 15:46:23.790742 12479 net.cpp:148] Top shape: 24 512 14 14 (2408448)
I0403 15:46:23.790760 12479 net.cpp:148] Top shape: 24 512 14 14 (2408448)
I0403 15:46:23.790773 12479 net.cpp:156] Memory required for data: 944714784
I0403 15:46:23.790787 12479 layer_factory.hpp:77] Creating layer loss1/ave_pool
I0403 15:46:23.790807 12479 net.cpp:91] Creating Layer loss1/ave_pool
I0403 15:46:23.790823 12479 net.cpp:425] loss1/ave_pool <- inception_4a/output_inception_4a/output_0_split_0
I0403 15:46:23.790841 12479 net.cpp:399] loss1/ave_pool -> loss1/ave_pool
I0403 15:46:23.791049 12479 net.cpp:141] Setting up loss1/ave_pool
I0403 15:46:23.791074 12479 net.cpp:148] Top shape: 24 512 4 4 (196608)
I0403 15:46:23.791088 12479 net.cpp:156] Memory required for data: 945501216
I0403 15:46:23.791102 12479 layer_factory.hpp:77] Creating layer loss1/conv
I0403 15:46:23.791124 12479 net.cpp:91] Creating Layer loss1/conv
I0403 15:46:23.791141 12479 net.cpp:425] loss1/conv <- loss1/ave_pool
I0403 15:46:23.791163 12479 net.cpp:399] loss1/conv -> loss1/conv
I0403 15:46:23.792593 12479 net.cpp:141] Setting up loss1/conv
I0403 15:46:23.792620 12479 net.cpp:148] Top shape: 24 128 4 4 (49152)
I0403 15:46:23.792650 12479 net.cpp:156] Memory required for data: 945697824
I0403 15:46:23.792670 12479 layer_factory.hpp:77] Creating layer loss1/relu_conv
I0403 15:46:23.792690 12479 net.cpp:91] Creating Layer loss1/relu_conv
I0403 15:46:23.792708 12479 net.cpp:425] loss1/relu_conv <- loss1/conv
I0403 15:46:23.792726 12479 net.cpp:386] loss1/relu_conv -> loss1/conv (in-place)
I0403 15:46:23.793006 12479 net.cpp:141] Setting up loss1/relu_conv
I0403 15:46:23.793032 12479 net.cpp:148] Top shape: 24 128 4 4 (49152)
I0403 15:46:23.793046 12479 net.cpp:156] Memory required for data: 945894432
I0403 15:46:23.793061 12479 layer_factory.hpp:77] Creating layer loss1/fc
I0403 15:46:23.793087 12479 net.cpp:91] Creating Layer loss1/fc
I0403 15:46:23.793104 12479 net.cpp:425] loss1/fc <- loss1/conv
I0403 15:46:23.793123 12479 net.cpp:399] loss1/fc -> loss1/fc
I0403 15:46:23.811116 12479 net.cpp:141] Setting up loss1/fc
I0403 15:46:23.811149 12479 net.cpp:148] Top shape: 24 1024 (24576)
I0403 15:46:23.811167 12479 net.cpp:156] Memory required for data: 945992736
I0403 15:46:23.811187 12479 layer_factory.hpp:77] Creating layer loss1/relu_fc
I0403 15:46:23.811204 12479 net.cpp:91] Creating Layer loss1/relu_fc
I0403 15:46:23.811219 12479 net.cpp:425] loss1/relu_fc <- loss1/fc
I0403 15:46:23.811241 12479 net.cpp:386] loss1/relu_fc -> loss1/fc (in-place)
I0403 15:46:23.811439 12479 net.cpp:141] Setting up loss1/relu_fc
I0403 15:46:23.811463 12479 net.cpp:148] Top shape: 24 1024 (24576)
I0403 15:46:23.811478 12479 net.cpp:156] Memory required for data: 946091040
I0403 15:46:23.811496 12479 layer_factory.hpp:77] Creating layer loss1/drop_fc
I0403 15:46:23.811523 12479 net.cpp:91] Creating Layer loss1/drop_fc
I0403 15:46:23.811542 12479 net.cpp:425] loss1/drop_fc <- loss1/fc
I0403 15:46:23.811558 12479 net.cpp:386] loss1/drop_fc -> loss1/fc (in-place)
I0403 15:46:23.811621 12479 net.cpp:141] Setting up loss1/drop_fc
I0403 15:46:23.811650 12479 net.cpp:148] Top shape: 24 1024 (24576)
I0403 15:46:23.811666 12479 net.cpp:156] Memory required for data: 946189344
I0403 15:46:23.811682 12479 layer_factory.hpp:77] Creating layer loss1/classifier_plantvillage
I0403 15:46:23.811702 12479 net.cpp:91] Creating Layer loss1/classifier_plantvillage
I0403 15:46:23.811718 12479 net.cpp:425] loss1/classifier_plantvillage <- loss1/fc
I0403 15:46:23.811739 12479 net.cpp:399] loss1/classifier_plantvillage -> loss1/classifier_plantvillage
I0403 15:46:23.812688 12479 net.cpp:141] Setting up loss1/classifier_plantvillage
I0403 15:46:23.812716 12479 net.cpp:148] Top shape: 24 38 (912)
I0403 15:46:23.812731 12479 net.cpp:156] Memory required for data: 946192992
I0403 15:46:23.812749 12479 layer_factory.hpp:77] Creating layer loss1/classifier_plantvillage_loss1/classifier_plantvillage_0_split
I0403 15:46:23.812770 12479 net.cpp:91] Creating Layer loss1/classifier_plantvillage_loss1/classifier_plantvillage_0_split
I0403 15:46:23.812786 12479 net.cpp:425] loss1/classifier_plantvillage_loss1/classifier_plantvillage_0_split <- loss1/classifier_plantvillage
I0403 15:46:23.812804 12479 net.cpp:399] loss1/classifier_plantvillage_loss1/classifier_plantvillage_0_split -> loss1/classifier_plantvillage_loss1/classifier_plantvillage_0_split_0
I0403 15:46:23.812825 12479 net.cpp:399] loss1/classifier_plantvillage_loss1/classifier_plantvillage_0_split -> loss1/classifier_plantvillage_loss1/classifier_plantvillage_0_split_1
I0403 15:46:23.812845 12479 net.cpp:399] loss1/classifier_plantvillage_loss1/classifier_plantvillage_0_split -> loss1/classifier_plantvillage_loss1/classifier_plantvillage_0_split_2
I0403 15:46:23.812922 12479 net.cpp:141] Setting up loss1/classifier_plantvillage_loss1/classifier_plantvillage_0_split
I0403 15:46:23.812947 12479 net.cpp:148] Top shape: 24 38 (912)
I0403 15:46:23.812963 12479 net.cpp:148] Top shape: 24 38 (912)
I0403 15:46:23.812979 12479 net.cpp:148] Top shape: 24 38 (912)
I0403 15:46:23.812993 12479 net.cpp:156] Memory required for data: 946203936
I0403 15:46:23.813007 12479 layer_factory.hpp:77] Creating layer inception_4b/1x1
I0403 15:46:23.813026 12479 net.cpp:91] Creating Layer inception_4b/1x1
I0403 15:46:23.813060 12479 net.cpp:425] inception_4b/1x1 <- inception_4a/output_inception_4a/output_0_split_1
I0403 15:46:23.813081 12479 net.cpp:399] inception_4b/1x1 -> inception_4b/1x1
I0403 15:46:23.814752 12479 net.cpp:141] Setting up inception_4b/1x1
I0403 15:46:23.814780 12479 net.cpp:148] Top shape: 24 160 14 14 (752640)
I0403 15:46:23.814795 12479 net.cpp:156] Memory required for data: 949214496
I0403 15:46:23.814813 12479 layer_factory.hpp:77] Creating layer inception_4b/relu_1x1
I0403 15:46:23.814833 12479 net.cpp:91] Creating Layer inception_4b/relu_1x1
I0403 15:46:23.814851 12479 net.cpp:425] inception_4b/relu_1x1 <- inception_4b/1x1
I0403 15:46:23.814867 12479 net.cpp:386] inception_4b/relu_1x1 -> inception_4b/1x1 (in-place)
I0403 15:46:23.815053 12479 net.cpp:141] Setting up inception_4b/relu_1x1
I0403 15:46:23.815079 12479 net.cpp:148] Top shape: 24 160 14 14 (752640)
I0403 15:46:23.815095 12479 net.cpp:156] Memory required for data: 952225056
I0403 15:46:23.815111 12479 layer_factory.hpp:77] Creating layer inception_4b/3x3_reduce
I0403 15:46:23.815134 12479 net.cpp:91] Creating Layer inception_4b/3x3_reduce
I0403 15:46:23.815150 12479 net.cpp:425] inception_4b/3x3_reduce <- inception_4a/output_inception_4a/output_0_split_2
I0403 15:46:23.815170 12479 net.cpp:399] inception_4b/3x3_reduce -> inception_4b/3x3_reduce
I0403 15:46:23.816547 12479 net.cpp:141] Setting up inception_4b/3x3_reduce
I0403 15:46:23.816591 12479 net.cpp:148] Top shape: 24 112 14 14 (526848)
I0403 15:46:23.816607 12479 net.cpp:156] Memory required for data: 954332448
I0403 15:46:23.816627 12479 layer_factory.hpp:77] Creating layer inception_4b/relu_3x3_reduce
I0403 15:46:23.816644 12479 net.cpp:91] Creating Layer inception_4b/relu_3x3_reduce
I0403 15:46:23.816660 12479 net.cpp:425] inception_4b/relu_3x3_reduce <- inception_4b/3x3_reduce
I0403 15:46:23.816681 12479 net.cpp:386] inception_4b/relu_3x3_reduce -> inception_4b/3x3_reduce (in-place)
I0403 15:46:23.816975 12479 net.cpp:141] Setting up inception_4b/relu_3x3_reduce
I0403 15:46:23.817003 12479 net.cpp:148] Top shape: 24 112 14 14 (526848)
I0403 15:46:23.817020 12479 net.cpp:156] Memory required for data: 956439840
I0403 15:46:23.817035 12479 layer_factory.hpp:77] Creating layer inception_4b/3x3
I0403 15:46:23.817057 12479 net.cpp:91] Creating Layer inception_4b/3x3
I0403 15:46:23.817075 12479 net.cpp:425] inception_4b/3x3 <- inception_4b/3x3_reduce
I0403 15:46:23.817095 12479 net.cpp:399] inception_4b/3x3 -> inception_4b/3x3
I0403 15:46:23.820137 12479 net.cpp:141] Setting up inception_4b/3x3
I0403 15:46:23.820165 12479 net.cpp:148] Top shape: 24 224 14 14 (1053696)
I0403 15:46:23.820180 12479 net.cpp:156] Memory required for data: 960654624
I0403 15:46:23.820199 12479 layer_factory.hpp:77] Creating layer inception_4b/relu_3x3
I0403 15:46:23.820219 12479 net.cpp:91] Creating Layer inception_4b/relu_3x3
I0403 15:46:23.820235 12479 net.cpp:425] inception_4b/relu_3x3 <- inception_4b/3x3
I0403 15:46:23.820252 12479 net.cpp:386] inception_4b/relu_3x3 -> inception_4b/3x3 (in-place)
I0403 15:46:23.820436 12479 net.cpp:141] Setting up inception_4b/relu_3x3
I0403 15:46:23.820461 12479 net.cpp:148] Top shape: 24 224 14 14 (1053696)
I0403 15:46:23.820475 12479 net.cpp:156] Memory required for data: 964869408
I0403 15:46:23.820489 12479 layer_factory.hpp:77] Creating layer inception_4b/5x5_reduce
I0403 15:46:23.820511 12479 net.cpp:91] Creating Layer inception_4b/5x5_reduce
I0403 15:46:23.820529 12479 net.cpp:425] inception_4b/5x5_reduce <- inception_4a/output_inception_4a/output_0_split_3
I0403 15:46:23.820551 12479 net.cpp:399] inception_4b/5x5_reduce -> inception_4b/5x5_reduce
I0403 15:46:23.821660 12479 net.cpp:141] Setting up inception_4b/5x5_reduce
I0403 15:46:23.821688 12479 net.cpp:148] Top shape: 24 24 14 14 (112896)
I0403 15:46:23.821703 12479 net.cpp:156] Memory required for data: 965320992
I0403 15:46:23.821720 12479 layer_factory.hpp:77] Creating layer inception_4b/relu_5x5_reduce
I0403 15:46:23.821740 12479 net.cpp:91] Creating Layer inception_4b/relu_5x5_reduce
I0403 15:46:23.821771 12479 net.cpp:425] inception_4b/relu_5x5_reduce <- inception_4b/5x5_reduce
I0403 15:46:23.821790 12479 net.cpp:386] inception_4b/relu_5x5_reduce -> inception_4b/5x5_reduce (in-place)
I0403 15:46:23.821975 12479 net.cpp:141] Setting up inception_4b/relu_5x5_reduce
I0403 15:46:23.822000 12479 net.cpp:148] Top shape: 24 24 14 14 (112896)
I0403 15:46:23.822015 12479 net.cpp:156] Memory required for data: 965772576
I0403 15:46:23.822028 12479 layer_factory.hpp:77] Creating layer inception_4b/5x5
I0403 15:46:23.822052 12479 net.cpp:91] Creating Layer inception_4b/5x5
I0403 15:46:23.822068 12479 net.cpp:425] inception_4b/5x5 <- inception_4b/5x5_reduce
I0403 15:46:23.822089 12479 net.cpp:399] inception_4b/5x5 -> inception_4b/5x5
I0403 15:46:23.823364 12479 net.cpp:141] Setting up inception_4b/5x5
I0403 15:46:23.823393 12479 net.cpp:148] Top shape: 24 64 14 14 (301056)
I0403 15:46:23.823410 12479 net.cpp:156] Memory required for data: 966976800
I0403 15:46:23.823426 12479 layer_factory.hpp:77] Creating layer inception_4b/relu_5x5
I0403 15:46:23.823446 12479 net.cpp:91] Creating Layer inception_4b/relu_5x5
I0403 15:46:23.823463 12479 net.cpp:425] inception_4b/relu_5x5 <- inception_4b/5x5
I0403 15:46:23.823482 12479 net.cpp:386] inception_4b/relu_5x5 -> inception_4b/5x5 (in-place)
I0403 15:46:23.823787 12479 net.cpp:141] Setting up inception_4b/relu_5x5
I0403 15:46:23.823814 12479 net.cpp:148] Top shape: 24 64 14 14 (301056)
I0403 15:46:23.823829 12479 net.cpp:156] Memory required for data: 968181024
I0403 15:46:23.823843 12479 layer_factory.hpp:77] Creating layer inception_4b/pool
I0403 15:46:23.823875 12479 net.cpp:91] Creating Layer inception_4b/pool
I0403 15:46:23.823892 12479 net.cpp:425] inception_4b/pool <- inception_4a/output_inception_4a/output_0_split_4
I0403 15:46:23.823910 12479 net.cpp:399] inception_4b/pool -> inception_4b/pool
I0403 15:46:23.823976 12479 net.cpp:141] Setting up inception_4b/pool
I0403 15:46:23.823999 12479 net.cpp:148] Top shape: 24 512 14 14 (2408448)
I0403 15:46:23.824013 12479 net.cpp:156] Memory required for data: 977814816
I0403 15:46:23.824028 12479 layer_factory.hpp:77] Creating layer inception_4b/pool_proj
I0403 15:46:23.824049 12479 net.cpp:91] Creating Layer inception_4b/pool_proj
I0403 15:46:23.824067 12479 net.cpp:425] inception_4b/pool_proj <- inception_4b/pool
I0403 15:46:23.824089 12479 net.cpp:399] inception_4b/pool_proj -> inception_4b/pool_proj
I0403 15:46:23.825356 12479 net.cpp:141] Setting up inception_4b/pool_proj
I0403 15:46:23.825398 12479 net.cpp:148] Top shape: 24 64 14 14 (301056)
I0403 15:46:23.825419 12479 net.cpp:156] Memory required for data: 979019040
I0403 15:46:23.825439 12479 layer_factory.hpp:77] Creating layer inception_4b/relu_pool_proj
I0403 15:46:23.825461 12479 net.cpp:91] Creating Layer inception_4b/relu_pool_proj
I0403 15:46:23.825490 12479 net.cpp:425] inception_4b/relu_pool_proj <- inception_4b/pool_proj
I0403 15:46:23.825508 12479 net.cpp:386] inception_4b/relu_pool_proj -> inception_4b/pool_proj (in-place)
I0403 15:46:23.825705 12479 net.cpp:141] Setting up inception_4b/relu_pool_proj
I0403 15:46:23.825732 12479 net.cpp:148] Top shape: 24 64 14 14 (301056)
I0403 15:46:23.825752 12479 net.cpp:156] Memory required for data: 980223264
I0403 15:46:23.825767 12479 layer_factory.hpp:77] Creating layer inception_4b/output
I0403 15:46:23.825785 12479 net.cpp:91] Creating Layer inception_4b/output
I0403 15:46:23.825801 12479 net.cpp:425] inception_4b/output <- inception_4b/1x1
I0403 15:46:23.825819 12479 net.cpp:425] inception_4b/output <- inception_4b/3x3
I0403 15:46:23.825835 12479 net.cpp:425] inception_4b/output <- inception_4b/5x5
I0403 15:46:23.825852 12479 net.cpp:425] inception_4b/output <- inception_4b/pool_proj
I0403 15:46:23.825872 12479 net.cpp:399] inception_4b/output -> inception_4b/output
I0403 15:46:23.825920 12479 net.cpp:141] Setting up inception_4b/output
I0403 15:46:23.825944 12479 net.cpp:148] Top shape: 24 512 14 14 (2408448)
I0403 15:46:23.825959 12479 net.cpp:156] Memory required for data: 989857056
I0403 15:46:23.825990 12479 layer_factory.hpp:77] Creating layer inception_4b/output_inception_4b/output_0_split
I0403 15:46:23.826012 12479 net.cpp:91] Creating Layer inception_4b/output_inception_4b/output_0_split
I0403 15:46:23.826041 12479 net.cpp:425] inception_4b/output_inception_4b/output_0_split <- inception_4b/output
I0403 15:46:23.826059 12479 net.cpp:399] inception_4b/output_inception_4b/output_0_split -> inception_4b/output_inception_4b/output_0_split_0
I0403 15:46:23.826079 12479 net.cpp:399] inception_4b/output_inception_4b/output_0_split -> inception_4b/output_inception_4b/output_0_split_1
I0403 15:46:23.826117 12479 net.cpp:399] inception_4b/output_inception_4b/output_0_split -> inception_4b/output_inception_4b/output_0_split_2
I0403 15:46:23.826138 12479 net.cpp:399] inception_4b/output_inception_4b/output_0_split -> inception_4b/output_inception_4b/output_0_split_3
I0403 15:46:23.826225 12479 net.cpp:141] Setting up inception_4b/output_inception_4b/output_0_split
I0403 15:46:23.826251 12479 net.cpp:148] Top shape: 24 512 14 14 (2408448)
I0403 15:46:23.826267 12479 net.cpp:148] Top shape: 24 512 14 14 (2408448)
I0403 15:46:23.826282 12479 net.cpp:148] Top shape: 24 512 14 14 (2408448)
I0403 15:46:23.826297 12479 net.cpp:148] Top shape: 24 512 14 14 (2408448)
I0403 15:46:23.826311 12479 net.cpp:156] Memory required for data: 1028392224
I0403 15:46:23.826328 12479 layer_factory.hpp:77] Creating layer inception_4c/1x1
I0403 15:46:23.826362 12479 net.cpp:91] Creating Layer inception_4c/1x1
I0403 15:46:23.826387 12479 net.cpp:425] inception_4c/1x1 <- inception_4b/output_inception_4b/output_0_split_0
I0403 15:46:23.826411 12479 net.cpp:399] inception_4c/1x1 -> inception_4c/1x1
I0403 15:46:23.827962 12479 net.cpp:141] Setting up inception_4c/1x1
I0403 15:46:23.827996 12479 net.cpp:148] Top shape: 24 128 14 14 (602112)
I0403 15:46:23.828013 12479 net.cpp:156] Memory required for data: 1030800672
I0403 15:46:23.828045 12479 layer_factory.hpp:77] Creating layer inception_4c/relu_1x1
I0403 15:46:23.828063 12479 net.cpp:91] Creating Layer inception_4c/relu_1x1
I0403 15:46:23.828079 12479 net.cpp:425] inception_4c/relu_1x1 <- inception_4c/1x1
I0403 15:46:23.828099 12479 net.cpp:386] inception_4c/relu_1x1 -> inception_4c/1x1 (in-place)
I0403 15:46:23.828301 12479 net.cpp:141] Setting up inception_4c/relu_1x1
I0403 15:46:23.828327 12479 net.cpp:148] Top shape: 24 128 14 14 (602112)
I0403 15:46:23.828343 12479 net.cpp:156] Memory required for data: 1033209120
I0403 15:46:23.828362 12479 layer_factory.hpp:77] Creating layer inception_4c/3x3_reduce
I0403 15:46:23.828387 12479 net.cpp:91] Creating Layer inception_4c/3x3_reduce
I0403 15:46:23.828405 12479 net.cpp:425] inception_4c/3x3_reduce <- inception_4b/output_inception_4b/output_0_split_1
I0403 15:46:23.828428 12479 net.cpp:399] inception_4c/3x3_reduce -> inception_4c/3x3_reduce
I0403 15:46:23.830493 12479 net.cpp:141] Setting up inception_4c/3x3_reduce
I0403 15:46:23.830524 12479 net.cpp:148] Top shape: 24 128 14 14 (602112)
I0403 15:46:23.830540 12479 net.cpp:156] Memory required for data: 1035617568
I0403 15:46:23.830560 12479 layer_factory.hpp:77] Creating layer inception_4c/relu_3x3_reduce
I0403 15:46:23.830585 12479 net.cpp:91] Creating Layer inception_4c/relu_3x3_reduce
I0403 15:46:23.830603 12479 net.cpp:425] inception_4c/relu_3x3_reduce <- inception_4c/3x3_reduce
I0403 15:46:23.830622 12479 net.cpp:386] inception_4c/relu_3x3_reduce -> inception_4c/3x3_reduce (in-place)
I0403 15:46:23.830922 12479 net.cpp:141] Setting up inception_4c/relu_3x3_reduce
I0403 15:46:23.830950 12479 net.cpp:148] Top shape: 24 128 14 14 (602112)
I0403 15:46:23.830965 12479 net.cpp:156] Memory required for data: 1038026016
I0403 15:46:23.830981 12479 layer_factory.hpp:77] Creating layer inception_4c/3x3
I0403 15:46:23.831004 12479 net.cpp:91] Creating Layer inception_4c/3x3
I0403 15:46:23.831022 12479 net.cpp:425] inception_4c/3x3 <- inception_4c/3x3_reduce
I0403 15:46:23.831046 12479 net.cpp:399] inception_4c/3x3 -> inception_4c/3x3
I0403 15:46:23.834877 12479 net.cpp:141] Setting up inception_4c/3x3
I0403 15:46:23.834921 12479 net.cpp:148] Top shape: 24 256 14 14 (1204224)
I0403 15:46:23.834939 12479 net.cpp:156] Memory required for data: 1042842912
I0403 15:46:23.834974 12479 layer_factory.hpp:77] Creating layer inception_4c/relu_3x3
I0403 15:46:23.834997 12479 net.cpp:91] Creating Layer inception_4c/relu_3x3
I0403 15:46:23.835016 12479 net.cpp:425] inception_4c/relu_3x3 <- inception_4c/3x3
I0403 15:46:23.835032 12479 net.cpp:386] inception_4c/relu_3x3 -> inception_4c/3x3 (in-place)
I0403 15:46:23.835228 12479 net.cpp:141] Setting up inception_4c/relu_3x3
I0403 15:46:23.835255 12479 net.cpp:148] Top shape: 24 256 14 14 (1204224)
I0403 15:46:23.835269 12479 net.cpp:156] Memory required for data: 1047659808
I0403 15:46:23.835285 12479 layer_factory.hpp:77] Creating layer inception_4c/5x5_reduce
I0403 15:46:23.835311 12479 net.cpp:91] Creating Layer inception_4c/5x5_reduce
I0403 15:46:23.835330 12479 net.cpp:425] inception_4c/5x5_reduce <- inception_4b/output_inception_4b/output_0_split_2
I0403 15:46:23.835355 12479 net.cpp:399] inception_4c/5x5_reduce -> inception_4c/5x5_reduce
I0403 15:46:23.836510 12479 net.cpp:141] Setting up inception_4c/5x5_reduce
I0403 15:46:23.836540 12479 net.cpp:148] Top shape: 24 24 14 14 (112896)
I0403 15:46:23.836556 12479 net.cpp:156] Memory required for data: 1048111392
I0403 15:46:23.836575 12479 layer_factory.hpp:77] Creating layer inception_4c/relu_5x5_reduce
I0403 15:46:23.836596 12479 net.cpp:91] Creating Layer inception_4c/relu_5x5_reduce
I0403 15:46:23.836614 12479 net.cpp:425] inception_4c/relu_5x5_reduce <- inception_4c/5x5_reduce
I0403 15:46:23.836632 12479 net.cpp:386] inception_4c/relu_5x5_reduce -> inception_4c/5x5_reduce (in-place)
I0403 15:46:23.836825 12479 net.cpp:141] Setting up inception_4c/relu_5x5_reduce
I0403 15:46:23.836854 12479 net.cpp:148] Top shape: 24 24 14 14 (112896)
I0403 15:46:23.836869 12479 net.cpp:156] Memory required for data: 1048562976
I0403 15:46:23.836884 12479 layer_factory.hpp:77] Creating layer inception_4c/5x5
I0403 15:46:23.836907 12479 net.cpp:91] Creating Layer inception_4c/5x5
I0403 15:46:23.836926 12479 net.cpp:425] inception_4c/5x5 <- inception_4c/5x5_reduce
I0403 15:46:23.836949 12479 net.cpp:399] inception_4c/5x5 -> inception_4c/5x5
I0403 15:46:23.838259 12479 net.cpp:141] Setting up inception_4c/5x5
I0403 15:46:23.838290 12479 net.cpp:148] Top shape: 24 64 14 14 (301056)
I0403 15:46:23.838307 12479 net.cpp:156] Memory required for data: 1049767200
I0403 15:46:23.838326 12479 layer_factory.hpp:77] Creating layer inception_4c/relu_5x5
I0403 15:46:23.838346 12479 net.cpp:91] Creating Layer inception_4c/relu_5x5
I0403 15:46:23.838371 12479 net.cpp:425] inception_4c/relu_5x5 <- inception_4c/5x5
I0403 15:46:23.838394 12479 net.cpp:386] inception_4c/relu_5x5 -> inception_4c/5x5 (in-place)
I0403 15:46:23.838696 12479 net.cpp:141] Setting up inception_4c/relu_5x5
I0403 15:46:23.838728 12479 net.cpp:148] Top shape: 24 64 14 14 (301056)
I0403 15:46:23.838745 12479 net.cpp:156] Memory required for data: 1050971424
I0403 15:46:23.838762 12479 layer_factory.hpp:77] Creating layer inception_4c/pool
I0403 15:46:23.838780 12479 net.cpp:91] Creating Layer inception_4c/pool
I0403 15:46:23.838798 12479 net.cpp:425] inception_4c/pool <- inception_4b/output_inception_4b/output_0_split_3
I0403 15:46:23.838819 12479 net.cpp:399] inception_4c/pool -> inception_4c/pool
I0403 15:46:23.838887 12479 net.cpp:141] Setting up inception_4c/pool
I0403 15:46:23.838915 12479 net.cpp:148] Top shape: 24 512 14 14 (2408448)
I0403 15:46:23.838932 12479 net.cpp:156] Memory required for data: 1060605216
I0403 15:46:23.838948 12479 layer_factory.hpp:77] Creating layer inception_4c/pool_proj
I0403 15:46:23.838968 12479 net.cpp:91] Creating Layer inception_4c/pool_proj
I0403 15:46:23.838985 12479 net.cpp:425] inception_4c/pool_proj <- inception_4c/pool
I0403 15:46:23.839009 12479 net.cpp:399] inception_4c/pool_proj -> inception_4c/pool_proj
I0403 15:46:23.840291 12479 net.cpp:141] Setting up inception_4c/pool_proj
I0403 15:46:23.840320 12479 net.cpp:148] Top shape: 24 64 14 14 (301056)
I0403 15:46:23.840356 12479 net.cpp:156] Memory required for data: 1061809440
I0403 15:46:23.840378 12479 layer_factory.hpp:77] Creating layer inception_4c/relu_pool_proj
I0403 15:46:23.840401 12479 net.cpp:91] Creating Layer inception_4c/relu_pool_proj
I0403 15:46:23.840420 12479 net.cpp:425] inception_4c/relu_pool_proj <- inception_4c/pool_proj
I0403 15:46:23.840437 12479 net.cpp:386] inception_4c/relu_pool_proj -> inception_4c/pool_proj (in-place)
I0403 15:46:23.840631 12479 net.cpp:141] Setting up inception_4c/relu_pool_proj
I0403 15:46:23.840661 12479 net.cpp:148] Top shape: 24 64 14 14 (301056)
I0403 15:46:23.840677 12479 net.cpp:156] Memory required for data: 1063013664
I0403 15:46:23.840692 12479 layer_factory.hpp:77] Creating layer inception_4c/output
I0403 15:46:23.840710 12479 net.cpp:91] Creating Layer inception_4c/output
I0403 15:46:23.840726 12479 net.cpp:425] inception_4c/output <- inception_4c/1x1
I0403 15:46:23.840744 12479 net.cpp:425] inception_4c/output <- inception_4c/3x3
I0403 15:46:23.840761 12479 net.cpp:425] inception_4c/output <- inception_4c/5x5
I0403 15:46:23.840777 12479 net.cpp:425] inception_4c/output <- inception_4c/pool_proj
I0403 15:46:23.840798 12479 net.cpp:399] inception_4c/output -> inception_4c/output
I0403 15:46:23.840847 12479 net.cpp:141] Setting up inception_4c/output
I0403 15:46:23.840872 12479 net.cpp:148] Top shape: 24 512 14 14 (2408448)
I0403 15:46:23.840886 12479 net.cpp:156] Memory required for data: 1072647456
I0403 15:46:23.840901 12479 layer_factory.hpp:77] Creating layer inception_4c/output_inception_4c/output_0_split
I0403 15:46:23.840922 12479 net.cpp:91] Creating Layer inception_4c/output_inception_4c/output_0_split
I0403 15:46:23.840939 12479 net.cpp:425] inception_4c/output_inception_4c/output_0_split <- inception_4c/output
I0403 15:46:23.840957 12479 net.cpp:399] inception_4c/output_inception_4c/output_0_split -> inception_4c/output_inception_4c/output_0_split_0
I0403 15:46:23.840978 12479 net.cpp:399] inception_4c/output_inception_4c/output_0_split -> inception_4c/output_inception_4c/output_0_split_1
I0403 15:46:23.841002 12479 net.cpp:399] inception_4c/output_inception_4c/output_0_split -> inception_4c/output_inception_4c/output_0_split_2
I0403 15:46:23.841025 12479 net.cpp:399] inception_4c/output_inception_4c/output_0_split -> inception_4c/output_inception_4c/output_0_split_3
I0403 15:46:23.841116 12479 net.cpp:141] Setting up inception_4c/output_inception_4c/output_0_split
I0403 15:46:23.841140 12479 net.cpp:148] Top shape: 24 512 14 14 (2408448)
I0403 15:46:23.841157 12479 net.cpp:148] Top shape: 24 512 14 14 (2408448)
I0403 15:46:23.841173 12479 net.cpp:148] Top shape: 24 512 14 14 (2408448)
I0403 15:46:23.841189 12479 net.cpp:148] Top shape: 24 512 14 14 (2408448)
I0403 15:46:23.841203 12479 net.cpp:156] Memory required for data: 1111182624
I0403 15:46:23.841219 12479 layer_factory.hpp:77] Creating layer inception_4d/1x1
I0403 15:46:23.841243 12479 net.cpp:91] Creating Layer inception_4d/1x1
I0403 15:46:23.841259 12479 net.cpp:425] inception_4d/1x1 <- inception_4c/output_inception_4c/output_0_split_0
I0403 15:46:23.841281 12479 net.cpp:399] inception_4d/1x1 -> inception_4d/1x1
I0403 15:46:23.842752 12479 net.cpp:141] Setting up inception_4d/1x1
I0403 15:46:23.842782 12479 net.cpp:148] Top shape: 24 112 14 14 (526848)
I0403 15:46:23.842799 12479 net.cpp:156] Memory required for data: 1113290016
I0403 15:46:23.842818 12479 layer_factory.hpp:77] Creating layer inception_4d/relu_1x1
I0403 15:46:23.842839 12479 net.cpp:91] Creating Layer inception_4d/relu_1x1
I0403 15:46:23.842857 12479 net.cpp:425] inception_4d/relu_1x1 <- inception_4d/1x1
I0403 15:46:23.842875 12479 net.cpp:386] inception_4d/relu_1x1 -> inception_4d/1x1 (in-place)
I0403 15:46:23.843072 12479 net.cpp:141] Setting up inception_4d/relu_1x1
I0403 15:46:23.843098 12479 net.cpp:148] Top shape: 24 112 14 14 (526848)
I0403 15:46:23.843114 12479 net.cpp:156] Memory required for data: 1115397408
I0403 15:46:23.843129 12479 layer_factory.hpp:77] Creating layer inception_4d/3x3_reduce
I0403 15:46:23.843168 12479 net.cpp:91] Creating Layer inception_4d/3x3_reduce
I0403 15:46:23.843189 12479 net.cpp:425] inception_4d/3x3_reduce <- inception_4c/output_inception_4c/output_0_split_1
I0403 15:46:23.843209 12479 net.cpp:399] inception_4d/3x3_reduce -> inception_4d/3x3_reduce
I0403 15:46:23.844826 12479 net.cpp:141] Setting up inception_4d/3x3_reduce
I0403 15:46:23.844856 12479 net.cpp:148] Top shape: 24 144 14 14 (677376)
I0403 15:46:23.844872 12479 net.cpp:156] Memory required for data: 1118106912
I0403 15:46:23.844892 12479 layer_factory.hpp:77] Creating layer inception_4d/relu_3x3_reduce
I0403 15:46:23.844910 12479 net.cpp:91] Creating Layer inception_4d/relu_3x3_reduce
I0403 15:46:23.844928 12479 net.cpp:425] inception_4d/relu_3x3_reduce <- inception_4d/3x3_reduce
I0403 15:46:23.844949 12479 net.cpp:386] inception_4d/relu_3x3_reduce -> inception_4d/3x3_reduce (in-place)
I0403 15:46:23.845252 12479 net.cpp:141] Setting up inception_4d/relu_3x3_reduce
I0403 15:46:23.845279 12479 net.cpp:148] Top shape: 24 144 14 14 (677376)
I0403 15:46:23.845295 12479 net.cpp:156] Memory required for data: 1120816416
I0403 15:46:23.845310 12479 layer_factory.hpp:77] Creating layer inception_4d/3x3
I0403 15:46:23.845335 12479 net.cpp:91] Creating Layer inception_4d/3x3
I0403 15:46:23.845357 12479 net.cpp:425] inception_4d/3x3 <- inception_4d/3x3_reduce
I0403 15:46:23.845382 12479 net.cpp:399] inception_4d/3x3 -> inception_4d/3x3
I0403 15:46:23.849910 12479 net.cpp:141] Setting up inception_4d/3x3
I0403 15:46:23.849941 12479 net.cpp:148] Top shape: 24 288 14 14 (1354752)
I0403 15:46:23.849957 12479 net.cpp:156] Memory required for data: 1126235424
I0403 15:46:23.849977 12479 layer_factory.hpp:77] Creating layer inception_4d/relu_3x3
I0403 15:46:23.849998 12479 net.cpp:91] Creating Layer inception_4d/relu_3x3
I0403 15:46:23.850018 12479 net.cpp:425] inception_4d/relu_3x3 <- inception_4d/3x3
I0403 15:46:23.850036 12479 net.cpp:386] inception_4d/relu_3x3 -> inception_4d/3x3 (in-place)
I0403 15:46:23.850230 12479 net.cpp:141] Setting up inception_4d/relu_3x3
I0403 15:46:23.850260 12479 net.cpp:148] Top shape: 24 288 14 14 (1354752)
I0403 15:46:23.850275 12479 net.cpp:156] Memory required for data: 1131654432
I0403 15:46:23.850291 12479 layer_factory.hpp:77] Creating layer inception_4d/5x5_reduce
I0403 15:46:23.850312 12479 net.cpp:91] Creating Layer inception_4d/5x5_reduce
I0403 15:46:23.850330 12479 net.cpp:425] inception_4d/5x5_reduce <- inception_4c/output_inception_4c/output_0_split_2
I0403 15:46:23.850402 12479 net.cpp:399] inception_4d/5x5_reduce -> inception_4d/5x5_reduce
I0403 15:46:23.851619 12479 net.cpp:141] Setting up inception_4d/5x5_reduce
I0403 15:46:23.851649 12479 net.cpp:148] Top shape: 24 32 14 14 (150528)
I0403 15:46:23.851665 12479 net.cpp:156] Memory required for data: 1132256544
I0403 15:46:23.851685 12479 layer_factory.hpp:77] Creating layer inception_4d/relu_5x5_reduce
I0403 15:46:23.851706 12479 net.cpp:91] Creating Layer inception_4d/relu_5x5_reduce
I0403 15:46:23.851723 12479 net.cpp:425] inception_4d/relu_5x5_reduce <- inception_4d/5x5_reduce
I0403 15:46:23.851742 12479 net.cpp:386] inception_4d/relu_5x5_reduce -> inception_4d/5x5_reduce (in-place)
I0403 15:46:23.851943 12479 net.cpp:141] Setting up inception_4d/relu_5x5_reduce
I0403 15:46:23.851971 12479 net.cpp:148] Top shape: 24 32 14 14 (150528)
I0403 15:46:23.851986 12479 net.cpp:156] Memory required for data: 1132858656
I0403 15:46:23.852001 12479 layer_factory.hpp:77] Creating layer inception_4d/5x5
I0403 15:46:23.852026 12479 net.cpp:91] Creating Layer inception_4d/5x5
I0403 15:46:23.852046 12479 net.cpp:425] inception_4d/5x5 <- inception_4d/5x5_reduce
I0403 15:46:23.852066 12479 net.cpp:399] inception_4d/5x5 -> inception_4d/5x5
I0403 15:46:23.853592 12479 net.cpp:141] Setting up inception_4d/5x5
I0403 15:46:23.853623 12479 net.cpp:148] Top shape: 24 64 14 14 (301056)
I0403 15:46:23.853641 12479 net.cpp:156] Memory required for data: 1134062880
I0403 15:46:23.853660 12479 layer_factory.hpp:77] Creating layer inception_4d/relu_5x5
I0403 15:46:23.853694 12479 net.cpp:91] Creating Layer inception_4d/relu_5x5
I0403 15:46:23.853711 12479 net.cpp:425] inception_4d/relu_5x5 <- inception_4d/5x5
I0403 15:46:23.853734 12479 net.cpp:386] inception_4d/relu_5x5 -> inception_4d/5x5 (in-place)
I0403 15:46:23.854038 12479 net.cpp:141] Setting up inception_4d/relu_5x5
I0403 15:46:23.854068 12479 net.cpp:148] Top shape: 24 64 14 14 (301056)
I0403 15:46:23.854084 12479 net.cpp:156] Memory required for data: 1135267104
I0403 15:46:23.854100 12479 layer_factory.hpp:77] Creating layer inception_4d/pool
I0403 15:46:23.854118 12479 net.cpp:91] Creating Layer inception_4d/pool
I0403 15:46:23.854135 12479 net.cpp:425] inception_4d/pool <- inception_4c/output_inception_4c/output_0_split_3
I0403 15:46:23.854157 12479 net.cpp:399] inception_4d/pool -> inception_4d/pool
I0403 15:46:23.854225 12479 net.cpp:141] Setting up inception_4d/pool
I0403 15:46:23.854250 12479 net.cpp:148] Top shape: 24 512 14 14 (2408448)
I0403 15:46:23.854265 12479 net.cpp:156] Memory required for data: 1144900896
I0403 15:46:23.854280 12479 layer_factory.hpp:77] Creating layer inception_4d/pool_proj
I0403 15:46:23.854303 12479 net.cpp:91] Creating Layer inception_4d/pool_proj
I0403 15:46:23.854321 12479 net.cpp:425] inception_4d/pool_proj <- inception_4d/pool
I0403 15:46:23.854342 12479 net.cpp:399] inception_4d/pool_proj -> inception_4d/pool_proj
I0403 15:46:23.856180 12479 net.cpp:141] Setting up inception_4d/pool_proj
I0403 15:46:23.856209 12479 net.cpp:148] Top shape: 24 64 14 14 (301056)
I0403 15:46:23.856225 12479 net.cpp:156] Memory required for data: 1146105120
I0403 15:46:23.856245 12479 layer_factory.hpp:77] Creating layer inception_4d/relu_pool_proj
I0403 15:46:23.856266 12479 net.cpp:91] Creating Layer inception_4d/relu_pool_proj
I0403 15:46:23.856282 12479 net.cpp:425] inception_4d/relu_pool_proj <- inception_4d/pool_proj
I0403 15:46:23.856302 12479 net.cpp:386] inception_4d/relu_pool_proj -> inception_4d/pool_proj (in-place)
I0403 15:46:23.856498 12479 net.cpp:141] Setting up inception_4d/relu_pool_proj
I0403 15:46:23.856526 12479 net.cpp:148] Top shape: 24 64 14 14 (301056)
I0403 15:46:23.856542 12479 net.cpp:156] Memory required for data: 1147309344
I0403 15:46:23.856557 12479 layer_factory.hpp:77] Creating layer inception_4d/output
I0403 15:46:23.856575 12479 net.cpp:91] Creating Layer inception_4d/output
I0403 15:46:23.856591 12479 net.cpp:425] inception_4d/output <- inception_4d/1x1
I0403 15:46:23.856607 12479 net.cpp:425] inception_4d/output <- inception_4d/3x3
I0403 15:46:23.856624 12479 net.cpp:425] inception_4d/output <- inception_4d/5x5
I0403 15:46:23.856642 12479 net.cpp:425] inception_4d/output <- inception_4d/pool_proj
I0403 15:46:23.856659 12479 net.cpp:399] inception_4d/output -> inception_4d/output
I0403 15:46:23.856709 12479 net.cpp:141] Setting up inception_4d/output
I0403 15:46:23.856734 12479 net.cpp:148] Top shape: 24 528 14 14 (2483712)
I0403 15:46:23.856747 12479 net.cpp:156] Memory required for data: 1157244192
I0403 15:46:23.856762 12479 layer_factory.hpp:77] Creating layer inception_4d/output_inception_4d/output_0_split
I0403 15:46:23.856783 12479 net.cpp:91] Creating Layer inception_4d/output_inception_4d/output_0_split
I0403 15:46:23.856801 12479 net.cpp:425] inception_4d/output_inception_4d/output_0_split <- inception_4d/output
I0403 15:46:23.856818 12479 net.cpp:399] inception_4d/output_inception_4d/output_0_split -> inception_4d/output_inception_4d/output_0_split_0
I0403 15:46:23.856839 12479 net.cpp:399] inception_4d/output_inception_4d/output_0_split -> inception_4d/output_inception_4d/output_0_split_1
I0403 15:46:23.856859 12479 net.cpp:399] inception_4d/output_inception_4d/output_0_split -> inception_4d/output_inception_4d/output_0_split_2
I0403 15:46:23.856880 12479 net.cpp:399] inception_4d/output_inception_4d/output_0_split -> inception_4d/output_inception_4d/output_0_split_3
I0403 15:46:23.856904 12479 net.cpp:399] inception_4d/output_inception_4d/output_0_split -> inception_4d/output_inception_4d/output_0_split_4
I0403 15:46:23.857012 12479 net.cpp:141] Setting up inception_4d/output_inception_4d/output_0_split
I0403 15:46:23.857048 12479 net.cpp:148] Top shape: 24 528 14 14 (2483712)
I0403 15:46:23.857065 12479 net.cpp:148] Top shape: 24 528 14 14 (2483712)
I0403 15:46:23.857081 12479 net.cpp:148] Top shape: 24 528 14 14 (2483712)
I0403 15:46:23.857097 12479 net.cpp:148] Top shape: 24 528 14 14 (2483712)
I0403 15:46:23.857112 12479 net.cpp:148] Top shape: 24 528 14 14 (2483712)
I0403 15:46:23.857126 12479 net.cpp:156] Memory required for data: 1206918432
I0403 15:46:23.857141 12479 layer_factory.hpp:77] Creating layer loss2/ave_pool
I0403 15:46:23.857159 12479 net.cpp:91] Creating Layer loss2/ave_pool
I0403 15:46:23.857174 12479 net.cpp:425] loss2/ave_pool <- inception_4d/output_inception_4d/output_0_split_0
I0403 15:46:23.857197 12479 net.cpp:399] loss2/ave_pool -> loss2/ave_pool
I0403 15:46:23.857528 12479 net.cpp:141] Setting up loss2/ave_pool
I0403 15:46:23.857555 12479 net.cpp:148] Top shape: 24 528 4 4 (202752)
I0403 15:46:23.857571 12479 net.cpp:156] Memory required for data: 1207729440
I0403 15:46:23.857586 12479 layer_factory.hpp:77] Creating layer loss2/conv
I0403 15:46:23.857609 12479 net.cpp:91] Creating Layer loss2/conv
I0403 15:46:23.857627 12479 net.cpp:425] loss2/conv <- loss2/ave_pool
I0403 15:46:23.857653 12479 net.cpp:399] loss2/conv -> loss2/conv
I0403 15:46:23.859623 12479 net.cpp:141] Setting up loss2/conv
I0403 15:46:23.859654 12479 net.cpp:148] Top shape: 24 128 4 4 (49152)
I0403 15:46:23.859671 12479 net.cpp:156] Memory required for data: 1207926048
I0403 15:46:23.859690 12479 layer_factory.hpp:77] Creating layer loss2/relu_conv
I0403 15:46:23.859709 12479 net.cpp:91] Creating Layer loss2/relu_conv
I0403 15:46:23.859724 12479 net.cpp:425] loss2/relu_conv <- loss2/conv
I0403 15:46:23.859741 12479 net.cpp:386] loss2/relu_conv -> loss2/conv (in-place)
I0403 15:46:23.860033 12479 net.cpp:141] Setting up loss2/relu_conv
I0403 15:46:23.860064 12479 net.cpp:148] Top shape: 24 128 4 4 (49152)
I0403 15:46:23.860080 12479 net.cpp:156] Memory required for data: 1208122656
I0403 15:46:23.860095 12479 layer_factory.hpp:77] Creating layer loss2/fc
I0403 15:46:23.860116 12479 net.cpp:91] Creating Layer loss2/fc
I0403 15:46:23.860132 12479 net.cpp:425] loss2/fc <- loss2/conv
I0403 15:46:23.860153 12479 net.cpp:399] loss2/fc -> loss2/fc
I0403 15:46:23.878832 12479 net.cpp:141] Setting up loss2/fc
I0403 15:46:23.878872 12479 net.cpp:148] Top shape: 24 1024 (24576)
I0403 15:46:23.878890 12479 net.cpp:156] Memory required for data: 1208220960
I0403 15:46:23.878909 12479 layer_factory.hpp:77] Creating layer loss2/relu_fc
I0403 15:46:23.878932 12479 net.cpp:91] Creating Layer loss2/relu_fc
I0403 15:46:23.878950 12479 net.cpp:425] loss2/relu_fc <- loss2/fc
I0403 15:46:23.878969 12479 net.cpp:386] loss2/relu_fc -> loss2/fc (in-place)
I0403 15:46:23.879302 12479 net.cpp:141] Setting up loss2/relu_fc
I0403 15:46:23.879330 12479 net.cpp:148] Top shape: 24 1024 (24576)
I0403 15:46:23.879353 12479 net.cpp:156] Memory required for data: 1208319264
I0403 15:46:23.879369 12479 layer_factory.hpp:77] Creating layer loss2/drop_fc
I0403 15:46:23.879391 12479 net.cpp:91] Creating Layer loss2/drop_fc
I0403 15:46:23.879410 12479 net.cpp:425] loss2/drop_fc <- loss2/fc
I0403 15:46:23.879428 12479 net.cpp:386] loss2/drop_fc -> loss2/fc (in-place)
I0403 15:46:23.879482 12479 net.cpp:141] Setting up loss2/drop_fc
I0403 15:46:23.879506 12479 net.cpp:148] Top shape: 24 1024 (24576)
I0403 15:46:23.879521 12479 net.cpp:156] Memory required for data: 1208417568
I0403 15:46:23.879536 12479 layer_factory.hpp:77] Creating layer loss2/classifier_plantvillage
I0403 15:46:23.879556 12479 net.cpp:91] Creating Layer loss2/classifier_plantvillage
I0403 15:46:23.879573 12479 net.cpp:425] loss2/classifier_plantvillage <- loss2/fc
I0403 15:46:23.879595 12479 net.cpp:399] loss2/classifier_plantvillage -> loss2/classifier_plantvillage
I0403 15:46:23.880026 12479 net.cpp:141] Setting up loss2/classifier_plantvillage
I0403 15:46:23.880056 12479 net.cpp:148] Top shape: 24 38 (912)
I0403 15:46:23.880091 12479 net.cpp:156] Memory required for data: 1208421216
I0403 15:46:23.880112 12479 layer_factory.hpp:77] Creating layer loss2/classifier_plantvillage_loss2/classifier_plantvillage_0_split
I0403 15:46:23.880131 12479 net.cpp:91] Creating Layer loss2/classifier_plantvillage_loss2/classifier_plantvillage_0_split
I0403 15:46:23.880147 12479 net.cpp:425] loss2/classifier_plantvillage_loss2/classifier_plantvillage_0_split <- loss2/classifier_plantvillage
I0403 15:46:23.880167 12479 net.cpp:399] loss2/classifier_plantvillage_loss2/classifier_plantvillage_0_split -> loss2/classifier_plantvillage_loss2/classifier_plantvillage_0_split_0
I0403 15:46:23.880190 12479 net.cpp:399] loss2/classifier_plantvillage_loss2/classifier_plantvillage_0_split -> loss2/classifier_plantvillage_loss2/classifier_plantvillage_0_split_1
I0403 15:46:23.880211 12479 net.cpp:399] loss2/classifier_plantvillage_loss2/classifier_plantvillage_0_split -> loss2/classifier_plantvillage_loss2/classifier_plantvillage_0_split_2
I0403 15:46:23.880292 12479 net.cpp:141] Setting up loss2/classifier_plantvillage_loss2/classifier_plantvillage_0_split
I0403 15:46:23.880319 12479 net.cpp:148] Top shape: 24 38 (912)
I0403 15:46:23.880337 12479 net.cpp:148] Top shape: 24 38 (912)
I0403 15:46:23.880357 12479 net.cpp:148] Top shape: 24 38 (912)
I0403 15:46:23.880373 12479 net.cpp:156] Memory required for data: 1208432160
I0403 15:46:23.880391 12479 layer_factory.hpp:77] Creating layer inception_4e/1x1
I0403 15:46:23.880412 12479 net.cpp:91] Creating Layer inception_4e/1x1
I0403 15:46:23.880429 12479 net.cpp:425] inception_4e/1x1 <- inception_4d/output_inception_4d/output_0_split_1
I0403 15:46:23.880451 12479 net.cpp:399] inception_4e/1x1 -> inception_4e/1x1
I0403 15:46:23.882410 12479 net.cpp:141] Setting up inception_4e/1x1
I0403 15:46:23.882441 12479 net.cpp:148] Top shape: 24 256 14 14 (1204224)
I0403 15:46:23.882458 12479 net.cpp:156] Memory required for data: 1213249056
I0403 15:46:23.882478 12479 layer_factory.hpp:77] Creating layer inception_4e/relu_1x1
I0403 15:46:23.882498 12479 net.cpp:91] Creating Layer inception_4e/relu_1x1
I0403 15:46:23.882513 12479 net.cpp:425] inception_4e/relu_1x1 <- inception_4e/1x1
I0403 15:46:23.882534 12479 net.cpp:386] inception_4e/relu_1x1 -> inception_4e/1x1 (in-place)
I0403 15:46:23.882846 12479 net.cpp:141] Setting up inception_4e/relu_1x1
I0403 15:46:23.882876 12479 net.cpp:148] Top shape: 24 256 14 14 (1204224)
I0403 15:46:23.882892 12479 net.cpp:156] Memory required for data: 1218065952
I0403 15:46:23.882908 12479 layer_factory.hpp:77] Creating layer inception_4e/3x3_reduce
I0403 15:46:23.882931 12479 net.cpp:91] Creating Layer inception_4e/3x3_reduce
I0403 15:46:23.882951 12479 net.cpp:425] inception_4e/3x3_reduce <- inception_4d/output_inception_4d/output_0_split_2
I0403 15:46:23.882971 12479 net.cpp:399] inception_4e/3x3_reduce -> inception_4e/3x3_reduce
I0403 15:46:23.885243 12479 net.cpp:141] Setting up inception_4e/3x3_reduce
I0403 15:46:23.885275 12479 net.cpp:148] Top shape: 24 160 14 14 (752640)
I0403 15:46:23.885293 12479 net.cpp:156] Memory required for data: 1221076512
I0403 15:46:23.885313 12479 layer_factory.hpp:77] Creating layer inception_4e/relu_3x3_reduce
I0403 15:46:23.885332 12479 net.cpp:91] Creating Layer inception_4e/relu_3x3_reduce
I0403 15:46:23.885352 12479 net.cpp:425] inception_4e/relu_3x3_reduce <- inception_4e/3x3_reduce
I0403 15:46:23.885373 12479 net.cpp:386] inception_4e/relu_3x3_reduce -> inception_4e/3x3_reduce (in-place)
I0403 15:46:23.885576 12479 net.cpp:141] Setting up inception_4e/relu_3x3_reduce
I0403 15:46:23.885606 12479 net.cpp:148] Top shape: 24 160 14 14 (752640)
I0403 15:46:23.885622 12479 net.cpp:156] Memory required for data: 1224087072
I0403 15:46:23.885637 12479 layer_factory.hpp:77] Creating layer inception_4e/3x3
I0403 15:46:23.885660 12479 net.cpp:91] Creating Layer inception_4e/3x3
I0403 15:46:23.885679 12479 net.cpp:425] inception_4e/3x3 <- inception_4e/3x3_reduce
I0403 15:46:23.885701 12479 net.cpp:399] inception_4e/3x3 -> inception_4e/3x3
I0403 15:46:23.891043 12479 net.cpp:141] Setting up inception_4e/3x3
I0403 15:46:23.891089 12479 net.cpp:148] Top shape: 24 320 14 14 (1505280)
I0403 15:46:23.891108 12479 net.cpp:156] Memory required for data: 1230108192
I0403 15:46:23.891126 12479 layer_factory.hpp:77] Creating layer inception_4e/relu_3x3
I0403 15:46:23.891145 12479 net.cpp:91] Creating Layer inception_4e/relu_3x3
I0403 15:46:23.891162 12479 net.cpp:425] inception_4e/relu_3x3 <- inception_4e/3x3
I0403 15:46:23.891183 12479 net.cpp:386] inception_4e/relu_3x3 -> inception_4e/3x3 (in-place)
I0403 15:46:23.891504 12479 net.cpp:141] Setting up inception_4e/relu_3x3
I0403 15:46:23.891531 12479 net.cpp:148] Top shape: 24 320 14 14 (1505280)
I0403 15:46:23.891547 12479 net.cpp:156] Memory required for data: 1236129312
I0403 15:46:23.891562 12479 layer_factory.hpp:77] Creating layer inception_4e/5x5_reduce
I0403 15:46:23.891585 12479 net.cpp:91] Creating Layer inception_4e/5x5_reduce
I0403 15:46:23.891604 12479 net.cpp:425] inception_4e/5x5_reduce <- inception_4d/output_inception_4d/output_0_split_3
I0403 15:46:23.891628 12479 net.cpp:399] inception_4e/5x5_reduce -> inception_4e/5x5_reduce
I0403 15:46:23.892762 12479 net.cpp:141] Setting up inception_4e/5x5_reduce
I0403 15:46:23.892792 12479 net.cpp:148] Top shape: 24 32 14 14 (150528)
I0403 15:46:23.892807 12479 net.cpp:156] Memory required for data: 1236731424
I0403 15:46:23.892830 12479 layer_factory.hpp:77] Creating layer inception_4e/relu_5x5_reduce
I0403 15:46:23.892850 12479 net.cpp:91] Creating Layer inception_4e/relu_5x5_reduce
I0403 15:46:23.892868 12479 net.cpp:425] inception_4e/relu_5x5_reduce <- inception_4e/5x5_reduce
I0403 15:46:23.892885 12479 net.cpp:386] inception_4e/relu_5x5_reduce -> inception_4e/5x5_reduce (in-place)
I0403 15:46:23.893206 12479 net.cpp:141] Setting up inception_4e/relu_5x5_reduce
I0403 15:46:23.893234 12479 net.cpp:148] Top shape: 24 32 14 14 (150528)
I0403 15:46:23.893250 12479 net.cpp:156] Memory required for data: 1237333536
I0403 15:46:23.893265 12479 layer_factory.hpp:77] Creating layer inception_4e/5x5
I0403 15:46:23.893307 12479 net.cpp:91] Creating Layer inception_4e/5x5
I0403 15:46:23.893328 12479 net.cpp:425] inception_4e/5x5 <- inception_4e/5x5_reduce
I0403 15:46:23.893358 12479 net.cpp:399] inception_4e/5x5 -> inception_4e/5x5
I0403 15:46:23.895320 12479 net.cpp:141] Setting up inception_4e/5x5
I0403 15:46:23.895354 12479 net.cpp:148] Top shape: 24 128 14 14 (602112)
I0403 15:46:23.895372 12479 net.cpp:156] Memory required for data: 1239741984
I0403 15:46:23.895395 12479 layer_factory.hpp:77] Creating layer inception_4e/relu_5x5
I0403 15:46:23.895416 12479 net.cpp:91] Creating Layer inception_4e/relu_5x5
I0403 15:46:23.895434 12479 net.cpp:425] inception_4e/relu_5x5 <- inception_4e/5x5
I0403 15:46:23.895453 12479 net.cpp:386] inception_4e/relu_5x5 -> inception_4e/5x5 (in-place)
I0403 15:46:23.895663 12479 net.cpp:141] Setting up inception_4e/relu_5x5
I0403 15:46:23.895691 12479 net.cpp:148] Top shape: 24 128 14 14 (602112)
I0403 15:46:23.895709 12479 net.cpp:156] Memory required for data: 1242150432
I0403 15:46:23.895725 12479 layer_factory.hpp:77] Creating layer inception_4e/pool
I0403 15:46:23.895743 12479 net.cpp:91] Creating Layer inception_4e/pool
I0403 15:46:23.895761 12479 net.cpp:425] inception_4e/pool <- inception_4d/output_inception_4d/output_0_split_4
I0403 15:46:23.895779 12479 net.cpp:399] inception_4e/pool -> inception_4e/pool
I0403 15:46:23.895854 12479 net.cpp:141] Setting up inception_4e/pool
I0403 15:46:23.895880 12479 net.cpp:148] Top shape: 24 528 14 14 (2483712)
I0403 15:46:23.895895 12479 net.cpp:156] Memory required for data: 1252085280
I0403 15:46:23.895910 12479 layer_factory.hpp:77] Creating layer inception_4e/pool_proj
I0403 15:46:23.895933 12479 net.cpp:91] Creating Layer inception_4e/pool_proj
I0403 15:46:23.895952 12479 net.cpp:425] inception_4e/pool_proj <- inception_4e/pool
I0403 15:46:23.895974 12479 net.cpp:399] inception_4e/pool_proj -> inception_4e/pool_proj
I0403 15:46:23.897577 12479 net.cpp:141] Setting up inception_4e/pool_proj
I0403 15:46:23.897617 12479 net.cpp:148] Top shape: 24 128 14 14 (602112)
I0403 15:46:23.897634 12479 net.cpp:156] Memory required for data: 1254493728
I0403 15:46:23.897653 12479 layer_factory.hpp:77] Creating layer inception_4e/relu_pool_proj
I0403 15:46:23.897675 12479 net.cpp:91] Creating Layer inception_4e/relu_pool_proj
I0403 15:46:23.897692 12479 net.cpp:425] inception_4e/relu_pool_proj <- inception_4e/pool_proj
I0403 15:46:23.897711 12479 net.cpp:386] inception_4e/relu_pool_proj -> inception_4e/pool_proj (in-place)
I0403 15:46:23.898022 12479 net.cpp:141] Setting up inception_4e/relu_pool_proj
I0403 15:46:23.898051 12479 net.cpp:148] Top shape: 24 128 14 14 (602112)
I0403 15:46:23.898066 12479 net.cpp:156] Memory required for data: 1256902176
I0403 15:46:23.898082 12479 layer_factory.hpp:77] Creating layer inception_4e/output
I0403 15:46:23.898100 12479 net.cpp:91] Creating Layer inception_4e/output
I0403 15:46:23.898116 12479 net.cpp:425] inception_4e/output <- inception_4e/1x1
I0403 15:46:23.898134 12479 net.cpp:425] inception_4e/output <- inception_4e/3x3
I0403 15:46:23.898152 12479 net.cpp:425] inception_4e/output <- inception_4e/5x5
I0403 15:46:23.898169 12479 net.cpp:425] inception_4e/output <- inception_4e/pool_proj
I0403 15:46:23.898190 12479 net.cpp:399] inception_4e/output -> inception_4e/output
I0403 15:46:23.898246 12479 net.cpp:141] Setting up inception_4e/output
I0403 15:46:23.898270 12479 net.cpp:148] Top shape: 24 832 14 14 (3913728)
I0403 15:46:23.898285 12479 net.cpp:156] Memory required for data: 1272557088
I0403 15:46:23.898301 12479 layer_factory.hpp:77] Creating layer pool4/3x3_s2
I0403 15:46:23.898319 12479 net.cpp:91] Creating Layer pool4/3x3_s2
I0403 15:46:23.898335 12479 net.cpp:425] pool4/3x3_s2 <- inception_4e/output
I0403 15:46:23.898363 12479 net.cpp:399] pool4/3x3_s2 -> pool4/3x3_s2
I0403 15:46:23.898437 12479 net.cpp:141] Setting up pool4/3x3_s2
I0403 15:46:23.898463 12479 net.cpp:148] Top shape: 24 832 7 7 (978432)
I0403 15:46:23.898478 12479 net.cpp:156] Memory required for data: 1276470816
I0403 15:46:23.898494 12479 layer_factory.hpp:77] Creating layer pool4/3x3_s2_pool4/3x3_s2_0_split
I0403 15:46:23.898514 12479 net.cpp:91] Creating Layer pool4/3x3_s2_pool4/3x3_s2_0_split
I0403 15:46:23.898532 12479 net.cpp:425] pool4/3x3_s2_pool4/3x3_s2_0_split <- pool4/3x3_s2
I0403 15:46:23.898550 12479 net.cpp:399] pool4/3x3_s2_pool4/3x3_s2_0_split -> pool4/3x3_s2_pool4/3x3_s2_0_split_0
I0403 15:46:23.898574 12479 net.cpp:399] pool4/3x3_s2_pool4/3x3_s2_0_split -> pool4/3x3_s2_pool4/3x3_s2_0_split_1
I0403 15:46:23.898597 12479 net.cpp:399] pool4/3x3_s2_pool4/3x3_s2_0_split -> pool4/3x3_s2_pool4/3x3_s2_0_split_2
I0403 15:46:23.898617 12479 net.cpp:399] pool4/3x3_s2_pool4/3x3_s2_0_split -> pool4/3x3_s2_pool4/3x3_s2_0_split_3
I0403 15:46:23.898712 12479 net.cpp:141] Setting up pool4/3x3_s2_pool4/3x3_s2_0_split
I0403 15:46:23.898737 12479 net.cpp:148] Top shape: 24 832 7 7 (978432)
I0403 15:46:23.898754 12479 net.cpp:148] Top shape: 24 832 7 7 (978432)
I0403 15:46:23.898771 12479 net.cpp:148] Top shape: 24 832 7 7 (978432)
I0403 15:46:23.898787 12479 net.cpp:148] Top shape: 24 832 7 7 (978432)
I0403 15:46:23.898800 12479 net.cpp:156] Memory required for data: 1292125728
I0403 15:46:23.898815 12479 layer_factory.hpp:77] Creating layer inception_5a/1x1
I0403 15:46:23.898839 12479 net.cpp:91] Creating Layer inception_5a/1x1
I0403 15:46:23.898859 12479 net.cpp:425] inception_5a/1x1 <- pool4/3x3_s2_pool4/3x3_s2_0_split_0
I0403 15:46:23.898880 12479 net.cpp:399] inception_5a/1x1 -> inception_5a/1x1
I0403 15:46:23.901962 12479 net.cpp:141] Setting up inception_5a/1x1
I0403 15:46:23.901993 12479 net.cpp:148] Top shape: 24 256 7 7 (301056)
I0403 15:46:23.902012 12479 net.cpp:156] Memory required for data: 1293329952
I0403 15:46:23.902032 12479 layer_factory.hpp:77] Creating layer inception_5a/relu_1x1
I0403 15:46:23.902051 12479 net.cpp:91] Creating Layer inception_5a/relu_1x1
I0403 15:46:23.902067 12479 net.cpp:425] inception_5a/relu_1x1 <- inception_5a/1x1
I0403 15:46:23.902086 12479 net.cpp:386] inception_5a/relu_1x1 -> inception_5a/1x1 (in-place)
I0403 15:46:23.902431 12479 net.cpp:141] Setting up inception_5a/relu_1x1
I0403 15:46:23.902458 12479 net.cpp:148] Top shape: 24 256 7 7 (301056)
I0403 15:46:23.902478 12479 net.cpp:156] Memory required for data: 1294534176
I0403 15:46:23.902494 12479 layer_factory.hpp:77] Creating layer inception_5a/3x3_reduce
I0403 15:46:23.902516 12479 net.cpp:91] Creating Layer inception_5a/3x3_reduce
I0403 15:46:23.902534 12479 net.cpp:425] inception_5a/3x3_reduce <- pool4/3x3_s2_pool4/3x3_s2_0_split_1
I0403 15:46:23.902557 12479 net.cpp:399] inception_5a/3x3_reduce -> inception_5a/3x3_reduce
I0403 15:46:23.905244 12479 net.cpp:141] Setting up inception_5a/3x3_reduce
I0403 15:46:23.905275 12479 net.cpp:148] Top shape: 24 160 7 7 (188160)
I0403 15:46:23.905292 12479 net.cpp:156] Memory required for data: 1295286816
I0403 15:46:23.905311 12479 layer_factory.hpp:77] Creating layer inception_5a/relu_3x3_reduce
I0403 15:46:23.905330 12479 net.cpp:91] Creating Layer inception_5a/relu_3x3_reduce
I0403 15:46:23.905351 12479 net.cpp:425] inception_5a/relu_3x3_reduce <- inception_5a/3x3_reduce
I0403 15:46:23.905375 12479 net.cpp:386] inception_5a/relu_3x3_reduce -> inception_5a/3x3_reduce (in-place)
I0403 15:46:23.905576 12479 net.cpp:141] Setting up inception_5a/relu_3x3_reduce
I0403 15:46:23.905602 12479 net.cpp:148] Top shape: 24 160 7 7 (188160)
I0403 15:46:23.905618 12479 net.cpp:156] Memory required for data: 1296039456
I0403 15:46:23.905638 12479 layer_factory.hpp:77] Creating layer inception_5a/3x3
I0403 15:46:23.905661 12479 net.cpp:91] Creating Layer inception_5a/3x3
I0403 15:46:23.905680 12479 net.cpp:425] inception_5a/3x3 <- inception_5a/3x3_reduce
I0403 15:46:23.905704 12479 net.cpp:399] inception_5a/3x3 -> inception_5a/3x3
I0403 15:46:23.911090 12479 net.cpp:141] Setting up inception_5a/3x3
I0403 15:46:23.911121 12479 net.cpp:148] Top shape: 24 320 7 7 (376320)
I0403 15:46:23.911139 12479 net.cpp:156] Memory required for data: 1297544736
I0403 15:46:23.911159 12479 layer_factory.hpp:77] Creating layer inception_5a/relu_3x3
I0403 15:46:23.911180 12479 net.cpp:91] Creating Layer inception_5a/relu_3x3
I0403 15:46:23.911197 12479 net.cpp:425] inception_5a/relu_3x3 <- inception_5a/3x3
I0403 15:46:23.911216 12479 net.cpp:386] inception_5a/relu_3x3 -> inception_5a/3x3 (in-place)
I0403 15:46:23.911540 12479 net.cpp:141] Setting up inception_5a/relu_3x3
I0403 15:46:23.911569 12479 net.cpp:148] Top shape: 24 320 7 7 (376320)
I0403 15:46:23.911584 12479 net.cpp:156] Memory required for data: 1299050016
I0403 15:46:23.911602 12479 layer_factory.hpp:77] Creating layer inception_5a/5x5_reduce
I0403 15:46:23.911624 12479 net.cpp:91] Creating Layer inception_5a/5x5_reduce
I0403 15:46:23.911646 12479 net.cpp:425] inception_5a/5x5_reduce <- pool4/3x3_s2_pool4/3x3_s2_0_split_2
I0403 15:46:23.911667 12479 net.cpp:399] inception_5a/5x5_reduce -> inception_5a/5x5_reduce
I0403 15:46:23.912914 12479 net.cpp:141] Setting up inception_5a/5x5_reduce
I0403 15:46:23.912946 12479 net.cpp:148] Top shape: 24 32 7 7 (37632)
I0403 15:46:23.912963 12479 net.cpp:156] Memory required for data: 1299200544
I0403 15:46:23.912983 12479 layer_factory.hpp:77] Creating layer inception_5a/relu_5x5_reduce
I0403 15:46:23.913002 12479 net.cpp:91] Creating Layer inception_5a/relu_5x5_reduce
I0403 15:46:23.913018 12479 net.cpp:425] inception_5a/relu_5x5_reduce <- inception_5a/5x5_reduce
I0403 15:46:23.913038 12479 net.cpp:386] inception_5a/relu_5x5_reduce -> inception_5a/5x5_reduce (in-place)
I0403 15:46:23.913381 12479 net.cpp:141] Setting up inception_5a/relu_5x5_reduce
I0403 15:46:23.913413 12479 net.cpp:148] Top shape: 24 32 7 7 (37632)
I0403 15:46:23.913429 12479 net.cpp:156] Memory required for data: 1299351072
I0403 15:46:23.913445 12479 layer_factory.hpp:77] Creating layer inception_5a/5x5
I0403 15:46:23.913470 12479 net.cpp:91] Creating Layer inception_5a/5x5
I0403 15:46:23.913488 12479 net.cpp:425] inception_5a/5x5 <- inception_5a/5x5_reduce
I0403 15:46:23.913509 12479 net.cpp:399] inception_5a/5x5 -> inception_5a/5x5
I0403 15:46:23.915382 12479 net.cpp:141] Setting up inception_5a/5x5
I0403 15:46:23.915423 12479 net.cpp:148] Top shape: 24 128 7 7 (150528)
I0403 15:46:23.915441 12479 net.cpp:156] Memory required for data: 1299953184
I0403 15:46:23.915459 12479 layer_factory.hpp:77] Creating layer inception_5a/relu_5x5
I0403 15:46:23.915479 12479 net.cpp:91] Creating Layer inception_5a/relu_5x5
I0403 15:46:23.915498 12479 net.cpp:425] inception_5a/relu_5x5 <- inception_5a/5x5
I0403 15:46:23.915515 12479 net.cpp:386] inception_5a/relu_5x5 -> inception_5a/5x5 (in-place)
I0403 15:46:23.915730 12479 net.cpp:141] Setting up inception_5a/relu_5x5
I0403 15:46:23.915760 12479 net.cpp:148] Top shape: 24 128 7 7 (150528)
I0403 15:46:23.915776 12479 net.cpp:156] Memory required for data: 1300555296
I0403 15:46:23.915792 12479 layer_factory.hpp:77] Creating layer inception_5a/pool
I0403 15:46:23.915812 12479 net.cpp:91] Creating Layer inception_5a/pool
I0403 15:46:23.915827 12479 net.cpp:425] inception_5a/pool <- pool4/3x3_s2_pool4/3x3_s2_0_split_3
I0403 15:46:23.915849 12479 net.cpp:399] inception_5a/pool -> inception_5a/pool
I0403 15:46:23.915936 12479 net.cpp:141] Setting up inception_5a/pool
I0403 15:46:23.915961 12479 net.cpp:148] Top shape: 24 832 7 7 (978432)
I0403 15:46:23.915976 12479 net.cpp:156] Memory required for data: 1304469024
I0403 15:46:23.915990 12479 layer_factory.hpp:77] Creating layer inception_5a/pool_proj
I0403 15:46:23.916024 12479 net.cpp:91] Creating Layer inception_5a/pool_proj
I0403 15:46:23.916045 12479 net.cpp:425] inception_5a/pool_proj <- inception_5a/pool
I0403 15:46:23.916066 12479 net.cpp:399] inception_5a/pool_proj -> inception_5a/pool_proj
I0403 15:46:23.918583 12479 net.cpp:141] Setting up inception_5a/pool_proj
I0403 15:46:23.918613 12479 net.cpp:148] Top shape: 24 128 7 7 (150528)
I0403 15:46:23.918629 12479 net.cpp:156] Memory required for data: 1305071136
I0403 15:46:23.918650 12479 layer_factory.hpp:77] Creating layer inception_5a/relu_pool_proj
I0403 15:46:23.918671 12479 net.cpp:91] Creating Layer inception_5a/relu_pool_proj
I0403 15:46:23.918700 12479 net.cpp:425] inception_5a/relu_pool_proj <- inception_5a/pool_proj
I0403 15:46:23.918720 12479 net.cpp:386] inception_5a/relu_pool_proj -> inception_5a/pool_proj (in-place)
I0403 15:46:23.919049 12479 net.cpp:141] Setting up inception_5a/relu_pool_proj
I0403 15:46:23.919076 12479 net.cpp:148] Top shape: 24 128 7 7 (150528)
I0403 15:46:23.919091 12479 net.cpp:156] Memory required for data: 1305673248
I0403 15:46:23.919106 12479 layer_factory.hpp:77] Creating layer inception_5a/output
I0403 15:46:23.919126 12479 net.cpp:91] Creating Layer inception_5a/output
I0403 15:46:23.919157 12479 net.cpp:425] inception_5a/output <- inception_5a/1x1
I0403 15:46:23.919174 12479 net.cpp:425] inception_5a/output <- inception_5a/3x3
I0403 15:46:23.919191 12479 net.cpp:425] inception_5a/output <- inception_5a/5x5
I0403 15:46:23.919209 12479 net.cpp:425] inception_5a/output <- inception_5a/pool_proj
I0403 15:46:23.919225 12479 net.cpp:399] inception_5a/output -> inception_5a/output
I0403 15:46:23.919277 12479 net.cpp:141] Setting up inception_5a/output
I0403 15:46:23.919304 12479 net.cpp:148] Top shape: 24 832 7 7 (978432)
I0403 15:46:23.919323 12479 net.cpp:156] Memory required for data: 1309586976
I0403 15:46:23.919339 12479 layer_factory.hpp:77] Creating layer inception_5a/output_inception_5a/output_0_split
I0403 15:46:23.919363 12479 net.cpp:91] Creating Layer inception_5a/output_inception_5a/output_0_split
I0403 15:46:23.919380 12479 net.cpp:425] inception_5a/output_inception_5a/output_0_split <- inception_5a/output
I0403 15:46:23.919401 12479 net.cpp:399] inception_5a/output_inception_5a/output_0_split -> inception_5a/output_inception_5a/output_0_split_0
I0403 15:46:23.919425 12479 net.cpp:399] inception_5a/output_inception_5a/output_0_split -> inception_5a/output_inception_5a/output_0_split_1
I0403 15:46:23.919456 12479 net.cpp:399] inception_5a/output_inception_5a/output_0_split -> inception_5a/output_inception_5a/output_0_split_2
I0403 15:46:23.919477 12479 net.cpp:399] inception_5a/output_inception_5a/output_0_split -> inception_5a/output_inception_5a/output_0_split_3
I0403 15:46:23.919608 12479 net.cpp:141] Setting up inception_5a/output_inception_5a/output_0_split
I0403 15:46:23.919636 12479 net.cpp:148] Top shape: 24 832 7 7 (978432)
I0403 15:46:23.919654 12479 net.cpp:148] Top shape: 24 832 7 7 (978432)
I0403 15:46:23.919670 12479 net.cpp:148] Top shape: 24 832 7 7 (978432)
I0403 15:46:23.919685 12479 net.cpp:148] Top shape: 24 832 7 7 (978432)
I0403 15:46:23.919699 12479 net.cpp:156] Memory required for data: 1325241888
I0403 15:46:23.919715 12479 layer_factory.hpp:77] Creating layer inception_5b/1x1
I0403 15:46:23.919739 12479 net.cpp:91] Creating Layer inception_5b/1x1
I0403 15:46:23.919757 12479 net.cpp:425] inception_5b/1x1 <- inception_5a/output_inception_5a/output_0_split_0
I0403 15:46:23.919777 12479 net.cpp:399] inception_5b/1x1 -> inception_5b/1x1
I0403 15:46:23.923949 12479 net.cpp:141] Setting up inception_5b/1x1
I0403 15:46:23.923980 12479 net.cpp:148] Top shape: 24 384 7 7 (451584)
I0403 15:46:23.923997 12479 net.cpp:156] Memory required for data: 1327048224
I0403 15:46:23.924016 12479 layer_factory.hpp:77] Creating layer inception_5b/relu_1x1
I0403 15:46:23.924036 12479 net.cpp:91] Creating Layer inception_5b/relu_1x1
I0403 15:46:23.924052 12479 net.cpp:425] inception_5b/relu_1x1 <- inception_5b/1x1
I0403 15:46:23.924072 12479 net.cpp:386] inception_5b/relu_1x1 -> inception_5b/1x1 (in-place)
I0403 15:46:23.924410 12479 net.cpp:141] Setting up inception_5b/relu_1x1
I0403 15:46:23.924440 12479 net.cpp:148] Top shape: 24 384 7 7 (451584)
I0403 15:46:23.924456 12479 net.cpp:156] Memory required for data: 1328854560
I0403 15:46:23.924473 12479 layer_factory.hpp:77] Creating layer inception_5b/3x3_reduce
I0403 15:46:23.924495 12479 net.cpp:91] Creating Layer inception_5b/3x3_reduce
I0403 15:46:23.924515 12479 net.cpp:425] inception_5b/3x3_reduce <- inception_5a/output_inception_5a/output_0_split_1
I0403 15:46:23.924540 12479 net.cpp:399] inception_5b/3x3_reduce -> inception_5b/3x3_reduce
I0403 15:46:23.927376 12479 net.cpp:141] Setting up inception_5b/3x3_reduce
I0403 15:46:23.927407 12479 net.cpp:148] Top shape: 24 192 7 7 (225792)
I0403 15:46:23.927423 12479 net.cpp:156] Memory required for data: 1329757728
I0403 15:46:23.927443 12479 layer_factory.hpp:77] Creating layer inception_5b/relu_3x3_reduce
I0403 15:46:23.927467 12479 net.cpp:91] Creating Layer inception_5b/relu_3x3_reduce
I0403 15:46:23.927489 12479 net.cpp:425] inception_5b/relu_3x3_reduce <- inception_5b/3x3_reduce
I0403 15:46:23.927506 12479 net.cpp:386] inception_5b/relu_3x3_reduce -> inception_5b/3x3_reduce (in-place)
I0403 15:46:23.927711 12479 net.cpp:141] Setting up inception_5b/relu_3x3_reduce
I0403 15:46:23.927736 12479 net.cpp:148] Top shape: 24 192 7 7 (225792)
I0403 15:46:23.927753 12479 net.cpp:156] Memory required for data: 1330660896
I0403 15:46:23.927772 12479 layer_factory.hpp:77] Creating layer inception_5b/3x3
I0403 15:46:23.927798 12479 net.cpp:91] Creating Layer inception_5b/3x3
I0403 15:46:23.927815 12479 net.cpp:425] inception_5b/3x3 <- inception_5b/3x3_reduce
I0403 15:46:23.927835 12479 net.cpp:399] inception_5b/3x3 -> inception_5b/3x3
I0403 15:46:23.935020 12479 net.cpp:141] Setting up inception_5b/3x3
I0403 15:46:23.935050 12479 net.cpp:148] Top shape: 24 384 7 7 (451584)
I0403 15:46:23.935067 12479 net.cpp:156] Memory required for data: 1332467232
I0403 15:46:23.935086 12479 layer_factory.hpp:77] Creating layer inception_5b/relu_3x3
I0403 15:46:23.935107 12479 net.cpp:91] Creating Layer inception_5b/relu_3x3
I0403 15:46:23.935125 12479 net.cpp:425] inception_5b/relu_3x3 <- inception_5b/3x3
I0403 15:46:23.935143 12479 net.cpp:386] inception_5b/relu_3x3 -> inception_5b/3x3 (in-place)
I0403 15:46:23.935469 12479 net.cpp:141] Setting up inception_5b/relu_3x3
I0403 15:46:23.935497 12479 net.cpp:148] Top shape: 24 384 7 7 (451584)
I0403 15:46:23.935513 12479 net.cpp:156] Memory required for data: 1334273568
I0403 15:46:23.935528 12479 layer_factory.hpp:77] Creating layer inception_5b/5x5_reduce
I0403 15:46:23.935569 12479 net.cpp:91] Creating Layer inception_5b/5x5_reduce
I0403 15:46:23.935588 12479 net.cpp:425] inception_5b/5x5_reduce <- inception_5a/output_inception_5a/output_0_split_2
I0403 15:46:23.935611 12479 net.cpp:399] inception_5b/5x5_reduce -> inception_5b/5x5_reduce
I0403 15:46:23.936974 12479 net.cpp:141] Setting up inception_5b/5x5_reduce
I0403 15:46:23.937003 12479 net.cpp:148] Top shape: 24 48 7 7 (56448)
I0403 15:46:23.937022 12479 net.cpp:156] Memory required for data: 1334499360
I0403 15:46:23.937041 12479 layer_factory.hpp:77] Creating layer inception_5b/relu_5x5_reduce
I0403 15:46:23.937063 12479 net.cpp:91] Creating Layer inception_5b/relu_5x5_reduce
I0403 15:46:23.937083 12479 net.cpp:425] inception_5b/relu_5x5_reduce <- inception_5b/5x5_reduce
I0403 15:46:23.937120 12479 net.cpp:386] inception_5b/relu_5x5_reduce -> inception_5b/5x5_reduce (in-place)
I0403 15:46:23.937710 12479 net.cpp:141] Setting up inception_5b/relu_5x5_reduce
I0403 15:46:23.937743 12479 net.cpp:148] Top shape: 24 48 7 7 (56448)
I0403 15:46:23.937760 12479 net.cpp:156] Memory required for data: 1334725152
I0403 15:46:23.937777 12479 layer_factory.hpp:77] Creating layer inception_5b/5x5
I0403 15:46:23.937800 12479 net.cpp:91] Creating Layer inception_5b/5x5
I0403 15:46:23.937824 12479 net.cpp:425] inception_5b/5x5 <- inception_5b/5x5_reduce
I0403 15:46:23.937849 12479 net.cpp:399] inception_5b/5x5 -> inception_5b/5x5
I0403 15:46:23.940064 12479 net.cpp:141] Setting up inception_5b/5x5
I0403 15:46:23.940094 12479 net.cpp:148] Top shape: 24 128 7 7 (150528)
I0403 15:46:23.940110 12479 net.cpp:156] Memory required for data: 1335327264
I0403 15:46:23.940135 12479 layer_factory.hpp:77] Creating layer inception_5b/relu_5x5
I0403 15:46:23.940157 12479 net.cpp:91] Creating Layer inception_5b/relu_5x5
I0403 15:46:23.940176 12479 net.cpp:425] inception_5b/relu_5x5 <- inception_5b/5x5
I0403 15:46:23.940193 12479 net.cpp:386] inception_5b/relu_5x5 -> inception_5b/5x5 (in-place)
I0403 15:46:23.940407 12479 net.cpp:141] Setting up inception_5b/relu_5x5
I0403 15:46:23.940435 12479 net.cpp:148] Top shape: 24 128 7 7 (150528)
I0403 15:46:23.940451 12479 net.cpp:156] Memory required for data: 1335929376
I0403 15:46:23.940467 12479 layer_factory.hpp:77] Creating layer inception_5b/pool
I0403 15:46:23.940486 12479 net.cpp:91] Creating Layer inception_5b/pool
I0403 15:46:23.940503 12479 net.cpp:425] inception_5b/pool <- inception_5a/output_inception_5a/output_0_split_3
I0403 15:46:23.940526 12479 net.cpp:399] inception_5b/pool -> inception_5b/pool
I0403 15:46:23.940603 12479 net.cpp:141] Setting up inception_5b/pool
I0403 15:46:23.940631 12479 net.cpp:148] Top shape: 24 832 7 7 (978432)
I0403 15:46:23.940647 12479 net.cpp:156] Memory required for data: 1339843104
I0403 15:46:23.940664 12479 layer_factory.hpp:77] Creating layer inception_5b/pool_proj
I0403 15:46:23.940685 12479 net.cpp:91] Creating Layer inception_5b/pool_proj
I0403 15:46:23.940701 12479 net.cpp:425] inception_5b/pool_proj <- inception_5b/pool
I0403 15:46:23.940723 12479 net.cpp:399] inception_5b/pool_proj -> inception_5b/pool_proj
I0403 15:46:23.944494 12479 net.cpp:141] Setting up inception_5b/pool_proj
I0403 15:46:23.944525 12479 net.cpp:148] Top shape: 24 128 7 7 (150528)
I0403 15:46:23.944543 12479 net.cpp:156] Memory required for data: 1340445216
I0403 15:46:23.944563 12479 layer_factory.hpp:77] Creating layer inception_5b/relu_pool_proj
I0403 15:46:23.944584 12479 net.cpp:91] Creating Layer inception_5b/relu_pool_proj
I0403 15:46:23.944602 12479 net.cpp:425] inception_5b/relu_pool_proj <- inception_5b/pool_proj
I0403 15:46:23.944622 12479 net.cpp:386] inception_5b/relu_pool_proj -> inception_5b/pool_proj (in-place)
I0403 15:46:23.944937 12479 net.cpp:141] Setting up inception_5b/relu_pool_proj
I0403 15:46:23.944965 12479 net.cpp:148] Top shape: 24 128 7 7 (150528)
I0403 15:46:23.944982 12479 net.cpp:156] Memory required for data: 1341047328
I0403 15:46:23.944998 12479 layer_factory.hpp:77] Creating layer inception_5b/output
I0403 15:46:23.945015 12479 net.cpp:91] Creating Layer inception_5b/output
I0403 15:46:23.945049 12479 net.cpp:425] inception_5b/output <- inception_5b/1x1
I0403 15:46:23.945071 12479 net.cpp:425] inception_5b/output <- inception_5b/3x3
I0403 15:46:23.945091 12479 net.cpp:425] inception_5b/output <- inception_5b/5x5
I0403 15:46:23.945109 12479 net.cpp:425] inception_5b/output <- inception_5b/pool_proj
I0403 15:46:23.945127 12479 net.cpp:399] inception_5b/output -> inception_5b/output
I0403 15:46:23.945184 12479 net.cpp:141] Setting up inception_5b/output
I0403 15:46:23.945211 12479 net.cpp:148] Top shape: 24 1024 7 7 (1204224)
I0403 15:46:23.945227 12479 net.cpp:156] Memory required for data: 1345864224
I0403 15:46:23.945242 12479 layer_factory.hpp:77] Creating layer pool5/7x7_s1
I0403 15:46:23.945261 12479 net.cpp:91] Creating Layer pool5/7x7_s1
I0403 15:46:23.945278 12479 net.cpp:425] pool5/7x7_s1 <- inception_5b/output
I0403 15:46:23.945299 12479 net.cpp:399] pool5/7x7_s1 -> pool5/7x7_s1
I0403 15:46:23.945535 12479 net.cpp:141] Setting up pool5/7x7_s1
I0403 15:46:23.945564 12479 net.cpp:148] Top shape: 24 1024 1 1 (24576)
I0403 15:46:23.945579 12479 net.cpp:156] Memory required for data: 1345962528
I0403 15:46:23.945595 12479 layer_factory.hpp:77] Creating layer pool5/drop_7x7_s1
I0403 15:46:23.945616 12479 net.cpp:91] Creating Layer pool5/drop_7x7_s1
I0403 15:46:23.945633 12479 net.cpp:425] pool5/drop_7x7_s1 <- pool5/7x7_s1
I0403 15:46:23.945652 12479 net.cpp:386] pool5/drop_7x7_s1 -> pool5/7x7_s1 (in-place)
I0403 15:46:23.945706 12479 net.cpp:141] Setting up pool5/drop_7x7_s1
I0403 15:46:23.945731 12479 net.cpp:148] Top shape: 24 1024 1 1 (24576)
I0403 15:46:23.945746 12479 net.cpp:156] Memory required for data: 1346060832
I0403 15:46:23.945761 12479 layer_factory.hpp:77] Creating layer loss3/classifier_plantvillage
I0403 15:46:23.945781 12479 net.cpp:91] Creating Layer loss3/classifier_plantvillage
I0403 15:46:23.945797 12479 net.cpp:425] loss3/classifier_plantvillage <- pool5/7x7_s1
I0403 15:46:23.945821 12479 net.cpp:399] loss3/classifier_plantvillage -> loss3/classifier_plantvillage
I0403 15:46:23.946277 12479 net.cpp:141] Setting up loss3/classifier_plantvillage
I0403 15:46:23.946305 12479 net.cpp:148] Top shape: 24 38 (912)
I0403 15:46:23.946319 12479 net.cpp:156] Memory required for data: 1346064480
I0403 15:46:23.946337 12479 layer_factory.hpp:77] Creating layer loss3/classifier_plantvillage_loss3/classifier_plantvillage_0_split
I0403 15:46:23.946362 12479 net.cpp:91] Creating Layer loss3/classifier_plantvillage_loss3/classifier_plantvillage_0_split
I0403 15:46:23.946379 12479 net.cpp:425] loss3/classifier_plantvillage_loss3/classifier_plantvillage_0_split <- loss3/classifier_plantvillage
I0403 15:46:23.946405 12479 net.cpp:399] loss3/classifier_plantvillage_loss3/classifier_plantvillage_0_split -> loss3/classifier_plantvillage_loss3/classifier_plantvillage_0_split_0
I0403 15:46:23.946427 12479 net.cpp:399] loss3/classifier_plantvillage_loss3/classifier_plantvillage_0_split -> loss3/classifier_plantvillage_loss3/classifier_plantvillage_0_split_1
I0403 15:46:23.946447 12479 net.cpp:399] loss3/classifier_plantvillage_loss3/classifier_plantvillage_0_split -> loss3/classifier_plantvillage_loss3/classifier_plantvillage_0_split_2
I0403 15:46:23.946468 12479 net.cpp:399] loss3/classifier_plantvillage_loss3/classifier_plantvillage_0_split -> loss3/classifier_plantvillage_loss3/classifier_plantvillage_0_split_3
I0403 15:46:23.946575 12479 net.cpp:141] Setting up loss3/classifier_plantvillage_loss3/classifier_plantvillage_0_split
I0403 15:46:23.946600 12479 net.cpp:148] Top shape: 24 38 (912)
I0403 15:46:23.946617 12479 net.cpp:148] Top shape: 24 38 (912)
I0403 15:46:23.946633 12479 net.cpp:148] Top shape: 24 38 (912)
I0403 15:46:23.946648 12479 net.cpp:148] Top shape: 24 38 (912)
I0403 15:46:23.946662 12479 net.cpp:156] Memory required for data: 1346079072
I0403 15:46:23.946678 12479 layer_factory.hpp:77] Creating layer loss1/loss
I0403 15:46:23.946702 12479 net.cpp:91] Creating Layer loss1/loss
I0403 15:46:23.946719 12479 net.cpp:425] loss1/loss <- loss1/classifier_plantvillage_loss1/classifier_plantvillage_0_split_0
I0403 15:46:23.946753 12479 net.cpp:425] loss1/loss <- label_data_1_split_0
…
