…
I0403 14:59:32.842814 11471 net.cpp:313] The NetState phase (1) differed from the phase (0) specified by a rule in layer data
I0403 14:59:32.843989 11471 net.cpp:49] Initializing net from parameters: 
state {
  phase: TEST
}
layer {
  name: "data"
  type: "Data"
  top: "data"
  top: "label"
  include {
    phase: TEST
  }
  transform_param {
    mirror: false
    crop_size: 224
    mean_file: "/home/mohanty/data/final_dataset/lmdb/segmented-40-60/mean.binaryproto"
  }
  data_param {
    source: "/home/mohanty/data/final_dataset/lmdb/segmented-40-60/test_db"
    batch_size: 24
    backend: LMDB
  }
}
layer {
  name: "conv1/7x7_s2"
  type: "Convolution"
  bottom: "data"
  top: "conv1/7x7_s2"
  param {
    lr_mult: 1
    decay_mult: 1
  }
  param {
    lr_mult: 2
    decay_mult: 0
  }
  convolution_param {
    num_output: 64
    pad: 3
    kernel_size: 7
    stride: 2
    weight_filler {
      type: "xavier"
      std: 0.1
    }
    bias_filler {
      type: "constant"
      value: 0.2
    }
  }
}
layer {
  name: "conv1/relu_7x7"
  type: "ReLU"
  bottom: "conv1/7x7_s2"
  top: "conv1/7x7_s2"
}
layer {
  name: "pool1/3x3_s2"
  type: "Pooling"
  bottom: "conv1/7x7_s2"
  top: "pool1/3x3_s2"
  pooling_param {
    pool: MAX
    kernel_size: 3
    stride: 2
  }
}
layer {
  name: "pool1/norm1"
  type: "LRN"
  bottom: "pool1/3x3_s2"
  top: "pool1/norm1"
  lrn_param {
    local_size: 5
    alpha: 0.0001
    beta: 0.75
  }
}
layer {
  name: "conv2/3x3_reduce"
  type: "Convolution"
  bottom: "pool1/norm1"
  top: "conv2/3x3_reduce"
  param {
    lr_mult: 1
    decay_mult: 1
  }
  param {
    lr_mult: 2
    decay_mult: 0
  }
  convolution_param {
    num_output: 64
    kernel_size: 1
    weight_filler {
      type: "xavier"
      std: 0.1
    }
    bias_filler {
      type: "constant"
      value: 0.2
    }
  }
}
layer {
  name: "conv2/relu_3x3_reduce"
  type: "ReLU"
  bottom: "conv2/3x3_reduce"
  top: "conv2/3x3_reduce"
}
layer {
  name: "conv2/3x3"
  type: "Convolution"
  bottom: "conv2/3x3_reduce"
  top: "conv2/3x3"
  param {
    lr_mult: 1
    decay_mult: 1
  }
  param {
    lr_mult: 2
    decay_mult: 0
  }
  convolution_param {
    num_output: 192
    pad: 1
    kernel_size: 3
    weight_filler {
      type: "xavier"
      std: 0.03
    }
    bias_filler {
      type: "constant"
      value: 0.2
    }
  }
}
layer {
  name: "conv2/relu_3x3"
  type: "ReLU"
  bottom: "conv2/3x3"
  top: "conv2/3x3"
}
layer {
  name: "conv2/norm2"
  type: "LRN"
  bottom: "conv2/3x3"
  top: "conv2/norm2"
  lrn_param {
    local_size: 5
    alpha: 0.0001
    beta: 0.75
  }
}
layer {
  name: "pool2/3x3_s2"
  type: "Pooling"
  bottom: "conv2/norm2"
  top: "pool2/3x3_s2"
  pooling_param {
    pool: MAX
    kernel_size: 3
    stride: 2
  }
}
layer {
  name: "inception_3a/1x1"
  type: "Convolution"
  bottom: "pool2/3x3_s2"
  top: "inception_3a/1x1"
  param {
    lr_mult: 1
    decay_mult: 1
  }
  param {
    lr_mult: 2
    decay_mult: 0
  }
  convolution_param {
    num_output: 64
    kernel_size: 1
    weight_filler {
      type: "xavier"
      std: 0.03
    }
    bias_filler {
      type: "constant"
      value: 0.2
    }
  }
}
layer {
  name: "inception_3a/relu_1x1"
  type: "ReLU"
  bottom: "inception_3a/1x1"
  top: "inception_3a/1x1"
}
layer {
  name: "inception_3a/3x3_reduce"
  type: "Convolution"
  bottom: "pool2/3x3_s2"
  top: "inception_3a/3x3_reduce"
  param {
    lr_mult: 1
    decay_mult: 1
  }
  param {
    lr_mult: 2
    decay_mult: 0
  }
  convolution_param {
    num_output: 96
    kernel_size: 1
    weight_filler {
      type: "xavier"
      std: 0.09
    }
    bias_filler {
      type: "constant"
      value: 0.2
    }
  }
}
layer {
  name: "inception_3a/relu_3x3_reduce"
  type: "ReLU"
  bottom: "inception_3a/3x3_reduce"
  top: "inception_3a/3x3_reduce"
}
layer {
  name: "inception_3a/3x3"
  type: "Convolution"
  bottom: "inception_3a/3x3_reduce"
  top: "inception_3a/3x3"
  param {
    lr_mult: 1
    decay_mult: 1
  }
  param {
    lr_mult: 2
    decay_mult: 0
  }
  convolution_param {
    num_output: 128
    pad: 1
    kernel_size: 3
    weight_filler {
      type: "xavier"
      std: 0.03
    }
    bias_filler {
      type: "constant"
      value: 0.2
    }
  }
}
layer {
  name: "inception_3a/relu_3x3"
  type: "ReLU"
  bottom: "inception_3a/3x3"
  top: "inception_3a/3x3"
}
layer {
  name: "inception_3a/5x5_reduce"
  type: "Convolution"
  bottom: "pool2/3x3_s2"
  top: "inception_3a/5x5_reduce"
  param {
    lr_mult: 1
    decay_mult: 1
  }
  param {
    lr_mult: 2
    decay_mult: 0
  }
  convolution_param {
    num_output: 16
    kernel_size: 1
    weight_filler {
      type: "xavier"
      std: 0.2
    }
    bias_filler {
      type: "constant"
      value: 0.2
    }
  }
}
layer {
  name: "inception_3a/relu_5x5_reduce"
  type: "ReLU"
  bottom: "inception_3a/5x5_reduce"
  top: "inception_3a/5x5_reduce"
}
layer {
  name: "inception_3a/5x5"
  type: "Convolution"
  bottom: "inception_3a/5x5_reduce"
  top: "inception_3a/5x5"
  param {
    lr_mult: 1
    decay_mult: 1
  }
  param {
    lr_mult: 2
    decay_mult: 0
  }
  convolution_param {
    num_output: 32
    pad: 2
    kernel_size: 5
    weight_filler {
      type: "xavier"
      std: 0.03
    }
    bias_filler {
      type: "constant"
      value: 0.2
    }
  }
}
layer {
  name: "inception_3a/relu_5x5"
  type: "ReLU"
  bottom: "inception_3a/5x5"
  top: "inception_3a/5x5"
}
layer {
  name: "inception_3a/pool"
  type: "Pooling"
  bottom: "pool2/3x3_s2"
  top: "inception_3a/pool"
  pooling_param {
    pool: MAX
    kernel_size: 3
    stride: 1
    pad: 1
  }
}
layer {
  name: "inception_3a/pool_proj"
  type: "Convolution"
  bottom: "inception_3a/pool"
  top: "inception_3a/pool_proj"
  param {
    lr_mult: 1
    decay_mult: 1
  }
  param {
    lr_mult: 2
    decay_mult: 0
  }
  convolution_param {
    num_output: 32
    kernel_size: 1
    weight_filler {
      type: "xavier"
      std: 0.1
    }
    bias_filler {
      type: "constant"
      value: 0.2
    }
  }
}
layer {
  name: "inception_3a/relu_pool_proj"
  type: "ReLU"
  bottom: "inception_3a/pool_proj"
  top: "inception_3a/pool_proj"
}
layer {
  name: "inception_3a/output"
  type: "Concat"
  bottom: "inception_3a/1x1"
  bottom: "inception_3a/3x3"
  bottom: "inception_3a/5x5"
  bottom: "inception_3a/pool_proj"
  top: "inception_3a/output"
}
layer {
  name: "inception_3b/1x1"
  type: "Convolution"
  bottom: "inception_3a/output"
  top: "inception_3b/1x1"
  param {
    lr_mult: 1
    decay_mult: 1
  }
  param {
    lr_mult: 2
    decay_mult: 0
  }
  convolution_param {
    num_output: 128
    kernel_size: 1
    weight_filler {
      type: "xavier"
      std: 0.03
    }
    bias_filler {
      type: "constant"
      value: 0.2
    }
  }
}
layer {
  name: "inception_3b/relu_1x1"
  type: "ReLU"
  bottom: "inception_3b/1x1"
  top: "inception_3b/1x1"
}
layer {
  name: "inception_3b/3x3_reduce"
  type: "Convolution"
  bottom: "inception_3a/output"
  top: "inception_3b/3x3_reduce"
  param {
    lr_mult: 1
    decay_mult: 1
  }
  param {
    lr_mult: 2
    decay_mult: 0
  }
  convolution_param {
    num_output: 128
    kernel_size: 1
    weight_filler {
      type: "xavier"
      std: 0.09
    }
    bias_filler {
      type: "constant"
      value: 0.2
    }
  }
}
layer {
  name: "inception_3b/relu_3x3_reduce"
  type: "ReLU"
  bottom: "inception_3b/3x3_reduce"
  top: "inception_3b/3x3_reduce"
}
layer {
  name: "inception_3b/3x3"
  type: "Convolution"
  bottom: "inception_3b/3x3_reduce"
  top: "inception_3b/3x3"
  param {
    lr_mult: 1
    decay_mult: 1
  }
  param {
    lr_mult: 2
    decay_mult: 0
  }
  convolution_param {
    num_output: 192
    pad: 1
    kernel_size: 3
    weight_filler {
      type: "xavier"
      std: 0.03
    }
    bias_filler {
      type: "constant"
      value: 0.2
    }
  }
}
layer {
  name: "inception_3b/relu_3x3"
  type: "ReLU"
  bottom: "inception_3b/3x3"
  top: "inception_3b/3x3"
}
layer {
  name: "inception_3b/5x5_reduce"
  type: "Convolution"
  bottom: "inception_3a/output"
  top: "inception_3b/5x5_reduce"
  param {
    lr_mult: 1
    decay_mult: 1
  }
  param {
    lr_mult: 2
    decay_mult: 0
  }
  convolution_param {
    num_output: 32
    kernel_size: 1
    weight_filler {
      type: "xavier"
      std: 0.2
    }
    bias_filler {
      type: "constant"
      value: 0.2
    }
  }
}
layer {
  name: "inception_3b/relu_5x5_reduce"
  type: "ReLU"
  bottom: "inception_3b/5x5_reduce"
  top: "inception_3b/5x5_reduce"
}
layer {
  name: "inception_3b/5x5"
  type: "Convolution"
  bottom: "inception_3b/5x5_reduce"
  top: "inception_3b/5x5"
  param {
    lr_mult: 1
    decay_mult: 1
  }
  param {
    lr_mult: 2
    decay_mult: 0
  }
  convolution_param {
    num_output: 96
    pad: 2
    kernel_size: 5
    weight_filler {
      type: "xavier"
      std: 0.03
    }
    bias_filler {
      type: "constant"
      value: 0.2
    }
  }
}
layer {
  name: "inception_3b/relu_5x5"
  type: "ReLU"
  bottom: "inception_3b/5x5"
  top: "inception_3b/5x5"
}
layer {
  name: "inception_3b/pool"
  type: "Pooling"
  bottom: "inception_3a/output"
  top: "inception_3b/pool"
  pooling_param {
    pool: MAX
    kernel_size: 3
    stride: 1
    pad: 1
  }
}
layer {
  name: "inception_3b/pool_proj"
  type: "Convolution"
  bottom: "inception_3b/pool"
  top: "inception_3b/pool_proj"
  param {
    lr_mult: 1
    decay_mult: 1
  }
  param {
    lr_mult: 2
    decay_mult: 0
  }
  convolution_param {
    num_output: 64
    kernel_size: 1
    weight_filler {
      type: "xavier"
      std: 0.1
    }
    bias_filler {
      type: "constant"
      value: 0.2
    }
  }
}
layer {
  name: "inception_3b/relu_pool_proj"
  type: "ReLU"
  bottom: "inception_3b/pool_proj"
  top: "inception_3b/pool_proj"
}
layer {
  name: "inception_3b/output"
  type: "Concat"
  bottom: "inception_3b/1x1"
  bottom: "inception_3b/3x3"
  bottom: "inception_3b/5x5"
  bottom: "inception_3b/pool_proj"
  top: "inception_3b/output"
}
layer {
  name: "pool3/3x3_s2"
  type: "Pooling"
  bottom: "inception_3b/output"
  top: "pool3/3x3_s2"
  pooling_param {
    pool: MAX
    kernel_size: 3
    stride: 2
  }
}
layer {
  name: "inception_4a/1x1"
  type: "Convolution"
  bottom: "pool3/3x3_s2"
  top: "inception_4a/1x1"
  param {
    lr_mult: 1
    decay_mult: 1
  }
  param {
    lr_mult: 2
    decay_mult: 0
  }
  convolution_param {
    num_output: 192
    kernel_size: 1
    weight_filler {
      type: "xavier"
      std: 0.03
    }
    bias_filler {
      type: "constant"
      value: 0.2
    }
  }
}
layer {
  name: "inception_4a/relu_1x1"
  type: "ReLU"
  bottom: "inception_4a/1x1"
  top: "inception_4a/1x1"
}
layer {
  name: "inception_4a/3x3_reduce"
  type: "Convolution"
  bottom: "pool3/3x3_s2"
  top: "inception_4a/3x3_reduce"
  param {
    lr_mult: 1
    decay_mult: 1
  }
  param {
    lr_mult: 2
    decay_mult: 0
  }
  convolution_param {
    num_output: 96
    kernel_size: 1
    weight_filler {
      type: "xavier"
      std: 0.09
    }
    bias_filler {
      type: "constant"
      value: 0.2
    }
  }
}
layer {
  name: "inception_4a/relu_3x3_reduce"
  type: "ReLU"
  bottom: "inception_4a/3x3_reduce"
  top: "inception_4a/3x3_reduce"
}
layer {
  name: "inception_4a/3x3"
  type: "Convolution"
  bottom: "inception_4a/3x3_reduce"
  top: "inception_4a/3x3"
  param {
    lr_mult: 1
    decay_mult: 1
  }
  param {
    lr_mult: 2
    decay_mult: 0
  }
  convolution_param {
    num_output: 208
    pad: 1
    kernel_size: 3
    weight_filler {
      type: "xavier"
      std: 0.03
    }
    bias_filler {
      type: "constant"
      value: 0.2
    }
  }
}
layer {
  name: "inception_4a/relu_3x3"
  type: "ReLU"
  bottom: "inception_4a/3x3"
  top: "inception_4a/3x3"
}
layer {
  name: "inception_4a/5x5_reduce"
  type: "Convolution"
  bottom: "pool3/3x3_s2"
  top: "inception_4a/5x5_reduce"
  param {
    lr_mult: 1
    decay_mult: 1
  }
  param {
    lr_mult: 2
    decay_mult: 0
  }
  convolution_param {
    num_output: 16
    kernel_size: 1
    weight_filler {
      type: "xavier"
      std: 0.2
    }
    bias_filler {
      type: "constant"
      value: 0.2
    }
  }
}
layer {
  name: "inception_4a/relu_5x5_reduce"
  type: "ReLU"
  bottom: "inception_4a/5x5_reduce"
  top: "inception_4a/5x5_reduce"
}
layer {
  name: "inception_4a/5x5"
  type: "Convolution"
  bottom: "inception_4a/5x5_reduce"
  top: "inception_4a/5x5"
  param {
    lr_mult: 1
    decay_mult: 1
  }
  param {
    lr_mult: 2
    decay_mult: 0
  }
  convolution_param {
    num_output: 48
    pad: 2
    kernel_size: 5
    weight_filler {
      type: "xavier"
      std: 0.03
    }
    bias_filler {
      type: "constant"
      value: 0.2
    }
  }
}
layer {
  name: "inception_4a/relu_5x5"
  type: "ReLU"
  bottom: "inception_4a/5x5"
  top: "inception_4a/5x5"
}
layer {
  name: "inception_4a/pool"
  type: "Pooling"
  bottom: "pool3/3x3_s2"
  top: "inception_4a/pool"
  pooling_param {
    pool: MAX
    kernel_size: 3
    stride: 1
    pad: 1
  }
}
layer {
  name: "inception_4a/pool_proj"
  type: "Convolution"
  bottom: "inception_4a/pool"
  top: "inception_4a/pool_proj"
  param {
    lr_mult: 1
    decay_mult: 1
  }
  param {
    lr_mult: 2
    decay_mult: 0
  }
  convolution_param {
    num_output: 64
    kernel_size: 1
    weight_filler {
      type: "xavier"
      std: 0.1
    }
    bias_filler {
      type: "constant"
      value: 0.2
    }
  }
}
layer {
  name: "inception_4a/relu_pool_proj"
  type: "ReLU"
  bottom: "inception_4a/pool_proj"
  top: "inception_4a/pool_proj"
}
layer {
  name: "inception_4a/output"
  type: "Concat"
  bottom: "inception_4a/1x1"
  bottom: "inception_4a/3x3"
  bottom: "inception_4a/5x5"
  bottom: "inception_4a/pool_proj"
  top: "inception_4a/output"
}
layer {
  name: "loss1/ave_pool"
  type: "Pooling"
  bottom: "inception_4a/output"
  top: "loss1/ave_pool"
  pooling_param {
    pool: AVE
    kernel_size: 5
    stride: 3
  }
}
layer {
  name: "loss1/conv"
  type: "Convolution"
  bottom: "loss1/ave_pool"
  top: "loss1/conv"
  param {
    lr_mult: 1
    decay_mult: 1
  }
  param {
    lr_mult: 2
    decay_mult: 0
  }
  convolution_param {
    num_output: 128
    kernel_size: 1
    weight_filler {
      type: "xavier"
      std: 0.08
    }
    bias_filler {
      type: "constant"
      value: 0.2
    }
  }
}
layer {
  name: "loss1/relu_conv"
  type: "ReLU"
  bottom: "loss1/conv"
  top: "loss1/conv"
}
layer {
  name: "loss1/fc"
  type: "InnerProduct"
  bottom: "loss1/conv"
  top: "loss1/fc"
  param {
    lr_mult: 1
    decay_mult: 1
  }
  param {
    lr_mult: 2
    decay_mult: 0
  }
  inner_product_param {
    num_output: 1024
    weight_filler {
      type: "xavier"
      std: 0.02
    }
    bias_filler {
      type: "constant"
      value: 0.2
    }
  }
}
layer {
  name: "loss1/relu_fc"
  type: "ReLU"
  bottom: "loss1/fc"
  top: "loss1/fc"
}
layer {
  name: "loss1/drop_fc"
  type: "Dropout"
  bottom: "loss1/fc"
  top: "loss1/fc"
  dropout_param {
    dropout_ratio: 0.7
  }
}
layer {
  name: "loss1/classifier_plantvillage"
  type: "InnerProduct"
  bottom: "loss1/fc"
  top: "loss1/classifier_plantvillage"
  param {
    lr_mult: 1
    decay_mult: 1
  }
  param {
    lr_mult: 2
    decay_mult: 0
  }
  inner_product_param {
    num_output: 38
    weight_filler {
      type: "xavier"
      std: 0.0009765625
    }
    bias_filler {
      type: "constant"
      value: 0
    }
  }
}
layer {
  name: "inception_4b/1x1"
  type: "Convolution"
  bottom: "inception_4a/output"
  top: "inception_4b/1x1"
  param {
    lr_mult: 1
    decay_mult: 1
  }
  param {
    lr_mult: 2
    decay_mult: 0
  }
  convolution_param {
    num_output: 160
    kernel_size: 1
    weight_filler {
      type: "xavier"
      std: 0.03
    }
    bias_filler {
      type: "constant"
      value: 0.2
    }
  }
}
layer {
  name: "inception_4b/relu_1x1"
  type: "ReLU"
  bottom: "inception_4b/1x1"
  top: "inception_4b/1x1"
}
layer {
  name: "inception_4b/3x3_reduce"
  type: "Convolution"
  bottom: "inception_4a/output"
  top: "inception_4b/3x3_reduce"
  param {
    lr_mult: 1
    decay_mult: 1
  }
  param {
    lr_mult: 2
    decay_mult: 0
  }
  convolution_param {
    num_output: 112
    kernel_size: 1
    weight_filler {
      type: "xavier"
      std: 0.09
    }
    bias_filler {
      type: "constant"
      value: 0.2
    }
  }
}
layer {
  name: "inception_4b/relu_3x3_reduce"
  type: "ReLU"
  bottom: "inception_4b/3x3_reduce"
  top: "inception_4b/3x3_reduce"
}
layer {
  name: "inception_4b/3x3"
  type: "Convolution"
  bottom: "inception_4b/3x3_reduce"
  top: "inception_4b/3x3"
  param {
    lr_mult: 1
    decay_mult: 1
  }
  param {
    lr_mult: 2
    decay_mult: 0
  }
  convolution_param {
    num_output: 224
    pad: 1
    kernel_size: 3
    weight_filler {
      type: "xavier"
      std: 0.03
    }
    bias_filler {
      type: "constant"
      value: 0.2
    }
  }
}
layer {
  name: "inception_4b/relu_3x3"
  type: "ReLU"
  bottom: "inception_4b/3x3"
  top: "inception_4b/3x3"
}
layer {
  name: "inception_4b/5x5_reduce"
  type: "Convolution"
  bottom: "inception_4a/output"
  top: "inception_4b/5x5_reduce"
  param {
    lr_mult: 1
    decay_mult: 1
  }
  param {
    lr_mult: 2
    decay_mult: 0
  }
  convolution_param {
    num_output: 24
    kernel_size: 1
    weight_filler {
      type: "xavier"
      std: 0.2
    }
    bias_filler {
      type: "constant"
      value: 0.2
    }
  }
}
layer {
  name: "inception_4b/relu_5x5_reduce"
  type: "ReLU"
  bottom: "inception_4b/5x5_reduce"
  top: "inception_4b/5x5_reduce"
}
layer {
  name: "inception_4b/5x5"
  type: "Convolution"
  bottom: "inception_4b/5x5_reduce"
  top: "inception_4b/5x5"
  param {
    lr_mult: 1
    decay_mult: 1
  }
  param {
    lr_mult: 2
    decay_mult: 0
  }
  convolution_param {
    num_output: 64
    pad: 2
    kernel_size: 5
    weight_filler {
      type: "xavier"
      std: 0.03
    }
    bias_filler {
      type: "constant"
      value: 0.2
    }
  }
}
layer {
  name: "inception_4b/relu_5x5"
  type: "ReLU"
  bottom: "inception_4b/5x5"
  top: "inception_4b/5x5"
}
layer {
  name: "inception_4b/pool"
  type: "Pooling"
  bottom: "inception_4a/output"
  top: "inception_4b/pool"
  pooling_param {
    pool: MAX
    kernel_size: 3
    stride: 1
    pad: 1
  }
}
layer {
  name: "inception_4b/pool_proj"
  type: "Convolution"
  bottom: "inception_4b/pool"
  top: "inception_4b/pool_proj"
  param {
    lr_mult: 1
    decay_mult: 1
  }
  param {
    lr_mult: 2
    decay_mult: 0
  }
  convolution_param {
    num_output: 64
    kernel_size: 1
    weight_filler {
      type: "xavier"
      std: 0.1
    }
    bias_filler {
      type: "constant"
      value: 0.2
    }
  }
}
layer {
  name: "inception_4b/relu_pool_proj"
  type: "ReLU"
  bottom: "inception_4b/pool_proj"
  top: "inception_4b/pool_proj"
}
layer {
  name: "inception_4b/output"
  type: "Concat"
  bottom: "inception_4b/1x1"
  bottom: "inception_4b/3x3"
  bottom: "inception_4b/5x5"
  bottom: "inception_4b/pool_proj"
  top: "inception_4b/output"
}
layer {
  name: "inception_4c/1x1"
  type: "Convolution"
  bottom: "inception_4b/output"
  top: "inception_4c/1x1"
  param {
    lr_mult: 1
    decay_mult: 1
  }
  param {
    lr_mult: 2
    decay_mult: 0
  }
  convolution_param {
    num_output: 128
    kernel_size: 1
    weight_filler {
      type: "xavier"
      std: 0.03
    }
    bias_filler {
      type: "constant"
      value: 0.2
    }
  }
}
layer {
  name: "inception_4c/relu_1x1"
  type: "ReLU"
  bottom: "inception_4c/1x1"
  top: "inception_4c/1x1"
}
layer {
  name: "inception_4c/3x3_reduce"
  type: "Convolution"
  bottom: "inception_4b/output"
  top: "inception_4c/3x3_reduce"
  param {
    lr_mult: 1
    decay_mult: 1
  }
  param {
    lr_mult: 2
    decay_mult: 0
  }
  convolution_param {
    num_output: 128
    kernel_size: 1
    weight_filler {
      type: "xavier"
      std: 0.09
    }
    bias_filler {
      type: "constant"
      value: 0.2
    }
  }
}
layer {
  name: "inception_4c/relu_3x3_reduce"
  type: "ReLU"
  bottom: "inception_4c/3x3_reduce"
  top: "inception_4c/3x3_reduce"
}
layer {
  name: "inception_4c/3x3"
  type: "Convolution"
  bottom: "inception_4c/3x3_reduce"
  top: "inception_4c/3x3"
  param {
    lr_mult: 1
    decay_mult: 1
  }
  param {
    lr_mult: 2
    decay_mult: 0
  }
  convolution_param {
    num_output: 256
    pad: 1
    kernel_size: 3
    weight_filler {
      type: "xavier"
      std: 0.03
    }
    bias_filler {
      type: "constant"
      value: 0.2
    }
  }
}
layer {
  name: "inception_4c/relu_3x3"
  type: "ReLU"
  bottom: "inception_4c/3x3"
  top: "inception_4c/3x3"
}
layer {
  name: "inception_4c/5x5_reduce"
  type: "Convolution"
  bottom: "inception_4b/output"
  top: "inception_4c/5x5_reduce"
  param {
    lr_mult: 1
    decay_mult: 1
  }
  param {
    lr_mult: 2
    decay_mult: 0
  }
  convolution_param {
    num_output: 24
    kernel_size: 1
    weight_filler {
      type: "xavier"
      std: 0.2
    }
    bias_filler {
      type: "constant"
      value: 0.2
    }
  }
}
layer {
  name: "inception_4c/relu_5x5_reduce"
  type: "ReLU"
  bottom: "inception_4c/5x5_reduce"
  top: "inception_4c/5x5_reduce"
}
layer {
  name: "inception_4c/5x5"
  type: "Convolution"
  bottom: "inception_4c/5x5_reduce"
  top: "inception_4c/5x5"
  param {
    lr_mult: 1
    decay_mult: 1
  }
  param {
    lr_mult: 2
    decay_mult: 0
  }
  convolution_param {
    num_output: 64
    pad: 2
    kernel_size: 5
    weight_filler {
      type: "xavier"
      std: 0.03
    }
    bias_filler {
      type: "constant"
      value: 0.2
    }
  }
}
layer {
  name: "inception_4c/relu_5x5"
  type: "ReLU"
  bottom: "inception_4c/5x5"
  top: "inception_4c/5x5"
}
layer {
  name: "inception_4c/pool"
  type: "Pooling"
  bottom: "inception_4b/output"
  top: "inception_4c/pool"
  pooling_param {
    pool: MAX
    kernel_size: 3
    stride: 1
    pad: 1
  }
}
layer {
  name: "inception_4c/pool_proj"
  type: "Convolution"
  bottom: "inception_4c/pool"
  top: "inception_4c/pool_proj"
  param {
    lr_mult: 1
    decay_mult: 1
  }
  param {
    lr_mult: 2
    decay_mult: 0
  }
  convolution_param {
    num_output: 64
    kernel_size: 1
    weight_filler {
      type: "xavier"
      std: 0.1
    }
    bias_filler {
      type: "constant"
      value: 0.2
    }
  }
}
layer {
  name: "inception_4c/relu_pool_proj"
  type: "ReLU"
  bottom: "inception_4c/pool_proj"
  top: "inception_4c/pool_proj"
}
layer {
  name: "inception_4c/output"
  type: "Concat"
  bottom: "inception_4c/1x1"
  bottom: "inception_4c/3x3"
  bottom: "inception_4c/5x5"
  bottom: "inception_4c/pool_proj"
  top: "inception_4c/output"
}
layer {
  name: "inception_4d/1x1"
  type: "Convolution"
  bottom: "inception_4c/output"
  top: "inception_4d/1x1"
  param {
    lr_mult: 1
    decay_mult: 1
  }
  param {
    lr_mult: 2
    decay_mult: 0
  }
  convolution_param {
    num_output: 112
    kernel_size: 1
    weight_filler {
      type: "xavier"
      std: 0.03
    }
    bias_filler {
      type: "constant"
      value: 0.2
    }
  }
}
layer {
  name: "inception_4d/relu_1x1"
  type: "ReLU"
  bottom: "inception_4d/1x1"
  top: "inception_4d/1x1"
}
layer {
  name: "inception_4d/3x3_reduce"
  type: "Convolution"
  bottom: "inception_4c/output"
  top: "inception_4d/3x3_reduce"
  param {
    lr_mult: 1
    decay_mult: 1
  }
  param {
    lr_mult: 2
    decay_mult: 0
  }
  convolution_param {
    num_output: 144
    kernel_size: 1
    weight_filler {
      type: "xavier"
      std: 0.09
    }
    bias_filler {
      type: "constant"
      value: 0.2
    }
  }
}
layer {
  name: "inception_4d/relu_3x3_reduce"
  type: "ReLU"
  bottom: "inception_4d/3x3_reduce"
  top: "inception_4d/3x3_reduce"
}
layer {
  name: "inception_4d/3x3"
  type: "Convolution"
  bottom: "inception_4d/3x3_reduce"
  top: "inception_4d/3x3"
  param {
    lr_mult: 1
    decay_mult: 1
  }
  param {
    lr_mult: 2
    decay_mult: 0
  }
  convolution_param {
    num_output: 288
    pad: 1
    kernel_size: 3
    weight_filler {
      type: "xavier"
      std: 0.03
    }
    bias_filler {
      type: "constant"
      value: 0.2
    }
  }
}
layer {
  name: "inception_4d/relu_3x3"
  type: "ReLU"
  bottom: "inception_4d/3x3"
  top: "inception_4d/3x3"
}
layer {
  name: "inception_4d/5x5_reduce"
  type: "Convolution"
  bottom: "inception_4c/output"
  top: "inception_4d/5x5_reduce"
  param {
    lr_mult: 1
    decay_mult: 1
  }
  param {
    lr_mult: 2
    decay_mult: 0
  }
  convolution_param {
    num_output: 32
    kernel_size: 1
    weight_filler {
      type: "xavier"
      std: 0.2
    }
    bias_filler {
      type: "constant"
      value: 0.2
    }
  }
}
layer {
  name: "inception_4d/relu_5x5_reduce"
  type: "ReLU"
  bottom: "inception_4d/5x5_reduce"
  top: "inception_4d/5x5_reduce"
}
layer {
  name: "inception_4d/5x5"
  type: "Convolution"
  bottom: "inception_4d/5x5_reduce"
  top: "inception_4d/5x5"
  param {
    lr_mult: 1
    decay_mult: 1
  }
  param {
    lr_mult: 2
    decay_mult: 0
  }
  convolution_param {
    num_output: 64
    pad: 2
    kernel_size: 5
    weight_filler {
      type: "xavier"
      std: 0.03
    }
    bias_filler {
      type: "constant"
      value: 0.2
    }
  }
}
layer {
  name: "inception_4d/relu_5x5"
  type: "ReLU"
  bottom: "inception_4d/5x5"
  top: "inception_4d/5x5"
}
layer {
  name: "inception_4d/pool"
  type: "Pooling"
  bottom: "inception_4c/output"
  top: "inception_4d/pool"
  pooling_param {
    pool: MAX
    kernel_size: 3
    stride: 1
    pad: 1
  }
}
layer {
  name: "inception_4d/pool_proj"
  type: "Convolution"
  bottom: "inception_4d/pool"
  top: "inception_4d/pool_proj"
  param {
    lr_mult: 1
    decay_mult: 1
  }
  param {
    lr_mult: 2
    decay_mult: 0
  }
  convolution_param {
    num_output: 64
    kernel_size: 1
    weight_filler {
      type: "xavier"
      std: 0.1
    }
    bias_filler {
      type: "constant"
      value: 0.2
    }
  }
}
layer {
  name: "inception_4d/relu_pool_proj"
  type: "ReLU"
  bottom: "inception_4d/pool_proj"
  top: "inception_4d/pool_proj"
}
layer {
  name: "inception_4d/output"
  type: "Concat"
  bottom: "inception_4d/1x1"
  bottom: "inception_4d/3x3"
  bottom: "inception_4d/5x5"
  bottom: "inception_4d/pool_proj"
  top: "inception_4d/output"
}
layer {
  name: "loss2/ave_pool"
  type: "Pooling"
  bottom: "inception_4d/output"
  top: "loss2/ave_pool"
  pooling_param {
    pool: AVE
    kernel_size: 5
    stride: 3
  }
}
layer {
  name: "loss2/conv"
  type: "Convolution"
  bottom: "loss2/ave_pool"
  top: "loss2/conv"
  param {
    lr_mult: 1
    decay_mult: 1
  }
  param {
    lr_mult: 2
    decay_mult: 0
  }
  convolution_param {
    num_output: 128
    kernel_size: 1
    weight_filler {
      type: "xavier"
      std: 0.08
    }
    bias_filler {
      type: "constant"
      value: 0.2
    }
  }
}
layer {
  name: "loss2/relu_conv"
  type: "ReLU"
  bottom: "loss2/conv"
  top: "loss2/conv"
}
layer {
  name: "loss2/fc"
  type: "InnerProduct"
  bottom: "loss2/conv"
  top: "loss2/fc"
  param {
    lr_mult: 1
    decay_mult: 1
  }
  param {
    lr_mult: 2
    decay_mult: 0
  }
  inner_product_param {
    num_output: 1024
    weight_filler {
      type: "xavier"
      std: 0.02
    }
    bias_filler {
      type: "constant"
      value: 0.2
    }
  }
}
layer {
  name: "loss2/relu_fc"
  type: "ReLU"
  bottom: "loss2/fc"
  top: "loss2/fc"
}
layer {
  name: "loss2/drop_fc"
  type: "Dropout"
  bottom: "loss2/fc"
  top: "loss2/fc"
  dropout_param {
    dropout_ratio: 0.7
  }
}
layer {
  name: "loss2/classifier_plantvillage"
  type: "InnerProduct"
  bottom: "loss2/fc"
  top: "loss2/classifier_plantvillage"
  param {
    lr_mult: 1
    decay_mult: 1
  }
  param {
    lr_mult: 2
    decay_mult: 0
  }
  inner_product_param {
    num_output: 38
    weight_filler {
      type: "xavier"
      std: 0.0009765625
    }
    bias_filler {
      type: "constant"
      value: 0
    }
  }
}
layer {
  name: "inception_4e/1x1"
  type: "Convolution"
  bottom: "inception_4d/output"
  top: "inception_4e/1x1"
  param {
    lr_mult: 1
    decay_mult: 1
  }
  param {
    lr_mult: 2
    decay_mult: 0
  }
  convolution_param {
    num_output: 256
    kernel_size: 1
    weight_filler {
      type: "xavier"
      std: 0.03
    }
    bias_filler {
      type: "constant"
      value: 0.2
    }
  }
}
layer {
  name: "inception_4e/relu_1x1"
  type: "ReLU"
  bottom: "inception_4e/1x1"
  top: "inception_4e/1x1"
}
layer {
  name: "inception_4e/3x3_reduce"
  type: "Convolution"
  bottom: "inception_4d/output"
  top: "inception_4e/3x3_reduce"
  param {
    lr_mult: 1
    decay_mult: 1
  }
  param {
    lr_mult: 2
    decay_mult: 0
  }
  convolution_param {
    num_output: 160
    kernel_size: 1
    weight_filler {
      type: "xavier"
      std: 0.09
    }
    bias_filler {
      type: "constant"
      value: 0.2
    }
  }
}
layer {
  name: "inception_4e/relu_3x3_reduce"
  type: "ReLU"
  bottom: "inception_4e/3x3_reduce"
  top: "inception_4e/3x3_reduce"
}
layer {
  name: "inception_4e/3x3"
  type: "Convolution"
  bottom: "inception_4e/3x3_reduce"
  top: "inception_4e/3x3"
  param {
    lr_mult: 1
    decay_mult: 1
  }
  param {
    lr_mult: 2
    decay_mult: 0
  }
  convolution_param {
    num_output: 320
    pad: 1
    kernel_size: 3
    weight_filler {
      type: "xavier"
      std: 0.03
    }
    bias_filler {
      type: "constant"
      value: 0.2
    }
  }
}
layer {
  name: "inception_4e/relu_3x3"
  type: "ReLU"
  bottom: "inception_4e/3x3"
  top: "inception_4e/3x3"
}
layer {
  name: "inception_4e/5x5_reduce"
  type: "Convolution"
  bottom: "inception_4d/output"
  top: "inception_4e/5x5_reduce"
  param {
    lr_mult: 1
    decay_mult: 1
  }
  param {
    lr_mult: 2
    decay_mult: 0
  }
  convolution_param {
    num_output: 32
    kernel_size: 1
    weight_filler {
      type: "xavier"
      std: 0.2
    }
    bias_filler {
      type: "constant"
      value: 0.2
    }
  }
}
layer {
  name: "inception_4e/relu_5x5_reduce"
  type: "ReLU"
  bottom: "inception_4e/5x5_reduce"
  top: "inception_4e/5x5_reduce"
}
layer {
  name: "inception_4e/5x5"
  type: "Convolution"
  bottom: "inception_4e/5x5_reduce"
  top: "inception_4e/
I0403 14:59:32.845182 11471 layer_factory.hpp:77] Creating layer data
I0403 14:59:32.845762 11471 net.cpp:91] Creating Layer data
I0403 14:59:32.845793 11471 net.cpp:399] data -> data
I0403 14:59:32.845840 11471 net.cpp:399] data -> label
I0403 14:59:32.845875 11471 data_transformer.cpp:25] Loading mean file from: /home/mohanty/data/final_dataset/lmdb/segmented-40-60/mean.binaryproto
I0403 14:59:32.851128 11476 db_lmdb.cpp:38] Opened lmdb /home/mohanty/data/final_dataset/lmdb/segmented-40-60/test_db
I0403 14:59:32.859390 11471 data_layer.cpp:41] output data size: 24,3,224,224
I0403 14:59:32.886773 11471 net.cpp:141] Setting up data
I0403 14:59:32.886874 11471 net.cpp:148] Top shape: 24 3 224 224 (3612672)
I0403 14:59:32.886895 11471 net.cpp:148] Top shape: 24 (24)
I0403 14:59:32.886910 11471 net.cpp:156] Memory required for data: 14450784
I0403 14:59:32.886937 11471 layer_factory.hpp:77] Creating layer label_data_1_split
I0403 14:59:32.886963 11471 net.cpp:91] Creating Layer label_data_1_split
I0403 14:59:32.886981 11471 net.cpp:425] label_data_1_split <- label
I0403 14:59:32.887012 11471 net.cpp:399] label_data_1_split -> label_data_1_split_0
I0403 14:59:32.887038 11471 net.cpp:399] label_data_1_split -> label_data_1_split_1
I0403 14:59:32.887059 11471 net.cpp:399] label_data_1_split -> label_data_1_split_2
I0403 14:59:32.887079 11471 net.cpp:399] label_data_1_split -> label_data_1_split_3
I0403 14:59:32.887099 11471 net.cpp:399] label_data_1_split -> label_data_1_split_4
I0403 14:59:32.887117 11471 net.cpp:399] label_data_1_split -> label_data_1_split_5
I0403 14:59:32.887135 11471 net.cpp:399] label_data_1_split -> label_data_1_split_6
I0403 14:59:32.887154 11471 net.cpp:399] label_data_1_split -> label_data_1_split_7
I0403 14:59:32.887173 11471 net.cpp:399] label_data_1_split -> label_data_1_split_8
I0403 14:59:32.887193 11471 net.cpp:399] label_data_1_split -> label_data_1_split_9
I0403 14:59:32.887308 11471 net.cpp:141] Setting up label_data_1_split
I0403 14:59:32.887339 11471 net.cpp:148] Top shape: 24 (24)
I0403 14:59:32.887356 11471 net.cpp:148] Top shape: 24 (24)
I0403 14:59:32.887372 11471 net.cpp:148] Top shape: 24 (24)
I0403 14:59:32.887387 11471 net.cpp:148] Top shape: 24 (24)
I0403 14:59:32.887401 11471 net.cpp:148] Top shape: 24 (24)
I0403 14:59:32.887416 11471 net.cpp:148] Top shape: 24 (24)
I0403 14:59:32.887431 11471 net.cpp:148] Top shape: 24 (24)
I0403 14:59:32.887446 11471 net.cpp:148] Top shape: 24 (24)
I0403 14:59:32.887461 11471 net.cpp:148] Top shape: 24 (24)
I0403 14:59:32.887477 11471 net.cpp:148] Top shape: 24 (24)
I0403 14:59:32.887522 11471 net.cpp:156] Memory required for data: 14451744
I0403 14:59:32.887539 11471 layer_factory.hpp:77] Creating layer conv1/7x7_s2
I0403 14:59:32.887572 11471 net.cpp:91] Creating Layer conv1/7x7_s2
I0403 14:59:32.887588 11471 net.cpp:425] conv1/7x7_s2 <- data
I0403 14:59:32.887608 11471 net.cpp:399] conv1/7x7_s2 -> conv1/7x7_s2
I0403 14:59:33.027366 11471 net.cpp:141] Setting up conv1/7x7_s2
I0403 14:59:33.027453 11471 net.cpp:148] Top shape: 24 64 112 112 (19267584)
I0403 14:59:33.027470 11471 net.cpp:156] Memory required for data: 91522080
I0403 14:59:33.027500 11471 layer_factory.hpp:77] Creating layer conv1/relu_7x7
I0403 14:59:33.027525 11471 net.cpp:91] Creating Layer conv1/relu_7x7
I0403 14:59:33.027542 11471 net.cpp:425] conv1/relu_7x7 <- conv1/7x7_s2
I0403 14:59:33.027559 11471 net.cpp:386] conv1/relu_7x7 -> conv1/7x7_s2 (in-place)
I0403 14:59:33.027814 11471 net.cpp:141] Setting up conv1/relu_7x7
I0403 14:59:33.027840 11471 net.cpp:148] Top shape: 24 64 112 112 (19267584)
I0403 14:59:33.027854 11471 net.cpp:156] Memory required for data: 168592416
I0403 14:59:33.027868 11471 layer_factory.hpp:77] Creating layer pool1/3x3_s2
I0403 14:59:33.027892 11471 net.cpp:91] Creating Layer pool1/3x3_s2
I0403 14:59:33.027909 11471 net.cpp:425] pool1/3x3_s2 <- conv1/7x7_s2
I0403 14:59:33.027925 11471 net.cpp:399] pool1/3x3_s2 -> pool1/3x3_s2
I0403 14:59:33.027998 11471 net.cpp:141] Setting up pool1/3x3_s2
I0403 14:59:33.028022 11471 net.cpp:148] Top shape: 24 64 56 56 (4816896)
I0403 14:59:33.028035 11471 net.cpp:156] Memory required for data: 187860000
I0403 14:59:33.028049 11471 layer_factory.hpp:77] Creating layer pool1/norm1
I0403 14:59:33.028074 11471 net.cpp:91] Creating Layer pool1/norm1
I0403 14:59:33.028091 11471 net.cpp:425] pool1/norm1 <- pool1/3x3_s2
I0403 14:59:33.028108 11471 net.cpp:399] pool1/norm1 -> pool1/norm1
I0403 14:59:33.028401 11471 net.cpp:141] Setting up pool1/norm1
I0403 14:59:33.028427 11471 net.cpp:148] Top shape: 24 64 56 56 (4816896)
I0403 14:59:33.028441 11471 net.cpp:156] Memory required for data: 207127584
I0403 14:59:33.028456 11471 layer_factory.hpp:77] Creating layer conv2/3x3_reduce
I0403 14:59:33.028481 11471 net.cpp:91] Creating Layer conv2/3x3_reduce
I0403 14:59:33.028498 11471 net.cpp:425] conv2/3x3_reduce <- pool1/norm1
I0403 14:59:33.028517 11471 net.cpp:399] conv2/3x3_reduce -> conv2/3x3_reduce
I0403 14:59:33.029857 11471 net.cpp:141] Setting up conv2/3x3_reduce
I0403 14:59:33.029886 11471 net.cpp:148] Top shape: 24 64 56 56 (4816896)
I0403 14:59:33.029901 11471 net.cpp:156] Memory required for data: 226395168
I0403 14:59:33.029920 11471 layer_factory.hpp:77] Creating layer conv2/relu_3x3_reduce
I0403 14:59:33.029938 11471 net.cpp:91] Creating Layer conv2/relu_3x3_reduce
I0403 14:59:33.029953 11471 net.cpp:425] conv2/relu_3x3_reduce <- conv2/3x3_reduce
I0403 14:59:33.029971 11471 net.cpp:386] conv2/relu_3x3_reduce -> conv2/3x3_reduce (in-place)
I0403 14:59:33.030232 11471 net.cpp:141] Setting up conv2/relu_3x3_reduce
I0403 14:59:33.030257 11471 net.cpp:148] Top shape: 24 64 56 56 (4816896)
I0403 14:59:33.030272 11471 net.cpp:156] Memory required for data: 245662752
I0403 14:59:33.030287 11471 layer_factory.hpp:77] Creating layer conv2/3x3
I0403 14:59:33.030309 11471 net.cpp:91] Creating Layer conv2/3x3
I0403 14:59:33.030330 11471 net.cpp:425] conv2/3x3 <- conv2/3x3_reduce
I0403 14:59:33.030352 11471 net.cpp:399] conv2/3x3 -> conv2/3x3
I0403 14:59:33.032575 11471 net.cpp:141] Setting up conv2/3x3
I0403 14:59:33.032603 11471 net.cpp:148] Top shape: 24 192 56 56 (14450688)
I0403 14:59:33.032619 11471 net.cpp:156] Memory required for data: 303465504
I0403 14:59:33.032639 11471 layer_factory.hpp:77] Creating layer conv2/relu_3x3
I0403 14:59:33.032656 11471 net.cpp:91] Creating Layer conv2/relu_3x3
I0403 14:59:33.032671 11471 net.cpp:425] conv2/relu_3x3 <- conv2/3x3
I0403 14:59:33.032691 11471 net.cpp:386] conv2/relu_3x3 -> conv2/3x3 (in-place)
I0403 14:59:33.032860 11471 net.cpp:141] Setting up conv2/relu_3x3
I0403 14:59:33.032884 11471 net.cpp:148] Top shape: 24 192 56 56 (14450688)
I0403 14:59:33.032928 11471 net.cpp:156] Memory required for data: 361268256
I0403 14:59:33.032943 11471 layer_factory.hpp:77] Creating layer conv2/norm2
I0403 14:59:33.032963 11471 net.cpp:91] Creating Layer conv2/norm2
I0403 14:59:33.032979 11471 net.cpp:425] conv2/norm2 <- conv2/3x3
I0403 14:59:33.032995 11471 net.cpp:399] conv2/norm2 -> conv2/norm2
I0403 14:59:33.033294 11471 net.cpp:141] Setting up conv2/norm2
I0403 14:59:33.033334 11471 net.cpp:148] Top shape: 24 192 56 56 (14450688)
I0403 14:59:33.033350 11471 net.cpp:156] Memory required for data: 419071008
I0403 14:59:33.033365 11471 layer_factory.hpp:77] Creating layer pool2/3x3_s2
I0403 14:59:33.033381 11471 net.cpp:91] Creating Layer pool2/3x3_s2
I0403 14:59:33.033396 11471 net.cpp:425] pool2/3x3_s2 <- conv2/norm2
I0403 14:59:33.033412 11471 net.cpp:399] pool2/3x3_s2 -> pool2/3x3_s2
I0403 14:59:33.033465 11471 net.cpp:141] Setting up pool2/3x3_s2
I0403 14:59:33.033486 11471 net.cpp:148] Top shape: 24 192 28 28 (3612672)
I0403 14:59:33.033500 11471 net.cpp:156] Memory required for data: 433521696
I0403 14:59:33.033514 11471 layer_factory.hpp:77] Creating layer pool2/3x3_s2_pool2/3x3_s2_0_split
I0403 14:59:33.033534 11471 net.cpp:91] Creating Layer pool2/3x3_s2_pool2/3x3_s2_0_split
I0403 14:59:33.033548 11471 net.cpp:425] pool2/3x3_s2_pool2/3x3_s2_0_split <- pool2/3x3_s2
I0403 14:59:33.033565 11471 net.cpp:399] pool2/3x3_s2_pool2/3x3_s2_0_split -> pool2/3x3_s2_pool2/3x3_s2_0_split_0
I0403 14:59:33.033583 11471 net.cpp:399] pool2/3x3_s2_pool2/3x3_s2_0_split -> pool2/3x3_s2_pool2/3x3_s2_0_split_1
I0403 14:59:33.033602 11471 net.cpp:399] pool2/3x3_s2_pool2/3x3_s2_0_split -> pool2/3x3_s2_pool2/3x3_s2_0_split_2
I0403 14:59:33.033633 11471 net.cpp:399] pool2/3x3_s2_pool2/3x3_s2_0_split -> pool2/3x3_s2_pool2/3x3_s2_0_split_3
I0403 14:59:33.033701 11471 net.cpp:141] Setting up pool2/3x3_s2_pool2/3x3_s2_0_split
I0403 14:59:33.033722 11471 net.cpp:148] Top shape: 24 192 28 28 (3612672)
I0403 14:59:33.033737 11471 net.cpp:148] Top shape: 24 192 28 28 (3612672)
I0403 14:59:33.033752 11471 net.cpp:148] Top shape: 24 192 28 28 (3612672)
I0403 14:59:33.033766 11471 net.cpp:148] Top shape: 24 192 28 28 (3612672)
I0403 14:59:33.033779 11471 net.cpp:156] Memory required for data: 491324448
I0403 14:59:33.033792 11471 layer_factory.hpp:77] Creating layer inception_3a/1x1
I0403 14:59:33.033814 11471 net.cpp:91] Creating Layer inception_3a/1x1
I0403 14:59:33.033830 11471 net.cpp:425] inception_3a/1x1 <- pool2/3x3_s2_pool2/3x3_s2_0_split_0
I0403 14:59:33.033849 11471 net.cpp:399] inception_3a/1x1 -> inception_3a/1x1
I0403 14:59:33.035334 11471 net.cpp:141] Setting up inception_3a/1x1
I0403 14:59:33.035365 11471 net.cpp:148] Top shape: 24 64 28 28 (1204224)
I0403 14:59:33.035380 11471 net.cpp:156] Memory required for data: 496141344
I0403 14:59:33.035398 11471 layer_factory.hpp:77] Creating layer inception_3a/relu_1x1
I0403 14:59:33.035416 11471 net.cpp:91] Creating Layer inception_3a/relu_1x1
I0403 14:59:33.035430 11471 net.cpp:425] inception_3a/relu_1x1 <- inception_3a/1x1
I0403 14:59:33.035449 11471 net.cpp:386] inception_3a/relu_1x1 -> inception_3a/1x1 (in-place)
I0403 14:59:33.035627 11471 net.cpp:141] Setting up inception_3a/relu_1x1
I0403 14:59:33.035650 11471 net.cpp:148] Top shape: 24 64 28 28 (1204224)
I0403 14:59:33.035665 11471 net.cpp:156] Memory required for data: 500958240
I0403 14:59:33.035678 11471 layer_factory.hpp:77] Creating layer inception_3a/3x3_reduce
I0403 14:59:33.035699 11471 net.cpp:91] Creating Layer inception_3a/3x3_reduce
I0403 14:59:33.035717 11471 net.cpp:425] inception_3a/3x3_reduce <- pool2/3x3_s2_pool2/3x3_s2_0_split_1
I0403 14:59:33.035737 11471 net.cpp:399] inception_3a/3x3_reduce -> inception_3a/3x3_reduce
I0403 14:59:33.037398 11471 net.cpp:141] Setting up inception_3a/3x3_reduce
I0403 14:59:33.037426 11471 net.cpp:148] Top shape: 24 96 28 28 (1806336)
I0403 14:59:33.037441 11471 net.cpp:156] Memory required for data: 508183584
I0403 14:59:33.037461 11471 layer_factory.hpp:77] Creating layer inception_3a/relu_3x3_reduce
I0403 14:59:33.037497 11471 net.cpp:91] Creating Layer inception_3a/relu_3x3_reduce
I0403 14:59:33.037513 11471 net.cpp:425] inception_3a/relu_3x3_reduce <- inception_3a/3x3_reduce
I0403 14:59:33.037530 11471 net.cpp:386] inception_3a/relu_3x3_reduce -> inception_3a/3x3_reduce (in-place)
I0403 14:59:33.037711 11471 net.cpp:141] Setting up inception_3a/relu_3x3_reduce
I0403 14:59:33.037737 11471 net.cpp:148] Top shape: 24 96 28 28 (1806336)
I0403 14:59:33.037752 11471 net.cpp:156] Memory required for data: 515408928
I0403 14:59:33.037766 11471 layer_factory.hpp:77] Creating layer inception_3a/3x3
I0403 14:59:33.037787 11471 net.cpp:91] Creating Layer inception_3a/3x3
I0403 14:59:33.037803 11471 net.cpp:425] inception_3a/3x3 <- inception_3a/3x3_reduce
I0403 14:59:33.037822 11471 net.cpp:399] inception_3a/3x3 -> inception_3a/3x3
I0403 14:59:33.039417 11471 net.cpp:141] Setting up inception_3a/3x3
I0403 14:59:33.039453 11471 net.cpp:148] Top shape: 24 128 28 28 (2408448)
I0403 14:59:33.039469 11471 net.cpp:156] Memory required for data: 525042720
I0403 14:59:33.039485 11471 layer_factory.hpp:77] Creating layer inception_3a/relu_3x3
I0403 14:59:33.039505 11471 net.cpp:91] Creating Layer inception_3a/relu_3x3
I0403 14:59:33.039520 11471 net.cpp:425] inception_3a/relu_3x3 <- inception_3a/3x3
I0403 14:59:33.039537 11471 net.cpp:386] inception_3a/relu_3x3 -> inception_3a/3x3 (in-place)
I0403 14:59:33.039819 11471 net.cpp:141] Setting up inception_3a/relu_3x3
I0403 14:59:33.039845 11471 net.cpp:148] Top shape: 24 128 28 28 (2408448)
I0403 14:59:33.039860 11471 net.cpp:156] Memory required for data: 534676512
I0403 14:59:33.039875 11471 layer_factory.hpp:77] Creating layer inception_3a/5x5_reduce
I0403 14:59:33.039906 11471 net.cpp:91] Creating Layer inception_3a/5x5_reduce
I0403 14:59:33.039923 11471 net.cpp:425] inception_3a/5x5_reduce <- pool2/3x3_s2_pool2/3x3_s2_0_split_2
I0403 14:59:33.039944 11471 net.cpp:399] inception_3a/5x5_reduce -> inception_3a/5x5_reduce
I0403 14:59:33.040902 11471 net.cpp:141] Setting up inception_3a/5x5_reduce
I0403 14:59:33.040930 11471 net.cpp:148] Top shape: 24 16 28 28 (301056)
I0403 14:59:33.040946 11471 net.cpp:156] Memory required for data: 535880736
I0403 14:59:33.040962 11471 layer_factory.hpp:77] Creating layer inception_3a/relu_5x5_reduce
I0403 14:59:33.040983 11471 net.cpp:91] Creating Layer inception_3a/relu_5x5_reduce
I0403 14:59:33.041000 11471 net.cpp:425] inception_3a/relu_5x5_reduce <- inception_3a/5x5_reduce
I0403 14:59:33.041018 11471 net.cpp:386] inception_3a/relu_5x5_reduce -> inception_3a/5x5_reduce (in-place)
I0403 14:59:33.041314 11471 net.cpp:141] Setting up inception_3a/relu_5x5_reduce
I0403 14:59:33.041345 11471 net.cpp:148] Top shape: 24 16 28 28 (301056)
I0403 14:59:33.041360 11471 net.cpp:156] Memory required for data: 537084960
I0403 14:59:33.041375 11471 layer_factory.hpp:77] Creating layer inception_3a/5x5
I0403 14:59:33.041398 11471 net.cpp:91] Creating Layer inception_3a/5x5
I0403 14:59:33.041414 11471 net.cpp:425] inception_3a/5x5 <- inception_3a/5x5_reduce
I0403 14:59:33.041435 11471 net.cpp:399] inception_3a/5x5 -> inception_3a/5x5
I0403 14:59:33.042495 11471 net.cpp:141] Setting up inception_3a/5x5
I0403 14:59:33.042526 11471 net.cpp:148] Top shape: 24 32 28 28 (602112)
I0403 14:59:33.042543 11471 net.cpp:156] Memory required for data: 539493408
I0403 14:59:33.042562 11471 layer_factory.hpp:77] Creating layer inception_3a/relu_5x5
I0403 14:59:33.042582 11471 net.cpp:91] Creating Layer inception_3a/relu_5x5
I0403 14:59:33.042598 11471 net.cpp:425] inception_3a/relu_5x5 <- inception_3a/5x5
I0403 14:59:33.042618 11471 net.cpp:386] inception_3a/relu_5x5 -> inception_3a/5x5 (in-place)
I0403 14:59:33.042819 11471 net.cpp:141] Setting up inception_3a/relu_5x5
I0403 14:59:33.042841 11471 net.cpp:148] Top shape: 24 32 28 28 (602112)
I0403 14:59:33.042856 11471 net.cpp:156] Memory required for data: 541901856
I0403 14:59:33.042870 11471 layer_factory.hpp:77] Creating layer inception_3a/pool
I0403 14:59:33.042891 11471 net.cpp:91] Creating Layer inception_3a/pool
I0403 14:59:33.042918 11471 net.cpp:425] inception_3a/pool <- pool2/3x3_s2_pool2/3x3_s2_0_split_3
I0403 14:59:33.042937 11471 net.cpp:399] inception_3a/pool -> inception_3a/pool
I0403 14:59:33.042994 11471 net.cpp:141] Setting up inception_3a/pool
I0403 14:59:33.043017 11471 net.cpp:148] Top shape: 24 192 28 28 (3612672)
I0403 14:59:33.043031 11471 net.cpp:156] Memory required for data: 556352544
I0403 14:59:33.043045 11471 layer_factory.hpp:77] Creating layer inception_3a/pool_proj
I0403 14:59:33.043067 11471 net.cpp:91] Creating Layer inception_3a/pool_proj
I0403 14:59:33.043084 11471 net.cpp:425] inception_3a/pool_proj <- inception_3a/pool
I0403 14:59:33.043105 11471 net.cpp:399] inception_3a/pool_proj -> inception_3a/pool_proj
I0403 14:59:33.044070 11471 net.cpp:141] Setting up inception_3a/pool_proj
I0403 14:59:33.044096 11471 net.cpp:148] Top shape: 24 32 28 28 (602112)
I0403 14:59:33.044111 11471 net.cpp:156] Memory required for data: 558760992
I0403 14:59:33.044134 11471 layer_factory.hpp:77] Creating layer inception_3a/relu_pool_proj
I0403 14:59:33.044155 11471 net.cpp:91] Creating Layer inception_3a/relu_pool_proj
I0403 14:59:33.044173 11471 net.cpp:425] inception_3a/relu_pool_proj <- inception_3a/pool_proj
I0403 14:59:33.044188 11471 net.cpp:386] inception_3a/relu_pool_proj -> inception_3a/pool_proj (in-place)
I0403 14:59:33.044469 11471 net.cpp:141] Setting up inception_3a/relu_pool_proj
I0403 14:59:33.044495 11471 net.cpp:148] Top shape: 24 32 28 28 (602112)
I0403 14:59:33.044510 11471 net.cpp:156] Memory required for data: 561169440
I0403 14:59:33.044524 11471 layer_factory.hpp:77] Creating layer inception_3a/output
I0403 14:59:33.044543 11471 net.cpp:91] Creating Layer inception_3a/output
I0403 14:59:33.044558 11471 net.cpp:425] inception_3a/output <- inception_3a/1x1
I0403 14:59:33.044572 11471 net.cpp:425] inception_3a/output <- inception_3a/3x3
I0403 14:59:33.044587 11471 net.cpp:425] inception_3a/output <- inception_3a/5x5
I0403 14:59:33.044602 11471 net.cpp:425] inception_3a/output <- inception_3a/pool_proj
I0403 14:59:33.044621 11471 net.cpp:399] inception_3a/output -> inception_3a/output
I0403 14:59:33.044667 11471 net.cpp:141] Setting up inception_3a/output
I0403 14:59:33.044692 11471 net.cpp:148] Top shape: 24 256 28 28 (4816896)
I0403 14:59:33.044706 11471 net.cpp:156] Memory required for data: 580437024
I0403 14:59:33.044721 11471 layer_factory.hpp:77] Creating layer inception_3a/output_inception_3a/output_0_split
I0403 14:59:33.044737 11471 net.cpp:91] Creating Layer inception_3a/output_inception_3a/output_0_split
I0403 14:59:33.044752 11471 net.cpp:425] inception_3a/output_inception_3a/output_0_split <- inception_3a/output
I0403 14:59:33.044770 11471 net.cpp:399] inception_3a/output_inception_3a/output_0_split -> inception_3a/output_inception_3a/output_0_split_0
I0403 14:59:33.044795 11471 net.cpp:399] inception_3a/output_inception_3a/output_0_split -> inception_3a/output_inception_3a/output_0_split_1
I0403 14:59:33.044816 11471 net.cpp:399] inception_3a/output_inception_3a/output_0_split -> inception_3a/output_inception_3a/output_0_split_2
I0403 14:59:33.044834 11471 net.cpp:399] inception_3a/output_inception_3a/output_0_split -> inception_3a/output_inception_3a/output_0_split_3
I0403 14:59:33.044905 11471 net.cpp:141] Setting up inception_3a/output_inception_3a/output_0_split
I0403 14:59:33.044929 11471 net.cpp:148] Top shape: 24 256 28 28 (4816896)
I0403 14:59:33.044945 11471 net.cpp:148] Top shape: 24 256 28 28 (4816896)
I0403 14:59:33.044960 11471 net.cpp:148] Top shape: 24 256 28 28 (4816896)
I0403 14:59:33.044975 11471 net.cpp:148] Top shape: 24 256 28 28 (4816896)
I0403 14:59:33.044988 11471 net.cpp:156] Memory required for data: 657507360
I0403 14:59:33.045002 11471 layer_factory.hpp:77] Creating layer inception_3b/1x1
I0403 14:59:33.045023 11471 net.cpp:91] Creating Layer inception_3b/1x1
I0403 14:59:33.045042 11471 net.cpp:425] inception_3b/1x1 <- inception_3a/output_inception_3a/output_0_split_0
I0403 14:59:33.045063 11471 net.cpp:399] inception_3b/1x1 -> inception_3b/1x1
I0403 14:59:33.046241 11471 net.cpp:141] Setting up inception_3b/1x1
I0403 14:59:33.046284 11471 net.cpp:148] Top shape: 24 128 28 28 (2408448)
I0403 14:59:33.046300 11471 net.cpp:156] Memory required for data: 667141152
I0403 14:59:33.046325 11471 layer_factory.hpp:77] Creating layer inception_3b/relu_1x1
I0403 14:59:33.046345 11471 net.cpp:91] Creating Layer inception_3b/relu_1x1
I0403 14:59:33.046361 11471 net.cpp:425] inception_3b/relu_1x1 <- inception_3b/1x1
I0403 14:59:33.046380 11471 net.cpp:386] inception_3b/relu_1x1 -> inception_3b/1x1 (in-place)
I0403 14:59:33.046564 11471 net.cpp:141] Setting up inception_3b/relu_1x1
I0403 14:59:33.046589 11471 net.cpp:148] Top shape: 24 128 28 28 (2408448)
I0403 14:59:33.046603 11471 net.cpp:156] Memory required for data: 676774944
I0403 14:59:33.046618 11471 layer_factory.hpp:77] Creating layer inception_3b/3x3_reduce
I0403 14:59:33.046640 11471 net.cpp:91] Creating Layer inception_3b/3x3_reduce
I0403 14:59:33.046658 11471 net.cpp:425] inception_3b/3x3_reduce <- inception_3a/output_inception_3a/output_0_split_1
I0403 14:59:33.046679 11471 net.cpp:399] inception_3b/3x3_reduce -> inception_3b/3x3_reduce
I0403 14:59:33.047849 11471 net.cpp:141] Setting up inception_3b/3x3_reduce
I0403 14:59:33.047880 11471 net.cpp:148] Top shape: 24 128 28 28 (2408448)
I0403 14:59:33.047896 11471 net.cpp:156] Memory required for data: 686408736
I0403 14:59:33.047914 11471 layer_factory.hpp:77] Creating layer inception_3b/relu_3x3_reduce
I0403 14:59:33.047933 11471 net.cpp:91] Creating Layer inception_3b/relu_3x3_reduce
I0403 14:59:33.047950 11471 net.cpp:425] inception_3b/relu_3x3_reduce <- inception_3b/3x3_reduce
I0403 14:59:33.047969 11471 net.cpp:386] inception_3b/relu_3x3_reduce -> inception_3b/3x3_reduce (in-place)
I0403 14:59:33.048147 11471 net.cpp:141] Setting up inception_3b/relu_3x3_reduce
I0403 14:59:33.048172 11471 net.cpp:148] Top shape: 24 128 28 28 (2408448)
I0403 14:59:33.048187 11471 net.cpp:156] Memory required for data: 696042528
I0403 14:59:33.048202 11471 layer_factory.hpp:77] Creating layer inception_3b/3x3
I0403 14:59:33.048228 11471 net.cpp:91] Creating Layer inception_3b/3x3
I0403 14:59:33.048245 11471 net.cpp:425] inception_3b/3x3 <- inception_3b/3x3_reduce
I0403 14:59:33.048264 11471 net.cpp:399] inception_3b/3x3 -> inception_3b/3x3
I0403 14:59:33.051249 11471 net.cpp:141] Setting up inception_3b/3x3
I0403 14:59:33.051277 11471 net.cpp:148] Top shape: 24 192 28 28 (3612672)
I0403 14:59:33.051293 11471 net.cpp:156] Memory required for data: 710493216
I0403 14:59:33.051311 11471 layer_factory.hpp:77] Creating layer inception_3b/relu_3x3
I0403 14:59:33.051340 11471 net.cpp:91] Creating Layer inception_3b/relu_3x3
I0403 14:59:33.051357 11471 net.cpp:425] inception_3b/relu_3x3 <- inception_3b/3x3
I0403 14:59:33.051375 11471 net.cpp:386] inception_3b/relu_3x3 -> inception_3b/3x3 (in-place)
I0403 14:59:33.051656 11471 net.cpp:141] Setting up inception_3b/relu_3x3
I0403 14:59:33.051683 11471 net.cpp:148] Top shape: 24 192 28 28 (3612672)
I0403 14:59:33.051698 11471 net.cpp:156] Memory required for data: 724943904
I0403 14:59:33.051713 11471 layer_factory.hpp:77] Creating layer inception_3b/5x5_reduce
I0403 14:59:33.051738 11471 net.cpp:91] Creating Layer inception_3b/5x5_reduce
I0403 14:59:33.051755 11471 net.cpp:425] inception_3b/5x5_reduce <- inception_3a/output_inception_3a/output_0_split_2
I0403 14:59:33.051777 11471 net.cpp:399] inception_3b/5x5_reduce -> inception_3b/5x5_reduce
I0403 14:59:33.052800 11471 net.cpp:141] Setting up inception_3b/5x5_reduce
I0403 14:59:33.052829 11471 net.cpp:148] Top shape: 24 32 28 28 (602112)
I0403 14:59:33.052845 11471 net.cpp:156] Memory required for data: 727352352
I0403 14:59:33.052863 11471 layer_factory.hpp:77] Creating layer inception_3b/relu_5x5_reduce
I0403 14:59:33.052881 11471 net.cpp:91] Creating Layer inception_3b/relu_5x5_reduce
I0403 14:59:33.052897 11471 net.cpp:425] inception_3b/relu_5x5_reduce <- inception_3b/5x5_reduce
I0403 14:59:33.052917 11471 net.cpp:386] inception_3b/relu_5x5_reduce -> inception_3b/5x5_reduce (in-place)
I0403 14:59:33.053117 11471 net.cpp:141] Setting up inception_3b/relu_5x5_reduce
I0403 14:59:33.053141 11471 net.cpp:148] Top shape: 24 32 28 28 (602112)
I0403 14:59:33.053156 11471 net.cpp:156] Memory required for data: 729760800
I0403 14:59:33.053170 11471 layer_factory.hpp:77] Creating layer inception_3b/5x5
I0403 14:59:33.053194 11471 net.cpp:91] Creating Layer inception_3b/5x5
I0403 14:59:33.053212 11471 net.cpp:425] inception_3b/5x5 <- inception_3b/5x5_reduce
I0403 14:59:33.053234 11471 net.cpp:399] inception_3b/5x5 -> inception_3b/5x5
I0403 14:59:33.055241 11471 net.cpp:141] Setting up inception_3b/5x5
I0403 14:59:33.055272 11471 net.cpp:148] Top shape: 24 96 28 28 (1806336)
I0403 14:59:33.055289 11471 net.cpp:156] Memory required for data: 736986144
I0403 14:59:33.055308 11471 layer_factory.hpp:77] Creating layer inception_3b/relu_5x5
I0403 14:59:33.055333 11471 net.cpp:91] Creating Layer inception_3b/relu_5x5
I0403 14:59:33.055349 11471 net.cpp:425] inception_3b/relu_5x5 <- inception_3b/5x5
I0403 14:59:33.055369 11471 net.cpp:386] inception_3b/relu_5x5 -> inception_3b/5x5 (in-place)
I0403 14:59:33.055569 11471 net.cpp:141] Setting up inception_3b/relu_5x5
I0403 14:59:33.055593 11471 net.cpp:148] Top shape: 24 96 28 28 (1806336)
I0403 14:59:33.055608 11471 net.cpp:156] Memory required for data: 744211488
I0403 14:59:33.055624 11471 layer_factory.hpp:77] Creating layer inception_3b/pool
I0403 14:59:33.055641 11471 net.cpp:91] Creating Layer inception_3b/pool
I0403 14:59:33.055657 11471 net.cpp:425] inception_3b/pool <- inception_3a/output_inception_3a/output_0_split_3
I0403 14:59:33.055676 11471 net.cpp:399] inception_3b/pool -> inception_3b/pool
I0403 14:59:33.055732 11471 net.cpp:141] Setting up inception_3b/pool
I0403 14:59:33.055754 11471 net.cpp:148] Top shape: 24 256 28 28 (4816896)
I0403 14:59:33.055769 11471 net.cpp:156] Memory required for data: 763479072
I0403 14:59:33.055783 11471 layer_factory.hpp:77] Creating layer inception_3b/pool_proj
I0403 14:59:33.055806 11471 net.cpp:91] Creating Layer inception_3b/pool_proj
I0403 14:59:33.055824 11471 net.cpp:425] inception_3b/pool_proj <- inception_3b/pool
I0403 14:59:33.055843 11471 net.cpp:399] inception_3b/pool_proj -> inception_3b/pool_proj
I0403 14:59:33.056957 11471 net.cpp:141] Setting up inception_3b/pool_proj
I0403 14:59:33.056984 11471 net.cpp:148] Top shape: 24 64 28 28 (1204224)
I0403 14:59:33.057000 11471 net.cpp:156] Memory required for data: 768295968
I0403 14:59:33.057018 11471 layer_factory.hpp:77] Creating layer inception_3b/relu_pool_proj
I0403 14:59:33.057039 11471 net.cpp:91] Creating Layer inception_3b/relu_pool_proj
I0403 14:59:33.057056 11471 net.cpp:425] inception_3b/relu_pool_proj <- inception_3b/pool_proj
I0403 14:59:33.057073 11471 net.cpp:386] inception_3b/relu_pool_proj -> inception_3b/pool_proj (in-place)
I0403 14:59:33.057482 11471 net.cpp:141] Setting up inception_3b/relu_pool_proj
I0403 14:59:33.057508 11471 net.cpp:148] Top shape: 24 64 28 28 (1204224)
I0403 14:59:33.057523 11471 net.cpp:156] Memory required for data: 773112864
I0403 14:59:33.057538 11471 layer_factory.hpp:77] Creating layer inception_3b/output
I0403 14:59:33.057559 11471 net.cpp:91] Creating Layer inception_3b/output
I0403 14:59:33.057575 11471 net.cpp:425] inception_3b/output <- inception_3b/1x1
I0403 14:59:33.057593 11471 net.cpp:425] inception_3b/output <- inception_3b/3x3
I0403 14:59:33.057610 11471 net.cpp:425] inception_3b/output <- inception_3b/5x5
I0403 14:59:33.057626 11471 net.cpp:425] inception_3b/output <- inception_3b/pool_proj
I0403 14:59:33.057642 11471 net.cpp:399] inception_3b/output -> inception_3b/output
I0403 14:59:33.057685 11471 net.cpp:141] Setting up inception_3b/output
I0403 14:59:33.057711 11471 net.cpp:148] Top shape: 24 480 28 28 (9031680)
I0403 14:59:33.057726 11471 net.cpp:156] Memory required for data: 809239584
I0403 14:59:33.057741 11471 layer_factory.hpp:77] Creating layer pool3/3x3_s2
I0403 14:59:33.057759 11471 net.cpp:91] Creating Layer pool3/3x3_s2
I0403 14:59:33.057775 11471 net.cpp:425] pool3/3x3_s2 <- inception_3b/output
I0403 14:59:33.057811 11471 net.cpp:399] pool3/3x3_s2 -> pool3/3x3_s2
I0403 14:59:33.057870 11471 net.cpp:141] Setting up pool3/3x3_s2
I0403 14:59:33.057896 11471 net.cpp:148] Top shape: 24 480 14 14 (2257920)
I0403 14:59:33.057911 11471 net.cpp:156] Memory required for data: 818271264
I0403 14:59:33.057926 11471 layer_factory.hpp:77] Creating layer pool3/3x3_s2_pool3/3x3_s2_0_split
I0403 14:59:33.057943 11471 net.cpp:91] Creating Layer pool3/3x3_s2_pool3/3x3_s2_0_split
I0403 14:59:33.057958 11471 net.cpp:425] pool3/3x3_s2_pool3/3x3_s2_0_split <- pool3/3x3_s2
I0403 14:59:33.057976 11471 net.cpp:399] pool3/3x3_s2_pool3/3x3_s2_0_split -> pool3/3x3_s2_pool3/3x3_s2_0_split_0
I0403 14:59:33.057996 11471 net.cpp:399] pool3/3x3_s2_pool3/3x3_s2_0_split -> pool3/3x3_s2_pool3/3x3_s2_0_split_1
I0403 14:59:33.058018 11471 net.cpp:399] pool3/3x3_s2_pool3/3x3_s2_0_split -> pool3/3x3_s2_pool3/3x3_s2_0_split_2
I0403 14:59:33.058038 11471 net.cpp:399] pool3/3x3_s2_pool3/3x3_s2_0_split -> pool3/3x3_s2_pool3/3x3_s2_0_split_3
I0403 14:59:33.058115 11471 net.cpp:141] Setting up pool3/3x3_s2_pool3/3x3_s2_0_split
I0403 14:59:33.058138 11471 net.cpp:148] Top shape: 24 480 14 14 (2257920)
I0403 14:59:33.058154 11471 net.cpp:148] Top shape: 24 480 14 14 (2257920)
I0403 14:59:33.058171 11471 net.cpp:148] Top shape: 24 480 14 14 (2257920)
I0403 14:59:33.058185 11471 net.cpp:148] Top shape: 24 480 14 14 (2257920)
I0403 14:59:33.058199 11471 net.cpp:156] Memory required for data: 854397984
I0403 14:59:33.058213 11471 layer_factory.hpp:77] Creating layer inception_4a/1x1
I0403 14:59:33.058236 11471 net.cpp:91] Creating Layer inception_4a/1x1
I0403 14:59:33.058254 11471 net.cpp:425] inception_4a/1x1 <- pool3/3x3_s2_pool3/3x3_s2_0_split_0
I0403 14:59:33.058274 11471 net.cpp:399] inception_4a/1x1 -> inception_4a/1x1
I0403 14:59:33.059891 11471 net.cpp:141] Setting up inception_4a/1x1
I0403 14:59:33.059919 11471 net.cpp:148] Top shape: 24 192 14 14 (903168)
I0403 14:59:33.059936 11471 net.cpp:156] Memory required for data: 858010656
I0403 14:59:33.059953 11471 layer_factory.hpp:77] Creating layer inception_4a/relu_1x1
I0403 14:59:33.059974 11471 net.cpp:91] Creating Layer inception_4a/relu_1x1
I0403 14:59:33.059990 11471 net.cpp:425] inception_4a/relu_1x1 <- inception_4a/1x1
I0403 14:59:33.060009 11471 net.cpp:386] inception_4a/relu_1x1 -> inception_4a/1x1 (in-place)
I0403 14:59:33.060187 11471 net.cpp:141] Setting up inception_4a/relu_1x1
I0403 14:59:33.060215 11471 net.cpp:148] Top shape: 24 192 14 14 (903168)
I0403 14:59:33.060230 11471 net.cpp:156] Memory required for data: 861623328
I0403 14:59:33.060245 11471 layer_factory.hpp:77] Creating layer inception_4a/3x3_reduce
I0403 14:59:33.060266 11471 net.cpp:91] Creating Layer inception_4a/3x3_reduce
I0403 14:59:33.060284 11471 net.cpp:425] inception_4a/3x3_reduce <- pool3/3x3_s2_pool3/3x3_s2_0_split_1
I0403 14:59:33.060305 11471 net.cpp:399] inception_4a/3x3_reduce -> inception_4a/3x3_reduce
I0403 14:59:33.061612 11471 net.cpp:141] Setting up inception_4a/3x3_reduce
I0403 14:59:33.061640 11471 net.cpp:148] Top shape: 24 96 14 14 (451584)
I0403 14:59:33.061656 11471 net.cpp:156] Memory required for data: 863429664
I0403 14:59:33.061681 11471 layer_factory.hpp:77] Creating layer inception_4a/relu_3x3_reduce
I0403 14:59:33.061703 11471 net.cpp:91] Creating Layer inception_4a/relu_3x3_reduce
I0403 14:59:33.061720 11471 net.cpp:425] inception_4a/relu_3x3_reduce <- inception_4a/3x3_reduce
I0403 14:59:33.061738 11471 net.cpp:386] inception_4a/relu_3x3_reduce -> inception_4a/3x3_reduce (in-place)
I0403 14:59:33.061916 11471 net.cpp:141] Setting up inception_4a/relu_3x3_reduce
I0403 14:59:33.061944 11471 net.cpp:148] Top shape: 24 96 14 14 (451584)
I0403 14:59:33.061960 11471 net.cpp:156] Memory required for data: 865236000
I0403 14:59:33.061975 11471 layer_factory.hpp:77] Creating layer inception_4a/3x3
I0403 14:59:33.061997 11471 net.cpp:91] Creating Layer inception_4a/3x3
I0403 14:59:33.062014 11471 net.cpp:425] inception_4a/3x3 <- inception_4a/3x3_reduce
I0403 14:59:33.062033 11471 net.cpp:399] inception_4a/3x3 -> inception_4a/3x3
I0403 14:59:33.064820 11471 net.cpp:141] Setting up inception_4a/3x3
I0403 14:59:33.064851 11471 net.cpp:148] Top shape: 24 208 14 14 (978432)
I0403 14:59:33.064867 11471 net.cpp:156] Memory required for data: 869149728
I0403 14:59:33.064885 11471 layer_factory.hpp:77] Creating layer inception_4a/relu_3x3
I0403 14:59:33.064903 11471 net.cpp:91] Creating Layer inception_4a/relu_3x3
I0403 14:59:33.064918 11471 net.cpp:425] inception_4a/relu_3x3 <- inception_4a/3x3
I0403 14:59:33.064936 11471 net.cpp:386] inception_4a/relu_3x3 -> inception_4a/3x3 (in-place)
I0403 14:59:33.065215 11471 net.cpp:141] Setting up inception_4a/relu_3x3
I0403 14:59:33.065243 11471 net.cpp:148] Top shape: 24 208 14 14 (978432)
I0403 14:59:33.065258 11471 net.cpp:156] Memory required for data: 873063456
I0403 14:59:33.065274 11471 layer_factory.hpp:77] Creating layer inception_4a/5x5_reduce
I0403 14:59:33.065296 11471 net.cpp:91] Creating Layer inception_4a/5x5_reduce
I0403 14:59:33.065313 11471 net.cpp:425] inception_4a/5x5_reduce <- pool3/3x3_s2_pool3/3x3_s2_0_split_2
I0403 14:59:33.065338 11471 net.cpp:399] inception_4a/5x5_reduce -> inception_4a/5x5_reduce
I0403 14:59:33.066366 11471 net.cpp:141] Setting up inception_4a/5x5_reduce
I0403 14:59:33.066396 11471 net.cpp:148] Top shape: 24 16 14 14 (75264)
I0403 14:59:33.066413 11471 net.cpp:156] Memory required for data: 873364512
I0403 14:59:33.066432 11471 layer_factory.hpp:77] Creating layer inception_4a/relu_5x5_reduce
I0403 14:59:33.066450 11471 net.cpp:91] Creating Layer inception_4a/relu_5x5_reduce
I0403 14:59:33.066467 11471 net.cpp:425] inception_4a/relu_5x5_reduce <- inception_4a/5x5_reduce
I0403 14:59:33.066486 11471 net.cpp:386] inception_4a/relu_5x5_reduce -> inception_4a/5x5_reduce (in-place)
I0403 14:59:33.066679 11471 net.cpp:141] Setting up inception_4a/relu_5x5_reduce
I0403 14:59:33.066704 11471 net.cpp:148] Top shape: 24 16 14 14 (75264)
I0403 14:59:33.066717 11471 net.cpp:156] Memory required for data: 873665568
I0403 14:59:33.066731 11471 layer_factory.hpp:77] Creating layer inception_4a/5x5
I0403 14:59:33.066753 11471 net.cpp:91] Creating Layer inception_4a/5x5
I0403 14:59:33.066771 11471 net.cpp:425] inception_4a/5x5 <- inception_4a/5x5_reduce
I0403 14:59:33.066792 11471 net.cpp:399] inception_4a/5x5 -> inception_4a/5x5
I0403 14:59:33.067876 11471 net.cpp:141] Setting up inception_4a/5x5
I0403 14:59:33.067903 11471 net.cpp:148] Top shape: 24 48 14 14 (225792)
I0403 14:59:33.067919 11471 net.cpp:156] Memory required for data: 874568736
I0403 14:59:33.067936 11471 layer_factory.hpp:77] Creating layer inception_4a/relu_5x5
I0403 14:59:33.067958 11471 net.cpp:91] Creating Layer inception_4a/relu_5x5
I0403 14:59:33.067975 11471 net.cpp:425] inception_4a/relu_5x5 <- inception_4a/5x5
I0403 14:59:33.067991 11471 net.cpp:386] inception_4a/relu_5x5 -> inception_4a/5x5 (in-place)
I0403 14:59:33.068171 11471 net.cpp:141] Setting up inception_4a/relu_5x5
I0403 14:59:33.068194 11471 net.cpp:148] Top shape: 24 48 14 14 (225792)
I0403 14:59:33.068208 11471 net.cpp:156] Memory required for data: 875471904
I0403 14:59:33.068223 11471 layer_factory.hpp:77] Creating layer inception_4a/pool
I0403 14:59:33.068241 11471 net.cpp:91] Creating Layer inception_4a/pool
I0403 14:59:33.068259 11471 net.cpp:425] inception_4a/pool <- pool3/3x3_s2_pool3/3x3_s2_0_split_3
I0403 14:59:33.068279 11471 net.cpp:399] inception_4a/pool -> inception_4a/pool
I0403 14:59:33.068344 11471 net.cpp:141] Setting up inception_4a/pool
I0403 14:59:33.068367 11471 net.cpp:148] Top shape: 24 480 14 14 (2257920)
I0403 14:59:33.068382 11471 net.cpp:156] Memory required for data: 884503584
I0403 14:59:33.068395 11471 layer_factory.hpp:77] Creating layer inception_4a/pool_proj
I0403 14:59:33.068416 11471 net.cpp:91] Creating Layer inception_4a/pool_proj
I0403 14:59:33.068434 11471 net.cpp:425] inception_4a/pool_proj <- inception_4a/pool
I0403 14:59:33.068454 11471 net.cpp:399] inception_4a/pool_proj -> inception_4a/pool_proj
I0403 14:59:33.069622 11471 net.cpp:141] Setting up inception_4a/pool_proj
I0403 14:59:33.069648 11471 net.cpp:148] Top shape: 24 64 14 14 (301056)
I0403 14:59:33.069679 11471 net.cpp:156] Memory required for data: 885707808
I0403 14:59:33.069697 11471 layer_factory.hpp:77] Creating layer inception_4a/relu_pool_proj
I0403 14:59:33.069718 11471 net.cpp:91] Creating Layer inception_4a/relu_pool_proj
I0403 14:59:33.069735 11471 net.cpp:425] inception_4a/relu_pool_proj <- inception_4a/pool_proj
I0403 14:59:33.069751 11471 net.cpp:386] inception_4a/relu_pool_proj -> inception_4a/pool_proj (in-place)
I0403 14:59:33.070034 11471 net.cpp:141] Setting up inception_4a/relu_pool_proj
I0403 14:59:33.070060 11471 net.cpp:148] Top shape: 24 64 14 14 (301056)
I0403 14:59:33.070075 11471 net.cpp:156] Memory required for data: 886912032
I0403 14:59:33.070088 11471 layer_factory.hpp:77] Creating layer inception_4a/output
I0403 14:59:33.070107 11471 net.cpp:91] Creating Layer inception_4a/output
I0403 14:59:33.070123 11471 net.cpp:425] inception_4a/output <- inception_4a/1x1
I0403 14:59:33.070139 11471 net.cpp:425] inception_4a/output <- inception_4a/3x3
I0403 14:59:33.070155 11471 net.cpp:425] inception_4a/output <- inception_4a/5x5
I0403 14:59:33.070170 11471 net.cpp:425] inception_4a/output <- inception_4a/pool_proj
I0403 14:59:33.070186 11471 net.cpp:399] inception_4a/output -> inception_4a/output
I0403 14:59:33.070231 11471 net.cpp:141] Setting up inception_4a/output
I0403 14:59:33.070253 11471 net.cpp:148] Top shape: 24 512 14 14 (2408448)
I0403 14:59:33.070268 11471 net.cpp:156] Memory required for data: 896545824
I0403 14:59:33.070282 11471 layer_factory.hpp:77] Creating layer inception_4a/output_inception_4a/output_0_split
I0403 14:59:33.070299 11471 net.cpp:91] Creating Layer inception_4a/output_inception_4a/output_0_split
I0403 14:59:33.070314 11471 net.cpp:425] inception_4a/output_inception_4a/output_0_split <- inception_4a/output
I0403 14:59:33.070341 11471 net.cpp:399] inception_4a/output_inception_4a/output_0_split -> inception_4a/output_inception_4a/output_0_split_0
I0403 14:59:33.070363 11471 net.cpp:399] inception_4a/output_inception_4a/output_0_split -> inception_4a/output_inception_4a/output_0_split_1
I0403 14:59:33.070382 11471 net.cpp:399] inception_4a/output_inception_4a/output_0_split -> inception_4a/output_inception_4a/output_0_split_2
I0403 14:59:33.070401 11471 net.cpp:399] inception_4a/output_inception_4a/output_0_split -> inception_4a/output_inception_4a/output_0_split_3
I0403 14:59:33.070420 11471 net.cpp:399] inception_4a/output_inception_4a/output_0_split -> inception_4a/output_inception_4a/output_0_split_4
I0403 14:59:33.070513 11471 net.cpp:141] Setting up inception_4a/output_inception_4a/output_0_split
I0403 14:59:33.070535 11471 net.cpp:148] Top shape: 24 512 14 14 (2408448)
I0403 14:59:33.070551 11471 net.cpp:148] Top shape: 24 512 14 14 (2408448)
I0403 14:59:33.070566 11471 net.cpp:148] Top shape: 24 512 14 14 (2408448)
I0403 14:59:33.070581 11471 net.cpp:148] Top shape: 24 512 14 14 (2408448)
I0403 14:59:33.070595 11471 net.cpp:148] Top shape: 24 512 14 14 (2408448)
I0403 14:59:33.070608 11471 net.cpp:156] Memory required for data: 944714784
I0403 14:59:33.070622 11471 layer_factory.hpp:77] Creating layer loss1/ave_pool
I0403 14:59:33.070639 11471 net.cpp:91] Creating Layer loss1/ave_pool
I0403 14:59:33.070655 11471 net.cpp:425] loss1/ave_pool <- inception_4a/output_inception_4a/output_0_split_0
I0403 14:59:33.070675 11471 net.cpp:399] loss1/ave_pool -> loss1/ave_pool
I0403 14:59:33.070883 11471 net.cpp:141] Setting up loss1/ave_pool
I0403 14:59:33.070909 11471 net.cpp:148] Top shape: 24 512 4 4 (196608)
I0403 14:59:33.070924 11471 net.cpp:156] Memory required for data: 945501216
I0403 14:59:33.070936 11471 layer_factory.hpp:77] Creating layer loss1/conv
I0403 14:59:33.070958 11471 net.cpp:91] Creating Layer loss1/conv
I0403 14:59:33.070976 11471 net.cpp:425] loss1/conv <- loss1/ave_pool
I0403 14:59:33.070996 11471 net.cpp:399] loss1/conv -> loss1/conv
I0403 14:59:33.072420 11471 net.cpp:141] Setting up loss1/conv
I0403 14:59:33.072450 11471 net.cpp:148] Top shape: 24 128 4 4 (49152)
I0403 14:59:33.072479 11471 net.cpp:156] Memory required for data: 945697824
I0403 14:59:33.072499 11471 layer_factory.hpp:77] Creating layer loss1/relu_conv
I0403 14:59:33.072515 11471 net.cpp:91] Creating Layer loss1/relu_conv
I0403 14:59:33.072530 11471 net.cpp:425] loss1/relu_conv <- loss1/conv
I0403 14:59:33.072551 11471 net.cpp:386] loss1/relu_conv -> loss1/conv (in-place)
I0403 14:59:33.072829 11471 net.cpp:141] Setting up loss1/relu_conv
I0403 14:59:33.072856 11471 net.cpp:148] Top shape: 24 128 4 4 (49152)
I0403 14:59:33.072871 11471 net.cpp:156] Memory required for data: 945894432
I0403 14:59:33.072886 11471 layer_factory.hpp:77] Creating layer loss1/fc
I0403 14:59:33.072909 11471 net.cpp:91] Creating Layer loss1/fc
I0403 14:59:33.072926 11471 net.cpp:425] loss1/fc <- loss1/conv
I0403 14:59:33.072947 11471 net.cpp:399] loss1/fc -> loss1/fc
I0403 14:59:33.090301 11471 net.cpp:141] Setting up loss1/fc
I0403 14:59:33.090345 11471 net.cpp:148] Top shape: 24 1024 (24576)
I0403 14:59:33.090361 11471 net.cpp:156] Memory required for data: 945992736
I0403 14:59:33.090379 11471 layer_factory.hpp:77] Creating layer loss1/relu_fc
I0403 14:59:33.090400 11471 net.cpp:91] Creating Layer loss1/relu_fc
I0403 14:59:33.090417 11471 net.cpp:425] loss1/relu_fc <- loss1/fc
I0403 14:59:33.090435 11471 net.cpp:386] loss1/relu_fc -> loss1/fc (in-place)
I0403 14:59:33.090620 11471 net.cpp:141] Setting up loss1/relu_fc
I0403 14:59:33.090644 11471 net.cpp:148] Top shape: 24 1024 (24576)
I0403 14:59:33.090657 11471 net.cpp:156] Memory required for data: 946091040
I0403 14:59:33.090672 11471 layer_factory.hpp:77] Creating layer loss1/drop_fc
I0403 14:59:33.090698 11471 net.cpp:91] Creating Layer loss1/drop_fc
I0403 14:59:33.090713 11471 net.cpp:425] loss1/drop_fc <- loss1/fc
I0403 14:59:33.090731 11471 net.cpp:386] loss1/drop_fc -> loss1/fc (in-place)
I0403 14:59:33.090781 11471 net.cpp:141] Setting up loss1/drop_fc
I0403 14:59:33.090804 11471 net.cpp:148] Top shape: 24 1024 (24576)
I0403 14:59:33.090818 11471 net.cpp:156] Memory required for data: 946189344
I0403 14:59:33.090832 11471 layer_factory.hpp:77] Creating layer loss1/classifier_plantvillage
I0403 14:59:33.090853 11471 net.cpp:91] Creating Layer loss1/classifier_plantvillage
I0403 14:59:33.090869 11471 net.cpp:425] loss1/classifier_plantvillage <- loss1/fc
I0403 14:59:33.090886 11471 net.cpp:399] loss1/classifier_plantvillage -> loss1/classifier_plantvillage
I0403 14:59:33.091819 11471 net.cpp:141] Setting up loss1/classifier_plantvillage
I0403 14:59:33.091847 11471 net.cpp:148] Top shape: 24 38 (912)
I0403 14:59:33.091862 11471 net.cpp:156] Memory required for data: 946192992
I0403 14:59:33.091881 11471 layer_factory.hpp:77] Creating layer loss1/classifier_plantvillage_loss1/classifier_plantvillage_0_split
I0403 14:59:33.091908 11471 net.cpp:91] Creating Layer loss1/classifier_plantvillage_loss1/classifier_plantvillage_0_split
I0403 14:59:33.091924 11471 net.cpp:425] loss1/classifier_plantvillage_loss1/classifier_plantvillage_0_split <- loss1/classifier_plantvillage
I0403 14:59:33.091943 11471 net.cpp:399] loss1/classifier_plantvillage_loss1/classifier_plantvillage_0_split -> loss1/classifier_plantvillage_loss1/classifier_plantvillage_0_split_0
I0403 14:59:33.091965 11471 net.cpp:399] loss1/classifier_plantvillage_loss1/classifier_plantvillage_0_split -> loss1/classifier_plantvillage_loss1/classifier_plantvillage_0_split_1
I0403 14:59:33.091985 11471 net.cpp:399] loss1/classifier_plantvillage_loss1/classifier_plantvillage_0_split -> loss1/classifier_plantvillage_loss1/classifier_plantvillage_0_split_2
I0403 14:59:33.092051 11471 net.cpp:141] Setting up loss1/classifier_plantvillage_loss1/classifier_plantvillage_0_split
I0403 14:59:33.092073 11471 net.cpp:148] Top shape: 24 38 (912)
I0403 14:59:33.092088 11471 net.cpp:148] Top shape: 24 38 (912)
I0403 14:59:33.092103 11471 net.cpp:148] Top shape: 24 38 (912)
I0403 14:59:33.092118 11471 net.cpp:156] Memory required for data: 946203936
I0403 14:59:33.092131 11471 layer_factory.hpp:77] Creating layer inception_4b/1x1
I0403 14:59:33.092154 11471 net.cpp:91] Creating Layer inception_4b/1x1
I0403 14:59:33.092187 11471 net.cpp:425] inception_4b/1x1 <- inception_4a/output_inception_4a/output_0_split_1
I0403 14:59:33.092207 11471 net.cpp:399] inception_4b/1x1 -> inception_4b/1x1
I0403 14:59:33.093947 11471 net.cpp:141] Setting up inception_4b/1x1
I0403 14:59:33.093991 11471 net.cpp:148] Top shape: 24 160 14 14 (752640)
I0403 14:59:33.094007 11471 net.cpp:156] Memory required for data: 949214496
I0403 14:59:33.094025 11471 layer_factory.hpp:77] Creating layer inception_4b/relu_1x1
I0403 14:59:33.094043 11471 net.cpp:91] Creating Layer inception_4b/relu_1x1
I0403 14:59:33.094058 11471 net.cpp:425] inception_4b/relu_1x1 <- inception_4b/1x1
I0403 14:59:33.094077 11471 net.cpp:386] inception_4b/relu_1x1 -> inception_4b/1x1 (in-place)
I0403 14:59:33.094259 11471 net.cpp:141] Setting up inception_4b/relu_1x1
I0403 14:59:33.094283 11471 net.cpp:148] Top shape: 24 160 14 14 (752640)
I0403 14:59:33.094297 11471 net.cpp:156] Memory required for data: 952225056
I0403 14:59:33.094311 11471 layer_factory.hpp:77] Creating layer inception_4b/3x3_reduce
I0403 14:59:33.094355 11471 net.cpp:91] Creating Layer inception_4b/3x3_reduce
I0403 14:59:33.094374 11471 net.cpp:425] inception_4b/3x3_reduce <- inception_4a/output_inception_4a/output_0_split_2
I0403 14:59:33.094403 11471 net.cpp:399] inception_4b/3x3_reduce -> inception_4b/3x3_reduce
I0403 14:59:33.095768 11471 net.cpp:141] Setting up inception_4b/3x3_reduce
I0403 14:59:33.095795 11471 net.cpp:148] Top shape: 24 112 14 14 (526848)
I0403 14:59:33.095810 11471 net.cpp:156] Memory required for data: 954332448
I0403 14:59:33.095829 11471 layer_factory.hpp:77] Creating layer inception_4b/relu_3x3_reduce
I0403 14:59:33.095849 11471 net.cpp:91] Creating Layer inception_4b/relu_3x3_reduce
I0403 14:59:33.095865 11471 net.cpp:425] inception_4b/relu_3x3_reduce <- inception_4b/3x3_reduce
I0403 14:59:33.095881 11471 net.cpp:386] inception_4b/relu_3x3_reduce -> inception_4b/3x3_reduce (in-place)
I0403 14:59:33.096166 11471 net.cpp:141] Setting up inception_4b/relu_3x3_reduce
I0403 14:59:33.096192 11471 net.cpp:148] Top shape: 24 112 14 14 (526848)
I0403 14:59:33.096206 11471 net.cpp:156] Memory required for data: 956439840
I0403 14:59:33.096220 11471 layer_factory.hpp:77] Creating layer inception_4b/3x3
I0403 14:59:33.096243 11471 net.cpp:91] Creating Layer inception_4b/3x3
I0403 14:59:33.096261 11471 net.cpp:425] inception_4b/3x3 <- inception_4b/3x3_reduce
I0403 14:59:33.096282 11471 net.cpp:399] inception_4b/3x3 -> inception_4b/3x3
I0403 14:59:33.099249 11471 net.cpp:141] Setting up inception_4b/3x3
I0403 14:59:33.099277 11471 net.cpp:148] Top shape: 24 224 14 14 (1053696)
I0403 14:59:33.099293 11471 net.cpp:156] Memory required for data: 960654624
I0403 14:59:33.099311 11471 layer_factory.hpp:77] Creating layer inception_4b/relu_3x3
I0403 14:59:33.099339 11471 net.cpp:91] Creating Layer inception_4b/relu_3x3
I0403 14:59:33.099356 11471 net.cpp:425] inception_4b/relu_3x3 <- inception_4b/3x3
I0403 14:59:33.099373 11471 net.cpp:386] inception_4b/relu_3x3 -> inception_4b/3x3 (in-place)
I0403 14:59:33.099553 11471 net.cpp:141] Setting up inception_4b/relu_3x3
I0403 14:59:33.099577 11471 net.cpp:148] Top shape: 24 224 14 14 (1053696)
I0403 14:59:33.099591 11471 net.cpp:156] Memory required for data: 964869408
I0403 14:59:33.099606 11471 layer_factory.hpp:77] Creating layer inception_4b/5x5_reduce
I0403 14:59:33.099627 11471 net.cpp:91] Creating Layer inception_4b/5x5_reduce
I0403 14:59:33.099645 11471 net.cpp:425] inception_4b/5x5_reduce <- inception_4a/output_inception_4a/output_0_split_3
I0403 14:59:33.099668 11471 net.cpp:399] inception_4b/5x5_reduce -> inception_4b/5x5_reduce
I0403 14:59:33.100749 11471 net.cpp:141] Setting up inception_4b/5x5_reduce
I0403 14:59:33.100776 11471 net.cpp:148] Top shape: 24 24 14 14 (112896)
I0403 14:59:33.100791 11471 net.cpp:156] Memory required for data: 965320992
I0403 14:59:33.100810 11471 layer_factory.hpp:77] Creating layer inception_4b/relu_5x5_reduce
I0403 14:59:33.100827 11471 net.cpp:91] Creating Layer inception_4b/relu_5x5_reduce
I0403 14:59:33.100857 11471 net.cpp:425] inception_4b/relu_5x5_reduce <- inception_4b/5x5_reduce
I0403 14:59:33.100878 11471 net.cpp:386] inception_4b/relu_5x5_reduce -> inception_4b/5x5_reduce (in-place)
I0403 14:59:33.101059 11471 net.cpp:141] Setting up inception_4b/relu_5x5_reduce
I0403 14:59:33.101083 11471 net.cpp:148] Top shape: 24 24 14 14 (112896)
I0403 14:59:33.101097 11471 net.cpp:156] Memory required for data: 965772576
I0403 14:59:33.101112 11471 layer_factory.hpp:77] Creating layer inception_4b/5x5
I0403 14:59:33.101135 11471 net.cpp:91] Creating Layer inception_4b/5x5
I0403 14:59:33.101151 11471 net.cpp:425] inception_4b/5x5 <- inception_4b/5x5_reduce
I0403 14:59:33.101171 11471 net.cpp:399] inception_4b/5x5 -> inception_4b/5x5
I0403 14:59:33.102406 11471 net.cpp:141] Setting up inception_4b/5x5
I0403 14:59:33.102438 11471 net.cpp:148] Top shape: 24 64 14 14 (301056)
I0403 14:59:33.102454 11471 net.cpp:156] Memory required for data: 966976800
I0403 14:59:33.102473 11471 layer_factory.hpp:77] Creating layer inception_4b/relu_5x5
I0403 14:59:33.102491 11471 net.cpp:91] Creating Layer inception_4b/relu_5x5
I0403 14:59:33.102506 11471 net.cpp:425] inception_4b/relu_5x5 <- inception_4b/5x5
I0403 14:59:33.102525 11471 net.cpp:386] inception_4b/relu_5x5 -> inception_4b/5x5 (in-place)
I0403 14:59:33.102807 11471 net.cpp:141] Setting up inception_4b/relu_5x5
I0403 14:59:33.102838 11471 net.cpp:148] Top shape: 24 64 14 14 (301056)
I0403 14:59:33.102854 11471 net.cpp:156] Memory required for data: 968181024
I0403 14:59:33.102869 11471 layer_factory.hpp:77] Creating layer inception_4b/pool
I0403 14:59:33.102886 11471 net.cpp:91] Creating Layer inception_4b/pool
I0403 14:59:33.102901 11471 net.cpp:425] inception_4b/pool <- inception_4a/output_inception_4a/output_0_split_4
I0403 14:59:33.102921 11471 net.cpp:399] inception_4b/pool -> inception_4b/pool
I0403 14:59:33.102983 11471 net.cpp:141] Setting up inception_4b/pool
I0403 14:59:33.103009 11471 net.cpp:148] Top shape: 24 512 14 14 (2408448)
I0403 14:59:33.103024 11471 net.cpp:156] Memory required for data: 977814816
I0403 14:59:33.103039 11471 layer_factory.hpp:77] Creating layer inception_4b/pool_proj
I0403 14:59:33.103060 11471 net.cpp:91] Creating Layer inception_4b/pool_proj
I0403 14:59:33.103077 11471 net.cpp:425] inception_4b/pool_proj <- inception_4b/pool
I0403 14:59:33.103096 11471 net.cpp:399] inception_4b/pool_proj -> inception_4b/pool_proj
I0403 14:59:33.104306 11471 net.cpp:141] Setting up inception_4b/pool_proj
I0403 14:59:33.104341 11471 net.cpp:148] Top shape: 24 64 14 14 (301056)
I0403 14:59:33.104357 11471 net.cpp:156] Memory required for data: 979019040
I0403 14:59:33.104373 11471 layer_factory.hpp:77] Creating layer inception_4b/relu_pool_proj
I0403 14:59:33.104392 11471 net.cpp:91] Creating Layer inception_4b/relu_pool_proj
I0403 14:59:33.104410 11471 net.cpp:425] inception_4b/relu_pool_proj <- inception_4b/pool_proj
I0403 14:59:33.104428 11471 net.cpp:386] inception_4b/relu_pool_proj -> inception_4b/pool_proj (in-place)
I0403 14:59:33.104606 11471 net.cpp:141] Setting up inception_4b/relu_pool_proj
I0403 14:59:33.104631 11471 net.cpp:148] Top shape: 24 64 14 14 (301056)
I0403 14:59:33.104645 11471 net.cpp:156] Memory required for data: 980223264
I0403 14:59:33.104660 11471 layer_factory.hpp:77] Creating layer inception_4b/output
I0403 14:59:33.104678 11471 net.cpp:91] Creating Layer inception_4b/output
I0403 14:59:33.104694 11471 net.cpp:425] inception_4b/output <- inception_4b/1x1
I0403 14:59:33.104710 11471 net.cpp:425] inception_4b/output <- inception_4b/3x3
I0403 14:59:33.104725 11471 net.cpp:425] inception_4b/output <- inception_4b/5x5
I0403 14:59:33.104740 11471 net.cpp:425] inception_4b/output <- inception_4b/pool_proj
I0403 14:59:33.104758 11471 net.cpp:399] inception_4b/output -> inception_4b/output
I0403 14:59:33.104804 11471 net.cpp:141] Setting up inception_4b/output
I0403 14:59:33.104826 11471 net.cpp:148] Top shape: 24 512 14 14 (2408448)
I0403 14:59:33.104840 11471 net.cpp:156] Memory required for data: 989857056
I0403 14:59:33.104869 11471 layer_factory.hpp:77] Creating layer inception_4b/output_inception_4b/output_0_split
I0403 14:59:33.104887 11471 net.cpp:91] Creating Layer inception_4b/output_inception_4b/output_0_split
I0403 14:59:33.104902 11471 net.cpp:425] inception_4b/output_inception_4b/output_0_split <- inception_4b/output
I0403 14:59:33.104921 11471 net.cpp:399] inception_4b/output_inception_4b/output_0_split -> inception_4b/output_inception_4b/output_0_split_0
I0403 14:59:33.104941 11471 net.cpp:399] inception_4b/output_inception_4b/output_0_split -> inception_4b/output_inception_4b/output_0_split_1
I0403 14:59:33.104962 11471 net.cpp:399] inception_4b/output_inception_4b/output_0_split -> inception_4b/output_inception_4b/output_0_split_2
I0403 14:59:33.104982 11471 net.cpp:399] inception_4b/output_inception_4b/output_0_split -> inception_4b/output_inception_4b/output_0_split_3
I0403 14:59:33.105068 11471 net.cpp:141] Setting up inception_4b/output_inception_4b/output_0_split
I0403 14:59:33.105093 11471 net.cpp:148] Top shape: 24 512 14 14 (2408448)
I0403 14:59:33.105109 11471 net.cpp:148] Top shape: 24 512 14 14 (2408448)
I0403 14:59:33.105124 11471 net.cpp:148] Top shape: 24 512 14 14 (2408448)
I0403 14:59:33.105139 11471 net.cpp:148] Top shape: 24 512 14 14 (2408448)
I0403 14:59:33.105152 11471 net.cpp:156] Memory required for data: 1028392224
I0403 14:59:33.105167 11471 layer_factory.hpp:77] Creating layer inception_4c/1x1
I0403 14:59:33.105188 11471 net.cpp:91] Creating Layer inception_4c/1x1
I0403 14:59:33.105206 11471 net.cpp:425] inception_4c/1x1 <- inception_4b/output_inception_4b/output_0_split_0
I0403 14:59:33.105223 11471 net.cpp:399] inception_4c/1x1 -> inception_4c/1x1
I0403 14:59:33.106662 11471 net.cpp:141] Setting up inception_4c/1x1
I0403 14:59:33.106689 11471 net.cpp:148] Top shape: 24 128 14 14 (602112)
I0403 14:59:33.106705 11471 net.cpp:156] Memory required for data: 1030800672
I0403 14:59:33.106722 11471 layer_factory.hpp:77] Creating layer inception_4c/relu_1x1
I0403 14:59:33.106744 11471 net.cpp:91] Creating Layer inception_4c/relu_1x1
I0403 14:59:33.106760 11471 net.cpp:425] inception_4c/relu_1x1 <- inception_4c/1x1
I0403 14:59:33.106776 11471 net.cpp:386] inception_4c/relu_1x1 -> inception_4c/1x1 (in-place)
I0403 14:59:33.106955 11471 net.cpp:141] Setting up inception_4c/relu_1x1
I0403 14:59:33.106981 11471 net.cpp:148] Top shape: 24 128 14 14 (602112)
I0403 14:59:33.106997 11471 net.cpp:156] Memory required for data: 1033209120
I0403 14:59:33.107010 11471 layer_factory.hpp:77] Creating layer inception_4c/3x3_reduce
I0403 14:59:33.107033 11471 net.cpp:91] Creating Layer inception_4c/3x3_reduce
I0403 14:59:33.107048 11471 net.cpp:425] inception_4c/3x3_reduce <- inception_4b/output_inception_4b/output_0_split_1
I0403 14:59:33.107067 11471 net.cpp:399] inception_4c/3x3_reduce -> inception_4c/3x3_reduce
I0403 14:59:33.109053 11471 net.cpp:141] Setting up inception_4c/3x3_reduce
I0403 14:59:33.109082 11471 net.cpp:148] Top shape: 24 128 14 14 (602112)
I0403 14:59:33.109097 11471 net.cpp:156] Memory required for data: 1035617568
I0403 14:59:33.109115 11471 layer_factory.hpp:77] Creating layer inception_4c/relu_3x3_reduce
I0403 14:59:33.109133 11471 net.cpp:91] Creating Layer inception_4c/relu_3x3_reduce
I0403 14:59:33.109148 11471 net.cpp:425] inception_4c/relu_3x3_reduce <- inception_4c/3x3_reduce
I0403 14:59:33.109168 11471 net.cpp:386] inception_4c/relu_3x3_reduce -> inception_4c/3x3_reduce (in-place)
I0403 14:59:33.109467 11471 net.cpp:141] Setting up inception_4c/relu_3x3_reduce
I0403 14:59:33.109493 11471 net.cpp:148] Top shape: 24 128 14 14 (602112)
I0403 14:59:33.109508 11471 net.cpp:156] Memory required for data: 1038026016
I0403 14:59:33.109521 11471 layer_factory.hpp:77] Creating layer inception_4c/3x3
I0403 14:59:33.109544 11471 net.cpp:91] Creating Layer inception_4c/3x3
I0403 14:59:33.109562 11471 net.cpp:425] inception_4c/3x3 <- inception_4c/3x3_reduce
I0403 14:59:33.109582 11471 net.cpp:399] inception_4c/3x3 -> inception_4c/3x3
I0403 14:59:33.113215 11471 net.cpp:141] Setting up inception_4c/3x3
I0403 14:59:33.113255 11471 net.cpp:148] Top shape: 24 256 14 14 (1204224)
I0403 14:59:33.113271 11471 net.cpp:156] Memory required for data: 1042842912
I0403 14:59:33.113302 11471 layer_factory.hpp:77] Creating layer inception_4c/relu_3x3
I0403 14:59:33.113329 11471 net.cpp:91] Creating Layer inception_4c/relu_3x3
I0403 14:59:33.113346 11471 net.cpp:425] inception_4c/relu_3x3 <- inception_4c/3x3
I0403 14:59:33.113365 11471 net.cpp:386] inception_4c/relu_3x3 -> inception_4c/3x3 (in-place)
I0403 14:59:33.113548 11471 net.cpp:141] Setting up inception_4c/relu_3x3
I0403 14:59:33.113572 11471 net.cpp:148] Top shape: 24 256 14 14 (1204224)
I0403 14:59:33.113586 11471 net.cpp:156] Memory required for data: 1047659808
I0403 14:59:33.113600 11471 layer_factory.hpp:77] Creating layer inception_4c/5x5_reduce
I0403 14:59:33.113623 11471 net.cpp:91] Creating Layer inception_4c/5x5_reduce
I0403 14:59:33.113641 11471 net.cpp:425] inception_4c/5x5_reduce <- inception_4b/output_inception_4b/output_0_split_2
I0403 14:59:33.113661 11471 net.cpp:399] inception_4c/5x5_reduce -> inception_4c/5x5_reduce
I0403 14:59:33.114718 11471 net.cpp:141] Setting up inception_4c/5x5_reduce
I0403 14:59:33.114745 11471 net.cpp:148] Top shape: 24 24 14 14 (112896)
I0403 14:59:33.114759 11471 net.cpp:156] Memory required for data: 1048111392
I0403 14:59:33.114778 11471 layer_factory.hpp:77] Creating layer inception_4c/relu_5x5_reduce
I0403 14:59:33.114794 11471 net.cpp:91] Creating Layer inception_4c/relu_5x5_reduce
I0403 14:59:33.114809 11471 net.cpp:425] inception_4c/relu_5x5_reduce <- inception_4c/5x5_reduce
I0403 14:59:33.114826 11471 net.cpp:386] inception_4c/relu_5x5_reduce -> inception_4c/5x5_reduce (in-place)
I0403 14:59:33.115006 11471 net.cpp:141] Setting up inception_4c/relu_5x5_reduce
I0403 14:59:33.115030 11471 net.cpp:148] Top shape: 24 24 14 14 (112896)
I0403 14:59:33.115043 11471 net.cpp:156] Memory required for data: 1048562976
I0403 14:59:33.115057 11471 layer_factory.hpp:77] Creating layer inception_4c/5x5
I0403 14:59:33.115077 11471 net.cpp:91] Creating Layer inception_4c/5x5
I0403 14:59:33.115094 11471 net.cpp:425] inception_4c/5x5 <- inception_4c/5x5_reduce
I0403 14:59:33.115113 11471 net.cpp:399] inception_4c/5x5 -> inception_4c/5x5
I0403 14:59:33.116329 11471 net.cpp:141] Setting up inception_4c/5x5
I0403 14:59:33.116356 11471 net.cpp:148] Top shape: 24 64 14 14 (301056)
I0403 14:59:33.116370 11471 net.cpp:156] Memory required for data: 1049767200
I0403 14:59:33.116387 11471 layer_factory.hpp:77] Creating layer inception_4c/relu_5x5
I0403 14:59:33.116406 11471 net.cpp:91] Creating Layer inception_4c/relu_5x5
I0403 14:59:33.116422 11471 net.cpp:425] inception_4c/relu_5x5 <- inception_4c/5x5
I0403 14:59:33.116439 11471 net.cpp:386] inception_4c/relu_5x5 -> inception_4c/5x5 (in-place)
I0403 14:59:33.116719 11471 net.cpp:141] Setting up inception_4c/relu_5x5
I0403 14:59:33.116744 11471 net.cpp:148] Top shape: 24 64 14 14 (301056)
I0403 14:59:33.116758 11471 net.cpp:156] Memory required for data: 1050971424
I0403 14:59:33.116771 11471 layer_factory.hpp:77] Creating layer inception_4c/pool
I0403 14:59:33.116791 11471 net.cpp:91] Creating Layer inception_4c/pool
I0403 14:59:33.116807 11471 net.cpp:425] inception_4c/pool <- inception_4b/output_inception_4b/output_0_split_3
I0403 14:59:33.116824 11471 net.cpp:399] inception_4c/pool -> inception_4c/pool
I0403 14:59:33.116888 11471 net.cpp:141] Setting up inception_4c/pool
I0403 14:59:33.116911 11471 net.cpp:148] Top shape: 24 512 14 14 (2408448)
I0403 14:59:33.116925 11471 net.cpp:156] Memory required for data: 1060605216
I0403 14:59:33.116938 11471 layer_factory.hpp:77] Creating layer inception_4c/pool_proj
I0403 14:59:33.116960 11471 net.cpp:91] Creating Layer inception_4c/pool_proj
I0403 14:59:33.116976 11471 net.cpp:425] inception_4c/pool_proj <- inception_4c/pool
I0403 14:59:33.116997 11471 net.cpp:399] inception_4c/pool_proj -> inception_4c/pool_proj
I0403 14:59:33.118178 11471 net.cpp:141] Setting up inception_4c/pool_proj
I0403 14:59:33.118204 11471 net.cpp:148] Top shape: 24 64 14 14 (301056)
I0403 14:59:33.118233 11471 net.cpp:156] Memory required for data: 1061809440
I0403 14:59:33.118252 11471 layer_factory.hpp:77] Creating layer inception_4c/relu_pool_proj
I0403 14:59:33.118268 11471 net.cpp:91] Creating Layer inception_4c/relu_pool_proj
I0403 14:59:33.118283 11471 net.cpp:425] inception_4c/relu_pool_proj <- inception_4c/pool_proj
I0403 14:59:33.118304 11471 net.cpp:386] inception_4c/relu_pool_proj -> inception_4c/pool_proj (in-place)
I0403 14:59:33.118485 11471 net.cpp:141] Setting up inception_4c/relu_pool_proj
I0403 14:59:33.118510 11471 net.cpp:148] Top shape: 24 64 14 14 (301056)
I0403 14:59:33.118523 11471 net.cpp:156] Memory required for data: 1063013664
I0403 14:59:33.118537 11471 layer_factory.hpp:77] Creating layer inception_4c/output
I0403 14:59:33.118553 11471 net.cpp:91] Creating Layer inception_4c/output
I0403 14:59:33.118567 11471 net.cpp:425] inception_4c/output <- inception_4c/1x1
I0403 14:59:33.118584 11471 net.cpp:425] inception_4c/output <- inception_4c/3x3
I0403 14:59:33.118600 11471 net.cpp:425] inception_4c/output <- inception_4c/5x5
I0403 14:59:33.118615 11471 net.cpp:425] inception_4c/output <- inception_4c/pool_proj
I0403 14:59:33.118631 11471 net.cpp:399] inception_4c/output -> inception_4c/output
I0403 14:59:33.118677 11471 net.cpp:141] Setting up inception_4c/output
I0403 14:59:33.118700 11471 net.cpp:148] Top shape: 24 512 14 14 (2408448)
I0403 14:59:33.118712 11471 net.cpp:156] Memory required for data: 1072647456
I0403 14:59:33.118726 11471 layer_factory.hpp:77] Creating layer inception_4c/output_inception_4c/output_0_split
I0403 14:59:33.118742 11471 net.cpp:91] Creating Layer inception_4c/output_inception_4c/output_0_split
I0403 14:59:33.118757 11471 net.cpp:425] inception_4c/output_inception_4c/output_0_split <- inception_4c/output
I0403 14:59:33.118774 11471 net.cpp:399] inception_4c/output_inception_4c/output_0_split -> inception_4c/output_inception_4c/output_0_split_0
I0403 14:59:33.118795 11471 net.cpp:399] inception_4c/output_inception_4c/output_0_split -> inception_4c/output_inception_4c/output_0_split_1
I0403 14:59:33.118814 11471 net.cpp:399] inception_4c/output_inception_4c/output_0_split -> inception_4c/output_inception_4c/output_0_split_2
I0403 14:59:33.118832 11471 net.cpp:399] inception_4c/output_inception_4c/output_0_split -> inception_4c/output_inception_4c/output_0_split_3
I0403 14:59:33.118916 11471 net.cpp:141] Setting up inception_4c/output_inception_4c/output_0_split
I0403 14:59:33.118940 11471 net.cpp:148] Top shape: 24 512 14 14 (2408448)
I0403 14:59:33.118957 11471 net.cpp:148] Top shape: 24 512 14 14 (2408448)
I0403 14:59:33.118971 11471 net.cpp:148] Top shape: 24 512 14 14 (2408448)
I0403 14:59:33.118985 11471 net.cpp:148] Top shape: 24 512 14 14 (2408448)
I0403 14:59:33.118999 11471 net.cpp:156] Memory required for data: 1111182624
I0403 14:59:33.119012 11471 layer_factory.hpp:77] Creating layer inception_4d/1x1
I0403 14:59:33.119034 11471 net.cpp:91] Creating Layer inception_4d/1x1
I0403 14:59:33.119050 11471 net.cpp:425] inception_4d/1x1 <- inception_4c/output_inception_4c/output_0_split_0
I0403 14:59:33.119067 11471 net.cpp:399] inception_4d/1x1 -> inception_4d/1x1
I0403 14:59:33.120445 11471 net.cpp:141] Setting up inception_4d/1x1
I0403 14:59:33.120476 11471 net.cpp:148] Top shape: 24 112 14 14 (526848)
I0403 14:59:33.120491 11471 net.cpp:156] Memory required for data: 1113290016
I0403 14:59:33.120507 11471 layer_factory.hpp:77] Creating layer inception_4d/relu_1x1
I0403 14:59:33.120524 11471 net.cpp:91] Creating Layer inception_4d/relu_1x1
I0403 14:59:33.120539 11471 net.cpp:425] inception_4d/relu_1x1 <- inception_4d/1x1
I0403 14:59:33.120558 11471 net.cpp:386] inception_4d/relu_1x1 -> inception_4d/1x1 (in-place)
I0403 14:59:33.120738 11471 net.cpp:141] Setting up inception_4d/relu_1x1
I0403 14:59:33.120761 11471 net.cpp:148] Top shape: 24 112 14 14 (526848)
I0403 14:59:33.120775 11471 net.cpp:156] Memory required for data: 1115397408
I0403 14:59:33.120790 11471 layer_factory.hpp:77] Creating layer inception_4d/3x3_reduce
I0403 14:59:33.120825 11471 net.cpp:91] Creating Layer inception_4d/3x3_reduce
I0403 14:59:33.120842 11471 net.cpp:425] inception_4d/3x3_reduce <- inception_4c/output_inception_4c/output_0_split_1
I0403 14:59:33.120862 11471 net.cpp:399] inception_4d/3x3_reduce -> inception_4d/3x3_reduce
I0403 14:59:33.122334 11471 net.cpp:141] Setting up inception_4d/3x3_reduce
I0403 14:59:33.122360 11471 net.cpp:148] Top shape: 24 144 14 14 (677376)
I0403 14:59:33.122375 11471 net.cpp:156] Memory required for data: 1118106912
I0403 14:59:33.122392 11471 layer_factory.hpp:77] Creating layer inception_4d/relu_3x3_reduce
I0403 14:59:33.122411 11471 net.cpp:91] Creating Layer inception_4d/relu_3x3_reduce
I0403 14:59:33.122427 11471 net.cpp:425] inception_4d/relu_3x3_reduce <- inception_4d/3x3_reduce
I0403 14:59:33.122443 11471 net.cpp:386] inception_4d/relu_3x3_reduce -> inception_4d/3x3_reduce (in-place)
I0403 14:59:33.122730 11471 net.cpp:141] Setting up inception_4d/relu_3x3_reduce
I0403 14:59:33.122755 11471 net.cpp:148] Top shape: 24 144 14 14 (677376)
I0403 14:59:33.122768 11471 net.cpp:156] Memory required for data: 1120816416
I0403 14:59:33.122782 11471 layer_factory.hpp:77] Creating layer inception_4d/3x3
I0403 14:59:33.122804 11471 net.cpp:91] Creating Layer inception_4d/3x3
I0403 14:59:33.122820 11471 net.cpp:425] inception_4d/3x3 <- inception_4d/3x3_reduce
I0403 14:59:33.122840 11471 net.cpp:399] inception_4d/3x3 -> inception_4d/3x3
I0403 14:59:33.126971 11471 net.cpp:141] Setting up inception_4d/3x3
I0403 14:59:33.126999 11471 net.cpp:148] Top shape: 24 288 14 14 (1354752)
I0403 14:59:33.127015 11471 net.cpp:156] Memory required for data: 1126235424
I0403 14:59:33.127032 11471 layer_factory.hpp:77] Creating layer inception_4d/relu_3x3
I0403 14:59:33.127049 11471 net.cpp:91] Creating Layer inception_4d/relu_3x3
I0403 14:59:33.127065 11471 net.cpp:425] inception_4d/relu_3x3 <- inception_4d/3x3
I0403 14:59:33.127080 11471 net.cpp:386] inception_4d/relu_3x3 -> inception_4d/3x3 (in-place)
I0403 14:59:33.127259 11471 net.cpp:141] Setting up inception_4d/relu_3x3
I0403 14:59:33.127282 11471 net.cpp:148] Top shape: 24 288 14 14 (1354752)
I0403 14:59:33.127296 11471 net.cpp:156] Memory required for data: 1131654432
I0403 14:59:33.127310 11471 layer_factory.hpp:77] Creating layer inception_4d/5x5_reduce
I0403 14:59:33.127341 11471 net.cpp:91] Creating Layer inception_4d/5x5_reduce
I0403 14:59:33.127359 11471 net.cpp:425] inception_4d/5x5_reduce <- inception_4c/output_inception_4c/output_0_split_2
I0403 14:59:33.127382 11471 net.cpp:399] inception_4d/5x5_reduce -> inception_4d/5x5_reduce
I0403 14:59:33.128509 11471 net.cpp:141] Setting up inception_4d/5x5_reduce
I0403 14:59:33.128537 11471 net.cpp:148] Top shape: 24 32 14 14 (150528)
I0403 14:59:33.128553 11471 net.cpp:156] Memory required for data: 1132256544
I0403 14:59:33.128572 11471 layer_factory.hpp:77] Creating layer inception_4d/relu_5x5_reduce
I0403 14:59:33.128589 11471 net.cpp:91] Creating Layer inception_4d/relu_5x5_reduce
I0403 14:59:33.128605 11471 net.cpp:425] inception_4d/relu_5x5_reduce <- inception_4d/5x5_reduce
I0403 14:59:33.128624 11471 net.cpp:386] inception_4d/relu_5x5_reduce -> inception_4d/5x5_reduce (in-place)
I0403 14:59:33.128813 11471 net.cpp:141] Setting up inception_4d/relu_5x5_reduce
I0403 14:59:33.128836 11471 net.cpp:148] Top shape: 24 32 14 14 (150528)
I0403 14:59:33.128850 11471 net.cpp:156] Memory required for data: 1132858656
I0403 14:59:33.128865 11471 layer_factory.hpp:77] Creating layer inception_4d/5x5
I0403 14:59:33.128885 11471 net.cpp:91] Creating Layer inception_4d/5x5
I0403 14:59:33.128902 11471 net.cpp:425] inception_4d/5x5 <- inception_4d/5x5_reduce
I0403 14:59:33.128924 11471 net.cpp:399] inception_4d/5x5 -> inception_4d/5x5
I0403 14:59:33.130398 11471 net.cpp:141] Setting up inception_4d/5x5
I0403 14:59:33.130425 11471 net.cpp:148] Top shape: 24 64 14 14 (301056)
I0403 14:59:33.130440 11471 net.cpp:156] Memory required for data: 1134062880
I0403 14:59:33.130458 11471 layer_factory.hpp:77] Creating layer inception_4d/relu_5x5
I0403 14:59:33.130492 11471 net.cpp:91] Creating Layer inception_4d/relu_5x5
I0403 14:59:33.130511 11471 net.cpp:425] inception_4d/relu_5x5 <- inception_4d/5x5
I0403 14:59:33.130527 11471 net.cpp:386] inception_4d/relu_5x5 -> inception_4d/5x5 (in-place)
I0403 14:59:33.130827 11471 net.cpp:141] Setting up inception_4d/relu_5x5
I0403 14:59:33.130854 11471 net.cpp:148] Top shape: 24 64 14 14 (301056)
I0403 14:59:33.130868 11471 net.cpp:156] Memory required for data: 1135267104
I0403 14:59:33.130882 11471 layer_factory.hpp:77] Creating layer inception_4d/pool
I0403 14:59:33.130900 11471 net.cpp:91] Creating Layer inception_4d/pool
I0403 14:59:33.130915 11471 net.cpp:425] inception_4d/pool <- inception_4c/output_inception_4c/output_0_split_3
I0403 14:59:33.130936 11471 net.cpp:399] inception_4d/pool -> inception_4d/pool
I0403 14:59:33.131002 11471 net.cpp:141] Setting up inception_4d/pool
I0403 14:59:33.131026 11471 net.cpp:148] Top shape: 24 512 14 14 (2408448)
I0403 14:59:33.131039 11471 net.cpp:156] Memory required for data: 1144900896
I0403 14:59:33.131054 11471 layer_factory.hpp:77] Creating layer inception_4d/pool_proj
I0403 14:59:33.131078 11471 net.cpp:91] Creating Layer inception_4d/pool_proj
I0403 14:59:33.131095 11471 net.cpp:425] inception_4d/pool_proj <- inception_4d/pool
I0403 14:59:33.131114 11471 net.cpp:399] inception_4d/pool_proj -> inception_4d/pool_proj
I0403 14:59:33.132944 11471 net.cpp:141] Setting up inception_4d/pool_proj
I0403 14:59:33.132977 11471 net.cpp:148] Top shape: 24 64 14 14 (301056)
I0403 14:59:33.132993 11471 net.cpp:156] Memory required for data: 1146105120
I0403 14:59:33.133013 11471 layer_factory.hpp:77] Creating layer inception_4d/relu_pool_proj
I0403 14:59:33.133030 11471 net.cpp:91] Creating Layer inception_4d/relu_pool_proj
I0403 14:59:33.133046 11471 net.cpp:425] inception_4d/relu_pool_proj <- inception_4d/pool_proj
I0403 14:59:33.133066 11471 net.cpp:386] inception_4d/relu_pool_proj -> inception_4d/pool_proj (in-place)
I0403 14:59:33.133258 11471 net.cpp:141] Setting up inception_4d/relu_pool_proj
I0403 14:59:33.133285 11471 net.cpp:148] Top shape: 24 64 14 14 (301056)
I0403 14:59:33.133299 11471 net.cpp:156] Memory required for data: 1147309344
I0403 14:59:33.133314 11471 layer_factory.hpp:77] Creating layer inception_4d/output
I0403 14:59:33.133339 11471 net.cpp:91] Creating Layer inception_4d/output
I0403 14:59:33.133357 11471 net.cpp:425] inception_4d/output <- inception_4d/1x1
I0403 14:59:33.133373 11471 net.cpp:425] inception_4d/output <- inception_4d/3x3
I0403 14:59:33.133389 11471 net.cpp:425] inception_4d/output <- inception_4d/5x5
I0403 14:59:33.133405 11471 net.cpp:425] inception_4d/output <- inception_4d/pool_proj
I0403 14:59:33.133424 11471 net.cpp:399] inception_4d/output -> inception_4d/output
I0403 14:59:33.133471 11471 net.cpp:141] Setting up inception_4d/output
I0403 14:59:33.133497 11471 net.cpp:148] Top shape: 24 528 14 14 (2483712)
I0403 14:59:33.133513 11471 net.cpp:156] Memory required for data: 1157244192
I0403 14:59:33.133529 11471 layer_factory.hpp:77] Creating layer inception_4d/output_inception_4d/output_0_split
I0403 14:59:33.133546 11471 net.cpp:91] Creating Layer inception_4d/output_inception_4d/output_0_split
I0403 14:59:33.133563 11471 net.cpp:425] inception_4d/output_inception_4d/output_0_split <- inception_4d/output
I0403 14:59:33.133582 11471 net.cpp:399] inception_4d/output_inception_4d/output_0_split -> inception_4d/output_inception_4d/output_0_split_0
I0403 14:59:33.133605 11471 net.cpp:399] inception_4d/output_inception_4d/output_0_split -> inception_4d/output_inception_4d/output_0_split_1
I0403 14:59:33.133625 11471 net.cpp:399] inception_4d/output_inception_4d/output_0_split -> inception_4d/output_inception_4d/output_0_split_2
I0403 14:59:33.133646 11471 net.cpp:399] inception_4d/output_inception_4d/output_0_split -> inception_4d/output_inception_4d/output_0_split_3
I0403 14:59:33.133666 11471 net.cpp:399] inception_4d/output_inception_4d/output_0_split -> inception_4d/output_inception_4d/output_0_split_4
I0403 14:59:33.133769 11471 net.cpp:141] Setting up inception_4d/output_inception_4d/output_0_split
I0403 14:59:33.133805 11471 net.cpp:148] Top shape: 24 528 14 14 (2483712)
I0403 14:59:33.133821 11471 net.cpp:148] Top shape: 24 528 14 14 (2483712)
I0403 14:59:33.133837 11471 net.cpp:148] Top shape: 24 528 14 14 (2483712)
I0403 14:59:33.133853 11471 net.cpp:148] Top shape: 24 528 14 14 (2483712)
I0403 14:59:33.133868 11471 net.cpp:148] Top shape: 24 528 14 14 (2483712)
I0403 14:59:33.133882 11471 net.cpp:156] Memory required for data: 1206918432
I0403 14:59:33.133898 11471 layer_factory.hpp:77] Creating layer loss2/ave_pool
I0403 14:59:33.133916 11471 net.cpp:91] Creating Layer loss2/ave_pool
I0403 14:59:33.133934 11471 net.cpp:425] loss2/ave_pool <- inception_4d/output_inception_4d/output_0_split_0
I0403 14:59:33.133956 11471 net.cpp:399] loss2/ave_pool -> loss2/ave_pool
I0403 14:59:33.134277 11471 net.cpp:141] Setting up loss2/ave_pool
I0403 14:59:33.134306 11471 net.cpp:148] Top shape: 24 528 4 4 (202752)
I0403 14:59:33.134330 11471 net.cpp:156] Memory required for data: 1207729440
I0403 14:59:33.134346 11471 layer_factory.hpp:77] Creating layer loss2/conv
I0403 14:59:33.134368 11471 net.cpp:91] Creating Layer loss2/conv
I0403 14:59:33.134387 11471 net.cpp:425] loss2/conv <- loss2/ave_pool
I0403 14:59:33.134405 11471 net.cpp:399] loss2/conv -> loss2/conv
I0403 14:59:33.136351 11471 net.cpp:141] Setting up loss2/conv
I0403 14:59:33.136380 11471 net.cpp:148] Top shape: 24 128 4 4 (49152)
I0403 14:59:33.136396 11471 net.cpp:156] Memory required for data: 1207926048
I0403 14:59:33.136415 11471 layer_factory.hpp:77] Creating layer loss2/relu_conv
I0403 14:59:33.136435 11471 net.cpp:91] Creating Layer loss2/relu_conv
I0403 14:59:33.136453 11471 net.cpp:425] loss2/relu_conv <- loss2/conv
I0403 14:59:33.136471 11471 net.cpp:386] loss2/relu_conv -> loss2/conv (in-place)
I0403 14:59:33.136768 11471 net.cpp:141] Setting up loss2/relu_conv
I0403 14:59:33.136795 11471 net.cpp:148] Top shape: 24 128 4 4 (49152)
I0403 14:59:33.136811 11471 net.cpp:156] Memory required for data: 1208122656
I0403 14:59:33.136826 11471 layer_factory.hpp:77] Creating layer loss2/fc
I0403 14:59:33.136847 11471 net.cpp:91] Creating Layer loss2/fc
I0403 14:59:33.136865 11471 net.cpp:425] loss2/fc <- loss2/conv
I0403 14:59:33.136883 11471 net.cpp:399] loss2/fc -> loss2/fc
I0403 14:59:33.155200 11471 net.cpp:141] Setting up loss2/fc
I0403 14:59:33.155266 11471 net.cpp:148] Top shape: 24 1024 (24576)
I0403 14:59:33.155280 11471 net.cpp:156] Memory required for data: 1208220960
I0403 14:59:33.155300 11471 layer_factory.hpp:77] Creating layer loss2/relu_fc
I0403 14:59:33.155325 11471 net.cpp:91] Creating Layer loss2/relu_fc
I0403 14:59:33.155344 11471 net.cpp:425] loss2/relu_fc <- loss2/fc
I0403 14:59:33.155364 11471 net.cpp:386] loss2/relu_fc -> loss2/fc (in-place)
I0403 14:59:33.155728 11471 net.cpp:141] Setting up loss2/relu_fc
I0403 14:59:33.155757 11471 net.cpp:148] Top shape: 24 1024 (24576)
I0403 14:59:33.155773 11471 net.cpp:156] Memory required for data: 1208319264
I0403 14:59:33.155787 11471 layer_factory.hpp:77] Creating layer loss2/drop_fc
I0403 14:59:33.155805 11471 net.cpp:91] Creating Layer loss2/drop_fc
I0403 14:59:33.155820 11471 net.cpp:425] loss2/drop_fc <- loss2/fc
I0403 14:59:33.155843 11471 net.cpp:386] loss2/drop_fc -> loss2/fc (in-place)
I0403 14:59:33.155894 11471 net.cpp:141] Setting up loss2/drop_fc
I0403 14:59:33.155916 11471 net.cpp:148] Top shape: 24 1024 (24576)
I0403 14:59:33.155930 11471 net.cpp:156] Memory required for data: 1208417568
I0403 14:59:33.155944 11471 layer_factory.hpp:77] Creating layer loss2/classifier_plantvillage
I0403 14:59:33.155966 11471 net.cpp:91] Creating Layer loss2/classifier_plantvillage
I0403 14:59:33.155982 11471 net.cpp:425] loss2/classifier_plantvillage <- loss2/fc
I0403 14:59:33.156002 11471 net.cpp:399] loss2/classifier_plantvillage -> loss2/classifier_plantvillage
I0403 14:59:33.156419 11471 net.cpp:141] Setting up loss2/classifier_plantvillage
I0403 14:59:33.156445 11471 net.cpp:148] Top shape: 24 38 (912)
I0403 14:59:33.156483 11471 net.cpp:156] Memory required for data: 1208421216
I0403 14:59:33.156502 11471 layer_factory.hpp:77] Creating layer loss2/classifier_plantvillage_loss2/classifier_plantvillage_0_split
I0403 14:59:33.156522 11471 net.cpp:91] Creating Layer loss2/classifier_plantvillage_loss2/classifier_plantvillage_0_split
I0403 14:59:33.156539 11471 net.cpp:425] loss2/classifier_plantvillage_loss2/classifier_plantvillage_0_split <- loss2/classifier_plantvillage
I0403 14:59:33.156556 11471 net.cpp:399] loss2/classifier_plantvillage_loss2/classifier_plantvillage_0_split -> loss2/classifier_plantvillage_loss2/classifier_plantvillage_0_split_0
I0403 14:59:33.156576 11471 net.cpp:399] loss2/classifier_plantvillage_loss2/classifier_plantvillage_0_split -> loss2/classifier_plantvillage_loss2/classifier_plantvillage_0_split_1
I0403 14:59:33.156596 11471 net.cpp:399] loss2/classifier_plantvillage_loss2/classifier_plantvillage_0_split -> loss2/classifier_plantvillage_loss2/classifier_plantvillage_0_split_2
I0403 14:59:33.156674 11471 net.cpp:141] Setting up loss2/classifier_plantvillage_loss2/classifier_plantvillage_0_split
I0403 14:59:33.156697 11471 net.cpp:148] Top shape: 24 38 (912)
I0403 14:59:33.156713 11471 net.cpp:148] Top shape: 24 38 (912)
I0403 14:59:33.156726 11471 net.cpp:148] Top shape: 24 38 (912)
I0403 14:59:33.156740 11471 net.cpp:156] Memory required for data: 1208432160
I0403 14:59:33.156754 11471 layer_factory.hpp:77] Creating layer inception_4e/1x1
I0403 14:59:33.156774 11471 net.cpp:91] Creating Layer inception_4e/1x1
I0403 14:59:33.156791 11471 net.cpp:425] inception_4e/1x1 <- inception_4d/output_inception_4d/output_0_split_1
I0403 14:59:33.156812 11471 net.cpp:399] inception_4e/1x1 -> inception_4e/1x1
I0403 14:59:33.158705 11471 net.cpp:141] Setting up inception_4e/1x1
I0403 14:59:33.158733 11471 net.cpp:148] Top shape: 24 256 14 14 (1204224)
I0403 14:59:33.158749 11471 net.cpp:156] Memory required for data: 1213249056
I0403 14:59:33.158767 11471 layer_factory.hpp:77] Creating layer inception_4e/relu_1x1
I0403 14:59:33.158790 11471 net.cpp:91] Creating Layer inception_4e/relu_1x1
I0403 14:59:33.158807 11471 net.cpp:425] inception_4e/relu_1x1 <- inception_4e/1x1
I0403 14:59:33.158824 11471 net.cpp:386] inception_4e/relu_1x1 -> inception_4e/1x1 (in-place)
I0403 14:59:33.159121 11471 net.cpp:141] Setting up inception_4e/relu_1x1
I0403 14:59:33.159147 11471 net.cpp:148] Top shape: 24 256 14 14 (1204224)
I0403 14:59:33.159162 11471 net.cpp:156] Memory required for data: 1218065952
I0403 14:59:33.159176 11471 layer_factory.hpp:77] Creating layer inception_4e/3x3_reduce
I0403 14:59:33.159199 11471 net.cpp:91] Creating Layer inception_4e/3x3_reduce
I0403 14:59:33.159215 11471 net.cpp:425] inception_4e/3x3_reduce <- inception_4d/output_inception_4d/output_0_split_2
I0403 14:59:33.159237 11471 net.cpp:399] inception_4e/3x3_reduce -> inception_4e/3x3_reduce
I0403 14:59:33.161389 11471 net.cpp:141] Setting up inception_4e/3x3_reduce
I0403 14:59:33.161418 11471 net.cpp:148] Top shape: 24 160 14 14 (752640)
I0403 14:59:33.161433 11471 net.cpp:156] Memory required for data: 1221076512
I0403 14:59:33.161450 11471 layer_factory.hpp:77] Creating layer inception_4e/relu_3x3_reduce
I0403 14:59:33.161470 11471 net.cpp:91] Creating Layer inception_4e/relu_3x3_reduce
I0403 14:59:33.161487 11471 net.cpp:425] inception_4e/relu_3x3_reduce <- inception_4e/3x3_reduce
I0403 14:59:33.161505 11471 net.cpp:386] inception_4e/relu_3x3_reduce -> inception_4e/3x3_reduce (in-place)
I0403 14:59:33.161695 11471 net.cpp:141] Setting up inception_4e/relu_3x3_reduce
I0403 14:59:33.161718 11471 net.cpp:148] Top shape: 24 160 14 14 (752640)
I0403 14:59:33.161733 11471 net.cpp:156] Memory required for data: 1224087072
I0403 14:59:33.161747 11471 layer_factory.hpp:77] Creating layer inception_4e/3x3
I0403 14:59:33.161769 11471 net.cpp:91] Creating Layer inception_4e/3x3
I0403 14:59:33.161788 11471 net.cpp:425] inception_4e/3x3 <- inception_4e/3x3_reduce
I0403 14:59:33.161806 11471 net.cpp:399] inception_4e/3x3 -> inception_4e/3x3
I0403 14:59:33.166836 11471 net.cpp:141] Setting up inception_4e/3x3
I0403 14:59:33.166877 11471 net.cpp:148] Top shape: 24 320 14 14 (1505280)
I0403 14:59:33.166893 11471 net.cpp:156] Memory required for data: 1230108192
I0403 14:59:33.166909 11471 layer_factory.hpp:77] Creating layer inception_4e/relu_3x3
I0403 14:59:33.166929 11471 net.cpp:91] Creating Layer inception_4e/relu_3x3
I0403 14:59:33.166945 11471 net.cpp:425] inception_4e/relu_3x3 <- inception_4e/3x3
I0403 14:59:33.166962 11471 net.cpp:386] inception_4e/relu_3x3 -> inception_4e/3x3 (in-place)
I0403 14:59:33.167256 11471 net.cpp:141] Setting up inception_4e/relu_3x3
I0403 14:59:33.167284 11471 net.cpp:148] Top shape: 24 320 14 14 (1505280)
I0403 14:59:33.167299 11471 net.cpp:156] Memory required for data: 1236129312
I0403 14:59:33.167314 11471 layer_factory.hpp:77] Creating layer inception_4e/5x5_reduce
I0403 14:59:33.167342 11471 net.cpp:91] Creating Layer inception_4e/5x5_reduce
I0403 14:59:33.167361 11471 net.cpp:425] inception_4e/5x5_reduce <- inception_4d/output_inception_4d/output_0_split_3
I0403 14:59:33.167378 11471 net.cpp:399] inception_4e/5x5_reduce -> inception_4e/5x5_reduce
I0403 14:59:33.168433 11471 net.cpp:141] Setting up inception_4e/5x5_reduce
I0403 14:59:33.168459 11471 net.cpp:148] Top shape: 24 32 14 14 (150528)
I0403 14:59:33.168474 11471 net.cpp:156] Memory required for data: 1236731424
I0403 14:59:33.168493 11471 layer_factory.hpp:77] Creating layer inception_4e/relu_5x5_reduce
I0403 14:59:33.168511 11471 net.cpp:91] Creating Layer inception_4e/relu_5x5_reduce
I0403 14:59:33.168527 11471 net.cpp:425] inception_4e/relu_5x5_reduce <- inception_4e/5x5_reduce
I0403 14:59:33.168543 11471 net.cpp:386] inception_4e/relu_5x5_reduce -> inception_4e/5x5_reduce (in-place)
I0403 14:59:33.168843 11471 net.cpp:141] Setting up inception_4e/relu_5x5_reduce
I0403 14:59:33.168866 11471 net.cpp:148] Top shape: 24 32 14 14 (150528)
I0403 14:59:33.168881 11471 net.cpp:156] Memory required for data: 1237333536
I0403 14:59:33.168896 11471 layer_factory.hpp:77] Creating layer inception_4e/5x5
I0403 14:59:33.168933 11471 net.cpp:91] Creating Layer inception_4e/5x5
I0403 14:59:33.168951 11471 net.cpp:425] inception_4e/5x5 <- inception_4e/5x5_reduce
I0403 14:59:33.169095 11471 net.cpp:399] inception_4e/5x5 -> inception_4e/5x5
I0403 14:59:33.170912 11471 net.cpp:141] Setting up inception_4e/5x5
I0403 14:59:33.170939 11471 net.cpp:148] Top shape: 24 128 14 14 (602112)
I0403 14:59:33.170954 11471 net.cpp:156] Memory required for data: 1239741984
I0403 14:59:33.170971 11471 layer_factory.hpp:77] Creating layer inception_4e/relu_5x5
I0403 14:59:33.170989 11471 net.cpp:91] Creating Layer inception_4e/relu_5x5
I0403 14:59:33.171005 11471 net.cpp:425] inception_4e/relu_5x5 <- inception_4e/5x5
I0403 14:59:33.171023 11471 net.cpp:386] inception_4e/relu_5x5 -> inception_4e/5x5 (in-place)
I0403 14:59:33.171216 11471 net.cpp:141] Setting up inception_4e/relu_5x5
I0403 14:59:33.171239 11471 net.cpp:148] Top shape: 24 128 14 14 (602112)
I0403 14:59:33.171253 11471 net.cpp:156] Memory required for data: 1242150432
I0403 14:59:33.171267 11471 layer_factory.hpp:77] Creating layer inception_4e/pool
I0403 14:59:33.171286 11471 net.cpp:91] Creating Layer inception_4e/pool
I0403 14:59:33.171303 11471 net.cpp:425] inception_4e/pool <- inception_4d/output_inception_4d/output_0_split_4
I0403 14:59:33.171325 11471 net.cpp:399] inception_4e/pool -> inception_4e/pool
I0403 14:59:33.171396 11471 net.cpp:141] Setting up inception_4e/pool
I0403 14:59:33.171417 11471 net.cpp:148] Top shape: 24 528 14 14 (2483712)
I0403 14:59:33.171432 11471 net.cpp:156] Memory required for data: 1252085280
I0403 14:59:33.171445 11471 layer_factory.hpp:77] Creating layer inception_4e/pool_proj
I0403 14:59:33.171466 11471 net.cpp:91] Creating Layer inception_4e/pool_proj
I0403 14:59:33.171483 11471 net.cpp:425] inception_4e/pool_proj <- inception_4e/pool
I0403 14:59:33.171502 11471 net.cpp:399] inception_4e/pool_proj -> inception_4e/pool_proj
I0403 14:59:33.172971 11471 net.cpp:141] Setting up inception_4e/pool_proj
I0403 14:59:33.173012 11471 net.cpp:148] Top shape: 24 128 14 14 (602112)
I0403 14:59:33.173028 11471 net.cpp:156] Memory required for data: 1254493728
I0403 14:59:33.173045 11471 layer_factory.hpp:77] Creating layer inception_4e/relu_pool_proj
I0403 14:59:33.173063 11471 net.cpp:91] Creating Layer inception_4e/relu_pool_proj
I0403 14:59:33.173077 11471 net.cpp:425] inception_4e/relu_pool_proj <- inception_4e/pool_proj
I0403 14:59:33.173096 11471 net.cpp:386] inception_4e/relu_pool_proj -> inception_4e/pool_proj (in-place)
I0403 14:59:33.173391 11471 net.cpp:141] Setting up inception_4e/relu_pool_proj
I0403 14:59:33.173418 11471 net.cpp:148] Top shape: 24 128 14 14 (602112)
I0403 14:59:33.173434 11471 net.cpp:156] Memory required for data: 1256902176
I0403 14:59:33.173447 11471 layer_factory.hpp:77] Creating layer inception_4e/output
I0403 14:59:33.173465 11471 net.cpp:91] Creating Layer inception_4e/output
I0403 14:59:33.173480 11471 net.cpp:425] inception_4e/output <- inception_4e/1x1
I0403 14:59:33.173496 11471 net.cpp:425] inception_4e/output <- inception_4e/3x3
I0403 14:59:33.173511 11471 net.cpp:425] inception_4e/output <- inception_4e/5x5
I0403 14:59:33.173526 11471 net.cpp:425] inception_4e/output <- inception_4e/pool_proj
I0403 14:59:33.173542 11471 net.cpp:399] inception_4e/output -> inception_4e/output
I0403 14:59:33.173590 11471 net.cpp:141] Setting up inception_4e/output
I0403 14:59:33.173614 11471 net.cpp:148] Top shape: 24 832 14 14 (3913728)
I0403 14:59:33.173626 11471 net.cpp:156] Memory required for data: 1272557088
I0403 14:59:33.173640 11471 layer_factory.hpp:77] Creating layer pool4/3x3_s2
I0403 14:59:33.173660 11471 net.cpp:91] Creating Layer pool4/3x3_s2
I0403 14:59:33.173674 11471 net.cpp:425] pool4/3x3_s2 <- inception_4e/output
I0403 14:59:33.173691 11471 net.cpp:399] pool4/3x3_s2 -> pool4/3x3_s2
I0403 14:59:33.173755 11471 net.cpp:141] Setting up pool4/3x3_s2
I0403 14:59:33.173779 11471 net.cpp:148] Top shape: 24 832 7 7 (978432)
I0403 14:59:33.173792 11471 net.cpp:156] Memory required for data: 1276470816
I0403 14:59:33.173806 11471 layer_factory.hpp:77] Creating layer pool4/3x3_s2_pool4/3x3_s2_0_split
I0403 14:59:33.173823 11471 net.cpp:91] Creating Layer pool4/3x3_s2_pool4/3x3_s2_0_split
I0403 14:59:33.173837 11471 net.cpp:425] pool4/3x3_s2_pool4/3x3_s2_0_split <- pool4/3x3_s2
I0403 14:59:33.173856 11471 net.cpp:399] pool4/3x3_s2_pool4/3x3_s2_0_split -> pool4/3x3_s2_pool4/3x3_s2_0_split_0
I0403 14:59:33.173877 11471 net.cpp:399] pool4/3x3_s2_pool4/3x3_s2_0_split -> pool4/3x3_s2_pool4/3x3_s2_0_split_1
I0403 14:59:33.173895 11471 net.cpp:399] pool4/3x3_s2_pool4/3x3_s2_0_split -> pool4/3x3_s2_pool4/3x3_s2_0_split_2
I0403 14:59:33.173913 11471 net.cpp:399] pool4/3x3_s2_pool4/3x3_s2_0_split -> pool4/3x3_s2_pool4/3x3_s2_0_split_3
I0403 14:59:33.174000 11471 net.cpp:141] Setting up pool4/3x3_s2_pool4/3x3_s2_0_split
I0403 14:59:33.174023 11471 net.cpp:148] Top shape: 24 832 7 7 (978432)
I0403 14:59:33.174041 11471 net.cpp:148] Top shape: 24 832 7 7 (978432)
I0403 14:59:33.174055 11471 net.cpp:148] Top shape: 24 832 7 7 (978432)
I0403 14:59:33.174069 11471 net.cpp:148] Top shape: 24 832 7 7 (978432)
I0403 14:59:33.174082 11471 net.cpp:156] Memory required for data: 1292125728
I0403 14:59:33.174096 11471 layer_factory.hpp:77] Creating layer inception_5a/1x1
I0403 14:59:33.174118 11471 net.cpp:91] Creating Layer inception_5a/1x1
I0403 14:59:33.174134 11471 net.cpp:425] inception_5a/1x1 <- pool4/3x3_s2_pool4/3x3_s2_0_split_0
I0403 14:59:33.174151 11471 net.cpp:399] inception_5a/1x1 -> inception_5a/1x1
I0403 14:59:33.176926 11471 net.cpp:141] Setting up inception_5a/1x1
I0403 14:59:33.176954 11471 net.cpp:148] Top shape: 24 256 7 7 (301056)
I0403 14:59:33.176970 11471 net.cpp:156] Memory required for data: 1293329952
I0403 14:59:33.176986 11471 layer_factory.hpp:77] Creating layer inception_5a/relu_1x1
I0403 14:59:33.177003 11471 net.cpp:91] Creating Layer inception_5a/relu_1x1
I0403 14:59:33.177022 11471 net.cpp:425] inception_5a/relu_1x1 <- inception_5a/1x1
I0403 14:59:33.177038 11471 net.cpp:386] inception_5a/relu_1x1 -> inception_5a/1x1 (in-place)
I0403 14:59:33.177348 11471 net.cpp:141] Setting up inception_5a/relu_1x1
I0403 14:59:33.177373 11471 net.cpp:148] Top shape: 24 256 7 7 (301056)
I0403 14:59:33.177388 11471 net.cpp:156] Memory required for data: 1294534176
I0403 14:59:33.177402 11471 layer_factory.hpp:77] Creating layer inception_5a/3x3_reduce
I0403 14:59:33.177423 11471 net.cpp:91] Creating Layer inception_5a/3x3_reduce
I0403 14:59:33.177439 11471 net.cpp:425] inception_5a/3x3_reduce <- pool4/3x3_s2_pool4/3x3_s2_0_split_1
I0403 14:59:33.177459 11471 net.cpp:399] inception_5a/3x3_reduce -> inception_5a/3x3_reduce
I0403 14:59:33.179843 11471 net.cpp:141] Setting up inception_5a/3x3_reduce
I0403 14:59:33.179885 11471 net.cpp:148] Top shape: 24 160 7 7 (188160)
I0403 14:59:33.179903 11471 net.cpp:156] Memory required for data: 1295286816
I0403 14:59:33.179919 11471 layer_factory.hpp:77] Creating layer inception_5a/relu_3x3_reduce
I0403 14:59:33.179937 11471 net.cpp:91] Creating Layer inception_5a/relu_3x3_reduce
I0403 14:59:33.179954 11471 net.cpp:425] inception_5a/relu_3x3_reduce <- inception_5a/3x3_reduce
I0403 14:59:33.179970 11471 net.cpp:386] inception_5a/relu_3x3_reduce -> inception_5a/3x3_reduce (in-place)
I0403 14:59:33.180160 11471 net.cpp:141] Setting up inception_5a/relu_3x3_reduce
I0403 14:59:33.180184 11471 net.cpp:148] Top shape: 24 160 7 7 (188160)
I0403 14:59:33.180198 11471 net.cpp:156] Memory required for data: 1296039456
I0403 14:59:33.180213 11471 layer_factory.hpp:77] Creating layer inception_5a/3x3
I0403 14:59:33.180235 11471 net.cpp:91] Creating Layer inception_5a/3x3
I0403 14:59:33.180253 11471 net.cpp:425] inception_5a/3x3 <- inception_5a/3x3_reduce
I0403 14:59:33.180274 11471 net.cpp:399] inception_5a/3x3 -> inception_5a/3x3
I0403 14:59:33.185221 11471 net.cpp:141] Setting up inception_5a/3x3
I0403 14:59:33.185250 11471 net.cpp:148] Top shape: 24 320 7 7 (376320)
I0403 14:59:33.185264 11471 net.cpp:156] Memory required for data: 1297544736
I0403 14:59:33.185282 11471 layer_factory.hpp:77] Creating layer inception_5a/relu_3x3
I0403 14:59:33.185299 11471 net.cpp:91] Creating Layer inception_5a/relu_3x3
I0403 14:59:33.185314 11471 net.cpp:425] inception_5a/relu_3x3 <- inception_5a/3x3
I0403 14:59:33.185341 11471 net.cpp:386] inception_5a/relu_3x3 -> inception_5a/3x3 (in-place)
I0403 14:59:33.185662 11471 net.cpp:141] Setting up inception_5a/relu_3x3
I0403 14:59:33.185688 11471 net.cpp:148] Top shape: 24 320 7 7 (376320)
I0403 14:59:33.185703 11471 net.cpp:156] Memory required for data: 1299050016
I0403 14:59:33.185716 11471 layer_factory.hpp:77] Creating layer inception_5a/5x5_reduce
I0403 14:59:33.185737 11471 net.cpp:91] Creating Layer inception_5a/5x5_reduce
I0403 14:59:33.185755 11471 net.cpp:425] inception_5a/5x5_reduce <- pool4/3x3_s2_pool4/3x3_s2_0_split_2
I0403 14:59:33.185775 11471 net.cpp:399] inception_5a/5x5_reduce -> inception_5a/5x5_reduce
I0403 14:59:33.186913 11471 net.cpp:141] Setting up inception_5a/5x5_reduce
I0403 14:59:33.186940 11471 net.cpp:148] Top shape: 24 32 7 7 (37632)
I0403 14:59:33.186955 11471 net.cpp:156] Memory required for data: 1299200544
I0403 14:59:33.186972 11471 layer_factory.hpp:77] Creating layer inception_5a/relu_5x5_reduce
I0403 14:59:33.186991 11471 net.cpp:91] Creating Layer inception_5a/relu_5x5_reduce
I0403 14:59:33.187007 11471 net.cpp:425] inception_5a/relu_5x5_reduce <- inception_5a/5x5_reduce
I0403 14:59:33.187024 11471 net.cpp:386] inception_5a/relu_5x5_reduce -> inception_5a/5x5_reduce (in-place)
I0403 14:59:33.187324 11471 net.cpp:141] Setting up inception_5a/relu_5x5_reduce
I0403 14:59:33.187348 11471 net.cpp:148] Top shape: 24 32 7 7 (37632)
I0403 14:59:33.187363 11471 net.cpp:156] Memory required for data: 1299351072
I0403 14:59:33.187377 11471 layer_factory.hpp:77] Creating layer inception_5a/5x5
I0403 14:59:33.187398 11471 net.cpp:91] Creating Layer inception_5a/5x5
I0403 14:59:33.187415 11471 net.cpp:425] inception_5a/5x5 <- inception_5a/5x5_reduce
I0403 14:59:33.187435 11471 net.cpp:399] inception_5a/5x5 -> inception_5a/5x5
I0403 14:59:33.189111 11471 net.cpp:141] Setting up inception_5a/5x5
I0403 14:59:33.189149 11471 net.cpp:148] Top shape: 24 128 7 7 (150528)
I0403 14:59:33.189165 11471 net.cpp:156] Memory required for data: 1299953184
I0403 14:59:33.189182 11471 layer_factory.hpp:77] Creating layer inception_5a/relu_5x5
I0403 14:59:33.189200 11471 net.cpp:91] Creating Layer inception_5a/relu_5x5
I0403 14:59:33.189215 11471 net.cpp:425] inception_5a/relu_5x5 <- inception_5a/5x5
I0403 14:59:33.189234 11471 net.cpp:386] inception_5a/relu_5x5 -> inception_5a/5x5 (in-place)
I0403 14:59:33.189429 11471 net.cpp:141] Setting up inception_5a/relu_5x5
I0403 14:59:33.189451 11471 net.cpp:148] Top shape: 24 128 7 7 (150528)
I0403 14:59:33.189465 11471 net.cpp:156] Memory required for data: 1300555296
I0403 14:59:33.189479 11471 layer_factory.hpp:77] Creating layer inception_5a/pool
I0403 14:59:33.189499 11471 net.cpp:91] Creating Layer inception_5a/pool
I0403 14:59:33.189515 11471 net.cpp:425] inception_5a/pool <- pool4/3x3_s2_pool4/3x3_s2_0_split_3
I0403 14:59:33.189532 11471 net.cpp:399] inception_5a/pool -> inception_5a/pool
I0403 14:59:33.189601 11471 net.cpp:141] Setting up inception_5a/pool
I0403 14:59:33.189625 11471 net.cpp:148] Top shape: 24 832 7 7 (978432)
I0403 14:59:33.189638 11471 net.cpp:156] Memory required for data: 1304469024
I0403 14:59:33.189652 11471 layer_factory.hpp:77] Creating layer inception_5a/pool_proj
I0403 14:59:33.189673 11471 net.cpp:91] Creating Layer inception_5a/pool_proj
I0403 14:59:33.189690 11471 net.cpp:425] inception_5a/pool_proj <- inception_5a/pool
I0403 14:59:33.189710 11471 net.cpp:399] inception_5a/pool_proj -> inception_5a/pool_proj
I0403 14:59:33.192055 11471 net.cpp:141] Setting up inception_5a/pool_proj
I0403 14:59:33.192086 11471 net.cpp:148] Top shape: 24 128 7 7 (150528)
I0403 14:59:33.192103 11471 net.cpp:156] Memory required for data: 1305071136
I0403 14:59:33.192121 11471 layer_factory.hpp:77] Creating layer inception_5a/relu_pool_proj
I0403 14:59:33.192139 11471 net.cpp:91] Creating Layer inception_5a/relu_pool_proj
I0403 14:59:33.192155 11471 net.cpp:425] inception_5a/relu_pool_proj <- inception_5a/pool_proj
I0403 14:59:33.192174 11471 net.cpp:386] inception_5a/relu_pool_proj -> inception_5a/pool_proj (in-place)
I0403 14:59:33.192481 11471 net.cpp:141] Setting up inception_5a/relu_pool_proj
I0403 14:59:33.192510 11471 net.cpp:148] Top shape: 24 128 7 7 (150528)
I0403 14:59:33.192526 11471 net.cpp:156] Memory required for data: 1305673248
I0403 14:59:33.192540 11471 layer_factory.hpp:77] Creating layer inception_5a/output
I0403 14:59:33.192558 11471 net.cpp:91] Creating Layer inception_5a/output
I0403 14:59:33.192574 11471 net.cpp:425] inception_5a/output <- inception_5a/1x1
I0403 14:59:33.192589 11471 net.cpp:425] inception_5a/output <- inception_5a/3x3
I0403 14:59:33.192605 11471 net.cpp:425] inception_5a/output <- inception_5a/5x5
I0403 14:59:33.192620 11471 net.cpp:425] inception_5a/output <- inception_5a/pool_proj
I0403 14:59:33.192639 11471 net.cpp:399] inception_5a/output -> inception_5a/output
I0403 14:59:33.192689 11471 net.cpp:141] Setting up inception_5a/output
I0403 14:59:33.192711 11471 net.cpp:148] Top shape: 24 832 7 7 (978432)
I0403 14:59:33.192725 11471 net.cpp:156] Memory required for data: 1309586976
I0403 14:59:33.192740 11471 layer_factory.hpp:77] Creating layer inception_5a/output_inception_5a/output_0_split
I0403 14:59:33.192760 11471 net.cpp:91] Creating Layer inception_5a/output_inception_5a/output_0_split
I0403 14:59:33.192777 11471 net.cpp:425] inception_5a/output_inception_5a/output_0_split <- inception_5a/output
I0403 14:59:33.192795 11471 net.cpp:399] inception_5a/output_inception_5a/output_0_split -> inception_5a/output_inception_5a/output_0_split_0
I0403 14:59:33.192813 11471 net.cpp:399] inception_5a/output_inception_5a/output_0_split -> inception_5a/output_inception_5a/output_0_split_1
I0403 14:59:33.192836 11471 net.cpp:399] inception_5a/output_inception_5a/output_0_split -> inception_5a/output_inception_5a/output_0_split_2
I0403 14:59:33.192857 11471 net.cpp:399] inception_5a/output_inception_5a/output_0_split -> inception_5a/output_inception_5a/output_0_split_3
I0403 14:59:33.192968 11471 net.cpp:141] Setting up inception_5a/output_inception_5a/output_0_split
I0403 14:59:33.192991 11471 net.cpp:148] Top shape: 24 832 7 7 (978432)
I0403 14:59:33.193007 11471 net.cpp:148] Top shape: 24 832 7 7 (978432)
I0403 14:59:33.193022 11471 net.cpp:148] Top shape: 24 832 7 7 (978432)
I0403 14:59:33.193037 11471 net.cpp:148] Top shape: 24 832 7 7 (978432)
I0403 14:59:33.193051 11471 net.cpp:156] Memory required for data: 1325241888
I0403 14:59:33.193065 11471 layer_factory.hpp:77] Creating layer inception_5b/1x1
I0403 14:59:33.193086 11471 net.cpp:91] Creating Layer inception_5b/1x1
I0403 14:59:33.193104 11471 net.cpp:425] inception_5b/1x1 <- inception_5a/output_inception_5a/output_0_split_0
I0403 14:59:33.193125 11471 net.cpp:399] inception_5b/1x1 -> inception_5b/1x1
I0403 14:59:33.196897 11471 net.cpp:141] Setting up inception_5b/1x1
I0403 14:59:33.196928 11471 net.cpp:148] Top shape: 24 384 7 7 (451584)
I0403 14:59:33.196944 11471 net.cpp:156] Memory required for data: 1327048224
I0403 14:59:33.196962 11471 layer_factory.hpp:77] Creating layer inception_5b/relu_1x1
I0403 14:59:33.196980 11471 net.cpp:91] Creating Layer inception_5b/relu_1x1
I0403 14:59:33.196995 11471 net.cpp:425] inception_5b/relu_1x1 <- inception_5b/1x1
I0403 14:59:33.197012 11471 net.cpp:386] inception_5b/relu_1x1 -> inception_5b/1x1 (in-place)
I0403 14:59:33.197327 11471 net.cpp:141] Setting up inception_5b/relu_1x1
I0403 14:59:33.197355 11471 net.cpp:148] Top shape: 24 384 7 7 (451584)
I0403 14:59:33.197371 11471 net.cpp:156] Memory required for data: 1328854560
I0403 14:59:33.197386 11471 layer_factory.hpp:77] Creating layer inception_5b/3x3_reduce
I0403 14:59:33.197407 11471 net.cpp:91] Creating Layer inception_5b/3x3_reduce
I0403 14:59:33.197425 11471 net.cpp:425] inception_5b/3x3_reduce <- inception_5a/output_inception_5a/output_0_split_1
I0403 14:59:33.197444 11471 net.cpp:399] inception_5b/3x3_reduce -> inception_5b/3x3_reduce
I0403 14:59:33.200145 11471 net.cpp:141] Setting up inception_5b/3x3_reduce
I0403 14:59:33.200176 11471 net.cpp:148] Top shape: 24 192 7 7 (225792)
I0403 14:59:33.200193 11471 net.cpp:156] Memory required for data: 1329757728
I0403 14:59:33.200211 11471 layer_factory.hpp:77] Creating layer inception_5b/relu_3x3_reduce
I0403 14:59:33.200228 11471 net.cpp:91] Creating Layer inception_5b/relu_3x3_reduce
I0403 14:59:33.200244 11471 net.cpp:425] inception_5b/relu_3x3_reduce <- inception_5b/3x3_reduce
I0403 14:59:33.200264 11471 net.cpp:386] inception_5b/relu_3x3_reduce -> inception_5b/3x3_reduce (in-place)
I0403 14:59:33.200465 11471 net.cpp:141] Setting up inception_5b/relu_3x3_reduce
I0403 14:59:33.200489 11471 net.cpp:148] Top shape: 24 192 7 7 (225792)
I0403 14:59:33.200505 11471 net.cpp:156] Memory required for data: 1330660896
I0403 14:59:33.200518 11471 layer_factory.hpp:77] Creating layer inception_5b/3x3
I0403 14:59:33.200541 11471 net.cpp:91] Creating Layer inception_5b/3x3
I0403 14:59:33.200557 11471 net.cpp:425] inception_5b/3x3 <- inception_5b/3x3_reduce
I0403 14:59:33.200579 11471 net.cpp:399] inception_5b/3x3 -> inception_5b/3x3
I0403 14:59:33.207334 11471 net.cpp:141] Setting up inception_5b/3x3
I0403 14:59:33.207365 11471 net.cpp:148] Top shape: 24 384 7 7 (451584)
I0403 14:59:33.207381 11471 net.cpp:156] Memory required for data: 1332467232
I0403 14:59:33.207398 11471 layer_factory.hpp:77] Creating layer inception_5b/relu_3x3
I0403 14:59:33.207417 11471 net.cpp:91] Creating Layer inception_5b/relu_3x3
I0403 14:59:33.207432 11471 net.cpp:425] inception_5b/relu_3x3 <- inception_5b/3x3
I0403 14:59:33.207454 11471 net.cpp:386] inception_5b/relu_3x3 -> inception_5b/3x3 (in-place)
I0403 14:59:33.207751 11471 net.cpp:141] Setting up inception_5b/relu_3x3
I0403 14:59:33.207779 11471 net.cpp:148] Top shape: 24 384 7 7 (451584)
I0403 14:59:33.207795 11471 net.cpp:156] Memory required for data: 1334273568
I0403 14:59:33.207809 11471 layer_factory.hpp:77] Creating layer inception_5b/5x5_reduce
I0403 14:59:33.207846 11471 net.cpp:91] Creating Layer inception_5b/5x5_reduce
I0403 14:59:33.207865 11471 net.cpp:425] inception_5b/5x5_reduce <- inception_5a/output_inception_5a/output_0_split_2
I0403 14:59:33.207885 11471 net.cpp:399] inception_5b/5x5_reduce -> inception_5b/5x5_reduce
I0403 14:59:33.209159 11471 net.cpp:141] Setting up inception_5b/5x5_reduce
I0403 14:59:33.209188 11471 net.cpp:148] Top shape: 24 48 7 7 (56448)
I0403 14:59:33.209203 11471 net.cpp:156] Memory required for data: 1334499360
I0403 14:59:33.209221 11471 layer_factory.hpp:77] Creating layer inception_5b/relu_5x5_reduce
I0403 14:59:33.209238 11471 net.cpp:91] Creating Layer inception_5b/relu_5x5_reduce
I0403 14:59:33.209252 11471 net.cpp:425] inception_5b/relu_5x5_reduce <- inception_5b/5x5_reduce
I0403 14:59:33.209271 11471 net.cpp:386] inception_5b/relu_5x5_reduce -> inception_5b/5x5_reduce (in-place)
I0403 14:59:33.209642 11471 net.cpp:141] Setting up inception_5b/relu_5x5_reduce
I0403 14:59:33.209667 11471 net.cpp:148] Top shape: 24 48 7 7 (56448)
I0403 14:59:33.209681 11471 net.cpp:156] Memory required for data: 1334725152
I0403 14:59:33.209697 11471 layer_factory.hpp:77] Creating layer inception_5b/5x5
I0403 14:59:33.209715 11471 net.cpp:91] Creating Layer inception_5b/5x5
I0403 14:59:33.209731 11471 net.cpp:425] inception_5b/5x5 <- inception_5b/5x5_reduce
I0403 14:59:33.209749 11471 net.cpp:399] inception_5b/5x5 -> inception_5b/5x5
I0403 14:59:33.211768 11471 net.cpp:141] Setting up inception_5b/5x5
I0403 14:59:33.211796 11471 net.cpp:148] Top shape: 24 128 7 7 (150528)
I0403 14:59:33.211810 11471 net.cpp:156] Memory required for data: 1335327264
I0403 14:59:33.211827 11471 layer_factory.hpp:77] Creating layer inception_5b/relu_5x5
I0403 14:59:33.211845 11471 net.cpp:91] Creating Layer inception_5b/relu_5x5
I0403 14:59:33.211864 11471 net.cpp:425] inception_5b/relu_5x5 <- inception_5b/5x5
I0403 14:59:33.211882 11471 net.cpp:386] inception_5b/relu_5x5 -> inception_5b/5x5 (in-place)
I0403 14:59:33.212082 11471 net.cpp:141] Setting up inception_5b/relu_5x5
I0403 14:59:33.212106 11471 net.cpp:148] Top shape: 24 128 7 7 (150528)
I0403 14:59:33.212121 11471 net.cpp:156] Memory required for data: 1335929376
I0403 14:59:33.212133 11471 layer_factory.hpp:77] Creating layer inception_5b/pool
I0403 14:59:33.212152 11471 net.cpp:91] Creating Layer inception_5b/pool
I0403 14:59:33.212168 11471 net.cpp:425] inception_5b/pool <- inception_5a/output_inception_5a/output_0_split_3
I0403 14:59:33.212188 11471 net.cpp:399] inception_5b/pool -> inception_5b/pool
I0403 14:59:33.212258 11471 net.cpp:141] Setting up inception_5b/pool
I0403 14:59:33.212281 11471 net.cpp:148] Top shape: 24 832 7 7 (978432)
I0403 14:59:33.212296 11471 net.cpp:156] Memory required for data: 1339843104
I0403 14:59:33.212309 11471 layer_factory.hpp:77] Creating layer inception_5b/pool_proj
I0403 14:59:33.212343 11471 net.cpp:91] Creating Layer inception_5b/pool_proj
I0403 14:59:33.212362 11471 net.cpp:425] inception_5b/pool_proj <- inception_5b/pool
I0403 14:59:33.212383 11471 net.cpp:399] inception_5b/pool_proj -> inception_5b/pool_proj
I0403 14:59:33.214643 11471 net.cpp:141] Setting up inception_5b/pool_proj
I0403 14:59:33.214670 11471 net.cpp:148] Top shape: 24 128 7 7 (150528)
I0403 14:59:33.214685 11471 net.cpp:156] Memory required for data: 1340445216
I0403 14:59:33.214704 11471 layer_factory.hpp:77] Creating layer inception_5b/relu_pool_proj
I0403 14:59:33.214721 11471 net.cpp:91] Creating Layer inception_5b/relu_pool_proj
I0403 14:59:33.214737 11471 net.cpp:425] inception_5b/relu_pool_proj <- inception_5b/pool_proj
I0403 14:59:33.214756 11471 net.cpp:386] inception_5b/relu_pool_proj -> inception_5b/pool_proj (in-place)
I0403 14:59:33.215050 11471 net.cpp:141] Setting up inception_5b/relu_pool_proj
I0403 14:59:33.215076 11471 net.cpp:148] Top shape: 24 128 7 7 (150528)
I0403 14:59:33.215090 11471 net.cpp:156] Memory required for data: 1341047328
I0403 14:59:33.215106 11471 layer_factory.hpp:77] Creating layer inception_5b/output
I0403 14:59:33.215121 11471 net.cpp:91] Creating Layer inception_5b/output
I0403 14:59:33.215152 11471 net.cpp:425] inception_5b/output <- inception_5b/1x1
I0403 14:59:33.215168 11471 net.cpp:425] inception_5b/output <- inception_5b/3x3
I0403 14:59:33.215184 11471 net.cpp:425] inception_5b/output <- inception_5b/5x5
I0403 14:59:33.215199 11471 net.cpp:425] inception_5b/output <- inception_5b/pool_proj
I0403 14:59:33.215219 11471 net.cpp:399] inception_5b/output -> inception_5b/output
I0403 14:59:33.215268 11471 net.cpp:141] Setting up inception_5b/output
I0403 14:59:33.215291 11471 net.cpp:148] Top shape: 24 1024 7 7 (1204224)
I0403 14:59:33.215308 11471 net.cpp:156] Memory required for data: 1345864224
I0403 14:59:33.215328 11471 layer_factory.hpp:77] Creating layer pool5/7x7_s1
I0403 14:59:33.215347 11471 net.cpp:91] Creating Layer pool5/7x7_s1
I0403 14:59:33.215361 11471 net.cpp:425] pool5/7x7_s1 <- inception_5b/output
I0403 14:59:33.215379 11471 net.cpp:399] pool5/7x7_s1 -> pool5/7x7_s1
I0403 14:59:33.215591 11471 net.cpp:141] Setting up pool5/7x7_s1
I0403 14:59:33.215615 11471 net.cpp:148] Top shape: 24 1024 1 1 (24576)
I0403 14:59:33.215629 11471 net.cpp:156] Memory required for data: 1345962528
I0403 14:59:33.215642 11471 layer_factory.hpp:77] Creating layer pool5/drop_7x7_s1
I0403 14:59:33.215659 11471 net.cpp:91] Creating Layer pool5/drop_7x7_s1
I0403 14:59:33.215674 11471 net.cpp:425] pool5/drop_7x7_s1 <- pool5/7x7_s1
I0403 14:59:33.215693 11471 net.cpp:386] pool5/drop_7x7_s1 -> pool5/7x7_s1 (in-place)
I0403 14:59:33.215741 11471 net.cpp:141] Setting up pool5/drop_7x7_s1
I0403 14:59:33.215765 11471 net.cpp:148] Top shape: 24 1024 1 1 (24576)
I0403 14:59:33.215780 11471 net.cpp:156] Memory required for data: 1346060832
I0403 14:59:33.215795 11471 layer_factory.hpp:77] Creating layer loss3/classifier_plantvillage
I0403 14:59:33.215812 11471 net.cpp:91] Creating Layer loss3/classifier_plantvillage
I0403 14:59:33.215827 11471 net.cpp:425] loss3/classifier_plantvillage <- pool5/7x7_s1
I0403 14:59:33.215847 11471 net.cpp:399] loss3/classifier_plantvillage -> loss3/classifier_plantvillage
I0403 14:59:33.216266 11471 net.cpp:141] Setting up loss3/classifier_plantvillage
I0403 14:59:33.216290 11471 net.cpp:148] Top shape: 24 38 (912)
I0403 14:59:33.216303 11471 net.cpp:156] Memory required for data: 1346064480
I0403 14:59:33.216325 11471 layer_factory.hpp:77] Creating layer loss3/classifier_plantvillage_loss3/classifier_plantvillage_0_split
I0403 14:59:33.216346 11471 net.cpp:91] Creating Layer loss3/classifier_plantvillage_loss3/classifier_plantvillage_0_split
I0403 14:59:33.216362 11471 net.cpp:425] loss3/classifier_plantvillage_loss3/classifier_plantvillage_0_split <- loss3/classifier_plantvillage
I0403 14:59:33.216389 11471 net.cpp:399] loss3/classifier_plantvillage_loss3/classifier_plantvillage_0_split -> loss3/classifier_plantvillage_loss3/classifier_plantvillage_0_split_0
I0403 14:59:33.216413 11471 net.cpp:399] loss3/classifier_plantvillage_loss3/classifier_plantvillage_0_split -> loss3/classifier_plantvillage_loss3/classifier_plantvillage_0_split_1
I0403 14:59:33.216444 11471 net.cpp:399] loss3/classifier_plantvillage_loss3/classifier_plantvillage_0_split -> loss3/classifier_plantvillage_loss3/classifier_plantvillage_0_split_2
I0403 14:59:33.216467 11471 net.cpp:399] loss3/classifier_plantvillage_loss3/classifier_plantvillage_0_split -> loss3/classifier_plantvillage_loss3/classifier_plantvillage_0_split_3
I0403 14:59:33.216565 11471 net.cpp:141] Setting up loss3/classifier_plantvillage_loss3/classifier_plantvillage_0_split
I0403 14:59:33.216588 11471 net.cpp:148] Top shape: 24 38 (912)
I0403 14:59:33.216603 11471 net.cpp:148] Top shape: 24 38 (912)
I0403 14:59:33.216617 11471 net.cpp:148] Top shape: 24 38 (912)
I0403 14:59:33.216630 11471 net.cpp:148] Top shape: 24 38 (912)
I0403 14:59:33.216645 11471 net.cpp:156] Memory required for data: 1346079072
I0403 14:59:33.216657 11471 layer_factory.hpp:77] Creating layer loss1/loss
I0403 14:59:33.216678 11471 net.cpp:91] Creating Layer loss1/loss
I0403 14:59:33.216696 11471 net.cpp:425] loss1/loss <- loss1/classifier_plantvillage_loss1/classifier_plantvillage_0_split_0
I0403 14:59:33.216725 11471 net.cpp:425] loss1/loss <- label_data_1_split_0
…
