…
I0403 15:17:53.070439 11803 net.cpp:313] The NetState phase (1) differed from the phase (0) specified by a rule in layer data
I0403 15:17:53.071605 11803 net.cpp:49] Initializing net from parameters: 
state {
  phase: TEST
}
layer {
  name: "data"
  type: "Data"
  top: "data"
  top: "label"
  include {
    phase: TEST
  }
  transform_param {
    mirror: false
    crop_size: 224
    mean_file: "/home/mohanty/data/final_dataset/lmdb/segmented-40-60/mean.binaryproto"
  }
  data_param {
    source: "/home/mohanty/data/final_dataset/lmdb/segmented-40-60/test_db"
    batch_size: 24
    backend: LMDB
  }
}
layer {
  name: "conv1/7x7_s2"
  type: "Convolution"
  bottom: "data"
  top: "conv1/7x7_s2"
  param {
    lr_mult: 1
    decay_mult: 1
  }
  param {
    lr_mult: 2
    decay_mult: 0
  }
  convolution_param {
    num_output: 64
    pad: 3
    kernel_size: 7
    stride: 2
    weight_filler {
      type: "xavier"
      std: 0.1
    }
    bias_filler {
      type: "constant"
      value: 0.2
    }
  }
}
layer {
  name: "conv1/relu_7x7"
  type: "ReLU"
  bottom: "conv1/7x7_s2"
  top: "conv1/7x7_s2"
}
layer {
  name: "pool1/3x3_s2"
  type: "Pooling"
  bottom: "conv1/7x7_s2"
  top: "pool1/3x3_s2"
  pooling_param {
    pool: MAX
    kernel_size: 3
    stride: 2
  }
}
layer {
  name: "pool1/norm1"
  type: "LRN"
  bottom: "pool1/3x3_s2"
  top: "pool1/norm1"
  lrn_param {
    local_size: 5
    alpha: 0.0001
    beta: 0.75
  }
}
layer {
  name: "conv2/3x3_reduce"
  type: "Convolution"
  bottom: "pool1/norm1"
  top: "conv2/3x3_reduce"
  param {
    lr_mult: 1
    decay_mult: 1
  }
  param {
    lr_mult: 2
    decay_mult: 0
  }
  convolution_param {
    num_output: 64
    kernel_size: 1
    weight_filler {
      type: "xavier"
      std: 0.1
    }
    bias_filler {
      type: "constant"
      value: 0.2
    }
  }
}
layer {
  name: "conv2/relu_3x3_reduce"
  type: "ReLU"
  bottom: "conv2/3x3_reduce"
  top: "conv2/3x3_reduce"
}
layer {
  name: "conv2/3x3"
  type: "Convolution"
  bottom: "conv2/3x3_reduce"
  top: "conv2/3x3"
  param {
    lr_mult: 1
    decay_mult: 1
  }
  param {
    lr_mult: 2
    decay_mult: 0
  }
  convolution_param {
    num_output: 192
    pad: 1
    kernel_size: 3
    weight_filler {
      type: "xavier"
      std: 0.03
    }
    bias_filler {
      type: "constant"
      value: 0.2
    }
  }
}
layer {
  name: "conv2/relu_3x3"
  type: "ReLU"
  bottom: "conv2/3x3"
  top: "conv2/3x3"
}
layer {
  name: "conv2/norm2"
  type: "LRN"
  bottom: "conv2/3x3"
  top: "conv2/norm2"
  lrn_param {
    local_size: 5
    alpha: 0.0001
    beta: 0.75
  }
}
layer {
  name: "pool2/3x3_s2"
  type: "Pooling"
  bottom: "conv2/norm2"
  top: "pool2/3x3_s2"
  pooling_param {
    pool: MAX
    kernel_size: 3
    stride: 2
  }
}
layer {
  name: "inception_3a/1x1"
  type: "Convolution"
  bottom: "pool2/3x3_s2"
  top: "inception_3a/1x1"
  param {
    lr_mult: 1
    decay_mult: 1
  }
  param {
    lr_mult: 2
    decay_mult: 0
  }
  convolution_param {
    num_output: 64
    kernel_size: 1
    weight_filler {
      type: "xavier"
      std: 0.03
    }
    bias_filler {
      type: "constant"
      value: 0.2
    }
  }
}
layer {
  name: "inception_3a/relu_1x1"
  type: "ReLU"
  bottom: "inception_3a/1x1"
  top: "inception_3a/1x1"
}
layer {
  name: "inception_3a/3x3_reduce"
  type: "Convolution"
  bottom: "pool2/3x3_s2"
  top: "inception_3a/3x3_reduce"
  param {
    lr_mult: 1
    decay_mult: 1
  }
  param {
    lr_mult: 2
    decay_mult: 0
  }
  convolution_param {
    num_output: 96
    kernel_size: 1
    weight_filler {
      type: "xavier"
      std: 0.09
    }
    bias_filler {
      type: "constant"
      value: 0.2
    }
  }
}
layer {
  name: "inception_3a/relu_3x3_reduce"
  type: "ReLU"
  bottom: "inception_3a/3x3_reduce"
  top: "inception_3a/3x3_reduce"
}
layer {
  name: "inception_3a/3x3"
  type: "Convolution"
  bottom: "inception_3a/3x3_reduce"
  top: "inception_3a/3x3"
  param {
    lr_mult: 1
    decay_mult: 1
  }
  param {
    lr_mult: 2
    decay_mult: 0
  }
  convolution_param {
    num_output: 128
    pad: 1
    kernel_size: 3
    weight_filler {
      type: "xavier"
      std: 0.03
    }
    bias_filler {
      type: "constant"
      value: 0.2
    }
  }
}
layer {
  name: "inception_3a/relu_3x3"
  type: "ReLU"
  bottom: "inception_3a/3x3"
  top: "inception_3a/3x3"
}
layer {
  name: "inception_3a/5x5_reduce"
  type: "Convolution"
  bottom: "pool2/3x3_s2"
  top: "inception_3a/5x5_reduce"
  param {
    lr_mult: 1
    decay_mult: 1
  }
  param {
    lr_mult: 2
    decay_mult: 0
  }
  convolution_param {
    num_output: 16
    kernel_size: 1
    weight_filler {
      type: "xavier"
      std: 0.2
    }
    bias_filler {
      type: "constant"
      value: 0.2
    }
  }
}
layer {
  name: "inception_3a/relu_5x5_reduce"
  type: "ReLU"
  bottom: "inception_3a/5x5_reduce"
  top: "inception_3a/5x5_reduce"
}
layer {
  name: "inception_3a/5x5"
  type: "Convolution"
  bottom: "inception_3a/5x5_reduce"
  top: "inception_3a/5x5"
  param {
    lr_mult: 1
    decay_mult: 1
  }
  param {
    lr_mult: 2
    decay_mult: 0
  }
  convolution_param {
    num_output: 32
    pad: 2
    kernel_size: 5
    weight_filler {
      type: "xavier"
      std: 0.03
    }
    bias_filler {
      type: "constant"
      value: 0.2
    }
  }
}
layer {
  name: "inception_3a/relu_5x5"
  type: "ReLU"
  bottom: "inception_3a/5x5"
  top: "inception_3a/5x5"
}
layer {
  name: "inception_3a/pool"
  type: "Pooling"
  bottom: "pool2/3x3_s2"
  top: "inception_3a/pool"
  pooling_param {
    pool: MAX
    kernel_size: 3
    stride: 1
    pad: 1
  }
}
layer {
  name: "inception_3a/pool_proj"
  type: "Convolution"
  bottom: "inception_3a/pool"
  top: "inception_3a/pool_proj"
  param {
    lr_mult: 1
    decay_mult: 1
  }
  param {
    lr_mult: 2
    decay_mult: 0
  }
  convolution_param {
    num_output: 32
    kernel_size: 1
    weight_filler {
      type: "xavier"
      std: 0.1
    }
    bias_filler {
      type: "constant"
      value: 0.2
    }
  }
}
layer {
  name: "inception_3a/relu_pool_proj"
  type: "ReLU"
  bottom: "inception_3a/pool_proj"
  top: "inception_3a/pool_proj"
}
layer {
  name: "inception_3a/output"
  type: "Concat"
  bottom: "inception_3a/1x1"
  bottom: "inception_3a/3x3"
  bottom: "inception_3a/5x5"
  bottom: "inception_3a/pool_proj"
  top: "inception_3a/output"
}
layer {
  name: "inception_3b/1x1"
  type: "Convolution"
  bottom: "inception_3a/output"
  top: "inception_3b/1x1"
  param {
    lr_mult: 1
    decay_mult: 1
  }
  param {
    lr_mult: 2
    decay_mult: 0
  }
  convolution_param {
    num_output: 128
    kernel_size: 1
    weight_filler {
      type: "xavier"
      std: 0.03
    }
    bias_filler {
      type: "constant"
      value: 0.2
    }
  }
}
layer {
  name: "inception_3b/relu_1x1"
  type: "ReLU"
  bottom: "inception_3b/1x1"
  top: "inception_3b/1x1"
}
layer {
  name: "inception_3b/3x3_reduce"
  type: "Convolution"
  bottom: "inception_3a/output"
  top: "inception_3b/3x3_reduce"
  param {
    lr_mult: 1
    decay_mult: 1
  }
  param {
    lr_mult: 2
    decay_mult: 0
  }
  convolution_param {
    num_output: 128
    kernel_size: 1
    weight_filler {
      type: "xavier"
      std: 0.09
    }
    bias_filler {
      type: "constant"
      value: 0.2
    }
  }
}
layer {
  name: "inception_3b/relu_3x3_reduce"
  type: "ReLU"
  bottom: "inception_3b/3x3_reduce"
  top: "inception_3b/3x3_reduce"
}
layer {
  name: "inception_3b/3x3"
  type: "Convolution"
  bottom: "inception_3b/3x3_reduce"
  top: "inception_3b/3x3"
  param {
    lr_mult: 1
    decay_mult: 1
  }
  param {
    lr_mult: 2
    decay_mult: 0
  }
  convolution_param {
    num_output: 192
    pad: 1
    kernel_size: 3
    weight_filler {
      type: "xavier"
      std: 0.03
    }
    bias_filler {
      type: "constant"
      value: 0.2
    }
  }
}
layer {
  name: "inception_3b/relu_3x3"
  type: "ReLU"
  bottom: "inception_3b/3x3"
  top: "inception_3b/3x3"
}
layer {
  name: "inception_3b/5x5_reduce"
  type: "Convolution"
  bottom: "inception_3a/output"
  top: "inception_3b/5x5_reduce"
  param {
    lr_mult: 1
    decay_mult: 1
  }
  param {
    lr_mult: 2
    decay_mult: 0
  }
  convolution_param {
    num_output: 32
    kernel_size: 1
    weight_filler {
      type: "xavier"
      std: 0.2
    }
    bias_filler {
      type: "constant"
      value: 0.2
    }
  }
}
layer {
  name: "inception_3b/relu_5x5_reduce"
  type: "ReLU"
  bottom: "inception_3b/5x5_reduce"
  top: "inception_3b/5x5_reduce"
}
layer {
  name: "inception_3b/5x5"
  type: "Convolution"
  bottom: "inception_3b/5x5_reduce"
  top: "inception_3b/5x5"
  param {
    lr_mult: 1
    decay_mult: 1
  }
  param {
    lr_mult: 2
    decay_mult: 0
  }
  convolution_param {
    num_output: 96
    pad: 2
    kernel_size: 5
    weight_filler {
      type: "xavier"
      std: 0.03
    }
    bias_filler {
      type: "constant"
      value: 0.2
    }
  }
}
layer {
  name: "inception_3b/relu_5x5"
  type: "ReLU"
  bottom: "inception_3b/5x5"
  top: "inception_3b/5x5"
}
layer {
  name: "inception_3b/pool"
  type: "Pooling"
  bottom: "inception_3a/output"
  top: "inception_3b/pool"
  pooling_param {
    pool: MAX
    kernel_size: 3
    stride: 1
    pad: 1
  }
}
layer {
  name: "inception_3b/pool_proj"
  type: "Convolution"
  bottom: "inception_3b/pool"
  top: "inception_3b/pool_proj"
  param {
    lr_mult: 1
    decay_mult: 1
  }
  param {
    lr_mult: 2
    decay_mult: 0
  }
  convolution_param {
    num_output: 64
    kernel_size: 1
    weight_filler {
      type: "xavier"
      std: 0.1
    }
    bias_filler {
      type: "constant"
      value: 0.2
    }
  }
}
layer {
  name: "inception_3b/relu_pool_proj"
  type: "ReLU"
  bottom: "inception_3b/pool_proj"
  top: "inception_3b/pool_proj"
}
layer {
  name: "inception_3b/output"
  type: "Concat"
  bottom: "inception_3b/1x1"
  bottom: "inception_3b/3x3"
  bottom: "inception_3b/5x5"
  bottom: "inception_3b/pool_proj"
  top: "inception_3b/output"
}
layer {
  name: "pool3/3x3_s2"
  type: "Pooling"
  bottom: "inception_3b/output"
  top: "pool3/3x3_s2"
  pooling_param {
    pool: MAX
    kernel_size: 3
    stride: 2
  }
}
layer {
  name: "inception_4a/1x1"
  type: "Convolution"
  bottom: "pool3/3x3_s2"
  top: "inception_4a/1x1"
  param {
    lr_mult: 1
    decay_mult: 1
  }
  param {
    lr_mult: 2
    decay_mult: 0
  }
  convolution_param {
    num_output: 192
    kernel_size: 1
    weight_filler {
      type: "xavier"
      std: 0.03
    }
    bias_filler {
      type: "constant"
      value: 0.2
    }
  }
}
layer {
  name: "inception_4a/relu_1x1"
  type: "ReLU"
  bottom: "inception_4a/1x1"
  top: "inception_4a/1x1"
}
layer {
  name: "inception_4a/3x3_reduce"
  type: "Convolution"
  bottom: "pool3/3x3_s2"
  top: "inception_4a/3x3_reduce"
  param {
    lr_mult: 1
    decay_mult: 1
  }
  param {
    lr_mult: 2
    decay_mult: 0
  }
  convolution_param {
    num_output: 96
    kernel_size: 1
    weight_filler {
      type: "xavier"
      std: 0.09
    }
    bias_filler {
      type: "constant"
      value: 0.2
    }
  }
}
layer {
  name: "inception_4a/relu_3x3_reduce"
  type: "ReLU"
  bottom: "inception_4a/3x3_reduce"
  top: "inception_4a/3x3_reduce"
}
layer {
  name: "inception_4a/3x3"
  type: "Convolution"
  bottom: "inception_4a/3x3_reduce"
  top: "inception_4a/3x3"
  param {
    lr_mult: 1
    decay_mult: 1
  }
  param {
    lr_mult: 2
    decay_mult: 0
  }
  convolution_param {
    num_output: 208
    pad: 1
    kernel_size: 3
    weight_filler {
      type: "xavier"
      std: 0.03
    }
    bias_filler {
      type: "constant"
      value: 0.2
    }
  }
}
layer {
  name: "inception_4a/relu_3x3"
  type: "ReLU"
  bottom: "inception_4a/3x3"
  top: "inception_4a/3x3"
}
layer {
  name: "inception_4a/5x5_reduce"
  type: "Convolution"
  bottom: "pool3/3x3_s2"
  top: "inception_4a/5x5_reduce"
  param {
    lr_mult: 1
    decay_mult: 1
  }
  param {
    lr_mult: 2
    decay_mult: 0
  }
  convolution_param {
    num_output: 16
    kernel_size: 1
    weight_filler {
      type: "xavier"
      std: 0.2
    }
    bias_filler {
      type: "constant"
      value: 0.2
    }
  }
}
layer {
  name: "inception_4a/relu_5x5_reduce"
  type: "ReLU"
  bottom: "inception_4a/5x5_reduce"
  top: "inception_4a/5x5_reduce"
}
layer {
  name: "inception_4a/5x5"
  type: "Convolution"
  bottom: "inception_4a/5x5_reduce"
  top: "inception_4a/5x5"
  param {
    lr_mult: 1
    decay_mult: 1
  }
  param {
    lr_mult: 2
    decay_mult: 0
  }
  convolution_param {
    num_output: 48
    pad: 2
    kernel_size: 5
    weight_filler {
      type: "xavier"
      std: 0.03
    }
    bias_filler {
      type: "constant"
      value: 0.2
    }
  }
}
layer {
  name: "inception_4a/relu_5x5"
  type: "ReLU"
  bottom: "inception_4a/5x5"
  top: "inception_4a/5x5"
}
layer {
  name: "inception_4a/pool"
  type: "Pooling"
  bottom: "pool3/3x3_s2"
  top: "inception_4a/pool"
  pooling_param {
    pool: MAX
    kernel_size: 3
    stride: 1
    pad: 1
  }
}
layer {
  name: "inception_4a/pool_proj"
  type: "Convolution"
  bottom: "inception_4a/pool"
  top: "inception_4a/pool_proj"
  param {
    lr_mult: 1
    decay_mult: 1
  }
  param {
    lr_mult: 2
    decay_mult: 0
  }
  convolution_param {
    num_output: 64
    kernel_size: 1
    weight_filler {
      type: "xavier"
      std: 0.1
    }
    bias_filler {
      type: "constant"
      value: 0.2
    }
  }
}
layer {
  name: "inception_4a/relu_pool_proj"
  type: "ReLU"
  bottom: "inception_4a/pool_proj"
  top: "inception_4a/pool_proj"
}
layer {
  name: "inception_4a/output"
  type: "Concat"
  bottom: "inception_4a/1x1"
  bottom: "inception_4a/3x3"
  bottom: "inception_4a/5x5"
  bottom: "inception_4a/pool_proj"
  top: "inception_4a/output"
}
layer {
  name: "loss1/ave_pool"
  type: "Pooling"
  bottom: "inception_4a/output"
  top: "loss1/ave_pool"
  pooling_param {
    pool: AVE
    kernel_size: 5
    stride: 3
  }
}
layer {
  name: "loss1/conv"
  type: "Convolution"
  bottom: "loss1/ave_pool"
  top: "loss1/conv"
  param {
    lr_mult: 1
    decay_mult: 1
  }
  param {
    lr_mult: 2
    decay_mult: 0
  }
  convolution_param {
    num_output: 128
    kernel_size: 1
    weight_filler {
      type: "xavier"
      std: 0.08
    }
    bias_filler {
      type: "constant"
      value: 0.2
    }
  }
}
layer {
  name: "loss1/relu_conv"
  type: "ReLU"
  bottom: "loss1/conv"
  top: "loss1/conv"
}
layer {
  name: "loss1/fc"
  type: "InnerProduct"
  bottom: "loss1/conv"
  top: "loss1/fc"
  param {
    lr_mult: 1
    decay_mult: 1
  }
  param {
    lr_mult: 2
    decay_mult: 0
  }
  inner_product_param {
    num_output: 1024
    weight_filler {
      type: "xavier"
      std: 0.02
    }
    bias_filler {
      type: "constant"
      value: 0.2
    }
  }
}
layer {
  name: "loss1/relu_fc"
  type: "ReLU"
  bottom: "loss1/fc"
  top: "loss1/fc"
}
layer {
  name: "loss1/drop_fc"
  type: "Dropout"
  bottom: "loss1/fc"
  top: "loss1/fc"
  dropout_param {
    dropout_ratio: 0.7
  }
}
layer {
  name: "loss1/classifier_plantvillage"
  type: "InnerProduct"
  bottom: "loss1/fc"
  top: "loss1/classifier_plantvillage"
  param {
    lr_mult: 1
    decay_mult: 1
  }
  param {
    lr_mult: 2
    decay_mult: 0
  }
  inner_product_param {
    num_output: 38
    weight_filler {
      type: "xavier"
      std: 0.0009765625
    }
    bias_filler {
      type: "constant"
      value: 0
    }
  }
}
layer {
  name: "inception_4b/1x1"
  type: "Convolution"
  bottom: "inception_4a/output"
  top: "inception_4b/1x1"
  param {
    lr_mult: 1
    decay_mult: 1
  }
  param {
    lr_mult: 2
    decay_mult: 0
  }
  convolution_param {
    num_output: 160
    kernel_size: 1
    weight_filler {
      type: "xavier"
      std: 0.03
    }
    bias_filler {
      type: "constant"
      value: 0.2
    }
  }
}
layer {
  name: "inception_4b/relu_1x1"
  type: "ReLU"
  bottom: "inception_4b/1x1"
  top: "inception_4b/1x1"
}
layer {
  name: "inception_4b/3x3_reduce"
  type: "Convolution"
  bottom: "inception_4a/output"
  top: "inception_4b/3x3_reduce"
  param {
    lr_mult: 1
    decay_mult: 1
  }
  param {
    lr_mult: 2
    decay_mult: 0
  }
  convolution_param {
    num_output: 112
    kernel_size: 1
    weight_filler {
      type: "xavier"
      std: 0.09
    }
    bias_filler {
      type: "constant"
      value: 0.2
    }
  }
}
layer {
  name: "inception_4b/relu_3x3_reduce"
  type: "ReLU"
  bottom: "inception_4b/3x3_reduce"
  top: "inception_4b/3x3_reduce"
}
layer {
  name: "inception_4b/3x3"
  type: "Convolution"
  bottom: "inception_4b/3x3_reduce"
  top: "inception_4b/3x3"
  param {
    lr_mult: 1
    decay_mult: 1
  }
  param {
    lr_mult: 2
    decay_mult: 0
  }
  convolution_param {
    num_output: 224
    pad: 1
    kernel_size: 3
    weight_filler {
      type: "xavier"
      std: 0.03
    }
    bias_filler {
      type: "constant"
      value: 0.2
    }
  }
}
layer {
  name: "inception_4b/relu_3x3"
  type: "ReLU"
  bottom: "inception_4b/3x3"
  top: "inception_4b/3x3"
}
layer {
  name: "inception_4b/5x5_reduce"
  type: "Convolution"
  bottom: "inception_4a/output"
  top: "inception_4b/5x5_reduce"
  param {
    lr_mult: 1
    decay_mult: 1
  }
  param {
    lr_mult: 2
    decay_mult: 0
  }
  convolution_param {
    num_output: 24
    kernel_size: 1
    weight_filler {
      type: "xavier"
      std: 0.2
    }
    bias_filler {
      type: "constant"
      value: 0.2
    }
  }
}
layer {
  name: "inception_4b/relu_5x5_reduce"
  type: "ReLU"
  bottom: "inception_4b/5x5_reduce"
  top: "inception_4b/5x5_reduce"
}
layer {
  name: "inception_4b/5x5"
  type: "Convolution"
  bottom: "inception_4b/5x5_reduce"
  top: "inception_4b/5x5"
  param {
    lr_mult: 1
    decay_mult: 1
  }
  param {
    lr_mult: 2
    decay_mult: 0
  }
  convolution_param {
    num_output: 64
    pad: 2
    kernel_size: 5
    weight_filler {
      type: "xavier"
      std: 0.03
    }
    bias_filler {
      type: "constant"
      value: 0.2
    }
  }
}
layer {
  name: "inception_4b/relu_5x5"
  type: "ReLU"
  bottom: "inception_4b/5x5"
  top: "inception_4b/5x5"
}
layer {
  name: "inception_4b/pool"
  type: "Pooling"
  bottom: "inception_4a/output"
  top: "inception_4b/pool"
  pooling_param {
    pool: MAX
    kernel_size: 3
    stride: 1
    pad: 1
  }
}
layer {
  name: "inception_4b/pool_proj"
  type: "Convolution"
  bottom: "inception_4b/pool"
  top: "inception_4b/pool_proj"
  param {
    lr_mult: 1
    decay_mult: 1
  }
  param {
    lr_mult: 2
    decay_mult: 0
  }
  convolution_param {
    num_output: 64
    kernel_size: 1
    weight_filler {
      type: "xavier"
      std: 0.1
    }
    bias_filler {
      type: "constant"
      value: 0.2
    }
  }
}
layer {
  name: "inception_4b/relu_pool_proj"
  type: "ReLU"
  bottom: "inception_4b/pool_proj"
  top: "inception_4b/pool_proj"
}
layer {
  name: "inception_4b/output"
  type: "Concat"
  bottom: "inception_4b/1x1"
  bottom: "inception_4b/3x3"
  bottom: "inception_4b/5x5"
  bottom: "inception_4b/pool_proj"
  top: "inception_4b/output"
}
layer {
  name: "inception_4c/1x1"
  type: "Convolution"
  bottom: "inception_4b/output"
  top: "inception_4c/1x1"
  param {
    lr_mult: 1
    decay_mult: 1
  }
  param {
    lr_mult: 2
    decay_mult: 0
  }
  convolution_param {
    num_output: 128
    kernel_size: 1
    weight_filler {
      type: "xavier"
      std: 0.03
    }
    bias_filler {
      type: "constant"
      value: 0.2
    }
  }
}
layer {
  name: "inception_4c/relu_1x1"
  type: "ReLU"
  bottom: "inception_4c/1x1"
  top: "inception_4c/1x1"
}
layer {
  name: "inception_4c/3x3_reduce"
  type: "Convolution"
  bottom: "inception_4b/output"
  top: "inception_4c/3x3_reduce"
  param {
    lr_mult: 1
    decay_mult: 1
  }
  param {
    lr_mult: 2
    decay_mult: 0
  }
  convolution_param {
    num_output: 128
    kernel_size: 1
    weight_filler {
      type: "xavier"
      std: 0.09
    }
    bias_filler {
      type: "constant"
      value: 0.2
    }
  }
}
layer {
  name: "inception_4c/relu_3x3_reduce"
  type: "ReLU"
  bottom: "inception_4c/3x3_reduce"
  top: "inception_4c/3x3_reduce"
}
layer {
  name: "inception_4c/3x3"
  type: "Convolution"
  bottom: "inception_4c/3x3_reduce"
  top: "inception_4c/3x3"
  param {
    lr_mult: 1
    decay_mult: 1
  }
  param {
    lr_mult: 2
    decay_mult: 0
  }
  convolution_param {
    num_output: 256
    pad: 1
    kernel_size: 3
    weight_filler {
      type: "xavier"
      std: 0.03
    }
    bias_filler {
      type: "constant"
      value: 0.2
    }
  }
}
layer {
  name: "inception_4c/relu_3x3"
  type: "ReLU"
  bottom: "inception_4c/3x3"
  top: "inception_4c/3x3"
}
layer {
  name: "inception_4c/5x5_reduce"
  type: "Convolution"
  bottom: "inception_4b/output"
  top: "inception_4c/5x5_reduce"
  param {
    lr_mult: 1
    decay_mult: 1
  }
  param {
    lr_mult: 2
    decay_mult: 0
  }
  convolution_param {
    num_output: 24
    kernel_size: 1
    weight_filler {
      type: "xavier"
      std: 0.2
    }
    bias_filler {
      type: "constant"
      value: 0.2
    }
  }
}
layer {
  name: "inception_4c/relu_5x5_reduce"
  type: "ReLU"
  bottom: "inception_4c/5x5_reduce"
  top: "inception_4c/5x5_reduce"
}
layer {
  name: "inception_4c/5x5"
  type: "Convolution"
  bottom: "inception_4c/5x5_reduce"
  top: "inception_4c/5x5"
  param {
    lr_mult: 1
    decay_mult: 1
  }
  param {
    lr_mult: 2
    decay_mult: 0
  }
  convolution_param {
    num_output: 64
    pad: 2
    kernel_size: 5
    weight_filler {
      type: "xavier"
      std: 0.03
    }
    bias_filler {
      type: "constant"
      value: 0.2
    }
  }
}
layer {
  name: "inception_4c/relu_5x5"
  type: "ReLU"
  bottom: "inception_4c/5x5"
  top: "inception_4c/5x5"
}
layer {
  name: "inception_4c/pool"
  type: "Pooling"
  bottom: "inception_4b/output"
  top: "inception_4c/pool"
  pooling_param {
    pool: MAX
    kernel_size: 3
    stride: 1
    pad: 1
  }
}
layer {
  name: "inception_4c/pool_proj"
  type: "Convolution"
  bottom: "inception_4c/pool"
  top: "inception_4c/pool_proj"
  param {
    lr_mult: 1
    decay_mult: 1
  }
  param {
    lr_mult: 2
    decay_mult: 0
  }
  convolution_param {
    num_output: 64
    kernel_size: 1
    weight_filler {
      type: "xavier"
      std: 0.1
    }
    bias_filler {
      type: "constant"
      value: 0.2
    }
  }
}
layer {
  name: "inception_4c/relu_pool_proj"
  type: "ReLU"
  bottom: "inception_4c/pool_proj"
  top: "inception_4c/pool_proj"
}
layer {
  name: "inception_4c/output"
  type: "Concat"
  bottom: "inception_4c/1x1"
  bottom: "inception_4c/3x3"
  bottom: "inception_4c/5x5"
  bottom: "inception_4c/pool_proj"
  top: "inception_4c/output"
}
layer {
  name: "inception_4d/1x1"
  type: "Convolution"
  bottom: "inception_4c/output"
  top: "inception_4d/1x1"
  param {
    lr_mult: 1
    decay_mult: 1
  }
  param {
    lr_mult: 2
    decay_mult: 0
  }
  convolution_param {
    num_output: 112
    kernel_size: 1
    weight_filler {
      type: "xavier"
      std: 0.03
    }
    bias_filler {
      type: "constant"
      value: 0.2
    }
  }
}
layer {
  name: "inception_4d/relu_1x1"
  type: "ReLU"
  bottom: "inception_4d/1x1"
  top: "inception_4d/1x1"
}
layer {
  name: "inception_4d/3x3_reduce"
  type: "Convolution"
  bottom: "inception_4c/output"
  top: "inception_4d/3x3_reduce"
  param {
    lr_mult: 1
    decay_mult: 1
  }
  param {
    lr_mult: 2
    decay_mult: 0
  }
  convolution_param {
    num_output: 144
    kernel_size: 1
    weight_filler {
      type: "xavier"
      std: 0.09
    }
    bias_filler {
      type: "constant"
      value: 0.2
    }
  }
}
layer {
  name: "inception_4d/relu_3x3_reduce"
  type: "ReLU"
  bottom: "inception_4d/3x3_reduce"
  top: "inception_4d/3x3_reduce"
}
layer {
  name: "inception_4d/3x3"
  type: "Convolution"
  bottom: "inception_4d/3x3_reduce"
  top: "inception_4d/3x3"
  param {
    lr_mult: 1
    decay_mult: 1
  }
  param {
    lr_mult: 2
    decay_mult: 0
  }
  convolution_param {
    num_output: 288
    pad: 1
    kernel_size: 3
    weight_filler {
      type: "xavier"
      std: 0.03
    }
    bias_filler {
      type: "constant"
      value: 0.2
    }
  }
}
layer {
  name: "inception_4d/relu_3x3"
  type: "ReLU"
  bottom: "inception_4d/3x3"
  top: "inception_4d/3x3"
}
layer {
  name: "inception_4d/5x5_reduce"
  type: "Convolution"
  bottom: "inception_4c/output"
  top: "inception_4d/5x5_reduce"
  param {
    lr_mult: 1
    decay_mult: 1
  }
  param {
    lr_mult: 2
    decay_mult: 0
  }
  convolution_param {
    num_output: 32
    kernel_size: 1
    weight_filler {
      type: "xavier"
      std: 0.2
    }
    bias_filler {
      type: "constant"
      value: 0.2
    }
  }
}
layer {
  name: "inception_4d/relu_5x5_reduce"
  type: "ReLU"
  bottom: "inception_4d/5x5_reduce"
  top: "inception_4d/5x5_reduce"
}
layer {
  name: "inception_4d/5x5"
  type: "Convolution"
  bottom: "inception_4d/5x5_reduce"
  top: "inception_4d/5x5"
  param {
    lr_mult: 1
    decay_mult: 1
  }
  param {
    lr_mult: 2
    decay_mult: 0
  }
  convolution_param {
    num_output: 64
    pad: 2
    kernel_size: 5
    weight_filler {
      type: "xavier"
      std: 0.03
    }
    bias_filler {
      type: "constant"
      value: 0.2
    }
  }
}
layer {
  name: "inception_4d/relu_5x5"
  type: "ReLU"
  bottom: "inception_4d/5x5"
  top: "inception_4d/5x5"
}
layer {
  name: "inception_4d/pool"
  type: "Pooling"
  bottom: "inception_4c/output"
  top: "inception_4d/pool"
  pooling_param {
    pool: MAX
    kernel_size: 3
    stride: 1
    pad: 1
  }
}
layer {
  name: "inception_4d/pool_proj"
  type: "Convolution"
  bottom: "inception_4d/pool"
  top: "inception_4d/pool_proj"
  param {
    lr_mult: 1
    decay_mult: 1
  }
  param {
    lr_mult: 2
    decay_mult: 0
  }
  convolution_param {
    num_output: 64
    kernel_size: 1
    weight_filler {
      type: "xavier"
      std: 0.1
    }
    bias_filler {
      type: "constant"
      value: 0.2
    }
  }
}
layer {
  name: "inception_4d/relu_pool_proj"
  type: "ReLU"
  bottom: "inception_4d/pool_proj"
  top: "inception_4d/pool_proj"
}
layer {
  name: "inception_4d/output"
  type: "Concat"
  bottom: "inception_4d/1x1"
  bottom: "inception_4d/3x3"
  bottom: "inception_4d/5x5"
  bottom: "inception_4d/pool_proj"
  top: "inception_4d/output"
}
layer {
  name: "loss2/ave_pool"
  type: "Pooling"
  bottom: "inception_4d/output"
  top: "loss2/ave_pool"
  pooling_param {
    pool: AVE
    kernel_size: 5
    stride: 3
  }
}
layer {
  name: "loss2/conv"
  type: "Convolution"
  bottom: "loss2/ave_pool"
  top: "loss2/conv"
  param {
    lr_mult: 1
    decay_mult: 1
  }
  param {
    lr_mult: 2
    decay_mult: 0
  }
  convolution_param {
    num_output: 128
    kernel_size: 1
    weight_filler {
      type: "xavier"
      std: 0.08
    }
    bias_filler {
      type: "constant"
      value: 0.2
    }
  }
}
layer {
  name: "loss2/relu_conv"
  type: "ReLU"
  bottom: "loss2/conv"
  top: "loss2/conv"
}
layer {
  name: "loss2/fc"
  type: "InnerProduct"
  bottom: "loss2/conv"
  top: "loss2/fc"
  param {
    lr_mult: 1
    decay_mult: 1
  }
  param {
    lr_mult: 2
    decay_mult: 0
  }
  inner_product_param {
    num_output: 1024
    weight_filler {
      type: "xavier"
      std: 0.02
    }
    bias_filler {
      type: "constant"
      value: 0.2
    }
  }
}
layer {
  name: "loss2/relu_fc"
  type: "ReLU"
  bottom: "loss2/fc"
  top: "loss2/fc"
}
layer {
  name: "loss2/drop_fc"
  type: "Dropout"
  bottom: "loss2/fc"
  top: "loss2/fc"
  dropout_param {
    dropout_ratio: 0.7
  }
}
layer {
  name: "loss2/classifier_plantvillage"
  type: "InnerProduct"
  bottom: "loss2/fc"
  top: "loss2/classifier_plantvillage"
  param {
    lr_mult: 1
    decay_mult: 1
  }
  param {
    lr_mult: 2
    decay_mult: 0
  }
  inner_product_param {
    num_output: 38
    weight_filler {
      type: "xavier"
      std: 0.0009765625
    }
    bias_filler {
      type: "constant"
      value: 0
    }
  }
}
layer {
  name: "inception_4e/1x1"
  type: "Convolution"
  bottom: "inception_4d/output"
  top: "inception_4e/1x1"
  param {
    lr_mult: 1
    decay_mult: 1
  }
  param {
    lr_mult: 2
    decay_mult: 0
  }
  convolution_param {
    num_output: 256
    kernel_size: 1
    weight_filler {
      type: "xavier"
      std: 0.03
    }
    bias_filler {
      type: "constant"
      value: 0.2
    }
  }
}
layer {
  name: "inception_4e/relu_1x1"
  type: "ReLU"
  bottom: "inception_4e/1x1"
  top: "inception_4e/1x1"
}
layer {
  name: "inception_4e/3x3_reduce"
  type: "Convolution"
  bottom: "inception_4d/output"
  top: "inception_4e/3x3_reduce"
  param {
    lr_mult: 1
    decay_mult: 1
  }
  param {
    lr_mult: 2
    decay_mult: 0
  }
  convolution_param {
    num_output: 160
    kernel_size: 1
    weight_filler {
      type: "xavier"
      std: 0.09
    }
    bias_filler {
      type: "constant"
      value: 0.2
    }
  }
}
layer {
  name: "inception_4e/relu_3x3_reduce"
  type: "ReLU"
  bottom: "inception_4e/3x3_reduce"
  top: "inception_4e/3x3_reduce"
}
layer {
  name: "inception_4e/3x3"
  type: "Convolution"
  bottom: "inception_4e/3x3_reduce"
  top: "inception_4e/3x3"
  param {
    lr_mult: 1
    decay_mult: 1
  }
  param {
    lr_mult: 2
    decay_mult: 0
  }
  convolution_param {
    num_output: 320
    pad: 1
    kernel_size: 3
    weight_filler {
      type: "xavier"
      std: 0.03
    }
    bias_filler {
      type: "constant"
      value: 0.2
    }
  }
}
layer {
  name: "inception_4e/relu_3x3"
  type: "ReLU"
  bottom: "inception_4e/3x3"
  top: "inception_4e/3x3"
}
layer {
  name: "inception_4e/5x5_reduce"
  type: "Convolution"
  bottom: "inception_4d/output"
  top: "inception_4e/5x5_reduce"
  param {
    lr_mult: 1
    decay_mult: 1
  }
  param {
    lr_mult: 2
    decay_mult: 0
  }
  convolution_param {
    num_output: 32
    kernel_size: 1
    weight_filler {
      type: "xavier"
      std: 0.2
    }
    bias_filler {
      type: "constant"
      value: 0.2
    }
  }
}
layer {
  name: "inception_4e/relu_5x5_reduce"
  type: "ReLU"
  bottom: "inception_4e/5x5_reduce"
  top: "inception_4e/5x5_reduce"
}
layer {
  name: "inception_4e/5x5"
  type: "Convolution"
  bottom: "inception_4e/5x5_reduce"
  top: "inception_4e/
I0403 15:17:53.072826 11803 layer_factory.hpp:77] Creating layer data
I0403 15:17:53.073456 11803 net.cpp:91] Creating Layer data
I0403 15:17:53.073487 11803 net.cpp:399] data -> data
I0403 15:17:53.073540 11803 net.cpp:399] data -> label
I0403 15:17:53.073576 11803 data_transformer.cpp:25] Loading mean file from: /home/mohanty/data/final_dataset/lmdb/segmented-40-60/mean.binaryproto
I0403 15:17:53.075748 11806 db_lmdb.cpp:38] Opened lmdb /home/mohanty/data/final_dataset/lmdb/segmented-40-60/test_db
I0403 15:17:53.086570 11803 data_layer.cpp:41] output data size: 24,3,224,224
I0403 15:17:53.113234 11803 net.cpp:141] Setting up data
I0403 15:17:53.113339 11803 net.cpp:148] Top shape: 24 3 224 224 (3612672)
I0403 15:17:53.113361 11803 net.cpp:148] Top shape: 24 (24)
I0403 15:17:53.113376 11803 net.cpp:156] Memory required for data: 14450784
I0403 15:17:53.113402 11803 layer_factory.hpp:77] Creating layer label_data_1_split
I0403 15:17:53.113428 11803 net.cpp:91] Creating Layer label_data_1_split
I0403 15:17:53.113446 11803 net.cpp:425] label_data_1_split <- label
I0403 15:17:53.113476 11803 net.cpp:399] label_data_1_split -> label_data_1_split_0
I0403 15:17:53.113502 11803 net.cpp:399] label_data_1_split -> label_data_1_split_1
I0403 15:17:53.113523 11803 net.cpp:399] label_data_1_split -> label_data_1_split_2
I0403 15:17:53.113541 11803 net.cpp:399] label_data_1_split -> label_data_1_split_3
I0403 15:17:53.113559 11803 net.cpp:399] label_data_1_split -> label_data_1_split_4
I0403 15:17:53.113579 11803 net.cpp:399] label_data_1_split -> label_data_1_split_5
I0403 15:17:53.113596 11803 net.cpp:399] label_data_1_split -> label_data_1_split_6
I0403 15:17:53.113622 11803 net.cpp:399] label_data_1_split -> label_data_1_split_7
I0403 15:17:53.113641 11803 net.cpp:399] label_data_1_split -> label_data_1_split_8
I0403 15:17:53.113661 11803 net.cpp:399] label_data_1_split -> label_data_1_split_9
I0403 15:17:53.113771 11803 net.cpp:141] Setting up label_data_1_split
I0403 15:17:53.113795 11803 net.cpp:148] Top shape: 24 (24)
I0403 15:17:53.113811 11803 net.cpp:148] Top shape: 24 (24)
I0403 15:17:53.113826 11803 net.cpp:148] Top shape: 24 (24)
I0403 15:17:53.113842 11803 net.cpp:148] Top shape: 24 (24)
I0403 15:17:53.113855 11803 net.cpp:148] Top shape: 24 (24)
I0403 15:17:53.113870 11803 net.cpp:148] Top shape: 24 (24)
I0403 15:17:53.113885 11803 net.cpp:148] Top shape: 24 (24)
I0403 15:17:53.113900 11803 net.cpp:148] Top shape: 24 (24)
I0403 15:17:53.113914 11803 net.cpp:148] Top shape: 24 (24)
I0403 15:17:53.113930 11803 net.cpp:148] Top shape: 24 (24)
I0403 15:17:53.113972 11803 net.cpp:156] Memory required for data: 14451744
I0403 15:17:53.113987 11803 layer_factory.hpp:77] Creating layer conv1/7x7_s2
I0403 15:17:53.114018 11803 net.cpp:91] Creating Layer conv1/7x7_s2
I0403 15:17:53.114035 11803 net.cpp:425] conv1/7x7_s2 <- data
I0403 15:17:53.114053 11803 net.cpp:399] conv1/7x7_s2 -> conv1/7x7_s2
I0403 15:17:53.253748 11803 net.cpp:141] Setting up conv1/7x7_s2
I0403 15:17:53.253836 11803 net.cpp:148] Top shape: 24 64 112 112 (19267584)
I0403 15:17:53.253852 11803 net.cpp:156] Memory required for data: 91522080
I0403 15:17:53.253882 11803 layer_factory.hpp:77] Creating layer conv1/relu_7x7
I0403 15:17:53.253908 11803 net.cpp:91] Creating Layer conv1/relu_7x7
I0403 15:17:53.253926 11803 net.cpp:425] conv1/relu_7x7 <- conv1/7x7_s2
I0403 15:17:53.253942 11803 net.cpp:386] conv1/relu_7x7 -> conv1/7x7_s2 (in-place)
I0403 15:17:53.254186 11803 net.cpp:141] Setting up conv1/relu_7x7
I0403 15:17:53.254211 11803 net.cpp:148] Top shape: 24 64 112 112 (19267584)
I0403 15:17:53.254225 11803 net.cpp:156] Memory required for data: 168592416
I0403 15:17:53.254240 11803 layer_factory.hpp:77] Creating layer pool1/3x3_s2
I0403 15:17:53.254263 11803 net.cpp:91] Creating Layer pool1/3x3_s2
I0403 15:17:53.254279 11803 net.cpp:425] pool1/3x3_s2 <- conv1/7x7_s2
I0403 15:17:53.254297 11803 net.cpp:399] pool1/3x3_s2 -> pool1/3x3_s2
I0403 15:17:53.254370 11803 net.cpp:141] Setting up pool1/3x3_s2
I0403 15:17:53.254393 11803 net.cpp:148] Top shape: 24 64 56 56 (4816896)
I0403 15:17:53.254407 11803 net.cpp:156] Memory required for data: 187860000
I0403 15:17:53.254422 11803 layer_factory.hpp:77] Creating layer pool1/norm1
I0403 15:17:53.254446 11803 net.cpp:91] Creating Layer pool1/norm1
I0403 15:17:53.254462 11803 net.cpp:425] pool1/norm1 <- pool1/3x3_s2
I0403 15:17:53.254478 11803 net.cpp:399] pool1/norm1 -> pool1/norm1
I0403 15:17:53.254752 11803 net.cpp:141] Setting up pool1/norm1
I0403 15:17:53.254778 11803 net.cpp:148] Top shape: 24 64 56 56 (4816896)
I0403 15:17:53.254792 11803 net.cpp:156] Memory required for data: 207127584
I0403 15:17:53.254806 11803 layer_factory.hpp:77] Creating layer conv2/3x3_reduce
I0403 15:17:53.254829 11803 net.cpp:91] Creating Layer conv2/3x3_reduce
I0403 15:17:53.254845 11803 net.cpp:425] conv2/3x3_reduce <- pool1/norm1
I0403 15:17:53.254863 11803 net.cpp:399] conv2/3x3_reduce -> conv2/3x3_reduce
I0403 15:17:53.256167 11803 net.cpp:141] Setting up conv2/3x3_reduce
I0403 15:17:53.256196 11803 net.cpp:148] Top shape: 24 64 56 56 (4816896)
I0403 15:17:53.256211 11803 net.cpp:156] Memory required for data: 226395168
I0403 15:17:53.256230 11803 layer_factory.hpp:77] Creating layer conv2/relu_3x3_reduce
I0403 15:17:53.256249 11803 net.cpp:91] Creating Layer conv2/relu_3x3_reduce
I0403 15:17:53.256264 11803 net.cpp:425] conv2/relu_3x3_reduce <- conv2/3x3_reduce
I0403 15:17:53.256280 11803 net.cpp:386] conv2/relu_3x3_reduce -> conv2/3x3_reduce (in-place)
I0403 15:17:53.256530 11803 net.cpp:141] Setting up conv2/relu_3x3_reduce
I0403 15:17:53.256554 11803 net.cpp:148] Top shape: 24 64 56 56 (4816896)
I0403 15:17:53.256569 11803 net.cpp:156] Memory required for data: 245662752
I0403 15:17:53.256583 11803 layer_factory.hpp:77] Creating layer conv2/3x3
I0403 15:17:53.256603 11803 net.cpp:91] Creating Layer conv2/3x3
I0403 15:17:53.256633 11803 net.cpp:425] conv2/3x3 <- conv2/3x3_reduce
I0403 15:17:53.256650 11803 net.cpp:399] conv2/3x3 -> conv2/3x3
I0403 15:17:53.258846 11803 net.cpp:141] Setting up conv2/3x3
I0403 15:17:53.258874 11803 net.cpp:148] Top shape: 24 192 56 56 (14450688)
I0403 15:17:53.258889 11803 net.cpp:156] Memory required for data: 303465504
I0403 15:17:53.258909 11803 layer_factory.hpp:77] Creating layer conv2/relu_3x3
I0403 15:17:53.258929 11803 net.cpp:91] Creating Layer conv2/relu_3x3
I0403 15:17:53.258945 11803 net.cpp:425] conv2/relu_3x3 <- conv2/3x3
I0403 15:17:53.258962 11803 net.cpp:386] conv2/relu_3x3 -> conv2/3x3 (in-place)
I0403 15:17:53.259133 11803 net.cpp:141] Setting up conv2/relu_3x3
I0403 15:17:53.259156 11803 net.cpp:148] Top shape: 24 192 56 56 (14450688)
I0403 15:17:53.259201 11803 net.cpp:156] Memory required for data: 361268256
I0403 15:17:53.259215 11803 layer_factory.hpp:77] Creating layer conv2/norm2
I0403 15:17:53.259232 11803 net.cpp:91] Creating Layer conv2/norm2
I0403 15:17:53.259248 11803 net.cpp:425] conv2/norm2 <- conv2/3x3
I0403 15:17:53.259266 11803 net.cpp:399] conv2/norm2 -> conv2/norm2
I0403 15:17:53.259573 11803 net.cpp:141] Setting up conv2/norm2
I0403 15:17:53.259598 11803 net.cpp:148] Top shape: 24 192 56 56 (14450688)
I0403 15:17:53.259613 11803 net.cpp:156] Memory required for data: 419071008
I0403 15:17:53.259627 11803 layer_factory.hpp:77] Creating layer pool2/3x3_s2
I0403 15:17:53.259644 11803 net.cpp:91] Creating Layer pool2/3x3_s2
I0403 15:17:53.259659 11803 net.cpp:425] pool2/3x3_s2 <- conv2/norm2
I0403 15:17:53.259677 11803 net.cpp:399] pool2/3x3_s2 -> pool2/3x3_s2
I0403 15:17:53.259730 11803 net.cpp:141] Setting up pool2/3x3_s2
I0403 15:17:53.259752 11803 net.cpp:148] Top shape: 24 192 28 28 (3612672)
I0403 15:17:53.259765 11803 net.cpp:156] Memory required for data: 433521696
I0403 15:17:53.259779 11803 layer_factory.hpp:77] Creating layer pool2/3x3_s2_pool2/3x3_s2_0_split
I0403 15:17:53.259796 11803 net.cpp:91] Creating Layer pool2/3x3_s2_pool2/3x3_s2_0_split
I0403 15:17:53.259811 11803 net.cpp:425] pool2/3x3_s2_pool2/3x3_s2_0_split <- pool2/3x3_s2
I0403 15:17:53.259830 11803 net.cpp:399] pool2/3x3_s2_pool2/3x3_s2_0_split -> pool2/3x3_s2_pool2/3x3_s2_0_split_0
I0403 15:17:53.259850 11803 net.cpp:399] pool2/3x3_s2_pool2/3x3_s2_0_split -> pool2/3x3_s2_pool2/3x3_s2_0_split_1
I0403 15:17:53.259867 11803 net.cpp:399] pool2/3x3_s2_pool2/3x3_s2_0_split -> pool2/3x3_s2_pool2/3x3_s2_0_split_2
I0403 15:17:53.259886 11803 net.cpp:399] pool2/3x3_s2_pool2/3x3_s2_0_split -> pool2/3x3_s2_pool2/3x3_s2_0_split_3
I0403 15:17:53.259950 11803 net.cpp:141] Setting up pool2/3x3_s2_pool2/3x3_s2_0_split
I0403 15:17:53.259974 11803 net.cpp:148] Top shape: 24 192 28 28 (3612672)
I0403 15:17:53.259989 11803 net.cpp:148] Top shape: 24 192 28 28 (3612672)
I0403 15:17:53.260004 11803 net.cpp:148] Top shape: 24 192 28 28 (3612672)
I0403 15:17:53.260018 11803 net.cpp:148] Top shape: 24 192 28 28 (3612672)
I0403 15:17:53.260031 11803 net.cpp:156] Memory required for data: 491324448
I0403 15:17:53.260045 11803 layer_factory.hpp:77] Creating layer inception_3a/1x1
I0403 15:17:53.260066 11803 net.cpp:91] Creating Layer inception_3a/1x1
I0403 15:17:53.260082 11803 net.cpp:425] inception_3a/1x1 <- pool2/3x3_s2_pool2/3x3_s2_0_split_0
I0403 15:17:53.260099 11803 net.cpp:399] inception_3a/1x1 -> inception_3a/1x1
I0403 15:17:53.261607 11803 net.cpp:141] Setting up inception_3a/1x1
I0403 15:17:53.261636 11803 net.cpp:148] Top shape: 24 64 28 28 (1204224)
I0403 15:17:53.261651 11803 net.cpp:156] Memory required for data: 496141344
I0403 15:17:53.261679 11803 layer_factory.hpp:77] Creating layer inception_3a/relu_1x1
I0403 15:17:53.261698 11803 net.cpp:91] Creating Layer inception_3a/relu_1x1
I0403 15:17:53.261714 11803 net.cpp:425] inception_3a/relu_1x1 <- inception_3a/1x1
I0403 15:17:53.261731 11803 net.cpp:386] inception_3a/relu_1x1 -> inception_3a/1x1 (in-place)
I0403 15:17:53.261905 11803 net.cpp:141] Setting up inception_3a/relu_1x1
I0403 15:17:53.261932 11803 net.cpp:148] Top shape: 24 64 28 28 (1204224)
I0403 15:17:53.261948 11803 net.cpp:156] Memory required for data: 500958240
I0403 15:17:53.261963 11803 layer_factory.hpp:77] Creating layer inception_3a/3x3_reduce
I0403 15:17:53.261984 11803 net.cpp:91] Creating Layer inception_3a/3x3_reduce
I0403 15:17:53.262001 11803 net.cpp:425] inception_3a/3x3_reduce <- pool2/3x3_s2_pool2/3x3_s2_0_split_1
I0403 15:17:53.262019 11803 net.cpp:399] inception_3a/3x3_reduce -> inception_3a/3x3_reduce
I0403 15:17:53.263695 11803 net.cpp:141] Setting up inception_3a/3x3_reduce
I0403 15:17:53.263725 11803 net.cpp:148] Top shape: 24 96 28 28 (1806336)
I0403 15:17:53.263741 11803 net.cpp:156] Memory required for data: 508183584
I0403 15:17:53.263761 11803 layer_factory.hpp:77] Creating layer inception_3a/relu_3x3_reduce
I0403 15:17:53.263798 11803 net.cpp:91] Creating Layer inception_3a/relu_3x3_reduce
I0403 15:17:53.263815 11803 net.cpp:425] inception_3a/relu_3x3_reduce <- inception_3a/3x3_reduce
I0403 15:17:53.263834 11803 net.cpp:386] inception_3a/relu_3x3_reduce -> inception_3a/3x3_reduce (in-place)
I0403 15:17:53.264011 11803 net.cpp:141] Setting up inception_3a/relu_3x3_reduce
I0403 15:17:53.264035 11803 net.cpp:148] Top shape: 24 96 28 28 (1806336)
I0403 15:17:53.264050 11803 net.cpp:156] Memory required for data: 515408928
I0403 15:17:53.264063 11803 layer_factory.hpp:77] Creating layer inception_3a/3x3
I0403 15:17:53.264086 11803 net.cpp:91] Creating Layer inception_3a/3x3
I0403 15:17:53.264101 11803 net.cpp:425] inception_3a/3x3 <- inception_3a/3x3_reduce
I0403 15:17:53.264122 11803 net.cpp:399] inception_3a/3x3 -> inception_3a/3x3
I0403 15:17:53.265751 11803 net.cpp:141] Setting up inception_3a/3x3
I0403 15:17:53.265781 11803 net.cpp:148] Top shape: 24 128 28 28 (2408448)
I0403 15:17:53.265797 11803 net.cpp:156] Memory required for data: 525042720
I0403 15:17:53.265815 11803 layer_factory.hpp:77] Creating layer inception_3a/relu_3x3
I0403 15:17:53.265833 11803 net.cpp:91] Creating Layer inception_3a/relu_3x3
I0403 15:17:53.265848 11803 net.cpp:425] inception_3a/relu_3x3 <- inception_3a/3x3
I0403 15:17:53.265866 11803 net.cpp:386] inception_3a/relu_3x3 -> inception_3a/3x3 (in-place)
I0403 15:17:53.266137 11803 net.cpp:141] Setting up inception_3a/relu_3x3
I0403 15:17:53.266165 11803 net.cpp:148] Top shape: 24 128 28 28 (2408448)
I0403 15:17:53.266181 11803 net.cpp:156] Memory required for data: 534676512
I0403 15:17:53.266196 11803 layer_factory.hpp:77] Creating layer inception_3a/5x5_reduce
I0403 15:17:53.266216 11803 net.cpp:91] Creating Layer inception_3a/5x5_reduce
I0403 15:17:53.266232 11803 net.cpp:425] inception_3a/5x5_reduce <- pool2/3x3_s2_pool2/3x3_s2_0_split_2
I0403 15:17:53.266252 11803 net.cpp:399] inception_3a/5x5_reduce -> inception_3a/5x5_reduce
I0403 15:17:53.267251 11803 net.cpp:141] Setting up inception_3a/5x5_reduce
I0403 15:17:53.267280 11803 net.cpp:148] Top shape: 24 16 28 28 (301056)
I0403 15:17:53.267297 11803 net.cpp:156] Memory required for data: 535880736
I0403 15:17:53.267319 11803 layer_factory.hpp:77] Creating layer inception_3a/relu_5x5_reduce
I0403 15:17:53.267339 11803 net.cpp:91] Creating Layer inception_3a/relu_5x5_reduce
I0403 15:17:53.267355 11803 net.cpp:425] inception_3a/relu_5x5_reduce <- inception_3a/5x5_reduce
I0403 15:17:53.267372 11803 net.cpp:386] inception_3a/relu_5x5_reduce -> inception_3a/5x5_reduce (in-place)
I0403 15:17:53.267674 11803 net.cpp:141] Setting up inception_3a/relu_5x5_reduce
I0403 15:17:53.267701 11803 net.cpp:148] Top shape: 24 16 28 28 (301056)
I0403 15:17:53.267716 11803 net.cpp:156] Memory required for data: 537084960
I0403 15:17:53.267730 11803 layer_factory.hpp:77] Creating layer inception_3a/5x5
I0403 15:17:53.267753 11803 net.cpp:91] Creating Layer inception_3a/5x5
I0403 15:17:53.267771 11803 net.cpp:425] inception_3a/5x5 <- inception_3a/5x5_reduce
I0403 15:17:53.267792 11803 net.cpp:399] inception_3a/5x5 -> inception_3a/5x5
I0403 15:17:53.268824 11803 net.cpp:141] Setting up inception_3a/5x5
I0403 15:17:53.268851 11803 net.cpp:148] Top shape: 24 32 28 28 (602112)
I0403 15:17:53.268867 11803 net.cpp:156] Memory required for data: 539493408
I0403 15:17:53.268884 11803 layer_factory.hpp:77] Creating layer inception_3a/relu_5x5
I0403 15:17:53.268903 11803 net.cpp:91] Creating Layer inception_3a/relu_5x5
I0403 15:17:53.268919 11803 net.cpp:425] inception_3a/relu_5x5 <- inception_3a/5x5
I0403 15:17:53.268936 11803 net.cpp:386] inception_3a/relu_5x5 -> inception_3a/5x5 (in-place)
I0403 15:17:53.269110 11803 net.cpp:141] Setting up inception_3a/relu_5x5
I0403 15:17:53.269135 11803 net.cpp:148] Top shape: 24 32 28 28 (602112)
I0403 15:17:53.269151 11803 net.cpp:156] Memory required for data: 541901856
I0403 15:17:53.269165 11803 layer_factory.hpp:77] Creating layer inception_3a/pool
I0403 15:17:53.269183 11803 net.cpp:91] Creating Layer inception_3a/pool
I0403 15:17:53.269212 11803 net.cpp:425] inception_3a/pool <- pool2/3x3_s2_pool2/3x3_s2_0_split_3
I0403 15:17:53.269232 11803 net.cpp:399] inception_3a/pool -> inception_3a/pool
I0403 15:17:53.269289 11803 net.cpp:141] Setting up inception_3a/pool
I0403 15:17:53.269311 11803 net.cpp:148] Top shape: 24 192 28 28 (3612672)
I0403 15:17:53.269330 11803 net.cpp:156] Memory required for data: 556352544
I0403 15:17:53.269346 11803 layer_factory.hpp:77] Creating layer inception_3a/pool_proj
I0403 15:17:53.269367 11803 net.cpp:91] Creating Layer inception_3a/pool_proj
I0403 15:17:53.269384 11803 net.cpp:425] inception_3a/pool_proj <- inception_3a/pool
I0403 15:17:53.269407 11803 net.cpp:399] inception_3a/pool_proj -> inception_3a/pool_proj
I0403 15:17:53.270355 11803 net.cpp:141] Setting up inception_3a/pool_proj
I0403 15:17:53.270381 11803 net.cpp:148] Top shape: 24 32 28 28 (602112)
I0403 15:17:53.270396 11803 net.cpp:156] Memory required for data: 558760992
I0403 15:17:53.270421 11803 layer_factory.hpp:77] Creating layer inception_3a/relu_pool_proj
I0403 15:17:53.270439 11803 net.cpp:91] Creating Layer inception_3a/relu_pool_proj
I0403 15:17:53.270455 11803 net.cpp:425] inception_3a/relu_pool_proj <- inception_3a/pool_proj
I0403 15:17:53.270472 11803 net.cpp:386] inception_3a/relu_pool_proj -> inception_3a/pool_proj (in-place)
I0403 15:17:53.270763 11803 net.cpp:141] Setting up inception_3a/relu_pool_proj
I0403 15:17:53.270792 11803 net.cpp:148] Top shape: 24 32 28 28 (602112)
I0403 15:17:53.270807 11803 net.cpp:156] Memory required for data: 561169440
I0403 15:17:53.270823 11803 layer_factory.hpp:77] Creating layer inception_3a/output
I0403 15:17:53.270840 11803 net.cpp:91] Creating Layer inception_3a/output
I0403 15:17:53.270855 11803 net.cpp:425] inception_3a/output <- inception_3a/1x1
I0403 15:17:53.270871 11803 net.cpp:425] inception_3a/output <- inception_3a/3x3
I0403 15:17:53.270887 11803 net.cpp:425] inception_3a/output <- inception_3a/5x5
I0403 15:17:53.270915 11803 net.cpp:425] inception_3a/output <- inception_3a/pool_proj
I0403 15:17:53.270931 11803 net.cpp:399] inception_3a/output -> inception_3a/output
I0403 15:17:53.270977 11803 net.cpp:141] Setting up inception_3a/output
I0403 15:17:53.270998 11803 net.cpp:148] Top shape: 24 256 28 28 (4816896)
I0403 15:17:53.271013 11803 net.cpp:156] Memory required for data: 580437024
I0403 15:17:53.271025 11803 layer_factory.hpp:77] Creating layer inception_3a/output_inception_3a/output_0_split
I0403 15:17:53.271042 11803 net.cpp:91] Creating Layer inception_3a/output_inception_3a/output_0_split
I0403 15:17:53.271059 11803 net.cpp:425] inception_3a/output_inception_3a/output_0_split <- inception_3a/output
I0403 15:17:53.271076 11803 net.cpp:399] inception_3a/output_inception_3a/output_0_split -> inception_3a/output_inception_3a/output_0_split_0
I0403 15:17:53.271095 11803 net.cpp:399] inception_3a/output_inception_3a/output_0_split -> inception_3a/output_inception_3a/output_0_split_1
I0403 15:17:53.271118 11803 net.cpp:399] inception_3a/output_inception_3a/output_0_split -> inception_3a/output_inception_3a/output_0_split_2
I0403 15:17:53.271139 11803 net.cpp:399] inception_3a/output_inception_3a/output_0_split -> inception_3a/output_inception_3a/output_0_split_3
I0403 15:17:53.271209 11803 net.cpp:141] Setting up inception_3a/output_inception_3a/output_0_split
I0403 15:17:53.271231 11803 net.cpp:148] Top shape: 24 256 28 28 (4816896)
I0403 15:17:53.271247 11803 net.cpp:148] Top shape: 24 256 28 28 (4816896)
I0403 15:17:53.271262 11803 net.cpp:148] Top shape: 24 256 28 28 (4816896)
I0403 15:17:53.271276 11803 net.cpp:148] Top shape: 24 256 28 28 (4816896)
I0403 15:17:53.271291 11803 net.cpp:156] Memory required for data: 657507360
I0403 15:17:53.271303 11803 layer_factory.hpp:77] Creating layer inception_3b/1x1
I0403 15:17:53.271332 11803 net.cpp:91] Creating Layer inception_3b/1x1
I0403 15:17:53.271350 11803 net.cpp:425] inception_3b/1x1 <- inception_3a/output_inception_3a/output_0_split_0
I0403 15:17:53.271370 11803 net.cpp:399] inception_3b/1x1 -> inception_3b/1x1
I0403 15:17:53.272498 11803 net.cpp:141] Setting up inception_3b/1x1
I0403 15:17:53.272537 11803 net.cpp:148] Top shape: 24 128 28 28 (2408448)
I0403 15:17:53.272553 11803 net.cpp:156] Memory required for data: 667141152
I0403 15:17:53.272570 11803 layer_factory.hpp:77] Creating layer inception_3b/relu_1x1
I0403 15:17:53.272590 11803 net.cpp:91] Creating Layer inception_3b/relu_1x1
I0403 15:17:53.272606 11803 net.cpp:425] inception_3b/relu_1x1 <- inception_3b/1x1
I0403 15:17:53.272624 11803 net.cpp:386] inception_3b/relu_1x1 -> inception_3b/1x1 (in-place)
I0403 15:17:53.272795 11803 net.cpp:141] Setting up inception_3b/relu_1x1
I0403 15:17:53.272822 11803 net.cpp:148] Top shape: 24 128 28 28 (2408448)
I0403 15:17:53.272837 11803 net.cpp:156] Memory required for data: 676774944
I0403 15:17:53.272851 11803 layer_factory.hpp:77] Creating layer inception_3b/3x3_reduce
I0403 15:17:53.272873 11803 net.cpp:91] Creating Layer inception_3b/3x3_reduce
I0403 15:17:53.272889 11803 net.cpp:425] inception_3b/3x3_reduce <- inception_3a/output_inception_3a/output_0_split_1
I0403 15:17:53.272907 11803 net.cpp:399] inception_3b/3x3_reduce -> inception_3b/3x3_reduce
I0403 15:17:53.274044 11803 net.cpp:141] Setting up inception_3b/3x3_reduce
I0403 15:17:53.274070 11803 net.cpp:148] Top shape: 24 128 28 28 (2408448)
I0403 15:17:53.274085 11803 net.cpp:156] Memory required for data: 686408736
I0403 15:17:53.274103 11803 layer_factory.hpp:77] Creating layer inception_3b/relu_3x3_reduce
I0403 15:17:53.274123 11803 net.cpp:91] Creating Layer inception_3b/relu_3x3_reduce
I0403 15:17:53.274139 11803 net.cpp:425] inception_3b/relu_3x3_reduce <- inception_3b/3x3_reduce
I0403 15:17:53.274155 11803 net.cpp:386] inception_3b/relu_3x3_reduce -> inception_3b/3x3_reduce (in-place)
I0403 15:17:53.274335 11803 net.cpp:141] Setting up inception_3b/relu_3x3_reduce
I0403 15:17:53.274359 11803 net.cpp:148] Top shape: 24 128 28 28 (2408448)
I0403 15:17:53.274374 11803 net.cpp:156] Memory required for data: 696042528
I0403 15:17:53.274389 11803 layer_factory.hpp:77] Creating layer inception_3b/3x3
I0403 15:17:53.274413 11803 net.cpp:91] Creating Layer inception_3b/3x3
I0403 15:17:53.274431 11803 net.cpp:425] inception_3b/3x3 <- inception_3b/3x3_reduce
I0403 15:17:53.274451 11803 net.cpp:399] inception_3b/3x3 -> inception_3b/3x3
I0403 15:17:53.277360 11803 net.cpp:141] Setting up inception_3b/3x3
I0403 15:17:53.277390 11803 net.cpp:148] Top shape: 24 192 28 28 (3612672)
I0403 15:17:53.277407 11803 net.cpp:156] Memory required for data: 710493216
I0403 15:17:53.277426 11803 layer_factory.hpp:77] Creating layer inception_3b/relu_3x3
I0403 15:17:53.277443 11803 net.cpp:91] Creating Layer inception_3b/relu_3x3
I0403 15:17:53.277459 11803 net.cpp:425] inception_3b/relu_3x3 <- inception_3b/3x3
I0403 15:17:53.277475 11803 net.cpp:386] inception_3b/relu_3x3 -> inception_3b/3x3 (in-place)
I0403 15:17:53.277752 11803 net.cpp:141] Setting up inception_3b/relu_3x3
I0403 15:17:53.277781 11803 net.cpp:148] Top shape: 24 192 28 28 (3612672)
I0403 15:17:53.277796 11803 net.cpp:156] Memory required for data: 724943904
I0403 15:17:53.277811 11803 layer_factory.hpp:77] Creating layer inception_3b/5x5_reduce
I0403 15:17:53.277832 11803 net.cpp:91] Creating Layer inception_3b/5x5_reduce
I0403 15:17:53.277848 11803 net.cpp:425] inception_3b/5x5_reduce <- inception_3a/output_inception_3a/output_0_split_2
I0403 15:17:53.277866 11803 net.cpp:399] inception_3b/5x5_reduce -> inception_3b/5x5_reduce
I0403 15:17:53.278868 11803 net.cpp:141] Setting up inception_3b/5x5_reduce
I0403 15:17:53.278908 11803 net.cpp:148] Top shape: 24 32 28 28 (602112)
I0403 15:17:53.278926 11803 net.cpp:156] Memory required for data: 727352352
I0403 15:17:53.278944 11803 layer_factory.hpp:77] Creating layer inception_3b/relu_5x5_reduce
I0403 15:17:53.278961 11803 net.cpp:91] Creating Layer inception_3b/relu_5x5_reduce
I0403 15:17:53.278977 11803 net.cpp:425] inception_3b/relu_5x5_reduce <- inception_3b/5x5_reduce
I0403 15:17:53.278993 11803 net.cpp:386] inception_3b/relu_5x5_reduce -> inception_3b/5x5_reduce (in-place)
I0403 15:17:53.279187 11803 net.cpp:141] Setting up inception_3b/relu_5x5_reduce
I0403 15:17:53.279214 11803 net.cpp:148] Top shape: 24 32 28 28 (602112)
I0403 15:17:53.279229 11803 net.cpp:156] Memory required for data: 729760800
I0403 15:17:53.279244 11803 layer_factory.hpp:77] Creating layer inception_3b/5x5
I0403 15:17:53.279265 11803 net.cpp:91] Creating Layer inception_3b/5x5
I0403 15:17:53.279283 11803 net.cpp:425] inception_3b/5x5 <- inception_3b/5x5_reduce
I0403 15:17:53.279300 11803 net.cpp:399] inception_3b/5x5 -> inception_3b/5x5
I0403 15:17:53.281301 11803 net.cpp:141] Setting up inception_3b/5x5
I0403 15:17:53.281334 11803 net.cpp:148] Top shape: 24 96 28 28 (1806336)
I0403 15:17:53.281350 11803 net.cpp:156] Memory required for data: 736986144
I0403 15:17:53.281368 11803 layer_factory.hpp:77] Creating layer inception_3b/relu_5x5
I0403 15:17:53.281388 11803 net.cpp:91] Creating Layer inception_3b/relu_5x5
I0403 15:17:53.281404 11803 net.cpp:425] inception_3b/relu_5x5 <- inception_3b/5x5
I0403 15:17:53.281422 11803 net.cpp:386] inception_3b/relu_5x5 -> inception_3b/5x5 (in-place)
I0403 15:17:53.281625 11803 net.cpp:141] Setting up inception_3b/relu_5x5
I0403 15:17:53.281648 11803 net.cpp:148] Top shape: 24 96 28 28 (1806336)
I0403 15:17:53.281662 11803 net.cpp:156] Memory required for data: 744211488
I0403 15:17:53.281677 11803 layer_factory.hpp:77] Creating layer inception_3b/pool
I0403 15:17:53.281693 11803 net.cpp:91] Creating Layer inception_3b/pool
I0403 15:17:53.281708 11803 net.cpp:425] inception_3b/pool <- inception_3a/output_inception_3a/output_0_split_3
I0403 15:17:53.281723 11803 net.cpp:399] inception_3b/pool -> inception_3b/pool
I0403 15:17:53.281775 11803 net.cpp:141] Setting up inception_3b/pool
I0403 15:17:53.281797 11803 net.cpp:148] Top shape: 24 256 28 28 (4816896)
I0403 15:17:53.281810 11803 net.cpp:156] Memory required for data: 763479072
I0403 15:17:53.281824 11803 layer_factory.hpp:77] Creating layer inception_3b/pool_proj
I0403 15:17:53.281846 11803 net.cpp:91] Creating Layer inception_3b/pool_proj
I0403 15:17:53.281862 11803 net.cpp:425] inception_3b/pool_proj <- inception_3b/pool
I0403 15:17:53.281883 11803 net.cpp:399] inception_3b/pool_proj -> inception_3b/pool_proj
I0403 15:17:53.282932 11803 net.cpp:141] Setting up inception_3b/pool_proj
I0403 15:17:53.282960 11803 net.cpp:148] Top shape: 24 64 28 28 (1204224)
I0403 15:17:53.282975 11803 net.cpp:156] Memory required for data: 768295968
I0403 15:17:53.282994 11803 layer_factory.hpp:77] Creating layer inception_3b/relu_pool_proj
I0403 15:17:53.283010 11803 net.cpp:91] Creating Layer inception_3b/relu_pool_proj
I0403 15:17:53.283025 11803 net.cpp:425] inception_3b/relu_pool_proj <- inception_3b/pool_proj
I0403 15:17:53.283043 11803 net.cpp:386] inception_3b/relu_pool_proj -> inception_3b/pool_proj (in-place)
I0403 15:17:53.283432 11803 net.cpp:141] Setting up inception_3b/relu_pool_proj
I0403 15:17:53.283459 11803 net.cpp:148] Top shape: 24 64 28 28 (1204224)
I0403 15:17:53.283474 11803 net.cpp:156] Memory required for data: 773112864
I0403 15:17:53.283488 11803 layer_factory.hpp:77] Creating layer inception_3b/output
I0403 15:17:53.283504 11803 net.cpp:91] Creating Layer inception_3b/output
I0403 15:17:53.283519 11803 net.cpp:425] inception_3b/output <- inception_3b/1x1
I0403 15:17:53.283534 11803 net.cpp:425] inception_3b/output <- inception_3b/3x3
I0403 15:17:53.283548 11803 net.cpp:425] inception_3b/output <- inception_3b/5x5
I0403 15:17:53.283562 11803 net.cpp:425] inception_3b/output <- inception_3b/pool_proj
I0403 15:17:53.283578 11803 net.cpp:399] inception_3b/output -> inception_3b/output
I0403 15:17:53.283622 11803 net.cpp:141] Setting up inception_3b/output
I0403 15:17:53.283643 11803 net.cpp:148] Top shape: 24 480 28 28 (9031680)
I0403 15:17:53.283658 11803 net.cpp:156] Memory required for data: 809239584
I0403 15:17:53.283670 11803 layer_factory.hpp:77] Creating layer pool3/3x3_s2
I0403 15:17:53.283689 11803 net.cpp:91] Creating Layer pool3/3x3_s2
I0403 15:17:53.283704 11803 net.cpp:425] pool3/3x3_s2 <- inception_3b/output
I0403 15:17:53.283736 11803 net.cpp:399] pool3/3x3_s2 -> pool3/3x3_s2
I0403 15:17:53.283792 11803 net.cpp:141] Setting up pool3/3x3_s2
I0403 15:17:53.283814 11803 net.cpp:148] Top shape: 24 480 14 14 (2257920)
I0403 15:17:53.283828 11803 net.cpp:156] Memory required for data: 818271264
I0403 15:17:53.283841 11803 layer_factory.hpp:77] Creating layer pool3/3x3_s2_pool3/3x3_s2_0_split
I0403 15:17:53.283857 11803 net.cpp:91] Creating Layer pool3/3x3_s2_pool3/3x3_s2_0_split
I0403 15:17:53.283871 11803 net.cpp:425] pool3/3x3_s2_pool3/3x3_s2_0_split <- pool3/3x3_s2
I0403 15:17:53.283890 11803 net.cpp:399] pool3/3x3_s2_pool3/3x3_s2_0_split -> pool3/3x3_s2_pool3/3x3_s2_0_split_0
I0403 15:17:53.283908 11803 net.cpp:399] pool3/3x3_s2_pool3/3x3_s2_0_split -> pool3/3x3_s2_pool3/3x3_s2_0_split_1
I0403 15:17:53.283926 11803 net.cpp:399] pool3/3x3_s2_pool3/3x3_s2_0_split -> pool3/3x3_s2_pool3/3x3_s2_0_split_2
I0403 15:17:53.283944 11803 net.cpp:399] pool3/3x3_s2_pool3/3x3_s2_0_split -> pool3/3x3_s2_pool3/3x3_s2_0_split_3
I0403 15:17:53.284018 11803 net.cpp:141] Setting up pool3/3x3_s2_pool3/3x3_s2_0_split
I0403 15:17:53.284040 11803 net.cpp:148] Top shape: 24 480 14 14 (2257920)
I0403 15:17:53.284056 11803 net.cpp:148] Top shape: 24 480 14 14 (2257920)
I0403 15:17:53.284071 11803 net.cpp:148] Top shape: 24 480 14 14 (2257920)
I0403 15:17:53.284085 11803 net.cpp:148] Top shape: 24 480 14 14 (2257920)
I0403 15:17:53.284097 11803 net.cpp:156] Memory required for data: 854397984
I0403 15:17:53.284111 11803 layer_factory.hpp:77] Creating layer inception_4a/1x1
I0403 15:17:53.284132 11803 net.cpp:91] Creating Layer inception_4a/1x1
I0403 15:17:53.284147 11803 net.cpp:425] inception_4a/1x1 <- pool3/3x3_s2_pool3/3x3_s2_0_split_0
I0403 15:17:53.284164 11803 net.cpp:399] inception_4a/1x1 -> inception_4a/1x1
I0403 15:17:53.285681 11803 net.cpp:141] Setting up inception_4a/1x1
I0403 15:17:53.285706 11803 net.cpp:148] Top shape: 24 192 14 14 (903168)
I0403 15:17:53.285722 11803 net.cpp:156] Memory required for data: 858010656
I0403 15:17:53.285738 11803 layer_factory.hpp:77] Creating layer inception_4a/relu_1x1
I0403 15:17:53.285754 11803 net.cpp:91] Creating Layer inception_4a/relu_1x1
I0403 15:17:53.285773 11803 net.cpp:425] inception_4a/relu_1x1 <- inception_4a/1x1
I0403 15:17:53.285787 11803 net.cpp:386] inception_4a/relu_1x1 -> inception_4a/1x1 (in-place)
I0403 15:17:53.285959 11803 net.cpp:141] Setting up inception_4a/relu_1x1
I0403 15:17:53.285984 11803 net.cpp:148] Top shape: 24 192 14 14 (903168)
I0403 15:17:53.285996 11803 net.cpp:156] Memory required for data: 861623328
I0403 15:17:53.286011 11803 layer_factory.hpp:77] Creating layer inception_4a/3x3_reduce
I0403 15:17:53.286031 11803 net.cpp:91] Creating Layer inception_4a/3x3_reduce
I0403 15:17:53.286047 11803 net.cpp:425] inception_4a/3x3_reduce <- pool3/3x3_s2_pool3/3x3_s2_0_split_1
I0403 15:17:53.286067 11803 net.cpp:399] inception_4a/3x3_reduce -> inception_4a/3x3_reduce
I0403 15:17:53.287328 11803 net.cpp:141] Setting up inception_4a/3x3_reduce
I0403 15:17:53.287354 11803 net.cpp:148] Top shape: 24 96 14 14 (451584)
I0403 15:17:53.287369 11803 net.cpp:156] Memory required for data: 863429664
I0403 15:17:53.287392 11803 layer_factory.hpp:77] Creating layer inception_4a/relu_3x3_reduce
I0403 15:17:53.287411 11803 net.cpp:91] Creating Layer inception_4a/relu_3x3_reduce
I0403 15:17:53.287426 11803 net.cpp:425] inception_4a/relu_3x3_reduce <- inception_4a/3x3_reduce
I0403 15:17:53.287444 11803 net.cpp:386] inception_4a/relu_3x3_reduce -> inception_4a/3x3_reduce (in-place)
I0403 15:17:53.287614 11803 net.cpp:141] Setting up inception_4a/relu_3x3_reduce
I0403 15:17:53.287637 11803 net.cpp:148] Top shape: 24 96 14 14 (451584)
I0403 15:17:53.287652 11803 net.cpp:156] Memory required for data: 865236000
I0403 15:17:53.287665 11803 layer_factory.hpp:77] Creating layer inception_4a/3x3
I0403 15:17:53.287686 11803 net.cpp:91] Creating Layer inception_4a/3x3
I0403 15:17:53.287703 11803 net.cpp:425] inception_4a/3x3 <- inception_4a/3x3_reduce
I0403 15:17:53.287722 11803 net.cpp:399] inception_4a/3x3 -> inception_4a/3x3
I0403 15:17:53.290336 11803 net.cpp:141] Setting up inception_4a/3x3
I0403 15:17:53.290364 11803 net.cpp:148] Top shape: 24 208 14 14 (978432)
I0403 15:17:53.290380 11803 net.cpp:156] Memory required for data: 869149728
I0403 15:17:53.290396 11803 layer_factory.hpp:77] Creating layer inception_4a/relu_3x3
I0403 15:17:53.290416 11803 net.cpp:91] Creating Layer inception_4a/relu_3x3
I0403 15:17:53.290432 11803 net.cpp:425] inception_4a/relu_3x3 <- inception_4a/3x3
I0403 15:17:53.290449 11803 net.cpp:386] inception_4a/relu_3x3 -> inception_4a/3x3 (in-place)
I0403 15:17:53.290748 11803 net.cpp:141] Setting up inception_4a/relu_3x3
I0403 15:17:53.290773 11803 net.cpp:148] Top shape: 24 208 14 14 (978432)
I0403 15:17:53.290787 11803 net.cpp:156] Memory required for data: 873063456
I0403 15:17:53.290802 11803 layer_factory.hpp:77] Creating layer inception_4a/5x5_reduce
I0403 15:17:53.290823 11803 net.cpp:91] Creating Layer inception_4a/5x5_reduce
I0403 15:17:53.290840 11803 net.cpp:425] inception_4a/5x5_reduce <- pool3/3x3_s2_pool3/3x3_s2_0_split_2
I0403 15:17:53.290861 11803 net.cpp:399] inception_4a/5x5_reduce -> inception_4a/5x5_reduce
I0403 15:17:53.291851 11803 net.cpp:141] Setting up inception_4a/5x5_reduce
I0403 15:17:53.291877 11803 net.cpp:148] Top shape: 24 16 14 14 (75264)
I0403 15:17:53.291892 11803 net.cpp:156] Memory required for data: 873364512
I0403 15:17:53.291908 11803 layer_factory.hpp:77] Creating layer inception_4a/relu_5x5_reduce
I0403 15:17:53.291928 11803 net.cpp:91] Creating Layer inception_4a/relu_5x5_reduce
I0403 15:17:53.291944 11803 net.cpp:425] inception_4a/relu_5x5_reduce <- inception_4a/5x5_reduce
I0403 15:17:53.291960 11803 net.cpp:386] inception_4a/relu_5x5_reduce -> inception_4a/5x5_reduce (in-place)
I0403 15:17:53.292131 11803 net.cpp:141] Setting up inception_4a/relu_5x5_reduce
I0403 15:17:53.292156 11803 net.cpp:148] Top shape: 24 16 14 14 (75264)
I0403 15:17:53.292171 11803 net.cpp:156] Memory required for data: 873665568
I0403 15:17:53.292186 11803 layer_factory.hpp:77] Creating layer inception_4a/5x5
I0403 15:17:53.292207 11803 net.cpp:91] Creating Layer inception_4a/5x5
I0403 15:17:53.292222 11803 net.cpp:425] inception_4a/5x5 <- inception_4a/5x5_reduce
I0403 15:17:53.292239 11803 net.cpp:399] inception_4a/5x5 -> inception_4a/5x5
I0403 15:17:53.293284 11803 net.cpp:141] Setting up inception_4a/5x5
I0403 15:17:53.293311 11803 net.cpp:148] Top shape: 24 48 14 14 (225792)
I0403 15:17:53.293351 11803 net.cpp:156] Memory required for data: 874568736
I0403 15:17:53.293371 11803 layer_factory.hpp:77] Creating layer inception_4a/relu_5x5
I0403 15:17:53.293390 11803 net.cpp:91] Creating Layer inception_4a/relu_5x5
I0403 15:17:53.293406 11803 net.cpp:425] inception_4a/relu_5x5 <- inception_4a/5x5
I0403 15:17:53.293424 11803 net.cpp:386] inception_4a/relu_5x5 -> inception_4a/5x5 (in-place)
I0403 15:17:53.293603 11803 net.cpp:141] Setting up inception_4a/relu_5x5
I0403 15:17:53.293627 11803 net.cpp:148] Top shape: 24 48 14 14 (225792)
I0403 15:17:53.293642 11803 net.cpp:156] Memory required for data: 875471904
I0403 15:17:53.293655 11803 layer_factory.hpp:77] Creating layer inception_4a/pool
I0403 15:17:53.293673 11803 net.cpp:91] Creating Layer inception_4a/pool
I0403 15:17:53.293691 11803 net.cpp:425] inception_4a/pool <- pool3/3x3_s2_pool3/3x3_s2_0_split_3
I0403 15:17:53.293709 11803 net.cpp:399] inception_4a/pool -> inception_4a/pool
I0403 15:17:53.293768 11803 net.cpp:141] Setting up inception_4a/pool
I0403 15:17:53.293792 11803 net.cpp:148] Top shape: 24 480 14 14 (2257920)
I0403 15:17:53.293805 11803 net.cpp:156] Memory required for data: 884503584
I0403 15:17:53.293819 11803 layer_factory.hpp:77] Creating layer inception_4a/pool_proj
I0403 15:17:53.293839 11803 net.cpp:91] Creating Layer inception_4a/pool_proj
I0403 15:17:53.293856 11803 net.cpp:425] inception_4a/pool_proj <- inception_4a/pool
I0403 15:17:53.293876 11803 net.cpp:399] inception_4a/pool_proj -> inception_4a/pool_proj
I0403 15:17:53.295055 11803 net.cpp:141] Setting up inception_4a/pool_proj
I0403 15:17:53.295083 11803 net.cpp:148] Top shape: 24 64 14 14 (301056)
I0403 15:17:53.295112 11803 net.cpp:156] Memory required for data: 885707808
I0403 15:17:53.295131 11803 layer_factory.hpp:77] Creating layer inception_4a/relu_pool_proj
I0403 15:17:53.295150 11803 net.cpp:91] Creating Layer inception_4a/relu_pool_proj
I0403 15:17:53.295164 11803 net.cpp:425] inception_4a/relu_pool_proj <- inception_4a/pool_proj
I0403 15:17:53.295184 11803 net.cpp:386] inception_4a/relu_pool_proj -> inception_4a/pool_proj (in-place)
I0403 15:17:53.295469 11803 net.cpp:141] Setting up inception_4a/relu_pool_proj
I0403 15:17:53.295495 11803 net.cpp:148] Top shape: 24 64 14 14 (301056)
I0403 15:17:53.295509 11803 net.cpp:156] Memory required for data: 886912032
I0403 15:17:53.295523 11803 layer_factory.hpp:77] Creating layer inception_4a/output
I0403 15:17:53.295541 11803 net.cpp:91] Creating Layer inception_4a/output
I0403 15:17:53.295554 11803 net.cpp:425] inception_4a/output <- inception_4a/1x1
I0403 15:17:53.295570 11803 net.cpp:425] inception_4a/output <- inception_4a/3x3
I0403 15:17:53.295585 11803 net.cpp:425] inception_4a/output <- inception_4a/5x5
I0403 15:17:53.295600 11803 net.cpp:425] inception_4a/output <- inception_4a/pool_proj
I0403 15:17:53.295619 11803 net.cpp:399] inception_4a/output -> inception_4a/output
I0403 15:17:53.295663 11803 net.cpp:141] Setting up inception_4a/output
I0403 15:17:53.295688 11803 net.cpp:148] Top shape: 24 512 14 14 (2408448)
I0403 15:17:53.295703 11803 net.cpp:156] Memory required for data: 896545824
I0403 15:17:53.295717 11803 layer_factory.hpp:77] Creating layer inception_4a/output_inception_4a/output_0_split
I0403 15:17:53.295734 11803 net.cpp:91] Creating Layer inception_4a/output_inception_4a/output_0_split
I0403 15:17:53.295748 11803 net.cpp:425] inception_4a/output_inception_4a/output_0_split <- inception_4a/output
I0403 15:17:53.295765 11803 net.cpp:399] inception_4a/output_inception_4a/output_0_split -> inception_4a/output_inception_4a/output_0_split_0
I0403 15:17:53.295786 11803 net.cpp:399] inception_4a/output_inception_4a/output_0_split -> inception_4a/output_inception_4a/output_0_split_1
I0403 15:17:53.295807 11803 net.cpp:399] inception_4a/output_inception_4a/output_0_split -> inception_4a/output_inception_4a/output_0_split_2
I0403 15:17:53.295826 11803 net.cpp:399] inception_4a/output_inception_4a/output_0_split -> inception_4a/output_inception_4a/output_0_split_3
I0403 15:17:53.295845 11803 net.cpp:399] inception_4a/output_inception_4a/output_0_split -> inception_4a/output_inception_4a/output_0_split_4
I0403 15:17:53.295935 11803 net.cpp:141] Setting up inception_4a/output_inception_4a/output_0_split
I0403 15:17:53.295958 11803 net.cpp:148] Top shape: 24 512 14 14 (2408448)
I0403 15:17:53.295974 11803 net.cpp:148] Top shape: 24 512 14 14 (2408448)
I0403 15:17:53.295991 11803 net.cpp:148] Top shape: 24 512 14 14 (2408448)
I0403 15:17:53.296006 11803 net.cpp:148] Top shape: 24 512 14 14 (2408448)
I0403 15:17:53.296020 11803 net.cpp:148] Top shape: 24 512 14 14 (2408448)
I0403 15:17:53.296035 11803 net.cpp:156] Memory required for data: 944714784
I0403 15:17:53.296047 11803 layer_factory.hpp:77] Creating layer loss1/ave_pool
I0403 15:17:53.296064 11803 net.cpp:91] Creating Layer loss1/ave_pool
I0403 15:17:53.296079 11803 net.cpp:425] loss1/ave_pool <- inception_4a/output_inception_4a/output_0_split_0
I0403 15:17:53.296095 11803 net.cpp:399] loss1/ave_pool -> loss1/ave_pool
I0403 15:17:53.296298 11803 net.cpp:141] Setting up loss1/ave_pool
I0403 15:17:53.296327 11803 net.cpp:148] Top shape: 24 512 4 4 (196608)
I0403 15:17:53.296344 11803 net.cpp:156] Memory required for data: 945501216
I0403 15:17:53.296357 11803 layer_factory.hpp:77] Creating layer loss1/conv
I0403 15:17:53.296380 11803 net.cpp:91] Creating Layer loss1/conv
I0403 15:17:53.296396 11803 net.cpp:425] loss1/conv <- loss1/ave_pool
I0403 15:17:53.296416 11803 net.cpp:399] loss1/conv -> loss1/conv
I0403 15:17:53.297806 11803 net.cpp:141] Setting up loss1/conv
I0403 15:17:53.297832 11803 net.cpp:148] Top shape: 24 128 4 4 (49152)
I0403 15:17:53.297862 11803 net.cpp:156] Memory required for data: 945697824
I0403 15:17:53.297880 11803 layer_factory.hpp:77] Creating layer loss1/relu_conv
I0403 15:17:53.297900 11803 net.cpp:91] Creating Layer loss1/relu_conv
I0403 15:17:53.297916 11803 net.cpp:425] loss1/relu_conv <- loss1/conv
I0403 15:17:53.297933 11803 net.cpp:386] loss1/relu_conv -> loss1/conv (in-place)
I0403 15:17:53.298213 11803 net.cpp:141] Setting up loss1/relu_conv
I0403 15:17:53.298238 11803 net.cpp:148] Top shape: 24 128 4 4 (49152)
I0403 15:17:53.298251 11803 net.cpp:156] Memory required for data: 945894432
I0403 15:17:53.298266 11803 layer_factory.hpp:77] Creating layer loss1/fc
I0403 15:17:53.298290 11803 net.cpp:91] Creating Layer loss1/fc
I0403 15:17:53.298308 11803 net.cpp:425] loss1/fc <- loss1/conv
I0403 15:17:53.298331 11803 net.cpp:399] loss1/fc -> loss1/fc
I0403 15:17:53.316488 11803 net.cpp:141] Setting up loss1/fc
I0403 15:17:53.316527 11803 net.cpp:148] Top shape: 24 1024 (24576)
I0403 15:17:53.316542 11803 net.cpp:156] Memory required for data: 945992736
I0403 15:17:53.316561 11803 layer_factory.hpp:77] Creating layer loss1/relu_fc
I0403 15:17:53.316581 11803 net.cpp:91] Creating Layer loss1/relu_fc
I0403 15:17:53.316596 11803 net.cpp:425] loss1/relu_fc <- loss1/fc
I0403 15:17:53.316617 11803 net.cpp:386] loss1/relu_fc -> loss1/fc (in-place)
I0403 15:17:53.316828 11803 net.cpp:141] Setting up loss1/relu_fc
I0403 15:17:53.316853 11803 net.cpp:148] Top shape: 24 1024 (24576)
I0403 15:17:53.316866 11803 net.cpp:156] Memory required for data: 946091040
I0403 15:17:53.316880 11803 layer_factory.hpp:77] Creating layer loss1/drop_fc
I0403 15:17:53.316908 11803 net.cpp:91] Creating Layer loss1/drop_fc
I0403 15:17:53.316926 11803 net.cpp:425] loss1/drop_fc <- loss1/fc
I0403 15:17:53.316972 11803 net.cpp:386] loss1/drop_fc -> loss1/fc (in-place)
I0403 15:17:53.317025 11803 net.cpp:141] Setting up loss1/drop_fc
I0403 15:17:53.317052 11803 net.cpp:148] Top shape: 24 1024 (24576)
I0403 15:17:53.317067 11803 net.cpp:156] Memory required for data: 946189344
I0403 15:17:53.317082 11803 layer_factory.hpp:77] Creating layer loss1/classifier_plantvillage
I0403 15:17:53.317101 11803 net.cpp:91] Creating Layer loss1/classifier_plantvillage
I0403 15:17:53.317116 11803 net.cpp:425] loss1/classifier_plantvillage <- loss1/fc
I0403 15:17:53.317137 11803 net.cpp:399] loss1/classifier_plantvillage -> loss1/classifier_plantvillage
I0403 15:17:53.318075 11803 net.cpp:141] Setting up loss1/classifier_plantvillage
I0403 15:17:53.318104 11803 net.cpp:148] Top shape: 24 38 (912)
I0403 15:17:53.318119 11803 net.cpp:156] Memory required for data: 946192992
I0403 15:17:53.318136 11803 layer_factory.hpp:77] Creating layer loss1/classifier_plantvillage_loss1/classifier_plantvillage_0_split
I0403 15:17:53.318156 11803 net.cpp:91] Creating Layer loss1/classifier_plantvillage_loss1/classifier_plantvillage_0_split
I0403 15:17:53.318172 11803 net.cpp:425] loss1/classifier_plantvillage_loss1/classifier_plantvillage_0_split <- loss1/classifier_plantvillage
I0403 15:17:53.318189 11803 net.cpp:399] loss1/classifier_plantvillage_loss1/classifier_plantvillage_0_split -> loss1/classifier_plantvillage_loss1/classifier_plantvillage_0_split_0
I0403 15:17:53.318209 11803 net.cpp:399] loss1/classifier_plantvillage_loss1/classifier_plantvillage_0_split -> loss1/classifier_plantvillage_loss1/classifier_plantvillage_0_split_1
I0403 15:17:53.318228 11803 net.cpp:399] loss1/classifier_plantvillage_loss1/classifier_plantvillage_0_split -> loss1/classifier_plantvillage_loss1/classifier_plantvillage_0_split_2
I0403 15:17:53.318292 11803 net.cpp:141] Setting up loss1/classifier_plantvillage_loss1/classifier_plantvillage_0_split
I0403 15:17:53.318323 11803 net.cpp:148] Top shape: 24 38 (912)
I0403 15:17:53.318342 11803 net.cpp:148] Top shape: 24 38 (912)
I0403 15:17:53.318358 11803 net.cpp:148] Top shape: 24 38 (912)
I0403 15:17:53.318372 11803 net.cpp:156] Memory required for data: 946203936
I0403 15:17:53.318385 11803 layer_factory.hpp:77] Creating layer inception_4b/1x1
I0403 15:17:53.318406 11803 net.cpp:91] Creating Layer inception_4b/1x1
I0403 15:17:53.318446 11803 net.cpp:425] inception_4b/1x1 <- inception_4a/output_inception_4a/output_0_split_1
I0403 15:17:53.318470 11803 net.cpp:399] inception_4b/1x1 -> inception_4b/1x1
I0403 15:17:53.320179 11803 net.cpp:141] Setting up inception_4b/1x1
I0403 15:17:53.320209 11803 net.cpp:148] Top shape: 24 160 14 14 (752640)
I0403 15:17:53.320224 11803 net.cpp:156] Memory required for data: 949214496
I0403 15:17:53.320241 11803 layer_factory.hpp:77] Creating layer inception_4b/relu_1x1
I0403 15:17:53.320261 11803 net.cpp:91] Creating Layer inception_4b/relu_1x1
I0403 15:17:53.320277 11803 net.cpp:425] inception_4b/relu_1x1 <- inception_4b/1x1
I0403 15:17:53.320294 11803 net.cpp:386] inception_4b/relu_1x1 -> inception_4b/1x1 (in-place)
I0403 15:17:53.320482 11803 net.cpp:141] Setting up inception_4b/relu_1x1
I0403 15:17:53.320508 11803 net.cpp:148] Top shape: 24 160 14 14 (752640)
I0403 15:17:53.320524 11803 net.cpp:156] Memory required for data: 952225056
I0403 15:17:53.320538 11803 layer_factory.hpp:77] Creating layer inception_4b/3x3_reduce
I0403 15:17:53.320560 11803 net.cpp:91] Creating Layer inception_4b/3x3_reduce
I0403 15:17:53.320577 11803 net.cpp:425] inception_4b/3x3_reduce <- inception_4a/output_inception_4a/output_0_split_2
I0403 15:17:53.320596 11803 net.cpp:399] inception_4b/3x3_reduce -> inception_4b/3x3_reduce
I0403 15:17:53.321979 11803 net.cpp:141] Setting up inception_4b/3x3_reduce
I0403 15:17:53.322008 11803 net.cpp:148] Top shape: 24 112 14 14 (526848)
I0403 15:17:53.322026 11803 net.cpp:156] Memory required for data: 954332448
I0403 15:17:53.322043 11803 layer_factory.hpp:77] Creating layer inception_4b/relu_3x3_reduce
I0403 15:17:53.322062 11803 net.cpp:91] Creating Layer inception_4b/relu_3x3_reduce
I0403 15:17:53.322077 11803 net.cpp:425] inception_4b/relu_3x3_reduce <- inception_4b/3x3_reduce
I0403 15:17:53.322096 11803 net.cpp:386] inception_4b/relu_3x3_reduce -> inception_4b/3x3_reduce (in-place)
I0403 15:17:53.322389 11803 net.cpp:141] Setting up inception_4b/relu_3x3_reduce
I0403 15:17:53.322417 11803 net.cpp:148] Top shape: 24 112 14 14 (526848)
I0403 15:17:53.322433 11803 net.cpp:156] Memory required for data: 956439840
I0403 15:17:53.322448 11803 layer_factory.hpp:77] Creating layer inception_4b/3x3
I0403 15:17:53.322469 11803 net.cpp:91] Creating Layer inception_4b/3x3
I0403 15:17:53.322487 11803 net.cpp:425] inception_4b/3x3 <- inception_4b/3x3_reduce
I0403 15:17:53.322505 11803 net.cpp:399] inception_4b/3x3 -> inception_4b/3x3
I0403 15:17:53.325515 11803 net.cpp:141] Setting up inception_4b/3x3
I0403 15:17:53.325542 11803 net.cpp:148] Top shape: 24 224 14 14 (1053696)
I0403 15:17:53.325558 11803 net.cpp:156] Memory required for data: 960654624
I0403 15:17:53.325577 11803 layer_factory.hpp:77] Creating layer inception_4b/relu_3x3
I0403 15:17:53.325598 11803 net.cpp:91] Creating Layer inception_4b/relu_3x3
I0403 15:17:53.325614 11803 net.cpp:425] inception_4b/relu_3x3 <- inception_4b/3x3
I0403 15:17:53.325631 11803 net.cpp:386] inception_4b/relu_3x3 -> inception_4b/3x3 (in-place)
I0403 15:17:53.325809 11803 net.cpp:141] Setting up inception_4b/relu_3x3
I0403 15:17:53.325834 11803 net.cpp:148] Top shape: 24 224 14 14 (1053696)
I0403 15:17:53.325847 11803 net.cpp:156] Memory required for data: 964869408
I0403 15:17:53.325861 11803 layer_factory.hpp:77] Creating layer inception_4b/5x5_reduce
I0403 15:17:53.325883 11803 net.cpp:91] Creating Layer inception_4b/5x5_reduce
I0403 15:17:53.325901 11803 net.cpp:425] inception_4b/5x5_reduce <- inception_4a/output_inception_4a/output_0_split_3
I0403 15:17:53.325923 11803 net.cpp:399] inception_4b/5x5_reduce -> inception_4b/5x5_reduce
I0403 15:17:53.327038 11803 net.cpp:141] Setting up inception_4b/5x5_reduce
I0403 15:17:53.327064 11803 net.cpp:148] Top shape: 24 24 14 14 (112896)
I0403 15:17:53.327080 11803 net.cpp:156] Memory required for data: 965320992
I0403 15:17:53.327097 11803 layer_factory.hpp:77] Creating layer inception_4b/relu_5x5_reduce
I0403 15:17:53.327118 11803 net.cpp:91] Creating Layer inception_4b/relu_5x5_reduce
I0403 15:17:53.327148 11803 net.cpp:425] inception_4b/relu_5x5_reduce <- inception_4b/5x5_reduce
I0403 15:17:53.327167 11803 net.cpp:386] inception_4b/relu_5x5_reduce -> inception_4b/5x5_reduce (in-place)
I0403 15:17:53.327358 11803 net.cpp:141] Setting up inception_4b/relu_5x5_reduce
I0403 15:17:53.327383 11803 net.cpp:148] Top shape: 24 24 14 14 (112896)
I0403 15:17:53.327397 11803 net.cpp:156] Memory required for data: 965772576
I0403 15:17:53.327412 11803 layer_factory.hpp:77] Creating layer inception_4b/5x5
I0403 15:17:53.327433 11803 net.cpp:91] Creating Layer inception_4b/5x5
I0403 15:17:53.327451 11803 net.cpp:425] inception_4b/5x5 <- inception_4b/5x5_reduce
I0403 15:17:53.327471 11803 net.cpp:399] inception_4b/5x5 -> inception_4b/5x5
I0403 15:17:53.328686 11803 net.cpp:141] Setting up inception_4b/5x5
I0403 15:17:53.328713 11803 net.cpp:148] Top shape: 24 64 14 14 (301056)
I0403 15:17:53.328728 11803 net.cpp:156] Memory required for data: 966976800
I0403 15:17:53.328747 11803 layer_factory.hpp:77] Creating layer inception_4b/relu_5x5
I0403 15:17:53.328768 11803 net.cpp:91] Creating Layer inception_4b/relu_5x5
I0403 15:17:53.328783 11803 net.cpp:425] inception_4b/relu_5x5 <- inception_4b/5x5
I0403 15:17:53.328799 11803 net.cpp:386] inception_4b/relu_5x5 -> inception_4b/5x5 (in-place)
I0403 15:17:53.329082 11803 net.cpp:141] Setting up inception_4b/relu_5x5
I0403 15:17:53.329108 11803 net.cpp:148] Top shape: 24 64 14 14 (301056)
I0403 15:17:53.329123 11803 net.cpp:156] Memory required for data: 968181024
I0403 15:17:53.329138 11803 layer_factory.hpp:77] Creating layer inception_4b/pool
I0403 15:17:53.329157 11803 net.cpp:91] Creating Layer inception_4b/pool
I0403 15:17:53.329174 11803 net.cpp:425] inception_4b/pool <- inception_4a/output_inception_4a/output_0_split_4
I0403 15:17:53.329191 11803 net.cpp:399] inception_4b/pool -> inception_4b/pool
I0403 15:17:53.329255 11803 net.cpp:141] Setting up inception_4b/pool
I0403 15:17:53.329278 11803 net.cpp:148] Top shape: 24 512 14 14 (2408448)
I0403 15:17:53.329293 11803 net.cpp:156] Memory required for data: 977814816
I0403 15:17:53.329306 11803 layer_factory.hpp:77] Creating layer inception_4b/pool_proj
I0403 15:17:53.329334 11803 net.cpp:91] Creating Layer inception_4b/pool_proj
I0403 15:17:53.329352 11803 net.cpp:425] inception_4b/pool_proj <- inception_4b/pool
I0403 15:17:53.329372 11803 net.cpp:399] inception_4b/pool_proj -> inception_4b/pool_proj
I0403 15:17:53.330569 11803 net.cpp:141] Setting up inception_4b/pool_proj
I0403 15:17:53.330598 11803 net.cpp:148] Top shape: 24 64 14 14 (301056)
I0403 15:17:53.330627 11803 net.cpp:156] Memory required for data: 979019040
I0403 15:17:53.330646 11803 layer_factory.hpp:77] Creating layer inception_4b/relu_pool_proj
I0403 15:17:53.330664 11803 net.cpp:91] Creating Layer inception_4b/relu_pool_proj
I0403 15:17:53.330680 11803 net.cpp:425] inception_4b/relu_pool_proj <- inception_4b/pool_proj
I0403 15:17:53.330698 11803 net.cpp:386] inception_4b/relu_pool_proj -> inception_4b/pool_proj (in-place)
I0403 15:17:53.330883 11803 net.cpp:141] Setting up inception_4b/relu_pool_proj
I0403 15:17:53.330920 11803 net.cpp:148] Top shape: 24 64 14 14 (301056)
I0403 15:17:53.330936 11803 net.cpp:156] Memory required for data: 980223264
I0403 15:17:53.330950 11803 layer_factory.hpp:77] Creating layer inception_4b/output
I0403 15:17:53.330967 11803 net.cpp:91] Creating Layer inception_4b/output
I0403 15:17:53.330982 11803 net.cpp:425] inception_4b/output <- inception_4b/1x1
I0403 15:17:53.330999 11803 net.cpp:425] inception_4b/output <- inception_4b/3x3
I0403 15:17:53.331014 11803 net.cpp:425] inception_4b/output <- inception_4b/5x5
I0403 15:17:53.331029 11803 net.cpp:425] inception_4b/output <- inception_4b/pool_proj
I0403 15:17:53.331048 11803 net.cpp:399] inception_4b/output -> inception_4b/output
I0403 15:17:53.331094 11803 net.cpp:141] Setting up inception_4b/output
I0403 15:17:53.331116 11803 net.cpp:148] Top shape: 24 512 14 14 (2408448)
I0403 15:17:53.331130 11803 net.cpp:156] Memory required for data: 989857056
I0403 15:17:53.331159 11803 layer_factory.hpp:77] Creating layer inception_4b/output_inception_4b/output_0_split
I0403 15:17:53.331179 11803 net.cpp:91] Creating Layer inception_4b/output_inception_4b/output_0_split
I0403 15:17:53.331195 11803 net.cpp:425] inception_4b/output_inception_4b/output_0_split <- inception_4b/output
I0403 15:17:53.331212 11803 net.cpp:399] inception_4b/output_inception_4b/output_0_split -> inception_4b/output_inception_4b/output_0_split_0
I0403 15:17:53.331233 11803 net.cpp:399] inception_4b/output_inception_4b/output_0_split -> inception_4b/output_inception_4b/output_0_split_1
I0403 15:17:53.331255 11803 net.cpp:399] inception_4b/output_inception_4b/output_0_split -> inception_4b/output_inception_4b/output_0_split_2
I0403 15:17:53.331275 11803 net.cpp:399] inception_4b/output_inception_4b/output_0_split -> inception_4b/output_inception_4b/output_0_split_3
I0403 15:17:53.331364 11803 net.cpp:141] Setting up inception_4b/output_inception_4b/output_0_split
I0403 15:17:53.331387 11803 net.cpp:148] Top shape: 24 512 14 14 (2408448)
I0403 15:17:53.331403 11803 net.cpp:148] Top shape: 24 512 14 14 (2408448)
I0403 15:17:53.331418 11803 net.cpp:148] Top shape: 24 512 14 14 (2408448)
I0403 15:17:53.331436 11803 net.cpp:148] Top shape: 24 512 14 14 (2408448)
I0403 15:17:53.331465 11803 net.cpp:156] Memory required for data: 1028392224
I0403 15:17:53.331480 11803 layer_factory.hpp:77] Creating layer inception_4c/1x1
I0403 15:17:53.331502 11803 net.cpp:91] Creating Layer inception_4c/1x1
I0403 15:17:53.331522 11803 net.cpp:425] inception_4c/1x1 <- inception_4b/output_inception_4b/output_0_split_0
I0403 15:17:53.331543 11803 net.cpp:399] inception_4c/1x1 -> inception_4c/1x1
I0403 15:17:53.333006 11803 net.cpp:141] Setting up inception_4c/1x1
I0403 15:17:53.333036 11803 net.cpp:148] Top shape: 24 128 14 14 (602112)
I0403 15:17:53.333053 11803 net.cpp:156] Memory required for data: 1030800672
I0403 15:17:53.333071 11803 layer_factory.hpp:77] Creating layer inception_4c/relu_1x1
I0403 15:17:53.333089 11803 net.cpp:91] Creating Layer inception_4c/relu_1x1
I0403 15:17:53.333104 11803 net.cpp:425] inception_4c/relu_1x1 <- inception_4c/1x1
I0403 15:17:53.333123 11803 net.cpp:386] inception_4c/relu_1x1 -> inception_4c/1x1 (in-place)
I0403 15:17:53.333304 11803 net.cpp:141] Setting up inception_4c/relu_1x1
I0403 15:17:53.333334 11803 net.cpp:148] Top shape: 24 128 14 14 (602112)
I0403 15:17:53.333349 11803 net.cpp:156] Memory required for data: 1033209120
I0403 15:17:53.333364 11803 layer_factory.hpp:77] Creating layer inception_4c/3x3_reduce
I0403 15:17:53.333386 11803 net.cpp:91] Creating Layer inception_4c/3x3_reduce
I0403 15:17:53.333403 11803 net.cpp:425] inception_4c/3x3_reduce <- inception_4b/output_inception_4b/output_0_split_1
I0403 15:17:53.333423 11803 net.cpp:399] inception_4c/3x3_reduce -> inception_4c/3x3_reduce
I0403 15:17:53.335407 11803 net.cpp:141] Setting up inception_4c/3x3_reduce
I0403 15:17:53.335436 11803 net.cpp:148] Top shape: 24 128 14 14 (602112)
I0403 15:17:53.335451 11803 net.cpp:156] Memory required for data: 1035617568
I0403 15:17:53.335469 11803 layer_factory.hpp:77] Creating layer inception_4c/relu_3x3_reduce
I0403 15:17:53.335489 11803 net.cpp:91] Creating Layer inception_4c/relu_3x3_reduce
I0403 15:17:53.335505 11803 net.cpp:425] inception_4c/relu_3x3_reduce <- inception_4c/3x3_reduce
I0403 15:17:53.335522 11803 net.cpp:386] inception_4c/relu_3x3_reduce -> inception_4c/3x3_reduce (in-place)
I0403 15:17:53.335810 11803 net.cpp:141] Setting up inception_4c/relu_3x3_reduce
I0403 15:17:53.335836 11803 net.cpp:148] Top shape: 24 128 14 14 (602112)
I0403 15:17:53.335850 11803 net.cpp:156] Memory required for data: 1038026016
I0403 15:17:53.335865 11803 layer_factory.hpp:77] Creating layer inception_4c/3x3
I0403 15:17:53.335887 11803 net.cpp:91] Creating Layer inception_4c/3x3
I0403 15:17:53.335903 11803 net.cpp:425] inception_4c/3x3 <- inception_4c/3x3_reduce
I0403 15:17:53.335925 11803 net.cpp:399] inception_4c/3x3 -> inception_4c/3x3
I0403 15:17:53.339591 11803 net.cpp:141] Setting up inception_4c/3x3
I0403 15:17:53.339632 11803 net.cpp:148] Top shape: 24 256 14 14 (1204224)
I0403 15:17:53.339648 11803 net.cpp:156] Memory required for data: 1042842912
I0403 15:17:53.339680 11803 layer_factory.hpp:77] Creating layer inception_4c/relu_3x3
I0403 15:17:53.339702 11803 net.cpp:91] Creating Layer inception_4c/relu_3x3
I0403 15:17:53.339718 11803 net.cpp:425] inception_4c/relu_3x3 <- inception_4c/3x3
I0403 15:17:53.339735 11803 net.cpp:386] inception_4c/relu_3x3 -> inception_4c/3x3 (in-place)
I0403 15:17:53.339920 11803 net.cpp:141] Setting up inception_4c/relu_3x3
I0403 15:17:53.339943 11803 net.cpp:148] Top shape: 24 256 14 14 (1204224)
I0403 15:17:53.339958 11803 net.cpp:156] Memory required for data: 1047659808
I0403 15:17:53.339972 11803 layer_factory.hpp:77] Creating layer inception_4c/5x5_reduce
I0403 15:17:53.339997 11803 net.cpp:91] Creating Layer inception_4c/5x5_reduce
I0403 15:17:53.340014 11803 net.cpp:425] inception_4c/5x5_reduce <- inception_4b/output_inception_4b/output_0_split_2
I0403 15:17:53.340032 11803 net.cpp:399] inception_4c/5x5_reduce -> inception_4c/5x5_reduce
I0403 15:17:53.341135 11803 net.cpp:141] Setting up inception_4c/5x5_reduce
I0403 15:17:53.341161 11803 net.cpp:148] Top shape: 24 24 14 14 (112896)
I0403 15:17:53.341176 11803 net.cpp:156] Memory required for data: 1048111392
I0403 15:17:53.341192 11803 layer_factory.hpp:77] Creating layer inception_4c/relu_5x5_reduce
I0403 15:17:53.341212 11803 net.cpp:91] Creating Layer inception_4c/relu_5x5_reduce
I0403 15:17:53.341228 11803 net.cpp:425] inception_4c/relu_5x5_reduce <- inception_4c/5x5_reduce
I0403 15:17:53.341243 11803 net.cpp:386] inception_4c/relu_5x5_reduce -> inception_4c/5x5_reduce (in-place)
I0403 15:17:53.341431 11803 net.cpp:141] Setting up inception_4c/relu_5x5_reduce
I0403 15:17:53.341455 11803 net.cpp:148] Top shape: 24 24 14 14 (112896)
I0403 15:17:53.341470 11803 net.cpp:156] Memory required for data: 1048562976
I0403 15:17:53.341485 11803 layer_factory.hpp:77] Creating layer inception_4c/5x5
I0403 15:17:53.341506 11803 net.cpp:91] Creating Layer inception_4c/5x5
I0403 15:17:53.341522 11803 net.cpp:425] inception_4c/5x5 <- inception_4c/5x5_reduce
I0403 15:17:53.341543 11803 net.cpp:399] inception_4c/5x5 -> inception_4c/5x5
I0403 15:17:53.342844 11803 net.cpp:141] Setting up inception_4c/5x5
I0403 15:17:53.342874 11803 net.cpp:148] Top shape: 24 64 14 14 (301056)
I0403 15:17:53.342890 11803 net.cpp:156] Memory required for data: 1049767200
I0403 15:17:53.342921 11803 layer_factory.hpp:77] Creating layer inception_4c/relu_5x5
I0403 15:17:53.342938 11803 net.cpp:91] Creating Layer inception_4c/relu_5x5
I0403 15:17:53.342953 11803 net.cpp:425] inception_4c/relu_5x5 <- inception_4c/5x5
I0403 15:17:53.342972 11803 net.cpp:386] inception_4c/relu_5x5 -> inception_4c/5x5 (in-place)
I0403 15:17:53.343261 11803 net.cpp:141] Setting up inception_4c/relu_5x5
I0403 15:17:53.343288 11803 net.cpp:148] Top shape: 24 64 14 14 (301056)
I0403 15:17:53.343304 11803 net.cpp:156] Memory required for data: 1050971424
I0403 15:17:53.343324 11803 layer_factory.hpp:77] Creating layer inception_4c/pool
I0403 15:17:53.343343 11803 net.cpp:91] Creating Layer inception_4c/pool
I0403 15:17:53.343358 11803 net.cpp:425] inception_4c/pool <- inception_4b/output_inception_4b/output_0_split_3
I0403 15:17:53.343379 11803 net.cpp:399] inception_4c/pool -> inception_4c/pool
I0403 15:17:53.343444 11803 net.cpp:141] Setting up inception_4c/pool
I0403 15:17:53.343469 11803 net.cpp:148] Top shape: 24 512 14 14 (2408448)
I0403 15:17:53.343484 11803 net.cpp:156] Memory required for data: 1060605216
I0403 15:17:53.343498 11803 layer_factory.hpp:77] Creating layer inception_4c/pool_proj
I0403 15:17:53.343518 11803 net.cpp:91] Creating Layer inception_4c/pool_proj
I0403 15:17:53.343533 11803 net.cpp:425] inception_4c/pool_proj <- inception_4c/pool
I0403 15:17:53.343554 11803 net.cpp:399] inception_4c/pool_proj -> inception_4c/pool_proj
I0403 15:17:53.344808 11803 net.cpp:141] Setting up inception_4c/pool_proj
I0403 15:17:53.344835 11803 net.cpp:148] Top shape: 24 64 14 14 (301056)
I0403 15:17:53.344863 11803 net.cpp:156] Memory required for data: 1061809440
I0403 15:17:53.344882 11803 layer_factory.hpp:77] Creating layer inception_4c/relu_pool_proj
I0403 15:17:53.344904 11803 net.cpp:91] Creating Layer inception_4c/relu_pool_proj
I0403 15:17:53.344920 11803 net.cpp:425] inception_4c/relu_pool_proj <- inception_4c/pool_proj
I0403 15:17:53.344936 11803 net.cpp:386] inception_4c/relu_pool_proj -> inception_4c/pool_proj (in-place)
I0403 15:17:53.345120 11803 net.cpp:141] Setting up inception_4c/relu_pool_proj
I0403 15:17:53.345146 11803 net.cpp:148] Top shape: 24 64 14 14 (301056)
I0403 15:17:53.345161 11803 net.cpp:156] Memory required for data: 1063013664
I0403 15:17:53.345176 11803 layer_factory.hpp:77] Creating layer inception_4c/output
I0403 15:17:53.345192 11803 net.cpp:91] Creating Layer inception_4c/output
I0403 15:17:53.345207 11803 net.cpp:425] inception_4c/output <- inception_4c/1x1
I0403 15:17:53.345222 11803 net.cpp:425] inception_4c/output <- inception_4c/3x3
I0403 15:17:53.345237 11803 net.cpp:425] inception_4c/output <- inception_4c/5x5
I0403 15:17:53.345252 11803 net.cpp:425] inception_4c/output <- inception_4c/pool_proj
I0403 15:17:53.345270 11803 net.cpp:399] inception_4c/output -> inception_4c/output
I0403 15:17:53.345322 11803 net.cpp:141] Setting up inception_4c/output
I0403 15:17:53.345345 11803 net.cpp:148] Top shape: 24 512 14 14 (2408448)
I0403 15:17:53.345360 11803 net.cpp:156] Memory required for data: 1072647456
I0403 15:17:53.345373 11803 layer_factory.hpp:77] Creating layer inception_4c/output_inception_4c/output_0_split
I0403 15:17:53.345392 11803 net.cpp:91] Creating Layer inception_4c/output_inception_4c/output_0_split
I0403 15:17:53.345407 11803 net.cpp:425] inception_4c/output_inception_4c/output_0_split <- inception_4c/output
I0403 15:17:53.345424 11803 net.cpp:399] inception_4c/output_inception_4c/output_0_split -> inception_4c/output_inception_4c/output_0_split_0
I0403 15:17:53.345444 11803 net.cpp:399] inception_4c/output_inception_4c/output_0_split -> inception_4c/output_inception_4c/output_0_split_1
I0403 15:17:53.345465 11803 net.cpp:399] inception_4c/output_inception_4c/output_0_split -> inception_4c/output_inception_4c/output_0_split_2
I0403 15:17:53.345486 11803 net.cpp:399] inception_4c/output_inception_4c/output_0_split -> inception_4c/output_inception_4c/output_0_split_3
I0403 15:17:53.345569 11803 net.cpp:141] Setting up inception_4c/output_inception_4c/output_0_split
I0403 15:17:53.345592 11803 net.cpp:148] Top shape: 24 512 14 14 (2408448)
I0403 15:17:53.345607 11803 net.cpp:148] Top shape: 24 512 14 14 (2408448)
I0403 15:17:53.345623 11803 net.cpp:148] Top shape: 24 512 14 14 (2408448)
I0403 15:17:53.345638 11803 net.cpp:148] Top shape: 24 512 14 14 (2408448)
I0403 15:17:53.345649 11803 net.cpp:156] Memory required for data: 1111182624
I0403 15:17:53.345664 11803 layer_factory.hpp:77] Creating layer inception_4d/1x1
I0403 15:17:53.345685 11803 net.cpp:91] Creating Layer inception_4d/1x1
I0403 15:17:53.345701 11803 net.cpp:425] inception_4d/1x1 <- inception_4c/output_inception_4c/output_0_split_0
I0403 15:17:53.345721 11803 net.cpp:399] inception_4d/1x1 -> inception_4d/1x1
I0403 15:17:53.347141 11803 net.cpp:141] Setting up inception_4d/1x1
I0403 15:17:53.347169 11803 net.cpp:148] Top shape: 24 112 14 14 (526848)
I0403 15:17:53.347184 11803 net.cpp:156] Memory required for data: 1113290016
I0403 15:17:53.347203 11803 layer_factory.hpp:77] Creating layer inception_4d/relu_1x1
I0403 15:17:53.347223 11803 net.cpp:91] Creating Layer inception_4d/relu_1x1
I0403 15:17:53.347239 11803 net.cpp:425] inception_4d/relu_1x1 <- inception_4d/1x1
I0403 15:17:53.347255 11803 net.cpp:386] inception_4d/relu_1x1 -> inception_4d/1x1 (in-place)
I0403 15:17:53.347447 11803 net.cpp:141] Setting up inception_4d/relu_1x1
I0403 15:17:53.347471 11803 net.cpp:148] Top shape: 24 112 14 14 (526848)
I0403 15:17:53.347486 11803 net.cpp:156] Memory required for data: 1115397408
I0403 15:17:53.347499 11803 layer_factory.hpp:77] Creating layer inception_4d/3x3_reduce
I0403 15:17:53.347537 11803 net.cpp:91] Creating Layer inception_4d/3x3_reduce
I0403 15:17:53.347554 11803 net.cpp:425] inception_4d/3x3_reduce <- inception_4c/output_inception_4c/output_0_split_1
I0403 15:17:53.347573 11803 net.cpp:399] inception_4d/3x3_reduce -> inception_4d/3x3_reduce
I0403 15:17:53.349156 11803 net.cpp:141] Setting up inception_4d/3x3_reduce
I0403 15:17:53.349184 11803 net.cpp:148] Top shape: 24 144 14 14 (677376)
I0403 15:17:53.349198 11803 net.cpp:156] Memory required for data: 1118106912
I0403 15:17:53.349216 11803 layer_factory.hpp:77] Creating layer inception_4d/relu_3x3_reduce
I0403 15:17:53.349234 11803 net.cpp:91] Creating Layer inception_4d/relu_3x3_reduce
I0403 15:17:53.349251 11803 net.cpp:425] inception_4d/relu_3x3_reduce <- inception_4d/3x3_reduce
I0403 15:17:53.349269 11803 net.cpp:386] inception_4d/relu_3x3_reduce -> inception_4d/3x3_reduce (in-place)
I0403 15:17:53.349568 11803 net.cpp:141] Setting up inception_4d/relu_3x3_reduce
I0403 15:17:53.349594 11803 net.cpp:148] Top shape: 24 144 14 14 (677376)
I0403 15:17:53.349608 11803 net.cpp:156] Memory required for data: 1120816416
I0403 15:17:53.349623 11803 layer_factory.hpp:77] Creating layer inception_4d/3x3
I0403 15:17:53.349645 11803 net.cpp:91] Creating Layer inception_4d/3x3
I0403 15:17:53.349663 11803 net.cpp:425] inception_4d/3x3 <- inception_4d/3x3_reduce
I0403 15:17:53.349684 11803 net.cpp:399] inception_4d/3x3 -> inception_4d/3x3
I0403 15:17:53.354081 11803 net.cpp:141] Setting up inception_4d/3x3
I0403 15:17:53.354110 11803 net.cpp:148] Top shape: 24 288 14 14 (1354752)
I0403 15:17:53.354125 11803 net.cpp:156] Memory required for data: 1126235424
I0403 15:17:53.354142 11803 layer_factory.hpp:77] Creating layer inception_4d/relu_3x3
I0403 15:17:53.354162 11803 net.cpp:91] Creating Layer inception_4d/relu_3x3
I0403 15:17:53.354178 11803 net.cpp:425] inception_4d/relu_3x3 <- inception_4d/3x3
I0403 15:17:53.354195 11803 net.cpp:386] inception_4d/relu_3x3 -> inception_4d/3x3 (in-place)
I0403 15:17:53.354404 11803 net.cpp:141] Setting up inception_4d/relu_3x3
I0403 15:17:53.354432 11803 net.cpp:148] Top shape: 24 288 14 14 (1354752)
I0403 15:17:53.354447 11803 net.cpp:156] Memory required for data: 1131654432
I0403 15:17:53.354462 11803 layer_factory.hpp:77] Creating layer inception_4d/5x5_reduce
I0403 15:17:53.354485 11803 net.cpp:91] Creating Layer inception_4d/5x5_reduce
I0403 15:17:53.354501 11803 net.cpp:425] inception_4d/5x5_reduce <- inception_4c/output_inception_4c/output_0_split_2
I0403 15:17:53.354521 11803 net.cpp:399] inception_4d/5x5_reduce -> inception_4d/5x5_reduce
I0403 15:17:53.355761 11803 net.cpp:141] Setting up inception_4d/5x5_reduce
I0403 15:17:53.355789 11803 net.cpp:148] Top shape: 24 32 14 14 (150528)
I0403 15:17:53.355805 11803 net.cpp:156] Memory required for data: 1132256544
I0403 15:17:53.355825 11803 layer_factory.hpp:77] Creating layer inception_4d/relu_5x5_reduce
I0403 15:17:53.355845 11803 net.cpp:91] Creating Layer inception_4d/relu_5x5_reduce
I0403 15:17:53.355864 11803 net.cpp:425] inception_4d/relu_5x5_reduce <- inception_4d/5x5_reduce
I0403 15:17:53.355881 11803 net.cpp:386] inception_4d/relu_5x5_reduce -> inception_4d/5x5_reduce (in-place)
I0403 15:17:53.356098 11803 net.cpp:141] Setting up inception_4d/relu_5x5_reduce
I0403 15:17:53.356122 11803 net.cpp:148] Top shape: 24 32 14 14 (150528)
I0403 15:17:53.356137 11803 net.cpp:156] Memory required for data: 1132858656
I0403 15:17:53.356151 11803 layer_factory.hpp:77] Creating layer inception_4d/5x5
I0403 15:17:53.356174 11803 net.cpp:91] Creating Layer inception_4d/5x5
I0403 15:17:53.356191 11803 net.cpp:425] inception_4d/5x5 <- inception_4d/5x5_reduce
I0403 15:17:53.356210 11803 net.cpp:399] inception_4d/5x5 -> inception_4d/5x5
I0403 15:17:53.357702 11803 net.cpp:141] Setting up inception_4d/5x5
I0403 15:17:53.357733 11803 net.cpp:148] Top shape: 24 64 14 14 (301056)
I0403 15:17:53.357748 11803 net.cpp:156] Memory required for data: 1134062880
I0403 15:17:53.357766 11803 layer_factory.hpp:77] Creating layer inception_4d/relu_5x5
I0403 15:17:53.357800 11803 net.cpp:91] Creating Layer inception_4d/relu_5x5
I0403 15:17:53.357815 11803 net.cpp:425] inception_4d/relu_5x5 <- inception_4d/5x5
I0403 15:17:53.357836 11803 net.cpp:386] inception_4d/relu_5x5 -> inception_4d/5x5 (in-place)
I0403 15:17:53.358136 11803 net.cpp:141] Setting up inception_4d/relu_5x5
I0403 15:17:53.358165 11803 net.cpp:148] Top shape: 24 64 14 14 (301056)
I0403 15:17:53.358180 11803 net.cpp:156] Memory required for data: 1135267104
I0403 15:17:53.358194 11803 layer_factory.hpp:77] Creating layer inception_4d/pool
I0403 15:17:53.358212 11803 net.cpp:91] Creating Layer inception_4d/pool
I0403 15:17:53.358228 11803 net.cpp:425] inception_4d/pool <- inception_4c/output_inception_4c/output_0_split_3
I0403 15:17:53.358247 11803 net.cpp:399] inception_4d/pool -> inception_4d/pool
I0403 15:17:53.358314 11803 net.cpp:141] Setting up inception_4d/pool
I0403 15:17:53.358342 11803 net.cpp:148] Top shape: 24 512 14 14 (2408448)
I0403 15:17:53.358357 11803 net.cpp:156] Memory required for data: 1144900896
I0403 15:17:53.358371 11803 layer_factory.hpp:77] Creating layer inception_4d/pool_proj
I0403 15:17:53.358393 11803 net.cpp:91] Creating Layer inception_4d/pool_proj
I0403 15:17:53.358410 11803 net.cpp:425] inception_4d/pool_proj <- inception_4d/pool
I0403 15:17:53.358430 11803 net.cpp:399] inception_4d/pool_proj -> inception_4d/pool_proj
I0403 15:17:53.360224 11803 net.cpp:141] Setting up inception_4d/pool_proj
I0403 15:17:53.360254 11803 net.cpp:148] Top shape: 24 64 14 14 (301056)
I0403 15:17:53.360268 11803 net.cpp:156] Memory required for data: 1146105120
I0403 15:17:53.360286 11803 layer_factory.hpp:77] Creating layer inception_4d/relu_pool_proj
I0403 15:17:53.360306 11803 net.cpp:91] Creating Layer inception_4d/relu_pool_proj
I0403 15:17:53.360329 11803 net.cpp:425] inception_4d/relu_pool_proj <- inception_4d/pool_proj
I0403 15:17:53.360348 11803 net.cpp:386] inception_4d/relu_pool_proj -> inception_4d/pool_proj (in-place)
I0403 15:17:53.360532 11803 net.cpp:141] Setting up inception_4d/relu_pool_proj
I0403 15:17:53.360569 11803 net.cpp:148] Top shape: 24 64 14 14 (301056)
I0403 15:17:53.360584 11803 net.cpp:156] Memory required for data: 1147309344
I0403 15:17:53.360599 11803 layer_factory.hpp:77] Creating layer inception_4d/output
I0403 15:17:53.360615 11803 net.cpp:91] Creating Layer inception_4d/output
I0403 15:17:53.360630 11803 net.cpp:425] inception_4d/output <- inception_4d/1x1
I0403 15:17:53.360646 11803 net.cpp:425] inception_4d/output <- inception_4d/3x3
I0403 15:17:53.360661 11803 net.cpp:425] inception_4d/output <- inception_4d/5x5
I0403 15:17:53.360677 11803 net.cpp:425] inception_4d/output <- inception_4d/pool_proj
I0403 15:17:53.360692 11803 net.cpp:399] inception_4d/output -> inception_4d/output
I0403 15:17:53.360741 11803 net.cpp:141] Setting up inception_4d/output
I0403 15:17:53.360764 11803 net.cpp:148] Top shape: 24 528 14 14 (2483712)
I0403 15:17:53.360777 11803 net.cpp:156] Memory required for data: 1157244192
I0403 15:17:53.360791 11803 layer_factory.hpp:77] Creating layer inception_4d/output_inception_4d/output_0_split
I0403 15:17:53.360831 11803 net.cpp:91] Creating Layer inception_4d/output_inception_4d/output_0_split
I0403 15:17:53.360847 11803 net.cpp:425] inception_4d/output_inception_4d/output_0_split <- inception_4d/output
I0403 15:17:53.360864 11803 net.cpp:399] inception_4d/output_inception_4d/output_0_split -> inception_4d/output_inception_4d/output_0_split_0
I0403 15:17:53.360883 11803 net.cpp:399] inception_4d/output_inception_4d/output_0_split -> inception_4d/output_inception_4d/output_0_split_1
I0403 15:17:53.360903 11803 net.cpp:399] inception_4d/output_inception_4d/output_0_split -> inception_4d/output_inception_4d/output_0_split_2
I0403 15:17:53.360921 11803 net.cpp:399] inception_4d/output_inception_4d/output_0_split -> inception_4d/output_inception_4d/output_0_split_3
I0403 15:17:53.360942 11803 net.cpp:399] inception_4d/output_inception_4d/output_0_split -> inception_4d/output_inception_4d/output_0_split_4
I0403 15:17:53.361043 11803 net.cpp:141] Setting up inception_4d/output_inception_4d/output_0_split
I0403 15:17:53.361078 11803 net.cpp:148] Top shape: 24 528 14 14 (2483712)
I0403 15:17:53.361094 11803 net.cpp:148] Top shape: 24 528 14 14 (2483712)
I0403 15:17:53.361109 11803 net.cpp:148] Top shape: 24 528 14 14 (2483712)
I0403 15:17:53.361124 11803 net.cpp:148] Top shape: 24 528 14 14 (2483712)
I0403 15:17:53.361137 11803 net.cpp:148] Top shape: 24 528 14 14 (2483712)
I0403 15:17:53.361150 11803 net.cpp:156] Memory required for data: 1206918432
I0403 15:17:53.361165 11803 layer_factory.hpp:77] Creating layer loss2/ave_pool
I0403 15:17:53.361181 11803 net.cpp:91] Creating Layer loss2/ave_pool
I0403 15:17:53.361196 11803 net.cpp:425] loss2/ave_pool <- inception_4d/output_inception_4d/output_0_split_0
I0403 15:17:53.361215 11803 net.cpp:399] loss2/ave_pool -> loss2/ave_pool
I0403 15:17:53.361526 11803 net.cpp:141] Setting up loss2/ave_pool
I0403 15:17:53.361551 11803 net.cpp:148] Top shape: 24 528 4 4 (202752)
I0403 15:17:53.361565 11803 net.cpp:156] Memory required for data: 1207729440
I0403 15:17:53.361579 11803 layer_factory.hpp:77] Creating layer loss2/conv
I0403 15:17:53.361600 11803 net.cpp:91] Creating Layer loss2/conv
I0403 15:17:53.361616 11803 net.cpp:425] loss2/conv <- loss2/ave_pool
I0403 15:17:53.361636 11803 net.cpp:399] loss2/conv -> loss2/conv
I0403 15:17:53.363538 11803 net.cpp:141] Setting up loss2/conv
I0403 15:17:53.363567 11803 net.cpp:148] Top shape: 24 128 4 4 (49152)
I0403 15:17:53.363584 11803 net.cpp:156] Memory required for data: 1207926048
I0403 15:17:53.363601 11803 layer_factory.hpp:77] Creating layer loss2/relu_conv
I0403 15:17:53.363617 11803 net.cpp:91] Creating Layer loss2/relu_conv
I0403 15:17:53.363632 11803 net.cpp:425] loss2/relu_conv <- loss2/conv
I0403 15:17:53.363648 11803 net.cpp:386] loss2/relu_conv -> loss2/conv (in-place)
I0403 15:17:53.363932 11803 net.cpp:141] Setting up loss2/relu_conv
I0403 15:17:53.363960 11803 net.cpp:148] Top shape: 24 128 4 4 (49152)
I0403 15:17:53.363976 11803 net.cpp:156] Memory required for data: 1208122656
I0403 15:17:53.363989 11803 layer_factory.hpp:77] Creating layer loss2/fc
I0403 15:17:53.364007 11803 net.cpp:91] Creating Layer loss2/fc
I0403 15:17:53.364022 11803 net.cpp:425] loss2/fc <- loss2/conv
I0403 15:17:53.364042 11803 net.cpp:399] loss2/fc -> loss2/fc
I0403 15:17:53.381403 11803 net.cpp:141] Setting up loss2/fc
I0403 15:17:53.381438 11803 net.cpp:148] Top shape: 24 1024 (24576)
I0403 15:17:53.381451 11803 net.cpp:156] Memory required for data: 1208220960
I0403 15:17:53.381469 11803 layer_factory.hpp:77] Creating layer loss2/relu_fc
I0403 15:17:53.381489 11803 net.cpp:91] Creating Layer loss2/relu_fc
I0403 15:17:53.381505 11803 net.cpp:425] loss2/relu_fc <- loss2/fc
I0403 15:17:53.381522 11803 net.cpp:386] loss2/relu_fc -> loss2/fc (in-place)
I0403 15:17:53.381815 11803 net.cpp:141] Setting up loss2/relu_fc
I0403 15:17:53.381840 11803 net.cpp:148] Top shape: 24 1024 (24576)
I0403 15:17:53.381855 11803 net.cpp:156] Memory required for data: 1208319264
I0403 15:17:53.381868 11803 layer_factory.hpp:77] Creating layer loss2/drop_fc
I0403 15:17:53.381888 11803 net.cpp:91] Creating Layer loss2/drop_fc
I0403 15:17:53.381904 11803 net.cpp:425] loss2/drop_fc <- loss2/fc
I0403 15:17:53.381922 11803 net.cpp:386] loss2/drop_fc -> loss2/fc (in-place)
I0403 15:17:53.381970 11803 net.cpp:141] Setting up loss2/drop_fc
I0403 15:17:53.381991 11803 net.cpp:148] Top shape: 24 1024 (24576)
I0403 15:17:53.382005 11803 net.cpp:156] Memory required for data: 1208417568
I0403 15:17:53.382019 11803 layer_factory.hpp:77] Creating layer loss2/classifier_plantvillage
I0403 15:17:53.382035 11803 net.cpp:91] Creating Layer loss2/classifier_plantvillage
I0403 15:17:53.382053 11803 net.cpp:425] loss2/classifier_plantvillage <- loss2/fc
I0403 15:17:53.382071 11803 net.cpp:399] loss2/classifier_plantvillage -> loss2/classifier_plantvillage
I0403 15:17:53.382477 11803 net.cpp:141] Setting up loss2/classifier_plantvillage
I0403 15:17:53.382501 11803 net.cpp:148] Top shape: 24 38 (912)
I0403 15:17:53.382531 11803 net.cpp:156] Memory required for data: 1208421216
I0403 15:17:53.382550 11803 layer_factory.hpp:77] Creating layer loss2/classifier_plantvillage_loss2/classifier_plantvillage_0_split
I0403 15:17:53.382567 11803 net.cpp:91] Creating Layer loss2/classifier_plantvillage_loss2/classifier_plantvillage_0_split
I0403 15:17:53.382581 11803 net.cpp:425] loss2/classifier_plantvillage_loss2/classifier_plantvillage_0_split <- loss2/classifier_plantvillage
I0403 15:17:53.382601 11803 net.cpp:399] loss2/classifier_plantvillage_loss2/classifier_plantvillage_0_split -> loss2/classifier_plantvillage_loss2/classifier_plantvillage_0_split_0
I0403 15:17:53.382621 11803 net.cpp:399] loss2/classifier_plantvillage_loss2/classifier_plantvillage_0_split -> loss2/classifier_plantvillage_loss2/classifier_plantvillage_0_split_1
I0403 15:17:53.382639 11803 net.cpp:399] loss2/classifier_plantvillage_loss2/classifier_plantvillage_0_split -> loss2/classifier_plantvillage_loss2/classifier_plantvillage_0_split_2
I0403 15:17:53.382712 11803 net.cpp:141] Setting up loss2/classifier_plantvillage_loss2/classifier_plantvillage_0_split
I0403 15:17:53.382737 11803 net.cpp:148] Top shape: 24 38 (912)
I0403 15:17:53.382753 11803 net.cpp:148] Top shape: 24 38 (912)
I0403 15:17:53.382768 11803 net.cpp:148] Top shape: 24 38 (912)
I0403 15:17:53.382781 11803 net.cpp:156] Memory required for data: 1208432160
I0403 15:17:53.382794 11803 layer_factory.hpp:77] Creating layer inception_4e/1x1
I0403 15:17:53.382814 11803 net.cpp:91] Creating Layer inception_4e/1x1
I0403 15:17:53.382832 11803 net.cpp:425] inception_4e/1x1 <- inception_4d/output_inception_4d/output_0_split_1
I0403 15:17:53.382849 11803 net.cpp:399] inception_4e/1x1 -> inception_4e/1x1
I0403 15:17:53.384673 11803 net.cpp:141] Setting up inception_4e/1x1
I0403 15:17:53.384703 11803 net.cpp:148] Top shape: 24 256 14 14 (1204224)
I0403 15:17:53.384721 11803 net.cpp:156] Memory required for data: 1213249056
I0403 15:17:53.384737 11803 layer_factory.hpp:77] Creating layer inception_4e/relu_1x1
I0403 15:17:53.384755 11803 net.cpp:91] Creating Layer inception_4e/relu_1x1
I0403 15:17:53.384770 11803 net.cpp:425] inception_4e/relu_1x1 <- inception_4e/1x1
I0403 15:17:53.384790 11803 net.cpp:386] inception_4e/relu_1x1 -> inception_4e/1x1 (in-place)
I0403 15:17:53.385090 11803 net.cpp:141] Setting up inception_4e/relu_1x1
I0403 15:17:53.385116 11803 net.cpp:148] Top shape: 24 256 14 14 (1204224)
I0403 15:17:53.385131 11803 net.cpp:156] Memory required for data: 1218065952
I0403 15:17:53.385145 11803 layer_factory.hpp:77] Creating layer inception_4e/3x3_reduce
I0403 15:17:53.385167 11803 net.cpp:91] Creating Layer inception_4e/3x3_reduce
I0403 15:17:53.385184 11803 net.cpp:425] inception_4e/3x3_reduce <- inception_4d/output_inception_4d/output_0_split_2
I0403 15:17:53.385201 11803 net.cpp:399] inception_4e/3x3_reduce -> inception_4e/3x3_reduce
I0403 15:17:53.387260 11803 net.cpp:141] Setting up inception_4e/3x3_reduce
I0403 15:17:53.387290 11803 net.cpp:148] Top shape: 24 160 14 14 (752640)
I0403 15:17:53.387305 11803 net.cpp:156] Memory required for data: 1221076512
I0403 15:17:53.387329 11803 layer_factory.hpp:77] Creating layer inception_4e/relu_3x3_reduce
I0403 15:17:53.387348 11803 net.cpp:91] Creating Layer inception_4e/relu_3x3_reduce
I0403 15:17:53.387363 11803 net.cpp:425] inception_4e/relu_3x3_reduce <- inception_4e/3x3_reduce
I0403 15:17:53.387379 11803 net.cpp:386] inception_4e/relu_3x3_reduce -> inception_4e/3x3_reduce (in-place)
I0403 15:17:53.387563 11803 net.cpp:141] Setting up inception_4e/relu_3x3_reduce
I0403 15:17:53.387586 11803 net.cpp:148] Top shape: 24 160 14 14 (752640)
I0403 15:17:53.387600 11803 net.cpp:156] Memory required for data: 1224087072
I0403 15:17:53.387614 11803 layer_factory.hpp:77] Creating layer inception_4e/3x3
I0403 15:17:53.387635 11803 net.cpp:91] Creating Layer inception_4e/3x3
I0403 15:17:53.387651 11803 net.cpp:425] inception_4e/3x3 <- inception_4e/3x3_reduce
I0403 15:17:53.387671 11803 net.cpp:399] inception_4e/3x3 -> inception_4e/3x3
I0403 15:17:53.392695 11803 net.cpp:141] Setting up inception_4e/3x3
I0403 15:17:53.392737 11803 net.cpp:148] Top shape: 24 320 14 14 (1505280)
I0403 15:17:53.392755 11803 net.cpp:156] Memory required for data: 1230108192
I0403 15:17:53.392772 11803 layer_factory.hpp:77] Creating layer inception_4e/relu_3x3
I0403 15:17:53.392791 11803 net.cpp:91] Creating Layer inception_4e/relu_3x3
I0403 15:17:53.392807 11803 net.cpp:425] inception_4e/relu_3x3 <- inception_4e/3x3
I0403 15:17:53.392827 11803 net.cpp:386] inception_4e/relu_3x3 -> inception_4e/3x3 (in-place)
I0403 15:17:53.393143 11803 net.cpp:141] Setting up inception_4e/relu_3x3
I0403 15:17:53.393169 11803 net.cpp:148] Top shape: 24 320 14 14 (1505280)
I0403 15:17:53.393184 11803 net.cpp:156] Memory required for data: 1236129312
I0403 15:17:53.393199 11803 layer_factory.hpp:77] Creating layer inception_4e/5x5_reduce
I0403 15:17:53.393221 11803 net.cpp:91] Creating Layer inception_4e/5x5_reduce
I0403 15:17:53.393239 11803 net.cpp:425] inception_4e/5x5_reduce <- inception_4d/output_inception_4d/output_0_split_3
I0403 15:17:53.393261 11803 net.cpp:399] inception_4e/5x5_reduce -> inception_4e/5x5_reduce
I0403 15:17:53.394356 11803 net.cpp:141] Setting up inception_4e/5x5_reduce
I0403 15:17:53.394386 11803 net.cpp:148] Top shape: 24 32 14 14 (150528)
I0403 15:17:53.394402 11803 net.cpp:156] Memory required for data: 1236731424
I0403 15:17:53.394420 11803 layer_factory.hpp:77] Creating layer inception_4e/relu_5x5_reduce
I0403 15:17:53.394438 11803 net.cpp:91] Creating Layer inception_4e/relu_5x5_reduce
I0403 15:17:53.394454 11803 net.cpp:425] inception_4e/relu_5x5_reduce <- inception_4e/5x5_reduce
I0403 15:17:53.394471 11803 net.cpp:386] inception_4e/relu_5x5_reduce -> inception_4e/5x5_reduce (in-place)
I0403 15:17:53.394789 11803 net.cpp:141] Setting up inception_4e/relu_5x5_reduce
I0403 15:17:53.394820 11803 net.cpp:148] Top shape: 24 32 14 14 (150528)
I0403 15:17:53.394836 11803 net.cpp:156] Memory required for data: 1237333536
I0403 15:17:53.394852 11803 layer_factory.hpp:77] Creating layer inception_4e/5x5
I0403 15:17:53.394903 11803 net.cpp:91] Creating Layer inception_4e/5x5
I0403 15:17:53.394922 11803 net.cpp:425] inception_4e/5x5 <- inception_4e/5x5_reduce
I0403 15:17:53.394942 11803 net.cpp:399] inception_4e/5x5 -> inception_4e/5x5
I0403 15:17:53.396885 11803 net.cpp:141] Setting up inception_4e/5x5
I0403 15:17:53.396925 11803 net.cpp:148] Top shape: 24 128 14 14 (602112)
I0403 15:17:53.396941 11803 net.cpp:156] Memory required for data: 1239741984
I0403 15:17:53.396960 11803 layer_factory.hpp:77] Creating layer inception_4e/relu_5x5
I0403 15:17:53.396981 11803 net.cpp:91] Creating Layer inception_4e/relu_5x5
I0403 15:17:53.396997 11803 net.cpp:425] inception_4e/relu_5x5 <- inception_4e/5x5
I0403 15:17:53.397014 11803 net.cpp:386] inception_4e/relu_5x5 -> inception_4e/5x5 (in-place)
I0403 15:17:53.397217 11803 net.cpp:141] Setting up inception_4e/relu_5x5
I0403 15:17:53.397244 11803 net.cpp:148] Top shape: 24 128 14 14 (602112)
I0403 15:17:53.397260 11803 net.cpp:156] Memory required for data: 1242150432
I0403 15:17:53.397275 11803 layer_factory.hpp:77] Creating layer inception_4e/pool
I0403 15:17:53.397292 11803 net.cpp:91] Creating Layer inception_4e/pool
I0403 15:17:53.397308 11803 net.cpp:425] inception_4e/pool <- inception_4d/output_inception_4d/output_0_split_4
I0403 15:17:53.397337 11803 net.cpp:399] inception_4e/pool -> inception_4e/pool
I0403 15:17:53.397410 11803 net.cpp:141] Setting up inception_4e/pool
I0403 15:17:53.397434 11803 net.cpp:148] Top shape: 24 528 14 14 (2483712)
I0403 15:17:53.397449 11803 net.cpp:156] Memory required for data: 1252085280
I0403 15:17:53.397462 11803 layer_factory.hpp:77] Creating layer inception_4e/pool_proj
I0403 15:17:53.397485 11803 net.cpp:91] Creating Layer inception_4e/pool_proj
I0403 15:17:53.397505 11803 net.cpp:425] inception_4e/pool_proj <- inception_4e/pool
I0403 15:17:53.397523 11803 net.cpp:399] inception_4e/pool_proj -> inception_4e/pool_proj
I0403 15:17:53.399126 11803 net.cpp:141] Setting up inception_4e/pool_proj
I0403 15:17:53.399165 11803 net.cpp:148] Top shape: 24 128 14 14 (602112)
I0403 15:17:53.399183 11803 net.cpp:156] Memory required for data: 1254493728
I0403 15:17:53.399200 11803 layer_factory.hpp:77] Creating layer inception_4e/relu_pool_proj
I0403 15:17:53.399221 11803 net.cpp:91] Creating Layer inception_4e/relu_pool_proj
I0403 15:17:53.399238 11803 net.cpp:425] inception_4e/relu_pool_proj <- inception_4e/pool_proj
I0403 15:17:53.399256 11803 net.cpp:386] inception_4e/relu_pool_proj -> inception_4e/pool_proj (in-place)
I0403 15:17:53.399569 11803 net.cpp:141] Setting up inception_4e/relu_pool_proj
I0403 15:17:53.399596 11803 net.cpp:148] Top shape: 24 128 14 14 (602112)
I0403 15:17:53.399611 11803 net.cpp:156] Memory required for data: 1256902176
I0403 15:17:53.399626 11803 layer_factory.hpp:77] Creating layer inception_4e/output
I0403 15:17:53.399643 11803 net.cpp:91] Creating Layer inception_4e/output
I0403 15:17:53.399658 11803 net.cpp:425] inception_4e/output <- inception_4e/1x1
I0403 15:17:53.399677 11803 net.cpp:425] inception_4e/output <- inception_4e/3x3
I0403 15:17:53.399694 11803 net.cpp:425] inception_4e/output <- inception_4e/5x5
I0403 15:17:53.399710 11803 net.cpp:425] inception_4e/output <- inception_4e/pool_proj
I0403 15:17:53.399727 11803 net.cpp:399] inception_4e/output -> inception_4e/output
I0403 15:17:53.399780 11803 net.cpp:141] Setting up inception_4e/output
I0403 15:17:53.399803 11803 net.cpp:148] Top shape: 24 832 14 14 (3913728)
I0403 15:17:53.399817 11803 net.cpp:156] Memory required for data: 1272557088
I0403 15:17:53.399832 11803 layer_factory.hpp:77] Creating layer pool4/3x3_s2
I0403 15:17:53.399849 11803 net.cpp:91] Creating Layer pool4/3x3_s2
I0403 15:17:53.399864 11803 net.cpp:425] pool4/3x3_s2 <- inception_4e/output
I0403 15:17:53.399883 11803 net.cpp:399] pool4/3x3_s2 -> pool4/3x3_s2
I0403 15:17:53.399953 11803 net.cpp:141] Setting up pool4/3x3_s2
I0403 15:17:53.399976 11803 net.cpp:148] Top shape: 24 832 7 7 (978432)
I0403 15:17:53.399991 11803 net.cpp:156] Memory required for data: 1276470816
I0403 15:17:53.400007 11803 layer_factory.hpp:77] Creating layer pool4/3x3_s2_pool4/3x3_s2_0_split
I0403 15:17:53.400027 11803 net.cpp:91] Creating Layer pool4/3x3_s2_pool4/3x3_s2_0_split
I0403 15:17:53.400043 11803 net.cpp:425] pool4/3x3_s2_pool4/3x3_s2_0_split <- pool4/3x3_s2
I0403 15:17:53.400061 11803 net.cpp:399] pool4/3x3_s2_pool4/3x3_s2_0_split -> pool4/3x3_s2_pool4/3x3_s2_0_split_0
I0403 15:17:53.400084 11803 net.cpp:399] pool4/3x3_s2_pool4/3x3_s2_0_split -> pool4/3x3_s2_pool4/3x3_s2_0_split_1
I0403 15:17:53.400104 11803 net.cpp:399] pool4/3x3_s2_pool4/3x3_s2_0_split -> pool4/3x3_s2_pool4/3x3_s2_0_split_2
I0403 15:17:53.400125 11803 net.cpp:399] pool4/3x3_s2_pool4/3x3_s2_0_split -> pool4/3x3_s2_pool4/3x3_s2_0_split_3
I0403 15:17:53.400215 11803 net.cpp:141] Setting up pool4/3x3_s2_pool4/3x3_s2_0_split
I0403 15:17:53.400238 11803 net.cpp:148] Top shape: 24 832 7 7 (978432)
I0403 15:17:53.400255 11803 net.cpp:148] Top shape: 24 832 7 7 (978432)
I0403 15:17:53.400270 11803 net.cpp:148] Top shape: 24 832 7 7 (978432)
I0403 15:17:53.400285 11803 net.cpp:148] Top shape: 24 832 7 7 (978432)
I0403 15:17:53.400298 11803 net.cpp:156] Memory required for data: 1292125728
I0403 15:17:53.400312 11803 layer_factory.hpp:77] Creating layer inception_5a/1x1
I0403 15:17:53.400342 11803 net.cpp:91] Creating Layer inception_5a/1x1
I0403 15:17:53.400360 11803 net.cpp:425] inception_5a/1x1 <- pool4/3x3_s2_pool4/3x3_s2_0_split_0
I0403 15:17:53.400382 11803 net.cpp:399] inception_5a/1x1 -> inception_5a/1x1
I0403 15:17:53.403488 11803 net.cpp:141] Setting up inception_5a/1x1
I0403 15:17:53.403520 11803 net.cpp:148] Top shape: 24 256 7 7 (301056)
I0403 15:17:53.403537 11803 net.cpp:156] Memory required for data: 1293329952
I0403 15:17:53.403556 11803 layer_factory.hpp:77] Creating layer inception_5a/relu_1x1
I0403 15:17:53.403574 11803 net.cpp:91] Creating Layer inception_5a/relu_1x1
I0403 15:17:53.403590 11803 net.cpp:425] inception_5a/relu_1x1 <- inception_5a/1x1
I0403 15:17:53.403607 11803 net.cpp:386] inception_5a/relu_1x1 -> inception_5a/1x1 (in-place)
I0403 15:17:53.403929 11803 net.cpp:141] Setting up inception_5a/relu_1x1
I0403 15:17:53.403959 11803 net.cpp:148] Top shape: 24 256 7 7 (301056)
I0403 15:17:53.403975 11803 net.cpp:156] Memory required for data: 1294534176
I0403 15:17:53.403990 11803 layer_factory.hpp:77] Creating layer inception_5a/3x3_reduce
I0403 15:17:53.404011 11803 net.cpp:91] Creating Layer inception_5a/3x3_reduce
I0403 15:17:53.404026 11803 net.cpp:425] inception_5a/3x3_reduce <- pool4/3x3_s2_pool4/3x3_s2_0_split_1
I0403 15:17:53.404048 11803 net.cpp:399] inception_5a/3x3_reduce -> inception_5a/3x3_reduce
I0403 15:17:53.406630 11803 net.cpp:141] Setting up inception_5a/3x3_reduce
I0403 15:17:53.406661 11803 net.cpp:148] Top shape: 24 160 7 7 (188160)
I0403 15:17:53.406677 11803 net.cpp:156] Memory required for data: 1295286816
I0403 15:17:53.406694 11803 layer_factory.hpp:77] Creating layer inception_5a/relu_3x3_reduce
I0403 15:17:53.406713 11803 net.cpp:91] Creating Layer inception_5a/relu_3x3_reduce
I0403 15:17:53.406729 11803 net.cpp:425] inception_5a/relu_3x3_reduce <- inception_5a/3x3_reduce
I0403 15:17:53.406749 11803 net.cpp:386] inception_5a/relu_3x3_reduce -> inception_5a/3x3_reduce (in-place)
I0403 15:17:53.406946 11803 net.cpp:141] Setting up inception_5a/relu_3x3_reduce
I0403 15:17:53.406971 11803 net.cpp:148] Top shape: 24 160 7 7 (188160)
I0403 15:17:53.406985 11803 net.cpp:156] Memory required for data: 1296039456
I0403 15:17:53.407001 11803 layer_factory.hpp:77] Creating layer inception_5a/3x3
I0403 15:17:53.407023 11803 net.cpp:91] Creating Layer inception_5a/3x3
I0403 15:17:53.407040 11803 net.cpp:425] inception_5a/3x3 <- inception_5a/3x3_reduce
I0403 15:17:53.407063 11803 net.cpp:399] inception_5a/3x3 -> inception_5a/3x3
I0403 15:17:53.412446 11803 net.cpp:141] Setting up inception_5a/3x3
I0403 15:17:53.412477 11803 net.cpp:148] Top shape: 24 320 7 7 (376320)
I0403 15:17:53.412492 11803 net.cpp:156] Memory required for data: 1297544736
I0403 15:17:53.412511 11803 layer_factory.hpp:77] Creating layer inception_5a/relu_3x3
I0403 15:17:53.412533 11803 net.cpp:91] Creating Layer inception_5a/relu_3x3
I0403 15:17:53.412549 11803 net.cpp:425] inception_5a/relu_3x3 <- inception_5a/3x3
I0403 15:17:53.412566 11803 net.cpp:386] inception_5a/relu_3x3 -> inception_5a/3x3 (in-place)
I0403 15:17:53.412873 11803 net.cpp:141] Setting up inception_5a/relu_3x3
I0403 15:17:53.412899 11803 net.cpp:148] Top shape: 24 320 7 7 (376320)
I0403 15:17:53.412914 11803 net.cpp:156] Memory required for data: 1299050016
I0403 15:17:53.412930 11803 layer_factory.hpp:77] Creating layer inception_5a/5x5_reduce
I0403 15:17:53.412953 11803 net.cpp:91] Creating Layer inception_5a/5x5_reduce
I0403 15:17:53.412972 11803 net.cpp:425] inception_5a/5x5_reduce <- pool4/3x3_s2_pool4/3x3_s2_0_split_2
I0403 15:17:53.412992 11803 net.cpp:399] inception_5a/5x5_reduce -> inception_5a/5x5_reduce
I0403 15:17:53.414224 11803 net.cpp:141] Setting up inception_5a/5x5_reduce
I0403 15:17:53.414255 11803 net.cpp:148] Top shape: 24 32 7 7 (37632)
I0403 15:17:53.414273 11803 net.cpp:156] Memory required for data: 1299200544
I0403 15:17:53.414290 11803 layer_factory.hpp:77] Creating layer inception_5a/relu_5x5_reduce
I0403 15:17:53.414309 11803 net.cpp:91] Creating Layer inception_5a/relu_5x5_reduce
I0403 15:17:53.414332 11803 net.cpp:425] inception_5a/relu_5x5_reduce <- inception_5a/5x5_reduce
I0403 15:17:53.414350 11803 net.cpp:386] inception_5a/relu_5x5_reduce -> inception_5a/5x5_reduce (in-place)
I0403 15:17:53.414654 11803 net.cpp:141] Setting up inception_5a/relu_5x5_reduce
I0403 15:17:53.414681 11803 net.cpp:148] Top shape: 24 32 7 7 (37632)
I0403 15:17:53.414697 11803 net.cpp:156] Memory required for data: 1299351072
I0403 15:17:53.414712 11803 layer_factory.hpp:77] Creating layer inception_5a/5x5
I0403 15:17:53.414733 11803 net.cpp:91] Creating Layer inception_5a/5x5
I0403 15:17:53.414751 11803 net.cpp:425] inception_5a/5x5 <- inception_5a/5x5_reduce
I0403 15:17:53.414769 11803 net.cpp:399] inception_5a/5x5 -> inception_5a/5x5
I0403 15:17:53.416577 11803 net.cpp:141] Setting up inception_5a/5x5
I0403 15:17:53.416630 11803 net.cpp:148] Top shape: 24 128 7 7 (150528)
I0403 15:17:53.416647 11803 net.cpp:156] Memory required for data: 1299953184
I0403 15:17:53.416666 11803 layer_factory.hpp:77] Creating layer inception_5a/relu_5x5
I0403 15:17:53.416685 11803 net.cpp:91] Creating Layer inception_5a/relu_5x5
I0403 15:17:53.416702 11803 net.cpp:425] inception_5a/relu_5x5 <- inception_5a/5x5
I0403 15:17:53.416720 11803 net.cpp:386] inception_5a/relu_5x5 -> inception_5a/5x5 (in-place)
I0403 15:17:53.416929 11803 net.cpp:141] Setting up inception_5a/relu_5x5
I0403 15:17:53.416956 11803 net.cpp:148] Top shape: 24 128 7 7 (150528)
I0403 15:17:53.416971 11803 net.cpp:156] Memory required for data: 1300555296
I0403 15:17:53.416986 11803 layer_factory.hpp:77] Creating layer inception_5a/pool
I0403 15:17:53.417003 11803 net.cpp:91] Creating Layer inception_5a/pool
I0403 15:17:53.417021 11803 net.cpp:425] inception_5a/pool <- pool4/3x3_s2_pool4/3x3_s2_0_split_3
I0403 15:17:53.417040 11803 net.cpp:399] inception_5a/pool -> inception_5a/pool
I0403 15:17:53.417112 11803 net.cpp:141] Setting up inception_5a/pool
I0403 15:17:53.417135 11803 net.cpp:148] Top shape: 24 832 7 7 (978432)
I0403 15:17:53.417148 11803 net.cpp:156] Memory required for data: 1304469024
I0403 15:17:53.417162 11803 layer_factory.hpp:77] Creating layer inception_5a/pool_proj
I0403 15:17:53.417186 11803 net.cpp:91] Creating Layer inception_5a/pool_proj
I0403 15:17:53.417203 11803 net.cpp:425] inception_5a/pool_proj <- inception_5a/pool
I0403 15:17:53.417222 11803 net.cpp:399] inception_5a/pool_proj -> inception_5a/pool_proj
I0403 15:17:53.419591 11803 net.cpp:141] Setting up inception_5a/pool_proj
I0403 15:17:53.419621 11803 net.cpp:148] Top shape: 24 128 7 7 (150528)
I0403 15:17:53.419636 11803 net.cpp:156] Memory required for data: 1305071136
I0403 15:17:53.419654 11803 layer_factory.hpp:77] Creating layer inception_5a/relu_pool_proj
I0403 15:17:53.419674 11803 net.cpp:91] Creating Layer inception_5a/relu_pool_proj
I0403 15:17:53.419692 11803 net.cpp:425] inception_5a/relu_pool_proj <- inception_5a/pool_proj
I0403 15:17:53.419708 11803 net.cpp:386] inception_5a/relu_pool_proj -> inception_5a/pool_proj (in-place)
I0403 15:17:53.420004 11803 net.cpp:141] Setting up inception_5a/relu_pool_proj
I0403 15:17:53.420030 11803 net.cpp:148] Top shape: 24 128 7 7 (150528)
I0403 15:17:53.420045 11803 net.cpp:156] Memory required for data: 1305673248
I0403 15:17:53.420059 11803 layer_factory.hpp:77] Creating layer inception_5a/output
I0403 15:17:53.420079 11803 net.cpp:91] Creating Layer inception_5a/output
I0403 15:17:53.420095 11803 net.cpp:425] inception_5a/output <- inception_5a/1x1
I0403 15:17:53.420111 11803 net.cpp:425] inception_5a/output <- inception_5a/3x3
I0403 15:17:53.420127 11803 net.cpp:425] inception_5a/output <- inception_5a/5x5
I0403 15:17:53.420142 11803 net.cpp:425] inception_5a/output <- inception_5a/pool_proj
I0403 15:17:53.420158 11803 net.cpp:399] inception_5a/output -> inception_5a/output
I0403 15:17:53.420210 11803 net.cpp:141] Setting up inception_5a/output
I0403 15:17:53.420233 11803 net.cpp:148] Top shape: 24 832 7 7 (978432)
I0403 15:17:53.420248 11803 net.cpp:156] Memory required for data: 1309586976
I0403 15:17:53.420261 11803 layer_factory.hpp:77] Creating layer inception_5a/output_inception_5a/output_0_split
I0403 15:17:53.420279 11803 net.cpp:91] Creating Layer inception_5a/output_inception_5a/output_0_split
I0403 15:17:53.420292 11803 net.cpp:425] inception_5a/output_inception_5a/output_0_split <- inception_5a/output
I0403 15:17:53.420312 11803 net.cpp:399] inception_5a/output_inception_5a/output_0_split -> inception_5a/output_inception_5a/output_0_split_0
I0403 15:17:53.420341 11803 net.cpp:399] inception_5a/output_inception_5a/output_0_split -> inception_5a/output_inception_5a/output_0_split_1
I0403 15:17:53.420361 11803 net.cpp:399] inception_5a/output_inception_5a/output_0_split -> inception_5a/output_inception_5a/output_0_split_2
I0403 15:17:53.420380 11803 net.cpp:399] inception_5a/output_inception_5a/output_0_split -> inception_5a/output_inception_5a/output_0_split_3
I0403 15:17:53.420493 11803 net.cpp:141] Setting up inception_5a/output_inception_5a/output_0_split
I0403 15:17:53.420519 11803 net.cpp:148] Top shape: 24 832 7 7 (978432)
I0403 15:17:53.420536 11803 net.cpp:148] Top shape: 24 832 7 7 (978432)
I0403 15:17:53.420552 11803 net.cpp:148] Top shape: 24 832 7 7 (978432)
I0403 15:17:53.420567 11803 net.cpp:148] Top shape: 24 832 7 7 (978432)
I0403 15:17:53.420580 11803 net.cpp:156] Memory required for data: 1325241888
I0403 15:17:53.420593 11803 layer_factory.hpp:77] Creating layer inception_5b/1x1
I0403 15:17:53.420615 11803 net.cpp:91] Creating Layer inception_5b/1x1
I0403 15:17:53.420632 11803 net.cpp:425] inception_5b/1x1 <- inception_5a/output_inception_5a/output_0_split_0
I0403 15:17:53.420651 11803 net.cpp:399] inception_5b/1x1 -> inception_5b/1x1
I0403 15:17:53.424494 11803 net.cpp:141] Setting up inception_5b/1x1
I0403 15:17:53.424525 11803 net.cpp:148] Top shape: 24 384 7 7 (451584)
I0403 15:17:53.424540 11803 net.cpp:156] Memory required for data: 1327048224
I0403 15:17:53.424557 11803 layer_factory.hpp:77] Creating layer inception_5b/relu_1x1
I0403 15:17:53.424576 11803 net.cpp:91] Creating Layer inception_5b/relu_1x1
I0403 15:17:53.424590 11803 net.cpp:425] inception_5b/relu_1x1 <- inception_5b/1x1
I0403 15:17:53.424609 11803 net.cpp:386] inception_5b/relu_1x1 -> inception_5b/1x1 (in-place)
I0403 15:17:53.424926 11803 net.cpp:141] Setting up inception_5b/relu_1x1
I0403 15:17:53.424952 11803 net.cpp:148] Top shape: 24 384 7 7 (451584)
I0403 15:17:53.424968 11803 net.cpp:156] Memory required for data: 1328854560
I0403 15:17:53.424983 11803 layer_factory.hpp:77] Creating layer inception_5b/3x3_reduce
I0403 15:17:53.425004 11803 net.cpp:91] Creating Layer inception_5b/3x3_reduce
I0403 15:17:53.425021 11803 net.cpp:425] inception_5b/3x3_reduce <- inception_5a/output_inception_5a/output_0_split_1
I0403 15:17:53.425043 11803 net.cpp:399] inception_5b/3x3_reduce -> inception_5b/3x3_reduce
I0403 15:17:53.427736 11803 net.cpp:141] Setting up inception_5b/3x3_reduce
I0403 15:17:53.427764 11803 net.cpp:148] Top shape: 24 192 7 7 (225792)
I0403 15:17:53.427779 11803 net.cpp:156] Memory required for data: 1329757728
I0403 15:17:53.427798 11803 layer_factory.hpp:77] Creating layer inception_5b/relu_3x3_reduce
I0403 15:17:53.427817 11803 net.cpp:91] Creating Layer inception_5b/relu_3x3_reduce
I0403 15:17:53.427834 11803 net.cpp:425] inception_5b/relu_3x3_reduce <- inception_5b/3x3_reduce
I0403 15:17:53.427850 11803 net.cpp:386] inception_5b/relu_3x3_reduce -> inception_5b/3x3_reduce (in-place)
I0403 15:17:53.428042 11803 net.cpp:141] Setting up inception_5b/relu_3x3_reduce
I0403 15:17:53.428066 11803 net.cpp:148] Top shape: 24 192 7 7 (225792)
I0403 15:17:53.428081 11803 net.cpp:156] Memory required for data: 1330660896
I0403 15:17:53.428095 11803 layer_factory.hpp:77] Creating layer inception_5b/3x3
I0403 15:17:53.428119 11803 net.cpp:91] Creating Layer inception_5b/3x3
I0403 15:17:53.428136 11803 net.cpp:425] inception_5b/3x3 <- inception_5b/3x3_reduce
I0403 15:17:53.428167 11803 net.cpp:399] inception_5b/3x3 -> inception_5b/3x3
I0403 15:17:53.434758 11803 net.cpp:141] Setting up inception_5b/3x3
I0403 15:17:53.434787 11803 net.cpp:148] Top shape: 24 384 7 7 (451584)
I0403 15:17:53.434800 11803 net.cpp:156] Memory required for data: 1332467232
I0403 15:17:53.434818 11803 layer_factory.hpp:77] Creating layer inception_5b/relu_3x3
I0403 15:17:53.434837 11803 net.cpp:91] Creating Layer inception_5b/relu_3x3
I0403 15:17:53.434854 11803 net.cpp:425] inception_5b/relu_3x3 <- inception_5b/3x3
I0403 15:17:53.434870 11803 net.cpp:386] inception_5b/relu_3x3 -> inception_5b/3x3 (in-place)
I0403 15:17:53.435163 11803 net.cpp:141] Setting up inception_5b/relu_3x3
I0403 15:17:53.435189 11803 net.cpp:148] Top shape: 24 384 7 7 (451584)
I0403 15:17:53.435204 11803 net.cpp:156] Memory required for data: 1334273568
I0403 15:17:53.435217 11803 layer_factory.hpp:77] Creating layer inception_5b/5x5_reduce
I0403 15:17:53.435255 11803 net.cpp:91] Creating Layer inception_5b/5x5_reduce
I0403 15:17:53.435271 11803 net.cpp:425] inception_5b/5x5_reduce <- inception_5a/output_inception_5a/output_0_split_2
I0403 15:17:53.435292 11803 net.cpp:399] inception_5b/5x5_reduce -> inception_5b/5x5_reduce
I0403 15:17:53.436553 11803 net.cpp:141] Setting up inception_5b/5x5_reduce
I0403 15:17:53.436579 11803 net.cpp:148] Top shape: 24 48 7 7 (56448)
I0403 15:17:53.436595 11803 net.cpp:156] Memory required for data: 1334499360
I0403 15:17:53.436612 11803 layer_factory.hpp:77] Creating layer inception_5b/relu_5x5_reduce
I0403 15:17:53.436632 11803 net.cpp:91] Creating Layer inception_5b/relu_5x5_reduce
I0403 15:17:53.436648 11803 net.cpp:425] inception_5b/relu_5x5_reduce <- inception_5b/5x5_reduce
I0403 15:17:53.436664 11803 net.cpp:386] inception_5b/relu_5x5_reduce -> inception_5b/5x5_reduce (in-place)
I0403 15:17:53.437029 11803 net.cpp:141] Setting up inception_5b/relu_5x5_reduce
I0403 15:17:53.437054 11803 net.cpp:148] Top shape: 24 48 7 7 (56448)
I0403 15:17:53.437068 11803 net.cpp:156] Memory required for data: 1334725152
I0403 15:17:53.437083 11803 layer_factory.hpp:77] Creating layer inception_5b/5x5
I0403 15:17:53.437101 11803 net.cpp:91] Creating Layer inception_5b/5x5
I0403 15:17:53.437117 11803 net.cpp:425] inception_5b/5x5 <- inception_5b/5x5_reduce
I0403 15:17:53.437135 11803 net.cpp:399] inception_5b/5x5 -> inception_5b/5x5
I0403 15:17:53.439165 11803 net.cpp:141] Setting up inception_5b/5x5
I0403 15:17:53.439193 11803 net.cpp:148] Top shape: 24 128 7 7 (150528)
I0403 15:17:53.439210 11803 net.cpp:156] Memory required for data: 1335327264
I0403 15:17:53.439227 11803 layer_factory.hpp:77] Creating layer inception_5b/relu_5x5
I0403 15:17:53.439244 11803 net.cpp:91] Creating Layer inception_5b/relu_5x5
I0403 15:17:53.439260 11803 net.cpp:425] inception_5b/relu_5x5 <- inception_5b/5x5
I0403 15:17:53.439275 11803 net.cpp:386] inception_5b/relu_5x5 -> inception_5b/5x5 (in-place)
I0403 15:17:53.439472 11803 net.cpp:141] Setting up inception_5b/relu_5x5
I0403 15:17:53.439498 11803 net.cpp:148] Top shape: 24 128 7 7 (150528)
I0403 15:17:53.439512 11803 net.cpp:156] Memory required for data: 1335929376
I0403 15:17:53.439527 11803 layer_factory.hpp:77] Creating layer inception_5b/pool
I0403 15:17:53.439543 11803 net.cpp:91] Creating Layer inception_5b/pool
I0403 15:17:53.439559 11803 net.cpp:425] inception_5b/pool <- inception_5a/output_inception_5a/output_0_split_3
I0403 15:17:53.439579 11803 net.cpp:399] inception_5b/pool -> inception_5b/pool
I0403 15:17:53.439651 11803 net.cpp:141] Setting up inception_5b/pool
I0403 15:17:53.439676 11803 net.cpp:148] Top shape: 24 832 7 7 (978432)
I0403 15:17:53.439690 11803 net.cpp:156] Memory required for data: 1339843104
I0403 15:17:53.439703 11803 layer_factory.hpp:77] Creating layer inception_5b/pool_proj
I0403 15:17:53.439723 11803 net.cpp:91] Creating Layer inception_5b/pool_proj
I0403 15:17:53.439739 11803 net.cpp:425] inception_5b/pool_proj <- inception_5b/pool
I0403 15:17:53.439759 11803 net.cpp:399] inception_5b/pool_proj -> inception_5b/pool_proj
I0403 15:17:53.442044 11803 net.cpp:141] Setting up inception_5b/pool_proj
I0403 15:17:53.442073 11803 net.cpp:148] Top shape: 24 128 7 7 (150528)
I0403 15:17:53.442088 11803 net.cpp:156] Memory required for data: 1340445216
I0403 15:17:53.442107 11803 layer_factory.hpp:77] Creating layer inception_5b/relu_pool_proj
I0403 15:17:53.442127 11803 net.cpp:91] Creating Layer inception_5b/relu_pool_proj
I0403 15:17:53.442144 11803 net.cpp:425] inception_5b/relu_pool_proj <- inception_5b/pool_proj
I0403 15:17:53.442162 11803 net.cpp:386] inception_5b/relu_pool_proj -> inception_5b/pool_proj (in-place)
I0403 15:17:53.442476 11803 net.cpp:141] Setting up inception_5b/relu_pool_proj
I0403 15:17:53.442502 11803 net.cpp:148] Top shape: 24 128 7 7 (150528)
I0403 15:17:53.442517 11803 net.cpp:156] Memory required for data: 1341047328
I0403 15:17:53.442531 11803 layer_factory.hpp:77] Creating layer inception_5b/output
I0403 15:17:53.442551 11803 net.cpp:91] Creating Layer inception_5b/output
I0403 15:17:53.442581 11803 net.cpp:425] inception_5b/output <- inception_5b/1x1
I0403 15:17:53.442600 11803 net.cpp:425] inception_5b/output <- inception_5b/3x3
I0403 15:17:53.442615 11803 net.cpp:425] inception_5b/output <- inception_5b/5x5
I0403 15:17:53.442631 11803 net.cpp:425] inception_5b/output <- inception_5b/pool_proj
I0403 15:17:53.442647 11803 net.cpp:399] inception_5b/output -> inception_5b/output
I0403 15:17:53.442701 11803 net.cpp:141] Setting up inception_5b/output
I0403 15:17:53.442724 11803 net.cpp:148] Top shape: 24 1024 7 7 (1204224)
I0403 15:17:53.442739 11803 net.cpp:156] Memory required for data: 1345864224
I0403 15:17:53.442752 11803 layer_factory.hpp:77] Creating layer pool5/7x7_s1
I0403 15:17:53.442769 11803 net.cpp:91] Creating Layer pool5/7x7_s1
I0403 15:17:53.442785 11803 net.cpp:425] pool5/7x7_s1 <- inception_5b/output
I0403 15:17:53.442805 11803 net.cpp:399] pool5/7x7_s1 -> pool5/7x7_s1
I0403 15:17:53.443022 11803 net.cpp:141] Setting up pool5/7x7_s1
I0403 15:17:53.443048 11803 net.cpp:148] Top shape: 24 1024 1 1 (24576)
I0403 15:17:53.443061 11803 net.cpp:156] Memory required for data: 1345962528
I0403 15:17:53.443075 11803 layer_factory.hpp:77] Creating layer pool5/drop_7x7_s1
I0403 15:17:53.443095 11803 net.cpp:91] Creating Layer pool5/drop_7x7_s1
I0403 15:17:53.443112 11803 net.cpp:425] pool5/drop_7x7_s1 <- pool5/7x7_s1
I0403 15:17:53.443130 11803 net.cpp:386] pool5/drop_7x7_s1 -> pool5/7x7_s1 (in-place)
I0403 15:17:53.443181 11803 net.cpp:141] Setting up pool5/drop_7x7_s1
I0403 15:17:53.443203 11803 net.cpp:148] Top shape: 24 1024 1 1 (24576)
I0403 15:17:53.443217 11803 net.cpp:156] Memory required for data: 1346060832
I0403 15:17:53.443231 11803 layer_factory.hpp:77] Creating layer loss3/classifier_plantvillage
I0403 15:17:53.443249 11803 net.cpp:91] Creating Layer loss3/classifier_plantvillage
I0403 15:17:53.443265 11803 net.cpp:425] loss3/classifier_plantvillage <- pool5/7x7_s1
I0403 15:17:53.443285 11803 net.cpp:399] loss3/classifier_plantvillage -> loss3/classifier_plantvillage
I0403 15:17:53.443724 11803 net.cpp:141] Setting up loss3/classifier_plantvillage
I0403 15:17:53.443748 11803 net.cpp:148] Top shape: 24 38 (912)
I0403 15:17:53.443761 11803 net.cpp:156] Memory required for data: 1346064480
I0403 15:17:53.443779 11803 layer_factory.hpp:77] Creating layer loss3/classifier_plantvillage_loss3/classifier_plantvillage_0_split
I0403 15:17:53.443796 11803 net.cpp:91] Creating Layer loss3/classifier_plantvillage_loss3/classifier_plantvillage_0_split
I0403 15:17:53.443811 11803 net.cpp:425] loss3/classifier_plantvillage_loss3/classifier_plantvillage_0_split <- loss3/classifier_plantvillage
I0403 15:17:53.443830 11803 net.cpp:399] loss3/classifier_plantvillage_loss3/classifier_plantvillage_0_split -> loss3/classifier_plantvillage_loss3/classifier_plantvillage_0_split_0
I0403 15:17:53.443850 11803 net.cpp:399] loss3/classifier_plantvillage_loss3/classifier_plantvillage_0_split -> loss3/classifier_plantvillage_loss3/classifier_plantvillage_0_split_1
I0403 15:17:53.443869 11803 net.cpp:399] loss3/classifier_plantvillage_loss3/classifier_plantvillage_0_split -> loss3/classifier_plantvillage_loss3/classifier_plantvillage_0_split_2
I0403 15:17:53.443888 11803 net.cpp:399] loss3/classifier_plantvillage_loss3/classifier_plantvillage_0_split -> loss3/classifier_plantvillage_loss3/classifier_plantvillage_0_split_3
I0403 15:17:53.443989 11803 net.cpp:141] Setting up loss3/classifier_plantvillage_loss3/classifier_plantvillage_0_split
I0403 15:17:53.444011 11803 net.cpp:148] Top shape: 24 38 (912)
I0403 15:17:53.444026 11803 net.cpp:148] Top shape: 24 38 (912)
I0403 15:17:53.444041 11803 net.cpp:148] Top shape: 24 38 (912)
I0403 15:17:53.444054 11803 net.cpp:148] Top shape: 24 38 (912)
I0403 15:17:53.444067 11803 net.cpp:156] Memory required for data: 1346079072
I0403 15:17:53.444082 11803 layer_factory.hpp:77] Creating layer loss1/loss
I0403 15:17:53.444103 11803 net.cpp:91] Creating Layer loss1/loss
I0403 15:17:53.444118 11803 net.cpp:425] loss1/loss <- loss1/classifier_plantvillage_loss1/classifier_plantvillage_0_split_0
I0403 15:17:53.444147 11803 net.cpp:425] loss1/loss <- label_data_1_split_0
…
