…
I0403 15:50:28.391903 12765 net.cpp:313] The NetState phase (1) differed from the phase (0) specified by a rule in layer data
I0403 15:50:28.393086 12765 net.cpp:49] Initializing net from parameters: 
state {
  phase: TEST
}
layer {
  name: "data"
  type: "Data"
  top: "data"
  top: "label"
  include {
    phase: TEST
  }
  transform_param {
    mirror: false
    crop_size: 224
    mean_file: "/home/mohanty/data/final_dataset/lmdb/segmented-40-60/mean.binaryproto"
  }
  data_param {
    source: "/home/mohanty/data/final_dataset/lmdb/segmented-40-60/test_db"
    batch_size: 24
    backend: LMDB
  }
}
layer {
  name: "conv1/7x7_s2"
  type: "Convolution"
  bottom: "data"
  top: "conv1/7x7_s2"
  param {
    lr_mult: 1
    decay_mult: 1
  }
  param {
    lr_mult: 2
    decay_mult: 0
  }
  convolution_param {
    num_output: 64
    pad: 3
    kernel_size: 7
    stride: 2
    weight_filler {
      type: "xavier"
      std: 0.1
    }
    bias_filler {
      type: "constant"
      value: 0.2
    }
  }
}
layer {
  name: "conv1/relu_7x7"
  type: "ReLU"
  bottom: "conv1/7x7_s2"
  top: "conv1/7x7_s2"
}
layer {
  name: "pool1/3x3_s2"
  type: "Pooling"
  bottom: "conv1/7x7_s2"
  top: "pool1/3x3_s2"
  pooling_param {
    pool: MAX
    kernel_size: 3
    stride: 2
  }
}
layer {
  name: "pool1/norm1"
  type: "LRN"
  bottom: "pool1/3x3_s2"
  top: "pool1/norm1"
  lrn_param {
    local_size: 5
    alpha: 0.0001
    beta: 0.75
  }
}
layer {
  name: "conv2/3x3_reduce"
  type: "Convolution"
  bottom: "pool1/norm1"
  top: "conv2/3x3_reduce"
  param {
    lr_mult: 1
    decay_mult: 1
  }
  param {
    lr_mult: 2
    decay_mult: 0
  }
  convolution_param {
    num_output: 64
    kernel_size: 1
    weight_filler {
      type: "xavier"
      std: 0.1
    }
    bias_filler {
      type: "constant"
      value: 0.2
    }
  }
}
layer {
  name: "conv2/relu_3x3_reduce"
  type: "ReLU"
  bottom: "conv2/3x3_reduce"
  top: "conv2/3x3_reduce"
}
layer {
  name: "conv2/3x3"
  type: "Convolution"
  bottom: "conv2/3x3_reduce"
  top: "conv2/3x3"
  param {
    lr_mult: 1
    decay_mult: 1
  }
  param {
    lr_mult: 2
    decay_mult: 0
  }
  convolution_param {
    num_output: 192
    pad: 1
    kernel_size: 3
    weight_filler {
      type: "xavier"
      std: 0.03
    }
    bias_filler {
      type: "constant"
      value: 0.2
    }
  }
}
layer {
  name: "conv2/relu_3x3"
  type: "ReLU"
  bottom: "conv2/3x3"
  top: "conv2/3x3"
}
layer {
  name: "conv2/norm2"
  type: "LRN"
  bottom: "conv2/3x3"
  top: "conv2/norm2"
  lrn_param {
    local_size: 5
    alpha: 0.0001
    beta: 0.75
  }
}
layer {
  name: "pool2/3x3_s2"
  type: "Pooling"
  bottom: "conv2/norm2"
  top: "pool2/3x3_s2"
  pooling_param {
    pool: MAX
    kernel_size: 3
    stride: 2
  }
}
layer {
  name: "inception_3a/1x1"
  type: "Convolution"
  bottom: "pool2/3x3_s2"
  top: "inception_3a/1x1"
  param {
    lr_mult: 1
    decay_mult: 1
  }
  param {
    lr_mult: 2
    decay_mult: 0
  }
  convolution_param {
    num_output: 64
    kernel_size: 1
    weight_filler {
      type: "xavier"
      std: 0.03
    }
    bias_filler {
      type: "constant"
      value: 0.2
    }
  }
}
layer {
  name: "inception_3a/relu_1x1"
  type: "ReLU"
  bottom: "inception_3a/1x1"
  top: "inception_3a/1x1"
}
layer {
  name: "inception_3a/3x3_reduce"
  type: "Convolution"
  bottom: "pool2/3x3_s2"
  top: "inception_3a/3x3_reduce"
  param {
    lr_mult: 1
    decay_mult: 1
  }
  param {
    lr_mult: 2
    decay_mult: 0
  }
  convolution_param {
    num_output: 96
    kernel_size: 1
    weight_filler {
      type: "xavier"
      std: 0.09
    }
    bias_filler {
      type: "constant"
      value: 0.2
    }
  }
}
layer {
  name: "inception_3a/relu_3x3_reduce"
  type: "ReLU"
  bottom: "inception_3a/3x3_reduce"
  top: "inception_3a/3x3_reduce"
}
layer {
  name: "inception_3a/3x3"
  type: "Convolution"
  bottom: "inception_3a/3x3_reduce"
  top: "inception_3a/3x3"
  param {
    lr_mult: 1
    decay_mult: 1
  }
  param {
    lr_mult: 2
    decay_mult: 0
  }
  convolution_param {
    num_output: 128
    pad: 1
    kernel_size: 3
    weight_filler {
      type: "xavier"
      std: 0.03
    }
    bias_filler {
      type: "constant"
      value: 0.2
    }
  }
}
layer {
  name: "inception_3a/relu_3x3"
  type: "ReLU"
  bottom: "inception_3a/3x3"
  top: "inception_3a/3x3"
}
layer {
  name: "inception_3a/5x5_reduce"
  type: "Convolution"
  bottom: "pool2/3x3_s2"
  top: "inception_3a/5x5_reduce"
  param {
    lr_mult: 1
    decay_mult: 1
  }
  param {
    lr_mult: 2
    decay_mult: 0
  }
  convolution_param {
    num_output: 16
    kernel_size: 1
    weight_filler {
      type: "xavier"
      std: 0.2
    }
    bias_filler {
      type: "constant"
      value: 0.2
    }
  }
}
layer {
  name: "inception_3a/relu_5x5_reduce"
  type: "ReLU"
  bottom: "inception_3a/5x5_reduce"
  top: "inception_3a/5x5_reduce"
}
layer {
  name: "inception_3a/5x5"
  type: "Convolution"
  bottom: "inception_3a/5x5_reduce"
  top: "inception_3a/5x5"
  param {
    lr_mult: 1
    decay_mult: 1
  }
  param {
    lr_mult: 2
    decay_mult: 0
  }
  convolution_param {
    num_output: 32
    pad: 2
    kernel_size: 5
    weight_filler {
      type: "xavier"
      std: 0.03
    }
    bias_filler {
      type: "constant"
      value: 0.2
    }
  }
}
layer {
  name: "inception_3a/relu_5x5"
  type: "ReLU"
  bottom: "inception_3a/5x5"
  top: "inception_3a/5x5"
}
layer {
  name: "inception_3a/pool"
  type: "Pooling"
  bottom: "pool2/3x3_s2"
  top: "inception_3a/pool"
  pooling_param {
    pool: MAX
    kernel_size: 3
    stride: 1
    pad: 1
  }
}
layer {
  name: "inception_3a/pool_proj"
  type: "Convolution"
  bottom: "inception_3a/pool"
  top: "inception_3a/pool_proj"
  param {
    lr_mult: 1
    decay_mult: 1
  }
  param {
    lr_mult: 2
    decay_mult: 0
  }
  convolution_param {
    num_output: 32
    kernel_size: 1
    weight_filler {
      type: "xavier"
      std: 0.1
    }
    bias_filler {
      type: "constant"
      value: 0.2
    }
  }
}
layer {
  name: "inception_3a/relu_pool_proj"
  type: "ReLU"
  bottom: "inception_3a/pool_proj"
  top: "inception_3a/pool_proj"
}
layer {
  name: "inception_3a/output"
  type: "Concat"
  bottom: "inception_3a/1x1"
  bottom: "inception_3a/3x3"
  bottom: "inception_3a/5x5"
  bottom: "inception_3a/pool_proj"
  top: "inception_3a/output"
}
layer {
  name: "inception_3b/1x1"
  type: "Convolution"
  bottom: "inception_3a/output"
  top: "inception_3b/1x1"
  param {
    lr_mult: 1
    decay_mult: 1
  }
  param {
    lr_mult: 2
    decay_mult: 0
  }
  convolution_param {
    num_output: 128
    kernel_size: 1
    weight_filler {
      type: "xavier"
      std: 0.03
    }
    bias_filler {
      type: "constant"
      value: 0.2
    }
  }
}
layer {
  name: "inception_3b/relu_1x1"
  type: "ReLU"
  bottom: "inception_3b/1x1"
  top: "inception_3b/1x1"
}
layer {
  name: "inception_3b/3x3_reduce"
  type: "Convolution"
  bottom: "inception_3a/output"
  top: "inception_3b/3x3_reduce"
  param {
    lr_mult: 1
    decay_mult: 1
  }
  param {
    lr_mult: 2
    decay_mult: 0
  }
  convolution_param {
    num_output: 128
    kernel_size: 1
    weight_filler {
      type: "xavier"
      std: 0.09
    }
    bias_filler {
      type: "constant"
      value: 0.2
    }
  }
}
layer {
  name: "inception_3b/relu_3x3_reduce"
  type: "ReLU"
  bottom: "inception_3b/3x3_reduce"
  top: "inception_3b/3x3_reduce"
}
layer {
  name: "inception_3b/3x3"
  type: "Convolution"
  bottom: "inception_3b/3x3_reduce"
  top: "inception_3b/3x3"
  param {
    lr_mult: 1
    decay_mult: 1
  }
  param {
    lr_mult: 2
    decay_mult: 0
  }
  convolution_param {
    num_output: 192
    pad: 1
    kernel_size: 3
    weight_filler {
      type: "xavier"
      std: 0.03
    }
    bias_filler {
      type: "constant"
      value: 0.2
    }
  }
}
layer {
  name: "inception_3b/relu_3x3"
  type: "ReLU"
  bottom: "inception_3b/3x3"
  top: "inception_3b/3x3"
}
layer {
  name: "inception_3b/5x5_reduce"
  type: "Convolution"
  bottom: "inception_3a/output"
  top: "inception_3b/5x5_reduce"
  param {
    lr_mult: 1
    decay_mult: 1
  }
  param {
    lr_mult: 2
    decay_mult: 0
  }
  convolution_param {
    num_output: 32
    kernel_size: 1
    weight_filler {
      type: "xavier"
      std: 0.2
    }
    bias_filler {
      type: "constant"
      value: 0.2
    }
  }
}
layer {
  name: "inception_3b/relu_5x5_reduce"
  type: "ReLU"
  bottom: "inception_3b/5x5_reduce"
  top: "inception_3b/5x5_reduce"
}
layer {
  name: "inception_3b/5x5"
  type: "Convolution"
  bottom: "inception_3b/5x5_reduce"
  top: "inception_3b/5x5"
  param {
    lr_mult: 1
    decay_mult: 1
  }
  param {
    lr_mult: 2
    decay_mult: 0
  }
  convolution_param {
    num_output: 96
    pad: 2
    kernel_size: 5
    weight_filler {
      type: "xavier"
      std: 0.03
    }
    bias_filler {
      type: "constant"
      value: 0.2
    }
  }
}
layer {
  name: "inception_3b/relu_5x5"
  type: "ReLU"
  bottom: "inception_3b/5x5"
  top: "inception_3b/5x5"
}
layer {
  name: "inception_3b/pool"
  type: "Pooling"
  bottom: "inception_3a/output"
  top: "inception_3b/pool"
  pooling_param {
    pool: MAX
    kernel_size: 3
    stride: 1
    pad: 1
  }
}
layer {
  name: "inception_3b/pool_proj"
  type: "Convolution"
  bottom: "inception_3b/pool"
  top: "inception_3b/pool_proj"
  param {
    lr_mult: 1
    decay_mult: 1
  }
  param {
    lr_mult: 2
    decay_mult: 0
  }
  convolution_param {
    num_output: 64
    kernel_size: 1
    weight_filler {
      type: "xavier"
      std: 0.1
    }
    bias_filler {
      type: "constant"
      value: 0.2
    }
  }
}
layer {
  name: "inception_3b/relu_pool_proj"
  type: "ReLU"
  bottom: "inception_3b/pool_proj"
  top: "inception_3b/pool_proj"
}
layer {
  name: "inception_3b/output"
  type: "Concat"
  bottom: "inception_3b/1x1"
  bottom: "inception_3b/3x3"
  bottom: "inception_3b/5x5"
  bottom: "inception_3b/pool_proj"
  top: "inception_3b/output"
}
layer {
  name: "pool3/3x3_s2"
  type: "Pooling"
  bottom: "inception_3b/output"
  top: "pool3/3x3_s2"
  pooling_param {
    pool: MAX
    kernel_size: 3
    stride: 2
  }
}
layer {
  name: "inception_4a/1x1"
  type: "Convolution"
  bottom: "pool3/3x3_s2"
  top: "inception_4a/1x1"
  param {
    lr_mult: 1
    decay_mult: 1
  }
  param {
    lr_mult: 2
    decay_mult: 0
  }
  convolution_param {
    num_output: 192
    kernel_size: 1
    weight_filler {
      type: "xavier"
      std: 0.03
    }
    bias_filler {
      type: "constant"
      value: 0.2
    }
  }
}
layer {
  name: "inception_4a/relu_1x1"
  type: "ReLU"
  bottom: "inception_4a/1x1"
  top: "inception_4a/1x1"
}
layer {
  name: "inception_4a/3x3_reduce"
  type: "Convolution"
  bottom: "pool3/3x3_s2"
  top: "inception_4a/3x3_reduce"
  param {
    lr_mult: 1
    decay_mult: 1
  }
  param {
    lr_mult: 2
    decay_mult: 0
  }
  convolution_param {
    num_output: 96
    kernel_size: 1
    weight_filler {
      type: "xavier"
      std: 0.09
    }
    bias_filler {
      type: "constant"
      value: 0.2
    }
  }
}
layer {
  name: "inception_4a/relu_3x3_reduce"
  type: "ReLU"
  bottom: "inception_4a/3x3_reduce"
  top: "inception_4a/3x3_reduce"
}
layer {
  name: "inception_4a/3x3"
  type: "Convolution"
  bottom: "inception_4a/3x3_reduce"
  top: "inception_4a/3x3"
  param {
    lr_mult: 1
    decay_mult: 1
  }
  param {
    lr_mult: 2
    decay_mult: 0
  }
  convolution_param {
    num_output: 208
    pad: 1
    kernel_size: 3
    weight_filler {
      type: "xavier"
      std: 0.03
    }
    bias_filler {
      type: "constant"
      value: 0.2
    }
  }
}
layer {
  name: "inception_4a/relu_3x3"
  type: "ReLU"
  bottom: "inception_4a/3x3"
  top: "inception_4a/3x3"
}
layer {
  name: "inception_4a/5x5_reduce"
  type: "Convolution"
  bottom: "pool3/3x3_s2"
  top: "inception_4a/5x5_reduce"
  param {
    lr_mult: 1
    decay_mult: 1
  }
  param {
    lr_mult: 2
    decay_mult: 0
  }
  convolution_param {
    num_output: 16
    kernel_size: 1
    weight_filler {
      type: "xavier"
      std: 0.2
    }
    bias_filler {
      type: "constant"
      value: 0.2
    }
  }
}
layer {
  name: "inception_4a/relu_5x5_reduce"
  type: "ReLU"
  bottom: "inception_4a/5x5_reduce"
  top: "inception_4a/5x5_reduce"
}
layer {
  name: "inception_4a/5x5"
  type: "Convolution"
  bottom: "inception_4a/5x5_reduce"
  top: "inception_4a/5x5"
  param {
    lr_mult: 1
    decay_mult: 1
  }
  param {
    lr_mult: 2
    decay_mult: 0
  }
  convolution_param {
    num_output: 48
    pad: 2
    kernel_size: 5
    weight_filler {
      type: "xavier"
      std: 0.03
    }
    bias_filler {
      type: "constant"
      value: 0.2
    }
  }
}
layer {
  name: "inception_4a/relu_5x5"
  type: "ReLU"
  bottom: "inception_4a/5x5"
  top: "inception_4a/5x5"
}
layer {
  name: "inception_4a/pool"
  type: "Pooling"
  bottom: "pool3/3x3_s2"
  top: "inception_4a/pool"
  pooling_param {
    pool: MAX
    kernel_size: 3
    stride: 1
    pad: 1
  }
}
layer {
  name: "inception_4a/pool_proj"
  type: "Convolution"
  bottom: "inception_4a/pool"
  top: "inception_4a/pool_proj"
  param {
    lr_mult: 1
    decay_mult: 1
  }
  param {
    lr_mult: 2
    decay_mult: 0
  }
  convolution_param {
    num_output: 64
    kernel_size: 1
    weight_filler {
      type: "xavier"
      std: 0.1
    }
    bias_filler {
      type: "constant"
      value: 0.2
    }
  }
}
layer {
  name: "inception_4a/relu_pool_proj"
  type: "ReLU"
  bottom: "inception_4a/pool_proj"
  top: "inception_4a/pool_proj"
}
layer {
  name: "inception_4a/output"
  type: "Concat"
  bottom: "inception_4a/1x1"
  bottom: "inception_4a/3x3"
  bottom: "inception_4a/5x5"
  bottom: "inception_4a/pool_proj"
  top: "inception_4a/output"
}
layer {
  name: "loss1/ave_pool"
  type: "Pooling"
  bottom: "inception_4a/output"
  top: "loss1/ave_pool"
  pooling_param {
    pool: AVE
    kernel_size: 5
    stride: 3
  }
}
layer {
  name: "loss1/conv"
  type: "Convolution"
  bottom: "loss1/ave_pool"
  top: "loss1/conv"
  param {
    lr_mult: 1
    decay_mult: 1
  }
  param {
    lr_mult: 2
    decay_mult: 0
  }
  convolution_param {
    num_output: 128
    kernel_size: 1
    weight_filler {
      type: "xavier"
      std: 0.08
    }
    bias_filler {
      type: "constant"
      value: 0.2
    }
  }
}
layer {
  name: "loss1/relu_conv"
  type: "ReLU"
  bottom: "loss1/conv"
  top: "loss1/conv"
}
layer {
  name: "loss1/fc"
  type: "InnerProduct"
  bottom: "loss1/conv"
  top: "loss1/fc"
  param {
    lr_mult: 1
    decay_mult: 1
  }
  param {
    lr_mult: 2
    decay_mult: 0
  }
  inner_product_param {
    num_output: 1024
    weight_filler {
      type: "xavier"
      std: 0.02
    }
    bias_filler {
      type: "constant"
      value: 0.2
    }
  }
}
layer {
  name: "loss1/relu_fc"
  type: "ReLU"
  bottom: "loss1/fc"
  top: "loss1/fc"
}
layer {
  name: "loss1/drop_fc"
  type: "Dropout"
  bottom: "loss1/fc"
  top: "loss1/fc"
  dropout_param {
    dropout_ratio: 0.7
  }
}
layer {
  name: "loss1/classifier_plantvillage"
  type: "InnerProduct"
  bottom: "loss1/fc"
  top: "loss1/classifier_plantvillage"
  param {
    lr_mult: 1
    decay_mult: 1
  }
  param {
    lr_mult: 2
    decay_mult: 0
  }
  inner_product_param {
    num_output: 38
    weight_filler {
      type: "xavier"
      std: 0.0009765625
    }
    bias_filler {
      type: "constant"
      value: 0
    }
  }
}
layer {
  name: "inception_4b/1x1"
  type: "Convolution"
  bottom: "inception_4a/output"
  top: "inception_4b/1x1"
  param {
    lr_mult: 1
    decay_mult: 1
  }
  param {
    lr_mult: 2
    decay_mult: 0
  }
  convolution_param {
    num_output: 160
    kernel_size: 1
    weight_filler {
      type: "xavier"
      std: 0.03
    }
    bias_filler {
      type: "constant"
      value: 0.2
    }
  }
}
layer {
  name: "inception_4b/relu_1x1"
  type: "ReLU"
  bottom: "inception_4b/1x1"
  top: "inception_4b/1x1"
}
layer {
  name: "inception_4b/3x3_reduce"
  type: "Convolution"
  bottom: "inception_4a/output"
  top: "inception_4b/3x3_reduce"
  param {
    lr_mult: 1
    decay_mult: 1
  }
  param {
    lr_mult: 2
    decay_mult: 0
  }
  convolution_param {
    num_output: 112
    kernel_size: 1
    weight_filler {
      type: "xavier"
      std: 0.09
    }
    bias_filler {
      type: "constant"
      value: 0.2
    }
  }
}
layer {
  name: "inception_4b/relu_3x3_reduce"
  type: "ReLU"
  bottom: "inception_4b/3x3_reduce"
  top: "inception_4b/3x3_reduce"
}
layer {
  name: "inception_4b/3x3"
  type: "Convolution"
  bottom: "inception_4b/3x3_reduce"
  top: "inception_4b/3x3"
  param {
    lr_mult: 1
    decay_mult: 1
  }
  param {
    lr_mult: 2
    decay_mult: 0
  }
  convolution_param {
    num_output: 224
    pad: 1
    kernel_size: 3
    weight_filler {
      type: "xavier"
      std: 0.03
    }
    bias_filler {
      type: "constant"
      value: 0.2
    }
  }
}
layer {
  name: "inception_4b/relu_3x3"
  type: "ReLU"
  bottom: "inception_4b/3x3"
  top: "inception_4b/3x3"
}
layer {
  name: "inception_4b/5x5_reduce"
  type: "Convolution"
  bottom: "inception_4a/output"
  top: "inception_4b/5x5_reduce"
  param {
    lr_mult: 1
    decay_mult: 1
  }
  param {
    lr_mult: 2
    decay_mult: 0
  }
  convolution_param {
    num_output: 24
    kernel_size: 1
    weight_filler {
      type: "xavier"
      std: 0.2
    }
    bias_filler {
      type: "constant"
      value: 0.2
    }
  }
}
layer {
  name: "inception_4b/relu_5x5_reduce"
  type: "ReLU"
  bottom: "inception_4b/5x5_reduce"
  top: "inception_4b/5x5_reduce"
}
layer {
  name: "inception_4b/5x5"
  type: "Convolution"
  bottom: "inception_4b/5x5_reduce"
  top: "inception_4b/5x5"
  param {
    lr_mult: 1
    decay_mult: 1
  }
  param {
    lr_mult: 2
    decay_mult: 0
  }
  convolution_param {
    num_output: 64
    pad: 2
    kernel_size: 5
    weight_filler {
      type: "xavier"
      std: 0.03
    }
    bias_filler {
      type: "constant"
      value: 0.2
    }
  }
}
layer {
  name: "inception_4b/relu_5x5"
  type: "ReLU"
  bottom: "inception_4b/5x5"
  top: "inception_4b/5x5"
}
layer {
  name: "inception_4b/pool"
  type: "Pooling"
  bottom: "inception_4a/output"
  top: "inception_4b/pool"
  pooling_param {
    pool: MAX
    kernel_size: 3
    stride: 1
    pad: 1
  }
}
layer {
  name: "inception_4b/pool_proj"
  type: "Convolution"
  bottom: "inception_4b/pool"
  top: "inception_4b/pool_proj"
  param {
    lr_mult: 1
    decay_mult: 1
  }
  param {
    lr_mult: 2
    decay_mult: 0
  }
  convolution_param {
    num_output: 64
    kernel_size: 1
    weight_filler {
      type: "xavier"
      std: 0.1
    }
    bias_filler {
      type: "constant"
      value: 0.2
    }
  }
}
layer {
  name: "inception_4b/relu_pool_proj"
  type: "ReLU"
  bottom: "inception_4b/pool_proj"
  top: "inception_4b/pool_proj"
}
layer {
  name: "inception_4b/output"
  type: "Concat"
  bottom: "inception_4b/1x1"
  bottom: "inception_4b/3x3"
  bottom: "inception_4b/5x5"
  bottom: "inception_4b/pool_proj"
  top: "inception_4b/output"
}
layer {
  name: "inception_4c/1x1"
  type: "Convolution"
  bottom: "inception_4b/output"
  top: "inception_4c/1x1"
  param {
    lr_mult: 1
    decay_mult: 1
  }
  param {
    lr_mult: 2
    decay_mult: 0
  }
  convolution_param {
    num_output: 128
    kernel_size: 1
    weight_filler {
      type: "xavier"
      std: 0.03
    }
    bias_filler {
      type: "constant"
      value: 0.2
    }
  }
}
layer {
  name: "inception_4c/relu_1x1"
  type: "ReLU"
  bottom: "inception_4c/1x1"
  top: "inception_4c/1x1"
}
layer {
  name: "inception_4c/3x3_reduce"
  type: "Convolution"
  bottom: "inception_4b/output"
  top: "inception_4c/3x3_reduce"
  param {
    lr_mult: 1
    decay_mult: 1
  }
  param {
    lr_mult: 2
    decay_mult: 0
  }
  convolution_param {
    num_output: 128
    kernel_size: 1
    weight_filler {
      type: "xavier"
      std: 0.09
    }
    bias_filler {
      type: "constant"
      value: 0.2
    }
  }
}
layer {
  name: "inception_4c/relu_3x3_reduce"
  type: "ReLU"
  bottom: "inception_4c/3x3_reduce"
  top: "inception_4c/3x3_reduce"
}
layer {
  name: "inception_4c/3x3"
  type: "Convolution"
  bottom: "inception_4c/3x3_reduce"
  top: "inception_4c/3x3"
  param {
    lr_mult: 1
    decay_mult: 1
  }
  param {
    lr_mult: 2
    decay_mult: 0
  }
  convolution_param {
    num_output: 256
    pad: 1
    kernel_size: 3
    weight_filler {
      type: "xavier"
      std: 0.03
    }
    bias_filler {
      type: "constant"
      value: 0.2
    }
  }
}
layer {
  name: "inception_4c/relu_3x3"
  type: "ReLU"
  bottom: "inception_4c/3x3"
  top: "inception_4c/3x3"
}
layer {
  name: "inception_4c/5x5_reduce"
  type: "Convolution"
  bottom: "inception_4b/output"
  top: "inception_4c/5x5_reduce"
  param {
    lr_mult: 1
    decay_mult: 1
  }
  param {
    lr_mult: 2
    decay_mult: 0
  }
  convolution_param {
    num_output: 24
    kernel_size: 1
    weight_filler {
      type: "xavier"
      std: 0.2
    }
    bias_filler {
      type: "constant"
      value: 0.2
    }
  }
}
layer {
  name: "inception_4c/relu_5x5_reduce"
  type: "ReLU"
  bottom: "inception_4c/5x5_reduce"
  top: "inception_4c/5x5_reduce"
}
layer {
  name: "inception_4c/5x5"
  type: "Convolution"
  bottom: "inception_4c/5x5_reduce"
  top: "inception_4c/5x5"
  param {
    lr_mult: 1
    decay_mult: 1
  }
  param {
    lr_mult: 2
    decay_mult: 0
  }
  convolution_param {
    num_output: 64
    pad: 2
    kernel_size: 5
    weight_filler {
      type: "xavier"
      std: 0.03
    }
    bias_filler {
      type: "constant"
      value: 0.2
    }
  }
}
layer {
  name: "inception_4c/relu_5x5"
  type: "ReLU"
  bottom: "inception_4c/5x5"
  top: "inception_4c/5x5"
}
layer {
  name: "inception_4c/pool"
  type: "Pooling"
  bottom: "inception_4b/output"
  top: "inception_4c/pool"
  pooling_param {
    pool: MAX
    kernel_size: 3
    stride: 1
    pad: 1
  }
}
layer {
  name: "inception_4c/pool_proj"
  type: "Convolution"
  bottom: "inception_4c/pool"
  top: "inception_4c/pool_proj"
  param {
    lr_mult: 1
    decay_mult: 1
  }
  param {
    lr_mult: 2
    decay_mult: 0
  }
  convolution_param {
    num_output: 64
    kernel_size: 1
    weight_filler {
      type: "xavier"
      std: 0.1
    }
    bias_filler {
      type: "constant"
      value: 0.2
    }
  }
}
layer {
  name: "inception_4c/relu_pool_proj"
  type: "ReLU"
  bottom: "inception_4c/pool_proj"
  top: "inception_4c/pool_proj"
}
layer {
  name: "inception_4c/output"
  type: "Concat"
  bottom: "inception_4c/1x1"
  bottom: "inception_4c/3x3"
  bottom: "inception_4c/5x5"
  bottom: "inception_4c/pool_proj"
  top: "inception_4c/output"
}
layer {
  name: "inception_4d/1x1"
  type: "Convolution"
  bottom: "inception_4c/output"
  top: "inception_4d/1x1"
  param {
    lr_mult: 1
    decay_mult: 1
  }
  param {
    lr_mult: 2
    decay_mult: 0
  }
  convolution_param {
    num_output: 112
    kernel_size: 1
    weight_filler {
      type: "xavier"
      std: 0.03
    }
    bias_filler {
      type: "constant"
      value: 0.2
    }
  }
}
layer {
  name: "inception_4d/relu_1x1"
  type: "ReLU"
  bottom: "inception_4d/1x1"
  top: "inception_4d/1x1"
}
layer {
  name: "inception_4d/3x3_reduce"
  type: "Convolution"
  bottom: "inception_4c/output"
  top: "inception_4d/3x3_reduce"
  param {
    lr_mult: 1
    decay_mult: 1
  }
  param {
    lr_mult: 2
    decay_mult: 0
  }
  convolution_param {
    num_output: 144
    kernel_size: 1
    weight_filler {
      type: "xavier"
      std: 0.09
    }
    bias_filler {
      type: "constant"
      value: 0.2
    }
  }
}
layer {
  name: "inception_4d/relu_3x3_reduce"
  type: "ReLU"
  bottom: "inception_4d/3x3_reduce"
  top: "inception_4d/3x3_reduce"
}
layer {
  name: "inception_4d/3x3"
  type: "Convolution"
  bottom: "inception_4d/3x3_reduce"
  top: "inception_4d/3x3"
  param {
    lr_mult: 1
    decay_mult: 1
  }
  param {
    lr_mult: 2
    decay_mult: 0
  }
  convolution_param {
    num_output: 288
    pad: 1
    kernel_size: 3
    weight_filler {
      type: "xavier"
      std: 0.03
    }
    bias_filler {
      type: "constant"
      value: 0.2
    }
  }
}
layer {
  name: "inception_4d/relu_3x3"
  type: "ReLU"
  bottom: "inception_4d/3x3"
  top: "inception_4d/3x3"
}
layer {
  name: "inception_4d/5x5_reduce"
  type: "Convolution"
  bottom: "inception_4c/output"
  top: "inception_4d/5x5_reduce"
  param {
    lr_mult: 1
    decay_mult: 1
  }
  param {
    lr_mult: 2
    decay_mult: 0
  }
  convolution_param {
    num_output: 32
    kernel_size: 1
    weight_filler {
      type: "xavier"
      std: 0.2
    }
    bias_filler {
      type: "constant"
      value: 0.2
    }
  }
}
layer {
  name: "inception_4d/relu_5x5_reduce"
  type: "ReLU"
  bottom: "inception_4d/5x5_reduce"
  top: "inception_4d/5x5_reduce"
}
layer {
  name: "inception_4d/5x5"
  type: "Convolution"
  bottom: "inception_4d/5x5_reduce"
  top: "inception_4d/5x5"
  param {
    lr_mult: 1
    decay_mult: 1
  }
  param {
    lr_mult: 2
    decay_mult: 0
  }
  convolution_param {
    num_output: 64
    pad: 2
    kernel_size: 5
    weight_filler {
      type: "xavier"
      std: 0.03
    }
    bias_filler {
      type: "constant"
      value: 0.2
    }
  }
}
layer {
  name: "inception_4d/relu_5x5"
  type: "ReLU"
  bottom: "inception_4d/5x5"
  top: "inception_4d/5x5"
}
layer {
  name: "inception_4d/pool"
  type: "Pooling"
  bottom: "inception_4c/output"
  top: "inception_4d/pool"
  pooling_param {
    pool: MAX
    kernel_size: 3
    stride: 1
    pad: 1
  }
}
layer {
  name: "inception_4d/pool_proj"
  type: "Convolution"
  bottom: "inception_4d/pool"
  top: "inception_4d/pool_proj"
  param {
    lr_mult: 1
    decay_mult: 1
  }
  param {
    lr_mult: 2
    decay_mult: 0
  }
  convolution_param {
    num_output: 64
    kernel_size: 1
    weight_filler {
      type: "xavier"
      std: 0.1
    }
    bias_filler {
      type: "constant"
      value: 0.2
    }
  }
}
layer {
  name: "inception_4d/relu_pool_proj"
  type: "ReLU"
  bottom: "inception_4d/pool_proj"
  top: "inception_4d/pool_proj"
}
layer {
  name: "inception_4d/output"
  type: "Concat"
  bottom: "inception_4d/1x1"
  bottom: "inception_4d/3x3"
  bottom: "inception_4d/5x5"
  bottom: "inception_4d/pool_proj"
  top: "inception_4d/output"
}
layer {
  name: "loss2/ave_pool"
  type: "Pooling"
  bottom: "inception_4d/output"
  top: "loss2/ave_pool"
  pooling_param {
    pool: AVE
    kernel_size: 5
    stride: 3
  }
}
layer {
  name: "loss2/conv"
  type: "Convolution"
  bottom: "loss2/ave_pool"
  top: "loss2/conv"
  param {
    lr_mult: 1
    decay_mult: 1
  }
  param {
    lr_mult: 2
    decay_mult: 0
  }
  convolution_param {
    num_output: 128
    kernel_size: 1
    weight_filler {
      type: "xavier"
      std: 0.08
    }
    bias_filler {
      type: "constant"
      value: 0.2
    }
  }
}
layer {
  name: "loss2/relu_conv"
  type: "ReLU"
  bottom: "loss2/conv"
  top: "loss2/conv"
}
layer {
  name: "loss2/fc"
  type: "InnerProduct"
  bottom: "loss2/conv"
  top: "loss2/fc"
  param {
    lr_mult: 1
    decay_mult: 1
  }
  param {
    lr_mult: 2
    decay_mult: 0
  }
  inner_product_param {
    num_output: 1024
    weight_filler {
      type: "xavier"
      std: 0.02
    }
    bias_filler {
      type: "constant"
      value: 0.2
    }
  }
}
layer {
  name: "loss2/relu_fc"
  type: "ReLU"
  bottom: "loss2/fc"
  top: "loss2/fc"
}
layer {
  name: "loss2/drop_fc"
  type: "Dropout"
  bottom: "loss2/fc"
  top: "loss2/fc"
  dropout_param {
    dropout_ratio: 0.7
  }
}
layer {
  name: "loss2/classifier_plantvillage"
  type: "InnerProduct"
  bottom: "loss2/fc"
  top: "loss2/classifier_plantvillage"
  param {
    lr_mult: 1
    decay_mult: 1
  }
  param {
    lr_mult: 2
    decay_mult: 0
  }
  inner_product_param {
    num_output: 38
    weight_filler {
      type: "xavier"
      std: 0.0009765625
    }
    bias_filler {
      type: "constant"
      value: 0
    }
  }
}
layer {
  name: "inception_4e/1x1"
  type: "Convolution"
  bottom: "inception_4d/output"
  top: "inception_4e/1x1"
  param {
    lr_mult: 1
    decay_mult: 1
  }
  param {
    lr_mult: 2
    decay_mult: 0
  }
  convolution_param {
    num_output: 256
    kernel_size: 1
    weight_filler {
      type: "xavier"
      std: 0.03
    }
    bias_filler {
      type: "constant"
      value: 0.2
    }
  }
}
layer {
  name: "inception_4e/relu_1x1"
  type: "ReLU"
  bottom: "inception_4e/1x1"
  top: "inception_4e/1x1"
}
layer {
  name: "inception_4e/3x3_reduce"
  type: "Convolution"
  bottom: "inception_4d/output"
  top: "inception_4e/3x3_reduce"
  param {
    lr_mult: 1
    decay_mult: 1
  }
  param {
    lr_mult: 2
    decay_mult: 0
  }
  convolution_param {
    num_output: 160
    kernel_size: 1
    weight_filler {
      type: "xavier"
      std: 0.09
    }
    bias_filler {
      type: "constant"
      value: 0.2
    }
  }
}
layer {
  name: "inception_4e/relu_3x3_reduce"
  type: "ReLU"
  bottom: "inception_4e/3x3_reduce"
  top: "inception_4e/3x3_reduce"
}
layer {
  name: "inception_4e/3x3"
  type: "Convolution"
  bottom: "inception_4e/3x3_reduce"
  top: "inception_4e/3x3"
  param {
    lr_mult: 1
    decay_mult: 1
  }
  param {
    lr_mult: 2
    decay_mult: 0
  }
  convolution_param {
    num_output: 320
    pad: 1
    kernel_size: 3
    weight_filler {
      type: "xavier"
      std: 0.03
    }
    bias_filler {
      type: "constant"
      value: 0.2
    }
  }
}
layer {
  name: "inception_4e/relu_3x3"
  type: "ReLU"
  bottom: "inception_4e/3x3"
  top: "inception_4e/3x3"
}
layer {
  name: "inception_4e/5x5_reduce"
  type: "Convolution"
  bottom: "inception_4d/output"
  top: "inception_4e/5x5_reduce"
  param {
    lr_mult: 1
    decay_mult: 1
  }
  param {
    lr_mult: 2
    decay_mult: 0
  }
  convolution_param {
    num_output: 32
    kernel_size: 1
    weight_filler {
      type: "xavier"
      std: 0.2
    }
    bias_filler {
      type: "constant"
      value: 0.2
    }
  }
}
layer {
  name: "inception_4e/relu_5x5_reduce"
  type: "ReLU"
  bottom: "inception_4e/5x5_reduce"
  top: "inception_4e/5x5_reduce"
}
layer {
  name: "inception_4e/5x5"
  type: "Convolution"
  bottom: "inception_4e/5x5_reduce"
  top: "inception_4e/
I0403 15:50:28.394323 12765 layer_factory.hpp:77] Creating layer data
I0403 15:50:28.394976 12765 net.cpp:91] Creating Layer data
I0403 15:50:28.395010 12765 net.cpp:399] data -> data
I0403 15:50:28.395063 12765 net.cpp:399] data -> label
I0403 15:50:28.395100 12765 data_transformer.cpp:25] Loading mean file from: /home/mohanty/data/final_dataset/lmdb/segmented-40-60/mean.binaryproto
I0403 15:50:28.399225 12768 db_lmdb.cpp:38] Opened lmdb /home/mohanty/data/final_dataset/lmdb/segmented-40-60/test_db
I0403 15:50:28.408665 12765 data_layer.cpp:41] output data size: 24,3,224,224
I0403 15:50:28.437098 12765 net.cpp:141] Setting up data
I0403 15:50:28.437186 12765 net.cpp:148] Top shape: 24 3 224 224 (3612672)
I0403 15:50:28.437211 12765 net.cpp:148] Top shape: 24 (24)
I0403 15:50:28.437227 12765 net.cpp:156] Memory required for data: 14450784
I0403 15:50:28.437255 12765 layer_factory.hpp:77] Creating layer label_data_1_split
I0403 15:50:28.437283 12765 net.cpp:91] Creating Layer label_data_1_split
I0403 15:50:28.437301 12765 net.cpp:425] label_data_1_split <- label
I0403 15:50:28.437332 12765 net.cpp:399] label_data_1_split -> label_data_1_split_0
I0403 15:50:28.437367 12765 net.cpp:399] label_data_1_split -> label_data_1_split_1
I0403 15:50:28.437392 12765 net.cpp:399] label_data_1_split -> label_data_1_split_2
I0403 15:50:28.437415 12765 net.cpp:399] label_data_1_split -> label_data_1_split_3
I0403 15:50:28.437436 12765 net.cpp:399] label_data_1_split -> label_data_1_split_4
I0403 15:50:28.437458 12765 net.cpp:399] label_data_1_split -> label_data_1_split_5
I0403 15:50:28.437479 12765 net.cpp:399] label_data_1_split -> label_data_1_split_6
I0403 15:50:28.437500 12765 net.cpp:399] label_data_1_split -> label_data_1_split_7
I0403 15:50:28.437521 12765 net.cpp:399] label_data_1_split -> label_data_1_split_8
I0403 15:50:28.437542 12765 net.cpp:399] label_data_1_split -> label_data_1_split_9
I0403 15:50:28.437656 12765 net.cpp:141] Setting up label_data_1_split
I0403 15:50:28.437680 12765 net.cpp:148] Top shape: 24 (24)
I0403 15:50:28.437697 12765 net.cpp:148] Top shape: 24 (24)
I0403 15:50:28.437714 12765 net.cpp:148] Top shape: 24 (24)
I0403 15:50:28.437731 12765 net.cpp:148] Top shape: 24 (24)
I0403 15:50:28.437747 12765 net.cpp:148] Top shape: 24 (24)
I0403 15:50:28.437762 12765 net.cpp:148] Top shape: 24 (24)
I0403 15:50:28.437778 12765 net.cpp:148] Top shape: 24 (24)
I0403 15:50:28.437794 12765 net.cpp:148] Top shape: 24 (24)
I0403 15:50:28.437810 12765 net.cpp:148] Top shape: 24 (24)
I0403 15:50:28.437829 12765 net.cpp:148] Top shape: 24 (24)
I0403 15:50:28.437871 12765 net.cpp:156] Memory required for data: 14451744
I0403 15:50:28.437888 12765 layer_factory.hpp:77] Creating layer conv1/7x7_s2
I0403 15:50:28.437922 12765 net.cpp:91] Creating Layer conv1/7x7_s2
I0403 15:50:28.437940 12765 net.cpp:425] conv1/7x7_s2 <- data
I0403 15:50:28.437960 12765 net.cpp:399] conv1/7x7_s2 -> conv1/7x7_s2
I0403 15:50:28.582906 12765 net.cpp:141] Setting up conv1/7x7_s2
I0403 15:50:28.582999 12765 net.cpp:148] Top shape: 24 64 112 112 (19267584)
I0403 15:50:28.583016 12765 net.cpp:156] Memory required for data: 91522080
I0403 15:50:28.583047 12765 layer_factory.hpp:77] Creating layer conv1/relu_7x7
I0403 15:50:28.583075 12765 net.cpp:91] Creating Layer conv1/relu_7x7
I0403 15:50:28.583092 12765 net.cpp:425] conv1/relu_7x7 <- conv1/7x7_s2
I0403 15:50:28.583111 12765 net.cpp:386] conv1/relu_7x7 -> conv1/7x7_s2 (in-place)
I0403 15:50:28.583370 12765 net.cpp:141] Setting up conv1/relu_7x7
I0403 15:50:28.583398 12765 net.cpp:148] Top shape: 24 64 112 112 (19267584)
I0403 15:50:28.583413 12765 net.cpp:156] Memory required for data: 168592416
I0403 15:50:28.583427 12765 layer_factory.hpp:77] Creating layer pool1/3x3_s2
I0403 15:50:28.583451 12765 net.cpp:91] Creating Layer pool1/3x3_s2
I0403 15:50:28.583468 12765 net.cpp:425] pool1/3x3_s2 <- conv1/7x7_s2
I0403 15:50:28.583487 12765 net.cpp:399] pool1/3x3_s2 -> pool1/3x3_s2
I0403 15:50:28.583560 12765 net.cpp:141] Setting up pool1/3x3_s2
I0403 15:50:28.583583 12765 net.cpp:148] Top shape: 24 64 56 56 (4816896)
I0403 15:50:28.583598 12765 net.cpp:156] Memory required for data: 187860000
I0403 15:50:28.583612 12765 layer_factory.hpp:77] Creating layer pool1/norm1
I0403 15:50:28.583636 12765 net.cpp:91] Creating Layer pool1/norm1
I0403 15:50:28.583653 12765 net.cpp:425] pool1/norm1 <- pool1/3x3_s2
I0403 15:50:28.583670 12765 net.cpp:399] pool1/norm1 -> pool1/norm1
I0403 15:50:28.583945 12765 net.cpp:141] Setting up pool1/norm1
I0403 15:50:28.583971 12765 net.cpp:148] Top shape: 24 64 56 56 (4816896)
I0403 15:50:28.583986 12765 net.cpp:156] Memory required for data: 207127584
I0403 15:50:28.584002 12765 layer_factory.hpp:77] Creating layer conv2/3x3_reduce
I0403 15:50:28.584024 12765 net.cpp:91] Creating Layer conv2/3x3_reduce
I0403 15:50:28.584041 12765 net.cpp:425] conv2/3x3_reduce <- pool1/norm1
I0403 15:50:28.584060 12765 net.cpp:399] conv2/3x3_reduce -> conv2/3x3_reduce
I0403 15:50:28.585373 12765 net.cpp:141] Setting up conv2/3x3_reduce
I0403 15:50:28.585402 12765 net.cpp:148] Top shape: 24 64 56 56 (4816896)
I0403 15:50:28.585418 12765 net.cpp:156] Memory required for data: 226395168
I0403 15:50:28.585438 12765 layer_factory.hpp:77] Creating layer conv2/relu_3x3_reduce
I0403 15:50:28.585458 12765 net.cpp:91] Creating Layer conv2/relu_3x3_reduce
I0403 15:50:28.585474 12765 net.cpp:425] conv2/relu_3x3_reduce <- conv2/3x3_reduce
I0403 15:50:28.585489 12765 net.cpp:386] conv2/relu_3x3_reduce -> conv2/3x3_reduce (in-place)
I0403 15:50:28.585731 12765 net.cpp:141] Setting up conv2/relu_3x3_reduce
I0403 15:50:28.585757 12765 net.cpp:148] Top shape: 24 64 56 56 (4816896)
I0403 15:50:28.585772 12765 net.cpp:156] Memory required for data: 245662752
I0403 15:50:28.585786 12765 layer_factory.hpp:77] Creating layer conv2/3x3
I0403 15:50:28.585808 12765 net.cpp:91] Creating Layer conv2/3x3
I0403 15:50:28.585824 12765 net.cpp:425] conv2/3x3 <- conv2/3x3_reduce
I0403 15:50:28.585841 12765 net.cpp:399] conv2/3x3 -> conv2/3x3
I0403 15:50:28.587985 12765 net.cpp:141] Setting up conv2/3x3
I0403 15:50:28.588013 12765 net.cpp:148] Top shape: 24 192 56 56 (14450688)
I0403 15:50:28.588030 12765 net.cpp:156] Memory required for data: 303465504
I0403 15:50:28.588049 12765 layer_factory.hpp:77] Creating layer conv2/relu_3x3
I0403 15:50:28.588068 12765 net.cpp:91] Creating Layer conv2/relu_3x3
I0403 15:50:28.588083 12765 net.cpp:425] conv2/relu_3x3 <- conv2/3x3
I0403 15:50:28.588100 12765 net.cpp:386] conv2/relu_3x3 -> conv2/3x3 (in-place)
I0403 15:50:28.588254 12765 net.cpp:141] Setting up conv2/relu_3x3
I0403 15:50:28.588279 12765 net.cpp:148] Top shape: 24 192 56 56 (14450688)
I0403 15:50:28.588325 12765 net.cpp:156] Memory required for data: 361268256
I0403 15:50:28.588341 12765 layer_factory.hpp:77] Creating layer conv2/norm2
I0403 15:50:28.588366 12765 net.cpp:91] Creating Layer conv2/norm2
I0403 15:50:28.588382 12765 net.cpp:425] conv2/norm2 <- conv2/3x3
I0403 15:50:28.588398 12765 net.cpp:399] conv2/norm2 -> conv2/norm2
I0403 15:50:28.588667 12765 net.cpp:141] Setting up conv2/norm2
I0403 15:50:28.588693 12765 net.cpp:148] Top shape: 24 192 56 56 (14450688)
I0403 15:50:28.588708 12765 net.cpp:156] Memory required for data: 419071008
I0403 15:50:28.588723 12765 layer_factory.hpp:77] Creating layer pool2/3x3_s2
I0403 15:50:28.588740 12765 net.cpp:91] Creating Layer pool2/3x3_s2
I0403 15:50:28.588757 12765 net.cpp:425] pool2/3x3_s2 <- conv2/norm2
I0403 15:50:28.588773 12765 net.cpp:399] pool2/3x3_s2 -> pool2/3x3_s2
I0403 15:50:28.588820 12765 net.cpp:141] Setting up pool2/3x3_s2
I0403 15:50:28.588842 12765 net.cpp:148] Top shape: 24 192 28 28 (3612672)
I0403 15:50:28.588857 12765 net.cpp:156] Memory required for data: 433521696
I0403 15:50:28.588872 12765 layer_factory.hpp:77] Creating layer pool2/3x3_s2_pool2/3x3_s2_0_split
I0403 15:50:28.588888 12765 net.cpp:91] Creating Layer pool2/3x3_s2_pool2/3x3_s2_0_split
I0403 15:50:28.588903 12765 net.cpp:425] pool2/3x3_s2_pool2/3x3_s2_0_split <- pool2/3x3_s2
I0403 15:50:28.588920 12765 net.cpp:399] pool2/3x3_s2_pool2/3x3_s2_0_split -> pool2/3x3_s2_pool2/3x3_s2_0_split_0
I0403 15:50:28.588938 12765 net.cpp:399] pool2/3x3_s2_pool2/3x3_s2_0_split -> pool2/3x3_s2_pool2/3x3_s2_0_split_1
I0403 15:50:28.588959 12765 net.cpp:399] pool2/3x3_s2_pool2/3x3_s2_0_split -> pool2/3x3_s2_pool2/3x3_s2_0_split_2
I0403 15:50:28.588979 12765 net.cpp:399] pool2/3x3_s2_pool2/3x3_s2_0_split -> pool2/3x3_s2_pool2/3x3_s2_0_split_3
I0403 15:50:28.589040 12765 net.cpp:141] Setting up pool2/3x3_s2_pool2/3x3_s2_0_split
I0403 15:50:28.589061 12765 net.cpp:148] Top shape: 24 192 28 28 (3612672)
I0403 15:50:28.589076 12765 net.cpp:148] Top shape: 24 192 28 28 (3612672)
I0403 15:50:28.589092 12765 net.cpp:148] Top shape: 24 192 28 28 (3612672)
I0403 15:50:28.589107 12765 net.cpp:148] Top shape: 24 192 28 28 (3612672)
I0403 15:50:28.589120 12765 net.cpp:156] Memory required for data: 491324448
I0403 15:50:28.589134 12765 layer_factory.hpp:77] Creating layer inception_3a/1x1
I0403 15:50:28.589154 12765 net.cpp:91] Creating Layer inception_3a/1x1
I0403 15:50:28.589169 12765 net.cpp:425] inception_3a/1x1 <- pool2/3x3_s2_pool2/3x3_s2_0_split_0
I0403 15:50:28.589187 12765 net.cpp:399] inception_3a/1x1 -> inception_3a/1x1
I0403 15:50:28.590684 12765 net.cpp:141] Setting up inception_3a/1x1
I0403 15:50:28.590713 12765 net.cpp:148] Top shape: 24 64 28 28 (1204224)
I0403 15:50:28.590728 12765 net.cpp:156] Memory required for data: 496141344
I0403 15:50:28.590746 12765 layer_factory.hpp:77] Creating layer inception_3a/relu_1x1
I0403 15:50:28.590766 12765 net.cpp:91] Creating Layer inception_3a/relu_1x1
I0403 15:50:28.590783 12765 net.cpp:425] inception_3a/relu_1x1 <- inception_3a/1x1
I0403 15:50:28.590800 12765 net.cpp:386] inception_3a/relu_1x1 -> inception_3a/1x1 (in-place)
I0403 15:50:28.590965 12765 net.cpp:141] Setting up inception_3a/relu_1x1
I0403 15:50:28.590991 12765 net.cpp:148] Top shape: 24 64 28 28 (1204224)
I0403 15:50:28.591008 12765 net.cpp:156] Memory required for data: 500958240
I0403 15:50:28.591022 12765 layer_factory.hpp:77] Creating layer inception_3a/3x3_reduce
I0403 15:50:28.591045 12765 net.cpp:91] Creating Layer inception_3a/3x3_reduce
I0403 15:50:28.591061 12765 net.cpp:425] inception_3a/3x3_reduce <- pool2/3x3_s2_pool2/3x3_s2_0_split_1
I0403 15:50:28.591080 12765 net.cpp:399] inception_3a/3x3_reduce -> inception_3a/3x3_reduce
I0403 15:50:28.592715 12765 net.cpp:141] Setting up inception_3a/3x3_reduce
I0403 15:50:28.592744 12765 net.cpp:148] Top shape: 24 96 28 28 (1806336)
I0403 15:50:28.592758 12765 net.cpp:156] Memory required for data: 508183584
I0403 15:50:28.592782 12765 layer_factory.hpp:77] Creating layer inception_3a/relu_3x3_reduce
I0403 15:50:28.592816 12765 net.cpp:91] Creating Layer inception_3a/relu_3x3_reduce
I0403 15:50:28.592833 12765 net.cpp:425] inception_3a/relu_3x3_reduce <- inception_3a/3x3_reduce
I0403 15:50:28.592852 12765 net.cpp:386] inception_3a/relu_3x3_reduce -> inception_3a/3x3_reduce (in-place)
I0403 15:50:28.593024 12765 net.cpp:141] Setting up inception_3a/relu_3x3_reduce
I0403 15:50:28.593049 12765 net.cpp:148] Top shape: 24 96 28 28 (1806336)
I0403 15:50:28.593062 12765 net.cpp:156] Memory required for data: 515408928
I0403 15:50:28.593076 12765 layer_factory.hpp:77] Creating layer inception_3a/3x3
I0403 15:50:28.593098 12765 net.cpp:91] Creating Layer inception_3a/3x3
I0403 15:50:28.593114 12765 net.cpp:425] inception_3a/3x3 <- inception_3a/3x3_reduce
I0403 15:50:28.593137 12765 net.cpp:399] inception_3a/3x3 -> inception_3a/3x3
I0403 15:50:28.594723 12765 net.cpp:141] Setting up inception_3a/3x3
I0403 15:50:28.594750 12765 net.cpp:148] Top shape: 24 128 28 28 (2408448)
I0403 15:50:28.594766 12765 net.cpp:156] Memory required for data: 525042720
I0403 15:50:28.594784 12765 layer_factory.hpp:77] Creating layer inception_3a/relu_3x3
I0403 15:50:28.594805 12765 net.cpp:91] Creating Layer inception_3a/relu_3x3
I0403 15:50:28.594820 12765 net.cpp:425] inception_3a/relu_3x3 <- inception_3a/3x3
I0403 15:50:28.594837 12765 net.cpp:386] inception_3a/relu_3x3 -> inception_3a/3x3 (in-place)
I0403 15:50:28.595098 12765 net.cpp:141] Setting up inception_3a/relu_3x3
I0403 15:50:28.595124 12765 net.cpp:148] Top shape: 24 128 28 28 (2408448)
I0403 15:50:28.595139 12765 net.cpp:156] Memory required for data: 534676512
I0403 15:50:28.595152 12765 layer_factory.hpp:77] Creating layer inception_3a/5x5_reduce
I0403 15:50:28.595175 12765 net.cpp:91] Creating Layer inception_3a/5x5_reduce
I0403 15:50:28.595192 12765 net.cpp:425] inception_3a/5x5_reduce <- pool2/3x3_s2_pool2/3x3_s2_0_split_2
I0403 15:50:28.595211 12765 net.cpp:399] inception_3a/5x5_reduce -> inception_3a/5x5_reduce
I0403 15:50:28.596225 12765 net.cpp:141] Setting up inception_3a/5x5_reduce
I0403 15:50:28.596256 12765 net.cpp:148] Top shape: 24 16 28 28 (301056)
I0403 15:50:28.596271 12765 net.cpp:156] Memory required for data: 535880736
I0403 15:50:28.596289 12765 layer_factory.hpp:77] Creating layer inception_3a/relu_5x5_reduce
I0403 15:50:28.596308 12765 net.cpp:91] Creating Layer inception_3a/relu_5x5_reduce
I0403 15:50:28.596323 12765 net.cpp:425] inception_3a/relu_5x5_reduce <- inception_3a/5x5_reduce
I0403 15:50:28.596344 12765 net.cpp:386] inception_3a/relu_5x5_reduce -> inception_3a/5x5_reduce (in-place)
I0403 15:50:28.596637 12765 net.cpp:141] Setting up inception_3a/relu_5x5_reduce
I0403 15:50:28.596663 12765 net.cpp:148] Top shape: 24 16 28 28 (301056)
I0403 15:50:28.596678 12765 net.cpp:156] Memory required for data: 537084960
I0403 15:50:28.596693 12765 layer_factory.hpp:77] Creating layer inception_3a/5x5
I0403 15:50:28.596714 12765 net.cpp:91] Creating Layer inception_3a/5x5
I0403 15:50:28.596730 12765 net.cpp:425] inception_3a/5x5 <- inception_3a/5x5_reduce
I0403 15:50:28.596750 12765 net.cpp:399] inception_3a/5x5 -> inception_3a/5x5
I0403 15:50:28.597735 12765 net.cpp:141] Setting up inception_3a/5x5
I0403 15:50:28.597762 12765 net.cpp:148] Top shape: 24 32 28 28 (602112)
I0403 15:50:28.597776 12765 net.cpp:156] Memory required for data: 539493408
I0403 15:50:28.597795 12765 layer_factory.hpp:77] Creating layer inception_3a/relu_5x5
I0403 15:50:28.597815 12765 net.cpp:91] Creating Layer inception_3a/relu_5x5
I0403 15:50:28.597831 12765 net.cpp:425] inception_3a/relu_5x5 <- inception_3a/5x5
I0403 15:50:28.597848 12765 net.cpp:386] inception_3a/relu_5x5 -> inception_3a/5x5 (in-place)
I0403 15:50:28.598014 12765 net.cpp:141] Setting up inception_3a/relu_5x5
I0403 15:50:28.598039 12765 net.cpp:148] Top shape: 24 32 28 28 (602112)
I0403 15:50:28.598053 12765 net.cpp:156] Memory required for data: 541901856
I0403 15:50:28.598068 12765 layer_factory.hpp:77] Creating layer inception_3a/pool
I0403 15:50:28.598085 12765 net.cpp:91] Creating Layer inception_3a/pool
I0403 15:50:28.598115 12765 net.cpp:425] inception_3a/pool <- pool2/3x3_s2_pool2/3x3_s2_0_split_3
I0403 15:50:28.598135 12765 net.cpp:399] inception_3a/pool -> inception_3a/pool
I0403 15:50:28.598191 12765 net.cpp:141] Setting up inception_3a/pool
I0403 15:50:28.598213 12765 net.cpp:148] Top shape: 24 192 28 28 (3612672)
I0403 15:50:28.598227 12765 net.cpp:156] Memory required for data: 556352544
I0403 15:50:28.598242 12765 layer_factory.hpp:77] Creating layer inception_3a/pool_proj
I0403 15:50:28.598268 12765 net.cpp:91] Creating Layer inception_3a/pool_proj
I0403 15:50:28.598285 12765 net.cpp:425] inception_3a/pool_proj <- inception_3a/pool
I0403 15:50:28.598304 12765 net.cpp:399] inception_3a/pool_proj -> inception_3a/pool_proj
I0403 15:50:28.599227 12765 net.cpp:141] Setting up inception_3a/pool_proj
I0403 15:50:28.599254 12765 net.cpp:148] Top shape: 24 32 28 28 (602112)
I0403 15:50:28.599269 12765 net.cpp:156] Memory required for data: 558760992
I0403 15:50:28.599292 12765 layer_factory.hpp:77] Creating layer inception_3a/relu_pool_proj
I0403 15:50:28.599311 12765 net.cpp:91] Creating Layer inception_3a/relu_pool_proj
I0403 15:50:28.599328 12765 net.cpp:425] inception_3a/relu_pool_proj <- inception_3a/pool_proj
I0403 15:50:28.599345 12765 net.cpp:386] inception_3a/relu_pool_proj -> inception_3a/pool_proj (in-place)
I0403 15:50:28.599618 12765 net.cpp:141] Setting up inception_3a/relu_pool_proj
I0403 15:50:28.599643 12765 net.cpp:148] Top shape: 24 32 28 28 (602112)
I0403 15:50:28.599658 12765 net.cpp:156] Memory required for data: 561169440
I0403 15:50:28.599673 12765 layer_factory.hpp:77] Creating layer inception_3a/output
I0403 15:50:28.599691 12765 net.cpp:91] Creating Layer inception_3a/output
I0403 15:50:28.599709 12765 net.cpp:425] inception_3a/output <- inception_3a/1x1
I0403 15:50:28.599725 12765 net.cpp:425] inception_3a/output <- inception_3a/3x3
I0403 15:50:28.599740 12765 net.cpp:425] inception_3a/output <- inception_3a/5x5
I0403 15:50:28.599755 12765 net.cpp:425] inception_3a/output <- inception_3a/pool_proj
I0403 15:50:28.599769 12765 net.cpp:399] inception_3a/output -> inception_3a/output
I0403 15:50:28.599814 12765 net.cpp:141] Setting up inception_3a/output
I0403 15:50:28.599836 12765 net.cpp:148] Top shape: 24 256 28 28 (4816896)
I0403 15:50:28.599850 12765 net.cpp:156] Memory required for data: 580437024
I0403 15:50:28.599864 12765 layer_factory.hpp:77] Creating layer inception_3a/output_inception_3a/output_0_split
I0403 15:50:28.599880 12765 net.cpp:91] Creating Layer inception_3a/output_inception_3a/output_0_split
I0403 15:50:28.599895 12765 net.cpp:425] inception_3a/output_inception_3a/output_0_split <- inception_3a/output
I0403 15:50:28.599913 12765 net.cpp:399] inception_3a/output_inception_3a/output_0_split -> inception_3a/output_inception_3a/output_0_split_0
I0403 15:50:28.599933 12765 net.cpp:399] inception_3a/output_inception_3a/output_0_split -> inception_3a/output_inception_3a/output_0_split_1
I0403 15:50:28.599956 12765 net.cpp:399] inception_3a/output_inception_3a/output_0_split -> inception_3a/output_inception_3a/output_0_split_2
I0403 15:50:28.599977 12765 net.cpp:399] inception_3a/output_inception_3a/output_0_split -> inception_3a/output_inception_3a/output_0_split_3
I0403 15:50:28.600047 12765 net.cpp:141] Setting up inception_3a/output_inception_3a/output_0_split
I0403 15:50:28.600069 12765 net.cpp:148] Top shape: 24 256 28 28 (4816896)
I0403 15:50:28.600088 12765 net.cpp:148] Top shape: 24 256 28 28 (4816896)
I0403 15:50:28.600105 12765 net.cpp:148] Top shape: 24 256 28 28 (4816896)
I0403 15:50:28.600119 12765 net.cpp:148] Top shape: 24 256 28 28 (4816896)
I0403 15:50:28.600132 12765 net.cpp:156] Memory required for data: 657507360
I0403 15:50:28.600147 12765 layer_factory.hpp:77] Creating layer inception_3b/1x1
I0403 15:50:28.600167 12765 net.cpp:91] Creating Layer inception_3b/1x1
I0403 15:50:28.600183 12765 net.cpp:425] inception_3b/1x1 <- inception_3a/output_inception_3a/output_0_split_0
I0403 15:50:28.600203 12765 net.cpp:399] inception_3b/1x1 -> inception_3b/1x1
I0403 15:50:28.601290 12765 net.cpp:141] Setting up inception_3b/1x1
I0403 15:50:28.601327 12765 net.cpp:148] Top shape: 24 128 28 28 (2408448)
I0403 15:50:28.601343 12765 net.cpp:156] Memory required for data: 667141152
I0403 15:50:28.601366 12765 layer_factory.hpp:77] Creating layer inception_3b/relu_1x1
I0403 15:50:28.601388 12765 net.cpp:91] Creating Layer inception_3b/relu_1x1
I0403 15:50:28.601404 12765 net.cpp:425] inception_3b/relu_1x1 <- inception_3b/1x1
I0403 15:50:28.601421 12765 net.cpp:386] inception_3b/relu_1x1 -> inception_3b/1x1 (in-place)
I0403 15:50:28.601590 12765 net.cpp:141] Setting up inception_3b/relu_1x1
I0403 15:50:28.601619 12765 net.cpp:148] Top shape: 24 128 28 28 (2408448)
I0403 15:50:28.601635 12765 net.cpp:156] Memory required for data: 676774944
I0403 15:50:28.601650 12765 layer_factory.hpp:77] Creating layer inception_3b/3x3_reduce
I0403 15:50:28.601671 12765 net.cpp:91] Creating Layer inception_3b/3x3_reduce
I0403 15:50:28.601687 12765 net.cpp:425] inception_3b/3x3_reduce <- inception_3a/output_inception_3a/output_0_split_1
I0403 15:50:28.601706 12765 net.cpp:399] inception_3b/3x3_reduce -> inception_3b/3x3_reduce
I0403 15:50:28.602795 12765 net.cpp:141] Setting up inception_3b/3x3_reduce
I0403 15:50:28.602823 12765 net.cpp:148] Top shape: 24 128 28 28 (2408448)
I0403 15:50:28.602838 12765 net.cpp:156] Memory required for data: 686408736
I0403 15:50:28.602855 12765 layer_factory.hpp:77] Creating layer inception_3b/relu_3x3_reduce
I0403 15:50:28.602874 12765 net.cpp:91] Creating Layer inception_3b/relu_3x3_reduce
I0403 15:50:28.602890 12765 net.cpp:425] inception_3b/relu_3x3_reduce <- inception_3b/3x3_reduce
I0403 15:50:28.602907 12765 net.cpp:386] inception_3b/relu_3x3_reduce -> inception_3b/3x3_reduce (in-place)
I0403 15:50:28.603073 12765 net.cpp:141] Setting up inception_3b/relu_3x3_reduce
I0403 15:50:28.603098 12765 net.cpp:148] Top shape: 24 128 28 28 (2408448)
I0403 15:50:28.603114 12765 net.cpp:156] Memory required for data: 696042528
I0403 15:50:28.603128 12765 layer_factory.hpp:77] Creating layer inception_3b/3x3
I0403 15:50:28.603152 12765 net.cpp:91] Creating Layer inception_3b/3x3
I0403 15:50:28.603169 12765 net.cpp:425] inception_3b/3x3 <- inception_3b/3x3_reduce
I0403 15:50:28.603189 12765 net.cpp:399] inception_3b/3x3 -> inception_3b/3x3
I0403 15:50:28.606019 12765 net.cpp:141] Setting up inception_3b/3x3
I0403 15:50:28.606048 12765 net.cpp:148] Top shape: 24 192 28 28 (3612672)
I0403 15:50:28.606063 12765 net.cpp:156] Memory required for data: 710493216
I0403 15:50:28.606081 12765 layer_factory.hpp:77] Creating layer inception_3b/relu_3x3
I0403 15:50:28.606101 12765 net.cpp:91] Creating Layer inception_3b/relu_3x3
I0403 15:50:28.606117 12765 net.cpp:425] inception_3b/relu_3x3 <- inception_3b/3x3
I0403 15:50:28.606133 12765 net.cpp:386] inception_3b/relu_3x3 -> inception_3b/3x3 (in-place)
I0403 15:50:28.606407 12765 net.cpp:141] Setting up inception_3b/relu_3x3
I0403 15:50:28.606433 12765 net.cpp:148] Top shape: 24 192 28 28 (3612672)
I0403 15:50:28.606448 12765 net.cpp:156] Memory required for data: 724943904
I0403 15:50:28.606465 12765 layer_factory.hpp:77] Creating layer inception_3b/5x5_reduce
I0403 15:50:28.606490 12765 net.cpp:91] Creating Layer inception_3b/5x5_reduce
I0403 15:50:28.606508 12765 net.cpp:425] inception_3b/5x5_reduce <- inception_3a/output_inception_3a/output_0_split_2
I0403 15:50:28.606526 12765 net.cpp:399] inception_3b/5x5_reduce -> inception_3b/5x5_reduce
I0403 15:50:28.607471 12765 net.cpp:141] Setting up inception_3b/5x5_reduce
I0403 15:50:28.607497 12765 net.cpp:148] Top shape: 24 32 28 28 (602112)
I0403 15:50:28.607512 12765 net.cpp:156] Memory required for data: 727352352
I0403 15:50:28.607530 12765 layer_factory.hpp:77] Creating layer inception_3b/relu_5x5_reduce
I0403 15:50:28.607550 12765 net.cpp:91] Creating Layer inception_3b/relu_5x5_reduce
I0403 15:50:28.607568 12765 net.cpp:425] inception_3b/relu_5x5_reduce <- inception_3b/5x5_reduce
I0403 15:50:28.607584 12765 net.cpp:386] inception_3b/relu_5x5_reduce -> inception_3b/5x5_reduce (in-place)
I0403 15:50:28.607767 12765 net.cpp:141] Setting up inception_3b/relu_5x5_reduce
I0403 15:50:28.607791 12765 net.cpp:148] Top shape: 24 32 28 28 (602112)
I0403 15:50:28.607805 12765 net.cpp:156] Memory required for data: 729760800
I0403 15:50:28.607820 12765 layer_factory.hpp:77] Creating layer inception_3b/5x5
I0403 15:50:28.607841 12765 net.cpp:91] Creating Layer inception_3b/5x5
I0403 15:50:28.607857 12765 net.cpp:425] inception_3b/5x5 <- inception_3b/5x5_reduce
I0403 15:50:28.607877 12765 net.cpp:399] inception_3b/5x5 -> inception_3b/5x5
I0403 15:50:28.609776 12765 net.cpp:141] Setting up inception_3b/5x5
I0403 15:50:28.609803 12765 net.cpp:148] Top shape: 24 96 28 28 (1806336)
I0403 15:50:28.609819 12765 net.cpp:156] Memory required for data: 736986144
I0403 15:50:28.609836 12765 layer_factory.hpp:77] Creating layer inception_3b/relu_5x5
I0403 15:50:28.609856 12765 net.cpp:91] Creating Layer inception_3b/relu_5x5
I0403 15:50:28.609872 12765 net.cpp:425] inception_3b/relu_5x5 <- inception_3b/5x5
I0403 15:50:28.609889 12765 net.cpp:386] inception_3b/relu_5x5 -> inception_3b/5x5 (in-place)
I0403 15:50:28.610076 12765 net.cpp:141] Setting up inception_3b/relu_5x5
I0403 15:50:28.610100 12765 net.cpp:148] Top shape: 24 96 28 28 (1806336)
I0403 15:50:28.610116 12765 net.cpp:156] Memory required for data: 744211488
I0403 15:50:28.610129 12765 layer_factory.hpp:77] Creating layer inception_3b/pool
I0403 15:50:28.610146 12765 net.cpp:91] Creating Layer inception_3b/pool
I0403 15:50:28.610160 12765 net.cpp:425] inception_3b/pool <- inception_3a/output_inception_3a/output_0_split_3
I0403 15:50:28.610178 12765 net.cpp:399] inception_3b/pool -> inception_3b/pool
I0403 15:50:28.610232 12765 net.cpp:141] Setting up inception_3b/pool
I0403 15:50:28.610255 12765 net.cpp:148] Top shape: 24 256 28 28 (4816896)
I0403 15:50:28.610268 12765 net.cpp:156] Memory required for data: 763479072
I0403 15:50:28.610281 12765 layer_factory.hpp:77] Creating layer inception_3b/pool_proj
I0403 15:50:28.610306 12765 net.cpp:91] Creating Layer inception_3b/pool_proj
I0403 15:50:28.610322 12765 net.cpp:425] inception_3b/pool_proj <- inception_3b/pool
I0403 15:50:28.610342 12765 net.cpp:399] inception_3b/pool_proj -> inception_3b/pool_proj
I0403 15:50:28.611363 12765 net.cpp:141] Setting up inception_3b/pool_proj
I0403 15:50:28.611389 12765 net.cpp:148] Top shape: 24 64 28 28 (1204224)
I0403 15:50:28.611404 12765 net.cpp:156] Memory required for data: 768295968
I0403 15:50:28.611423 12765 layer_factory.hpp:77] Creating layer inception_3b/relu_pool_proj
I0403 15:50:28.611439 12765 net.cpp:91] Creating Layer inception_3b/relu_pool_proj
I0403 15:50:28.611454 12765 net.cpp:425] inception_3b/relu_pool_proj <- inception_3b/pool_proj
I0403 15:50:28.611474 12765 net.cpp:386] inception_3b/relu_pool_proj -> inception_3b/pool_proj (in-place)
I0403 15:50:28.611850 12765 net.cpp:141] Setting up inception_3b/relu_pool_proj
I0403 15:50:28.611878 12765 net.cpp:148] Top shape: 24 64 28 28 (1204224)
I0403 15:50:28.611894 12765 net.cpp:156] Memory required for data: 773112864
I0403 15:50:28.611908 12765 layer_factory.hpp:77] Creating layer inception_3b/output
I0403 15:50:28.611925 12765 net.cpp:91] Creating Layer inception_3b/output
I0403 15:50:28.611939 12765 net.cpp:425] inception_3b/output <- inception_3b/1x1
I0403 15:50:28.611955 12765 net.cpp:425] inception_3b/output <- inception_3b/3x3
I0403 15:50:28.611970 12765 net.cpp:425] inception_3b/output <- inception_3b/5x5
I0403 15:50:28.611985 12765 net.cpp:425] inception_3b/output <- inception_3b/pool_proj
I0403 15:50:28.612004 12765 net.cpp:399] inception_3b/output -> inception_3b/output
I0403 15:50:28.612046 12765 net.cpp:141] Setting up inception_3b/output
I0403 15:50:28.612068 12765 net.cpp:148] Top shape: 24 480 28 28 (9031680)
I0403 15:50:28.612082 12765 net.cpp:156] Memory required for data: 809239584
I0403 15:50:28.612097 12765 layer_factory.hpp:77] Creating layer pool3/3x3_s2
I0403 15:50:28.612117 12765 net.cpp:91] Creating Layer pool3/3x3_s2
I0403 15:50:28.612133 12765 net.cpp:425] pool3/3x3_s2 <- inception_3b/output
I0403 15:50:28.612164 12765 net.cpp:399] pool3/3x3_s2 -> pool3/3x3_s2
I0403 15:50:28.612221 12765 net.cpp:141] Setting up pool3/3x3_s2
I0403 15:50:28.612244 12765 net.cpp:148] Top shape: 24 480 14 14 (2257920)
I0403 15:50:28.612258 12765 net.cpp:156] Memory required for data: 818271264
I0403 15:50:28.612272 12765 layer_factory.hpp:77] Creating layer pool3/3x3_s2_pool3/3x3_s2_0_split
I0403 15:50:28.612289 12765 net.cpp:91] Creating Layer pool3/3x3_s2_pool3/3x3_s2_0_split
I0403 15:50:28.612303 12765 net.cpp:425] pool3/3x3_s2_pool3/3x3_s2_0_split <- pool3/3x3_s2
I0403 15:50:28.612321 12765 net.cpp:399] pool3/3x3_s2_pool3/3x3_s2_0_split -> pool3/3x3_s2_pool3/3x3_s2_0_split_0
I0403 15:50:28.612341 12765 net.cpp:399] pool3/3x3_s2_pool3/3x3_s2_0_split -> pool3/3x3_s2_pool3/3x3_s2_0_split_1
I0403 15:50:28.612365 12765 net.cpp:399] pool3/3x3_s2_pool3/3x3_s2_0_split -> pool3/3x3_s2_pool3/3x3_s2_0_split_2
I0403 15:50:28.612385 12765 net.cpp:399] pool3/3x3_s2_pool3/3x3_s2_0_split -> pool3/3x3_s2_pool3/3x3_s2_0_split_3
I0403 15:50:28.612459 12765 net.cpp:141] Setting up pool3/3x3_s2_pool3/3x3_s2_0_split
I0403 15:50:28.612481 12765 net.cpp:148] Top shape: 24 480 14 14 (2257920)
I0403 15:50:28.612496 12765 net.cpp:148] Top shape: 24 480 14 14 (2257920)
I0403 15:50:28.612511 12765 net.cpp:148] Top shape: 24 480 14 14 (2257920)
I0403 15:50:28.612525 12765 net.cpp:148] Top shape: 24 480 14 14 (2257920)
I0403 15:50:28.612540 12765 net.cpp:156] Memory required for data: 854397984
I0403 15:50:28.612553 12765 layer_factory.hpp:77] Creating layer inception_4a/1x1
I0403 15:50:28.612574 12765 net.cpp:91] Creating Layer inception_4a/1x1
I0403 15:50:28.612591 12765 net.cpp:425] inception_4a/1x1 <- pool3/3x3_s2_pool3/3x3_s2_0_split_0
I0403 15:50:28.612610 12765 net.cpp:399] inception_4a/1x1 -> inception_4a/1x1
I0403 15:50:28.614135 12765 net.cpp:141] Setting up inception_4a/1x1
I0403 15:50:28.614162 12765 net.cpp:148] Top shape: 24 192 14 14 (903168)
I0403 15:50:28.614178 12765 net.cpp:156] Memory required for data: 858010656
I0403 15:50:28.614195 12765 layer_factory.hpp:77] Creating layer inception_4a/relu_1x1
I0403 15:50:28.614212 12765 net.cpp:91] Creating Layer inception_4a/relu_1x1
I0403 15:50:28.614228 12765 net.cpp:425] inception_4a/relu_1x1 <- inception_4a/1x1
I0403 15:50:28.614248 12765 net.cpp:386] inception_4a/relu_1x1 -> inception_4a/1x1 (in-place)
I0403 15:50:28.614441 12765 net.cpp:141] Setting up inception_4a/relu_1x1
I0403 15:50:28.614480 12765 net.cpp:148] Top shape: 24 192 14 14 (903168)
I0403 15:50:28.614495 12765 net.cpp:156] Memory required for data: 861623328
I0403 15:50:28.614509 12765 layer_factory.hpp:77] Creating layer inception_4a/3x3_reduce
I0403 15:50:28.614542 12765 net.cpp:91] Creating Layer inception_4a/3x3_reduce
I0403 15:50:28.614560 12765 net.cpp:425] inception_4a/3x3_reduce <- pool3/3x3_s2_pool3/3x3_s2_0_split_1
I0403 15:50:28.614581 12765 net.cpp:399] inception_4a/3x3_reduce -> inception_4a/3x3_reduce
I0403 15:50:28.615846 12765 net.cpp:141] Setting up inception_4a/3x3_reduce
I0403 15:50:28.615872 12765 net.cpp:148] Top shape: 24 96 14 14 (451584)
I0403 15:50:28.615887 12765 net.cpp:156] Memory required for data: 863429664
I0403 15:50:28.615911 12765 layer_factory.hpp:77] Creating layer inception_4a/relu_3x3_reduce
I0403 15:50:28.615931 12765 net.cpp:91] Creating Layer inception_4a/relu_3x3_reduce
I0403 15:50:28.615947 12765 net.cpp:425] inception_4a/relu_3x3_reduce <- inception_4a/3x3_reduce
I0403 15:50:28.615967 12765 net.cpp:386] inception_4a/relu_3x3_reduce -> inception_4a/3x3_reduce (in-place)
I0403 15:50:28.616145 12765 net.cpp:141] Setting up inception_4a/relu_3x3_reduce
I0403 15:50:28.616169 12765 net.cpp:148] Top shape: 24 96 14 14 (451584)
I0403 15:50:28.616183 12765 net.cpp:156] Memory required for data: 865236000
I0403 15:50:28.616199 12765 layer_factory.hpp:77] Creating layer inception_4a/3x3
I0403 15:50:28.616219 12765 net.cpp:91] Creating Layer inception_4a/3x3
I0403 15:50:28.616236 12765 net.cpp:425] inception_4a/3x3 <- inception_4a/3x3_reduce
I0403 15:50:28.616257 12765 net.cpp:399] inception_4a/3x3 -> inception_4a/3x3
I0403 15:50:28.618891 12765 net.cpp:141] Setting up inception_4a/3x3
I0403 15:50:28.618918 12765 net.cpp:148] Top shape: 24 208 14 14 (978432)
I0403 15:50:28.618934 12765 net.cpp:156] Memory required for data: 869149728
I0403 15:50:28.618952 12765 layer_factory.hpp:77] Creating layer inception_4a/relu_3x3
I0403 15:50:28.618973 12765 net.cpp:91] Creating Layer inception_4a/relu_3x3
I0403 15:50:28.618990 12765 net.cpp:425] inception_4a/relu_3x3 <- inception_4a/3x3
I0403 15:50:28.619007 12765 net.cpp:386] inception_4a/relu_3x3 -> inception_4a/3x3 (in-place)
I0403 15:50:28.619278 12765 net.cpp:141] Setting up inception_4a/relu_3x3
I0403 15:50:28.619304 12765 net.cpp:148] Top shape: 24 208 14 14 (978432)
I0403 15:50:28.619318 12765 net.cpp:156] Memory required for data: 873063456
I0403 15:50:28.619333 12765 layer_factory.hpp:77] Creating layer inception_4a/5x5_reduce
I0403 15:50:28.619359 12765 net.cpp:91] Creating Layer inception_4a/5x5_reduce
I0403 15:50:28.619376 12765 net.cpp:425] inception_4a/5x5_reduce <- pool3/3x3_s2_pool3/3x3_s2_0_split_2
I0403 15:50:28.619400 12765 net.cpp:399] inception_4a/5x5_reduce -> inception_4a/5x5_reduce
I0403 15:50:28.620422 12765 net.cpp:141] Setting up inception_4a/5x5_reduce
I0403 15:50:28.620450 12765 net.cpp:148] Top shape: 24 16 14 14 (75264)
I0403 15:50:28.620465 12765 net.cpp:156] Memory required for data: 873364512
I0403 15:50:28.620482 12765 layer_factory.hpp:77] Creating layer inception_4a/relu_5x5_reduce
I0403 15:50:28.620514 12765 net.cpp:91] Creating Layer inception_4a/relu_5x5_reduce
I0403 15:50:28.620532 12765 net.cpp:425] inception_4a/relu_5x5_reduce <- inception_4a/5x5_reduce
I0403 15:50:28.620548 12765 net.cpp:386] inception_4a/relu_5x5_reduce -> inception_4a/5x5_reduce (in-place)
I0403 15:50:28.620721 12765 net.cpp:141] Setting up inception_4a/relu_5x5_reduce
I0403 15:50:28.620746 12765 net.cpp:148] Top shape: 24 16 14 14 (75264)
I0403 15:50:28.620761 12765 net.cpp:156] Memory required for data: 873665568
I0403 15:50:28.620776 12765 layer_factory.hpp:77] Creating layer inception_4a/5x5
I0403 15:50:28.620798 12765 net.cpp:91] Creating Layer inception_4a/5x5
I0403 15:50:28.620815 12765 net.cpp:425] inception_4a/5x5 <- inception_4a/5x5_reduce
I0403 15:50:28.620834 12765 net.cpp:399] inception_4a/5x5 -> inception_4a/5x5
I0403 15:50:28.621886 12765 net.cpp:141] Setting up inception_4a/5x5
I0403 15:50:28.621917 12765 net.cpp:148] Top shape: 24 48 14 14 (225792)
I0403 15:50:28.621932 12765 net.cpp:156] Memory required for data: 874568736
I0403 15:50:28.621950 12765 layer_factory.hpp:77] Creating layer inception_4a/relu_5x5
I0403 15:50:28.621968 12765 net.cpp:91] Creating Layer inception_4a/relu_5x5
I0403 15:50:28.621983 12765 net.cpp:425] inception_4a/relu_5x5 <- inception_4a/5x5
I0403 15:50:28.622001 12765 net.cpp:386] inception_4a/relu_5x5 -> inception_4a/5x5 (in-place)
I0403 15:50:28.622176 12765 net.cpp:141] Setting up inception_4a/relu_5x5
I0403 15:50:28.622200 12765 net.cpp:148] Top shape: 24 48 14 14 (225792)
I0403 15:50:28.622215 12765 net.cpp:156] Memory required for data: 875471904
I0403 15:50:28.622230 12765 layer_factory.hpp:77] Creating layer inception_4a/pool
I0403 15:50:28.622246 12765 net.cpp:91] Creating Layer inception_4a/pool
I0403 15:50:28.622262 12765 net.cpp:425] inception_4a/pool <- pool3/3x3_s2_pool3/3x3_s2_0_split_3
I0403 15:50:28.622282 12765 net.cpp:399] inception_4a/pool -> inception_4a/pool
I0403 15:50:28.622341 12765 net.cpp:141] Setting up inception_4a/pool
I0403 15:50:28.622369 12765 net.cpp:148] Top shape: 24 480 14 14 (2257920)
I0403 15:50:28.622385 12765 net.cpp:156] Memory required for data: 884503584
I0403 15:50:28.622398 12765 layer_factory.hpp:77] Creating layer inception_4a/pool_proj
I0403 15:50:28.622421 12765 net.cpp:91] Creating Layer inception_4a/pool_proj
I0403 15:50:28.622437 12765 net.cpp:425] inception_4a/pool_proj <- inception_4a/pool
I0403 15:50:28.622455 12765 net.cpp:399] inception_4a/pool_proj -> inception_4a/pool_proj
I0403 15:50:28.623615 12765 net.cpp:141] Setting up inception_4a/pool_proj
I0403 15:50:28.623643 12765 net.cpp:148] Top shape: 24 64 14 14 (301056)
I0403 15:50:28.623673 12765 net.cpp:156] Memory required for data: 885707808
I0403 15:50:28.623692 12765 layer_factory.hpp:77] Creating layer inception_4a/relu_pool_proj
I0403 15:50:28.623710 12765 net.cpp:91] Creating Layer inception_4a/relu_pool_proj
I0403 15:50:28.623730 12765 net.cpp:425] inception_4a/relu_pool_proj <- inception_4a/pool_proj
I0403 15:50:28.623747 12765 net.cpp:386] inception_4a/relu_pool_proj -> inception_4a/pool_proj (in-place)
I0403 15:50:28.624022 12765 net.cpp:141] Setting up inception_4a/relu_pool_proj
I0403 15:50:28.624048 12765 net.cpp:148] Top shape: 24 64 14 14 (301056)
I0403 15:50:28.624063 12765 net.cpp:156] Memory required for data: 886912032
I0403 15:50:28.624078 12765 layer_factory.hpp:77] Creating layer inception_4a/output
I0403 15:50:28.624095 12765 net.cpp:91] Creating Layer inception_4a/output
I0403 15:50:28.624110 12765 net.cpp:425] inception_4a/output <- inception_4a/1x1
I0403 15:50:28.624127 12765 net.cpp:425] inception_4a/output <- inception_4a/3x3
I0403 15:50:28.624142 12765 net.cpp:425] inception_4a/output <- inception_4a/5x5
I0403 15:50:28.624157 12765 net.cpp:425] inception_4a/output <- inception_4a/pool_proj
I0403 15:50:28.624176 12765 net.cpp:399] inception_4a/output -> inception_4a/output
I0403 15:50:28.624219 12765 net.cpp:141] Setting up inception_4a/output
I0403 15:50:28.624243 12765 net.cpp:148] Top shape: 24 512 14 14 (2408448)
I0403 15:50:28.624259 12765 net.cpp:156] Memory required for data: 896545824
I0403 15:50:28.624274 12765 layer_factory.hpp:77] Creating layer inception_4a/output_inception_4a/output_0_split
I0403 15:50:28.624290 12765 net.cpp:91] Creating Layer inception_4a/output_inception_4a/output_0_split
I0403 15:50:28.624305 12765 net.cpp:425] inception_4a/output_inception_4a/output_0_split <- inception_4a/output
I0403 15:50:28.624325 12765 net.cpp:399] inception_4a/output_inception_4a/output_0_split -> inception_4a/output_inception_4a/output_0_split_0
I0403 15:50:28.624346 12765 net.cpp:399] inception_4a/output_inception_4a/output_0_split -> inception_4a/output_inception_4a/output_0_split_1
I0403 15:50:28.624372 12765 net.cpp:399] inception_4a/output_inception_4a/output_0_split -> inception_4a/output_inception_4a/output_0_split_2
I0403 15:50:28.624393 12765 net.cpp:399] inception_4a/output_inception_4a/output_0_split -> inception_4a/output_inception_4a/output_0_split_3
I0403 15:50:28.624411 12765 net.cpp:399] inception_4a/output_inception_4a/output_0_split -> inception_4a/output_inception_4a/output_0_split_4
I0403 15:50:28.624501 12765 net.cpp:141] Setting up inception_4a/output_inception_4a/output_0_split
I0403 15:50:28.624524 12765 net.cpp:148] Top shape: 24 512 14 14 (2408448)
I0403 15:50:28.624539 12765 net.cpp:148] Top shape: 24 512 14 14 (2408448)
I0403 15:50:28.624555 12765 net.cpp:148] Top shape: 24 512 14 14 (2408448)
I0403 15:50:28.624572 12765 net.cpp:148] Top shape: 24 512 14 14 (2408448)
I0403 15:50:28.624586 12765 net.cpp:148] Top shape: 24 512 14 14 (2408448)
I0403 15:50:28.624599 12765 net.cpp:156] Memory required for data: 944714784
I0403 15:50:28.624614 12765 layer_factory.hpp:77] Creating layer loss1/ave_pool
I0403 15:50:28.624632 12765 net.cpp:91] Creating Layer loss1/ave_pool
I0403 15:50:28.624650 12765 net.cpp:425] loss1/ave_pool <- inception_4a/output_inception_4a/output_0_split_0
I0403 15:50:28.624667 12765 net.cpp:399] loss1/ave_pool -> loss1/ave_pool
I0403 15:50:28.624868 12765 net.cpp:141] Setting up loss1/ave_pool
I0403 15:50:28.624894 12765 net.cpp:148] Top shape: 24 512 4 4 (196608)
I0403 15:50:28.624908 12765 net.cpp:156] Memory required for data: 945501216
I0403 15:50:28.624923 12765 layer_factory.hpp:77] Creating layer loss1/conv
I0403 15:50:28.624944 12765 net.cpp:91] Creating Layer loss1/conv
I0403 15:50:28.624963 12765 net.cpp:425] loss1/conv <- loss1/ave_pool
I0403 15:50:28.624984 12765 net.cpp:399] loss1/conv -> loss1/conv
I0403 15:50:28.626359 12765 net.cpp:141] Setting up loss1/conv
I0403 15:50:28.626387 12765 net.cpp:148] Top shape: 24 128 4 4 (49152)
I0403 15:50:28.626417 12765 net.cpp:156] Memory required for data: 945697824
I0403 15:50:28.626435 12765 layer_factory.hpp:77] Creating layer loss1/relu_conv
I0403 15:50:28.626456 12765 net.cpp:91] Creating Layer loss1/relu_conv
I0403 15:50:28.626471 12765 net.cpp:425] loss1/relu_conv <- loss1/conv
I0403 15:50:28.626488 12765 net.cpp:386] loss1/relu_conv -> loss1/conv (in-place)
I0403 15:50:28.626773 12765 net.cpp:141] Setting up loss1/relu_conv
I0403 15:50:28.626798 12765 net.cpp:148] Top shape: 24 128 4 4 (49152)
I0403 15:50:28.626813 12765 net.cpp:156] Memory required for data: 945894432
I0403 15:50:28.626827 12765 layer_factory.hpp:77] Creating layer loss1/fc
I0403 15:50:28.626852 12765 net.cpp:91] Creating Layer loss1/fc
I0403 15:50:28.626870 12765 net.cpp:425] loss1/fc <- loss1/conv
I0403 15:50:28.626890 12765 net.cpp:399] loss1/fc -> loss1/fc
I0403 15:50:28.644502 12765 net.cpp:141] Setting up loss1/fc
I0403 15:50:28.644536 12765 net.cpp:148] Top shape: 24 1024 (24576)
I0403 15:50:28.644552 12765 net.cpp:156] Memory required for data: 945992736
I0403 15:50:28.644570 12765 layer_factory.hpp:77] Creating layer loss1/relu_fc
I0403 15:50:28.644588 12765 net.cpp:91] Creating Layer loss1/relu_fc
I0403 15:50:28.644603 12765 net.cpp:425] loss1/relu_fc <- loss1/fc
I0403 15:50:28.644623 12765 net.cpp:386] loss1/relu_fc -> loss1/fc (in-place)
I0403 15:50:28.644806 12765 net.cpp:141] Setting up loss1/relu_fc
I0403 15:50:28.644830 12765 net.cpp:148] Top shape: 24 1024 (24576)
I0403 15:50:28.644845 12765 net.cpp:156] Memory required for data: 946091040
I0403 15:50:28.644860 12765 layer_factory.hpp:77] Creating layer loss1/drop_fc
I0403 15:50:28.644886 12765 net.cpp:91] Creating Layer loss1/drop_fc
I0403 15:50:28.644902 12765 net.cpp:425] loss1/drop_fc <- loss1/fc
I0403 15:50:28.644919 12765 net.cpp:386] loss1/drop_fc -> loss1/fc (in-place)
I0403 15:50:28.644970 12765 net.cpp:141] Setting up loss1/drop_fc
I0403 15:50:28.644995 12765 net.cpp:148] Top shape: 24 1024 (24576)
I0403 15:50:28.645009 12765 net.cpp:156] Memory required for data: 946189344
I0403 15:50:28.645025 12765 layer_factory.hpp:77] Creating layer loss1/classifier_plantvillage
I0403 15:50:28.645045 12765 net.cpp:91] Creating Layer loss1/classifier_plantvillage
I0403 15:50:28.645059 12765 net.cpp:425] loss1/classifier_plantvillage <- loss1/fc
I0403 15:50:28.645081 12765 net.cpp:399] loss1/classifier_plantvillage -> loss1/classifier_plantvillage
I0403 15:50:28.645969 12765 net.cpp:141] Setting up loss1/classifier_plantvillage
I0403 15:50:28.645998 12765 net.cpp:148] Top shape: 24 38 (912)
I0403 15:50:28.646013 12765 net.cpp:156] Memory required for data: 946192992
I0403 15:50:28.646029 12765 layer_factory.hpp:77] Creating layer loss1/classifier_plantvillage_loss1/classifier_plantvillage_0_split
I0403 15:50:28.646046 12765 net.cpp:91] Creating Layer loss1/classifier_plantvillage_loss1/classifier_plantvillage_0_split
I0403 15:50:28.646062 12765 net.cpp:425] loss1/classifier_plantvillage_loss1/classifier_plantvillage_0_split <- loss1/classifier_plantvillage
I0403 15:50:28.646081 12765 net.cpp:399] loss1/classifier_plantvillage_loss1/classifier_plantvillage_0_split -> loss1/classifier_plantvillage_loss1/classifier_plantvillage_0_split_0
I0403 15:50:28.646102 12765 net.cpp:399] loss1/classifier_plantvillage_loss1/classifier_plantvillage_0_split -> loss1/classifier_plantvillage_loss1/classifier_plantvillage_0_split_1
I0403 15:50:28.646121 12765 net.cpp:399] loss1/classifier_plantvillage_loss1/classifier_plantvillage_0_split -> loss1/classifier_plantvillage_loss1/classifier_plantvillage_0_split_2
I0403 15:50:28.646188 12765 net.cpp:141] Setting up loss1/classifier_plantvillage_loss1/classifier_plantvillage_0_split
I0403 15:50:28.646210 12765 net.cpp:148] Top shape: 24 38 (912)
I0403 15:50:28.646225 12765 net.cpp:148] Top shape: 24 38 (912)
I0403 15:50:28.646239 12765 net.cpp:148] Top shape: 24 38 (912)
I0403 15:50:28.646253 12765 net.cpp:156] Memory required for data: 946203936
I0403 15:50:28.646267 12765 layer_factory.hpp:77] Creating layer inception_4b/1x1
I0403 15:50:28.646289 12765 net.cpp:91] Creating Layer inception_4b/1x1
I0403 15:50:28.646322 12765 net.cpp:425] inception_4b/1x1 <- inception_4a/output_inception_4a/output_0_split_1
I0403 15:50:28.646342 12765 net.cpp:399] inception_4b/1x1 -> inception_4b/1x1
I0403 15:50:28.647925 12765 net.cpp:141] Setting up inception_4b/1x1
I0403 15:50:28.647954 12765 net.cpp:148] Top shape: 24 160 14 14 (752640)
I0403 15:50:28.647971 12765 net.cpp:156] Memory required for data: 949214496
I0403 15:50:28.647989 12765 layer_factory.hpp:77] Creating layer inception_4b/relu_1x1
I0403 15:50:28.648010 12765 net.cpp:91] Creating Layer inception_4b/relu_1x1
I0403 15:50:28.648025 12765 net.cpp:425] inception_4b/relu_1x1 <- inception_4b/1x1
I0403 15:50:28.648042 12765 net.cpp:386] inception_4b/relu_1x1 -> inception_4b/1x1 (in-place)
I0403 15:50:28.648217 12765 net.cpp:141] Setting up inception_4b/relu_1x1
I0403 15:50:28.648243 12765 net.cpp:148] Top shape: 24 160 14 14 (752640)
I0403 15:50:28.648258 12765 net.cpp:156] Memory required for data: 952225056
I0403 15:50:28.648272 12765 layer_factory.hpp:77] Creating layer inception_4b/3x3_reduce
I0403 15:50:28.648296 12765 net.cpp:91] Creating Layer inception_4b/3x3_reduce
I0403 15:50:28.648313 12765 net.cpp:425] inception_4b/3x3_reduce <- inception_4a/output_inception_4a/output_0_split_2
I0403 15:50:28.648334 12765 net.cpp:399] inception_4b/3x3_reduce -> inception_4b/3x3_reduce
I0403 15:50:28.649690 12765 net.cpp:141] Setting up inception_4b/3x3_reduce
I0403 15:50:28.649720 12765 net.cpp:148] Top shape: 24 112 14 14 (526848)
I0403 15:50:28.649737 12765 net.cpp:156] Memory required for data: 954332448
I0403 15:50:28.649755 12765 layer_factory.hpp:77] Creating layer inception_4b/relu_3x3_reduce
I0403 15:50:28.649773 12765 net.cpp:91] Creating Layer inception_4b/relu_3x3_reduce
I0403 15:50:28.649788 12765 net.cpp:425] inception_4b/relu_3x3_reduce <- inception_4b/3x3_reduce
I0403 15:50:28.649804 12765 net.cpp:386] inception_4b/relu_3x3_reduce -> inception_4b/3x3_reduce (in-place)
I0403 15:50:28.650084 12765 net.cpp:141] Setting up inception_4b/relu_3x3_reduce
I0403 15:50:28.650112 12765 net.cpp:148] Top shape: 24 112 14 14 (526848)
I0403 15:50:28.650127 12765 net.cpp:156] Memory required for data: 956439840
I0403 15:50:28.650142 12765 layer_factory.hpp:77] Creating layer inception_4b/3x3
I0403 15:50:28.650164 12765 net.cpp:91] Creating Layer inception_4b/3x3
I0403 15:50:28.650182 12765 net.cpp:425] inception_4b/3x3 <- inception_4b/3x3_reduce
I0403 15:50:28.650200 12765 net.cpp:399] inception_4b/3x3 -> inception_4b/3x3
I0403 15:50:28.653125 12765 net.cpp:141] Setting up inception_4b/3x3
I0403 15:50:28.653152 12765 net.cpp:148] Top shape: 24 224 14 14 (1053696)
I0403 15:50:28.653167 12765 net.cpp:156] Memory required for data: 960654624
I0403 15:50:28.653185 12765 layer_factory.hpp:77] Creating layer inception_4b/relu_3x3
I0403 15:50:28.653203 12765 net.cpp:91] Creating Layer inception_4b/relu_3x3
I0403 15:50:28.653218 12765 net.cpp:425] inception_4b/relu_3x3 <- inception_4b/3x3
I0403 15:50:28.653239 12765 net.cpp:386] inception_4b/relu_3x3 -> inception_4b/3x3 (in-place)
I0403 15:50:28.653429 12765 net.cpp:141] Setting up inception_4b/relu_3x3
I0403 15:50:28.653455 12765 net.cpp:148] Top shape: 24 224 14 14 (1053696)
I0403 15:50:28.653470 12765 net.cpp:156] Memory required for data: 964869408
I0403 15:50:28.653483 12765 layer_factory.hpp:77] Creating layer inception_4b/5x5_reduce
I0403 15:50:28.653504 12765 net.cpp:91] Creating Layer inception_4b/5x5_reduce
I0403 15:50:28.653522 12765 net.cpp:425] inception_4b/5x5_reduce <- inception_4a/output_inception_4a/output_0_split_3
I0403 15:50:28.653543 12765 net.cpp:399] inception_4b/5x5_reduce -> inception_4b/5x5_reduce
I0403 15:50:28.654609 12765 net.cpp:141] Setting up inception_4b/5x5_reduce
I0403 15:50:28.654639 12765 net.cpp:148] Top shape: 24 24 14 14 (112896)
I0403 15:50:28.654655 12765 net.cpp:156] Memory required for data: 965320992
I0403 15:50:28.654673 12765 layer_factory.hpp:77] Creating layer inception_4b/relu_5x5_reduce
I0403 15:50:28.654691 12765 net.cpp:91] Creating Layer inception_4b/relu_5x5_reduce
I0403 15:50:28.654721 12765 net.cpp:425] inception_4b/relu_5x5_reduce <- inception_4b/5x5_reduce
I0403 15:50:28.654739 12765 net.cpp:386] inception_4b/relu_5x5_reduce -> inception_4b/5x5_reduce (in-place)
I0403 15:50:28.654923 12765 net.cpp:141] Setting up inception_4b/relu_5x5_reduce
I0403 15:50:28.654949 12765 net.cpp:148] Top shape: 24 24 14 14 (112896)
I0403 15:50:28.654965 12765 net.cpp:156] Memory required for data: 965772576
I0403 15:50:28.654979 12765 layer_factory.hpp:77] Creating layer inception_4b/5x5
I0403 15:50:28.655001 12765 net.cpp:91] Creating Layer inception_4b/5x5
I0403 15:50:28.655019 12765 net.cpp:425] inception_4b/5x5 <- inception_4b/5x5_reduce
I0403 15:50:28.655040 12765 net.cpp:399] inception_4b/5x5 -> inception_4b/5x5
I0403 15:50:28.656234 12765 net.cpp:141] Setting up inception_4b/5x5
I0403 15:50:28.656260 12765 net.cpp:148] Top shape: 24 64 14 14 (301056)
I0403 15:50:28.656275 12765 net.cpp:156] Memory required for data: 966976800
I0403 15:50:28.656293 12765 layer_factory.hpp:77] Creating layer inception_4b/relu_5x5
I0403 15:50:28.656316 12765 net.cpp:91] Creating Layer inception_4b/relu_5x5
I0403 15:50:28.656333 12765 net.cpp:425] inception_4b/relu_5x5 <- inception_4b/5x5
I0403 15:50:28.656354 12765 net.cpp:386] inception_4b/relu_5x5 -> inception_4b/5x5 (in-place)
I0403 15:50:28.656635 12765 net.cpp:141] Setting up inception_4b/relu_5x5
I0403 15:50:28.656661 12765 net.cpp:148] Top shape: 24 64 14 14 (301056)
I0403 15:50:28.656677 12765 net.cpp:156] Memory required for data: 968181024
I0403 15:50:28.656692 12765 layer_factory.hpp:77] Creating layer inception_4b/pool
I0403 15:50:28.656711 12765 net.cpp:91] Creating Layer inception_4b/pool
I0403 15:50:28.656728 12765 net.cpp:425] inception_4b/pool <- inception_4a/output_inception_4a/output_0_split_4
I0403 15:50:28.656745 12765 net.cpp:399] inception_4b/pool -> inception_4b/pool
I0403 15:50:28.656808 12765 net.cpp:141] Setting up inception_4b/pool
I0403 15:50:28.656831 12765 net.cpp:148] Top shape: 24 512 14 14 (2408448)
I0403 15:50:28.656846 12765 net.cpp:156] Memory required for data: 977814816
I0403 15:50:28.656859 12765 layer_factory.hpp:77] Creating layer inception_4b/pool_proj
I0403 15:50:28.656882 12765 net.cpp:91] Creating Layer inception_4b/pool_proj
I0403 15:50:28.656898 12765 net.cpp:425] inception_4b/pool_proj <- inception_4b/pool
I0403 15:50:28.656918 12765 net.cpp:399] inception_4b/pool_proj -> inception_4b/pool_proj
I0403 15:50:28.658107 12765 net.cpp:141] Setting up inception_4b/pool_proj
I0403 15:50:28.658134 12765 net.cpp:148] Top shape: 24 64 14 14 (301056)
I0403 15:50:28.658149 12765 net.cpp:156] Memory required for data: 979019040
I0403 15:50:28.658166 12765 layer_factory.hpp:77] Creating layer inception_4b/relu_pool_proj
I0403 15:50:28.658186 12765 net.cpp:91] Creating Layer inception_4b/relu_pool_proj
I0403 15:50:28.658203 12765 net.cpp:425] inception_4b/relu_pool_proj <- inception_4b/pool_proj
I0403 15:50:28.658220 12765 net.cpp:386] inception_4b/relu_pool_proj -> inception_4b/pool_proj (in-place)
I0403 15:50:28.658404 12765 net.cpp:141] Setting up inception_4b/relu_pool_proj
I0403 15:50:28.658428 12765 net.cpp:148] Top shape: 24 64 14 14 (301056)
I0403 15:50:28.658443 12765 net.cpp:156] Memory required for data: 980223264
I0403 15:50:28.658458 12765 layer_factory.hpp:77] Creating layer inception_4b/output
I0403 15:50:28.658475 12765 net.cpp:91] Creating Layer inception_4b/output
I0403 15:50:28.658490 12765 net.cpp:425] inception_4b/output <- inception_4b/1x1
I0403 15:50:28.658506 12765 net.cpp:425] inception_4b/output <- inception_4b/3x3
I0403 15:50:28.658521 12765 net.cpp:425] inception_4b/output <- inception_4b/5x5
I0403 15:50:28.658536 12765 net.cpp:425] inception_4b/output <- inception_4b/pool_proj
I0403 15:50:28.658555 12765 net.cpp:399] inception_4b/output -> inception_4b/output
I0403 15:50:28.658599 12765 net.cpp:141] Setting up inception_4b/output
I0403 15:50:28.658624 12765 net.cpp:148] Top shape: 24 512 14 14 (2408448)
I0403 15:50:28.658640 12765 net.cpp:156] Memory required for data: 989857056
I0403 15:50:28.658671 12765 layer_factory.hpp:77] Creating layer inception_4b/output_inception_4b/output_0_split
I0403 15:50:28.658689 12765 net.cpp:91] Creating Layer inception_4b/output_inception_4b/output_0_split
I0403 15:50:28.658704 12765 net.cpp:425] inception_4b/output_inception_4b/output_0_split <- inception_4b/output
I0403 15:50:28.658720 12765 net.cpp:399] inception_4b/output_inception_4b/output_0_split -> inception_4b/output_inception_4b/output_0_split_0
I0403 15:50:28.658740 12765 net.cpp:399] inception_4b/output_inception_4b/output_0_split -> inception_4b/output_inception_4b/output_0_split_1
I0403 15:50:28.658761 12765 net.cpp:399] inception_4b/output_inception_4b/output_0_split -> inception_4b/output_inception_4b/output_0_split_2
I0403 15:50:28.658783 12765 net.cpp:399] inception_4b/output_inception_4b/output_0_split -> inception_4b/output_inception_4b/output_0_split_3
I0403 15:50:28.658866 12765 net.cpp:141] Setting up inception_4b/output_inception_4b/output_0_split
I0403 15:50:28.658888 12765 net.cpp:148] Top shape: 24 512 14 14 (2408448)
I0403 15:50:28.658905 12765 net.cpp:148] Top shape: 24 512 14 14 (2408448)
I0403 15:50:28.658921 12765 net.cpp:148] Top shape: 24 512 14 14 (2408448)
I0403 15:50:28.658936 12765 net.cpp:148] Top shape: 24 512 14 14 (2408448)
I0403 15:50:28.658949 12765 net.cpp:156] Memory required for data: 1028392224
I0403 15:50:28.658963 12765 layer_factory.hpp:77] Creating layer inception_4c/1x1
I0403 15:50:28.658984 12765 net.cpp:91] Creating Layer inception_4c/1x1
I0403 15:50:28.659000 12765 net.cpp:425] inception_4c/1x1 <- inception_4b/output_inception_4b/output_0_split_0
I0403 15:50:28.659020 12765 net.cpp:399] inception_4c/1x1 -> inception_4c/1x1
I0403 15:50:28.660426 12765 net.cpp:141] Setting up inception_4c/1x1
I0403 15:50:28.660454 12765 net.cpp:148] Top shape: 24 128 14 14 (602112)
I0403 15:50:28.660470 12765 net.cpp:156] Memory required for data: 1030800672
I0403 15:50:28.660487 12765 layer_factory.hpp:77] Creating layer inception_4c/relu_1x1
I0403 15:50:28.660506 12765 net.cpp:91] Creating Layer inception_4c/relu_1x1
I0403 15:50:28.660522 12765 net.cpp:425] inception_4c/relu_1x1 <- inception_4c/1x1
I0403 15:50:28.660542 12765 net.cpp:386] inception_4c/relu_1x1 -> inception_4c/1x1 (in-place)
I0403 15:50:28.660723 12765 net.cpp:141] Setting up inception_4c/relu_1x1
I0403 15:50:28.660748 12765 net.cpp:148] Top shape: 24 128 14 14 (602112)
I0403 15:50:28.660761 12765 net.cpp:156] Memory required for data: 1033209120
I0403 15:50:28.660776 12765 layer_factory.hpp:77] Creating layer inception_4c/3x3_reduce
I0403 15:50:28.660797 12765 net.cpp:91] Creating Layer inception_4c/3x3_reduce
I0403 15:50:28.660815 12765 net.cpp:425] inception_4c/3x3_reduce <- inception_4b/output_inception_4b/output_0_split_1
I0403 15:50:28.660835 12765 net.cpp:399] inception_4c/3x3_reduce -> inception_4c/3x3_reduce
I0403 15:50:28.662760 12765 net.cpp:141] Setting up inception_4c/3x3_reduce
I0403 15:50:28.662788 12765 net.cpp:148] Top shape: 24 128 14 14 (602112)
I0403 15:50:28.662804 12765 net.cpp:156] Memory required for data: 1035617568
I0403 15:50:28.662822 12765 layer_factory.hpp:77] Creating layer inception_4c/relu_3x3_reduce
I0403 15:50:28.662842 12765 net.cpp:91] Creating Layer inception_4c/relu_3x3_reduce
I0403 15:50:28.662859 12765 net.cpp:425] inception_4c/relu_3x3_reduce <- inception_4c/3x3_reduce
I0403 15:50:28.662875 12765 net.cpp:386] inception_4c/relu_3x3_reduce -> inception_4c/3x3_reduce (in-place)
I0403 15:50:28.663154 12765 net.cpp:141] Setting up inception_4c/relu_3x3_reduce
I0403 15:50:28.663180 12765 net.cpp:148] Top shape: 24 128 14 14 (602112)
I0403 15:50:28.663195 12765 net.cpp:156] Memory required for data: 1038026016
I0403 15:50:28.663210 12765 layer_factory.hpp:77] Creating layer inception_4c/3x3
I0403 15:50:28.663231 12765 net.cpp:91] Creating Layer inception_4c/3x3
I0403 15:50:28.663249 12765 net.cpp:425] inception_4c/3x3 <- inception_4c/3x3_reduce
I0403 15:50:28.663270 12765 net.cpp:399] inception_4c/3x3 -> inception_4c/3x3
I0403 15:50:28.666811 12765 net.cpp:141] Setting up inception_4c/3x3
I0403 15:50:28.666851 12765 net.cpp:148] Top shape: 24 256 14 14 (1204224)
I0403 15:50:28.666868 12765 net.cpp:156] Memory required for data: 1042842912
I0403 15:50:28.666899 12765 layer_factory.hpp:77] Creating layer inception_4c/relu_3x3
I0403 15:50:28.666923 12765 net.cpp:91] Creating Layer inception_4c/relu_3x3
I0403 15:50:28.666940 12765 net.cpp:425] inception_4c/relu_3x3 <- inception_4c/3x3
I0403 15:50:28.666957 12765 net.cpp:386] inception_4c/relu_3x3 -> inception_4c/3x3 (in-place)
I0403 15:50:28.667136 12765 net.cpp:141] Setting up inception_4c/relu_3x3
I0403 15:50:28.667163 12765 net.cpp:148] Top shape: 24 256 14 14 (1204224)
I0403 15:50:28.667179 12765 net.cpp:156] Memory required for data: 1047659808
I0403 15:50:28.667194 12765 layer_factory.hpp:77] Creating layer inception_4c/5x5_reduce
I0403 15:50:28.667218 12765 net.cpp:91] Creating Layer inception_4c/5x5_reduce
I0403 15:50:28.667235 12765 net.cpp:425] inception_4c/5x5_reduce <- inception_4b/output_inception_4b/output_0_split_2
I0403 15:50:28.667253 12765 net.cpp:399] inception_4c/5x5_reduce -> inception_4c/5x5_reduce
I0403 15:50:28.668320 12765 net.cpp:141] Setting up inception_4c/5x5_reduce
I0403 15:50:28.668357 12765 net.cpp:148] Top shape: 24 24 14 14 (112896)
I0403 15:50:28.668375 12765 net.cpp:156] Memory required for data: 1048111392
I0403 15:50:28.668392 12765 layer_factory.hpp:77] Creating layer inception_4c/relu_5x5_reduce
I0403 15:50:28.668411 12765 net.cpp:91] Creating Layer inception_4c/relu_5x5_reduce
I0403 15:50:28.668437 12765 net.cpp:425] inception_4c/relu_5x5_reduce <- inception_4c/5x5_reduce
I0403 15:50:28.668452 12765 net.cpp:386] inception_4c/relu_5x5_reduce -> inception_4c/5x5_reduce (in-place)
I0403 15:50:28.668637 12765 net.cpp:141] Setting up inception_4c/relu_5x5_reduce
I0403 15:50:28.668663 12765 net.cpp:148] Top shape: 24 24 14 14 (112896)
I0403 15:50:28.668678 12765 net.cpp:156] Memory required for data: 1048562976
I0403 15:50:28.668692 12765 layer_factory.hpp:77] Creating layer inception_4c/5x5
I0403 15:50:28.668715 12765 net.cpp:91] Creating Layer inception_4c/5x5
I0403 15:50:28.668731 12765 net.cpp:425] inception_4c/5x5 <- inception_4c/5x5_reduce
I0403 15:50:28.668751 12765 net.cpp:399] inception_4c/5x5 -> inception_4c/5x5
I0403 15:50:28.669965 12765 net.cpp:141] Setting up inception_4c/5x5
I0403 15:50:28.669992 12765 net.cpp:148] Top shape: 24 64 14 14 (301056)
I0403 15:50:28.670007 12765 net.cpp:156] Memory required for data: 1049767200
I0403 15:50:28.670024 12765 layer_factory.hpp:77] Creating layer inception_4c/relu_5x5
I0403 15:50:28.670042 12765 net.cpp:91] Creating Layer inception_4c/relu_5x5
I0403 15:50:28.670058 12765 net.cpp:425] inception_4c/relu_5x5 <- inception_4c/5x5
I0403 15:50:28.670078 12765 net.cpp:386] inception_4c/relu_5x5 -> inception_4c/5x5 (in-place)
I0403 15:50:28.670366 12765 net.cpp:141] Setting up inception_4c/relu_5x5
I0403 15:50:28.670392 12765 net.cpp:148] Top shape: 24 64 14 14 (301056)
I0403 15:50:28.670406 12765 net.cpp:156] Memory required for data: 1050971424
I0403 15:50:28.670421 12765 layer_factory.hpp:77] Creating layer inception_4c/pool
I0403 15:50:28.670439 12765 net.cpp:91] Creating Layer inception_4c/pool
I0403 15:50:28.670455 12765 net.cpp:425] inception_4c/pool <- inception_4b/output_inception_4b/output_0_split_3
I0403 15:50:28.670476 12765 net.cpp:399] inception_4c/pool -> inception_4c/pool
I0403 15:50:28.670539 12765 net.cpp:141] Setting up inception_4c/pool
I0403 15:50:28.670562 12765 net.cpp:148] Top shape: 24 512 14 14 (2408448)
I0403 15:50:28.670578 12765 net.cpp:156] Memory required for data: 1060605216
I0403 15:50:28.670591 12765 layer_factory.hpp:77] Creating layer inception_4c/pool_proj
I0403 15:50:28.670614 12765 net.cpp:91] Creating Layer inception_4c/pool_proj
I0403 15:50:28.670630 12765 net.cpp:425] inception_4c/pool_proj <- inception_4c/pool
I0403 15:50:28.670649 12765 net.cpp:399] inception_4c/pool_proj -> inception_4c/pool_proj
I0403 15:50:28.671844 12765 net.cpp:141] Setting up inception_4c/pool_proj
I0403 15:50:28.671872 12765 net.cpp:148] Top shape: 24 64 14 14 (301056)
I0403 15:50:28.671901 12765 net.cpp:156] Memory required for data: 1061809440
I0403 15:50:28.671921 12765 layer_factory.hpp:77] Creating layer inception_4c/relu_pool_proj
I0403 15:50:28.671944 12765 net.cpp:91] Creating Layer inception_4c/relu_pool_proj
I0403 15:50:28.671960 12765 net.cpp:425] inception_4c/relu_pool_proj <- inception_4c/pool_proj
I0403 15:50:28.671977 12765 net.cpp:386] inception_4c/relu_pool_proj -> inception_4c/pool_proj (in-place)
I0403 15:50:28.672161 12765 net.cpp:141] Setting up inception_4c/relu_pool_proj
I0403 15:50:28.672185 12765 net.cpp:148] Top shape: 24 64 14 14 (301056)
I0403 15:50:28.672200 12765 net.cpp:156] Memory required for data: 1063013664
I0403 15:50:28.672214 12765 layer_factory.hpp:77] Creating layer inception_4c/output
I0403 15:50:28.672231 12765 net.cpp:91] Creating Layer inception_4c/output
I0403 15:50:28.672246 12765 net.cpp:425] inception_4c/output <- inception_4c/1x1
I0403 15:50:28.672262 12765 net.cpp:425] inception_4c/output <- inception_4c/3x3
I0403 15:50:28.672278 12765 net.cpp:425] inception_4c/output <- inception_4c/5x5
I0403 15:50:28.672293 12765 net.cpp:425] inception_4c/output <- inception_4c/pool_proj
I0403 15:50:28.672312 12765 net.cpp:399] inception_4c/output -> inception_4c/output
I0403 15:50:28.672360 12765 net.cpp:141] Setting up inception_4c/output
I0403 15:50:28.672382 12765 net.cpp:148] Top shape: 24 512 14 14 (2408448)
I0403 15:50:28.672401 12765 net.cpp:156] Memory required for data: 1072647456
I0403 15:50:28.672416 12765 layer_factory.hpp:77] Creating layer inception_4c/output_inception_4c/output_0_split
I0403 15:50:28.672432 12765 net.cpp:91] Creating Layer inception_4c/output_inception_4c/output_0_split
I0403 15:50:28.672446 12765 net.cpp:425] inception_4c/output_inception_4c/output_0_split <- inception_4c/output
I0403 15:50:28.672463 12765 net.cpp:399] inception_4c/output_inception_4c/output_0_split -> inception_4c/output_inception_4c/output_0_split_0
I0403 15:50:28.672482 12765 net.cpp:399] inception_4c/output_inception_4c/output_0_split -> inception_4c/output_inception_4c/output_0_split_1
I0403 15:50:28.672502 12765 net.cpp:399] inception_4c/output_inception_4c/output_0_split -> inception_4c/output_inception_4c/output_0_split_2
I0403 15:50:28.672524 12765 net.cpp:399] inception_4c/output_inception_4c/output_0_split -> inception_4c/output_inception_4c/output_0_split_3
I0403 15:50:28.672610 12765 net.cpp:141] Setting up inception_4c/output_inception_4c/output_0_split
I0403 15:50:28.672641 12765 net.cpp:148] Top shape: 24 512 14 14 (2408448)
I0403 15:50:28.672657 12765 net.cpp:148] Top shape: 24 512 14 14 (2408448)
I0403 15:50:28.672672 12765 net.cpp:148] Top shape: 24 512 14 14 (2408448)
I0403 15:50:28.672685 12765 net.cpp:148] Top shape: 24 512 14 14 (2408448)
I0403 15:50:28.672698 12765 net.cpp:156] Memory required for data: 1111182624
I0403 15:50:28.672713 12765 layer_factory.hpp:77] Creating layer inception_4d/1x1
I0403 15:50:28.672734 12765 net.cpp:91] Creating Layer inception_4d/1x1
I0403 15:50:28.672750 12765 net.cpp:425] inception_4d/1x1 <- inception_4c/output_inception_4c/output_0_split_0
I0403 15:50:28.672770 12765 net.cpp:399] inception_4d/1x1 -> inception_4d/1x1
I0403 15:50:28.674118 12765 net.cpp:141] Setting up inception_4d/1x1
I0403 15:50:28.674146 12765 net.cpp:148] Top shape: 24 112 14 14 (526848)
I0403 15:50:28.674161 12765 net.cpp:156] Memory required for data: 1113290016
I0403 15:50:28.674178 12765 layer_factory.hpp:77] Creating layer inception_4d/relu_1x1
I0403 15:50:28.674197 12765 net.cpp:91] Creating Layer inception_4d/relu_1x1
I0403 15:50:28.674214 12765 net.cpp:425] inception_4d/relu_1x1 <- inception_4d/1x1
I0403 15:50:28.674231 12765 net.cpp:386] inception_4d/relu_1x1 -> inception_4d/1x1 (in-place)
I0403 15:50:28.674414 12765 net.cpp:141] Setting up inception_4d/relu_1x1
I0403 15:50:28.674438 12765 net.cpp:148] Top shape: 24 112 14 14 (526848)
I0403 15:50:28.674455 12765 net.cpp:156] Memory required for data: 1115397408
I0403 15:50:28.674470 12765 layer_factory.hpp:77] Creating layer inception_4d/3x3_reduce
I0403 15:50:28.674504 12765 net.cpp:91] Creating Layer inception_4d/3x3_reduce
I0403 15:50:28.674520 12765 net.cpp:425] inception_4d/3x3_reduce <- inception_4c/output_inception_4c/output_0_split_1
I0403 15:50:28.674542 12765 net.cpp:399] inception_4d/3x3_reduce -> inception_4d/3x3_reduce
I0403 15:50:28.676013 12765 net.cpp:141] Setting up inception_4d/3x3_reduce
I0403 15:50:28.676040 12765 net.cpp:148] Top shape: 24 144 14 14 (677376)
I0403 15:50:28.676055 12765 net.cpp:156] Memory required for data: 1118106912
I0403 15:50:28.676074 12765 layer_factory.hpp:77] Creating layer inception_4d/relu_3x3_reduce
I0403 15:50:28.676090 12765 net.cpp:91] Creating Layer inception_4d/relu_3x3_reduce
I0403 15:50:28.676106 12765 net.cpp:425] inception_4d/relu_3x3_reduce <- inception_4d/3x3_reduce
I0403 15:50:28.676126 12765 net.cpp:386] inception_4d/relu_3x3_reduce -> inception_4d/3x3_reduce (in-place)
I0403 15:50:28.676414 12765 net.cpp:141] Setting up inception_4d/relu_3x3_reduce
I0403 15:50:28.676440 12765 net.cpp:148] Top shape: 24 144 14 14 (677376)
I0403 15:50:28.676455 12765 net.cpp:156] Memory required for data: 1120816416
I0403 15:50:28.676468 12765 layer_factory.hpp:77] Creating layer inception_4d/3x3
I0403 15:50:28.676491 12765 net.cpp:91] Creating Layer inception_4d/3x3
I0403 15:50:28.676506 12765 net.cpp:425] inception_4d/3x3 <- inception_4d/3x3_reduce
I0403 15:50:28.676527 12765 net.cpp:399] inception_4d/3x3 -> inception_4d/3x3
I0403 15:50:28.680665 12765 net.cpp:141] Setting up inception_4d/3x3
I0403 15:50:28.680694 12765 net.cpp:148] Top shape: 24 288 14 14 (1354752)
I0403 15:50:28.680709 12765 net.cpp:156] Memory required for data: 1126235424
I0403 15:50:28.680727 12765 layer_factory.hpp:77] Creating layer inception_4d/relu_3x3
I0403 15:50:28.680747 12765 net.cpp:91] Creating Layer inception_4d/relu_3x3
I0403 15:50:28.680763 12765 net.cpp:425] inception_4d/relu_3x3 <- inception_4d/3x3
I0403 15:50:28.680780 12765 net.cpp:386] inception_4d/relu_3x3 -> inception_4d/3x3 (in-place)
I0403 15:50:28.680961 12765 net.cpp:141] Setting up inception_4d/relu_3x3
I0403 15:50:28.680985 12765 net.cpp:148] Top shape: 24 288 14 14 (1354752)
I0403 15:50:28.680999 12765 net.cpp:156] Memory required for data: 1131654432
I0403 15:50:28.681015 12765 layer_factory.hpp:77] Creating layer inception_4d/5x5_reduce
I0403 15:50:28.681037 12765 net.cpp:91] Creating Layer inception_4d/5x5_reduce
I0403 15:50:28.681056 12765 net.cpp:425] inception_4d/5x5_reduce <- inception_4c/output_inception_4c/output_0_split_2
I0403 15:50:28.681073 12765 net.cpp:399] inception_4d/5x5_reduce -> inception_4d/5x5_reduce
I0403 15:50:28.682190 12765 net.cpp:141] Setting up inception_4d/5x5_reduce
I0403 15:50:28.682217 12765 net.cpp:148] Top shape: 24 32 14 14 (150528)
I0403 15:50:28.682232 12765 net.cpp:156] Memory required for data: 1132256544
I0403 15:50:28.682250 12765 layer_factory.hpp:77] Creating layer inception_4d/relu_5x5_reduce
I0403 15:50:28.682271 12765 net.cpp:91] Creating Layer inception_4d/relu_5x5_reduce
I0403 15:50:28.682287 12765 net.cpp:425] inception_4d/relu_5x5_reduce <- inception_4d/5x5_reduce
I0403 15:50:28.682304 12765 net.cpp:386] inception_4d/relu_5x5_reduce -> inception_4d/5x5_reduce (in-place)
I0403 15:50:28.682492 12765 net.cpp:141] Setting up inception_4d/relu_5x5_reduce
I0403 15:50:28.682519 12765 net.cpp:148] Top shape: 24 32 14 14 (150528)
I0403 15:50:28.682534 12765 net.cpp:156] Memory required for data: 1132858656
I0403 15:50:28.682549 12765 layer_factory.hpp:77] Creating layer inception_4d/5x5
I0403 15:50:28.682570 12765 net.cpp:91] Creating Layer inception_4d/5x5
I0403 15:50:28.682587 12765 net.cpp:425] inception_4d/5x5 <- inception_4d/5x5_reduce
I0403 15:50:28.682605 12765 net.cpp:399] inception_4d/5x5 -> inception_4d/5x5
I0403 15:50:28.684059 12765 net.cpp:141] Setting up inception_4d/5x5
I0403 15:50:28.684092 12765 net.cpp:148] Top shape: 24 64 14 14 (301056)
I0403 15:50:28.684108 12765 net.cpp:156] Memory required for data: 1134062880
I0403 15:50:28.684128 12765 layer_factory.hpp:77] Creating layer inception_4d/relu_5x5
I0403 15:50:28.684159 12765 net.cpp:91] Creating Layer inception_4d/relu_5x5
I0403 15:50:28.684176 12765 net.cpp:425] inception_4d/relu_5x5 <- inception_4d/5x5
I0403 15:50:28.684193 12765 net.cpp:386] inception_4d/relu_5x5 -> inception_4d/5x5 (in-place)
I0403 15:50:28.684491 12765 net.cpp:141] Setting up inception_4d/relu_5x5
I0403 15:50:28.684520 12765 net.cpp:148] Top shape: 24 64 14 14 (301056)
I0403 15:50:28.684535 12765 net.cpp:156] Memory required for data: 1135267104
I0403 15:50:28.684551 12765 layer_factory.hpp:77] Creating layer inception_4d/pool
I0403 15:50:28.684567 12765 net.cpp:91] Creating Layer inception_4d/pool
I0403 15:50:28.684583 12765 net.cpp:425] inception_4d/pool <- inception_4c/output_inception_4c/output_0_split_3
I0403 15:50:28.684602 12765 net.cpp:399] inception_4d/pool -> inception_4d/pool
I0403 15:50:28.684666 12765 net.cpp:141] Setting up inception_4d/pool
I0403 15:50:28.684689 12765 net.cpp:148] Top shape: 24 512 14 14 (2408448)
I0403 15:50:28.684703 12765 net.cpp:156] Memory required for data: 1144900896
I0403 15:50:28.684717 12765 layer_factory.hpp:77] Creating layer inception_4d/pool_proj
I0403 15:50:28.684738 12765 net.cpp:91] Creating Layer inception_4d/pool_proj
I0403 15:50:28.684756 12765 net.cpp:425] inception_4d/pool_proj <- inception_4d/pool
I0403 15:50:28.684775 12765 net.cpp:399] inception_4d/pool_proj -> inception_4d/pool_proj
I0403 15:50:28.686496 12765 net.cpp:141] Setting up inception_4d/pool_proj
I0403 15:50:28.686523 12765 net.cpp:148] Top shape: 24 64 14 14 (301056)
I0403 15:50:28.686538 12765 net.cpp:156] Memory required for data: 1146105120
I0403 15:50:28.686556 12765 layer_factory.hpp:77] Creating layer inception_4d/relu_pool_proj
I0403 15:50:28.686576 12765 net.cpp:91] Creating Layer inception_4d/relu_pool_proj
I0403 15:50:28.686594 12765 net.cpp:425] inception_4d/relu_pool_proj <- inception_4d/pool_proj
I0403 15:50:28.686609 12765 net.cpp:386] inception_4d/relu_pool_proj -> inception_4d/pool_proj (in-place)
I0403 15:50:28.686812 12765 net.cpp:141] Setting up inception_4d/relu_pool_proj
I0403 15:50:28.686837 12765 net.cpp:148] Top shape: 24 64 14 14 (301056)
I0403 15:50:28.686852 12765 net.cpp:156] Memory required for data: 1147309344
I0403 15:50:28.686867 12765 layer_factory.hpp:77] Creating layer inception_4d/output
I0403 15:50:28.686887 12765 net.cpp:91] Creating Layer inception_4d/output
I0403 15:50:28.686902 12765 net.cpp:425] inception_4d/output <- inception_4d/1x1
I0403 15:50:28.686930 12765 net.cpp:425] inception_4d/output <- inception_4d/3x3
I0403 15:50:28.686946 12765 net.cpp:425] inception_4d/output <- inception_4d/5x5
I0403 15:50:28.686961 12765 net.cpp:425] inception_4d/output <- inception_4d/pool_proj
I0403 15:50:28.686978 12765 net.cpp:399] inception_4d/output -> inception_4d/output
I0403 15:50:28.687026 12765 net.cpp:141] Setting up inception_4d/output
I0403 15:50:28.687048 12765 net.cpp:148] Top shape: 24 528 14 14 (2483712)
I0403 15:50:28.687062 12765 net.cpp:156] Memory required for data: 1157244192
I0403 15:50:28.687077 12765 layer_factory.hpp:77] Creating layer inception_4d/output_inception_4d/output_0_split
I0403 15:50:28.687093 12765 net.cpp:91] Creating Layer inception_4d/output_inception_4d/output_0_split
I0403 15:50:28.687110 12765 net.cpp:425] inception_4d/output_inception_4d/output_0_split <- inception_4d/output
I0403 15:50:28.687130 12765 net.cpp:399] inception_4d/output_inception_4d/output_0_split -> inception_4d/output_inception_4d/output_0_split_0
I0403 15:50:28.687152 12765 net.cpp:399] inception_4d/output_inception_4d/output_0_split -> inception_4d/output_inception_4d/output_0_split_1
I0403 15:50:28.687171 12765 net.cpp:399] inception_4d/output_inception_4d/output_0_split -> inception_4d/output_inception_4d/output_0_split_2
I0403 15:50:28.687196 12765 net.cpp:399] inception_4d/output_inception_4d/output_0_split -> inception_4d/output_inception_4d/output_0_split_3
I0403 15:50:28.687216 12765 net.cpp:399] inception_4d/output_inception_4d/output_0_split -> inception_4d/output_inception_4d/output_0_split_4
I0403 15:50:28.687314 12765 net.cpp:141] Setting up inception_4d/output_inception_4d/output_0_split
I0403 15:50:28.687352 12765 net.cpp:148] Top shape: 24 528 14 14 (2483712)
I0403 15:50:28.687371 12765 net.cpp:148] Top shape: 24 528 14 14 (2483712)
I0403 15:50:28.687387 12765 net.cpp:148] Top shape: 24 528 14 14 (2483712)
I0403 15:50:28.687403 12765 net.cpp:148] Top shape: 24 528 14 14 (2483712)
I0403 15:50:28.687418 12765 net.cpp:148] Top shape: 24 528 14 14 (2483712)
I0403 15:50:28.687430 12765 net.cpp:156] Memory required for data: 1206918432
I0403 15:50:28.687444 12765 layer_factory.hpp:77] Creating layer loss2/ave_pool
I0403 15:50:28.687461 12765 net.cpp:91] Creating Layer loss2/ave_pool
I0403 15:50:28.687476 12765 net.cpp:425] loss2/ave_pool <- inception_4d/output_inception_4d/output_0_split_0
I0403 15:50:28.687497 12765 net.cpp:399] loss2/ave_pool -> loss2/ave_pool
I0403 15:50:28.687803 12765 net.cpp:141] Setting up loss2/ave_pool
I0403 15:50:28.687829 12765 net.cpp:148] Top shape: 24 528 4 4 (202752)
I0403 15:50:28.687844 12765 net.cpp:156] Memory required for data: 1207729440
I0403 15:50:28.687858 12765 layer_factory.hpp:77] Creating layer loss2/conv
I0403 15:50:28.687880 12765 net.cpp:91] Creating Layer loss2/conv
I0403 15:50:28.687896 12765 net.cpp:425] loss2/conv <- loss2/ave_pool
I0403 15:50:28.687918 12765 net.cpp:399] loss2/conv -> loss2/conv
I0403 15:50:28.689770 12765 net.cpp:141] Setting up loss2/conv
I0403 15:50:28.689803 12765 net.cpp:148] Top shape: 24 128 4 4 (49152)
I0403 15:50:28.689821 12765 net.cpp:156] Memory required for data: 1207926048
I0403 15:50:28.689838 12765 layer_factory.hpp:77] Creating layer loss2/relu_conv
I0403 15:50:28.689857 12765 net.cpp:91] Creating Layer loss2/relu_conv
I0403 15:50:28.689872 12765 net.cpp:425] loss2/relu_conv <- loss2/conv
I0403 15:50:28.689891 12765 net.cpp:386] loss2/relu_conv -> loss2/conv (in-place)
I0403 15:50:28.690171 12765 net.cpp:141] Setting up loss2/relu_conv
I0403 15:50:28.690198 12765 net.cpp:148] Top shape: 24 128 4 4 (49152)
I0403 15:50:28.690213 12765 net.cpp:156] Memory required for data: 1208122656
I0403 15:50:28.690228 12765 layer_factory.hpp:77] Creating layer loss2/fc
I0403 15:50:28.690246 12765 net.cpp:91] Creating Layer loss2/fc
I0403 15:50:28.690261 12765 net.cpp:425] loss2/fc <- loss2/conv
I0403 15:50:28.690282 12765 net.cpp:399] loss2/fc -> loss2/fc
I0403 15:50:28.707681 12765 net.cpp:141] Setting up loss2/fc
I0403 15:50:28.707720 12765 net.cpp:148] Top shape: 24 1024 (24576)
I0403 15:50:28.707736 12765 net.cpp:156] Memory required for data: 1208220960
I0403 15:50:28.707756 12765 layer_factory.hpp:77] Creating layer loss2/relu_fc
I0403 15:50:28.707775 12765 net.cpp:91] Creating Layer loss2/relu_fc
I0403 15:50:28.707793 12765 net.cpp:425] loss2/relu_fc <- loss2/fc
I0403 15:50:28.707811 12765 net.cpp:386] loss2/relu_fc -> loss2/fc (in-place)
I0403 15:50:28.708112 12765 net.cpp:141] Setting up loss2/relu_fc
I0403 15:50:28.708138 12765 net.cpp:148] Top shape: 24 1024 (24576)
I0403 15:50:28.708153 12765 net.cpp:156] Memory required for data: 1208319264
I0403 15:50:28.708168 12765 layer_factory.hpp:77] Creating layer loss2/drop_fc
I0403 15:50:28.708189 12765 net.cpp:91] Creating Layer loss2/drop_fc
I0403 15:50:28.708205 12765 net.cpp:425] loss2/drop_fc <- loss2/fc
I0403 15:50:28.708222 12765 net.cpp:386] loss2/drop_fc -> loss2/fc (in-place)
I0403 15:50:28.708271 12765 net.cpp:141] Setting up loss2/drop_fc
I0403 15:50:28.708294 12765 net.cpp:148] Top shape: 24 1024 (24576)
I0403 15:50:28.708308 12765 net.cpp:156] Memory required for data: 1208417568
I0403 15:50:28.708323 12765 layer_factory.hpp:77] Creating layer loss2/classifier_plantvillage
I0403 15:50:28.708340 12765 net.cpp:91] Creating Layer loss2/classifier_plantvillage
I0403 15:50:28.708361 12765 net.cpp:425] loss2/classifier_plantvillage <- loss2/fc
I0403 15:50:28.708384 12765 net.cpp:399] loss2/classifier_plantvillage -> loss2/classifier_plantvillage
I0403 15:50:28.708781 12765 net.cpp:141] Setting up loss2/classifier_plantvillage
I0403 15:50:28.708806 12765 net.cpp:148] Top shape: 24 38 (912)
I0403 15:50:28.708838 12765 net.cpp:156] Memory required for data: 1208421216
I0403 15:50:28.708858 12765 layer_factory.hpp:77] Creating layer loss2/classifier_plantvillage_loss2/classifier_plantvillage_0_split
I0403 15:50:28.708876 12765 net.cpp:91] Creating Layer loss2/classifier_plantvillage_loss2/classifier_plantvillage_0_split
I0403 15:50:28.708892 12765 net.cpp:425] loss2/classifier_plantvillage_loss2/classifier_plantvillage_0_split <- loss2/classifier_plantvillage
I0403 15:50:28.708912 12765 net.cpp:399] loss2/classifier_plantvillage_loss2/classifier_plantvillage_0_split -> loss2/classifier_plantvillage_loss2/classifier_plantvillage_0_split_0
I0403 15:50:28.708933 12765 net.cpp:399] loss2/classifier_plantvillage_loss2/classifier_plantvillage_0_split -> loss2/classifier_plantvillage_loss2/classifier_plantvillage_0_split_1
I0403 15:50:28.708952 12765 net.cpp:399] loss2/classifier_plantvillage_loss2/classifier_plantvillage_0_split -> loss2/classifier_plantvillage_loss2/classifier_plantvillage_0_split_2
I0403 15:50:28.709028 12765 net.cpp:141] Setting up loss2/classifier_plantvillage_loss2/classifier_plantvillage_0_split
I0403 15:50:28.709050 12765 net.cpp:148] Top shape: 24 38 (912)
I0403 15:50:28.709066 12765 net.cpp:148] Top shape: 24 38 (912)
I0403 15:50:28.709081 12765 net.cpp:148] Top shape: 24 38 (912)
I0403 15:50:28.709095 12765 net.cpp:156] Memory required for data: 1208432160
I0403 15:50:28.709108 12765 layer_factory.hpp:77] Creating layer inception_4e/1x1
I0403 15:50:28.709131 12765 net.cpp:91] Creating Layer inception_4e/1x1
I0403 15:50:28.709147 12765 net.cpp:425] inception_4e/1x1 <- inception_4d/output_inception_4d/output_0_split_1
I0403 15:50:28.709167 12765 net.cpp:399] inception_4e/1x1 -> inception_4e/1x1
I0403 15:50:28.710937 12765 net.cpp:141] Setting up inception_4e/1x1
I0403 15:50:28.710966 12765 net.cpp:148] Top shape: 24 256 14 14 (1204224)
I0403 15:50:28.710981 12765 net.cpp:156] Memory required for data: 1213249056
I0403 15:50:28.710999 12765 layer_factory.hpp:77] Creating layer inception_4e/relu_1x1
I0403 15:50:28.711017 12765 net.cpp:91] Creating Layer inception_4e/relu_1x1
I0403 15:50:28.711032 12765 net.cpp:425] inception_4e/relu_1x1 <- inception_4e/1x1
I0403 15:50:28.711051 12765 net.cpp:386] inception_4e/relu_1x1 -> inception_4e/1x1 (in-place)
I0403 15:50:28.711343 12765 net.cpp:141] Setting up inception_4e/relu_1x1
I0403 15:50:28.711374 12765 net.cpp:148] Top shape: 24 256 14 14 (1204224)
I0403 15:50:28.711390 12765 net.cpp:156] Memory required for data: 1218065952
I0403 15:50:28.711405 12765 layer_factory.hpp:77] Creating layer inception_4e/3x3_reduce
I0403 15:50:28.711426 12765 net.cpp:91] Creating Layer inception_4e/3x3_reduce
I0403 15:50:28.711442 12765 net.cpp:425] inception_4e/3x3_reduce <- inception_4d/output_inception_4d/output_0_split_2
I0403 15:50:28.711463 12765 net.cpp:399] inception_4e/3x3_reduce -> inception_4e/3x3_reduce
I0403 15:50:28.713574 12765 net.cpp:141] Setting up inception_4e/3x3_reduce
I0403 15:50:28.713603 12765 net.cpp:148] Top shape: 24 160 14 14 (752640)
I0403 15:50:28.713618 12765 net.cpp:156] Memory required for data: 1221076512
I0403 15:50:28.713639 12765 layer_factory.hpp:77] Creating layer inception_4e/relu_3x3_reduce
I0403 15:50:28.713657 12765 net.cpp:91] Creating Layer inception_4e/relu_3x3_reduce
I0403 15:50:28.713672 12765 net.cpp:425] inception_4e/relu_3x3_reduce <- inception_4e/3x3_reduce
I0403 15:50:28.713688 12765 net.cpp:386] inception_4e/relu_3x3_reduce -> inception_4e/3x3_reduce (in-place)
I0403 15:50:28.713878 12765 net.cpp:141] Setting up inception_4e/relu_3x3_reduce
I0403 15:50:28.713902 12765 net.cpp:148] Top shape: 24 160 14 14 (752640)
I0403 15:50:28.713917 12765 net.cpp:156] Memory required for data: 1224087072
I0403 15:50:28.713932 12765 layer_factory.hpp:77] Creating layer inception_4e/3x3
I0403 15:50:28.713953 12765 net.cpp:91] Creating Layer inception_4e/3x3
I0403 15:50:28.713971 12765 net.cpp:425] inception_4e/3x3 <- inception_4e/3x3_reduce
I0403 15:50:28.713992 12765 net.cpp:399] inception_4e/3x3 -> inception_4e/3x3
I0403 15:50:28.718946 12765 net.cpp:141] Setting up inception_4e/3x3
I0403 15:50:28.718988 12765 net.cpp:148] Top shape: 24 320 14 14 (1505280)
I0403 15:50:28.719007 12765 net.cpp:156] Memory required for data: 1230108192
I0403 15:50:28.719025 12765 layer_factory.hpp:77] Creating layer inception_4e/relu_3x3
I0403 15:50:28.719043 12765 net.cpp:91] Creating Layer inception_4e/relu_3x3
I0403 15:50:28.719060 12765 net.cpp:425] inception_4e/relu_3x3 <- inception_4e/3x3
I0403 15:50:28.719081 12765 net.cpp:386] inception_4e/relu_3x3 -> inception_4e/3x3 (in-place)
I0403 15:50:28.719391 12765 net.cpp:141] Setting up inception_4e/relu_3x3
I0403 15:50:28.719418 12765 net.cpp:148] Top shape: 24 320 14 14 (1505280)
I0403 15:50:28.719432 12765 net.cpp:156] Memory required for data: 1236129312
I0403 15:50:28.719447 12765 layer_factory.hpp:77] Creating layer inception_4e/5x5_reduce
I0403 15:50:28.719470 12765 net.cpp:91] Creating Layer inception_4e/5x5_reduce
I0403 15:50:28.719487 12765 net.cpp:425] inception_4e/5x5_reduce <- inception_4d/output_inception_4d/output_0_split_3
I0403 15:50:28.719508 12765 net.cpp:399] inception_4e/5x5_reduce -> inception_4e/5x5_reduce
I0403 15:50:28.720561 12765 net.cpp:141] Setting up inception_4e/5x5_reduce
I0403 15:50:28.720590 12765 net.cpp:148] Top shape: 24 32 14 14 (150528)
I0403 15:50:28.720607 12765 net.cpp:156] Memory required for data: 1236731424
I0403 15:50:28.720624 12765 layer_factory.hpp:77] Creating layer inception_4e/relu_5x5_reduce
I0403 15:50:28.720643 12765 net.cpp:91] Creating Layer inception_4e/relu_5x5_reduce
I0403 15:50:28.720659 12765 net.cpp:425] inception_4e/relu_5x5_reduce <- inception_4e/5x5_reduce
I0403 15:50:28.720675 12765 net.cpp:386] inception_4e/relu_5x5_reduce -> inception_4e/5x5_reduce (in-place)
I0403 15:50:28.720970 12765 net.cpp:141] Setting up inception_4e/relu_5x5_reduce
I0403 15:50:28.720999 12765 net.cpp:148] Top shape: 24 32 14 14 (150528)
I0403 15:50:28.721014 12765 net.cpp:156] Memory required for data: 1237333536
I0403 15:50:28.721029 12765 layer_factory.hpp:77] Creating layer inception_4e/5x5
I0403 15:50:28.721067 12765 net.cpp:91] Creating Layer inception_4e/5x5
I0403 15:50:28.721086 12765 net.cpp:425] inception_4e/5x5 <- inception_4e/5x5_reduce
I0403 15:50:28.721106 12765 net.cpp:399] inception_4e/5x5 -> inception_4e/5x5
I0403 15:50:28.722900 12765 net.cpp:141] Setting up inception_4e/5x5
I0403 15:50:28.722928 12765 net.cpp:148] Top shape: 24 128 14 14 (602112)
I0403 15:50:28.722941 12765 net.cpp:156] Memory required for data: 1239741984
I0403 15:50:28.722960 12765 layer_factory.hpp:77] Creating layer inception_4e/relu_5x5
I0403 15:50:28.722980 12765 net.cpp:91] Creating Layer inception_4e/relu_5x5
I0403 15:50:28.722997 12765 net.cpp:425] inception_4e/relu_5x5 <- inception_4e/5x5
I0403 15:50:28.723014 12765 net.cpp:386] inception_4e/relu_5x5 -> inception_4e/5x5 (in-place)
I0403 15:50:28.723212 12765 net.cpp:141] Setting up inception_4e/relu_5x5
I0403 15:50:28.723237 12765 net.cpp:148] Top shape: 24 128 14 14 (602112)
I0403 15:50:28.723253 12765 net.cpp:156] Memory required for data: 1242150432
I0403 15:50:28.723268 12765 layer_factory.hpp:77] Creating layer inception_4e/pool
I0403 15:50:28.723285 12765 net.cpp:91] Creating Layer inception_4e/pool
I0403 15:50:28.723300 12765 net.cpp:425] inception_4e/pool <- inception_4d/output_inception_4d/output_0_split_4
I0403 15:50:28.723320 12765 net.cpp:399] inception_4e/pool -> inception_4e/pool
I0403 15:50:28.723400 12765 net.cpp:141] Setting up inception_4e/pool
I0403 15:50:28.723424 12765 net.cpp:148] Top shape: 24 528 14 14 (2483712)
I0403 15:50:28.723439 12765 net.cpp:156] Memory required for data: 1252085280
I0403 15:50:28.723453 12765 layer_factory.hpp:77] Creating layer inception_4e/pool_proj
I0403 15:50:28.723475 12765 net.cpp:91] Creating Layer inception_4e/pool_proj
I0403 15:50:28.723492 12765 net.cpp:425] inception_4e/pool_proj <- inception_4e/pool
I0403 15:50:28.723512 12765 net.cpp:399] inception_4e/pool_proj -> inception_4e/pool_proj
I0403 15:50:28.724979 12765 net.cpp:141] Setting up inception_4e/pool_proj
I0403 15:50:28.725018 12765 net.cpp:148] Top shape: 24 128 14 14 (602112)
I0403 15:50:28.725033 12765 net.cpp:156] Memory required for data: 1254493728
I0403 15:50:28.725051 12765 layer_factory.hpp:77] Creating layer inception_4e/relu_pool_proj
I0403 15:50:28.725071 12765 net.cpp:91] Creating Layer inception_4e/relu_pool_proj
I0403 15:50:28.725087 12765 net.cpp:425] inception_4e/relu_pool_proj <- inception_4e/pool_proj
I0403 15:50:28.725105 12765 net.cpp:386] inception_4e/relu_pool_proj -> inception_4e/pool_proj (in-place)
I0403 15:50:28.725399 12765 net.cpp:141] Setting up inception_4e/relu_pool_proj
I0403 15:50:28.725425 12765 net.cpp:148] Top shape: 24 128 14 14 (602112)
I0403 15:50:28.725440 12765 net.cpp:156] Memory required for data: 1256902176
I0403 15:50:28.725453 12765 layer_factory.hpp:77] Creating layer inception_4e/output
I0403 15:50:28.725473 12765 net.cpp:91] Creating Layer inception_4e/output
I0403 15:50:28.725491 12765 net.cpp:425] inception_4e/output <- inception_4e/1x1
I0403 15:50:28.725507 12765 net.cpp:425] inception_4e/output <- inception_4e/3x3
I0403 15:50:28.725522 12765 net.cpp:425] inception_4e/output <- inception_4e/5x5
I0403 15:50:28.725538 12765 net.cpp:425] inception_4e/output <- inception_4e/pool_proj
I0403 15:50:28.725553 12765 net.cpp:399] inception_4e/output -> inception_4e/output
I0403 15:50:28.725603 12765 net.cpp:141] Setting up inception_4e/output
I0403 15:50:28.725626 12765 net.cpp:148] Top shape: 24 832 14 14 (3913728)
I0403 15:50:28.725641 12765 net.cpp:156] Memory required for data: 1272557088
I0403 15:50:28.725654 12765 layer_factory.hpp:77] Creating layer pool4/3x3_s2
I0403 15:50:28.725671 12765 net.cpp:91] Creating Layer pool4/3x3_s2
I0403 15:50:28.725687 12765 net.cpp:425] pool4/3x3_s2 <- inception_4e/output
I0403 15:50:28.725706 12765 net.cpp:399] pool4/3x3_s2 -> pool4/3x3_s2
I0403 15:50:28.725774 12765 net.cpp:141] Setting up pool4/3x3_s2
I0403 15:50:28.725798 12765 net.cpp:148] Top shape: 24 832 7 7 (978432)
I0403 15:50:28.725813 12765 net.cpp:156] Memory required for data: 1276470816
I0403 15:50:28.725828 12765 layer_factory.hpp:77] Creating layer pool4/3x3_s2_pool4/3x3_s2_0_split
I0403 15:50:28.725844 12765 net.cpp:91] Creating Layer pool4/3x3_s2_pool4/3x3_s2_0_split
I0403 15:50:28.725862 12765 net.cpp:425] pool4/3x3_s2_pool4/3x3_s2_0_split <- pool4/3x3_s2
I0403 15:50:28.725878 12765 net.cpp:399] pool4/3x3_s2_pool4/3x3_s2_0_split -> pool4/3x3_s2_pool4/3x3_s2_0_split_0
I0403 15:50:28.725899 12765 net.cpp:399] pool4/3x3_s2_pool4/3x3_s2_0_split -> pool4/3x3_s2_pool4/3x3_s2_0_split_1
I0403 15:50:28.725922 12765 net.cpp:399] pool4/3x3_s2_pool4/3x3_s2_0_split -> pool4/3x3_s2_pool4/3x3_s2_0_split_2
I0403 15:50:28.725941 12765 net.cpp:399] pool4/3x3_s2_pool4/3x3_s2_0_split -> pool4/3x3_s2_pool4/3x3_s2_0_split_3
I0403 15:50:28.726032 12765 net.cpp:141] Setting up pool4/3x3_s2_pool4/3x3_s2_0_split
I0403 15:50:28.726054 12765 net.cpp:148] Top shape: 24 832 7 7 (978432)
I0403 15:50:28.726069 12765 net.cpp:148] Top shape: 24 832 7 7 (978432)
I0403 15:50:28.726084 12765 net.cpp:148] Top shape: 24 832 7 7 (978432)
I0403 15:50:28.726099 12765 net.cpp:148] Top shape: 24 832 7 7 (978432)
I0403 15:50:28.726111 12765 net.cpp:156] Memory required for data: 1292125728
I0403 15:50:28.726125 12765 layer_factory.hpp:77] Creating layer inception_5a/1x1
I0403 15:50:28.726148 12765 net.cpp:91] Creating Layer inception_5a/1x1
I0403 15:50:28.726164 12765 net.cpp:425] inception_5a/1x1 <- pool4/3x3_s2_pool4/3x3_s2_0_split_0
I0403 15:50:28.726186 12765 net.cpp:399] inception_5a/1x1 -> inception_5a/1x1
I0403 15:50:28.728966 12765 net.cpp:141] Setting up inception_5a/1x1
I0403 15:50:28.728996 12765 net.cpp:148] Top shape: 24 256 7 7 (301056)
I0403 15:50:28.729010 12765 net.cpp:156] Memory required for data: 1293329952
I0403 15:50:28.729028 12765 layer_factory.hpp:77] Creating layer inception_5a/relu_1x1
I0403 15:50:28.729048 12765 net.cpp:91] Creating Layer inception_5a/relu_1x1
I0403 15:50:28.729065 12765 net.cpp:425] inception_5a/relu_1x1 <- inception_5a/1x1
I0403 15:50:28.729082 12765 net.cpp:386] inception_5a/relu_1x1 -> inception_5a/1x1 (in-place)
I0403 15:50:28.729396 12765 net.cpp:141] Setting up inception_5a/relu_1x1
I0403 15:50:28.729421 12765 net.cpp:148] Top shape: 24 256 7 7 (301056)
I0403 15:50:28.729439 12765 net.cpp:156] Memory required for data: 1294534176
I0403 15:50:28.729454 12765 layer_factory.hpp:77] Creating layer inception_5a/3x3_reduce
I0403 15:50:28.729477 12765 net.cpp:91] Creating Layer inception_5a/3x3_reduce
I0403 15:50:28.729495 12765 net.cpp:425] inception_5a/3x3_reduce <- pool4/3x3_s2_pool4/3x3_s2_0_split_1
I0403 15:50:28.729512 12765 net.cpp:399] inception_5a/3x3_reduce -> inception_5a/3x3_reduce
I0403 15:50:28.731896 12765 net.cpp:141] Setting up inception_5a/3x3_reduce
I0403 15:50:28.731925 12765 net.cpp:148] Top shape: 24 160 7 7 (188160)
I0403 15:50:28.731940 12765 net.cpp:156] Memory required for data: 1295286816
I0403 15:50:28.731957 12765 layer_factory.hpp:77] Creating layer inception_5a/relu_3x3_reduce
I0403 15:50:28.731977 12765 net.cpp:91] Creating Layer inception_5a/relu_3x3_reduce
I0403 15:50:28.731994 12765 net.cpp:425] inception_5a/relu_3x3_reduce <- inception_5a/3x3_reduce
I0403 15:50:28.732012 12765 net.cpp:386] inception_5a/relu_3x3_reduce -> inception_5a/3x3_reduce (in-place)
I0403 15:50:28.732197 12765 net.cpp:141] Setting up inception_5a/relu_3x3_reduce
I0403 15:50:28.732220 12765 net.cpp:148] Top shape: 24 160 7 7 (188160)
I0403 15:50:28.732235 12765 net.cpp:156] Memory required for data: 1296039456
I0403 15:50:28.732250 12765 layer_factory.hpp:77] Creating layer inception_5a/3x3
I0403 15:50:28.732275 12765 net.cpp:91] Creating Layer inception_5a/3x3
I0403 15:50:28.732292 12765 net.cpp:425] inception_5a/3x3 <- inception_5a/3x3_reduce
I0403 15:50:28.732311 12765 net.cpp:399] inception_5a/3x3 -> inception_5a/3x3
I0403 15:50:28.737210 12765 net.cpp:141] Setting up inception_5a/3x3
I0403 15:50:28.737239 12765 net.cpp:148] Top shape: 24 320 7 7 (376320)
I0403 15:50:28.737257 12765 net.cpp:156] Memory required for data: 1297544736
I0403 15:50:28.737275 12765 layer_factory.hpp:77] Creating layer inception_5a/relu_3x3
I0403 15:50:28.737293 12765 net.cpp:91] Creating Layer inception_5a/relu_3x3
I0403 15:50:28.737308 12765 net.cpp:425] inception_5a/relu_3x3 <- inception_5a/3x3
I0403 15:50:28.737325 12765 net.cpp:386] inception_5a/relu_3x3 -> inception_5a/3x3 (in-place)
I0403 15:50:28.737618 12765 net.cpp:141] Setting up inception_5a/relu_3x3
I0403 15:50:28.737644 12765 net.cpp:148] Top shape: 24 320 7 7 (376320)
I0403 15:50:28.737663 12765 net.cpp:156] Memory required for data: 1299050016
I0403 15:50:28.737678 12765 layer_factory.hpp:77] Creating layer inception_5a/5x5_reduce
I0403 15:50:28.737697 12765 net.cpp:91] Creating Layer inception_5a/5x5_reduce
I0403 15:50:28.737714 12765 net.cpp:425] inception_5a/5x5_reduce <- pool4/3x3_s2_pool4/3x3_s2_0_split_2
I0403 15:50:28.737733 12765 net.cpp:399] inception_5a/5x5_reduce -> inception_5a/5x5_reduce
I0403 15:50:28.739105 12765 net.cpp:141] Setting up inception_5a/5x5_reduce
I0403 15:50:28.739142 12765 net.cpp:148] Top shape: 24 32 7 7 (37632)
I0403 15:50:28.739161 12765 net.cpp:156] Memory required for data: 1299200544
I0403 15:50:28.739181 12765 layer_factory.hpp:77] Creating layer inception_5a/relu_5x5_reduce
I0403 15:50:28.739199 12765 net.cpp:91] Creating Layer inception_5a/relu_5x5_reduce
I0403 15:50:28.739215 12765 net.cpp:425] inception_5a/relu_5x5_reduce <- inception_5a/5x5_reduce
I0403 15:50:28.739235 12765 net.cpp:386] inception_5a/relu_5x5_reduce -> inception_5a/5x5_reduce (in-place)
I0403 15:50:28.739564 12765 net.cpp:141] Setting up inception_5a/relu_5x5_reduce
I0403 15:50:28.739593 12765 net.cpp:148] Top shape: 24 32 7 7 (37632)
I0403 15:50:28.739609 12765 net.cpp:156] Memory required for data: 1299351072
I0403 15:50:28.739625 12765 layer_factory.hpp:77] Creating layer inception_5a/5x5
I0403 15:50:28.739648 12765 net.cpp:91] Creating Layer inception_5a/5x5
I0403 15:50:28.739665 12765 net.cpp:425] inception_5a/5x5 <- inception_5a/5x5_reduce
I0403 15:50:28.739686 12765 net.cpp:399] inception_5a/5x5 -> inception_5a/5x5
I0403 15:50:28.741435 12765 net.cpp:141] Setting up inception_5a/5x5
I0403 15:50:28.741477 12765 net.cpp:148] Top shape: 24 128 7 7 (150528)
I0403 15:50:28.741494 12765 net.cpp:156] Memory required for data: 1299953184
I0403 15:50:28.741513 12765 layer_factory.hpp:77] Creating layer inception_5a/relu_5x5
I0403 15:50:28.741539 12765 net.cpp:91] Creating Layer inception_5a/relu_5x5
I0403 15:50:28.741555 12765 net.cpp:425] inception_5a/relu_5x5 <- inception_5a/5x5
I0403 15:50:28.741574 12765 net.cpp:386] inception_5a/relu_5x5 -> inception_5a/5x5 (in-place)
I0403 15:50:28.741767 12765 net.cpp:141] Setting up inception_5a/relu_5x5
I0403 15:50:28.741796 12765 net.cpp:148] Top shape: 24 128 7 7 (150528)
I0403 15:50:28.741811 12765 net.cpp:156] Memory required for data: 1300555296
I0403 15:50:28.741825 12765 layer_factory.hpp:77] Creating layer inception_5a/pool
I0403 15:50:28.741842 12765 net.cpp:91] Creating Layer inception_5a/pool
I0403 15:50:28.741858 12765 net.cpp:425] inception_5a/pool <- pool4/3x3_s2_pool4/3x3_s2_0_split_3
I0403 15:50:28.741879 12765 net.cpp:399] inception_5a/pool -> inception_5a/pool
I0403 15:50:28.741950 12765 net.cpp:141] Setting up inception_5a/pool
I0403 15:50:28.741976 12765 net.cpp:148] Top shape: 24 832 7 7 (978432)
I0403 15:50:28.741991 12765 net.cpp:156] Memory required for data: 1304469024
I0403 15:50:28.742005 12765 layer_factory.hpp:77] Creating layer inception_5a/pool_proj
I0403 15:50:28.742025 12765 net.cpp:91] Creating Layer inception_5a/pool_proj
I0403 15:50:28.742044 12765 net.cpp:425] inception_5a/pool_proj <- inception_5a/pool
I0403 15:50:28.742079 12765 net.cpp:399] inception_5a/pool_proj -> inception_5a/pool_proj
I0403 15:50:28.744473 12765 net.cpp:141] Setting up inception_5a/pool_proj
I0403 15:50:28.744504 12765 net.cpp:148] Top shape: 24 128 7 7 (150528)
I0403 15:50:28.744521 12765 net.cpp:156] Memory required for data: 1305071136
I0403 15:50:28.744541 12765 layer_factory.hpp:77] Creating layer inception_5a/relu_pool_proj
I0403 15:50:28.744562 12765 net.cpp:91] Creating Layer inception_5a/relu_pool_proj
I0403 15:50:28.744581 12765 net.cpp:425] inception_5a/relu_pool_proj <- inception_5a/pool_proj
I0403 15:50:28.744599 12765 net.cpp:386] inception_5a/relu_pool_proj -> inception_5a/pool_proj (in-place)
I0403 15:50:28.744911 12765 net.cpp:141] Setting up inception_5a/relu_pool_proj
I0403 15:50:28.744940 12765 net.cpp:148] Top shape: 24 128 7 7 (150528)
I0403 15:50:28.744954 12765 net.cpp:156] Memory required for data: 1305673248
I0403 15:50:28.744971 12765 layer_factory.hpp:77] Creating layer inception_5a/output
I0403 15:50:28.744987 12765 net.cpp:91] Creating Layer inception_5a/output
I0403 15:50:28.745003 12765 net.cpp:425] inception_5a/output <- inception_5a/1x1
I0403 15:50:28.745023 12765 net.cpp:425] inception_5a/output <- inception_5a/3x3
I0403 15:50:28.745041 12765 net.cpp:425] inception_5a/output <- inception_5a/5x5
I0403 15:50:28.745059 12765 net.cpp:425] inception_5a/output <- inception_5a/pool_proj
I0403 15:50:28.745076 12765 net.cpp:399] inception_5a/output -> inception_5a/output
I0403 15:50:28.745131 12765 net.cpp:141] Setting up inception_5a/output
I0403 15:50:28.745154 12765 net.cpp:148] Top shape: 24 832 7 7 (978432)
I0403 15:50:28.745170 12765 net.cpp:156] Memory required for data: 1309586976
I0403 15:50:28.745185 12765 layer_factory.hpp:77] Creating layer inception_5a/output_inception_5a/output_0_split
I0403 15:50:28.745203 12765 net.cpp:91] Creating Layer inception_5a/output_inception_5a/output_0_split
I0403 15:50:28.745223 12765 net.cpp:425] inception_5a/output_inception_5a/output_0_split <- inception_5a/output
I0403 15:50:28.745244 12765 net.cpp:399] inception_5a/output_inception_5a/output_0_split -> inception_5a/output_inception_5a/output_0_split_0
I0403 15:50:28.745267 12765 net.cpp:399] inception_5a/output_inception_5a/output_0_split -> inception_5a/output_inception_5a/output_0_split_1
I0403 15:50:28.745288 12765 net.cpp:399] inception_5a/output_inception_5a/output_0_split -> inception_5a/output_inception_5a/output_0_split_2
I0403 15:50:28.745309 12765 net.cpp:399] inception_5a/output_inception_5a/output_0_split -> inception_5a/output_inception_5a/output_0_split_3
I0403 15:50:28.745435 12765 net.cpp:141] Setting up inception_5a/output_inception_5a/output_0_split
I0403 15:50:28.745463 12765 net.cpp:148] Top shape: 24 832 7 7 (978432)
I0403 15:50:28.745481 12765 net.cpp:148] Top shape: 24 832 7 7 (978432)
I0403 15:50:28.745501 12765 net.cpp:148] Top shape: 24 832 7 7 (978432)
I0403 15:50:28.745517 12765 net.cpp:148] Top shape: 24 832 7 7 (978432)
I0403 15:50:28.745532 12765 net.cpp:156] Memory required for data: 1325241888
I0403 15:50:28.745546 12765 layer_factory.hpp:77] Creating layer inception_5b/1x1
I0403 15:50:28.745569 12765 net.cpp:91] Creating Layer inception_5b/1x1
I0403 15:50:28.745589 12765 net.cpp:425] inception_5b/1x1 <- inception_5a/output_inception_5a/output_0_split_0
I0403 15:50:28.745607 12765 net.cpp:399] inception_5b/1x1 -> inception_5b/1x1
I0403 15:50:28.749531 12765 net.cpp:141] Setting up inception_5b/1x1
I0403 15:50:28.749562 12765 net.cpp:148] Top shape: 24 384 7 7 (451584)
I0403 15:50:28.749580 12765 net.cpp:156] Memory required for data: 1327048224
I0403 15:50:28.749599 12765 layer_factory.hpp:77] Creating layer inception_5b/relu_1x1
I0403 15:50:28.749621 12765 net.cpp:91] Creating Layer inception_5b/relu_1x1
I0403 15:50:28.749640 12765 net.cpp:425] inception_5b/relu_1x1 <- inception_5b/1x1
I0403 15:50:28.749658 12765 net.cpp:386] inception_5b/relu_1x1 -> inception_5b/1x1 (in-place)
I0403 15:50:28.749979 12765 net.cpp:141] Setting up inception_5b/relu_1x1
I0403 15:50:28.750005 12765 net.cpp:148] Top shape: 24 384 7 7 (451584)
I0403 15:50:28.750021 12765 net.cpp:156] Memory required for data: 1328854560
I0403 15:50:28.750036 12765 layer_factory.hpp:77] Creating layer inception_5b/3x3_reduce
I0403 15:50:28.750061 12765 net.cpp:91] Creating Layer inception_5b/3x3_reduce
I0403 15:50:28.750078 12765 net.cpp:425] inception_5b/3x3_reduce <- inception_5a/output_inception_5a/output_0_split_1
I0403 15:50:28.750102 12765 net.cpp:399] inception_5b/3x3_reduce -> inception_5b/3x3_reduce
I0403 15:50:28.752897 12765 net.cpp:141] Setting up inception_5b/3x3_reduce
I0403 15:50:28.752928 12765 net.cpp:148] Top shape: 24 192 7 7 (225792)
I0403 15:50:28.752944 12765 net.cpp:156] Memory required for data: 1329757728
I0403 15:50:28.752962 12765 layer_factory.hpp:77] Creating layer inception_5b/relu_3x3_reduce
I0403 15:50:28.752985 12765 net.cpp:91] Creating Layer inception_5b/relu_3x3_reduce
I0403 15:50:28.753001 12765 net.cpp:425] inception_5b/relu_3x3_reduce <- inception_5b/3x3_reduce
I0403 15:50:28.753020 12765 net.cpp:386] inception_5b/relu_3x3_reduce -> inception_5b/3x3_reduce (in-place)
I0403 15:50:28.753219 12765 net.cpp:141] Setting up inception_5b/relu_3x3_reduce
I0403 15:50:28.753248 12765 net.cpp:148] Top shape: 24 192 7 7 (225792)
I0403 15:50:28.753264 12765 net.cpp:156] Memory required for data: 1330660896
I0403 15:50:28.753280 12765 layer_factory.hpp:77] Creating layer inception_5b/3x3
I0403 15:50:28.753304 12765 net.cpp:91] Creating Layer inception_5b/3x3
I0403 15:50:28.753334 12765 net.cpp:425] inception_5b/3x3 <- inception_5b/3x3_reduce
I0403 15:50:28.753356 12765 net.cpp:399] inception_5b/3x3 -> inception_5b/3x3
I0403 15:50:28.760385 12765 net.cpp:141] Setting up inception_5b/3x3
I0403 15:50:28.760416 12765 net.cpp:148] Top shape: 24 384 7 7 (451584)
I0403 15:50:28.760433 12765 net.cpp:156] Memory required for data: 1332467232
I0403 15:50:28.760452 12765 layer_factory.hpp:77] Creating layer inception_5b/relu_3x3
I0403 15:50:28.760474 12765 net.cpp:91] Creating Layer inception_5b/relu_3x3
I0403 15:50:28.760493 12765 net.cpp:425] inception_5b/relu_3x3 <- inception_5b/3x3
I0403 15:50:28.760510 12765 net.cpp:386] inception_5b/relu_3x3 -> inception_5b/3x3 (in-place)
I0403 15:50:28.760823 12765 net.cpp:141] Setting up inception_5b/relu_3x3
I0403 15:50:28.760850 12765 net.cpp:148] Top shape: 24 384 7 7 (451584)
I0403 15:50:28.760866 12765 net.cpp:156] Memory required for data: 1334273568
I0403 15:50:28.760881 12765 layer_factory.hpp:77] Creating layer inception_5b/5x5_reduce
I0403 15:50:28.760921 12765 net.cpp:91] Creating Layer inception_5b/5x5_reduce
I0403 15:50:28.760941 12765 net.cpp:425] inception_5b/5x5_reduce <- inception_5a/output_inception_5a/output_0_split_2
I0403 15:50:28.760965 12765 net.cpp:399] inception_5b/5x5_reduce -> inception_5b/5x5_reduce
I0403 15:50:28.762296 12765 net.cpp:141] Setting up inception_5b/5x5_reduce
I0403 15:50:28.762329 12765 net.cpp:148] Top shape: 24 48 7 7 (56448)
I0403 15:50:28.762347 12765 net.cpp:156] Memory required for data: 1334499360
I0403 15:50:28.762367 12765 layer_factory.hpp:77] Creating layer inception_5b/relu_5x5_reduce
I0403 15:50:28.762387 12765 net.cpp:91] Creating Layer inception_5b/relu_5x5_reduce
I0403 15:50:28.762406 12765 net.cpp:425] inception_5b/relu_5x5_reduce <- inception_5b/5x5_reduce
I0403 15:50:28.762424 12765 net.cpp:386] inception_5b/relu_5x5_reduce -> inception_5b/5x5_reduce (in-place)
I0403 15:50:28.762816 12765 net.cpp:141] Setting up inception_5b/relu_5x5_reduce
I0403 15:50:28.762845 12765 net.cpp:148] Top shape: 24 48 7 7 (56448)
I0403 15:50:28.762861 12765 net.cpp:156] Memory required for data: 1334725152
I0403 15:50:28.762876 12765 layer_factory.hpp:77] Creating layer inception_5b/5x5
I0403 15:50:28.762897 12765 net.cpp:91] Creating Layer inception_5b/5x5
I0403 15:50:28.762914 12765 net.cpp:425] inception_5b/5x5 <- inception_5b/5x5_reduce
I0403 15:50:28.762933 12765 net.cpp:399] inception_5b/5x5 -> inception_5b/5x5
I0403 15:50:28.765086 12765 net.cpp:141] Setting up inception_5b/5x5
I0403 15:50:28.765116 12765 net.cpp:148] Top shape: 24 128 7 7 (150528)
I0403 15:50:28.765132 12765 net.cpp:156] Memory required for data: 1335327264
I0403 15:50:28.765151 12765 layer_factory.hpp:77] Creating layer inception_5b/relu_5x5
I0403 15:50:28.765177 12765 net.cpp:91] Creating Layer inception_5b/relu_5x5
I0403 15:50:28.765195 12765 net.cpp:425] inception_5b/relu_5x5 <- inception_5b/5x5
I0403 15:50:28.765213 12765 net.cpp:386] inception_5b/relu_5x5 -> inception_5b/5x5 (in-place)
I0403 15:50:28.765424 12765 net.cpp:141] Setting up inception_5b/relu_5x5
I0403 15:50:28.765451 12765 net.cpp:148] Top shape: 24 128 7 7 (150528)
I0403 15:50:28.765466 12765 net.cpp:156] Memory required for data: 1335929376
I0403 15:50:28.765481 12765 layer_factory.hpp:77] Creating layer inception_5b/pool
I0403 15:50:28.765501 12765 net.cpp:91] Creating Layer inception_5b/pool
I0403 15:50:28.765517 12765 net.cpp:425] inception_5b/pool <- inception_5a/output_inception_5a/output_0_split_3
I0403 15:50:28.765539 12765 net.cpp:399] inception_5b/pool -> inception_5b/pool
I0403 15:50:28.765616 12765 net.cpp:141] Setting up inception_5b/pool
I0403 15:50:28.765640 12765 net.cpp:148] Top shape: 24 832 7 7 (978432)
I0403 15:50:28.765658 12765 net.cpp:156] Memory required for data: 1339843104
I0403 15:50:28.765673 12765 layer_factory.hpp:77] Creating layer inception_5b/pool_proj
I0403 15:50:28.765698 12765 net.cpp:91] Creating Layer inception_5b/pool_proj
I0403 15:50:28.765717 12765 net.cpp:425] inception_5b/pool_proj <- inception_5b/pool
I0403 15:50:28.765735 12765 net.cpp:399] inception_5b/pool_proj -> inception_5b/pool_proj
I0403 15:50:28.768153 12765 net.cpp:141] Setting up inception_5b/pool_proj
I0403 15:50:28.768184 12765 net.cpp:148] Top shape: 24 128 7 7 (150528)
I0403 15:50:28.768200 12765 net.cpp:156] Memory required for data: 1340445216
I0403 15:50:28.768219 12765 layer_factory.hpp:77] Creating layer inception_5b/relu_pool_proj
I0403 15:50:28.768240 12765 net.cpp:91] Creating Layer inception_5b/relu_pool_proj
I0403 15:50:28.768259 12765 net.cpp:425] inception_5b/relu_pool_proj <- inception_5b/pool_proj
I0403 15:50:28.768276 12765 net.cpp:386] inception_5b/relu_pool_proj -> inception_5b/pool_proj (in-place)
I0403 15:50:28.768594 12765 net.cpp:141] Setting up inception_5b/relu_pool_proj
I0403 15:50:28.768622 12765 net.cpp:148] Top shape: 24 128 7 7 (150528)
I0403 15:50:28.768638 12765 net.cpp:156] Memory required for data: 1341047328
I0403 15:50:28.768653 12765 layer_factory.hpp:77] Creating layer inception_5b/output
I0403 15:50:28.768673 12765 net.cpp:91] Creating Layer inception_5b/output
I0403 15:50:28.768704 12765 net.cpp:425] inception_5b/output <- inception_5b/1x1
I0403 15:50:28.768723 12765 net.cpp:425] inception_5b/output <- inception_5b/3x3
I0403 15:50:28.768740 12765 net.cpp:425] inception_5b/output <- inception_5b/5x5
I0403 15:50:28.768757 12765 net.cpp:425] inception_5b/output <- inception_5b/pool_proj
I0403 15:50:28.768775 12765 net.cpp:399] inception_5b/output -> inception_5b/output
I0403 15:50:28.768831 12765 net.cpp:141] Setting up inception_5b/output
I0403 15:50:28.768856 12765 net.cpp:148] Top shape: 24 1024 7 7 (1204224)
I0403 15:50:28.768870 12765 net.cpp:156] Memory required for data: 1345864224
I0403 15:50:28.768887 12765 layer_factory.hpp:77] Creating layer pool5/7x7_s1
I0403 15:50:28.768904 12765 net.cpp:91] Creating Layer pool5/7x7_s1
I0403 15:50:28.768921 12765 net.cpp:425] pool5/7x7_s1 <- inception_5b/output
I0403 15:50:28.768942 12765 net.cpp:399] pool5/7x7_s1 -> pool5/7x7_s1
I0403 15:50:28.769171 12765 net.cpp:141] Setting up pool5/7x7_s1
I0403 15:50:28.769201 12765 net.cpp:148] Top shape: 24 1024 1 1 (24576)
I0403 15:50:28.769217 12765 net.cpp:156] Memory required for data: 1345962528
I0403 15:50:28.769233 12765 layer_factory.hpp:77] Creating layer pool5/drop_7x7_s1
I0403 15:50:28.769253 12765 net.cpp:91] Creating Layer pool5/drop_7x7_s1
I0403 15:50:28.769268 12765 net.cpp:425] pool5/drop_7x7_s1 <- pool5/7x7_s1
I0403 15:50:28.769286 12765 net.cpp:386] pool5/drop_7x7_s1 -> pool5/7x7_s1 (in-place)
I0403 15:50:28.769343 12765 net.cpp:141] Setting up pool5/drop_7x7_s1
I0403 15:50:28.769368 12765 net.cpp:148] Top shape: 24 1024 1 1 (24576)
I0403 15:50:28.769383 12765 net.cpp:156] Memory required for data: 1346060832
I0403 15:50:28.769398 12765 layer_factory.hpp:77] Creating layer loss3/classifier_plantvillage
I0403 15:50:28.769420 12765 net.cpp:91] Creating Layer loss3/classifier_plantvillage
I0403 15:50:28.769438 12765 net.cpp:425] loss3/classifier_plantvillage <- pool5/7x7_s1
I0403 15:50:28.769456 12765 net.cpp:399] loss3/classifier_plantvillage -> loss3/classifier_plantvillage
I0403 15:50:28.769901 12765 net.cpp:141] Setting up loss3/classifier_plantvillage
I0403 15:50:28.769925 12765 net.cpp:148] Top shape: 24 38 (912)
I0403 15:50:28.769942 12765 net.cpp:156] Memory required for data: 1346064480
I0403 15:50:28.769960 12765 layer_factory.hpp:77] Creating layer loss3/classifier_plantvillage_loss3/classifier_plantvillage_0_split
I0403 15:50:28.769979 12765 net.cpp:91] Creating Layer loss3/classifier_plantvillage_loss3/classifier_plantvillage_0_split
I0403 15:50:28.769999 12765 net.cpp:425] loss3/classifier_plantvillage_loss3/classifier_plantvillage_0_split <- loss3/classifier_plantvillage
I0403 15:50:28.770020 12765 net.cpp:399] loss3/classifier_plantvillage_loss3/classifier_plantvillage_0_split -> loss3/classifier_plantvillage_loss3/classifier_plantvillage_0_split_0
I0403 15:50:28.770043 12765 net.cpp:399] loss3/classifier_plantvillage_loss3/classifier_plantvillage_0_split -> loss3/classifier_plantvillage_loss3/classifier_plantvillage_0_split_1
I0403 15:50:28.770063 12765 net.cpp:399] loss3/classifier_plantvillage_loss3/classifier_plantvillage_0_split -> loss3/classifier_plantvillage_loss3/classifier_plantvillage_0_split_2
I0403 15:50:28.770084 12765 net.cpp:399] loss3/classifier_plantvillage_loss3/classifier_plantvillage_0_split -> loss3/classifier_plantvillage_loss3/classifier_plantvillage_0_split_3
I0403 15:50:28.770193 12765 net.cpp:141] Setting up loss3/classifier_plantvillage_loss3/classifier_plantvillage_0_split
I0403 15:50:28.770220 12765 net.cpp:148] Top shape: 24 38 (912)
I0403 15:50:28.770238 12765 net.cpp:148] Top shape: 24 38 (912)
I0403 15:50:28.770254 12765 net.cpp:148] Top shape: 24 38 (912)
I0403 15:50:28.770269 12765 net.cpp:148] Top shape: 24 38 (912)
I0403 15:50:28.770283 12765 net.cpp:156] Memory required for data: 1346079072
I0403 15:50:28.770298 12765 layer_factory.hpp:77] Creating layer loss1/loss
I0403 15:50:28.770326 12765 net.cpp:91] Creating Layer loss1/loss
I0403 15:50:28.770347 12765 net.cpp:425] loss1/loss <- loss1/classifier_plantvillage_loss1/classifier_plantvillage_0_split_0
I0403 15:50:28.770390 12765 net.cpp:425] loss1/loss <- label_data_1_split_0
…
