…
I0403 15:07:41.409682 11621 net.cpp:313] The NetState phase (1) differed from the phase (0) specified by a rule in layer data
I0403 15:07:41.410846 11621 net.cpp:49] Initializing net from parameters: 
state {
  phase: TEST
}
layer {
  name: "data"
  type: "Data"
  top: "data"
  top: "label"
  include {
    phase: TEST
  }
  transform_param {
    mirror: false
    crop_size: 224
    mean_file: "/home/mohanty/data/final_dataset/lmdb/segmented-40-60/mean.binaryproto"
  }
  data_param {
    source: "/home/mohanty/data/final_dataset/lmdb/segmented-40-60/test_db"
    batch_size: 24
    backend: LMDB
  }
}
layer {
  name: "conv1/7x7_s2"
  type: "Convolution"
  bottom: "data"
  top: "conv1/7x7_s2"
  param {
    lr_mult: 1
    decay_mult: 1
  }
  param {
    lr_mult: 2
    decay_mult: 0
  }
  convolution_param {
    num_output: 64
    pad: 3
    kernel_size: 7
    stride: 2
    weight_filler {
      type: "xavier"
      std: 0.1
    }
    bias_filler {
      type: "constant"
      value: 0.2
    }
  }
}
layer {
  name: "conv1/relu_7x7"
  type: "ReLU"
  bottom: "conv1/7x7_s2"
  top: "conv1/7x7_s2"
}
layer {
  name: "pool1/3x3_s2"
  type: "Pooling"
  bottom: "conv1/7x7_s2"
  top: "pool1/3x3_s2"
  pooling_param {
    pool: MAX
    kernel_size: 3
    stride: 2
  }
}
layer {
  name: "pool1/norm1"
  type: "LRN"
  bottom: "pool1/3x3_s2"
  top: "pool1/norm1"
  lrn_param {
    local_size: 5
    alpha: 0.0001
    beta: 0.75
  }
}
layer {
  name: "conv2/3x3_reduce"
  type: "Convolution"
  bottom: "pool1/norm1"
  top: "conv2/3x3_reduce"
  param {
    lr_mult: 1
    decay_mult: 1
  }
  param {
    lr_mult: 2
    decay_mult: 0
  }
  convolution_param {
    num_output: 64
    kernel_size: 1
    weight_filler {
      type: "xavier"
      std: 0.1
    }
    bias_filler {
      type: "constant"
      value: 0.2
    }
  }
}
layer {
  name: "conv2/relu_3x3_reduce"
  type: "ReLU"
  bottom: "conv2/3x3_reduce"
  top: "conv2/3x3_reduce"
}
layer {
  name: "conv2/3x3"
  type: "Convolution"
  bottom: "conv2/3x3_reduce"
  top: "conv2/3x3"
  param {
    lr_mult: 1
    decay_mult: 1
  }
  param {
    lr_mult: 2
    decay_mult: 0
  }
  convolution_param {
    num_output: 192
    pad: 1
    kernel_size: 3
    weight_filler {
      type: "xavier"
      std: 0.03
    }
    bias_filler {
      type: "constant"
      value: 0.2
    }
  }
}
layer {
  name: "conv2/relu_3x3"
  type: "ReLU"
  bottom: "conv2/3x3"
  top: "conv2/3x3"
}
layer {
  name: "conv2/norm2"
  type: "LRN"
  bottom: "conv2/3x3"
  top: "conv2/norm2"
  lrn_param {
    local_size: 5
    alpha: 0.0001
    beta: 0.75
  }
}
layer {
  name: "pool2/3x3_s2"
  type: "Pooling"
  bottom: "conv2/norm2"
  top: "pool2/3x3_s2"
  pooling_param {
    pool: MAX
    kernel_size: 3
    stride: 2
  }
}
layer {
  name: "inception_3a/1x1"
  type: "Convolution"
  bottom: "pool2/3x3_s2"
  top: "inception_3a/1x1"
  param {
    lr_mult: 1
    decay_mult: 1
  }
  param {
    lr_mult: 2
    decay_mult: 0
  }
  convolution_param {
    num_output: 64
    kernel_size: 1
    weight_filler {
      type: "xavier"
      std: 0.03
    }
    bias_filler {
      type: "constant"
      value: 0.2
    }
  }
}
layer {
  name: "inception_3a/relu_1x1"
  type: "ReLU"
  bottom: "inception_3a/1x1"
  top: "inception_3a/1x1"
}
layer {
  name: "inception_3a/3x3_reduce"
  type: "Convolution"
  bottom: "pool2/3x3_s2"
  top: "inception_3a/3x3_reduce"
  param {
    lr_mult: 1
    decay_mult: 1
  }
  param {
    lr_mult: 2
    decay_mult: 0
  }
  convolution_param {
    num_output: 96
    kernel_size: 1
    weight_filler {
      type: "xavier"
      std: 0.09
    }
    bias_filler {
      type: "constant"
      value: 0.2
    }
  }
}
layer {
  name: "inception_3a/relu_3x3_reduce"
  type: "ReLU"
  bottom: "inception_3a/3x3_reduce"
  top: "inception_3a/3x3_reduce"
}
layer {
  name: "inception_3a/3x3"
  type: "Convolution"
  bottom: "inception_3a/3x3_reduce"
  top: "inception_3a/3x3"
  param {
    lr_mult: 1
    decay_mult: 1
  }
  param {
    lr_mult: 2
    decay_mult: 0
  }
  convolution_param {
    num_output: 128
    pad: 1
    kernel_size: 3
    weight_filler {
      type: "xavier"
      std: 0.03
    }
    bias_filler {
      type: "constant"
      value: 0.2
    }
  }
}
layer {
  name: "inception_3a/relu_3x3"
  type: "ReLU"
  bottom: "inception_3a/3x3"
  top: "inception_3a/3x3"
}
layer {
  name: "inception_3a/5x5_reduce"
  type: "Convolution"
  bottom: "pool2/3x3_s2"
  top: "inception_3a/5x5_reduce"
  param {
    lr_mult: 1
    decay_mult: 1
  }
  param {
    lr_mult: 2
    decay_mult: 0
  }
  convolution_param {
    num_output: 16
    kernel_size: 1
    weight_filler {
      type: "xavier"
      std: 0.2
    }
    bias_filler {
      type: "constant"
      value: 0.2
    }
  }
}
layer {
  name: "inception_3a/relu_5x5_reduce"
  type: "ReLU"
  bottom: "inception_3a/5x5_reduce"
  top: "inception_3a/5x5_reduce"
}
layer {
  name: "inception_3a/5x5"
  type: "Convolution"
  bottom: "inception_3a/5x5_reduce"
  top: "inception_3a/5x5"
  param {
    lr_mult: 1
    decay_mult: 1
  }
  param {
    lr_mult: 2
    decay_mult: 0
  }
  convolution_param {
    num_output: 32
    pad: 2
    kernel_size: 5
    weight_filler {
      type: "xavier"
      std: 0.03
    }
    bias_filler {
      type: "constant"
      value: 0.2
    }
  }
}
layer {
  name: "inception_3a/relu_5x5"
  type: "ReLU"
  bottom: "inception_3a/5x5"
  top: "inception_3a/5x5"
}
layer {
  name: "inception_3a/pool"
  type: "Pooling"
  bottom: "pool2/3x3_s2"
  top: "inception_3a/pool"
  pooling_param {
    pool: MAX
    kernel_size: 3
    stride: 1
    pad: 1
  }
}
layer {
  name: "inception_3a/pool_proj"
  type: "Convolution"
  bottom: "inception_3a/pool"
  top: "inception_3a/pool_proj"
  param {
    lr_mult: 1
    decay_mult: 1
  }
  param {
    lr_mult: 2
    decay_mult: 0
  }
  convolution_param {
    num_output: 32
    kernel_size: 1
    weight_filler {
      type: "xavier"
      std: 0.1
    }
    bias_filler {
      type: "constant"
      value: 0.2
    }
  }
}
layer {
  name: "inception_3a/relu_pool_proj"
  type: "ReLU"
  bottom: "inception_3a/pool_proj"
  top: "inception_3a/pool_proj"
}
layer {
  name: "inception_3a/output"
  type: "Concat"
  bottom: "inception_3a/1x1"
  bottom: "inception_3a/3x3"
  bottom: "inception_3a/5x5"
  bottom: "inception_3a/pool_proj"
  top: "inception_3a/output"
}
layer {
  name: "inception_3b/1x1"
  type: "Convolution"
  bottom: "inception_3a/output"
  top: "inception_3b/1x1"
  param {
    lr_mult: 1
    decay_mult: 1
  }
  param {
    lr_mult: 2
    decay_mult: 0
  }
  convolution_param {
    num_output: 128
    kernel_size: 1
    weight_filler {
      type: "xavier"
      std: 0.03
    }
    bias_filler {
      type: "constant"
      value: 0.2
    }
  }
}
layer {
  name: "inception_3b/relu_1x1"
  type: "ReLU"
  bottom: "inception_3b/1x1"
  top: "inception_3b/1x1"
}
layer {
  name: "inception_3b/3x3_reduce"
  type: "Convolution"
  bottom: "inception_3a/output"
  top: "inception_3b/3x3_reduce"
  param {
    lr_mult: 1
    decay_mult: 1
  }
  param {
    lr_mult: 2
    decay_mult: 0
  }
  convolution_param {
    num_output: 128
    kernel_size: 1
    weight_filler {
      type: "xavier"
      std: 0.09
    }
    bias_filler {
      type: "constant"
      value: 0.2
    }
  }
}
layer {
  name: "inception_3b/relu_3x3_reduce"
  type: "ReLU"
  bottom: "inception_3b/3x3_reduce"
  top: "inception_3b/3x3_reduce"
}
layer {
  name: "inception_3b/3x3"
  type: "Convolution"
  bottom: "inception_3b/3x3_reduce"
  top: "inception_3b/3x3"
  param {
    lr_mult: 1
    decay_mult: 1
  }
  param {
    lr_mult: 2
    decay_mult: 0
  }
  convolution_param {
    num_output: 192
    pad: 1
    kernel_size: 3
    weight_filler {
      type: "xavier"
      std: 0.03
    }
    bias_filler {
      type: "constant"
      value: 0.2
    }
  }
}
layer {
  name: "inception_3b/relu_3x3"
  type: "ReLU"
  bottom: "inception_3b/3x3"
  top: "inception_3b/3x3"
}
layer {
  name: "inception_3b/5x5_reduce"
  type: "Convolution"
  bottom: "inception_3a/output"
  top: "inception_3b/5x5_reduce"
  param {
    lr_mult: 1
    decay_mult: 1
  }
  param {
    lr_mult: 2
    decay_mult: 0
  }
  convolution_param {
    num_output: 32
    kernel_size: 1
    weight_filler {
      type: "xavier"
      std: 0.2
    }
    bias_filler {
      type: "constant"
      value: 0.2
    }
  }
}
layer {
  name: "inception_3b/relu_5x5_reduce"
  type: "ReLU"
  bottom: "inception_3b/5x5_reduce"
  top: "inception_3b/5x5_reduce"
}
layer {
  name: "inception_3b/5x5"
  type: "Convolution"
  bottom: "inception_3b/5x5_reduce"
  top: "inception_3b/5x5"
  param {
    lr_mult: 1
    decay_mult: 1
  }
  param {
    lr_mult: 2
    decay_mult: 0
  }
  convolution_param {
    num_output: 96
    pad: 2
    kernel_size: 5
    weight_filler {
      type: "xavier"
      std: 0.03
    }
    bias_filler {
      type: "constant"
      value: 0.2
    }
  }
}
layer {
  name: "inception_3b/relu_5x5"
  type: "ReLU"
  bottom: "inception_3b/5x5"
  top: "inception_3b/5x5"
}
layer {
  name: "inception_3b/pool"
  type: "Pooling"
  bottom: "inception_3a/output"
  top: "inception_3b/pool"
  pooling_param {
    pool: MAX
    kernel_size: 3
    stride: 1
    pad: 1
  }
}
layer {
  name: "inception_3b/pool_proj"
  type: "Convolution"
  bottom: "inception_3b/pool"
  top: "inception_3b/pool_proj"
  param {
    lr_mult: 1
    decay_mult: 1
  }
  param {
    lr_mult: 2
    decay_mult: 0
  }
  convolution_param {
    num_output: 64
    kernel_size: 1
    weight_filler {
      type: "xavier"
      std: 0.1
    }
    bias_filler {
      type: "constant"
      value: 0.2
    }
  }
}
layer {
  name: "inception_3b/relu_pool_proj"
  type: "ReLU"
  bottom: "inception_3b/pool_proj"
  top: "inception_3b/pool_proj"
}
layer {
  name: "inception_3b/output"
  type: "Concat"
  bottom: "inception_3b/1x1"
  bottom: "inception_3b/3x3"
  bottom: "inception_3b/5x5"
  bottom: "inception_3b/pool_proj"
  top: "inception_3b/output"
}
layer {
  name: "pool3/3x3_s2"
  type: "Pooling"
  bottom: "inception_3b/output"
  top: "pool3/3x3_s2"
  pooling_param {
    pool: MAX
    kernel_size: 3
    stride: 2
  }
}
layer {
  name: "inception_4a/1x1"
  type: "Convolution"
  bottom: "pool3/3x3_s2"
  top: "inception_4a/1x1"
  param {
    lr_mult: 1
    decay_mult: 1
  }
  param {
    lr_mult: 2
    decay_mult: 0
  }
  convolution_param {
    num_output: 192
    kernel_size: 1
    weight_filler {
      type: "xavier"
      std: 0.03
    }
    bias_filler {
      type: "constant"
      value: 0.2
    }
  }
}
layer {
  name: "inception_4a/relu_1x1"
  type: "ReLU"
  bottom: "inception_4a/1x1"
  top: "inception_4a/1x1"
}
layer {
  name: "inception_4a/3x3_reduce"
  type: "Convolution"
  bottom: "pool3/3x3_s2"
  top: "inception_4a/3x3_reduce"
  param {
    lr_mult: 1
    decay_mult: 1
  }
  param {
    lr_mult: 2
    decay_mult: 0
  }
  convolution_param {
    num_output: 96
    kernel_size: 1
    weight_filler {
      type: "xavier"
      std: 0.09
    }
    bias_filler {
      type: "constant"
      value: 0.2
    }
  }
}
layer {
  name: "inception_4a/relu_3x3_reduce"
  type: "ReLU"
  bottom: "inception_4a/3x3_reduce"
  top: "inception_4a/3x3_reduce"
}
layer {
  name: "inception_4a/3x3"
  type: "Convolution"
  bottom: "inception_4a/3x3_reduce"
  top: "inception_4a/3x3"
  param {
    lr_mult: 1
    decay_mult: 1
  }
  param {
    lr_mult: 2
    decay_mult: 0
  }
  convolution_param {
    num_output: 208
    pad: 1
    kernel_size: 3
    weight_filler {
      type: "xavier"
      std: 0.03
    }
    bias_filler {
      type: "constant"
      value: 0.2
    }
  }
}
layer {
  name: "inception_4a/relu_3x3"
  type: "ReLU"
  bottom: "inception_4a/3x3"
  top: "inception_4a/3x3"
}
layer {
  name: "inception_4a/5x5_reduce"
  type: "Convolution"
  bottom: "pool3/3x3_s2"
  top: "inception_4a/5x5_reduce"
  param {
    lr_mult: 1
    decay_mult: 1
  }
  param {
    lr_mult: 2
    decay_mult: 0
  }
  convolution_param {
    num_output: 16
    kernel_size: 1
    weight_filler {
      type: "xavier"
      std: 0.2
    }
    bias_filler {
      type: "constant"
      value: 0.2
    }
  }
}
layer {
  name: "inception_4a/relu_5x5_reduce"
  type: "ReLU"
  bottom: "inception_4a/5x5_reduce"
  top: "inception_4a/5x5_reduce"
}
layer {
  name: "inception_4a/5x5"
  type: "Convolution"
  bottom: "inception_4a/5x5_reduce"
  top: "inception_4a/5x5"
  param {
    lr_mult: 1
    decay_mult: 1
  }
  param {
    lr_mult: 2
    decay_mult: 0
  }
  convolution_param {
    num_output: 48
    pad: 2
    kernel_size: 5
    weight_filler {
      type: "xavier"
      std: 0.03
    }
    bias_filler {
      type: "constant"
      value: 0.2
    }
  }
}
layer {
  name: "inception_4a/relu_5x5"
  type: "ReLU"
  bottom: "inception_4a/5x5"
  top: "inception_4a/5x5"
}
layer {
  name: "inception_4a/pool"
  type: "Pooling"
  bottom: "pool3/3x3_s2"
  top: "inception_4a/pool"
  pooling_param {
    pool: MAX
    kernel_size: 3
    stride: 1
    pad: 1
  }
}
layer {
  name: "inception_4a/pool_proj"
  type: "Convolution"
  bottom: "inception_4a/pool"
  top: "inception_4a/pool_proj"
  param {
    lr_mult: 1
    decay_mult: 1
  }
  param {
    lr_mult: 2
    decay_mult: 0
  }
  convolution_param {
    num_output: 64
    kernel_size: 1
    weight_filler {
      type: "xavier"
      std: 0.1
    }
    bias_filler {
      type: "constant"
      value: 0.2
    }
  }
}
layer {
  name: "inception_4a/relu_pool_proj"
  type: "ReLU"
  bottom: "inception_4a/pool_proj"
  top: "inception_4a/pool_proj"
}
layer {
  name: "inception_4a/output"
  type: "Concat"
  bottom: "inception_4a/1x1"
  bottom: "inception_4a/3x3"
  bottom: "inception_4a/5x5"
  bottom: "inception_4a/pool_proj"
  top: "inception_4a/output"
}
layer {
  name: "loss1/ave_pool"
  type: "Pooling"
  bottom: "inception_4a/output"
  top: "loss1/ave_pool"
  pooling_param {
    pool: AVE
    kernel_size: 5
    stride: 3
  }
}
layer {
  name: "loss1/conv"
  type: "Convolution"
  bottom: "loss1/ave_pool"
  top: "loss1/conv"
  param {
    lr_mult: 1
    decay_mult: 1
  }
  param {
    lr_mult: 2
    decay_mult: 0
  }
  convolution_param {
    num_output: 128
    kernel_size: 1
    weight_filler {
      type: "xavier"
      std: 0.08
    }
    bias_filler {
      type: "constant"
      value: 0.2
    }
  }
}
layer {
  name: "loss1/relu_conv"
  type: "ReLU"
  bottom: "loss1/conv"
  top: "loss1/conv"
}
layer {
  name: "loss1/fc"
  type: "InnerProduct"
  bottom: "loss1/conv"
  top: "loss1/fc"
  param {
    lr_mult: 1
    decay_mult: 1
  }
  param {
    lr_mult: 2
    decay_mult: 0
  }
  inner_product_param {
    num_output: 1024
    weight_filler {
      type: "xavier"
      std: 0.02
    }
    bias_filler {
      type: "constant"
      value: 0.2
    }
  }
}
layer {
  name: "loss1/relu_fc"
  type: "ReLU"
  bottom: "loss1/fc"
  top: "loss1/fc"
}
layer {
  name: "loss1/drop_fc"
  type: "Dropout"
  bottom: "loss1/fc"
  top: "loss1/fc"
  dropout_param {
    dropout_ratio: 0.7
  }
}
layer {
  name: "loss1/classifier_plantvillage"
  type: "InnerProduct"
  bottom: "loss1/fc"
  top: "loss1/classifier_plantvillage"
  param {
    lr_mult: 1
    decay_mult: 1
  }
  param {
    lr_mult: 2
    decay_mult: 0
  }
  inner_product_param {
    num_output: 38
    weight_filler {
      type: "xavier"
      std: 0.0009765625
    }
    bias_filler {
      type: "constant"
      value: 0
    }
  }
}
layer {
  name: "inception_4b/1x1"
  type: "Convolution"
  bottom: "inception_4a/output"
  top: "inception_4b/1x1"
  param {
    lr_mult: 1
    decay_mult: 1
  }
  param {
    lr_mult: 2
    decay_mult: 0
  }
  convolution_param {
    num_output: 160
    kernel_size: 1
    weight_filler {
      type: "xavier"
      std: 0.03
    }
    bias_filler {
      type: "constant"
      value: 0.2
    }
  }
}
layer {
  name: "inception_4b/relu_1x1"
  type: "ReLU"
  bottom: "inception_4b/1x1"
  top: "inception_4b/1x1"
}
layer {
  name: "inception_4b/3x3_reduce"
  type: "Convolution"
  bottom: "inception_4a/output"
  top: "inception_4b/3x3_reduce"
  param {
    lr_mult: 1
    decay_mult: 1
  }
  param {
    lr_mult: 2
    decay_mult: 0
  }
  convolution_param {
    num_output: 112
    kernel_size: 1
    weight_filler {
      type: "xavier"
      std: 0.09
    }
    bias_filler {
      type: "constant"
      value: 0.2
    }
  }
}
layer {
  name: "inception_4b/relu_3x3_reduce"
  type: "ReLU"
  bottom: "inception_4b/3x3_reduce"
  top: "inception_4b/3x3_reduce"
}
layer {
  name: "inception_4b/3x3"
  type: "Convolution"
  bottom: "inception_4b/3x3_reduce"
  top: "inception_4b/3x3"
  param {
    lr_mult: 1
    decay_mult: 1
  }
  param {
    lr_mult: 2
    decay_mult: 0
  }
  convolution_param {
    num_output: 224
    pad: 1
    kernel_size: 3
    weight_filler {
      type: "xavier"
      std: 0.03
    }
    bias_filler {
      type: "constant"
      value: 0.2
    }
  }
}
layer {
  name: "inception_4b/relu_3x3"
  type: "ReLU"
  bottom: "inception_4b/3x3"
  top: "inception_4b/3x3"
}
layer {
  name: "inception_4b/5x5_reduce"
  type: "Convolution"
  bottom: "inception_4a/output"
  top: "inception_4b/5x5_reduce"
  param {
    lr_mult: 1
    decay_mult: 1
  }
  param {
    lr_mult: 2
    decay_mult: 0
  }
  convolution_param {
    num_output: 24
    kernel_size: 1
    weight_filler {
      type: "xavier"
      std: 0.2
    }
    bias_filler {
      type: "constant"
      value: 0.2
    }
  }
}
layer {
  name: "inception_4b/relu_5x5_reduce"
  type: "ReLU"
  bottom: "inception_4b/5x5_reduce"
  top: "inception_4b/5x5_reduce"
}
layer {
  name: "inception_4b/5x5"
  type: "Convolution"
  bottom: "inception_4b/5x5_reduce"
  top: "inception_4b/5x5"
  param {
    lr_mult: 1
    decay_mult: 1
  }
  param {
    lr_mult: 2
    decay_mult: 0
  }
  convolution_param {
    num_output: 64
    pad: 2
    kernel_size: 5
    weight_filler {
      type: "xavier"
      std: 0.03
    }
    bias_filler {
      type: "constant"
      value: 0.2
    }
  }
}
layer {
  name: "inception_4b/relu_5x5"
  type: "ReLU"
  bottom: "inception_4b/5x5"
  top: "inception_4b/5x5"
}
layer {
  name: "inception_4b/pool"
  type: "Pooling"
  bottom: "inception_4a/output"
  top: "inception_4b/pool"
  pooling_param {
    pool: MAX
    kernel_size: 3
    stride: 1
    pad: 1
  }
}
layer {
  name: "inception_4b/pool_proj"
  type: "Convolution"
  bottom: "inception_4b/pool"
  top: "inception_4b/pool_proj"
  param {
    lr_mult: 1
    decay_mult: 1
  }
  param {
    lr_mult: 2
    decay_mult: 0
  }
  convolution_param {
    num_output: 64
    kernel_size: 1
    weight_filler {
      type: "xavier"
      std: 0.1
    }
    bias_filler {
      type: "constant"
      value: 0.2
    }
  }
}
layer {
  name: "inception_4b/relu_pool_proj"
  type: "ReLU"
  bottom: "inception_4b/pool_proj"
  top: "inception_4b/pool_proj"
}
layer {
  name: "inception_4b/output"
  type: "Concat"
  bottom: "inception_4b/1x1"
  bottom: "inception_4b/3x3"
  bottom: "inception_4b/5x5"
  bottom: "inception_4b/pool_proj"
  top: "inception_4b/output"
}
layer {
  name: "inception_4c/1x1"
  type: "Convolution"
  bottom: "inception_4b/output"
  top: "inception_4c/1x1"
  param {
    lr_mult: 1
    decay_mult: 1
  }
  param {
    lr_mult: 2
    decay_mult: 0
  }
  convolution_param {
    num_output: 128
    kernel_size: 1
    weight_filler {
      type: "xavier"
      std: 0.03
    }
    bias_filler {
      type: "constant"
      value: 0.2
    }
  }
}
layer {
  name: "inception_4c/relu_1x1"
  type: "ReLU"
  bottom: "inception_4c/1x1"
  top: "inception_4c/1x1"
}
layer {
  name: "inception_4c/3x3_reduce"
  type: "Convolution"
  bottom: "inception_4b/output"
  top: "inception_4c/3x3_reduce"
  param {
    lr_mult: 1
    decay_mult: 1
  }
  param {
    lr_mult: 2
    decay_mult: 0
  }
  convolution_param {
    num_output: 128
    kernel_size: 1
    weight_filler {
      type: "xavier"
      std: 0.09
    }
    bias_filler {
      type: "constant"
      value: 0.2
    }
  }
}
layer {
  name: "inception_4c/relu_3x3_reduce"
  type: "ReLU"
  bottom: "inception_4c/3x3_reduce"
  top: "inception_4c/3x3_reduce"
}
layer {
  name: "inception_4c/3x3"
  type: "Convolution"
  bottom: "inception_4c/3x3_reduce"
  top: "inception_4c/3x3"
  param {
    lr_mult: 1
    decay_mult: 1
  }
  param {
    lr_mult: 2
    decay_mult: 0
  }
  convolution_param {
    num_output: 256
    pad: 1
    kernel_size: 3
    weight_filler {
      type: "xavier"
      std: 0.03
    }
    bias_filler {
      type: "constant"
      value: 0.2
    }
  }
}
layer {
  name: "inception_4c/relu_3x3"
  type: "ReLU"
  bottom: "inception_4c/3x3"
  top: "inception_4c/3x3"
}
layer {
  name: "inception_4c/5x5_reduce"
  type: "Convolution"
  bottom: "inception_4b/output"
  top: "inception_4c/5x5_reduce"
  param {
    lr_mult: 1
    decay_mult: 1
  }
  param {
    lr_mult: 2
    decay_mult: 0
  }
  convolution_param {
    num_output: 24
    kernel_size: 1
    weight_filler {
      type: "xavier"
      std: 0.2
    }
    bias_filler {
      type: "constant"
      value: 0.2
    }
  }
}
layer {
  name: "inception_4c/relu_5x5_reduce"
  type: "ReLU"
  bottom: "inception_4c/5x5_reduce"
  top: "inception_4c/5x5_reduce"
}
layer {
  name: "inception_4c/5x5"
  type: "Convolution"
  bottom: "inception_4c/5x5_reduce"
  top: "inception_4c/5x5"
  param {
    lr_mult: 1
    decay_mult: 1
  }
  param {
    lr_mult: 2
    decay_mult: 0
  }
  convolution_param {
    num_output: 64
    pad: 2
    kernel_size: 5
    weight_filler {
      type: "xavier"
      std: 0.03
    }
    bias_filler {
      type: "constant"
      value: 0.2
    }
  }
}
layer {
  name: "inception_4c/relu_5x5"
  type: "ReLU"
  bottom: "inception_4c/5x5"
  top: "inception_4c/5x5"
}
layer {
  name: "inception_4c/pool"
  type: "Pooling"
  bottom: "inception_4b/output"
  top: "inception_4c/pool"
  pooling_param {
    pool: MAX
    kernel_size: 3
    stride: 1
    pad: 1
  }
}
layer {
  name: "inception_4c/pool_proj"
  type: "Convolution"
  bottom: "inception_4c/pool"
  top: "inception_4c/pool_proj"
  param {
    lr_mult: 1
    decay_mult: 1
  }
  param {
    lr_mult: 2
    decay_mult: 0
  }
  convolution_param {
    num_output: 64
    kernel_size: 1
    weight_filler {
      type: "xavier"
      std: 0.1
    }
    bias_filler {
      type: "constant"
      value: 0.2
    }
  }
}
layer {
  name: "inception_4c/relu_pool_proj"
  type: "ReLU"
  bottom: "inception_4c/pool_proj"
  top: "inception_4c/pool_proj"
}
layer {
  name: "inception_4c/output"
  type: "Concat"
  bottom: "inception_4c/1x1"
  bottom: "inception_4c/3x3"
  bottom: "inception_4c/5x5"
  bottom: "inception_4c/pool_proj"
  top: "inception_4c/output"
}
layer {
  name: "inception_4d/1x1"
  type: "Convolution"
  bottom: "inception_4c/output"
  top: "inception_4d/1x1"
  param {
    lr_mult: 1
    decay_mult: 1
  }
  param {
    lr_mult: 2
    decay_mult: 0
  }
  convolution_param {
    num_output: 112
    kernel_size: 1
    weight_filler {
      type: "xavier"
      std: 0.03
    }
    bias_filler {
      type: "constant"
      value: 0.2
    }
  }
}
layer {
  name: "inception_4d/relu_1x1"
  type: "ReLU"
  bottom: "inception_4d/1x1"
  top: "inception_4d/1x1"
}
layer {
  name: "inception_4d/3x3_reduce"
  type: "Convolution"
  bottom: "inception_4c/output"
  top: "inception_4d/3x3_reduce"
  param {
    lr_mult: 1
    decay_mult: 1
  }
  param {
    lr_mult: 2
    decay_mult: 0
  }
  convolution_param {
    num_output: 144
    kernel_size: 1
    weight_filler {
      type: "xavier"
      std: 0.09
    }
    bias_filler {
      type: "constant"
      value: 0.2
    }
  }
}
layer {
  name: "inception_4d/relu_3x3_reduce"
  type: "ReLU"
  bottom: "inception_4d/3x3_reduce"
  top: "inception_4d/3x3_reduce"
}
layer {
  name: "inception_4d/3x3"
  type: "Convolution"
  bottom: "inception_4d/3x3_reduce"
  top: "inception_4d/3x3"
  param {
    lr_mult: 1
    decay_mult: 1
  }
  param {
    lr_mult: 2
    decay_mult: 0
  }
  convolution_param {
    num_output: 288
    pad: 1
    kernel_size: 3
    weight_filler {
      type: "xavier"
      std: 0.03
    }
    bias_filler {
      type: "constant"
      value: 0.2
    }
  }
}
layer {
  name: "inception_4d/relu_3x3"
  type: "ReLU"
  bottom: "inception_4d/3x3"
  top: "inception_4d/3x3"
}
layer {
  name: "inception_4d/5x5_reduce"
  type: "Convolution"
  bottom: "inception_4c/output"
  top: "inception_4d/5x5_reduce"
  param {
    lr_mult: 1
    decay_mult: 1
  }
  param {
    lr_mult: 2
    decay_mult: 0
  }
  convolution_param {
    num_output: 32
    kernel_size: 1
    weight_filler {
      type: "xavier"
      std: 0.2
    }
    bias_filler {
      type: "constant"
      value: 0.2
    }
  }
}
layer {
  name: "inception_4d/relu_5x5_reduce"
  type: "ReLU"
  bottom: "inception_4d/5x5_reduce"
  top: "inception_4d/5x5_reduce"
}
layer {
  name: "inception_4d/5x5"
  type: "Convolution"
  bottom: "inception_4d/5x5_reduce"
  top: "inception_4d/5x5"
  param {
    lr_mult: 1
    decay_mult: 1
  }
  param {
    lr_mult: 2
    decay_mult: 0
  }
  convolution_param {
    num_output: 64
    pad: 2
    kernel_size: 5
    weight_filler {
      type: "xavier"
      std: 0.03
    }
    bias_filler {
      type: "constant"
      value: 0.2
    }
  }
}
layer {
  name: "inception_4d/relu_5x5"
  type: "ReLU"
  bottom: "inception_4d/5x5"
  top: "inception_4d/5x5"
}
layer {
  name: "inception_4d/pool"
  type: "Pooling"
  bottom: "inception_4c/output"
  top: "inception_4d/pool"
  pooling_param {
    pool: MAX
    kernel_size: 3
    stride: 1
    pad: 1
  }
}
layer {
  name: "inception_4d/pool_proj"
  type: "Convolution"
  bottom: "inception_4d/pool"
  top: "inception_4d/pool_proj"
  param {
    lr_mult: 1
    decay_mult: 1
  }
  param {
    lr_mult: 2
    decay_mult: 0
  }
  convolution_param {
    num_output: 64
    kernel_size: 1
    weight_filler {
      type: "xavier"
      std: 0.1
    }
    bias_filler {
      type: "constant"
      value: 0.2
    }
  }
}
layer {
  name: "inception_4d/relu_pool_proj"
  type: "ReLU"
  bottom: "inception_4d/pool_proj"
  top: "inception_4d/pool_proj"
}
layer {
  name: "inception_4d/output"
  type: "Concat"
  bottom: "inception_4d/1x1"
  bottom: "inception_4d/3x3"
  bottom: "inception_4d/5x5"
  bottom: "inception_4d/pool_proj"
  top: "inception_4d/output"
}
layer {
  name: "loss2/ave_pool"
  type: "Pooling"
  bottom: "inception_4d/output"
  top: "loss2/ave_pool"
  pooling_param {
    pool: AVE
    kernel_size: 5
    stride: 3
  }
}
layer {
  name: "loss2/conv"
  type: "Convolution"
  bottom: "loss2/ave_pool"
  top: "loss2/conv"
  param {
    lr_mult: 1
    decay_mult: 1
  }
  param {
    lr_mult: 2
    decay_mult: 0
  }
  convolution_param {
    num_output: 128
    kernel_size: 1
    weight_filler {
      type: "xavier"
      std: 0.08
    }
    bias_filler {
      type: "constant"
      value: 0.2
    }
  }
}
layer {
  name: "loss2/relu_conv"
  type: "ReLU"
  bottom: "loss2/conv"
  top: "loss2/conv"
}
layer {
  name: "loss2/fc"
  type: "InnerProduct"
  bottom: "loss2/conv"
  top: "loss2/fc"
  param {
    lr_mult: 1
    decay_mult: 1
  }
  param {
    lr_mult: 2
    decay_mult: 0
  }
  inner_product_param {
    num_output: 1024
    weight_filler {
      type: "xavier"
      std: 0.02
    }
    bias_filler {
      type: "constant"
      value: 0.2
    }
  }
}
layer {
  name: "loss2/relu_fc"
  type: "ReLU"
  bottom: "loss2/fc"
  top: "loss2/fc"
}
layer {
  name: "loss2/drop_fc"
  type: "Dropout"
  bottom: "loss2/fc"
  top: "loss2/fc"
  dropout_param {
    dropout_ratio: 0.7
  }
}
layer {
  name: "loss2/classifier_plantvillage"
  type: "InnerProduct"
  bottom: "loss2/fc"
  top: "loss2/classifier_plantvillage"
  param {
    lr_mult: 1
    decay_mult: 1
  }
  param {
    lr_mult: 2
    decay_mult: 0
  }
  inner_product_param {
    num_output: 38
    weight_filler {
      type: "xavier"
      std: 0.0009765625
    }
    bias_filler {
      type: "constant"
      value: 0
    }
  }
}
layer {
  name: "inception_4e/1x1"
  type: "Convolution"
  bottom: "inception_4d/output"
  top: "inception_4e/1x1"
  param {
    lr_mult: 1
    decay_mult: 1
  }
  param {
    lr_mult: 2
    decay_mult: 0
  }
  convolution_param {
    num_output: 256
    kernel_size: 1
    weight_filler {
      type: "xavier"
      std: 0.03
    }
    bias_filler {
      type: "constant"
      value: 0.2
    }
  }
}
layer {
  name: "inception_4e/relu_1x1"
  type: "ReLU"
  bottom: "inception_4e/1x1"
  top: "inception_4e/1x1"
}
layer {
  name: "inception_4e/3x3_reduce"
  type: "Convolution"
  bottom: "inception_4d/output"
  top: "inception_4e/3x3_reduce"
  param {
    lr_mult: 1
    decay_mult: 1
  }
  param {
    lr_mult: 2
    decay_mult: 0
  }
  convolution_param {
    num_output: 160
    kernel_size: 1
    weight_filler {
      type: "xavier"
      std: 0.09
    }
    bias_filler {
      type: "constant"
      value: 0.2
    }
  }
}
layer {
  name: "inception_4e/relu_3x3_reduce"
  type: "ReLU"
  bottom: "inception_4e/3x3_reduce"
  top: "inception_4e/3x3_reduce"
}
layer {
  name: "inception_4e/3x3"
  type: "Convolution"
  bottom: "inception_4e/3x3_reduce"
  top: "inception_4e/3x3"
  param {
    lr_mult: 1
    decay_mult: 1
  }
  param {
    lr_mult: 2
    decay_mult: 0
  }
  convolution_param {
    num_output: 320
    pad: 1
    kernel_size: 3
    weight_filler {
      type: "xavier"
      std: 0.03
    }
    bias_filler {
      type: "constant"
      value: 0.2
    }
  }
}
layer {
  name: "inception_4e/relu_3x3"
  type: "ReLU"
  bottom: "inception_4e/3x3"
  top: "inception_4e/3x3"
}
layer {
  name: "inception_4e/5x5_reduce"
  type: "Convolution"
  bottom: "inception_4d/output"
  top: "inception_4e/5x5_reduce"
  param {
    lr_mult: 1
    decay_mult: 1
  }
  param {
    lr_mult: 2
    decay_mult: 0
  }
  convolution_param {
    num_output: 32
    kernel_size: 1
    weight_filler {
      type: "xavier"
      std: 0.2
    }
    bias_filler {
      type: "constant"
      value: 0.2
    }
  }
}
layer {
  name: "inception_4e/relu_5x5_reduce"
  type: "ReLU"
  bottom: "inception_4e/5x5_reduce"
  top: "inception_4e/5x5_reduce"
}
layer {
  name: "inception_4e/5x5"
  type: "Convolution"
  bottom: "inception_4e/5x5_reduce"
  top: "inception_4e/
I0403 15:07:41.412055 11621 layer_factory.hpp:77] Creating layer data
I0403 15:07:41.412648 11621 net.cpp:91] Creating Layer data
I0403 15:07:41.412678 11621 net.cpp:399] data -> data
I0403 15:07:41.412729 11621 net.cpp:399] data -> label
I0403 15:07:41.412763 11621 data_transformer.cpp:25] Loading mean file from: /home/mohanty/data/final_dataset/lmdb/segmented-40-60/mean.binaryproto
I0403 15:07:41.415233 11624 db_lmdb.cpp:38] Opened lmdb /home/mohanty/data/final_dataset/lmdb/segmented-40-60/test_db
I0403 15:07:41.426321 11621 data_layer.cpp:41] output data size: 24,3,224,224
I0403 15:07:41.453385 11621 net.cpp:141] Setting up data
I0403 15:07:41.453485 11621 net.cpp:148] Top shape: 24 3 224 224 (3612672)
I0403 15:07:41.453505 11621 net.cpp:148] Top shape: 24 (24)
I0403 15:07:41.453521 11621 net.cpp:156] Memory required for data: 14450784
I0403 15:07:41.453547 11621 layer_factory.hpp:77] Creating layer label_data_1_split
I0403 15:07:41.453573 11621 net.cpp:91] Creating Layer label_data_1_split
I0403 15:07:41.453591 11621 net.cpp:425] label_data_1_split <- label
I0403 15:07:41.453622 11621 net.cpp:399] label_data_1_split -> label_data_1_split_0
I0403 15:07:41.453649 11621 net.cpp:399] label_data_1_split -> label_data_1_split_1
I0403 15:07:41.453671 11621 net.cpp:399] label_data_1_split -> label_data_1_split_2
I0403 15:07:41.453691 11621 net.cpp:399] label_data_1_split -> label_data_1_split_3
I0403 15:07:41.453709 11621 net.cpp:399] label_data_1_split -> label_data_1_split_4
I0403 15:07:41.453728 11621 net.cpp:399] label_data_1_split -> label_data_1_split_5
I0403 15:07:41.453747 11621 net.cpp:399] label_data_1_split -> label_data_1_split_6
I0403 15:07:41.453768 11621 net.cpp:399] label_data_1_split -> label_data_1_split_7
I0403 15:07:41.453788 11621 net.cpp:399] label_data_1_split -> label_data_1_split_8
I0403 15:07:41.453807 11621 net.cpp:399] label_data_1_split -> label_data_1_split_9
I0403 15:07:41.453920 11621 net.cpp:141] Setting up label_data_1_split
I0403 15:07:41.453943 11621 net.cpp:148] Top shape: 24 (24)
I0403 15:07:41.453959 11621 net.cpp:148] Top shape: 24 (24)
I0403 15:07:41.453974 11621 net.cpp:148] Top shape: 24 (24)
I0403 15:07:41.453990 11621 net.cpp:148] Top shape: 24 (24)
I0403 15:07:41.454005 11621 net.cpp:148] Top shape: 24 (24)
I0403 15:07:41.454020 11621 net.cpp:148] Top shape: 24 (24)
I0403 15:07:41.454035 11621 net.cpp:148] Top shape: 24 (24)
I0403 15:07:41.454049 11621 net.cpp:148] Top shape: 24 (24)
I0403 15:07:41.454064 11621 net.cpp:148] Top shape: 24 (24)
I0403 15:07:41.454080 11621 net.cpp:148] Top shape: 24 (24)
I0403 15:07:41.454124 11621 net.cpp:156] Memory required for data: 14451744
I0403 15:07:41.454139 11621 layer_factory.hpp:77] Creating layer conv1/7x7_s2
I0403 15:07:41.454171 11621 net.cpp:91] Creating Layer conv1/7x7_s2
I0403 15:07:41.454190 11621 net.cpp:425] conv1/7x7_s2 <- data
I0403 15:07:41.454208 11621 net.cpp:399] conv1/7x7_s2 -> conv1/7x7_s2
I0403 15:07:41.594118 11621 net.cpp:141] Setting up conv1/7x7_s2
I0403 15:07:41.594190 11621 net.cpp:148] Top shape: 24 64 112 112 (19267584)
I0403 15:07:41.594208 11621 net.cpp:156] Memory required for data: 91522080
I0403 15:07:41.594238 11621 layer_factory.hpp:77] Creating layer conv1/relu_7x7
I0403 15:07:41.594265 11621 net.cpp:91] Creating Layer conv1/relu_7x7
I0403 15:07:41.594283 11621 net.cpp:425] conv1/relu_7x7 <- conv1/7x7_s2
I0403 15:07:41.594302 11621 net.cpp:386] conv1/relu_7x7 -> conv1/7x7_s2 (in-place)
I0403 15:07:41.594570 11621 net.cpp:141] Setting up conv1/relu_7x7
I0403 15:07:41.594597 11621 net.cpp:148] Top shape: 24 64 112 112 (19267584)
I0403 15:07:41.594614 11621 net.cpp:156] Memory required for data: 168592416
I0403 15:07:41.594629 11621 layer_factory.hpp:77] Creating layer pool1/3x3_s2
I0403 15:07:41.594652 11621 net.cpp:91] Creating Layer pool1/3x3_s2
I0403 15:07:41.594669 11621 net.cpp:425] pool1/3x3_s2 <- conv1/7x7_s2
I0403 15:07:41.594687 11621 net.cpp:399] pool1/3x3_s2 -> pool1/3x3_s2
I0403 15:07:41.594761 11621 net.cpp:141] Setting up pool1/3x3_s2
I0403 15:07:41.594785 11621 net.cpp:148] Top shape: 24 64 56 56 (4816896)
I0403 15:07:41.594800 11621 net.cpp:156] Memory required for data: 187860000
I0403 15:07:41.594815 11621 layer_factory.hpp:77] Creating layer pool1/norm1
I0403 15:07:41.594837 11621 net.cpp:91] Creating Layer pool1/norm1
I0403 15:07:41.594854 11621 net.cpp:425] pool1/norm1 <- pool1/3x3_s2
I0403 15:07:41.594871 11621 net.cpp:399] pool1/norm1 -> pool1/norm1
I0403 15:07:41.595152 11621 net.cpp:141] Setting up pool1/norm1
I0403 15:07:41.595178 11621 net.cpp:148] Top shape: 24 64 56 56 (4816896)
I0403 15:07:41.595193 11621 net.cpp:156] Memory required for data: 207127584
I0403 15:07:41.595208 11621 layer_factory.hpp:77] Creating layer conv2/3x3_reduce
I0403 15:07:41.595232 11621 net.cpp:91] Creating Layer conv2/3x3_reduce
I0403 15:07:41.595248 11621 net.cpp:425] conv2/3x3_reduce <- pool1/norm1
I0403 15:07:41.595266 11621 net.cpp:399] conv2/3x3_reduce -> conv2/3x3_reduce
I0403 15:07:41.596566 11621 net.cpp:141] Setting up conv2/3x3_reduce
I0403 15:07:41.596596 11621 net.cpp:148] Top shape: 24 64 56 56 (4816896)
I0403 15:07:41.596612 11621 net.cpp:156] Memory required for data: 226395168
I0403 15:07:41.596632 11621 layer_factory.hpp:77] Creating layer conv2/relu_3x3_reduce
I0403 15:07:41.596652 11621 net.cpp:91] Creating Layer conv2/relu_3x3_reduce
I0403 15:07:41.596668 11621 net.cpp:425] conv2/relu_3x3_reduce <- conv2/3x3_reduce
I0403 15:07:41.596685 11621 net.cpp:386] conv2/relu_3x3_reduce -> conv2/3x3_reduce (in-place)
I0403 15:07:41.596931 11621 net.cpp:141] Setting up conv2/relu_3x3_reduce
I0403 15:07:41.596957 11621 net.cpp:148] Top shape: 24 64 56 56 (4816896)
I0403 15:07:41.596972 11621 net.cpp:156] Memory required for data: 245662752
I0403 15:07:41.596987 11621 layer_factory.hpp:77] Creating layer conv2/3x3
I0403 15:07:41.597009 11621 net.cpp:91] Creating Layer conv2/3x3
I0403 15:07:41.597026 11621 net.cpp:425] conv2/3x3 <- conv2/3x3_reduce
I0403 15:07:41.597044 11621 net.cpp:399] conv2/3x3 -> conv2/3x3
I0403 15:07:41.599233 11621 net.cpp:141] Setting up conv2/3x3
I0403 15:07:41.599266 11621 net.cpp:148] Top shape: 24 192 56 56 (14450688)
I0403 15:07:41.599282 11621 net.cpp:156] Memory required for data: 303465504
I0403 15:07:41.599303 11621 layer_factory.hpp:77] Creating layer conv2/relu_3x3
I0403 15:07:41.599324 11621 net.cpp:91] Creating Layer conv2/relu_3x3
I0403 15:07:41.599341 11621 net.cpp:425] conv2/relu_3x3 <- conv2/3x3
I0403 15:07:41.599359 11621 net.cpp:386] conv2/relu_3x3 -> conv2/3x3 (in-place)
I0403 15:07:41.599527 11621 net.cpp:141] Setting up conv2/relu_3x3
I0403 15:07:41.599555 11621 net.cpp:148] Top shape: 24 192 56 56 (14450688)
I0403 15:07:41.599598 11621 net.cpp:156] Memory required for data: 361268256
I0403 15:07:41.599614 11621 layer_factory.hpp:77] Creating layer conv2/norm2
I0403 15:07:41.599632 11621 net.cpp:91] Creating Layer conv2/norm2
I0403 15:07:41.599647 11621 net.cpp:425] conv2/norm2 <- conv2/3x3
I0403 15:07:41.599668 11621 net.cpp:399] conv2/norm2 -> conv2/norm2
I0403 15:07:41.599972 11621 net.cpp:141] Setting up conv2/norm2
I0403 15:07:41.599998 11621 net.cpp:148] Top shape: 24 192 56 56 (14450688)
I0403 15:07:41.600014 11621 net.cpp:156] Memory required for data: 419071008
I0403 15:07:41.600029 11621 layer_factory.hpp:77] Creating layer pool2/3x3_s2
I0403 15:07:41.600046 11621 net.cpp:91] Creating Layer pool2/3x3_s2
I0403 15:07:41.600061 11621 net.cpp:425] pool2/3x3_s2 <- conv2/norm2
I0403 15:07:41.600081 11621 net.cpp:399] pool2/3x3_s2 -> pool2/3x3_s2
I0403 15:07:41.600134 11621 net.cpp:141] Setting up pool2/3x3_s2
I0403 15:07:41.600157 11621 net.cpp:148] Top shape: 24 192 28 28 (3612672)
I0403 15:07:41.600172 11621 net.cpp:156] Memory required for data: 433521696
I0403 15:07:41.600185 11621 layer_factory.hpp:77] Creating layer pool2/3x3_s2_pool2/3x3_s2_0_split
I0403 15:07:41.600205 11621 net.cpp:91] Creating Layer pool2/3x3_s2_pool2/3x3_s2_0_split
I0403 15:07:41.600221 11621 net.cpp:425] pool2/3x3_s2_pool2/3x3_s2_0_split <- pool2/3x3_s2
I0403 15:07:41.600239 11621 net.cpp:399] pool2/3x3_s2_pool2/3x3_s2_0_split -> pool2/3x3_s2_pool2/3x3_s2_0_split_0
I0403 15:07:41.600261 11621 net.cpp:399] pool2/3x3_s2_pool2/3x3_s2_0_split -> pool2/3x3_s2_pool2/3x3_s2_0_split_1
I0403 15:07:41.600281 11621 net.cpp:399] pool2/3x3_s2_pool2/3x3_s2_0_split -> pool2/3x3_s2_pool2/3x3_s2_0_split_2
I0403 15:07:41.600299 11621 net.cpp:399] pool2/3x3_s2_pool2/3x3_s2_0_split -> pool2/3x3_s2_pool2/3x3_s2_0_split_3
I0403 15:07:41.600370 11621 net.cpp:141] Setting up pool2/3x3_s2_pool2/3x3_s2_0_split
I0403 15:07:41.600394 11621 net.cpp:148] Top shape: 24 192 28 28 (3612672)
I0403 15:07:41.600409 11621 net.cpp:148] Top shape: 24 192 28 28 (3612672)
I0403 15:07:41.600425 11621 net.cpp:148] Top shape: 24 192 28 28 (3612672)
I0403 15:07:41.600440 11621 net.cpp:148] Top shape: 24 192 28 28 (3612672)
I0403 15:07:41.600453 11621 net.cpp:156] Memory required for data: 491324448
I0403 15:07:41.600467 11621 layer_factory.hpp:77] Creating layer inception_3a/1x1
I0403 15:07:41.600489 11621 net.cpp:91] Creating Layer inception_3a/1x1
I0403 15:07:41.600507 11621 net.cpp:425] inception_3a/1x1 <- pool2/3x3_s2_pool2/3x3_s2_0_split_0
I0403 15:07:41.600528 11621 net.cpp:399] inception_3a/1x1 -> inception_3a/1x1
I0403 15:07:41.602085 11621 net.cpp:141] Setting up inception_3a/1x1
I0403 15:07:41.602116 11621 net.cpp:148] Top shape: 24 64 28 28 (1204224)
I0403 15:07:41.602133 11621 net.cpp:156] Memory required for data: 496141344
I0403 15:07:41.602151 11621 layer_factory.hpp:77] Creating layer inception_3a/relu_1x1
I0403 15:07:41.602172 11621 net.cpp:91] Creating Layer inception_3a/relu_1x1
I0403 15:07:41.602190 11621 net.cpp:425] inception_3a/relu_1x1 <- inception_3a/1x1
I0403 15:07:41.602207 11621 net.cpp:386] inception_3a/relu_1x1 -> inception_3a/1x1 (in-place)
I0403 15:07:41.602390 11621 net.cpp:141] Setting up inception_3a/relu_1x1
I0403 15:07:41.602416 11621 net.cpp:148] Top shape: 24 64 28 28 (1204224)
I0403 15:07:41.602430 11621 net.cpp:156] Memory required for data: 500958240
I0403 15:07:41.602445 11621 layer_factory.hpp:77] Creating layer inception_3a/3x3_reduce
I0403 15:07:41.602469 11621 net.cpp:91] Creating Layer inception_3a/3x3_reduce
I0403 15:07:41.602488 11621 net.cpp:425] inception_3a/3x3_reduce <- pool2/3x3_s2_pool2/3x3_s2_0_split_1
I0403 15:07:41.602506 11621 net.cpp:399] inception_3a/3x3_reduce -> inception_3a/3x3_reduce
I0403 15:07:41.604238 11621 net.cpp:141] Setting up inception_3a/3x3_reduce
I0403 15:07:41.604269 11621 net.cpp:148] Top shape: 24 96 28 28 (1806336)
I0403 15:07:41.604285 11621 net.cpp:156] Memory required for data: 508183584
I0403 15:07:41.604307 11621 layer_factory.hpp:77] Creating layer inception_3a/relu_3x3_reduce
I0403 15:07:41.604351 11621 net.cpp:91] Creating Layer inception_3a/relu_3x3_reduce
I0403 15:07:41.604369 11621 net.cpp:425] inception_3a/relu_3x3_reduce <- inception_3a/3x3_reduce
I0403 15:07:41.604387 11621 net.cpp:386] inception_3a/relu_3x3_reduce -> inception_3a/3x3_reduce (in-place)
I0403 15:07:41.604573 11621 net.cpp:141] Setting up inception_3a/relu_3x3_reduce
I0403 15:07:41.604598 11621 net.cpp:148] Top shape: 24 96 28 28 (1806336)
I0403 15:07:41.604614 11621 net.cpp:156] Memory required for data: 515408928
I0403 15:07:41.604629 11621 layer_factory.hpp:77] Creating layer inception_3a/3x3
I0403 15:07:41.604651 11621 net.cpp:91] Creating Layer inception_3a/3x3
I0403 15:07:41.604668 11621 net.cpp:425] inception_3a/3x3 <- inception_3a/3x3_reduce
I0403 15:07:41.604691 11621 net.cpp:399] inception_3a/3x3 -> inception_3a/3x3
I0403 15:07:41.606405 11621 net.cpp:141] Setting up inception_3a/3x3
I0403 15:07:41.606434 11621 net.cpp:148] Top shape: 24 128 28 28 (2408448)
I0403 15:07:41.606451 11621 net.cpp:156] Memory required for data: 525042720
I0403 15:07:41.606470 11621 layer_factory.hpp:77] Creating layer inception_3a/relu_3x3
I0403 15:07:41.606492 11621 net.cpp:91] Creating Layer inception_3a/relu_3x3
I0403 15:07:41.606509 11621 net.cpp:425] inception_3a/relu_3x3 <- inception_3a/3x3
I0403 15:07:41.606528 11621 net.cpp:386] inception_3a/relu_3x3 -> inception_3a/3x3 (in-place)
I0403 15:07:41.606828 11621 net.cpp:141] Setting up inception_3a/relu_3x3
I0403 15:07:41.606855 11621 net.cpp:148] Top shape: 24 128 28 28 (2408448)
I0403 15:07:41.606870 11621 net.cpp:156] Memory required for data: 534676512
I0403 15:07:41.606885 11621 layer_factory.hpp:77] Creating layer inception_3a/5x5_reduce
I0403 15:07:41.606909 11621 net.cpp:91] Creating Layer inception_3a/5x5_reduce
I0403 15:07:41.606925 11621 net.cpp:425] inception_3a/5x5_reduce <- pool2/3x3_s2_pool2/3x3_s2_0_split_2
I0403 15:07:41.606946 11621 net.cpp:399] inception_3a/5x5_reduce -> inception_3a/5x5_reduce
I0403 15:07:41.607933 11621 net.cpp:141] Setting up inception_3a/5x5_reduce
I0403 15:07:41.607960 11621 net.cpp:148] Top shape: 24 16 28 28 (301056)
I0403 15:07:41.607977 11621 net.cpp:156] Memory required for data: 535880736
I0403 15:07:41.607996 11621 layer_factory.hpp:77] Creating layer inception_3a/relu_5x5_reduce
I0403 15:07:41.608018 11621 net.cpp:91] Creating Layer inception_3a/relu_5x5_reduce
I0403 15:07:41.608033 11621 net.cpp:425] inception_3a/relu_5x5_reduce <- inception_3a/5x5_reduce
I0403 15:07:41.608052 11621 net.cpp:386] inception_3a/relu_5x5_reduce -> inception_3a/5x5_reduce (in-place)
I0403 15:07:41.608372 11621 net.cpp:141] Setting up inception_3a/relu_5x5_reduce
I0403 15:07:41.608403 11621 net.cpp:148] Top shape: 24 16 28 28 (301056)
I0403 15:07:41.608420 11621 net.cpp:156] Memory required for data: 537084960
I0403 15:07:41.608435 11621 layer_factory.hpp:77] Creating layer inception_3a/5x5
I0403 15:07:41.608459 11621 net.cpp:91] Creating Layer inception_3a/5x5
I0403 15:07:41.608477 11621 net.cpp:425] inception_3a/5x5 <- inception_3a/5x5_reduce
I0403 15:07:41.608497 11621 net.cpp:399] inception_3a/5x5 -> inception_3a/5x5
I0403 15:07:41.609554 11621 net.cpp:141] Setting up inception_3a/5x5
I0403 15:07:41.609582 11621 net.cpp:148] Top shape: 24 32 28 28 (602112)
I0403 15:07:41.609599 11621 net.cpp:156] Memory required for data: 539493408
I0403 15:07:41.609618 11621 layer_factory.hpp:77] Creating layer inception_3a/relu_5x5
I0403 15:07:41.609639 11621 net.cpp:91] Creating Layer inception_3a/relu_5x5
I0403 15:07:41.609657 11621 net.cpp:425] inception_3a/relu_5x5 <- inception_3a/5x5
I0403 15:07:41.609674 11621 net.cpp:386] inception_3a/relu_5x5 -> inception_3a/5x5 (in-place)
I0403 15:07:41.609851 11621 net.cpp:141] Setting up inception_3a/relu_5x5
I0403 15:07:41.609877 11621 net.cpp:148] Top shape: 24 32 28 28 (602112)
I0403 15:07:41.609892 11621 net.cpp:156] Memory required for data: 541901856
I0403 15:07:41.609907 11621 layer_factory.hpp:77] Creating layer inception_3a/pool
I0403 15:07:41.609927 11621 net.cpp:91] Creating Layer inception_3a/pool
I0403 15:07:41.609956 11621 net.cpp:425] inception_3a/pool <- pool2/3x3_s2_pool2/3x3_s2_0_split_3
I0403 15:07:41.609977 11621 net.cpp:399] inception_3a/pool -> inception_3a/pool
I0403 15:07:41.610038 11621 net.cpp:141] Setting up inception_3a/pool
I0403 15:07:41.610062 11621 net.cpp:148] Top shape: 24 192 28 28 (3612672)
I0403 15:07:41.610077 11621 net.cpp:156] Memory required for data: 556352544
I0403 15:07:41.610091 11621 layer_factory.hpp:77] Creating layer inception_3a/pool_proj
I0403 15:07:41.610113 11621 net.cpp:91] Creating Layer inception_3a/pool_proj
I0403 15:07:41.610131 11621 net.cpp:425] inception_3a/pool_proj <- inception_3a/pool
I0403 15:07:41.610153 11621 net.cpp:399] inception_3a/pool_proj -> inception_3a/pool_proj
I0403 15:07:41.611143 11621 net.cpp:141] Setting up inception_3a/pool_proj
I0403 15:07:41.611174 11621 net.cpp:148] Top shape: 24 32 28 28 (602112)
I0403 15:07:41.611191 11621 net.cpp:156] Memory required for data: 558760992
I0403 15:07:41.611215 11621 layer_factory.hpp:77] Creating layer inception_3a/relu_pool_proj
I0403 15:07:41.611235 11621 net.cpp:91] Creating Layer inception_3a/relu_pool_proj
I0403 15:07:41.611251 11621 net.cpp:425] inception_3a/relu_pool_proj <- inception_3a/pool_proj
I0403 15:07:41.611269 11621 net.cpp:386] inception_3a/relu_pool_proj -> inception_3a/pool_proj (in-place)
I0403 15:07:41.611555 11621 net.cpp:141] Setting up inception_3a/relu_pool_proj
I0403 15:07:41.611582 11621 net.cpp:148] Top shape: 24 32 28 28 (602112)
I0403 15:07:41.611598 11621 net.cpp:156] Memory required for data: 561169440
I0403 15:07:41.611613 11621 layer_factory.hpp:77] Creating layer inception_3a/output
I0403 15:07:41.611634 11621 net.cpp:91] Creating Layer inception_3a/output
I0403 15:07:41.611651 11621 net.cpp:425] inception_3a/output <- inception_3a/1x1
I0403 15:07:41.611668 11621 net.cpp:425] inception_3a/output <- inception_3a/3x3
I0403 15:07:41.611685 11621 net.cpp:425] inception_3a/output <- inception_3a/5x5
I0403 15:07:41.611701 11621 net.cpp:425] inception_3a/output <- inception_3a/pool_proj
I0403 15:07:41.611718 11621 net.cpp:399] inception_3a/output -> inception_3a/output
I0403 15:07:41.611766 11621 net.cpp:141] Setting up inception_3a/output
I0403 15:07:41.611790 11621 net.cpp:148] Top shape: 24 256 28 28 (4816896)
I0403 15:07:41.611805 11621 net.cpp:156] Memory required for data: 580437024
I0403 15:07:41.611821 11621 layer_factory.hpp:77] Creating layer inception_3a/output_inception_3a/output_0_split
I0403 15:07:41.611838 11621 net.cpp:91] Creating Layer inception_3a/output_inception_3a/output_0_split
I0403 15:07:41.611853 11621 net.cpp:425] inception_3a/output_inception_3a/output_0_split <- inception_3a/output
I0403 15:07:41.611873 11621 net.cpp:399] inception_3a/output_inception_3a/output_0_split -> inception_3a/output_inception_3a/output_0_split_0
I0403 15:07:41.611893 11621 net.cpp:399] inception_3a/output_inception_3a/output_0_split -> inception_3a/output_inception_3a/output_0_split_1
I0403 15:07:41.611917 11621 net.cpp:399] inception_3a/output_inception_3a/output_0_split -> inception_3a/output_inception_3a/output_0_split_2
I0403 15:07:41.611937 11621 net.cpp:399] inception_3a/output_inception_3a/output_0_split -> inception_3a/output_inception_3a/output_0_split_3
I0403 15:07:41.612015 11621 net.cpp:141] Setting up inception_3a/output_inception_3a/output_0_split
I0403 15:07:41.612037 11621 net.cpp:148] Top shape: 24 256 28 28 (4816896)
I0403 15:07:41.612054 11621 net.cpp:148] Top shape: 24 256 28 28 (4816896)
I0403 15:07:41.612071 11621 net.cpp:148] Top shape: 24 256 28 28 (4816896)
I0403 15:07:41.612087 11621 net.cpp:148] Top shape: 24 256 28 28 (4816896)
I0403 15:07:41.612100 11621 net.cpp:156] Memory required for data: 657507360
I0403 15:07:41.612115 11621 layer_factory.hpp:77] Creating layer inception_3b/1x1
I0403 15:07:41.612138 11621 net.cpp:91] Creating Layer inception_3b/1x1
I0403 15:07:41.612154 11621 net.cpp:425] inception_3b/1x1 <- inception_3a/output_inception_3a/output_0_split_0
I0403 15:07:41.612175 11621 net.cpp:399] inception_3b/1x1 -> inception_3b/1x1
I0403 15:07:41.613353 11621 net.cpp:141] Setting up inception_3b/1x1
I0403 15:07:41.613394 11621 net.cpp:148] Top shape: 24 128 28 28 (2408448)
I0403 15:07:41.613411 11621 net.cpp:156] Memory required for data: 667141152
I0403 15:07:41.613430 11621 layer_factory.hpp:77] Creating layer inception_3b/relu_1x1
I0403 15:07:41.613450 11621 net.cpp:91] Creating Layer inception_3b/relu_1x1
I0403 15:07:41.613464 11621 net.cpp:425] inception_3b/relu_1x1 <- inception_3b/1x1
I0403 15:07:41.613484 11621 net.cpp:386] inception_3b/relu_1x1 -> inception_3b/1x1 (in-place)
I0403 15:07:41.613663 11621 net.cpp:141] Setting up inception_3b/relu_1x1
I0403 15:07:41.613689 11621 net.cpp:148] Top shape: 24 128 28 28 (2408448)
I0403 15:07:41.613704 11621 net.cpp:156] Memory required for data: 676774944
I0403 15:07:41.613719 11621 layer_factory.hpp:77] Creating layer inception_3b/3x3_reduce
I0403 15:07:41.613742 11621 net.cpp:91] Creating Layer inception_3b/3x3_reduce
I0403 15:07:41.613759 11621 net.cpp:425] inception_3b/3x3_reduce <- inception_3a/output_inception_3a/output_0_split_1
I0403 15:07:41.613781 11621 net.cpp:399] inception_3b/3x3_reduce -> inception_3b/3x3_reduce
I0403 15:07:41.614943 11621 net.cpp:141] Setting up inception_3b/3x3_reduce
I0403 15:07:41.614971 11621 net.cpp:148] Top shape: 24 128 28 28 (2408448)
I0403 15:07:41.614987 11621 net.cpp:156] Memory required for data: 686408736
I0403 15:07:41.615006 11621 layer_factory.hpp:77] Creating layer inception_3b/relu_3x3_reduce
I0403 15:07:41.615028 11621 net.cpp:91] Creating Layer inception_3b/relu_3x3_reduce
I0403 15:07:41.615046 11621 net.cpp:425] inception_3b/relu_3x3_reduce <- inception_3b/3x3_reduce
I0403 15:07:41.615063 11621 net.cpp:386] inception_3b/relu_3x3_reduce -> inception_3b/3x3_reduce (in-place)
I0403 15:07:41.615239 11621 net.cpp:141] Setting up inception_3b/relu_3x3_reduce
I0403 15:07:41.615264 11621 net.cpp:148] Top shape: 24 128 28 28 (2408448)
I0403 15:07:41.615280 11621 net.cpp:156] Memory required for data: 696042528
I0403 15:07:41.615294 11621 layer_factory.hpp:77] Creating layer inception_3b/3x3
I0403 15:07:41.615324 11621 net.cpp:91] Creating Layer inception_3b/3x3
I0403 15:07:41.615344 11621 net.cpp:425] inception_3b/3x3 <- inception_3b/3x3_reduce
I0403 15:07:41.615363 11621 net.cpp:399] inception_3b/3x3 -> inception_3b/3x3
I0403 15:07:41.618368 11621 net.cpp:141] Setting up inception_3b/3x3
I0403 15:07:41.618398 11621 net.cpp:148] Top shape: 24 192 28 28 (3612672)
I0403 15:07:41.618414 11621 net.cpp:156] Memory required for data: 710493216
I0403 15:07:41.618433 11621 layer_factory.hpp:77] Creating layer inception_3b/relu_3x3
I0403 15:07:41.618453 11621 net.cpp:91] Creating Layer inception_3b/relu_3x3
I0403 15:07:41.618470 11621 net.cpp:425] inception_3b/relu_3x3 <- inception_3b/3x3
I0403 15:07:41.618487 11621 net.cpp:386] inception_3b/relu_3x3 -> inception_3b/3x3 (in-place)
I0403 15:07:41.618774 11621 net.cpp:141] Setting up inception_3b/relu_3x3
I0403 15:07:41.618800 11621 net.cpp:148] Top shape: 24 192 28 28 (3612672)
I0403 15:07:41.618816 11621 net.cpp:156] Memory required for data: 724943904
I0403 15:07:41.618831 11621 layer_factory.hpp:77] Creating layer inception_3b/5x5_reduce
I0403 15:07:41.618854 11621 net.cpp:91] Creating Layer inception_3b/5x5_reduce
I0403 15:07:41.618872 11621 net.cpp:425] inception_3b/5x5_reduce <- inception_3a/output_inception_3a/output_0_split_2
I0403 15:07:41.618896 11621 net.cpp:399] inception_3b/5x5_reduce -> inception_3b/5x5_reduce
I0403 15:07:41.619920 11621 net.cpp:141] Setting up inception_3b/5x5_reduce
I0403 15:07:41.619948 11621 net.cpp:148] Top shape: 24 32 28 28 (602112)
I0403 15:07:41.619964 11621 net.cpp:156] Memory required for data: 727352352
I0403 15:07:41.619983 11621 layer_factory.hpp:77] Creating layer inception_3b/relu_5x5_reduce
I0403 15:07:41.620004 11621 net.cpp:91] Creating Layer inception_3b/relu_5x5_reduce
I0403 15:07:41.620021 11621 net.cpp:425] inception_3b/relu_5x5_reduce <- inception_3b/5x5_reduce
I0403 15:07:41.620039 11621 net.cpp:386] inception_3b/relu_5x5_reduce -> inception_3b/5x5_reduce (in-place)
I0403 15:07:41.620254 11621 net.cpp:141] Setting up inception_3b/relu_5x5_reduce
I0403 15:07:41.620278 11621 net.cpp:148] Top shape: 24 32 28 28 (602112)
I0403 15:07:41.620304 11621 net.cpp:156] Memory required for data: 729760800
I0403 15:07:41.620326 11621 layer_factory.hpp:77] Creating layer inception_3b/5x5
I0403 15:07:41.620353 11621 net.cpp:91] Creating Layer inception_3b/5x5
I0403 15:07:41.620371 11621 net.cpp:425] inception_3b/5x5 <- inception_3b/5x5_reduce
I0403 15:07:41.620391 11621 net.cpp:399] inception_3b/5x5 -> inception_3b/5x5
I0403 15:07:41.622359 11621 net.cpp:141] Setting up inception_3b/5x5
I0403 15:07:41.622387 11621 net.cpp:148] Top shape: 24 96 28 28 (1806336)
I0403 15:07:41.622402 11621 net.cpp:156] Memory required for data: 736986144
I0403 15:07:41.622421 11621 layer_factory.hpp:77] Creating layer inception_3b/relu_5x5
I0403 15:07:41.622437 11621 net.cpp:91] Creating Layer inception_3b/relu_5x5
I0403 15:07:41.622484 11621 net.cpp:425] inception_3b/relu_5x5 <- inception_3b/5x5
I0403 15:07:41.622501 11621 net.cpp:386] inception_3b/relu_5x5 -> inception_3b/5x5 (in-place)
I0403 15:07:41.622692 11621 net.cpp:141] Setting up inception_3b/relu_5x5
I0403 15:07:41.622716 11621 net.cpp:148] Top shape: 24 96 28 28 (1806336)
I0403 15:07:41.622743 11621 net.cpp:156] Memory required for data: 744211488
I0403 15:07:41.622757 11621 layer_factory.hpp:77] Creating layer inception_3b/pool
I0403 15:07:41.622774 11621 net.cpp:91] Creating Layer inception_3b/pool
I0403 15:07:41.622791 11621 net.cpp:425] inception_3b/pool <- inception_3a/output_inception_3a/output_0_split_3
I0403 15:07:41.622807 11621 net.cpp:399] inception_3b/pool -> inception_3b/pool
I0403 15:07:41.622862 11621 net.cpp:141] Setting up inception_3b/pool
I0403 15:07:41.622885 11621 net.cpp:148] Top shape: 24 256 28 28 (4816896)
I0403 15:07:41.622898 11621 net.cpp:156] Memory required for data: 763479072
I0403 15:07:41.622912 11621 layer_factory.hpp:77] Creating layer inception_3b/pool_proj
I0403 15:07:41.622932 11621 net.cpp:91] Creating Layer inception_3b/pool_proj
I0403 15:07:41.622948 11621 net.cpp:425] inception_3b/pool_proj <- inception_3b/pool
I0403 15:07:41.622969 11621 net.cpp:399] inception_3b/pool_proj -> inception_3b/pool_proj
I0403 15:07:41.623996 11621 net.cpp:141] Setting up inception_3b/pool_proj
I0403 15:07:41.624025 11621 net.cpp:148] Top shape: 24 64 28 28 (1204224)
I0403 15:07:41.624042 11621 net.cpp:156] Memory required for data: 768295968
I0403 15:07:41.624059 11621 layer_factory.hpp:77] Creating layer inception_3b/relu_pool_proj
I0403 15:07:41.624076 11621 net.cpp:91] Creating Layer inception_3b/relu_pool_proj
I0403 15:07:41.624091 11621 net.cpp:425] inception_3b/relu_pool_proj <- inception_3b/pool_proj
I0403 15:07:41.624110 11621 net.cpp:386] inception_3b/relu_pool_proj -> inception_3b/pool_proj (in-place)
I0403 15:07:41.624495 11621 net.cpp:141] Setting up inception_3b/relu_pool_proj
I0403 15:07:41.624522 11621 net.cpp:148] Top shape: 24 64 28 28 (1204224)
I0403 15:07:41.624538 11621 net.cpp:156] Memory required for data: 773112864
I0403 15:07:41.624552 11621 layer_factory.hpp:77] Creating layer inception_3b/output
I0403 15:07:41.624569 11621 net.cpp:91] Creating Layer inception_3b/output
I0403 15:07:41.624583 11621 net.cpp:425] inception_3b/output <- inception_3b/1x1
I0403 15:07:41.624599 11621 net.cpp:425] inception_3b/output <- inception_3b/3x3
I0403 15:07:41.624615 11621 net.cpp:425] inception_3b/output <- inception_3b/5x5
I0403 15:07:41.624629 11621 net.cpp:425] inception_3b/output <- inception_3b/pool_proj
I0403 15:07:41.624645 11621 net.cpp:399] inception_3b/output -> inception_3b/output
I0403 15:07:41.624689 11621 net.cpp:141] Setting up inception_3b/output
I0403 15:07:41.624711 11621 net.cpp:148] Top shape: 24 480 28 28 (9031680)
I0403 15:07:41.624725 11621 net.cpp:156] Memory required for data: 809239584
I0403 15:07:41.624740 11621 layer_factory.hpp:77] Creating layer pool3/3x3_s2
I0403 15:07:41.624758 11621 net.cpp:91] Creating Layer pool3/3x3_s2
I0403 15:07:41.624773 11621 net.cpp:425] pool3/3x3_s2 <- inception_3b/output
I0403 15:07:41.624806 11621 net.cpp:399] pool3/3x3_s2 -> pool3/3x3_s2
I0403 15:07:41.624864 11621 net.cpp:141] Setting up pool3/3x3_s2
I0403 15:07:41.624886 11621 net.cpp:148] Top shape: 24 480 14 14 (2257920)
I0403 15:07:41.624900 11621 net.cpp:156] Memory required for data: 818271264
I0403 15:07:41.624914 11621 layer_factory.hpp:77] Creating layer pool3/3x3_s2_pool3/3x3_s2_0_split
I0403 15:07:41.624930 11621 net.cpp:91] Creating Layer pool3/3x3_s2_pool3/3x3_s2_0_split
I0403 15:07:41.624945 11621 net.cpp:425] pool3/3x3_s2_pool3/3x3_s2_0_split <- pool3/3x3_s2
I0403 15:07:41.624964 11621 net.cpp:399] pool3/3x3_s2_pool3/3x3_s2_0_split -> pool3/3x3_s2_pool3/3x3_s2_0_split_0
I0403 15:07:41.624984 11621 net.cpp:399] pool3/3x3_s2_pool3/3x3_s2_0_split -> pool3/3x3_s2_pool3/3x3_s2_0_split_1
I0403 15:07:41.625002 11621 net.cpp:399] pool3/3x3_s2_pool3/3x3_s2_0_split -> pool3/3x3_s2_pool3/3x3_s2_0_split_2
I0403 15:07:41.625020 11621 net.cpp:399] pool3/3x3_s2_pool3/3x3_s2_0_split -> pool3/3x3_s2_pool3/3x3_s2_0_split_3
I0403 15:07:41.625093 11621 net.cpp:141] Setting up pool3/3x3_s2_pool3/3x3_s2_0_split
I0403 15:07:41.625118 11621 net.cpp:148] Top shape: 24 480 14 14 (2257920)
I0403 15:07:41.625134 11621 net.cpp:148] Top shape: 24 480 14 14 (2257920)
I0403 15:07:41.625150 11621 net.cpp:148] Top shape: 24 480 14 14 (2257920)
I0403 15:07:41.625165 11621 net.cpp:148] Top shape: 24 480 14 14 (2257920)
I0403 15:07:41.625179 11621 net.cpp:156] Memory required for data: 854397984
I0403 15:07:41.625192 11621 layer_factory.hpp:77] Creating layer inception_4a/1x1
I0403 15:07:41.625213 11621 net.cpp:91] Creating Layer inception_4a/1x1
I0403 15:07:41.625231 11621 net.cpp:425] inception_4a/1x1 <- pool3/3x3_s2_pool3/3x3_s2_0_split_0
I0403 15:07:41.625248 11621 net.cpp:399] inception_4a/1x1 -> inception_4a/1x1
I0403 15:07:41.626766 11621 net.cpp:141] Setting up inception_4a/1x1
I0403 15:07:41.626794 11621 net.cpp:148] Top shape: 24 192 14 14 (903168)
I0403 15:07:41.626811 11621 net.cpp:156] Memory required for data: 858010656
I0403 15:07:41.626828 11621 layer_factory.hpp:77] Creating layer inception_4a/relu_1x1
I0403 15:07:41.626847 11621 net.cpp:91] Creating Layer inception_4a/relu_1x1
I0403 15:07:41.626862 11621 net.cpp:425] inception_4a/relu_1x1 <- inception_4a/1x1
I0403 15:07:41.626880 11621 net.cpp:386] inception_4a/relu_1x1 -> inception_4a/1x1 (in-place)
I0403 15:07:41.627054 11621 net.cpp:141] Setting up inception_4a/relu_1x1
I0403 15:07:41.627079 11621 net.cpp:148] Top shape: 24 192 14 14 (903168)
I0403 15:07:41.627092 11621 net.cpp:156] Memory required for data: 861623328
I0403 15:07:41.627106 11621 layer_factory.hpp:77] Creating layer inception_4a/3x3_reduce
I0403 15:07:41.627127 11621 net.cpp:91] Creating Layer inception_4a/3x3_reduce
I0403 15:07:41.627143 11621 net.cpp:425] inception_4a/3x3_reduce <- pool3/3x3_s2_pool3/3x3_s2_0_split_1
I0403 15:07:41.627163 11621 net.cpp:399] inception_4a/3x3_reduce -> inception_4a/3x3_reduce
I0403 15:07:41.628399 11621 net.cpp:141] Setting up inception_4a/3x3_reduce
I0403 15:07:41.628428 11621 net.cpp:148] Top shape: 24 96 14 14 (451584)
I0403 15:07:41.628443 11621 net.cpp:156] Memory required for data: 863429664
I0403 15:07:41.628465 11621 layer_factory.hpp:77] Creating layer inception_4a/relu_3x3_reduce
I0403 15:07:41.628485 11621 net.cpp:91] Creating Layer inception_4a/relu_3x3_reduce
I0403 15:07:41.628501 11621 net.cpp:425] inception_4a/relu_3x3_reduce <- inception_4a/3x3_reduce
I0403 15:07:41.628518 11621 net.cpp:386] inception_4a/relu_3x3_reduce -> inception_4a/3x3_reduce (in-place)
I0403 15:07:41.628690 11621 net.cpp:141] Setting up inception_4a/relu_3x3_reduce
I0403 15:07:41.628712 11621 net.cpp:148] Top shape: 24 96 14 14 (451584)
I0403 15:07:41.628726 11621 net.cpp:156] Memory required for data: 865236000
I0403 15:07:41.628741 11621 layer_factory.hpp:77] Creating layer inception_4a/3x3
I0403 15:07:41.628762 11621 net.cpp:91] Creating Layer inception_4a/3x3
I0403 15:07:41.628779 11621 net.cpp:425] inception_4a/3x3 <- inception_4a/3x3_reduce
I0403 15:07:41.628799 11621 net.cpp:399] inception_4a/3x3 -> inception_4a/3x3
I0403 15:07:41.631402 11621 net.cpp:141] Setting up inception_4a/3x3
I0403 15:07:41.631429 11621 net.cpp:148] Top shape: 24 208 14 14 (978432)
I0403 15:07:41.631445 11621 net.cpp:156] Memory required for data: 869149728
I0403 15:07:41.631464 11621 layer_factory.hpp:77] Creating layer inception_4a/relu_3x3
I0403 15:07:41.631484 11621 net.cpp:91] Creating Layer inception_4a/relu_3x3
I0403 15:07:41.631502 11621 net.cpp:425] inception_4a/relu_3x3 <- inception_4a/3x3
I0403 15:07:41.631520 11621 net.cpp:386] inception_4a/relu_3x3 -> inception_4a/3x3 (in-place)
I0403 15:07:41.631801 11621 net.cpp:141] Setting up inception_4a/relu_3x3
I0403 15:07:41.631826 11621 net.cpp:148] Top shape: 24 208 14 14 (978432)
I0403 15:07:41.631841 11621 net.cpp:156] Memory required for data: 873063456
I0403 15:07:41.631856 11621 layer_factory.hpp:77] Creating layer inception_4a/5x5_reduce
I0403 15:07:41.631878 11621 net.cpp:91] Creating Layer inception_4a/5x5_reduce
I0403 15:07:41.631894 11621 net.cpp:425] inception_4a/5x5_reduce <- pool3/3x3_s2_pool3/3x3_s2_0_split_2
I0403 15:07:41.631916 11621 net.cpp:399] inception_4a/5x5_reduce -> inception_4a/5x5_reduce
I0403 15:07:41.632931 11621 net.cpp:141] Setting up inception_4a/5x5_reduce
I0403 15:07:41.632959 11621 net.cpp:148] Top shape: 24 16 14 14 (75264)
I0403 15:07:41.632975 11621 net.cpp:156] Memory required for data: 873364512
I0403 15:07:41.632993 11621 layer_factory.hpp:77] Creating layer inception_4a/relu_5x5_reduce
I0403 15:07:41.633013 11621 net.cpp:91] Creating Layer inception_4a/relu_5x5_reduce
I0403 15:07:41.633030 11621 net.cpp:425] inception_4a/relu_5x5_reduce <- inception_4a/5x5_reduce
I0403 15:07:41.633047 11621 net.cpp:386] inception_4a/relu_5x5_reduce -> inception_4a/5x5_reduce (in-place)
I0403 15:07:41.633229 11621 net.cpp:141] Setting up inception_4a/relu_5x5_reduce
I0403 15:07:41.633252 11621 net.cpp:148] Top shape: 24 16 14 14 (75264)
I0403 15:07:41.633267 11621 net.cpp:156] Memory required for data: 873665568
I0403 15:07:41.633282 11621 layer_factory.hpp:77] Creating layer inception_4a/5x5
I0403 15:07:41.633306 11621 net.cpp:91] Creating Layer inception_4a/5x5
I0403 15:07:41.633347 11621 net.cpp:425] inception_4a/5x5 <- inception_4a/5x5_reduce
I0403 15:07:41.633371 11621 net.cpp:399] inception_4a/5x5 -> inception_4a/5x5
I0403 15:07:41.634500 11621 net.cpp:141] Setting up inception_4a/5x5
I0403 15:07:41.634529 11621 net.cpp:148] Top shape: 24 48 14 14 (225792)
I0403 15:07:41.634546 11621 net.cpp:156] Memory required for data: 874568736
I0403 15:07:41.634564 11621 layer_factory.hpp:77] Creating layer inception_4a/relu_5x5
I0403 15:07:41.634582 11621 net.cpp:91] Creating Layer inception_4a/relu_5x5
I0403 15:07:41.634598 11621 net.cpp:425] inception_4a/relu_5x5 <- inception_4a/5x5
I0403 15:07:41.634614 11621 net.cpp:386] inception_4a/relu_5x5 -> inception_4a/5x5 (in-place)
I0403 15:07:41.634799 11621 net.cpp:141] Setting up inception_4a/relu_5x5
I0403 15:07:41.634827 11621 net.cpp:148] Top shape: 24 48 14 14 (225792)
I0403 15:07:41.634843 11621 net.cpp:156] Memory required for data: 875471904
I0403 15:07:41.634857 11621 layer_factory.hpp:77] Creating layer inception_4a/pool
I0403 15:07:41.634874 11621 net.cpp:91] Creating Layer inception_4a/pool
I0403 15:07:41.634891 11621 net.cpp:425] inception_4a/pool <- pool3/3x3_s2_pool3/3x3_s2_0_split_3
I0403 15:07:41.634910 11621 net.cpp:399] inception_4a/pool -> inception_4a/pool
I0403 15:07:41.634971 11621 net.cpp:141] Setting up inception_4a/pool
I0403 15:07:41.634996 11621 net.cpp:148] Top shape: 24 480 14 14 (2257920)
I0403 15:07:41.635012 11621 net.cpp:156] Memory required for data: 884503584
I0403 15:07:41.635026 11621 layer_factory.hpp:77] Creating layer inception_4a/pool_proj
I0403 15:07:41.635048 11621 net.cpp:91] Creating Layer inception_4a/pool_proj
I0403 15:07:41.635066 11621 net.cpp:425] inception_4a/pool_proj <- inception_4a/pool
I0403 15:07:41.635084 11621 net.cpp:399] inception_4a/pool_proj -> inception_4a/pool_proj
I0403 15:07:41.636260 11621 net.cpp:141] Setting up inception_4a/pool_proj
I0403 15:07:41.636292 11621 net.cpp:148] Top shape: 24 64 14 14 (301056)
I0403 15:07:41.636327 11621 net.cpp:156] Memory required for data: 885707808
I0403 15:07:41.636348 11621 layer_factory.hpp:77] Creating layer inception_4a/relu_pool_proj
I0403 15:07:41.636365 11621 net.cpp:91] Creating Layer inception_4a/relu_pool_proj
I0403 15:07:41.636381 11621 net.cpp:425] inception_4a/relu_pool_proj <- inception_4a/pool_proj
I0403 15:07:41.636401 11621 net.cpp:386] inception_4a/relu_pool_proj -> inception_4a/pool_proj (in-place)
I0403 15:07:41.636687 11621 net.cpp:141] Setting up inception_4a/relu_pool_proj
I0403 15:07:41.636714 11621 net.cpp:148] Top shape: 24 64 14 14 (301056)
I0403 15:07:41.636730 11621 net.cpp:156] Memory required for data: 886912032
I0403 15:07:41.636745 11621 layer_factory.hpp:77] Creating layer inception_4a/output
I0403 15:07:41.636762 11621 net.cpp:91] Creating Layer inception_4a/output
I0403 15:07:41.636777 11621 net.cpp:425] inception_4a/output <- inception_4a/1x1
I0403 15:07:41.636795 11621 net.cpp:425] inception_4a/output <- inception_4a/3x3
I0403 15:07:41.636811 11621 net.cpp:425] inception_4a/output <- inception_4a/5x5
I0403 15:07:41.636826 11621 net.cpp:425] inception_4a/output <- inception_4a/pool_proj
I0403 15:07:41.636842 11621 net.cpp:399] inception_4a/output -> inception_4a/output
I0403 15:07:41.636888 11621 net.cpp:141] Setting up inception_4a/output
I0403 15:07:41.636910 11621 net.cpp:148] Top shape: 24 512 14 14 (2408448)
I0403 15:07:41.636925 11621 net.cpp:156] Memory required for data: 896545824
I0403 15:07:41.636940 11621 layer_factory.hpp:77] Creating layer inception_4a/output_inception_4a/output_0_split
I0403 15:07:41.636957 11621 net.cpp:91] Creating Layer inception_4a/output_inception_4a/output_0_split
I0403 15:07:41.636975 11621 net.cpp:425] inception_4a/output_inception_4a/output_0_split <- inception_4a/output
I0403 15:07:41.636991 11621 net.cpp:399] inception_4a/output_inception_4a/output_0_split -> inception_4a/output_inception_4a/output_0_split_0
I0403 15:07:41.637011 11621 net.cpp:399] inception_4a/output_inception_4a/output_0_split -> inception_4a/output_inception_4a/output_0_split_1
I0403 15:07:41.637030 11621 net.cpp:399] inception_4a/output_inception_4a/output_0_split -> inception_4a/output_inception_4a/output_0_split_2
I0403 15:07:41.637053 11621 net.cpp:399] inception_4a/output_inception_4a/output_0_split -> inception_4a/output_inception_4a/output_0_split_3
I0403 15:07:41.637073 11621 net.cpp:399] inception_4a/output_inception_4a/output_0_split -> inception_4a/output_inception_4a/output_0_split_4
I0403 15:07:41.637163 11621 net.cpp:141] Setting up inception_4a/output_inception_4a/output_0_split
I0403 15:07:41.637187 11621 net.cpp:148] Top shape: 24 512 14 14 (2408448)
I0403 15:07:41.637203 11621 net.cpp:148] Top shape: 24 512 14 14 (2408448)
I0403 15:07:41.637220 11621 net.cpp:148] Top shape: 24 512 14 14 (2408448)
I0403 15:07:41.637235 11621 net.cpp:148] Top shape: 24 512 14 14 (2408448)
I0403 15:07:41.637250 11621 net.cpp:148] Top shape: 24 512 14 14 (2408448)
I0403 15:07:41.637264 11621 net.cpp:156] Memory required for data: 944714784
I0403 15:07:41.637279 11621 layer_factory.hpp:77] Creating layer loss1/ave_pool
I0403 15:07:41.637300 11621 net.cpp:91] Creating Layer loss1/ave_pool
I0403 15:07:41.637320 11621 net.cpp:425] loss1/ave_pool <- inception_4a/output_inception_4a/output_0_split_0
I0403 15:07:41.637339 11621 net.cpp:399] loss1/ave_pool -> loss1/ave_pool
I0403 15:07:41.637548 11621 net.cpp:141] Setting up loss1/ave_pool
I0403 15:07:41.637576 11621 net.cpp:148] Top shape: 24 512 4 4 (196608)
I0403 15:07:41.637593 11621 net.cpp:156] Memory required for data: 945501216
I0403 15:07:41.637609 11621 layer_factory.hpp:77] Creating layer loss1/conv
I0403 15:07:41.637631 11621 net.cpp:91] Creating Layer loss1/conv
I0403 15:07:41.637648 11621 net.cpp:425] loss1/conv <- loss1/ave_pool
I0403 15:07:41.637666 11621 net.cpp:399] loss1/conv -> loss1/conv
I0403 15:07:41.639086 11621 net.cpp:141] Setting up loss1/conv
I0403 15:07:41.639113 11621 net.cpp:148] Top shape: 24 128 4 4 (49152)
I0403 15:07:41.639142 11621 net.cpp:156] Memory required for data: 945697824
I0403 15:07:41.639163 11621 layer_factory.hpp:77] Creating layer loss1/relu_conv
I0403 15:07:41.639183 11621 net.cpp:91] Creating Layer loss1/relu_conv
I0403 15:07:41.639200 11621 net.cpp:425] loss1/relu_conv <- loss1/conv
I0403 15:07:41.639217 11621 net.cpp:386] loss1/relu_conv -> loss1/conv (in-place)
I0403 15:07:41.639503 11621 net.cpp:141] Setting up loss1/relu_conv
I0403 15:07:41.639529 11621 net.cpp:148] Top shape: 24 128 4 4 (49152)
I0403 15:07:41.639544 11621 net.cpp:156] Memory required for data: 945894432
I0403 15:07:41.639559 11621 layer_factory.hpp:77] Creating layer loss1/fc
I0403 15:07:41.639583 11621 net.cpp:91] Creating Layer loss1/fc
I0403 15:07:41.639603 11621 net.cpp:425] loss1/fc <- loss1/conv
I0403 15:07:41.639621 11621 net.cpp:399] loss1/fc -> loss1/fc
I0403 15:07:41.657080 11621 net.cpp:141] Setting up loss1/fc
I0403 15:07:41.657114 11621 net.cpp:148] Top shape: 24 1024 (24576)
I0403 15:07:41.657130 11621 net.cpp:156] Memory required for data: 945992736
I0403 15:07:41.657147 11621 layer_factory.hpp:77] Creating layer loss1/relu_fc
I0403 15:07:41.657166 11621 net.cpp:91] Creating Layer loss1/relu_fc
I0403 15:07:41.657179 11621 net.cpp:425] loss1/relu_fc <- loss1/fc
I0403 15:07:41.657202 11621 net.cpp:386] loss1/relu_fc -> loss1/fc (in-place)
I0403 15:07:41.657389 11621 net.cpp:141] Setting up loss1/relu_fc
I0403 15:07:41.657413 11621 net.cpp:148] Top shape: 24 1024 (24576)
I0403 15:07:41.657428 11621 net.cpp:156] Memory required for data: 946091040
I0403 15:07:41.657443 11621 layer_factory.hpp:77] Creating layer loss1/drop_fc
I0403 15:07:41.657467 11621 net.cpp:91] Creating Layer loss1/drop_fc
I0403 15:07:41.657485 11621 net.cpp:425] loss1/drop_fc <- loss1/fc
I0403 15:07:41.657502 11621 net.cpp:386] loss1/drop_fc -> loss1/fc (in-place)
I0403 15:07:41.657552 11621 net.cpp:141] Setting up loss1/drop_fc
I0403 15:07:41.657574 11621 net.cpp:148] Top shape: 24 1024 (24576)
I0403 15:07:41.657588 11621 net.cpp:156] Memory required for data: 946189344
I0403 15:07:41.657604 11621 layer_factory.hpp:77] Creating layer loss1/classifier_plantvillage
I0403 15:07:41.657625 11621 net.cpp:91] Creating Layer loss1/classifier_plantvillage
I0403 15:07:41.657642 11621 net.cpp:425] loss1/classifier_plantvillage <- loss1/fc
I0403 15:07:41.657661 11621 net.cpp:399] loss1/classifier_plantvillage -> loss1/classifier_plantvillage
I0403 15:07:41.658535 11621 net.cpp:141] Setting up loss1/classifier_plantvillage
I0403 15:07:41.658560 11621 net.cpp:148] Top shape: 24 38 (912)
I0403 15:07:41.658576 11621 net.cpp:156] Memory required for data: 946192992
I0403 15:07:41.658592 11621 layer_factory.hpp:77] Creating layer loss1/classifier_plantvillage_loss1/classifier_plantvillage_0_split
I0403 15:07:41.658610 11621 net.cpp:91] Creating Layer loss1/classifier_plantvillage_loss1/classifier_plantvillage_0_split
I0403 15:07:41.658625 11621 net.cpp:425] loss1/classifier_plantvillage_loss1/classifier_plantvillage_0_split <- loss1/classifier_plantvillage
I0403 15:07:41.658645 11621 net.cpp:399] loss1/classifier_plantvillage_loss1/classifier_plantvillage_0_split -> loss1/classifier_plantvillage_loss1/classifier_plantvillage_0_split_0
I0403 15:07:41.658665 11621 net.cpp:399] loss1/classifier_plantvillage_loss1/classifier_plantvillage_0_split -> loss1/classifier_plantvillage_loss1/classifier_plantvillage_0_split_1
I0403 15:07:41.658685 11621 net.cpp:399] loss1/classifier_plantvillage_loss1/classifier_plantvillage_0_split -> loss1/classifier_plantvillage_loss1/classifier_plantvillage_0_split_2
I0403 15:07:41.658748 11621 net.cpp:141] Setting up loss1/classifier_plantvillage_loss1/classifier_plantvillage_0_split
I0403 15:07:41.658772 11621 net.cpp:148] Top shape: 24 38 (912)
I0403 15:07:41.658789 11621 net.cpp:148] Top shape: 24 38 (912)
I0403 15:07:41.658804 11621 net.cpp:148] Top shape: 24 38 (912)
I0403 15:07:41.658818 11621 net.cpp:156] Memory required for data: 946203936
I0403 15:07:41.658833 11621 layer_factory.hpp:77] Creating layer inception_4b/1x1
I0403 15:07:41.658850 11621 net.cpp:91] Creating Layer inception_4b/1x1
I0403 15:07:41.658884 11621 net.cpp:425] inception_4b/1x1 <- inception_4a/output_inception_4a/output_0_split_1
I0403 15:07:41.658902 11621 net.cpp:399] inception_4b/1x1 -> inception_4b/1x1
I0403 15:07:41.660539 11621 net.cpp:141] Setting up inception_4b/1x1
I0403 15:07:41.660567 11621 net.cpp:148] Top shape: 24 160 14 14 (752640)
I0403 15:07:41.660583 11621 net.cpp:156] Memory required for data: 949214496
I0403 15:07:41.660599 11621 layer_factory.hpp:77] Creating layer inception_4b/relu_1x1
I0403 15:07:41.660626 11621 net.cpp:91] Creating Layer inception_4b/relu_1x1
I0403 15:07:41.660642 11621 net.cpp:425] inception_4b/relu_1x1 <- inception_4b/1x1
I0403 15:07:41.660660 11621 net.cpp:386] inception_4b/relu_1x1 -> inception_4b/1x1 (in-place)
I0403 15:07:41.660837 11621 net.cpp:141] Setting up inception_4b/relu_1x1
I0403 15:07:41.660861 11621 net.cpp:148] Top shape: 24 160 14 14 (752640)
I0403 15:07:41.660876 11621 net.cpp:156] Memory required for data: 952225056
I0403 15:07:41.660889 11621 layer_factory.hpp:77] Creating layer inception_4b/3x3_reduce
I0403 15:07:41.660912 11621 net.cpp:91] Creating Layer inception_4b/3x3_reduce
I0403 15:07:41.660929 11621 net.cpp:425] inception_4b/3x3_reduce <- inception_4a/output_inception_4a/output_0_split_2
I0403 15:07:41.660948 11621 net.cpp:399] inception_4b/3x3_reduce -> inception_4b/3x3_reduce
I0403 15:07:41.662261 11621 net.cpp:141] Setting up inception_4b/3x3_reduce
I0403 15:07:41.662286 11621 net.cpp:148] Top shape: 24 112 14 14 (526848)
I0403 15:07:41.662302 11621 net.cpp:156] Memory required for data: 954332448
I0403 15:07:41.662323 11621 layer_factory.hpp:77] Creating layer inception_4b/relu_3x3_reduce
I0403 15:07:41.662345 11621 net.cpp:91] Creating Layer inception_4b/relu_3x3_reduce
I0403 15:07:41.662363 11621 net.cpp:425] inception_4b/relu_3x3_reduce <- inception_4b/3x3_reduce
I0403 15:07:41.662379 11621 net.cpp:386] inception_4b/relu_3x3_reduce -> inception_4b/3x3_reduce (in-place)
I0403 15:07:41.662657 11621 net.cpp:141] Setting up inception_4b/relu_3x3_reduce
I0403 15:07:41.662681 11621 net.cpp:148] Top shape: 24 112 14 14 (526848)
I0403 15:07:41.662695 11621 net.cpp:156] Memory required for data: 956439840
I0403 15:07:41.662710 11621 layer_factory.hpp:77] Creating layer inception_4b/3x3
I0403 15:07:41.662732 11621 net.cpp:91] Creating Layer inception_4b/3x3
I0403 15:07:41.662750 11621 net.cpp:425] inception_4b/3x3 <- inception_4b/3x3_reduce
I0403 15:07:41.662767 11621 net.cpp:399] inception_4b/3x3 -> inception_4b/3x3
I0403 15:07:41.665707 11621 net.cpp:141] Setting up inception_4b/3x3
I0403 15:07:41.665737 11621 net.cpp:148] Top shape: 24 224 14 14 (1053696)
I0403 15:07:41.665753 11621 net.cpp:156] Memory required for data: 960654624
I0403 15:07:41.665771 11621 layer_factory.hpp:77] Creating layer inception_4b/relu_3x3
I0403 15:07:41.665788 11621 net.cpp:91] Creating Layer inception_4b/relu_3x3
I0403 15:07:41.665803 11621 net.cpp:425] inception_4b/relu_3x3 <- inception_4b/3x3
I0403 15:07:41.665823 11621 net.cpp:386] inception_4b/relu_3x3 -> inception_4b/3x3 (in-place)
I0403 15:07:41.666002 11621 net.cpp:141] Setting up inception_4b/relu_3x3
I0403 15:07:41.666026 11621 net.cpp:148] Top shape: 24 224 14 14 (1053696)
I0403 15:07:41.666040 11621 net.cpp:156] Memory required for data: 964869408
I0403 15:07:41.666054 11621 layer_factory.hpp:77] Creating layer inception_4b/5x5_reduce
I0403 15:07:41.666075 11621 net.cpp:91] Creating Layer inception_4b/5x5_reduce
I0403 15:07:41.666091 11621 net.cpp:425] inception_4b/5x5_reduce <- inception_4a/output_inception_4a/output_0_split_3
I0403 15:07:41.666112 11621 net.cpp:399] inception_4b/5x5_reduce -> inception_4b/5x5_reduce
I0403 15:07:41.667181 11621 net.cpp:141] Setting up inception_4b/5x5_reduce
I0403 15:07:41.667208 11621 net.cpp:148] Top shape: 24 24 14 14 (112896)
I0403 15:07:41.667223 11621 net.cpp:156] Memory required for data: 965320992
I0403 15:07:41.667243 11621 layer_factory.hpp:77] Creating layer inception_4b/relu_5x5_reduce
I0403 15:07:41.667263 11621 net.cpp:91] Creating Layer inception_4b/relu_5x5_reduce
I0403 15:07:41.667292 11621 net.cpp:425] inception_4b/relu_5x5_reduce <- inception_4b/5x5_reduce
I0403 15:07:41.667310 11621 net.cpp:386] inception_4b/relu_5x5_reduce -> inception_4b/5x5_reduce (in-place)
I0403 15:07:41.667495 11621 net.cpp:141] Setting up inception_4b/relu_5x5_reduce
I0403 15:07:41.667521 11621 net.cpp:148] Top shape: 24 24 14 14 (112896)
I0403 15:07:41.667536 11621 net.cpp:156] Memory required for data: 965772576
I0403 15:07:41.667551 11621 layer_factory.hpp:77] Creating layer inception_4b/5x5
I0403 15:07:41.667572 11621 net.cpp:91] Creating Layer inception_4b/5x5
I0403 15:07:41.667589 11621 net.cpp:425] inception_4b/5x5 <- inception_4b/5x5_reduce
I0403 15:07:41.667608 11621 net.cpp:399] inception_4b/5x5 -> inception_4b/5x5
I0403 15:07:41.668824 11621 net.cpp:141] Setting up inception_4b/5x5
I0403 15:07:41.668853 11621 net.cpp:148] Top shape: 24 64 14 14 (301056)
I0403 15:07:41.668869 11621 net.cpp:156] Memory required for data: 966976800
I0403 15:07:41.668886 11621 layer_factory.hpp:77] Creating layer inception_4b/relu_5x5
I0403 15:07:41.668906 11621 net.cpp:91] Creating Layer inception_4b/relu_5x5
I0403 15:07:41.668923 11621 net.cpp:425] inception_4b/relu_5x5 <- inception_4b/5x5
I0403 15:07:41.668941 11621 net.cpp:386] inception_4b/relu_5x5 -> inception_4b/5x5 (in-place)
I0403 15:07:41.669232 11621 net.cpp:141] Setting up inception_4b/relu_5x5
I0403 15:07:41.669260 11621 net.cpp:148] Top shape: 24 64 14 14 (301056)
I0403 15:07:41.669275 11621 net.cpp:156] Memory required for data: 968181024
I0403 15:07:41.669289 11621 layer_factory.hpp:77] Creating layer inception_4b/pool
I0403 15:07:41.669308 11621 net.cpp:91] Creating Layer inception_4b/pool
I0403 15:07:41.669330 11621 net.cpp:425] inception_4b/pool <- inception_4a/output_inception_4a/output_0_split_4
I0403 15:07:41.669355 11621 net.cpp:399] inception_4b/pool -> inception_4b/pool
I0403 15:07:41.669421 11621 net.cpp:141] Setting up inception_4b/pool
I0403 15:07:41.669445 11621 net.cpp:148] Top shape: 24 512 14 14 (2408448)
I0403 15:07:41.669459 11621 net.cpp:156] Memory required for data: 977814816
I0403 15:07:41.669473 11621 layer_factory.hpp:77] Creating layer inception_4b/pool_proj
I0403 15:07:41.669495 11621 net.cpp:91] Creating Layer inception_4b/pool_proj
I0403 15:07:41.669512 11621 net.cpp:425] inception_4b/pool_proj <- inception_4b/pool
I0403 15:07:41.669533 11621 net.cpp:399] inception_4b/pool_proj -> inception_4b/pool_proj
I0403 15:07:41.670742 11621 net.cpp:141] Setting up inception_4b/pool_proj
I0403 15:07:41.670770 11621 net.cpp:148] Top shape: 24 64 14 14 (301056)
I0403 15:07:41.670785 11621 net.cpp:156] Memory required for data: 979019040
I0403 15:07:41.670804 11621 layer_factory.hpp:77] Creating layer inception_4b/relu_pool_proj
I0403 15:07:41.670825 11621 net.cpp:91] Creating Layer inception_4b/relu_pool_proj
I0403 15:07:41.670841 11621 net.cpp:425] inception_4b/relu_pool_proj <- inception_4b/pool_proj
I0403 15:07:41.670858 11621 net.cpp:386] inception_4b/relu_pool_proj -> inception_4b/pool_proj (in-place)
I0403 15:07:41.671041 11621 net.cpp:141] Setting up inception_4b/relu_pool_proj
I0403 15:07:41.671068 11621 net.cpp:148] Top shape: 24 64 14 14 (301056)
I0403 15:07:41.671087 11621 net.cpp:156] Memory required for data: 980223264
I0403 15:07:41.671100 11621 layer_factory.hpp:77] Creating layer inception_4b/output
I0403 15:07:41.671118 11621 net.cpp:91] Creating Layer inception_4b/output
I0403 15:07:41.671133 11621 net.cpp:425] inception_4b/output <- inception_4b/1x1
I0403 15:07:41.671149 11621 net.cpp:425] inception_4b/output <- inception_4b/3x3
I0403 15:07:41.671164 11621 net.cpp:425] inception_4b/output <- inception_4b/5x5
I0403 15:07:41.671180 11621 net.cpp:425] inception_4b/output <- inception_4b/pool_proj
I0403 15:07:41.671196 11621 net.cpp:399] inception_4b/output -> inception_4b/output
I0403 15:07:41.671242 11621 net.cpp:141] Setting up inception_4b/output
I0403 15:07:41.671265 11621 net.cpp:148] Top shape: 24 512 14 14 (2408448)
I0403 15:07:41.671280 11621 net.cpp:156] Memory required for data: 989857056
I0403 15:07:41.671309 11621 layer_factory.hpp:77] Creating layer inception_4b/output_inception_4b/output_0_split
I0403 15:07:41.671332 11621 net.cpp:91] Creating Layer inception_4b/output_inception_4b/output_0_split
I0403 15:07:41.671349 11621 net.cpp:425] inception_4b/output_inception_4b/output_0_split <- inception_4b/output
I0403 15:07:41.671368 11621 net.cpp:399] inception_4b/output_inception_4b/output_0_split -> inception_4b/output_inception_4b/output_0_split_0
I0403 15:07:41.671388 11621 net.cpp:399] inception_4b/output_inception_4b/output_0_split -> inception_4b/output_inception_4b/output_0_split_1
I0403 15:07:41.671409 11621 net.cpp:399] inception_4b/output_inception_4b/output_0_split -> inception_4b/output_inception_4b/output_0_split_2
I0403 15:07:41.671432 11621 net.cpp:399] inception_4b/output_inception_4b/output_0_split -> inception_4b/output_inception_4b/output_0_split_3
I0403 15:07:41.671519 11621 net.cpp:141] Setting up inception_4b/output_inception_4b/output_0_split
I0403 15:07:41.671541 11621 net.cpp:148] Top shape: 24 512 14 14 (2408448)
I0403 15:07:41.671557 11621 net.cpp:148] Top shape: 24 512 14 14 (2408448)
I0403 15:07:41.671573 11621 net.cpp:148] Top shape: 24 512 14 14 (2408448)
I0403 15:07:41.671589 11621 net.cpp:148] Top shape: 24 512 14 14 (2408448)
I0403 15:07:41.671603 11621 net.cpp:156] Memory required for data: 1028392224
I0403 15:07:41.671618 11621 layer_factory.hpp:77] Creating layer inception_4c/1x1
I0403 15:07:41.671639 11621 net.cpp:91] Creating Layer inception_4c/1x1
I0403 15:07:41.671656 11621 net.cpp:425] inception_4c/1x1 <- inception_4b/output_inception_4b/output_0_split_0
I0403 15:07:41.671676 11621 net.cpp:399] inception_4c/1x1 -> inception_4c/1x1
I0403 15:07:41.673110 11621 net.cpp:141] Setting up inception_4c/1x1
I0403 15:07:41.673141 11621 net.cpp:148] Top shape: 24 128 14 14 (602112)
I0403 15:07:41.673158 11621 net.cpp:156] Memory required for data: 1030800672
I0403 15:07:41.673177 11621 layer_factory.hpp:77] Creating layer inception_4c/relu_1x1
I0403 15:07:41.673194 11621 net.cpp:91] Creating Layer inception_4c/relu_1x1
I0403 15:07:41.673209 11621 net.cpp:425] inception_4c/relu_1x1 <- inception_4c/1x1
I0403 15:07:41.673228 11621 net.cpp:386] inception_4c/relu_1x1 -> inception_4c/1x1 (in-place)
I0403 15:07:41.673427 11621 net.cpp:141] Setting up inception_4c/relu_1x1
I0403 15:07:41.673452 11621 net.cpp:148] Top shape: 24 128 14 14 (602112)
I0403 15:07:41.673467 11621 net.cpp:156] Memory required for data: 1033209120
I0403 15:07:41.673481 11621 layer_factory.hpp:77] Creating layer inception_4c/3x3_reduce
I0403 15:07:41.673503 11621 net.cpp:91] Creating Layer inception_4c/3x3_reduce
I0403 15:07:41.673521 11621 net.cpp:425] inception_4c/3x3_reduce <- inception_4b/output_inception_4b/output_0_split_1
I0403 15:07:41.673542 11621 net.cpp:399] inception_4c/3x3_reduce -> inception_4c/3x3_reduce
I0403 15:07:41.675498 11621 net.cpp:141] Setting up inception_4c/3x3_reduce
I0403 15:07:41.675526 11621 net.cpp:148] Top shape: 24 128 14 14 (602112)
I0403 15:07:41.675542 11621 net.cpp:156] Memory required for data: 1035617568
I0403 15:07:41.675559 11621 layer_factory.hpp:77] Creating layer inception_4c/relu_3x3_reduce
I0403 15:07:41.675577 11621 net.cpp:91] Creating Layer inception_4c/relu_3x3_reduce
I0403 15:07:41.675593 11621 net.cpp:425] inception_4c/relu_3x3_reduce <- inception_4c/3x3_reduce
I0403 15:07:41.675612 11621 net.cpp:386] inception_4c/relu_3x3_reduce -> inception_4c/3x3_reduce (in-place)
I0403 15:07:41.675904 11621 net.cpp:141] Setting up inception_4c/relu_3x3_reduce
I0403 15:07:41.675930 11621 net.cpp:148] Top shape: 24 128 14 14 (602112)
I0403 15:07:41.675945 11621 net.cpp:156] Memory required for data: 1038026016
I0403 15:07:41.675958 11621 layer_factory.hpp:77] Creating layer inception_4c/3x3
I0403 15:07:41.675982 11621 net.cpp:91] Creating Layer inception_4c/3x3
I0403 15:07:41.676000 11621 net.cpp:425] inception_4c/3x3 <- inception_4c/3x3_reduce
I0403 15:07:41.676022 11621 net.cpp:399] inception_4c/3x3 -> inception_4c/3x3
I0403 15:07:41.679632 11621 net.cpp:141] Setting up inception_4c/3x3
I0403 15:07:41.679673 11621 net.cpp:148] Top shape: 24 256 14 14 (1204224)
I0403 15:07:41.679689 11621 net.cpp:156] Memory required for data: 1042842912
I0403 15:07:41.679723 11621 layer_factory.hpp:77] Creating layer inception_4c/relu_3x3
I0403 15:07:41.679744 11621 net.cpp:91] Creating Layer inception_4c/relu_3x3
I0403 15:07:41.679760 11621 net.cpp:425] inception_4c/relu_3x3 <- inception_4c/3x3
I0403 15:07:41.679777 11621 net.cpp:386] inception_4c/relu_3x3 -> inception_4c/3x3 (in-place)
I0403 15:07:41.679965 11621 net.cpp:141] Setting up inception_4c/relu_3x3
I0403 15:07:41.679991 11621 net.cpp:148] Top shape: 24 256 14 14 (1204224)
I0403 15:07:41.680004 11621 net.cpp:156] Memory required for data: 1047659808
I0403 15:07:41.680021 11621 layer_factory.hpp:77] Creating layer inception_4c/5x5_reduce
I0403 15:07:41.680042 11621 net.cpp:91] Creating Layer inception_4c/5x5_reduce
I0403 15:07:41.680059 11621 net.cpp:425] inception_4c/5x5_reduce <- inception_4b/output_inception_4b/output_0_split_2
I0403 15:07:41.680081 11621 net.cpp:399] inception_4c/5x5_reduce -> inception_4c/5x5_reduce
I0403 15:07:41.681238 11621 net.cpp:141] Setting up inception_4c/5x5_reduce
I0403 15:07:41.681267 11621 net.cpp:148] Top shape: 24 24 14 14 (112896)
I0403 15:07:41.681283 11621 net.cpp:156] Memory required for data: 1048111392
I0403 15:07:41.681301 11621 layer_factory.hpp:77] Creating layer inception_4c/relu_5x5_reduce
I0403 15:07:41.681329 11621 net.cpp:91] Creating Layer inception_4c/relu_5x5_reduce
I0403 15:07:41.681346 11621 net.cpp:425] inception_4c/relu_5x5_reduce <- inception_4c/5x5_reduce
I0403 15:07:41.681365 11621 net.cpp:386] inception_4c/relu_5x5_reduce -> inception_4c/5x5_reduce (in-place)
I0403 15:07:41.681557 11621 net.cpp:141] Setting up inception_4c/relu_5x5_reduce
I0403 15:07:41.681586 11621 net.cpp:148] Top shape: 24 24 14 14 (112896)
I0403 15:07:41.681602 11621 net.cpp:156] Memory required for data: 1048562976
I0403 15:07:41.681617 11621 layer_factory.hpp:77] Creating layer inception_4c/5x5
I0403 15:07:41.681639 11621 net.cpp:91] Creating Layer inception_4c/5x5
I0403 15:07:41.681656 11621 net.cpp:425] inception_4c/5x5 <- inception_4c/5x5_reduce
I0403 15:07:41.681676 11621 net.cpp:399] inception_4c/5x5 -> inception_4c/5x5
I0403 15:07:41.682983 11621 net.cpp:141] Setting up inception_4c/5x5
I0403 15:07:41.683012 11621 net.cpp:148] Top shape: 24 64 14 14 (301056)
I0403 15:07:41.683027 11621 net.cpp:156] Memory required for data: 1049767200
I0403 15:07:41.683048 11621 layer_factory.hpp:77] Creating layer inception_4c/relu_5x5
I0403 15:07:41.683068 11621 net.cpp:91] Creating Layer inception_4c/relu_5x5
I0403 15:07:41.683084 11621 net.cpp:425] inception_4c/relu_5x5 <- inception_4c/5x5
I0403 15:07:41.683102 11621 net.cpp:386] inception_4c/relu_5x5 -> inception_4c/5x5 (in-place)
I0403 15:07:41.683418 11621 net.cpp:141] Setting up inception_4c/relu_5x5
I0403 15:07:41.683447 11621 net.cpp:148] Top shape: 24 64 14 14 (301056)
I0403 15:07:41.683465 11621 net.cpp:156] Memory required for data: 1050971424
I0403 15:07:41.683480 11621 layer_factory.hpp:77] Creating layer inception_4c/pool
I0403 15:07:41.683496 11621 net.cpp:91] Creating Layer inception_4c/pool
I0403 15:07:41.683512 11621 net.cpp:425] inception_4c/pool <- inception_4b/output_inception_4b/output_0_split_3
I0403 15:07:41.683534 11621 net.cpp:399] inception_4c/pool -> inception_4c/pool
I0403 15:07:41.683601 11621 net.cpp:141] Setting up inception_4c/pool
I0403 15:07:41.683625 11621 net.cpp:148] Top shape: 24 512 14 14 (2408448)
I0403 15:07:41.683640 11621 net.cpp:156] Memory required for data: 1060605216
I0403 15:07:41.683655 11621 layer_factory.hpp:77] Creating layer inception_4c/pool_proj
I0403 15:07:41.683676 11621 net.cpp:91] Creating Layer inception_4c/pool_proj
I0403 15:07:41.683694 11621 net.cpp:425] inception_4c/pool_proj <- inception_4c/pool
I0403 15:07:41.683715 11621 net.cpp:399] inception_4c/pool_proj -> inception_4c/pool_proj
I0403 15:07:41.684976 11621 net.cpp:141] Setting up inception_4c/pool_proj
I0403 15:07:41.685005 11621 net.cpp:148] Top shape: 24 64 14 14 (301056)
I0403 15:07:41.685035 11621 net.cpp:156] Memory required for data: 1061809440
I0403 15:07:41.685055 11621 layer_factory.hpp:77] Creating layer inception_4c/relu_pool_proj
I0403 15:07:41.685077 11621 net.cpp:91] Creating Layer inception_4c/relu_pool_proj
I0403 15:07:41.685094 11621 net.cpp:425] inception_4c/relu_pool_proj <- inception_4c/pool_proj
I0403 15:07:41.685112 11621 net.cpp:386] inception_4c/relu_pool_proj -> inception_4c/pool_proj (in-place)
I0403 15:07:41.685304 11621 net.cpp:141] Setting up inception_4c/relu_pool_proj
I0403 15:07:41.685336 11621 net.cpp:148] Top shape: 24 64 14 14 (301056)
I0403 15:07:41.685353 11621 net.cpp:156] Memory required for data: 1063013664
I0403 15:07:41.685367 11621 layer_factory.hpp:77] Creating layer inception_4c/output
I0403 15:07:41.685386 11621 net.cpp:91] Creating Layer inception_4c/output
I0403 15:07:41.685403 11621 net.cpp:425] inception_4c/output <- inception_4c/1x1
I0403 15:07:41.685421 11621 net.cpp:425] inception_4c/output <- inception_4c/3x3
I0403 15:07:41.685437 11621 net.cpp:425] inception_4c/output <- inception_4c/5x5
I0403 15:07:41.685453 11621 net.cpp:425] inception_4c/output <- inception_4c/pool_proj
I0403 15:07:41.685470 11621 net.cpp:399] inception_4c/output -> inception_4c/output
I0403 15:07:41.685519 11621 net.cpp:141] Setting up inception_4c/output
I0403 15:07:41.685544 11621 net.cpp:148] Top shape: 24 512 14 14 (2408448)
I0403 15:07:41.685559 11621 net.cpp:156] Memory required for data: 1072647456
I0403 15:07:41.685573 11621 layer_factory.hpp:77] Creating layer inception_4c/output_inception_4c/output_0_split
I0403 15:07:41.685590 11621 net.cpp:91] Creating Layer inception_4c/output_inception_4c/output_0_split
I0403 15:07:41.685606 11621 net.cpp:425] inception_4c/output_inception_4c/output_0_split <- inception_4c/output
I0403 15:07:41.685626 11621 net.cpp:399] inception_4c/output_inception_4c/output_0_split -> inception_4c/output_inception_4c/output_0_split_0
I0403 15:07:41.685647 11621 net.cpp:399] inception_4c/output_inception_4c/output_0_split -> inception_4c/output_inception_4c/output_0_split_1
I0403 15:07:41.685668 11621 net.cpp:399] inception_4c/output_inception_4c/output_0_split -> inception_4c/output_inception_4c/output_0_split_2
I0403 15:07:41.685688 11621 net.cpp:399] inception_4c/output_inception_4c/output_0_split -> inception_4c/output_inception_4c/output_0_split_3
I0403 15:07:41.685781 11621 net.cpp:141] Setting up inception_4c/output_inception_4c/output_0_split
I0403 15:07:41.685803 11621 net.cpp:148] Top shape: 24 512 14 14 (2408448)
I0403 15:07:41.685819 11621 net.cpp:148] Top shape: 24 512 14 14 (2408448)
I0403 15:07:41.685834 11621 net.cpp:148] Top shape: 24 512 14 14 (2408448)
I0403 15:07:41.685850 11621 net.cpp:148] Top shape: 24 512 14 14 (2408448)
I0403 15:07:41.685864 11621 net.cpp:156] Memory required for data: 1111182624
I0403 15:07:41.685878 11621 layer_factory.hpp:77] Creating layer inception_4d/1x1
I0403 15:07:41.685900 11621 net.cpp:91] Creating Layer inception_4d/1x1
I0403 15:07:41.685919 11621 net.cpp:425] inception_4d/1x1 <- inception_4c/output_inception_4c/output_0_split_0
I0403 15:07:41.685940 11621 net.cpp:399] inception_4d/1x1 -> inception_4d/1x1
I0403 15:07:41.687374 11621 net.cpp:141] Setting up inception_4d/1x1
I0403 15:07:41.687405 11621 net.cpp:148] Top shape: 24 112 14 14 (526848)
I0403 15:07:41.687422 11621 net.cpp:156] Memory required for data: 1113290016
I0403 15:07:41.687440 11621 layer_factory.hpp:77] Creating layer inception_4d/relu_1x1
I0403 15:07:41.687459 11621 net.cpp:91] Creating Layer inception_4d/relu_1x1
I0403 15:07:41.687475 11621 net.cpp:425] inception_4d/relu_1x1 <- inception_4d/1x1
I0403 15:07:41.687495 11621 net.cpp:386] inception_4d/relu_1x1 -> inception_4d/1x1 (in-place)
I0403 15:07:41.687688 11621 net.cpp:141] Setting up inception_4d/relu_1x1
I0403 15:07:41.687713 11621 net.cpp:148] Top shape: 24 112 14 14 (526848)
I0403 15:07:41.687729 11621 net.cpp:156] Memory required for data: 1115397408
I0403 15:07:41.687744 11621 layer_factory.hpp:77] Creating layer inception_4d/3x3_reduce
I0403 15:07:41.687780 11621 net.cpp:91] Creating Layer inception_4d/3x3_reduce
I0403 15:07:41.687800 11621 net.cpp:425] inception_4d/3x3_reduce <- inception_4c/output_inception_4c/output_0_split_1
I0403 15:07:41.687821 11621 net.cpp:399] inception_4d/3x3_reduce -> inception_4d/3x3_reduce
I0403 15:07:41.689395 11621 net.cpp:141] Setting up inception_4d/3x3_reduce
I0403 15:07:41.689426 11621 net.cpp:148] Top shape: 24 144 14 14 (677376)
I0403 15:07:41.689443 11621 net.cpp:156] Memory required for data: 1118106912
I0403 15:07:41.689462 11621 layer_factory.hpp:77] Creating layer inception_4d/relu_3x3_reduce
I0403 15:07:41.689481 11621 net.cpp:91] Creating Layer inception_4d/relu_3x3_reduce
I0403 15:07:41.689496 11621 net.cpp:425] inception_4d/relu_3x3_reduce <- inception_4d/3x3_reduce
I0403 15:07:41.689513 11621 net.cpp:386] inception_4d/relu_3x3_reduce -> inception_4d/3x3_reduce (in-place)
I0403 15:07:41.689811 11621 net.cpp:141] Setting up inception_4d/relu_3x3_reduce
I0403 15:07:41.689841 11621 net.cpp:148] Top shape: 24 144 14 14 (677376)
I0403 15:07:41.689858 11621 net.cpp:156] Memory required for data: 1120816416
I0403 15:07:41.689873 11621 layer_factory.hpp:77] Creating layer inception_4d/3x3
I0403 15:07:41.689895 11621 net.cpp:91] Creating Layer inception_4d/3x3
I0403 15:07:41.689913 11621 net.cpp:425] inception_4d/3x3 <- inception_4d/3x3_reduce
I0403 15:07:41.689934 11621 net.cpp:399] inception_4d/3x3 -> inception_4d/3x3
I0403 15:07:41.694339 11621 net.cpp:141] Setting up inception_4d/3x3
I0403 15:07:41.694368 11621 net.cpp:148] Top shape: 24 288 14 14 (1354752)
I0403 15:07:41.694386 11621 net.cpp:156] Memory required for data: 1126235424
I0403 15:07:41.694404 11621 layer_factory.hpp:77] Creating layer inception_4d/relu_3x3
I0403 15:07:41.694424 11621 net.cpp:91] Creating Layer inception_4d/relu_3x3
I0403 15:07:41.694442 11621 net.cpp:425] inception_4d/relu_3x3 <- inception_4d/3x3
I0403 15:07:41.694461 11621 net.cpp:386] inception_4d/relu_3x3 -> inception_4d/3x3 (in-place)
I0403 15:07:41.694653 11621 net.cpp:141] Setting up inception_4d/relu_3x3
I0403 15:07:41.694679 11621 net.cpp:148] Top shape: 24 288 14 14 (1354752)
I0403 15:07:41.694694 11621 net.cpp:156] Memory required for data: 1131654432
I0403 15:07:41.694708 11621 layer_factory.hpp:77] Creating layer inception_4d/5x5_reduce
I0403 15:07:41.694731 11621 net.cpp:91] Creating Layer inception_4d/5x5_reduce
I0403 15:07:41.694749 11621 net.cpp:425] inception_4d/5x5_reduce <- inception_4c/output_inception_4c/output_0_split_2
I0403 15:07:41.694771 11621 net.cpp:399] inception_4d/5x5_reduce -> inception_4d/5x5_reduce
I0403 15:07:41.695982 11621 net.cpp:141] Setting up inception_4d/5x5_reduce
I0403 15:07:41.696012 11621 net.cpp:148] Top shape: 24 32 14 14 (150528)
I0403 15:07:41.696027 11621 net.cpp:156] Memory required for data: 1132256544
I0403 15:07:41.696045 11621 layer_factory.hpp:77] Creating layer inception_4d/relu_5x5_reduce
I0403 15:07:41.696064 11621 net.cpp:91] Creating Layer inception_4d/relu_5x5_reduce
I0403 15:07:41.696084 11621 net.cpp:425] inception_4d/relu_5x5_reduce <- inception_4d/5x5_reduce
I0403 15:07:41.696102 11621 net.cpp:386] inception_4d/relu_5x5_reduce -> inception_4d/5x5_reduce (in-place)
I0403 15:07:41.696298 11621 net.cpp:141] Setting up inception_4d/relu_5x5_reduce
I0403 15:07:41.696331 11621 net.cpp:148] Top shape: 24 32 14 14 (150528)
I0403 15:07:41.696348 11621 net.cpp:156] Memory required for data: 1132858656
I0403 15:07:41.696363 11621 layer_factory.hpp:77] Creating layer inception_4d/5x5
I0403 15:07:41.696387 11621 net.cpp:91] Creating Layer inception_4d/5x5
I0403 15:07:41.696403 11621 net.cpp:425] inception_4d/5x5 <- inception_4d/5x5_reduce
I0403 15:07:41.696425 11621 net.cpp:399] inception_4d/5x5 -> inception_4d/5x5
I0403 15:07:41.697979 11621 net.cpp:141] Setting up inception_4d/5x5
I0403 15:07:41.698009 11621 net.cpp:148] Top shape: 24 64 14 14 (301056)
I0403 15:07:41.698025 11621 net.cpp:156] Memory required for data: 1134062880
I0403 15:07:41.698045 11621 layer_factory.hpp:77] Creating layer inception_4d/relu_5x5
I0403 15:07:41.698081 11621 net.cpp:91] Creating Layer inception_4d/relu_5x5
I0403 15:07:41.698101 11621 net.cpp:425] inception_4d/relu_5x5 <- inception_4d/5x5
I0403 15:07:41.698118 11621 net.cpp:386] inception_4d/relu_5x5 -> inception_4d/5x5 (in-place)
I0403 15:07:41.698446 11621 net.cpp:141] Setting up inception_4d/relu_5x5
I0403 15:07:41.698473 11621 net.cpp:148] Top shape: 24 64 14 14 (301056)
I0403 15:07:41.698488 11621 net.cpp:156] Memory required for data: 1135267104
I0403 15:07:41.698503 11621 layer_factory.hpp:77] Creating layer inception_4d/pool
I0403 15:07:41.698524 11621 net.cpp:91] Creating Layer inception_4d/pool
I0403 15:07:41.698542 11621 net.cpp:425] inception_4d/pool <- inception_4c/output_inception_4c/output_0_split_3
I0403 15:07:41.698560 11621 net.cpp:399] inception_4d/pool -> inception_4d/pool
I0403 15:07:41.698631 11621 net.cpp:141] Setting up inception_4d/pool
I0403 15:07:41.698654 11621 net.cpp:148] Top shape: 24 512 14 14 (2408448)
I0403 15:07:41.698669 11621 net.cpp:156] Memory required for data: 1144900896
I0403 15:07:41.698684 11621 layer_factory.hpp:77] Creating layer inception_4d/pool_proj
I0403 15:07:41.698716 11621 net.cpp:91] Creating Layer inception_4d/pool_proj
I0403 15:07:41.698746 11621 net.cpp:425] inception_4d/pool_proj <- inception_4d/pool
I0403 15:07:41.698767 11621 net.cpp:399] inception_4d/pool_proj -> inception_4d/pool_proj
I0403 15:07:41.700630 11621 net.cpp:141] Setting up inception_4d/pool_proj
I0403 15:07:41.700659 11621 net.cpp:148] Top shape: 24 64 14 14 (301056)
I0403 15:07:41.700675 11621 net.cpp:156] Memory required for data: 1146105120
I0403 15:07:41.700693 11621 layer_factory.hpp:77] Creating layer inception_4d/relu_pool_proj
I0403 15:07:41.700711 11621 net.cpp:91] Creating Layer inception_4d/relu_pool_proj
I0403 15:07:41.700726 11621 net.cpp:425] inception_4d/relu_pool_proj <- inception_4d/pool_proj
I0403 15:07:41.700747 11621 net.cpp:386] inception_4d/relu_pool_proj -> inception_4d/pool_proj (in-place)
I0403 15:07:41.700935 11621 net.cpp:141] Setting up inception_4d/relu_pool_proj
I0403 15:07:41.700960 11621 net.cpp:148] Top shape: 24 64 14 14 (301056)
I0403 15:07:41.700975 11621 net.cpp:156] Memory required for data: 1147309344
I0403 15:07:41.700990 11621 layer_factory.hpp:77] Creating layer inception_4d/output
I0403 15:07:41.701009 11621 net.cpp:91] Creating Layer inception_4d/output
I0403 15:07:41.701025 11621 net.cpp:425] inception_4d/output <- inception_4d/1x1
I0403 15:07:41.701041 11621 net.cpp:425] inception_4d/output <- inception_4d/3x3
I0403 15:07:41.701058 11621 net.cpp:425] inception_4d/output <- inception_4d/5x5
I0403 15:07:41.701073 11621 net.cpp:425] inception_4d/output <- inception_4d/pool_proj
I0403 15:07:41.701091 11621 net.cpp:399] inception_4d/output -> inception_4d/output
I0403 15:07:41.701138 11621 net.cpp:141] Setting up inception_4d/output
I0403 15:07:41.701161 11621 net.cpp:148] Top shape: 24 528 14 14 (2483712)
I0403 15:07:41.701176 11621 net.cpp:156] Memory required for data: 1157244192
I0403 15:07:41.701190 11621 layer_factory.hpp:77] Creating layer inception_4d/output_inception_4d/output_0_split
I0403 15:07:41.701208 11621 net.cpp:91] Creating Layer inception_4d/output_inception_4d/output_0_split
I0403 15:07:41.701223 11621 net.cpp:425] inception_4d/output_inception_4d/output_0_split <- inception_4d/output
I0403 15:07:41.701242 11621 net.cpp:399] inception_4d/output_inception_4d/output_0_split -> inception_4d/output_inception_4d/output_0_split_0
I0403 15:07:41.701263 11621 net.cpp:399] inception_4d/output_inception_4d/output_0_split -> inception_4d/output_inception_4d/output_0_split_1
I0403 15:07:41.701283 11621 net.cpp:399] inception_4d/output_inception_4d/output_0_split -> inception_4d/output_inception_4d/output_0_split_2
I0403 15:07:41.701303 11621 net.cpp:399] inception_4d/output_inception_4d/output_0_split -> inception_4d/output_inception_4d/output_0_split_3
I0403 15:07:41.701330 11621 net.cpp:399] inception_4d/output_inception_4d/output_0_split -> inception_4d/output_inception_4d/output_0_split_4
I0403 15:07:41.701434 11621 net.cpp:141] Setting up inception_4d/output_inception_4d/output_0_split
I0403 15:07:41.701472 11621 net.cpp:148] Top shape: 24 528 14 14 (2483712)
I0403 15:07:41.701490 11621 net.cpp:148] Top shape: 24 528 14 14 (2483712)
I0403 15:07:41.701506 11621 net.cpp:148] Top shape: 24 528 14 14 (2483712)
I0403 15:07:41.701522 11621 net.cpp:148] Top shape: 24 528 14 14 (2483712)
I0403 15:07:41.701536 11621 net.cpp:148] Top shape: 24 528 14 14 (2483712)
I0403 15:07:41.701550 11621 net.cpp:156] Memory required for data: 1206918432
I0403 15:07:41.701565 11621 layer_factory.hpp:77] Creating layer loss2/ave_pool
I0403 15:07:41.701582 11621 net.cpp:91] Creating Layer loss2/ave_pool
I0403 15:07:41.701597 11621 net.cpp:425] loss2/ave_pool <- inception_4d/output_inception_4d/output_0_split_0
I0403 15:07:41.701617 11621 net.cpp:399] loss2/ave_pool -> loss2/ave_pool
I0403 15:07:41.701938 11621 net.cpp:141] Setting up loss2/ave_pool
I0403 15:07:41.701964 11621 net.cpp:148] Top shape: 24 528 4 4 (202752)
I0403 15:07:41.701980 11621 net.cpp:156] Memory required for data: 1207729440
I0403 15:07:41.701994 11621 layer_factory.hpp:77] Creating layer loss2/conv
I0403 15:07:41.702016 11621 net.cpp:91] Creating Layer loss2/conv
I0403 15:07:41.702034 11621 net.cpp:425] loss2/conv <- loss2/ave_pool
I0403 15:07:41.702055 11621 net.cpp:399] loss2/conv -> loss2/conv
I0403 15:07:41.703969 11621 net.cpp:141] Setting up loss2/conv
I0403 15:07:41.703999 11621 net.cpp:148] Top shape: 24 128 4 4 (49152)
I0403 15:07:41.704015 11621 net.cpp:156] Memory required for data: 1207926048
I0403 15:07:41.704032 11621 layer_factory.hpp:77] Creating layer loss2/relu_conv
I0403 15:07:41.704054 11621 net.cpp:91] Creating Layer loss2/relu_conv
I0403 15:07:41.704071 11621 net.cpp:425] loss2/relu_conv <- loss2/conv
I0403 15:07:41.704087 11621 net.cpp:386] loss2/relu_conv -> loss2/conv (in-place)
I0403 15:07:41.704383 11621 net.cpp:141] Setting up loss2/relu_conv
I0403 15:07:41.704409 11621 net.cpp:148] Top shape: 24 128 4 4 (49152)
I0403 15:07:41.704424 11621 net.cpp:156] Memory required for data: 1208122656
I0403 15:07:41.704439 11621 layer_factory.hpp:77] Creating layer loss2/fc
I0403 15:07:41.704460 11621 net.cpp:91] Creating Layer loss2/fc
I0403 15:07:41.704478 11621 net.cpp:425] loss2/fc <- loss2/conv
I0403 15:07:41.704499 11621 net.cpp:399] loss2/fc -> loss2/fc
I0403 15:07:41.721788 11621 net.cpp:141] Setting up loss2/fc
I0403 15:07:41.721822 11621 net.cpp:148] Top shape: 24 1024 (24576)
I0403 15:07:41.721837 11621 net.cpp:156] Memory required for data: 1208220960
I0403 15:07:41.721855 11621 layer_factory.hpp:77] Creating layer loss2/relu_fc
I0403 15:07:41.721885 11621 net.cpp:91] Creating Layer loss2/relu_fc
I0403 15:07:41.721906 11621 net.cpp:425] loss2/relu_fc <- loss2/fc
I0403 15:07:41.721923 11621 net.cpp:386] loss2/relu_fc -> loss2/fc (in-place)
I0403 15:07:41.722218 11621 net.cpp:141] Setting up loss2/relu_fc
I0403 15:07:41.722242 11621 net.cpp:148] Top shape: 24 1024 (24576)
I0403 15:07:41.722257 11621 net.cpp:156] Memory required for data: 1208319264
I0403 15:07:41.722271 11621 layer_factory.hpp:77] Creating layer loss2/drop_fc
I0403 15:07:41.722290 11621 net.cpp:91] Creating Layer loss2/drop_fc
I0403 15:07:41.722304 11621 net.cpp:425] loss2/drop_fc <- loss2/fc
I0403 15:07:41.722337 11621 net.cpp:386] loss2/drop_fc -> loss2/fc (in-place)
I0403 15:07:41.722388 11621 net.cpp:141] Setting up loss2/drop_fc
I0403 15:07:41.722412 11621 net.cpp:148] Top shape: 24 1024 (24576)
I0403 15:07:41.722427 11621 net.cpp:156] Memory required for data: 1208417568
I0403 15:07:41.722441 11621 layer_factory.hpp:77] Creating layer loss2/classifier_plantvillage
I0403 15:07:41.722458 11621 net.cpp:91] Creating Layer loss2/classifier_plantvillage
I0403 15:07:41.722473 11621 net.cpp:425] loss2/classifier_plantvillage <- loss2/fc
I0403 15:07:41.722493 11621 net.cpp:399] loss2/classifier_plantvillage -> loss2/classifier_plantvillage
I0403 15:07:41.722888 11621 net.cpp:141] Setting up loss2/classifier_plantvillage
I0403 15:07:41.722914 11621 net.cpp:148] Top shape: 24 38 (912)
I0403 15:07:41.722945 11621 net.cpp:156] Memory required for data: 1208421216
I0403 15:07:41.722964 11621 layer_factory.hpp:77] Creating layer loss2/classifier_plantvillage_loss2/classifier_plantvillage_0_split
I0403 15:07:41.722981 11621 net.cpp:91] Creating Layer loss2/classifier_plantvillage_loss2/classifier_plantvillage_0_split
I0403 15:07:41.722997 11621 net.cpp:425] loss2/classifier_plantvillage_loss2/classifier_plantvillage_0_split <- loss2/classifier_plantvillage
I0403 15:07:41.723014 11621 net.cpp:399] loss2/classifier_plantvillage_loss2/classifier_plantvillage_0_split -> loss2/classifier_plantvillage_loss2/classifier_plantvillage_0_split_0
I0403 15:07:41.723033 11621 net.cpp:399] loss2/classifier_plantvillage_loss2/classifier_plantvillage_0_split -> loss2/classifier_plantvillage_loss2/classifier_plantvillage_0_split_1
I0403 15:07:41.723055 11621 net.cpp:399] loss2/classifier_plantvillage_loss2/classifier_plantvillage_0_split -> loss2/classifier_plantvillage_loss2/classifier_plantvillage_0_split_2
I0403 15:07:41.723131 11621 net.cpp:141] Setting up loss2/classifier_plantvillage_loss2/classifier_plantvillage_0_split
I0403 15:07:41.723155 11621 net.cpp:148] Top shape: 24 38 (912)
I0403 15:07:41.723170 11621 net.cpp:148] Top shape: 24 38 (912)
I0403 15:07:41.723184 11621 net.cpp:148] Top shape: 24 38 (912)
I0403 15:07:41.723198 11621 net.cpp:156] Memory required for data: 1208432160
I0403 15:07:41.723212 11621 layer_factory.hpp:77] Creating layer inception_4e/1x1
I0403 15:07:41.723233 11621 net.cpp:91] Creating Layer inception_4e/1x1
I0403 15:07:41.723250 11621 net.cpp:425] inception_4e/1x1 <- inception_4d/output_inception_4d/output_0_split_1
I0403 15:07:41.723270 11621 net.cpp:399] inception_4e/1x1 -> inception_4e/1x1
I0403 15:07:41.725055 11621 net.cpp:141] Setting up inception_4e/1x1
I0403 15:07:41.725082 11621 net.cpp:148] Top shape: 24 256 14 14 (1204224)
I0403 15:07:41.725097 11621 net.cpp:156] Memory required for data: 1213249056
I0403 15:07:41.725116 11621 layer_factory.hpp:77] Creating layer inception_4e/relu_1x1
I0403 15:07:41.725134 11621 net.cpp:91] Creating Layer inception_4e/relu_1x1
I0403 15:07:41.725152 11621 net.cpp:425] inception_4e/relu_1x1 <- inception_4e/1x1
I0403 15:07:41.725168 11621 net.cpp:386] inception_4e/relu_1x1 -> inception_4e/1x1 (in-place)
I0403 15:07:41.725471 11621 net.cpp:141] Setting up inception_4e/relu_1x1
I0403 15:07:41.725495 11621 net.cpp:148] Top shape: 24 256 14 14 (1204224)
I0403 15:07:41.725510 11621 net.cpp:156] Memory required for data: 1218065952
I0403 15:07:41.725524 11621 layer_factory.hpp:77] Creating layer inception_4e/3x3_reduce
I0403 15:07:41.725548 11621 net.cpp:91] Creating Layer inception_4e/3x3_reduce
I0403 15:07:41.725564 11621 net.cpp:425] inception_4e/3x3_reduce <- inception_4d/output_inception_4d/output_0_split_2
I0403 15:07:41.725582 11621 net.cpp:399] inception_4e/3x3_reduce -> inception_4e/3x3_reduce
I0403 15:07:41.727669 11621 net.cpp:141] Setting up inception_4e/3x3_reduce
I0403 15:07:41.727696 11621 net.cpp:148] Top shape: 24 160 14 14 (752640)
I0403 15:07:41.727712 11621 net.cpp:156] Memory required for data: 1221076512
I0403 15:07:41.727730 11621 layer_factory.hpp:77] Creating layer inception_4e/relu_3x3_reduce
I0403 15:07:41.727748 11621 net.cpp:91] Creating Layer inception_4e/relu_3x3_reduce
I0403 15:07:41.727766 11621 net.cpp:425] inception_4e/relu_3x3_reduce <- inception_4e/3x3_reduce
I0403 15:07:41.727782 11621 net.cpp:386] inception_4e/relu_3x3_reduce -> inception_4e/3x3_reduce (in-place)
I0403 15:07:41.727967 11621 net.cpp:141] Setting up inception_4e/relu_3x3_reduce
I0403 15:07:41.727993 11621 net.cpp:148] Top shape: 24 160 14 14 (752640)
I0403 15:07:41.728008 11621 net.cpp:156] Memory required for data: 1224087072
I0403 15:07:41.728023 11621 layer_factory.hpp:77] Creating layer inception_4e/3x3
I0403 15:07:41.728042 11621 net.cpp:91] Creating Layer inception_4e/3x3
I0403 15:07:41.728060 11621 net.cpp:425] inception_4e/3x3 <- inception_4e/3x3_reduce
I0403 15:07:41.728077 11621 net.cpp:399] inception_4e/3x3 -> inception_4e/3x3
I0403 15:07:41.733093 11621 net.cpp:141] Setting up inception_4e/3x3
I0403 15:07:41.733135 11621 net.cpp:148] Top shape: 24 320 14 14 (1505280)
I0403 15:07:41.733152 11621 net.cpp:156] Memory required for data: 1230108192
I0403 15:07:41.733170 11621 layer_factory.hpp:77] Creating layer inception_4e/relu_3x3
I0403 15:07:41.733187 11621 net.cpp:91] Creating Layer inception_4e/relu_3x3
I0403 15:07:41.733203 11621 net.cpp:425] inception_4e/relu_3x3 <- inception_4e/3x3
I0403 15:07:41.733222 11621 net.cpp:386] inception_4e/relu_3x3 -> inception_4e/3x3 (in-place)
I0403 15:07:41.733522 11621 net.cpp:141] Setting up inception_4e/relu_3x3
I0403 15:07:41.733548 11621 net.cpp:148] Top shape: 24 320 14 14 (1505280)
I0403 15:07:41.733562 11621 net.cpp:156] Memory required for data: 1236129312
I0403 15:07:41.733577 11621 layer_factory.hpp:77] Creating layer inception_4e/5x5_reduce
I0403 15:07:41.733599 11621 net.cpp:91] Creating Layer inception_4e/5x5_reduce
I0403 15:07:41.733616 11621 net.cpp:425] inception_4e/5x5_reduce <- inception_4d/output_inception_4d/output_0_split_3
I0403 15:07:41.733638 11621 net.cpp:399] inception_4e/5x5_reduce -> inception_4e/5x5_reduce
I0403 15:07:41.734690 11621 net.cpp:141] Setting up inception_4e/5x5_reduce
I0403 15:07:41.734717 11621 net.cpp:148] Top shape: 24 32 14 14 (150528)
I0403 15:07:41.734733 11621 net.cpp:156] Memory required for data: 1236731424
I0403 15:07:41.734750 11621 layer_factory.hpp:77] Creating layer inception_4e/relu_5x5_reduce
I0403 15:07:41.734771 11621 net.cpp:91] Creating Layer inception_4e/relu_5x5_reduce
I0403 15:07:41.734787 11621 net.cpp:425] inception_4e/relu_5x5_reduce <- inception_4e/5x5_reduce
I0403 15:07:41.734804 11621 net.cpp:386] inception_4e/relu_5x5_reduce -> inception_4e/5x5_reduce (in-place)
I0403 15:07:41.735100 11621 net.cpp:141] Setting up inception_4e/relu_5x5_reduce
I0403 15:07:41.735124 11621 net.cpp:148] Top shape: 24 32 14 14 (150528)
I0403 15:07:41.735139 11621 net.cpp:156] Memory required for data: 1237333536
I0403 15:07:41.735153 11621 layer_factory.hpp:77] Creating layer inception_4e/5x5
I0403 15:07:41.735189 11621 net.cpp:91] Creating Layer inception_4e/5x5
I0403 15:07:41.735209 11621 net.cpp:425] inception_4e/5x5 <- inception_4e/5x5_reduce
I0403 15:07:41.735227 11621 net.cpp:399] inception_4e/5x5 -> inception_4e/5x5
I0403 15:07:41.737118 11621 net.cpp:141] Setting up inception_4e/5x5
I0403 15:07:41.737145 11621 net.cpp:148] Top shape: 24 128 14 14 (602112)
I0403 15:07:41.737160 11621 net.cpp:156] Memory required for data: 1239741984
I0403 15:07:41.737179 11621 layer_factory.hpp:77] Creating layer inception_4e/relu_5x5
I0403 15:07:41.737200 11621 net.cpp:91] Creating Layer inception_4e/relu_5x5
I0403 15:07:41.737217 11621 net.cpp:425] inception_4e/relu_5x5 <- inception_4e/5x5
I0403 15:07:41.737234 11621 net.cpp:386] inception_4e/relu_5x5 -> inception_4e/5x5 (in-place)
I0403 15:07:41.737439 11621 net.cpp:141] Setting up inception_4e/relu_5x5
I0403 15:07:41.737465 11621 net.cpp:148] Top shape: 24 128 14 14 (602112)
I0403 15:07:41.737483 11621 net.cpp:156] Memory required for data: 1242150432
I0403 15:07:41.737498 11621 layer_factory.hpp:77] Creating layer inception_4e/pool
I0403 15:07:41.737516 11621 net.cpp:91] Creating Layer inception_4e/pool
I0403 15:07:41.737531 11621 net.cpp:425] inception_4e/pool <- inception_4d/output_inception_4d/output_0_split_4
I0403 15:07:41.737548 11621 net.cpp:399] inception_4e/pool -> inception_4e/pool
I0403 15:07:41.737618 11621 net.cpp:141] Setting up inception_4e/pool
I0403 15:07:41.737643 11621 net.cpp:148] Top shape: 24 528 14 14 (2483712)
I0403 15:07:41.737658 11621 net.cpp:156] Memory required for data: 1252085280
I0403 15:07:41.737673 11621 layer_factory.hpp:77] Creating layer inception_4e/pool_proj
I0403 15:07:41.737694 11621 net.cpp:91] Creating Layer inception_4e/pool_proj
I0403 15:07:41.737710 11621 net.cpp:425] inception_4e/pool_proj <- inception_4e/pool
I0403 15:07:41.737731 11621 net.cpp:399] inception_4e/pool_proj -> inception_4e/pool_proj
I0403 15:07:41.739248 11621 net.cpp:141] Setting up inception_4e/pool_proj
I0403 15:07:41.739286 11621 net.cpp:148] Top shape: 24 128 14 14 (602112)
I0403 15:07:41.739302 11621 net.cpp:156] Memory required for data: 1254493728
I0403 15:07:41.739326 11621 layer_factory.hpp:77] Creating layer inception_4e/relu_pool_proj
I0403 15:07:41.739346 11621 net.cpp:91] Creating Layer inception_4e/relu_pool_proj
I0403 15:07:41.739362 11621 net.cpp:425] inception_4e/relu_pool_proj <- inception_4e/pool_proj
I0403 15:07:41.739382 11621 net.cpp:386] inception_4e/relu_pool_proj -> inception_4e/pool_proj (in-place)
I0403 15:07:41.739681 11621 net.cpp:141] Setting up inception_4e/relu_pool_proj
I0403 15:07:41.739707 11621 net.cpp:148] Top shape: 24 128 14 14 (602112)
I0403 15:07:41.739722 11621 net.cpp:156] Memory required for data: 1256902176
I0403 15:07:41.739737 11621 layer_factory.hpp:77] Creating layer inception_4e/output
I0403 15:07:41.739755 11621 net.cpp:91] Creating Layer inception_4e/output
I0403 15:07:41.739770 11621 net.cpp:425] inception_4e/output <- inception_4e/1x1
I0403 15:07:41.739786 11621 net.cpp:425] inception_4e/output <- inception_4e/3x3
I0403 15:07:41.739802 11621 net.cpp:425] inception_4e/output <- inception_4e/5x5
I0403 15:07:41.739819 11621 net.cpp:425] inception_4e/output <- inception_4e/pool_proj
I0403 15:07:41.739837 11621 net.cpp:399] inception_4e/output -> inception_4e/output
I0403 15:07:41.739887 11621 net.cpp:141] Setting up inception_4e/output
I0403 15:07:41.739912 11621 net.cpp:148] Top shape: 24 832 14 14 (3913728)
I0403 15:07:41.739928 11621 net.cpp:156] Memory required for data: 1272557088
I0403 15:07:41.739943 11621 layer_factory.hpp:77] Creating layer pool4/3x3_s2
I0403 15:07:41.739960 11621 net.cpp:91] Creating Layer pool4/3x3_s2
I0403 15:07:41.739974 11621 net.cpp:425] pool4/3x3_s2 <- inception_4e/output
I0403 15:07:41.739995 11621 net.cpp:399] pool4/3x3_s2 -> pool4/3x3_s2
I0403 15:07:41.740062 11621 net.cpp:141] Setting up pool4/3x3_s2
I0403 15:07:41.740085 11621 net.cpp:148] Top shape: 24 832 7 7 (978432)
I0403 15:07:41.740100 11621 net.cpp:156] Memory required for data: 1276470816
I0403 15:07:41.740115 11621 layer_factory.hpp:77] Creating layer pool4/3x3_s2_pool4/3x3_s2_0_split
I0403 15:07:41.740134 11621 net.cpp:91] Creating Layer pool4/3x3_s2_pool4/3x3_s2_0_split
I0403 15:07:41.740149 11621 net.cpp:425] pool4/3x3_s2_pool4/3x3_s2_0_split <- pool4/3x3_s2
I0403 15:07:41.740167 11621 net.cpp:399] pool4/3x3_s2_pool4/3x3_s2_0_split -> pool4/3x3_s2_pool4/3x3_s2_0_split_0
I0403 15:07:41.740186 11621 net.cpp:399] pool4/3x3_s2_pool4/3x3_s2_0_split -> pool4/3x3_s2_pool4/3x3_s2_0_split_1
I0403 15:07:41.740207 11621 net.cpp:399] pool4/3x3_s2_pool4/3x3_s2_0_split -> pool4/3x3_s2_pool4/3x3_s2_0_split_2
I0403 15:07:41.740231 11621 net.cpp:399] pool4/3x3_s2_pool4/3x3_s2_0_split -> pool4/3x3_s2_pool4/3x3_s2_0_split_3
I0403 15:07:41.740327 11621 net.cpp:141] Setting up pool4/3x3_s2_pool4/3x3_s2_0_split
I0403 15:07:41.740350 11621 net.cpp:148] Top shape: 24 832 7 7 (978432)
I0403 15:07:41.740366 11621 net.cpp:148] Top shape: 24 832 7 7 (978432)
I0403 15:07:41.740382 11621 net.cpp:148] Top shape: 24 832 7 7 (978432)
I0403 15:07:41.740397 11621 net.cpp:148] Top shape: 24 832 7 7 (978432)
I0403 15:07:41.740411 11621 net.cpp:156] Memory required for data: 1292125728
I0403 15:07:41.740425 11621 layer_factory.hpp:77] Creating layer inception_5a/1x1
I0403 15:07:41.740447 11621 net.cpp:91] Creating Layer inception_5a/1x1
I0403 15:07:41.740464 11621 net.cpp:425] inception_5a/1x1 <- pool4/3x3_s2_pool4/3x3_s2_0_split_0
I0403 15:07:41.740485 11621 net.cpp:399] inception_5a/1x1 -> inception_5a/1x1
I0403 15:07:41.743384 11621 net.cpp:141] Setting up inception_5a/1x1
I0403 15:07:41.743414 11621 net.cpp:148] Top shape: 24 256 7 7 (301056)
I0403 15:07:41.743430 11621 net.cpp:156] Memory required for data: 1293329952
I0403 15:07:41.743448 11621 layer_factory.hpp:77] Creating layer inception_5a/relu_1x1
I0403 15:07:41.743468 11621 net.cpp:91] Creating Layer inception_5a/relu_1x1
I0403 15:07:41.743485 11621 net.cpp:425] inception_5a/relu_1x1 <- inception_5a/1x1
I0403 15:07:41.743504 11621 net.cpp:386] inception_5a/relu_1x1 -> inception_5a/1x1 (in-place)
I0403 15:07:41.743824 11621 net.cpp:141] Setting up inception_5a/relu_1x1
I0403 15:07:41.743849 11621 net.cpp:148] Top shape: 24 256 7 7 (301056)
I0403 15:07:41.743865 11621 net.cpp:156] Memory required for data: 1294534176
I0403 15:07:41.743880 11621 layer_factory.hpp:77] Creating layer inception_5a/3x3_reduce
I0403 15:07:41.743903 11621 net.cpp:91] Creating Layer inception_5a/3x3_reduce
I0403 15:07:41.743921 11621 net.cpp:425] inception_5a/3x3_reduce <- pool4/3x3_s2_pool4/3x3_s2_0_split_1
I0403 15:07:41.743943 11621 net.cpp:399] inception_5a/3x3_reduce -> inception_5a/3x3_reduce
I0403 15:07:41.746438 11621 net.cpp:141] Setting up inception_5a/3x3_reduce
I0403 15:07:41.746467 11621 net.cpp:148] Top shape: 24 160 7 7 (188160)
I0403 15:07:41.746484 11621 net.cpp:156] Memory required for data: 1295286816
I0403 15:07:41.746501 11621 layer_factory.hpp:77] Creating layer inception_5a/relu_3x3_reduce
I0403 15:07:41.746520 11621 net.cpp:91] Creating Layer inception_5a/relu_3x3_reduce
I0403 15:07:41.746536 11621 net.cpp:425] inception_5a/relu_3x3_reduce <- inception_5a/3x3_reduce
I0403 15:07:41.746556 11621 net.cpp:386] inception_5a/relu_3x3_reduce -> inception_5a/3x3_reduce (in-place)
I0403 15:07:41.746747 11621 net.cpp:141] Setting up inception_5a/relu_3x3_reduce
I0403 15:07:41.746773 11621 net.cpp:148] Top shape: 24 160 7 7 (188160)
I0403 15:07:41.746786 11621 net.cpp:156] Memory required for data: 1296039456
I0403 15:07:41.746801 11621 layer_factory.hpp:77] Creating layer inception_5a/3x3
I0403 15:07:41.746824 11621 net.cpp:91] Creating Layer inception_5a/3x3
I0403 15:07:41.746841 11621 net.cpp:425] inception_5a/3x3 <- inception_5a/3x3_reduce
I0403 15:07:41.746863 11621 net.cpp:399] inception_5a/3x3 -> inception_5a/3x3
I0403 15:07:41.751925 11621 net.cpp:141] Setting up inception_5a/3x3
I0403 15:07:41.751955 11621 net.cpp:148] Top shape: 24 320 7 7 (376320)
I0403 15:07:41.751971 11621 net.cpp:156] Memory required for data: 1297544736
I0403 15:07:41.751989 11621 layer_factory.hpp:77] Creating layer inception_5a/relu_3x3
I0403 15:07:41.752010 11621 net.cpp:91] Creating Layer inception_5a/relu_3x3
I0403 15:07:41.752027 11621 net.cpp:425] inception_5a/relu_3x3 <- inception_5a/3x3
I0403 15:07:41.752044 11621 net.cpp:386] inception_5a/relu_3x3 -> inception_5a/3x3 (in-place)
I0403 15:07:41.752357 11621 net.cpp:141] Setting up inception_5a/relu_3x3
I0403 15:07:41.752383 11621 net.cpp:148] Top shape: 24 320 7 7 (376320)
I0403 15:07:41.752399 11621 net.cpp:156] Memory required for data: 1299050016
I0403 15:07:41.752413 11621 layer_factory.hpp:77] Creating layer inception_5a/5x5_reduce
I0403 15:07:41.752435 11621 net.cpp:91] Creating Layer inception_5a/5x5_reduce
I0403 15:07:41.752454 11621 net.cpp:425] inception_5a/5x5_reduce <- pool4/3x3_s2_pool4/3x3_s2_0_split_2
I0403 15:07:41.752475 11621 net.cpp:399] inception_5a/5x5_reduce -> inception_5a/5x5_reduce
I0403 15:07:41.753674 11621 net.cpp:141] Setting up inception_5a/5x5_reduce
I0403 15:07:41.753703 11621 net.cpp:148] Top shape: 24 32 7 7 (37632)
I0403 15:07:41.753720 11621 net.cpp:156] Memory required for data: 1299200544
I0403 15:07:41.753737 11621 layer_factory.hpp:77] Creating layer inception_5a/relu_5x5_reduce
I0403 15:07:41.753754 11621 net.cpp:91] Creating Layer inception_5a/relu_5x5_reduce
I0403 15:07:41.753770 11621 net.cpp:425] inception_5a/relu_5x5_reduce <- inception_5a/5x5_reduce
I0403 15:07:41.753787 11621 net.cpp:386] inception_5a/relu_5x5_reduce -> inception_5a/5x5_reduce (in-place)
I0403 15:07:41.754084 11621 net.cpp:141] Setting up inception_5a/relu_5x5_reduce
I0403 15:07:41.754108 11621 net.cpp:148] Top shape: 24 32 7 7 (37632)
I0403 15:07:41.754123 11621 net.cpp:156] Memory required for data: 1299351072
I0403 15:07:41.754137 11621 layer_factory.hpp:77] Creating layer inception_5a/5x5
I0403 15:07:41.754159 11621 net.cpp:91] Creating Layer inception_5a/5x5
I0403 15:07:41.754175 11621 net.cpp:425] inception_5a/5x5 <- inception_5a/5x5_reduce
I0403 15:07:41.754196 11621 net.cpp:399] inception_5a/5x5 -> inception_5a/5x5
I0403 15:07:41.755898 11621 net.cpp:141] Setting up inception_5a/5x5
I0403 15:07:41.755936 11621 net.cpp:148] Top shape: 24 128 7 7 (150528)
I0403 15:07:41.755952 11621 net.cpp:156] Memory required for data: 1299953184
I0403 15:07:41.755970 11621 layer_factory.hpp:77] Creating layer inception_5a/relu_5x5
I0403 15:07:41.755990 11621 net.cpp:91] Creating Layer inception_5a/relu_5x5
I0403 15:07:41.756007 11621 net.cpp:425] inception_5a/relu_5x5 <- inception_5a/5x5
I0403 15:07:41.756027 11621 net.cpp:386] inception_5a/relu_5x5 -> inception_5a/5x5 (in-place)
I0403 15:07:41.756218 11621 net.cpp:141] Setting up inception_5a/relu_5x5
I0403 15:07:41.756244 11621 net.cpp:148] Top shape: 24 128 7 7 (150528)
I0403 15:07:41.756259 11621 net.cpp:156] Memory required for data: 1300555296
I0403 15:07:41.756273 11621 layer_factory.hpp:77] Creating layer inception_5a/pool
I0403 15:07:41.756290 11621 net.cpp:91] Creating Layer inception_5a/pool
I0403 15:07:41.756305 11621 net.cpp:425] inception_5a/pool <- pool4/3x3_s2_pool4/3x3_s2_0_split_3
I0403 15:07:41.756330 11621 net.cpp:399] inception_5a/pool -> inception_5a/pool
I0403 15:07:41.756415 11621 net.cpp:141] Setting up inception_5a/pool
I0403 15:07:41.756445 11621 net.cpp:148] Top shape: 24 832 7 7 (978432)
I0403 15:07:41.756460 11621 net.cpp:156] Memory required for data: 1304469024
I0403 15:07:41.756474 11621 layer_factory.hpp:77] Creating layer inception_5a/pool_proj
I0403 15:07:41.756496 11621 net.cpp:91] Creating Layer inception_5a/pool_proj
I0403 15:07:41.756515 11621 net.cpp:425] inception_5a/pool_proj <- inception_5a/pool
I0403 15:07:41.756536 11621 net.cpp:399] inception_5a/pool_proj -> inception_5a/pool_proj
I0403 15:07:41.758859 11621 net.cpp:141] Setting up inception_5a/pool_proj
I0403 15:07:41.758889 11621 net.cpp:148] Top shape: 24 128 7 7 (150528)
I0403 15:07:41.758905 11621 net.cpp:156] Memory required for data: 1305071136
I0403 15:07:41.758924 11621 layer_factory.hpp:77] Creating layer inception_5a/relu_pool_proj
I0403 15:07:41.758944 11621 net.cpp:91] Creating Layer inception_5a/relu_pool_proj
I0403 15:07:41.758961 11621 net.cpp:425] inception_5a/relu_pool_proj <- inception_5a/pool_proj
I0403 15:07:41.758978 11621 net.cpp:386] inception_5a/relu_pool_proj -> inception_5a/pool_proj (in-place)
I0403 15:07:41.759276 11621 net.cpp:141] Setting up inception_5a/relu_pool_proj
I0403 15:07:41.759302 11621 net.cpp:148] Top shape: 24 128 7 7 (150528)
I0403 15:07:41.759325 11621 net.cpp:156] Memory required for data: 1305673248
I0403 15:07:41.759341 11621 layer_factory.hpp:77] Creating layer inception_5a/output
I0403 15:07:41.759356 11621 net.cpp:91] Creating Layer inception_5a/output
I0403 15:07:41.759372 11621 net.cpp:425] inception_5a/output <- inception_5a/1x1
I0403 15:07:41.759389 11621 net.cpp:425] inception_5a/output <- inception_5a/3x3
I0403 15:07:41.759418 11621 net.cpp:425] inception_5a/output <- inception_5a/5x5
I0403 15:07:41.759433 11621 net.cpp:425] inception_5a/output <- inception_5a/pool_proj
I0403 15:07:41.759454 11621 net.cpp:399] inception_5a/output -> inception_5a/output
I0403 15:07:41.759505 11621 net.cpp:141] Setting up inception_5a/output
I0403 15:07:41.759532 11621 net.cpp:148] Top shape: 24 832 7 7 (978432)
I0403 15:07:41.759548 11621 net.cpp:156] Memory required for data: 1309586976
I0403 15:07:41.759563 11621 layer_factory.hpp:77] Creating layer inception_5a/output_inception_5a/output_0_split
I0403 15:07:41.759580 11621 net.cpp:91] Creating Layer inception_5a/output_inception_5a/output_0_split
I0403 15:07:41.759596 11621 net.cpp:425] inception_5a/output_inception_5a/output_0_split <- inception_5a/output
I0403 15:07:41.759618 11621 net.cpp:399] inception_5a/output_inception_5a/output_0_split -> inception_5a/output_inception_5a/output_0_split_0
I0403 15:07:41.759640 11621 net.cpp:399] inception_5a/output_inception_5a/output_0_split -> inception_5a/output_inception_5a/output_0_split_1
I0403 15:07:41.759660 11621 net.cpp:399] inception_5a/output_inception_5a/output_0_split -> inception_5a/output_inception_5a/output_0_split_2
I0403 15:07:41.759681 11621 net.cpp:399] inception_5a/output_inception_5a/output_0_split -> inception_5a/output_inception_5a/output_0_split_3
I0403 15:07:41.759807 11621 net.cpp:141] Setting up inception_5a/output_inception_5a/output_0_split
I0403 15:07:41.759830 11621 net.cpp:148] Top shape: 24 832 7 7 (978432)
I0403 15:07:41.759846 11621 net.cpp:148] Top shape: 24 832 7 7 (978432)
I0403 15:07:41.759862 11621 net.cpp:148] Top shape: 24 832 7 7 (978432)
I0403 15:07:41.759878 11621 net.cpp:148] Top shape: 24 832 7 7 (978432)
I0403 15:07:41.759891 11621 net.cpp:156] Memory required for data: 1325241888
I0403 15:07:41.759905 11621 layer_factory.hpp:77] Creating layer inception_5b/1x1
I0403 15:07:41.759927 11621 net.cpp:91] Creating Layer inception_5b/1x1
I0403 15:07:41.759944 11621 net.cpp:425] inception_5b/1x1 <- inception_5a/output_inception_5a/output_0_split_0
I0403 15:07:41.759965 11621 net.cpp:399] inception_5b/1x1 -> inception_5b/1x1
I0403 15:07:41.763795 11621 net.cpp:141] Setting up inception_5b/1x1
I0403 15:07:41.763825 11621 net.cpp:148] Top shape: 24 384 7 7 (451584)
I0403 15:07:41.763841 11621 net.cpp:156] Memory required for data: 1327048224
I0403 15:07:41.763859 11621 layer_factory.hpp:77] Creating layer inception_5b/relu_1x1
I0403 15:07:41.763877 11621 net.cpp:91] Creating Layer inception_5b/relu_1x1
I0403 15:07:41.763893 11621 net.cpp:425] inception_5b/relu_1x1 <- inception_5b/1x1
I0403 15:07:41.763913 11621 net.cpp:386] inception_5b/relu_1x1 -> inception_5b/1x1 (in-place)
I0403 15:07:41.764226 11621 net.cpp:141] Setting up inception_5b/relu_1x1
I0403 15:07:41.764252 11621 net.cpp:148] Top shape: 24 384 7 7 (451584)
I0403 15:07:41.764267 11621 net.cpp:156] Memory required for data: 1328854560
I0403 15:07:41.764282 11621 layer_factory.hpp:77] Creating layer inception_5b/3x3_reduce
I0403 15:07:41.764303 11621 net.cpp:91] Creating Layer inception_5b/3x3_reduce
I0403 15:07:41.764329 11621 net.cpp:425] inception_5b/3x3_reduce <- inception_5a/output_inception_5a/output_0_split_1
I0403 15:07:41.764353 11621 net.cpp:399] inception_5b/3x3_reduce -> inception_5b/3x3_reduce
I0403 15:07:41.767053 11621 net.cpp:141] Setting up inception_5b/3x3_reduce
I0403 15:07:41.767086 11621 net.cpp:148] Top shape: 24 192 7 7 (225792)
I0403 15:07:41.767102 11621 net.cpp:156] Memory required for data: 1329757728
I0403 15:07:41.767120 11621 layer_factory.hpp:77] Creating layer inception_5b/relu_3x3_reduce
I0403 15:07:41.767138 11621 net.cpp:91] Creating Layer inception_5b/relu_3x3_reduce
I0403 15:07:41.767158 11621 net.cpp:425] inception_5b/relu_3x3_reduce <- inception_5b/3x3_reduce
I0403 15:07:41.767175 11621 net.cpp:386] inception_5b/relu_3x3_reduce -> inception_5b/3x3_reduce (in-place)
I0403 15:07:41.767377 11621 net.cpp:141] Setting up inception_5b/relu_3x3_reduce
I0403 15:07:41.767402 11621 net.cpp:148] Top shape: 24 192 7 7 (225792)
I0403 15:07:41.767417 11621 net.cpp:156] Memory required for data: 1330660896
I0403 15:07:41.767432 11621 layer_factory.hpp:77] Creating layer inception_5b/3x3
I0403 15:07:41.767454 11621 net.cpp:91] Creating Layer inception_5b/3x3
I0403 15:07:41.767472 11621 net.cpp:425] inception_5b/3x3 <- inception_5b/3x3_reduce
I0403 15:07:41.767493 11621 net.cpp:399] inception_5b/3x3 -> inception_5b/3x3
I0403 15:07:41.774276 11621 net.cpp:141] Setting up inception_5b/3x3
I0403 15:07:41.774307 11621 net.cpp:148] Top shape: 24 384 7 7 (451584)
I0403 15:07:41.774329 11621 net.cpp:156] Memory required for data: 1332467232
I0403 15:07:41.774348 11621 layer_factory.hpp:77] Creating layer inception_5b/relu_3x3
I0403 15:07:41.774369 11621 net.cpp:91] Creating Layer inception_5b/relu_3x3
I0403 15:07:41.774386 11621 net.cpp:425] inception_5b/relu_3x3 <- inception_5b/3x3
I0403 15:07:41.774404 11621 net.cpp:386] inception_5b/relu_3x3 -> inception_5b/3x3 (in-place)
I0403 15:07:41.774709 11621 net.cpp:141] Setting up inception_5b/relu_3x3
I0403 15:07:41.774735 11621 net.cpp:148] Top shape: 24 384 7 7 (451584)
I0403 15:07:41.774750 11621 net.cpp:156] Memory required for data: 1334273568
I0403 15:07:41.774765 11621 layer_factory.hpp:77] Creating layer inception_5b/5x5_reduce
I0403 15:07:41.774803 11621 net.cpp:91] Creating Layer inception_5b/5x5_reduce
I0403 15:07:41.774822 11621 net.cpp:425] inception_5b/5x5_reduce <- inception_5a/output_inception_5a/output_0_split_2
I0403 15:07:41.774845 11621 net.cpp:399] inception_5b/5x5_reduce -> inception_5b/5x5_reduce
I0403 15:07:41.776149 11621 net.cpp:141] Setting up inception_5b/5x5_reduce
I0403 15:07:41.776177 11621 net.cpp:148] Top shape: 24 48 7 7 (56448)
I0403 15:07:41.776193 11621 net.cpp:156] Memory required for data: 1334499360
I0403 15:07:41.776211 11621 layer_factory.hpp:77] Creating layer inception_5b/relu_5x5_reduce
I0403 15:07:41.776228 11621 net.cpp:91] Creating Layer inception_5b/relu_5x5_reduce
I0403 15:07:41.776244 11621 net.cpp:425] inception_5b/relu_5x5_reduce <- inception_5b/5x5_reduce
I0403 15:07:41.776265 11621 net.cpp:386] inception_5b/relu_5x5_reduce -> inception_5b/5x5_reduce (in-place)
I0403 15:07:41.776653 11621 net.cpp:141] Setting up inception_5b/relu_5x5_reduce
I0403 15:07:41.776679 11621 net.cpp:148] Top shape: 24 48 7 7 (56448)
I0403 15:07:41.776695 11621 net.cpp:156] Memory required for data: 1334725152
I0403 15:07:41.776708 11621 layer_factory.hpp:77] Creating layer inception_5b/5x5
I0403 15:07:41.776731 11621 net.cpp:91] Creating Layer inception_5b/5x5
I0403 15:07:41.776748 11621 net.cpp:425] inception_5b/5x5 <- inception_5b/5x5_reduce
I0403 15:07:41.776767 11621 net.cpp:399] inception_5b/5x5 -> inception_5b/5x5
I0403 15:07:41.778874 11621 net.cpp:141] Setting up inception_5b/5x5
I0403 15:07:41.778903 11621 net.cpp:148] Top shape: 24 128 7 7 (150528)
I0403 15:07:41.778918 11621 net.cpp:156] Memory required for data: 1335327264
I0403 15:07:41.778936 11621 layer_factory.hpp:77] Creating layer inception_5b/relu_5x5
I0403 15:07:41.778956 11621 net.cpp:91] Creating Layer inception_5b/relu_5x5
I0403 15:07:41.778973 11621 net.cpp:425] inception_5b/relu_5x5 <- inception_5b/5x5
I0403 15:07:41.778990 11621 net.cpp:386] inception_5b/relu_5x5 -> inception_5b/5x5 (in-place)
I0403 15:07:41.779191 11621 net.cpp:141] Setting up inception_5b/relu_5x5
I0403 15:07:41.779216 11621 net.cpp:148] Top shape: 24 128 7 7 (150528)
I0403 15:07:41.779229 11621 net.cpp:156] Memory required for data: 1335929376
I0403 15:07:41.779244 11621 layer_factory.hpp:77] Creating layer inception_5b/pool
I0403 15:07:41.779264 11621 net.cpp:91] Creating Layer inception_5b/pool
I0403 15:07:41.779281 11621 net.cpp:425] inception_5b/pool <- inception_5a/output_inception_5a/output_0_split_3
I0403 15:07:41.779302 11621 net.cpp:399] inception_5b/pool -> inception_5b/pool
I0403 15:07:41.779383 11621 net.cpp:141] Setting up inception_5b/pool
I0403 15:07:41.779407 11621 net.cpp:148] Top shape: 24 832 7 7 (978432)
I0403 15:07:41.779422 11621 net.cpp:156] Memory required for data: 1339843104
I0403 15:07:41.779436 11621 layer_factory.hpp:77] Creating layer inception_5b/pool_proj
I0403 15:07:41.779458 11621 net.cpp:91] Creating Layer inception_5b/pool_proj
I0403 15:07:41.779475 11621 net.cpp:425] inception_5b/pool_proj <- inception_5b/pool
I0403 15:07:41.779496 11621 net.cpp:399] inception_5b/pool_proj -> inception_5b/pool_proj
I0403 15:07:41.781838 11621 net.cpp:141] Setting up inception_5b/pool_proj
I0403 15:07:41.781868 11621 net.cpp:148] Top shape: 24 128 7 7 (150528)
I0403 15:07:41.781884 11621 net.cpp:156] Memory required for data: 1340445216
I0403 15:07:41.781903 11621 layer_factory.hpp:77] Creating layer inception_5b/relu_pool_proj
I0403 15:07:41.781920 11621 net.cpp:91] Creating Layer inception_5b/relu_pool_proj
I0403 15:07:41.781936 11621 net.cpp:425] inception_5b/relu_pool_proj <- inception_5b/pool_proj
I0403 15:07:41.781956 11621 net.cpp:386] inception_5b/relu_pool_proj -> inception_5b/pool_proj (in-place)
I0403 15:07:41.782260 11621 net.cpp:141] Setting up inception_5b/relu_pool_proj
I0403 15:07:41.782286 11621 net.cpp:148] Top shape: 24 128 7 7 (150528)
I0403 15:07:41.782301 11621 net.cpp:156] Memory required for data: 1341047328
I0403 15:07:41.782327 11621 layer_factory.hpp:77] Creating layer inception_5b/output
I0403 15:07:41.782349 11621 net.cpp:91] Creating Layer inception_5b/output
I0403 15:07:41.782379 11621 net.cpp:425] inception_5b/output <- inception_5b/1x1
I0403 15:07:41.782398 11621 net.cpp:425] inception_5b/output <- inception_5b/3x3
I0403 15:07:41.782414 11621 net.cpp:425] inception_5b/output <- inception_5b/5x5
I0403 15:07:41.782430 11621 net.cpp:425] inception_5b/output <- inception_5b/pool_proj
I0403 15:07:41.782449 11621 net.cpp:399] inception_5b/output -> inception_5b/output
I0403 15:07:41.782502 11621 net.cpp:141] Setting up inception_5b/output
I0403 15:07:41.782528 11621 net.cpp:148] Top shape: 24 1024 7 7 (1204224)
I0403 15:07:41.782544 11621 net.cpp:156] Memory required for data: 1345864224
I0403 15:07:41.782559 11621 layer_factory.hpp:77] Creating layer pool5/7x7_s1
I0403 15:07:41.782577 11621 net.cpp:91] Creating Layer pool5/7x7_s1
I0403 15:07:41.782593 11621 net.cpp:425] pool5/7x7_s1 <- inception_5b/output
I0403 15:07:41.782613 11621 net.cpp:399] pool5/7x7_s1 -> pool5/7x7_s1
I0403 15:07:41.782835 11621 net.cpp:141] Setting up pool5/7x7_s1
I0403 15:07:41.782860 11621 net.cpp:148] Top shape: 24 1024 1 1 (24576)
I0403 15:07:41.782876 11621 net.cpp:156] Memory required for data: 1345962528
I0403 15:07:41.782891 11621 layer_factory.hpp:77] Creating layer pool5/drop_7x7_s1
I0403 15:07:41.782907 11621 net.cpp:91] Creating Layer pool5/drop_7x7_s1
I0403 15:07:41.782923 11621 net.cpp:425] pool5/drop_7x7_s1 <- pool5/7x7_s1
I0403 15:07:41.782943 11621 net.cpp:386] pool5/drop_7x7_s1 -> pool5/7x7_s1 (in-place)
I0403 15:07:41.782995 11621 net.cpp:141] Setting up pool5/drop_7x7_s1
I0403 15:07:41.783018 11621 net.cpp:148] Top shape: 24 1024 1 1 (24576)
I0403 15:07:41.783032 11621 net.cpp:156] Memory required for data: 1346060832
I0403 15:07:41.783047 11621 layer_factory.hpp:77] Creating layer loss3/classifier_plantvillage
I0403 15:07:41.783066 11621 net.cpp:91] Creating Layer loss3/classifier_plantvillage
I0403 15:07:41.783082 11621 net.cpp:425] loss3/classifier_plantvillage <- pool5/7x7_s1
I0403 15:07:41.783102 11621 net.cpp:399] loss3/classifier_plantvillage -> loss3/classifier_plantvillage
I0403 15:07:41.783566 11621 net.cpp:141] Setting up loss3/classifier_plantvillage
I0403 15:07:41.783592 11621 net.cpp:148] Top shape: 24 38 (912)
I0403 15:07:41.783607 11621 net.cpp:156] Memory required for data: 1346064480
I0403 15:07:41.783627 11621 layer_factory.hpp:77] Creating layer loss3/classifier_plantvillage_loss3/classifier_plantvillage_0_split
I0403 15:07:41.783648 11621 net.cpp:91] Creating Layer loss3/classifier_plantvillage_loss3/classifier_plantvillage_0_split
I0403 15:07:41.783664 11621 net.cpp:425] loss3/classifier_plantvillage_loss3/classifier_plantvillage_0_split <- loss3/classifier_plantvillage
I0403 15:07:41.783684 11621 net.cpp:399] loss3/classifier_plantvillage_loss3/classifier_plantvillage_0_split -> loss3/classifier_plantvillage_loss3/classifier_plantvillage_0_split_0
I0403 15:07:41.783706 11621 net.cpp:399] loss3/classifier_plantvillage_loss3/classifier_plantvillage_0_split -> loss3/classifier_plantvillage_loss3/classifier_plantvillage_0_split_1
I0403 15:07:41.783727 11621 net.cpp:399] loss3/classifier_plantvillage_loss3/classifier_plantvillage_0_split -> loss3/classifier_plantvillage_loss3/classifier_plantvillage_0_split_2
I0403 15:07:41.783747 11621 net.cpp:399] loss3/classifier_plantvillage_loss3/classifier_plantvillage_0_split -> loss3/classifier_plantvillage_loss3/classifier_plantvillage_0_split_3
I0403 15:07:41.783852 11621 net.cpp:141] Setting up loss3/classifier_plantvillage_loss3/classifier_plantvillage_0_split
I0403 15:07:41.783876 11621 net.cpp:148] Top shape: 24 38 (912)
I0403 15:07:41.783892 11621 net.cpp:148] Top shape: 24 38 (912)
I0403 15:07:41.783907 11621 net.cpp:148] Top shape: 24 38 (912)
I0403 15:07:41.783923 11621 net.cpp:148] Top shape: 24 38 (912)
I0403 15:07:41.783937 11621 net.cpp:156] Memory required for data: 1346079072
I0403 15:07:41.783952 11621 layer_factory.hpp:77] Creating layer loss1/loss
I0403 15:07:41.783973 11621 net.cpp:91] Creating Layer loss1/loss
I0403 15:07:41.783993 11621 net.cpp:425] loss1/loss <- loss1/classifier_plantvillage_loss1/classifier_plantvillage_0_split_0
I0403 15:07:41.784024 11621 net.cpp:425] loss1/loss <- label_data_1_split_0
…
