…
I0403 15:36:13.087852 12137 net.cpp:313] The NetState phase (1) differed from the phase (0) specified by a rule in layer data
I0403 15:36:13.089004 12137 net.cpp:49] Initializing net from parameters: 
state {
  phase: TEST
}
layer {
  name: "data"
  type: "Data"
  top: "data"
  top: "label"
  include {
    phase: TEST
  }
  transform_param {
    mirror: false
    crop_size: 224
    mean_file: "/home/mohanty/data/final_dataset/lmdb/segmented-40-60/mean.binaryproto"
  }
  data_param {
    source: "/home/mohanty/data/final_dataset/lmdb/segmented-40-60/test_db"
    batch_size: 24
    backend: LMDB
  }
}
layer {
  name: "conv1/7x7_s2"
  type: "Convolution"
  bottom: "data"
  top: "conv1/7x7_s2"
  param {
    lr_mult: 1
    decay_mult: 1
  }
  param {
    lr_mult: 2
    decay_mult: 0
  }
  convolution_param {
    num_output: 64
    pad: 3
    kernel_size: 7
    stride: 2
    weight_filler {
      type: "xavier"
      std: 0.1
    }
    bias_filler {
      type: "constant"
      value: 0.2
    }
  }
}
layer {
  name: "conv1/relu_7x7"
  type: "ReLU"
  bottom: "conv1/7x7_s2"
  top: "conv1/7x7_s2"
}
layer {
  name: "pool1/3x3_s2"
  type: "Pooling"
  bottom: "conv1/7x7_s2"
  top: "pool1/3x3_s2"
  pooling_param {
    pool: MAX
    kernel_size: 3
    stride: 2
  }
}
layer {
  name: "pool1/norm1"
  type: "LRN"
  bottom: "pool1/3x3_s2"
  top: "pool1/norm1"
  lrn_param {
    local_size: 5
    alpha: 0.0001
    beta: 0.75
  }
}
layer {
  name: "conv2/3x3_reduce"
  type: "Convolution"
  bottom: "pool1/norm1"
  top: "conv2/3x3_reduce"
  param {
    lr_mult: 1
    decay_mult: 1
  }
  param {
    lr_mult: 2
    decay_mult: 0
  }
  convolution_param {
    num_output: 64
    kernel_size: 1
    weight_filler {
      type: "xavier"
      std: 0.1
    }
    bias_filler {
      type: "constant"
      value: 0.2
    }
  }
}
layer {
  name: "conv2/relu_3x3_reduce"
  type: "ReLU"
  bottom: "conv2/3x3_reduce"
  top: "conv2/3x3_reduce"
}
layer {
  name: "conv2/3x3"
  type: "Convolution"
  bottom: "conv2/3x3_reduce"
  top: "conv2/3x3"
  param {
    lr_mult: 1
    decay_mult: 1
  }
  param {
    lr_mult: 2
    decay_mult: 0
  }
  convolution_param {
    num_output: 192
    pad: 1
    kernel_size: 3
    weight_filler {
      type: "xavier"
      std: 0.03
    }
    bias_filler {
      type: "constant"
      value: 0.2
    }
  }
}
layer {
  name: "conv2/relu_3x3"
  type: "ReLU"
  bottom: "conv2/3x3"
  top: "conv2/3x3"
}
layer {
  name: "conv2/norm2"
  type: "LRN"
  bottom: "conv2/3x3"
  top: "conv2/norm2"
  lrn_param {
    local_size: 5
    alpha: 0.0001
    beta: 0.75
  }
}
layer {
  name: "pool2/3x3_s2"
  type: "Pooling"
  bottom: "conv2/norm2"
  top: "pool2/3x3_s2"
  pooling_param {
    pool: MAX
    kernel_size: 3
    stride: 2
  }
}
layer {
  name: "inception_3a/1x1"
  type: "Convolution"
  bottom: "pool2/3x3_s2"
  top: "inception_3a/1x1"
  param {
    lr_mult: 1
    decay_mult: 1
  }
  param {
    lr_mult: 2
    decay_mult: 0
  }
  convolution_param {
    num_output: 64
    kernel_size: 1
    weight_filler {
      type: "xavier"
      std: 0.03
    }
    bias_filler {
      type: "constant"
      value: 0.2
    }
  }
}
layer {
  name: "inception_3a/relu_1x1"
  type: "ReLU"
  bottom: "inception_3a/1x1"
  top: "inception_3a/1x1"
}
layer {
  name: "inception_3a/3x3_reduce"
  type: "Convolution"
  bottom: "pool2/3x3_s2"
  top: "inception_3a/3x3_reduce"
  param {
    lr_mult: 1
    decay_mult: 1
  }
  param {
    lr_mult: 2
    decay_mult: 0
  }
  convolution_param {
    num_output: 96
    kernel_size: 1
    weight_filler {
      type: "xavier"
      std: 0.09
    }
    bias_filler {
      type: "constant"
      value: 0.2
    }
  }
}
layer {
  name: "inception_3a/relu_3x3_reduce"
  type: "ReLU"
  bottom: "inception_3a/3x3_reduce"
  top: "inception_3a/3x3_reduce"
}
layer {
  name: "inception_3a/3x3"
  type: "Convolution"
  bottom: "inception_3a/3x3_reduce"
  top: "inception_3a/3x3"
  param {
    lr_mult: 1
    decay_mult: 1
  }
  param {
    lr_mult: 2
    decay_mult: 0
  }
  convolution_param {
    num_output: 128
    pad: 1
    kernel_size: 3
    weight_filler {
      type: "xavier"
      std: 0.03
    }
    bias_filler {
      type: "constant"
      value: 0.2
    }
  }
}
layer {
  name: "inception_3a/relu_3x3"
  type: "ReLU"
  bottom: "inception_3a/3x3"
  top: "inception_3a/3x3"
}
layer {
  name: "inception_3a/5x5_reduce"
  type: "Convolution"
  bottom: "pool2/3x3_s2"
  top: "inception_3a/5x5_reduce"
  param {
    lr_mult: 1
    decay_mult: 1
  }
  param {
    lr_mult: 2
    decay_mult: 0
  }
  convolution_param {
    num_output: 16
    kernel_size: 1
    weight_filler {
      type: "xavier"
      std: 0.2
    }
    bias_filler {
      type: "constant"
      value: 0.2
    }
  }
}
layer {
  name: "inception_3a/relu_5x5_reduce"
  type: "ReLU"
  bottom: "inception_3a/5x5_reduce"
  top: "inception_3a/5x5_reduce"
}
layer {
  name: "inception_3a/5x5"
  type: "Convolution"
  bottom: "inception_3a/5x5_reduce"
  top: "inception_3a/5x5"
  param {
    lr_mult: 1
    decay_mult: 1
  }
  param {
    lr_mult: 2
    decay_mult: 0
  }
  convolution_param {
    num_output: 32
    pad: 2
    kernel_size: 5
    weight_filler {
      type: "xavier"
      std: 0.03
    }
    bias_filler {
      type: "constant"
      value: 0.2
    }
  }
}
layer {
  name: "inception_3a/relu_5x5"
  type: "ReLU"
  bottom: "inception_3a/5x5"
  top: "inception_3a/5x5"
}
layer {
  name: "inception_3a/pool"
  type: "Pooling"
  bottom: "pool2/3x3_s2"
  top: "inception_3a/pool"
  pooling_param {
    pool: MAX
    kernel_size: 3
    stride: 1
    pad: 1
  }
}
layer {
  name: "inception_3a/pool_proj"
  type: "Convolution"
  bottom: "inception_3a/pool"
  top: "inception_3a/pool_proj"
  param {
    lr_mult: 1
    decay_mult: 1
  }
  param {
    lr_mult: 2
    decay_mult: 0
  }
  convolution_param {
    num_output: 32
    kernel_size: 1
    weight_filler {
      type: "xavier"
      std: 0.1
    }
    bias_filler {
      type: "constant"
      value: 0.2
    }
  }
}
layer {
  name: "inception_3a/relu_pool_proj"
  type: "ReLU"
  bottom: "inception_3a/pool_proj"
  top: "inception_3a/pool_proj"
}
layer {
  name: "inception_3a/output"
  type: "Concat"
  bottom: "inception_3a/1x1"
  bottom: "inception_3a/3x3"
  bottom: "inception_3a/5x5"
  bottom: "inception_3a/pool_proj"
  top: "inception_3a/output"
}
layer {
  name: "inception_3b/1x1"
  type: "Convolution"
  bottom: "inception_3a/output"
  top: "inception_3b/1x1"
  param {
    lr_mult: 1
    decay_mult: 1
  }
  param {
    lr_mult: 2
    decay_mult: 0
  }
  convolution_param {
    num_output: 128
    kernel_size: 1
    weight_filler {
      type: "xavier"
      std: 0.03
    }
    bias_filler {
      type: "constant"
      value: 0.2
    }
  }
}
layer {
  name: "inception_3b/relu_1x1"
  type: "ReLU"
  bottom: "inception_3b/1x1"
  top: "inception_3b/1x1"
}
layer {
  name: "inception_3b/3x3_reduce"
  type: "Convolution"
  bottom: "inception_3a/output"
  top: "inception_3b/3x3_reduce"
  param {
    lr_mult: 1
    decay_mult: 1
  }
  param {
    lr_mult: 2
    decay_mult: 0
  }
  convolution_param {
    num_output: 128
    kernel_size: 1
    weight_filler {
      type: "xavier"
      std: 0.09
    }
    bias_filler {
      type: "constant"
      value: 0.2
    }
  }
}
layer {
  name: "inception_3b/relu_3x3_reduce"
  type: "ReLU"
  bottom: "inception_3b/3x3_reduce"
  top: "inception_3b/3x3_reduce"
}
layer {
  name: "inception_3b/3x3"
  type: "Convolution"
  bottom: "inception_3b/3x3_reduce"
  top: "inception_3b/3x3"
  param {
    lr_mult: 1
    decay_mult: 1
  }
  param {
    lr_mult: 2
    decay_mult: 0
  }
  convolution_param {
    num_output: 192
    pad: 1
    kernel_size: 3
    weight_filler {
      type: "xavier"
      std: 0.03
    }
    bias_filler {
      type: "constant"
      value: 0.2
    }
  }
}
layer {
  name: "inception_3b/relu_3x3"
  type: "ReLU"
  bottom: "inception_3b/3x3"
  top: "inception_3b/3x3"
}
layer {
  name: "inception_3b/5x5_reduce"
  type: "Convolution"
  bottom: "inception_3a/output"
  top: "inception_3b/5x5_reduce"
  param {
    lr_mult: 1
    decay_mult: 1
  }
  param {
    lr_mult: 2
    decay_mult: 0
  }
  convolution_param {
    num_output: 32
    kernel_size: 1
    weight_filler {
      type: "xavier"
      std: 0.2
    }
    bias_filler {
      type: "constant"
      value: 0.2
    }
  }
}
layer {
  name: "inception_3b/relu_5x5_reduce"
  type: "ReLU"
  bottom: "inception_3b/5x5_reduce"
  top: "inception_3b/5x5_reduce"
}
layer {
  name: "inception_3b/5x5"
  type: "Convolution"
  bottom: "inception_3b/5x5_reduce"
  top: "inception_3b/5x5"
  param {
    lr_mult: 1
    decay_mult: 1
  }
  param {
    lr_mult: 2
    decay_mult: 0
  }
  convolution_param {
    num_output: 96
    pad: 2
    kernel_size: 5
    weight_filler {
      type: "xavier"
      std: 0.03
    }
    bias_filler {
      type: "constant"
      value: 0.2
    }
  }
}
layer {
  name: "inception_3b/relu_5x5"
  type: "ReLU"
  bottom: "inception_3b/5x5"
  top: "inception_3b/5x5"
}
layer {
  name: "inception_3b/pool"
  type: "Pooling"
  bottom: "inception_3a/output"
  top: "inception_3b/pool"
  pooling_param {
    pool: MAX
    kernel_size: 3
    stride: 1
    pad: 1
  }
}
layer {
  name: "inception_3b/pool_proj"
  type: "Convolution"
  bottom: "inception_3b/pool"
  top: "inception_3b/pool_proj"
  param {
    lr_mult: 1
    decay_mult: 1
  }
  param {
    lr_mult: 2
    decay_mult: 0
  }
  convolution_param {
    num_output: 64
    kernel_size: 1
    weight_filler {
      type: "xavier"
      std: 0.1
    }
    bias_filler {
      type: "constant"
      value: 0.2
    }
  }
}
layer {
  name: "inception_3b/relu_pool_proj"
  type: "ReLU"
  bottom: "inception_3b/pool_proj"
  top: "inception_3b/pool_proj"
}
layer {
  name: "inception_3b/output"
  type: "Concat"
  bottom: "inception_3b/1x1"
  bottom: "inception_3b/3x3"
  bottom: "inception_3b/5x5"
  bottom: "inception_3b/pool_proj"
  top: "inception_3b/output"
}
layer {
  name: "pool3/3x3_s2"
  type: "Pooling"
  bottom: "inception_3b/output"
  top: "pool3/3x3_s2"
  pooling_param {
    pool: MAX
    kernel_size: 3
    stride: 2
  }
}
layer {
  name: "inception_4a/1x1"
  type: "Convolution"
  bottom: "pool3/3x3_s2"
  top: "inception_4a/1x1"
  param {
    lr_mult: 1
    decay_mult: 1
  }
  param {
    lr_mult: 2
    decay_mult: 0
  }
  convolution_param {
    num_output: 192
    kernel_size: 1
    weight_filler {
      type: "xavier"
      std: 0.03
    }
    bias_filler {
      type: "constant"
      value: 0.2
    }
  }
}
layer {
  name: "inception_4a/relu_1x1"
  type: "ReLU"
  bottom: "inception_4a/1x1"
  top: "inception_4a/1x1"
}
layer {
  name: "inception_4a/3x3_reduce"
  type: "Convolution"
  bottom: "pool3/3x3_s2"
  top: "inception_4a/3x3_reduce"
  param {
    lr_mult: 1
    decay_mult: 1
  }
  param {
    lr_mult: 2
    decay_mult: 0
  }
  convolution_param {
    num_output: 96
    kernel_size: 1
    weight_filler {
      type: "xavier"
      std: 0.09
    }
    bias_filler {
      type: "constant"
      value: 0.2
    }
  }
}
layer {
  name: "inception_4a/relu_3x3_reduce"
  type: "ReLU"
  bottom: "inception_4a/3x3_reduce"
  top: "inception_4a/3x3_reduce"
}
layer {
  name: "inception_4a/3x3"
  type: "Convolution"
  bottom: "inception_4a/3x3_reduce"
  top: "inception_4a/3x3"
  param {
    lr_mult: 1
    decay_mult: 1
  }
  param {
    lr_mult: 2
    decay_mult: 0
  }
  convolution_param {
    num_output: 208
    pad: 1
    kernel_size: 3
    weight_filler {
      type: "xavier"
      std: 0.03
    }
    bias_filler {
      type: "constant"
      value: 0.2
    }
  }
}
layer {
  name: "inception_4a/relu_3x3"
  type: "ReLU"
  bottom: "inception_4a/3x3"
  top: "inception_4a/3x3"
}
layer {
  name: "inception_4a/5x5_reduce"
  type: "Convolution"
  bottom: "pool3/3x3_s2"
  top: "inception_4a/5x5_reduce"
  param {
    lr_mult: 1
    decay_mult: 1
  }
  param {
    lr_mult: 2
    decay_mult: 0
  }
  convolution_param {
    num_output: 16
    kernel_size: 1
    weight_filler {
      type: "xavier"
      std: 0.2
    }
    bias_filler {
      type: "constant"
      value: 0.2
    }
  }
}
layer {
  name: "inception_4a/relu_5x5_reduce"
  type: "ReLU"
  bottom: "inception_4a/5x5_reduce"
  top: "inception_4a/5x5_reduce"
}
layer {
  name: "inception_4a/5x5"
  type: "Convolution"
  bottom: "inception_4a/5x5_reduce"
  top: "inception_4a/5x5"
  param {
    lr_mult: 1
    decay_mult: 1
  }
  param {
    lr_mult: 2
    decay_mult: 0
  }
  convolution_param {
    num_output: 48
    pad: 2
    kernel_size: 5
    weight_filler {
      type: "xavier"
      std: 0.03
    }
    bias_filler {
      type: "constant"
      value: 0.2
    }
  }
}
layer {
  name: "inception_4a/relu_5x5"
  type: "ReLU"
  bottom: "inception_4a/5x5"
  top: "inception_4a/5x5"
}
layer {
  name: "inception_4a/pool"
  type: "Pooling"
  bottom: "pool3/3x3_s2"
  top: "inception_4a/pool"
  pooling_param {
    pool: MAX
    kernel_size: 3
    stride: 1
    pad: 1
  }
}
layer {
  name: "inception_4a/pool_proj"
  type: "Convolution"
  bottom: "inception_4a/pool"
  top: "inception_4a/pool_proj"
  param {
    lr_mult: 1
    decay_mult: 1
  }
  param {
    lr_mult: 2
    decay_mult: 0
  }
  convolution_param {
    num_output: 64
    kernel_size: 1
    weight_filler {
      type: "xavier"
      std: 0.1
    }
    bias_filler {
      type: "constant"
      value: 0.2
    }
  }
}
layer {
  name: "inception_4a/relu_pool_proj"
  type: "ReLU"
  bottom: "inception_4a/pool_proj"
  top: "inception_4a/pool_proj"
}
layer {
  name: "inception_4a/output"
  type: "Concat"
  bottom: "inception_4a/1x1"
  bottom: "inception_4a/3x3"
  bottom: "inception_4a/5x5"
  bottom: "inception_4a/pool_proj"
  top: "inception_4a/output"
}
layer {
  name: "loss1/ave_pool"
  type: "Pooling"
  bottom: "inception_4a/output"
  top: "loss1/ave_pool"
  pooling_param {
    pool: AVE
    kernel_size: 5
    stride: 3
  }
}
layer {
  name: "loss1/conv"
  type: "Convolution"
  bottom: "loss1/ave_pool"
  top: "loss1/conv"
  param {
    lr_mult: 1
    decay_mult: 1
  }
  param {
    lr_mult: 2
    decay_mult: 0
  }
  convolution_param {
    num_output: 128
    kernel_size: 1
    weight_filler {
      type: "xavier"
      std: 0.08
    }
    bias_filler {
      type: "constant"
      value: 0.2
    }
  }
}
layer {
  name: "loss1/relu_conv"
  type: "ReLU"
  bottom: "loss1/conv"
  top: "loss1/conv"
}
layer {
  name: "loss1/fc"
  type: "InnerProduct"
  bottom: "loss1/conv"
  top: "loss1/fc"
  param {
    lr_mult: 1
    decay_mult: 1
  }
  param {
    lr_mult: 2
    decay_mult: 0
  }
  inner_product_param {
    num_output: 1024
    weight_filler {
      type: "xavier"
      std: 0.02
    }
    bias_filler {
      type: "constant"
      value: 0.2
    }
  }
}
layer {
  name: "loss1/relu_fc"
  type: "ReLU"
  bottom: "loss1/fc"
  top: "loss1/fc"
}
layer {
  name: "loss1/drop_fc"
  type: "Dropout"
  bottom: "loss1/fc"
  top: "loss1/fc"
  dropout_param {
    dropout_ratio: 0.7
  }
}
layer {
  name: "loss1/classifier_plantvillage"
  type: "InnerProduct"
  bottom: "loss1/fc"
  top: "loss1/classifier_plantvillage"
  param {
    lr_mult: 1
    decay_mult: 1
  }
  param {
    lr_mult: 2
    decay_mult: 0
  }
  inner_product_param {
    num_output: 38
    weight_filler {
      type: "xavier"
      std: 0.0009765625
    }
    bias_filler {
      type: "constant"
      value: 0
    }
  }
}
layer {
  name: "inception_4b/1x1"
  type: "Convolution"
  bottom: "inception_4a/output"
  top: "inception_4b/1x1"
  param {
    lr_mult: 1
    decay_mult: 1
  }
  param {
    lr_mult: 2
    decay_mult: 0
  }
  convolution_param {
    num_output: 160
    kernel_size: 1
    weight_filler {
      type: "xavier"
      std: 0.03
    }
    bias_filler {
      type: "constant"
      value: 0.2
    }
  }
}
layer {
  name: "inception_4b/relu_1x1"
  type: "ReLU"
  bottom: "inception_4b/1x1"
  top: "inception_4b/1x1"
}
layer {
  name: "inception_4b/3x3_reduce"
  type: "Convolution"
  bottom: "inception_4a/output"
  top: "inception_4b/3x3_reduce"
  param {
    lr_mult: 1
    decay_mult: 1
  }
  param {
    lr_mult: 2
    decay_mult: 0
  }
  convolution_param {
    num_output: 112
    kernel_size: 1
    weight_filler {
      type: "xavier"
      std: 0.09
    }
    bias_filler {
      type: "constant"
      value: 0.2
    }
  }
}
layer {
  name: "inception_4b/relu_3x3_reduce"
  type: "ReLU"
  bottom: "inception_4b/3x3_reduce"
  top: "inception_4b/3x3_reduce"
}
layer {
  name: "inception_4b/3x3"
  type: "Convolution"
  bottom: "inception_4b/3x3_reduce"
  top: "inception_4b/3x3"
  param {
    lr_mult: 1
    decay_mult: 1
  }
  param {
    lr_mult: 2
    decay_mult: 0
  }
  convolution_param {
    num_output: 224
    pad: 1
    kernel_size: 3
    weight_filler {
      type: "xavier"
      std: 0.03
    }
    bias_filler {
      type: "constant"
      value: 0.2
    }
  }
}
layer {
  name: "inception_4b/relu_3x3"
  type: "ReLU"
  bottom: "inception_4b/3x3"
  top: "inception_4b/3x3"
}
layer {
  name: "inception_4b/5x5_reduce"
  type: "Convolution"
  bottom: "inception_4a/output"
  top: "inception_4b/5x5_reduce"
  param {
    lr_mult: 1
    decay_mult: 1
  }
  param {
    lr_mult: 2
    decay_mult: 0
  }
  convolution_param {
    num_output: 24
    kernel_size: 1
    weight_filler {
      type: "xavier"
      std: 0.2
    }
    bias_filler {
      type: "constant"
      value: 0.2
    }
  }
}
layer {
  name: "inception_4b/relu_5x5_reduce"
  type: "ReLU"
  bottom: "inception_4b/5x5_reduce"
  top: "inception_4b/5x5_reduce"
}
layer {
  name: "inception_4b/5x5"
  type: "Convolution"
  bottom: "inception_4b/5x5_reduce"
  top: "inception_4b/5x5"
  param {
    lr_mult: 1
    decay_mult: 1
  }
  param {
    lr_mult: 2
    decay_mult: 0
  }
  convolution_param {
    num_output: 64
    pad: 2
    kernel_size: 5
    weight_filler {
      type: "xavier"
      std: 0.03
    }
    bias_filler {
      type: "constant"
      value: 0.2
    }
  }
}
layer {
  name: "inception_4b/relu_5x5"
  type: "ReLU"
  bottom: "inception_4b/5x5"
  top: "inception_4b/5x5"
}
layer {
  name: "inception_4b/pool"
  type: "Pooling"
  bottom: "inception_4a/output"
  top: "inception_4b/pool"
  pooling_param {
    pool: MAX
    kernel_size: 3
    stride: 1
    pad: 1
  }
}
layer {
  name: "inception_4b/pool_proj"
  type: "Convolution"
  bottom: "inception_4b/pool"
  top: "inception_4b/pool_proj"
  param {
    lr_mult: 1
    decay_mult: 1
  }
  param {
    lr_mult: 2
    decay_mult: 0
  }
  convolution_param {
    num_output: 64
    kernel_size: 1
    weight_filler {
      type: "xavier"
      std: 0.1
    }
    bias_filler {
      type: "constant"
      value: 0.2
    }
  }
}
layer {
  name: "inception_4b/relu_pool_proj"
  type: "ReLU"
  bottom: "inception_4b/pool_proj"
  top: "inception_4b/pool_proj"
}
layer {
  name: "inception_4b/output"
  type: "Concat"
  bottom: "inception_4b/1x1"
  bottom: "inception_4b/3x3"
  bottom: "inception_4b/5x5"
  bottom: "inception_4b/pool_proj"
  top: "inception_4b/output"
}
layer {
  name: "inception_4c/1x1"
  type: "Convolution"
  bottom: "inception_4b/output"
  top: "inception_4c/1x1"
  param {
    lr_mult: 1
    decay_mult: 1
  }
  param {
    lr_mult: 2
    decay_mult: 0
  }
  convolution_param {
    num_output: 128
    kernel_size: 1
    weight_filler {
      type: "xavier"
      std: 0.03
    }
    bias_filler {
      type: "constant"
      value: 0.2
    }
  }
}
layer {
  name: "inception_4c/relu_1x1"
  type: "ReLU"
  bottom: "inception_4c/1x1"
  top: "inception_4c/1x1"
}
layer {
  name: "inception_4c/3x3_reduce"
  type: "Convolution"
  bottom: "inception_4b/output"
  top: "inception_4c/3x3_reduce"
  param {
    lr_mult: 1
    decay_mult: 1
  }
  param {
    lr_mult: 2
    decay_mult: 0
  }
  convolution_param {
    num_output: 128
    kernel_size: 1
    weight_filler {
      type: "xavier"
      std: 0.09
    }
    bias_filler {
      type: "constant"
      value: 0.2
    }
  }
}
layer {
  name: "inception_4c/relu_3x3_reduce"
  type: "ReLU"
  bottom: "inception_4c/3x3_reduce"
  top: "inception_4c/3x3_reduce"
}
layer {
  name: "inception_4c/3x3"
  type: "Convolution"
  bottom: "inception_4c/3x3_reduce"
  top: "inception_4c/3x3"
  param {
    lr_mult: 1
    decay_mult: 1
  }
  param {
    lr_mult: 2
    decay_mult: 0
  }
  convolution_param {
    num_output: 256
    pad: 1
    kernel_size: 3
    weight_filler {
      type: "xavier"
      std: 0.03
    }
    bias_filler {
      type: "constant"
      value: 0.2
    }
  }
}
layer {
  name: "inception_4c/relu_3x3"
  type: "ReLU"
  bottom: "inception_4c/3x3"
  top: "inception_4c/3x3"
}
layer {
  name: "inception_4c/5x5_reduce"
  type: "Convolution"
  bottom: "inception_4b/output"
  top: "inception_4c/5x5_reduce"
  param {
    lr_mult: 1
    decay_mult: 1
  }
  param {
    lr_mult: 2
    decay_mult: 0
  }
  convolution_param {
    num_output: 24
    kernel_size: 1
    weight_filler {
      type: "xavier"
      std: 0.2
    }
    bias_filler {
      type: "constant"
      value: 0.2
    }
  }
}
layer {
  name: "inception_4c/relu_5x5_reduce"
  type: "ReLU"
  bottom: "inception_4c/5x5_reduce"
  top: "inception_4c/5x5_reduce"
}
layer {
  name: "inception_4c/5x5"
  type: "Convolution"
  bottom: "inception_4c/5x5_reduce"
  top: "inception_4c/5x5"
  param {
    lr_mult: 1
    decay_mult: 1
  }
  param {
    lr_mult: 2
    decay_mult: 0
  }
  convolution_param {
    num_output: 64
    pad: 2
    kernel_size: 5
    weight_filler {
      type: "xavier"
      std: 0.03
    }
    bias_filler {
      type: "constant"
      value: 0.2
    }
  }
}
layer {
  name: "inception_4c/relu_5x5"
  type: "ReLU"
  bottom: "inception_4c/5x5"
  top: "inception_4c/5x5"
}
layer {
  name: "inception_4c/pool"
  type: "Pooling"
  bottom: "inception_4b/output"
  top: "inception_4c/pool"
  pooling_param {
    pool: MAX
    kernel_size: 3
    stride: 1
    pad: 1
  }
}
layer {
  name: "inception_4c/pool_proj"
  type: "Convolution"
  bottom: "inception_4c/pool"
  top: "inception_4c/pool_proj"
  param {
    lr_mult: 1
    decay_mult: 1
  }
  param {
    lr_mult: 2
    decay_mult: 0
  }
  convolution_param {
    num_output: 64
    kernel_size: 1
    weight_filler {
      type: "xavier"
      std: 0.1
    }
    bias_filler {
      type: "constant"
      value: 0.2
    }
  }
}
layer {
  name: "inception_4c/relu_pool_proj"
  type: "ReLU"
  bottom: "inception_4c/pool_proj"
  top: "inception_4c/pool_proj"
}
layer {
  name: "inception_4c/output"
  type: "Concat"
  bottom: "inception_4c/1x1"
  bottom: "inception_4c/3x3"
  bottom: "inception_4c/5x5"
  bottom: "inception_4c/pool_proj"
  top: "inception_4c/output"
}
layer {
  name: "inception_4d/1x1"
  type: "Convolution"
  bottom: "inception_4c/output"
  top: "inception_4d/1x1"
  param {
    lr_mult: 1
    decay_mult: 1
  }
  param {
    lr_mult: 2
    decay_mult: 0
  }
  convolution_param {
    num_output: 112
    kernel_size: 1
    weight_filler {
      type: "xavier"
      std: 0.03
    }
    bias_filler {
      type: "constant"
      value: 0.2
    }
  }
}
layer {
  name: "inception_4d/relu_1x1"
  type: "ReLU"
  bottom: "inception_4d/1x1"
  top: "inception_4d/1x1"
}
layer {
  name: "inception_4d/3x3_reduce"
  type: "Convolution"
  bottom: "inception_4c/output"
  top: "inception_4d/3x3_reduce"
  param {
    lr_mult: 1
    decay_mult: 1
  }
  param {
    lr_mult: 2
    decay_mult: 0
  }
  convolution_param {
    num_output: 144
    kernel_size: 1
    weight_filler {
      type: "xavier"
      std: 0.09
    }
    bias_filler {
      type: "constant"
      value: 0.2
    }
  }
}
layer {
  name: "inception_4d/relu_3x3_reduce"
  type: "ReLU"
  bottom: "inception_4d/3x3_reduce"
  top: "inception_4d/3x3_reduce"
}
layer {
  name: "inception_4d/3x3"
  type: "Convolution"
  bottom: "inception_4d/3x3_reduce"
  top: "inception_4d/3x3"
  param {
    lr_mult: 1
    decay_mult: 1
  }
  param {
    lr_mult: 2
    decay_mult: 0
  }
  convolution_param {
    num_output: 288
    pad: 1
    kernel_size: 3
    weight_filler {
      type: "xavier"
      std: 0.03
    }
    bias_filler {
      type: "constant"
      value: 0.2
    }
  }
}
layer {
  name: "inception_4d/relu_3x3"
  type: "ReLU"
  bottom: "inception_4d/3x3"
  top: "inception_4d/3x3"
}
layer {
  name: "inception_4d/5x5_reduce"
  type: "Convolution"
  bottom: "inception_4c/output"
  top: "inception_4d/5x5_reduce"
  param {
    lr_mult: 1
    decay_mult: 1
  }
  param {
    lr_mult: 2
    decay_mult: 0
  }
  convolution_param {
    num_output: 32
    kernel_size: 1
    weight_filler {
      type: "xavier"
      std: 0.2
    }
    bias_filler {
      type: "constant"
      value: 0.2
    }
  }
}
layer {
  name: "inception_4d/relu_5x5_reduce"
  type: "ReLU"
  bottom: "inception_4d/5x5_reduce"
  top: "inception_4d/5x5_reduce"
}
layer {
  name: "inception_4d/5x5"
  type: "Convolution"
  bottom: "inception_4d/5x5_reduce"
  top: "inception_4d/5x5"
  param {
    lr_mult: 1
    decay_mult: 1
  }
  param {
    lr_mult: 2
    decay_mult: 0
  }
  convolution_param {
    num_output: 64
    pad: 2
    kernel_size: 5
    weight_filler {
      type: "xavier"
      std: 0.03
    }
    bias_filler {
      type: "constant"
      value: 0.2
    }
  }
}
layer {
  name: "inception_4d/relu_5x5"
  type: "ReLU"
  bottom: "inception_4d/5x5"
  top: "inception_4d/5x5"
}
layer {
  name: "inception_4d/pool"
  type: "Pooling"
  bottom: "inception_4c/output"
  top: "inception_4d/pool"
  pooling_param {
    pool: MAX
    kernel_size: 3
    stride: 1
    pad: 1
  }
}
layer {
  name: "inception_4d/pool_proj"
  type: "Convolution"
  bottom: "inception_4d/pool"
  top: "inception_4d/pool_proj"
  param {
    lr_mult: 1
    decay_mult: 1
  }
  param {
    lr_mult: 2
    decay_mult: 0
  }
  convolution_param {
    num_output: 64
    kernel_size: 1
    weight_filler {
      type: "xavier"
      std: 0.1
    }
    bias_filler {
      type: "constant"
      value: 0.2
    }
  }
}
layer {
  name: "inception_4d/relu_pool_proj"
  type: "ReLU"
  bottom: "inception_4d/pool_proj"
  top: "inception_4d/pool_proj"
}
layer {
  name: "inception_4d/output"
  type: "Concat"
  bottom: "inception_4d/1x1"
  bottom: "inception_4d/3x3"
  bottom: "inception_4d/5x5"
  bottom: "inception_4d/pool_proj"
  top: "inception_4d/output"
}
layer {
  name: "loss2/ave_pool"
  type: "Pooling"
  bottom: "inception_4d/output"
  top: "loss2/ave_pool"
  pooling_param {
    pool: AVE
    kernel_size: 5
    stride: 3
  }
}
layer {
  name: "loss2/conv"
  type: "Convolution"
  bottom: "loss2/ave_pool"
  top: "loss2/conv"
  param {
    lr_mult: 1
    decay_mult: 1
  }
  param {
    lr_mult: 2
    decay_mult: 0
  }
  convolution_param {
    num_output: 128
    kernel_size: 1
    weight_filler {
      type: "xavier"
      std: 0.08
    }
    bias_filler {
      type: "constant"
      value: 0.2
    }
  }
}
layer {
  name: "loss2/relu_conv"
  type: "ReLU"
  bottom: "loss2/conv"
  top: "loss2/conv"
}
layer {
  name: "loss2/fc"
  type: "InnerProduct"
  bottom: "loss2/conv"
  top: "loss2/fc"
  param {
    lr_mult: 1
    decay_mult: 1
  }
  param {
    lr_mult: 2
    decay_mult: 0
  }
  inner_product_param {
    num_output: 1024
    weight_filler {
      type: "xavier"
      std: 0.02
    }
    bias_filler {
      type: "constant"
      value: 0.2
    }
  }
}
layer {
  name: "loss2/relu_fc"
  type: "ReLU"
  bottom: "loss2/fc"
  top: "loss2/fc"
}
layer {
  name: "loss2/drop_fc"
  type: "Dropout"
  bottom: "loss2/fc"
  top: "loss2/fc"
  dropout_param {
    dropout_ratio: 0.7
  }
}
layer {
  name: "loss2/classifier_plantvillage"
  type: "InnerProduct"
  bottom: "loss2/fc"
  top: "loss2/classifier_plantvillage"
  param {
    lr_mult: 1
    decay_mult: 1
  }
  param {
    lr_mult: 2
    decay_mult: 0
  }
  inner_product_param {
    num_output: 38
    weight_filler {
      type: "xavier"
      std: 0.0009765625
    }
    bias_filler {
      type: "constant"
      value: 0
    }
  }
}
layer {
  name: "inception_4e/1x1"
  type: "Convolution"
  bottom: "inception_4d/output"
  top: "inception_4e/1x1"
  param {
    lr_mult: 1
    decay_mult: 1
  }
  param {
    lr_mult: 2
    decay_mult: 0
  }
  convolution_param {
    num_output: 256
    kernel_size: 1
    weight_filler {
      type: "xavier"
      std: 0.03
    }
    bias_filler {
      type: "constant"
      value: 0.2
    }
  }
}
layer {
  name: "inception_4e/relu_1x1"
  type: "ReLU"
  bottom: "inception_4e/1x1"
  top: "inception_4e/1x1"
}
layer {
  name: "inception_4e/3x3_reduce"
  type: "Convolution"
  bottom: "inception_4d/output"
  top: "inception_4e/3x3_reduce"
  param {
    lr_mult: 1
    decay_mult: 1
  }
  param {
    lr_mult: 2
    decay_mult: 0
  }
  convolution_param {
    num_output: 160
    kernel_size: 1
    weight_filler {
      type: "xavier"
      std: 0.09
    }
    bias_filler {
      type: "constant"
      value: 0.2
    }
  }
}
layer {
  name: "inception_4e/relu_3x3_reduce"
  type: "ReLU"
  bottom: "inception_4e/3x3_reduce"
  top: "inception_4e/3x3_reduce"
}
layer {
  name: "inception_4e/3x3"
  type: "Convolution"
  bottom: "inception_4e/3x3_reduce"
  top: "inception_4e/3x3"
  param {
    lr_mult: 1
    decay_mult: 1
  }
  param {
    lr_mult: 2
    decay_mult: 0
  }
  convolution_param {
    num_output: 320
    pad: 1
    kernel_size: 3
    weight_filler {
      type: "xavier"
      std: 0.03
    }
    bias_filler {
      type: "constant"
      value: 0.2
    }
  }
}
layer {
  name: "inception_4e/relu_3x3"
  type: "ReLU"
  bottom: "inception_4e/3x3"
  top: "inception_4e/3x3"
}
layer {
  name: "inception_4e/5x5_reduce"
  type: "Convolution"
  bottom: "inception_4d/output"
  top: "inception_4e/5x5_reduce"
  param {
    lr_mult: 1
    decay_mult: 1
  }
  param {
    lr_mult: 2
    decay_mult: 0
  }
  convolution_param {
    num_output: 32
    kernel_size: 1
    weight_filler {
      type: "xavier"
      std: 0.2
    }
    bias_filler {
      type: "constant"
      value: 0.2
    }
  }
}
layer {
  name: "inception_4e/relu_5x5_reduce"
  type: "ReLU"
  bottom: "inception_4e/5x5_reduce"
  top: "inception_4e/5x5_reduce"
}
layer {
  name: "inception_4e/5x5"
  type: "Convolution"
  bottom: "inception_4e/5x5_reduce"
  top: "inception_4e/
I0403 15:36:13.090203 12137 layer_factory.hpp:77] Creating layer data
I0403 15:36:13.090819 12137 net.cpp:91] Creating Layer data
I0403 15:36:13.090862 12137 net.cpp:399] data -> data
I0403 15:36:13.090914 12137 net.cpp:399] data -> label
I0403 15:36:13.090950 12137 data_transformer.cpp:25] Loading mean file from: /home/mohanty/data/final_dataset/lmdb/segmented-40-60/mean.binaryproto
I0403 15:36:13.093894 12139 db_lmdb.cpp:38] Opened lmdb /home/mohanty/data/final_dataset/lmdb/segmented-40-60/test_db
I0403 15:36:13.104204 12137 data_layer.cpp:41] output data size: 24,3,224,224
I0403 15:36:13.131989 12137 net.cpp:141] Setting up data
I0403 15:36:13.132091 12137 net.cpp:148] Top shape: 24 3 224 224 (3612672)
I0403 15:36:13.132113 12137 net.cpp:148] Top shape: 24 (24)
I0403 15:36:13.132129 12137 net.cpp:156] Memory required for data: 14450784
I0403 15:36:13.132158 12137 layer_factory.hpp:77] Creating layer label_data_1_split
I0403 15:36:13.132184 12137 net.cpp:91] Creating Layer label_data_1_split
I0403 15:36:13.132202 12137 net.cpp:425] label_data_1_split <- label
I0403 15:36:13.132235 12137 net.cpp:399] label_data_1_split -> label_data_1_split_0
I0403 15:36:13.132263 12137 net.cpp:399] label_data_1_split -> label_data_1_split_1
I0403 15:36:13.132285 12137 net.cpp:399] label_data_1_split -> label_data_1_split_2
I0403 15:36:13.132305 12137 net.cpp:399] label_data_1_split -> label_data_1_split_3
I0403 15:36:13.132325 12137 net.cpp:399] label_data_1_split -> label_data_1_split_4
I0403 15:36:13.132345 12137 net.cpp:399] label_data_1_split -> label_data_1_split_5
I0403 15:36:13.132371 12137 net.cpp:399] label_data_1_split -> label_data_1_split_6
I0403 15:36:13.132392 12137 net.cpp:399] label_data_1_split -> label_data_1_split_7
I0403 15:36:13.132411 12137 net.cpp:399] label_data_1_split -> label_data_1_split_8
I0403 15:36:13.132432 12137 net.cpp:399] label_data_1_split -> label_data_1_split_9
I0403 15:36:13.132552 12137 net.cpp:141] Setting up label_data_1_split
I0403 15:36:13.132576 12137 net.cpp:148] Top shape: 24 (24)
I0403 15:36:13.132594 12137 net.cpp:148] Top shape: 24 (24)
I0403 15:36:13.132611 12137 net.cpp:148] Top shape: 24 (24)
I0403 15:36:13.132627 12137 net.cpp:148] Top shape: 24 (24)
I0403 15:36:13.132642 12137 net.cpp:148] Top shape: 24 (24)
I0403 15:36:13.132658 12137 net.cpp:148] Top shape: 24 (24)
I0403 15:36:13.132674 12137 net.cpp:148] Top shape: 24 (24)
I0403 15:36:13.132690 12137 net.cpp:148] Top shape: 24 (24)
I0403 15:36:13.132706 12137 net.cpp:148] Top shape: 24 (24)
I0403 15:36:13.132724 12137 net.cpp:148] Top shape: 24 (24)
I0403 15:36:13.132768 12137 net.cpp:156] Memory required for data: 14451744
I0403 15:36:13.132786 12137 layer_factory.hpp:77] Creating layer conv1/7x7_s2
I0403 15:36:13.132818 12137 net.cpp:91] Creating Layer conv1/7x7_s2
I0403 15:36:13.132836 12137 net.cpp:425] conv1/7x7_s2 <- data
I0403 15:36:13.132858 12137 net.cpp:399] conv1/7x7_s2 -> conv1/7x7_s2
I0403 15:36:13.269852 12137 net.cpp:141] Setting up conv1/7x7_s2
I0403 15:36:13.269934 12137 net.cpp:148] Top shape: 24 64 112 112 (19267584)
I0403 15:36:13.269953 12137 net.cpp:156] Memory required for data: 91522080
I0403 15:36:13.269982 12137 layer_factory.hpp:77] Creating layer conv1/relu_7x7
I0403 15:36:13.270009 12137 net.cpp:91] Creating Layer conv1/relu_7x7
I0403 15:36:13.270027 12137 net.cpp:425] conv1/relu_7x7 <- conv1/7x7_s2
I0403 15:36:13.270046 12137 net.cpp:386] conv1/relu_7x7 -> conv1/7x7_s2 (in-place)
I0403 15:36:13.270313 12137 net.cpp:141] Setting up conv1/relu_7x7
I0403 15:36:13.270342 12137 net.cpp:148] Top shape: 24 64 112 112 (19267584)
I0403 15:36:13.270364 12137 net.cpp:156] Memory required for data: 168592416
I0403 15:36:13.270380 12137 layer_factory.hpp:77] Creating layer pool1/3x3_s2
I0403 15:36:13.270403 12137 net.cpp:91] Creating Layer pool1/3x3_s2
I0403 15:36:13.270421 12137 net.cpp:425] pool1/3x3_s2 <- conv1/7x7_s2
I0403 15:36:13.270442 12137 net.cpp:399] pool1/3x3_s2 -> pool1/3x3_s2
I0403 15:36:13.270520 12137 net.cpp:141] Setting up pool1/3x3_s2
I0403 15:36:13.270545 12137 net.cpp:148] Top shape: 24 64 56 56 (4816896)
I0403 15:36:13.270560 12137 net.cpp:156] Memory required for data: 187860000
I0403 15:36:13.270575 12137 layer_factory.hpp:77] Creating layer pool1/norm1
I0403 15:36:13.270601 12137 net.cpp:91] Creating Layer pool1/norm1
I0403 15:36:13.270620 12137 net.cpp:425] pool1/norm1 <- pool1/3x3_s2
I0403 15:36:13.270639 12137 net.cpp:399] pool1/norm1 -> pool1/norm1
I0403 15:36:13.270949 12137 net.cpp:141] Setting up pool1/norm1
I0403 15:36:13.270978 12137 net.cpp:148] Top shape: 24 64 56 56 (4816896)
I0403 15:36:13.270995 12137 net.cpp:156] Memory required for data: 207127584
I0403 15:36:13.271010 12137 layer_factory.hpp:77] Creating layer conv2/3x3_reduce
I0403 15:36:13.271036 12137 net.cpp:91] Creating Layer conv2/3x3_reduce
I0403 15:36:13.271054 12137 net.cpp:425] conv2/3x3_reduce <- pool1/norm1
I0403 15:36:13.271072 12137 net.cpp:399] conv2/3x3_reduce -> conv2/3x3_reduce
I0403 15:36:13.272514 12137 net.cpp:141] Setting up conv2/3x3_reduce
I0403 15:36:13.272543 12137 net.cpp:148] Top shape: 24 64 56 56 (4816896)
I0403 15:36:13.272559 12137 net.cpp:156] Memory required for data: 226395168
I0403 15:36:13.272583 12137 layer_factory.hpp:77] Creating layer conv2/relu_3x3_reduce
I0403 15:36:13.272605 12137 net.cpp:91] Creating Layer conv2/relu_3x3_reduce
I0403 15:36:13.272621 12137 net.cpp:425] conv2/relu_3x3_reduce <- conv2/3x3_reduce
I0403 15:36:13.272639 12137 net.cpp:386] conv2/relu_3x3_reduce -> conv2/3x3_reduce (in-place)
I0403 15:36:13.272915 12137 net.cpp:141] Setting up conv2/relu_3x3_reduce
I0403 15:36:13.272943 12137 net.cpp:148] Top shape: 24 64 56 56 (4816896)
I0403 15:36:13.272958 12137 net.cpp:156] Memory required for data: 245662752
I0403 15:36:13.272972 12137 layer_factory.hpp:77] Creating layer conv2/3x3
I0403 15:36:13.272996 12137 net.cpp:91] Creating Layer conv2/3x3
I0403 15:36:13.273013 12137 net.cpp:425] conv2/3x3 <- conv2/3x3_reduce
I0403 15:36:13.273035 12137 net.cpp:399] conv2/3x3 -> conv2/3x3
I0403 15:36:13.275439 12137 net.cpp:141] Setting up conv2/3x3
I0403 15:36:13.275471 12137 net.cpp:148] Top shape: 24 192 56 56 (14450688)
I0403 15:36:13.275490 12137 net.cpp:156] Memory required for data: 303465504
I0403 15:36:13.275516 12137 layer_factory.hpp:77] Creating layer conv2/relu_3x3
I0403 15:36:13.275537 12137 net.cpp:91] Creating Layer conv2/relu_3x3
I0403 15:36:13.275553 12137 net.cpp:425] conv2/relu_3x3 <- conv2/3x3
I0403 15:36:13.275571 12137 net.cpp:386] conv2/relu_3x3 -> conv2/3x3 (in-place)
I0403 15:36:13.275768 12137 net.cpp:141] Setting up conv2/relu_3x3
I0403 15:36:13.275795 12137 net.cpp:148] Top shape: 24 192 56 56 (14450688)
I0403 15:36:13.275840 12137 net.cpp:156] Memory required for data: 361268256
I0403 15:36:13.275856 12137 layer_factory.hpp:77] Creating layer conv2/norm2
I0403 15:36:13.275878 12137 net.cpp:91] Creating Layer conv2/norm2
I0403 15:36:13.275895 12137 net.cpp:425] conv2/norm2 <- conv2/3x3
I0403 15:36:13.275913 12137 net.cpp:399] conv2/norm2 -> conv2/norm2
I0403 15:36:13.276221 12137 net.cpp:141] Setting up conv2/norm2
I0403 15:36:13.276247 12137 net.cpp:148] Top shape: 24 192 56 56 (14450688)
I0403 15:36:13.276263 12137 net.cpp:156] Memory required for data: 419071008
I0403 15:36:13.276278 12137 layer_factory.hpp:77] Creating layer pool2/3x3_s2
I0403 15:36:13.276298 12137 net.cpp:91] Creating Layer pool2/3x3_s2
I0403 15:36:13.276315 12137 net.cpp:425] pool2/3x3_s2 <- conv2/norm2
I0403 15:36:13.276332 12137 net.cpp:399] pool2/3x3_s2 -> pool2/3x3_s2
I0403 15:36:13.276393 12137 net.cpp:141] Setting up pool2/3x3_s2
I0403 15:36:13.276417 12137 net.cpp:148] Top shape: 24 192 28 28 (3612672)
I0403 15:36:13.276432 12137 net.cpp:156] Memory required for data: 433521696
I0403 15:36:13.276448 12137 layer_factory.hpp:77] Creating layer pool2/3x3_s2_pool2/3x3_s2_0_split
I0403 15:36:13.276465 12137 net.cpp:91] Creating Layer pool2/3x3_s2_pool2/3x3_s2_0_split
I0403 15:36:13.276480 12137 net.cpp:425] pool2/3x3_s2_pool2/3x3_s2_0_split <- pool2/3x3_s2
I0403 15:36:13.276501 12137 net.cpp:399] pool2/3x3_s2_pool2/3x3_s2_0_split -> pool2/3x3_s2_pool2/3x3_s2_0_split_0
I0403 15:36:13.276521 12137 net.cpp:399] pool2/3x3_s2_pool2/3x3_s2_0_split -> pool2/3x3_s2_pool2/3x3_s2_0_split_1
I0403 15:36:13.276541 12137 net.cpp:399] pool2/3x3_s2_pool2/3x3_s2_0_split -> pool2/3x3_s2_pool2/3x3_s2_0_split_2
I0403 15:36:13.276561 12137 net.cpp:399] pool2/3x3_s2_pool2/3x3_s2_0_split -> pool2/3x3_s2_pool2/3x3_s2_0_split_3
I0403 15:36:13.276633 12137 net.cpp:141] Setting up pool2/3x3_s2_pool2/3x3_s2_0_split
I0403 15:36:13.276657 12137 net.cpp:148] Top shape: 24 192 28 28 (3612672)
I0403 15:36:13.276676 12137 net.cpp:148] Top shape: 24 192 28 28 (3612672)
I0403 15:36:13.276691 12137 net.cpp:148] Top shape: 24 192 28 28 (3612672)
I0403 15:36:13.276707 12137 net.cpp:148] Top shape: 24 192 28 28 (3612672)
I0403 15:36:13.276721 12137 net.cpp:156] Memory required for data: 491324448
I0403 15:36:13.276736 12137 layer_factory.hpp:77] Creating layer inception_3a/1x1
I0403 15:36:13.276758 12137 net.cpp:91] Creating Layer inception_3a/1x1
I0403 15:36:13.276777 12137 net.cpp:425] inception_3a/1x1 <- pool2/3x3_s2_pool2/3x3_s2_0_split_0
I0403 15:36:13.276794 12137 net.cpp:399] inception_3a/1x1 -> inception_3a/1x1
I0403 15:36:13.278334 12137 net.cpp:141] Setting up inception_3a/1x1
I0403 15:36:13.278368 12137 net.cpp:148] Top shape: 24 64 28 28 (1204224)
I0403 15:36:13.278384 12137 net.cpp:156] Memory required for data: 496141344
I0403 15:36:13.278403 12137 layer_factory.hpp:77] Creating layer inception_3a/relu_1x1
I0403 15:36:13.278424 12137 net.cpp:91] Creating Layer inception_3a/relu_1x1
I0403 15:36:13.278441 12137 net.cpp:425] inception_3a/relu_1x1 <- inception_3a/1x1
I0403 15:36:13.278458 12137 net.cpp:386] inception_3a/relu_1x1 -> inception_3a/1x1 (in-place)
I0403 15:36:13.278632 12137 net.cpp:141] Setting up inception_3a/relu_1x1
I0403 15:36:13.278659 12137 net.cpp:148] Top shape: 24 64 28 28 (1204224)
I0403 15:36:13.278676 12137 net.cpp:156] Memory required for data: 500958240
I0403 15:36:13.278692 12137 layer_factory.hpp:77] Creating layer inception_3a/3x3_reduce
I0403 15:36:13.278714 12137 net.cpp:91] Creating Layer inception_3a/3x3_reduce
I0403 15:36:13.278733 12137 net.cpp:425] inception_3a/3x3_reduce <- pool2/3x3_s2_pool2/3x3_s2_0_split_1
I0403 15:36:13.278751 12137 net.cpp:399] inception_3a/3x3_reduce -> inception_3a/3x3_reduce
I0403 15:36:13.280457 12137 net.cpp:141] Setting up inception_3a/3x3_reduce
I0403 15:36:13.280488 12137 net.cpp:148] Top shape: 24 96 28 28 (1806336)
I0403 15:36:13.280503 12137 net.cpp:156] Memory required for data: 508183584
I0403 15:36:13.280527 12137 layer_factory.hpp:77] Creating layer inception_3a/relu_3x3_reduce
I0403 15:36:13.280566 12137 net.cpp:91] Creating Layer inception_3a/relu_3x3_reduce
I0403 15:36:13.280585 12137 net.cpp:425] inception_3a/relu_3x3_reduce <- inception_3a/3x3_reduce
I0403 15:36:13.280604 12137 net.cpp:386] inception_3a/relu_3x3_reduce -> inception_3a/3x3_reduce (in-place)
I0403 15:36:13.280788 12137 net.cpp:141] Setting up inception_3a/relu_3x3_reduce
I0403 15:36:13.280813 12137 net.cpp:148] Top shape: 24 96 28 28 (1806336)
I0403 15:36:13.280827 12137 net.cpp:156] Memory required for data: 515408928
I0403 15:36:13.280843 12137 layer_factory.hpp:77] Creating layer inception_3a/3x3
I0403 15:36:13.280864 12137 net.cpp:91] Creating Layer inception_3a/3x3
I0403 15:36:13.280881 12137 net.cpp:425] inception_3a/3x3 <- inception_3a/3x3_reduce
I0403 15:36:13.280903 12137 net.cpp:399] inception_3a/3x3 -> inception_3a/3x3
I0403 15:36:13.282577 12137 net.cpp:141] Setting up inception_3a/3x3
I0403 15:36:13.282608 12137 net.cpp:148] Top shape: 24 128 28 28 (2408448)
I0403 15:36:13.282624 12137 net.cpp:156] Memory required for data: 525042720
I0403 15:36:13.282642 12137 layer_factory.hpp:77] Creating layer inception_3a/relu_3x3
I0403 15:36:13.282665 12137 net.cpp:91] Creating Layer inception_3a/relu_3x3
I0403 15:36:13.282683 12137 net.cpp:425] inception_3a/relu_3x3 <- inception_3a/3x3
I0403 15:36:13.282701 12137 net.cpp:386] inception_3a/relu_3x3 -> inception_3a/3x3 (in-place)
I0403 15:36:13.282976 12137 net.cpp:141] Setting up inception_3a/relu_3x3
I0403 15:36:13.283004 12137 net.cpp:148] Top shape: 24 128 28 28 (2408448)
I0403 15:36:13.283018 12137 net.cpp:156] Memory required for data: 534676512
I0403 15:36:13.283035 12137 layer_factory.hpp:77] Creating layer inception_3a/5x5_reduce
I0403 15:36:13.283059 12137 net.cpp:91] Creating Layer inception_3a/5x5_reduce
I0403 15:36:13.283077 12137 net.cpp:425] inception_3a/5x5_reduce <- pool2/3x3_s2_pool2/3x3_s2_0_split_2
I0403 15:36:13.283097 12137 net.cpp:399] inception_3a/5x5_reduce -> inception_3a/5x5_reduce
I0403 15:36:13.284071 12137 net.cpp:141] Setting up inception_3a/5x5_reduce
I0403 15:36:13.284109 12137 net.cpp:148] Top shape: 24 16 28 28 (301056)
I0403 15:36:13.284132 12137 net.cpp:156] Memory required for data: 535880736
I0403 15:36:13.284159 12137 layer_factory.hpp:77] Creating layer inception_3a/relu_5x5_reduce
I0403 15:36:13.284188 12137 net.cpp:91] Creating Layer inception_3a/relu_5x5_reduce
I0403 15:36:13.284210 12137 net.cpp:425] inception_3a/relu_5x5_reduce <- inception_3a/5x5_reduce
I0403 15:36:13.284238 12137 net.cpp:386] inception_3a/relu_5x5_reduce -> inception_3a/5x5_reduce (in-place)
I0403 15:36:13.284560 12137 net.cpp:141] Setting up inception_3a/relu_5x5_reduce
I0403 15:36:13.284589 12137 net.cpp:148] Top shape: 24 16 28 28 (301056)
I0403 15:36:13.284605 12137 net.cpp:156] Memory required for data: 537084960
I0403 15:36:13.284621 12137 layer_factory.hpp:77] Creating layer inception_3a/5x5
I0403 15:36:13.284644 12137 net.cpp:91] Creating Layer inception_3a/5x5
I0403 15:36:13.284662 12137 net.cpp:425] inception_3a/5x5 <- inception_3a/5x5_reduce
I0403 15:36:13.284683 12137 net.cpp:399] inception_3a/5x5 -> inception_3a/5x5
I0403 15:36:13.285738 12137 net.cpp:141] Setting up inception_3a/5x5
I0403 15:36:13.285768 12137 net.cpp:148] Top shape: 24 32 28 28 (602112)
I0403 15:36:13.285784 12137 net.cpp:156] Memory required for data: 539493408
I0403 15:36:13.285804 12137 layer_factory.hpp:77] Creating layer inception_3a/relu_5x5
I0403 15:36:13.285825 12137 net.cpp:91] Creating Layer inception_3a/relu_5x5
I0403 15:36:13.285845 12137 net.cpp:425] inception_3a/relu_5x5 <- inception_3a/5x5
I0403 15:36:13.285862 12137 net.cpp:386] inception_3a/relu_5x5 -> inception_3a/5x5 (in-place)
I0403 15:36:13.286042 12137 net.cpp:141] Setting up inception_3a/relu_5x5
I0403 15:36:13.286072 12137 net.cpp:148] Top shape: 24 32 28 28 (602112)
I0403 15:36:13.286087 12137 net.cpp:156] Memory required for data: 541901856
I0403 15:36:13.286103 12137 layer_factory.hpp:77] Creating layer inception_3a/pool
I0403 15:36:13.286121 12137 net.cpp:91] Creating Layer inception_3a/pool
I0403 15:36:13.286152 12137 net.cpp:425] inception_3a/pool <- pool2/3x3_s2_pool2/3x3_s2_0_split_3
I0403 15:36:13.286175 12137 net.cpp:399] inception_3a/pool -> inception_3a/pool
I0403 15:36:13.286234 12137 net.cpp:141] Setting up inception_3a/pool
I0403 15:36:13.286259 12137 net.cpp:148] Top shape: 24 192 28 28 (3612672)
I0403 15:36:13.286274 12137 net.cpp:156] Memory required for data: 556352544
I0403 15:36:13.286290 12137 layer_factory.hpp:77] Creating layer inception_3a/pool_proj
I0403 15:36:13.286316 12137 net.cpp:91] Creating Layer inception_3a/pool_proj
I0403 15:36:13.286335 12137 net.cpp:425] inception_3a/pool_proj <- inception_3a/pool
I0403 15:36:13.286358 12137 net.cpp:399] inception_3a/pool_proj -> inception_3a/pool_proj
I0403 15:36:13.287366 12137 net.cpp:141] Setting up inception_3a/pool_proj
I0403 15:36:13.287395 12137 net.cpp:148] Top shape: 24 32 28 28 (602112)
I0403 15:36:13.287412 12137 net.cpp:156] Memory required for data: 558760992
I0403 15:36:13.287441 12137 layer_factory.hpp:77] Creating layer inception_3a/relu_pool_proj
I0403 15:36:13.287461 12137 net.cpp:91] Creating Layer inception_3a/relu_pool_proj
I0403 15:36:13.287478 12137 net.cpp:425] inception_3a/relu_pool_proj <- inception_3a/pool_proj
I0403 15:36:13.287498 12137 net.cpp:386] inception_3a/relu_pool_proj -> inception_3a/pool_proj (in-place)
I0403 15:36:13.287786 12137 net.cpp:141] Setting up inception_3a/relu_pool_proj
I0403 15:36:13.287814 12137 net.cpp:148] Top shape: 24 32 28 28 (602112)
I0403 15:36:13.287830 12137 net.cpp:156] Memory required for data: 561169440
I0403 15:36:13.287845 12137 layer_factory.hpp:77] Creating layer inception_3a/output
I0403 15:36:13.287866 12137 net.cpp:91] Creating Layer inception_3a/output
I0403 15:36:13.287883 12137 net.cpp:425] inception_3a/output <- inception_3a/1x1
I0403 15:36:13.287900 12137 net.cpp:425] inception_3a/output <- inception_3a/3x3
I0403 15:36:13.287917 12137 net.cpp:425] inception_3a/output <- inception_3a/5x5
I0403 15:36:13.287933 12137 net.cpp:425] inception_3a/output <- inception_3a/pool_proj
I0403 15:36:13.287951 12137 net.cpp:399] inception_3a/output -> inception_3a/output
I0403 15:36:13.288000 12137 net.cpp:141] Setting up inception_3a/output
I0403 15:36:13.288024 12137 net.cpp:148] Top shape: 24 256 28 28 (4816896)
I0403 15:36:13.288040 12137 net.cpp:156] Memory required for data: 580437024
I0403 15:36:13.288055 12137 layer_factory.hpp:77] Creating layer inception_3a/output_inception_3a/output_0_split
I0403 15:36:13.288072 12137 net.cpp:91] Creating Layer inception_3a/output_inception_3a/output_0_split
I0403 15:36:13.288089 12137 net.cpp:425] inception_3a/output_inception_3a/output_0_split <- inception_3a/output
I0403 15:36:13.288108 12137 net.cpp:399] inception_3a/output_inception_3a/output_0_split -> inception_3a/output_inception_3a/output_0_split_0
I0403 15:36:13.288130 12137 net.cpp:399] inception_3a/output_inception_3a/output_0_split -> inception_3a/output_inception_3a/output_0_split_1
I0403 15:36:13.288156 12137 net.cpp:399] inception_3a/output_inception_3a/output_0_split -> inception_3a/output_inception_3a/output_0_split_2
I0403 15:36:13.288179 12137 net.cpp:399] inception_3a/output_inception_3a/output_0_split -> inception_3a/output_inception_3a/output_0_split_3
I0403 15:36:13.288254 12137 net.cpp:141] Setting up inception_3a/output_inception_3a/output_0_split
I0403 15:36:13.288277 12137 net.cpp:148] Top shape: 24 256 28 28 (4816896)
I0403 15:36:13.288298 12137 net.cpp:148] Top shape: 24 256 28 28 (4816896)
I0403 15:36:13.288316 12137 net.cpp:148] Top shape: 24 256 28 28 (4816896)
I0403 15:36:13.288332 12137 net.cpp:148] Top shape: 24 256 28 28 (4816896)
I0403 15:36:13.288352 12137 net.cpp:156] Memory required for data: 657507360
I0403 15:36:13.288368 12137 layer_factory.hpp:77] Creating layer inception_3b/1x1
I0403 15:36:13.288388 12137 net.cpp:91] Creating Layer inception_3b/1x1
I0403 15:36:13.288406 12137 net.cpp:425] inception_3b/1x1 <- inception_3a/output_inception_3a/output_0_split_0
I0403 15:36:13.288429 12137 net.cpp:399] inception_3b/1x1 -> inception_3b/1x1
I0403 15:36:13.289613 12137 net.cpp:141] Setting up inception_3b/1x1
I0403 15:36:13.289655 12137 net.cpp:148] Top shape: 24 128 28 28 (2408448)
I0403 15:36:13.289672 12137 net.cpp:156] Memory required for data: 667141152
I0403 15:36:13.289691 12137 layer_factory.hpp:77] Creating layer inception_3b/relu_1x1
I0403 15:36:13.289712 12137 net.cpp:91] Creating Layer inception_3b/relu_1x1
I0403 15:36:13.289731 12137 net.cpp:425] inception_3b/relu_1x1 <- inception_3b/1x1
I0403 15:36:13.289748 12137 net.cpp:386] inception_3b/relu_1x1 -> inception_3b/1x1 (in-place)
I0403 15:36:13.289932 12137 net.cpp:141] Setting up inception_3b/relu_1x1
I0403 15:36:13.289958 12137 net.cpp:148] Top shape: 24 128 28 28 (2408448)
I0403 15:36:13.289973 12137 net.cpp:156] Memory required for data: 676774944
I0403 15:36:13.289989 12137 layer_factory.hpp:77] Creating layer inception_3b/3x3_reduce
I0403 15:36:13.290014 12137 net.cpp:91] Creating Layer inception_3b/3x3_reduce
I0403 15:36:13.290031 12137 net.cpp:425] inception_3b/3x3_reduce <- inception_3a/output_inception_3a/output_0_split_1
I0403 15:36:13.290051 12137 net.cpp:399] inception_3b/3x3_reduce -> inception_3b/3x3_reduce
I0403 15:36:13.291234 12137 net.cpp:141] Setting up inception_3b/3x3_reduce
I0403 15:36:13.291263 12137 net.cpp:148] Top shape: 24 128 28 28 (2408448)
I0403 15:36:13.291280 12137 net.cpp:156] Memory required for data: 686408736
I0403 15:36:13.291299 12137 layer_factory.hpp:77] Creating layer inception_3b/relu_3x3_reduce
I0403 15:36:13.291321 12137 net.cpp:91] Creating Layer inception_3b/relu_3x3_reduce
I0403 15:36:13.291339 12137 net.cpp:425] inception_3b/relu_3x3_reduce <- inception_3b/3x3_reduce
I0403 15:36:13.291363 12137 net.cpp:386] inception_3b/relu_3x3_reduce -> inception_3b/3x3_reduce (in-place)
I0403 15:36:13.291543 12137 net.cpp:141] Setting up inception_3b/relu_3x3_reduce
I0403 15:36:13.291573 12137 net.cpp:148] Top shape: 24 128 28 28 (2408448)
I0403 15:36:13.291589 12137 net.cpp:156] Memory required for data: 696042528
I0403 15:36:13.291605 12137 layer_factory.hpp:77] Creating layer inception_3b/3x3
I0403 15:36:13.291633 12137 net.cpp:91] Creating Layer inception_3b/3x3
I0403 15:36:13.291652 12137 net.cpp:425] inception_3b/3x3 <- inception_3b/3x3_reduce
I0403 15:36:13.291674 12137 net.cpp:399] inception_3b/3x3 -> inception_3b/3x3
I0403 15:36:13.294721 12137 net.cpp:141] Setting up inception_3b/3x3
I0403 15:36:13.294751 12137 net.cpp:148] Top shape: 24 192 28 28 (3612672)
I0403 15:36:13.294769 12137 net.cpp:156] Memory required for data: 710493216
I0403 15:36:13.294787 12137 layer_factory.hpp:77] Creating layer inception_3b/relu_3x3
I0403 15:36:13.294808 12137 net.cpp:91] Creating Layer inception_3b/relu_3x3
I0403 15:36:13.294826 12137 net.cpp:425] inception_3b/relu_3x3 <- inception_3b/3x3
I0403 15:36:13.294844 12137 net.cpp:386] inception_3b/relu_3x3 -> inception_3b/3x3 (in-place)
I0403 15:36:13.295158 12137 net.cpp:141] Setting up inception_3b/relu_3x3
I0403 15:36:13.295186 12137 net.cpp:148] Top shape: 24 192 28 28 (3612672)
I0403 15:36:13.295202 12137 net.cpp:156] Memory required for data: 724943904
I0403 15:36:13.295217 12137 layer_factory.hpp:77] Creating layer inception_3b/5x5_reduce
I0403 15:36:13.295243 12137 net.cpp:91] Creating Layer inception_3b/5x5_reduce
I0403 15:36:13.295261 12137 net.cpp:425] inception_3b/5x5_reduce <- inception_3a/output_inception_3a/output_0_split_2
I0403 15:36:13.295281 12137 net.cpp:399] inception_3b/5x5_reduce -> inception_3b/5x5_reduce
I0403 15:36:13.296300 12137 net.cpp:141] Setting up inception_3b/5x5_reduce
I0403 15:36:13.296329 12137 net.cpp:148] Top shape: 24 32 28 28 (602112)
I0403 15:36:13.296344 12137 net.cpp:156] Memory required for data: 727352352
I0403 15:36:13.296367 12137 layer_factory.hpp:77] Creating layer inception_3b/relu_5x5_reduce
I0403 15:36:13.296389 12137 net.cpp:91] Creating Layer inception_3b/relu_5x5_reduce
I0403 15:36:13.296406 12137 net.cpp:425] inception_3b/relu_5x5_reduce <- inception_3b/5x5_reduce
I0403 15:36:13.296423 12137 net.cpp:386] inception_3b/relu_5x5_reduce -> inception_3b/5x5_reduce (in-place)
I0403 15:36:13.296617 12137 net.cpp:141] Setting up inception_3b/relu_5x5_reduce
I0403 15:36:13.296643 12137 net.cpp:148] Top shape: 24 32 28 28 (602112)
I0403 15:36:13.296658 12137 net.cpp:156] Memory required for data: 729760800
I0403 15:36:13.296674 12137 layer_factory.hpp:77] Creating layer inception_3b/5x5
I0403 15:36:13.296695 12137 net.cpp:91] Creating Layer inception_3b/5x5
I0403 15:36:13.296713 12137 net.cpp:425] inception_3b/5x5 <- inception_3b/5x5_reduce
I0403 15:36:13.296735 12137 net.cpp:399] inception_3b/5x5 -> inception_3b/5x5
I0403 15:36:13.298733 12137 net.cpp:141] Setting up inception_3b/5x5
I0403 15:36:13.298763 12137 net.cpp:148] Top shape: 24 96 28 28 (1806336)
I0403 15:36:13.298779 12137 net.cpp:156] Memory required for data: 736986144
I0403 15:36:13.298797 12137 layer_factory.hpp:77] Creating layer inception_3b/relu_5x5
I0403 15:36:13.298821 12137 net.cpp:91] Creating Layer inception_3b/relu_5x5
I0403 15:36:13.298840 12137 net.cpp:425] inception_3b/relu_5x5 <- inception_3b/5x5
I0403 15:36:13.298856 12137 net.cpp:386] inception_3b/relu_5x5 -> inception_3b/5x5 (in-place)
I0403 15:36:13.299052 12137 net.cpp:141] Setting up inception_3b/relu_5x5
I0403 15:36:13.299077 12137 net.cpp:148] Top shape: 24 96 28 28 (1806336)
I0403 15:36:13.299093 12137 net.cpp:156] Memory required for data: 744211488
I0403 15:36:13.299108 12137 layer_factory.hpp:77] Creating layer inception_3b/pool
I0403 15:36:13.299124 12137 net.cpp:91] Creating Layer inception_3b/pool
I0403 15:36:13.299140 12137 net.cpp:425] inception_3b/pool <- inception_3a/output_inception_3a/output_0_split_3
I0403 15:36:13.299159 12137 net.cpp:399] inception_3b/pool -> inception_3b/pool
I0403 15:36:13.299216 12137 net.cpp:141] Setting up inception_3b/pool
I0403 15:36:13.299238 12137 net.cpp:148] Top shape: 24 256 28 28 (4816896)
I0403 15:36:13.299252 12137 net.cpp:156] Memory required for data: 763479072
I0403 15:36:13.299268 12137 layer_factory.hpp:77] Creating layer inception_3b/pool_proj
I0403 15:36:13.299290 12137 net.cpp:91] Creating Layer inception_3b/pool_proj
I0403 15:36:13.299309 12137 net.cpp:425] inception_3b/pool_proj <- inception_3b/pool
I0403 15:36:13.299329 12137 net.cpp:399] inception_3b/pool_proj -> inception_3b/pool_proj
I0403 15:36:13.300398 12137 net.cpp:141] Setting up inception_3b/pool_proj
I0403 15:36:13.300426 12137 net.cpp:148] Top shape: 24 64 28 28 (1204224)
I0403 15:36:13.300442 12137 net.cpp:156] Memory required for data: 768295968
I0403 15:36:13.300460 12137 layer_factory.hpp:77] Creating layer inception_3b/relu_pool_proj
I0403 15:36:13.300478 12137 net.cpp:91] Creating Layer inception_3b/relu_pool_proj
I0403 15:36:13.300495 12137 net.cpp:425] inception_3b/relu_pool_proj <- inception_3b/pool_proj
I0403 15:36:13.300515 12137 net.cpp:386] inception_3b/relu_pool_proj -> inception_3b/pool_proj (in-place)
I0403 15:36:13.300915 12137 net.cpp:141] Setting up inception_3b/relu_pool_proj
I0403 15:36:13.300943 12137 net.cpp:148] Top shape: 24 64 28 28 (1204224)
I0403 15:36:13.300961 12137 net.cpp:156] Memory required for data: 773112864
I0403 15:36:13.300976 12137 layer_factory.hpp:77] Creating layer inception_3b/output
I0403 15:36:13.300993 12137 net.cpp:91] Creating Layer inception_3b/output
I0403 15:36:13.301008 12137 net.cpp:425] inception_3b/output <- inception_3b/1x1
I0403 15:36:13.301025 12137 net.cpp:425] inception_3b/output <- inception_3b/3x3
I0403 15:36:13.301041 12137 net.cpp:425] inception_3b/output <- inception_3b/5x5
I0403 15:36:13.301056 12137 net.cpp:425] inception_3b/output <- inception_3b/pool_proj
I0403 15:36:13.301076 12137 net.cpp:399] inception_3b/output -> inception_3b/output
I0403 15:36:13.301120 12137 net.cpp:141] Setting up inception_3b/output
I0403 15:36:13.301143 12137 net.cpp:148] Top shape: 24 480 28 28 (9031680)
I0403 15:36:13.301158 12137 net.cpp:156] Memory required for data: 809239584
I0403 15:36:13.301172 12137 layer_factory.hpp:77] Creating layer pool3/3x3_s2
I0403 15:36:13.301192 12137 net.cpp:91] Creating Layer pool3/3x3_s2
I0403 15:36:13.301209 12137 net.cpp:425] pool3/3x3_s2 <- inception_3b/output
I0403 15:36:13.301244 12137 net.cpp:399] pool3/3x3_s2 -> pool3/3x3_s2
I0403 15:36:13.301308 12137 net.cpp:141] Setting up pool3/3x3_s2
I0403 15:36:13.301334 12137 net.cpp:148] Top shape: 24 480 14 14 (2257920)
I0403 15:36:13.301354 12137 net.cpp:156] Memory required for data: 818271264
I0403 15:36:13.301370 12137 layer_factory.hpp:77] Creating layer pool3/3x3_s2_pool3/3x3_s2_0_split
I0403 15:36:13.301388 12137 net.cpp:91] Creating Layer pool3/3x3_s2_pool3/3x3_s2_0_split
I0403 15:36:13.301403 12137 net.cpp:425] pool3/3x3_s2_pool3/3x3_s2_0_split <- pool3/3x3_s2
I0403 15:36:13.301424 12137 net.cpp:399] pool3/3x3_s2_pool3/3x3_s2_0_split -> pool3/3x3_s2_pool3/3x3_s2_0_split_0
I0403 15:36:13.301445 12137 net.cpp:399] pool3/3x3_s2_pool3/3x3_s2_0_split -> pool3/3x3_s2_pool3/3x3_s2_0_split_1
I0403 15:36:13.301465 12137 net.cpp:399] pool3/3x3_s2_pool3/3x3_s2_0_split -> pool3/3x3_s2_pool3/3x3_s2_0_split_2
I0403 15:36:13.301483 12137 net.cpp:399] pool3/3x3_s2_pool3/3x3_s2_0_split -> pool3/3x3_s2_pool3/3x3_s2_0_split_3
I0403 15:36:13.301560 12137 net.cpp:141] Setting up pool3/3x3_s2_pool3/3x3_s2_0_split
I0403 15:36:13.301584 12137 net.cpp:148] Top shape: 24 480 14 14 (2257920)
I0403 15:36:13.301599 12137 net.cpp:148] Top shape: 24 480 14 14 (2257920)
I0403 15:36:13.301616 12137 net.cpp:148] Top shape: 24 480 14 14 (2257920)
I0403 15:36:13.301631 12137 net.cpp:148] Top shape: 24 480 14 14 (2257920)
I0403 15:36:13.301645 12137 net.cpp:156] Memory required for data: 854397984
I0403 15:36:13.301659 12137 layer_factory.hpp:77] Creating layer inception_4a/1x1
I0403 15:36:13.301681 12137 net.cpp:91] Creating Layer inception_4a/1x1
I0403 15:36:13.301699 12137 net.cpp:425] inception_4a/1x1 <- pool3/3x3_s2_pool3/3x3_s2_0_split_0
I0403 15:36:13.301720 12137 net.cpp:399] inception_4a/1x1 -> inception_4a/1x1
I0403 15:36:13.303320 12137 net.cpp:141] Setting up inception_4a/1x1
I0403 15:36:13.303359 12137 net.cpp:148] Top shape: 24 192 14 14 (903168)
I0403 15:36:13.303378 12137 net.cpp:156] Memory required for data: 858010656
I0403 15:36:13.303396 12137 layer_factory.hpp:77] Creating layer inception_4a/relu_1x1
I0403 15:36:13.303416 12137 net.cpp:91] Creating Layer inception_4a/relu_1x1
I0403 15:36:13.303431 12137 net.cpp:425] inception_4a/relu_1x1 <- inception_4a/1x1
I0403 15:36:13.303452 12137 net.cpp:386] inception_4a/relu_1x1 -> inception_4a/1x1 (in-place)
I0403 15:36:13.303632 12137 net.cpp:141] Setting up inception_4a/relu_1x1
I0403 15:36:13.303658 12137 net.cpp:148] Top shape: 24 192 14 14 (903168)
I0403 15:36:13.303673 12137 net.cpp:156] Memory required for data: 861623328
I0403 15:36:13.303688 12137 layer_factory.hpp:77] Creating layer inception_4a/3x3_reduce
I0403 15:36:13.303709 12137 net.cpp:91] Creating Layer inception_4a/3x3_reduce
I0403 15:36:13.303727 12137 net.cpp:425] inception_4a/3x3_reduce <- pool3/3x3_s2_pool3/3x3_s2_0_split_1
I0403 15:36:13.303747 12137 net.cpp:399] inception_4a/3x3_reduce -> inception_4a/3x3_reduce
I0403 15:36:13.305094 12137 net.cpp:141] Setting up inception_4a/3x3_reduce
I0403 15:36:13.305122 12137 net.cpp:148] Top shape: 24 96 14 14 (451584)
I0403 15:36:13.305140 12137 net.cpp:156] Memory required for data: 863429664
I0403 15:36:13.305166 12137 layer_factory.hpp:77] Creating layer inception_4a/relu_3x3_reduce
I0403 15:36:13.305187 12137 net.cpp:91] Creating Layer inception_4a/relu_3x3_reduce
I0403 15:36:13.305203 12137 net.cpp:425] inception_4a/relu_3x3_reduce <- inception_4a/3x3_reduce
I0403 15:36:13.305224 12137 net.cpp:386] inception_4a/relu_3x3_reduce -> inception_4a/3x3_reduce (in-place)
I0403 15:36:13.305413 12137 net.cpp:141] Setting up inception_4a/relu_3x3_reduce
I0403 15:36:13.305438 12137 net.cpp:148] Top shape: 24 96 14 14 (451584)
I0403 15:36:13.305454 12137 net.cpp:156] Memory required for data: 865236000
I0403 15:36:13.305469 12137 layer_factory.hpp:77] Creating layer inception_4a/3x3
I0403 15:36:13.305495 12137 net.cpp:91] Creating Layer inception_4a/3x3
I0403 15:36:13.305513 12137 net.cpp:425] inception_4a/3x3 <- inception_4a/3x3_reduce
I0403 15:36:13.305536 12137 net.cpp:399] inception_4a/3x3 -> inception_4a/3x3
I0403 15:36:13.308360 12137 net.cpp:141] Setting up inception_4a/3x3
I0403 15:36:13.308390 12137 net.cpp:148] Top shape: 24 208 14 14 (978432)
I0403 15:36:13.308408 12137 net.cpp:156] Memory required for data: 869149728
I0403 15:36:13.308426 12137 layer_factory.hpp:77] Creating layer inception_4a/relu_3x3
I0403 15:36:13.308447 12137 net.cpp:91] Creating Layer inception_4a/relu_3x3
I0403 15:36:13.308465 12137 net.cpp:425] inception_4a/relu_3x3 <- inception_4a/3x3
I0403 15:36:13.308482 12137 net.cpp:386] inception_4a/relu_3x3 -> inception_4a/3x3 (in-place)
I0403 15:36:13.308771 12137 net.cpp:141] Setting up inception_4a/relu_3x3
I0403 15:36:13.308799 12137 net.cpp:148] Top shape: 24 208 14 14 (978432)
I0403 15:36:13.308815 12137 net.cpp:156] Memory required for data: 873063456
I0403 15:36:13.308831 12137 layer_factory.hpp:77] Creating layer inception_4a/5x5_reduce
I0403 15:36:13.308854 12137 net.cpp:91] Creating Layer inception_4a/5x5_reduce
I0403 15:36:13.308873 12137 net.cpp:425] inception_4a/5x5_reduce <- pool3/3x3_s2_pool3/3x3_s2_0_split_2
I0403 15:36:13.308897 12137 net.cpp:399] inception_4a/5x5_reduce -> inception_4a/5x5_reduce
I0403 15:36:13.309962 12137 net.cpp:141] Setting up inception_4a/5x5_reduce
I0403 15:36:13.309990 12137 net.cpp:148] Top shape: 24 16 14 14 (75264)
I0403 15:36:13.310009 12137 net.cpp:156] Memory required for data: 873364512
I0403 15:36:13.310029 12137 layer_factory.hpp:77] Creating layer inception_4a/relu_5x5_reduce
I0403 15:36:13.310050 12137 net.cpp:91] Creating Layer inception_4a/relu_5x5_reduce
I0403 15:36:13.310068 12137 net.cpp:425] inception_4a/relu_5x5_reduce <- inception_4a/5x5_reduce
I0403 15:36:13.310086 12137 net.cpp:386] inception_4a/relu_5x5_reduce -> inception_4a/5x5_reduce (in-place)
I0403 15:36:13.310277 12137 net.cpp:141] Setting up inception_4a/relu_5x5_reduce
I0403 15:36:13.310305 12137 net.cpp:148] Top shape: 24 16 14 14 (75264)
I0403 15:36:13.310322 12137 net.cpp:156] Memory required for data: 873665568
I0403 15:36:13.310336 12137 layer_factory.hpp:77] Creating layer inception_4a/5x5
I0403 15:36:13.310364 12137 net.cpp:91] Creating Layer inception_4a/5x5
I0403 15:36:13.310384 12137 net.cpp:425] inception_4a/5x5 <- inception_4a/5x5_reduce
I0403 15:36:13.310406 12137 net.cpp:399] inception_4a/5x5 -> inception_4a/5x5
I0403 15:36:13.311540 12137 net.cpp:141] Setting up inception_4a/5x5
I0403 15:36:13.311573 12137 net.cpp:148] Top shape: 24 48 14 14 (225792)
I0403 15:36:13.311591 12137 net.cpp:156] Memory required for data: 874568736
I0403 15:36:13.311609 12137 layer_factory.hpp:77] Creating layer inception_4a/relu_5x5
I0403 15:36:13.311628 12137 net.cpp:91] Creating Layer inception_4a/relu_5x5
I0403 15:36:13.311645 12137 net.cpp:425] inception_4a/relu_5x5 <- inception_4a/5x5
I0403 15:36:13.311664 12137 net.cpp:386] inception_4a/relu_5x5 -> inception_4a/5x5 (in-place)
I0403 15:36:13.311851 12137 net.cpp:141] Setting up inception_4a/relu_5x5
I0403 15:36:13.311877 12137 net.cpp:148] Top shape: 24 48 14 14 (225792)
I0403 15:36:13.311892 12137 net.cpp:156] Memory required for data: 875471904
I0403 15:36:13.311908 12137 layer_factory.hpp:77] Creating layer inception_4a/pool
I0403 15:36:13.311925 12137 net.cpp:91] Creating Layer inception_4a/pool
I0403 15:36:13.311941 12137 net.cpp:425] inception_4a/pool <- pool3/3x3_s2_pool3/3x3_s2_0_split_3
I0403 15:36:13.311962 12137 net.cpp:399] inception_4a/pool -> inception_4a/pool
I0403 15:36:13.312028 12137 net.cpp:141] Setting up inception_4a/pool
I0403 15:36:13.312053 12137 net.cpp:148] Top shape: 24 480 14 14 (2257920)
I0403 15:36:13.312072 12137 net.cpp:156] Memory required for data: 884503584
I0403 15:36:13.312086 12137 layer_factory.hpp:77] Creating layer inception_4a/pool_proj
I0403 15:36:13.312111 12137 net.cpp:91] Creating Layer inception_4a/pool_proj
I0403 15:36:13.312131 12137 net.cpp:425] inception_4a/pool_proj <- inception_4a/pool
I0403 15:36:13.312151 12137 net.cpp:399] inception_4a/pool_proj -> inception_4a/pool_proj
I0403 15:36:13.313395 12137 net.cpp:141] Setting up inception_4a/pool_proj
I0403 15:36:13.313424 12137 net.cpp:148] Top shape: 24 64 14 14 (301056)
I0403 15:36:13.313457 12137 net.cpp:156] Memory required for data: 885707808
I0403 15:36:13.313477 12137 layer_factory.hpp:77] Creating layer inception_4a/relu_pool_proj
I0403 15:36:13.313496 12137 net.cpp:91] Creating Layer inception_4a/relu_pool_proj
I0403 15:36:13.313513 12137 net.cpp:425] inception_4a/relu_pool_proj <- inception_4a/pool_proj
I0403 15:36:13.313536 12137 net.cpp:386] inception_4a/relu_pool_proj -> inception_4a/pool_proj (in-place)
I0403 15:36:13.313833 12137 net.cpp:141] Setting up inception_4a/relu_pool_proj
I0403 15:36:13.313863 12137 net.cpp:148] Top shape: 24 64 14 14 (301056)
I0403 15:36:13.313879 12137 net.cpp:156] Memory required for data: 886912032
I0403 15:36:13.313895 12137 layer_factory.hpp:77] Creating layer inception_4a/output
I0403 15:36:13.313913 12137 net.cpp:91] Creating Layer inception_4a/output
I0403 15:36:13.313931 12137 net.cpp:425] inception_4a/output <- inception_4a/1x1
I0403 15:36:13.313951 12137 net.cpp:425] inception_4a/output <- inception_4a/3x3
I0403 15:36:13.313968 12137 net.cpp:425] inception_4a/output <- inception_4a/5x5
I0403 15:36:13.313984 12137 net.cpp:425] inception_4a/output <- inception_4a/pool_proj
I0403 15:36:13.314005 12137 net.cpp:399] inception_4a/output -> inception_4a/output
I0403 15:36:13.314052 12137 net.cpp:141] Setting up inception_4a/output
I0403 15:36:13.314079 12137 net.cpp:148] Top shape: 24 512 14 14 (2408448)
I0403 15:36:13.314095 12137 net.cpp:156] Memory required for data: 896545824
I0403 15:36:13.314110 12137 layer_factory.hpp:77] Creating layer inception_4a/output_inception_4a/output_0_split
I0403 15:36:13.314128 12137 net.cpp:91] Creating Layer inception_4a/output_inception_4a/output_0_split
I0403 15:36:13.314144 12137 net.cpp:425] inception_4a/output_inception_4a/output_0_split <- inception_4a/output
I0403 15:36:13.314165 12137 net.cpp:399] inception_4a/output_inception_4a/output_0_split -> inception_4a/output_inception_4a/output_0_split_0
I0403 15:36:13.314188 12137 net.cpp:399] inception_4a/output_inception_4a/output_0_split -> inception_4a/output_inception_4a/output_0_split_1
I0403 15:36:13.314209 12137 net.cpp:399] inception_4a/output_inception_4a/output_0_split -> inception_4a/output_inception_4a/output_0_split_2
I0403 15:36:13.314230 12137 net.cpp:399] inception_4a/output_inception_4a/output_0_split -> inception_4a/output_inception_4a/output_0_split_3
I0403 15:36:13.314250 12137 net.cpp:399] inception_4a/output_inception_4a/output_0_split -> inception_4a/output_inception_4a/output_0_split_4
I0403 15:36:13.314347 12137 net.cpp:141] Setting up inception_4a/output_inception_4a/output_0_split
I0403 15:36:13.314375 12137 net.cpp:148] Top shape: 24 512 14 14 (2408448)
I0403 15:36:13.314393 12137 net.cpp:148] Top shape: 24 512 14 14 (2408448)
I0403 15:36:13.314409 12137 net.cpp:148] Top shape: 24 512 14 14 (2408448)
I0403 15:36:13.314425 12137 net.cpp:148] Top shape: 24 512 14 14 (2408448)
I0403 15:36:13.314441 12137 net.cpp:148] Top shape: 24 512 14 14 (2408448)
I0403 15:36:13.314455 12137 net.cpp:156] Memory required for data: 944714784
I0403 15:36:13.314472 12137 layer_factory.hpp:77] Creating layer loss1/ave_pool
I0403 15:36:13.314493 12137 net.cpp:91] Creating Layer loss1/ave_pool
I0403 15:36:13.314513 12137 net.cpp:425] loss1/ave_pool <- inception_4a/output_inception_4a/output_0_split_0
I0403 15:36:13.314533 12137 net.cpp:399] loss1/ave_pool -> loss1/ave_pool
I0403 15:36:13.314751 12137 net.cpp:141] Setting up loss1/ave_pool
I0403 15:36:13.314779 12137 net.cpp:148] Top shape: 24 512 4 4 (196608)
I0403 15:36:13.314795 12137 net.cpp:156] Memory required for data: 945501216
I0403 15:36:13.314811 12137 layer_factory.hpp:77] Creating layer loss1/conv
I0403 15:36:13.314836 12137 net.cpp:91] Creating Layer loss1/conv
I0403 15:36:13.314853 12137 net.cpp:425] loss1/conv <- loss1/ave_pool
I0403 15:36:13.314877 12137 net.cpp:399] loss1/conv -> loss1/conv
I0403 15:36:13.316360 12137 net.cpp:141] Setting up loss1/conv
I0403 15:36:13.316390 12137 net.cpp:148] Top shape: 24 128 4 4 (49152)
I0403 15:36:13.316423 12137 net.cpp:156] Memory required for data: 945697824
I0403 15:36:13.316444 12137 layer_factory.hpp:77] Creating layer loss1/relu_conv
I0403 15:36:13.316468 12137 net.cpp:91] Creating Layer loss1/relu_conv
I0403 15:36:13.316485 12137 net.cpp:425] loss1/relu_conv <- loss1/conv
I0403 15:36:13.316504 12137 net.cpp:386] loss1/relu_conv -> loss1/conv (in-place)
I0403 15:36:13.316799 12137 net.cpp:141] Setting up loss1/relu_conv
I0403 15:36:13.316828 12137 net.cpp:148] Top shape: 24 128 4 4 (49152)
I0403 15:36:13.316845 12137 net.cpp:156] Memory required for data: 945894432
I0403 15:36:13.316861 12137 layer_factory.hpp:77] Creating layer loss1/fc
I0403 15:36:13.316887 12137 net.cpp:91] Creating Layer loss1/fc
I0403 15:36:13.316906 12137 net.cpp:425] loss1/fc <- loss1/conv
I0403 15:36:13.316928 12137 net.cpp:399] loss1/fc -> loss1/fc
I0403 15:36:13.335068 12137 net.cpp:141] Setting up loss1/fc
I0403 15:36:13.335113 12137 net.cpp:148] Top shape: 24 1024 (24576)
I0403 15:36:13.335129 12137 net.cpp:156] Memory required for data: 945992736
I0403 15:36:13.335147 12137 layer_factory.hpp:77] Creating layer loss1/relu_fc
I0403 15:36:13.335166 12137 net.cpp:91] Creating Layer loss1/relu_fc
I0403 15:36:13.335182 12137 net.cpp:425] loss1/relu_fc <- loss1/fc
I0403 15:36:13.335201 12137 net.cpp:386] loss1/relu_fc -> loss1/fc (in-place)
I0403 15:36:13.335398 12137 net.cpp:141] Setting up loss1/relu_fc
I0403 15:36:13.335424 12137 net.cpp:148] Top shape: 24 1024 (24576)
I0403 15:36:13.335438 12137 net.cpp:156] Memory required for data: 946091040
I0403 15:36:13.335453 12137 layer_factory.hpp:77] Creating layer loss1/drop_fc
I0403 15:36:13.335484 12137 net.cpp:91] Creating Layer loss1/drop_fc
I0403 15:36:13.335500 12137 net.cpp:425] loss1/drop_fc <- loss1/fc
I0403 15:36:13.335517 12137 net.cpp:386] loss1/drop_fc -> loss1/fc (in-place)
I0403 15:36:13.335568 12137 net.cpp:141] Setting up loss1/drop_fc
I0403 15:36:13.335593 12137 net.cpp:148] Top shape: 24 1024 (24576)
I0403 15:36:13.335610 12137 net.cpp:156] Memory required for data: 946189344
I0403 15:36:13.335626 12137 layer_factory.hpp:77] Creating layer loss1/classifier_plantvillage
I0403 15:36:13.335645 12137 net.cpp:91] Creating Layer loss1/classifier_plantvillage
I0403 15:36:13.335661 12137 net.cpp:425] loss1/classifier_plantvillage <- loss1/fc
I0403 15:36:13.335683 12137 net.cpp:399] loss1/classifier_plantvillage -> loss1/classifier_plantvillage
I0403 15:36:13.336618 12137 net.cpp:141] Setting up loss1/classifier_plantvillage
I0403 15:36:13.336647 12137 net.cpp:148] Top shape: 24 38 (912)
I0403 15:36:13.336665 12137 net.cpp:156] Memory required for data: 946192992
I0403 15:36:13.336683 12137 layer_factory.hpp:77] Creating layer loss1/classifier_plantvillage_loss1/classifier_plantvillage_0_split
I0403 15:36:13.336702 12137 net.cpp:91] Creating Layer loss1/classifier_plantvillage_loss1/classifier_plantvillage_0_split
I0403 15:36:13.336719 12137 net.cpp:425] loss1/classifier_plantvillage_loss1/classifier_plantvillage_0_split <- loss1/classifier_plantvillage
I0403 15:36:13.336740 12137 net.cpp:399] loss1/classifier_plantvillage_loss1/classifier_plantvillage_0_split -> loss1/classifier_plantvillage_loss1/classifier_plantvillage_0_split_0
I0403 15:36:13.336762 12137 net.cpp:399] loss1/classifier_plantvillage_loss1/classifier_plantvillage_0_split -> loss1/classifier_plantvillage_loss1/classifier_plantvillage_0_split_1
I0403 15:36:13.336786 12137 net.cpp:399] loss1/classifier_plantvillage_loss1/classifier_plantvillage_0_split -> loss1/classifier_plantvillage_loss1/classifier_plantvillage_0_split_2
I0403 15:36:13.336856 12137 net.cpp:141] Setting up loss1/classifier_plantvillage_loss1/classifier_plantvillage_0_split
I0403 15:36:13.336880 12137 net.cpp:148] Top shape: 24 38 (912)
I0403 15:36:13.336897 12137 net.cpp:148] Top shape: 24 38 (912)
I0403 15:36:13.336915 12137 net.cpp:148] Top shape: 24 38 (912)
I0403 15:36:13.336930 12137 net.cpp:156] Memory required for data: 946203936
I0403 15:36:13.336946 12137 layer_factory.hpp:77] Creating layer inception_4b/1x1
I0403 15:36:13.336969 12137 net.cpp:91] Creating Layer inception_4b/1x1
I0403 15:36:13.337008 12137 net.cpp:425] inception_4b/1x1 <- inception_4a/output_inception_4a/output_0_split_1
I0403 15:36:13.337029 12137 net.cpp:399] inception_4b/1x1 -> inception_4b/1x1
I0403 15:36:13.338716 12137 net.cpp:141] Setting up inception_4b/1x1
I0403 15:36:13.338745 12137 net.cpp:148] Top shape: 24 160 14 14 (752640)
I0403 15:36:13.338762 12137 net.cpp:156] Memory required for data: 949214496
I0403 15:36:13.338779 12137 layer_factory.hpp:77] Creating layer inception_4b/relu_1x1
I0403 15:36:13.338800 12137 net.cpp:91] Creating Layer inception_4b/relu_1x1
I0403 15:36:13.338817 12137 net.cpp:425] inception_4b/relu_1x1 <- inception_4b/1x1
I0403 15:36:13.338835 12137 net.cpp:386] inception_4b/relu_1x1 -> inception_4b/1x1 (in-place)
I0403 15:36:13.339011 12137 net.cpp:141] Setting up inception_4b/relu_1x1
I0403 15:36:13.339038 12137 net.cpp:148] Top shape: 24 160 14 14 (752640)
I0403 15:36:13.339053 12137 net.cpp:156] Memory required for data: 952225056
I0403 15:36:13.339067 12137 layer_factory.hpp:77] Creating layer inception_4b/3x3_reduce
I0403 15:36:13.339092 12137 net.cpp:91] Creating Layer inception_4b/3x3_reduce
I0403 15:36:13.339109 12137 net.cpp:425] inception_4b/3x3_reduce <- inception_4a/output_inception_4a/output_0_split_2
I0403 15:36:13.339128 12137 net.cpp:399] inception_4b/3x3_reduce -> inception_4b/3x3_reduce
I0403 15:36:13.340467 12137 net.cpp:141] Setting up inception_4b/3x3_reduce
I0403 15:36:13.340499 12137 net.cpp:148] Top shape: 24 112 14 14 (526848)
I0403 15:36:13.340515 12137 net.cpp:156] Memory required for data: 954332448
I0403 15:36:13.340533 12137 layer_factory.hpp:77] Creating layer inception_4b/relu_3x3_reduce
I0403 15:36:13.340550 12137 net.cpp:91] Creating Layer inception_4b/relu_3x3_reduce
I0403 15:36:13.340566 12137 net.cpp:425] inception_4b/relu_3x3_reduce <- inception_4b/3x3_reduce
I0403 15:36:13.340584 12137 net.cpp:386] inception_4b/relu_3x3_reduce -> inception_4b/3x3_reduce (in-place)
I0403 15:36:13.340862 12137 net.cpp:141] Setting up inception_4b/relu_3x3_reduce
I0403 15:36:13.340893 12137 net.cpp:148] Top shape: 24 112 14 14 (526848)
I0403 15:36:13.340910 12137 net.cpp:156] Memory required for data: 956439840
I0403 15:36:13.340925 12137 layer_factory.hpp:77] Creating layer inception_4b/3x3
I0403 15:36:13.340947 12137 net.cpp:91] Creating Layer inception_4b/3x3
I0403 15:36:13.340965 12137 net.cpp:425] inception_4b/3x3 <- inception_4b/3x3_reduce
I0403 15:36:13.340983 12137 net.cpp:399] inception_4b/3x3 -> inception_4b/3x3
I0403 15:36:13.343948 12137 net.cpp:141] Setting up inception_4b/3x3
I0403 15:36:13.343977 12137 net.cpp:148] Top shape: 24 224 14 14 (1053696)
I0403 15:36:13.343996 12137 net.cpp:156] Memory required for data: 960654624
I0403 15:36:13.344014 12137 layer_factory.hpp:77] Creating layer inception_4b/relu_3x3
I0403 15:36:13.344033 12137 net.cpp:91] Creating Layer inception_4b/relu_3x3
I0403 15:36:13.344049 12137 net.cpp:425] inception_4b/relu_3x3 <- inception_4b/3x3
I0403 15:36:13.344069 12137 net.cpp:386] inception_4b/relu_3x3 -> inception_4b/3x3 (in-place)
I0403 15:36:13.344250 12137 net.cpp:141] Setting up inception_4b/relu_3x3
I0403 15:36:13.344274 12137 net.cpp:148] Top shape: 24 224 14 14 (1053696)
I0403 15:36:13.344290 12137 net.cpp:156] Memory required for data: 964869408
I0403 15:36:13.344303 12137 layer_factory.hpp:77] Creating layer inception_4b/5x5_reduce
I0403 15:36:13.344326 12137 net.cpp:91] Creating Layer inception_4b/5x5_reduce
I0403 15:36:13.344344 12137 net.cpp:425] inception_4b/5x5_reduce <- inception_4a/output_inception_4a/output_0_split_3
I0403 15:36:13.344372 12137 net.cpp:399] inception_4b/5x5_reduce -> inception_4b/5x5_reduce
I0403 15:36:13.345444 12137 net.cpp:141] Setting up inception_4b/5x5_reduce
I0403 15:36:13.345474 12137 net.cpp:148] Top shape: 24 24 14 14 (112896)
I0403 15:36:13.345491 12137 net.cpp:156] Memory required for data: 965320992
I0403 15:36:13.345510 12137 layer_factory.hpp:77] Creating layer inception_4b/relu_5x5_reduce
I0403 15:36:13.345527 12137 net.cpp:91] Creating Layer inception_4b/relu_5x5_reduce
I0403 15:36:13.345559 12137 net.cpp:425] inception_4b/relu_5x5_reduce <- inception_4b/5x5_reduce
I0403 15:36:13.345578 12137 net.cpp:386] inception_4b/relu_5x5_reduce -> inception_4b/5x5_reduce (in-place)
I0403 15:36:13.345762 12137 net.cpp:141] Setting up inception_4b/relu_5x5_reduce
I0403 15:36:13.345788 12137 net.cpp:148] Top shape: 24 24 14 14 (112896)
I0403 15:36:13.345804 12137 net.cpp:156] Memory required for data: 965772576
I0403 15:36:13.345818 12137 layer_factory.hpp:77] Creating layer inception_4b/5x5
I0403 15:36:13.345840 12137 net.cpp:91] Creating Layer inception_4b/5x5
I0403 15:36:13.345857 12137 net.cpp:425] inception_4b/5x5 <- inception_4b/5x5_reduce
I0403 15:36:13.345878 12137 net.cpp:399] inception_4b/5x5 -> inception_4b/5x5
I0403 15:36:13.347085 12137 net.cpp:141] Setting up inception_4b/5x5
I0403 15:36:13.347113 12137 net.cpp:148] Top shape: 24 64 14 14 (301056)
I0403 15:36:13.347129 12137 net.cpp:156] Memory required for data: 966976800
I0403 15:36:13.347148 12137 layer_factory.hpp:77] Creating layer inception_4b/relu_5x5
I0403 15:36:13.347168 12137 net.cpp:91] Creating Layer inception_4b/relu_5x5
I0403 15:36:13.347185 12137 net.cpp:425] inception_4b/relu_5x5 <- inception_4b/5x5
I0403 15:36:13.347203 12137 net.cpp:386] inception_4b/relu_5x5 -> inception_4b/5x5 (in-place)
I0403 15:36:13.347486 12137 net.cpp:141] Setting up inception_4b/relu_5x5
I0403 15:36:13.347512 12137 net.cpp:148] Top shape: 24 64 14 14 (301056)
I0403 15:36:13.347527 12137 net.cpp:156] Memory required for data: 968181024
I0403 15:36:13.347542 12137 layer_factory.hpp:77] Creating layer inception_4b/pool
I0403 15:36:13.347561 12137 net.cpp:91] Creating Layer inception_4b/pool
I0403 15:36:13.347579 12137 net.cpp:425] inception_4b/pool <- inception_4a/output_inception_4a/output_0_split_4
I0403 15:36:13.347596 12137 net.cpp:399] inception_4b/pool -> inception_4b/pool
I0403 15:36:13.347662 12137 net.cpp:141] Setting up inception_4b/pool
I0403 15:36:13.347686 12137 net.cpp:148] Top shape: 24 512 14 14 (2408448)
I0403 15:36:13.347700 12137 net.cpp:156] Memory required for data: 977814816
I0403 15:36:13.347714 12137 layer_factory.hpp:77] Creating layer inception_4b/pool_proj
I0403 15:36:13.347736 12137 net.cpp:91] Creating Layer inception_4b/pool_proj
I0403 15:36:13.347754 12137 net.cpp:425] inception_4b/pool_proj <- inception_4b/pool
I0403 15:36:13.347774 12137 net.cpp:399] inception_4b/pool_proj -> inception_4b/pool_proj
I0403 15:36:13.348974 12137 net.cpp:141] Setting up inception_4b/pool_proj
I0403 15:36:13.349002 12137 net.cpp:148] Top shape: 24 64 14 14 (301056)
I0403 15:36:13.349017 12137 net.cpp:156] Memory required for data: 979019040
I0403 15:36:13.349035 12137 layer_factory.hpp:77] Creating layer inception_4b/relu_pool_proj
I0403 15:36:13.349056 12137 net.cpp:91] Creating Layer inception_4b/relu_pool_proj
I0403 15:36:13.349072 12137 net.cpp:425] inception_4b/relu_pool_proj <- inception_4b/pool_proj
I0403 15:36:13.349089 12137 net.cpp:386] inception_4b/relu_pool_proj -> inception_4b/pool_proj (in-place)
I0403 15:36:13.349272 12137 net.cpp:141] Setting up inception_4b/relu_pool_proj
I0403 15:36:13.349297 12137 net.cpp:148] Top shape: 24 64 14 14 (301056)
I0403 15:36:13.349310 12137 net.cpp:156] Memory required for data: 980223264
I0403 15:36:13.349325 12137 layer_factory.hpp:77] Creating layer inception_4b/output
I0403 15:36:13.349342 12137 net.cpp:91] Creating Layer inception_4b/output
I0403 15:36:13.349362 12137 net.cpp:425] inception_4b/output <- inception_4b/1x1
I0403 15:36:13.349380 12137 net.cpp:425] inception_4b/output <- inception_4b/3x3
I0403 15:36:13.349395 12137 net.cpp:425] inception_4b/output <- inception_4b/5x5
I0403 15:36:13.349411 12137 net.cpp:425] inception_4b/output <- inception_4b/pool_proj
I0403 15:36:13.349429 12137 net.cpp:399] inception_4b/output -> inception_4b/output
I0403 15:36:13.349474 12137 net.cpp:141] Setting up inception_4b/output
I0403 15:36:13.349498 12137 net.cpp:148] Top shape: 24 512 14 14 (2408448)
I0403 15:36:13.349514 12137 net.cpp:156] Memory required for data: 989857056
I0403 15:36:13.349542 12137 layer_factory.hpp:77] Creating layer inception_4b/output_inception_4b/output_0_split
I0403 15:36:13.349560 12137 net.cpp:91] Creating Layer inception_4b/output_inception_4b/output_0_split
I0403 15:36:13.349575 12137 net.cpp:425] inception_4b/output_inception_4b/output_0_split <- inception_4b/output
I0403 15:36:13.349592 12137 net.cpp:399] inception_4b/output_inception_4b/output_0_split -> inception_4b/output_inception_4b/output_0_split_0
I0403 15:36:13.349613 12137 net.cpp:399] inception_4b/output_inception_4b/output_0_split -> inception_4b/output_inception_4b/output_0_split_1
I0403 15:36:13.349635 12137 net.cpp:399] inception_4b/output_inception_4b/output_0_split -> inception_4b/output_inception_4b/output_0_split_2
I0403 15:36:13.349656 12137 net.cpp:399] inception_4b/output_inception_4b/output_0_split -> inception_4b/output_inception_4b/output_0_split_3
I0403 15:36:13.349740 12137 net.cpp:141] Setting up inception_4b/output_inception_4b/output_0_split
I0403 15:36:13.349762 12137 net.cpp:148] Top shape: 24 512 14 14 (2408448)
I0403 15:36:13.349778 12137 net.cpp:148] Top shape: 24 512 14 14 (2408448)
I0403 15:36:13.349794 12137 net.cpp:148] Top shape: 24 512 14 14 (2408448)
I0403 15:36:13.349810 12137 net.cpp:148] Top shape: 24 512 14 14 (2408448)
I0403 15:36:13.349823 12137 net.cpp:156] Memory required for data: 1028392224
I0403 15:36:13.349838 12137 layer_factory.hpp:77] Creating layer inception_4c/1x1
I0403 15:36:13.349859 12137 net.cpp:91] Creating Layer inception_4c/1x1
I0403 15:36:13.349876 12137 net.cpp:425] inception_4c/1x1 <- inception_4b/output_inception_4b/output_0_split_0
I0403 15:36:13.349896 12137 net.cpp:399] inception_4c/1x1 -> inception_4c/1x1
I0403 15:36:13.351323 12137 net.cpp:141] Setting up inception_4c/1x1
I0403 15:36:13.351354 12137 net.cpp:148] Top shape: 24 128 14 14 (602112)
I0403 15:36:13.351372 12137 net.cpp:156] Memory required for data: 1030800672
I0403 15:36:13.351389 12137 layer_factory.hpp:77] Creating layer inception_4c/relu_1x1
I0403 15:36:13.351408 12137 net.cpp:91] Creating Layer inception_4c/relu_1x1
I0403 15:36:13.351423 12137 net.cpp:425] inception_4c/relu_1x1 <- inception_4c/1x1
I0403 15:36:13.351441 12137 net.cpp:386] inception_4c/relu_1x1 -> inception_4c/1x1 (in-place)
I0403 15:36:13.351624 12137 net.cpp:141] Setting up inception_4c/relu_1x1
I0403 15:36:13.351649 12137 net.cpp:148] Top shape: 24 128 14 14 (602112)
I0403 15:36:13.351662 12137 net.cpp:156] Memory required for data: 1033209120
I0403 15:36:13.351677 12137 layer_factory.hpp:77] Creating layer inception_4c/3x3_reduce
I0403 15:36:13.351701 12137 net.cpp:91] Creating Layer inception_4c/3x3_reduce
I0403 15:36:13.351718 12137 net.cpp:425] inception_4c/3x3_reduce <- inception_4b/output_inception_4b/output_0_split_1
I0403 15:36:13.351740 12137 net.cpp:399] inception_4c/3x3_reduce -> inception_4c/3x3_reduce
I0403 15:36:13.353678 12137 net.cpp:141] Setting up inception_4c/3x3_reduce
I0403 15:36:13.353708 12137 net.cpp:148] Top shape: 24 128 14 14 (602112)
I0403 15:36:13.353724 12137 net.cpp:156] Memory required for data: 1035617568
I0403 15:36:13.353741 12137 layer_factory.hpp:77] Creating layer inception_4c/relu_3x3_reduce
I0403 15:36:13.353762 12137 net.cpp:91] Creating Layer inception_4c/relu_3x3_reduce
I0403 15:36:13.353780 12137 net.cpp:425] inception_4c/relu_3x3_reduce <- inception_4c/3x3_reduce
I0403 15:36:13.353796 12137 net.cpp:386] inception_4c/relu_3x3_reduce -> inception_4c/3x3_reduce (in-place)
I0403 15:36:13.354079 12137 net.cpp:141] Setting up inception_4c/relu_3x3_reduce
I0403 15:36:13.354105 12137 net.cpp:148] Top shape: 24 128 14 14 (602112)
I0403 15:36:13.354120 12137 net.cpp:156] Memory required for data: 1038026016
I0403 15:36:13.354135 12137 layer_factory.hpp:77] Creating layer inception_4c/3x3
I0403 15:36:13.354157 12137 net.cpp:91] Creating Layer inception_4c/3x3
I0403 15:36:13.354174 12137 net.cpp:425] inception_4c/3x3 <- inception_4c/3x3_reduce
I0403 15:36:13.354197 12137 net.cpp:399] inception_4c/3x3 -> inception_4c/3x3
I0403 15:36:13.358163 12137 net.cpp:141] Setting up inception_4c/3x3
I0403 15:36:13.358212 12137 net.cpp:148] Top shape: 24 256 14 14 (1204224)
I0403 15:36:13.358232 12137 net.cpp:156] Memory required for data: 1042842912
I0403 15:36:13.358264 12137 layer_factory.hpp:77] Creating layer inception_4c/relu_3x3
I0403 15:36:13.358289 12137 net.cpp:91] Creating Layer inception_4c/relu_3x3
I0403 15:36:13.358306 12137 net.cpp:425] inception_4c/relu_3x3 <- inception_4c/3x3
I0403 15:36:13.358330 12137 net.cpp:386] inception_4c/relu_3x3 -> inception_4c/3x3 (in-place)
I0403 15:36:13.358520 12137 net.cpp:141] Setting up inception_4c/relu_3x3
I0403 15:36:13.358551 12137 net.cpp:148] Top shape: 24 256 14 14 (1204224)
I0403 15:36:13.358567 12137 net.cpp:156] Memory required for data: 1047659808
I0403 15:36:13.358582 12137 layer_factory.hpp:77] Creating layer inception_4c/5x5_reduce
I0403 15:36:13.358605 12137 net.cpp:91] Creating Layer inception_4c/5x5_reduce
I0403 15:36:13.358623 12137 net.cpp:425] inception_4c/5x5_reduce <- inception_4b/output_inception_4b/output_0_split_2
I0403 15:36:13.358644 12137 net.cpp:399] inception_4c/5x5_reduce -> inception_4c/5x5_reduce
I0403 15:36:13.359768 12137 net.cpp:141] Setting up inception_4c/5x5_reduce
I0403 15:36:13.359797 12137 net.cpp:148] Top shape: 24 24 14 14 (112896)
I0403 15:36:13.359817 12137 net.cpp:156] Memory required for data: 1048111392
I0403 15:36:13.359836 12137 layer_factory.hpp:77] Creating layer inception_4c/relu_5x5_reduce
I0403 15:36:13.359855 12137 net.cpp:91] Creating Layer inception_4c/relu_5x5_reduce
I0403 15:36:13.359871 12137 net.cpp:425] inception_4c/relu_5x5_reduce <- inception_4c/5x5_reduce
I0403 15:36:13.359889 12137 net.cpp:386] inception_4c/relu_5x5_reduce -> inception_4c/5x5_reduce (in-place)
I0403 15:36:13.360079 12137 net.cpp:141] Setting up inception_4c/relu_5x5_reduce
I0403 15:36:13.360106 12137 net.cpp:148] Top shape: 24 24 14 14 (112896)
I0403 15:36:13.360122 12137 net.cpp:156] Memory required for data: 1048562976
I0403 15:36:13.360137 12137 layer_factory.hpp:77] Creating layer inception_4c/5x5
I0403 15:36:13.360159 12137 net.cpp:91] Creating Layer inception_4c/5x5
I0403 15:36:13.360177 12137 net.cpp:425] inception_4c/5x5 <- inception_4c/5x5_reduce
I0403 15:36:13.360196 12137 net.cpp:399] inception_4c/5x5 -> inception_4c/5x5
I0403 15:36:13.361479 12137 net.cpp:141] Setting up inception_4c/5x5
I0403 15:36:13.361508 12137 net.cpp:148] Top shape: 24 64 14 14 (301056)
I0403 15:36:13.361526 12137 net.cpp:156] Memory required for data: 1049767200
I0403 15:36:13.361544 12137 layer_factory.hpp:77] Creating layer inception_4c/relu_5x5
I0403 15:36:13.361562 12137 net.cpp:91] Creating Layer inception_4c/relu_5x5
I0403 15:36:13.361579 12137 net.cpp:425] inception_4c/relu_5x5 <- inception_4c/5x5
I0403 15:36:13.361600 12137 net.cpp:386] inception_4c/relu_5x5 -> inception_4c/5x5 (in-place)
I0403 15:36:13.361901 12137 net.cpp:141] Setting up inception_4c/relu_5x5
I0403 15:36:13.361927 12137 net.cpp:148] Top shape: 24 64 14 14 (301056)
I0403 15:36:13.361943 12137 net.cpp:156] Memory required for data: 1050971424
I0403 15:36:13.361958 12137 layer_factory.hpp:77] Creating layer inception_4c/pool
I0403 15:36:13.361975 12137 net.cpp:91] Creating Layer inception_4c/pool
I0403 15:36:13.361992 12137 net.cpp:425] inception_4c/pool <- inception_4b/output_inception_4b/output_0_split_3
I0403 15:36:13.362013 12137 net.cpp:399] inception_4c/pool -> inception_4c/pool
I0403 15:36:13.362081 12137 net.cpp:141] Setting up inception_4c/pool
I0403 15:36:13.362104 12137 net.cpp:148] Top shape: 24 512 14 14 (2408448)
I0403 15:36:13.362119 12137 net.cpp:156] Memory required for data: 1060605216
I0403 15:36:13.362134 12137 layer_factory.hpp:77] Creating layer inception_4c/pool_proj
I0403 15:36:13.362161 12137 net.cpp:91] Creating Layer inception_4c/pool_proj
I0403 15:36:13.362179 12137 net.cpp:425] inception_4c/pool_proj <- inception_4c/pool
I0403 15:36:13.362198 12137 net.cpp:399] inception_4c/pool_proj -> inception_4c/pool_proj
I0403 15:36:13.363478 12137 net.cpp:141] Setting up inception_4c/pool_proj
I0403 15:36:13.363507 12137 net.cpp:148] Top shape: 24 64 14 14 (301056)
I0403 15:36:13.363538 12137 net.cpp:156] Memory required for data: 1061809440
I0403 15:36:13.363557 12137 layer_factory.hpp:77] Creating layer inception_4c/relu_pool_proj
I0403 15:36:13.363579 12137 net.cpp:91] Creating Layer inception_4c/relu_pool_proj
I0403 15:36:13.363595 12137 net.cpp:425] inception_4c/relu_pool_proj <- inception_4c/pool_proj
I0403 15:36:13.363613 12137 net.cpp:386] inception_4c/relu_pool_proj -> inception_4c/pool_proj (in-place)
I0403 15:36:13.363804 12137 net.cpp:141] Setting up inception_4c/relu_pool_proj
I0403 15:36:13.363829 12137 net.cpp:148] Top shape: 24 64 14 14 (301056)
I0403 15:36:13.363844 12137 net.cpp:156] Memory required for data: 1063013664
I0403 15:36:13.363859 12137 layer_factory.hpp:77] Creating layer inception_4c/output
I0403 15:36:13.363878 12137 net.cpp:91] Creating Layer inception_4c/output
I0403 15:36:13.363893 12137 net.cpp:425] inception_4c/output <- inception_4c/1x1
I0403 15:36:13.363909 12137 net.cpp:425] inception_4c/output <- inception_4c/3x3
I0403 15:36:13.363925 12137 net.cpp:425] inception_4c/output <- inception_4c/5x5
I0403 15:36:13.363941 12137 net.cpp:425] inception_4c/output <- inception_4c/pool_proj
I0403 15:36:13.363960 12137 net.cpp:399] inception_4c/output -> inception_4c/output
I0403 15:36:13.364008 12137 net.cpp:141] Setting up inception_4c/output
I0403 15:36:13.364032 12137 net.cpp:148] Top shape: 24 512 14 14 (2408448)
I0403 15:36:13.364051 12137 net.cpp:156] Memory required for data: 1072647456
I0403 15:36:13.364066 12137 layer_factory.hpp:77] Creating layer inception_4c/output_inception_4c/output_0_split
I0403 15:36:13.364084 12137 net.cpp:91] Creating Layer inception_4c/output_inception_4c/output_0_split
I0403 15:36:13.364099 12137 net.cpp:425] inception_4c/output_inception_4c/output_0_split <- inception_4c/output
I0403 15:36:13.364115 12137 net.cpp:399] inception_4c/output_inception_4c/output_0_split -> inception_4c/output_inception_4c/output_0_split_0
I0403 15:36:13.364135 12137 net.cpp:399] inception_4c/output_inception_4c/output_0_split -> inception_4c/output_inception_4c/output_0_split_1
I0403 15:36:13.364156 12137 net.cpp:399] inception_4c/output_inception_4c/output_0_split -> inception_4c/output_inception_4c/output_0_split_2
I0403 15:36:13.364178 12137 net.cpp:399] inception_4c/output_inception_4c/output_0_split -> inception_4c/output_inception_4c/output_0_split_3
I0403 15:36:13.364266 12137 net.cpp:141] Setting up inception_4c/output_inception_4c/output_0_split
I0403 15:36:13.364289 12137 net.cpp:148] Top shape: 24 512 14 14 (2408448)
I0403 15:36:13.364305 12137 net.cpp:148] Top shape: 24 512 14 14 (2408448)
I0403 15:36:13.364326 12137 net.cpp:148] Top shape: 24 512 14 14 (2408448)
I0403 15:36:13.364343 12137 net.cpp:148] Top shape: 24 512 14 14 (2408448)
I0403 15:36:13.364358 12137 net.cpp:156] Memory required for data: 1111182624
I0403 15:36:13.364373 12137 layer_factory.hpp:77] Creating layer inception_4d/1x1
I0403 15:36:13.364395 12137 net.cpp:91] Creating Layer inception_4d/1x1
I0403 15:36:13.364413 12137 net.cpp:425] inception_4d/1x1 <- inception_4c/output_inception_4c/output_0_split_0
I0403 15:36:13.364434 12137 net.cpp:399] inception_4d/1x1 -> inception_4d/1x1
I0403 15:36:13.365869 12137 net.cpp:141] Setting up inception_4d/1x1
I0403 15:36:13.365897 12137 net.cpp:148] Top shape: 24 112 14 14 (526848)
I0403 15:36:13.365914 12137 net.cpp:156] Memory required for data: 1113290016
I0403 15:36:13.365932 12137 layer_factory.hpp:77] Creating layer inception_4d/relu_1x1
I0403 15:36:13.365953 12137 net.cpp:91] Creating Layer inception_4d/relu_1x1
I0403 15:36:13.365970 12137 net.cpp:425] inception_4d/relu_1x1 <- inception_4d/1x1
I0403 15:36:13.365988 12137 net.cpp:386] inception_4d/relu_1x1 -> inception_4d/1x1 (in-place)
I0403 15:36:13.366178 12137 net.cpp:141] Setting up inception_4d/relu_1x1
I0403 15:36:13.366204 12137 net.cpp:148] Top shape: 24 112 14 14 (526848)
I0403 15:36:13.366222 12137 net.cpp:156] Memory required for data: 1115397408
I0403 15:36:13.366237 12137 layer_factory.hpp:77] Creating layer inception_4d/3x3_reduce
I0403 15:36:13.366276 12137 net.cpp:91] Creating Layer inception_4d/3x3_reduce
I0403 15:36:13.366294 12137 net.cpp:425] inception_4d/3x3_reduce <- inception_4c/output_inception_4c/output_0_split_1
I0403 15:36:13.366320 12137 net.cpp:399] inception_4d/3x3_reduce -> inception_4d/3x3_reduce
I0403 15:36:13.367866 12137 net.cpp:141] Setting up inception_4d/3x3_reduce
I0403 15:36:13.367898 12137 net.cpp:148] Top shape: 24 144 14 14 (677376)
I0403 15:36:13.367915 12137 net.cpp:156] Memory required for data: 1118106912
I0403 15:36:13.367933 12137 layer_factory.hpp:77] Creating layer inception_4d/relu_3x3_reduce
I0403 15:36:13.367952 12137 net.cpp:91] Creating Layer inception_4d/relu_3x3_reduce
I0403 15:36:13.367969 12137 net.cpp:425] inception_4d/relu_3x3_reduce <- inception_4d/3x3_reduce
I0403 15:36:13.367990 12137 net.cpp:386] inception_4d/relu_3x3_reduce -> inception_4d/3x3_reduce (in-place)
I0403 15:36:13.368283 12137 net.cpp:141] Setting up inception_4d/relu_3x3_reduce
I0403 15:36:13.368311 12137 net.cpp:148] Top shape: 24 144 14 14 (677376)
I0403 15:36:13.368332 12137 net.cpp:156] Memory required for data: 1120816416
I0403 15:36:13.368348 12137 layer_factory.hpp:77] Creating layer inception_4d/3x3
I0403 15:36:13.368371 12137 net.cpp:91] Creating Layer inception_4d/3x3
I0403 15:36:13.368388 12137 net.cpp:425] inception_4d/3x3 <- inception_4d/3x3_reduce
I0403 15:36:13.368410 12137 net.cpp:399] inception_4d/3x3 -> inception_4d/3x3
I0403 15:36:13.372774 12137 net.cpp:141] Setting up inception_4d/3x3
I0403 15:36:13.372809 12137 net.cpp:148] Top shape: 24 288 14 14 (1354752)
I0403 15:36:13.372836 12137 net.cpp:156] Memory required for data: 1126235424
I0403 15:36:13.372864 12137 layer_factory.hpp:77] Creating layer inception_4d/relu_3x3
I0403 15:36:13.372895 12137 net.cpp:91] Creating Layer inception_4d/relu_3x3
I0403 15:36:13.372915 12137 net.cpp:425] inception_4d/relu_3x3 <- inception_4d/3x3
I0403 15:36:13.372934 12137 net.cpp:386] inception_4d/relu_3x3 -> inception_4d/3x3 (in-place)
I0403 15:36:13.373124 12137 net.cpp:141] Setting up inception_4d/relu_3x3
I0403 15:36:13.373162 12137 net.cpp:148] Top shape: 24 288 14 14 (1354752)
I0403 15:36:13.373178 12137 net.cpp:156] Memory required for data: 1131654432
I0403 15:36:13.373194 12137 layer_factory.hpp:77] Creating layer inception_4d/5x5_reduce
I0403 15:36:13.373227 12137 net.cpp:91] Creating Layer inception_4d/5x5_reduce
I0403 15:36:13.373257 12137 net.cpp:425] inception_4d/5x5_reduce <- inception_4c/output_inception_4c/output_0_split_2
I0403 15:36:13.373277 12137 net.cpp:399] inception_4d/5x5_reduce -> inception_4d/5x5_reduce
I0403 15:36:13.374476 12137 net.cpp:141] Setting up inception_4d/5x5_reduce
I0403 15:36:13.374505 12137 net.cpp:148] Top shape: 24 32 14 14 (150528)
I0403 15:36:13.374521 12137 net.cpp:156] Memory required for data: 1132256544
I0403 15:36:13.374539 12137 layer_factory.hpp:77] Creating layer inception_4d/relu_5x5_reduce
I0403 15:36:13.374560 12137 net.cpp:91] Creating Layer inception_4d/relu_5x5_reduce
I0403 15:36:13.374577 12137 net.cpp:425] inception_4d/relu_5x5_reduce <- inception_4d/5x5_reduce
I0403 15:36:13.374595 12137 net.cpp:386] inception_4d/relu_5x5_reduce -> inception_4d/5x5_reduce (in-place)
I0403 15:36:13.374791 12137 net.cpp:141] Setting up inception_4d/relu_5x5_reduce
I0403 15:36:13.374819 12137 net.cpp:148] Top shape: 24 32 14 14 (150528)
I0403 15:36:13.374836 12137 net.cpp:156] Memory required for data: 1132858656
I0403 15:36:13.374850 12137 layer_factory.hpp:77] Creating layer inception_4d/5x5
I0403 15:36:13.374871 12137 net.cpp:91] Creating Layer inception_4d/5x5
I0403 15:36:13.374888 12137 net.cpp:425] inception_4d/5x5 <- inception_4d/5x5_reduce
I0403 15:36:13.374909 12137 net.cpp:399] inception_4d/5x5 -> inception_4d/5x5
I0403 15:36:13.376435 12137 net.cpp:141] Setting up inception_4d/5x5
I0403 15:36:13.376467 12137 net.cpp:148] Top shape: 24 64 14 14 (301056)
I0403 15:36:13.376484 12137 net.cpp:156] Memory required for data: 1134062880
I0403 15:36:13.376503 12137 layer_factory.hpp:77] Creating layer inception_4d/relu_5x5
I0403 15:36:13.376538 12137 net.cpp:91] Creating Layer inception_4d/relu_5x5
I0403 15:36:13.376554 12137 net.cpp:425] inception_4d/relu_5x5 <- inception_4d/5x5
I0403 15:36:13.376571 12137 net.cpp:386] inception_4d/relu_5x5 -> inception_4d/5x5 (in-place)
I0403 15:36:13.376881 12137 net.cpp:141] Setting up inception_4d/relu_5x5
I0403 15:36:13.376911 12137 net.cpp:148] Top shape: 24 64 14 14 (301056)
I0403 15:36:13.376927 12137 net.cpp:156] Memory required for data: 1135267104
I0403 15:36:13.376943 12137 layer_factory.hpp:77] Creating layer inception_4d/pool
I0403 15:36:13.376961 12137 net.cpp:91] Creating Layer inception_4d/pool
I0403 15:36:13.376977 12137 net.cpp:425] inception_4d/pool <- inception_4c/output_inception_4c/output_0_split_3
I0403 15:36:13.376996 12137 net.cpp:399] inception_4d/pool -> inception_4d/pool
I0403 15:36:13.377064 12137 net.cpp:141] Setting up inception_4d/pool
I0403 15:36:13.377089 12137 net.cpp:148] Top shape: 24 512 14 14 (2408448)
I0403 15:36:13.377104 12137 net.cpp:156] Memory required for data: 1144900896
I0403 15:36:13.377118 12137 layer_factory.hpp:77] Creating layer inception_4d/pool_proj
I0403 15:36:13.377140 12137 net.cpp:91] Creating Layer inception_4d/pool_proj
I0403 15:36:13.377158 12137 net.cpp:425] inception_4d/pool_proj <- inception_4d/pool
I0403 15:36:13.377179 12137 net.cpp:399] inception_4d/pool_proj -> inception_4d/pool_proj
I0403 15:36:13.379017 12137 net.cpp:141] Setting up inception_4d/pool_proj
I0403 15:36:13.379047 12137 net.cpp:148] Top shape: 24 64 14 14 (301056)
I0403 15:36:13.379063 12137 net.cpp:156] Memory required for data: 1146105120
I0403 15:36:13.379082 12137 layer_factory.hpp:77] Creating layer inception_4d/relu_pool_proj
I0403 15:36:13.379102 12137 net.cpp:91] Creating Layer inception_4d/relu_pool_proj
I0403 15:36:13.379120 12137 net.cpp:425] inception_4d/relu_pool_proj <- inception_4d/pool_proj
I0403 15:36:13.379138 12137 net.cpp:386] inception_4d/relu_pool_proj -> inception_4d/pool_proj (in-place)
I0403 15:36:13.379335 12137 net.cpp:141] Setting up inception_4d/relu_pool_proj
I0403 15:36:13.379361 12137 net.cpp:148] Top shape: 24 64 14 14 (301056)
I0403 15:36:13.379376 12137 net.cpp:156] Memory required for data: 1147309344
I0403 15:36:13.379390 12137 layer_factory.hpp:77] Creating layer inception_4d/output
I0403 15:36:13.379410 12137 net.cpp:91] Creating Layer inception_4d/output
I0403 15:36:13.379427 12137 net.cpp:425] inception_4d/output <- inception_4d/1x1
I0403 15:36:13.379443 12137 net.cpp:425] inception_4d/output <- inception_4d/3x3
I0403 15:36:13.379459 12137 net.cpp:425] inception_4d/output <- inception_4d/5x5
I0403 15:36:13.379475 12137 net.cpp:425] inception_4d/output <- inception_4d/pool_proj
I0403 15:36:13.379493 12137 net.cpp:399] inception_4d/output -> inception_4d/output
I0403 15:36:13.379544 12137 net.cpp:141] Setting up inception_4d/output
I0403 15:36:13.379566 12137 net.cpp:148] Top shape: 24 528 14 14 (2483712)
I0403 15:36:13.379581 12137 net.cpp:156] Memory required for data: 1157244192
I0403 15:36:13.379596 12137 layer_factory.hpp:77] Creating layer inception_4d/output_inception_4d/output_0_split
I0403 15:36:13.379613 12137 net.cpp:91] Creating Layer inception_4d/output_inception_4d/output_0_split
I0403 15:36:13.379629 12137 net.cpp:425] inception_4d/output_inception_4d/output_0_split <- inception_4d/output
I0403 15:36:13.379648 12137 net.cpp:399] inception_4d/output_inception_4d/output_0_split -> inception_4d/output_inception_4d/output_0_split_0
I0403 15:36:13.379672 12137 net.cpp:399] inception_4d/output_inception_4d/output_0_split -> inception_4d/output_inception_4d/output_0_split_1
I0403 15:36:13.379693 12137 net.cpp:399] inception_4d/output_inception_4d/output_0_split -> inception_4d/output_inception_4d/output_0_split_2
I0403 15:36:13.379717 12137 net.cpp:399] inception_4d/output_inception_4d/output_0_split -> inception_4d/output_inception_4d/output_0_split_3
I0403 15:36:13.379739 12137 net.cpp:399] inception_4d/output_inception_4d/output_0_split -> inception_4d/output_inception_4d/output_0_split_4
I0403 15:36:13.379842 12137 net.cpp:141] Setting up inception_4d/output_inception_4d/output_0_split
I0403 15:36:13.379879 12137 net.cpp:148] Top shape: 24 528 14 14 (2483712)
I0403 15:36:13.379897 12137 net.cpp:148] Top shape: 24 528 14 14 (2483712)
I0403 15:36:13.379914 12137 net.cpp:148] Top shape: 24 528 14 14 (2483712)
I0403 15:36:13.379930 12137 net.cpp:148] Top shape: 24 528 14 14 (2483712)
I0403 15:36:13.379945 12137 net.cpp:148] Top shape: 24 528 14 14 (2483712)
I0403 15:36:13.379958 12137 net.cpp:156] Memory required for data: 1206918432
I0403 15:36:13.379973 12137 layer_factory.hpp:77] Creating layer loss2/ave_pool
I0403 15:36:13.379990 12137 net.cpp:91] Creating Layer loss2/ave_pool
I0403 15:36:13.380007 12137 net.cpp:425] loss2/ave_pool <- inception_4d/output_inception_4d/output_0_split_0
I0403 15:36:13.380028 12137 net.cpp:399] loss2/ave_pool -> loss2/ave_pool
I0403 15:36:13.380359 12137 net.cpp:141] Setting up loss2/ave_pool
I0403 15:36:13.380386 12137 net.cpp:148] Top shape: 24 528 4 4 (202752)
I0403 15:36:13.380403 12137 net.cpp:156] Memory required for data: 1207729440
I0403 15:36:13.380419 12137 layer_factory.hpp:77] Creating layer loss2/conv
I0403 15:36:13.380440 12137 net.cpp:91] Creating Layer loss2/conv
I0403 15:36:13.380458 12137 net.cpp:425] loss2/conv <- loss2/ave_pool
I0403 15:36:13.380480 12137 net.cpp:399] loss2/conv -> loss2/conv
I0403 15:36:13.382431 12137 net.cpp:141] Setting up loss2/conv
I0403 15:36:13.382463 12137 net.cpp:148] Top shape: 24 128 4 4 (49152)
I0403 15:36:13.382480 12137 net.cpp:156] Memory required for data: 1207926048
I0403 15:36:13.382498 12137 layer_factory.hpp:77] Creating layer loss2/relu_conv
I0403 15:36:13.382516 12137 net.cpp:91] Creating Layer loss2/relu_conv
I0403 15:36:13.382532 12137 net.cpp:425] loss2/relu_conv <- loss2/conv
I0403 15:36:13.382551 12137 net.cpp:386] loss2/relu_conv -> loss2/conv (in-place)
I0403 15:36:13.382863 12137 net.cpp:141] Setting up loss2/relu_conv
I0403 15:36:13.382894 12137 net.cpp:148] Top shape: 24 128 4 4 (49152)
I0403 15:36:13.382922 12137 net.cpp:156] Memory required for data: 1208122656
I0403 15:36:13.382937 12137 layer_factory.hpp:77] Creating layer loss2/fc
I0403 15:36:13.382956 12137 net.cpp:91] Creating Layer loss2/fc
I0403 15:36:13.382972 12137 net.cpp:425] loss2/fc <- loss2/conv
I0403 15:36:13.382995 12137 net.cpp:399] loss2/fc -> loss2/fc
I0403 15:36:13.401275 12137 net.cpp:141] Setting up loss2/fc
I0403 15:36:13.401336 12137 net.cpp:148] Top shape: 24 1024 (24576)
I0403 15:36:13.401353 12137 net.cpp:156] Memory required for data: 1208220960
I0403 15:36:13.401373 12137 layer_factory.hpp:77] Creating layer loss2/relu_fc
I0403 15:36:13.401397 12137 net.cpp:91] Creating Layer loss2/relu_fc
I0403 15:36:13.401417 12137 net.cpp:425] loss2/relu_fc <- loss2/fc
I0403 15:36:13.401435 12137 net.cpp:386] loss2/relu_fc -> loss2/fc (in-place)
I0403 15:36:13.401787 12137 net.cpp:141] Setting up loss2/relu_fc
I0403 15:36:13.401814 12137 net.cpp:148] Top shape: 24 1024 (24576)
I0403 15:36:13.401830 12137 net.cpp:156] Memory required for data: 1208319264
I0403 15:36:13.401845 12137 layer_factory.hpp:77] Creating layer loss2/drop_fc
I0403 15:36:13.401866 12137 net.cpp:91] Creating Layer loss2/drop_fc
I0403 15:36:13.401885 12137 net.cpp:425] loss2/drop_fc <- loss2/fc
I0403 15:36:13.401901 12137 net.cpp:386] loss2/drop_fc -> loss2/fc (in-place)
I0403 15:36:13.401955 12137 net.cpp:141] Setting up loss2/drop_fc
I0403 15:36:13.401978 12137 net.cpp:148] Top shape: 24 1024 (24576)
I0403 15:36:13.401993 12137 net.cpp:156] Memory required for data: 1208417568
I0403 15:36:13.402009 12137 layer_factory.hpp:77] Creating layer loss2/classifier_plantvillage
I0403 15:36:13.402027 12137 net.cpp:91] Creating Layer loss2/classifier_plantvillage
I0403 15:36:13.402043 12137 net.cpp:425] loss2/classifier_plantvillage <- loss2/fc
I0403 15:36:13.402065 12137 net.cpp:399] loss2/classifier_plantvillage -> loss2/classifier_plantvillage
I0403 15:36:13.402495 12137 net.cpp:141] Setting up loss2/classifier_plantvillage
I0403 15:36:13.402521 12137 net.cpp:148] Top shape: 24 38 (912)
I0403 15:36:13.402561 12137 net.cpp:156] Memory required for data: 1208421216
I0403 15:36:13.402581 12137 layer_factory.hpp:77] Creating layer loss2/classifier_plantvillage_loss2/classifier_plantvillage_0_split
I0403 15:36:13.402601 12137 net.cpp:91] Creating Layer loss2/classifier_plantvillage_loss2/classifier_plantvillage_0_split
I0403 15:36:13.402616 12137 net.cpp:425] loss2/classifier_plantvillage_loss2/classifier_plantvillage_0_split <- loss2/classifier_plantvillage
I0403 15:36:13.402637 12137 net.cpp:399] loss2/classifier_plantvillage_loss2/classifier_plantvillage_0_split -> loss2/classifier_plantvillage_loss2/classifier_plantvillage_0_split_0
I0403 15:36:13.402658 12137 net.cpp:399] loss2/classifier_plantvillage_loss2/classifier_plantvillage_0_split -> loss2/classifier_plantvillage_loss2/classifier_plantvillage_0_split_1
I0403 15:36:13.402679 12137 net.cpp:399] loss2/classifier_plantvillage_loss2/classifier_plantvillage_0_split -> loss2/classifier_plantvillage_loss2/classifier_plantvillage_0_split_2
I0403 15:36:13.402757 12137 net.cpp:141] Setting up loss2/classifier_plantvillage_loss2/classifier_plantvillage_0_split
I0403 15:36:13.402781 12137 net.cpp:148] Top shape: 24 38 (912)
I0403 15:36:13.402797 12137 net.cpp:148] Top shape: 24 38 (912)
I0403 15:36:13.402813 12137 net.cpp:148] Top shape: 24 38 (912)
I0403 15:36:13.402827 12137 net.cpp:156] Memory required for data: 1208432160
I0403 15:36:13.402842 12137 layer_factory.hpp:77] Creating layer inception_4e/1x1
I0403 15:36:13.402866 12137 net.cpp:91] Creating Layer inception_4e/1x1
I0403 15:36:13.402884 12137 net.cpp:425] inception_4e/1x1 <- inception_4d/output_inception_4d/output_0_split_1
I0403 15:36:13.402904 12137 net.cpp:399] inception_4e/1x1 -> inception_4e/1x1
I0403 15:36:13.404815 12137 net.cpp:141] Setting up inception_4e/1x1
I0403 15:36:13.404846 12137 net.cpp:148] Top shape: 24 256 14 14 (1204224)
I0403 15:36:13.404862 12137 net.cpp:156] Memory required for data: 1213249056
I0403 15:36:13.404881 12137 layer_factory.hpp:77] Creating layer inception_4e/relu_1x1
I0403 15:36:13.404899 12137 net.cpp:91] Creating Layer inception_4e/relu_1x1
I0403 15:36:13.404917 12137 net.cpp:425] inception_4e/relu_1x1 <- inception_4e/1x1
I0403 15:36:13.404937 12137 net.cpp:386] inception_4e/relu_1x1 -> inception_4e/1x1 (in-place)
I0403 15:36:13.405241 12137 net.cpp:141] Setting up inception_4e/relu_1x1
I0403 15:36:13.405270 12137 net.cpp:148] Top shape: 24 256 14 14 (1204224)
I0403 15:36:13.405285 12137 net.cpp:156] Memory required for data: 1218065952
I0403 15:36:13.405302 12137 layer_factory.hpp:77] Creating layer inception_4e/3x3_reduce
I0403 15:36:13.405328 12137 net.cpp:91] Creating Layer inception_4e/3x3_reduce
I0403 15:36:13.405347 12137 net.cpp:425] inception_4e/3x3_reduce <- inception_4d/output_inception_4d/output_0_split_2
I0403 15:36:13.405369 12137 net.cpp:399] inception_4e/3x3_reduce -> inception_4e/3x3_reduce
I0403 15:36:13.407569 12137 net.cpp:141] Setting up inception_4e/3x3_reduce
I0403 15:36:13.407600 12137 net.cpp:148] Top shape: 24 160 14 14 (752640)
I0403 15:36:13.407616 12137 net.cpp:156] Memory required for data: 1221076512
I0403 15:36:13.407635 12137 layer_factory.hpp:77] Creating layer inception_4e/relu_3x3_reduce
I0403 15:36:13.407655 12137 net.cpp:91] Creating Layer inception_4e/relu_3x3_reduce
I0403 15:36:13.407672 12137 net.cpp:425] inception_4e/relu_3x3_reduce <- inception_4e/3x3_reduce
I0403 15:36:13.407691 12137 net.cpp:386] inception_4e/relu_3x3_reduce -> inception_4e/3x3_reduce (in-place)
I0403 15:36:13.407886 12137 net.cpp:141] Setting up inception_4e/relu_3x3_reduce
I0403 15:36:13.407912 12137 net.cpp:148] Top shape: 24 160 14 14 (752640)
I0403 15:36:13.407927 12137 net.cpp:156] Memory required for data: 1224087072
I0403 15:36:13.407941 12137 layer_factory.hpp:77] Creating layer inception_4e/3x3
I0403 15:36:13.407964 12137 net.cpp:91] Creating Layer inception_4e/3x3
I0403 15:36:13.407982 12137 net.cpp:425] inception_4e/3x3 <- inception_4e/3x3_reduce
I0403 15:36:13.408004 12137 net.cpp:399] inception_4e/3x3 -> inception_4e/3x3
I0403 15:36:13.413331 12137 net.cpp:141] Setting up inception_4e/3x3
I0403 15:36:13.413377 12137 net.cpp:148] Top shape: 24 320 14 14 (1505280)
I0403 15:36:13.413393 12137 net.cpp:156] Memory required for data: 1230108192
I0403 15:36:13.413413 12137 layer_factory.hpp:77] Creating layer inception_4e/relu_3x3
I0403 15:36:13.413430 12137 net.cpp:91] Creating Layer inception_4e/relu_3x3
I0403 15:36:13.413446 12137 net.cpp:425] inception_4e/relu_3x3 <- inception_4e/3x3
I0403 15:36:13.413467 12137 net.cpp:386] inception_4e/relu_3x3 -> inception_4e/3x3 (in-place)
I0403 15:36:13.413779 12137 net.cpp:141] Setting up inception_4e/relu_3x3
I0403 15:36:13.413806 12137 net.cpp:148] Top shape: 24 320 14 14 (1505280)
I0403 15:36:13.413822 12137 net.cpp:156] Memory required for data: 1236129312
I0403 15:36:13.413837 12137 layer_factory.hpp:77] Creating layer inception_4e/5x5_reduce
I0403 15:36:13.413861 12137 net.cpp:91] Creating Layer inception_4e/5x5_reduce
I0403 15:36:13.413878 12137 net.cpp:425] inception_4e/5x5_reduce <- inception_4d/output_inception_4d/output_0_split_3
I0403 15:36:13.413900 12137 net.cpp:399] inception_4e/5x5_reduce -> inception_4e/5x5_reduce
I0403 15:36:13.415007 12137 net.cpp:141] Setting up inception_4e/5x5_reduce
I0403 15:36:13.415037 12137 net.cpp:148] Top shape: 24 32 14 14 (150528)
I0403 15:36:13.415055 12137 net.cpp:156] Memory required for data: 1236731424
I0403 15:36:13.415072 12137 layer_factory.hpp:77] Creating layer inception_4e/relu_5x5_reduce
I0403 15:36:13.415091 12137 net.cpp:91] Creating Layer inception_4e/relu_5x5_reduce
I0403 15:36:13.415108 12137 net.cpp:425] inception_4e/relu_5x5_reduce <- inception_4e/5x5_reduce
I0403 15:36:13.415127 12137 net.cpp:386] inception_4e/relu_5x5_reduce -> inception_4e/5x5_reduce (in-place)
I0403 15:36:13.415437 12137 net.cpp:141] Setting up inception_4e/relu_5x5_reduce
I0403 15:36:13.415467 12137 net.cpp:148] Top shape: 24 32 14 14 (150528)
I0403 15:36:13.415483 12137 net.cpp:156] Memory required for data: 1237333536
I0403 15:36:13.415498 12137 layer_factory.hpp:77] Creating layer inception_4e/5x5
I0403 15:36:13.415542 12137 net.cpp:91] Creating Layer inception_4e/5x5
I0403 15:36:13.415562 12137 net.cpp:425] inception_4e/5x5 <- inception_4e/5x5_reduce
I0403 15:36:13.415581 12137 net.cpp:399] inception_4e/5x5 -> inception_4e/5x5
I0403 15:36:13.417481 12137 net.cpp:141] Setting up inception_4e/5x5
I0403 15:36:13.417510 12137 net.cpp:148] Top shape: 24 128 14 14 (602112)
I0403 15:36:13.417526 12137 net.cpp:156] Memory required for data: 1239741984
I0403 15:36:13.417546 12137 layer_factory.hpp:77] Creating layer inception_4e/relu_5x5
I0403 15:36:13.417565 12137 net.cpp:91] Creating Layer inception_4e/relu_5x5
I0403 15:36:13.417583 12137 net.cpp:425] inception_4e/relu_5x5 <- inception_4e/5x5
I0403 15:36:13.417600 12137 net.cpp:386] inception_4e/relu_5x5 -> inception_4e/5x5 (in-place)
I0403 15:36:13.417804 12137 net.cpp:141] Setting up inception_4e/relu_5x5
I0403 15:36:13.417831 12137 net.cpp:148] Top shape: 24 128 14 14 (602112)
I0403 15:36:13.417847 12137 net.cpp:156] Memory required for data: 1242150432
I0403 15:36:13.417862 12137 layer_factory.hpp:77] Creating layer inception_4e/pool
I0403 15:36:13.417881 12137 net.cpp:91] Creating Layer inception_4e/pool
I0403 15:36:13.417897 12137 net.cpp:425] inception_4e/pool <- inception_4d/output_inception_4d/output_0_split_4
I0403 15:36:13.417917 12137 net.cpp:399] inception_4e/pool -> inception_4e/pool
I0403 15:36:13.417989 12137 net.cpp:141] Setting up inception_4e/pool
I0403 15:36:13.418014 12137 net.cpp:148] Top shape: 24 528 14 14 (2483712)
I0403 15:36:13.418030 12137 net.cpp:156] Memory required for data: 1252085280
I0403 15:36:13.418043 12137 layer_factory.hpp:77] Creating layer inception_4e/pool_proj
I0403 15:36:13.418066 12137 net.cpp:91] Creating Layer inception_4e/pool_proj
I0403 15:36:13.418083 12137 net.cpp:425] inception_4e/pool_proj <- inception_4e/pool
I0403 15:36:13.418105 12137 net.cpp:399] inception_4e/pool_proj -> inception_4e/pool_proj
I0403 15:36:13.419697 12137 net.cpp:141] Setting up inception_4e/pool_proj
I0403 15:36:13.419737 12137 net.cpp:148] Top shape: 24 128 14 14 (602112)
I0403 15:36:13.419754 12137 net.cpp:156] Memory required for data: 1254493728
I0403 15:36:13.419773 12137 layer_factory.hpp:77] Creating layer inception_4e/relu_pool_proj
I0403 15:36:13.419795 12137 net.cpp:91] Creating Layer inception_4e/relu_pool_proj
I0403 15:36:13.419811 12137 net.cpp:425] inception_4e/relu_pool_proj <- inception_4e/pool_proj
I0403 15:36:13.419828 12137 net.cpp:386] inception_4e/relu_pool_proj -> inception_4e/pool_proj (in-place)
I0403 15:36:13.420130 12137 net.cpp:141] Setting up inception_4e/relu_pool_proj
I0403 15:36:13.420156 12137 net.cpp:148] Top shape: 24 128 14 14 (602112)
I0403 15:36:13.420172 12137 net.cpp:156] Memory required for data: 1256902176
I0403 15:36:13.420188 12137 layer_factory.hpp:77] Creating layer inception_4e/output
I0403 15:36:13.420208 12137 net.cpp:91] Creating Layer inception_4e/output
I0403 15:36:13.420224 12137 net.cpp:425] inception_4e/output <- inception_4e/1x1
I0403 15:36:13.420241 12137 net.cpp:425] inception_4e/output <- inception_4e/3x3
I0403 15:36:13.420258 12137 net.cpp:425] inception_4e/output <- inception_4e/5x5
I0403 15:36:13.420274 12137 net.cpp:425] inception_4e/output <- inception_4e/pool_proj
I0403 15:36:13.420291 12137 net.cpp:399] inception_4e/output -> inception_4e/output
I0403 15:36:13.420351 12137 net.cpp:141] Setting up inception_4e/output
I0403 15:36:13.420375 12137 net.cpp:148] Top shape: 24 832 14 14 (3913728)
I0403 15:36:13.420390 12137 net.cpp:156] Memory required for data: 1272557088
I0403 15:36:13.420405 12137 layer_factory.hpp:77] Creating layer pool4/3x3_s2
I0403 15:36:13.420423 12137 net.cpp:91] Creating Layer pool4/3x3_s2
I0403 15:36:13.420439 12137 net.cpp:425] pool4/3x3_s2 <- inception_4e/output
I0403 15:36:13.420460 12137 net.cpp:399] pool4/3x3_s2 -> pool4/3x3_s2
I0403 15:36:13.420529 12137 net.cpp:141] Setting up pool4/3x3_s2
I0403 15:36:13.420555 12137 net.cpp:148] Top shape: 24 832 7 7 (978432)
I0403 15:36:13.420572 12137 net.cpp:156] Memory required for data: 1276470816
I0403 15:36:13.420586 12137 layer_factory.hpp:77] Creating layer pool4/3x3_s2_pool4/3x3_s2_0_split
I0403 15:36:13.420605 12137 net.cpp:91] Creating Layer pool4/3x3_s2_pool4/3x3_s2_0_split
I0403 15:36:13.420620 12137 net.cpp:425] pool4/3x3_s2_pool4/3x3_s2_0_split <- pool4/3x3_s2
I0403 15:36:13.420637 12137 net.cpp:399] pool4/3x3_s2_pool4/3x3_s2_0_split -> pool4/3x3_s2_pool4/3x3_s2_0_split_0
I0403 15:36:13.420657 12137 net.cpp:399] pool4/3x3_s2_pool4/3x3_s2_0_split -> pool4/3x3_s2_pool4/3x3_s2_0_split_1
I0403 15:36:13.420680 12137 net.cpp:399] pool4/3x3_s2_pool4/3x3_s2_0_split -> pool4/3x3_s2_pool4/3x3_s2_0_split_2
I0403 15:36:13.420702 12137 net.cpp:399] pool4/3x3_s2_pool4/3x3_s2_0_split -> pool4/3x3_s2_pool4/3x3_s2_0_split_3
I0403 15:36:13.420795 12137 net.cpp:141] Setting up pool4/3x3_s2_pool4/3x3_s2_0_split
I0403 15:36:13.420819 12137 net.cpp:148] Top shape: 24 832 7 7 (978432)
I0403 15:36:13.420835 12137 net.cpp:148] Top shape: 24 832 7 7 (978432)
I0403 15:36:13.420851 12137 net.cpp:148] Top shape: 24 832 7 7 (978432)
I0403 15:36:13.420866 12137 net.cpp:148] Top shape: 24 832 7 7 (978432)
I0403 15:36:13.420881 12137 net.cpp:156] Memory required for data: 1292125728
I0403 15:36:13.420894 12137 layer_factory.hpp:77] Creating layer inception_5a/1x1
I0403 15:36:13.420917 12137 net.cpp:91] Creating Layer inception_5a/1x1
I0403 15:36:13.420934 12137 net.cpp:425] inception_5a/1x1 <- pool4/3x3_s2_pool4/3x3_s2_0_split_0
I0403 15:36:13.420956 12137 net.cpp:399] inception_5a/1x1 -> inception_5a/1x1
I0403 15:36:13.423913 12137 net.cpp:141] Setting up inception_5a/1x1
I0403 15:36:13.423943 12137 net.cpp:148] Top shape: 24 256 7 7 (301056)
I0403 15:36:13.423959 12137 net.cpp:156] Memory required for data: 1293329952
I0403 15:36:13.423979 12137 layer_factory.hpp:77] Creating layer inception_5a/relu_1x1
I0403 15:36:13.424000 12137 net.cpp:91] Creating Layer inception_5a/relu_1x1
I0403 15:36:13.424016 12137 net.cpp:425] inception_5a/relu_1x1 <- inception_5a/1x1
I0403 15:36:13.424034 12137 net.cpp:386] inception_5a/relu_1x1 -> inception_5a/1x1 (in-place)
I0403 15:36:13.424365 12137 net.cpp:141] Setting up inception_5a/relu_1x1
I0403 15:36:13.424392 12137 net.cpp:148] Top shape: 24 256 7 7 (301056)
I0403 15:36:13.424408 12137 net.cpp:156] Memory required for data: 1294534176
I0403 15:36:13.424423 12137 layer_factory.hpp:77] Creating layer inception_5a/3x3_reduce
I0403 15:36:13.424448 12137 net.cpp:91] Creating Layer inception_5a/3x3_reduce
I0403 15:36:13.424465 12137 net.cpp:425] inception_5a/3x3_reduce <- pool4/3x3_s2_pool4/3x3_s2_0_split_1
I0403 15:36:13.424484 12137 net.cpp:399] inception_5a/3x3_reduce -> inception_5a/3x3_reduce
I0403 15:36:13.427119 12137 net.cpp:141] Setting up inception_5a/3x3_reduce
I0403 15:36:13.427148 12137 net.cpp:148] Top shape: 24 160 7 7 (188160)
I0403 15:36:13.427165 12137 net.cpp:156] Memory required for data: 1295286816
I0403 15:36:13.427183 12137 layer_factory.hpp:77] Creating layer inception_5a/relu_3x3_reduce
I0403 15:36:13.427225 12137 net.cpp:91] Creating Layer inception_5a/relu_3x3_reduce
I0403 15:36:13.427244 12137 net.cpp:425] inception_5a/relu_3x3_reduce <- inception_5a/3x3_reduce
I0403 15:36:13.427263 12137 net.cpp:386] inception_5a/relu_3x3_reduce -> inception_5a/3x3_reduce (in-place)
I0403 15:36:13.427456 12137 net.cpp:141] Setting up inception_5a/relu_3x3_reduce
I0403 15:36:13.427481 12137 net.cpp:148] Top shape: 24 160 7 7 (188160)
I0403 15:36:13.427506 12137 net.cpp:156] Memory required for data: 1296039456
I0403 15:36:13.427521 12137 layer_factory.hpp:77] Creating layer inception_5a/3x3
I0403 15:36:13.427546 12137 net.cpp:91] Creating Layer inception_5a/3x3
I0403 15:36:13.427563 12137 net.cpp:425] inception_5a/3x3 <- inception_5a/3x3_reduce
I0403 15:36:13.427582 12137 net.cpp:399] inception_5a/3x3 -> inception_5a/3x3
I0403 15:36:13.432612 12137 net.cpp:141] Setting up inception_5a/3x3
I0403 15:36:13.432641 12137 net.cpp:148] Top shape: 24 320 7 7 (376320)
I0403 15:36:13.432658 12137 net.cpp:156] Memory required for data: 1297544736
I0403 15:36:13.432677 12137 layer_factory.hpp:77] Creating layer inception_5a/relu_3x3
I0403 15:36:13.432698 12137 net.cpp:91] Creating Layer inception_5a/relu_3x3
I0403 15:36:13.432713 12137 net.cpp:425] inception_5a/relu_3x3 <- inception_5a/3x3
I0403 15:36:13.432730 12137 net.cpp:386] inception_5a/relu_3x3 -> inception_5a/3x3 (in-place)
I0403 15:36:13.433025 12137 net.cpp:141] Setting up inception_5a/relu_3x3
I0403 15:36:13.433051 12137 net.cpp:148] Top shape: 24 320 7 7 (376320)
I0403 15:36:13.433066 12137 net.cpp:156] Memory required for data: 1299050016
I0403 15:36:13.433081 12137 layer_factory.hpp:77] Creating layer inception_5a/5x5_reduce
I0403 15:36:13.433104 12137 net.cpp:91] Creating Layer inception_5a/5x5_reduce
I0403 15:36:13.433120 12137 net.cpp:425] inception_5a/5x5_reduce <- pool4/3x3_s2_pool4/3x3_s2_0_split_2
I0403 15:36:13.433141 12137 net.cpp:399] inception_5a/5x5_reduce -> inception_5a/5x5_reduce
I0403 15:36:13.434330 12137 net.cpp:141] Setting up inception_5a/5x5_reduce
I0403 15:36:13.434360 12137 net.cpp:148] Top shape: 24 32 7 7 (37632)
I0403 15:36:13.434377 12137 net.cpp:156] Memory required for data: 1299200544
I0403 15:36:13.434396 12137 layer_factory.hpp:77] Creating layer inception_5a/relu_5x5_reduce
I0403 15:36:13.434413 12137 net.cpp:91] Creating Layer inception_5a/relu_5x5_reduce
I0403 15:36:13.434429 12137 net.cpp:425] inception_5a/relu_5x5_reduce <- inception_5a/5x5_reduce
I0403 15:36:13.434448 12137 net.cpp:386] inception_5a/relu_5x5_reduce -> inception_5a/5x5_reduce (in-place)
I0403 15:36:13.434751 12137 net.cpp:141] Setting up inception_5a/relu_5x5_reduce
I0403 15:36:13.434779 12137 net.cpp:148] Top shape: 24 32 7 7 (37632)
I0403 15:36:13.434795 12137 net.cpp:156] Memory required for data: 1299351072
I0403 15:36:13.434810 12137 layer_factory.hpp:77] Creating layer inception_5a/5x5
I0403 15:36:13.434831 12137 net.cpp:91] Creating Layer inception_5a/5x5
I0403 15:36:13.434849 12137 net.cpp:425] inception_5a/5x5 <- inception_5a/5x5_reduce
I0403 15:36:13.434869 12137 net.cpp:399] inception_5a/5x5 -> inception_5a/5x5
I0403 15:36:13.436597 12137 net.cpp:141] Setting up inception_5a/5x5
I0403 15:36:13.436637 12137 net.cpp:148] Top shape: 24 128 7 7 (150528)
I0403 15:36:13.436655 12137 net.cpp:156] Memory required for data: 1299953184
I0403 15:36:13.436672 12137 layer_factory.hpp:77] Creating layer inception_5a/relu_5x5
I0403 15:36:13.436692 12137 net.cpp:91] Creating Layer inception_5a/relu_5x5
I0403 15:36:13.436709 12137 net.cpp:425] inception_5a/relu_5x5 <- inception_5a/5x5
I0403 15:36:13.436727 12137 net.cpp:386] inception_5a/relu_5x5 -> inception_5a/5x5 (in-place)
I0403 15:36:13.436918 12137 net.cpp:141] Setting up inception_5a/relu_5x5
I0403 15:36:13.436945 12137 net.cpp:148] Top shape: 24 128 7 7 (150528)
I0403 15:36:13.436961 12137 net.cpp:156] Memory required for data: 1300555296
I0403 15:36:13.436976 12137 layer_factory.hpp:77] Creating layer inception_5a/pool
I0403 15:36:13.436993 12137 net.cpp:91] Creating Layer inception_5a/pool
I0403 15:36:13.437008 12137 net.cpp:425] inception_5a/pool <- pool4/3x3_s2_pool4/3x3_s2_0_split_3
I0403 15:36:13.437028 12137 net.cpp:399] inception_5a/pool -> inception_5a/pool
I0403 15:36:13.437098 12137 net.cpp:141] Setting up inception_5a/pool
I0403 15:36:13.437121 12137 net.cpp:148] Top shape: 24 832 7 7 (978432)
I0403 15:36:13.437136 12137 net.cpp:156] Memory required for data: 1304469024
I0403 15:36:13.437150 12137 layer_factory.hpp:77] Creating layer inception_5a/pool_proj
I0403 15:36:13.437172 12137 net.cpp:91] Creating Layer inception_5a/pool_proj
I0403 15:36:13.437189 12137 net.cpp:425] inception_5a/pool_proj <- inception_5a/pool
I0403 15:36:13.437211 12137 net.cpp:399] inception_5a/pool_proj -> inception_5a/pool_proj
I0403 15:36:13.439512 12137 net.cpp:141] Setting up inception_5a/pool_proj
I0403 15:36:13.439540 12137 net.cpp:148] Top shape: 24 128 7 7 (150528)
I0403 15:36:13.439556 12137 net.cpp:156] Memory required for data: 1305071136
I0403 15:36:13.439574 12137 layer_factory.hpp:77] Creating layer inception_5a/relu_pool_proj
I0403 15:36:13.439594 12137 net.cpp:91] Creating Layer inception_5a/relu_pool_proj
I0403 15:36:13.439612 12137 net.cpp:425] inception_5a/relu_pool_proj <- inception_5a/pool_proj
I0403 15:36:13.439630 12137 net.cpp:386] inception_5a/relu_pool_proj -> inception_5a/pool_proj (in-place)
I0403 15:36:13.439931 12137 net.cpp:141] Setting up inception_5a/relu_pool_proj
I0403 15:36:13.439957 12137 net.cpp:148] Top shape: 24 128 7 7 (150528)
I0403 15:36:13.439972 12137 net.cpp:156] Memory required for data: 1305673248
I0403 15:36:13.439987 12137 layer_factory.hpp:77] Creating layer inception_5a/output
I0403 15:36:13.440003 12137 net.cpp:91] Creating Layer inception_5a/output
I0403 15:36:13.440019 12137 net.cpp:425] inception_5a/output <- inception_5a/1x1
I0403 15:36:13.440038 12137 net.cpp:425] inception_5a/output <- inception_5a/3x3
I0403 15:36:13.440055 12137 net.cpp:425] inception_5a/output <- inception_5a/5x5
I0403 15:36:13.440070 12137 net.cpp:425] inception_5a/output <- inception_5a/pool_proj
I0403 15:36:13.440086 12137 net.cpp:399] inception_5a/output -> inception_5a/output
I0403 15:36:13.440138 12137 net.cpp:141] Setting up inception_5a/output
I0403 15:36:13.440161 12137 net.cpp:148] Top shape: 24 832 7 7 (978432)
I0403 15:36:13.440176 12137 net.cpp:156] Memory required for data: 1309586976
I0403 15:36:13.440191 12137 layer_factory.hpp:77] Creating layer inception_5a/output_inception_5a/output_0_split
I0403 15:36:13.440207 12137 net.cpp:91] Creating Layer inception_5a/output_inception_5a/output_0_split
I0403 15:36:13.440222 12137 net.cpp:425] inception_5a/output_inception_5a/output_0_split <- inception_5a/output
I0403 15:36:13.440242 12137 net.cpp:399] inception_5a/output_inception_5a/output_0_split -> inception_5a/output_inception_5a/output_0_split_0
I0403 15:36:13.440261 12137 net.cpp:399] inception_5a/output_inception_5a/output_0_split -> inception_5a/output_inception_5a/output_0_split_1
I0403 15:36:13.440281 12137 net.cpp:399] inception_5a/output_inception_5a/output_0_split -> inception_5a/output_inception_5a/output_0_split_2
I0403 15:36:13.440301 12137 net.cpp:399] inception_5a/output_inception_5a/output_0_split -> inception_5a/output_inception_5a/output_0_split_3
I0403 15:36:13.440418 12137 net.cpp:141] Setting up inception_5a/output_inception_5a/output_0_split
I0403 15:36:13.440444 12137 net.cpp:148] Top shape: 24 832 7 7 (978432)
I0403 15:36:13.440462 12137 net.cpp:148] Top shape: 24 832 7 7 (978432)
I0403 15:36:13.440477 12137 net.cpp:148] Top shape: 24 832 7 7 (978432)
I0403 15:36:13.440492 12137 net.cpp:148] Top shape: 24 832 7 7 (978432)
I0403 15:36:13.440506 12137 net.cpp:156] Memory required for data: 1325241888
I0403 15:36:13.440521 12137 layer_factory.hpp:77] Creating layer inception_5b/1x1
I0403 15:36:13.440542 12137 net.cpp:91] Creating Layer inception_5b/1x1
I0403 15:36:13.440559 12137 net.cpp:425] inception_5b/1x1 <- inception_5a/output_inception_5a/output_0_split_0
I0403 15:36:13.440578 12137 net.cpp:399] inception_5b/1x1 -> inception_5b/1x1
I0403 15:36:13.444362 12137 net.cpp:141] Setting up inception_5b/1x1
I0403 15:36:13.444391 12137 net.cpp:148] Top shape: 24 384 7 7 (451584)
I0403 15:36:13.444407 12137 net.cpp:156] Memory required for data: 1327048224
I0403 15:36:13.444424 12137 layer_factory.hpp:77] Creating layer inception_5b/relu_1x1
I0403 15:36:13.444445 12137 net.cpp:91] Creating Layer inception_5b/relu_1x1
I0403 15:36:13.444463 12137 net.cpp:425] inception_5b/relu_1x1 <- inception_5b/1x1
I0403 15:36:13.444479 12137 net.cpp:386] inception_5b/relu_1x1 -> inception_5b/1x1 (in-place)
I0403 15:36:13.444789 12137 net.cpp:141] Setting up inception_5b/relu_1x1
I0403 15:36:13.444816 12137 net.cpp:148] Top shape: 24 384 7 7 (451584)
I0403 15:36:13.444831 12137 net.cpp:156] Memory required for data: 1328854560
I0403 15:36:13.444846 12137 layer_factory.hpp:77] Creating layer inception_5b/3x3_reduce
I0403 15:36:13.444869 12137 net.cpp:91] Creating Layer inception_5b/3x3_reduce
I0403 15:36:13.444885 12137 net.cpp:425] inception_5b/3x3_reduce <- inception_5a/output_inception_5a/output_0_split_1
I0403 15:36:13.444907 12137 net.cpp:399] inception_5b/3x3_reduce -> inception_5b/3x3_reduce
I0403 15:36:13.447573 12137 net.cpp:141] Setting up inception_5b/3x3_reduce
I0403 15:36:13.447602 12137 net.cpp:148] Top shape: 24 192 7 7 (225792)
I0403 15:36:13.447618 12137 net.cpp:156] Memory required for data: 1329757728
I0403 15:36:13.447638 12137 layer_factory.hpp:77] Creating layer inception_5b/relu_3x3_reduce
I0403 15:36:13.447656 12137 net.cpp:91] Creating Layer inception_5b/relu_3x3_reduce
I0403 15:36:13.447674 12137 net.cpp:425] inception_5b/relu_3x3_reduce <- inception_5b/3x3_reduce
I0403 15:36:13.447691 12137 net.cpp:386] inception_5b/relu_3x3_reduce -> inception_5b/3x3_reduce (in-place)
I0403 15:36:13.447881 12137 net.cpp:141] Setting up inception_5b/relu_3x3_reduce
I0403 15:36:13.447907 12137 net.cpp:148] Top shape: 24 192 7 7 (225792)
I0403 15:36:13.447923 12137 net.cpp:156] Memory required for data: 1330660896
I0403 15:36:13.447938 12137 layer_factory.hpp:77] Creating layer inception_5b/3x3
I0403 15:36:13.447959 12137 net.cpp:91] Creating Layer inception_5b/3x3
I0403 15:36:13.447978 12137 net.cpp:425] inception_5b/3x3 <- inception_5b/3x3_reduce
I0403 15:36:13.447995 12137 net.cpp:399] inception_5b/3x3 -> inception_5b/3x3
I0403 15:36:13.454701 12137 net.cpp:141] Setting up inception_5b/3x3
I0403 15:36:13.454730 12137 net.cpp:148] Top shape: 24 384 7 7 (451584)
I0403 15:36:13.454746 12137 net.cpp:156] Memory required for data: 1332467232
I0403 15:36:13.454763 12137 layer_factory.hpp:77] Creating layer inception_5b/relu_3x3
I0403 15:36:13.454784 12137 net.cpp:91] Creating Layer inception_5b/relu_3x3
I0403 15:36:13.454802 12137 net.cpp:425] inception_5b/relu_3x3 <- inception_5b/3x3
I0403 15:36:13.454818 12137 net.cpp:386] inception_5b/relu_3x3 -> inception_5b/3x3 (in-place)
I0403 15:36:13.455121 12137 net.cpp:141] Setting up inception_5b/relu_3x3
I0403 15:36:13.455147 12137 net.cpp:148] Top shape: 24 384 7 7 (451584)
I0403 15:36:13.455163 12137 net.cpp:156] Memory required for data: 1334273568
I0403 15:36:13.455176 12137 layer_factory.hpp:77] Creating layer inception_5b/5x5_reduce
I0403 15:36:13.455214 12137 net.cpp:91] Creating Layer inception_5b/5x5_reduce
I0403 15:36:13.455232 12137 net.cpp:425] inception_5b/5x5_reduce <- inception_5a/output_inception_5a/output_0_split_2
I0403 15:36:13.455255 12137 net.cpp:399] inception_5b/5x5_reduce -> inception_5b/5x5_reduce
I0403 15:36:13.456544 12137 net.cpp:141] Setting up inception_5b/5x5_reduce
I0403 15:36:13.456571 12137 net.cpp:148] Top shape: 24 48 7 7 (56448)
I0403 15:36:13.456588 12137 net.cpp:156] Memory required for data: 1334499360
I0403 15:36:13.456606 12137 layer_factory.hpp:77] Creating layer inception_5b/relu_5x5_reduce
I0403 15:36:13.456626 12137 net.cpp:91] Creating Layer inception_5b/relu_5x5_reduce
I0403 15:36:13.456642 12137 net.cpp:425] inception_5b/relu_5x5_reduce <- inception_5b/5x5_reduce
I0403 15:36:13.456660 12137 net.cpp:386] inception_5b/relu_5x5_reduce -> inception_5b/5x5_reduce (in-place)
I0403 15:36:13.457037 12137 net.cpp:141] Setting up inception_5b/relu_5x5_reduce
I0403 15:36:13.457063 12137 net.cpp:148] Top shape: 24 48 7 7 (56448)
I0403 15:36:13.457079 12137 net.cpp:156] Memory required for data: 1334725152
I0403 15:36:13.457093 12137 layer_factory.hpp:77] Creating layer inception_5b/5x5
I0403 15:36:13.457113 12137 net.cpp:91] Creating Layer inception_5b/5x5
I0403 15:36:13.457130 12137 net.cpp:425] inception_5b/5x5 <- inception_5b/5x5_reduce
I0403 15:36:13.457149 12137 net.cpp:399] inception_5b/5x5 -> inception_5b/5x5
I0403 15:36:13.459202 12137 net.cpp:141] Setting up inception_5b/5x5
I0403 15:36:13.459229 12137 net.cpp:148] Top shape: 24 128 7 7 (150528)
I0403 15:36:13.459244 12137 net.cpp:156] Memory required for data: 1335327264
I0403 15:36:13.459262 12137 layer_factory.hpp:77] Creating layer inception_5b/relu_5x5
I0403 15:36:13.459282 12137 net.cpp:91] Creating Layer inception_5b/relu_5x5
I0403 15:36:13.459300 12137 net.cpp:425] inception_5b/relu_5x5 <- inception_5b/5x5
I0403 15:36:13.459321 12137 net.cpp:386] inception_5b/relu_5x5 -> inception_5b/5x5 (in-place)
I0403 15:36:13.459517 12137 net.cpp:141] Setting up inception_5b/relu_5x5
I0403 15:36:13.459542 12137 net.cpp:148] Top shape: 24 128 7 7 (150528)
I0403 15:36:13.459556 12137 net.cpp:156] Memory required for data: 1335929376
I0403 15:36:13.459571 12137 layer_factory.hpp:77] Creating layer inception_5b/pool
I0403 15:36:13.459589 12137 net.cpp:91] Creating Layer inception_5b/pool
I0403 15:36:13.459606 12137 net.cpp:425] inception_5b/pool <- inception_5a/output_inception_5a/output_0_split_3
I0403 15:36:13.459626 12137 net.cpp:399] inception_5b/pool -> inception_5b/pool
I0403 15:36:13.459698 12137 net.cpp:141] Setting up inception_5b/pool
I0403 15:36:13.459722 12137 net.cpp:148] Top shape: 24 832 7 7 (978432)
I0403 15:36:13.459738 12137 net.cpp:156] Memory required for data: 1339843104
I0403 15:36:13.459751 12137 layer_factory.hpp:77] Creating layer inception_5b/pool_proj
I0403 15:36:13.459775 12137 net.cpp:91] Creating Layer inception_5b/pool_proj
I0403 15:36:13.459792 12137 net.cpp:425] inception_5b/pool_proj <- inception_5b/pool
I0403 15:36:13.459811 12137 net.cpp:399] inception_5b/pool_proj -> inception_5b/pool_proj
I0403 15:36:13.462165 12137 net.cpp:141] Setting up inception_5b/pool_proj
I0403 15:36:13.462196 12137 net.cpp:148] Top shape: 24 128 7 7 (150528)
I0403 15:36:13.462213 12137 net.cpp:156] Memory required for data: 1340445216
I0403 15:36:13.462232 12137 layer_factory.hpp:77] Creating layer inception_5b/relu_pool_proj
I0403 15:36:13.462257 12137 net.cpp:91] Creating Layer inception_5b/relu_pool_proj
I0403 15:36:13.462275 12137 net.cpp:425] inception_5b/relu_pool_proj <- inception_5b/pool_proj
I0403 15:36:13.462293 12137 net.cpp:386] inception_5b/relu_pool_proj -> inception_5b/pool_proj (in-place)
I0403 15:36:13.462613 12137 net.cpp:141] Setting up inception_5b/relu_pool_proj
I0403 15:36:13.462641 12137 net.cpp:148] Top shape: 24 128 7 7 (150528)
I0403 15:36:13.462657 12137 net.cpp:156] Memory required for data: 1341047328
I0403 15:36:13.462673 12137 layer_factory.hpp:77] Creating layer inception_5b/output
I0403 15:36:13.462694 12137 net.cpp:91] Creating Layer inception_5b/output
I0403 15:36:13.462728 12137 net.cpp:425] inception_5b/output <- inception_5b/1x1
I0403 15:36:13.462746 12137 net.cpp:425] inception_5b/output <- inception_5b/3x3
I0403 15:36:13.462764 12137 net.cpp:425] inception_5b/output <- inception_5b/5x5
I0403 15:36:13.462780 12137 net.cpp:425] inception_5b/output <- inception_5b/pool_proj
I0403 15:36:13.462798 12137 net.cpp:399] inception_5b/output -> inception_5b/output
I0403 15:36:13.462855 12137 net.cpp:141] Setting up inception_5b/output
I0403 15:36:13.462880 12137 net.cpp:148] Top shape: 24 1024 7 7 (1204224)
I0403 15:36:13.462896 12137 net.cpp:156] Memory required for data: 1345864224
I0403 15:36:13.462911 12137 layer_factory.hpp:77] Creating layer pool5/7x7_s1
I0403 15:36:13.462929 12137 net.cpp:91] Creating Layer pool5/7x7_s1
I0403 15:36:13.462945 12137 net.cpp:425] pool5/7x7_s1 <- inception_5b/output
I0403 15:36:13.462966 12137 net.cpp:399] pool5/7x7_s1 -> pool5/7x7_s1
I0403 15:36:13.463198 12137 net.cpp:141] Setting up pool5/7x7_s1
I0403 15:36:13.463227 12137 net.cpp:148] Top shape: 24 1024 1 1 (24576)
I0403 15:36:13.463244 12137 net.cpp:156] Memory required for data: 1345962528
I0403 15:36:13.463259 12137 layer_factory.hpp:77] Creating layer pool5/drop_7x7_s1
I0403 15:36:13.463279 12137 net.cpp:91] Creating Layer pool5/drop_7x7_s1
I0403 15:36:13.463295 12137 net.cpp:425] pool5/drop_7x7_s1 <- pool5/7x7_s1
I0403 15:36:13.463315 12137 net.cpp:386] pool5/drop_7x7_s1 -> pool5/7x7_s1 (in-place)
I0403 15:36:13.463382 12137 net.cpp:141] Setting up pool5/drop_7x7_s1
I0403 15:36:13.463407 12137 net.cpp:148] Top shape: 24 1024 1 1 (24576)
I0403 15:36:13.463423 12137 net.cpp:156] Memory required for data: 1346060832
I0403 15:36:13.463438 12137 layer_factory.hpp:77] Creating layer loss3/classifier_plantvillage
I0403 15:36:13.463459 12137 net.cpp:91] Creating Layer loss3/classifier_plantvillage
I0403 15:36:13.463477 12137 net.cpp:425] loss3/classifier_plantvillage <- pool5/7x7_s1
I0403 15:36:13.463496 12137 net.cpp:399] loss3/classifier_plantvillage -> loss3/classifier_plantvillage
I0403 15:36:13.463950 12137 net.cpp:141] Setting up loss3/classifier_plantvillage
I0403 15:36:13.463976 12137 net.cpp:148] Top shape: 24 38 (912)
I0403 15:36:13.463992 12137 net.cpp:156] Memory required for data: 1346064480
I0403 15:36:13.464011 12137 layer_factory.hpp:77] Creating layer loss3/classifier_plantvillage_loss3/classifier_plantvillage_0_split
I0403 15:36:13.464030 12137 net.cpp:91] Creating Layer loss3/classifier_plantvillage_loss3/classifier_plantvillage_0_split
I0403 15:36:13.464046 12137 net.cpp:425] loss3/classifier_plantvillage_loss3/classifier_plantvillage_0_split <- loss3/classifier_plantvillage
I0403 15:36:13.464067 12137 net.cpp:399] loss3/classifier_plantvillage_loss3/classifier_plantvillage_0_split -> loss3/classifier_plantvillage_loss3/classifier_plantvillage_0_split_0
I0403 15:36:13.464089 12137 net.cpp:399] loss3/classifier_plantvillage_loss3/classifier_plantvillage_0_split -> loss3/classifier_plantvillage_loss3/classifier_plantvillage_0_split_1
I0403 15:36:13.464110 12137 net.cpp:399] loss3/classifier_plantvillage_loss3/classifier_plantvillage_0_split -> loss3/classifier_plantvillage_loss3/classifier_plantvillage_0_split_2
I0403 15:36:13.464130 12137 net.cpp:399] loss3/classifier_plantvillage_loss3/classifier_plantvillage_0_split -> loss3/classifier_plantvillage_loss3/classifier_plantvillage_0_split_3
I0403 15:36:13.464239 12137 net.cpp:141] Setting up loss3/classifier_plantvillage_loss3/classifier_plantvillage_0_split
I0403 15:36:13.464268 12137 net.cpp:148] Top shape: 24 38 (912)
I0403 15:36:13.464287 12137 net.cpp:148] Top shape: 24 38 (912)
I0403 15:36:13.464303 12137 net.cpp:148] Top shape: 24 38 (912)
I0403 15:36:13.464324 12137 net.cpp:148] Top shape: 24 38 (912)
I0403 15:36:13.464340 12137 net.cpp:156] Memory required for data: 1346079072
I0403 15:36:13.464355 12137 layer_factory.hpp:77] Creating layer loss1/loss
I0403 15:36:13.464380 12137 net.cpp:91] Creating Layer loss1/loss
I0403 15:36:13.464397 12137 net.cpp:425] loss1/loss <- loss1/classifier_plantvillage_loss1/classifier_plantvillage_0_split_0
I0403 15:36:13.464431 12137 net.cpp:425] loss1/loss <- label_data_1_split_0
…
