…
I0403 14:51:24.039496 11328 net.cpp:313] The NetState phase (1) differed from the phase (0) specified by a rule in layer data
I0403 14:51:24.042481 11328 net.cpp:49] Initializing net from parameters: 
state {
  phase: TEST
}
layer {
  name: "data"
  type: "Data"
  top: "data"
  top: "label"
  include {
    phase: TEST
  }
  transform_param {
    mirror: false
    crop_size: 224
    mean_file: "/home/mohanty/data/final_dataset/lmdb/segmented-40-60/mean.binaryproto"
  }
  data_param {
    source: "/home/mohanty/data/final_dataset/lmdb/segmented-40-60/test_db"
    batch_size: 24
    backend: LMDB
  }
}
layer {
  name: "conv1/7x7_s2"
  type: "Convolution"
  bottom: "data"
  top: "conv1/7x7_s2"
  param {
    lr_mult: 1
    decay_mult: 1
  }
  param {
    lr_mult: 2
    decay_mult: 0
  }
  convolution_param {
    num_output: 64
    pad: 3
    kernel_size: 7
    stride: 2
    weight_filler {
      type: "xavier"
      std: 0.1
    }
    bias_filler {
      type: "constant"
      value: 0.2
    }
  }
}
layer {
  name: "conv1/relu_7x7"
  type: "ReLU"
  bottom: "conv1/7x7_s2"
  top: "conv1/7x7_s2"
}
layer {
  name: "pool1/3x3_s2"
  type: "Pooling"
  bottom: "conv1/7x7_s2"
  top: "pool1/3x3_s2"
  pooling_param {
    pool: MAX
    kernel_size: 3
    stride: 2
  }
}
layer {
  name: "pool1/norm1"
  type: "LRN"
  bottom: "pool1/3x3_s2"
  top: "pool1/norm1"
  lrn_param {
    local_size: 5
    alpha: 0.0001
    beta: 0.75
  }
}
layer {
  name: "conv2/3x3_reduce"
  type: "Convolution"
  bottom: "pool1/norm1"
  top: "conv2/3x3_reduce"
  param {
    lr_mult: 1
    decay_mult: 1
  }
  param {
    lr_mult: 2
    decay_mult: 0
  }
  convolution_param {
    num_output: 64
    kernel_size: 1
    weight_filler {
      type: "xavier"
      std: 0.1
    }
    bias_filler {
      type: "constant"
      value: 0.2
    }
  }
}
layer {
  name: "conv2/relu_3x3_reduce"
  type: "ReLU"
  bottom: "conv2/3x3_reduce"
  top: "conv2/3x3_reduce"
}
layer {
  name: "conv2/3x3"
  type: "Convolution"
  bottom: "conv2/3x3_reduce"
  top: "conv2/3x3"
  param {
    lr_mult: 1
    decay_mult: 1
  }
  param {
    lr_mult: 2
    decay_mult: 0
  }
  convolution_param {
    num_output: 192
    pad: 1
    kernel_size: 3
    weight_filler {
      type: "xavier"
      std: 0.03
    }
    bias_filler {
      type: "constant"
      value: 0.2
    }
  }
}
layer {
  name: "conv2/relu_3x3"
  type: "ReLU"
  bottom: "conv2/3x3"
  top: "conv2/3x3"
}
layer {
  name: "conv2/norm2"
  type: "LRN"
  bottom: "conv2/3x3"
  top: "conv2/norm2"
  lrn_param {
    local_size: 5
    alpha: 0.0001
    beta: 0.75
  }
}
layer {
  name: "pool2/3x3_s2"
  type: "Pooling"
  bottom: "conv2/norm2"
  top: "pool2/3x3_s2"
  pooling_param {
    pool: MAX
    kernel_size: 3
    stride: 2
  }
}
layer {
  name: "inception_3a/1x1"
  type: "Convolution"
  bottom: "pool2/3x3_s2"
  top: "inception_3a/1x1"
  param {
    lr_mult: 1
    decay_mult: 1
  }
  param {
    lr_mult: 2
    decay_mult: 0
  }
  convolution_param {
    num_output: 64
    kernel_size: 1
    weight_filler {
      type: "xavier"
      std: 0.03
    }
    bias_filler {
      type: "constant"
      value: 0.2
    }
  }
}
layer {
  name: "inception_3a/relu_1x1"
  type: "ReLU"
  bottom: "inception_3a/1x1"
  top: "inception_3a/1x1"
}
layer {
  name: "inception_3a/3x3_reduce"
  type: "Convolution"
  bottom: "pool2/3x3_s2"
  top: "inception_3a/3x3_reduce"
  param {
    lr_mult: 1
    decay_mult: 1
  }
  param {
    lr_mult: 2
    decay_mult: 0
  }
  convolution_param {
    num_output: 96
    kernel_size: 1
    weight_filler {
      type: "xavier"
      std: 0.09
    }
    bias_filler {
      type: "constant"
      value: 0.2
    }
  }
}
layer {
  name: "inception_3a/relu_3x3_reduce"
  type: "ReLU"
  bottom: "inception_3a/3x3_reduce"
  top: "inception_3a/3x3_reduce"
}
layer {
  name: "inception_3a/3x3"
  type: "Convolution"
  bottom: "inception_3a/3x3_reduce"
  top: "inception_3a/3x3"
  param {
    lr_mult: 1
    decay_mult: 1
  }
  param {
    lr_mult: 2
    decay_mult: 0
  }
  convolution_param {
    num_output: 128
    pad: 1
    kernel_size: 3
    weight_filler {
      type: "xavier"
      std: 0.03
    }
    bias_filler {
      type: "constant"
      value: 0.2
    }
  }
}
layer {
  name: "inception_3a/relu_3x3"
  type: "ReLU"
  bottom: "inception_3a/3x3"
  top: "inception_3a/3x3"
}
layer {
  name: "inception_3a/5x5_reduce"
  type: "Convolution"
  bottom: "pool2/3x3_s2"
  top: "inception_3a/5x5_reduce"
  param {
    lr_mult: 1
    decay_mult: 1
  }
  param {
    lr_mult: 2
    decay_mult: 0
  }
  convolution_param {
    num_output: 16
    kernel_size: 1
    weight_filler {
      type: "xavier"
      std: 0.2
    }
    bias_filler {
      type: "constant"
      value: 0.2
    }
  }
}
layer {
  name: "inception_3a/relu_5x5_reduce"
  type: "ReLU"
  bottom: "inception_3a/5x5_reduce"
  top: "inception_3a/5x5_reduce"
}
layer {
  name: "inception_3a/5x5"
  type: "Convolution"
  bottom: "inception_3a/5x5_reduce"
  top: "inception_3a/5x5"
  param {
    lr_mult: 1
    decay_mult: 1
  }
  param {
    lr_mult: 2
    decay_mult: 0
  }
  convolution_param {
    num_output: 32
    pad: 2
    kernel_size: 5
    weight_filler {
      type: "xavier"
      std: 0.03
    }
    bias_filler {
      type: "constant"
      value: 0.2
    }
  }
}
layer {
  name: "inception_3a/relu_5x5"
  type: "ReLU"
  bottom: "inception_3a/5x5"
  top: "inception_3a/5x5"
}
layer {
  name: "inception_3a/pool"
  type: "Pooling"
  bottom: "pool2/3x3_s2"
  top: "inception_3a/pool"
  pooling_param {
    pool: MAX
    kernel_size: 3
    stride: 1
    pad: 1
  }
}
layer {
  name: "inception_3a/pool_proj"
  type: "Convolution"
  bottom: "inception_3a/pool"
  top: "inception_3a/pool_proj"
  param {
    lr_mult: 1
    decay_mult: 1
  }
  param {
    lr_mult: 2
    decay_mult: 0
  }
  convolution_param {
    num_output: 32
    kernel_size: 1
    weight_filler {
      type: "xavier"
      std: 0.1
    }
    bias_filler {
      type: "constant"
      value: 0.2
    }
  }
}
layer {
  name: "inception_3a/relu_pool_proj"
  type: "ReLU"
  bottom: "inception_3a/pool_proj"
  top: "inception_3a/pool_proj"
}
layer {
  name: "inception_3a/output"
  type: "Concat"
  bottom: "inception_3a/1x1"
  bottom: "inception_3a/3x3"
  bottom: "inception_3a/5x5"
  bottom: "inception_3a/pool_proj"
  top: "inception_3a/output"
}
layer {
  name: "inception_3b/1x1"
  type: "Convolution"
  bottom: "inception_3a/output"
  top: "inception_3b/1x1"
  param {
    lr_mult: 1
    decay_mult: 1
  }
  param {
    lr_mult: 2
    decay_mult: 0
  }
  convolution_param {
    num_output: 128
    kernel_size: 1
    weight_filler {
      type: "xavier"
      std: 0.03
    }
    bias_filler {
      type: "constant"
      value: 0.2
    }
  }
}
layer {
  name: "inception_3b/relu_1x1"
  type: "ReLU"
  bottom: "inception_3b/1x1"
  top: "inception_3b/1x1"
}
layer {
  name: "inception_3b/3x3_reduce"
  type: "Convolution"
  bottom: "inception_3a/output"
  top: "inception_3b/3x3_reduce"
  param {
    lr_mult: 1
    decay_mult: 1
  }
  param {
    lr_mult: 2
    decay_mult: 0
  }
  convolution_param {
    num_output: 128
    kernel_size: 1
    weight_filler {
      type: "xavier"
      std: 0.09
    }
    bias_filler {
      type: "constant"
      value: 0.2
    }
  }
}
layer {
  name: "inception_3b/relu_3x3_reduce"
  type: "ReLU"
  bottom: "inception_3b/3x3_reduce"
  top: "inception_3b/3x3_reduce"
}
layer {
  name: "inception_3b/3x3"
  type: "Convolution"
  bottom: "inception_3b/3x3_reduce"
  top: "inception_3b/3x3"
  param {
    lr_mult: 1
    decay_mult: 1
  }
  param {
    lr_mult: 2
    decay_mult: 0
  }
  convolution_param {
    num_output: 192
    pad: 1
    kernel_size: 3
    weight_filler {
      type: "xavier"
      std: 0.03
    }
    bias_filler {
      type: "constant"
      value: 0.2
    }
  }
}
layer {
  name: "inception_3b/relu_3x3"
  type: "ReLU"
  bottom: "inception_3b/3x3"
  top: "inception_3b/3x3"
}
layer {
  name: "inception_3b/5x5_reduce"
  type: "Convolution"
  bottom: "inception_3a/output"
  top: "inception_3b/5x5_reduce"
  param {
    lr_mult: 1
    decay_mult: 1
  }
  param {
    lr_mult: 2
    decay_mult: 0
  }
  convolution_param {
    num_output: 32
    kernel_size: 1
    weight_filler {
      type: "xavier"
      std: 0.2
    }
    bias_filler {
      type: "constant"
      value: 0.2
    }
  }
}
layer {
  name: "inception_3b/relu_5x5_reduce"
  type: "ReLU"
  bottom: "inception_3b/5x5_reduce"
  top: "inception_3b/5x5_reduce"
}
layer {
  name: "inception_3b/5x5"
  type: "Convolution"
  bottom: "inception_3b/5x5_reduce"
  top: "inception_3b/5x5"
  param {
    lr_mult: 1
    decay_mult: 1
  }
  param {
    lr_mult: 2
    decay_mult: 0
  }
  convolution_param {
    num_output: 96
    pad: 2
    kernel_size: 5
    weight_filler {
      type: "xavier"
      std: 0.03
    }
    bias_filler {
      type: "constant"
      value: 0.2
    }
  }
}
layer {
  name: "inception_3b/relu_5x5"
  type: "ReLU"
  bottom: "inception_3b/5x5"
  top: "inception_3b/5x5"
}
layer {
  name: "inception_3b/pool"
  type: "Pooling"
  bottom: "inception_3a/output"
  top: "inception_3b/pool"
  pooling_param {
    pool: MAX
    kernel_size: 3
    stride: 1
    pad: 1
  }
}
layer {
  name: "inception_3b/pool_proj"
  type: "Convolution"
  bottom: "inception_3b/pool"
  top: "inception_3b/pool_proj"
  param {
    lr_mult: 1
    decay_mult: 1
  }
  param {
    lr_mult: 2
    decay_mult: 0
  }
  convolution_param {
    num_output: 64
    kernel_size: 1
    weight_filler {
      type: "xavier"
      std: 0.1
    }
    bias_filler {
      type: "constant"
      value: 0.2
    }
  }
}
layer {
  name: "inception_3b/relu_pool_proj"
  type: "ReLU"
  bottom: "inception_3b/pool_proj"
  top: "inception_3b/pool_proj"
}
layer {
  name: "inception_3b/output"
  type: "Concat"
  bottom: "inception_3b/1x1"
  bottom: "inception_3b/3x3"
  bottom: "inception_3b/5x5"
  bottom: "inception_3b/pool_proj"
  top: "inception_3b/output"
}
layer {
  name: "pool3/3x3_s2"
  type: "Pooling"
  bottom: "inception_3b/output"
  top: "pool3/3x3_s2"
  pooling_param {
    pool: MAX
    kernel_size: 3
    stride: 2
  }
}
layer {
  name: "inception_4a/1x1"
  type: "Convolution"
  bottom: "pool3/3x3_s2"
  top: "inception_4a/1x1"
  param {
    lr_mult: 1
    decay_mult: 1
  }
  param {
    lr_mult: 2
    decay_mult: 0
  }
  convolution_param {
    num_output: 192
    kernel_size: 1
    weight_filler {
      type: "xavier"
      std: 0.03
    }
    bias_filler {
      type: "constant"
      value: 0.2
    }
  }
}
layer {
  name: "inception_4a/relu_1x1"
  type: "ReLU"
  bottom: "inception_4a/1x1"
  top: "inception_4a/1x1"
}
layer {
  name: "inception_4a/3x3_reduce"
  type: "Convolution"
  bottom: "pool3/3x3_s2"
  top: "inception_4a/3x3_reduce"
  param {
    lr_mult: 1
    decay_mult: 1
  }
  param {
    lr_mult: 2
    decay_mult: 0
  }
  convolution_param {
    num_output: 96
    kernel_size: 1
    weight_filler {
      type: "xavier"
      std: 0.09
    }
    bias_filler {
      type: "constant"
      value: 0.2
    }
  }
}
layer {
  name: "inception_4a/relu_3x3_reduce"
  type: "ReLU"
  bottom: "inception_4a/3x3_reduce"
  top: "inception_4a/3x3_reduce"
}
layer {
  name: "inception_4a/3x3"
  type: "Convolution"
  bottom: "inception_4a/3x3_reduce"
  top: "inception_4a/3x3"
  param {
    lr_mult: 1
    decay_mult: 1
  }
  param {
    lr_mult: 2
    decay_mult: 0
  }
  convolution_param {
    num_output: 208
    pad: 1
    kernel_size: 3
    weight_filler {
      type: "xavier"
      std: 0.03
    }
    bias_filler {
      type: "constant"
      value: 0.2
    }
  }
}
layer {
  name: "inception_4a/relu_3x3"
  type: "ReLU"
  bottom: "inception_4a/3x3"
  top: "inception_4a/3x3"
}
layer {
  name: "inception_4a/5x5_reduce"
  type: "Convolution"
  bottom: "pool3/3x3_s2"
  top: "inception_4a/5x5_reduce"
  param {
    lr_mult: 1
    decay_mult: 1
  }
  param {
    lr_mult: 2
    decay_mult: 0
  }
  convolution_param {
    num_output: 16
    kernel_size: 1
    weight_filler {
      type: "xavier"
      std: 0.2
    }
    bias_filler {
      type: "constant"
      value: 0.2
    }
  }
}
layer {
  name: "inception_4a/relu_5x5_reduce"
  type: "ReLU"
  bottom: "inception_4a/5x5_reduce"
  top: "inception_4a/5x5_reduce"
}
layer {
  name: "inception_4a/5x5"
  type: "Convolution"
  bottom: "inception_4a/5x5_reduce"
  top: "inception_4a/5x5"
  param {
    lr_mult: 1
    decay_mult: 1
  }
  param {
    lr_mult: 2
    decay_mult: 0
  }
  convolution_param {
    num_output: 48
    pad: 2
    kernel_size: 5
    weight_filler {
      type: "xavier"
      std: 0.03
    }
    bias_filler {
      type: "constant"
      value: 0.2
    }
  }
}
layer {
  name: "inception_4a/relu_5x5"
  type: "ReLU"
  bottom: "inception_4a/5x5"
  top: "inception_4a/5x5"
}
layer {
  name: "inception_4a/pool"
  type: "Pooling"
  bottom: "pool3/3x3_s2"
  top: "inception_4a/pool"
  pooling_param {
    pool: MAX
    kernel_size: 3
    stride: 1
    pad: 1
  }
}
layer {
  name: "inception_4a/pool_proj"
  type: "Convolution"
  bottom: "inception_4a/pool"
  top: "inception_4a/pool_proj"
  param {
    lr_mult: 1
    decay_mult: 1
  }
  param {
    lr_mult: 2
    decay_mult: 0
  }
  convolution_param {
    num_output: 64
    kernel_size: 1
    weight_filler {
      type: "xavier"
      std: 0.1
    }
    bias_filler {
      type: "constant"
      value: 0.2
    }
  }
}
layer {
  name: "inception_4a/relu_pool_proj"
  type: "ReLU"
  bottom: "inception_4a/pool_proj"
  top: "inception_4a/pool_proj"
}
layer {
  name: "inception_4a/output"
  type: "Concat"
  bottom: "inception_4a/1x1"
  bottom: "inception_4a/3x3"
  bottom: "inception_4a/5x5"
  bottom: "inception_4a/pool_proj"
  top: "inception_4a/output"
}
layer {
  name: "loss1/ave_pool"
  type: "Pooling"
  bottom: "inception_4a/output"
  top: "loss1/ave_pool"
  pooling_param {
    pool: AVE
    kernel_size: 5
    stride: 3
  }
}
layer {
  name: "loss1/conv"
  type: "Convolution"
  bottom: "loss1/ave_pool"
  top: "loss1/conv"
  param {
    lr_mult: 1
    decay_mult: 1
  }
  param {
    lr_mult: 2
    decay_mult: 0
  }
  convolution_param {
    num_output: 128
    kernel_size: 1
    weight_filler {
      type: "xavier"
      std: 0.08
    }
    bias_filler {
      type: "constant"
      value: 0.2
    }
  }
}
layer {
  name: "loss1/relu_conv"
  type: "ReLU"
  bottom: "loss1/conv"
  top: "loss1/conv"
}
layer {
  name: "loss1/fc"
  type: "InnerProduct"
  bottom: "loss1/conv"
  top: "loss1/fc"
  param {
    lr_mult: 1
    decay_mult: 1
  }
  param {
    lr_mult: 2
    decay_mult: 0
  }
  inner_product_param {
    num_output: 1024
    weight_filler {
      type: "xavier"
      std: 0.02
    }
    bias_filler {
      type: "constant"
      value: 0.2
    }
  }
}
layer {
  name: "loss1/relu_fc"
  type: "ReLU"
  bottom: "loss1/fc"
  top: "loss1/fc"
}
layer {
  name: "loss1/drop_fc"
  type: "Dropout"
  bottom: "loss1/fc"
  top: "loss1/fc"
  dropout_param {
    dropout_ratio: 0.7
  }
}
layer {
  name: "loss1/classifier_plantvillage"
  type: "InnerProduct"
  bottom: "loss1/fc"
  top: "loss1/classifier_plantvillage"
  param {
    lr_mult: 1
    decay_mult: 1
  }
  param {
    lr_mult: 2
    decay_mult: 0
  }
  inner_product_param {
    num_output: 38
    weight_filler {
      type: "xavier"
      std: 0.0009765625
    }
    bias_filler {
      type: "constant"
      value: 0
    }
  }
}
layer {
  name: "inception_4b/1x1"
  type: "Convolution"
  bottom: "inception_4a/output"
  top: "inception_4b/1x1"
  param {
    lr_mult: 1
    decay_mult: 1
  }
  param {
    lr_mult: 2
    decay_mult: 0
  }
  convolution_param {
    num_output: 160
    kernel_size: 1
    weight_filler {
      type: "xavier"
      std: 0.03
    }
    bias_filler {
      type: "constant"
      value: 0.2
    }
  }
}
layer {
  name: "inception_4b/relu_1x1"
  type: "ReLU"
  bottom: "inception_4b/1x1"
  top: "inception_4b/1x1"
}
layer {
  name: "inception_4b/3x3_reduce"
  type: "Convolution"
  bottom: "inception_4a/output"
  top: "inception_4b/3x3_reduce"
  param {
    lr_mult: 1
    decay_mult: 1
  }
  param {
    lr_mult: 2
    decay_mult: 0
  }
  convolution_param {
    num_output: 112
    kernel_size: 1
    weight_filler {
      type: "xavier"
      std: 0.09
    }
    bias_filler {
      type: "constant"
      value: 0.2
    }
  }
}
layer {
  name: "inception_4b/relu_3x3_reduce"
  type: "ReLU"
  bottom: "inception_4b/3x3_reduce"
  top: "inception_4b/3x3_reduce"
}
layer {
  name: "inception_4b/3x3"
  type: "Convolution"
  bottom: "inception_4b/3x3_reduce"
  top: "inception_4b/3x3"
  param {
    lr_mult: 1
    decay_mult: 1
  }
  param {
    lr_mult: 2
    decay_mult: 0
  }
  convolution_param {
    num_output: 224
    pad: 1
    kernel_size: 3
    weight_filler {
      type: "xavier"
      std: 0.03
    }
    bias_filler {
      type: "constant"
      value: 0.2
    }
  }
}
layer {
  name: "inception_4b/relu_3x3"
  type: "ReLU"
  bottom: "inception_4b/3x3"
  top: "inception_4b/3x3"
}
layer {
  name: "inception_4b/5x5_reduce"
  type: "Convolution"
  bottom: "inception_4a/output"
  top: "inception_4b/5x5_reduce"
  param {
    lr_mult: 1
    decay_mult: 1
  }
  param {
    lr_mult: 2
    decay_mult: 0
  }
  convolution_param {
    num_output: 24
    kernel_size: 1
    weight_filler {
      type: "xavier"
      std: 0.2
    }
    bias_filler {
      type: "constant"
      value: 0.2
    }
  }
}
layer {
  name: "inception_4b/relu_5x5_reduce"
  type: "ReLU"
  bottom: "inception_4b/5x5_reduce"
  top: "inception_4b/5x5_reduce"
}
layer {
  name: "inception_4b/5x5"
  type: "Convolution"
  bottom: "inception_4b/5x5_reduce"
  top: "inception_4b/5x5"
  param {
    lr_mult: 1
    decay_mult: 1
  }
  param {
    lr_mult: 2
    decay_mult: 0
  }
  convolution_param {
    num_output: 64
    pad: 2
    kernel_size: 5
    weight_filler {
      type: "xavier"
      std: 0.03
    }
    bias_filler {
      type: "constant"
      value: 0.2
    }
  }
}
layer {
  name: "inception_4b/relu_5x5"
  type: "ReLU"
  bottom: "inception_4b/5x5"
  top: "inception_4b/5x5"
}
layer {
  name: "inception_4b/pool"
  type: "Pooling"
  bottom: "inception_4a/output"
  top: "inception_4b/pool"
  pooling_param {
    pool: MAX
    kernel_size: 3
    stride: 1
    pad: 1
  }
}
layer {
  name: "inception_4b/pool_proj"
  type: "Convolution"
  bottom: "inception_4b/pool"
  top: "inception_4b/pool_proj"
  param {
    lr_mult: 1
    decay_mult: 1
  }
  param {
    lr_mult: 2
    decay_mult: 0
  }
  convolution_param {
    num_output: 64
    kernel_size: 1
    weight_filler {
      type: "xavier"
      std: 0.1
    }
    bias_filler {
      type: "constant"
      value: 0.2
    }
  }
}
layer {
  name: "inception_4b/relu_pool_proj"
  type: "ReLU"
  bottom: "inception_4b/pool_proj"
  top: "inception_4b/pool_proj"
}
layer {
  name: "inception_4b/output"
  type: "Concat"
  bottom: "inception_4b/1x1"
  bottom: "inception_4b/3x3"
  bottom: "inception_4b/5x5"
  bottom: "inception_4b/pool_proj"
  top: "inception_4b/output"
}
layer {
  name: "inception_4c/1x1"
  type: "Convolution"
  bottom: "inception_4b/output"
  top: "inception_4c/1x1"
  param {
    lr_mult: 1
    decay_mult: 1
  }
  param {
    lr_mult: 2
    decay_mult: 0
  }
  convolution_param {
    num_output: 128
    kernel_size: 1
    weight_filler {
      type: "xavier"
      std: 0.03
    }
    bias_filler {
      type: "constant"
      value: 0.2
    }
  }
}
layer {
  name: "inception_4c/relu_1x1"
  type: "ReLU"
  bottom: "inception_4c/1x1"
  top: "inception_4c/1x1"
}
layer {
  name: "inception_4c/3x3_reduce"
  type: "Convolution"
  bottom: "inception_4b/output"
  top: "inception_4c/3x3_reduce"
  param {
    lr_mult: 1
    decay_mult: 1
  }
  param {
    lr_mult: 2
    decay_mult: 0
  }
  convolution_param {
    num_output: 128
    kernel_size: 1
    weight_filler {
      type: "xavier"
      std: 0.09
    }
    bias_filler {
      type: "constant"
      value: 0.2
    }
  }
}
layer {
  name: "inception_4c/relu_3x3_reduce"
  type: "ReLU"
  bottom: "inception_4c/3x3_reduce"
  top: "inception_4c/3x3_reduce"
}
layer {
  name: "inception_4c/3x3"
  type: "Convolution"
  bottom: "inception_4c/3x3_reduce"
  top: "inception_4c/3x3"
  param {
    lr_mult: 1
    decay_mult: 1
  }
  param {
    lr_mult: 2
    decay_mult: 0
  }
  convolution_param {
    num_output: 256
    pad: 1
    kernel_size: 3
    weight_filler {
      type: "xavier"
      std: 0.03
    }
    bias_filler {
      type: "constant"
      value: 0.2
    }
  }
}
layer {
  name: "inception_4c/relu_3x3"
  type: "ReLU"
  bottom: "inception_4c/3x3"
  top: "inception_4c/3x3"
}
layer {
  name: "inception_4c/5x5_reduce"
  type: "Convolution"
  bottom: "inception_4b/output"
  top: "inception_4c/5x5_reduce"
  param {
    lr_mult: 1
    decay_mult: 1
  }
  param {
    lr_mult: 2
    decay_mult: 0
  }
  convolution_param {
    num_output: 24
    kernel_size: 1
    weight_filler {
      type: "xavier"
      std: 0.2
    }
    bias_filler {
      type: "constant"
      value: 0.2
    }
  }
}
layer {
  name: "inception_4c/relu_5x5_reduce"
  type: "ReLU"
  bottom: "inception_4c/5x5_reduce"
  top: "inception_4c/5x5_reduce"
}
layer {
  name: "inception_4c/5x5"
  type: "Convolution"
  bottom: "inception_4c/5x5_reduce"
  top: "inception_4c/5x5"
  param {
    lr_mult: 1
    decay_mult: 1
  }
  param {
    lr_mult: 2
    decay_mult: 0
  }
  convolution_param {
    num_output: 64
    pad: 2
    kernel_size: 5
    weight_filler {
      type: "xavier"
      std: 0.03
    }
    bias_filler {
      type: "constant"
      value: 0.2
    }
  }
}
layer {
  name: "inception_4c/relu_5x5"
  type: "ReLU"
  bottom: "inception_4c/5x5"
  top: "inception_4c/5x5"
}
layer {
  name: "inception_4c/pool"
  type: "Pooling"
  bottom: "inception_4b/output"
  top: "inception_4c/pool"
  pooling_param {
    pool: MAX
    kernel_size: 3
    stride: 1
    pad: 1
  }
}
layer {
  name: "inception_4c/pool_proj"
  type: "Convolution"
  bottom: "inception_4c/pool"
  top: "inception_4c/pool_proj"
  param {
    lr_mult: 1
    decay_mult: 1
  }
  param {
    lr_mult: 2
    decay_mult: 0
  }
  convolution_param {
    num_output: 64
    kernel_size: 1
    weight_filler {
      type: "xavier"
      std: 0.1
    }
    bias_filler {
      type: "constant"
      value: 0.2
    }
  }
}
layer {
  name: "inception_4c/relu_pool_proj"
  type: "ReLU"
  bottom: "inception_4c/pool_proj"
  top: "inception_4c/pool_proj"
}
layer {
  name: "inception_4c/output"
  type: "Concat"
  bottom: "inception_4c/1x1"
  bottom: "inception_4c/3x3"
  bottom: "inception_4c/5x5"
  bottom: "inception_4c/pool_proj"
  top: "inception_4c/output"
}
layer {
  name: "inception_4d/1x1"
  type: "Convolution"
  bottom: "inception_4c/output"
  top: "inception_4d/1x1"
  param {
    lr_mult: 1
    decay_mult: 1
  }
  param {
    lr_mult: 2
    decay_mult: 0
  }
  convolution_param {
    num_output: 112
    kernel_size: 1
    weight_filler {
      type: "xavier"
      std: 0.03
    }
    bias_filler {
      type: "constant"
      value: 0.2
    }
  }
}
layer {
  name: "inception_4d/relu_1x1"
  type: "ReLU"
  bottom: "inception_4d/1x1"
  top: "inception_4d/1x1"
}
layer {
  name: "inception_4d/3x3_reduce"
  type: "Convolution"
  bottom: "inception_4c/output"
  top: "inception_4d/3x3_reduce"
  param {
    lr_mult: 1
    decay_mult: 1
  }
  param {
    lr_mult: 2
    decay_mult: 0
  }
  convolution_param {
    num_output: 144
    kernel_size: 1
    weight_filler {
      type: "xavier"
      std: 0.09
    }
    bias_filler {
      type: "constant"
      value: 0.2
    }
  }
}
layer {
  name: "inception_4d/relu_3x3_reduce"
  type: "ReLU"
  bottom: "inception_4d/3x3_reduce"
  top: "inception_4d/3x3_reduce"
}
layer {
  name: "inception_4d/3x3"
  type: "Convolution"
  bottom: "inception_4d/3x3_reduce"
  top: "inception_4d/3x3"
  param {
    lr_mult: 1
    decay_mult: 1
  }
  param {
    lr_mult: 2
    decay_mult: 0
  }
  convolution_param {
    num_output: 288
    pad: 1
    kernel_size: 3
    weight_filler {
      type: "xavier"
      std: 0.03
    }
    bias_filler {
      type: "constant"
      value: 0.2
    }
  }
}
layer {
  name: "inception_4d/relu_3x3"
  type: "ReLU"
  bottom: "inception_4d/3x3"
  top: "inception_4d/3x3"
}
layer {
  name: "inception_4d/5x5_reduce"
  type: "Convolution"
  bottom: "inception_4c/output"
  top: "inception_4d/5x5_reduce"
  param {
    lr_mult: 1
    decay_mult: 1
  }
  param {
    lr_mult: 2
    decay_mult: 0
  }
  convolution_param {
    num_output: 32
    kernel_size: 1
    weight_filler {
      type: "xavier"
      std: 0.2
    }
    bias_filler {
      type: "constant"
      value: 0.2
    }
  }
}
layer {
  name: "inception_4d/relu_5x5_reduce"
  type: "ReLU"
  bottom: "inception_4d/5x5_reduce"
  top: "inception_4d/5x5_reduce"
}
layer {
  name: "inception_4d/5x5"
  type: "Convolution"
  bottom: "inception_4d/5x5_reduce"
  top: "inception_4d/5x5"
  param {
    lr_mult: 1
    decay_mult: 1
  }
  param {
    lr_mult: 2
    decay_mult: 0
  }
  convolution_param {
    num_output: 64
    pad: 2
    kernel_size: 5
    weight_filler {
      type: "xavier"
      std: 0.03
    }
    bias_filler {
      type: "constant"
      value: 0.2
    }
  }
}
layer {
  name: "inception_4d/relu_5x5"
  type: "ReLU"
  bottom: "inception_4d/5x5"
  top: "inception_4d/5x5"
}
layer {
  name: "inception_4d/pool"
  type: "Pooling"
  bottom: "inception_4c/output"
  top: "inception_4d/pool"
  pooling_param {
    pool: MAX
    kernel_size: 3
    stride: 1
    pad: 1
  }
}
layer {
  name: "inception_4d/pool_proj"
  type: "Convolution"
  bottom: "inception_4d/pool"
  top: "inception_4d/pool_proj"
  param {
    lr_mult: 1
    decay_mult: 1
  }
  param {
    lr_mult: 2
    decay_mult: 0
  }
  convolution_param {
    num_output: 64
    kernel_size: 1
    weight_filler {
      type: "xavier"
      std: 0.1
    }
    bias_filler {
      type: "constant"
      value: 0.2
    }
  }
}
layer {
  name: "inception_4d/relu_pool_proj"
  type: "ReLU"
  bottom: "inception_4d/pool_proj"
  top: "inception_4d/pool_proj"
}
layer {
  name: "inception_4d/output"
  type: "Concat"
  bottom: "inception_4d/1x1"
  bottom: "inception_4d/3x3"
  bottom: "inception_4d/5x5"
  bottom: "inception_4d/pool_proj"
  top: "inception_4d/output"
}
layer {
  name: "loss2/ave_pool"
  type: "Pooling"
  bottom: "inception_4d/output"
  top: "loss2/ave_pool"
  pooling_param {
    pool: AVE
    kernel_size: 5
    stride: 3
  }
}
layer {
  name: "loss2/conv"
  type: "Convolution"
  bottom: "loss2/ave_pool"
  top: "loss2/conv"
  param {
    lr_mult: 1
    decay_mult: 1
  }
  param {
    lr_mult: 2
    decay_mult: 0
  }
  convolution_param {
    num_output: 128
    kernel_size: 1
    weight_filler {
      type: "xavier"
      std: 0.08
    }
    bias_filler {
      type: "constant"
      value: 0.2
    }
  }
}
layer {
  name: "loss2/relu_conv"
  type: "ReLU"
  bottom: "loss2/conv"
  top: "loss2/conv"
}
layer {
  name: "loss2/fc"
  type: "InnerProduct"
  bottom: "loss2/conv"
  top: "loss2/fc"
  param {
    lr_mult: 1
    decay_mult: 1
  }
  param {
    lr_mult: 2
    decay_mult: 0
  }
  inner_product_param {
    num_output: 1024
    weight_filler {
      type: "xavier"
      std: 0.02
    }
    bias_filler {
      type: "constant"
      value: 0.2
    }
  }
}
layer {
  name: "loss2/relu_fc"
  type: "ReLU"
  bottom: "loss2/fc"
  top: "loss2/fc"
}
layer {
  name: "loss2/drop_fc"
  type: "Dropout"
  bottom: "loss2/fc"
  top: "loss2/fc"
  dropout_param {
    dropout_ratio: 0.7
  }
}
layer {
  name: "loss2/classifier_plantvillage"
  type: "InnerProduct"
  bottom: "loss2/fc"
  top: "loss2/classifier_plantvillage"
  param {
    lr_mult: 1
    decay_mult: 1
  }
  param {
    lr_mult: 2
    decay_mult: 0
  }
  inner_product_param {
    num_output: 38
    weight_filler {
      type: "xavier"
      std: 0.0009765625
    }
    bias_filler {
      type: "constant"
      value: 0
    }
  }
}
layer {
  name: "inception_4e/1x1"
  type: "Convolution"
  bottom: "inception_4d/output"
  top: "inception_4e/1x1"
  param {
    lr_mult: 1
    decay_mult: 1
  }
  param {
    lr_mult: 2
    decay_mult: 0
  }
  convolution_param {
    num_output: 256
    kernel_size: 1
    weight_filler {
      type: "xavier"
      std: 0.03
    }
    bias_filler {
      type: "constant"
      value: 0.2
    }
  }
}
layer {
  name: "inception_4e/relu_1x1"
  type: "ReLU"
  bottom: "inception_4e/1x1"
  top: "inception_4e/1x1"
}
layer {
  name: "inception_4e/3x3_reduce"
  type: "Convolution"
  bottom: "inception_4d/output"
  top: "inception_4e/3x3_reduce"
  param {
    lr_mult: 1
    decay_mult: 1
  }
  param {
    lr_mult: 2
    decay_mult: 0
  }
  convolution_param {
    num_output: 160
    kernel_size: 1
    weight_filler {
      type: "xavier"
      std: 0.09
    }
    bias_filler {
      type: "constant"
      value: 0.2
    }
  }
}
layer {
  name: "inception_4e/relu_3x3_reduce"
  type: "ReLU"
  bottom: "inception_4e/3x3_reduce"
  top: "inception_4e/3x3_reduce"
}
layer {
  name: "inception_4e/3x3"
  type: "Convolution"
  bottom: "inception_4e/3x3_reduce"
  top: "inception_4e/3x3"
  param {
    lr_mult: 1
    decay_mult: 1
  }
  param {
    lr_mult: 2
    decay_mult: 0
  }
  convolution_param {
    num_output: 320
    pad: 1
    kernel_size: 3
    weight_filler {
      type: "xavier"
      std: 0.03
    }
    bias_filler {
      type: "constant"
      value: 0.2
    }
  }
}
layer {
  name: "inception_4e/relu_3x3"
  type: "ReLU"
  bottom: "inception_4e/3x3"
  top: "inception_4e/3x3"
}
layer {
  name: "inception_4e/5x5_reduce"
  type: "Convolution"
  bottom: "inception_4d/output"
  top: "inception_4e/5x5_reduce"
  param {
    lr_mult: 1
    decay_mult: 1
  }
  param {
    lr_mult: 2
    decay_mult: 0
  }
  convolution_param {
    num_output: 32
    kernel_size: 1
    weight_filler {
      type: "xavier"
      std: 0.2
    }
    bias_filler {
      type: "constant"
      value: 0.2
    }
  }
}
layer {
  name: "inception_4e/relu_5x5_reduce"
  type: "ReLU"
  bottom: "inception_4e/5x5_reduce"
  top: "inception_4e/5x5_reduce"
}
layer {
  name: "inception_4e/5x5"
  type: "Convolution"
  bottom: "inception_4e/5x5_reduce"
  top: "inception_4e/
I0403 14:51:24.044188 11328 layer_factory.hpp:77] Creating layer data
I0403 14:51:24.044788 11328 net.cpp:91] Creating Layer data
I0403 14:51:24.044822 11328 net.cpp:399] data -> data
I0403 14:51:24.044873 11328 net.cpp:399] data -> label
I0403 14:51:24.044909 11328 data_transformer.cpp:25] Loading mean file from: /home/mohanty/data/final_dataset/lmdb/segmented-40-60/mean.binaryproto
I0403 14:51:24.049685 11332 db_lmdb.cpp:38] Opened lmdb /home/mohanty/data/final_dataset/lmdb/segmented-40-60/test_db
I0403 14:51:24.058385 11328 data_layer.cpp:41] output data size: 24,3,224,224
I0403 14:51:24.086633 11328 net.cpp:141] Setting up data
I0403 14:51:24.086700 11328 net.cpp:148] Top shape: 24 3 224 224 (3612672)
I0403 14:51:24.086722 11328 net.cpp:148] Top shape: 24 (24)
I0403 14:51:24.086738 11328 net.cpp:156] Memory required for data: 14450784
I0403 14:51:24.086766 11328 layer_factory.hpp:77] Creating layer label_data_1_split
I0403 14:51:24.086813 11328 net.cpp:91] Creating Layer label_data_1_split
I0403 14:51:24.086836 11328 net.cpp:425] label_data_1_split <- label
I0403 14:51:24.086869 11328 net.cpp:399] label_data_1_split -> label_data_1_split_0
I0403 14:51:24.086899 11328 net.cpp:399] label_data_1_split -> label_data_1_split_1
I0403 14:51:24.086921 11328 net.cpp:399] label_data_1_split -> label_data_1_split_2
I0403 14:51:24.086942 11328 net.cpp:399] label_data_1_split -> label_data_1_split_3
I0403 14:51:24.086962 11328 net.cpp:399] label_data_1_split -> label_data_1_split_4
I0403 14:51:24.086982 11328 net.cpp:399] label_data_1_split -> label_data_1_split_5
I0403 14:51:24.087002 11328 net.cpp:399] label_data_1_split -> label_data_1_split_6
I0403 14:51:24.087033 11328 net.cpp:399] label_data_1_split -> label_data_1_split_7
I0403 14:51:24.087062 11328 net.cpp:399] label_data_1_split -> label_data_1_split_8
I0403 14:51:24.087086 11328 net.cpp:399] label_data_1_split -> label_data_1_split_9
I0403 14:51:24.087209 11328 net.cpp:141] Setting up label_data_1_split
I0403 14:51:24.087234 11328 net.cpp:148] Top shape: 24 (24)
I0403 14:51:24.087255 11328 net.cpp:148] Top shape: 24 (24)
I0403 14:51:24.087271 11328 net.cpp:148] Top shape: 24 (24)
I0403 14:51:24.087287 11328 net.cpp:148] Top shape: 24 (24)
I0403 14:51:24.087303 11328 net.cpp:148] Top shape: 24 (24)
I0403 14:51:24.087327 11328 net.cpp:148] Top shape: 24 (24)
I0403 14:51:24.087344 11328 net.cpp:148] Top shape: 24 (24)
I0403 14:51:24.087360 11328 net.cpp:148] Top shape: 24 (24)
I0403 14:51:24.087378 11328 net.cpp:148] Top shape: 24 (24)
I0403 14:51:24.087393 11328 net.cpp:148] Top shape: 24 (24)
I0403 14:51:24.087440 11328 net.cpp:156] Memory required for data: 14451744
I0403 14:51:24.087460 11328 layer_factory.hpp:77] Creating layer conv1/7x7_s2
I0403 14:51:24.087492 11328 net.cpp:91] Creating Layer conv1/7x7_s2
I0403 14:51:24.087512 11328 net.cpp:425] conv1/7x7_s2 <- data
I0403 14:51:24.087532 11328 net.cpp:399] conv1/7x7_s2 -> conv1/7x7_s2
I0403 14:51:24.233073 11328 net.cpp:141] Setting up conv1/7x7_s2
I0403 14:51:24.233163 11328 net.cpp:148] Top shape: 24 64 112 112 (19267584)
I0403 14:51:24.233181 11328 net.cpp:156] Memory required for data: 91522080
I0403 14:51:24.233212 11328 layer_factory.hpp:77] Creating layer conv1/relu_7x7
I0403 14:51:24.233240 11328 net.cpp:91] Creating Layer conv1/relu_7x7
I0403 14:51:24.233259 11328 net.cpp:425] conv1/relu_7x7 <- conv1/7x7_s2
I0403 14:51:24.233278 11328 net.cpp:386] conv1/relu_7x7 -> conv1/7x7_s2 (in-place)
I0403 14:51:24.233566 11328 net.cpp:141] Setting up conv1/relu_7x7
I0403 14:51:24.233593 11328 net.cpp:148] Top shape: 24 64 112 112 (19267584)
I0403 14:51:24.233609 11328 net.cpp:156] Memory required for data: 168592416
I0403 14:51:24.233625 11328 layer_factory.hpp:77] Creating layer pool1/3x3_s2
I0403 14:51:24.233654 11328 net.cpp:91] Creating Layer pool1/3x3_s2
I0403 14:51:24.233671 11328 net.cpp:425] pool1/3x3_s2 <- conv1/7x7_s2
I0403 14:51:24.233690 11328 net.cpp:399] pool1/3x3_s2 -> pool1/3x3_s2
I0403 14:51:24.233767 11328 net.cpp:141] Setting up pool1/3x3_s2
I0403 14:51:24.233793 11328 net.cpp:148] Top shape: 24 64 56 56 (4816896)
I0403 14:51:24.233808 11328 net.cpp:156] Memory required for data: 187860000
I0403 14:51:24.233822 11328 layer_factory.hpp:77] Creating layer pool1/norm1
I0403 14:51:24.233847 11328 net.cpp:91] Creating Layer pool1/norm1
I0403 14:51:24.233865 11328 net.cpp:425] pool1/norm1 <- pool1/3x3_s2
I0403 14:51:24.233886 11328 net.cpp:399] pool1/norm1 -> pool1/norm1
I0403 14:51:24.234190 11328 net.cpp:141] Setting up pool1/norm1
I0403 14:51:24.234218 11328 net.cpp:148] Top shape: 24 64 56 56 (4816896)
I0403 14:51:24.234235 11328 net.cpp:156] Memory required for data: 207127584
I0403 14:51:24.234249 11328 layer_factory.hpp:77] Creating layer conv2/3x3_reduce
I0403 14:51:24.234277 11328 net.cpp:91] Creating Layer conv2/3x3_reduce
I0403 14:51:24.234293 11328 net.cpp:425] conv2/3x3_reduce <- pool1/norm1
I0403 14:51:24.234319 11328 net.cpp:399] conv2/3x3_reduce -> conv2/3x3_reduce
I0403 14:51:24.235726 11328 net.cpp:141] Setting up conv2/3x3_reduce
I0403 14:51:24.235759 11328 net.cpp:148] Top shape: 24 64 56 56 (4816896)
I0403 14:51:24.235777 11328 net.cpp:156] Memory required for data: 226395168
I0403 14:51:24.235800 11328 layer_factory.hpp:77] Creating layer conv2/relu_3x3_reduce
I0403 14:51:24.235818 11328 net.cpp:91] Creating Layer conv2/relu_3x3_reduce
I0403 14:51:24.235834 11328 net.cpp:425] conv2/relu_3x3_reduce <- conv2/3x3_reduce
I0403 14:51:24.235854 11328 net.cpp:386] conv2/relu_3x3_reduce -> conv2/3x3_reduce (in-place)
I0403 14:51:24.236125 11328 net.cpp:141] Setting up conv2/relu_3x3_reduce
I0403 14:51:24.236155 11328 net.cpp:148] Top shape: 24 64 56 56 (4816896)
I0403 14:51:24.236171 11328 net.cpp:156] Memory required for data: 245662752
I0403 14:51:24.236186 11328 layer_factory.hpp:77] Creating layer conv2/3x3
I0403 14:51:24.236210 11328 net.cpp:91] Creating Layer conv2/3x3
I0403 14:51:24.236229 11328 net.cpp:425] conv2/3x3 <- conv2/3x3_reduce
I0403 14:51:24.236248 11328 net.cpp:399] conv2/3x3 -> conv2/3x3
I0403 14:51:24.238577 11328 net.cpp:141] Setting up conv2/3x3
I0403 14:51:24.238612 11328 net.cpp:148] Top shape: 24 192 56 56 (14450688)
I0403 14:51:24.238631 11328 net.cpp:156] Memory required for data: 303465504
I0403 14:51:24.238653 11328 layer_factory.hpp:77] Creating layer conv2/relu_3x3
I0403 14:51:24.238673 11328 net.cpp:91] Creating Layer conv2/relu_3x3
I0403 14:51:24.238689 11328 net.cpp:425] conv2/relu_3x3 <- conv2/3x3
I0403 14:51:24.238709 11328 net.cpp:386] conv2/relu_3x3 -> conv2/3x3 (in-place)
I0403 14:51:24.238888 11328 net.cpp:141] Setting up conv2/relu_3x3
I0403 14:51:24.238914 11328 net.cpp:148] Top shape: 24 192 56 56 (14450688)
I0403 14:51:24.238960 11328 net.cpp:156] Memory required for data: 361268256
I0403 14:51:24.238976 11328 layer_factory.hpp:77] Creating layer conv2/norm2
I0403 14:51:24.238996 11328 net.cpp:91] Creating Layer conv2/norm2
I0403 14:51:24.239014 11328 net.cpp:425] conv2/norm2 <- conv2/3x3
I0403 14:51:24.239032 11328 net.cpp:399] conv2/norm2 -> conv2/norm2
I0403 14:51:24.239351 11328 net.cpp:141] Setting up conv2/norm2
I0403 14:51:24.239378 11328 net.cpp:148] Top shape: 24 192 56 56 (14450688)
I0403 14:51:24.239394 11328 net.cpp:156] Memory required for data: 419071008
I0403 14:51:24.239409 11328 layer_factory.hpp:77] Creating layer pool2/3x3_s2
I0403 14:51:24.239433 11328 net.cpp:91] Creating Layer pool2/3x3_s2
I0403 14:51:24.239450 11328 net.cpp:425] pool2/3x3_s2 <- conv2/norm2
I0403 14:51:24.239470 11328 net.cpp:399] pool2/3x3_s2 -> pool2/3x3_s2
I0403 14:51:24.239524 11328 net.cpp:141] Setting up pool2/3x3_s2
I0403 14:51:24.239548 11328 net.cpp:148] Top shape: 24 192 28 28 (3612672)
I0403 14:51:24.239563 11328 net.cpp:156] Memory required for data: 433521696
I0403 14:51:24.239578 11328 layer_factory.hpp:77] Creating layer pool2/3x3_s2_pool2/3x3_s2_0_split
I0403 14:51:24.239596 11328 net.cpp:91] Creating Layer pool2/3x3_s2_pool2/3x3_s2_0_split
I0403 14:51:24.239616 11328 net.cpp:425] pool2/3x3_s2_pool2/3x3_s2_0_split <- pool2/3x3_s2
I0403 14:51:24.239634 11328 net.cpp:399] pool2/3x3_s2_pool2/3x3_s2_0_split -> pool2/3x3_s2_pool2/3x3_s2_0_split_0
I0403 14:51:24.239655 11328 net.cpp:399] pool2/3x3_s2_pool2/3x3_s2_0_split -> pool2/3x3_s2_pool2/3x3_s2_0_split_1
I0403 14:51:24.239673 11328 net.cpp:399] pool2/3x3_s2_pool2/3x3_s2_0_split -> pool2/3x3_s2_pool2/3x3_s2_0_split_2
I0403 14:51:24.239693 11328 net.cpp:399] pool2/3x3_s2_pool2/3x3_s2_0_split -> pool2/3x3_s2_pool2/3x3_s2_0_split_3
I0403 14:51:24.239765 11328 net.cpp:141] Setting up pool2/3x3_s2_pool2/3x3_s2_0_split
I0403 14:51:24.239789 11328 net.cpp:148] Top shape: 24 192 28 28 (3612672)
I0403 14:51:24.239805 11328 net.cpp:148] Top shape: 24 192 28 28 (3612672)
I0403 14:51:24.239821 11328 net.cpp:148] Top shape: 24 192 28 28 (3612672)
I0403 14:51:24.239837 11328 net.cpp:148] Top shape: 24 192 28 28 (3612672)
I0403 14:51:24.239851 11328 net.cpp:156] Memory required for data: 491324448
I0403 14:51:24.239866 11328 layer_factory.hpp:77] Creating layer inception_3a/1x1
I0403 14:51:24.239889 11328 net.cpp:91] Creating Layer inception_3a/1x1
I0403 14:51:24.239907 11328 net.cpp:425] inception_3a/1x1 <- pool2/3x3_s2_pool2/3x3_s2_0_split_0
I0403 14:51:24.239929 11328 net.cpp:399] inception_3a/1x1 -> inception_3a/1x1
I0403 14:51:24.241487 11328 net.cpp:141] Setting up inception_3a/1x1
I0403 14:51:24.241520 11328 net.cpp:148] Top shape: 24 64 28 28 (1204224)
I0403 14:51:24.241539 11328 net.cpp:156] Memory required for data: 496141344
I0403 14:51:24.241559 11328 layer_factory.hpp:77] Creating layer inception_3a/relu_1x1
I0403 14:51:24.241580 11328 net.cpp:91] Creating Layer inception_3a/relu_1x1
I0403 14:51:24.241596 11328 net.cpp:425] inception_3a/relu_1x1 <- inception_3a/1x1
I0403 14:51:24.241616 11328 net.cpp:386] inception_3a/relu_1x1 -> inception_3a/1x1 (in-place)
I0403 14:51:24.241793 11328 net.cpp:141] Setting up inception_3a/relu_1x1
I0403 14:51:24.241818 11328 net.cpp:148] Top shape: 24 64 28 28 (1204224)
I0403 14:51:24.241833 11328 net.cpp:156] Memory required for data: 500958240
I0403 14:51:24.241848 11328 layer_factory.hpp:77] Creating layer inception_3a/3x3_reduce
I0403 14:51:24.241871 11328 net.cpp:91] Creating Layer inception_3a/3x3_reduce
I0403 14:51:24.241889 11328 net.cpp:425] inception_3a/3x3_reduce <- pool2/3x3_s2_pool2/3x3_s2_0_split_1
I0403 14:51:24.241911 11328 net.cpp:399] inception_3a/3x3_reduce -> inception_3a/3x3_reduce
I0403 14:51:24.243633 11328 net.cpp:141] Setting up inception_3a/3x3_reduce
I0403 14:51:24.243667 11328 net.cpp:148] Top shape: 24 96 28 28 (1806336)
I0403 14:51:24.243686 11328 net.cpp:156] Memory required for data: 508183584
I0403 14:51:24.243710 11328 layer_factory.hpp:77] Creating layer inception_3a/relu_3x3_reduce
I0403 14:51:24.243749 11328 net.cpp:91] Creating Layer inception_3a/relu_3x3_reduce
I0403 14:51:24.243769 11328 net.cpp:425] inception_3a/relu_3x3_reduce <- inception_3a/3x3_reduce
I0403 14:51:24.243788 11328 net.cpp:386] inception_3a/relu_3x3_reduce -> inception_3a/3x3_reduce (in-place)
I0403 14:51:24.243969 11328 net.cpp:141] Setting up inception_3a/relu_3x3_reduce
I0403 14:51:24.243994 11328 net.cpp:148] Top shape: 24 96 28 28 (1806336)
I0403 14:51:24.244009 11328 net.cpp:156] Memory required for data: 515408928
I0403 14:51:24.244024 11328 layer_factory.hpp:77] Creating layer inception_3a/3x3
I0403 14:51:24.244050 11328 net.cpp:91] Creating Layer inception_3a/3x3
I0403 14:51:24.244067 11328 net.cpp:425] inception_3a/3x3 <- inception_3a/3x3_reduce
I0403 14:51:24.244087 11328 net.cpp:399] inception_3a/3x3 -> inception_3a/3x3
I0403 14:51:24.245764 11328 net.cpp:141] Setting up inception_3a/3x3
I0403 14:51:24.245795 11328 net.cpp:148] Top shape: 24 128 28 28 (2408448)
I0403 14:51:24.245810 11328 net.cpp:156] Memory required for data: 525042720
I0403 14:51:24.245831 11328 layer_factory.hpp:77] Creating layer inception_3a/relu_3x3
I0403 14:51:24.245849 11328 net.cpp:91] Creating Layer inception_3a/relu_3x3
I0403 14:51:24.245865 11328 net.cpp:425] inception_3a/relu_3x3 <- inception_3a/3x3
I0403 14:51:24.245887 11328 net.cpp:386] inception_3a/relu_3x3 -> inception_3a/3x3 (in-place)
I0403 14:51:24.246162 11328 net.cpp:141] Setting up inception_3a/relu_3x3
I0403 14:51:24.246191 11328 net.cpp:148] Top shape: 24 128 28 28 (2408448)
I0403 14:51:24.246207 11328 net.cpp:156] Memory required for data: 534676512
I0403 14:51:24.246224 11328 layer_factory.hpp:77] Creating layer inception_3a/5x5_reduce
I0403 14:51:24.246248 11328 net.cpp:91] Creating Layer inception_3a/5x5_reduce
I0403 14:51:24.246268 11328 net.cpp:425] inception_3a/5x5_reduce <- pool2/3x3_s2_pool2/3x3_s2_0_split_2
I0403 14:51:24.246290 11328 net.cpp:399] inception_3a/5x5_reduce -> inception_3a/5x5_reduce
I0403 14:51:24.247262 11328 net.cpp:141] Setting up inception_3a/5x5_reduce
I0403 14:51:24.247292 11328 net.cpp:148] Top shape: 24 16 28 28 (301056)
I0403 14:51:24.247308 11328 net.cpp:156] Memory required for data: 535880736
I0403 14:51:24.247333 11328 layer_factory.hpp:77] Creating layer inception_3a/relu_5x5_reduce
I0403 14:51:24.247352 11328 net.cpp:91] Creating Layer inception_3a/relu_5x5_reduce
I0403 14:51:24.247369 11328 net.cpp:425] inception_3a/relu_5x5_reduce <- inception_3a/5x5_reduce
I0403 14:51:24.247388 11328 net.cpp:386] inception_3a/relu_5x5_reduce -> inception_3a/5x5_reduce (in-place)
I0403 14:51:24.247692 11328 net.cpp:141] Setting up inception_3a/relu_5x5_reduce
I0403 14:51:24.247720 11328 net.cpp:148] Top shape: 24 16 28 28 (301056)
I0403 14:51:24.247735 11328 net.cpp:156] Memory required for data: 537084960
I0403 14:51:24.247751 11328 layer_factory.hpp:77] Creating layer inception_3a/5x5
I0403 14:51:24.247774 11328 net.cpp:91] Creating Layer inception_3a/5x5
I0403 14:51:24.247792 11328 net.cpp:425] inception_3a/5x5 <- inception_3a/5x5_reduce
I0403 14:51:24.247813 11328 net.cpp:399] inception_3a/5x5 -> inception_3a/5x5
I0403 14:51:24.248842 11328 net.cpp:141] Setting up inception_3a/5x5
I0403 14:51:24.248874 11328 net.cpp:148] Top shape: 24 32 28 28 (602112)
I0403 14:51:24.248893 11328 net.cpp:156] Memory required for data: 539493408
I0403 14:51:24.248911 11328 layer_factory.hpp:77] Creating layer inception_3a/relu_5x5
I0403 14:51:24.248929 11328 net.cpp:91] Creating Layer inception_3a/relu_5x5
I0403 14:51:24.248947 11328 net.cpp:425] inception_3a/relu_5x5 <- inception_3a/5x5
I0403 14:51:24.248968 11328 net.cpp:386] inception_3a/relu_5x5 -> inception_3a/5x5 (in-place)
I0403 14:51:24.249147 11328 net.cpp:141] Setting up inception_3a/relu_5x5
I0403 14:51:24.249174 11328 net.cpp:148] Top shape: 24 32 28 28 (602112)
I0403 14:51:24.249191 11328 net.cpp:156] Memory required for data: 541901856
I0403 14:51:24.249207 11328 layer_factory.hpp:77] Creating layer inception_3a/pool
I0403 14:51:24.249224 11328 net.cpp:91] Creating Layer inception_3a/pool
I0403 14:51:24.249255 11328 net.cpp:425] inception_3a/pool <- pool2/3x3_s2_pool2/3x3_s2_0_split_3
I0403 14:51:24.249279 11328 net.cpp:399] inception_3a/pool -> inception_3a/pool
I0403 14:51:24.249342 11328 net.cpp:141] Setting up inception_3a/pool
I0403 14:51:24.249367 11328 net.cpp:148] Top shape: 24 192 28 28 (3612672)
I0403 14:51:24.249382 11328 net.cpp:156] Memory required for data: 556352544
I0403 14:51:24.249397 11328 layer_factory.hpp:77] Creating layer inception_3a/pool_proj
I0403 14:51:24.249419 11328 net.cpp:91] Creating Layer inception_3a/pool_proj
I0403 14:51:24.249438 11328 net.cpp:425] inception_3a/pool_proj <- inception_3a/pool
I0403 14:51:24.249460 11328 net.cpp:399] inception_3a/pool_proj -> inception_3a/pool_proj
I0403 14:51:24.250432 11328 net.cpp:141] Setting up inception_3a/pool_proj
I0403 14:51:24.250460 11328 net.cpp:148] Top shape: 24 32 28 28 (602112)
I0403 14:51:24.250476 11328 net.cpp:156] Memory required for data: 558760992
I0403 14:51:24.250504 11328 layer_factory.hpp:77] Creating layer inception_3a/relu_pool_proj
I0403 14:51:24.250524 11328 net.cpp:91] Creating Layer inception_3a/relu_pool_proj
I0403 14:51:24.250540 11328 net.cpp:425] inception_3a/relu_pool_proj <- inception_3a/pool_proj
I0403 14:51:24.250560 11328 net.cpp:386] inception_3a/relu_pool_proj -> inception_3a/pool_proj (in-place)
I0403 14:51:24.250841 11328 net.cpp:141] Setting up inception_3a/relu_pool_proj
I0403 14:51:24.250869 11328 net.cpp:148] Top shape: 24 32 28 28 (602112)
I0403 14:51:24.250890 11328 net.cpp:156] Memory required for data: 561169440
I0403 14:51:24.250905 11328 layer_factory.hpp:77] Creating layer inception_3a/output
I0403 14:51:24.250924 11328 net.cpp:91] Creating Layer inception_3a/output
I0403 14:51:24.250941 11328 net.cpp:425] inception_3a/output <- inception_3a/1x1
I0403 14:51:24.250958 11328 net.cpp:425] inception_3a/output <- inception_3a/3x3
I0403 14:51:24.250974 11328 net.cpp:425] inception_3a/output <- inception_3a/5x5
I0403 14:51:24.250990 11328 net.cpp:425] inception_3a/output <- inception_3a/pool_proj
I0403 14:51:24.251016 11328 net.cpp:399] inception_3a/output -> inception_3a/output
I0403 14:51:24.251065 11328 net.cpp:141] Setting up inception_3a/output
I0403 14:51:24.251096 11328 net.cpp:148] Top shape: 24 256 28 28 (4816896)
I0403 14:51:24.251112 11328 net.cpp:156] Memory required for data: 580437024
I0403 14:51:24.251133 11328 layer_factory.hpp:77] Creating layer inception_3a/output_inception_3a/output_0_split
I0403 14:51:24.251152 11328 net.cpp:91] Creating Layer inception_3a/output_inception_3a/output_0_split
I0403 14:51:24.251168 11328 net.cpp:425] inception_3a/output_inception_3a/output_0_split <- inception_3a/output
I0403 14:51:24.251184 11328 net.cpp:399] inception_3a/output_inception_3a/output_0_split -> inception_3a/output_inception_3a/output_0_split_0
I0403 14:51:24.251204 11328 net.cpp:399] inception_3a/output_inception_3a/output_0_split -> inception_3a/output_inception_3a/output_0_split_1
I0403 14:51:24.251230 11328 net.cpp:399] inception_3a/output_inception_3a/output_0_split -> inception_3a/output_inception_3a/output_0_split_2
I0403 14:51:24.251253 11328 net.cpp:399] inception_3a/output_inception_3a/output_0_split -> inception_3a/output_inception_3a/output_0_split_3
I0403 14:51:24.251335 11328 net.cpp:141] Setting up inception_3a/output_inception_3a/output_0_split
I0403 14:51:24.251368 11328 net.cpp:148] Top shape: 24 256 28 28 (4816896)
I0403 14:51:24.251391 11328 net.cpp:148] Top shape: 24 256 28 28 (4816896)
I0403 14:51:24.251417 11328 net.cpp:148] Top shape: 24 256 28 28 (4816896)
I0403 14:51:24.251441 11328 net.cpp:148] Top shape: 24 256 28 28 (4816896)
I0403 14:51:24.251463 11328 net.cpp:156] Memory required for data: 657507360
I0403 14:51:24.251485 11328 layer_factory.hpp:77] Creating layer inception_3b/1x1
I0403 14:51:24.251515 11328 net.cpp:91] Creating Layer inception_3b/1x1
I0403 14:51:24.251538 11328 net.cpp:425] inception_3b/1x1 <- inception_3a/output_inception_3a/output_0_split_0
I0403 14:51:24.251565 11328 net.cpp:399] inception_3b/1x1 -> inception_3b/1x1
I0403 14:51:24.252766 11328 net.cpp:141] Setting up inception_3b/1x1
I0403 14:51:24.252809 11328 net.cpp:148] Top shape: 24 128 28 28 (2408448)
I0403 14:51:24.252826 11328 net.cpp:156] Memory required for data: 667141152
I0403 14:51:24.252846 11328 layer_factory.hpp:77] Creating layer inception_3b/relu_1x1
I0403 14:51:24.252868 11328 net.cpp:91] Creating Layer inception_3b/relu_1x1
I0403 14:51:24.252887 11328 net.cpp:425] inception_3b/relu_1x1 <- inception_3b/1x1
I0403 14:51:24.252905 11328 net.cpp:386] inception_3b/relu_1x1 -> inception_3b/1x1 (in-place)
I0403 14:51:24.253090 11328 net.cpp:141] Setting up inception_3b/relu_1x1
I0403 14:51:24.253116 11328 net.cpp:148] Top shape: 24 128 28 28 (2408448)
I0403 14:51:24.253132 11328 net.cpp:156] Memory required for data: 676774944
I0403 14:51:24.253147 11328 layer_factory.hpp:77] Creating layer inception_3b/3x3_reduce
I0403 14:51:24.253171 11328 net.cpp:91] Creating Layer inception_3b/3x3_reduce
I0403 14:51:24.253190 11328 net.cpp:425] inception_3b/3x3_reduce <- inception_3a/output_inception_3a/output_0_split_1
I0403 14:51:24.253213 11328 net.cpp:399] inception_3b/3x3_reduce -> inception_3b/3x3_reduce
I0403 14:51:24.254429 11328 net.cpp:141] Setting up inception_3b/3x3_reduce
I0403 14:51:24.254464 11328 net.cpp:148] Top shape: 24 128 28 28 (2408448)
I0403 14:51:24.254483 11328 net.cpp:156] Memory required for data: 686408736
I0403 14:51:24.254503 11328 layer_factory.hpp:77] Creating layer inception_3b/relu_3x3_reduce
I0403 14:51:24.254523 11328 net.cpp:91] Creating Layer inception_3b/relu_3x3_reduce
I0403 14:51:24.254540 11328 net.cpp:425] inception_3b/relu_3x3_reduce <- inception_3b/3x3_reduce
I0403 14:51:24.254560 11328 net.cpp:386] inception_3b/relu_3x3_reduce -> inception_3b/3x3_reduce (in-place)
I0403 14:51:24.254746 11328 net.cpp:141] Setting up inception_3b/relu_3x3_reduce
I0403 14:51:24.254776 11328 net.cpp:148] Top shape: 24 128 28 28 (2408448)
I0403 14:51:24.254792 11328 net.cpp:156] Memory required for data: 696042528
I0403 14:51:24.254807 11328 layer_factory.hpp:77] Creating layer inception_3b/3x3
I0403 14:51:24.254833 11328 net.cpp:91] Creating Layer inception_3b/3x3
I0403 14:51:24.254853 11328 net.cpp:425] inception_3b/3x3 <- inception_3b/3x3_reduce
I0403 14:51:24.254874 11328 net.cpp:399] inception_3b/3x3 -> inception_3b/3x3
I0403 14:51:24.257936 11328 net.cpp:141] Setting up inception_3b/3x3
I0403 14:51:24.257966 11328 net.cpp:148] Top shape: 24 192 28 28 (3612672)
I0403 14:51:24.257983 11328 net.cpp:156] Memory required for data: 710493216
I0403 14:51:24.258004 11328 layer_factory.hpp:77] Creating layer inception_3b/relu_3x3
I0403 14:51:24.258024 11328 net.cpp:91] Creating Layer inception_3b/relu_3x3
I0403 14:51:24.258043 11328 net.cpp:425] inception_3b/relu_3x3 <- inception_3b/3x3
I0403 14:51:24.258064 11328 net.cpp:386] inception_3b/relu_3x3 -> inception_3b/3x3 (in-place)
I0403 14:51:24.258363 11328 net.cpp:141] Setting up inception_3b/relu_3x3
I0403 14:51:24.258391 11328 net.cpp:148] Top shape: 24 192 28 28 (3612672)
I0403 14:51:24.258407 11328 net.cpp:156] Memory required for data: 724943904
I0403 14:51:24.258422 11328 layer_factory.hpp:77] Creating layer inception_3b/5x5_reduce
I0403 14:51:24.258446 11328 net.cpp:91] Creating Layer inception_3b/5x5_reduce
I0403 14:51:24.258466 11328 net.cpp:425] inception_3b/5x5_reduce <- inception_3a/output_inception_3a/output_0_split_2
I0403 14:51:24.258491 11328 net.cpp:399] inception_3b/5x5_reduce -> inception_3b/5x5_reduce
I0403 14:51:24.259532 11328 net.cpp:141] Setting up inception_3b/5x5_reduce
I0403 14:51:24.259565 11328 net.cpp:148] Top shape: 24 32 28 28 (602112)
I0403 14:51:24.259582 11328 net.cpp:156] Memory required for data: 727352352
I0403 14:51:24.259603 11328 layer_factory.hpp:77] Creating layer inception_3b/relu_5x5_reduce
I0403 14:51:24.259621 11328 net.cpp:91] Creating Layer inception_3b/relu_5x5_reduce
I0403 14:51:24.259639 11328 net.cpp:425] inception_3b/relu_5x5_reduce <- inception_3b/5x5_reduce
I0403 14:51:24.259662 11328 net.cpp:386] inception_3b/relu_5x5_reduce -> inception_3b/5x5_reduce (in-place)
I0403 14:51:24.259863 11328 net.cpp:141] Setting up inception_3b/relu_5x5_reduce
I0403 14:51:24.259891 11328 net.cpp:148] Top shape: 24 32 28 28 (602112)
I0403 14:51:24.259907 11328 net.cpp:156] Memory required for data: 729760800
I0403 14:51:24.259923 11328 layer_factory.hpp:77] Creating layer inception_3b/5x5
I0403 14:51:24.259948 11328 net.cpp:91] Creating Layer inception_3b/5x5
I0403 14:51:24.259966 11328 net.cpp:425] inception_3b/5x5 <- inception_3b/5x5_reduce
I0403 14:51:24.259989 11328 net.cpp:399] inception_3b/5x5 -> inception_3b/5x5
I0403 14:51:24.262048 11328 net.cpp:141] Setting up inception_3b/5x5
I0403 14:51:24.262084 11328 net.cpp:148] Top shape: 24 96 28 28 (1806336)
I0403 14:51:24.262104 11328 net.cpp:156] Memory required for data: 736986144
I0403 14:51:24.262125 11328 layer_factory.hpp:77] Creating layer inception_3b/relu_5x5
I0403 14:51:24.262145 11328 net.cpp:91] Creating Layer inception_3b/relu_5x5
I0403 14:51:24.262163 11328 net.cpp:425] inception_3b/relu_5x5 <- inception_3b/5x5
I0403 14:51:24.262182 11328 net.cpp:386] inception_3b/relu_5x5 -> inception_3b/5x5 (in-place)
I0403 14:51:24.262395 11328 net.cpp:141] Setting up inception_3b/relu_5x5
I0403 14:51:24.262423 11328 net.cpp:148] Top shape: 24 96 28 28 (1806336)
I0403 14:51:24.262439 11328 net.cpp:156] Memory required for data: 744211488
I0403 14:51:24.262455 11328 layer_factory.hpp:77] Creating layer inception_3b/pool
I0403 14:51:24.262475 11328 net.cpp:91] Creating Layer inception_3b/pool
I0403 14:51:24.262492 11328 net.cpp:425] inception_3b/pool <- inception_3a/output_inception_3a/output_0_split_3
I0403 14:51:24.262512 11328 net.cpp:399] inception_3b/pool -> inception_3b/pool
I0403 14:51:24.262573 11328 net.cpp:141] Setting up inception_3b/pool
I0403 14:51:24.262599 11328 net.cpp:148] Top shape: 24 256 28 28 (4816896)
I0403 14:51:24.262614 11328 net.cpp:156] Memory required for data: 763479072
I0403 14:51:24.262631 11328 layer_factory.hpp:77] Creating layer inception_3b/pool_proj
I0403 14:51:24.262652 11328 net.cpp:91] Creating Layer inception_3b/pool_proj
I0403 14:51:24.262671 11328 net.cpp:425] inception_3b/pool_proj <- inception_3b/pool
I0403 14:51:24.262694 11328 net.cpp:399] inception_3b/pool_proj -> inception_3b/pool_proj
I0403 14:51:24.263811 11328 net.cpp:141] Setting up inception_3b/pool_proj
I0403 14:51:24.263842 11328 net.cpp:148] Top shape: 24 64 28 28 (1204224)
I0403 14:51:24.263859 11328 net.cpp:156] Memory required for data: 768295968
I0403 14:51:24.263880 11328 layer_factory.hpp:77] Creating layer inception_3b/relu_pool_proj
I0403 14:51:24.263903 11328 net.cpp:91] Creating Layer inception_3b/relu_pool_proj
I0403 14:51:24.263922 11328 net.cpp:425] inception_3b/relu_pool_proj <- inception_3b/pool_proj
I0403 14:51:24.263942 11328 net.cpp:386] inception_3b/relu_pool_proj -> inception_3b/pool_proj (in-place)
I0403 14:51:24.264371 11328 net.cpp:141] Setting up inception_3b/relu_pool_proj
I0403 14:51:24.264410 11328 net.cpp:148] Top shape: 24 64 28 28 (1204224)
I0403 14:51:24.264426 11328 net.cpp:156] Memory required for data: 773112864
I0403 14:51:24.264443 11328 layer_factory.hpp:77] Creating layer inception_3b/output
I0403 14:51:24.264463 11328 net.cpp:91] Creating Layer inception_3b/output
I0403 14:51:24.264482 11328 net.cpp:425] inception_3b/output <- inception_3b/1x1
I0403 14:51:24.264500 11328 net.cpp:425] inception_3b/output <- inception_3b/3x3
I0403 14:51:24.264516 11328 net.cpp:425] inception_3b/output <- inception_3b/5x5
I0403 14:51:24.264533 11328 net.cpp:425] inception_3b/output <- inception_3b/pool_proj
I0403 14:51:24.264554 11328 net.cpp:399] inception_3b/output -> inception_3b/output
I0403 14:51:24.264600 11328 net.cpp:141] Setting up inception_3b/output
I0403 14:51:24.264627 11328 net.cpp:148] Top shape: 24 480 28 28 (9031680)
I0403 14:51:24.264643 11328 net.cpp:156] Memory required for data: 809239584
I0403 14:51:24.264659 11328 layer_factory.hpp:77] Creating layer pool3/3x3_s2
I0403 14:51:24.264685 11328 net.cpp:91] Creating Layer pool3/3x3_s2
I0403 14:51:24.264703 11328 net.cpp:425] pool3/3x3_s2 <- inception_3b/output
I0403 14:51:24.264742 11328 net.cpp:399] pool3/3x3_s2 -> pool3/3x3_s2
I0403 14:51:24.264806 11328 net.cpp:141] Setting up pool3/3x3_s2
I0403 14:51:24.264830 11328 net.cpp:148] Top shape: 24 480 14 14 (2257920)
I0403 14:51:24.264847 11328 net.cpp:156] Memory required for data: 818271264
I0403 14:51:24.264863 11328 layer_factory.hpp:77] Creating layer pool3/3x3_s2_pool3/3x3_s2_0_split
I0403 14:51:24.264883 11328 net.cpp:91] Creating Layer pool3/3x3_s2_pool3/3x3_s2_0_split
I0403 14:51:24.264899 11328 net.cpp:425] pool3/3x3_s2_pool3/3x3_s2_0_split <- pool3/3x3_s2
I0403 14:51:24.264919 11328 net.cpp:399] pool3/3x3_s2_pool3/3x3_s2_0_split -> pool3/3x3_s2_pool3/3x3_s2_0_split_0
I0403 14:51:24.264940 11328 net.cpp:399] pool3/3x3_s2_pool3/3x3_s2_0_split -> pool3/3x3_s2_pool3/3x3_s2_0_split_1
I0403 14:51:24.264962 11328 net.cpp:399] pool3/3x3_s2_pool3/3x3_s2_0_split -> pool3/3x3_s2_pool3/3x3_s2_0_split_2
I0403 14:51:24.264984 11328 net.cpp:399] pool3/3x3_s2_pool3/3x3_s2_0_split -> pool3/3x3_s2_pool3/3x3_s2_0_split_3
I0403 14:51:24.265064 11328 net.cpp:141] Setting up pool3/3x3_s2_pool3/3x3_s2_0_split
I0403 14:51:24.265089 11328 net.cpp:148] Top shape: 24 480 14 14 (2257920)
I0403 14:51:24.265105 11328 net.cpp:148] Top shape: 24 480 14 14 (2257920)
I0403 14:51:24.265122 11328 net.cpp:148] Top shape: 24 480 14 14 (2257920)
I0403 14:51:24.265138 11328 net.cpp:148] Top shape: 24 480 14 14 (2257920)
I0403 14:51:24.265153 11328 net.cpp:156] Memory required for data: 854397984
I0403 14:51:24.265168 11328 layer_factory.hpp:77] Creating layer inception_4a/1x1
I0403 14:51:24.265192 11328 net.cpp:91] Creating Layer inception_4a/1x1
I0403 14:51:24.265210 11328 net.cpp:425] inception_4a/1x1 <- pool3/3x3_s2_pool3/3x3_s2_0_split_0
I0403 14:51:24.265233 11328 net.cpp:399] inception_4a/1x1 -> inception_4a/1x1
I0403 14:51:24.266890 11328 net.cpp:141] Setting up inception_4a/1x1
I0403 14:51:24.266919 11328 net.cpp:148] Top shape: 24 192 14 14 (903168)
I0403 14:51:24.266937 11328 net.cpp:156] Memory required for data: 858010656
I0403 14:51:24.266957 11328 layer_factory.hpp:77] Creating layer inception_4a/relu_1x1
I0403 14:51:24.266978 11328 net.cpp:91] Creating Layer inception_4a/relu_1x1
I0403 14:51:24.266996 11328 net.cpp:425] inception_4a/relu_1x1 <- inception_4a/1x1
I0403 14:51:24.267014 11328 net.cpp:386] inception_4a/relu_1x1 -> inception_4a/1x1 (in-place)
I0403 14:51:24.267195 11328 net.cpp:141] Setting up inception_4a/relu_1x1
I0403 14:51:24.267225 11328 net.cpp:148] Top shape: 24 192 14 14 (903168)
I0403 14:51:24.267242 11328 net.cpp:156] Memory required for data: 861623328
I0403 14:51:24.267258 11328 layer_factory.hpp:77] Creating layer inception_4a/3x3_reduce
I0403 14:51:24.267282 11328 net.cpp:91] Creating Layer inception_4a/3x3_reduce
I0403 14:51:24.267299 11328 net.cpp:425] inception_4a/3x3_reduce <- pool3/3x3_s2_pool3/3x3_s2_0_split_1
I0403 14:51:24.267323 11328 net.cpp:399] inception_4a/3x3_reduce -> inception_4a/3x3_reduce
I0403 14:51:24.268621 11328 net.cpp:141] Setting up inception_4a/3x3_reduce
I0403 14:51:24.268651 11328 net.cpp:148] Top shape: 24 96 14 14 (451584)
I0403 14:51:24.268666 11328 net.cpp:156] Memory required for data: 863429664
I0403 14:51:24.268692 11328 layer_factory.hpp:77] Creating layer inception_4a/relu_3x3_reduce
I0403 14:51:24.268715 11328 net.cpp:91] Creating Layer inception_4a/relu_3x3_reduce
I0403 14:51:24.268733 11328 net.cpp:425] inception_4a/relu_3x3_reduce <- inception_4a/3x3_reduce
I0403 14:51:24.268751 11328 net.cpp:386] inception_4a/relu_3x3_reduce -> inception_4a/3x3_reduce (in-place)
I0403 14:51:24.268935 11328 net.cpp:141] Setting up inception_4a/relu_3x3_reduce
I0403 14:51:24.268961 11328 net.cpp:148] Top shape: 24 96 14 14 (451584)
I0403 14:51:24.268976 11328 net.cpp:156] Memory required for data: 865236000
I0403 14:51:24.268991 11328 layer_factory.hpp:77] Creating layer inception_4a/3x3
I0403 14:51:24.269016 11328 net.cpp:91] Creating Layer inception_4a/3x3
I0403 14:51:24.269033 11328 net.cpp:425] inception_4a/3x3 <- inception_4a/3x3_reduce
I0403 14:51:24.269053 11328 net.cpp:399] inception_4a/3x3 -> inception_4a/3x3
I0403 14:51:24.271795 11328 net.cpp:141] Setting up inception_4a/3x3
I0403 14:51:24.271827 11328 net.cpp:148] Top shape: 24 208 14 14 (978432)
I0403 14:51:24.271845 11328 net.cpp:156] Memory required for data: 869149728
I0403 14:51:24.271864 11328 layer_factory.hpp:77] Creating layer inception_4a/relu_3x3
I0403 14:51:24.271883 11328 net.cpp:91] Creating Layer inception_4a/relu_3x3
I0403 14:51:24.271899 11328 net.cpp:425] inception_4a/relu_3x3 <- inception_4a/3x3
I0403 14:51:24.271917 11328 net.cpp:386] inception_4a/relu_3x3 -> inception_4a/3x3 (in-place)
I0403 14:51:24.272204 11328 net.cpp:141] Setting up inception_4a/relu_3x3
I0403 14:51:24.272238 11328 net.cpp:148] Top shape: 24 208 14 14 (978432)
I0403 14:51:24.272255 11328 net.cpp:156] Memory required for data: 873063456
I0403 14:51:24.272271 11328 layer_factory.hpp:77] Creating layer inception_4a/5x5_reduce
I0403 14:51:24.272294 11328 net.cpp:91] Creating Layer inception_4a/5x5_reduce
I0403 14:51:24.272313 11328 net.cpp:425] inception_4a/5x5_reduce <- pool3/3x3_s2_pool3/3x3_s2_0_split_2
I0403 14:51:24.272339 11328 net.cpp:399] inception_4a/5x5_reduce -> inception_4a/5x5_reduce
I0403 14:51:24.273412 11328 net.cpp:141] Setting up inception_4a/5x5_reduce
I0403 14:51:24.273445 11328 net.cpp:148] Top shape: 24 16 14 14 (75264)
I0403 14:51:24.273463 11328 net.cpp:156] Memory required for data: 873364512
I0403 14:51:24.273483 11328 layer_factory.hpp:77] Creating layer inception_4a/relu_5x5_reduce
I0403 14:51:24.273502 11328 net.cpp:91] Creating Layer inception_4a/relu_5x5_reduce
I0403 14:51:24.273520 11328 net.cpp:425] inception_4a/relu_5x5_reduce <- inception_4a/5x5_reduce
I0403 14:51:24.273540 11328 net.cpp:386] inception_4a/relu_5x5_reduce -> inception_4a/5x5_reduce (in-place)
I0403 14:51:24.273739 11328 net.cpp:141] Setting up inception_4a/relu_5x5_reduce
I0403 14:51:24.273780 11328 net.cpp:148] Top shape: 24 16 14 14 (75264)
I0403 14:51:24.273797 11328 net.cpp:156] Memory required for data: 873665568
I0403 14:51:24.273813 11328 layer_factory.hpp:77] Creating layer inception_4a/5x5
I0403 14:51:24.273838 11328 net.cpp:91] Creating Layer inception_4a/5x5
I0403 14:51:24.273857 11328 net.cpp:425] inception_4a/5x5 <- inception_4a/5x5_reduce
I0403 14:51:24.273880 11328 net.cpp:399] inception_4a/5x5 -> inception_4a/5x5
I0403 14:51:24.275012 11328 net.cpp:141] Setting up inception_4a/5x5
I0403 14:51:24.275041 11328 net.cpp:148] Top shape: 24 48 14 14 (225792)
I0403 14:51:24.275058 11328 net.cpp:156] Memory required for data: 874568736
I0403 14:51:24.275076 11328 layer_factory.hpp:77] Creating layer inception_4a/relu_5x5
I0403 14:51:24.275094 11328 net.cpp:91] Creating Layer inception_4a/relu_5x5
I0403 14:51:24.275111 11328 net.cpp:425] inception_4a/relu_5x5 <- inception_4a/5x5
I0403 14:51:24.275131 11328 net.cpp:386] inception_4a/relu_5x5 -> inception_4a/5x5 (in-place)
I0403 14:51:24.275321 11328 net.cpp:141] Setting up inception_4a/relu_5x5
I0403 14:51:24.275346 11328 net.cpp:148] Top shape: 24 48 14 14 (225792)
I0403 14:51:24.275362 11328 net.cpp:156] Memory required for data: 875471904
I0403 14:51:24.275377 11328 layer_factory.hpp:77] Creating layer inception_4a/pool
I0403 14:51:24.275396 11328 net.cpp:91] Creating Layer inception_4a/pool
I0403 14:51:24.275414 11328 net.cpp:425] inception_4a/pool <- pool3/3x3_s2_pool3/3x3_s2_0_split_3
I0403 14:51:24.275432 11328 net.cpp:399] inception_4a/pool -> inception_4a/pool
I0403 14:51:24.275496 11328 net.cpp:141] Setting up inception_4a/pool
I0403 14:51:24.275519 11328 net.cpp:148] Top shape: 24 480 14 14 (2257920)
I0403 14:51:24.275534 11328 net.cpp:156] Memory required for data: 884503584
I0403 14:51:24.275548 11328 layer_factory.hpp:77] Creating layer inception_4a/pool_proj
I0403 14:51:24.275571 11328 net.cpp:91] Creating Layer inception_4a/pool_proj
I0403 14:51:24.275590 11328 net.cpp:425] inception_4a/pool_proj <- inception_4a/pool
I0403 14:51:24.275614 11328 net.cpp:399] inception_4a/pool_proj -> inception_4a/pool_proj
I0403 14:51:24.276813 11328 net.cpp:141] Setting up inception_4a/pool_proj
I0403 14:51:24.276841 11328 net.cpp:148] Top shape: 24 64 14 14 (301056)
I0403 14:51:24.276873 11328 net.cpp:156] Memory required for data: 885707808
I0403 14:51:24.276893 11328 layer_factory.hpp:77] Creating layer inception_4a/relu_pool_proj
I0403 14:51:24.276916 11328 net.cpp:91] Creating Layer inception_4a/relu_pool_proj
I0403 14:51:24.276933 11328 net.cpp:425] inception_4a/relu_pool_proj <- inception_4a/pool_proj
I0403 14:51:24.276952 11328 net.cpp:386] inception_4a/relu_pool_proj -> inception_4a/pool_proj (in-place)
I0403 14:51:24.277240 11328 net.cpp:141] Setting up inception_4a/relu_pool_proj
I0403 14:51:24.277267 11328 net.cpp:148] Top shape: 24 64 14 14 (301056)
I0403 14:51:24.277284 11328 net.cpp:156] Memory required for data: 886912032
I0403 14:51:24.277300 11328 layer_factory.hpp:77] Creating layer inception_4a/output
I0403 14:51:24.277323 11328 net.cpp:91] Creating Layer inception_4a/output
I0403 14:51:24.277341 11328 net.cpp:425] inception_4a/output <- inception_4a/1x1
I0403 14:51:24.277360 11328 net.cpp:425] inception_4a/output <- inception_4a/3x3
I0403 14:51:24.277381 11328 net.cpp:425] inception_4a/output <- inception_4a/5x5
I0403 14:51:24.277396 11328 net.cpp:425] inception_4a/output <- inception_4a/pool_proj
I0403 14:51:24.277413 11328 net.cpp:399] inception_4a/output -> inception_4a/output
I0403 14:51:24.277462 11328 net.cpp:141] Setting up inception_4a/output
I0403 14:51:24.277485 11328 net.cpp:148] Top shape: 24 512 14 14 (2408448)
I0403 14:51:24.277500 11328 net.cpp:156] Memory required for data: 896545824
I0403 14:51:24.277516 11328 layer_factory.hpp:77] Creating layer inception_4a/output_inception_4a/output_0_split
I0403 14:51:24.277534 11328 net.cpp:91] Creating Layer inception_4a/output_inception_4a/output_0_split
I0403 14:51:24.277550 11328 net.cpp:425] inception_4a/output_inception_4a/output_0_split <- inception_4a/output
I0403 14:51:24.277570 11328 net.cpp:399] inception_4a/output_inception_4a/output_0_split -> inception_4a/output_inception_4a/output_0_split_0
I0403 14:51:24.277592 11328 net.cpp:399] inception_4a/output_inception_4a/output_0_split -> inception_4a/output_inception_4a/output_0_split_1
I0403 14:51:24.277616 11328 net.cpp:399] inception_4a/output_inception_4a/output_0_split -> inception_4a/output_inception_4a/output_0_split_2
I0403 14:51:24.277637 11328 net.cpp:399] inception_4a/output_inception_4a/output_0_split -> inception_4a/output_inception_4a/output_0_split_3
I0403 14:51:24.277657 11328 net.cpp:399] inception_4a/output_inception_4a/output_0_split -> inception_4a/output_inception_4a/output_0_split_4
I0403 14:51:24.277751 11328 net.cpp:141] Setting up inception_4a/output_inception_4a/output_0_split
I0403 14:51:24.277776 11328 net.cpp:148] Top shape: 24 512 14 14 (2408448)
I0403 14:51:24.277793 11328 net.cpp:148] Top shape: 24 512 14 14 (2408448)
I0403 14:51:24.277809 11328 net.cpp:148] Top shape: 24 512 14 14 (2408448)
I0403 14:51:24.277825 11328 net.cpp:148] Top shape: 24 512 14 14 (2408448)
I0403 14:51:24.277842 11328 net.cpp:148] Top shape: 24 512 14 14 (2408448)
I0403 14:51:24.277856 11328 net.cpp:156] Memory required for data: 944714784
I0403 14:51:24.277870 11328 layer_factory.hpp:77] Creating layer loss1/ave_pool
I0403 14:51:24.277889 11328 net.cpp:91] Creating Layer loss1/ave_pool
I0403 14:51:24.277904 11328 net.cpp:425] loss1/ave_pool <- inception_4a/output_inception_4a/output_0_split_0
I0403 14:51:24.277925 11328 net.cpp:399] loss1/ave_pool -> loss1/ave_pool
I0403 14:51:24.278134 11328 net.cpp:141] Setting up loss1/ave_pool
I0403 14:51:24.278161 11328 net.cpp:148] Top shape: 24 512 4 4 (196608)
I0403 14:51:24.278177 11328 net.cpp:156] Memory required for data: 945501216
I0403 14:51:24.278190 11328 layer_factory.hpp:77] Creating layer loss1/conv
I0403 14:51:24.278213 11328 net.cpp:91] Creating Layer loss1/conv
I0403 14:51:24.278231 11328 net.cpp:425] loss1/conv <- loss1/ave_pool
I0403 14:51:24.278254 11328 net.cpp:399] loss1/conv -> loss1/conv
I0403 14:51:24.279714 11328 net.cpp:141] Setting up loss1/conv
I0403 14:51:24.279747 11328 net.cpp:148] Top shape: 24 128 4 4 (49152)
I0403 14:51:24.279778 11328 net.cpp:156] Memory required for data: 945697824
I0403 14:51:24.279798 11328 layer_factory.hpp:77] Creating layer loss1/relu_conv
I0403 14:51:24.279819 11328 net.cpp:91] Creating Layer loss1/relu_conv
I0403 14:51:24.279836 11328 net.cpp:425] loss1/relu_conv <- loss1/conv
I0403 14:51:24.279855 11328 net.cpp:386] loss1/relu_conv -> loss1/conv (in-place)
I0403 14:51:24.280166 11328 net.cpp:141] Setting up loss1/relu_conv
I0403 14:51:24.280210 11328 net.cpp:148] Top shape: 24 128 4 4 (49152)
I0403 14:51:24.280227 11328 net.cpp:156] Memory required for data: 945894432
I0403 14:51:24.280243 11328 layer_factory.hpp:77] Creating layer loss1/fc
I0403 14:51:24.280268 11328 net.cpp:91] Creating Layer loss1/fc
I0403 14:51:24.280287 11328 net.cpp:425] loss1/fc <- loss1/conv
I0403 14:51:24.280310 11328 net.cpp:399] loss1/fc -> loss1/fc
I0403 14:51:24.298399 11328 net.cpp:141] Setting up loss1/fc
I0403 14:51:24.298444 11328 net.cpp:148] Top shape: 24 1024 (24576)
I0403 14:51:24.298461 11328 net.cpp:156] Memory required for data: 945992736
I0403 14:51:24.298480 11328 layer_factory.hpp:77] Creating layer loss1/relu_fc
I0403 14:51:24.298501 11328 net.cpp:91] Creating Layer loss1/relu_fc
I0403 14:51:24.298519 11328 net.cpp:425] loss1/relu_fc <- loss1/fc
I0403 14:51:24.298537 11328 net.cpp:386] loss1/relu_fc -> loss1/fc (in-place)
I0403 14:51:24.298738 11328 net.cpp:141] Setting up loss1/relu_fc
I0403 14:51:24.298764 11328 net.cpp:148] Top shape: 24 1024 (24576)
I0403 14:51:24.298779 11328 net.cpp:156] Memory required for data: 946091040
I0403 14:51:24.298794 11328 layer_factory.hpp:77] Creating layer loss1/drop_fc
I0403 14:51:24.298821 11328 net.cpp:91] Creating Layer loss1/drop_fc
I0403 14:51:24.298838 11328 net.cpp:425] loss1/drop_fc <- loss1/fc
I0403 14:51:24.298856 11328 net.cpp:386] loss1/drop_fc -> loss1/fc (in-place)
I0403 14:51:24.298909 11328 net.cpp:141] Setting up loss1/drop_fc
I0403 14:51:24.298933 11328 net.cpp:148] Top shape: 24 1024 (24576)
I0403 14:51:24.298948 11328 net.cpp:156] Memory required for data: 946189344
I0403 14:51:24.298962 11328 layer_factory.hpp:77] Creating layer loss1/classifier_plantvillage
I0403 14:51:24.298984 11328 net.cpp:91] Creating Layer loss1/classifier_plantvillage
I0403 14:51:24.299000 11328 net.cpp:425] loss1/classifier_plantvillage <- loss1/fc
I0403 14:51:24.299018 11328 net.cpp:399] loss1/classifier_plantvillage -> loss1/classifier_plantvillage
I0403 14:51:24.299938 11328 net.cpp:141] Setting up loss1/classifier_plantvillage
I0403 14:51:24.299969 11328 net.cpp:148] Top shape: 24 38 (912)
I0403 14:51:24.299988 11328 net.cpp:156] Memory required for data: 946192992
I0403 14:51:24.300006 11328 layer_factory.hpp:77] Creating layer loss1/classifier_plantvillage_loss1/classifier_plantvillage_0_split
I0403 14:51:24.300025 11328 net.cpp:91] Creating Layer loss1/classifier_plantvillage_loss1/classifier_plantvillage_0_split
I0403 14:51:24.300041 11328 net.cpp:425] loss1/classifier_plantvillage_loss1/classifier_plantvillage_0_split <- loss1/classifier_plantvillage
I0403 14:51:24.300058 11328 net.cpp:399] loss1/classifier_plantvillage_loss1/classifier_plantvillage_0_split -> loss1/classifier_plantvillage_loss1/classifier_plantvillage_0_split_0
I0403 14:51:24.300078 11328 net.cpp:399] loss1/classifier_plantvillage_loss1/classifier_plantvillage_0_split -> loss1/classifier_plantvillage_loss1/classifier_plantvillage_0_split_1
I0403 14:51:24.300098 11328 net.cpp:399] loss1/classifier_plantvillage_loss1/classifier_plantvillage_0_split -> loss1/classifier_plantvillage_loss1/classifier_plantvillage_0_split_2
I0403 14:51:24.300163 11328 net.cpp:141] Setting up loss1/classifier_plantvillage_loss1/classifier_plantvillage_0_split
I0403 14:51:24.300186 11328 net.cpp:148] Top shape: 24 38 (912)
I0403 14:51:24.300202 11328 net.cpp:148] Top shape: 24 38 (912)
I0403 14:51:24.300218 11328 net.cpp:148] Top shape: 24 38 (912)
I0403 14:51:24.300232 11328 net.cpp:156] Memory required for data: 946203936
I0403 14:51:24.300247 11328 layer_factory.hpp:77] Creating layer inception_4b/1x1
I0403 14:51:24.300267 11328 net.cpp:91] Creating Layer inception_4b/1x1
I0403 14:51:24.300305 11328 net.cpp:425] inception_4b/1x1 <- inception_4a/output_inception_4a/output_0_split_1
I0403 14:51:24.300335 11328 net.cpp:399] inception_4b/1x1 -> inception_4b/1x1
I0403 14:51:24.302017 11328 net.cpp:141] Setting up inception_4b/1x1
I0403 14:51:24.302049 11328 net.cpp:148] Top shape: 24 160 14 14 (752640)
I0403 14:51:24.302067 11328 net.cpp:156] Memory required for data: 949214496
I0403 14:51:24.302085 11328 layer_factory.hpp:77] Creating layer inception_4b/relu_1x1
I0403 14:51:24.302104 11328 net.cpp:91] Creating Layer inception_4b/relu_1x1
I0403 14:51:24.302122 11328 net.cpp:425] inception_4b/relu_1x1 <- inception_4b/1x1
I0403 14:51:24.302139 11328 net.cpp:386] inception_4b/relu_1x1 -> inception_4b/1x1 (in-place)
I0403 14:51:24.302335 11328 net.cpp:141] Setting up inception_4b/relu_1x1
I0403 14:51:24.302359 11328 net.cpp:148] Top shape: 24 160 14 14 (752640)
I0403 14:51:24.302373 11328 net.cpp:156] Memory required for data: 952225056
I0403 14:51:24.302388 11328 layer_factory.hpp:77] Creating layer inception_4b/3x3_reduce
I0403 14:51:24.302410 11328 net.cpp:91] Creating Layer inception_4b/3x3_reduce
I0403 14:51:24.302428 11328 net.cpp:425] inception_4b/3x3_reduce <- inception_4a/output_inception_4a/output_0_split_2
I0403 14:51:24.302451 11328 net.cpp:399] inception_4b/3x3_reduce -> inception_4b/3x3_reduce
I0403 14:51:24.303812 11328 net.cpp:141] Setting up inception_4b/3x3_reduce
I0403 14:51:24.303840 11328 net.cpp:148] Top shape: 24 112 14 14 (526848)
I0403 14:51:24.303856 11328 net.cpp:156] Memory required for data: 954332448
I0403 14:51:24.303875 11328 layer_factory.hpp:77] Creating layer inception_4b/relu_3x3_reduce
I0403 14:51:24.303894 11328 net.cpp:91] Creating Layer inception_4b/relu_3x3_reduce
I0403 14:51:24.303912 11328 net.cpp:425] inception_4b/relu_3x3_reduce <- inception_4b/3x3_reduce
I0403 14:51:24.303930 11328 net.cpp:386] inception_4b/relu_3x3_reduce -> inception_4b/3x3_reduce (in-place)
I0403 14:51:24.304234 11328 net.cpp:141] Setting up inception_4b/relu_3x3_reduce
I0403 14:51:24.304262 11328 net.cpp:148] Top shape: 24 112 14 14 (526848)
I0403 14:51:24.304280 11328 net.cpp:156] Memory required for data: 956439840
I0403 14:51:24.304296 11328 layer_factory.hpp:77] Creating layer inception_4b/3x3
I0403 14:51:24.304339 11328 net.cpp:91] Creating Layer inception_4b/3x3
I0403 14:51:24.304359 11328 net.cpp:425] inception_4b/3x3 <- inception_4b/3x3_reduce
I0403 14:51:24.304383 11328 net.cpp:399] inception_4b/3x3 -> inception_4b/3x3
I0403 14:51:24.307454 11328 net.cpp:141] Setting up inception_4b/3x3
I0403 14:51:24.307485 11328 net.cpp:148] Top shape: 24 224 14 14 (1053696)
I0403 14:51:24.307502 11328 net.cpp:156] Memory required for data: 960654624
I0403 14:51:24.307520 11328 layer_factory.hpp:77] Creating layer inception_4b/relu_3x3
I0403 14:51:24.307540 11328 net.cpp:91] Creating Layer inception_4b/relu_3x3
I0403 14:51:24.307557 11328 net.cpp:425] inception_4b/relu_3x3 <- inception_4b/3x3
I0403 14:51:24.307575 11328 net.cpp:386] inception_4b/relu_3x3 -> inception_4b/3x3 (in-place)
I0403 14:51:24.307771 11328 net.cpp:141] Setting up inception_4b/relu_3x3
I0403 14:51:24.307797 11328 net.cpp:148] Top shape: 24 224 14 14 (1053696)
I0403 14:51:24.307812 11328 net.cpp:156] Memory required for data: 964869408
I0403 14:51:24.307827 11328 layer_factory.hpp:77] Creating layer inception_4b/5x5_reduce
I0403 14:51:24.307849 11328 net.cpp:91] Creating Layer inception_4b/5x5_reduce
I0403 14:51:24.307867 11328 net.cpp:425] inception_4b/5x5_reduce <- inception_4a/output_inception_4a/output_0_split_3
I0403 14:51:24.307885 11328 net.cpp:399] inception_4b/5x5_reduce -> inception_4b/5x5_reduce
I0403 14:51:24.308959 11328 net.cpp:141] Setting up inception_4b/5x5_reduce
I0403 14:51:24.308990 11328 net.cpp:148] Top shape: 24 24 14 14 (112896)
I0403 14:51:24.309007 11328 net.cpp:156] Memory required for data: 965320992
I0403 14:51:24.309026 11328 layer_factory.hpp:77] Creating layer inception_4b/relu_5x5_reduce
I0403 14:51:24.309043 11328 net.cpp:91] Creating Layer inception_4b/relu_5x5_reduce
I0403 14:51:24.309073 11328 net.cpp:425] inception_4b/relu_5x5_reduce <- inception_4b/5x5_reduce
I0403 14:51:24.309095 11328 net.cpp:386] inception_4b/relu_5x5_reduce -> inception_4b/5x5_reduce (in-place)
I0403 14:51:24.309274 11328 net.cpp:141] Setting up inception_4b/relu_5x5_reduce
I0403 14:51:24.309310 11328 net.cpp:148] Top shape: 24 24 14 14 (112896)
I0403 14:51:24.309331 11328 net.cpp:156] Memory required for data: 965772576
I0403 14:51:24.309347 11328 layer_factory.hpp:77] Creating layer inception_4b/5x5
I0403 14:51:24.309370 11328 net.cpp:91] Creating Layer inception_4b/5x5
I0403 14:51:24.309388 11328 net.cpp:425] inception_4b/5x5 <- inception_4b/5x5_reduce
I0403 14:51:24.309411 11328 net.cpp:399] inception_4b/5x5 -> inception_4b/5x5
I0403 14:51:24.310642 11328 net.cpp:141] Setting up inception_4b/5x5
I0403 14:51:24.310673 11328 net.cpp:148] Top shape: 24 64 14 14 (301056)
I0403 14:51:24.310690 11328 net.cpp:156] Memory required for data: 966976800
I0403 14:51:24.310709 11328 layer_factory.hpp:77] Creating layer inception_4b/relu_5x5
I0403 14:51:24.310726 11328 net.cpp:91] Creating Layer inception_4b/relu_5x5
I0403 14:51:24.310744 11328 net.cpp:425] inception_4b/relu_5x5 <- inception_4b/5x5
I0403 14:51:24.310762 11328 net.cpp:386] inception_4b/relu_5x5 -> inception_4b/5x5 (in-place)
I0403 14:51:24.311039 11328 net.cpp:141] Setting up inception_4b/relu_5x5
I0403 14:51:24.311069 11328 net.cpp:148] Top shape: 24 64 14 14 (301056)
I0403 14:51:24.311085 11328 net.cpp:156] Memory required for data: 968181024
I0403 14:51:24.311100 11328 layer_factory.hpp:77] Creating layer inception_4b/pool
I0403 14:51:24.311120 11328 net.cpp:91] Creating Layer inception_4b/pool
I0403 14:51:24.311136 11328 net.cpp:425] inception_4b/pool <- inception_4a/output_inception_4a/output_0_split_4
I0403 14:51:24.311156 11328 net.cpp:399] inception_4b/pool -> inception_4b/pool
I0403 14:51:24.311218 11328 net.cpp:141] Setting up inception_4b/pool
I0403 14:51:24.311242 11328 net.cpp:148] Top shape: 24 512 14 14 (2408448)
I0403 14:51:24.311259 11328 net.cpp:156] Memory required for data: 977814816
I0403 14:51:24.311272 11328 layer_factory.hpp:77] Creating layer inception_4b/pool_proj
I0403 14:51:24.311296 11328 net.cpp:91] Creating Layer inception_4b/pool_proj
I0403 14:51:24.311313 11328 net.cpp:425] inception_4b/pool_proj <- inception_4b/pool
I0403 14:51:24.311344 11328 net.cpp:399] inception_4b/pool_proj -> inception_4b/pool_proj
I0403 14:51:24.312526 11328 net.cpp:141] Setting up inception_4b/pool_proj
I0403 14:51:24.312554 11328 net.cpp:148] Top shape: 24 64 14 14 (301056)
I0403 14:51:24.312569 11328 net.cpp:156] Memory required for data: 979019040
I0403 14:51:24.312587 11328 layer_factory.hpp:77] Creating layer inception_4b/relu_pool_proj
I0403 14:51:24.312604 11328 net.cpp:91] Creating Layer inception_4b/relu_pool_proj
I0403 14:51:24.312620 11328 net.cpp:425] inception_4b/relu_pool_proj <- inception_4b/pool_proj
I0403 14:51:24.312640 11328 net.cpp:386] inception_4b/relu_pool_proj -> inception_4b/pool_proj (in-place)
I0403 14:51:24.312819 11328 net.cpp:141] Setting up inception_4b/relu_pool_proj
I0403 14:51:24.312844 11328 net.cpp:148] Top shape: 24 64 14 14 (301056)
I0403 14:51:24.312858 11328 net.cpp:156] Memory required for data: 980223264
I0403 14:51:24.312873 11328 layer_factory.hpp:77] Creating layer inception_4b/output
I0403 14:51:24.312891 11328 net.cpp:91] Creating Layer inception_4b/output
I0403 14:51:24.312906 11328 net.cpp:425] inception_4b/output <- inception_4b/1x1
I0403 14:51:24.312924 11328 net.cpp:425] inception_4b/output <- inception_4b/3x3
I0403 14:51:24.312942 11328 net.cpp:425] inception_4b/output <- inception_4b/5x5
I0403 14:51:24.312957 11328 net.cpp:425] inception_4b/output <- inception_4b/pool_proj
I0403 14:51:24.312973 11328 net.cpp:399] inception_4b/output -> inception_4b/output
I0403 14:51:24.313016 11328 net.cpp:141] Setting up inception_4b/output
I0403 14:51:24.313040 11328 net.cpp:148] Top shape: 24 512 14 14 (2408448)
I0403 14:51:24.313056 11328 net.cpp:156] Memory required for data: 989857056
I0403 14:51:24.313084 11328 layer_factory.hpp:77] Creating layer inception_4b/output_inception_4b/output_0_split
I0403 14:51:24.313102 11328 net.cpp:91] Creating Layer inception_4b/output_inception_4b/output_0_split
I0403 14:51:24.313117 11328 net.cpp:425] inception_4b/output_inception_4b/output_0_split <- inception_4b/output
I0403 14:51:24.313138 11328 net.cpp:399] inception_4b/output_inception_4b/output_0_split -> inception_4b/output_inception_4b/output_0_split_0
I0403 14:51:24.313158 11328 net.cpp:399] inception_4b/output_inception_4b/output_0_split -> inception_4b/output_inception_4b/output_0_split_1
I0403 14:51:24.313177 11328 net.cpp:399] inception_4b/output_inception_4b/output_0_split -> inception_4b/output_inception_4b/output_0_split_2
I0403 14:51:24.313196 11328 net.cpp:399] inception_4b/output_inception_4b/output_0_split -> inception_4b/output_inception_4b/output_0_split_3
I0403 14:51:24.313274 11328 net.cpp:141] Setting up inception_4b/output_inception_4b/output_0_split
I0403 14:51:24.313299 11328 net.cpp:148] Top shape: 24 512 14 14 (2408448)
I0403 14:51:24.313323 11328 net.cpp:148] Top shape: 24 512 14 14 (2408448)
I0403 14:51:24.313350 11328 net.cpp:148] Top shape: 24 512 14 14 (2408448)
I0403 14:51:24.313366 11328 net.cpp:148] Top shape: 24 512 14 14 (2408448)
I0403 14:51:24.313380 11328 net.cpp:156] Memory required for data: 1028392224
I0403 14:51:24.313401 11328 layer_factory.hpp:77] Creating layer inception_4c/1x1
I0403 14:51:24.313424 11328 net.cpp:91] Creating Layer inception_4c/1x1
I0403 14:51:24.313441 11328 net.cpp:425] inception_4c/1x1 <- inception_4b/output_inception_4b/output_0_split_0
I0403 14:51:24.313459 11328 net.cpp:399] inception_4c/1x1 -> inception_4c/1x1
I0403 14:51:24.314857 11328 net.cpp:141] Setting up inception_4c/1x1
I0403 14:51:24.314885 11328 net.cpp:148] Top shape: 24 128 14 14 (602112)
I0403 14:51:24.314901 11328 net.cpp:156] Memory required for data: 1030800672
I0403 14:51:24.314919 11328 layer_factory.hpp:77] Creating layer inception_4c/relu_1x1
I0403 14:51:24.314939 11328 net.cpp:91] Creating Layer inception_4c/relu_1x1
I0403 14:51:24.314957 11328 net.cpp:425] inception_4c/relu_1x1 <- inception_4c/1x1
I0403 14:51:24.314975 11328 net.cpp:386] inception_4c/relu_1x1 -> inception_4c/1x1 (in-place)
I0403 14:51:24.315155 11328 net.cpp:141] Setting up inception_4c/relu_1x1
I0403 14:51:24.315181 11328 net.cpp:148] Top shape: 24 128 14 14 (602112)
I0403 14:51:24.315196 11328 net.cpp:156] Memory required for data: 1033209120
I0403 14:51:24.315209 11328 layer_factory.hpp:77] Creating layer inception_4c/3x3_reduce
I0403 14:51:24.315232 11328 net.cpp:91] Creating Layer inception_4c/3x3_reduce
I0403 14:51:24.315249 11328 net.cpp:425] inception_4c/3x3_reduce <- inception_4b/output_inception_4b/output_0_split_1
I0403 14:51:24.315268 11328 net.cpp:399] inception_4c/3x3_reduce -> inception_4c/3x3_reduce
I0403 14:51:24.317246 11328 net.cpp:141] Setting up inception_4c/3x3_reduce
I0403 14:51:24.317278 11328 net.cpp:148] Top shape: 24 128 14 14 (602112)
I0403 14:51:24.317294 11328 net.cpp:156] Memory required for data: 1035617568
I0403 14:51:24.317313 11328 layer_factory.hpp:77] Creating layer inception_4c/relu_3x3_reduce
I0403 14:51:24.317337 11328 net.cpp:91] Creating Layer inception_4c/relu_3x3_reduce
I0403 14:51:24.317354 11328 net.cpp:425] inception_4c/relu_3x3_reduce <- inception_4c/3x3_reduce
I0403 14:51:24.317374 11328 net.cpp:386] inception_4c/relu_3x3_reduce -> inception_4c/3x3_reduce (in-place)
I0403 14:51:24.317675 11328 net.cpp:141] Setting up inception_4c/relu_3x3_reduce
I0403 14:51:24.317703 11328 net.cpp:148] Top shape: 24 128 14 14 (602112)
I0403 14:51:24.317719 11328 net.cpp:156] Memory required for data: 1038026016
I0403 14:51:24.317734 11328 layer_factory.hpp:77] Creating layer inception_4c/3x3
I0403 14:51:24.317756 11328 net.cpp:91] Creating Layer inception_4c/3x3
I0403 14:51:24.317775 11328 net.cpp:425] inception_4c/3x3 <- inception_4c/3x3_reduce
I0403 14:51:24.317792 11328 net.cpp:399] inception_4c/3x3 -> inception_4c/3x3
I0403 14:51:24.321308 11328 net.cpp:141] Setting up inception_4c/3x3
I0403 14:51:24.321357 11328 net.cpp:148] Top shape: 24 256 14 14 (1204224)
I0403 14:51:24.321375 11328 net.cpp:156] Memory required for data: 1042842912
I0403 14:51:24.321415 11328 layer_factory.hpp:77] Creating layer inception_4c/relu_3x3
I0403 14:51:24.321436 11328 net.cpp:91] Creating Layer inception_4c/relu_3x3
I0403 14:51:24.321454 11328 net.cpp:425] inception_4c/relu_3x3 <- inception_4c/3x3
I0403 14:51:24.321472 11328 net.cpp:386] inception_4c/relu_3x3 -> inception_4c/3x3 (in-place)
I0403 14:51:24.321650 11328 net.cpp:141] Setting up inception_4c/relu_3x3
I0403 14:51:24.321682 11328 net.cpp:148] Top shape: 24 256 14 14 (1204224)
I0403 14:51:24.321697 11328 net.cpp:156] Memory required for data: 1047659808
I0403 14:51:24.321712 11328 layer_factory.hpp:77] Creating layer inception_4c/5x5_reduce
I0403 14:51:24.321733 11328 net.cpp:91] Creating Layer inception_4c/5x5_reduce
I0403 14:51:24.321750 11328 net.cpp:425] inception_4c/5x5_reduce <- inception_4b/output_inception_4b/output_0_split_2
I0403 14:51:24.321769 11328 net.cpp:399] inception_4c/5x5_reduce -> inception_4c/5x5_reduce
I0403 14:51:24.322846 11328 net.cpp:141] Setting up inception_4c/5x5_reduce
I0403 14:51:24.322876 11328 net.cpp:148] Top shape: 24 24 14 14 (112896)
I0403 14:51:24.322895 11328 net.cpp:156] Memory required for data: 1048111392
I0403 14:51:24.322912 11328 layer_factory.hpp:77] Creating layer inception_4c/relu_5x5_reduce
I0403 14:51:24.322929 11328 net.cpp:91] Creating Layer inception_4c/relu_5x5_reduce
I0403 14:51:24.322945 11328 net.cpp:425] inception_4c/relu_5x5_reduce <- inception_4c/5x5_reduce
I0403 14:51:24.322965 11328 net.cpp:386] inception_4c/relu_5x5_reduce -> inception_4c/5x5_reduce (in-place)
I0403 14:51:24.323144 11328 net.cpp:141] Setting up inception_4c/relu_5x5_reduce
I0403 14:51:24.323168 11328 net.cpp:148] Top shape: 24 24 14 14 (112896)
I0403 14:51:24.323182 11328 net.cpp:156] Memory required for data: 1048562976
I0403 14:51:24.323197 11328 layer_factory.hpp:77] Creating layer inception_4c/5x5
I0403 14:51:24.323218 11328 net.cpp:91] Creating Layer inception_4c/5x5
I0403 14:51:24.323236 11328 net.cpp:425] inception_4c/5x5 <- inception_4c/5x5_reduce
I0403 14:51:24.323256 11328 net.cpp:399] inception_4c/5x5 -> inception_4c/5x5
I0403 14:51:24.324486 11328 net.cpp:141] Setting up inception_4c/5x5
I0403 14:51:24.324513 11328 net.cpp:148] Top shape: 24 64 14 14 (301056)
I0403 14:51:24.324528 11328 net.cpp:156] Memory required for data: 1049767200
I0403 14:51:24.324547 11328 layer_factory.hpp:77] Creating layer inception_4c/relu_5x5
I0403 14:51:24.324566 11328 net.cpp:91] Creating Layer inception_4c/relu_5x5
I0403 14:51:24.324584 11328 net.cpp:425] inception_4c/relu_5x5 <- inception_4c/5x5
I0403 14:51:24.324600 11328 net.cpp:386] inception_4c/relu_5x5 -> inception_4c/5x5 (in-place)
I0403 14:51:24.324882 11328 net.cpp:141] Setting up inception_4c/relu_5x5
I0403 14:51:24.324906 11328 net.cpp:148] Top shape: 24 64 14 14 (301056)
I0403 14:51:24.324921 11328 net.cpp:156] Memory required for data: 1050971424
I0403 14:51:24.324936 11328 layer_factory.hpp:77] Creating layer inception_4c/pool
I0403 14:51:24.324955 11328 net.cpp:91] Creating Layer inception_4c/pool
I0403 14:51:24.324972 11328 net.cpp:425] inception_4c/pool <- inception_4b/output_inception_4b/output_0_split_3
I0403 14:51:24.324990 11328 net.cpp:399] inception_4c/pool -> inception_4c/pool
I0403 14:51:24.325053 11328 net.cpp:141] Setting up inception_4c/pool
I0403 14:51:24.325078 11328 net.cpp:148] Top shape: 24 512 14 14 (2408448)
I0403 14:51:24.325091 11328 net.cpp:156] Memory required for data: 1060605216
I0403 14:51:24.325105 11328 layer_factory.hpp:77] Creating layer inception_4c/pool_proj
I0403 14:51:24.325127 11328 net.cpp:91] Creating Layer inception_4c/pool_proj
I0403 14:51:24.325145 11328 net.cpp:425] inception_4c/pool_proj <- inception_4c/pool
I0403 14:51:24.325165 11328 net.cpp:399] inception_4c/pool_proj -> inception_4c/pool_proj
I0403 14:51:24.326351 11328 net.cpp:141] Setting up inception_4c/pool_proj
I0403 14:51:24.326382 11328 net.cpp:148] Top shape: 24 64 14 14 (301056)
I0403 14:51:24.326411 11328 net.cpp:156] Memory required for data: 1061809440
I0403 14:51:24.326429 11328 layer_factory.hpp:77] Creating layer inception_4c/relu_pool_proj
I0403 14:51:24.326447 11328 net.cpp:91] Creating Layer inception_4c/relu_pool_proj
I0403 14:51:24.326463 11328 net.cpp:425] inception_4c/relu_pool_proj <- inception_4c/pool_proj
I0403 14:51:24.326483 11328 net.cpp:386] inception_4c/relu_pool_proj -> inception_4c/pool_proj (in-place)
I0403 14:51:24.326663 11328 net.cpp:141] Setting up inception_4c/relu_pool_proj
I0403 14:51:24.326686 11328 net.cpp:148] Top shape: 24 64 14 14 (301056)
I0403 14:51:24.326700 11328 net.cpp:156] Memory required for data: 1063013664
I0403 14:51:24.326714 11328 layer_factory.hpp:77] Creating layer inception_4c/output
I0403 14:51:24.326737 11328 net.cpp:91] Creating Layer inception_4c/output
I0403 14:51:24.326753 11328 net.cpp:425] inception_4c/output <- inception_4c/1x1
I0403 14:51:24.326769 11328 net.cpp:425] inception_4c/output <- inception_4c/3x3
I0403 14:51:24.326784 11328 net.cpp:425] inception_4c/output <- inception_4c/5x5
I0403 14:51:24.326800 11328 net.cpp:425] inception_4c/output <- inception_4c/pool_proj
I0403 14:51:24.326819 11328 net.cpp:399] inception_4c/output -> inception_4c/output
I0403 14:51:24.326864 11328 net.cpp:141] Setting up inception_4c/output
I0403 14:51:24.326889 11328 net.cpp:148] Top shape: 24 512 14 14 (2408448)
I0403 14:51:24.326903 11328 net.cpp:156] Memory required for data: 1072647456
I0403 14:51:24.326918 11328 layer_factory.hpp:77] Creating layer inception_4c/output_inception_4c/output_0_split
I0403 14:51:24.326935 11328 net.cpp:91] Creating Layer inception_4c/output_inception_4c/output_0_split
I0403 14:51:24.326949 11328 net.cpp:425] inception_4c/output_inception_4c/output_0_split <- inception_4c/output
I0403 14:51:24.326968 11328 net.cpp:399] inception_4c/output_inception_4c/output_0_split -> inception_4c/output_inception_4c/output_0_split_0
I0403 14:51:24.326989 11328 net.cpp:399] inception_4c/output_inception_4c/output_0_split -> inception_4c/output_inception_4c/output_0_split_1
I0403 14:51:24.327008 11328 net.cpp:399] inception_4c/output_inception_4c/output_0_split -> inception_4c/output_inception_4c/output_0_split_2
I0403 14:51:24.327029 11328 net.cpp:399] inception_4c/output_inception_4c/output_0_split -> inception_4c/output_inception_4c/output_0_split_3
I0403 14:51:24.327111 11328 net.cpp:141] Setting up inception_4c/output_inception_4c/output_0_split
I0403 14:51:24.327134 11328 net.cpp:148] Top shape: 24 512 14 14 (2408448)
I0403 14:51:24.327152 11328 net.cpp:148] Top shape: 24 512 14 14 (2408448)
I0403 14:51:24.327167 11328 net.cpp:148] Top shape: 24 512 14 14 (2408448)
I0403 14:51:24.327181 11328 net.cpp:148] Top shape: 24 512 14 14 (2408448)
I0403 14:51:24.327194 11328 net.cpp:156] Memory required for data: 1111182624
I0403 14:51:24.327209 11328 layer_factory.hpp:77] Creating layer inception_4d/1x1
I0403 14:51:24.327229 11328 net.cpp:91] Creating Layer inception_4d/1x1
I0403 14:51:24.327244 11328 net.cpp:425] inception_4d/1x1 <- inception_4c/output_inception_4c/output_0_split_0
I0403 14:51:24.327265 11328 net.cpp:399] inception_4d/1x1 -> inception_4d/1x1
I0403 14:51:24.328624 11328 net.cpp:141] Setting up inception_4d/1x1
I0403 14:51:24.328652 11328 net.cpp:148] Top shape: 24 112 14 14 (526848)
I0403 14:51:24.328668 11328 net.cpp:156] Memory required for data: 1113290016
I0403 14:51:24.328687 11328 layer_factory.hpp:77] Creating layer inception_4d/relu_1x1
I0403 14:51:24.328708 11328 net.cpp:91] Creating Layer inception_4d/relu_1x1
I0403 14:51:24.328725 11328 net.cpp:425] inception_4d/relu_1x1 <- inception_4d/1x1
I0403 14:51:24.328743 11328 net.cpp:386] inception_4d/relu_1x1 -> inception_4d/1x1 (in-place)
I0403 14:51:24.328922 11328 net.cpp:141] Setting up inception_4d/relu_1x1
I0403 14:51:24.328949 11328 net.cpp:148] Top shape: 24 112 14 14 (526848)
I0403 14:51:24.328964 11328 net.cpp:156] Memory required for data: 1115397408
I0403 14:51:24.328980 11328 layer_factory.hpp:77] Creating layer inception_4d/3x3_reduce
I0403 14:51:24.329016 11328 net.cpp:91] Creating Layer inception_4d/3x3_reduce
I0403 14:51:24.329036 11328 net.cpp:425] inception_4d/3x3_reduce <- inception_4c/output_inception_4c/output_0_split_1
I0403 14:51:24.329056 11328 net.cpp:399] inception_4d/3x3_reduce -> inception_4d/3x3_reduce
I0403 14:51:24.330529 11328 net.cpp:141] Setting up inception_4d/3x3_reduce
I0403 14:51:24.330559 11328 net.cpp:148] Top shape: 24 144 14 14 (677376)
I0403 14:51:24.330574 11328 net.cpp:156] Memory required for data: 1118106912
I0403 14:51:24.330593 11328 layer_factory.hpp:77] Creating layer inception_4d/relu_3x3_reduce
I0403 14:51:24.330613 11328 net.cpp:91] Creating Layer inception_4d/relu_3x3_reduce
I0403 14:51:24.330631 11328 net.cpp:425] inception_4d/relu_3x3_reduce <- inception_4d/3x3_reduce
I0403 14:51:24.330647 11328 net.cpp:386] inception_4d/relu_3x3_reduce -> inception_4d/3x3_reduce (in-place)
I0403 14:51:24.330935 11328 net.cpp:141] Setting up inception_4d/relu_3x3_reduce
I0403 14:51:24.330960 11328 net.cpp:148] Top shape: 24 144 14 14 (677376)
I0403 14:51:24.330974 11328 net.cpp:156] Memory required for data: 1120816416
I0403 14:51:24.330988 11328 layer_factory.hpp:77] Creating layer inception_4d/3x3
I0403 14:51:24.331012 11328 net.cpp:91] Creating Layer inception_4d/3x3
I0403 14:51:24.331028 11328 net.cpp:425] inception_4d/3x3 <- inception_4d/3x3_reduce
I0403 14:51:24.331049 11328 net.cpp:399] inception_4d/3x3 -> inception_4d/3x3
I0403 14:51:24.335244 11328 net.cpp:141] Setting up inception_4d/3x3
I0403 14:51:24.335273 11328 net.cpp:148] Top shape: 24 288 14 14 (1354752)
I0403 14:51:24.335289 11328 net.cpp:156] Memory required for data: 1126235424
I0403 14:51:24.335307 11328 layer_factory.hpp:77] Creating layer inception_4d/relu_3x3
I0403 14:51:24.335337 11328 net.cpp:91] Creating Layer inception_4d/relu_3x3
I0403 14:51:24.335356 11328 net.cpp:425] inception_4d/relu_3x3 <- inception_4d/3x3
I0403 14:51:24.335376 11328 net.cpp:386] inception_4d/relu_3x3 -> inception_4d/3x3 (in-place)
I0403 14:51:24.335566 11328 net.cpp:141] Setting up inception_4d/relu_3x3
I0403 14:51:24.335589 11328 net.cpp:148] Top shape: 24 288 14 14 (1354752)
I0403 14:51:24.335603 11328 net.cpp:156] Memory required for data: 1131654432
I0403 14:51:24.335618 11328 layer_factory.hpp:77] Creating layer inception_4d/5x5_reduce
I0403 14:51:24.335639 11328 net.cpp:91] Creating Layer inception_4d/5x5_reduce
I0403 14:51:24.335657 11328 net.cpp:425] inception_4d/5x5_reduce <- inception_4c/output_inception_4c/output_0_split_2
I0403 14:51:24.335677 11328 net.cpp:399] inception_4d/5x5_reduce -> inception_4d/5x5_reduce
I0403 14:51:24.336791 11328 net.cpp:141] Setting up inception_4d/5x5_reduce
I0403 14:51:24.336820 11328 net.cpp:148] Top shape: 24 32 14 14 (150528)
I0403 14:51:24.336836 11328 net.cpp:156] Memory required for data: 1132256544
I0403 14:51:24.336854 11328 layer_factory.hpp:77] Creating layer inception_4d/relu_5x5_reduce
I0403 14:51:24.336872 11328 net.cpp:91] Creating Layer inception_4d/relu_5x5_reduce
I0403 14:51:24.336889 11328 net.cpp:425] inception_4d/relu_5x5_reduce <- inception_4d/5x5_reduce
I0403 14:51:24.336905 11328 net.cpp:386] inception_4d/relu_5x5_reduce -> inception_4d/5x5_reduce (in-place)
I0403 14:51:24.337090 11328 net.cpp:141] Setting up inception_4d/relu_5x5_reduce
I0403 14:51:24.337115 11328 net.cpp:148] Top shape: 24 32 14 14 (150528)
I0403 14:51:24.337129 11328 net.cpp:156] Memory required for data: 1132858656
I0403 14:51:24.337144 11328 layer_factory.hpp:77] Creating layer inception_4d/5x5
I0403 14:51:24.337165 11328 net.cpp:91] Creating Layer inception_4d/5x5
I0403 14:51:24.337182 11328 net.cpp:425] inception_4d/5x5 <- inception_4d/5x5_reduce
I0403 14:51:24.337200 11328 net.cpp:399] inception_4d/5x5 -> inception_4d/5x5
I0403 14:51:24.338639 11328 net.cpp:141] Setting up inception_4d/5x5
I0403 14:51:24.338667 11328 net.cpp:148] Top shape: 24 64 14 14 (301056)
I0403 14:51:24.338683 11328 net.cpp:156] Memory required for data: 1134062880
I0403 14:51:24.338703 11328 layer_factory.hpp:77] Creating layer inception_4d/relu_5x5
I0403 14:51:24.338737 11328 net.cpp:91] Creating Layer inception_4d/relu_5x5
I0403 14:51:24.338754 11328 net.cpp:425] inception_4d/relu_5x5 <- inception_4d/5x5
I0403 14:51:24.338774 11328 net.cpp:386] inception_4d/relu_5x5 -> inception_4d/5x5 (in-place)
I0403 14:51:24.339071 11328 net.cpp:141] Setting up inception_4d/relu_5x5
I0403 14:51:24.339097 11328 net.cpp:148] Top shape: 24 64 14 14 (301056)
I0403 14:51:24.339112 11328 net.cpp:156] Memory required for data: 1135267104
I0403 14:51:24.339126 11328 layer_factory.hpp:77] Creating layer inception_4d/pool
I0403 14:51:24.339143 11328 net.cpp:91] Creating Layer inception_4d/pool
I0403 14:51:24.339159 11328 net.cpp:425] inception_4d/pool <- inception_4c/output_inception_4c/output_0_split_3
I0403 14:51:24.339179 11328 net.cpp:399] inception_4d/pool -> inception_4d/pool
I0403 14:51:24.339244 11328 net.cpp:141] Setting up inception_4d/pool
I0403 14:51:24.339269 11328 net.cpp:148] Top shape: 24 512 14 14 (2408448)
I0403 14:51:24.339285 11328 net.cpp:156] Memory required for data: 1144900896
I0403 14:51:24.339299 11328 layer_factory.hpp:77] Creating layer inception_4d/pool_proj
I0403 14:51:24.339326 11328 net.cpp:91] Creating Layer inception_4d/pool_proj
I0403 14:51:24.339345 11328 net.cpp:425] inception_4d/pool_proj <- inception_4d/pool
I0403 14:51:24.339364 11328 net.cpp:399] inception_4d/pool_proj -> inception_4d/pool_proj
I0403 14:51:24.341116 11328 net.cpp:141] Setting up inception_4d/pool_proj
I0403 14:51:24.341145 11328 net.cpp:148] Top shape: 24 64 14 14 (301056)
I0403 14:51:24.341161 11328 net.cpp:156] Memory required for data: 1146105120
I0403 14:51:24.341178 11328 layer_factory.hpp:77] Creating layer inception_4d/relu_pool_proj
I0403 14:51:24.341198 11328 net.cpp:91] Creating Layer inception_4d/relu_pool_proj
I0403 14:51:24.341215 11328 net.cpp:425] inception_4d/relu_pool_proj <- inception_4d/pool_proj
I0403 14:51:24.341234 11328 net.cpp:386] inception_4d/relu_pool_proj -> inception_4d/pool_proj (in-place)
I0403 14:51:24.341444 11328 net.cpp:141] Setting up inception_4d/relu_pool_proj
I0403 14:51:24.341470 11328 net.cpp:148] Top shape: 24 64 14 14 (301056)
I0403 14:51:24.341485 11328 net.cpp:156] Memory required for data: 1147309344
I0403 14:51:24.341500 11328 layer_factory.hpp:77] Creating layer inception_4d/output
I0403 14:51:24.341517 11328 net.cpp:91] Creating Layer inception_4d/output
I0403 14:51:24.341533 11328 net.cpp:425] inception_4d/output <- inception_4d/1x1
I0403 14:51:24.341552 11328 net.cpp:425] inception_4d/output <- inception_4d/3x3
I0403 14:51:24.341567 11328 net.cpp:425] inception_4d/output <- inception_4d/5x5
I0403 14:51:24.341584 11328 net.cpp:425] inception_4d/output <- inception_4d/pool_proj
I0403 14:51:24.341606 11328 net.cpp:399] inception_4d/output -> inception_4d/output
I0403 14:51:24.341665 11328 net.cpp:141] Setting up inception_4d/output
I0403 14:51:24.341691 11328 net.cpp:148] Top shape: 24 528 14 14 (2483712)
I0403 14:51:24.341707 11328 net.cpp:156] Memory required for data: 1157244192
I0403 14:51:24.341722 11328 layer_factory.hpp:77] Creating layer inception_4d/output_inception_4d/output_0_split
I0403 14:51:24.341740 11328 net.cpp:91] Creating Layer inception_4d/output_inception_4d/output_0_split
I0403 14:51:24.341756 11328 net.cpp:425] inception_4d/output_inception_4d/output_0_split <- inception_4d/output
I0403 14:51:24.341773 11328 net.cpp:399] inception_4d/output_inception_4d/output_0_split -> inception_4d/output_inception_4d/output_0_split_0
I0403 14:51:24.341794 11328 net.cpp:399] inception_4d/output_inception_4d/output_0_split -> inception_4d/output_inception_4d/output_0_split_1
I0403 14:51:24.341817 11328 net.cpp:399] inception_4d/output_inception_4d/output_0_split -> inception_4d/output_inception_4d/output_0_split_2
I0403 14:51:24.341840 11328 net.cpp:399] inception_4d/output_inception_4d/output_0_split -> inception_4d/output_inception_4d/output_0_split_3
I0403 14:51:24.341861 11328 net.cpp:399] inception_4d/output_inception_4d/output_0_split -> inception_4d/output_inception_4d/output_0_split_4
I0403 14:51:24.341961 11328 net.cpp:141] Setting up inception_4d/output_inception_4d/output_0_split
I0403 14:51:24.341996 11328 net.cpp:148] Top shape: 24 528 14 14 (2483712)
I0403 14:51:24.342015 11328 net.cpp:148] Top shape: 24 528 14 14 (2483712)
I0403 14:51:24.342031 11328 net.cpp:148] Top shape: 24 528 14 14 (2483712)
I0403 14:51:24.342046 11328 net.cpp:148] Top shape: 24 528 14 14 (2483712)
I0403 14:51:24.342061 11328 net.cpp:148] Top shape: 24 528 14 14 (2483712)
I0403 14:51:24.342075 11328 net.cpp:156] Memory required for data: 1206918432
I0403 14:51:24.342090 11328 layer_factory.hpp:77] Creating layer loss2/ave_pool
I0403 14:51:24.342110 11328 net.cpp:91] Creating Layer loss2/ave_pool
I0403 14:51:24.342128 11328 net.cpp:425] loss2/ave_pool <- inception_4d/output_inception_4d/output_0_split_0
I0403 14:51:24.342145 11328 net.cpp:399] loss2/ave_pool -> loss2/ave_pool
I0403 14:51:24.342470 11328 net.cpp:141] Setting up loss2/ave_pool
I0403 14:51:24.342497 11328 net.cpp:148] Top shape: 24 528 4 4 (202752)
I0403 14:51:24.342512 11328 net.cpp:156] Memory required for data: 1207729440
I0403 14:51:24.342527 11328 layer_factory.hpp:77] Creating layer loss2/conv
I0403 14:51:24.342552 11328 net.cpp:91] Creating Layer loss2/conv
I0403 14:51:24.342571 11328 net.cpp:425] loss2/conv <- loss2/ave_pool
I0403 14:51:24.342588 11328 net.cpp:399] loss2/conv -> loss2/conv
I0403 14:51:24.344490 11328 net.cpp:141] Setting up loss2/conv
I0403 14:51:24.344521 11328 net.cpp:148] Top shape: 24 128 4 4 (49152)
I0403 14:51:24.344537 11328 net.cpp:156] Memory required for data: 1207926048
I0403 14:51:24.344557 11328 layer_factory.hpp:77] Creating layer loss2/relu_conv
I0403 14:51:24.344574 11328 net.cpp:91] Creating Layer loss2/relu_conv
I0403 14:51:24.344593 11328 net.cpp:425] loss2/relu_conv <- loss2/conv
I0403 14:51:24.344614 11328 net.cpp:386] loss2/relu_conv -> loss2/conv (in-place)
I0403 14:51:24.344907 11328 net.cpp:141] Setting up loss2/relu_conv
I0403 14:51:24.344933 11328 net.cpp:148] Top shape: 24 128 4 4 (49152)
I0403 14:51:24.344947 11328 net.cpp:156] Memory required for data: 1208122656
I0403 14:51:24.344962 11328 layer_factory.hpp:77] Creating layer loss2/fc
I0403 14:51:24.344981 11328 net.cpp:91] Creating Layer loss2/fc
I0403 14:51:24.344998 11328 net.cpp:425] loss2/fc <- loss2/conv
I0403 14:51:24.345019 11328 net.cpp:399] loss2/fc -> loss2/fc
I0403 14:51:24.362969 11328 net.cpp:141] Setting up loss2/fc
I0403 14:51:24.363029 11328 net.cpp:148] Top shape: 24 1024 (24576)
I0403 14:51:24.363047 11328 net.cpp:156] Memory required for data: 1208220960
I0403 14:51:24.363066 11328 layer_factory.hpp:77] Creating layer loss2/relu_fc
I0403 14:51:24.363086 11328 net.cpp:91] Creating Layer loss2/relu_fc
I0403 14:51:24.363104 11328 net.cpp:425] loss2/relu_fc <- loss2/fc
I0403 14:51:24.363123 11328 net.cpp:386] loss2/relu_fc -> loss2/fc (in-place)
I0403 14:51:24.363492 11328 net.cpp:141] Setting up loss2/relu_fc
I0403 14:51:24.363522 11328 net.cpp:148] Top shape: 24 1024 (24576)
I0403 14:51:24.363538 11328 net.cpp:156] Memory required for data: 1208319264
I0403 14:51:24.363554 11328 layer_factory.hpp:77] Creating layer loss2/drop_fc
I0403 14:51:24.363571 11328 net.cpp:91] Creating Layer loss2/drop_fc
I0403 14:51:24.363589 11328 net.cpp:425] loss2/drop_fc <- loss2/fc
I0403 14:51:24.363605 11328 net.cpp:386] loss2/drop_fc -> loss2/fc (in-place)
I0403 14:51:24.363656 11328 net.cpp:141] Setting up loss2/drop_fc
I0403 14:51:24.363687 11328 net.cpp:148] Top shape: 24 1024 (24576)
I0403 14:51:24.363701 11328 net.cpp:156] Memory required for data: 1208417568
I0403 14:51:24.363716 11328 layer_factory.hpp:77] Creating layer loss2/classifier_plantvillage
I0403 14:51:24.363737 11328 net.cpp:91] Creating Layer loss2/classifier_plantvillage
I0403 14:51:24.363757 11328 net.cpp:425] loss2/classifier_plantvillage <- loss2/fc
I0403 14:51:24.363775 11328 net.cpp:399] loss2/classifier_plantvillage -> loss2/classifier_plantvillage
I0403 14:51:24.364188 11328 net.cpp:141] Setting up loss2/classifier_plantvillage
I0403 14:51:24.364213 11328 net.cpp:148] Top shape: 24 38 (912)
I0403 14:51:24.364254 11328 net.cpp:156] Memory required for data: 1208421216
I0403 14:51:24.364274 11328 layer_factory.hpp:77] Creating layer loss2/classifier_plantvillage_loss2/classifier_plantvillage_0_split
I0403 14:51:24.364291 11328 net.cpp:91] Creating Layer loss2/classifier_plantvillage_loss2/classifier_plantvillage_0_split
I0403 14:51:24.364307 11328 net.cpp:425] loss2/classifier_plantvillage_loss2/classifier_plantvillage_0_split <- loss2/classifier_plantvillage
I0403 14:51:24.364333 11328 net.cpp:399] loss2/classifier_plantvillage_loss2/classifier_plantvillage_0_split -> loss2/classifier_plantvillage_loss2/classifier_plantvillage_0_split_0
I0403 14:51:24.364356 11328 net.cpp:399] loss2/classifier_plantvillage_loss2/classifier_plantvillage_0_split -> loss2/classifier_plantvillage_loss2/classifier_plantvillage_0_split_1
I0403 14:51:24.364378 11328 net.cpp:399] loss2/classifier_plantvillage_loss2/classifier_plantvillage_0_split -> loss2/classifier_plantvillage_loss2/classifier_plantvillage_0_split_2
I0403 14:51:24.364460 11328 net.cpp:141] Setting up loss2/classifier_plantvillage_loss2/classifier_plantvillage_0_split
I0403 14:51:24.364483 11328 net.cpp:148] Top shape: 24 38 (912)
I0403 14:51:24.364500 11328 net.cpp:148] Top shape: 24 38 (912)
I0403 14:51:24.364514 11328 net.cpp:148] Top shape: 24 38 (912)
I0403 14:51:24.364528 11328 net.cpp:156] Memory required for data: 1208432160
I0403 14:51:24.364542 11328 layer_factory.hpp:77] Creating layer inception_4e/1x1
I0403 14:51:24.364567 11328 net.cpp:91] Creating Layer inception_4e/1x1
I0403 14:51:24.364584 11328 net.cpp:425] inception_4e/1x1 <- inception_4d/output_inception_4d/output_0_split_1
I0403 14:51:24.364603 11328 net.cpp:399] inception_4e/1x1 -> inception_4e/1x1
I0403 14:51:24.366472 11328 net.cpp:141] Setting up inception_4e/1x1
I0403 14:51:24.366500 11328 net.cpp:148] Top shape: 24 256 14 14 (1204224)
I0403 14:51:24.366516 11328 net.cpp:156] Memory required for data: 1213249056
I0403 14:51:24.366535 11328 layer_factory.hpp:77] Creating layer inception_4e/relu_1x1
I0403 14:51:24.366556 11328 net.cpp:91] Creating Layer inception_4e/relu_1x1
I0403 14:51:24.366575 11328 net.cpp:425] inception_4e/relu_1x1 <- inception_4e/1x1
I0403 14:51:24.366595 11328 net.cpp:386] inception_4e/relu_1x1 -> inception_4e/1x1 (in-place)
I0403 14:51:24.366891 11328 net.cpp:141] Setting up inception_4e/relu_1x1
I0403 14:51:24.366917 11328 net.cpp:148] Top shape: 24 256 14 14 (1204224)
I0403 14:51:24.366932 11328 net.cpp:156] Memory required for data: 1218065952
I0403 14:51:24.366947 11328 layer_factory.hpp:77] Creating layer inception_4e/3x3_reduce
I0403 14:51:24.366971 11328 net.cpp:91] Creating Layer inception_4e/3x3_reduce
I0403 14:51:24.366988 11328 net.cpp:425] inception_4e/3x3_reduce <- inception_4d/output_inception_4d/output_0_split_2
I0403 14:51:24.367010 11328 net.cpp:399] inception_4e/3x3_reduce -> inception_4e/3x3_reduce
I0403 14:51:24.369170 11328 net.cpp:141] Setting up inception_4e/3x3_reduce
I0403 14:51:24.369200 11328 net.cpp:148] Top shape: 24 160 14 14 (752640)
I0403 14:51:24.369216 11328 net.cpp:156] Memory required for data: 1221076512
I0403 14:51:24.369235 11328 layer_factory.hpp:77] Creating layer inception_4e/relu_3x3_reduce
I0403 14:51:24.369253 11328 net.cpp:91] Creating Layer inception_4e/relu_3x3_reduce
I0403 14:51:24.369271 11328 net.cpp:425] inception_4e/relu_3x3_reduce <- inception_4e/3x3_reduce
I0403 14:51:24.369292 11328 net.cpp:386] inception_4e/relu_3x3_reduce -> inception_4e/3x3_reduce (in-place)
I0403 14:51:24.369488 11328 net.cpp:141] Setting up inception_4e/relu_3x3_reduce
I0403 14:51:24.369514 11328 net.cpp:148] Top shape: 24 160 14 14 (752640)
I0403 14:51:24.369529 11328 net.cpp:156] Memory required for data: 1224087072
I0403 14:51:24.369544 11328 layer_factory.hpp:77] Creating layer inception_4e/3x3
I0403 14:51:24.369566 11328 net.cpp:91] Creating Layer inception_4e/3x3
I0403 14:51:24.369583 11328 net.cpp:425] inception_4e/3x3 <- inception_4e/3x3_reduce
I0403 14:51:24.369604 11328 net.cpp:399] inception_4e/3x3 -> inception_4e/3x3
I0403 14:51:24.374624 11328 net.cpp:141] Setting up inception_4e/3x3
I0403 14:51:24.374666 11328 net.cpp:148] Top shape: 24 320 14 14 (1505280)
I0403 14:51:24.374686 11328 net.cpp:156] Memory required for data: 1230108192
I0403 14:51:24.374704 11328 layer_factory.hpp:77] Creating layer inception_4e/relu_3x3
I0403 14:51:24.374725 11328 net.cpp:91] Creating Layer inception_4e/relu_3x3
I0403 14:51:24.374743 11328 net.cpp:425] inception_4e/relu_3x3 <- inception_4e/3x3
I0403 14:51:24.374763 11328 net.cpp:386] inception_4e/relu_3x3 -> inception_4e/3x3 (in-place)
I0403 14:51:24.375069 11328 net.cpp:141] Setting up inception_4e/relu_3x3
I0403 14:51:24.375097 11328 net.cpp:148] Top shape: 24 320 14 14 (1505280)
I0403 14:51:24.375113 11328 net.cpp:156] Memory required for data: 1236129312
I0403 14:51:24.375128 11328 layer_factory.hpp:77] Creating layer inception_4e/5x5_reduce
I0403 14:51:24.375150 11328 net.cpp:91] Creating Layer inception_4e/5x5_reduce
I0403 14:51:24.375169 11328 net.cpp:425] inception_4e/5x5_reduce <- inception_4d/output_inception_4d/output_0_split_3
I0403 14:51:24.375191 11328 net.cpp:399] inception_4e/5x5_reduce -> inception_4e/5x5_reduce
I0403 14:51:24.376277 11328 net.cpp:141] Setting up inception_4e/5x5_reduce
I0403 14:51:24.376307 11328 net.cpp:148] Top shape: 24 32 14 14 (150528)
I0403 14:51:24.376332 11328 net.cpp:156] Memory required for data: 1236731424
I0403 14:51:24.376353 11328 layer_factory.hpp:77] Creating layer inception_4e/relu_5x5_reduce
I0403 14:51:24.376370 11328 net.cpp:91] Creating Layer inception_4e/relu_5x5_reduce
I0403 14:51:24.376389 11328 net.cpp:425] inception_4e/relu_5x5_reduce <- inception_4e/5x5_reduce
I0403 14:51:24.376410 11328 net.cpp:386] inception_4e/relu_5x5_reduce -> inception_4e/5x5_reduce (in-place)
I0403 14:51:24.376714 11328 net.cpp:141] Setting up inception_4e/relu_5x5_reduce
I0403 14:51:24.376744 11328 net.cpp:148] Top shape: 24 32 14 14 (150528)
I0403 14:51:24.376760 11328 net.cpp:156] Memory required for data: 1237333536
I0403 14:51:24.376775 11328 layer_factory.hpp:77] Creating layer inception_4e/5x5
I0403 14:51:24.376816 11328 net.cpp:91] Creating Layer inception_4e/5x5
I0403 14:51:24.376835 11328 net.cpp:425] inception_4e/5x5 <- inception_4e/5x5_reduce
I0403 14:51:24.376857 11328 net.cpp:399] inception_4e/5x5 -> inception_4e/5x5
I0403 14:51:24.378723 11328 net.cpp:141] Setting up inception_4e/5x5
I0403 14:51:24.378754 11328 net.cpp:148] Top shape: 24 128 14 14 (602112)
I0403 14:51:24.378772 11328 net.cpp:156] Memory required for data: 1239741984
I0403 14:51:24.378792 11328 layer_factory.hpp:77] Creating layer inception_4e/relu_5x5
I0403 14:51:24.378808 11328 net.cpp:91] Creating Layer inception_4e/relu_5x5
I0403 14:51:24.378824 11328 net.cpp:425] inception_4e/relu_5x5 <- inception_4e/5x5
I0403 14:51:24.378844 11328 net.cpp:386] inception_4e/relu_5x5 -> inception_4e/5x5 (in-place)
I0403 14:51:24.379040 11328 net.cpp:141] Setting up inception_4e/relu_5x5
I0403 14:51:24.379063 11328 net.cpp:148] Top shape: 24 128 14 14 (602112)
I0403 14:51:24.379077 11328 net.cpp:156] Memory required for data: 1242150432
I0403 14:51:24.379092 11328 layer_factory.hpp:77] Creating layer inception_4e/pool
I0403 14:51:24.379111 11328 net.cpp:91] Creating Layer inception_4e/pool
I0403 14:51:24.379127 11328 net.cpp:425] inception_4e/pool <- inception_4d/output_inception_4d/output_0_split_4
I0403 14:51:24.379147 11328 net.cpp:399] inception_4e/pool -> inception_4e/pool
I0403 14:51:24.379215 11328 net.cpp:141] Setting up inception_4e/pool
I0403 14:51:24.379238 11328 net.cpp:148] Top shape: 24 528 14 14 (2483712)
I0403 14:51:24.379252 11328 net.cpp:156] Memory required for data: 1252085280
I0403 14:51:24.379266 11328 layer_factory.hpp:77] Creating layer inception_4e/pool_proj
I0403 14:51:24.379289 11328 net.cpp:91] Creating Layer inception_4e/pool_proj
I0403 14:51:24.379307 11328 net.cpp:425] inception_4e/pool_proj <- inception_4e/pool
I0403 14:51:24.379333 11328 net.cpp:399] inception_4e/pool_proj -> inception_4e/pool_proj
I0403 14:51:24.380851 11328 net.cpp:141] Setting up inception_4e/pool_proj
I0403 14:51:24.380890 11328 net.cpp:148] Top shape: 24 128 14 14 (602112)
I0403 14:51:24.380913 11328 net.cpp:156] Memory required for data: 1254493728
I0403 14:51:24.380930 11328 layer_factory.hpp:77] Creating layer inception_4e/relu_pool_proj
I0403 14:51:24.380950 11328 net.cpp:91] Creating Layer inception_4e/relu_pool_proj
I0403 14:51:24.380966 11328 net.cpp:425] inception_4e/relu_pool_proj <- inception_4e/pool_proj
I0403 14:51:24.380983 11328 net.cpp:386] inception_4e/relu_pool_proj -> inception_4e/pool_proj (in-place)
I0403 14:51:24.381271 11328 net.cpp:141] Setting up inception_4e/relu_pool_proj
I0403 14:51:24.381297 11328 net.cpp:148] Top shape: 24 128 14 14 (602112)
I0403 14:51:24.381311 11328 net.cpp:156] Memory required for data: 1256902176
I0403 14:51:24.381333 11328 layer_factory.hpp:77] Creating layer inception_4e/output
I0403 14:51:24.381353 11328 net.cpp:91] Creating Layer inception_4e/output
I0403 14:51:24.381369 11328 net.cpp:425] inception_4e/output <- inception_4e/1x1
I0403 14:51:24.381386 11328 net.cpp:425] inception_4e/output <- inception_4e/3x3
I0403 14:51:24.381402 11328 net.cpp:425] inception_4e/output <- inception_4e/5x5
I0403 14:51:24.381417 11328 net.cpp:425] inception_4e/output <- inception_4e/pool_proj
I0403 14:51:24.381433 11328 net.cpp:399] inception_4e/output -> inception_4e/output
I0403 14:51:24.381482 11328 net.cpp:141] Setting up inception_4e/output
I0403 14:51:24.381505 11328 net.cpp:148] Top shape: 24 832 14 14 (3913728)
I0403 14:51:24.381520 11328 net.cpp:156] Memory required for data: 1272557088
I0403 14:51:24.381533 11328 layer_factory.hpp:77] Creating layer pool4/3x3_s2
I0403 14:51:24.381551 11328 net.cpp:91] Creating Layer pool4/3x3_s2
I0403 14:51:24.381567 11328 net.cpp:425] pool4/3x3_s2 <- inception_4e/output
I0403 14:51:24.381585 11328 net.cpp:399] pool4/3x3_s2 -> pool4/3x3_s2
I0403 14:51:24.381654 11328 net.cpp:141] Setting up pool4/3x3_s2
I0403 14:51:24.381676 11328 net.cpp:148] Top shape: 24 832 7 7 (978432)
I0403 14:51:24.381690 11328 net.cpp:156] Memory required for data: 1276470816
I0403 14:51:24.381705 11328 layer_factory.hpp:77] Creating layer pool4/3x3_s2_pool4/3x3_s2_0_split
I0403 14:51:24.381721 11328 net.cpp:91] Creating Layer pool4/3x3_s2_pool4/3x3_s2_0_split
I0403 14:51:24.381736 11328 net.cpp:425] pool4/3x3_s2_pool4/3x3_s2_0_split <- pool4/3x3_s2
I0403 14:51:24.381755 11328 net.cpp:399] pool4/3x3_s2_pool4/3x3_s2_0_split -> pool4/3x3_s2_pool4/3x3_s2_0_split_0
I0403 14:51:24.381775 11328 net.cpp:399] pool4/3x3_s2_pool4/3x3_s2_0_split -> pool4/3x3_s2_pool4/3x3_s2_0_split_1
I0403 14:51:24.381795 11328 net.cpp:399] pool4/3x3_s2_pool4/3x3_s2_0_split -> pool4/3x3_s2_pool4/3x3_s2_0_split_2
I0403 14:51:24.381814 11328 net.cpp:399] pool4/3x3_s2_pool4/3x3_s2_0_split -> pool4/3x3_s2_pool4/3x3_s2_0_split_3
I0403 14:51:24.381899 11328 net.cpp:141] Setting up pool4/3x3_s2_pool4/3x3_s2_0_split
I0403 14:51:24.381925 11328 net.cpp:148] Top shape: 24 832 7 7 (978432)
I0403 14:51:24.381942 11328 net.cpp:148] Top shape: 24 832 7 7 (978432)
I0403 14:51:24.381956 11328 net.cpp:148] Top shape: 24 832 7 7 (978432)
I0403 14:51:24.381971 11328 net.cpp:148] Top shape: 24 832 7 7 (978432)
I0403 14:51:24.381984 11328 net.cpp:156] Memory required for data: 1292125728
I0403 14:51:24.381999 11328 layer_factory.hpp:77] Creating layer inception_5a/1x1
I0403 14:51:24.382019 11328 net.cpp:91] Creating Layer inception_5a/1x1
I0403 14:51:24.382036 11328 net.cpp:425] inception_5a/1x1 <- pool4/3x3_s2_pool4/3x3_s2_0_split_0
I0403 14:51:24.382055 11328 net.cpp:399] inception_5a/1x1 -> inception_5a/1x1
I0403 14:51:24.384843 11328 net.cpp:141] Setting up inception_5a/1x1
I0403 14:51:24.384873 11328 net.cpp:148] Top shape: 24 256 7 7 (301056)
I0403 14:51:24.384888 11328 net.cpp:156] Memory required for data: 1293329952
I0403 14:51:24.384907 11328 layer_factory.hpp:77] Creating layer inception_5a/relu_1x1
I0403 14:51:24.384925 11328 net.cpp:91] Creating Layer inception_5a/relu_1x1
I0403 14:51:24.384941 11328 net.cpp:425] inception_5a/relu_1x1 <- inception_5a/1x1
I0403 14:51:24.384961 11328 net.cpp:386] inception_5a/relu_1x1 -> inception_5a/1x1 (in-place)
I0403 14:51:24.385268 11328 net.cpp:141] Setting up inception_5a/relu_1x1
I0403 14:51:24.385294 11328 net.cpp:148] Top shape: 24 256 7 7 (301056)
I0403 14:51:24.385309 11328 net.cpp:156] Memory required for data: 1294534176
I0403 14:51:24.385330 11328 layer_factory.hpp:77] Creating layer inception_5a/3x3_reduce
I0403 14:51:24.385352 11328 net.cpp:91] Creating Layer inception_5a/3x3_reduce
I0403 14:51:24.385370 11328 net.cpp:425] inception_5a/3x3_reduce <- pool4/3x3_s2_pool4/3x3_s2_0_split_1
I0403 14:51:24.385398 11328 net.cpp:399] inception_5a/3x3_reduce -> inception_5a/3x3_reduce
I0403 14:51:24.387794 11328 net.cpp:141] Setting up inception_5a/3x3_reduce
I0403 14:51:24.387823 11328 net.cpp:148] Top shape: 24 160 7 7 (188160)
I0403 14:51:24.387840 11328 net.cpp:156] Memory required for data: 1295286816
I0403 14:51:24.387857 11328 layer_factory.hpp:77] Creating layer inception_5a/relu_3x3_reduce
I0403 14:51:24.387877 11328 net.cpp:91] Creating Layer inception_5a/relu_3x3_reduce
I0403 14:51:24.387893 11328 net.cpp:425] inception_5a/relu_3x3_reduce <- inception_5a/3x3_reduce
I0403 14:51:24.387912 11328 net.cpp:386] inception_5a/relu_3x3_reduce -> inception_5a/3x3_reduce (in-place)
I0403 14:51:24.388094 11328 net.cpp:141] Setting up inception_5a/relu_3x3_reduce
I0403 14:51:24.388121 11328 net.cpp:148] Top shape: 24 160 7 7 (188160)
I0403 14:51:24.388135 11328 net.cpp:156] Memory required for data: 1296039456
I0403 14:51:24.388150 11328 layer_factory.hpp:77] Creating layer inception_5a/3x3
I0403 14:51:24.388173 11328 net.cpp:91] Creating Layer inception_5a/3x3
I0403 14:51:24.388191 11328 net.cpp:425] inception_5a/3x3 <- inception_5a/3x3_reduce
I0403 14:51:24.388209 11328 net.cpp:399] inception_5a/3x3 -> inception_5a/3x3
I0403 14:51:24.393144 11328 net.cpp:141] Setting up inception_5a/3x3
I0403 14:51:24.393178 11328 net.cpp:148] Top shape: 24 320 7 7 (376320)
I0403 14:51:24.393196 11328 net.cpp:156] Memory required for data: 1297544736
I0403 14:51:24.393215 11328 layer_factory.hpp:77] Creating layer inception_5a/relu_3x3
I0403 14:51:24.393234 11328 net.cpp:91] Creating Layer inception_5a/relu_3x3
I0403 14:51:24.393250 11328 net.cpp:425] inception_5a/relu_3x3 <- inception_5a/3x3
I0403 14:51:24.393272 11328 net.cpp:386] inception_5a/relu_3x3 -> inception_5a/3x3 (in-place)
I0403 14:51:24.393582 11328 net.cpp:141] Setting up inception_5a/relu_3x3
I0403 14:51:24.393612 11328 net.cpp:148] Top shape: 24 320 7 7 (376320)
I0403 14:51:24.393630 11328 net.cpp:156] Memory required for data: 1299050016
I0403 14:51:24.393646 11328 layer_factory.hpp:77] Creating layer inception_5a/5x5_reduce
I0403 14:51:24.393669 11328 net.cpp:91] Creating Layer inception_5a/5x5_reduce
I0403 14:51:24.393688 11328 net.cpp:425] inception_5a/5x5_reduce <- pool4/3x3_s2_pool4/3x3_s2_0_split_2
I0403 14:51:24.393709 11328 net.cpp:399] inception_5a/5x5_reduce -> inception_5a/5x5_reduce
I0403 14:51:24.394876 11328 net.cpp:141] Setting up inception_5a/5x5_reduce
I0403 14:51:24.394906 11328 net.cpp:148] Top shape: 24 32 7 7 (37632)
I0403 14:51:24.394922 11328 net.cpp:156] Memory required for data: 1299200544
I0403 14:51:24.394940 11328 layer_factory.hpp:77] Creating layer inception_5a/relu_5x5_reduce
I0403 14:51:24.394958 11328 net.cpp:91] Creating Layer inception_5a/relu_5x5_reduce
I0403 14:51:24.394974 11328 net.cpp:425] inception_5a/relu_5x5_reduce <- inception_5a/5x5_reduce
I0403 14:51:24.394994 11328 net.cpp:386] inception_5a/relu_5x5_reduce -> inception_5a/5x5_reduce (in-place)
I0403 14:51:24.395287 11328 net.cpp:141] Setting up inception_5a/relu_5x5_reduce
I0403 14:51:24.395313 11328 net.cpp:148] Top shape: 24 32 7 7 (37632)
I0403 14:51:24.395334 11328 net.cpp:156] Memory required for data: 1299351072
I0403 14:51:24.395349 11328 layer_factory.hpp:77] Creating layer inception_5a/5x5
I0403 14:51:24.395371 11328 net.cpp:91] Creating Layer inception_5a/5x5
I0403 14:51:24.395397 11328 net.cpp:425] inception_5a/5x5 <- inception_5a/5x5_reduce
I0403 14:51:24.395418 11328 net.cpp:399] inception_5a/5x5 -> inception_5a/5x5
I0403 14:51:24.397099 11328 net.cpp:141] Setting up inception_5a/5x5
I0403 14:51:24.397140 11328 net.cpp:148] Top shape: 24 128 7 7 (150528)
I0403 14:51:24.397158 11328 net.cpp:156] Memory required for data: 1299953184
I0403 14:51:24.397177 11328 layer_factory.hpp:77] Creating layer inception_5a/relu_5x5
I0403 14:51:24.397195 11328 net.cpp:91] Creating Layer inception_5a/relu_5x5
I0403 14:51:24.397212 11328 net.cpp:425] inception_5a/relu_5x5 <- inception_5a/5x5
I0403 14:51:24.397231 11328 net.cpp:386] inception_5a/relu_5x5 -> inception_5a/5x5 (in-place)
I0403 14:51:24.397428 11328 net.cpp:141] Setting up inception_5a/relu_5x5
I0403 14:51:24.397454 11328 net.cpp:148] Top shape: 24 128 7 7 (150528)
I0403 14:51:24.397467 11328 net.cpp:156] Memory required for data: 1300555296
I0403 14:51:24.397482 11328 layer_factory.hpp:77] Creating layer inception_5a/pool
I0403 14:51:24.397500 11328 net.cpp:91] Creating Layer inception_5a/pool
I0403 14:51:24.397516 11328 net.cpp:425] inception_5a/pool <- pool4/3x3_s2_pool4/3x3_s2_0_split_3
I0403 14:51:24.397534 11328 net.cpp:399] inception_5a/pool -> inception_5a/pool
I0403 14:51:24.397604 11328 net.cpp:141] Setting up inception_5a/pool
I0403 14:51:24.397627 11328 net.cpp:148] Top shape: 24 832 7 7 (978432)
I0403 14:51:24.397641 11328 net.cpp:156] Memory required for data: 1304469024
I0403 14:51:24.397655 11328 layer_factory.hpp:77] Creating layer inception_5a/pool_proj
I0403 14:51:24.397680 11328 net.cpp:91] Creating Layer inception_5a/pool_proj
I0403 14:51:24.397697 11328 net.cpp:425] inception_5a/pool_proj <- inception_5a/pool
I0403 14:51:24.397716 11328 net.cpp:399] inception_5a/pool_proj -> inception_5a/pool_proj
I0403 14:51:24.399996 11328 net.cpp:141] Setting up inception_5a/pool_proj
I0403 14:51:24.400028 11328 net.cpp:148] Top shape: 24 128 7 7 (150528)
I0403 14:51:24.400045 11328 net.cpp:156] Memory required for data: 1305071136
I0403 14:51:24.400064 11328 layer_factory.hpp:77] Creating layer inception_5a/relu_pool_proj
I0403 14:51:24.400082 11328 net.cpp:91] Creating Layer inception_5a/relu_pool_proj
I0403 14:51:24.400099 11328 net.cpp:425] inception_5a/relu_pool_proj <- inception_5a/pool_proj
I0403 14:51:24.400116 11328 net.cpp:386] inception_5a/relu_pool_proj -> inception_5a/pool_proj (in-place)
I0403 14:51:24.400419 11328 net.cpp:141] Setting up inception_5a/relu_pool_proj
I0403 14:51:24.400449 11328 net.cpp:148] Top shape: 24 128 7 7 (150528)
I0403 14:51:24.400465 11328 net.cpp:156] Memory required for data: 1305673248
I0403 14:51:24.400480 11328 layer_factory.hpp:77] Creating layer inception_5a/output
I0403 14:51:24.400497 11328 net.cpp:91] Creating Layer inception_5a/output
I0403 14:51:24.400513 11328 net.cpp:425] inception_5a/output <- inception_5a/1x1
I0403 14:51:24.400530 11328 net.cpp:425] inception_5a/output <- inception_5a/3x3
I0403 14:51:24.400547 11328 net.cpp:425] inception_5a/output <- inception_5a/5x5
I0403 14:51:24.400563 11328 net.cpp:425] inception_5a/output <- inception_5a/pool_proj
I0403 14:51:24.400579 11328 net.cpp:399] inception_5a/output -> inception_5a/output
I0403 14:51:24.400631 11328 net.cpp:141] Setting up inception_5a/output
I0403 14:51:24.400655 11328 net.cpp:148] Top shape: 24 832 7 7 (978432)
I0403 14:51:24.400670 11328 net.cpp:156] Memory required for data: 1309586976
I0403 14:51:24.400683 11328 layer_factory.hpp:77] Creating layer inception_5a/output_inception_5a/output_0_split
I0403 14:51:24.400702 11328 net.cpp:91] Creating Layer inception_5a/output_inception_5a/output_0_split
I0403 14:51:24.400719 11328 net.cpp:425] inception_5a/output_inception_5a/output_0_split <- inception_5a/output
I0403 14:51:24.400737 11328 net.cpp:399] inception_5a/output_inception_5a/output_0_split -> inception_5a/output_inception_5a/output_0_split_0
I0403 14:51:24.400758 11328 net.cpp:399] inception_5a/output_inception_5a/output_0_split -> inception_5a/output_inception_5a/output_0_split_1
I0403 14:51:24.400777 11328 net.cpp:399] inception_5a/output_inception_5a/output_0_split -> inception_5a/output_inception_5a/output_0_split_2
I0403 14:51:24.400799 11328 net.cpp:399] inception_5a/output_inception_5a/output_0_split -> inception_5a/output_inception_5a/output_0_split_3
I0403 14:51:24.400913 11328 net.cpp:141] Setting up inception_5a/output_inception_5a/output_0_split
I0403 14:51:24.400936 11328 net.cpp:148] Top shape: 24 832 7 7 (978432)
I0403 14:51:24.400952 11328 net.cpp:148] Top shape: 24 832 7 7 (978432)
I0403 14:51:24.400969 11328 net.cpp:148] Top shape: 24 832 7 7 (978432)
I0403 14:51:24.400985 11328 net.cpp:148] Top shape: 24 832 7 7 (978432)
I0403 14:51:24.400997 11328 net.cpp:156] Memory required for data: 1325241888
I0403 14:51:24.401012 11328 layer_factory.hpp:77] Creating layer inception_5b/1x1
I0403 14:51:24.401034 11328 net.cpp:91] Creating Layer inception_5b/1x1
I0403 14:51:24.401051 11328 net.cpp:425] inception_5b/1x1 <- inception_5a/output_inception_5a/output_0_split_0
I0403 14:51:24.401072 11328 net.cpp:399] inception_5b/1x1 -> inception_5b/1x1
I0403 14:51:24.404857 11328 net.cpp:141] Setting up inception_5b/1x1
I0403 14:51:24.404889 11328 net.cpp:148] Top shape: 24 384 7 7 (451584)
I0403 14:51:24.404906 11328 net.cpp:156] Memory required for data: 1327048224
I0403 14:51:24.404925 11328 layer_factory.hpp:77] Creating layer inception_5b/relu_1x1
I0403 14:51:24.404947 11328 net.cpp:91] Creating Layer inception_5b/relu_1x1
I0403 14:51:24.404965 11328 net.cpp:425] inception_5b/relu_1x1 <- inception_5b/1x1
I0403 14:51:24.404984 11328 net.cpp:386] inception_5b/relu_1x1 -> inception_5b/1x1 (in-place)
I0403 14:51:24.405290 11328 net.cpp:141] Setting up inception_5b/relu_1x1
I0403 14:51:24.405324 11328 net.cpp:148] Top shape: 24 384 7 7 (451584)
I0403 14:51:24.405341 11328 net.cpp:156] Memory required for data: 1328854560
I0403 14:51:24.405356 11328 layer_factory.hpp:77] Creating layer inception_5b/3x3_reduce
I0403 14:51:24.405380 11328 net.cpp:91] Creating Layer inception_5b/3x3_reduce
I0403 14:51:24.405400 11328 net.cpp:425] inception_5b/3x3_reduce <- inception_5a/output_inception_5a/output_0_split_1
I0403 14:51:24.405419 11328 net.cpp:399] inception_5b/3x3_reduce -> inception_5b/3x3_reduce
I0403 14:51:24.408109 11328 net.cpp:141] Setting up inception_5b/3x3_reduce
I0403 14:51:24.408145 11328 net.cpp:148] Top shape: 24 192 7 7 (225792)
I0403 14:51:24.408164 11328 net.cpp:156] Memory required for data: 1329757728
I0403 14:51:24.408182 11328 layer_factory.hpp:77] Creating layer inception_5b/relu_3x3_reduce
I0403 14:51:24.408201 11328 net.cpp:91] Creating Layer inception_5b/relu_3x3_reduce
I0403 14:51:24.408220 11328 net.cpp:425] inception_5b/relu_3x3_reduce <- inception_5b/3x3_reduce
I0403 14:51:24.408237 11328 net.cpp:386] inception_5b/relu_3x3_reduce -> inception_5b/3x3_reduce (in-place)
I0403 14:51:24.408444 11328 net.cpp:141] Setting up inception_5b/relu_3x3_reduce
I0403 14:51:24.408473 11328 net.cpp:148] Top shape: 24 192 7 7 (225792)
I0403 14:51:24.408488 11328 net.cpp:156] Memory required for data: 1330660896
I0403 14:51:24.408502 11328 layer_factory.hpp:77] Creating layer inception_5b/3x3
I0403 14:51:24.408524 11328 net.cpp:91] Creating Layer inception_5b/3x3
I0403 14:51:24.408542 11328 net.cpp:425] inception_5b/3x3 <- inception_5b/3x3_reduce
I0403 14:51:24.408562 11328 net.cpp:399] inception_5b/3x3 -> inception_5b/3x3
I0403 14:51:24.415287 11328 net.cpp:141] Setting up inception_5b/3x3
I0403 14:51:24.415325 11328 net.cpp:148] Top shape: 24 384 7 7 (451584)
I0403 14:51:24.415344 11328 net.cpp:156] Memory required for data: 1332467232
I0403 14:51:24.415365 11328 layer_factory.hpp:77] Creating layer inception_5b/relu_3x3
I0403 14:51:24.415385 11328 net.cpp:91] Creating Layer inception_5b/relu_3x3
I0403 14:51:24.415410 11328 net.cpp:425] inception_5b/relu_3x3 <- inception_5b/3x3
I0403 14:51:24.415429 11328 net.cpp:386] inception_5b/relu_3x3 -> inception_5b/3x3 (in-place)
I0403 14:51:24.415734 11328 net.cpp:141] Setting up inception_5b/relu_3x3
I0403 14:51:24.415762 11328 net.cpp:148] Top shape: 24 384 7 7 (451584)
I0403 14:51:24.415779 11328 net.cpp:156] Memory required for data: 1334273568
I0403 14:51:24.415794 11328 layer_factory.hpp:77] Creating layer inception_5b/5x5_reduce
I0403 14:51:24.415832 11328 net.cpp:91] Creating Layer inception_5b/5x5_reduce
I0403 14:51:24.415854 11328 net.cpp:425] inception_5b/5x5_reduce <- inception_5a/output_inception_5a/output_0_split_2
I0403 14:51:24.415874 11328 net.cpp:399] inception_5b/5x5_reduce -> inception_5b/5x5_reduce
I0403 14:51:24.417155 11328 net.cpp:141] Setting up inception_5b/5x5_reduce
I0403 14:51:24.417186 11328 net.cpp:148] Top shape: 24 48 7 7 (56448)
I0403 14:51:24.417202 11328 net.cpp:156] Memory required for data: 1334499360
I0403 14:51:24.417222 11328 layer_factory.hpp:77] Creating layer inception_5b/relu_5x5_reduce
I0403 14:51:24.417243 11328 net.cpp:91] Creating Layer inception_5b/relu_5x5_reduce
I0403 14:51:24.417263 11328 net.cpp:425] inception_5b/relu_5x5_reduce <- inception_5b/5x5_reduce
I0403 14:51:24.417280 11328 net.cpp:386] inception_5b/relu_5x5_reduce -> inception_5b/5x5_reduce (in-place)
I0403 14:51:24.417670 11328 net.cpp:141] Setting up inception_5b/relu_5x5_reduce
I0403 14:51:24.417702 11328 net.cpp:148] Top shape: 24 48 7 7 (56448)
I0403 14:51:24.417717 11328 net.cpp:156] Memory required for data: 1334725152
I0403 14:51:24.417732 11328 layer_factory.hpp:77] Creating layer inception_5b/5x5
I0403 14:51:24.417754 11328 net.cpp:91] Creating Layer inception_5b/5x5
I0403 14:51:24.417771 11328 net.cpp:425] inception_5b/5x5 <- inception_5b/5x5_reduce
I0403 14:51:24.417790 11328 net.cpp:399] inception_5b/5x5 -> inception_5b/5x5
I0403 14:51:24.419865 11328 net.cpp:141] Setting up inception_5b/5x5
I0403 14:51:24.419896 11328 net.cpp:148] Top shape: 24 128 7 7 (150528)
I0403 14:51:24.419912 11328 net.cpp:156] Memory required for data: 1335327264
I0403 14:51:24.419932 11328 layer_factory.hpp:77] Creating layer inception_5b/relu_5x5
I0403 14:51:24.419950 11328 net.cpp:91] Creating Layer inception_5b/relu_5x5
I0403 14:51:24.419967 11328 net.cpp:425] inception_5b/relu_5x5 <- inception_5b/5x5
I0403 14:51:24.419987 11328 net.cpp:386] inception_5b/relu_5x5 -> inception_5b/5x5 (in-place)
I0403 14:51:24.420187 11328 net.cpp:141] Setting up inception_5b/relu_5x5
I0403 14:51:24.420213 11328 net.cpp:148] Top shape: 24 128 7 7 (150528)
I0403 14:51:24.420228 11328 net.cpp:156] Memory required for data: 1335929376
I0403 14:51:24.420243 11328 layer_factory.hpp:77] Creating layer inception_5b/pool
I0403 14:51:24.420263 11328 net.cpp:91] Creating Layer inception_5b/pool
I0403 14:51:24.420279 11328 net.cpp:425] inception_5b/pool <- inception_5a/output_inception_5a/output_0_split_3
I0403 14:51:24.420297 11328 net.cpp:399] inception_5b/pool -> inception_5b/pool
I0403 14:51:24.420377 11328 net.cpp:141] Setting up inception_5b/pool
I0403 14:51:24.420402 11328 net.cpp:148] Top shape: 24 832 7 7 (978432)
I0403 14:51:24.420416 11328 net.cpp:156] Memory required for data: 1339843104
I0403 14:51:24.420430 11328 layer_factory.hpp:77] Creating layer inception_5b/pool_proj
I0403 14:51:24.420454 11328 net.cpp:91] Creating Layer inception_5b/pool_proj
I0403 14:51:24.420471 11328 net.cpp:425] inception_5b/pool_proj <- inception_5b/pool
I0403 14:51:24.420493 11328 net.cpp:399] inception_5b/pool_proj -> inception_5b/pool_proj
I0403 14:51:24.422844 11328 net.cpp:141] Setting up inception_5b/pool_proj
I0403 14:51:24.422876 11328 net.cpp:148] Top shape: 24 128 7 7 (150528)
I0403 14:51:24.422895 11328 net.cpp:156] Memory required for data: 1340445216
I0403 14:51:24.422914 11328 layer_factory.hpp:77] Creating layer inception_5b/relu_pool_proj
I0403 14:51:24.422932 11328 net.cpp:91] Creating Layer inception_5b/relu_pool_proj
I0403 14:51:24.422950 11328 net.cpp:425] inception_5b/relu_pool_proj <- inception_5b/pool_proj
I0403 14:51:24.422971 11328 net.cpp:386] inception_5b/relu_pool_proj -> inception_5b/pool_proj (in-place)
I0403 14:51:24.423274 11328 net.cpp:141] Setting up inception_5b/relu_pool_proj
I0403 14:51:24.423303 11328 net.cpp:148] Top shape: 24 128 7 7 (150528)
I0403 14:51:24.423324 11328 net.cpp:156] Memory required for data: 1341047328
I0403 14:51:24.423341 11328 layer_factory.hpp:77] Creating layer inception_5b/output
I0403 14:51:24.423359 11328 net.cpp:91] Creating Layer inception_5b/output
I0403 14:51:24.423389 11328 net.cpp:425] inception_5b/output <- inception_5b/1x1
I0403 14:51:24.423413 11328 net.cpp:425] inception_5b/output <- inception_5b/3x3
I0403 14:51:24.423429 11328 net.cpp:425] inception_5b/output <- inception_5b/5x5
I0403 14:51:24.423445 11328 net.cpp:425] inception_5b/output <- inception_5b/pool_proj
I0403 14:51:24.423463 11328 net.cpp:399] inception_5b/output -> inception_5b/output
I0403 14:51:24.423517 11328 net.cpp:141] Setting up inception_5b/output
I0403 14:51:24.423542 11328 net.cpp:148] Top shape: 24 1024 7 7 (1204224)
I0403 14:51:24.423555 11328 net.cpp:156] Memory required for data: 1345864224
I0403 14:51:24.423570 11328 layer_factory.hpp:77] Creating layer pool5/7x7_s1
I0403 14:51:24.423591 11328 net.cpp:91] Creating Layer pool5/7x7_s1
I0403 14:51:24.423609 11328 net.cpp:425] pool5/7x7_s1 <- inception_5b/output
I0403 14:51:24.423627 11328 net.cpp:399] pool5/7x7_s1 -> pool5/7x7_s1
I0403 14:51:24.423852 11328 net.cpp:141] Setting up pool5/7x7_s1
I0403 14:51:24.423880 11328 net.cpp:148] Top shape: 24 1024 1 1 (24576)
I0403 14:51:24.423897 11328 net.cpp:156] Memory required for data: 1345962528
I0403 14:51:24.423912 11328 layer_factory.hpp:77] Creating layer pool5/drop_7x7_s1
I0403 14:51:24.423929 11328 net.cpp:91] Creating Layer pool5/drop_7x7_s1
I0403 14:51:24.423945 11328 net.cpp:425] pool5/drop_7x7_s1 <- pool5/7x7_s1
I0403 14:51:24.423965 11328 net.cpp:386] pool5/drop_7x7_s1 -> pool5/7x7_s1 (in-place)
I0403 14:51:24.424015 11328 net.cpp:141] Setting up pool5/drop_7x7_s1
I0403 14:51:24.424038 11328 net.cpp:148] Top shape: 24 1024 1 1 (24576)
I0403 14:51:24.424053 11328 net.cpp:156] Memory required for data: 1346060832
I0403 14:51:24.424067 11328 layer_factory.hpp:77] Creating layer loss3/classifier_plantvillage
I0403 14:51:24.424089 11328 net.cpp:91] Creating Layer loss3/classifier_plantvillage
I0403 14:51:24.424106 11328 net.cpp:425] loss3/classifier_plantvillage <- pool5/7x7_s1
I0403 14:51:24.424129 11328 net.cpp:399] loss3/classifier_plantvillage -> loss3/classifier_plantvillage
I0403 14:51:24.424561 11328 net.cpp:141] Setting up loss3/classifier_plantvillage
I0403 14:51:24.424585 11328 net.cpp:148] Top shape: 24 38 (912)
I0403 14:51:24.424600 11328 net.cpp:156] Memory required for data: 1346064480
I0403 14:51:24.424618 11328 layer_factory.hpp:77] Creating layer loss3/classifier_plantvillage_loss3/classifier_plantvillage_0_split
I0403 14:51:24.424639 11328 net.cpp:91] Creating Layer loss3/classifier_plantvillage_loss3/classifier_plantvillage_0_split
I0403 14:51:24.424656 11328 net.cpp:425] loss3/classifier_plantvillage_loss3/classifier_plantvillage_0_split <- loss3/classifier_plantvillage
I0403 14:51:24.424675 11328 net.cpp:399] loss3/classifier_plantvillage_loss3/classifier_plantvillage_0_split -> loss3/classifier_plantvillage_loss3/classifier_plantvillage_0_split_0
I0403 14:51:24.424696 11328 net.cpp:399] loss3/classifier_plantvillage_loss3/classifier_plantvillage_0_split -> loss3/classifier_plantvillage_loss3/classifier_plantvillage_0_split_1
I0403 14:51:24.424716 11328 net.cpp:399] loss3/classifier_plantvillage_loss3/classifier_plantvillage_0_split -> loss3/classifier_plantvillage_loss3/classifier_plantvillage_0_split_2
I0403 14:51:24.424736 11328 net.cpp:399] loss3/classifier_plantvillage_loss3/classifier_plantvillage_0_split -> loss3/classifier_plantvillage_loss3/classifier_plantvillage_0_split_3
I0403 14:51:24.424836 11328 net.cpp:141] Setting up loss3/classifier_plantvillage_loss3/classifier_plantvillage_0_split
I0403 14:51:24.424860 11328 net.cpp:148] Top shape: 24 38 (912)
I0403 14:51:24.424875 11328 net.cpp:148] Top shape: 24 38 (912)
I0403 14:51:24.424891 11328 net.cpp:148] Top shape: 24 38 (912)
I0403 14:51:24.424906 11328 net.cpp:148] Top shape: 24 38 (912)
I0403 14:51:24.424919 11328 net.cpp:156] Memory required for data: 1346079072
I0403 14:51:24.424934 11328 layer_factory.hpp:77] Creating layer loss1/loss
I0403 14:51:24.424955 11328 net.cpp:91] Creating Layer loss1/loss
I0403 14:51:24.424973 11328 net.cpp:425] loss1/loss <- loss1/classifier_plantvillage_loss1/classifier_plantvillage_0_split_0
I0403 14:51:24.425004 11328 net.cpp:425] loss1/loss <- label_data_1_split_0
…
