…
I0403 15:21:57.455329 11876 net.cpp:313] The NetState phase (1) differed from the phase (0) specified by a rule in layer data
I0403 15:21:57.456523 11876 net.cpp:49] Initializing net from parameters: 
state {
  phase: TEST
}
layer {
  name: "data"
  type: "Data"
  top: "data"
  top: "label"
  include {
    phase: TEST
  }
  transform_param {
    mirror: false
    crop_size: 224
    mean_file: "/home/mohanty/data/final_dataset/lmdb/segmented-40-60/mean.binaryproto"
  }
  data_param {
    source: "/home/mohanty/data/final_dataset/lmdb/segmented-40-60/test_db"
    batch_size: 24
    backend: LMDB
  }
}
layer {
  name: "conv1/7x7_s2"
  type: "Convolution"
  bottom: "data"
  top: "conv1/7x7_s2"
  param {
    lr_mult: 1
    decay_mult: 1
  }
  param {
    lr_mult: 2
    decay_mult: 0
  }
  convolution_param {
    num_output: 64
    pad: 3
    kernel_size: 7
    stride: 2
    weight_filler {
      type: "xavier"
      std: 0.1
    }
    bias_filler {
      type: "constant"
      value: 0.2
    }
  }
}
layer {
  name: "conv1/relu_7x7"
  type: "ReLU"
  bottom: "conv1/7x7_s2"
  top: "conv1/7x7_s2"
}
layer {
  name: "pool1/3x3_s2"
  type: "Pooling"
  bottom: "conv1/7x7_s2"
  top: "pool1/3x3_s2"
  pooling_param {
    pool: MAX
    kernel_size: 3
    stride: 2
  }
}
layer {
  name: "pool1/norm1"
  type: "LRN"
  bottom: "pool1/3x3_s2"
  top: "pool1/norm1"
  lrn_param {
    local_size: 5
    alpha: 0.0001
    beta: 0.75
  }
}
layer {
  name: "conv2/3x3_reduce"
  type: "Convolution"
  bottom: "pool1/norm1"
  top: "conv2/3x3_reduce"
  param {
    lr_mult: 1
    decay_mult: 1
  }
  param {
    lr_mult: 2
    decay_mult: 0
  }
  convolution_param {
    num_output: 64
    kernel_size: 1
    weight_filler {
      type: "xavier"
      std: 0.1
    }
    bias_filler {
      type: "constant"
      value: 0.2
    }
  }
}
layer {
  name: "conv2/relu_3x3_reduce"
  type: "ReLU"
  bottom: "conv2/3x3_reduce"
  top: "conv2/3x3_reduce"
}
layer {
  name: "conv2/3x3"
  type: "Convolution"
  bottom: "conv2/3x3_reduce"
  top: "conv2/3x3"
  param {
    lr_mult: 1
    decay_mult: 1
  }
  param {
    lr_mult: 2
    decay_mult: 0
  }
  convolution_param {
    num_output: 192
    pad: 1
    kernel_size: 3
    weight_filler {
      type: "xavier"
      std: 0.03
    }
    bias_filler {
      type: "constant"
      value: 0.2
    }
  }
}
layer {
  name: "conv2/relu_3x3"
  type: "ReLU"
  bottom: "conv2/3x3"
  top: "conv2/3x3"
}
layer {
  name: "conv2/norm2"
  type: "LRN"
  bottom: "conv2/3x3"
  top: "conv2/norm2"
  lrn_param {
    local_size: 5
    alpha: 0.0001
    beta: 0.75
  }
}
layer {
  name: "pool2/3x3_s2"
  type: "Pooling"
  bottom: "conv2/norm2"
  top: "pool2/3x3_s2"
  pooling_param {
    pool: MAX
    kernel_size: 3
    stride: 2
  }
}
layer {
  name: "inception_3a/1x1"
  type: "Convolution"
  bottom: "pool2/3x3_s2"
  top: "inception_3a/1x1"
  param {
    lr_mult: 1
    decay_mult: 1
  }
  param {
    lr_mult: 2
    decay_mult: 0
  }
  convolution_param {
    num_output: 64
    kernel_size: 1
    weight_filler {
      type: "xavier"
      std: 0.03
    }
    bias_filler {
      type: "constant"
      value: 0.2
    }
  }
}
layer {
  name: "inception_3a/relu_1x1"
  type: "ReLU"
  bottom: "inception_3a/1x1"
  top: "inception_3a/1x1"
}
layer {
  name: "inception_3a/3x3_reduce"
  type: "Convolution"
  bottom: "pool2/3x3_s2"
  top: "inception_3a/3x3_reduce"
  param {
    lr_mult: 1
    decay_mult: 1
  }
  param {
    lr_mult: 2
    decay_mult: 0
  }
  convolution_param {
    num_output: 96
    kernel_size: 1
    weight_filler {
      type: "xavier"
      std: 0.09
    }
    bias_filler {
      type: "constant"
      value: 0.2
    }
  }
}
layer {
  name: "inception_3a/relu_3x3_reduce"
  type: "ReLU"
  bottom: "inception_3a/3x3_reduce"
  top: "inception_3a/3x3_reduce"
}
layer {
  name: "inception_3a/3x3"
  type: "Convolution"
  bottom: "inception_3a/3x3_reduce"
  top: "inception_3a/3x3"
  param {
    lr_mult: 1
    decay_mult: 1
  }
  param {
    lr_mult: 2
    decay_mult: 0
  }
  convolution_param {
    num_output: 128
    pad: 1
    kernel_size: 3
    weight_filler {
      type: "xavier"
      std: 0.03
    }
    bias_filler {
      type: "constant"
      value: 0.2
    }
  }
}
layer {
  name: "inception_3a/relu_3x3"
  type: "ReLU"
  bottom: "inception_3a/3x3"
  top: "inception_3a/3x3"
}
layer {
  name: "inception_3a/5x5_reduce"
  type: "Convolution"
  bottom: "pool2/3x3_s2"
  top: "inception_3a/5x5_reduce"
  param {
    lr_mult: 1
    decay_mult: 1
  }
  param {
    lr_mult: 2
    decay_mult: 0
  }
  convolution_param {
    num_output: 16
    kernel_size: 1
    weight_filler {
      type: "xavier"
      std: 0.2
    }
    bias_filler {
      type: "constant"
      value: 0.2
    }
  }
}
layer {
  name: "inception_3a/relu_5x5_reduce"
  type: "ReLU"
  bottom: "inception_3a/5x5_reduce"
  top: "inception_3a/5x5_reduce"
}
layer {
  name: "inception_3a/5x5"
  type: "Convolution"
  bottom: "inception_3a/5x5_reduce"
  top: "inception_3a/5x5"
  param {
    lr_mult: 1
    decay_mult: 1
  }
  param {
    lr_mult: 2
    decay_mult: 0
  }
  convolution_param {
    num_output: 32
    pad: 2
    kernel_size: 5
    weight_filler {
      type: "xavier"
      std: 0.03
    }
    bias_filler {
      type: "constant"
      value: 0.2
    }
  }
}
layer {
  name: "inception_3a/relu_5x5"
  type: "ReLU"
  bottom: "inception_3a/5x5"
  top: "inception_3a/5x5"
}
layer {
  name: "inception_3a/pool"
  type: "Pooling"
  bottom: "pool2/3x3_s2"
  top: "inception_3a/pool"
  pooling_param {
    pool: MAX
    kernel_size: 3
    stride: 1
    pad: 1
  }
}
layer {
  name: "inception_3a/pool_proj"
  type: "Convolution"
  bottom: "inception_3a/pool"
  top: "inception_3a/pool_proj"
  param {
    lr_mult: 1
    decay_mult: 1
  }
  param {
    lr_mult: 2
    decay_mult: 0
  }
  convolution_param {
    num_output: 32
    kernel_size: 1
    weight_filler {
      type: "xavier"
      std: 0.1
    }
    bias_filler {
      type: "constant"
      value: 0.2
    }
  }
}
layer {
  name: "inception_3a/relu_pool_proj"
  type: "ReLU"
  bottom: "inception_3a/pool_proj"
  top: "inception_3a/pool_proj"
}
layer {
  name: "inception_3a/output"
  type: "Concat"
  bottom: "inception_3a/1x1"
  bottom: "inception_3a/3x3"
  bottom: "inception_3a/5x5"
  bottom: "inception_3a/pool_proj"
  top: "inception_3a/output"
}
layer {
  name: "inception_3b/1x1"
  type: "Convolution"
  bottom: "inception_3a/output"
  top: "inception_3b/1x1"
  param {
    lr_mult: 1
    decay_mult: 1
  }
  param {
    lr_mult: 2
    decay_mult: 0
  }
  convolution_param {
    num_output: 128
    kernel_size: 1
    weight_filler {
      type: "xavier"
      std: 0.03
    }
    bias_filler {
      type: "constant"
      value: 0.2
    }
  }
}
layer {
  name: "inception_3b/relu_1x1"
  type: "ReLU"
  bottom: "inception_3b/1x1"
  top: "inception_3b/1x1"
}
layer {
  name: "inception_3b/3x3_reduce"
  type: "Convolution"
  bottom: "inception_3a/output"
  top: "inception_3b/3x3_reduce"
  param {
    lr_mult: 1
    decay_mult: 1
  }
  param {
    lr_mult: 2
    decay_mult: 0
  }
  convolution_param {
    num_output: 128
    kernel_size: 1
    weight_filler {
      type: "xavier"
      std: 0.09
    }
    bias_filler {
      type: "constant"
      value: 0.2
    }
  }
}
layer {
  name: "inception_3b/relu_3x3_reduce"
  type: "ReLU"
  bottom: "inception_3b/3x3_reduce"
  top: "inception_3b/3x3_reduce"
}
layer {
  name: "inception_3b/3x3"
  type: "Convolution"
  bottom: "inception_3b/3x3_reduce"
  top: "inception_3b/3x3"
  param {
    lr_mult: 1
    decay_mult: 1
  }
  param {
    lr_mult: 2
    decay_mult: 0
  }
  convolution_param {
    num_output: 192
    pad: 1
    kernel_size: 3
    weight_filler {
      type: "xavier"
      std: 0.03
    }
    bias_filler {
      type: "constant"
      value: 0.2
    }
  }
}
layer {
  name: "inception_3b/relu_3x3"
  type: "ReLU"
  bottom: "inception_3b/3x3"
  top: "inception_3b/3x3"
}
layer {
  name: "inception_3b/5x5_reduce"
  type: "Convolution"
  bottom: "inception_3a/output"
  top: "inception_3b/5x5_reduce"
  param {
    lr_mult: 1
    decay_mult: 1
  }
  param {
    lr_mult: 2
    decay_mult: 0
  }
  convolution_param {
    num_output: 32
    kernel_size: 1
    weight_filler {
      type: "xavier"
      std: 0.2
    }
    bias_filler {
      type: "constant"
      value: 0.2
    }
  }
}
layer {
  name: "inception_3b/relu_5x5_reduce"
  type: "ReLU"
  bottom: "inception_3b/5x5_reduce"
  top: "inception_3b/5x5_reduce"
}
layer {
  name: "inception_3b/5x5"
  type: "Convolution"
  bottom: "inception_3b/5x5_reduce"
  top: "inception_3b/5x5"
  param {
    lr_mult: 1
    decay_mult: 1
  }
  param {
    lr_mult: 2
    decay_mult: 0
  }
  convolution_param {
    num_output: 96
    pad: 2
    kernel_size: 5
    weight_filler {
      type: "xavier"
      std: 0.03
    }
    bias_filler {
      type: "constant"
      value: 0.2
    }
  }
}
layer {
  name: "inception_3b/relu_5x5"
  type: "ReLU"
  bottom: "inception_3b/5x5"
  top: "inception_3b/5x5"
}
layer {
  name: "inception_3b/pool"
  type: "Pooling"
  bottom: "inception_3a/output"
  top: "inception_3b/pool"
  pooling_param {
    pool: MAX
    kernel_size: 3
    stride: 1
    pad: 1
  }
}
layer {
  name: "inception_3b/pool_proj"
  type: "Convolution"
  bottom: "inception_3b/pool"
  top: "inception_3b/pool_proj"
  param {
    lr_mult: 1
    decay_mult: 1
  }
  param {
    lr_mult: 2
    decay_mult: 0
  }
  convolution_param {
    num_output: 64
    kernel_size: 1
    weight_filler {
      type: "xavier"
      std: 0.1
    }
    bias_filler {
      type: "constant"
      value: 0.2
    }
  }
}
layer {
  name: "inception_3b/relu_pool_proj"
  type: "ReLU"
  bottom: "inception_3b/pool_proj"
  top: "inception_3b/pool_proj"
}
layer {
  name: "inception_3b/output"
  type: "Concat"
  bottom: "inception_3b/1x1"
  bottom: "inception_3b/3x3"
  bottom: "inception_3b/5x5"
  bottom: "inception_3b/pool_proj"
  top: "inception_3b/output"
}
layer {
  name: "pool3/3x3_s2"
  type: "Pooling"
  bottom: "inception_3b/output"
  top: "pool3/3x3_s2"
  pooling_param {
    pool: MAX
    kernel_size: 3
    stride: 2
  }
}
layer {
  name: "inception_4a/1x1"
  type: "Convolution"
  bottom: "pool3/3x3_s2"
  top: "inception_4a/1x1"
  param {
    lr_mult: 1
    decay_mult: 1
  }
  param {
    lr_mult: 2
    decay_mult: 0
  }
  convolution_param {
    num_output: 192
    kernel_size: 1
    weight_filler {
      type: "xavier"
      std: 0.03
    }
    bias_filler {
      type: "constant"
      value: 0.2
    }
  }
}
layer {
  name: "inception_4a/relu_1x1"
  type: "ReLU"
  bottom: "inception_4a/1x1"
  top: "inception_4a/1x1"
}
layer {
  name: "inception_4a/3x3_reduce"
  type: "Convolution"
  bottom: "pool3/3x3_s2"
  top: "inception_4a/3x3_reduce"
  param {
    lr_mult: 1
    decay_mult: 1
  }
  param {
    lr_mult: 2
    decay_mult: 0
  }
  convolution_param {
    num_output: 96
    kernel_size: 1
    weight_filler {
      type: "xavier"
      std: 0.09
    }
    bias_filler {
      type: "constant"
      value: 0.2
    }
  }
}
layer {
  name: "inception_4a/relu_3x3_reduce"
  type: "ReLU"
  bottom: "inception_4a/3x3_reduce"
  top: "inception_4a/3x3_reduce"
}
layer {
  name: "inception_4a/3x3"
  type: "Convolution"
  bottom: "inception_4a/3x3_reduce"
  top: "inception_4a/3x3"
  param {
    lr_mult: 1
    decay_mult: 1
  }
  param {
    lr_mult: 2
    decay_mult: 0
  }
  convolution_param {
    num_output: 208
    pad: 1
    kernel_size: 3
    weight_filler {
      type: "xavier"
      std: 0.03
    }
    bias_filler {
      type: "constant"
      value: 0.2
    }
  }
}
layer {
  name: "inception_4a/relu_3x3"
  type: "ReLU"
  bottom: "inception_4a/3x3"
  top: "inception_4a/3x3"
}
layer {
  name: "inception_4a/5x5_reduce"
  type: "Convolution"
  bottom: "pool3/3x3_s2"
  top: "inception_4a/5x5_reduce"
  param {
    lr_mult: 1
    decay_mult: 1
  }
  param {
    lr_mult: 2
    decay_mult: 0
  }
  convolution_param {
    num_output: 16
    kernel_size: 1
    weight_filler {
      type: "xavier"
      std: 0.2
    }
    bias_filler {
      type: "constant"
      value: 0.2
    }
  }
}
layer {
  name: "inception_4a/relu_5x5_reduce"
  type: "ReLU"
  bottom: "inception_4a/5x5_reduce"
  top: "inception_4a/5x5_reduce"
}
layer {
  name: "inception_4a/5x5"
  type: "Convolution"
  bottom: "inception_4a/5x5_reduce"
  top: "inception_4a/5x5"
  param {
    lr_mult: 1
    decay_mult: 1
  }
  param {
    lr_mult: 2
    decay_mult: 0
  }
  convolution_param {
    num_output: 48
    pad: 2
    kernel_size: 5
    weight_filler {
      type: "xavier"
      std: 0.03
    }
    bias_filler {
      type: "constant"
      value: 0.2
    }
  }
}
layer {
  name: "inception_4a/relu_5x5"
  type: "ReLU"
  bottom: "inception_4a/5x5"
  top: "inception_4a/5x5"
}
layer {
  name: "inception_4a/pool"
  type: "Pooling"
  bottom: "pool3/3x3_s2"
  top: "inception_4a/pool"
  pooling_param {
    pool: MAX
    kernel_size: 3
    stride: 1
    pad: 1
  }
}
layer {
  name: "inception_4a/pool_proj"
  type: "Convolution"
  bottom: "inception_4a/pool"
  top: "inception_4a/pool_proj"
  param {
    lr_mult: 1
    decay_mult: 1
  }
  param {
    lr_mult: 2
    decay_mult: 0
  }
  convolution_param {
    num_output: 64
    kernel_size: 1
    weight_filler {
      type: "xavier"
      std: 0.1
    }
    bias_filler {
      type: "constant"
      value: 0.2
    }
  }
}
layer {
  name: "inception_4a/relu_pool_proj"
  type: "ReLU"
  bottom: "inception_4a/pool_proj"
  top: "inception_4a/pool_proj"
}
layer {
  name: "inception_4a/output"
  type: "Concat"
  bottom: "inception_4a/1x1"
  bottom: "inception_4a/3x3"
  bottom: "inception_4a/5x5"
  bottom: "inception_4a/pool_proj"
  top: "inception_4a/output"
}
layer {
  name: "loss1/ave_pool"
  type: "Pooling"
  bottom: "inception_4a/output"
  top: "loss1/ave_pool"
  pooling_param {
    pool: AVE
    kernel_size: 5
    stride: 3
  }
}
layer {
  name: "loss1/conv"
  type: "Convolution"
  bottom: "loss1/ave_pool"
  top: "loss1/conv"
  param {
    lr_mult: 1
    decay_mult: 1
  }
  param {
    lr_mult: 2
    decay_mult: 0
  }
  convolution_param {
    num_output: 128
    kernel_size: 1
    weight_filler {
      type: "xavier"
      std: 0.08
    }
    bias_filler {
      type: "constant"
      value: 0.2
    }
  }
}
layer {
  name: "loss1/relu_conv"
  type: "ReLU"
  bottom: "loss1/conv"
  top: "loss1/conv"
}
layer {
  name: "loss1/fc"
  type: "InnerProduct"
  bottom: "loss1/conv"
  top: "loss1/fc"
  param {
    lr_mult: 1
    decay_mult: 1
  }
  param {
    lr_mult: 2
    decay_mult: 0
  }
  inner_product_param {
    num_output: 1024
    weight_filler {
      type: "xavier"
      std: 0.02
    }
    bias_filler {
      type: "constant"
      value: 0.2
    }
  }
}
layer {
  name: "loss1/relu_fc"
  type: "ReLU"
  bottom: "loss1/fc"
  top: "loss1/fc"
}
layer {
  name: "loss1/drop_fc"
  type: "Dropout"
  bottom: "loss1/fc"
  top: "loss1/fc"
  dropout_param {
    dropout_ratio: 0.7
  }
}
layer {
  name: "loss1/classifier_plantvillage"
  type: "InnerProduct"
  bottom: "loss1/fc"
  top: "loss1/classifier_plantvillage"
  param {
    lr_mult: 1
    decay_mult: 1
  }
  param {
    lr_mult: 2
    decay_mult: 0
  }
  inner_product_param {
    num_output: 38
    weight_filler {
      type: "xavier"
      std: 0.0009765625
    }
    bias_filler {
      type: "constant"
      value: 0
    }
  }
}
layer {
  name: "inception_4b/1x1"
  type: "Convolution"
  bottom: "inception_4a/output"
  top: "inception_4b/1x1"
  param {
    lr_mult: 1
    decay_mult: 1
  }
  param {
    lr_mult: 2
    decay_mult: 0
  }
  convolution_param {
    num_output: 160
    kernel_size: 1
    weight_filler {
      type: "xavier"
      std: 0.03
    }
    bias_filler {
      type: "constant"
      value: 0.2
    }
  }
}
layer {
  name: "inception_4b/relu_1x1"
  type: "ReLU"
  bottom: "inception_4b/1x1"
  top: "inception_4b/1x1"
}
layer {
  name: "inception_4b/3x3_reduce"
  type: "Convolution"
  bottom: "inception_4a/output"
  top: "inception_4b/3x3_reduce"
  param {
    lr_mult: 1
    decay_mult: 1
  }
  param {
    lr_mult: 2
    decay_mult: 0
  }
  convolution_param {
    num_output: 112
    kernel_size: 1
    weight_filler {
      type: "xavier"
      std: 0.09
    }
    bias_filler {
      type: "constant"
      value: 0.2
    }
  }
}
layer {
  name: "inception_4b/relu_3x3_reduce"
  type: "ReLU"
  bottom: "inception_4b/3x3_reduce"
  top: "inception_4b/3x3_reduce"
}
layer {
  name: "inception_4b/3x3"
  type: "Convolution"
  bottom: "inception_4b/3x3_reduce"
  top: "inception_4b/3x3"
  param {
    lr_mult: 1
    decay_mult: 1
  }
  param {
    lr_mult: 2
    decay_mult: 0
  }
  convolution_param {
    num_output: 224
    pad: 1
    kernel_size: 3
    weight_filler {
      type: "xavier"
      std: 0.03
    }
    bias_filler {
      type: "constant"
      value: 0.2
    }
  }
}
layer {
  name: "inception_4b/relu_3x3"
  type: "ReLU"
  bottom: "inception_4b/3x3"
  top: "inception_4b/3x3"
}
layer {
  name: "inception_4b/5x5_reduce"
  type: "Convolution"
  bottom: "inception_4a/output"
  top: "inception_4b/5x5_reduce"
  param {
    lr_mult: 1
    decay_mult: 1
  }
  param {
    lr_mult: 2
    decay_mult: 0
  }
  convolution_param {
    num_output: 24
    kernel_size: 1
    weight_filler {
      type: "xavier"
      std: 0.2
    }
    bias_filler {
      type: "constant"
      value: 0.2
    }
  }
}
layer {
  name: "inception_4b/relu_5x5_reduce"
  type: "ReLU"
  bottom: "inception_4b/5x5_reduce"
  top: "inception_4b/5x5_reduce"
}
layer {
  name: "inception_4b/5x5"
  type: "Convolution"
  bottom: "inception_4b/5x5_reduce"
  top: "inception_4b/5x5"
  param {
    lr_mult: 1
    decay_mult: 1
  }
  param {
    lr_mult: 2
    decay_mult: 0
  }
  convolution_param {
    num_output: 64
    pad: 2
    kernel_size: 5
    weight_filler {
      type: "xavier"
      std: 0.03
    }
    bias_filler {
      type: "constant"
      value: 0.2
    }
  }
}
layer {
  name: "inception_4b/relu_5x5"
  type: "ReLU"
  bottom: "inception_4b/5x5"
  top: "inception_4b/5x5"
}
layer {
  name: "inception_4b/pool"
  type: "Pooling"
  bottom: "inception_4a/output"
  top: "inception_4b/pool"
  pooling_param {
    pool: MAX
    kernel_size: 3
    stride: 1
    pad: 1
  }
}
layer {
  name: "inception_4b/pool_proj"
  type: "Convolution"
  bottom: "inception_4b/pool"
  top: "inception_4b/pool_proj"
  param {
    lr_mult: 1
    decay_mult: 1
  }
  param {
    lr_mult: 2
    decay_mult: 0
  }
  convolution_param {
    num_output: 64
    kernel_size: 1
    weight_filler {
      type: "xavier"
      std: 0.1
    }
    bias_filler {
      type: "constant"
      value: 0.2
    }
  }
}
layer {
  name: "inception_4b/relu_pool_proj"
  type: "ReLU"
  bottom: "inception_4b/pool_proj"
  top: "inception_4b/pool_proj"
}
layer {
  name: "inception_4b/output"
  type: "Concat"
  bottom: "inception_4b/1x1"
  bottom: "inception_4b/3x3"
  bottom: "inception_4b/5x5"
  bottom: "inception_4b/pool_proj"
  top: "inception_4b/output"
}
layer {
  name: "inception_4c/1x1"
  type: "Convolution"
  bottom: "inception_4b/output"
  top: "inception_4c/1x1"
  param {
    lr_mult: 1
    decay_mult: 1
  }
  param {
    lr_mult: 2
    decay_mult: 0
  }
  convolution_param {
    num_output: 128
    kernel_size: 1
    weight_filler {
      type: "xavier"
      std: 0.03
    }
    bias_filler {
      type: "constant"
      value: 0.2
    }
  }
}
layer {
  name: "inception_4c/relu_1x1"
  type: "ReLU"
  bottom: "inception_4c/1x1"
  top: "inception_4c/1x1"
}
layer {
  name: "inception_4c/3x3_reduce"
  type: "Convolution"
  bottom: "inception_4b/output"
  top: "inception_4c/3x3_reduce"
  param {
    lr_mult: 1
    decay_mult: 1
  }
  param {
    lr_mult: 2
    decay_mult: 0
  }
  convolution_param {
    num_output: 128
    kernel_size: 1
    weight_filler {
      type: "xavier"
      std: 0.09
    }
    bias_filler {
      type: "constant"
      value: 0.2
    }
  }
}
layer {
  name: "inception_4c/relu_3x3_reduce"
  type: "ReLU"
  bottom: "inception_4c/3x3_reduce"
  top: "inception_4c/3x3_reduce"
}
layer {
  name: "inception_4c/3x3"
  type: "Convolution"
  bottom: "inception_4c/3x3_reduce"
  top: "inception_4c/3x3"
  param {
    lr_mult: 1
    decay_mult: 1
  }
  param {
    lr_mult: 2
    decay_mult: 0
  }
  convolution_param {
    num_output: 256
    pad: 1
    kernel_size: 3
    weight_filler {
      type: "xavier"
      std: 0.03
    }
    bias_filler {
      type: "constant"
      value: 0.2
    }
  }
}
layer {
  name: "inception_4c/relu_3x3"
  type: "ReLU"
  bottom: "inception_4c/3x3"
  top: "inception_4c/3x3"
}
layer {
  name: "inception_4c/5x5_reduce"
  type: "Convolution"
  bottom: "inception_4b/output"
  top: "inception_4c/5x5_reduce"
  param {
    lr_mult: 1
    decay_mult: 1
  }
  param {
    lr_mult: 2
    decay_mult: 0
  }
  convolution_param {
    num_output: 24
    kernel_size: 1
    weight_filler {
      type: "xavier"
      std: 0.2
    }
    bias_filler {
      type: "constant"
      value: 0.2
    }
  }
}
layer {
  name: "inception_4c/relu_5x5_reduce"
  type: "ReLU"
  bottom: "inception_4c/5x5_reduce"
  top: "inception_4c/5x5_reduce"
}
layer {
  name: "inception_4c/5x5"
  type: "Convolution"
  bottom: "inception_4c/5x5_reduce"
  top: "inception_4c/5x5"
  param {
    lr_mult: 1
    decay_mult: 1
  }
  param {
    lr_mult: 2
    decay_mult: 0
  }
  convolution_param {
    num_output: 64
    pad: 2
    kernel_size: 5
    weight_filler {
      type: "xavier"
      std: 0.03
    }
    bias_filler {
      type: "constant"
      value: 0.2
    }
  }
}
layer {
  name: "inception_4c/relu_5x5"
  type: "ReLU"
  bottom: "inception_4c/5x5"
  top: "inception_4c/5x5"
}
layer {
  name: "inception_4c/pool"
  type: "Pooling"
  bottom: "inception_4b/output"
  top: "inception_4c/pool"
  pooling_param {
    pool: MAX
    kernel_size: 3
    stride: 1
    pad: 1
  }
}
layer {
  name: "inception_4c/pool_proj"
  type: "Convolution"
  bottom: "inception_4c/pool"
  top: "inception_4c/pool_proj"
  param {
    lr_mult: 1
    decay_mult: 1
  }
  param {
    lr_mult: 2
    decay_mult: 0
  }
  convolution_param {
    num_output: 64
    kernel_size: 1
    weight_filler {
      type: "xavier"
      std: 0.1
    }
    bias_filler {
      type: "constant"
      value: 0.2
    }
  }
}
layer {
  name: "inception_4c/relu_pool_proj"
  type: "ReLU"
  bottom: "inception_4c/pool_proj"
  top: "inception_4c/pool_proj"
}
layer {
  name: "inception_4c/output"
  type: "Concat"
  bottom: "inception_4c/1x1"
  bottom: "inception_4c/3x3"
  bottom: "inception_4c/5x5"
  bottom: "inception_4c/pool_proj"
  top: "inception_4c/output"
}
layer {
  name: "inception_4d/1x1"
  type: "Convolution"
  bottom: "inception_4c/output"
  top: "inception_4d/1x1"
  param {
    lr_mult: 1
    decay_mult: 1
  }
  param {
    lr_mult: 2
    decay_mult: 0
  }
  convolution_param {
    num_output: 112
    kernel_size: 1
    weight_filler {
      type: "xavier"
      std: 0.03
    }
    bias_filler {
      type: "constant"
      value: 0.2
    }
  }
}
layer {
  name: "inception_4d/relu_1x1"
  type: "ReLU"
  bottom: "inception_4d/1x1"
  top: "inception_4d/1x1"
}
layer {
  name: "inception_4d/3x3_reduce"
  type: "Convolution"
  bottom: "inception_4c/output"
  top: "inception_4d/3x3_reduce"
  param {
    lr_mult: 1
    decay_mult: 1
  }
  param {
    lr_mult: 2
    decay_mult: 0
  }
  convolution_param {
    num_output: 144
    kernel_size: 1
    weight_filler {
      type: "xavier"
      std: 0.09
    }
    bias_filler {
      type: "constant"
      value: 0.2
    }
  }
}
layer {
  name: "inception_4d/relu_3x3_reduce"
  type: "ReLU"
  bottom: "inception_4d/3x3_reduce"
  top: "inception_4d/3x3_reduce"
}
layer {
  name: "inception_4d/3x3"
  type: "Convolution"
  bottom: "inception_4d/3x3_reduce"
  top: "inception_4d/3x3"
  param {
    lr_mult: 1
    decay_mult: 1
  }
  param {
    lr_mult: 2
    decay_mult: 0
  }
  convolution_param {
    num_output: 288
    pad: 1
    kernel_size: 3
    weight_filler {
      type: "xavier"
      std: 0.03
    }
    bias_filler {
      type: "constant"
      value: 0.2
    }
  }
}
layer {
  name: "inception_4d/relu_3x3"
  type: "ReLU"
  bottom: "inception_4d/3x3"
  top: "inception_4d/3x3"
}
layer {
  name: "inception_4d/5x5_reduce"
  type: "Convolution"
  bottom: "inception_4c/output"
  top: "inception_4d/5x5_reduce"
  param {
    lr_mult: 1
    decay_mult: 1
  }
  param {
    lr_mult: 2
    decay_mult: 0
  }
  convolution_param {
    num_output: 32
    kernel_size: 1
    weight_filler {
      type: "xavier"
      std: 0.2
    }
    bias_filler {
      type: "constant"
      value: 0.2
    }
  }
}
layer {
  name: "inception_4d/relu_5x5_reduce"
  type: "ReLU"
  bottom: "inception_4d/5x5_reduce"
  top: "inception_4d/5x5_reduce"
}
layer {
  name: "inception_4d/5x5"
  type: "Convolution"
  bottom: "inception_4d/5x5_reduce"
  top: "inception_4d/5x5"
  param {
    lr_mult: 1
    decay_mult: 1
  }
  param {
    lr_mult: 2
    decay_mult: 0
  }
  convolution_param {
    num_output: 64
    pad: 2
    kernel_size: 5
    weight_filler {
      type: "xavier"
      std: 0.03
    }
    bias_filler {
      type: "constant"
      value: 0.2
    }
  }
}
layer {
  name: "inception_4d/relu_5x5"
  type: "ReLU"
  bottom: "inception_4d/5x5"
  top: "inception_4d/5x5"
}
layer {
  name: "inception_4d/pool"
  type: "Pooling"
  bottom: "inception_4c/output"
  top: "inception_4d/pool"
  pooling_param {
    pool: MAX
    kernel_size: 3
    stride: 1
    pad: 1
  }
}
layer {
  name: "inception_4d/pool_proj"
  type: "Convolution"
  bottom: "inception_4d/pool"
  top: "inception_4d/pool_proj"
  param {
    lr_mult: 1
    decay_mult: 1
  }
  param {
    lr_mult: 2
    decay_mult: 0
  }
  convolution_param {
    num_output: 64
    kernel_size: 1
    weight_filler {
      type: "xavier"
      std: 0.1
    }
    bias_filler {
      type: "constant"
      value: 0.2
    }
  }
}
layer {
  name: "inception_4d/relu_pool_proj"
  type: "ReLU"
  bottom: "inception_4d/pool_proj"
  top: "inception_4d/pool_proj"
}
layer {
  name: "inception_4d/output"
  type: "Concat"
  bottom: "inception_4d/1x1"
  bottom: "inception_4d/3x3"
  bottom: "inception_4d/5x5"
  bottom: "inception_4d/pool_proj"
  top: "inception_4d/output"
}
layer {
  name: "loss2/ave_pool"
  type: "Pooling"
  bottom: "inception_4d/output"
  top: "loss2/ave_pool"
  pooling_param {
    pool: AVE
    kernel_size: 5
    stride: 3
  }
}
layer {
  name: "loss2/conv"
  type: "Convolution"
  bottom: "loss2/ave_pool"
  top: "loss2/conv"
  param {
    lr_mult: 1
    decay_mult: 1
  }
  param {
    lr_mult: 2
    decay_mult: 0
  }
  convolution_param {
    num_output: 128
    kernel_size: 1
    weight_filler {
      type: "xavier"
      std: 0.08
    }
    bias_filler {
      type: "constant"
      value: 0.2
    }
  }
}
layer {
  name: "loss2/relu_conv"
  type: "ReLU"
  bottom: "loss2/conv"
  top: "loss2/conv"
}
layer {
  name: "loss2/fc"
  type: "InnerProduct"
  bottom: "loss2/conv"
  top: "loss2/fc"
  param {
    lr_mult: 1
    decay_mult: 1
  }
  param {
    lr_mult: 2
    decay_mult: 0
  }
  inner_product_param {
    num_output: 1024
    weight_filler {
      type: "xavier"
      std: 0.02
    }
    bias_filler {
      type: "constant"
      value: 0.2
    }
  }
}
layer {
  name: "loss2/relu_fc"
  type: "ReLU"
  bottom: "loss2/fc"
  top: "loss2/fc"
}
layer {
  name: "loss2/drop_fc"
  type: "Dropout"
  bottom: "loss2/fc"
  top: "loss2/fc"
  dropout_param {
    dropout_ratio: 0.7
  }
}
layer {
  name: "loss2/classifier_plantvillage"
  type: "InnerProduct"
  bottom: "loss2/fc"
  top: "loss2/classifier_plantvillage"
  param {
    lr_mult: 1
    decay_mult: 1
  }
  param {
    lr_mult: 2
    decay_mult: 0
  }
  inner_product_param {
    num_output: 38
    weight_filler {
      type: "xavier"
      std: 0.0009765625
    }
    bias_filler {
      type: "constant"
      value: 0
    }
  }
}
layer {
  name: "inception_4e/1x1"
  type: "Convolution"
  bottom: "inception_4d/output"
  top: "inception_4e/1x1"
  param {
    lr_mult: 1
    decay_mult: 1
  }
  param {
    lr_mult: 2
    decay_mult: 0
  }
  convolution_param {
    num_output: 256
    kernel_size: 1
    weight_filler {
      type: "xavier"
      std: 0.03
    }
    bias_filler {
      type: "constant"
      value: 0.2
    }
  }
}
layer {
  name: "inception_4e/relu_1x1"
  type: "ReLU"
  bottom: "inception_4e/1x1"
  top: "inception_4e/1x1"
}
layer {
  name: "inception_4e/3x3_reduce"
  type: "Convolution"
  bottom: "inception_4d/output"
  top: "inception_4e/3x3_reduce"
  param {
    lr_mult: 1
    decay_mult: 1
  }
  param {
    lr_mult: 2
    decay_mult: 0
  }
  convolution_param {
    num_output: 160
    kernel_size: 1
    weight_filler {
      type: "xavier"
      std: 0.09
    }
    bias_filler {
      type: "constant"
      value: 0.2
    }
  }
}
layer {
  name: "inception_4e/relu_3x3_reduce"
  type: "ReLU"
  bottom: "inception_4e/3x3_reduce"
  top: "inception_4e/3x3_reduce"
}
layer {
  name: "inception_4e/3x3"
  type: "Convolution"
  bottom: "inception_4e/3x3_reduce"
  top: "inception_4e/3x3"
  param {
    lr_mult: 1
    decay_mult: 1
  }
  param {
    lr_mult: 2
    decay_mult: 0
  }
  convolution_param {
    num_output: 320
    pad: 1
    kernel_size: 3
    weight_filler {
      type: "xavier"
      std: 0.03
    }
    bias_filler {
      type: "constant"
      value: 0.2
    }
  }
}
layer {
  name: "inception_4e/relu_3x3"
  type: "ReLU"
  bottom: "inception_4e/3x3"
  top: "inception_4e/3x3"
}
layer {
  name: "inception_4e/5x5_reduce"
  type: "Convolution"
  bottom: "inception_4d/output"
  top: "inception_4e/5x5_reduce"
  param {
    lr_mult: 1
    decay_mult: 1
  }
  param {
    lr_mult: 2
    decay_mult: 0
  }
  convolution_param {
    num_output: 32
    kernel_size: 1
    weight_filler {
      type: "xavier"
      std: 0.2
    }
    bias_filler {
      type: "constant"
      value: 0.2
    }
  }
}
layer {
  name: "inception_4e/relu_5x5_reduce"
  type: "ReLU"
  bottom: "inception_4e/5x5_reduce"
  top: "inception_4e/5x5_reduce"
}
layer {
  name: "inception_4e/5x5"
  type: "Convolution"
  bottom: "inception_4e/5x5_reduce"
  top: "inception_4e/
I0403 15:21:57.457778 11876 layer_factory.hpp:77] Creating layer data
I0403 15:21:57.458380 11876 net.cpp:91] Creating Layer data
I0403 15:21:57.458415 11876 net.cpp:399] data -> data
I0403 15:21:57.458466 11876 net.cpp:399] data -> label
I0403 15:21:57.458503 11876 data_transformer.cpp:25] Loading mean file from: /home/mohanty/data/final_dataset/lmdb/segmented-40-60/mean.binaryproto
I0403 15:21:57.461742 11879 db_lmdb.cpp:38] Opened lmdb /home/mohanty/data/final_dataset/lmdb/segmented-40-60/test_db
I0403 15:21:57.472021 11876 data_layer.cpp:41] output data size: 24,3,224,224
I0403 15:21:57.499079 11876 net.cpp:141] Setting up data
I0403 15:21:57.499179 11876 net.cpp:148] Top shape: 24 3 224 224 (3612672)
I0403 15:21:57.499200 11876 net.cpp:148] Top shape: 24 (24)
I0403 15:21:57.499215 11876 net.cpp:156] Memory required for data: 14450784
I0403 15:21:57.499241 11876 layer_factory.hpp:77] Creating layer label_data_1_split
I0403 15:21:57.499266 11876 net.cpp:91] Creating Layer label_data_1_split
I0403 15:21:57.499284 11876 net.cpp:425] label_data_1_split <- label
I0403 15:21:57.499315 11876 net.cpp:399] label_data_1_split -> label_data_1_split_0
I0403 15:21:57.499346 11876 net.cpp:399] label_data_1_split -> label_data_1_split_1
I0403 15:21:57.499366 11876 net.cpp:399] label_data_1_split -> label_data_1_split_2
I0403 15:21:57.499385 11876 net.cpp:399] label_data_1_split -> label_data_1_split_3
I0403 15:21:57.499404 11876 net.cpp:399] label_data_1_split -> label_data_1_split_4
I0403 15:21:57.499425 11876 net.cpp:399] label_data_1_split -> label_data_1_split_5
I0403 15:21:57.499444 11876 net.cpp:399] label_data_1_split -> label_data_1_split_6
I0403 15:21:57.499464 11876 net.cpp:399] label_data_1_split -> label_data_1_split_7
I0403 15:21:57.499481 11876 net.cpp:399] label_data_1_split -> label_data_1_split_8
I0403 15:21:57.499500 11876 net.cpp:399] label_data_1_split -> label_data_1_split_9
I0403 15:21:57.499614 11876 net.cpp:141] Setting up label_data_1_split
I0403 15:21:57.499635 11876 net.cpp:148] Top shape: 24 (24)
I0403 15:21:57.499652 11876 net.cpp:148] Top shape: 24 (24)
I0403 15:21:57.499668 11876 net.cpp:148] Top shape: 24 (24)
I0403 15:21:57.499683 11876 net.cpp:148] Top shape: 24 (24)
I0403 15:21:57.499697 11876 net.cpp:148] Top shape: 24 (24)
I0403 15:21:57.499711 11876 net.cpp:148] Top shape: 24 (24)
I0403 15:21:57.499727 11876 net.cpp:148] Top shape: 24 (24)
I0403 15:21:57.499742 11876 net.cpp:148] Top shape: 24 (24)
I0403 15:21:57.499757 11876 net.cpp:148] Top shape: 24 (24)
I0403 15:21:57.499771 11876 net.cpp:148] Top shape: 24 (24)
I0403 15:21:57.499816 11876 net.cpp:156] Memory required for data: 14451744
I0403 15:21:57.499832 11876 layer_factory.hpp:77] Creating layer conv1/7x7_s2
I0403 15:21:57.499862 11876 net.cpp:91] Creating Layer conv1/7x7_s2
I0403 15:21:57.499881 11876 net.cpp:425] conv1/7x7_s2 <- data
I0403 15:21:57.499899 11876 net.cpp:399] conv1/7x7_s2 -> conv1/7x7_s2
I0403 15:21:57.639166 11876 net.cpp:141] Setting up conv1/7x7_s2
I0403 15:21:57.639253 11876 net.cpp:148] Top shape: 24 64 112 112 (19267584)
I0403 15:21:57.639271 11876 net.cpp:156] Memory required for data: 91522080
I0403 15:21:57.639300 11876 layer_factory.hpp:77] Creating layer conv1/relu_7x7
I0403 15:21:57.639328 11876 net.cpp:91] Creating Layer conv1/relu_7x7
I0403 15:21:57.639345 11876 net.cpp:425] conv1/relu_7x7 <- conv1/7x7_s2
I0403 15:21:57.639370 11876 net.cpp:386] conv1/relu_7x7 -> conv1/7x7_s2 (in-place)
I0403 15:21:57.639626 11876 net.cpp:141] Setting up conv1/relu_7x7
I0403 15:21:57.639652 11876 net.cpp:148] Top shape: 24 64 112 112 (19267584)
I0403 15:21:57.639668 11876 net.cpp:156] Memory required for data: 168592416
I0403 15:21:57.639683 11876 layer_factory.hpp:77] Creating layer pool1/3x3_s2
I0403 15:21:57.639706 11876 net.cpp:91] Creating Layer pool1/3x3_s2
I0403 15:21:57.639724 11876 net.cpp:425] pool1/3x3_s2 <- conv1/7x7_s2
I0403 15:21:57.639742 11876 net.cpp:399] pool1/3x3_s2 -> pool1/3x3_s2
I0403 15:21:57.639816 11876 net.cpp:141] Setting up pool1/3x3_s2
I0403 15:21:57.639839 11876 net.cpp:148] Top shape: 24 64 56 56 (4816896)
I0403 15:21:57.639854 11876 net.cpp:156] Memory required for data: 187860000
I0403 15:21:57.639868 11876 layer_factory.hpp:77] Creating layer pool1/norm1
I0403 15:21:57.639892 11876 net.cpp:91] Creating Layer pool1/norm1
I0403 15:21:57.639909 11876 net.cpp:425] pool1/norm1 <- pool1/3x3_s2
I0403 15:21:57.639926 11876 net.cpp:399] pool1/norm1 -> pool1/norm1
I0403 15:21:57.640211 11876 net.cpp:141] Setting up pool1/norm1
I0403 15:21:57.640239 11876 net.cpp:148] Top shape: 24 64 56 56 (4816896)
I0403 15:21:57.640254 11876 net.cpp:156] Memory required for data: 207127584
I0403 15:21:57.640267 11876 layer_factory.hpp:77] Creating layer conv2/3x3_reduce
I0403 15:21:57.640291 11876 net.cpp:91] Creating Layer conv2/3x3_reduce
I0403 15:21:57.640307 11876 net.cpp:425] conv2/3x3_reduce <- pool1/norm1
I0403 15:21:57.640326 11876 net.cpp:399] conv2/3x3_reduce -> conv2/3x3_reduce
I0403 15:21:57.641639 11876 net.cpp:141] Setting up conv2/3x3_reduce
I0403 15:21:57.641669 11876 net.cpp:148] Top shape: 24 64 56 56 (4816896)
I0403 15:21:57.641685 11876 net.cpp:156] Memory required for data: 226395168
I0403 15:21:57.641705 11876 layer_factory.hpp:77] Creating layer conv2/relu_3x3_reduce
I0403 15:21:57.641724 11876 net.cpp:91] Creating Layer conv2/relu_3x3_reduce
I0403 15:21:57.641739 11876 net.cpp:425] conv2/relu_3x3_reduce <- conv2/3x3_reduce
I0403 15:21:57.641757 11876 net.cpp:386] conv2/relu_3x3_reduce -> conv2/3x3_reduce (in-place)
I0403 15:21:57.642006 11876 net.cpp:141] Setting up conv2/relu_3x3_reduce
I0403 15:21:57.642033 11876 net.cpp:148] Top shape: 24 64 56 56 (4816896)
I0403 15:21:57.642048 11876 net.cpp:156] Memory required for data: 245662752
I0403 15:21:57.642063 11876 layer_factory.hpp:77] Creating layer conv2/3x3
I0403 15:21:57.642084 11876 net.cpp:91] Creating Layer conv2/3x3
I0403 15:21:57.642102 11876 net.cpp:425] conv2/3x3 <- conv2/3x3_reduce
I0403 15:21:57.642119 11876 net.cpp:399] conv2/3x3 -> conv2/3x3
I0403 15:21:57.644325 11876 net.cpp:141] Setting up conv2/3x3
I0403 15:21:57.644357 11876 net.cpp:148] Top shape: 24 192 56 56 (14450688)
I0403 15:21:57.644376 11876 net.cpp:156] Memory required for data: 303465504
I0403 15:21:57.644395 11876 layer_factory.hpp:77] Creating layer conv2/relu_3x3
I0403 15:21:57.644414 11876 net.cpp:91] Creating Layer conv2/relu_3x3
I0403 15:21:57.644430 11876 net.cpp:425] conv2/relu_3x3 <- conv2/3x3
I0403 15:21:57.644446 11876 net.cpp:386] conv2/relu_3x3 -> conv2/3x3 (in-place)
I0403 15:21:57.644608 11876 net.cpp:141] Setting up conv2/relu_3x3
I0403 15:21:57.644631 11876 net.cpp:148] Top shape: 24 192 56 56 (14450688)
I0403 15:21:57.644678 11876 net.cpp:156] Memory required for data: 361268256
I0403 15:21:57.644695 11876 layer_factory.hpp:77] Creating layer conv2/norm2
I0403 15:21:57.644713 11876 net.cpp:91] Creating Layer conv2/norm2
I0403 15:21:57.644728 11876 net.cpp:425] conv2/norm2 <- conv2/3x3
I0403 15:21:57.644747 11876 net.cpp:399] conv2/norm2 -> conv2/norm2
I0403 15:21:57.645032 11876 net.cpp:141] Setting up conv2/norm2
I0403 15:21:57.645059 11876 net.cpp:148] Top shape: 24 192 56 56 (14450688)
I0403 15:21:57.645074 11876 net.cpp:156] Memory required for data: 419071008
I0403 15:21:57.645089 11876 layer_factory.hpp:77] Creating layer pool2/3x3_s2
I0403 15:21:57.645107 11876 net.cpp:91] Creating Layer pool2/3x3_s2
I0403 15:21:57.645123 11876 net.cpp:425] pool2/3x3_s2 <- conv2/norm2
I0403 15:21:57.645139 11876 net.cpp:399] pool2/3x3_s2 -> pool2/3x3_s2
I0403 15:21:57.645189 11876 net.cpp:141] Setting up pool2/3x3_s2
I0403 15:21:57.645210 11876 net.cpp:148] Top shape: 24 192 28 28 (3612672)
I0403 15:21:57.645225 11876 net.cpp:156] Memory required for data: 433521696
I0403 15:21:57.645239 11876 layer_factory.hpp:77] Creating layer pool2/3x3_s2_pool2/3x3_s2_0_split
I0403 15:21:57.645256 11876 net.cpp:91] Creating Layer pool2/3x3_s2_pool2/3x3_s2_0_split
I0403 15:21:57.645272 11876 net.cpp:425] pool2/3x3_s2_pool2/3x3_s2_0_split <- pool2/3x3_s2
I0403 15:21:57.645288 11876 net.cpp:399] pool2/3x3_s2_pool2/3x3_s2_0_split -> pool2/3x3_s2_pool2/3x3_s2_0_split_0
I0403 15:21:57.645319 11876 net.cpp:399] pool2/3x3_s2_pool2/3x3_s2_0_split -> pool2/3x3_s2_pool2/3x3_s2_0_split_1
I0403 15:21:57.645341 11876 net.cpp:399] pool2/3x3_s2_pool2/3x3_s2_0_split -> pool2/3x3_s2_pool2/3x3_s2_0_split_2
I0403 15:21:57.645367 11876 net.cpp:399] pool2/3x3_s2_pool2/3x3_s2_0_split -> pool2/3x3_s2_pool2/3x3_s2_0_split_3
I0403 15:21:57.645433 11876 net.cpp:141] Setting up pool2/3x3_s2_pool2/3x3_s2_0_split
I0403 15:21:57.645457 11876 net.cpp:148] Top shape: 24 192 28 28 (3612672)
I0403 15:21:57.645473 11876 net.cpp:148] Top shape: 24 192 28 28 (3612672)
I0403 15:21:57.645488 11876 net.cpp:148] Top shape: 24 192 28 28 (3612672)
I0403 15:21:57.645505 11876 net.cpp:148] Top shape: 24 192 28 28 (3612672)
I0403 15:21:57.645519 11876 net.cpp:156] Memory required for data: 491324448
I0403 15:21:57.645534 11876 layer_factory.hpp:77] Creating layer inception_3a/1x1
I0403 15:21:57.645555 11876 net.cpp:91] Creating Layer inception_3a/1x1
I0403 15:21:57.645571 11876 net.cpp:425] inception_3a/1x1 <- pool2/3x3_s2_pool2/3x3_s2_0_split_0
I0403 15:21:57.645589 11876 net.cpp:399] inception_3a/1x1 -> inception_3a/1x1
I0403 15:21:57.647084 11876 net.cpp:141] Setting up inception_3a/1x1
I0403 15:21:57.647114 11876 net.cpp:148] Top shape: 24 64 28 28 (1204224)
I0403 15:21:57.647130 11876 net.cpp:156] Memory required for data: 496141344
I0403 15:21:57.647148 11876 layer_factory.hpp:77] Creating layer inception_3a/relu_1x1
I0403 15:21:57.647168 11876 net.cpp:91] Creating Layer inception_3a/relu_1x1
I0403 15:21:57.647184 11876 net.cpp:425] inception_3a/relu_1x1 <- inception_3a/1x1
I0403 15:21:57.647202 11876 net.cpp:386] inception_3a/relu_1x1 -> inception_3a/1x1 (in-place)
I0403 15:21:57.647397 11876 net.cpp:141] Setting up inception_3a/relu_1x1
I0403 15:21:57.647425 11876 net.cpp:148] Top shape: 24 64 28 28 (1204224)
I0403 15:21:57.647441 11876 net.cpp:156] Memory required for data: 500958240
I0403 15:21:57.647457 11876 layer_factory.hpp:77] Creating layer inception_3a/3x3_reduce
I0403 15:21:57.647480 11876 net.cpp:91] Creating Layer inception_3a/3x3_reduce
I0403 15:21:57.647497 11876 net.cpp:425] inception_3a/3x3_reduce <- pool2/3x3_s2_pool2/3x3_s2_0_split_1
I0403 15:21:57.647516 11876 net.cpp:399] inception_3a/3x3_reduce -> inception_3a/3x3_reduce
I0403 15:21:57.649229 11876 net.cpp:141] Setting up inception_3a/3x3_reduce
I0403 15:21:57.649258 11876 net.cpp:148] Top shape: 24 96 28 28 (1806336)
I0403 15:21:57.649273 11876 net.cpp:156] Memory required for data: 508183584
I0403 15:21:57.649294 11876 layer_factory.hpp:77] Creating layer inception_3a/relu_3x3_reduce
I0403 15:21:57.649333 11876 net.cpp:91] Creating Layer inception_3a/relu_3x3_reduce
I0403 15:21:57.649358 11876 net.cpp:425] inception_3a/relu_3x3_reduce <- inception_3a/3x3_reduce
I0403 15:21:57.649379 11876 net.cpp:386] inception_3a/relu_3x3_reduce -> inception_3a/3x3_reduce (in-place)
I0403 15:21:57.649569 11876 net.cpp:141] Setting up inception_3a/relu_3x3_reduce
I0403 15:21:57.649593 11876 net.cpp:148] Top shape: 24 96 28 28 (1806336)
I0403 15:21:57.649608 11876 net.cpp:156] Memory required for data: 515408928
I0403 15:21:57.649624 11876 layer_factory.hpp:77] Creating layer inception_3a/3x3
I0403 15:21:57.649646 11876 net.cpp:91] Creating Layer inception_3a/3x3
I0403 15:21:57.649664 11876 net.cpp:425] inception_3a/3x3 <- inception_3a/3x3_reduce
I0403 15:21:57.649687 11876 net.cpp:399] inception_3a/3x3 -> inception_3a/3x3
I0403 15:21:57.651378 11876 net.cpp:141] Setting up inception_3a/3x3
I0403 15:21:57.651409 11876 net.cpp:148] Top shape: 24 128 28 28 (2408448)
I0403 15:21:57.651427 11876 net.cpp:156] Memory required for data: 525042720
I0403 15:21:57.651445 11876 layer_factory.hpp:77] Creating layer inception_3a/relu_3x3
I0403 15:21:57.651463 11876 net.cpp:91] Creating Layer inception_3a/relu_3x3
I0403 15:21:57.651480 11876 net.cpp:425] inception_3a/relu_3x3 <- inception_3a/3x3
I0403 15:21:57.651499 11876 net.cpp:386] inception_3a/relu_3x3 -> inception_3a/3x3 (in-place)
I0403 15:21:57.651780 11876 net.cpp:141] Setting up inception_3a/relu_3x3
I0403 15:21:57.651811 11876 net.cpp:148] Top shape: 24 128 28 28 (2408448)
I0403 15:21:57.651829 11876 net.cpp:156] Memory required for data: 534676512
I0403 15:21:57.651844 11876 layer_factory.hpp:77] Creating layer inception_3a/5x5_reduce
I0403 15:21:57.651866 11876 net.cpp:91] Creating Layer inception_3a/5x5_reduce
I0403 15:21:57.651885 11876 net.cpp:425] inception_3a/5x5_reduce <- pool2/3x3_s2_pool2/3x3_s2_0_split_2
I0403 15:21:57.651903 11876 net.cpp:399] inception_3a/5x5_reduce -> inception_3a/5x5_reduce
I0403 15:21:57.652896 11876 net.cpp:141] Setting up inception_3a/5x5_reduce
I0403 15:21:57.652926 11876 net.cpp:148] Top shape: 24 16 28 28 (301056)
I0403 15:21:57.652943 11876 net.cpp:156] Memory required for data: 535880736
I0403 15:21:57.652962 11876 layer_factory.hpp:77] Creating layer inception_3a/relu_5x5_reduce
I0403 15:21:57.652981 11876 net.cpp:91] Creating Layer inception_3a/relu_5x5_reduce
I0403 15:21:57.652997 11876 net.cpp:425] inception_3a/relu_5x5_reduce <- inception_3a/5x5_reduce
I0403 15:21:57.653017 11876 net.cpp:386] inception_3a/relu_5x5_reduce -> inception_3a/5x5_reduce (in-place)
I0403 15:21:57.653337 11876 net.cpp:141] Setting up inception_3a/relu_5x5_reduce
I0403 15:21:57.653375 11876 net.cpp:148] Top shape: 24 16 28 28 (301056)
I0403 15:21:57.653393 11876 net.cpp:156] Memory required for data: 537084960
I0403 15:21:57.653409 11876 layer_factory.hpp:77] Creating layer inception_3a/5x5
I0403 15:21:57.653431 11876 net.cpp:91] Creating Layer inception_3a/5x5
I0403 15:21:57.653450 11876 net.cpp:425] inception_3a/5x5 <- inception_3a/5x5_reduce
I0403 15:21:57.653473 11876 net.cpp:399] inception_3a/5x5 -> inception_3a/5x5
I0403 15:21:57.654532 11876 net.cpp:141] Setting up inception_3a/5x5
I0403 15:21:57.654561 11876 net.cpp:148] Top shape: 24 32 28 28 (602112)
I0403 15:21:57.654577 11876 net.cpp:156] Memory required for data: 539493408
I0403 15:21:57.654597 11876 layer_factory.hpp:77] Creating layer inception_3a/relu_5x5
I0403 15:21:57.654618 11876 net.cpp:91] Creating Layer inception_3a/relu_5x5
I0403 15:21:57.654635 11876 net.cpp:425] inception_3a/relu_5x5 <- inception_3a/5x5
I0403 15:21:57.654652 11876 net.cpp:386] inception_3a/relu_5x5 -> inception_3a/5x5 (in-place)
I0403 15:21:57.654831 11876 net.cpp:141] Setting up inception_3a/relu_5x5
I0403 15:21:57.654860 11876 net.cpp:148] Top shape: 24 32 28 28 (602112)
I0403 15:21:57.654875 11876 net.cpp:156] Memory required for data: 541901856
I0403 15:21:57.654891 11876 layer_factory.hpp:77] Creating layer inception_3a/pool
I0403 15:21:57.654908 11876 net.cpp:91] Creating Layer inception_3a/pool
I0403 15:21:57.654942 11876 net.cpp:425] inception_3a/pool <- pool2/3x3_s2_pool2/3x3_s2_0_split_3
I0403 15:21:57.654963 11876 net.cpp:399] inception_3a/pool -> inception_3a/pool
I0403 15:21:57.655022 11876 net.cpp:141] Setting up inception_3a/pool
I0403 15:21:57.655046 11876 net.cpp:148] Top shape: 24 192 28 28 (3612672)
I0403 15:21:57.655061 11876 net.cpp:156] Memory required for data: 556352544
I0403 15:21:57.655076 11876 layer_factory.hpp:77] Creating layer inception_3a/pool_proj
I0403 15:21:57.655098 11876 net.cpp:91] Creating Layer inception_3a/pool_proj
I0403 15:21:57.655115 11876 net.cpp:425] inception_3a/pool_proj <- inception_3a/pool
I0403 15:21:57.655138 11876 net.cpp:399] inception_3a/pool_proj -> inception_3a/pool_proj
I0403 15:21:57.656131 11876 net.cpp:141] Setting up inception_3a/pool_proj
I0403 15:21:57.656159 11876 net.cpp:148] Top shape: 24 32 28 28 (602112)
I0403 15:21:57.656175 11876 net.cpp:156] Memory required for data: 558760992
I0403 15:21:57.656198 11876 layer_factory.hpp:77] Creating layer inception_3a/relu_pool_proj
I0403 15:21:57.656219 11876 net.cpp:91] Creating Layer inception_3a/relu_pool_proj
I0403 15:21:57.656234 11876 net.cpp:425] inception_3a/relu_pool_proj <- inception_3a/pool_proj
I0403 15:21:57.656254 11876 net.cpp:386] inception_3a/relu_pool_proj -> inception_3a/pool_proj (in-place)
I0403 15:21:57.656536 11876 net.cpp:141] Setting up inception_3a/relu_pool_proj
I0403 15:21:57.656566 11876 net.cpp:148] Top shape: 24 32 28 28 (602112)
I0403 15:21:57.656584 11876 net.cpp:156] Memory required for data: 561169440
I0403 15:21:57.656599 11876 layer_factory.hpp:77] Creating layer inception_3a/output
I0403 15:21:57.656616 11876 net.cpp:91] Creating Layer inception_3a/output
I0403 15:21:57.656631 11876 net.cpp:425] inception_3a/output <- inception_3a/1x1
I0403 15:21:57.656647 11876 net.cpp:425] inception_3a/output <- inception_3a/3x3
I0403 15:21:57.656663 11876 net.cpp:425] inception_3a/output <- inception_3a/5x5
I0403 15:21:57.656679 11876 net.cpp:425] inception_3a/output <- inception_3a/pool_proj
I0403 15:21:57.656697 11876 net.cpp:399] inception_3a/output -> inception_3a/output
I0403 15:21:57.656745 11876 net.cpp:141] Setting up inception_3a/output
I0403 15:21:57.656769 11876 net.cpp:148] Top shape: 24 256 28 28 (4816896)
I0403 15:21:57.656783 11876 net.cpp:156] Memory required for data: 580437024
I0403 15:21:57.656798 11876 layer_factory.hpp:77] Creating layer inception_3a/output_inception_3a/output_0_split
I0403 15:21:57.656816 11876 net.cpp:91] Creating Layer inception_3a/output_inception_3a/output_0_split
I0403 15:21:57.656834 11876 net.cpp:425] inception_3a/output_inception_3a/output_0_split <- inception_3a/output
I0403 15:21:57.656852 11876 net.cpp:399] inception_3a/output_inception_3a/output_0_split -> inception_3a/output_inception_3a/output_0_split_0
I0403 15:21:57.656872 11876 net.cpp:399] inception_3a/output_inception_3a/output_0_split -> inception_3a/output_inception_3a/output_0_split_1
I0403 15:21:57.656896 11876 net.cpp:399] inception_3a/output_inception_3a/output_0_split -> inception_3a/output_inception_3a/output_0_split_2
I0403 15:21:57.656919 11876 net.cpp:399] inception_3a/output_inception_3a/output_0_split -> inception_3a/output_inception_3a/output_0_split_3
I0403 15:21:57.656994 11876 net.cpp:141] Setting up inception_3a/output_inception_3a/output_0_split
I0403 15:21:57.657017 11876 net.cpp:148] Top shape: 24 256 28 28 (4816896)
I0403 15:21:57.657034 11876 net.cpp:148] Top shape: 24 256 28 28 (4816896)
I0403 15:21:57.657050 11876 net.cpp:148] Top shape: 24 256 28 28 (4816896)
I0403 15:21:57.657066 11876 net.cpp:148] Top shape: 24 256 28 28 (4816896)
I0403 15:21:57.657080 11876 net.cpp:156] Memory required for data: 657507360
I0403 15:21:57.657095 11876 layer_factory.hpp:77] Creating layer inception_3b/1x1
I0403 15:21:57.657117 11876 net.cpp:91] Creating Layer inception_3b/1x1
I0403 15:21:57.657135 11876 net.cpp:425] inception_3b/1x1 <- inception_3a/output_inception_3a/output_0_split_0
I0403 15:21:57.657157 11876 net.cpp:399] inception_3b/1x1 -> inception_3b/1x1
I0403 15:21:57.658330 11876 net.cpp:141] Setting up inception_3b/1x1
I0403 15:21:57.658373 11876 net.cpp:148] Top shape: 24 128 28 28 (2408448)
I0403 15:21:57.658390 11876 net.cpp:156] Memory required for data: 667141152
I0403 15:21:57.658406 11876 layer_factory.hpp:77] Creating layer inception_3b/relu_1x1
I0403 15:21:57.658427 11876 net.cpp:91] Creating Layer inception_3b/relu_1x1
I0403 15:21:57.658443 11876 net.cpp:425] inception_3b/relu_1x1 <- inception_3b/1x1
I0403 15:21:57.658462 11876 net.cpp:386] inception_3b/relu_1x1 -> inception_3b/1x1 (in-place)
I0403 15:21:57.658638 11876 net.cpp:141] Setting up inception_3b/relu_1x1
I0403 15:21:57.658664 11876 net.cpp:148] Top shape: 24 128 28 28 (2408448)
I0403 15:21:57.658679 11876 net.cpp:156] Memory required for data: 676774944
I0403 15:21:57.658694 11876 layer_factory.hpp:77] Creating layer inception_3b/3x3_reduce
I0403 15:21:57.658715 11876 net.cpp:91] Creating Layer inception_3b/3x3_reduce
I0403 15:21:57.658732 11876 net.cpp:425] inception_3b/3x3_reduce <- inception_3a/output_inception_3a/output_0_split_1
I0403 15:21:57.658751 11876 net.cpp:399] inception_3b/3x3_reduce -> inception_3b/3x3_reduce
I0403 15:21:57.659924 11876 net.cpp:141] Setting up inception_3b/3x3_reduce
I0403 15:21:57.659951 11876 net.cpp:148] Top shape: 24 128 28 28 (2408448)
I0403 15:21:57.659966 11876 net.cpp:156] Memory required for data: 686408736
I0403 15:21:57.659984 11876 layer_factory.hpp:77] Creating layer inception_3b/relu_3x3_reduce
I0403 15:21:57.660006 11876 net.cpp:91] Creating Layer inception_3b/relu_3x3_reduce
I0403 15:21:57.660022 11876 net.cpp:425] inception_3b/relu_3x3_reduce <- inception_3b/3x3_reduce
I0403 15:21:57.660039 11876 net.cpp:386] inception_3b/relu_3x3_reduce -> inception_3b/3x3_reduce (in-place)
I0403 15:21:57.660212 11876 net.cpp:141] Setting up inception_3b/relu_3x3_reduce
I0403 15:21:57.660238 11876 net.cpp:148] Top shape: 24 128 28 28 (2408448)
I0403 15:21:57.660251 11876 net.cpp:156] Memory required for data: 696042528
I0403 15:21:57.660266 11876 layer_factory.hpp:77] Creating layer inception_3b/3x3
I0403 15:21:57.660291 11876 net.cpp:91] Creating Layer inception_3b/3x3
I0403 15:21:57.660308 11876 net.cpp:425] inception_3b/3x3 <- inception_3b/3x3_reduce
I0403 15:21:57.660329 11876 net.cpp:399] inception_3b/3x3 -> inception_3b/3x3
I0403 15:21:57.663218 11876 net.cpp:141] Setting up inception_3b/3x3
I0403 15:21:57.663251 11876 net.cpp:148] Top shape: 24 192 28 28 (3612672)
I0403 15:21:57.663267 11876 net.cpp:156] Memory required for data: 710493216
I0403 15:21:57.663286 11876 layer_factory.hpp:77] Creating layer inception_3b/relu_3x3
I0403 15:21:57.663305 11876 net.cpp:91] Creating Layer inception_3b/relu_3x3
I0403 15:21:57.663321 11876 net.cpp:425] inception_3b/relu_3x3 <- inception_3b/3x3
I0403 15:21:57.663336 11876 net.cpp:386] inception_3b/relu_3x3 -> inception_3b/3x3 (in-place)
I0403 15:21:57.663622 11876 net.cpp:141] Setting up inception_3b/relu_3x3
I0403 15:21:57.663651 11876 net.cpp:148] Top shape: 24 192 28 28 (3612672)
I0403 15:21:57.663667 11876 net.cpp:156] Memory required for data: 724943904
I0403 15:21:57.663682 11876 layer_factory.hpp:77] Creating layer inception_3b/5x5_reduce
I0403 15:21:57.663704 11876 net.cpp:91] Creating Layer inception_3b/5x5_reduce
I0403 15:21:57.663722 11876 net.cpp:425] inception_3b/5x5_reduce <- inception_3a/output_inception_3a/output_0_split_2
I0403 15:21:57.663740 11876 net.cpp:399] inception_3b/5x5_reduce -> inception_3b/5x5_reduce
I0403 15:21:57.664726 11876 net.cpp:141] Setting up inception_3b/5x5_reduce
I0403 15:21:57.664755 11876 net.cpp:148] Top shape: 24 32 28 28 (602112)
I0403 15:21:57.664770 11876 net.cpp:156] Memory required for data: 727352352
I0403 15:21:57.664788 11876 layer_factory.hpp:77] Creating layer inception_3b/relu_5x5_reduce
I0403 15:21:57.664805 11876 net.cpp:91] Creating Layer inception_3b/relu_5x5_reduce
I0403 15:21:57.664821 11876 net.cpp:425] inception_3b/relu_5x5_reduce <- inception_3b/5x5_reduce
I0403 15:21:57.664839 11876 net.cpp:386] inception_3b/relu_5x5_reduce -> inception_3b/5x5_reduce (in-place)
I0403 15:21:57.665031 11876 net.cpp:141] Setting up inception_3b/relu_5x5_reduce
I0403 15:21:57.665058 11876 net.cpp:148] Top shape: 24 32 28 28 (602112)
I0403 15:21:57.665073 11876 net.cpp:156] Memory required for data: 729760800
I0403 15:21:57.665087 11876 layer_factory.hpp:77] Creating layer inception_3b/5x5
I0403 15:21:57.665108 11876 net.cpp:91] Creating Layer inception_3b/5x5
I0403 15:21:57.665125 11876 net.cpp:425] inception_3b/5x5 <- inception_3b/5x5_reduce
I0403 15:21:57.665144 11876 net.cpp:399] inception_3b/5x5 -> inception_3b/5x5
I0403 15:21:57.667181 11876 net.cpp:141] Setting up inception_3b/5x5
I0403 15:21:57.667209 11876 net.cpp:148] Top shape: 24 96 28 28 (1806336)
I0403 15:21:57.667224 11876 net.cpp:156] Memory required for data: 736986144
I0403 15:21:57.667243 11876 layer_factory.hpp:77] Creating layer inception_3b/relu_5x5
I0403 15:21:57.667263 11876 net.cpp:91] Creating Layer inception_3b/relu_5x5
I0403 15:21:57.667279 11876 net.cpp:425] inception_3b/relu_5x5 <- inception_3b/5x5
I0403 15:21:57.667307 11876 net.cpp:386] inception_3b/relu_5x5 -> inception_3b/5x5 (in-place)
I0403 15:21:57.667505 11876 net.cpp:141] Setting up inception_3b/relu_5x5
I0403 15:21:57.667529 11876 net.cpp:148] Top shape: 24 96 28 28 (1806336)
I0403 15:21:57.667544 11876 net.cpp:156] Memory required for data: 744211488
I0403 15:21:57.667559 11876 layer_factory.hpp:77] Creating layer inception_3b/pool
I0403 15:21:57.667577 11876 net.cpp:91] Creating Layer inception_3b/pool
I0403 15:21:57.667593 11876 net.cpp:425] inception_3b/pool <- inception_3a/output_inception_3a/output_0_split_3
I0403 15:21:57.667623 11876 net.cpp:399] inception_3b/pool -> inception_3b/pool
I0403 15:21:57.667677 11876 net.cpp:141] Setting up inception_3b/pool
I0403 15:21:57.667700 11876 net.cpp:148] Top shape: 24 256 28 28 (4816896)
I0403 15:21:57.667713 11876 net.cpp:156] Memory required for data: 763479072
I0403 15:21:57.667727 11876 layer_factory.hpp:77] Creating layer inception_3b/pool_proj
I0403 15:21:57.667749 11876 net.cpp:91] Creating Layer inception_3b/pool_proj
I0403 15:21:57.667767 11876 net.cpp:425] inception_3b/pool_proj <- inception_3b/pool
I0403 15:21:57.667788 11876 net.cpp:399] inception_3b/pool_proj -> inception_3b/pool_proj
I0403 15:21:57.668807 11876 net.cpp:141] Setting up inception_3b/pool_proj
I0403 15:21:57.668836 11876 net.cpp:148] Top shape: 24 64 28 28 (1204224)
I0403 15:21:57.668853 11876 net.cpp:156] Memory required for data: 768295968
I0403 15:21:57.668869 11876 layer_factory.hpp:77] Creating layer inception_3b/relu_pool_proj
I0403 15:21:57.668887 11876 net.cpp:91] Creating Layer inception_3b/relu_pool_proj
I0403 15:21:57.668902 11876 net.cpp:425] inception_3b/relu_pool_proj <- inception_3b/pool_proj
I0403 15:21:57.668922 11876 net.cpp:386] inception_3b/relu_pool_proj -> inception_3b/pool_proj (in-place)
I0403 15:21:57.669303 11876 net.cpp:141] Setting up inception_3b/relu_pool_proj
I0403 15:21:57.669330 11876 net.cpp:148] Top shape: 24 64 28 28 (1204224)
I0403 15:21:57.669345 11876 net.cpp:156] Memory required for data: 773112864
I0403 15:21:57.669364 11876 layer_factory.hpp:77] Creating layer inception_3b/output
I0403 15:21:57.669383 11876 net.cpp:91] Creating Layer inception_3b/output
I0403 15:21:57.669397 11876 net.cpp:425] inception_3b/output <- inception_3b/1x1
I0403 15:21:57.669414 11876 net.cpp:425] inception_3b/output <- inception_3b/3x3
I0403 15:21:57.669428 11876 net.cpp:425] inception_3b/output <- inception_3b/5x5
I0403 15:21:57.669443 11876 net.cpp:425] inception_3b/output <- inception_3b/pool_proj
I0403 15:21:57.669459 11876 net.cpp:399] inception_3b/output -> inception_3b/output
I0403 15:21:57.669503 11876 net.cpp:141] Setting up inception_3b/output
I0403 15:21:57.669526 11876 net.cpp:148] Top shape: 24 480 28 28 (9031680)
I0403 15:21:57.669540 11876 net.cpp:156] Memory required for data: 809239584
I0403 15:21:57.669554 11876 layer_factory.hpp:77] Creating layer pool3/3x3_s2
I0403 15:21:57.669572 11876 net.cpp:91] Creating Layer pool3/3x3_s2
I0403 15:21:57.669589 11876 net.cpp:425] pool3/3x3_s2 <- inception_3b/output
I0403 15:21:57.669620 11876 net.cpp:399] pool3/3x3_s2 -> pool3/3x3_s2
I0403 15:21:57.669678 11876 net.cpp:141] Setting up pool3/3x3_s2
I0403 15:21:57.669700 11876 net.cpp:148] Top shape: 24 480 14 14 (2257920)
I0403 15:21:57.669714 11876 net.cpp:156] Memory required for data: 818271264
I0403 15:21:57.669728 11876 layer_factory.hpp:77] Creating layer pool3/3x3_s2_pool3/3x3_s2_0_split
I0403 15:21:57.669744 11876 net.cpp:91] Creating Layer pool3/3x3_s2_pool3/3x3_s2_0_split
I0403 15:21:57.669759 11876 net.cpp:425] pool3/3x3_s2_pool3/3x3_s2_0_split <- pool3/3x3_s2
I0403 15:21:57.669778 11876 net.cpp:399] pool3/3x3_s2_pool3/3x3_s2_0_split -> pool3/3x3_s2_pool3/3x3_s2_0_split_0
I0403 15:21:57.669798 11876 net.cpp:399] pool3/3x3_s2_pool3/3x3_s2_0_split -> pool3/3x3_s2_pool3/3x3_s2_0_split_1
I0403 15:21:57.669816 11876 net.cpp:399] pool3/3x3_s2_pool3/3x3_s2_0_split -> pool3/3x3_s2_pool3/3x3_s2_0_split_2
I0403 15:21:57.669836 11876 net.cpp:399] pool3/3x3_s2_pool3/3x3_s2_0_split -> pool3/3x3_s2_pool3/3x3_s2_0_split_3
I0403 15:21:57.669910 11876 net.cpp:141] Setting up pool3/3x3_s2_pool3/3x3_s2_0_split
I0403 15:21:57.669934 11876 net.cpp:148] Top shape: 24 480 14 14 (2257920)
I0403 15:21:57.669950 11876 net.cpp:148] Top shape: 24 480 14 14 (2257920)
I0403 15:21:57.669965 11876 net.cpp:148] Top shape: 24 480 14 14 (2257920)
I0403 15:21:57.669981 11876 net.cpp:148] Top shape: 24 480 14 14 (2257920)
I0403 15:21:57.669993 11876 net.cpp:156] Memory required for data: 854397984
I0403 15:21:57.670006 11876 layer_factory.hpp:77] Creating layer inception_4a/1x1
I0403 15:21:57.670027 11876 net.cpp:91] Creating Layer inception_4a/1x1
I0403 15:21:57.670043 11876 net.cpp:425] inception_4a/1x1 <- pool3/3x3_s2_pool3/3x3_s2_0_split_0
I0403 15:21:57.670064 11876 net.cpp:399] inception_4a/1x1 -> inception_4a/1x1
I0403 15:21:57.671615 11876 net.cpp:141] Setting up inception_4a/1x1
I0403 15:21:57.671643 11876 net.cpp:148] Top shape: 24 192 14 14 (903168)
I0403 15:21:57.671658 11876 net.cpp:156] Memory required for data: 858010656
I0403 15:21:57.671676 11876 layer_factory.hpp:77] Creating layer inception_4a/relu_1x1
I0403 15:21:57.671696 11876 net.cpp:91] Creating Layer inception_4a/relu_1x1
I0403 15:21:57.671713 11876 net.cpp:425] inception_4a/relu_1x1 <- inception_4a/1x1
I0403 15:21:57.671730 11876 net.cpp:386] inception_4a/relu_1x1 -> inception_4a/1x1 (in-place)
I0403 15:21:57.671905 11876 net.cpp:141] Setting up inception_4a/relu_1x1
I0403 15:21:57.671929 11876 net.cpp:148] Top shape: 24 192 14 14 (903168)
I0403 15:21:57.671944 11876 net.cpp:156] Memory required for data: 861623328
I0403 15:21:57.671958 11876 layer_factory.hpp:77] Creating layer inception_4a/3x3_reduce
I0403 15:21:57.671980 11876 net.cpp:91] Creating Layer inception_4a/3x3_reduce
I0403 15:21:57.671998 11876 net.cpp:425] inception_4a/3x3_reduce <- pool3/3x3_s2_pool3/3x3_s2_0_split_1
I0403 15:21:57.672019 11876 net.cpp:399] inception_4a/3x3_reduce -> inception_4a/3x3_reduce
I0403 15:21:57.673285 11876 net.cpp:141] Setting up inception_4a/3x3_reduce
I0403 15:21:57.673312 11876 net.cpp:148] Top shape: 24 96 14 14 (451584)
I0403 15:21:57.673327 11876 net.cpp:156] Memory required for data: 863429664
I0403 15:21:57.673358 11876 layer_factory.hpp:77] Creating layer inception_4a/relu_3x3_reduce
I0403 15:21:57.673380 11876 net.cpp:91] Creating Layer inception_4a/relu_3x3_reduce
I0403 15:21:57.673395 11876 net.cpp:425] inception_4a/relu_3x3_reduce <- inception_4a/3x3_reduce
I0403 15:21:57.673418 11876 net.cpp:386] inception_4a/relu_3x3_reduce -> inception_4a/3x3_reduce (in-place)
I0403 15:21:57.673590 11876 net.cpp:141] Setting up inception_4a/relu_3x3_reduce
I0403 15:21:57.673614 11876 net.cpp:148] Top shape: 24 96 14 14 (451584)
I0403 15:21:57.673629 11876 net.cpp:156] Memory required for data: 865236000
I0403 15:21:57.673643 11876 layer_factory.hpp:77] Creating layer inception_4a/3x3
I0403 15:21:57.673665 11876 net.cpp:91] Creating Layer inception_4a/3x3
I0403 15:21:57.673681 11876 net.cpp:425] inception_4a/3x3 <- inception_4a/3x3_reduce
I0403 15:21:57.673702 11876 net.cpp:399] inception_4a/3x3 -> inception_4a/3x3
I0403 15:21:57.676301 11876 net.cpp:141] Setting up inception_4a/3x3
I0403 15:21:57.676327 11876 net.cpp:148] Top shape: 24 208 14 14 (978432)
I0403 15:21:57.676343 11876 net.cpp:156] Memory required for data: 869149728
I0403 15:21:57.676367 11876 layer_factory.hpp:77] Creating layer inception_4a/relu_3x3
I0403 15:21:57.676386 11876 net.cpp:91] Creating Layer inception_4a/relu_3x3
I0403 15:21:57.676403 11876 net.cpp:425] inception_4a/relu_3x3 <- inception_4a/3x3
I0403 15:21:57.676419 11876 net.cpp:386] inception_4a/relu_3x3 -> inception_4a/3x3 (in-place)
I0403 15:21:57.676694 11876 net.cpp:141] Setting up inception_4a/relu_3x3
I0403 15:21:57.676719 11876 net.cpp:148] Top shape: 24 208 14 14 (978432)
I0403 15:21:57.676734 11876 net.cpp:156] Memory required for data: 873063456
I0403 15:21:57.676749 11876 layer_factory.hpp:77] Creating layer inception_4a/5x5_reduce
I0403 15:21:57.676772 11876 net.cpp:91] Creating Layer inception_4a/5x5_reduce
I0403 15:21:57.676789 11876 net.cpp:425] inception_4a/5x5_reduce <- pool3/3x3_s2_pool3/3x3_s2_0_split_2
I0403 15:21:57.676810 11876 net.cpp:399] inception_4a/5x5_reduce -> inception_4a/5x5_reduce
I0403 15:21:57.677847 11876 net.cpp:141] Setting up inception_4a/5x5_reduce
I0403 15:21:57.677873 11876 net.cpp:148] Top shape: 24 16 14 14 (75264)
I0403 15:21:57.677888 11876 net.cpp:156] Memory required for data: 873364512
I0403 15:21:57.677906 11876 layer_factory.hpp:77] Creating layer inception_4a/relu_5x5_reduce
I0403 15:21:57.677927 11876 net.cpp:91] Creating Layer inception_4a/relu_5x5_reduce
I0403 15:21:57.677942 11876 net.cpp:425] inception_4a/relu_5x5_reduce <- inception_4a/5x5_reduce
I0403 15:21:57.677958 11876 net.cpp:386] inception_4a/relu_5x5_reduce -> inception_4a/5x5_reduce (in-place)
I0403 15:21:57.678134 11876 net.cpp:141] Setting up inception_4a/relu_5x5_reduce
I0403 15:21:57.678160 11876 net.cpp:148] Top shape: 24 16 14 14 (75264)
I0403 15:21:57.678175 11876 net.cpp:156] Memory required for data: 873665568
I0403 15:21:57.678190 11876 layer_factory.hpp:77] Creating layer inception_4a/5x5
I0403 15:21:57.678210 11876 net.cpp:91] Creating Layer inception_4a/5x5
I0403 15:21:57.678227 11876 net.cpp:425] inception_4a/5x5 <- inception_4a/5x5_reduce
I0403 15:21:57.678246 11876 net.cpp:399] inception_4a/5x5 -> inception_4a/5x5
I0403 15:21:57.679308 11876 net.cpp:141] Setting up inception_4a/5x5
I0403 15:21:57.679337 11876 net.cpp:148] Top shape: 24 48 14 14 (225792)
I0403 15:21:57.679357 11876 net.cpp:156] Memory required for data: 874568736
I0403 15:21:57.679375 11876 layer_factory.hpp:77] Creating layer inception_4a/relu_5x5
I0403 15:21:57.679394 11876 net.cpp:91] Creating Layer inception_4a/relu_5x5
I0403 15:21:57.679409 11876 net.cpp:425] inception_4a/relu_5x5 <- inception_4a/5x5
I0403 15:21:57.679428 11876 net.cpp:386] inception_4a/relu_5x5 -> inception_4a/5x5 (in-place)
I0403 15:21:57.679607 11876 net.cpp:141] Setting up inception_4a/relu_5x5
I0403 15:21:57.679631 11876 net.cpp:148] Top shape: 24 48 14 14 (225792)
I0403 15:21:57.679646 11876 net.cpp:156] Memory required for data: 875471904
I0403 15:21:57.679659 11876 layer_factory.hpp:77] Creating layer inception_4a/pool
I0403 15:21:57.679679 11876 net.cpp:91] Creating Layer inception_4a/pool
I0403 15:21:57.679695 11876 net.cpp:425] inception_4a/pool <- pool3/3x3_s2_pool3/3x3_s2_0_split_3
I0403 15:21:57.679713 11876 net.cpp:399] inception_4a/pool -> inception_4a/pool
I0403 15:21:57.679774 11876 net.cpp:141] Setting up inception_4a/pool
I0403 15:21:57.679796 11876 net.cpp:148] Top shape: 24 480 14 14 (2257920)
I0403 15:21:57.679811 11876 net.cpp:156] Memory required for data: 884503584
I0403 15:21:57.679824 11876 layer_factory.hpp:77] Creating layer inception_4a/pool_proj
I0403 15:21:57.679847 11876 net.cpp:91] Creating Layer inception_4a/pool_proj
I0403 15:21:57.679862 11876 net.cpp:425] inception_4a/pool_proj <- inception_4a/pool
I0403 15:21:57.679883 11876 net.cpp:399] inception_4a/pool_proj -> inception_4a/pool_proj
I0403 15:21:57.681018 11876 net.cpp:141] Setting up inception_4a/pool_proj
I0403 15:21:57.681046 11876 net.cpp:148] Top shape: 24 64 14 14 (301056)
I0403 15:21:57.681076 11876 net.cpp:156] Memory required for data: 885707808
I0403 15:21:57.681095 11876 layer_factory.hpp:77] Creating layer inception_4a/relu_pool_proj
I0403 15:21:57.681113 11876 net.cpp:91] Creating Layer inception_4a/relu_pool_proj
I0403 15:21:57.681128 11876 net.cpp:425] inception_4a/relu_pool_proj <- inception_4a/pool_proj
I0403 15:21:57.681148 11876 net.cpp:386] inception_4a/relu_pool_proj -> inception_4a/pool_proj (in-place)
I0403 15:21:57.681447 11876 net.cpp:141] Setting up inception_4a/relu_pool_proj
I0403 15:21:57.681474 11876 net.cpp:148] Top shape: 24 64 14 14 (301056)
I0403 15:21:57.681488 11876 net.cpp:156] Memory required for data: 886912032
I0403 15:21:57.681504 11876 layer_factory.hpp:77] Creating layer inception_4a/output
I0403 15:21:57.681521 11876 net.cpp:91] Creating Layer inception_4a/output
I0403 15:21:57.681536 11876 net.cpp:425] inception_4a/output <- inception_4a/1x1
I0403 15:21:57.681552 11876 net.cpp:425] inception_4a/output <- inception_4a/3x3
I0403 15:21:57.681567 11876 net.cpp:425] inception_4a/output <- inception_4a/5x5
I0403 15:21:57.681583 11876 net.cpp:425] inception_4a/output <- inception_4a/pool_proj
I0403 15:21:57.681602 11876 net.cpp:399] inception_4a/output -> inception_4a/output
I0403 15:21:57.681648 11876 net.cpp:141] Setting up inception_4a/output
I0403 15:21:57.681673 11876 net.cpp:148] Top shape: 24 512 14 14 (2408448)
I0403 15:21:57.681689 11876 net.cpp:156] Memory required for data: 896545824
I0403 15:21:57.681704 11876 layer_factory.hpp:77] Creating layer inception_4a/output_inception_4a/output_0_split
I0403 15:21:57.681721 11876 net.cpp:91] Creating Layer inception_4a/output_inception_4a/output_0_split
I0403 15:21:57.681736 11876 net.cpp:425] inception_4a/output_inception_4a/output_0_split <- inception_4a/output
I0403 15:21:57.681754 11876 net.cpp:399] inception_4a/output_inception_4a/output_0_split -> inception_4a/output_inception_4a/output_0_split_0
I0403 15:21:57.681777 11876 net.cpp:399] inception_4a/output_inception_4a/output_0_split -> inception_4a/output_inception_4a/output_0_split_1
I0403 15:21:57.681798 11876 net.cpp:399] inception_4a/output_inception_4a/output_0_split -> inception_4a/output_inception_4a/output_0_split_2
I0403 15:21:57.681819 11876 net.cpp:399] inception_4a/output_inception_4a/output_0_split -> inception_4a/output_inception_4a/output_0_split_3
I0403 15:21:57.681838 11876 net.cpp:399] inception_4a/output_inception_4a/output_0_split -> inception_4a/output_inception_4a/output_0_split_4
I0403 15:21:57.681928 11876 net.cpp:141] Setting up inception_4a/output_inception_4a/output_0_split
I0403 15:21:57.681952 11876 net.cpp:148] Top shape: 24 512 14 14 (2408448)
I0403 15:21:57.681970 11876 net.cpp:148] Top shape: 24 512 14 14 (2408448)
I0403 15:21:57.681988 11876 net.cpp:148] Top shape: 24 512 14 14 (2408448)
I0403 15:21:57.682003 11876 net.cpp:148] Top shape: 24 512 14 14 (2408448)
I0403 15:21:57.682018 11876 net.cpp:148] Top shape: 24 512 14 14 (2408448)
I0403 15:21:57.682031 11876 net.cpp:156] Memory required for data: 944714784
I0403 15:21:57.682044 11876 layer_factory.hpp:77] Creating layer loss1/ave_pool
I0403 15:21:57.682062 11876 net.cpp:91] Creating Layer loss1/ave_pool
I0403 15:21:57.682077 11876 net.cpp:425] loss1/ave_pool <- inception_4a/output_inception_4a/output_0_split_0
I0403 15:21:57.682095 11876 net.cpp:399] loss1/ave_pool -> loss1/ave_pool
I0403 15:21:57.682306 11876 net.cpp:141] Setting up loss1/ave_pool
I0403 15:21:57.682330 11876 net.cpp:148] Top shape: 24 512 4 4 (196608)
I0403 15:21:57.682345 11876 net.cpp:156] Memory required for data: 945501216
I0403 15:21:57.682365 11876 layer_factory.hpp:77] Creating layer loss1/conv
I0403 15:21:57.682389 11876 net.cpp:91] Creating Layer loss1/conv
I0403 15:21:57.682405 11876 net.cpp:425] loss1/conv <- loss1/ave_pool
I0403 15:21:57.682426 11876 net.cpp:399] loss1/conv -> loss1/conv
I0403 15:21:57.683854 11876 net.cpp:141] Setting up loss1/conv
I0403 15:21:57.683882 11876 net.cpp:148] Top shape: 24 128 4 4 (49152)
I0403 15:21:57.683912 11876 net.cpp:156] Memory required for data: 945697824
I0403 15:21:57.683931 11876 layer_factory.hpp:77] Creating layer loss1/relu_conv
I0403 15:21:57.683951 11876 net.cpp:91] Creating Layer loss1/relu_conv
I0403 15:21:57.683969 11876 net.cpp:425] loss1/relu_conv <- loss1/conv
I0403 15:21:57.683985 11876 net.cpp:386] loss1/relu_conv -> loss1/conv (in-place)
I0403 15:21:57.684267 11876 net.cpp:141] Setting up loss1/relu_conv
I0403 15:21:57.684293 11876 net.cpp:148] Top shape: 24 128 4 4 (49152)
I0403 15:21:57.684309 11876 net.cpp:156] Memory required for data: 945894432
I0403 15:21:57.684324 11876 layer_factory.hpp:77] Creating layer loss1/fc
I0403 15:21:57.684352 11876 net.cpp:91] Creating Layer loss1/fc
I0403 15:21:57.684371 11876 net.cpp:425] loss1/fc <- loss1/conv
I0403 15:21:57.684391 11876 net.cpp:399] loss1/fc -> loss1/fc
I0403 15:21:57.702015 11876 net.cpp:141] Setting up loss1/fc
I0403 15:21:57.702052 11876 net.cpp:148] Top shape: 24 1024 (24576)
I0403 15:21:57.702069 11876 net.cpp:156] Memory required for data: 945992736
I0403 15:21:57.702086 11876 layer_factory.hpp:77] Creating layer loss1/relu_fc
I0403 15:21:57.702103 11876 net.cpp:91] Creating Layer loss1/relu_fc
I0403 15:21:57.702118 11876 net.cpp:425] loss1/relu_fc <- loss1/fc
I0403 15:21:57.702138 11876 net.cpp:386] loss1/relu_fc -> loss1/fc (in-place)
I0403 15:21:57.702327 11876 net.cpp:141] Setting up loss1/relu_fc
I0403 15:21:57.702354 11876 net.cpp:148] Top shape: 24 1024 (24576)
I0403 15:21:57.702370 11876 net.cpp:156] Memory required for data: 946091040
I0403 15:21:57.702384 11876 layer_factory.hpp:77] Creating layer loss1/drop_fc
I0403 15:21:57.702410 11876 net.cpp:91] Creating Layer loss1/drop_fc
I0403 15:21:57.702427 11876 net.cpp:425] loss1/drop_fc <- loss1/fc
I0403 15:21:57.702445 11876 net.cpp:386] loss1/drop_fc -> loss1/fc (in-place)
I0403 15:21:57.702493 11876 net.cpp:141] Setting up loss1/drop_fc
I0403 15:21:57.702518 11876 net.cpp:148] Top shape: 24 1024 (24576)
I0403 15:21:57.702534 11876 net.cpp:156] Memory required for data: 946189344
I0403 15:21:57.702548 11876 layer_factory.hpp:77] Creating layer loss1/classifier_plantvillage
I0403 15:21:57.702566 11876 net.cpp:91] Creating Layer loss1/classifier_plantvillage
I0403 15:21:57.702582 11876 net.cpp:425] loss1/classifier_plantvillage <- loss1/fc
I0403 15:21:57.702602 11876 net.cpp:399] loss1/classifier_plantvillage -> loss1/classifier_plantvillage
I0403 15:21:57.703487 11876 net.cpp:141] Setting up loss1/classifier_plantvillage
I0403 15:21:57.703513 11876 net.cpp:148] Top shape: 24 38 (912)
I0403 15:21:57.703528 11876 net.cpp:156] Memory required for data: 946192992
I0403 15:21:57.703547 11876 layer_factory.hpp:77] Creating layer loss1/classifier_plantvillage_loss1/classifier_plantvillage_0_split
I0403 15:21:57.703565 11876 net.cpp:91] Creating Layer loss1/classifier_plantvillage_loss1/classifier_plantvillage_0_split
I0403 15:21:57.703583 11876 net.cpp:425] loss1/classifier_plantvillage_loss1/classifier_plantvillage_0_split <- loss1/classifier_plantvillage
I0403 15:21:57.703599 11876 net.cpp:399] loss1/classifier_plantvillage_loss1/classifier_plantvillage_0_split -> loss1/classifier_plantvillage_loss1/classifier_plantvillage_0_split_0
I0403 15:21:57.703619 11876 net.cpp:399] loss1/classifier_plantvillage_loss1/classifier_plantvillage_0_split -> loss1/classifier_plantvillage_loss1/classifier_plantvillage_0_split_1
I0403 15:21:57.703637 11876 net.cpp:399] loss1/classifier_plantvillage_loss1/classifier_plantvillage_0_split -> loss1/classifier_plantvillage_loss1/classifier_plantvillage_0_split_2
I0403 15:21:57.703701 11876 net.cpp:141] Setting up loss1/classifier_plantvillage_loss1/classifier_plantvillage_0_split
I0403 15:21:57.703724 11876 net.cpp:148] Top shape: 24 38 (912)
I0403 15:21:57.703742 11876 net.cpp:148] Top shape: 24 38 (912)
I0403 15:21:57.703755 11876 net.cpp:148] Top shape: 24 38 (912)
I0403 15:21:57.703768 11876 net.cpp:156] Memory required for data: 946203936
I0403 15:21:57.703783 11876 layer_factory.hpp:77] Creating layer inception_4b/1x1
I0403 15:21:57.703801 11876 net.cpp:91] Creating Layer inception_4b/1x1
I0403 15:21:57.703833 11876 net.cpp:425] inception_4b/1x1 <- inception_4a/output_inception_4a/output_0_split_1
I0403 15:21:57.703855 11876 net.cpp:399] inception_4b/1x1 -> inception_4b/1x1
I0403 15:21:57.705519 11876 net.cpp:141] Setting up inception_4b/1x1
I0403 15:21:57.705546 11876 net.cpp:148] Top shape: 24 160 14 14 (752640)
I0403 15:21:57.705561 11876 net.cpp:156] Memory required for data: 949214496
I0403 15:21:57.705580 11876 layer_factory.hpp:77] Creating layer inception_4b/relu_1x1
I0403 15:21:57.705600 11876 net.cpp:91] Creating Layer inception_4b/relu_1x1
I0403 15:21:57.705616 11876 net.cpp:425] inception_4b/relu_1x1 <- inception_4b/1x1
I0403 15:21:57.705633 11876 net.cpp:386] inception_4b/relu_1x1 -> inception_4b/1x1 (in-place)
I0403 15:21:57.705811 11876 net.cpp:141] Setting up inception_4b/relu_1x1
I0403 15:21:57.705837 11876 net.cpp:148] Top shape: 24 160 14 14 (752640)
I0403 15:21:57.705852 11876 net.cpp:156] Memory required for data: 952225056
I0403 15:21:57.705868 11876 layer_factory.hpp:77] Creating layer inception_4b/3x3_reduce
I0403 15:21:57.705888 11876 net.cpp:91] Creating Layer inception_4b/3x3_reduce
I0403 15:21:57.705905 11876 net.cpp:425] inception_4b/3x3_reduce <- inception_4a/output_inception_4a/output_0_split_2
I0403 15:21:57.705924 11876 net.cpp:399] inception_4b/3x3_reduce -> inception_4b/3x3_reduce
I0403 15:21:57.707272 11876 net.cpp:141] Setting up inception_4b/3x3_reduce
I0403 15:21:57.707303 11876 net.cpp:148] Top shape: 24 112 14 14 (526848)
I0403 15:21:57.707319 11876 net.cpp:156] Memory required for data: 954332448
I0403 15:21:57.707337 11876 layer_factory.hpp:77] Creating layer inception_4b/relu_3x3_reduce
I0403 15:21:57.707360 11876 net.cpp:91] Creating Layer inception_4b/relu_3x3_reduce
I0403 15:21:57.707377 11876 net.cpp:425] inception_4b/relu_3x3_reduce <- inception_4b/3x3_reduce
I0403 15:21:57.707399 11876 net.cpp:386] inception_4b/relu_3x3_reduce -> inception_4b/3x3_reduce (in-place)
I0403 15:21:57.707690 11876 net.cpp:141] Setting up inception_4b/relu_3x3_reduce
I0403 15:21:57.707718 11876 net.cpp:148] Top shape: 24 112 14 14 (526848)
I0403 15:21:57.707734 11876 net.cpp:156] Memory required for data: 956439840
I0403 15:21:57.707749 11876 layer_factory.hpp:77] Creating layer inception_4b/3x3
I0403 15:21:57.707772 11876 net.cpp:91] Creating Layer inception_4b/3x3
I0403 15:21:57.707788 11876 net.cpp:425] inception_4b/3x3 <- inception_4b/3x3_reduce
I0403 15:21:57.707808 11876 net.cpp:399] inception_4b/3x3 -> inception_4b/3x3
I0403 15:21:57.710793 11876 net.cpp:141] Setting up inception_4b/3x3
I0403 15:21:57.710822 11876 net.cpp:148] Top shape: 24 224 14 14 (1053696)
I0403 15:21:57.710839 11876 net.cpp:156] Memory required for data: 960654624
I0403 15:21:57.710856 11876 layer_factory.hpp:77] Creating layer inception_4b/relu_3x3
I0403 15:21:57.710877 11876 net.cpp:91] Creating Layer inception_4b/relu_3x3
I0403 15:21:57.710896 11876 net.cpp:425] inception_4b/relu_3x3 <- inception_4b/3x3
I0403 15:21:57.710913 11876 net.cpp:386] inception_4b/relu_3x3 -> inception_4b/3x3 (in-place)
I0403 15:21:57.711097 11876 net.cpp:141] Setting up inception_4b/relu_3x3
I0403 15:21:57.711120 11876 net.cpp:148] Top shape: 24 224 14 14 (1053696)
I0403 15:21:57.711134 11876 net.cpp:156] Memory required for data: 964869408
I0403 15:21:57.711149 11876 layer_factory.hpp:77] Creating layer inception_4b/5x5_reduce
I0403 15:21:57.711174 11876 net.cpp:91] Creating Layer inception_4b/5x5_reduce
I0403 15:21:57.711194 11876 net.cpp:425] inception_4b/5x5_reduce <- inception_4a/output_inception_4a/output_0_split_3
I0403 15:21:57.711212 11876 net.cpp:399] inception_4b/5x5_reduce -> inception_4b/5x5_reduce
I0403 15:21:57.712308 11876 net.cpp:141] Setting up inception_4b/5x5_reduce
I0403 15:21:57.712335 11876 net.cpp:148] Top shape: 24 24 14 14 (112896)
I0403 15:21:57.712355 11876 net.cpp:156] Memory required for data: 965320992
I0403 15:21:57.712374 11876 layer_factory.hpp:77] Creating layer inception_4b/relu_5x5_reduce
I0403 15:21:57.712395 11876 net.cpp:91] Creating Layer inception_4b/relu_5x5_reduce
I0403 15:21:57.712426 11876 net.cpp:425] inception_4b/relu_5x5_reduce <- inception_4b/5x5_reduce
I0403 15:21:57.712456 11876 net.cpp:386] inception_4b/relu_5x5_reduce -> inception_4b/5x5_reduce (in-place)
I0403 15:21:57.712651 11876 net.cpp:141] Setting up inception_4b/relu_5x5_reduce
I0403 15:21:57.712676 11876 net.cpp:148] Top shape: 24 24 14 14 (112896)
I0403 15:21:57.712692 11876 net.cpp:156] Memory required for data: 965772576
I0403 15:21:57.712707 11876 layer_factory.hpp:77] Creating layer inception_4b/5x5
I0403 15:21:57.712728 11876 net.cpp:91] Creating Layer inception_4b/5x5
I0403 15:21:57.712759 11876 net.cpp:425] inception_4b/5x5 <- inception_4b/5x5_reduce
I0403 15:21:57.712779 11876 net.cpp:399] inception_4b/5x5 -> inception_4b/5x5
I0403 15:21:57.714057 11876 net.cpp:141] Setting up inception_4b/5x5
I0403 15:21:57.714085 11876 net.cpp:148] Top shape: 24 64 14 14 (301056)
I0403 15:21:57.714100 11876 net.cpp:156] Memory required for data: 966976800
I0403 15:21:57.714119 11876 layer_factory.hpp:77] Creating layer inception_4b/relu_5x5
I0403 15:21:57.714139 11876 net.cpp:91] Creating Layer inception_4b/relu_5x5
I0403 15:21:57.714156 11876 net.cpp:425] inception_4b/relu_5x5 <- inception_4b/5x5
I0403 15:21:57.714174 11876 net.cpp:386] inception_4b/relu_5x5 -> inception_4b/5x5 (in-place)
I0403 15:21:57.714468 11876 net.cpp:141] Setting up inception_4b/relu_5x5
I0403 15:21:57.714494 11876 net.cpp:148] Top shape: 24 64 14 14 (301056)
I0403 15:21:57.714509 11876 net.cpp:156] Memory required for data: 968181024
I0403 15:21:57.714524 11876 layer_factory.hpp:77] Creating layer inception_4b/pool
I0403 15:21:57.714545 11876 net.cpp:91] Creating Layer inception_4b/pool
I0403 15:21:57.714561 11876 net.cpp:425] inception_4b/pool <- inception_4a/output_inception_4a/output_0_split_4
I0403 15:21:57.714581 11876 net.cpp:399] inception_4b/pool -> inception_4b/pool
I0403 15:21:57.714648 11876 net.cpp:141] Setting up inception_4b/pool
I0403 15:21:57.714671 11876 net.cpp:148] Top shape: 24 512 14 14 (2408448)
I0403 15:21:57.714686 11876 net.cpp:156] Memory required for data: 977814816
I0403 15:21:57.714701 11876 layer_factory.hpp:77] Creating layer inception_4b/pool_proj
I0403 15:21:57.714725 11876 net.cpp:91] Creating Layer inception_4b/pool_proj
I0403 15:21:57.714742 11876 net.cpp:425] inception_4b/pool_proj <- inception_4b/pool
I0403 15:21:57.714762 11876 net.cpp:399] inception_4b/pool_proj -> inception_4b/pool_proj
I0403 15:21:57.716013 11876 net.cpp:141] Setting up inception_4b/pool_proj
I0403 15:21:57.716044 11876 net.cpp:148] Top shape: 24 64 14 14 (301056)
I0403 15:21:57.716060 11876 net.cpp:156] Memory required for data: 979019040
I0403 15:21:57.716079 11876 layer_factory.hpp:77] Creating layer inception_4b/relu_pool_proj
I0403 15:21:57.716099 11876 net.cpp:91] Creating Layer inception_4b/relu_pool_proj
I0403 15:21:57.716115 11876 net.cpp:425] inception_4b/relu_pool_proj <- inception_4b/pool_proj
I0403 15:21:57.716132 11876 net.cpp:386] inception_4b/relu_pool_proj -> inception_4b/pool_proj (in-place)
I0403 15:21:57.716317 11876 net.cpp:141] Setting up inception_4b/relu_pool_proj
I0403 15:21:57.716343 11876 net.cpp:148] Top shape: 24 64 14 14 (301056)
I0403 15:21:57.716363 11876 net.cpp:156] Memory required for data: 980223264
I0403 15:21:57.716379 11876 layer_factory.hpp:77] Creating layer inception_4b/output
I0403 15:21:57.716395 11876 net.cpp:91] Creating Layer inception_4b/output
I0403 15:21:57.716410 11876 net.cpp:425] inception_4b/output <- inception_4b/1x1
I0403 15:21:57.716428 11876 net.cpp:425] inception_4b/output <- inception_4b/3x3
I0403 15:21:57.716444 11876 net.cpp:425] inception_4b/output <- inception_4b/5x5
I0403 15:21:57.716459 11876 net.cpp:425] inception_4b/output <- inception_4b/pool_proj
I0403 15:21:57.716478 11876 net.cpp:399] inception_4b/output -> inception_4b/output
I0403 15:21:57.716524 11876 net.cpp:141] Setting up inception_4b/output
I0403 15:21:57.716547 11876 net.cpp:148] Top shape: 24 512 14 14 (2408448)
I0403 15:21:57.716562 11876 net.cpp:156] Memory required for data: 989857056
I0403 15:21:57.716591 11876 layer_factory.hpp:77] Creating layer inception_4b/output_inception_4b/output_0_split
I0403 15:21:57.716612 11876 net.cpp:91] Creating Layer inception_4b/output_inception_4b/output_0_split
I0403 15:21:57.716629 11876 net.cpp:425] inception_4b/output_inception_4b/output_0_split <- inception_4b/output
I0403 15:21:57.716646 11876 net.cpp:399] inception_4b/output_inception_4b/output_0_split -> inception_4b/output_inception_4b/output_0_split_0
I0403 15:21:57.716670 11876 net.cpp:399] inception_4b/output_inception_4b/output_0_split -> inception_4b/output_inception_4b/output_0_split_1
I0403 15:21:57.716691 11876 net.cpp:399] inception_4b/output_inception_4b/output_0_split -> inception_4b/output_inception_4b/output_0_split_2
I0403 15:21:57.716711 11876 net.cpp:399] inception_4b/output_inception_4b/output_0_split -> inception_4b/output_inception_4b/output_0_split_3
I0403 15:21:57.716794 11876 net.cpp:141] Setting up inception_4b/output_inception_4b/output_0_split
I0403 15:21:57.716817 11876 net.cpp:148] Top shape: 24 512 14 14 (2408448)
I0403 15:21:57.716832 11876 net.cpp:148] Top shape: 24 512 14 14 (2408448)
I0403 15:21:57.716847 11876 net.cpp:148] Top shape: 24 512 14 14 (2408448)
I0403 15:21:57.716862 11876 net.cpp:148] Top shape: 24 512 14 14 (2408448)
I0403 15:21:57.716876 11876 net.cpp:156] Memory required for data: 1028392224
I0403 15:21:57.716891 11876 layer_factory.hpp:77] Creating layer inception_4c/1x1
I0403 15:21:57.716912 11876 net.cpp:91] Creating Layer inception_4c/1x1
I0403 15:21:57.716929 11876 net.cpp:425] inception_4c/1x1 <- inception_4b/output_inception_4b/output_0_split_0
I0403 15:21:57.716949 11876 net.cpp:399] inception_4c/1x1 -> inception_4c/1x1
I0403 15:21:57.718407 11876 net.cpp:141] Setting up inception_4c/1x1
I0403 15:21:57.718436 11876 net.cpp:148] Top shape: 24 128 14 14 (602112)
I0403 15:21:57.718451 11876 net.cpp:156] Memory required for data: 1030800672
I0403 15:21:57.718469 11876 layer_factory.hpp:77] Creating layer inception_4c/relu_1x1
I0403 15:21:57.718487 11876 net.cpp:91] Creating Layer inception_4c/relu_1x1
I0403 15:21:57.718503 11876 net.cpp:425] inception_4c/relu_1x1 <- inception_4c/1x1
I0403 15:21:57.718525 11876 net.cpp:386] inception_4c/relu_1x1 -> inception_4c/1x1 (in-place)
I0403 15:21:57.718709 11876 net.cpp:141] Setting up inception_4c/relu_1x1
I0403 15:21:57.718734 11876 net.cpp:148] Top shape: 24 128 14 14 (602112)
I0403 15:21:57.718749 11876 net.cpp:156] Memory required for data: 1033209120
I0403 15:21:57.718762 11876 layer_factory.hpp:77] Creating layer inception_4c/3x3_reduce
I0403 15:21:57.718785 11876 net.cpp:91] Creating Layer inception_4c/3x3_reduce
I0403 15:21:57.718802 11876 net.cpp:425] inception_4c/3x3_reduce <- inception_4b/output_inception_4b/output_0_split_1
I0403 15:21:57.718823 11876 net.cpp:399] inception_4c/3x3_reduce -> inception_4c/3x3_reduce
I0403 15:21:57.720785 11876 net.cpp:141] Setting up inception_4c/3x3_reduce
I0403 15:21:57.720814 11876 net.cpp:148] Top shape: 24 128 14 14 (602112)
I0403 15:21:57.720829 11876 net.cpp:156] Memory required for data: 1035617568
I0403 15:21:57.720847 11876 layer_factory.hpp:77] Creating layer inception_4c/relu_3x3_reduce
I0403 15:21:57.720868 11876 net.cpp:91] Creating Layer inception_4c/relu_3x3_reduce
I0403 15:21:57.720885 11876 net.cpp:425] inception_4c/relu_3x3_reduce <- inception_4c/3x3_reduce
I0403 15:21:57.720903 11876 net.cpp:386] inception_4c/relu_3x3_reduce -> inception_4c/3x3_reduce (in-place)
I0403 15:21:57.721192 11876 net.cpp:141] Setting up inception_4c/relu_3x3_reduce
I0403 15:21:57.721218 11876 net.cpp:148] Top shape: 24 128 14 14 (602112)
I0403 15:21:57.721233 11876 net.cpp:156] Memory required for data: 1038026016
I0403 15:21:57.721249 11876 layer_factory.hpp:77] Creating layer inception_4c/3x3
I0403 15:21:57.721273 11876 net.cpp:91] Creating Layer inception_4c/3x3
I0403 15:21:57.721292 11876 net.cpp:425] inception_4c/3x3 <- inception_4c/3x3_reduce
I0403 15:21:57.721313 11876 net.cpp:399] inception_4c/3x3 -> inception_4c/3x3
I0403 15:21:57.724933 11876 net.cpp:141] Setting up inception_4c/3x3
I0403 15:21:57.724977 11876 net.cpp:148] Top shape: 24 256 14 14 (1204224)
I0403 15:21:57.724994 11876 net.cpp:156] Memory required for data: 1042842912
I0403 15:21:57.725028 11876 layer_factory.hpp:77] Creating layer inception_4c/relu_3x3
I0403 15:21:57.725047 11876 net.cpp:91] Creating Layer inception_4c/relu_3x3
I0403 15:21:57.725064 11876 net.cpp:425] inception_4c/relu_3x3 <- inception_4c/3x3
I0403 15:21:57.725081 11876 net.cpp:386] inception_4c/relu_3x3 -> inception_4c/3x3 (in-place)
I0403 15:21:57.725267 11876 net.cpp:141] Setting up inception_4c/relu_3x3
I0403 15:21:57.725292 11876 net.cpp:148] Top shape: 24 256 14 14 (1204224)
I0403 15:21:57.725307 11876 net.cpp:156] Memory required for data: 1047659808
I0403 15:21:57.725322 11876 layer_factory.hpp:77] Creating layer inception_4c/5x5_reduce
I0403 15:21:57.725347 11876 net.cpp:91] Creating Layer inception_4c/5x5_reduce
I0403 15:21:57.725369 11876 net.cpp:425] inception_4c/5x5_reduce <- inception_4b/output_inception_4b/output_0_split_2
I0403 15:21:57.725389 11876 net.cpp:399] inception_4c/5x5_reduce -> inception_4c/5x5_reduce
I0403 15:21:57.726490 11876 net.cpp:141] Setting up inception_4c/5x5_reduce
I0403 15:21:57.726517 11876 net.cpp:148] Top shape: 24 24 14 14 (112896)
I0403 15:21:57.726533 11876 net.cpp:156] Memory required for data: 1048111392
I0403 15:21:57.726550 11876 layer_factory.hpp:77] Creating layer inception_4c/relu_5x5_reduce
I0403 15:21:57.726572 11876 net.cpp:91] Creating Layer inception_4c/relu_5x5_reduce
I0403 15:21:57.726589 11876 net.cpp:425] inception_4c/relu_5x5_reduce <- inception_4c/5x5_reduce
I0403 15:21:57.726606 11876 net.cpp:386] inception_4c/relu_5x5_reduce -> inception_4c/5x5_reduce (in-place)
I0403 15:21:57.726794 11876 net.cpp:141] Setting up inception_4c/relu_5x5_reduce
I0403 15:21:57.726819 11876 net.cpp:148] Top shape: 24 24 14 14 (112896)
I0403 15:21:57.726833 11876 net.cpp:156] Memory required for data: 1048562976
I0403 15:21:57.726848 11876 layer_factory.hpp:77] Creating layer inception_4c/5x5
I0403 15:21:57.726871 11876 net.cpp:91] Creating Layer inception_4c/5x5
I0403 15:21:57.726888 11876 net.cpp:425] inception_4c/5x5 <- inception_4c/5x5_reduce
I0403 15:21:57.726909 11876 net.cpp:399] inception_4c/5x5 -> inception_4c/5x5
I0403 15:21:57.728160 11876 net.cpp:141] Setting up inception_4c/5x5
I0403 15:21:57.728190 11876 net.cpp:148] Top shape: 24 64 14 14 (301056)
I0403 15:21:57.728206 11876 net.cpp:156] Memory required for data: 1049767200
I0403 15:21:57.728224 11876 layer_factory.hpp:77] Creating layer inception_4c/relu_5x5
I0403 15:21:57.728243 11876 net.cpp:91] Creating Layer inception_4c/relu_5x5
I0403 15:21:57.728260 11876 net.cpp:425] inception_4c/relu_5x5 <- inception_4c/5x5
I0403 15:21:57.728278 11876 net.cpp:386] inception_4c/relu_5x5 -> inception_4c/5x5 (in-place)
I0403 15:21:57.728574 11876 net.cpp:141] Setting up inception_4c/relu_5x5
I0403 15:21:57.728601 11876 net.cpp:148] Top shape: 24 64 14 14 (301056)
I0403 15:21:57.728616 11876 net.cpp:156] Memory required for data: 1050971424
I0403 15:21:57.728633 11876 layer_factory.hpp:77] Creating layer inception_4c/pool
I0403 15:21:57.728652 11876 net.cpp:91] Creating Layer inception_4c/pool
I0403 15:21:57.728667 11876 net.cpp:425] inception_4c/pool <- inception_4b/output_inception_4b/output_0_split_3
I0403 15:21:57.728688 11876 net.cpp:399] inception_4c/pool -> inception_4c/pool
I0403 15:21:57.728752 11876 net.cpp:141] Setting up inception_4c/pool
I0403 15:21:57.728778 11876 net.cpp:148] Top shape: 24 512 14 14 (2408448)
I0403 15:21:57.728793 11876 net.cpp:156] Memory required for data: 1060605216
I0403 15:21:57.728807 11876 layer_factory.hpp:77] Creating layer inception_4c/pool_proj
I0403 15:21:57.728829 11876 net.cpp:91] Creating Layer inception_4c/pool_proj
I0403 15:21:57.728847 11876 net.cpp:425] inception_4c/pool_proj <- inception_4c/pool
I0403 15:21:57.728864 11876 net.cpp:399] inception_4c/pool_proj -> inception_4c/pool_proj
I0403 15:21:57.730084 11876 net.cpp:141] Setting up inception_4c/pool_proj
I0403 15:21:57.730115 11876 net.cpp:148] Top shape: 24 64 14 14 (301056)
I0403 15:21:57.730144 11876 net.cpp:156] Memory required for data: 1061809440
I0403 15:21:57.730164 11876 layer_factory.hpp:77] Creating layer inception_4c/relu_pool_proj
I0403 15:21:57.730182 11876 net.cpp:91] Creating Layer inception_4c/relu_pool_proj
I0403 15:21:57.730198 11876 net.cpp:425] inception_4c/relu_pool_proj <- inception_4c/pool_proj
I0403 15:21:57.730216 11876 net.cpp:386] inception_4c/relu_pool_proj -> inception_4c/pool_proj (in-place)
I0403 15:21:57.730422 11876 net.cpp:141] Setting up inception_4c/relu_pool_proj
I0403 15:21:57.730450 11876 net.cpp:148] Top shape: 24 64 14 14 (301056)
I0403 15:21:57.730466 11876 net.cpp:156] Memory required for data: 1063013664
I0403 15:21:57.730481 11876 layer_factory.hpp:77] Creating layer inception_4c/output
I0403 15:21:57.730499 11876 net.cpp:91] Creating Layer inception_4c/output
I0403 15:21:57.730515 11876 net.cpp:425] inception_4c/output <- inception_4c/1x1
I0403 15:21:57.730531 11876 net.cpp:425] inception_4c/output <- inception_4c/3x3
I0403 15:21:57.730548 11876 net.cpp:425] inception_4c/output <- inception_4c/5x5
I0403 15:21:57.730564 11876 net.cpp:425] inception_4c/output <- inception_4c/pool_proj
I0403 15:21:57.730583 11876 net.cpp:399] inception_4c/output -> inception_4c/output
I0403 15:21:57.730631 11876 net.cpp:141] Setting up inception_4c/output
I0403 15:21:57.730654 11876 net.cpp:148] Top shape: 24 512 14 14 (2408448)
I0403 15:21:57.730670 11876 net.cpp:156] Memory required for data: 1072647456
I0403 15:21:57.730685 11876 layer_factory.hpp:77] Creating layer inception_4c/output_inception_4c/output_0_split
I0403 15:21:57.730705 11876 net.cpp:91] Creating Layer inception_4c/output_inception_4c/output_0_split
I0403 15:21:57.730722 11876 net.cpp:425] inception_4c/output_inception_4c/output_0_split <- inception_4c/output
I0403 15:21:57.730741 11876 net.cpp:399] inception_4c/output_inception_4c/output_0_split -> inception_4c/output_inception_4c/output_0_split_0
I0403 15:21:57.730761 11876 net.cpp:399] inception_4c/output_inception_4c/output_0_split -> inception_4c/output_inception_4c/output_0_split_1
I0403 15:21:57.730784 11876 net.cpp:399] inception_4c/output_inception_4c/output_0_split -> inception_4c/output_inception_4c/output_0_split_2
I0403 15:21:57.730805 11876 net.cpp:399] inception_4c/output_inception_4c/output_0_split -> inception_4c/output_inception_4c/output_0_split_3
I0403 15:21:57.730890 11876 net.cpp:141] Setting up inception_4c/output_inception_4c/output_0_split
I0403 15:21:57.730914 11876 net.cpp:148] Top shape: 24 512 14 14 (2408448)
I0403 15:21:57.730931 11876 net.cpp:148] Top shape: 24 512 14 14 (2408448)
I0403 15:21:57.730947 11876 net.cpp:148] Top shape: 24 512 14 14 (2408448)
I0403 15:21:57.730962 11876 net.cpp:148] Top shape: 24 512 14 14 (2408448)
I0403 15:21:57.730976 11876 net.cpp:156] Memory required for data: 1111182624
I0403 15:21:57.730990 11876 layer_factory.hpp:77] Creating layer inception_4d/1x1
I0403 15:21:57.731014 11876 net.cpp:91] Creating Layer inception_4d/1x1
I0403 15:21:57.731031 11876 net.cpp:425] inception_4d/1x1 <- inception_4c/output_inception_4c/output_0_split_0
I0403 15:21:57.731052 11876 net.cpp:399] inception_4d/1x1 -> inception_4d/1x1
I0403 15:21:57.732489 11876 net.cpp:141] Setting up inception_4d/1x1
I0403 15:21:57.732518 11876 net.cpp:148] Top shape: 24 112 14 14 (526848)
I0403 15:21:57.732533 11876 net.cpp:156] Memory required for data: 1113290016
I0403 15:21:57.732553 11876 layer_factory.hpp:77] Creating layer inception_4d/relu_1x1
I0403 15:21:57.732573 11876 net.cpp:91] Creating Layer inception_4d/relu_1x1
I0403 15:21:57.732591 11876 net.cpp:425] inception_4d/relu_1x1 <- inception_4d/1x1
I0403 15:21:57.732609 11876 net.cpp:386] inception_4d/relu_1x1 -> inception_4d/1x1 (in-place)
I0403 15:21:57.732802 11876 net.cpp:141] Setting up inception_4d/relu_1x1
I0403 15:21:57.732827 11876 net.cpp:148] Top shape: 24 112 14 14 (526848)
I0403 15:21:57.732843 11876 net.cpp:156] Memory required for data: 1115397408
I0403 15:21:57.732858 11876 layer_factory.hpp:77] Creating layer inception_4d/3x3_reduce
I0403 15:21:57.732897 11876 net.cpp:91] Creating Layer inception_4d/3x3_reduce
I0403 15:21:57.732916 11876 net.cpp:425] inception_4d/3x3_reduce <- inception_4c/output_inception_4c/output_0_split_1
I0403 15:21:57.732936 11876 net.cpp:399] inception_4d/3x3_reduce -> inception_4d/3x3_reduce
I0403 15:21:57.734511 11876 net.cpp:141] Setting up inception_4d/3x3_reduce
I0403 15:21:57.734539 11876 net.cpp:148] Top shape: 24 144 14 14 (677376)
I0403 15:21:57.734555 11876 net.cpp:156] Memory required for data: 1118106912
I0403 15:21:57.734575 11876 layer_factory.hpp:77] Creating layer inception_4d/relu_3x3_reduce
I0403 15:21:57.734594 11876 net.cpp:91] Creating Layer inception_4d/relu_3x3_reduce
I0403 15:21:57.734611 11876 net.cpp:425] inception_4d/relu_3x3_reduce <- inception_4d/3x3_reduce
I0403 15:21:57.734634 11876 net.cpp:386] inception_4d/relu_3x3_reduce -> inception_4d/3x3_reduce (in-place)
I0403 15:21:57.734936 11876 net.cpp:141] Setting up inception_4d/relu_3x3_reduce
I0403 15:21:57.734963 11876 net.cpp:148] Top shape: 24 144 14 14 (677376)
I0403 15:21:57.734978 11876 net.cpp:156] Memory required for data: 1120816416
I0403 15:21:57.734993 11876 layer_factory.hpp:77] Creating layer inception_4d/3x3
I0403 15:21:57.735016 11876 net.cpp:91] Creating Layer inception_4d/3x3
I0403 15:21:57.735034 11876 net.cpp:425] inception_4d/3x3 <- inception_4d/3x3_reduce
I0403 15:21:57.735056 11876 net.cpp:399] inception_4d/3x3 -> inception_4d/3x3
I0403 15:21:57.739454 11876 net.cpp:141] Setting up inception_4d/3x3
I0403 15:21:57.739483 11876 net.cpp:148] Top shape: 24 288 14 14 (1354752)
I0403 15:21:57.739500 11876 net.cpp:156] Memory required for data: 1126235424
I0403 15:21:57.739518 11876 layer_factory.hpp:77] Creating layer inception_4d/relu_3x3
I0403 15:21:57.739539 11876 net.cpp:91] Creating Layer inception_4d/relu_3x3
I0403 15:21:57.739557 11876 net.cpp:425] inception_4d/relu_3x3 <- inception_4d/3x3
I0403 15:21:57.739576 11876 net.cpp:386] inception_4d/relu_3x3 -> inception_4d/3x3 (in-place)
I0403 15:21:57.739768 11876 net.cpp:141] Setting up inception_4d/relu_3x3
I0403 15:21:57.739796 11876 net.cpp:148] Top shape: 24 288 14 14 (1354752)
I0403 15:21:57.739812 11876 net.cpp:156] Memory required for data: 1131654432
I0403 15:21:57.739827 11876 layer_factory.hpp:77] Creating layer inception_4d/5x5_reduce
I0403 15:21:57.739850 11876 net.cpp:91] Creating Layer inception_4d/5x5_reduce
I0403 15:21:57.739868 11876 net.cpp:425] inception_4d/5x5_reduce <- inception_4c/output_inception_4c/output_0_split_2
I0403 15:21:57.739887 11876 net.cpp:399] inception_4d/5x5_reduce -> inception_4d/5x5_reduce
I0403 15:21:57.741083 11876 net.cpp:141] Setting up inception_4d/5x5_reduce
I0403 15:21:57.741111 11876 net.cpp:148] Top shape: 24 32 14 14 (150528)
I0403 15:21:57.741127 11876 net.cpp:156] Memory required for data: 1132256544
I0403 15:21:57.741147 11876 layer_factory.hpp:77] Creating layer inception_4d/relu_5x5_reduce
I0403 15:21:57.741168 11876 net.cpp:91] Creating Layer inception_4d/relu_5x5_reduce
I0403 15:21:57.741185 11876 net.cpp:425] inception_4d/relu_5x5_reduce <- inception_4d/5x5_reduce
I0403 15:21:57.741204 11876 net.cpp:386] inception_4d/relu_5x5_reduce -> inception_4d/5x5_reduce (in-place)
I0403 15:21:57.741406 11876 net.cpp:141] Setting up inception_4d/relu_5x5_reduce
I0403 15:21:57.741431 11876 net.cpp:148] Top shape: 24 32 14 14 (150528)
I0403 15:21:57.741447 11876 net.cpp:156] Memory required for data: 1132858656
I0403 15:21:57.741461 11876 layer_factory.hpp:77] Creating layer inception_4d/5x5
I0403 15:21:57.741487 11876 net.cpp:91] Creating Layer inception_4d/5x5
I0403 15:21:57.741505 11876 net.cpp:425] inception_4d/5x5 <- inception_4d/5x5_reduce
I0403 15:21:57.741525 11876 net.cpp:399] inception_4d/5x5 -> inception_4d/5x5
I0403 15:21:57.743057 11876 net.cpp:141] Setting up inception_4d/5x5
I0403 15:21:57.743086 11876 net.cpp:148] Top shape: 24 64 14 14 (301056)
I0403 15:21:57.743103 11876 net.cpp:156] Memory required for data: 1134062880
I0403 15:21:57.743124 11876 layer_factory.hpp:77] Creating layer inception_4d/relu_5x5
I0403 15:21:57.743158 11876 net.cpp:91] Creating Layer inception_4d/relu_5x5
I0403 15:21:57.743175 11876 net.cpp:425] inception_4d/relu_5x5 <- inception_4d/5x5
I0403 15:21:57.743196 11876 net.cpp:386] inception_4d/relu_5x5 -> inception_4d/5x5 (in-place)
I0403 15:21:57.743520 11876 net.cpp:141] Setting up inception_4d/relu_5x5
I0403 15:21:57.743549 11876 net.cpp:148] Top shape: 24 64 14 14 (301056)
I0403 15:21:57.743566 11876 net.cpp:156] Memory required for data: 1135267104
I0403 15:21:57.743582 11876 layer_factory.hpp:77] Creating layer inception_4d/pool
I0403 15:21:57.743600 11876 net.cpp:91] Creating Layer inception_4d/pool
I0403 15:21:57.743618 11876 net.cpp:425] inception_4d/pool <- inception_4c/output_inception_4c/output_0_split_3
I0403 15:21:57.743639 11876 net.cpp:399] inception_4d/pool -> inception_4d/pool
I0403 15:21:57.743710 11876 net.cpp:141] Setting up inception_4d/pool
I0403 15:21:57.743733 11876 net.cpp:148] Top shape: 24 512 14 14 (2408448)
I0403 15:21:57.743748 11876 net.cpp:156] Memory required for data: 1144900896
I0403 15:21:57.743763 11876 layer_factory.hpp:77] Creating layer inception_4d/pool_proj
I0403 15:21:57.743787 11876 net.cpp:91] Creating Layer inception_4d/pool_proj
I0403 15:21:57.743805 11876 net.cpp:425] inception_4d/pool_proj <- inception_4d/pool
I0403 15:21:57.743826 11876 net.cpp:399] inception_4d/pool_proj -> inception_4d/pool_proj
I0403 15:21:57.745663 11876 net.cpp:141] Setting up inception_4d/pool_proj
I0403 15:21:57.745692 11876 net.cpp:148] Top shape: 24 64 14 14 (301056)
I0403 15:21:57.745707 11876 net.cpp:156] Memory required for data: 1146105120
I0403 15:21:57.745725 11876 layer_factory.hpp:77] Creating layer inception_4d/relu_pool_proj
I0403 15:21:57.745745 11876 net.cpp:91] Creating Layer inception_4d/relu_pool_proj
I0403 15:21:57.745762 11876 net.cpp:425] inception_4d/relu_pool_proj <- inception_4d/pool_proj
I0403 15:21:57.745779 11876 net.cpp:386] inception_4d/relu_pool_proj -> inception_4d/pool_proj (in-place)
I0403 15:21:57.745968 11876 net.cpp:141] Setting up inception_4d/relu_pool_proj
I0403 15:21:57.745995 11876 net.cpp:148] Top shape: 24 64 14 14 (301056)
I0403 15:21:57.746011 11876 net.cpp:156] Memory required for data: 1147309344
I0403 15:21:57.746026 11876 layer_factory.hpp:77] Creating layer inception_4d/output
I0403 15:21:57.746043 11876 net.cpp:91] Creating Layer inception_4d/output
I0403 15:21:57.746059 11876 net.cpp:425] inception_4d/output <- inception_4d/1x1
I0403 15:21:57.746076 11876 net.cpp:425] inception_4d/output <- inception_4d/3x3
I0403 15:21:57.746091 11876 net.cpp:425] inception_4d/output <- inception_4d/5x5
I0403 15:21:57.746107 11876 net.cpp:425] inception_4d/output <- inception_4d/pool_proj
I0403 15:21:57.746124 11876 net.cpp:399] inception_4d/output -> inception_4d/output
I0403 15:21:57.746175 11876 net.cpp:141] Setting up inception_4d/output
I0403 15:21:57.746197 11876 net.cpp:148] Top shape: 24 528 14 14 (2483712)
I0403 15:21:57.746212 11876 net.cpp:156] Memory required for data: 1157244192
I0403 15:21:57.746227 11876 layer_factory.hpp:77] Creating layer inception_4d/output_inception_4d/output_0_split
I0403 15:21:57.746245 11876 net.cpp:91] Creating Layer inception_4d/output_inception_4d/output_0_split
I0403 15:21:57.746263 11876 net.cpp:425] inception_4d/output_inception_4d/output_0_split <- inception_4d/output
I0403 15:21:57.746279 11876 net.cpp:399] inception_4d/output_inception_4d/output_0_split -> inception_4d/output_inception_4d/output_0_split_0
I0403 15:21:57.746300 11876 net.cpp:399] inception_4d/output_inception_4d/output_0_split -> inception_4d/output_inception_4d/output_0_split_1
I0403 15:21:57.746320 11876 net.cpp:399] inception_4d/output_inception_4d/output_0_split -> inception_4d/output_inception_4d/output_0_split_2
I0403 15:21:57.746342 11876 net.cpp:399] inception_4d/output_inception_4d/output_0_split -> inception_4d/output_inception_4d/output_0_split_3
I0403 15:21:57.746368 11876 net.cpp:399] inception_4d/output_inception_4d/output_0_split -> inception_4d/output_inception_4d/output_0_split_4
I0403 15:21:57.746472 11876 net.cpp:141] Setting up inception_4d/output_inception_4d/output_0_split
I0403 15:21:57.746508 11876 net.cpp:148] Top shape: 24 528 14 14 (2483712)
I0403 15:21:57.746526 11876 net.cpp:148] Top shape: 24 528 14 14 (2483712)
I0403 15:21:57.746541 11876 net.cpp:148] Top shape: 24 528 14 14 (2483712)
I0403 15:21:57.746556 11876 net.cpp:148] Top shape: 24 528 14 14 (2483712)
I0403 15:21:57.746572 11876 net.cpp:148] Top shape: 24 528 14 14 (2483712)
I0403 15:21:57.746587 11876 net.cpp:156] Memory required for data: 1206918432
I0403 15:21:57.746601 11876 layer_factory.hpp:77] Creating layer loss2/ave_pool
I0403 15:21:57.746620 11876 net.cpp:91] Creating Layer loss2/ave_pool
I0403 15:21:57.746637 11876 net.cpp:425] loss2/ave_pool <- inception_4d/output_inception_4d/output_0_split_0
I0403 15:21:57.746655 11876 net.cpp:399] loss2/ave_pool -> loss2/ave_pool
I0403 15:21:57.746968 11876 net.cpp:141] Setting up loss2/ave_pool
I0403 15:21:57.746994 11876 net.cpp:148] Top shape: 24 528 4 4 (202752)
I0403 15:21:57.747009 11876 net.cpp:156] Memory required for data: 1207729440
I0403 15:21:57.747025 11876 layer_factory.hpp:77] Creating layer loss2/conv
I0403 15:21:57.747046 11876 net.cpp:91] Creating Layer loss2/conv
I0403 15:21:57.747064 11876 net.cpp:425] loss2/conv <- loss2/ave_pool
I0403 15:21:57.747086 11876 net.cpp:399] loss2/conv -> loss2/conv
I0403 15:21:57.749022 11876 net.cpp:141] Setting up loss2/conv
I0403 15:21:57.749053 11876 net.cpp:148] Top shape: 24 128 4 4 (49152)
I0403 15:21:57.749068 11876 net.cpp:156] Memory required for data: 1207926048
I0403 15:21:57.749086 11876 layer_factory.hpp:77] Creating layer loss2/relu_conv
I0403 15:21:57.749104 11876 net.cpp:91] Creating Layer loss2/relu_conv
I0403 15:21:57.749119 11876 net.cpp:425] loss2/relu_conv <- loss2/conv
I0403 15:21:57.749138 11876 net.cpp:386] loss2/relu_conv -> loss2/conv (in-place)
I0403 15:21:57.749420 11876 net.cpp:141] Setting up loss2/relu_conv
I0403 15:21:57.749449 11876 net.cpp:148] Top shape: 24 128 4 4 (49152)
I0403 15:21:57.749464 11876 net.cpp:156] Memory required for data: 1208122656
I0403 15:21:57.749478 11876 layer_factory.hpp:77] Creating layer loss2/fc
I0403 15:21:57.749496 11876 net.cpp:91] Creating Layer loss2/fc
I0403 15:21:57.749512 11876 net.cpp:425] loss2/fc <- loss2/conv
I0403 15:21:57.749532 11876 net.cpp:399] loss2/fc -> loss2/fc
I0403 15:21:57.766758 11876 net.cpp:141] Setting up loss2/fc
I0403 15:21:57.766795 11876 net.cpp:148] Top shape: 24 1024 (24576)
I0403 15:21:57.766811 11876 net.cpp:156] Memory required for data: 1208220960
I0403 15:21:57.766829 11876 layer_factory.hpp:77] Creating layer loss2/relu_fc
I0403 15:21:57.766846 11876 net.cpp:91] Creating Layer loss2/relu_fc
I0403 15:21:57.766861 11876 net.cpp:425] loss2/relu_fc <- loss2/fc
I0403 15:21:57.766878 11876 net.cpp:386] loss2/relu_fc -> loss2/fc (in-place)
I0403 15:21:57.767179 11876 net.cpp:141] Setting up loss2/relu_fc
I0403 15:21:57.767205 11876 net.cpp:148] Top shape: 24 1024 (24576)
I0403 15:21:57.767220 11876 net.cpp:156] Memory required for data: 1208319264
I0403 15:21:57.767233 11876 layer_factory.hpp:77] Creating layer loss2/drop_fc
I0403 15:21:57.767252 11876 net.cpp:91] Creating Layer loss2/drop_fc
I0403 15:21:57.767268 11876 net.cpp:425] loss2/drop_fc <- loss2/fc
I0403 15:21:57.767285 11876 net.cpp:386] loss2/drop_fc -> loss2/fc (in-place)
I0403 15:21:57.767334 11876 net.cpp:141] Setting up loss2/drop_fc
I0403 15:21:57.767360 11876 net.cpp:148] Top shape: 24 1024 (24576)
I0403 15:21:57.767375 11876 net.cpp:156] Memory required for data: 1208417568
I0403 15:21:57.767388 11876 layer_factory.hpp:77] Creating layer loss2/classifier_plantvillage
I0403 15:21:57.767408 11876 net.cpp:91] Creating Layer loss2/classifier_plantvillage
I0403 15:21:57.767424 11876 net.cpp:425] loss2/classifier_plantvillage <- loss2/fc
I0403 15:21:57.767442 11876 net.cpp:399] loss2/classifier_plantvillage -> loss2/classifier_plantvillage
I0403 15:21:57.767838 11876 net.cpp:141] Setting up loss2/classifier_plantvillage
I0403 15:21:57.767861 11876 net.cpp:148] Top shape: 24 38 (912)
I0403 15:21:57.767892 11876 net.cpp:156] Memory required for data: 1208421216
I0403 15:21:57.767910 11876 layer_factory.hpp:77] Creating layer loss2/classifier_plantvillage_loss2/classifier_plantvillage_0_split
I0403 15:21:57.767928 11876 net.cpp:91] Creating Layer loss2/classifier_plantvillage_loss2/classifier_plantvillage_0_split
I0403 15:21:57.767943 11876 net.cpp:425] loss2/classifier_plantvillage_loss2/classifier_plantvillage_0_split <- loss2/classifier_plantvillage
I0403 15:21:57.767963 11876 net.cpp:399] loss2/classifier_plantvillage_loss2/classifier_plantvillage_0_split -> loss2/classifier_plantvillage_loss2/classifier_plantvillage_0_split_0
I0403 15:21:57.767983 11876 net.cpp:399] loss2/classifier_plantvillage_loss2/classifier_plantvillage_0_split -> loss2/classifier_plantvillage_loss2/classifier_plantvillage_0_split_1
I0403 15:21:57.768003 11876 net.cpp:399] loss2/classifier_plantvillage_loss2/classifier_plantvillage_0_split -> loss2/classifier_plantvillage_loss2/classifier_plantvillage_0_split_2
I0403 15:21:57.768077 11876 net.cpp:141] Setting up loss2/classifier_plantvillage_loss2/classifier_plantvillage_0_split
I0403 15:21:57.768102 11876 net.cpp:148] Top shape: 24 38 (912)
I0403 15:21:57.768118 11876 net.cpp:148] Top shape: 24 38 (912)
I0403 15:21:57.768133 11876 net.cpp:148] Top shape: 24 38 (912)
I0403 15:21:57.768146 11876 net.cpp:156] Memory required for data: 1208432160
I0403 15:21:57.768160 11876 layer_factory.hpp:77] Creating layer inception_4e/1x1
I0403 15:21:57.768182 11876 net.cpp:91] Creating Layer inception_4e/1x1
I0403 15:21:57.768198 11876 net.cpp:425] inception_4e/1x1 <- inception_4d/output_inception_4d/output_0_split_1
I0403 15:21:57.768216 11876 net.cpp:399] inception_4e/1x1 -> inception_4e/1x1
I0403 15:21:57.769999 11876 net.cpp:141] Setting up inception_4e/1x1
I0403 15:21:57.770028 11876 net.cpp:148] Top shape: 24 256 14 14 (1204224)
I0403 15:21:57.770043 11876 net.cpp:156] Memory required for data: 1213249056
I0403 15:21:57.770061 11876 layer_factory.hpp:77] Creating layer inception_4e/relu_1x1
I0403 15:21:57.770077 11876 net.cpp:91] Creating Layer inception_4e/relu_1x1
I0403 15:21:57.770092 11876 net.cpp:425] inception_4e/relu_1x1 <- inception_4e/1x1
I0403 15:21:57.770112 11876 net.cpp:386] inception_4e/relu_1x1 -> inception_4e/1x1 (in-place)
I0403 15:21:57.770407 11876 net.cpp:141] Setting up inception_4e/relu_1x1
I0403 15:21:57.770434 11876 net.cpp:148] Top shape: 24 256 14 14 (1204224)
I0403 15:21:57.770449 11876 net.cpp:156] Memory required for data: 1218065952
I0403 15:21:57.770464 11876 layer_factory.hpp:77] Creating layer inception_4e/3x3_reduce
I0403 15:21:57.770485 11876 net.cpp:91] Creating Layer inception_4e/3x3_reduce
I0403 15:21:57.770501 11876 net.cpp:425] inception_4e/3x3_reduce <- inception_4d/output_inception_4d/output_0_split_2
I0403 15:21:57.770520 11876 net.cpp:399] inception_4e/3x3_reduce -> inception_4e/3x3_reduce
I0403 15:21:57.772586 11876 net.cpp:141] Setting up inception_4e/3x3_reduce
I0403 15:21:57.772616 11876 net.cpp:148] Top shape: 24 160 14 14 (752640)
I0403 15:21:57.772632 11876 net.cpp:156] Memory required for data: 1221076512
I0403 15:21:57.772650 11876 layer_factory.hpp:77] Creating layer inception_4e/relu_3x3_reduce
I0403 15:21:57.772667 11876 net.cpp:91] Creating Layer inception_4e/relu_3x3_reduce
I0403 15:21:57.772683 11876 net.cpp:425] inception_4e/relu_3x3_reduce <- inception_4e/3x3_reduce
I0403 15:21:57.772701 11876 net.cpp:386] inception_4e/relu_3x3_reduce -> inception_4e/3x3_reduce (in-place)
I0403 15:21:57.772887 11876 net.cpp:141] Setting up inception_4e/relu_3x3_reduce
I0403 15:21:57.772912 11876 net.cpp:148] Top shape: 24 160 14 14 (752640)
I0403 15:21:57.772927 11876 net.cpp:156] Memory required for data: 1224087072
I0403 15:21:57.772940 11876 layer_factory.hpp:77] Creating layer inception_4e/3x3
I0403 15:21:57.772961 11876 net.cpp:91] Creating Layer inception_4e/3x3
I0403 15:21:57.772979 11876 net.cpp:425] inception_4e/3x3 <- inception_4e/3x3_reduce
I0403 15:21:57.773000 11876 net.cpp:399] inception_4e/3x3 -> inception_4e/3x3
I0403 15:21:57.777868 11876 net.cpp:141] Setting up inception_4e/3x3
I0403 15:21:57.777910 11876 net.cpp:148] Top shape: 24 320 14 14 (1505280)
I0403 15:21:57.777926 11876 net.cpp:156] Memory required for data: 1230108192
I0403 15:21:57.777945 11876 layer_factory.hpp:77] Creating layer inception_4e/relu_3x3
I0403 15:21:57.777961 11876 net.cpp:91] Creating Layer inception_4e/relu_3x3
I0403 15:21:57.777981 11876 net.cpp:425] inception_4e/relu_3x3 <- inception_4e/3x3
I0403 15:21:57.777998 11876 net.cpp:386] inception_4e/relu_3x3 -> inception_4e/3x3 (in-place)
I0403 15:21:57.778292 11876 net.cpp:141] Setting up inception_4e/relu_3x3
I0403 15:21:57.778318 11876 net.cpp:148] Top shape: 24 320 14 14 (1505280)
I0403 15:21:57.778333 11876 net.cpp:156] Memory required for data: 1236129312
I0403 15:21:57.778352 11876 layer_factory.hpp:77] Creating layer inception_4e/5x5_reduce
I0403 15:21:57.778374 11876 net.cpp:91] Creating Layer inception_4e/5x5_reduce
I0403 15:21:57.778391 11876 net.cpp:425] inception_4e/5x5_reduce <- inception_4d/output_inception_4d/output_0_split_3
I0403 15:21:57.778412 11876 net.cpp:399] inception_4e/5x5_reduce -> inception_4e/5x5_reduce
I0403 15:21:57.779466 11876 net.cpp:141] Setting up inception_4e/5x5_reduce
I0403 15:21:57.779495 11876 net.cpp:148] Top shape: 24 32 14 14 (150528)
I0403 15:21:57.779511 11876 net.cpp:156] Memory required for data: 1236731424
I0403 15:21:57.779528 11876 layer_factory.hpp:77] Creating layer inception_4e/relu_5x5_reduce
I0403 15:21:57.779546 11876 net.cpp:91] Creating Layer inception_4e/relu_5x5_reduce
I0403 15:21:57.779561 11876 net.cpp:425] inception_4e/relu_5x5_reduce <- inception_4e/5x5_reduce
I0403 15:21:57.779580 11876 net.cpp:386] inception_4e/relu_5x5_reduce -> inception_4e/5x5_reduce (in-place)
I0403 15:21:57.779875 11876 net.cpp:141] Setting up inception_4e/relu_5x5_reduce
I0403 15:21:57.779901 11876 net.cpp:148] Top shape: 24 32 14 14 (150528)
I0403 15:21:57.779917 11876 net.cpp:156] Memory required for data: 1237333536
I0403 15:21:57.779932 11876 layer_factory.hpp:77] Creating layer inception_4e/5x5
I0403 15:21:57.779969 11876 net.cpp:91] Creating Layer inception_4e/5x5
I0403 15:21:57.779988 11876 net.cpp:425] inception_4e/5x5 <- inception_4e/5x5_reduce
I0403 15:21:57.780006 11876 net.cpp:399] inception_4e/5x5 -> inception_4e/5x5
I0403 15:21:57.781827 11876 net.cpp:141] Setting up inception_4e/5x5
I0403 15:21:57.781853 11876 net.cpp:148] Top shape: 24 128 14 14 (602112)
I0403 15:21:57.781869 11876 net.cpp:156] Memory required for data: 1239741984
I0403 15:21:57.781888 11876 layer_factory.hpp:77] Creating layer inception_4e/relu_5x5
I0403 15:21:57.781906 11876 net.cpp:91] Creating Layer inception_4e/relu_5x5
I0403 15:21:57.781924 11876 net.cpp:425] inception_4e/relu_5x5 <- inception_4e/5x5
I0403 15:21:57.781940 11876 net.cpp:386] inception_4e/relu_5x5 -> inception_4e/5x5 (in-place)
I0403 15:21:57.782136 11876 net.cpp:141] Setting up inception_4e/relu_5x5
I0403 15:21:57.782162 11876 net.cpp:148] Top shape: 24 128 14 14 (602112)
I0403 15:21:57.782177 11876 net.cpp:156] Memory required for data: 1242150432
I0403 15:21:57.782191 11876 layer_factory.hpp:77] Creating layer inception_4e/pool
I0403 15:21:57.782208 11876 net.cpp:91] Creating Layer inception_4e/pool
I0403 15:21:57.782223 11876 net.cpp:425] inception_4e/pool <- inception_4d/output_inception_4d/output_0_split_4
I0403 15:21:57.782243 11876 net.cpp:399] inception_4e/pool -> inception_4e/pool
I0403 15:21:57.782311 11876 net.cpp:141] Setting up inception_4e/pool
I0403 15:21:57.782333 11876 net.cpp:148] Top shape: 24 528 14 14 (2483712)
I0403 15:21:57.782351 11876 net.cpp:156] Memory required for data: 1252085280
I0403 15:21:57.782366 11876 layer_factory.hpp:77] Creating layer inception_4e/pool_proj
I0403 15:21:57.782389 11876 net.cpp:91] Creating Layer inception_4e/pool_proj
I0403 15:21:57.782407 11876 net.cpp:425] inception_4e/pool_proj <- inception_4e/pool
I0403 15:21:57.782424 11876 net.cpp:399] inception_4e/pool_proj -> inception_4e/pool_proj
I0403 15:21:57.783913 11876 net.cpp:141] Setting up inception_4e/pool_proj
I0403 15:21:57.783953 11876 net.cpp:148] Top shape: 24 128 14 14 (602112)
I0403 15:21:57.783969 11876 net.cpp:156] Memory required for data: 1254493728
I0403 15:21:57.783987 11876 layer_factory.hpp:77] Creating layer inception_4e/relu_pool_proj
I0403 15:21:57.784006 11876 net.cpp:91] Creating Layer inception_4e/relu_pool_proj
I0403 15:21:57.784024 11876 net.cpp:425] inception_4e/relu_pool_proj <- inception_4e/pool_proj
I0403 15:21:57.784040 11876 net.cpp:386] inception_4e/relu_pool_proj -> inception_4e/pool_proj (in-place)
I0403 15:21:57.784334 11876 net.cpp:141] Setting up inception_4e/relu_pool_proj
I0403 15:21:57.784363 11876 net.cpp:148] Top shape: 24 128 14 14 (602112)
I0403 15:21:57.784379 11876 net.cpp:156] Memory required for data: 1256902176
I0403 15:21:57.784394 11876 layer_factory.hpp:77] Creating layer inception_4e/output
I0403 15:21:57.784414 11876 net.cpp:91] Creating Layer inception_4e/output
I0403 15:21:57.784430 11876 net.cpp:425] inception_4e/output <- inception_4e/1x1
I0403 15:21:57.784446 11876 net.cpp:425] inception_4e/output <- inception_4e/3x3
I0403 15:21:57.784461 11876 net.cpp:425] inception_4e/output <- inception_4e/5x5
I0403 15:21:57.784477 11876 net.cpp:425] inception_4e/output <- inception_4e/pool_proj
I0403 15:21:57.784493 11876 net.cpp:399] inception_4e/output -> inception_4e/output
I0403 15:21:57.784543 11876 net.cpp:141] Setting up inception_4e/output
I0403 15:21:57.784566 11876 net.cpp:148] Top shape: 24 832 14 14 (3913728)
I0403 15:21:57.784581 11876 net.cpp:156] Memory required for data: 1272557088
I0403 15:21:57.784595 11876 layer_factory.hpp:77] Creating layer pool4/3x3_s2
I0403 15:21:57.784612 11876 net.cpp:91] Creating Layer pool4/3x3_s2
I0403 15:21:57.784628 11876 net.cpp:425] pool4/3x3_s2 <- inception_4e/output
I0403 15:21:57.784648 11876 net.cpp:399] pool4/3x3_s2 -> pool4/3x3_s2
I0403 15:21:57.784713 11876 net.cpp:141] Setting up pool4/3x3_s2
I0403 15:21:57.784736 11876 net.cpp:148] Top shape: 24 832 7 7 (978432)
I0403 15:21:57.784750 11876 net.cpp:156] Memory required for data: 1276470816
I0403 15:21:57.784764 11876 layer_factory.hpp:77] Creating layer pool4/3x3_s2_pool4/3x3_s2_0_split
I0403 15:21:57.784783 11876 net.cpp:91] Creating Layer pool4/3x3_s2_pool4/3x3_s2_0_split
I0403 15:21:57.784801 11876 net.cpp:425] pool4/3x3_s2_pool4/3x3_s2_0_split <- pool4/3x3_s2
I0403 15:21:57.784819 11876 net.cpp:399] pool4/3x3_s2_pool4/3x3_s2_0_split -> pool4/3x3_s2_pool4/3x3_s2_0_split_0
I0403 15:21:57.784840 11876 net.cpp:399] pool4/3x3_s2_pool4/3x3_s2_0_split -> pool4/3x3_s2_pool4/3x3_s2_0_split_1
I0403 15:21:57.784859 11876 net.cpp:399] pool4/3x3_s2_pool4/3x3_s2_0_split -> pool4/3x3_s2_pool4/3x3_s2_0_split_2
I0403 15:21:57.784878 11876 net.cpp:399] pool4/3x3_s2_pool4/3x3_s2_0_split -> pool4/3x3_s2_pool4/3x3_s2_0_split_3
I0403 15:21:57.784967 11876 net.cpp:141] Setting up pool4/3x3_s2_pool4/3x3_s2_0_split
I0403 15:21:57.784989 11876 net.cpp:148] Top shape: 24 832 7 7 (978432)
I0403 15:21:57.785006 11876 net.cpp:148] Top shape: 24 832 7 7 (978432)
I0403 15:21:57.785020 11876 net.cpp:148] Top shape: 24 832 7 7 (978432)
I0403 15:21:57.785035 11876 net.cpp:148] Top shape: 24 832 7 7 (978432)
I0403 15:21:57.785048 11876 net.cpp:156] Memory required for data: 1292125728
I0403 15:21:57.785063 11876 layer_factory.hpp:77] Creating layer inception_5a/1x1
I0403 15:21:57.785084 11876 net.cpp:91] Creating Layer inception_5a/1x1
I0403 15:21:57.785099 11876 net.cpp:425] inception_5a/1x1 <- pool4/3x3_s2_pool4/3x3_s2_0_split_0
I0403 15:21:57.785120 11876 net.cpp:399] inception_5a/1x1 -> inception_5a/1x1
I0403 15:21:57.787997 11876 net.cpp:141] Setting up inception_5a/1x1
I0403 15:21:57.788028 11876 net.cpp:148] Top shape: 24 256 7 7 (301056)
I0403 15:21:57.788044 11876 net.cpp:156] Memory required for data: 1293329952
I0403 15:21:57.788063 11876 layer_factory.hpp:77] Creating layer inception_5a/relu_1x1
I0403 15:21:57.788079 11876 net.cpp:91] Creating Layer inception_5a/relu_1x1
I0403 15:21:57.788095 11876 net.cpp:425] inception_5a/relu_1x1 <- inception_5a/1x1
I0403 15:21:57.788113 11876 net.cpp:386] inception_5a/relu_1x1 -> inception_5a/1x1 (in-place)
I0403 15:21:57.788432 11876 net.cpp:141] Setting up inception_5a/relu_1x1
I0403 15:21:57.788461 11876 net.cpp:148] Top shape: 24 256 7 7 (301056)
I0403 15:21:57.788477 11876 net.cpp:156] Memory required for data: 1294534176
I0403 15:21:57.788492 11876 layer_factory.hpp:77] Creating layer inception_5a/3x3_reduce
I0403 15:21:57.788514 11876 net.cpp:91] Creating Layer inception_5a/3x3_reduce
I0403 15:21:57.788532 11876 net.cpp:425] inception_5a/3x3_reduce <- pool4/3x3_s2_pool4/3x3_s2_0_split_1
I0403 15:21:57.788549 11876 net.cpp:399] inception_5a/3x3_reduce -> inception_5a/3x3_reduce
I0403 15:21:57.791010 11876 net.cpp:141] Setting up inception_5a/3x3_reduce
I0403 15:21:57.791038 11876 net.cpp:148] Top shape: 24 160 7 7 (188160)
I0403 15:21:57.791054 11876 net.cpp:156] Memory required for data: 1295286816
I0403 15:21:57.791072 11876 layer_factory.hpp:77] Creating layer inception_5a/relu_3x3_reduce
I0403 15:21:57.791093 11876 net.cpp:91] Creating Layer inception_5a/relu_3x3_reduce
I0403 15:21:57.791111 11876 net.cpp:425] inception_5a/relu_3x3_reduce <- inception_5a/3x3_reduce
I0403 15:21:57.791128 11876 net.cpp:386] inception_5a/relu_3x3_reduce -> inception_5a/3x3_reduce (in-place)
I0403 15:21:57.791318 11876 net.cpp:141] Setting up inception_5a/relu_3x3_reduce
I0403 15:21:57.791342 11876 net.cpp:148] Top shape: 24 160 7 7 (188160)
I0403 15:21:57.791366 11876 net.cpp:156] Memory required for data: 1296039456
I0403 15:21:57.791381 11876 layer_factory.hpp:77] Creating layer inception_5a/3x3
I0403 15:21:57.791401 11876 net.cpp:91] Creating Layer inception_5a/3x3
I0403 15:21:57.791417 11876 net.cpp:425] inception_5a/3x3 <- inception_5a/3x3_reduce
I0403 15:21:57.791440 11876 net.cpp:399] inception_5a/3x3 -> inception_5a/3x3
I0403 15:21:57.796615 11876 net.cpp:141] Setting up inception_5a/3x3
I0403 15:21:57.796645 11876 net.cpp:148] Top shape: 24 320 7 7 (376320)
I0403 15:21:57.796661 11876 net.cpp:156] Memory required for data: 1297544736
I0403 15:21:57.796680 11876 layer_factory.hpp:77] Creating layer inception_5a/relu_3x3
I0403 15:21:57.796701 11876 net.cpp:91] Creating Layer inception_5a/relu_3x3
I0403 15:21:57.796718 11876 net.cpp:425] inception_5a/relu_3x3 <- inception_5a/3x3
I0403 15:21:57.796736 11876 net.cpp:386] inception_5a/relu_3x3 -> inception_5a/3x3 (in-place)
I0403 15:21:57.797047 11876 net.cpp:141] Setting up inception_5a/relu_3x3
I0403 15:21:57.797075 11876 net.cpp:148] Top shape: 24 320 7 7 (376320)
I0403 15:21:57.797089 11876 net.cpp:156] Memory required for data: 1299050016
I0403 15:21:57.797106 11876 layer_factory.hpp:77] Creating layer inception_5a/5x5_reduce
I0403 15:21:57.797130 11876 net.cpp:91] Creating Layer inception_5a/5x5_reduce
I0403 15:21:57.797148 11876 net.cpp:425] inception_5a/5x5_reduce <- pool4/3x3_s2_pool4/3x3_s2_0_split_2
I0403 15:21:57.797169 11876 net.cpp:399] inception_5a/5x5_reduce -> inception_5a/5x5_reduce
I0403 15:21:57.798405 11876 net.cpp:141] Setting up inception_5a/5x5_reduce
I0403 15:21:57.798437 11876 net.cpp:148] Top shape: 24 32 7 7 (37632)
I0403 15:21:57.798454 11876 net.cpp:156] Memory required for data: 1299200544
I0403 15:21:57.798473 11876 layer_factory.hpp:77] Creating layer inception_5a/relu_5x5_reduce
I0403 15:21:57.798491 11876 net.cpp:91] Creating Layer inception_5a/relu_5x5_reduce
I0403 15:21:57.798508 11876 net.cpp:425] inception_5a/relu_5x5_reduce <- inception_5a/5x5_reduce
I0403 15:21:57.798526 11876 net.cpp:386] inception_5a/relu_5x5_reduce -> inception_5a/5x5_reduce (in-place)
I0403 15:21:57.798843 11876 net.cpp:141] Setting up inception_5a/relu_5x5_reduce
I0403 15:21:57.798871 11876 net.cpp:148] Top shape: 24 32 7 7 (37632)
I0403 15:21:57.798888 11876 net.cpp:156] Memory required for data: 1299351072
I0403 15:21:57.798904 11876 layer_factory.hpp:77] Creating layer inception_5a/5x5
I0403 15:21:57.798926 11876 net.cpp:91] Creating Layer inception_5a/5x5
I0403 15:21:57.798944 11876 net.cpp:425] inception_5a/5x5 <- inception_5a/5x5_reduce
I0403 15:21:57.798964 11876 net.cpp:399] inception_5a/5x5 -> inception_5a/5x5
I0403 15:21:57.800763 11876 net.cpp:141] Setting up inception_5a/5x5
I0403 15:21:57.800804 11876 net.cpp:148] Top shape: 24 128 7 7 (150528)
I0403 15:21:57.800822 11876 net.cpp:156] Memory required for data: 1299953184
I0403 15:21:57.800840 11876 layer_factory.hpp:77] Creating layer inception_5a/relu_5x5
I0403 15:21:57.800861 11876 net.cpp:91] Creating Layer inception_5a/relu_5x5
I0403 15:21:57.800879 11876 net.cpp:425] inception_5a/relu_5x5 <- inception_5a/5x5
I0403 15:21:57.800896 11876 net.cpp:386] inception_5a/relu_5x5 -> inception_5a/5x5 (in-place)
I0403 15:21:57.801100 11876 net.cpp:141] Setting up inception_5a/relu_5x5
I0403 15:21:57.801126 11876 net.cpp:148] Top shape: 24 128 7 7 (150528)
I0403 15:21:57.801141 11876 net.cpp:156] Memory required for data: 1300555296
I0403 15:21:57.801156 11876 layer_factory.hpp:77] Creating layer inception_5a/pool
I0403 15:21:57.801173 11876 net.cpp:91] Creating Layer inception_5a/pool
I0403 15:21:57.801189 11876 net.cpp:425] inception_5a/pool <- pool4/3x3_s2_pool4/3x3_s2_0_split_3
I0403 15:21:57.801210 11876 net.cpp:399] inception_5a/pool -> inception_5a/pool
I0403 15:21:57.801285 11876 net.cpp:141] Setting up inception_5a/pool
I0403 15:21:57.801308 11876 net.cpp:148] Top shape: 24 832 7 7 (978432)
I0403 15:21:57.801323 11876 net.cpp:156] Memory required for data: 1304469024
I0403 15:21:57.801337 11876 layer_factory.hpp:77] Creating layer inception_5a/pool_proj
I0403 15:21:57.801367 11876 net.cpp:91] Creating Layer inception_5a/pool_proj
I0403 15:21:57.801385 11876 net.cpp:425] inception_5a/pool_proj <- inception_5a/pool
I0403 15:21:57.801405 11876 net.cpp:399] inception_5a/pool_proj -> inception_5a/pool_proj
I0403 15:21:57.803819 11876 net.cpp:141] Setting up inception_5a/pool_proj
I0403 15:21:57.803848 11876 net.cpp:148] Top shape: 24 128 7 7 (150528)
I0403 15:21:57.803864 11876 net.cpp:156] Memory required for data: 1305071136
I0403 15:21:57.803881 11876 layer_factory.hpp:77] Creating layer inception_5a/relu_pool_proj
I0403 15:21:57.803901 11876 net.cpp:91] Creating Layer inception_5a/relu_pool_proj
I0403 15:21:57.803918 11876 net.cpp:425] inception_5a/relu_pool_proj <- inception_5a/pool_proj
I0403 15:21:57.803936 11876 net.cpp:386] inception_5a/relu_pool_proj -> inception_5a/pool_proj (in-place)
I0403 15:21:57.804239 11876 net.cpp:141] Setting up inception_5a/relu_pool_proj
I0403 15:21:57.804265 11876 net.cpp:148] Top shape: 24 128 7 7 (150528)
I0403 15:21:57.804280 11876 net.cpp:156] Memory required for data: 1305673248
I0403 15:21:57.804294 11876 layer_factory.hpp:77] Creating layer inception_5a/output
I0403 15:21:57.804314 11876 net.cpp:91] Creating Layer inception_5a/output
I0403 15:21:57.804332 11876 net.cpp:425] inception_5a/output <- inception_5a/1x1
I0403 15:21:57.804352 11876 net.cpp:425] inception_5a/output <- inception_5a/3x3
I0403 15:21:57.804370 11876 net.cpp:425] inception_5a/output <- inception_5a/5x5
I0403 15:21:57.804386 11876 net.cpp:425] inception_5a/output <- inception_5a/pool_proj
I0403 15:21:57.804402 11876 net.cpp:399] inception_5a/output -> inception_5a/output
I0403 15:21:57.804455 11876 net.cpp:141] Setting up inception_5a/output
I0403 15:21:57.804478 11876 net.cpp:148] Top shape: 24 832 7 7 (978432)
I0403 15:21:57.804492 11876 net.cpp:156] Memory required for data: 1309586976
I0403 15:21:57.804507 11876 layer_factory.hpp:77] Creating layer inception_5a/output_inception_5a/output_0_split
I0403 15:21:57.804524 11876 net.cpp:91] Creating Layer inception_5a/output_inception_5a/output_0_split
I0403 15:21:57.804539 11876 net.cpp:425] inception_5a/output_inception_5a/output_0_split <- inception_5a/output
I0403 15:21:57.804559 11876 net.cpp:399] inception_5a/output_inception_5a/output_0_split -> inception_5a/output_inception_5a/output_0_split_0
I0403 15:21:57.804582 11876 net.cpp:399] inception_5a/output_inception_5a/output_0_split -> inception_5a/output_inception_5a/output_0_split_1
I0403 15:21:57.804602 11876 net.cpp:399] inception_5a/output_inception_5a/output_0_split -> inception_5a/output_inception_5a/output_0_split_2
I0403 15:21:57.804622 11876 net.cpp:399] inception_5a/output_inception_5a/output_0_split -> inception_5a/output_inception_5a/output_0_split_3
I0403 15:21:57.804734 11876 net.cpp:141] Setting up inception_5a/output_inception_5a/output_0_split
I0403 15:21:57.804760 11876 net.cpp:148] Top shape: 24 832 7 7 (978432)
I0403 15:21:57.804777 11876 net.cpp:148] Top shape: 24 832 7 7 (978432)
I0403 15:21:57.804792 11876 net.cpp:148] Top shape: 24 832 7 7 (978432)
I0403 15:21:57.804807 11876 net.cpp:148] Top shape: 24 832 7 7 (978432)
I0403 15:21:57.804821 11876 net.cpp:156] Memory required for data: 1325241888
I0403 15:21:57.804836 11876 layer_factory.hpp:77] Creating layer inception_5b/1x1
I0403 15:21:57.804857 11876 net.cpp:91] Creating Layer inception_5b/1x1
I0403 15:21:57.804875 11876 net.cpp:425] inception_5b/1x1 <- inception_5a/output_inception_5a/output_0_split_0
I0403 15:21:57.804893 11876 net.cpp:399] inception_5b/1x1 -> inception_5b/1x1
I0403 15:21:57.808749 11876 net.cpp:141] Setting up inception_5b/1x1
I0403 15:21:57.808779 11876 net.cpp:148] Top shape: 24 384 7 7 (451584)
I0403 15:21:57.808795 11876 net.cpp:156] Memory required for data: 1327048224
I0403 15:21:57.808815 11876 layer_factory.hpp:77] Creating layer inception_5b/relu_1x1
I0403 15:21:57.808836 11876 net.cpp:91] Creating Layer inception_5b/relu_1x1
I0403 15:21:57.808853 11876 net.cpp:425] inception_5b/relu_1x1 <- inception_5b/1x1
I0403 15:21:57.808883 11876 net.cpp:386] inception_5b/relu_1x1 -> inception_5b/1x1 (in-place)
I0403 15:21:57.809218 11876 net.cpp:141] Setting up inception_5b/relu_1x1
I0403 15:21:57.809248 11876 net.cpp:148] Top shape: 24 384 7 7 (451584)
I0403 15:21:57.809264 11876 net.cpp:156] Memory required for data: 1328854560
I0403 15:21:57.809279 11876 layer_factory.hpp:77] Creating layer inception_5b/3x3_reduce
I0403 15:21:57.809303 11876 net.cpp:91] Creating Layer inception_5b/3x3_reduce
I0403 15:21:57.809320 11876 net.cpp:425] inception_5b/3x3_reduce <- inception_5a/output_inception_5a/output_0_split_1
I0403 15:21:57.809345 11876 net.cpp:399] inception_5b/3x3_reduce -> inception_5b/3x3_reduce
I0403 15:21:57.812053 11876 net.cpp:141] Setting up inception_5b/3x3_reduce
I0403 15:21:57.812083 11876 net.cpp:148] Top shape: 24 192 7 7 (225792)
I0403 15:21:57.812098 11876 net.cpp:156] Memory required for data: 1329757728
I0403 15:21:57.812117 11876 layer_factory.hpp:77] Creating layer inception_5b/relu_3x3_reduce
I0403 15:21:57.812137 11876 net.cpp:91] Creating Layer inception_5b/relu_3x3_reduce
I0403 15:21:57.812155 11876 net.cpp:425] inception_5b/relu_3x3_reduce <- inception_5b/3x3_reduce
I0403 15:21:57.812172 11876 net.cpp:386] inception_5b/relu_3x3_reduce -> inception_5b/3x3_reduce (in-place)
I0403 15:21:57.812371 11876 net.cpp:141] Setting up inception_5b/relu_3x3_reduce
I0403 15:21:57.812396 11876 net.cpp:148] Top shape: 24 192 7 7 (225792)
I0403 15:21:57.812410 11876 net.cpp:156] Memory required for data: 1330660896
I0403 15:21:57.812425 11876 layer_factory.hpp:77] Creating layer inception_5b/3x3
I0403 15:21:57.812448 11876 net.cpp:91] Creating Layer inception_5b/3x3
I0403 15:21:57.812466 11876 net.cpp:425] inception_5b/3x3 <- inception_5b/3x3_reduce
I0403 15:21:57.812485 11876 net.cpp:399] inception_5b/3x3 -> inception_5b/3x3
I0403 15:21:57.819314 11876 net.cpp:141] Setting up inception_5b/3x3
I0403 15:21:57.819344 11876 net.cpp:148] Top shape: 24 384 7 7 (451584)
I0403 15:21:57.819365 11876 net.cpp:156] Memory required for data: 1332467232
I0403 15:21:57.819383 11876 layer_factory.hpp:77] Creating layer inception_5b/relu_3x3
I0403 15:21:57.819404 11876 net.cpp:91] Creating Layer inception_5b/relu_3x3
I0403 15:21:57.819422 11876 net.cpp:425] inception_5b/relu_3x3 <- inception_5b/3x3
I0403 15:21:57.819438 11876 net.cpp:386] inception_5b/relu_3x3 -> inception_5b/3x3 (in-place)
I0403 15:21:57.819743 11876 net.cpp:141] Setting up inception_5b/relu_3x3
I0403 15:21:57.819769 11876 net.cpp:148] Top shape: 24 384 7 7 (451584)
I0403 15:21:57.819784 11876 net.cpp:156] Memory required for data: 1334273568
I0403 15:21:57.819798 11876 layer_factory.hpp:77] Creating layer inception_5b/5x5_reduce
I0403 15:21:57.819839 11876 net.cpp:91] Creating Layer inception_5b/5x5_reduce
I0403 15:21:57.819857 11876 net.cpp:425] inception_5b/5x5_reduce <- inception_5a/output_inception_5a/output_0_split_2
I0403 15:21:57.819878 11876 net.cpp:399] inception_5b/5x5_reduce -> inception_5b/5x5_reduce
I0403 15:21:57.821178 11876 net.cpp:141] Setting up inception_5b/5x5_reduce
I0403 15:21:57.821205 11876 net.cpp:148] Top shape: 24 48 7 7 (56448)
I0403 15:21:57.821221 11876 net.cpp:156] Memory required for data: 1334499360
I0403 15:21:57.821239 11876 layer_factory.hpp:77] Creating layer inception_5b/relu_5x5_reduce
I0403 15:21:57.821259 11876 net.cpp:91] Creating Layer inception_5b/relu_5x5_reduce
I0403 15:21:57.821276 11876 net.cpp:425] inception_5b/relu_5x5_reduce <- inception_5b/5x5_reduce
I0403 15:21:57.821293 11876 net.cpp:386] inception_5b/relu_5x5_reduce -> inception_5b/5x5_reduce (in-place)
I0403 15:21:57.821676 11876 net.cpp:141] Setting up inception_5b/relu_5x5_reduce
I0403 15:21:57.821703 11876 net.cpp:148] Top shape: 24 48 7 7 (56448)
I0403 15:21:57.821718 11876 net.cpp:156] Memory required for data: 1334725152
I0403 15:21:57.821733 11876 layer_factory.hpp:77] Creating layer inception_5b/5x5
I0403 15:21:57.821753 11876 net.cpp:91] Creating Layer inception_5b/5x5
I0403 15:21:57.821769 11876 net.cpp:425] inception_5b/5x5 <- inception_5b/5x5_reduce
I0403 15:21:57.821789 11876 net.cpp:399] inception_5b/5x5 -> inception_5b/5x5
I0403 15:21:57.823890 11876 net.cpp:141] Setting up inception_5b/5x5
I0403 15:21:57.823920 11876 net.cpp:148] Top shape: 24 128 7 7 (150528)
I0403 15:21:57.823936 11876 net.cpp:156] Memory required for data: 1335327264
I0403 15:21:57.823956 11876 layer_factory.hpp:77] Creating layer inception_5b/relu_5x5
I0403 15:21:57.823973 11876 net.cpp:91] Creating Layer inception_5b/relu_5x5
I0403 15:21:57.823989 11876 net.cpp:425] inception_5b/relu_5x5 <- inception_5b/5x5
I0403 15:21:57.824007 11876 net.cpp:386] inception_5b/relu_5x5 -> inception_5b/5x5 (in-place)
I0403 15:21:57.824205 11876 net.cpp:141] Setting up inception_5b/relu_5x5
I0403 15:21:57.824232 11876 net.cpp:148] Top shape: 24 128 7 7 (150528)
I0403 15:21:57.824249 11876 net.cpp:156] Memory required for data: 1335929376
I0403 15:21:57.824262 11876 layer_factory.hpp:77] Creating layer inception_5b/pool
I0403 15:21:57.824280 11876 net.cpp:91] Creating Layer inception_5b/pool
I0403 15:21:57.824296 11876 net.cpp:425] inception_5b/pool <- inception_5a/output_inception_5a/output_0_split_3
I0403 15:21:57.824316 11876 net.cpp:399] inception_5b/pool -> inception_5b/pool
I0403 15:21:57.824393 11876 net.cpp:141] Setting up inception_5b/pool
I0403 15:21:57.824419 11876 net.cpp:148] Top shape: 24 832 7 7 (978432)
I0403 15:21:57.824435 11876 net.cpp:156] Memory required for data: 1339843104
I0403 15:21:57.824450 11876 layer_factory.hpp:77] Creating layer inception_5b/pool_proj
I0403 15:21:57.824470 11876 net.cpp:91] Creating Layer inception_5b/pool_proj
I0403 15:21:57.824488 11876 net.cpp:425] inception_5b/pool_proj <- inception_5b/pool
I0403 15:21:57.824507 11876 net.cpp:399] inception_5b/pool_proj -> inception_5b/pool_proj
I0403 15:21:57.826849 11876 net.cpp:141] Setting up inception_5b/pool_proj
I0403 15:21:57.826879 11876 net.cpp:148] Top shape: 24 128 7 7 (150528)
I0403 15:21:57.826894 11876 net.cpp:156] Memory required for data: 1340445216
I0403 15:21:57.826912 11876 layer_factory.hpp:77] Creating layer inception_5b/relu_pool_proj
I0403 15:21:57.826932 11876 net.cpp:91] Creating Layer inception_5b/relu_pool_proj
I0403 15:21:57.826949 11876 net.cpp:425] inception_5b/relu_pool_proj <- inception_5b/pool_proj
I0403 15:21:57.826967 11876 net.cpp:386] inception_5b/relu_pool_proj -> inception_5b/pool_proj (in-place)
I0403 15:21:57.827275 11876 net.cpp:141] Setting up inception_5b/relu_pool_proj
I0403 15:21:57.827302 11876 net.cpp:148] Top shape: 24 128 7 7 (150528)
I0403 15:21:57.827317 11876 net.cpp:156] Memory required for data: 1341047328
I0403 15:21:57.827332 11876 layer_factory.hpp:77] Creating layer inception_5b/output
I0403 15:21:57.827355 11876 net.cpp:91] Creating Layer inception_5b/output
I0403 15:21:57.827388 11876 net.cpp:425] inception_5b/output <- inception_5b/1x1
I0403 15:21:57.827405 11876 net.cpp:425] inception_5b/output <- inception_5b/3x3
I0403 15:21:57.827421 11876 net.cpp:425] inception_5b/output <- inception_5b/5x5
I0403 15:21:57.827436 11876 net.cpp:425] inception_5b/output <- inception_5b/pool_proj
I0403 15:21:57.827455 11876 net.cpp:399] inception_5b/output -> inception_5b/output
I0403 15:21:57.827508 11876 net.cpp:141] Setting up inception_5b/output
I0403 15:21:57.827533 11876 net.cpp:148] Top shape: 24 1024 7 7 (1204224)
I0403 15:21:57.827548 11876 net.cpp:156] Memory required for data: 1345864224
I0403 15:21:57.827561 11876 layer_factory.hpp:77] Creating layer pool5/7x7_s1
I0403 15:21:57.827581 11876 net.cpp:91] Creating Layer pool5/7x7_s1
I0403 15:21:57.827597 11876 net.cpp:425] pool5/7x7_s1 <- inception_5b/output
I0403 15:21:57.827618 11876 net.cpp:399] pool5/7x7_s1 -> pool5/7x7_s1
I0403 15:21:57.827839 11876 net.cpp:141] Setting up pool5/7x7_s1
I0403 15:21:57.827865 11876 net.cpp:148] Top shape: 24 1024 1 1 (24576)
I0403 15:21:57.827879 11876 net.cpp:156] Memory required for data: 1345962528
I0403 15:21:57.827894 11876 layer_factory.hpp:77] Creating layer pool5/drop_7x7_s1
I0403 15:21:57.827914 11876 net.cpp:91] Creating Layer pool5/drop_7x7_s1
I0403 15:21:57.827931 11876 net.cpp:425] pool5/drop_7x7_s1 <- pool5/7x7_s1
I0403 15:21:57.827949 11876 net.cpp:386] pool5/drop_7x7_s1 -> pool5/7x7_s1 (in-place)
I0403 15:21:57.828001 11876 net.cpp:141] Setting up pool5/drop_7x7_s1
I0403 15:21:57.828023 11876 net.cpp:148] Top shape: 24 1024 1 1 (24576)
I0403 15:21:57.828037 11876 net.cpp:156] Memory required for data: 1346060832
I0403 15:21:57.828052 11876 layer_factory.hpp:77] Creating layer loss3/classifier_plantvillage
I0403 15:21:57.828073 11876 net.cpp:91] Creating Layer loss3/classifier_plantvillage
I0403 15:21:57.828089 11876 net.cpp:425] loss3/classifier_plantvillage <- pool5/7x7_s1
I0403 15:21:57.828107 11876 net.cpp:399] loss3/classifier_plantvillage -> loss3/classifier_plantvillage
I0403 15:21:57.828544 11876 net.cpp:141] Setting up loss3/classifier_plantvillage
I0403 15:21:57.828569 11876 net.cpp:148] Top shape: 24 38 (912)
I0403 15:21:57.828583 11876 net.cpp:156] Memory required for data: 1346064480
I0403 15:21:57.828603 11876 layer_factory.hpp:77] Creating layer loss3/classifier_plantvillage_loss3/classifier_plantvillage_0_split
I0403 15:21:57.828620 11876 net.cpp:91] Creating Layer loss3/classifier_plantvillage_loss3/classifier_plantvillage_0_split
I0403 15:21:57.828635 11876 net.cpp:425] loss3/classifier_plantvillage_loss3/classifier_plantvillage_0_split <- loss3/classifier_plantvillage
I0403 15:21:57.828655 11876 net.cpp:399] loss3/classifier_plantvillage_loss3/classifier_plantvillage_0_split -> loss3/classifier_plantvillage_loss3/classifier_plantvillage_0_split_0
I0403 15:21:57.828676 11876 net.cpp:399] loss3/classifier_plantvillage_loss3/classifier_plantvillage_0_split -> loss3/classifier_plantvillage_loss3/classifier_plantvillage_0_split_1
I0403 15:21:57.828696 11876 net.cpp:399] loss3/classifier_plantvillage_loss3/classifier_plantvillage_0_split -> loss3/classifier_plantvillage_loss3/classifier_plantvillage_0_split_2
I0403 15:21:57.828716 11876 net.cpp:399] loss3/classifier_plantvillage_loss3/classifier_plantvillage_0_split -> loss3/classifier_plantvillage_loss3/classifier_plantvillage_0_split_3
I0403 15:21:57.828815 11876 net.cpp:141] Setting up loss3/classifier_plantvillage_loss3/classifier_plantvillage_0_split
I0403 15:21:57.828838 11876 net.cpp:148] Top shape: 24 38 (912)
I0403 15:21:57.828855 11876 net.cpp:148] Top shape: 24 38 (912)
I0403 15:21:57.828869 11876 net.cpp:148] Top shape: 24 38 (912)
I0403 15:21:57.828884 11876 net.cpp:148] Top shape: 24 38 (912)
I0403 15:21:57.828897 11876 net.cpp:156] Memory required for data: 1346079072
I0403 15:21:57.828913 11876 layer_factory.hpp:77] Creating layer loss1/loss
I0403 15:21:57.828933 11876 net.cpp:91] Creating Layer loss1/loss
I0403 15:21:57.828950 11876 net.cpp:425] loss1/loss <- loss1/classifier_plantvillage_loss1/classifier_plantvillage_0_split_0
I0403 15:21:57.828984 11876 net.cpp:425] loss1/loss <- label_data_1_split_0
…
