…
I0403 15:03:37.509141 11552 net.cpp:313] The NetState phase (1) differed from the phase (0) specified by a rule in layer data
I0403 15:03:37.510416 11552 net.cpp:49] Initializing net from parameters: 
state {
  phase: TEST
}
layer {
  name: "data"
  type: "Data"
  top: "data"
  top: "label"
  include {
    phase: TEST
  }
  transform_param {
    mirror: false
    crop_size: 224
    mean_file: "/home/mohanty/data/final_dataset/lmdb/segmented-40-60/mean.binaryproto"
  }
  data_param {
    source: "/home/mohanty/data/final_dataset/lmdb/segmented-40-60/test_db"
    batch_size: 24
    backend: LMDB
  }
}
layer {
  name: "conv1/7x7_s2"
  type: "Convolution"
  bottom: "data"
  top: "conv1/7x7_s2"
  param {
    lr_mult: 1
    decay_mult: 1
  }
  param {
    lr_mult: 2
    decay_mult: 0
  }
  convolution_param {
    num_output: 64
    pad: 3
    kernel_size: 7
    stride: 2
    weight_filler {
      type: "xavier"
      std: 0.1
    }
    bias_filler {
      type: "constant"
      value: 0.2
    }
  }
}
layer {
  name: "conv1/relu_7x7"
  type: "ReLU"
  bottom: "conv1/7x7_s2"
  top: "conv1/7x7_s2"
}
layer {
  name: "pool1/3x3_s2"
  type: "Pooling"
  bottom: "conv1/7x7_s2"
  top: "pool1/3x3_s2"
  pooling_param {
    pool: MAX
    kernel_size: 3
    stride: 2
  }
}
layer {
  name: "pool1/norm1"
  type: "LRN"
  bottom: "pool1/3x3_s2"
  top: "pool1/norm1"
  lrn_param {
    local_size: 5
    alpha: 0.0001
    beta: 0.75
  }
}
layer {
  name: "conv2/3x3_reduce"
  type: "Convolution"
  bottom: "pool1/norm1"
  top: "conv2/3x3_reduce"
  param {
    lr_mult: 1
    decay_mult: 1
  }
  param {
    lr_mult: 2
    decay_mult: 0
  }
  convolution_param {
    num_output: 64
    kernel_size: 1
    weight_filler {
      type: "xavier"
      std: 0.1
    }
    bias_filler {
      type: "constant"
      value: 0.2
    }
  }
}
layer {
  name: "conv2/relu_3x3_reduce"
  type: "ReLU"
  bottom: "conv2/3x3_reduce"
  top: "conv2/3x3_reduce"
}
layer {
  name: "conv2/3x3"
  type: "Convolution"
  bottom: "conv2/3x3_reduce"
  top: "conv2/3x3"
  param {
    lr_mult: 1
    decay_mult: 1
  }
  param {
    lr_mult: 2
    decay_mult: 0
  }
  convolution_param {
    num_output: 192
    pad: 1
    kernel_size: 3
    weight_filler {
      type: "xavier"
      std: 0.03
    }
    bias_filler {
      type: "constant"
      value: 0.2
    }
  }
}
layer {
  name: "conv2/relu_3x3"
  type: "ReLU"
  bottom: "conv2/3x3"
  top: "conv2/3x3"
}
layer {
  name: "conv2/norm2"
  type: "LRN"
  bottom: "conv2/3x3"
  top: "conv2/norm2"
  lrn_param {
    local_size: 5
    alpha: 0.0001
    beta: 0.75
  }
}
layer {
  name: "pool2/3x3_s2"
  type: "Pooling"
  bottom: "conv2/norm2"
  top: "pool2/3x3_s2"
  pooling_param {
    pool: MAX
    kernel_size: 3
    stride: 2
  }
}
layer {
  name: "inception_3a/1x1"
  type: "Convolution"
  bottom: "pool2/3x3_s2"
  top: "inception_3a/1x1"
  param {
    lr_mult: 1
    decay_mult: 1
  }
  param {
    lr_mult: 2
    decay_mult: 0
  }
  convolution_param {
    num_output: 64
    kernel_size: 1
    weight_filler {
      type: "xavier"
      std: 0.03
    }
    bias_filler {
      type: "constant"
      value: 0.2
    }
  }
}
layer {
  name: "inception_3a/relu_1x1"
  type: "ReLU"
  bottom: "inception_3a/1x1"
  top: "inception_3a/1x1"
}
layer {
  name: "inception_3a/3x3_reduce"
  type: "Convolution"
  bottom: "pool2/3x3_s2"
  top: "inception_3a/3x3_reduce"
  param {
    lr_mult: 1
    decay_mult: 1
  }
  param {
    lr_mult: 2
    decay_mult: 0
  }
  convolution_param {
    num_output: 96
    kernel_size: 1
    weight_filler {
      type: "xavier"
      std: 0.09
    }
    bias_filler {
      type: "constant"
      value: 0.2
    }
  }
}
layer {
  name: "inception_3a/relu_3x3_reduce"
  type: "ReLU"
  bottom: "inception_3a/3x3_reduce"
  top: "inception_3a/3x3_reduce"
}
layer {
  name: "inception_3a/3x3"
  type: "Convolution"
  bottom: "inception_3a/3x3_reduce"
  top: "inception_3a/3x3"
  param {
    lr_mult: 1
    decay_mult: 1
  }
  param {
    lr_mult: 2
    decay_mult: 0
  }
  convolution_param {
    num_output: 128
    pad: 1
    kernel_size: 3
    weight_filler {
      type: "xavier"
      std: 0.03
    }
    bias_filler {
      type: "constant"
      value: 0.2
    }
  }
}
layer {
  name: "inception_3a/relu_3x3"
  type: "ReLU"
  bottom: "inception_3a/3x3"
  top: "inception_3a/3x3"
}
layer {
  name: "inception_3a/5x5_reduce"
  type: "Convolution"
  bottom: "pool2/3x3_s2"
  top: "inception_3a/5x5_reduce"
  param {
    lr_mult: 1
    decay_mult: 1
  }
  param {
    lr_mult: 2
    decay_mult: 0
  }
  convolution_param {
    num_output: 16
    kernel_size: 1
    weight_filler {
      type: "xavier"
      std: 0.2
    }
    bias_filler {
      type: "constant"
      value: 0.2
    }
  }
}
layer {
  name: "inception_3a/relu_5x5_reduce"
  type: "ReLU"
  bottom: "inception_3a/5x5_reduce"
  top: "inception_3a/5x5_reduce"
}
layer {
  name: "inception_3a/5x5"
  type: "Convolution"
  bottom: "inception_3a/5x5_reduce"
  top: "inception_3a/5x5"
  param {
    lr_mult: 1
    decay_mult: 1
  }
  param {
    lr_mult: 2
    decay_mult: 0
  }
  convolution_param {
    num_output: 32
    pad: 2
    kernel_size: 5
    weight_filler {
      type: "xavier"
      std: 0.03
    }
    bias_filler {
      type: "constant"
      value: 0.2
    }
  }
}
layer {
  name: "inception_3a/relu_5x5"
  type: "ReLU"
  bottom: "inception_3a/5x5"
  top: "inception_3a/5x5"
}
layer {
  name: "inception_3a/pool"
  type: "Pooling"
  bottom: "pool2/3x3_s2"
  top: "inception_3a/pool"
  pooling_param {
    pool: MAX
    kernel_size: 3
    stride: 1
    pad: 1
  }
}
layer {
  name: "inception_3a/pool_proj"
  type: "Convolution"
  bottom: "inception_3a/pool"
  top: "inception_3a/pool_proj"
  param {
    lr_mult: 1
    decay_mult: 1
  }
  param {
    lr_mult: 2
    decay_mult: 0
  }
  convolution_param {
    num_output: 32
    kernel_size: 1
    weight_filler {
      type: "xavier"
      std: 0.1
    }
    bias_filler {
      type: "constant"
      value: 0.2
    }
  }
}
layer {
  name: "inception_3a/relu_pool_proj"
  type: "ReLU"
  bottom: "inception_3a/pool_proj"
  top: "inception_3a/pool_proj"
}
layer {
  name: "inception_3a/output"
  type: "Concat"
  bottom: "inception_3a/1x1"
  bottom: "inception_3a/3x3"
  bottom: "inception_3a/5x5"
  bottom: "inception_3a/pool_proj"
  top: "inception_3a/output"
}
layer {
  name: "inception_3b/1x1"
  type: "Convolution"
  bottom: "inception_3a/output"
  top: "inception_3b/1x1"
  param {
    lr_mult: 1
    decay_mult: 1
  }
  param {
    lr_mult: 2
    decay_mult: 0
  }
  convolution_param {
    num_output: 128
    kernel_size: 1
    weight_filler {
      type: "xavier"
      std: 0.03
    }
    bias_filler {
      type: "constant"
      value: 0.2
    }
  }
}
layer {
  name: "inception_3b/relu_1x1"
  type: "ReLU"
  bottom: "inception_3b/1x1"
  top: "inception_3b/1x1"
}
layer {
  name: "inception_3b/3x3_reduce"
  type: "Convolution"
  bottom: "inception_3a/output"
  top: "inception_3b/3x3_reduce"
  param {
    lr_mult: 1
    decay_mult: 1
  }
  param {
    lr_mult: 2
    decay_mult: 0
  }
  convolution_param {
    num_output: 128
    kernel_size: 1
    weight_filler {
      type: "xavier"
      std: 0.09
    }
    bias_filler {
      type: "constant"
      value: 0.2
    }
  }
}
layer {
  name: "inception_3b/relu_3x3_reduce"
  type: "ReLU"
  bottom: "inception_3b/3x3_reduce"
  top: "inception_3b/3x3_reduce"
}
layer {
  name: "inception_3b/3x3"
  type: "Convolution"
  bottom: "inception_3b/3x3_reduce"
  top: "inception_3b/3x3"
  param {
    lr_mult: 1
    decay_mult: 1
  }
  param {
    lr_mult: 2
    decay_mult: 0
  }
  convolution_param {
    num_output: 192
    pad: 1
    kernel_size: 3
    weight_filler {
      type: "xavier"
      std: 0.03
    }
    bias_filler {
      type: "constant"
      value: 0.2
    }
  }
}
layer {
  name: "inception_3b/relu_3x3"
  type: "ReLU"
  bottom: "inception_3b/3x3"
  top: "inception_3b/3x3"
}
layer {
  name: "inception_3b/5x5_reduce"
  type: "Convolution"
  bottom: "inception_3a/output"
  top: "inception_3b/5x5_reduce"
  param {
    lr_mult: 1
    decay_mult: 1
  }
  param {
    lr_mult: 2
    decay_mult: 0
  }
  convolution_param {
    num_output: 32
    kernel_size: 1
    weight_filler {
      type: "xavier"
      std: 0.2
    }
    bias_filler {
      type: "constant"
      value: 0.2
    }
  }
}
layer {
  name: "inception_3b/relu_5x5_reduce"
  type: "ReLU"
  bottom: "inception_3b/5x5_reduce"
  top: "inception_3b/5x5_reduce"
}
layer {
  name: "inception_3b/5x5"
  type: "Convolution"
  bottom: "inception_3b/5x5_reduce"
  top: "inception_3b/5x5"
  param {
    lr_mult: 1
    decay_mult: 1
  }
  param {
    lr_mult: 2
    decay_mult: 0
  }
  convolution_param {
    num_output: 96
    pad: 2
    kernel_size: 5
    weight_filler {
      type: "xavier"
      std: 0.03
    }
    bias_filler {
      type: "constant"
      value: 0.2
    }
  }
}
layer {
  name: "inception_3b/relu_5x5"
  type: "ReLU"
  bottom: "inception_3b/5x5"
  top: "inception_3b/5x5"
}
layer {
  name: "inception_3b/pool"
  type: "Pooling"
  bottom: "inception_3a/output"
  top: "inception_3b/pool"
  pooling_param {
    pool: MAX
    kernel_size: 3
    stride: 1
    pad: 1
  }
}
layer {
  name: "inception_3b/pool_proj"
  type: "Convolution"
  bottom: "inception_3b/pool"
  top: "inception_3b/pool_proj"
  param {
    lr_mult: 1
    decay_mult: 1
  }
  param {
    lr_mult: 2
    decay_mult: 0
  }
  convolution_param {
    num_output: 64
    kernel_size: 1
    weight_filler {
      type: "xavier"
      std: 0.1
    }
    bias_filler {
      type: "constant"
      value: 0.2
    }
  }
}
layer {
  name: "inception_3b/relu_pool_proj"
  type: "ReLU"
  bottom: "inception_3b/pool_proj"
  top: "inception_3b/pool_proj"
}
layer {
  name: "inception_3b/output"
  type: "Concat"
  bottom: "inception_3b/1x1"
  bottom: "inception_3b/3x3"
  bottom: "inception_3b/5x5"
  bottom: "inception_3b/pool_proj"
  top: "inception_3b/output"
}
layer {
  name: "pool3/3x3_s2"
  type: "Pooling"
  bottom: "inception_3b/output"
  top: "pool3/3x3_s2"
  pooling_param {
    pool: MAX
    kernel_size: 3
    stride: 2
  }
}
layer {
  name: "inception_4a/1x1"
  type: "Convolution"
  bottom: "pool3/3x3_s2"
  top: "inception_4a/1x1"
  param {
    lr_mult: 1
    decay_mult: 1
  }
  param {
    lr_mult: 2
    decay_mult: 0
  }
  convolution_param {
    num_output: 192
    kernel_size: 1
    weight_filler {
      type: "xavier"
      std: 0.03
    }
    bias_filler {
      type: "constant"
      value: 0.2
    }
  }
}
layer {
  name: "inception_4a/relu_1x1"
  type: "ReLU"
  bottom: "inception_4a/1x1"
  top: "inception_4a/1x1"
}
layer {
  name: "inception_4a/3x3_reduce"
  type: "Convolution"
  bottom: "pool3/3x3_s2"
  top: "inception_4a/3x3_reduce"
  param {
    lr_mult: 1
    decay_mult: 1
  }
  param {
    lr_mult: 2
    decay_mult: 0
  }
  convolution_param {
    num_output: 96
    kernel_size: 1
    weight_filler {
      type: "xavier"
      std: 0.09
    }
    bias_filler {
      type: "constant"
      value: 0.2
    }
  }
}
layer {
  name: "inception_4a/relu_3x3_reduce"
  type: "ReLU"
  bottom: "inception_4a/3x3_reduce"
  top: "inception_4a/3x3_reduce"
}
layer {
  name: "inception_4a/3x3"
  type: "Convolution"
  bottom: "inception_4a/3x3_reduce"
  top: "inception_4a/3x3"
  param {
    lr_mult: 1
    decay_mult: 1
  }
  param {
    lr_mult: 2
    decay_mult: 0
  }
  convolution_param {
    num_output: 208
    pad: 1
    kernel_size: 3
    weight_filler {
      type: "xavier"
      std: 0.03
    }
    bias_filler {
      type: "constant"
      value: 0.2
    }
  }
}
layer {
  name: "inception_4a/relu_3x3"
  type: "ReLU"
  bottom: "inception_4a/3x3"
  top: "inception_4a/3x3"
}
layer {
  name: "inception_4a/5x5_reduce"
  type: "Convolution"
  bottom: "pool3/3x3_s2"
  top: "inception_4a/5x5_reduce"
  param {
    lr_mult: 1
    decay_mult: 1
  }
  param {
    lr_mult: 2
    decay_mult: 0
  }
  convolution_param {
    num_output: 16
    kernel_size: 1
    weight_filler {
      type: "xavier"
      std: 0.2
    }
    bias_filler {
      type: "constant"
      value: 0.2
    }
  }
}
layer {
  name: "inception_4a/relu_5x5_reduce"
  type: "ReLU"
  bottom: "inception_4a/5x5_reduce"
  top: "inception_4a/5x5_reduce"
}
layer {
  name: "inception_4a/5x5"
  type: "Convolution"
  bottom: "inception_4a/5x5_reduce"
  top: "inception_4a/5x5"
  param {
    lr_mult: 1
    decay_mult: 1
  }
  param {
    lr_mult: 2
    decay_mult: 0
  }
  convolution_param {
    num_output: 48
    pad: 2
    kernel_size: 5
    weight_filler {
      type: "xavier"
      std: 0.03
    }
    bias_filler {
      type: "constant"
      value: 0.2
    }
  }
}
layer {
  name: "inception_4a/relu_5x5"
  type: "ReLU"
  bottom: "inception_4a/5x5"
  top: "inception_4a/5x5"
}
layer {
  name: "inception_4a/pool"
  type: "Pooling"
  bottom: "pool3/3x3_s2"
  top: "inception_4a/pool"
  pooling_param {
    pool: MAX
    kernel_size: 3
    stride: 1
    pad: 1
  }
}
layer {
  name: "inception_4a/pool_proj"
  type: "Convolution"
  bottom: "inception_4a/pool"
  top: "inception_4a/pool_proj"
  param {
    lr_mult: 1
    decay_mult: 1
  }
  param {
    lr_mult: 2
    decay_mult: 0
  }
  convolution_param {
    num_output: 64
    kernel_size: 1
    weight_filler {
      type: "xavier"
      std: 0.1
    }
    bias_filler {
      type: "constant"
      value: 0.2
    }
  }
}
layer {
  name: "inception_4a/relu_pool_proj"
  type: "ReLU"
  bottom: "inception_4a/pool_proj"
  top: "inception_4a/pool_proj"
}
layer {
  name: "inception_4a/output"
  type: "Concat"
  bottom: "inception_4a/1x1"
  bottom: "inception_4a/3x3"
  bottom: "inception_4a/5x5"
  bottom: "inception_4a/pool_proj"
  top: "inception_4a/output"
}
layer {
  name: "loss1/ave_pool"
  type: "Pooling"
  bottom: "inception_4a/output"
  top: "loss1/ave_pool"
  pooling_param {
    pool: AVE
    kernel_size: 5
    stride: 3
  }
}
layer {
  name: "loss1/conv"
  type: "Convolution"
  bottom: "loss1/ave_pool"
  top: "loss1/conv"
  param {
    lr_mult: 1
    decay_mult: 1
  }
  param {
    lr_mult: 2
    decay_mult: 0
  }
  convolution_param {
    num_output: 128
    kernel_size: 1
    weight_filler {
      type: "xavier"
      std: 0.08
    }
    bias_filler {
      type: "constant"
      value: 0.2
    }
  }
}
layer {
  name: "loss1/relu_conv"
  type: "ReLU"
  bottom: "loss1/conv"
  top: "loss1/conv"
}
layer {
  name: "loss1/fc"
  type: "InnerProduct"
  bottom: "loss1/conv"
  top: "loss1/fc"
  param {
    lr_mult: 1
    decay_mult: 1
  }
  param {
    lr_mult: 2
    decay_mult: 0
  }
  inner_product_param {
    num_output: 1024
    weight_filler {
      type: "xavier"
      std: 0.02
    }
    bias_filler {
      type: "constant"
      value: 0.2
    }
  }
}
layer {
  name: "loss1/relu_fc"
  type: "ReLU"
  bottom: "loss1/fc"
  top: "loss1/fc"
}
layer {
  name: "loss1/drop_fc"
  type: "Dropout"
  bottom: "loss1/fc"
  top: "loss1/fc"
  dropout_param {
    dropout_ratio: 0.7
  }
}
layer {
  name: "loss1/classifier_plantvillage"
  type: "InnerProduct"
  bottom: "loss1/fc"
  top: "loss1/classifier_plantvillage"
  param {
    lr_mult: 1
    decay_mult: 1
  }
  param {
    lr_mult: 2
    decay_mult: 0
  }
  inner_product_param {
    num_output: 38
    weight_filler {
      type: "xavier"
      std: 0.0009765625
    }
    bias_filler {
      type: "constant"
      value: 0
    }
  }
}
layer {
  name: "inception_4b/1x1"
  type: "Convolution"
  bottom: "inception_4a/output"
  top: "inception_4b/1x1"
  param {
    lr_mult: 1
    decay_mult: 1
  }
  param {
    lr_mult: 2
    decay_mult: 0
  }
  convolution_param {
    num_output: 160
    kernel_size: 1
    weight_filler {
      type: "xavier"
      std: 0.03
    }
    bias_filler {
      type: "constant"
      value: 0.2
    }
  }
}
layer {
  name: "inception_4b/relu_1x1"
  type: "ReLU"
  bottom: "inception_4b/1x1"
  top: "inception_4b/1x1"
}
layer {
  name: "inception_4b/3x3_reduce"
  type: "Convolution"
  bottom: "inception_4a/output"
  top: "inception_4b/3x3_reduce"
  param {
    lr_mult: 1
    decay_mult: 1
  }
  param {
    lr_mult: 2
    decay_mult: 0
  }
  convolution_param {
    num_output: 112
    kernel_size: 1
    weight_filler {
      type: "xavier"
      std: 0.09
    }
    bias_filler {
      type: "constant"
      value: 0.2
    }
  }
}
layer {
  name: "inception_4b/relu_3x3_reduce"
  type: "ReLU"
  bottom: "inception_4b/3x3_reduce"
  top: "inception_4b/3x3_reduce"
}
layer {
  name: "inception_4b/3x3"
  type: "Convolution"
  bottom: "inception_4b/3x3_reduce"
  top: "inception_4b/3x3"
  param {
    lr_mult: 1
    decay_mult: 1
  }
  param {
    lr_mult: 2
    decay_mult: 0
  }
  convolution_param {
    num_output: 224
    pad: 1
    kernel_size: 3
    weight_filler {
      type: "xavier"
      std: 0.03
    }
    bias_filler {
      type: "constant"
      value: 0.2
    }
  }
}
layer {
  name: "inception_4b/relu_3x3"
  type: "ReLU"
  bottom: "inception_4b/3x3"
  top: "inception_4b/3x3"
}
layer {
  name: "inception_4b/5x5_reduce"
  type: "Convolution"
  bottom: "inception_4a/output"
  top: "inception_4b/5x5_reduce"
  param {
    lr_mult: 1
    decay_mult: 1
  }
  param {
    lr_mult: 2
    decay_mult: 0
  }
  convolution_param {
    num_output: 24
    kernel_size: 1
    weight_filler {
      type: "xavier"
      std: 0.2
    }
    bias_filler {
      type: "constant"
      value: 0.2
    }
  }
}
layer {
  name: "inception_4b/relu_5x5_reduce"
  type: "ReLU"
  bottom: "inception_4b/5x5_reduce"
  top: "inception_4b/5x5_reduce"
}
layer {
  name: "inception_4b/5x5"
  type: "Convolution"
  bottom: "inception_4b/5x5_reduce"
  top: "inception_4b/5x5"
  param {
    lr_mult: 1
    decay_mult: 1
  }
  param {
    lr_mult: 2
    decay_mult: 0
  }
  convolution_param {
    num_output: 64
    pad: 2
    kernel_size: 5
    weight_filler {
      type: "xavier"
      std: 0.03
    }
    bias_filler {
      type: "constant"
      value: 0.2
    }
  }
}
layer {
  name: "inception_4b/relu_5x5"
  type: "ReLU"
  bottom: "inception_4b/5x5"
  top: "inception_4b/5x5"
}
layer {
  name: "inception_4b/pool"
  type: "Pooling"
  bottom: "inception_4a/output"
  top: "inception_4b/pool"
  pooling_param {
    pool: MAX
    kernel_size: 3
    stride: 1
    pad: 1
  }
}
layer {
  name: "inception_4b/pool_proj"
  type: "Convolution"
  bottom: "inception_4b/pool"
  top: "inception_4b/pool_proj"
  param {
    lr_mult: 1
    decay_mult: 1
  }
  param {
    lr_mult: 2
    decay_mult: 0
  }
  convolution_param {
    num_output: 64
    kernel_size: 1
    weight_filler {
      type: "xavier"
      std: 0.1
    }
    bias_filler {
      type: "constant"
      value: 0.2
    }
  }
}
layer {
  name: "inception_4b/relu_pool_proj"
  type: "ReLU"
  bottom: "inception_4b/pool_proj"
  top: "inception_4b/pool_proj"
}
layer {
  name: "inception_4b/output"
  type: "Concat"
  bottom: "inception_4b/1x1"
  bottom: "inception_4b/3x3"
  bottom: "inception_4b/5x5"
  bottom: "inception_4b/pool_proj"
  top: "inception_4b/output"
}
layer {
  name: "inception_4c/1x1"
  type: "Convolution"
  bottom: "inception_4b/output"
  top: "inception_4c/1x1"
  param {
    lr_mult: 1
    decay_mult: 1
  }
  param {
    lr_mult: 2
    decay_mult: 0
  }
  convolution_param {
    num_output: 128
    kernel_size: 1
    weight_filler {
      type: "xavier"
      std: 0.03
    }
    bias_filler {
      type: "constant"
      value: 0.2
    }
  }
}
layer {
  name: "inception_4c/relu_1x1"
  type: "ReLU"
  bottom: "inception_4c/1x1"
  top: "inception_4c/1x1"
}
layer {
  name: "inception_4c/3x3_reduce"
  type: "Convolution"
  bottom: "inception_4b/output"
  top: "inception_4c/3x3_reduce"
  param {
    lr_mult: 1
    decay_mult: 1
  }
  param {
    lr_mult: 2
    decay_mult: 0
  }
  convolution_param {
    num_output: 128
    kernel_size: 1
    weight_filler {
      type: "xavier"
      std: 0.09
    }
    bias_filler {
      type: "constant"
      value: 0.2
    }
  }
}
layer {
  name: "inception_4c/relu_3x3_reduce"
  type: "ReLU"
  bottom: "inception_4c/3x3_reduce"
  top: "inception_4c/3x3_reduce"
}
layer {
  name: "inception_4c/3x3"
  type: "Convolution"
  bottom: "inception_4c/3x3_reduce"
  top: "inception_4c/3x3"
  param {
    lr_mult: 1
    decay_mult: 1
  }
  param {
    lr_mult: 2
    decay_mult: 0
  }
  convolution_param {
    num_output: 256
    pad: 1
    kernel_size: 3
    weight_filler {
      type: "xavier"
      std: 0.03
    }
    bias_filler {
      type: "constant"
      value: 0.2
    }
  }
}
layer {
  name: "inception_4c/relu_3x3"
  type: "ReLU"
  bottom: "inception_4c/3x3"
  top: "inception_4c/3x3"
}
layer {
  name: "inception_4c/5x5_reduce"
  type: "Convolution"
  bottom: "inception_4b/output"
  top: "inception_4c/5x5_reduce"
  param {
    lr_mult: 1
    decay_mult: 1
  }
  param {
    lr_mult: 2
    decay_mult: 0
  }
  convolution_param {
    num_output: 24
    kernel_size: 1
    weight_filler {
      type: "xavier"
      std: 0.2
    }
    bias_filler {
      type: "constant"
      value: 0.2
    }
  }
}
layer {
  name: "inception_4c/relu_5x5_reduce"
  type: "ReLU"
  bottom: "inception_4c/5x5_reduce"
  top: "inception_4c/5x5_reduce"
}
layer {
  name: "inception_4c/5x5"
  type: "Convolution"
  bottom: "inception_4c/5x5_reduce"
  top: "inception_4c/5x5"
  param {
    lr_mult: 1
    decay_mult: 1
  }
  param {
    lr_mult: 2
    decay_mult: 0
  }
  convolution_param {
    num_output: 64
    pad: 2
    kernel_size: 5
    weight_filler {
      type: "xavier"
      std: 0.03
    }
    bias_filler {
      type: "constant"
      value: 0.2
    }
  }
}
layer {
  name: "inception_4c/relu_5x5"
  type: "ReLU"
  bottom: "inception_4c/5x5"
  top: "inception_4c/5x5"
}
layer {
  name: "inception_4c/pool"
  type: "Pooling"
  bottom: "inception_4b/output"
  top: "inception_4c/pool"
  pooling_param {
    pool: MAX
    kernel_size: 3
    stride: 1
    pad: 1
  }
}
layer {
  name: "inception_4c/pool_proj"
  type: "Convolution"
  bottom: "inception_4c/pool"
  top: "inception_4c/pool_proj"
  param {
    lr_mult: 1
    decay_mult: 1
  }
  param {
    lr_mult: 2
    decay_mult: 0
  }
  convolution_param {
    num_output: 64
    kernel_size: 1
    weight_filler {
      type: "xavier"
      std: 0.1
    }
    bias_filler {
      type: "constant"
      value: 0.2
    }
  }
}
layer {
  name: "inception_4c/relu_pool_proj"
  type: "ReLU"
  bottom: "inception_4c/pool_proj"
  top: "inception_4c/pool_proj"
}
layer {
  name: "inception_4c/output"
  type: "Concat"
  bottom: "inception_4c/1x1"
  bottom: "inception_4c/3x3"
  bottom: "inception_4c/5x5"
  bottom: "inception_4c/pool_proj"
  top: "inception_4c/output"
}
layer {
  name: "inception_4d/1x1"
  type: "Convolution"
  bottom: "inception_4c/output"
  top: "inception_4d/1x1"
  param {
    lr_mult: 1
    decay_mult: 1
  }
  param {
    lr_mult: 2
    decay_mult: 0
  }
  convolution_param {
    num_output: 112
    kernel_size: 1
    weight_filler {
      type: "xavier"
      std: 0.03
    }
    bias_filler {
      type: "constant"
      value: 0.2
    }
  }
}
layer {
  name: "inception_4d/relu_1x1"
  type: "ReLU"
  bottom: "inception_4d/1x1"
  top: "inception_4d/1x1"
}
layer {
  name: "inception_4d/3x3_reduce"
  type: "Convolution"
  bottom: "inception_4c/output"
  top: "inception_4d/3x3_reduce"
  param {
    lr_mult: 1
    decay_mult: 1
  }
  param {
    lr_mult: 2
    decay_mult: 0
  }
  convolution_param {
    num_output: 144
    kernel_size: 1
    weight_filler {
      type: "xavier"
      std: 0.09
    }
    bias_filler {
      type: "constant"
      value: 0.2
    }
  }
}
layer {
  name: "inception_4d/relu_3x3_reduce"
  type: "ReLU"
  bottom: "inception_4d/3x3_reduce"
  top: "inception_4d/3x3_reduce"
}
layer {
  name: "inception_4d/3x3"
  type: "Convolution"
  bottom: "inception_4d/3x3_reduce"
  top: "inception_4d/3x3"
  param {
    lr_mult: 1
    decay_mult: 1
  }
  param {
    lr_mult: 2
    decay_mult: 0
  }
  convolution_param {
    num_output: 288
    pad: 1
    kernel_size: 3
    weight_filler {
      type: "xavier"
      std: 0.03
    }
    bias_filler {
      type: "constant"
      value: 0.2
    }
  }
}
layer {
  name: "inception_4d/relu_3x3"
  type: "ReLU"
  bottom: "inception_4d/3x3"
  top: "inception_4d/3x3"
}
layer {
  name: "inception_4d/5x5_reduce"
  type: "Convolution"
  bottom: "inception_4c/output"
  top: "inception_4d/5x5_reduce"
  param {
    lr_mult: 1
    decay_mult: 1
  }
  param {
    lr_mult: 2
    decay_mult: 0
  }
  convolution_param {
    num_output: 32
    kernel_size: 1
    weight_filler {
      type: "xavier"
      std: 0.2
    }
    bias_filler {
      type: "constant"
      value: 0.2
    }
  }
}
layer {
  name: "inception_4d/relu_5x5_reduce"
  type: "ReLU"
  bottom: "inception_4d/5x5_reduce"
  top: "inception_4d/5x5_reduce"
}
layer {
  name: "inception_4d/5x5"
  type: "Convolution"
  bottom: "inception_4d/5x5_reduce"
  top: "inception_4d/5x5"
  param {
    lr_mult: 1
    decay_mult: 1
  }
  param {
    lr_mult: 2
    decay_mult: 0
  }
  convolution_param {
    num_output: 64
    pad: 2
    kernel_size: 5
    weight_filler {
      type: "xavier"
      std: 0.03
    }
    bias_filler {
      type: "constant"
      value: 0.2
    }
  }
}
layer {
  name: "inception_4d/relu_5x5"
  type: "ReLU"
  bottom: "inception_4d/5x5"
  top: "inception_4d/5x5"
}
layer {
  name: "inception_4d/pool"
  type: "Pooling"
  bottom: "inception_4c/output"
  top: "inception_4d/pool"
  pooling_param {
    pool: MAX
    kernel_size: 3
    stride: 1
    pad: 1
  }
}
layer {
  name: "inception_4d/pool_proj"
  type: "Convolution"
  bottom: "inception_4d/pool"
  top: "inception_4d/pool_proj"
  param {
    lr_mult: 1
    decay_mult: 1
  }
  param {
    lr_mult: 2
    decay_mult: 0
  }
  convolution_param {
    num_output: 64
    kernel_size: 1
    weight_filler {
      type: "xavier"
      std: 0.1
    }
    bias_filler {
      type: "constant"
      value: 0.2
    }
  }
}
layer {
  name: "inception_4d/relu_pool_proj"
  type: "ReLU"
  bottom: "inception_4d/pool_proj"
  top: "inception_4d/pool_proj"
}
layer {
  name: "inception_4d/output"
  type: "Concat"
  bottom: "inception_4d/1x1"
  bottom: "inception_4d/3x3"
  bottom: "inception_4d/5x5"
  bottom: "inception_4d/pool_proj"
  top: "inception_4d/output"
}
layer {
  name: "loss2/ave_pool"
  type: "Pooling"
  bottom: "inception_4d/output"
  top: "loss2/ave_pool"
  pooling_param {
    pool: AVE
    kernel_size: 5
    stride: 3
  }
}
layer {
  name: "loss2/conv"
  type: "Convolution"
  bottom: "loss2/ave_pool"
  top: "loss2/conv"
  param {
    lr_mult: 1
    decay_mult: 1
  }
  param {
    lr_mult: 2
    decay_mult: 0
  }
  convolution_param {
    num_output: 128
    kernel_size: 1
    weight_filler {
      type: "xavier"
      std: 0.08
    }
    bias_filler {
      type: "constant"
      value: 0.2
    }
  }
}
layer {
  name: "loss2/relu_conv"
  type: "ReLU"
  bottom: "loss2/conv"
  top: "loss2/conv"
}
layer {
  name: "loss2/fc"
  type: "InnerProduct"
  bottom: "loss2/conv"
  top: "loss2/fc"
  param {
    lr_mult: 1
    decay_mult: 1
  }
  param {
    lr_mult: 2
    decay_mult: 0
  }
  inner_product_param {
    num_output: 1024
    weight_filler {
      type: "xavier"
      std: 0.02
    }
    bias_filler {
      type: "constant"
      value: 0.2
    }
  }
}
layer {
  name: "loss2/relu_fc"
  type: "ReLU"
  bottom: "loss2/fc"
  top: "loss2/fc"
}
layer {
  name: "loss2/drop_fc"
  type: "Dropout"
  bottom: "loss2/fc"
  top: "loss2/fc"
  dropout_param {
    dropout_ratio: 0.7
  }
}
layer {
  name: "loss2/classifier_plantvillage"
  type: "InnerProduct"
  bottom: "loss2/fc"
  top: "loss2/classifier_plantvillage"
  param {
    lr_mult: 1
    decay_mult: 1
  }
  param {
    lr_mult: 2
    decay_mult: 0
  }
  inner_product_param {
    num_output: 38
    weight_filler {
      type: "xavier"
      std: 0.0009765625
    }
    bias_filler {
      type: "constant"
      value: 0
    }
  }
}
layer {
  name: "inception_4e/1x1"
  type: "Convolution"
  bottom: "inception_4d/output"
  top: "inception_4e/1x1"
  param {
    lr_mult: 1
    decay_mult: 1
  }
  param {
    lr_mult: 2
    decay_mult: 0
  }
  convolution_param {
    num_output: 256
    kernel_size: 1
    weight_filler {
      type: "xavier"
      std: 0.03
    }
    bias_filler {
      type: "constant"
      value: 0.2
    }
  }
}
layer {
  name: "inception_4e/relu_1x1"
  type: "ReLU"
  bottom: "inception_4e/1x1"
  top: "inception_4e/1x1"
}
layer {
  name: "inception_4e/3x3_reduce"
  type: "Convolution"
  bottom: "inception_4d/output"
  top: "inception_4e/3x3_reduce"
  param {
    lr_mult: 1
    decay_mult: 1
  }
  param {
    lr_mult: 2
    decay_mult: 0
  }
  convolution_param {
    num_output: 160
    kernel_size: 1
    weight_filler {
      type: "xavier"
      std: 0.09
    }
    bias_filler {
      type: "constant"
      value: 0.2
    }
  }
}
layer {
  name: "inception_4e/relu_3x3_reduce"
  type: "ReLU"
  bottom: "inception_4e/3x3_reduce"
  top: "inception_4e/3x3_reduce"
}
layer {
  name: "inception_4e/3x3"
  type: "Convolution"
  bottom: "inception_4e/3x3_reduce"
  top: "inception_4e/3x3"
  param {
    lr_mult: 1
    decay_mult: 1
  }
  param {
    lr_mult: 2
    decay_mult: 0
  }
  convolution_param {
    num_output: 320
    pad: 1
    kernel_size: 3
    weight_filler {
      type: "xavier"
      std: 0.03
    }
    bias_filler {
      type: "constant"
      value: 0.2
    }
  }
}
layer {
  name: "inception_4e/relu_3x3"
  type: "ReLU"
  bottom: "inception_4e/3x3"
  top: "inception_4e/3x3"
}
layer {
  name: "inception_4e/5x5_reduce"
  type: "Convolution"
  bottom: "inception_4d/output"
  top: "inception_4e/5x5_reduce"
  param {
    lr_mult: 1
    decay_mult: 1
  }
  param {
    lr_mult: 2
    decay_mult: 0
  }
  convolution_param {
    num_output: 32
    kernel_size: 1
    weight_filler {
      type: "xavier"
      std: 0.2
    }
    bias_filler {
      type: "constant"
      value: 0.2
    }
  }
}
layer {
  name: "inception_4e/relu_5x5_reduce"
  type: "ReLU"
  bottom: "inception_4e/5x5_reduce"
  top: "inception_4e/5x5_reduce"
}
layer {
  name: "inception_4e/5x5"
  type: "Convolution"
  bottom: "inception_4e/5x5_reduce"
  top: "inception_4e/
I0403 15:03:37.511718 11552 layer_factory.hpp:77] Creating layer data
I0403 15:03:37.512331 11552 net.cpp:91] Creating Layer data
I0403 15:03:37.512377 11552 net.cpp:399] data -> data
I0403 15:03:37.512433 11552 net.cpp:399] data -> label
I0403 15:03:37.512468 11552 data_transformer.cpp:25] Loading mean file from: /home/mohanty/data/final_dataset/lmdb/segmented-40-60/mean.binaryproto
I0403 15:03:37.514868 11554 db_lmdb.cpp:38] Opened lmdb /home/mohanty/data/final_dataset/lmdb/segmented-40-60/test_db
I0403 15:03:37.525636 11552 data_layer.cpp:41] output data size: 24,3,224,224
I0403 15:03:37.552076 11552 net.cpp:141] Setting up data
I0403 15:03:37.552137 11552 net.cpp:148] Top shape: 24 3 224 224 (3612672)
I0403 15:03:37.552160 11552 net.cpp:148] Top shape: 24 (24)
I0403 15:03:37.552177 11552 net.cpp:156] Memory required for data: 14450784
I0403 15:03:37.552203 11552 layer_factory.hpp:77] Creating layer label_data_1_split
I0403 15:03:37.552229 11552 net.cpp:91] Creating Layer label_data_1_split
I0403 15:03:37.552248 11552 net.cpp:425] label_data_1_split <- label
I0403 15:03:37.552279 11552 net.cpp:399] label_data_1_split -> label_data_1_split_0
I0403 15:03:37.552309 11552 net.cpp:399] label_data_1_split -> label_data_1_split_1
I0403 15:03:37.552336 11552 net.cpp:399] label_data_1_split -> label_data_1_split_2
I0403 15:03:37.552359 11552 net.cpp:399] label_data_1_split -> label_data_1_split_3
I0403 15:03:37.552378 11552 net.cpp:399] label_data_1_split -> label_data_1_split_4
I0403 15:03:37.552399 11552 net.cpp:399] label_data_1_split -> label_data_1_split_5
I0403 15:03:37.552420 11552 net.cpp:399] label_data_1_split -> label_data_1_split_6
I0403 15:03:37.552443 11552 net.cpp:399] label_data_1_split -> label_data_1_split_7
I0403 15:03:37.552464 11552 net.cpp:399] label_data_1_split -> label_data_1_split_8
I0403 15:03:37.552484 11552 net.cpp:399] label_data_1_split -> label_data_1_split_9
I0403 15:03:37.552599 11552 net.cpp:141] Setting up label_data_1_split
I0403 15:03:37.552624 11552 net.cpp:148] Top shape: 24 (24)
I0403 15:03:37.552641 11552 net.cpp:148] Top shape: 24 (24)
I0403 15:03:37.552657 11552 net.cpp:148] Top shape: 24 (24)
I0403 15:03:37.552673 11552 net.cpp:148] Top shape: 24 (24)
I0403 15:03:37.552690 11552 net.cpp:148] Top shape: 24 (24)
I0403 15:03:37.552705 11552 net.cpp:148] Top shape: 24 (24)
I0403 15:03:37.552721 11552 net.cpp:148] Top shape: 24 (24)
I0403 15:03:37.552736 11552 net.cpp:148] Top shape: 24 (24)
I0403 15:03:37.552750 11552 net.cpp:148] Top shape: 24 (24)
I0403 15:03:37.552767 11552 net.cpp:148] Top shape: 24 (24)
I0403 15:03:37.552814 11552 net.cpp:156] Memory required for data: 14451744
I0403 15:03:37.552829 11552 layer_factory.hpp:77] Creating layer conv1/7x7_s2
I0403 15:03:37.552861 11552 net.cpp:91] Creating Layer conv1/7x7_s2
I0403 15:03:37.552881 11552 net.cpp:425] conv1/7x7_s2 <- data
I0403 15:03:37.552899 11552 net.cpp:399] conv1/7x7_s2 -> conv1/7x7_s2
I0403 15:03:37.693714 11552 net.cpp:141] Setting up conv1/7x7_s2
I0403 15:03:37.693799 11552 net.cpp:148] Top shape: 24 64 112 112 (19267584)
I0403 15:03:37.693817 11552 net.cpp:156] Memory required for data: 91522080
I0403 15:03:37.693850 11552 layer_factory.hpp:77] Creating layer conv1/relu_7x7
I0403 15:03:37.693876 11552 net.cpp:91] Creating Layer conv1/relu_7x7
I0403 15:03:37.693908 11552 net.cpp:425] conv1/relu_7x7 <- conv1/7x7_s2
I0403 15:03:37.693928 11552 net.cpp:386] conv1/relu_7x7 -> conv1/7x7_s2 (in-place)
I0403 15:03:37.694191 11552 net.cpp:141] Setting up conv1/relu_7x7
I0403 15:03:37.694219 11552 net.cpp:148] Top shape: 24 64 112 112 (19267584)
I0403 15:03:37.694236 11552 net.cpp:156] Memory required for data: 168592416
I0403 15:03:37.694250 11552 layer_factory.hpp:77] Creating layer pool1/3x3_s2
I0403 15:03:37.694275 11552 net.cpp:91] Creating Layer pool1/3x3_s2
I0403 15:03:37.694293 11552 net.cpp:425] pool1/3x3_s2 <- conv1/7x7_s2
I0403 15:03:37.694311 11552 net.cpp:399] pool1/3x3_s2 -> pool1/3x3_s2
I0403 15:03:37.694391 11552 net.cpp:141] Setting up pool1/3x3_s2
I0403 15:03:37.694416 11552 net.cpp:148] Top shape: 24 64 56 56 (4816896)
I0403 15:03:37.694432 11552 net.cpp:156] Memory required for data: 187860000
I0403 15:03:37.694447 11552 layer_factory.hpp:77] Creating layer pool1/norm1
I0403 15:03:37.694470 11552 net.cpp:91] Creating Layer pool1/norm1
I0403 15:03:37.694489 11552 net.cpp:425] pool1/norm1 <- pool1/3x3_s2
I0403 15:03:37.694506 11552 net.cpp:399] pool1/norm1 -> pool1/norm1
I0403 15:03:37.694793 11552 net.cpp:141] Setting up pool1/norm1
I0403 15:03:37.694821 11552 net.cpp:148] Top shape: 24 64 56 56 (4816896)
I0403 15:03:37.694838 11552 net.cpp:156] Memory required for data: 207127584
I0403 15:03:37.694852 11552 layer_factory.hpp:77] Creating layer conv2/3x3_reduce
I0403 15:03:37.694876 11552 net.cpp:91] Creating Layer conv2/3x3_reduce
I0403 15:03:37.694893 11552 net.cpp:425] conv2/3x3_reduce <- pool1/norm1
I0403 15:03:37.694913 11552 net.cpp:399] conv2/3x3_reduce -> conv2/3x3_reduce
I0403 15:03:37.696310 11552 net.cpp:141] Setting up conv2/3x3_reduce
I0403 15:03:37.696344 11552 net.cpp:148] Top shape: 24 64 56 56 (4816896)
I0403 15:03:37.696360 11552 net.cpp:156] Memory required for data: 226395168
I0403 15:03:37.696382 11552 layer_factory.hpp:77] Creating layer conv2/relu_3x3_reduce
I0403 15:03:37.696400 11552 net.cpp:91] Creating Layer conv2/relu_3x3_reduce
I0403 15:03:37.696416 11552 net.cpp:425] conv2/relu_3x3_reduce <- conv2/3x3_reduce
I0403 15:03:37.696436 11552 net.cpp:386] conv2/relu_3x3_reduce -> conv2/3x3_reduce (in-place)
I0403 15:03:37.696753 11552 net.cpp:141] Setting up conv2/relu_3x3_reduce
I0403 15:03:37.696782 11552 net.cpp:148] Top shape: 24 64 56 56 (4816896)
I0403 15:03:37.696799 11552 net.cpp:156] Memory required for data: 245662752
I0403 15:03:37.696815 11552 layer_factory.hpp:77] Creating layer conv2/3x3
I0403 15:03:37.696841 11552 net.cpp:91] Creating Layer conv2/3x3
I0403 15:03:37.696861 11552 net.cpp:425] conv2/3x3 <- conv2/3x3_reduce
I0403 15:03:37.696883 11552 net.cpp:399] conv2/3x3 -> conv2/3x3
I0403 15:03:37.699275 11552 net.cpp:141] Setting up conv2/3x3
I0403 15:03:37.699306 11552 net.cpp:148] Top shape: 24 192 56 56 (14450688)
I0403 15:03:37.699329 11552 net.cpp:156] Memory required for data: 303465504
I0403 15:03:37.699352 11552 layer_factory.hpp:77] Creating layer conv2/relu_3x3
I0403 15:03:37.699373 11552 net.cpp:91] Creating Layer conv2/relu_3x3
I0403 15:03:37.699389 11552 net.cpp:425] conv2/relu_3x3 <- conv2/3x3
I0403 15:03:37.699407 11552 net.cpp:386] conv2/relu_3x3 -> conv2/3x3 (in-place)
I0403 15:03:37.699581 11552 net.cpp:141] Setting up conv2/relu_3x3
I0403 15:03:37.699606 11552 net.cpp:148] Top shape: 24 192 56 56 (14450688)
I0403 15:03:37.699651 11552 net.cpp:156] Memory required for data: 361268256
I0403 15:03:37.699666 11552 layer_factory.hpp:77] Creating layer conv2/norm2
I0403 15:03:37.699687 11552 net.cpp:91] Creating Layer conv2/norm2
I0403 15:03:37.699702 11552 net.cpp:425] conv2/norm2 <- conv2/3x3
I0403 15:03:37.699722 11552 net.cpp:399] conv2/norm2 -> conv2/norm2
I0403 15:03:37.700024 11552 net.cpp:141] Setting up conv2/norm2
I0403 15:03:37.700053 11552 net.cpp:148] Top shape: 24 192 56 56 (14450688)
I0403 15:03:37.700069 11552 net.cpp:156] Memory required for data: 419071008
I0403 15:03:37.700083 11552 layer_factory.hpp:77] Creating layer pool2/3x3_s2
I0403 15:03:37.700101 11552 net.cpp:91] Creating Layer pool2/3x3_s2
I0403 15:03:37.700116 11552 net.cpp:425] pool2/3x3_s2 <- conv2/norm2
I0403 15:03:37.700135 11552 net.cpp:399] pool2/3x3_s2 -> pool2/3x3_s2
I0403 15:03:37.700187 11552 net.cpp:141] Setting up pool2/3x3_s2
I0403 15:03:37.700209 11552 net.cpp:148] Top shape: 24 192 28 28 (3612672)
I0403 15:03:37.700223 11552 net.cpp:156] Memory required for data: 433521696
I0403 15:03:37.700237 11552 layer_factory.hpp:77] Creating layer pool2/3x3_s2_pool2/3x3_s2_0_split
I0403 15:03:37.700258 11552 net.cpp:91] Creating Layer pool2/3x3_s2_pool2/3x3_s2_0_split
I0403 15:03:37.700273 11552 net.cpp:425] pool2/3x3_s2_pool2/3x3_s2_0_split <- pool2/3x3_s2
I0403 15:03:37.700290 11552 net.cpp:399] pool2/3x3_s2_pool2/3x3_s2_0_split -> pool2/3x3_s2_pool2/3x3_s2_0_split_0
I0403 15:03:37.700309 11552 net.cpp:399] pool2/3x3_s2_pool2/3x3_s2_0_split -> pool2/3x3_s2_pool2/3x3_s2_0_split_1
I0403 15:03:37.700333 11552 net.cpp:399] pool2/3x3_s2_pool2/3x3_s2_0_split -> pool2/3x3_s2_pool2/3x3_s2_0_split_2
I0403 15:03:37.700356 11552 net.cpp:399] pool2/3x3_s2_pool2/3x3_s2_0_split -> pool2/3x3_s2_pool2/3x3_s2_0_split_3
I0403 15:03:37.700428 11552 net.cpp:141] Setting up pool2/3x3_s2_pool2/3x3_s2_0_split
I0403 15:03:37.700450 11552 net.cpp:148] Top shape: 24 192 28 28 (3612672)
I0403 15:03:37.700466 11552 net.cpp:148] Top shape: 24 192 28 28 (3612672)
I0403 15:03:37.700481 11552 net.cpp:148] Top shape: 24 192 28 28 (3612672)
I0403 15:03:37.700497 11552 net.cpp:148] Top shape: 24 192 28 28 (3612672)
I0403 15:03:37.700511 11552 net.cpp:156] Memory required for data: 491324448
I0403 15:03:37.700525 11552 layer_factory.hpp:77] Creating layer inception_3a/1x1
I0403 15:03:37.700547 11552 net.cpp:91] Creating Layer inception_3a/1x1
I0403 15:03:37.700565 11552 net.cpp:425] inception_3a/1x1 <- pool2/3x3_s2_pool2/3x3_s2_0_split_0
I0403 15:03:37.700587 11552 net.cpp:399] inception_3a/1x1 -> inception_3a/1x1
I0403 15:03:37.702147 11552 net.cpp:141] Setting up inception_3a/1x1
I0403 15:03:37.702178 11552 net.cpp:148] Top shape: 24 64 28 28 (1204224)
I0403 15:03:37.702194 11552 net.cpp:156] Memory required for data: 496141344
I0403 15:03:37.702214 11552 layer_factory.hpp:77] Creating layer inception_3a/relu_1x1
I0403 15:03:37.702230 11552 net.cpp:91] Creating Layer inception_3a/relu_1x1
I0403 15:03:37.702246 11552 net.cpp:425] inception_3a/relu_1x1 <- inception_3a/1x1
I0403 15:03:37.702266 11552 net.cpp:386] inception_3a/relu_1x1 -> inception_3a/1x1 (in-place)
I0403 15:03:37.702441 11552 net.cpp:141] Setting up inception_3a/relu_1x1
I0403 15:03:37.702466 11552 net.cpp:148] Top shape: 24 64 28 28 (1204224)
I0403 15:03:37.702481 11552 net.cpp:156] Memory required for data: 500958240
I0403 15:03:37.702494 11552 layer_factory.hpp:77] Creating layer inception_3a/3x3_reduce
I0403 15:03:37.702517 11552 net.cpp:91] Creating Layer inception_3a/3x3_reduce
I0403 15:03:37.702535 11552 net.cpp:425] inception_3a/3x3_reduce <- pool2/3x3_s2_pool2/3x3_s2_0_split_1
I0403 15:03:37.702555 11552 net.cpp:399] inception_3a/3x3_reduce -> inception_3a/3x3_reduce
I0403 15:03:37.704221 11552 net.cpp:141] Setting up inception_3a/3x3_reduce
I0403 15:03:37.704252 11552 net.cpp:148] Top shape: 24 96 28 28 (1806336)
I0403 15:03:37.704267 11552 net.cpp:156] Memory required for data: 508183584
I0403 15:03:37.704288 11552 layer_factory.hpp:77] Creating layer inception_3a/relu_3x3_reduce
I0403 15:03:37.704330 11552 net.cpp:91] Creating Layer inception_3a/relu_3x3_reduce
I0403 15:03:37.704351 11552 net.cpp:425] inception_3a/relu_3x3_reduce <- inception_3a/3x3_reduce
I0403 15:03:37.704370 11552 net.cpp:386] inception_3a/relu_3x3_reduce -> inception_3a/3x3_reduce (in-place)
I0403 15:03:37.704550 11552 net.cpp:141] Setting up inception_3a/relu_3x3_reduce
I0403 15:03:37.704576 11552 net.cpp:148] Top shape: 24 96 28 28 (1806336)
I0403 15:03:37.704593 11552 net.cpp:156] Memory required for data: 515408928
I0403 15:03:37.704620 11552 layer_factory.hpp:77] Creating layer inception_3a/3x3
I0403 15:03:37.704645 11552 net.cpp:91] Creating Layer inception_3a/3x3
I0403 15:03:37.704665 11552 net.cpp:425] inception_3a/3x3 <- inception_3a/3x3_reduce
I0403 15:03:37.704684 11552 net.cpp:399] inception_3a/3x3 -> inception_3a/3x3
I0403 15:03:37.706364 11552 net.cpp:141] Setting up inception_3a/3x3
I0403 15:03:37.706393 11552 net.cpp:148] Top shape: 24 128 28 28 (2408448)
I0403 15:03:37.706409 11552 net.cpp:156] Memory required for data: 525042720
I0403 15:03:37.706430 11552 layer_factory.hpp:77] Creating layer inception_3a/relu_3x3
I0403 15:03:37.706450 11552 net.cpp:91] Creating Layer inception_3a/relu_3x3
I0403 15:03:37.706470 11552 net.cpp:425] inception_3a/relu_3x3 <- inception_3a/3x3
I0403 15:03:37.706487 11552 net.cpp:386] inception_3a/relu_3x3 -> inception_3a/3x3 (in-place)
I0403 15:03:37.706763 11552 net.cpp:141] Setting up inception_3a/relu_3x3
I0403 15:03:37.706790 11552 net.cpp:148] Top shape: 24 128 28 28 (2408448)
I0403 15:03:37.706805 11552 net.cpp:156] Memory required for data: 534676512
I0403 15:03:37.706820 11552 layer_factory.hpp:77] Creating layer inception_3a/5x5_reduce
I0403 15:03:37.706842 11552 net.cpp:91] Creating Layer inception_3a/5x5_reduce
I0403 15:03:37.706858 11552 net.cpp:425] inception_3a/5x5_reduce <- pool2/3x3_s2_pool2/3x3_s2_0_split_2
I0403 15:03:37.706879 11552 net.cpp:399] inception_3a/5x5_reduce -> inception_3a/5x5_reduce
I0403 15:03:37.707828 11552 net.cpp:141] Setting up inception_3a/5x5_reduce
I0403 15:03:37.707856 11552 net.cpp:148] Top shape: 24 16 28 28 (301056)
I0403 15:03:37.707873 11552 net.cpp:156] Memory required for data: 535880736
I0403 15:03:37.707892 11552 layer_factory.hpp:77] Creating layer inception_3a/relu_5x5_reduce
I0403 15:03:37.707913 11552 net.cpp:91] Creating Layer inception_3a/relu_5x5_reduce
I0403 15:03:37.707929 11552 net.cpp:425] inception_3a/relu_5x5_reduce <- inception_3a/5x5_reduce
I0403 15:03:37.707947 11552 net.cpp:386] inception_3a/relu_5x5_reduce -> inception_3a/5x5_reduce (in-place)
I0403 15:03:37.708245 11552 net.cpp:141] Setting up inception_3a/relu_5x5_reduce
I0403 15:03:37.708271 11552 net.cpp:148] Top shape: 24 16 28 28 (301056)
I0403 15:03:37.708287 11552 net.cpp:156] Memory required for data: 537084960
I0403 15:03:37.708302 11552 layer_factory.hpp:77] Creating layer inception_3a/5x5
I0403 15:03:37.708329 11552 net.cpp:91] Creating Layer inception_3a/5x5
I0403 15:03:37.708348 11552 net.cpp:425] inception_3a/5x5 <- inception_3a/5x5_reduce
I0403 15:03:37.708367 11552 net.cpp:399] inception_3a/5x5 -> inception_3a/5x5
I0403 15:03:37.709431 11552 net.cpp:141] Setting up inception_3a/5x5
I0403 15:03:37.709458 11552 net.cpp:148] Top shape: 24 32 28 28 (602112)
I0403 15:03:37.709475 11552 net.cpp:156] Memory required for data: 539493408
I0403 15:03:37.709492 11552 layer_factory.hpp:77] Creating layer inception_3a/relu_5x5
I0403 15:03:37.709511 11552 net.cpp:91] Creating Layer inception_3a/relu_5x5
I0403 15:03:37.709525 11552 net.cpp:425] inception_3a/relu_5x5 <- inception_3a/5x5
I0403 15:03:37.709544 11552 net.cpp:386] inception_3a/relu_5x5 -> inception_3a/5x5 (in-place)
I0403 15:03:37.709731 11552 net.cpp:141] Setting up inception_3a/relu_5x5
I0403 15:03:37.709758 11552 net.cpp:148] Top shape: 24 32 28 28 (602112)
I0403 15:03:37.709772 11552 net.cpp:156] Memory required for data: 541901856
I0403 15:03:37.709786 11552 layer_factory.hpp:77] Creating layer inception_3a/pool
I0403 15:03:37.709807 11552 net.cpp:91] Creating Layer inception_3a/pool
I0403 15:03:37.709837 11552 net.cpp:425] inception_3a/pool <- pool2/3x3_s2_pool2/3x3_s2_0_split_3
I0403 15:03:37.709856 11552 net.cpp:399] inception_3a/pool -> inception_3a/pool
I0403 15:03:37.709928 11552 net.cpp:141] Setting up inception_3a/pool
I0403 15:03:37.709949 11552 net.cpp:148] Top shape: 24 192 28 28 (3612672)
I0403 15:03:37.709964 11552 net.cpp:156] Memory required for data: 556352544
I0403 15:03:37.709977 11552 layer_factory.hpp:77] Creating layer inception_3a/pool_proj
I0403 15:03:37.709998 11552 net.cpp:91] Creating Layer inception_3a/pool_proj
I0403 15:03:37.710016 11552 net.cpp:425] inception_3a/pool_proj <- inception_3a/pool
I0403 15:03:37.710037 11552 net.cpp:399] inception_3a/pool_proj -> inception_3a/pool_proj
I0403 15:03:37.710988 11552 net.cpp:141] Setting up inception_3a/pool_proj
I0403 15:03:37.711016 11552 net.cpp:148] Top shape: 24 32 28 28 (602112)
I0403 15:03:37.711033 11552 net.cpp:156] Memory required for data: 558760992
I0403 15:03:37.711055 11552 layer_factory.hpp:77] Creating layer inception_3a/relu_pool_proj
I0403 15:03:37.711076 11552 net.cpp:91] Creating Layer inception_3a/relu_pool_proj
I0403 15:03:37.711092 11552 net.cpp:425] inception_3a/relu_pool_proj <- inception_3a/pool_proj
I0403 15:03:37.711110 11552 net.cpp:386] inception_3a/relu_pool_proj -> inception_3a/pool_proj (in-place)
I0403 15:03:37.711387 11552 net.cpp:141] Setting up inception_3a/relu_pool_proj
I0403 15:03:37.711412 11552 net.cpp:148] Top shape: 24 32 28 28 (602112)
I0403 15:03:37.711428 11552 net.cpp:156] Memory required for data: 561169440
I0403 15:03:37.711442 11552 layer_factory.hpp:77] Creating layer inception_3a/output
I0403 15:03:37.711460 11552 net.cpp:91] Creating Layer inception_3a/output
I0403 15:03:37.711477 11552 net.cpp:425] inception_3a/output <- inception_3a/1x1
I0403 15:03:37.711493 11552 net.cpp:425] inception_3a/output <- inception_3a/3x3
I0403 15:03:37.711508 11552 net.cpp:425] inception_3a/output <- inception_3a/5x5
I0403 15:03:37.711524 11552 net.cpp:425] inception_3a/output <- inception_3a/pool_proj
I0403 15:03:37.711544 11552 net.cpp:399] inception_3a/output -> inception_3a/output
I0403 15:03:37.711591 11552 net.cpp:141] Setting up inception_3a/output
I0403 15:03:37.711612 11552 net.cpp:148] Top shape: 24 256 28 28 (4816896)
I0403 15:03:37.711627 11552 net.cpp:156] Memory required for data: 580437024
I0403 15:03:37.711642 11552 layer_factory.hpp:77] Creating layer inception_3a/output_inception_3a/output_0_split
I0403 15:03:37.711659 11552 net.cpp:91] Creating Layer inception_3a/output_inception_3a/output_0_split
I0403 15:03:37.711673 11552 net.cpp:425] inception_3a/output_inception_3a/output_0_split <- inception_3a/output
I0403 15:03:37.711694 11552 net.cpp:399] inception_3a/output_inception_3a/output_0_split -> inception_3a/output_inception_3a/output_0_split_0
I0403 15:03:37.711714 11552 net.cpp:399] inception_3a/output_inception_3a/output_0_split -> inception_3a/output_inception_3a/output_0_split_1
I0403 15:03:37.711736 11552 net.cpp:399] inception_3a/output_inception_3a/output_0_split -> inception_3a/output_inception_3a/output_0_split_2
I0403 15:03:37.711756 11552 net.cpp:399] inception_3a/output_inception_3a/output_0_split -> inception_3a/output_inception_3a/output_0_split_3
I0403 15:03:37.711832 11552 net.cpp:141] Setting up inception_3a/output_inception_3a/output_0_split
I0403 15:03:37.711853 11552 net.cpp:148] Top shape: 24 256 28 28 (4816896)
I0403 15:03:37.711870 11552 net.cpp:148] Top shape: 24 256 28 28 (4816896)
I0403 15:03:37.711885 11552 net.cpp:148] Top shape: 24 256 28 28 (4816896)
I0403 15:03:37.711900 11552 net.cpp:148] Top shape: 24 256 28 28 (4816896)
I0403 15:03:37.711915 11552 net.cpp:156] Memory required for data: 657507360
I0403 15:03:37.711928 11552 layer_factory.hpp:77] Creating layer inception_3b/1x1
I0403 15:03:37.711951 11552 net.cpp:91] Creating Layer inception_3b/1x1
I0403 15:03:37.711968 11552 net.cpp:425] inception_3b/1x1 <- inception_3a/output_inception_3a/output_0_split_0
I0403 15:03:37.711989 11552 net.cpp:399] inception_3b/1x1 -> inception_3b/1x1
I0403 15:03:37.713136 11552 net.cpp:141] Setting up inception_3b/1x1
I0403 15:03:37.713178 11552 net.cpp:148] Top shape: 24 128 28 28 (2408448)
I0403 15:03:37.713197 11552 net.cpp:156] Memory required for data: 667141152
I0403 15:03:37.713215 11552 layer_factory.hpp:77] Creating layer inception_3b/relu_1x1
I0403 15:03:37.713233 11552 net.cpp:91] Creating Layer inception_3b/relu_1x1
I0403 15:03:37.713248 11552 net.cpp:425] inception_3b/relu_1x1 <- inception_3b/1x1
I0403 15:03:37.713269 11552 net.cpp:386] inception_3b/relu_1x1 -> inception_3b/1x1 (in-place)
I0403 15:03:37.713466 11552 net.cpp:141] Setting up inception_3b/relu_1x1
I0403 15:03:37.713491 11552 net.cpp:148] Top shape: 24 128 28 28 (2408448)
I0403 15:03:37.713506 11552 net.cpp:156] Memory required for data: 676774944
I0403 15:03:37.713521 11552 layer_factory.hpp:77] Creating layer inception_3b/3x3_reduce
I0403 15:03:37.713542 11552 net.cpp:91] Creating Layer inception_3b/3x3_reduce
I0403 15:03:37.713559 11552 net.cpp:425] inception_3b/3x3_reduce <- inception_3a/output_inception_3a/output_0_split_1
I0403 15:03:37.713582 11552 net.cpp:399] inception_3b/3x3_reduce -> inception_3b/3x3_reduce
I0403 15:03:37.714732 11552 net.cpp:141] Setting up inception_3b/3x3_reduce
I0403 15:03:37.714761 11552 net.cpp:148] Top shape: 24 128 28 28 (2408448)
I0403 15:03:37.714777 11552 net.cpp:156] Memory required for data: 686408736
I0403 15:03:37.714795 11552 layer_factory.hpp:77] Creating layer inception_3b/relu_3x3_reduce
I0403 15:03:37.714814 11552 net.cpp:91] Creating Layer inception_3b/relu_3x3_reduce
I0403 15:03:37.714833 11552 net.cpp:425] inception_3b/relu_3x3_reduce <- inception_3b/3x3_reduce
I0403 15:03:37.714853 11552 net.cpp:386] inception_3b/relu_3x3_reduce -> inception_3b/3x3_reduce (in-place)
I0403 15:03:37.715028 11552 net.cpp:141] Setting up inception_3b/relu_3x3_reduce
I0403 15:03:37.715052 11552 net.cpp:148] Top shape: 24 128 28 28 (2408448)
I0403 15:03:37.715067 11552 net.cpp:156] Memory required for data: 696042528
I0403 15:03:37.715083 11552 layer_factory.hpp:77] Creating layer inception_3b/3x3
I0403 15:03:37.715111 11552 net.cpp:91] Creating Layer inception_3b/3x3
I0403 15:03:37.715129 11552 net.cpp:425] inception_3b/3x3 <- inception_3b/3x3_reduce
I0403 15:03:37.715149 11552 net.cpp:399] inception_3b/3x3 -> inception_3b/3x3
I0403 15:03:37.718083 11552 net.cpp:141] Setting up inception_3b/3x3
I0403 15:03:37.718112 11552 net.cpp:148] Top shape: 24 192 28 28 (3612672)
I0403 15:03:37.718128 11552 net.cpp:156] Memory required for data: 710493216
I0403 15:03:37.718147 11552 layer_factory.hpp:77] Creating layer inception_3b/relu_3x3
I0403 15:03:37.718168 11552 net.cpp:91] Creating Layer inception_3b/relu_3x3
I0403 15:03:37.718185 11552 net.cpp:425] inception_3b/relu_3x3 <- inception_3b/3x3
I0403 15:03:37.718202 11552 net.cpp:386] inception_3b/relu_3x3 -> inception_3b/3x3 (in-place)
I0403 15:03:37.718485 11552 net.cpp:141] Setting up inception_3b/relu_3x3
I0403 15:03:37.718513 11552 net.cpp:148] Top shape: 24 192 28 28 (3612672)
I0403 15:03:37.718528 11552 net.cpp:156] Memory required for data: 724943904
I0403 15:03:37.718544 11552 layer_factory.hpp:77] Creating layer inception_3b/5x5_reduce
I0403 15:03:37.718567 11552 net.cpp:91] Creating Layer inception_3b/5x5_reduce
I0403 15:03:37.718585 11552 net.cpp:425] inception_3b/5x5_reduce <- inception_3a/output_inception_3a/output_0_split_2
I0403 15:03:37.718608 11552 net.cpp:399] inception_3b/5x5_reduce -> inception_3b/5x5_reduce
I0403 15:03:37.719617 11552 net.cpp:141] Setting up inception_3b/5x5_reduce
I0403 15:03:37.719645 11552 net.cpp:148] Top shape: 24 32 28 28 (602112)
I0403 15:03:37.719661 11552 net.cpp:156] Memory required for data: 727352352
I0403 15:03:37.719681 11552 layer_factory.hpp:77] Creating layer inception_3b/relu_5x5_reduce
I0403 15:03:37.719698 11552 net.cpp:91] Creating Layer inception_3b/relu_5x5_reduce
I0403 15:03:37.719713 11552 net.cpp:425] inception_3b/relu_5x5_reduce <- inception_3b/5x5_reduce
I0403 15:03:37.719733 11552 net.cpp:386] inception_3b/relu_5x5_reduce -> inception_3b/5x5_reduce (in-place)
I0403 15:03:37.719928 11552 net.cpp:141] Setting up inception_3b/relu_5x5_reduce
I0403 15:03:37.719954 11552 net.cpp:148] Top shape: 24 32 28 28 (602112)
I0403 15:03:37.719969 11552 net.cpp:156] Memory required for data: 729760800
I0403 15:03:37.719985 11552 layer_factory.hpp:77] Creating layer inception_3b/5x5
I0403 15:03:37.720007 11552 net.cpp:91] Creating Layer inception_3b/5x5
I0403 15:03:37.720026 11552 net.cpp:425] inception_3b/5x5 <- inception_3b/5x5_reduce
I0403 15:03:37.720046 11552 net.cpp:399] inception_3b/5x5 -> inception_3b/5x5
I0403 15:03:37.722056 11552 net.cpp:141] Setting up inception_3b/5x5
I0403 15:03:37.722090 11552 net.cpp:148] Top shape: 24 96 28 28 (1806336)
I0403 15:03:37.722106 11552 net.cpp:156] Memory required for data: 736986144
I0403 15:03:37.722126 11552 layer_factory.hpp:77] Creating layer inception_3b/relu_5x5
I0403 15:03:37.722144 11552 net.cpp:91] Creating Layer inception_3b/relu_5x5
I0403 15:03:37.722162 11552 net.cpp:425] inception_3b/relu_5x5 <- inception_3b/5x5
I0403 15:03:37.722182 11552 net.cpp:386] inception_3b/relu_5x5 -> inception_3b/5x5 (in-place)
I0403 15:03:37.722398 11552 net.cpp:141] Setting up inception_3b/relu_5x5
I0403 15:03:37.722424 11552 net.cpp:148] Top shape: 24 96 28 28 (1806336)
I0403 15:03:37.722439 11552 net.cpp:156] Memory required for data: 744211488
I0403 15:03:37.722455 11552 layer_factory.hpp:77] Creating layer inception_3b/pool
I0403 15:03:37.722473 11552 net.cpp:91] Creating Layer inception_3b/pool
I0403 15:03:37.722489 11552 net.cpp:425] inception_3b/pool <- inception_3a/output_inception_3a/output_0_split_3
I0403 15:03:37.722508 11552 net.cpp:399] inception_3b/pool -> inception_3b/pool
I0403 15:03:37.722570 11552 net.cpp:141] Setting up inception_3b/pool
I0403 15:03:37.722594 11552 net.cpp:148] Top shape: 24 256 28 28 (4816896)
I0403 15:03:37.722609 11552 net.cpp:156] Memory required for data: 763479072
I0403 15:03:37.722636 11552 layer_factory.hpp:77] Creating layer inception_3b/pool_proj
I0403 15:03:37.722659 11552 net.cpp:91] Creating Layer inception_3b/pool_proj
I0403 15:03:37.722677 11552 net.cpp:425] inception_3b/pool_proj <- inception_3b/pool
I0403 15:03:37.722698 11552 net.cpp:399] inception_3b/pool_proj -> inception_3b/pool_proj
I0403 15:03:37.723784 11552 net.cpp:141] Setting up inception_3b/pool_proj
I0403 15:03:37.723814 11552 net.cpp:148] Top shape: 24 64 28 28 (1204224)
I0403 15:03:37.723835 11552 net.cpp:156] Memory required for data: 768295968
I0403 15:03:37.723855 11552 layer_factory.hpp:77] Creating layer inception_3b/relu_pool_proj
I0403 15:03:37.723873 11552 net.cpp:91] Creating Layer inception_3b/relu_pool_proj
I0403 15:03:37.723891 11552 net.cpp:425] inception_3b/relu_pool_proj <- inception_3b/pool_proj
I0403 15:03:37.723908 11552 net.cpp:386] inception_3b/relu_pool_proj -> inception_3b/pool_proj (in-place)
I0403 15:03:37.724325 11552 net.cpp:141] Setting up inception_3b/relu_pool_proj
I0403 15:03:37.724352 11552 net.cpp:148] Top shape: 24 64 28 28 (1204224)
I0403 15:03:37.724369 11552 net.cpp:156] Memory required for data: 773112864
I0403 15:03:37.724383 11552 layer_factory.hpp:77] Creating layer inception_3b/output
I0403 15:03:37.724403 11552 net.cpp:91] Creating Layer inception_3b/output
I0403 15:03:37.724419 11552 net.cpp:425] inception_3b/output <- inception_3b/1x1
I0403 15:03:37.724436 11552 net.cpp:425] inception_3b/output <- inception_3b/3x3
I0403 15:03:37.724453 11552 net.cpp:425] inception_3b/output <- inception_3b/5x5
I0403 15:03:37.724468 11552 net.cpp:425] inception_3b/output <- inception_3b/pool_proj
I0403 15:03:37.724485 11552 net.cpp:399] inception_3b/output -> inception_3b/output
I0403 15:03:37.724531 11552 net.cpp:141] Setting up inception_3b/output
I0403 15:03:37.724555 11552 net.cpp:148] Top shape: 24 480 28 28 (9031680)
I0403 15:03:37.724570 11552 net.cpp:156] Memory required for data: 809239584
I0403 15:03:37.724584 11552 layer_factory.hpp:77] Creating layer pool3/3x3_s2
I0403 15:03:37.724601 11552 net.cpp:91] Creating Layer pool3/3x3_s2
I0403 15:03:37.724617 11552 net.cpp:425] pool3/3x3_s2 <- inception_3b/output
I0403 15:03:37.724653 11552 net.cpp:399] pool3/3x3_s2 -> pool3/3x3_s2
I0403 15:03:37.724714 11552 net.cpp:141] Setting up pool3/3x3_s2
I0403 15:03:37.724736 11552 net.cpp:148] Top shape: 24 480 14 14 (2257920)
I0403 15:03:37.724751 11552 net.cpp:156] Memory required for data: 818271264
I0403 15:03:37.724767 11552 layer_factory.hpp:77] Creating layer pool3/3x3_s2_pool3/3x3_s2_0_split
I0403 15:03:37.724786 11552 net.cpp:91] Creating Layer pool3/3x3_s2_pool3/3x3_s2_0_split
I0403 15:03:37.724803 11552 net.cpp:425] pool3/3x3_s2_pool3/3x3_s2_0_split <- pool3/3x3_s2
I0403 15:03:37.724822 11552 net.cpp:399] pool3/3x3_s2_pool3/3x3_s2_0_split -> pool3/3x3_s2_pool3/3x3_s2_0_split_0
I0403 15:03:37.724843 11552 net.cpp:399] pool3/3x3_s2_pool3/3x3_s2_0_split -> pool3/3x3_s2_pool3/3x3_s2_0_split_1
I0403 15:03:37.724864 11552 net.cpp:399] pool3/3x3_s2_pool3/3x3_s2_0_split -> pool3/3x3_s2_pool3/3x3_s2_0_split_2
I0403 15:03:37.724884 11552 net.cpp:399] pool3/3x3_s2_pool3/3x3_s2_0_split -> pool3/3x3_s2_pool3/3x3_s2_0_split_3
I0403 15:03:37.724961 11552 net.cpp:141] Setting up pool3/3x3_s2_pool3/3x3_s2_0_split
I0403 15:03:37.724984 11552 net.cpp:148] Top shape: 24 480 14 14 (2257920)
I0403 15:03:37.725000 11552 net.cpp:148] Top shape: 24 480 14 14 (2257920)
I0403 15:03:37.725016 11552 net.cpp:148] Top shape: 24 480 14 14 (2257920)
I0403 15:03:37.725033 11552 net.cpp:148] Top shape: 24 480 14 14 (2257920)
I0403 15:03:37.725046 11552 net.cpp:156] Memory required for data: 854397984
I0403 15:03:37.725061 11552 layer_factory.hpp:77] Creating layer inception_4a/1x1
I0403 15:03:37.725085 11552 net.cpp:91] Creating Layer inception_4a/1x1
I0403 15:03:37.725101 11552 net.cpp:425] inception_4a/1x1 <- pool3/3x3_s2_pool3/3x3_s2_0_split_0
I0403 15:03:37.725122 11552 net.cpp:399] inception_4a/1x1 -> inception_4a/1x1
I0403 15:03:37.726723 11552 net.cpp:141] Setting up inception_4a/1x1
I0403 15:03:37.726755 11552 net.cpp:148] Top shape: 24 192 14 14 (903168)
I0403 15:03:37.726773 11552 net.cpp:156] Memory required for data: 858010656
I0403 15:03:37.726793 11552 layer_factory.hpp:77] Creating layer inception_4a/relu_1x1
I0403 15:03:37.726810 11552 net.cpp:91] Creating Layer inception_4a/relu_1x1
I0403 15:03:37.726830 11552 net.cpp:425] inception_4a/relu_1x1 <- inception_4a/1x1
I0403 15:03:37.726846 11552 net.cpp:386] inception_4a/relu_1x1 -> inception_4a/1x1 (in-place)
I0403 15:03:37.727028 11552 net.cpp:141] Setting up inception_4a/relu_1x1
I0403 15:03:37.727056 11552 net.cpp:148] Top shape: 24 192 14 14 (903168)
I0403 15:03:37.727071 11552 net.cpp:156] Memory required for data: 861623328
I0403 15:03:37.727085 11552 layer_factory.hpp:77] Creating layer inception_4a/3x3_reduce
I0403 15:03:37.727109 11552 net.cpp:91] Creating Layer inception_4a/3x3_reduce
I0403 15:03:37.727128 11552 net.cpp:425] inception_4a/3x3_reduce <- pool3/3x3_s2_pool3/3x3_s2_0_split_1
I0403 15:03:37.727150 11552 net.cpp:399] inception_4a/3x3_reduce -> inception_4a/3x3_reduce
I0403 15:03:37.728454 11552 net.cpp:141] Setting up inception_4a/3x3_reduce
I0403 15:03:37.728483 11552 net.cpp:148] Top shape: 24 96 14 14 (451584)
I0403 15:03:37.728500 11552 net.cpp:156] Memory required for data: 863429664
I0403 15:03:37.728528 11552 layer_factory.hpp:77] Creating layer inception_4a/relu_3x3_reduce
I0403 15:03:37.728550 11552 net.cpp:91] Creating Layer inception_4a/relu_3x3_reduce
I0403 15:03:37.728566 11552 net.cpp:425] inception_4a/relu_3x3_reduce <- inception_4a/3x3_reduce
I0403 15:03:37.728585 11552 net.cpp:386] inception_4a/relu_3x3_reduce -> inception_4a/3x3_reduce (in-place)
I0403 15:03:37.728765 11552 net.cpp:141] Setting up inception_4a/relu_3x3_reduce
I0403 15:03:37.728791 11552 net.cpp:148] Top shape: 24 96 14 14 (451584)
I0403 15:03:37.728806 11552 net.cpp:156] Memory required for data: 865236000
I0403 15:03:37.728822 11552 layer_factory.hpp:77] Creating layer inception_4a/3x3
I0403 15:03:37.728845 11552 net.cpp:91] Creating Layer inception_4a/3x3
I0403 15:03:37.728863 11552 net.cpp:425] inception_4a/3x3 <- inception_4a/3x3_reduce
I0403 15:03:37.728881 11552 net.cpp:399] inception_4a/3x3 -> inception_4a/3x3
I0403 15:03:37.731640 11552 net.cpp:141] Setting up inception_4a/3x3
I0403 15:03:37.731688 11552 net.cpp:148] Top shape: 24 208 14 14 (978432)
I0403 15:03:37.731705 11552 net.cpp:156] Memory required for data: 869149728
I0403 15:03:37.731724 11552 layer_factory.hpp:77] Creating layer inception_4a/relu_3x3
I0403 15:03:37.731752 11552 net.cpp:91] Creating Layer inception_4a/relu_3x3
I0403 15:03:37.731770 11552 net.cpp:425] inception_4a/relu_3x3 <- inception_4a/3x3
I0403 15:03:37.731789 11552 net.cpp:386] inception_4a/relu_3x3 -> inception_4a/3x3 (in-place)
I0403 15:03:37.732095 11552 net.cpp:141] Setting up inception_4a/relu_3x3
I0403 15:03:37.732122 11552 net.cpp:148] Top shape: 24 208 14 14 (978432)
I0403 15:03:37.732137 11552 net.cpp:156] Memory required for data: 873063456
I0403 15:03:37.732152 11552 layer_factory.hpp:77] Creating layer inception_4a/5x5_reduce
I0403 15:03:37.732175 11552 net.cpp:91] Creating Layer inception_4a/5x5_reduce
I0403 15:03:37.732192 11552 net.cpp:425] inception_4a/5x5_reduce <- pool3/3x3_s2_pool3/3x3_s2_0_split_2
I0403 15:03:37.732215 11552 net.cpp:399] inception_4a/5x5_reduce -> inception_4a/5x5_reduce
I0403 15:03:37.733249 11552 net.cpp:141] Setting up inception_4a/5x5_reduce
I0403 15:03:37.733279 11552 net.cpp:148] Top shape: 24 16 14 14 (75264)
I0403 15:03:37.733295 11552 net.cpp:156] Memory required for data: 873364512
I0403 15:03:37.733314 11552 layer_factory.hpp:77] Creating layer inception_4a/relu_5x5_reduce
I0403 15:03:37.733346 11552 net.cpp:91] Creating Layer inception_4a/relu_5x5_reduce
I0403 15:03:37.733366 11552 net.cpp:425] inception_4a/relu_5x5_reduce <- inception_4a/5x5_reduce
I0403 15:03:37.733387 11552 net.cpp:386] inception_4a/relu_5x5_reduce -> inception_4a/5x5_reduce (in-place)
I0403 15:03:37.733572 11552 net.cpp:141] Setting up inception_4a/relu_5x5_reduce
I0403 15:03:37.733599 11552 net.cpp:148] Top shape: 24 16 14 14 (75264)
I0403 15:03:37.733628 11552 net.cpp:156] Memory required for data: 873665568
I0403 15:03:37.733644 11552 layer_factory.hpp:77] Creating layer inception_4a/5x5
I0403 15:03:37.733667 11552 net.cpp:91] Creating Layer inception_4a/5x5
I0403 15:03:37.733687 11552 net.cpp:425] inception_4a/5x5 <- inception_4a/5x5_reduce
I0403 15:03:37.733711 11552 net.cpp:399] inception_4a/5x5 -> inception_4a/5x5
I0403 15:03:37.734833 11552 net.cpp:141] Setting up inception_4a/5x5
I0403 15:03:37.734863 11552 net.cpp:148] Top shape: 24 48 14 14 (225792)
I0403 15:03:37.734879 11552 net.cpp:156] Memory required for data: 874568736
I0403 15:03:37.734899 11552 layer_factory.hpp:77] Creating layer inception_4a/relu_5x5
I0403 15:03:37.734918 11552 net.cpp:91] Creating Layer inception_4a/relu_5x5
I0403 15:03:37.734937 11552 net.cpp:425] inception_4a/relu_5x5 <- inception_4a/5x5
I0403 15:03:37.734956 11552 net.cpp:386] inception_4a/relu_5x5 -> inception_4a/5x5 (in-place)
I0403 15:03:37.735138 11552 net.cpp:141] Setting up inception_4a/relu_5x5
I0403 15:03:37.735167 11552 net.cpp:148] Top shape: 24 48 14 14 (225792)
I0403 15:03:37.735183 11552 net.cpp:156] Memory required for data: 875471904
I0403 15:03:37.735198 11552 layer_factory.hpp:77] Creating layer inception_4a/pool
I0403 15:03:37.735219 11552 net.cpp:91] Creating Layer inception_4a/pool
I0403 15:03:37.735234 11552 net.cpp:425] inception_4a/pool <- pool3/3x3_s2_pool3/3x3_s2_0_split_3
I0403 15:03:37.735255 11552 net.cpp:399] inception_4a/pool -> inception_4a/pool
I0403 15:03:37.735321 11552 net.cpp:141] Setting up inception_4a/pool
I0403 15:03:37.735347 11552 net.cpp:148] Top shape: 24 480 14 14 (2257920)
I0403 15:03:37.735363 11552 net.cpp:156] Memory required for data: 884503584
I0403 15:03:37.735378 11552 layer_factory.hpp:77] Creating layer inception_4a/pool_proj
I0403 15:03:37.735404 11552 net.cpp:91] Creating Layer inception_4a/pool_proj
I0403 15:03:37.735424 11552 net.cpp:425] inception_4a/pool_proj <- inception_4a/pool
I0403 15:03:37.735445 11552 net.cpp:399] inception_4a/pool_proj -> inception_4a/pool_proj
I0403 15:03:37.736680 11552 net.cpp:141] Setting up inception_4a/pool_proj
I0403 15:03:37.736711 11552 net.cpp:148] Top shape: 24 64 14 14 (301056)
I0403 15:03:37.736742 11552 net.cpp:156] Memory required for data: 885707808
I0403 15:03:37.736763 11552 layer_factory.hpp:77] Creating layer inception_4a/relu_pool_proj
I0403 15:03:37.736785 11552 net.cpp:91] Creating Layer inception_4a/relu_pool_proj
I0403 15:03:37.736804 11552 net.cpp:425] inception_4a/relu_pool_proj <- inception_4a/pool_proj
I0403 15:03:37.736821 11552 net.cpp:386] inception_4a/relu_pool_proj -> inception_4a/pool_proj (in-place)
I0403 15:03:37.737117 11552 net.cpp:141] Setting up inception_4a/relu_pool_proj
I0403 15:03:37.737143 11552 net.cpp:148] Top shape: 24 64 14 14 (301056)
I0403 15:03:37.737159 11552 net.cpp:156] Memory required for data: 886912032
I0403 15:03:37.737174 11552 layer_factory.hpp:77] Creating layer inception_4a/output
I0403 15:03:37.737195 11552 net.cpp:91] Creating Layer inception_4a/output
I0403 15:03:37.737210 11552 net.cpp:425] inception_4a/output <- inception_4a/1x1
I0403 15:03:37.737226 11552 net.cpp:425] inception_4a/output <- inception_4a/3x3
I0403 15:03:37.737243 11552 net.cpp:425] inception_4a/output <- inception_4a/5x5
I0403 15:03:37.737259 11552 net.cpp:425] inception_4a/output <- inception_4a/pool_proj
I0403 15:03:37.737277 11552 net.cpp:399] inception_4a/output -> inception_4a/output
I0403 15:03:37.737326 11552 net.cpp:141] Setting up inception_4a/output
I0403 15:03:37.737350 11552 net.cpp:148] Top shape: 24 512 14 14 (2408448)
I0403 15:03:37.737365 11552 net.cpp:156] Memory required for data: 896545824
I0403 15:03:37.737380 11552 layer_factory.hpp:77] Creating layer inception_4a/output_inception_4a/output_0_split
I0403 15:03:37.737397 11552 net.cpp:91] Creating Layer inception_4a/output_inception_4a/output_0_split
I0403 15:03:37.737412 11552 net.cpp:425] inception_4a/output_inception_4a/output_0_split <- inception_4a/output
I0403 15:03:37.737432 11552 net.cpp:399] inception_4a/output_inception_4a/output_0_split -> inception_4a/output_inception_4a/output_0_split_0
I0403 15:03:37.737454 11552 net.cpp:399] inception_4a/output_inception_4a/output_0_split -> inception_4a/output_inception_4a/output_0_split_1
I0403 15:03:37.737475 11552 net.cpp:399] inception_4a/output_inception_4a/output_0_split -> inception_4a/output_inception_4a/output_0_split_2
I0403 15:03:37.737499 11552 net.cpp:399] inception_4a/output_inception_4a/output_0_split -> inception_4a/output_inception_4a/output_0_split_3
I0403 15:03:37.737520 11552 net.cpp:399] inception_4a/output_inception_4a/output_0_split -> inception_4a/output_inception_4a/output_0_split_4
I0403 15:03:37.737613 11552 net.cpp:141] Setting up inception_4a/output_inception_4a/output_0_split
I0403 15:03:37.737637 11552 net.cpp:148] Top shape: 24 512 14 14 (2408448)
I0403 15:03:37.737653 11552 net.cpp:148] Top shape: 24 512 14 14 (2408448)
I0403 15:03:37.737668 11552 net.cpp:148] Top shape: 24 512 14 14 (2408448)
I0403 15:03:37.737684 11552 net.cpp:148] Top shape: 24 512 14 14 (2408448)
I0403 15:03:37.737699 11552 net.cpp:148] Top shape: 24 512 14 14 (2408448)
I0403 15:03:37.737712 11552 net.cpp:156] Memory required for data: 944714784
I0403 15:03:37.737727 11552 layer_factory.hpp:77] Creating layer loss1/ave_pool
I0403 15:03:37.737746 11552 net.cpp:91] Creating Layer loss1/ave_pool
I0403 15:03:37.737761 11552 net.cpp:425] loss1/ave_pool <- inception_4a/output_inception_4a/output_0_split_0
I0403 15:03:37.737782 11552 net.cpp:399] loss1/ave_pool -> loss1/ave_pool
I0403 15:03:37.737996 11552 net.cpp:141] Setting up loss1/ave_pool
I0403 15:03:37.738023 11552 net.cpp:148] Top shape: 24 512 4 4 (196608)
I0403 15:03:37.738039 11552 net.cpp:156] Memory required for data: 945501216
I0403 15:03:37.738054 11552 layer_factory.hpp:77] Creating layer loss1/conv
I0403 15:03:37.738077 11552 net.cpp:91] Creating Layer loss1/conv
I0403 15:03:37.738095 11552 net.cpp:425] loss1/conv <- loss1/ave_pool
I0403 15:03:37.738114 11552 net.cpp:399] loss1/conv -> loss1/conv
I0403 15:03:37.739559 11552 net.cpp:141] Setting up loss1/conv
I0403 15:03:37.739588 11552 net.cpp:148] Top shape: 24 128 4 4 (49152)
I0403 15:03:37.739632 11552 net.cpp:156] Memory required for data: 945697824
I0403 15:03:37.739653 11552 layer_factory.hpp:77] Creating layer loss1/relu_conv
I0403 15:03:37.739672 11552 net.cpp:91] Creating Layer loss1/relu_conv
I0403 15:03:37.739688 11552 net.cpp:425] loss1/relu_conv <- loss1/conv
I0403 15:03:37.739708 11552 net.cpp:386] loss1/relu_conv -> loss1/conv (in-place)
I0403 15:03:37.740012 11552 net.cpp:141] Setting up loss1/relu_conv
I0403 15:03:37.740039 11552 net.cpp:148] Top shape: 24 128 4 4 (49152)
I0403 15:03:37.740054 11552 net.cpp:156] Memory required for data: 945894432
I0403 15:03:37.740070 11552 layer_factory.hpp:77] Creating layer loss1/fc
I0403 15:03:37.740094 11552 net.cpp:91] Creating Layer loss1/fc
I0403 15:03:37.740113 11552 net.cpp:425] loss1/fc <- loss1/conv
I0403 15:03:37.740134 11552 net.cpp:399] loss1/fc -> loss1/fc
I0403 15:03:37.758492 11552 net.cpp:141] Setting up loss1/fc
I0403 15:03:37.758550 11552 net.cpp:148] Top shape: 24 1024 (24576)
I0403 15:03:37.758565 11552 net.cpp:156] Memory required for data: 945992736
I0403 15:03:37.758584 11552 layer_factory.hpp:77] Creating layer loss1/relu_fc
I0403 15:03:37.758605 11552 net.cpp:91] Creating Layer loss1/relu_fc
I0403 15:03:37.758621 11552 net.cpp:425] loss1/relu_fc <- loss1/fc
I0403 15:03:37.758641 11552 net.cpp:386] loss1/relu_fc -> loss1/fc (in-place)
I0403 15:03:37.758846 11552 net.cpp:141] Setting up loss1/relu_fc
I0403 15:03:37.758869 11552 net.cpp:148] Top shape: 24 1024 (24576)
I0403 15:03:37.758883 11552 net.cpp:156] Memory required for data: 946091040
I0403 15:03:37.758898 11552 layer_factory.hpp:77] Creating layer loss1/drop_fc
I0403 15:03:37.758925 11552 net.cpp:91] Creating Layer loss1/drop_fc
I0403 15:03:37.758942 11552 net.cpp:425] loss1/drop_fc <- loss1/fc
I0403 15:03:37.758962 11552 net.cpp:386] loss1/drop_fc -> loss1/fc (in-place)
I0403 15:03:37.759016 11552 net.cpp:141] Setting up loss1/drop_fc
I0403 15:03:37.759038 11552 net.cpp:148] Top shape: 24 1024 (24576)
I0403 15:03:37.759052 11552 net.cpp:156] Memory required for data: 946189344
I0403 15:03:37.759068 11552 layer_factory.hpp:77] Creating layer loss1/classifier_plantvillage
I0403 15:03:37.759090 11552 net.cpp:91] Creating Layer loss1/classifier_plantvillage
I0403 15:03:37.759109 11552 net.cpp:425] loss1/classifier_plantvillage <- loss1/fc
I0403 15:03:37.759127 11552 net.cpp:399] loss1/classifier_plantvillage -> loss1/classifier_plantvillage
I0403 15:03:37.760119 11552 net.cpp:141] Setting up loss1/classifier_plantvillage
I0403 15:03:37.760150 11552 net.cpp:148] Top shape: 24 38 (912)
I0403 15:03:37.760169 11552 net.cpp:156] Memory required for data: 946192992
I0403 15:03:37.760186 11552 layer_factory.hpp:77] Creating layer loss1/classifier_plantvillage_loss1/classifier_plantvillage_0_split
I0403 15:03:37.760205 11552 net.cpp:91] Creating Layer loss1/classifier_plantvillage_loss1/classifier_plantvillage_0_split
I0403 15:03:37.760221 11552 net.cpp:425] loss1/classifier_plantvillage_loss1/classifier_plantvillage_0_split <- loss1/classifier_plantvillage
I0403 15:03:37.760238 11552 net.cpp:399] loss1/classifier_plantvillage_loss1/classifier_plantvillage_0_split -> loss1/classifier_plantvillage_loss1/classifier_plantvillage_0_split_0
I0403 15:03:37.760260 11552 net.cpp:399] loss1/classifier_plantvillage_loss1/classifier_plantvillage_0_split -> loss1/classifier_plantvillage_loss1/classifier_plantvillage_0_split_1
I0403 15:03:37.760282 11552 net.cpp:399] loss1/classifier_plantvillage_loss1/classifier_plantvillage_0_split -> loss1/classifier_plantvillage_loss1/classifier_plantvillage_0_split_2
I0403 15:03:37.760355 11552 net.cpp:141] Setting up loss1/classifier_plantvillage_loss1/classifier_plantvillage_0_split
I0403 15:03:37.760380 11552 net.cpp:148] Top shape: 24 38 (912)
I0403 15:03:37.760396 11552 net.cpp:148] Top shape: 24 38 (912)
I0403 15:03:37.760411 11552 net.cpp:148] Top shape: 24 38 (912)
I0403 15:03:37.760426 11552 net.cpp:156] Memory required for data: 946203936
I0403 15:03:37.760439 11552 layer_factory.hpp:77] Creating layer inception_4b/1x1
I0403 15:03:37.760460 11552 net.cpp:91] Creating Layer inception_4b/1x1
I0403 15:03:37.760499 11552 net.cpp:425] inception_4b/1x1 <- inception_4a/output_inception_4a/output_0_split_1
I0403 15:03:37.760521 11552 net.cpp:399] inception_4b/1x1 -> inception_4b/1x1
I0403 15:03:37.762238 11552 net.cpp:141] Setting up inception_4b/1x1
I0403 15:03:37.762266 11552 net.cpp:148] Top shape: 24 160 14 14 (752640)
I0403 15:03:37.762284 11552 net.cpp:156] Memory required for data: 949214496
I0403 15:03:37.762302 11552 layer_factory.hpp:77] Creating layer inception_4b/relu_1x1
I0403 15:03:37.762332 11552 net.cpp:91] Creating Layer inception_4b/relu_1x1
I0403 15:03:37.762353 11552 net.cpp:425] inception_4b/relu_1x1 <- inception_4b/1x1
I0403 15:03:37.762374 11552 net.cpp:386] inception_4b/relu_1x1 -> inception_4b/1x1 (in-place)
I0403 15:03:37.762554 11552 net.cpp:141] Setting up inception_4b/relu_1x1
I0403 15:03:37.762580 11552 net.cpp:148] Top shape: 24 160 14 14 (752640)
I0403 15:03:37.762595 11552 net.cpp:156] Memory required for data: 952225056
I0403 15:03:37.762610 11552 layer_factory.hpp:77] Creating layer inception_4b/3x3_reduce
I0403 15:03:37.762634 11552 net.cpp:91] Creating Layer inception_4b/3x3_reduce
I0403 15:03:37.762653 11552 net.cpp:425] inception_4b/3x3_reduce <- inception_4a/output_inception_4a/output_0_split_2
I0403 15:03:37.762677 11552 net.cpp:399] inception_4b/3x3_reduce -> inception_4b/3x3_reduce
I0403 15:03:37.764058 11552 net.cpp:141] Setting up inception_4b/3x3_reduce
I0403 15:03:37.764087 11552 net.cpp:148] Top shape: 24 112 14 14 (526848)
I0403 15:03:37.764103 11552 net.cpp:156] Memory required for data: 954332448
I0403 15:03:37.764122 11552 layer_factory.hpp:77] Creating layer inception_4b/relu_3x3_reduce
I0403 15:03:37.764142 11552 net.cpp:91] Creating Layer inception_4b/relu_3x3_reduce
I0403 15:03:37.764160 11552 net.cpp:425] inception_4b/relu_3x3_reduce <- inception_4b/3x3_reduce
I0403 15:03:37.764178 11552 net.cpp:386] inception_4b/relu_3x3_reduce -> inception_4b/3x3_reduce (in-place)
I0403 15:03:37.764464 11552 net.cpp:141] Setting up inception_4b/relu_3x3_reduce
I0403 15:03:37.764490 11552 net.cpp:148] Top shape: 24 112 14 14 (526848)
I0403 15:03:37.764505 11552 net.cpp:156] Memory required for data: 956439840
I0403 15:03:37.764520 11552 layer_factory.hpp:77] Creating layer inception_4b/3x3
I0403 15:03:37.764542 11552 net.cpp:91] Creating Layer inception_4b/3x3
I0403 15:03:37.764560 11552 net.cpp:425] inception_4b/3x3 <- inception_4b/3x3_reduce
I0403 15:03:37.764580 11552 net.cpp:399] inception_4b/3x3 -> inception_4b/3x3
I0403 15:03:37.767586 11552 net.cpp:141] Setting up inception_4b/3x3
I0403 15:03:37.767632 11552 net.cpp:148] Top shape: 24 224 14 14 (1053696)
I0403 15:03:37.767650 11552 net.cpp:156] Memory required for data: 960654624
I0403 15:03:37.767670 11552 layer_factory.hpp:77] Creating layer inception_4b/relu_3x3
I0403 15:03:37.767688 11552 net.cpp:91] Creating Layer inception_4b/relu_3x3
I0403 15:03:37.767706 11552 net.cpp:425] inception_4b/relu_3x3 <- inception_4b/3x3
I0403 15:03:37.767724 11552 net.cpp:386] inception_4b/relu_3x3 -> inception_4b/3x3 (in-place)
I0403 15:03:37.767922 11552 net.cpp:141] Setting up inception_4b/relu_3x3
I0403 15:03:37.767947 11552 net.cpp:148] Top shape: 24 224 14 14 (1053696)
I0403 15:03:37.767963 11552 net.cpp:156] Memory required for data: 964869408
I0403 15:03:37.767978 11552 layer_factory.hpp:77] Creating layer inception_4b/5x5_reduce
I0403 15:03:37.768002 11552 net.cpp:91] Creating Layer inception_4b/5x5_reduce
I0403 15:03:37.768019 11552 net.cpp:425] inception_4b/5x5_reduce <- inception_4a/output_inception_4a/output_0_split_3
I0403 15:03:37.768040 11552 net.cpp:399] inception_4b/5x5_reduce -> inception_4b/5x5_reduce
I0403 15:03:37.769151 11552 net.cpp:141] Setting up inception_4b/5x5_reduce
I0403 15:03:37.769181 11552 net.cpp:148] Top shape: 24 24 14 14 (112896)
I0403 15:03:37.769196 11552 net.cpp:156] Memory required for data: 965320992
I0403 15:03:37.769214 11552 layer_factory.hpp:77] Creating layer inception_4b/relu_5x5_reduce
I0403 15:03:37.769235 11552 net.cpp:91] Creating Layer inception_4b/relu_5x5_reduce
I0403 15:03:37.769266 11552 net.cpp:425] inception_4b/relu_5x5_reduce <- inception_4b/5x5_reduce
I0403 15:03:37.769285 11552 net.cpp:386] inception_4b/relu_5x5_reduce -> inception_4b/5x5_reduce (in-place)
I0403 15:03:37.769482 11552 net.cpp:141] Setting up inception_4b/relu_5x5_reduce
I0403 15:03:37.769510 11552 net.cpp:148] Top shape: 24 24 14 14 (112896)
I0403 15:03:37.769526 11552 net.cpp:156] Memory required for data: 965772576
I0403 15:03:37.769541 11552 layer_factory.hpp:77] Creating layer inception_4b/5x5
I0403 15:03:37.769565 11552 net.cpp:91] Creating Layer inception_4b/5x5
I0403 15:03:37.769584 11552 net.cpp:425] inception_4b/5x5 <- inception_4b/5x5_reduce
I0403 15:03:37.769604 11552 net.cpp:399] inception_4b/5x5 -> inception_4b/5x5
I0403 15:03:37.770867 11552 net.cpp:141] Setting up inception_4b/5x5
I0403 15:03:37.770895 11552 net.cpp:148] Top shape: 24 64 14 14 (301056)
I0403 15:03:37.770910 11552 net.cpp:156] Memory required for data: 966976800
I0403 15:03:37.770928 11552 layer_factory.hpp:77] Creating layer inception_4b/relu_5x5
I0403 15:03:37.770946 11552 net.cpp:91] Creating Layer inception_4b/relu_5x5
I0403 15:03:37.770961 11552 net.cpp:425] inception_4b/relu_5x5 <- inception_4b/5x5
I0403 15:03:37.770982 11552 net.cpp:386] inception_4b/relu_5x5 -> inception_4b/5x5 (in-place)
I0403 15:03:37.771263 11552 net.cpp:141] Setting up inception_4b/relu_5x5
I0403 15:03:37.771289 11552 net.cpp:148] Top shape: 24 64 14 14 (301056)
I0403 15:03:37.771304 11552 net.cpp:156] Memory required for data: 968181024
I0403 15:03:37.771325 11552 layer_factory.hpp:77] Creating layer inception_4b/pool
I0403 15:03:37.771345 11552 net.cpp:91] Creating Layer inception_4b/pool
I0403 15:03:37.771361 11552 net.cpp:425] inception_4b/pool <- inception_4a/output_inception_4a/output_0_split_4
I0403 15:03:37.771383 11552 net.cpp:399] inception_4b/pool -> inception_4b/pool
I0403 15:03:37.771447 11552 net.cpp:141] Setting up inception_4b/pool
I0403 15:03:37.771471 11552 net.cpp:148] Top shape: 24 512 14 14 (2408448)
I0403 15:03:37.771486 11552 net.cpp:156] Memory required for data: 977814816
I0403 15:03:37.771500 11552 layer_factory.hpp:77] Creating layer inception_4b/pool_proj
I0403 15:03:37.771523 11552 net.cpp:91] Creating Layer inception_4b/pool_proj
I0403 15:03:37.771541 11552 net.cpp:425] inception_4b/pool_proj <- inception_4b/pool
I0403 15:03:37.771559 11552 net.cpp:399] inception_4b/pool_proj -> inception_4b/pool_proj
I0403 15:03:37.772781 11552 net.cpp:141] Setting up inception_4b/pool_proj
I0403 15:03:37.772811 11552 net.cpp:148] Top shape: 24 64 14 14 (301056)
I0403 15:03:37.772828 11552 net.cpp:156] Memory required for data: 979019040
I0403 15:03:37.772848 11552 layer_factory.hpp:77] Creating layer inception_4b/relu_pool_proj
I0403 15:03:37.772869 11552 net.cpp:91] Creating Layer inception_4b/relu_pool_proj
I0403 15:03:37.772888 11552 net.cpp:425] inception_4b/relu_pool_proj <- inception_4b/pool_proj
I0403 15:03:37.772918 11552 net.cpp:386] inception_4b/relu_pool_proj -> inception_4b/pool_proj (in-place)
I0403 15:03:37.773097 11552 net.cpp:141] Setting up inception_4b/relu_pool_proj
I0403 15:03:37.773123 11552 net.cpp:148] Top shape: 24 64 14 14 (301056)
I0403 15:03:37.773138 11552 net.cpp:156] Memory required for data: 980223264
I0403 15:03:37.773154 11552 layer_factory.hpp:77] Creating layer inception_4b/output
I0403 15:03:37.773176 11552 net.cpp:91] Creating Layer inception_4b/output
I0403 15:03:37.773193 11552 net.cpp:425] inception_4b/output <- inception_4b/1x1
I0403 15:03:37.773210 11552 net.cpp:425] inception_4b/output <- inception_4b/3x3
I0403 15:03:37.773226 11552 net.cpp:425] inception_4b/output <- inception_4b/5x5
I0403 15:03:37.773242 11552 net.cpp:425] inception_4b/output <- inception_4b/pool_proj
I0403 15:03:37.773260 11552 net.cpp:399] inception_4b/output -> inception_4b/output
I0403 15:03:37.773308 11552 net.cpp:141] Setting up inception_4b/output
I0403 15:03:37.773336 11552 net.cpp:148] Top shape: 24 512 14 14 (2408448)
I0403 15:03:37.773351 11552 net.cpp:156] Memory required for data: 989857056
I0403 15:03:37.773380 11552 layer_factory.hpp:77] Creating layer inception_4b/output_inception_4b/output_0_split
I0403 15:03:37.773398 11552 net.cpp:91] Creating Layer inception_4b/output_inception_4b/output_0_split
I0403 15:03:37.773413 11552 net.cpp:425] inception_4b/output_inception_4b/output_0_split <- inception_4b/output
I0403 15:03:37.773433 11552 net.cpp:399] inception_4b/output_inception_4b/output_0_split -> inception_4b/output_inception_4b/output_0_split_0
I0403 15:03:37.773453 11552 net.cpp:399] inception_4b/output_inception_4b/output_0_split -> inception_4b/output_inception_4b/output_0_split_1
I0403 15:03:37.773473 11552 net.cpp:399] inception_4b/output_inception_4b/output_0_split -> inception_4b/output_inception_4b/output_0_split_2
I0403 15:03:37.773493 11552 net.cpp:399] inception_4b/output_inception_4b/output_0_split -> inception_4b/output_inception_4b/output_0_split_3
I0403 15:03:37.773576 11552 net.cpp:141] Setting up inception_4b/output_inception_4b/output_0_split
I0403 15:03:37.773598 11552 net.cpp:148] Top shape: 24 512 14 14 (2408448)
I0403 15:03:37.773615 11552 net.cpp:148] Top shape: 24 512 14 14 (2408448)
I0403 15:03:37.773630 11552 net.cpp:148] Top shape: 24 512 14 14 (2408448)
I0403 15:03:37.773645 11552 net.cpp:148] Top shape: 24 512 14 14 (2408448)
I0403 15:03:37.773658 11552 net.cpp:156] Memory required for data: 1028392224
I0403 15:03:37.773672 11552 layer_factory.hpp:77] Creating layer inception_4c/1x1
I0403 15:03:37.773694 11552 net.cpp:91] Creating Layer inception_4c/1x1
I0403 15:03:37.773711 11552 net.cpp:425] inception_4c/1x1 <- inception_4b/output_inception_4b/output_0_split_0
I0403 15:03:37.773732 11552 net.cpp:399] inception_4c/1x1 -> inception_4c/1x1
I0403 15:03:37.775187 11552 net.cpp:141] Setting up inception_4c/1x1
I0403 15:03:37.775219 11552 net.cpp:148] Top shape: 24 128 14 14 (602112)
I0403 15:03:37.775238 11552 net.cpp:156] Memory required for data: 1030800672
I0403 15:03:37.775256 11552 layer_factory.hpp:77] Creating layer inception_4c/relu_1x1
I0403 15:03:37.775275 11552 net.cpp:91] Creating Layer inception_4c/relu_1x1
I0403 15:03:37.775292 11552 net.cpp:425] inception_4c/relu_1x1 <- inception_4c/1x1
I0403 15:03:37.775310 11552 net.cpp:386] inception_4c/relu_1x1 -> inception_4c/1x1 (in-place)
I0403 15:03:37.775498 11552 net.cpp:141] Setting up inception_4c/relu_1x1
I0403 15:03:37.775534 11552 net.cpp:148] Top shape: 24 128 14 14 (602112)
I0403 15:03:37.775552 11552 net.cpp:156] Memory required for data: 1033209120
I0403 15:03:37.775566 11552 layer_factory.hpp:77] Creating layer inception_4c/3x3_reduce
I0403 15:03:37.775589 11552 net.cpp:91] Creating Layer inception_4c/3x3_reduce
I0403 15:03:37.775606 11552 net.cpp:425] inception_4c/3x3_reduce <- inception_4b/output_inception_4b/output_0_split_1
I0403 15:03:37.775625 11552 net.cpp:399] inception_4c/3x3_reduce -> inception_4c/3x3_reduce
I0403 15:03:37.777659 11552 net.cpp:141] Setting up inception_4c/3x3_reduce
I0403 15:03:37.777688 11552 net.cpp:148] Top shape: 24 128 14 14 (602112)
I0403 15:03:37.777704 11552 net.cpp:156] Memory required for data: 1035617568
I0403 15:03:37.777724 11552 layer_factory.hpp:77] Creating layer inception_4c/relu_3x3_reduce
I0403 15:03:37.777741 11552 net.cpp:91] Creating Layer inception_4c/relu_3x3_reduce
I0403 15:03:37.777757 11552 net.cpp:425] inception_4c/relu_3x3_reduce <- inception_4c/3x3_reduce
I0403 15:03:37.777777 11552 net.cpp:386] inception_4c/relu_3x3_reduce -> inception_4c/3x3_reduce (in-place)
I0403 15:03:37.778069 11552 net.cpp:141] Setting up inception_4c/relu_3x3_reduce
I0403 15:03:37.778096 11552 net.cpp:148] Top shape: 24 128 14 14 (602112)
I0403 15:03:37.778111 11552 net.cpp:156] Memory required for data: 1038026016
I0403 15:03:37.778126 11552 layer_factory.hpp:77] Creating layer inception_4c/3x3
I0403 15:03:37.778151 11552 net.cpp:91] Creating Layer inception_4c/3x3
I0403 15:03:37.778168 11552 net.cpp:425] inception_4c/3x3 <- inception_4c/3x3_reduce
I0403 15:03:37.778190 11552 net.cpp:399] inception_4c/3x3 -> inception_4c/3x3
I0403 15:03:37.781981 11552 net.cpp:141] Setting up inception_4c/3x3
I0403 15:03:37.782027 11552 net.cpp:148] Top shape: 24 256 14 14 (1204224)
I0403 15:03:37.782043 11552 net.cpp:156] Memory required for data: 1042842912
I0403 15:03:37.782078 11552 layer_factory.hpp:77] Creating layer inception_4c/relu_3x3
I0403 15:03:37.782099 11552 net.cpp:91] Creating Layer inception_4c/relu_3x3
I0403 15:03:37.782115 11552 net.cpp:425] inception_4c/relu_3x3 <- inception_4c/3x3
I0403 15:03:37.782135 11552 net.cpp:386] inception_4c/relu_3x3 -> inception_4c/3x3 (in-place)
I0403 15:03:37.782340 11552 net.cpp:141] Setting up inception_4c/relu_3x3
I0403 15:03:37.782366 11552 net.cpp:148] Top shape: 24 256 14 14 (1204224)
I0403 15:03:37.782380 11552 net.cpp:156] Memory required for data: 1047659808
I0403 15:03:37.782418 11552 layer_factory.hpp:77] Creating layer inception_4c/5x5_reduce
I0403 15:03:37.782470 11552 net.cpp:91] Creating Layer inception_4c/5x5_reduce
I0403 15:03:37.782513 11552 net.cpp:425] inception_4c/5x5_reduce <- inception_4b/output_inception_4b/output_0_split_2
I0403 15:03:37.782537 11552 net.cpp:399] inception_4c/5x5_reduce -> inception_4c/5x5_reduce
I0403 15:03:37.783674 11552 net.cpp:141] Setting up inception_4c/5x5_reduce
I0403 15:03:37.783702 11552 net.cpp:148] Top shape: 24 24 14 14 (112896)
I0403 15:03:37.783717 11552 net.cpp:156] Memory required for data: 1048111392
I0403 15:03:37.783735 11552 layer_factory.hpp:77] Creating layer inception_4c/relu_5x5_reduce
I0403 15:03:37.783756 11552 net.cpp:91] Creating Layer inception_4c/relu_5x5_reduce
I0403 15:03:37.783773 11552 net.cpp:425] inception_4c/relu_5x5_reduce <- inception_4c/5x5_reduce
I0403 15:03:37.783792 11552 net.cpp:386] inception_4c/relu_5x5_reduce -> inception_4c/5x5_reduce (in-place)
I0403 15:03:37.783982 11552 net.cpp:141] Setting up inception_4c/relu_5x5_reduce
I0403 15:03:37.784006 11552 net.cpp:148] Top shape: 24 24 14 14 (112896)
I0403 15:03:37.784021 11552 net.cpp:156] Memory required for data: 1048562976
I0403 15:03:37.784036 11552 layer_factory.hpp:77] Creating layer inception_4c/5x5
I0403 15:03:37.784060 11552 net.cpp:91] Creating Layer inception_4c/5x5
I0403 15:03:37.784078 11552 net.cpp:425] inception_4c/5x5 <- inception_4c/5x5_reduce
I0403 15:03:37.784098 11552 net.cpp:399] inception_4c/5x5 -> inception_4c/5x5
I0403 15:03:37.785429 11552 net.cpp:141] Setting up inception_4c/5x5
I0403 15:03:37.785456 11552 net.cpp:148] Top shape: 24 64 14 14 (301056)
I0403 15:03:37.785473 11552 net.cpp:156] Memory required for data: 1049767200
I0403 15:03:37.785492 11552 layer_factory.hpp:77] Creating layer inception_4c/relu_5x5
I0403 15:03:37.785516 11552 net.cpp:91] Creating Layer inception_4c/relu_5x5
I0403 15:03:37.785532 11552 net.cpp:425] inception_4c/relu_5x5 <- inception_4c/5x5
I0403 15:03:37.785549 11552 net.cpp:386] inception_4c/relu_5x5 -> inception_4c/5x5 (in-place)
I0403 15:03:37.785846 11552 net.cpp:141] Setting up inception_4c/relu_5x5
I0403 15:03:37.785873 11552 net.cpp:148] Top shape: 24 64 14 14 (301056)
I0403 15:03:37.785889 11552 net.cpp:156] Memory required for data: 1050971424
I0403 15:03:37.785904 11552 layer_factory.hpp:77] Creating layer inception_4c/pool
I0403 15:03:37.785924 11552 net.cpp:91] Creating Layer inception_4c/pool
I0403 15:03:37.785943 11552 net.cpp:425] inception_4c/pool <- inception_4b/output_inception_4b/output_0_split_3
I0403 15:03:37.785961 11552 net.cpp:399] inception_4c/pool -> inception_4c/pool
I0403 15:03:37.786029 11552 net.cpp:141] Setting up inception_4c/pool
I0403 15:03:37.786082 11552 net.cpp:148] Top shape: 24 512 14 14 (2408448)
I0403 15:03:37.786111 11552 net.cpp:156] Memory required for data: 1060605216
I0403 15:03:37.786134 11552 layer_factory.hpp:77] Creating layer inception_4c/pool_proj
I0403 15:03:37.786157 11552 net.cpp:91] Creating Layer inception_4c/pool_proj
I0403 15:03:37.786175 11552 net.cpp:425] inception_4c/pool_proj <- inception_4c/pool
I0403 15:03:37.786196 11552 net.cpp:399] inception_4c/pool_proj -> inception_4c/pool_proj
I0403 15:03:37.787464 11552 net.cpp:141] Setting up inception_4c/pool_proj
I0403 15:03:37.787494 11552 net.cpp:148] Top shape: 24 64 14 14 (301056)
I0403 15:03:37.787525 11552 net.cpp:156] Memory required for data: 1061809440
I0403 15:03:37.787546 11552 layer_factory.hpp:77] Creating layer inception_4c/relu_pool_proj
I0403 15:03:37.787565 11552 net.cpp:91] Creating Layer inception_4c/relu_pool_proj
I0403 15:03:37.787583 11552 net.cpp:425] inception_4c/relu_pool_proj <- inception_4c/pool_proj
I0403 15:03:37.787606 11552 net.cpp:386] inception_4c/relu_pool_proj -> inception_4c/pool_proj (in-place)
I0403 15:03:37.787797 11552 net.cpp:141] Setting up inception_4c/relu_pool_proj
I0403 15:03:37.787844 11552 net.cpp:148] Top shape: 24 64 14 14 (301056)
I0403 15:03:37.787886 11552 net.cpp:156] Memory required for data: 1063013664
I0403 15:03:37.787945 11552 layer_factory.hpp:77] Creating layer inception_4c/output
I0403 15:03:37.787991 11552 net.cpp:91] Creating Layer inception_4c/output
I0403 15:03:37.788024 11552 net.cpp:425] inception_4c/output <- inception_4c/1x1
I0403 15:03:37.788041 11552 net.cpp:425] inception_4c/output <- inception_4c/3x3
I0403 15:03:37.788058 11552 net.cpp:425] inception_4c/output <- inception_4c/5x5
I0403 15:03:37.788074 11552 net.cpp:425] inception_4c/output <- inception_4c/pool_proj
I0403 15:03:37.788091 11552 net.cpp:399] inception_4c/output -> inception_4c/output
I0403 15:03:37.788139 11552 net.cpp:141] Setting up inception_4c/output
I0403 15:03:37.788163 11552 net.cpp:148] Top shape: 24 512 14 14 (2408448)
I0403 15:03:37.788178 11552 net.cpp:156] Memory required for data: 1072647456
I0403 15:03:37.788192 11552 layer_factory.hpp:77] Creating layer inception_4c/output_inception_4c/output_0_split
I0403 15:03:37.788210 11552 net.cpp:91] Creating Layer inception_4c/output_inception_4c/output_0_split
I0403 15:03:37.788238 11552 net.cpp:425] inception_4c/output_inception_4c/output_0_split <- inception_4c/output
I0403 15:03:37.788446 11552 net.cpp:399] inception_4c/output_inception_4c/output_0_split -> inception_4c/output_inception_4c/output_0_split_0
I0403 15:03:37.788503 11552 net.cpp:399] inception_4c/output_inception_4c/output_0_split -> inception_4c/output_inception_4c/output_0_split_1
I0403 15:03:37.788528 11552 net.cpp:399] inception_4c/output_inception_4c/output_0_split -> inception_4c/output_inception_4c/output_0_split_2
I0403 15:03:37.788549 11552 net.cpp:399] inception_4c/output_inception_4c/output_0_split -> inception_4c/output_inception_4c/output_0_split_3
I0403 15:03:37.788648 11552 net.cpp:141] Setting up inception_4c/output_inception_4c/output_0_split
I0403 15:03:37.788673 11552 net.cpp:148] Top shape: 24 512 14 14 (2408448)
I0403 15:03:37.788689 11552 net.cpp:148] Top shape: 24 512 14 14 (2408448)
I0403 15:03:37.788705 11552 net.cpp:148] Top shape: 24 512 14 14 (2408448)
I0403 15:03:37.788720 11552 net.cpp:148] Top shape: 24 512 14 14 (2408448)
I0403 15:03:37.788734 11552 net.cpp:156] Memory required for data: 1111182624
I0403 15:03:37.788748 11552 layer_factory.hpp:77] Creating layer inception_4d/1x1
I0403 15:03:37.788774 11552 net.cpp:91] Creating Layer inception_4d/1x1
I0403 15:03:37.788791 11552 net.cpp:425] inception_4d/1x1 <- inception_4c/output_inception_4c/output_0_split_0
I0403 15:03:37.788812 11552 net.cpp:399] inception_4d/1x1 -> inception_4d/1x1
I0403 15:03:37.790202 11552 net.cpp:141] Setting up inception_4d/1x1
I0403 15:03:37.790235 11552 net.cpp:148] Top shape: 24 112 14 14 (526848)
I0403 15:03:37.790251 11552 net.cpp:156] Memory required for data: 1113290016
I0403 15:03:37.790269 11552 layer_factory.hpp:77] Creating layer inception_4d/relu_1x1
I0403 15:03:37.790287 11552 net.cpp:91] Creating Layer inception_4d/relu_1x1
I0403 15:03:37.790302 11552 net.cpp:425] inception_4d/relu_1x1 <- inception_4d/1x1
I0403 15:03:37.790329 11552 net.cpp:386] inception_4d/relu_1x1 -> inception_4d/1x1 (in-place)
I0403 15:03:37.790518 11552 net.cpp:141] Setting up inception_4d/relu_1x1
I0403 15:03:37.790541 11552 net.cpp:148] Top shape: 24 112 14 14 (526848)
I0403 15:03:37.790555 11552 net.cpp:156] Memory required for data: 1115397408
I0403 15:03:37.790570 11552 layer_factory.hpp:77] Creating layer inception_4d/3x3_reduce
I0403 15:03:37.790606 11552 net.cpp:91] Creating Layer inception_4d/3x3_reduce
I0403 15:03:37.790626 11552 net.cpp:425] inception_4d/3x3_reduce <- inception_4c/output_inception_4c/output_0_split_1
I0403 15:03:37.790647 11552 net.cpp:399] inception_4d/3x3_reduce -> inception_4d/3x3_reduce
I0403 15:03:37.792152 11552 net.cpp:141] Setting up inception_4d/3x3_reduce
I0403 15:03:37.792182 11552 net.cpp:148] Top shape: 24 144 14 14 (677376)
I0403 15:03:37.792197 11552 net.cpp:156] Memory required for data: 1118106912
I0403 15:03:37.792215 11552 layer_factory.hpp:77] Creating layer inception_4d/relu_3x3_reduce
I0403 15:03:37.792235 11552 net.cpp:91] Creating Layer inception_4d/relu_3x3_reduce
I0403 15:03:37.792253 11552 net.cpp:425] inception_4d/relu_3x3_reduce <- inception_4d/3x3_reduce
I0403 15:03:37.792269 11552 net.cpp:386] inception_4d/relu_3x3_reduce -> inception_4d/3x3_reduce (in-place)
I0403 15:03:37.792598 11552 net.cpp:141] Setting up inception_4d/relu_3x3_reduce
I0403 15:03:37.792624 11552 net.cpp:148] Top shape: 24 144 14 14 (677376)
I0403 15:03:37.792639 11552 net.cpp:156] Memory required for data: 1120816416
I0403 15:03:37.792659 11552 layer_factory.hpp:77] Creating layer inception_4d/3x3
I0403 15:03:37.792682 11552 net.cpp:91] Creating Layer inception_4d/3x3
I0403 15:03:37.792701 11552 net.cpp:425] inception_4d/3x3 <- inception_4d/3x3_reduce
I0403 15:03:37.792731 11552 net.cpp:399] inception_4d/3x3 -> inception_4d/3x3
I0403 15:03:37.797086 11552 net.cpp:141] Setting up inception_4d/3x3
I0403 15:03:37.797119 11552 net.cpp:148] Top shape: 24 288 14 14 (1354752)
I0403 15:03:37.797137 11552 net.cpp:156] Memory required for data: 1126235424
I0403 15:03:37.797157 11552 layer_factory.hpp:77] Creating layer inception_4d/relu_3x3
I0403 15:03:37.797174 11552 net.cpp:91] Creating Layer inception_4d/relu_3x3
I0403 15:03:37.797191 11552 net.cpp:425] inception_4d/relu_3x3 <- inception_4d/3x3
I0403 15:03:37.797210 11552 net.cpp:386] inception_4d/relu_3x3 -> inception_4d/3x3 (in-place)
I0403 15:03:37.797404 11552 net.cpp:141] Setting up inception_4d/relu_3x3
I0403 15:03:37.797442 11552 net.cpp:148] Top shape: 24 288 14 14 (1354752)
I0403 15:03:37.797457 11552 net.cpp:156] Memory required for data: 1131654432
I0403 15:03:37.797472 11552 layer_factory.hpp:77] Creating layer inception_4d/5x5_reduce
I0403 15:03:37.797494 11552 net.cpp:91] Creating Layer inception_4d/5x5_reduce
I0403 15:03:37.797513 11552 net.cpp:425] inception_4d/5x5_reduce <- inception_4c/output_inception_4c/output_0_split_2
I0403 15:03:37.797534 11552 net.cpp:399] inception_4d/5x5_reduce -> inception_4d/5x5_reduce
I0403 15:03:37.798732 11552 net.cpp:141] Setting up inception_4d/5x5_reduce
I0403 15:03:37.798760 11552 net.cpp:148] Top shape: 24 32 14 14 (150528)
I0403 15:03:37.798776 11552 net.cpp:156] Memory required for data: 1132256544
I0403 15:03:37.798794 11552 layer_factory.hpp:77] Creating layer inception_4d/relu_5x5_reduce
I0403 15:03:37.798838 11552 net.cpp:91] Creating Layer inception_4d/relu_5x5_reduce
I0403 15:03:37.798877 11552 net.cpp:425] inception_4d/relu_5x5_reduce <- inception_4d/5x5_reduce
I0403 15:03:37.798921 11552 net.cpp:386] inception_4d/relu_5x5_reduce -> inception_4d/5x5_reduce (in-place)
I0403 15:03:37.799134 11552 net.cpp:141] Setting up inception_4d/relu_5x5_reduce
I0403 15:03:37.799160 11552 net.cpp:148] Top shape: 24 32 14 14 (150528)
I0403 15:03:37.799175 11552 net.cpp:156] Memory required for data: 1132858656
I0403 15:03:37.799190 11552 layer_factory.hpp:77] Creating layer inception_4d/5x5
I0403 15:03:37.799211 11552 net.cpp:91] Creating Layer inception_4d/5x5
I0403 15:03:37.799228 11552 net.cpp:425] inception_4d/5x5 <- inception_4d/5x5_reduce
I0403 15:03:37.799248 11552 net.cpp:399] inception_4d/5x5 -> inception_4d/5x5
I0403 15:03:37.800730 11552 net.cpp:141] Setting up inception_4d/5x5
I0403 15:03:37.800760 11552 net.cpp:148] Top shape: 24 64 14 14 (301056)
I0403 15:03:37.800776 11552 net.cpp:156] Memory required for data: 1134062880
I0403 15:03:37.800796 11552 layer_factory.hpp:77] Creating layer inception_4d/relu_5x5
I0403 15:03:37.800832 11552 net.cpp:91] Creating Layer inception_4d/relu_5x5
I0403 15:03:37.800860 11552 net.cpp:425] inception_4d/relu_5x5 <- inception_4d/5x5
I0403 15:03:37.800900 11552 net.cpp:386] inception_4d/relu_5x5 -> inception_4d/5x5 (in-place)
I0403 15:03:37.801228 11552 net.cpp:141] Setting up inception_4d/relu_5x5
I0403 15:03:37.801254 11552 net.cpp:148] Top shape: 24 64 14 14 (301056)
I0403 15:03:37.801270 11552 net.cpp:156] Memory required for data: 1135267104
I0403 15:03:37.801285 11552 layer_factory.hpp:77] Creating layer inception_4d/pool
I0403 15:03:37.801304 11552 net.cpp:91] Creating Layer inception_4d/pool
I0403 15:03:37.801328 11552 net.cpp:425] inception_4d/pool <- inception_4c/output_inception_4c/output_0_split_3
I0403 15:03:37.801348 11552 net.cpp:399] inception_4d/pool -> inception_4d/pool
I0403 15:03:37.801414 11552 net.cpp:141] Setting up inception_4d/pool
I0403 15:03:37.801439 11552 net.cpp:148] Top shape: 24 512 14 14 (2408448)
I0403 15:03:37.801452 11552 net.cpp:156] Memory required for data: 1144900896
I0403 15:03:37.801467 11552 layer_factory.hpp:77] Creating layer inception_4d/pool_proj
I0403 15:03:37.801489 11552 net.cpp:91] Creating Layer inception_4d/pool_proj
I0403 15:03:37.801507 11552 net.cpp:425] inception_4d/pool_proj <- inception_4d/pool
I0403 15:03:37.801528 11552 net.cpp:399] inception_4d/pool_proj -> inception_4d/pool_proj
I0403 15:03:37.803325 11552 net.cpp:141] Setting up inception_4d/pool_proj
I0403 15:03:37.803357 11552 net.cpp:148] Top shape: 24 64 14 14 (301056)
I0403 15:03:37.803374 11552 net.cpp:156] Memory required for data: 1146105120
I0403 15:03:37.803391 11552 layer_factory.hpp:77] Creating layer inception_4d/relu_pool_proj
I0403 15:03:37.803409 11552 net.cpp:91] Creating Layer inception_4d/relu_pool_proj
I0403 15:03:37.803426 11552 net.cpp:425] inception_4d/relu_pool_proj <- inception_4d/pool_proj
I0403 15:03:37.803445 11552 net.cpp:386] inception_4d/relu_pool_proj -> inception_4d/pool_proj (in-place)
I0403 15:03:37.803632 11552 net.cpp:141] Setting up inception_4d/relu_pool_proj
I0403 15:03:37.803655 11552 net.cpp:148] Top shape: 24 64 14 14 (301056)
I0403 15:03:37.803670 11552 net.cpp:156] Memory required for data: 1147309344
I0403 15:03:37.803685 11552 layer_factory.hpp:77] Creating layer inception_4d/output
I0403 15:03:37.803702 11552 net.cpp:91] Creating Layer inception_4d/output
I0403 15:03:37.803717 11552 net.cpp:425] inception_4d/output <- inception_4d/1x1
I0403 15:03:37.803735 11552 net.cpp:425] inception_4d/output <- inception_4d/3x3
I0403 15:03:37.803750 11552 net.cpp:425] inception_4d/output <- inception_4d/5x5
I0403 15:03:37.803766 11552 net.cpp:425] inception_4d/output <- inception_4d/pool_proj
I0403 15:03:37.803784 11552 net.cpp:399] inception_4d/output -> inception_4d/output
I0403 15:03:37.803833 11552 net.cpp:141] Setting up inception_4d/output
I0403 15:03:37.803858 11552 net.cpp:148] Top shape: 24 528 14 14 (2483712)
I0403 15:03:37.803871 11552 net.cpp:156] Memory required for data: 1157244192
I0403 15:03:37.803885 11552 layer_factory.hpp:77] Creating layer inception_4d/output_inception_4d/output_0_split
I0403 15:03:37.803903 11552 net.cpp:91] Creating Layer inception_4d/output_inception_4d/output_0_split
I0403 15:03:37.803920 11552 net.cpp:425] inception_4d/output_inception_4d/output_0_split <- inception_4d/output
I0403 15:03:37.803941 11552 net.cpp:399] inception_4d/output_inception_4d/output_0_split -> inception_4d/output_inception_4d/output_0_split_0
I0403 15:03:37.803961 11552 net.cpp:399] inception_4d/output_inception_4d/output_0_split -> inception_4d/output_inception_4d/output_0_split_1
I0403 15:03:37.803982 11552 net.cpp:399] inception_4d/output_inception_4d/output_0_split -> inception_4d/output_inception_4d/output_0_split_2
I0403 15:03:37.804003 11552 net.cpp:399] inception_4d/output_inception_4d/output_0_split -> inception_4d/output_inception_4d/output_0_split_3
I0403 15:03:37.804023 11552 net.cpp:399] inception_4d/output_inception_4d/output_0_split -> inception_4d/output_inception_4d/output_0_split_4
I0403 15:03:37.804123 11552 net.cpp:141] Setting up inception_4d/output_inception_4d/output_0_split
I0403 15:03:37.804214 11552 net.cpp:148] Top shape: 24 528 14 14 (2483712)
I0403 15:03:37.804256 11552 net.cpp:148] Top shape: 24 528 14 14 (2483712)
I0403 15:03:37.804297 11552 net.cpp:148] Top shape: 24 528 14 14 (2483712)
I0403 15:03:37.804323 11552 net.cpp:148] Top shape: 24 528 14 14 (2483712)
I0403 15:03:37.804345 11552 net.cpp:148] Top shape: 24 528 14 14 (2483712)
I0403 15:03:37.804360 11552 net.cpp:156] Memory required for data: 1206918432
I0403 15:03:37.804375 11552 layer_factory.hpp:77] Creating layer loss2/ave_pool
I0403 15:03:37.804394 11552 net.cpp:91] Creating Layer loss2/ave_pool
I0403 15:03:37.804414 11552 net.cpp:425] loss2/ave_pool <- inception_4d/output_inception_4d/output_0_split_0
I0403 15:03:37.804431 11552 net.cpp:399] loss2/ave_pool -> loss2/ave_pool
I0403 15:03:37.804751 11552 net.cpp:141] Setting up loss2/ave_pool
I0403 15:03:37.804782 11552 net.cpp:148] Top shape: 24 528 4 4 (202752)
I0403 15:03:37.804807 11552 net.cpp:156] Memory required for data: 1207729440
I0403 15:03:37.804829 11552 layer_factory.hpp:77] Creating layer loss2/conv
I0403 15:03:37.804852 11552 net.cpp:91] Creating Layer loss2/conv
I0403 15:03:37.804872 11552 net.cpp:425] loss2/conv <- loss2/ave_pool
I0403 15:03:37.804889 11552 net.cpp:399] loss2/conv -> loss2/conv
I0403 15:03:37.806875 11552 net.cpp:141] Setting up loss2/conv
I0403 15:03:37.806905 11552 net.cpp:148] Top shape: 24 128 4 4 (49152)
I0403 15:03:37.806921 11552 net.cpp:156] Memory required for data: 1207926048
I0403 15:03:37.806939 11552 layer_factory.hpp:77] Creating layer loss2/relu_conv
I0403 15:03:37.806959 11552 net.cpp:91] Creating Layer loss2/relu_conv
I0403 15:03:37.806977 11552 net.cpp:425] loss2/relu_conv <- loss2/conv
I0403 15:03:37.806995 11552 net.cpp:386] loss2/relu_conv -> loss2/conv (in-place)
I0403 15:03:37.807288 11552 net.cpp:141] Setting up loss2/relu_conv
I0403 15:03:37.807320 11552 net.cpp:148] Top shape: 24 128 4 4 (49152)
I0403 15:03:37.807338 11552 net.cpp:156] Memory required for data: 1208122656
I0403 15:03:37.807353 11552 layer_factory.hpp:77] Creating layer loss2/fc
I0403 15:03:37.807377 11552 net.cpp:91] Creating Layer loss2/fc
I0403 15:03:37.807395 11552 net.cpp:425] loss2/fc <- loss2/conv
I0403 15:03:37.807415 11552 net.cpp:399] loss2/fc -> loss2/fc
I0403 15:03:37.825913 11552 net.cpp:141] Setting up loss2/fc
I0403 15:03:37.825970 11552 net.cpp:148] Top shape: 24 1024 (24576)
I0403 15:03:37.825987 11552 net.cpp:156] Memory required for data: 1208220960
I0403 15:03:37.826009 11552 layer_factory.hpp:77] Creating layer loss2/relu_fc
I0403 15:03:37.826030 11552 net.cpp:91] Creating Layer loss2/relu_fc
I0403 15:03:37.826047 11552 net.cpp:425] loss2/relu_fc <- loss2/fc
I0403 15:03:37.826068 11552 net.cpp:386] loss2/relu_fc -> loss2/fc (in-place)
I0403 15:03:37.826445 11552 net.cpp:141] Setting up loss2/relu_fc
I0403 15:03:37.826473 11552 net.cpp:148] Top shape: 24 1024 (24576)
I0403 15:03:37.826489 11552 net.cpp:156] Memory required for data: 1208319264
I0403 15:03:37.826505 11552 layer_factory.hpp:77] Creating layer loss2/drop_fc
I0403 15:03:37.826524 11552 net.cpp:91] Creating Layer loss2/drop_fc
I0403 15:03:37.826541 11552 net.cpp:425] loss2/drop_fc <- loss2/fc
I0403 15:03:37.826561 11552 net.cpp:386] loss2/drop_fc -> loss2/fc (in-place)
I0403 15:03:37.826617 11552 net.cpp:141] Setting up loss2/drop_fc
I0403 15:03:37.826643 11552 net.cpp:148] Top shape: 24 1024 (24576)
I0403 15:03:37.826659 11552 net.cpp:156] Memory required for data: 1208417568
I0403 15:03:37.826675 11552 layer_factory.hpp:77] Creating layer loss2/classifier_plantvillage
I0403 15:03:37.826694 11552 net.cpp:91] Creating Layer loss2/classifier_plantvillage
I0403 15:03:37.826722 11552 net.cpp:425] loss2/classifier_plantvillage <- loss2/fc
I0403 15:03:37.826745 11552 net.cpp:399] loss2/classifier_plantvillage -> loss2/classifier_plantvillage
I0403 15:03:37.827170 11552 net.cpp:141] Setting up loss2/classifier_plantvillage
I0403 15:03:37.827195 11552 net.cpp:148] Top shape: 24 38 (912)
I0403 15:03:37.827239 11552 net.cpp:156] Memory required for data: 1208421216
I0403 15:03:37.827257 11552 layer_factory.hpp:77] Creating layer loss2/classifier_plantvillage_loss2/classifier_plantvillage_0_split
I0403 15:03:37.827278 11552 net.cpp:91] Creating Layer loss2/classifier_plantvillage_loss2/classifier_plantvillage_0_split
I0403 15:03:37.827296 11552 net.cpp:425] loss2/classifier_plantvillage_loss2/classifier_plantvillage_0_split <- loss2/classifier_plantvillage
I0403 15:03:37.827313 11552 net.cpp:399] loss2/classifier_plantvillage_loss2/classifier_plantvillage_0_split -> loss2/classifier_plantvillage_loss2/classifier_plantvillage_0_split_0
I0403 15:03:37.827342 11552 net.cpp:399] loss2/classifier_plantvillage_loss2/classifier_plantvillage_0_split -> loss2/classifier_plantvillage_loss2/classifier_plantvillage_0_split_1
I0403 15:03:37.827366 11552 net.cpp:399] loss2/classifier_plantvillage_loss2/classifier_plantvillage_0_split -> loss2/classifier_plantvillage_loss2/classifier_plantvillage_0_split_2
I0403 15:03:37.827461 11552 net.cpp:141] Setting up loss2/classifier_plantvillage_loss2/classifier_plantvillage_0_split
I0403 15:03:37.827484 11552 net.cpp:148] Top shape: 24 38 (912)
I0403 15:03:37.827502 11552 net.cpp:148] Top shape: 24 38 (912)
I0403 15:03:37.827517 11552 net.cpp:148] Top shape: 24 38 (912)
I0403 15:03:37.827530 11552 net.cpp:156] Memory required for data: 1208432160
I0403 15:03:37.827545 11552 layer_factory.hpp:77] Creating layer inception_4e/1x1
I0403 15:03:37.827569 11552 net.cpp:91] Creating Layer inception_4e/1x1
I0403 15:03:37.827589 11552 net.cpp:425] inception_4e/1x1 <- inception_4d/output_inception_4d/output_0_split_1
I0403 15:03:37.827610 11552 net.cpp:399] inception_4e/1x1 -> inception_4e/1x1
I0403 15:03:37.829565 11552 net.cpp:141] Setting up inception_4e/1x1
I0403 15:03:37.829594 11552 net.cpp:148] Top shape: 24 256 14 14 (1204224)
I0403 15:03:37.829612 11552 net.cpp:156] Memory required for data: 1213249056
I0403 15:03:37.829630 11552 layer_factory.hpp:77] Creating layer inception_4e/relu_1x1
I0403 15:03:37.829654 11552 net.cpp:91] Creating Layer inception_4e/relu_1x1
I0403 15:03:37.829673 11552 net.cpp:425] inception_4e/relu_1x1 <- inception_4e/1x1
I0403 15:03:37.829691 11552 net.cpp:386] inception_4e/relu_1x1 -> inception_4e/1x1 (in-place)
I0403 15:03:37.830010 11552 net.cpp:141] Setting up inception_4e/relu_1x1
I0403 15:03:37.830037 11552 net.cpp:148] Top shape: 24 256 14 14 (1204224)
I0403 15:03:37.830054 11552 net.cpp:156] Memory required for data: 1218065952
I0403 15:03:37.830070 11552 layer_factory.hpp:77] Creating layer inception_4e/3x3_reduce
I0403 15:03:37.830093 11552 net.cpp:91] Creating Layer inception_4e/3x3_reduce
I0403 15:03:37.830111 11552 net.cpp:425] inception_4e/3x3_reduce <- inception_4d/output_inception_4d/output_0_split_2
I0403 15:03:37.830133 11552 net.cpp:399] inception_4e/3x3_reduce -> inception_4e/3x3_reduce
I0403 15:03:37.832379 11552 net.cpp:141] Setting up inception_4e/3x3_reduce
I0403 15:03:37.832411 11552 net.cpp:148] Top shape: 24 160 14 14 (752640)
I0403 15:03:37.832439 11552 net.cpp:156] Memory required for data: 1221076512
I0403 15:03:37.832458 11552 layer_factory.hpp:77] Creating layer inception_4e/relu_3x3_reduce
I0403 15:03:37.832482 11552 net.cpp:91] Creating Layer inception_4e/relu_3x3_reduce
I0403 15:03:37.832502 11552 net.cpp:425] inception_4e/relu_3x3_reduce <- inception_4e/3x3_reduce
I0403 15:03:37.832522 11552 net.cpp:386] inception_4e/relu_3x3_reduce -> inception_4e/3x3_reduce (in-place)
I0403 15:03:37.832732 11552 net.cpp:141] Setting up inception_4e/relu_3x3_reduce
I0403 15:03:37.832759 11552 net.cpp:148] Top shape: 24 160 14 14 (752640)
I0403 15:03:37.832775 11552 net.cpp:156] Memory required for data: 1224087072
I0403 15:03:37.832790 11552 layer_factory.hpp:77] Creating layer inception_4e/3x3
I0403 15:03:37.832810 11552 net.cpp:91] Creating Layer inception_4e/3x3
I0403 15:03:37.832829 11552 net.cpp:425] inception_4e/3x3 <- inception_4e/3x3_reduce
I0403 15:03:37.832851 11552 net.cpp:399] inception_4e/3x3 -> inception_4e/3x3
I0403 15:03:37.838215 11552 net.cpp:141] Setting up inception_4e/3x3
I0403 15:03:37.838263 11552 net.cpp:148] Top shape: 24 320 14 14 (1505280)
I0403 15:03:37.838281 11552 net.cpp:156] Memory required for data: 1230108192
I0403 15:03:37.838300 11552 layer_factory.hpp:77] Creating layer inception_4e/relu_3x3
I0403 15:03:37.838325 11552 net.cpp:91] Creating Layer inception_4e/relu_3x3
I0403 15:03:37.838346 11552 net.cpp:425] inception_4e/relu_3x3 <- inception_4e/3x3
I0403 15:03:37.838364 11552 net.cpp:386] inception_4e/relu_3x3 -> inception_4e/3x3 (in-place)
I0403 15:03:37.838695 11552 net.cpp:141] Setting up inception_4e/relu_3x3
I0403 15:03:37.838737 11552 net.cpp:148] Top shape: 24 320 14 14 (1505280)
I0403 15:03:37.838754 11552 net.cpp:156] Memory required for data: 1236129312
I0403 15:03:37.838770 11552 layer_factory.hpp:77] Creating layer inception_4e/5x5_reduce
I0403 15:03:37.838794 11552 net.cpp:91] Creating Layer inception_4e/5x5_reduce
I0403 15:03:37.838812 11552 net.cpp:425] inception_4e/5x5_reduce <- inception_4d/output_inception_4d/output_0_split_3
I0403 15:03:37.838835 11552 net.cpp:399] inception_4e/5x5_reduce -> inception_4e/5x5_reduce
I0403 15:03:37.839951 11552 net.cpp:141] Setting up inception_4e/5x5_reduce
I0403 15:03:37.839979 11552 net.cpp:148] Top shape: 24 32 14 14 (150528)
I0403 15:03:37.839995 11552 net.cpp:156] Memory required for data: 1236731424
I0403 15:03:37.840015 11552 layer_factory.hpp:77] Creating layer inception_4e/relu_5x5_reduce
I0403 15:03:37.840039 11552 net.cpp:91] Creating Layer inception_4e/relu_5x5_reduce
I0403 15:03:37.840059 11552 net.cpp:425] inception_4e/relu_5x5_reduce <- inception_4e/5x5_reduce
I0403 15:03:37.840078 11552 net.cpp:386] inception_4e/relu_5x5_reduce -> inception_4e/5x5_reduce (in-place)
I0403 15:03:37.840394 11552 net.cpp:141] Setting up inception_4e/relu_5x5_reduce
I0403 15:03:37.840421 11552 net.cpp:148] Top shape: 24 32 14 14 (150528)
I0403 15:03:37.840436 11552 net.cpp:156] Memory required for data: 1237333536
I0403 15:03:37.840451 11552 layer_factory.hpp:77] Creating layer inception_4e/5x5
I0403 15:03:37.840492 11552 net.cpp:91] Creating Layer inception_4e/5x5
I0403 15:03:37.840512 11552 net.cpp:425] inception_4e/5x5 <- inception_4e/5x5_reduce
I0403 15:03:37.840534 11552 net.cpp:399] inception_4e/5x5 -> inception_4e/5x5
I0403 15:03:37.842483 11552 net.cpp:141] Setting up inception_4e/5x5
I0403 15:03:37.842514 11552 net.cpp:148] Top shape: 24 128 14 14 (602112)
I0403 15:03:37.842531 11552 net.cpp:156] Memory required for data: 1239741984
I0403 15:03:37.842551 11552 layer_factory.hpp:77] Creating layer inception_4e/relu_5x5
I0403 15:03:37.842571 11552 net.cpp:91] Creating Layer inception_4e/relu_5x5
I0403 15:03:37.842612 11552 net.cpp:425] inception_4e/relu_5x5 <- inception_4e/5x5
I0403 15:03:37.842630 11552 net.cpp:386] inception_4e/relu_5x5 -> inception_4e/5x5 (in-place)
I0403 15:03:37.842839 11552 net.cpp:141] Setting up inception_4e/relu_5x5
I0403 15:03:37.842880 11552 net.cpp:148] Top shape: 24 128 14 14 (602112)
I0403 15:03:37.842895 11552 net.cpp:156] Memory required for data: 1242150432
I0403 15:03:37.842911 11552 layer_factory.hpp:77] Creating layer inception_4e/pool
I0403 15:03:37.842932 11552 net.cpp:91] Creating Layer inception_4e/pool
I0403 15:03:37.842950 11552 net.cpp:425] inception_4e/pool <- inception_4d/output_inception_4d/output_0_split_4
I0403 15:03:37.842968 11552 net.cpp:399] inception_4e/pool -> inception_4e/pool
I0403 15:03:37.843044 11552 net.cpp:141] Setting up inception_4e/pool
I0403 15:03:37.843067 11552 net.cpp:148] Top shape: 24 528 14 14 (2483712)
I0403 15:03:37.843082 11552 net.cpp:156] Memory required for data: 1252085280
I0403 15:03:37.843097 11552 layer_factory.hpp:77] Creating layer inception_4e/pool_proj
I0403 15:03:37.843121 11552 net.cpp:91] Creating Layer inception_4e/pool_proj
I0403 15:03:37.843139 11552 net.cpp:425] inception_4e/pool_proj <- inception_4e/pool
I0403 15:03:37.843159 11552 net.cpp:399] inception_4e/pool_proj -> inception_4e/pool_proj
I0403 15:03:37.844718 11552 net.cpp:141] Setting up inception_4e/pool_proj
I0403 15:03:37.844763 11552 net.cpp:148] Top shape: 24 128 14 14 (602112)
I0403 15:03:37.844781 11552 net.cpp:156] Memory required for data: 1254493728
I0403 15:03:37.844799 11552 layer_factory.hpp:77] Creating layer inception_4e/relu_pool_proj
I0403 15:03:37.844820 11552 net.cpp:91] Creating Layer inception_4e/relu_pool_proj
I0403 15:03:37.844836 11552 net.cpp:425] inception_4e/relu_pool_proj <- inception_4e/pool_proj
I0403 15:03:37.844858 11552 net.cpp:386] inception_4e/relu_pool_proj -> inception_4e/pool_proj (in-place)
I0403 15:03:37.845163 11552 net.cpp:141] Setting up inception_4e/relu_pool_proj
I0403 15:03:37.845193 11552 net.cpp:148] Top shape: 24 128 14 14 (602112)
I0403 15:03:37.845209 11552 net.cpp:156] Memory required for data: 1256902176
I0403 15:03:37.845237 11552 layer_factory.hpp:77] Creating layer inception_4e/output
I0403 15:03:37.845254 11552 net.cpp:91] Creating Layer inception_4e/output
I0403 15:03:37.845269 11552 net.cpp:425] inception_4e/output <- inception_4e/1x1
I0403 15:03:37.845286 11552 net.cpp:425] inception_4e/output <- inception_4e/3x3
I0403 15:03:37.845302 11552 net.cpp:425] inception_4e/output <- inception_4e/5x5
I0403 15:03:37.845322 11552 net.cpp:425] inception_4e/output <- inception_4e/pool_proj
I0403 15:03:37.845345 11552 net.cpp:399] inception_4e/output -> inception_4e/output
I0403 15:03:37.845393 11552 net.cpp:141] Setting up inception_4e/output
I0403 15:03:37.845429 11552 net.cpp:148] Top shape: 24 832 14 14 (3913728)
I0403 15:03:37.845444 11552 net.cpp:156] Memory required for data: 1272557088
I0403 15:03:37.845459 11552 layer_factory.hpp:77] Creating layer pool4/3x3_s2
I0403 15:03:37.845479 11552 net.cpp:91] Creating Layer pool4/3x3_s2
I0403 15:03:37.845496 11552 net.cpp:425] pool4/3x3_s2 <- inception_4e/output
I0403 15:03:37.845515 11552 net.cpp:399] pool4/3x3_s2 -> pool4/3x3_s2
I0403 15:03:37.845584 11552 net.cpp:141] Setting up pool4/3x3_s2
I0403 15:03:37.845609 11552 net.cpp:148] Top shape: 24 832 7 7 (978432)
I0403 15:03:37.845623 11552 net.cpp:156] Memory required for data: 1276470816
I0403 15:03:37.845638 11552 layer_factory.hpp:77] Creating layer pool4/3x3_s2_pool4/3x3_s2_0_split
I0403 15:03:37.845655 11552 net.cpp:91] Creating Layer pool4/3x3_s2_pool4/3x3_s2_0_split
I0403 15:03:37.845674 11552 net.cpp:425] pool4/3x3_s2_pool4/3x3_s2_0_split <- pool4/3x3_s2
I0403 15:03:37.845692 11552 net.cpp:399] pool4/3x3_s2_pool4/3x3_s2_0_split -> pool4/3x3_s2_pool4/3x3_s2_0_split_0
I0403 15:03:37.845724 11552 net.cpp:399] pool4/3x3_s2_pool4/3x3_s2_0_split -> pool4/3x3_s2_pool4/3x3_s2_0_split_1
I0403 15:03:37.845744 11552 net.cpp:399] pool4/3x3_s2_pool4/3x3_s2_0_split -> pool4/3x3_s2_pool4/3x3_s2_0_split_2
I0403 15:03:37.845764 11552 net.cpp:399] pool4/3x3_s2_pool4/3x3_s2_0_split -> pool4/3x3_s2_pool4/3x3_s2_0_split_3
I0403 15:03:37.845855 11552 net.cpp:141] Setting up pool4/3x3_s2_pool4/3x3_s2_0_split
I0403 15:03:37.845878 11552 net.cpp:148] Top shape: 24 832 7 7 (978432)
I0403 15:03:37.845895 11552 net.cpp:148] Top shape: 24 832 7 7 (978432)
I0403 15:03:37.845909 11552 net.cpp:148] Top shape: 24 832 7 7 (978432)
I0403 15:03:37.845924 11552 net.cpp:148] Top shape: 24 832 7 7 (978432)
I0403 15:03:37.845938 11552 net.cpp:156] Memory required for data: 1292125728
I0403 15:03:37.845952 11552 layer_factory.hpp:77] Creating layer inception_5a/1x1
I0403 15:03:37.845974 11552 net.cpp:91] Creating Layer inception_5a/1x1
I0403 15:03:37.845991 11552 net.cpp:425] inception_5a/1x1 <- pool4/3x3_s2_pool4/3x3_s2_0_split_0
I0403 15:03:37.846012 11552 net.cpp:399] inception_5a/1x1 -> inception_5a/1x1
I0403 15:03:37.848903 11552 net.cpp:141] Setting up inception_5a/1x1
I0403 15:03:37.848932 11552 net.cpp:148] Top shape: 24 256 7 7 (301056)
I0403 15:03:37.848949 11552 net.cpp:156] Memory required for data: 1293329952
I0403 15:03:37.848974 11552 layer_factory.hpp:77] Creating layer inception_5a/relu_1x1
I0403 15:03:37.848992 11552 net.cpp:91] Creating Layer inception_5a/relu_1x1
I0403 15:03:37.849009 11552 net.cpp:425] inception_5a/relu_1x1 <- inception_5a/1x1
I0403 15:03:37.849027 11552 net.cpp:386] inception_5a/relu_1x1 -> inception_5a/1x1 (in-place)
I0403 15:03:37.849370 11552 net.cpp:141] Setting up inception_5a/relu_1x1
I0403 15:03:37.849396 11552 net.cpp:148] Top shape: 24 256 7 7 (301056)
I0403 15:03:37.849411 11552 net.cpp:156] Memory required for data: 1294534176
I0403 15:03:37.849427 11552 layer_factory.hpp:77] Creating layer inception_5a/3x3_reduce
I0403 15:03:37.849450 11552 net.cpp:91] Creating Layer inception_5a/3x3_reduce
I0403 15:03:37.849469 11552 net.cpp:425] inception_5a/3x3_reduce <- pool4/3x3_s2_pool4/3x3_s2_0_split_1
I0403 15:03:37.849493 11552 net.cpp:399] inception_5a/3x3_reduce -> inception_5a/3x3_reduce
I0403 15:03:37.852004 11552 net.cpp:141] Setting up inception_5a/3x3_reduce
I0403 15:03:37.852035 11552 net.cpp:148] Top shape: 24 160 7 7 (188160)
I0403 15:03:37.852052 11552 net.cpp:156] Memory required for data: 1295286816
I0403 15:03:37.852072 11552 layer_factory.hpp:77] Creating layer inception_5a/relu_3x3_reduce
I0403 15:03:37.852089 11552 net.cpp:91] Creating Layer inception_5a/relu_3x3_reduce
I0403 15:03:37.852107 11552 net.cpp:425] inception_5a/relu_3x3_reduce <- inception_5a/3x3_reduce
I0403 15:03:37.852126 11552 net.cpp:386] inception_5a/relu_3x3_reduce -> inception_5a/3x3_reduce (in-place)
I0403 15:03:37.852334 11552 net.cpp:141] Setting up inception_5a/relu_3x3_reduce
I0403 15:03:37.852358 11552 net.cpp:148] Top shape: 24 160 7 7 (188160)
I0403 15:03:37.852373 11552 net.cpp:156] Memory required for data: 1296039456
I0403 15:03:37.852387 11552 layer_factory.hpp:77] Creating layer inception_5a/3x3
I0403 15:03:37.852411 11552 net.cpp:91] Creating Layer inception_5a/3x3
I0403 15:03:37.852442 11552 net.cpp:425] inception_5a/3x3 <- inception_5a/3x3_reduce
I0403 15:03:37.852464 11552 net.cpp:399] inception_5a/3x3 -> inception_5a/3x3
I0403 15:03:37.857735 11552 net.cpp:141] Setting up inception_5a/3x3
I0403 15:03:37.857767 11552 net.cpp:148] Top shape: 24 320 7 7 (376320)
I0403 15:03:37.857784 11552 net.cpp:156] Memory required for data: 1297544736
I0403 15:03:37.857803 11552 layer_factory.hpp:77] Creating layer inception_5a/relu_3x3
I0403 15:03:37.857825 11552 net.cpp:91] Creating Layer inception_5a/relu_3x3
I0403 15:03:37.857843 11552 net.cpp:425] inception_5a/relu_3x3 <- inception_5a/3x3
I0403 15:03:37.857861 11552 net.cpp:386] inception_5a/relu_3x3 -> inception_5a/3x3 (in-place)
I0403 15:03:37.858175 11552 net.cpp:141] Setting up inception_5a/relu_3x3
I0403 15:03:37.858202 11552 net.cpp:148] Top shape: 24 320 7 7 (376320)
I0403 15:03:37.858218 11552 net.cpp:156] Memory required for data: 1299050016
I0403 15:03:37.858233 11552 layer_factory.hpp:77] Creating layer inception_5a/5x5_reduce
I0403 15:03:37.858258 11552 net.cpp:91] Creating Layer inception_5a/5x5_reduce
I0403 15:03:37.858278 11552 net.cpp:425] inception_5a/5x5_reduce <- pool4/3x3_s2_pool4/3x3_s2_0_split_2
I0403 15:03:37.858300 11552 net.cpp:399] inception_5a/5x5_reduce -> inception_5a/5x5_reduce
I0403 15:03:37.859535 11552 net.cpp:141] Setting up inception_5a/5x5_reduce
I0403 15:03:37.859565 11552 net.cpp:148] Top shape: 24 32 7 7 (37632)
I0403 15:03:37.859581 11552 net.cpp:156] Memory required for data: 1299200544
I0403 15:03:37.859599 11552 layer_factory.hpp:77] Creating layer inception_5a/relu_5x5_reduce
I0403 15:03:37.859619 11552 net.cpp:91] Creating Layer inception_5a/relu_5x5_reduce
I0403 15:03:37.859637 11552 net.cpp:425] inception_5a/relu_5x5_reduce <- inception_5a/5x5_reduce
I0403 15:03:37.859653 11552 net.cpp:386] inception_5a/relu_5x5_reduce -> inception_5a/5x5_reduce (in-place)
I0403 15:03:37.860003 11552 net.cpp:141] Setting up inception_5a/relu_5x5_reduce
I0403 15:03:37.860029 11552 net.cpp:148] Top shape: 24 32 7 7 (37632)
I0403 15:03:37.860044 11552 net.cpp:156] Memory required for data: 1299351072
I0403 15:03:37.860059 11552 layer_factory.hpp:77] Creating layer inception_5a/5x5
I0403 15:03:37.860080 11552 net.cpp:91] Creating Layer inception_5a/5x5
I0403 15:03:37.860097 11552 net.cpp:425] inception_5a/5x5 <- inception_5a/5x5_reduce
I0403 15:03:37.860118 11552 net.cpp:399] inception_5a/5x5 -> inception_5a/5x5
I0403 15:03:37.861884 11552 net.cpp:141] Setting up inception_5a/5x5
I0403 15:03:37.861925 11552 net.cpp:148] Top shape: 24 128 7 7 (150528)
I0403 15:03:37.861943 11552 net.cpp:156] Memory required for data: 1299953184
I0403 15:03:37.861960 11552 layer_factory.hpp:77] Creating layer inception_5a/relu_5x5
I0403 15:03:37.861980 11552 net.cpp:91] Creating Layer inception_5a/relu_5x5
I0403 15:03:37.861999 11552 net.cpp:425] inception_5a/relu_5x5 <- inception_5a/5x5
I0403 15:03:37.862017 11552 net.cpp:386] inception_5a/relu_5x5 -> inception_5a/5x5 (in-place)
I0403 15:03:37.862207 11552 net.cpp:141] Setting up inception_5a/relu_5x5
I0403 15:03:37.862233 11552 net.cpp:148] Top shape: 24 128 7 7 (150528)
I0403 15:03:37.862248 11552 net.cpp:156] Memory required for data: 1300555296
I0403 15:03:37.862262 11552 layer_factory.hpp:77] Creating layer inception_5a/pool
I0403 15:03:37.862282 11552 net.cpp:91] Creating Layer inception_5a/pool
I0403 15:03:37.862300 11552 net.cpp:425] inception_5a/pool <- pool4/3x3_s2_pool4/3x3_s2_0_split_3
I0403 15:03:37.862330 11552 net.cpp:399] inception_5a/pool -> inception_5a/pool
I0403 15:03:37.862408 11552 net.cpp:141] Setting up inception_5a/pool
I0403 15:03:37.862445 11552 net.cpp:148] Top shape: 24 832 7 7 (978432)
I0403 15:03:37.862459 11552 net.cpp:156] Memory required for data: 1304469024
I0403 15:03:37.862474 11552 layer_factory.hpp:77] Creating layer inception_5a/pool_proj
I0403 15:03:37.862498 11552 net.cpp:91] Creating Layer inception_5a/pool_proj
I0403 15:03:37.862515 11552 net.cpp:425] inception_5a/pool_proj <- inception_5a/pool
I0403 15:03:37.862536 11552 net.cpp:399] inception_5a/pool_proj -> inception_5a/pool_proj
I0403 15:03:37.864835 11552 net.cpp:141] Setting up inception_5a/pool_proj
I0403 15:03:37.864864 11552 net.cpp:148] Top shape: 24 128 7 7 (150528)
I0403 15:03:37.864881 11552 net.cpp:156] Memory required for data: 1305071136
I0403 15:03:37.864899 11552 layer_factory.hpp:77] Creating layer inception_5a/relu_pool_proj
I0403 15:03:37.864918 11552 net.cpp:91] Creating Layer inception_5a/relu_pool_proj
I0403 15:03:37.864936 11552 net.cpp:425] inception_5a/relu_pool_proj <- inception_5a/pool_proj
I0403 15:03:37.864956 11552 net.cpp:386] inception_5a/relu_pool_proj -> inception_5a/pool_proj (in-place)
I0403 15:03:37.865252 11552 net.cpp:141] Setting up inception_5a/relu_pool_proj
I0403 15:03:37.865278 11552 net.cpp:148] Top shape: 24 128 7 7 (150528)
I0403 15:03:37.865293 11552 net.cpp:156] Memory required for data: 1305673248
I0403 15:03:37.865309 11552 layer_factory.hpp:77] Creating layer inception_5a/output
I0403 15:03:37.865334 11552 net.cpp:91] Creating Layer inception_5a/output
I0403 15:03:37.865350 11552 net.cpp:425] inception_5a/output <- inception_5a/1x1
I0403 15:03:37.865365 11552 net.cpp:425] inception_5a/output <- inception_5a/3x3
I0403 15:03:37.865381 11552 net.cpp:425] inception_5a/output <- inception_5a/5x5
I0403 15:03:37.865396 11552 net.cpp:425] inception_5a/output <- inception_5a/pool_proj
I0403 15:03:37.865416 11552 net.cpp:399] inception_5a/output -> inception_5a/output
I0403 15:03:37.865466 11552 net.cpp:141] Setting up inception_5a/output
I0403 15:03:37.865491 11552 net.cpp:148] Top shape: 24 832 7 7 (978432)
I0403 15:03:37.865506 11552 net.cpp:156] Memory required for data: 1309586976
I0403 15:03:37.865521 11552 layer_factory.hpp:77] Creating layer inception_5a/output_inception_5a/output_0_split
I0403 15:03:37.865538 11552 net.cpp:91] Creating Layer inception_5a/output_inception_5a/output_0_split
I0403 15:03:37.865553 11552 net.cpp:425] inception_5a/output_inception_5a/output_0_split <- inception_5a/output
I0403 15:03:37.865571 11552 net.cpp:399] inception_5a/output_inception_5a/output_0_split -> inception_5a/output_inception_5a/output_0_split_0
I0403 15:03:37.865591 11552 net.cpp:399] inception_5a/output_inception_5a/output_0_split -> inception_5a/output_inception_5a/output_0_split_1
I0403 15:03:37.865613 11552 net.cpp:399] inception_5a/output_inception_5a/output_0_split -> inception_5a/output_inception_5a/output_0_split_2
I0403 15:03:37.865634 11552 net.cpp:399] inception_5a/output_inception_5a/output_0_split -> inception_5a/output_inception_5a/output_0_split_3
I0403 15:03:37.865746 11552 net.cpp:141] Setting up inception_5a/output_inception_5a/output_0_split
I0403 15:03:37.865770 11552 net.cpp:148] Top shape: 24 832 7 7 (978432)
I0403 15:03:37.865787 11552 net.cpp:148] Top shape: 24 832 7 7 (978432)
I0403 15:03:37.865803 11552 net.cpp:148] Top shape: 24 832 7 7 (978432)
I0403 15:03:37.865818 11552 net.cpp:148] Top shape: 24 832 7 7 (978432)
I0403 15:03:37.865831 11552 net.cpp:156] Memory required for data: 1325241888
I0403 15:03:37.865845 11552 layer_factory.hpp:77] Creating layer inception_5b/1x1
I0403 15:03:37.865867 11552 net.cpp:91] Creating Layer inception_5b/1x1
I0403 15:03:37.865885 11552 net.cpp:425] inception_5b/1x1 <- inception_5a/output_inception_5a/output_0_split_0
I0403 15:03:37.865906 11552 net.cpp:399] inception_5b/1x1 -> inception_5b/1x1
I0403 15:03:37.869719 11552 net.cpp:141] Setting up inception_5b/1x1
I0403 15:03:37.869755 11552 net.cpp:148] Top shape: 24 384 7 7 (451584)
I0403 15:03:37.869772 11552 net.cpp:156] Memory required for data: 1327048224
I0403 15:03:37.869791 11552 layer_factory.hpp:77] Creating layer inception_5b/relu_1x1
I0403 15:03:37.869810 11552 net.cpp:91] Creating Layer inception_5b/relu_1x1
I0403 15:03:37.869827 11552 net.cpp:425] inception_5b/relu_1x1 <- inception_5b/1x1
I0403 15:03:37.869848 11552 net.cpp:386] inception_5b/relu_1x1 -> inception_5b/1x1 (in-place)
I0403 15:03:37.870151 11552 net.cpp:141] Setting up inception_5b/relu_1x1
I0403 15:03:37.870180 11552 net.cpp:148] Top shape: 24 384 7 7 (451584)
I0403 15:03:37.870198 11552 net.cpp:156] Memory required for data: 1328854560
I0403 15:03:37.870214 11552 layer_factory.hpp:77] Creating layer inception_5b/3x3_reduce
I0403 15:03:37.870236 11552 net.cpp:91] Creating Layer inception_5b/3x3_reduce
I0403 15:03:37.870254 11552 net.cpp:425] inception_5b/3x3_reduce <- inception_5a/output_inception_5a/output_0_split_1
I0403 15:03:37.870275 11552 net.cpp:399] inception_5b/3x3_reduce -> inception_5b/3x3_reduce
I0403 15:03:37.872989 11552 net.cpp:141] Setting up inception_5b/3x3_reduce
I0403 15:03:37.873021 11552 net.cpp:148] Top shape: 24 192 7 7 (225792)
I0403 15:03:37.873037 11552 net.cpp:156] Memory required for data: 1329757728
I0403 15:03:37.873056 11552 layer_factory.hpp:77] Creating layer inception_5b/relu_3x3_reduce
I0403 15:03:37.873075 11552 net.cpp:91] Creating Layer inception_5b/relu_3x3_reduce
I0403 15:03:37.873092 11552 net.cpp:425] inception_5b/relu_3x3_reduce <- inception_5b/3x3_reduce
I0403 15:03:37.873112 11552 net.cpp:386] inception_5b/relu_3x3_reduce -> inception_5b/3x3_reduce (in-place)
I0403 15:03:37.873307 11552 net.cpp:141] Setting up inception_5b/relu_3x3_reduce
I0403 15:03:37.873337 11552 net.cpp:148] Top shape: 24 192 7 7 (225792)
I0403 15:03:37.873353 11552 net.cpp:156] Memory required for data: 1330660896
I0403 15:03:37.873368 11552 layer_factory.hpp:77] Creating layer inception_5b/3x3
I0403 15:03:37.873390 11552 net.cpp:91] Creating Layer inception_5b/3x3
I0403 15:03:37.873407 11552 net.cpp:425] inception_5b/3x3 <- inception_5b/3x3_reduce
I0403 15:03:37.873430 11552 net.cpp:399] inception_5b/3x3 -> inception_5b/3x3
I0403 15:03:37.880266 11552 net.cpp:141] Setting up inception_5b/3x3
I0403 15:03:37.880297 11552 net.cpp:148] Top shape: 24 384 7 7 (451584)
I0403 15:03:37.880314 11552 net.cpp:156] Memory required for data: 1332467232
I0403 15:03:37.880339 11552 layer_factory.hpp:77] Creating layer inception_5b/relu_3x3
I0403 15:03:37.880359 11552 net.cpp:91] Creating Layer inception_5b/relu_3x3
I0403 15:03:37.880378 11552 net.cpp:425] inception_5b/relu_3x3 <- inception_5b/3x3
I0403 15:03:37.880398 11552 net.cpp:386] inception_5b/relu_3x3 -> inception_5b/3x3 (in-place)
I0403 15:03:37.880698 11552 net.cpp:141] Setting up inception_5b/relu_3x3
I0403 15:03:37.880727 11552 net.cpp:148] Top shape: 24 384 7 7 (451584)
I0403 15:03:37.880743 11552 net.cpp:156] Memory required for data: 1334273568
I0403 15:03:37.880759 11552 layer_factory.hpp:77] Creating layer inception_5b/5x5_reduce
I0403 15:03:37.880796 11552 net.cpp:91] Creating Layer inception_5b/5x5_reduce
I0403 15:03:37.880815 11552 net.cpp:425] inception_5b/5x5_reduce <- inception_5a/output_inception_5a/output_0_split_2
I0403 15:03:37.880836 11552 net.cpp:399] inception_5b/5x5_reduce -> inception_5b/5x5_reduce
I0403 15:03:37.882117 11552 net.cpp:141] Setting up inception_5b/5x5_reduce
I0403 15:03:37.882148 11552 net.cpp:148] Top shape: 24 48 7 7 (56448)
I0403 15:03:37.882165 11552 net.cpp:156] Memory required for data: 1334499360
I0403 15:03:37.882184 11552 layer_factory.hpp:77] Creating layer inception_5b/relu_5x5_reduce
I0403 15:03:37.882202 11552 net.cpp:91] Creating Layer inception_5b/relu_5x5_reduce
I0403 15:03:37.882218 11552 net.cpp:425] inception_5b/relu_5x5_reduce <- inception_5b/5x5_reduce
I0403 15:03:37.882237 11552 net.cpp:386] inception_5b/relu_5x5_reduce -> inception_5b/5x5_reduce (in-place)
I0403 15:03:37.882642 11552 net.cpp:141] Setting up inception_5b/relu_5x5_reduce
I0403 15:03:37.882669 11552 net.cpp:148] Top shape: 24 48 7 7 (56448)
I0403 15:03:37.882684 11552 net.cpp:156] Memory required for data: 1334725152
I0403 15:03:37.882711 11552 layer_factory.hpp:77] Creating layer inception_5b/5x5
I0403 15:03:37.882731 11552 net.cpp:91] Creating Layer inception_5b/5x5
I0403 15:03:37.882748 11552 net.cpp:425] inception_5b/5x5 <- inception_5b/5x5_reduce
I0403 15:03:37.882767 11552 net.cpp:399] inception_5b/5x5 -> inception_5b/5x5
I0403 15:03:37.884867 11552 net.cpp:141] Setting up inception_5b/5x5
I0403 15:03:37.884896 11552 net.cpp:148] Top shape: 24 128 7 7 (150528)
I0403 15:03:37.884912 11552 net.cpp:156] Memory required for data: 1335327264
I0403 15:03:37.884932 11552 layer_factory.hpp:77] Creating layer inception_5b/relu_5x5
I0403 15:03:37.884949 11552 net.cpp:91] Creating Layer inception_5b/relu_5x5
I0403 15:03:37.884966 11552 net.cpp:425] inception_5b/relu_5x5 <- inception_5b/5x5
I0403 15:03:37.884986 11552 net.cpp:386] inception_5b/relu_5x5 -> inception_5b/5x5 (in-place)
I0403 15:03:37.885181 11552 net.cpp:141] Setting up inception_5b/relu_5x5
I0403 15:03:37.885205 11552 net.cpp:148] Top shape: 24 128 7 7 (150528)
I0403 15:03:37.885221 11552 net.cpp:156] Memory required for data: 1335929376
I0403 15:03:37.885236 11552 layer_factory.hpp:77] Creating layer inception_5b/pool
I0403 15:03:37.885256 11552 net.cpp:91] Creating Layer inception_5b/pool
I0403 15:03:37.885272 11552 net.cpp:425] inception_5b/pool <- inception_5a/output_inception_5a/output_0_split_3
I0403 15:03:37.885290 11552 net.cpp:399] inception_5b/pool -> inception_5b/pool
I0403 15:03:37.885370 11552 net.cpp:141] Setting up inception_5b/pool
I0403 15:03:37.885395 11552 net.cpp:148] Top shape: 24 832 7 7 (978432)
I0403 15:03:37.885408 11552 net.cpp:156] Memory required for data: 1339843104
I0403 15:03:37.885422 11552 layer_factory.hpp:77] Creating layer inception_5b/pool_proj
I0403 15:03:37.885447 11552 net.cpp:91] Creating Layer inception_5b/pool_proj
I0403 15:03:37.885464 11552 net.cpp:425] inception_5b/pool_proj <- inception_5b/pool
I0403 15:03:37.885485 11552 net.cpp:399] inception_5b/pool_proj -> inception_5b/pool_proj
I0403 15:03:37.887838 11552 net.cpp:141] Setting up inception_5b/pool_proj
I0403 15:03:37.887868 11552 net.cpp:148] Top shape: 24 128 7 7 (150528)
I0403 15:03:37.887884 11552 net.cpp:156] Memory required for data: 1340445216
I0403 15:03:37.887903 11552 layer_factory.hpp:77] Creating layer inception_5b/relu_pool_proj
I0403 15:03:37.887922 11552 net.cpp:91] Creating Layer inception_5b/relu_pool_proj
I0403 15:03:37.887938 11552 net.cpp:425] inception_5b/relu_pool_proj <- inception_5b/pool_proj
I0403 15:03:37.887956 11552 net.cpp:386] inception_5b/relu_pool_proj -> inception_5b/pool_proj (in-place)
I0403 15:03:37.888258 11552 net.cpp:141] Setting up inception_5b/relu_pool_proj
I0403 15:03:37.888284 11552 net.cpp:148] Top shape: 24 128 7 7 (150528)
I0403 15:03:37.888299 11552 net.cpp:156] Memory required for data: 1341047328
I0403 15:03:37.888314 11552 layer_factory.hpp:77] Creating layer inception_5b/output
I0403 15:03:37.888339 11552 net.cpp:91] Creating Layer inception_5b/output
I0403 15:03:37.888370 11552 net.cpp:425] inception_5b/output <- inception_5b/1x1
I0403 15:03:37.888387 11552 net.cpp:425] inception_5b/output <- inception_5b/3x3
I0403 15:03:37.888403 11552 net.cpp:425] inception_5b/output <- inception_5b/5x5
I0403 15:03:37.888432 11552 net.cpp:425] inception_5b/output <- inception_5b/pool_proj
I0403 15:03:37.888453 11552 net.cpp:399] inception_5b/output -> inception_5b/output
I0403 15:03:37.888506 11552 net.cpp:141] Setting up inception_5b/output
I0403 15:03:37.888531 11552 net.cpp:148] Top shape: 24 1024 7 7 (1204224)
I0403 15:03:37.888545 11552 net.cpp:156] Memory required for data: 1345864224
I0403 15:03:37.888559 11552 layer_factory.hpp:77] Creating layer pool5/7x7_s1
I0403 15:03:37.888581 11552 net.cpp:91] Creating Layer pool5/7x7_s1
I0403 15:03:37.888597 11552 net.cpp:425] pool5/7x7_s1 <- inception_5b/output
I0403 15:03:37.888619 11552 net.cpp:399] pool5/7x7_s1 -> pool5/7x7_s1
I0403 15:03:37.888854 11552 net.cpp:141] Setting up pool5/7x7_s1
I0403 15:03:37.888880 11552 net.cpp:148] Top shape: 24 1024 1 1 (24576)
I0403 15:03:37.888895 11552 net.cpp:156] Memory required for data: 1345962528
I0403 15:03:37.888908 11552 layer_factory.hpp:77] Creating layer pool5/drop_7x7_s1
I0403 15:03:37.888931 11552 net.cpp:91] Creating Layer pool5/drop_7x7_s1
I0403 15:03:37.888947 11552 net.cpp:425] pool5/drop_7x7_s1 <- pool5/7x7_s1
I0403 15:03:37.888967 11552 net.cpp:386] pool5/drop_7x7_s1 -> pool5/7x7_s1 (in-place)
I0403 15:03:37.889016 11552 net.cpp:141] Setting up pool5/drop_7x7_s1
I0403 15:03:37.889041 11552 net.cpp:148] Top shape: 24 1024 1 1 (24576)
I0403 15:03:37.889055 11552 net.cpp:156] Memory required for data: 1346060832
I0403 15:03:37.889070 11552 layer_factory.hpp:77] Creating layer loss3/classifier_plantvillage
I0403 15:03:37.889091 11552 net.cpp:91] Creating Layer loss3/classifier_plantvillage
I0403 15:03:37.889106 11552 net.cpp:425] loss3/classifier_plantvillage <- pool5/7x7_s1
I0403 15:03:37.889125 11552 net.cpp:399] loss3/classifier_plantvillage -> loss3/classifier_plantvillage
I0403 15:03:37.889571 11552 net.cpp:141] Setting up loss3/classifier_plantvillage
I0403 15:03:37.889600 11552 net.cpp:148] Top shape: 24 38 (912)
I0403 15:03:37.889616 11552 net.cpp:156] Memory required for data: 1346064480
I0403 15:03:37.889634 11552 layer_factory.hpp:77] Creating layer loss3/classifier_plantvillage_loss3/classifier_plantvillage_0_split
I0403 15:03:37.889652 11552 net.cpp:91] Creating Layer loss3/classifier_plantvillage_loss3/classifier_plantvillage_0_split
I0403 15:03:37.889667 11552 net.cpp:425] loss3/classifier_plantvillage_loss3/classifier_plantvillage_0_split <- loss3/classifier_plantvillage
I0403 15:03:37.889694 11552 net.cpp:399] loss3/classifier_plantvillage_loss3/classifier_plantvillage_0_split -> loss3/classifier_plantvillage_loss3/classifier_plantvillage_0_split_0
I0403 15:03:37.889714 11552 net.cpp:399] loss3/classifier_plantvillage_loss3/classifier_plantvillage_0_split -> loss3/classifier_plantvillage_loss3/classifier_plantvillage_0_split_1
I0403 15:03:37.889736 11552 net.cpp:399] loss3/classifier_plantvillage_loss3/classifier_plantvillage_0_split -> loss3/classifier_plantvillage_loss3/classifier_plantvillage_0_split_2
I0403 15:03:37.889758 11552 net.cpp:399] loss3/classifier_plantvillage_loss3/classifier_plantvillage_0_split -> loss3/classifier_plantvillage_loss3/classifier_plantvillage_0_split_3
I0403 15:03:37.889860 11552 net.cpp:141] Setting up loss3/classifier_plantvillage_loss3/classifier_plantvillage_0_split
I0403 15:03:37.889883 11552 net.cpp:148] Top shape: 24 38 (912)
I0403 15:03:37.889899 11552 net.cpp:148] Top shape: 24 38 (912)
I0403 15:03:37.889914 11552 net.cpp:148] Top shape: 24 38 (912)
I0403 15:03:37.889930 11552 net.cpp:148] Top shape: 24 38 (912)
I0403 15:03:37.889942 11552 net.cpp:156] Memory required for data: 1346079072
I0403 15:03:37.889957 11552 layer_factory.hpp:77] Creating layer loss1/loss
I0403 15:03:37.889981 11552 net.cpp:91] Creating Layer loss1/loss
I0403 15:03:37.889997 11552 net.cpp:425] loss1/loss <- loss1/classifier_plantvillage_loss1/classifier_plantvillage_0_split_0
I0403 15:03:37.890028 11552 net.cpp:425] loss1/loss <- label_data_1_split_0
…
