…
I0403 14:49:21.502585 11287 net.cpp:313] The NetState phase (1) differed from the phase (0) specified by a rule in layer data
I0403 14:49:21.504137 11287 net.cpp:49] Initializing net from parameters: 
state {
  phase: TEST
}
layer {
  name: "data"
  type: "Data"
  top: "data"
  top: "label"
  include {
    phase: TEST
  }
  transform_param {
    mirror: false
    crop_size: 224
    mean_file: "/home/mohanty/data/final_dataset/lmdb/segmented-40-60/mean.binaryproto"
  }
  data_param {
    source: "/home/mohanty/data/final_dataset/lmdb/segmented-40-60/test_db"
    batch_size: 24
    backend: LMDB
  }
}
layer {
  name: "conv1/7x7_s2"
  type: "Convolution"
  bottom: "data"
  top: "conv1/7x7_s2"
  param {
    lr_mult: 1
    decay_mult: 1
  }
  param {
    lr_mult: 2
    decay_mult: 0
  }
  convolution_param {
    num_output: 64
    pad: 3
    kernel_size: 7
    stride: 2
    weight_filler {
      type: "xavier"
      std: 0.1
    }
    bias_filler {
      type: "constant"
      value: 0.2
    }
  }
}
layer {
  name: "conv1/relu_7x7"
  type: "ReLU"
  bottom: "conv1/7x7_s2"
  top: "conv1/7x7_s2"
}
layer {
  name: "pool1/3x3_s2"
  type: "Pooling"
  bottom: "conv1/7x7_s2"
  top: "pool1/3x3_s2"
  pooling_param {
    pool: MAX
    kernel_size: 3
    stride: 2
  }
}
layer {
  name: "pool1/norm1"
  type: "LRN"
  bottom: "pool1/3x3_s2"
  top: "pool1/norm1"
  lrn_param {
    local_size: 5
    alpha: 0.0001
    beta: 0.75
  }
}
layer {
  name: "conv2/3x3_reduce"
  type: "Convolution"
  bottom: "pool1/norm1"
  top: "conv2/3x3_reduce"
  param {
    lr_mult: 1
    decay_mult: 1
  }
  param {
    lr_mult: 2
    decay_mult: 0
  }
  convolution_param {
    num_output: 64
    kernel_size: 1
    weight_filler {
      type: "xavier"
      std: 0.1
    }
    bias_filler {
      type: "constant"
      value: 0.2
    }
  }
}
layer {
  name: "conv2/relu_3x3_reduce"
  type: "ReLU"
  bottom: "conv2/3x3_reduce"
  top: "conv2/3x3_reduce"
}
layer {
  name: "conv2/3x3"
  type: "Convolution"
  bottom: "conv2/3x3_reduce"
  top: "conv2/3x3"
  param {
    lr_mult: 1
    decay_mult: 1
  }
  param {
    lr_mult: 2
    decay_mult: 0
  }
  convolution_param {
    num_output: 192
    pad: 1
    kernel_size: 3
    weight_filler {
      type: "xavier"
      std: 0.03
    }
    bias_filler {
      type: "constant"
      value: 0.2
    }
  }
}
layer {
  name: "conv2/relu_3x3"
  type: "ReLU"
  bottom: "conv2/3x3"
  top: "conv2/3x3"
}
layer {
  name: "conv2/norm2"
  type: "LRN"
  bottom: "conv2/3x3"
  top: "conv2/norm2"
  lrn_param {
    local_size: 5
    alpha: 0.0001
    beta: 0.75
  }
}
layer {
  name: "pool2/3x3_s2"
  type: "Pooling"
  bottom: "conv2/norm2"
  top: "pool2/3x3_s2"
  pooling_param {
    pool: MAX
    kernel_size: 3
    stride: 2
  }
}
layer {
  name: "inception_3a/1x1"
  type: "Convolution"
  bottom: "pool2/3x3_s2"
  top: "inception_3a/1x1"
  param {
    lr_mult: 1
    decay_mult: 1
  }
  param {
    lr_mult: 2
    decay_mult: 0
  }
  convolution_param {
    num_output: 64
    kernel_size: 1
    weight_filler {
      type: "xavier"
      std: 0.03
    }
    bias_filler {
      type: "constant"
      value: 0.2
    }
  }
}
layer {
  name: "inception_3a/relu_1x1"
  type: "ReLU"
  bottom: "inception_3a/1x1"
  top: "inception_3a/1x1"
}
layer {
  name: "inception_3a/3x3_reduce"
  type: "Convolution"
  bottom: "pool2/3x3_s2"
  top: "inception_3a/3x3_reduce"
  param {
    lr_mult: 1
    decay_mult: 1
  }
  param {
    lr_mult: 2
    decay_mult: 0
  }
  convolution_param {
    num_output: 96
    kernel_size: 1
    weight_filler {
      type: "xavier"
      std: 0.09
    }
    bias_filler {
      type: "constant"
      value: 0.2
    }
  }
}
layer {
  name: "inception_3a/relu_3x3_reduce"
  type: "ReLU"
  bottom: "inception_3a/3x3_reduce"
  top: "inception_3a/3x3_reduce"
}
layer {
  name: "inception_3a/3x3"
  type: "Convolution"
  bottom: "inception_3a/3x3_reduce"
  top: "inception_3a/3x3"
  param {
    lr_mult: 1
    decay_mult: 1
  }
  param {
    lr_mult: 2
    decay_mult: 0
  }
  convolution_param {
    num_output: 128
    pad: 1
    kernel_size: 3
    weight_filler {
      type: "xavier"
      std: 0.03
    }
    bias_filler {
      type: "constant"
      value: 0.2
    }
  }
}
layer {
  name: "inception_3a/relu_3x3"
  type: "ReLU"
  bottom: "inception_3a/3x3"
  top: "inception_3a/3x3"
}
layer {
  name: "inception_3a/5x5_reduce"
  type: "Convolution"
  bottom: "pool2/3x3_s2"
  top: "inception_3a/5x5_reduce"
  param {
    lr_mult: 1
    decay_mult: 1
  }
  param {
    lr_mult: 2
    decay_mult: 0
  }
  convolution_param {
    num_output: 16
    kernel_size: 1
    weight_filler {
      type: "xavier"
      std: 0.2
    }
    bias_filler {
      type: "constant"
      value: 0.2
    }
  }
}
layer {
  name: "inception_3a/relu_5x5_reduce"
  type: "ReLU"
  bottom: "inception_3a/5x5_reduce"
  top: "inception_3a/5x5_reduce"
}
layer {
  name: "inception_3a/5x5"
  type: "Convolution"
  bottom: "inception_3a/5x5_reduce"
  top: "inception_3a/5x5"
  param {
    lr_mult: 1
    decay_mult: 1
  }
  param {
    lr_mult: 2
    decay_mult: 0
  }
  convolution_param {
    num_output: 32
    pad: 2
    kernel_size: 5
    weight_filler {
      type: "xavier"
      std: 0.03
    }
    bias_filler {
      type: "constant"
      value: 0.2
    }
  }
}
layer {
  name: "inception_3a/relu_5x5"
  type: "ReLU"
  bottom: "inception_3a/5x5"
  top: "inception_3a/5x5"
}
layer {
  name: "inception_3a/pool"
  type: "Pooling"
  bottom: "pool2/3x3_s2"
  top: "inception_3a/pool"
  pooling_param {
    pool: MAX
    kernel_size: 3
    stride: 1
    pad: 1
  }
}
layer {
  name: "inception_3a/pool_proj"
  type: "Convolution"
  bottom: "inception_3a/pool"
  top: "inception_3a/pool_proj"
  param {
    lr_mult: 1
    decay_mult: 1
  }
  param {
    lr_mult: 2
    decay_mult: 0
  }
  convolution_param {
    num_output: 32
    kernel_size: 1
    weight_filler {
      type: "xavier"
      std: 0.1
    }
    bias_filler {
      type: "constant"
      value: 0.2
    }
  }
}
layer {
  name: "inception_3a/relu_pool_proj"
  type: "ReLU"
  bottom: "inception_3a/pool_proj"
  top: "inception_3a/pool_proj"
}
layer {
  name: "inception_3a/output"
  type: "Concat"
  bottom: "inception_3a/1x1"
  bottom: "inception_3a/3x3"
  bottom: "inception_3a/5x5"
  bottom: "inception_3a/pool_proj"
  top: "inception_3a/output"
}
layer {
  name: "inception_3b/1x1"
  type: "Convolution"
  bottom: "inception_3a/output"
  top: "inception_3b/1x1"
  param {
    lr_mult: 1
    decay_mult: 1
  }
  param {
    lr_mult: 2
    decay_mult: 0
  }
  convolution_param {
    num_output: 128
    kernel_size: 1
    weight_filler {
      type: "xavier"
      std: 0.03
    }
    bias_filler {
      type: "constant"
      value: 0.2
    }
  }
}
layer {
  name: "inception_3b/relu_1x1"
  type: "ReLU"
  bottom: "inception_3b/1x1"
  top: "inception_3b/1x1"
}
layer {
  name: "inception_3b/3x3_reduce"
  type: "Convolution"
  bottom: "inception_3a/output"
  top: "inception_3b/3x3_reduce"
  param {
    lr_mult: 1
    decay_mult: 1
  }
  param {
    lr_mult: 2
    decay_mult: 0
  }
  convolution_param {
    num_output: 128
    kernel_size: 1
    weight_filler {
      type: "xavier"
      std: 0.09
    }
    bias_filler {
      type: "constant"
      value: 0.2
    }
  }
}
layer {
  name: "inception_3b/relu_3x3_reduce"
  type: "ReLU"
  bottom: "inception_3b/3x3_reduce"
  top: "inception_3b/3x3_reduce"
}
layer {
  name: "inception_3b/3x3"
  type: "Convolution"
  bottom: "inception_3b/3x3_reduce"
  top: "inception_3b/3x3"
  param {
    lr_mult: 1
    decay_mult: 1
  }
  param {
    lr_mult: 2
    decay_mult: 0
  }
  convolution_param {
    num_output: 192
    pad: 1
    kernel_size: 3
    weight_filler {
      type: "xavier"
      std: 0.03
    }
    bias_filler {
      type: "constant"
      value: 0.2
    }
  }
}
layer {
  name: "inception_3b/relu_3x3"
  type: "ReLU"
  bottom: "inception_3b/3x3"
  top: "inception_3b/3x3"
}
layer {
  name: "inception_3b/5x5_reduce"
  type: "Convolution"
  bottom: "inception_3a/output"
  top: "inception_3b/5x5_reduce"
  param {
    lr_mult: 1
    decay_mult: 1
  }
  param {
    lr_mult: 2
    decay_mult: 0
  }
  convolution_param {
    num_output: 32
    kernel_size: 1
    weight_filler {
      type: "xavier"
      std: 0.2
    }
    bias_filler {
      type: "constant"
      value: 0.2
    }
  }
}
layer {
  name: "inception_3b/relu_5x5_reduce"
  type: "ReLU"
  bottom: "inception_3b/5x5_reduce"
  top: "inception_3b/5x5_reduce"
}
layer {
  name: "inception_3b/5x5"
  type: "Convolution"
  bottom: "inception_3b/5x5_reduce"
  top: "inception_3b/5x5"
  param {
    lr_mult: 1
    decay_mult: 1
  }
  param {
    lr_mult: 2
    decay_mult: 0
  }
  convolution_param {
    num_output: 96
    pad: 2
    kernel_size: 5
    weight_filler {
      type: "xavier"
      std: 0.03
    }
    bias_filler {
      type: "constant"
      value: 0.2
    }
  }
}
layer {
  name: "inception_3b/relu_5x5"
  type: "ReLU"
  bottom: "inception_3b/5x5"
  top: "inception_3b/5x5"
}
layer {
  name: "inception_3b/pool"
  type: "Pooling"
  bottom: "inception_3a/output"
  top: "inception_3b/pool"
  pooling_param {
    pool: MAX
    kernel_size: 3
    stride: 1
    pad: 1
  }
}
layer {
  name: "inception_3b/pool_proj"
  type: "Convolution"
  bottom: "inception_3b/pool"
  top: "inception_3b/pool_proj"
  param {
    lr_mult: 1
    decay_mult: 1
  }
  param {
    lr_mult: 2
    decay_mult: 0
  }
  convolution_param {
    num_output: 64
    kernel_size: 1
    weight_filler {
      type: "xavier"
      std: 0.1
    }
    bias_filler {
      type: "constant"
      value: 0.2
    }
  }
}
layer {
  name: "inception_3b/relu_pool_proj"
  type: "ReLU"
  bottom: "inception_3b/pool_proj"
  top: "inception_3b/pool_proj"
}
layer {
  name: "inception_3b/output"
  type: "Concat"
  bottom: "inception_3b/1x1"
  bottom: "inception_3b/3x3"
  bottom: "inception_3b/5x5"
  bottom: "inception_3b/pool_proj"
  top: "inception_3b/output"
}
layer {
  name: "pool3/3x3_s2"
  type: "Pooling"
  bottom: "inception_3b/output"
  top: "pool3/3x3_s2"
  pooling_param {
    pool: MAX
    kernel_size: 3
    stride: 2
  }
}
layer {
  name: "inception_4a/1x1"
  type: "Convolution"
  bottom: "pool3/3x3_s2"
  top: "inception_4a/1x1"
  param {
    lr_mult: 1
    decay_mult: 1
  }
  param {
    lr_mult: 2
    decay_mult: 0
  }
  convolution_param {
    num_output: 192
    kernel_size: 1
    weight_filler {
      type: "xavier"
      std: 0.03
    }
    bias_filler {
      type: "constant"
      value: 0.2
    }
  }
}
layer {
  name: "inception_4a/relu_1x1"
  type: "ReLU"
  bottom: "inception_4a/1x1"
  top: "inception_4a/1x1"
}
layer {
  name: "inception_4a/3x3_reduce"
  type: "Convolution"
  bottom: "pool3/3x3_s2"
  top: "inception_4a/3x3_reduce"
  param {
    lr_mult: 1
    decay_mult: 1
  }
  param {
    lr_mult: 2
    decay_mult: 0
  }
  convolution_param {
    num_output: 96
    kernel_size: 1
    weight_filler {
      type: "xavier"
      std: 0.09
    }
    bias_filler {
      type: "constant"
      value: 0.2
    }
  }
}
layer {
  name: "inception_4a/relu_3x3_reduce"
  type: "ReLU"
  bottom: "inception_4a/3x3_reduce"
  top: "inception_4a/3x3_reduce"
}
layer {
  name: "inception_4a/3x3"
  type: "Convolution"
  bottom: "inception_4a/3x3_reduce"
  top: "inception_4a/3x3"
  param {
    lr_mult: 1
    decay_mult: 1
  }
  param {
    lr_mult: 2
    decay_mult: 0
  }
  convolution_param {
    num_output: 208
    pad: 1
    kernel_size: 3
    weight_filler {
      type: "xavier"
      std: 0.03
    }
    bias_filler {
      type: "constant"
      value: 0.2
    }
  }
}
layer {
  name: "inception_4a/relu_3x3"
  type: "ReLU"
  bottom: "inception_4a/3x3"
  top: "inception_4a/3x3"
}
layer {
  name: "inception_4a/5x5_reduce"
  type: "Convolution"
  bottom: "pool3/3x3_s2"
  top: "inception_4a/5x5_reduce"
  param {
    lr_mult: 1
    decay_mult: 1
  }
  param {
    lr_mult: 2
    decay_mult: 0
  }
  convolution_param {
    num_output: 16
    kernel_size: 1
    weight_filler {
      type: "xavier"
      std: 0.2
    }
    bias_filler {
      type: "constant"
      value: 0.2
    }
  }
}
layer {
  name: "inception_4a/relu_5x5_reduce"
  type: "ReLU"
  bottom: "inception_4a/5x5_reduce"
  top: "inception_4a/5x5_reduce"
}
layer {
  name: "inception_4a/5x5"
  type: "Convolution"
  bottom: "inception_4a/5x5_reduce"
  top: "inception_4a/5x5"
  param {
    lr_mult: 1
    decay_mult: 1
  }
  param {
    lr_mult: 2
    decay_mult: 0
  }
  convolution_param {
    num_output: 48
    pad: 2
    kernel_size: 5
    weight_filler {
      type: "xavier"
      std: 0.03
    }
    bias_filler {
      type: "constant"
      value: 0.2
    }
  }
}
layer {
  name: "inception_4a/relu_5x5"
  type: "ReLU"
  bottom: "inception_4a/5x5"
  top: "inception_4a/5x5"
}
layer {
  name: "inception_4a/pool"
  type: "Pooling"
  bottom: "pool3/3x3_s2"
  top: "inception_4a/pool"
  pooling_param {
    pool: MAX
    kernel_size: 3
    stride: 1
    pad: 1
  }
}
layer {
  name: "inception_4a/pool_proj"
  type: "Convolution"
  bottom: "inception_4a/pool"
  top: "inception_4a/pool_proj"
  param {
    lr_mult: 1
    decay_mult: 1
  }
  param {
    lr_mult: 2
    decay_mult: 0
  }
  convolution_param {
    num_output: 64
    kernel_size: 1
    weight_filler {
      type: "xavier"
      std: 0.1
    }
    bias_filler {
      type: "constant"
      value: 0.2
    }
  }
}
layer {
  name: "inception_4a/relu_pool_proj"
  type: "ReLU"
  bottom: "inception_4a/pool_proj"
  top: "inception_4a/pool_proj"
}
layer {
  name: "inception_4a/output"
  type: "Concat"
  bottom: "inception_4a/1x1"
  bottom: "inception_4a/3x3"
  bottom: "inception_4a/5x5"
  bottom: "inception_4a/pool_proj"
  top: "inception_4a/output"
}
layer {
  name: "loss1/ave_pool"
  type: "Pooling"
  bottom: "inception_4a/output"
  top: "loss1/ave_pool"
  pooling_param {
    pool: AVE
    kernel_size: 5
    stride: 3
  }
}
layer {
  name: "loss1/conv"
  type: "Convolution"
  bottom: "loss1/ave_pool"
  top: "loss1/conv"
  param {
    lr_mult: 1
    decay_mult: 1
  }
  param {
    lr_mult: 2
    decay_mult: 0
  }
  convolution_param {
    num_output: 128
    kernel_size: 1
    weight_filler {
      type: "xavier"
      std: 0.08
    }
    bias_filler {
      type: "constant"
      value: 0.2
    }
  }
}
layer {
  name: "loss1/relu_conv"
  type: "ReLU"
  bottom: "loss1/conv"
  top: "loss1/conv"
}
layer {
  name: "loss1/fc"
  type: "InnerProduct"
  bottom: "loss1/conv"
  top: "loss1/fc"
  param {
    lr_mult: 1
    decay_mult: 1
  }
  param {
    lr_mult: 2
    decay_mult: 0
  }
  inner_product_param {
    num_output: 1024
    weight_filler {
      type: "xavier"
      std: 0.02
    }
    bias_filler {
      type: "constant"
      value: 0.2
    }
  }
}
layer {
  name: "loss1/relu_fc"
  type: "ReLU"
  bottom: "loss1/fc"
  top: "loss1/fc"
}
layer {
  name: "loss1/drop_fc"
  type: "Dropout"
  bottom: "loss1/fc"
  top: "loss1/fc"
  dropout_param {
    dropout_ratio: 0.7
  }
}
layer {
  name: "loss1/classifier_plantvillage"
  type: "InnerProduct"
  bottom: "loss1/fc"
  top: "loss1/classifier_plantvillage"
  param {
    lr_mult: 1
    decay_mult: 1
  }
  param {
    lr_mult: 2
    decay_mult: 0
  }
  inner_product_param {
    num_output: 38
    weight_filler {
      type: "xavier"
      std: 0.0009765625
    }
    bias_filler {
      type: "constant"
      value: 0
    }
  }
}
layer {
  name: "inception_4b/1x1"
  type: "Convolution"
  bottom: "inception_4a/output"
  top: "inception_4b/1x1"
  param {
    lr_mult: 1
    decay_mult: 1
  }
  param {
    lr_mult: 2
    decay_mult: 0
  }
  convolution_param {
    num_output: 160
    kernel_size: 1
    weight_filler {
      type: "xavier"
      std: 0.03
    }
    bias_filler {
      type: "constant"
      value: 0.2
    }
  }
}
layer {
  name: "inception_4b/relu_1x1"
  type: "ReLU"
  bottom: "inception_4b/1x1"
  top: "inception_4b/1x1"
}
layer {
  name: "inception_4b/3x3_reduce"
  type: "Convolution"
  bottom: "inception_4a/output"
  top: "inception_4b/3x3_reduce"
  param {
    lr_mult: 1
    decay_mult: 1
  }
  param {
    lr_mult: 2
    decay_mult: 0
  }
  convolution_param {
    num_output: 112
    kernel_size: 1
    weight_filler {
      type: "xavier"
      std: 0.09
    }
    bias_filler {
      type: "constant"
      value: 0.2
    }
  }
}
layer {
  name: "inception_4b/relu_3x3_reduce"
  type: "ReLU"
  bottom: "inception_4b/3x3_reduce"
  top: "inception_4b/3x3_reduce"
}
layer {
  name: "inception_4b/3x3"
  type: "Convolution"
  bottom: "inception_4b/3x3_reduce"
  top: "inception_4b/3x3"
  param {
    lr_mult: 1
    decay_mult: 1
  }
  param {
    lr_mult: 2
    decay_mult: 0
  }
  convolution_param {
    num_output: 224
    pad: 1
    kernel_size: 3
    weight_filler {
      type: "xavier"
      std: 0.03
    }
    bias_filler {
      type: "constant"
      value: 0.2
    }
  }
}
layer {
  name: "inception_4b/relu_3x3"
  type: "ReLU"
  bottom: "inception_4b/3x3"
  top: "inception_4b/3x3"
}
layer {
  name: "inception_4b/5x5_reduce"
  type: "Convolution"
  bottom: "inception_4a/output"
  top: "inception_4b/5x5_reduce"
  param {
    lr_mult: 1
    decay_mult: 1
  }
  param {
    lr_mult: 2
    decay_mult: 0
  }
  convolution_param {
    num_output: 24
    kernel_size: 1
    weight_filler {
      type: "xavier"
      std: 0.2
    }
    bias_filler {
      type: "constant"
      value: 0.2
    }
  }
}
layer {
  name: "inception_4b/relu_5x5_reduce"
  type: "ReLU"
  bottom: "inception_4b/5x5_reduce"
  top: "inception_4b/5x5_reduce"
}
layer {
  name: "inception_4b/5x5"
  type: "Convolution"
  bottom: "inception_4b/5x5_reduce"
  top: "inception_4b/5x5"
  param {
    lr_mult: 1
    decay_mult: 1
  }
  param {
    lr_mult: 2
    decay_mult: 0
  }
  convolution_param {
    num_output: 64
    pad: 2
    kernel_size: 5
    weight_filler {
      type: "xavier"
      std: 0.03
    }
    bias_filler {
      type: "constant"
      value: 0.2
    }
  }
}
layer {
  name: "inception_4b/relu_5x5"
  type: "ReLU"
  bottom: "inception_4b/5x5"
  top: "inception_4b/5x5"
}
layer {
  name: "inception_4b/pool"
  type: "Pooling"
  bottom: "inception_4a/output"
  top: "inception_4b/pool"
  pooling_param {
    pool: MAX
    kernel_size: 3
    stride: 1
    pad: 1
  }
}
layer {
  name: "inception_4b/pool_proj"
  type: "Convolution"
  bottom: "inception_4b/pool"
  top: "inception_4b/pool_proj"
  param {
    lr_mult: 1
    decay_mult: 1
  }
  param {
    lr_mult: 2
    decay_mult: 0
  }
  convolution_param {
    num_output: 64
    kernel_size: 1
    weight_filler {
      type: "xavier"
      std: 0.1
    }
    bias_filler {
      type: "constant"
      value: 0.2
    }
  }
}
layer {
  name: "inception_4b/relu_pool_proj"
  type: "ReLU"
  bottom: "inception_4b/pool_proj"
  top: "inception_4b/pool_proj"
}
layer {
  name: "inception_4b/output"
  type: "Concat"
  bottom: "inception_4b/1x1"
  bottom: "inception_4b/3x3"
  bottom: "inception_4b/5x5"
  bottom: "inception_4b/pool_proj"
  top: "inception_4b/output"
}
layer {
  name: "inception_4c/1x1"
  type: "Convolution"
  bottom: "inception_4b/output"
  top: "inception_4c/1x1"
  param {
    lr_mult: 1
    decay_mult: 1
  }
  param {
    lr_mult: 2
    decay_mult: 0
  }
  convolution_param {
    num_output: 128
    kernel_size: 1
    weight_filler {
      type: "xavier"
      std: 0.03
    }
    bias_filler {
      type: "constant"
      value: 0.2
    }
  }
}
layer {
  name: "inception_4c/relu_1x1"
  type: "ReLU"
  bottom: "inception_4c/1x1"
  top: "inception_4c/1x1"
}
layer {
  name: "inception_4c/3x3_reduce"
  type: "Convolution"
  bottom: "inception_4b/output"
  top: "inception_4c/3x3_reduce"
  param {
    lr_mult: 1
    decay_mult: 1
  }
  param {
    lr_mult: 2
    decay_mult: 0
  }
  convolution_param {
    num_output: 128
    kernel_size: 1
    weight_filler {
      type: "xavier"
      std: 0.09
    }
    bias_filler {
      type: "constant"
      value: 0.2
    }
  }
}
layer {
  name: "inception_4c/relu_3x3_reduce"
  type: "ReLU"
  bottom: "inception_4c/3x3_reduce"
  top: "inception_4c/3x3_reduce"
}
layer {
  name: "inception_4c/3x3"
  type: "Convolution"
  bottom: "inception_4c/3x3_reduce"
  top: "inception_4c/3x3"
  param {
    lr_mult: 1
    decay_mult: 1
  }
  param {
    lr_mult: 2
    decay_mult: 0
  }
  convolution_param {
    num_output: 256
    pad: 1
    kernel_size: 3
    weight_filler {
      type: "xavier"
      std: 0.03
    }
    bias_filler {
      type: "constant"
      value: 0.2
    }
  }
}
layer {
  name: "inception_4c/relu_3x3"
  type: "ReLU"
  bottom: "inception_4c/3x3"
  top: "inception_4c/3x3"
}
layer {
  name: "inception_4c/5x5_reduce"
  type: "Convolution"
  bottom: "inception_4b/output"
  top: "inception_4c/5x5_reduce"
  param {
    lr_mult: 1
    decay_mult: 1
  }
  param {
    lr_mult: 2
    decay_mult: 0
  }
  convolution_param {
    num_output: 24
    kernel_size: 1
    weight_filler {
      type: "xavier"
      std: 0.2
    }
    bias_filler {
      type: "constant"
      value: 0.2
    }
  }
}
layer {
  name: "inception_4c/relu_5x5_reduce"
  type: "ReLU"
  bottom: "inception_4c/5x5_reduce"
  top: "inception_4c/5x5_reduce"
}
layer {
  name: "inception_4c/5x5"
  type: "Convolution"
  bottom: "inception_4c/5x5_reduce"
  top: "inception_4c/5x5"
  param {
    lr_mult: 1
    decay_mult: 1
  }
  param {
    lr_mult: 2
    decay_mult: 0
  }
  convolution_param {
    num_output: 64
    pad: 2
    kernel_size: 5
    weight_filler {
      type: "xavier"
      std: 0.03
    }
    bias_filler {
      type: "constant"
      value: 0.2
    }
  }
}
layer {
  name: "inception_4c/relu_5x5"
  type: "ReLU"
  bottom: "inception_4c/5x5"
  top: "inception_4c/5x5"
}
layer {
  name: "inception_4c/pool"
  type: "Pooling"
  bottom: "inception_4b/output"
  top: "inception_4c/pool"
  pooling_param {
    pool: MAX
    kernel_size: 3
    stride: 1
    pad: 1
  }
}
layer {
  name: "inception_4c/pool_proj"
  type: "Convolution"
  bottom: "inception_4c/pool"
  top: "inception_4c/pool_proj"
  param {
    lr_mult: 1
    decay_mult: 1
  }
  param {
    lr_mult: 2
    decay_mult: 0
  }
  convolution_param {
    num_output: 64
    kernel_size: 1
    weight_filler {
      type: "xavier"
      std: 0.1
    }
    bias_filler {
      type: "constant"
      value: 0.2
    }
  }
}
layer {
  name: "inception_4c/relu_pool_proj"
  type: "ReLU"
  bottom: "inception_4c/pool_proj"
  top: "inception_4c/pool_proj"
}
layer {
  name: "inception_4c/output"
  type: "Concat"
  bottom: "inception_4c/1x1"
  bottom: "inception_4c/3x3"
  bottom: "inception_4c/5x5"
  bottom: "inception_4c/pool_proj"
  top: "inception_4c/output"
}
layer {
  name: "inception_4d/1x1"
  type: "Convolution"
  bottom: "inception_4c/output"
  top: "inception_4d/1x1"
  param {
    lr_mult: 1
    decay_mult: 1
  }
  param {
    lr_mult: 2
    decay_mult: 0
  }
  convolution_param {
    num_output: 112
    kernel_size: 1
    weight_filler {
      type: "xavier"
      std: 0.03
    }
    bias_filler {
      type: "constant"
      value: 0.2
    }
  }
}
layer {
  name: "inception_4d/relu_1x1"
  type: "ReLU"
  bottom: "inception_4d/1x1"
  top: "inception_4d/1x1"
}
layer {
  name: "inception_4d/3x3_reduce"
  type: "Convolution"
  bottom: "inception_4c/output"
  top: "inception_4d/3x3_reduce"
  param {
    lr_mult: 1
    decay_mult: 1
  }
  param {
    lr_mult: 2
    decay_mult: 0
  }
  convolution_param {
    num_output: 144
    kernel_size: 1
    weight_filler {
      type: "xavier"
      std: 0.09
    }
    bias_filler {
      type: "constant"
      value: 0.2
    }
  }
}
layer {
  name: "inception_4d/relu_3x3_reduce"
  type: "ReLU"
  bottom: "inception_4d/3x3_reduce"
  top: "inception_4d/3x3_reduce"
}
layer {
  name: "inception_4d/3x3"
  type: "Convolution"
  bottom: "inception_4d/3x3_reduce"
  top: "inception_4d/3x3"
  param {
    lr_mult: 1
    decay_mult: 1
  }
  param {
    lr_mult: 2
    decay_mult: 0
  }
  convolution_param {
    num_output: 288
    pad: 1
    kernel_size: 3
    weight_filler {
      type: "xavier"
      std: 0.03
    }
    bias_filler {
      type: "constant"
      value: 0.2
    }
  }
}
layer {
  name: "inception_4d/relu_3x3"
  type: "ReLU"
  bottom: "inception_4d/3x3"
  top: "inception_4d/3x3"
}
layer {
  name: "inception_4d/5x5_reduce"
  type: "Convolution"
  bottom: "inception_4c/output"
  top: "inception_4d/5x5_reduce"
  param {
    lr_mult: 1
    decay_mult: 1
  }
  param {
    lr_mult: 2
    decay_mult: 0
  }
  convolution_param {
    num_output: 32
    kernel_size: 1
    weight_filler {
      type: "xavier"
      std: 0.2
    }
    bias_filler {
      type: "constant"
      value: 0.2
    }
  }
}
layer {
  name: "inception_4d/relu_5x5_reduce"
  type: "ReLU"
  bottom: "inception_4d/5x5_reduce"
  top: "inception_4d/5x5_reduce"
}
layer {
  name: "inception_4d/5x5"
  type: "Convolution"
  bottom: "inception_4d/5x5_reduce"
  top: "inception_4d/5x5"
  param {
    lr_mult: 1
    decay_mult: 1
  }
  param {
    lr_mult: 2
    decay_mult: 0
  }
  convolution_param {
    num_output: 64
    pad: 2
    kernel_size: 5
    weight_filler {
      type: "xavier"
      std: 0.03
    }
    bias_filler {
      type: "constant"
      value: 0.2
    }
  }
}
layer {
  name: "inception_4d/relu_5x5"
  type: "ReLU"
  bottom: "inception_4d/5x5"
  top: "inception_4d/5x5"
}
layer {
  name: "inception_4d/pool"
  type: "Pooling"
  bottom: "inception_4c/output"
  top: "inception_4d/pool"
  pooling_param {
    pool: MAX
    kernel_size: 3
    stride: 1
    pad: 1
  }
}
layer {
  name: "inception_4d/pool_proj"
  type: "Convolution"
  bottom: "inception_4d/pool"
  top: "inception_4d/pool_proj"
  param {
    lr_mult: 1
    decay_mult: 1
  }
  param {
    lr_mult: 2
    decay_mult: 0
  }
  convolution_param {
    num_output: 64
    kernel_size: 1
    weight_filler {
      type: "xavier"
      std: 0.1
    }
    bias_filler {
      type: "constant"
      value: 0.2
    }
  }
}
layer {
  name: "inception_4d/relu_pool_proj"
  type: "ReLU"
  bottom: "inception_4d/pool_proj"
  top: "inception_4d/pool_proj"
}
layer {
  name: "inception_4d/output"
  type: "Concat"
  bottom: "inception_4d/1x1"
  bottom: "inception_4d/3x3"
  bottom: "inception_4d/5x5"
  bottom: "inception_4d/pool_proj"
  top: "inception_4d/output"
}
layer {
  name: "loss2/ave_pool"
  type: "Pooling"
  bottom: "inception_4d/output"
  top: "loss2/ave_pool"
  pooling_param {
    pool: AVE
    kernel_size: 5
    stride: 3
  }
}
layer {
  name: "loss2/conv"
  type: "Convolution"
  bottom: "loss2/ave_pool"
  top: "loss2/conv"
  param {
    lr_mult: 1
    decay_mult: 1
  }
  param {
    lr_mult: 2
    decay_mult: 0
  }
  convolution_param {
    num_output: 128
    kernel_size: 1
    weight_filler {
      type: "xavier"
      std: 0.08
    }
    bias_filler {
      type: "constant"
      value: 0.2
    }
  }
}
layer {
  name: "loss2/relu_conv"
  type: "ReLU"
  bottom: "loss2/conv"
  top: "loss2/conv"
}
layer {
  name: "loss2/fc"
  type: "InnerProduct"
  bottom: "loss2/conv"
  top: "loss2/fc"
  param {
    lr_mult: 1
    decay_mult: 1
  }
  param {
    lr_mult: 2
    decay_mult: 0
  }
  inner_product_param {
    num_output: 1024
    weight_filler {
      type: "xavier"
      std: 0.02
    }
    bias_filler {
      type: "constant"
      value: 0.2
    }
  }
}
layer {
  name: "loss2/relu_fc"
  type: "ReLU"
  bottom: "loss2/fc"
  top: "loss2/fc"
}
layer {
  name: "loss2/drop_fc"
  type: "Dropout"
  bottom: "loss2/fc"
  top: "loss2/fc"
  dropout_param {
    dropout_ratio: 0.7
  }
}
layer {
  name: "loss2/classifier_plantvillage"
  type: "InnerProduct"
  bottom: "loss2/fc"
  top: "loss2/classifier_plantvillage"
  param {
    lr_mult: 1
    decay_mult: 1
  }
  param {
    lr_mult: 2
    decay_mult: 0
  }
  inner_product_param {
    num_output: 38
    weight_filler {
      type: "xavier"
      std: 0.0009765625
    }
    bias_filler {
      type: "constant"
      value: 0
    }
  }
}
layer {
  name: "inception_4e/1x1"
  type: "Convolution"
  bottom: "inception_4d/output"
  top: "inception_4e/1x1"
  param {
    lr_mult: 1
    decay_mult: 1
  }
  param {
    lr_mult: 2
    decay_mult: 0
  }
  convolution_param {
    num_output: 256
    kernel_size: 1
    weight_filler {
      type: "xavier"
      std: 0.03
    }
    bias_filler {
      type: "constant"
      value: 0.2
    }
  }
}
layer {
  name: "inception_4e/relu_1x1"
  type: "ReLU"
  bottom: "inception_4e/1x1"
  top: "inception_4e/1x1"
}
layer {
  name: "inception_4e/3x3_reduce"
  type: "Convolution"
  bottom: "inception_4d/output"
  top: "inception_4e/3x3_reduce"
  param {
    lr_mult: 1
    decay_mult: 1
  }
  param {
    lr_mult: 2
    decay_mult: 0
  }
  convolution_param {
    num_output: 160
    kernel_size: 1
    weight_filler {
      type: "xavier"
      std: 0.09
    }
    bias_filler {
      type: "constant"
      value: 0.2
    }
  }
}
layer {
  name: "inception_4e/relu_3x3_reduce"
  type: "ReLU"
  bottom: "inception_4e/3x3_reduce"
  top: "inception_4e/3x3_reduce"
}
layer {
  name: "inception_4e/3x3"
  type: "Convolution"
  bottom: "inception_4e/3x3_reduce"
  top: "inception_4e/3x3"
  param {
    lr_mult: 1
    decay_mult: 1
  }
  param {
    lr_mult: 2
    decay_mult: 0
  }
  convolution_param {
    num_output: 320
    pad: 1
    kernel_size: 3
    weight_filler {
      type: "xavier"
      std: 0.03
    }
    bias_filler {
      type: "constant"
      value: 0.2
    }
  }
}
layer {
  name: "inception_4e/relu_3x3"
  type: "ReLU"
  bottom: "inception_4e/3x3"
  top: "inception_4e/3x3"
}
layer {
  name: "inception_4e/5x5_reduce"
  type: "Convolution"
  bottom: "inception_4d/output"
  top: "inception_4e/5x5_reduce"
  param {
    lr_mult: 1
    decay_mult: 1
  }
  param {
    lr_mult: 2
    decay_mult: 0
  }
  convolution_param {
    num_output: 32
    kernel_size: 1
    weight_filler {
      type: "xavier"
      std: 0.2
    }
    bias_filler {
      type: "constant"
      value: 0.2
    }
  }
}
layer {
  name: "inception_4e/relu_5x5_reduce"
  type: "ReLU"
  bottom: "inception_4e/5x5_reduce"
  top: "inception_4e/5x5_reduce"
}
layer {
  name: "inception_4e/5x5"
  type: "Convolution"
  bottom: "inception_4e/5x5_reduce"
  top: "inception_4e/
I0403 14:49:21.505715 11287 layer_factory.hpp:77] Creating layer data
I0403 14:49:21.506844 11287 net.cpp:91] Creating Layer data
I0403 14:49:21.506880 11287 net.cpp:399] data -> data
I0403 14:49:21.506989 11287 net.cpp:399] data -> label
I0403 14:49:21.507084 11287 data_transformer.cpp:25] Loading mean file from: /home/mohanty/data/final_dataset/lmdb/segmented-40-60/mean.binaryproto
I0403 14:49:21.533224 11295 db_lmdb.cpp:38] Opened lmdb /home/mohanty/data/final_dataset/lmdb/segmented-40-60/test_db
I0403 14:49:21.537045 11287 data_layer.cpp:41] output data size: 24,3,224,224
I0403 14:49:21.568867 11287 net.cpp:141] Setting up data
I0403 14:49:21.568956 11287 net.cpp:148] Top shape: 24 3 224 224 (3612672)
I0403 14:49:21.568985 11287 net.cpp:148] Top shape: 24 (24)
I0403 14:49:21.569003 11287 net.cpp:156] Memory required for data: 14450784
I0403 14:49:21.569036 11287 layer_factory.hpp:77] Creating layer label_data_1_split
I0403 14:49:21.569072 11287 net.cpp:91] Creating Layer label_data_1_split
I0403 14:49:21.569092 11287 net.cpp:425] label_data_1_split <- label
I0403 14:49:21.569128 11287 net.cpp:399] label_data_1_split -> label_data_1_split_0
I0403 14:49:21.569161 11287 net.cpp:399] label_data_1_split -> label_data_1_split_1
I0403 14:49:21.569187 11287 net.cpp:399] label_data_1_split -> label_data_1_split_2
I0403 14:49:21.569212 11287 net.cpp:399] label_data_1_split -> label_data_1_split_3
I0403 14:49:21.569236 11287 net.cpp:399] label_data_1_split -> label_data_1_split_4
I0403 14:49:21.569259 11287 net.cpp:399] label_data_1_split -> label_data_1_split_5
I0403 14:49:21.569283 11287 net.cpp:399] label_data_1_split -> label_data_1_split_6
I0403 14:49:21.569308 11287 net.cpp:399] label_data_1_split -> label_data_1_split_7
I0403 14:49:21.569331 11287 net.cpp:399] label_data_1_split -> label_data_1_split_8
I0403 14:49:21.569362 11287 net.cpp:399] label_data_1_split -> label_data_1_split_9
I0403 14:49:21.569501 11287 net.cpp:141] Setting up label_data_1_split
I0403 14:49:21.569530 11287 net.cpp:148] Top shape: 24 (24)
I0403 14:49:21.569552 11287 net.cpp:148] Top shape: 24 (24)
I0403 14:49:21.569571 11287 net.cpp:148] Top shape: 24 (24)
I0403 14:49:21.569591 11287 net.cpp:148] Top shape: 24 (24)
I0403 14:49:21.569609 11287 net.cpp:148] Top shape: 24 (24)
I0403 14:49:21.569628 11287 net.cpp:148] Top shape: 24 (24)
I0403 14:49:21.569648 11287 net.cpp:148] Top shape: 24 (24)
I0403 14:49:21.569666 11287 net.cpp:148] Top shape: 24 (24)
I0403 14:49:21.569684 11287 net.cpp:148] Top shape: 24 (24)
I0403 14:49:21.569703 11287 net.cpp:148] Top shape: 24 (24)
I0403 14:49:21.569754 11287 net.cpp:156] Memory required for data: 14451744
I0403 14:49:21.569774 11287 layer_factory.hpp:77] Creating layer conv1/7x7_s2
I0403 14:49:21.569828 11287 net.cpp:91] Creating Layer conv1/7x7_s2
I0403 14:49:21.569852 11287 net.cpp:425] conv1/7x7_s2 <- data
I0403 14:49:21.569875 11287 net.cpp:399] conv1/7x7_s2 -> conv1/7x7_s2
I0403 14:49:22.001539 11287 net.cpp:141] Setting up conv1/7x7_s2
I0403 14:49:22.001593 11287 net.cpp:148] Top shape: 24 64 112 112 (19267584)
I0403 14:49:22.001616 11287 net.cpp:156] Memory required for data: 91522080
I0403 14:49:22.001648 11287 layer_factory.hpp:77] Creating layer conv1/relu_7x7
I0403 14:49:22.001682 11287 net.cpp:91] Creating Layer conv1/relu_7x7
I0403 14:49:22.001713 11287 net.cpp:425] conv1/relu_7x7 <- conv1/7x7_s2
I0403 14:49:22.001751 11287 net.cpp:386] conv1/relu_7x7 -> conv1/7x7_s2 (in-place)
I0403 14:49:22.002077 11287 net.cpp:141] Setting up conv1/relu_7x7
I0403 14:49:22.002111 11287 net.cpp:148] Top shape: 24 64 112 112 (19267584)
I0403 14:49:22.002135 11287 net.cpp:156] Memory required for data: 168592416
I0403 14:49:22.002157 11287 layer_factory.hpp:77] Creating layer pool1/3x3_s2
I0403 14:49:22.002197 11287 net.cpp:91] Creating Layer pool1/3x3_s2
I0403 14:49:22.002219 11287 net.cpp:425] pool1/3x3_s2 <- conv1/7x7_s2
I0403 14:49:22.002243 11287 net.cpp:399] pool1/3x3_s2 -> pool1/3x3_s2
I0403 14:49:22.002327 11287 net.cpp:141] Setting up pool1/3x3_s2
I0403 14:49:22.002372 11287 net.cpp:148] Top shape: 24 64 56 56 (4816896)
I0403 14:49:22.002393 11287 net.cpp:156] Memory required for data: 187860000
I0403 14:49:22.002411 11287 layer_factory.hpp:77] Creating layer pool1/norm1
I0403 14:49:22.002439 11287 net.cpp:91] Creating Layer pool1/norm1
I0403 14:49:22.002462 11287 net.cpp:425] pool1/norm1 <- pool1/3x3_s2
I0403 14:49:22.002486 11287 net.cpp:399] pool1/norm1 -> pool1/norm1
I0403 14:49:22.002848 11287 net.cpp:141] Setting up pool1/norm1
I0403 14:49:22.002882 11287 net.cpp:148] Top shape: 24 64 56 56 (4816896)
I0403 14:49:22.002900 11287 net.cpp:156] Memory required for data: 207127584
I0403 14:49:22.002918 11287 layer_factory.hpp:77] Creating layer conv2/3x3_reduce
I0403 14:49:22.002948 11287 net.cpp:91] Creating Layer conv2/3x3_reduce
I0403 14:49:22.002969 11287 net.cpp:425] conv2/3x3_reduce <- pool1/norm1
I0403 14:49:22.002995 11287 net.cpp:399] conv2/3x3_reduce -> conv2/3x3_reduce
I0403 14:49:22.004624 11287 net.cpp:141] Setting up conv2/3x3_reduce
I0403 14:49:22.004664 11287 net.cpp:148] Top shape: 24 64 56 56 (4816896)
I0403 14:49:22.004685 11287 net.cpp:156] Memory required for data: 226395168
I0403 14:49:22.004711 11287 layer_factory.hpp:77] Creating layer conv2/relu_3x3_reduce
I0403 14:49:22.004734 11287 net.cpp:91] Creating Layer conv2/relu_3x3_reduce
I0403 14:49:22.004753 11287 net.cpp:425] conv2/relu_3x3_reduce <- conv2/3x3_reduce
I0403 14:49:22.004777 11287 net.cpp:386] conv2/relu_3x3_reduce -> conv2/3x3_reduce (in-place)
I0403 14:49:22.005094 11287 net.cpp:141] Setting up conv2/relu_3x3_reduce
I0403 14:49:22.005128 11287 net.cpp:148] Top shape: 24 64 56 56 (4816896)
I0403 14:49:22.005147 11287 net.cpp:156] Memory required for data: 245662752
I0403 14:49:22.005165 11287 layer_factory.hpp:77] Creating layer conv2/3x3
I0403 14:49:22.005194 11287 net.cpp:91] Creating Layer conv2/3x3
I0403 14:49:22.005216 11287 net.cpp:425] conv2/3x3 <- conv2/3x3_reduce
I0403 14:49:22.005239 11287 net.cpp:399] conv2/3x3 -> conv2/3x3
I0403 14:49:22.007959 11287 net.cpp:141] Setting up conv2/3x3
I0403 14:49:22.007999 11287 net.cpp:148] Top shape: 24 192 56 56 (14450688)
I0403 14:49:22.008020 11287 net.cpp:156] Memory required for data: 303465504
I0403 14:49:22.008046 11287 layer_factory.hpp:77] Creating layer conv2/relu_3x3
I0403 14:49:22.008069 11287 net.cpp:91] Creating Layer conv2/relu_3x3
I0403 14:49:22.008090 11287 net.cpp:425] conv2/relu_3x3 <- conv2/3x3
I0403 14:49:22.008113 11287 net.cpp:386] conv2/relu_3x3 -> conv2/3x3 (in-place)
I0403 14:49:22.008323 11287 net.cpp:141] Setting up conv2/relu_3x3
I0403 14:49:22.008359 11287 net.cpp:148] Top shape: 24 192 56 56 (14450688)
I0403 14:49:22.008400 11287 net.cpp:156] Memory required for data: 361268256
I0403 14:49:22.008420 11287 layer_factory.hpp:77] Creating layer conv2/norm2
I0403 14:49:22.008446 11287 net.cpp:91] Creating Layer conv2/norm2
I0403 14:49:22.008467 11287 net.cpp:425] conv2/norm2 <- conv2/3x3
I0403 14:49:22.008487 11287 net.cpp:399] conv2/norm2 -> conv2/norm2
I0403 14:49:22.008849 11287 net.cpp:141] Setting up conv2/norm2
I0403 14:49:22.008882 11287 net.cpp:148] Top shape: 24 192 56 56 (14450688)
I0403 14:49:22.008901 11287 net.cpp:156] Memory required for data: 419071008
I0403 14:49:22.008919 11287 layer_factory.hpp:77] Creating layer pool2/3x3_s2
I0403 14:49:22.008944 11287 net.cpp:91] Creating Layer pool2/3x3_s2
I0403 14:49:22.008963 11287 net.cpp:425] pool2/3x3_s2 <- conv2/norm2
I0403 14:49:22.008985 11287 net.cpp:399] pool2/3x3_s2 -> pool2/3x3_s2
I0403 14:49:22.009048 11287 net.cpp:141] Setting up pool2/3x3_s2
I0403 14:49:22.009078 11287 net.cpp:148] Top shape: 24 192 28 28 (3612672)
I0403 14:49:22.009095 11287 net.cpp:156] Memory required for data: 433521696
I0403 14:49:22.009112 11287 layer_factory.hpp:77] Creating layer pool2/3x3_s2_pool2/3x3_s2_0_split
I0403 14:49:22.009135 11287 net.cpp:91] Creating Layer pool2/3x3_s2_pool2/3x3_s2_0_split
I0403 14:49:22.009152 11287 net.cpp:425] pool2/3x3_s2_pool2/3x3_s2_0_split <- pool2/3x3_s2
I0403 14:49:22.009176 11287 net.cpp:399] pool2/3x3_s2_pool2/3x3_s2_0_split -> pool2/3x3_s2_pool2/3x3_s2_0_split_0
I0403 14:49:22.009202 11287 net.cpp:399] pool2/3x3_s2_pool2/3x3_s2_0_split -> pool2/3x3_s2_pool2/3x3_s2_0_split_1
I0403 14:49:22.009233 11287 net.cpp:399] pool2/3x3_s2_pool2/3x3_s2_0_split -> pool2/3x3_s2_pool2/3x3_s2_0_split_2
I0403 14:49:22.009263 11287 net.cpp:399] pool2/3x3_s2_pool2/3x3_s2_0_split -> pool2/3x3_s2_pool2/3x3_s2_0_split_3
I0403 14:49:22.009368 11287 net.cpp:141] Setting up pool2/3x3_s2_pool2/3x3_s2_0_split
I0403 14:49:22.009405 11287 net.cpp:148] Top shape: 24 192 28 28 (3612672)
I0403 14:49:22.009426 11287 net.cpp:148] Top shape: 24 192 28 28 (3612672)
I0403 14:49:22.009444 11287 net.cpp:148] Top shape: 24 192 28 28 (3612672)
I0403 14:49:22.009464 11287 net.cpp:148] Top shape: 24 192 28 28 (3612672)
I0403 14:49:22.009480 11287 net.cpp:156] Memory required for data: 491324448
I0403 14:49:22.009497 11287 layer_factory.hpp:77] Creating layer inception_3a/1x1
I0403 14:49:22.009526 11287 net.cpp:91] Creating Layer inception_3a/1x1
I0403 14:49:22.009546 11287 net.cpp:425] inception_3a/1x1 <- pool2/3x3_s2_pool2/3x3_s2_0_split_0
I0403 14:49:22.009572 11287 net.cpp:399] inception_3a/1x1 -> inception_3a/1x1
I0403 14:49:22.011382 11287 net.cpp:141] Setting up inception_3a/1x1
I0403 14:49:22.011421 11287 net.cpp:148] Top shape: 24 64 28 28 (1204224)
I0403 14:49:22.011442 11287 net.cpp:156] Memory required for data: 496141344
I0403 14:49:22.011466 11287 layer_factory.hpp:77] Creating layer inception_3a/relu_1x1
I0403 14:49:22.011488 11287 net.cpp:91] Creating Layer inception_3a/relu_1x1
I0403 14:49:22.011507 11287 net.cpp:425] inception_3a/relu_1x1 <- inception_3a/1x1
I0403 14:49:22.011529 11287 net.cpp:386] inception_3a/relu_1x1 -> inception_3a/1x1 (in-place)
I0403 14:49:22.011755 11287 net.cpp:141] Setting up inception_3a/relu_1x1
I0403 14:49:22.011785 11287 net.cpp:148] Top shape: 24 64 28 28 (1204224)
I0403 14:49:22.011804 11287 net.cpp:156] Memory required for data: 500958240
I0403 14:49:22.011823 11287 layer_factory.hpp:77] Creating layer inception_3a/3x3_reduce
I0403 14:49:22.011852 11287 net.cpp:91] Creating Layer inception_3a/3x3_reduce
I0403 14:49:22.011873 11287 net.cpp:425] inception_3a/3x3_reduce <- pool2/3x3_s2_pool2/3x3_s2_0_split_1
I0403 14:49:22.011898 11287 net.cpp:399] inception_3a/3x3_reduce -> inception_3a/3x3_reduce
I0403 14:49:22.013960 11287 net.cpp:141] Setting up inception_3a/3x3_reduce
I0403 14:49:22.014001 11287 net.cpp:148] Top shape: 24 96 28 28 (1806336)
I0403 14:49:22.014024 11287 net.cpp:156] Memory required for data: 508183584
I0403 14:49:22.014050 11287 layer_factory.hpp:77] Creating layer inception_3a/relu_3x3_reduce
I0403 14:49:22.014092 11287 net.cpp:91] Creating Layer inception_3a/relu_3x3_reduce
I0403 14:49:22.014114 11287 net.cpp:425] inception_3a/relu_3x3_reduce <- inception_3a/3x3_reduce
I0403 14:49:22.014139 11287 net.cpp:386] inception_3a/relu_3x3_reduce -> inception_3a/3x3_reduce (in-place)
I0403 14:49:22.014364 11287 net.cpp:141] Setting up inception_3a/relu_3x3_reduce
I0403 14:49:22.014394 11287 net.cpp:148] Top shape: 24 96 28 28 (1806336)
I0403 14:49:22.014412 11287 net.cpp:156] Memory required for data: 515408928
I0403 14:49:22.014430 11287 layer_factory.hpp:77] Creating layer inception_3a/3x3
I0403 14:49:22.014459 11287 net.cpp:91] Creating Layer inception_3a/3x3
I0403 14:49:22.014480 11287 net.cpp:425] inception_3a/3x3 <- inception_3a/3x3_reduce
I0403 14:49:22.014503 11287 net.cpp:399] inception_3a/3x3 -> inception_3a/3x3
I0403 14:49:22.016484 11287 net.cpp:141] Setting up inception_3a/3x3
I0403 14:49:22.016518 11287 net.cpp:148] Top shape: 24 128 28 28 (2408448)
I0403 14:49:22.016538 11287 net.cpp:156] Memory required for data: 525042720
I0403 14:49:22.016561 11287 layer_factory.hpp:77] Creating layer inception_3a/relu_3x3
I0403 14:49:22.016583 11287 net.cpp:91] Creating Layer inception_3a/relu_3x3
I0403 14:49:22.016602 11287 net.cpp:425] inception_3a/relu_3x3 <- inception_3a/3x3
I0403 14:49:22.016625 11287 net.cpp:386] inception_3a/relu_3x3 -> inception_3a/3x3 (in-place)
I0403 14:49:22.016950 11287 net.cpp:141] Setting up inception_3a/relu_3x3
I0403 14:49:22.016983 11287 net.cpp:148] Top shape: 24 128 28 28 (2408448)
I0403 14:49:22.017001 11287 net.cpp:156] Memory required for data: 534676512
I0403 14:49:22.017020 11287 layer_factory.hpp:77] Creating layer inception_3a/5x5_reduce
I0403 14:49:22.017050 11287 net.cpp:91] Creating Layer inception_3a/5x5_reduce
I0403 14:49:22.017072 11287 net.cpp:425] inception_3a/5x5_reduce <- pool2/3x3_s2_pool2/3x3_s2_0_split_2
I0403 14:49:22.017098 11287 net.cpp:399] inception_3a/5x5_reduce -> inception_3a/5x5_reduce
I0403 14:49:22.018236 11287 net.cpp:141] Setting up inception_3a/5x5_reduce
I0403 14:49:22.018271 11287 net.cpp:148] Top shape: 24 16 28 28 (301056)
I0403 14:49:22.018291 11287 net.cpp:156] Memory required for data: 535880736
I0403 14:49:22.018313 11287 layer_factory.hpp:77] Creating layer inception_3a/relu_5x5_reduce
I0403 14:49:22.018337 11287 net.cpp:91] Creating Layer inception_3a/relu_5x5_reduce
I0403 14:49:22.018362 11287 net.cpp:425] inception_3a/relu_5x5_reduce <- inception_3a/5x5_reduce
I0403 14:49:22.018388 11287 net.cpp:386] inception_3a/relu_5x5_reduce -> inception_3a/5x5_reduce (in-place)
I0403 14:49:22.018841 11287 net.cpp:141] Setting up inception_3a/relu_5x5_reduce
I0403 14:49:22.018874 11287 net.cpp:148] Top shape: 24 16 28 28 (301056)
I0403 14:49:22.018893 11287 net.cpp:156] Memory required for data: 537084960
I0403 14:49:22.018911 11287 layer_factory.hpp:77] Creating layer inception_3a/5x5
I0403 14:49:22.018939 11287 net.cpp:91] Creating Layer inception_3a/5x5
I0403 14:49:22.018962 11287 net.cpp:425] inception_3a/5x5 <- inception_3a/5x5_reduce
I0403 14:49:22.018987 11287 net.cpp:399] inception_3a/5x5 -> inception_3a/5x5
I0403 14:49:22.020184 11287 net.cpp:141] Setting up inception_3a/5x5
I0403 14:49:22.020221 11287 net.cpp:148] Top shape: 24 32 28 28 (602112)
I0403 14:49:22.020241 11287 net.cpp:156] Memory required for data: 539493408
I0403 14:49:22.020264 11287 layer_factory.hpp:77] Creating layer inception_3a/relu_5x5
I0403 14:49:22.020287 11287 net.cpp:91] Creating Layer inception_3a/relu_5x5
I0403 14:49:22.020305 11287 net.cpp:425] inception_3a/relu_5x5 <- inception_3a/5x5
I0403 14:49:22.020328 11287 net.cpp:386] inception_3a/relu_5x5 -> inception_3a/5x5 (in-place)
I0403 14:49:22.020540 11287 net.cpp:141] Setting up inception_3a/relu_5x5
I0403 14:49:22.020570 11287 net.cpp:148] Top shape: 24 32 28 28 (602112)
I0403 14:49:22.020588 11287 net.cpp:156] Memory required for data: 541901856
I0403 14:49:22.020606 11287 layer_factory.hpp:77] Creating layer inception_3a/pool
I0403 14:49:22.020629 11287 net.cpp:91] Creating Layer inception_3a/pool
I0403 14:49:22.020665 11287 net.cpp:425] inception_3a/pool <- pool2/3x3_s2_pool2/3x3_s2_0_split_3
I0403 14:49:22.020694 11287 net.cpp:399] inception_3a/pool -> inception_3a/pool
I0403 14:49:22.020764 11287 net.cpp:141] Setting up inception_3a/pool
I0403 14:49:22.020793 11287 net.cpp:148] Top shape: 24 192 28 28 (3612672)
I0403 14:49:22.020812 11287 net.cpp:156] Memory required for data: 556352544
I0403 14:49:22.020828 11287 layer_factory.hpp:77] Creating layer inception_3a/pool_proj
I0403 14:49:22.020855 11287 net.cpp:91] Creating Layer inception_3a/pool_proj
I0403 14:49:22.020876 11287 net.cpp:425] inception_3a/pool_proj <- inception_3a/pool
I0403 14:49:22.020898 11287 net.cpp:399] inception_3a/pool_proj -> inception_3a/pool_proj
I0403 14:49:22.022047 11287 net.cpp:141] Setting up inception_3a/pool_proj
I0403 14:49:22.022081 11287 net.cpp:148] Top shape: 24 32 28 28 (602112)
I0403 14:49:22.022100 11287 net.cpp:156] Memory required for data: 558760992
I0403 14:49:22.022130 11287 layer_factory.hpp:77] Creating layer inception_3a/relu_pool_proj
I0403 14:49:22.022156 11287 net.cpp:91] Creating Layer inception_3a/relu_pool_proj
I0403 14:49:22.022174 11287 net.cpp:425] inception_3a/relu_pool_proj <- inception_3a/pool_proj
I0403 14:49:22.022197 11287 net.cpp:386] inception_3a/relu_pool_proj -> inception_3a/pool_proj (in-place)
I0403 14:49:22.022537 11287 net.cpp:141] Setting up inception_3a/relu_pool_proj
I0403 14:49:22.022570 11287 net.cpp:148] Top shape: 24 32 28 28 (602112)
I0403 14:49:22.022589 11287 net.cpp:156] Memory required for data: 561169440
I0403 14:49:22.022608 11287 layer_factory.hpp:77] Creating layer inception_3a/output
I0403 14:49:22.022629 11287 net.cpp:91] Creating Layer inception_3a/output
I0403 14:49:22.022647 11287 net.cpp:425] inception_3a/output <- inception_3a/1x1
I0403 14:49:22.022667 11287 net.cpp:425] inception_3a/output <- inception_3a/3x3
I0403 14:49:22.022686 11287 net.cpp:425] inception_3a/output <- inception_3a/5x5
I0403 14:49:22.022704 11287 net.cpp:425] inception_3a/output <- inception_3a/pool_proj
I0403 14:49:22.022727 11287 net.cpp:399] inception_3a/output -> inception_3a/output
I0403 14:49:22.022781 11287 net.cpp:141] Setting up inception_3a/output
I0403 14:49:22.022809 11287 net.cpp:148] Top shape: 24 256 28 28 (4816896)
I0403 14:49:22.022830 11287 net.cpp:156] Memory required for data: 580437024
I0403 14:49:22.022848 11287 layer_factory.hpp:77] Creating layer inception_3a/output_inception_3a/output_0_split
I0403 14:49:22.022871 11287 net.cpp:91] Creating Layer inception_3a/output_inception_3a/output_0_split
I0403 14:49:22.022888 11287 net.cpp:425] inception_3a/output_inception_3a/output_0_split <- inception_3a/output
I0403 14:49:22.022909 11287 net.cpp:399] inception_3a/output_inception_3a/output_0_split -> inception_3a/output_inception_3a/output_0_split_0
I0403 14:49:22.022933 11287 net.cpp:399] inception_3a/output_inception_3a/output_0_split -> inception_3a/output_inception_3a/output_0_split_1
I0403 14:49:22.022963 11287 net.cpp:399] inception_3a/output_inception_3a/output_0_split -> inception_3a/output_inception_3a/output_0_split_2
I0403 14:49:22.022990 11287 net.cpp:399] inception_3a/output_inception_3a/output_0_split -> inception_3a/output_inception_3a/output_0_split_3
I0403 14:49:22.023078 11287 net.cpp:141] Setting up inception_3a/output_inception_3a/output_0_split
I0403 14:49:22.023107 11287 net.cpp:148] Top shape: 24 256 28 28 (4816896)
I0403 14:49:22.023128 11287 net.cpp:148] Top shape: 24 256 28 28 (4816896)
I0403 14:49:22.023146 11287 net.cpp:148] Top shape: 24 256 28 28 (4816896)
I0403 14:49:22.023166 11287 net.cpp:148] Top shape: 24 256 28 28 (4816896)
I0403 14:49:22.023182 11287 net.cpp:156] Memory required for data: 657507360
I0403 14:49:22.023200 11287 layer_factory.hpp:77] Creating layer inception_3b/1x1
I0403 14:49:22.023228 11287 net.cpp:91] Creating Layer inception_3b/1x1
I0403 14:49:22.023250 11287 net.cpp:425] inception_3b/1x1 <- inception_3a/output_inception_3a/output_0_split_0
I0403 14:49:22.023273 11287 net.cpp:399] inception_3b/1x1 -> inception_3b/1x1
I0403 14:49:22.024639 11287 net.cpp:141] Setting up inception_3b/1x1
I0403 14:49:22.024688 11287 net.cpp:148] Top shape: 24 128 28 28 (2408448)
I0403 14:49:22.024708 11287 net.cpp:156] Memory required for data: 667141152
I0403 14:49:22.024730 11287 layer_factory.hpp:77] Creating layer inception_3b/relu_1x1
I0403 14:49:22.024755 11287 net.cpp:91] Creating Layer inception_3b/relu_1x1
I0403 14:49:22.024776 11287 net.cpp:425] inception_3b/relu_1x1 <- inception_3b/1x1
I0403 14:49:22.024798 11287 net.cpp:386] inception_3b/relu_1x1 -> inception_3b/1x1 (in-place)
I0403 14:49:22.025012 11287 net.cpp:141] Setting up inception_3b/relu_1x1
I0403 14:49:22.025041 11287 net.cpp:148] Top shape: 24 128 28 28 (2408448)
I0403 14:49:22.025059 11287 net.cpp:156] Memory required for data: 676774944
I0403 14:49:22.025077 11287 layer_factory.hpp:77] Creating layer inception_3b/3x3_reduce
I0403 14:49:22.025105 11287 net.cpp:91] Creating Layer inception_3b/3x3_reduce
I0403 14:49:22.025127 11287 net.cpp:425] inception_3b/3x3_reduce <- inception_3a/output_inception_3a/output_0_split_1
I0403 14:49:22.025153 11287 net.cpp:399] inception_3b/3x3_reduce -> inception_3b/3x3_reduce
I0403 14:49:22.026518 11287 net.cpp:141] Setting up inception_3b/3x3_reduce
I0403 14:49:22.026552 11287 net.cpp:148] Top shape: 24 128 28 28 (2408448)
I0403 14:49:22.026577 11287 net.cpp:156] Memory required for data: 686408736
I0403 14:49:22.026600 11287 layer_factory.hpp:77] Creating layer inception_3b/relu_3x3_reduce
I0403 14:49:22.026623 11287 net.cpp:91] Creating Layer inception_3b/relu_3x3_reduce
I0403 14:49:22.026641 11287 net.cpp:425] inception_3b/relu_3x3_reduce <- inception_3b/3x3_reduce
I0403 14:49:22.026661 11287 net.cpp:386] inception_3b/relu_3x3_reduce -> inception_3b/3x3_reduce (in-place)
I0403 14:49:22.026868 11287 net.cpp:141] Setting up inception_3b/relu_3x3_reduce
I0403 14:49:22.026901 11287 net.cpp:148] Top shape: 24 128 28 28 (2408448)
I0403 14:49:22.026921 11287 net.cpp:156] Memory required for data: 696042528
I0403 14:49:22.026939 11287 layer_factory.hpp:77] Creating layer inception_3b/3x3
I0403 14:49:22.026968 11287 net.cpp:91] Creating Layer inception_3b/3x3
I0403 14:49:22.026990 11287 net.cpp:425] inception_3b/3x3 <- inception_3b/3x3_reduce
I0403 14:49:22.027016 11287 net.cpp:399] inception_3b/3x3 -> inception_3b/3x3
I0403 14:49:22.030565 11287 net.cpp:141] Setting up inception_3b/3x3
I0403 14:49:22.030601 11287 net.cpp:148] Top shape: 24 192 28 28 (3612672)
I0403 14:49:22.030622 11287 net.cpp:156] Memory required for data: 710493216
I0403 14:49:22.030643 11287 layer_factory.hpp:77] Creating layer inception_3b/relu_3x3
I0403 14:49:22.030665 11287 net.cpp:91] Creating Layer inception_3b/relu_3x3
I0403 14:49:22.030684 11287 net.cpp:425] inception_3b/relu_3x3 <- inception_3b/3x3
I0403 14:49:22.030711 11287 net.cpp:386] inception_3b/relu_3x3 -> inception_3b/3x3 (in-place)
I0403 14:49:22.031080 11287 net.cpp:141] Setting up inception_3b/relu_3x3
I0403 14:49:22.031114 11287 net.cpp:148] Top shape: 24 192 28 28 (3612672)
I0403 14:49:22.031134 11287 net.cpp:156] Memory required for data: 724943904
I0403 14:49:22.031158 11287 layer_factory.hpp:77] Creating layer inception_3b/5x5_reduce
I0403 14:49:22.031186 11287 net.cpp:91] Creating Layer inception_3b/5x5_reduce
I0403 14:49:22.031211 11287 net.cpp:425] inception_3b/5x5_reduce <- inception_3a/output_inception_3a/output_0_split_2
I0403 14:49:22.031239 11287 net.cpp:399] inception_3b/5x5_reduce -> inception_3b/5x5_reduce
I0403 14:49:22.032441 11287 net.cpp:141] Setting up inception_3b/5x5_reduce
I0403 14:49:22.032480 11287 net.cpp:148] Top shape: 24 32 28 28 (602112)
I0403 14:49:22.032500 11287 net.cpp:156] Memory required for data: 727352352
I0403 14:49:22.032521 11287 layer_factory.hpp:77] Creating layer inception_3b/relu_5x5_reduce
I0403 14:49:22.032544 11287 net.cpp:91] Creating Layer inception_3b/relu_5x5_reduce
I0403 14:49:22.032563 11287 net.cpp:425] inception_3b/relu_5x5_reduce <- inception_3b/5x5_reduce
I0403 14:49:22.032588 11287 net.cpp:386] inception_3b/relu_5x5_reduce -> inception_3b/5x5_reduce (in-place)
I0403 14:49:22.032820 11287 net.cpp:141] Setting up inception_3b/relu_5x5_reduce
I0403 14:49:22.032850 11287 net.cpp:148] Top shape: 24 32 28 28 (602112)
I0403 14:49:22.032868 11287 net.cpp:156] Memory required for data: 729760800
I0403 14:49:22.032886 11287 layer_factory.hpp:77] Creating layer inception_3b/5x5
I0403 14:49:22.032914 11287 net.cpp:91] Creating Layer inception_3b/5x5
I0403 14:49:22.032937 11287 net.cpp:425] inception_3b/5x5 <- inception_3b/5x5_reduce
I0403 14:49:22.032963 11287 net.cpp:399] inception_3b/5x5 -> inception_3b/5x5
I0403 14:49:22.035325 11287 net.cpp:141] Setting up inception_3b/5x5
I0403 14:49:22.035365 11287 net.cpp:148] Top shape: 24 96 28 28 (1806336)
I0403 14:49:22.035385 11287 net.cpp:156] Memory required for data: 736986144
I0403 14:49:22.035408 11287 layer_factory.hpp:77] Creating layer inception_3b/relu_5x5
I0403 14:49:22.035434 11287 net.cpp:91] Creating Layer inception_3b/relu_5x5
I0403 14:49:22.035454 11287 net.cpp:425] inception_3b/relu_5x5 <- inception_3b/5x5
I0403 14:49:22.035475 11287 net.cpp:386] inception_3b/relu_5x5 -> inception_3b/5x5 (in-place)
I0403 14:49:22.035702 11287 net.cpp:141] Setting up inception_3b/relu_5x5
I0403 14:49:22.035734 11287 net.cpp:148] Top shape: 24 96 28 28 (1806336)
I0403 14:49:22.035753 11287 net.cpp:156] Memory required for data: 744211488
I0403 14:49:22.035770 11287 layer_factory.hpp:77] Creating layer inception_3b/pool
I0403 14:49:22.035792 11287 net.cpp:91] Creating Layer inception_3b/pool
I0403 14:49:22.035812 11287 net.cpp:425] inception_3b/pool <- inception_3a/output_inception_3a/output_0_split_3
I0403 14:49:22.035835 11287 net.cpp:399] inception_3b/pool -> inception_3b/pool
I0403 14:49:22.035902 11287 net.cpp:141] Setting up inception_3b/pool
I0403 14:49:22.035938 11287 net.cpp:148] Top shape: 24 256 28 28 (4816896)
I0403 14:49:22.035958 11287 net.cpp:156] Memory required for data: 763479072
I0403 14:49:22.035975 11287 layer_factory.hpp:77] Creating layer inception_3b/pool_proj
I0403 14:49:22.036013 11287 net.cpp:91] Creating Layer inception_3b/pool_proj
I0403 14:49:22.036046 11287 net.cpp:425] inception_3b/pool_proj <- inception_3b/pool
I0403 14:49:22.036082 11287 net.cpp:399] inception_3b/pool_proj -> inception_3b/pool_proj
I0403 14:49:22.037356 11287 net.cpp:141] Setting up inception_3b/pool_proj
I0403 14:49:22.037390 11287 net.cpp:148] Top shape: 24 64 28 28 (1204224)
I0403 14:49:22.037410 11287 net.cpp:156] Memory required for data: 768295968
I0403 14:49:22.037431 11287 layer_factory.hpp:77] Creating layer inception_3b/relu_pool_proj
I0403 14:49:22.037456 11287 net.cpp:91] Creating Layer inception_3b/relu_pool_proj
I0403 14:49:22.037477 11287 net.cpp:425] inception_3b/relu_pool_proj <- inception_3b/pool_proj
I0403 14:49:22.037498 11287 net.cpp:386] inception_3b/relu_pool_proj -> inception_3b/pool_proj (in-place)
I0403 14:49:22.037966 11287 net.cpp:141] Setting up inception_3b/relu_pool_proj
I0403 14:49:22.037998 11287 net.cpp:148] Top shape: 24 64 28 28 (1204224)
I0403 14:49:22.038017 11287 net.cpp:156] Memory required for data: 773112864
I0403 14:49:22.038033 11287 layer_factory.hpp:77] Creating layer inception_3b/output
I0403 14:49:22.038055 11287 net.cpp:91] Creating Layer inception_3b/output
I0403 14:49:22.038075 11287 net.cpp:425] inception_3b/output <- inception_3b/1x1
I0403 14:49:22.038095 11287 net.cpp:425] inception_3b/output <- inception_3b/3x3
I0403 14:49:22.038115 11287 net.cpp:425] inception_3b/output <- inception_3b/5x5
I0403 14:49:22.038136 11287 net.cpp:425] inception_3b/output <- inception_3b/pool_proj
I0403 14:49:22.038159 11287 net.cpp:399] inception_3b/output -> inception_3b/output
I0403 14:49:22.038211 11287 net.cpp:141] Setting up inception_3b/output
I0403 14:49:22.038242 11287 net.cpp:148] Top shape: 24 480 28 28 (9031680)
I0403 14:49:22.038262 11287 net.cpp:156] Memory required for data: 809239584
I0403 14:49:22.038280 11287 layer_factory.hpp:77] Creating layer pool3/3x3_s2
I0403 14:49:22.038301 11287 net.cpp:91] Creating Layer pool3/3x3_s2
I0403 14:49:22.038322 11287 net.cpp:425] pool3/3x3_s2 <- inception_3b/output
I0403 14:49:22.038369 11287 net.cpp:399] pool3/3x3_s2 -> pool3/3x3_s2
I0403 14:49:22.038442 11287 net.cpp:141] Setting up pool3/3x3_s2
I0403 14:49:22.038471 11287 net.cpp:148] Top shape: 24 480 14 14 (2257920)
I0403 14:49:22.038491 11287 net.cpp:156] Memory required for data: 818271264
I0403 14:49:22.038508 11287 layer_factory.hpp:77] Creating layer pool3/3x3_s2_pool3/3x3_s2_0_split
I0403 14:49:22.038532 11287 net.cpp:91] Creating Layer pool3/3x3_s2_pool3/3x3_s2_0_split
I0403 14:49:22.038552 11287 net.cpp:425] pool3/3x3_s2_pool3/3x3_s2_0_split <- pool3/3x3_s2
I0403 14:49:22.038573 11287 net.cpp:399] pool3/3x3_s2_pool3/3x3_s2_0_split -> pool3/3x3_s2_pool3/3x3_s2_0_split_0
I0403 14:49:22.038595 11287 net.cpp:399] pool3/3x3_s2_pool3/3x3_s2_0_split -> pool3/3x3_s2_pool3/3x3_s2_0_split_1
I0403 14:49:22.038619 11287 net.cpp:399] pool3/3x3_s2_pool3/3x3_s2_0_split -> pool3/3x3_s2_pool3/3x3_s2_0_split_2
I0403 14:49:22.038648 11287 net.cpp:399] pool3/3x3_s2_pool3/3x3_s2_0_split -> pool3/3x3_s2_pool3/3x3_s2_0_split_3
I0403 14:49:22.038741 11287 net.cpp:141] Setting up pool3/3x3_s2_pool3/3x3_s2_0_split
I0403 14:49:22.038770 11287 net.cpp:148] Top shape: 24 480 14 14 (2257920)
I0403 14:49:22.038791 11287 net.cpp:148] Top shape: 24 480 14 14 (2257920)
I0403 14:49:22.038810 11287 net.cpp:148] Top shape: 24 480 14 14 (2257920)
I0403 14:49:22.038827 11287 net.cpp:148] Top shape: 24 480 14 14 (2257920)
I0403 14:49:22.038844 11287 net.cpp:156] Memory required for data: 854397984
I0403 14:49:22.038862 11287 layer_factory.hpp:77] Creating layer inception_4a/1x1
I0403 14:49:22.038889 11287 net.cpp:91] Creating Layer inception_4a/1x1
I0403 14:49:22.038910 11287 net.cpp:425] inception_4a/1x1 <- pool3/3x3_s2_pool3/3x3_s2_0_split_0
I0403 14:49:22.038935 11287 net.cpp:399] inception_4a/1x1 -> inception_4a/1x1
I0403 14:49:22.040840 11287 net.cpp:141] Setting up inception_4a/1x1
I0403 14:49:22.040875 11287 net.cpp:148] Top shape: 24 192 14 14 (903168)
I0403 14:49:22.040895 11287 net.cpp:156] Memory required for data: 858010656
I0403 14:49:22.040917 11287 layer_factory.hpp:77] Creating layer inception_4a/relu_1x1
I0403 14:49:22.040943 11287 net.cpp:91] Creating Layer inception_4a/relu_1x1
I0403 14:49:22.040963 11287 net.cpp:425] inception_4a/relu_1x1 <- inception_4a/1x1
I0403 14:49:22.040984 11287 net.cpp:386] inception_4a/relu_1x1 -> inception_4a/1x1 (in-place)
I0403 14:49:22.041198 11287 net.cpp:141] Setting up inception_4a/relu_1x1
I0403 14:49:22.041227 11287 net.cpp:148] Top shape: 24 192 14 14 (903168)
I0403 14:49:22.041245 11287 net.cpp:156] Memory required for data: 861623328
I0403 14:49:22.041263 11287 layer_factory.hpp:77] Creating layer inception_4a/3x3_reduce
I0403 14:49:22.041293 11287 net.cpp:91] Creating Layer inception_4a/3x3_reduce
I0403 14:49:22.041316 11287 net.cpp:425] inception_4a/3x3_reduce <- pool3/3x3_s2_pool3/3x3_s2_0_split_1
I0403 14:49:22.041338 11287 net.cpp:399] inception_4a/3x3_reduce -> inception_4a/3x3_reduce
I0403 14:49:22.042893 11287 net.cpp:141] Setting up inception_4a/3x3_reduce
I0403 14:49:22.042928 11287 net.cpp:148] Top shape: 24 96 14 14 (451584)
I0403 14:49:22.042948 11287 net.cpp:156] Memory required for data: 863429664
I0403 14:49:22.042978 11287 layer_factory.hpp:77] Creating layer inception_4a/relu_3x3_reduce
I0403 14:49:22.043002 11287 net.cpp:91] Creating Layer inception_4a/relu_3x3_reduce
I0403 14:49:22.043026 11287 net.cpp:425] inception_4a/relu_3x3_reduce <- inception_4a/3x3_reduce
I0403 14:49:22.043047 11287 net.cpp:386] inception_4a/relu_3x3_reduce -> inception_4a/3x3_reduce (in-place)
I0403 14:49:22.043263 11287 net.cpp:141] Setting up inception_4a/relu_3x3_reduce
I0403 14:49:22.043293 11287 net.cpp:148] Top shape: 24 96 14 14 (451584)
I0403 14:49:22.043313 11287 net.cpp:156] Memory required for data: 865236000
I0403 14:49:22.043331 11287 layer_factory.hpp:77] Creating layer inception_4a/3x3
I0403 14:49:22.043365 11287 net.cpp:91] Creating Layer inception_4a/3x3
I0403 14:49:22.043387 11287 net.cpp:425] inception_4a/3x3 <- inception_4a/3x3_reduce
I0403 14:49:22.043411 11287 net.cpp:399] inception_4a/3x3 -> inception_4a/3x3
I0403 14:49:22.046614 11287 net.cpp:141] Setting up inception_4a/3x3
I0403 14:49:22.046653 11287 net.cpp:148] Top shape: 24 208 14 14 (978432)
I0403 14:49:22.046674 11287 net.cpp:156] Memory required for data: 869149728
I0403 14:49:22.046696 11287 layer_factory.hpp:77] Creating layer inception_4a/relu_3x3
I0403 14:49:22.046726 11287 net.cpp:91] Creating Layer inception_4a/relu_3x3
I0403 14:49:22.046759 11287 net.cpp:425] inception_4a/relu_3x3 <- inception_4a/3x3
I0403 14:49:22.046790 11287 net.cpp:386] inception_4a/relu_3x3 -> inception_4a/3x3 (in-place)
I0403 14:49:22.047132 11287 net.cpp:141] Setting up inception_4a/relu_3x3
I0403 14:49:22.047166 11287 net.cpp:148] Top shape: 24 208 14 14 (978432)
I0403 14:49:22.047186 11287 net.cpp:156] Memory required for data: 873063456
I0403 14:49:22.047204 11287 layer_factory.hpp:77] Creating layer inception_4a/5x5_reduce
I0403 14:49:22.047229 11287 net.cpp:91] Creating Layer inception_4a/5x5_reduce
I0403 14:49:22.047252 11287 net.cpp:425] inception_4a/5x5_reduce <- pool3/3x3_s2_pool3/3x3_s2_0_split_2
I0403 14:49:22.047286 11287 net.cpp:399] inception_4a/5x5_reduce -> inception_4a/5x5_reduce
I0403 14:49:22.048574 11287 net.cpp:141] Setting up inception_4a/5x5_reduce
I0403 14:49:22.048610 11287 net.cpp:148] Top shape: 24 16 14 14 (75264)
I0403 14:49:22.048631 11287 net.cpp:156] Memory required for data: 873364512
I0403 14:49:22.048653 11287 layer_factory.hpp:77] Creating layer inception_4a/relu_5x5_reduce
I0403 14:49:22.048676 11287 net.cpp:91] Creating Layer inception_4a/relu_5x5_reduce
I0403 14:49:22.048696 11287 net.cpp:425] inception_4a/relu_5x5_reduce <- inception_4a/5x5_reduce
I0403 14:49:22.048717 11287 net.cpp:386] inception_4a/relu_5x5_reduce -> inception_4a/5x5_reduce (in-place)
I0403 14:49:22.048931 11287 net.cpp:141] Setting up inception_4a/relu_5x5_reduce
I0403 14:49:22.048961 11287 net.cpp:148] Top shape: 24 16 14 14 (75264)
I0403 14:49:22.048979 11287 net.cpp:156] Memory required for data: 873665568
I0403 14:49:22.048997 11287 layer_factory.hpp:77] Creating layer inception_4a/5x5
I0403 14:49:22.049026 11287 net.cpp:91] Creating Layer inception_4a/5x5
I0403 14:49:22.049046 11287 net.cpp:425] inception_4a/5x5 <- inception_4a/5x5_reduce
I0403 14:49:22.049072 11287 net.cpp:399] inception_4a/5x5 -> inception_4a/5x5
I0403 14:49:22.050428 11287 net.cpp:141] Setting up inception_4a/5x5
I0403 14:49:22.050463 11287 net.cpp:148] Top shape: 24 48 14 14 (225792)
I0403 14:49:22.050482 11287 net.cpp:156] Memory required for data: 874568736
I0403 14:49:22.050504 11287 layer_factory.hpp:77] Creating layer inception_4a/relu_5x5
I0403 14:49:22.050526 11287 net.cpp:91] Creating Layer inception_4a/relu_5x5
I0403 14:49:22.050546 11287 net.cpp:425] inception_4a/relu_5x5 <- inception_4a/5x5
I0403 14:49:22.050570 11287 net.cpp:386] inception_4a/relu_5x5 -> inception_4a/5x5 (in-place)
I0403 14:49:22.050783 11287 net.cpp:141] Setting up inception_4a/relu_5x5
I0403 14:49:22.050813 11287 net.cpp:148] Top shape: 24 48 14 14 (225792)
I0403 14:49:22.050830 11287 net.cpp:156] Memory required for data: 875471904
I0403 14:49:22.050848 11287 layer_factory.hpp:77] Creating layer inception_4a/pool
I0403 14:49:22.050873 11287 net.cpp:91] Creating Layer inception_4a/pool
I0403 14:49:22.050894 11287 net.cpp:425] inception_4a/pool <- pool3/3x3_s2_pool3/3x3_s2_0_split_3
I0403 14:49:22.050915 11287 net.cpp:399] inception_4a/pool -> inception_4a/pool
I0403 14:49:22.050987 11287 net.cpp:141] Setting up inception_4a/pool
I0403 14:49:22.051017 11287 net.cpp:148] Top shape: 24 480 14 14 (2257920)
I0403 14:49:22.051033 11287 net.cpp:156] Memory required for data: 884503584
I0403 14:49:22.051050 11287 layer_factory.hpp:77] Creating layer inception_4a/pool_proj
I0403 14:49:22.051076 11287 net.cpp:91] Creating Layer inception_4a/pool_proj
I0403 14:49:22.051097 11287 net.cpp:425] inception_4a/pool_proj <- inception_4a/pool
I0403 14:49:22.051125 11287 net.cpp:399] inception_4a/pool_proj -> inception_4a/pool_proj
I0403 14:49:22.052533 11287 net.cpp:141] Setting up inception_4a/pool_proj
I0403 14:49:22.052568 11287 net.cpp:148] Top shape: 24 64 14 14 (301056)
I0403 14:49:22.052605 11287 net.cpp:156] Memory required for data: 885707808
I0403 14:49:22.052630 11287 layer_factory.hpp:77] Creating layer inception_4a/relu_pool_proj
I0403 14:49:22.052656 11287 net.cpp:91] Creating Layer inception_4a/relu_pool_proj
I0403 14:49:22.052677 11287 net.cpp:425] inception_4a/relu_pool_proj <- inception_4a/pool_proj
I0403 14:49:22.052698 11287 net.cpp:386] inception_4a/relu_pool_proj -> inception_4a/pool_proj (in-place)
I0403 14:49:22.053033 11287 net.cpp:141] Setting up inception_4a/relu_pool_proj
I0403 14:49:22.053066 11287 net.cpp:148] Top shape: 24 64 14 14 (301056)
I0403 14:49:22.053084 11287 net.cpp:156] Memory required for data: 886912032
I0403 14:49:22.053102 11287 layer_factory.hpp:77] Creating layer inception_4a/output
I0403 14:49:22.053122 11287 net.cpp:91] Creating Layer inception_4a/output
I0403 14:49:22.053140 11287 net.cpp:425] inception_4a/output <- inception_4a/1x1
I0403 14:49:22.053160 11287 net.cpp:425] inception_4a/output <- inception_4a/3x3
I0403 14:49:22.053179 11287 net.cpp:425] inception_4a/output <- inception_4a/5x5
I0403 14:49:22.053199 11287 net.cpp:425] inception_4a/output <- inception_4a/pool_proj
I0403 14:49:22.053221 11287 net.cpp:399] inception_4a/output -> inception_4a/output
I0403 14:49:22.053278 11287 net.cpp:141] Setting up inception_4a/output
I0403 14:49:22.053305 11287 net.cpp:148] Top shape: 24 512 14 14 (2408448)
I0403 14:49:22.053325 11287 net.cpp:156] Memory required for data: 896545824
I0403 14:49:22.053344 11287 layer_factory.hpp:77] Creating layer inception_4a/output_inception_4a/output_0_split
I0403 14:49:22.053370 11287 net.cpp:91] Creating Layer inception_4a/output_inception_4a/output_0_split
I0403 14:49:22.053390 11287 net.cpp:425] inception_4a/output_inception_4a/output_0_split <- inception_4a/output
I0403 14:49:22.053413 11287 net.cpp:399] inception_4a/output_inception_4a/output_0_split -> inception_4a/output_inception_4a/output_0_split_0
I0403 14:49:22.053439 11287 net.cpp:399] inception_4a/output_inception_4a/output_0_split -> inception_4a/output_inception_4a/output_0_split_1
I0403 14:49:22.053464 11287 net.cpp:399] inception_4a/output_inception_4a/output_0_split -> inception_4a/output_inception_4a/output_0_split_2
I0403 14:49:22.053488 11287 net.cpp:399] inception_4a/output_inception_4a/output_0_split -> inception_4a/output_inception_4a/output_0_split_3
I0403 14:49:22.053513 11287 net.cpp:399] inception_4a/output_inception_4a/output_0_split -> inception_4a/output_inception_4a/output_0_split_4
I0403 14:49:22.053622 11287 net.cpp:141] Setting up inception_4a/output_inception_4a/output_0_split
I0403 14:49:22.053654 11287 net.cpp:148] Top shape: 24 512 14 14 (2408448)
I0403 14:49:22.053676 11287 net.cpp:148] Top shape: 24 512 14 14 (2408448)
I0403 14:49:22.053695 11287 net.cpp:148] Top shape: 24 512 14 14 (2408448)
I0403 14:49:22.053714 11287 net.cpp:148] Top shape: 24 512 14 14 (2408448)
I0403 14:49:22.053732 11287 net.cpp:148] Top shape: 24 512 14 14 (2408448)
I0403 14:49:22.053750 11287 net.cpp:156] Memory required for data: 944714784
I0403 14:49:22.053767 11287 layer_factory.hpp:77] Creating layer loss1/ave_pool
I0403 14:49:22.053788 11287 net.cpp:91] Creating Layer loss1/ave_pool
I0403 14:49:22.053807 11287 net.cpp:425] loss1/ave_pool <- inception_4a/output_inception_4a/output_0_split_0
I0403 14:49:22.053831 11287 net.cpp:399] loss1/ave_pool -> loss1/ave_pool
I0403 14:49:22.054080 11287 net.cpp:141] Setting up loss1/ave_pool
I0403 14:49:22.054112 11287 net.cpp:148] Top shape: 24 512 4 4 (196608)
I0403 14:49:22.054131 11287 net.cpp:156] Memory required for data: 945501216
I0403 14:49:22.054148 11287 layer_factory.hpp:77] Creating layer loss1/conv
I0403 14:49:22.054175 11287 net.cpp:91] Creating Layer loss1/conv
I0403 14:49:22.054196 11287 net.cpp:425] loss1/conv <- loss1/ave_pool
I0403 14:49:22.054220 11287 net.cpp:399] loss1/conv -> loss1/conv
I0403 14:49:22.055934 11287 net.cpp:141] Setting up loss1/conv
I0403 14:49:22.055974 11287 net.cpp:148] Top shape: 24 128 4 4 (49152)
I0403 14:49:22.056010 11287 net.cpp:156] Memory required for data: 945697824
I0403 14:49:22.056035 11287 layer_factory.hpp:77] Creating layer loss1/relu_conv
I0403 14:49:22.056056 11287 net.cpp:91] Creating Layer loss1/relu_conv
I0403 14:49:22.056077 11287 net.cpp:425] loss1/relu_conv <- loss1/conv
I0403 14:49:22.056097 11287 net.cpp:386] loss1/relu_conv -> loss1/conv (in-place)
I0403 14:49:22.056447 11287 net.cpp:141] Setting up loss1/relu_conv
I0403 14:49:22.056481 11287 net.cpp:148] Top shape: 24 128 4 4 (49152)
I0403 14:49:22.056501 11287 net.cpp:156] Memory required for data: 945894432
I0403 14:49:22.056519 11287 layer_factory.hpp:77] Creating layer loss1/fc
I0403 14:49:22.056546 11287 net.cpp:91] Creating Layer loss1/fc
I0403 14:49:22.056568 11287 net.cpp:425] loss1/fc <- loss1/conv
I0403 14:49:22.056593 11287 net.cpp:399] loss1/fc -> loss1/fc
I0403 14:49:22.078186 11287 net.cpp:141] Setting up loss1/fc
I0403 14:49:22.078233 11287 net.cpp:148] Top shape: 24 1024 (24576)
I0403 14:49:22.078255 11287 net.cpp:156] Memory required for data: 945992736
I0403 14:49:22.078280 11287 layer_factory.hpp:77] Creating layer loss1/relu_fc
I0403 14:49:22.078307 11287 net.cpp:91] Creating Layer loss1/relu_fc
I0403 14:49:22.078336 11287 net.cpp:425] loss1/relu_fc <- loss1/fc
I0403 14:49:22.078364 11287 net.cpp:386] loss1/relu_fc -> loss1/fc (in-place)
I0403 14:49:22.078614 11287 net.cpp:141] Setting up loss1/relu_fc
I0403 14:49:22.078647 11287 net.cpp:148] Top shape: 24 1024 (24576)
I0403 14:49:22.078666 11287 net.cpp:156] Memory required for data: 946091040
I0403 14:49:22.078685 11287 layer_factory.hpp:77] Creating layer loss1/drop_fc
I0403 14:49:22.078718 11287 net.cpp:91] Creating Layer loss1/drop_fc
I0403 14:49:22.078742 11287 net.cpp:425] loss1/drop_fc <- loss1/fc
I0403 14:49:22.078769 11287 net.cpp:386] loss1/drop_fc -> loss1/fc (in-place)
I0403 14:49:22.078836 11287 net.cpp:141] Setting up loss1/drop_fc
I0403 14:49:22.078866 11287 net.cpp:148] Top shape: 24 1024 (24576)
I0403 14:49:22.078897 11287 net.cpp:156] Memory required for data: 946189344
I0403 14:49:22.078915 11287 layer_factory.hpp:77] Creating layer loss1/classifier_plantvillage
I0403 14:49:22.078939 11287 net.cpp:91] Creating Layer loss1/classifier_plantvillage
I0403 14:49:22.078965 11287 net.cpp:425] loss1/classifier_plantvillage <- loss1/fc
I0403 14:49:22.078987 11287 net.cpp:399] loss1/classifier_plantvillage -> loss1/classifier_plantvillage
I0403 14:49:22.080170 11287 net.cpp:141] Setting up loss1/classifier_plantvillage
I0403 14:49:22.080209 11287 net.cpp:148] Top shape: 24 38 (912)
I0403 14:49:22.080229 11287 net.cpp:156] Memory required for data: 946192992
I0403 14:49:22.080250 11287 layer_factory.hpp:77] Creating layer loss1/classifier_plantvillage_loss1/classifier_plantvillage_0_split
I0403 14:49:22.080273 11287 net.cpp:91] Creating Layer loss1/classifier_plantvillage_loss1/classifier_plantvillage_0_split
I0403 14:49:22.080292 11287 net.cpp:425] loss1/classifier_plantvillage_loss1/classifier_plantvillage_0_split <- loss1/classifier_plantvillage
I0403 14:49:22.080313 11287 net.cpp:399] loss1/classifier_plantvillage_loss1/classifier_plantvillage_0_split -> loss1/classifier_plantvillage_loss1/classifier_plantvillage_0_split_0
I0403 14:49:22.080339 11287 net.cpp:399] loss1/classifier_plantvillage_loss1/classifier_plantvillage_0_split -> loss1/classifier_plantvillage_loss1/classifier_plantvillage_0_split_1
I0403 14:49:22.080370 11287 net.cpp:399] loss1/classifier_plantvillage_loss1/classifier_plantvillage_0_split -> loss1/classifier_plantvillage_loss1/classifier_plantvillage_0_split_2
I0403 14:49:22.080452 11287 net.cpp:141] Setting up loss1/classifier_plantvillage_loss1/classifier_plantvillage_0_split
I0403 14:49:22.080482 11287 net.cpp:148] Top shape: 24 38 (912)
I0403 14:49:22.080502 11287 net.cpp:148] Top shape: 24 38 (912)
I0403 14:49:22.080521 11287 net.cpp:148] Top shape: 24 38 (912)
I0403 14:49:22.080538 11287 net.cpp:156] Memory required for data: 946203936
I0403 14:49:22.080555 11287 layer_factory.hpp:77] Creating layer inception_4b/1x1
I0403 14:49:22.080580 11287 net.cpp:91] Creating Layer inception_4b/1x1
I0403 14:49:22.080621 11287 net.cpp:425] inception_4b/1x1 <- inception_4a/output_inception_4a/output_0_split_1
I0403 14:49:22.080648 11287 net.cpp:399] inception_4b/1x1 -> inception_4b/1x1
I0403 14:49:22.082666 11287 net.cpp:141] Setting up inception_4b/1x1
I0403 14:49:22.082705 11287 net.cpp:148] Top shape: 24 160 14 14 (752640)
I0403 14:49:22.082732 11287 net.cpp:156] Memory required for data: 949214496
I0403 14:49:22.082758 11287 layer_factory.hpp:77] Creating layer inception_4b/relu_1x1
I0403 14:49:22.082790 11287 net.cpp:91] Creating Layer inception_4b/relu_1x1
I0403 14:49:22.082820 11287 net.cpp:425] inception_4b/relu_1x1 <- inception_4b/1x1
I0403 14:49:22.082850 11287 net.cpp:386] inception_4b/relu_1x1 -> inception_4b/1x1 (in-place)
I0403 14:49:22.083082 11287 net.cpp:141] Setting up inception_4b/relu_1x1
I0403 14:49:22.083112 11287 net.cpp:148] Top shape: 24 160 14 14 (752640)
I0403 14:49:22.083139 11287 net.cpp:156] Memory required for data: 952225056
I0403 14:49:22.083158 11287 layer_factory.hpp:77] Creating layer inception_4b/3x3_reduce
I0403 14:49:22.083190 11287 net.cpp:91] Creating Layer inception_4b/3x3_reduce
I0403 14:49:22.083220 11287 net.cpp:425] inception_4b/3x3_reduce <- inception_4a/output_inception_4a/output_0_split_2
I0403 14:49:22.083245 11287 net.cpp:399] inception_4b/3x3_reduce -> inception_4b/3x3_reduce
I0403 14:49:22.084894 11287 net.cpp:141] Setting up inception_4b/3x3_reduce
I0403 14:49:22.084928 11287 net.cpp:148] Top shape: 24 112 14 14 (526848)
I0403 14:49:22.084947 11287 net.cpp:156] Memory required for data: 954332448
I0403 14:49:22.084969 11287 layer_factory.hpp:77] Creating layer inception_4b/relu_3x3_reduce
I0403 14:49:22.084992 11287 net.cpp:91] Creating Layer inception_4b/relu_3x3_reduce
I0403 14:49:22.085011 11287 net.cpp:425] inception_4b/relu_3x3_reduce <- inception_4b/3x3_reduce
I0403 14:49:22.085034 11287 net.cpp:386] inception_4b/relu_3x3_reduce -> inception_4b/3x3_reduce (in-place)
I0403 14:49:22.085391 11287 net.cpp:141] Setting up inception_4b/relu_3x3_reduce
I0403 14:49:22.085424 11287 net.cpp:148] Top shape: 24 112 14 14 (526848)
I0403 14:49:22.085444 11287 net.cpp:156] Memory required for data: 956439840
I0403 14:49:22.085463 11287 layer_factory.hpp:77] Creating layer inception_4b/3x3
I0403 14:49:22.085490 11287 net.cpp:91] Creating Layer inception_4b/3x3
I0403 14:49:22.085511 11287 net.cpp:425] inception_4b/3x3 <- inception_4b/3x3_reduce
I0403 14:49:22.085541 11287 net.cpp:399] inception_4b/3x3 -> inception_4b/3x3
I0403 14:49:22.089205 11287 net.cpp:141] Setting up inception_4b/3x3
I0403 14:49:22.089248 11287 net.cpp:148] Top shape: 24 224 14 14 (1053696)
I0403 14:49:22.089267 11287 net.cpp:156] Memory required for data: 960654624
I0403 14:49:22.089289 11287 layer_factory.hpp:77] Creating layer inception_4b/relu_3x3
I0403 14:49:22.089315 11287 net.cpp:91] Creating Layer inception_4b/relu_3x3
I0403 14:49:22.089337 11287 net.cpp:425] inception_4b/relu_3x3 <- inception_4b/3x3
I0403 14:49:22.089365 11287 net.cpp:386] inception_4b/relu_3x3 -> inception_4b/3x3 (in-place)
I0403 14:49:22.089587 11287 net.cpp:141] Setting up inception_4b/relu_3x3
I0403 14:49:22.089629 11287 net.cpp:148] Top shape: 24 224 14 14 (1053696)
I0403 14:49:22.089653 11287 net.cpp:156] Memory required for data: 964869408
I0403 14:49:22.089679 11287 layer_factory.hpp:77] Creating layer inception_4b/5x5_reduce
I0403 14:49:22.089709 11287 net.cpp:91] Creating Layer inception_4b/5x5_reduce
I0403 14:49:22.089732 11287 net.cpp:425] inception_4b/5x5_reduce <- inception_4a/output_inception_4a/output_0_split_3
I0403 14:49:22.089757 11287 net.cpp:399] inception_4b/5x5_reduce -> inception_4b/5x5_reduce
I0403 14:49:22.091058 11287 net.cpp:141] Setting up inception_4b/5x5_reduce
I0403 14:49:22.091094 11287 net.cpp:148] Top shape: 24 24 14 14 (112896)
I0403 14:49:22.091114 11287 net.cpp:156] Memory required for data: 965320992
I0403 14:49:22.091137 11287 layer_factory.hpp:77] Creating layer inception_4b/relu_5x5_reduce
I0403 14:49:22.091161 11287 net.cpp:91] Creating Layer inception_4b/relu_5x5_reduce
I0403 14:49:22.091198 11287 net.cpp:425] inception_4b/relu_5x5_reduce <- inception_4b/5x5_reduce
I0403 14:49:22.091224 11287 net.cpp:386] inception_4b/relu_5x5_reduce -> inception_4b/5x5_reduce (in-place)
I0403 14:49:22.091451 11287 net.cpp:141] Setting up inception_4b/relu_5x5_reduce
I0403 14:49:22.091481 11287 net.cpp:148] Top shape: 24 24 14 14 (112896)
I0403 14:49:22.091500 11287 net.cpp:156] Memory required for data: 965772576
I0403 14:49:22.091517 11287 layer_factory.hpp:77] Creating layer inception_4b/5x5
I0403 14:49:22.091547 11287 net.cpp:91] Creating Layer inception_4b/5x5
I0403 14:49:22.091568 11287 net.cpp:425] inception_4b/5x5 <- inception_4b/5x5_reduce
I0403 14:49:22.091593 11287 net.cpp:399] inception_4b/5x5 -> inception_4b/5x5
I0403 14:49:22.093077 11287 net.cpp:141] Setting up inception_4b/5x5
I0403 14:49:22.093114 11287 net.cpp:148] Top shape: 24 64 14 14 (301056)
I0403 14:49:22.093134 11287 net.cpp:156] Memory required for data: 966976800
I0403 14:49:22.093155 11287 layer_factory.hpp:77] Creating layer inception_4b/relu_5x5
I0403 14:49:22.093176 11287 net.cpp:91] Creating Layer inception_4b/relu_5x5
I0403 14:49:22.093195 11287 net.cpp:425] inception_4b/relu_5x5 <- inception_4b/5x5
I0403 14:49:22.093216 11287 net.cpp:386] inception_4b/relu_5x5 -> inception_4b/5x5 (in-place)
I0403 14:49:22.093561 11287 net.cpp:141] Setting up inception_4b/relu_5x5
I0403 14:49:22.093597 11287 net.cpp:148] Top shape: 24 64 14 14 (301056)
I0403 14:49:22.093616 11287 net.cpp:156] Memory required for data: 968181024
I0403 14:49:22.093636 11287 layer_factory.hpp:77] Creating layer inception_4b/pool
I0403 14:49:22.093657 11287 net.cpp:91] Creating Layer inception_4b/pool
I0403 14:49:22.093677 11287 net.cpp:425] inception_4b/pool <- inception_4a/output_inception_4a/output_0_split_4
I0403 14:49:22.093698 11287 net.cpp:399] inception_4b/pool -> inception_4b/pool
I0403 14:49:22.093778 11287 net.cpp:141] Setting up inception_4b/pool
I0403 14:49:22.093807 11287 net.cpp:148] Top shape: 24 512 14 14 (2408448)
I0403 14:49:22.093825 11287 net.cpp:156] Memory required for data: 977814816
I0403 14:49:22.093842 11287 layer_factory.hpp:77] Creating layer inception_4b/pool_proj
I0403 14:49:22.093869 11287 net.cpp:91] Creating Layer inception_4b/pool_proj
I0403 14:49:22.093891 11287 net.cpp:425] inception_4b/pool_proj <- inception_4b/pool
I0403 14:49:22.093919 11287 net.cpp:399] inception_4b/pool_proj -> inception_4b/pool_proj
I0403 14:49:22.095376 11287 net.cpp:141] Setting up inception_4b/pool_proj
I0403 14:49:22.095413 11287 net.cpp:148] Top shape: 24 64 14 14 (301056)
I0403 14:49:22.095437 11287 net.cpp:156] Memory required for data: 979019040
I0403 14:49:22.095469 11287 layer_factory.hpp:77] Creating layer inception_4b/relu_pool_proj
I0403 14:49:22.095500 11287 net.cpp:91] Creating Layer inception_4b/relu_pool_proj
I0403 14:49:22.095522 11287 net.cpp:425] inception_4b/relu_pool_proj <- inception_4b/pool_proj
I0403 14:49:22.095556 11287 net.cpp:386] inception_4b/relu_pool_proj -> inception_4b/pool_proj (in-place)
I0403 14:49:22.095789 11287 net.cpp:141] Setting up inception_4b/relu_pool_proj
I0403 14:49:22.095820 11287 net.cpp:148] Top shape: 24 64 14 14 (301056)
I0403 14:49:22.095837 11287 net.cpp:156] Memory required for data: 980223264
I0403 14:49:22.095855 11287 layer_factory.hpp:77] Creating layer inception_4b/output
I0403 14:49:22.095878 11287 net.cpp:91] Creating Layer inception_4b/output
I0403 14:49:22.095896 11287 net.cpp:425] inception_4b/output <- inception_4b/1x1
I0403 14:49:22.095916 11287 net.cpp:425] inception_4b/output <- inception_4b/3x3
I0403 14:49:22.095939 11287 net.cpp:425] inception_4b/output <- inception_4b/5x5
I0403 14:49:22.095957 11287 net.cpp:425] inception_4b/output <- inception_4b/pool_proj
I0403 14:49:22.095978 11287 net.cpp:399] inception_4b/output -> inception_4b/output
I0403 14:49:22.096032 11287 net.cpp:141] Setting up inception_4b/output
I0403 14:49:22.096062 11287 net.cpp:148] Top shape: 24 512 14 14 (2408448)
I0403 14:49:22.096081 11287 net.cpp:156] Memory required for data: 989857056
I0403 14:49:22.096117 11287 layer_factory.hpp:77] Creating layer inception_4b/output_inception_4b/output_0_split
I0403 14:49:22.096138 11287 net.cpp:91] Creating Layer inception_4b/output_inception_4b/output_0_split
I0403 14:49:22.096156 11287 net.cpp:425] inception_4b/output_inception_4b/output_0_split <- inception_4b/output
I0403 14:49:22.096180 11287 net.cpp:399] inception_4b/output_inception_4b/output_0_split -> inception_4b/output_inception_4b/output_0_split_0
I0403 14:49:22.096205 11287 net.cpp:399] inception_4b/output_inception_4b/output_0_split -> inception_4b/output_inception_4b/output_0_split_1
I0403 14:49:22.096230 11287 net.cpp:399] inception_4b/output_inception_4b/output_0_split -> inception_4b/output_inception_4b/output_0_split_2
I0403 14:49:22.096253 11287 net.cpp:399] inception_4b/output_inception_4b/output_0_split -> inception_4b/output_inception_4b/output_0_split_3
I0403 14:49:22.096357 11287 net.cpp:141] Setting up inception_4b/output_inception_4b/output_0_split
I0403 14:49:22.096390 11287 net.cpp:148] Top shape: 24 512 14 14 (2408448)
I0403 14:49:22.096413 11287 net.cpp:148] Top shape: 24 512 14 14 (2408448)
I0403 14:49:22.096432 11287 net.cpp:148] Top shape: 24 512 14 14 (2408448)
I0403 14:49:22.096451 11287 net.cpp:148] Top shape: 24 512 14 14 (2408448)
I0403 14:49:22.096467 11287 net.cpp:156] Memory required for data: 1028392224
I0403 14:49:22.096485 11287 layer_factory.hpp:77] Creating layer inception_4c/1x1
I0403 14:49:22.096509 11287 net.cpp:91] Creating Layer inception_4c/1x1
I0403 14:49:22.096530 11287 net.cpp:425] inception_4c/1x1 <- inception_4b/output_inception_4b/output_0_split_0
I0403 14:49:22.096556 11287 net.cpp:399] inception_4c/1x1 -> inception_4c/1x1
I0403 14:49:22.098299 11287 net.cpp:141] Setting up inception_4c/1x1
I0403 14:49:22.098335 11287 net.cpp:148] Top shape: 24 128 14 14 (602112)
I0403 14:49:22.098361 11287 net.cpp:156] Memory required for data: 1030800672
I0403 14:49:22.098383 11287 layer_factory.hpp:77] Creating layer inception_4c/relu_1x1
I0403 14:49:22.098408 11287 net.cpp:91] Creating Layer inception_4c/relu_1x1
I0403 14:49:22.098428 11287 net.cpp:425] inception_4c/relu_1x1 <- inception_4c/1x1
I0403 14:49:22.098450 11287 net.cpp:386] inception_4c/relu_1x1 -> inception_4c/1x1 (in-place)
I0403 14:49:22.098672 11287 net.cpp:141] Setting up inception_4c/relu_1x1
I0403 14:49:22.098702 11287 net.cpp:148] Top shape: 24 128 14 14 (602112)
I0403 14:49:22.098721 11287 net.cpp:156] Memory required for data: 1033209120
I0403 14:49:22.098739 11287 layer_factory.hpp:77] Creating layer inception_4c/3x3_reduce
I0403 14:49:22.098768 11287 net.cpp:91] Creating Layer inception_4c/3x3_reduce
I0403 14:49:22.098790 11287 net.cpp:425] inception_4c/3x3_reduce <- inception_4b/output_inception_4b/output_0_split_1
I0403 14:49:22.098814 11287 net.cpp:399] inception_4c/3x3_reduce -> inception_4c/3x3_reduce
I0403 14:49:22.101174 11287 net.cpp:141] Setting up inception_4c/3x3_reduce
I0403 14:49:22.101214 11287 net.cpp:148] Top shape: 24 128 14 14 (602112)
I0403 14:49:22.101234 11287 net.cpp:156] Memory required for data: 1035617568
I0403 14:49:22.101256 11287 layer_factory.hpp:77] Creating layer inception_4c/relu_3x3_reduce
I0403 14:49:22.101279 11287 net.cpp:91] Creating Layer inception_4c/relu_3x3_reduce
I0403 14:49:22.101297 11287 net.cpp:425] inception_4c/relu_3x3_reduce <- inception_4c/3x3_reduce
I0403 14:49:22.101321 11287 net.cpp:386] inception_4c/relu_3x3_reduce -> inception_4c/3x3_reduce (in-place)
I0403 14:49:22.101723 11287 net.cpp:141] Setting up inception_4c/relu_3x3_reduce
I0403 14:49:22.101759 11287 net.cpp:148] Top shape: 24 128 14 14 (602112)
I0403 14:49:22.101779 11287 net.cpp:156] Memory required for data: 1038026016
I0403 14:49:22.101797 11287 layer_factory.hpp:77] Creating layer inception_4c/3x3
I0403 14:49:22.101830 11287 net.cpp:91] Creating Layer inception_4c/3x3
I0403 14:49:22.101851 11287 net.cpp:425] inception_4c/3x3 <- inception_4c/3x3_reduce
I0403 14:49:22.101874 11287 net.cpp:399] inception_4c/3x3 -> inception_4c/3x3
I0403 14:49:22.106328 11287 net.cpp:141] Setting up inception_4c/3x3
I0403 14:49:22.106386 11287 net.cpp:148] Top shape: 24 256 14 14 (1204224)
I0403 14:49:22.106411 11287 net.cpp:156] Memory required for data: 1042842912
I0403 14:49:22.106452 11287 layer_factory.hpp:77] Creating layer inception_4c/relu_3x3
I0403 14:49:22.106482 11287 net.cpp:91] Creating Layer inception_4c/relu_3x3
I0403 14:49:22.106501 11287 net.cpp:425] inception_4c/relu_3x3 <- inception_4c/3x3
I0403 14:49:22.106528 11287 net.cpp:386] inception_4c/relu_3x3 -> inception_4c/3x3 (in-place)
I0403 14:49:22.106753 11287 net.cpp:141] Setting up inception_4c/relu_3x3
I0403 14:49:22.106786 11287 net.cpp:148] Top shape: 24 256 14 14 (1204224)
I0403 14:49:22.106807 11287 net.cpp:156] Memory required for data: 1047659808
I0403 14:49:22.106828 11287 layer_factory.hpp:77] Creating layer inception_4c/5x5_reduce
I0403 14:49:22.106865 11287 net.cpp:91] Creating Layer inception_4c/5x5_reduce
I0403 14:49:22.106896 11287 net.cpp:425] inception_4c/5x5_reduce <- inception_4b/output_inception_4b/output_0_split_2
I0403 14:49:22.106925 11287 net.cpp:399] inception_4c/5x5_reduce -> inception_4c/5x5_reduce
I0403 14:49:22.108248 11287 net.cpp:141] Setting up inception_4c/5x5_reduce
I0403 14:49:22.108285 11287 net.cpp:148] Top shape: 24 24 14 14 (112896)
I0403 14:49:22.108306 11287 net.cpp:156] Memory required for data: 1048111392
I0403 14:49:22.108330 11287 layer_factory.hpp:77] Creating layer inception_4c/relu_5x5_reduce
I0403 14:49:22.108356 11287 net.cpp:91] Creating Layer inception_4c/relu_5x5_reduce
I0403 14:49:22.108377 11287 net.cpp:425] inception_4c/relu_5x5_reduce <- inception_4c/5x5_reduce
I0403 14:49:22.108402 11287 net.cpp:386] inception_4c/relu_5x5_reduce -> inception_4c/5x5_reduce (in-place)
I0403 14:49:22.108630 11287 net.cpp:141] Setting up inception_4c/relu_5x5_reduce
I0403 14:49:22.108661 11287 net.cpp:148] Top shape: 24 24 14 14 (112896)
I0403 14:49:22.108680 11287 net.cpp:156] Memory required for data: 1048562976
I0403 14:49:22.108697 11287 layer_factory.hpp:77] Creating layer inception_4c/5x5
I0403 14:49:22.108726 11287 net.cpp:91] Creating Layer inception_4c/5x5
I0403 14:49:22.108747 11287 net.cpp:425] inception_4c/5x5 <- inception_4c/5x5_reduce
I0403 14:49:22.108772 11287 net.cpp:399] inception_4c/5x5 -> inception_4c/5x5
I0403 14:49:22.110278 11287 net.cpp:141] Setting up inception_4c/5x5
I0403 14:49:22.110313 11287 net.cpp:148] Top shape: 24 64 14 14 (301056)
I0403 14:49:22.110334 11287 net.cpp:156] Memory required for data: 1049767200
I0403 14:49:22.110362 11287 layer_factory.hpp:77] Creating layer inception_4c/relu_5x5
I0403 14:49:22.110388 11287 net.cpp:91] Creating Layer inception_4c/relu_5x5
I0403 14:49:22.110410 11287 net.cpp:425] inception_4c/relu_5x5 <- inception_4c/5x5
I0403 14:49:22.110431 11287 net.cpp:386] inception_4c/relu_5x5 -> inception_4c/5x5 (in-place)
I0403 14:49:22.110776 11287 net.cpp:141] Setting up inception_4c/relu_5x5
I0403 14:49:22.110808 11287 net.cpp:148] Top shape: 24 64 14 14 (301056)
I0403 14:49:22.110826 11287 net.cpp:156] Memory required for data: 1050971424
I0403 14:49:22.110844 11287 layer_factory.hpp:77] Creating layer inception_4c/pool
I0403 14:49:22.110869 11287 net.cpp:91] Creating Layer inception_4c/pool
I0403 14:49:22.110891 11287 net.cpp:425] inception_4c/pool <- inception_4b/output_inception_4b/output_0_split_3
I0403 14:49:22.110914 11287 net.cpp:399] inception_4c/pool -> inception_4c/pool
I0403 14:49:22.110994 11287 net.cpp:141] Setting up inception_4c/pool
I0403 14:49:22.111024 11287 net.cpp:148] Top shape: 24 512 14 14 (2408448)
I0403 14:49:22.111042 11287 net.cpp:156] Memory required for data: 1060605216
I0403 14:49:22.111060 11287 layer_factory.hpp:77] Creating layer inception_4c/pool_proj
I0403 14:49:22.111088 11287 net.cpp:91] Creating Layer inception_4c/pool_proj
I0403 14:49:22.111109 11287 net.cpp:425] inception_4c/pool_proj <- inception_4c/pool
I0403 14:49:22.111135 11287 net.cpp:399] inception_4c/pool_proj -> inception_4c/pool_proj
I0403 14:49:22.112673 11287 net.cpp:141] Setting up inception_4c/pool_proj
I0403 14:49:22.112714 11287 net.cpp:148] Top shape: 24 64 14 14 (301056)
I0403 14:49:22.112748 11287 net.cpp:156] Memory required for data: 1061809440
I0403 14:49:22.112772 11287 layer_factory.hpp:77] Creating layer inception_4c/relu_pool_proj
I0403 14:49:22.112794 11287 net.cpp:91] Creating Layer inception_4c/relu_pool_proj
I0403 14:49:22.112814 11287 net.cpp:425] inception_4c/relu_pool_proj <- inception_4c/pool_proj
I0403 14:49:22.112838 11287 net.cpp:386] inception_4c/relu_pool_proj -> inception_4c/pool_proj (in-place)
I0403 14:49:22.113065 11287 net.cpp:141] Setting up inception_4c/relu_pool_proj
I0403 14:49:22.113095 11287 net.cpp:148] Top shape: 24 64 14 14 (301056)
I0403 14:49:22.113111 11287 net.cpp:156] Memory required for data: 1063013664
I0403 14:49:22.113129 11287 layer_factory.hpp:77] Creating layer inception_4c/output
I0403 14:49:22.113150 11287 net.cpp:91] Creating Layer inception_4c/output
I0403 14:49:22.113169 11287 net.cpp:425] inception_4c/output <- inception_4c/1x1
I0403 14:49:22.113189 11287 net.cpp:425] inception_4c/output <- inception_4c/3x3
I0403 14:49:22.113207 11287 net.cpp:425] inception_4c/output <- inception_4c/5x5
I0403 14:49:22.113227 11287 net.cpp:425] inception_4c/output <- inception_4c/pool_proj
I0403 14:49:22.113250 11287 net.cpp:399] inception_4c/output -> inception_4c/output
I0403 14:49:22.113306 11287 net.cpp:141] Setting up inception_4c/output
I0403 14:49:22.113339 11287 net.cpp:148] Top shape: 24 512 14 14 (2408448)
I0403 14:49:22.113364 11287 net.cpp:156] Memory required for data: 1072647456
I0403 14:49:22.113384 11287 layer_factory.hpp:77] Creating layer inception_4c/output_inception_4c/output_0_split
I0403 14:49:22.113404 11287 net.cpp:91] Creating Layer inception_4c/output_inception_4c/output_0_split
I0403 14:49:22.113422 11287 net.cpp:425] inception_4c/output_inception_4c/output_0_split <- inception_4c/output
I0403 14:49:22.113446 11287 net.cpp:399] inception_4c/output_inception_4c/output_0_split -> inception_4c/output_inception_4c/output_0_split_0
I0403 14:49:22.113471 11287 net.cpp:399] inception_4c/output_inception_4c/output_0_split -> inception_4c/output_inception_4c/output_0_split_1
I0403 14:49:22.113495 11287 net.cpp:399] inception_4c/output_inception_4c/output_0_split -> inception_4c/output_inception_4c/output_0_split_2
I0403 14:49:22.113519 11287 net.cpp:399] inception_4c/output_inception_4c/output_0_split -> inception_4c/output_inception_4c/output_0_split_3
I0403 14:49:22.113621 11287 net.cpp:141] Setting up inception_4c/output_inception_4c/output_0_split
I0403 14:49:22.113649 11287 net.cpp:148] Top shape: 24 512 14 14 (2408448)
I0403 14:49:22.113674 11287 net.cpp:148] Top shape: 24 512 14 14 (2408448)
I0403 14:49:22.113693 11287 net.cpp:148] Top shape: 24 512 14 14 (2408448)
I0403 14:49:22.113713 11287 net.cpp:148] Top shape: 24 512 14 14 (2408448)
I0403 14:49:22.113729 11287 net.cpp:156] Memory required for data: 1111182624
I0403 14:49:22.113746 11287 layer_factory.hpp:77] Creating layer inception_4d/1x1
I0403 14:49:22.113770 11287 net.cpp:91] Creating Layer inception_4d/1x1
I0403 14:49:22.113790 11287 net.cpp:425] inception_4d/1x1 <- inception_4c/output_inception_4c/output_0_split_0
I0403 14:49:22.113814 11287 net.cpp:399] inception_4d/1x1 -> inception_4d/1x1
I0403 14:49:22.115504 11287 net.cpp:141] Setting up inception_4d/1x1
I0403 14:49:22.115537 11287 net.cpp:148] Top shape: 24 112 14 14 (526848)
I0403 14:49:22.115557 11287 net.cpp:156] Memory required for data: 1113290016
I0403 14:49:22.115578 11287 layer_factory.hpp:77] Creating layer inception_4d/relu_1x1
I0403 14:49:22.115603 11287 net.cpp:91] Creating Layer inception_4d/relu_1x1
I0403 14:49:22.115623 11287 net.cpp:425] inception_4d/relu_1x1 <- inception_4d/1x1
I0403 14:49:22.115644 11287 net.cpp:386] inception_4d/relu_1x1 -> inception_4d/1x1 (in-place)
I0403 14:49:22.115871 11287 net.cpp:141] Setting up inception_4d/relu_1x1
I0403 14:49:22.115903 11287 net.cpp:148] Top shape: 24 112 14 14 (526848)
I0403 14:49:22.115922 11287 net.cpp:156] Memory required for data: 1115397408
I0403 14:49:22.115941 11287 layer_factory.hpp:77] Creating layer inception_4d/3x3_reduce
I0403 14:49:22.115983 11287 net.cpp:91] Creating Layer inception_4d/3x3_reduce
I0403 14:49:22.116006 11287 net.cpp:425] inception_4d/3x3_reduce <- inception_4c/output_inception_4c/output_0_split_1
I0403 14:49:22.116029 11287 net.cpp:399] inception_4d/3x3_reduce -> inception_4d/3x3_reduce
I0403 14:49:22.117913 11287 net.cpp:141] Setting up inception_4d/3x3_reduce
I0403 14:49:22.117946 11287 net.cpp:148] Top shape: 24 144 14 14 (677376)
I0403 14:49:22.117965 11287 net.cpp:156] Memory required for data: 1118106912
I0403 14:49:22.117988 11287 layer_factory.hpp:77] Creating layer inception_4d/relu_3x3_reduce
I0403 14:49:22.118011 11287 net.cpp:91] Creating Layer inception_4d/relu_3x3_reduce
I0403 14:49:22.118033 11287 net.cpp:425] inception_4d/relu_3x3_reduce <- inception_4d/3x3_reduce
I0403 14:49:22.118067 11287 net.cpp:386] inception_4d/relu_3x3_reduce -> inception_4d/3x3_reduce (in-place)
I0403 14:49:22.118438 11287 net.cpp:141] Setting up inception_4d/relu_3x3_reduce
I0403 14:49:22.118470 11287 net.cpp:148] Top shape: 24 144 14 14 (677376)
I0403 14:49:22.118489 11287 net.cpp:156] Memory required for data: 1120816416
I0403 14:49:22.118507 11287 layer_factory.hpp:77] Creating layer inception_4d/3x3
I0403 14:49:22.118535 11287 net.cpp:91] Creating Layer inception_4d/3x3
I0403 14:49:22.118558 11287 net.cpp:425] inception_4d/3x3 <- inception_4d/3x3_reduce
I0403 14:49:22.118583 11287 net.cpp:399] inception_4d/3x3 -> inception_4d/3x3
I0403 14:49:22.123946 11287 net.cpp:141] Setting up inception_4d/3x3
I0403 14:49:22.123983 11287 net.cpp:148] Top shape: 24 288 14 14 (1354752)
I0403 14:49:22.124002 11287 net.cpp:156] Memory required for data: 1126235424
I0403 14:49:22.124025 11287 layer_factory.hpp:77] Creating layer inception_4d/relu_3x3
I0403 14:49:22.124050 11287 net.cpp:91] Creating Layer inception_4d/relu_3x3
I0403 14:49:22.124071 11287 net.cpp:425] inception_4d/relu_3x3 <- inception_4d/3x3
I0403 14:49:22.124092 11287 net.cpp:386] inception_4d/relu_3x3 -> inception_4d/3x3 (in-place)
I0403 14:49:22.124315 11287 net.cpp:141] Setting up inception_4d/relu_3x3
I0403 14:49:22.124351 11287 net.cpp:148] Top shape: 24 288 14 14 (1354752)
I0403 14:49:22.124372 11287 net.cpp:156] Memory required for data: 1131654432
I0403 14:49:22.124390 11287 layer_factory.hpp:77] Creating layer inception_4d/5x5_reduce
I0403 14:49:22.124418 11287 net.cpp:91] Creating Layer inception_4d/5x5_reduce
I0403 14:49:22.124439 11287 net.cpp:425] inception_4d/5x5_reduce <- inception_4c/output_inception_4c/output_0_split_2
I0403 14:49:22.124465 11287 net.cpp:399] inception_4d/5x5_reduce -> inception_4d/5x5_reduce
I0403 14:49:22.125847 11287 net.cpp:141] Setting up inception_4d/5x5_reduce
I0403 14:49:22.125891 11287 net.cpp:148] Top shape: 24 32 14 14 (150528)
I0403 14:49:22.125915 11287 net.cpp:156] Memory required for data: 1132256544
I0403 14:49:22.125937 11287 layer_factory.hpp:77] Creating layer inception_4d/relu_5x5_reduce
I0403 14:49:22.125959 11287 net.cpp:91] Creating Layer inception_4d/relu_5x5_reduce
I0403 14:49:22.125979 11287 net.cpp:425] inception_4d/relu_5x5_reduce <- inception_4d/5x5_reduce
I0403 14:49:22.126000 11287 net.cpp:386] inception_4d/relu_5x5_reduce -> inception_4d/5x5_reduce (in-place)
I0403 14:49:22.126232 11287 net.cpp:141] Setting up inception_4d/relu_5x5_reduce
I0403 14:49:22.126266 11287 net.cpp:148] Top shape: 24 32 14 14 (150528)
I0403 14:49:22.126286 11287 net.cpp:156] Memory required for data: 1132858656
I0403 14:49:22.126304 11287 layer_factory.hpp:77] Creating layer inception_4d/5x5
I0403 14:49:22.126334 11287 net.cpp:91] Creating Layer inception_4d/5x5
I0403 14:49:22.126360 11287 net.cpp:425] inception_4d/5x5 <- inception_4d/5x5_reduce
I0403 14:49:22.126386 11287 net.cpp:399] inception_4d/5x5 -> inception_4d/5x5
I0403 14:49:22.128254 11287 net.cpp:141] Setting up inception_4d/5x5
I0403 14:49:22.128288 11287 net.cpp:148] Top shape: 24 64 14 14 (301056)
I0403 14:49:22.128307 11287 net.cpp:156] Memory required for data: 1134062880
I0403 14:49:22.128332 11287 layer_factory.hpp:77] Creating layer inception_4d/relu_5x5
I0403 14:49:22.128379 11287 net.cpp:91] Creating Layer inception_4d/relu_5x5
I0403 14:49:22.128402 11287 net.cpp:425] inception_4d/relu_5x5 <- inception_4d/5x5
I0403 14:49:22.128427 11287 net.cpp:386] inception_4d/relu_5x5 -> inception_4d/5x5 (in-place)
I0403 14:49:22.128840 11287 net.cpp:141] Setting up inception_4d/relu_5x5
I0403 14:49:22.128872 11287 net.cpp:148] Top shape: 24 64 14 14 (301056)
I0403 14:49:22.128890 11287 net.cpp:156] Memory required for data: 1135267104
I0403 14:49:22.128909 11287 layer_factory.hpp:77] Creating layer inception_4d/pool
I0403 14:49:22.128931 11287 net.cpp:91] Creating Layer inception_4d/pool
I0403 14:49:22.128952 11287 net.cpp:425] inception_4d/pool <- inception_4c/output_inception_4c/output_0_split_3
I0403 14:49:22.128976 11287 net.cpp:399] inception_4d/pool -> inception_4d/pool
I0403 14:49:22.129056 11287 net.cpp:141] Setting up inception_4d/pool
I0403 14:49:22.129088 11287 net.cpp:148] Top shape: 24 512 14 14 (2408448)
I0403 14:49:22.129107 11287 net.cpp:156] Memory required for data: 1144900896
I0403 14:49:22.129127 11287 layer_factory.hpp:77] Creating layer inception_4d/pool_proj
I0403 14:49:22.129161 11287 net.cpp:91] Creating Layer inception_4d/pool_proj
I0403 14:49:22.129182 11287 net.cpp:425] inception_4d/pool_proj <- inception_4d/pool
I0403 14:49:22.129209 11287 net.cpp:399] inception_4d/pool_proj -> inception_4d/pool_proj
I0403 14:49:22.131356 11287 net.cpp:141] Setting up inception_4d/pool_proj
I0403 14:49:22.131393 11287 net.cpp:148] Top shape: 24 64 14 14 (301056)
I0403 14:49:22.131413 11287 net.cpp:156] Memory required for data: 1146105120
I0403 14:49:22.131435 11287 layer_factory.hpp:77] Creating layer inception_4d/relu_pool_proj
I0403 14:49:22.131460 11287 net.cpp:91] Creating Layer inception_4d/relu_pool_proj
I0403 14:49:22.131481 11287 net.cpp:425] inception_4d/relu_pool_proj <- inception_4d/pool_proj
I0403 14:49:22.131502 11287 net.cpp:386] inception_4d/relu_pool_proj -> inception_4d/pool_proj (in-place)
I0403 14:49:22.131732 11287 net.cpp:141] Setting up inception_4d/relu_pool_proj
I0403 14:49:22.131762 11287 net.cpp:148] Top shape: 24 64 14 14 (301056)
I0403 14:49:22.131780 11287 net.cpp:156] Memory required for data: 1147309344
I0403 14:49:22.131798 11287 layer_factory.hpp:77] Creating layer inception_4d/output
I0403 14:49:22.131819 11287 net.cpp:91] Creating Layer inception_4d/output
I0403 14:49:22.131837 11287 net.cpp:425] inception_4d/output <- inception_4d/1x1
I0403 14:49:22.131857 11287 net.cpp:425] inception_4d/output <- inception_4d/3x3
I0403 14:49:22.131876 11287 net.cpp:425] inception_4d/output <- inception_4d/5x5
I0403 14:49:22.131894 11287 net.cpp:425] inception_4d/output <- inception_4d/pool_proj
I0403 14:49:22.131917 11287 net.cpp:399] inception_4d/output -> inception_4d/output
I0403 14:49:22.131974 11287 net.cpp:141] Setting up inception_4d/output
I0403 14:49:22.132005 11287 net.cpp:148] Top shape: 24 528 14 14 (2483712)
I0403 14:49:22.132025 11287 net.cpp:156] Memory required for data: 1157244192
I0403 14:49:22.132042 11287 layer_factory.hpp:77] Creating layer inception_4d/output_inception_4d/output_0_split
I0403 14:49:22.132063 11287 net.cpp:91] Creating Layer inception_4d/output_inception_4d/output_0_split
I0403 14:49:22.132082 11287 net.cpp:425] inception_4d/output_inception_4d/output_0_split <- inception_4d/output
I0403 14:49:22.132102 11287 net.cpp:399] inception_4d/output_inception_4d/output_0_split -> inception_4d/output_inception_4d/output_0_split_0
I0403 14:49:22.132127 11287 net.cpp:399] inception_4d/output_inception_4d/output_0_split -> inception_4d/output_inception_4d/output_0_split_1
I0403 14:49:22.132153 11287 net.cpp:399] inception_4d/output_inception_4d/output_0_split -> inception_4d/output_inception_4d/output_0_split_2
I0403 14:49:22.132179 11287 net.cpp:399] inception_4d/output_inception_4d/output_0_split -> inception_4d/output_inception_4d/output_0_split_3
I0403 14:49:22.132203 11287 net.cpp:399] inception_4d/output_inception_4d/output_0_split -> inception_4d/output_inception_4d/output_0_split_4
I0403 14:49:22.132328 11287 net.cpp:141] Setting up inception_4d/output_inception_4d/output_0_split
I0403 14:49:22.132385 11287 net.cpp:148] Top shape: 24 528 14 14 (2483712)
I0403 14:49:22.132405 11287 net.cpp:148] Top shape: 24 528 14 14 (2483712)
I0403 14:49:22.132424 11287 net.cpp:148] Top shape: 24 528 14 14 (2483712)
I0403 14:49:22.132443 11287 net.cpp:148] Top shape: 24 528 14 14 (2483712)
I0403 14:49:22.132462 11287 net.cpp:148] Top shape: 24 528 14 14 (2483712)
I0403 14:49:22.132477 11287 net.cpp:156] Memory required for data: 1206918432
I0403 14:49:22.132494 11287 layer_factory.hpp:77] Creating layer loss2/ave_pool
I0403 14:49:22.132519 11287 net.cpp:91] Creating Layer loss2/ave_pool
I0403 14:49:22.132539 11287 net.cpp:425] loss2/ave_pool <- inception_4d/output_inception_4d/output_0_split_0
I0403 14:49:22.132561 11287 net.cpp:399] loss2/ave_pool -> loss2/ave_pool
I0403 14:49:22.132941 11287 net.cpp:141] Setting up loss2/ave_pool
I0403 14:49:22.132973 11287 net.cpp:148] Top shape: 24 528 4 4 (202752)
I0403 14:49:22.132992 11287 net.cpp:156] Memory required for data: 1207729440
I0403 14:49:22.133009 11287 layer_factory.hpp:77] Creating layer loss2/conv
I0403 14:49:22.133038 11287 net.cpp:91] Creating Layer loss2/conv
I0403 14:49:22.133060 11287 net.cpp:425] loss2/conv <- loss2/ave_pool
I0403 14:49:22.133082 11287 net.cpp:399] loss2/conv -> loss2/conv
I0403 14:49:22.135373 11287 net.cpp:141] Setting up loss2/conv
I0403 14:49:22.135411 11287 net.cpp:148] Top shape: 24 128 4 4 (49152)
I0403 14:49:22.135431 11287 net.cpp:156] Memory required for data: 1207926048
I0403 14:49:22.135452 11287 layer_factory.hpp:77] Creating layer loss2/relu_conv
I0403 14:49:22.135474 11287 net.cpp:91] Creating Layer loss2/relu_conv
I0403 14:49:22.135494 11287 net.cpp:425] loss2/relu_conv <- loss2/conv
I0403 14:49:22.135517 11287 net.cpp:386] loss2/relu_conv -> loss2/conv (in-place)
I0403 14:49:22.135865 11287 net.cpp:141] Setting up loss2/relu_conv
I0403 14:49:22.135897 11287 net.cpp:148] Top shape: 24 128 4 4 (49152)
I0403 14:49:22.135915 11287 net.cpp:156] Memory required for data: 1208122656
I0403 14:49:22.135934 11287 layer_factory.hpp:77] Creating layer loss2/fc
I0403 14:49:22.135957 11287 net.cpp:91] Creating Layer loss2/fc
I0403 14:49:22.135977 11287 net.cpp:425] loss2/fc <- loss2/conv
I0403 14:49:22.136001 11287 net.cpp:399] loss2/fc -> loss2/fc
I0403 14:49:22.157582 11287 net.cpp:141] Setting up loss2/fc
I0403 14:49:22.157624 11287 net.cpp:148] Top shape: 24 1024 (24576)
I0403 14:49:22.157644 11287 net.cpp:156] Memory required for data: 1208220960
I0403 14:49:22.157666 11287 layer_factory.hpp:77] Creating layer loss2/relu_fc
I0403 14:49:22.157690 11287 net.cpp:91] Creating Layer loss2/relu_fc
I0403 14:49:22.157711 11287 net.cpp:425] loss2/relu_fc <- loss2/fc
I0403 14:49:22.157732 11287 net.cpp:386] loss2/relu_fc -> loss2/fc (in-place)
I0403 14:49:22.158129 11287 net.cpp:141] Setting up loss2/relu_fc
I0403 14:49:22.158164 11287 net.cpp:148] Top shape: 24 1024 (24576)
I0403 14:49:22.158185 11287 net.cpp:156] Memory required for data: 1208319264
I0403 14:49:22.158202 11287 layer_factory.hpp:77] Creating layer loss2/drop_fc
I0403 14:49:22.158224 11287 net.cpp:91] Creating Layer loss2/drop_fc
I0403 14:49:22.158244 11287 net.cpp:425] loss2/drop_fc <- loss2/fc
I0403 14:49:22.158265 11287 net.cpp:386] loss2/drop_fc -> loss2/fc (in-place)
I0403 14:49:22.158329 11287 net.cpp:141] Setting up loss2/drop_fc
I0403 14:49:22.158362 11287 net.cpp:148] Top shape: 24 1024 (24576)
I0403 14:49:22.158381 11287 net.cpp:156] Memory required for data: 1208417568
I0403 14:49:22.158399 11287 layer_factory.hpp:77] Creating layer loss2/classifier_plantvillage
I0403 14:49:22.158426 11287 net.cpp:91] Creating Layer loss2/classifier_plantvillage
I0403 14:49:22.158447 11287 net.cpp:425] loss2/classifier_plantvillage <- loss2/fc
I0403 14:49:22.158469 11287 net.cpp:399] loss2/classifier_plantvillage -> loss2/classifier_plantvillage
I0403 14:49:22.158977 11287 net.cpp:141] Setting up loss2/classifier_plantvillage
I0403 14:49:22.159011 11287 net.cpp:148] Top shape: 24 38 (912)
I0403 14:49:22.159054 11287 net.cpp:156] Memory required for data: 1208421216
I0403 14:49:22.159080 11287 layer_factory.hpp:77] Creating layer loss2/classifier_plantvillage_loss2/classifier_plantvillage_0_split
I0403 14:49:22.159106 11287 net.cpp:91] Creating Layer loss2/classifier_plantvillage_loss2/classifier_plantvillage_0_split
I0403 14:49:22.159128 11287 net.cpp:425] loss2/classifier_plantvillage_loss2/classifier_plantvillage_0_split <- loss2/classifier_plantvillage
I0403 14:49:22.159158 11287 net.cpp:399] loss2/classifier_plantvillage_loss2/classifier_plantvillage_0_split -> loss2/classifier_plantvillage_loss2/classifier_plantvillage_0_split_0
I0403 14:49:22.159191 11287 net.cpp:399] loss2/classifier_plantvillage_loss2/classifier_plantvillage_0_split -> loss2/classifier_plantvillage_loss2/classifier_plantvillage_0_split_1
I0403 14:49:22.159216 11287 net.cpp:399] loss2/classifier_plantvillage_loss2/classifier_plantvillage_0_split -> loss2/classifier_plantvillage_loss2/classifier_plantvillage_0_split_2
I0403 14:49:22.159314 11287 net.cpp:141] Setting up loss2/classifier_plantvillage_loss2/classifier_plantvillage_0_split
I0403 14:49:22.159343 11287 net.cpp:148] Top shape: 24 38 (912)
I0403 14:49:22.159368 11287 net.cpp:148] Top shape: 24 38 (912)
I0403 14:49:22.159387 11287 net.cpp:148] Top shape: 24 38 (912)
I0403 14:49:22.159404 11287 net.cpp:156] Memory required for data: 1208432160
I0403 14:49:22.159428 11287 layer_factory.hpp:77] Creating layer inception_4e/1x1
I0403 14:49:22.159457 11287 net.cpp:91] Creating Layer inception_4e/1x1
I0403 14:49:22.159487 11287 net.cpp:425] inception_4e/1x1 <- inception_4d/output_inception_4d/output_0_split_1
I0403 14:49:22.159519 11287 net.cpp:399] inception_4e/1x1 -> inception_4e/1x1
I0403 14:49:22.161787 11287 net.cpp:141] Setting up inception_4e/1x1
I0403 14:49:22.161821 11287 net.cpp:148] Top shape: 24 256 14 14 (1204224)
I0403 14:49:22.161839 11287 net.cpp:156] Memory required for data: 1213249056
I0403 14:49:22.161861 11287 layer_factory.hpp:77] Creating layer inception_4e/relu_1x1
I0403 14:49:22.161885 11287 net.cpp:91] Creating Layer inception_4e/relu_1x1
I0403 14:49:22.161906 11287 net.cpp:425] inception_4e/relu_1x1 <- inception_4e/1x1
I0403 14:49:22.161926 11287 net.cpp:386] inception_4e/relu_1x1 -> inception_4e/1x1 (in-place)
I0403 14:49:22.162286 11287 net.cpp:141] Setting up inception_4e/relu_1x1
I0403 14:49:22.162317 11287 net.cpp:148] Top shape: 24 256 14 14 (1204224)
I0403 14:49:22.162335 11287 net.cpp:156] Memory required for data: 1218065952
I0403 14:49:22.162367 11287 layer_factory.hpp:77] Creating layer inception_4e/3x3_reduce
I0403 14:49:22.162398 11287 net.cpp:91] Creating Layer inception_4e/3x3_reduce
I0403 14:49:22.162420 11287 net.cpp:425] inception_4e/3x3_reduce <- inception_4d/output_inception_4d/output_0_split_2
I0403 14:49:22.162446 11287 net.cpp:399] inception_4e/3x3_reduce -> inception_4e/3x3_reduce
I0403 14:49:22.165010 11287 net.cpp:141] Setting up inception_4e/3x3_reduce
I0403 14:49:22.165047 11287 net.cpp:148] Top shape: 24 160 14 14 (752640)
I0403 14:49:22.165067 11287 net.cpp:156] Memory required for data: 1221076512
I0403 14:49:22.165091 11287 layer_factory.hpp:77] Creating layer inception_4e/relu_3x3_reduce
I0403 14:49:22.165112 11287 net.cpp:91] Creating Layer inception_4e/relu_3x3_reduce
I0403 14:49:22.165132 11287 net.cpp:425] inception_4e/relu_3x3_reduce <- inception_4e/3x3_reduce
I0403 14:49:22.165156 11287 net.cpp:386] inception_4e/relu_3x3_reduce -> inception_4e/3x3_reduce (in-place)
I0403 14:49:22.165395 11287 net.cpp:141] Setting up inception_4e/relu_3x3_reduce
I0403 14:49:22.165426 11287 net.cpp:148] Top shape: 24 160 14 14 (752640)
I0403 14:49:22.165443 11287 net.cpp:156] Memory required for data: 1224087072
I0403 14:49:22.165462 11287 layer_factory.hpp:77] Creating layer inception_4e/3x3
I0403 14:49:22.165488 11287 net.cpp:91] Creating Layer inception_4e/3x3
I0403 14:49:22.165510 11287 net.cpp:425] inception_4e/3x3 <- inception_4e/3x3_reduce
I0403 14:49:22.165536 11287 net.cpp:399] inception_4e/3x3 -> inception_4e/3x3
I0403 14:49:22.171684 11287 net.cpp:141] Setting up inception_4e/3x3
I0403 14:49:22.171736 11287 net.cpp:148] Top shape: 24 320 14 14 (1505280)
I0403 14:49:22.171756 11287 net.cpp:156] Memory required for data: 1230108192
I0403 14:49:22.171779 11287 layer_factory.hpp:77] Creating layer inception_4e/relu_3x3
I0403 14:49:22.171805 11287 net.cpp:91] Creating Layer inception_4e/relu_3x3
I0403 14:49:22.171828 11287 net.cpp:425] inception_4e/relu_3x3 <- inception_4e/3x3
I0403 14:49:22.171849 11287 net.cpp:386] inception_4e/relu_3x3 -> inception_4e/3x3 (in-place)
I0403 14:49:22.172216 11287 net.cpp:141] Setting up inception_4e/relu_3x3
I0403 14:49:22.172250 11287 net.cpp:148] Top shape: 24 320 14 14 (1505280)
I0403 14:49:22.172268 11287 net.cpp:156] Memory required for data: 1236129312
I0403 14:49:22.172286 11287 layer_factory.hpp:77] Creating layer inception_4e/5x5_reduce
I0403 14:49:22.172313 11287 net.cpp:91] Creating Layer inception_4e/5x5_reduce
I0403 14:49:22.172338 11287 net.cpp:425] inception_4e/5x5_reduce <- inception_4d/output_inception_4d/output_0_split_3
I0403 14:49:22.172380 11287 net.cpp:399] inception_4e/5x5_reduce -> inception_4e/5x5_reduce
I0403 14:49:22.173691 11287 net.cpp:141] Setting up inception_4e/5x5_reduce
I0403 14:49:22.173727 11287 net.cpp:148] Top shape: 24 32 14 14 (150528)
I0403 14:49:22.173746 11287 net.cpp:156] Memory required for data: 1236731424
I0403 14:49:22.173768 11287 layer_factory.hpp:77] Creating layer inception_4e/relu_5x5_reduce
I0403 14:49:22.173790 11287 net.cpp:91] Creating Layer inception_4e/relu_5x5_reduce
I0403 14:49:22.173810 11287 net.cpp:425] inception_4e/relu_5x5_reduce <- inception_4e/5x5_reduce
I0403 14:49:22.173833 11287 net.cpp:386] inception_4e/relu_5x5_reduce -> inception_4e/5x5_reduce (in-place)
I0403 14:49:22.174209 11287 net.cpp:141] Setting up inception_4e/relu_5x5_reduce
I0403 14:49:22.174243 11287 net.cpp:148] Top shape: 24 32 14 14 (150528)
I0403 14:49:22.174262 11287 net.cpp:156] Memory required for data: 1237333536
I0403 14:49:22.174279 11287 layer_factory.hpp:77] Creating layer inception_4e/5x5
I0403 14:49:22.174326 11287 net.cpp:91] Creating Layer inception_4e/5x5
I0403 14:49:22.174365 11287 net.cpp:425] inception_4e/5x5 <- inception_4e/5x5_reduce
I0403 14:49:22.174397 11287 net.cpp:399] inception_4e/5x5 -> inception_4e/5x5
I0403 14:49:22.176669 11287 net.cpp:141] Setting up inception_4e/5x5
I0403 14:49:22.176707 11287 net.cpp:148] Top shape: 24 128 14 14 (602112)
I0403 14:49:22.176728 11287 net.cpp:156] Memory required for data: 1239741984
I0403 14:49:22.176751 11287 layer_factory.hpp:77] Creating layer inception_4e/relu_5x5
I0403 14:49:22.176774 11287 net.cpp:91] Creating Layer inception_4e/relu_5x5
I0403 14:49:22.176794 11287 net.cpp:425] inception_4e/relu_5x5 <- inception_4e/5x5
I0403 14:49:22.176817 11287 net.cpp:386] inception_4e/relu_5x5 -> inception_4e/5x5 (in-place)
I0403 14:49:22.177064 11287 net.cpp:141] Setting up inception_4e/relu_5x5
I0403 14:49:22.177094 11287 net.cpp:148] Top shape: 24 128 14 14 (602112)
I0403 14:49:22.177114 11287 net.cpp:156] Memory required for data: 1242150432
I0403 14:49:22.177132 11287 layer_factory.hpp:77] Creating layer inception_4e/pool
I0403 14:49:22.177153 11287 net.cpp:91] Creating Layer inception_4e/pool
I0403 14:49:22.177173 11287 net.cpp:425] inception_4e/pool <- inception_4d/output_inception_4d/output_0_split_4
I0403 14:49:22.177198 11287 net.cpp:399] inception_4e/pool -> inception_4e/pool
I0403 14:49:22.177283 11287 net.cpp:141] Setting up inception_4e/pool
I0403 14:49:22.177311 11287 net.cpp:148] Top shape: 24 528 14 14 (2483712)
I0403 14:49:22.177330 11287 net.cpp:156] Memory required for data: 1252085280
I0403 14:49:22.177352 11287 layer_factory.hpp:77] Creating layer inception_4e/pool_proj
I0403 14:49:22.177384 11287 net.cpp:91] Creating Layer inception_4e/pool_proj
I0403 14:49:22.177407 11287 net.cpp:425] inception_4e/pool_proj <- inception_4e/pool
I0403 14:49:22.177428 11287 net.cpp:399] inception_4e/pool_proj -> inception_4e/pool_proj
I0403 14:49:22.179265 11287 net.cpp:141] Setting up inception_4e/pool_proj
I0403 14:49:22.179313 11287 net.cpp:148] Top shape: 24 128 14 14 (602112)
I0403 14:49:22.179333 11287 net.cpp:156] Memory required for data: 1254493728
I0403 14:49:22.179363 11287 layer_factory.hpp:77] Creating layer inception_4e/relu_pool_proj
I0403 14:49:22.179388 11287 net.cpp:91] Creating Layer inception_4e/relu_pool_proj
I0403 14:49:22.179409 11287 net.cpp:425] inception_4e/relu_pool_proj <- inception_4e/pool_proj
I0403 14:49:22.179430 11287 net.cpp:386] inception_4e/relu_pool_proj -> inception_4e/pool_proj (in-place)
I0403 14:49:22.179785 11287 net.cpp:141] Setting up inception_4e/relu_pool_proj
I0403 14:49:22.179817 11287 net.cpp:148] Top shape: 24 128 14 14 (602112)
I0403 14:49:22.179836 11287 net.cpp:156] Memory required for data: 1256902176
I0403 14:49:22.179854 11287 layer_factory.hpp:77] Creating layer inception_4e/output
I0403 14:49:22.179878 11287 net.cpp:91] Creating Layer inception_4e/output
I0403 14:49:22.179898 11287 net.cpp:425] inception_4e/output <- inception_4e/1x1
I0403 14:49:22.179919 11287 net.cpp:425] inception_4e/output <- inception_4e/3x3
I0403 14:49:22.179939 11287 net.cpp:425] inception_4e/output <- inception_4e/5x5
I0403 14:49:22.179958 11287 net.cpp:425] inception_4e/output <- inception_4e/pool_proj
I0403 14:49:22.179978 11287 net.cpp:399] inception_4e/output -> inception_4e/output
I0403 14:49:22.180040 11287 net.cpp:141] Setting up inception_4e/output
I0403 14:49:22.180070 11287 net.cpp:148] Top shape: 24 832 14 14 (3913728)
I0403 14:49:22.180088 11287 net.cpp:156] Memory required for data: 1272557088
I0403 14:49:22.180106 11287 layer_factory.hpp:77] Creating layer pool4/3x3_s2
I0403 14:49:22.180126 11287 net.cpp:91] Creating Layer pool4/3x3_s2
I0403 14:49:22.180145 11287 net.cpp:425] pool4/3x3_s2 <- inception_4e/output
I0403 14:49:22.180171 11287 net.cpp:399] pool4/3x3_s2 -> pool4/3x3_s2
I0403 14:49:22.180255 11287 net.cpp:141] Setting up pool4/3x3_s2
I0403 14:49:22.180285 11287 net.cpp:148] Top shape: 24 832 7 7 (978432)
I0403 14:49:22.180305 11287 net.cpp:156] Memory required for data: 1276470816
I0403 14:49:22.180321 11287 layer_factory.hpp:77] Creating layer pool4/3x3_s2_pool4/3x3_s2_0_split
I0403 14:49:22.180342 11287 net.cpp:91] Creating Layer pool4/3x3_s2_pool4/3x3_s2_0_split
I0403 14:49:22.180369 11287 net.cpp:425] pool4/3x3_s2_pool4/3x3_s2_0_split <- pool4/3x3_s2
I0403 14:49:22.180394 11287 net.cpp:399] pool4/3x3_s2_pool4/3x3_s2_0_split -> pool4/3x3_s2_pool4/3x3_s2_0_split_0
I0403 14:49:22.180419 11287 net.cpp:399] pool4/3x3_s2_pool4/3x3_s2_0_split -> pool4/3x3_s2_pool4/3x3_s2_0_split_1
I0403 14:49:22.180444 11287 net.cpp:399] pool4/3x3_s2_pool4/3x3_s2_0_split -> pool4/3x3_s2_pool4/3x3_s2_0_split_2
I0403 14:49:22.180469 11287 net.cpp:399] pool4/3x3_s2_pool4/3x3_s2_0_split -> pool4/3x3_s2_pool4/3x3_s2_0_split_3
I0403 14:49:22.180577 11287 net.cpp:141] Setting up pool4/3x3_s2_pool4/3x3_s2_0_split
I0403 14:49:22.180610 11287 net.cpp:148] Top shape: 24 832 7 7 (978432)
I0403 14:49:22.180634 11287 net.cpp:148] Top shape: 24 832 7 7 (978432)
I0403 14:49:22.180652 11287 net.cpp:148] Top shape: 24 832 7 7 (978432)
I0403 14:49:22.180670 11287 net.cpp:148] Top shape: 24 832 7 7 (978432)
I0403 14:49:22.180688 11287 net.cpp:156] Memory required for data: 1292125728
I0403 14:49:22.180706 11287 layer_factory.hpp:77] Creating layer inception_5a/1x1
I0403 14:49:22.180733 11287 net.cpp:91] Creating Layer inception_5a/1x1
I0403 14:49:22.180755 11287 net.cpp:425] inception_5a/1x1 <- pool4/3x3_s2_pool4/3x3_s2_0_split_0
I0403 14:49:22.180778 11287 net.cpp:399] inception_5a/1x1 -> inception_5a/1x1
I0403 14:49:22.184343 11287 net.cpp:141] Setting up inception_5a/1x1
I0403 14:49:22.184386 11287 net.cpp:148] Top shape: 24 256 7 7 (301056)
I0403 14:49:22.184406 11287 net.cpp:156] Memory required for data: 1293329952
I0403 14:49:22.184427 11287 layer_factory.hpp:77] Creating layer inception_5a/relu_1x1
I0403 14:49:22.184449 11287 net.cpp:91] Creating Layer inception_5a/relu_1x1
I0403 14:49:22.184468 11287 net.cpp:425] inception_5a/relu_1x1 <- inception_5a/1x1
I0403 14:49:22.184492 11287 net.cpp:386] inception_5a/relu_1x1 -> inception_5a/1x1 (in-place)
I0403 14:49:22.184870 11287 net.cpp:141] Setting up inception_5a/relu_1x1
I0403 14:49:22.184903 11287 net.cpp:148] Top shape: 24 256 7 7 (301056)
I0403 14:49:22.184921 11287 net.cpp:156] Memory required for data: 1294534176
I0403 14:49:22.184938 11287 layer_factory.hpp:77] Creating layer inception_5a/3x3_reduce
I0403 14:49:22.184965 11287 net.cpp:91] Creating Layer inception_5a/3x3_reduce
I0403 14:49:22.184988 11287 net.cpp:425] inception_5a/3x3_reduce <- pool4/3x3_s2_pool4/3x3_s2_0_split_1
I0403 14:49:22.185014 11287 net.cpp:399] inception_5a/3x3_reduce -> inception_5a/3x3_reduce
I0403 14:49:22.187991 11287 net.cpp:141] Setting up inception_5a/3x3_reduce
I0403 14:49:22.188027 11287 net.cpp:148] Top shape: 24 160 7 7 (188160)
I0403 14:49:22.188046 11287 net.cpp:156] Memory required for data: 1295286816
I0403 14:49:22.188068 11287 layer_factory.hpp:77] Creating layer inception_5a/relu_3x3_reduce
I0403 14:49:22.188093 11287 net.cpp:91] Creating Layer inception_5a/relu_3x3_reduce
I0403 14:49:22.188114 11287 net.cpp:425] inception_5a/relu_3x3_reduce <- inception_5a/3x3_reduce
I0403 14:49:22.188138 11287 net.cpp:386] inception_5a/relu_3x3_reduce -> inception_5a/3x3_reduce (in-place)
I0403 14:49:22.188374 11287 net.cpp:141] Setting up inception_5a/relu_3x3_reduce
I0403 14:49:22.188407 11287 net.cpp:148] Top shape: 24 160 7 7 (188160)
I0403 14:49:22.188426 11287 net.cpp:156] Memory required for data: 1296039456
I0403 14:49:22.188443 11287 layer_factory.hpp:77] Creating layer inception_5a/3x3
I0403 14:49:22.188472 11287 net.cpp:91] Creating Layer inception_5a/3x3
I0403 14:49:22.188495 11287 net.cpp:425] inception_5a/3x3 <- inception_5a/3x3_reduce
I0403 14:49:22.188519 11287 net.cpp:399] inception_5a/3x3 -> inception_5a/3x3
I0403 14:49:22.194708 11287 net.cpp:141] Setting up inception_5a/3x3
I0403 14:49:22.194748 11287 net.cpp:148] Top shape: 24 320 7 7 (376320)
I0403 14:49:22.194769 11287 net.cpp:156] Memory required for data: 1297544736
I0403 14:49:22.194792 11287 layer_factory.hpp:77] Creating layer inception_5a/relu_3x3
I0403 14:49:22.194813 11287 net.cpp:91] Creating Layer inception_5a/relu_3x3
I0403 14:49:22.194833 11287 net.cpp:425] inception_5a/relu_3x3 <- inception_5a/3x3
I0403 14:49:22.194855 11287 net.cpp:386] inception_5a/relu_3x3 -> inception_5a/3x3 (in-place)
I0403 14:49:22.195214 11287 net.cpp:141] Setting up inception_5a/relu_3x3
I0403 14:49:22.195248 11287 net.cpp:148] Top shape: 24 320 7 7 (376320)
I0403 14:49:22.195267 11287 net.cpp:156] Memory required for data: 1299050016
I0403 14:49:22.195286 11287 layer_factory.hpp:77] Creating layer inception_5a/5x5_reduce
I0403 14:49:22.195314 11287 net.cpp:91] Creating Layer inception_5a/5x5_reduce
I0403 14:49:22.195336 11287 net.cpp:425] inception_5a/5x5_reduce <- pool4/3x3_s2_pool4/3x3_s2_0_split_2
I0403 14:49:22.195365 11287 net.cpp:399] inception_5a/5x5_reduce -> inception_5a/5x5_reduce
I0403 14:49:22.196802 11287 net.cpp:141] Setting up inception_5a/5x5_reduce
I0403 14:49:22.196841 11287 net.cpp:148] Top shape: 24 32 7 7 (37632)
I0403 14:49:22.196861 11287 net.cpp:156] Memory required for data: 1299200544
I0403 14:49:22.196884 11287 layer_factory.hpp:77] Creating layer inception_5a/relu_5x5_reduce
I0403 14:49:22.196907 11287 net.cpp:91] Creating Layer inception_5a/relu_5x5_reduce
I0403 14:49:22.196928 11287 net.cpp:425] inception_5a/relu_5x5_reduce <- inception_5a/5x5_reduce
I0403 14:49:22.196950 11287 net.cpp:386] inception_5a/relu_5x5_reduce -> inception_5a/5x5_reduce (in-place)
I0403 14:49:22.197315 11287 net.cpp:141] Setting up inception_5a/relu_5x5_reduce
I0403 14:49:22.197355 11287 net.cpp:148] Top shape: 24 32 7 7 (37632)
I0403 14:49:22.197379 11287 net.cpp:156] Memory required for data: 1299351072
I0403 14:49:22.197402 11287 layer_factory.hpp:77] Creating layer inception_5a/5x5
I0403 14:49:22.197438 11287 net.cpp:91] Creating Layer inception_5a/5x5
I0403 14:49:22.197464 11287 net.cpp:425] inception_5a/5x5 <- inception_5a/5x5_reduce
I0403 14:49:22.197490 11287 net.cpp:399] inception_5a/5x5 -> inception_5a/5x5
I0403 14:49:22.199610 11287 net.cpp:141] Setting up inception_5a/5x5
I0403 14:49:22.199666 11287 net.cpp:148] Top shape: 24 128 7 7 (150528)
I0403 14:49:22.199687 11287 net.cpp:156] Memory required for data: 1299953184
I0403 14:49:22.199710 11287 layer_factory.hpp:77] Creating layer inception_5a/relu_5x5
I0403 14:49:22.199733 11287 net.cpp:91] Creating Layer inception_5a/relu_5x5
I0403 14:49:22.199753 11287 net.cpp:425] inception_5a/relu_5x5 <- inception_5a/5x5
I0403 14:49:22.199777 11287 net.cpp:386] inception_5a/relu_5x5 -> inception_5a/5x5 (in-place)
I0403 14:49:22.200011 11287 net.cpp:141] Setting up inception_5a/relu_5x5
I0403 14:49:22.200043 11287 net.cpp:148] Top shape: 24 128 7 7 (150528)
I0403 14:49:22.200062 11287 net.cpp:156] Memory required for data: 1300555296
I0403 14:49:22.200079 11287 layer_factory.hpp:77] Creating layer inception_5a/pool
I0403 14:49:22.200101 11287 net.cpp:91] Creating Layer inception_5a/pool
I0403 14:49:22.200121 11287 net.cpp:425] inception_5a/pool <- pool4/3x3_s2_pool4/3x3_s2_0_split_3
I0403 14:49:22.200146 11287 net.cpp:399] inception_5a/pool -> inception_5a/pool
I0403 14:49:22.200234 11287 net.cpp:141] Setting up inception_5a/pool
I0403 14:49:22.200263 11287 net.cpp:148] Top shape: 24 832 7 7 (978432)
I0403 14:49:22.200280 11287 net.cpp:156] Memory required for data: 1304469024
I0403 14:49:22.200299 11287 layer_factory.hpp:77] Creating layer inception_5a/pool_proj
I0403 14:49:22.200328 11287 net.cpp:91] Creating Layer inception_5a/pool_proj
I0403 14:49:22.200356 11287 net.cpp:425] inception_5a/pool_proj <- inception_5a/pool
I0403 14:49:22.200381 11287 net.cpp:399] inception_5a/pool_proj -> inception_5a/pool_proj
I0403 14:49:22.203148 11287 net.cpp:141] Setting up inception_5a/pool_proj
I0403 14:49:22.203187 11287 net.cpp:148] Top shape: 24 128 7 7 (150528)
I0403 14:49:22.203207 11287 net.cpp:156] Memory required for data: 1305071136
I0403 14:49:22.203230 11287 layer_factory.hpp:77] Creating layer inception_5a/relu_pool_proj
I0403 14:49:22.203256 11287 net.cpp:91] Creating Layer inception_5a/relu_pool_proj
I0403 14:49:22.203279 11287 net.cpp:425] inception_5a/relu_pool_proj <- inception_5a/pool_proj
I0403 14:49:22.203304 11287 net.cpp:386] inception_5a/relu_pool_proj -> inception_5a/pool_proj (in-place)
I0403 14:49:22.203728 11287 net.cpp:141] Setting up inception_5a/relu_pool_proj
I0403 14:49:22.203764 11287 net.cpp:148] Top shape: 24 128 7 7 (150528)
I0403 14:49:22.203784 11287 net.cpp:156] Memory required for data: 1305673248
I0403 14:49:22.203802 11287 layer_factory.hpp:77] Creating layer inception_5a/output
I0403 14:49:22.203824 11287 net.cpp:91] Creating Layer inception_5a/output
I0403 14:49:22.203843 11287 net.cpp:425] inception_5a/output <- inception_5a/1x1
I0403 14:49:22.203865 11287 net.cpp:425] inception_5a/output <- inception_5a/3x3
I0403 14:49:22.203891 11287 net.cpp:425] inception_5a/output <- inception_5a/5x5
I0403 14:49:22.203922 11287 net.cpp:425] inception_5a/output <- inception_5a/pool_proj
I0403 14:49:22.203956 11287 net.cpp:399] inception_5a/output -> inception_5a/output
I0403 14:49:22.204027 11287 net.cpp:141] Setting up inception_5a/output
I0403 14:49:22.204062 11287 net.cpp:148] Top shape: 24 832 7 7 (978432)
I0403 14:49:22.204082 11287 net.cpp:156] Memory required for data: 1309586976
I0403 14:49:22.204099 11287 layer_factory.hpp:77] Creating layer inception_5a/output_inception_5a/output_0_split
I0403 14:49:22.204120 11287 net.cpp:91] Creating Layer inception_5a/output_inception_5a/output_0_split
I0403 14:49:22.204144 11287 net.cpp:425] inception_5a/output_inception_5a/output_0_split <- inception_5a/output
I0403 14:49:22.204166 11287 net.cpp:399] inception_5a/output_inception_5a/output_0_split -> inception_5a/output_inception_5a/output_0_split_0
I0403 14:49:22.204190 11287 net.cpp:399] inception_5a/output_inception_5a/output_0_split -> inception_5a/output_inception_5a/output_0_split_1
I0403 14:49:22.204212 11287 net.cpp:399] inception_5a/output_inception_5a/output_0_split -> inception_5a/output_inception_5a/output_0_split_2
I0403 14:49:22.204237 11287 net.cpp:399] inception_5a/output_inception_5a/output_0_split -> inception_5a/output_inception_5a/output_0_split_3
I0403 14:49:22.204382 11287 net.cpp:141] Setting up inception_5a/output_inception_5a/output_0_split
I0403 14:49:22.204411 11287 net.cpp:148] Top shape: 24 832 7 7 (978432)
I0403 14:49:22.204430 11287 net.cpp:148] Top shape: 24 832 7 7 (978432)
I0403 14:49:22.204449 11287 net.cpp:148] Top shape: 24 832 7 7 (978432)
I0403 14:49:22.204466 11287 net.cpp:148] Top shape: 24 832 7 7 (978432)
I0403 14:49:22.204483 11287 net.cpp:156] Memory required for data: 1325241888
I0403 14:49:22.204499 11287 layer_factory.hpp:77] Creating layer inception_5b/1x1
I0403 14:49:22.204527 11287 net.cpp:91] Creating Layer inception_5b/1x1
I0403 14:49:22.204550 11287 net.cpp:425] inception_5b/1x1 <- inception_5a/output_inception_5a/output_0_split_0
I0403 14:49:22.204574 11287 net.cpp:399] inception_5b/1x1 -> inception_5b/1x1
I0403 14:49:22.209170 11287 net.cpp:141] Setting up inception_5b/1x1
I0403 14:49:22.209208 11287 net.cpp:148] Top shape: 24 384 7 7 (451584)
I0403 14:49:22.209226 11287 net.cpp:156] Memory required for data: 1327048224
I0403 14:49:22.209250 11287 layer_factory.hpp:77] Creating layer inception_5b/relu_1x1
I0403 14:49:22.209275 11287 net.cpp:91] Creating Layer inception_5b/relu_1x1
I0403 14:49:22.209297 11287 net.cpp:425] inception_5b/relu_1x1 <- inception_5b/1x1
I0403 14:49:22.209318 11287 net.cpp:386] inception_5b/relu_1x1 -> inception_5b/1x1 (in-place)
I0403 14:49:22.209700 11287 net.cpp:141] Setting up inception_5b/relu_1x1
I0403 14:49:22.209733 11287 net.cpp:148] Top shape: 24 384 7 7 (451584)
I0403 14:49:22.209751 11287 net.cpp:156] Memory required for data: 1328854560
I0403 14:49:22.209770 11287 layer_factory.hpp:77] Creating layer inception_5b/3x3_reduce
I0403 14:49:22.209799 11287 net.cpp:91] Creating Layer inception_5b/3x3_reduce
I0403 14:49:22.209825 11287 net.cpp:425] inception_5b/3x3_reduce <- inception_5a/output_inception_5a/output_0_split_1
I0403 14:49:22.209847 11287 net.cpp:399] inception_5b/3x3_reduce -> inception_5b/3x3_reduce
I0403 14:49:22.213073 11287 net.cpp:141] Setting up inception_5b/3x3_reduce
I0403 14:49:22.213109 11287 net.cpp:148] Top shape: 24 192 7 7 (225792)
I0403 14:49:22.213132 11287 net.cpp:156] Memory required for data: 1329757728
I0403 14:49:22.213155 11287 layer_factory.hpp:77] Creating layer inception_5b/relu_3x3_reduce
I0403 14:49:22.213177 11287 net.cpp:91] Creating Layer inception_5b/relu_3x3_reduce
I0403 14:49:22.213196 11287 net.cpp:425] inception_5b/relu_3x3_reduce <- inception_5b/3x3_reduce
I0403 14:49:22.213217 11287 net.cpp:386] inception_5b/relu_3x3_reduce -> inception_5b/3x3_reduce (in-place)
I0403 14:49:22.213469 11287 net.cpp:141] Setting up inception_5b/relu_3x3_reduce
I0403 14:49:22.213502 11287 net.cpp:148] Top shape: 24 192 7 7 (225792)
I0403 14:49:22.213521 11287 net.cpp:156] Memory required for data: 1330660896
I0403 14:49:22.213539 11287 layer_factory.hpp:77] Creating layer inception_5b/3x3
I0403 14:49:22.213567 11287 net.cpp:91] Creating Layer inception_5b/3x3
I0403 14:49:22.213588 11287 net.cpp:425] inception_5b/3x3 <- inception_5b/3x3_reduce
I0403 14:49:22.213613 11287 net.cpp:399] inception_5b/3x3 -> inception_5b/3x3
I0403 14:49:22.221961 11287 net.cpp:141] Setting up inception_5b/3x3
I0403 14:49:22.221999 11287 net.cpp:148] Top shape: 24 384 7 7 (451584)
I0403 14:49:22.222020 11287 net.cpp:156] Memory required for data: 1332467232
I0403 14:49:22.222043 11287 layer_factory.hpp:77] Creating layer inception_5b/relu_3x3
I0403 14:49:22.222065 11287 net.cpp:91] Creating Layer inception_5b/relu_3x3
I0403 14:49:22.222085 11287 net.cpp:425] inception_5b/relu_3x3 <- inception_5b/3x3
I0403 14:49:22.222106 11287 net.cpp:386] inception_5b/relu_3x3 -> inception_5b/3x3 (in-place)
I0403 14:49:22.222476 11287 net.cpp:141] Setting up inception_5b/relu_3x3
I0403 14:49:22.222517 11287 net.cpp:148] Top shape: 24 384 7 7 (451584)
I0403 14:49:22.222537 11287 net.cpp:156] Memory required for data: 1334273568
I0403 14:49:22.222554 11287 layer_factory.hpp:77] Creating layer inception_5b/5x5_reduce
I0403 14:49:22.222604 11287 net.cpp:91] Creating Layer inception_5b/5x5_reduce
I0403 14:49:22.222627 11287 net.cpp:425] inception_5b/5x5_reduce <- inception_5a/output_inception_5a/output_0_split_2
I0403 14:49:22.222652 11287 net.cpp:399] inception_5b/5x5_reduce -> inception_5b/5x5_reduce
I0403 14:49:22.224230 11287 net.cpp:141] Setting up inception_5b/5x5_reduce
I0403 14:49:22.224264 11287 net.cpp:148] Top shape: 24 48 7 7 (56448)
I0403 14:49:22.224283 11287 net.cpp:156] Memory required for data: 1334499360
I0403 14:49:22.224306 11287 layer_factory.hpp:77] Creating layer inception_5b/relu_5x5_reduce
I0403 14:49:22.224330 11287 net.cpp:91] Creating Layer inception_5b/relu_5x5_reduce
I0403 14:49:22.224357 11287 net.cpp:425] inception_5b/relu_5x5_reduce <- inception_5b/5x5_reduce
I0403 14:49:22.224380 11287 net.cpp:386] inception_5b/relu_5x5_reduce -> inception_5b/5x5_reduce (in-place)
I0403 14:49:22.224840 11287 net.cpp:141] Setting up inception_5b/relu_5x5_reduce
I0403 14:49:22.224874 11287 net.cpp:148] Top shape: 24 48 7 7 (56448)
I0403 14:49:22.224891 11287 net.cpp:156] Memory required for data: 1334725152
I0403 14:49:22.224910 11287 layer_factory.hpp:77] Creating layer inception_5b/5x5
I0403 14:49:22.224936 11287 net.cpp:91] Creating Layer inception_5b/5x5
I0403 14:49:22.224956 11287 net.cpp:425] inception_5b/5x5 <- inception_5b/5x5_reduce
I0403 14:49:22.224979 11287 net.cpp:399] inception_5b/5x5 -> inception_5b/5x5
I0403 14:49:22.227519 11287 net.cpp:141] Setting up inception_5b/5x5
I0403 14:49:22.227560 11287 net.cpp:148] Top shape: 24 128 7 7 (150528)
I0403 14:49:22.227584 11287 net.cpp:156] Memory required for data: 1335327264
I0403 14:49:22.227607 11287 layer_factory.hpp:77] Creating layer inception_5b/relu_5x5
I0403 14:49:22.227637 11287 net.cpp:91] Creating Layer inception_5b/relu_5x5
I0403 14:49:22.227656 11287 net.cpp:425] inception_5b/relu_5x5 <- inception_5b/5x5
I0403 14:49:22.227680 11287 net.cpp:386] inception_5b/relu_5x5 -> inception_5b/5x5 (in-place)
I0403 14:49:22.227922 11287 net.cpp:141] Setting up inception_5b/relu_5x5
I0403 14:49:22.227952 11287 net.cpp:148] Top shape: 24 128 7 7 (150528)
I0403 14:49:22.227978 11287 net.cpp:156] Memory required for data: 1335929376
I0403 14:49:22.228006 11287 layer_factory.hpp:77] Creating layer inception_5b/pool
I0403 14:49:22.228030 11287 net.cpp:91] Creating Layer inception_5b/pool
I0403 14:49:22.228055 11287 net.cpp:425] inception_5b/pool <- inception_5a/output_inception_5a/output_0_split_3
I0403 14:49:22.228085 11287 net.cpp:399] inception_5b/pool -> inception_5b/pool
I0403 14:49:22.228181 11287 net.cpp:141] Setting up inception_5b/pool
I0403 14:49:22.228211 11287 net.cpp:148] Top shape: 24 832 7 7 (978432)
I0403 14:49:22.228230 11287 net.cpp:156] Memory required for data: 1339843104
I0403 14:49:22.228248 11287 layer_factory.hpp:77] Creating layer inception_5b/pool_proj
I0403 14:49:22.228276 11287 net.cpp:91] Creating Layer inception_5b/pool_proj
I0403 14:49:22.228297 11287 net.cpp:425] inception_5b/pool_proj <- inception_5b/pool
I0403 14:49:22.228322 11287 net.cpp:399] inception_5b/pool_proj -> inception_5b/pool_proj
I0403 14:49:22.231118 11287 net.cpp:141] Setting up inception_5b/pool_proj
I0403 14:49:22.231158 11287 net.cpp:148] Top shape: 24 128 7 7 (150528)
I0403 14:49:22.231178 11287 net.cpp:156] Memory required for data: 1340445216
I0403 14:49:22.231200 11287 layer_factory.hpp:77] Creating layer inception_5b/relu_pool_proj
I0403 14:49:22.231222 11287 net.cpp:91] Creating Layer inception_5b/relu_pool_proj
I0403 14:49:22.231247 11287 net.cpp:425] inception_5b/relu_pool_proj <- inception_5b/pool_proj
I0403 14:49:22.231272 11287 net.cpp:386] inception_5b/relu_pool_proj -> inception_5b/pool_proj (in-place)
I0403 14:49:22.231731 11287 net.cpp:141] Setting up inception_5b/relu_pool_proj
I0403 14:49:22.231768 11287 net.cpp:148] Top shape: 24 128 7 7 (150528)
I0403 14:49:22.231788 11287 net.cpp:156] Memory required for data: 1341047328
I0403 14:49:22.231807 11287 layer_factory.hpp:77] Creating layer inception_5b/output
I0403 14:49:22.231829 11287 net.cpp:91] Creating Layer inception_5b/output
I0403 14:49:22.231868 11287 net.cpp:425] inception_5b/output <- inception_5b/1x1
I0403 14:49:22.231890 11287 net.cpp:425] inception_5b/output <- inception_5b/3x3
I0403 14:49:22.231910 11287 net.cpp:425] inception_5b/output <- inception_5b/5x5
I0403 14:49:22.231930 11287 net.cpp:425] inception_5b/output <- inception_5b/pool_proj
I0403 14:49:22.231950 11287 net.cpp:399] inception_5b/output -> inception_5b/output
I0403 14:49:22.232075 11287 net.cpp:141] Setting up inception_5b/output
I0403 14:49:22.232108 11287 net.cpp:148] Top shape: 24 1024 7 7 (1204224)
I0403 14:49:22.232127 11287 net.cpp:156] Memory required for data: 1345864224
I0403 14:49:22.232153 11287 layer_factory.hpp:77] Creating layer pool5/7x7_s1
I0403 14:49:22.232179 11287 net.cpp:91] Creating Layer pool5/7x7_s1
I0403 14:49:22.232199 11287 net.cpp:425] pool5/7x7_s1 <- inception_5b/output
I0403 14:49:22.232223 11287 net.cpp:399] pool5/7x7_s1 -> pool5/7x7_s1
I0403 14:49:22.232560 11287 net.cpp:141] Setting up pool5/7x7_s1
I0403 14:49:22.232595 11287 net.cpp:148] Top shape: 24 1024 1 1 (24576)
I0403 14:49:22.232668 11287 net.cpp:156] Memory required for data: 1345962528
I0403 14:49:22.232689 11287 layer_factory.hpp:77] Creating layer pool5/drop_7x7_s1
I0403 14:49:22.232712 11287 net.cpp:91] Creating Layer pool5/drop_7x7_s1
I0403 14:49:22.232734 11287 net.cpp:425] pool5/drop_7x7_s1 <- pool5/7x7_s1
I0403 14:49:22.232758 11287 net.cpp:386] pool5/drop_7x7_s1 -> pool5/7x7_s1 (in-place)
I0403 14:49:22.232820 11287 net.cpp:141] Setting up pool5/drop_7x7_s1
I0403 14:49:22.232849 11287 net.cpp:148] Top shape: 24 1024 1 1 (24576)
I0403 14:49:22.232867 11287 net.cpp:156] Memory required for data: 1346060832
I0403 14:49:22.232883 11287 layer_factory.hpp:77] Creating layer loss3/classifier_plantvillage
I0403 14:49:22.232962 11287 net.cpp:91] Creating Layer loss3/classifier_plantvillage
I0403 14:49:22.232985 11287 net.cpp:425] loss3/classifier_plantvillage <- pool5/7x7_s1
I0403 14:49:22.233012 11287 net.cpp:399] loss3/classifier_plantvillage -> loss3/classifier_plantvillage
I0403 14:49:22.233638 11287 net.cpp:141] Setting up loss3/classifier_plantvillage
I0403 14:49:22.233669 11287 net.cpp:148] Top shape: 24 38 (912)
I0403 14:49:22.233687 11287 net.cpp:156] Memory required for data: 1346064480
I0403 14:49:22.233710 11287 layer_factory.hpp:77] Creating layer loss3/classifier_plantvillage_loss3/classifier_plantvillage_0_split
I0403 14:49:22.233736 11287 net.cpp:91] Creating Layer loss3/classifier_plantvillage_loss3/classifier_plantvillage_0_split
I0403 14:49:22.233757 11287 net.cpp:425] loss3/classifier_plantvillage_loss3/classifier_plantvillage_0_split <- loss3/classifier_plantvillage
I0403 14:49:22.233778 11287 net.cpp:399] loss3/classifier_plantvillage_loss3/classifier_plantvillage_0_split -> loss3/classifier_plantvillage_loss3/classifier_plantvillage_0_split_0
I0403 14:49:22.233804 11287 net.cpp:399] loss3/classifier_plantvillage_loss3/classifier_plantvillage_0_split -> loss3/classifier_plantvillage_loss3/classifier_plantvillage_0_split_1
I0403 14:49:22.233832 11287 net.cpp:399] loss3/classifier_plantvillage_loss3/classifier_plantvillage_0_split -> loss3/classifier_plantvillage_loss3/classifier_plantvillage_0_split_2
I0403 14:49:22.233857 11287 net.cpp:399] loss3/classifier_plantvillage_loss3/classifier_plantvillage_0_split -> loss3/classifier_plantvillage_loss3/classifier_plantvillage_0_split_3
I0403 14:49:22.233980 11287 net.cpp:141] Setting up loss3/classifier_plantvillage_loss3/classifier_plantvillage_0_split
I0403 14:49:22.234009 11287 net.cpp:148] Top shape: 24 38 (912)
I0403 14:49:22.234030 11287 net.cpp:148] Top shape: 24 38 (912)
I0403 14:49:22.234048 11287 net.cpp:148] Top shape: 24 38 (912)
I0403 14:49:22.234066 11287 net.cpp:148] Top shape: 24 38 (912)
I0403 14:49:22.234082 11287 net.cpp:156] Memory required for data: 1346079072
I0403 14:49:22.234103 11287 layer_factory.hpp:77] Creating layer loss1/loss
I0403 14:49:22.234130 11287 net.cpp:91] Creating Layer loss1/loss
I0403 14:49:22.234151 11287 net.cpp:425] loss1/loss <- loss1/classifier_plantvillage_loss1/classifier_plantvillage_0_split_0
I0403 14:49:22.234190 11287 net.cpp:425] loss1/loss <- label_data_1_split_0
…
