…
I0403 14:57:30.814168 11430 net.cpp:313] The NetState phase (1) differed from the phase (0) specified by a rule in layer data
I0403 14:57:30.815387 11430 net.cpp:49] Initializing net from parameters: 
state {
  phase: TEST
}
layer {
  name: "data"
  type: "Data"
  top: "data"
  top: "label"
  include {
    phase: TEST
  }
  transform_param {
    mirror: false
    crop_size: 224
    mean_file: "/home/mohanty/data/final_dataset/lmdb/segmented-40-60/mean.binaryproto"
  }
  data_param {
    source: "/home/mohanty/data/final_dataset/lmdb/segmented-40-60/test_db"
    batch_size: 24
    backend: LMDB
  }
}
layer {
  name: "conv1/7x7_s2"
  type: "Convolution"
  bottom: "data"
  top: "conv1/7x7_s2"
  param {
    lr_mult: 1
    decay_mult: 1
  }
  param {
    lr_mult: 2
    decay_mult: 0
  }
  convolution_param {
    num_output: 64
    pad: 3
    kernel_size: 7
    stride: 2
    weight_filler {
      type: "xavier"
      std: 0.1
    }
    bias_filler {
      type: "constant"
      value: 0.2
    }
  }
}
layer {
  name: "conv1/relu_7x7"
  type: "ReLU"
  bottom: "conv1/7x7_s2"
  top: "conv1/7x7_s2"
}
layer {
  name: "pool1/3x3_s2"
  type: "Pooling"
  bottom: "conv1/7x7_s2"
  top: "pool1/3x3_s2"
  pooling_param {
    pool: MAX
    kernel_size: 3
    stride: 2
  }
}
layer {
  name: "pool1/norm1"
  type: "LRN"
  bottom: "pool1/3x3_s2"
  top: "pool1/norm1"
  lrn_param {
    local_size: 5
    alpha: 0.0001
    beta: 0.75
  }
}
layer {
  name: "conv2/3x3_reduce"
  type: "Convolution"
  bottom: "pool1/norm1"
  top: "conv2/3x3_reduce"
  param {
    lr_mult: 1
    decay_mult: 1
  }
  param {
    lr_mult: 2
    decay_mult: 0
  }
  convolution_param {
    num_output: 64
    kernel_size: 1
    weight_filler {
      type: "xavier"
      std: 0.1
    }
    bias_filler {
      type: "constant"
      value: 0.2
    }
  }
}
layer {
  name: "conv2/relu_3x3_reduce"
  type: "ReLU"
  bottom: "conv2/3x3_reduce"
  top: "conv2/3x3_reduce"
}
layer {
  name: "conv2/3x3"
  type: "Convolution"
  bottom: "conv2/3x3_reduce"
  top: "conv2/3x3"
  param {
    lr_mult: 1
    decay_mult: 1
  }
  param {
    lr_mult: 2
    decay_mult: 0
  }
  convolution_param {
    num_output: 192
    pad: 1
    kernel_size: 3
    weight_filler {
      type: "xavier"
      std: 0.03
    }
    bias_filler {
      type: "constant"
      value: 0.2
    }
  }
}
layer {
  name: "conv2/relu_3x3"
  type: "ReLU"
  bottom: "conv2/3x3"
  top: "conv2/3x3"
}
layer {
  name: "conv2/norm2"
  type: "LRN"
  bottom: "conv2/3x3"
  top: "conv2/norm2"
  lrn_param {
    local_size: 5
    alpha: 0.0001
    beta: 0.75
  }
}
layer {
  name: "pool2/3x3_s2"
  type: "Pooling"
  bottom: "conv2/norm2"
  top: "pool2/3x3_s2"
  pooling_param {
    pool: MAX
    kernel_size: 3
    stride: 2
  }
}
layer {
  name: "inception_3a/1x1"
  type: "Convolution"
  bottom: "pool2/3x3_s2"
  top: "inception_3a/1x1"
  param {
    lr_mult: 1
    decay_mult: 1
  }
  param {
    lr_mult: 2
    decay_mult: 0
  }
  convolution_param {
    num_output: 64
    kernel_size: 1
    weight_filler {
      type: "xavier"
      std: 0.03
    }
    bias_filler {
      type: "constant"
      value: 0.2
    }
  }
}
layer {
  name: "inception_3a/relu_1x1"
  type: "ReLU"
  bottom: "inception_3a/1x1"
  top: "inception_3a/1x1"
}
layer {
  name: "inception_3a/3x3_reduce"
  type: "Convolution"
  bottom: "pool2/3x3_s2"
  top: "inception_3a/3x3_reduce"
  param {
    lr_mult: 1
    decay_mult: 1
  }
  param {
    lr_mult: 2
    decay_mult: 0
  }
  convolution_param {
    num_output: 96
    kernel_size: 1
    weight_filler {
      type: "xavier"
      std: 0.09
    }
    bias_filler {
      type: "constant"
      value: 0.2
    }
  }
}
layer {
  name: "inception_3a/relu_3x3_reduce"
  type: "ReLU"
  bottom: "inception_3a/3x3_reduce"
  top: "inception_3a/3x3_reduce"
}
layer {
  name: "inception_3a/3x3"
  type: "Convolution"
  bottom: "inception_3a/3x3_reduce"
  top: "inception_3a/3x3"
  param {
    lr_mult: 1
    decay_mult: 1
  }
  param {
    lr_mult: 2
    decay_mult: 0
  }
  convolution_param {
    num_output: 128
    pad: 1
    kernel_size: 3
    weight_filler {
      type: "xavier"
      std: 0.03
    }
    bias_filler {
      type: "constant"
      value: 0.2
    }
  }
}
layer {
  name: "inception_3a/relu_3x3"
  type: "ReLU"
  bottom: "inception_3a/3x3"
  top: "inception_3a/3x3"
}
layer {
  name: "inception_3a/5x5_reduce"
  type: "Convolution"
  bottom: "pool2/3x3_s2"
  top: "inception_3a/5x5_reduce"
  param {
    lr_mult: 1
    decay_mult: 1
  }
  param {
    lr_mult: 2
    decay_mult: 0
  }
  convolution_param {
    num_output: 16
    kernel_size: 1
    weight_filler {
      type: "xavier"
      std: 0.2
    }
    bias_filler {
      type: "constant"
      value: 0.2
    }
  }
}
layer {
  name: "inception_3a/relu_5x5_reduce"
  type: "ReLU"
  bottom: "inception_3a/5x5_reduce"
  top: "inception_3a/5x5_reduce"
}
layer {
  name: "inception_3a/5x5"
  type: "Convolution"
  bottom: "inception_3a/5x5_reduce"
  top: "inception_3a/5x5"
  param {
    lr_mult: 1
    decay_mult: 1
  }
  param {
    lr_mult: 2
    decay_mult: 0
  }
  convolution_param {
    num_output: 32
    pad: 2
    kernel_size: 5
    weight_filler {
      type: "xavier"
      std: 0.03
    }
    bias_filler {
      type: "constant"
      value: 0.2
    }
  }
}
layer {
  name: "inception_3a/relu_5x5"
  type: "ReLU"
  bottom: "inception_3a/5x5"
  top: "inception_3a/5x5"
}
layer {
  name: "inception_3a/pool"
  type: "Pooling"
  bottom: "pool2/3x3_s2"
  top: "inception_3a/pool"
  pooling_param {
    pool: MAX
    kernel_size: 3
    stride: 1
    pad: 1
  }
}
layer {
  name: "inception_3a/pool_proj"
  type: "Convolution"
  bottom: "inception_3a/pool"
  top: "inception_3a/pool_proj"
  param {
    lr_mult: 1
    decay_mult: 1
  }
  param {
    lr_mult: 2
    decay_mult: 0
  }
  convolution_param {
    num_output: 32
    kernel_size: 1
    weight_filler {
      type: "xavier"
      std: 0.1
    }
    bias_filler {
      type: "constant"
      value: 0.2
    }
  }
}
layer {
  name: "inception_3a/relu_pool_proj"
  type: "ReLU"
  bottom: "inception_3a/pool_proj"
  top: "inception_3a/pool_proj"
}
layer {
  name: "inception_3a/output"
  type: "Concat"
  bottom: "inception_3a/1x1"
  bottom: "inception_3a/3x3"
  bottom: "inception_3a/5x5"
  bottom: "inception_3a/pool_proj"
  top: "inception_3a/output"
}
layer {
  name: "inception_3b/1x1"
  type: "Convolution"
  bottom: "inception_3a/output"
  top: "inception_3b/1x1"
  param {
    lr_mult: 1
    decay_mult: 1
  }
  param {
    lr_mult: 2
    decay_mult: 0
  }
  convolution_param {
    num_output: 128
    kernel_size: 1
    weight_filler {
      type: "xavier"
      std: 0.03
    }
    bias_filler {
      type: "constant"
      value: 0.2
    }
  }
}
layer {
  name: "inception_3b/relu_1x1"
  type: "ReLU"
  bottom: "inception_3b/1x1"
  top: "inception_3b/1x1"
}
layer {
  name: "inception_3b/3x3_reduce"
  type: "Convolution"
  bottom: "inception_3a/output"
  top: "inception_3b/3x3_reduce"
  param {
    lr_mult: 1
    decay_mult: 1
  }
  param {
    lr_mult: 2
    decay_mult: 0
  }
  convolution_param {
    num_output: 128
    kernel_size: 1
    weight_filler {
      type: "xavier"
      std: 0.09
    }
    bias_filler {
      type: "constant"
      value: 0.2
    }
  }
}
layer {
  name: "inception_3b/relu_3x3_reduce"
  type: "ReLU"
  bottom: "inception_3b/3x3_reduce"
  top: "inception_3b/3x3_reduce"
}
layer {
  name: "inception_3b/3x3"
  type: "Convolution"
  bottom: "inception_3b/3x3_reduce"
  top: "inception_3b/3x3"
  param {
    lr_mult: 1
    decay_mult: 1
  }
  param {
    lr_mult: 2
    decay_mult: 0
  }
  convolution_param {
    num_output: 192
    pad: 1
    kernel_size: 3
    weight_filler {
      type: "xavier"
      std: 0.03
    }
    bias_filler {
      type: "constant"
      value: 0.2
    }
  }
}
layer {
  name: "inception_3b/relu_3x3"
  type: "ReLU"
  bottom: "inception_3b/3x3"
  top: "inception_3b/3x3"
}
layer {
  name: "inception_3b/5x5_reduce"
  type: "Convolution"
  bottom: "inception_3a/output"
  top: "inception_3b/5x5_reduce"
  param {
    lr_mult: 1
    decay_mult: 1
  }
  param {
    lr_mult: 2
    decay_mult: 0
  }
  convolution_param {
    num_output: 32
    kernel_size: 1
    weight_filler {
      type: "xavier"
      std: 0.2
    }
    bias_filler {
      type: "constant"
      value: 0.2
    }
  }
}
layer {
  name: "inception_3b/relu_5x5_reduce"
  type: "ReLU"
  bottom: "inception_3b/5x5_reduce"
  top: "inception_3b/5x5_reduce"
}
layer {
  name: "inception_3b/5x5"
  type: "Convolution"
  bottom: "inception_3b/5x5_reduce"
  top: "inception_3b/5x5"
  param {
    lr_mult: 1
    decay_mult: 1
  }
  param {
    lr_mult: 2
    decay_mult: 0
  }
  convolution_param {
    num_output: 96
    pad: 2
    kernel_size: 5
    weight_filler {
      type: "xavier"
      std: 0.03
    }
    bias_filler {
      type: "constant"
      value: 0.2
    }
  }
}
layer {
  name: "inception_3b/relu_5x5"
  type: "ReLU"
  bottom: "inception_3b/5x5"
  top: "inception_3b/5x5"
}
layer {
  name: "inception_3b/pool"
  type: "Pooling"
  bottom: "inception_3a/output"
  top: "inception_3b/pool"
  pooling_param {
    pool: MAX
    kernel_size: 3
    stride: 1
    pad: 1
  }
}
layer {
  name: "inception_3b/pool_proj"
  type: "Convolution"
  bottom: "inception_3b/pool"
  top: "inception_3b/pool_proj"
  param {
    lr_mult: 1
    decay_mult: 1
  }
  param {
    lr_mult: 2
    decay_mult: 0
  }
  convolution_param {
    num_output: 64
    kernel_size: 1
    weight_filler {
      type: "xavier"
      std: 0.1
    }
    bias_filler {
      type: "constant"
      value: 0.2
    }
  }
}
layer {
  name: "inception_3b/relu_pool_proj"
  type: "ReLU"
  bottom: "inception_3b/pool_proj"
  top: "inception_3b/pool_proj"
}
layer {
  name: "inception_3b/output"
  type: "Concat"
  bottom: "inception_3b/1x1"
  bottom: "inception_3b/3x3"
  bottom: "inception_3b/5x5"
  bottom: "inception_3b/pool_proj"
  top: "inception_3b/output"
}
layer {
  name: "pool3/3x3_s2"
  type: "Pooling"
  bottom: "inception_3b/output"
  top: "pool3/3x3_s2"
  pooling_param {
    pool: MAX
    kernel_size: 3
    stride: 2
  }
}
layer {
  name: "inception_4a/1x1"
  type: "Convolution"
  bottom: "pool3/3x3_s2"
  top: "inception_4a/1x1"
  param {
    lr_mult: 1
    decay_mult: 1
  }
  param {
    lr_mult: 2
    decay_mult: 0
  }
  convolution_param {
    num_output: 192
    kernel_size: 1
    weight_filler {
      type: "xavier"
      std: 0.03
    }
    bias_filler {
      type: "constant"
      value: 0.2
    }
  }
}
layer {
  name: "inception_4a/relu_1x1"
  type: "ReLU"
  bottom: "inception_4a/1x1"
  top: "inception_4a/1x1"
}
layer {
  name: "inception_4a/3x3_reduce"
  type: "Convolution"
  bottom: "pool3/3x3_s2"
  top: "inception_4a/3x3_reduce"
  param {
    lr_mult: 1
    decay_mult: 1
  }
  param {
    lr_mult: 2
    decay_mult: 0
  }
  convolution_param {
    num_output: 96
    kernel_size: 1
    weight_filler {
      type: "xavier"
      std: 0.09
    }
    bias_filler {
      type: "constant"
      value: 0.2
    }
  }
}
layer {
  name: "inception_4a/relu_3x3_reduce"
  type: "ReLU"
  bottom: "inception_4a/3x3_reduce"
  top: "inception_4a/3x3_reduce"
}
layer {
  name: "inception_4a/3x3"
  type: "Convolution"
  bottom: "inception_4a/3x3_reduce"
  top: "inception_4a/3x3"
  param {
    lr_mult: 1
    decay_mult: 1
  }
  param {
    lr_mult: 2
    decay_mult: 0
  }
  convolution_param {
    num_output: 208
    pad: 1
    kernel_size: 3
    weight_filler {
      type: "xavier"
      std: 0.03
    }
    bias_filler {
      type: "constant"
      value: 0.2
    }
  }
}
layer {
  name: "inception_4a/relu_3x3"
  type: "ReLU"
  bottom: "inception_4a/3x3"
  top: "inception_4a/3x3"
}
layer {
  name: "inception_4a/5x5_reduce"
  type: "Convolution"
  bottom: "pool3/3x3_s2"
  top: "inception_4a/5x5_reduce"
  param {
    lr_mult: 1
    decay_mult: 1
  }
  param {
    lr_mult: 2
    decay_mult: 0
  }
  convolution_param {
    num_output: 16
    kernel_size: 1
    weight_filler {
      type: "xavier"
      std: 0.2
    }
    bias_filler {
      type: "constant"
      value: 0.2
    }
  }
}
layer {
  name: "inception_4a/relu_5x5_reduce"
  type: "ReLU"
  bottom: "inception_4a/5x5_reduce"
  top: "inception_4a/5x5_reduce"
}
layer {
  name: "inception_4a/5x5"
  type: "Convolution"
  bottom: "inception_4a/5x5_reduce"
  top: "inception_4a/5x5"
  param {
    lr_mult: 1
    decay_mult: 1
  }
  param {
    lr_mult: 2
    decay_mult: 0
  }
  convolution_param {
    num_output: 48
    pad: 2
    kernel_size: 5
    weight_filler {
      type: "xavier"
      std: 0.03
    }
    bias_filler {
      type: "constant"
      value: 0.2
    }
  }
}
layer {
  name: "inception_4a/relu_5x5"
  type: "ReLU"
  bottom: "inception_4a/5x5"
  top: "inception_4a/5x5"
}
layer {
  name: "inception_4a/pool"
  type: "Pooling"
  bottom: "pool3/3x3_s2"
  top: "inception_4a/pool"
  pooling_param {
    pool: MAX
    kernel_size: 3
    stride: 1
    pad: 1
  }
}
layer {
  name: "inception_4a/pool_proj"
  type: "Convolution"
  bottom: "inception_4a/pool"
  top: "inception_4a/pool_proj"
  param {
    lr_mult: 1
    decay_mult: 1
  }
  param {
    lr_mult: 2
    decay_mult: 0
  }
  convolution_param {
    num_output: 64
    kernel_size: 1
    weight_filler {
      type: "xavier"
      std: 0.1
    }
    bias_filler {
      type: "constant"
      value: 0.2
    }
  }
}
layer {
  name: "inception_4a/relu_pool_proj"
  type: "ReLU"
  bottom: "inception_4a/pool_proj"
  top: "inception_4a/pool_proj"
}
layer {
  name: "inception_4a/output"
  type: "Concat"
  bottom: "inception_4a/1x1"
  bottom: "inception_4a/3x3"
  bottom: "inception_4a/5x5"
  bottom: "inception_4a/pool_proj"
  top: "inception_4a/output"
}
layer {
  name: "loss1/ave_pool"
  type: "Pooling"
  bottom: "inception_4a/output"
  top: "loss1/ave_pool"
  pooling_param {
    pool: AVE
    kernel_size: 5
    stride: 3
  }
}
layer {
  name: "loss1/conv"
  type: "Convolution"
  bottom: "loss1/ave_pool"
  top: "loss1/conv"
  param {
    lr_mult: 1
    decay_mult: 1
  }
  param {
    lr_mult: 2
    decay_mult: 0
  }
  convolution_param {
    num_output: 128
    kernel_size: 1
    weight_filler {
      type: "xavier"
      std: 0.08
    }
    bias_filler {
      type: "constant"
      value: 0.2
    }
  }
}
layer {
  name: "loss1/relu_conv"
  type: "ReLU"
  bottom: "loss1/conv"
  top: "loss1/conv"
}
layer {
  name: "loss1/fc"
  type: "InnerProduct"
  bottom: "loss1/conv"
  top: "loss1/fc"
  param {
    lr_mult: 1
    decay_mult: 1
  }
  param {
    lr_mult: 2
    decay_mult: 0
  }
  inner_product_param {
    num_output: 1024
    weight_filler {
      type: "xavier"
      std: 0.02
    }
    bias_filler {
      type: "constant"
      value: 0.2
    }
  }
}
layer {
  name: "loss1/relu_fc"
  type: "ReLU"
  bottom: "loss1/fc"
  top: "loss1/fc"
}
layer {
  name: "loss1/drop_fc"
  type: "Dropout"
  bottom: "loss1/fc"
  top: "loss1/fc"
  dropout_param {
    dropout_ratio: 0.7
  }
}
layer {
  name: "loss1/classifier_plantvillage"
  type: "InnerProduct"
  bottom: "loss1/fc"
  top: "loss1/classifier_plantvillage"
  param {
    lr_mult: 1
    decay_mult: 1
  }
  param {
    lr_mult: 2
    decay_mult: 0
  }
  inner_product_param {
    num_output: 38
    weight_filler {
      type: "xavier"
      std: 0.0009765625
    }
    bias_filler {
      type: "constant"
      value: 0
    }
  }
}
layer {
  name: "inception_4b/1x1"
  type: "Convolution"
  bottom: "inception_4a/output"
  top: "inception_4b/1x1"
  param {
    lr_mult: 1
    decay_mult: 1
  }
  param {
    lr_mult: 2
    decay_mult: 0
  }
  convolution_param {
    num_output: 160
    kernel_size: 1
    weight_filler {
      type: "xavier"
      std: 0.03
    }
    bias_filler {
      type: "constant"
      value: 0.2
    }
  }
}
layer {
  name: "inception_4b/relu_1x1"
  type: "ReLU"
  bottom: "inception_4b/1x1"
  top: "inception_4b/1x1"
}
layer {
  name: "inception_4b/3x3_reduce"
  type: "Convolution"
  bottom: "inception_4a/output"
  top: "inception_4b/3x3_reduce"
  param {
    lr_mult: 1
    decay_mult: 1
  }
  param {
    lr_mult: 2
    decay_mult: 0
  }
  convolution_param {
    num_output: 112
    kernel_size: 1
    weight_filler {
      type: "xavier"
      std: 0.09
    }
    bias_filler {
      type: "constant"
      value: 0.2
    }
  }
}
layer {
  name: "inception_4b/relu_3x3_reduce"
  type: "ReLU"
  bottom: "inception_4b/3x3_reduce"
  top: "inception_4b/3x3_reduce"
}
layer {
  name: "inception_4b/3x3"
  type: "Convolution"
  bottom: "inception_4b/3x3_reduce"
  top: "inception_4b/3x3"
  param {
    lr_mult: 1
    decay_mult: 1
  }
  param {
    lr_mult: 2
    decay_mult: 0
  }
  convolution_param {
    num_output: 224
    pad: 1
    kernel_size: 3
    weight_filler {
      type: "xavier"
      std: 0.03
    }
    bias_filler {
      type: "constant"
      value: 0.2
    }
  }
}
layer {
  name: "inception_4b/relu_3x3"
  type: "ReLU"
  bottom: "inception_4b/3x3"
  top: "inception_4b/3x3"
}
layer {
  name: "inception_4b/5x5_reduce"
  type: "Convolution"
  bottom: "inception_4a/output"
  top: "inception_4b/5x5_reduce"
  param {
    lr_mult: 1
    decay_mult: 1
  }
  param {
    lr_mult: 2
    decay_mult: 0
  }
  convolution_param {
    num_output: 24
    kernel_size: 1
    weight_filler {
      type: "xavier"
      std: 0.2
    }
    bias_filler {
      type: "constant"
      value: 0.2
    }
  }
}
layer {
  name: "inception_4b/relu_5x5_reduce"
  type: "ReLU"
  bottom: "inception_4b/5x5_reduce"
  top: "inception_4b/5x5_reduce"
}
layer {
  name: "inception_4b/5x5"
  type: "Convolution"
  bottom: "inception_4b/5x5_reduce"
  top: "inception_4b/5x5"
  param {
    lr_mult: 1
    decay_mult: 1
  }
  param {
    lr_mult: 2
    decay_mult: 0
  }
  convolution_param {
    num_output: 64
    pad: 2
    kernel_size: 5
    weight_filler {
      type: "xavier"
      std: 0.03
    }
    bias_filler {
      type: "constant"
      value: 0.2
    }
  }
}
layer {
  name: "inception_4b/relu_5x5"
  type: "ReLU"
  bottom: "inception_4b/5x5"
  top: "inception_4b/5x5"
}
layer {
  name: "inception_4b/pool"
  type: "Pooling"
  bottom: "inception_4a/output"
  top: "inception_4b/pool"
  pooling_param {
    pool: MAX
    kernel_size: 3
    stride: 1
    pad: 1
  }
}
layer {
  name: "inception_4b/pool_proj"
  type: "Convolution"
  bottom: "inception_4b/pool"
  top: "inception_4b/pool_proj"
  param {
    lr_mult: 1
    decay_mult: 1
  }
  param {
    lr_mult: 2
    decay_mult: 0
  }
  convolution_param {
    num_output: 64
    kernel_size: 1
    weight_filler {
      type: "xavier"
      std: 0.1
    }
    bias_filler {
      type: "constant"
      value: 0.2
    }
  }
}
layer {
  name: "inception_4b/relu_pool_proj"
  type: "ReLU"
  bottom: "inception_4b/pool_proj"
  top: "inception_4b/pool_proj"
}
layer {
  name: "inception_4b/output"
  type: "Concat"
  bottom: "inception_4b/1x1"
  bottom: "inception_4b/3x3"
  bottom: "inception_4b/5x5"
  bottom: "inception_4b/pool_proj"
  top: "inception_4b/output"
}
layer {
  name: "inception_4c/1x1"
  type: "Convolution"
  bottom: "inception_4b/output"
  top: "inception_4c/1x1"
  param {
    lr_mult: 1
    decay_mult: 1
  }
  param {
    lr_mult: 2
    decay_mult: 0
  }
  convolution_param {
    num_output: 128
    kernel_size: 1
    weight_filler {
      type: "xavier"
      std: 0.03
    }
    bias_filler {
      type: "constant"
      value: 0.2
    }
  }
}
layer {
  name: "inception_4c/relu_1x1"
  type: "ReLU"
  bottom: "inception_4c/1x1"
  top: "inception_4c/1x1"
}
layer {
  name: "inception_4c/3x3_reduce"
  type: "Convolution"
  bottom: "inception_4b/output"
  top: "inception_4c/3x3_reduce"
  param {
    lr_mult: 1
    decay_mult: 1
  }
  param {
    lr_mult: 2
    decay_mult: 0
  }
  convolution_param {
    num_output: 128
    kernel_size: 1
    weight_filler {
      type: "xavier"
      std: 0.09
    }
    bias_filler {
      type: "constant"
      value: 0.2
    }
  }
}
layer {
  name: "inception_4c/relu_3x3_reduce"
  type: "ReLU"
  bottom: "inception_4c/3x3_reduce"
  top: "inception_4c/3x3_reduce"
}
layer {
  name: "inception_4c/3x3"
  type: "Convolution"
  bottom: "inception_4c/3x3_reduce"
  top: "inception_4c/3x3"
  param {
    lr_mult: 1
    decay_mult: 1
  }
  param {
    lr_mult: 2
    decay_mult: 0
  }
  convolution_param {
    num_output: 256
    pad: 1
    kernel_size: 3
    weight_filler {
      type: "xavier"
      std: 0.03
    }
    bias_filler {
      type: "constant"
      value: 0.2
    }
  }
}
layer {
  name: "inception_4c/relu_3x3"
  type: "ReLU"
  bottom: "inception_4c/3x3"
  top: "inception_4c/3x3"
}
layer {
  name: "inception_4c/5x5_reduce"
  type: "Convolution"
  bottom: "inception_4b/output"
  top: "inception_4c/5x5_reduce"
  param {
    lr_mult: 1
    decay_mult: 1
  }
  param {
    lr_mult: 2
    decay_mult: 0
  }
  convolution_param {
    num_output: 24
    kernel_size: 1
    weight_filler {
      type: "xavier"
      std: 0.2
    }
    bias_filler {
      type: "constant"
      value: 0.2
    }
  }
}
layer {
  name: "inception_4c/relu_5x5_reduce"
  type: "ReLU"
  bottom: "inception_4c/5x5_reduce"
  top: "inception_4c/5x5_reduce"
}
layer {
  name: "inception_4c/5x5"
  type: "Convolution"
  bottom: "inception_4c/5x5_reduce"
  top: "inception_4c/5x5"
  param {
    lr_mult: 1
    decay_mult: 1
  }
  param {
    lr_mult: 2
    decay_mult: 0
  }
  convolution_param {
    num_output: 64
    pad: 2
    kernel_size: 5
    weight_filler {
      type: "xavier"
      std: 0.03
    }
    bias_filler {
      type: "constant"
      value: 0.2
    }
  }
}
layer {
  name: "inception_4c/relu_5x5"
  type: "ReLU"
  bottom: "inception_4c/5x5"
  top: "inception_4c/5x5"
}
layer {
  name: "inception_4c/pool"
  type: "Pooling"
  bottom: "inception_4b/output"
  top: "inception_4c/pool"
  pooling_param {
    pool: MAX
    kernel_size: 3
    stride: 1
    pad: 1
  }
}
layer {
  name: "inception_4c/pool_proj"
  type: "Convolution"
  bottom: "inception_4c/pool"
  top: "inception_4c/pool_proj"
  param {
    lr_mult: 1
    decay_mult: 1
  }
  param {
    lr_mult: 2
    decay_mult: 0
  }
  convolution_param {
    num_output: 64
    kernel_size: 1
    weight_filler {
      type: "xavier"
      std: 0.1
    }
    bias_filler {
      type: "constant"
      value: 0.2
    }
  }
}
layer {
  name: "inception_4c/relu_pool_proj"
  type: "ReLU"
  bottom: "inception_4c/pool_proj"
  top: "inception_4c/pool_proj"
}
layer {
  name: "inception_4c/output"
  type: "Concat"
  bottom: "inception_4c/1x1"
  bottom: "inception_4c/3x3"
  bottom: "inception_4c/5x5"
  bottom: "inception_4c/pool_proj"
  top: "inception_4c/output"
}
layer {
  name: "inception_4d/1x1"
  type: "Convolution"
  bottom: "inception_4c/output"
  top: "inception_4d/1x1"
  param {
    lr_mult: 1
    decay_mult: 1
  }
  param {
    lr_mult: 2
    decay_mult: 0
  }
  convolution_param {
    num_output: 112
    kernel_size: 1
    weight_filler {
      type: "xavier"
      std: 0.03
    }
    bias_filler {
      type: "constant"
      value: 0.2
    }
  }
}
layer {
  name: "inception_4d/relu_1x1"
  type: "ReLU"
  bottom: "inception_4d/1x1"
  top: "inception_4d/1x1"
}
layer {
  name: "inception_4d/3x3_reduce"
  type: "Convolution"
  bottom: "inception_4c/output"
  top: "inception_4d/3x3_reduce"
  param {
    lr_mult: 1
    decay_mult: 1
  }
  param {
    lr_mult: 2
    decay_mult: 0
  }
  convolution_param {
    num_output: 144
    kernel_size: 1
    weight_filler {
      type: "xavier"
      std: 0.09
    }
    bias_filler {
      type: "constant"
      value: 0.2
    }
  }
}
layer {
  name: "inception_4d/relu_3x3_reduce"
  type: "ReLU"
  bottom: "inception_4d/3x3_reduce"
  top: "inception_4d/3x3_reduce"
}
layer {
  name: "inception_4d/3x3"
  type: "Convolution"
  bottom: "inception_4d/3x3_reduce"
  top: "inception_4d/3x3"
  param {
    lr_mult: 1
    decay_mult: 1
  }
  param {
    lr_mult: 2
    decay_mult: 0
  }
  convolution_param {
    num_output: 288
    pad: 1
    kernel_size: 3
    weight_filler {
      type: "xavier"
      std: 0.03
    }
    bias_filler {
      type: "constant"
      value: 0.2
    }
  }
}
layer {
  name: "inception_4d/relu_3x3"
  type: "ReLU"
  bottom: "inception_4d/3x3"
  top: "inception_4d/3x3"
}
layer {
  name: "inception_4d/5x5_reduce"
  type: "Convolution"
  bottom: "inception_4c/output"
  top: "inception_4d/5x5_reduce"
  param {
    lr_mult: 1
    decay_mult: 1
  }
  param {
    lr_mult: 2
    decay_mult: 0
  }
  convolution_param {
    num_output: 32
    kernel_size: 1
    weight_filler {
      type: "xavier"
      std: 0.2
    }
    bias_filler {
      type: "constant"
      value: 0.2
    }
  }
}
layer {
  name: "inception_4d/relu_5x5_reduce"
  type: "ReLU"
  bottom: "inception_4d/5x5_reduce"
  top: "inception_4d/5x5_reduce"
}
layer {
  name: "inception_4d/5x5"
  type: "Convolution"
  bottom: "inception_4d/5x5_reduce"
  top: "inception_4d/5x5"
  param {
    lr_mult: 1
    decay_mult: 1
  }
  param {
    lr_mult: 2
    decay_mult: 0
  }
  convolution_param {
    num_output: 64
    pad: 2
    kernel_size: 5
    weight_filler {
      type: "xavier"
      std: 0.03
    }
    bias_filler {
      type: "constant"
      value: 0.2
    }
  }
}
layer {
  name: "inception_4d/relu_5x5"
  type: "ReLU"
  bottom: "inception_4d/5x5"
  top: "inception_4d/5x5"
}
layer {
  name: "inception_4d/pool"
  type: "Pooling"
  bottom: "inception_4c/output"
  top: "inception_4d/pool"
  pooling_param {
    pool: MAX
    kernel_size: 3
    stride: 1
    pad: 1
  }
}
layer {
  name: "inception_4d/pool_proj"
  type: "Convolution"
  bottom: "inception_4d/pool"
  top: "inception_4d/pool_proj"
  param {
    lr_mult: 1
    decay_mult: 1
  }
  param {
    lr_mult: 2
    decay_mult: 0
  }
  convolution_param {
    num_output: 64
    kernel_size: 1
    weight_filler {
      type: "xavier"
      std: 0.1
    }
    bias_filler {
      type: "constant"
      value: 0.2
    }
  }
}
layer {
  name: "inception_4d/relu_pool_proj"
  type: "ReLU"
  bottom: "inception_4d/pool_proj"
  top: "inception_4d/pool_proj"
}
layer {
  name: "inception_4d/output"
  type: "Concat"
  bottom: "inception_4d/1x1"
  bottom: "inception_4d/3x3"
  bottom: "inception_4d/5x5"
  bottom: "inception_4d/pool_proj"
  top: "inception_4d/output"
}
layer {
  name: "loss2/ave_pool"
  type: "Pooling"
  bottom: "inception_4d/output"
  top: "loss2/ave_pool"
  pooling_param {
    pool: AVE
    kernel_size: 5
    stride: 3
  }
}
layer {
  name: "loss2/conv"
  type: "Convolution"
  bottom: "loss2/ave_pool"
  top: "loss2/conv"
  param {
    lr_mult: 1
    decay_mult: 1
  }
  param {
    lr_mult: 2
    decay_mult: 0
  }
  convolution_param {
    num_output: 128
    kernel_size: 1
    weight_filler {
      type: "xavier"
      std: 0.08
    }
    bias_filler {
      type: "constant"
      value: 0.2
    }
  }
}
layer {
  name: "loss2/relu_conv"
  type: "ReLU"
  bottom: "loss2/conv"
  top: "loss2/conv"
}
layer {
  name: "loss2/fc"
  type: "InnerProduct"
  bottom: "loss2/conv"
  top: "loss2/fc"
  param {
    lr_mult: 1
    decay_mult: 1
  }
  param {
    lr_mult: 2
    decay_mult: 0
  }
  inner_product_param {
    num_output: 1024
    weight_filler {
      type: "xavier"
      std: 0.02
    }
    bias_filler {
      type: "constant"
      value: 0.2
    }
  }
}
layer {
  name: "loss2/relu_fc"
  type: "ReLU"
  bottom: "loss2/fc"
  top: "loss2/fc"
}
layer {
  name: "loss2/drop_fc"
  type: "Dropout"
  bottom: "loss2/fc"
  top: "loss2/fc"
  dropout_param {
    dropout_ratio: 0.7
  }
}
layer {
  name: "loss2/classifier_plantvillage"
  type: "InnerProduct"
  bottom: "loss2/fc"
  top: "loss2/classifier_plantvillage"
  param {
    lr_mult: 1
    decay_mult: 1
  }
  param {
    lr_mult: 2
    decay_mult: 0
  }
  inner_product_param {
    num_output: 38
    weight_filler {
      type: "xavier"
      std: 0.0009765625
    }
    bias_filler {
      type: "constant"
      value: 0
    }
  }
}
layer {
  name: "inception_4e/1x1"
  type: "Convolution"
  bottom: "inception_4d/output"
  top: "inception_4e/1x1"
  param {
    lr_mult: 1
    decay_mult: 1
  }
  param {
    lr_mult: 2
    decay_mult: 0
  }
  convolution_param {
    num_output: 256
    kernel_size: 1
    weight_filler {
      type: "xavier"
      std: 0.03
    }
    bias_filler {
      type: "constant"
      value: 0.2
    }
  }
}
layer {
  name: "inception_4e/relu_1x1"
  type: "ReLU"
  bottom: "inception_4e/1x1"
  top: "inception_4e/1x1"
}
layer {
  name: "inception_4e/3x3_reduce"
  type: "Convolution"
  bottom: "inception_4d/output"
  top: "inception_4e/3x3_reduce"
  param {
    lr_mult: 1
    decay_mult: 1
  }
  param {
    lr_mult: 2
    decay_mult: 0
  }
  convolution_param {
    num_output: 160
    kernel_size: 1
    weight_filler {
      type: "xavier"
      std: 0.09
    }
    bias_filler {
      type: "constant"
      value: 0.2
    }
  }
}
layer {
  name: "inception_4e/relu_3x3_reduce"
  type: "ReLU"
  bottom: "inception_4e/3x3_reduce"
  top: "inception_4e/3x3_reduce"
}
layer {
  name: "inception_4e/3x3"
  type: "Convolution"
  bottom: "inception_4e/3x3_reduce"
  top: "inception_4e/3x3"
  param {
    lr_mult: 1
    decay_mult: 1
  }
  param {
    lr_mult: 2
    decay_mult: 0
  }
  convolution_param {
    num_output: 320
    pad: 1
    kernel_size: 3
    weight_filler {
      type: "xavier"
      std: 0.03
    }
    bias_filler {
      type: "constant"
      value: 0.2
    }
  }
}
layer {
  name: "inception_4e/relu_3x3"
  type: "ReLU"
  bottom: "inception_4e/3x3"
  top: "inception_4e/3x3"
}
layer {
  name: "inception_4e/5x5_reduce"
  type: "Convolution"
  bottom: "inception_4d/output"
  top: "inception_4e/5x5_reduce"
  param {
    lr_mult: 1
    decay_mult: 1
  }
  param {
    lr_mult: 2
    decay_mult: 0
  }
  convolution_param {
    num_output: 32
    kernel_size: 1
    weight_filler {
      type: "xavier"
      std: 0.2
    }
    bias_filler {
      type: "constant"
      value: 0.2
    }
  }
}
layer {
  name: "inception_4e/relu_5x5_reduce"
  type: "ReLU"
  bottom: "inception_4e/5x5_reduce"
  top: "inception_4e/5x5_reduce"
}
layer {
  name: "inception_4e/5x5"
  type: "Convolution"
  bottom: "inception_4e/5x5_reduce"
  top: "inception_4e/
I0403 14:57:30.816701 11430 layer_factory.hpp:77] Creating layer data
I0403 14:57:30.817333 11430 net.cpp:91] Creating Layer data
I0403 14:57:30.817364 11430 net.cpp:399] data -> data
I0403 14:57:30.817420 11430 net.cpp:399] data -> label
I0403 14:57:30.817457 11430 data_transformer.cpp:25] Loading mean file from: /home/mohanty/data/final_dataset/lmdb/segmented-40-60/mean.binaryproto
I0403 14:57:30.821951 11435 db_lmdb.cpp:38] Opened lmdb /home/mohanty/data/final_dataset/lmdb/segmented-40-60/test_db
I0403 14:57:30.831146 11430 data_layer.cpp:41] output data size: 24,3,224,224
I0403 14:57:30.858810 11430 net.cpp:141] Setting up data
I0403 14:57:30.858909 11430 net.cpp:148] Top shape: 24 3 224 224 (3612672)
I0403 14:57:30.858932 11430 net.cpp:148] Top shape: 24 (24)
I0403 14:57:30.858945 11430 net.cpp:156] Memory required for data: 14450784
I0403 14:57:30.858973 11430 layer_factory.hpp:77] Creating layer label_data_1_split
I0403 14:57:30.858999 11430 net.cpp:91] Creating Layer label_data_1_split
I0403 14:57:30.859015 11430 net.cpp:425] label_data_1_split <- label
I0403 14:57:30.859046 11430 net.cpp:399] label_data_1_split -> label_data_1_split_0
I0403 14:57:30.859073 11430 net.cpp:399] label_data_1_split -> label_data_1_split_1
I0403 14:57:30.859093 11430 net.cpp:399] label_data_1_split -> label_data_1_split_2
I0403 14:57:30.859113 11430 net.cpp:399] label_data_1_split -> label_data_1_split_3
I0403 14:57:30.859133 11430 net.cpp:399] label_data_1_split -> label_data_1_split_4
I0403 14:57:30.859151 11430 net.cpp:399] label_data_1_split -> label_data_1_split_5
I0403 14:57:30.859170 11430 net.cpp:399] label_data_1_split -> label_data_1_split_6
I0403 14:57:30.859189 11430 net.cpp:399] label_data_1_split -> label_data_1_split_7
I0403 14:57:30.859208 11430 net.cpp:399] label_data_1_split -> label_data_1_split_8
I0403 14:57:30.859227 11430 net.cpp:399] label_data_1_split -> label_data_1_split_9
I0403 14:57:30.859345 11430 net.cpp:141] Setting up label_data_1_split
I0403 14:57:30.859369 11430 net.cpp:148] Top shape: 24 (24)
I0403 14:57:30.859386 11430 net.cpp:148] Top shape: 24 (24)
I0403 14:57:30.859401 11430 net.cpp:148] Top shape: 24 (24)
I0403 14:57:30.859416 11430 net.cpp:148] Top shape: 24 (24)
I0403 14:57:30.859431 11430 net.cpp:148] Top shape: 24 (24)
I0403 14:57:30.859447 11430 net.cpp:148] Top shape: 24 (24)
I0403 14:57:30.859462 11430 net.cpp:148] Top shape: 24 (24)
I0403 14:57:30.859477 11430 net.cpp:148] Top shape: 24 (24)
I0403 14:57:30.859491 11430 net.cpp:148] Top shape: 24 (24)
I0403 14:57:30.859506 11430 net.cpp:148] Top shape: 24 (24)
I0403 14:57:30.859549 11430 net.cpp:156] Memory required for data: 14451744
I0403 14:57:30.859565 11430 layer_factory.hpp:77] Creating layer conv1/7x7_s2
I0403 14:57:30.859597 11430 net.cpp:91] Creating Layer conv1/7x7_s2
I0403 14:57:30.859616 11430 net.cpp:425] conv1/7x7_s2 <- data
I0403 14:57:30.859633 11430 net.cpp:399] conv1/7x7_s2 -> conv1/7x7_s2
I0403 14:57:30.999042 11430 net.cpp:141] Setting up conv1/7x7_s2
I0403 14:57:30.999133 11430 net.cpp:148] Top shape: 24 64 112 112 (19267584)
I0403 14:57:30.999150 11430 net.cpp:156] Memory required for data: 91522080
I0403 14:57:30.999181 11430 layer_factory.hpp:77] Creating layer conv1/relu_7x7
I0403 14:57:30.999208 11430 net.cpp:91] Creating Layer conv1/relu_7x7
I0403 14:57:30.999228 11430 net.cpp:425] conv1/relu_7x7 <- conv1/7x7_s2
I0403 14:57:30.999246 11430 net.cpp:386] conv1/relu_7x7 -> conv1/7x7_s2 (in-place)
I0403 14:57:30.999519 11430 net.cpp:141] Setting up conv1/relu_7x7
I0403 14:57:30.999549 11430 net.cpp:148] Top shape: 24 64 112 112 (19267584)
I0403 14:57:30.999567 11430 net.cpp:156] Memory required for data: 168592416
I0403 14:57:30.999582 11430 layer_factory.hpp:77] Creating layer pool1/3x3_s2
I0403 14:57:30.999604 11430 net.cpp:91] Creating Layer pool1/3x3_s2
I0403 14:57:30.999622 11430 net.cpp:425] pool1/3x3_s2 <- conv1/7x7_s2
I0403 14:57:30.999642 11430 net.cpp:399] pool1/3x3_s2 -> pool1/3x3_s2
I0403 14:57:30.999718 11430 net.cpp:141] Setting up pool1/3x3_s2
I0403 14:57:30.999742 11430 net.cpp:148] Top shape: 24 64 56 56 (4816896)
I0403 14:57:30.999758 11430 net.cpp:156] Memory required for data: 187860000
I0403 14:57:30.999773 11430 layer_factory.hpp:77] Creating layer pool1/norm1
I0403 14:57:30.999796 11430 net.cpp:91] Creating Layer pool1/norm1
I0403 14:57:30.999812 11430 net.cpp:425] pool1/norm1 <- pool1/3x3_s2
I0403 14:57:30.999831 11430 net.cpp:399] pool1/norm1 -> pool1/norm1
I0403 14:57:31.000133 11430 net.cpp:141] Setting up pool1/norm1
I0403 14:57:31.000160 11430 net.cpp:148] Top shape: 24 64 56 56 (4816896)
I0403 14:57:31.000176 11430 net.cpp:156] Memory required for data: 207127584
I0403 14:57:31.000190 11430 layer_factory.hpp:77] Creating layer conv2/3x3_reduce
I0403 14:57:31.000216 11430 net.cpp:91] Creating Layer conv2/3x3_reduce
I0403 14:57:31.000233 11430 net.cpp:425] conv2/3x3_reduce <- pool1/norm1
I0403 14:57:31.000254 11430 net.cpp:399] conv2/3x3_reduce -> conv2/3x3_reduce
I0403 14:57:31.001533 11430 net.cpp:141] Setting up conv2/3x3_reduce
I0403 14:57:31.001562 11430 net.cpp:148] Top shape: 24 64 56 56 (4816896)
I0403 14:57:31.001579 11430 net.cpp:156] Memory required for data: 226395168
I0403 14:57:31.001600 11430 layer_factory.hpp:77] Creating layer conv2/relu_3x3_reduce
I0403 14:57:31.001621 11430 net.cpp:91] Creating Layer conv2/relu_3x3_reduce
I0403 14:57:31.001637 11430 net.cpp:425] conv2/relu_3x3_reduce <- conv2/3x3_reduce
I0403 14:57:31.001655 11430 net.cpp:386] conv2/relu_3x3_reduce -> conv2/3x3_reduce (in-place)
I0403 14:57:31.001925 11430 net.cpp:141] Setting up conv2/relu_3x3_reduce
I0403 14:57:31.001951 11430 net.cpp:148] Top shape: 24 64 56 56 (4816896)
I0403 14:57:31.001966 11430 net.cpp:156] Memory required for data: 245662752
I0403 14:57:31.001981 11430 layer_factory.hpp:77] Creating layer conv2/3x3
I0403 14:57:31.002007 11430 net.cpp:91] Creating Layer conv2/3x3
I0403 14:57:31.002024 11430 net.cpp:425] conv2/3x3 <- conv2/3x3_reduce
I0403 14:57:31.002044 11430 net.cpp:399] conv2/3x3 -> conv2/3x3
I0403 14:57:31.004330 11430 net.cpp:141] Setting up conv2/3x3
I0403 14:57:31.004361 11430 net.cpp:148] Top shape: 24 192 56 56 (14450688)
I0403 14:57:31.004377 11430 net.cpp:156] Memory required for data: 303465504
I0403 14:57:31.004400 11430 layer_factory.hpp:77] Creating layer conv2/relu_3x3
I0403 14:57:31.004420 11430 net.cpp:91] Creating Layer conv2/relu_3x3
I0403 14:57:31.004437 11430 net.cpp:425] conv2/relu_3x3 <- conv2/3x3
I0403 14:57:31.004454 11430 net.cpp:386] conv2/relu_3x3 -> conv2/3x3 (in-place)
I0403 14:57:31.004631 11430 net.cpp:141] Setting up conv2/relu_3x3
I0403 14:57:31.004657 11430 net.cpp:148] Top shape: 24 192 56 56 (14450688)
I0403 14:57:31.004701 11430 net.cpp:156] Memory required for data: 361268256
I0403 14:57:31.004716 11430 layer_factory.hpp:77] Creating layer conv2/norm2
I0403 14:57:31.004734 11430 net.cpp:91] Creating Layer conv2/norm2
I0403 14:57:31.004750 11430 net.cpp:425] conv2/norm2 <- conv2/3x3
I0403 14:57:31.004770 11430 net.cpp:399] conv2/norm2 -> conv2/norm2
I0403 14:57:31.005074 11430 net.cpp:141] Setting up conv2/norm2
I0403 14:57:31.005100 11430 net.cpp:148] Top shape: 24 192 56 56 (14450688)
I0403 14:57:31.005115 11430 net.cpp:156] Memory required for data: 419071008
I0403 14:57:31.005130 11430 layer_factory.hpp:77] Creating layer pool2/3x3_s2
I0403 14:57:31.005149 11430 net.cpp:91] Creating Layer pool2/3x3_s2
I0403 14:57:31.005165 11430 net.cpp:425] pool2/3x3_s2 <- conv2/norm2
I0403 14:57:31.005183 11430 net.cpp:399] pool2/3x3_s2 -> pool2/3x3_s2
I0403 14:57:31.005236 11430 net.cpp:141] Setting up pool2/3x3_s2
I0403 14:57:31.005259 11430 net.cpp:148] Top shape: 24 192 28 28 (3612672)
I0403 14:57:31.005275 11430 net.cpp:156] Memory required for data: 433521696
I0403 14:57:31.005288 11430 layer_factory.hpp:77] Creating layer pool2/3x3_s2_pool2/3x3_s2_0_split
I0403 14:57:31.005306 11430 net.cpp:91] Creating Layer pool2/3x3_s2_pool2/3x3_s2_0_split
I0403 14:57:31.005327 11430 net.cpp:425] pool2/3x3_s2_pool2/3x3_s2_0_split <- pool2/3x3_s2
I0403 14:57:31.005349 11430 net.cpp:399] pool2/3x3_s2_pool2/3x3_s2_0_split -> pool2/3x3_s2_pool2/3x3_s2_0_split_0
I0403 14:57:31.005370 11430 net.cpp:399] pool2/3x3_s2_pool2/3x3_s2_0_split -> pool2/3x3_s2_pool2/3x3_s2_0_split_1
I0403 14:57:31.005389 11430 net.cpp:399] pool2/3x3_s2_pool2/3x3_s2_0_split -> pool2/3x3_s2_pool2/3x3_s2_0_split_2
I0403 14:57:31.005409 11430 net.cpp:399] pool2/3x3_s2_pool2/3x3_s2_0_split -> pool2/3x3_s2_pool2/3x3_s2_0_split_3
I0403 14:57:31.005477 11430 net.cpp:141] Setting up pool2/3x3_s2_pool2/3x3_s2_0_split
I0403 14:57:31.005502 11430 net.cpp:148] Top shape: 24 192 28 28 (3612672)
I0403 14:57:31.005519 11430 net.cpp:148] Top shape: 24 192 28 28 (3612672)
I0403 14:57:31.005535 11430 net.cpp:148] Top shape: 24 192 28 28 (3612672)
I0403 14:57:31.005551 11430 net.cpp:148] Top shape: 24 192 28 28 (3612672)
I0403 14:57:31.005564 11430 net.cpp:156] Memory required for data: 491324448
I0403 14:57:31.005578 11430 layer_factory.hpp:77] Creating layer inception_3a/1x1
I0403 14:57:31.005600 11430 net.cpp:91] Creating Layer inception_3a/1x1
I0403 14:57:31.005617 11430 net.cpp:425] inception_3a/1x1 <- pool2/3x3_s2_pool2/3x3_s2_0_split_0
I0403 14:57:31.005636 11430 net.cpp:399] inception_3a/1x1 -> inception_3a/1x1
I0403 14:57:31.007159 11430 net.cpp:141] Setting up inception_3a/1x1
I0403 14:57:31.007189 11430 net.cpp:148] Top shape: 24 64 28 28 (1204224)
I0403 14:57:31.007205 11430 net.cpp:156] Memory required for data: 496141344
I0403 14:57:31.007222 11430 layer_factory.hpp:77] Creating layer inception_3a/relu_1x1
I0403 14:57:31.007242 11430 net.cpp:91] Creating Layer inception_3a/relu_1x1
I0403 14:57:31.007259 11430 net.cpp:425] inception_3a/relu_1x1 <- inception_3a/1x1
I0403 14:57:31.007277 11430 net.cpp:386] inception_3a/relu_1x1 -> inception_3a/1x1 (in-place)
I0403 14:57:31.007463 11430 net.cpp:141] Setting up inception_3a/relu_1x1
I0403 14:57:31.007489 11430 net.cpp:148] Top shape: 24 64 28 28 (1204224)
I0403 14:57:31.007505 11430 net.cpp:156] Memory required for data: 500958240
I0403 14:57:31.007520 11430 layer_factory.hpp:77] Creating layer inception_3a/3x3_reduce
I0403 14:57:31.007544 11430 net.cpp:91] Creating Layer inception_3a/3x3_reduce
I0403 14:57:31.007560 11430 net.cpp:425] inception_3a/3x3_reduce <- pool2/3x3_s2_pool2/3x3_s2_0_split_1
I0403 14:57:31.007578 11430 net.cpp:399] inception_3a/3x3_reduce -> inception_3a/3x3_reduce
I0403 14:57:31.009274 11430 net.cpp:141] Setting up inception_3a/3x3_reduce
I0403 14:57:31.009304 11430 net.cpp:148] Top shape: 24 96 28 28 (1806336)
I0403 14:57:31.009326 11430 net.cpp:156] Memory required for data: 508183584
I0403 14:57:31.009348 11430 layer_factory.hpp:77] Creating layer inception_3a/relu_3x3_reduce
I0403 14:57:31.009387 11430 net.cpp:91] Creating Layer inception_3a/relu_3x3_reduce
I0403 14:57:31.009404 11430 net.cpp:425] inception_3a/relu_3x3_reduce <- inception_3a/3x3_reduce
I0403 14:57:31.009423 11430 net.cpp:386] inception_3a/relu_3x3_reduce -> inception_3a/3x3_reduce (in-place)
I0403 14:57:31.009608 11430 net.cpp:141] Setting up inception_3a/relu_3x3_reduce
I0403 14:57:31.009632 11430 net.cpp:148] Top shape: 24 96 28 28 (1806336)
I0403 14:57:31.009647 11430 net.cpp:156] Memory required for data: 515408928
I0403 14:57:31.009662 11430 layer_factory.hpp:77] Creating layer inception_3a/3x3
I0403 14:57:31.009685 11430 net.cpp:91] Creating Layer inception_3a/3x3
I0403 14:57:31.009702 11430 net.cpp:425] inception_3a/3x3 <- inception_3a/3x3_reduce
I0403 14:57:31.009724 11430 net.cpp:399] inception_3a/3x3 -> inception_3a/3x3
I0403 14:57:31.011406 11430 net.cpp:141] Setting up inception_3a/3x3
I0403 14:57:31.011437 11430 net.cpp:148] Top shape: 24 128 28 28 (2408448)
I0403 14:57:31.011453 11430 net.cpp:156] Memory required for data: 525042720
I0403 14:57:31.011471 11430 layer_factory.hpp:77] Creating layer inception_3a/relu_3x3
I0403 14:57:31.011488 11430 net.cpp:91] Creating Layer inception_3a/relu_3x3
I0403 14:57:31.011503 11430 net.cpp:425] inception_3a/relu_3x3 <- inception_3a/3x3
I0403 14:57:31.011521 11430 net.cpp:386] inception_3a/relu_3x3 -> inception_3a/3x3 (in-place)
I0403 14:57:31.011802 11430 net.cpp:141] Setting up inception_3a/relu_3x3
I0403 14:57:31.011831 11430 net.cpp:148] Top shape: 24 128 28 28 (2408448)
I0403 14:57:31.011847 11430 net.cpp:156] Memory required for data: 534676512
I0403 14:57:31.011862 11430 layer_factory.hpp:77] Creating layer inception_3a/5x5_reduce
I0403 14:57:31.011884 11430 net.cpp:91] Creating Layer inception_3a/5x5_reduce
I0403 14:57:31.011901 11430 net.cpp:425] inception_3a/5x5_reduce <- pool2/3x3_s2_pool2/3x3_s2_0_split_2
I0403 14:57:31.011920 11430 net.cpp:399] inception_3a/5x5_reduce -> inception_3a/5x5_reduce
I0403 14:57:31.012888 11430 net.cpp:141] Setting up inception_3a/5x5_reduce
I0403 14:57:31.012919 11430 net.cpp:148] Top shape: 24 16 28 28 (301056)
I0403 14:57:31.012935 11430 net.cpp:156] Memory required for data: 535880736
I0403 14:57:31.012954 11430 layer_factory.hpp:77] Creating layer inception_3a/relu_5x5_reduce
I0403 14:57:31.012972 11430 net.cpp:91] Creating Layer inception_3a/relu_5x5_reduce
I0403 14:57:31.012989 11430 net.cpp:425] inception_3a/relu_5x5_reduce <- inception_3a/5x5_reduce
I0403 14:57:31.013007 11430 net.cpp:386] inception_3a/relu_5x5_reduce -> inception_3a/5x5_reduce (in-place)
I0403 14:57:31.013304 11430 net.cpp:141] Setting up inception_3a/relu_5x5_reduce
I0403 14:57:31.013336 11430 net.cpp:148] Top shape: 24 16 28 28 (301056)
I0403 14:57:31.013353 11430 net.cpp:156] Memory required for data: 537084960
I0403 14:57:31.013367 11430 layer_factory.hpp:77] Creating layer inception_3a/5x5
I0403 14:57:31.013391 11430 net.cpp:91] Creating Layer inception_3a/5x5
I0403 14:57:31.013408 11430 net.cpp:425] inception_3a/5x5 <- inception_3a/5x5_reduce
I0403 14:57:31.013430 11430 net.cpp:399] inception_3a/5x5 -> inception_3a/5x5
I0403 14:57:31.014461 11430 net.cpp:141] Setting up inception_3a/5x5
I0403 14:57:31.014489 11430 net.cpp:148] Top shape: 24 32 28 28 (602112)
I0403 14:57:31.014506 11430 net.cpp:156] Memory required for data: 539493408
I0403 14:57:31.014524 11430 layer_factory.hpp:77] Creating layer inception_3a/relu_5x5
I0403 14:57:31.014546 11430 net.cpp:91] Creating Layer inception_3a/relu_5x5
I0403 14:57:31.014564 11430 net.cpp:425] inception_3a/relu_5x5 <- inception_3a/5x5
I0403 14:57:31.014581 11430 net.cpp:386] inception_3a/relu_5x5 -> inception_3a/5x5 (in-place)
I0403 14:57:31.014770 11430 net.cpp:141] Setting up inception_3a/relu_5x5
I0403 14:57:31.014796 11430 net.cpp:148] Top shape: 24 32 28 28 (602112)
I0403 14:57:31.014812 11430 net.cpp:156] Memory required for data: 541901856
I0403 14:57:31.014827 11430 layer_factory.hpp:77] Creating layer inception_3a/pool
I0403 14:57:31.014844 11430 net.cpp:91] Creating Layer inception_3a/pool
I0403 14:57:31.014873 11430 net.cpp:425] inception_3a/pool <- pool2/3x3_s2_pool2/3x3_s2_0_split_3
I0403 14:57:31.014895 11430 net.cpp:399] inception_3a/pool -> inception_3a/pool
I0403 14:57:31.014955 11430 net.cpp:141] Setting up inception_3a/pool
I0403 14:57:31.014981 11430 net.cpp:148] Top shape: 24 192 28 28 (3612672)
I0403 14:57:31.014996 11430 net.cpp:156] Memory required for data: 556352544
I0403 14:57:31.015010 11430 layer_factory.hpp:77] Creating layer inception_3a/pool_proj
I0403 14:57:31.015029 11430 net.cpp:91] Creating Layer inception_3a/pool_proj
I0403 14:57:31.015046 11430 net.cpp:425] inception_3a/pool_proj <- inception_3a/pool
I0403 14:57:31.015069 11430 net.cpp:399] inception_3a/pool_proj -> inception_3a/pool_proj
I0403 14:57:31.016029 11430 net.cpp:141] Setting up inception_3a/pool_proj
I0403 14:57:31.016057 11430 net.cpp:148] Top shape: 24 32 28 28 (602112)
I0403 14:57:31.016073 11430 net.cpp:156] Memory required for data: 558760992
I0403 14:57:31.016098 11430 layer_factory.hpp:77] Creating layer inception_3a/relu_pool_proj
I0403 14:57:31.016116 11430 net.cpp:91] Creating Layer inception_3a/relu_pool_proj
I0403 14:57:31.016132 11430 net.cpp:425] inception_3a/relu_pool_proj <- inception_3a/pool_proj
I0403 14:57:31.016152 11430 net.cpp:386] inception_3a/relu_pool_proj -> inception_3a/pool_proj (in-place)
I0403 14:57:31.016448 11430 net.cpp:141] Setting up inception_3a/relu_pool_proj
I0403 14:57:31.016479 11430 net.cpp:148] Top shape: 24 32 28 28 (602112)
I0403 14:57:31.016494 11430 net.cpp:156] Memory required for data: 561169440
I0403 14:57:31.016510 11430 layer_factory.hpp:77] Creating layer inception_3a/output
I0403 14:57:31.016527 11430 net.cpp:91] Creating Layer inception_3a/output
I0403 14:57:31.016543 11430 net.cpp:425] inception_3a/output <- inception_3a/1x1
I0403 14:57:31.016561 11430 net.cpp:425] inception_3a/output <- inception_3a/3x3
I0403 14:57:31.016577 11430 net.cpp:425] inception_3a/output <- inception_3a/5x5
I0403 14:57:31.016592 11430 net.cpp:425] inception_3a/output <- inception_3a/pool_proj
I0403 14:57:31.016612 11430 net.cpp:399] inception_3a/output -> inception_3a/output
I0403 14:57:31.016659 11430 net.cpp:141] Setting up inception_3a/output
I0403 14:57:31.016683 11430 net.cpp:148] Top shape: 24 256 28 28 (4816896)
I0403 14:57:31.016697 11430 net.cpp:156] Memory required for data: 580437024
I0403 14:57:31.016712 11430 layer_factory.hpp:77] Creating layer inception_3a/output_inception_3a/output_0_split
I0403 14:57:31.016732 11430 net.cpp:91] Creating Layer inception_3a/output_inception_3a/output_0_split
I0403 14:57:31.016749 11430 net.cpp:425] inception_3a/output_inception_3a/output_0_split <- inception_3a/output
I0403 14:57:31.016767 11430 net.cpp:399] inception_3a/output_inception_3a/output_0_split -> inception_3a/output_inception_3a/output_0_split_0
I0403 14:57:31.016788 11430 net.cpp:399] inception_3a/output_inception_3a/output_0_split -> inception_3a/output_inception_3a/output_0_split_1
I0403 14:57:31.016813 11430 net.cpp:399] inception_3a/output_inception_3a/output_0_split -> inception_3a/output_inception_3a/output_0_split_2
I0403 14:57:31.016835 11430 net.cpp:399] inception_3a/output_inception_3a/output_0_split -> inception_3a/output_inception_3a/output_0_split_3
I0403 14:57:31.016922 11430 net.cpp:141] Setting up inception_3a/output_inception_3a/output_0_split
I0403 14:57:31.016957 11430 net.cpp:148] Top shape: 24 256 28 28 (4816896)
I0403 14:57:31.016973 11430 net.cpp:148] Top shape: 24 256 28 28 (4816896)
I0403 14:57:31.016989 11430 net.cpp:148] Top shape: 24 256 28 28 (4816896)
I0403 14:57:31.017005 11430 net.cpp:148] Top shape: 24 256 28 28 (4816896)
I0403 14:57:31.017019 11430 net.cpp:156] Memory required for data: 657507360
I0403 14:57:31.017035 11430 layer_factory.hpp:77] Creating layer inception_3b/1x1
I0403 14:57:31.017057 11430 net.cpp:91] Creating Layer inception_3b/1x1
I0403 14:57:31.017076 11430 net.cpp:425] inception_3b/1x1 <- inception_3a/output_inception_3a/output_0_split_0
I0403 14:57:31.017096 11430 net.cpp:399] inception_3b/1x1 -> inception_3b/1x1
I0403 14:57:31.018266 11430 net.cpp:141] Setting up inception_3b/1x1
I0403 14:57:31.018306 11430 net.cpp:148] Top shape: 24 128 28 28 (2408448)
I0403 14:57:31.018331 11430 net.cpp:156] Memory required for data: 667141152
I0403 14:57:31.018350 11430 layer_factory.hpp:77] Creating layer inception_3b/relu_1x1
I0403 14:57:31.018373 11430 net.cpp:91] Creating Layer inception_3b/relu_1x1
I0403 14:57:31.018391 11430 net.cpp:425] inception_3b/relu_1x1 <- inception_3b/1x1
I0403 14:57:31.018409 11430 net.cpp:386] inception_3b/relu_1x1 -> inception_3b/1x1 (in-place)
I0403 14:57:31.018590 11430 net.cpp:141] Setting up inception_3b/relu_1x1
I0403 14:57:31.018620 11430 net.cpp:148] Top shape: 24 128 28 28 (2408448)
I0403 14:57:31.018635 11430 net.cpp:156] Memory required for data: 676774944
I0403 14:57:31.018649 11430 layer_factory.hpp:77] Creating layer inception_3b/3x3_reduce
I0403 14:57:31.018671 11430 net.cpp:91] Creating Layer inception_3b/3x3_reduce
I0403 14:57:31.018689 11430 net.cpp:425] inception_3b/3x3_reduce <- inception_3a/output_inception_3a/output_0_split_1
I0403 14:57:31.018707 11430 net.cpp:399] inception_3b/3x3_reduce -> inception_3b/3x3_reduce
I0403 14:57:31.019865 11430 net.cpp:141] Setting up inception_3b/3x3_reduce
I0403 14:57:31.019892 11430 net.cpp:148] Top shape: 24 128 28 28 (2408448)
I0403 14:57:31.019907 11430 net.cpp:156] Memory required for data: 686408736
I0403 14:57:31.019925 11430 layer_factory.hpp:77] Creating layer inception_3b/relu_3x3_reduce
I0403 14:57:31.019947 11430 net.cpp:91] Creating Layer inception_3b/relu_3x3_reduce
I0403 14:57:31.019963 11430 net.cpp:425] inception_3b/relu_3x3_reduce <- inception_3b/3x3_reduce
I0403 14:57:31.019980 11430 net.cpp:386] inception_3b/relu_3x3_reduce -> inception_3b/3x3_reduce (in-place)
I0403 14:57:31.020154 11430 net.cpp:141] Setting up inception_3b/relu_3x3_reduce
I0403 14:57:31.020181 11430 net.cpp:148] Top shape: 24 128 28 28 (2408448)
I0403 14:57:31.020196 11430 net.cpp:156] Memory required for data: 696042528
I0403 14:57:31.020211 11430 layer_factory.hpp:77] Creating layer inception_3b/3x3
I0403 14:57:31.020236 11430 net.cpp:91] Creating Layer inception_3b/3x3
I0403 14:57:31.020253 11430 net.cpp:425] inception_3b/3x3 <- inception_3b/3x3_reduce
I0403 14:57:31.020274 11430 net.cpp:399] inception_3b/3x3 -> inception_3b/3x3
I0403 14:57:31.023178 11430 net.cpp:141] Setting up inception_3b/3x3
I0403 14:57:31.023211 11430 net.cpp:148] Top shape: 24 192 28 28 (3612672)
I0403 14:57:31.023226 11430 net.cpp:156] Memory required for data: 710493216
I0403 14:57:31.023246 11430 layer_factory.hpp:77] Creating layer inception_3b/relu_3x3
I0403 14:57:31.023262 11430 net.cpp:91] Creating Layer inception_3b/relu_3x3
I0403 14:57:31.023278 11430 net.cpp:425] inception_3b/relu_3x3 <- inception_3b/3x3
I0403 14:57:31.023295 11430 net.cpp:386] inception_3b/relu_3x3 -> inception_3b/3x3 (in-place)
I0403 14:57:31.023582 11430 net.cpp:141] Setting up inception_3b/relu_3x3
I0403 14:57:31.023610 11430 net.cpp:148] Top shape: 24 192 28 28 (3612672)
I0403 14:57:31.023627 11430 net.cpp:156] Memory required for data: 724943904
I0403 14:57:31.023641 11430 layer_factory.hpp:77] Creating layer inception_3b/5x5_reduce
I0403 14:57:31.023664 11430 net.cpp:91] Creating Layer inception_3b/5x5_reduce
I0403 14:57:31.023681 11430 net.cpp:425] inception_3b/5x5_reduce <- inception_3a/output_inception_3a/output_0_split_2
I0403 14:57:31.023701 11430 net.cpp:399] inception_3b/5x5_reduce -> inception_3b/5x5_reduce
I0403 14:57:31.024708 11430 net.cpp:141] Setting up inception_3b/5x5_reduce
I0403 14:57:31.024739 11430 net.cpp:148] Top shape: 24 32 28 28 (602112)
I0403 14:57:31.024756 11430 net.cpp:156] Memory required for data: 727352352
I0403 14:57:31.024775 11430 layer_factory.hpp:77] Creating layer inception_3b/relu_5x5_reduce
I0403 14:57:31.024792 11430 net.cpp:91] Creating Layer inception_3b/relu_5x5_reduce
I0403 14:57:31.024808 11430 net.cpp:425] inception_3b/relu_5x5_reduce <- inception_3b/5x5_reduce
I0403 14:57:31.024826 11430 net.cpp:386] inception_3b/relu_5x5_reduce -> inception_3b/5x5_reduce (in-place)
I0403 14:57:31.025019 11430 net.cpp:141] Setting up inception_3b/relu_5x5_reduce
I0403 14:57:31.025046 11430 net.cpp:148] Top shape: 24 32 28 28 (602112)
I0403 14:57:31.025061 11430 net.cpp:156] Memory required for data: 729760800
I0403 14:57:31.025076 11430 layer_factory.hpp:77] Creating layer inception_3b/5x5
I0403 14:57:31.025099 11430 net.cpp:91] Creating Layer inception_3b/5x5
I0403 14:57:31.025117 11430 net.cpp:425] inception_3b/5x5 <- inception_3b/5x5_reduce
I0403 14:57:31.025135 11430 net.cpp:399] inception_3b/5x5 -> inception_3b/5x5
I0403 14:57:31.027109 11430 net.cpp:141] Setting up inception_3b/5x5
I0403 14:57:31.027138 11430 net.cpp:148] Top shape: 24 96 28 28 (1806336)
I0403 14:57:31.027153 11430 net.cpp:156] Memory required for data: 736986144
I0403 14:57:31.027171 11430 layer_factory.hpp:77] Creating layer inception_3b/relu_5x5
I0403 14:57:31.027191 11430 net.cpp:91] Creating Layer inception_3b/relu_5x5
I0403 14:57:31.027209 11430 net.cpp:425] inception_3b/relu_5x5 <- inception_3b/5x5
I0403 14:57:31.027225 11430 net.cpp:386] inception_3b/relu_5x5 -> inception_3b/5x5 (in-place)
I0403 14:57:31.027427 11430 net.cpp:141] Setting up inception_3b/relu_5x5
I0403 14:57:31.027452 11430 net.cpp:148] Top shape: 24 96 28 28 (1806336)
I0403 14:57:31.027467 11430 net.cpp:156] Memory required for data: 744211488
I0403 14:57:31.027482 11430 layer_factory.hpp:77] Creating layer inception_3b/pool
I0403 14:57:31.027499 11430 net.cpp:91] Creating Layer inception_3b/pool
I0403 14:57:31.027514 11430 net.cpp:425] inception_3b/pool <- inception_3a/output_inception_3a/output_0_split_3
I0403 14:57:31.027532 11430 net.cpp:399] inception_3b/pool -> inception_3b/pool
I0403 14:57:31.027587 11430 net.cpp:141] Setting up inception_3b/pool
I0403 14:57:31.027611 11430 net.cpp:148] Top shape: 24 256 28 28 (4816896)
I0403 14:57:31.027624 11430 net.cpp:156] Memory required for data: 763479072
I0403 14:57:31.027639 11430 layer_factory.hpp:77] Creating layer inception_3b/pool_proj
I0403 14:57:31.027660 11430 net.cpp:91] Creating Layer inception_3b/pool_proj
I0403 14:57:31.027678 11430 net.cpp:425] inception_3b/pool_proj <- inception_3b/pool
I0403 14:57:31.027698 11430 net.cpp:399] inception_3b/pool_proj -> inception_3b/pool_proj
I0403 14:57:31.028771 11430 net.cpp:141] Setting up inception_3b/pool_proj
I0403 14:57:31.028800 11430 net.cpp:148] Top shape: 24 64 28 28 (1204224)
I0403 14:57:31.028815 11430 net.cpp:156] Memory required for data: 768295968
I0403 14:57:31.028832 11430 layer_factory.hpp:77] Creating layer inception_3b/relu_pool_proj
I0403 14:57:31.028851 11430 net.cpp:91] Creating Layer inception_3b/relu_pool_proj
I0403 14:57:31.028867 11430 net.cpp:425] inception_3b/relu_pool_proj <- inception_3b/pool_proj
I0403 14:57:31.028885 11430 net.cpp:386] inception_3b/relu_pool_proj -> inception_3b/pool_proj (in-place)
I0403 14:57:31.029281 11430 net.cpp:141] Setting up inception_3b/relu_pool_proj
I0403 14:57:31.029309 11430 net.cpp:148] Top shape: 24 64 28 28 (1204224)
I0403 14:57:31.029332 11430 net.cpp:156] Memory required for data: 773112864
I0403 14:57:31.029347 11430 layer_factory.hpp:77] Creating layer inception_3b/output
I0403 14:57:31.029364 11430 net.cpp:91] Creating Layer inception_3b/output
I0403 14:57:31.029381 11430 net.cpp:425] inception_3b/output <- inception_3b/1x1
I0403 14:57:31.029397 11430 net.cpp:425] inception_3b/output <- inception_3b/3x3
I0403 14:57:31.029413 11430 net.cpp:425] inception_3b/output <- inception_3b/5x5
I0403 14:57:31.029429 11430 net.cpp:425] inception_3b/output <- inception_3b/pool_proj
I0403 14:57:31.029446 11430 net.cpp:399] inception_3b/output -> inception_3b/output
I0403 14:57:31.029490 11430 net.cpp:141] Setting up inception_3b/output
I0403 14:57:31.029513 11430 net.cpp:148] Top shape: 24 480 28 28 (9031680)
I0403 14:57:31.029528 11430 net.cpp:156] Memory required for data: 809239584
I0403 14:57:31.029543 11430 layer_factory.hpp:77] Creating layer pool3/3x3_s2
I0403 14:57:31.029562 11430 net.cpp:91] Creating Layer pool3/3x3_s2
I0403 14:57:31.029579 11430 net.cpp:425] pool3/3x3_s2 <- inception_3b/output
I0403 14:57:31.029611 11430 net.cpp:399] pool3/3x3_s2 -> pool3/3x3_s2
I0403 14:57:31.029670 11430 net.cpp:141] Setting up pool3/3x3_s2
I0403 14:57:31.029693 11430 net.cpp:148] Top shape: 24 480 14 14 (2257920)
I0403 14:57:31.029707 11430 net.cpp:156] Memory required for data: 818271264
I0403 14:57:31.029721 11430 layer_factory.hpp:77] Creating layer pool3/3x3_s2_pool3/3x3_s2_0_split
I0403 14:57:31.029738 11430 net.cpp:91] Creating Layer pool3/3x3_s2_pool3/3x3_s2_0_split
I0403 14:57:31.029754 11430 net.cpp:425] pool3/3x3_s2_pool3/3x3_s2_0_split <- pool3/3x3_s2
I0403 14:57:31.029773 11430 net.cpp:399] pool3/3x3_s2_pool3/3x3_s2_0_split -> pool3/3x3_s2_pool3/3x3_s2_0_split_0
I0403 14:57:31.029793 11430 net.cpp:399] pool3/3x3_s2_pool3/3x3_s2_0_split -> pool3/3x3_s2_pool3/3x3_s2_0_split_1
I0403 14:57:31.029813 11430 net.cpp:399] pool3/3x3_s2_pool3/3x3_s2_0_split -> pool3/3x3_s2_pool3/3x3_s2_0_split_2
I0403 14:57:31.029831 11430 net.cpp:399] pool3/3x3_s2_pool3/3x3_s2_0_split -> pool3/3x3_s2_pool3/3x3_s2_0_split_3
I0403 14:57:31.029907 11430 net.cpp:141] Setting up pool3/3x3_s2_pool3/3x3_s2_0_split
I0403 14:57:31.029932 11430 net.cpp:148] Top shape: 24 480 14 14 (2257920)
I0403 14:57:31.029948 11430 net.cpp:148] Top shape: 24 480 14 14 (2257920)
I0403 14:57:31.029964 11430 net.cpp:148] Top shape: 24 480 14 14 (2257920)
I0403 14:57:31.029978 11430 net.cpp:148] Top shape: 24 480 14 14 (2257920)
I0403 14:57:31.029992 11430 net.cpp:156] Memory required for data: 854397984
I0403 14:57:31.030006 11430 layer_factory.hpp:77] Creating layer inception_4a/1x1
I0403 14:57:31.030028 11430 net.cpp:91] Creating Layer inception_4a/1x1
I0403 14:57:31.030045 11430 net.cpp:425] inception_4a/1x1 <- pool3/3x3_s2_pool3/3x3_s2_0_split_0
I0403 14:57:31.030066 11430 net.cpp:399] inception_4a/1x1 -> inception_4a/1x1
I0403 14:57:31.031698 11430 net.cpp:141] Setting up inception_4a/1x1
I0403 14:57:31.031726 11430 net.cpp:148] Top shape: 24 192 14 14 (903168)
I0403 14:57:31.031743 11430 net.cpp:156] Memory required for data: 858010656
I0403 14:57:31.031760 11430 layer_factory.hpp:77] Creating layer inception_4a/relu_1x1
I0403 14:57:31.031782 11430 net.cpp:91] Creating Layer inception_4a/relu_1x1
I0403 14:57:31.031800 11430 net.cpp:425] inception_4a/relu_1x1 <- inception_4a/1x1
I0403 14:57:31.031817 11430 net.cpp:386] inception_4a/relu_1x1 -> inception_4a/1x1 (in-place)
I0403 14:57:31.032011 11430 net.cpp:141] Setting up inception_4a/relu_1x1
I0403 14:57:31.032037 11430 net.cpp:148] Top shape: 24 192 14 14 (903168)
I0403 14:57:31.032050 11430 net.cpp:156] Memory required for data: 861623328
I0403 14:57:31.032064 11430 layer_factory.hpp:77] Creating layer inception_4a/3x3_reduce
I0403 14:57:31.032086 11430 net.cpp:91] Creating Layer inception_4a/3x3_reduce
I0403 14:57:31.032104 11430 net.cpp:425] inception_4a/3x3_reduce <- pool3/3x3_s2_pool3/3x3_s2_0_split_1
I0403 14:57:31.032124 11430 net.cpp:399] inception_4a/3x3_reduce -> inception_4a/3x3_reduce
I0403 14:57:31.033412 11430 net.cpp:141] Setting up inception_4a/3x3_reduce
I0403 14:57:31.033440 11430 net.cpp:148] Top shape: 24 96 14 14 (451584)
I0403 14:57:31.033455 11430 net.cpp:156] Memory required for data: 863429664
I0403 14:57:31.033479 11430 layer_factory.hpp:77] Creating layer inception_4a/relu_3x3_reduce
I0403 14:57:31.033499 11430 net.cpp:91] Creating Layer inception_4a/relu_3x3_reduce
I0403 14:57:31.033514 11430 net.cpp:425] inception_4a/relu_3x3_reduce <- inception_4a/3x3_reduce
I0403 14:57:31.033535 11430 net.cpp:386] inception_4a/relu_3x3_reduce -> inception_4a/3x3_reduce (in-place)
I0403 14:57:31.033712 11430 net.cpp:141] Setting up inception_4a/relu_3x3_reduce
I0403 14:57:31.033736 11430 net.cpp:148] Top shape: 24 96 14 14 (451584)
I0403 14:57:31.033751 11430 net.cpp:156] Memory required for data: 865236000
I0403 14:57:31.033764 11430 layer_factory.hpp:77] Creating layer inception_4a/3x3
I0403 14:57:31.033787 11430 net.cpp:91] Creating Layer inception_4a/3x3
I0403 14:57:31.033803 11430 net.cpp:425] inception_4a/3x3 <- inception_4a/3x3_reduce
I0403 14:57:31.033824 11430 net.cpp:399] inception_4a/3x3 -> inception_4a/3x3
I0403 14:57:31.036497 11430 net.cpp:141] Setting up inception_4a/3x3
I0403 14:57:31.036526 11430 net.cpp:148] Top shape: 24 208 14 14 (978432)
I0403 14:57:31.036541 11430 net.cpp:156] Memory required for data: 869149728
I0403 14:57:31.036559 11430 layer_factory.hpp:77] Creating layer inception_4a/relu_3x3
I0403 14:57:31.036579 11430 net.cpp:91] Creating Layer inception_4a/relu_3x3
I0403 14:57:31.036597 11430 net.cpp:425] inception_4a/relu_3x3 <- inception_4a/3x3
I0403 14:57:31.036613 11430 net.cpp:386] inception_4a/relu_3x3 -> inception_4a/3x3 (in-place)
I0403 14:57:31.036893 11430 net.cpp:141] Setting up inception_4a/relu_3x3
I0403 14:57:31.036919 11430 net.cpp:148] Top shape: 24 208 14 14 (978432)
I0403 14:57:31.036934 11430 net.cpp:156] Memory required for data: 873063456
I0403 14:57:31.036949 11430 layer_factory.hpp:77] Creating layer inception_4a/5x5_reduce
I0403 14:57:31.036972 11430 net.cpp:91] Creating Layer inception_4a/5x5_reduce
I0403 14:57:31.036989 11430 net.cpp:425] inception_4a/5x5_reduce <- pool3/3x3_s2_pool3/3x3_s2_0_split_2
I0403 14:57:31.037010 11430 net.cpp:399] inception_4a/5x5_reduce -> inception_4a/5x5_reduce
I0403 14:57:31.038069 11430 net.cpp:141] Setting up inception_4a/5x5_reduce
I0403 14:57:31.038095 11430 net.cpp:148] Top shape: 24 16 14 14 (75264)
I0403 14:57:31.038111 11430 net.cpp:156] Memory required for data: 873364512
I0403 14:57:31.038130 11430 layer_factory.hpp:77] Creating layer inception_4a/relu_5x5_reduce
I0403 14:57:31.038151 11430 net.cpp:91] Creating Layer inception_4a/relu_5x5_reduce
I0403 14:57:31.038166 11430 net.cpp:425] inception_4a/relu_5x5_reduce <- inception_4a/5x5_reduce
I0403 14:57:31.038183 11430 net.cpp:386] inception_4a/relu_5x5_reduce -> inception_4a/5x5_reduce (in-place)
I0403 14:57:31.038368 11430 net.cpp:141] Setting up inception_4a/relu_5x5_reduce
I0403 14:57:31.038394 11430 net.cpp:148] Top shape: 24 16 14 14 (75264)
I0403 14:57:31.038409 11430 net.cpp:156] Memory required for data: 873665568
I0403 14:57:31.038424 11430 layer_factory.hpp:77] Creating layer inception_4a/5x5
I0403 14:57:31.038444 11430 net.cpp:91] Creating Layer inception_4a/5x5
I0403 14:57:31.038461 11430 net.cpp:425] inception_4a/5x5 <- inception_4a/5x5_reduce
I0403 14:57:31.038480 11430 net.cpp:399] inception_4a/5x5 -> inception_4a/5x5
I0403 14:57:31.039536 11430 net.cpp:141] Setting up inception_4a/5x5
I0403 14:57:31.039563 11430 net.cpp:148] Top shape: 24 48 14 14 (225792)
I0403 14:57:31.039578 11430 net.cpp:156] Memory required for data: 874568736
I0403 14:57:31.039597 11430 layer_factory.hpp:77] Creating layer inception_4a/relu_5x5
I0403 14:57:31.039613 11430 net.cpp:91] Creating Layer inception_4a/relu_5x5
I0403 14:57:31.039628 11430 net.cpp:425] inception_4a/relu_5x5 <- inception_4a/5x5
I0403 14:57:31.039647 11430 net.cpp:386] inception_4a/relu_5x5 -> inception_4a/5x5 (in-place)
I0403 14:57:31.039819 11430 net.cpp:141] Setting up inception_4a/relu_5x5
I0403 14:57:31.039844 11430 net.cpp:148] Top shape: 24 48 14 14 (225792)
I0403 14:57:31.039857 11430 net.cpp:156] Memory required for data: 875471904
I0403 14:57:31.039872 11430 layer_factory.hpp:77] Creating layer inception_4a/pool
I0403 14:57:31.039891 11430 net.cpp:91] Creating Layer inception_4a/pool
I0403 14:57:31.039907 11430 net.cpp:425] inception_4a/pool <- pool3/3x3_s2_pool3/3x3_s2_0_split_3
I0403 14:57:31.039924 11430 net.cpp:399] inception_4a/pool -> inception_4a/pool
I0403 14:57:31.039983 11430 net.cpp:141] Setting up inception_4a/pool
I0403 14:57:31.040006 11430 net.cpp:148] Top shape: 24 480 14 14 (2257920)
I0403 14:57:31.040020 11430 net.cpp:156] Memory required for data: 884503584
I0403 14:57:31.040035 11430 layer_factory.hpp:77] Creating layer inception_4a/pool_proj
I0403 14:57:31.040055 11430 net.cpp:91] Creating Layer inception_4a/pool_proj
I0403 14:57:31.040072 11430 net.cpp:425] inception_4a/pool_proj <- inception_4a/pool
I0403 14:57:31.040092 11430 net.cpp:399] inception_4a/pool_proj -> inception_4a/pool_proj
I0403 14:57:31.041232 11430 net.cpp:141] Setting up inception_4a/pool_proj
I0403 14:57:31.041260 11430 net.cpp:148] Top shape: 24 64 14 14 (301056)
I0403 14:57:31.041288 11430 net.cpp:156] Memory required for data: 885707808
I0403 14:57:31.041307 11430 layer_factory.hpp:77] Creating layer inception_4a/relu_pool_proj
I0403 14:57:31.041332 11430 net.cpp:91] Creating Layer inception_4a/relu_pool_proj
I0403 14:57:31.041348 11430 net.cpp:425] inception_4a/relu_pool_proj <- inception_4a/pool_proj
I0403 14:57:31.041368 11430 net.cpp:386] inception_4a/relu_pool_proj -> inception_4a/pool_proj (in-place)
I0403 14:57:31.041651 11430 net.cpp:141] Setting up inception_4a/relu_pool_proj
I0403 14:57:31.041676 11430 net.cpp:148] Top shape: 24 64 14 14 (301056)
I0403 14:57:31.041690 11430 net.cpp:156] Memory required for data: 886912032
I0403 14:57:31.041705 11430 layer_factory.hpp:77] Creating layer inception_4a/output
I0403 14:57:31.041723 11430 net.cpp:91] Creating Layer inception_4a/output
I0403 14:57:31.041738 11430 net.cpp:425] inception_4a/output <- inception_4a/1x1
I0403 14:57:31.041754 11430 net.cpp:425] inception_4a/output <- inception_4a/3x3
I0403 14:57:31.041769 11430 net.cpp:425] inception_4a/output <- inception_4a/5x5
I0403 14:57:31.041784 11430 net.cpp:425] inception_4a/output <- inception_4a/pool_proj
I0403 14:57:31.041802 11430 net.cpp:399] inception_4a/output -> inception_4a/output
I0403 14:57:31.041844 11430 net.cpp:141] Setting up inception_4a/output
I0403 14:57:31.041869 11430 net.cpp:148] Top shape: 24 512 14 14 (2408448)
I0403 14:57:31.041884 11430 net.cpp:156] Memory required for data: 896545824
I0403 14:57:31.041899 11430 layer_factory.hpp:77] Creating layer inception_4a/output_inception_4a/output_0_split
I0403 14:57:31.041915 11430 net.cpp:91] Creating Layer inception_4a/output_inception_4a/output_0_split
I0403 14:57:31.041930 11430 net.cpp:425] inception_4a/output_inception_4a/output_0_split <- inception_4a/output
I0403 14:57:31.041947 11430 net.cpp:399] inception_4a/output_inception_4a/output_0_split -> inception_4a/output_inception_4a/output_0_split_0
I0403 14:57:31.041968 11430 net.cpp:399] inception_4a/output_inception_4a/output_0_split -> inception_4a/output_inception_4a/output_0_split_1
I0403 14:57:31.041990 11430 net.cpp:399] inception_4a/output_inception_4a/output_0_split -> inception_4a/output_inception_4a/output_0_split_2
I0403 14:57:31.042009 11430 net.cpp:399] inception_4a/output_inception_4a/output_0_split -> inception_4a/output_inception_4a/output_0_split_3
I0403 14:57:31.042028 11430 net.cpp:399] inception_4a/output_inception_4a/output_0_split -> inception_4a/output_inception_4a/output_0_split_4
I0403 14:57:31.042114 11430 net.cpp:141] Setting up inception_4a/output_inception_4a/output_0_split
I0403 14:57:31.042136 11430 net.cpp:148] Top shape: 24 512 14 14 (2408448)
I0403 14:57:31.042155 11430 net.cpp:148] Top shape: 24 512 14 14 (2408448)
I0403 14:57:31.042171 11430 net.cpp:148] Top shape: 24 512 14 14 (2408448)
I0403 14:57:31.042186 11430 net.cpp:148] Top shape: 24 512 14 14 (2408448)
I0403 14:57:31.042201 11430 net.cpp:148] Top shape: 24 512 14 14 (2408448)
I0403 14:57:31.042213 11430 net.cpp:156] Memory required for data: 944714784
I0403 14:57:31.042227 11430 layer_factory.hpp:77] Creating layer loss1/ave_pool
I0403 14:57:31.042244 11430 net.cpp:91] Creating Layer loss1/ave_pool
I0403 14:57:31.042259 11430 net.cpp:425] loss1/ave_pool <- inception_4a/output_inception_4a/output_0_split_0
I0403 14:57:31.042278 11430 net.cpp:399] loss1/ave_pool -> loss1/ave_pool
I0403 14:57:31.042490 11430 net.cpp:141] Setting up loss1/ave_pool
I0403 14:57:31.042515 11430 net.cpp:148] Top shape: 24 512 4 4 (196608)
I0403 14:57:31.042528 11430 net.cpp:156] Memory required for data: 945501216
I0403 14:57:31.042543 11430 layer_factory.hpp:77] Creating layer loss1/conv
I0403 14:57:31.042564 11430 net.cpp:91] Creating Layer loss1/conv
I0403 14:57:31.042582 11430 net.cpp:425] loss1/conv <- loss1/ave_pool
I0403 14:57:31.042601 11430 net.cpp:399] loss1/conv -> loss1/conv
I0403 14:57:31.043967 11430 net.cpp:141] Setting up loss1/conv
I0403 14:57:31.043993 11430 net.cpp:148] Top shape: 24 128 4 4 (49152)
I0403 14:57:31.044023 11430 net.cpp:156] Memory required for data: 945697824
I0403 14:57:31.044041 11430 layer_factory.hpp:77] Creating layer loss1/relu_conv
I0403 14:57:31.044064 11430 net.cpp:91] Creating Layer loss1/relu_conv
I0403 14:57:31.044080 11430 net.cpp:425] loss1/relu_conv <- loss1/conv
I0403 14:57:31.044096 11430 net.cpp:386] loss1/relu_conv -> loss1/conv (in-place)
I0403 14:57:31.044380 11430 net.cpp:141] Setting up loss1/relu_conv
I0403 14:57:31.044405 11430 net.cpp:148] Top shape: 24 128 4 4 (49152)
I0403 14:57:31.044420 11430 net.cpp:156] Memory required for data: 945894432
I0403 14:57:31.044435 11430 layer_factory.hpp:77] Creating layer loss1/fc
I0403 14:57:31.044461 11430 net.cpp:91] Creating Layer loss1/fc
I0403 14:57:31.044477 11430 net.cpp:425] loss1/fc <- loss1/conv
I0403 14:57:31.044495 11430 net.cpp:399] loss1/fc -> loss1/fc
I0403 14:57:31.061683 11430 net.cpp:141] Setting up loss1/fc
I0403 14:57:31.061715 11430 net.cpp:148] Top shape: 24 1024 (24576)
I0403 14:57:31.061730 11430 net.cpp:156] Memory required for data: 945992736
I0403 14:57:31.061748 11430 layer_factory.hpp:77] Creating layer loss1/relu_fc
I0403 14:57:31.061766 11430 net.cpp:91] Creating Layer loss1/relu_fc
I0403 14:57:31.061781 11430 net.cpp:425] loss1/relu_fc <- loss1/fc
I0403 14:57:31.061800 11430 net.cpp:386] loss1/relu_fc -> loss1/fc (in-place)
I0403 14:57:31.061985 11430 net.cpp:141] Setting up loss1/relu_fc
I0403 14:57:31.062011 11430 net.cpp:148] Top shape: 24 1024 (24576)
I0403 14:57:31.062026 11430 net.cpp:156] Memory required for data: 946091040
I0403 14:57:31.062041 11430 layer_factory.hpp:77] Creating layer loss1/drop_fc
I0403 14:57:31.062067 11430 net.cpp:91] Creating Layer loss1/drop_fc
I0403 14:57:31.062083 11430 net.cpp:425] loss1/drop_fc <- loss1/fc
I0403 14:57:31.062099 11430 net.cpp:386] loss1/drop_fc -> loss1/fc (in-place)
I0403 14:57:31.062147 11430 net.cpp:141] Setting up loss1/drop_fc
I0403 14:57:31.062173 11430 net.cpp:148] Top shape: 24 1024 (24576)
I0403 14:57:31.062189 11430 net.cpp:156] Memory required for data: 946189344
I0403 14:57:31.062204 11430 layer_factory.hpp:77] Creating layer loss1/classifier_plantvillage
I0403 14:57:31.062222 11430 net.cpp:91] Creating Layer loss1/classifier_plantvillage
I0403 14:57:31.062237 11430 net.cpp:425] loss1/classifier_plantvillage <- loss1/fc
I0403 14:57:31.062255 11430 net.cpp:399] loss1/classifier_plantvillage -> loss1/classifier_plantvillage
I0403 14:57:31.063146 11430 net.cpp:141] Setting up loss1/classifier_plantvillage
I0403 14:57:31.063174 11430 net.cpp:148] Top shape: 24 38 (912)
I0403 14:57:31.063189 11430 net.cpp:156] Memory required for data: 946192992
I0403 14:57:31.063205 11430 layer_factory.hpp:77] Creating layer loss1/classifier_plantvillage_loss1/classifier_plantvillage_0_split
I0403 14:57:31.063225 11430 net.cpp:91] Creating Layer loss1/classifier_plantvillage_loss1/classifier_plantvillage_0_split
I0403 14:57:31.063241 11430 net.cpp:425] loss1/classifier_plantvillage_loss1/classifier_plantvillage_0_split <- loss1/classifier_plantvillage
I0403 14:57:31.063259 11430 net.cpp:399] loss1/classifier_plantvillage_loss1/classifier_plantvillage_0_split -> loss1/classifier_plantvillage_loss1/classifier_plantvillage_0_split_0
I0403 14:57:31.063278 11430 net.cpp:399] loss1/classifier_plantvillage_loss1/classifier_plantvillage_0_split -> loss1/classifier_plantvillage_loss1/classifier_plantvillage_0_split_1
I0403 14:57:31.063299 11430 net.cpp:399] loss1/classifier_plantvillage_loss1/classifier_plantvillage_0_split -> loss1/classifier_plantvillage_loss1/classifier_plantvillage_0_split_2
I0403 14:57:31.063367 11430 net.cpp:141] Setting up loss1/classifier_plantvillage_loss1/classifier_plantvillage_0_split
I0403 14:57:31.063392 11430 net.cpp:148] Top shape: 24 38 (912)
I0403 14:57:31.063410 11430 net.cpp:148] Top shape: 24 38 (912)
I0403 14:57:31.063426 11430 net.cpp:148] Top shape: 24 38 (912)
I0403 14:57:31.063438 11430 net.cpp:156] Memory required for data: 946203936
I0403 14:57:31.063452 11430 layer_factory.hpp:77] Creating layer inception_4b/1x1
I0403 14:57:31.063472 11430 net.cpp:91] Creating Layer inception_4b/1x1
I0403 14:57:31.063503 11430 net.cpp:425] inception_4b/1x1 <- inception_4a/output_inception_4a/output_0_split_1
I0403 14:57:31.063524 11430 net.cpp:399] inception_4b/1x1 -> inception_4b/1x1
I0403 14:57:31.065110 11430 net.cpp:141] Setting up inception_4b/1x1
I0403 14:57:31.065138 11430 net.cpp:148] Top shape: 24 160 14 14 (752640)
I0403 14:57:31.065153 11430 net.cpp:156] Memory required for data: 949214496
I0403 14:57:31.065172 11430 layer_factory.hpp:77] Creating layer inception_4b/relu_1x1
I0403 14:57:31.065191 11430 net.cpp:91] Creating Layer inception_4b/relu_1x1
I0403 14:57:31.065207 11430 net.cpp:425] inception_4b/relu_1x1 <- inception_4b/1x1
I0403 14:57:31.065224 11430 net.cpp:386] inception_4b/relu_1x1 -> inception_4b/1x1 (in-place)
I0403 14:57:31.065407 11430 net.cpp:141] Setting up inception_4b/relu_1x1
I0403 14:57:31.065434 11430 net.cpp:148] Top shape: 24 160 14 14 (752640)
I0403 14:57:31.065449 11430 net.cpp:156] Memory required for data: 952225056
I0403 14:57:31.065466 11430 layer_factory.hpp:77] Creating layer inception_4b/3x3_reduce
I0403 14:57:31.065487 11430 net.cpp:91] Creating Layer inception_4b/3x3_reduce
I0403 14:57:31.065505 11430 net.cpp:425] inception_4b/3x3_reduce <- inception_4a/output_inception_4a/output_0_split_2
I0403 14:57:31.065523 11430 net.cpp:399] inception_4b/3x3_reduce -> inception_4b/3x3_reduce
I0403 14:57:31.066892 11430 net.cpp:141] Setting up inception_4b/3x3_reduce
I0403 14:57:31.066925 11430 net.cpp:148] Top shape: 24 112 14 14 (526848)
I0403 14:57:31.066941 11430 net.cpp:156] Memory required for data: 954332448
I0403 14:57:31.066961 11430 layer_factory.hpp:77] Creating layer inception_4b/relu_3x3_reduce
I0403 14:57:31.066978 11430 net.cpp:91] Creating Layer inception_4b/relu_3x3_reduce
I0403 14:57:31.066995 11430 net.cpp:425] inception_4b/relu_3x3_reduce <- inception_4b/3x3_reduce
I0403 14:57:31.067015 11430 net.cpp:386] inception_4b/relu_3x3_reduce -> inception_4b/3x3_reduce (in-place)
I0403 14:57:31.067308 11430 net.cpp:141] Setting up inception_4b/relu_3x3_reduce
I0403 14:57:31.067344 11430 net.cpp:148] Top shape: 24 112 14 14 (526848)
I0403 14:57:31.067361 11430 net.cpp:156] Memory required for data: 956439840
I0403 14:57:31.067376 11430 layer_factory.hpp:77] Creating layer inception_4b/3x3
I0403 14:57:31.067399 11430 net.cpp:91] Creating Layer inception_4b/3x3
I0403 14:57:31.067417 11430 net.cpp:425] inception_4b/3x3 <- inception_4b/3x3_reduce
I0403 14:57:31.067437 11430 net.cpp:399] inception_4b/3x3 -> inception_4b/3x3
I0403 14:57:31.070511 11430 net.cpp:141] Setting up inception_4b/3x3
I0403 14:57:31.070543 11430 net.cpp:148] Top shape: 24 224 14 14 (1053696)
I0403 14:57:31.070559 11430 net.cpp:156] Memory required for data: 960654624
I0403 14:57:31.070577 11430 layer_factory.hpp:77] Creating layer inception_4b/relu_3x3
I0403 14:57:31.070598 11430 net.cpp:91] Creating Layer inception_4b/relu_3x3
I0403 14:57:31.070616 11430 net.cpp:425] inception_4b/relu_3x3 <- inception_4b/3x3
I0403 14:57:31.070633 11430 net.cpp:386] inception_4b/relu_3x3 -> inception_4b/3x3 (in-place)
I0403 14:57:31.070824 11430 net.cpp:141] Setting up inception_4b/relu_3x3
I0403 14:57:31.070852 11430 net.cpp:148] Top shape: 24 224 14 14 (1053696)
I0403 14:57:31.070866 11430 net.cpp:156] Memory required for data: 964869408
I0403 14:57:31.070881 11430 layer_factory.hpp:77] Creating layer inception_4b/5x5_reduce
I0403 14:57:31.070907 11430 net.cpp:91] Creating Layer inception_4b/5x5_reduce
I0403 14:57:31.070926 11430 net.cpp:425] inception_4b/5x5_reduce <- inception_4a/output_inception_4a/output_0_split_3
I0403 14:57:31.070946 11430 net.cpp:399] inception_4b/5x5_reduce -> inception_4b/5x5_reduce
I0403 14:57:31.072072 11430 net.cpp:141] Setting up inception_4b/5x5_reduce
I0403 14:57:31.072099 11430 net.cpp:148] Top shape: 24 24 14 14 (112896)
I0403 14:57:31.072116 11430 net.cpp:156] Memory required for data: 965320992
I0403 14:57:31.072134 11430 layer_factory.hpp:77] Creating layer inception_4b/relu_5x5_reduce
I0403 14:57:31.072156 11430 net.cpp:91] Creating Layer inception_4b/relu_5x5_reduce
I0403 14:57:31.072190 11430 net.cpp:425] inception_4b/relu_5x5_reduce <- inception_4b/5x5_reduce
I0403 14:57:31.072211 11430 net.cpp:386] inception_4b/relu_5x5_reduce -> inception_4b/5x5_reduce (in-place)
I0403 14:57:31.072414 11430 net.cpp:141] Setting up inception_4b/relu_5x5_reduce
I0403 14:57:31.072440 11430 net.cpp:148] Top shape: 24 24 14 14 (112896)
I0403 14:57:31.072455 11430 net.cpp:156] Memory required for data: 965772576
I0403 14:57:31.072470 11430 layer_factory.hpp:77] Creating layer inception_4b/5x5
I0403 14:57:31.072494 11430 net.cpp:91] Creating Layer inception_4b/5x5
I0403 14:57:31.072510 11430 net.cpp:425] inception_4b/5x5 <- inception_4b/5x5_reduce
I0403 14:57:31.072533 11430 net.cpp:399] inception_4b/5x5 -> inception_4b/5x5
I0403 14:57:31.073809 11430 net.cpp:141] Setting up inception_4b/5x5
I0403 14:57:31.073837 11430 net.cpp:148] Top shape: 24 64 14 14 (301056)
I0403 14:57:31.073853 11430 net.cpp:156] Memory required for data: 966976800
I0403 14:57:31.073873 11430 layer_factory.hpp:77] Creating layer inception_4b/relu_5x5
I0403 14:57:31.073892 11430 net.cpp:91] Creating Layer inception_4b/relu_5x5
I0403 14:57:31.073909 11430 net.cpp:425] inception_4b/relu_5x5 <- inception_4b/5x5
I0403 14:57:31.073927 11430 net.cpp:386] inception_4b/relu_5x5 -> inception_4b/5x5 (in-place)
I0403 14:57:31.074223 11430 net.cpp:141] Setting up inception_4b/relu_5x5
I0403 14:57:31.074250 11430 net.cpp:148] Top shape: 24 64 14 14 (301056)
I0403 14:57:31.074266 11430 net.cpp:156] Memory required for data: 968181024
I0403 14:57:31.074281 11430 layer_factory.hpp:77] Creating layer inception_4b/pool
I0403 14:57:31.074302 11430 net.cpp:91] Creating Layer inception_4b/pool
I0403 14:57:31.074327 11430 net.cpp:425] inception_4b/pool <- inception_4a/output_inception_4a/output_0_split_4
I0403 14:57:31.074347 11430 net.cpp:399] inception_4b/pool -> inception_4b/pool
I0403 14:57:31.074417 11430 net.cpp:141] Setting up inception_4b/pool
I0403 14:57:31.074442 11430 net.cpp:148] Top shape: 24 512 14 14 (2408448)
I0403 14:57:31.074456 11430 net.cpp:156] Memory required for data: 977814816
I0403 14:57:31.074473 11430 layer_factory.hpp:77] Creating layer inception_4b/pool_proj
I0403 14:57:31.074496 11430 net.cpp:91] Creating Layer inception_4b/pool_proj
I0403 14:57:31.074514 11430 net.cpp:425] inception_4b/pool_proj <- inception_4b/pool
I0403 14:57:31.074537 11430 net.cpp:399] inception_4b/pool_proj -> inception_4b/pool_proj
I0403 14:57:31.075793 11430 net.cpp:141] Setting up inception_4b/pool_proj
I0403 14:57:31.075826 11430 net.cpp:148] Top shape: 24 64 14 14 (301056)
I0403 14:57:31.075845 11430 net.cpp:156] Memory required for data: 979019040
I0403 14:57:31.075863 11430 layer_factory.hpp:77] Creating layer inception_4b/relu_pool_proj
I0403 14:57:31.075881 11430 net.cpp:91] Creating Layer inception_4b/relu_pool_proj
I0403 14:57:31.075898 11430 net.cpp:425] inception_4b/relu_pool_proj <- inception_4b/pool_proj
I0403 14:57:31.075917 11430 net.cpp:386] inception_4b/relu_pool_proj -> inception_4b/pool_proj (in-place)
I0403 14:57:31.076105 11430 net.cpp:141] Setting up inception_4b/relu_pool_proj
I0403 14:57:31.076130 11430 net.cpp:148] Top shape: 24 64 14 14 (301056)
I0403 14:57:31.076145 11430 net.cpp:156] Memory required for data: 980223264
I0403 14:57:31.076160 11430 layer_factory.hpp:77] Creating layer inception_4b/output
I0403 14:57:31.076179 11430 net.cpp:91] Creating Layer inception_4b/output
I0403 14:57:31.076195 11430 net.cpp:425] inception_4b/output <- inception_4b/1x1
I0403 14:57:31.076211 11430 net.cpp:425] inception_4b/output <- inception_4b/3x3
I0403 14:57:31.076227 11430 net.cpp:425] inception_4b/output <- inception_4b/5x5
I0403 14:57:31.076243 11430 net.cpp:425] inception_4b/output <- inception_4b/pool_proj
I0403 14:57:31.076263 11430 net.cpp:399] inception_4b/output -> inception_4b/output
I0403 14:57:31.076311 11430 net.cpp:141] Setting up inception_4b/output
I0403 14:57:31.076342 11430 net.cpp:148] Top shape: 24 512 14 14 (2408448)
I0403 14:57:31.076357 11430 net.cpp:156] Memory required for data: 989857056
I0403 14:57:31.076387 11430 layer_factory.hpp:77] Creating layer inception_4b/output_inception_4b/output_0_split
I0403 14:57:31.076408 11430 net.cpp:91] Creating Layer inception_4b/output_inception_4b/output_0_split
I0403 14:57:31.076426 11430 net.cpp:425] inception_4b/output_inception_4b/output_0_split <- inception_4b/output
I0403 14:57:31.076444 11430 net.cpp:399] inception_4b/output_inception_4b/output_0_split -> inception_4b/output_inception_4b/output_0_split_0
I0403 14:57:31.076467 11430 net.cpp:399] inception_4b/output_inception_4b/output_0_split -> inception_4b/output_inception_4b/output_0_split_1
I0403 14:57:31.076491 11430 net.cpp:399] inception_4b/output_inception_4b/output_0_split -> inception_4b/output_inception_4b/output_0_split_2
I0403 14:57:31.076514 11430 net.cpp:399] inception_4b/output_inception_4b/output_0_split -> inception_4b/output_inception_4b/output_0_split_3
I0403 14:57:31.076597 11430 net.cpp:141] Setting up inception_4b/output_inception_4b/output_0_split
I0403 14:57:31.076620 11430 net.cpp:148] Top shape: 24 512 14 14 (2408448)
I0403 14:57:31.076637 11430 net.cpp:148] Top shape: 24 512 14 14 (2408448)
I0403 14:57:31.076653 11430 net.cpp:148] Top shape: 24 512 14 14 (2408448)
I0403 14:57:31.076669 11430 net.cpp:148] Top shape: 24 512 14 14 (2408448)
I0403 14:57:31.076683 11430 net.cpp:156] Memory required for data: 1028392224
I0403 14:57:31.076697 11430 layer_factory.hpp:77] Creating layer inception_4c/1x1
I0403 14:57:31.076719 11430 net.cpp:91] Creating Layer inception_4c/1x1
I0403 14:57:31.076737 11430 net.cpp:425] inception_4c/1x1 <- inception_4b/output_inception_4b/output_0_split_0
I0403 14:57:31.076758 11430 net.cpp:399] inception_4c/1x1 -> inception_4c/1x1
I0403 14:57:31.078254 11430 net.cpp:141] Setting up inception_4c/1x1
I0403 14:57:31.078284 11430 net.cpp:148] Top shape: 24 128 14 14 (602112)
I0403 14:57:31.078299 11430 net.cpp:156] Memory required for data: 1030800672
I0403 14:57:31.078326 11430 layer_factory.hpp:77] Creating layer inception_4c/relu_1x1
I0403 14:57:31.078347 11430 net.cpp:91] Creating Layer inception_4c/relu_1x1
I0403 14:57:31.078364 11430 net.cpp:425] inception_4c/relu_1x1 <- inception_4c/1x1
I0403 14:57:31.078387 11430 net.cpp:386] inception_4c/relu_1x1 -> inception_4c/1x1 (in-place)
I0403 14:57:31.078575 11430 net.cpp:141] Setting up inception_4c/relu_1x1
I0403 14:57:31.078601 11430 net.cpp:148] Top shape: 24 128 14 14 (602112)
I0403 14:57:31.078624 11430 net.cpp:156] Memory required for data: 1033209120
I0403 14:57:31.078639 11430 layer_factory.hpp:77] Creating layer inception_4c/3x3_reduce
I0403 14:57:31.078662 11430 net.cpp:91] Creating Layer inception_4c/3x3_reduce
I0403 14:57:31.078680 11430 net.cpp:425] inception_4c/3x3_reduce <- inception_4b/output_inception_4b/output_0_split_1
I0403 14:57:31.078702 11430 net.cpp:399] inception_4c/3x3_reduce -> inception_4c/3x3_reduce
I0403 14:57:31.080713 11430 net.cpp:141] Setting up inception_4c/3x3_reduce
I0403 14:57:31.080744 11430 net.cpp:148] Top shape: 24 128 14 14 (602112)
I0403 14:57:31.080760 11430 net.cpp:156] Memory required for data: 1035617568
I0403 14:57:31.080778 11430 layer_factory.hpp:77] Creating layer inception_4c/relu_3x3_reduce
I0403 14:57:31.080799 11430 net.cpp:91] Creating Layer inception_4c/relu_3x3_reduce
I0403 14:57:31.080817 11430 net.cpp:425] inception_4c/relu_3x3_reduce <- inception_4c/3x3_reduce
I0403 14:57:31.080835 11430 net.cpp:386] inception_4c/relu_3x3_reduce -> inception_4c/3x3_reduce (in-place)
I0403 14:57:31.081130 11430 net.cpp:141] Setting up inception_4c/relu_3x3_reduce
I0403 14:57:31.081157 11430 net.cpp:148] Top shape: 24 128 14 14 (602112)
I0403 14:57:31.081172 11430 net.cpp:156] Memory required for data: 1038026016
I0403 14:57:31.081187 11430 layer_factory.hpp:77] Creating layer inception_4c/3x3
I0403 14:57:31.081212 11430 net.cpp:91] Creating Layer inception_4c/3x3
I0403 14:57:31.081231 11430 net.cpp:425] inception_4c/3x3 <- inception_4c/3x3_reduce
I0403 14:57:31.081251 11430 net.cpp:399] inception_4c/3x3 -> inception_4c/3x3
I0403 14:57:31.085010 11430 net.cpp:141] Setting up inception_4c/3x3
I0403 14:57:31.085054 11430 net.cpp:148] Top shape: 24 256 14 14 (1204224)
I0403 14:57:31.085073 11430 net.cpp:156] Memory required for data: 1042842912
I0403 14:57:31.085106 11430 layer_factory.hpp:77] Creating layer inception_4c/relu_3x3
I0403 14:57:31.085127 11430 net.cpp:91] Creating Layer inception_4c/relu_3x3
I0403 14:57:31.085144 11430 net.cpp:425] inception_4c/relu_3x3 <- inception_4c/3x3
I0403 14:57:31.085162 11430 net.cpp:386] inception_4c/relu_3x3 -> inception_4c/3x3 (in-place)
I0403 14:57:31.085382 11430 net.cpp:141] Setting up inception_4c/relu_3x3
I0403 14:57:31.085409 11430 net.cpp:148] Top shape: 24 256 14 14 (1204224)
I0403 14:57:31.085425 11430 net.cpp:156] Memory required for data: 1047659808
I0403 14:57:31.085440 11430 layer_factory.hpp:77] Creating layer inception_4c/5x5_reduce
I0403 14:57:31.085464 11430 net.cpp:91] Creating Layer inception_4c/5x5_reduce
I0403 14:57:31.085481 11430 net.cpp:425] inception_4c/5x5_reduce <- inception_4b/output_inception_4b/output_0_split_2
I0403 14:57:31.085500 11430 net.cpp:399] inception_4c/5x5_reduce -> inception_4c/5x5_reduce
I0403 14:57:31.086621 11430 net.cpp:141] Setting up inception_4c/5x5_reduce
I0403 14:57:31.086648 11430 net.cpp:148] Top shape: 24 24 14 14 (112896)
I0403 14:57:31.086663 11430 net.cpp:156] Memory required for data: 1048111392
I0403 14:57:31.086683 11430 layer_factory.hpp:77] Creating layer inception_4c/relu_5x5_reduce
I0403 14:57:31.086704 11430 net.cpp:91] Creating Layer inception_4c/relu_5x5_reduce
I0403 14:57:31.086720 11430 net.cpp:425] inception_4c/relu_5x5_reduce <- inception_4c/5x5_reduce
I0403 14:57:31.086738 11430 net.cpp:386] inception_4c/relu_5x5_reduce -> inception_4c/5x5_reduce (in-place)
I0403 14:57:31.086925 11430 net.cpp:141] Setting up inception_4c/relu_5x5_reduce
I0403 14:57:31.086948 11430 net.cpp:148] Top shape: 24 24 14 14 (112896)
I0403 14:57:31.086963 11430 net.cpp:156] Memory required for data: 1048562976
I0403 14:57:31.086977 11430 layer_factory.hpp:77] Creating layer inception_4c/5x5
I0403 14:57:31.086999 11430 net.cpp:91] Creating Layer inception_4c/5x5
I0403 14:57:31.087018 11430 net.cpp:425] inception_4c/5x5 <- inception_4c/5x5_reduce
I0403 14:57:31.087038 11430 net.cpp:399] inception_4c/5x5 -> inception_4c/5x5
I0403 14:57:31.088292 11430 net.cpp:141] Setting up inception_4c/5x5
I0403 14:57:31.088328 11430 net.cpp:148] Top shape: 24 64 14 14 (301056)
I0403 14:57:31.088346 11430 net.cpp:156] Memory required for data: 1049767200
I0403 14:57:31.088364 11430 layer_factory.hpp:77] Creating layer inception_4c/relu_5x5
I0403 14:57:31.088382 11430 net.cpp:91] Creating Layer inception_4c/relu_5x5
I0403 14:57:31.088397 11430 net.cpp:425] inception_4c/relu_5x5 <- inception_4c/5x5
I0403 14:57:31.088418 11430 net.cpp:386] inception_4c/relu_5x5 -> inception_4c/5x5 (in-place)
I0403 14:57:31.088706 11430 net.cpp:141] Setting up inception_4c/relu_5x5
I0403 14:57:31.088733 11430 net.cpp:148] Top shape: 24 64 14 14 (301056)
I0403 14:57:31.088749 11430 net.cpp:156] Memory required for data: 1050971424
I0403 14:57:31.088764 11430 layer_factory.hpp:77] Creating layer inception_4c/pool
I0403 14:57:31.088781 11430 net.cpp:91] Creating Layer inception_4c/pool
I0403 14:57:31.088798 11430 net.cpp:425] inception_4c/pool <- inception_4b/output_inception_4b/output_0_split_3
I0403 14:57:31.088819 11430 net.cpp:399] inception_4c/pool -> inception_4c/pool
I0403 14:57:31.088884 11430 net.cpp:141] Setting up inception_4c/pool
I0403 14:57:31.088910 11430 net.cpp:148] Top shape: 24 512 14 14 (2408448)
I0403 14:57:31.088927 11430 net.cpp:156] Memory required for data: 1060605216
I0403 14:57:31.088942 11430 layer_factory.hpp:77] Creating layer inception_4c/pool_proj
I0403 14:57:31.088963 11430 net.cpp:91] Creating Layer inception_4c/pool_proj
I0403 14:57:31.088981 11430 net.cpp:425] inception_4c/pool_proj <- inception_4c/pool
I0403 14:57:31.089000 11430 net.cpp:399] inception_4c/pool_proj -> inception_4c/pool_proj
I0403 14:57:31.090222 11430 net.cpp:141] Setting up inception_4c/pool_proj
I0403 14:57:31.090253 11430 net.cpp:148] Top shape: 24 64 14 14 (301056)
I0403 14:57:31.090283 11430 net.cpp:156] Memory required for data: 1061809440
I0403 14:57:31.090302 11430 layer_factory.hpp:77] Creating layer inception_4c/relu_pool_proj
I0403 14:57:31.090328 11430 net.cpp:91] Creating Layer inception_4c/relu_pool_proj
I0403 14:57:31.090345 11430 net.cpp:425] inception_4c/relu_pool_proj <- inception_4c/pool_proj
I0403 14:57:31.090363 11430 net.cpp:386] inception_4c/relu_pool_proj -> inception_4c/pool_proj (in-place)
I0403 14:57:31.090548 11430 net.cpp:141] Setting up inception_4c/relu_pool_proj
I0403 14:57:31.090575 11430 net.cpp:148] Top shape: 24 64 14 14 (301056)
I0403 14:57:31.090591 11430 net.cpp:156] Memory required for data: 1063013664
I0403 14:57:31.090606 11430 layer_factory.hpp:77] Creating layer inception_4c/output
I0403 14:57:31.090622 11430 net.cpp:91] Creating Layer inception_4c/output
I0403 14:57:31.090638 11430 net.cpp:425] inception_4c/output <- inception_4c/1x1
I0403 14:57:31.090656 11430 net.cpp:425] inception_4c/output <- inception_4c/3x3
I0403 14:57:31.090672 11430 net.cpp:425] inception_4c/output <- inception_4c/5x5
I0403 14:57:31.090687 11430 net.cpp:425] inception_4c/output <- inception_4c/pool_proj
I0403 14:57:31.090706 11430 net.cpp:399] inception_4c/output -> inception_4c/output
I0403 14:57:31.090752 11430 net.cpp:141] Setting up inception_4c/output
I0403 14:57:31.090775 11430 net.cpp:148] Top shape: 24 512 14 14 (2408448)
I0403 14:57:31.090790 11430 net.cpp:156] Memory required for data: 1072647456
I0403 14:57:31.090804 11430 layer_factory.hpp:77] Creating layer inception_4c/output_inception_4c/output_0_split
I0403 14:57:31.090823 11430 net.cpp:91] Creating Layer inception_4c/output_inception_4c/output_0_split
I0403 14:57:31.090839 11430 net.cpp:425] inception_4c/output_inception_4c/output_0_split <- inception_4c/output
I0403 14:57:31.090857 11430 net.cpp:399] inception_4c/output_inception_4c/output_0_split -> inception_4c/output_inception_4c/output_0_split_0
I0403 14:57:31.090878 11430 net.cpp:399] inception_4c/output_inception_4c/output_0_split -> inception_4c/output_inception_4c/output_0_split_1
I0403 14:57:31.090901 11430 net.cpp:399] inception_4c/output_inception_4c/output_0_split -> inception_4c/output_inception_4c/output_0_split_2
I0403 14:57:31.090921 11430 net.cpp:399] inception_4c/output_inception_4c/output_0_split -> inception_4c/output_inception_4c/output_0_split_3
I0403 14:57:31.091006 11430 net.cpp:141] Setting up inception_4c/output_inception_4c/output_0_split
I0403 14:57:31.091029 11430 net.cpp:148] Top shape: 24 512 14 14 (2408448)
I0403 14:57:31.091045 11430 net.cpp:148] Top shape: 24 512 14 14 (2408448)
I0403 14:57:31.091061 11430 net.cpp:148] Top shape: 24 512 14 14 (2408448)
I0403 14:57:31.091076 11430 net.cpp:148] Top shape: 24 512 14 14 (2408448)
I0403 14:57:31.091090 11430 net.cpp:156] Memory required for data: 1111182624
I0403 14:57:31.091104 11430 layer_factory.hpp:77] Creating layer inception_4d/1x1
I0403 14:57:31.091126 11430 net.cpp:91] Creating Layer inception_4d/1x1
I0403 14:57:31.091143 11430 net.cpp:425] inception_4d/1x1 <- inception_4c/output_inception_4c/output_0_split_0
I0403 14:57:31.091164 11430 net.cpp:399] inception_4d/1x1 -> inception_4d/1x1
I0403 14:57:31.092572 11430 net.cpp:141] Setting up inception_4d/1x1
I0403 14:57:31.092600 11430 net.cpp:148] Top shape: 24 112 14 14 (526848)
I0403 14:57:31.092617 11430 net.cpp:156] Memory required for data: 1113290016
I0403 14:57:31.092634 11430 layer_factory.hpp:77] Creating layer inception_4d/relu_1x1
I0403 14:57:31.092653 11430 net.cpp:91] Creating Layer inception_4d/relu_1x1
I0403 14:57:31.092671 11430 net.cpp:425] inception_4d/relu_1x1 <- inception_4d/1x1
I0403 14:57:31.092689 11430 net.cpp:386] inception_4d/relu_1x1 -> inception_4d/1x1 (in-place)
I0403 14:57:31.092875 11430 net.cpp:141] Setting up inception_4d/relu_1x1
I0403 14:57:31.092900 11430 net.cpp:148] Top shape: 24 112 14 14 (526848)
I0403 14:57:31.092914 11430 net.cpp:156] Memory required for data: 1115397408
I0403 14:57:31.092929 11430 layer_factory.hpp:77] Creating layer inception_4d/3x3_reduce
I0403 14:57:31.092967 11430 net.cpp:91] Creating Layer inception_4d/3x3_reduce
I0403 14:57:31.092985 11430 net.cpp:425] inception_4d/3x3_reduce <- inception_4c/output_inception_4c/output_0_split_1
I0403 14:57:31.093004 11430 net.cpp:399] inception_4d/3x3_reduce -> inception_4d/3x3_reduce
I0403 14:57:31.094538 11430 net.cpp:141] Setting up inception_4d/3x3_reduce
I0403 14:57:31.094566 11430 net.cpp:148] Top shape: 24 144 14 14 (677376)
I0403 14:57:31.094581 11430 net.cpp:156] Memory required for data: 1118106912
I0403 14:57:31.094600 11430 layer_factory.hpp:77] Creating layer inception_4d/relu_3x3_reduce
I0403 14:57:31.094617 11430 net.cpp:91] Creating Layer inception_4d/relu_3x3_reduce
I0403 14:57:31.094633 11430 net.cpp:425] inception_4d/relu_3x3_reduce <- inception_4d/3x3_reduce
I0403 14:57:31.094653 11430 net.cpp:386] inception_4d/relu_3x3_reduce -> inception_4d/3x3_reduce (in-place)
I0403 14:57:31.094945 11430 net.cpp:141] Setting up inception_4d/relu_3x3_reduce
I0403 14:57:31.094971 11430 net.cpp:148] Top shape: 24 144 14 14 (677376)
I0403 14:57:31.094987 11430 net.cpp:156] Memory required for data: 1120816416
I0403 14:57:31.095001 11430 layer_factory.hpp:77] Creating layer inception_4d/3x3
I0403 14:57:31.095023 11430 net.cpp:91] Creating Layer inception_4d/3x3
I0403 14:57:31.095042 11430 net.cpp:425] inception_4d/3x3 <- inception_4d/3x3_reduce
I0403 14:57:31.095063 11430 net.cpp:399] inception_4d/3x3 -> inception_4d/3x3
I0403 14:57:31.101609 11430 net.cpp:141] Setting up inception_4d/3x3
I0403 14:57:31.101639 11430 net.cpp:148] Top shape: 24 288 14 14 (1354752)
I0403 14:57:31.101655 11430 net.cpp:156] Memory required for data: 1126235424
I0403 14:57:31.101672 11430 layer_factory.hpp:77] Creating layer inception_4d/relu_3x3
I0403 14:57:31.101693 11430 net.cpp:91] Creating Layer inception_4d/relu_3x3
I0403 14:57:31.101711 11430 net.cpp:425] inception_4d/relu_3x3 <- inception_4d/3x3
I0403 14:57:31.101729 11430 net.cpp:386] inception_4d/relu_3x3 -> inception_4d/3x3 (in-place)
I0403 14:57:31.101914 11430 net.cpp:141] Setting up inception_4d/relu_3x3
I0403 14:57:31.101941 11430 net.cpp:148] Top shape: 24 288 14 14 (1354752)
I0403 14:57:31.101958 11430 net.cpp:156] Memory required for data: 1131654432
I0403 14:57:31.101972 11430 layer_factory.hpp:77] Creating layer inception_4d/5x5_reduce
I0403 14:57:31.101994 11430 net.cpp:91] Creating Layer inception_4d/5x5_reduce
I0403 14:57:31.102011 11430 net.cpp:425] inception_4d/5x5_reduce <- inception_4c/output_inception_4c/output_0_split_2
I0403 14:57:31.102031 11430 net.cpp:399] inception_4d/5x5_reduce -> inception_4d/5x5_reduce
I0403 14:57:31.103204 11430 net.cpp:141] Setting up inception_4d/5x5_reduce
I0403 14:57:31.103232 11430 net.cpp:148] Top shape: 24 32 14 14 (150528)
I0403 14:57:31.103247 11430 net.cpp:156] Memory required for data: 1132256544
I0403 14:57:31.103266 11430 layer_factory.hpp:77] Creating layer inception_4d/relu_5x5_reduce
I0403 14:57:31.103286 11430 net.cpp:91] Creating Layer inception_4d/relu_5x5_reduce
I0403 14:57:31.103302 11430 net.cpp:425] inception_4d/relu_5x5_reduce <- inception_4d/5x5_reduce
I0403 14:57:31.103325 11430 net.cpp:386] inception_4d/relu_5x5_reduce -> inception_4d/5x5_reduce (in-place)
I0403 14:57:31.103518 11430 net.cpp:141] Setting up inception_4d/relu_5x5_reduce
I0403 14:57:31.103543 11430 net.cpp:148] Top shape: 24 32 14 14 (150528)
I0403 14:57:31.103557 11430 net.cpp:156] Memory required for data: 1132858656
I0403 14:57:31.103571 11430 layer_factory.hpp:77] Creating layer inception_4d/5x5
I0403 14:57:31.103595 11430 net.cpp:91] Creating Layer inception_4d/5x5
I0403 14:57:31.103613 11430 net.cpp:425] inception_4d/5x5 <- inception_4d/5x5_reduce
I0403 14:57:31.103633 11430 net.cpp:399] inception_4d/5x5 -> inception_4d/5x5
I0403 14:57:31.105624 11430 net.cpp:141] Setting up inception_4d/5x5
I0403 14:57:31.105654 11430 net.cpp:148] Top shape: 24 64 14 14 (301056)
I0403 14:57:31.105669 11430 net.cpp:156] Memory required for data: 1134062880
I0403 14:57:31.105689 11430 layer_factory.hpp:77] Creating layer inception_4d/relu_5x5
I0403 14:57:31.105720 11430 net.cpp:91] Creating Layer inception_4d/relu_5x5
I0403 14:57:31.105736 11430 net.cpp:425] inception_4d/relu_5x5 <- inception_4d/5x5
I0403 14:57:31.105756 11430 net.cpp:386] inception_4d/relu_5x5 -> inception_4d/5x5 (in-place)
I0403 14:57:31.106050 11430 net.cpp:141] Setting up inception_4d/relu_5x5
I0403 14:57:31.106078 11430 net.cpp:148] Top shape: 24 64 14 14 (301056)
I0403 14:57:31.106093 11430 net.cpp:156] Memory required for data: 1135267104
I0403 14:57:31.106107 11430 layer_factory.hpp:77] Creating layer inception_4d/pool
I0403 14:57:31.106125 11430 net.cpp:91] Creating Layer inception_4d/pool
I0403 14:57:31.106140 11430 net.cpp:425] inception_4d/pool <- inception_4c/output_inception_4c/output_0_split_3
I0403 14:57:31.106163 11430 net.cpp:399] inception_4d/pool -> inception_4d/pool
I0403 14:57:31.106227 11430 net.cpp:141] Setting up inception_4d/pool
I0403 14:57:31.106251 11430 net.cpp:148] Top shape: 24 512 14 14 (2408448)
I0403 14:57:31.106264 11430 net.cpp:156] Memory required for data: 1144900896
I0403 14:57:31.106278 11430 layer_factory.hpp:77] Creating layer inception_4d/pool_proj
I0403 14:57:31.106300 11430 net.cpp:91] Creating Layer inception_4d/pool_proj
I0403 14:57:31.106324 11430 net.cpp:425] inception_4d/pool_proj <- inception_4d/pool
I0403 14:57:31.106360 11430 net.cpp:399] inception_4d/pool_proj -> inception_4d/pool_proj
I0403 14:57:31.109629 11430 net.cpp:141] Setting up inception_4d/pool_proj
I0403 14:57:31.109658 11430 net.cpp:148] Top shape: 24 64 14 14 (301056)
I0403 14:57:31.109674 11430 net.cpp:156] Memory required for data: 1146105120
I0403 14:57:31.109693 11430 layer_factory.hpp:77] Creating layer inception_4d/relu_pool_proj
I0403 14:57:31.109712 11430 net.cpp:91] Creating Layer inception_4d/relu_pool_proj
I0403 14:57:31.109730 11430 net.cpp:425] inception_4d/relu_pool_proj <- inception_4d/pool_proj
I0403 14:57:31.109747 11430 net.cpp:386] inception_4d/relu_pool_proj -> inception_4d/pool_proj (in-place)
I0403 14:57:31.109935 11430 net.cpp:141] Setting up inception_4d/relu_pool_proj
I0403 14:57:31.109962 11430 net.cpp:148] Top shape: 24 64 14 14 (301056)
I0403 14:57:31.109978 11430 net.cpp:156] Memory required for data: 1147309344
I0403 14:57:31.109993 11430 layer_factory.hpp:77] Creating layer inception_4d/output
I0403 14:57:31.110009 11430 net.cpp:91] Creating Layer inception_4d/output
I0403 14:57:31.110025 11430 net.cpp:425] inception_4d/output <- inception_4d/1x1
I0403 14:57:31.110043 11430 net.cpp:425] inception_4d/output <- inception_4d/3x3
I0403 14:57:31.110254 11430 net.cpp:425] inception_4d/output <- inception_4d/5x5
I0403 14:57:31.110275 11430 net.cpp:425] inception_4d/output <- inception_4d/pool_proj
I0403 14:57:31.110294 11430 net.cpp:399] inception_4d/output -> inception_4d/output
I0403 14:57:31.110349 11430 net.cpp:141] Setting up inception_4d/output
I0403 14:57:31.110373 11430 net.cpp:148] Top shape: 24 528 14 14 (2483712)
I0403 14:57:31.110388 11430 net.cpp:156] Memory required for data: 1157244192
I0403 14:57:31.110402 11430 layer_factory.hpp:77] Creating layer inception_4d/output_inception_4d/output_0_split
I0403 14:57:31.110422 11430 net.cpp:91] Creating Layer inception_4d/output_inception_4d/output_0_split
I0403 14:57:31.110440 11430 net.cpp:425] inception_4d/output_inception_4d/output_0_split <- inception_4d/output
I0403 14:57:31.110456 11430 net.cpp:399] inception_4d/output_inception_4d/output_0_split -> inception_4d/output_inception_4d/output_0_split_0
I0403 14:57:31.110476 11430 net.cpp:399] inception_4d/output_inception_4d/output_0_split -> inception_4d/output_inception_4d/output_0_split_1
I0403 14:57:31.110497 11430 net.cpp:399] inception_4d/output_inception_4d/output_0_split -> inception_4d/output_inception_4d/output_0_split_2
I0403 14:57:31.110519 11430 net.cpp:399] inception_4d/output_inception_4d/output_0_split -> inception_4d/output_inception_4d/output_0_split_3
I0403 14:57:31.110540 11430 net.cpp:399] inception_4d/output_inception_4d/output_0_split -> inception_4d/output_inception_4d/output_0_split_4
I0403 14:57:31.110643 11430 net.cpp:141] Setting up inception_4d/output_inception_4d/output_0_split
I0403 14:57:31.110678 11430 net.cpp:148] Top shape: 24 528 14 14 (2483712)
I0403 14:57:31.110695 11430 net.cpp:148] Top shape: 24 528 14 14 (2483712)
I0403 14:57:31.110710 11430 net.cpp:148] Top shape: 24 528 14 14 (2483712)
I0403 14:57:31.110726 11430 net.cpp:148] Top shape: 24 528 14 14 (2483712)
I0403 14:57:31.110741 11430 net.cpp:148] Top shape: 24 528 14 14 (2483712)
I0403 14:57:31.110755 11430 net.cpp:156] Memory required for data: 1206918432
I0403 14:57:31.110770 11430 layer_factory.hpp:77] Creating layer loss2/ave_pool
I0403 14:57:31.110790 11430 net.cpp:91] Creating Layer loss2/ave_pool
I0403 14:57:31.110807 11430 net.cpp:425] loss2/ave_pool <- inception_4d/output_inception_4d/output_0_split_0
I0403 14:57:31.110826 11430 net.cpp:399] loss2/ave_pool -> loss2/ave_pool
I0403 14:57:31.111143 11430 net.cpp:141] Setting up loss2/ave_pool
I0403 14:57:31.111171 11430 net.cpp:148] Top shape: 24 528 4 4 (202752)
I0403 14:57:31.111186 11430 net.cpp:156] Memory required for data: 1207729440
I0403 14:57:31.111199 11430 layer_factory.hpp:77] Creating layer loss2/conv
I0403 14:57:31.111222 11430 net.cpp:91] Creating Layer loss2/conv
I0403 14:57:31.111240 11430 net.cpp:425] loss2/conv <- loss2/ave_pool
I0403 14:57:31.111263 11430 net.cpp:399] loss2/conv -> loss2/conv
I0403 14:57:31.113180 11430 net.cpp:141] Setting up loss2/conv
I0403 14:57:31.113211 11430 net.cpp:148] Top shape: 24 128 4 4 (49152)
I0403 14:57:31.113229 11430 net.cpp:156] Memory required for data: 1207926048
I0403 14:57:31.113246 11430 layer_factory.hpp:77] Creating layer loss2/relu_conv
I0403 14:57:31.113265 11430 net.cpp:91] Creating Layer loss2/relu_conv
I0403 14:57:31.113281 11430 net.cpp:425] loss2/relu_conv <- loss2/conv
I0403 14:57:31.113301 11430 net.cpp:386] loss2/relu_conv -> loss2/conv (in-place)
I0403 14:57:31.113605 11430 net.cpp:141] Setting up loss2/relu_conv
I0403 14:57:31.113634 11430 net.cpp:148] Top shape: 24 128 4 4 (49152)
I0403 14:57:31.113649 11430 net.cpp:156] Memory required for data: 1208122656
I0403 14:57:31.113664 11430 layer_factory.hpp:77] Creating layer loss2/fc
I0403 14:57:31.113683 11430 net.cpp:91] Creating Layer loss2/fc
I0403 14:57:31.113700 11430 net.cpp:425] loss2/fc <- loss2/conv
I0403 14:57:31.113721 11430 net.cpp:399] loss2/fc -> loss2/fc
I0403 14:57:31.131422 11430 net.cpp:141] Setting up loss2/fc
I0403 14:57:31.131460 11430 net.cpp:148] Top shape: 24 1024 (24576)
I0403 14:57:31.131476 11430 net.cpp:156] Memory required for data: 1208220960
I0403 14:57:31.131495 11430 layer_factory.hpp:77] Creating layer loss2/relu_fc
I0403 14:57:31.131513 11430 net.cpp:91] Creating Layer loss2/relu_fc
I0403 14:57:31.131530 11430 net.cpp:425] loss2/relu_fc <- loss2/fc
I0403 14:57:31.131546 11430 net.cpp:386] loss2/relu_fc -> loss2/fc (in-place)
I0403 14:57:31.131842 11430 net.cpp:141] Setting up loss2/relu_fc
I0403 14:57:31.131868 11430 net.cpp:148] Top shape: 24 1024 (24576)
I0403 14:57:31.131882 11430 net.cpp:156] Memory required for data: 1208319264
I0403 14:57:31.131896 11430 layer_factory.hpp:77] Creating layer loss2/drop_fc
I0403 14:57:31.131916 11430 net.cpp:91] Creating Layer loss2/drop_fc
I0403 14:57:31.131933 11430 net.cpp:425] loss2/drop_fc <- loss2/fc
I0403 14:57:31.131950 11430 net.cpp:386] loss2/drop_fc -> loss2/fc (in-place)
I0403 14:57:31.132000 11430 net.cpp:141] Setting up loss2/drop_fc
I0403 14:57:31.132024 11430 net.cpp:148] Top shape: 24 1024 (24576)
I0403 14:57:31.132036 11430 net.cpp:156] Memory required for data: 1208417568
I0403 14:57:31.132051 11430 layer_factory.hpp:77] Creating layer loss2/classifier_plantvillage
I0403 14:57:31.132071 11430 net.cpp:91] Creating Layer loss2/classifier_plantvillage
I0403 14:57:31.132087 11430 net.cpp:425] loss2/classifier_plantvillage <- loss2/fc
I0403 14:57:31.132105 11430 net.cpp:399] loss2/classifier_plantvillage -> loss2/classifier_plantvillage
I0403 14:57:31.132513 11430 net.cpp:141] Setting up loss2/classifier_plantvillage
I0403 14:57:31.132537 11430 net.cpp:148] Top shape: 24 38 (912)
I0403 14:57:31.132567 11430 net.cpp:156] Memory required for data: 1208421216
I0403 14:57:31.132586 11430 layer_factory.hpp:77] Creating layer loss2/classifier_plantvillage_loss2/classifier_plantvillage_0_split
I0403 14:57:31.132606 11430 net.cpp:91] Creating Layer loss2/classifier_plantvillage_loss2/classifier_plantvillage_0_split
I0403 14:57:31.132621 11430 net.cpp:425] loss2/classifier_plantvillage_loss2/classifier_plantvillage_0_split <- loss2/classifier_plantvillage
I0403 14:57:31.132640 11430 net.cpp:399] loss2/classifier_plantvillage_loss2/classifier_plantvillage_0_split -> loss2/classifier_plantvillage_loss2/classifier_plantvillage_0_split_0
I0403 14:57:31.132660 11430 net.cpp:399] loss2/classifier_plantvillage_loss2/classifier_plantvillage_0_split -> loss2/classifier_plantvillage_loss2/classifier_plantvillage_0_split_1
I0403 14:57:31.132680 11430 net.cpp:399] loss2/classifier_plantvillage_loss2/classifier_plantvillage_0_split -> loss2/classifier_plantvillage_loss2/classifier_plantvillage_0_split_2
I0403 14:57:31.132756 11430 net.cpp:141] Setting up loss2/classifier_plantvillage_loss2/classifier_plantvillage_0_split
I0403 14:57:31.132781 11430 net.cpp:148] Top shape: 24 38 (912)
I0403 14:57:31.132798 11430 net.cpp:148] Top shape: 24 38 (912)
I0403 14:57:31.132813 11430 net.cpp:148] Top shape: 24 38 (912)
I0403 14:57:31.132827 11430 net.cpp:156] Memory required for data: 1208432160
I0403 14:57:31.132840 11430 layer_factory.hpp:77] Creating layer inception_4e/1x1
I0403 14:57:31.132863 11430 net.cpp:91] Creating Layer inception_4e/1x1
I0403 14:57:31.132879 11430 net.cpp:425] inception_4e/1x1 <- inception_4d/output_inception_4d/output_0_split_1
I0403 14:57:31.132899 11430 net.cpp:399] inception_4e/1x1 -> inception_4e/1x1
I0403 14:57:31.134681 11430 net.cpp:141] Setting up inception_4e/1x1
I0403 14:57:31.134711 11430 net.cpp:148] Top shape: 24 256 14 14 (1204224)
I0403 14:57:31.134727 11430 net.cpp:156] Memory required for data: 1213249056
I0403 14:57:31.134745 11430 layer_factory.hpp:77] Creating layer inception_4e/relu_1x1
I0403 14:57:31.134763 11430 net.cpp:91] Creating Layer inception_4e/relu_1x1
I0403 14:57:31.134778 11430 net.cpp:425] inception_4e/relu_1x1 <- inception_4e/1x1
I0403 14:57:31.134796 11430 net.cpp:386] inception_4e/relu_1x1 -> inception_4e/1x1 (in-place)
I0403 14:57:31.135088 11430 net.cpp:141] Setting up inception_4e/relu_1x1
I0403 14:57:31.135114 11430 net.cpp:148] Top shape: 24 256 14 14 (1204224)
I0403 14:57:31.135130 11430 net.cpp:156] Memory required for data: 1218065952
I0403 14:57:31.135145 11430 layer_factory.hpp:77] Creating layer inception_4e/3x3_reduce
I0403 14:57:31.135167 11430 net.cpp:91] Creating Layer inception_4e/3x3_reduce
I0403 14:57:31.135185 11430 net.cpp:425] inception_4e/3x3_reduce <- inception_4d/output_inception_4d/output_0_split_2
I0403 14:57:31.135203 11430 net.cpp:399] inception_4e/3x3_reduce -> inception_4e/3x3_reduce
I0403 14:57:31.137276 11430 net.cpp:141] Setting up inception_4e/3x3_reduce
I0403 14:57:31.137306 11430 net.cpp:148] Top shape: 24 160 14 14 (752640)
I0403 14:57:31.137331 11430 net.cpp:156] Memory required for data: 1221076512
I0403 14:57:31.137349 11430 layer_factory.hpp:77] Creating layer inception_4e/relu_3x3_reduce
I0403 14:57:31.137367 11430 net.cpp:91] Creating Layer inception_4e/relu_3x3_reduce
I0403 14:57:31.137382 11430 net.cpp:425] inception_4e/relu_3x3_reduce <- inception_4e/3x3_reduce
I0403 14:57:31.137398 11430 net.cpp:386] inception_4e/relu_3x3_reduce -> inception_4e/3x3_reduce (in-place)
I0403 14:57:31.137586 11430 net.cpp:141] Setting up inception_4e/relu_3x3_reduce
I0403 14:57:31.137610 11430 net.cpp:148] Top shape: 24 160 14 14 (752640)
I0403 14:57:31.137624 11430 net.cpp:156] Memory required for data: 1224087072
I0403 14:57:31.137639 11430 layer_factory.hpp:77] Creating layer inception_4e/3x3
I0403 14:57:31.137660 11430 net.cpp:91] Creating Layer inception_4e/3x3
I0403 14:57:31.137677 11430 net.cpp:425] inception_4e/3x3 <- inception_4e/3x3_reduce
I0403 14:57:31.137698 11430 net.cpp:399] inception_4e/3x3 -> inception_4e/3x3
I0403 14:57:31.142688 11430 net.cpp:141] Setting up inception_4e/3x3
I0403 14:57:31.142727 11430 net.cpp:148] Top shape: 24 320 14 14 (1505280)
I0403 14:57:31.142743 11430 net.cpp:156] Memory required for data: 1230108192
I0403 14:57:31.142760 11430 layer_factory.hpp:77] Creating layer inception_4e/relu_3x3
I0403 14:57:31.142781 11430 net.cpp:91] Creating Layer inception_4e/relu_3x3
I0403 14:57:31.142797 11430 net.cpp:425] inception_4e/relu_3x3 <- inception_4e/3x3
I0403 14:57:31.142814 11430 net.cpp:386] inception_4e/relu_3x3 -> inception_4e/3x3 (in-place)
I0403 14:57:31.143110 11430 net.cpp:141] Setting up inception_4e/relu_3x3
I0403 14:57:31.143136 11430 net.cpp:148] Top shape: 24 320 14 14 (1505280)
I0403 14:57:31.143151 11430 net.cpp:156] Memory required for data: 1236129312
I0403 14:57:31.143164 11430 layer_factory.hpp:77] Creating layer inception_4e/5x5_reduce
I0403 14:57:31.143187 11430 net.cpp:91] Creating Layer inception_4e/5x5_reduce
I0403 14:57:31.143204 11430 net.cpp:425] inception_4e/5x5_reduce <- inception_4d/output_inception_4d/output_0_split_3
I0403 14:57:31.143225 11430 net.cpp:399] inception_4e/5x5_reduce -> inception_4e/5x5_reduce
I0403 14:57:31.144325 11430 net.cpp:141] Setting up inception_4e/5x5_reduce
I0403 14:57:31.144367 11430 net.cpp:148] Top shape: 24 32 14 14 (150528)
I0403 14:57:31.144383 11430 net.cpp:156] Memory required for data: 1236731424
I0403 14:57:31.144402 11430 layer_factory.hpp:77] Creating layer inception_4e/relu_5x5_reduce
I0403 14:57:31.144420 11430 net.cpp:91] Creating Layer inception_4e/relu_5x5_reduce
I0403 14:57:31.144435 11430 net.cpp:425] inception_4e/relu_5x5_reduce <- inception_4e/5x5_reduce
I0403 14:57:31.144455 11430 net.cpp:386] inception_4e/relu_5x5_reduce -> inception_4e/5x5_reduce (in-place)
I0403 14:57:31.144765 11430 net.cpp:141] Setting up inception_4e/relu_5x5_reduce
I0403 14:57:31.144793 11430 net.cpp:148] Top shape: 24 32 14 14 (150528)
I0403 14:57:31.144809 11430 net.cpp:156] Memory required for data: 1237333536
I0403 14:57:31.144824 11430 layer_factory.hpp:77] Creating layer inception_4e/5x5
I0403 14:57:31.144862 11430 net.cpp:91] Creating Layer inception_4e/5x5
I0403 14:57:31.144881 11430 net.cpp:425] inception_4e/5x5 <- inception_4e/5x5_reduce
I0403 14:57:31.144899 11430 net.cpp:399] inception_4e/5x5 -> inception_4e/5x5
I0403 14:57:31.146782 11430 net.cpp:141] Setting up inception_4e/5x5
I0403 14:57:31.146808 11430 net.cpp:148] Top shape: 24 128 14 14 (602112)
I0403 14:57:31.146823 11430 net.cpp:156] Memory required for data: 1239741984
I0403 14:57:31.146842 11430 layer_factory.hpp:77] Creating layer inception_4e/relu_5x5
I0403 14:57:31.146862 11430 net.cpp:91] Creating Layer inception_4e/relu_5x5
I0403 14:57:31.146879 11430 net.cpp:425] inception_4e/relu_5x5 <- inception_4e/5x5
I0403 14:57:31.146896 11430 net.cpp:386] inception_4e/relu_5x5 -> inception_4e/5x5 (in-place)
I0403 14:57:31.147095 11430 net.cpp:141] Setting up inception_4e/relu_5x5
I0403 14:57:31.147121 11430 net.cpp:148] Top shape: 24 128 14 14 (602112)
I0403 14:57:31.147135 11430 net.cpp:156] Memory required for data: 1242150432
I0403 14:57:31.147150 11430 layer_factory.hpp:77] Creating layer inception_4e/pool
I0403 14:57:31.147166 11430 net.cpp:91] Creating Layer inception_4e/pool
I0403 14:57:31.147182 11430 net.cpp:425] inception_4e/pool <- inception_4d/output_inception_4d/output_0_split_4
I0403 14:57:31.147202 11430 net.cpp:399] inception_4e/pool -> inception_4e/pool
I0403 14:57:31.147270 11430 net.cpp:141] Setting up inception_4e/pool
I0403 14:57:31.147292 11430 net.cpp:148] Top shape: 24 528 14 14 (2483712)
I0403 14:57:31.147306 11430 net.cpp:156] Memory required for data: 1252085280
I0403 14:57:31.147325 11430 layer_factory.hpp:77] Creating layer inception_4e/pool_proj
I0403 14:57:31.147361 11430 net.cpp:91] Creating Layer inception_4e/pool_proj
I0403 14:57:31.147379 11430 net.cpp:425] inception_4e/pool_proj <- inception_4e/pool
I0403 14:57:31.147397 11430 net.cpp:399] inception_4e/pool_proj -> inception_4e/pool_proj
I0403 14:57:31.148936 11430 net.cpp:141] Setting up inception_4e/pool_proj
I0403 14:57:31.148974 11430 net.cpp:148] Top shape: 24 128 14 14 (602112)
I0403 14:57:31.148989 11430 net.cpp:156] Memory required for data: 1254493728
I0403 14:57:31.149008 11430 layer_factory.hpp:77] Creating layer inception_4e/relu_pool_proj
I0403 14:57:31.149027 11430 net.cpp:91] Creating Layer inception_4e/relu_pool_proj
I0403 14:57:31.149044 11430 net.cpp:425] inception_4e/relu_pool_proj <- inception_4e/pool_proj
I0403 14:57:31.149060 11430 net.cpp:386] inception_4e/relu_pool_proj -> inception_4e/pool_proj (in-place)
I0403 14:57:31.149356 11430 net.cpp:141] Setting up inception_4e/relu_pool_proj
I0403 14:57:31.149381 11430 net.cpp:148] Top shape: 24 128 14 14 (602112)
I0403 14:57:31.149395 11430 net.cpp:156] Memory required for data: 1256902176
I0403 14:57:31.149410 11430 layer_factory.hpp:77] Creating layer inception_4e/output
I0403 14:57:31.149430 11430 net.cpp:91] Creating Layer inception_4e/output
I0403 14:57:31.149446 11430 net.cpp:425] inception_4e/output <- inception_4e/1x1
I0403 14:57:31.149462 11430 net.cpp:425] inception_4e/output <- inception_4e/3x3
I0403 14:57:31.149478 11430 net.cpp:425] inception_4e/output <- inception_4e/5x5
I0403 14:57:31.149493 11430 net.cpp:425] inception_4e/output <- inception_4e/pool_proj
I0403 14:57:31.149510 11430 net.cpp:399] inception_4e/output -> inception_4e/output
I0403 14:57:31.149559 11430 net.cpp:141] Setting up inception_4e/output
I0403 14:57:31.149581 11430 net.cpp:148] Top shape: 24 832 14 14 (3913728)
I0403 14:57:31.149595 11430 net.cpp:156] Memory required for data: 1272557088
I0403 14:57:31.149610 11430 layer_factory.hpp:77] Creating layer pool4/3x3_s2
I0403 14:57:31.149626 11430 net.cpp:91] Creating Layer pool4/3x3_s2
I0403 14:57:31.149641 11430 net.cpp:425] pool4/3x3_s2 <- inception_4e/output
I0403 14:57:31.149662 11430 net.cpp:399] pool4/3x3_s2 -> pool4/3x3_s2
I0403 14:57:31.149726 11430 net.cpp:141] Setting up pool4/3x3_s2
I0403 14:57:31.149749 11430 net.cpp:148] Top shape: 24 832 7 7 (978432)
I0403 14:57:31.149762 11430 net.cpp:156] Memory required for data: 1276470816
I0403 14:57:31.149776 11430 layer_factory.hpp:77] Creating layer pool4/3x3_s2_pool4/3x3_s2_0_split
I0403 14:57:31.149796 11430 net.cpp:91] Creating Layer pool4/3x3_s2_pool4/3x3_s2_0_split
I0403 14:57:31.149813 11430 net.cpp:425] pool4/3x3_s2_pool4/3x3_s2_0_split <- pool4/3x3_s2
I0403 14:57:31.149832 11430 net.cpp:399] pool4/3x3_s2_pool4/3x3_s2_0_split -> pool4/3x3_s2_pool4/3x3_s2_0_split_0
I0403 14:57:31.149852 11430 net.cpp:399] pool4/3x3_s2_pool4/3x3_s2_0_split -> pool4/3x3_s2_pool4/3x3_s2_0_split_1
I0403 14:57:31.149871 11430 net.cpp:399] pool4/3x3_s2_pool4/3x3_s2_0_split -> pool4/3x3_s2_pool4/3x3_s2_0_split_2
I0403 14:57:31.149890 11430 net.cpp:399] pool4/3x3_s2_pool4/3x3_s2_0_split -> pool4/3x3_s2_pool4/3x3_s2_0_split_3
I0403 14:57:31.149976 11430 net.cpp:141] Setting up pool4/3x3_s2_pool4/3x3_s2_0_split
I0403 14:57:31.149999 11430 net.cpp:148] Top shape: 24 832 7 7 (978432)
I0403 14:57:31.150014 11430 net.cpp:148] Top shape: 24 832 7 7 (978432)
I0403 14:57:31.150029 11430 net.cpp:148] Top shape: 24 832 7 7 (978432)
I0403 14:57:31.150044 11430 net.cpp:148] Top shape: 24 832 7 7 (978432)
I0403 14:57:31.150058 11430 net.cpp:156] Memory required for data: 1292125728
I0403 14:57:31.150071 11430 layer_factory.hpp:77] Creating layer inception_5a/1x1
I0403 14:57:31.150092 11430 net.cpp:91] Creating Layer inception_5a/1x1
I0403 14:57:31.150110 11430 net.cpp:425] inception_5a/1x1 <- pool4/3x3_s2_pool4/3x3_s2_0_split_0
I0403 14:57:31.150131 11430 net.cpp:399] inception_5a/1x1 -> inception_5a/1x1
I0403 14:57:31.152942 11430 net.cpp:141] Setting up inception_5a/1x1
I0403 14:57:31.152973 11430 net.cpp:148] Top shape: 24 256 7 7 (301056)
I0403 14:57:31.152988 11430 net.cpp:156] Memory required for data: 1293329952
I0403 14:57:31.153007 11430 layer_factory.hpp:77] Creating layer inception_5a/relu_1x1
I0403 14:57:31.153024 11430 net.cpp:91] Creating Layer inception_5a/relu_1x1
I0403 14:57:31.153040 11430 net.cpp:425] inception_5a/relu_1x1 <- inception_5a/1x1
I0403 14:57:31.153058 11430 net.cpp:386] inception_5a/relu_1x1 -> inception_5a/1x1 (in-place)
I0403 14:57:31.153374 11430 net.cpp:141] Setting up inception_5a/relu_1x1
I0403 14:57:31.153403 11430 net.cpp:148] Top shape: 24 256 7 7 (301056)
I0403 14:57:31.153419 11430 net.cpp:156] Memory required for data: 1294534176
I0403 14:57:31.153432 11430 layer_factory.hpp:77] Creating layer inception_5a/3x3_reduce
I0403 14:57:31.153455 11430 net.cpp:91] Creating Layer inception_5a/3x3_reduce
I0403 14:57:31.153476 11430 net.cpp:425] inception_5a/3x3_reduce <- pool4/3x3_s2_pool4/3x3_s2_0_split_1
I0403 14:57:31.153496 11430 net.cpp:399] inception_5a/3x3_reduce -> inception_5a/3x3_reduce
I0403 14:57:31.155994 11430 net.cpp:141] Setting up inception_5a/3x3_reduce
I0403 14:57:31.156023 11430 net.cpp:148] Top shape: 24 160 7 7 (188160)
I0403 14:57:31.156039 11430 net.cpp:156] Memory required for data: 1295286816
I0403 14:57:31.156059 11430 layer_factory.hpp:77] Creating layer inception_5a/relu_3x3_reduce
I0403 14:57:31.156078 11430 net.cpp:91] Creating Layer inception_5a/relu_3x3_reduce
I0403 14:57:31.156095 11430 net.cpp:425] inception_5a/relu_3x3_reduce <- inception_5a/3x3_reduce
I0403 14:57:31.156113 11430 net.cpp:386] inception_5a/relu_3x3_reduce -> inception_5a/3x3_reduce (in-place)
I0403 14:57:31.156304 11430 net.cpp:141] Setting up inception_5a/relu_3x3_reduce
I0403 14:57:31.156338 11430 net.cpp:148] Top shape: 24 160 7 7 (188160)
I0403 14:57:31.156354 11430 net.cpp:156] Memory required for data: 1296039456
I0403 14:57:31.156369 11430 layer_factory.hpp:77] Creating layer inception_5a/3x3
I0403 14:57:31.156389 11430 net.cpp:91] Creating Layer inception_5a/3x3
I0403 14:57:31.156405 11430 net.cpp:425] inception_5a/3x3 <- inception_5a/3x3_reduce
I0403 14:57:31.156429 11430 net.cpp:399] inception_5a/3x3 -> inception_5a/3x3
I0403 14:57:31.161495 11430 net.cpp:141] Setting up inception_5a/3x3
I0403 14:57:31.161525 11430 net.cpp:148] Top shape: 24 320 7 7 (376320)
I0403 14:57:31.161540 11430 net.cpp:156] Memory required for data: 1297544736
I0403 14:57:31.161559 11430 layer_factory.hpp:77] Creating layer inception_5a/relu_3x3
I0403 14:57:31.161579 11430 net.cpp:91] Creating Layer inception_5a/relu_3x3
I0403 14:57:31.161597 11430 net.cpp:425] inception_5a/relu_3x3 <- inception_5a/3x3
I0403 14:57:31.161614 11430 net.cpp:386] inception_5a/relu_3x3 -> inception_5a/3x3 (in-place)
I0403 14:57:31.161919 11430 net.cpp:141] Setting up inception_5a/relu_3x3
I0403 14:57:31.161947 11430 net.cpp:148] Top shape: 24 320 7 7 (376320)
I0403 14:57:31.161962 11430 net.cpp:156] Memory required for data: 1299050016
I0403 14:57:31.161977 11430 layer_factory.hpp:77] Creating layer inception_5a/5x5_reduce
I0403 14:57:31.162001 11430 net.cpp:91] Creating Layer inception_5a/5x5_reduce
I0403 14:57:31.162019 11430 net.cpp:425] inception_5a/5x5_reduce <- pool4/3x3_s2_pool4/3x3_s2_0_split_2
I0403 14:57:31.162039 11430 net.cpp:399] inception_5a/5x5_reduce -> inception_5a/5x5_reduce
I0403 14:57:31.163244 11430 net.cpp:141] Setting up inception_5a/5x5_reduce
I0403 14:57:31.163275 11430 net.cpp:148] Top shape: 24 32 7 7 (37632)
I0403 14:57:31.163290 11430 net.cpp:156] Memory required for data: 1299200544
I0403 14:57:31.163308 11430 layer_factory.hpp:77] Creating layer inception_5a/relu_5x5_reduce
I0403 14:57:31.163333 11430 net.cpp:91] Creating Layer inception_5a/relu_5x5_reduce
I0403 14:57:31.163350 11430 net.cpp:425] inception_5a/relu_5x5_reduce <- inception_5a/5x5_reduce
I0403 14:57:31.163368 11430 net.cpp:386] inception_5a/relu_5x5_reduce -> inception_5a/5x5_reduce (in-place)
I0403 14:57:31.163676 11430 net.cpp:141] Setting up inception_5a/relu_5x5_reduce
I0403 14:57:31.163704 11430 net.cpp:148] Top shape: 24 32 7 7 (37632)
I0403 14:57:31.163720 11430 net.cpp:156] Memory required for data: 1299351072
I0403 14:57:31.163735 11430 layer_factory.hpp:77] Creating layer inception_5a/5x5
I0403 14:57:31.163758 11430 net.cpp:91] Creating Layer inception_5a/5x5
I0403 14:57:31.163774 11430 net.cpp:425] inception_5a/5x5 <- inception_5a/5x5_reduce
I0403 14:57:31.163796 11430 net.cpp:399] inception_5a/5x5 -> inception_5a/5x5
I0403 14:57:31.165541 11430 net.cpp:141] Setting up inception_5a/5x5
I0403 14:57:31.165581 11430 net.cpp:148] Top shape: 24 128 7 7 (150528)
I0403 14:57:31.165597 11430 net.cpp:156] Memory required for data: 1299953184
I0403 14:57:31.165616 11430 layer_factory.hpp:77] Creating layer inception_5a/relu_5x5
I0403 14:57:31.165637 11430 net.cpp:91] Creating Layer inception_5a/relu_5x5
I0403 14:57:31.165655 11430 net.cpp:425] inception_5a/relu_5x5 <- inception_5a/5x5
I0403 14:57:31.165673 11430 net.cpp:386] inception_5a/relu_5x5 -> inception_5a/5x5 (in-place)
I0403 14:57:31.165871 11430 net.cpp:141] Setting up inception_5a/relu_5x5
I0403 14:57:31.165896 11430 net.cpp:148] Top shape: 24 128 7 7 (150528)
I0403 14:57:31.165911 11430 net.cpp:156] Memory required for data: 1300555296
I0403 14:57:31.165926 11430 layer_factory.hpp:77] Creating layer inception_5a/pool
I0403 14:57:31.165943 11430 net.cpp:91] Creating Layer inception_5a/pool
I0403 14:57:31.165961 11430 net.cpp:425] inception_5a/pool <- pool4/3x3_s2_pool4/3x3_s2_0_split_3
I0403 14:57:31.165982 11430 net.cpp:399] inception_5a/pool -> inception_5a/pool
I0403 14:57:31.166051 11430 net.cpp:141] Setting up inception_5a/pool
I0403 14:57:31.166075 11430 net.cpp:148] Top shape: 24 832 7 7 (978432)
I0403 14:57:31.166090 11430 net.cpp:156] Memory required for data: 1304469024
I0403 14:57:31.166105 11430 layer_factory.hpp:77] Creating layer inception_5a/pool_proj
I0403 14:57:31.166127 11430 net.cpp:91] Creating Layer inception_5a/pool_proj
I0403 14:57:31.166144 11430 net.cpp:425] inception_5a/pool_proj <- inception_5a/pool
I0403 14:57:31.166163 11430 net.cpp:399] inception_5a/pool_proj -> inception_5a/pool_proj
I0403 14:57:31.168552 11430 net.cpp:141] Setting up inception_5a/pool_proj
I0403 14:57:31.168582 11430 net.cpp:148] Top shape: 24 128 7 7 (150528)
I0403 14:57:31.168598 11430 net.cpp:156] Memory required for data: 1305071136
I0403 14:57:31.168617 11430 layer_factory.hpp:77] Creating layer inception_5a/relu_pool_proj
I0403 14:57:31.168638 11430 net.cpp:91] Creating Layer inception_5a/relu_pool_proj
I0403 14:57:31.168656 11430 net.cpp:425] inception_5a/relu_pool_proj <- inception_5a/pool_proj
I0403 14:57:31.168673 11430 net.cpp:386] inception_5a/relu_pool_proj -> inception_5a/pool_proj (in-place)
I0403 14:57:31.168983 11430 net.cpp:141] Setting up inception_5a/relu_pool_proj
I0403 14:57:31.169011 11430 net.cpp:148] Top shape: 24 128 7 7 (150528)
I0403 14:57:31.169026 11430 net.cpp:156] Memory required for data: 1305673248
I0403 14:57:31.169041 11430 layer_factory.hpp:77] Creating layer inception_5a/output
I0403 14:57:31.169061 11430 net.cpp:91] Creating Layer inception_5a/output
I0403 14:57:31.169080 11430 net.cpp:425] inception_5a/output <- inception_5a/1x1
I0403 14:57:31.169096 11430 net.cpp:425] inception_5a/output <- inception_5a/3x3
I0403 14:57:31.169113 11430 net.cpp:425] inception_5a/output <- inception_5a/5x5
I0403 14:57:31.169131 11430 net.cpp:425] inception_5a/output <- inception_5a/pool_proj
I0403 14:57:31.169148 11430 net.cpp:399] inception_5a/output -> inception_5a/output
I0403 14:57:31.169203 11430 net.cpp:141] Setting up inception_5a/output
I0403 14:57:31.169227 11430 net.cpp:148] Top shape: 24 832 7 7 (978432)
I0403 14:57:31.169241 11430 net.cpp:156] Memory required for data: 1309586976
I0403 14:57:31.169256 11430 layer_factory.hpp:77] Creating layer inception_5a/output_inception_5a/output_0_split
I0403 14:57:31.169273 11430 net.cpp:91] Creating Layer inception_5a/output_inception_5a/output_0_split
I0403 14:57:31.169291 11430 net.cpp:425] inception_5a/output_inception_5a/output_0_split <- inception_5a/output
I0403 14:57:31.169311 11430 net.cpp:399] inception_5a/output_inception_5a/output_0_split -> inception_5a/output_inception_5a/output_0_split_0
I0403 14:57:31.169339 11430 net.cpp:399] inception_5a/output_inception_5a/output_0_split -> inception_5a/output_inception_5a/output_0_split_1
I0403 14:57:31.169361 11430 net.cpp:399] inception_5a/output_inception_5a/output_0_split -> inception_5a/output_inception_5a/output_0_split_2
I0403 14:57:31.169383 11430 net.cpp:399] inception_5a/output_inception_5a/output_0_split -> inception_5a/output_inception_5a/output_0_split_3
I0403 14:57:31.169497 11430 net.cpp:141] Setting up inception_5a/output_inception_5a/output_0_split
I0403 14:57:31.169523 11430 net.cpp:148] Top shape: 24 832 7 7 (978432)
I0403 14:57:31.169541 11430 net.cpp:148] Top shape: 24 832 7 7 (978432)
I0403 14:57:31.169558 11430 net.cpp:148] Top shape: 24 832 7 7 (978432)
I0403 14:57:31.169574 11430 net.cpp:148] Top shape: 24 832 7 7 (978432)
I0403 14:57:31.169589 11430 net.cpp:156] Memory required for data: 1325241888
I0403 14:57:31.169603 11430 layer_factory.hpp:77] Creating layer inception_5b/1x1
I0403 14:57:31.169626 11430 net.cpp:91] Creating Layer inception_5b/1x1
I0403 14:57:31.169644 11430 net.cpp:425] inception_5b/1x1 <- inception_5a/output_inception_5a/output_0_split_0
I0403 14:57:31.169663 11430 net.cpp:399] inception_5b/1x1 -> inception_5b/1x1
I0403 14:57:31.173600 11430 net.cpp:141] Setting up inception_5b/1x1
I0403 14:57:31.173632 11430 net.cpp:148] Top shape: 24 384 7 7 (451584)
I0403 14:57:31.173648 11430 net.cpp:156] Memory required for data: 1327048224
I0403 14:57:31.173667 11430 layer_factory.hpp:77] Creating layer inception_5b/relu_1x1
I0403 14:57:31.173689 11430 net.cpp:91] Creating Layer inception_5b/relu_1x1
I0403 14:57:31.173707 11430 net.cpp:425] inception_5b/relu_1x1 <- inception_5b/1x1
I0403 14:57:31.173725 11430 net.cpp:386] inception_5b/relu_1x1 -> inception_5b/1x1 (in-place)
I0403 14:57:31.174046 11430 net.cpp:141] Setting up inception_5b/relu_1x1
I0403 14:57:31.174073 11430 net.cpp:148] Top shape: 24 384 7 7 (451584)
I0403 14:57:31.174088 11430 net.cpp:156] Memory required for data: 1328854560
I0403 14:57:31.174104 11430 layer_factory.hpp:77] Creating layer inception_5b/3x3_reduce
I0403 14:57:31.174127 11430 net.cpp:91] Creating Layer inception_5b/3x3_reduce
I0403 14:57:31.174146 11430 net.cpp:425] inception_5b/3x3_reduce <- inception_5a/output_inception_5a/output_0_split_1
I0403 14:57:31.174170 11430 net.cpp:399] inception_5b/3x3_reduce -> inception_5b/3x3_reduce
I0403 14:57:31.176947 11430 net.cpp:141] Setting up inception_5b/3x3_reduce
I0403 14:57:31.176980 11430 net.cpp:148] Top shape: 24 192 7 7 (225792)
I0403 14:57:31.176996 11430 net.cpp:156] Memory required for data: 1329757728
I0403 14:57:31.177016 11430 layer_factory.hpp:77] Creating layer inception_5b/relu_3x3_reduce
I0403 14:57:31.177037 11430 net.cpp:91] Creating Layer inception_5b/relu_3x3_reduce
I0403 14:57:31.177055 11430 net.cpp:425] inception_5b/relu_3x3_reduce <- inception_5b/3x3_reduce
I0403 14:57:31.177073 11430 net.cpp:386] inception_5b/relu_3x3_reduce -> inception_5b/3x3_reduce (in-place)
I0403 14:57:31.177275 11430 net.cpp:141] Setting up inception_5b/relu_3x3_reduce
I0403 14:57:31.177304 11430 net.cpp:148] Top shape: 24 192 7 7 (225792)
I0403 14:57:31.177325 11430 net.cpp:156] Memory required for data: 1330660896
I0403 14:57:31.177342 11430 layer_factory.hpp:77] Creating layer inception_5b/3x3
I0403 14:57:31.177366 11430 net.cpp:91] Creating Layer inception_5b/3x3
I0403 14:57:31.177383 11430 net.cpp:425] inception_5b/3x3 <- inception_5b/3x3_reduce
I0403 14:57:31.177403 11430 net.cpp:399] inception_5b/3x3 -> inception_5b/3x3
I0403 14:57:31.184370 11430 net.cpp:141] Setting up inception_5b/3x3
I0403 14:57:31.184399 11430 net.cpp:148] Top shape: 24 384 7 7 (451584)
I0403 14:57:31.184417 11430 net.cpp:156] Memory required for data: 1332467232
I0403 14:57:31.184435 11430 layer_factory.hpp:77] Creating layer inception_5b/relu_3x3
I0403 14:57:31.184456 11430 net.cpp:91] Creating Layer inception_5b/relu_3x3
I0403 14:57:31.184474 11430 net.cpp:425] inception_5b/relu_3x3 <- inception_5b/3x3
I0403 14:57:31.184492 11430 net.cpp:386] inception_5b/relu_3x3 -> inception_5b/3x3 (in-place)
I0403 14:57:31.184823 11430 net.cpp:141] Setting up inception_5b/relu_3x3
I0403 14:57:31.184850 11430 net.cpp:148] Top shape: 24 384 7 7 (451584)
I0403 14:57:31.184866 11430 net.cpp:156] Memory required for data: 1334273568
I0403 14:57:31.184885 11430 layer_factory.hpp:77] Creating layer inception_5b/5x5_reduce
I0403 14:57:31.184926 11430 net.cpp:91] Creating Layer inception_5b/5x5_reduce
I0403 14:57:31.184947 11430 net.cpp:425] inception_5b/5x5_reduce <- inception_5a/output_inception_5a/output_0_split_2
I0403 14:57:31.185009 11430 net.cpp:399] inception_5b/5x5_reduce -> inception_5b/5x5_reduce
I0403 14:57:31.186336 11430 net.cpp:141] Setting up inception_5b/5x5_reduce
I0403 14:57:31.186364 11430 net.cpp:148] Top shape: 24 48 7 7 (56448)
I0403 14:57:31.186380 11430 net.cpp:156] Memory required for data: 1334499360
I0403 14:57:31.186399 11430 layer_factory.hpp:77] Creating layer inception_5b/relu_5x5_reduce
I0403 14:57:31.186419 11430 net.cpp:91] Creating Layer inception_5b/relu_5x5_reduce
I0403 14:57:31.186437 11430 net.cpp:425] inception_5b/relu_5x5_reduce <- inception_5b/5x5_reduce
I0403 14:57:31.186455 11430 net.cpp:386] inception_5b/relu_5x5_reduce -> inception_5b/5x5_reduce (in-place)
I0403 14:57:31.186832 11430 net.cpp:141] Setting up inception_5b/relu_5x5_reduce
I0403 14:57:31.186858 11430 net.cpp:148] Top shape: 24 48 7 7 (56448)
I0403 14:57:31.186874 11430 net.cpp:156] Memory required for data: 1334725152
I0403 14:57:31.186888 11430 layer_factory.hpp:77] Creating layer inception_5b/5x5
I0403 14:57:31.186908 11430 net.cpp:91] Creating Layer inception_5b/5x5
I0403 14:57:31.186926 11430 net.cpp:425] inception_5b/5x5 <- inception_5b/5x5_reduce
I0403 14:57:31.186945 11430 net.cpp:399] inception_5b/5x5 -> inception_5b/5x5
I0403 14:57:31.189049 11430 net.cpp:141] Setting up inception_5b/5x5
I0403 14:57:31.189079 11430 net.cpp:148] Top shape: 24 128 7 7 (150528)
I0403 14:57:31.189095 11430 net.cpp:156] Memory required for data: 1335327264
I0403 14:57:31.189113 11430 layer_factory.hpp:77] Creating layer inception_5b/relu_5x5
I0403 14:57:31.189131 11430 net.cpp:91] Creating Layer inception_5b/relu_5x5
I0403 14:57:31.189147 11430 net.cpp:425] inception_5b/relu_5x5 <- inception_5b/5x5
I0403 14:57:31.189165 11430 net.cpp:386] inception_5b/relu_5x5 -> inception_5b/5x5 (in-place)
I0403 14:57:31.189375 11430 net.cpp:141] Setting up inception_5b/relu_5x5
I0403 14:57:31.189402 11430 net.cpp:148] Top shape: 24 128 7 7 (150528)
I0403 14:57:31.189417 11430 net.cpp:156] Memory required for data: 1335929376
I0403 14:57:31.189432 11430 layer_factory.hpp:77] Creating layer inception_5b/pool
I0403 14:57:31.189450 11430 net.cpp:91] Creating Layer inception_5b/pool
I0403 14:57:31.189466 11430 net.cpp:425] inception_5b/pool <- inception_5a/output_inception_5a/output_0_split_3
I0403 14:57:31.189487 11430 net.cpp:399] inception_5b/pool -> inception_5b/pool
I0403 14:57:31.189560 11430 net.cpp:141] Setting up inception_5b/pool
I0403 14:57:31.189587 11430 net.cpp:148] Top shape: 24 832 7 7 (978432)
I0403 14:57:31.189604 11430 net.cpp:156] Memory required for data: 1339843104
I0403 14:57:31.189617 11430 layer_factory.hpp:77] Creating layer inception_5b/pool_proj
I0403 14:57:31.189640 11430 net.cpp:91] Creating Layer inception_5b/pool_proj
I0403 14:57:31.189657 11430 net.cpp:425] inception_5b/pool_proj <- inception_5b/pool
I0403 14:57:31.189677 11430 net.cpp:399] inception_5b/pool_proj -> inception_5b/pool_proj
I0403 14:57:31.192020 11430 net.cpp:141] Setting up inception_5b/pool_proj
I0403 14:57:31.192050 11430 net.cpp:148] Top shape: 24 128 7 7 (150528)
I0403 14:57:31.192066 11430 net.cpp:156] Memory required for data: 1340445216
I0403 14:57:31.192085 11430 layer_factory.hpp:77] Creating layer inception_5b/relu_pool_proj
I0403 14:57:31.192106 11430 net.cpp:91] Creating Layer inception_5b/relu_pool_proj
I0403 14:57:31.192123 11430 net.cpp:425] inception_5b/relu_pool_proj <- inception_5b/pool_proj
I0403 14:57:31.192140 11430 net.cpp:386] inception_5b/relu_pool_proj -> inception_5b/pool_proj (in-place)
I0403 14:57:31.192466 11430 net.cpp:141] Setting up inception_5b/relu_pool_proj
I0403 14:57:31.192492 11430 net.cpp:148] Top shape: 24 128 7 7 (150528)
I0403 14:57:31.192507 11430 net.cpp:156] Memory required for data: 1341047328
I0403 14:57:31.192522 11430 layer_factory.hpp:77] Creating layer inception_5b/output
I0403 14:57:31.192541 11430 net.cpp:91] Creating Layer inception_5b/output
I0403 14:57:31.192584 11430 net.cpp:425] inception_5b/output <- inception_5b/1x1
I0403 14:57:31.192601 11430 net.cpp:425] inception_5b/output <- inception_5b/3x3
I0403 14:57:31.192618 11430 net.cpp:425] inception_5b/output <- inception_5b/5x5
I0403 14:57:31.192634 11430 net.cpp:425] inception_5b/output <- inception_5b/pool_proj
I0403 14:57:31.192651 11430 net.cpp:399] inception_5b/output -> inception_5b/output
I0403 14:57:31.192703 11430 net.cpp:141] Setting up inception_5b/output
I0403 14:57:31.192726 11430 net.cpp:148] Top shape: 24 1024 7 7 (1204224)
I0403 14:57:31.192740 11430 net.cpp:156] Memory required for data: 1345864224
I0403 14:57:31.192754 11430 layer_factory.hpp:77] Creating layer pool5/7x7_s1
I0403 14:57:31.192771 11430 net.cpp:91] Creating Layer pool5/7x7_s1
I0403 14:57:31.192787 11430 net.cpp:425] pool5/7x7_s1 <- inception_5b/output
I0403 14:57:31.192807 11430 net.cpp:399] pool5/7x7_s1 -> pool5/7x7_s1
I0403 14:57:31.193022 11430 net.cpp:141] Setting up pool5/7x7_s1
I0403 14:57:31.193047 11430 net.cpp:148] Top shape: 24 1024 1 1 (24576)
I0403 14:57:31.193061 11430 net.cpp:156] Memory required for data: 1345962528
I0403 14:57:31.193075 11430 layer_factory.hpp:77] Creating layer pool5/drop_7x7_s1
I0403 14:57:31.193095 11430 net.cpp:91] Creating Layer pool5/drop_7x7_s1
I0403 14:57:31.193111 11430 net.cpp:425] pool5/drop_7x7_s1 <- pool5/7x7_s1
I0403 14:57:31.193128 11430 net.cpp:386] pool5/drop_7x7_s1 -> pool5/7x7_s1 (in-place)
I0403 14:57:31.193179 11430 net.cpp:141] Setting up pool5/drop_7x7_s1
I0403 14:57:31.193202 11430 net.cpp:148] Top shape: 24 1024 1 1 (24576)
I0403 14:57:31.193215 11430 net.cpp:156] Memory required for data: 1346060832
I0403 14:57:31.193229 11430 layer_factory.hpp:77] Creating layer loss3/classifier_plantvillage
I0403 14:57:31.193251 11430 net.cpp:91] Creating Layer loss3/classifier_plantvillage
I0403 14:57:31.193267 11430 net.cpp:425] loss3/classifier_plantvillage <- pool5/7x7_s1
I0403 14:57:31.193286 11430 net.cpp:399] loss3/classifier_plantvillage -> loss3/classifier_plantvillage
I0403 14:57:31.193707 11430 net.cpp:141] Setting up loss3/classifier_plantvillage
I0403 14:57:31.193737 11430 net.cpp:148] Top shape: 24 38 (912)
I0403 14:57:31.193752 11430 net.cpp:156] Memory required for data: 1346064480
I0403 14:57:31.193769 11430 layer_factory.hpp:77] Creating layer loss3/classifier_plantvillage_loss3/classifier_plantvillage_0_split
I0403 14:57:31.193786 11430 net.cpp:91] Creating Layer loss3/classifier_plantvillage_loss3/classifier_plantvillage_0_split
I0403 14:57:31.193802 11430 net.cpp:425] loss3/classifier_plantvillage_loss3/classifier_plantvillage_0_split <- loss3/classifier_plantvillage
I0403 14:57:31.193822 11430 net.cpp:399] loss3/classifier_plantvillage_loss3/classifier_plantvillage_0_split -> loss3/classifier_plantvillage_loss3/classifier_plantvillage_0_split_0
I0403 14:57:31.193842 11430 net.cpp:399] loss3/classifier_plantvillage_loss3/classifier_plantvillage_0_split -> loss3/classifier_plantvillage_loss3/classifier_plantvillage_0_split_1
I0403 14:57:31.193862 11430 net.cpp:399] loss3/classifier_plantvillage_loss3/classifier_plantvillage_0_split -> loss3/classifier_plantvillage_loss3/classifier_plantvillage_0_split_2
I0403 14:57:31.193882 11430 net.cpp:399] loss3/classifier_plantvillage_loss3/classifier_plantvillage_0_split -> loss3/classifier_plantvillage_loss3/classifier_plantvillage_0_split_3
I0403 14:57:31.193980 11430 net.cpp:141] Setting up loss3/classifier_plantvillage_loss3/classifier_plantvillage_0_split
I0403 14:57:31.194002 11430 net.cpp:148] Top shape: 24 38 (912)
I0403 14:57:31.194017 11430 net.cpp:148] Top shape: 24 38 (912)
I0403 14:57:31.194032 11430 net.cpp:148] Top shape: 24 38 (912)
I0403 14:57:31.194047 11430 net.cpp:148] Top shape: 24 38 (912)
I0403 14:57:31.194061 11430 net.cpp:156] Memory required for data: 1346079072
I0403 14:57:31.194074 11430 layer_factory.hpp:77] Creating layer loss1/loss
I0403 14:57:31.194095 11430 net.cpp:91] Creating Layer loss1/loss
I0403 14:57:31.194113 11430 net.cpp:425] loss1/loss <- loss1/classifier_plantvillage_loss1/classifier_plantvillage_0_split_0
I0403 14:57:31.194142 11430 net.cpp:425] loss1/loss <- label_data_1_split_0
…
