…
I0403 15:38:15.303588 12166 net.cpp:313] The NetState phase (1) differed from the phase (0) specified by a rule in layer data
I0403 15:38:15.304738 12166 net.cpp:49] Initializing net from parameters: 
state {
  phase: TEST
}
layer {
  name: "data"
  type: "Data"
  top: "data"
  top: "label"
  include {
    phase: TEST
  }
  transform_param {
    mirror: false
    crop_size: 224
    mean_file: "/home/mohanty/data/final_dataset/lmdb/segmented-40-60/mean.binaryproto"
  }
  data_param {
    source: "/home/mohanty/data/final_dataset/lmdb/segmented-40-60/test_db"
    batch_size: 24
    backend: LMDB
  }
}
layer {
  name: "conv1/7x7_s2"
  type: "Convolution"
  bottom: "data"
  top: "conv1/7x7_s2"
  param {
    lr_mult: 1
    decay_mult: 1
  }
  param {
    lr_mult: 2
    decay_mult: 0
  }
  convolution_param {
    num_output: 64
    pad: 3
    kernel_size: 7
    stride: 2
    weight_filler {
      type: "xavier"
      std: 0.1
    }
    bias_filler {
      type: "constant"
      value: 0.2
    }
  }
}
layer {
  name: "conv1/relu_7x7"
  type: "ReLU"
  bottom: "conv1/7x7_s2"
  top: "conv1/7x7_s2"
}
layer {
  name: "pool1/3x3_s2"
  type: "Pooling"
  bottom: "conv1/7x7_s2"
  top: "pool1/3x3_s2"
  pooling_param {
    pool: MAX
    kernel_size: 3
    stride: 2
  }
}
layer {
  name: "pool1/norm1"
  type: "LRN"
  bottom: "pool1/3x3_s2"
  top: "pool1/norm1"
  lrn_param {
    local_size: 5
    alpha: 0.0001
    beta: 0.75
  }
}
layer {
  name: "conv2/3x3_reduce"
  type: "Convolution"
  bottom: "pool1/norm1"
  top: "conv2/3x3_reduce"
  param {
    lr_mult: 1
    decay_mult: 1
  }
  param {
    lr_mult: 2
    decay_mult: 0
  }
  convolution_param {
    num_output: 64
    kernel_size: 1
    weight_filler {
      type: "xavier"
      std: 0.1
    }
    bias_filler {
      type: "constant"
      value: 0.2
    }
  }
}
layer {
  name: "conv2/relu_3x3_reduce"
  type: "ReLU"
  bottom: "conv2/3x3_reduce"
  top: "conv2/3x3_reduce"
}
layer {
  name: "conv2/3x3"
  type: "Convolution"
  bottom: "conv2/3x3_reduce"
  top: "conv2/3x3"
  param {
    lr_mult: 1
    decay_mult: 1
  }
  param {
    lr_mult: 2
    decay_mult: 0
  }
  convolution_param {
    num_output: 192
    pad: 1
    kernel_size: 3
    weight_filler {
      type: "xavier"
      std: 0.03
    }
    bias_filler {
      type: "constant"
      value: 0.2
    }
  }
}
layer {
  name: "conv2/relu_3x3"
  type: "ReLU"
  bottom: "conv2/3x3"
  top: "conv2/3x3"
}
layer {
  name: "conv2/norm2"
  type: "LRN"
  bottom: "conv2/3x3"
  top: "conv2/norm2"
  lrn_param {
    local_size: 5
    alpha: 0.0001
    beta: 0.75
  }
}
layer {
  name: "pool2/3x3_s2"
  type: "Pooling"
  bottom: "conv2/norm2"
  top: "pool2/3x3_s2"
  pooling_param {
    pool: MAX
    kernel_size: 3
    stride: 2
  }
}
layer {
  name: "inception_3a/1x1"
  type: "Convolution"
  bottom: "pool2/3x3_s2"
  top: "inception_3a/1x1"
  param {
    lr_mult: 1
    decay_mult: 1
  }
  param {
    lr_mult: 2
    decay_mult: 0
  }
  convolution_param {
    num_output: 64
    kernel_size: 1
    weight_filler {
      type: "xavier"
      std: 0.03
    }
    bias_filler {
      type: "constant"
      value: 0.2
    }
  }
}
layer {
  name: "inception_3a/relu_1x1"
  type: "ReLU"
  bottom: "inception_3a/1x1"
  top: "inception_3a/1x1"
}
layer {
  name: "inception_3a/3x3_reduce"
  type: "Convolution"
  bottom: "pool2/3x3_s2"
  top: "inception_3a/3x3_reduce"
  param {
    lr_mult: 1
    decay_mult: 1
  }
  param {
    lr_mult: 2
    decay_mult: 0
  }
  convolution_param {
    num_output: 96
    kernel_size: 1
    weight_filler {
      type: "xavier"
      std: 0.09
    }
    bias_filler {
      type: "constant"
      value: 0.2
    }
  }
}
layer {
  name: "inception_3a/relu_3x3_reduce"
  type: "ReLU"
  bottom: "inception_3a/3x3_reduce"
  top: "inception_3a/3x3_reduce"
}
layer {
  name: "inception_3a/3x3"
  type: "Convolution"
  bottom: "inception_3a/3x3_reduce"
  top: "inception_3a/3x3"
  param {
    lr_mult: 1
    decay_mult: 1
  }
  param {
    lr_mult: 2
    decay_mult: 0
  }
  convolution_param {
    num_output: 128
    pad: 1
    kernel_size: 3
    weight_filler {
      type: "xavier"
      std: 0.03
    }
    bias_filler {
      type: "constant"
      value: 0.2
    }
  }
}
layer {
  name: "inception_3a/relu_3x3"
  type: "ReLU"
  bottom: "inception_3a/3x3"
  top: "inception_3a/3x3"
}
layer {
  name: "inception_3a/5x5_reduce"
  type: "Convolution"
  bottom: "pool2/3x3_s2"
  top: "inception_3a/5x5_reduce"
  param {
    lr_mult: 1
    decay_mult: 1
  }
  param {
    lr_mult: 2
    decay_mult: 0
  }
  convolution_param {
    num_output: 16
    kernel_size: 1
    weight_filler {
      type: "xavier"
      std: 0.2
    }
    bias_filler {
      type: "constant"
      value: 0.2
    }
  }
}
layer {
  name: "inception_3a/relu_5x5_reduce"
  type: "ReLU"
  bottom: "inception_3a/5x5_reduce"
  top: "inception_3a/5x5_reduce"
}
layer {
  name: "inception_3a/5x5"
  type: "Convolution"
  bottom: "inception_3a/5x5_reduce"
  top: "inception_3a/5x5"
  param {
    lr_mult: 1
    decay_mult: 1
  }
  param {
    lr_mult: 2
    decay_mult: 0
  }
  convolution_param {
    num_output: 32
    pad: 2
    kernel_size: 5
    weight_filler {
      type: "xavier"
      std: 0.03
    }
    bias_filler {
      type: "constant"
      value: 0.2
    }
  }
}
layer {
  name: "inception_3a/relu_5x5"
  type: "ReLU"
  bottom: "inception_3a/5x5"
  top: "inception_3a/5x5"
}
layer {
  name: "inception_3a/pool"
  type: "Pooling"
  bottom: "pool2/3x3_s2"
  top: "inception_3a/pool"
  pooling_param {
    pool: MAX
    kernel_size: 3
    stride: 1
    pad: 1
  }
}
layer {
  name: "inception_3a/pool_proj"
  type: "Convolution"
  bottom: "inception_3a/pool"
  top: "inception_3a/pool_proj"
  param {
    lr_mult: 1
    decay_mult: 1
  }
  param {
    lr_mult: 2
    decay_mult: 0
  }
  convolution_param {
    num_output: 32
    kernel_size: 1
    weight_filler {
      type: "xavier"
      std: 0.1
    }
    bias_filler {
      type: "constant"
      value: 0.2
    }
  }
}
layer {
  name: "inception_3a/relu_pool_proj"
  type: "ReLU"
  bottom: "inception_3a/pool_proj"
  top: "inception_3a/pool_proj"
}
layer {
  name: "inception_3a/output"
  type: "Concat"
  bottom: "inception_3a/1x1"
  bottom: "inception_3a/3x3"
  bottom: "inception_3a/5x5"
  bottom: "inception_3a/pool_proj"
  top: "inception_3a/output"
}
layer {
  name: "inception_3b/1x1"
  type: "Convolution"
  bottom: "inception_3a/output"
  top: "inception_3b/1x1"
  param {
    lr_mult: 1
    decay_mult: 1
  }
  param {
    lr_mult: 2
    decay_mult: 0
  }
  convolution_param {
    num_output: 128
    kernel_size: 1
    weight_filler {
      type: "xavier"
      std: 0.03
    }
    bias_filler {
      type: "constant"
      value: 0.2
    }
  }
}
layer {
  name: "inception_3b/relu_1x1"
  type: "ReLU"
  bottom: "inception_3b/1x1"
  top: "inception_3b/1x1"
}
layer {
  name: "inception_3b/3x3_reduce"
  type: "Convolution"
  bottom: "inception_3a/output"
  top: "inception_3b/3x3_reduce"
  param {
    lr_mult: 1
    decay_mult: 1
  }
  param {
    lr_mult: 2
    decay_mult: 0
  }
  convolution_param {
    num_output: 128
    kernel_size: 1
    weight_filler {
      type: "xavier"
      std: 0.09
    }
    bias_filler {
      type: "constant"
      value: 0.2
    }
  }
}
layer {
  name: "inception_3b/relu_3x3_reduce"
  type: "ReLU"
  bottom: "inception_3b/3x3_reduce"
  top: "inception_3b/3x3_reduce"
}
layer {
  name: "inception_3b/3x3"
  type: "Convolution"
  bottom: "inception_3b/3x3_reduce"
  top: "inception_3b/3x3"
  param {
    lr_mult: 1
    decay_mult: 1
  }
  param {
    lr_mult: 2
    decay_mult: 0
  }
  convolution_param {
    num_output: 192
    pad: 1
    kernel_size: 3
    weight_filler {
      type: "xavier"
      std: 0.03
    }
    bias_filler {
      type: "constant"
      value: 0.2
    }
  }
}
layer {
  name: "inception_3b/relu_3x3"
  type: "ReLU"
  bottom: "inception_3b/3x3"
  top: "inception_3b/3x3"
}
layer {
  name: "inception_3b/5x5_reduce"
  type: "Convolution"
  bottom: "inception_3a/output"
  top: "inception_3b/5x5_reduce"
  param {
    lr_mult: 1
    decay_mult: 1
  }
  param {
    lr_mult: 2
    decay_mult: 0
  }
  convolution_param {
    num_output: 32
    kernel_size: 1
    weight_filler {
      type: "xavier"
      std: 0.2
    }
    bias_filler {
      type: "constant"
      value: 0.2
    }
  }
}
layer {
  name: "inception_3b/relu_5x5_reduce"
  type: "ReLU"
  bottom: "inception_3b/5x5_reduce"
  top: "inception_3b/5x5_reduce"
}
layer {
  name: "inception_3b/5x5"
  type: "Convolution"
  bottom: "inception_3b/5x5_reduce"
  top: "inception_3b/5x5"
  param {
    lr_mult: 1
    decay_mult: 1
  }
  param {
    lr_mult: 2
    decay_mult: 0
  }
  convolution_param {
    num_output: 96
    pad: 2
    kernel_size: 5
    weight_filler {
      type: "xavier"
      std: 0.03
    }
    bias_filler {
      type: "constant"
      value: 0.2
    }
  }
}
layer {
  name: "inception_3b/relu_5x5"
  type: "ReLU"
  bottom: "inception_3b/5x5"
  top: "inception_3b/5x5"
}
layer {
  name: "inception_3b/pool"
  type: "Pooling"
  bottom: "inception_3a/output"
  top: "inception_3b/pool"
  pooling_param {
    pool: MAX
    kernel_size: 3
    stride: 1
    pad: 1
  }
}
layer {
  name: "inception_3b/pool_proj"
  type: "Convolution"
  bottom: "inception_3b/pool"
  top: "inception_3b/pool_proj"
  param {
    lr_mult: 1
    decay_mult: 1
  }
  param {
    lr_mult: 2
    decay_mult: 0
  }
  convolution_param {
    num_output: 64
    kernel_size: 1
    weight_filler {
      type: "xavier"
      std: 0.1
    }
    bias_filler {
      type: "constant"
      value: 0.2
    }
  }
}
layer {
  name: "inception_3b/relu_pool_proj"
  type: "ReLU"
  bottom: "inception_3b/pool_proj"
  top: "inception_3b/pool_proj"
}
layer {
  name: "inception_3b/output"
  type: "Concat"
  bottom: "inception_3b/1x1"
  bottom: "inception_3b/3x3"
  bottom: "inception_3b/5x5"
  bottom: "inception_3b/pool_proj"
  top: "inception_3b/output"
}
layer {
  name: "pool3/3x3_s2"
  type: "Pooling"
  bottom: "inception_3b/output"
  top: "pool3/3x3_s2"
  pooling_param {
    pool: MAX
    kernel_size: 3
    stride: 2
  }
}
layer {
  name: "inception_4a/1x1"
  type: "Convolution"
  bottom: "pool3/3x3_s2"
  top: "inception_4a/1x1"
  param {
    lr_mult: 1
    decay_mult: 1
  }
  param {
    lr_mult: 2
    decay_mult: 0
  }
  convolution_param {
    num_output: 192
    kernel_size: 1
    weight_filler {
      type: "xavier"
      std: 0.03
    }
    bias_filler {
      type: "constant"
      value: 0.2
    }
  }
}
layer {
  name: "inception_4a/relu_1x1"
  type: "ReLU"
  bottom: "inception_4a/1x1"
  top: "inception_4a/1x1"
}
layer {
  name: "inception_4a/3x3_reduce"
  type: "Convolution"
  bottom: "pool3/3x3_s2"
  top: "inception_4a/3x3_reduce"
  param {
    lr_mult: 1
    decay_mult: 1
  }
  param {
    lr_mult: 2
    decay_mult: 0
  }
  convolution_param {
    num_output: 96
    kernel_size: 1
    weight_filler {
      type: "xavier"
      std: 0.09
    }
    bias_filler {
      type: "constant"
      value: 0.2
    }
  }
}
layer {
  name: "inception_4a/relu_3x3_reduce"
  type: "ReLU"
  bottom: "inception_4a/3x3_reduce"
  top: "inception_4a/3x3_reduce"
}
layer {
  name: "inception_4a/3x3"
  type: "Convolution"
  bottom: "inception_4a/3x3_reduce"
  top: "inception_4a/3x3"
  param {
    lr_mult: 1
    decay_mult: 1
  }
  param {
    lr_mult: 2
    decay_mult: 0
  }
  convolution_param {
    num_output: 208
    pad: 1
    kernel_size: 3
    weight_filler {
      type: "xavier"
      std: 0.03
    }
    bias_filler {
      type: "constant"
      value: 0.2
    }
  }
}
layer {
  name: "inception_4a/relu_3x3"
  type: "ReLU"
  bottom: "inception_4a/3x3"
  top: "inception_4a/3x3"
}
layer {
  name: "inception_4a/5x5_reduce"
  type: "Convolution"
  bottom: "pool3/3x3_s2"
  top: "inception_4a/5x5_reduce"
  param {
    lr_mult: 1
    decay_mult: 1
  }
  param {
    lr_mult: 2
    decay_mult: 0
  }
  convolution_param {
    num_output: 16
    kernel_size: 1
    weight_filler {
      type: "xavier"
      std: 0.2
    }
    bias_filler {
      type: "constant"
      value: 0.2
    }
  }
}
layer {
  name: "inception_4a/relu_5x5_reduce"
  type: "ReLU"
  bottom: "inception_4a/5x5_reduce"
  top: "inception_4a/5x5_reduce"
}
layer {
  name: "inception_4a/5x5"
  type: "Convolution"
  bottom: "inception_4a/5x5_reduce"
  top: "inception_4a/5x5"
  param {
    lr_mult: 1
    decay_mult: 1
  }
  param {
    lr_mult: 2
    decay_mult: 0
  }
  convolution_param {
    num_output: 48
    pad: 2
    kernel_size: 5
    weight_filler {
      type: "xavier"
      std: 0.03
    }
    bias_filler {
      type: "constant"
      value: 0.2
    }
  }
}
layer {
  name: "inception_4a/relu_5x5"
  type: "ReLU"
  bottom: "inception_4a/5x5"
  top: "inception_4a/5x5"
}
layer {
  name: "inception_4a/pool"
  type: "Pooling"
  bottom: "pool3/3x3_s2"
  top: "inception_4a/pool"
  pooling_param {
    pool: MAX
    kernel_size: 3
    stride: 1
    pad: 1
  }
}
layer {
  name: "inception_4a/pool_proj"
  type: "Convolution"
  bottom: "inception_4a/pool"
  top: "inception_4a/pool_proj"
  param {
    lr_mult: 1
    decay_mult: 1
  }
  param {
    lr_mult: 2
    decay_mult: 0
  }
  convolution_param {
    num_output: 64
    kernel_size: 1
    weight_filler {
      type: "xavier"
      std: 0.1
    }
    bias_filler {
      type: "constant"
      value: 0.2
    }
  }
}
layer {
  name: "inception_4a/relu_pool_proj"
  type: "ReLU"
  bottom: "inception_4a/pool_proj"
  top: "inception_4a/pool_proj"
}
layer {
  name: "inception_4a/output"
  type: "Concat"
  bottom: "inception_4a/1x1"
  bottom: "inception_4a/3x3"
  bottom: "inception_4a/5x5"
  bottom: "inception_4a/pool_proj"
  top: "inception_4a/output"
}
layer {
  name: "loss1/ave_pool"
  type: "Pooling"
  bottom: "inception_4a/output"
  top: "loss1/ave_pool"
  pooling_param {
    pool: AVE
    kernel_size: 5
    stride: 3
  }
}
layer {
  name: "loss1/conv"
  type: "Convolution"
  bottom: "loss1/ave_pool"
  top: "loss1/conv"
  param {
    lr_mult: 1
    decay_mult: 1
  }
  param {
    lr_mult: 2
    decay_mult: 0
  }
  convolution_param {
    num_output: 128
    kernel_size: 1
    weight_filler {
      type: "xavier"
      std: 0.08
    }
    bias_filler {
      type: "constant"
      value: 0.2
    }
  }
}
layer {
  name: "loss1/relu_conv"
  type: "ReLU"
  bottom: "loss1/conv"
  top: "loss1/conv"
}
layer {
  name: "loss1/fc"
  type: "InnerProduct"
  bottom: "loss1/conv"
  top: "loss1/fc"
  param {
    lr_mult: 1
    decay_mult: 1
  }
  param {
    lr_mult: 2
    decay_mult: 0
  }
  inner_product_param {
    num_output: 1024
    weight_filler {
      type: "xavier"
      std: 0.02
    }
    bias_filler {
      type: "constant"
      value: 0.2
    }
  }
}
layer {
  name: "loss1/relu_fc"
  type: "ReLU"
  bottom: "loss1/fc"
  top: "loss1/fc"
}
layer {
  name: "loss1/drop_fc"
  type: "Dropout"
  bottom: "loss1/fc"
  top: "loss1/fc"
  dropout_param {
    dropout_ratio: 0.7
  }
}
layer {
  name: "loss1/classifier_plantvillage"
  type: "InnerProduct"
  bottom: "loss1/fc"
  top: "loss1/classifier_plantvillage"
  param {
    lr_mult: 1
    decay_mult: 1
  }
  param {
    lr_mult: 2
    decay_mult: 0
  }
  inner_product_param {
    num_output: 38
    weight_filler {
      type: "xavier"
      std: 0.0009765625
    }
    bias_filler {
      type: "constant"
      value: 0
    }
  }
}
layer {
  name: "inception_4b/1x1"
  type: "Convolution"
  bottom: "inception_4a/output"
  top: "inception_4b/1x1"
  param {
    lr_mult: 1
    decay_mult: 1
  }
  param {
    lr_mult: 2
    decay_mult: 0
  }
  convolution_param {
    num_output: 160
    kernel_size: 1
    weight_filler {
      type: "xavier"
      std: 0.03
    }
    bias_filler {
      type: "constant"
      value: 0.2
    }
  }
}
layer {
  name: "inception_4b/relu_1x1"
  type: "ReLU"
  bottom: "inception_4b/1x1"
  top: "inception_4b/1x1"
}
layer {
  name: "inception_4b/3x3_reduce"
  type: "Convolution"
  bottom: "inception_4a/output"
  top: "inception_4b/3x3_reduce"
  param {
    lr_mult: 1
    decay_mult: 1
  }
  param {
    lr_mult: 2
    decay_mult: 0
  }
  convolution_param {
    num_output: 112
    kernel_size: 1
    weight_filler {
      type: "xavier"
      std: 0.09
    }
    bias_filler {
      type: "constant"
      value: 0.2
    }
  }
}
layer {
  name: "inception_4b/relu_3x3_reduce"
  type: "ReLU"
  bottom: "inception_4b/3x3_reduce"
  top: "inception_4b/3x3_reduce"
}
layer {
  name: "inception_4b/3x3"
  type: "Convolution"
  bottom: "inception_4b/3x3_reduce"
  top: "inception_4b/3x3"
  param {
    lr_mult: 1
    decay_mult: 1
  }
  param {
    lr_mult: 2
    decay_mult: 0
  }
  convolution_param {
    num_output: 224
    pad: 1
    kernel_size: 3
    weight_filler {
      type: "xavier"
      std: 0.03
    }
    bias_filler {
      type: "constant"
      value: 0.2
    }
  }
}
layer {
  name: "inception_4b/relu_3x3"
  type: "ReLU"
  bottom: "inception_4b/3x3"
  top: "inception_4b/3x3"
}
layer {
  name: "inception_4b/5x5_reduce"
  type: "Convolution"
  bottom: "inception_4a/output"
  top: "inception_4b/5x5_reduce"
  param {
    lr_mult: 1
    decay_mult: 1
  }
  param {
    lr_mult: 2
    decay_mult: 0
  }
  convolution_param {
    num_output: 24
    kernel_size: 1
    weight_filler {
      type: "xavier"
      std: 0.2
    }
    bias_filler {
      type: "constant"
      value: 0.2
    }
  }
}
layer {
  name: "inception_4b/relu_5x5_reduce"
  type: "ReLU"
  bottom: "inception_4b/5x5_reduce"
  top: "inception_4b/5x5_reduce"
}
layer {
  name: "inception_4b/5x5"
  type: "Convolution"
  bottom: "inception_4b/5x5_reduce"
  top: "inception_4b/5x5"
  param {
    lr_mult: 1
    decay_mult: 1
  }
  param {
    lr_mult: 2
    decay_mult: 0
  }
  convolution_param {
    num_output: 64
    pad: 2
    kernel_size: 5
    weight_filler {
      type: "xavier"
      std: 0.03
    }
    bias_filler {
      type: "constant"
      value: 0.2
    }
  }
}
layer {
  name: "inception_4b/relu_5x5"
  type: "ReLU"
  bottom: "inception_4b/5x5"
  top: "inception_4b/5x5"
}
layer {
  name: "inception_4b/pool"
  type: "Pooling"
  bottom: "inception_4a/output"
  top: "inception_4b/pool"
  pooling_param {
    pool: MAX
    kernel_size: 3
    stride: 1
    pad: 1
  }
}
layer {
  name: "inception_4b/pool_proj"
  type: "Convolution"
  bottom: "inception_4b/pool"
  top: "inception_4b/pool_proj"
  param {
    lr_mult: 1
    decay_mult: 1
  }
  param {
    lr_mult: 2
    decay_mult: 0
  }
  convolution_param {
    num_output: 64
    kernel_size: 1
    weight_filler {
      type: "xavier"
      std: 0.1
    }
    bias_filler {
      type: "constant"
      value: 0.2
    }
  }
}
layer {
  name: "inception_4b/relu_pool_proj"
  type: "ReLU"
  bottom: "inception_4b/pool_proj"
  top: "inception_4b/pool_proj"
}
layer {
  name: "inception_4b/output"
  type: "Concat"
  bottom: "inception_4b/1x1"
  bottom: "inception_4b/3x3"
  bottom: "inception_4b/5x5"
  bottom: "inception_4b/pool_proj"
  top: "inception_4b/output"
}
layer {
  name: "inception_4c/1x1"
  type: "Convolution"
  bottom: "inception_4b/output"
  top: "inception_4c/1x1"
  param {
    lr_mult: 1
    decay_mult: 1
  }
  param {
    lr_mult: 2
    decay_mult: 0
  }
  convolution_param {
    num_output: 128
    kernel_size: 1
    weight_filler {
      type: "xavier"
      std: 0.03
    }
    bias_filler {
      type: "constant"
      value: 0.2
    }
  }
}
layer {
  name: "inception_4c/relu_1x1"
  type: "ReLU"
  bottom: "inception_4c/1x1"
  top: "inception_4c/1x1"
}
layer {
  name: "inception_4c/3x3_reduce"
  type: "Convolution"
  bottom: "inception_4b/output"
  top: "inception_4c/3x3_reduce"
  param {
    lr_mult: 1
    decay_mult: 1
  }
  param {
    lr_mult: 2
    decay_mult: 0
  }
  convolution_param {
    num_output: 128
    kernel_size: 1
    weight_filler {
      type: "xavier"
      std: 0.09
    }
    bias_filler {
      type: "constant"
      value: 0.2
    }
  }
}
layer {
  name: "inception_4c/relu_3x3_reduce"
  type: "ReLU"
  bottom: "inception_4c/3x3_reduce"
  top: "inception_4c/3x3_reduce"
}
layer {
  name: "inception_4c/3x3"
  type: "Convolution"
  bottom: "inception_4c/3x3_reduce"
  top: "inception_4c/3x3"
  param {
    lr_mult: 1
    decay_mult: 1
  }
  param {
    lr_mult: 2
    decay_mult: 0
  }
  convolution_param {
    num_output: 256
    pad: 1
    kernel_size: 3
    weight_filler {
      type: "xavier"
      std: 0.03
    }
    bias_filler {
      type: "constant"
      value: 0.2
    }
  }
}
layer {
  name: "inception_4c/relu_3x3"
  type: "ReLU"
  bottom: "inception_4c/3x3"
  top: "inception_4c/3x3"
}
layer {
  name: "inception_4c/5x5_reduce"
  type: "Convolution"
  bottom: "inception_4b/output"
  top: "inception_4c/5x5_reduce"
  param {
    lr_mult: 1
    decay_mult: 1
  }
  param {
    lr_mult: 2
    decay_mult: 0
  }
  convolution_param {
    num_output: 24
    kernel_size: 1
    weight_filler {
      type: "xavier"
      std: 0.2
    }
    bias_filler {
      type: "constant"
      value: 0.2
    }
  }
}
layer {
  name: "inception_4c/relu_5x5_reduce"
  type: "ReLU"
  bottom: "inception_4c/5x5_reduce"
  top: "inception_4c/5x5_reduce"
}
layer {
  name: "inception_4c/5x5"
  type: "Convolution"
  bottom: "inception_4c/5x5_reduce"
  top: "inception_4c/5x5"
  param {
    lr_mult: 1
    decay_mult: 1
  }
  param {
    lr_mult: 2
    decay_mult: 0
  }
  convolution_param {
    num_output: 64
    pad: 2
    kernel_size: 5
    weight_filler {
      type: "xavier"
      std: 0.03
    }
    bias_filler {
      type: "constant"
      value: 0.2
    }
  }
}
layer {
  name: "inception_4c/relu_5x5"
  type: "ReLU"
  bottom: "inception_4c/5x5"
  top: "inception_4c/5x5"
}
layer {
  name: "inception_4c/pool"
  type: "Pooling"
  bottom: "inception_4b/output"
  top: "inception_4c/pool"
  pooling_param {
    pool: MAX
    kernel_size: 3
    stride: 1
    pad: 1
  }
}
layer {
  name: "inception_4c/pool_proj"
  type: "Convolution"
  bottom: "inception_4c/pool"
  top: "inception_4c/pool_proj"
  param {
    lr_mult: 1
    decay_mult: 1
  }
  param {
    lr_mult: 2
    decay_mult: 0
  }
  convolution_param {
    num_output: 64
    kernel_size: 1
    weight_filler {
      type: "xavier"
      std: 0.1
    }
    bias_filler {
      type: "constant"
      value: 0.2
    }
  }
}
layer {
  name: "inception_4c/relu_pool_proj"
  type: "ReLU"
  bottom: "inception_4c/pool_proj"
  top: "inception_4c/pool_proj"
}
layer {
  name: "inception_4c/output"
  type: "Concat"
  bottom: "inception_4c/1x1"
  bottom: "inception_4c/3x3"
  bottom: "inception_4c/5x5"
  bottom: "inception_4c/pool_proj"
  top: "inception_4c/output"
}
layer {
  name: "inception_4d/1x1"
  type: "Convolution"
  bottom: "inception_4c/output"
  top: "inception_4d/1x1"
  param {
    lr_mult: 1
    decay_mult: 1
  }
  param {
    lr_mult: 2
    decay_mult: 0
  }
  convolution_param {
    num_output: 112
    kernel_size: 1
    weight_filler {
      type: "xavier"
      std: 0.03
    }
    bias_filler {
      type: "constant"
      value: 0.2
    }
  }
}
layer {
  name: "inception_4d/relu_1x1"
  type: "ReLU"
  bottom: "inception_4d/1x1"
  top: "inception_4d/1x1"
}
layer {
  name: "inception_4d/3x3_reduce"
  type: "Convolution"
  bottom: "inception_4c/output"
  top: "inception_4d/3x3_reduce"
  param {
    lr_mult: 1
    decay_mult: 1
  }
  param {
    lr_mult: 2
    decay_mult: 0
  }
  convolution_param {
    num_output: 144
    kernel_size: 1
    weight_filler {
      type: "xavier"
      std: 0.09
    }
    bias_filler {
      type: "constant"
      value: 0.2
    }
  }
}
layer {
  name: "inception_4d/relu_3x3_reduce"
  type: "ReLU"
  bottom: "inception_4d/3x3_reduce"
  top: "inception_4d/3x3_reduce"
}
layer {
  name: "inception_4d/3x3"
  type: "Convolution"
  bottom: "inception_4d/3x3_reduce"
  top: "inception_4d/3x3"
  param {
    lr_mult: 1
    decay_mult: 1
  }
  param {
    lr_mult: 2
    decay_mult: 0
  }
  convolution_param {
    num_output: 288
    pad: 1
    kernel_size: 3
    weight_filler {
      type: "xavier"
      std: 0.03
    }
    bias_filler {
      type: "constant"
      value: 0.2
    }
  }
}
layer {
  name: "inception_4d/relu_3x3"
  type: "ReLU"
  bottom: "inception_4d/3x3"
  top: "inception_4d/3x3"
}
layer {
  name: "inception_4d/5x5_reduce"
  type: "Convolution"
  bottom: "inception_4c/output"
  top: "inception_4d/5x5_reduce"
  param {
    lr_mult: 1
    decay_mult: 1
  }
  param {
    lr_mult: 2
    decay_mult: 0
  }
  convolution_param {
    num_output: 32
    kernel_size: 1
    weight_filler {
      type: "xavier"
      std: 0.2
    }
    bias_filler {
      type: "constant"
      value: 0.2
    }
  }
}
layer {
  name: "inception_4d/relu_5x5_reduce"
  type: "ReLU"
  bottom: "inception_4d/5x5_reduce"
  top: "inception_4d/5x5_reduce"
}
layer {
  name: "inception_4d/5x5"
  type: "Convolution"
  bottom: "inception_4d/5x5_reduce"
  top: "inception_4d/5x5"
  param {
    lr_mult: 1
    decay_mult: 1
  }
  param {
    lr_mult: 2
    decay_mult: 0
  }
  convolution_param {
    num_output: 64
    pad: 2
    kernel_size: 5
    weight_filler {
      type: "xavier"
      std: 0.03
    }
    bias_filler {
      type: "constant"
      value: 0.2
    }
  }
}
layer {
  name: "inception_4d/relu_5x5"
  type: "ReLU"
  bottom: "inception_4d/5x5"
  top: "inception_4d/5x5"
}
layer {
  name: "inception_4d/pool"
  type: "Pooling"
  bottom: "inception_4c/output"
  top: "inception_4d/pool"
  pooling_param {
    pool: MAX
    kernel_size: 3
    stride: 1
    pad: 1
  }
}
layer {
  name: "inception_4d/pool_proj"
  type: "Convolution"
  bottom: "inception_4d/pool"
  top: "inception_4d/pool_proj"
  param {
    lr_mult: 1
    decay_mult: 1
  }
  param {
    lr_mult: 2
    decay_mult: 0
  }
  convolution_param {
    num_output: 64
    kernel_size: 1
    weight_filler {
      type: "xavier"
      std: 0.1
    }
    bias_filler {
      type: "constant"
      value: 0.2
    }
  }
}
layer {
  name: "inception_4d/relu_pool_proj"
  type: "ReLU"
  bottom: "inception_4d/pool_proj"
  top: "inception_4d/pool_proj"
}
layer {
  name: "inception_4d/output"
  type: "Concat"
  bottom: "inception_4d/1x1"
  bottom: "inception_4d/3x3"
  bottom: "inception_4d/5x5"
  bottom: "inception_4d/pool_proj"
  top: "inception_4d/output"
}
layer {
  name: "loss2/ave_pool"
  type: "Pooling"
  bottom: "inception_4d/output"
  top: "loss2/ave_pool"
  pooling_param {
    pool: AVE
    kernel_size: 5
    stride: 3
  }
}
layer {
  name: "loss2/conv"
  type: "Convolution"
  bottom: "loss2/ave_pool"
  top: "loss2/conv"
  param {
    lr_mult: 1
    decay_mult: 1
  }
  param {
    lr_mult: 2
    decay_mult: 0
  }
  convolution_param {
    num_output: 128
    kernel_size: 1
    weight_filler {
      type: "xavier"
      std: 0.08
    }
    bias_filler {
      type: "constant"
      value: 0.2
    }
  }
}
layer {
  name: "loss2/relu_conv"
  type: "ReLU"
  bottom: "loss2/conv"
  top: "loss2/conv"
}
layer {
  name: "loss2/fc"
  type: "InnerProduct"
  bottom: "loss2/conv"
  top: "loss2/fc"
  param {
    lr_mult: 1
    decay_mult: 1
  }
  param {
    lr_mult: 2
    decay_mult: 0
  }
  inner_product_param {
    num_output: 1024
    weight_filler {
      type: "xavier"
      std: 0.02
    }
    bias_filler {
      type: "constant"
      value: 0.2
    }
  }
}
layer {
  name: "loss2/relu_fc"
  type: "ReLU"
  bottom: "loss2/fc"
  top: "loss2/fc"
}
layer {
  name: "loss2/drop_fc"
  type: "Dropout"
  bottom: "loss2/fc"
  top: "loss2/fc"
  dropout_param {
    dropout_ratio: 0.7
  }
}
layer {
  name: "loss2/classifier_plantvillage"
  type: "InnerProduct"
  bottom: "loss2/fc"
  top: "loss2/classifier_plantvillage"
  param {
    lr_mult: 1
    decay_mult: 1
  }
  param {
    lr_mult: 2
    decay_mult: 0
  }
  inner_product_param {
    num_output: 38
    weight_filler {
      type: "xavier"
      std: 0.0009765625
    }
    bias_filler {
      type: "constant"
      value: 0
    }
  }
}
layer {
  name: "inception_4e/1x1"
  type: "Convolution"
  bottom: "inception_4d/output"
  top: "inception_4e/1x1"
  param {
    lr_mult: 1
    decay_mult: 1
  }
  param {
    lr_mult: 2
    decay_mult: 0
  }
  convolution_param {
    num_output: 256
    kernel_size: 1
    weight_filler {
      type: "xavier"
      std: 0.03
    }
    bias_filler {
      type: "constant"
      value: 0.2
    }
  }
}
layer {
  name: "inception_4e/relu_1x1"
  type: "ReLU"
  bottom: "inception_4e/1x1"
  top: "inception_4e/1x1"
}
layer {
  name: "inception_4e/3x3_reduce"
  type: "Convolution"
  bottom: "inception_4d/output"
  top: "inception_4e/3x3_reduce"
  param {
    lr_mult: 1
    decay_mult: 1
  }
  param {
    lr_mult: 2
    decay_mult: 0
  }
  convolution_param {
    num_output: 160
    kernel_size: 1
    weight_filler {
      type: "xavier"
      std: 0.09
    }
    bias_filler {
      type: "constant"
      value: 0.2
    }
  }
}
layer {
  name: "inception_4e/relu_3x3_reduce"
  type: "ReLU"
  bottom: "inception_4e/3x3_reduce"
  top: "inception_4e/3x3_reduce"
}
layer {
  name: "inception_4e/3x3"
  type: "Convolution"
  bottom: "inception_4e/3x3_reduce"
  top: "inception_4e/3x3"
  param {
    lr_mult: 1
    decay_mult: 1
  }
  param {
    lr_mult: 2
    decay_mult: 0
  }
  convolution_param {
    num_output: 320
    pad: 1
    kernel_size: 3
    weight_filler {
      type: "xavier"
      std: 0.03
    }
    bias_filler {
      type: "constant"
      value: 0.2
    }
  }
}
layer {
  name: "inception_4e/relu_3x3"
  type: "ReLU"
  bottom: "inception_4e/3x3"
  top: "inception_4e/3x3"
}
layer {
  name: "inception_4e/5x5_reduce"
  type: "Convolution"
  bottom: "inception_4d/output"
  top: "inception_4e/5x5_reduce"
  param {
    lr_mult: 1
    decay_mult: 1
  }
  param {
    lr_mult: 2
    decay_mult: 0
  }
  convolution_param {
    num_output: 32
    kernel_size: 1
    weight_filler {
      type: "xavier"
      std: 0.2
    }
    bias_filler {
      type: "constant"
      value: 0.2
    }
  }
}
layer {
  name: "inception_4e/relu_5x5_reduce"
  type: "ReLU"
  bottom: "inception_4e/5x5_reduce"
  top: "inception_4e/5x5_reduce"
}
layer {
  name: "inception_4e/5x5"
  type: "Convolution"
  bottom: "inception_4e/5x5_reduce"
  top: "inception_4e/
I0403 15:38:15.306013 12166 layer_factory.hpp:77] Creating layer data
I0403 15:38:15.306644 12166 net.cpp:91] Creating Layer data
I0403 15:38:15.306676 12166 net.cpp:399] data -> data
I0403 15:38:15.306730 12166 net.cpp:399] data -> label
I0403 15:38:15.306768 12166 data_transformer.cpp:25] Loading mean file from: /home/mohanty/data/final_dataset/lmdb/segmented-40-60/mean.binaryproto
I0403 15:38:15.309805 12169 db_lmdb.cpp:38] Opened lmdb /home/mohanty/data/final_dataset/lmdb/segmented-40-60/test_db
I0403 15:38:15.320291 12166 data_layer.cpp:41] output data size: 24,3,224,224
I0403 15:38:15.347252 12166 net.cpp:141] Setting up data
I0403 15:38:15.347362 12166 net.cpp:148] Top shape: 24 3 224 224 (3612672)
I0403 15:38:15.347386 12166 net.cpp:148] Top shape: 24 (24)
I0403 15:38:15.347401 12166 net.cpp:156] Memory required for data: 14450784
I0403 15:38:15.347429 12166 layer_factory.hpp:77] Creating layer label_data_1_split
I0403 15:38:15.347456 12166 net.cpp:91] Creating Layer label_data_1_split
I0403 15:38:15.347476 12166 net.cpp:425] label_data_1_split <- label
I0403 15:38:15.347507 12166 net.cpp:399] label_data_1_split -> label_data_1_split_0
I0403 15:38:15.347535 12166 net.cpp:399] label_data_1_split -> label_data_1_split_1
I0403 15:38:15.347558 12166 net.cpp:399] label_data_1_split -> label_data_1_split_2
I0403 15:38:15.347579 12166 net.cpp:399] label_data_1_split -> label_data_1_split_3
I0403 15:38:15.347599 12166 net.cpp:399] label_data_1_split -> label_data_1_split_4
I0403 15:38:15.347620 12166 net.cpp:399] label_data_1_split -> label_data_1_split_5
I0403 15:38:15.347647 12166 net.cpp:399] label_data_1_split -> label_data_1_split_6
I0403 15:38:15.347669 12166 net.cpp:399] label_data_1_split -> label_data_1_split_7
I0403 15:38:15.347690 12166 net.cpp:399] label_data_1_split -> label_data_1_split_8
I0403 15:38:15.347710 12166 net.cpp:399] label_data_1_split -> label_data_1_split_9
I0403 15:38:15.347825 12166 net.cpp:141] Setting up label_data_1_split
I0403 15:38:15.347847 12166 net.cpp:148] Top shape: 24 (24)
I0403 15:38:15.347864 12166 net.cpp:148] Top shape: 24 (24)
I0403 15:38:15.347882 12166 net.cpp:148] Top shape: 24 (24)
I0403 15:38:15.347898 12166 net.cpp:148] Top shape: 24 (24)
I0403 15:38:15.347913 12166 net.cpp:148] Top shape: 24 (24)
I0403 15:38:15.347929 12166 net.cpp:148] Top shape: 24 (24)
I0403 15:38:15.347944 12166 net.cpp:148] Top shape: 24 (24)
I0403 15:38:15.347959 12166 net.cpp:148] Top shape: 24 (24)
I0403 15:38:15.347975 12166 net.cpp:148] Top shape: 24 (24)
I0403 15:38:15.347990 12166 net.cpp:148] Top shape: 24 (24)
I0403 15:38:15.348028 12166 net.cpp:156] Memory required for data: 14451744
I0403 15:38:15.348044 12166 layer_factory.hpp:77] Creating layer conv1/7x7_s2
I0403 15:38:15.348075 12166 net.cpp:91] Creating Layer conv1/7x7_s2
I0403 15:38:15.348093 12166 net.cpp:425] conv1/7x7_s2 <- data
I0403 15:38:15.348114 12166 net.cpp:399] conv1/7x7_s2 -> conv1/7x7_s2
I0403 15:38:15.488698 12166 net.cpp:141] Setting up conv1/7x7_s2
I0403 15:38:15.488785 12166 net.cpp:148] Top shape: 24 64 112 112 (19267584)
I0403 15:38:15.488803 12166 net.cpp:156] Memory required for data: 91522080
I0403 15:38:15.488834 12166 layer_factory.hpp:77] Creating layer conv1/relu_7x7
I0403 15:38:15.488862 12166 net.cpp:91] Creating Layer conv1/relu_7x7
I0403 15:38:15.488881 12166 net.cpp:425] conv1/relu_7x7 <- conv1/7x7_s2
I0403 15:38:15.488900 12166 net.cpp:386] conv1/relu_7x7 -> conv1/7x7_s2 (in-place)
I0403 15:38:15.489161 12166 net.cpp:141] Setting up conv1/relu_7x7
I0403 15:38:15.489187 12166 net.cpp:148] Top shape: 24 64 112 112 (19267584)
I0403 15:38:15.489203 12166 net.cpp:156] Memory required for data: 168592416
I0403 15:38:15.489219 12166 layer_factory.hpp:77] Creating layer pool1/3x3_s2
I0403 15:38:15.489244 12166 net.cpp:91] Creating Layer pool1/3x3_s2
I0403 15:38:15.489264 12166 net.cpp:425] pool1/3x3_s2 <- conv1/7x7_s2
I0403 15:38:15.489281 12166 net.cpp:399] pool1/3x3_s2 -> pool1/3x3_s2
I0403 15:38:15.489359 12166 net.cpp:141] Setting up pool1/3x3_s2
I0403 15:38:15.489384 12166 net.cpp:148] Top shape: 24 64 56 56 (4816896)
I0403 15:38:15.489399 12166 net.cpp:156] Memory required for data: 187860000
I0403 15:38:15.489413 12166 layer_factory.hpp:77] Creating layer pool1/norm1
I0403 15:38:15.489437 12166 net.cpp:91] Creating Layer pool1/norm1
I0403 15:38:15.489455 12166 net.cpp:425] pool1/norm1 <- pool1/3x3_s2
I0403 15:38:15.489472 12166 net.cpp:399] pool1/norm1 -> pool1/norm1
I0403 15:38:15.489764 12166 net.cpp:141] Setting up pool1/norm1
I0403 15:38:15.489794 12166 net.cpp:148] Top shape: 24 64 56 56 (4816896)
I0403 15:38:15.489811 12166 net.cpp:156] Memory required for data: 207127584
I0403 15:38:15.489826 12166 layer_factory.hpp:77] Creating layer conv2/3x3_reduce
I0403 15:38:15.489855 12166 net.cpp:91] Creating Layer conv2/3x3_reduce
I0403 15:38:15.489871 12166 net.cpp:425] conv2/3x3_reduce <- pool1/norm1
I0403 15:38:15.489891 12166 net.cpp:399] conv2/3x3_reduce -> conv2/3x3_reduce
I0403 15:38:15.491315 12166 net.cpp:141] Setting up conv2/3x3_reduce
I0403 15:38:15.491349 12166 net.cpp:148] Top shape: 24 64 56 56 (4816896)
I0403 15:38:15.491366 12166 net.cpp:156] Memory required for data: 226395168
I0403 15:38:15.491387 12166 layer_factory.hpp:77] Creating layer conv2/relu_3x3_reduce
I0403 15:38:15.491410 12166 net.cpp:91] Creating Layer conv2/relu_3x3_reduce
I0403 15:38:15.491426 12166 net.cpp:425] conv2/relu_3x3_reduce <- conv2/3x3_reduce
I0403 15:38:15.491446 12166 net.cpp:386] conv2/relu_3x3_reduce -> conv2/3x3_reduce (in-place)
I0403 15:38:15.491721 12166 net.cpp:141] Setting up conv2/relu_3x3_reduce
I0403 15:38:15.491750 12166 net.cpp:148] Top shape: 24 64 56 56 (4816896)
I0403 15:38:15.491766 12166 net.cpp:156] Memory required for data: 245662752
I0403 15:38:15.491781 12166 layer_factory.hpp:77] Creating layer conv2/3x3
I0403 15:38:15.491806 12166 net.cpp:91] Creating Layer conv2/3x3
I0403 15:38:15.491828 12166 net.cpp:425] conv2/3x3 <- conv2/3x3_reduce
I0403 15:38:15.491848 12166 net.cpp:399] conv2/3x3 -> conv2/3x3
I0403 15:38:15.494206 12166 net.cpp:141] Setting up conv2/3x3
I0403 15:38:15.494238 12166 net.cpp:148] Top shape: 24 192 56 56 (14450688)
I0403 15:38:15.494256 12166 net.cpp:156] Memory required for data: 303465504
I0403 15:38:15.494278 12166 layer_factory.hpp:77] Creating layer conv2/relu_3x3
I0403 15:38:15.494299 12166 net.cpp:91] Creating Layer conv2/relu_3x3
I0403 15:38:15.494320 12166 net.cpp:425] conv2/relu_3x3 <- conv2/3x3
I0403 15:38:15.494340 12166 net.cpp:386] conv2/relu_3x3 -> conv2/3x3 (in-place)
I0403 15:38:15.494519 12166 net.cpp:141] Setting up conv2/relu_3x3
I0403 15:38:15.494545 12166 net.cpp:148] Top shape: 24 192 56 56 (14450688)
I0403 15:38:15.494592 12166 net.cpp:156] Memory required for data: 361268256
I0403 15:38:15.494609 12166 layer_factory.hpp:77] Creating layer conv2/norm2
I0403 15:38:15.494628 12166 net.cpp:91] Creating Layer conv2/norm2
I0403 15:38:15.494644 12166 net.cpp:425] conv2/norm2 <- conv2/3x3
I0403 15:38:15.494664 12166 net.cpp:399] conv2/norm2 -> conv2/norm2
I0403 15:38:15.494982 12166 net.cpp:141] Setting up conv2/norm2
I0403 15:38:15.495010 12166 net.cpp:148] Top shape: 24 192 56 56 (14450688)
I0403 15:38:15.495025 12166 net.cpp:156] Memory required for data: 419071008
I0403 15:38:15.495041 12166 layer_factory.hpp:77] Creating layer pool2/3x3_s2
I0403 15:38:15.495059 12166 net.cpp:91] Creating Layer pool2/3x3_s2
I0403 15:38:15.495074 12166 net.cpp:425] pool2/3x3_s2 <- conv2/norm2
I0403 15:38:15.495095 12166 net.cpp:399] pool2/3x3_s2 -> pool2/3x3_s2
I0403 15:38:15.495148 12166 net.cpp:141] Setting up pool2/3x3_s2
I0403 15:38:15.495172 12166 net.cpp:148] Top shape: 24 192 28 28 (3612672)
I0403 15:38:15.495187 12166 net.cpp:156] Memory required for data: 433521696
I0403 15:38:15.495201 12166 layer_factory.hpp:77] Creating layer pool2/3x3_s2_pool2/3x3_s2_0_split
I0403 15:38:15.495220 12166 net.cpp:91] Creating Layer pool2/3x3_s2_pool2/3x3_s2_0_split
I0403 15:38:15.495236 12166 net.cpp:425] pool2/3x3_s2_pool2/3x3_s2_0_split <- pool2/3x3_s2
I0403 15:38:15.495256 12166 net.cpp:399] pool2/3x3_s2_pool2/3x3_s2_0_split -> pool2/3x3_s2_pool2/3x3_s2_0_split_0
I0403 15:38:15.495277 12166 net.cpp:399] pool2/3x3_s2_pool2/3x3_s2_0_split -> pool2/3x3_s2_pool2/3x3_s2_0_split_1
I0403 15:38:15.495297 12166 net.cpp:399] pool2/3x3_s2_pool2/3x3_s2_0_split -> pool2/3x3_s2_pool2/3x3_s2_0_split_2
I0403 15:38:15.495321 12166 net.cpp:399] pool2/3x3_s2_pool2/3x3_s2_0_split -> pool2/3x3_s2_pool2/3x3_s2_0_split_3
I0403 15:38:15.495393 12166 net.cpp:141] Setting up pool2/3x3_s2_pool2/3x3_s2_0_split
I0403 15:38:15.495417 12166 net.cpp:148] Top shape: 24 192 28 28 (3612672)
I0403 15:38:15.495435 12166 net.cpp:148] Top shape: 24 192 28 28 (3612672)
I0403 15:38:15.495450 12166 net.cpp:148] Top shape: 24 192 28 28 (3612672)
I0403 15:38:15.495466 12166 net.cpp:148] Top shape: 24 192 28 28 (3612672)
I0403 15:38:15.495481 12166 net.cpp:156] Memory required for data: 491324448
I0403 15:38:15.495496 12166 layer_factory.hpp:77] Creating layer inception_3a/1x1
I0403 15:38:15.495518 12166 net.cpp:91] Creating Layer inception_3a/1x1
I0403 15:38:15.495535 12166 net.cpp:425] inception_3a/1x1 <- pool2/3x3_s2_pool2/3x3_s2_0_split_0
I0403 15:38:15.495553 12166 net.cpp:399] inception_3a/1x1 -> inception_3a/1x1
I0403 15:38:15.499117 12166 net.cpp:141] Setting up inception_3a/1x1
I0403 15:38:15.499148 12166 net.cpp:148] Top shape: 24 64 28 28 (1204224)
I0403 15:38:15.499166 12166 net.cpp:156] Memory required for data: 496141344
I0403 15:38:15.499186 12166 layer_factory.hpp:77] Creating layer inception_3a/relu_1x1
I0403 15:38:15.499207 12166 net.cpp:91] Creating Layer inception_3a/relu_1x1
I0403 15:38:15.499222 12166 net.cpp:425] inception_3a/relu_1x1 <- inception_3a/1x1
I0403 15:38:15.499240 12166 net.cpp:386] inception_3a/relu_1x1 -> inception_3a/1x1 (in-place)
I0403 15:38:15.499428 12166 net.cpp:141] Setting up inception_3a/relu_1x1
I0403 15:38:15.499454 12166 net.cpp:148] Top shape: 24 64 28 28 (1204224)
I0403 15:38:15.499470 12166 net.cpp:156] Memory required for data: 500958240
I0403 15:38:15.499485 12166 layer_factory.hpp:77] Creating layer inception_3a/3x3_reduce
I0403 15:38:15.499511 12166 net.cpp:91] Creating Layer inception_3a/3x3_reduce
I0403 15:38:15.499529 12166 net.cpp:425] inception_3a/3x3_reduce <- pool2/3x3_s2_pool2/3x3_s2_0_split_1
I0403 15:38:15.499548 12166 net.cpp:399] inception_3a/3x3_reduce -> inception_3a/3x3_reduce
I0403 15:38:15.501266 12166 net.cpp:141] Setting up inception_3a/3x3_reduce
I0403 15:38:15.501296 12166 net.cpp:148] Top shape: 24 96 28 28 (1806336)
I0403 15:38:15.501315 12166 net.cpp:156] Memory required for data: 508183584
I0403 15:38:15.501345 12166 layer_factory.hpp:77] Creating layer inception_3a/relu_3x3_reduce
I0403 15:38:15.501385 12166 net.cpp:91] Creating Layer inception_3a/relu_3x3_reduce
I0403 15:38:15.501411 12166 net.cpp:425] inception_3a/relu_3x3_reduce <- inception_3a/3x3_reduce
I0403 15:38:15.501431 12166 net.cpp:386] inception_3a/relu_3x3_reduce -> inception_3a/3x3_reduce (in-place)
I0403 15:38:15.501618 12166 net.cpp:141] Setting up inception_3a/relu_3x3_reduce
I0403 15:38:15.501644 12166 net.cpp:148] Top shape: 24 96 28 28 (1806336)
I0403 15:38:15.501660 12166 net.cpp:156] Memory required for data: 515408928
I0403 15:38:15.501675 12166 layer_factory.hpp:77] Creating layer inception_3a/3x3
I0403 15:38:15.501703 12166 net.cpp:91] Creating Layer inception_3a/3x3
I0403 15:38:15.501721 12166 net.cpp:425] inception_3a/3x3 <- inception_3a/3x3_reduce
I0403 15:38:15.501744 12166 net.cpp:399] inception_3a/3x3 -> inception_3a/3x3
I0403 15:38:15.503432 12166 net.cpp:141] Setting up inception_3a/3x3
I0403 15:38:15.503463 12166 net.cpp:148] Top shape: 24 128 28 28 (2408448)
I0403 15:38:15.503479 12166 net.cpp:156] Memory required for data: 525042720
I0403 15:38:15.503499 12166 layer_factory.hpp:77] Creating layer inception_3a/relu_3x3
I0403 15:38:15.503521 12166 net.cpp:91] Creating Layer inception_3a/relu_3x3
I0403 15:38:15.503540 12166 net.cpp:425] inception_3a/relu_3x3 <- inception_3a/3x3
I0403 15:38:15.503557 12166 net.cpp:386] inception_3a/relu_3x3 -> inception_3a/3x3 (in-place)
I0403 15:38:15.503839 12166 net.cpp:141] Setting up inception_3a/relu_3x3
I0403 15:38:15.503866 12166 net.cpp:148] Top shape: 24 128 28 28 (2408448)
I0403 15:38:15.503881 12166 net.cpp:156] Memory required for data: 534676512
I0403 15:38:15.503896 12166 layer_factory.hpp:77] Creating layer inception_3a/5x5_reduce
I0403 15:38:15.503919 12166 net.cpp:91] Creating Layer inception_3a/5x5_reduce
I0403 15:38:15.503937 12166 net.cpp:425] inception_3a/5x5_reduce <- pool2/3x3_s2_pool2/3x3_s2_0_split_2
I0403 15:38:15.503958 12166 net.cpp:399] inception_3a/5x5_reduce -> inception_3a/5x5_reduce
I0403 15:38:15.504928 12166 net.cpp:141] Setting up inception_3a/5x5_reduce
I0403 15:38:15.504961 12166 net.cpp:148] Top shape: 24 16 28 28 (301056)
I0403 15:38:15.504978 12166 net.cpp:156] Memory required for data: 535880736
I0403 15:38:15.504998 12166 layer_factory.hpp:77] Creating layer inception_3a/relu_5x5_reduce
I0403 15:38:15.505018 12166 net.cpp:91] Creating Layer inception_3a/relu_5x5_reduce
I0403 15:38:15.505034 12166 net.cpp:425] inception_3a/relu_5x5_reduce <- inception_3a/5x5_reduce
I0403 15:38:15.505051 12166 net.cpp:386] inception_3a/relu_5x5_reduce -> inception_3a/5x5_reduce (in-place)
I0403 15:38:15.505362 12166 net.cpp:141] Setting up inception_3a/relu_5x5_reduce
I0403 15:38:15.505389 12166 net.cpp:148] Top shape: 24 16 28 28 (301056)
I0403 15:38:15.505410 12166 net.cpp:156] Memory required for data: 537084960
I0403 15:38:15.505425 12166 layer_factory.hpp:77] Creating layer inception_3a/5x5
I0403 15:38:15.505448 12166 net.cpp:91] Creating Layer inception_3a/5x5
I0403 15:38:15.505465 12166 net.cpp:425] inception_3a/5x5 <- inception_3a/5x5_reduce
I0403 15:38:15.505487 12166 net.cpp:399] inception_3a/5x5 -> inception_3a/5x5
I0403 15:38:15.506518 12166 net.cpp:141] Setting up inception_3a/5x5
I0403 15:38:15.506547 12166 net.cpp:148] Top shape: 24 32 28 28 (602112)
I0403 15:38:15.506564 12166 net.cpp:156] Memory required for data: 539493408
I0403 15:38:15.506583 12166 layer_factory.hpp:77] Creating layer inception_3a/relu_5x5
I0403 15:38:15.506605 12166 net.cpp:91] Creating Layer inception_3a/relu_5x5
I0403 15:38:15.506623 12166 net.cpp:425] inception_3a/relu_5x5 <- inception_3a/5x5
I0403 15:38:15.506641 12166 net.cpp:386] inception_3a/relu_5x5 -> inception_3a/5x5 (in-place)
I0403 15:38:15.506819 12166 net.cpp:141] Setting up inception_3a/relu_5x5
I0403 15:38:15.506849 12166 net.cpp:148] Top shape: 24 32 28 28 (602112)
I0403 15:38:15.506865 12166 net.cpp:156] Memory required for data: 541901856
I0403 15:38:15.506880 12166 layer_factory.hpp:77] Creating layer inception_3a/pool
I0403 15:38:15.506897 12166 net.cpp:91] Creating Layer inception_3a/pool
I0403 15:38:15.506928 12166 net.cpp:425] inception_3a/pool <- pool2/3x3_s2_pool2/3x3_s2_0_split_3
I0403 15:38:15.506949 12166 net.cpp:399] inception_3a/pool -> inception_3a/pool
I0403 15:38:15.507007 12166 net.cpp:141] Setting up inception_3a/pool
I0403 15:38:15.507030 12166 net.cpp:148] Top shape: 24 192 28 28 (3612672)
I0403 15:38:15.507045 12166 net.cpp:156] Memory required for data: 556352544
I0403 15:38:15.507061 12166 layer_factory.hpp:77] Creating layer inception_3a/pool_proj
I0403 15:38:15.507082 12166 net.cpp:91] Creating Layer inception_3a/pool_proj
I0403 15:38:15.507099 12166 net.cpp:425] inception_3a/pool_proj <- inception_3a/pool
I0403 15:38:15.507122 12166 net.cpp:399] inception_3a/pool_proj -> inception_3a/pool_proj
I0403 15:38:15.508129 12166 net.cpp:141] Setting up inception_3a/pool_proj
I0403 15:38:15.508158 12166 net.cpp:148] Top shape: 24 32 28 28 (602112)
I0403 15:38:15.508174 12166 net.cpp:156] Memory required for data: 558760992
I0403 15:38:15.508198 12166 layer_factory.hpp:77] Creating layer inception_3a/relu_pool_proj
I0403 15:38:15.508219 12166 net.cpp:91] Creating Layer inception_3a/relu_pool_proj
I0403 15:38:15.508234 12166 net.cpp:425] inception_3a/relu_pool_proj <- inception_3a/pool_proj
I0403 15:38:15.508250 12166 net.cpp:386] inception_3a/relu_pool_proj -> inception_3a/pool_proj (in-place)
I0403 15:38:15.508528 12166 net.cpp:141] Setting up inception_3a/relu_pool_proj
I0403 15:38:15.508553 12166 net.cpp:148] Top shape: 24 32 28 28 (602112)
I0403 15:38:15.508569 12166 net.cpp:156] Memory required for data: 561169440
I0403 15:38:15.508584 12166 layer_factory.hpp:77] Creating layer inception_3a/output
I0403 15:38:15.508604 12166 net.cpp:91] Creating Layer inception_3a/output
I0403 15:38:15.508620 12166 net.cpp:425] inception_3a/output <- inception_3a/1x1
I0403 15:38:15.508635 12166 net.cpp:425] inception_3a/output <- inception_3a/3x3
I0403 15:38:15.508651 12166 net.cpp:425] inception_3a/output <- inception_3a/5x5
I0403 15:38:15.508666 12166 net.cpp:425] inception_3a/output <- inception_3a/pool_proj
I0403 15:38:15.508682 12166 net.cpp:399] inception_3a/output -> inception_3a/output
I0403 15:38:15.508728 12166 net.cpp:141] Setting up inception_3a/output
I0403 15:38:15.508750 12166 net.cpp:148] Top shape: 24 256 28 28 (4816896)
I0403 15:38:15.508765 12166 net.cpp:156] Memory required for data: 580437024
I0403 15:38:15.508780 12166 layer_factory.hpp:77] Creating layer inception_3a/output_inception_3a/output_0_split
I0403 15:38:15.508795 12166 net.cpp:91] Creating Layer inception_3a/output_inception_3a/output_0_split
I0403 15:38:15.508810 12166 net.cpp:425] inception_3a/output_inception_3a/output_0_split <- inception_3a/output
I0403 15:38:15.508831 12166 net.cpp:399] inception_3a/output_inception_3a/output_0_split -> inception_3a/output_inception_3a/output_0_split_0
I0403 15:38:15.508851 12166 net.cpp:399] inception_3a/output_inception_3a/output_0_split -> inception_3a/output_inception_3a/output_0_split_1
I0403 15:38:15.508874 12166 net.cpp:399] inception_3a/output_inception_3a/output_0_split -> inception_3a/output_inception_3a/output_0_split_2
I0403 15:38:15.508895 12166 net.cpp:399] inception_3a/output_inception_3a/output_0_split -> inception_3a/output_inception_3a/output_0_split_3
I0403 15:38:15.508967 12166 net.cpp:141] Setting up inception_3a/output_inception_3a/output_0_split
I0403 15:38:15.508990 12166 net.cpp:148] Top shape: 24 256 28 28 (4816896)
I0403 15:38:15.509006 12166 net.cpp:148] Top shape: 24 256 28 28 (4816896)
I0403 15:38:15.509021 12166 net.cpp:148] Top shape: 24 256 28 28 (4816896)
I0403 15:38:15.509037 12166 net.cpp:148] Top shape: 24 256 28 28 (4816896)
I0403 15:38:15.509049 12166 net.cpp:156] Memory required for data: 657507360
I0403 15:38:15.509063 12166 layer_factory.hpp:77] Creating layer inception_3b/1x1
I0403 15:38:15.509085 12166 net.cpp:91] Creating Layer inception_3b/1x1
I0403 15:38:15.509101 12166 net.cpp:425] inception_3b/1x1 <- inception_3a/output_inception_3a/output_0_split_0
I0403 15:38:15.509122 12166 net.cpp:399] inception_3b/1x1 -> inception_3b/1x1
I0403 15:38:15.510377 12166 net.cpp:141] Setting up inception_3b/1x1
I0403 15:38:15.510417 12166 net.cpp:148] Top shape: 24 128 28 28 (2408448)
I0403 15:38:15.510434 12166 net.cpp:156] Memory required for data: 667141152
I0403 15:38:15.510453 12166 layer_factory.hpp:77] Creating layer inception_3b/relu_1x1
I0403 15:38:15.510476 12166 net.cpp:91] Creating Layer inception_3b/relu_1x1
I0403 15:38:15.510494 12166 net.cpp:425] inception_3b/relu_1x1 <- inception_3b/1x1
I0403 15:38:15.510511 12166 net.cpp:386] inception_3b/relu_1x1 -> inception_3b/1x1 (in-place)
I0403 15:38:15.510697 12166 net.cpp:141] Setting up inception_3b/relu_1x1
I0403 15:38:15.510721 12166 net.cpp:148] Top shape: 24 128 28 28 (2408448)
I0403 15:38:15.510740 12166 net.cpp:156] Memory required for data: 676774944
I0403 15:38:15.510753 12166 layer_factory.hpp:77] Creating layer inception_3b/3x3_reduce
I0403 15:38:15.510773 12166 net.cpp:91] Creating Layer inception_3b/3x3_reduce
I0403 15:38:15.510789 12166 net.cpp:425] inception_3b/3x3_reduce <- inception_3a/output_inception_3a/output_0_split_1
I0403 15:38:15.510809 12166 net.cpp:399] inception_3b/3x3_reduce -> inception_3b/3x3_reduce
I0403 15:38:15.511960 12166 net.cpp:141] Setting up inception_3b/3x3_reduce
I0403 15:38:15.511988 12166 net.cpp:148] Top shape: 24 128 28 28 (2408448)
I0403 15:38:15.512003 12166 net.cpp:156] Memory required for data: 686408736
I0403 15:38:15.512022 12166 layer_factory.hpp:77] Creating layer inception_3b/relu_3x3_reduce
I0403 15:38:15.512042 12166 net.cpp:91] Creating Layer inception_3b/relu_3x3_reduce
I0403 15:38:15.512058 12166 net.cpp:425] inception_3b/relu_3x3_reduce <- inception_3b/3x3_reduce
I0403 15:38:15.512074 12166 net.cpp:386] inception_3b/relu_3x3_reduce -> inception_3b/3x3_reduce (in-place)
I0403 15:38:15.512245 12166 net.cpp:141] Setting up inception_3b/relu_3x3_reduce
I0403 15:38:15.512269 12166 net.cpp:148] Top shape: 24 128 28 28 (2408448)
I0403 15:38:15.512284 12166 net.cpp:156] Memory required for data: 696042528
I0403 15:38:15.512300 12166 layer_factory.hpp:77] Creating layer inception_3b/3x3
I0403 15:38:15.512336 12166 net.cpp:91] Creating Layer inception_3b/3x3
I0403 15:38:15.512356 12166 net.cpp:425] inception_3b/3x3 <- inception_3b/3x3_reduce
I0403 15:38:15.512374 12166 net.cpp:399] inception_3b/3x3 -> inception_3b/3x3
I0403 15:38:15.515244 12166 net.cpp:141] Setting up inception_3b/3x3
I0403 15:38:15.515275 12166 net.cpp:148] Top shape: 24 192 28 28 (3612672)
I0403 15:38:15.515291 12166 net.cpp:156] Memory required for data: 710493216
I0403 15:38:15.515331 12166 layer_factory.hpp:77] Creating layer inception_3b/relu_3x3
I0403 15:38:15.515355 12166 net.cpp:91] Creating Layer inception_3b/relu_3x3
I0403 15:38:15.515372 12166 net.cpp:425] inception_3b/relu_3x3 <- inception_3b/3x3
I0403 15:38:15.515390 12166 net.cpp:386] inception_3b/relu_3x3 -> inception_3b/3x3 (in-place)
I0403 15:38:15.515683 12166 net.cpp:141] Setting up inception_3b/relu_3x3
I0403 15:38:15.515709 12166 net.cpp:148] Top shape: 24 192 28 28 (3612672)
I0403 15:38:15.515724 12166 net.cpp:156] Memory required for data: 724943904
I0403 15:38:15.515739 12166 layer_factory.hpp:77] Creating layer inception_3b/5x5_reduce
I0403 15:38:15.515761 12166 net.cpp:91] Creating Layer inception_3b/5x5_reduce
I0403 15:38:15.515779 12166 net.cpp:425] inception_3b/5x5_reduce <- inception_3a/output_inception_3a/output_0_split_2
I0403 15:38:15.515800 12166 net.cpp:399] inception_3b/5x5_reduce -> inception_3b/5x5_reduce
I0403 15:38:15.516778 12166 net.cpp:141] Setting up inception_3b/5x5_reduce
I0403 15:38:15.516805 12166 net.cpp:148] Top shape: 24 32 28 28 (602112)
I0403 15:38:15.516820 12166 net.cpp:156] Memory required for data: 727352352
I0403 15:38:15.516839 12166 layer_factory.hpp:77] Creating layer inception_3b/relu_5x5_reduce
I0403 15:38:15.516860 12166 net.cpp:91] Creating Layer inception_3b/relu_5x5_reduce
I0403 15:38:15.516875 12166 net.cpp:425] inception_3b/relu_5x5_reduce <- inception_3b/5x5_reduce
I0403 15:38:15.516892 12166 net.cpp:386] inception_3b/relu_5x5_reduce -> inception_3b/5x5_reduce (in-place)
I0403 15:38:15.517084 12166 net.cpp:141] Setting up inception_3b/relu_5x5_reduce
I0403 15:38:15.517112 12166 net.cpp:148] Top shape: 24 32 28 28 (602112)
I0403 15:38:15.517127 12166 net.cpp:156] Memory required for data: 729760800
I0403 15:38:15.517141 12166 layer_factory.hpp:77] Creating layer inception_3b/5x5
I0403 15:38:15.517163 12166 net.cpp:91] Creating Layer inception_3b/5x5
I0403 15:38:15.517181 12166 net.cpp:425] inception_3b/5x5 <- inception_3b/5x5_reduce
I0403 15:38:15.517199 12166 net.cpp:399] inception_3b/5x5 -> inception_3b/5x5
I0403 15:38:15.519143 12166 net.cpp:141] Setting up inception_3b/5x5
I0403 15:38:15.519173 12166 net.cpp:148] Top shape: 24 96 28 28 (1806336)
I0403 15:38:15.519191 12166 net.cpp:156] Memory required for data: 736986144
I0403 15:38:15.519209 12166 layer_factory.hpp:77] Creating layer inception_3b/relu_5x5
I0403 15:38:15.519230 12166 net.cpp:91] Creating Layer inception_3b/relu_5x5
I0403 15:38:15.519249 12166 net.cpp:425] inception_3b/relu_5x5 <- inception_3b/5x5
I0403 15:38:15.519266 12166 net.cpp:386] inception_3b/relu_5x5 -> inception_3b/5x5 (in-place)
I0403 15:38:15.519464 12166 net.cpp:141] Setting up inception_3b/relu_5x5
I0403 15:38:15.519490 12166 net.cpp:148] Top shape: 24 96 28 28 (1806336)
I0403 15:38:15.519505 12166 net.cpp:156] Memory required for data: 744211488
I0403 15:38:15.519520 12166 layer_factory.hpp:77] Creating layer inception_3b/pool
I0403 15:38:15.519537 12166 net.cpp:91] Creating Layer inception_3b/pool
I0403 15:38:15.519552 12166 net.cpp:425] inception_3b/pool <- inception_3a/output_inception_3a/output_0_split_3
I0403 15:38:15.519570 12166 net.cpp:399] inception_3b/pool -> inception_3b/pool
I0403 15:38:15.519637 12166 net.cpp:141] Setting up inception_3b/pool
I0403 15:38:15.519661 12166 net.cpp:148] Top shape: 24 256 28 28 (4816896)
I0403 15:38:15.519676 12166 net.cpp:156] Memory required for data: 763479072
I0403 15:38:15.519691 12166 layer_factory.hpp:77] Creating layer inception_3b/pool_proj
I0403 15:38:15.519713 12166 net.cpp:91] Creating Layer inception_3b/pool_proj
I0403 15:38:15.519731 12166 net.cpp:425] inception_3b/pool_proj <- inception_3b/pool
I0403 15:38:15.519752 12166 net.cpp:399] inception_3b/pool_proj -> inception_3b/pool_proj
I0403 15:38:15.520820 12166 net.cpp:141] Setting up inception_3b/pool_proj
I0403 15:38:15.520854 12166 net.cpp:148] Top shape: 24 64 28 28 (1204224)
I0403 15:38:15.520872 12166 net.cpp:156] Memory required for data: 768295968
I0403 15:38:15.520891 12166 layer_factory.hpp:77] Creating layer inception_3b/relu_pool_proj
I0403 15:38:15.520910 12166 net.cpp:91] Creating Layer inception_3b/relu_pool_proj
I0403 15:38:15.520926 12166 net.cpp:425] inception_3b/relu_pool_proj <- inception_3b/pool_proj
I0403 15:38:15.520946 12166 net.cpp:386] inception_3b/relu_pool_proj -> inception_3b/pool_proj (in-place)
I0403 15:38:15.521364 12166 net.cpp:141] Setting up inception_3b/relu_pool_proj
I0403 15:38:15.521392 12166 net.cpp:148] Top shape: 24 64 28 28 (1204224)
I0403 15:38:15.521409 12166 net.cpp:156] Memory required for data: 773112864
I0403 15:38:15.521423 12166 layer_factory.hpp:77] Creating layer inception_3b/output
I0403 15:38:15.521440 12166 net.cpp:91] Creating Layer inception_3b/output
I0403 15:38:15.521456 12166 net.cpp:425] inception_3b/output <- inception_3b/1x1
I0403 15:38:15.521471 12166 net.cpp:425] inception_3b/output <- inception_3b/3x3
I0403 15:38:15.521487 12166 net.cpp:425] inception_3b/output <- inception_3b/5x5
I0403 15:38:15.521502 12166 net.cpp:425] inception_3b/output <- inception_3b/pool_proj
I0403 15:38:15.521519 12166 net.cpp:399] inception_3b/output -> inception_3b/output
I0403 15:38:15.521564 12166 net.cpp:141] Setting up inception_3b/output
I0403 15:38:15.521586 12166 net.cpp:148] Top shape: 24 480 28 28 (9031680)
I0403 15:38:15.521601 12166 net.cpp:156] Memory required for data: 809239584
I0403 15:38:15.521615 12166 layer_factory.hpp:77] Creating layer pool3/3x3_s2
I0403 15:38:15.521634 12166 net.cpp:91] Creating Layer pool3/3x3_s2
I0403 15:38:15.521651 12166 net.cpp:425] pool3/3x3_s2 <- inception_3b/output
I0403 15:38:15.521683 12166 net.cpp:399] pool3/3x3_s2 -> pool3/3x3_s2
I0403 15:38:15.521742 12166 net.cpp:141] Setting up pool3/3x3_s2
I0403 15:38:15.521764 12166 net.cpp:148] Top shape: 24 480 14 14 (2257920)
I0403 15:38:15.521778 12166 net.cpp:156] Memory required for data: 818271264
I0403 15:38:15.521792 12166 layer_factory.hpp:77] Creating layer pool3/3x3_s2_pool3/3x3_s2_0_split
I0403 15:38:15.521808 12166 net.cpp:91] Creating Layer pool3/3x3_s2_pool3/3x3_s2_0_split
I0403 15:38:15.521823 12166 net.cpp:425] pool3/3x3_s2_pool3/3x3_s2_0_split <- pool3/3x3_s2
I0403 15:38:15.521842 12166 net.cpp:399] pool3/3x3_s2_pool3/3x3_s2_0_split -> pool3/3x3_s2_pool3/3x3_s2_0_split_0
I0403 15:38:15.521862 12166 net.cpp:399] pool3/3x3_s2_pool3/3x3_s2_0_split -> pool3/3x3_s2_pool3/3x3_s2_0_split_1
I0403 15:38:15.521880 12166 net.cpp:399] pool3/3x3_s2_pool3/3x3_s2_0_split -> pool3/3x3_s2_pool3/3x3_s2_0_split_2
I0403 15:38:15.521899 12166 net.cpp:399] pool3/3x3_s2_pool3/3x3_s2_0_split -> pool3/3x3_s2_pool3/3x3_s2_0_split_3
I0403 15:38:15.521975 12166 net.cpp:141] Setting up pool3/3x3_s2_pool3/3x3_s2_0_split
I0403 15:38:15.522001 12166 net.cpp:148] Top shape: 24 480 14 14 (2257920)
I0403 15:38:15.522017 12166 net.cpp:148] Top shape: 24 480 14 14 (2257920)
I0403 15:38:15.522032 12166 net.cpp:148] Top shape: 24 480 14 14 (2257920)
I0403 15:38:15.522047 12166 net.cpp:148] Top shape: 24 480 14 14 (2257920)
I0403 15:38:15.522060 12166 net.cpp:156] Memory required for data: 854397984
I0403 15:38:15.522075 12166 layer_factory.hpp:77] Creating layer inception_4a/1x1
I0403 15:38:15.522096 12166 net.cpp:91] Creating Layer inception_4a/1x1
I0403 15:38:15.522114 12166 net.cpp:425] inception_4a/1x1 <- pool3/3x3_s2_pool3/3x3_s2_0_split_0
I0403 15:38:15.522130 12166 net.cpp:399] inception_4a/1x1 -> inception_4a/1x1
I0403 15:38:15.523730 12166 net.cpp:141] Setting up inception_4a/1x1
I0403 15:38:15.523761 12166 net.cpp:148] Top shape: 24 192 14 14 (903168)
I0403 15:38:15.523779 12166 net.cpp:156] Memory required for data: 858010656
I0403 15:38:15.523798 12166 layer_factory.hpp:77] Creating layer inception_4a/relu_1x1
I0403 15:38:15.523815 12166 net.cpp:91] Creating Layer inception_4a/relu_1x1
I0403 15:38:15.523831 12166 net.cpp:425] inception_4a/relu_1x1 <- inception_4a/1x1
I0403 15:38:15.523850 12166 net.cpp:386] inception_4a/relu_1x1 -> inception_4a/1x1 (in-place)
I0403 15:38:15.524025 12166 net.cpp:141] Setting up inception_4a/relu_1x1
I0403 15:38:15.524049 12166 net.cpp:148] Top shape: 24 192 14 14 (903168)
I0403 15:38:15.524063 12166 net.cpp:156] Memory required for data: 861623328
I0403 15:38:15.524078 12166 layer_factory.hpp:77] Creating layer inception_4a/3x3_reduce
I0403 15:38:15.524099 12166 net.cpp:91] Creating Layer inception_4a/3x3_reduce
I0403 15:38:15.524116 12166 net.cpp:425] inception_4a/3x3_reduce <- pool3/3x3_s2_pool3/3x3_s2_0_split_1
I0403 15:38:15.524137 12166 net.cpp:399] inception_4a/3x3_reduce -> inception_4a/3x3_reduce
I0403 15:38:15.525418 12166 net.cpp:141] Setting up inception_4a/3x3_reduce
I0403 15:38:15.525446 12166 net.cpp:148] Top shape: 24 96 14 14 (451584)
I0403 15:38:15.525463 12166 net.cpp:156] Memory required for data: 863429664
I0403 15:38:15.525488 12166 layer_factory.hpp:77] Creating layer inception_4a/relu_3x3_reduce
I0403 15:38:15.525508 12166 net.cpp:91] Creating Layer inception_4a/relu_3x3_reduce
I0403 15:38:15.525526 12166 net.cpp:425] inception_4a/relu_3x3_reduce <- inception_4a/3x3_reduce
I0403 15:38:15.525545 12166 net.cpp:386] inception_4a/relu_3x3_reduce -> inception_4a/3x3_reduce (in-place)
I0403 15:38:15.525732 12166 net.cpp:141] Setting up inception_4a/relu_3x3_reduce
I0403 15:38:15.525758 12166 net.cpp:148] Top shape: 24 96 14 14 (451584)
I0403 15:38:15.525773 12166 net.cpp:156] Memory required for data: 865236000
I0403 15:38:15.525785 12166 layer_factory.hpp:77] Creating layer inception_4a/3x3
I0403 15:38:15.525806 12166 net.cpp:91] Creating Layer inception_4a/3x3
I0403 15:38:15.525822 12166 net.cpp:425] inception_4a/3x3 <- inception_4a/3x3_reduce
I0403 15:38:15.525842 12166 net.cpp:399] inception_4a/3x3 -> inception_4a/3x3
I0403 15:38:15.528432 12166 net.cpp:141] Setting up inception_4a/3x3
I0403 15:38:15.528461 12166 net.cpp:148] Top shape: 24 208 14 14 (978432)
I0403 15:38:15.528478 12166 net.cpp:156] Memory required for data: 869149728
I0403 15:38:15.528496 12166 layer_factory.hpp:77] Creating layer inception_4a/relu_3x3
I0403 15:38:15.528515 12166 net.cpp:91] Creating Layer inception_4a/relu_3x3
I0403 15:38:15.528532 12166 net.cpp:425] inception_4a/relu_3x3 <- inception_4a/3x3
I0403 15:38:15.528550 12166 net.cpp:386] inception_4a/relu_3x3 -> inception_4a/3x3 (in-place)
I0403 15:38:15.528825 12166 net.cpp:141] Setting up inception_4a/relu_3x3
I0403 15:38:15.528849 12166 net.cpp:148] Top shape: 24 208 14 14 (978432)
I0403 15:38:15.528864 12166 net.cpp:156] Memory required for data: 873063456
I0403 15:38:15.528878 12166 layer_factory.hpp:77] Creating layer inception_4a/5x5_reduce
I0403 15:38:15.528899 12166 net.cpp:91] Creating Layer inception_4a/5x5_reduce
I0403 15:38:15.528918 12166 net.cpp:425] inception_4a/5x5_reduce <- pool3/3x3_s2_pool3/3x3_s2_0_split_2
I0403 15:38:15.528937 12166 net.cpp:399] inception_4a/5x5_reduce -> inception_4a/5x5_reduce
I0403 15:38:15.529939 12166 net.cpp:141] Setting up inception_4a/5x5_reduce
I0403 15:38:15.529965 12166 net.cpp:148] Top shape: 24 16 14 14 (75264)
I0403 15:38:15.529981 12166 net.cpp:156] Memory required for data: 873364512
I0403 15:38:15.529999 12166 layer_factory.hpp:77] Creating layer inception_4a/relu_5x5_reduce
I0403 15:38:15.530019 12166 net.cpp:91] Creating Layer inception_4a/relu_5x5_reduce
I0403 15:38:15.530035 12166 net.cpp:425] inception_4a/relu_5x5_reduce <- inception_4a/5x5_reduce
I0403 15:38:15.530051 12166 net.cpp:386] inception_4a/relu_5x5_reduce -> inception_4a/5x5_reduce (in-place)
I0403 15:38:15.530227 12166 net.cpp:141] Setting up inception_4a/relu_5x5_reduce
I0403 15:38:15.530253 12166 net.cpp:148] Top shape: 24 16 14 14 (75264)
I0403 15:38:15.530268 12166 net.cpp:156] Memory required for data: 873665568
I0403 15:38:15.530282 12166 layer_factory.hpp:77] Creating layer inception_4a/5x5
I0403 15:38:15.530303 12166 net.cpp:91] Creating Layer inception_4a/5x5
I0403 15:38:15.530326 12166 net.cpp:425] inception_4a/5x5 <- inception_4a/5x5_reduce
I0403 15:38:15.530347 12166 net.cpp:399] inception_4a/5x5 -> inception_4a/5x5
I0403 15:38:15.531415 12166 net.cpp:141] Setting up inception_4a/5x5
I0403 15:38:15.531446 12166 net.cpp:148] Top shape: 24 48 14 14 (225792)
I0403 15:38:15.531464 12166 net.cpp:156] Memory required for data: 874568736
I0403 15:38:15.531482 12166 layer_factory.hpp:77] Creating layer inception_4a/relu_5x5
I0403 15:38:15.531499 12166 net.cpp:91] Creating Layer inception_4a/relu_5x5
I0403 15:38:15.531517 12166 net.cpp:425] inception_4a/relu_5x5 <- inception_4a/5x5
I0403 15:38:15.531533 12166 net.cpp:386] inception_4a/relu_5x5 -> inception_4a/5x5 (in-place)
I0403 15:38:15.531723 12166 net.cpp:141] Setting up inception_4a/relu_5x5
I0403 15:38:15.531747 12166 net.cpp:148] Top shape: 24 48 14 14 (225792)
I0403 15:38:15.531761 12166 net.cpp:156] Memory required for data: 875471904
I0403 15:38:15.531775 12166 layer_factory.hpp:77] Creating layer inception_4a/pool
I0403 15:38:15.531792 12166 net.cpp:91] Creating Layer inception_4a/pool
I0403 15:38:15.531807 12166 net.cpp:425] inception_4a/pool <- pool3/3x3_s2_pool3/3x3_s2_0_split_3
I0403 15:38:15.531827 12166 net.cpp:399] inception_4a/pool -> inception_4a/pool
I0403 15:38:15.531885 12166 net.cpp:141] Setting up inception_4a/pool
I0403 15:38:15.531909 12166 net.cpp:148] Top shape: 24 480 14 14 (2257920)
I0403 15:38:15.531925 12166 net.cpp:156] Memory required for data: 884503584
I0403 15:38:15.531939 12166 layer_factory.hpp:77] Creating layer inception_4a/pool_proj
I0403 15:38:15.531960 12166 net.cpp:91] Creating Layer inception_4a/pool_proj
I0403 15:38:15.531977 12166 net.cpp:425] inception_4a/pool_proj <- inception_4a/pool
I0403 15:38:15.531996 12166 net.cpp:399] inception_4a/pool_proj -> inception_4a/pool_proj
I0403 15:38:15.533125 12166 net.cpp:141] Setting up inception_4a/pool_proj
I0403 15:38:15.533154 12166 net.cpp:148] Top shape: 24 64 14 14 (301056)
I0403 15:38:15.533185 12166 net.cpp:156] Memory required for data: 885707808
I0403 15:38:15.533205 12166 layer_factory.hpp:77] Creating layer inception_4a/relu_pool_proj
I0403 15:38:15.533224 12166 net.cpp:91] Creating Layer inception_4a/relu_pool_proj
I0403 15:38:15.533239 12166 net.cpp:425] inception_4a/relu_pool_proj <- inception_4a/pool_proj
I0403 15:38:15.533258 12166 net.cpp:386] inception_4a/relu_pool_proj -> inception_4a/pool_proj (in-place)
I0403 15:38:15.533540 12166 net.cpp:141] Setting up inception_4a/relu_pool_proj
I0403 15:38:15.533566 12166 net.cpp:148] Top shape: 24 64 14 14 (301056)
I0403 15:38:15.533581 12166 net.cpp:156] Memory required for data: 886912032
I0403 15:38:15.533596 12166 layer_factory.hpp:77] Creating layer inception_4a/output
I0403 15:38:15.533612 12166 net.cpp:91] Creating Layer inception_4a/output
I0403 15:38:15.533625 12166 net.cpp:425] inception_4a/output <- inception_4a/1x1
I0403 15:38:15.533641 12166 net.cpp:425] inception_4a/output <- inception_4a/3x3
I0403 15:38:15.533656 12166 net.cpp:425] inception_4a/output <- inception_4a/5x5
I0403 15:38:15.533673 12166 net.cpp:425] inception_4a/output <- inception_4a/pool_proj
I0403 15:38:15.533689 12166 net.cpp:399] inception_4a/output -> inception_4a/output
I0403 15:38:15.533732 12166 net.cpp:141] Setting up inception_4a/output
I0403 15:38:15.533756 12166 net.cpp:148] Top shape: 24 512 14 14 (2408448)
I0403 15:38:15.533772 12166 net.cpp:156] Memory required for data: 896545824
I0403 15:38:15.533787 12166 layer_factory.hpp:77] Creating layer inception_4a/output_inception_4a/output_0_split
I0403 15:38:15.533804 12166 net.cpp:91] Creating Layer inception_4a/output_inception_4a/output_0_split
I0403 15:38:15.533819 12166 net.cpp:425] inception_4a/output_inception_4a/output_0_split <- inception_4a/output
I0403 15:38:15.533835 12166 net.cpp:399] inception_4a/output_inception_4a/output_0_split -> inception_4a/output_inception_4a/output_0_split_0
I0403 15:38:15.533854 12166 net.cpp:399] inception_4a/output_inception_4a/output_0_split -> inception_4a/output_inception_4a/output_0_split_1
I0403 15:38:15.533876 12166 net.cpp:399] inception_4a/output_inception_4a/output_0_split -> inception_4a/output_inception_4a/output_0_split_2
I0403 15:38:15.533896 12166 net.cpp:399] inception_4a/output_inception_4a/output_0_split -> inception_4a/output_inception_4a/output_0_split_3
I0403 15:38:15.533915 12166 net.cpp:399] inception_4a/output_inception_4a/output_0_split -> inception_4a/output_inception_4a/output_0_split_4
I0403 15:38:15.534003 12166 net.cpp:141] Setting up inception_4a/output_inception_4a/output_0_split
I0403 15:38:15.534025 12166 net.cpp:148] Top shape: 24 512 14 14 (2408448)
I0403 15:38:15.534041 12166 net.cpp:148] Top shape: 24 512 14 14 (2408448)
I0403 15:38:15.534056 12166 net.cpp:148] Top shape: 24 512 14 14 (2408448)
I0403 15:38:15.534070 12166 net.cpp:148] Top shape: 24 512 14 14 (2408448)
I0403 15:38:15.534085 12166 net.cpp:148] Top shape: 24 512 14 14 (2408448)
I0403 15:38:15.534099 12166 net.cpp:156] Memory required for data: 944714784
I0403 15:38:15.534113 12166 layer_factory.hpp:77] Creating layer loss1/ave_pool
I0403 15:38:15.534132 12166 net.cpp:91] Creating Layer loss1/ave_pool
I0403 15:38:15.534148 12166 net.cpp:425] loss1/ave_pool <- inception_4a/output_inception_4a/output_0_split_0
I0403 15:38:15.534164 12166 net.cpp:399] loss1/ave_pool -> loss1/ave_pool
I0403 15:38:15.534373 12166 net.cpp:141] Setting up loss1/ave_pool
I0403 15:38:15.534399 12166 net.cpp:148] Top shape: 24 512 4 4 (196608)
I0403 15:38:15.534414 12166 net.cpp:156] Memory required for data: 945501216
I0403 15:38:15.534427 12166 layer_factory.hpp:77] Creating layer loss1/conv
I0403 15:38:15.534448 12166 net.cpp:91] Creating Layer loss1/conv
I0403 15:38:15.534464 12166 net.cpp:425] loss1/conv <- loss1/ave_pool
I0403 15:38:15.534485 12166 net.cpp:399] loss1/conv -> loss1/conv
I0403 15:38:15.535852 12166 net.cpp:141] Setting up loss1/conv
I0403 15:38:15.535881 12166 net.cpp:148] Top shape: 24 128 4 4 (49152)
I0403 15:38:15.535912 12166 net.cpp:156] Memory required for data: 945697824
I0403 15:38:15.535930 12166 layer_factory.hpp:77] Creating layer loss1/relu_conv
I0403 15:38:15.535951 12166 net.cpp:91] Creating Layer loss1/relu_conv
I0403 15:38:15.535970 12166 net.cpp:425] loss1/relu_conv <- loss1/conv
I0403 15:38:15.535987 12166 net.cpp:386] loss1/relu_conv -> loss1/conv (in-place)
I0403 15:38:15.536262 12166 net.cpp:141] Setting up loss1/relu_conv
I0403 15:38:15.536286 12166 net.cpp:148] Top shape: 24 128 4 4 (49152)
I0403 15:38:15.536301 12166 net.cpp:156] Memory required for data: 945894432
I0403 15:38:15.536320 12166 layer_factory.hpp:77] Creating layer loss1/fc
I0403 15:38:15.536347 12166 net.cpp:91] Creating Layer loss1/fc
I0403 15:38:15.536365 12166 net.cpp:425] loss1/fc <- loss1/conv
I0403 15:38:15.536382 12166 net.cpp:399] loss1/fc -> loss1/fc
I0403 15:38:15.553689 12166 net.cpp:141] Setting up loss1/fc
I0403 15:38:15.553724 12166 net.cpp:148] Top shape: 24 1024 (24576)
I0403 15:38:15.553740 12166 net.cpp:156] Memory required for data: 945992736
I0403 15:38:15.553758 12166 layer_factory.hpp:77] Creating layer loss1/relu_fc
I0403 15:38:15.553776 12166 net.cpp:91] Creating Layer loss1/relu_fc
I0403 15:38:15.553793 12166 net.cpp:425] loss1/relu_fc <- loss1/fc
I0403 15:38:15.553814 12166 net.cpp:386] loss1/relu_fc -> loss1/fc (in-place)
I0403 15:38:15.554000 12166 net.cpp:141] Setting up loss1/relu_fc
I0403 15:38:15.554025 12166 net.cpp:148] Top shape: 24 1024 (24576)
I0403 15:38:15.554041 12166 net.cpp:156] Memory required for data: 946091040
I0403 15:38:15.554055 12166 layer_factory.hpp:77] Creating layer loss1/drop_fc
I0403 15:38:15.554083 12166 net.cpp:91] Creating Layer loss1/drop_fc
I0403 15:38:15.554101 12166 net.cpp:425] loss1/drop_fc <- loss1/fc
I0403 15:38:15.554118 12166 net.cpp:386] loss1/drop_fc -> loss1/fc (in-place)
I0403 15:38:15.554167 12166 net.cpp:141] Setting up loss1/drop_fc
I0403 15:38:15.554194 12166 net.cpp:148] Top shape: 24 1024 (24576)
I0403 15:38:15.554210 12166 net.cpp:156] Memory required for data: 946189344
I0403 15:38:15.554224 12166 layer_factory.hpp:77] Creating layer loss1/classifier_plantvillage
I0403 15:38:15.554242 12166 net.cpp:91] Creating Layer loss1/classifier_plantvillage
I0403 15:38:15.554257 12166 net.cpp:425] loss1/classifier_plantvillage <- loss1/fc
I0403 15:38:15.554277 12166 net.cpp:399] loss1/classifier_plantvillage -> loss1/classifier_plantvillage
I0403 15:38:15.555152 12166 net.cpp:141] Setting up loss1/classifier_plantvillage
I0403 15:38:15.555179 12166 net.cpp:148] Top shape: 24 38 (912)
I0403 15:38:15.555193 12166 net.cpp:156] Memory required for data: 946192992
I0403 15:38:15.555212 12166 layer_factory.hpp:77] Creating layer loss1/classifier_plantvillage_loss1/classifier_plantvillage_0_split
I0403 15:38:15.555228 12166 net.cpp:91] Creating Layer loss1/classifier_plantvillage_loss1/classifier_plantvillage_0_split
I0403 15:38:15.555246 12166 net.cpp:425] loss1/classifier_plantvillage_loss1/classifier_plantvillage_0_split <- loss1/classifier_plantvillage
I0403 15:38:15.555263 12166 net.cpp:399] loss1/classifier_plantvillage_loss1/classifier_plantvillage_0_split -> loss1/classifier_plantvillage_loss1/classifier_plantvillage_0_split_0
I0403 15:38:15.555282 12166 net.cpp:399] loss1/classifier_plantvillage_loss1/classifier_plantvillage_0_split -> loss1/classifier_plantvillage_loss1/classifier_plantvillage_0_split_1
I0403 15:38:15.555302 12166 net.cpp:399] loss1/classifier_plantvillage_loss1/classifier_plantvillage_0_split -> loss1/classifier_plantvillage_loss1/classifier_plantvillage_0_split_2
I0403 15:38:15.555369 12166 net.cpp:141] Setting up loss1/classifier_plantvillage_loss1/classifier_plantvillage_0_split
I0403 15:38:15.555394 12166 net.cpp:148] Top shape: 24 38 (912)
I0403 15:38:15.555411 12166 net.cpp:148] Top shape: 24 38 (912)
I0403 15:38:15.555426 12166 net.cpp:148] Top shape: 24 38 (912)
I0403 15:38:15.555440 12166 net.cpp:156] Memory required for data: 946203936
I0403 15:38:15.555454 12166 layer_factory.hpp:77] Creating layer inception_4b/1x1
I0403 15:38:15.555474 12166 net.cpp:91] Creating Layer inception_4b/1x1
I0403 15:38:15.555503 12166 net.cpp:425] inception_4b/1x1 <- inception_4a/output_inception_4a/output_0_split_1
I0403 15:38:15.555523 12166 net.cpp:399] inception_4b/1x1 -> inception_4b/1x1
I0403 15:38:15.557149 12166 net.cpp:141] Setting up inception_4b/1x1
I0403 15:38:15.557178 12166 net.cpp:148] Top shape: 24 160 14 14 (752640)
I0403 15:38:15.557193 12166 net.cpp:156] Memory required for data: 949214496
I0403 15:38:15.557211 12166 layer_factory.hpp:77] Creating layer inception_4b/relu_1x1
I0403 15:38:15.557232 12166 net.cpp:91] Creating Layer inception_4b/relu_1x1
I0403 15:38:15.557250 12166 net.cpp:425] inception_4b/relu_1x1 <- inception_4b/1x1
I0403 15:38:15.557266 12166 net.cpp:386] inception_4b/relu_1x1 -> inception_4b/1x1 (in-place)
I0403 15:38:15.557454 12166 net.cpp:141] Setting up inception_4b/relu_1x1
I0403 15:38:15.557482 12166 net.cpp:148] Top shape: 24 160 14 14 (752640)
I0403 15:38:15.557497 12166 net.cpp:156] Memory required for data: 952225056
I0403 15:38:15.557512 12166 layer_factory.hpp:77] Creating layer inception_4b/3x3_reduce
I0403 15:38:15.557536 12166 net.cpp:91] Creating Layer inception_4b/3x3_reduce
I0403 15:38:15.557554 12166 net.cpp:425] inception_4b/3x3_reduce <- inception_4a/output_inception_4a/output_0_split_2
I0403 15:38:15.557572 12166 net.cpp:399] inception_4b/3x3_reduce -> inception_4b/3x3_reduce
I0403 15:38:15.558917 12166 net.cpp:141] Setting up inception_4b/3x3_reduce
I0403 15:38:15.558948 12166 net.cpp:148] Top shape: 24 112 14 14 (526848)
I0403 15:38:15.558964 12166 net.cpp:156] Memory required for data: 954332448
I0403 15:38:15.558984 12166 layer_factory.hpp:77] Creating layer inception_4b/relu_3x3_reduce
I0403 15:38:15.559005 12166 net.cpp:91] Creating Layer inception_4b/relu_3x3_reduce
I0403 15:38:15.559025 12166 net.cpp:425] inception_4b/relu_3x3_reduce <- inception_4b/3x3_reduce
I0403 15:38:15.559042 12166 net.cpp:386] inception_4b/relu_3x3_reduce -> inception_4b/3x3_reduce (in-place)
I0403 15:38:15.559330 12166 net.cpp:141] Setting up inception_4b/relu_3x3_reduce
I0403 15:38:15.559357 12166 net.cpp:148] Top shape: 24 112 14 14 (526848)
I0403 15:38:15.559373 12166 net.cpp:156] Memory required for data: 956439840
I0403 15:38:15.559388 12166 layer_factory.hpp:77] Creating layer inception_4b/3x3
I0403 15:38:15.559412 12166 net.cpp:91] Creating Layer inception_4b/3x3
I0403 15:38:15.559429 12166 net.cpp:425] inception_4b/3x3 <- inception_4b/3x3_reduce
I0403 15:38:15.559448 12166 net.cpp:399] inception_4b/3x3 -> inception_4b/3x3
I0403 15:38:15.562422 12166 net.cpp:141] Setting up inception_4b/3x3
I0403 15:38:15.562451 12166 net.cpp:148] Top shape: 24 224 14 14 (1053696)
I0403 15:38:15.562468 12166 net.cpp:156] Memory required for data: 960654624
I0403 15:38:15.562486 12166 layer_factory.hpp:77] Creating layer inception_4b/relu_3x3
I0403 15:38:15.562505 12166 net.cpp:91] Creating Layer inception_4b/relu_3x3
I0403 15:38:15.562522 12166 net.cpp:425] inception_4b/relu_3x3 <- inception_4b/3x3
I0403 15:38:15.562541 12166 net.cpp:386] inception_4b/relu_3x3 -> inception_4b/3x3 (in-place)
I0403 15:38:15.562724 12166 net.cpp:141] Setting up inception_4b/relu_3x3
I0403 15:38:15.562749 12166 net.cpp:148] Top shape: 24 224 14 14 (1053696)
I0403 15:38:15.562763 12166 net.cpp:156] Memory required for data: 964869408
I0403 15:38:15.562778 12166 layer_factory.hpp:77] Creating layer inception_4b/5x5_reduce
I0403 15:38:15.562800 12166 net.cpp:91] Creating Layer inception_4b/5x5_reduce
I0403 15:38:15.562819 12166 net.cpp:425] inception_4b/5x5_reduce <- inception_4a/output_inception_4a/output_0_split_3
I0403 15:38:15.562839 12166 net.cpp:399] inception_4b/5x5_reduce -> inception_4b/5x5_reduce
I0403 15:38:15.563920 12166 net.cpp:141] Setting up inception_4b/5x5_reduce
I0403 15:38:15.563949 12166 net.cpp:148] Top shape: 24 24 14 14 (112896)
I0403 15:38:15.563966 12166 net.cpp:156] Memory required for data: 965320992
I0403 15:38:15.563984 12166 layer_factory.hpp:77] Creating layer inception_4b/relu_5x5_reduce
I0403 15:38:15.564005 12166 net.cpp:91] Creating Layer inception_4b/relu_5x5_reduce
I0403 15:38:15.564038 12166 net.cpp:425] inception_4b/relu_5x5_reduce <- inception_4b/5x5_reduce
I0403 15:38:15.564057 12166 net.cpp:386] inception_4b/relu_5x5_reduce -> inception_4b/5x5_reduce (in-place)
I0403 15:38:15.564239 12166 net.cpp:141] Setting up inception_4b/relu_5x5_reduce
I0403 15:38:15.564265 12166 net.cpp:148] Top shape: 24 24 14 14 (112896)
I0403 15:38:15.564280 12166 net.cpp:156] Memory required for data: 965772576
I0403 15:38:15.564293 12166 layer_factory.hpp:77] Creating layer inception_4b/5x5
I0403 15:38:15.564316 12166 net.cpp:91] Creating Layer inception_4b/5x5
I0403 15:38:15.564338 12166 net.cpp:425] inception_4b/5x5 <- inception_4b/5x5_reduce
I0403 15:38:15.564359 12166 net.cpp:399] inception_4b/5x5 -> inception_4b/5x5
I0403 15:38:15.565587 12166 net.cpp:141] Setting up inception_4b/5x5
I0403 15:38:15.565616 12166 net.cpp:148] Top shape: 24 64 14 14 (301056)
I0403 15:38:15.565632 12166 net.cpp:156] Memory required for data: 966976800
I0403 15:38:15.565650 12166 layer_factory.hpp:77] Creating layer inception_4b/relu_5x5
I0403 15:38:15.565670 12166 net.cpp:91] Creating Layer inception_4b/relu_5x5
I0403 15:38:15.565690 12166 net.cpp:425] inception_4b/relu_5x5 <- inception_4b/5x5
I0403 15:38:15.565706 12166 net.cpp:386] inception_4b/relu_5x5 -> inception_4b/5x5 (in-place)
I0403 15:38:15.565994 12166 net.cpp:141] Setting up inception_4b/relu_5x5
I0403 15:38:15.566020 12166 net.cpp:148] Top shape: 24 64 14 14 (301056)
I0403 15:38:15.566035 12166 net.cpp:156] Memory required for data: 968181024
I0403 15:38:15.566050 12166 layer_factory.hpp:77] Creating layer inception_4b/pool
I0403 15:38:15.566069 12166 net.cpp:91] Creating Layer inception_4b/pool
I0403 15:38:15.566087 12166 net.cpp:425] inception_4b/pool <- inception_4a/output_inception_4a/output_0_split_4
I0403 15:38:15.566104 12166 net.cpp:399] inception_4b/pool -> inception_4b/pool
I0403 15:38:15.566171 12166 net.cpp:141] Setting up inception_4b/pool
I0403 15:38:15.566195 12166 net.cpp:148] Top shape: 24 512 14 14 (2408448)
I0403 15:38:15.566210 12166 net.cpp:156] Memory required for data: 977814816
I0403 15:38:15.566225 12166 layer_factory.hpp:77] Creating layer inception_4b/pool_proj
I0403 15:38:15.566246 12166 net.cpp:91] Creating Layer inception_4b/pool_proj
I0403 15:38:15.566263 12166 net.cpp:425] inception_4b/pool_proj <- inception_4b/pool
I0403 15:38:15.566284 12166 net.cpp:399] inception_4b/pool_proj -> inception_4b/pool_proj
I0403 15:38:15.567505 12166 net.cpp:141] Setting up inception_4b/pool_proj
I0403 15:38:15.567533 12166 net.cpp:148] Top shape: 24 64 14 14 (301056)
I0403 15:38:15.567549 12166 net.cpp:156] Memory required for data: 979019040
I0403 15:38:15.567569 12166 layer_factory.hpp:77] Creating layer inception_4b/relu_pool_proj
I0403 15:38:15.567617 12166 net.cpp:91] Creating Layer inception_4b/relu_pool_proj
I0403 15:38:15.567634 12166 net.cpp:425] inception_4b/relu_pool_proj <- inception_4b/pool_proj
I0403 15:38:15.567652 12166 net.cpp:386] inception_4b/relu_pool_proj -> inception_4b/pool_proj (in-place)
I0403 15:38:15.567842 12166 net.cpp:141] Setting up inception_4b/relu_pool_proj
I0403 15:38:15.567881 12166 net.cpp:148] Top shape: 24 64 14 14 (301056)
I0403 15:38:15.567896 12166 net.cpp:156] Memory required for data: 980223264
I0403 15:38:15.567911 12166 layer_factory.hpp:77] Creating layer inception_4b/output
I0403 15:38:15.567929 12166 net.cpp:91] Creating Layer inception_4b/output
I0403 15:38:15.567944 12166 net.cpp:425] inception_4b/output <- inception_4b/1x1
I0403 15:38:15.567960 12166 net.cpp:425] inception_4b/output <- inception_4b/3x3
I0403 15:38:15.567975 12166 net.cpp:425] inception_4b/output <- inception_4b/5x5
I0403 15:38:15.567991 12166 net.cpp:425] inception_4b/output <- inception_4b/pool_proj
I0403 15:38:15.568011 12166 net.cpp:399] inception_4b/output -> inception_4b/output
I0403 15:38:15.568058 12166 net.cpp:141] Setting up inception_4b/output
I0403 15:38:15.568080 12166 net.cpp:148] Top shape: 24 512 14 14 (2408448)
I0403 15:38:15.568094 12166 net.cpp:156] Memory required for data: 989857056
I0403 15:38:15.568123 12166 layer_factory.hpp:77] Creating layer inception_4b/output_inception_4b/output_0_split
I0403 15:38:15.568143 12166 net.cpp:91] Creating Layer inception_4b/output_inception_4b/output_0_split
I0403 15:38:15.568161 12166 net.cpp:425] inception_4b/output_inception_4b/output_0_split <- inception_4b/output
I0403 15:38:15.568177 12166 net.cpp:399] inception_4b/output_inception_4b/output_0_split -> inception_4b/output_inception_4b/output_0_split_0
I0403 15:38:15.568198 12166 net.cpp:399] inception_4b/output_inception_4b/output_0_split -> inception_4b/output_inception_4b/output_0_split_1
I0403 15:38:15.568220 12166 net.cpp:399] inception_4b/output_inception_4b/output_0_split -> inception_4b/output_inception_4b/output_0_split_2
I0403 15:38:15.568240 12166 net.cpp:399] inception_4b/output_inception_4b/output_0_split -> inception_4b/output_inception_4b/output_0_split_3
I0403 15:38:15.568327 12166 net.cpp:141] Setting up inception_4b/output_inception_4b/output_0_split
I0403 15:38:15.568351 12166 net.cpp:148] Top shape: 24 512 14 14 (2408448)
I0403 15:38:15.568367 12166 net.cpp:148] Top shape: 24 512 14 14 (2408448)
I0403 15:38:15.568383 12166 net.cpp:148] Top shape: 24 512 14 14 (2408448)
I0403 15:38:15.568408 12166 net.cpp:148] Top shape: 24 512 14 14 (2408448)
I0403 15:38:15.568423 12166 net.cpp:156] Memory required for data: 1028392224
I0403 15:38:15.568436 12166 layer_factory.hpp:77] Creating layer inception_4c/1x1
I0403 15:38:15.568457 12166 net.cpp:91] Creating Layer inception_4c/1x1
I0403 15:38:15.568475 12166 net.cpp:425] inception_4c/1x1 <- inception_4b/output_inception_4b/output_0_split_0
I0403 15:38:15.568495 12166 net.cpp:399] inception_4c/1x1 -> inception_4c/1x1
I0403 15:38:15.569968 12166 net.cpp:141] Setting up inception_4c/1x1
I0403 15:38:15.570000 12166 net.cpp:148] Top shape: 24 128 14 14 (602112)
I0403 15:38:15.570019 12166 net.cpp:156] Memory required for data: 1030800672
I0403 15:38:15.570037 12166 layer_factory.hpp:77] Creating layer inception_4c/relu_1x1
I0403 15:38:15.570055 12166 net.cpp:91] Creating Layer inception_4c/relu_1x1
I0403 15:38:15.570072 12166 net.cpp:425] inception_4c/relu_1x1 <- inception_4c/1x1
I0403 15:38:15.570091 12166 net.cpp:386] inception_4c/relu_1x1 -> inception_4c/1x1 (in-place)
I0403 15:38:15.570274 12166 net.cpp:141] Setting up inception_4c/relu_1x1
I0403 15:38:15.570299 12166 net.cpp:148] Top shape: 24 128 14 14 (602112)
I0403 15:38:15.570313 12166 net.cpp:156] Memory required for data: 1033209120
I0403 15:38:15.570336 12166 layer_factory.hpp:77] Creating layer inception_4c/3x3_reduce
I0403 15:38:15.570358 12166 net.cpp:91] Creating Layer inception_4c/3x3_reduce
I0403 15:38:15.570376 12166 net.cpp:425] inception_4c/3x3_reduce <- inception_4b/output_inception_4b/output_0_split_1
I0403 15:38:15.570397 12166 net.cpp:399] inception_4c/3x3_reduce -> inception_4c/3x3_reduce
I0403 15:38:15.572373 12166 net.cpp:141] Setting up inception_4c/3x3_reduce
I0403 15:38:15.572403 12166 net.cpp:148] Top shape: 24 128 14 14 (602112)
I0403 15:38:15.572422 12166 net.cpp:156] Memory required for data: 1035617568
I0403 15:38:15.572440 12166 layer_factory.hpp:77] Creating layer inception_4c/relu_3x3_reduce
I0403 15:38:15.572460 12166 net.cpp:91] Creating Layer inception_4c/relu_3x3_reduce
I0403 15:38:15.572479 12166 net.cpp:425] inception_4c/relu_3x3_reduce <- inception_4c/3x3_reduce
I0403 15:38:15.572497 12166 net.cpp:386] inception_4c/relu_3x3_reduce -> inception_4c/3x3_reduce (in-place)
I0403 15:38:15.572788 12166 net.cpp:141] Setting up inception_4c/relu_3x3_reduce
I0403 15:38:15.572815 12166 net.cpp:148] Top shape: 24 128 14 14 (602112)
I0403 15:38:15.572830 12166 net.cpp:156] Memory required for data: 1038026016
I0403 15:38:15.572845 12166 layer_factory.hpp:77] Creating layer inception_4c/3x3
I0403 15:38:15.572867 12166 net.cpp:91] Creating Layer inception_4c/3x3
I0403 15:38:15.572885 12166 net.cpp:425] inception_4c/3x3 <- inception_4c/3x3_reduce
I0403 15:38:15.572906 12166 net.cpp:399] inception_4c/3x3 -> inception_4c/3x3
I0403 15:38:15.576511 12166 net.cpp:141] Setting up inception_4c/3x3
I0403 15:38:15.576553 12166 net.cpp:148] Top shape: 24 256 14 14 (1204224)
I0403 15:38:15.576572 12166 net.cpp:156] Memory required for data: 1042842912
I0403 15:38:15.576604 12166 layer_factory.hpp:77] Creating layer inception_4c/relu_3x3
I0403 15:38:15.576628 12166 net.cpp:91] Creating Layer inception_4c/relu_3x3
I0403 15:38:15.576645 12166 net.cpp:425] inception_4c/relu_3x3 <- inception_4c/3x3
I0403 15:38:15.576664 12166 net.cpp:386] inception_4c/relu_3x3 -> inception_4c/3x3 (in-place)
I0403 15:38:15.576851 12166 net.cpp:141] Setting up inception_4c/relu_3x3
I0403 15:38:15.576877 12166 net.cpp:148] Top shape: 24 256 14 14 (1204224)
I0403 15:38:15.576894 12166 net.cpp:156] Memory required for data: 1047659808
I0403 15:38:15.576911 12166 layer_factory.hpp:77] Creating layer inception_4c/5x5_reduce
I0403 15:38:15.576938 12166 net.cpp:91] Creating Layer inception_4c/5x5_reduce
I0403 15:38:15.576956 12166 net.cpp:425] inception_4c/5x5_reduce <- inception_4b/output_inception_4b/output_0_split_2
I0403 15:38:15.576975 12166 net.cpp:399] inception_4c/5x5_reduce -> inception_4c/5x5_reduce
I0403 15:38:15.578064 12166 net.cpp:141] Setting up inception_4c/5x5_reduce
I0403 15:38:15.578094 12166 net.cpp:148] Top shape: 24 24 14 14 (112896)
I0403 15:38:15.578109 12166 net.cpp:156] Memory required for data: 1048111392
I0403 15:38:15.578129 12166 layer_factory.hpp:77] Creating layer inception_4c/relu_5x5_reduce
I0403 15:38:15.578150 12166 net.cpp:91] Creating Layer inception_4c/relu_5x5_reduce
I0403 15:38:15.578167 12166 net.cpp:425] inception_4c/relu_5x5_reduce <- inception_4c/5x5_reduce
I0403 15:38:15.578186 12166 net.cpp:386] inception_4c/relu_5x5_reduce -> inception_4c/5x5_reduce (in-place)
I0403 15:38:15.578377 12166 net.cpp:141] Setting up inception_4c/relu_5x5_reduce
I0403 15:38:15.578405 12166 net.cpp:148] Top shape: 24 24 14 14 (112896)
I0403 15:38:15.578420 12166 net.cpp:156] Memory required for data: 1048562976
I0403 15:38:15.578435 12166 layer_factory.hpp:77] Creating layer inception_4c/5x5
I0403 15:38:15.578457 12166 net.cpp:91] Creating Layer inception_4c/5x5
I0403 15:38:15.578474 12166 net.cpp:425] inception_4c/5x5 <- inception_4c/5x5_reduce
I0403 15:38:15.578493 12166 net.cpp:399] inception_4c/5x5 -> inception_4c/5x5
I0403 15:38:15.579737 12166 net.cpp:141] Setting up inception_4c/5x5
I0403 15:38:15.579768 12166 net.cpp:148] Top shape: 24 64 14 14 (301056)
I0403 15:38:15.579785 12166 net.cpp:156] Memory required for data: 1049767200
I0403 15:38:15.579804 12166 layer_factory.hpp:77] Creating layer inception_4c/relu_5x5
I0403 15:38:15.579823 12166 net.cpp:91] Creating Layer inception_4c/relu_5x5
I0403 15:38:15.579840 12166 net.cpp:425] inception_4c/relu_5x5 <- inception_4c/5x5
I0403 15:38:15.579861 12166 net.cpp:386] inception_4c/relu_5x5 -> inception_4c/5x5 (in-place)
I0403 15:38:15.580149 12166 net.cpp:141] Setting up inception_4c/relu_5x5
I0403 15:38:15.580179 12166 net.cpp:148] Top shape: 24 64 14 14 (301056)
I0403 15:38:15.580196 12166 net.cpp:156] Memory required for data: 1050971424
I0403 15:38:15.580212 12166 layer_factory.hpp:77] Creating layer inception_4c/pool
I0403 15:38:15.580231 12166 net.cpp:91] Creating Layer inception_4c/pool
I0403 15:38:15.580247 12166 net.cpp:425] inception_4c/pool <- inception_4b/output_inception_4b/output_0_split_3
I0403 15:38:15.580270 12166 net.cpp:399] inception_4c/pool -> inception_4c/pool
I0403 15:38:15.580343 12166 net.cpp:141] Setting up inception_4c/pool
I0403 15:38:15.580368 12166 net.cpp:148] Top shape: 24 512 14 14 (2408448)
I0403 15:38:15.580382 12166 net.cpp:156] Memory required for data: 1060605216
I0403 15:38:15.580397 12166 layer_factory.hpp:77] Creating layer inception_4c/pool_proj
I0403 15:38:15.580420 12166 net.cpp:91] Creating Layer inception_4c/pool_proj
I0403 15:38:15.580437 12166 net.cpp:425] inception_4c/pool_proj <- inception_4c/pool
I0403 15:38:15.580459 12166 net.cpp:399] inception_4c/pool_proj -> inception_4c/pool_proj
I0403 15:38:15.581686 12166 net.cpp:141] Setting up inception_4c/pool_proj
I0403 15:38:15.581715 12166 net.cpp:148] Top shape: 24 64 14 14 (301056)
I0403 15:38:15.581746 12166 net.cpp:156] Memory required for data: 1061809440
I0403 15:38:15.581766 12166 layer_factory.hpp:77] Creating layer inception_4c/relu_pool_proj
I0403 15:38:15.581789 12166 net.cpp:91] Creating Layer inception_4c/relu_pool_proj
I0403 15:38:15.581806 12166 net.cpp:425] inception_4c/relu_pool_proj <- inception_4c/pool_proj
I0403 15:38:15.581823 12166 net.cpp:386] inception_4c/relu_pool_proj -> inception_4c/pool_proj (in-place)
I0403 15:38:15.582010 12166 net.cpp:141] Setting up inception_4c/relu_pool_proj
I0403 15:38:15.582036 12166 net.cpp:148] Top shape: 24 64 14 14 (301056)
I0403 15:38:15.582051 12166 net.cpp:156] Memory required for data: 1063013664
I0403 15:38:15.582067 12166 layer_factory.hpp:77] Creating layer inception_4c/output
I0403 15:38:15.582083 12166 net.cpp:91] Creating Layer inception_4c/output
I0403 15:38:15.582098 12166 net.cpp:425] inception_4c/output <- inception_4c/1x1
I0403 15:38:15.582114 12166 net.cpp:425] inception_4c/output <- inception_4c/3x3
I0403 15:38:15.582130 12166 net.cpp:425] inception_4c/output <- inception_4c/5x5
I0403 15:38:15.582145 12166 net.cpp:425] inception_4c/output <- inception_4c/pool_proj
I0403 15:38:15.582165 12166 net.cpp:399] inception_4c/output -> inception_4c/output
I0403 15:38:15.582211 12166 net.cpp:141] Setting up inception_4c/output
I0403 15:38:15.582233 12166 net.cpp:148] Top shape: 24 512 14 14 (2408448)
I0403 15:38:15.582247 12166 net.cpp:156] Memory required for data: 1072647456
I0403 15:38:15.582262 12166 layer_factory.hpp:77] Creating layer inception_4c/output_inception_4c/output_0_split
I0403 15:38:15.582279 12166 net.cpp:91] Creating Layer inception_4c/output_inception_4c/output_0_split
I0403 15:38:15.582296 12166 net.cpp:425] inception_4c/output_inception_4c/output_0_split <- inception_4c/output
I0403 15:38:15.582314 12166 net.cpp:399] inception_4c/output_inception_4c/output_0_split -> inception_4c/output_inception_4c/output_0_split_0
I0403 15:38:15.582350 12166 net.cpp:399] inception_4c/output_inception_4c/output_0_split -> inception_4c/output_inception_4c/output_0_split_1
I0403 15:38:15.582370 12166 net.cpp:399] inception_4c/output_inception_4c/output_0_split -> inception_4c/output_inception_4c/output_0_split_2
I0403 15:38:15.582394 12166 net.cpp:399] inception_4c/output_inception_4c/output_0_split -> inception_4c/output_inception_4c/output_0_split_3
I0403 15:38:15.582481 12166 net.cpp:141] Setting up inception_4c/output_inception_4c/output_0_split
I0403 15:38:15.582504 12166 net.cpp:148] Top shape: 24 512 14 14 (2408448)
I0403 15:38:15.582520 12166 net.cpp:148] Top shape: 24 512 14 14 (2408448)
I0403 15:38:15.582535 12166 net.cpp:148] Top shape: 24 512 14 14 (2408448)
I0403 15:38:15.582551 12166 net.cpp:148] Top shape: 24 512 14 14 (2408448)
I0403 15:38:15.582564 12166 net.cpp:156] Memory required for data: 1111182624
I0403 15:38:15.582578 12166 layer_factory.hpp:77] Creating layer inception_4d/1x1
I0403 15:38:15.582599 12166 net.cpp:91] Creating Layer inception_4d/1x1
I0403 15:38:15.582617 12166 net.cpp:425] inception_4d/1x1 <- inception_4c/output_inception_4c/output_0_split_0
I0403 15:38:15.582638 12166 net.cpp:399] inception_4d/1x1 -> inception_4d/1x1
I0403 15:38:15.584040 12166 net.cpp:141] Setting up inception_4d/1x1
I0403 15:38:15.584069 12166 net.cpp:148] Top shape: 24 112 14 14 (526848)
I0403 15:38:15.584085 12166 net.cpp:156] Memory required for data: 1113290016
I0403 15:38:15.584103 12166 layer_factory.hpp:77] Creating layer inception_4d/relu_1x1
I0403 15:38:15.584125 12166 net.cpp:91] Creating Layer inception_4d/relu_1x1
I0403 15:38:15.584142 12166 net.cpp:425] inception_4d/relu_1x1 <- inception_4d/1x1
I0403 15:38:15.584161 12166 net.cpp:386] inception_4d/relu_1x1 -> inception_4d/1x1 (in-place)
I0403 15:38:15.584355 12166 net.cpp:141] Setting up inception_4d/relu_1x1
I0403 15:38:15.584381 12166 net.cpp:148] Top shape: 24 112 14 14 (526848)
I0403 15:38:15.584395 12166 net.cpp:156] Memory required for data: 1115397408
I0403 15:38:15.584410 12166 layer_factory.hpp:77] Creating layer inception_4d/3x3_reduce
I0403 15:38:15.584446 12166 net.cpp:91] Creating Layer inception_4d/3x3_reduce
I0403 15:38:15.584468 12166 net.cpp:425] inception_4d/3x3_reduce <- inception_4c/output_inception_4c/output_0_split_1
I0403 15:38:15.584489 12166 net.cpp:399] inception_4d/3x3_reduce -> inception_4d/3x3_reduce
I0403 15:38:15.586016 12166 net.cpp:141] Setting up inception_4d/3x3_reduce
I0403 15:38:15.586045 12166 net.cpp:148] Top shape: 24 144 14 14 (677376)
I0403 15:38:15.586062 12166 net.cpp:156] Memory required for data: 1118106912
I0403 15:38:15.586081 12166 layer_factory.hpp:77] Creating layer inception_4d/relu_3x3_reduce
I0403 15:38:15.586099 12166 net.cpp:91] Creating Layer inception_4d/relu_3x3_reduce
I0403 15:38:15.586117 12166 net.cpp:425] inception_4d/relu_3x3_reduce <- inception_4d/3x3_reduce
I0403 15:38:15.586138 12166 net.cpp:386] inception_4d/relu_3x3_reduce -> inception_4d/3x3_reduce (in-place)
I0403 15:38:15.586448 12166 net.cpp:141] Setting up inception_4d/relu_3x3_reduce
I0403 15:38:15.586477 12166 net.cpp:148] Top shape: 24 144 14 14 (677376)
I0403 15:38:15.586493 12166 net.cpp:156] Memory required for data: 1120816416
I0403 15:38:15.586508 12166 layer_factory.hpp:77] Creating layer inception_4d/3x3
I0403 15:38:15.586531 12166 net.cpp:91] Creating Layer inception_4d/3x3
I0403 15:38:15.586549 12166 net.cpp:425] inception_4d/3x3 <- inception_4d/3x3_reduce
I0403 15:38:15.586572 12166 net.cpp:399] inception_4d/3x3 -> inception_4d/3x3
I0403 15:38:15.590909 12166 net.cpp:141] Setting up inception_4d/3x3
I0403 15:38:15.590939 12166 net.cpp:148] Top shape: 24 288 14 14 (1354752)
I0403 15:38:15.590955 12166 net.cpp:156] Memory required for data: 1126235424
I0403 15:38:15.590975 12166 layer_factory.hpp:77] Creating layer inception_4d/relu_3x3
I0403 15:38:15.590994 12166 net.cpp:91] Creating Layer inception_4d/relu_3x3
I0403 15:38:15.591012 12166 net.cpp:425] inception_4d/relu_3x3 <- inception_4d/3x3
I0403 15:38:15.591030 12166 net.cpp:386] inception_4d/relu_3x3 -> inception_4d/3x3 (in-place)
I0403 15:38:15.591217 12166 net.cpp:141] Setting up inception_4d/relu_3x3
I0403 15:38:15.591243 12166 net.cpp:148] Top shape: 24 288 14 14 (1354752)
I0403 15:38:15.591262 12166 net.cpp:156] Memory required for data: 1131654432
I0403 15:38:15.591277 12166 layer_factory.hpp:77] Creating layer inception_4d/5x5_reduce
I0403 15:38:15.591296 12166 net.cpp:91] Creating Layer inception_4d/5x5_reduce
I0403 15:38:15.591313 12166 net.cpp:425] inception_4d/5x5_reduce <- inception_4c/output_inception_4c/output_0_split_2
I0403 15:38:15.591342 12166 net.cpp:399] inception_4d/5x5_reduce -> inception_4d/5x5_reduce
I0403 15:38:15.592504 12166 net.cpp:141] Setting up inception_4d/5x5_reduce
I0403 15:38:15.592535 12166 net.cpp:148] Top shape: 24 32 14 14 (150528)
I0403 15:38:15.592550 12166 net.cpp:156] Memory required for data: 1132256544
I0403 15:38:15.592568 12166 layer_factory.hpp:77] Creating layer inception_4d/relu_5x5_reduce
I0403 15:38:15.592588 12166 net.cpp:91] Creating Layer inception_4d/relu_5x5_reduce
I0403 15:38:15.592607 12166 net.cpp:425] inception_4d/relu_5x5_reduce <- inception_4d/5x5_reduce
I0403 15:38:15.592624 12166 net.cpp:386] inception_4d/relu_5x5_reduce -> inception_4d/5x5_reduce (in-place)
I0403 15:38:15.592816 12166 net.cpp:141] Setting up inception_4d/relu_5x5_reduce
I0403 15:38:15.592842 12166 net.cpp:148] Top shape: 24 32 14 14 (150528)
I0403 15:38:15.592857 12166 net.cpp:156] Memory required for data: 1132858656
I0403 15:38:15.592872 12166 layer_factory.hpp:77] Creating layer inception_4d/5x5
I0403 15:38:15.592895 12166 net.cpp:91] Creating Layer inception_4d/5x5
I0403 15:38:15.592914 12166 net.cpp:425] inception_4d/5x5 <- inception_4d/5x5_reduce
I0403 15:38:15.592933 12166 net.cpp:399] inception_4d/5x5 -> inception_4d/5x5
I0403 15:38:15.594434 12166 net.cpp:141] Setting up inception_4d/5x5
I0403 15:38:15.594461 12166 net.cpp:148] Top shape: 24 64 14 14 (301056)
I0403 15:38:15.594477 12166 net.cpp:156] Memory required for data: 1134062880
I0403 15:38:15.594496 12166 layer_factory.hpp:77] Creating layer inception_4d/relu_5x5
I0403 15:38:15.594530 12166 net.cpp:91] Creating Layer inception_4d/relu_5x5
I0403 15:38:15.594549 12166 net.cpp:425] inception_4d/relu_5x5 <- inception_4d/5x5
I0403 15:38:15.594568 12166 net.cpp:386] inception_4d/relu_5x5 -> inception_4d/5x5 (in-place)
I0403 15:38:15.594864 12166 net.cpp:141] Setting up inception_4d/relu_5x5
I0403 15:38:15.594889 12166 net.cpp:148] Top shape: 24 64 14 14 (301056)
I0403 15:38:15.594903 12166 net.cpp:156] Memory required for data: 1135267104
I0403 15:38:15.594918 12166 layer_factory.hpp:77] Creating layer inception_4d/pool
I0403 15:38:15.594938 12166 net.cpp:91] Creating Layer inception_4d/pool
I0403 15:38:15.594954 12166 net.cpp:425] inception_4d/pool <- inception_4c/output_inception_4c/output_0_split_3
I0403 15:38:15.594972 12166 net.cpp:399] inception_4d/pool -> inception_4d/pool
I0403 15:38:15.595036 12166 net.cpp:141] Setting up inception_4d/pool
I0403 15:38:15.595060 12166 net.cpp:148] Top shape: 24 512 14 14 (2408448)
I0403 15:38:15.595073 12166 net.cpp:156] Memory required for data: 1144900896
I0403 15:38:15.595088 12166 layer_factory.hpp:77] Creating layer inception_4d/pool_proj
I0403 15:38:15.595108 12166 net.cpp:91] Creating Layer inception_4d/pool_proj
I0403 15:38:15.595125 12166 net.cpp:425] inception_4d/pool_proj <- inception_4d/pool
I0403 15:38:15.595145 12166 net.cpp:399] inception_4d/pool_proj -> inception_4d/pool_proj
I0403 15:38:15.596869 12166 net.cpp:141] Setting up inception_4d/pool_proj
I0403 15:38:15.596899 12166 net.cpp:148] Top shape: 24 64 14 14 (301056)
I0403 15:38:15.596915 12166 net.cpp:156] Memory required for data: 1146105120
I0403 15:38:15.596931 12166 layer_factory.hpp:77] Creating layer inception_4d/relu_pool_proj
I0403 15:38:15.596952 12166 net.cpp:91] Creating Layer inception_4d/relu_pool_proj
I0403 15:38:15.596971 12166 net.cpp:425] inception_4d/relu_pool_proj <- inception_4d/pool_proj
I0403 15:38:15.596987 12166 net.cpp:386] inception_4d/relu_pool_proj -> inception_4d/pool_proj (in-place)
I0403 15:38:15.597169 12166 net.cpp:141] Setting up inception_4d/relu_pool_proj
I0403 15:38:15.597198 12166 net.cpp:148] Top shape: 24 64 14 14 (301056)
I0403 15:38:15.597213 12166 net.cpp:156] Memory required for data: 1147309344
I0403 15:38:15.597229 12166 layer_factory.hpp:77] Creating layer inception_4d/output
I0403 15:38:15.597246 12166 net.cpp:91] Creating Layer inception_4d/output
I0403 15:38:15.597264 12166 net.cpp:425] inception_4d/output <- inception_4d/1x1
I0403 15:38:15.597280 12166 net.cpp:425] inception_4d/output <- inception_4d/3x3
I0403 15:38:15.597295 12166 net.cpp:425] inception_4d/output <- inception_4d/5x5
I0403 15:38:15.597311 12166 net.cpp:425] inception_4d/output <- inception_4d/pool_proj
I0403 15:38:15.597337 12166 net.cpp:399] inception_4d/output -> inception_4d/output
I0403 15:38:15.597385 12166 net.cpp:141] Setting up inception_4d/output
I0403 15:38:15.597409 12166 net.cpp:148] Top shape: 24 528 14 14 (2483712)
I0403 15:38:15.597422 12166 net.cpp:156] Memory required for data: 1157244192
I0403 15:38:15.597436 12166 layer_factory.hpp:77] Creating layer inception_4d/output_inception_4d/output_0_split
I0403 15:38:15.597453 12166 net.cpp:91] Creating Layer inception_4d/output_inception_4d/output_0_split
I0403 15:38:15.597471 12166 net.cpp:425] inception_4d/output_inception_4d/output_0_split <- inception_4d/output
I0403 15:38:15.597488 12166 net.cpp:399] inception_4d/output_inception_4d/output_0_split -> inception_4d/output_inception_4d/output_0_split_0
I0403 15:38:15.597508 12166 net.cpp:399] inception_4d/output_inception_4d/output_0_split -> inception_4d/output_inception_4d/output_0_split_1
I0403 15:38:15.597527 12166 net.cpp:399] inception_4d/output_inception_4d/output_0_split -> inception_4d/output_inception_4d/output_0_split_2
I0403 15:38:15.597548 12166 net.cpp:399] inception_4d/output_inception_4d/output_0_split -> inception_4d/output_inception_4d/output_0_split_3
I0403 15:38:15.597566 12166 net.cpp:399] inception_4d/output_inception_4d/output_0_split -> inception_4d/output_inception_4d/output_0_split_4
I0403 15:38:15.597666 12166 net.cpp:141] Setting up inception_4d/output_inception_4d/output_0_split
I0403 15:38:15.597699 12166 net.cpp:148] Top shape: 24 528 14 14 (2483712)
I0403 15:38:15.597717 12166 net.cpp:148] Top shape: 24 528 14 14 (2483712)
I0403 15:38:15.597731 12166 net.cpp:148] Top shape: 24 528 14 14 (2483712)
I0403 15:38:15.597746 12166 net.cpp:148] Top shape: 24 528 14 14 (2483712)
I0403 15:38:15.597760 12166 net.cpp:148] Top shape: 24 528 14 14 (2483712)
I0403 15:38:15.597774 12166 net.cpp:156] Memory required for data: 1206918432
I0403 15:38:15.597787 12166 layer_factory.hpp:77] Creating layer loss2/ave_pool
I0403 15:38:15.597805 12166 net.cpp:91] Creating Layer loss2/ave_pool
I0403 15:38:15.597820 12166 net.cpp:425] loss2/ave_pool <- inception_4d/output_inception_4d/output_0_split_0
I0403 15:38:15.597841 12166 net.cpp:399] loss2/ave_pool -> loss2/ave_pool
I0403 15:38:15.598151 12166 net.cpp:141] Setting up loss2/ave_pool
I0403 15:38:15.598176 12166 net.cpp:148] Top shape: 24 528 4 4 (202752)
I0403 15:38:15.598191 12166 net.cpp:156] Memory required for data: 1207729440
I0403 15:38:15.598206 12166 layer_factory.hpp:77] Creating layer loss2/conv
I0403 15:38:15.598227 12166 net.cpp:91] Creating Layer loss2/conv
I0403 15:38:15.598244 12166 net.cpp:425] loss2/conv <- loss2/ave_pool
I0403 15:38:15.598265 12166 net.cpp:399] loss2/conv -> loss2/conv
I0403 15:38:15.600121 12166 net.cpp:141] Setting up loss2/conv
I0403 15:38:15.600152 12166 net.cpp:148] Top shape: 24 128 4 4 (49152)
I0403 15:38:15.600169 12166 net.cpp:156] Memory required for data: 1207926048
I0403 15:38:15.600188 12166 layer_factory.hpp:77] Creating layer loss2/relu_conv
I0403 15:38:15.600205 12166 net.cpp:91] Creating Layer loss2/relu_conv
I0403 15:38:15.600220 12166 net.cpp:425] loss2/relu_conv <- loss2/conv
I0403 15:38:15.600237 12166 net.cpp:386] loss2/relu_conv -> loss2/conv (in-place)
I0403 15:38:15.600538 12166 net.cpp:141] Setting up loss2/relu_conv
I0403 15:38:15.600564 12166 net.cpp:148] Top shape: 24 128 4 4 (49152)
I0403 15:38:15.600580 12166 net.cpp:156] Memory required for data: 1208122656
I0403 15:38:15.600595 12166 layer_factory.hpp:77] Creating layer loss2/fc
I0403 15:38:15.600613 12166 net.cpp:91] Creating Layer loss2/fc
I0403 15:38:15.600630 12166 net.cpp:425] loss2/fc <- loss2/conv
I0403 15:38:15.600649 12166 net.cpp:399] loss2/fc -> loss2/fc
I0403 15:38:15.617887 12166 net.cpp:141] Setting up loss2/fc
I0403 15:38:15.617918 12166 net.cpp:148] Top shape: 24 1024 (24576)
I0403 15:38:15.617935 12166 net.cpp:156] Memory required for data: 1208220960
I0403 15:38:15.617954 12166 layer_factory.hpp:77] Creating layer loss2/relu_fc
I0403 15:38:15.617975 12166 net.cpp:91] Creating Layer loss2/relu_fc
I0403 15:38:15.617993 12166 net.cpp:425] loss2/relu_fc <- loss2/fc
I0403 15:38:15.618010 12166 net.cpp:386] loss2/relu_fc -> loss2/fc (in-place)
I0403 15:38:15.618305 12166 net.cpp:141] Setting up loss2/relu_fc
I0403 15:38:15.618337 12166 net.cpp:148] Top shape: 24 1024 (24576)
I0403 15:38:15.618352 12166 net.cpp:156] Memory required for data: 1208319264
I0403 15:38:15.618366 12166 layer_factory.hpp:77] Creating layer loss2/drop_fc
I0403 15:38:15.618386 12166 net.cpp:91] Creating Layer loss2/drop_fc
I0403 15:38:15.618402 12166 net.cpp:425] loss2/drop_fc <- loss2/fc
I0403 15:38:15.618419 12166 net.cpp:386] loss2/drop_fc -> loss2/fc (in-place)
I0403 15:38:15.618469 12166 net.cpp:141] Setting up loss2/drop_fc
I0403 15:38:15.618491 12166 net.cpp:148] Top shape: 24 1024 (24576)
I0403 15:38:15.618505 12166 net.cpp:156] Memory required for data: 1208417568
I0403 15:38:15.618520 12166 layer_factory.hpp:77] Creating layer loss2/classifier_plantvillage
I0403 15:38:15.618536 12166 net.cpp:91] Creating Layer loss2/classifier_plantvillage
I0403 15:38:15.618551 12166 net.cpp:425] loss2/classifier_plantvillage <- loss2/fc
I0403 15:38:15.618571 12166 net.cpp:399] loss2/classifier_plantvillage -> loss2/classifier_plantvillage
I0403 15:38:15.618963 12166 net.cpp:141] Setting up loss2/classifier_plantvillage
I0403 15:38:15.618988 12166 net.cpp:148] Top shape: 24 38 (912)
I0403 15:38:15.619019 12166 net.cpp:156] Memory required for data: 1208421216
I0403 15:38:15.619035 12166 layer_factory.hpp:77] Creating layer loss2/classifier_plantvillage_loss2/classifier_plantvillage_0_split
I0403 15:38:15.619052 12166 net.cpp:91] Creating Layer loss2/classifier_plantvillage_loss2/classifier_plantvillage_0_split
I0403 15:38:15.619068 12166 net.cpp:425] loss2/classifier_plantvillage_loss2/classifier_plantvillage_0_split <- loss2/classifier_plantvillage
I0403 15:38:15.619086 12166 net.cpp:399] loss2/classifier_plantvillage_loss2/classifier_plantvillage_0_split -> loss2/classifier_plantvillage_loss2/classifier_plantvillage_0_split_0
I0403 15:38:15.619108 12166 net.cpp:399] loss2/classifier_plantvillage_loss2/classifier_plantvillage_0_split -> loss2/classifier_plantvillage_loss2/classifier_plantvillage_0_split_1
I0403 15:38:15.619129 12166 net.cpp:399] loss2/classifier_plantvillage_loss2/classifier_plantvillage_0_split -> loss2/classifier_plantvillage_loss2/classifier_plantvillage_0_split_2
I0403 15:38:15.619204 12166 net.cpp:141] Setting up loss2/classifier_plantvillage_loss2/classifier_plantvillage_0_split
I0403 15:38:15.619227 12166 net.cpp:148] Top shape: 24 38 (912)
I0403 15:38:15.619245 12166 net.cpp:148] Top shape: 24 38 (912)
I0403 15:38:15.619259 12166 net.cpp:148] Top shape: 24 38 (912)
I0403 15:38:15.619272 12166 net.cpp:156] Memory required for data: 1208432160
I0403 15:38:15.619287 12166 layer_factory.hpp:77] Creating layer inception_4e/1x1
I0403 15:38:15.619305 12166 net.cpp:91] Creating Layer inception_4e/1x1
I0403 15:38:15.619326 12166 net.cpp:425] inception_4e/1x1 <- inception_4d/output_inception_4d/output_0_split_1
I0403 15:38:15.619349 12166 net.cpp:399] inception_4e/1x1 -> inception_4e/1x1
I0403 15:38:15.621116 12166 net.cpp:141] Setting up inception_4e/1x1
I0403 15:38:15.621147 12166 net.cpp:148] Top shape: 24 256 14 14 (1204224)
I0403 15:38:15.621163 12166 net.cpp:156] Memory required for data: 1213249056
I0403 15:38:15.621181 12166 layer_factory.hpp:77] Creating layer inception_4e/relu_1x1
I0403 15:38:15.621201 12166 net.cpp:91] Creating Layer inception_4e/relu_1x1
I0403 15:38:15.621217 12166 net.cpp:425] inception_4e/relu_1x1 <- inception_4e/1x1
I0403 15:38:15.621238 12166 net.cpp:386] inception_4e/relu_1x1 -> inception_4e/1x1 (in-place)
I0403 15:38:15.621557 12166 net.cpp:141] Setting up inception_4e/relu_1x1
I0403 15:38:15.621585 12166 net.cpp:148] Top shape: 24 256 14 14 (1204224)
I0403 15:38:15.621603 12166 net.cpp:156] Memory required for data: 1218065952
I0403 15:38:15.621616 12166 layer_factory.hpp:77] Creating layer inception_4e/3x3_reduce
I0403 15:38:15.621639 12166 net.cpp:91] Creating Layer inception_4e/3x3_reduce
I0403 15:38:15.621668 12166 net.cpp:425] inception_4e/3x3_reduce <- inception_4d/output_inception_4d/output_0_split_2
I0403 15:38:15.621687 12166 net.cpp:399] inception_4e/3x3_reduce -> inception_4e/3x3_reduce
I0403 15:38:15.623752 12166 net.cpp:141] Setting up inception_4e/3x3_reduce
I0403 15:38:15.623783 12166 net.cpp:148] Top shape: 24 160 14 14 (752640)
I0403 15:38:15.623800 12166 net.cpp:156] Memory required for data: 1221076512
I0403 15:38:15.623818 12166 layer_factory.hpp:77] Creating layer inception_4e/relu_3x3_reduce
I0403 15:38:15.623836 12166 net.cpp:91] Creating Layer inception_4e/relu_3x3_reduce
I0403 15:38:15.623853 12166 net.cpp:425] inception_4e/relu_3x3_reduce <- inception_4e/3x3_reduce
I0403 15:38:15.623872 12166 net.cpp:386] inception_4e/relu_3x3_reduce -> inception_4e/3x3_reduce (in-place)
I0403 15:38:15.624054 12166 net.cpp:141] Setting up inception_4e/relu_3x3_reduce
I0403 15:38:15.624080 12166 net.cpp:148] Top shape: 24 160 14 14 (752640)
I0403 15:38:15.624097 12166 net.cpp:156] Memory required for data: 1224087072
I0403 15:38:15.624112 12166 layer_factory.hpp:77] Creating layer inception_4e/3x3
I0403 15:38:15.624135 12166 net.cpp:91] Creating Layer inception_4e/3x3
I0403 15:38:15.624151 12166 net.cpp:425] inception_4e/3x3 <- inception_4e/3x3_reduce
I0403 15:38:15.624169 12166 net.cpp:399] inception_4e/3x3 -> inception_4e/3x3
I0403 15:38:15.629189 12166 net.cpp:141] Setting up inception_4e/3x3
I0403 15:38:15.629230 12166 net.cpp:148] Top shape: 24 320 14 14 (1505280)
I0403 15:38:15.629247 12166 net.cpp:156] Memory required for data: 1230108192
I0403 15:38:15.629266 12166 layer_factory.hpp:77] Creating layer inception_4e/relu_3x3
I0403 15:38:15.629284 12166 net.cpp:91] Creating Layer inception_4e/relu_3x3
I0403 15:38:15.629299 12166 net.cpp:425] inception_4e/relu_3x3 <- inception_4e/3x3
I0403 15:38:15.629323 12166 net.cpp:386] inception_4e/relu_3x3 -> inception_4e/3x3 (in-place)
I0403 15:38:15.629626 12166 net.cpp:141] Setting up inception_4e/relu_3x3
I0403 15:38:15.629650 12166 net.cpp:148] Top shape: 24 320 14 14 (1505280)
I0403 15:38:15.629665 12166 net.cpp:156] Memory required for data: 1236129312
I0403 15:38:15.629680 12166 layer_factory.hpp:77] Creating layer inception_4e/5x5_reduce
I0403 15:38:15.629703 12166 net.cpp:91] Creating Layer inception_4e/5x5_reduce
I0403 15:38:15.629720 12166 net.cpp:425] inception_4e/5x5_reduce <- inception_4d/output_inception_4d/output_0_split_3
I0403 15:38:15.629740 12166 net.cpp:399] inception_4e/5x5_reduce -> inception_4e/5x5_reduce
I0403 15:38:15.630779 12166 net.cpp:141] Setting up inception_4e/5x5_reduce
I0403 15:38:15.630807 12166 net.cpp:148] Top shape: 24 32 14 14 (150528)
I0403 15:38:15.630822 12166 net.cpp:156] Memory required for data: 1236731424
I0403 15:38:15.630841 12166 layer_factory.hpp:77] Creating layer inception_4e/relu_5x5_reduce
I0403 15:38:15.630861 12166 net.cpp:91] Creating Layer inception_4e/relu_5x5_reduce
I0403 15:38:15.630877 12166 net.cpp:425] inception_4e/relu_5x5_reduce <- inception_4e/5x5_reduce
I0403 15:38:15.630895 12166 net.cpp:386] inception_4e/relu_5x5_reduce -> inception_4e/5x5_reduce (in-place)
I0403 15:38:15.631188 12166 net.cpp:141] Setting up inception_4e/relu_5x5_reduce
I0403 15:38:15.631216 12166 net.cpp:148] Top shape: 24 32 14 14 (150528)
I0403 15:38:15.631230 12166 net.cpp:156] Memory required for data: 1237333536
I0403 15:38:15.631247 12166 layer_factory.hpp:77] Creating layer inception_4e/5x5
I0403 15:38:15.631283 12166 net.cpp:91] Creating Layer inception_4e/5x5
I0403 15:38:15.631302 12166 net.cpp:425] inception_4e/5x5 <- inception_4e/5x5_reduce
I0403 15:38:15.631325 12166 net.cpp:399] inception_4e/5x5 -> inception_4e/5x5
I0403 15:38:15.633132 12166 net.cpp:141] Setting up inception_4e/5x5
I0403 15:38:15.633160 12166 net.cpp:148] Top shape: 24 128 14 14 (602112)
I0403 15:38:15.633177 12166 net.cpp:156] Memory required for data: 1239741984
I0403 15:38:15.633195 12166 layer_factory.hpp:77] Creating layer inception_4e/relu_5x5
I0403 15:38:15.633216 12166 net.cpp:91] Creating Layer inception_4e/relu_5x5
I0403 15:38:15.633231 12166 net.cpp:425] inception_4e/relu_5x5 <- inception_4e/5x5
I0403 15:38:15.633249 12166 net.cpp:386] inception_4e/relu_5x5 -> inception_4e/5x5 (in-place)
I0403 15:38:15.633450 12166 net.cpp:141] Setting up inception_4e/relu_5x5
I0403 15:38:15.633476 12166 net.cpp:148] Top shape: 24 128 14 14 (602112)
I0403 15:38:15.633491 12166 net.cpp:156] Memory required for data: 1242150432
I0403 15:38:15.633507 12166 layer_factory.hpp:77] Creating layer inception_4e/pool
I0403 15:38:15.633523 12166 net.cpp:91] Creating Layer inception_4e/pool
I0403 15:38:15.633538 12166 net.cpp:425] inception_4e/pool <- inception_4d/output_inception_4d/output_0_split_4
I0403 15:38:15.633555 12166 net.cpp:399] inception_4e/pool -> inception_4e/pool
I0403 15:38:15.633623 12166 net.cpp:141] Setting up inception_4e/pool
I0403 15:38:15.633646 12166 net.cpp:148] Top shape: 24 528 14 14 (2483712)
I0403 15:38:15.633661 12166 net.cpp:156] Memory required for data: 1252085280
I0403 15:38:15.633673 12166 layer_factory.hpp:77] Creating layer inception_4e/pool_proj
I0403 15:38:15.633694 12166 net.cpp:91] Creating Layer inception_4e/pool_proj
I0403 15:38:15.633711 12166 net.cpp:425] inception_4e/pool_proj <- inception_4e/pool
I0403 15:38:15.633731 12166 net.cpp:399] inception_4e/pool_proj -> inception_4e/pool_proj
I0403 15:38:15.635195 12166 net.cpp:141] Setting up inception_4e/pool_proj
I0403 15:38:15.635234 12166 net.cpp:148] Top shape: 24 128 14 14 (602112)
I0403 15:38:15.635251 12166 net.cpp:156] Memory required for data: 1254493728
I0403 15:38:15.635269 12166 layer_factory.hpp:77] Creating layer inception_4e/relu_pool_proj
I0403 15:38:15.635290 12166 net.cpp:91] Creating Layer inception_4e/relu_pool_proj
I0403 15:38:15.635308 12166 net.cpp:425] inception_4e/relu_pool_proj <- inception_4e/pool_proj
I0403 15:38:15.635334 12166 net.cpp:386] inception_4e/relu_pool_proj -> inception_4e/pool_proj (in-place)
I0403 15:38:15.635624 12166 net.cpp:141] Setting up inception_4e/relu_pool_proj
I0403 15:38:15.635649 12166 net.cpp:148] Top shape: 24 128 14 14 (602112)
I0403 15:38:15.635664 12166 net.cpp:156] Memory required for data: 1256902176
I0403 15:38:15.635679 12166 layer_factory.hpp:77] Creating layer inception_4e/output
I0403 15:38:15.635695 12166 net.cpp:91] Creating Layer inception_4e/output
I0403 15:38:15.635720 12166 net.cpp:425] inception_4e/output <- inception_4e/1x1
I0403 15:38:15.635735 12166 net.cpp:425] inception_4e/output <- inception_4e/3x3
I0403 15:38:15.635749 12166 net.cpp:425] inception_4e/output <- inception_4e/5x5
I0403 15:38:15.635764 12166 net.cpp:425] inception_4e/output <- inception_4e/pool_proj
I0403 15:38:15.635782 12166 net.cpp:399] inception_4e/output -> inception_4e/output
I0403 15:38:15.635833 12166 net.cpp:141] Setting up inception_4e/output
I0403 15:38:15.635855 12166 net.cpp:148] Top shape: 24 832 14 14 (3913728)
I0403 15:38:15.635869 12166 net.cpp:156] Memory required for data: 1272557088
I0403 15:38:15.635884 12166 layer_factory.hpp:77] Creating layer pool4/3x3_s2
I0403 15:38:15.635900 12166 net.cpp:91] Creating Layer pool4/3x3_s2
I0403 15:38:15.635915 12166 net.cpp:425] pool4/3x3_s2 <- inception_4e/output
I0403 15:38:15.635937 12166 net.cpp:399] pool4/3x3_s2 -> pool4/3x3_s2
I0403 15:38:15.636003 12166 net.cpp:141] Setting up pool4/3x3_s2
I0403 15:38:15.636026 12166 net.cpp:148] Top shape: 24 832 7 7 (978432)
I0403 15:38:15.636040 12166 net.cpp:156] Memory required for data: 1276470816
I0403 15:38:15.636054 12166 layer_factory.hpp:77] Creating layer pool4/3x3_s2_pool4/3x3_s2_0_split
I0403 15:38:15.636073 12166 net.cpp:91] Creating Layer pool4/3x3_s2_pool4/3x3_s2_0_split
I0403 15:38:15.636090 12166 net.cpp:425] pool4/3x3_s2_pool4/3x3_s2_0_split <- pool4/3x3_s2
I0403 15:38:15.636106 12166 net.cpp:399] pool4/3x3_s2_pool4/3x3_s2_0_split -> pool4/3x3_s2_pool4/3x3_s2_0_split_0
I0403 15:38:15.636127 12166 net.cpp:399] pool4/3x3_s2_pool4/3x3_s2_0_split -> pool4/3x3_s2_pool4/3x3_s2_0_split_1
I0403 15:38:15.636147 12166 net.cpp:399] pool4/3x3_s2_pool4/3x3_s2_0_split -> pool4/3x3_s2_pool4/3x3_s2_0_split_2
I0403 15:38:15.636168 12166 net.cpp:399] pool4/3x3_s2_pool4/3x3_s2_0_split -> pool4/3x3_s2_pool4/3x3_s2_0_split_3
I0403 15:38:15.636252 12166 net.cpp:141] Setting up pool4/3x3_s2_pool4/3x3_s2_0_split
I0403 15:38:15.636275 12166 net.cpp:148] Top shape: 24 832 7 7 (978432)
I0403 15:38:15.636291 12166 net.cpp:148] Top shape: 24 832 7 7 (978432)
I0403 15:38:15.636304 12166 net.cpp:148] Top shape: 24 832 7 7 (978432)
I0403 15:38:15.636325 12166 net.cpp:148] Top shape: 24 832 7 7 (978432)
I0403 15:38:15.636340 12166 net.cpp:156] Memory required for data: 1292125728
I0403 15:38:15.636354 12166 layer_factory.hpp:77] Creating layer inception_5a/1x1
I0403 15:38:15.636375 12166 net.cpp:91] Creating Layer inception_5a/1x1
I0403 15:38:15.636392 12166 net.cpp:425] inception_5a/1x1 <- pool4/3x3_s2_pool4/3x3_s2_0_split_0
I0403 15:38:15.636412 12166 net.cpp:399] inception_5a/1x1 -> inception_5a/1x1
I0403 15:38:15.639236 12166 net.cpp:141] Setting up inception_5a/1x1
I0403 15:38:15.639266 12166 net.cpp:148] Top shape: 24 256 7 7 (301056)
I0403 15:38:15.639281 12166 net.cpp:156] Memory required for data: 1293329952
I0403 15:38:15.639299 12166 layer_factory.hpp:77] Creating layer inception_5a/relu_1x1
I0403 15:38:15.639325 12166 net.cpp:91] Creating Layer inception_5a/relu_1x1
I0403 15:38:15.639343 12166 net.cpp:425] inception_5a/relu_1x1 <- inception_5a/1x1
I0403 15:38:15.639360 12166 net.cpp:386] inception_5a/relu_1x1 -> inception_5a/1x1 (in-place)
I0403 15:38:15.639683 12166 net.cpp:141] Setting up inception_5a/relu_1x1
I0403 15:38:15.639708 12166 net.cpp:148] Top shape: 24 256 7 7 (301056)
I0403 15:38:15.639724 12166 net.cpp:156] Memory required for data: 1294534176
I0403 15:38:15.639739 12166 layer_factory.hpp:77] Creating layer inception_5a/3x3_reduce
I0403 15:38:15.639760 12166 net.cpp:91] Creating Layer inception_5a/3x3_reduce
I0403 15:38:15.639777 12166 net.cpp:425] inception_5a/3x3_reduce <- pool4/3x3_s2_pool4/3x3_s2_0_split_1
I0403 15:38:15.639797 12166 net.cpp:399] inception_5a/3x3_reduce -> inception_5a/3x3_reduce
I0403 15:38:15.642184 12166 net.cpp:141] Setting up inception_5a/3x3_reduce
I0403 15:38:15.642212 12166 net.cpp:148] Top shape: 24 160 7 7 (188160)
I0403 15:38:15.642227 12166 net.cpp:156] Memory required for data: 1295286816
I0403 15:38:15.642246 12166 layer_factory.hpp:77] Creating layer inception_5a/relu_3x3_reduce
I0403 15:38:15.642263 12166 net.cpp:91] Creating Layer inception_5a/relu_3x3_reduce
I0403 15:38:15.642279 12166 net.cpp:425] inception_5a/relu_3x3_reduce <- inception_5a/3x3_reduce
I0403 15:38:15.642297 12166 net.cpp:386] inception_5a/relu_3x3_reduce -> inception_5a/3x3_reduce (in-place)
I0403 15:38:15.642513 12166 net.cpp:141] Setting up inception_5a/relu_3x3_reduce
I0403 15:38:15.642537 12166 net.cpp:148] Top shape: 24 160 7 7 (188160)
I0403 15:38:15.642554 12166 net.cpp:156] Memory required for data: 1296039456
I0403 15:38:15.642568 12166 layer_factory.hpp:77] Creating layer inception_5a/3x3
I0403 15:38:15.642590 12166 net.cpp:91] Creating Layer inception_5a/3x3
I0403 15:38:15.642619 12166 net.cpp:425] inception_5a/3x3 <- inception_5a/3x3_reduce
I0403 15:38:15.642640 12166 net.cpp:399] inception_5a/3x3 -> inception_5a/3x3
I0403 15:38:15.647708 12166 net.cpp:141] Setting up inception_5a/3x3
I0403 15:38:15.647739 12166 net.cpp:148] Top shape: 24 320 7 7 (376320)
I0403 15:38:15.647758 12166 net.cpp:156] Memory required for data: 1297544736
I0403 15:38:15.647778 12166 layer_factory.hpp:77] Creating layer inception_5a/relu_3x3
I0403 15:38:15.647799 12166 net.cpp:91] Creating Layer inception_5a/relu_3x3
I0403 15:38:15.647817 12166 net.cpp:425] inception_5a/relu_3x3 <- inception_5a/3x3
I0403 15:38:15.647835 12166 net.cpp:386] inception_5a/relu_3x3 -> inception_5a/3x3 (in-place)
I0403 15:38:15.648133 12166 net.cpp:141] Setting up inception_5a/relu_3x3
I0403 15:38:15.648161 12166 net.cpp:148] Top shape: 24 320 7 7 (376320)
I0403 15:38:15.648177 12166 net.cpp:156] Memory required for data: 1299050016
I0403 15:38:15.648193 12166 layer_factory.hpp:77] Creating layer inception_5a/5x5_reduce
I0403 15:38:15.648216 12166 net.cpp:91] Creating Layer inception_5a/5x5_reduce
I0403 15:38:15.648234 12166 net.cpp:425] inception_5a/5x5_reduce <- pool4/3x3_s2_pool4/3x3_s2_0_split_2
I0403 15:38:15.648257 12166 net.cpp:399] inception_5a/5x5_reduce -> inception_5a/5x5_reduce
I0403 15:38:15.649448 12166 net.cpp:141] Setting up inception_5a/5x5_reduce
I0403 15:38:15.649480 12166 net.cpp:148] Top shape: 24 32 7 7 (37632)
I0403 15:38:15.649499 12166 net.cpp:156] Memory required for data: 1299200544
I0403 15:38:15.649518 12166 layer_factory.hpp:77] Creating layer inception_5a/relu_5x5_reduce
I0403 15:38:15.649536 12166 net.cpp:91] Creating Layer inception_5a/relu_5x5_reduce
I0403 15:38:15.649554 12166 net.cpp:425] inception_5a/relu_5x5_reduce <- inception_5a/5x5_reduce
I0403 15:38:15.649571 12166 net.cpp:386] inception_5a/relu_5x5_reduce -> inception_5a/5x5_reduce (in-place)
I0403 15:38:15.649874 12166 net.cpp:141] Setting up inception_5a/relu_5x5_reduce
I0403 15:38:15.649905 12166 net.cpp:148] Top shape: 24 32 7 7 (37632)
I0403 15:38:15.649921 12166 net.cpp:156] Memory required for data: 1299351072
I0403 15:38:15.649936 12166 layer_factory.hpp:77] Creating layer inception_5a/5x5
I0403 15:38:15.649958 12166 net.cpp:91] Creating Layer inception_5a/5x5
I0403 15:38:15.649976 12166 net.cpp:425] inception_5a/5x5 <- inception_5a/5x5_reduce
I0403 15:38:15.649996 12166 net.cpp:399] inception_5a/5x5 -> inception_5a/5x5
I0403 15:38:15.651731 12166 net.cpp:141] Setting up inception_5a/5x5
I0403 15:38:15.651772 12166 net.cpp:148] Top shape: 24 128 7 7 (150528)
I0403 15:38:15.651787 12166 net.cpp:156] Memory required for data: 1299953184
I0403 15:38:15.651805 12166 layer_factory.hpp:77] Creating layer inception_5a/relu_5x5
I0403 15:38:15.651825 12166 net.cpp:91] Creating Layer inception_5a/relu_5x5
I0403 15:38:15.651842 12166 net.cpp:425] inception_5a/relu_5x5 <- inception_5a/5x5
I0403 15:38:15.651860 12166 net.cpp:386] inception_5a/relu_5x5 -> inception_5a/5x5 (in-place)
I0403 15:38:15.652053 12166 net.cpp:141] Setting up inception_5a/relu_5x5
I0403 15:38:15.652081 12166 net.cpp:148] Top shape: 24 128 7 7 (150528)
I0403 15:38:15.652096 12166 net.cpp:156] Memory required for data: 1300555296
I0403 15:38:15.652112 12166 layer_factory.hpp:77] Creating layer inception_5a/pool
I0403 15:38:15.652128 12166 net.cpp:91] Creating Layer inception_5a/pool
I0403 15:38:15.652144 12166 net.cpp:425] inception_5a/pool <- pool4/3x3_s2_pool4/3x3_s2_0_split_3
I0403 15:38:15.652164 12166 net.cpp:399] inception_5a/pool -> inception_5a/pool
I0403 15:38:15.652235 12166 net.cpp:141] Setting up inception_5a/pool
I0403 15:38:15.652258 12166 net.cpp:148] Top shape: 24 832 7 7 (978432)
I0403 15:38:15.652272 12166 net.cpp:156] Memory required for data: 1304469024
I0403 15:38:15.652287 12166 layer_factory.hpp:77] Creating layer inception_5a/pool_proj
I0403 15:38:15.652309 12166 net.cpp:91] Creating Layer inception_5a/pool_proj
I0403 15:38:15.652339 12166 net.cpp:425] inception_5a/pool_proj <- inception_5a/pool
I0403 15:38:15.652364 12166 net.cpp:399] inception_5a/pool_proj -> inception_5a/pool_proj
I0403 15:38:15.654711 12166 net.cpp:141] Setting up inception_5a/pool_proj
I0403 15:38:15.654742 12166 net.cpp:148] Top shape: 24 128 7 7 (150528)
I0403 15:38:15.654758 12166 net.cpp:156] Memory required for data: 1305071136
I0403 15:38:15.654778 12166 layer_factory.hpp:77] Creating layer inception_5a/relu_pool_proj
I0403 15:38:15.654798 12166 net.cpp:91] Creating Layer inception_5a/relu_pool_proj
I0403 15:38:15.654815 12166 net.cpp:425] inception_5a/relu_pool_proj <- inception_5a/pool_proj
I0403 15:38:15.654834 12166 net.cpp:386] inception_5a/relu_pool_proj -> inception_5a/pool_proj (in-place)
I0403 15:38:15.655146 12166 net.cpp:141] Setting up inception_5a/relu_pool_proj
I0403 15:38:15.655174 12166 net.cpp:148] Top shape: 24 128 7 7 (150528)
I0403 15:38:15.655189 12166 net.cpp:156] Memory required for data: 1305673248
I0403 15:38:15.655205 12166 layer_factory.hpp:77] Creating layer inception_5a/output
I0403 15:38:15.655225 12166 net.cpp:91] Creating Layer inception_5a/output
I0403 15:38:15.655242 12166 net.cpp:425] inception_5a/output <- inception_5a/1x1
I0403 15:38:15.655259 12166 net.cpp:425] inception_5a/output <- inception_5a/3x3
I0403 15:38:15.655275 12166 net.cpp:425] inception_5a/output <- inception_5a/5x5
I0403 15:38:15.655293 12166 net.cpp:425] inception_5a/output <- inception_5a/pool_proj
I0403 15:38:15.655310 12166 net.cpp:399] inception_5a/output -> inception_5a/output
I0403 15:38:15.655369 12166 net.cpp:141] Setting up inception_5a/output
I0403 15:38:15.655395 12166 net.cpp:148] Top shape: 24 832 7 7 (978432)
I0403 15:38:15.655411 12166 net.cpp:156] Memory required for data: 1309586976
I0403 15:38:15.655426 12166 layer_factory.hpp:77] Creating layer inception_5a/output_inception_5a/output_0_split
I0403 15:38:15.655442 12166 net.cpp:91] Creating Layer inception_5a/output_inception_5a/output_0_split
I0403 15:38:15.655457 12166 net.cpp:425] inception_5a/output_inception_5a/output_0_split <- inception_5a/output
I0403 15:38:15.655478 12166 net.cpp:399] inception_5a/output_inception_5a/output_0_split -> inception_5a/output_inception_5a/output_0_split_0
I0403 15:38:15.655499 12166 net.cpp:399] inception_5a/output_inception_5a/output_0_split -> inception_5a/output_inception_5a/output_0_split_1
I0403 15:38:15.655520 12166 net.cpp:399] inception_5a/output_inception_5a/output_0_split -> inception_5a/output_inception_5a/output_0_split_2
I0403 15:38:15.655541 12166 net.cpp:399] inception_5a/output_inception_5a/output_0_split -> inception_5a/output_inception_5a/output_0_split_3
I0403 15:38:15.655657 12166 net.cpp:141] Setting up inception_5a/output_inception_5a/output_0_split
I0403 15:38:15.655683 12166 net.cpp:148] Top shape: 24 832 7 7 (978432)
I0403 15:38:15.655701 12166 net.cpp:148] Top shape: 24 832 7 7 (978432)
I0403 15:38:15.655717 12166 net.cpp:148] Top shape: 24 832 7 7 (978432)
I0403 15:38:15.655732 12166 net.cpp:148] Top shape: 24 832 7 7 (978432)
I0403 15:38:15.655746 12166 net.cpp:156] Memory required for data: 1325241888
I0403 15:38:15.655761 12166 layer_factory.hpp:77] Creating layer inception_5b/1x1
I0403 15:38:15.655784 12166 net.cpp:91] Creating Layer inception_5b/1x1
I0403 15:38:15.655802 12166 net.cpp:425] inception_5b/1x1 <- inception_5a/output_inception_5a/output_0_split_0
I0403 15:38:15.655822 12166 net.cpp:399] inception_5b/1x1 -> inception_5b/1x1
I0403 15:38:15.659742 12166 net.cpp:141] Setting up inception_5b/1x1
I0403 15:38:15.659775 12166 net.cpp:148] Top shape: 24 384 7 7 (451584)
I0403 15:38:15.659791 12166 net.cpp:156] Memory required for data: 1327048224
I0403 15:38:15.659811 12166 layer_factory.hpp:77] Creating layer inception_5b/relu_1x1
I0403 15:38:15.659832 12166 net.cpp:91] Creating Layer inception_5b/relu_1x1
I0403 15:38:15.659848 12166 net.cpp:425] inception_5b/relu_1x1 <- inception_5b/1x1
I0403 15:38:15.659868 12166 net.cpp:386] inception_5b/relu_1x1 -> inception_5b/1x1 (in-place)
I0403 15:38:15.660197 12166 net.cpp:141] Setting up inception_5b/relu_1x1
I0403 15:38:15.660224 12166 net.cpp:148] Top shape: 24 384 7 7 (451584)
I0403 15:38:15.660240 12166 net.cpp:156] Memory required for data: 1328854560
I0403 15:38:15.660256 12166 layer_factory.hpp:77] Creating layer inception_5b/3x3_reduce
I0403 15:38:15.660280 12166 net.cpp:91] Creating Layer inception_5b/3x3_reduce
I0403 15:38:15.660300 12166 net.cpp:425] inception_5b/3x3_reduce <- inception_5a/output_inception_5a/output_0_split_1
I0403 15:38:15.660333 12166 net.cpp:399] inception_5b/3x3_reduce -> inception_5b/3x3_reduce
I0403 15:38:15.663099 12166 net.cpp:141] Setting up inception_5b/3x3_reduce
I0403 15:38:15.663130 12166 net.cpp:148] Top shape: 24 192 7 7 (225792)
I0403 15:38:15.663147 12166 net.cpp:156] Memory required for data: 1329757728
I0403 15:38:15.663166 12166 layer_factory.hpp:77] Creating layer inception_5b/relu_3x3_reduce
I0403 15:38:15.663188 12166 net.cpp:91] Creating Layer inception_5b/relu_3x3_reduce
I0403 15:38:15.663206 12166 net.cpp:425] inception_5b/relu_3x3_reduce <- inception_5b/3x3_reduce
I0403 15:38:15.663224 12166 net.cpp:386] inception_5b/relu_3x3_reduce -> inception_5b/3x3_reduce (in-place)
I0403 15:38:15.663429 12166 net.cpp:141] Setting up inception_5b/relu_3x3_reduce
I0403 15:38:15.663455 12166 net.cpp:148] Top shape: 24 192 7 7 (225792)
I0403 15:38:15.663471 12166 net.cpp:156] Memory required for data: 1330660896
I0403 15:38:15.663486 12166 layer_factory.hpp:77] Creating layer inception_5b/3x3
I0403 15:38:15.663511 12166 net.cpp:91] Creating Layer inception_5b/3x3
I0403 15:38:15.663528 12166 net.cpp:425] inception_5b/3x3 <- inception_5b/3x3_reduce
I0403 15:38:15.663548 12166 net.cpp:399] inception_5b/3x3 -> inception_5b/3x3
I0403 15:38:15.670501 12166 net.cpp:141] Setting up inception_5b/3x3
I0403 15:38:15.670532 12166 net.cpp:148] Top shape: 24 384 7 7 (451584)
I0403 15:38:15.670552 12166 net.cpp:156] Memory required for data: 1332467232
I0403 15:38:15.670570 12166 layer_factory.hpp:77] Creating layer inception_5b/relu_3x3
I0403 15:38:15.670590 12166 net.cpp:91] Creating Layer inception_5b/relu_3x3
I0403 15:38:15.670608 12166 net.cpp:425] inception_5b/relu_3x3 <- inception_5b/3x3
I0403 15:38:15.670626 12166 net.cpp:386] inception_5b/relu_3x3 -> inception_5b/3x3 (in-place)
I0403 15:38:15.670940 12166 net.cpp:141] Setting up inception_5b/relu_3x3
I0403 15:38:15.670969 12166 net.cpp:148] Top shape: 24 384 7 7 (451584)
I0403 15:38:15.670985 12166 net.cpp:156] Memory required for data: 1334273568
I0403 15:38:15.671000 12166 layer_factory.hpp:77] Creating layer inception_5b/5x5_reduce
I0403 15:38:15.671044 12166 net.cpp:91] Creating Layer inception_5b/5x5_reduce
I0403 15:38:15.671064 12166 net.cpp:425] inception_5b/5x5_reduce <- inception_5a/output_inception_5a/output_0_split_2
I0403 15:38:15.671087 12166 net.cpp:399] inception_5b/5x5_reduce -> inception_5b/5x5_reduce
I0403 15:38:15.672430 12166 net.cpp:141] Setting up inception_5b/5x5_reduce
I0403 15:38:15.672459 12166 net.cpp:148] Top shape: 24 48 7 7 (56448)
I0403 15:38:15.672477 12166 net.cpp:156] Memory required for data: 1334499360
I0403 15:38:15.672497 12166 layer_factory.hpp:77] Creating layer inception_5b/relu_5x5_reduce
I0403 15:38:15.672518 12166 net.cpp:91] Creating Layer inception_5b/relu_5x5_reduce
I0403 15:38:15.672536 12166 net.cpp:425] inception_5b/relu_5x5_reduce <- inception_5b/5x5_reduce
I0403 15:38:15.672555 12166 net.cpp:386] inception_5b/relu_5x5_reduce -> inception_5b/5x5_reduce (in-place)
I0403 15:38:15.672942 12166 net.cpp:141] Setting up inception_5b/relu_5x5_reduce
I0403 15:38:15.672971 12166 net.cpp:148] Top shape: 24 48 7 7 (56448)
I0403 15:38:15.672986 12166 net.cpp:156] Memory required for data: 1334725152
I0403 15:38:15.673001 12166 layer_factory.hpp:77] Creating layer inception_5b/5x5
I0403 15:38:15.673022 12166 net.cpp:91] Creating Layer inception_5b/5x5
I0403 15:38:15.673039 12166 net.cpp:425] inception_5b/5x5 <- inception_5b/5x5_reduce
I0403 15:38:15.673059 12166 net.cpp:399] inception_5b/5x5 -> inception_5b/5x5
I0403 15:38:15.675226 12166 net.cpp:141] Setting up inception_5b/5x5
I0403 15:38:15.675256 12166 net.cpp:148] Top shape: 24 128 7 7 (150528)
I0403 15:38:15.675276 12166 net.cpp:156] Memory required for data: 1335327264
I0403 15:38:15.675297 12166 layer_factory.hpp:77] Creating layer inception_5b/relu_5x5
I0403 15:38:15.675325 12166 net.cpp:91] Creating Layer inception_5b/relu_5x5
I0403 15:38:15.675354 12166 net.cpp:425] inception_5b/relu_5x5 <- inception_5b/5x5
I0403 15:38:15.675374 12166 net.cpp:386] inception_5b/relu_5x5 -> inception_5b/5x5 (in-place)
I0403 15:38:15.675580 12166 net.cpp:141] Setting up inception_5b/relu_5x5
I0403 15:38:15.675608 12166 net.cpp:148] Top shape: 24 128 7 7 (150528)
I0403 15:38:15.675624 12166 net.cpp:156] Memory required for data: 1335929376
I0403 15:38:15.675639 12166 layer_factory.hpp:77] Creating layer inception_5b/pool
I0403 15:38:15.675657 12166 net.cpp:91] Creating Layer inception_5b/pool
I0403 15:38:15.675673 12166 net.cpp:425] inception_5b/pool <- inception_5a/output_inception_5a/output_0_split_3
I0403 15:38:15.675694 12166 net.cpp:399] inception_5b/pool -> inception_5b/pool
I0403 15:38:15.675771 12166 net.cpp:141] Setting up inception_5b/pool
I0403 15:38:15.675796 12166 net.cpp:148] Top shape: 24 832 7 7 (978432)
I0403 15:38:15.675811 12166 net.cpp:156] Memory required for data: 1339843104
I0403 15:38:15.675824 12166 layer_factory.hpp:77] Creating layer inception_5b/pool_proj
I0403 15:38:15.675848 12166 net.cpp:91] Creating Layer inception_5b/pool_proj
I0403 15:38:15.675865 12166 net.cpp:425] inception_5b/pool_proj <- inception_5b/pool
I0403 15:38:15.675886 12166 net.cpp:399] inception_5b/pool_proj -> inception_5b/pool_proj
I0403 15:38:15.678287 12166 net.cpp:141] Setting up inception_5b/pool_proj
I0403 15:38:15.678323 12166 net.cpp:148] Top shape: 24 128 7 7 (150528)
I0403 15:38:15.678342 12166 net.cpp:156] Memory required for data: 1340445216
I0403 15:38:15.678362 12166 layer_factory.hpp:77] Creating layer inception_5b/relu_pool_proj
I0403 15:38:15.678383 12166 net.cpp:91] Creating Layer inception_5b/relu_pool_proj
I0403 15:38:15.678401 12166 net.cpp:425] inception_5b/relu_pool_proj <- inception_5b/pool_proj
I0403 15:38:15.678419 12166 net.cpp:386] inception_5b/relu_pool_proj -> inception_5b/pool_proj (in-place)
I0403 15:38:15.678731 12166 net.cpp:141] Setting up inception_5b/relu_pool_proj
I0403 15:38:15.678761 12166 net.cpp:148] Top shape: 24 128 7 7 (150528)
I0403 15:38:15.678777 12166 net.cpp:156] Memory required for data: 1341047328
I0403 15:38:15.678794 12166 layer_factory.hpp:77] Creating layer inception_5b/output
I0403 15:38:15.678812 12166 net.cpp:91] Creating Layer inception_5b/output
I0403 15:38:15.678844 12166 net.cpp:425] inception_5b/output <- inception_5b/1x1
I0403 15:38:15.678865 12166 net.cpp:425] inception_5b/output <- inception_5b/3x3
I0403 15:38:15.678884 12166 net.cpp:425] inception_5b/output <- inception_5b/5x5
I0403 15:38:15.678900 12166 net.cpp:425] inception_5b/output <- inception_5b/pool_proj
I0403 15:38:15.678917 12166 net.cpp:399] inception_5b/output -> inception_5b/output
I0403 15:38:15.678972 12166 net.cpp:141] Setting up inception_5b/output
I0403 15:38:15.678997 12166 net.cpp:148] Top shape: 24 1024 7 7 (1204224)
I0403 15:38:15.679013 12166 net.cpp:156] Memory required for data: 1345864224
I0403 15:38:15.679026 12166 layer_factory.hpp:77] Creating layer pool5/7x7_s1
I0403 15:38:15.679044 12166 net.cpp:91] Creating Layer pool5/7x7_s1
I0403 15:38:15.679061 12166 net.cpp:425] pool5/7x7_s1 <- inception_5b/output
I0403 15:38:15.679082 12166 net.cpp:399] pool5/7x7_s1 -> pool5/7x7_s1
I0403 15:38:15.679309 12166 net.cpp:141] Setting up pool5/7x7_s1
I0403 15:38:15.679342 12166 net.cpp:148] Top shape: 24 1024 1 1 (24576)
I0403 15:38:15.679358 12166 net.cpp:156] Memory required for data: 1345962528
I0403 15:38:15.679373 12166 layer_factory.hpp:77] Creating layer pool5/drop_7x7_s1
I0403 15:38:15.679394 12166 net.cpp:91] Creating Layer pool5/drop_7x7_s1
I0403 15:38:15.679410 12166 net.cpp:425] pool5/drop_7x7_s1 <- pool5/7x7_s1
I0403 15:38:15.679427 12166 net.cpp:386] pool5/drop_7x7_s1 -> pool5/7x7_s1 (in-place)
I0403 15:38:15.679481 12166 net.cpp:141] Setting up pool5/drop_7x7_s1
I0403 15:38:15.679505 12166 net.cpp:148] Top shape: 24 1024 1 1 (24576)
I0403 15:38:15.679520 12166 net.cpp:156] Memory required for data: 1346060832
I0403 15:38:15.679535 12166 layer_factory.hpp:77] Creating layer loss3/classifier_plantvillage
I0403 15:38:15.679555 12166 net.cpp:91] Creating Layer loss3/classifier_plantvillage
I0403 15:38:15.679572 12166 net.cpp:425] loss3/classifier_plantvillage <- pool5/7x7_s1
I0403 15:38:15.679594 12166 net.cpp:399] loss3/classifier_plantvillage -> loss3/classifier_plantvillage
I0403 15:38:15.680037 12166 net.cpp:141] Setting up loss3/classifier_plantvillage
I0403 15:38:15.680061 12166 net.cpp:148] Top shape: 24 38 (912)
I0403 15:38:15.680076 12166 net.cpp:156] Memory required for data: 1346064480
I0403 15:38:15.680095 12166 layer_factory.hpp:77] Creating layer loss3/classifier_plantvillage_loss3/classifier_plantvillage_0_split
I0403 15:38:15.680114 12166 net.cpp:91] Creating Layer loss3/classifier_plantvillage_loss3/classifier_plantvillage_0_split
I0403 15:38:15.680130 12166 net.cpp:425] loss3/classifier_plantvillage_loss3/classifier_plantvillage_0_split <- loss3/classifier_plantvillage
I0403 15:38:15.680150 12166 net.cpp:399] loss3/classifier_plantvillage_loss3/classifier_plantvillage_0_split -> loss3/classifier_plantvillage_loss3/classifier_plantvillage_0_split_0
I0403 15:38:15.680171 12166 net.cpp:399] loss3/classifier_plantvillage_loss3/classifier_plantvillage_0_split -> loss3/classifier_plantvillage_loss3/classifier_plantvillage_0_split_1
I0403 15:38:15.680191 12166 net.cpp:399] loss3/classifier_plantvillage_loss3/classifier_plantvillage_0_split -> loss3/classifier_plantvillage_loss3/classifier_plantvillage_0_split_2
I0403 15:38:15.680212 12166 net.cpp:399] loss3/classifier_plantvillage_loss3/classifier_plantvillage_0_split -> loss3/classifier_plantvillage_loss3/classifier_plantvillage_0_split_3
I0403 15:38:15.680325 12166 net.cpp:141] Setting up loss3/classifier_plantvillage_loss3/classifier_plantvillage_0_split
I0403 15:38:15.680349 12166 net.cpp:148] Top shape: 24 38 (912)
I0403 15:38:15.680366 12166 net.cpp:148] Top shape: 24 38 (912)
I0403 15:38:15.680382 12166 net.cpp:148] Top shape: 24 38 (912)
I0403 15:38:15.680397 12166 net.cpp:148] Top shape: 24 38 (912)
I0403 15:38:15.680410 12166 net.cpp:156] Memory required for data: 1346079072
I0403 15:38:15.680425 12166 layer_factory.hpp:77] Creating layer loss1/loss
I0403 15:38:15.680447 12166 net.cpp:91] Creating Layer loss1/loss
I0403 15:38:15.680465 12166 net.cpp:425] loss1/loss <- loss1/classifier_plantvillage_loss1/classifier_plantvillage_0_split_0
I0403 15:38:15.680496 12166 net.cpp:425] loss1/loss <- label_data_1_split_0
…
