…
I0403 14:55:28.651557 11399 net.cpp:313] The NetState phase (1) differed from the phase (0) specified by a rule in layer data
I0403 14:55:28.652763 11399 net.cpp:49] Initializing net from parameters: 
state {
  phase: TEST
}
layer {
  name: "data"
  type: "Data"
  top: "data"
  top: "label"
  include {
    phase: TEST
  }
  transform_param {
    mirror: false
    crop_size: 224
    mean_file: "/home/mohanty/data/final_dataset/lmdb/segmented-40-60/mean.binaryproto"
  }
  data_param {
    source: "/home/mohanty/data/final_dataset/lmdb/segmented-40-60/test_db"
    batch_size: 24
    backend: LMDB
  }
}
layer {
  name: "conv1/7x7_s2"
  type: "Convolution"
  bottom: "data"
  top: "conv1/7x7_s2"
  param {
    lr_mult: 1
    decay_mult: 1
  }
  param {
    lr_mult: 2
    decay_mult: 0
  }
  convolution_param {
    num_output: 64
    pad: 3
    kernel_size: 7
    stride: 2
    weight_filler {
      type: "xavier"
      std: 0.1
    }
    bias_filler {
      type: "constant"
      value: 0.2
    }
  }
}
layer {
  name: "conv1/relu_7x7"
  type: "ReLU"
  bottom: "conv1/7x7_s2"
  top: "conv1/7x7_s2"
}
layer {
  name: "pool1/3x3_s2"
  type: "Pooling"
  bottom: "conv1/7x7_s2"
  top: "pool1/3x3_s2"
  pooling_param {
    pool: MAX
    kernel_size: 3
    stride: 2
  }
}
layer {
  name: "pool1/norm1"
  type: "LRN"
  bottom: "pool1/3x3_s2"
  top: "pool1/norm1"
  lrn_param {
    local_size: 5
    alpha: 0.0001
    beta: 0.75
  }
}
layer {
  name: "conv2/3x3_reduce"
  type: "Convolution"
  bottom: "pool1/norm1"
  top: "conv2/3x3_reduce"
  param {
    lr_mult: 1
    decay_mult: 1
  }
  param {
    lr_mult: 2
    decay_mult: 0
  }
  convolution_param {
    num_output: 64
    kernel_size: 1
    weight_filler {
      type: "xavier"
      std: 0.1
    }
    bias_filler {
      type: "constant"
      value: 0.2
    }
  }
}
layer {
  name: "conv2/relu_3x3_reduce"
  type: "ReLU"
  bottom: "conv2/3x3_reduce"
  top: "conv2/3x3_reduce"
}
layer {
  name: "conv2/3x3"
  type: "Convolution"
  bottom: "conv2/3x3_reduce"
  top: "conv2/3x3"
  param {
    lr_mult: 1
    decay_mult: 1
  }
  param {
    lr_mult: 2
    decay_mult: 0
  }
  convolution_param {
    num_output: 192
    pad: 1
    kernel_size: 3
    weight_filler {
      type: "xavier"
      std: 0.03
    }
    bias_filler {
      type: "constant"
      value: 0.2
    }
  }
}
layer {
  name: "conv2/relu_3x3"
  type: "ReLU"
  bottom: "conv2/3x3"
  top: "conv2/3x3"
}
layer {
  name: "conv2/norm2"
  type: "LRN"
  bottom: "conv2/3x3"
  top: "conv2/norm2"
  lrn_param {
    local_size: 5
    alpha: 0.0001
    beta: 0.75
  }
}
layer {
  name: "pool2/3x3_s2"
  type: "Pooling"
  bottom: "conv2/norm2"
  top: "pool2/3x3_s2"
  pooling_param {
    pool: MAX
    kernel_size: 3
    stride: 2
  }
}
layer {
  name: "inception_3a/1x1"
  type: "Convolution"
  bottom: "pool2/3x3_s2"
  top: "inception_3a/1x1"
  param {
    lr_mult: 1
    decay_mult: 1
  }
  param {
    lr_mult: 2
    decay_mult: 0
  }
  convolution_param {
    num_output: 64
    kernel_size: 1
    weight_filler {
      type: "xavier"
      std: 0.03
    }
    bias_filler {
      type: "constant"
      value: 0.2
    }
  }
}
layer {
  name: "inception_3a/relu_1x1"
  type: "ReLU"
  bottom: "inception_3a/1x1"
  top: "inception_3a/1x1"
}
layer {
  name: "inception_3a/3x3_reduce"
  type: "Convolution"
  bottom: "pool2/3x3_s2"
  top: "inception_3a/3x3_reduce"
  param {
    lr_mult: 1
    decay_mult: 1
  }
  param {
    lr_mult: 2
    decay_mult: 0
  }
  convolution_param {
    num_output: 96
    kernel_size: 1
    weight_filler {
      type: "xavier"
      std: 0.09
    }
    bias_filler {
      type: "constant"
      value: 0.2
    }
  }
}
layer {
  name: "inception_3a/relu_3x3_reduce"
  type: "ReLU"
  bottom: "inception_3a/3x3_reduce"
  top: "inception_3a/3x3_reduce"
}
layer {
  name: "inception_3a/3x3"
  type: "Convolution"
  bottom: "inception_3a/3x3_reduce"
  top: "inception_3a/3x3"
  param {
    lr_mult: 1
    decay_mult: 1
  }
  param {
    lr_mult: 2
    decay_mult: 0
  }
  convolution_param {
    num_output: 128
    pad: 1
    kernel_size: 3
    weight_filler {
      type: "xavier"
      std: 0.03
    }
    bias_filler {
      type: "constant"
      value: 0.2
    }
  }
}
layer {
  name: "inception_3a/relu_3x3"
  type: "ReLU"
  bottom: "inception_3a/3x3"
  top: "inception_3a/3x3"
}
layer {
  name: "inception_3a/5x5_reduce"
  type: "Convolution"
  bottom: "pool2/3x3_s2"
  top: "inception_3a/5x5_reduce"
  param {
    lr_mult: 1
    decay_mult: 1
  }
  param {
    lr_mult: 2
    decay_mult: 0
  }
  convolution_param {
    num_output: 16
    kernel_size: 1
    weight_filler {
      type: "xavier"
      std: 0.2
    }
    bias_filler {
      type: "constant"
      value: 0.2
    }
  }
}
layer {
  name: "inception_3a/relu_5x5_reduce"
  type: "ReLU"
  bottom: "inception_3a/5x5_reduce"
  top: "inception_3a/5x5_reduce"
}
layer {
  name: "inception_3a/5x5"
  type: "Convolution"
  bottom: "inception_3a/5x5_reduce"
  top: "inception_3a/5x5"
  param {
    lr_mult: 1
    decay_mult: 1
  }
  param {
    lr_mult: 2
    decay_mult: 0
  }
  convolution_param {
    num_output: 32
    pad: 2
    kernel_size: 5
    weight_filler {
      type: "xavier"
      std: 0.03
    }
    bias_filler {
      type: "constant"
      value: 0.2
    }
  }
}
layer {
  name: "inception_3a/relu_5x5"
  type: "ReLU"
  bottom: "inception_3a/5x5"
  top: "inception_3a/5x5"
}
layer {
  name: "inception_3a/pool"
  type: "Pooling"
  bottom: "pool2/3x3_s2"
  top: "inception_3a/pool"
  pooling_param {
    pool: MAX
    kernel_size: 3
    stride: 1
    pad: 1
  }
}
layer {
  name: "inception_3a/pool_proj"
  type: "Convolution"
  bottom: "inception_3a/pool"
  top: "inception_3a/pool_proj"
  param {
    lr_mult: 1
    decay_mult: 1
  }
  param {
    lr_mult: 2
    decay_mult: 0
  }
  convolution_param {
    num_output: 32
    kernel_size: 1
    weight_filler {
      type: "xavier"
      std: 0.1
    }
    bias_filler {
      type: "constant"
      value: 0.2
    }
  }
}
layer {
  name: "inception_3a/relu_pool_proj"
  type: "ReLU"
  bottom: "inception_3a/pool_proj"
  top: "inception_3a/pool_proj"
}
layer {
  name: "inception_3a/output"
  type: "Concat"
  bottom: "inception_3a/1x1"
  bottom: "inception_3a/3x3"
  bottom: "inception_3a/5x5"
  bottom: "inception_3a/pool_proj"
  top: "inception_3a/output"
}
layer {
  name: "inception_3b/1x1"
  type: "Convolution"
  bottom: "inception_3a/output"
  top: "inception_3b/1x1"
  param {
    lr_mult: 1
    decay_mult: 1
  }
  param {
    lr_mult: 2
    decay_mult: 0
  }
  convolution_param {
    num_output: 128
    kernel_size: 1
    weight_filler {
      type: "xavier"
      std: 0.03
    }
    bias_filler {
      type: "constant"
      value: 0.2
    }
  }
}
layer {
  name: "inception_3b/relu_1x1"
  type: "ReLU"
  bottom: "inception_3b/1x1"
  top: "inception_3b/1x1"
}
layer {
  name: "inception_3b/3x3_reduce"
  type: "Convolution"
  bottom: "inception_3a/output"
  top: "inception_3b/3x3_reduce"
  param {
    lr_mult: 1
    decay_mult: 1
  }
  param {
    lr_mult: 2
    decay_mult: 0
  }
  convolution_param {
    num_output: 128
    kernel_size: 1
    weight_filler {
      type: "xavier"
      std: 0.09
    }
    bias_filler {
      type: "constant"
      value: 0.2
    }
  }
}
layer {
  name: "inception_3b/relu_3x3_reduce"
  type: "ReLU"
  bottom: "inception_3b/3x3_reduce"
  top: "inception_3b/3x3_reduce"
}
layer {
  name: "inception_3b/3x3"
  type: "Convolution"
  bottom: "inception_3b/3x3_reduce"
  top: "inception_3b/3x3"
  param {
    lr_mult: 1
    decay_mult: 1
  }
  param {
    lr_mult: 2
    decay_mult: 0
  }
  convolution_param {
    num_output: 192
    pad: 1
    kernel_size: 3
    weight_filler {
      type: "xavier"
      std: 0.03
    }
    bias_filler {
      type: "constant"
      value: 0.2
    }
  }
}
layer {
  name: "inception_3b/relu_3x3"
  type: "ReLU"
  bottom: "inception_3b/3x3"
  top: "inception_3b/3x3"
}
layer {
  name: "inception_3b/5x5_reduce"
  type: "Convolution"
  bottom: "inception_3a/output"
  top: "inception_3b/5x5_reduce"
  param {
    lr_mult: 1
    decay_mult: 1
  }
  param {
    lr_mult: 2
    decay_mult: 0
  }
  convolution_param {
    num_output: 32
    kernel_size: 1
    weight_filler {
      type: "xavier"
      std: 0.2
    }
    bias_filler {
      type: "constant"
      value: 0.2
    }
  }
}
layer {
  name: "inception_3b/relu_5x5_reduce"
  type: "ReLU"
  bottom: "inception_3b/5x5_reduce"
  top: "inception_3b/5x5_reduce"
}
layer {
  name: "inception_3b/5x5"
  type: "Convolution"
  bottom: "inception_3b/5x5_reduce"
  top: "inception_3b/5x5"
  param {
    lr_mult: 1
    decay_mult: 1
  }
  param {
    lr_mult: 2
    decay_mult: 0
  }
  convolution_param {
    num_output: 96
    pad: 2
    kernel_size: 5
    weight_filler {
      type: "xavier"
      std: 0.03
    }
    bias_filler {
      type: "constant"
      value: 0.2
    }
  }
}
layer {
  name: "inception_3b/relu_5x5"
  type: "ReLU"
  bottom: "inception_3b/5x5"
  top: "inception_3b/5x5"
}
layer {
  name: "inception_3b/pool"
  type: "Pooling"
  bottom: "inception_3a/output"
  top: "inception_3b/pool"
  pooling_param {
    pool: MAX
    kernel_size: 3
    stride: 1
    pad: 1
  }
}
layer {
  name: "inception_3b/pool_proj"
  type: "Convolution"
  bottom: "inception_3b/pool"
  top: "inception_3b/pool_proj"
  param {
    lr_mult: 1
    decay_mult: 1
  }
  param {
    lr_mult: 2
    decay_mult: 0
  }
  convolution_param {
    num_output: 64
    kernel_size: 1
    weight_filler {
      type: "xavier"
      std: 0.1
    }
    bias_filler {
      type: "constant"
      value: 0.2
    }
  }
}
layer {
  name: "inception_3b/relu_pool_proj"
  type: "ReLU"
  bottom: "inception_3b/pool_proj"
  top: "inception_3b/pool_proj"
}
layer {
  name: "inception_3b/output"
  type: "Concat"
  bottom: "inception_3b/1x1"
  bottom: "inception_3b/3x3"
  bottom: "inception_3b/5x5"
  bottom: "inception_3b/pool_proj"
  top: "inception_3b/output"
}
layer {
  name: "pool3/3x3_s2"
  type: "Pooling"
  bottom: "inception_3b/output"
  top: "pool3/3x3_s2"
  pooling_param {
    pool: MAX
    kernel_size: 3
    stride: 2
  }
}
layer {
  name: "inception_4a/1x1"
  type: "Convolution"
  bottom: "pool3/3x3_s2"
  top: "inception_4a/1x1"
  param {
    lr_mult: 1
    decay_mult: 1
  }
  param {
    lr_mult: 2
    decay_mult: 0
  }
  convolution_param {
    num_output: 192
    kernel_size: 1
    weight_filler {
      type: "xavier"
      std: 0.03
    }
    bias_filler {
      type: "constant"
      value: 0.2
    }
  }
}
layer {
  name: "inception_4a/relu_1x1"
  type: "ReLU"
  bottom: "inception_4a/1x1"
  top: "inception_4a/1x1"
}
layer {
  name: "inception_4a/3x3_reduce"
  type: "Convolution"
  bottom: "pool3/3x3_s2"
  top: "inception_4a/3x3_reduce"
  param {
    lr_mult: 1
    decay_mult: 1
  }
  param {
    lr_mult: 2
    decay_mult: 0
  }
  convolution_param {
    num_output: 96
    kernel_size: 1
    weight_filler {
      type: "xavier"
      std: 0.09
    }
    bias_filler {
      type: "constant"
      value: 0.2
    }
  }
}
layer {
  name: "inception_4a/relu_3x3_reduce"
  type: "ReLU"
  bottom: "inception_4a/3x3_reduce"
  top: "inception_4a/3x3_reduce"
}
layer {
  name: "inception_4a/3x3"
  type: "Convolution"
  bottom: "inception_4a/3x3_reduce"
  top: "inception_4a/3x3"
  param {
    lr_mult: 1
    decay_mult: 1
  }
  param {
    lr_mult: 2
    decay_mult: 0
  }
  convolution_param {
    num_output: 208
    pad: 1
    kernel_size: 3
    weight_filler {
      type: "xavier"
      std: 0.03
    }
    bias_filler {
      type: "constant"
      value: 0.2
    }
  }
}
layer {
  name: "inception_4a/relu_3x3"
  type: "ReLU"
  bottom: "inception_4a/3x3"
  top: "inception_4a/3x3"
}
layer {
  name: "inception_4a/5x5_reduce"
  type: "Convolution"
  bottom: "pool3/3x3_s2"
  top: "inception_4a/5x5_reduce"
  param {
    lr_mult: 1
    decay_mult: 1
  }
  param {
    lr_mult: 2
    decay_mult: 0
  }
  convolution_param {
    num_output: 16
    kernel_size: 1
    weight_filler {
      type: "xavier"
      std: 0.2
    }
    bias_filler {
      type: "constant"
      value: 0.2
    }
  }
}
layer {
  name: "inception_4a/relu_5x5_reduce"
  type: "ReLU"
  bottom: "inception_4a/5x5_reduce"
  top: "inception_4a/5x5_reduce"
}
layer {
  name: "inception_4a/5x5"
  type: "Convolution"
  bottom: "inception_4a/5x5_reduce"
  top: "inception_4a/5x5"
  param {
    lr_mult: 1
    decay_mult: 1
  }
  param {
    lr_mult: 2
    decay_mult: 0
  }
  convolution_param {
    num_output: 48
    pad: 2
    kernel_size: 5
    weight_filler {
      type: "xavier"
      std: 0.03
    }
    bias_filler {
      type: "constant"
      value: 0.2
    }
  }
}
layer {
  name: "inception_4a/relu_5x5"
  type: "ReLU"
  bottom: "inception_4a/5x5"
  top: "inception_4a/5x5"
}
layer {
  name: "inception_4a/pool"
  type: "Pooling"
  bottom: "pool3/3x3_s2"
  top: "inception_4a/pool"
  pooling_param {
    pool: MAX
    kernel_size: 3
    stride: 1
    pad: 1
  }
}
layer {
  name: "inception_4a/pool_proj"
  type: "Convolution"
  bottom: "inception_4a/pool"
  top: "inception_4a/pool_proj"
  param {
    lr_mult: 1
    decay_mult: 1
  }
  param {
    lr_mult: 2
    decay_mult: 0
  }
  convolution_param {
    num_output: 64
    kernel_size: 1
    weight_filler {
      type: "xavier"
      std: 0.1
    }
    bias_filler {
      type: "constant"
      value: 0.2
    }
  }
}
layer {
  name: "inception_4a/relu_pool_proj"
  type: "ReLU"
  bottom: "inception_4a/pool_proj"
  top: "inception_4a/pool_proj"
}
layer {
  name: "inception_4a/output"
  type: "Concat"
  bottom: "inception_4a/1x1"
  bottom: "inception_4a/3x3"
  bottom: "inception_4a/5x5"
  bottom: "inception_4a/pool_proj"
  top: "inception_4a/output"
}
layer {
  name: "loss1/ave_pool"
  type: "Pooling"
  bottom: "inception_4a/output"
  top: "loss1/ave_pool"
  pooling_param {
    pool: AVE
    kernel_size: 5
    stride: 3
  }
}
layer {
  name: "loss1/conv"
  type: "Convolution"
  bottom: "loss1/ave_pool"
  top: "loss1/conv"
  param {
    lr_mult: 1
    decay_mult: 1
  }
  param {
    lr_mult: 2
    decay_mult: 0
  }
  convolution_param {
    num_output: 128
    kernel_size: 1
    weight_filler {
      type: "xavier"
      std: 0.08
    }
    bias_filler {
      type: "constant"
      value: 0.2
    }
  }
}
layer {
  name: "loss1/relu_conv"
  type: "ReLU"
  bottom: "loss1/conv"
  top: "loss1/conv"
}
layer {
  name: "loss1/fc"
  type: "InnerProduct"
  bottom: "loss1/conv"
  top: "loss1/fc"
  param {
    lr_mult: 1
    decay_mult: 1
  }
  param {
    lr_mult: 2
    decay_mult: 0
  }
  inner_product_param {
    num_output: 1024
    weight_filler {
      type: "xavier"
      std: 0.02
    }
    bias_filler {
      type: "constant"
      value: 0.2
    }
  }
}
layer {
  name: "loss1/relu_fc"
  type: "ReLU"
  bottom: "loss1/fc"
  top: "loss1/fc"
}
layer {
  name: "loss1/drop_fc"
  type: "Dropout"
  bottom: "loss1/fc"
  top: "loss1/fc"
  dropout_param {
    dropout_ratio: 0.7
  }
}
layer {
  name: "loss1/classifier_plantvillage"
  type: "InnerProduct"
  bottom: "loss1/fc"
  top: "loss1/classifier_plantvillage"
  param {
    lr_mult: 1
    decay_mult: 1
  }
  param {
    lr_mult: 2
    decay_mult: 0
  }
  inner_product_param {
    num_output: 38
    weight_filler {
      type: "xavier"
      std: 0.0009765625
    }
    bias_filler {
      type: "constant"
      value: 0
    }
  }
}
layer {
  name: "inception_4b/1x1"
  type: "Convolution"
  bottom: "inception_4a/output"
  top: "inception_4b/1x1"
  param {
    lr_mult: 1
    decay_mult: 1
  }
  param {
    lr_mult: 2
    decay_mult: 0
  }
  convolution_param {
    num_output: 160
    kernel_size: 1
    weight_filler {
      type: "xavier"
      std: 0.03
    }
    bias_filler {
      type: "constant"
      value: 0.2
    }
  }
}
layer {
  name: "inception_4b/relu_1x1"
  type: "ReLU"
  bottom: "inception_4b/1x1"
  top: "inception_4b/1x1"
}
layer {
  name: "inception_4b/3x3_reduce"
  type: "Convolution"
  bottom: "inception_4a/output"
  top: "inception_4b/3x3_reduce"
  param {
    lr_mult: 1
    decay_mult: 1
  }
  param {
    lr_mult: 2
    decay_mult: 0
  }
  convolution_param {
    num_output: 112
    kernel_size: 1
    weight_filler {
      type: "xavier"
      std: 0.09
    }
    bias_filler {
      type: "constant"
      value: 0.2
    }
  }
}
layer {
  name: "inception_4b/relu_3x3_reduce"
  type: "ReLU"
  bottom: "inception_4b/3x3_reduce"
  top: "inception_4b/3x3_reduce"
}
layer {
  name: "inception_4b/3x3"
  type: "Convolution"
  bottom: "inception_4b/3x3_reduce"
  top: "inception_4b/3x3"
  param {
    lr_mult: 1
    decay_mult: 1
  }
  param {
    lr_mult: 2
    decay_mult: 0
  }
  convolution_param {
    num_output: 224
    pad: 1
    kernel_size: 3
    weight_filler {
      type: "xavier"
      std: 0.03
    }
    bias_filler {
      type: "constant"
      value: 0.2
    }
  }
}
layer {
  name: "inception_4b/relu_3x3"
  type: "ReLU"
  bottom: "inception_4b/3x3"
  top: "inception_4b/3x3"
}
layer {
  name: "inception_4b/5x5_reduce"
  type: "Convolution"
  bottom: "inception_4a/output"
  top: "inception_4b/5x5_reduce"
  param {
    lr_mult: 1
    decay_mult: 1
  }
  param {
    lr_mult: 2
    decay_mult: 0
  }
  convolution_param {
    num_output: 24
    kernel_size: 1
    weight_filler {
      type: "xavier"
      std: 0.2
    }
    bias_filler {
      type: "constant"
      value: 0.2
    }
  }
}
layer {
  name: "inception_4b/relu_5x5_reduce"
  type: "ReLU"
  bottom: "inception_4b/5x5_reduce"
  top: "inception_4b/5x5_reduce"
}
layer {
  name: "inception_4b/5x5"
  type: "Convolution"
  bottom: "inception_4b/5x5_reduce"
  top: "inception_4b/5x5"
  param {
    lr_mult: 1
    decay_mult: 1
  }
  param {
    lr_mult: 2
    decay_mult: 0
  }
  convolution_param {
    num_output: 64
    pad: 2
    kernel_size: 5
    weight_filler {
      type: "xavier"
      std: 0.03
    }
    bias_filler {
      type: "constant"
      value: 0.2
    }
  }
}
layer {
  name: "inception_4b/relu_5x5"
  type: "ReLU"
  bottom: "inception_4b/5x5"
  top: "inception_4b/5x5"
}
layer {
  name: "inception_4b/pool"
  type: "Pooling"
  bottom: "inception_4a/output"
  top: "inception_4b/pool"
  pooling_param {
    pool: MAX
    kernel_size: 3
    stride: 1
    pad: 1
  }
}
layer {
  name: "inception_4b/pool_proj"
  type: "Convolution"
  bottom: "inception_4b/pool"
  top: "inception_4b/pool_proj"
  param {
    lr_mult: 1
    decay_mult: 1
  }
  param {
    lr_mult: 2
    decay_mult: 0
  }
  convolution_param {
    num_output: 64
    kernel_size: 1
    weight_filler {
      type: "xavier"
      std: 0.1
    }
    bias_filler {
      type: "constant"
      value: 0.2
    }
  }
}
layer {
  name: "inception_4b/relu_pool_proj"
  type: "ReLU"
  bottom: "inception_4b/pool_proj"
  top: "inception_4b/pool_proj"
}
layer {
  name: "inception_4b/output"
  type: "Concat"
  bottom: "inception_4b/1x1"
  bottom: "inception_4b/3x3"
  bottom: "inception_4b/5x5"
  bottom: "inception_4b/pool_proj"
  top: "inception_4b/output"
}
layer {
  name: "inception_4c/1x1"
  type: "Convolution"
  bottom: "inception_4b/output"
  top: "inception_4c/1x1"
  param {
    lr_mult: 1
    decay_mult: 1
  }
  param {
    lr_mult: 2
    decay_mult: 0
  }
  convolution_param {
    num_output: 128
    kernel_size: 1
    weight_filler {
      type: "xavier"
      std: 0.03
    }
    bias_filler {
      type: "constant"
      value: 0.2
    }
  }
}
layer {
  name: "inception_4c/relu_1x1"
  type: "ReLU"
  bottom: "inception_4c/1x1"
  top: "inception_4c/1x1"
}
layer {
  name: "inception_4c/3x3_reduce"
  type: "Convolution"
  bottom: "inception_4b/output"
  top: "inception_4c/3x3_reduce"
  param {
    lr_mult: 1
    decay_mult: 1
  }
  param {
    lr_mult: 2
    decay_mult: 0
  }
  convolution_param {
    num_output: 128
    kernel_size: 1
    weight_filler {
      type: "xavier"
      std: 0.09
    }
    bias_filler {
      type: "constant"
      value: 0.2
    }
  }
}
layer {
  name: "inception_4c/relu_3x3_reduce"
  type: "ReLU"
  bottom: "inception_4c/3x3_reduce"
  top: "inception_4c/3x3_reduce"
}
layer {
  name: "inception_4c/3x3"
  type: "Convolution"
  bottom: "inception_4c/3x3_reduce"
  top: "inception_4c/3x3"
  param {
    lr_mult: 1
    decay_mult: 1
  }
  param {
    lr_mult: 2
    decay_mult: 0
  }
  convolution_param {
    num_output: 256
    pad: 1
    kernel_size: 3
    weight_filler {
      type: "xavier"
      std: 0.03
    }
    bias_filler {
      type: "constant"
      value: 0.2
    }
  }
}
layer {
  name: "inception_4c/relu_3x3"
  type: "ReLU"
  bottom: "inception_4c/3x3"
  top: "inception_4c/3x3"
}
layer {
  name: "inception_4c/5x5_reduce"
  type: "Convolution"
  bottom: "inception_4b/output"
  top: "inception_4c/5x5_reduce"
  param {
    lr_mult: 1
    decay_mult: 1
  }
  param {
    lr_mult: 2
    decay_mult: 0
  }
  convolution_param {
    num_output: 24
    kernel_size: 1
    weight_filler {
      type: "xavier"
      std: 0.2
    }
    bias_filler {
      type: "constant"
      value: 0.2
    }
  }
}
layer {
  name: "inception_4c/relu_5x5_reduce"
  type: "ReLU"
  bottom: "inception_4c/5x5_reduce"
  top: "inception_4c/5x5_reduce"
}
layer {
  name: "inception_4c/5x5"
  type: "Convolution"
  bottom: "inception_4c/5x5_reduce"
  top: "inception_4c/5x5"
  param {
    lr_mult: 1
    decay_mult: 1
  }
  param {
    lr_mult: 2
    decay_mult: 0
  }
  convolution_param {
    num_output: 64
    pad: 2
    kernel_size: 5
    weight_filler {
      type: "xavier"
      std: 0.03
    }
    bias_filler {
      type: "constant"
      value: 0.2
    }
  }
}
layer {
  name: "inception_4c/relu_5x5"
  type: "ReLU"
  bottom: "inception_4c/5x5"
  top: "inception_4c/5x5"
}
layer {
  name: "inception_4c/pool"
  type: "Pooling"
  bottom: "inception_4b/output"
  top: "inception_4c/pool"
  pooling_param {
    pool: MAX
    kernel_size: 3
    stride: 1
    pad: 1
  }
}
layer {
  name: "inception_4c/pool_proj"
  type: "Convolution"
  bottom: "inception_4c/pool"
  top: "inception_4c/pool_proj"
  param {
    lr_mult: 1
    decay_mult: 1
  }
  param {
    lr_mult: 2
    decay_mult: 0
  }
  convolution_param {
    num_output: 64
    kernel_size: 1
    weight_filler {
      type: "xavier"
      std: 0.1
    }
    bias_filler {
      type: "constant"
      value: 0.2
    }
  }
}
layer {
  name: "inception_4c/relu_pool_proj"
  type: "ReLU"
  bottom: "inception_4c/pool_proj"
  top: "inception_4c/pool_proj"
}
layer {
  name: "inception_4c/output"
  type: "Concat"
  bottom: "inception_4c/1x1"
  bottom: "inception_4c/3x3"
  bottom: "inception_4c/5x5"
  bottom: "inception_4c/pool_proj"
  top: "inception_4c/output"
}
layer {
  name: "inception_4d/1x1"
  type: "Convolution"
  bottom: "inception_4c/output"
  top: "inception_4d/1x1"
  param {
    lr_mult: 1
    decay_mult: 1
  }
  param {
    lr_mult: 2
    decay_mult: 0
  }
  convolution_param {
    num_output: 112
    kernel_size: 1
    weight_filler {
      type: "xavier"
      std: 0.03
    }
    bias_filler {
      type: "constant"
      value: 0.2
    }
  }
}
layer {
  name: "inception_4d/relu_1x1"
  type: "ReLU"
  bottom: "inception_4d/1x1"
  top: "inception_4d/1x1"
}
layer {
  name: "inception_4d/3x3_reduce"
  type: "Convolution"
  bottom: "inception_4c/output"
  top: "inception_4d/3x3_reduce"
  param {
    lr_mult: 1
    decay_mult: 1
  }
  param {
    lr_mult: 2
    decay_mult: 0
  }
  convolution_param {
    num_output: 144
    kernel_size: 1
    weight_filler {
      type: "xavier"
      std: 0.09
    }
    bias_filler {
      type: "constant"
      value: 0.2
    }
  }
}
layer {
  name: "inception_4d/relu_3x3_reduce"
  type: "ReLU"
  bottom: "inception_4d/3x3_reduce"
  top: "inception_4d/3x3_reduce"
}
layer {
  name: "inception_4d/3x3"
  type: "Convolution"
  bottom: "inception_4d/3x3_reduce"
  top: "inception_4d/3x3"
  param {
    lr_mult: 1
    decay_mult: 1
  }
  param {
    lr_mult: 2
    decay_mult: 0
  }
  convolution_param {
    num_output: 288
    pad: 1
    kernel_size: 3
    weight_filler {
      type: "xavier"
      std: 0.03
    }
    bias_filler {
      type: "constant"
      value: 0.2
    }
  }
}
layer {
  name: "inception_4d/relu_3x3"
  type: "ReLU"
  bottom: "inception_4d/3x3"
  top: "inception_4d/3x3"
}
layer {
  name: "inception_4d/5x5_reduce"
  type: "Convolution"
  bottom: "inception_4c/output"
  top: "inception_4d/5x5_reduce"
  param {
    lr_mult: 1
    decay_mult: 1
  }
  param {
    lr_mult: 2
    decay_mult: 0
  }
  convolution_param {
    num_output: 32
    kernel_size: 1
    weight_filler {
      type: "xavier"
      std: 0.2
    }
    bias_filler {
      type: "constant"
      value: 0.2
    }
  }
}
layer {
  name: "inception_4d/relu_5x5_reduce"
  type: "ReLU"
  bottom: "inception_4d/5x5_reduce"
  top: "inception_4d/5x5_reduce"
}
layer {
  name: "inception_4d/5x5"
  type: "Convolution"
  bottom: "inception_4d/5x5_reduce"
  top: "inception_4d/5x5"
  param {
    lr_mult: 1
    decay_mult: 1
  }
  param {
    lr_mult: 2
    decay_mult: 0
  }
  convolution_param {
    num_output: 64
    pad: 2
    kernel_size: 5
    weight_filler {
      type: "xavier"
      std: 0.03
    }
    bias_filler {
      type: "constant"
      value: 0.2
    }
  }
}
layer {
  name: "inception_4d/relu_5x5"
  type: "ReLU"
  bottom: "inception_4d/5x5"
  top: "inception_4d/5x5"
}
layer {
  name: "inception_4d/pool"
  type: "Pooling"
  bottom: "inception_4c/output"
  top: "inception_4d/pool"
  pooling_param {
    pool: MAX
    kernel_size: 3
    stride: 1
    pad: 1
  }
}
layer {
  name: "inception_4d/pool_proj"
  type: "Convolution"
  bottom: "inception_4d/pool"
  top: "inception_4d/pool_proj"
  param {
    lr_mult: 1
    decay_mult: 1
  }
  param {
    lr_mult: 2
    decay_mult: 0
  }
  convolution_param {
    num_output: 64
    kernel_size: 1
    weight_filler {
      type: "xavier"
      std: 0.1
    }
    bias_filler {
      type: "constant"
      value: 0.2
    }
  }
}
layer {
  name: "inception_4d/relu_pool_proj"
  type: "ReLU"
  bottom: "inception_4d/pool_proj"
  top: "inception_4d/pool_proj"
}
layer {
  name: "inception_4d/output"
  type: "Concat"
  bottom: "inception_4d/1x1"
  bottom: "inception_4d/3x3"
  bottom: "inception_4d/5x5"
  bottom: "inception_4d/pool_proj"
  top: "inception_4d/output"
}
layer {
  name: "loss2/ave_pool"
  type: "Pooling"
  bottom: "inception_4d/output"
  top: "loss2/ave_pool"
  pooling_param {
    pool: AVE
    kernel_size: 5
    stride: 3
  }
}
layer {
  name: "loss2/conv"
  type: "Convolution"
  bottom: "loss2/ave_pool"
  top: "loss2/conv"
  param {
    lr_mult: 1
    decay_mult: 1
  }
  param {
    lr_mult: 2
    decay_mult: 0
  }
  convolution_param {
    num_output: 128
    kernel_size: 1
    weight_filler {
      type: "xavier"
      std: 0.08
    }
    bias_filler {
      type: "constant"
      value: 0.2
    }
  }
}
layer {
  name: "loss2/relu_conv"
  type: "ReLU"
  bottom: "loss2/conv"
  top: "loss2/conv"
}
layer {
  name: "loss2/fc"
  type: "InnerProduct"
  bottom: "loss2/conv"
  top: "loss2/fc"
  param {
    lr_mult: 1
    decay_mult: 1
  }
  param {
    lr_mult: 2
    decay_mult: 0
  }
  inner_product_param {
    num_output: 1024
    weight_filler {
      type: "xavier"
      std: 0.02
    }
    bias_filler {
      type: "constant"
      value: 0.2
    }
  }
}
layer {
  name: "loss2/relu_fc"
  type: "ReLU"
  bottom: "loss2/fc"
  top: "loss2/fc"
}
layer {
  name: "loss2/drop_fc"
  type: "Dropout"
  bottom: "loss2/fc"
  top: "loss2/fc"
  dropout_param {
    dropout_ratio: 0.7
  }
}
layer {
  name: "loss2/classifier_plantvillage"
  type: "InnerProduct"
  bottom: "loss2/fc"
  top: "loss2/classifier_plantvillage"
  param {
    lr_mult: 1
    decay_mult: 1
  }
  param {
    lr_mult: 2
    decay_mult: 0
  }
  inner_product_param {
    num_output: 38
    weight_filler {
      type: "xavier"
      std: 0.0009765625
    }
    bias_filler {
      type: "constant"
      value: 0
    }
  }
}
layer {
  name: "inception_4e/1x1"
  type: "Convolution"
  bottom: "inception_4d/output"
  top: "inception_4e/1x1"
  param {
    lr_mult: 1
    decay_mult: 1
  }
  param {
    lr_mult: 2
    decay_mult: 0
  }
  convolution_param {
    num_output: 256
    kernel_size: 1
    weight_filler {
      type: "xavier"
      std: 0.03
    }
    bias_filler {
      type: "constant"
      value: 0.2
    }
  }
}
layer {
  name: "inception_4e/relu_1x1"
  type: "ReLU"
  bottom: "inception_4e/1x1"
  top: "inception_4e/1x1"
}
layer {
  name: "inception_4e/3x3_reduce"
  type: "Convolution"
  bottom: "inception_4d/output"
  top: "inception_4e/3x3_reduce"
  param {
    lr_mult: 1
    decay_mult: 1
  }
  param {
    lr_mult: 2
    decay_mult: 0
  }
  convolution_param {
    num_output: 160
    kernel_size: 1
    weight_filler {
      type: "xavier"
      std: 0.09
    }
    bias_filler {
      type: "constant"
      value: 0.2
    }
  }
}
layer {
  name: "inception_4e/relu_3x3_reduce"
  type: "ReLU"
  bottom: "inception_4e/3x3_reduce"
  top: "inception_4e/3x3_reduce"
}
layer {
  name: "inception_4e/3x3"
  type: "Convolution"
  bottom: "inception_4e/3x3_reduce"
  top: "inception_4e/3x3"
  param {
    lr_mult: 1
    decay_mult: 1
  }
  param {
    lr_mult: 2
    decay_mult: 0
  }
  convolution_param {
    num_output: 320
    pad: 1
    kernel_size: 3
    weight_filler {
      type: "xavier"
      std: 0.03
    }
    bias_filler {
      type: "constant"
      value: 0.2
    }
  }
}
layer {
  name: "inception_4e/relu_3x3"
  type: "ReLU"
  bottom: "inception_4e/3x3"
  top: "inception_4e/3x3"
}
layer {
  name: "inception_4e/5x5_reduce"
  type: "Convolution"
  bottom: "inception_4d/output"
  top: "inception_4e/5x5_reduce"
  param {
    lr_mult: 1
    decay_mult: 1
  }
  param {
    lr_mult: 2
    decay_mult: 0
  }
  convolution_param {
    num_output: 32
    kernel_size: 1
    weight_filler {
      type: "xavier"
      std: 0.2
    }
    bias_filler {
      type: "constant"
      value: 0.2
    }
  }
}
layer {
  name: "inception_4e/relu_5x5_reduce"
  type: "ReLU"
  bottom: "inception_4e/5x5_reduce"
  top: "inception_4e/5x5_reduce"
}
layer {
  name: "inception_4e/5x5"
  type: "Convolution"
  bottom: "inception_4e/5x5_reduce"
  top: "inception_4e/
I0403 14:55:28.654168 11399 layer_factory.hpp:77] Creating layer data
I0403 14:55:28.654772 11399 net.cpp:91] Creating Layer data
I0403 14:55:28.654803 11399 net.cpp:399] data -> data
I0403 14:55:28.654852 11399 net.cpp:399] data -> label
I0403 14:55:28.654887 11399 data_transformer.cpp:25] Loading mean file from: /home/mohanty/data/final_dataset/lmdb/segmented-40-60/mean.binaryproto
I0403 14:55:28.659772 11402 db_lmdb.cpp:38] Opened lmdb /home/mohanty/data/final_dataset/lmdb/segmented-40-60/test_db
I0403 14:55:28.668676 11399 data_layer.cpp:41] output data size: 24,3,224,224
I0403 14:55:28.695461 11399 net.cpp:141] Setting up data
I0403 14:55:28.695546 11399 net.cpp:148] Top shape: 24 3 224 224 (3612672)
I0403 14:55:28.695567 11399 net.cpp:148] Top shape: 24 (24)
I0403 14:55:28.695595 11399 net.cpp:156] Memory required for data: 14450784
I0403 14:55:28.695621 11399 layer_factory.hpp:77] Creating layer label_data_1_split
I0403 14:55:28.695649 11399 net.cpp:91] Creating Layer label_data_1_split
I0403 14:55:28.695667 11399 net.cpp:425] label_data_1_split <- label
I0403 14:55:28.695698 11399 net.cpp:399] label_data_1_split -> label_data_1_split_0
I0403 14:55:28.695726 11399 net.cpp:399] label_data_1_split -> label_data_1_split_1
I0403 14:55:28.695747 11399 net.cpp:399] label_data_1_split -> label_data_1_split_2
I0403 14:55:28.695767 11399 net.cpp:399] label_data_1_split -> label_data_1_split_3
I0403 14:55:28.695787 11399 net.cpp:399] label_data_1_split -> label_data_1_split_4
I0403 14:55:28.695807 11399 net.cpp:399] label_data_1_split -> label_data_1_split_5
I0403 14:55:28.695827 11399 net.cpp:399] label_data_1_split -> label_data_1_split_6
I0403 14:55:28.695847 11399 net.cpp:399] label_data_1_split -> label_data_1_split_7
I0403 14:55:28.695878 11399 net.cpp:399] label_data_1_split -> label_data_1_split_8
I0403 14:55:28.695897 11399 net.cpp:399] label_data_1_split -> label_data_1_split_9
I0403 14:55:28.696007 11399 net.cpp:141] Setting up label_data_1_split
I0403 14:55:28.696030 11399 net.cpp:148] Top shape: 24 (24)
I0403 14:55:28.696046 11399 net.cpp:148] Top shape: 24 (24)
I0403 14:55:28.696061 11399 net.cpp:148] Top shape: 24 (24)
I0403 14:55:28.696076 11399 net.cpp:148] Top shape: 24 (24)
I0403 14:55:28.696090 11399 net.cpp:148] Top shape: 24 (24)
I0403 14:55:28.696105 11399 net.cpp:148] Top shape: 24 (24)
I0403 14:55:28.696120 11399 net.cpp:148] Top shape: 24 (24)
I0403 14:55:28.696133 11399 net.cpp:148] Top shape: 24 (24)
I0403 14:55:28.696148 11399 net.cpp:148] Top shape: 24 (24)
I0403 14:55:28.696162 11399 net.cpp:148] Top shape: 24 (24)
I0403 14:55:28.696205 11399 net.cpp:156] Memory required for data: 14451744
I0403 14:55:28.696220 11399 layer_factory.hpp:77] Creating layer conv1/7x7_s2
I0403 14:55:28.696251 11399 net.cpp:91] Creating Layer conv1/7x7_s2
I0403 14:55:28.696269 11399 net.cpp:425] conv1/7x7_s2 <- data
I0403 14:55:28.696287 11399 net.cpp:399] conv1/7x7_s2 -> conv1/7x7_s2
I0403 14:55:28.835892 11399 net.cpp:141] Setting up conv1/7x7_s2
I0403 14:55:28.835973 11399 net.cpp:148] Top shape: 24 64 112 112 (19267584)
I0403 14:55:28.835988 11399 net.cpp:156] Memory required for data: 91522080
I0403 14:55:28.836017 11399 layer_factory.hpp:77] Creating layer conv1/relu_7x7
I0403 14:55:28.836045 11399 net.cpp:91] Creating Layer conv1/relu_7x7
I0403 14:55:28.836063 11399 net.cpp:425] conv1/relu_7x7 <- conv1/7x7_s2
I0403 14:55:28.836081 11399 net.cpp:386] conv1/relu_7x7 -> conv1/7x7_s2 (in-place)
I0403 14:55:28.836360 11399 net.cpp:141] Setting up conv1/relu_7x7
I0403 14:55:28.836387 11399 net.cpp:148] Top shape: 24 64 112 112 (19267584)
I0403 14:55:28.836401 11399 net.cpp:156] Memory required for data: 168592416
I0403 14:55:28.836416 11399 layer_factory.hpp:77] Creating layer pool1/3x3_s2
I0403 14:55:28.836441 11399 net.cpp:91] Creating Layer pool1/3x3_s2
I0403 14:55:28.836459 11399 net.cpp:425] pool1/3x3_s2 <- conv1/7x7_s2
I0403 14:55:28.836477 11399 net.cpp:399] pool1/3x3_s2 -> pool1/3x3_s2
I0403 14:55:28.836551 11399 net.cpp:141] Setting up pool1/3x3_s2
I0403 14:55:28.836575 11399 net.cpp:148] Top shape: 24 64 56 56 (4816896)
I0403 14:55:28.836588 11399 net.cpp:156] Memory required for data: 187860000
I0403 14:55:28.836601 11399 layer_factory.hpp:77] Creating layer pool1/norm1
I0403 14:55:28.836626 11399 net.cpp:91] Creating Layer pool1/norm1
I0403 14:55:28.836643 11399 net.cpp:425] pool1/norm1 <- pool1/3x3_s2
I0403 14:55:28.836660 11399 net.cpp:399] pool1/norm1 -> pool1/norm1
I0403 14:55:28.836957 11399 net.cpp:141] Setting up pool1/norm1
I0403 14:55:28.836984 11399 net.cpp:148] Top shape: 24 64 56 56 (4816896)
I0403 14:55:28.837002 11399 net.cpp:156] Memory required for data: 207127584
I0403 14:55:28.837015 11399 layer_factory.hpp:77] Creating layer conv2/3x3_reduce
I0403 14:55:28.837039 11399 net.cpp:91] Creating Layer conv2/3x3_reduce
I0403 14:55:28.837054 11399 net.cpp:425] conv2/3x3_reduce <- pool1/norm1
I0403 14:55:28.837075 11399 net.cpp:399] conv2/3x3_reduce -> conv2/3x3_reduce
I0403 14:55:28.838493 11399 net.cpp:141] Setting up conv2/3x3_reduce
I0403 14:55:28.838521 11399 net.cpp:148] Top shape: 24 64 56 56 (4816896)
I0403 14:55:28.838536 11399 net.cpp:156] Memory required for data: 226395168
I0403 14:55:28.838557 11399 layer_factory.hpp:77] Creating layer conv2/relu_3x3_reduce
I0403 14:55:28.838574 11399 net.cpp:91] Creating Layer conv2/relu_3x3_reduce
I0403 14:55:28.838589 11399 net.cpp:425] conv2/relu_3x3_reduce <- conv2/3x3_reduce
I0403 14:55:28.838608 11399 net.cpp:386] conv2/relu_3x3_reduce -> conv2/3x3_reduce (in-place)
I0403 14:55:28.838872 11399 net.cpp:141] Setting up conv2/relu_3x3_reduce
I0403 14:55:28.838897 11399 net.cpp:148] Top shape: 24 64 56 56 (4816896)
I0403 14:55:28.838912 11399 net.cpp:156] Memory required for data: 245662752
I0403 14:55:28.838924 11399 layer_factory.hpp:77] Creating layer conv2/3x3
I0403 14:55:28.838948 11399 net.cpp:91] Creating Layer conv2/3x3
I0403 14:55:28.838963 11399 net.cpp:425] conv2/3x3 <- conv2/3x3_reduce
I0403 14:55:28.838985 11399 net.cpp:399] conv2/3x3 -> conv2/3x3
I0403 14:55:28.841240 11399 net.cpp:141] Setting up conv2/3x3
I0403 14:55:28.841270 11399 net.cpp:148] Top shape: 24 192 56 56 (14450688)
I0403 14:55:28.841287 11399 net.cpp:156] Memory required for data: 303465504
I0403 14:55:28.841307 11399 layer_factory.hpp:77] Creating layer conv2/relu_3x3
I0403 14:55:28.841331 11399 net.cpp:91] Creating Layer conv2/relu_3x3
I0403 14:55:28.841347 11399 net.cpp:425] conv2/relu_3x3 <- conv2/3x3
I0403 14:55:28.841367 11399 net.cpp:386] conv2/relu_3x3 -> conv2/3x3 (in-place)
I0403 14:55:28.841545 11399 net.cpp:141] Setting up conv2/relu_3x3
I0403 14:55:28.841572 11399 net.cpp:148] Top shape: 24 192 56 56 (14450688)
I0403 14:55:28.841615 11399 net.cpp:156] Memory required for data: 361268256
I0403 14:55:28.841631 11399 layer_factory.hpp:77] Creating layer conv2/norm2
I0403 14:55:28.841648 11399 net.cpp:91] Creating Layer conv2/norm2
I0403 14:55:28.841665 11399 net.cpp:425] conv2/norm2 <- conv2/3x3
I0403 14:55:28.841686 11399 net.cpp:399] conv2/norm2 -> conv2/norm2
I0403 14:55:28.841989 11399 net.cpp:141] Setting up conv2/norm2
I0403 14:55:28.842015 11399 net.cpp:148] Top shape: 24 192 56 56 (14450688)
I0403 14:55:28.842031 11399 net.cpp:156] Memory required for data: 419071008
I0403 14:55:28.842044 11399 layer_factory.hpp:77] Creating layer pool2/3x3_s2
I0403 14:55:28.842061 11399 net.cpp:91] Creating Layer pool2/3x3_s2
I0403 14:55:28.842077 11399 net.cpp:425] pool2/3x3_s2 <- conv2/norm2
I0403 14:55:28.842095 11399 net.cpp:399] pool2/3x3_s2 -> pool2/3x3_s2
I0403 14:55:28.842149 11399 net.cpp:141] Setting up pool2/3x3_s2
I0403 14:55:28.842170 11399 net.cpp:148] Top shape: 24 192 28 28 (3612672)
I0403 14:55:28.842185 11399 net.cpp:156] Memory required for data: 433521696
I0403 14:55:28.842197 11399 layer_factory.hpp:77] Creating layer pool2/3x3_s2_pool2/3x3_s2_0_split
I0403 14:55:28.842216 11399 net.cpp:91] Creating Layer pool2/3x3_s2_pool2/3x3_s2_0_split
I0403 14:55:28.842232 11399 net.cpp:425] pool2/3x3_s2_pool2/3x3_s2_0_split <- pool2/3x3_s2
I0403 14:55:28.842249 11399 net.cpp:399] pool2/3x3_s2_pool2/3x3_s2_0_split -> pool2/3x3_s2_pool2/3x3_s2_0_split_0
I0403 14:55:28.842270 11399 net.cpp:399] pool2/3x3_s2_pool2/3x3_s2_0_split -> pool2/3x3_s2_pool2/3x3_s2_0_split_1
I0403 14:55:28.842290 11399 net.cpp:399] pool2/3x3_s2_pool2/3x3_s2_0_split -> pool2/3x3_s2_pool2/3x3_s2_0_split_2
I0403 14:55:28.842309 11399 net.cpp:399] pool2/3x3_s2_pool2/3x3_s2_0_split -> pool2/3x3_s2_pool2/3x3_s2_0_split_3
I0403 14:55:28.842382 11399 net.cpp:141] Setting up pool2/3x3_s2_pool2/3x3_s2_0_split
I0403 14:55:28.842404 11399 net.cpp:148] Top shape: 24 192 28 28 (3612672)
I0403 14:55:28.842420 11399 net.cpp:148] Top shape: 24 192 28 28 (3612672)
I0403 14:55:28.842435 11399 net.cpp:148] Top shape: 24 192 28 28 (3612672)
I0403 14:55:28.842450 11399 net.cpp:148] Top shape: 24 192 28 28 (3612672)
I0403 14:55:28.842463 11399 net.cpp:156] Memory required for data: 491324448
I0403 14:55:28.842476 11399 layer_factory.hpp:77] Creating layer inception_3a/1x1
I0403 14:55:28.842499 11399 net.cpp:91] Creating Layer inception_3a/1x1
I0403 14:55:28.842516 11399 net.cpp:425] inception_3a/1x1 <- pool2/3x3_s2_pool2/3x3_s2_0_split_0
I0403 14:55:28.842536 11399 net.cpp:399] inception_3a/1x1 -> inception_3a/1x1
I0403 14:55:28.844059 11399 net.cpp:141] Setting up inception_3a/1x1
I0403 14:55:28.844089 11399 net.cpp:148] Top shape: 24 64 28 28 (1204224)
I0403 14:55:28.844104 11399 net.cpp:156] Memory required for data: 496141344
I0403 14:55:28.844121 11399 layer_factory.hpp:77] Creating layer inception_3a/relu_1x1
I0403 14:55:28.844140 11399 net.cpp:91] Creating Layer inception_3a/relu_1x1
I0403 14:55:28.844157 11399 net.cpp:425] inception_3a/relu_1x1 <- inception_3a/1x1
I0403 14:55:28.844174 11399 net.cpp:386] inception_3a/relu_1x1 -> inception_3a/1x1 (in-place)
I0403 14:55:28.844354 11399 net.cpp:141] Setting up inception_3a/relu_1x1
I0403 14:55:28.844378 11399 net.cpp:148] Top shape: 24 64 28 28 (1204224)
I0403 14:55:28.844393 11399 net.cpp:156] Memory required for data: 500958240
I0403 14:55:28.844408 11399 layer_factory.hpp:77] Creating layer inception_3a/3x3_reduce
I0403 14:55:28.844429 11399 net.cpp:91] Creating Layer inception_3a/3x3_reduce
I0403 14:55:28.844445 11399 net.cpp:425] inception_3a/3x3_reduce <- pool2/3x3_s2_pool2/3x3_s2_0_split_1
I0403 14:55:28.844467 11399 net.cpp:399] inception_3a/3x3_reduce -> inception_3a/3x3_reduce
I0403 14:55:28.846175 11399 net.cpp:141] Setting up inception_3a/3x3_reduce
I0403 14:55:28.846205 11399 net.cpp:148] Top shape: 24 96 28 28 (1806336)
I0403 14:55:28.846221 11399 net.cpp:156] Memory required for data: 508183584
I0403 14:55:28.846242 11399 layer_factory.hpp:77] Creating layer inception_3a/relu_3x3_reduce
I0403 14:55:28.846282 11399 net.cpp:91] Creating Layer inception_3a/relu_3x3_reduce
I0403 14:55:28.846299 11399 net.cpp:425] inception_3a/relu_3x3_reduce <- inception_3a/3x3_reduce
I0403 14:55:28.846321 11399 net.cpp:386] inception_3a/relu_3x3_reduce -> inception_3a/3x3_reduce (in-place)
I0403 14:55:28.846513 11399 net.cpp:141] Setting up inception_3a/relu_3x3_reduce
I0403 14:55:28.846539 11399 net.cpp:148] Top shape: 24 96 28 28 (1806336)
I0403 14:55:28.846554 11399 net.cpp:156] Memory required for data: 515408928
I0403 14:55:28.846567 11399 layer_factory.hpp:77] Creating layer inception_3a/3x3
I0403 14:55:28.846590 11399 net.cpp:91] Creating Layer inception_3a/3x3
I0403 14:55:28.846611 11399 net.cpp:425] inception_3a/3x3 <- inception_3a/3x3_reduce
I0403 14:55:28.846635 11399 net.cpp:399] inception_3a/3x3 -> inception_3a/3x3
I0403 14:55:28.848315 11399 net.cpp:141] Setting up inception_3a/3x3
I0403 14:55:28.848366 11399 net.cpp:148] Top shape: 24 128 28 28 (2408448)
I0403 14:55:28.848382 11399 net.cpp:156] Memory required for data: 525042720
I0403 14:55:28.848402 11399 layer_factory.hpp:77] Creating layer inception_3a/relu_3x3
I0403 14:55:28.848423 11399 net.cpp:91] Creating Layer inception_3a/relu_3x3
I0403 14:55:28.848439 11399 net.cpp:425] inception_3a/relu_3x3 <- inception_3a/3x3
I0403 14:55:28.848456 11399 net.cpp:386] inception_3a/relu_3x3 -> inception_3a/3x3 (in-place)
I0403 14:55:28.848759 11399 net.cpp:141] Setting up inception_3a/relu_3x3
I0403 14:55:28.848786 11399 net.cpp:148] Top shape: 24 128 28 28 (2408448)
I0403 14:55:28.848801 11399 net.cpp:156] Memory required for data: 534676512
I0403 14:55:28.848815 11399 layer_factory.hpp:77] Creating layer inception_3a/5x5_reduce
I0403 14:55:28.848839 11399 net.cpp:91] Creating Layer inception_3a/5x5_reduce
I0403 14:55:28.848855 11399 net.cpp:425] inception_3a/5x5_reduce <- pool2/3x3_s2_pool2/3x3_s2_0_split_2
I0403 14:55:28.848876 11399 net.cpp:399] inception_3a/5x5_reduce -> inception_3a/5x5_reduce
I0403 14:55:28.849889 11399 net.cpp:141] Setting up inception_3a/5x5_reduce
I0403 14:55:28.849918 11399 net.cpp:148] Top shape: 24 16 28 28 (301056)
I0403 14:55:28.849933 11399 net.cpp:156] Memory required for data: 535880736
I0403 14:55:28.849952 11399 layer_factory.hpp:77] Creating layer inception_3a/relu_5x5_reduce
I0403 14:55:28.849973 11399 net.cpp:91] Creating Layer inception_3a/relu_5x5_reduce
I0403 14:55:28.849990 11399 net.cpp:425] inception_3a/relu_5x5_reduce <- inception_3a/5x5_reduce
I0403 14:55:28.850008 11399 net.cpp:386] inception_3a/relu_5x5_reduce -> inception_3a/5x5_reduce (in-place)
I0403 14:55:28.850333 11399 net.cpp:141] Setting up inception_3a/relu_5x5_reduce
I0403 14:55:28.850364 11399 net.cpp:148] Top shape: 24 16 28 28 (301056)
I0403 14:55:28.850380 11399 net.cpp:156] Memory required for data: 537084960
I0403 14:55:28.850396 11399 layer_factory.hpp:77] Creating layer inception_3a/5x5
I0403 14:55:28.850419 11399 net.cpp:91] Creating Layer inception_3a/5x5
I0403 14:55:28.850438 11399 net.cpp:425] inception_3a/5x5 <- inception_3a/5x5_reduce
I0403 14:55:28.850458 11399 net.cpp:399] inception_3a/5x5 -> inception_3a/5x5
I0403 14:55:28.851524 11399 net.cpp:141] Setting up inception_3a/5x5
I0403 14:55:28.851552 11399 net.cpp:148] Top shape: 24 32 28 28 (602112)
I0403 14:55:28.851567 11399 net.cpp:156] Memory required for data: 539493408
I0403 14:55:28.851585 11399 layer_factory.hpp:77] Creating layer inception_3a/relu_5x5
I0403 14:55:28.851609 11399 net.cpp:91] Creating Layer inception_3a/relu_5x5
I0403 14:55:28.851626 11399 net.cpp:425] inception_3a/relu_5x5 <- inception_3a/5x5
I0403 14:55:28.851644 11399 net.cpp:386] inception_3a/relu_5x5 -> inception_3a/5x5 (in-place)
I0403 14:55:28.851824 11399 net.cpp:141] Setting up inception_3a/relu_5x5
I0403 14:55:28.851848 11399 net.cpp:148] Top shape: 24 32 28 28 (602112)
I0403 14:55:28.851862 11399 net.cpp:156] Memory required for data: 541901856
I0403 14:55:28.851876 11399 layer_factory.hpp:77] Creating layer inception_3a/pool
I0403 14:55:28.851897 11399 net.cpp:91] Creating Layer inception_3a/pool
I0403 14:55:28.851927 11399 net.cpp:425] inception_3a/pool <- pool2/3x3_s2_pool2/3x3_s2_0_split_3
I0403 14:55:28.851945 11399 net.cpp:399] inception_3a/pool -> inception_3a/pool
I0403 14:55:28.852005 11399 net.cpp:141] Setting up inception_3a/pool
I0403 14:55:28.852028 11399 net.cpp:148] Top shape: 24 192 28 28 (3612672)
I0403 14:55:28.852042 11399 net.cpp:156] Memory required for data: 556352544
I0403 14:55:28.852056 11399 layer_factory.hpp:77] Creating layer inception_3a/pool_proj
I0403 14:55:28.852078 11399 net.cpp:91] Creating Layer inception_3a/pool_proj
I0403 14:55:28.852095 11399 net.cpp:425] inception_3a/pool_proj <- inception_3a/pool
I0403 14:55:28.852116 11399 net.cpp:399] inception_3a/pool_proj -> inception_3a/pool_proj
I0403 14:55:28.853101 11399 net.cpp:141] Setting up inception_3a/pool_proj
I0403 14:55:28.853132 11399 net.cpp:148] Top shape: 24 32 28 28 (602112)
I0403 14:55:28.853148 11399 net.cpp:156] Memory required for data: 558760992
I0403 14:55:28.853170 11399 layer_factory.hpp:77] Creating layer inception_3a/relu_pool_proj
I0403 14:55:28.853191 11399 net.cpp:91] Creating Layer inception_3a/relu_pool_proj
I0403 14:55:28.853209 11399 net.cpp:425] inception_3a/relu_pool_proj <- inception_3a/pool_proj
I0403 14:55:28.853225 11399 net.cpp:386] inception_3a/relu_pool_proj -> inception_3a/pool_proj (in-place)
I0403 14:55:28.853516 11399 net.cpp:141] Setting up inception_3a/relu_pool_proj
I0403 14:55:28.853543 11399 net.cpp:148] Top shape: 24 32 28 28 (602112)
I0403 14:55:28.853559 11399 net.cpp:156] Memory required for data: 561169440
I0403 14:55:28.853572 11399 layer_factory.hpp:77] Creating layer inception_3a/output
I0403 14:55:28.853590 11399 net.cpp:91] Creating Layer inception_3a/output
I0403 14:55:28.853610 11399 net.cpp:425] inception_3a/output <- inception_3a/1x1
I0403 14:55:28.853626 11399 net.cpp:425] inception_3a/output <- inception_3a/3x3
I0403 14:55:28.853642 11399 net.cpp:425] inception_3a/output <- inception_3a/5x5
I0403 14:55:28.853658 11399 net.cpp:425] inception_3a/output <- inception_3a/pool_proj
I0403 14:55:28.853674 11399 net.cpp:399] inception_3a/output -> inception_3a/output
I0403 14:55:28.853719 11399 net.cpp:141] Setting up inception_3a/output
I0403 14:55:28.853745 11399 net.cpp:148] Top shape: 24 256 28 28 (4816896)
I0403 14:55:28.853760 11399 net.cpp:156] Memory required for data: 580437024
I0403 14:55:28.853775 11399 layer_factory.hpp:77] Creating layer inception_3a/output_inception_3a/output_0_split
I0403 14:55:28.853792 11399 net.cpp:91] Creating Layer inception_3a/output_inception_3a/output_0_split
I0403 14:55:28.853807 11399 net.cpp:425] inception_3a/output_inception_3a/output_0_split <- inception_3a/output
I0403 14:55:28.853829 11399 net.cpp:399] inception_3a/output_inception_3a/output_0_split -> inception_3a/output_inception_3a/output_0_split_0
I0403 14:55:28.853850 11399 net.cpp:399] inception_3a/output_inception_3a/output_0_split -> inception_3a/output_inception_3a/output_0_split_1
I0403 14:55:28.853873 11399 net.cpp:399] inception_3a/output_inception_3a/output_0_split -> inception_3a/output_inception_3a/output_0_split_2
I0403 14:55:28.853893 11399 net.cpp:399] inception_3a/output_inception_3a/output_0_split -> inception_3a/output_inception_3a/output_0_split_3
I0403 14:55:28.853970 11399 net.cpp:141] Setting up inception_3a/output_inception_3a/output_0_split
I0403 14:55:28.853992 11399 net.cpp:148] Top shape: 24 256 28 28 (4816896)
I0403 14:55:28.854008 11399 net.cpp:148] Top shape: 24 256 28 28 (4816896)
I0403 14:55:28.854024 11399 net.cpp:148] Top shape: 24 256 28 28 (4816896)
I0403 14:55:28.854038 11399 net.cpp:148] Top shape: 24 256 28 28 (4816896)
I0403 14:55:28.854053 11399 net.cpp:156] Memory required for data: 657507360
I0403 14:55:28.854066 11399 layer_factory.hpp:77] Creating layer inception_3b/1x1
I0403 14:55:28.854089 11399 net.cpp:91] Creating Layer inception_3b/1x1
I0403 14:55:28.854105 11399 net.cpp:425] inception_3b/1x1 <- inception_3a/output_inception_3a/output_0_split_0
I0403 14:55:28.854126 11399 net.cpp:399] inception_3b/1x1 -> inception_3b/1x1
I0403 14:55:28.855293 11399 net.cpp:141] Setting up inception_3b/1x1
I0403 14:55:28.855339 11399 net.cpp:148] Top shape: 24 128 28 28 (2408448)
I0403 14:55:28.855355 11399 net.cpp:156] Memory required for data: 667141152
I0403 14:55:28.855375 11399 layer_factory.hpp:77] Creating layer inception_3b/relu_1x1
I0403 14:55:28.855391 11399 net.cpp:91] Creating Layer inception_3b/relu_1x1
I0403 14:55:28.855407 11399 net.cpp:425] inception_3b/relu_1x1 <- inception_3b/1x1
I0403 14:55:28.855427 11399 net.cpp:386] inception_3b/relu_1x1 -> inception_3b/1x1 (in-place)
I0403 14:55:28.855612 11399 net.cpp:141] Setting up inception_3b/relu_1x1
I0403 14:55:28.855636 11399 net.cpp:148] Top shape: 24 128 28 28 (2408448)
I0403 14:55:28.855651 11399 net.cpp:156] Memory required for data: 676774944
I0403 14:55:28.855666 11399 layer_factory.hpp:77] Creating layer inception_3b/3x3_reduce
I0403 14:55:28.855689 11399 net.cpp:91] Creating Layer inception_3b/3x3_reduce
I0403 14:55:28.855705 11399 net.cpp:425] inception_3b/3x3_reduce <- inception_3a/output_inception_3a/output_0_split_1
I0403 14:55:28.855727 11399 net.cpp:399] inception_3b/3x3_reduce -> inception_3b/3x3_reduce
I0403 14:55:28.859328 11399 net.cpp:141] Setting up inception_3b/3x3_reduce
I0403 14:55:28.859365 11399 net.cpp:148] Top shape: 24 128 28 28 (2408448)
I0403 14:55:28.859383 11399 net.cpp:156] Memory required for data: 686408736
I0403 14:55:28.859402 11399 layer_factory.hpp:77] Creating layer inception_3b/relu_3x3_reduce
I0403 14:55:28.859421 11399 net.cpp:91] Creating Layer inception_3b/relu_3x3_reduce
I0403 14:55:28.859437 11399 net.cpp:425] inception_3b/relu_3x3_reduce <- inception_3b/3x3_reduce
I0403 14:55:28.859457 11399 net.cpp:386] inception_3b/relu_3x3_reduce -> inception_3b/3x3_reduce (in-place)
I0403 14:55:28.859639 11399 net.cpp:141] Setting up inception_3b/relu_3x3_reduce
I0403 14:55:28.859664 11399 net.cpp:148] Top shape: 24 128 28 28 (2408448)
I0403 14:55:28.859679 11399 net.cpp:156] Memory required for data: 696042528
I0403 14:55:28.859694 11399 layer_factory.hpp:77] Creating layer inception_3b/3x3
I0403 14:55:28.859724 11399 net.cpp:91] Creating Layer inception_3b/3x3
I0403 14:55:28.859741 11399 net.cpp:425] inception_3b/3x3 <- inception_3b/3x3_reduce
I0403 14:55:28.859760 11399 net.cpp:399] inception_3b/3x3 -> inception_3b/3x3
I0403 14:55:28.862751 11399 net.cpp:141] Setting up inception_3b/3x3
I0403 14:55:28.862781 11399 net.cpp:148] Top shape: 24 192 28 28 (3612672)
I0403 14:55:28.862797 11399 net.cpp:156] Memory required for data: 710493216
I0403 14:55:28.862814 11399 layer_factory.hpp:77] Creating layer inception_3b/relu_3x3
I0403 14:55:28.862835 11399 net.cpp:91] Creating Layer inception_3b/relu_3x3
I0403 14:55:28.862851 11399 net.cpp:425] inception_3b/relu_3x3 <- inception_3b/3x3
I0403 14:55:28.862869 11399 net.cpp:386] inception_3b/relu_3x3 -> inception_3b/3x3 (in-place)
I0403 14:55:28.863152 11399 net.cpp:141] Setting up inception_3b/relu_3x3
I0403 14:55:28.863178 11399 net.cpp:148] Top shape: 24 192 28 28 (3612672)
I0403 14:55:28.863193 11399 net.cpp:156] Memory required for data: 724943904
I0403 14:55:28.863209 11399 layer_factory.hpp:77] Creating layer inception_3b/5x5_reduce
I0403 14:55:28.863230 11399 net.cpp:91] Creating Layer inception_3b/5x5_reduce
I0403 14:55:28.863248 11399 net.cpp:425] inception_3b/5x5_reduce <- inception_3a/output_inception_3a/output_0_split_2
I0403 14:55:28.863270 11399 net.cpp:399] inception_3b/5x5_reduce -> inception_3b/5x5_reduce
I0403 14:55:28.864351 11399 net.cpp:141] Setting up inception_3b/5x5_reduce
I0403 14:55:28.864379 11399 net.cpp:148] Top shape: 24 32 28 28 (602112)
I0403 14:55:28.864395 11399 net.cpp:156] Memory required for data: 727352352
I0403 14:55:28.864414 11399 layer_factory.hpp:77] Creating layer inception_3b/relu_5x5_reduce
I0403 14:55:28.864434 11399 net.cpp:91] Creating Layer inception_3b/relu_5x5_reduce
I0403 14:55:28.864451 11399 net.cpp:425] inception_3b/relu_5x5_reduce <- inception_3b/5x5_reduce
I0403 14:55:28.864493 11399 net.cpp:386] inception_3b/relu_5x5_reduce -> inception_3b/5x5_reduce (in-place)
I0403 14:55:28.864689 11399 net.cpp:141] Setting up inception_3b/relu_5x5_reduce
I0403 14:55:28.864714 11399 net.cpp:148] Top shape: 24 32 28 28 (602112)
I0403 14:55:28.864729 11399 net.cpp:156] Memory required for data: 729760800
I0403 14:55:28.864743 11399 layer_factory.hpp:77] Creating layer inception_3b/5x5
I0403 14:55:28.864776 11399 net.cpp:91] Creating Layer inception_3b/5x5
I0403 14:55:28.864794 11399 net.cpp:425] inception_3b/5x5 <- inception_3b/5x5_reduce
I0403 14:55:28.864811 11399 net.cpp:399] inception_3b/5x5 -> inception_3b/5x5
I0403 14:55:28.866776 11399 net.cpp:141] Setting up inception_3b/5x5
I0403 14:55:28.866807 11399 net.cpp:148] Top shape: 24 96 28 28 (1806336)
I0403 14:55:28.866824 11399 net.cpp:156] Memory required for data: 736986144
I0403 14:55:28.866842 11399 layer_factory.hpp:77] Creating layer inception_3b/relu_5x5
I0403 14:55:28.866860 11399 net.cpp:91] Creating Layer inception_3b/relu_5x5
I0403 14:55:28.866875 11399 net.cpp:425] inception_3b/relu_5x5 <- inception_3b/5x5
I0403 14:55:28.866894 11399 net.cpp:386] inception_3b/relu_5x5 -> inception_3b/5x5 (in-place)
I0403 14:55:28.867089 11399 net.cpp:141] Setting up inception_3b/relu_5x5
I0403 14:55:28.867112 11399 net.cpp:148] Top shape: 24 96 28 28 (1806336)
I0403 14:55:28.867126 11399 net.cpp:156] Memory required for data: 744211488
I0403 14:55:28.867141 11399 layer_factory.hpp:77] Creating layer inception_3b/pool
I0403 14:55:28.867157 11399 net.cpp:91] Creating Layer inception_3b/pool
I0403 14:55:28.867172 11399 net.cpp:425] inception_3b/pool <- inception_3a/output_inception_3a/output_0_split_3
I0403 14:55:28.867190 11399 net.cpp:399] inception_3b/pool -> inception_3b/pool
I0403 14:55:28.867249 11399 net.cpp:141] Setting up inception_3b/pool
I0403 14:55:28.867270 11399 net.cpp:148] Top shape: 24 256 28 28 (4816896)
I0403 14:55:28.867285 11399 net.cpp:156] Memory required for data: 763479072
I0403 14:55:28.867298 11399 layer_factory.hpp:77] Creating layer inception_3b/pool_proj
I0403 14:55:28.867323 11399 net.cpp:91] Creating Layer inception_3b/pool_proj
I0403 14:55:28.867341 11399 net.cpp:425] inception_3b/pool_proj <- inception_3b/pool
I0403 14:55:28.867362 11399 net.cpp:399] inception_3b/pool_proj -> inception_3b/pool_proj
I0403 14:55:28.868413 11399 net.cpp:141] Setting up inception_3b/pool_proj
I0403 14:55:28.868441 11399 net.cpp:148] Top shape: 24 64 28 28 (1204224)
I0403 14:55:28.868456 11399 net.cpp:156] Memory required for data: 768295968
I0403 14:55:28.868474 11399 layer_factory.hpp:77] Creating layer inception_3b/relu_pool_proj
I0403 14:55:28.868494 11399 net.cpp:91] Creating Layer inception_3b/relu_pool_proj
I0403 14:55:28.868510 11399 net.cpp:425] inception_3b/relu_pool_proj <- inception_3b/pool_proj
I0403 14:55:28.868527 11399 net.cpp:386] inception_3b/relu_pool_proj -> inception_3b/pool_proj (in-place)
I0403 14:55:28.868921 11399 net.cpp:141] Setting up inception_3b/relu_pool_proj
I0403 14:55:28.868947 11399 net.cpp:148] Top shape: 24 64 28 28 (1204224)
I0403 14:55:28.868962 11399 net.cpp:156] Memory required for data: 773112864
I0403 14:55:28.868975 11399 layer_factory.hpp:77] Creating layer inception_3b/output
I0403 14:55:28.868994 11399 net.cpp:91] Creating Layer inception_3b/output
I0403 14:55:28.869011 11399 net.cpp:425] inception_3b/output <- inception_3b/1x1
I0403 14:55:28.869027 11399 net.cpp:425] inception_3b/output <- inception_3b/3x3
I0403 14:55:28.869043 11399 net.cpp:425] inception_3b/output <- inception_3b/5x5
I0403 14:55:28.869060 11399 net.cpp:425] inception_3b/output <- inception_3b/pool_proj
I0403 14:55:28.869076 11399 net.cpp:399] inception_3b/output -> inception_3b/output
I0403 14:55:28.869119 11399 net.cpp:141] Setting up inception_3b/output
I0403 14:55:28.869143 11399 net.cpp:148] Top shape: 24 480 28 28 (9031680)
I0403 14:55:28.869156 11399 net.cpp:156] Memory required for data: 809239584
I0403 14:55:28.869170 11399 layer_factory.hpp:77] Creating layer pool3/3x3_s2
I0403 14:55:28.869187 11399 net.cpp:91] Creating Layer pool3/3x3_s2
I0403 14:55:28.869202 11399 net.cpp:425] pool3/3x3_s2 <- inception_3b/output
I0403 14:55:28.869237 11399 net.cpp:399] pool3/3x3_s2 -> pool3/3x3_s2
I0403 14:55:28.869297 11399 net.cpp:141] Setting up pool3/3x3_s2
I0403 14:55:28.869338 11399 net.cpp:148] Top shape: 24 480 14 14 (2257920)
I0403 14:55:28.869354 11399 net.cpp:156] Memory required for data: 818271264
I0403 14:55:28.869369 11399 layer_factory.hpp:77] Creating layer pool3/3x3_s2_pool3/3x3_s2_0_split
I0403 14:55:28.869386 11399 net.cpp:91] Creating Layer pool3/3x3_s2_pool3/3x3_s2_0_split
I0403 14:55:28.869401 11399 net.cpp:425] pool3/3x3_s2_pool3/3x3_s2_0_split <- pool3/3x3_s2
I0403 14:55:28.869418 11399 net.cpp:399] pool3/3x3_s2_pool3/3x3_s2_0_split -> pool3/3x3_s2_pool3/3x3_s2_0_split_0
I0403 14:55:28.869441 11399 net.cpp:399] pool3/3x3_s2_pool3/3x3_s2_0_split -> pool3/3x3_s2_pool3/3x3_s2_0_split_1
I0403 14:55:28.869462 11399 net.cpp:399] pool3/3x3_s2_pool3/3x3_s2_0_split -> pool3/3x3_s2_pool3/3x3_s2_0_split_2
I0403 14:55:28.869480 11399 net.cpp:399] pool3/3x3_s2_pool3/3x3_s2_0_split -> pool3/3x3_s2_pool3/3x3_s2_0_split_3
I0403 14:55:28.869562 11399 net.cpp:141] Setting up pool3/3x3_s2_pool3/3x3_s2_0_split
I0403 14:55:28.869585 11399 net.cpp:148] Top shape: 24 480 14 14 (2257920)
I0403 14:55:28.869601 11399 net.cpp:148] Top shape: 24 480 14 14 (2257920)
I0403 14:55:28.869628 11399 net.cpp:148] Top shape: 24 480 14 14 (2257920)
I0403 14:55:28.869643 11399 net.cpp:148] Top shape: 24 480 14 14 (2257920)
I0403 14:55:28.869655 11399 net.cpp:156] Memory required for data: 854397984
I0403 14:55:28.869670 11399 layer_factory.hpp:77] Creating layer inception_4a/1x1
I0403 14:55:28.869693 11399 net.cpp:91] Creating Layer inception_4a/1x1
I0403 14:55:28.869709 11399 net.cpp:425] inception_4a/1x1 <- pool3/3x3_s2_pool3/3x3_s2_0_split_0
I0403 14:55:28.869727 11399 net.cpp:399] inception_4a/1x1 -> inception_4a/1x1
I0403 14:55:28.871286 11399 net.cpp:141] Setting up inception_4a/1x1
I0403 14:55:28.871320 11399 net.cpp:148] Top shape: 24 192 14 14 (903168)
I0403 14:55:28.871337 11399 net.cpp:156] Memory required for data: 858010656
I0403 14:55:28.871356 11399 layer_factory.hpp:77] Creating layer inception_4a/relu_1x1
I0403 14:55:28.871372 11399 net.cpp:91] Creating Layer inception_4a/relu_1x1
I0403 14:55:28.871388 11399 net.cpp:425] inception_4a/relu_1x1 <- inception_4a/1x1
I0403 14:55:28.871407 11399 net.cpp:386] inception_4a/relu_1x1 -> inception_4a/1x1 (in-place)
I0403 14:55:28.871585 11399 net.cpp:141] Setting up inception_4a/relu_1x1
I0403 14:55:28.871613 11399 net.cpp:148] Top shape: 24 192 14 14 (903168)
I0403 14:55:28.871625 11399 net.cpp:156] Memory required for data: 861623328
I0403 14:55:28.871640 11399 layer_factory.hpp:77] Creating layer inception_4a/3x3_reduce
I0403 14:55:28.871661 11399 net.cpp:91] Creating Layer inception_4a/3x3_reduce
I0403 14:55:28.871677 11399 net.cpp:425] inception_4a/3x3_reduce <- pool3/3x3_s2_pool3/3x3_s2_0_split_1
I0403 14:55:28.871698 11399 net.cpp:399] inception_4a/3x3_reduce -> inception_4a/3x3_reduce
I0403 14:55:28.872975 11399 net.cpp:141] Setting up inception_4a/3x3_reduce
I0403 14:55:28.873004 11399 net.cpp:148] Top shape: 24 96 14 14 (451584)
I0403 14:55:28.873021 11399 net.cpp:156] Memory required for data: 863429664
I0403 14:55:28.873044 11399 layer_factory.hpp:77] Creating layer inception_4a/relu_3x3_reduce
I0403 14:55:28.873065 11399 net.cpp:91] Creating Layer inception_4a/relu_3x3_reduce
I0403 14:55:28.873081 11399 net.cpp:425] inception_4a/relu_3x3_reduce <- inception_4a/3x3_reduce
I0403 14:55:28.873098 11399 net.cpp:386] inception_4a/relu_3x3_reduce -> inception_4a/3x3_reduce (in-place)
I0403 14:55:28.873275 11399 net.cpp:141] Setting up inception_4a/relu_3x3_reduce
I0403 14:55:28.873299 11399 net.cpp:148] Top shape: 24 96 14 14 (451584)
I0403 14:55:28.873312 11399 net.cpp:156] Memory required for data: 865236000
I0403 14:55:28.873342 11399 layer_factory.hpp:77] Creating layer inception_4a/3x3
I0403 14:55:28.873365 11399 net.cpp:91] Creating Layer inception_4a/3x3
I0403 14:55:28.873383 11399 net.cpp:425] inception_4a/3x3 <- inception_4a/3x3_reduce
I0403 14:55:28.873402 11399 net.cpp:399] inception_4a/3x3 -> inception_4a/3x3
I0403 14:55:28.876065 11399 net.cpp:141] Setting up inception_4a/3x3
I0403 14:55:28.876094 11399 net.cpp:148] Top shape: 24 208 14 14 (978432)
I0403 14:55:28.876111 11399 net.cpp:156] Memory required for data: 869149728
I0403 14:55:28.876127 11399 layer_factory.hpp:77] Creating layer inception_4a/relu_3x3
I0403 14:55:28.876145 11399 net.cpp:91] Creating Layer inception_4a/relu_3x3
I0403 14:55:28.876162 11399 net.cpp:425] inception_4a/relu_3x3 <- inception_4a/3x3
I0403 14:55:28.876180 11399 net.cpp:386] inception_4a/relu_3x3 -> inception_4a/3x3 (in-place)
I0403 14:55:28.876466 11399 net.cpp:141] Setting up inception_4a/relu_3x3
I0403 14:55:28.876490 11399 net.cpp:148] Top shape: 24 208 14 14 (978432)
I0403 14:55:28.876505 11399 net.cpp:156] Memory required for data: 873063456
I0403 14:55:28.876519 11399 layer_factory.hpp:77] Creating layer inception_4a/5x5_reduce
I0403 14:55:28.876543 11399 net.cpp:91] Creating Layer inception_4a/5x5_reduce
I0403 14:55:28.876560 11399 net.cpp:425] inception_4a/5x5_reduce <- pool3/3x3_s2_pool3/3x3_s2_0_split_2
I0403 14:55:28.876581 11399 net.cpp:399] inception_4a/5x5_reduce -> inception_4a/5x5_reduce
I0403 14:55:28.877599 11399 net.cpp:141] Setting up inception_4a/5x5_reduce
I0403 14:55:28.877625 11399 net.cpp:148] Top shape: 24 16 14 14 (75264)
I0403 14:55:28.877640 11399 net.cpp:156] Memory required for data: 873364512
I0403 14:55:28.877658 11399 layer_factory.hpp:77] Creating layer inception_4a/relu_5x5_reduce
I0403 14:55:28.877678 11399 net.cpp:91] Creating Layer inception_4a/relu_5x5_reduce
I0403 14:55:28.877696 11399 net.cpp:425] inception_4a/relu_5x5_reduce <- inception_4a/5x5_reduce
I0403 14:55:28.877712 11399 net.cpp:386] inception_4a/relu_5x5_reduce -> inception_4a/5x5_reduce (in-place)
I0403 14:55:28.877890 11399 net.cpp:141] Setting up inception_4a/relu_5x5_reduce
I0403 14:55:28.877914 11399 net.cpp:148] Top shape: 24 16 14 14 (75264)
I0403 14:55:28.877928 11399 net.cpp:156] Memory required for data: 873665568
I0403 14:55:28.877943 11399 layer_factory.hpp:77] Creating layer inception_4a/5x5
I0403 14:55:28.877964 11399 net.cpp:91] Creating Layer inception_4a/5x5
I0403 14:55:28.877982 11399 net.cpp:425] inception_4a/5x5 <- inception_4a/5x5_reduce
I0403 14:55:28.878000 11399 net.cpp:399] inception_4a/5x5 -> inception_4a/5x5
I0403 14:55:28.879096 11399 net.cpp:141] Setting up inception_4a/5x5
I0403 14:55:28.879122 11399 net.cpp:148] Top shape: 24 48 14 14 (225792)
I0403 14:55:28.879137 11399 net.cpp:156] Memory required for data: 874568736
I0403 14:55:28.879155 11399 layer_factory.hpp:77] Creating layer inception_4a/relu_5x5
I0403 14:55:28.879175 11399 net.cpp:91] Creating Layer inception_4a/relu_5x5
I0403 14:55:28.879192 11399 net.cpp:425] inception_4a/relu_5x5 <- inception_4a/5x5
I0403 14:55:28.879207 11399 net.cpp:386] inception_4a/relu_5x5 -> inception_4a/5x5 (in-place)
I0403 14:55:28.879392 11399 net.cpp:141] Setting up inception_4a/relu_5x5
I0403 14:55:28.879420 11399 net.cpp:148] Top shape: 24 48 14 14 (225792)
I0403 14:55:28.879436 11399 net.cpp:156] Memory required for data: 875471904
I0403 14:55:28.879449 11399 layer_factory.hpp:77] Creating layer inception_4a/pool
I0403 14:55:28.879467 11399 net.cpp:91] Creating Layer inception_4a/pool
I0403 14:55:28.879482 11399 net.cpp:425] inception_4a/pool <- pool3/3x3_s2_pool3/3x3_s2_0_split_3
I0403 14:55:28.879500 11399 net.cpp:399] inception_4a/pool -> inception_4a/pool
I0403 14:55:28.879559 11399 net.cpp:141] Setting up inception_4a/pool
I0403 14:55:28.879582 11399 net.cpp:148] Top shape: 24 480 14 14 (2257920)
I0403 14:55:28.879596 11399 net.cpp:156] Memory required for data: 884503584
I0403 14:55:28.879611 11399 layer_factory.hpp:77] Creating layer inception_4a/pool_proj
I0403 14:55:28.879631 11399 net.cpp:91] Creating Layer inception_4a/pool_proj
I0403 14:55:28.879647 11399 net.cpp:425] inception_4a/pool_proj <- inception_4a/pool
I0403 14:55:28.879667 11399 net.cpp:399] inception_4a/pool_proj -> inception_4a/pool_proj
I0403 14:55:28.880879 11399 net.cpp:141] Setting up inception_4a/pool_proj
I0403 14:55:28.880910 11399 net.cpp:148] Top shape: 24 64 14 14 (301056)
I0403 14:55:28.880941 11399 net.cpp:156] Memory required for data: 885707808
I0403 14:55:28.880960 11399 layer_factory.hpp:77] Creating layer inception_4a/relu_pool_proj
I0403 14:55:28.880978 11399 net.cpp:91] Creating Layer inception_4a/relu_pool_proj
I0403 14:55:28.880993 11399 net.cpp:425] inception_4a/relu_pool_proj <- inception_4a/pool_proj
I0403 14:55:28.881009 11399 net.cpp:386] inception_4a/relu_pool_proj -> inception_4a/pool_proj (in-place)
I0403 14:55:28.881296 11399 net.cpp:141] Setting up inception_4a/relu_pool_proj
I0403 14:55:28.881340 11399 net.cpp:148] Top shape: 24 64 14 14 (301056)
I0403 14:55:28.881357 11399 net.cpp:156] Memory required for data: 886912032
I0403 14:55:28.881373 11399 layer_factory.hpp:77] Creating layer inception_4a/output
I0403 14:55:28.881391 11399 net.cpp:91] Creating Layer inception_4a/output
I0403 14:55:28.881405 11399 net.cpp:425] inception_4a/output <- inception_4a/1x1
I0403 14:55:28.881422 11399 net.cpp:425] inception_4a/output <- inception_4a/3x3
I0403 14:55:28.881438 11399 net.cpp:425] inception_4a/output <- inception_4a/5x5
I0403 14:55:28.881453 11399 net.cpp:425] inception_4a/output <- inception_4a/pool_proj
I0403 14:55:28.881470 11399 net.cpp:399] inception_4a/output -> inception_4a/output
I0403 14:55:28.881516 11399 net.cpp:141] Setting up inception_4a/output
I0403 14:55:28.881539 11399 net.cpp:148] Top shape: 24 512 14 14 (2408448)
I0403 14:55:28.881554 11399 net.cpp:156] Memory required for data: 896545824
I0403 14:55:28.881569 11399 layer_factory.hpp:77] Creating layer inception_4a/output_inception_4a/output_0_split
I0403 14:55:28.881589 11399 net.cpp:91] Creating Layer inception_4a/output_inception_4a/output_0_split
I0403 14:55:28.881604 11399 net.cpp:425] inception_4a/output_inception_4a/output_0_split <- inception_4a/output
I0403 14:55:28.881633 11399 net.cpp:399] inception_4a/output_inception_4a/output_0_split -> inception_4a/output_inception_4a/output_0_split_0
I0403 14:55:28.881652 11399 net.cpp:399] inception_4a/output_inception_4a/output_0_split -> inception_4a/output_inception_4a/output_0_split_1
I0403 14:55:28.881672 11399 net.cpp:399] inception_4a/output_inception_4a/output_0_split -> inception_4a/output_inception_4a/output_0_split_2
I0403 14:55:28.881692 11399 net.cpp:399] inception_4a/output_inception_4a/output_0_split -> inception_4a/output_inception_4a/output_0_split_3
I0403 14:55:28.881713 11399 net.cpp:399] inception_4a/output_inception_4a/output_0_split -> inception_4a/output_inception_4a/output_0_split_4
I0403 14:55:28.881808 11399 net.cpp:141] Setting up inception_4a/output_inception_4a/output_0_split
I0403 14:55:28.881831 11399 net.cpp:148] Top shape: 24 512 14 14 (2408448)
I0403 14:55:28.881847 11399 net.cpp:148] Top shape: 24 512 14 14 (2408448)
I0403 14:55:28.881861 11399 net.cpp:148] Top shape: 24 512 14 14 (2408448)
I0403 14:55:28.881876 11399 net.cpp:148] Top shape: 24 512 14 14 (2408448)
I0403 14:55:28.881891 11399 net.cpp:148] Top shape: 24 512 14 14 (2408448)
I0403 14:55:28.881903 11399 net.cpp:156] Memory required for data: 944714784
I0403 14:55:28.881917 11399 layer_factory.hpp:77] Creating layer loss1/ave_pool
I0403 14:55:28.881934 11399 net.cpp:91] Creating Layer loss1/ave_pool
I0403 14:55:28.881953 11399 net.cpp:425] loss1/ave_pool <- inception_4a/output_inception_4a/output_0_split_0
I0403 14:55:28.881969 11399 net.cpp:399] loss1/ave_pool -> loss1/ave_pool
I0403 14:55:28.882176 11399 net.cpp:141] Setting up loss1/ave_pool
I0403 14:55:28.882205 11399 net.cpp:148] Top shape: 24 512 4 4 (196608)
I0403 14:55:28.882220 11399 net.cpp:156] Memory required for data: 945501216
I0403 14:55:28.882235 11399 layer_factory.hpp:77] Creating layer loss1/conv
I0403 14:55:28.882256 11399 net.cpp:91] Creating Layer loss1/conv
I0403 14:55:28.882272 11399 net.cpp:425] loss1/conv <- loss1/ave_pool
I0403 14:55:28.882290 11399 net.cpp:399] loss1/conv -> loss1/conv
I0403 14:55:28.883718 11399 net.cpp:141] Setting up loss1/conv
I0403 14:55:28.883745 11399 net.cpp:148] Top shape: 24 128 4 4 (49152)
I0403 14:55:28.883774 11399 net.cpp:156] Memory required for data: 945697824
I0403 14:55:28.883793 11399 layer_factory.hpp:77] Creating layer loss1/relu_conv
I0403 14:55:28.883810 11399 net.cpp:91] Creating Layer loss1/relu_conv
I0403 14:55:28.883826 11399 net.cpp:425] loss1/relu_conv <- loss1/conv
I0403 14:55:28.883844 11399 net.cpp:386] loss1/relu_conv -> loss1/conv (in-place)
I0403 14:55:28.884125 11399 net.cpp:141] Setting up loss1/relu_conv
I0403 14:55:28.884151 11399 net.cpp:148] Top shape: 24 128 4 4 (49152)
I0403 14:55:28.884166 11399 net.cpp:156] Memory required for data: 945894432
I0403 14:55:28.884179 11399 layer_factory.hpp:77] Creating layer loss1/fc
I0403 14:55:28.884202 11399 net.cpp:91] Creating Layer loss1/fc
I0403 14:55:28.884219 11399 net.cpp:425] loss1/fc <- loss1/conv
I0403 14:55:28.884239 11399 net.cpp:399] loss1/fc -> loss1/fc
I0403 14:55:28.901764 11399 net.cpp:141] Setting up loss1/fc
I0403 14:55:28.901800 11399 net.cpp:148] Top shape: 24 1024 (24576)
I0403 14:55:28.901815 11399 net.cpp:156] Memory required for data: 945992736
I0403 14:55:28.901832 11399 layer_factory.hpp:77] Creating layer loss1/relu_fc
I0403 14:55:28.901851 11399 net.cpp:91] Creating Layer loss1/relu_fc
I0403 14:55:28.901867 11399 net.cpp:425] loss1/relu_fc <- loss1/fc
I0403 14:55:28.901883 11399 net.cpp:386] loss1/relu_fc -> loss1/fc (in-place)
I0403 14:55:28.902068 11399 net.cpp:141] Setting up loss1/relu_fc
I0403 14:55:28.902091 11399 net.cpp:148] Top shape: 24 1024 (24576)
I0403 14:55:28.902106 11399 net.cpp:156] Memory required for data: 946091040
I0403 14:55:28.902118 11399 layer_factory.hpp:77] Creating layer loss1/drop_fc
I0403 14:55:28.902144 11399 net.cpp:91] Creating Layer loss1/drop_fc
I0403 14:55:28.902161 11399 net.cpp:425] loss1/drop_fc <- loss1/fc
I0403 14:55:28.902179 11399 net.cpp:386] loss1/drop_fc -> loss1/fc (in-place)
I0403 14:55:28.902230 11399 net.cpp:141] Setting up loss1/drop_fc
I0403 14:55:28.902251 11399 net.cpp:148] Top shape: 24 1024 (24576)
I0403 14:55:28.902264 11399 net.cpp:156] Memory required for data: 946189344
I0403 14:55:28.902278 11399 layer_factory.hpp:77] Creating layer loss1/classifier_plantvillage
I0403 14:55:28.902298 11399 net.cpp:91] Creating Layer loss1/classifier_plantvillage
I0403 14:55:28.902314 11399 net.cpp:425] loss1/classifier_plantvillage <- loss1/fc
I0403 14:55:28.902339 11399 net.cpp:399] loss1/classifier_plantvillage -> loss1/classifier_plantvillage
I0403 14:55:28.903245 11399 net.cpp:141] Setting up loss1/classifier_plantvillage
I0403 14:55:28.903275 11399 net.cpp:148] Top shape: 24 38 (912)
I0403 14:55:28.903290 11399 net.cpp:156] Memory required for data: 946192992
I0403 14:55:28.903306 11399 layer_factory.hpp:77] Creating layer loss1/classifier_plantvillage_loss1/classifier_plantvillage_0_split
I0403 14:55:28.903334 11399 net.cpp:91] Creating Layer loss1/classifier_plantvillage_loss1/classifier_plantvillage_0_split
I0403 14:55:28.903352 11399 net.cpp:425] loss1/classifier_plantvillage_loss1/classifier_plantvillage_0_split <- loss1/classifier_plantvillage
I0403 14:55:28.903372 11399 net.cpp:399] loss1/classifier_plantvillage_loss1/classifier_plantvillage_0_split -> loss1/classifier_plantvillage_loss1/classifier_plantvillage_0_split_0
I0403 14:55:28.903391 11399 net.cpp:399] loss1/classifier_plantvillage_loss1/classifier_plantvillage_0_split -> loss1/classifier_plantvillage_loss1/classifier_plantvillage_0_split_1
I0403 14:55:28.903410 11399 net.cpp:399] loss1/classifier_plantvillage_loss1/classifier_plantvillage_0_split -> loss1/classifier_plantvillage_loss1/classifier_plantvillage_0_split_2
I0403 14:55:28.903472 11399 net.cpp:141] Setting up loss1/classifier_plantvillage_loss1/classifier_plantvillage_0_split
I0403 14:55:28.903494 11399 net.cpp:148] Top shape: 24 38 (912)
I0403 14:55:28.903509 11399 net.cpp:148] Top shape: 24 38 (912)
I0403 14:55:28.903523 11399 net.cpp:148] Top shape: 24 38 (912)
I0403 14:55:28.903535 11399 net.cpp:156] Memory required for data: 946203936
I0403 14:55:28.903549 11399 layer_factory.hpp:77] Creating layer inception_4b/1x1
I0403 14:55:28.903569 11399 net.cpp:91] Creating Layer inception_4b/1x1
I0403 14:55:28.903602 11399 net.cpp:425] inception_4b/1x1 <- inception_4a/output_inception_4a/output_0_split_1
I0403 14:55:28.903621 11399 net.cpp:399] inception_4b/1x1 -> inception_4b/1x1
I0403 14:55:28.905222 11399 net.cpp:141] Setting up inception_4b/1x1
I0403 14:55:28.905249 11399 net.cpp:148] Top shape: 24 160 14 14 (752640)
I0403 14:55:28.905264 11399 net.cpp:156] Memory required for data: 949214496
I0403 14:55:28.905282 11399 layer_factory.hpp:77] Creating layer inception_4b/relu_1x1
I0403 14:55:28.905302 11399 net.cpp:91] Creating Layer inception_4b/relu_1x1
I0403 14:55:28.905320 11399 net.cpp:425] inception_4b/relu_1x1 <- inception_4b/1x1
I0403 14:55:28.905339 11399 net.cpp:386] inception_4b/relu_1x1 -> inception_4b/1x1 (in-place)
I0403 14:55:28.905519 11399 net.cpp:141] Setting up inception_4b/relu_1x1
I0403 14:55:28.905542 11399 net.cpp:148] Top shape: 24 160 14 14 (752640)
I0403 14:55:28.905555 11399 net.cpp:156] Memory required for data: 952225056
I0403 14:55:28.905570 11399 layer_factory.hpp:77] Creating layer inception_4b/3x3_reduce
I0403 14:55:28.905591 11399 net.cpp:91] Creating Layer inception_4b/3x3_reduce
I0403 14:55:28.905608 11399 net.cpp:425] inception_4b/3x3_reduce <- inception_4a/output_inception_4a/output_0_split_2
I0403 14:55:28.905627 11399 net.cpp:399] inception_4b/3x3_reduce -> inception_4b/3x3_reduce
I0403 14:55:28.906939 11399 net.cpp:141] Setting up inception_4b/3x3_reduce
I0403 14:55:28.906965 11399 net.cpp:148] Top shape: 24 112 14 14 (526848)
I0403 14:55:28.906980 11399 net.cpp:156] Memory required for data: 954332448
I0403 14:55:28.906997 11399 layer_factory.hpp:77] Creating layer inception_4b/relu_3x3_reduce
I0403 14:55:28.907017 11399 net.cpp:91] Creating Layer inception_4b/relu_3x3_reduce
I0403 14:55:28.907032 11399 net.cpp:425] inception_4b/relu_3x3_reduce <- inception_4b/3x3_reduce
I0403 14:55:28.907048 11399 net.cpp:386] inception_4b/relu_3x3_reduce -> inception_4b/3x3_reduce (in-place)
I0403 14:55:28.907327 11399 net.cpp:141] Setting up inception_4b/relu_3x3_reduce
I0403 14:55:28.907352 11399 net.cpp:148] Top shape: 24 112 14 14 (526848)
I0403 14:55:28.907366 11399 net.cpp:156] Memory required for data: 956439840
I0403 14:55:28.907380 11399 layer_factory.hpp:77] Creating layer inception_4b/3x3
I0403 14:55:28.907402 11399 net.cpp:91] Creating Layer inception_4b/3x3
I0403 14:55:28.907418 11399 net.cpp:425] inception_4b/3x3 <- inception_4b/3x3_reduce
I0403 14:55:28.907438 11399 net.cpp:399] inception_4b/3x3 -> inception_4b/3x3
I0403 14:55:28.910336 11399 net.cpp:141] Setting up inception_4b/3x3
I0403 14:55:28.910367 11399 net.cpp:148] Top shape: 24 224 14 14 (1053696)
I0403 14:55:28.910382 11399 net.cpp:156] Memory required for data: 960654624
I0403 14:55:28.910400 11399 layer_factory.hpp:77] Creating layer inception_4b/relu_3x3
I0403 14:55:28.910418 11399 net.cpp:91] Creating Layer inception_4b/relu_3x3
I0403 14:55:28.910431 11399 net.cpp:425] inception_4b/relu_3x3 <- inception_4b/3x3
I0403 14:55:28.910450 11399 net.cpp:386] inception_4b/relu_3x3 -> inception_4b/3x3 (in-place)
I0403 14:55:28.910629 11399 net.cpp:141] Setting up inception_4b/relu_3x3
I0403 14:55:28.910652 11399 net.cpp:148] Top shape: 24 224 14 14 (1053696)
I0403 14:55:28.910666 11399 net.cpp:156] Memory required for data: 964869408
I0403 14:55:28.910679 11399 layer_factory.hpp:77] Creating layer inception_4b/5x5_reduce
I0403 14:55:28.910701 11399 net.cpp:91] Creating Layer inception_4b/5x5_reduce
I0403 14:55:28.910717 11399 net.cpp:425] inception_4b/5x5_reduce <- inception_4a/output_inception_4a/output_0_split_3
I0403 14:55:28.910737 11399 net.cpp:399] inception_4b/5x5_reduce -> inception_4b/5x5_reduce
I0403 14:55:28.911806 11399 net.cpp:141] Setting up inception_4b/5x5_reduce
I0403 14:55:28.911834 11399 net.cpp:148] Top shape: 24 24 14 14 (112896)
I0403 14:55:28.911849 11399 net.cpp:156] Memory required for data: 965320992
I0403 14:55:28.911865 11399 layer_factory.hpp:77] Creating layer inception_4b/relu_5x5_reduce
I0403 14:55:28.911885 11399 net.cpp:91] Creating Layer inception_4b/relu_5x5_reduce
I0403 14:55:28.911913 11399 net.cpp:425] inception_4b/relu_5x5_reduce <- inception_4b/5x5_reduce
I0403 14:55:28.911931 11399 net.cpp:386] inception_4b/relu_5x5_reduce -> inception_4b/5x5_reduce (in-place)
I0403 14:55:28.912112 11399 net.cpp:141] Setting up inception_4b/relu_5x5_reduce
I0403 14:55:28.912138 11399 net.cpp:148] Top shape: 24 24 14 14 (112896)
I0403 14:55:28.912153 11399 net.cpp:156] Memory required for data: 965772576
I0403 14:55:28.912166 11399 layer_factory.hpp:77] Creating layer inception_4b/5x5
I0403 14:55:28.912185 11399 net.cpp:91] Creating Layer inception_4b/5x5
I0403 14:55:28.912201 11399 net.cpp:425] inception_4b/5x5 <- inception_4b/5x5_reduce
I0403 14:55:28.912221 11399 net.cpp:399] inception_4b/5x5 -> inception_4b/5x5
I0403 14:55:28.913453 11399 net.cpp:141] Setting up inception_4b/5x5
I0403 14:55:28.913481 11399 net.cpp:148] Top shape: 24 64 14 14 (301056)
I0403 14:55:28.913496 11399 net.cpp:156] Memory required for data: 966976800
I0403 14:55:28.913513 11399 layer_factory.hpp:77] Creating layer inception_4b/relu_5x5
I0403 14:55:28.913533 11399 net.cpp:91] Creating Layer inception_4b/relu_5x5
I0403 14:55:28.913550 11399 net.cpp:425] inception_4b/relu_5x5 <- inception_4b/5x5
I0403 14:55:28.913568 11399 net.cpp:386] inception_4b/relu_5x5 -> inception_4b/5x5 (in-place)
I0403 14:55:28.913861 11399 net.cpp:141] Setting up inception_4b/relu_5x5
I0403 14:55:28.913885 11399 net.cpp:148] Top shape: 24 64 14 14 (301056)
I0403 14:55:28.913899 11399 net.cpp:156] Memory required for data: 968181024
I0403 14:55:28.913914 11399 layer_factory.hpp:77] Creating layer inception_4b/pool
I0403 14:55:28.913931 11399 net.cpp:91] Creating Layer inception_4b/pool
I0403 14:55:28.913946 11399 net.cpp:425] inception_4b/pool <- inception_4a/output_inception_4a/output_0_split_4
I0403 14:55:28.913965 11399 net.cpp:399] inception_4b/pool -> inception_4b/pool
I0403 14:55:28.914026 11399 net.cpp:141] Setting up inception_4b/pool
I0403 14:55:28.914050 11399 net.cpp:148] Top shape: 24 512 14 14 (2408448)
I0403 14:55:28.914063 11399 net.cpp:156] Memory required for data: 977814816
I0403 14:55:28.914077 11399 layer_factory.hpp:77] Creating layer inception_4b/pool_proj
I0403 14:55:28.914098 11399 net.cpp:91] Creating Layer inception_4b/pool_proj
I0403 14:55:28.914114 11399 net.cpp:425] inception_4b/pool_proj <- inception_4b/pool
I0403 14:55:28.914132 11399 net.cpp:399] inception_4b/pool_proj -> inception_4b/pool_proj
I0403 14:55:28.915300 11399 net.cpp:141] Setting up inception_4b/pool_proj
I0403 14:55:28.915331 11399 net.cpp:148] Top shape: 24 64 14 14 (301056)
I0403 14:55:28.915346 11399 net.cpp:156] Memory required for data: 979019040
I0403 14:55:28.915364 11399 layer_factory.hpp:77] Creating layer inception_4b/relu_pool_proj
I0403 14:55:28.915383 11399 net.cpp:91] Creating Layer inception_4b/relu_pool_proj
I0403 14:55:28.915400 11399 net.cpp:425] inception_4b/relu_pool_proj <- inception_4b/pool_proj
I0403 14:55:28.915416 11399 net.cpp:386] inception_4b/relu_pool_proj -> inception_4b/pool_proj (in-place)
I0403 14:55:28.915598 11399 net.cpp:141] Setting up inception_4b/relu_pool_proj
I0403 14:55:28.915622 11399 net.cpp:148] Top shape: 24 64 14 14 (301056)
I0403 14:55:28.915637 11399 net.cpp:156] Memory required for data: 980223264
I0403 14:55:28.915650 11399 layer_factory.hpp:77] Creating layer inception_4b/output
I0403 14:55:28.915668 11399 net.cpp:91] Creating Layer inception_4b/output
I0403 14:55:28.915684 11399 net.cpp:425] inception_4b/output <- inception_4b/1x1
I0403 14:55:28.915699 11399 net.cpp:425] inception_4b/output <- inception_4b/3x3
I0403 14:55:28.915714 11399 net.cpp:425] inception_4b/output <- inception_4b/5x5
I0403 14:55:28.915729 11399 net.cpp:425] inception_4b/output <- inception_4b/pool_proj
I0403 14:55:28.915745 11399 net.cpp:399] inception_4b/output -> inception_4b/output
I0403 14:55:28.915791 11399 net.cpp:141] Setting up inception_4b/output
I0403 14:55:28.915812 11399 net.cpp:148] Top shape: 24 512 14 14 (2408448)
I0403 14:55:28.915827 11399 net.cpp:156] Memory required for data: 989857056
I0403 14:55:28.915853 11399 layer_factory.hpp:77] Creating layer inception_4b/output_inception_4b/output_0_split
I0403 14:55:28.915871 11399 net.cpp:91] Creating Layer inception_4b/output_inception_4b/output_0_split
I0403 14:55:28.915886 11399 net.cpp:425] inception_4b/output_inception_4b/output_0_split <- inception_4b/output
I0403 14:55:28.915904 11399 net.cpp:399] inception_4b/output_inception_4b/output_0_split -> inception_4b/output_inception_4b/output_0_split_0
I0403 14:55:28.915925 11399 net.cpp:399] inception_4b/output_inception_4b/output_0_split -> inception_4b/output_inception_4b/output_0_split_1
I0403 14:55:28.915945 11399 net.cpp:399] inception_4b/output_inception_4b/output_0_split -> inception_4b/output_inception_4b/output_0_split_2
I0403 14:55:28.915976 11399 net.cpp:399] inception_4b/output_inception_4b/output_0_split -> inception_4b/output_inception_4b/output_0_split_3
I0403 14:55:28.916060 11399 net.cpp:141] Setting up inception_4b/output_inception_4b/output_0_split
I0403 14:55:28.916085 11399 net.cpp:148] Top shape: 24 512 14 14 (2408448)
I0403 14:55:28.916102 11399 net.cpp:148] Top shape: 24 512 14 14 (2408448)
I0403 14:55:28.916117 11399 net.cpp:148] Top shape: 24 512 14 14 (2408448)
I0403 14:55:28.916131 11399 net.cpp:148] Top shape: 24 512 14 14 (2408448)
I0403 14:55:28.916144 11399 net.cpp:156] Memory required for data: 1028392224
I0403 14:55:28.916158 11399 layer_factory.hpp:77] Creating layer inception_4c/1x1
I0403 14:55:28.916180 11399 net.cpp:91] Creating Layer inception_4c/1x1
I0403 14:55:28.916198 11399 net.cpp:425] inception_4c/1x1 <- inception_4b/output_inception_4b/output_0_split_0
I0403 14:55:28.916218 11399 net.cpp:399] inception_4c/1x1 -> inception_4c/1x1
I0403 14:55:28.917631 11399 net.cpp:141] Setting up inception_4c/1x1
I0403 14:55:28.917659 11399 net.cpp:148] Top shape: 24 128 14 14 (602112)
I0403 14:55:28.917673 11399 net.cpp:156] Memory required for data: 1030800672
I0403 14:55:28.917691 11399 layer_factory.hpp:77] Creating layer inception_4c/relu_1x1
I0403 14:55:28.917711 11399 net.cpp:91] Creating Layer inception_4c/relu_1x1
I0403 14:55:28.917727 11399 net.cpp:425] inception_4c/relu_1x1 <- inception_4c/1x1
I0403 14:55:28.917742 11399 net.cpp:386] inception_4c/relu_1x1 -> inception_4c/1x1 (in-place)
I0403 14:55:28.917922 11399 net.cpp:141] Setting up inception_4c/relu_1x1
I0403 14:55:28.917945 11399 net.cpp:148] Top shape: 24 128 14 14 (602112)
I0403 14:55:28.917959 11399 net.cpp:156] Memory required for data: 1033209120
I0403 14:55:28.917973 11399 layer_factory.hpp:77] Creating layer inception_4c/3x3_reduce
I0403 14:55:28.917994 11399 net.cpp:91] Creating Layer inception_4c/3x3_reduce
I0403 14:55:28.918010 11399 net.cpp:425] inception_4c/3x3_reduce <- inception_4b/output_inception_4b/output_0_split_1
I0403 14:55:28.918030 11399 net.cpp:399] inception_4c/3x3_reduce -> inception_4c/3x3_reduce
I0403 14:55:28.919924 11399 net.cpp:141] Setting up inception_4c/3x3_reduce
I0403 14:55:28.919950 11399 net.cpp:148] Top shape: 24 128 14 14 (602112)
I0403 14:55:28.919965 11399 net.cpp:156] Memory required for data: 1035617568
I0403 14:55:28.919982 11399 layer_factory.hpp:77] Creating layer inception_4c/relu_3x3_reduce
I0403 14:55:28.919999 11399 net.cpp:91] Creating Layer inception_4c/relu_3x3_reduce
I0403 14:55:28.920013 11399 net.cpp:425] inception_4c/relu_3x3_reduce <- inception_4c/3x3_reduce
I0403 14:55:28.920032 11399 net.cpp:386] inception_4c/relu_3x3_reduce -> inception_4c/3x3_reduce (in-place)
I0403 14:55:28.920315 11399 net.cpp:141] Setting up inception_4c/relu_3x3_reduce
I0403 14:55:28.920342 11399 net.cpp:148] Top shape: 24 128 14 14 (602112)
I0403 14:55:28.920356 11399 net.cpp:156] Memory required for data: 1038026016
I0403 14:55:28.920372 11399 layer_factory.hpp:77] Creating layer inception_4c/3x3
I0403 14:55:28.920393 11399 net.cpp:91] Creating Layer inception_4c/3x3
I0403 14:55:28.920410 11399 net.cpp:425] inception_4c/3x3 <- inception_4c/3x3_reduce
I0403 14:55:28.920430 11399 net.cpp:399] inception_4c/3x3 -> inception_4c/3x3
I0403 14:55:28.923934 11399 net.cpp:141] Setting up inception_4c/3x3
I0403 14:55:28.923974 11399 net.cpp:148] Top shape: 24 256 14 14 (1204224)
I0403 14:55:28.923990 11399 net.cpp:156] Memory required for data: 1042842912
I0403 14:55:28.924021 11399 layer_factory.hpp:77] Creating layer inception_4c/relu_3x3
I0403 14:55:28.924043 11399 net.cpp:91] Creating Layer inception_4c/relu_3x3
I0403 14:55:28.924060 11399 net.cpp:425] inception_4c/relu_3x3 <- inception_4c/3x3
I0403 14:55:28.924077 11399 net.cpp:386] inception_4c/relu_3x3 -> inception_4c/3x3 (in-place)
I0403 14:55:28.924257 11399 net.cpp:141] Setting up inception_4c/relu_3x3
I0403 14:55:28.924280 11399 net.cpp:148] Top shape: 24 256 14 14 (1204224)
I0403 14:55:28.924294 11399 net.cpp:156] Memory required for data: 1047659808
I0403 14:55:28.924309 11399 layer_factory.hpp:77] Creating layer inception_4c/5x5_reduce
I0403 14:55:28.924335 11399 net.cpp:91] Creating Layer inception_4c/5x5_reduce
I0403 14:55:28.924351 11399 net.cpp:425] inception_4c/5x5_reduce <- inception_4b/output_inception_4b/output_0_split_2
I0403 14:55:28.924371 11399 net.cpp:399] inception_4c/5x5_reduce -> inception_4c/5x5_reduce
I0403 14:55:28.925442 11399 net.cpp:141] Setting up inception_4c/5x5_reduce
I0403 14:55:28.925469 11399 net.cpp:148] Top shape: 24 24 14 14 (112896)
I0403 14:55:28.925483 11399 net.cpp:156] Memory required for data: 1048111392
I0403 14:55:28.925500 11399 layer_factory.hpp:77] Creating layer inception_4c/relu_5x5_reduce
I0403 14:55:28.925519 11399 net.cpp:91] Creating Layer inception_4c/relu_5x5_reduce
I0403 14:55:28.925536 11399 net.cpp:425] inception_4c/relu_5x5_reduce <- inception_4c/5x5_reduce
I0403 14:55:28.925554 11399 net.cpp:386] inception_4c/relu_5x5_reduce -> inception_4c/5x5_reduce (in-place)
I0403 14:55:28.925734 11399 net.cpp:141] Setting up inception_4c/relu_5x5_reduce
I0403 14:55:28.925756 11399 net.cpp:148] Top shape: 24 24 14 14 (112896)
I0403 14:55:28.925773 11399 net.cpp:156] Memory required for data: 1048562976
I0403 14:55:28.925786 11399 layer_factory.hpp:77] Creating layer inception_4c/5x5
I0403 14:55:28.925806 11399 net.cpp:91] Creating Layer inception_4c/5x5
I0403 14:55:28.925822 11399 net.cpp:425] inception_4c/5x5 <- inception_4c/5x5_reduce
I0403 14:55:28.925842 11399 net.cpp:399] inception_4c/5x5 -> inception_4c/5x5
I0403 14:55:28.927062 11399 net.cpp:141] Setting up inception_4c/5x5
I0403 14:55:28.927088 11399 net.cpp:148] Top shape: 24 64 14 14 (301056)
I0403 14:55:28.927103 11399 net.cpp:156] Memory required for data: 1049767200
I0403 14:55:28.927120 11399 layer_factory.hpp:77] Creating layer inception_4c/relu_5x5
I0403 14:55:28.927139 11399 net.cpp:91] Creating Layer inception_4c/relu_5x5
I0403 14:55:28.927155 11399 net.cpp:425] inception_4c/relu_5x5 <- inception_4c/5x5
I0403 14:55:28.927171 11399 net.cpp:386] inception_4c/relu_5x5 -> inception_4c/5x5 (in-place)
I0403 14:55:28.927462 11399 net.cpp:141] Setting up inception_4c/relu_5x5
I0403 14:55:28.927489 11399 net.cpp:148] Top shape: 24 64 14 14 (301056)
I0403 14:55:28.927501 11399 net.cpp:156] Memory required for data: 1050971424
I0403 14:55:28.927515 11399 layer_factory.hpp:77] Creating layer inception_4c/pool
I0403 14:55:28.927534 11399 net.cpp:91] Creating Layer inception_4c/pool
I0403 14:55:28.927551 11399 net.cpp:425] inception_4c/pool <- inception_4b/output_inception_4b/output_0_split_3
I0403 14:55:28.927567 11399 net.cpp:399] inception_4c/pool -> inception_4c/pool
I0403 14:55:28.927631 11399 net.cpp:141] Setting up inception_4c/pool
I0403 14:55:28.927654 11399 net.cpp:148] Top shape: 24 512 14 14 (2408448)
I0403 14:55:28.927667 11399 net.cpp:156] Memory required for data: 1060605216
I0403 14:55:28.927681 11399 layer_factory.hpp:77] Creating layer inception_4c/pool_proj
I0403 14:55:28.927702 11399 net.cpp:91] Creating Layer inception_4c/pool_proj
I0403 14:55:28.927718 11399 net.cpp:425] inception_4c/pool_proj <- inception_4c/pool
I0403 14:55:28.927738 11399 net.cpp:399] inception_4c/pool_proj -> inception_4c/pool_proj
I0403 14:55:28.928988 11399 net.cpp:141] Setting up inception_4c/pool_proj
I0403 14:55:28.929016 11399 net.cpp:148] Top shape: 24 64 14 14 (301056)
I0403 14:55:28.929046 11399 net.cpp:156] Memory required for data: 1061809440
I0403 14:55:28.929065 11399 layer_factory.hpp:77] Creating layer inception_4c/relu_pool_proj
I0403 14:55:28.929085 11399 net.cpp:91] Creating Layer inception_4c/relu_pool_proj
I0403 14:55:28.929101 11399 net.cpp:425] inception_4c/relu_pool_proj <- inception_4c/pool_proj
I0403 14:55:28.929118 11399 net.cpp:386] inception_4c/relu_pool_proj -> inception_4c/pool_proj (in-place)
I0403 14:55:28.929304 11399 net.cpp:141] Setting up inception_4c/relu_pool_proj
I0403 14:55:28.929333 11399 net.cpp:148] Top shape: 24 64 14 14 (301056)
I0403 14:55:28.929348 11399 net.cpp:156] Memory required for data: 1063013664
I0403 14:55:28.929363 11399 layer_factory.hpp:77] Creating layer inception_4c/output
I0403 14:55:28.929381 11399 net.cpp:91] Creating Layer inception_4c/output
I0403 14:55:28.929397 11399 net.cpp:425] inception_4c/output <- inception_4c/1x1
I0403 14:55:28.929414 11399 net.cpp:425] inception_4c/output <- inception_4c/3x3
I0403 14:55:28.929430 11399 net.cpp:425] inception_4c/output <- inception_4c/5x5
I0403 14:55:28.929445 11399 net.cpp:425] inception_4c/output <- inception_4c/pool_proj
I0403 14:55:28.929461 11399 net.cpp:399] inception_4c/output -> inception_4c/output
I0403 14:55:28.929510 11399 net.cpp:141] Setting up inception_4c/output
I0403 14:55:28.929533 11399 net.cpp:148] Top shape: 24 512 14 14 (2408448)
I0403 14:55:28.929546 11399 net.cpp:156] Memory required for data: 1072647456
I0403 14:55:28.929560 11399 layer_factory.hpp:77] Creating layer inception_4c/output_inception_4c/output_0_split
I0403 14:55:28.929577 11399 net.cpp:91] Creating Layer inception_4c/output_inception_4c/output_0_split
I0403 14:55:28.929592 11399 net.cpp:425] inception_4c/output_inception_4c/output_0_split <- inception_4c/output
I0403 14:55:28.929611 11399 net.cpp:399] inception_4c/output_inception_4c/output_0_split -> inception_4c/output_inception_4c/output_0_split_0
I0403 14:55:28.929631 11399 net.cpp:399] inception_4c/output_inception_4c/output_0_split -> inception_4c/output_inception_4c/output_0_split_1
I0403 14:55:28.929651 11399 net.cpp:399] inception_4c/output_inception_4c/output_0_split -> inception_4c/output_inception_4c/output_0_split_2
I0403 14:55:28.929672 11399 net.cpp:399] inception_4c/output_inception_4c/output_0_split -> inception_4c/output_inception_4c/output_0_split_3
I0403 14:55:28.929759 11399 net.cpp:141] Setting up inception_4c/output_inception_4c/output_0_split
I0403 14:55:28.929783 11399 net.cpp:148] Top shape: 24 512 14 14 (2408448)
I0403 14:55:28.929800 11399 net.cpp:148] Top shape: 24 512 14 14 (2408448)
I0403 14:55:28.929816 11399 net.cpp:148] Top shape: 24 512 14 14 (2408448)
I0403 14:55:28.929829 11399 net.cpp:148] Top shape: 24 512 14 14 (2408448)
I0403 14:55:28.929842 11399 net.cpp:156] Memory required for data: 1111182624
I0403 14:55:28.929855 11399 layer_factory.hpp:77] Creating layer inception_4d/1x1
I0403 14:55:28.929877 11399 net.cpp:91] Creating Layer inception_4d/1x1
I0403 14:55:28.929893 11399 net.cpp:425] inception_4d/1x1 <- inception_4c/output_inception_4c/output_0_split_0
I0403 14:55:28.929911 11399 net.cpp:399] inception_4d/1x1 -> inception_4d/1x1
I0403 14:55:28.931346 11399 net.cpp:141] Setting up inception_4d/1x1
I0403 14:55:28.931377 11399 net.cpp:148] Top shape: 24 112 14 14 (526848)
I0403 14:55:28.931394 11399 net.cpp:156] Memory required for data: 1113290016
I0403 14:55:28.931412 11399 layer_factory.hpp:77] Creating layer inception_4d/relu_1x1
I0403 14:55:28.931430 11399 net.cpp:91] Creating Layer inception_4d/relu_1x1
I0403 14:55:28.931445 11399 net.cpp:425] inception_4d/relu_1x1 <- inception_4d/1x1
I0403 14:55:28.931465 11399 net.cpp:386] inception_4d/relu_1x1 -> inception_4d/1x1 (in-place)
I0403 14:55:28.931660 11399 net.cpp:141] Setting up inception_4d/relu_1x1
I0403 14:55:28.931685 11399 net.cpp:148] Top shape: 24 112 14 14 (526848)
I0403 14:55:28.931701 11399 net.cpp:156] Memory required for data: 1115397408
I0403 14:55:28.931715 11399 layer_factory.hpp:77] Creating layer inception_4d/3x3_reduce
I0403 14:55:28.931752 11399 net.cpp:91] Creating Layer inception_4d/3x3_reduce
I0403 14:55:28.931771 11399 net.cpp:425] inception_4d/3x3_reduce <- inception_4c/output_inception_4c/output_0_split_1
I0403 14:55:28.931792 11399 net.cpp:399] inception_4d/3x3_reduce -> inception_4d/3x3_reduce
I0403 14:55:28.933368 11399 net.cpp:141] Setting up inception_4d/3x3_reduce
I0403 14:55:28.933400 11399 net.cpp:148] Top shape: 24 144 14 14 (677376)
I0403 14:55:28.933418 11399 net.cpp:156] Memory required for data: 1118106912
I0403 14:55:28.933435 11399 layer_factory.hpp:77] Creating layer inception_4d/relu_3x3_reduce
I0403 14:55:28.933454 11399 net.cpp:91] Creating Layer inception_4d/relu_3x3_reduce
I0403 14:55:28.933470 11399 net.cpp:425] inception_4d/relu_3x3_reduce <- inception_4d/3x3_reduce
I0403 14:55:28.933486 11399 net.cpp:386] inception_4d/relu_3x3_reduce -> inception_4d/3x3_reduce (in-place)
I0403 14:55:28.933789 11399 net.cpp:141] Setting up inception_4d/relu_3x3_reduce
I0403 14:55:28.933818 11399 net.cpp:148] Top shape: 24 144 14 14 (677376)
I0403 14:55:28.933835 11399 net.cpp:156] Memory required for data: 1120816416
I0403 14:55:28.933850 11399 layer_factory.hpp:77] Creating layer inception_4d/3x3
I0403 14:55:28.933872 11399 net.cpp:91] Creating Layer inception_4d/3x3
I0403 14:55:28.933890 11399 net.cpp:425] inception_4d/3x3 <- inception_4d/3x3_reduce
I0403 14:55:28.933909 11399 net.cpp:399] inception_4d/3x3 -> inception_4d/3x3
I0403 14:55:28.938290 11399 net.cpp:141] Setting up inception_4d/3x3
I0403 14:55:28.938324 11399 net.cpp:148] Top shape: 24 288 14 14 (1354752)
I0403 14:55:28.938341 11399 net.cpp:156] Memory required for data: 1126235424
I0403 14:55:28.938359 11399 layer_factory.hpp:77] Creating layer inception_4d/relu_3x3
I0403 14:55:28.938379 11399 net.cpp:91] Creating Layer inception_4d/relu_3x3
I0403 14:55:28.938395 11399 net.cpp:425] inception_4d/relu_3x3 <- inception_4d/3x3
I0403 14:55:28.938413 11399 net.cpp:386] inception_4d/relu_3x3 -> inception_4d/3x3 (in-place)
I0403 14:55:28.938608 11399 net.cpp:141] Setting up inception_4d/relu_3x3
I0403 14:55:28.938633 11399 net.cpp:148] Top shape: 24 288 14 14 (1354752)
I0403 14:55:28.938647 11399 net.cpp:156] Memory required for data: 1131654432
I0403 14:55:28.938663 11399 layer_factory.hpp:77] Creating layer inception_4d/5x5_reduce
I0403 14:55:28.938684 11399 net.cpp:91] Creating Layer inception_4d/5x5_reduce
I0403 14:55:28.938702 11399 net.cpp:425] inception_4d/5x5_reduce <- inception_4c/output_inception_4c/output_0_split_2
I0403 14:55:28.938724 11399 net.cpp:399] inception_4d/5x5_reduce -> inception_4d/5x5_reduce
I0403 14:55:28.939942 11399 net.cpp:141] Setting up inception_4d/5x5_reduce
I0403 14:55:28.939973 11399 net.cpp:148] Top shape: 24 32 14 14 (150528)
I0403 14:55:28.939990 11399 net.cpp:156] Memory required for data: 1132256544
I0403 14:55:28.940007 11399 layer_factory.hpp:77] Creating layer inception_4d/relu_5x5_reduce
I0403 14:55:28.940026 11399 net.cpp:91] Creating Layer inception_4d/relu_5x5_reduce
I0403 14:55:28.940042 11399 net.cpp:425] inception_4d/relu_5x5_reduce <- inception_4d/5x5_reduce
I0403 14:55:28.940062 11399 net.cpp:386] inception_4d/relu_5x5_reduce -> inception_4d/5x5_reduce (in-place)
I0403 14:55:28.940259 11399 net.cpp:141] Setting up inception_4d/relu_5x5_reduce
I0403 14:55:28.940284 11399 net.cpp:148] Top shape: 24 32 14 14 (150528)
I0403 14:55:28.940299 11399 net.cpp:156] Memory required for data: 1132858656
I0403 14:55:28.940313 11399 layer_factory.hpp:77] Creating layer inception_4d/5x5
I0403 14:55:28.940340 11399 net.cpp:91] Creating Layer inception_4d/5x5
I0403 14:55:28.940358 11399 net.cpp:425] inception_4d/5x5 <- inception_4d/5x5_reduce
I0403 14:55:28.940379 11399 net.cpp:399] inception_4d/5x5 -> inception_4d/5x5
I0403 14:55:28.941921 11399 net.cpp:141] Setting up inception_4d/5x5
I0403 14:55:28.941951 11399 net.cpp:148] Top shape: 24 64 14 14 (301056)
I0403 14:55:28.941965 11399 net.cpp:156] Memory required for data: 1134062880
I0403 14:55:28.941984 11399 layer_factory.hpp:77] Creating layer inception_4d/relu_5x5
I0403 14:55:28.942019 11399 net.cpp:91] Creating Layer inception_4d/relu_5x5
I0403 14:55:28.942039 11399 net.cpp:425] inception_4d/relu_5x5 <- inception_4d/5x5
I0403 14:55:28.942055 11399 net.cpp:386] inception_4d/relu_5x5 -> inception_4d/5x5 (in-place)
I0403 14:55:28.942389 11399 net.cpp:141] Setting up inception_4d/relu_5x5
I0403 14:55:28.942416 11399 net.cpp:148] Top shape: 24 64 14 14 (301056)
I0403 14:55:28.942431 11399 net.cpp:156] Memory required for data: 1135267104
I0403 14:55:28.942447 11399 layer_factory.hpp:77] Creating layer inception_4d/pool
I0403 14:55:28.942467 11399 net.cpp:91] Creating Layer inception_4d/pool
I0403 14:55:28.942486 11399 net.cpp:425] inception_4d/pool <- inception_4c/output_inception_4c/output_0_split_3
I0403 14:55:28.942503 11399 net.cpp:399] inception_4d/pool -> inception_4d/pool
I0403 14:55:28.942576 11399 net.cpp:141] Setting up inception_4d/pool
I0403 14:55:28.942600 11399 net.cpp:148] Top shape: 24 512 14 14 (2408448)
I0403 14:55:28.942627 11399 net.cpp:156] Memory required for data: 1144900896
I0403 14:55:28.942641 11399 layer_factory.hpp:77] Creating layer inception_4d/pool_proj
I0403 14:55:28.942663 11399 net.cpp:91] Creating Layer inception_4d/pool_proj
I0403 14:55:28.942682 11399 net.cpp:425] inception_4d/pool_proj <- inception_4d/pool
I0403 14:55:28.942704 11399 net.cpp:399] inception_4d/pool_proj -> inception_4d/pool_proj
I0403 14:55:28.944540 11399 net.cpp:141] Setting up inception_4d/pool_proj
I0403 14:55:28.944569 11399 net.cpp:148] Top shape: 24 64 14 14 (301056)
I0403 14:55:28.944586 11399 net.cpp:156] Memory required for data: 1146105120
I0403 14:55:28.944603 11399 layer_factory.hpp:77] Creating layer inception_4d/relu_pool_proj
I0403 14:55:28.944622 11399 net.cpp:91] Creating Layer inception_4d/relu_pool_proj
I0403 14:55:28.944638 11399 net.cpp:425] inception_4d/relu_pool_proj <- inception_4d/pool_proj
I0403 14:55:28.944658 11399 net.cpp:386] inception_4d/relu_pool_proj -> inception_4d/pool_proj (in-place)
I0403 14:55:28.944854 11399 net.cpp:141] Setting up inception_4d/relu_pool_proj
I0403 14:55:28.944878 11399 net.cpp:148] Top shape: 24 64 14 14 (301056)
I0403 14:55:28.944892 11399 net.cpp:156] Memory required for data: 1147309344
I0403 14:55:28.944907 11399 layer_factory.hpp:77] Creating layer inception_4d/output
I0403 14:55:28.944926 11399 net.cpp:91] Creating Layer inception_4d/output
I0403 14:55:28.944943 11399 net.cpp:425] inception_4d/output <- inception_4d/1x1
I0403 14:55:28.944960 11399 net.cpp:425] inception_4d/output <- inception_4d/3x3
I0403 14:55:28.944975 11399 net.cpp:425] inception_4d/output <- inception_4d/5x5
I0403 14:55:28.944991 11399 net.cpp:425] inception_4d/output <- inception_4d/pool_proj
I0403 14:55:28.945008 11399 net.cpp:399] inception_4d/output -> inception_4d/output
I0403 14:55:28.945056 11399 net.cpp:141] Setting up inception_4d/output
I0403 14:55:28.945082 11399 net.cpp:148] Top shape: 24 528 14 14 (2483712)
I0403 14:55:28.945097 11399 net.cpp:156] Memory required for data: 1157244192
I0403 14:55:28.945112 11399 layer_factory.hpp:77] Creating layer inception_4d/output_inception_4d/output_0_split
I0403 14:55:28.945129 11399 net.cpp:91] Creating Layer inception_4d/output_inception_4d/output_0_split
I0403 14:55:28.945145 11399 net.cpp:425] inception_4d/output_inception_4d/output_0_split <- inception_4d/output
I0403 14:55:28.945164 11399 net.cpp:399] inception_4d/output_inception_4d/output_0_split -> inception_4d/output_inception_4d/output_0_split_0
I0403 14:55:28.945186 11399 net.cpp:399] inception_4d/output_inception_4d/output_0_split -> inception_4d/output_inception_4d/output_0_split_1
I0403 14:55:28.945207 11399 net.cpp:399] inception_4d/output_inception_4d/output_0_split -> inception_4d/output_inception_4d/output_0_split_2
I0403 14:55:28.945228 11399 net.cpp:399] inception_4d/output_inception_4d/output_0_split -> inception_4d/output_inception_4d/output_0_split_3
I0403 14:55:28.945248 11399 net.cpp:399] inception_4d/output_inception_4d/output_0_split -> inception_4d/output_inception_4d/output_0_split_4
I0403 14:55:28.945360 11399 net.cpp:141] Setting up inception_4d/output_inception_4d/output_0_split
I0403 14:55:28.945396 11399 net.cpp:148] Top shape: 24 528 14 14 (2483712)
I0403 14:55:28.945416 11399 net.cpp:148] Top shape: 24 528 14 14 (2483712)
I0403 14:55:28.945432 11399 net.cpp:148] Top shape: 24 528 14 14 (2483712)
I0403 14:55:28.945448 11399 net.cpp:148] Top shape: 24 528 14 14 (2483712)
I0403 14:55:28.945463 11399 net.cpp:148] Top shape: 24 528 14 14 (2483712)
I0403 14:55:28.945477 11399 net.cpp:156] Memory required for data: 1206918432
I0403 14:55:28.945492 11399 layer_factory.hpp:77] Creating layer loss2/ave_pool
I0403 14:55:28.945508 11399 net.cpp:91] Creating Layer loss2/ave_pool
I0403 14:55:28.945524 11399 net.cpp:425] loss2/ave_pool <- inception_4d/output_inception_4d/output_0_split_0
I0403 14:55:28.945545 11399 net.cpp:399] loss2/ave_pool -> loss2/ave_pool
I0403 14:55:28.945874 11399 net.cpp:141] Setting up loss2/ave_pool
I0403 14:55:28.945901 11399 net.cpp:148] Top shape: 24 528 4 4 (202752)
I0403 14:55:28.945916 11399 net.cpp:156] Memory required for data: 1207729440
I0403 14:55:28.945931 11399 layer_factory.hpp:77] Creating layer loss2/conv
I0403 14:55:28.945955 11399 net.cpp:91] Creating Layer loss2/conv
I0403 14:55:28.945971 11399 net.cpp:425] loss2/conv <- loss2/ave_pool
I0403 14:55:28.945993 11399 net.cpp:399] loss2/conv -> loss2/conv
I0403 14:55:28.947990 11399 net.cpp:141] Setting up loss2/conv
I0403 14:55:28.948019 11399 net.cpp:148] Top shape: 24 128 4 4 (49152)
I0403 14:55:28.948035 11399 net.cpp:156] Memory required for data: 1207926048
I0403 14:55:28.948055 11399 layer_factory.hpp:77] Creating layer loss2/relu_conv
I0403 14:55:28.948076 11399 net.cpp:91] Creating Layer loss2/relu_conv
I0403 14:55:28.948091 11399 net.cpp:425] loss2/relu_conv <- loss2/conv
I0403 14:55:28.948108 11399 net.cpp:386] loss2/relu_conv -> loss2/conv (in-place)
I0403 14:55:28.948428 11399 net.cpp:141] Setting up loss2/relu_conv
I0403 14:55:28.948477 11399 net.cpp:148] Top shape: 24 128 4 4 (49152)
I0403 14:55:28.948493 11399 net.cpp:156] Memory required for data: 1208122656
I0403 14:55:28.948508 11399 layer_factory.hpp:77] Creating layer loss2/fc
I0403 14:55:28.948528 11399 net.cpp:91] Creating Layer loss2/fc
I0403 14:55:28.948545 11399 net.cpp:425] loss2/fc <- loss2/conv
I0403 14:55:28.948564 11399 net.cpp:399] loss2/fc -> loss2/fc
I0403 14:55:28.966435 11399 net.cpp:141] Setting up loss2/fc
I0403 14:55:28.966472 11399 net.cpp:148] Top shape: 24 1024 (24576)
I0403 14:55:28.966487 11399 net.cpp:156] Memory required for data: 1208220960
I0403 14:55:28.966506 11399 layer_factory.hpp:77] Creating layer loss2/relu_fc
I0403 14:55:28.966526 11399 net.cpp:91] Creating Layer loss2/relu_fc
I0403 14:55:28.966543 11399 net.cpp:425] loss2/relu_fc <- loss2/fc
I0403 14:55:28.966564 11399 net.cpp:386] loss2/relu_fc -> loss2/fc (in-place)
I0403 14:55:28.966918 11399 net.cpp:141] Setting up loss2/relu_fc
I0403 14:55:28.966944 11399 net.cpp:148] Top shape: 24 1024 (24576)
I0403 14:55:28.966959 11399 net.cpp:156] Memory required for data: 1208319264
I0403 14:55:28.966974 11399 layer_factory.hpp:77] Creating layer loss2/drop_fc
I0403 14:55:28.966992 11399 net.cpp:91] Creating Layer loss2/drop_fc
I0403 14:55:28.967007 11399 net.cpp:425] loss2/drop_fc <- loss2/fc
I0403 14:55:28.967027 11399 net.cpp:386] loss2/drop_fc -> loss2/fc (in-place)
I0403 14:55:28.967078 11399 net.cpp:141] Setting up loss2/drop_fc
I0403 14:55:28.967104 11399 net.cpp:148] Top shape: 24 1024 (24576)
I0403 14:55:28.967119 11399 net.cpp:156] Memory required for data: 1208417568
I0403 14:55:28.967133 11399 layer_factory.hpp:77] Creating layer loss2/classifier_plantvillage
I0403 14:55:28.967151 11399 net.cpp:91] Creating Layer loss2/classifier_plantvillage
I0403 14:55:28.967167 11399 net.cpp:425] loss2/classifier_plantvillage <- loss2/fc
I0403 14:55:28.967187 11399 net.cpp:399] loss2/classifier_plantvillage -> loss2/classifier_plantvillage
I0403 14:55:28.967614 11399 net.cpp:141] Setting up loss2/classifier_plantvillage
I0403 14:55:28.967640 11399 net.cpp:148] Top shape: 24 38 (912)
I0403 14:55:28.967680 11399 net.cpp:156] Memory required for data: 1208421216
I0403 14:55:28.967699 11399 layer_factory.hpp:77] Creating layer loss2/classifier_plantvillage_loss2/classifier_plantvillage_0_split
I0403 14:55:28.967717 11399 net.cpp:91] Creating Layer loss2/classifier_plantvillage_loss2/classifier_plantvillage_0_split
I0403 14:55:28.967732 11399 net.cpp:425] loss2/classifier_plantvillage_loss2/classifier_plantvillage_0_split <- loss2/classifier_plantvillage
I0403 14:55:28.967748 11399 net.cpp:399] loss2/classifier_plantvillage_loss2/classifier_plantvillage_0_split -> loss2/classifier_plantvillage_loss2/classifier_plantvillage_0_split_0
I0403 14:55:28.967767 11399 net.cpp:399] loss2/classifier_plantvillage_loss2/classifier_plantvillage_0_split -> loss2/classifier_plantvillage_loss2/classifier_plantvillage_0_split_1
I0403 14:55:28.967787 11399 net.cpp:399] loss2/classifier_plantvillage_loss2/classifier_plantvillage_0_split -> loss2/classifier_plantvillage_loss2/classifier_plantvillage_0_split_2
I0403 14:55:28.967860 11399 net.cpp:141] Setting up loss2/classifier_plantvillage_loss2/classifier_plantvillage_0_split
I0403 14:55:28.967883 11399 net.cpp:148] Top shape: 24 38 (912)
I0403 14:55:28.967898 11399 net.cpp:148] Top shape: 24 38 (912)
I0403 14:55:28.967913 11399 net.cpp:148] Top shape: 24 38 (912)
I0403 14:55:28.967926 11399 net.cpp:156] Memory required for data: 1208432160
I0403 14:55:28.967939 11399 layer_factory.hpp:77] Creating layer inception_4e/1x1
I0403 14:55:28.967972 11399 net.cpp:91] Creating Layer inception_4e/1x1
I0403 14:55:28.967989 11399 net.cpp:425] inception_4e/1x1 <- inception_4d/output_inception_4d/output_0_split_1
I0403 14:55:28.968010 11399 net.cpp:399] inception_4e/1x1 -> inception_4e/1x1
I0403 14:55:28.969854 11399 net.cpp:141] Setting up inception_4e/1x1
I0403 14:55:28.969882 11399 net.cpp:148] Top shape: 24 256 14 14 (1204224)
I0403 14:55:28.969895 11399 net.cpp:156] Memory required for data: 1213249056
I0403 14:55:28.969913 11399 layer_factory.hpp:77] Creating layer inception_4e/relu_1x1
I0403 14:55:28.969931 11399 net.cpp:91] Creating Layer inception_4e/relu_1x1
I0403 14:55:28.969949 11399 net.cpp:425] inception_4e/relu_1x1 <- inception_4e/1x1
I0403 14:55:28.969964 11399 net.cpp:386] inception_4e/relu_1x1 -> inception_4e/1x1 (in-place)
I0403 14:55:28.970258 11399 net.cpp:141] Setting up inception_4e/relu_1x1
I0403 14:55:28.970283 11399 net.cpp:148] Top shape: 24 256 14 14 (1204224)
I0403 14:55:28.970298 11399 net.cpp:156] Memory required for data: 1218065952
I0403 14:55:28.970311 11399 layer_factory.hpp:77] Creating layer inception_4e/3x3_reduce
I0403 14:55:28.970336 11399 net.cpp:91] Creating Layer inception_4e/3x3_reduce
I0403 14:55:28.970357 11399 net.cpp:425] inception_4e/3x3_reduce <- inception_4d/output_inception_4d/output_0_split_2
I0403 14:55:28.970376 11399 net.cpp:399] inception_4e/3x3_reduce -> inception_4e/3x3_reduce
I0403 14:55:28.972488 11399 net.cpp:141] Setting up inception_4e/3x3_reduce
I0403 14:55:28.972515 11399 net.cpp:148] Top shape: 24 160 14 14 (752640)
I0403 14:55:28.972530 11399 net.cpp:156] Memory required for data: 1221076512
I0403 14:55:28.972548 11399 layer_factory.hpp:77] Creating layer inception_4e/relu_3x3_reduce
I0403 14:55:28.972568 11399 net.cpp:91] Creating Layer inception_4e/relu_3x3_reduce
I0403 14:55:28.972584 11399 net.cpp:425] inception_4e/relu_3x3_reduce <- inception_4e/3x3_reduce
I0403 14:55:28.972600 11399 net.cpp:386] inception_4e/relu_3x3_reduce -> inception_4e/3x3_reduce (in-place)
I0403 14:55:28.972786 11399 net.cpp:141] Setting up inception_4e/relu_3x3_reduce
I0403 14:55:28.972810 11399 net.cpp:148] Top shape: 24 160 14 14 (752640)
I0403 14:55:28.972825 11399 net.cpp:156] Memory required for data: 1224087072
I0403 14:55:28.972838 11399 layer_factory.hpp:77] Creating layer inception_4e/3x3
I0403 14:55:28.972862 11399 net.cpp:91] Creating Layer inception_4e/3x3
I0403 14:55:28.972877 11399 net.cpp:425] inception_4e/3x3 <- inception_4e/3x3_reduce
I0403 14:55:28.972894 11399 net.cpp:399] inception_4e/3x3 -> inception_4e/3x3
I0403 14:55:28.977789 11399 net.cpp:141] Setting up inception_4e/3x3
I0403 14:55:28.977828 11399 net.cpp:148] Top shape: 24 320 14 14 (1505280)
I0403 14:55:28.977843 11399 net.cpp:156] Memory required for data: 1230108192
I0403 14:55:28.977864 11399 layer_factory.hpp:77] Creating layer inception_4e/relu_3x3
I0403 14:55:28.977881 11399 net.cpp:91] Creating Layer inception_4e/relu_3x3
I0403 14:55:28.977897 11399 net.cpp:425] inception_4e/relu_3x3 <- inception_4e/3x3
I0403 14:55:28.977913 11399 net.cpp:386] inception_4e/relu_3x3 -> inception_4e/3x3 (in-place)
I0403 14:55:28.978212 11399 net.cpp:141] Setting up inception_4e/relu_3x3
I0403 14:55:28.978240 11399 net.cpp:148] Top shape: 24 320 14 14 (1505280)
I0403 14:55:28.978255 11399 net.cpp:156] Memory required for data: 1236129312
I0403 14:55:28.978269 11399 layer_factory.hpp:77] Creating layer inception_4e/5x5_reduce
I0403 14:55:28.978291 11399 net.cpp:91] Creating Layer inception_4e/5x5_reduce
I0403 14:55:28.978307 11399 net.cpp:425] inception_4e/5x5_reduce <- inception_4d/output_inception_4d/output_0_split_3
I0403 14:55:28.978343 11399 net.cpp:399] inception_4e/5x5_reduce -> inception_4e/5x5_reduce
I0403 14:55:28.979423 11399 net.cpp:141] Setting up inception_4e/5x5_reduce
I0403 14:55:28.979450 11399 net.cpp:148] Top shape: 24 32 14 14 (150528)
I0403 14:55:28.979465 11399 net.cpp:156] Memory required for data: 1236731424
I0403 14:55:28.979482 11399 layer_factory.hpp:77] Creating layer inception_4e/relu_5x5_reduce
I0403 14:55:28.979501 11399 net.cpp:91] Creating Layer inception_4e/relu_5x5_reduce
I0403 14:55:28.979516 11399 net.cpp:425] inception_4e/relu_5x5_reduce <- inception_4e/5x5_reduce
I0403 14:55:28.979533 11399 net.cpp:386] inception_4e/relu_5x5_reduce -> inception_4e/5x5_reduce (in-place)
I0403 14:55:28.979830 11399 net.cpp:141] Setting up inception_4e/relu_5x5_reduce
I0403 14:55:28.979856 11399 net.cpp:148] Top shape: 24 32 14 14 (150528)
I0403 14:55:28.979869 11399 net.cpp:156] Memory required for data: 1237333536
I0403 14:55:28.979883 11399 layer_factory.hpp:77] Creating layer inception_4e/5x5
I0403 14:55:28.979920 11399 net.cpp:91] Creating Layer inception_4e/5x5
I0403 14:55:28.979939 11399 net.cpp:425] inception_4e/5x5 <- inception_4e/5x5_reduce
I0403 14:55:28.979959 11399 net.cpp:399] inception_4e/5x5 -> inception_4e/5x5
I0403 14:55:28.981900 11399 net.cpp:141] Setting up inception_4e/5x5
I0403 14:55:28.981926 11399 net.cpp:148] Top shape: 24 128 14 14 (602112)
I0403 14:55:28.981941 11399 net.cpp:156] Memory required for data: 1239741984
I0403 14:55:28.981958 11399 layer_factory.hpp:77] Creating layer inception_4e/relu_5x5
I0403 14:55:28.981976 11399 net.cpp:91] Creating Layer inception_4e/relu_5x5
I0403 14:55:28.981992 11399 net.cpp:425] inception_4e/relu_5x5 <- inception_4e/5x5
I0403 14:55:28.982009 11399 net.cpp:386] inception_4e/relu_5x5 -> inception_4e/5x5 (in-place)
I0403 14:55:28.982204 11399 net.cpp:141] Setting up inception_4e/relu_5x5
I0403 14:55:28.982228 11399 net.cpp:148] Top shape: 24 128 14 14 (602112)
I0403 14:55:28.982242 11399 net.cpp:156] Memory required for data: 1242150432
I0403 14:55:28.982255 11399 layer_factory.hpp:77] Creating layer inception_4e/pool
I0403 14:55:28.982275 11399 net.cpp:91] Creating Layer inception_4e/pool
I0403 14:55:28.982291 11399 net.cpp:425] inception_4e/pool <- inception_4d/output_inception_4d/output_0_split_4
I0403 14:55:28.982308 11399 net.cpp:399] inception_4e/pool -> inception_4e/pool
I0403 14:55:28.982381 11399 net.cpp:141] Setting up inception_4e/pool
I0403 14:55:28.982404 11399 net.cpp:148] Top shape: 24 528 14 14 (2483712)
I0403 14:55:28.982417 11399 net.cpp:156] Memory required for data: 1252085280
I0403 14:55:28.982431 11399 layer_factory.hpp:77] Creating layer inception_4e/pool_proj
I0403 14:55:28.982452 11399 net.cpp:91] Creating Layer inception_4e/pool_proj
I0403 14:55:28.982468 11399 net.cpp:425] inception_4e/pool_proj <- inception_4e/pool
I0403 14:55:28.982489 11399 net.cpp:399] inception_4e/pool_proj -> inception_4e/pool_proj
I0403 14:55:28.984004 11399 net.cpp:141] Setting up inception_4e/pool_proj
I0403 14:55:28.984041 11399 net.cpp:148] Top shape: 24 128 14 14 (602112)
I0403 14:55:28.984057 11399 net.cpp:156] Memory required for data: 1254493728
I0403 14:55:28.984076 11399 layer_factory.hpp:77] Creating layer inception_4e/relu_pool_proj
I0403 14:55:28.984092 11399 net.cpp:91] Creating Layer inception_4e/relu_pool_proj
I0403 14:55:28.984108 11399 net.cpp:425] inception_4e/relu_pool_proj <- inception_4e/pool_proj
I0403 14:55:28.984127 11399 net.cpp:386] inception_4e/relu_pool_proj -> inception_4e/pool_proj (in-place)
I0403 14:55:28.984431 11399 net.cpp:141] Setting up inception_4e/relu_pool_proj
I0403 14:55:28.984457 11399 net.cpp:148] Top shape: 24 128 14 14 (602112)
I0403 14:55:28.984472 11399 net.cpp:156] Memory required for data: 1256902176
I0403 14:55:28.984486 11399 layer_factory.hpp:77] Creating layer inception_4e/output
I0403 14:55:28.984503 11399 net.cpp:91] Creating Layer inception_4e/output
I0403 14:55:28.984519 11399 net.cpp:425] inception_4e/output <- inception_4e/1x1
I0403 14:55:28.984534 11399 net.cpp:425] inception_4e/output <- inception_4e/3x3
I0403 14:55:28.984549 11399 net.cpp:425] inception_4e/output <- inception_4e/5x5
I0403 14:55:28.984565 11399 net.cpp:425] inception_4e/output <- inception_4e/pool_proj
I0403 14:55:28.984583 11399 net.cpp:399] inception_4e/output -> inception_4e/output
I0403 14:55:28.984633 11399 net.cpp:141] Setting up inception_4e/output
I0403 14:55:28.984658 11399 net.cpp:148] Top shape: 24 832 14 14 (3913728)
I0403 14:55:28.984673 11399 net.cpp:156] Memory required for data: 1272557088
I0403 14:55:28.984688 11399 layer_factory.hpp:77] Creating layer pool4/3x3_s2
I0403 14:55:28.984704 11399 net.cpp:91] Creating Layer pool4/3x3_s2
I0403 14:55:28.984720 11399 net.cpp:425] pool4/3x3_s2 <- inception_4e/output
I0403 14:55:28.984737 11399 net.cpp:399] pool4/3x3_s2 -> pool4/3x3_s2
I0403 14:55:28.984804 11399 net.cpp:141] Setting up pool4/3x3_s2
I0403 14:55:28.984828 11399 net.cpp:148] Top shape: 24 832 7 7 (978432)
I0403 14:55:28.984841 11399 net.cpp:156] Memory required for data: 1276470816
I0403 14:55:28.984855 11399 layer_factory.hpp:77] Creating layer pool4/3x3_s2_pool4/3x3_s2_0_split
I0403 14:55:28.984872 11399 net.cpp:91] Creating Layer pool4/3x3_s2_pool4/3x3_s2_0_split
I0403 14:55:28.984889 11399 net.cpp:425] pool4/3x3_s2_pool4/3x3_s2_0_split <- pool4/3x3_s2
I0403 14:55:28.984907 11399 net.cpp:399] pool4/3x3_s2_pool4/3x3_s2_0_split -> pool4/3x3_s2_pool4/3x3_s2_0_split_0
I0403 14:55:28.984928 11399 net.cpp:399] pool4/3x3_s2_pool4/3x3_s2_0_split -> pool4/3x3_s2_pool4/3x3_s2_0_split_1
I0403 14:55:28.984947 11399 net.cpp:399] pool4/3x3_s2_pool4/3x3_s2_0_split -> pool4/3x3_s2_pool4/3x3_s2_0_split_2
I0403 14:55:28.984969 11399 net.cpp:399] pool4/3x3_s2_pool4/3x3_s2_0_split -> pool4/3x3_s2_pool4/3x3_s2_0_split_3
I0403 14:55:28.985061 11399 net.cpp:141] Setting up pool4/3x3_s2_pool4/3x3_s2_0_split
I0403 14:55:28.985083 11399 net.cpp:148] Top shape: 24 832 7 7 (978432)
I0403 14:55:28.985100 11399 net.cpp:148] Top shape: 24 832 7 7 (978432)
I0403 14:55:28.985113 11399 net.cpp:148] Top shape: 24 832 7 7 (978432)
I0403 14:55:28.985127 11399 net.cpp:148] Top shape: 24 832 7 7 (978432)
I0403 14:55:28.985141 11399 net.cpp:156] Memory required for data: 1292125728
I0403 14:55:28.985155 11399 layer_factory.hpp:77] Creating layer inception_5a/1x1
I0403 14:55:28.985177 11399 net.cpp:91] Creating Layer inception_5a/1x1
I0403 14:55:28.985194 11399 net.cpp:425] inception_5a/1x1 <- pool4/3x3_s2_pool4/3x3_s2_0_split_0
I0403 14:55:28.985214 11399 net.cpp:399] inception_5a/1x1 -> inception_5a/1x1
I0403 14:55:28.988085 11399 net.cpp:141] Setting up inception_5a/1x1
I0403 14:55:28.988116 11399 net.cpp:148] Top shape: 24 256 7 7 (301056)
I0403 14:55:28.988131 11399 net.cpp:156] Memory required for data: 1293329952
I0403 14:55:28.988148 11399 layer_factory.hpp:77] Creating layer inception_5a/relu_1x1
I0403 14:55:28.988169 11399 net.cpp:91] Creating Layer inception_5a/relu_1x1
I0403 14:55:28.988186 11399 net.cpp:425] inception_5a/relu_1x1 <- inception_5a/1x1
I0403 14:55:28.988204 11399 net.cpp:386] inception_5a/relu_1x1 -> inception_5a/1x1 (in-place)
I0403 14:55:28.988528 11399 net.cpp:141] Setting up inception_5a/relu_1x1
I0403 14:55:28.988554 11399 net.cpp:148] Top shape: 24 256 7 7 (301056)
I0403 14:55:28.988569 11399 net.cpp:156] Memory required for data: 1294534176
I0403 14:55:28.988584 11399 layer_factory.hpp:77] Creating layer inception_5a/3x3_reduce
I0403 14:55:28.988605 11399 net.cpp:91] Creating Layer inception_5a/3x3_reduce
I0403 14:55:28.988622 11399 net.cpp:425] inception_5a/3x3_reduce <- pool4/3x3_s2_pool4/3x3_s2_0_split_1
I0403 14:55:28.988643 11399 net.cpp:399] inception_5a/3x3_reduce -> inception_5a/3x3_reduce
I0403 14:55:28.991108 11399 net.cpp:141] Setting up inception_5a/3x3_reduce
I0403 14:55:28.991139 11399 net.cpp:148] Top shape: 24 160 7 7 (188160)
I0403 14:55:28.991155 11399 net.cpp:156] Memory required for data: 1295286816
I0403 14:55:28.991173 11399 layer_factory.hpp:77] Creating layer inception_5a/relu_3x3_reduce
I0403 14:55:28.991190 11399 net.cpp:91] Creating Layer inception_5a/relu_3x3_reduce
I0403 14:55:28.991206 11399 net.cpp:425] inception_5a/relu_3x3_reduce <- inception_5a/3x3_reduce
I0403 14:55:28.991225 11399 net.cpp:386] inception_5a/relu_3x3_reduce -> inception_5a/3x3_reduce (in-place)
I0403 14:55:28.991425 11399 net.cpp:141] Setting up inception_5a/relu_3x3_reduce
I0403 14:55:28.991451 11399 net.cpp:148] Top shape: 24 160 7 7 (188160)
I0403 14:55:28.991464 11399 net.cpp:156] Memory required for data: 1296039456
I0403 14:55:28.991478 11399 layer_factory.hpp:77] Creating layer inception_5a/3x3
I0403 14:55:28.991502 11399 net.cpp:91] Creating Layer inception_5a/3x3
I0403 14:55:28.991518 11399 net.cpp:425] inception_5a/3x3 <- inception_5a/3x3_reduce
I0403 14:55:28.991539 11399 net.cpp:399] inception_5a/3x3 -> inception_5a/3x3
I0403 14:55:28.996649 11399 net.cpp:141] Setting up inception_5a/3x3
I0403 14:55:28.996677 11399 net.cpp:148] Top shape: 24 320 7 7 (376320)
I0403 14:55:28.996692 11399 net.cpp:156] Memory required for data: 1297544736
I0403 14:55:28.996709 11399 layer_factory.hpp:77] Creating layer inception_5a/relu_3x3
I0403 14:55:28.996727 11399 net.cpp:91] Creating Layer inception_5a/relu_3x3
I0403 14:55:28.996742 11399 net.cpp:425] inception_5a/relu_3x3 <- inception_5a/3x3
I0403 14:55:28.996762 11399 net.cpp:386] inception_5a/relu_3x3 -> inception_5a/3x3 (in-place)
I0403 14:55:28.997061 11399 net.cpp:141] Setting up inception_5a/relu_3x3
I0403 14:55:28.997088 11399 net.cpp:148] Top shape: 24 320 7 7 (376320)
I0403 14:55:28.997102 11399 net.cpp:156] Memory required for data: 1299050016
I0403 14:55:28.997117 11399 layer_factory.hpp:77] Creating layer inception_5a/5x5_reduce
I0403 14:55:28.997138 11399 net.cpp:91] Creating Layer inception_5a/5x5_reduce
I0403 14:55:28.997155 11399 net.cpp:425] inception_5a/5x5_reduce <- pool4/3x3_s2_pool4/3x3_s2_0_split_2
I0403 14:55:28.997176 11399 net.cpp:399] inception_5a/5x5_reduce -> inception_5a/5x5_reduce
I0403 14:55:28.998409 11399 net.cpp:141] Setting up inception_5a/5x5_reduce
I0403 14:55:28.998442 11399 net.cpp:148] Top shape: 24 32 7 7 (37632)
I0403 14:55:28.998458 11399 net.cpp:156] Memory required for data: 1299200544
I0403 14:55:28.998476 11399 layer_factory.hpp:77] Creating layer inception_5a/relu_5x5_reduce
I0403 14:55:28.998493 11399 net.cpp:91] Creating Layer inception_5a/relu_5x5_reduce
I0403 14:55:28.998509 11399 net.cpp:425] inception_5a/relu_5x5_reduce <- inception_5a/5x5_reduce
I0403 14:55:28.998527 11399 net.cpp:386] inception_5a/relu_5x5_reduce -> inception_5a/5x5_reduce (in-place)
I0403 14:55:28.998829 11399 net.cpp:141] Setting up inception_5a/relu_5x5_reduce
I0403 14:55:28.998855 11399 net.cpp:148] Top shape: 24 32 7 7 (37632)
I0403 14:55:28.998870 11399 net.cpp:156] Memory required for data: 1299351072
I0403 14:55:28.998884 11399 layer_factory.hpp:77] Creating layer inception_5a/5x5
I0403 14:55:28.998906 11399 net.cpp:91] Creating Layer inception_5a/5x5
I0403 14:55:28.998924 11399 net.cpp:425] inception_5a/5x5 <- inception_5a/5x5_reduce
I0403 14:55:28.998945 11399 net.cpp:399] inception_5a/5x5 -> inception_5a/5x5
I0403 14:55:29.000694 11399 net.cpp:141] Setting up inception_5a/5x5
I0403 14:55:29.000732 11399 net.cpp:148] Top shape: 24 128 7 7 (150528)
I0403 14:55:29.000748 11399 net.cpp:156] Memory required for data: 1299953184
I0403 14:55:29.000766 11399 layer_factory.hpp:77] Creating layer inception_5a/relu_5x5
I0403 14:55:29.000782 11399 net.cpp:91] Creating Layer inception_5a/relu_5x5
I0403 14:55:29.000798 11399 net.cpp:425] inception_5a/relu_5x5 <- inception_5a/5x5
I0403 14:55:29.000818 11399 net.cpp:386] inception_5a/relu_5x5 -> inception_5a/5x5 (in-place)
I0403 14:55:29.001011 11399 net.cpp:141] Setting up inception_5a/relu_5x5
I0403 14:55:29.001035 11399 net.cpp:148] Top shape: 24 128 7 7 (150528)
I0403 14:55:29.001050 11399 net.cpp:156] Memory required for data: 1300555296
I0403 14:55:29.001065 11399 layer_factory.hpp:77] Creating layer inception_5a/pool
I0403 14:55:29.001085 11399 net.cpp:91] Creating Layer inception_5a/pool
I0403 14:55:29.001101 11399 net.cpp:425] inception_5a/pool <- pool4/3x3_s2_pool4/3x3_s2_0_split_3
I0403 14:55:29.001117 11399 net.cpp:399] inception_5a/pool -> inception_5a/pool
I0403 14:55:29.001199 11399 net.cpp:141] Setting up inception_5a/pool
I0403 14:55:29.001233 11399 net.cpp:148] Top shape: 24 832 7 7 (978432)
I0403 14:55:29.001247 11399 net.cpp:156] Memory required for data: 1304469024
I0403 14:55:29.001261 11399 layer_factory.hpp:77] Creating layer inception_5a/pool_proj
I0403 14:55:29.001282 11399 net.cpp:91] Creating Layer inception_5a/pool_proj
I0403 14:55:29.001298 11399 net.cpp:425] inception_5a/pool_proj <- inception_5a/pool
I0403 14:55:29.001322 11399 net.cpp:399] inception_5a/pool_proj -> inception_5a/pool_proj
I0403 14:55:29.003612 11399 net.cpp:141] Setting up inception_5a/pool_proj
I0403 14:55:29.003639 11399 net.cpp:148] Top shape: 24 128 7 7 (150528)
I0403 14:55:29.003655 11399 net.cpp:156] Memory required for data: 1305071136
I0403 14:55:29.003672 11399 layer_factory.hpp:77] Creating layer inception_5a/relu_pool_proj
I0403 14:55:29.003690 11399 net.cpp:91] Creating Layer inception_5a/relu_pool_proj
I0403 14:55:29.003705 11399 net.cpp:425] inception_5a/relu_pool_proj <- inception_5a/pool_proj
I0403 14:55:29.003723 11399 net.cpp:386] inception_5a/relu_pool_proj -> inception_5a/pool_proj (in-place)
I0403 14:55:29.004015 11399 net.cpp:141] Setting up inception_5a/relu_pool_proj
I0403 14:55:29.004041 11399 net.cpp:148] Top shape: 24 128 7 7 (150528)
I0403 14:55:29.004055 11399 net.cpp:156] Memory required for data: 1305673248
I0403 14:55:29.004070 11399 layer_factory.hpp:77] Creating layer inception_5a/output
I0403 14:55:29.004086 11399 net.cpp:91] Creating Layer inception_5a/output
I0403 14:55:29.004101 11399 net.cpp:425] inception_5a/output <- inception_5a/1x1
I0403 14:55:29.004117 11399 net.cpp:425] inception_5a/output <- inception_5a/3x3
I0403 14:55:29.004132 11399 net.cpp:425] inception_5a/output <- inception_5a/5x5
I0403 14:55:29.004147 11399 net.cpp:425] inception_5a/output <- inception_5a/pool_proj
I0403 14:55:29.004165 11399 net.cpp:399] inception_5a/output -> inception_5a/output
I0403 14:55:29.004215 11399 net.cpp:141] Setting up inception_5a/output
I0403 14:55:29.004236 11399 net.cpp:148] Top shape: 24 832 7 7 (978432)
I0403 14:55:29.004250 11399 net.cpp:156] Memory required for data: 1309586976
I0403 14:55:29.004262 11399 layer_factory.hpp:77] Creating layer inception_5a/output_inception_5a/output_0_split
I0403 14:55:29.004281 11399 net.cpp:91] Creating Layer inception_5a/output_inception_5a/output_0_split
I0403 14:55:29.004297 11399 net.cpp:425] inception_5a/output_inception_5a/output_0_split <- inception_5a/output
I0403 14:55:29.004313 11399 net.cpp:399] inception_5a/output_inception_5a/output_0_split -> inception_5a/output_inception_5a/output_0_split_0
I0403 14:55:29.004340 11399 net.cpp:399] inception_5a/output_inception_5a/output_0_split -> inception_5a/output_inception_5a/output_0_split_1
I0403 14:55:29.004361 11399 net.cpp:399] inception_5a/output_inception_5a/output_0_split -> inception_5a/output_inception_5a/output_0_split_2
I0403 14:55:29.004380 11399 net.cpp:399] inception_5a/output_inception_5a/output_0_split -> inception_5a/output_inception_5a/output_0_split_3
I0403 14:55:29.004487 11399 net.cpp:141] Setting up inception_5a/output_inception_5a/output_0_split
I0403 14:55:29.004509 11399 net.cpp:148] Top shape: 24 832 7 7 (978432)
I0403 14:55:29.004524 11399 net.cpp:148] Top shape: 24 832 7 7 (978432)
I0403 14:55:29.004539 11399 net.cpp:148] Top shape: 24 832 7 7 (978432)
I0403 14:55:29.004552 11399 net.cpp:148] Top shape: 24 832 7 7 (978432)
I0403 14:55:29.004565 11399 net.cpp:156] Memory required for data: 1325241888
I0403 14:55:29.004578 11399 layer_factory.hpp:77] Creating layer inception_5b/1x1
I0403 14:55:29.004600 11399 net.cpp:91] Creating Layer inception_5b/1x1
I0403 14:55:29.004616 11399 net.cpp:425] inception_5b/1x1 <- inception_5a/output_inception_5a/output_0_split_0
I0403 14:55:29.004637 11399 net.cpp:399] inception_5b/1x1 -> inception_5b/1x1
I0403 14:55:29.008311 11399 net.cpp:141] Setting up inception_5b/1x1
I0403 14:55:29.008345 11399 net.cpp:148] Top shape: 24 384 7 7 (451584)
I0403 14:55:29.008361 11399 net.cpp:156] Memory required for data: 1327048224
I0403 14:55:29.008379 11399 layer_factory.hpp:77] Creating layer inception_5b/relu_1x1
I0403 14:55:29.008396 11399 net.cpp:91] Creating Layer inception_5b/relu_1x1
I0403 14:55:29.008412 11399 net.cpp:425] inception_5b/relu_1x1 <- inception_5b/1x1
I0403 14:55:29.008430 11399 net.cpp:386] inception_5b/relu_1x1 -> inception_5b/1x1 (in-place)
I0403 14:55:29.008729 11399 net.cpp:141] Setting up inception_5b/relu_1x1
I0403 14:55:29.008757 11399 net.cpp:148] Top shape: 24 384 7 7 (451584)
I0403 14:55:29.008771 11399 net.cpp:156] Memory required for data: 1328854560
I0403 14:55:29.008786 11399 layer_factory.hpp:77] Creating layer inception_5b/3x3_reduce
I0403 14:55:29.008806 11399 net.cpp:91] Creating Layer inception_5b/3x3_reduce
I0403 14:55:29.008823 11399 net.cpp:425] inception_5b/3x3_reduce <- inception_5a/output_inception_5a/output_0_split_1
I0403 14:55:29.008844 11399 net.cpp:399] inception_5b/3x3_reduce -> inception_5b/3x3_reduce
I0403 14:55:29.011473 11399 net.cpp:141] Setting up inception_5b/3x3_reduce
I0403 14:55:29.011505 11399 net.cpp:148] Top shape: 24 192 7 7 (225792)
I0403 14:55:29.011523 11399 net.cpp:156] Memory required for data: 1329757728
I0403 14:55:29.011540 11399 layer_factory.hpp:77] Creating layer inception_5b/relu_3x3_reduce
I0403 14:55:29.011559 11399 net.cpp:91] Creating Layer inception_5b/relu_3x3_reduce
I0403 14:55:29.011574 11399 net.cpp:425] inception_5b/relu_3x3_reduce <- inception_5b/3x3_reduce
I0403 14:55:29.011593 11399 net.cpp:386] inception_5b/relu_3x3_reduce -> inception_5b/3x3_reduce (in-place)
I0403 14:55:29.011795 11399 net.cpp:141] Setting up inception_5b/relu_3x3_reduce
I0403 14:55:29.011819 11399 net.cpp:148] Top shape: 24 192 7 7 (225792)
I0403 14:55:29.011832 11399 net.cpp:156] Memory required for data: 1330660896
I0403 14:55:29.011845 11399 layer_factory.hpp:77] Creating layer inception_5b/3x3
I0403 14:55:29.011867 11399 net.cpp:91] Creating Layer inception_5b/3x3
I0403 14:55:29.011883 11399 net.cpp:425] inception_5b/3x3 <- inception_5b/3x3_reduce
I0403 14:55:29.011904 11399 net.cpp:399] inception_5b/3x3 -> inception_5b/3x3
I0403 14:55:29.018556 11399 net.cpp:141] Setting up inception_5b/3x3
I0403 14:55:29.018585 11399 net.cpp:148] Top shape: 24 384 7 7 (451584)
I0403 14:55:29.018602 11399 net.cpp:156] Memory required for data: 1332467232
I0403 14:55:29.018620 11399 layer_factory.hpp:77] Creating layer inception_5b/relu_3x3
I0403 14:55:29.018637 11399 net.cpp:91] Creating Layer inception_5b/relu_3x3
I0403 14:55:29.018653 11399 net.cpp:425] inception_5b/relu_3x3 <- inception_5b/3x3
I0403 14:55:29.018673 11399 net.cpp:386] inception_5b/relu_3x3 -> inception_5b/3x3 (in-place)
I0403 14:55:29.018980 11399 net.cpp:141] Setting up inception_5b/relu_3x3
I0403 14:55:29.019006 11399 net.cpp:148] Top shape: 24 384 7 7 (451584)
I0403 14:55:29.019021 11399 net.cpp:156] Memory required for data: 1334273568
I0403 14:55:29.019034 11399 layer_factory.hpp:77] Creating layer inception_5b/5x5_reduce
I0403 14:55:29.019073 11399 net.cpp:91] Creating Layer inception_5b/5x5_reduce
I0403 14:55:29.019090 11399 net.cpp:425] inception_5b/5x5_reduce <- inception_5a/output_inception_5a/output_0_split_2
I0403 14:55:29.019114 11399 net.cpp:399] inception_5b/5x5_reduce -> inception_5b/5x5_reduce
I0403 14:55:29.020406 11399 net.cpp:141] Setting up inception_5b/5x5_reduce
I0403 14:55:29.020434 11399 net.cpp:148] Top shape: 24 48 7 7 (56448)
I0403 14:55:29.020449 11399 net.cpp:156] Memory required for data: 1334499360
I0403 14:55:29.020467 11399 layer_factory.hpp:77] Creating layer inception_5b/relu_5x5_reduce
I0403 14:55:29.020485 11399 net.cpp:91] Creating Layer inception_5b/relu_5x5_reduce
I0403 14:55:29.020500 11399 net.cpp:425] inception_5b/relu_5x5_reduce <- inception_5b/5x5_reduce
I0403 14:55:29.020519 11399 net.cpp:386] inception_5b/relu_5x5_reduce -> inception_5b/5x5_reduce (in-place)
I0403 14:55:29.020900 11399 net.cpp:141] Setting up inception_5b/relu_5x5_reduce
I0403 14:55:29.020925 11399 net.cpp:148] Top shape: 24 48 7 7 (56448)
I0403 14:55:29.020939 11399 net.cpp:156] Memory required for data: 1334725152
I0403 14:55:29.020953 11399 layer_factory.hpp:77] Creating layer inception_5b/5x5
I0403 14:55:29.020973 11399 net.cpp:91] Creating Layer inception_5b/5x5
I0403 14:55:29.020990 11399 net.cpp:425] inception_5b/5x5 <- inception_5b/5x5_reduce
I0403 14:55:29.021008 11399 net.cpp:399] inception_5b/5x5 -> inception_5b/5x5
I0403 14:55:29.023121 11399 net.cpp:141] Setting up inception_5b/5x5
I0403 14:55:29.023149 11399 net.cpp:148] Top shape: 24 128 7 7 (150528)
I0403 14:55:29.023164 11399 net.cpp:156] Memory required for data: 1335327264
I0403 14:55:29.023181 11399 layer_factory.hpp:77] Creating layer inception_5b/relu_5x5
I0403 14:55:29.023205 11399 net.cpp:91] Creating Layer inception_5b/relu_5x5
I0403 14:55:29.023222 11399 net.cpp:425] inception_5b/relu_5x5 <- inception_5b/5x5
I0403 14:55:29.023239 11399 net.cpp:386] inception_5b/relu_5x5 -> inception_5b/5x5 (in-place)
I0403 14:55:29.023449 11399 net.cpp:141] Setting up inception_5b/relu_5x5
I0403 14:55:29.023473 11399 net.cpp:148] Top shape: 24 128 7 7 (150528)
I0403 14:55:29.023488 11399 net.cpp:156] Memory required for data: 1335929376
I0403 14:55:29.023501 11399 layer_factory.hpp:77] Creating layer inception_5b/pool
I0403 14:55:29.023521 11399 net.cpp:91] Creating Layer inception_5b/pool
I0403 14:55:29.023537 11399 net.cpp:425] inception_5b/pool <- inception_5a/output_inception_5a/output_0_split_3
I0403 14:55:29.023555 11399 net.cpp:399] inception_5b/pool -> inception_5b/pool
I0403 14:55:29.023627 11399 net.cpp:141] Setting up inception_5b/pool
I0403 14:55:29.023651 11399 net.cpp:148] Top shape: 24 832 7 7 (978432)
I0403 14:55:29.023665 11399 net.cpp:156] Memory required for data: 1339843104
I0403 14:55:29.023679 11399 layer_factory.hpp:77] Creating layer inception_5b/pool_proj
I0403 14:55:29.023701 11399 net.cpp:91] Creating Layer inception_5b/pool_proj
I0403 14:55:29.023718 11399 net.cpp:425] inception_5b/pool_proj <- inception_5b/pool
I0403 14:55:29.023738 11399 net.cpp:399] inception_5b/pool_proj -> inception_5b/pool_proj
I0403 14:55:29.026072 11399 net.cpp:141] Setting up inception_5b/pool_proj
I0403 14:55:29.026100 11399 net.cpp:148] Top shape: 24 128 7 7 (150528)
I0403 14:55:29.026118 11399 net.cpp:156] Memory required for data: 1340445216
I0403 14:55:29.026136 11399 layer_factory.hpp:77] Creating layer inception_5b/relu_pool_proj
I0403 14:55:29.026154 11399 net.cpp:91] Creating Layer inception_5b/relu_pool_proj
I0403 14:55:29.026170 11399 net.cpp:425] inception_5b/relu_pool_proj <- inception_5b/pool_proj
I0403 14:55:29.026190 11399 net.cpp:386] inception_5b/relu_pool_proj -> inception_5b/pool_proj (in-place)
I0403 14:55:29.026499 11399 net.cpp:141] Setting up inception_5b/relu_pool_proj
I0403 14:55:29.026525 11399 net.cpp:148] Top shape: 24 128 7 7 (150528)
I0403 14:55:29.026540 11399 net.cpp:156] Memory required for data: 1341047328
I0403 14:55:29.026553 11399 layer_factory.hpp:77] Creating layer inception_5b/output
I0403 14:55:29.026571 11399 net.cpp:91] Creating Layer inception_5b/output
I0403 14:55:29.026600 11399 net.cpp:425] inception_5b/output <- inception_5b/1x1
I0403 14:55:29.026618 11399 net.cpp:425] inception_5b/output <- inception_5b/3x3
I0403 14:55:29.026633 11399 net.cpp:425] inception_5b/output <- inception_5b/5x5
I0403 14:55:29.026649 11399 net.cpp:425] inception_5b/output <- inception_5b/pool_proj
I0403 14:55:29.026669 11399 net.cpp:399] inception_5b/output -> inception_5b/output
I0403 14:55:29.026721 11399 net.cpp:141] Setting up inception_5b/output
I0403 14:55:29.026747 11399 net.cpp:148] Top shape: 24 1024 7 7 (1204224)
I0403 14:55:29.026762 11399 net.cpp:156] Memory required for data: 1345864224
I0403 14:55:29.026777 11399 layer_factory.hpp:77] Creating layer pool5/7x7_s1
I0403 14:55:29.026794 11399 net.cpp:91] Creating Layer pool5/7x7_s1
I0403 14:55:29.026810 11399 net.cpp:425] pool5/7x7_s1 <- inception_5b/output
I0403 14:55:29.026828 11399 net.cpp:399] pool5/7x7_s1 -> pool5/7x7_s1
I0403 14:55:29.027051 11399 net.cpp:141] Setting up pool5/7x7_s1
I0403 14:55:29.027076 11399 net.cpp:148] Top shape: 24 1024 1 1 (24576)
I0403 14:55:29.027091 11399 net.cpp:156] Memory required for data: 1345962528
I0403 14:55:29.027104 11399 layer_factory.hpp:77] Creating layer pool5/drop_7x7_s1
I0403 14:55:29.027122 11399 net.cpp:91] Creating Layer pool5/drop_7x7_s1
I0403 14:55:29.027137 11399 net.cpp:425] pool5/drop_7x7_s1 <- pool5/7x7_s1
I0403 14:55:29.027158 11399 net.cpp:386] pool5/drop_7x7_s1 -> pool5/7x7_s1 (in-place)
I0403 14:55:29.027206 11399 net.cpp:141] Setting up pool5/drop_7x7_s1
I0403 14:55:29.027232 11399 net.cpp:148] Top shape: 24 1024 1 1 (24576)
I0403 14:55:29.027246 11399 net.cpp:156] Memory required for data: 1346060832
I0403 14:55:29.027261 11399 layer_factory.hpp:77] Creating layer loss3/classifier_plantvillage
I0403 14:55:29.027279 11399 net.cpp:91] Creating Layer loss3/classifier_plantvillage
I0403 14:55:29.027294 11399 net.cpp:425] loss3/classifier_plantvillage <- pool5/7x7_s1
I0403 14:55:29.027315 11399 net.cpp:399] loss3/classifier_plantvillage -> loss3/classifier_plantvillage
I0403 14:55:29.027752 11399 net.cpp:141] Setting up loss3/classifier_plantvillage
I0403 14:55:29.027776 11399 net.cpp:148] Top shape: 24 38 (912)
I0403 14:55:29.027791 11399 net.cpp:156] Memory required for data: 1346064480
I0403 14:55:29.027807 11399 layer_factory.hpp:77] Creating layer loss3/classifier_plantvillage_loss3/classifier_plantvillage_0_split
I0403 14:55:29.027829 11399 net.cpp:91] Creating Layer loss3/classifier_plantvillage_loss3/classifier_plantvillage_0_split
I0403 14:55:29.027845 11399 net.cpp:425] loss3/classifier_plantvillage_loss3/classifier_plantvillage_0_split <- loss3/classifier_plantvillage
I0403 14:55:29.027861 11399 net.cpp:399] loss3/classifier_plantvillage_loss3/classifier_plantvillage_0_split -> loss3/classifier_plantvillage_loss3/classifier_plantvillage_0_split_0
I0403 14:55:29.027885 11399 net.cpp:399] loss3/classifier_plantvillage_loss3/classifier_plantvillage_0_split -> loss3/classifier_plantvillage_loss3/classifier_plantvillage_0_split_1
I0403 14:55:29.027905 11399 net.cpp:399] loss3/classifier_plantvillage_loss3/classifier_plantvillage_0_split -> loss3/classifier_plantvillage_loss3/classifier_plantvillage_0_split_2
I0403 14:55:29.027925 11399 net.cpp:399] loss3/classifier_plantvillage_loss3/classifier_plantvillage_0_split -> loss3/classifier_plantvillage_loss3/classifier_plantvillage_0_split_3
I0403 14:55:29.028025 11399 net.cpp:141] Setting up loss3/classifier_plantvillage_loss3/classifier_plantvillage_0_split
I0403 14:55:29.028048 11399 net.cpp:148] Top shape: 24 38 (912)
I0403 14:55:29.028064 11399 net.cpp:148] Top shape: 24 38 (912)
I0403 14:55:29.028079 11399 net.cpp:148] Top shape: 24 38 (912)
I0403 14:55:29.028093 11399 net.cpp:148] Top shape: 24 38 (912)
I0403 14:55:29.028107 11399 net.cpp:156] Memory required for data: 1346079072
I0403 14:55:29.028120 11399 layer_factory.hpp:77] Creating layer loss1/loss
I0403 14:55:29.028141 11399 net.cpp:91] Creating Layer loss1/loss
I0403 14:55:29.028158 11399 net.cpp:425] loss1/loss <- loss1/classifier_plantvillage_loss1/classifier_plantvillage_0_split_0
I0403 14:55:29.028188 11399 net.cpp:425] loss1/loss <- label_data_1_split_0
…
