…
I0403 15:19:55.359390 11844 net.cpp:313] The NetState phase (1) differed from the phase (0) specified by a rule in layer data
I0403 15:19:55.360656 11844 net.cpp:49] Initializing net from parameters: 
state {
  phase: TEST
}
layer {
  name: "data"
  type: "Data"
  top: "data"
  top: "label"
  include {
    phase: TEST
  }
  transform_param {
    mirror: false
    crop_size: 224
    mean_file: "/home/mohanty/data/final_dataset/lmdb/segmented-40-60/mean.binaryproto"
  }
  data_param {
    source: "/home/mohanty/data/final_dataset/lmdb/segmented-40-60/test_db"
    batch_size: 24
    backend: LMDB
  }
}
layer {
  name: "conv1/7x7_s2"
  type: "Convolution"
  bottom: "data"
  top: "conv1/7x7_s2"
  param {
    lr_mult: 1
    decay_mult: 1
  }
  param {
    lr_mult: 2
    decay_mult: 0
  }
  convolution_param {
    num_output: 64
    pad: 3
    kernel_size: 7
    stride: 2
    weight_filler {
      type: "xavier"
      std: 0.1
    }
    bias_filler {
      type: "constant"
      value: 0.2
    }
  }
}
layer {
  name: "conv1/relu_7x7"
  type: "ReLU"
  bottom: "conv1/7x7_s2"
  top: "conv1/7x7_s2"
}
layer {
  name: "pool1/3x3_s2"
  type: "Pooling"
  bottom: "conv1/7x7_s2"
  top: "pool1/3x3_s2"
  pooling_param {
    pool: MAX
    kernel_size: 3
    stride: 2
  }
}
layer {
  name: "pool1/norm1"
  type: "LRN"
  bottom: "pool1/3x3_s2"
  top: "pool1/norm1"
  lrn_param {
    local_size: 5
    alpha: 0.0001
    beta: 0.75
  }
}
layer {
  name: "conv2/3x3_reduce"
  type: "Convolution"
  bottom: "pool1/norm1"
  top: "conv2/3x3_reduce"
  param {
    lr_mult: 1
    decay_mult: 1
  }
  param {
    lr_mult: 2
    decay_mult: 0
  }
  convolution_param {
    num_output: 64
    kernel_size: 1
    weight_filler {
      type: "xavier"
      std: 0.1
    }
    bias_filler {
      type: "constant"
      value: 0.2
    }
  }
}
layer {
  name: "conv2/relu_3x3_reduce"
  type: "ReLU"
  bottom: "conv2/3x3_reduce"
  top: "conv2/3x3_reduce"
}
layer {
  name: "conv2/3x3"
  type: "Convolution"
  bottom: "conv2/3x3_reduce"
  top: "conv2/3x3"
  param {
    lr_mult: 1
    decay_mult: 1
  }
  param {
    lr_mult: 2
    decay_mult: 0
  }
  convolution_param {
    num_output: 192
    pad: 1
    kernel_size: 3
    weight_filler {
      type: "xavier"
      std: 0.03
    }
    bias_filler {
      type: "constant"
      value: 0.2
    }
  }
}
layer {
  name: "conv2/relu_3x3"
  type: "ReLU"
  bottom: "conv2/3x3"
  top: "conv2/3x3"
}
layer {
  name: "conv2/norm2"
  type: "LRN"
  bottom: "conv2/3x3"
  top: "conv2/norm2"
  lrn_param {
    local_size: 5
    alpha: 0.0001
    beta: 0.75
  }
}
layer {
  name: "pool2/3x3_s2"
  type: "Pooling"
  bottom: "conv2/norm2"
  top: "pool2/3x3_s2"
  pooling_param {
    pool: MAX
    kernel_size: 3
    stride: 2
  }
}
layer {
  name: "inception_3a/1x1"
  type: "Convolution"
  bottom: "pool2/3x3_s2"
  top: "inception_3a/1x1"
  param {
    lr_mult: 1
    decay_mult: 1
  }
  param {
    lr_mult: 2
    decay_mult: 0
  }
  convolution_param {
    num_output: 64
    kernel_size: 1
    weight_filler {
      type: "xavier"
      std: 0.03
    }
    bias_filler {
      type: "constant"
      value: 0.2
    }
  }
}
layer {
  name: "inception_3a/relu_1x1"
  type: "ReLU"
  bottom: "inception_3a/1x1"
  top: "inception_3a/1x1"
}
layer {
  name: "inception_3a/3x3_reduce"
  type: "Convolution"
  bottom: "pool2/3x3_s2"
  top: "inception_3a/3x3_reduce"
  param {
    lr_mult: 1
    decay_mult: 1
  }
  param {
    lr_mult: 2
    decay_mult: 0
  }
  convolution_param {
    num_output: 96
    kernel_size: 1
    weight_filler {
      type: "xavier"
      std: 0.09
    }
    bias_filler {
      type: "constant"
      value: 0.2
    }
  }
}
layer {
  name: "inception_3a/relu_3x3_reduce"
  type: "ReLU"
  bottom: "inception_3a/3x3_reduce"
  top: "inception_3a/3x3_reduce"
}
layer {
  name: "inception_3a/3x3"
  type: "Convolution"
  bottom: "inception_3a/3x3_reduce"
  top: "inception_3a/3x3"
  param {
    lr_mult: 1
    decay_mult: 1
  }
  param {
    lr_mult: 2
    decay_mult: 0
  }
  convolution_param {
    num_output: 128
    pad: 1
    kernel_size: 3
    weight_filler {
      type: "xavier"
      std: 0.03
    }
    bias_filler {
      type: "constant"
      value: 0.2
    }
  }
}
layer {
  name: "inception_3a/relu_3x3"
  type: "ReLU"
  bottom: "inception_3a/3x3"
  top: "inception_3a/3x3"
}
layer {
  name: "inception_3a/5x5_reduce"
  type: "Convolution"
  bottom: "pool2/3x3_s2"
  top: "inception_3a/5x5_reduce"
  param {
    lr_mult: 1
    decay_mult: 1
  }
  param {
    lr_mult: 2
    decay_mult: 0
  }
  convolution_param {
    num_output: 16
    kernel_size: 1
    weight_filler {
      type: "xavier"
      std: 0.2
    }
    bias_filler {
      type: "constant"
      value: 0.2
    }
  }
}
layer {
  name: "inception_3a/relu_5x5_reduce"
  type: "ReLU"
  bottom: "inception_3a/5x5_reduce"
  top: "inception_3a/5x5_reduce"
}
layer {
  name: "inception_3a/5x5"
  type: "Convolution"
  bottom: "inception_3a/5x5_reduce"
  top: "inception_3a/5x5"
  param {
    lr_mult: 1
    decay_mult: 1
  }
  param {
    lr_mult: 2
    decay_mult: 0
  }
  convolution_param {
    num_output: 32
    pad: 2
    kernel_size: 5
    weight_filler {
      type: "xavier"
      std: 0.03
    }
    bias_filler {
      type: "constant"
      value: 0.2
    }
  }
}
layer {
  name: "inception_3a/relu_5x5"
  type: "ReLU"
  bottom: "inception_3a/5x5"
  top: "inception_3a/5x5"
}
layer {
  name: "inception_3a/pool"
  type: "Pooling"
  bottom: "pool2/3x3_s2"
  top: "inception_3a/pool"
  pooling_param {
    pool: MAX
    kernel_size: 3
    stride: 1
    pad: 1
  }
}
layer {
  name: "inception_3a/pool_proj"
  type: "Convolution"
  bottom: "inception_3a/pool"
  top: "inception_3a/pool_proj"
  param {
    lr_mult: 1
    decay_mult: 1
  }
  param {
    lr_mult: 2
    decay_mult: 0
  }
  convolution_param {
    num_output: 32
    kernel_size: 1
    weight_filler {
      type: "xavier"
      std: 0.1
    }
    bias_filler {
      type: "constant"
      value: 0.2
    }
  }
}
layer {
  name: "inception_3a/relu_pool_proj"
  type: "ReLU"
  bottom: "inception_3a/pool_proj"
  top: "inception_3a/pool_proj"
}
layer {
  name: "inception_3a/output"
  type: "Concat"
  bottom: "inception_3a/1x1"
  bottom: "inception_3a/3x3"
  bottom: "inception_3a/5x5"
  bottom: "inception_3a/pool_proj"
  top: "inception_3a/output"
}
layer {
  name: "inception_3b/1x1"
  type: "Convolution"
  bottom: "inception_3a/output"
  top: "inception_3b/1x1"
  param {
    lr_mult: 1
    decay_mult: 1
  }
  param {
    lr_mult: 2
    decay_mult: 0
  }
  convolution_param {
    num_output: 128
    kernel_size: 1
    weight_filler {
      type: "xavier"
      std: 0.03
    }
    bias_filler {
      type: "constant"
      value: 0.2
    }
  }
}
layer {
  name: "inception_3b/relu_1x1"
  type: "ReLU"
  bottom: "inception_3b/1x1"
  top: "inception_3b/1x1"
}
layer {
  name: "inception_3b/3x3_reduce"
  type: "Convolution"
  bottom: "inception_3a/output"
  top: "inception_3b/3x3_reduce"
  param {
    lr_mult: 1
    decay_mult: 1
  }
  param {
    lr_mult: 2
    decay_mult: 0
  }
  convolution_param {
    num_output: 128
    kernel_size: 1
    weight_filler {
      type: "xavier"
      std: 0.09
    }
    bias_filler {
      type: "constant"
      value: 0.2
    }
  }
}
layer {
  name: "inception_3b/relu_3x3_reduce"
  type: "ReLU"
  bottom: "inception_3b/3x3_reduce"
  top: "inception_3b/3x3_reduce"
}
layer {
  name: "inception_3b/3x3"
  type: "Convolution"
  bottom: "inception_3b/3x3_reduce"
  top: "inception_3b/3x3"
  param {
    lr_mult: 1
    decay_mult: 1
  }
  param {
    lr_mult: 2
    decay_mult: 0
  }
  convolution_param {
    num_output: 192
    pad: 1
    kernel_size: 3
    weight_filler {
      type: "xavier"
      std: 0.03
    }
    bias_filler {
      type: "constant"
      value: 0.2
    }
  }
}
layer {
  name: "inception_3b/relu_3x3"
  type: "ReLU"
  bottom: "inception_3b/3x3"
  top: "inception_3b/3x3"
}
layer {
  name: "inception_3b/5x5_reduce"
  type: "Convolution"
  bottom: "inception_3a/output"
  top: "inception_3b/5x5_reduce"
  param {
    lr_mult: 1
    decay_mult: 1
  }
  param {
    lr_mult: 2
    decay_mult: 0
  }
  convolution_param {
    num_output: 32
    kernel_size: 1
    weight_filler {
      type: "xavier"
      std: 0.2
    }
    bias_filler {
      type: "constant"
      value: 0.2
    }
  }
}
layer {
  name: "inception_3b/relu_5x5_reduce"
  type: "ReLU"
  bottom: "inception_3b/5x5_reduce"
  top: "inception_3b/5x5_reduce"
}
layer {
  name: "inception_3b/5x5"
  type: "Convolution"
  bottom: "inception_3b/5x5_reduce"
  top: "inception_3b/5x5"
  param {
    lr_mult: 1
    decay_mult: 1
  }
  param {
    lr_mult: 2
    decay_mult: 0
  }
  convolution_param {
    num_output: 96
    pad: 2
    kernel_size: 5
    weight_filler {
      type: "xavier"
      std: 0.03
    }
    bias_filler {
      type: "constant"
      value: 0.2
    }
  }
}
layer {
  name: "inception_3b/relu_5x5"
  type: "ReLU"
  bottom: "inception_3b/5x5"
  top: "inception_3b/5x5"
}
layer {
  name: "inception_3b/pool"
  type: "Pooling"
  bottom: "inception_3a/output"
  top: "inception_3b/pool"
  pooling_param {
    pool: MAX
    kernel_size: 3
    stride: 1
    pad: 1
  }
}
layer {
  name: "inception_3b/pool_proj"
  type: "Convolution"
  bottom: "inception_3b/pool"
  top: "inception_3b/pool_proj"
  param {
    lr_mult: 1
    decay_mult: 1
  }
  param {
    lr_mult: 2
    decay_mult: 0
  }
  convolution_param {
    num_output: 64
    kernel_size: 1
    weight_filler {
      type: "xavier"
      std: 0.1
    }
    bias_filler {
      type: "constant"
      value: 0.2
    }
  }
}
layer {
  name: "inception_3b/relu_pool_proj"
  type: "ReLU"
  bottom: "inception_3b/pool_proj"
  top: "inception_3b/pool_proj"
}
layer {
  name: "inception_3b/output"
  type: "Concat"
  bottom: "inception_3b/1x1"
  bottom: "inception_3b/3x3"
  bottom: "inception_3b/5x5"
  bottom: "inception_3b/pool_proj"
  top: "inception_3b/output"
}
layer {
  name: "pool3/3x3_s2"
  type: "Pooling"
  bottom: "inception_3b/output"
  top: "pool3/3x3_s2"
  pooling_param {
    pool: MAX
    kernel_size: 3
    stride: 2
  }
}
layer {
  name: "inception_4a/1x1"
  type: "Convolution"
  bottom: "pool3/3x3_s2"
  top: "inception_4a/1x1"
  param {
    lr_mult: 1
    decay_mult: 1
  }
  param {
    lr_mult: 2
    decay_mult: 0
  }
  convolution_param {
    num_output: 192
    kernel_size: 1
    weight_filler {
      type: "xavier"
      std: 0.03
    }
    bias_filler {
      type: "constant"
      value: 0.2
    }
  }
}
layer {
  name: "inception_4a/relu_1x1"
  type: "ReLU"
  bottom: "inception_4a/1x1"
  top: "inception_4a/1x1"
}
layer {
  name: "inception_4a/3x3_reduce"
  type: "Convolution"
  bottom: "pool3/3x3_s2"
  top: "inception_4a/3x3_reduce"
  param {
    lr_mult: 1
    decay_mult: 1
  }
  param {
    lr_mult: 2
    decay_mult: 0
  }
  convolution_param {
    num_output: 96
    kernel_size: 1
    weight_filler {
      type: "xavier"
      std: 0.09
    }
    bias_filler {
      type: "constant"
      value: 0.2
    }
  }
}
layer {
  name: "inception_4a/relu_3x3_reduce"
  type: "ReLU"
  bottom: "inception_4a/3x3_reduce"
  top: "inception_4a/3x3_reduce"
}
layer {
  name: "inception_4a/3x3"
  type: "Convolution"
  bottom: "inception_4a/3x3_reduce"
  top: "inception_4a/3x3"
  param {
    lr_mult: 1
    decay_mult: 1
  }
  param {
    lr_mult: 2
    decay_mult: 0
  }
  convolution_param {
    num_output: 208
    pad: 1
    kernel_size: 3
    weight_filler {
      type: "xavier"
      std: 0.03
    }
    bias_filler {
      type: "constant"
      value: 0.2
    }
  }
}
layer {
  name: "inception_4a/relu_3x3"
  type: "ReLU"
  bottom: "inception_4a/3x3"
  top: "inception_4a/3x3"
}
layer {
  name: "inception_4a/5x5_reduce"
  type: "Convolution"
  bottom: "pool3/3x3_s2"
  top: "inception_4a/5x5_reduce"
  param {
    lr_mult: 1
    decay_mult: 1
  }
  param {
    lr_mult: 2
    decay_mult: 0
  }
  convolution_param {
    num_output: 16
    kernel_size: 1
    weight_filler {
      type: "xavier"
      std: 0.2
    }
    bias_filler {
      type: "constant"
      value: 0.2
    }
  }
}
layer {
  name: "inception_4a/relu_5x5_reduce"
  type: "ReLU"
  bottom: "inception_4a/5x5_reduce"
  top: "inception_4a/5x5_reduce"
}
layer {
  name: "inception_4a/5x5"
  type: "Convolution"
  bottom: "inception_4a/5x5_reduce"
  top: "inception_4a/5x5"
  param {
    lr_mult: 1
    decay_mult: 1
  }
  param {
    lr_mult: 2
    decay_mult: 0
  }
  convolution_param {
    num_output: 48
    pad: 2
    kernel_size: 5
    weight_filler {
      type: "xavier"
      std: 0.03
    }
    bias_filler {
      type: "constant"
      value: 0.2
    }
  }
}
layer {
  name: "inception_4a/relu_5x5"
  type: "ReLU"
  bottom: "inception_4a/5x5"
  top: "inception_4a/5x5"
}
layer {
  name: "inception_4a/pool"
  type: "Pooling"
  bottom: "pool3/3x3_s2"
  top: "inception_4a/pool"
  pooling_param {
    pool: MAX
    kernel_size: 3
    stride: 1
    pad: 1
  }
}
layer {
  name: "inception_4a/pool_proj"
  type: "Convolution"
  bottom: "inception_4a/pool"
  top: "inception_4a/pool_proj"
  param {
    lr_mult: 1
    decay_mult: 1
  }
  param {
    lr_mult: 2
    decay_mult: 0
  }
  convolution_param {
    num_output: 64
    kernel_size: 1
    weight_filler {
      type: "xavier"
      std: 0.1
    }
    bias_filler {
      type: "constant"
      value: 0.2
    }
  }
}
layer {
  name: "inception_4a/relu_pool_proj"
  type: "ReLU"
  bottom: "inception_4a/pool_proj"
  top: "inception_4a/pool_proj"
}
layer {
  name: "inception_4a/output"
  type: "Concat"
  bottom: "inception_4a/1x1"
  bottom: "inception_4a/3x3"
  bottom: "inception_4a/5x5"
  bottom: "inception_4a/pool_proj"
  top: "inception_4a/output"
}
layer {
  name: "loss1/ave_pool"
  type: "Pooling"
  bottom: "inception_4a/output"
  top: "loss1/ave_pool"
  pooling_param {
    pool: AVE
    kernel_size: 5
    stride: 3
  }
}
layer {
  name: "loss1/conv"
  type: "Convolution"
  bottom: "loss1/ave_pool"
  top: "loss1/conv"
  param {
    lr_mult: 1
    decay_mult: 1
  }
  param {
    lr_mult: 2
    decay_mult: 0
  }
  convolution_param {
    num_output: 128
    kernel_size: 1
    weight_filler {
      type: "xavier"
      std: 0.08
    }
    bias_filler {
      type: "constant"
      value: 0.2
    }
  }
}
layer {
  name: "loss1/relu_conv"
  type: "ReLU"
  bottom: "loss1/conv"
  top: "loss1/conv"
}
layer {
  name: "loss1/fc"
  type: "InnerProduct"
  bottom: "loss1/conv"
  top: "loss1/fc"
  param {
    lr_mult: 1
    decay_mult: 1
  }
  param {
    lr_mult: 2
    decay_mult: 0
  }
  inner_product_param {
    num_output: 1024
    weight_filler {
      type: "xavier"
      std: 0.02
    }
    bias_filler {
      type: "constant"
      value: 0.2
    }
  }
}
layer {
  name: "loss1/relu_fc"
  type: "ReLU"
  bottom: "loss1/fc"
  top: "loss1/fc"
}
layer {
  name: "loss1/drop_fc"
  type: "Dropout"
  bottom: "loss1/fc"
  top: "loss1/fc"
  dropout_param {
    dropout_ratio: 0.7
  }
}
layer {
  name: "loss1/classifier_plantvillage"
  type: "InnerProduct"
  bottom: "loss1/fc"
  top: "loss1/classifier_plantvillage"
  param {
    lr_mult: 1
    decay_mult: 1
  }
  param {
    lr_mult: 2
    decay_mult: 0
  }
  inner_product_param {
    num_output: 38
    weight_filler {
      type: "xavier"
      std: 0.0009765625
    }
    bias_filler {
      type: "constant"
      value: 0
    }
  }
}
layer {
  name: "inception_4b/1x1"
  type: "Convolution"
  bottom: "inception_4a/output"
  top: "inception_4b/1x1"
  param {
    lr_mult: 1
    decay_mult: 1
  }
  param {
    lr_mult: 2
    decay_mult: 0
  }
  convolution_param {
    num_output: 160
    kernel_size: 1
    weight_filler {
      type: "xavier"
      std: 0.03
    }
    bias_filler {
      type: "constant"
      value: 0.2
    }
  }
}
layer {
  name: "inception_4b/relu_1x1"
  type: "ReLU"
  bottom: "inception_4b/1x1"
  top: "inception_4b/1x1"
}
layer {
  name: "inception_4b/3x3_reduce"
  type: "Convolution"
  bottom: "inception_4a/output"
  top: "inception_4b/3x3_reduce"
  param {
    lr_mult: 1
    decay_mult: 1
  }
  param {
    lr_mult: 2
    decay_mult: 0
  }
  convolution_param {
    num_output: 112
    kernel_size: 1
    weight_filler {
      type: "xavier"
      std: 0.09
    }
    bias_filler {
      type: "constant"
      value: 0.2
    }
  }
}
layer {
  name: "inception_4b/relu_3x3_reduce"
  type: "ReLU"
  bottom: "inception_4b/3x3_reduce"
  top: "inception_4b/3x3_reduce"
}
layer {
  name: "inception_4b/3x3"
  type: "Convolution"
  bottom: "inception_4b/3x3_reduce"
  top: "inception_4b/3x3"
  param {
    lr_mult: 1
    decay_mult: 1
  }
  param {
    lr_mult: 2
    decay_mult: 0
  }
  convolution_param {
    num_output: 224
    pad: 1
    kernel_size: 3
    weight_filler {
      type: "xavier"
      std: 0.03
    }
    bias_filler {
      type: "constant"
      value: 0.2
    }
  }
}
layer {
  name: "inception_4b/relu_3x3"
  type: "ReLU"
  bottom: "inception_4b/3x3"
  top: "inception_4b/3x3"
}
layer {
  name: "inception_4b/5x5_reduce"
  type: "Convolution"
  bottom: "inception_4a/output"
  top: "inception_4b/5x5_reduce"
  param {
    lr_mult: 1
    decay_mult: 1
  }
  param {
    lr_mult: 2
    decay_mult: 0
  }
  convolution_param {
    num_output: 24
    kernel_size: 1
    weight_filler {
      type: "xavier"
      std: 0.2
    }
    bias_filler {
      type: "constant"
      value: 0.2
    }
  }
}
layer {
  name: "inception_4b/relu_5x5_reduce"
  type: "ReLU"
  bottom: "inception_4b/5x5_reduce"
  top: "inception_4b/5x5_reduce"
}
layer {
  name: "inception_4b/5x5"
  type: "Convolution"
  bottom: "inception_4b/5x5_reduce"
  top: "inception_4b/5x5"
  param {
    lr_mult: 1
    decay_mult: 1
  }
  param {
    lr_mult: 2
    decay_mult: 0
  }
  convolution_param {
    num_output: 64
    pad: 2
    kernel_size: 5
    weight_filler {
      type: "xavier"
      std: 0.03
    }
    bias_filler {
      type: "constant"
      value: 0.2
    }
  }
}
layer {
  name: "inception_4b/relu_5x5"
  type: "ReLU"
  bottom: "inception_4b/5x5"
  top: "inception_4b/5x5"
}
layer {
  name: "inception_4b/pool"
  type: "Pooling"
  bottom: "inception_4a/output"
  top: "inception_4b/pool"
  pooling_param {
    pool: MAX
    kernel_size: 3
    stride: 1
    pad: 1
  }
}
layer {
  name: "inception_4b/pool_proj"
  type: "Convolution"
  bottom: "inception_4b/pool"
  top: "inception_4b/pool_proj"
  param {
    lr_mult: 1
    decay_mult: 1
  }
  param {
    lr_mult: 2
    decay_mult: 0
  }
  convolution_param {
    num_output: 64
    kernel_size: 1
    weight_filler {
      type: "xavier"
      std: 0.1
    }
    bias_filler {
      type: "constant"
      value: 0.2
    }
  }
}
layer {
  name: "inception_4b/relu_pool_proj"
  type: "ReLU"
  bottom: "inception_4b/pool_proj"
  top: "inception_4b/pool_proj"
}
layer {
  name: "inception_4b/output"
  type: "Concat"
  bottom: "inception_4b/1x1"
  bottom: "inception_4b/3x3"
  bottom: "inception_4b/5x5"
  bottom: "inception_4b/pool_proj"
  top: "inception_4b/output"
}
layer {
  name: "inception_4c/1x1"
  type: "Convolution"
  bottom: "inception_4b/output"
  top: "inception_4c/1x1"
  param {
    lr_mult: 1
    decay_mult: 1
  }
  param {
    lr_mult: 2
    decay_mult: 0
  }
  convolution_param {
    num_output: 128
    kernel_size: 1
    weight_filler {
      type: "xavier"
      std: 0.03
    }
    bias_filler {
      type: "constant"
      value: 0.2
    }
  }
}
layer {
  name: "inception_4c/relu_1x1"
  type: "ReLU"
  bottom: "inception_4c/1x1"
  top: "inception_4c/1x1"
}
layer {
  name: "inception_4c/3x3_reduce"
  type: "Convolution"
  bottom: "inception_4b/output"
  top: "inception_4c/3x3_reduce"
  param {
    lr_mult: 1
    decay_mult: 1
  }
  param {
    lr_mult: 2
    decay_mult: 0
  }
  convolution_param {
    num_output: 128
    kernel_size: 1
    weight_filler {
      type: "xavier"
      std: 0.09
    }
    bias_filler {
      type: "constant"
      value: 0.2
    }
  }
}
layer {
  name: "inception_4c/relu_3x3_reduce"
  type: "ReLU"
  bottom: "inception_4c/3x3_reduce"
  top: "inception_4c/3x3_reduce"
}
layer {
  name: "inception_4c/3x3"
  type: "Convolution"
  bottom: "inception_4c/3x3_reduce"
  top: "inception_4c/3x3"
  param {
    lr_mult: 1
    decay_mult: 1
  }
  param {
    lr_mult: 2
    decay_mult: 0
  }
  convolution_param {
    num_output: 256
    pad: 1
    kernel_size: 3
    weight_filler {
      type: "xavier"
      std: 0.03
    }
    bias_filler {
      type: "constant"
      value: 0.2
    }
  }
}
layer {
  name: "inception_4c/relu_3x3"
  type: "ReLU"
  bottom: "inception_4c/3x3"
  top: "inception_4c/3x3"
}
layer {
  name: "inception_4c/5x5_reduce"
  type: "Convolution"
  bottom: "inception_4b/output"
  top: "inception_4c/5x5_reduce"
  param {
    lr_mult: 1
    decay_mult: 1
  }
  param {
    lr_mult: 2
    decay_mult: 0
  }
  convolution_param {
    num_output: 24
    kernel_size: 1
    weight_filler {
      type: "xavier"
      std: 0.2
    }
    bias_filler {
      type: "constant"
      value: 0.2
    }
  }
}
layer {
  name: "inception_4c/relu_5x5_reduce"
  type: "ReLU"
  bottom: "inception_4c/5x5_reduce"
  top: "inception_4c/5x5_reduce"
}
layer {
  name: "inception_4c/5x5"
  type: "Convolution"
  bottom: "inception_4c/5x5_reduce"
  top: "inception_4c/5x5"
  param {
    lr_mult: 1
    decay_mult: 1
  }
  param {
    lr_mult: 2
    decay_mult: 0
  }
  convolution_param {
    num_output: 64
    pad: 2
    kernel_size: 5
    weight_filler {
      type: "xavier"
      std: 0.03
    }
    bias_filler {
      type: "constant"
      value: 0.2
    }
  }
}
layer {
  name: "inception_4c/relu_5x5"
  type: "ReLU"
  bottom: "inception_4c/5x5"
  top: "inception_4c/5x5"
}
layer {
  name: "inception_4c/pool"
  type: "Pooling"
  bottom: "inception_4b/output"
  top: "inception_4c/pool"
  pooling_param {
    pool: MAX
    kernel_size: 3
    stride: 1
    pad: 1
  }
}
layer {
  name: "inception_4c/pool_proj"
  type: "Convolution"
  bottom: "inception_4c/pool"
  top: "inception_4c/pool_proj"
  param {
    lr_mult: 1
    decay_mult: 1
  }
  param {
    lr_mult: 2
    decay_mult: 0
  }
  convolution_param {
    num_output: 64
    kernel_size: 1
    weight_filler {
      type: "xavier"
      std: 0.1
    }
    bias_filler {
      type: "constant"
      value: 0.2
    }
  }
}
layer {
  name: "inception_4c/relu_pool_proj"
  type: "ReLU"
  bottom: "inception_4c/pool_proj"
  top: "inception_4c/pool_proj"
}
layer {
  name: "inception_4c/output"
  type: "Concat"
  bottom: "inception_4c/1x1"
  bottom: "inception_4c/3x3"
  bottom: "inception_4c/5x5"
  bottom: "inception_4c/pool_proj"
  top: "inception_4c/output"
}
layer {
  name: "inception_4d/1x1"
  type: "Convolution"
  bottom: "inception_4c/output"
  top: "inception_4d/1x1"
  param {
    lr_mult: 1
    decay_mult: 1
  }
  param {
    lr_mult: 2
    decay_mult: 0
  }
  convolution_param {
    num_output: 112
    kernel_size: 1
    weight_filler {
      type: "xavier"
      std: 0.03
    }
    bias_filler {
      type: "constant"
      value: 0.2
    }
  }
}
layer {
  name: "inception_4d/relu_1x1"
  type: "ReLU"
  bottom: "inception_4d/1x1"
  top: "inception_4d/1x1"
}
layer {
  name: "inception_4d/3x3_reduce"
  type: "Convolution"
  bottom: "inception_4c/output"
  top: "inception_4d/3x3_reduce"
  param {
    lr_mult: 1
    decay_mult: 1
  }
  param {
    lr_mult: 2
    decay_mult: 0
  }
  convolution_param {
    num_output: 144
    kernel_size: 1
    weight_filler {
      type: "xavier"
      std: 0.09
    }
    bias_filler {
      type: "constant"
      value: 0.2
    }
  }
}
layer {
  name: "inception_4d/relu_3x3_reduce"
  type: "ReLU"
  bottom: "inception_4d/3x3_reduce"
  top: "inception_4d/3x3_reduce"
}
layer {
  name: "inception_4d/3x3"
  type: "Convolution"
  bottom: "inception_4d/3x3_reduce"
  top: "inception_4d/3x3"
  param {
    lr_mult: 1
    decay_mult: 1
  }
  param {
    lr_mult: 2
    decay_mult: 0
  }
  convolution_param {
    num_output: 288
    pad: 1
    kernel_size: 3
    weight_filler {
      type: "xavier"
      std: 0.03
    }
    bias_filler {
      type: "constant"
      value: 0.2
    }
  }
}
layer {
  name: "inception_4d/relu_3x3"
  type: "ReLU"
  bottom: "inception_4d/3x3"
  top: "inception_4d/3x3"
}
layer {
  name: "inception_4d/5x5_reduce"
  type: "Convolution"
  bottom: "inception_4c/output"
  top: "inception_4d/5x5_reduce"
  param {
    lr_mult: 1
    decay_mult: 1
  }
  param {
    lr_mult: 2
    decay_mult: 0
  }
  convolution_param {
    num_output: 32
    kernel_size: 1
    weight_filler {
      type: "xavier"
      std: 0.2
    }
    bias_filler {
      type: "constant"
      value: 0.2
    }
  }
}
layer {
  name: "inception_4d/relu_5x5_reduce"
  type: "ReLU"
  bottom: "inception_4d/5x5_reduce"
  top: "inception_4d/5x5_reduce"
}
layer {
  name: "inception_4d/5x5"
  type: "Convolution"
  bottom: "inception_4d/5x5_reduce"
  top: "inception_4d/5x5"
  param {
    lr_mult: 1
    decay_mult: 1
  }
  param {
    lr_mult: 2
    decay_mult: 0
  }
  convolution_param {
    num_output: 64
    pad: 2
    kernel_size: 5
    weight_filler {
      type: "xavier"
      std: 0.03
    }
    bias_filler {
      type: "constant"
      value: 0.2
    }
  }
}
layer {
  name: "inception_4d/relu_5x5"
  type: "ReLU"
  bottom: "inception_4d/5x5"
  top: "inception_4d/5x5"
}
layer {
  name: "inception_4d/pool"
  type: "Pooling"
  bottom: "inception_4c/output"
  top: "inception_4d/pool"
  pooling_param {
    pool: MAX
    kernel_size: 3
    stride: 1
    pad: 1
  }
}
layer {
  name: "inception_4d/pool_proj"
  type: "Convolution"
  bottom: "inception_4d/pool"
  top: "inception_4d/pool_proj"
  param {
    lr_mult: 1
    decay_mult: 1
  }
  param {
    lr_mult: 2
    decay_mult: 0
  }
  convolution_param {
    num_output: 64
    kernel_size: 1
    weight_filler {
      type: "xavier"
      std: 0.1
    }
    bias_filler {
      type: "constant"
      value: 0.2
    }
  }
}
layer {
  name: "inception_4d/relu_pool_proj"
  type: "ReLU"
  bottom: "inception_4d/pool_proj"
  top: "inception_4d/pool_proj"
}
layer {
  name: "inception_4d/output"
  type: "Concat"
  bottom: "inception_4d/1x1"
  bottom: "inception_4d/3x3"
  bottom: "inception_4d/5x5"
  bottom: "inception_4d/pool_proj"
  top: "inception_4d/output"
}
layer {
  name: "loss2/ave_pool"
  type: "Pooling"
  bottom: "inception_4d/output"
  top: "loss2/ave_pool"
  pooling_param {
    pool: AVE
    kernel_size: 5
    stride: 3
  }
}
layer {
  name: "loss2/conv"
  type: "Convolution"
  bottom: "loss2/ave_pool"
  top: "loss2/conv"
  param {
    lr_mult: 1
    decay_mult: 1
  }
  param {
    lr_mult: 2
    decay_mult: 0
  }
  convolution_param {
    num_output: 128
    kernel_size: 1
    weight_filler {
      type: "xavier"
      std: 0.08
    }
    bias_filler {
      type: "constant"
      value: 0.2
    }
  }
}
layer {
  name: "loss2/relu_conv"
  type: "ReLU"
  bottom: "loss2/conv"
  top: "loss2/conv"
}
layer {
  name: "loss2/fc"
  type: "InnerProduct"
  bottom: "loss2/conv"
  top: "loss2/fc"
  param {
    lr_mult: 1
    decay_mult: 1
  }
  param {
    lr_mult: 2
    decay_mult: 0
  }
  inner_product_param {
    num_output: 1024
    weight_filler {
      type: "xavier"
      std: 0.02
    }
    bias_filler {
      type: "constant"
      value: 0.2
    }
  }
}
layer {
  name: "loss2/relu_fc"
  type: "ReLU"
  bottom: "loss2/fc"
  top: "loss2/fc"
}
layer {
  name: "loss2/drop_fc"
  type: "Dropout"
  bottom: "loss2/fc"
  top: "loss2/fc"
  dropout_param {
    dropout_ratio: 0.7
  }
}
layer {
  name: "loss2/classifier_plantvillage"
  type: "InnerProduct"
  bottom: "loss2/fc"
  top: "loss2/classifier_plantvillage"
  param {
    lr_mult: 1
    decay_mult: 1
  }
  param {
    lr_mult: 2
    decay_mult: 0
  }
  inner_product_param {
    num_output: 38
    weight_filler {
      type: "xavier"
      std: 0.0009765625
    }
    bias_filler {
      type: "constant"
      value: 0
    }
  }
}
layer {
  name: "inception_4e/1x1"
  type: "Convolution"
  bottom: "inception_4d/output"
  top: "inception_4e/1x1"
  param {
    lr_mult: 1
    decay_mult: 1
  }
  param {
    lr_mult: 2
    decay_mult: 0
  }
  convolution_param {
    num_output: 256
    kernel_size: 1
    weight_filler {
      type: "xavier"
      std: 0.03
    }
    bias_filler {
      type: "constant"
      value: 0.2
    }
  }
}
layer {
  name: "inception_4e/relu_1x1"
  type: "ReLU"
  bottom: "inception_4e/1x1"
  top: "inception_4e/1x1"
}
layer {
  name: "inception_4e/3x3_reduce"
  type: "Convolution"
  bottom: "inception_4d/output"
  top: "inception_4e/3x3_reduce"
  param {
    lr_mult: 1
    decay_mult: 1
  }
  param {
    lr_mult: 2
    decay_mult: 0
  }
  convolution_param {
    num_output: 160
    kernel_size: 1
    weight_filler {
      type: "xavier"
      std: 0.09
    }
    bias_filler {
      type: "constant"
      value: 0.2
    }
  }
}
layer {
  name: "inception_4e/relu_3x3_reduce"
  type: "ReLU"
  bottom: "inception_4e/3x3_reduce"
  top: "inception_4e/3x3_reduce"
}
layer {
  name: "inception_4e/3x3"
  type: "Convolution"
  bottom: "inception_4e/3x3_reduce"
  top: "inception_4e/3x3"
  param {
    lr_mult: 1
    decay_mult: 1
  }
  param {
    lr_mult: 2
    decay_mult: 0
  }
  convolution_param {
    num_output: 320
    pad: 1
    kernel_size: 3
    weight_filler {
      type: "xavier"
      std: 0.03
    }
    bias_filler {
      type: "constant"
      value: 0.2
    }
  }
}
layer {
  name: "inception_4e/relu_3x3"
  type: "ReLU"
  bottom: "inception_4e/3x3"
  top: "inception_4e/3x3"
}
layer {
  name: "inception_4e/5x5_reduce"
  type: "Convolution"
  bottom: "inception_4d/output"
  top: "inception_4e/5x5_reduce"
  param {
    lr_mult: 1
    decay_mult: 1
  }
  param {
    lr_mult: 2
    decay_mult: 0
  }
  convolution_param {
    num_output: 32
    kernel_size: 1
    weight_filler {
      type: "xavier"
      std: 0.2
    }
    bias_filler {
      type: "constant"
      value: 0.2
    }
  }
}
layer {
  name: "inception_4e/relu_5x5_reduce"
  type: "ReLU"
  bottom: "inception_4e/5x5_reduce"
  top: "inception_4e/5x5_reduce"
}
layer {
  name: "inception_4e/5x5"
  type: "Convolution"
  bottom: "inception_4e/5x5_reduce"
  top: "inception_4e/
I0403 15:19:55.361877 11844 layer_factory.hpp:77] Creating layer data
I0403 15:19:55.362512 11844 net.cpp:91] Creating Layer data
I0403 15:19:55.362545 11844 net.cpp:399] data -> data
I0403 15:19:55.362597 11844 net.cpp:399] data -> label
I0403 15:19:55.362634 11844 data_transformer.cpp:25] Loading mean file from: /home/mohanty/data/final_dataset/lmdb/segmented-40-60/mean.binaryproto
I0403 15:19:55.365208 11847 db_lmdb.cpp:38] Opened lmdb /home/mohanty/data/final_dataset/lmdb/segmented-40-60/test_db
I0403 15:19:55.376127 11844 data_layer.cpp:41] output data size: 24,3,224,224
I0403 15:19:55.403095 11844 net.cpp:141] Setting up data
I0403 15:19:55.403183 11844 net.cpp:148] Top shape: 24 3 224 224 (3612672)
I0403 15:19:55.403205 11844 net.cpp:148] Top shape: 24 (24)
I0403 15:19:55.403221 11844 net.cpp:156] Memory required for data: 14450784
I0403 15:19:55.403249 11844 layer_factory.hpp:77] Creating layer label_data_1_split
I0403 15:19:55.403275 11844 net.cpp:91] Creating Layer label_data_1_split
I0403 15:19:55.403292 11844 net.cpp:425] label_data_1_split <- label
I0403 15:19:55.403333 11844 net.cpp:399] label_data_1_split -> label_data_1_split_0
I0403 15:19:55.403364 11844 net.cpp:399] label_data_1_split -> label_data_1_split_1
I0403 15:19:55.403385 11844 net.cpp:399] label_data_1_split -> label_data_1_split_2
I0403 15:19:55.403406 11844 net.cpp:399] label_data_1_split -> label_data_1_split_3
I0403 15:19:55.403426 11844 net.cpp:399] label_data_1_split -> label_data_1_split_4
I0403 15:19:55.403447 11844 net.cpp:399] label_data_1_split -> label_data_1_split_5
I0403 15:19:55.403466 11844 net.cpp:399] label_data_1_split -> label_data_1_split_6
I0403 15:19:55.403487 11844 net.cpp:399] label_data_1_split -> label_data_1_split_7
I0403 15:19:55.403506 11844 net.cpp:399] label_data_1_split -> label_data_1_split_8
I0403 15:19:55.403527 11844 net.cpp:399] label_data_1_split -> label_data_1_split_9
I0403 15:19:55.403655 11844 net.cpp:141] Setting up label_data_1_split
I0403 15:19:55.403678 11844 net.cpp:148] Top shape: 24 (24)
I0403 15:19:55.403697 11844 net.cpp:148] Top shape: 24 (24)
I0403 15:19:55.403712 11844 net.cpp:148] Top shape: 24 (24)
I0403 15:19:55.403728 11844 net.cpp:148] Top shape: 24 (24)
I0403 15:19:55.403744 11844 net.cpp:148] Top shape: 24 (24)
I0403 15:19:55.403760 11844 net.cpp:148] Top shape: 24 (24)
I0403 15:19:55.403776 11844 net.cpp:148] Top shape: 24 (24)
I0403 15:19:55.403792 11844 net.cpp:148] Top shape: 24 (24)
I0403 15:19:55.403807 11844 net.cpp:148] Top shape: 24 (24)
I0403 15:19:55.403825 11844 net.cpp:148] Top shape: 24 (24)
I0403 15:19:55.403868 11844 net.cpp:156] Memory required for data: 14451744
I0403 15:19:55.403885 11844 layer_factory.hpp:77] Creating layer conv1/7x7_s2
I0403 15:19:55.403928 11844 net.cpp:91] Creating Layer conv1/7x7_s2
I0403 15:19:55.403946 11844 net.cpp:425] conv1/7x7_s2 <- data
I0403 15:19:55.403966 11844 net.cpp:399] conv1/7x7_s2 -> conv1/7x7_s2
I0403 15:19:55.546957 11844 net.cpp:141] Setting up conv1/7x7_s2
I0403 15:19:55.547050 11844 net.cpp:148] Top shape: 24 64 112 112 (19267584)
I0403 15:19:55.547068 11844 net.cpp:156] Memory required for data: 91522080
I0403 15:19:55.547102 11844 layer_factory.hpp:77] Creating layer conv1/relu_7x7
I0403 15:19:55.547142 11844 net.cpp:91] Creating Layer conv1/relu_7x7
I0403 15:19:55.547161 11844 net.cpp:425] conv1/relu_7x7 <- conv1/7x7_s2
I0403 15:19:55.547207 11844 net.cpp:386] conv1/relu_7x7 -> conv1/7x7_s2 (in-place)
I0403 15:19:55.547513 11844 net.cpp:141] Setting up conv1/relu_7x7
I0403 15:19:55.547540 11844 net.cpp:148] Top shape: 24 64 112 112 (19267584)
I0403 15:19:55.547555 11844 net.cpp:156] Memory required for data: 168592416
I0403 15:19:55.547570 11844 layer_factory.hpp:77] Creating layer pool1/3x3_s2
I0403 15:19:55.547595 11844 net.cpp:91] Creating Layer pool1/3x3_s2
I0403 15:19:55.547626 11844 net.cpp:425] pool1/3x3_s2 <- conv1/7x7_s2
I0403 15:19:55.547648 11844 net.cpp:399] pool1/3x3_s2 -> pool1/3x3_s2
I0403 15:19:55.547740 11844 net.cpp:141] Setting up pool1/3x3_s2
I0403 15:19:55.547765 11844 net.cpp:148] Top shape: 24 64 56 56 (4816896)
I0403 15:19:55.547780 11844 net.cpp:156] Memory required for data: 187860000
I0403 15:19:55.547794 11844 layer_factory.hpp:77] Creating layer pool1/norm1
I0403 15:19:55.547822 11844 net.cpp:91] Creating Layer pool1/norm1
I0403 15:19:55.547840 11844 net.cpp:425] pool1/norm1 <- pool1/3x3_s2
I0403 15:19:55.547860 11844 net.cpp:399] pool1/norm1 -> pool1/norm1
I0403 15:19:55.548169 11844 net.cpp:141] Setting up pool1/norm1
I0403 15:19:55.548197 11844 net.cpp:148] Top shape: 24 64 56 56 (4816896)
I0403 15:19:55.548212 11844 net.cpp:156] Memory required for data: 207127584
I0403 15:19:55.548226 11844 layer_factory.hpp:77] Creating layer conv2/3x3_reduce
I0403 15:19:55.548251 11844 net.cpp:91] Creating Layer conv2/3x3_reduce
I0403 15:19:55.548269 11844 net.cpp:425] conv2/3x3_reduce <- pool1/norm1
I0403 15:19:55.548290 11844 net.cpp:399] conv2/3x3_reduce -> conv2/3x3_reduce
I0403 15:19:55.549667 11844 net.cpp:141] Setting up conv2/3x3_reduce
I0403 15:19:55.549702 11844 net.cpp:148] Top shape: 24 64 56 56 (4816896)
I0403 15:19:55.549721 11844 net.cpp:156] Memory required for data: 226395168
I0403 15:19:55.549741 11844 layer_factory.hpp:77] Creating layer conv2/relu_3x3_reduce
I0403 15:19:55.549762 11844 net.cpp:91] Creating Layer conv2/relu_3x3_reduce
I0403 15:19:55.549777 11844 net.cpp:425] conv2/relu_3x3_reduce <- conv2/3x3_reduce
I0403 15:19:55.549794 11844 net.cpp:386] conv2/relu_3x3_reduce -> conv2/3x3_reduce (in-place)
I0403 15:19:55.550072 11844 net.cpp:141] Setting up conv2/relu_3x3_reduce
I0403 15:19:55.550101 11844 net.cpp:148] Top shape: 24 64 56 56 (4816896)
I0403 15:19:55.550117 11844 net.cpp:156] Memory required for data: 245662752
I0403 15:19:55.550132 11844 layer_factory.hpp:77] Creating layer conv2/3x3
I0403 15:19:55.550155 11844 net.cpp:91] Creating Layer conv2/3x3
I0403 15:19:55.550173 11844 net.cpp:425] conv2/3x3 <- conv2/3x3_reduce
I0403 15:19:55.550191 11844 net.cpp:399] conv2/3x3 -> conv2/3x3
I0403 15:19:55.552441 11844 net.cpp:141] Setting up conv2/3x3
I0403 15:19:55.552476 11844 net.cpp:148] Top shape: 24 192 56 56 (14450688)
I0403 15:19:55.552495 11844 net.cpp:156] Memory required for data: 303465504
I0403 15:19:55.552516 11844 layer_factory.hpp:77] Creating layer conv2/relu_3x3
I0403 15:19:55.552536 11844 net.cpp:91] Creating Layer conv2/relu_3x3
I0403 15:19:55.552552 11844 net.cpp:425] conv2/relu_3x3 <- conv2/3x3
I0403 15:19:55.552569 11844 net.cpp:386] conv2/relu_3x3 -> conv2/3x3 (in-place)
I0403 15:19:55.552744 11844 net.cpp:141] Setting up conv2/relu_3x3
I0403 15:19:55.552770 11844 net.cpp:148] Top shape: 24 192 56 56 (14450688)
I0403 15:19:55.552806 11844 net.cpp:156] Memory required for data: 361268256
I0403 15:19:55.552821 11844 layer_factory.hpp:77] Creating layer conv2/norm2
I0403 15:19:55.552844 11844 net.cpp:91] Creating Layer conv2/norm2
I0403 15:19:55.552860 11844 net.cpp:425] conv2/norm2 <- conv2/3x3
I0403 15:19:55.552877 11844 net.cpp:399] conv2/norm2 -> conv2/norm2
I0403 15:19:55.553174 11844 net.cpp:141] Setting up conv2/norm2
I0403 15:19:55.553200 11844 net.cpp:148] Top shape: 24 192 56 56 (14450688)
I0403 15:19:55.553216 11844 net.cpp:156] Memory required for data: 419071008
I0403 15:19:55.553232 11844 layer_factory.hpp:77] Creating layer pool2/3x3_s2
I0403 15:19:55.553251 11844 net.cpp:91] Creating Layer pool2/3x3_s2
I0403 15:19:55.553268 11844 net.cpp:425] pool2/3x3_s2 <- conv2/norm2
I0403 15:19:55.553287 11844 net.cpp:399] pool2/3x3_s2 -> pool2/3x3_s2
I0403 15:19:55.553351 11844 net.cpp:141] Setting up pool2/3x3_s2
I0403 15:19:55.553376 11844 net.cpp:148] Top shape: 24 192 28 28 (3612672)
I0403 15:19:55.553391 11844 net.cpp:156] Memory required for data: 433521696
I0403 15:19:55.553406 11844 layer_factory.hpp:77] Creating layer pool2/3x3_s2_pool2/3x3_s2_0_split
I0403 15:19:55.553423 11844 net.cpp:91] Creating Layer pool2/3x3_s2_pool2/3x3_s2_0_split
I0403 15:19:55.553437 11844 net.cpp:425] pool2/3x3_s2_pool2/3x3_s2_0_split <- pool2/3x3_s2
I0403 15:19:55.553458 11844 net.cpp:399] pool2/3x3_s2_pool2/3x3_s2_0_split -> pool2/3x3_s2_pool2/3x3_s2_0_split_0
I0403 15:19:55.553480 11844 net.cpp:399] pool2/3x3_s2_pool2/3x3_s2_0_split -> pool2/3x3_s2_pool2/3x3_s2_0_split_1
I0403 15:19:55.553500 11844 net.cpp:399] pool2/3x3_s2_pool2/3x3_s2_0_split -> pool2/3x3_s2_pool2/3x3_s2_0_split_2
I0403 15:19:55.553519 11844 net.cpp:399] pool2/3x3_s2_pool2/3x3_s2_0_split -> pool2/3x3_s2_pool2/3x3_s2_0_split_3
I0403 15:19:55.553589 11844 net.cpp:141] Setting up pool2/3x3_s2_pool2/3x3_s2_0_split
I0403 15:19:55.553627 11844 net.cpp:148] Top shape: 24 192 28 28 (3612672)
I0403 15:19:55.553644 11844 net.cpp:148] Top shape: 24 192 28 28 (3612672)
I0403 15:19:55.553660 11844 net.cpp:148] Top shape: 24 192 28 28 (3612672)
I0403 15:19:55.553689 11844 net.cpp:148] Top shape: 24 192 28 28 (3612672)
I0403 15:19:55.553701 11844 net.cpp:156] Memory required for data: 491324448
I0403 15:19:55.553716 11844 layer_factory.hpp:77] Creating layer inception_3a/1x1
I0403 15:19:55.553737 11844 net.cpp:91] Creating Layer inception_3a/1x1
I0403 15:19:55.553755 11844 net.cpp:425] inception_3a/1x1 <- pool2/3x3_s2_pool2/3x3_s2_0_split_0
I0403 15:19:55.553776 11844 net.cpp:399] inception_3a/1x1 -> inception_3a/1x1
I0403 15:19:55.555238 11844 net.cpp:141] Setting up inception_3a/1x1
I0403 15:19:55.555268 11844 net.cpp:148] Top shape: 24 64 28 28 (1204224)
I0403 15:19:55.555284 11844 net.cpp:156] Memory required for data: 496141344
I0403 15:19:55.555302 11844 layer_factory.hpp:77] Creating layer inception_3a/relu_1x1
I0403 15:19:55.555325 11844 net.cpp:91] Creating Layer inception_3a/relu_1x1
I0403 15:19:55.555342 11844 net.cpp:425] inception_3a/relu_1x1 <- inception_3a/1x1
I0403 15:19:55.555359 11844 net.cpp:386] inception_3a/relu_1x1 -> inception_3a/1x1 (in-place)
I0403 15:19:55.555526 11844 net.cpp:141] Setting up inception_3a/relu_1x1
I0403 15:19:55.555549 11844 net.cpp:148] Top shape: 24 64 28 28 (1204224)
I0403 15:19:55.555563 11844 net.cpp:156] Memory required for data: 500958240
I0403 15:19:55.555578 11844 layer_factory.hpp:77] Creating layer inception_3a/3x3_reduce
I0403 15:19:55.555599 11844 net.cpp:91] Creating Layer inception_3a/3x3_reduce
I0403 15:19:55.555627 11844 net.cpp:425] inception_3a/3x3_reduce <- pool2/3x3_s2_pool2/3x3_s2_0_split_1
I0403 15:19:55.555649 11844 net.cpp:399] inception_3a/3x3_reduce -> inception_3a/3x3_reduce
I0403 15:19:55.557274 11844 net.cpp:141] Setting up inception_3a/3x3_reduce
I0403 15:19:55.557307 11844 net.cpp:148] Top shape: 24 96 28 28 (1806336)
I0403 15:19:55.557328 11844 net.cpp:156] Memory required for data: 508183584
I0403 15:19:55.557351 11844 layer_factory.hpp:77] Creating layer inception_3a/relu_3x3_reduce
I0403 15:19:55.557391 11844 net.cpp:91] Creating Layer inception_3a/relu_3x3_reduce
I0403 15:19:55.557407 11844 net.cpp:425] inception_3a/relu_3x3_reduce <- inception_3a/3x3_reduce
I0403 15:19:55.557427 11844 net.cpp:386] inception_3a/relu_3x3_reduce -> inception_3a/3x3_reduce (in-place)
I0403 15:19:55.557598 11844 net.cpp:141] Setting up inception_3a/relu_3x3_reduce
I0403 15:19:55.557634 11844 net.cpp:148] Top shape: 24 96 28 28 (1806336)
I0403 15:19:55.557649 11844 net.cpp:156] Memory required for data: 515408928
I0403 15:19:55.557664 11844 layer_factory.hpp:77] Creating layer inception_3a/3x3
I0403 15:19:55.557685 11844 net.cpp:91] Creating Layer inception_3a/3x3
I0403 15:19:55.557703 11844 net.cpp:425] inception_3a/3x3 <- inception_3a/3x3_reduce
I0403 15:19:55.557723 11844 net.cpp:399] inception_3a/3x3 -> inception_3a/3x3
I0403 15:19:55.559343 11844 net.cpp:141] Setting up inception_3a/3x3
I0403 15:19:55.559375 11844 net.cpp:148] Top shape: 24 128 28 28 (2408448)
I0403 15:19:55.559392 11844 net.cpp:156] Memory required for data: 525042720
I0403 15:19:55.559412 11844 layer_factory.hpp:77] Creating layer inception_3a/relu_3x3
I0403 15:19:55.559429 11844 net.cpp:91] Creating Layer inception_3a/relu_3x3
I0403 15:19:55.559447 11844 net.cpp:425] inception_3a/relu_3x3 <- inception_3a/3x3
I0403 15:19:55.559465 11844 net.cpp:386] inception_3a/relu_3x3 -> inception_3a/3x3 (in-place)
I0403 15:19:55.559725 11844 net.cpp:141] Setting up inception_3a/relu_3x3
I0403 15:19:55.559752 11844 net.cpp:148] Top shape: 24 128 28 28 (2408448)
I0403 15:19:55.559767 11844 net.cpp:156] Memory required for data: 534676512
I0403 15:19:55.559780 11844 layer_factory.hpp:77] Creating layer inception_3a/5x5_reduce
I0403 15:19:55.559803 11844 net.cpp:91] Creating Layer inception_3a/5x5_reduce
I0403 15:19:55.559818 11844 net.cpp:425] inception_3a/5x5_reduce <- pool2/3x3_s2_pool2/3x3_s2_0_split_2
I0403 15:19:55.559836 11844 net.cpp:399] inception_3a/5x5_reduce -> inception_3a/5x5_reduce
I0403 15:19:55.560761 11844 net.cpp:141] Setting up inception_3a/5x5_reduce
I0403 15:19:55.560789 11844 net.cpp:148] Top shape: 24 16 28 28 (301056)
I0403 15:19:55.560804 11844 net.cpp:156] Memory required for data: 535880736
I0403 15:19:55.560822 11844 layer_factory.hpp:77] Creating layer inception_3a/relu_5x5_reduce
I0403 15:19:55.560839 11844 net.cpp:91] Creating Layer inception_3a/relu_5x5_reduce
I0403 15:19:55.560854 11844 net.cpp:425] inception_3a/relu_5x5_reduce <- inception_3a/5x5_reduce
I0403 15:19:55.560874 11844 net.cpp:386] inception_3a/relu_5x5_reduce -> inception_3a/5x5_reduce (in-place)
I0403 15:19:55.561163 11844 net.cpp:141] Setting up inception_3a/relu_5x5_reduce
I0403 15:19:55.561188 11844 net.cpp:148] Top shape: 24 16 28 28 (301056)
I0403 15:19:55.561203 11844 net.cpp:156] Memory required for data: 537084960
I0403 15:19:55.561218 11844 layer_factory.hpp:77] Creating layer inception_3a/5x5
I0403 15:19:55.561239 11844 net.cpp:91] Creating Layer inception_3a/5x5
I0403 15:19:55.561256 11844 net.cpp:425] inception_3a/5x5 <- inception_3a/5x5_reduce
I0403 15:19:55.561276 11844 net.cpp:399] inception_3a/5x5 -> inception_3a/5x5
I0403 15:19:55.562284 11844 net.cpp:141] Setting up inception_3a/5x5
I0403 15:19:55.562314 11844 net.cpp:148] Top shape: 24 32 28 28 (602112)
I0403 15:19:55.562335 11844 net.cpp:156] Memory required for data: 539493408
I0403 15:19:55.562355 11844 layer_factory.hpp:77] Creating layer inception_3a/relu_5x5
I0403 15:19:55.562372 11844 net.cpp:91] Creating Layer inception_3a/relu_5x5
I0403 15:19:55.562388 11844 net.cpp:425] inception_3a/relu_5x5 <- inception_3a/5x5
I0403 15:19:55.562407 11844 net.cpp:386] inception_3a/relu_5x5 -> inception_3a/5x5 (in-place)
I0403 15:19:55.562569 11844 net.cpp:141] Setting up inception_3a/relu_5x5
I0403 15:19:55.562592 11844 net.cpp:148] Top shape: 24 32 28 28 (602112)
I0403 15:19:55.562618 11844 net.cpp:156] Memory required for data: 541901856
I0403 15:19:55.562633 11844 layer_factory.hpp:77] Creating layer inception_3a/pool
I0403 15:19:55.562650 11844 net.cpp:91] Creating Layer inception_3a/pool
I0403 15:19:55.562680 11844 net.cpp:425] inception_3a/pool <- pool2/3x3_s2_pool2/3x3_s2_0_split_3
I0403 15:19:55.562700 11844 net.cpp:399] inception_3a/pool -> inception_3a/pool
I0403 15:19:55.562757 11844 net.cpp:141] Setting up inception_3a/pool
I0403 15:19:55.562779 11844 net.cpp:148] Top shape: 24 192 28 28 (3612672)
I0403 15:19:55.562794 11844 net.cpp:156] Memory required for data: 556352544
I0403 15:19:55.562808 11844 layer_factory.hpp:77] Creating layer inception_3a/pool_proj
I0403 15:19:55.562832 11844 net.cpp:91] Creating Layer inception_3a/pool_proj
I0403 15:19:55.562850 11844 net.cpp:425] inception_3a/pool_proj <- inception_3a/pool
I0403 15:19:55.562868 11844 net.cpp:399] inception_3a/pool_proj -> inception_3a/pool_proj
I0403 15:19:55.563829 11844 net.cpp:141] Setting up inception_3a/pool_proj
I0403 15:19:55.563858 11844 net.cpp:148] Top shape: 24 32 28 28 (602112)
I0403 15:19:55.563874 11844 net.cpp:156] Memory required for data: 558760992
I0403 15:19:55.563910 11844 layer_factory.hpp:77] Creating layer inception_3a/relu_pool_proj
I0403 15:19:55.563930 11844 net.cpp:91] Creating Layer inception_3a/relu_pool_proj
I0403 15:19:55.563944 11844 net.cpp:425] inception_3a/relu_pool_proj <- inception_3a/pool_proj
I0403 15:19:55.563963 11844 net.cpp:386] inception_3a/relu_pool_proj -> inception_3a/pool_proj (in-place)
I0403 15:19:55.564229 11844 net.cpp:141] Setting up inception_3a/relu_pool_proj
I0403 15:19:55.564256 11844 net.cpp:148] Top shape: 24 32 28 28 (602112)
I0403 15:19:55.564271 11844 net.cpp:156] Memory required for data: 561169440
I0403 15:19:55.564286 11844 layer_factory.hpp:77] Creating layer inception_3a/output
I0403 15:19:55.564303 11844 net.cpp:91] Creating Layer inception_3a/output
I0403 15:19:55.564322 11844 net.cpp:425] inception_3a/output <- inception_3a/1x1
I0403 15:19:55.564339 11844 net.cpp:425] inception_3a/output <- inception_3a/3x3
I0403 15:19:55.564355 11844 net.cpp:425] inception_3a/output <- inception_3a/5x5
I0403 15:19:55.564370 11844 net.cpp:425] inception_3a/output <- inception_3a/pool_proj
I0403 15:19:55.564391 11844 net.cpp:399] inception_3a/output -> inception_3a/output
I0403 15:19:55.564436 11844 net.cpp:141] Setting up inception_3a/output
I0403 15:19:55.564457 11844 net.cpp:148] Top shape: 24 256 28 28 (4816896)
I0403 15:19:55.564471 11844 net.cpp:156] Memory required for data: 580437024
I0403 15:19:55.564486 11844 layer_factory.hpp:77] Creating layer inception_3a/output_inception_3a/output_0_split
I0403 15:19:55.564505 11844 net.cpp:91] Creating Layer inception_3a/output_inception_3a/output_0_split
I0403 15:19:55.564520 11844 net.cpp:425] inception_3a/output_inception_3a/output_0_split <- inception_3a/output
I0403 15:19:55.564538 11844 net.cpp:399] inception_3a/output_inception_3a/output_0_split -> inception_3a/output_inception_3a/output_0_split_0
I0403 15:19:55.564555 11844 net.cpp:399] inception_3a/output_inception_3a/output_0_split -> inception_3a/output_inception_3a/output_0_split_1
I0403 15:19:55.564579 11844 net.cpp:399] inception_3a/output_inception_3a/output_0_split -> inception_3a/output_inception_3a/output_0_split_2
I0403 15:19:55.564600 11844 net.cpp:399] inception_3a/output_inception_3a/output_0_split -> inception_3a/output_inception_3a/output_0_split_3
I0403 15:19:55.564669 11844 net.cpp:141] Setting up inception_3a/output_inception_3a/output_0_split
I0403 15:19:55.564693 11844 net.cpp:148] Top shape: 24 256 28 28 (4816896)
I0403 15:19:55.564710 11844 net.cpp:148] Top shape: 24 256 28 28 (4816896)
I0403 15:19:55.564724 11844 net.cpp:148] Top shape: 24 256 28 28 (4816896)
I0403 15:19:55.564738 11844 net.cpp:148] Top shape: 24 256 28 28 (4816896)
I0403 15:19:55.564751 11844 net.cpp:156] Memory required for data: 657507360
I0403 15:19:55.564765 11844 layer_factory.hpp:77] Creating layer inception_3b/1x1
I0403 15:19:55.564787 11844 net.cpp:91] Creating Layer inception_3b/1x1
I0403 15:19:55.564803 11844 net.cpp:425] inception_3b/1x1 <- inception_3a/output_inception_3a/output_0_split_0
I0403 15:19:55.564821 11844 net.cpp:399] inception_3b/1x1 -> inception_3b/1x1
I0403 15:19:55.565933 11844 net.cpp:141] Setting up inception_3b/1x1
I0403 15:19:55.565970 11844 net.cpp:148] Top shape: 24 128 28 28 (2408448)
I0403 15:19:55.565989 11844 net.cpp:156] Memory required for data: 667141152
I0403 15:19:55.566007 11844 layer_factory.hpp:77] Creating layer inception_3b/relu_1x1
I0403 15:19:55.566025 11844 net.cpp:91] Creating Layer inception_3b/relu_1x1
I0403 15:19:55.566040 11844 net.cpp:425] inception_3b/relu_1x1 <- inception_3b/1x1
I0403 15:19:55.566056 11844 net.cpp:386] inception_3b/relu_1x1 -> inception_3b/1x1 (in-place)
I0403 15:19:55.566221 11844 net.cpp:141] Setting up inception_3b/relu_1x1
I0403 15:19:55.566247 11844 net.cpp:148] Top shape: 24 128 28 28 (2408448)
I0403 15:19:55.566262 11844 net.cpp:156] Memory required for data: 676774944
I0403 15:19:55.566277 11844 layer_factory.hpp:77] Creating layer inception_3b/3x3_reduce
I0403 15:19:55.566298 11844 net.cpp:91] Creating Layer inception_3b/3x3_reduce
I0403 15:19:55.566315 11844 net.cpp:425] inception_3b/3x3_reduce <- inception_3a/output_inception_3a/output_0_split_1
I0403 15:19:55.566339 11844 net.cpp:399] inception_3b/3x3_reduce -> inception_3b/3x3_reduce
I0403 15:19:55.567458 11844 net.cpp:141] Setting up inception_3b/3x3_reduce
I0403 15:19:55.567487 11844 net.cpp:148] Top shape: 24 128 28 28 (2408448)
I0403 15:19:55.567504 11844 net.cpp:156] Memory required for data: 686408736
I0403 15:19:55.567524 11844 layer_factory.hpp:77] Creating layer inception_3b/relu_3x3_reduce
I0403 15:19:55.567545 11844 net.cpp:91] Creating Layer inception_3b/relu_3x3_reduce
I0403 15:19:55.567564 11844 net.cpp:425] inception_3b/relu_3x3_reduce <- inception_3b/3x3_reduce
I0403 15:19:55.567580 11844 net.cpp:386] inception_3b/relu_3x3_reduce -> inception_3b/3x3_reduce (in-place)
I0403 15:19:55.567771 11844 net.cpp:141] Setting up inception_3b/relu_3x3_reduce
I0403 15:19:55.567798 11844 net.cpp:148] Top shape: 24 128 28 28 (2408448)
I0403 15:19:55.567814 11844 net.cpp:156] Memory required for data: 696042528
I0403 15:19:55.567829 11844 layer_factory.hpp:77] Creating layer inception_3b/3x3
I0403 15:19:55.567854 11844 net.cpp:91] Creating Layer inception_3b/3x3
I0403 15:19:55.567873 11844 net.cpp:425] inception_3b/3x3 <- inception_3b/3x3_reduce
I0403 15:19:55.567908 11844 net.cpp:399] inception_3b/3x3 -> inception_3b/3x3
I0403 15:19:55.570785 11844 net.cpp:141] Setting up inception_3b/3x3
I0403 15:19:55.570816 11844 net.cpp:148] Top shape: 24 192 28 28 (3612672)
I0403 15:19:55.570833 11844 net.cpp:156] Memory required for data: 710493216
I0403 15:19:55.570852 11844 layer_factory.hpp:77] Creating layer inception_3b/relu_3x3
I0403 15:19:55.570870 11844 net.cpp:91] Creating Layer inception_3b/relu_3x3
I0403 15:19:55.570885 11844 net.cpp:425] inception_3b/relu_3x3 <- inception_3b/3x3
I0403 15:19:55.570904 11844 net.cpp:386] inception_3b/relu_3x3 -> inception_3b/3x3 (in-place)
I0403 15:19:55.571171 11844 net.cpp:141] Setting up inception_3b/relu_3x3
I0403 15:19:55.571200 11844 net.cpp:148] Top shape: 24 192 28 28 (3612672)
I0403 15:19:55.571216 11844 net.cpp:156] Memory required for data: 724943904
I0403 15:19:55.571233 11844 layer_factory.hpp:77] Creating layer inception_3b/5x5_reduce
I0403 15:19:55.571257 11844 net.cpp:91] Creating Layer inception_3b/5x5_reduce
I0403 15:19:55.571275 11844 net.cpp:425] inception_3b/5x5_reduce <- inception_3a/output_inception_3a/output_0_split_2
I0403 15:19:55.571295 11844 net.cpp:399] inception_3b/5x5_reduce -> inception_3b/5x5_reduce
I0403 15:19:55.572240 11844 net.cpp:141] Setting up inception_3b/5x5_reduce
I0403 15:19:55.572271 11844 net.cpp:148] Top shape: 24 32 28 28 (602112)
I0403 15:19:55.572288 11844 net.cpp:156] Memory required for data: 727352352
I0403 15:19:55.572307 11844 layer_factory.hpp:77] Creating layer inception_3b/relu_5x5_reduce
I0403 15:19:55.572331 11844 net.cpp:91] Creating Layer inception_3b/relu_5x5_reduce
I0403 15:19:55.572348 11844 net.cpp:425] inception_3b/relu_5x5_reduce <- inception_3b/5x5_reduce
I0403 15:19:55.572370 11844 net.cpp:386] inception_3b/relu_5x5_reduce -> inception_3b/5x5_reduce (in-place)
I0403 15:19:55.572553 11844 net.cpp:141] Setting up inception_3b/relu_5x5_reduce
I0403 15:19:55.572577 11844 net.cpp:148] Top shape: 24 32 28 28 (602112)
I0403 15:19:55.572592 11844 net.cpp:156] Memory required for data: 729760800
I0403 15:19:55.572607 11844 layer_factory.hpp:77] Creating layer inception_3b/5x5
I0403 15:19:55.572628 11844 net.cpp:91] Creating Layer inception_3b/5x5
I0403 15:19:55.572644 11844 net.cpp:425] inception_3b/5x5 <- inception_3b/5x5_reduce
I0403 15:19:55.572664 11844 net.cpp:399] inception_3b/5x5 -> inception_3b/5x5
I0403 15:19:55.574596 11844 net.cpp:141] Setting up inception_3b/5x5
I0403 15:19:55.574625 11844 net.cpp:148] Top shape: 24 96 28 28 (1806336)
I0403 15:19:55.574641 11844 net.cpp:156] Memory required for data: 736986144
I0403 15:19:55.574661 11844 layer_factory.hpp:77] Creating layer inception_3b/relu_5x5
I0403 15:19:55.574681 11844 net.cpp:91] Creating Layer inception_3b/relu_5x5
I0403 15:19:55.574697 11844 net.cpp:425] inception_3b/relu_5x5 <- inception_3b/5x5
I0403 15:19:55.574714 11844 net.cpp:386] inception_3b/relu_5x5 -> inception_3b/5x5 (in-place)
I0403 15:19:55.574898 11844 net.cpp:141] Setting up inception_3b/relu_5x5
I0403 15:19:55.574923 11844 net.cpp:148] Top shape: 24 96 28 28 (1806336)
I0403 15:19:55.574937 11844 net.cpp:156] Memory required for data: 744211488
I0403 15:19:55.574954 11844 layer_factory.hpp:77] Creating layer inception_3b/pool
I0403 15:19:55.574970 11844 net.cpp:91] Creating Layer inception_3b/pool
I0403 15:19:55.574985 11844 net.cpp:425] inception_3b/pool <- inception_3a/output_inception_3a/output_0_split_3
I0403 15:19:55.575002 11844 net.cpp:399] inception_3b/pool -> inception_3b/pool
I0403 15:19:55.575057 11844 net.cpp:141] Setting up inception_3b/pool
I0403 15:19:55.575080 11844 net.cpp:148] Top shape: 24 256 28 28 (4816896)
I0403 15:19:55.575095 11844 net.cpp:156] Memory required for data: 763479072
I0403 15:19:55.575109 11844 layer_factory.hpp:77] Creating layer inception_3b/pool_proj
I0403 15:19:55.575131 11844 net.cpp:91] Creating Layer inception_3b/pool_proj
I0403 15:19:55.575148 11844 net.cpp:425] inception_3b/pool_proj <- inception_3b/pool
I0403 15:19:55.575166 11844 net.cpp:399] inception_3b/pool_proj -> inception_3b/pool_proj
I0403 15:19:55.576220 11844 net.cpp:141] Setting up inception_3b/pool_proj
I0403 15:19:55.576246 11844 net.cpp:148] Top shape: 24 64 28 28 (1204224)
I0403 15:19:55.576261 11844 net.cpp:156] Memory required for data: 768295968
I0403 15:19:55.576278 11844 layer_factory.hpp:77] Creating layer inception_3b/relu_pool_proj
I0403 15:19:55.576298 11844 net.cpp:91] Creating Layer inception_3b/relu_pool_proj
I0403 15:19:55.576314 11844 net.cpp:425] inception_3b/relu_pool_proj <- inception_3b/pool_proj
I0403 15:19:55.576335 11844 net.cpp:386] inception_3b/relu_pool_proj -> inception_3b/pool_proj (in-place)
I0403 15:19:55.576736 11844 net.cpp:141] Setting up inception_3b/relu_pool_proj
I0403 15:19:55.576761 11844 net.cpp:148] Top shape: 24 64 28 28 (1204224)
I0403 15:19:55.576776 11844 net.cpp:156] Memory required for data: 773112864
I0403 15:19:55.576791 11844 layer_factory.hpp:77] Creating layer inception_3b/output
I0403 15:19:55.576807 11844 net.cpp:91] Creating Layer inception_3b/output
I0403 15:19:55.576822 11844 net.cpp:425] inception_3b/output <- inception_3b/1x1
I0403 15:19:55.576838 11844 net.cpp:425] inception_3b/output <- inception_3b/3x3
I0403 15:19:55.576853 11844 net.cpp:425] inception_3b/output <- inception_3b/5x5
I0403 15:19:55.576867 11844 net.cpp:425] inception_3b/output <- inception_3b/pool_proj
I0403 15:19:55.576885 11844 net.cpp:399] inception_3b/output -> inception_3b/output
I0403 15:19:55.576928 11844 net.cpp:141] Setting up inception_3b/output
I0403 15:19:55.576952 11844 net.cpp:148] Top shape: 24 480 28 28 (9031680)
I0403 15:19:55.576967 11844 net.cpp:156] Memory required for data: 809239584
I0403 15:19:55.576980 11844 layer_factory.hpp:77] Creating layer pool3/3x3_s2
I0403 15:19:55.576997 11844 net.cpp:91] Creating Layer pool3/3x3_s2
I0403 15:19:55.577013 11844 net.cpp:425] pool3/3x3_s2 <- inception_3b/output
I0403 15:19:55.577046 11844 net.cpp:399] pool3/3x3_s2 -> pool3/3x3_s2
I0403 15:19:55.577102 11844 net.cpp:141] Setting up pool3/3x3_s2
I0403 15:19:55.577126 11844 net.cpp:148] Top shape: 24 480 14 14 (2257920)
I0403 15:19:55.577138 11844 net.cpp:156] Memory required for data: 818271264
I0403 15:19:55.577152 11844 layer_factory.hpp:77] Creating layer pool3/3x3_s2_pool3/3x3_s2_0_split
I0403 15:19:55.577173 11844 net.cpp:91] Creating Layer pool3/3x3_s2_pool3/3x3_s2_0_split
I0403 15:19:55.577189 11844 net.cpp:425] pool3/3x3_s2_pool3/3x3_s2_0_split <- pool3/3x3_s2
I0403 15:19:55.577205 11844 net.cpp:399] pool3/3x3_s2_pool3/3x3_s2_0_split -> pool3/3x3_s2_pool3/3x3_s2_0_split_0
I0403 15:19:55.577224 11844 net.cpp:399] pool3/3x3_s2_pool3/3x3_s2_0_split -> pool3/3x3_s2_pool3/3x3_s2_0_split_1
I0403 15:19:55.577242 11844 net.cpp:399] pool3/3x3_s2_pool3/3x3_s2_0_split -> pool3/3x3_s2_pool3/3x3_s2_0_split_2
I0403 15:19:55.577260 11844 net.cpp:399] pool3/3x3_s2_pool3/3x3_s2_0_split -> pool3/3x3_s2_pool3/3x3_s2_0_split_3
I0403 15:19:55.577343 11844 net.cpp:141] Setting up pool3/3x3_s2_pool3/3x3_s2_0_split
I0403 15:19:55.577378 11844 net.cpp:148] Top shape: 24 480 14 14 (2257920)
I0403 15:19:55.577394 11844 net.cpp:148] Top shape: 24 480 14 14 (2257920)
I0403 15:19:55.577409 11844 net.cpp:148] Top shape: 24 480 14 14 (2257920)
I0403 15:19:55.577425 11844 net.cpp:148] Top shape: 24 480 14 14 (2257920)
I0403 15:19:55.577437 11844 net.cpp:156] Memory required for data: 854397984
I0403 15:19:55.577452 11844 layer_factory.hpp:77] Creating layer inception_4a/1x1
I0403 15:19:55.577474 11844 net.cpp:91] Creating Layer inception_4a/1x1
I0403 15:19:55.577491 11844 net.cpp:425] inception_4a/1x1 <- pool3/3x3_s2_pool3/3x3_s2_0_split_0
I0403 15:19:55.577512 11844 net.cpp:399] inception_4a/1x1 -> inception_4a/1x1
I0403 15:19:55.579066 11844 net.cpp:141] Setting up inception_4a/1x1
I0403 15:19:55.579093 11844 net.cpp:148] Top shape: 24 192 14 14 (903168)
I0403 15:19:55.579110 11844 net.cpp:156] Memory required for data: 858010656
I0403 15:19:55.579128 11844 layer_factory.hpp:77] Creating layer inception_4a/relu_1x1
I0403 15:19:55.579149 11844 net.cpp:91] Creating Layer inception_4a/relu_1x1
I0403 15:19:55.579164 11844 net.cpp:425] inception_4a/relu_1x1 <- inception_4a/1x1
I0403 15:19:55.579181 11844 net.cpp:386] inception_4a/relu_1x1 -> inception_4a/1x1 (in-place)
I0403 15:19:55.579352 11844 net.cpp:141] Setting up inception_4a/relu_1x1
I0403 15:19:55.579380 11844 net.cpp:148] Top shape: 24 192 14 14 (903168)
I0403 15:19:55.579396 11844 net.cpp:156] Memory required for data: 861623328
I0403 15:19:55.579411 11844 layer_factory.hpp:77] Creating layer inception_4a/3x3_reduce
I0403 15:19:55.579432 11844 net.cpp:91] Creating Layer inception_4a/3x3_reduce
I0403 15:19:55.579448 11844 net.cpp:425] inception_4a/3x3_reduce <- pool3/3x3_s2_pool3/3x3_s2_0_split_1
I0403 15:19:55.579466 11844 net.cpp:399] inception_4a/3x3_reduce -> inception_4a/3x3_reduce
I0403 15:19:55.580713 11844 net.cpp:141] Setting up inception_4a/3x3_reduce
I0403 15:19:55.580741 11844 net.cpp:148] Top shape: 24 96 14 14 (451584)
I0403 15:19:55.580757 11844 net.cpp:156] Memory required for data: 863429664
I0403 15:19:55.580782 11844 layer_factory.hpp:77] Creating layer inception_4a/relu_3x3_reduce
I0403 15:19:55.580802 11844 net.cpp:91] Creating Layer inception_4a/relu_3x3_reduce
I0403 15:19:55.580817 11844 net.cpp:425] inception_4a/relu_3x3_reduce <- inception_4a/3x3_reduce
I0403 15:19:55.580835 11844 net.cpp:386] inception_4a/relu_3x3_reduce -> inception_4a/3x3_reduce (in-place)
I0403 15:19:55.581003 11844 net.cpp:141] Setting up inception_4a/relu_3x3_reduce
I0403 15:19:55.581027 11844 net.cpp:148] Top shape: 24 96 14 14 (451584)
I0403 15:19:55.581040 11844 net.cpp:156] Memory required for data: 865236000
I0403 15:19:55.581054 11844 layer_factory.hpp:77] Creating layer inception_4a/3x3
I0403 15:19:55.581075 11844 net.cpp:91] Creating Layer inception_4a/3x3
I0403 15:19:55.581092 11844 net.cpp:425] inception_4a/3x3 <- inception_4a/3x3_reduce
I0403 15:19:55.581112 11844 net.cpp:399] inception_4a/3x3 -> inception_4a/3x3
I0403 15:19:55.583752 11844 net.cpp:141] Setting up inception_4a/3x3
I0403 15:19:55.583781 11844 net.cpp:148] Top shape: 24 208 14 14 (978432)
I0403 15:19:55.583797 11844 net.cpp:156] Memory required for data: 869149728
I0403 15:19:55.583816 11844 layer_factory.hpp:77] Creating layer inception_4a/relu_3x3
I0403 15:19:55.583837 11844 net.cpp:91] Creating Layer inception_4a/relu_3x3
I0403 15:19:55.583856 11844 net.cpp:425] inception_4a/relu_3x3 <- inception_4a/3x3
I0403 15:19:55.583874 11844 net.cpp:386] inception_4a/relu_3x3 -> inception_4a/3x3 (in-place)
I0403 15:19:55.584139 11844 net.cpp:141] Setting up inception_4a/relu_3x3
I0403 15:19:55.584166 11844 net.cpp:148] Top shape: 24 208 14 14 (978432)
I0403 15:19:55.584179 11844 net.cpp:156] Memory required for data: 873063456
I0403 15:19:55.584193 11844 layer_factory.hpp:77] Creating layer inception_4a/5x5_reduce
I0403 15:19:55.584218 11844 net.cpp:91] Creating Layer inception_4a/5x5_reduce
I0403 15:19:55.584235 11844 net.cpp:425] inception_4a/5x5_reduce <- pool3/3x3_s2_pool3/3x3_s2_0_split_2
I0403 15:19:55.584254 11844 net.cpp:399] inception_4a/5x5_reduce -> inception_4a/5x5_reduce
I0403 15:19:55.585228 11844 net.cpp:141] Setting up inception_4a/5x5_reduce
I0403 15:19:55.585258 11844 net.cpp:148] Top shape: 24 16 14 14 (75264)
I0403 15:19:55.585274 11844 net.cpp:156] Memory required for data: 873364512
I0403 15:19:55.585291 11844 layer_factory.hpp:77] Creating layer inception_4a/relu_5x5_reduce
I0403 15:19:55.585309 11844 net.cpp:91] Creating Layer inception_4a/relu_5x5_reduce
I0403 15:19:55.585330 11844 net.cpp:425] inception_4a/relu_5x5_reduce <- inception_4a/5x5_reduce
I0403 15:19:55.585350 11844 net.cpp:386] inception_4a/relu_5x5_reduce -> inception_4a/5x5_reduce (in-place)
I0403 15:19:55.585522 11844 net.cpp:141] Setting up inception_4a/relu_5x5_reduce
I0403 15:19:55.585546 11844 net.cpp:148] Top shape: 24 16 14 14 (75264)
I0403 15:19:55.585561 11844 net.cpp:156] Memory required for data: 873665568
I0403 15:19:55.585575 11844 layer_factory.hpp:77] Creating layer inception_4a/5x5
I0403 15:19:55.585597 11844 net.cpp:91] Creating Layer inception_4a/5x5
I0403 15:19:55.585626 11844 net.cpp:425] inception_4a/5x5 <- inception_4a/5x5_reduce
I0403 15:19:55.585647 11844 net.cpp:399] inception_4a/5x5 -> inception_4a/5x5
I0403 15:19:55.586705 11844 net.cpp:141] Setting up inception_4a/5x5
I0403 15:19:55.586733 11844 net.cpp:148] Top shape: 24 48 14 14 (225792)
I0403 15:19:55.586748 11844 net.cpp:156] Memory required for data: 874568736
I0403 15:19:55.586766 11844 layer_factory.hpp:77] Creating layer inception_4a/relu_5x5
I0403 15:19:55.586786 11844 net.cpp:91] Creating Layer inception_4a/relu_5x5
I0403 15:19:55.586802 11844 net.cpp:425] inception_4a/relu_5x5 <- inception_4a/5x5
I0403 15:19:55.586818 11844 net.cpp:386] inception_4a/relu_5x5 -> inception_4a/5x5 (in-place)
I0403 15:19:55.586987 11844 net.cpp:141] Setting up inception_4a/relu_5x5
I0403 15:19:55.587009 11844 net.cpp:148] Top shape: 24 48 14 14 (225792)
I0403 15:19:55.587023 11844 net.cpp:156] Memory required for data: 875471904
I0403 15:19:55.587038 11844 layer_factory.hpp:77] Creating layer inception_4a/pool
I0403 15:19:55.587059 11844 net.cpp:91] Creating Layer inception_4a/pool
I0403 15:19:55.587075 11844 net.cpp:425] inception_4a/pool <- pool3/3x3_s2_pool3/3x3_s2_0_split_3
I0403 15:19:55.587092 11844 net.cpp:399] inception_4a/pool -> inception_4a/pool
I0403 15:19:55.587152 11844 net.cpp:141] Setting up inception_4a/pool
I0403 15:19:55.587174 11844 net.cpp:148] Top shape: 24 480 14 14 (2257920)
I0403 15:19:55.587188 11844 net.cpp:156] Memory required for data: 884503584
I0403 15:19:55.587203 11844 layer_factory.hpp:77] Creating layer inception_4a/pool_proj
I0403 15:19:55.587224 11844 net.cpp:91] Creating Layer inception_4a/pool_proj
I0403 15:19:55.587239 11844 net.cpp:425] inception_4a/pool_proj <- inception_4a/pool
I0403 15:19:55.587258 11844 net.cpp:399] inception_4a/pool_proj -> inception_4a/pool_proj
I0403 15:19:55.588371 11844 net.cpp:141] Setting up inception_4a/pool_proj
I0403 15:19:55.588398 11844 net.cpp:148] Top shape: 24 64 14 14 (301056)
I0403 15:19:55.588429 11844 net.cpp:156] Memory required for data: 885707808
I0403 15:19:55.588449 11844 layer_factory.hpp:77] Creating layer inception_4a/relu_pool_proj
I0403 15:19:55.588469 11844 net.cpp:91] Creating Layer inception_4a/relu_pool_proj
I0403 15:19:55.588488 11844 net.cpp:425] inception_4a/relu_pool_proj <- inception_4a/pool_proj
I0403 15:19:55.588505 11844 net.cpp:386] inception_4a/relu_pool_proj -> inception_4a/pool_proj (in-place)
I0403 15:19:55.588776 11844 net.cpp:141] Setting up inception_4a/relu_pool_proj
I0403 15:19:55.588803 11844 net.cpp:148] Top shape: 24 64 14 14 (301056)
I0403 15:19:55.588817 11844 net.cpp:156] Memory required for data: 886912032
I0403 15:19:55.588831 11844 layer_factory.hpp:77] Creating layer inception_4a/output
I0403 15:19:55.588847 11844 net.cpp:91] Creating Layer inception_4a/output
I0403 15:19:55.588866 11844 net.cpp:425] inception_4a/output <- inception_4a/1x1
I0403 15:19:55.588882 11844 net.cpp:425] inception_4a/output <- inception_4a/3x3
I0403 15:19:55.588898 11844 net.cpp:425] inception_4a/output <- inception_4a/5x5
I0403 15:19:55.588913 11844 net.cpp:425] inception_4a/output <- inception_4a/pool_proj
I0403 15:19:55.588930 11844 net.cpp:399] inception_4a/output -> inception_4a/output
I0403 15:19:55.588973 11844 net.cpp:141] Setting up inception_4a/output
I0403 15:19:55.588996 11844 net.cpp:148] Top shape: 24 512 14 14 (2408448)
I0403 15:19:55.589010 11844 net.cpp:156] Memory required for data: 896545824
I0403 15:19:55.589025 11844 layer_factory.hpp:77] Creating layer inception_4a/output_inception_4a/output_0_split
I0403 15:19:55.589041 11844 net.cpp:91] Creating Layer inception_4a/output_inception_4a/output_0_split
I0403 15:19:55.589056 11844 net.cpp:425] inception_4a/output_inception_4a/output_0_split <- inception_4a/output
I0403 15:19:55.589076 11844 net.cpp:399] inception_4a/output_inception_4a/output_0_split -> inception_4a/output_inception_4a/output_0_split_0
I0403 15:19:55.589095 11844 net.cpp:399] inception_4a/output_inception_4a/output_0_split -> inception_4a/output_inception_4a/output_0_split_1
I0403 15:19:55.589115 11844 net.cpp:399] inception_4a/output_inception_4a/output_0_split -> inception_4a/output_inception_4a/output_0_split_2
I0403 15:19:55.589134 11844 net.cpp:399] inception_4a/output_inception_4a/output_0_split -> inception_4a/output_inception_4a/output_0_split_3
I0403 15:19:55.589154 11844 net.cpp:399] inception_4a/output_inception_4a/output_0_split -> inception_4a/output_inception_4a/output_0_split_4
I0403 15:19:55.589242 11844 net.cpp:141] Setting up inception_4a/output_inception_4a/output_0_split
I0403 15:19:55.589264 11844 net.cpp:148] Top shape: 24 512 14 14 (2408448)
I0403 15:19:55.589282 11844 net.cpp:148] Top shape: 24 512 14 14 (2408448)
I0403 15:19:55.589298 11844 net.cpp:148] Top shape: 24 512 14 14 (2408448)
I0403 15:19:55.589313 11844 net.cpp:148] Top shape: 24 512 14 14 (2408448)
I0403 15:19:55.589332 11844 net.cpp:148] Top shape: 24 512 14 14 (2408448)
I0403 15:19:55.589346 11844 net.cpp:156] Memory required for data: 944714784
I0403 15:19:55.589359 11844 layer_factory.hpp:77] Creating layer loss1/ave_pool
I0403 15:19:55.589376 11844 net.cpp:91] Creating Layer loss1/ave_pool
I0403 15:19:55.589392 11844 net.cpp:425] loss1/ave_pool <- inception_4a/output_inception_4a/output_0_split_0
I0403 15:19:55.589411 11844 net.cpp:399] loss1/ave_pool -> loss1/ave_pool
I0403 15:19:55.589619 11844 net.cpp:141] Setting up loss1/ave_pool
I0403 15:19:55.589644 11844 net.cpp:148] Top shape: 24 512 4 4 (196608)
I0403 15:19:55.589659 11844 net.cpp:156] Memory required for data: 945501216
I0403 15:19:55.589674 11844 layer_factory.hpp:77] Creating layer loss1/conv
I0403 15:19:55.589695 11844 net.cpp:91] Creating Layer loss1/conv
I0403 15:19:55.589714 11844 net.cpp:425] loss1/conv <- loss1/ave_pool
I0403 15:19:55.589733 11844 net.cpp:399] loss1/conv -> loss1/conv
I0403 15:19:55.591104 11844 net.cpp:141] Setting up loss1/conv
I0403 15:19:55.591132 11844 net.cpp:148] Top shape: 24 128 4 4 (49152)
I0403 15:19:55.591161 11844 net.cpp:156] Memory required for data: 945697824
I0403 15:19:55.591181 11844 layer_factory.hpp:77] Creating layer loss1/relu_conv
I0403 15:19:55.591202 11844 net.cpp:91] Creating Layer loss1/relu_conv
I0403 15:19:55.591219 11844 net.cpp:425] loss1/relu_conv <- loss1/conv
I0403 15:19:55.591238 11844 net.cpp:386] loss1/relu_conv -> loss1/conv (in-place)
I0403 15:19:55.591523 11844 net.cpp:141] Setting up loss1/relu_conv
I0403 15:19:55.591550 11844 net.cpp:148] Top shape: 24 128 4 4 (49152)
I0403 15:19:55.591565 11844 net.cpp:156] Memory required for data: 945894432
I0403 15:19:55.591581 11844 layer_factory.hpp:77] Creating layer loss1/fc
I0403 15:19:55.591606 11844 net.cpp:91] Creating Layer loss1/fc
I0403 15:19:55.591625 11844 net.cpp:425] loss1/fc <- loss1/conv
I0403 15:19:55.591646 11844 net.cpp:399] loss1/fc -> loss1/fc
I0403 15:19:55.609246 11844 net.cpp:141] Setting up loss1/fc
I0403 15:19:55.609278 11844 net.cpp:148] Top shape: 24 1024 (24576)
I0403 15:19:55.609295 11844 net.cpp:156] Memory required for data: 945992736
I0403 15:19:55.609314 11844 layer_factory.hpp:77] Creating layer loss1/relu_fc
I0403 15:19:55.609339 11844 net.cpp:91] Creating Layer loss1/relu_fc
I0403 15:19:55.609357 11844 net.cpp:425] loss1/relu_fc <- loss1/fc
I0403 15:19:55.609377 11844 net.cpp:386] loss1/relu_fc -> loss1/fc (in-place)
I0403 15:19:55.609570 11844 net.cpp:141] Setting up loss1/relu_fc
I0403 15:19:55.609598 11844 net.cpp:148] Top shape: 24 1024 (24576)
I0403 15:19:55.609616 11844 net.cpp:156] Memory required for data: 946091040
I0403 15:19:55.609629 11844 layer_factory.hpp:77] Creating layer loss1/drop_fc
I0403 15:19:55.609657 11844 net.cpp:91] Creating Layer loss1/drop_fc
I0403 15:19:55.609674 11844 net.cpp:425] loss1/drop_fc <- loss1/fc
I0403 15:19:55.609693 11844 net.cpp:386] loss1/drop_fc -> loss1/fc (in-place)
I0403 15:19:55.609745 11844 net.cpp:141] Setting up loss1/drop_fc
I0403 15:19:55.609768 11844 net.cpp:148] Top shape: 24 1024 (24576)
I0403 15:19:55.609784 11844 net.cpp:156] Memory required for data: 946189344
I0403 15:19:55.609800 11844 layer_factory.hpp:77] Creating layer loss1/classifier_plantvillage
I0403 15:19:55.609820 11844 net.cpp:91] Creating Layer loss1/classifier_plantvillage
I0403 15:19:55.609836 11844 net.cpp:425] loss1/classifier_plantvillage <- loss1/fc
I0403 15:19:55.609858 11844 net.cpp:399] loss1/classifier_plantvillage -> loss1/classifier_plantvillage
I0403 15:19:55.610775 11844 net.cpp:141] Setting up loss1/classifier_plantvillage
I0403 15:19:55.610803 11844 net.cpp:148] Top shape: 24 38 (912)
I0403 15:19:55.610818 11844 net.cpp:156] Memory required for data: 946192992
I0403 15:19:55.610836 11844 layer_factory.hpp:77] Creating layer loss1/classifier_plantvillage_loss1/classifier_plantvillage_0_split
I0403 15:19:55.610855 11844 net.cpp:91] Creating Layer loss1/classifier_plantvillage_loss1/classifier_plantvillage_0_split
I0403 15:19:55.610872 11844 net.cpp:425] loss1/classifier_plantvillage_loss1/classifier_plantvillage_0_split <- loss1/classifier_plantvillage
I0403 15:19:55.610889 11844 net.cpp:399] loss1/classifier_plantvillage_loss1/classifier_plantvillage_0_split -> loss1/classifier_plantvillage_loss1/classifier_plantvillage_0_split_0
I0403 15:19:55.610910 11844 net.cpp:399] loss1/classifier_plantvillage_loss1/classifier_plantvillage_0_split -> loss1/classifier_plantvillage_loss1/classifier_plantvillage_0_split_1
I0403 15:19:55.610930 11844 net.cpp:399] loss1/classifier_plantvillage_loss1/classifier_plantvillage_0_split -> loss1/classifier_plantvillage_loss1/classifier_plantvillage_0_split_2
I0403 15:19:55.610999 11844 net.cpp:141] Setting up loss1/classifier_plantvillage_loss1/classifier_plantvillage_0_split
I0403 15:19:55.611021 11844 net.cpp:148] Top shape: 24 38 (912)
I0403 15:19:55.611037 11844 net.cpp:148] Top shape: 24 38 (912)
I0403 15:19:55.611052 11844 net.cpp:148] Top shape: 24 38 (912)
I0403 15:19:55.611066 11844 net.cpp:156] Memory required for data: 946203936
I0403 15:19:55.611080 11844 layer_factory.hpp:77] Creating layer inception_4b/1x1
I0403 15:19:55.611102 11844 net.cpp:91] Creating Layer inception_4b/1x1
I0403 15:19:55.611136 11844 net.cpp:425] inception_4b/1x1 <- inception_4a/output_inception_4a/output_0_split_1
I0403 15:19:55.611156 11844 net.cpp:399] inception_4b/1x1 -> inception_4b/1x1
I0403 15:19:55.612844 11844 net.cpp:141] Setting up inception_4b/1x1
I0403 15:19:55.612877 11844 net.cpp:148] Top shape: 24 160 14 14 (752640)
I0403 15:19:55.612895 11844 net.cpp:156] Memory required for data: 949214496
I0403 15:19:55.612915 11844 layer_factory.hpp:77] Creating layer inception_4b/relu_1x1
I0403 15:19:55.612932 11844 net.cpp:91] Creating Layer inception_4b/relu_1x1
I0403 15:19:55.612948 11844 net.cpp:425] inception_4b/relu_1x1 <- inception_4b/1x1
I0403 15:19:55.612968 11844 net.cpp:386] inception_4b/relu_1x1 -> inception_4b/1x1 (in-place)
I0403 15:19:55.613144 11844 net.cpp:141] Setting up inception_4b/relu_1x1
I0403 15:19:55.613170 11844 net.cpp:148] Top shape: 24 160 14 14 (752640)
I0403 15:19:55.613186 11844 net.cpp:156] Memory required for data: 952225056
I0403 15:19:55.613200 11844 layer_factory.hpp:77] Creating layer inception_4b/3x3_reduce
I0403 15:19:55.613224 11844 net.cpp:91] Creating Layer inception_4b/3x3_reduce
I0403 15:19:55.613242 11844 net.cpp:425] inception_4b/3x3_reduce <- inception_4a/output_inception_4a/output_0_split_2
I0403 15:19:55.613263 11844 net.cpp:399] inception_4b/3x3_reduce -> inception_4b/3x3_reduce
I0403 15:19:55.614619 11844 net.cpp:141] Setting up inception_4b/3x3_reduce
I0403 15:19:55.614648 11844 net.cpp:148] Top shape: 24 112 14 14 (526848)
I0403 15:19:55.614665 11844 net.cpp:156] Memory required for data: 954332448
I0403 15:19:55.614683 11844 layer_factory.hpp:77] Creating layer inception_4b/relu_3x3_reduce
I0403 15:19:55.614703 11844 net.cpp:91] Creating Layer inception_4b/relu_3x3_reduce
I0403 15:19:55.614719 11844 net.cpp:425] inception_4b/relu_3x3_reduce <- inception_4b/3x3_reduce
I0403 15:19:55.614739 11844 net.cpp:386] inception_4b/relu_3x3_reduce -> inception_4b/3x3_reduce (in-place)
I0403 15:19:55.615021 11844 net.cpp:141] Setting up inception_4b/relu_3x3_reduce
I0403 15:19:55.615049 11844 net.cpp:148] Top shape: 24 112 14 14 (526848)
I0403 15:19:55.615067 11844 net.cpp:156] Memory required for data: 956439840
I0403 15:19:55.615082 11844 layer_factory.hpp:77] Creating layer inception_4b/3x3
I0403 15:19:55.615105 11844 net.cpp:91] Creating Layer inception_4b/3x3
I0403 15:19:55.615125 11844 net.cpp:425] inception_4b/3x3 <- inception_4b/3x3_reduce
I0403 15:19:55.615147 11844 net.cpp:399] inception_4b/3x3 -> inception_4b/3x3
I0403 15:19:55.618145 11844 net.cpp:141] Setting up inception_4b/3x3
I0403 15:19:55.618175 11844 net.cpp:148] Top shape: 24 224 14 14 (1053696)
I0403 15:19:55.618192 11844 net.cpp:156] Memory required for data: 960654624
I0403 15:19:55.618211 11844 layer_factory.hpp:77] Creating layer inception_4b/relu_3x3
I0403 15:19:55.618232 11844 net.cpp:91] Creating Layer inception_4b/relu_3x3
I0403 15:19:55.618250 11844 net.cpp:425] inception_4b/relu_3x3 <- inception_4b/3x3
I0403 15:19:55.618268 11844 net.cpp:386] inception_4b/relu_3x3 -> inception_4b/3x3 (in-place)
I0403 15:19:55.618454 11844 net.cpp:141] Setting up inception_4b/relu_3x3
I0403 15:19:55.618484 11844 net.cpp:148] Top shape: 24 224 14 14 (1053696)
I0403 15:19:55.618499 11844 net.cpp:156] Memory required for data: 964869408
I0403 15:19:55.618515 11844 layer_factory.hpp:77] Creating layer inception_4b/5x5_reduce
I0403 15:19:55.618538 11844 net.cpp:91] Creating Layer inception_4b/5x5_reduce
I0403 15:19:55.618556 11844 net.cpp:425] inception_4b/5x5_reduce <- inception_4a/output_inception_4a/output_0_split_3
I0403 15:19:55.618577 11844 net.cpp:399] inception_4b/5x5_reduce -> inception_4b/5x5_reduce
I0403 15:19:55.619654 11844 net.cpp:141] Setting up inception_4b/5x5_reduce
I0403 15:19:55.619685 11844 net.cpp:148] Top shape: 24 24 14 14 (112896)
I0403 15:19:55.619700 11844 net.cpp:156] Memory required for data: 965320992
I0403 15:19:55.619719 11844 layer_factory.hpp:77] Creating layer inception_4b/relu_5x5_reduce
I0403 15:19:55.619737 11844 net.cpp:91] Creating Layer inception_4b/relu_5x5_reduce
I0403 15:19:55.619770 11844 net.cpp:425] inception_4b/relu_5x5_reduce <- inception_4b/5x5_reduce
I0403 15:19:55.619791 11844 net.cpp:386] inception_4b/relu_5x5_reduce -> inception_4b/5x5_reduce (in-place)
I0403 15:19:55.619977 11844 net.cpp:141] Setting up inception_4b/relu_5x5_reduce
I0403 15:19:55.620003 11844 net.cpp:148] Top shape: 24 24 14 14 (112896)
I0403 15:19:55.620018 11844 net.cpp:156] Memory required for data: 965772576
I0403 15:19:55.620033 11844 layer_factory.hpp:77] Creating layer inception_4b/5x5
I0403 15:19:55.620055 11844 net.cpp:91] Creating Layer inception_4b/5x5
I0403 15:19:55.620074 11844 net.cpp:425] inception_4b/5x5 <- inception_4b/5x5_reduce
I0403 15:19:55.620095 11844 net.cpp:399] inception_4b/5x5 -> inception_4b/5x5
I0403 15:19:55.621359 11844 net.cpp:141] Setting up inception_4b/5x5
I0403 15:19:55.621390 11844 net.cpp:148] Top shape: 24 64 14 14 (301056)
I0403 15:19:55.621408 11844 net.cpp:156] Memory required for data: 966976800
I0403 15:19:55.621426 11844 layer_factory.hpp:77] Creating layer inception_4b/relu_5x5
I0403 15:19:55.621445 11844 net.cpp:91] Creating Layer inception_4b/relu_5x5
I0403 15:19:55.621462 11844 net.cpp:425] inception_4b/relu_5x5 <- inception_4b/5x5
I0403 15:19:55.621484 11844 net.cpp:386] inception_4b/relu_5x5 -> inception_4b/5x5 (in-place)
I0403 15:19:55.621770 11844 net.cpp:141] Setting up inception_4b/relu_5x5
I0403 15:19:55.621799 11844 net.cpp:148] Top shape: 24 64 14 14 (301056)
I0403 15:19:55.621816 11844 net.cpp:156] Memory required for data: 968181024
I0403 15:19:55.621832 11844 layer_factory.hpp:77] Creating layer inception_4b/pool
I0403 15:19:55.621851 11844 net.cpp:91] Creating Layer inception_4b/pool
I0403 15:19:55.621868 11844 net.cpp:425] inception_4b/pool <- inception_4a/output_inception_4a/output_0_split_4
I0403 15:19:55.621889 11844 net.cpp:399] inception_4b/pool -> inception_4b/pool
I0403 15:19:55.621955 11844 net.cpp:141] Setting up inception_4b/pool
I0403 15:19:55.621980 11844 net.cpp:148] Top shape: 24 512 14 14 (2408448)
I0403 15:19:55.621995 11844 net.cpp:156] Memory required for data: 977814816
I0403 15:19:55.622010 11844 layer_factory.hpp:77] Creating layer inception_4b/pool_proj
I0403 15:19:55.622031 11844 net.cpp:91] Creating Layer inception_4b/pool_proj
I0403 15:19:55.622050 11844 net.cpp:425] inception_4b/pool_proj <- inception_4b/pool
I0403 15:19:55.622071 11844 net.cpp:399] inception_4b/pool_proj -> inception_4b/pool_proj
I0403 15:19:55.623304 11844 net.cpp:141] Setting up inception_4b/pool_proj
I0403 15:19:55.623356 11844 net.cpp:148] Top shape: 24 64 14 14 (301056)
I0403 15:19:55.623375 11844 net.cpp:156] Memory required for data: 979019040
I0403 15:19:55.623394 11844 layer_factory.hpp:77] Creating layer inception_4b/relu_pool_proj
I0403 15:19:55.623414 11844 net.cpp:91] Creating Layer inception_4b/relu_pool_proj
I0403 15:19:55.623431 11844 net.cpp:425] inception_4b/relu_pool_proj <- inception_4b/pool_proj
I0403 15:19:55.623451 11844 net.cpp:386] inception_4b/relu_pool_proj -> inception_4b/pool_proj (in-place)
I0403 15:19:55.623631 11844 net.cpp:141] Setting up inception_4b/relu_pool_proj
I0403 15:19:55.623657 11844 net.cpp:148] Top shape: 24 64 14 14 (301056)
I0403 15:19:55.623672 11844 net.cpp:156] Memory required for data: 980223264
I0403 15:19:55.623687 11844 layer_factory.hpp:77] Creating layer inception_4b/output
I0403 15:19:55.623705 11844 net.cpp:91] Creating Layer inception_4b/output
I0403 15:19:55.623721 11844 net.cpp:425] inception_4b/output <- inception_4b/1x1
I0403 15:19:55.623739 11844 net.cpp:425] inception_4b/output <- inception_4b/3x3
I0403 15:19:55.623755 11844 net.cpp:425] inception_4b/output <- inception_4b/5x5
I0403 15:19:55.623770 11844 net.cpp:425] inception_4b/output <- inception_4b/pool_proj
I0403 15:19:55.623790 11844 net.cpp:399] inception_4b/output -> inception_4b/output
I0403 15:19:55.623836 11844 net.cpp:141] Setting up inception_4b/output
I0403 15:19:55.623862 11844 net.cpp:148] Top shape: 24 512 14 14 (2408448)
I0403 15:19:55.623878 11844 net.cpp:156] Memory required for data: 989857056
I0403 15:19:55.623908 11844 layer_factory.hpp:77] Creating layer inception_4b/output_inception_4b/output_0_split
I0403 15:19:55.623925 11844 net.cpp:91] Creating Layer inception_4b/output_inception_4b/output_0_split
I0403 15:19:55.623940 11844 net.cpp:425] inception_4b/output_inception_4b/output_0_split <- inception_4b/output
I0403 15:19:55.623957 11844 net.cpp:399] inception_4b/output_inception_4b/output_0_split -> inception_4b/output_inception_4b/output_0_split_0
I0403 15:19:55.623980 11844 net.cpp:399] inception_4b/output_inception_4b/output_0_split -> inception_4b/output_inception_4b/output_0_split_1
I0403 15:19:55.624001 11844 net.cpp:399] inception_4b/output_inception_4b/output_0_split -> inception_4b/output_inception_4b/output_0_split_2
I0403 15:19:55.624022 11844 net.cpp:399] inception_4b/output_inception_4b/output_0_split -> inception_4b/output_inception_4b/output_0_split_3
I0403 15:19:55.624105 11844 net.cpp:141] Setting up inception_4b/output_inception_4b/output_0_split
I0403 15:19:55.624128 11844 net.cpp:148] Top shape: 24 512 14 14 (2408448)
I0403 15:19:55.624143 11844 net.cpp:148] Top shape: 24 512 14 14 (2408448)
I0403 15:19:55.624160 11844 net.cpp:148] Top shape: 24 512 14 14 (2408448)
I0403 15:19:55.624174 11844 net.cpp:148] Top shape: 24 512 14 14 (2408448)
I0403 15:19:55.624188 11844 net.cpp:156] Memory required for data: 1028392224
I0403 15:19:55.624202 11844 layer_factory.hpp:77] Creating layer inception_4c/1x1
I0403 15:19:55.624227 11844 net.cpp:91] Creating Layer inception_4c/1x1
I0403 15:19:55.624243 11844 net.cpp:425] inception_4c/1x1 <- inception_4b/output_inception_4b/output_0_split_0
I0403 15:19:55.624261 11844 net.cpp:399] inception_4c/1x1 -> inception_4c/1x1
I0403 15:19:55.625738 11844 net.cpp:141] Setting up inception_4c/1x1
I0403 15:19:55.625768 11844 net.cpp:148] Top shape: 24 128 14 14 (602112)
I0403 15:19:55.625783 11844 net.cpp:156] Memory required for data: 1030800672
I0403 15:19:55.625802 11844 layer_factory.hpp:77] Creating layer inception_4c/relu_1x1
I0403 15:19:55.625823 11844 net.cpp:91] Creating Layer inception_4c/relu_1x1
I0403 15:19:55.625839 11844 net.cpp:425] inception_4c/relu_1x1 <- inception_4c/1x1
I0403 15:19:55.625856 11844 net.cpp:386] inception_4c/relu_1x1 -> inception_4c/1x1 (in-place)
I0403 15:19:55.626039 11844 net.cpp:141] Setting up inception_4c/relu_1x1
I0403 15:19:55.626062 11844 net.cpp:148] Top shape: 24 128 14 14 (602112)
I0403 15:19:55.626080 11844 net.cpp:156] Memory required for data: 1033209120
I0403 15:19:55.626096 11844 layer_factory.hpp:77] Creating layer inception_4c/3x3_reduce
I0403 15:19:55.626116 11844 net.cpp:91] Creating Layer inception_4c/3x3_reduce
I0403 15:19:55.626132 11844 net.cpp:425] inception_4c/3x3_reduce <- inception_4b/output_inception_4b/output_0_split_1
I0403 15:19:55.626153 11844 net.cpp:399] inception_4c/3x3_reduce -> inception_4c/3x3_reduce
I0403 15:19:55.628154 11844 net.cpp:141] Setting up inception_4c/3x3_reduce
I0403 15:19:55.628186 11844 net.cpp:148] Top shape: 24 128 14 14 (602112)
I0403 15:19:55.628203 11844 net.cpp:156] Memory required for data: 1035617568
I0403 15:19:55.628223 11844 layer_factory.hpp:77] Creating layer inception_4c/relu_3x3_reduce
I0403 15:19:55.628242 11844 net.cpp:91] Creating Layer inception_4c/relu_3x3_reduce
I0403 15:19:55.628258 11844 net.cpp:425] inception_4c/relu_3x3_reduce <- inception_4c/3x3_reduce
I0403 15:19:55.628276 11844 net.cpp:386] inception_4c/relu_3x3_reduce -> inception_4c/3x3_reduce (in-place)
I0403 15:19:55.628567 11844 net.cpp:141] Setting up inception_4c/relu_3x3_reduce
I0403 15:19:55.628597 11844 net.cpp:148] Top shape: 24 128 14 14 (602112)
I0403 15:19:55.628613 11844 net.cpp:156] Memory required for data: 1038026016
I0403 15:19:55.628628 11844 layer_factory.hpp:77] Creating layer inception_4c/3x3
I0403 15:19:55.628651 11844 net.cpp:91] Creating Layer inception_4c/3x3
I0403 15:19:55.628669 11844 net.cpp:425] inception_4c/3x3 <- inception_4c/3x3_reduce
I0403 15:19:55.628689 11844 net.cpp:399] inception_4c/3x3 -> inception_4c/3x3
I0403 15:19:55.632344 11844 net.cpp:141] Setting up inception_4c/3x3
I0403 15:19:55.632390 11844 net.cpp:148] Top shape: 24 256 14 14 (1204224)
I0403 15:19:55.632408 11844 net.cpp:156] Memory required for data: 1042842912
I0403 15:19:55.632443 11844 layer_factory.hpp:77] Creating layer inception_4c/relu_3x3
I0403 15:19:55.632464 11844 net.cpp:91] Creating Layer inception_4c/relu_3x3
I0403 15:19:55.632482 11844 net.cpp:425] inception_4c/relu_3x3 <- inception_4c/3x3
I0403 15:19:55.632503 11844 net.cpp:386] inception_4c/relu_3x3 -> inception_4c/3x3 (in-place)
I0403 15:19:55.632697 11844 net.cpp:141] Setting up inception_4c/relu_3x3
I0403 15:19:55.632725 11844 net.cpp:148] Top shape: 24 256 14 14 (1204224)
I0403 15:19:55.632740 11844 net.cpp:156] Memory required for data: 1047659808
I0403 15:19:55.632753 11844 layer_factory.hpp:77] Creating layer inception_4c/5x5_reduce
I0403 15:19:55.632776 11844 net.cpp:91] Creating Layer inception_4c/5x5_reduce
I0403 15:19:55.632793 11844 net.cpp:425] inception_4c/5x5_reduce <- inception_4b/output_inception_4b/output_0_split_2
I0403 15:19:55.632815 11844 net.cpp:399] inception_4c/5x5_reduce -> inception_4c/5x5_reduce
I0403 15:19:55.633908 11844 net.cpp:141] Setting up inception_4c/5x5_reduce
I0403 15:19:55.633939 11844 net.cpp:148] Top shape: 24 24 14 14 (112896)
I0403 15:19:55.633957 11844 net.cpp:156] Memory required for data: 1048111392
I0403 15:19:55.633977 11844 layer_factory.hpp:77] Creating layer inception_4c/relu_5x5_reduce
I0403 15:19:55.633996 11844 net.cpp:91] Creating Layer inception_4c/relu_5x5_reduce
I0403 15:19:55.634011 11844 net.cpp:425] inception_4c/relu_5x5_reduce <- inception_4c/5x5_reduce
I0403 15:19:55.634032 11844 net.cpp:386] inception_4c/relu_5x5_reduce -> inception_4c/5x5_reduce (in-place)
I0403 15:19:55.634217 11844 net.cpp:141] Setting up inception_4c/relu_5x5_reduce
I0403 15:19:55.634244 11844 net.cpp:148] Top shape: 24 24 14 14 (112896)
I0403 15:19:55.634259 11844 net.cpp:156] Memory required for data: 1048562976
I0403 15:19:55.634274 11844 layer_factory.hpp:77] Creating layer inception_4c/5x5
I0403 15:19:55.634297 11844 net.cpp:91] Creating Layer inception_4c/5x5
I0403 15:19:55.634315 11844 net.cpp:425] inception_4c/5x5 <- inception_4c/5x5_reduce
I0403 15:19:55.634342 11844 net.cpp:399] inception_4c/5x5 -> inception_4c/5x5
I0403 15:19:55.635642 11844 net.cpp:141] Setting up inception_4c/5x5
I0403 15:19:55.635682 11844 net.cpp:148] Top shape: 24 64 14 14 (301056)
I0403 15:19:55.635699 11844 net.cpp:156] Memory required for data: 1049767200
I0403 15:19:55.635717 11844 layer_factory.hpp:77] Creating layer inception_4c/relu_5x5
I0403 15:19:55.635735 11844 net.cpp:91] Creating Layer inception_4c/relu_5x5
I0403 15:19:55.635752 11844 net.cpp:425] inception_4c/relu_5x5 <- inception_4c/5x5
I0403 15:19:55.635772 11844 net.cpp:386] inception_4c/relu_5x5 -> inception_4c/5x5 (in-place)
I0403 15:19:55.636067 11844 net.cpp:141] Setting up inception_4c/relu_5x5
I0403 15:19:55.636096 11844 net.cpp:148] Top shape: 24 64 14 14 (301056)
I0403 15:19:55.636111 11844 net.cpp:156] Memory required for data: 1050971424
I0403 15:19:55.636126 11844 layer_factory.hpp:77] Creating layer inception_4c/pool
I0403 15:19:55.636144 11844 net.cpp:91] Creating Layer inception_4c/pool
I0403 15:19:55.636162 11844 net.cpp:425] inception_4c/pool <- inception_4b/output_inception_4b/output_0_split_3
I0403 15:19:55.636183 11844 net.cpp:399] inception_4c/pool -> inception_4c/pool
I0403 15:19:55.636250 11844 net.cpp:141] Setting up inception_4c/pool
I0403 15:19:55.636275 11844 net.cpp:148] Top shape: 24 512 14 14 (2408448)
I0403 15:19:55.636291 11844 net.cpp:156] Memory required for data: 1060605216
I0403 15:19:55.636306 11844 layer_factory.hpp:77] Creating layer inception_4c/pool_proj
I0403 15:19:55.636333 11844 net.cpp:91] Creating Layer inception_4c/pool_proj
I0403 15:19:55.636353 11844 net.cpp:425] inception_4c/pool_proj <- inception_4c/pool
I0403 15:19:55.636374 11844 net.cpp:399] inception_4c/pool_proj -> inception_4c/pool_proj
I0403 15:19:55.637596 11844 net.cpp:141] Setting up inception_4c/pool_proj
I0403 15:19:55.637629 11844 net.cpp:148] Top shape: 24 64 14 14 (301056)
I0403 15:19:55.637658 11844 net.cpp:156] Memory required for data: 1061809440
I0403 15:19:55.637679 11844 layer_factory.hpp:77] Creating layer inception_4c/relu_pool_proj
I0403 15:19:55.637697 11844 net.cpp:91] Creating Layer inception_4c/relu_pool_proj
I0403 15:19:55.637713 11844 net.cpp:425] inception_4c/relu_pool_proj <- inception_4c/pool_proj
I0403 15:19:55.637733 11844 net.cpp:386] inception_4c/relu_pool_proj -> inception_4c/pool_proj (in-place)
I0403 15:19:55.637918 11844 net.cpp:141] Setting up inception_4c/relu_pool_proj
I0403 15:19:55.637943 11844 net.cpp:148] Top shape: 24 64 14 14 (301056)
I0403 15:19:55.637958 11844 net.cpp:156] Memory required for data: 1063013664
I0403 15:19:55.637971 11844 layer_factory.hpp:77] Creating layer inception_4c/output
I0403 15:19:55.637989 11844 net.cpp:91] Creating Layer inception_4c/output
I0403 15:19:55.638005 11844 net.cpp:425] inception_4c/output <- inception_4c/1x1
I0403 15:19:55.638020 11844 net.cpp:425] inception_4c/output <- inception_4c/3x3
I0403 15:19:55.638036 11844 net.cpp:425] inception_4c/output <- inception_4c/5x5
I0403 15:19:55.638051 11844 net.cpp:425] inception_4c/output <- inception_4c/pool_proj
I0403 15:19:55.638069 11844 net.cpp:399] inception_4c/output -> inception_4c/output
I0403 15:19:55.638116 11844 net.cpp:141] Setting up inception_4c/output
I0403 15:19:55.638141 11844 net.cpp:148] Top shape: 24 512 14 14 (2408448)
I0403 15:19:55.638157 11844 net.cpp:156] Memory required for data: 1072647456
I0403 15:19:55.638172 11844 layer_factory.hpp:77] Creating layer inception_4c/output_inception_4c/output_0_split
I0403 15:19:55.638190 11844 net.cpp:91] Creating Layer inception_4c/output_inception_4c/output_0_split
I0403 15:19:55.638203 11844 net.cpp:425] inception_4c/output_inception_4c/output_0_split <- inception_4c/output
I0403 15:19:55.638221 11844 net.cpp:399] inception_4c/output_inception_4c/output_0_split -> inception_4c/output_inception_4c/output_0_split_0
I0403 15:19:55.638242 11844 net.cpp:399] inception_4c/output_inception_4c/output_0_split -> inception_4c/output_inception_4c/output_0_split_1
I0403 15:19:55.638264 11844 net.cpp:399] inception_4c/output_inception_4c/output_0_split -> inception_4c/output_inception_4c/output_0_split_2
I0403 15:19:55.638284 11844 net.cpp:399] inception_4c/output_inception_4c/output_0_split -> inception_4c/output_inception_4c/output_0_split_3
I0403 15:19:55.638392 11844 net.cpp:141] Setting up inception_4c/output_inception_4c/output_0_split
I0403 15:19:55.638417 11844 net.cpp:148] Top shape: 24 512 14 14 (2408448)
I0403 15:19:55.638433 11844 net.cpp:148] Top shape: 24 512 14 14 (2408448)
I0403 15:19:55.638450 11844 net.cpp:148] Top shape: 24 512 14 14 (2408448)
I0403 15:19:55.638466 11844 net.cpp:148] Top shape: 24 512 14 14 (2408448)
I0403 15:19:55.638480 11844 net.cpp:156] Memory required for data: 1111182624
I0403 15:19:55.638495 11844 layer_factory.hpp:77] Creating layer inception_4d/1x1
I0403 15:19:55.638519 11844 net.cpp:91] Creating Layer inception_4d/1x1
I0403 15:19:55.638536 11844 net.cpp:425] inception_4d/1x1 <- inception_4c/output_inception_4c/output_0_split_0
I0403 15:19:55.638556 11844 net.cpp:399] inception_4d/1x1 -> inception_4d/1x1
I0403 15:19:55.639971 11844 net.cpp:141] Setting up inception_4d/1x1
I0403 15:19:55.639998 11844 net.cpp:148] Top shape: 24 112 14 14 (526848)
I0403 15:19:55.640015 11844 net.cpp:156] Memory required for data: 1113290016
I0403 15:19:55.640034 11844 layer_factory.hpp:77] Creating layer inception_4d/relu_1x1
I0403 15:19:55.640054 11844 net.cpp:91] Creating Layer inception_4d/relu_1x1
I0403 15:19:55.640072 11844 net.cpp:425] inception_4d/relu_1x1 <- inception_4d/1x1
I0403 15:19:55.640101 11844 net.cpp:386] inception_4d/relu_1x1 -> inception_4d/1x1 (in-place)
I0403 15:19:55.640280 11844 net.cpp:141] Setting up inception_4d/relu_1x1
I0403 15:19:55.640306 11844 net.cpp:148] Top shape: 24 112 14 14 (526848)
I0403 15:19:55.640338 11844 net.cpp:156] Memory required for data: 1115397408
I0403 15:19:55.640357 11844 layer_factory.hpp:77] Creating layer inception_4d/3x3_reduce
I0403 15:19:55.640393 11844 net.cpp:91] Creating Layer inception_4d/3x3_reduce
I0403 15:19:55.640410 11844 net.cpp:425] inception_4d/3x3_reduce <- inception_4c/output_inception_4c/output_0_split_1
I0403 15:19:55.640429 11844 net.cpp:399] inception_4d/3x3_reduce -> inception_4d/3x3_reduce
I0403 15:19:55.641990 11844 net.cpp:141] Setting up inception_4d/3x3_reduce
I0403 15:19:55.642019 11844 net.cpp:148] Top shape: 24 144 14 14 (677376)
I0403 15:19:55.642033 11844 net.cpp:156] Memory required for data: 1118106912
I0403 15:19:55.642050 11844 layer_factory.hpp:77] Creating layer inception_4d/relu_3x3_reduce
I0403 15:19:55.642071 11844 net.cpp:91] Creating Layer inception_4d/relu_3x3_reduce
I0403 15:19:55.642088 11844 net.cpp:425] inception_4d/relu_3x3_reduce <- inception_4d/3x3_reduce
I0403 15:19:55.642105 11844 net.cpp:386] inception_4d/relu_3x3_reduce -> inception_4d/3x3_reduce (in-place)
I0403 15:19:55.642397 11844 net.cpp:141] Setting up inception_4d/relu_3x3_reduce
I0403 15:19:55.642423 11844 net.cpp:148] Top shape: 24 144 14 14 (677376)
I0403 15:19:55.642438 11844 net.cpp:156] Memory required for data: 1120816416
I0403 15:19:55.642452 11844 layer_factory.hpp:77] Creating layer inception_4d/3x3
I0403 15:19:55.642474 11844 net.cpp:91] Creating Layer inception_4d/3x3
I0403 15:19:55.642490 11844 net.cpp:425] inception_4d/3x3 <- inception_4d/3x3_reduce
I0403 15:19:55.642513 11844 net.cpp:399] inception_4d/3x3 -> inception_4d/3x3
I0403 15:19:55.646687 11844 net.cpp:141] Setting up inception_4d/3x3
I0403 15:19:55.646716 11844 net.cpp:148] Top shape: 24 288 14 14 (1354752)
I0403 15:19:55.646733 11844 net.cpp:156] Memory required for data: 1126235424
I0403 15:19:55.646749 11844 layer_factory.hpp:77] Creating layer inception_4d/relu_3x3
I0403 15:19:55.646770 11844 net.cpp:91] Creating Layer inception_4d/relu_3x3
I0403 15:19:55.646786 11844 net.cpp:425] inception_4d/relu_3x3 <- inception_4d/3x3
I0403 15:19:55.646802 11844 net.cpp:386] inception_4d/relu_3x3 -> inception_4d/3x3 (in-place)
I0403 15:19:55.646983 11844 net.cpp:141] Setting up inception_4d/relu_3x3
I0403 15:19:55.647009 11844 net.cpp:148] Top shape: 24 288 14 14 (1354752)
I0403 15:19:55.647023 11844 net.cpp:156] Memory required for data: 1131654432
I0403 15:19:55.647038 11844 layer_factory.hpp:77] Creating layer inception_4d/5x5_reduce
I0403 15:19:55.647060 11844 net.cpp:91] Creating Layer inception_4d/5x5_reduce
I0403 15:19:55.647078 11844 net.cpp:425] inception_4d/5x5_reduce <- inception_4c/output_inception_4c/output_0_split_2
I0403 15:19:55.647095 11844 net.cpp:399] inception_4d/5x5_reduce -> inception_4d/5x5_reduce
I0403 15:19:55.648214 11844 net.cpp:141] Setting up inception_4d/5x5_reduce
I0403 15:19:55.648243 11844 net.cpp:148] Top shape: 24 32 14 14 (150528)
I0403 15:19:55.648258 11844 net.cpp:156] Memory required for data: 1132256544
I0403 15:19:55.648277 11844 layer_factory.hpp:77] Creating layer inception_4d/relu_5x5_reduce
I0403 15:19:55.648298 11844 net.cpp:91] Creating Layer inception_4d/relu_5x5_reduce
I0403 15:19:55.648319 11844 net.cpp:425] inception_4d/relu_5x5_reduce <- inception_4d/5x5_reduce
I0403 15:19:55.648337 11844 net.cpp:386] inception_4d/relu_5x5_reduce -> inception_4d/5x5_reduce (in-place)
I0403 15:19:55.648519 11844 net.cpp:141] Setting up inception_4d/relu_5x5_reduce
I0403 15:19:55.648545 11844 net.cpp:148] Top shape: 24 32 14 14 (150528)
I0403 15:19:55.648558 11844 net.cpp:156] Memory required for data: 1132858656
I0403 15:19:55.648572 11844 layer_factory.hpp:77] Creating layer inception_4d/5x5
I0403 15:19:55.648594 11844 net.cpp:91] Creating Layer inception_4d/5x5
I0403 15:19:55.648612 11844 net.cpp:425] inception_4d/5x5 <- inception_4d/5x5_reduce
I0403 15:19:55.648633 11844 net.cpp:399] inception_4d/5x5 -> inception_4d/5x5
I0403 15:19:55.650099 11844 net.cpp:141] Setting up inception_4d/5x5
I0403 15:19:55.650126 11844 net.cpp:148] Top shape: 24 64 14 14 (301056)
I0403 15:19:55.650142 11844 net.cpp:156] Memory required for data: 1134062880
I0403 15:19:55.650162 11844 layer_factory.hpp:77] Creating layer inception_4d/relu_5x5
I0403 15:19:55.650195 11844 net.cpp:91] Creating Layer inception_4d/relu_5x5
I0403 15:19:55.650213 11844 net.cpp:425] inception_4d/relu_5x5 <- inception_4d/5x5
I0403 15:19:55.650234 11844 net.cpp:386] inception_4d/relu_5x5 -> inception_4d/5x5 (in-place)
I0403 15:19:55.650537 11844 net.cpp:141] Setting up inception_4d/relu_5x5
I0403 15:19:55.650563 11844 net.cpp:148] Top shape: 24 64 14 14 (301056)
I0403 15:19:55.650578 11844 net.cpp:156] Memory required for data: 1135267104
I0403 15:19:55.650593 11844 layer_factory.hpp:77] Creating layer inception_4d/pool
I0403 15:19:55.650610 11844 net.cpp:91] Creating Layer inception_4d/pool
I0403 15:19:55.650625 11844 net.cpp:425] inception_4d/pool <- inception_4c/output_inception_4c/output_0_split_3
I0403 15:19:55.650645 11844 net.cpp:399] inception_4d/pool -> inception_4d/pool
I0403 15:19:55.650710 11844 net.cpp:141] Setting up inception_4d/pool
I0403 15:19:55.650733 11844 net.cpp:148] Top shape: 24 512 14 14 (2408448)
I0403 15:19:55.650748 11844 net.cpp:156] Memory required for data: 1144900896
I0403 15:19:55.650761 11844 layer_factory.hpp:77] Creating layer inception_4d/pool_proj
I0403 15:19:55.650784 11844 net.cpp:91] Creating Layer inception_4d/pool_proj
I0403 15:19:55.650801 11844 net.cpp:425] inception_4d/pool_proj <- inception_4d/pool
I0403 15:19:55.650820 11844 net.cpp:399] inception_4d/pool_proj -> inception_4d/pool_proj
I0403 15:19:55.652549 11844 net.cpp:141] Setting up inception_4d/pool_proj
I0403 15:19:55.652580 11844 net.cpp:148] Top shape: 24 64 14 14 (301056)
I0403 15:19:55.652595 11844 net.cpp:156] Memory required for data: 1146105120
I0403 15:19:55.652614 11844 layer_factory.hpp:77] Creating layer inception_4d/relu_pool_proj
I0403 15:19:55.652637 11844 net.cpp:91] Creating Layer inception_4d/relu_pool_proj
I0403 15:19:55.652652 11844 net.cpp:425] inception_4d/relu_pool_proj <- inception_4d/pool_proj
I0403 15:19:55.652669 11844 net.cpp:386] inception_4d/relu_pool_proj -> inception_4d/pool_proj (in-place)
I0403 15:19:55.652848 11844 net.cpp:141] Setting up inception_4d/relu_pool_proj
I0403 15:19:55.652874 11844 net.cpp:148] Top shape: 24 64 14 14 (301056)
I0403 15:19:55.652889 11844 net.cpp:156] Memory required for data: 1147309344
I0403 15:19:55.652904 11844 layer_factory.hpp:77] Creating layer inception_4d/output
I0403 15:19:55.652920 11844 net.cpp:91] Creating Layer inception_4d/output
I0403 15:19:55.652935 11844 net.cpp:425] inception_4d/output <- inception_4d/1x1
I0403 15:19:55.652951 11844 net.cpp:425] inception_4d/output <- inception_4d/3x3
I0403 15:19:55.652966 11844 net.cpp:425] inception_4d/output <- inception_4d/5x5
I0403 15:19:55.652981 11844 net.cpp:425] inception_4d/output <- inception_4d/pool_proj
I0403 15:19:55.653000 11844 net.cpp:399] inception_4d/output -> inception_4d/output
I0403 15:19:55.653046 11844 net.cpp:141] Setting up inception_4d/output
I0403 15:19:55.653069 11844 net.cpp:148] Top shape: 24 528 14 14 (2483712)
I0403 15:19:55.653082 11844 net.cpp:156] Memory required for data: 1157244192
I0403 15:19:55.653097 11844 layer_factory.hpp:77] Creating layer inception_4d/output_inception_4d/output_0_split
I0403 15:19:55.653117 11844 net.cpp:91] Creating Layer inception_4d/output_inception_4d/output_0_split
I0403 15:19:55.653133 11844 net.cpp:425] inception_4d/output_inception_4d/output_0_split <- inception_4d/output
I0403 15:19:55.653151 11844 net.cpp:399] inception_4d/output_inception_4d/output_0_split -> inception_4d/output_inception_4d/output_0_split_0
I0403 15:19:55.653172 11844 net.cpp:399] inception_4d/output_inception_4d/output_0_split -> inception_4d/output_inception_4d/output_0_split_1
I0403 15:19:55.653193 11844 net.cpp:399] inception_4d/output_inception_4d/output_0_split -> inception_4d/output_inception_4d/output_0_split_2
I0403 15:19:55.653214 11844 net.cpp:399] inception_4d/output_inception_4d/output_0_split -> inception_4d/output_inception_4d/output_0_split_3
I0403 15:19:55.653234 11844 net.cpp:399] inception_4d/output_inception_4d/output_0_split -> inception_4d/output_inception_4d/output_0_split_4
I0403 15:19:55.653345 11844 net.cpp:141] Setting up inception_4d/output_inception_4d/output_0_split
I0403 15:19:55.653380 11844 net.cpp:148] Top shape: 24 528 14 14 (2483712)
I0403 15:19:55.653398 11844 net.cpp:148] Top shape: 24 528 14 14 (2483712)
I0403 15:19:55.653412 11844 net.cpp:148] Top shape: 24 528 14 14 (2483712)
I0403 15:19:55.653427 11844 net.cpp:148] Top shape: 24 528 14 14 (2483712)
I0403 15:19:55.653441 11844 net.cpp:148] Top shape: 24 528 14 14 (2483712)
I0403 15:19:55.653455 11844 net.cpp:156] Memory required for data: 1206918432
I0403 15:19:55.653470 11844 layer_factory.hpp:77] Creating layer loss2/ave_pool
I0403 15:19:55.653488 11844 net.cpp:91] Creating Layer loss2/ave_pool
I0403 15:19:55.653504 11844 net.cpp:425] loss2/ave_pool <- inception_4d/output_inception_4d/output_0_split_0
I0403 15:19:55.653522 11844 net.cpp:399] loss2/ave_pool -> loss2/ave_pool
I0403 15:19:55.653826 11844 net.cpp:141] Setting up loss2/ave_pool
I0403 15:19:55.653853 11844 net.cpp:148] Top shape: 24 528 4 4 (202752)
I0403 15:19:55.653869 11844 net.cpp:156] Memory required for data: 1207729440
I0403 15:19:55.653884 11844 layer_factory.hpp:77] Creating layer loss2/conv
I0403 15:19:55.653903 11844 net.cpp:91] Creating Layer loss2/conv
I0403 15:19:55.653919 11844 net.cpp:425] loss2/conv <- loss2/ave_pool
I0403 15:19:55.653940 11844 net.cpp:399] loss2/conv -> loss2/conv
I0403 15:19:55.655844 11844 net.cpp:141] Setting up loss2/conv
I0403 15:19:55.655874 11844 net.cpp:148] Top shape: 24 128 4 4 (49152)
I0403 15:19:55.655890 11844 net.cpp:156] Memory required for data: 1207926048
I0403 15:19:55.655910 11844 layer_factory.hpp:77] Creating layer loss2/relu_conv
I0403 15:19:55.655928 11844 net.cpp:91] Creating Layer loss2/relu_conv
I0403 15:19:55.655946 11844 net.cpp:425] loss2/relu_conv <- loss2/conv
I0403 15:19:55.655967 11844 net.cpp:386] loss2/relu_conv -> loss2/conv (in-place)
I0403 15:19:55.656256 11844 net.cpp:141] Setting up loss2/relu_conv
I0403 15:19:55.656285 11844 net.cpp:148] Top shape: 24 128 4 4 (49152)
I0403 15:19:55.656301 11844 net.cpp:156] Memory required for data: 1208122656
I0403 15:19:55.656319 11844 layer_factory.hpp:77] Creating layer loss2/fc
I0403 15:19:55.656342 11844 net.cpp:91] Creating Layer loss2/fc
I0403 15:19:55.656358 11844 net.cpp:425] loss2/fc <- loss2/conv
I0403 15:19:55.656381 11844 net.cpp:399] loss2/fc -> loss2/fc
I0403 15:19:55.673605 11844 net.cpp:141] Setting up loss2/fc
I0403 15:19:55.673637 11844 net.cpp:148] Top shape: 24 1024 (24576)
I0403 15:19:55.673653 11844 net.cpp:156] Memory required for data: 1208220960
I0403 15:19:55.673671 11844 layer_factory.hpp:77] Creating layer loss2/relu_fc
I0403 15:19:55.673703 11844 net.cpp:91] Creating Layer loss2/relu_fc
I0403 15:19:55.673720 11844 net.cpp:425] loss2/relu_fc <- loss2/fc
I0403 15:19:55.673738 11844 net.cpp:386] loss2/relu_fc -> loss2/fc (in-place)
I0403 15:19:55.674027 11844 net.cpp:141] Setting up loss2/relu_fc
I0403 15:19:55.674055 11844 net.cpp:148] Top shape: 24 1024 (24576)
I0403 15:19:55.674070 11844 net.cpp:156] Memory required for data: 1208319264
I0403 15:19:55.674085 11844 layer_factory.hpp:77] Creating layer loss2/drop_fc
I0403 15:19:55.674103 11844 net.cpp:91] Creating Layer loss2/drop_fc
I0403 15:19:55.674118 11844 net.cpp:425] loss2/drop_fc <- loss2/fc
I0403 15:19:55.674134 11844 net.cpp:386] loss2/drop_fc -> loss2/fc (in-place)
I0403 15:19:55.674185 11844 net.cpp:141] Setting up loss2/drop_fc
I0403 15:19:55.674206 11844 net.cpp:148] Top shape: 24 1024 (24576)
I0403 15:19:55.674221 11844 net.cpp:156] Memory required for data: 1208417568
I0403 15:19:55.674235 11844 layer_factory.hpp:77] Creating layer loss2/classifier_plantvillage
I0403 15:19:55.674255 11844 net.cpp:91] Creating Layer loss2/classifier_plantvillage
I0403 15:19:55.674273 11844 net.cpp:425] loss2/classifier_plantvillage <- loss2/fc
I0403 15:19:55.674290 11844 net.cpp:399] loss2/classifier_plantvillage -> loss2/classifier_plantvillage
I0403 15:19:55.674720 11844 net.cpp:141] Setting up loss2/classifier_plantvillage
I0403 15:19:55.674743 11844 net.cpp:148] Top shape: 24 38 (912)
I0403 15:19:55.674773 11844 net.cpp:156] Memory required for data: 1208421216
I0403 15:19:55.674792 11844 layer_factory.hpp:77] Creating layer loss2/classifier_plantvillage_loss2/classifier_plantvillage_0_split
I0403 15:19:55.674809 11844 net.cpp:91] Creating Layer loss2/classifier_plantvillage_loss2/classifier_plantvillage_0_split
I0403 15:19:55.674824 11844 net.cpp:425] loss2/classifier_plantvillage_loss2/classifier_plantvillage_0_split <- loss2/classifier_plantvillage
I0403 15:19:55.674844 11844 net.cpp:399] loss2/classifier_plantvillage_loss2/classifier_plantvillage_0_split -> loss2/classifier_plantvillage_loss2/classifier_plantvillage_0_split_0
I0403 15:19:55.674865 11844 net.cpp:399] loss2/classifier_plantvillage_loss2/classifier_plantvillage_0_split -> loss2/classifier_plantvillage_loss2/classifier_plantvillage_0_split_1
I0403 15:19:55.674885 11844 net.cpp:399] loss2/classifier_plantvillage_loss2/classifier_plantvillage_0_split -> loss2/classifier_plantvillage_loss2/classifier_plantvillage_0_split_2
I0403 15:19:55.674960 11844 net.cpp:141] Setting up loss2/classifier_plantvillage_loss2/classifier_plantvillage_0_split
I0403 15:19:55.674984 11844 net.cpp:148] Top shape: 24 38 (912)
I0403 15:19:55.675001 11844 net.cpp:148] Top shape: 24 38 (912)
I0403 15:19:55.675016 11844 net.cpp:148] Top shape: 24 38 (912)
I0403 15:19:55.675030 11844 net.cpp:156] Memory required for data: 1208432160
I0403 15:19:55.675045 11844 layer_factory.hpp:77] Creating layer inception_4e/1x1
I0403 15:19:55.675063 11844 net.cpp:91] Creating Layer inception_4e/1x1
I0403 15:19:55.675079 11844 net.cpp:425] inception_4e/1x1 <- inception_4d/output_inception_4d/output_0_split_1
I0403 15:19:55.675098 11844 net.cpp:399] inception_4e/1x1 -> inception_4e/1x1
I0403 15:19:55.676909 11844 net.cpp:141] Setting up inception_4e/1x1
I0403 15:19:55.676937 11844 net.cpp:148] Top shape: 24 256 14 14 (1204224)
I0403 15:19:55.676954 11844 net.cpp:156] Memory required for data: 1213249056
I0403 15:19:55.676973 11844 layer_factory.hpp:77] Creating layer inception_4e/relu_1x1
I0403 15:19:55.676991 11844 net.cpp:91] Creating Layer inception_4e/relu_1x1
I0403 15:19:55.677008 11844 net.cpp:425] inception_4e/relu_1x1 <- inception_4e/1x1
I0403 15:19:55.677028 11844 net.cpp:386] inception_4e/relu_1x1 -> inception_4e/1x1 (in-place)
I0403 15:19:55.677323 11844 net.cpp:141] Setting up inception_4e/relu_1x1
I0403 15:19:55.677350 11844 net.cpp:148] Top shape: 24 256 14 14 (1204224)
I0403 15:19:55.677364 11844 net.cpp:156] Memory required for data: 1218065952
I0403 15:19:55.677378 11844 layer_factory.hpp:77] Creating layer inception_4e/3x3_reduce
I0403 15:19:55.677399 11844 net.cpp:91] Creating Layer inception_4e/3x3_reduce
I0403 15:19:55.677417 11844 net.cpp:425] inception_4e/3x3_reduce <- inception_4d/output_inception_4d/output_0_split_2
I0403 15:19:55.677438 11844 net.cpp:399] inception_4e/3x3_reduce -> inception_4e/3x3_reduce
I0403 15:19:55.679630 11844 net.cpp:141] Setting up inception_4e/3x3_reduce
I0403 15:19:55.679661 11844 net.cpp:148] Top shape: 24 160 14 14 (752640)
I0403 15:19:55.679679 11844 net.cpp:156] Memory required for data: 1221076512
I0403 15:19:55.679697 11844 layer_factory.hpp:77] Creating layer inception_4e/relu_3x3_reduce
I0403 15:19:55.679716 11844 net.cpp:91] Creating Layer inception_4e/relu_3x3_reduce
I0403 15:19:55.679733 11844 net.cpp:425] inception_4e/relu_3x3_reduce <- inception_4e/3x3_reduce
I0403 15:19:55.679754 11844 net.cpp:386] inception_4e/relu_3x3_reduce -> inception_4e/3x3_reduce (in-place)
I0403 15:19:55.679937 11844 net.cpp:141] Setting up inception_4e/relu_3x3_reduce
I0403 15:19:55.679963 11844 net.cpp:148] Top shape: 24 160 14 14 (752640)
I0403 15:19:55.679977 11844 net.cpp:156] Memory required for data: 1224087072
I0403 15:19:55.679991 11844 layer_factory.hpp:77] Creating layer inception_4e/3x3
I0403 15:19:55.680012 11844 net.cpp:91] Creating Layer inception_4e/3x3
I0403 15:19:55.680029 11844 net.cpp:425] inception_4e/3x3 <- inception_4e/3x3_reduce
I0403 15:19:55.680052 11844 net.cpp:399] inception_4e/3x3 -> inception_4e/3x3
I0403 15:19:55.684958 11844 net.cpp:141] Setting up inception_4e/3x3
I0403 15:19:55.685000 11844 net.cpp:148] Top shape: 24 320 14 14 (1505280)
I0403 15:19:55.685019 11844 net.cpp:156] Memory required for data: 1230108192
I0403 15:19:55.685037 11844 layer_factory.hpp:77] Creating layer inception_4e/relu_3x3
I0403 15:19:55.685058 11844 net.cpp:91] Creating Layer inception_4e/relu_3x3
I0403 15:19:55.685076 11844 net.cpp:425] inception_4e/relu_3x3 <- inception_4e/3x3
I0403 15:19:55.685094 11844 net.cpp:386] inception_4e/relu_3x3 -> inception_4e/3x3 (in-place)
I0403 15:19:55.685392 11844 net.cpp:141] Setting up inception_4e/relu_3x3
I0403 15:19:55.685417 11844 net.cpp:148] Top shape: 24 320 14 14 (1505280)
I0403 15:19:55.685431 11844 net.cpp:156] Memory required for data: 1236129312
I0403 15:19:55.685446 11844 layer_factory.hpp:77] Creating layer inception_4e/5x5_reduce
I0403 15:19:55.685468 11844 net.cpp:91] Creating Layer inception_4e/5x5_reduce
I0403 15:19:55.685490 11844 net.cpp:425] inception_4e/5x5_reduce <- inception_4d/output_inception_4d/output_0_split_3
I0403 15:19:55.685509 11844 net.cpp:399] inception_4e/5x5_reduce -> inception_4e/5x5_reduce
I0403 15:19:55.686573 11844 net.cpp:141] Setting up inception_4e/5x5_reduce
I0403 15:19:55.686604 11844 net.cpp:148] Top shape: 24 32 14 14 (150528)
I0403 15:19:55.686620 11844 net.cpp:156] Memory required for data: 1236731424
I0403 15:19:55.686640 11844 layer_factory.hpp:77] Creating layer inception_4e/relu_5x5_reduce
I0403 15:19:55.686657 11844 net.cpp:91] Creating Layer inception_4e/relu_5x5_reduce
I0403 15:19:55.686686 11844 net.cpp:425] inception_4e/relu_5x5_reduce <- inception_4e/5x5_reduce
I0403 15:19:55.686704 11844 net.cpp:386] inception_4e/relu_5x5_reduce -> inception_4e/5x5_reduce (in-place)
I0403 15:19:55.686996 11844 net.cpp:141] Setting up inception_4e/relu_5x5_reduce
I0403 15:19:55.687021 11844 net.cpp:148] Top shape: 24 32 14 14 (150528)
I0403 15:19:55.687036 11844 net.cpp:156] Memory required for data: 1237333536
I0403 15:19:55.687049 11844 layer_factory.hpp:77] Creating layer inception_4e/5x5
I0403 15:19:55.687086 11844 net.cpp:91] Creating Layer inception_4e/5x5
I0403 15:19:55.687104 11844 net.cpp:425] inception_4e/5x5 <- inception_4e/5x5_reduce
I0403 15:19:55.687122 11844 net.cpp:399] inception_4e/5x5 -> inception_4e/5x5
I0403 15:19:55.688918 11844 net.cpp:141] Setting up inception_4e/5x5
I0403 15:19:55.688948 11844 net.cpp:148] Top shape: 24 128 14 14 (602112)
I0403 15:19:55.688966 11844 net.cpp:156] Memory required for data: 1239741984
I0403 15:19:55.688984 11844 layer_factory.hpp:77] Creating layer inception_4e/relu_5x5
I0403 15:19:55.689002 11844 net.cpp:91] Creating Layer inception_4e/relu_5x5
I0403 15:19:55.689018 11844 net.cpp:425] inception_4e/relu_5x5 <- inception_4e/5x5
I0403 15:19:55.689034 11844 net.cpp:386] inception_4e/relu_5x5 -> inception_4e/5x5 (in-place)
I0403 15:19:55.689227 11844 net.cpp:141] Setting up inception_4e/relu_5x5
I0403 15:19:55.689252 11844 net.cpp:148] Top shape: 24 128 14 14 (602112)
I0403 15:19:55.689266 11844 net.cpp:156] Memory required for data: 1242150432
I0403 15:19:55.689280 11844 layer_factory.hpp:77] Creating layer inception_4e/pool
I0403 15:19:55.689297 11844 net.cpp:91] Creating Layer inception_4e/pool
I0403 15:19:55.689312 11844 net.cpp:425] inception_4e/pool <- inception_4d/output_inception_4d/output_0_split_4
I0403 15:19:55.689339 11844 net.cpp:399] inception_4e/pool -> inception_4e/pool
I0403 15:19:55.689406 11844 net.cpp:141] Setting up inception_4e/pool
I0403 15:19:55.689435 11844 net.cpp:148] Top shape: 24 528 14 14 (2483712)
I0403 15:19:55.689450 11844 net.cpp:156] Memory required for data: 1252085280
I0403 15:19:55.689465 11844 layer_factory.hpp:77] Creating layer inception_4e/pool_proj
I0403 15:19:55.689486 11844 net.cpp:91] Creating Layer inception_4e/pool_proj
I0403 15:19:55.689502 11844 net.cpp:425] inception_4e/pool_proj <- inception_4e/pool
I0403 15:19:55.689519 11844 net.cpp:399] inception_4e/pool_proj -> inception_4e/pool_proj
I0403 15:19:55.690979 11844 net.cpp:141] Setting up inception_4e/pool_proj
I0403 15:19:55.691018 11844 net.cpp:148] Top shape: 24 128 14 14 (602112)
I0403 15:19:55.691035 11844 net.cpp:156] Memory required for data: 1254493728
I0403 15:19:55.691053 11844 layer_factory.hpp:77] Creating layer inception_4e/relu_pool_proj
I0403 15:19:55.691071 11844 net.cpp:91] Creating Layer inception_4e/relu_pool_proj
I0403 15:19:55.691087 11844 net.cpp:425] inception_4e/relu_pool_proj <- inception_4e/pool_proj
I0403 15:19:55.691103 11844 net.cpp:386] inception_4e/relu_pool_proj -> inception_4e/pool_proj (in-place)
I0403 15:19:55.691406 11844 net.cpp:141] Setting up inception_4e/relu_pool_proj
I0403 15:19:55.691436 11844 net.cpp:148] Top shape: 24 128 14 14 (602112)
I0403 15:19:55.691452 11844 net.cpp:156] Memory required for data: 1256902176
I0403 15:19:55.691467 11844 layer_factory.hpp:77] Creating layer inception_4e/output
I0403 15:19:55.691484 11844 net.cpp:91] Creating Layer inception_4e/output
I0403 15:19:55.691499 11844 net.cpp:425] inception_4e/output <- inception_4e/1x1
I0403 15:19:55.691516 11844 net.cpp:425] inception_4e/output <- inception_4e/3x3
I0403 15:19:55.691537 11844 net.cpp:425] inception_4e/output <- inception_4e/5x5
I0403 15:19:55.691555 11844 net.cpp:425] inception_4e/output <- inception_4e/pool_proj
I0403 15:19:55.691572 11844 net.cpp:399] inception_4e/output -> inception_4e/output
I0403 15:19:55.691624 11844 net.cpp:141] Setting up inception_4e/output
I0403 15:19:55.691648 11844 net.cpp:148] Top shape: 24 832 14 14 (3913728)
I0403 15:19:55.691663 11844 net.cpp:156] Memory required for data: 1272557088
I0403 15:19:55.691689 11844 layer_factory.hpp:77] Creating layer pool4/3x3_s2
I0403 15:19:55.691709 11844 net.cpp:91] Creating Layer pool4/3x3_s2
I0403 15:19:55.691725 11844 net.cpp:425] pool4/3x3_s2 <- inception_4e/output
I0403 15:19:55.691742 11844 net.cpp:399] pool4/3x3_s2 -> pool4/3x3_s2
I0403 15:19:55.691819 11844 net.cpp:141] Setting up pool4/3x3_s2
I0403 15:19:55.691843 11844 net.cpp:148] Top shape: 24 832 7 7 (978432)
I0403 15:19:55.691857 11844 net.cpp:156] Memory required for data: 1276470816
I0403 15:19:55.691879 11844 layer_factory.hpp:77] Creating layer pool4/3x3_s2_pool4/3x3_s2_0_split
I0403 15:19:55.691900 11844 net.cpp:91] Creating Layer pool4/3x3_s2_pool4/3x3_s2_0_split
I0403 15:19:55.691917 11844 net.cpp:425] pool4/3x3_s2_pool4/3x3_s2_0_split <- pool4/3x3_s2
I0403 15:19:55.691938 11844 net.cpp:399] pool4/3x3_s2_pool4/3x3_s2_0_split -> pool4/3x3_s2_pool4/3x3_s2_0_split_0
I0403 15:19:55.691967 11844 net.cpp:399] pool4/3x3_s2_pool4/3x3_s2_0_split -> pool4/3x3_s2_pool4/3x3_s2_0_split_1
I0403 15:19:55.691995 11844 net.cpp:399] pool4/3x3_s2_pool4/3x3_s2_0_split -> pool4/3x3_s2_pool4/3x3_s2_0_split_2
I0403 15:19:55.692014 11844 net.cpp:399] pool4/3x3_s2_pool4/3x3_s2_0_split -> pool4/3x3_s2_pool4/3x3_s2_0_split_3
I0403 15:19:55.692140 11844 net.cpp:141] Setting up pool4/3x3_s2_pool4/3x3_s2_0_split
I0403 15:19:55.692165 11844 net.cpp:148] Top shape: 24 832 7 7 (978432)
I0403 15:19:55.692181 11844 net.cpp:148] Top shape: 24 832 7 7 (978432)
I0403 15:19:55.692198 11844 net.cpp:148] Top shape: 24 832 7 7 (978432)
I0403 15:19:55.692214 11844 net.cpp:148] Top shape: 24 832 7 7 (978432)
I0403 15:19:55.692227 11844 net.cpp:156] Memory required for data: 1292125728
I0403 15:19:55.692242 11844 layer_factory.hpp:77] Creating layer inception_5a/1x1
I0403 15:19:55.692265 11844 net.cpp:91] Creating Layer inception_5a/1x1
I0403 15:19:55.692296 11844 net.cpp:425] inception_5a/1x1 <- pool4/3x3_s2_pool4/3x3_s2_0_split_0
I0403 15:19:55.692315 11844 net.cpp:399] inception_5a/1x1 -> inception_5a/1x1
I0403 15:19:55.695194 11844 net.cpp:141] Setting up inception_5a/1x1
I0403 15:19:55.695228 11844 net.cpp:148] Top shape: 24 256 7 7 (301056)
I0403 15:19:55.695247 11844 net.cpp:156] Memory required for data: 1293329952
I0403 15:19:55.695267 11844 layer_factory.hpp:77] Creating layer inception_5a/relu_1x1
I0403 15:19:55.695286 11844 net.cpp:91] Creating Layer inception_5a/relu_1x1
I0403 15:19:55.695302 11844 net.cpp:425] inception_5a/relu_1x1 <- inception_5a/1x1
I0403 15:19:55.695329 11844 net.cpp:386] inception_5a/relu_1x1 -> inception_5a/1x1 (in-place)
I0403 15:19:55.695641 11844 net.cpp:141] Setting up inception_5a/relu_1x1
I0403 15:19:55.695670 11844 net.cpp:148] Top shape: 24 256 7 7 (301056)
I0403 15:19:55.695686 11844 net.cpp:156] Memory required for data: 1294534176
I0403 15:19:55.695700 11844 layer_factory.hpp:77] Creating layer inception_5a/3x3_reduce
I0403 15:19:55.695724 11844 net.cpp:91] Creating Layer inception_5a/3x3_reduce
I0403 15:19:55.695741 11844 net.cpp:425] inception_5a/3x3_reduce <- pool4/3x3_s2_pool4/3x3_s2_0_split_1
I0403 15:19:55.695760 11844 net.cpp:399] inception_5a/3x3_reduce -> inception_5a/3x3_reduce
I0403 15:19:55.698264 11844 net.cpp:141] Setting up inception_5a/3x3_reduce
I0403 15:19:55.698295 11844 net.cpp:148] Top shape: 24 160 7 7 (188160)
I0403 15:19:55.698312 11844 net.cpp:156] Memory required for data: 1295286816
I0403 15:19:55.698340 11844 layer_factory.hpp:77] Creating layer inception_5a/relu_3x3_reduce
I0403 15:19:55.698361 11844 net.cpp:91] Creating Layer inception_5a/relu_3x3_reduce
I0403 15:19:55.698379 11844 net.cpp:425] inception_5a/relu_3x3_reduce <- inception_5a/3x3_reduce
I0403 15:19:55.698396 11844 net.cpp:386] inception_5a/relu_3x3_reduce -> inception_5a/3x3_reduce (in-place)
I0403 15:19:55.698590 11844 net.cpp:141] Setting up inception_5a/relu_3x3_reduce
I0403 15:19:55.698616 11844 net.cpp:148] Top shape: 24 160 7 7 (188160)
I0403 15:19:55.698632 11844 net.cpp:156] Memory required for data: 1296039456
I0403 15:19:55.698647 11844 layer_factory.hpp:77] Creating layer inception_5a/3x3
I0403 15:19:55.698669 11844 net.cpp:91] Creating Layer inception_5a/3x3
I0403 15:19:55.698688 11844 net.cpp:425] inception_5a/3x3 <- inception_5a/3x3_reduce
I0403 15:19:55.698706 11844 net.cpp:399] inception_5a/3x3 -> inception_5a/3x3
I0403 15:19:55.703820 11844 net.cpp:141] Setting up inception_5a/3x3
I0403 15:19:55.703853 11844 net.cpp:148] Top shape: 24 320 7 7 (376320)
I0403 15:19:55.703872 11844 net.cpp:156] Memory required for data: 1297544736
I0403 15:19:55.703891 11844 layer_factory.hpp:77] Creating layer inception_5a/relu_3x3
I0403 15:19:55.703910 11844 net.cpp:91] Creating Layer inception_5a/relu_3x3
I0403 15:19:55.703928 11844 net.cpp:425] inception_5a/relu_3x3 <- inception_5a/3x3
I0403 15:19:55.703948 11844 net.cpp:386] inception_5a/relu_3x3 -> inception_5a/3x3 (in-place)
I0403 15:19:55.704247 11844 net.cpp:141] Setting up inception_5a/relu_3x3
I0403 15:19:55.704277 11844 net.cpp:148] Top shape: 24 320 7 7 (376320)
I0403 15:19:55.704293 11844 net.cpp:156] Memory required for data: 1299050016
I0403 15:19:55.704309 11844 layer_factory.hpp:77] Creating layer inception_5a/5x5_reduce
I0403 15:19:55.704339 11844 net.cpp:91] Creating Layer inception_5a/5x5_reduce
I0403 15:19:55.704357 11844 net.cpp:425] inception_5a/5x5_reduce <- pool4/3x3_s2_pool4/3x3_s2_0_split_2
I0403 15:19:55.704378 11844 net.cpp:399] inception_5a/5x5_reduce -> inception_5a/5x5_reduce
I0403 15:19:55.705584 11844 net.cpp:141] Setting up inception_5a/5x5_reduce
I0403 15:19:55.705631 11844 net.cpp:148] Top shape: 24 32 7 7 (37632)
I0403 15:19:55.705662 11844 net.cpp:156] Memory required for data: 1299200544
I0403 15:19:55.705682 11844 layer_factory.hpp:77] Creating layer inception_5a/relu_5x5_reduce
I0403 15:19:55.705701 11844 net.cpp:91] Creating Layer inception_5a/relu_5x5_reduce
I0403 15:19:55.705718 11844 net.cpp:425] inception_5a/relu_5x5_reduce <- inception_5a/5x5_reduce
I0403 15:19:55.705739 11844 net.cpp:386] inception_5a/relu_5x5_reduce -> inception_5a/5x5_reduce (in-place)
I0403 15:19:55.706073 11844 net.cpp:141] Setting up inception_5a/relu_5x5_reduce
I0403 15:19:55.706099 11844 net.cpp:148] Top shape: 24 32 7 7 (37632)
I0403 15:19:55.706115 11844 net.cpp:156] Memory required for data: 1299351072
I0403 15:19:55.706130 11844 layer_factory.hpp:77] Creating layer inception_5a/5x5
I0403 15:19:55.706152 11844 net.cpp:91] Creating Layer inception_5a/5x5
I0403 15:19:55.706171 11844 net.cpp:425] inception_5a/5x5 <- inception_5a/5x5_reduce
I0403 15:19:55.706192 11844 net.cpp:399] inception_5a/5x5 -> inception_5a/5x5
I0403 15:19:55.707952 11844 net.cpp:141] Setting up inception_5a/5x5
I0403 15:19:55.707995 11844 net.cpp:148] Top shape: 24 128 7 7 (150528)
I0403 15:19:55.708014 11844 net.cpp:156] Memory required for data: 1299953184
I0403 15:19:55.708034 11844 layer_factory.hpp:77] Creating layer inception_5a/relu_5x5
I0403 15:19:55.708051 11844 net.cpp:91] Creating Layer inception_5a/relu_5x5
I0403 15:19:55.708068 11844 net.cpp:425] inception_5a/relu_5x5 <- inception_5a/5x5
I0403 15:19:55.708086 11844 net.cpp:386] inception_5a/relu_5x5 -> inception_5a/5x5 (in-place)
I0403 15:19:55.708283 11844 net.cpp:141] Setting up inception_5a/relu_5x5
I0403 15:19:55.708309 11844 net.cpp:148] Top shape: 24 128 7 7 (150528)
I0403 15:19:55.708333 11844 net.cpp:156] Memory required for data: 1300555296
I0403 15:19:55.708348 11844 layer_factory.hpp:77] Creating layer inception_5a/pool
I0403 15:19:55.708366 11844 net.cpp:91] Creating Layer inception_5a/pool
I0403 15:19:55.708384 11844 net.cpp:425] inception_5a/pool <- pool4/3x3_s2_pool4/3x3_s2_0_split_3
I0403 15:19:55.708418 11844 net.cpp:399] inception_5a/pool -> inception_5a/pool
I0403 15:19:55.708492 11844 net.cpp:141] Setting up inception_5a/pool
I0403 15:19:55.708519 11844 net.cpp:148] Top shape: 24 832 7 7 (978432)
I0403 15:19:55.708536 11844 net.cpp:156] Memory required for data: 1304469024
I0403 15:19:55.708551 11844 layer_factory.hpp:77] Creating layer inception_5a/pool_proj
I0403 15:19:55.708575 11844 net.cpp:91] Creating Layer inception_5a/pool_proj
I0403 15:19:55.708593 11844 net.cpp:425] inception_5a/pool_proj <- inception_5a/pool
I0403 15:19:55.708614 11844 net.cpp:399] inception_5a/pool_proj -> inception_5a/pool_proj
I0403 15:19:55.710924 11844 net.cpp:141] Setting up inception_5a/pool_proj
I0403 15:19:55.710954 11844 net.cpp:148] Top shape: 24 128 7 7 (150528)
I0403 15:19:55.710971 11844 net.cpp:156] Memory required for data: 1305071136
I0403 15:19:55.710989 11844 layer_factory.hpp:77] Creating layer inception_5a/relu_pool_proj
I0403 15:19:55.711010 11844 net.cpp:91] Creating Layer inception_5a/relu_pool_proj
I0403 15:19:55.711030 11844 net.cpp:425] inception_5a/relu_pool_proj <- inception_5a/pool_proj
I0403 15:19:55.711047 11844 net.cpp:386] inception_5a/relu_pool_proj -> inception_5a/pool_proj (in-place)
I0403 15:19:55.711361 11844 net.cpp:141] Setting up inception_5a/relu_pool_proj
I0403 15:19:55.711387 11844 net.cpp:148] Top shape: 24 128 7 7 (150528)
I0403 15:19:55.711402 11844 net.cpp:156] Memory required for data: 1305673248
I0403 15:19:55.711416 11844 layer_factory.hpp:77] Creating layer inception_5a/output
I0403 15:19:55.711436 11844 net.cpp:91] Creating Layer inception_5a/output
I0403 15:19:55.711454 11844 net.cpp:425] inception_5a/output <- inception_5a/1x1
I0403 15:19:55.711472 11844 net.cpp:425] inception_5a/output <- inception_5a/3x3
I0403 15:19:55.711488 11844 net.cpp:425] inception_5a/output <- inception_5a/5x5
I0403 15:19:55.711503 11844 net.cpp:425] inception_5a/output <- inception_5a/pool_proj
I0403 15:19:55.711520 11844 net.cpp:399] inception_5a/output -> inception_5a/output
I0403 15:19:55.711573 11844 net.cpp:141] Setting up inception_5a/output
I0403 15:19:55.711597 11844 net.cpp:148] Top shape: 24 832 7 7 (978432)
I0403 15:19:55.711611 11844 net.cpp:156] Memory required for data: 1309586976
I0403 15:19:55.711627 11844 layer_factory.hpp:77] Creating layer inception_5a/output_inception_5a/output_0_split
I0403 15:19:55.711649 11844 net.cpp:91] Creating Layer inception_5a/output_inception_5a/output_0_split
I0403 15:19:55.711664 11844 net.cpp:425] inception_5a/output_inception_5a/output_0_split <- inception_5a/output
I0403 15:19:55.711684 11844 net.cpp:399] inception_5a/output_inception_5a/output_0_split -> inception_5a/output_inception_5a/output_0_split_0
I0403 15:19:55.711704 11844 net.cpp:399] inception_5a/output_inception_5a/output_0_split -> inception_5a/output_inception_5a/output_0_split_1
I0403 15:19:55.711724 11844 net.cpp:399] inception_5a/output_inception_5a/output_0_split -> inception_5a/output_inception_5a/output_0_split_2
I0403 15:19:55.711745 11844 net.cpp:399] inception_5a/output_inception_5a/output_0_split -> inception_5a/output_inception_5a/output_0_split_3
I0403 15:19:55.711858 11844 net.cpp:141] Setting up inception_5a/output_inception_5a/output_0_split
I0403 15:19:55.711886 11844 net.cpp:148] Top shape: 24 832 7 7 (978432)
I0403 15:19:55.711905 11844 net.cpp:148] Top shape: 24 832 7 7 (978432)
I0403 15:19:55.711921 11844 net.cpp:148] Top shape: 24 832 7 7 (978432)
I0403 15:19:55.711937 11844 net.cpp:148] Top shape: 24 832 7 7 (978432)
I0403 15:19:55.711951 11844 net.cpp:156] Memory required for data: 1325241888
I0403 15:19:55.711966 11844 layer_factory.hpp:77] Creating layer inception_5b/1x1
I0403 15:19:55.711987 11844 net.cpp:91] Creating Layer inception_5b/1x1
I0403 15:19:55.712005 11844 net.cpp:425] inception_5b/1x1 <- inception_5a/output_inception_5a/output_0_split_0
I0403 15:19:55.712026 11844 net.cpp:399] inception_5b/1x1 -> inception_5b/1x1
I0403 15:19:55.715840 11844 net.cpp:141] Setting up inception_5b/1x1
I0403 15:19:55.715872 11844 net.cpp:148] Top shape: 24 384 7 7 (451584)
I0403 15:19:55.715888 11844 net.cpp:156] Memory required for data: 1327048224
I0403 15:19:55.715908 11844 layer_factory.hpp:77] Creating layer inception_5b/relu_1x1
I0403 15:19:55.715929 11844 net.cpp:91] Creating Layer inception_5b/relu_1x1
I0403 15:19:55.715948 11844 net.cpp:425] inception_5b/relu_1x1 <- inception_5b/1x1
I0403 15:19:55.715967 11844 net.cpp:386] inception_5b/relu_1x1 -> inception_5b/1x1 (in-place)
I0403 15:19:55.716279 11844 net.cpp:141] Setting up inception_5b/relu_1x1
I0403 15:19:55.716307 11844 net.cpp:148] Top shape: 24 384 7 7 (451584)
I0403 15:19:55.716331 11844 net.cpp:156] Memory required for data: 1328854560
I0403 15:19:55.716347 11844 layer_factory.hpp:77] Creating layer inception_5b/3x3_reduce
I0403 15:19:55.716372 11844 net.cpp:91] Creating Layer inception_5b/3x3_reduce
I0403 15:19:55.716392 11844 net.cpp:425] inception_5b/3x3_reduce <- inception_5a/output_inception_5a/output_0_split_1
I0403 15:19:55.716413 11844 net.cpp:399] inception_5b/3x3_reduce -> inception_5b/3x3_reduce
I0403 15:19:55.719121 11844 net.cpp:141] Setting up inception_5b/3x3_reduce
I0403 15:19:55.719151 11844 net.cpp:148] Top shape: 24 192 7 7 (225792)
I0403 15:19:55.719168 11844 net.cpp:156] Memory required for data: 1329757728
I0403 15:19:55.719187 11844 layer_factory.hpp:77] Creating layer inception_5b/relu_3x3_reduce
I0403 15:19:55.719208 11844 net.cpp:91] Creating Layer inception_5b/relu_3x3_reduce
I0403 15:19:55.719226 11844 net.cpp:425] inception_5b/relu_3x3_reduce <- inception_5b/3x3_reduce
I0403 15:19:55.719245 11844 net.cpp:386] inception_5b/relu_3x3_reduce -> inception_5b/3x3_reduce (in-place)
I0403 15:19:55.719447 11844 net.cpp:141] Setting up inception_5b/relu_3x3_reduce
I0403 15:19:55.719475 11844 net.cpp:148] Top shape: 24 192 7 7 (225792)
I0403 15:19:55.719491 11844 net.cpp:156] Memory required for data: 1330660896
I0403 15:19:55.719506 11844 layer_factory.hpp:77] Creating layer inception_5b/3x3
I0403 15:19:55.719528 11844 net.cpp:91] Creating Layer inception_5b/3x3
I0403 15:19:55.719547 11844 net.cpp:425] inception_5b/3x3 <- inception_5b/3x3_reduce
I0403 15:19:55.719571 11844 net.cpp:399] inception_5b/3x3 -> inception_5b/3x3
I0403 15:19:55.726399 11844 net.cpp:141] Setting up inception_5b/3x3
I0403 15:19:55.726430 11844 net.cpp:148] Top shape: 24 384 7 7 (451584)
I0403 15:19:55.726449 11844 net.cpp:156] Memory required for data: 1332467232
I0403 15:19:55.726469 11844 layer_factory.hpp:77] Creating layer inception_5b/relu_3x3
I0403 15:19:55.726490 11844 net.cpp:91] Creating Layer inception_5b/relu_3x3
I0403 15:19:55.726508 11844 net.cpp:425] inception_5b/relu_3x3 <- inception_5b/3x3
I0403 15:19:55.726528 11844 net.cpp:386] inception_5b/relu_3x3 -> inception_5b/3x3 (in-place)
I0403 15:19:55.726851 11844 net.cpp:141] Setting up inception_5b/relu_3x3
I0403 15:19:55.726879 11844 net.cpp:148] Top shape: 24 384 7 7 (451584)
I0403 15:19:55.726896 11844 net.cpp:156] Memory required for data: 1334273568
I0403 15:19:55.726910 11844 layer_factory.hpp:77] Creating layer inception_5b/5x5_reduce
I0403 15:19:55.726953 11844 net.cpp:91] Creating Layer inception_5b/5x5_reduce
I0403 15:19:55.726974 11844 net.cpp:425] inception_5b/5x5_reduce <- inception_5a/output_inception_5a/output_0_split_2
I0403 15:19:55.726994 11844 net.cpp:399] inception_5b/5x5_reduce -> inception_5b/5x5_reduce
I0403 15:19:55.728286 11844 net.cpp:141] Setting up inception_5b/5x5_reduce
I0403 15:19:55.728323 11844 net.cpp:148] Top shape: 24 48 7 7 (56448)
I0403 15:19:55.728343 11844 net.cpp:156] Memory required for data: 1334499360
I0403 15:19:55.728363 11844 layer_factory.hpp:77] Creating layer inception_5b/relu_5x5_reduce
I0403 15:19:55.728381 11844 net.cpp:91] Creating Layer inception_5b/relu_5x5_reduce
I0403 15:19:55.728411 11844 net.cpp:425] inception_5b/relu_5x5_reduce <- inception_5b/5x5_reduce
I0403 15:19:55.728430 11844 net.cpp:386] inception_5b/relu_5x5_reduce -> inception_5b/5x5_reduce (in-place)
I0403 15:19:55.728826 11844 net.cpp:141] Setting up inception_5b/relu_5x5_reduce
I0403 15:19:55.728854 11844 net.cpp:148] Top shape: 24 48 7 7 (56448)
I0403 15:19:55.728870 11844 net.cpp:156] Memory required for data: 1334725152
I0403 15:19:55.728886 11844 layer_factory.hpp:77] Creating layer inception_5b/5x5
I0403 15:19:55.728906 11844 net.cpp:91] Creating Layer inception_5b/5x5
I0403 15:19:55.728924 11844 net.cpp:425] inception_5b/5x5 <- inception_5b/5x5_reduce
I0403 15:19:55.728943 11844 net.cpp:399] inception_5b/5x5 -> inception_5b/5x5
I0403 15:19:55.731097 11844 net.cpp:141] Setting up inception_5b/5x5
I0403 15:19:55.731128 11844 net.cpp:148] Top shape: 24 128 7 7 (150528)
I0403 15:19:55.731145 11844 net.cpp:156] Memory required for data: 1335327264
I0403 15:19:55.731164 11844 layer_factory.hpp:77] Creating layer inception_5b/relu_5x5
I0403 15:19:55.731183 11844 net.cpp:91] Creating Layer inception_5b/relu_5x5
I0403 15:19:55.731199 11844 net.cpp:425] inception_5b/relu_5x5 <- inception_5b/5x5
I0403 15:19:55.731217 11844 net.cpp:386] inception_5b/relu_5x5 -> inception_5b/5x5 (in-place)
I0403 15:19:55.731411 11844 net.cpp:141] Setting up inception_5b/relu_5x5
I0403 15:19:55.731436 11844 net.cpp:148] Top shape: 24 128 7 7 (150528)
I0403 15:19:55.731451 11844 net.cpp:156] Memory required for data: 1335929376
I0403 15:19:55.731464 11844 layer_factory.hpp:77] Creating layer inception_5b/pool
I0403 15:19:55.731482 11844 net.cpp:91] Creating Layer inception_5b/pool
I0403 15:19:55.731498 11844 net.cpp:425] inception_5b/pool <- inception_5a/output_inception_5a/output_0_split_3
I0403 15:19:55.731519 11844 net.cpp:399] inception_5b/pool -> inception_5b/pool
I0403 15:19:55.731591 11844 net.cpp:141] Setting up inception_5b/pool
I0403 15:19:55.731616 11844 net.cpp:148] Top shape: 24 832 7 7 (978432)
I0403 15:19:55.731629 11844 net.cpp:156] Memory required for data: 1339843104
I0403 15:19:55.731643 11844 layer_factory.hpp:77] Creating layer inception_5b/pool_proj
I0403 15:19:55.731665 11844 net.cpp:91] Creating Layer inception_5b/pool_proj
I0403 15:19:55.731683 11844 net.cpp:425] inception_5b/pool_proj <- inception_5b/pool
I0403 15:19:55.731701 11844 net.cpp:399] inception_5b/pool_proj -> inception_5b/pool_proj
I0403 15:19:55.733995 11844 net.cpp:141] Setting up inception_5b/pool_proj
I0403 15:19:55.734027 11844 net.cpp:148] Top shape: 24 128 7 7 (150528)
I0403 15:19:55.734046 11844 net.cpp:156] Memory required for data: 1340445216
I0403 15:19:55.734064 11844 layer_factory.hpp:77] Creating layer inception_5b/relu_pool_proj
I0403 15:19:55.734081 11844 net.cpp:91] Creating Layer inception_5b/relu_pool_proj
I0403 15:19:55.734098 11844 net.cpp:425] inception_5b/relu_pool_proj <- inception_5b/pool_proj
I0403 15:19:55.734117 11844 net.cpp:386] inception_5b/relu_pool_proj -> inception_5b/pool_proj (in-place)
I0403 15:19:55.734428 11844 net.cpp:141] Setting up inception_5b/relu_pool_proj
I0403 15:19:55.734458 11844 net.cpp:148] Top shape: 24 128 7 7 (150528)
I0403 15:19:55.734475 11844 net.cpp:156] Memory required for data: 1341047328
I0403 15:19:55.734490 11844 layer_factory.hpp:77] Creating layer inception_5b/output
I0403 15:19:55.734508 11844 net.cpp:91] Creating Layer inception_5b/output
I0403 15:19:55.734537 11844 net.cpp:425] inception_5b/output <- inception_5b/1x1
I0403 15:19:55.734555 11844 net.cpp:425] inception_5b/output <- inception_5b/3x3
I0403 15:19:55.734572 11844 net.cpp:425] inception_5b/output <- inception_5b/5x5
I0403 15:19:55.734588 11844 net.cpp:425] inception_5b/output <- inception_5b/pool_proj
I0403 15:19:55.734606 11844 net.cpp:399] inception_5b/output -> inception_5b/output
I0403 15:19:55.734658 11844 net.cpp:141] Setting up inception_5b/output
I0403 15:19:55.734694 11844 net.cpp:148] Top shape: 24 1024 7 7 (1204224)
I0403 15:19:55.734709 11844 net.cpp:156] Memory required for data: 1345864224
I0403 15:19:55.734722 11844 layer_factory.hpp:77] Creating layer pool5/7x7_s1
I0403 15:19:55.734741 11844 net.cpp:91] Creating Layer pool5/7x7_s1
I0403 15:19:55.734757 11844 net.cpp:425] pool5/7x7_s1 <- inception_5b/output
I0403 15:19:55.734776 11844 net.cpp:399] pool5/7x7_s1 -> pool5/7x7_s1
I0403 15:19:55.734988 11844 net.cpp:141] Setting up pool5/7x7_s1
I0403 15:19:55.735015 11844 net.cpp:148] Top shape: 24 1024 1 1 (24576)
I0403 15:19:55.735031 11844 net.cpp:156] Memory required for data: 1345962528
I0403 15:19:55.735045 11844 layer_factory.hpp:77] Creating layer pool5/drop_7x7_s1
I0403 15:19:55.735062 11844 net.cpp:91] Creating Layer pool5/drop_7x7_s1
I0403 15:19:55.735077 11844 net.cpp:425] pool5/drop_7x7_s1 <- pool5/7x7_s1
I0403 15:19:55.735095 11844 net.cpp:386] pool5/drop_7x7_s1 -> pool5/7x7_s1 (in-place)
I0403 15:19:55.735143 11844 net.cpp:141] Setting up pool5/drop_7x7_s1
I0403 15:19:55.735167 11844 net.cpp:148] Top shape: 24 1024 1 1 (24576)
I0403 15:19:55.735180 11844 net.cpp:156] Memory required for data: 1346060832
I0403 15:19:55.735194 11844 layer_factory.hpp:77] Creating layer loss3/classifier_plantvillage
I0403 15:19:55.735214 11844 net.cpp:91] Creating Layer loss3/classifier_plantvillage
I0403 15:19:55.735230 11844 net.cpp:425] loss3/classifier_plantvillage <- pool5/7x7_s1
I0403 15:19:55.735249 11844 net.cpp:399] loss3/classifier_plantvillage -> loss3/classifier_plantvillage
I0403 15:19:55.735674 11844 net.cpp:141] Setting up loss3/classifier_plantvillage
I0403 15:19:55.735698 11844 net.cpp:148] Top shape: 24 38 (912)
I0403 15:19:55.735713 11844 net.cpp:156] Memory required for data: 1346064480
I0403 15:19:55.735729 11844 layer_factory.hpp:77] Creating layer loss3/classifier_plantvillage_loss3/classifier_plantvillage_0_split
I0403 15:19:55.735748 11844 net.cpp:91] Creating Layer loss3/classifier_plantvillage_loss3/classifier_plantvillage_0_split
I0403 15:19:55.735762 11844 net.cpp:425] loss3/classifier_plantvillage_loss3/classifier_plantvillage_0_split <- loss3/classifier_plantvillage
I0403 15:19:55.735782 11844 net.cpp:399] loss3/classifier_plantvillage_loss3/classifier_plantvillage_0_split -> loss3/classifier_plantvillage_loss3/classifier_plantvillage_0_split_0
I0403 15:19:55.735803 11844 net.cpp:399] loss3/classifier_plantvillage_loss3/classifier_plantvillage_0_split -> loss3/classifier_plantvillage_loss3/classifier_plantvillage_0_split_1
I0403 15:19:55.735823 11844 net.cpp:399] loss3/classifier_plantvillage_loss3/classifier_plantvillage_0_split -> loss3/classifier_plantvillage_loss3/classifier_plantvillage_0_split_2
I0403 15:19:55.735842 11844 net.cpp:399] loss3/classifier_plantvillage_loss3/classifier_plantvillage_0_split -> loss3/classifier_plantvillage_loss3/classifier_plantvillage_0_split_3
I0403 15:19:55.735946 11844 net.cpp:141] Setting up loss3/classifier_plantvillage_loss3/classifier_plantvillage_0_split
I0403 15:19:55.735970 11844 net.cpp:148] Top shape: 24 38 (912)
I0403 15:19:55.735985 11844 net.cpp:148] Top shape: 24 38 (912)
I0403 15:19:55.736001 11844 net.cpp:148] Top shape: 24 38 (912)
I0403 15:19:55.736016 11844 net.cpp:148] Top shape: 24 38 (912)
I0403 15:19:55.736028 11844 net.cpp:156] Memory required for data: 1346079072
I0403 15:19:55.736042 11844 layer_factory.hpp:77] Creating layer loss1/loss
I0403 15:19:55.736063 11844 net.cpp:91] Creating Layer loss1/loss
I0403 15:19:55.736080 11844 net.cpp:425] loss1/loss <- loss1/classifier_plantvillage_loss1/classifier_plantvillage_0_split_0
I0403 15:19:55.736110 11844 net.cpp:425] loss1/loss <- label_data_1_split_0
…
