…
I0403 15:09:43.505308 11662 net.cpp:313] The NetState phase (1) differed from the phase (0) specified by a rule in layer data
I0403 15:09:43.506496 11662 net.cpp:49] Initializing net from parameters: 
state {
  phase: TEST
}
layer {
  name: "data"
  type: "Data"
  top: "data"
  top: "label"
  include {
    phase: TEST
  }
  transform_param {
    mirror: false
    crop_size: 224
    mean_file: "/home/mohanty/data/final_dataset/lmdb/segmented-40-60/mean.binaryproto"
  }
  data_param {
    source: "/home/mohanty/data/final_dataset/lmdb/segmented-40-60/test_db"
    batch_size: 24
    backend: LMDB
  }
}
layer {
  name: "conv1/7x7_s2"
  type: "Convolution"
  bottom: "data"
  top: "conv1/7x7_s2"
  param {
    lr_mult: 1
    decay_mult: 1
  }
  param {
    lr_mult: 2
    decay_mult: 0
  }
  convolution_param {
    num_output: 64
    pad: 3
    kernel_size: 7
    stride: 2
    weight_filler {
      type: "xavier"
      std: 0.1
    }
    bias_filler {
      type: "constant"
      value: 0.2
    }
  }
}
layer {
  name: "conv1/relu_7x7"
  type: "ReLU"
  bottom: "conv1/7x7_s2"
  top: "conv1/7x7_s2"
}
layer {
  name: "pool1/3x3_s2"
  type: "Pooling"
  bottom: "conv1/7x7_s2"
  top: "pool1/3x3_s2"
  pooling_param {
    pool: MAX
    kernel_size: 3
    stride: 2
  }
}
layer {
  name: "pool1/norm1"
  type: "LRN"
  bottom: "pool1/3x3_s2"
  top: "pool1/norm1"
  lrn_param {
    local_size: 5
    alpha: 0.0001
    beta: 0.75
  }
}
layer {
  name: "conv2/3x3_reduce"
  type: "Convolution"
  bottom: "pool1/norm1"
  top: "conv2/3x3_reduce"
  param {
    lr_mult: 1
    decay_mult: 1
  }
  param {
    lr_mult: 2
    decay_mult: 0
  }
  convolution_param {
    num_output: 64
    kernel_size: 1
    weight_filler {
      type: "xavier"
      std: 0.1
    }
    bias_filler {
      type: "constant"
      value: 0.2
    }
  }
}
layer {
  name: "conv2/relu_3x3_reduce"
  type: "ReLU"
  bottom: "conv2/3x3_reduce"
  top: "conv2/3x3_reduce"
}
layer {
  name: "conv2/3x3"
  type: "Convolution"
  bottom: "conv2/3x3_reduce"
  top: "conv2/3x3"
  param {
    lr_mult: 1
    decay_mult: 1
  }
  param {
    lr_mult: 2
    decay_mult: 0
  }
  convolution_param {
    num_output: 192
    pad: 1
    kernel_size: 3
    weight_filler {
      type: "xavier"
      std: 0.03
    }
    bias_filler {
      type: "constant"
      value: 0.2
    }
  }
}
layer {
  name: "conv2/relu_3x3"
  type: "ReLU"
  bottom: "conv2/3x3"
  top: "conv2/3x3"
}
layer {
  name: "conv2/norm2"
  type: "LRN"
  bottom: "conv2/3x3"
  top: "conv2/norm2"
  lrn_param {
    local_size: 5
    alpha: 0.0001
    beta: 0.75
  }
}
layer {
  name: "pool2/3x3_s2"
  type: "Pooling"
  bottom: "conv2/norm2"
  top: "pool2/3x3_s2"
  pooling_param {
    pool: MAX
    kernel_size: 3
    stride: 2
  }
}
layer {
  name: "inception_3a/1x1"
  type: "Convolution"
  bottom: "pool2/3x3_s2"
  top: "inception_3a/1x1"
  param {
    lr_mult: 1
    decay_mult: 1
  }
  param {
    lr_mult: 2
    decay_mult: 0
  }
  convolution_param {
    num_output: 64
    kernel_size: 1
    weight_filler {
      type: "xavier"
      std: 0.03
    }
    bias_filler {
      type: "constant"
      value: 0.2
    }
  }
}
layer {
  name: "inception_3a/relu_1x1"
  type: "ReLU"
  bottom: "inception_3a/1x1"
  top: "inception_3a/1x1"
}
layer {
  name: "inception_3a/3x3_reduce"
  type: "Convolution"
  bottom: "pool2/3x3_s2"
  top: "inception_3a/3x3_reduce"
  param {
    lr_mult: 1
    decay_mult: 1
  }
  param {
    lr_mult: 2
    decay_mult: 0
  }
  convolution_param {
    num_output: 96
    kernel_size: 1
    weight_filler {
      type: "xavier"
      std: 0.09
    }
    bias_filler {
      type: "constant"
      value: 0.2
    }
  }
}
layer {
  name: "inception_3a/relu_3x3_reduce"
  type: "ReLU"
  bottom: "inception_3a/3x3_reduce"
  top: "inception_3a/3x3_reduce"
}
layer {
  name: "inception_3a/3x3"
  type: "Convolution"
  bottom: "inception_3a/3x3_reduce"
  top: "inception_3a/3x3"
  param {
    lr_mult: 1
    decay_mult: 1
  }
  param {
    lr_mult: 2
    decay_mult: 0
  }
  convolution_param {
    num_output: 128
    pad: 1
    kernel_size: 3
    weight_filler {
      type: "xavier"
      std: 0.03
    }
    bias_filler {
      type: "constant"
      value: 0.2
    }
  }
}
layer {
  name: "inception_3a/relu_3x3"
  type: "ReLU"
  bottom: "inception_3a/3x3"
  top: "inception_3a/3x3"
}
layer {
  name: "inception_3a/5x5_reduce"
  type: "Convolution"
  bottom: "pool2/3x3_s2"
  top: "inception_3a/5x5_reduce"
  param {
    lr_mult: 1
    decay_mult: 1
  }
  param {
    lr_mult: 2
    decay_mult: 0
  }
  convolution_param {
    num_output: 16
    kernel_size: 1
    weight_filler {
      type: "xavier"
      std: 0.2
    }
    bias_filler {
      type: "constant"
      value: 0.2
    }
  }
}
layer {
  name: "inception_3a/relu_5x5_reduce"
  type: "ReLU"
  bottom: "inception_3a/5x5_reduce"
  top: "inception_3a/5x5_reduce"
}
layer {
  name: "inception_3a/5x5"
  type: "Convolution"
  bottom: "inception_3a/5x5_reduce"
  top: "inception_3a/5x5"
  param {
    lr_mult: 1
    decay_mult: 1
  }
  param {
    lr_mult: 2
    decay_mult: 0
  }
  convolution_param {
    num_output: 32
    pad: 2
    kernel_size: 5
    weight_filler {
      type: "xavier"
      std: 0.03
    }
    bias_filler {
      type: "constant"
      value: 0.2
    }
  }
}
layer {
  name: "inception_3a/relu_5x5"
  type: "ReLU"
  bottom: "inception_3a/5x5"
  top: "inception_3a/5x5"
}
layer {
  name: "inception_3a/pool"
  type: "Pooling"
  bottom: "pool2/3x3_s2"
  top: "inception_3a/pool"
  pooling_param {
    pool: MAX
    kernel_size: 3
    stride: 1
    pad: 1
  }
}
layer {
  name: "inception_3a/pool_proj"
  type: "Convolution"
  bottom: "inception_3a/pool"
  top: "inception_3a/pool_proj"
  param {
    lr_mult: 1
    decay_mult: 1
  }
  param {
    lr_mult: 2
    decay_mult: 0
  }
  convolution_param {
    num_output: 32
    kernel_size: 1
    weight_filler {
      type: "xavier"
      std: 0.1
    }
    bias_filler {
      type: "constant"
      value: 0.2
    }
  }
}
layer {
  name: "inception_3a/relu_pool_proj"
  type: "ReLU"
  bottom: "inception_3a/pool_proj"
  top: "inception_3a/pool_proj"
}
layer {
  name: "inception_3a/output"
  type: "Concat"
  bottom: "inception_3a/1x1"
  bottom: "inception_3a/3x3"
  bottom: "inception_3a/5x5"
  bottom: "inception_3a/pool_proj"
  top: "inception_3a/output"
}
layer {
  name: "inception_3b/1x1"
  type: "Convolution"
  bottom: "inception_3a/output"
  top: "inception_3b/1x1"
  param {
    lr_mult: 1
    decay_mult: 1
  }
  param {
    lr_mult: 2
    decay_mult: 0
  }
  convolution_param {
    num_output: 128
    kernel_size: 1
    weight_filler {
      type: "xavier"
      std: 0.03
    }
    bias_filler {
      type: "constant"
      value: 0.2
    }
  }
}
layer {
  name: "inception_3b/relu_1x1"
  type: "ReLU"
  bottom: "inception_3b/1x1"
  top: "inception_3b/1x1"
}
layer {
  name: "inception_3b/3x3_reduce"
  type: "Convolution"
  bottom: "inception_3a/output"
  top: "inception_3b/3x3_reduce"
  param {
    lr_mult: 1
    decay_mult: 1
  }
  param {
    lr_mult: 2
    decay_mult: 0
  }
  convolution_param {
    num_output: 128
    kernel_size: 1
    weight_filler {
      type: "xavier"
      std: 0.09
    }
    bias_filler {
      type: "constant"
      value: 0.2
    }
  }
}
layer {
  name: "inception_3b/relu_3x3_reduce"
  type: "ReLU"
  bottom: "inception_3b/3x3_reduce"
  top: "inception_3b/3x3_reduce"
}
layer {
  name: "inception_3b/3x3"
  type: "Convolution"
  bottom: "inception_3b/3x3_reduce"
  top: "inception_3b/3x3"
  param {
    lr_mult: 1
    decay_mult: 1
  }
  param {
    lr_mult: 2
    decay_mult: 0
  }
  convolution_param {
    num_output: 192
    pad: 1
    kernel_size: 3
    weight_filler {
      type: "xavier"
      std: 0.03
    }
    bias_filler {
      type: "constant"
      value: 0.2
    }
  }
}
layer {
  name: "inception_3b/relu_3x3"
  type: "ReLU"
  bottom: "inception_3b/3x3"
  top: "inception_3b/3x3"
}
layer {
  name: "inception_3b/5x5_reduce"
  type: "Convolution"
  bottom: "inception_3a/output"
  top: "inception_3b/5x5_reduce"
  param {
    lr_mult: 1
    decay_mult: 1
  }
  param {
    lr_mult: 2
    decay_mult: 0
  }
  convolution_param {
    num_output: 32
    kernel_size: 1
    weight_filler {
      type: "xavier"
      std: 0.2
    }
    bias_filler {
      type: "constant"
      value: 0.2
    }
  }
}
layer {
  name: "inception_3b/relu_5x5_reduce"
  type: "ReLU"
  bottom: "inception_3b/5x5_reduce"
  top: "inception_3b/5x5_reduce"
}
layer {
  name: "inception_3b/5x5"
  type: "Convolution"
  bottom: "inception_3b/5x5_reduce"
  top: "inception_3b/5x5"
  param {
    lr_mult: 1
    decay_mult: 1
  }
  param {
    lr_mult: 2
    decay_mult: 0
  }
  convolution_param {
    num_output: 96
    pad: 2
    kernel_size: 5
    weight_filler {
      type: "xavier"
      std: 0.03
    }
    bias_filler {
      type: "constant"
      value: 0.2
    }
  }
}
layer {
  name: "inception_3b/relu_5x5"
  type: "ReLU"
  bottom: "inception_3b/5x5"
  top: "inception_3b/5x5"
}
layer {
  name: "inception_3b/pool"
  type: "Pooling"
  bottom: "inception_3a/output"
  top: "inception_3b/pool"
  pooling_param {
    pool: MAX
    kernel_size: 3
    stride: 1
    pad: 1
  }
}
layer {
  name: "inception_3b/pool_proj"
  type: "Convolution"
  bottom: "inception_3b/pool"
  top: "inception_3b/pool_proj"
  param {
    lr_mult: 1
    decay_mult: 1
  }
  param {
    lr_mult: 2
    decay_mult: 0
  }
  convolution_param {
    num_output: 64
    kernel_size: 1
    weight_filler {
      type: "xavier"
      std: 0.1
    }
    bias_filler {
      type: "constant"
      value: 0.2
    }
  }
}
layer {
  name: "inception_3b/relu_pool_proj"
  type: "ReLU"
  bottom: "inception_3b/pool_proj"
  top: "inception_3b/pool_proj"
}
layer {
  name: "inception_3b/output"
  type: "Concat"
  bottom: "inception_3b/1x1"
  bottom: "inception_3b/3x3"
  bottom: "inception_3b/5x5"
  bottom: "inception_3b/pool_proj"
  top: "inception_3b/output"
}
layer {
  name: "pool3/3x3_s2"
  type: "Pooling"
  bottom: "inception_3b/output"
  top: "pool3/3x3_s2"
  pooling_param {
    pool: MAX
    kernel_size: 3
    stride: 2
  }
}
layer {
  name: "inception_4a/1x1"
  type: "Convolution"
  bottom: "pool3/3x3_s2"
  top: "inception_4a/1x1"
  param {
    lr_mult: 1
    decay_mult: 1
  }
  param {
    lr_mult: 2
    decay_mult: 0
  }
  convolution_param {
    num_output: 192
    kernel_size: 1
    weight_filler {
      type: "xavier"
      std: 0.03
    }
    bias_filler {
      type: "constant"
      value: 0.2
    }
  }
}
layer {
  name: "inception_4a/relu_1x1"
  type: "ReLU"
  bottom: "inception_4a/1x1"
  top: "inception_4a/1x1"
}
layer {
  name: "inception_4a/3x3_reduce"
  type: "Convolution"
  bottom: "pool3/3x3_s2"
  top: "inception_4a/3x3_reduce"
  param {
    lr_mult: 1
    decay_mult: 1
  }
  param {
    lr_mult: 2
    decay_mult: 0
  }
  convolution_param {
    num_output: 96
    kernel_size: 1
    weight_filler {
      type: "xavier"
      std: 0.09
    }
    bias_filler {
      type: "constant"
      value: 0.2
    }
  }
}
layer {
  name: "inception_4a/relu_3x3_reduce"
  type: "ReLU"
  bottom: "inception_4a/3x3_reduce"
  top: "inception_4a/3x3_reduce"
}
layer {
  name: "inception_4a/3x3"
  type: "Convolution"
  bottom: "inception_4a/3x3_reduce"
  top: "inception_4a/3x3"
  param {
    lr_mult: 1
    decay_mult: 1
  }
  param {
    lr_mult: 2
    decay_mult: 0
  }
  convolution_param {
    num_output: 208
    pad: 1
    kernel_size: 3
    weight_filler {
      type: "xavier"
      std: 0.03
    }
    bias_filler {
      type: "constant"
      value: 0.2
    }
  }
}
layer {
  name: "inception_4a/relu_3x3"
  type: "ReLU"
  bottom: "inception_4a/3x3"
  top: "inception_4a/3x3"
}
layer {
  name: "inception_4a/5x5_reduce"
  type: "Convolution"
  bottom: "pool3/3x3_s2"
  top: "inception_4a/5x5_reduce"
  param {
    lr_mult: 1
    decay_mult: 1
  }
  param {
    lr_mult: 2
    decay_mult: 0
  }
  convolution_param {
    num_output: 16
    kernel_size: 1
    weight_filler {
      type: "xavier"
      std: 0.2
    }
    bias_filler {
      type: "constant"
      value: 0.2
    }
  }
}
layer {
  name: "inception_4a/relu_5x5_reduce"
  type: "ReLU"
  bottom: "inception_4a/5x5_reduce"
  top: "inception_4a/5x5_reduce"
}
layer {
  name: "inception_4a/5x5"
  type: "Convolution"
  bottom: "inception_4a/5x5_reduce"
  top: "inception_4a/5x5"
  param {
    lr_mult: 1
    decay_mult: 1
  }
  param {
    lr_mult: 2
    decay_mult: 0
  }
  convolution_param {
    num_output: 48
    pad: 2
    kernel_size: 5
    weight_filler {
      type: "xavier"
      std: 0.03
    }
    bias_filler {
      type: "constant"
      value: 0.2
    }
  }
}
layer {
  name: "inception_4a/relu_5x5"
  type: "ReLU"
  bottom: "inception_4a/5x5"
  top: "inception_4a/5x5"
}
layer {
  name: "inception_4a/pool"
  type: "Pooling"
  bottom: "pool3/3x3_s2"
  top: "inception_4a/pool"
  pooling_param {
    pool: MAX
    kernel_size: 3
    stride: 1
    pad: 1
  }
}
layer {
  name: "inception_4a/pool_proj"
  type: "Convolution"
  bottom: "inception_4a/pool"
  top: "inception_4a/pool_proj"
  param {
    lr_mult: 1
    decay_mult: 1
  }
  param {
    lr_mult: 2
    decay_mult: 0
  }
  convolution_param {
    num_output: 64
    kernel_size: 1
    weight_filler {
      type: "xavier"
      std: 0.1
    }
    bias_filler {
      type: "constant"
      value: 0.2
    }
  }
}
layer {
  name: "inception_4a/relu_pool_proj"
  type: "ReLU"
  bottom: "inception_4a/pool_proj"
  top: "inception_4a/pool_proj"
}
layer {
  name: "inception_4a/output"
  type: "Concat"
  bottom: "inception_4a/1x1"
  bottom: "inception_4a/3x3"
  bottom: "inception_4a/5x5"
  bottom: "inception_4a/pool_proj"
  top: "inception_4a/output"
}
layer {
  name: "loss1/ave_pool"
  type: "Pooling"
  bottom: "inception_4a/output"
  top: "loss1/ave_pool"
  pooling_param {
    pool: AVE
    kernel_size: 5
    stride: 3
  }
}
layer {
  name: "loss1/conv"
  type: "Convolution"
  bottom: "loss1/ave_pool"
  top: "loss1/conv"
  param {
    lr_mult: 1
    decay_mult: 1
  }
  param {
    lr_mult: 2
    decay_mult: 0
  }
  convolution_param {
    num_output: 128
    kernel_size: 1
    weight_filler {
      type: "xavier"
      std: 0.08
    }
    bias_filler {
      type: "constant"
      value: 0.2
    }
  }
}
layer {
  name: "loss1/relu_conv"
  type: "ReLU"
  bottom: "loss1/conv"
  top: "loss1/conv"
}
layer {
  name: "loss1/fc"
  type: "InnerProduct"
  bottom: "loss1/conv"
  top: "loss1/fc"
  param {
    lr_mult: 1
    decay_mult: 1
  }
  param {
    lr_mult: 2
    decay_mult: 0
  }
  inner_product_param {
    num_output: 1024
    weight_filler {
      type: "xavier"
      std: 0.02
    }
    bias_filler {
      type: "constant"
      value: 0.2
    }
  }
}
layer {
  name: "loss1/relu_fc"
  type: "ReLU"
  bottom: "loss1/fc"
  top: "loss1/fc"
}
layer {
  name: "loss1/drop_fc"
  type: "Dropout"
  bottom: "loss1/fc"
  top: "loss1/fc"
  dropout_param {
    dropout_ratio: 0.7
  }
}
layer {
  name: "loss1/classifier_plantvillage"
  type: "InnerProduct"
  bottom: "loss1/fc"
  top: "loss1/classifier_plantvillage"
  param {
    lr_mult: 1
    decay_mult: 1
  }
  param {
    lr_mult: 2
    decay_mult: 0
  }
  inner_product_param {
    num_output: 38
    weight_filler {
      type: "xavier"
      std: 0.0009765625
    }
    bias_filler {
      type: "constant"
      value: 0
    }
  }
}
layer {
  name: "inception_4b/1x1"
  type: "Convolution"
  bottom: "inception_4a/output"
  top: "inception_4b/1x1"
  param {
    lr_mult: 1
    decay_mult: 1
  }
  param {
    lr_mult: 2
    decay_mult: 0
  }
  convolution_param {
    num_output: 160
    kernel_size: 1
    weight_filler {
      type: "xavier"
      std: 0.03
    }
    bias_filler {
      type: "constant"
      value: 0.2
    }
  }
}
layer {
  name: "inception_4b/relu_1x1"
  type: "ReLU"
  bottom: "inception_4b/1x1"
  top: "inception_4b/1x1"
}
layer {
  name: "inception_4b/3x3_reduce"
  type: "Convolution"
  bottom: "inception_4a/output"
  top: "inception_4b/3x3_reduce"
  param {
    lr_mult: 1
    decay_mult: 1
  }
  param {
    lr_mult: 2
    decay_mult: 0
  }
  convolution_param {
    num_output: 112
    kernel_size: 1
    weight_filler {
      type: "xavier"
      std: 0.09
    }
    bias_filler {
      type: "constant"
      value: 0.2
    }
  }
}
layer {
  name: "inception_4b/relu_3x3_reduce"
  type: "ReLU"
  bottom: "inception_4b/3x3_reduce"
  top: "inception_4b/3x3_reduce"
}
layer {
  name: "inception_4b/3x3"
  type: "Convolution"
  bottom: "inception_4b/3x3_reduce"
  top: "inception_4b/3x3"
  param {
    lr_mult: 1
    decay_mult: 1
  }
  param {
    lr_mult: 2
    decay_mult: 0
  }
  convolution_param {
    num_output: 224
    pad: 1
    kernel_size: 3
    weight_filler {
      type: "xavier"
      std: 0.03
    }
    bias_filler {
      type: "constant"
      value: 0.2
    }
  }
}
layer {
  name: "inception_4b/relu_3x3"
  type: "ReLU"
  bottom: "inception_4b/3x3"
  top: "inception_4b/3x3"
}
layer {
  name: "inception_4b/5x5_reduce"
  type: "Convolution"
  bottom: "inception_4a/output"
  top: "inception_4b/5x5_reduce"
  param {
    lr_mult: 1
    decay_mult: 1
  }
  param {
    lr_mult: 2
    decay_mult: 0
  }
  convolution_param {
    num_output: 24
    kernel_size: 1
    weight_filler {
      type: "xavier"
      std: 0.2
    }
    bias_filler {
      type: "constant"
      value: 0.2
    }
  }
}
layer {
  name: "inception_4b/relu_5x5_reduce"
  type: "ReLU"
  bottom: "inception_4b/5x5_reduce"
  top: "inception_4b/5x5_reduce"
}
layer {
  name: "inception_4b/5x5"
  type: "Convolution"
  bottom: "inception_4b/5x5_reduce"
  top: "inception_4b/5x5"
  param {
    lr_mult: 1
    decay_mult: 1
  }
  param {
    lr_mult: 2
    decay_mult: 0
  }
  convolution_param {
    num_output: 64
    pad: 2
    kernel_size: 5
    weight_filler {
      type: "xavier"
      std: 0.03
    }
    bias_filler {
      type: "constant"
      value: 0.2
    }
  }
}
layer {
  name: "inception_4b/relu_5x5"
  type: "ReLU"
  bottom: "inception_4b/5x5"
  top: "inception_4b/5x5"
}
layer {
  name: "inception_4b/pool"
  type: "Pooling"
  bottom: "inception_4a/output"
  top: "inception_4b/pool"
  pooling_param {
    pool: MAX
    kernel_size: 3
    stride: 1
    pad: 1
  }
}
layer {
  name: "inception_4b/pool_proj"
  type: "Convolution"
  bottom: "inception_4b/pool"
  top: "inception_4b/pool_proj"
  param {
    lr_mult: 1
    decay_mult: 1
  }
  param {
    lr_mult: 2
    decay_mult: 0
  }
  convolution_param {
    num_output: 64
    kernel_size: 1
    weight_filler {
      type: "xavier"
      std: 0.1
    }
    bias_filler {
      type: "constant"
      value: 0.2
    }
  }
}
layer {
  name: "inception_4b/relu_pool_proj"
  type: "ReLU"
  bottom: "inception_4b/pool_proj"
  top: "inception_4b/pool_proj"
}
layer {
  name: "inception_4b/output"
  type: "Concat"
  bottom: "inception_4b/1x1"
  bottom: "inception_4b/3x3"
  bottom: "inception_4b/5x5"
  bottom: "inception_4b/pool_proj"
  top: "inception_4b/output"
}
layer {
  name: "inception_4c/1x1"
  type: "Convolution"
  bottom: "inception_4b/output"
  top: "inception_4c/1x1"
  param {
    lr_mult: 1
    decay_mult: 1
  }
  param {
    lr_mult: 2
    decay_mult: 0
  }
  convolution_param {
    num_output: 128
    kernel_size: 1
    weight_filler {
      type: "xavier"
      std: 0.03
    }
    bias_filler {
      type: "constant"
      value: 0.2
    }
  }
}
layer {
  name: "inception_4c/relu_1x1"
  type: "ReLU"
  bottom: "inception_4c/1x1"
  top: "inception_4c/1x1"
}
layer {
  name: "inception_4c/3x3_reduce"
  type: "Convolution"
  bottom: "inception_4b/output"
  top: "inception_4c/3x3_reduce"
  param {
    lr_mult: 1
    decay_mult: 1
  }
  param {
    lr_mult: 2
    decay_mult: 0
  }
  convolution_param {
    num_output: 128
    kernel_size: 1
    weight_filler {
      type: "xavier"
      std: 0.09
    }
    bias_filler {
      type: "constant"
      value: 0.2
    }
  }
}
layer {
  name: "inception_4c/relu_3x3_reduce"
  type: "ReLU"
  bottom: "inception_4c/3x3_reduce"
  top: "inception_4c/3x3_reduce"
}
layer {
  name: "inception_4c/3x3"
  type: "Convolution"
  bottom: "inception_4c/3x3_reduce"
  top: "inception_4c/3x3"
  param {
    lr_mult: 1
    decay_mult: 1
  }
  param {
    lr_mult: 2
    decay_mult: 0
  }
  convolution_param {
    num_output: 256
    pad: 1
    kernel_size: 3
    weight_filler {
      type: "xavier"
      std: 0.03
    }
    bias_filler {
      type: "constant"
      value: 0.2
    }
  }
}
layer {
  name: "inception_4c/relu_3x3"
  type: "ReLU"
  bottom: "inception_4c/3x3"
  top: "inception_4c/3x3"
}
layer {
  name: "inception_4c/5x5_reduce"
  type: "Convolution"
  bottom: "inception_4b/output"
  top: "inception_4c/5x5_reduce"
  param {
    lr_mult: 1
    decay_mult: 1
  }
  param {
    lr_mult: 2
    decay_mult: 0
  }
  convolution_param {
    num_output: 24
    kernel_size: 1
    weight_filler {
      type: "xavier"
      std: 0.2
    }
    bias_filler {
      type: "constant"
      value: 0.2
    }
  }
}
layer {
  name: "inception_4c/relu_5x5_reduce"
  type: "ReLU"
  bottom: "inception_4c/5x5_reduce"
  top: "inception_4c/5x5_reduce"
}
layer {
  name: "inception_4c/5x5"
  type: "Convolution"
  bottom: "inception_4c/5x5_reduce"
  top: "inception_4c/5x5"
  param {
    lr_mult: 1
    decay_mult: 1
  }
  param {
    lr_mult: 2
    decay_mult: 0
  }
  convolution_param {
    num_output: 64
    pad: 2
    kernel_size: 5
    weight_filler {
      type: "xavier"
      std: 0.03
    }
    bias_filler {
      type: "constant"
      value: 0.2
    }
  }
}
layer {
  name: "inception_4c/relu_5x5"
  type: "ReLU"
  bottom: "inception_4c/5x5"
  top: "inception_4c/5x5"
}
layer {
  name: "inception_4c/pool"
  type: "Pooling"
  bottom: "inception_4b/output"
  top: "inception_4c/pool"
  pooling_param {
    pool: MAX
    kernel_size: 3
    stride: 1
    pad: 1
  }
}
layer {
  name: "inception_4c/pool_proj"
  type: "Convolution"
  bottom: "inception_4c/pool"
  top: "inception_4c/pool_proj"
  param {
    lr_mult: 1
    decay_mult: 1
  }
  param {
    lr_mult: 2
    decay_mult: 0
  }
  convolution_param {
    num_output: 64
    kernel_size: 1
    weight_filler {
      type: "xavier"
      std: 0.1
    }
    bias_filler {
      type: "constant"
      value: 0.2
    }
  }
}
layer {
  name: "inception_4c/relu_pool_proj"
  type: "ReLU"
  bottom: "inception_4c/pool_proj"
  top: "inception_4c/pool_proj"
}
layer {
  name: "inception_4c/output"
  type: "Concat"
  bottom: "inception_4c/1x1"
  bottom: "inception_4c/3x3"
  bottom: "inception_4c/5x5"
  bottom: "inception_4c/pool_proj"
  top: "inception_4c/output"
}
layer {
  name: "inception_4d/1x1"
  type: "Convolution"
  bottom: "inception_4c/output"
  top: "inception_4d/1x1"
  param {
    lr_mult: 1
    decay_mult: 1
  }
  param {
    lr_mult: 2
    decay_mult: 0
  }
  convolution_param {
    num_output: 112
    kernel_size: 1
    weight_filler {
      type: "xavier"
      std: 0.03
    }
    bias_filler {
      type: "constant"
      value: 0.2
    }
  }
}
layer {
  name: "inception_4d/relu_1x1"
  type: "ReLU"
  bottom: "inception_4d/1x1"
  top: "inception_4d/1x1"
}
layer {
  name: "inception_4d/3x3_reduce"
  type: "Convolution"
  bottom: "inception_4c/output"
  top: "inception_4d/3x3_reduce"
  param {
    lr_mult: 1
    decay_mult: 1
  }
  param {
    lr_mult: 2
    decay_mult: 0
  }
  convolution_param {
    num_output: 144
    kernel_size: 1
    weight_filler {
      type: "xavier"
      std: 0.09
    }
    bias_filler {
      type: "constant"
      value: 0.2
    }
  }
}
layer {
  name: "inception_4d/relu_3x3_reduce"
  type: "ReLU"
  bottom: "inception_4d/3x3_reduce"
  top: "inception_4d/3x3_reduce"
}
layer {
  name: "inception_4d/3x3"
  type: "Convolution"
  bottom: "inception_4d/3x3_reduce"
  top: "inception_4d/3x3"
  param {
    lr_mult: 1
    decay_mult: 1
  }
  param {
    lr_mult: 2
    decay_mult: 0
  }
  convolution_param {
    num_output: 288
    pad: 1
    kernel_size: 3
    weight_filler {
      type: "xavier"
      std: 0.03
    }
    bias_filler {
      type: "constant"
      value: 0.2
    }
  }
}
layer {
  name: "inception_4d/relu_3x3"
  type: "ReLU"
  bottom: "inception_4d/3x3"
  top: "inception_4d/3x3"
}
layer {
  name: "inception_4d/5x5_reduce"
  type: "Convolution"
  bottom: "inception_4c/output"
  top: "inception_4d/5x5_reduce"
  param {
    lr_mult: 1
    decay_mult: 1
  }
  param {
    lr_mult: 2
    decay_mult: 0
  }
  convolution_param {
    num_output: 32
    kernel_size: 1
    weight_filler {
      type: "xavier"
      std: 0.2
    }
    bias_filler {
      type: "constant"
      value: 0.2
    }
  }
}
layer {
  name: "inception_4d/relu_5x5_reduce"
  type: "ReLU"
  bottom: "inception_4d/5x5_reduce"
  top: "inception_4d/5x5_reduce"
}
layer {
  name: "inception_4d/5x5"
  type: "Convolution"
  bottom: "inception_4d/5x5_reduce"
  top: "inception_4d/5x5"
  param {
    lr_mult: 1
    decay_mult: 1
  }
  param {
    lr_mult: 2
    decay_mult: 0
  }
  convolution_param {
    num_output: 64
    pad: 2
    kernel_size: 5
    weight_filler {
      type: "xavier"
      std: 0.03
    }
    bias_filler {
      type: "constant"
      value: 0.2
    }
  }
}
layer {
  name: "inception_4d/relu_5x5"
  type: "ReLU"
  bottom: "inception_4d/5x5"
  top: "inception_4d/5x5"
}
layer {
  name: "inception_4d/pool"
  type: "Pooling"
  bottom: "inception_4c/output"
  top: "inception_4d/pool"
  pooling_param {
    pool: MAX
    kernel_size: 3
    stride: 1
    pad: 1
  }
}
layer {
  name: "inception_4d/pool_proj"
  type: "Convolution"
  bottom: "inception_4d/pool"
  top: "inception_4d/pool_proj"
  param {
    lr_mult: 1
    decay_mult: 1
  }
  param {
    lr_mult: 2
    decay_mult: 0
  }
  convolution_param {
    num_output: 64
    kernel_size: 1
    weight_filler {
      type: "xavier"
      std: 0.1
    }
    bias_filler {
      type: "constant"
      value: 0.2
    }
  }
}
layer {
  name: "inception_4d/relu_pool_proj"
  type: "ReLU"
  bottom: "inception_4d/pool_proj"
  top: "inception_4d/pool_proj"
}
layer {
  name: "inception_4d/output"
  type: "Concat"
  bottom: "inception_4d/1x1"
  bottom: "inception_4d/3x3"
  bottom: "inception_4d/5x5"
  bottom: "inception_4d/pool_proj"
  top: "inception_4d/output"
}
layer {
  name: "loss2/ave_pool"
  type: "Pooling"
  bottom: "inception_4d/output"
  top: "loss2/ave_pool"
  pooling_param {
    pool: AVE
    kernel_size: 5
    stride: 3
  }
}
layer {
  name: "loss2/conv"
  type: "Convolution"
  bottom: "loss2/ave_pool"
  top: "loss2/conv"
  param {
    lr_mult: 1
    decay_mult: 1
  }
  param {
    lr_mult: 2
    decay_mult: 0
  }
  convolution_param {
    num_output: 128
    kernel_size: 1
    weight_filler {
      type: "xavier"
      std: 0.08
    }
    bias_filler {
      type: "constant"
      value: 0.2
    }
  }
}
layer {
  name: "loss2/relu_conv"
  type: "ReLU"
  bottom: "loss2/conv"
  top: "loss2/conv"
}
layer {
  name: "loss2/fc"
  type: "InnerProduct"
  bottom: "loss2/conv"
  top: "loss2/fc"
  param {
    lr_mult: 1
    decay_mult: 1
  }
  param {
    lr_mult: 2
    decay_mult: 0
  }
  inner_product_param {
    num_output: 1024
    weight_filler {
      type: "xavier"
      std: 0.02
    }
    bias_filler {
      type: "constant"
      value: 0.2
    }
  }
}
layer {
  name: "loss2/relu_fc"
  type: "ReLU"
  bottom: "loss2/fc"
  top: "loss2/fc"
}
layer {
  name: "loss2/drop_fc"
  type: "Dropout"
  bottom: "loss2/fc"
  top: "loss2/fc"
  dropout_param {
    dropout_ratio: 0.7
  }
}
layer {
  name: "loss2/classifier_plantvillage"
  type: "InnerProduct"
  bottom: "loss2/fc"
  top: "loss2/classifier_plantvillage"
  param {
    lr_mult: 1
    decay_mult: 1
  }
  param {
    lr_mult: 2
    decay_mult: 0
  }
  inner_product_param {
    num_output: 38
    weight_filler {
      type: "xavier"
      std: 0.0009765625
    }
    bias_filler {
      type: "constant"
      value: 0
    }
  }
}
layer {
  name: "inception_4e/1x1"
  type: "Convolution"
  bottom: "inception_4d/output"
  top: "inception_4e/1x1"
  param {
    lr_mult: 1
    decay_mult: 1
  }
  param {
    lr_mult: 2
    decay_mult: 0
  }
  convolution_param {
    num_output: 256
    kernel_size: 1
    weight_filler {
      type: "xavier"
      std: 0.03
    }
    bias_filler {
      type: "constant"
      value: 0.2
    }
  }
}
layer {
  name: "inception_4e/relu_1x1"
  type: "ReLU"
  bottom: "inception_4e/1x1"
  top: "inception_4e/1x1"
}
layer {
  name: "inception_4e/3x3_reduce"
  type: "Convolution"
  bottom: "inception_4d/output"
  top: "inception_4e/3x3_reduce"
  param {
    lr_mult: 1
    decay_mult: 1
  }
  param {
    lr_mult: 2
    decay_mult: 0
  }
  convolution_param {
    num_output: 160
    kernel_size: 1
    weight_filler {
      type: "xavier"
      std: 0.09
    }
    bias_filler {
      type: "constant"
      value: 0.2
    }
  }
}
layer {
  name: "inception_4e/relu_3x3_reduce"
  type: "ReLU"
  bottom: "inception_4e/3x3_reduce"
  top: "inception_4e/3x3_reduce"
}
layer {
  name: "inception_4e/3x3"
  type: "Convolution"
  bottom: "inception_4e/3x3_reduce"
  top: "inception_4e/3x3"
  param {
    lr_mult: 1
    decay_mult: 1
  }
  param {
    lr_mult: 2
    decay_mult: 0
  }
  convolution_param {
    num_output: 320
    pad: 1
    kernel_size: 3
    weight_filler {
      type: "xavier"
      std: 0.03
    }
    bias_filler {
      type: "constant"
      value: 0.2
    }
  }
}
layer {
  name: "inception_4e/relu_3x3"
  type: "ReLU"
  bottom: "inception_4e/3x3"
  top: "inception_4e/3x3"
}
layer {
  name: "inception_4e/5x5_reduce"
  type: "Convolution"
  bottom: "inception_4d/output"
  top: "inception_4e/5x5_reduce"
  param {
    lr_mult: 1
    decay_mult: 1
  }
  param {
    lr_mult: 2
    decay_mult: 0
  }
  convolution_param {
    num_output: 32
    kernel_size: 1
    weight_filler {
      type: "xavier"
      std: 0.2
    }
    bias_filler {
      type: "constant"
      value: 0.2
    }
  }
}
layer {
  name: "inception_4e/relu_5x5_reduce"
  type: "ReLU"
  bottom: "inception_4e/5x5_reduce"
  top: "inception_4e/5x5_reduce"
}
layer {
  name: "inception_4e/5x5"
  type: "Convolution"
  bottom: "inception_4e/5x5_reduce"
  top: "inception_4e/
I0403 15:09:43.507784 11662 layer_factory.hpp:77] Creating layer data
I0403 15:09:43.508395 11662 net.cpp:91] Creating Layer data
I0403 15:09:43.508427 11662 net.cpp:399] data -> data
I0403 15:09:43.508481 11662 net.cpp:399] data -> label
I0403 15:09:43.508517 11662 data_transformer.cpp:25] Loading mean file from: /home/mohanty/data/final_dataset/lmdb/segmented-40-60/mean.binaryproto
I0403 15:09:43.512094 11665 db_lmdb.cpp:38] Opened lmdb /home/mohanty/data/final_dataset/lmdb/segmented-40-60/test_db
I0403 15:09:43.522143 11662 data_layer.cpp:41] output data size: 24,3,224,224
I0403 15:09:43.549856 11662 net.cpp:141] Setting up data
I0403 15:09:43.549957 11662 net.cpp:148] Top shape: 24 3 224 224 (3612672)
I0403 15:09:43.549979 11662 net.cpp:148] Top shape: 24 (24)
I0403 15:09:43.549995 11662 net.cpp:156] Memory required for data: 14450784
I0403 15:09:43.550024 11662 layer_factory.hpp:77] Creating layer label_data_1_split
I0403 15:09:43.550052 11662 net.cpp:91] Creating Layer label_data_1_split
I0403 15:09:43.550071 11662 net.cpp:425] label_data_1_split <- label
I0403 15:09:43.550102 11662 net.cpp:399] label_data_1_split -> label_data_1_split_0
I0403 15:09:43.550132 11662 net.cpp:399] label_data_1_split -> label_data_1_split_1
I0403 15:09:43.550155 11662 net.cpp:399] label_data_1_split -> label_data_1_split_2
I0403 15:09:43.550176 11662 net.cpp:399] label_data_1_split -> label_data_1_split_3
I0403 15:09:43.550196 11662 net.cpp:399] label_data_1_split -> label_data_1_split_4
I0403 15:09:43.550216 11662 net.cpp:399] label_data_1_split -> label_data_1_split_5
I0403 15:09:43.550236 11662 net.cpp:399] label_data_1_split -> label_data_1_split_6
I0403 15:09:43.550257 11662 net.cpp:399] label_data_1_split -> label_data_1_split_7
I0403 15:09:43.550278 11662 net.cpp:399] label_data_1_split -> label_data_1_split_8
I0403 15:09:43.550298 11662 net.cpp:399] label_data_1_split -> label_data_1_split_9
I0403 15:09:43.550420 11662 net.cpp:141] Setting up label_data_1_split
I0403 15:09:43.550444 11662 net.cpp:148] Top shape: 24 (24)
I0403 15:09:43.550462 11662 net.cpp:148] Top shape: 24 (24)
I0403 15:09:43.550478 11662 net.cpp:148] Top shape: 24 (24)
I0403 15:09:43.550494 11662 net.cpp:148] Top shape: 24 (24)
I0403 15:09:43.550510 11662 net.cpp:148] Top shape: 24 (24)
I0403 15:09:43.550526 11662 net.cpp:148] Top shape: 24 (24)
I0403 15:09:43.550541 11662 net.cpp:148] Top shape: 24 (24)
I0403 15:09:43.550556 11662 net.cpp:148] Top shape: 24 (24)
I0403 15:09:43.550575 11662 net.cpp:148] Top shape: 24 (24)
I0403 15:09:43.550590 11662 net.cpp:148] Top shape: 24 (24)
I0403 15:09:43.550637 11662 net.cpp:156] Memory required for data: 14451744
I0403 15:09:43.550653 11662 layer_factory.hpp:77] Creating layer conv1/7x7_s2
I0403 15:09:43.550686 11662 net.cpp:91] Creating Layer conv1/7x7_s2
I0403 15:09:43.550704 11662 net.cpp:425] conv1/7x7_s2 <- data
I0403 15:09:43.550724 11662 net.cpp:399] conv1/7x7_s2 -> conv1/7x7_s2
I0403 15:09:43.692777 11662 net.cpp:141] Setting up conv1/7x7_s2
I0403 15:09:43.692862 11662 net.cpp:148] Top shape: 24 64 112 112 (19267584)
I0403 15:09:43.692880 11662 net.cpp:156] Memory required for data: 91522080
I0403 15:09:43.692911 11662 layer_factory.hpp:77] Creating layer conv1/relu_7x7
I0403 15:09:43.692939 11662 net.cpp:91] Creating Layer conv1/relu_7x7
I0403 15:09:43.692956 11662 net.cpp:425] conv1/relu_7x7 <- conv1/7x7_s2
I0403 15:09:43.692978 11662 net.cpp:386] conv1/relu_7x7 -> conv1/7x7_s2 (in-place)
I0403 15:09:43.693253 11662 net.cpp:141] Setting up conv1/relu_7x7
I0403 15:09:43.693280 11662 net.cpp:148] Top shape: 24 64 112 112 (19267584)
I0403 15:09:43.693296 11662 net.cpp:156] Memory required for data: 168592416
I0403 15:09:43.693325 11662 layer_factory.hpp:77] Creating layer pool1/3x3_s2
I0403 15:09:43.693351 11662 net.cpp:91] Creating Layer pool1/3x3_s2
I0403 15:09:43.693368 11662 net.cpp:425] pool1/3x3_s2 <- conv1/7x7_s2
I0403 15:09:43.693389 11662 net.cpp:399] pool1/3x3_s2 -> pool1/3x3_s2
I0403 15:09:43.693466 11662 net.cpp:141] Setting up pool1/3x3_s2
I0403 15:09:43.693491 11662 net.cpp:148] Top shape: 24 64 56 56 (4816896)
I0403 15:09:43.693506 11662 net.cpp:156] Memory required for data: 187860000
I0403 15:09:43.693521 11662 layer_factory.hpp:77] Creating layer pool1/norm1
I0403 15:09:43.693547 11662 net.cpp:91] Creating Layer pool1/norm1
I0403 15:09:43.693565 11662 net.cpp:425] pool1/norm1 <- pool1/3x3_s2
I0403 15:09:43.693584 11662 net.cpp:399] pool1/norm1 -> pool1/norm1
I0403 15:09:43.693893 11662 net.cpp:141] Setting up pool1/norm1
I0403 15:09:43.693922 11662 net.cpp:148] Top shape: 24 64 56 56 (4816896)
I0403 15:09:43.693938 11662 net.cpp:156] Memory required for data: 207127584
I0403 15:09:43.693953 11662 layer_factory.hpp:77] Creating layer conv2/3x3_reduce
I0403 15:09:43.693979 11662 net.cpp:91] Creating Layer conv2/3x3_reduce
I0403 15:09:43.693996 11662 net.cpp:425] conv2/3x3_reduce <- pool1/norm1
I0403 15:09:43.694017 11662 net.cpp:399] conv2/3x3_reduce -> conv2/3x3_reduce
I0403 15:09:43.695262 11662 net.cpp:141] Setting up conv2/3x3_reduce
I0403 15:09:43.695292 11662 net.cpp:148] Top shape: 24 64 56 56 (4816896)
I0403 15:09:43.695308 11662 net.cpp:156] Memory required for data: 226395168
I0403 15:09:43.695339 11662 layer_factory.hpp:77] Creating layer conv2/relu_3x3_reduce
I0403 15:09:43.695360 11662 net.cpp:91] Creating Layer conv2/relu_3x3_reduce
I0403 15:09:43.695376 11662 net.cpp:425] conv2/relu_3x3_reduce <- conv2/3x3_reduce
I0403 15:09:43.695392 11662 net.cpp:386] conv2/relu_3x3_reduce -> conv2/3x3_reduce (in-place)
I0403 15:09:43.695664 11662 net.cpp:141] Setting up conv2/relu_3x3_reduce
I0403 15:09:43.695691 11662 net.cpp:148] Top shape: 24 64 56 56 (4816896)
I0403 15:09:43.695706 11662 net.cpp:156] Memory required for data: 245662752
I0403 15:09:43.695721 11662 layer_factory.hpp:77] Creating layer conv2/3x3
I0403 15:09:43.695746 11662 net.cpp:91] Creating Layer conv2/3x3
I0403 15:09:43.695763 11662 net.cpp:425] conv2/3x3 <- conv2/3x3_reduce
I0403 15:09:43.695783 11662 net.cpp:399] conv2/3x3 -> conv2/3x3
I0403 15:09:43.698112 11662 net.cpp:141] Setting up conv2/3x3
I0403 15:09:43.698144 11662 net.cpp:148] Top shape: 24 192 56 56 (14450688)
I0403 15:09:43.698163 11662 net.cpp:156] Memory required for data: 303465504
I0403 15:09:43.698184 11662 layer_factory.hpp:77] Creating layer conv2/relu_3x3
I0403 15:09:43.698204 11662 net.cpp:91] Creating Layer conv2/relu_3x3
I0403 15:09:43.698220 11662 net.cpp:425] conv2/relu_3x3 <- conv2/3x3
I0403 15:09:43.698236 11662 net.cpp:386] conv2/relu_3x3 -> conv2/3x3 (in-place)
I0403 15:09:43.698426 11662 net.cpp:141] Setting up conv2/relu_3x3
I0403 15:09:43.698451 11662 net.cpp:148] Top shape: 24 192 56 56 (14450688)
I0403 15:09:43.698513 11662 net.cpp:156] Memory required for data: 361268256
I0403 15:09:43.698529 11662 layer_factory.hpp:77] Creating layer conv2/norm2
I0403 15:09:43.698552 11662 net.cpp:91] Creating Layer conv2/norm2
I0403 15:09:43.698599 11662 net.cpp:425] conv2/norm2 <- conv2/3x3
I0403 15:09:43.698633 11662 net.cpp:399] conv2/norm2 -> conv2/norm2
I0403 15:09:43.698997 11662 net.cpp:141] Setting up conv2/norm2
I0403 15:09:43.699025 11662 net.cpp:148] Top shape: 24 192 56 56 (14450688)
I0403 15:09:43.699041 11662 net.cpp:156] Memory required for data: 419071008
I0403 15:09:43.699057 11662 layer_factory.hpp:77] Creating layer pool2/3x3_s2
I0403 15:09:43.699077 11662 net.cpp:91] Creating Layer pool2/3x3_s2
I0403 15:09:43.699095 11662 net.cpp:425] pool2/3x3_s2 <- conv2/norm2
I0403 15:09:43.699111 11662 net.cpp:399] pool2/3x3_s2 -> pool2/3x3_s2
I0403 15:09:43.699165 11662 net.cpp:141] Setting up pool2/3x3_s2
I0403 15:09:43.699189 11662 net.cpp:148] Top shape: 24 192 28 28 (3612672)
I0403 15:09:43.699203 11662 net.cpp:156] Memory required for data: 433521696
I0403 15:09:43.699219 11662 layer_factory.hpp:77] Creating layer pool2/3x3_s2_pool2/3x3_s2_0_split
I0403 15:09:43.699236 11662 net.cpp:91] Creating Layer pool2/3x3_s2_pool2/3x3_s2_0_split
I0403 15:09:43.699251 11662 net.cpp:425] pool2/3x3_s2_pool2/3x3_s2_0_split <- pool2/3x3_s2
I0403 15:09:43.699270 11662 net.cpp:399] pool2/3x3_s2_pool2/3x3_s2_0_split -> pool2/3x3_s2_pool2/3x3_s2_0_split_0
I0403 15:09:43.699291 11662 net.cpp:399] pool2/3x3_s2_pool2/3x3_s2_0_split -> pool2/3x3_s2_pool2/3x3_s2_0_split_1
I0403 15:09:43.699311 11662 net.cpp:399] pool2/3x3_s2_pool2/3x3_s2_0_split -> pool2/3x3_s2_pool2/3x3_s2_0_split_2
I0403 15:09:43.699353 11662 net.cpp:399] pool2/3x3_s2_pool2/3x3_s2_0_split -> pool2/3x3_s2_pool2/3x3_s2_0_split_3
I0403 15:09:43.699429 11662 net.cpp:141] Setting up pool2/3x3_s2_pool2/3x3_s2_0_split
I0403 15:09:43.699455 11662 net.cpp:148] Top shape: 24 192 28 28 (3612672)
I0403 15:09:43.699475 11662 net.cpp:148] Top shape: 24 192 28 28 (3612672)
I0403 15:09:43.699491 11662 net.cpp:148] Top shape: 24 192 28 28 (3612672)
I0403 15:09:43.699506 11662 net.cpp:148] Top shape: 24 192 28 28 (3612672)
I0403 15:09:43.699522 11662 net.cpp:156] Memory required for data: 491324448
I0403 15:09:43.699535 11662 layer_factory.hpp:77] Creating layer inception_3a/1x1
I0403 15:09:43.699558 11662 net.cpp:91] Creating Layer inception_3a/1x1
I0403 15:09:43.699576 11662 net.cpp:425] inception_3a/1x1 <- pool2/3x3_s2_pool2/3x3_s2_0_split_0
I0403 15:09:43.699595 11662 net.cpp:399] inception_3a/1x1 -> inception_3a/1x1
I0403 15:09:43.701249 11662 net.cpp:141] Setting up inception_3a/1x1
I0403 15:09:43.701280 11662 net.cpp:148] Top shape: 24 64 28 28 (1204224)
I0403 15:09:43.701297 11662 net.cpp:156] Memory required for data: 496141344
I0403 15:09:43.701323 11662 layer_factory.hpp:77] Creating layer inception_3a/relu_1x1
I0403 15:09:43.701346 11662 net.cpp:91] Creating Layer inception_3a/relu_1x1
I0403 15:09:43.701364 11662 net.cpp:425] inception_3a/relu_1x1 <- inception_3a/1x1
I0403 15:09:43.701382 11662 net.cpp:386] inception_3a/relu_1x1 -> inception_3a/1x1 (in-place)
I0403 15:09:43.701566 11662 net.cpp:141] Setting up inception_3a/relu_1x1
I0403 15:09:43.701594 11662 net.cpp:148] Top shape: 24 64 28 28 (1204224)
I0403 15:09:43.701611 11662 net.cpp:156] Memory required for data: 500958240
I0403 15:09:43.701627 11662 layer_factory.hpp:77] Creating layer inception_3a/3x3_reduce
I0403 15:09:43.701649 11662 net.cpp:91] Creating Layer inception_3a/3x3_reduce
I0403 15:09:43.701668 11662 net.cpp:425] inception_3a/3x3_reduce <- pool2/3x3_s2_pool2/3x3_s2_0_split_1
I0403 15:09:43.701688 11662 net.cpp:399] inception_3a/3x3_reduce -> inception_3a/3x3_reduce
I0403 15:09:43.703449 11662 net.cpp:141] Setting up inception_3a/3x3_reduce
I0403 15:09:43.703480 11662 net.cpp:148] Top shape: 24 96 28 28 (1806336)
I0403 15:09:43.703497 11662 net.cpp:156] Memory required for data: 508183584
I0403 15:09:43.703521 11662 layer_factory.hpp:77] Creating layer inception_3a/relu_3x3_reduce
I0403 15:09:43.703560 11662 net.cpp:91] Creating Layer inception_3a/relu_3x3_reduce
I0403 15:09:43.703578 11662 net.cpp:425] inception_3a/relu_3x3_reduce <- inception_3a/3x3_reduce
I0403 15:09:43.703599 11662 net.cpp:386] inception_3a/relu_3x3_reduce -> inception_3a/3x3_reduce (in-place)
I0403 15:09:43.703789 11662 net.cpp:141] Setting up inception_3a/relu_3x3_reduce
I0403 15:09:43.703814 11662 net.cpp:148] Top shape: 24 96 28 28 (1806336)
I0403 15:09:43.703830 11662 net.cpp:156] Memory required for data: 515408928
I0403 15:09:43.703846 11662 layer_factory.hpp:77] Creating layer inception_3a/3x3
I0403 15:09:43.703869 11662 net.cpp:91] Creating Layer inception_3a/3x3
I0403 15:09:43.703887 11662 net.cpp:425] inception_3a/3x3 <- inception_3a/3x3_reduce
I0403 15:09:43.703909 11662 net.cpp:399] inception_3a/3x3 -> inception_3a/3x3
I0403 15:09:43.705651 11662 net.cpp:141] Setting up inception_3a/3x3
I0403 15:09:43.705680 11662 net.cpp:148] Top shape: 24 128 28 28 (2408448)
I0403 15:09:43.705696 11662 net.cpp:156] Memory required for data: 525042720
I0403 15:09:43.705718 11662 layer_factory.hpp:77] Creating layer inception_3a/relu_3x3
I0403 15:09:43.705739 11662 net.cpp:91] Creating Layer inception_3a/relu_3x3
I0403 15:09:43.705754 11662 net.cpp:425] inception_3a/relu_3x3 <- inception_3a/3x3
I0403 15:09:43.705771 11662 net.cpp:386] inception_3a/relu_3x3 -> inception_3a/3x3 (in-place)
I0403 15:09:43.706058 11662 net.cpp:141] Setting up inception_3a/relu_3x3
I0403 15:09:43.706087 11662 net.cpp:148] Top shape: 24 128 28 28 (2408448)
I0403 15:09:43.706104 11662 net.cpp:156] Memory required for data: 534676512
I0403 15:09:43.706120 11662 layer_factory.hpp:77] Creating layer inception_3a/5x5_reduce
I0403 15:09:43.706142 11662 net.cpp:91] Creating Layer inception_3a/5x5_reduce
I0403 15:09:43.706161 11662 net.cpp:425] inception_3a/5x5_reduce <- pool2/3x3_s2_pool2/3x3_s2_0_split_2
I0403 15:09:43.706179 11662 net.cpp:399] inception_3a/5x5_reduce -> inception_3a/5x5_reduce
I0403 15:09:43.707186 11662 net.cpp:141] Setting up inception_3a/5x5_reduce
I0403 15:09:43.707217 11662 net.cpp:148] Top shape: 24 16 28 28 (301056)
I0403 15:09:43.707234 11662 net.cpp:156] Memory required for data: 535880736
I0403 15:09:43.707253 11662 layer_factory.hpp:77] Creating layer inception_3a/relu_5x5_reduce
I0403 15:09:43.707273 11662 net.cpp:91] Creating Layer inception_3a/relu_5x5_reduce
I0403 15:09:43.707289 11662 net.cpp:425] inception_3a/relu_5x5_reduce <- inception_3a/5x5_reduce
I0403 15:09:43.707310 11662 net.cpp:386] inception_3a/relu_5x5_reduce -> inception_3a/5x5_reduce (in-place)
I0403 15:09:43.707626 11662 net.cpp:141] Setting up inception_3a/relu_5x5_reduce
I0403 15:09:43.707653 11662 net.cpp:148] Top shape: 24 16 28 28 (301056)
I0403 15:09:43.707669 11662 net.cpp:156] Memory required for data: 537084960
I0403 15:09:43.707685 11662 layer_factory.hpp:77] Creating layer inception_3a/5x5
I0403 15:09:43.707708 11662 net.cpp:91] Creating Layer inception_3a/5x5
I0403 15:09:43.707726 11662 net.cpp:425] inception_3a/5x5 <- inception_3a/5x5_reduce
I0403 15:09:43.707748 11662 net.cpp:399] inception_3a/5x5 -> inception_3a/5x5
I0403 15:09:43.708817 11662 net.cpp:141] Setting up inception_3a/5x5
I0403 15:09:43.708845 11662 net.cpp:148] Top shape: 24 32 28 28 (602112)
I0403 15:09:43.708861 11662 net.cpp:156] Memory required for data: 539493408
I0403 15:09:43.708880 11662 layer_factory.hpp:77] Creating layer inception_3a/relu_5x5
I0403 15:09:43.708902 11662 net.cpp:91] Creating Layer inception_3a/relu_5x5
I0403 15:09:43.708920 11662 net.cpp:425] inception_3a/relu_5x5 <- inception_3a/5x5
I0403 15:09:43.708938 11662 net.cpp:386] inception_3a/relu_5x5 -> inception_3a/5x5 (in-place)
I0403 15:09:43.709120 11662 net.cpp:141] Setting up inception_3a/relu_5x5
I0403 15:09:43.709144 11662 net.cpp:148] Top shape: 24 32 28 28 (602112)
I0403 15:09:43.709159 11662 net.cpp:156] Memory required for data: 541901856
I0403 15:09:43.709174 11662 layer_factory.hpp:77] Creating layer inception_3a/pool
I0403 15:09:43.709193 11662 net.cpp:91] Creating Layer inception_3a/pool
I0403 15:09:43.709224 11662 net.cpp:425] inception_3a/pool <- pool2/3x3_s2_pool2/3x3_s2_0_split_3
I0403 15:09:43.709247 11662 net.cpp:399] inception_3a/pool -> inception_3a/pool
I0403 15:09:43.709308 11662 net.cpp:141] Setting up inception_3a/pool
I0403 15:09:43.709341 11662 net.cpp:148] Top shape: 24 192 28 28 (3612672)
I0403 15:09:43.709357 11662 net.cpp:156] Memory required for data: 556352544
I0403 15:09:43.709372 11662 layer_factory.hpp:77] Creating layer inception_3a/pool_proj
I0403 15:09:43.709398 11662 net.cpp:91] Creating Layer inception_3a/pool_proj
I0403 15:09:43.709415 11662 net.cpp:425] inception_3a/pool_proj <- inception_3a/pool
I0403 15:09:43.709434 11662 net.cpp:399] inception_3a/pool_proj -> inception_3a/pool_proj
I0403 15:09:43.710448 11662 net.cpp:141] Setting up inception_3a/pool_proj
I0403 15:09:43.710477 11662 net.cpp:148] Top shape: 24 32 28 28 (602112)
I0403 15:09:43.710494 11662 net.cpp:156] Memory required for data: 558760992
I0403 15:09:43.710518 11662 layer_factory.hpp:77] Creating layer inception_3a/relu_pool_proj
I0403 15:09:43.710539 11662 net.cpp:91] Creating Layer inception_3a/relu_pool_proj
I0403 15:09:43.710556 11662 net.cpp:425] inception_3a/relu_pool_proj <- inception_3a/pool_proj
I0403 15:09:43.710575 11662 net.cpp:386] inception_3a/relu_pool_proj -> inception_3a/pool_proj (in-place)
I0403 15:09:43.710861 11662 net.cpp:141] Setting up inception_3a/relu_pool_proj
I0403 15:09:43.710888 11662 net.cpp:148] Top shape: 24 32 28 28 (602112)
I0403 15:09:43.710904 11662 net.cpp:156] Memory required for data: 561169440
I0403 15:09:43.710921 11662 layer_factory.hpp:77] Creating layer inception_3a/output
I0403 15:09:43.710940 11662 net.cpp:91] Creating Layer inception_3a/output
I0403 15:09:43.710958 11662 net.cpp:425] inception_3a/output <- inception_3a/1x1
I0403 15:09:43.710974 11662 net.cpp:425] inception_3a/output <- inception_3a/3x3
I0403 15:09:43.710991 11662 net.cpp:425] inception_3a/output <- inception_3a/5x5
I0403 15:09:43.711007 11662 net.cpp:425] inception_3a/output <- inception_3a/pool_proj
I0403 15:09:43.711024 11662 net.cpp:399] inception_3a/output -> inception_3a/output
I0403 15:09:43.711074 11662 net.cpp:141] Setting up inception_3a/output
I0403 15:09:43.711097 11662 net.cpp:148] Top shape: 24 256 28 28 (4816896)
I0403 15:09:43.711112 11662 net.cpp:156] Memory required for data: 580437024
I0403 15:09:43.711128 11662 layer_factory.hpp:77] Creating layer inception_3a/output_inception_3a/output_0_split
I0403 15:09:43.711145 11662 net.cpp:91] Creating Layer inception_3a/output_inception_3a/output_0_split
I0403 15:09:43.711161 11662 net.cpp:425] inception_3a/output_inception_3a/output_0_split <- inception_3a/output
I0403 15:09:43.711182 11662 net.cpp:399] inception_3a/output_inception_3a/output_0_split -> inception_3a/output_inception_3a/output_0_split_0
I0403 15:09:43.711205 11662 net.cpp:399] inception_3a/output_inception_3a/output_0_split -> inception_3a/output_inception_3a/output_0_split_1
I0403 15:09:43.711231 11662 net.cpp:399] inception_3a/output_inception_3a/output_0_split -> inception_3a/output_inception_3a/output_0_split_2
I0403 15:09:43.711254 11662 net.cpp:399] inception_3a/output_inception_3a/output_0_split -> inception_3a/output_inception_3a/output_0_split_3
I0403 15:09:43.711338 11662 net.cpp:141] Setting up inception_3a/output_inception_3a/output_0_split
I0403 15:09:43.711362 11662 net.cpp:148] Top shape: 24 256 28 28 (4816896)
I0403 15:09:43.711383 11662 net.cpp:148] Top shape: 24 256 28 28 (4816896)
I0403 15:09:43.711400 11662 net.cpp:148] Top shape: 24 256 28 28 (4816896)
I0403 15:09:43.711416 11662 net.cpp:148] Top shape: 24 256 28 28 (4816896)
I0403 15:09:43.711431 11662 net.cpp:156] Memory required for data: 657507360
I0403 15:09:43.711447 11662 layer_factory.hpp:77] Creating layer inception_3b/1x1
I0403 15:09:43.711467 11662 net.cpp:91] Creating Layer inception_3b/1x1
I0403 15:09:43.711483 11662 net.cpp:425] inception_3b/1x1 <- inception_3a/output_inception_3a/output_0_split_0
I0403 15:09:43.711504 11662 net.cpp:399] inception_3b/1x1 -> inception_3b/1x1
I0403 15:09:43.712713 11662 net.cpp:141] Setting up inception_3b/1x1
I0403 15:09:43.712754 11662 net.cpp:148] Top shape: 24 128 28 28 (2408448)
I0403 15:09:43.712770 11662 net.cpp:156] Memory required for data: 667141152
I0403 15:09:43.712790 11662 layer_factory.hpp:77] Creating layer inception_3b/relu_1x1
I0403 15:09:43.712811 11662 net.cpp:91] Creating Layer inception_3b/relu_1x1
I0403 15:09:43.712831 11662 net.cpp:425] inception_3b/relu_1x1 <- inception_3b/1x1
I0403 15:09:43.712848 11662 net.cpp:386] inception_3b/relu_1x1 -> inception_3b/1x1 (in-place)
I0403 15:09:43.713033 11662 net.cpp:141] Setting up inception_3b/relu_1x1
I0403 15:09:43.713062 11662 net.cpp:148] Top shape: 24 128 28 28 (2408448)
I0403 15:09:43.713078 11662 net.cpp:156] Memory required for data: 676774944
I0403 15:09:43.713093 11662 layer_factory.hpp:77] Creating layer inception_3b/3x3_reduce
I0403 15:09:43.713117 11662 net.cpp:91] Creating Layer inception_3b/3x3_reduce
I0403 15:09:43.713135 11662 net.cpp:425] inception_3b/3x3_reduce <- inception_3a/output_inception_3a/output_0_split_1
I0403 15:09:43.713155 11662 net.cpp:399] inception_3b/3x3_reduce -> inception_3b/3x3_reduce
I0403 15:09:43.714359 11662 net.cpp:141] Setting up inception_3b/3x3_reduce
I0403 15:09:43.714388 11662 net.cpp:148] Top shape: 24 128 28 28 (2408448)
I0403 15:09:43.714406 11662 net.cpp:156] Memory required for data: 686408736
I0403 15:09:43.714424 11662 layer_factory.hpp:77] Creating layer inception_3b/relu_3x3_reduce
I0403 15:09:43.714445 11662 net.cpp:91] Creating Layer inception_3b/relu_3x3_reduce
I0403 15:09:43.714462 11662 net.cpp:425] inception_3b/relu_3x3_reduce <- inception_3b/3x3_reduce
I0403 15:09:43.714480 11662 net.cpp:386] inception_3b/relu_3x3_reduce -> inception_3b/3x3_reduce (in-place)
I0403 15:09:43.714661 11662 net.cpp:141] Setting up inception_3b/relu_3x3_reduce
I0403 15:09:43.714689 11662 net.cpp:148] Top shape: 24 128 28 28 (2408448)
I0403 15:09:43.714705 11662 net.cpp:156] Memory required for data: 696042528
I0403 15:09:43.714721 11662 layer_factory.hpp:77] Creating layer inception_3b/3x3
I0403 15:09:43.714746 11662 net.cpp:91] Creating Layer inception_3b/3x3
I0403 15:09:43.714764 11662 net.cpp:425] inception_3b/3x3 <- inception_3b/3x3_reduce
I0403 15:09:43.714787 11662 net.cpp:399] inception_3b/3x3 -> inception_3b/3x3
I0403 15:09:43.717803 11662 net.cpp:141] Setting up inception_3b/3x3
I0403 15:09:43.717831 11662 net.cpp:148] Top shape: 24 192 28 28 (3612672)
I0403 15:09:43.717847 11662 net.cpp:156] Memory required for data: 710493216
I0403 15:09:43.717869 11662 layer_factory.hpp:77] Creating layer inception_3b/relu_3x3
I0403 15:09:43.717887 11662 net.cpp:91] Creating Layer inception_3b/relu_3x3
I0403 15:09:43.717903 11662 net.cpp:425] inception_3b/relu_3x3 <- inception_3b/3x3
I0403 15:09:43.717921 11662 net.cpp:386] inception_3b/relu_3x3 -> inception_3b/3x3 (in-place)
I0403 15:09:43.718202 11662 net.cpp:141] Setting up inception_3b/relu_3x3
I0403 15:09:43.718228 11662 net.cpp:148] Top shape: 24 192 28 28 (3612672)
I0403 15:09:43.718245 11662 net.cpp:156] Memory required for data: 724943904
I0403 15:09:43.718260 11662 layer_factory.hpp:77] Creating layer inception_3b/5x5_reduce
I0403 15:09:43.718284 11662 net.cpp:91] Creating Layer inception_3b/5x5_reduce
I0403 15:09:43.718302 11662 net.cpp:425] inception_3b/5x5_reduce <- inception_3a/output_inception_3a/output_0_split_2
I0403 15:09:43.718328 11662 net.cpp:399] inception_3b/5x5_reduce -> inception_3b/5x5_reduce
I0403 15:09:43.719367 11662 net.cpp:141] Setting up inception_3b/5x5_reduce
I0403 15:09:43.719396 11662 net.cpp:148] Top shape: 24 32 28 28 (602112)
I0403 15:09:43.719413 11662 net.cpp:156] Memory required for data: 727352352
I0403 15:09:43.719430 11662 layer_factory.hpp:77] Creating layer inception_3b/relu_5x5_reduce
I0403 15:09:43.719451 11662 net.cpp:91] Creating Layer inception_3b/relu_5x5_reduce
I0403 15:09:43.719467 11662 net.cpp:425] inception_3b/relu_5x5_reduce <- inception_3b/5x5_reduce
I0403 15:09:43.719494 11662 net.cpp:386] inception_3b/relu_5x5_reduce -> inception_3b/5x5_reduce (in-place)
I0403 15:09:43.719702 11662 net.cpp:141] Setting up inception_3b/relu_5x5_reduce
I0403 15:09:43.719727 11662 net.cpp:148] Top shape: 24 32 28 28 (602112)
I0403 15:09:43.719741 11662 net.cpp:156] Memory required for data: 729760800
I0403 15:09:43.719755 11662 layer_factory.hpp:77] Creating layer inception_3b/5x5
I0403 15:09:43.719777 11662 net.cpp:91] Creating Layer inception_3b/5x5
I0403 15:09:43.719794 11662 net.cpp:425] inception_3b/5x5 <- inception_3b/5x5_reduce
I0403 15:09:43.719815 11662 net.cpp:399] inception_3b/5x5 -> inception_3b/5x5
I0403 15:09:43.721771 11662 net.cpp:141] Setting up inception_3b/5x5
I0403 15:09:43.721799 11662 net.cpp:148] Top shape: 24 96 28 28 (1806336)
I0403 15:09:43.721815 11662 net.cpp:156] Memory required for data: 736986144
I0403 15:09:43.721833 11662 layer_factory.hpp:77] Creating layer inception_3b/relu_5x5
I0403 15:09:43.721854 11662 net.cpp:91] Creating Layer inception_3b/relu_5x5
I0403 15:09:43.721870 11662 net.cpp:425] inception_3b/relu_5x5 <- inception_3b/5x5
I0403 15:09:43.721887 11662 net.cpp:386] inception_3b/relu_5x5 -> inception_3b/5x5 (in-place)
I0403 15:09:43.722076 11662 net.cpp:141] Setting up inception_3b/relu_5x5
I0403 15:09:43.722100 11662 net.cpp:148] Top shape: 24 96 28 28 (1806336)
I0403 15:09:43.722115 11662 net.cpp:156] Memory required for data: 744211488
I0403 15:09:43.722129 11662 layer_factory.hpp:77] Creating layer inception_3b/pool
I0403 15:09:43.722147 11662 net.cpp:91] Creating Layer inception_3b/pool
I0403 15:09:43.722163 11662 net.cpp:425] inception_3b/pool <- inception_3a/output_inception_3a/output_0_split_3
I0403 15:09:43.722180 11662 net.cpp:399] inception_3b/pool -> inception_3b/pool
I0403 15:09:43.722235 11662 net.cpp:141] Setting up inception_3b/pool
I0403 15:09:43.722257 11662 net.cpp:148] Top shape: 24 256 28 28 (4816896)
I0403 15:09:43.722272 11662 net.cpp:156] Memory required for data: 763479072
I0403 15:09:43.722286 11662 layer_factory.hpp:77] Creating layer inception_3b/pool_proj
I0403 15:09:43.722308 11662 net.cpp:91] Creating Layer inception_3b/pool_proj
I0403 15:09:43.722338 11662 net.cpp:425] inception_3b/pool_proj <- inception_3b/pool
I0403 15:09:43.722362 11662 net.cpp:399] inception_3b/pool_proj -> inception_3b/pool_proj
I0403 15:09:43.723404 11662 net.cpp:141] Setting up inception_3b/pool_proj
I0403 15:09:43.723431 11662 net.cpp:148] Top shape: 24 64 28 28 (1204224)
I0403 15:09:43.723446 11662 net.cpp:156] Memory required for data: 768295968
I0403 15:09:43.723464 11662 layer_factory.hpp:77] Creating layer inception_3b/relu_pool_proj
I0403 15:09:43.723481 11662 net.cpp:91] Creating Layer inception_3b/relu_pool_proj
I0403 15:09:43.723497 11662 net.cpp:425] inception_3b/relu_pool_proj <- inception_3b/pool_proj
I0403 15:09:43.723516 11662 net.cpp:386] inception_3b/relu_pool_proj -> inception_3b/pool_proj (in-place)
I0403 15:09:43.723907 11662 net.cpp:141] Setting up inception_3b/relu_pool_proj
I0403 15:09:43.723935 11662 net.cpp:148] Top shape: 24 64 28 28 (1204224)
I0403 15:09:43.723951 11662 net.cpp:156] Memory required for data: 773112864
I0403 15:09:43.723966 11662 layer_factory.hpp:77] Creating layer inception_3b/output
I0403 15:09:43.723983 11662 net.cpp:91] Creating Layer inception_3b/output
I0403 15:09:43.723999 11662 net.cpp:425] inception_3b/output <- inception_3b/1x1
I0403 15:09:43.724014 11662 net.cpp:425] inception_3b/output <- inception_3b/3x3
I0403 15:09:43.724030 11662 net.cpp:425] inception_3b/output <- inception_3b/5x5
I0403 15:09:43.724045 11662 net.cpp:425] inception_3b/output <- inception_3b/pool_proj
I0403 15:09:43.724063 11662 net.cpp:399] inception_3b/output -> inception_3b/output
I0403 15:09:43.724107 11662 net.cpp:141] Setting up inception_3b/output
I0403 15:09:43.724131 11662 net.cpp:148] Top shape: 24 480 28 28 (9031680)
I0403 15:09:43.724146 11662 net.cpp:156] Memory required for data: 809239584
I0403 15:09:43.724160 11662 layer_factory.hpp:77] Creating layer pool3/3x3_s2
I0403 15:09:43.724179 11662 net.cpp:91] Creating Layer pool3/3x3_s2
I0403 15:09:43.724195 11662 net.cpp:425] pool3/3x3_s2 <- inception_3b/output
I0403 15:09:43.724227 11662 net.cpp:399] pool3/3x3_s2 -> pool3/3x3_s2
I0403 15:09:43.724287 11662 net.cpp:141] Setting up pool3/3x3_s2
I0403 15:09:43.724309 11662 net.cpp:148] Top shape: 24 480 14 14 (2257920)
I0403 15:09:43.724333 11662 net.cpp:156] Memory required for data: 818271264
I0403 15:09:43.724346 11662 layer_factory.hpp:77] Creating layer pool3/3x3_s2_pool3/3x3_s2_0_split
I0403 15:09:43.724364 11662 net.cpp:91] Creating Layer pool3/3x3_s2_pool3/3x3_s2_0_split
I0403 15:09:43.724378 11662 net.cpp:425] pool3/3x3_s2_pool3/3x3_s2_0_split <- pool3/3x3_s2
I0403 15:09:43.724397 11662 net.cpp:399] pool3/3x3_s2_pool3/3x3_s2_0_split -> pool3/3x3_s2_pool3/3x3_s2_0_split_0
I0403 15:09:43.724416 11662 net.cpp:399] pool3/3x3_s2_pool3/3x3_s2_0_split -> pool3/3x3_s2_pool3/3x3_s2_0_split_1
I0403 15:09:43.724436 11662 net.cpp:399] pool3/3x3_s2_pool3/3x3_s2_0_split -> pool3/3x3_s2_pool3/3x3_s2_0_split_2
I0403 15:09:43.724453 11662 net.cpp:399] pool3/3x3_s2_pool3/3x3_s2_0_split -> pool3/3x3_s2_pool3/3x3_s2_0_split_3
I0403 15:09:43.724529 11662 net.cpp:141] Setting up pool3/3x3_s2_pool3/3x3_s2_0_split
I0403 15:09:43.724550 11662 net.cpp:148] Top shape: 24 480 14 14 (2257920)
I0403 15:09:43.724566 11662 net.cpp:148] Top shape: 24 480 14 14 (2257920)
I0403 15:09:43.724581 11662 net.cpp:148] Top shape: 24 480 14 14 (2257920)
I0403 15:09:43.724596 11662 net.cpp:148] Top shape: 24 480 14 14 (2257920)
I0403 15:09:43.724609 11662 net.cpp:156] Memory required for data: 854397984
I0403 15:09:43.724622 11662 layer_factory.hpp:77] Creating layer inception_4a/1x1
I0403 15:09:43.724644 11662 net.cpp:91] Creating Layer inception_4a/1x1
I0403 15:09:43.724660 11662 net.cpp:425] inception_4a/1x1 <- pool3/3x3_s2_pool3/3x3_s2_0_split_0
I0403 15:09:43.724681 11662 net.cpp:399] inception_4a/1x1 -> inception_4a/1x1
I0403 15:09:43.726232 11662 net.cpp:141] Setting up inception_4a/1x1
I0403 15:09:43.726258 11662 net.cpp:148] Top shape: 24 192 14 14 (903168)
I0403 15:09:43.726274 11662 net.cpp:156] Memory required for data: 858010656
I0403 15:09:43.726292 11662 layer_factory.hpp:77] Creating layer inception_4a/relu_1x1
I0403 15:09:43.726310 11662 net.cpp:91] Creating Layer inception_4a/relu_1x1
I0403 15:09:43.726332 11662 net.cpp:425] inception_4a/relu_1x1 <- inception_4a/1x1
I0403 15:09:43.726352 11662 net.cpp:386] inception_4a/relu_1x1 -> inception_4a/1x1 (in-place)
I0403 15:09:43.726527 11662 net.cpp:141] Setting up inception_4a/relu_1x1
I0403 15:09:43.726552 11662 net.cpp:148] Top shape: 24 192 14 14 (903168)
I0403 15:09:43.726567 11662 net.cpp:156] Memory required for data: 861623328
I0403 15:09:43.726580 11662 layer_factory.hpp:77] Creating layer inception_4a/3x3_reduce
I0403 15:09:43.726601 11662 net.cpp:91] Creating Layer inception_4a/3x3_reduce
I0403 15:09:43.726619 11662 net.cpp:425] inception_4a/3x3_reduce <- pool3/3x3_s2_pool3/3x3_s2_0_split_1
I0403 15:09:43.726639 11662 net.cpp:399] inception_4a/3x3_reduce -> inception_4a/3x3_reduce
I0403 15:09:43.727958 11662 net.cpp:141] Setting up inception_4a/3x3_reduce
I0403 15:09:43.727987 11662 net.cpp:148] Top shape: 24 96 14 14 (451584)
I0403 15:09:43.728003 11662 net.cpp:156] Memory required for data: 863429664
I0403 15:09:43.728026 11662 layer_factory.hpp:77] Creating layer inception_4a/relu_3x3_reduce
I0403 15:09:43.728047 11662 net.cpp:91] Creating Layer inception_4a/relu_3x3_reduce
I0403 15:09:43.728063 11662 net.cpp:425] inception_4a/relu_3x3_reduce <- inception_4a/3x3_reduce
I0403 15:09:43.728083 11662 net.cpp:386] inception_4a/relu_3x3_reduce -> inception_4a/3x3_reduce (in-place)
I0403 15:09:43.728260 11662 net.cpp:141] Setting up inception_4a/relu_3x3_reduce
I0403 15:09:43.728286 11662 net.cpp:148] Top shape: 24 96 14 14 (451584)
I0403 15:09:43.728299 11662 net.cpp:156] Memory required for data: 865236000
I0403 15:09:43.728315 11662 layer_factory.hpp:77] Creating layer inception_4a/3x3
I0403 15:09:43.728346 11662 net.cpp:91] Creating Layer inception_4a/3x3
I0403 15:09:43.728364 11662 net.cpp:425] inception_4a/3x3 <- inception_4a/3x3_reduce
I0403 15:09:43.728386 11662 net.cpp:399] inception_4a/3x3 -> inception_4a/3x3
I0403 15:09:43.731084 11662 net.cpp:141] Setting up inception_4a/3x3
I0403 15:09:43.731112 11662 net.cpp:148] Top shape: 24 208 14 14 (978432)
I0403 15:09:43.731127 11662 net.cpp:156] Memory required for data: 869149728
I0403 15:09:43.731145 11662 layer_factory.hpp:77] Creating layer inception_4a/relu_3x3
I0403 15:09:43.731165 11662 net.cpp:91] Creating Layer inception_4a/relu_3x3
I0403 15:09:43.731181 11662 net.cpp:425] inception_4a/relu_3x3 <- inception_4a/3x3
I0403 15:09:43.731199 11662 net.cpp:386] inception_4a/relu_3x3 -> inception_4a/3x3 (in-place)
I0403 15:09:43.731487 11662 net.cpp:141] Setting up inception_4a/relu_3x3
I0403 15:09:43.731513 11662 net.cpp:148] Top shape: 24 208 14 14 (978432)
I0403 15:09:43.731528 11662 net.cpp:156] Memory required for data: 873063456
I0403 15:09:43.731542 11662 layer_factory.hpp:77] Creating layer inception_4a/5x5_reduce
I0403 15:09:43.731565 11662 net.cpp:91] Creating Layer inception_4a/5x5_reduce
I0403 15:09:43.731585 11662 net.cpp:425] inception_4a/5x5_reduce <- pool3/3x3_s2_pool3/3x3_s2_0_split_2
I0403 15:09:43.731607 11662 net.cpp:399] inception_4a/5x5_reduce -> inception_4a/5x5_reduce
I0403 15:09:43.732671 11662 net.cpp:141] Setting up inception_4a/5x5_reduce
I0403 15:09:43.732702 11662 net.cpp:148] Top shape: 24 16 14 14 (75264)
I0403 15:09:43.732717 11662 net.cpp:156] Memory required for data: 873364512
I0403 15:09:43.732736 11662 layer_factory.hpp:77] Creating layer inception_4a/relu_5x5_reduce
I0403 15:09:43.732758 11662 net.cpp:91] Creating Layer inception_4a/relu_5x5_reduce
I0403 15:09:43.732774 11662 net.cpp:425] inception_4a/relu_5x5_reduce <- inception_4a/5x5_reduce
I0403 15:09:43.732791 11662 net.cpp:386] inception_4a/relu_5x5_reduce -> inception_4a/5x5_reduce (in-place)
I0403 15:09:43.732971 11662 net.cpp:141] Setting up inception_4a/relu_5x5_reduce
I0403 15:09:43.732997 11662 net.cpp:148] Top shape: 24 16 14 14 (75264)
I0403 15:09:43.733012 11662 net.cpp:156] Memory required for data: 873665568
I0403 15:09:43.733027 11662 layer_factory.hpp:77] Creating layer inception_4a/5x5
I0403 15:09:43.733050 11662 net.cpp:91] Creating Layer inception_4a/5x5
I0403 15:09:43.733067 11662 net.cpp:425] inception_4a/5x5 <- inception_4a/5x5_reduce
I0403 15:09:43.733088 11662 net.cpp:399] inception_4a/5x5 -> inception_4a/5x5
I0403 15:09:43.734194 11662 net.cpp:141] Setting up inception_4a/5x5
I0403 15:09:43.734226 11662 net.cpp:148] Top shape: 24 48 14 14 (225792)
I0403 15:09:43.734243 11662 net.cpp:156] Memory required for data: 874568736
I0403 15:09:43.734262 11662 layer_factory.hpp:77] Creating layer inception_4a/relu_5x5
I0403 15:09:43.734280 11662 net.cpp:91] Creating Layer inception_4a/relu_5x5
I0403 15:09:43.734297 11662 net.cpp:425] inception_4a/relu_5x5 <- inception_4a/5x5
I0403 15:09:43.734321 11662 net.cpp:386] inception_4a/relu_5x5 -> inception_4a/5x5 (in-place)
I0403 15:09:43.734503 11662 net.cpp:141] Setting up inception_4a/relu_5x5
I0403 15:09:43.734530 11662 net.cpp:148] Top shape: 24 48 14 14 (225792)
I0403 15:09:43.734544 11662 net.cpp:156] Memory required for data: 875471904
I0403 15:09:43.734558 11662 layer_factory.hpp:77] Creating layer inception_4a/pool
I0403 15:09:43.734576 11662 net.cpp:91] Creating Layer inception_4a/pool
I0403 15:09:43.734593 11662 net.cpp:425] inception_4a/pool <- pool3/3x3_s2_pool3/3x3_s2_0_split_3
I0403 15:09:43.734614 11662 net.cpp:399] inception_4a/pool -> inception_4a/pool
I0403 15:09:43.734679 11662 net.cpp:141] Setting up inception_4a/pool
I0403 15:09:43.734704 11662 net.cpp:148] Top shape: 24 480 14 14 (2257920)
I0403 15:09:43.734719 11662 net.cpp:156] Memory required for data: 884503584
I0403 15:09:43.734733 11662 layer_factory.hpp:77] Creating layer inception_4a/pool_proj
I0403 15:09:43.734755 11662 net.cpp:91] Creating Layer inception_4a/pool_proj
I0403 15:09:43.734772 11662 net.cpp:425] inception_4a/pool_proj <- inception_4a/pool
I0403 15:09:43.734793 11662 net.cpp:399] inception_4a/pool_proj -> inception_4a/pool_proj
I0403 15:09:43.735980 11662 net.cpp:141] Setting up inception_4a/pool_proj
I0403 15:09:43.736009 11662 net.cpp:148] Top shape: 24 64 14 14 (301056)
I0403 15:09:43.736040 11662 net.cpp:156] Memory required for data: 885707808
I0403 15:09:43.736060 11662 layer_factory.hpp:77] Creating layer inception_4a/relu_pool_proj
I0403 15:09:43.736081 11662 net.cpp:91] Creating Layer inception_4a/relu_pool_proj
I0403 15:09:43.736099 11662 net.cpp:425] inception_4a/relu_pool_proj <- inception_4a/pool_proj
I0403 15:09:43.736116 11662 net.cpp:386] inception_4a/relu_pool_proj -> inception_4a/pool_proj (in-place)
I0403 15:09:43.736409 11662 net.cpp:141] Setting up inception_4a/relu_pool_proj
I0403 15:09:43.736435 11662 net.cpp:148] Top shape: 24 64 14 14 (301056)
I0403 15:09:43.736451 11662 net.cpp:156] Memory required for data: 886912032
I0403 15:09:43.736466 11662 layer_factory.hpp:77] Creating layer inception_4a/output
I0403 15:09:43.736485 11662 net.cpp:91] Creating Layer inception_4a/output
I0403 15:09:43.736500 11662 net.cpp:425] inception_4a/output <- inception_4a/1x1
I0403 15:09:43.736515 11662 net.cpp:425] inception_4a/output <- inception_4a/3x3
I0403 15:09:43.736531 11662 net.cpp:425] inception_4a/output <- inception_4a/5x5
I0403 15:09:43.736546 11662 net.cpp:425] inception_4a/output <- inception_4a/pool_proj
I0403 15:09:43.736565 11662 net.cpp:399] inception_4a/output -> inception_4a/output
I0403 15:09:43.736611 11662 net.cpp:141] Setting up inception_4a/output
I0403 15:09:43.736639 11662 net.cpp:148] Top shape: 24 512 14 14 (2408448)
I0403 15:09:43.736654 11662 net.cpp:156] Memory required for data: 896545824
I0403 15:09:43.736668 11662 layer_factory.hpp:77] Creating layer inception_4a/output_inception_4a/output_0_split
I0403 15:09:43.736686 11662 net.cpp:91] Creating Layer inception_4a/output_inception_4a/output_0_split
I0403 15:09:43.736701 11662 net.cpp:425] inception_4a/output_inception_4a/output_0_split <- inception_4a/output
I0403 15:09:43.736732 11662 net.cpp:399] inception_4a/output_inception_4a/output_0_split -> inception_4a/output_inception_4a/output_0_split_0
I0403 15:09:43.736754 11662 net.cpp:399] inception_4a/output_inception_4a/output_0_split -> inception_4a/output_inception_4a/output_0_split_1
I0403 15:09:43.736774 11662 net.cpp:399] inception_4a/output_inception_4a/output_0_split -> inception_4a/output_inception_4a/output_0_split_2
I0403 15:09:43.736794 11662 net.cpp:399] inception_4a/output_inception_4a/output_0_split -> inception_4a/output_inception_4a/output_0_split_3
I0403 15:09:43.736814 11662 net.cpp:399] inception_4a/output_inception_4a/output_0_split -> inception_4a/output_inception_4a/output_0_split_4
I0403 15:09:43.736909 11662 net.cpp:141] Setting up inception_4a/output_inception_4a/output_0_split
I0403 15:09:43.736932 11662 net.cpp:148] Top shape: 24 512 14 14 (2408448)
I0403 15:09:43.736949 11662 net.cpp:148] Top shape: 24 512 14 14 (2408448)
I0403 15:09:43.736964 11662 net.cpp:148] Top shape: 24 512 14 14 (2408448)
I0403 15:09:43.736980 11662 net.cpp:148] Top shape: 24 512 14 14 (2408448)
I0403 15:09:43.736995 11662 net.cpp:148] Top shape: 24 512 14 14 (2408448)
I0403 15:09:43.737010 11662 net.cpp:156] Memory required for data: 944714784
I0403 15:09:43.737023 11662 layer_factory.hpp:77] Creating layer loss1/ave_pool
I0403 15:09:43.737043 11662 net.cpp:91] Creating Layer loss1/ave_pool
I0403 15:09:43.737061 11662 net.cpp:425] loss1/ave_pool <- inception_4a/output_inception_4a/output_0_split_0
I0403 15:09:43.737078 11662 net.cpp:399] loss1/ave_pool -> loss1/ave_pool
I0403 15:09:43.737285 11662 net.cpp:141] Setting up loss1/ave_pool
I0403 15:09:43.737311 11662 net.cpp:148] Top shape: 24 512 4 4 (196608)
I0403 15:09:43.737334 11662 net.cpp:156] Memory required for data: 945501216
I0403 15:09:43.737349 11662 layer_factory.hpp:77] Creating layer loss1/conv
I0403 15:09:43.737372 11662 net.cpp:91] Creating Layer loss1/conv
I0403 15:09:43.737390 11662 net.cpp:425] loss1/conv <- loss1/ave_pool
I0403 15:09:43.737411 11662 net.cpp:399] loss1/conv -> loss1/conv
I0403 15:09:43.738847 11662 net.cpp:141] Setting up loss1/conv
I0403 15:09:43.738876 11662 net.cpp:148] Top shape: 24 128 4 4 (49152)
I0403 15:09:43.738905 11662 net.cpp:156] Memory required for data: 945697824
I0403 15:09:43.738925 11662 layer_factory.hpp:77] Creating layer loss1/relu_conv
I0403 15:09:43.738945 11662 net.cpp:91] Creating Layer loss1/relu_conv
I0403 15:09:43.738962 11662 net.cpp:425] loss1/relu_conv <- loss1/conv
I0403 15:09:43.738979 11662 net.cpp:386] loss1/relu_conv -> loss1/conv (in-place)
I0403 15:09:43.739264 11662 net.cpp:141] Setting up loss1/relu_conv
I0403 15:09:43.739289 11662 net.cpp:148] Top shape: 24 128 4 4 (49152)
I0403 15:09:43.739305 11662 net.cpp:156] Memory required for data: 945894432
I0403 15:09:43.739328 11662 layer_factory.hpp:77] Creating layer loss1/fc
I0403 15:09:43.739356 11662 net.cpp:91] Creating Layer loss1/fc
I0403 15:09:43.739375 11662 net.cpp:425] loss1/fc <- loss1/conv
I0403 15:09:43.739397 11662 net.cpp:399] loss1/fc -> loss1/fc
I0403 15:09:43.757506 11662 net.cpp:141] Setting up loss1/fc
I0403 15:09:43.757542 11662 net.cpp:148] Top shape: 24 1024 (24576)
I0403 15:09:43.757558 11662 net.cpp:156] Memory required for data: 945992736
I0403 15:09:43.757578 11662 layer_factory.hpp:77] Creating layer loss1/relu_fc
I0403 15:09:43.757597 11662 net.cpp:91] Creating Layer loss1/relu_fc
I0403 15:09:43.757613 11662 net.cpp:425] loss1/relu_fc <- loss1/fc
I0403 15:09:43.757635 11662 net.cpp:386] loss1/relu_fc -> loss1/fc (in-place)
I0403 15:09:43.757820 11662 net.cpp:141] Setting up loss1/relu_fc
I0403 15:09:43.757846 11662 net.cpp:148] Top shape: 24 1024 (24576)
I0403 15:09:43.757861 11662 net.cpp:156] Memory required for data: 946091040
I0403 15:09:43.757877 11662 layer_factory.hpp:77] Creating layer loss1/drop_fc
I0403 15:09:43.757906 11662 net.cpp:91] Creating Layer loss1/drop_fc
I0403 15:09:43.757923 11662 net.cpp:425] loss1/drop_fc <- loss1/fc
I0403 15:09:43.757941 11662 net.cpp:386] loss1/drop_fc -> loss1/fc (in-place)
I0403 15:09:43.757992 11662 net.cpp:141] Setting up loss1/drop_fc
I0403 15:09:43.758016 11662 net.cpp:148] Top shape: 24 1024 (24576)
I0403 15:09:43.758030 11662 net.cpp:156] Memory required for data: 946189344
I0403 15:09:43.758044 11662 layer_factory.hpp:77] Creating layer loss1/classifier_plantvillage
I0403 15:09:43.758062 11662 net.cpp:91] Creating Layer loss1/classifier_plantvillage
I0403 15:09:43.758079 11662 net.cpp:425] loss1/classifier_plantvillage <- loss1/fc
I0403 15:09:43.758100 11662 net.cpp:399] loss1/classifier_plantvillage -> loss1/classifier_plantvillage
I0403 15:09:43.759001 11662 net.cpp:141] Setting up loss1/classifier_plantvillage
I0403 15:09:43.759028 11662 net.cpp:148] Top shape: 24 38 (912)
I0403 15:09:43.759043 11662 net.cpp:156] Memory required for data: 946192992
I0403 15:09:43.759062 11662 layer_factory.hpp:77] Creating layer loss1/classifier_plantvillage_loss1/classifier_plantvillage_0_split
I0403 15:09:43.759081 11662 net.cpp:91] Creating Layer loss1/classifier_plantvillage_loss1/classifier_plantvillage_0_split
I0403 15:09:43.759098 11662 net.cpp:425] loss1/classifier_plantvillage_loss1/classifier_plantvillage_0_split <- loss1/classifier_plantvillage
I0403 15:09:43.759114 11662 net.cpp:399] loss1/classifier_plantvillage_loss1/classifier_plantvillage_0_split -> loss1/classifier_plantvillage_loss1/classifier_plantvillage_0_split_0
I0403 15:09:43.759135 11662 net.cpp:399] loss1/classifier_plantvillage_loss1/classifier_plantvillage_0_split -> loss1/classifier_plantvillage_loss1/classifier_plantvillage_0_split_1
I0403 15:09:43.759153 11662 net.cpp:399] loss1/classifier_plantvillage_loss1/classifier_plantvillage_0_split -> loss1/classifier_plantvillage_loss1/classifier_plantvillage_0_split_2
I0403 15:09:43.759220 11662 net.cpp:141] Setting up loss1/classifier_plantvillage_loss1/classifier_plantvillage_0_split
I0403 15:09:43.759243 11662 net.cpp:148] Top shape: 24 38 (912)
I0403 15:09:43.759258 11662 net.cpp:148] Top shape: 24 38 (912)
I0403 15:09:43.759274 11662 net.cpp:148] Top shape: 24 38 (912)
I0403 15:09:43.759287 11662 net.cpp:156] Memory required for data: 946203936
I0403 15:09:43.759301 11662 layer_factory.hpp:77] Creating layer inception_4b/1x1
I0403 15:09:43.759330 11662 net.cpp:91] Creating Layer inception_4b/1x1
I0403 15:09:43.759361 11662 net.cpp:425] inception_4b/1x1 <- inception_4a/output_inception_4a/output_0_split_1
I0403 15:09:43.759380 11662 net.cpp:399] inception_4b/1x1 -> inception_4b/1x1
I0403 15:09:43.761018 11662 net.cpp:141] Setting up inception_4b/1x1
I0403 15:09:43.761046 11662 net.cpp:148] Top shape: 24 160 14 14 (752640)
I0403 15:09:43.761062 11662 net.cpp:156] Memory required for data: 949214496
I0403 15:09:43.761080 11662 layer_factory.hpp:77] Creating layer inception_4b/relu_1x1
I0403 15:09:43.761101 11662 net.cpp:91] Creating Layer inception_4b/relu_1x1
I0403 15:09:43.761118 11662 net.cpp:425] inception_4b/relu_1x1 <- inception_4b/1x1
I0403 15:09:43.761137 11662 net.cpp:386] inception_4b/relu_1x1 -> inception_4b/1x1 (in-place)
I0403 15:09:43.761315 11662 net.cpp:141] Setting up inception_4b/relu_1x1
I0403 15:09:43.761346 11662 net.cpp:148] Top shape: 24 160 14 14 (752640)
I0403 15:09:43.761361 11662 net.cpp:156] Memory required for data: 952225056
I0403 15:09:43.761376 11662 layer_factory.hpp:77] Creating layer inception_4b/3x3_reduce
I0403 15:09:43.761399 11662 net.cpp:91] Creating Layer inception_4b/3x3_reduce
I0403 15:09:43.761415 11662 net.cpp:425] inception_4b/3x3_reduce <- inception_4a/output_inception_4a/output_0_split_2
I0403 15:09:43.761436 11662 net.cpp:399] inception_4b/3x3_reduce -> inception_4b/3x3_reduce
I0403 15:09:43.762790 11662 net.cpp:141] Setting up inception_4b/3x3_reduce
I0403 15:09:43.762822 11662 net.cpp:148] Top shape: 24 112 14 14 (526848)
I0403 15:09:43.762838 11662 net.cpp:156] Memory required for data: 954332448
I0403 15:09:43.762856 11662 layer_factory.hpp:77] Creating layer inception_4b/relu_3x3_reduce
I0403 15:09:43.762874 11662 net.cpp:91] Creating Layer inception_4b/relu_3x3_reduce
I0403 15:09:43.762890 11662 net.cpp:425] inception_4b/relu_3x3_reduce <- inception_4b/3x3_reduce
I0403 15:09:43.762910 11662 net.cpp:386] inception_4b/relu_3x3_reduce -> inception_4b/3x3_reduce (in-place)
I0403 15:09:43.763193 11662 net.cpp:141] Setting up inception_4b/relu_3x3_reduce
I0403 15:09:43.763221 11662 net.cpp:148] Top shape: 24 112 14 14 (526848)
I0403 15:09:43.763237 11662 net.cpp:156] Memory required for data: 956439840
I0403 15:09:43.763252 11662 layer_factory.hpp:77] Creating layer inception_4b/3x3
I0403 15:09:43.763274 11662 net.cpp:91] Creating Layer inception_4b/3x3
I0403 15:09:43.763293 11662 net.cpp:425] inception_4b/3x3 <- inception_4b/3x3_reduce
I0403 15:09:43.763310 11662 net.cpp:399] inception_4b/3x3 -> inception_4b/3x3
I0403 15:09:43.766350 11662 net.cpp:141] Setting up inception_4b/3x3
I0403 15:09:43.766381 11662 net.cpp:148] Top shape: 24 224 14 14 (1053696)
I0403 15:09:43.766396 11662 net.cpp:156] Memory required for data: 960654624
I0403 15:09:43.766414 11662 layer_factory.hpp:77] Creating layer inception_4b/relu_3x3
I0403 15:09:43.766433 11662 net.cpp:91] Creating Layer inception_4b/relu_3x3
I0403 15:09:43.766449 11662 net.cpp:425] inception_4b/relu_3x3 <- inception_4b/3x3
I0403 15:09:43.766469 11662 net.cpp:386] inception_4b/relu_3x3 -> inception_4b/3x3 (in-place)
I0403 15:09:43.766657 11662 net.cpp:141] Setting up inception_4b/relu_3x3
I0403 15:09:43.766682 11662 net.cpp:148] Top shape: 24 224 14 14 (1053696)
I0403 15:09:43.766697 11662 net.cpp:156] Memory required for data: 964869408
I0403 15:09:43.766712 11662 layer_factory.hpp:77] Creating layer inception_4b/5x5_reduce
I0403 15:09:43.766736 11662 net.cpp:91] Creating Layer inception_4b/5x5_reduce
I0403 15:09:43.766753 11662 net.cpp:425] inception_4b/5x5_reduce <- inception_4a/output_inception_4a/output_0_split_3
I0403 15:09:43.766774 11662 net.cpp:399] inception_4b/5x5_reduce -> inception_4b/5x5_reduce
I0403 15:09:43.767881 11662 net.cpp:141] Setting up inception_4b/5x5_reduce
I0403 15:09:43.767912 11662 net.cpp:148] Top shape: 24 24 14 14 (112896)
I0403 15:09:43.767928 11662 net.cpp:156] Memory required for data: 965320992
I0403 15:09:43.767947 11662 layer_factory.hpp:77] Creating layer inception_4b/relu_5x5_reduce
I0403 15:09:43.767966 11662 net.cpp:91] Creating Layer inception_4b/relu_5x5_reduce
I0403 15:09:43.767997 11662 net.cpp:425] inception_4b/relu_5x5_reduce <- inception_4b/5x5_reduce
I0403 15:09:43.768016 11662 net.cpp:386] inception_4b/relu_5x5_reduce -> inception_4b/5x5_reduce (in-place)
I0403 15:09:43.768205 11662 net.cpp:141] Setting up inception_4b/relu_5x5_reduce
I0403 15:09:43.768231 11662 net.cpp:148] Top shape: 24 24 14 14 (112896)
I0403 15:09:43.768245 11662 net.cpp:156] Memory required for data: 965772576
I0403 15:09:43.768260 11662 layer_factory.hpp:77] Creating layer inception_4b/5x5
I0403 15:09:43.768283 11662 net.cpp:91] Creating Layer inception_4b/5x5
I0403 15:09:43.768301 11662 net.cpp:425] inception_4b/5x5 <- inception_4b/5x5_reduce
I0403 15:09:43.768327 11662 net.cpp:399] inception_4b/5x5 -> inception_4b/5x5
I0403 15:09:43.769588 11662 net.cpp:141] Setting up inception_4b/5x5
I0403 15:09:43.769616 11662 net.cpp:148] Top shape: 24 64 14 14 (301056)
I0403 15:09:43.769632 11662 net.cpp:156] Memory required for data: 966976800
I0403 15:09:43.769650 11662 layer_factory.hpp:77] Creating layer inception_4b/relu_5x5
I0403 15:09:43.769673 11662 net.cpp:91] Creating Layer inception_4b/relu_5x5
I0403 15:09:43.769690 11662 net.cpp:425] inception_4b/relu_5x5 <- inception_4b/5x5
I0403 15:09:43.769709 11662 net.cpp:386] inception_4b/relu_5x5 -> inception_4b/5x5 (in-place)
I0403 15:09:43.769999 11662 net.cpp:141] Setting up inception_4b/relu_5x5
I0403 15:09:43.770025 11662 net.cpp:148] Top shape: 24 64 14 14 (301056)
I0403 15:09:43.770040 11662 net.cpp:156] Memory required for data: 968181024
I0403 15:09:43.770056 11662 layer_factory.hpp:77] Creating layer inception_4b/pool
I0403 15:09:43.770078 11662 net.cpp:91] Creating Layer inception_4b/pool
I0403 15:09:43.770097 11662 net.cpp:425] inception_4b/pool <- inception_4a/output_inception_4a/output_0_split_4
I0403 15:09:43.770114 11662 net.cpp:399] inception_4b/pool -> inception_4b/pool
I0403 15:09:43.770180 11662 net.cpp:141] Setting up inception_4b/pool
I0403 15:09:43.770205 11662 net.cpp:148] Top shape: 24 512 14 14 (2408448)
I0403 15:09:43.770220 11662 net.cpp:156] Memory required for data: 977814816
I0403 15:09:43.770234 11662 layer_factory.hpp:77] Creating layer inception_4b/pool_proj
I0403 15:09:43.770256 11662 net.cpp:91] Creating Layer inception_4b/pool_proj
I0403 15:09:43.770273 11662 net.cpp:425] inception_4b/pool_proj <- inception_4b/pool
I0403 15:09:43.770294 11662 net.cpp:399] inception_4b/pool_proj -> inception_4b/pool_proj
I0403 15:09:43.771525 11662 net.cpp:141] Setting up inception_4b/pool_proj
I0403 15:09:43.771553 11662 net.cpp:148] Top shape: 24 64 14 14 (301056)
I0403 15:09:43.771569 11662 net.cpp:156] Memory required for data: 979019040
I0403 15:09:43.771587 11662 layer_factory.hpp:77] Creating layer inception_4b/relu_pool_proj
I0403 15:09:43.771608 11662 net.cpp:91] Creating Layer inception_4b/relu_pool_proj
I0403 15:09:43.771625 11662 net.cpp:425] inception_4b/relu_pool_proj <- inception_4b/pool_proj
I0403 15:09:43.771642 11662 net.cpp:386] inception_4b/relu_pool_proj -> inception_4b/pool_proj (in-place)
I0403 15:09:43.771828 11662 net.cpp:141] Setting up inception_4b/relu_pool_proj
I0403 15:09:43.771853 11662 net.cpp:148] Top shape: 24 64 14 14 (301056)
I0403 15:09:43.771868 11662 net.cpp:156] Memory required for data: 980223264
I0403 15:09:43.771883 11662 layer_factory.hpp:77] Creating layer inception_4b/output
I0403 15:09:43.771901 11662 net.cpp:91] Creating Layer inception_4b/output
I0403 15:09:43.771916 11662 net.cpp:425] inception_4b/output <- inception_4b/1x1
I0403 15:09:43.771934 11662 net.cpp:425] inception_4b/output <- inception_4b/3x3
I0403 15:09:43.771950 11662 net.cpp:425] inception_4b/output <- inception_4b/5x5
I0403 15:09:43.771965 11662 net.cpp:425] inception_4b/output <- inception_4b/pool_proj
I0403 15:09:43.771984 11662 net.cpp:399] inception_4b/output -> inception_4b/output
I0403 15:09:43.772032 11662 net.cpp:141] Setting up inception_4b/output
I0403 15:09:43.772058 11662 net.cpp:148] Top shape: 24 512 14 14 (2408448)
I0403 15:09:43.772073 11662 net.cpp:156] Memory required for data: 989857056
I0403 15:09:43.772104 11662 layer_factory.hpp:77] Creating layer inception_4b/output_inception_4b/output_0_split
I0403 15:09:43.772121 11662 net.cpp:91] Creating Layer inception_4b/output_inception_4b/output_0_split
I0403 15:09:43.772136 11662 net.cpp:425] inception_4b/output_inception_4b/output_0_split <- inception_4b/output
I0403 15:09:43.772155 11662 net.cpp:399] inception_4b/output_inception_4b/output_0_split -> inception_4b/output_inception_4b/output_0_split_0
I0403 15:09:43.772174 11662 net.cpp:399] inception_4b/output_inception_4b/output_0_split -> inception_4b/output_inception_4b/output_0_split_1
I0403 15:09:43.772197 11662 net.cpp:399] inception_4b/output_inception_4b/output_0_split -> inception_4b/output_inception_4b/output_0_split_2
I0403 15:09:43.772219 11662 net.cpp:399] inception_4b/output_inception_4b/output_0_split -> inception_4b/output_inception_4b/output_0_split_3
I0403 15:09:43.772307 11662 net.cpp:141] Setting up inception_4b/output_inception_4b/output_0_split
I0403 15:09:43.772344 11662 net.cpp:148] Top shape: 24 512 14 14 (2408448)
I0403 15:09:43.772362 11662 net.cpp:148] Top shape: 24 512 14 14 (2408448)
I0403 15:09:43.772377 11662 net.cpp:148] Top shape: 24 512 14 14 (2408448)
I0403 15:09:43.772392 11662 net.cpp:148] Top shape: 24 512 14 14 (2408448)
I0403 15:09:43.772406 11662 net.cpp:156] Memory required for data: 1028392224
I0403 15:09:43.772421 11662 layer_factory.hpp:77] Creating layer inception_4c/1x1
I0403 15:09:43.772444 11662 net.cpp:91] Creating Layer inception_4c/1x1
I0403 15:09:43.772461 11662 net.cpp:425] inception_4c/1x1 <- inception_4b/output_inception_4b/output_0_split_0
I0403 15:09:43.772482 11662 net.cpp:399] inception_4c/1x1 -> inception_4c/1x1
I0403 15:09:43.773950 11662 net.cpp:141] Setting up inception_4c/1x1
I0403 15:09:43.773978 11662 net.cpp:148] Top shape: 24 128 14 14 (602112)
I0403 15:09:43.773994 11662 net.cpp:156] Memory required for data: 1030800672
I0403 15:09:43.774013 11662 layer_factory.hpp:77] Creating layer inception_4c/relu_1x1
I0403 15:09:43.774032 11662 net.cpp:91] Creating Layer inception_4c/relu_1x1
I0403 15:09:43.774049 11662 net.cpp:425] inception_4c/relu_1x1 <- inception_4c/1x1
I0403 15:09:43.774067 11662 net.cpp:386] inception_4c/relu_1x1 -> inception_4c/1x1 (in-place)
I0403 15:09:43.774251 11662 net.cpp:141] Setting up inception_4c/relu_1x1
I0403 15:09:43.774276 11662 net.cpp:148] Top shape: 24 128 14 14 (602112)
I0403 15:09:43.774291 11662 net.cpp:156] Memory required for data: 1033209120
I0403 15:09:43.774305 11662 layer_factory.hpp:77] Creating layer inception_4c/3x3_reduce
I0403 15:09:43.774334 11662 net.cpp:91] Creating Layer inception_4c/3x3_reduce
I0403 15:09:43.774353 11662 net.cpp:425] inception_4c/3x3_reduce <- inception_4b/output_inception_4b/output_0_split_1
I0403 15:09:43.774376 11662 net.cpp:399] inception_4c/3x3_reduce -> inception_4c/3x3_reduce
I0403 15:09:43.776552 11662 net.cpp:141] Setting up inception_4c/3x3_reduce
I0403 15:09:43.776582 11662 net.cpp:148] Top shape: 24 128 14 14 (602112)
I0403 15:09:43.776598 11662 net.cpp:156] Memory required for data: 1035617568
I0403 15:09:43.776618 11662 layer_factory.hpp:77] Creating layer inception_4c/relu_3x3_reduce
I0403 15:09:43.776638 11662 net.cpp:91] Creating Layer inception_4c/relu_3x3_reduce
I0403 15:09:43.776655 11662 net.cpp:425] inception_4c/relu_3x3_reduce <- inception_4c/3x3_reduce
I0403 15:09:43.776674 11662 net.cpp:386] inception_4c/relu_3x3_reduce -> inception_4c/3x3_reduce (in-place)
I0403 15:09:43.776968 11662 net.cpp:141] Setting up inception_4c/relu_3x3_reduce
I0403 15:09:43.776995 11662 net.cpp:148] Top shape: 24 128 14 14 (602112)
I0403 15:09:43.777010 11662 net.cpp:156] Memory required for data: 1038026016
I0403 15:09:43.777025 11662 layer_factory.hpp:77] Creating layer inception_4c/3x3
I0403 15:09:43.777048 11662 net.cpp:91] Creating Layer inception_4c/3x3
I0403 15:09:43.777066 11662 net.cpp:425] inception_4c/3x3 <- inception_4c/3x3_reduce
I0403 15:09:43.777088 11662 net.cpp:399] inception_4c/3x3 -> inception_4c/3x3
I0403 15:09:43.780829 11662 net.cpp:141] Setting up inception_4c/3x3
I0403 15:09:43.780871 11662 net.cpp:148] Top shape: 24 256 14 14 (1204224)
I0403 15:09:43.780889 11662 net.cpp:156] Memory required for data: 1042842912
I0403 15:09:43.780921 11662 layer_factory.hpp:77] Creating layer inception_4c/relu_3x3
I0403 15:09:43.780944 11662 net.cpp:91] Creating Layer inception_4c/relu_3x3
I0403 15:09:43.780961 11662 net.cpp:425] inception_4c/relu_3x3 <- inception_4c/3x3
I0403 15:09:43.780979 11662 net.cpp:386] inception_4c/relu_3x3 -> inception_4c/3x3 (in-place)
I0403 15:09:43.781167 11662 net.cpp:141] Setting up inception_4c/relu_3x3
I0403 15:09:43.781195 11662 net.cpp:148] Top shape: 24 256 14 14 (1204224)
I0403 15:09:43.781211 11662 net.cpp:156] Memory required for data: 1047659808
I0403 15:09:43.781227 11662 layer_factory.hpp:77] Creating layer inception_4c/5x5_reduce
I0403 15:09:43.781251 11662 net.cpp:91] Creating Layer inception_4c/5x5_reduce
I0403 15:09:43.781270 11662 net.cpp:425] inception_4c/5x5_reduce <- inception_4b/output_inception_4b/output_0_split_2
I0403 15:09:43.781288 11662 net.cpp:399] inception_4c/5x5_reduce -> inception_4c/5x5_reduce
I0403 15:09:43.782474 11662 net.cpp:141] Setting up inception_4c/5x5_reduce
I0403 15:09:43.782506 11662 net.cpp:148] Top shape: 24 24 14 14 (112896)
I0403 15:09:43.782523 11662 net.cpp:156] Memory required for data: 1048111392
I0403 15:09:43.782543 11662 layer_factory.hpp:77] Creating layer inception_4c/relu_5x5_reduce
I0403 15:09:43.782562 11662 net.cpp:91] Creating Layer inception_4c/relu_5x5_reduce
I0403 15:09:43.782579 11662 net.cpp:425] inception_4c/relu_5x5_reduce <- inception_4c/5x5_reduce
I0403 15:09:43.782598 11662 net.cpp:386] inception_4c/relu_5x5_reduce -> inception_4c/5x5_reduce (in-place)
I0403 15:09:43.782793 11662 net.cpp:141] Setting up inception_4c/relu_5x5_reduce
I0403 15:09:43.782820 11662 net.cpp:148] Top shape: 24 24 14 14 (112896)
I0403 15:09:43.782837 11662 net.cpp:156] Memory required for data: 1048562976
I0403 15:09:43.782852 11662 layer_factory.hpp:77] Creating layer inception_4c/5x5
I0403 15:09:43.782876 11662 net.cpp:91] Creating Layer inception_4c/5x5
I0403 15:09:43.782894 11662 net.cpp:425] inception_4c/5x5 <- inception_4c/5x5_reduce
I0403 15:09:43.782915 11662 net.cpp:399] inception_4c/5x5 -> inception_4c/5x5
I0403 15:09:43.784221 11662 net.cpp:141] Setting up inception_4c/5x5
I0403 15:09:43.784250 11662 net.cpp:148] Top shape: 24 64 14 14 (301056)
I0403 15:09:43.784266 11662 net.cpp:156] Memory required for data: 1049767200
I0403 15:09:43.784286 11662 layer_factory.hpp:77] Creating layer inception_4c/relu_5x5
I0403 15:09:43.784304 11662 net.cpp:91] Creating Layer inception_4c/relu_5x5
I0403 15:09:43.784327 11662 net.cpp:425] inception_4c/relu_5x5 <- inception_4c/5x5
I0403 15:09:43.784349 11662 net.cpp:386] inception_4c/relu_5x5 -> inception_4c/5x5 (in-place)
I0403 15:09:43.784656 11662 net.cpp:141] Setting up inception_4c/relu_5x5
I0403 15:09:43.784682 11662 net.cpp:148] Top shape: 24 64 14 14 (301056)
I0403 15:09:43.784698 11662 net.cpp:156] Memory required for data: 1050971424
I0403 15:09:43.784714 11662 layer_factory.hpp:77] Creating layer inception_4c/pool
I0403 15:09:43.784734 11662 net.cpp:91] Creating Layer inception_4c/pool
I0403 15:09:43.784749 11662 net.cpp:425] inception_4c/pool <- inception_4b/output_inception_4b/output_0_split_3
I0403 15:09:43.784770 11662 net.cpp:399] inception_4c/pool -> inception_4c/pool
I0403 15:09:43.784840 11662 net.cpp:141] Setting up inception_4c/pool
I0403 15:09:43.784865 11662 net.cpp:148] Top shape: 24 512 14 14 (2408448)
I0403 15:09:43.784880 11662 net.cpp:156] Memory required for data: 1060605216
I0403 15:09:43.784895 11662 layer_factory.hpp:77] Creating layer inception_4c/pool_proj
I0403 15:09:43.784920 11662 net.cpp:91] Creating Layer inception_4c/pool_proj
I0403 15:09:43.784939 11662 net.cpp:425] inception_4c/pool_proj <- inception_4c/pool
I0403 15:09:43.784957 11662 net.cpp:399] inception_4c/pool_proj -> inception_4c/pool_proj
I0403 15:09:43.786249 11662 net.cpp:141] Setting up inception_4c/pool_proj
I0403 15:09:43.786278 11662 net.cpp:148] Top shape: 24 64 14 14 (301056)
I0403 15:09:43.786309 11662 net.cpp:156] Memory required for data: 1061809440
I0403 15:09:43.786337 11662 layer_factory.hpp:77] Creating layer inception_4c/relu_pool_proj
I0403 15:09:43.786360 11662 net.cpp:91] Creating Layer inception_4c/relu_pool_proj
I0403 15:09:43.786378 11662 net.cpp:425] inception_4c/relu_pool_proj <- inception_4c/pool_proj
I0403 15:09:43.786397 11662 net.cpp:386] inception_4c/relu_pool_proj -> inception_4c/pool_proj (in-place)
I0403 15:09:43.786592 11662 net.cpp:141] Setting up inception_4c/relu_pool_proj
I0403 15:09:43.786618 11662 net.cpp:148] Top shape: 24 64 14 14 (301056)
I0403 15:09:43.786634 11662 net.cpp:156] Memory required for data: 1063013664
I0403 15:09:43.786649 11662 layer_factory.hpp:77] Creating layer inception_4c/output
I0403 15:09:43.786667 11662 net.cpp:91] Creating Layer inception_4c/output
I0403 15:09:43.786684 11662 net.cpp:425] inception_4c/output <- inception_4c/1x1
I0403 15:09:43.786700 11662 net.cpp:425] inception_4c/output <- inception_4c/3x3
I0403 15:09:43.786718 11662 net.cpp:425] inception_4c/output <- inception_4c/5x5
I0403 15:09:43.786736 11662 net.cpp:425] inception_4c/output <- inception_4c/pool_proj
I0403 15:09:43.786754 11662 net.cpp:399] inception_4c/output -> inception_4c/output
I0403 15:09:43.786804 11662 net.cpp:141] Setting up inception_4c/output
I0403 15:09:43.786830 11662 net.cpp:148] Top shape: 24 512 14 14 (2408448)
I0403 15:09:43.786847 11662 net.cpp:156] Memory required for data: 1072647456
I0403 15:09:43.786864 11662 layer_factory.hpp:77] Creating layer inception_4c/output_inception_4c/output_0_split
I0403 15:09:43.786881 11662 net.cpp:91] Creating Layer inception_4c/output_inception_4c/output_0_split
I0403 15:09:43.786897 11662 net.cpp:425] inception_4c/output_inception_4c/output_0_split <- inception_4c/output
I0403 15:09:43.786914 11662 net.cpp:399] inception_4c/output_inception_4c/output_0_split -> inception_4c/output_inception_4c/output_0_split_0
I0403 15:09:43.786936 11662 net.cpp:399] inception_4c/output_inception_4c/output_0_split -> inception_4c/output_inception_4c/output_0_split_1
I0403 15:09:43.786957 11662 net.cpp:399] inception_4c/output_inception_4c/output_0_split -> inception_4c/output_inception_4c/output_0_split_2
I0403 15:09:43.786980 11662 net.cpp:399] inception_4c/output_inception_4c/output_0_split -> inception_4c/output_inception_4c/output_0_split_3
I0403 15:09:43.787071 11662 net.cpp:141] Setting up inception_4c/output_inception_4c/output_0_split
I0403 15:09:43.787096 11662 net.cpp:148] Top shape: 24 512 14 14 (2408448)
I0403 15:09:43.787112 11662 net.cpp:148] Top shape: 24 512 14 14 (2408448)
I0403 15:09:43.787129 11662 net.cpp:148] Top shape: 24 512 14 14 (2408448)
I0403 15:09:43.787145 11662 net.cpp:148] Top shape: 24 512 14 14 (2408448)
I0403 15:09:43.787159 11662 net.cpp:156] Memory required for data: 1111182624
I0403 15:09:43.787174 11662 layer_factory.hpp:77] Creating layer inception_4d/1x1
I0403 15:09:43.787197 11662 net.cpp:91] Creating Layer inception_4d/1x1
I0403 15:09:43.787215 11662 net.cpp:425] inception_4d/1x1 <- inception_4c/output_inception_4c/output_0_split_0
I0403 15:09:43.787237 11662 net.cpp:399] inception_4d/1x1 -> inception_4d/1x1
I0403 15:09:43.788709 11662 net.cpp:141] Setting up inception_4d/1x1
I0403 15:09:43.788739 11662 net.cpp:148] Top shape: 24 112 14 14 (526848)
I0403 15:09:43.788755 11662 net.cpp:156] Memory required for data: 1113290016
I0403 15:09:43.788774 11662 layer_factory.hpp:77] Creating layer inception_4d/relu_1x1
I0403 15:09:43.788795 11662 net.cpp:91] Creating Layer inception_4d/relu_1x1
I0403 15:09:43.788813 11662 net.cpp:425] inception_4d/relu_1x1 <- inception_4d/1x1
I0403 15:09:43.788831 11662 net.cpp:386] inception_4d/relu_1x1 -> inception_4d/1x1 (in-place)
I0403 15:09:43.789028 11662 net.cpp:141] Setting up inception_4d/relu_1x1
I0403 15:09:43.789057 11662 net.cpp:148] Top shape: 24 112 14 14 (526848)
I0403 15:09:43.789072 11662 net.cpp:156] Memory required for data: 1115397408
I0403 15:09:43.789088 11662 layer_factory.hpp:77] Creating layer inception_4d/3x3_reduce
I0403 15:09:43.789122 11662 net.cpp:91] Creating Layer inception_4d/3x3_reduce
I0403 15:09:43.789140 11662 net.cpp:425] inception_4d/3x3_reduce <- inception_4c/output_inception_4c/output_0_split_1
I0403 15:09:43.789163 11662 net.cpp:399] inception_4d/3x3_reduce -> inception_4d/3x3_reduce
I0403 15:09:43.790782 11662 net.cpp:141] Setting up inception_4d/3x3_reduce
I0403 15:09:43.790812 11662 net.cpp:148] Top shape: 24 144 14 14 (677376)
I0403 15:09:43.790828 11662 net.cpp:156] Memory required for data: 1118106912
I0403 15:09:43.790848 11662 layer_factory.hpp:77] Creating layer inception_4d/relu_3x3_reduce
I0403 15:09:43.790865 11662 net.cpp:91] Creating Layer inception_4d/relu_3x3_reduce
I0403 15:09:43.790882 11662 net.cpp:425] inception_4d/relu_3x3_reduce <- inception_4d/3x3_reduce
I0403 15:09:43.790904 11662 net.cpp:386] inception_4d/relu_3x3_reduce -> inception_4d/3x3_reduce (in-place)
I0403 15:09:43.791210 11662 net.cpp:141] Setting up inception_4d/relu_3x3_reduce
I0403 15:09:43.791236 11662 net.cpp:148] Top shape: 24 144 14 14 (677376)
I0403 15:09:43.791252 11662 net.cpp:156] Memory required for data: 1120816416
I0403 15:09:43.791268 11662 layer_factory.hpp:77] Creating layer inception_4d/3x3
I0403 15:09:43.791291 11662 net.cpp:91] Creating Layer inception_4d/3x3
I0403 15:09:43.791311 11662 net.cpp:425] inception_4d/3x3 <- inception_4d/3x3_reduce
I0403 15:09:43.791340 11662 net.cpp:399] inception_4d/3x3 -> inception_4d/3x3
I0403 15:09:43.795850 11662 net.cpp:141] Setting up inception_4d/3x3
I0403 15:09:43.795881 11662 net.cpp:148] Top shape: 24 288 14 14 (1354752)
I0403 15:09:43.795897 11662 net.cpp:156] Memory required for data: 1126235424
I0403 15:09:43.795917 11662 layer_factory.hpp:77] Creating layer inception_4d/relu_3x3
I0403 15:09:43.795938 11662 net.cpp:91] Creating Layer inception_4d/relu_3x3
I0403 15:09:43.795955 11662 net.cpp:425] inception_4d/relu_3x3 <- inception_4d/3x3
I0403 15:09:43.795974 11662 net.cpp:386] inception_4d/relu_3x3 -> inception_4d/3x3 (in-place)
I0403 15:09:43.796169 11662 net.cpp:141] Setting up inception_4d/relu_3x3
I0403 15:09:43.796197 11662 net.cpp:148] Top shape: 24 288 14 14 (1354752)
I0403 15:09:43.796213 11662 net.cpp:156] Memory required for data: 1131654432
I0403 15:09:43.796229 11662 layer_factory.hpp:77] Creating layer inception_4d/5x5_reduce
I0403 15:09:43.796252 11662 net.cpp:91] Creating Layer inception_4d/5x5_reduce
I0403 15:09:43.796270 11662 net.cpp:425] inception_4d/5x5_reduce <- inception_4c/output_inception_4c/output_0_split_2
I0403 15:09:43.796291 11662 net.cpp:399] inception_4d/5x5_reduce -> inception_4d/5x5_reduce
I0403 15:09:43.797513 11662 net.cpp:141] Setting up inception_4d/5x5_reduce
I0403 15:09:43.797543 11662 net.cpp:148] Top shape: 24 32 14 14 (150528)
I0403 15:09:43.797559 11662 net.cpp:156] Memory required for data: 1132256544
I0403 15:09:43.797579 11662 layer_factory.hpp:77] Creating layer inception_4d/relu_5x5_reduce
I0403 15:09:43.797600 11662 net.cpp:91] Creating Layer inception_4d/relu_5x5_reduce
I0403 15:09:43.797617 11662 net.cpp:425] inception_4d/relu_5x5_reduce <- inception_4d/5x5_reduce
I0403 15:09:43.797636 11662 net.cpp:386] inception_4d/relu_5x5_reduce -> inception_4d/5x5_reduce (in-place)
I0403 15:09:43.797835 11662 net.cpp:141] Setting up inception_4d/relu_5x5_reduce
I0403 15:09:43.797864 11662 net.cpp:148] Top shape: 24 32 14 14 (150528)
I0403 15:09:43.797881 11662 net.cpp:156] Memory required for data: 1132858656
I0403 15:09:43.797897 11662 layer_factory.hpp:77] Creating layer inception_4d/5x5
I0403 15:09:43.797920 11662 net.cpp:91] Creating Layer inception_4d/5x5
I0403 15:09:43.797938 11662 net.cpp:425] inception_4d/5x5 <- inception_4d/5x5_reduce
I0403 15:09:43.797958 11662 net.cpp:399] inception_4d/5x5 -> inception_4d/5x5
I0403 15:09:43.799536 11662 net.cpp:141] Setting up inception_4d/5x5
I0403 15:09:43.799567 11662 net.cpp:148] Top shape: 24 64 14 14 (301056)
I0403 15:09:43.799585 11662 net.cpp:156] Memory required for data: 1134062880
I0403 15:09:43.799604 11662 layer_factory.hpp:77] Creating layer inception_4d/relu_5x5
I0403 15:09:43.799640 11662 net.cpp:91] Creating Layer inception_4d/relu_5x5
I0403 15:09:43.799657 11662 net.cpp:425] inception_4d/relu_5x5 <- inception_4d/5x5
I0403 15:09:43.799676 11662 net.cpp:386] inception_4d/relu_5x5 -> inception_4d/5x5 (in-place)
I0403 15:09:43.799993 11662 net.cpp:141] Setting up inception_4d/relu_5x5
I0403 15:09:43.800024 11662 net.cpp:148] Top shape: 24 64 14 14 (301056)
I0403 15:09:43.800040 11662 net.cpp:156] Memory required for data: 1135267104
I0403 15:09:43.800056 11662 layer_factory.hpp:77] Creating layer inception_4d/pool
I0403 15:09:43.800076 11662 net.cpp:91] Creating Layer inception_4d/pool
I0403 15:09:43.800092 11662 net.cpp:425] inception_4d/pool <- inception_4c/output_inception_4c/output_0_split_3
I0403 15:09:43.800113 11662 net.cpp:399] inception_4d/pool -> inception_4d/pool
I0403 15:09:43.800185 11662 net.cpp:141] Setting up inception_4d/pool
I0403 15:09:43.800210 11662 net.cpp:148] Top shape: 24 512 14 14 (2408448)
I0403 15:09:43.800226 11662 net.cpp:156] Memory required for data: 1144900896
I0403 15:09:43.800241 11662 layer_factory.hpp:77] Creating layer inception_4d/pool_proj
I0403 15:09:43.800264 11662 net.cpp:91] Creating Layer inception_4d/pool_proj
I0403 15:09:43.800284 11662 net.cpp:425] inception_4d/pool_proj <- inception_4d/pool
I0403 15:09:43.800333 11662 net.cpp:399] inception_4d/pool_proj -> inception_4d/pool_proj
I0403 15:09:43.802175 11662 net.cpp:141] Setting up inception_4d/pool_proj
I0403 15:09:43.802204 11662 net.cpp:148] Top shape: 24 64 14 14 (301056)
I0403 15:09:43.802220 11662 net.cpp:156] Memory required for data: 1146105120
I0403 15:09:43.802238 11662 layer_factory.hpp:77] Creating layer inception_4d/relu_pool_proj
I0403 15:09:43.802259 11662 net.cpp:91] Creating Layer inception_4d/relu_pool_proj
I0403 15:09:43.802276 11662 net.cpp:425] inception_4d/relu_pool_proj <- inception_4d/pool_proj
I0403 15:09:43.802294 11662 net.cpp:386] inception_4d/relu_pool_proj -> inception_4d/pool_proj (in-place)
I0403 15:09:43.802495 11662 net.cpp:141] Setting up inception_4d/relu_pool_proj
I0403 15:09:43.802523 11662 net.cpp:148] Top shape: 24 64 14 14 (301056)
I0403 15:09:43.802539 11662 net.cpp:156] Memory required for data: 1147309344
I0403 15:09:43.802554 11662 layer_factory.hpp:77] Creating layer inception_4d/output
I0403 15:09:43.802572 11662 net.cpp:91] Creating Layer inception_4d/output
I0403 15:09:43.802589 11662 net.cpp:425] inception_4d/output <- inception_4d/1x1
I0403 15:09:43.802605 11662 net.cpp:425] inception_4d/output <- inception_4d/3x3
I0403 15:09:43.802623 11662 net.cpp:425] inception_4d/output <- inception_4d/5x5
I0403 15:09:43.802639 11662 net.cpp:425] inception_4d/output <- inception_4d/pool_proj
I0403 15:09:43.802655 11662 net.cpp:399] inception_4d/output -> inception_4d/output
I0403 15:09:43.802706 11662 net.cpp:141] Setting up inception_4d/output
I0403 15:09:43.802731 11662 net.cpp:148] Top shape: 24 528 14 14 (2483712)
I0403 15:09:43.802745 11662 net.cpp:156] Memory required for data: 1157244192
I0403 15:09:43.802760 11662 layer_factory.hpp:77] Creating layer inception_4d/output_inception_4d/output_0_split
I0403 15:09:43.802780 11662 net.cpp:91] Creating Layer inception_4d/output_inception_4d/output_0_split
I0403 15:09:43.802796 11662 net.cpp:425] inception_4d/output_inception_4d/output_0_split <- inception_4d/output
I0403 15:09:43.802814 11662 net.cpp:399] inception_4d/output_inception_4d/output_0_split -> inception_4d/output_inception_4d/output_0_split_0
I0403 15:09:43.802834 11662 net.cpp:399] inception_4d/output_inception_4d/output_0_split -> inception_4d/output_inception_4d/output_0_split_1
I0403 15:09:43.802855 11662 net.cpp:399] inception_4d/output_inception_4d/output_0_split -> inception_4d/output_inception_4d/output_0_split_2
I0403 15:09:43.802881 11662 net.cpp:399] inception_4d/output_inception_4d/output_0_split -> inception_4d/output_inception_4d/output_0_split_3
I0403 15:09:43.802901 11662 net.cpp:399] inception_4d/output_inception_4d/output_0_split -> inception_4d/output_inception_4d/output_0_split_4
I0403 15:09:43.803005 11662 net.cpp:141] Setting up inception_4d/output_inception_4d/output_0_split
I0403 15:09:43.803042 11662 net.cpp:148] Top shape: 24 528 14 14 (2483712)
I0403 15:09:43.803059 11662 net.cpp:148] Top shape: 24 528 14 14 (2483712)
I0403 15:09:43.803076 11662 net.cpp:148] Top shape: 24 528 14 14 (2483712)
I0403 15:09:43.803091 11662 net.cpp:148] Top shape: 24 528 14 14 (2483712)
I0403 15:09:43.803107 11662 net.cpp:148] Top shape: 24 528 14 14 (2483712)
I0403 15:09:43.803119 11662 net.cpp:156] Memory required for data: 1206918432
I0403 15:09:43.803134 11662 layer_factory.hpp:77] Creating layer loss2/ave_pool
I0403 15:09:43.803153 11662 net.cpp:91] Creating Layer loss2/ave_pool
I0403 15:09:43.803169 11662 net.cpp:425] loss2/ave_pool <- inception_4d/output_inception_4d/output_0_split_0
I0403 15:09:43.803190 11662 net.cpp:399] loss2/ave_pool -> loss2/ave_pool
I0403 15:09:43.803521 11662 net.cpp:141] Setting up loss2/ave_pool
I0403 15:09:43.803547 11662 net.cpp:148] Top shape: 24 528 4 4 (202752)
I0403 15:09:43.803562 11662 net.cpp:156] Memory required for data: 1207729440
I0403 15:09:43.803576 11662 layer_factory.hpp:77] Creating layer loss2/conv
I0403 15:09:43.803598 11662 net.cpp:91] Creating Layer loss2/conv
I0403 15:09:43.803617 11662 net.cpp:425] loss2/conv <- loss2/ave_pool
I0403 15:09:43.803637 11662 net.cpp:399] loss2/conv -> loss2/conv
I0403 15:09:43.805554 11662 net.cpp:141] Setting up loss2/conv
I0403 15:09:43.805585 11662 net.cpp:148] Top shape: 24 128 4 4 (49152)
I0403 15:09:43.805603 11662 net.cpp:156] Memory required for data: 1207926048
I0403 15:09:43.805620 11662 layer_factory.hpp:77] Creating layer loss2/relu_conv
I0403 15:09:43.805639 11662 net.cpp:91] Creating Layer loss2/relu_conv
I0403 15:09:43.805655 11662 net.cpp:425] loss2/relu_conv <- loss2/conv
I0403 15:09:43.805675 11662 net.cpp:386] loss2/relu_conv -> loss2/conv (in-place)
I0403 15:09:43.805979 11662 net.cpp:141] Setting up loss2/relu_conv
I0403 15:09:43.806007 11662 net.cpp:148] Top shape: 24 128 4 4 (49152)
I0403 15:09:43.806023 11662 net.cpp:156] Memory required for data: 1208122656
I0403 15:09:43.806038 11662 layer_factory.hpp:77] Creating layer loss2/fc
I0403 15:09:43.806057 11662 net.cpp:91] Creating Layer loss2/fc
I0403 15:09:43.806072 11662 net.cpp:425] loss2/fc <- loss2/conv
I0403 15:09:43.806094 11662 net.cpp:399] loss2/fc -> loss2/fc
I0403 15:09:43.823848 11662 net.cpp:141] Setting up loss2/fc
I0403 15:09:43.823879 11662 net.cpp:148] Top shape: 24 1024 (24576)
I0403 15:09:43.823894 11662 net.cpp:156] Memory required for data: 1208220960
I0403 15:09:43.823912 11662 layer_factory.hpp:77] Creating layer loss2/relu_fc
I0403 15:09:43.823932 11662 net.cpp:91] Creating Layer loss2/relu_fc
I0403 15:09:43.823950 11662 net.cpp:425] loss2/relu_fc <- loss2/fc
I0403 15:09:43.823966 11662 net.cpp:386] loss2/relu_fc -> loss2/fc (in-place)
I0403 15:09:43.824265 11662 net.cpp:141] Setting up loss2/relu_fc
I0403 15:09:43.824290 11662 net.cpp:148] Top shape: 24 1024 (24576)
I0403 15:09:43.824306 11662 net.cpp:156] Memory required for data: 1208319264
I0403 15:09:43.824326 11662 layer_factory.hpp:77] Creating layer loss2/drop_fc
I0403 15:09:43.824348 11662 net.cpp:91] Creating Layer loss2/drop_fc
I0403 15:09:43.824365 11662 net.cpp:425] loss2/drop_fc <- loss2/fc
I0403 15:09:43.824383 11662 net.cpp:386] loss2/drop_fc -> loss2/fc (in-place)
I0403 15:09:43.824434 11662 net.cpp:141] Setting up loss2/drop_fc
I0403 15:09:43.824456 11662 net.cpp:148] Top shape: 24 1024 (24576)
I0403 15:09:43.824471 11662 net.cpp:156] Memory required for data: 1208417568
I0403 15:09:43.824486 11662 layer_factory.hpp:77] Creating layer loss2/classifier_plantvillage
I0403 15:09:43.824503 11662 net.cpp:91] Creating Layer loss2/classifier_plantvillage
I0403 15:09:43.824518 11662 net.cpp:425] loss2/classifier_plantvillage <- loss2/fc
I0403 15:09:43.824539 11662 net.cpp:399] loss2/classifier_plantvillage -> loss2/classifier_plantvillage
I0403 15:09:43.824944 11662 net.cpp:141] Setting up loss2/classifier_plantvillage
I0403 15:09:43.824968 11662 net.cpp:148] Top shape: 24 38 (912)
I0403 15:09:43.824998 11662 net.cpp:156] Memory required for data: 1208421216
I0403 15:09:43.825017 11662 layer_factory.hpp:77] Creating layer loss2/classifier_plantvillage_loss2/classifier_plantvillage_0_split
I0403 15:09:43.825036 11662 net.cpp:91] Creating Layer loss2/classifier_plantvillage_loss2/classifier_plantvillage_0_split
I0403 15:09:43.825050 11662 net.cpp:425] loss2/classifier_plantvillage_loss2/classifier_plantvillage_0_split <- loss2/classifier_plantvillage
I0403 15:09:43.825070 11662 net.cpp:399] loss2/classifier_plantvillage_loss2/classifier_plantvillage_0_split -> loss2/classifier_plantvillage_loss2/classifier_plantvillage_0_split_0
I0403 15:09:43.825093 11662 net.cpp:399] loss2/classifier_plantvillage_loss2/classifier_plantvillage_0_split -> loss2/classifier_plantvillage_loss2/classifier_plantvillage_0_split_1
I0403 15:09:43.825111 11662 net.cpp:399] loss2/classifier_plantvillage_loss2/classifier_plantvillage_0_split -> loss2/classifier_plantvillage_loss2/classifier_plantvillage_0_split_2
I0403 15:09:43.825187 11662 net.cpp:141] Setting up loss2/classifier_plantvillage_loss2/classifier_plantvillage_0_split
I0403 15:09:43.825212 11662 net.cpp:148] Top shape: 24 38 (912)
I0403 15:09:43.825229 11662 net.cpp:148] Top shape: 24 38 (912)
I0403 15:09:43.825245 11662 net.cpp:148] Top shape: 24 38 (912)
I0403 15:09:43.825259 11662 net.cpp:156] Memory required for data: 1208432160
I0403 15:09:43.825273 11662 layer_factory.hpp:77] Creating layer inception_4e/1x1
I0403 15:09:43.825292 11662 net.cpp:91] Creating Layer inception_4e/1x1
I0403 15:09:43.825309 11662 net.cpp:425] inception_4e/1x1 <- inception_4d/output_inception_4d/output_0_split_1
I0403 15:09:43.825335 11662 net.cpp:399] inception_4e/1x1 -> inception_4e/1x1
I0403 15:09:43.827139 11662 net.cpp:141] Setting up inception_4e/1x1
I0403 15:09:43.827167 11662 net.cpp:148] Top shape: 24 256 14 14 (1204224)
I0403 15:09:43.827183 11662 net.cpp:156] Memory required for data: 1213249056
I0403 15:09:43.827201 11662 layer_factory.hpp:77] Creating layer inception_4e/relu_1x1
I0403 15:09:43.827219 11662 net.cpp:91] Creating Layer inception_4e/relu_1x1
I0403 15:09:43.827234 11662 net.cpp:425] inception_4e/relu_1x1 <- inception_4e/1x1
I0403 15:09:43.827253 11662 net.cpp:386] inception_4e/relu_1x1 -> inception_4e/1x1 (in-place)
I0403 15:09:43.827556 11662 net.cpp:141] Setting up inception_4e/relu_1x1
I0403 15:09:43.827581 11662 net.cpp:148] Top shape: 24 256 14 14 (1204224)
I0403 15:09:43.827596 11662 net.cpp:156] Memory required for data: 1218065952
I0403 15:09:43.827611 11662 layer_factory.hpp:77] Creating layer inception_4e/3x3_reduce
I0403 15:09:43.827633 11662 net.cpp:91] Creating Layer inception_4e/3x3_reduce
I0403 15:09:43.827651 11662 net.cpp:425] inception_4e/3x3_reduce <- inception_4d/output_inception_4d/output_0_split_2
I0403 15:09:43.827672 11662 net.cpp:399] inception_4e/3x3_reduce -> inception_4e/3x3_reduce
I0403 15:09:43.829785 11662 net.cpp:141] Setting up inception_4e/3x3_reduce
I0403 15:09:43.829816 11662 net.cpp:148] Top shape: 24 160 14 14 (752640)
I0403 15:09:43.829833 11662 net.cpp:156] Memory required for data: 1221076512
I0403 15:09:43.829851 11662 layer_factory.hpp:77] Creating layer inception_4e/relu_3x3_reduce
I0403 15:09:43.829869 11662 net.cpp:91] Creating Layer inception_4e/relu_3x3_reduce
I0403 15:09:43.829885 11662 net.cpp:425] inception_4e/relu_3x3_reduce <- inception_4e/3x3_reduce
I0403 15:09:43.829903 11662 net.cpp:386] inception_4e/relu_3x3_reduce -> inception_4e/3x3_reduce (in-place)
I0403 15:09:43.830087 11662 net.cpp:141] Setting up inception_4e/relu_3x3_reduce
I0403 15:09:43.830112 11662 net.cpp:148] Top shape: 24 160 14 14 (752640)
I0403 15:09:43.830127 11662 net.cpp:156] Memory required for data: 1224087072
I0403 15:09:43.830140 11662 layer_factory.hpp:77] Creating layer inception_4e/3x3
I0403 15:09:43.830163 11662 net.cpp:91] Creating Layer inception_4e/3x3
I0403 15:09:43.830179 11662 net.cpp:425] inception_4e/3x3 <- inception_4e/3x3_reduce
I0403 15:09:43.830201 11662 net.cpp:399] inception_4e/3x3 -> inception_4e/3x3
I0403 15:09:43.835342 11662 net.cpp:141] Setting up inception_4e/3x3
I0403 15:09:43.835383 11662 net.cpp:148] Top shape: 24 320 14 14 (1505280)
I0403 15:09:43.835400 11662 net.cpp:156] Memory required for data: 1230108192
I0403 15:09:43.835417 11662 layer_factory.hpp:77] Creating layer inception_4e/relu_3x3
I0403 15:09:43.835435 11662 net.cpp:91] Creating Layer inception_4e/relu_3x3
I0403 15:09:43.835453 11662 net.cpp:425] inception_4e/relu_3x3 <- inception_4e/3x3
I0403 15:09:43.835472 11662 net.cpp:386] inception_4e/relu_3x3 -> inception_4e/3x3 (in-place)
I0403 15:09:43.835775 11662 net.cpp:141] Setting up inception_4e/relu_3x3
I0403 15:09:43.835801 11662 net.cpp:148] Top shape: 24 320 14 14 (1505280)
I0403 15:09:43.835815 11662 net.cpp:156] Memory required for data: 1236129312
I0403 15:09:43.835830 11662 layer_factory.hpp:77] Creating layer inception_4e/5x5_reduce
I0403 15:09:43.835855 11662 net.cpp:91] Creating Layer inception_4e/5x5_reduce
I0403 15:09:43.835872 11662 net.cpp:425] inception_4e/5x5_reduce <- inception_4d/output_inception_4d/output_0_split_3
I0403 15:09:43.835894 11662 net.cpp:399] inception_4e/5x5_reduce -> inception_4e/5x5_reduce
I0403 15:09:43.836968 11662 net.cpp:141] Setting up inception_4e/5x5_reduce
I0403 15:09:43.836997 11662 net.cpp:148] Top shape: 24 32 14 14 (150528)
I0403 15:09:43.837014 11662 net.cpp:156] Memory required for data: 1236731424
I0403 15:09:43.837033 11662 layer_factory.hpp:77] Creating layer inception_4e/relu_5x5_reduce
I0403 15:09:43.837050 11662 net.cpp:91] Creating Layer inception_4e/relu_5x5_reduce
I0403 15:09:43.837065 11662 net.cpp:425] inception_4e/relu_5x5_reduce <- inception_4e/5x5_reduce
I0403 15:09:43.837082 11662 net.cpp:386] inception_4e/relu_5x5_reduce -> inception_4e/5x5_reduce (in-place)
I0403 15:09:43.837389 11662 net.cpp:141] Setting up inception_4e/relu_5x5_reduce
I0403 15:09:43.837419 11662 net.cpp:148] Top shape: 24 32 14 14 (150528)
I0403 15:09:43.837435 11662 net.cpp:156] Memory required for data: 1237333536
I0403 15:09:43.837450 11662 layer_factory.hpp:77] Creating layer inception_4e/5x5
I0403 15:09:43.837488 11662 net.cpp:91] Creating Layer inception_4e/5x5
I0403 15:09:43.837507 11662 net.cpp:425] inception_4e/5x5 <- inception_4e/5x5_reduce
I0403 15:09:43.837525 11662 net.cpp:399] inception_4e/5x5 -> inception_4e/5x5
I0403 15:09:43.839458 11662 net.cpp:141] Setting up inception_4e/5x5
I0403 15:09:43.839486 11662 net.cpp:148] Top shape: 24 128 14 14 (602112)
I0403 15:09:43.839503 11662 net.cpp:156] Memory required for data: 1239741984
I0403 15:09:43.839521 11662 layer_factory.hpp:77] Creating layer inception_4e/relu_5x5
I0403 15:09:43.839543 11662 net.cpp:91] Creating Layer inception_4e/relu_5x5
I0403 15:09:43.839560 11662 net.cpp:425] inception_4e/relu_5x5 <- inception_4e/5x5
I0403 15:09:43.839577 11662 net.cpp:386] inception_4e/relu_5x5 -> inception_4e/5x5 (in-place)
I0403 15:09:43.839777 11662 net.cpp:141] Setting up inception_4e/relu_5x5
I0403 15:09:43.839804 11662 net.cpp:148] Top shape: 24 128 14 14 (602112)
I0403 15:09:43.839820 11662 net.cpp:156] Memory required for data: 1242150432
I0403 15:09:43.839835 11662 layer_factory.hpp:77] Creating layer inception_4e/pool
I0403 15:09:43.839854 11662 net.cpp:91] Creating Layer inception_4e/pool
I0403 15:09:43.839869 11662 net.cpp:425] inception_4e/pool <- inception_4d/output_inception_4d/output_0_split_4
I0403 15:09:43.839890 11662 net.cpp:399] inception_4e/pool -> inception_4e/pool
I0403 15:09:43.839961 11662 net.cpp:141] Setting up inception_4e/pool
I0403 15:09:43.839984 11662 net.cpp:148] Top shape: 24 528 14 14 (2483712)
I0403 15:09:43.839999 11662 net.cpp:156] Memory required for data: 1252085280
I0403 15:09:43.840013 11662 layer_factory.hpp:77] Creating layer inception_4e/pool_proj
I0403 15:09:43.840036 11662 net.cpp:91] Creating Layer inception_4e/pool_proj
I0403 15:09:43.840054 11662 net.cpp:425] inception_4e/pool_proj <- inception_4e/pool
I0403 15:09:43.840075 11662 net.cpp:399] inception_4e/pool_proj -> inception_4e/pool_proj
I0403 15:09:43.841626 11662 net.cpp:141] Setting up inception_4e/pool_proj
I0403 15:09:43.841666 11662 net.cpp:148] Top shape: 24 128 14 14 (602112)
I0403 15:09:43.841683 11662 net.cpp:156] Memory required for data: 1254493728
I0403 15:09:43.841701 11662 layer_factory.hpp:77] Creating layer inception_4e/relu_pool_proj
I0403 15:09:43.841722 11662 net.cpp:91] Creating Layer inception_4e/relu_pool_proj
I0403 15:09:43.841739 11662 net.cpp:425] inception_4e/relu_pool_proj <- inception_4e/pool_proj
I0403 15:09:43.841758 11662 net.cpp:386] inception_4e/relu_pool_proj -> inception_4e/pool_proj (in-place)
I0403 15:09:43.842061 11662 net.cpp:141] Setting up inception_4e/relu_pool_proj
I0403 15:09:43.842087 11662 net.cpp:148] Top shape: 24 128 14 14 (602112)
I0403 15:09:43.842103 11662 net.cpp:156] Memory required for data: 1256902176
I0403 15:09:43.842118 11662 layer_factory.hpp:77] Creating layer inception_4e/output
I0403 15:09:43.842139 11662 net.cpp:91] Creating Layer inception_4e/output
I0403 15:09:43.842155 11662 net.cpp:425] inception_4e/output <- inception_4e/1x1
I0403 15:09:43.842172 11662 net.cpp:425] inception_4e/output <- inception_4e/3x3
I0403 15:09:43.842188 11662 net.cpp:425] inception_4e/output <- inception_4e/5x5
I0403 15:09:43.842205 11662 net.cpp:425] inception_4e/output <- inception_4e/pool_proj
I0403 15:09:43.842221 11662 net.cpp:399] inception_4e/output -> inception_4e/output
I0403 15:09:43.842274 11662 net.cpp:141] Setting up inception_4e/output
I0403 15:09:43.842298 11662 net.cpp:148] Top shape: 24 832 14 14 (3913728)
I0403 15:09:43.842314 11662 net.cpp:156] Memory required for data: 1272557088
I0403 15:09:43.842344 11662 layer_factory.hpp:77] Creating layer pool4/3x3_s2
I0403 15:09:43.842362 11662 net.cpp:91] Creating Layer pool4/3x3_s2
I0403 15:09:43.842378 11662 net.cpp:425] pool4/3x3_s2 <- inception_4e/output
I0403 15:09:43.842399 11662 net.cpp:399] pool4/3x3_s2 -> pool4/3x3_s2
I0403 15:09:43.842469 11662 net.cpp:141] Setting up pool4/3x3_s2
I0403 15:09:43.842496 11662 net.cpp:148] Top shape: 24 832 7 7 (978432)
I0403 15:09:43.842512 11662 net.cpp:156] Memory required for data: 1276470816
I0403 15:09:43.842526 11662 layer_factory.hpp:77] Creating layer pool4/3x3_s2_pool4/3x3_s2_0_split
I0403 15:09:43.842543 11662 net.cpp:91] Creating Layer pool4/3x3_s2_pool4/3x3_s2_0_split
I0403 15:09:43.842558 11662 net.cpp:425] pool4/3x3_s2_pool4/3x3_s2_0_split <- pool4/3x3_s2
I0403 15:09:43.842576 11662 net.cpp:399] pool4/3x3_s2_pool4/3x3_s2_0_split -> pool4/3x3_s2_pool4/3x3_s2_0_split_0
I0403 15:09:43.842598 11662 net.cpp:399] pool4/3x3_s2_pool4/3x3_s2_0_split -> pool4/3x3_s2_pool4/3x3_s2_0_split_1
I0403 15:09:43.842620 11662 net.cpp:399] pool4/3x3_s2_pool4/3x3_s2_0_split -> pool4/3x3_s2_pool4/3x3_s2_0_split_2
I0403 15:09:43.842639 11662 net.cpp:399] pool4/3x3_s2_pool4/3x3_s2_0_split -> pool4/3x3_s2_pool4/3x3_s2_0_split_3
I0403 15:09:43.842733 11662 net.cpp:141] Setting up pool4/3x3_s2_pool4/3x3_s2_0_split
I0403 15:09:43.842757 11662 net.cpp:148] Top shape: 24 832 7 7 (978432)
I0403 15:09:43.842772 11662 net.cpp:148] Top shape: 24 832 7 7 (978432)
I0403 15:09:43.842788 11662 net.cpp:148] Top shape: 24 832 7 7 (978432)
I0403 15:09:43.842803 11662 net.cpp:148] Top shape: 24 832 7 7 (978432)
I0403 15:09:43.842818 11662 net.cpp:156] Memory required for data: 1292125728
I0403 15:09:43.842831 11662 layer_factory.hpp:77] Creating layer inception_5a/1x1
I0403 15:09:43.842854 11662 net.cpp:91] Creating Layer inception_5a/1x1
I0403 15:09:43.842874 11662 net.cpp:425] inception_5a/1x1 <- pool4/3x3_s2_pool4/3x3_s2_0_split_0
I0403 15:09:43.842892 11662 net.cpp:399] inception_5a/1x1 -> inception_5a/1x1
I0403 15:09:43.845844 11662 net.cpp:141] Setting up inception_5a/1x1
I0403 15:09:43.845873 11662 net.cpp:148] Top shape: 24 256 7 7 (301056)
I0403 15:09:43.845888 11662 net.cpp:156] Memory required for data: 1293329952
I0403 15:09:43.845906 11662 layer_factory.hpp:77] Creating layer inception_5a/relu_1x1
I0403 15:09:43.845927 11662 net.cpp:91] Creating Layer inception_5a/relu_1x1
I0403 15:09:43.845944 11662 net.cpp:425] inception_5a/relu_1x1 <- inception_5a/1x1
I0403 15:09:43.845963 11662 net.cpp:386] inception_5a/relu_1x1 -> inception_5a/1x1 (in-place)
I0403 15:09:43.846285 11662 net.cpp:141] Setting up inception_5a/relu_1x1
I0403 15:09:43.846331 11662 net.cpp:148] Top shape: 24 256 7 7 (301056)
I0403 15:09:43.846349 11662 net.cpp:156] Memory required for data: 1294534176
I0403 15:09:43.846364 11662 layer_factory.hpp:77] Creating layer inception_5a/3x3_reduce
I0403 15:09:43.846390 11662 net.cpp:91] Creating Layer inception_5a/3x3_reduce
I0403 15:09:43.846407 11662 net.cpp:425] inception_5a/3x3_reduce <- pool4/3x3_s2_pool4/3x3_s2_0_split_1
I0403 15:09:43.846428 11662 net.cpp:399] inception_5a/3x3_reduce -> inception_5a/3x3_reduce
I0403 15:09:43.848979 11662 net.cpp:141] Setting up inception_5a/3x3_reduce
I0403 15:09:43.849009 11662 net.cpp:148] Top shape: 24 160 7 7 (188160)
I0403 15:09:43.849025 11662 net.cpp:156] Memory required for data: 1295286816
I0403 15:09:43.849043 11662 layer_factory.hpp:77] Creating layer inception_5a/relu_3x3_reduce
I0403 15:09:43.849066 11662 net.cpp:91] Creating Layer inception_5a/relu_3x3_reduce
I0403 15:09:43.849083 11662 net.cpp:425] inception_5a/relu_3x3_reduce <- inception_5a/3x3_reduce
I0403 15:09:43.849100 11662 net.cpp:386] inception_5a/relu_3x3_reduce -> inception_5a/3x3_reduce (in-place)
I0403 15:09:43.849293 11662 net.cpp:141] Setting up inception_5a/relu_3x3_reduce
I0403 15:09:43.849326 11662 net.cpp:148] Top shape: 24 160 7 7 (188160)
I0403 15:09:43.849342 11662 net.cpp:156] Memory required for data: 1296039456
I0403 15:09:43.849359 11662 layer_factory.hpp:77] Creating layer inception_5a/3x3
I0403 15:09:43.849383 11662 net.cpp:91] Creating Layer inception_5a/3x3
I0403 15:09:43.849402 11662 net.cpp:425] inception_5a/3x3 <- inception_5a/3x3_reduce
I0403 15:09:43.849421 11662 net.cpp:399] inception_5a/3x3 -> inception_5a/3x3
I0403 15:09:43.854713 11662 net.cpp:141] Setting up inception_5a/3x3
I0403 15:09:43.854746 11662 net.cpp:148] Top shape: 24 320 7 7 (376320)
I0403 15:09:43.854764 11662 net.cpp:156] Memory required for data: 1297544736
I0403 15:09:43.854784 11662 layer_factory.hpp:77] Creating layer inception_5a/relu_3x3
I0403 15:09:43.854804 11662 net.cpp:91] Creating Layer inception_5a/relu_3x3
I0403 15:09:43.854820 11662 net.cpp:425] inception_5a/relu_3x3 <- inception_5a/3x3
I0403 15:09:43.854838 11662 net.cpp:386] inception_5a/relu_3x3 -> inception_5a/3x3 (in-place)
I0403 15:09:43.855147 11662 net.cpp:141] Setting up inception_5a/relu_3x3
I0403 15:09:43.855177 11662 net.cpp:148] Top shape: 24 320 7 7 (376320)
I0403 15:09:43.855195 11662 net.cpp:156] Memory required for data: 1299050016
I0403 15:09:43.855211 11662 layer_factory.hpp:77] Creating layer inception_5a/5x5_reduce
I0403 15:09:43.855232 11662 net.cpp:91] Creating Layer inception_5a/5x5_reduce
I0403 15:09:43.855249 11662 net.cpp:425] inception_5a/5x5_reduce <- pool4/3x3_s2_pool4/3x3_s2_0_split_2
I0403 15:09:43.855271 11662 net.cpp:399] inception_5a/5x5_reduce -> inception_5a/5x5_reduce
I0403 15:09:43.856528 11662 net.cpp:141] Setting up inception_5a/5x5_reduce
I0403 15:09:43.856561 11662 net.cpp:148] Top shape: 24 32 7 7 (37632)
I0403 15:09:43.856580 11662 net.cpp:156] Memory required for data: 1299200544
I0403 15:09:43.856598 11662 layer_factory.hpp:77] Creating layer inception_5a/relu_5x5_reduce
I0403 15:09:43.856616 11662 net.cpp:91] Creating Layer inception_5a/relu_5x5_reduce
I0403 15:09:43.856633 11662 net.cpp:425] inception_5a/relu_5x5_reduce <- inception_5a/5x5_reduce
I0403 15:09:43.856653 11662 net.cpp:386] inception_5a/relu_5x5_reduce -> inception_5a/5x5_reduce (in-place)
I0403 15:09:43.856971 11662 net.cpp:141] Setting up inception_5a/relu_5x5_reduce
I0403 15:09:43.857025 11662 net.cpp:148] Top shape: 24 32 7 7 (37632)
I0403 15:09:43.857043 11662 net.cpp:156] Memory required for data: 1299351072
I0403 15:09:43.857060 11662 layer_factory.hpp:77] Creating layer inception_5a/5x5
I0403 15:09:43.857084 11662 net.cpp:91] Creating Layer inception_5a/5x5
I0403 15:09:43.857103 11662 net.cpp:425] inception_5a/5x5 <- inception_5a/5x5_reduce
I0403 15:09:43.857123 11662 net.cpp:399] inception_5a/5x5 -> inception_5a/5x5
I0403 15:09:43.858916 11662 net.cpp:141] Setting up inception_5a/5x5
I0403 15:09:43.858958 11662 net.cpp:148] Top shape: 24 128 7 7 (150528)
I0403 15:09:43.858976 11662 net.cpp:156] Memory required for data: 1299953184
I0403 15:09:43.858995 11662 layer_factory.hpp:77] Creating layer inception_5a/relu_5x5
I0403 15:09:43.859014 11662 net.cpp:91] Creating Layer inception_5a/relu_5x5
I0403 15:09:43.859030 11662 net.cpp:425] inception_5a/relu_5x5 <- inception_5a/5x5
I0403 15:09:43.859048 11662 net.cpp:386] inception_5a/relu_5x5 -> inception_5a/5x5 (in-place)
I0403 15:09:43.859246 11662 net.cpp:141] Setting up inception_5a/relu_5x5
I0403 15:09:43.859272 11662 net.cpp:148] Top shape: 24 128 7 7 (150528)
I0403 15:09:43.859288 11662 net.cpp:156] Memory required for data: 1300555296
I0403 15:09:43.859304 11662 layer_factory.hpp:77] Creating layer inception_5a/pool
I0403 15:09:43.859328 11662 net.cpp:91] Creating Layer inception_5a/pool
I0403 15:09:43.859345 11662 net.cpp:425] inception_5a/pool <- pool4/3x3_s2_pool4/3x3_s2_0_split_3
I0403 15:09:43.859366 11662 net.cpp:399] inception_5a/pool -> inception_5a/pool
I0403 15:09:43.859439 11662 net.cpp:141] Setting up inception_5a/pool
I0403 15:09:43.859465 11662 net.cpp:148] Top shape: 24 832 7 7 (978432)
I0403 15:09:43.859482 11662 net.cpp:156] Memory required for data: 1304469024
I0403 15:09:43.859496 11662 layer_factory.hpp:77] Creating layer inception_5a/pool_proj
I0403 15:09:43.859516 11662 net.cpp:91] Creating Layer inception_5a/pool_proj
I0403 15:09:43.859532 11662 net.cpp:425] inception_5a/pool_proj <- inception_5a/pool
I0403 15:09:43.859554 11662 net.cpp:399] inception_5a/pool_proj -> inception_5a/pool_proj
I0403 15:09:43.861912 11662 net.cpp:141] Setting up inception_5a/pool_proj
I0403 15:09:43.861942 11662 net.cpp:148] Top shape: 24 128 7 7 (150528)
I0403 15:09:43.861958 11662 net.cpp:156] Memory required for data: 1305071136
I0403 15:09:43.861977 11662 layer_factory.hpp:77] Creating layer inception_5a/relu_pool_proj
I0403 15:09:43.862000 11662 net.cpp:91] Creating Layer inception_5a/relu_pool_proj
I0403 15:09:43.862018 11662 net.cpp:425] inception_5a/relu_pool_proj <- inception_5a/pool_proj
I0403 15:09:43.862036 11662 net.cpp:386] inception_5a/relu_pool_proj -> inception_5a/pool_proj (in-place)
I0403 15:09:43.862352 11662 net.cpp:141] Setting up inception_5a/relu_pool_proj
I0403 15:09:43.862380 11662 net.cpp:148] Top shape: 24 128 7 7 (150528)
I0403 15:09:43.862396 11662 net.cpp:156] Memory required for data: 1305673248
I0403 15:09:43.862411 11662 layer_factory.hpp:77] Creating layer inception_5a/output
I0403 15:09:43.862431 11662 net.cpp:91] Creating Layer inception_5a/output
I0403 15:09:43.862447 11662 net.cpp:425] inception_5a/output <- inception_5a/1x1
I0403 15:09:43.862464 11662 net.cpp:425] inception_5a/output <- inception_5a/3x3
I0403 15:09:43.862480 11662 net.cpp:425] inception_5a/output <- inception_5a/5x5
I0403 15:09:43.862496 11662 net.cpp:425] inception_5a/output <- inception_5a/pool_proj
I0403 15:09:43.862514 11662 net.cpp:399] inception_5a/output -> inception_5a/output
I0403 15:09:43.862566 11662 net.cpp:141] Setting up inception_5a/output
I0403 15:09:43.862591 11662 net.cpp:148] Top shape: 24 832 7 7 (978432)
I0403 15:09:43.862606 11662 net.cpp:156] Memory required for data: 1309586976
I0403 15:09:43.862620 11662 layer_factory.hpp:77] Creating layer inception_5a/output_inception_5a/output_0_split
I0403 15:09:43.862637 11662 net.cpp:91] Creating Layer inception_5a/output_inception_5a/output_0_split
I0403 15:09:43.862653 11662 net.cpp:425] inception_5a/output_inception_5a/output_0_split <- inception_5a/output
I0403 15:09:43.862673 11662 net.cpp:399] inception_5a/output_inception_5a/output_0_split -> inception_5a/output_inception_5a/output_0_split_0
I0403 15:09:43.862694 11662 net.cpp:399] inception_5a/output_inception_5a/output_0_split -> inception_5a/output_inception_5a/output_0_split_1
I0403 15:09:43.862715 11662 net.cpp:399] inception_5a/output_inception_5a/output_0_split -> inception_5a/output_inception_5a/output_0_split_2
I0403 15:09:43.862735 11662 net.cpp:399] inception_5a/output_inception_5a/output_0_split -> inception_5a/output_inception_5a/output_0_split_3
I0403 15:09:43.862849 11662 net.cpp:141] Setting up inception_5a/output_inception_5a/output_0_split
I0403 15:09:43.862876 11662 net.cpp:148] Top shape: 24 832 7 7 (978432)
I0403 15:09:43.862895 11662 net.cpp:148] Top shape: 24 832 7 7 (978432)
I0403 15:09:43.862911 11662 net.cpp:148] Top shape: 24 832 7 7 (978432)
I0403 15:09:43.862926 11662 net.cpp:148] Top shape: 24 832 7 7 (978432)
I0403 15:09:43.862941 11662 net.cpp:156] Memory required for data: 1325241888
I0403 15:09:43.862956 11662 layer_factory.hpp:77] Creating layer inception_5b/1x1
I0403 15:09:43.862977 11662 net.cpp:91] Creating Layer inception_5b/1x1
I0403 15:09:43.862995 11662 net.cpp:425] inception_5b/1x1 <- inception_5a/output_inception_5a/output_0_split_0
I0403 15:09:43.863013 11662 net.cpp:399] inception_5b/1x1 -> inception_5b/1x1
I0403 15:09:43.866971 11662 net.cpp:141] Setting up inception_5b/1x1
I0403 15:09:43.867002 11662 net.cpp:148] Top shape: 24 384 7 7 (451584)
I0403 15:09:43.867018 11662 net.cpp:156] Memory required for data: 1327048224
I0403 15:09:43.867038 11662 layer_factory.hpp:77] Creating layer inception_5b/relu_1x1
I0403 15:09:43.867059 11662 net.cpp:91] Creating Layer inception_5b/relu_1x1
I0403 15:09:43.867077 11662 net.cpp:425] inception_5b/relu_1x1 <- inception_5b/1x1
I0403 15:09:43.867094 11662 net.cpp:386] inception_5b/relu_1x1 -> inception_5b/1x1 (in-place)
I0403 15:09:43.867419 11662 net.cpp:141] Setting up inception_5b/relu_1x1
I0403 15:09:43.867445 11662 net.cpp:148] Top shape: 24 384 7 7 (451584)
I0403 15:09:43.867461 11662 net.cpp:156] Memory required for data: 1328854560
I0403 15:09:43.867476 11662 layer_factory.hpp:77] Creating layer inception_5b/3x3_reduce
I0403 15:09:43.867499 11662 net.cpp:91] Creating Layer inception_5b/3x3_reduce
I0403 15:09:43.867518 11662 net.cpp:425] inception_5b/3x3_reduce <- inception_5a/output_inception_5a/output_0_split_1
I0403 15:09:43.867540 11662 net.cpp:399] inception_5b/3x3_reduce -> inception_5b/3x3_reduce
I0403 15:09:43.870347 11662 net.cpp:141] Setting up inception_5b/3x3_reduce
I0403 15:09:43.870378 11662 net.cpp:148] Top shape: 24 192 7 7 (225792)
I0403 15:09:43.870393 11662 net.cpp:156] Memory required for data: 1329757728
I0403 15:09:43.870412 11662 layer_factory.hpp:77] Creating layer inception_5b/relu_3x3_reduce
I0403 15:09:43.870434 11662 net.cpp:91] Creating Layer inception_5b/relu_3x3_reduce
I0403 15:09:43.870451 11662 net.cpp:425] inception_5b/relu_3x3_reduce <- inception_5b/3x3_reduce
I0403 15:09:43.870468 11662 net.cpp:386] inception_5b/relu_3x3_reduce -> inception_5b/3x3_reduce (in-place)
I0403 15:09:43.870666 11662 net.cpp:141] Setting up inception_5b/relu_3x3_reduce
I0403 15:09:43.870693 11662 net.cpp:148] Top shape: 24 192 7 7 (225792)
I0403 15:09:43.870709 11662 net.cpp:156] Memory required for data: 1330660896
I0403 15:09:43.870724 11662 layer_factory.hpp:77] Creating layer inception_5b/3x3
I0403 15:09:43.870746 11662 net.cpp:91] Creating Layer inception_5b/3x3
I0403 15:09:43.870764 11662 net.cpp:425] inception_5b/3x3 <- inception_5b/3x3_reduce
I0403 15:09:43.870784 11662 net.cpp:399] inception_5b/3x3 -> inception_5b/3x3
I0403 15:09:43.877758 11662 net.cpp:141] Setting up inception_5b/3x3
I0403 15:09:43.877789 11662 net.cpp:148] Top shape: 24 384 7 7 (451584)
I0403 15:09:43.877804 11662 net.cpp:156] Memory required for data: 1332467232
I0403 15:09:43.877823 11662 layer_factory.hpp:77] Creating layer inception_5b/relu_3x3
I0403 15:09:43.877845 11662 net.cpp:91] Creating Layer inception_5b/relu_3x3
I0403 15:09:43.877861 11662 net.cpp:425] inception_5b/relu_3x3 <- inception_5b/3x3
I0403 15:09:43.877879 11662 net.cpp:386] inception_5b/relu_3x3 -> inception_5b/3x3 (in-place)
I0403 15:09:43.878190 11662 net.cpp:141] Setting up inception_5b/relu_3x3
I0403 15:09:43.878217 11662 net.cpp:148] Top shape: 24 384 7 7 (451584)
I0403 15:09:43.878232 11662 net.cpp:156] Memory required for data: 1334273568
I0403 15:09:43.878247 11662 layer_factory.hpp:77] Creating layer inception_5b/5x5_reduce
I0403 15:09:43.878288 11662 net.cpp:91] Creating Layer inception_5b/5x5_reduce
I0403 15:09:43.878307 11662 net.cpp:425] inception_5b/5x5_reduce <- inception_5a/output_inception_5a/output_0_split_2
I0403 15:09:43.878339 11662 net.cpp:399] inception_5b/5x5_reduce -> inception_5b/5x5_reduce
I0403 15:09:43.879663 11662 net.cpp:141] Setting up inception_5b/5x5_reduce
I0403 15:09:43.879691 11662 net.cpp:148] Top shape: 24 48 7 7 (56448)
I0403 15:09:43.879708 11662 net.cpp:156] Memory required for data: 1334499360
I0403 15:09:43.879725 11662 layer_factory.hpp:77] Creating layer inception_5b/relu_5x5_reduce
I0403 15:09:43.879746 11662 net.cpp:91] Creating Layer inception_5b/relu_5x5_reduce
I0403 15:09:43.879765 11662 net.cpp:425] inception_5b/relu_5x5_reduce <- inception_5b/5x5_reduce
I0403 15:09:43.879782 11662 net.cpp:386] inception_5b/relu_5x5_reduce -> inception_5b/5x5_reduce (in-place)
I0403 15:09:43.880170 11662 net.cpp:141] Setting up inception_5b/relu_5x5_reduce
I0403 15:09:43.880198 11662 net.cpp:148] Top shape: 24 48 7 7 (56448)
I0403 15:09:43.880213 11662 net.cpp:156] Memory required for data: 1334725152
I0403 15:09:43.880228 11662 layer_factory.hpp:77] Creating layer inception_5b/5x5
I0403 15:09:43.880249 11662 net.cpp:91] Creating Layer inception_5b/5x5
I0403 15:09:43.880265 11662 net.cpp:425] inception_5b/5x5 <- inception_5b/5x5_reduce
I0403 15:09:43.880285 11662 net.cpp:399] inception_5b/5x5 -> inception_5b/5x5
I0403 15:09:43.882458 11662 net.cpp:141] Setting up inception_5b/5x5
I0403 15:09:43.882488 11662 net.cpp:148] Top shape: 24 128 7 7 (150528)
I0403 15:09:43.882503 11662 net.cpp:156] Memory required for data: 1335327264
I0403 15:09:43.882521 11662 layer_factory.hpp:77] Creating layer inception_5b/relu_5x5
I0403 15:09:43.882542 11662 net.cpp:91] Creating Layer inception_5b/relu_5x5
I0403 15:09:43.882560 11662 net.cpp:425] inception_5b/relu_5x5 <- inception_5b/5x5
I0403 15:09:43.882577 11662 net.cpp:386] inception_5b/relu_5x5 -> inception_5b/5x5 (in-place)
I0403 15:09:43.882781 11662 net.cpp:141] Setting up inception_5b/relu_5x5
I0403 15:09:43.882807 11662 net.cpp:148] Top shape: 24 128 7 7 (150528)
I0403 15:09:43.882820 11662 net.cpp:156] Memory required for data: 1335929376
I0403 15:09:43.882835 11662 layer_factory.hpp:77] Creating layer inception_5b/pool
I0403 15:09:43.882854 11662 net.cpp:91] Creating Layer inception_5b/pool
I0403 15:09:43.882870 11662 net.cpp:425] inception_5b/pool <- inception_5a/output_inception_5a/output_0_split_3
I0403 15:09:43.882891 11662 net.cpp:399] inception_5b/pool -> inception_5b/pool
I0403 15:09:43.882967 11662 net.cpp:141] Setting up inception_5b/pool
I0403 15:09:43.882992 11662 net.cpp:148] Top shape: 24 832 7 7 (978432)
I0403 15:09:43.883005 11662 net.cpp:156] Memory required for data: 1339843104
I0403 15:09:43.883020 11662 layer_factory.hpp:77] Creating layer inception_5b/pool_proj
I0403 15:09:43.883044 11662 net.cpp:91] Creating Layer inception_5b/pool_proj
I0403 15:09:43.883061 11662 net.cpp:425] inception_5b/pool_proj <- inception_5b/pool
I0403 15:09:43.883081 11662 net.cpp:399] inception_5b/pool_proj -> inception_5b/pool_proj
I0403 15:09:43.885493 11662 net.cpp:141] Setting up inception_5b/pool_proj
I0403 15:09:43.885522 11662 net.cpp:148] Top shape: 24 128 7 7 (150528)
I0403 15:09:43.885540 11662 net.cpp:156] Memory required for data: 1340445216
I0403 15:09:43.885558 11662 layer_factory.hpp:77] Creating layer inception_5b/relu_pool_proj
I0403 15:09:43.885578 11662 net.cpp:91] Creating Layer inception_5b/relu_pool_proj
I0403 15:09:43.885596 11662 net.cpp:425] inception_5b/relu_pool_proj <- inception_5b/pool_proj
I0403 15:09:43.885613 11662 net.cpp:386] inception_5b/relu_pool_proj -> inception_5b/pool_proj (in-place)
I0403 15:09:43.885921 11662 net.cpp:141] Setting up inception_5b/relu_pool_proj
I0403 15:09:43.885948 11662 net.cpp:148] Top shape: 24 128 7 7 (150528)
I0403 15:09:43.885963 11662 net.cpp:156] Memory required for data: 1341047328
I0403 15:09:43.885978 11662 layer_factory.hpp:77] Creating layer inception_5b/output
I0403 15:09:43.885998 11662 net.cpp:91] Creating Layer inception_5b/output
I0403 15:09:43.886029 11662 net.cpp:425] inception_5b/output <- inception_5b/1x1
I0403 15:09:43.886047 11662 net.cpp:425] inception_5b/output <- inception_5b/3x3
I0403 15:09:43.886065 11662 net.cpp:425] inception_5b/output <- inception_5b/5x5
I0403 15:09:43.886080 11662 net.cpp:425] inception_5b/output <- inception_5b/pool_proj
I0403 15:09:43.886098 11662 net.cpp:399] inception_5b/output -> inception_5b/output
I0403 15:09:43.886153 11662 net.cpp:141] Setting up inception_5b/output
I0403 15:09:43.886178 11662 net.cpp:148] Top shape: 24 1024 7 7 (1204224)
I0403 15:09:43.886193 11662 net.cpp:156] Memory required for data: 1345864224
I0403 15:09:43.886207 11662 layer_factory.hpp:77] Creating layer pool5/7x7_s1
I0403 15:09:43.886225 11662 net.cpp:91] Creating Layer pool5/7x7_s1
I0403 15:09:43.886242 11662 net.cpp:425] pool5/7x7_s1 <- inception_5b/output
I0403 15:09:43.886266 11662 net.cpp:399] pool5/7x7_s1 -> pool5/7x7_s1
I0403 15:09:43.886497 11662 net.cpp:141] Setting up pool5/7x7_s1
I0403 15:09:43.886526 11662 net.cpp:148] Top shape: 24 1024 1 1 (24576)
I0403 15:09:43.886543 11662 net.cpp:156] Memory required for data: 1345962528
I0403 15:09:43.886556 11662 layer_factory.hpp:77] Creating layer pool5/drop_7x7_s1
I0403 15:09:43.886574 11662 net.cpp:91] Creating Layer pool5/drop_7x7_s1
I0403 15:09:43.886591 11662 net.cpp:425] pool5/drop_7x7_s1 <- pool5/7x7_s1
I0403 15:09:43.886610 11662 net.cpp:386] pool5/drop_7x7_s1 -> pool5/7x7_s1 (in-place)
I0403 15:09:43.886662 11662 net.cpp:141] Setting up pool5/drop_7x7_s1
I0403 15:09:43.886685 11662 net.cpp:148] Top shape: 24 1024 1 1 (24576)
I0403 15:09:43.886700 11662 net.cpp:156] Memory required for data: 1346060832
I0403 15:09:43.886715 11662 layer_factory.hpp:77] Creating layer loss3/classifier_plantvillage
I0403 15:09:43.886736 11662 net.cpp:91] Creating Layer loss3/classifier_plantvillage
I0403 15:09:43.886754 11662 net.cpp:425] loss3/classifier_plantvillage <- pool5/7x7_s1
I0403 15:09:43.886772 11662 net.cpp:399] loss3/classifier_plantvillage -> loss3/classifier_plantvillage
I0403 15:09:43.887214 11662 net.cpp:141] Setting up loss3/classifier_plantvillage
I0403 15:09:43.887239 11662 net.cpp:148] Top shape: 24 38 (912)
I0403 15:09:43.887254 11662 net.cpp:156] Memory required for data: 1346064480
I0403 15:09:43.887272 11662 layer_factory.hpp:77] Creating layer loss3/classifier_plantvillage_loss3/classifier_plantvillage_0_split
I0403 15:09:43.887291 11662 net.cpp:91] Creating Layer loss3/classifier_plantvillage_loss3/classifier_plantvillage_0_split
I0403 15:09:43.887307 11662 net.cpp:425] loss3/classifier_plantvillage_loss3/classifier_plantvillage_0_split <- loss3/classifier_plantvillage
I0403 15:09:43.887351 11662 net.cpp:399] loss3/classifier_plantvillage_loss3/classifier_plantvillage_0_split -> loss3/classifier_plantvillage_loss3/classifier_plantvillage_0_split_0
I0403 15:09:43.887375 11662 net.cpp:399] loss3/classifier_plantvillage_loss3/classifier_plantvillage_0_split -> loss3/classifier_plantvillage_loss3/classifier_plantvillage_0_split_1
I0403 15:09:43.887405 11662 net.cpp:399] loss3/classifier_plantvillage_loss3/classifier_plantvillage_0_split -> loss3/classifier_plantvillage_loss3/classifier_plantvillage_0_split_2
I0403 15:09:43.887426 11662 net.cpp:399] loss3/classifier_plantvillage_loss3/classifier_plantvillage_0_split -> loss3/classifier_plantvillage_loss3/classifier_plantvillage_0_split_3
I0403 15:09:43.887536 11662 net.cpp:141] Setting up loss3/classifier_plantvillage_loss3/classifier_plantvillage_0_split
I0403 15:09:43.887563 11662 net.cpp:148] Top shape: 24 38 (912)
I0403 15:09:43.887581 11662 net.cpp:148] Top shape: 24 38 (912)
I0403 15:09:43.887596 11662 net.cpp:148] Top shape: 24 38 (912)
I0403 15:09:43.887612 11662 net.cpp:148] Top shape: 24 38 (912)
I0403 15:09:43.887626 11662 net.cpp:156] Memory required for data: 1346079072
I0403 15:09:43.887640 11662 layer_factory.hpp:77] Creating layer loss1/loss
I0403 15:09:43.887662 11662 net.cpp:91] Creating Layer loss1/loss
I0403 15:09:43.887691 11662 net.cpp:425] loss1/loss <- loss1/classifier_plantvillage_loss1/classifier_plantvillage_0_split_0
I0403 15:09:43.887723 11662 net.cpp:425] loss1/loss <- label_data_1_split_0
…
